…
        min_scale: 0.3
        max_scale: 1
        min_aspect_ratio: 0.5
        max_aspect_ratio: 2
      }
      sample_constraint {
        min_jaccard_overlap: 0.9
      }
      max_sample: 1
      max_trials: 50
    }
    batch_sampler {
      sampler {
        min_scale: 0.3
        max_scale: 1
        min_aspect_ratio: 0.5
        max_aspect_ratio: 2
      }
      sample_constraint {
        max_jaccard_overlap: 1
      }
      max_sample: 1
      max_trials: 50
    }
    label_map_file: "data/BodyFaceHandRegions/labelmap_voc.prototxt"
  }
}
layer {
  name: "conv1"
  type: "Convolution"
  bottom: "data"
  top: "conv1"
  param {
    lr_mult: 1
    decay_mult: 1
  }
  convolution_param {
    num_output: 32
    bias_term: false
    pad: 1
    kernel_size: 3
    group: 1
    stride: 2
    weight_filler {
      type: "gaussian"
      std: 0.01
    }
    engine: DEFAULT
  }
}
layer {
  name: "conv1/bn"
  type: "BatchNorm"
  bottom: "conv1"
  top: "conv1"
  batch_norm_param {
    moving_average_fraction: 0.999
    eps: 0.001
  }
}
layer {
  name: "conv1/scale"
  type: "Scale"
  bottom: "conv1"
  top: "conv1"
  param {
    lr_mult: 1
    decay_mult: 0
  }
  param {
    lr_mult: 1
    decay_mult: 0
  }
  scale_param {
    filler {
      type: "constant"
      value: 1
    }
    bias_term: true
    bias_filler {
      type: "constant"
      value: 0
    }
  }
}
layer {
  name: "conv1_relu"
  type: "ReLU"
  bottom: "conv1"
  top: "conv1"
}
layer {
  name: "conv2_1/dw"
  type: "Convolution"
  bottom: "conv1"
  top: "conv2_1/dw"
  param {
    lr_mult: 1
    decay_mult: 1
  }
  convolution_param {
    num_output: 32
    bias_term: false
    pad: 1
    kernel_size: 3
    group: 32
    stride: 1
    weight_filler {
      type: "gaussian"
      std: 0.01
    }
    engine: CAFFE
  }
}
layer {
  name: "conv2_1/dw/bn"
  type: "BatchNorm"
  bottom: "conv2_1/dw"
  top: "conv2_1/dw"
  batch_norm_param {
    moving_average_fraction: 0.999
    eps: 0.001
  }
}
layer {
  name: "conv2_1/dw/scale"
  type: "Scale"
  bottom: "conv2_1/dw"
  top: "conv2_1/dw"
  param {
    lr_mult: 1
    decay_mult: 0
  }
  param {
    lr_mult: 1
    decay_mult: 0
  }
  scale_param {
    filler {
      type: "constant"
      value: 1
    }
    bias_term: true
    bias_filler {
      type: "constant"
      value: 0
    }
  }
}
layer {
  name: "conv2_1/dw_relu"
  type: "ReLU"
  bottom: "conv2_1/dw"
  top: "conv2_1/dw"
}
layer {
  name: "conv2_1/sep"
  type: "Convolution"
  bottom: "conv2_1/dw"
  top: "conv2_1/sep"
  param {
    lr_mult: 1
    decay_mult: 1
  }
  convolution_param {
    num_output: 64
    bias_term: false
    pad: 0
    kernel_size: 1
    group: 1
    stride: 1
    weight_filler {
      type: "gaussian"
      std: 0.01
    }
    engine: DEFAULT
  }
}
layer {
  name: "conv2_1/sep/bn"
  type: "BatchNorm"
  bottom: "conv2_1/sep"
  top: "conv2_1/sep"
  batch_norm_param {
    moving_average_fraction: 0.999
    eps: 0.001
  }
}
layer {
  name: "conv2_1/sep/scale"
  type: "Scale"
  bottom: "conv2_1/sep"
  top: "conv2_1/sep"
  param {
    lr_mult: 1
    decay_mult: 0
  }
  param {
    lr_mult: 1
    decay_mult: 0
  }
  scale_param {
    filler {
      type: "constant"
      value: 1
    }
    bias_term: true
    bias_filler {
      type: "constant"
      value: 0
    }
  }
}
layer {
  name: "conv2_1/sep_relu"
  type: "ReLU"
  bottom: "conv2_1/sep"
  top: "conv2_1/sep"
}
layer {
  name: "conv2_2/dw"
  type: "Convolution"
  bottom: "conv2_1/sep"
  top: "conv2_2/dw"
  param {
    lr_mult: 1
    decay_mult: 1
  }
  convolution_param {
    num_output: 64
    bias_term: false
    pad: 1
    kernel_size: 3
    group: 64
    stride: 2
    weight_filler {
      type: "gaussian"
      std: 0.01
    }
    engine: CAFFE
  }
}
layer {
  name: "conv2_2/dw/bn"
  type: "BatchNorm"
  bottom: "conv2_2/dw"
  top: "conv2_2/dw"
  batch_norm_param {
    moving_average_fraction: 0.999
    eps: 0.001
  }
}
layer {
  name: "conv2_2/dw/scale"
  type: "Scale"
  bottom: "conv2_2/dw"
  top: "conv2_2/dw"
  param {
    lr_mult: 1
    decay_mult: 0
  }
  param {
    lr_mult: 1
    decay_mult: 0
  }
  scale_param {
    filler {
      type: "constant"
      value: 1
    }
    bias_term: true
    bias_filler {
      type: "constant"
      value: 0
    }
  }
}
layer {
  name: "conv2_2/dw_relu"
  type: "ReLU"
  bottom: "conv2_2/dw"
  top: "conv2_2/dw"
}
layer {
  name: "conv2_2/sep"
  type: "Convolution"
  bottom: "conv2_2/dw"
  top: "conv2_2/sep"
  param {
    lr_mult: 1
    decay_mult: 1
  }
  convolution_param {
    num_output: 128
    bias_term: false
    pad: 0
    kernel_size: 1
    group: 1
    stride: 1
    weight_filler {
      type: "gaussian"
      std: 0.01
    }
    engine: DEFAULT
  }
}
layer {
  name: "conv2_2/sep/bn"
  type: "BatchNorm"
  bottom: "conv2_2/sep"
  top: "conv2_2/sep"
  batch_norm_param {
    moving_average_fraction: 0.999
    eps: 0.001
  }
}
layer {
  name: "conv2_2/sep/scale"
  type: "Scale"
  bottom: "conv2_2/sep"
  top: "conv2_2/sep"
  param {
    lr_mult: 1
    decay_mult: 0
  }
  param {
    lr_mult: 1
    decay_mult: 0
  }
  scale_param {
    filler {
      type: "constant"
      value: 1
    }
    bias_term: true
    bias_filler {
      type: "constant"
      value: 0
    }
  }
}
layer {
  name: "conv2_2/sep_relu"
  type: "ReLU"
  bottom: "conv2_2/sep"
  top: "conv2_2/sep"
}
layer {
  name: "conv3_1/dw"
  type: "Convolution"
  bottom: "conv2_2/sep"
  top: "conv3_1/dw"
  param {
    lr_mult: 1
    decay_mult: 1
  }
  convolution_param {
    num_output: 128
    bias_term: false
    pad: 1
    kernel_size: 3
    group: 128
    stride: 1
    weight_filler {
      type: "gaussian"
      std: 0.01
    }
    engine: CAFFE
  }
}
layer {
  name: "conv3_1/dw/bn"
  type: "BatchNorm"
  bottom: "conv3_1/dw"
  top: "conv3_1/dw"
  batch_norm_param {
    moving_average_fraction: 0.999
    eps: 0.001
  }
}
layer {
  name: "conv3_1/dw/scale"
  type: "Scale"
  bottom: "conv3_1/dw"
  top: "conv3_1/dw"
  param {
    lr_mult: 1
    decay_mult: 0
  }
  param {
    lr_mult: 1
    decay_mult: 0
  }
  scale_param {
    filler {
      type: "constant"
      value: 1
    }
    bias_term: true
    bias_filler {
      type: "constant"
      value: 0
    }
  }
}
layer {
  name: "conv3_1/dw_relu"
  type: "ReLU"
  bottom: "conv3_1/dw"
  top: "conv3_1/dw"
}
layer {
  name: "conv3_1/sep"
  type: "Convolution"
  bottom: "conv3_1/dw"
  top: "conv3_1/sep"
  param {
    lr_mult: 1
    decay_mult: 1
  }
  convolution_param {
    num_output: 128
    bias_term: false
    pad: 0
    kernel_size: 1
    group: 1
    stride: 1
    weight_filler {
      type: "gaussian"
      std: 0.01
    }
    engine: DEFAULT
  }
}
layer {
  name: "conv3_1/sep/bn"
  type: "BatchNorm"
  bottom: "conv3_1/sep"
  top: "conv3_1/sep"
  batch_norm_param {
    moving_average_fraction: 0.999
    eps: 0.001
  }
}
layer {
  name: "conv3_1/sep/scale"
  type: "Scale"
  bottom: "conv3_1/sep"
  top: "conv3_1/sep"
  param {
    lr_mult: 1
    decay_mult: 0
  }
  param {
    lr_mult: 1
    decay_mult: 0
  }
  scale_param {
    filler {
      type: "constant"
      value: 1
    }
    bias_term: true
    bias_filler {
      type: "constant"
      value: 0
    }
  }
}
layer {
  name: "conv3_1/sep_relu"
  type: "ReLU"
  bottom: "conv3_1/sep"
  top: "conv3_1/sep"
}
layer {
  name: "conv3_2/dw"
  type: "Convolution"
  bottom: "conv3_1/sep"
  top: "conv3_2/dw"
  param {
    lr_mult: 1
    decay_mult: 1
  }
  convolution_param {
    num_output: 128
    bias_term: false
    pad: 1
    kernel_size: 3
    group: 128
    stride: 2
    weight_filler {
      type: "gaussian"
      std: 0.01
    }
    engine: CAFFE
  }
}
layer {
  name: "conv3_2/dw/bn"
  type: "BatchNorm"
  bottom: "conv3_2/dw"
  top: "conv3_2/dw"
  batch_norm_param {
    moving_average_fraction: 0.999
    eps: 0.001
  }
}
layer {
  name: "conv3_2/dw/scale"
  type: "Scale"
  bottom: "conv3_2/dw"
  top: "conv3_2/dw"
  param {
    lr_mult: 1
    decay_mult: 0
  }
  param {
    lr_mult: 1
    decay_mult: 0
  }
  scale_param {
    filler {
      type: "constant"
      value: 1
    }
    bias_term: true
    bias_filler {
      type: "constant"
      value: 0
    }
  }
}
layer {
  name: "conv3_2/dw_relu"
  type: "ReLU"
  bottom: "conv3_2/dw"
  top: "conv3_2/dw"
}
layer {
  name: "conv3_2/sep"
  type: "Convolution"
  bottom: "conv3_2/dw"
  top: "conv3_2/sep"
  param {
    lr_mult: 1
    decay_mult: 1
  }
  convolution_param {
    num_output: 256
    bias_term: false
    pad: 0
    kernel_size: 1
    group: 1
    stride: 1
    weight_filler {
      type: "gaussian"
      std: 0.01
    }
    engine: DEFAULT
  }
}
layer {
  name: "conv3_2/sep/bn"
  type: "BatchNorm"
  bottom: "conv3_2/sep"
  top: "conv3_2/sep"
  batch_norm_param {
    moving_average_fraction: 0.999
    eps: 0.001
  }
}
layer {
  name: "conv3_2/sep/scale"
  type: "Scale"
  bottom: "conv3_2/sep"
  top: "conv3_2/sep"
  param {
    lr_mult: 1
    decay_mult: 0
  }
  param {
    lr_mult: 1
    decay_mult: 0
  }
  scale_param {
    filler {
      type: "constant"
      value: 1
    }
    bias_term: true
    bias_filler {
      type: "constant"
      value: 0
    }
  }
}
layer {
  name: "conv3_2/sep_relu"
  type: "ReLU"
  bottom: "conv3_2/sep"
  top: "conv3_2/sep"
}
layer {
  name: "conv4_1/dw"
  type: "Convolution"
  bottom: "conv3_2/sep"
  top: "conv4_1/dw"
  param {
    lr_mult: 1
    decay_mult: 1
  }
  convolution_param {
    num_output: 256
    bias_term: false
    pad: 1
    kernel_size: 3
    group: 256
    stride: 1
    weight_filler {
      type: "gaussian"
      std: 0.01
    }
    engine: CAFFE
  }
}
layer {
  name: "conv4_1/dw/bn"
  type: "BatchNorm"
  bottom: "conv4_1/dw"
  top: "conv4_1/dw"
  batch_norm_param {
    moving_average_fraction: 0.999
    eps: 0.001
  }
}
layer {
  name: "conv4_1/dw/scale"
  type: "Scale"
  bottom: "conv4_1/dw"
  top: "conv4_1/dw"
  param {
    lr_mult: 1
    decay_mult: 0
  }
  param {
    lr_mult: 1
    decay_mult: 0
  }
  scale_param {
    filler {
      type: "constant"
      value: 1
    }
    bias_term: true
    bias_filler {
      type: "constant"
      value: 0
    }
  }
}
layer {
  name: "conv4_1/dw_relu"
  type: "ReLU"
  bottom: "conv4_1/dw"
  top: "conv4_1/dw"
}
layer {
  name: "conv4_1/sep"
  type: "Convolution"
  bottom: "conv4_1/dw"
  top: "conv4_1/sep"
  param {
    lr_mult: 1
    decay_mult: 1
  }
  convolution_param {
    num_output: 256
    bias_term: false
    pad: 0
    kernel_size: 1
    group: 1
    stride: 1
    weight_filler {
      type: "gaussian"
      std: 0.01
    }
    engine: DEFAULT
  }
}
layer {
  name: "conv4_1/sep/bn"
  type: "BatchNorm"
  bottom: "conv4_1/sep"
  top: "conv4_1/sep"
  batch_norm_param {
    moving_average_fraction: 0.999
    eps: 0.001
  }
}
layer {
  name: "conv4_1/sep/scale"
  type: "Scale"
  bottom: "conv4_1/sep"
  top: "conv4_1/sep"
  param {
    lr_mult: 1
    decay_mult: 0
  }
  param {
    lr_mult: 1
    decay_mult: 0
  }
  scale_param {
    filler {
      type: "constant"
      value: 1
    }
    bias_term: true
    bias_filler {
      type: "constant"
      value: 0
    }
  }
}
layer {
  name: "conv4_1/sep_relu"
  type: "ReLU"
  bottom: "conv4_1/sep"
  top: "conv4_1/sep"
}
layer {
  name: "conv4_2/dw"
  type: "Convolution"
  bottom: "conv4_1/sep"
  top: "conv4_2/dw"
  param {
    lr_mult: 1
    decay_mult: 1
  }
  convolution_param {
    num_output: 256
    bias_term: false
    pad: 1
    kernel_size: 3
    group: 256
    stride: 2
    weight_filler {
      type: "gaussian"
      std: 0.01
    }
    engine: CAFFE
  }
}
layer {
  name: "conv4_2/dw/bn"
  type: "BatchNorm"
  bottom: "conv4_2/dw"
  top: "conv4_2/dw"
  batch_norm_param {
    moving_average_fraction: 0.999
    eps: 0.001
  }
}
layer {
  name: "conv4_2/dw/scale"
  type: "Scale"
  bottom: "conv4_2/dw"
  top: "conv4_2/dw"
  param {
    lr_mult: 1
    decay_mult: 0
  }
  param {
    lr_mult: 1
    decay_mult: 0
  }
  scale_param {
    filler {
      type: "constant"
      value: 1
    }
    bias_term: true
    bias_filler {
      type: "constant"
      value: 0
    }
  }
}
layer {
  name: "conv4_2/dw_relu"
  type: "ReLU"
  bottom: "conv4_2/dw"
  top: "conv4_2/dw"
}
layer {
  name: "conv4_2/sep"
  type: "Convolution"
  bottom: "conv4_2/dw"
  top: "conv4_2/sep"
  param {
    lr_mult: 1
    decay_mult: 1
  }
  convolution_param {
    num_output: 512
    bias_term: false
    pad: 0
    kernel_size: 1
    group: 1
    stride: 1
    weight_filler {
      type: "gaussian"
      std: 0.01
    }
    engine: DEFAULT
  }
}
layer {
  name: "conv4_2/sep/bn"
  type: "BatchNorm"
  bottom: "conv4_2/sep"
  top: "conv4_2/sep"
  batch_norm_param {
    moving_average_fraction: 0.999
    eps: 0.001
  }
}
layer {
  name: "conv4_2/sep/scale"
  type: "Scale"
  bottom: "conv4_2/sep"
  top: "conv4_2/sep"
  param {
    lr_mult: 1
    decay_mult: 0
  }
  param {
    lr_mult: 1
    decay_mult: 0
  }
  scale_param {
    filler {
      type: "constant"
      value: 1
    }
    bias_term: true
    bias_filler {
      type: "constant"
      value: 0
    }
  }
}
layer {
  name: "conv4_2/sep_relu"
  type: "ReLU"
  bottom: "conv4_2/sep"
  top: "conv4_2/sep"
}
layer {
  name: "conv5_1/dw"
  type: "Convolution"
  bottom: "conv4_2/sep"
  top: "conv5_1/dw"
  param {
    lr_mult: 1
    decay_mult: 1
  }
  convolution_param {
    num_output: 512
    bias_term: false
    pad: 1
    kernel_size: 3
    group: 512
    stride: 1
    weight_filler {
      type: "gaussian"
      std: 0.01
    }
    engine: CAFFE
  }
}
layer {
  name: "conv5_1/dw/bn"
  type: "BatchNorm"
  bottom: "conv5_1/dw"
  top: "conv5_1/dw"
  batch_norm_param {
    moving_average_fraction: 0.999
    eps: 0.001
  }
}
layer {
  name: "conv5_1/dw/scale"
  type: "Scale"
  bottom: "conv5_1/dw"
  top: "conv5_1/dw"
  param {
    lr_mult: 1
    decay_mult: 0
  }
  param {
    lr_mult: 1
    decay_mult: 0
  }
  scale_param {
    filler {
      type: "constant"
      value: 1
    }
    bias_term: true
    bias_filler {
      type: "constant"
      value: 0
    }
  }
}
layer {
  name: "conv5_1/dw_relu"
  type: "ReLU"
  bottom: "conv5_1/dw"
  top: "conv5_1/dw"
}
layer {
  name: "conv5_1/sep"
  type: "Convolution"
  bottom: "conv5_1/dw"
  top: "conv5_1/sep"
  param {
    lr_mult: 1
    decay_mult: 1
  }
  convolution_param {
    num_output: 512
    bias_term: false
    pad: 0
    kernel_size: 1
    group: 1
    stride: 1
    weight_filler {
      type: "gaussian"
      std: 0.01
    }
    engine: DEFAULT
  }
}
layer {
  name: "conv5_1/sep/bn"
  type: "BatchNorm"
  bottom: "conv5_1/sep"
  top: "conv5_1/sep"
  batch_norm_param {
    moving_average_fraction: 0.999
    eps: 0.001
  }
}
layer {
  name: "conv5_1/sep/scale"
  type: "Scale"
  bottom: "conv5_1/sep"
  top: "conv5_1/sep"
  param {
    lr_mult: 1
    decay_mult: 0
  }
  param {
    lr_mult: 1
    decay_mult: 0
  }
  scale_param {
    filler {
      type: "constant"
      value: 1
    }
    bias_term: true
    bias_filler {
      type: "constant"
      value: 0
    }
  }
}
layer {
  name: "conv5_1/sep_relu"
  type: "ReLU"
  bottom: "conv5_1/sep"
  top: "conv5_1/sep"
}
layer {
  name: "conv5_2/dw"
  type: "Convolution"
  bottom: "conv5_1/sep"
  top: "conv5_2/dw"
  param {
    lr_mult: 1
    decay_mult: 1
  }
  convolution_param {
    num_output: 512
    bias_term: false
    pad: 1
    kernel_size: 3
    group: 512
    stride: 1
    weight_filler {
      type: "gaussian"
      std: 0.01
    }
    engine: CAFFE
  }
}
layer {
  name: "conv5_2/dw/bn"
  type: "BatchNorm"
  bottom: "conv5_2/dw"
  top: "conv5_2/dw"
  batch_norm_param {
    moving_average_fraction: 0.999
    eps: 0.001
  }
}
layer {
  name: "conv5_2/dw/scale"
  type: "Scale"
  bottom: "conv5_2/dw"
  top: "conv5_2/dw"
  param {
    lr_mult: 1
    decay_mult: 0
  }
  param {
    lr_mult: 1
    decay_mult: 0
  }
  scale_param {
    filler {
      type: "constant"
      value: 1
    }
    bias_term: true
    bias_filler {
      type: "constant"
      value: 0
    }
  }
}
layer {
  name: "conv5_2/dw_relu"
  type: "ReLU"
  bottom: "conv5_2/dw"
  top: "conv5_2/dw"
}
layer {
  name: "conv5_2/sep"
  type: "Convolution"
  bottom: "conv5_2/dw"
  top: "conv5_2/sep"
  param {
    lr_mult: 1
    decay_mult: 1
  }
  convolution_param {
    num_output: 512
    bias_term: false
    pad: 0
    kernel_size: 1
    group: 1
    stride: 1
    weight_filler {
      type: "gaussian"
      std: 0.01
    }
    engine: DEFAULT
  }
}
layer {
  name: "conv5_2/sep/bn"
  type: "BatchNorm"
  bottom: "conv5_2/sep"
  top: "conv5_2/sep"
  batch_norm_param {
    moving_average_fraction: 0.999
    eps: 0.001
  }
}
layer {
  name: "conv5_2/sep/scale"
  type: "Scale"
  bottom: "conv5_2/sep"
  top: "conv5_2/sep"
  param {
    lr_mult: 1
    decay_mult: 0
  }
  param {
    lr_mult: 1
    decay_mult: 0
  }
  scale_param {
    filler {
      type: "constant"
      value: 1
    }
    bias_term: true
    bias_filler {
      type: "constant"
      value: 0
    }
  }
}
layer {
  name: "conv5_2/sep_relu"
  type: "ReLU"
  bottom: "conv5_2/sep"
  top: "conv5_2/sep"
}
layer {
  name: "conv5_3/dw"
  type: "Convolution"
  bottom: "conv5_2/sep"
  top: "conv5_3/dw"
  param {
    lr_mult: 1
    decay_mult: 1
  }
  convolution_param {
    num_output: 512
    bias_term: false
    pad: 1
    kernel_size: 3
    group: 512
    stride: 1
    weight_filler {
      type: "gaussian"
      std: 0.01
    }
    engine: CAFFE
  }
}
layer {
  name: "conv5_3/dw/bn"
  type: "BatchNorm"
  bottom: "conv5_3/dw"
  top: "conv5_3/dw"
  batch_norm_param {
    moving_average_fraction: 0.999
    eps: 0.001
  }
}
layer {
  name: "conv5_3/dw/scale"
  type: "Scale"
  bottom: "conv5_3/dw"
  top: "conv5_3/dw"
  param {
    lr_mult: 1
    decay_mult: 0
  }
  param {
    lr_mult: 1
    decay_mult: 0
  }
  scale_param {
    filler {
      type: "constant"
      value: 1
    }
    bias_term: true
    bias_filler {
      type: "constant"
      value: 0
    }
  }
}
layer {
  name: "conv5_3/dw_relu"
  type: "ReLU"
  bottom: "conv5_3/dw"
  top: "conv5_3/dw"
}
layer {
  name: "conv5_3/sep"
  type: "Convolution"
  bottom: "conv5_3/dw"
  top: "conv5_3/sep"
  param {
    lr_mult: 1
    decay_mult: 1
  }
  convolution_param {
    num_output: 512
    bias_term: false
    pad: 0
    kernel_size: 1
    group: 1
    stride: 1
    weight_filler {
      type: "gaussian"
      std: 0.01
    }
    engine: DEFAULT
  }
}
layer {
  name: "conv5_3/sep/bn"
  type: "BatchNorm"
  bottom: "conv5_3/sep"
  top: "conv5_3/sep"
  batch_norm_param {
    moving_average_fraction: 0.999
    eps: 0.001
  }
}
layer {
  name: "conv5_3/sep/scale"
  type: "Scale"
  bottom: "conv5_3/sep"
  top: "conv5_3/sep"
  param {
    lr_mult: 1
    decay_mult: 0
  }
  param {
    lr_mult: 1
    decay_mult: 0
  }
  scale_param {
    filler {
      type: "constant"
      value: 1
    }
    bias_term: true
    bias_filler {
      type: "constant"
      value: 0
    }
  }
}
layer {
  name: "conv5_3/sep_relu"
  type: "ReLU"
  bottom: "conv5_3/sep"
  top: "conv5_3/sep"
}
layer {
  name: "conv5_4/dw"
  type: "Convolution"
  bottom: "conv5_3/sep"
  top: "conv5_4/dw"
  param {
    lr_mult: 1
    decay_mult: 1
  }
  convolution_param {
    num_output: 512
    bias_term: false
    pad: 1
    kernel_size: 3
    group: 512
    stride: 1
    weight_filler {
      type: "gaussian"
      std: 0.01
    }
    engine: CAFFE
  }
}
layer {
  name: "conv5_4/dw/bn"
  type: "BatchNorm"
  bottom: "conv5_4/dw"
  top: "conv5_4/dw"
  batch_norm_param {
    moving_average_fraction: 0.999
    eps: 0.001
  }
}
layer {
  name: "conv5_4/dw/scale"
  type: "Scale"
  bottom: "conv5_4/dw"
  top: "conv5_4/dw"
  param {
    lr_mult: 1
    decay_mult: 0
  }
  param {
    lr_mult: 1
    decay_mult: 0
  }
  scale_param {
    filler {
      type: "constant"
      value: 1
    }
    bias_term: true
    bias_filler {
      type: "constant"
      value: 0
    }
  }
}
layer {
  name: "conv5_4/dw_relu"
  type: "ReLU"
  bottom: "conv5_4/dw"
  top: "conv5_4/dw"
}
layer {
  name: "conv5_4/sep"
  type: "Convolution"
  bottom: "conv5_4/dw"
  top: "conv5_4/sep"
  param {
    lr_mult: 1
    decay_mult: 1
  }
  convolution_param {
    num_output: 512
    bias_term: false
    pad: 0
    kernel_size: 1
    group: 1
    stride: 1
    weight_filler {
      type: "gaussian"
      std: 0.01
    }
    engine: DEFAULT
  }
}
layer {
  name: "conv5_4/sep/bn"
  type: "BatchNorm"
  bottom: "conv5_4/sep"
  top: "conv5_4/sep"
  batch_norm_param {
    moving_average_fraction: 0.999
    eps: 0.001
  }
}
layer {
  name: "conv5_4/sep/scale"
  type: "Scale"
  bottom: "conv5_4/sep"
  top: "conv5_4/sep"
  param {
    lr_mult: 1
    decay_mult: 0
  }
  param {
    lr_mult: 1
    decay_mult: 0
  }
  scale_param {
    filler {
      type: "constant"
      value: 1
    }
    bias_term: true
    bias_filler {
      type: "constant"
      value: 0
    }
  }
}
layer {
  name: "conv5_4/sep_relu"
  type: "ReLU"
  bottom: "conv5_4/sep"
  top: "conv5_4/sep"
}
layer {
  name: "conv5_5/dw"
  type: "Convolution"
  bottom: "conv5_4/sep"
  top: "conv5_5/dw"
  param {
    lr_mult: 1
    decay_mult: 1
  }
  convolution_param {
    num_output: 512
    bias_term: false
    pad: 1
    kernel_size: 3
    group: 512
    stride: 1
    weight_filler {
      type: "gaussian"
      std: 0.01
    }
    engine: CAFFE
  }
}
layer {
  name: "conv5_5/dw/bn"
  type: "BatchNorm"
  bottom: "conv5_5/dw"
  top: "conv5_5/dw"
  batch_norm_param {
    moving_average_fraction: 0.999
    eps: 0.001
  }
}
layer {
  name: "conv5_5/dw/scale"
  type: "Scale"
  bottom: "conv5_5/dw"
  top: "conv5_5/dw"
  param {
    lr_mult: 1
    decay_mult: 0
  }
  param {
    lr_mult: 1
    decay_mult: 0
  }
  scale_param {
    filler {
      type: "constant"
      value: 1
    }
    bias_term: true
    bias_filler {
      type: "constant"
      value: 0
    }
  }
}
layer {
  name: "conv5_5/dw_relu"
  type: "ReLU"
  bottom: "conv5_5/dw"
  top: "conv5_5/dw"
}
layer {
  name: "conv5_5/sep"
  type: "Convolution"
  bottom: "conv5_5/dw"
  top: "conv5_5/sep"
  param {
    lr_mult: 1
    decay_mult: 1
  }
  convolution_param {
    num_output: 512
    bias_term: false
    pad: 0
    kernel_size: 1
    group: 1
    stride: 1
    weight_filler {
      type: "gaussian"
      std: 0.01
    }
    engine: DEFAULT
  }
}
layer {
  name: "conv5_5/sep/bn"
  type: "BatchNorm"
  bottom: "conv5_5/sep"
  top: "conv5_5/sep"
  batch_norm_param {
    moving_average_fraction: 0.999
    eps: 0.001
  }
}
layer {
  name: "conv5_5/sep/scale"
  type: "Scale"
  bottom: "conv5_5/sep"
  top: "conv5_5/sep"
  param {
    lr_mult: 1
    decay_mult: 0
  }
  param {
    lr_mult: 1
    decay_mult: 0
  }
  scale_param {
    filler {
      type: "constant"
      value: 1
    }
    bias_term: true
    bias_filler {
      type: "constant"
      value: 0
    }
  }
}
layer {
  name: "conv5_5/sep_relu"
  type: "ReLU"
  bottom: "conv5_5/sep"
  top: "conv5_5/sep"
}
layer {
  name: "conv5_6/dw"
  type: "Convolution"
  bottom: "conv5_5/sep"
  top: "conv5_6/dw"
  param {
    lr_mult: 1
    decay_mult: 1
  }
  convolution_param {
    num_output: 512
    bias_term: false
    pad: 1
    kernel_size: 3
    group: 512
    stride: 2
    weight_filler {
      type: "gaussian"
      std: 0.01
    }
    engine: CAFFE
  }
}
layer {
  name: "conv5_6/dw/bn"
  type: "BatchNorm"
  bottom: "conv5_6/dw"
  top: "conv5_6/dw"
  batch_norm_param {
    moving_average_fraction: 0.999
    eps: 0.001
  }
}
layer {
  name: "conv5_6/dw/scale"
  type: "Scale"
  bottom: "conv5_6/dw"
  top: "conv5_6/dw"
  param {
    lr_mult: 1
    decay_mult: 0
  }
  param {
    lr_mult: 1
    decay_mult: 0
  }
  scale_param {
    filler {
      type: "constant"
      value: 1
    }
    bias_term: true
    bias_filler {
      type: "constant"
      value: 0
    }
  }
}
layer {
  name: "conv5_6/dw_relu"
  type: "ReLU"
  bottom: "conv5_6/dw"
  top: "conv5_6/dw"
}
layer {
  name: "conv5_6/sep"
  type: "Convolution"
  bottom: "conv5_6/dw"
  top: "conv5_6/sep"
  param {
    lr_mult: 1
    decay_mult: 1
  }
  convolution_param {
    num_output: 1024
    bias_term: false
    pad: 0
    kernel_size: 1
    group: 1
    stride: 1
    weight_filler {
      type: "gaussian"
      std: 0.01
    }
    engine: DEFAULT
  }
}
layer {
  name: "conv5_6/sep/bn"
  type: "BatchNorm"
  bottom: "conv5_6/sep"
  top: "conv5_6/sep"
  batch_norm_param {
    moving_average_fraction: 0.999
    eps: 0.001
  }
}
layer {
  name: "conv5_6/sep/scale"
  type: "Scale"
  bottom: "conv5_6/sep"
  top: "conv5_6/sep"
  param {
    lr_mult: 1
    decay_mult: 0
  }
  param {
    lr_mult: 1
    decay_mult: 0
  }
  scale_param {
    filler {
      type: "constant"
      value: 1
    }
    bias_term: true
    bias_filler {
      type: "constant"
      value: 0
    }
  }
}
layer {
  name: "conv5_6/sep_relu"
  type: "ReLU"
  bottom: "conv5_6/sep"
  top: "conv5_6/sep"
}
layer {
  name: "conv6/dw"
  type: "Convolution"
  bottom: "conv5_6/sep"
  top: "conv6/dw"
  param {
    lr_mult: 1
    decay_mult: 1
  }
  convolution_param {
    num_output: 1024
    bias_term: false
    pad: 1
    kernel_size: 3
    group: 1024
    stride: 1
    weight_filler {
      type: "gaussian"
      std: 0.01
    }
    engine: CAFFE
  }
}
layer {
  name: "conv6/dw/bn"
  type: "BatchNorm"
  bottom: "conv6/dw"
  top: "conv6/dw"
  batch_norm_param {
    moving_average_fraction: 0.999
    eps: 0.001
  }
}
layer {
  name: "conv6/dw/scale"
  type: "Scale"
  bottom: "conv6/dw"
  top: "conv6/dw"
  param {
    lr_mult: 1
    decay_mult: 0
  }
  param {
    lr_mult: 1
    decay_mult: 0
  }
  scale_param {
    filler {
      type: "constant"
      value: 1
    }
    bias_term: true
    bias_filler {
      type: "constant"
      value: 0
    }
  }
}
layer {
  name: "conv6/dw_relu"
  type: "ReLU"
  bottom: "conv6/dw"
  top: "conv6/dw"
}
layer {
  name: "conv6/sep"
  type: "Convolution"
  bottom: "conv6/dw"
  top: "conv6/sep"
  param {
    lr_mult: 1
    decay_mult: 1
  }
  convolution_param {
    num_output: 1024
    bias_term: false
    pad: 0
    kernel_size: 1
    group: 1
    stride: 1
    weight_filler {
      type: "gaussian"
      std: 0.01
    }
    engine: DEFAULT
  }
}
layer {
  name: "conv6/sep/bn"
  type: "BatchNorm"
  bottom: "conv6/sep"
  top: "conv6/sep"
  batch_norm_param {
    moving_average_fraction: 0.999
    eps: 0.001
  }
}
layer {
  name: "conv6/sep/scale"
  type: "Scale"
  bottom: "conv6/sep"
  top: "conv6/sep"
  param {
    lr_mult: 1
    decay_mult: 0
  }
  param {
    lr_mult: 1
    decay_mult: 0
  }
  scale_param {
    filler {
      type: "constant"
      value: 1
    }
    bias_term: true
    bias_filler {
      type: "constant"
      value: 0
    }
  }
}
layer {
  name: "conv6/sep_relu"
  type: "ReLU"
  bottom: "conv6/sep"
  top: "conv6/sep"
}
layer {
  name: "conv7_1"
  type: "Convolution"
  bottom: "conv6/sep"
  top: "conv7_1"
  param {
    lr_mult: 1
    decay_mult: 1
  }
  param {
    lr_mult: 2
    decay_mult: 0
  }
  convolution_param {
    num_output: 256
    pad: 0
    kernel_size: 1
    group: 1
    stride: 1
    weight_filler {
      type: "xavier"
    }
    bias_filler {
      type: "constant"
      value: 0
    }
    engine: DEFAULT
  }
}
layer {
  name: "conv7_1_relu"
  type: "ReLU"
  bottom: "conv7_1"
  top: "conv7_1"
}
layer {
  name: "conv7_2"
  type: "Convolution"
  bottom: "conv7_1"
  top: "conv7_2"
  param {
    lr_mult: 1
    decay_mult: 1
  }
  param {
    lr_mult: 2
    decay_mult: 0
  }
  convolution_param {
    num_output: 512
    pad: 1
    kernel_size: 3
    group: 1
    stride: 2
    weight_filler {
      type: "xavier"
    }
    bias_filler {
      type: "constant"
      value: 0
    }
    engine: DEFAULT
  }
}
layer {
  name: "conv7_2_relu"
  type: "ReLU"
  bottom: "con
I0901 14:03:43.587085  7345 layer_factory.hpp:77] Creating layer data
I0901 14:03:43.587429  7345 net.cpp:100] Creating Layer data
I0901 14:03:43.587446  7345 net.cpp:408] data -> data
I0901 14:03:43.587484  7345 net.cpp:408] data -> label
I0901 14:03:43.588098  7359 db_lmdb.cpp:35] Opened lmdb data/BodyFaceHandRegions/lmdb/oxford_viva_lmdb
I0901 14:03:43.600555  7345 annotated_data_layer.cpp:62] output data size: 16,3,300,300
I0901 14:03:43.627182  7345 net.cpp:150] Setting up data
I0901 14:03:43.627210  7345 net.cpp:157] Top shape: 16 3 300 300 (4320000)
I0901 14:03:43.627218  7345 net.cpp:157] Top shape: 1 1 4 8 (32)
I0901 14:03:43.627221  7345 net.cpp:165] Memory required for data: 17280128
I0901 14:03:43.627236  7345 layer_factory.hpp:77] Creating layer data_data_0_split
I0901 14:03:43.627256  7345 net.cpp:100] Creating Layer data_data_0_split
I0901 14:03:43.627265  7345 net.cpp:434] data_data_0_split <- data
I0901 14:03:43.627284  7345 net.cpp:408] data_data_0_split -> data_data_0_split_0
I0901 14:03:43.627301  7345 net.cpp:408] data_data_0_split -> data_data_0_split_1
I0901 14:03:43.627313  7345 net.cpp:408] data_data_0_split -> data_data_0_split_2
I0901 14:03:43.627326  7345 net.cpp:408] data_data_0_split -> data_data_0_split_3
I0901 14:03:43.627336  7345 net.cpp:408] data_data_0_split -> data_data_0_split_4
I0901 14:03:43.627351  7345 net.cpp:408] data_data_0_split -> data_data_0_split_5
I0901 14:03:43.627360  7345 net.cpp:408] data_data_0_split -> data_data_0_split_6
I0901 14:03:43.627470  7345 net.cpp:150] Setting up data_data_0_split
I0901 14:03:43.627480  7345 net.cpp:157] Top shape: 16 3 300 300 (4320000)
I0901 14:03:43.627486  7345 net.cpp:157] Top shape: 16 3 300 300 (4320000)
I0901 14:03:43.627493  7345 net.cpp:157] Top shape: 16 3 300 300 (4320000)
I0901 14:03:43.627501  7345 net.cpp:157] Top shape: 16 3 300 300 (4320000)
I0901 14:03:43.627506  7345 net.cpp:157] Top shape: 16 3 300 300 (4320000)
I0901 14:03:43.627513  7345 net.cpp:157] Top shape: 16 3 300 300 (4320000)
I0901 14:03:43.627521  7345 net.cpp:157] Top shape: 16 3 300 300 (4320000)
I0901 14:03:43.627526  7345 net.cpp:165] Memory required for data: 138240128
I0901 14:03:43.627532  7345 layer_factory.hpp:77] Creating layer conv1
I0901 14:03:43.627555  7345 net.cpp:100] Creating Layer conv1
I0901 14:03:43.627562  7345 net.cpp:434] conv1 <- data_data_0_split_0
I0901 14:03:43.627570  7345 net.cpp:408] conv1 -> conv1
I0901 14:03:43.825247  7360 blocking_queue.cpp:50] Waiting for data
I0901 14:03:43.839395  7345 net.cpp:150] Setting up conv1
I0901 14:03:43.839416  7345 net.cpp:157] Top shape: 16 32 150 150 (11520000)
I0901 14:03:43.839419  7345 net.cpp:165] Memory required for data: 184320128
I0901 14:03:43.839433  7345 layer_factory.hpp:77] Creating layer conv1/bn
I0901 14:03:43.839442  7345 net.cpp:100] Creating Layer conv1/bn
I0901 14:03:43.839448  7345 net.cpp:434] conv1/bn <- conv1
I0901 14:03:43.839453  7345 net.cpp:395] conv1/bn -> conv1 (in-place)
I0901 14:03:43.840014  7345 net.cpp:150] Setting up conv1/bn
I0901 14:03:43.840024  7345 net.cpp:157] Top shape: 16 32 150 150 (11520000)
I0901 14:03:43.840028  7345 net.cpp:165] Memory required for data: 230400128
I0901 14:03:43.840036  7345 layer_factory.hpp:77] Creating layer conv1/scale
I0901 14:03:43.840046  7345 net.cpp:100] Creating Layer conv1/scale
I0901 14:03:43.840050  7345 net.cpp:434] conv1/scale <- conv1
I0901 14:03:43.840054  7345 net.cpp:395] conv1/scale -> conv1 (in-place)
I0901 14:03:43.840093  7345 layer_factory.hpp:77] Creating layer conv1/scale
I0901 14:03:43.840205  7345 net.cpp:150] Setting up conv1/scale
I0901 14:03:43.840212  7345 net.cpp:157] Top shape: 16 32 150 150 (11520000)
I0901 14:03:43.840215  7345 net.cpp:165] Memory required for data: 276480128
I0901 14:03:43.840222  7345 layer_factory.hpp:77] Creating layer conv1_relu
I0901 14:03:43.840229  7345 net.cpp:100] Creating Layer conv1_relu
I0901 14:03:43.840231  7345 net.cpp:434] conv1_relu <- conv1
I0901 14:03:43.840236  7345 net.cpp:395] conv1_relu -> conv1 (in-place)
I0901 14:03:43.840378  7345 net.cpp:150] Setting up conv1_relu
I0901 14:03:43.840385  7345 net.cpp:157] Top shape: 16 32 150 150 (11520000)
I0901 14:03:43.840389  7345 net.cpp:165] Memory required for data: 322560128
I0901 14:03:43.840392  7345 layer_factory.hpp:77] Creating layer conv2_1/dw
I0901 14:03:43.840402  7345 net.cpp:100] Creating Layer conv2_1/dw
I0901 14:03:43.840405  7345 net.cpp:434] conv2_1/dw <- conv1
I0901 14:03:43.840411  7345 net.cpp:408] conv2_1/dw -> conv2_1/dw
I0901 14:03:43.840562  7345 net.cpp:150] Setting up conv2_1/dw
I0901 14:03:43.840569  7345 net.cpp:157] Top shape: 16 32 150 150 (11520000)
I0901 14:03:43.840572  7345 net.cpp:165] Memory required for data: 368640128
I0901 14:03:43.840577  7345 layer_factory.hpp:77] Creating layer conv2_1/dw/bn
I0901 14:03:43.840582  7345 net.cpp:100] Creating Layer conv2_1/dw/bn
I0901 14:03:43.840586  7345 net.cpp:434] conv2_1/dw/bn <- conv2_1/dw
I0901 14:03:43.840591  7345 net.cpp:395] conv2_1/dw/bn -> conv2_1/dw (in-place)
I0901 14:03:43.840739  7345 net.cpp:150] Setting up conv2_1/dw/bn
I0901 14:03:43.840745  7345 net.cpp:157] Top shape: 16 32 150 150 (11520000)
I0901 14:03:43.840749  7345 net.cpp:165] Memory required for data: 414720128
I0901 14:03:43.840757  7345 layer_factory.hpp:77] Creating layer conv2_1/dw/scale
I0901 14:03:43.840764  7345 net.cpp:100] Creating Layer conv2_1/dw/scale
I0901 14:03:43.840768  7345 net.cpp:434] conv2_1/dw/scale <- conv2_1/dw
I0901 14:03:43.840773  7345 net.cpp:395] conv2_1/dw/scale -> conv2_1/dw (in-place)
I0901 14:03:43.840824  7345 layer_factory.hpp:77] Creating layer conv2_1/dw/scale
I0901 14:03:43.840929  7345 net.cpp:150] Setting up conv2_1/dw/scale
I0901 14:03:43.840935  7345 net.cpp:157] Top shape: 16 32 150 150 (11520000)
I0901 14:03:43.840939  7345 net.cpp:165] Memory required for data: 460800128
I0901 14:03:43.840945  7345 layer_factory.hpp:77] Creating layer conv2_1/dw_relu
I0901 14:03:43.840950  7345 net.cpp:100] Creating Layer conv2_1/dw_relu
I0901 14:03:43.840955  7345 net.cpp:434] conv2_1/dw_relu <- conv2_1/dw
I0901 14:03:43.840958  7345 net.cpp:395] conv2_1/dw_relu -> conv2_1/dw (in-place)
I0901 14:03:43.841524  7345 net.cpp:150] Setting up conv2_1/dw_relu
I0901 14:03:43.841534  7345 net.cpp:157] Top shape: 16 32 150 150 (11520000)
I0901 14:03:43.841538  7345 net.cpp:165] Memory required for data: 506880128
I0901 14:03:43.841542  7345 layer_factory.hpp:77] Creating layer conv2_1/sep
I0901 14:03:43.841552  7345 net.cpp:100] Creating Layer conv2_1/sep
I0901 14:03:43.841557  7345 net.cpp:434] conv2_1/sep <- conv2_1/dw
I0901 14:03:43.841562  7345 net.cpp:408] conv2_1/sep -> conv2_1/sep
I0901 14:03:43.842943  7345 net.cpp:150] Setting up conv2_1/sep
I0901 14:03:43.842954  7345 net.cpp:157] Top shape: 16 64 150 150 (23040000)
I0901 14:03:43.842957  7345 net.cpp:165] Memory required for data: 599040128
I0901 14:03:43.842962  7345 layer_factory.hpp:77] Creating layer conv2_1/sep/bn
I0901 14:03:43.842965  7345 net.cpp:100] Creating Layer conv2_1/sep/bn
I0901 14:03:43.842972  7345 net.cpp:434] conv2_1/sep/bn <- conv2_1/sep
I0901 14:03:43.842977  7345 net.cpp:395] conv2_1/sep/bn -> conv2_1/sep (in-place)
I0901 14:03:43.843149  7345 net.cpp:150] Setting up conv2_1/sep/bn
I0901 14:03:43.843156  7345 net.cpp:157] Top shape: 16 64 150 150 (23040000)
I0901 14:03:43.843159  7345 net.cpp:165] Memory required for data: 691200128
I0901 14:03:43.843166  7345 layer_factory.hpp:77] Creating layer conv2_1/sep/scale
I0901 14:03:43.843173  7345 net.cpp:100] Creating Layer conv2_1/sep/scale
I0901 14:03:43.843175  7345 net.cpp:434] conv2_1/sep/scale <- conv2_1/sep
I0901 14:03:43.843181  7345 net.cpp:395] conv2_1/sep/scale -> conv2_1/sep (in-place)
I0901 14:03:43.843215  7345 layer_factory.hpp:77] Creating layer conv2_1/sep/scale
I0901 14:03:43.843331  7345 net.cpp:150] Setting up conv2_1/sep/scale
I0901 14:03:43.843338  7345 net.cpp:157] Top shape: 16 64 150 150 (23040000)
I0901 14:03:43.843341  7345 net.cpp:165] Memory required for data: 783360128
I0901 14:03:43.843350  7345 layer_factory.hpp:77] Creating layer conv2_1/sep_relu
I0901 14:03:43.843356  7345 net.cpp:100] Creating Layer conv2_1/sep_relu
I0901 14:03:43.843359  7345 net.cpp:434] conv2_1/sep_relu <- conv2_1/sep
I0901 14:03:43.843365  7345 net.cpp:395] conv2_1/sep_relu -> conv2_1/sep (in-place)
I0901 14:03:43.843932  7345 net.cpp:150] Setting up conv2_1/sep_relu
I0901 14:03:43.843943  7345 net.cpp:157] Top shape: 16 64 150 150 (23040000)
I0901 14:03:43.843945  7345 net.cpp:165] Memory required for data: 875520128
I0901 14:03:43.843948  7345 layer_factory.hpp:77] Creating layer conv2_2/dw
I0901 14:03:43.843955  7345 net.cpp:100] Creating Layer conv2_2/dw
I0901 14:03:43.843960  7345 net.cpp:434] conv2_2/dw <- conv2_1/sep
I0901 14:03:43.843966  7345 net.cpp:408] conv2_2/dw -> conv2_2/dw
I0901 14:03:43.844127  7345 net.cpp:150] Setting up conv2_2/dw
I0901 14:03:43.844135  7345 net.cpp:157] Top shape: 16 64 75 75 (5760000)
I0901 14:03:43.844137  7345 net.cpp:165] Memory required for data: 898560128
I0901 14:03:43.844143  7345 layer_factory.hpp:77] Creating layer conv2_2/dw/bn
I0901 14:03:43.844148  7345 net.cpp:100] Creating Layer conv2_2/dw/bn
I0901 14:03:43.844152  7345 net.cpp:434] conv2_2/dw/bn <- conv2_2/dw
I0901 14:03:43.844159  7345 net.cpp:395] conv2_2/dw/bn -> conv2_2/dw (in-place)
I0901 14:03:43.844692  7345 net.cpp:150] Setting up conv2_2/dw/bn
I0901 14:03:43.844702  7345 net.cpp:157] Top shape: 16 64 75 75 (5760000)
I0901 14:03:43.844705  7345 net.cpp:165] Memory required for data: 921600128
I0901 14:03:43.844712  7345 layer_factory.hpp:77] Creating layer conv2_2/dw/scale
I0901 14:03:43.844730  7345 net.cpp:100] Creating Layer conv2_2/dw/scale
I0901 14:03:43.844734  7345 net.cpp:434] conv2_2/dw/scale <- conv2_2/dw
I0901 14:03:43.844741  7345 net.cpp:395] conv2_2/dw/scale -> conv2_2/dw (in-place)
I0901 14:03:43.844779  7345 layer_factory.hpp:77] Creating layer conv2_2/dw/scale
I0901 14:03:43.844876  7345 net.cpp:150] Setting up conv2_2/dw/scale
I0901 14:03:43.844882  7345 net.cpp:157] Top shape: 16 64 75 75 (5760000)
I0901 14:03:43.844885  7345 net.cpp:165] Memory required for data: 944640128
I0901 14:03:43.844892  7345 layer_factory.hpp:77] Creating layer conv2_2/dw_relu
I0901 14:03:43.844897  7345 net.cpp:100] Creating Layer conv2_2/dw_relu
I0901 14:03:43.844900  7345 net.cpp:434] conv2_2/dw_relu <- conv2_2/dw
I0901 14:03:43.844905  7345 net.cpp:395] conv2_2/dw_relu -> conv2_2/dw (in-place)
I0901 14:03:43.845048  7345 net.cpp:150] Setting up conv2_2/dw_relu
I0901 14:03:43.845055  7345 net.cpp:157] Top shape: 16 64 75 75 (5760000)
I0901 14:03:43.845059  7345 net.cpp:165] Memory required for data: 967680128
I0901 14:03:43.845062  7345 layer_factory.hpp:77] Creating layer conv2_2/sep
I0901 14:03:43.845072  7345 net.cpp:100] Creating Layer conv2_2/sep
I0901 14:03:43.845075  7345 net.cpp:434] conv2_2/sep <- conv2_2/dw
I0901 14:03:43.845080  7345 net.cpp:408] conv2_2/sep -> conv2_2/sep
I0901 14:03:43.847007  7345 net.cpp:150] Setting up conv2_2/sep
I0901 14:03:43.847019  7345 net.cpp:157] Top shape: 16 128 75 75 (11520000)
I0901 14:03:43.847021  7345 net.cpp:165] Memory required for data: 1013760128
I0901 14:03:43.847025  7345 layer_factory.hpp:77] Creating layer conv2_2/sep/bn
I0901 14:03:43.847031  7345 net.cpp:100] Creating Layer conv2_2/sep/bn
I0901 14:03:43.847034  7345 net.cpp:434] conv2_2/sep/bn <- conv2_2/sep
I0901 14:03:43.847038  7345 net.cpp:395] conv2_2/sep/bn -> conv2_2/sep (in-place)
I0901 14:03:43.847188  7345 net.cpp:150] Setting up conv2_2/sep/bn
I0901 14:03:43.847195  7345 net.cpp:157] Top shape: 16 128 75 75 (11520000)
I0901 14:03:43.847198  7345 net.cpp:165] Memory required for data: 1059840128
I0901 14:03:43.847205  7345 layer_factory.hpp:77] Creating layer conv2_2/sep/scale
I0901 14:03:43.847213  7345 net.cpp:100] Creating Layer conv2_2/sep/scale
I0901 14:03:43.847216  7345 net.cpp:434] conv2_2/sep/scale <- conv2_2/sep
I0901 14:03:43.847221  7345 net.cpp:395] conv2_2/sep/scale -> conv2_2/sep (in-place)
I0901 14:03:43.847255  7345 layer_factory.hpp:77] Creating layer conv2_2/sep/scale
I0901 14:03:43.847347  7345 net.cpp:150] Setting up conv2_2/sep/scale
I0901 14:03:43.847352  7345 net.cpp:157] Top shape: 16 128 75 75 (11520000)
I0901 14:03:43.847355  7345 net.cpp:165] Memory required for data: 1105920128
I0901 14:03:43.847362  7345 layer_factory.hpp:77] Creating layer conv2_2/sep_relu
I0901 14:03:43.847368  7345 net.cpp:100] Creating Layer conv2_2/sep_relu
I0901 14:03:43.847370  7345 net.cpp:434] conv2_2/sep_relu <- conv2_2/sep
I0901 14:03:43.847375  7345 net.cpp:395] conv2_2/sep_relu -> conv2_2/sep (in-place)
I0901 14:03:43.847949  7345 net.cpp:150] Setting up conv2_2/sep_relu
I0901 14:03:43.847960  7345 net.cpp:157] Top shape: 16 128 75 75 (11520000)
I0901 14:03:43.847964  7345 net.cpp:165] Memory required for data: 1152000128
I0901 14:03:43.847966  7345 layer_factory.hpp:77] Creating layer conv3_1/dw
I0901 14:03:43.847973  7345 net.cpp:100] Creating Layer conv3_1/dw
I0901 14:03:43.847976  7345 net.cpp:434] conv3_1/dw <- conv2_2/sep
I0901 14:03:43.847981  7345 net.cpp:408] conv3_1/dw -> conv3_1/dw
I0901 14:03:43.848146  7345 net.cpp:150] Setting up conv3_1/dw
I0901 14:03:43.848153  7345 net.cpp:157] Top shape: 16 128 75 75 (11520000)
I0901 14:03:43.848157  7345 net.cpp:165] Memory required for data: 1198080128
I0901 14:03:43.848162  7345 layer_factory.hpp:77] Creating layer conv3_1/dw/bn
I0901 14:03:43.848167  7345 net.cpp:100] Creating Layer conv3_1/dw/bn
I0901 14:03:43.848170  7345 net.cpp:434] conv3_1/dw/bn <- conv3_1/dw
I0901 14:03:43.848176  7345 net.cpp:395] conv3_1/dw/bn -> conv3_1/dw (in-place)
I0901 14:03:43.848320  7345 net.cpp:150] Setting up conv3_1/dw/bn
I0901 14:03:43.848337  7345 net.cpp:157] Top shape: 16 128 75 75 (11520000)
I0901 14:03:43.848340  7345 net.cpp:165] Memory required for data: 1244160128
I0901 14:03:43.848351  7345 layer_factory.hpp:77] Creating layer conv3_1/dw/scale
I0901 14:03:43.848358  7345 net.cpp:100] Creating Layer conv3_1/dw/scale
I0901 14:03:43.848366  7345 net.cpp:434] conv3_1/dw/scale <- conv3_1/dw
I0901 14:03:43.848372  7345 net.cpp:395] conv3_1/dw/scale -> conv3_1/dw (in-place)
I0901 14:03:43.848408  7345 layer_factory.hpp:77] Creating layer conv3_1/dw/scale
I0901 14:03:43.848502  7345 net.cpp:150] Setting up conv3_1/dw/scale
I0901 14:03:43.848508  7345 net.cpp:157] Top shape: 16 128 75 75 (11520000)
I0901 14:03:43.848511  7345 net.cpp:165] Memory required for data: 1290240128
I0901 14:03:43.848517  7345 layer_factory.hpp:77] Creating layer conv3_1/dw_relu
I0901 14:03:43.848523  7345 net.cpp:100] Creating Layer conv3_1/dw_relu
I0901 14:03:43.848527  7345 net.cpp:434] conv3_1/dw_relu <- conv3_1/dw
I0901 14:03:43.848532  7345 net.cpp:395] conv3_1/dw_relu -> conv3_1/dw (in-place)
I0901 14:03:43.848671  7345 net.cpp:150] Setting up conv3_1/dw_relu
I0901 14:03:43.848680  7345 net.cpp:157] Top shape: 16 128 75 75 (11520000)
I0901 14:03:43.848682  7345 net.cpp:165] Memory required for data: 1336320128
I0901 14:03:43.848686  7345 layer_factory.hpp:77] Creating layer conv3_1/sep
I0901 14:03:43.848695  7345 net.cpp:100] Creating Layer conv3_1/sep
I0901 14:03:43.848700  7345 net.cpp:434] conv3_1/sep <- conv3_1/dw
I0901 14:03:43.848706  7345 net.cpp:408] conv3_1/sep -> conv3_1/sep
I0901 14:03:43.850242  7345 net.cpp:150] Setting up conv3_1/sep
I0901 14:03:43.850253  7345 net.cpp:157] Top shape: 16 128 75 75 (11520000)
I0901 14:03:43.850255  7345 net.cpp:165] Memory required for data: 1382400128
I0901 14:03:43.850260  7345 layer_factory.hpp:77] Creating layer conv3_1/sep/bn
I0901 14:03:43.850265  7345 net.cpp:100] Creating Layer conv3_1/sep/bn
I0901 14:03:43.850268  7345 net.cpp:434] conv3_1/sep/bn <- conv3_1/sep
I0901 14:03:43.850275  7345 net.cpp:395] conv3_1/sep/bn -> conv3_1/sep (in-place)
I0901 14:03:43.850425  7345 net.cpp:150] Setting up conv3_1/sep/bn
I0901 14:03:43.850431  7345 net.cpp:157] Top shape: 16 128 75 75 (11520000)
I0901 14:03:43.850435  7345 net.cpp:165] Memory required for data: 1428480128
I0901 14:03:43.850441  7345 layer_factory.hpp:77] Creating layer conv3_1/sep/scale
I0901 14:03:43.850450  7345 net.cpp:100] Creating Layer conv3_1/sep/scale
I0901 14:03:43.850452  7345 net.cpp:434] conv3_1/sep/scale <- conv3_1/sep
I0901 14:03:43.850459  7345 net.cpp:395] conv3_1/sep/scale -> conv3_1/sep (in-place)
I0901 14:03:43.850492  7345 layer_factory.hpp:77] Creating layer conv3_1/sep/scale
I0901 14:03:43.850582  7345 net.cpp:150] Setting up conv3_1/sep/scale
I0901 14:03:43.850589  7345 net.cpp:157] Top shape: 16 128 75 75 (11520000)
I0901 14:03:43.850591  7345 net.cpp:165] Memory required for data: 1474560128
I0901 14:03:43.850597  7345 layer_factory.hpp:77] Creating layer conv3_1/sep_relu
I0901 14:03:43.850602  7345 net.cpp:100] Creating Layer conv3_1/sep_relu
I0901 14:03:43.850605  7345 net.cpp:434] conv3_1/sep_relu <- conv3_1/sep
I0901 14:03:43.850611  7345 net.cpp:395] conv3_1/sep_relu -> conv3_1/sep (in-place)
I0901 14:03:43.851181  7345 net.cpp:150] Setting up conv3_1/sep_relu
I0901 14:03:43.851191  7345 net.cpp:157] Top shape: 16 128 75 75 (11520000)
I0901 14:03:43.851194  7345 net.cpp:165] Memory required for data: 1520640128
I0901 14:03:43.851197  7345 layer_factory.hpp:77] Creating layer conv3_2/dw
I0901 14:03:43.851207  7345 net.cpp:100] Creating Layer conv3_2/dw
I0901 14:03:43.851210  7345 net.cpp:434] conv3_2/dw <- conv3_1/sep
I0901 14:03:43.851217  7345 net.cpp:408] conv3_2/dw -> conv3_2/dw
I0901 14:03:43.851383  7345 net.cpp:150] Setting up conv3_2/dw
I0901 14:03:43.851390  7345 net.cpp:157] Top shape: 16 128 38 38 (2957312)
I0901 14:03:43.851394  7345 net.cpp:165] Memory required for data: 1532469376
I0901 14:03:43.851398  7345 layer_factory.hpp:77] Creating layer conv3_2/dw/bn
I0901 14:03:43.851404  7345 net.cpp:100] Creating Layer conv3_2/dw/bn
I0901 14:03:43.851416  7345 net.cpp:434] conv3_2/dw/bn <- conv3_2/dw
I0901 14:03:43.851423  7345 net.cpp:395] conv3_2/dw/bn -> conv3_2/dw (in-place)
I0901 14:03:43.851567  7345 net.cpp:150] Setting up conv3_2/dw/bn
I0901 14:03:43.851572  7345 net.cpp:157] Top shape: 16 128 38 38 (2957312)
I0901 14:03:43.851577  7345 net.cpp:165] Memory required for data: 1544298624
I0901 14:03:43.851583  7345 layer_factory.hpp:77] Creating layer conv3_2/dw/scale
I0901 14:03:43.851593  7345 net.cpp:100] Creating Layer conv3_2/dw/scale
I0901 14:03:43.851598  7345 net.cpp:434] conv3_2/dw/scale <- conv3_2/dw
I0901 14:03:43.851603  7345 net.cpp:395] conv3_2/dw/scale -> conv3_2/dw (in-place)
I0901 14:03:43.851635  7345 layer_factory.hpp:77] Creating layer conv3_2/dw/scale
I0901 14:03:43.851723  7345 net.cpp:150] Setting up conv3_2/dw/scale
I0901 14:03:43.851729  7345 net.cpp:157] Top shape: 16 128 38 38 (2957312)
I0901 14:03:43.851732  7345 net.cpp:165] Memory required for data: 1556127872
I0901 14:03:43.851738  7345 layer_factory.hpp:77] Creating layer conv3_2/dw_relu
I0901 14:03:43.851744  7345 net.cpp:100] Creating Layer conv3_2/dw_relu
I0901 14:03:43.851747  7345 net.cpp:434] conv3_2/dw_relu <- conv3_2/dw
I0901 14:03:43.851752  7345 net.cpp:395] conv3_2/dw_relu -> conv3_2/dw (in-place)
I0901 14:03:43.851896  7345 net.cpp:150] Setting up conv3_2/dw_relu
I0901 14:03:43.851903  7345 net.cpp:157] Top shape: 16 128 38 38 (2957312)
I0901 14:03:43.851907  7345 net.cpp:165] Memory required for data: 1567957120
I0901 14:03:43.851910  7345 layer_factory.hpp:77] Creating layer conv3_2/sep
I0901 14:03:43.851918  7345 net.cpp:100] Creating Layer conv3_2/sep
I0901 14:03:43.851922  7345 net.cpp:434] conv3_2/sep <- conv3_2/dw
I0901 14:03:43.851929  7345 net.cpp:408] conv3_2/sep -> conv3_2/sep
I0901 14:03:43.853646  7345 net.cpp:150] Setting up conv3_2/sep
I0901 14:03:43.853657  7345 net.cpp:157] Top shape: 16 256 38 38 (5914624)
I0901 14:03:43.853667  7345 net.cpp:165] Memory required for data: 1591615616
I0901 14:03:43.853672  7345 layer_factory.hpp:77] Creating layer conv3_2/sep/bn
I0901 14:03:43.853678  7345 net.cpp:100] Creating Layer conv3_2/sep/bn
I0901 14:03:43.853682  7345 net.cpp:434] conv3_2/sep/bn <- conv3_2/sep
I0901 14:03:43.853688  7345 net.cpp:395] conv3_2/sep/bn -> conv3_2/sep (in-place)
I0901 14:03:43.853842  7345 net.cpp:150] Setting up conv3_2/sep/bn
I0901 14:03:43.853852  7345 net.cpp:157] Top shape: 16 256 38 38 (5914624)
I0901 14:03:43.853855  7345 net.cpp:165] Memory required for data: 1615274112
I0901 14:03:43.853862  7345 layer_factory.hpp:77] Creating layer conv3_2/sep/scale
I0901 14:03:43.853868  7345 net.cpp:100] Creating Layer conv3_2/sep/scale
I0901 14:03:43.853871  7345 net.cpp:434] conv3_2/sep/scale <- conv3_2/sep
I0901 14:03:43.853876  7345 net.cpp:395] conv3_2/sep/scale -> conv3_2/sep (in-place)
I0901 14:03:43.853911  7345 layer_factory.hpp:77] Creating layer conv3_2/sep/scale
I0901 14:03:43.853998  7345 net.cpp:150] Setting up conv3_2/sep/scale
I0901 14:03:43.854004  7345 net.cpp:157] Top shape: 16 256 38 38 (5914624)
I0901 14:03:43.854008  7345 net.cpp:165] Memory required for data: 1638932608
I0901 14:03:43.854013  7345 layer_factory.hpp:77] Creating layer conv3_2/sep_relu
I0901 14:03:43.854019  7345 net.cpp:100] Creating Layer conv3_2/sep_relu
I0901 14:03:43.854023  7345 net.cpp:434] conv3_2/sep_relu <- conv3_2/sep
I0901 14:03:43.854027  7345 net.cpp:395] conv3_2/sep_relu -> conv3_2/sep (in-place)
I0901 14:03:43.854600  7345 net.cpp:150] Setting up conv3_2/sep_relu
I0901 14:03:43.854610  7345 net.cpp:157] Top shape: 16 256 38 38 (5914624)
I0901 14:03:43.854614  7345 net.cpp:165] Memory required for data: 1662591104
I0901 14:03:43.854616  7345 layer_factory.hpp:77] Creating layer conv4_1/dw
I0901 14:03:43.854625  7345 net.cpp:100] Creating Layer conv4_1/dw
I0901 14:03:43.854630  7345 net.cpp:434] conv4_1/dw <- conv3_2/sep
I0901 14:03:43.854636  7345 net.cpp:408] conv4_1/dw -> conv4_1/dw
I0901 14:03:43.854812  7345 net.cpp:150] Setting up conv4_1/dw
I0901 14:03:43.854820  7345 net.cpp:157] Top shape: 16 256 38 38 (5914624)
I0901 14:03:43.854831  7345 net.cpp:165] Memory required for data: 1686249600
I0901 14:03:43.854836  7345 layer_factory.hpp:77] Creating layer conv4_1/dw/bn
I0901 14:03:43.854843  7345 net.cpp:100] Creating Layer conv4_1/dw/bn
I0901 14:03:43.854847  7345 net.cpp:434] conv4_1/dw/bn <- conv4_1/dw
I0901 14:03:43.854852  7345 net.cpp:395] conv4_1/dw/bn -> conv4_1/dw (in-place)
I0901 14:03:43.855000  7345 net.cpp:150] Setting up conv4_1/dw/bn
I0901 14:03:43.855006  7345 net.cpp:157] Top shape: 16 256 38 38 (5914624)
I0901 14:03:43.855010  7345 net.cpp:165] Memory required for data: 1709908096
I0901 14:03:43.855016  7345 layer_factory.hpp:77] Creating layer conv4_1/dw/scale
I0901 14:03:43.855022  7345 net.cpp:100] Creating Layer conv4_1/dw/scale
I0901 14:03:43.855026  7345 net.cpp:434] conv4_1/dw/scale <- conv4_1/dw
I0901 14:03:43.855031  7345 net.cpp:395] conv4_1/dw/scale -> conv4_1/dw (in-place)
I0901 14:03:43.855067  7345 layer_factory.hpp:77] Creating layer conv4_1/dw/scale
I0901 14:03:43.855156  7345 net.cpp:150] Setting up conv4_1/dw/scale
I0901 14:03:43.855164  7345 net.cpp:157] Top shape: 16 256 38 38 (5914624)
I0901 14:03:43.855166  7345 net.cpp:165] Memory required for data: 1733566592
I0901 14:03:43.855172  7345 layer_factory.hpp:77] Creating layer conv4_1/dw_relu
I0901 14:03:43.855177  7345 net.cpp:100] Creating Layer conv4_1/dw_relu
I0901 14:03:43.855181  7345 net.cpp:434] conv4_1/dw_relu <- conv4_1/dw
I0901 14:03:43.855187  7345 net.cpp:395] conv4_1/dw_relu -> conv4_1/dw (in-place)
I0901 14:03:43.855334  7345 net.cpp:150] Setting up conv4_1/dw_relu
I0901 14:03:43.855340  7345 net.cpp:157] Top shape: 16 256 38 38 (5914624)
I0901 14:03:43.855343  7345 net.cpp:165] Memory required for data: 1757225088
I0901 14:03:43.855347  7345 layer_factory.hpp:77] Creating layer conv4_1/sep
I0901 14:03:43.855356  7345 net.cpp:100] Creating Layer conv4_1/sep
I0901 14:03:43.855360  7345 net.cpp:434] conv4_1/sep <- conv4_1/dw
I0901 14:03:43.855366  7345 net.cpp:408] conv4_1/sep -> conv4_1/sep
I0901 14:03:43.858167  7345 net.cpp:150] Setting up conv4_1/sep
I0901 14:03:43.858178  7345 net.cpp:157] Top shape: 16 256 38 38 (5914624)
I0901 14:03:43.858181  7345 net.cpp:165] Memory required for data: 1780883584
I0901 14:03:43.858186  7345 layer_factory.hpp:77] Creating layer conv4_1/sep/bn
I0901 14:03:43.858191  7345 net.cpp:100] Creating Layer conv4_1/sep/bn
I0901 14:03:43.858194  7345 net.cpp:434] conv4_1/sep/bn <- conv4_1/sep
I0901 14:03:43.858199  7345 net.cpp:395] conv4_1/sep/bn -> conv4_1/sep (in-place)
I0901 14:03:43.858361  7345 net.cpp:150] Setting up conv4_1/sep/bn
I0901 14:03:43.858367  7345 net.cpp:157] Top shape: 16 256 38 38 (5914624)
I0901 14:03:43.858371  7345 net.cpp:165] Memory required for data: 1804542080
I0901 14:03:43.858376  7345 layer_factory.hpp:77] Creating layer conv4_1/sep/scale
I0901 14:03:43.858383  7345 net.cpp:100] Creating Layer conv4_1/sep/scale
I0901 14:03:43.858387  7345 net.cpp:434] conv4_1/sep/scale <- conv4_1/sep
I0901 14:03:43.858392  7345 net.cpp:395] conv4_1/sep/scale -> conv4_1/sep (in-place)
I0901 14:03:43.858428  7345 layer_factory.hpp:77] Creating layer conv4_1/sep/scale
I0901 14:03:43.858515  7345 net.cpp:150] Setting up conv4_1/sep/scale
I0901 14:03:43.858522  7345 net.cpp:157] Top shape: 16 256 38 38 (5914624)
I0901 14:03:43.858525  7345 net.cpp:165] Memory required for data: 1828200576
I0901 14:03:43.858536  7345 layer_factory.hpp:77] Creating layer conv4_1/sep_relu
I0901 14:03:43.858543  7345 net.cpp:100] Creating Layer conv4_1/sep_relu
I0901 14:03:43.858546  7345 net.cpp:434] conv4_1/sep_relu <- conv4_1/sep
I0901 14:03:43.858552  7345 net.cpp:395] conv4_1/sep_relu -> conv4_1/sep (in-place)
I0901 14:03:43.858711  7345 net.cpp:150] Setting up conv4_1/sep_relu
I0901 14:03:43.858719  7345 net.cpp:157] Top shape: 16 256 38 38 (5914624)
I0901 14:03:43.858722  7345 net.cpp:165] Memory required for data: 1851859072
I0901 14:03:43.858726  7345 layer_factory.hpp:77] Creating layer conv4_2/dw
I0901 14:03:43.858734  7345 net.cpp:100] Creating Layer conv4_2/dw
I0901 14:03:43.858747  7345 net.cpp:434] conv4_2/dw <- conv4_1/sep
I0901 14:03:43.858754  7345 net.cpp:408] conv4_2/dw -> conv4_2/dw
I0901 14:03:43.858937  7345 net.cpp:150] Setting up conv4_2/dw
I0901 14:03:43.858944  7345 net.cpp:157] Top shape: 16 256 19 19 (1478656)
I0901 14:03:43.858947  7345 net.cpp:165] Memory required for data: 1857773696
I0901 14:03:43.858952  7345 layer_factory.hpp:77] Creating layer conv4_2/dw/bn
I0901 14:03:43.858958  7345 net.cpp:100] Creating Layer conv4_2/dw/bn
I0901 14:03:43.858963  7345 net.cpp:434] conv4_2/dw/bn <- conv4_2/dw
I0901 14:03:43.858968  7345 net.cpp:395] conv4_2/dw/bn -> conv4_2/dw (in-place)
I0901 14:03:43.859119  7345 net.cpp:150] Setting up conv4_2/dw/bn
I0901 14:03:43.859125  7345 net.cpp:157] Top shape: 16 256 19 19 (1478656)
I0901 14:03:43.859128  7345 net.cpp:165] Memory required for data: 1863688320
I0901 14:03:43.859135  7345 layer_factory.hpp:77] Creating layer conv4_2/dw/scale
I0901 14:03:43.859143  7345 net.cpp:100] Creating Layer conv4_2/dw/scale
I0901 14:03:43.859146  7345 net.cpp:434] conv4_2/dw/scale <- conv4_2/dw
I0901 14:03:43.859151  7345 net.cpp:395] conv4_2/dw/scale -> conv4_2/dw (in-place)
I0901 14:03:43.859184  7345 layer_factory.hpp:77] Creating layer conv4_2/dw/scale
I0901 14:03:43.859274  7345 net.cpp:150] Setting up conv4_2/dw/scale
I0901 14:03:43.859280  7345 net.cpp:157] Top shape: 16 256 19 19 (1478656)
I0901 14:03:43.859283  7345 net.cpp:165] Memory required for data: 1869602944
I0901 14:03:43.859289  7345 layer_factory.hpp:77] Creating layer conv4_2/dw_relu
I0901 14:03:43.859294  7345 net.cpp:100] Creating Layer conv4_2/dw_relu
I0901 14:03:43.859298  7345 net.cpp:434] conv4_2/dw_relu <- conv4_2/dw
I0901 14:03:43.859303  7345 net.cpp:395] conv4_2/dw_relu -> conv4_2/dw (in-place)
I0901 14:03:43.859874  7345 net.cpp:150] Setting up conv4_2/dw_relu
I0901 14:03:43.859884  7345 net.cpp:157] Top shape: 16 256 19 19 (1478656)
I0901 14:03:43.859886  7345 net.cpp:165] Memory required for data: 1875517568
I0901 14:03:43.859889  7345 layer_factory.hpp:77] Creating layer conv4_2/sep
I0901 14:03:43.859896  7345 net.cpp:100] Creating Layer conv4_2/sep
I0901 14:03:43.859901  7345 net.cpp:434] conv4_2/sep <- conv4_2/dw
I0901 14:03:43.859907  7345 net.cpp:408] conv4_2/sep -> conv4_2/sep
I0901 14:03:43.863260  7345 net.cpp:150] Setting up conv4_2/sep
I0901 14:03:43.863271  7345 net.cpp:157] Top shape: 16 512 19 19 (2957312)
I0901 14:03:43.863275  7345 net.cpp:165] Memory required for data: 1887346816
I0901 14:03:43.863278  7345 layer_factory.hpp:77] Creating layer conv4_2/sep/bn
I0901 14:03:43.863284  7345 net.cpp:100] Creating Layer conv4_2/sep/bn
I0901 14:03:43.863287  7345 net.cpp:434] conv4_2/sep/bn <- conv4_2/sep
I0901 14:03:43.863291  7345 net.cpp:395] conv4_2/sep/bn -> conv4_2/sep (in-place)
I0901 14:03:43.863454  7345 net.cpp:150] Setting up conv4_2/sep/bn
I0901 14:03:43.863461  7345 net.cpp:157] Top shape: 16 512 19 19 (2957312)
I0901 14:03:43.863466  7345 net.cpp:165] Memory required for data: 1899176064
I0901 14:03:43.863471  7345 layer_factory.hpp:77] Creating layer conv4_2/sep/scale
I0901 14:03:43.863479  7345 net.cpp:100] Creating Layer conv4_2/sep/scale
I0901 14:03:43.863482  7345 net.cpp:434] conv4_2/sep/scale <- conv4_2/sep
I0901 14:03:43.863487  7345 net.cpp:395] conv4_2/sep/scale -> conv4_2/sep (in-place)
I0901 14:03:43.863524  7345 layer_factory.hpp:77] Creating layer conv4_2/sep/scale
I0901 14:03:43.863613  7345 net.cpp:150] Setting up conv4_2/sep/scale
I0901 14:03:43.863620  7345 net.cpp:157] Top shape: 16 512 19 19 (2957312)
I0901 14:03:43.863622  7345 net.cpp:165] Memory required for data: 1911005312
I0901 14:03:43.863628  7345 layer_factory.hpp:77] Creating layer conv4_2/sep_relu
I0901 14:03:43.863634  7345 net.cpp:100] Creating Layer conv4_2/sep_relu
I0901 14:03:43.863638  7345 net.cpp:434] conv4_2/sep_relu <- conv4_2/sep
I0901 14:03:43.863642  7345 net.cpp:395] conv4_2/sep_relu -> conv4_2/sep (in-place)
I0901 14:03:43.863786  7345 net.cpp:150] Setting up conv4_2/sep_relu
I0901 14:03:43.863795  7345 net.cpp:157] Top shape: 16 512 19 19 (2957312)
I0901 14:03:43.863806  7345 net.cpp:165] Memory required for data: 1922834560
I0901 14:03:43.863809  7345 layer_factory.hpp:77] Creating layer conv5_1/dw
I0901 14:03:43.863818  7345 net.cpp:100] Creating Layer conv5_1/dw
I0901 14:03:43.863822  7345 net.cpp:434] conv5_1/dw <- conv4_2/sep
I0901 14:03:43.863829  7345 net.cpp:408] conv5_1/dw -> conv5_1/dw
I0901 14:03:43.864034  7345 net.cpp:150] Setting up conv5_1/dw
I0901 14:03:43.864042  7345 net.cpp:157] Top shape: 16 512 19 19 (2957312)
I0901 14:03:43.864045  7345 net.cpp:165] Memory required for data: 1934663808
I0901 14:03:43.864050  7345 layer_factory.hpp:77] Creating layer conv5_1/dw/bn
I0901 14:03:43.864056  7345 net.cpp:100] Creating Layer conv5_1/dw/bn
I0901 14:03:43.864060  7345 net.cpp:434] conv5_1/dw/bn <- conv5_1/dw
I0901 14:03:43.864064  7345 net.cpp:395] conv5_1/dw/bn -> conv5_1/dw (in-place)
I0901 14:03:43.864220  7345 net.cpp:150] Setting up conv5_1/dw/bn
I0901 14:03:43.864226  7345 net.cpp:157] Top shape: 16 512 19 19 (2957312)
I0901 14:03:43.864230  7345 net.cpp:165] Memory required for data: 1946493056
I0901 14:03:43.864236  7345 layer_factory.hpp:77] Creating layer conv5_1/dw/scale
I0901 14:03:43.864243  7345 net.cpp:100] Creating Layer conv5_1/dw/scale
I0901 14:03:43.864248  7345 net.cpp:434] conv5_1/dw/scale <- conv5_1/dw
I0901 14:03:43.864253  7345 net.cpp:395] conv5_1/dw/scale -> conv5_1/dw (in-place)
I0901 14:03:43.864289  7345 layer_factory.hpp:77] Creating layer conv5_1/dw/scale
I0901 14:03:43.864383  7345 net.cpp:150] Setting up conv5_1/dw/scale
I0901 14:03:43.864389  7345 net.cpp:157] Top shape: 16 512 19 19 (2957312)
I0901 14:03:43.864392  7345 net.cpp:165] Memory required for data: 1958322304
I0901 14:03:43.864398  7345 layer_factory.hpp:77] Creating layer conv5_1/dw_relu
I0901 14:03:43.864403  7345 net.cpp:100] Creating Layer conv5_1/dw_relu
I0901 14:03:43.864406  7345 net.cpp:434] conv5_1/dw_relu <- conv5_1/dw
I0901 14:03:43.864413  7345 net.cpp:395] conv5_1/dw_relu -> conv5_1/dw (in-place)
I0901 14:03:43.864987  7345 net.cpp:150] Setting up conv5_1/dw_relu
I0901 14:03:43.864997  7345 net.cpp:157] Top shape: 16 512 19 19 (2957312)
I0901 14:03:43.865001  7345 net.cpp:165] Memory required for data: 1970151552
I0901 14:03:43.865005  7345 layer_factory.hpp:77] Creating layer conv5_1/sep
I0901 14:03:43.865013  7345 net.cpp:100] Creating Layer conv5_1/sep
I0901 14:03:43.865017  7345 net.cpp:434] conv5_1/sep <- conv5_1/dw
I0901 14:03:43.865025  7345 net.cpp:408] conv5_1/sep -> conv5_1/sep
I0901 14:03:43.868952  7345 net.cpp:150] Setting up conv5_1/sep
I0901 14:03:43.868963  7345 net.cpp:157] Top shape: 16 512 19 19 (2957312)
I0901 14:03:43.868965  7345 net.cpp:165] Memory required for data: 1981980800
I0901 14:03:43.868970  7345 layer_factory.hpp:77] Creating layer conv5_1/sep/bn
I0901 14:03:43.868976  7345 net.cpp:100] Creating Layer conv5_1/sep/bn
I0901 14:03:43.868980  7345 net.cpp:434] conv5_1/sep/bn <- conv5_1/sep
I0901 14:03:43.868995  7345 net.cpp:395] conv5_1/sep/bn -> conv5_1/sep (in-place)
I0901 14:03:43.869163  7345 net.cpp:150] Setting up conv5_1/sep/bn
I0901 14:03:43.869168  7345 net.cpp:157] Top shape: 16 512 19 19 (2957312)
I0901 14:03:43.869171  7345 net.cpp:165] Memory required for data: 1993810048
I0901 14:03:43.869179  7345 layer_factory.hpp:77] Creating layer conv5_1/sep/scale
I0901 14:03:43.869184  7345 net.cpp:100] Creating Layer conv5_1/sep/scale
I0901 14:03:43.869189  7345 net.cpp:434] conv5_1/sep/scale <- conv5_1/sep
I0901 14:03:43.869194  7345 net.cpp:395] conv5_1/sep/scale -> conv5_1/sep (in-place)
I0901 14:03:43.869231  7345 layer_factory.hpp:77] Creating layer conv5_1/sep/scale
I0901 14:03:43.869323  7345 net.cpp:150] Setting up conv5_1/sep/scale
I0901 14:03:43.869329  7345 net.cpp:157] Top shape: 16 512 19 19 (2957312)
I0901 14:03:43.869333  7345 net.cpp:165] Memory required for data: 2005639296
I0901 14:03:43.869338  7345 layer_factory.hpp:77] Creating layer conv5_1/sep_relu
I0901 14:03:43.869344  7345 net.cpp:100] Creating Layer conv5_1/sep_relu
I0901 14:03:43.869349  7345 net.cpp:434] conv5_1/sep_relu <- conv5_1/sep
I0901 14:03:43.869362  7345 net.cpp:395] conv5_1/sep_relu -> conv5_1/sep (in-place)
I0901 14:03:43.869509  7345 net.cpp:150] Setting up conv5_1/sep_relu
I0901 14:03:43.869518  7345 net.cpp:157] Top shape: 16 512 19 19 (2957312)
I0901 14:03:43.869521  7345 net.cpp:165] Memory required for data: 2017468544
I0901 14:03:43.869525  7345 layer_factory.hpp:77] Creating layer conv5_2/dw
I0901 14:03:43.869534  7345 net.cpp:100] Creating Layer conv5_2/dw
I0901 14:03:43.869537  7345 net.cpp:434] conv5_2/dw <- conv5_1/sep
I0901 14:03:43.869542  7345 net.cpp:408] conv5_2/dw -> conv5_2/dw
I0901 14:03:43.869747  7345 net.cpp:150] Setting up conv5_2/dw
I0901 14:03:43.869755  7345 net.cpp:157] Top shape: 16 512 19 19 (2957312)
I0901 14:03:43.869758  7345 net.cpp:165] Memory required for data: 2029297792
I0901 14:03:43.869765  7345 layer_factory.hpp:77] Creating layer conv5_2/dw/bn
I0901 14:03:43.869770  7345 net.cpp:100] Creating Layer conv5_2/dw/bn
I0901 14:03:43.869772  7345 net.cpp:434] conv5_2/dw/bn <- conv5_2/dw
I0901 14:03:43.869778  7345 net.cpp:395] conv5_2/dw/bn -> conv5_2/dw (in-place)
I0901 14:03:43.869935  7345 net.cpp:150] Setting up conv5_2/dw/bn
I0901 14:03:43.869941  7345 net.cpp:157] Top shape: 16 512 19 19 (2957312)
I0901 14:03:43.869945  7345 net.cpp:165] Memory required for data: 2041127040
I0901 14:03:43.869951  7345 layer_factory.hpp:77] Creating layer conv5_2/dw/scale
I0901 14:03:43.869962  7345 net.cpp:100] Creating Layer conv5_2/dw/scale
I0901 14:03:43.869966  7345 net.cpp:434] conv5_2/dw/scale <- conv5_2/dw
I0901 14:03:43.869972  7345 net.cpp:395] conv5_2/dw/scale -> conv5_2/dw (in-place)
I0901 14:03:43.870008  7345 layer_factory.hpp:77] Creating layer conv5_2/dw/scale
I0901 14:03:43.870101  7345 net.cpp:150] Setting up conv5_2/dw/scale
I0901 14:03:43.870107  7345 net.cpp:157] Top shape: 16 512 19 19 (2957312)
I0901 14:03:43.870110  7345 net.cpp:165] Memory required for data: 2052956288
I0901 14:03:43.870116  7345 layer_factory.hpp:77] Creating layer conv5_2/dw_relu
I0901 14:03:43.870121  7345 net.cpp:100] Creating Layer conv5_2/dw_relu
I0901 14:03:43.870126  7345 net.cpp:434] conv5_2/dw_relu <- conv5_2/dw
I0901 14:03:43.870131  7345 net.cpp:395] conv5_2/dw_relu -> conv5_2/dw (in-place)
I0901 14:03:43.870707  7345 net.cpp:150] Setting up conv5_2/dw_relu
I0901 14:03:43.870718  7345 net.cpp:157] Top shape: 16 512 19 19 (2957312)
I0901 14:03:43.870721  7345 net.cpp:165] Memory required for data: 2064785536
I0901 14:03:43.870725  7345 layer_factory.hpp:77] Creating layer conv5_2/sep
I0901 14:03:43.870733  7345 net.cpp:100] Creating Layer conv5_2/sep
I0901 14:03:43.870738  7345 net.cpp:434] conv5_2/sep <- conv5_2/dw
I0901 14:03:43.870745  7345 net.cpp:408] conv5_2/sep -> conv5_2/sep
I0901 14:03:43.874228  7345 net.cpp:150] Setting up conv5_2/sep
I0901 14:03:43.874238  7345 net.cpp:157] Top shape: 16 512 19 19 (2957312)
I0901 14:03:43.874243  7345 net.cpp:165] Memory required for data: 2076614784
I0901 14:03:43.874249  7345 layer_factory.hpp:77] Creating layer conv5_2/sep/bn
I0901 14:03:43.874254  7345 net.cpp:100] Creating Layer conv5_2/sep/bn
I0901 14:03:43.874258  7345 net.cpp:434] conv5_2/sep/bn <- conv5_2/sep
I0901 14:03:43.874264  7345 net.cpp:395] conv5_2/sep/bn -> conv5_2/sep (in-place)
I0901 14:03:43.874431  7345 net.cpp:150] Setting up conv5_2/sep/bn
I0901 14:03:43.874438  7345 net.cpp:157] Top shape: 16 512 19 19 (2957312)
I0901 14:03:43.874441  7345 net.cpp:165] Memory required for data: 2088444032
I0901 14:03:43.874447  7345 layer_factory.hpp:77] Creating layer conv5_2/sep/scale
I0901 14:03:43.874454  7345 net.cpp:100] Creating Layer conv5_2/sep/scale
I0901 14:03:43.874457  7345 net.cpp:434] conv5_2/sep/scale <- conv5_2/sep
I0901 14:03:43.874464  7345 net.cpp:395] conv5_2/sep/scale -> conv5_2/sep (in-place)
I0901 14:03:43.874501  7345 layer_factory.hpp:77] Creating layer conv5_2/sep/scale
I0901 14:03:43.874596  7345 net.cpp:150] Setting up conv5_2/sep/scale
I0901 14:03:43.874603  7345 net.cpp:157] Top shape: 16 512 19 19 (2957312)
I0901 14:03:43.874606  7345 net.cpp:165] Memory required for data: 2100273280
I0901 14:03:43.874620  7345 layer_factory.hpp:77] Creating layer conv5_2/sep_relu
I0901 14:03:43.874626  7345 net.cpp:100] Creating Layer conv5_2/sep_relu
I0901 14:03:43.874629  7345 net.cpp:434] conv5_2/sep_relu <- conv5_2/sep
I0901 14:03:43.874634  7345 net.cpp:395] conv5_2/sep_relu -> conv5_2/sep (in-place)
I0901 14:03:43.875210  7345 net.cpp:150] Setting up conv5_2/sep_relu
I0901 14:03:43.875219  7345 net.cpp:157] Top shape: 16 512 19 19 (2957312)
I0901 14:03:43.875221  7345 net.cpp:165] Memory required for data: 2112102528
I0901 14:03:43.875224  7345 layer_factory.hpp:77] Creating layer conv5_3/dw
I0901 14:03:43.875231  7345 net.cpp:100] Creating Layer conv5_3/dw
I0901 14:03:43.875236  7345 net.cpp:434] conv5_3/dw <- conv5_2/sep
I0901 14:03:43.875241  7345 net.cpp:408] conv5_3/dw -> conv5_3/dw
I0901 14:03:43.875437  7345 net.cpp:150] Setting up conv5_3/dw
I0901 14:03:43.875444  7345 net.cpp:157] Top shape: 16 512 19 19 (2957312)
I0901 14:03:43.875447  7345 net.cpp:165] Memory required for data: 2123931776
I0901 14:03:43.875452  7345 layer_factory.hpp:77] Creating layer conv5_3/dw/bn
I0901 14:03:43.875458  7345 net.cpp:100] Creating Layer conv5_3/dw/bn
I0901 14:03:43.875461  7345 net.cpp:434] conv5_3/dw/bn <- conv5_3/dw
I0901 14:03:43.875466  7345 net.cpp:395] conv5_3/dw/bn -> conv5_3/dw (in-place)
I0901 14:03:43.875620  7345 net.cpp:150] Setting up conv5_3/dw/bn
I0901 14:03:43.875627  7345 net.cpp:157] Top shape: 16 512 19 19 (2957312)
I0901 14:03:43.875630  7345 net.cpp:165] Memory required for data: 2135761024
I0901 14:03:43.875636  7345 layer_factory.hpp:77] Creating layer conv5_3/dw/scale
I0901 14:03:43.875643  7345 net.cpp:100] Creating Layer conv5_3/dw/scale
I0901 14:03:43.875646  7345 net.cpp:434] conv5_3/dw/scale <- conv5_3/dw
I0901 14:03:43.875651  7345 net.cpp:395] conv5_3/dw/scale -> conv5_3/dw (in-place)
I0901 14:03:43.875689  7345 layer_factory.hpp:77] Creating layer conv5_3/dw/scale
I0901 14:03:43.875779  7345 net.cpp:150] Setting up conv5_3/dw/scale
I0901 14:03:43.875787  7345 net.cpp:157] Top shape: 16 512 19 19 (2957312)
I0901 14:03:43.875789  7345 net.cpp:165] Memory required for data: 2147590272
I0901 14:03:43.875794  7345 layer_factory.hpp:77] Creating layer conv5_3/dw_relu
I0901 14:03:43.875800  7345 net.cpp:100] Creating Layer conv5_3/dw_relu
I0901 14:03:43.875803  7345 net.cpp:434] conv5_3/dw_relu <- conv5_3/dw
I0901 14:03:43.875808  7345 net.cpp:395] conv5_3/dw_relu -> conv5_3/dw (in-place)
I0901 14:03:43.876394  7345 net.cpp:150] Setting up conv5_3/dw_relu
I0901 14:03:43.876405  7345 net.cpp:157] Top shape: 16 512 19 19 (2957312)
I0901 14:03:43.876407  7345 net.cpp:165] Memory required for data: 2159419520
I0901 14:03:43.876411  7345 layer_factory.hpp:77] Creating layer conv5_3/sep
I0901 14:03:43.876420  7345 net.cpp:100] Creating Layer conv5_3/sep
I0901 14:03:43.876425  7345 net.cpp:434] conv5_3/sep <- conv5_3/dw
I0901 14:03:43.876430  7345 net.cpp:408] conv5_3/sep -> conv5_3/sep
I0901 14:03:43.879864  7345 net.cpp:150] Setting up conv5_3/sep
I0901 14:03:43.879875  7345 net.cpp:157] Top shape: 16 512 19 19 (2957312)
I0901 14:03:43.879878  7345 net.cpp:165] Memory required for data: 2171248768
I0901 14:03:43.879881  7345 layer_factory.hpp:77] Creating layer conv5_3/sep/bn
I0901 14:03:43.879887  7345 net.cpp:100] Creating Layer conv5_3/sep/bn
I0901 14:03:43.879890  7345 net.cpp:434] conv5_3/sep/bn <- conv5_3/sep
I0901 14:03:43.879895  7345 net.cpp:395] conv5_3/sep/bn -> conv5_3/sep (in-place)
I0901 14:03:43.880059  7345 net.cpp:150] Setting up conv5_3/sep/bn
I0901 14:03:43.880066  7345 net.cpp:157] Top shape: 16 512 19 19 (2957312)
I0901 14:03:43.880069  7345 net.cpp:165] Memory required for data: 2183078016
I0901 14:03:43.880076  7345 layer_factory.hpp:77] Creating layer conv5_3/sep/scale
I0901 14:03:43.880084  7345 net.cpp:100] Creating Layer conv5_3/sep/scale
I0901 14:03:43.880087  7345 net.cpp:434] conv5_3/sep/scale <- conv5_3/sep
I0901 14:03:43.880092  7345 net.cpp:395] conv5_3/sep/scale -> conv5_3/sep (in-place)
I0901 14:03:43.880131  7345 layer_factory.hpp:77] Creating layer conv5_3/sep/scale
I0901 14:03:43.880237  7345 net.cpp:150] Setting up conv5_3/sep/scale
I0901 14:03:43.880244  7345 net.cpp:157] Top shape: 16 512 19 19 (2957312)
I0901 14:03:43.880249  7345 net.cpp:165] Memory required for data: 2194907264
I0901 14:03:43.880254  7345 layer_factory.hpp:77] Creating layer conv5_3/sep_relu
I0901 14:03:43.880259  7345 net.cpp:100] Creating Layer conv5_3/sep_relu
I0901 14:03:43.880262  7345 net.cpp:434] conv5_3/sep_relu <- conv5_3/sep
I0901 14:03:43.880269  7345 net.cpp:395] conv5_3/sep_relu -> conv5_3/sep (in-place)
I0901 14:03:43.880832  7345 net.cpp:150] Setting up conv5_3/sep_relu
I0901 14:03:43.880842  7345 net.cpp:157] Top shape: 16 512 19 19 (2957312)
I0901 14:03:43.880846  7345 net.cpp:165] Memory required for data: 2206736512
I0901 14:03:43.880849  7345 layer_factory.hpp:77] Creating layer conv5_4/dw
I0901 14:03:43.880857  7345 net.cpp:100] Creating Layer conv5_4/dw
I0901 14:03:43.880861  7345 net.cpp:434] conv5_4/dw <- conv5_3/sep
I0901 14:03:43.880868  7345 net.cpp:408] conv5_4/dw -> conv5_4/dw
I0901 14:03:43.881068  7345 net.cpp:150] Setting up conv5_4/dw
I0901 14:03:43.881075  7345 net.cpp:157] Top shape: 16 512 19 19 (2957312)
I0901 14:03:43.881079  7345 net.cpp:165] Memory required for data: 2218565760
I0901 14:03:43.881083  7345 layer_factory.hpp:77] Creating layer conv5_4/dw/bn
I0901 14:03:43.881088  7345 net.cpp:100] Creating Layer conv5_4/dw/bn
I0901 14:03:43.881093  7345 net.cpp:434] conv5_4/dw/bn <- conv5_4/dw
I0901 14:03:43.881096  7345 net.cpp:395] conv5_4/dw/bn -> conv5_4/dw (in-place)
I0901 14:03:43.881256  7345 net.cpp:150] Setting up conv5_4/dw/bn
I0901 14:03:43.881263  7345 net.cpp:157] Top shape: 16 512 19 19 (2957312)
I0901 14:03:43.881265  7345 net.cpp:165] Memory required for data: 2230395008
I0901 14:03:43.881273  7345 layer_factory.hpp:77] Creating layer conv5_4/dw/scale
I0901 14:03:43.881278  7345 net.cpp:100] Creating Layer conv5_4/dw/scale
I0901 14:03:43.881281  7345 net.cpp:434] conv5_4/dw/scale <- conv5_4/dw
I0901 14:03:43.881286  7345 net.cpp:395] conv5_4/dw/scale -> conv5_4/dw (in-place)
I0901 14:03:43.881325  7345 layer_factory.hpp:77] Creating layer conv5_4/dw/scale
I0901 14:03:43.881417  7345 net.cpp:150] Setting up conv5_4/dw/scale
I0901 14:03:43.881423  7345 net.cpp:157] Top shape: 16 512 19 19 (2957312)
I0901 14:03:43.881428  7345 net.cpp:165] Memory required for data: 2242224256
I0901 14:03:43.881433  7345 layer_factory.hpp:77] Creating layer conv5_4/dw_relu
I0901 14:03:43.881438  7345 net.cpp:100] Creating Layer conv5_4/dw_relu
I0901 14:03:43.881440  7345 net.cpp:434] conv5_4/dw_relu <- conv5_4/dw
I0901 14:03:43.881444  7345 net.cpp:395] conv5_4/dw_relu -> conv5_4/dw (in-place)
I0901 14:03:43.881592  7345 net.cpp:150] Setting up conv5_4/dw_relu
I0901 14:03:43.881598  7345 net.cpp:157] Top shape: 16 512 19 19 (2957312)
I0901 14:03:43.881603  7345 net.cpp:165] Memory required for data: 2254053504
I0901 14:03:43.881604  7345 layer_factory.hpp:77] Creating layer conv5_4/sep
I0901 14:03:43.881613  7345 net.cpp:100] Creating Layer conv5_4/sep
I0901 14:03:43.881616  7345 net.cpp:434] conv5_4/sep <- conv5_4/dw
I0901 14:03:43.881623  7345 net.cpp:408] conv5_4/sep -> conv5_4/sep
I0901 14:03:43.885442  7345 net.cpp:150] Setting up conv5_4/sep
I0901 14:03:43.885453  7345 net.cpp:157] Top shape: 16 512 19 19 (2957312)
I0901 14:03:43.885455  7345 net.cpp:165] Memory required for data: 2265882752
I0901 14:03:43.885459  7345 layer_factory.hpp:77] Creating layer conv5_4/sep/bn
I0901 14:03:43.885465  7345 net.cpp:100] Creating Layer conv5_4/sep/bn
I0901 14:03:43.885469  7345 net.cpp:434] conv5_4/sep/bn <- conv5_4/sep
I0901 14:03:43.885473  7345 net.cpp:395] conv5_4/sep/bn -> conv5_4/sep (in-place)
I0901 14:03:43.885641  7345 net.cpp:150] Setting up conv5_4/sep/bn
I0901 14:03:43.885648  7345 net.cpp:157] Top shape: 16 512 19 19 (2957312)
I0901 14:03:43.885651  7345 net.cpp:165] Memory required for data: 2277712000
I0901 14:03:43.885658  7345 layer_factory.hpp:77] Creating layer conv5_4/sep/scale
I0901 14:03:43.885668  7345 net.cpp:100] Creating Layer conv5_4/sep/scale
I0901 14:03:43.885680  7345 net.cpp:434] conv5_4/sep/scale <- conv5_4/sep
I0901 14:03:43.885686  7345 net.cpp:395] conv5_4/sep/scale -> conv5_4/sep (in-place)
I0901 14:03:43.885730  7345 layer_factory.hpp:77] Creating layer conv5_4/sep/scale
I0901 14:03:43.885823  7345 net.cpp:150] Setting up conv5_4/sep/scale
I0901 14:03:43.885829  7345 net.cpp:157] Top shape: 16 512 19 19 (2957312)
I0901 14:03:43.885833  7345 net.cpp:165] Memory required for data: 2289541248
I0901 14:03:43.885838  7345 layer_factory.hpp:77] Creating layer conv5_4/sep_relu
I0901 14:03:43.885843  7345 net.cpp:100] Creating Layer conv5_4/sep_relu
I0901 14:03:43.885848  7345 net.cpp:434] conv5_4/sep_relu <- conv5_4/sep
I0901 14:03:43.885852  7345 net.cpp:395] conv5_4/sep_relu -> conv5_4/sep (in-place)
I0901 14:03:43.886417  7345 net.cpp:150] Setting up conv5_4/sep_relu
I0901 14:03:43.886427  7345 net.cpp:157] Top shape: 16 512 19 19 (2957312)
I0901 14:03:43.886430  7345 net.cpp:165] Memory required for data: 2301370496
I0901 14:03:43.886433  7345 layer_factory.hpp:77] Creating layer conv5_5/dw
I0901 14:03:43.886442  7345 net.cpp:100] Creating Layer conv5_5/dw
I0901 14:03:43.886446  7345 net.cpp:434] conv5_5/dw <- conv5_4/sep
I0901 14:03:43.886451  7345 net.cpp:408] conv5_5/dw -> conv5_5/dw
I0901 14:03:43.886653  7345 net.cpp:150] Setting up conv5_5/dw
I0901 14:03:43.886660  7345 net.cpp:157] Top shape: 16 512 19 19 (2957312)
I0901 14:03:43.886663  7345 net.cpp:165] Memory required for data: 2313199744
I0901 14:03:43.886667  7345 layer_factory.hpp:77] Creating layer conv5_5/dw/bn
I0901 14:03:43.886672  7345 net.cpp:100] Creating Layer conv5_5/dw/bn
I0901 14:03:43.886677  7345 net.cpp:434] conv5_5/dw/bn <- conv5_5/dw
I0901 14:03:43.886682  7345 net.cpp:395] conv5_5/dw/bn -> conv5_5/dw (in-place)
I0901 14:03:43.886847  7345 net.cpp:150] Setting up conv5_5/dw/bn
I0901 14:03:43.886853  7345 net.cpp:157] Top shape: 16 512 19 19 (2957312)
I0901 14:03:43.886857  7345 net.cpp:165] Memory required for data: 2325028992
I0901 14:03:43.886873  7345 layer_factory.hpp:77] Creating layer conv5_5/dw/scale
I0901 14:03:43.886878  7345 net.cpp:100] Creating Layer conv5_5/dw/scale
I0901 14:03:43.886883  7345 net.cpp:434] conv5_5/dw/scale <- conv5_5/dw
I0901 14:03:43.886888  7345 net.cpp:395] conv5_5/dw/scale -> conv5_5/dw (in-place)
I0901 14:03:43.886930  7345 layer_factory.hpp:77] Creating layer conv5_5/dw/scale
I0901 14:03:43.887023  7345 net.cpp:150] Setting up conv5_5/dw/scale
I0901 14:03:43.887030  7345 net.cpp:157] Top shape: 16 512 19 19 (2957312)
I0901 14:03:43.887033  7345 net.cpp:165] Memory required for data: 2336858240
I0901 14:03:43.887039  7345 layer_factory.hpp:77] Creating layer conv5_5/dw_relu
I0901 14:03:43.887044  7345 net.cpp:100] Creating Layer conv5_5/dw_relu
I0901 14:03:43.887048  7345 net.cpp:434] conv5_5/dw_relu <- conv5_5/dw
I0901 14:03:43.887053  7345 net.cpp:395] conv5_5/dw_relu -> conv5_5/dw (in-place)
I0901 14:03:43.887199  7345 net.cpp:150] Setting up conv5_5/dw_relu
I0901 14:03:43.887207  7345 net.cpp:157] Top shape: 16 512 19 19 (2957312)
I0901 14:03:43.887210  7345 net.cpp:165] Memory required for data: 2348687488
I0901 14:03:43.887213  7345 layer_factory.hpp:77] Creating layer conv5_5/sep
I0901 14:03:43.887221  7345 net.cpp:100] Creating Layer conv5_5/sep
I0901 14:03:43.887225  7345 net.cpp:434] conv5_5/sep <- conv5_5/dw
I0901 14:03:43.887231  7345 net.cpp:408] conv5_5/sep -> conv5_5/sep
I0901 14:03:43.891034  7345 net.cpp:150] Setting up conv5_5/sep
I0901 14:03:43.891046  7345 net.cpp:157] Top shape: 16 512 19 19 (2957312)
I0901 14:03:43.891048  7345 net.cpp:165] Memory required for data: 2360516736
I0901 14:03:43.891052  7345 layer_factory.hpp:77] Creating layer conv5_5/sep/bn
I0901 14:03:43.891057  7345 net.cpp:100] Creating Layer conv5_5/sep/bn
I0901 14:03:43.891060  7345 net.cpp:434] conv5_5/sep/bn <- conv5_5/sep
I0901 14:03:43.891063  7345 net.cpp:395] conv5_5/sep/bn -> conv5_5/sep (in-place)
I0901 14:03:43.891228  7345 net.cpp:150] Setting up conv5_5/sep/bn
I0901 14:03:43.891234  7345 net.cpp:157] Top shape: 16 512 19 19 (2957312)
I0901 14:03:43.891247  7345 net.cpp:165] Memory required for data: 2372345984
I0901 14:03:43.891252  7345 layer_factory.hpp:77] Creating layer conv5_5/sep/scale
I0901 14:03:43.891258  7345 net.cpp:100] Creating Layer conv5_5/sep/scale
I0901 14:03:43.891263  7345 net.cpp:434] conv5_5/sep/scale <- conv5_5/sep
I0901 14:03:43.891269  7345 net.cpp:395] conv5_5/sep/scale -> conv5_5/sep (in-place)
I0901 14:03:43.891309  7345 layer_factory.hpp:77] Creating layer conv5_5/sep/scale
I0901 14:03:43.891407  7345 net.cpp:150] Setting up conv5_5/sep/scale
I0901 14:03:43.891413  7345 net.cpp:157] Top shape: 16 512 19 19 (2957312)
I0901 14:03:43.891417  7345 net.cpp:165] Memory required for data: 2384175232
I0901 14:03:43.891422  7345 layer_factory.hpp:77] Creating layer conv5_5/sep_relu
I0901 14:03:43.891427  7345 net.cpp:100] Creating Layer conv5_5/sep_relu
I0901 14:03:43.891430  7345 net.cpp:434] conv5_5/sep_relu <- conv5_5/sep
I0901 14:03:43.891434  7345 net.cpp:395] conv5_5/sep_relu -> conv5_5/sep (in-place)
I0901 14:03:43.891993  7345 net.cpp:150] Setting up conv5_5/sep_relu
I0901 14:03:43.892004  7345 net.cpp:157] Top shape: 16 512 19 19 (2957312)
I0901 14:03:43.892007  7345 net.cpp:165] Memory required for data: 2396004480
I0901 14:03:43.892010  7345 layer_factory.hpp:77] Creating layer conv5_5/sep_conv5_5/sep_relu_0_split
I0901 14:03:43.892016  7345 net.cpp:100] Creating Layer conv5_5/sep_conv5_5/sep_relu_0_split
I0901 14:03:43.892020  7345 net.cpp:434] conv5_5/sep_conv5_5/sep_relu_0_split <- conv5_5/sep
I0901 14:03:43.892026  7345 net.cpp:408] conv5_5/sep_conv5_5/sep_relu_0_split -> conv5_5/sep_conv5_5/sep_relu_0_split_0
I0901 14:03:43.892038  7345 net.cpp:408] conv5_5/sep_conv5_5/sep_relu_0_split -> conv5_5/sep_conv5_5/sep_relu_0_split_1
I0901 14:03:43.892045  7345 net.cpp:408] conv5_5/sep_conv5_5/sep_relu_0_split -> conv5_5/sep_conv5_5/sep_relu_0_split_2
I0901 14:03:43.892050  7345 net.cpp:408] conv5_5/sep_conv5_5/sep_relu_0_split -> conv5_5/sep_conv5_5/sep_relu_0_split_3
I0901 14:03:43.892109  7345 net.cpp:150] Setting up conv5_5/sep_conv5_5/sep_relu_0_split
I0901 14:03:43.892115  7345 net.cpp:157] Top shape: 16 512 19 19 (2957312)
I0901 14:03:43.892119  7345 net.cpp:157] Top shape: 16 512 19 19 (2957312)
I0901 14:03:43.892123  7345 net.cpp:157] Top shape: 16 512 19 19 (2957312)
I0901 14:03:43.892127  7345 net.cpp:157] Top shape: 16 512 19 19 (2957312)
I0901 14:03:43.892129  7345 net.cpp:165] Memory required for data: 2443321472
I0901 14:03:43.892132  7345 layer_factory.hpp:77] Creating layer conv5_6/dw
I0901 14:03:43.892141  7345 net.cpp:100] Creating Layer conv5_6/dw
I0901 14:03:43.892145  7345 net.cpp:434] conv5_6/dw <- conv5_5/sep_conv5_5/sep_relu_0_split_0
I0901 14:03:43.892151  7345 net.cpp:408] conv5_6/dw -> conv5_6/dw
I0901 14:03:43.892338  7345 net.cpp:150] Setting up conv5_6/dw
I0901 14:03:43.892344  7345 net.cpp:157] Top shape: 16 512 10 10 (819200)
I0901 14:03:43.892349  7345 net.cpp:165] Memory required for data: 2446598272
I0901 14:03:43.892354  7345 layer_factory.hpp:77] Creating layer conv5_6/dw/bn
I0901 14:03:43.892359  7345 net.cpp:100] Creating Layer conv5_6/dw/bn
I0901 14:03:43.892364  7345 net.cpp:434] conv5_6/dw/bn <- conv5_6/dw
I0901 14:03:43.892367  7345 net.cpp:395] conv5_6/dw/bn -> conv5_6/dw (in-place)
I0901 14:03:43.892529  7345 net.cpp:150] Setting up conv5_6/dw/bn
I0901 14:03:43.892535  7345 net.cpp:157] Top shape: 16 512 10 10 (819200)
I0901 14:03:43.892539  7345 net.cpp:165] Memory required for data: 2449875072
I0901 14:03:43.892545  7345 layer_factory.hpp:77] Creating layer conv5_6/dw/scale
I0901 14:03:43.892552  7345 net.cpp:100] Creating Layer conv5_6/dw/scale
I0901 14:03:43.892555  7345 net.cpp:434] conv5_6/dw/scale <- conv5_6/dw
I0901 14:03:43.892560  7345 net.cpp:395] conv5_6/dw/scale -> conv5_6/dw (in-place)
I0901 14:03:43.892593  7345 layer_factory.hpp:77] Creating layer conv5_6/dw/scale
I0901 14:03:43.892690  7345 net.cpp:150] Setting up conv5_6/dw/scale
I0901 14:03:43.892698  7345 net.cpp:157] Top shape: 16 512 10 10 (819200)
I0901 14:03:43.892700  7345 net.cpp:165] Memory required for data: 2453151872
I0901 14:03:43.892714  7345 layer_factory.hpp:77] Creating layer conv5_6/dw_relu
I0901 14:03:43.892719  7345 net.cpp:100] Creating Layer conv5_6/dw_relu
I0901 14:03:43.892722  7345 net.cpp:434] conv5_6/dw_relu <- conv5_6/dw
I0901 14:03:43.892727  7345 net.cpp:395] conv5_6/dw_relu -> conv5_6/dw (in-place)
I0901 14:03:43.893273  7345 net.cpp:150] Setting up conv5_6/dw_relu
I0901 14:03:43.893282  7345 net.cpp:157] Top shape: 16 512 10 10 (819200)
I0901 14:03:43.893285  7345 net.cpp:165] Memory required for data: 2456428672
I0901 14:03:43.893287  7345 layer_factory.hpp:77] Creating layer conv5_6/sep
I0901 14:03:43.893295  7345 net.cpp:100] Creating Layer conv5_6/sep
I0901 14:03:43.893299  7345 net.cpp:434] conv5_6/sep <- conv5_6/dw
I0901 14:03:43.893306  7345 net.cpp:408] conv5_6/sep -> conv5_6/sep
I0901 14:03:43.899231  7345 net.cpp:150] Setting up conv5_6/sep
I0901 14:03:43.899242  7345 net.cpp:157] Top shape: 16 1024 10 10 (1638400)
I0901 14:03:43.899245  7345 net.cpp:165] Memory required for data: 2462982272
I0901 14:03:43.899250  7345 layer_factory.hpp:77] Creating layer conv5_6/sep/bn
I0901 14:03:43.899253  7345 net.cpp:100] Creating Layer conv5_6/sep/bn
I0901 14:03:43.899256  7345 net.cpp:434] conv5_6/sep/bn <- conv5_6/sep
I0901 14:03:43.899261  7345 net.cpp:395] conv5_6/sep/bn -> conv5_6/sep (in-place)
I0901 14:03:43.899427  7345 net.cpp:150] Setting up conv5_6/sep/bn
I0901 14:03:43.899435  7345 net.cpp:157] Top shape: 16 1024 10 10 (1638400)
I0901 14:03:43.899437  7345 net.cpp:165] Memory required for data: 2469535872
I0901 14:03:43.899444  7345 layer_factory.hpp:77] Creating layer conv5_6/sep/scale
I0901 14:03:43.899451  7345 net.cpp:100] Creating Layer conv5_6/sep/scale
I0901 14:03:43.899454  7345 net.cpp:434] conv5_6/sep/scale <- conv5_6/sep
I0901 14:03:43.899461  7345 net.cpp:395] conv5_6/sep/scale -> conv5_6/sep (in-place)
I0901 14:03:43.899494  7345 layer_factory.hpp:77] Creating layer conv5_6/sep/scale
I0901 14:03:43.899590  7345 net.cpp:150] Setting up conv5_6/sep/scale
I0901 14:03:43.899596  7345 net.cpp:157] Top shape: 16 1024 10 10 (1638400)
I0901 14:03:43.899600  7345 net.cpp:165] Memory required for data: 2476089472
I0901 14:03:43.899605  7345 layer_factory.hpp:77] Creating layer conv5_6/sep_relu
I0901 14:03:43.899610  7345 net.cpp:100] Creating Layer conv5_6/sep_relu
I0901 14:03:43.899613  7345 net.cpp:434] conv5_6/sep_relu <- conv5_6/sep
I0901 14:03:43.899619  7345 net.cpp:395] conv5_6/sep_relu -> conv5_6/sep (in-place)
I0901 14:03:43.899762  7345 net.cpp:150] Setting up conv5_6/sep_relu
I0901 14:03:43.899770  7345 net.cpp:157] Top shape: 16 1024 10 10 (1638400)
I0901 14:03:43.899773  7345 net.cpp:165] Memory required for data: 2482643072
I0901 14:03:43.899777  7345 layer_factory.hpp:77] Creating layer conv6/dw
I0901 14:03:43.899785  7345 net.cpp:100] Creating Layer conv6/dw
I0901 14:03:43.899791  7345 net.cpp:434] conv6/dw <- conv5_6/sep
I0901 14:03:43.899797  7345 net.cpp:408] conv6/dw -> conv6/dw
I0901 14:03:43.900034  7345 net.cpp:150] Setting up conv6/dw
I0901 14:03:43.900041  7345 net.cpp:157] Top shape: 16 1024 10 10 (1638400)
I0901 14:03:43.900044  7345 net.cpp:165] Memory required for data: 2489196672
I0901 14:03:43.900049  7345 layer_factory.hpp:77] Creating layer conv6/dw/bn
I0901 14:03:43.900054  7345 net.cpp:100] Creating Layer conv6/dw/bn
I0901 14:03:43.900058  7345 net.cpp:434] conv6/dw/bn <- conv6/dw
I0901 14:03:43.900063  7345 net.cpp:395] conv6/dw/bn -> conv6/dw (in-place)
I0901 14:03:43.900223  7345 net.cpp:150] Setting up conv6/dw/bn
I0901 14:03:43.900228  7345 net.cpp:157] Top shape: 16 1024 10 10 (1638400)
I0901 14:03:43.900231  7345 net.cpp:165] Memory required for data: 2495750272
I0901 14:03:43.900236  7345 layer_factory.hpp:77] Creating layer conv6/dw/scale
I0901 14:03:43.900241  7345 net.cpp:100] Creating Layer conv6/dw/scale
I0901 14:03:43.900245  7345 net.cpp:434] conv6/dw/scale <- conv6/dw
I0901 14:03:43.900251  7345 net.cpp:395] conv6/dw/scale -> conv6/dw (in-place)
I0901 14:03:43.900283  7345 layer_factory.hpp:77] Creating layer conv6/dw/scale
I0901 14:03:43.900391  7345 net.cpp:150] Setting up conv6/dw/scale
I0901 14:03:43.900398  7345 net.cpp:157] Top shape: 16 1024 10 10 (1638400)
I0901 14:03:43.900401  7345 net.cpp:165] Memory required for data: 2502303872
I0901 14:03:43.900406  7345 layer_factory.hpp:77] Creating layer conv6/dw_relu
I0901 14:03:43.900411  7345 net.cpp:100] Creating Layer conv6/dw_relu
I0901 14:03:43.900415  7345 net.cpp:434] conv6/dw_relu <- conv6/dw
I0901 14:03:43.900420  7345 net.cpp:395] conv6/dw_relu -> conv6/dw (in-place)
I0901 14:03:43.900969  7345 net.cpp:150] Setting up conv6/dw_relu
I0901 14:03:43.900979  7345 net.cpp:157] Top shape: 16 1024 10 10 (1638400)
I0901 14:03:43.900982  7345 net.cpp:165] Memory required for data: 2508857472
I0901 14:03:43.900986  7345 layer_factory.hpp:77] Creating layer conv6/sep
I0901 14:03:43.900995  7345 net.cpp:100] Creating Layer conv6/sep
I0901 14:03:43.900998  7345 net.cpp:434] conv6/sep <- conv6/dw
I0901 14:03:43.901005  7345 net.cpp:408] conv6/sep -> conv6/sep
I0901 14:03:43.911231  7345 net.cpp:150] Setting up conv6/sep
I0901 14:03:43.911242  7345 net.cpp:157] Top shape: 16 1024 10 10 (1638400)
I0901 14:03:43.911245  7345 net.cpp:165] Memory required for data: 2515411072
I0901 14:03:43.911249  7345 layer_factory.hpp:77] Creating layer conv6/sep/bn
I0901 14:03:43.911254  7345 net.cpp:100] Creating Layer conv6/sep/bn
I0901 14:03:43.911257  7345 net.cpp:434] conv6/sep/bn <- conv6/sep
I0901 14:03:43.911262  7345 net.cpp:395] conv6/sep/bn -> conv6/sep (in-place)
I0901 14:03:43.911432  7345 net.cpp:150] Setting up conv6/sep/bn
I0901 14:03:43.911438  7345 net.cpp:157] Top shape: 16 1024 10 10 (1638400)
I0901 14:03:43.911442  7345 net.cpp:165] Memory required for data: 2521964672
I0901 14:03:43.911447  7345 layer_factory.hpp:77] Creating layer conv6/sep/scale
I0901 14:03:43.911453  7345 net.cpp:100] Creating Layer conv6/sep/scale
I0901 14:03:43.911458  7345 net.cpp:434] conv6/sep/scale <- conv6/sep
I0901 14:03:43.911463  7345 net.cpp:395] conv6/sep/scale -> conv6/sep (in-place)
I0901 14:03:43.911497  7345 layer_factory.hpp:77] Creating layer conv6/sep/scale
I0901 14:03:43.911597  7345 net.cpp:150] Setting up conv6/sep/scale
I0901 14:03:43.911602  7345 net.cpp:157] Top shape: 16 1024 10 10 (1638400)
I0901 14:03:43.911605  7345 net.cpp:165] Memory required for data: 2528518272
I0901 14:03:43.911612  7345 layer_factory.hpp:77] Creating layer conv6/sep_relu
I0901 14:03:43.911617  7345 net.cpp:100] Creating Layer conv6/sep_relu
I0901 14:03:43.911620  7345 net.cpp:434] conv6/sep_relu <- conv6/sep
I0901 14:03:43.911625  7345 net.cpp:395] conv6/sep_relu -> conv6/sep (in-place)
I0901 14:03:43.911763  7345 net.cpp:150] Setting up conv6/sep_relu
I0901 14:03:43.911777  7345 net.cpp:157] Top shape: 16 1024 10 10 (1638400)
I0901 14:03:43.911780  7345 net.cpp:165] Memory required for data: 2535071872
I0901 14:03:43.911783  7345 layer_factory.hpp:77] Creating layer conv6/sep_conv6/sep_relu_0_split
I0901 14:03:43.911790  7345 net.cpp:100] Creating Layer conv6/sep_conv6/sep_relu_0_split
I0901 14:03:43.911794  7345 net.cpp:434] conv6/sep_conv6/sep_relu_0_split <- conv6/sep
I0901 14:03:43.911799  7345 net.cpp:408] conv6/sep_conv6/sep_relu_0_split -> conv6/sep_conv6/sep_relu_0_split_0
I0901 14:03:43.911806  7345 net.cpp:408] conv6/sep_conv6/sep_relu_0_split -> conv6/sep_conv6/sep_relu_0_split_1
I0901 14:03:43.911813  7345 net.cpp:408] conv6/sep_conv6/sep_relu_0_split -> conv6/sep_conv6/sep_relu_0_split_2
I0901 14:03:43.911818  7345 net.cpp:408] conv6/sep_conv6/sep_relu_0_split -> conv6/sep_conv6/sep_relu_0_split_3
I0901 14:03:43.911877  7345 net.cpp:150] Setting up conv6/sep_conv6/sep_relu_0_split
I0901 14:03:43.911883  7345 net.cpp:157] Top shape: 16 1024 10 10 (1638400)
I0901 14:03:43.911887  7345 net.cpp:157] Top shape: 16 1024 10 10 (1638400)
I0901 14:03:43.911891  7345 net.cpp:157] Top shape: 16 1024 10 10 (1638400)
I0901 14:03:43.911895  7345 net.cpp:157] Top shape: 16 1024 10 10 (1638400)
I0901 14:03:43.911898  7345 net.cpp:165] Memory required for data: 2561286272
I0901 14:03:43.911901  7345 layer_factory.hpp:77] Creating layer conv7_1
I0901 14:03:43.911921  7345 net.cpp:100] Creating Layer conv7_1
I0901 14:03:43.911926  7345 net.cpp:434] conv7_1 <- conv6/sep_conv6/sep_relu_0_split_0
I0901 14:03:43.911931  7345 net.cpp:408] conv7_1 -> conv7_1
I0901 14:03:43.914845  7345 net.cpp:150] Setting up conv7_1
I0901 14:03:43.914856  7345 net.cpp:157] Top shape: 16 256 10 10 (409600)
I0901 14:03:43.914860  7345 net.cpp:165] Memory required for data: 2562924672
I0901 14:03:43.914866  7345 layer_factory.hpp:77] Creating layer conv7_1_relu
I0901 14:03:43.914872  7345 net.cpp:100] Creating Layer conv7_1_relu
I0901 14:03:43.914876  7345 net.cpp:434] conv7_1_relu <- conv7_1
I0901 14:03:43.914880  7345 net.cpp:395] conv7_1_relu -> conv7_1 (in-place)
I0901 14:03:43.915436  7345 net.cpp:150] Setting up conv7_1_relu
I0901 14:03:43.915446  7345 net.cpp:157] Top shape: 16 256 10 10 (409600)
I0901 14:03:43.915449  7345 net.cpp:165] Memory required for data: 2564563072
I0901 14:03:43.915453  7345 layer_factory.hpp:77] Creating layer conv7_2
I0901 14:03:43.915462  7345 net.cpp:100] Creating Layer conv7_2
I0901 14:03:43.915467  7345 net.cpp:434] conv7_2 <- conv7_1
I0901 14:03:43.915473  7345 net.cpp:408] conv7_2 -> conv7_2
I0901 14:03:43.922477  7345 net.cpp:150] Setting up conv7_2
I0901 14:03:43.922488  7345 net.cpp:157] Top shape: 16 512 5 5 (204800)
I0901 14:03:43.922490  7345 net.cpp:165] Memory required for data: 2565382272
I0901 14:03:43.922495  7345 layer_factory.hpp:77] Creating layer conv7_2_relu
I0901 14:03:43.922500  7345 net.cpp:100] Creating Layer conv7_2_relu
I0901 14:03:43.922503  7345 net.cpp:434] conv7_2_relu <- conv7_2
I0901 14:03:43.922508  7345 net.cpp:395] conv7_2_relu -> conv7_2 (in-place)
I0901 14:03:43.923058  7345 net.cpp:150] Setting up conv7_2_relu
I0901 14:03:43.923069  7345 net.cpp:157] Top shape: 16 512 5 5 (204800)
I0901 14:03:43.923070  7345 net.cpp:165] Memory required for data: 2566201472
I0901 14:03:43.923072  7345 layer_factory.hpp:77] Creating layer conv7_2_conv7_2_relu_0_split
I0901 14:03:43.923079  7345 net.cpp:100] Creating Layer conv7_2_conv7_2_relu_0_split
I0901 14:03:43.923081  7345 net.cpp:434] conv7_2_conv7_2_relu_0_split <- conv7_2
I0901 14:03:43.923086  7345 net.cpp:408] conv7_2_conv7_2_relu_0_split -> conv7_2_conv7_2_relu_0_split_0
I0901 14:03:43.923092  7345 net.cpp:408] conv7_2_conv7_2_relu_0_split -> conv7_2_conv7_2_relu_0_split_1
I0901 14:03:43.923097  7345 net.cpp:408] conv7_2_conv7_2_relu_0_split -> conv7_2_conv7_2_relu_0_split_2
I0901 14:03:43.923105  7345 net.cpp:408] conv7_2_conv7_2_relu_0_split -> conv7_2_conv7_2_relu_0_split_3
I0901 14:03:43.923166  7345 net.cpp:150] Setting up conv7_2_conv7_2_relu_0_split
I0901 14:03:43.923173  7345 net.cpp:157] Top shape: 16 512 5 5 (204800)
I0901 14:03:43.923177  7345 net.cpp:157] Top shape: 16 512 5 5 (204800)
I0901 14:03:43.923182  7345 net.cpp:157] Top shape: 16 512 5 5 (204800)
I0901 14:03:43.923185  7345 net.cpp:157] Top shape: 16 512 5 5 (204800)
I0901 14:03:43.923188  7345 net.cpp:165] Memory required for data: 2569478272
I0901 14:03:43.923192  7345 layer_factory.hpp:77] Creating layer conv8_1
I0901 14:03:43.923200  7345 net.cpp:100] Creating Layer conv8_1
I0901 14:03:43.923204  7345 net.cpp:434] conv8_1 <- conv7_2_conv7_2_relu_0_split_0
I0901 14:03:43.923210  7345 net.cpp:408] conv8_1 -> conv8_1
I0901 14:03:43.925097  7345 net.cpp:150] Setting up conv8_1
I0901 14:03:43.925108  7345 net.cpp:157] Top shape: 16 128 5 5 (51200)
I0901 14:03:43.925112  7345 net.cpp:165] Memory required for data: 2569683072
I0901 14:03:43.925117  7345 layer_factory.hpp:77] Creating layer conv8_1_relu
I0901 14:03:43.925120  7345 net.cpp:100] Creating Layer conv8_1_relu
I0901 14:03:43.925123  7345 net.cpp:434] conv8_1_relu <- conv8_1
I0901 14:03:43.925127  7345 net.cpp:395] conv8_1_relu -> conv8_1 (in-place)
I0901 14:03:43.925271  7345 net.cpp:150] Setting up conv8_1_relu
I0901 14:03:43.925277  7345 net.cpp:157] Top shape: 16 128 5 5 (51200)
I0901 14:03:43.925281  7345 net.cpp:165] Memory required for data: 2569887872
I0901 14:03:43.925284  7345 layer_factory.hpp:77] Creating layer conv8_2
I0901 14:03:43.925302  7345 net.cpp:100] Creating Layer conv8_2
I0901 14:03:43.925307  7345 net.cpp:434] conv8_2 <- conv8_1
I0901 14:03:43.925313  7345 net.cpp:408] conv8_2 -> conv8_2
I0901 14:03:43.928405  7345 net.cpp:150] Setting up conv8_2
I0901 14:03:43.928416  7345 net.cpp:157] Top shape: 16 256 3 3 (36864)
I0901 14:03:43.928417  7345 net.cpp:165] Memory required for data: 2570035328
I0901 14:03:43.928422  7345 layer_factory.hpp:77] Creating layer conv8_2_relu
I0901 14:03:43.928426  7345 net.cpp:100] Creating Layer conv8_2_relu
I0901 14:03:43.928429  7345 net.cpp:434] conv8_2_relu <- conv8_2
I0901 14:03:43.928436  7345 net.cpp:395] conv8_2_relu -> conv8_2 (in-place)
I0901 14:03:43.928988  7345 net.cpp:150] Setting up conv8_2_relu
I0901 14:03:43.928998  7345 net.cpp:157] Top shape: 16 256 3 3 (36864)
I0901 14:03:43.929000  7345 net.cpp:165] Memory required for data: 2570182784
I0901 14:03:43.929003  7345 layer_factory.hpp:77] Creating layer conv8_2_conv8_2_relu_0_split
I0901 14:03:43.929010  7345 net.cpp:100] Creating Layer conv8_2_conv8_2_relu_0_split
I0901 14:03:43.929013  7345 net.cpp:434] conv8_2_conv8_2_relu_0_split <- conv8_2
I0901 14:03:43.929018  7345 net.cpp:408] conv8_2_conv8_2_relu_0_split -> conv8_2_conv8_2_relu_0_split_0
I0901 14:03:43.929024  7345 net.cpp:408] conv8_2_conv8_2_relu_0_split -> conv8_2_conv8_2_relu_0_split_1
I0901 14:03:43.929030  7345 net.cpp:408] conv8_2_conv8_2_relu_0_split -> conv8_2_conv8_2_relu_0_split_2
I0901 14:03:43.929035  7345 net.cpp:408] conv8_2_conv8_2_relu_0_split -> conv8_2_conv8_2_relu_0_split_3
I0901 14:03:43.929097  7345 net.cpp:150] Setting up conv8_2_conv8_2_relu_0_split
I0901 14:03:43.929105  7345 net.cpp:157] Top shape: 16 256 3 3 (36864)
I0901 14:03:43.929108  7345 net.cpp:157] Top shape: 16 256 3 3 (36864)
I0901 14:03:43.929111  7345 net.cpp:157] Top shape: 16 256 3 3 (36864)
I0901 14:03:43.929116  7345 net.cpp:157] Top shape: 16 256 3 3 (36864)
I0901 14:03:43.929117  7345 net.cpp:165] Memory required for data: 2570772608
I0901 14:03:43.929121  7345 layer_factory.hpp:77] Creating layer conv9_1
I0901 14:03:43.929131  7345 net.cpp:100] Creating Layer conv9_1
I0901 14:03:43.929134  7345 net.cpp:434] conv9_1 <- conv8_2_conv8_2_relu_0_split_0
I0901 14:03:43.929141  7345 net.cpp:408] conv9_1 -> conv9_1
I0901 14:03:43.930356  7345 net.cpp:150] Setting up conv9_1
I0901 14:03:43.930367  7345 net.cpp:157] Top shape: 16 128 3 3 (18432)
I0901 14:03:43.930371  7345 net.cpp:165] Memory required for data: 2570846336
I0901 14:03:43.930375  7345 layer_factory.hpp:77] Creating layer conv9_1_relu
I0901 14:03:43.930379  7345 net.cpp:100] Creating Layer conv9_1_relu
I0901 14:03:43.930382  7345 net.cpp:434] conv9_1_relu <- conv9_1
I0901 14:03:43.930387  7345 net.cpp:395] conv9_1_relu -> conv9_1 (in-place)
I0901 14:03:43.930939  7345 net.cpp:150] Setting up conv9_1_relu
I0901 14:03:43.930949  7345 net.cpp:157] Top shape: 16 128 3 3 (18432)
I0901 14:03:43.930951  7345 net.cpp:165] Memory required for data: 2570920064
I0901 14:03:43.930954  7345 layer_factory.hpp:77] Creating layer conv9_2
I0901 14:03:43.930961  7345 net.cpp:100] Creating Layer conv9_2
I0901 14:03:43.930964  7345 net.cpp:434] conv9_2 <- conv9_1
I0901 14:03:43.930970  7345 net.cpp:408] conv9_2 -> conv9_2
I0901 14:03:43.934460  7345 net.cpp:150] Setting up conv9_2
I0901 14:03:43.934471  7345 net.cpp:157] Top shape: 16 256 2 2 (16384)
I0901 14:03:43.934473  7345 net.cpp:165] Memory required for data: 2570985600
I0901 14:03:43.934478  7345 layer_factory.hpp:77] Creating layer conv9_2_relu
I0901 14:03:43.934482  7345 net.cpp:100] Creating Layer conv9_2_relu
I0901 14:03:43.934485  7345 net.cpp:434] conv9_2_relu <- conv9_2
I0901 14:03:43.934491  7345 net.cpp:395] conv9_2_relu -> conv9_2 (in-place)
I0901 14:03:43.934638  7345 net.cpp:150] Setting up conv9_2_relu
I0901 14:03:43.934646  7345 net.cpp:157] Top shape: 16 256 2 2 (16384)
I0901 14:03:43.934649  7345 net.cpp:165] Memory required for data: 2571051136
I0901 14:03:43.934653  7345 layer_factory.hpp:77] Creating layer conv9_2_conv9_2_relu_0_split
I0901 14:03:43.934659  7345 net.cpp:100] Creating Layer conv9_2_conv9_2_relu_0_split
I0901 14:03:43.934670  7345 net.cpp:434] conv9_2_conv9_2_relu_0_split <- conv9_2
I0901 14:03:43.934677  7345 net.cpp:408] conv9_2_conv9_2_relu_0_split -> conv9_2_conv9_2_relu_0_split_0
I0901 14:03:43.934684  7345 net.cpp:408] conv9_2_conv9_2_relu_0_split -> conv9_2_conv9_2_relu_0_split_1
I0901 14:03:43.934690  7345 net.cpp:408] conv9_2_conv9_2_relu_0_split -> conv9_2_conv9_2_relu_0_split_2
I0901 14:03:43.934695  7345 net.cpp:408] conv9_2_conv9_2_relu_0_split -> conv9_2_conv9_2_relu_0_split_3
I0901 14:03:43.934757  7345 net.cpp:150] Setting up conv9_2_conv9_2_relu_0_split
I0901 14:03:43.934765  7345 net.cpp:157] Top shape: 16 256 2 2 (16384)
I0901 14:03:43.934769  7345 net.cpp:157] Top shape: 16 256 2 2 (16384)
I0901 14:03:43.934773  7345 net.cpp:157] Top shape: 16 256 2 2 (16384)
I0901 14:03:43.934777  7345 net.cpp:157] Top shape: 16 256 2 2 (16384)
I0901 14:03:43.934779  7345 net.cpp:165] Memory required for data: 2571313280
I0901 14:03:43.934783  7345 layer_factory.hpp:77] Creating layer conv10_1
I0901 14:03:43.934792  7345 net.cpp:100] Creating Layer conv10_1
I0901 14:03:43.934795  7345 net.cpp:434] conv10_1 <- conv9_2_conv9_2_relu_0_split_0
I0901 14:03:43.934803  7345 net.cpp:408] conv10_1 -> conv10_1
I0901 14:03:43.936425  7345 net.cpp:150] Setting up conv10_1
I0901 14:03:43.936436  7345 net.cpp:157] Top shape: 16 128 2 2 (8192)
I0901 14:03:43.936439  7345 net.cpp:165] Memory required for data: 2571346048
I0901 14:03:43.936445  7345 layer_factory.hpp:77] Creating layer conv10_1_relu
I0901 14:03:43.936463  7345 net.cpp:100] Creating Layer conv10_1_relu
I0901 14:03:43.936468  7345 net.cpp:434] conv10_1_relu <- conv10_1
I0901 14:03:43.936472  7345 net.cpp:395] conv10_1_relu -> conv10_1 (in-place)
I0901 14:03:43.937036  7345 net.cpp:150] Setting up conv10_1_relu
I0901 14:03:43.937047  7345 net.cpp:157] Top shape: 16 128 2 2 (8192)
I0901 14:03:43.937048  7345 net.cpp:165] Memory required for data: 2571378816
I0901 14:03:43.937052  7345 layer_factory.hpp:77] Creating layer conv10_2
I0901 14:03:43.937059  7345 net.cpp:100] Creating Layer conv10_2
I0901 14:03:43.937062  7345 net.cpp:434] conv10_2 <- conv10_1
I0901 14:03:43.937067  7345 net.cpp:408] conv10_2 -> conv10_2
I0901 14:03:43.939761  7345 net.cpp:150] Setting up conv10_2
I0901 14:03:43.939771  7345 net.cpp:157] Top shape: 16 256 1 1 (4096)
I0901 14:03:43.939774  7345 net.cpp:165] Memory required for data: 2571395200
I0901 14:03:43.939779  7345 layer_factory.hpp:77] Creating layer conv10_2_relu
I0901 14:03:43.939784  7345 net.cpp:100] Creating Layer conv10_2_relu
I0901 14:03:43.939786  7345 net.cpp:434] conv10_2_relu <- conv10_2
I0901 14:03:43.939791  7345 net.cpp:395] conv10_2_relu -> conv10_2 (in-place)
I0901 14:03:43.940345  7345 net.cpp:150] Setting up conv10_2_relu
I0901 14:03:43.940354  7345 net.cpp:157] Top shape: 16 256 1 1 (4096)
I0901 14:03:43.940356  7345 net.cpp:165] Memory required for data: 2571411584
I0901 14:03:43.940359  7345 layer_factory.hpp:77] Creating layer conv10_2_conv10_2_relu_0_split
I0901 14:03:43.940364  7345 net.cpp:100] Creating Layer conv10_2_conv10_2_relu_0_split
I0901 14:03:43.940367  7345 net.cpp:434] conv10_2_conv10_2_relu_0_split <- conv10_2
I0901 14:03:43.940371  7345 net.cpp:408] conv10_2_conv10_2_relu_0_split -> conv10_2_conv10_2_relu_0_split_0
I0901 14:03:43.940384  7345 net.cpp:408] conv10_2_conv10_2_relu_0_split -> conv10_2_conv10_2_relu_0_split_1
I0901 14:03:43.940392  7345 net.cpp:408] conv10_2_conv10_2_relu_0_split -> conv10_2_conv10_2_relu_0_split_2
I0901 14:03:43.940444  7345 net.cpp:150] Setting up conv10_2_conv10_2_relu_0_split
I0901 14:03:43.940452  7345 net.cpp:157] Top shape: 16 256 1 1 (4096)
I0901 14:03:43.940457  7345 net.cpp:157] Top shape: 16 256 1 1 (4096)
I0901 14:03:43.940461  7345 net.cpp:157] Top shape: 16 256 1 1 (4096)
I0901 14:03:43.940464  7345 net.cpp:165] Memory required for data: 2571460736
I0901 14:03:43.940469  7345 layer_factory.hpp:77] Creating layer conv5_5/sep_mbox_loc
I0901 14:03:43.940475  7345 net.cpp:100] Creating Layer conv5_5/sep_mbox_loc
I0901 14:03:43.940488  7345 net.cpp:434] conv5_5/sep_mbox_loc <- conv5_5/sep_conv5_5/sep_relu_0_split_1
I0901 14:03:43.940496  7345 net.cpp:408] conv5_5/sep_mbox_loc -> conv5_5/sep_mbox_loc
I0901 14:03:43.942626  7345 net.cpp:150] Setting up conv5_5/sep_mbox_loc
I0901 14:03:43.942637  7345 net.cpp:157] Top shape: 16 12 19 19 (69312)
I0901 14:03:43.942639  7345 net.cpp:165] Memory required for data: 2571737984
I0901 14:03:43.942644  7345 layer_factory.hpp:77] Creating layer conv5_5/sep_mbox_loc_perm
I0901 14:03:43.942652  7345 net.cpp:100] Creating Layer conv5_5/sep_mbox_loc_perm
I0901 14:03:43.942656  7345 net.cpp:434] conv5_5/sep_mbox_loc_perm <- conv5_5/sep_mbox_loc
I0901 14:03:43.942661  7345 net.cpp:408] conv5_5/sep_mbox_loc_perm -> conv5_5/sep_mbox_loc_perm
I0901 14:03:43.942764  7345 net.cpp:150] Setting up conv5_5/sep_mbox_loc_perm
I0901 14:03:43.942770  7345 net.cpp:157] Top shape: 16 19 19 12 (69312)
I0901 14:03:43.942773  7345 net.cpp:165] Memory required for data: 2572015232
I0901 14:03:43.942775  7345 layer_factory.hpp:77] Creating layer conv5_5/sep_mbox_loc_flat
I0901 14:03:43.942782  7345 net.cpp:100] Creating Layer conv5_5/sep_mbox_loc_flat
I0901 14:03:43.942786  7345 net.cpp:434] conv5_5/sep_mbox_loc_flat <- conv5_5/sep_mbox_loc_perm
I0901 14:03:43.942791  7345 net.cpp:408] conv5_5/sep_mbox_loc_flat -> conv5_5/sep_mbox_loc_flat
I0901 14:03:43.942819  7345 net.cpp:150] Setting up conv5_5/sep_mbox_loc_flat
I0901 14:03:43.942824  7345 net.cpp:157] Top shape: 16 4332 (69312)
I0901 14:03:43.942827  7345 net.cpp:165] Memory required for data: 2572292480
I0901 14:03:43.942831  7345 layer_factory.hpp:77] Creating layer conv5_5/sep_mbox_conf
I0901 14:03:43.942839  7345 net.cpp:100] Creating Layer conv5_5/sep_mbox_conf
I0901 14:03:43.942843  7345 net.cpp:434] conv5_5/sep_mbox_conf <- conv5_5/sep_conv5_5/sep_relu_0_split_2
I0901 14:03:43.942850  7345 net.cpp:408] conv5_5/sep_mbox_conf -> conv5_5/sep_mbox_conf
I0901 14:03:43.945340  7345 net.cpp:150] Setting up conv5_5/sep_mbox_conf
I0901 14:03:43.945351  7345 net.cpp:157] Top shape: 16 12 19 19 (69312)
I0901 14:03:43.945355  7345 net.cpp:165] Memory required for data: 2572569728
I0901 14:03:43.945361  7345 layer_factory.hpp:77] Creating layer conv5_5/sep_mbox_conf_perm
I0901 14:03:43.945369  7345 net.cpp:100] Creating Layer conv5_5/sep_mbox_conf_perm
I0901 14:03:43.945372  7345 net.cpp:434] conv5_5/sep_mbox_conf_perm <- conv5_5/sep_mbox_conf
I0901 14:03:43.945377  7345 net.cpp:408] conv5_5/sep_mbox_conf_perm -> conv5_5/sep_mbox_conf_perm
I0901 14:03:43.945477  7345 net.cpp:150] Setting up conv5_5/sep_mbox_conf_perm
I0901 14:03:43.945484  7345 net.cpp:157] Top shape: 16 19 19 12 (69312)
I0901 14:03:43.945487  7345 net.cpp:165] Memory required for data: 2572846976
I0901 14:03:43.945489  7345 layer_factory.hpp:77] Creating layer conv5_5/sep_mbox_conf_flat
I0901 14:03:43.945498  7345 net.cpp:100] Creating Layer conv5_5/sep_mbox_conf_flat
I0901 14:03:43.945502  7345 net.cpp:434] conv5_5/sep_mbox_conf_flat <- conv5_5/sep_mbox_conf_perm
I0901 14:03:43.945508  7345 net.cpp:408] conv5_5/sep_mbox_conf_flat -> conv5_5/sep_mbox_conf_flat
I0901 14:03:43.945534  7345 net.cpp:150] Setting up conv5_5/sep_mbox_conf_flat
I0901 14:03:43.945540  7345 net.cpp:157] Top shape: 16 4332 (69312)
I0901 14:03:43.945544  7345 net.cpp:165] Memory required for data: 2573124224
I0901 14:03:43.945546  7345 layer_factory.hpp:77] Creating layer conv5_5/sep_mbox_priorbox
I0901 14:03:43.945554  7345 net.cpp:100] Creating Layer conv5_5/sep_mbox_priorbox
I0901 14:03:43.945559  7345 net.cpp:434] conv5_5/sep_mbox_priorbox <- conv5_5/sep_conv5_5/sep_relu_0_split_3
I0901 14:03:43.945564  7345 net.cpp:434] conv5_5/sep_mbox_priorbox <- data_data_0_split_1
I0901 14:03:43.945569  7345 net.cpp:408] conv5_5/sep_mbox_priorbox -> conv5_5/sep_mbox_priorbox
I0901 14:03:43.945598  7345 net.cpp:150] Setting up conv5_5/sep_mbox_priorbox
I0901 14:03:43.945603  7345 net.cpp:157] Top shape: 1 2 4332 (8664)
I0901 14:03:43.945607  7345 net.cpp:165] Memory required for data: 2573158880
I0901 14:03:43.945611  7345 layer_factory.hpp:77] Creating layer conv6/sep_mbox_loc
I0901 14:03:43.945628  7345 net.cpp:100] Creating Layer conv6/sep_mbox_loc
I0901 14:03:43.945632  7345 net.cpp:434] conv6/sep_mbox_loc <- conv6/sep_conv6/sep_relu_0_split_1
I0901 14:03:43.945639  7345 net.cpp:408] conv6/sep_mbox_loc -> conv6/sep_mbox_loc
I0901 14:03:43.948421  7345 net.cpp:150] Setting up conv6/sep_mbox_loc
I0901 14:03:43.948431  7345 net.cpp:157] Top shape: 16 24 10 10 (38400)
I0901 14:03:43.948436  7345 net.cpp:165] Memory required for data: 2573312480
I0901 14:03:43.948442  7345 layer_factory.hpp:77] Creating layer conv6/sep_mbox_loc_perm
I0901 14:03:43.948449  7345 net.cpp:100] Creating Layer conv6/sep_mbox_loc_perm
I0901 14:03:43.948453  7345 net.cpp:434] conv6/sep_mbox_loc_perm <- conv6/sep_mbox_loc
I0901 14:03:43.948458  7345 net.cpp:408] conv6/sep_mbox_loc_perm -> conv6/sep_mbox_loc_perm
I0901 14:03:43.948559  7345 net.cpp:150] Setting up conv6/sep_mbox_loc_perm
I0901 14:03:43.948566  7345 net.cpp:157] Top shape: 16 10 10 24 (38400)
I0901 14:03:43.948570  7345 net.cpp:165] Memory required for data: 2573466080
I0901 14:03:43.948572  7345 layer_factory.hpp:77] Creating layer conv6/sep_mbox_loc_flat
I0901 14:03:43.948580  7345 net.cpp:100] Creating Layer conv6/sep_mbox_loc_flat
I0901 14:03:43.948583  7345 net.cpp:434] conv6/sep_mbox_loc_flat <- conv6/sep_mbox_loc_perm
I0901 14:03:43.948590  7345 net.cpp:408] conv6/sep_mbox_loc_flat -> conv6/sep_mbox_loc_flat
I0901 14:03:43.948616  7345 net.cpp:150] Setting up conv6/sep_mbox_loc_flat
I0901 14:03:43.948621  7345 net.cpp:157] Top shape: 16 2400 (38400)
I0901 14:03:43.948624  7345 net.cpp:165] Memory required for data: 2573619680
I0901 14:03:43.948627  7345 layer_factory.hpp:77] Creating layer conv6/sep_mbox_conf
I0901 14:03:43.948635  7345 net.cpp:100] Creating Layer conv6/sep_mbox_conf
I0901 14:03:43.948639  7345 net.cpp:434] conv6/sep_mbox_conf <- conv6/sep_conv6/sep_relu_0_split_2
I0901 14:03:43.948647  7345 net.cpp:408] conv6/sep_mbox_conf -> conv6/sep_mbox_conf
I0901 14:03:43.951817  7345 net.cpp:150] Setting up conv6/sep_mbox_conf
I0901 14:03:43.951828  7345 net.cpp:157] Top shape: 16 24 10 10 (38400)
I0901 14:03:43.951833  7345 net.cpp:165] Memory required for data: 2573773280
I0901 14:03:43.951838  7345 layer_factory.hpp:77] Creating layer conv6/sep_mbox_conf_perm
I0901 14:03:43.951845  7345 net.cpp:100] Creating Layer conv6/sep_mbox_conf_perm
I0901 14:03:43.951849  7345 net.cpp:434] conv6/sep_mbox_conf_perm <- conv6/sep_mbox_conf
I0901 14:03:43.951854  7345 net.cpp:408] conv6/sep_mbox_conf_perm -> conv6/sep_mbox_conf_perm
I0901 14:03:43.951956  7345 net.cpp:150] Setting up conv6/sep_mbox_conf_perm
I0901 14:03:43.951961  7345 net.cpp:157] Top shape: 16 10 10 24 (38400)
I0901 14:03:43.951966  7345 net.cpp:165] Memory required for data: 2573926880
I0901 14:03:43.951968  7345 layer_factory.hpp:77] Creating layer conv6/sep_mbox_conf_flat
I0901 14:03:43.951975  7345 net.cpp:100] Creating Layer conv6/sep_mbox_conf_flat
I0901 14:03:43.951979  7345 net.cpp:434] conv6/sep_mbox_conf_flat <- conv6/sep_mbox_conf_perm
I0901 14:03:43.951984  7345 net.cpp:408] conv6/sep_mbox_conf_flat -> conv6/sep_mbox_conf_flat
I0901 14:03:43.952009  7345 net.cpp:150] Setting up conv6/sep_mbox_conf_flat
I0901 14:03:43.952014  7345 net.cpp:157] Top shape: 16 2400 (38400)
I0901 14:03:43.952018  7345 net.cpp:165] Memory required for data: 2574080480
I0901 14:03:43.952021  7345 layer_factory.hpp:77] Creating layer conv6/sep_mbox_priorbox
I0901 14:03:43.952028  7345 net.cpp:100] Creating Layer conv6/sep_mbox_priorbox
I0901 14:03:43.952031  7345 net.cpp:434] conv6/sep_mbox_priorbox <- conv6/sep_conv6/sep_relu_0_split_3
I0901 14:03:43.952036  7345 net.cpp:434] conv6/sep_mbox_priorbox <- data_data_0_split_2
I0901 14:03:43.952041  7345 net.cpp:408] conv6/sep_mbox_priorbox -> conv6/sep_mbox_priorbox
I0901 14:03:43.952069  7345 net.cpp:150] Setting up conv6/sep_mbox_priorbox
I0901 14:03:43.952074  7345 net.cpp:157] Top shape: 1 2 2400 (4800)
I0901 14:03:43.952076  7345 net.cpp:165] Memory required for data: 2574099680
I0901 14:03:43.952088  7345 layer_factory.hpp:77] Creating layer conv7_2_mbox_loc
I0901 14:03:43.952097  7345 net.cpp:100] Creating Layer conv7_2_mbox_loc
I0901 14:03:43.952101  7345 net.cpp:434] conv7_2_mbox_loc <- conv7_2_conv7_2_relu_0_split_1
I0901 14:03:43.952108  7345 net.cpp:408] conv7_2_mbox_loc -> conv7_2_mbox_loc
I0901 14:03:43.954493  7345 net.cpp:150] Setting up conv7_2_mbox_loc
I0901 14:03:43.954504  7345 net.cpp:157] Top shape: 16 24 5 5 (9600)
I0901 14:03:43.954507  7345 net.cpp:165] Memory required for data: 2574138080
I0901 14:03:43.954512  7345 layer_factory.hpp:77] Creating layer conv7_2_mbox_loc_perm
I0901 14:03:43.954519  7345 net.cpp:100] Creating Layer conv7_2_mbox_loc_perm
I0901 14:03:43.954522  7345 net.cpp:434] conv7_2_mbox_loc_perm <- conv7_2_mbox_loc
I0901 14:03:43.954530  7345 net.cpp:408] conv7_2_mbox_loc_perm -> conv7_2_mbox_loc_perm
I0901 14:03:43.954637  7345 net.cpp:150] Setting up conv7_2_mbox_loc_perm
I0901 14:03:43.954643  7345 net.cpp:157] Top shape: 16 5 5 24 (9600)
I0901 14:03:43.954645  7345 net.cpp:165] Memory required for data: 2574176480
I0901 14:03:43.954648  7345 layer_factory.hpp:77] Creating layer conv7_2_mbox_loc_flat
I0901 14:03:43.954653  7345 net.cpp:100] Creating Layer conv7_2_mbox_loc_flat
I0901 14:03:43.954658  7345 net.cpp:434] conv7_2_mbox_loc_flat <- conv7_2_mbox_loc_perm
I0901 14:03:43.954663  7345 net.cpp:408] conv7_2_mbox_loc_flat -> conv7_2_mbox_loc_flat
I0901 14:03:43.954690  7345 net.cpp:150] Setting up conv7_2_mbox_loc_flat
I0901 14:03:43.954695  7345 net.cpp:157] Top shape: 16 600 (9600)
I0901 14:03:43.954699  7345 net.cpp:165] Memory required for data: 2574214880
I0901 14:03:43.954702  7345 layer_factory.hpp:77] Creating layer conv7_2_mbox_conf
I0901 14:03:43.954710  7345 net.cpp:100] Creating Layer conv7_2_mbox_conf
I0901 14:03:43.954715  7345 net.cpp:434] conv7_2_mbox_conf <- conv7_2_conv7_2_relu_0_split_2
I0901 14:03:43.954721  7345 net.cpp:408] conv7_2_mbox_conf -> conv7_2_mbox_conf
I0901 14:03:43.957468  7345 net.cpp:150] Setting up conv7_2_mbox_conf
I0901 14:03:43.957479  7345 net.cpp:157] Top shape: 16 24 5 5 (9600)
I0901 14:03:43.957484  7345 net.cpp:165] Memory required for data: 2574253280
I0901 14:03:43.957489  7345 layer_factory.hpp:77] Creating layer conv7_2_mbox_conf_perm
I0901 14:03:43.957495  7345 net.cpp:100] Creating Layer conv7_2_mbox_conf_perm
I0901 14:03:43.957500  7345 net.cpp:434] conv7_2_mbox_conf_perm <- conv7_2_mbox_conf
I0901 14:03:43.957505  7345 net.cpp:408] conv7_2_mbox_conf_perm -> conv7_2_mbox_conf_perm
I0901 14:03:43.957609  7345 net.cpp:150] Setting up conv7_2_mbox_conf_perm
I0901 14:03:43.957617  7345 net.cpp:157] Top shape: 16 5 5 24 (9600)
I0901 14:03:43.957619  7345 net.cpp:165] Memory required for data: 2574291680
I0901 14:03:43.957623  7345 layer_factory.hpp:77] Creating layer conv7_2_mbox_conf_flat
I0901 14:03:43.957628  7345 net.cpp:100] Creating Layer conv7_2_mbox_conf_flat
I0901 14:03:43.957631  7345 net.cpp:434] conv7_2_mbox_conf_flat <- conv7_2_mbox_conf_perm
I0901 14:03:43.957638  7345 net.cpp:408] conv7_2_mbox_conf_flat -> conv7_2_mbox_conf_flat
I0901 14:03:43.957669  7345 net.cpp:150] Setting up conv7_2_mbox_conf_flat
I0901 14:03:43.957675  7345 net.cpp:157] Top shape: 16 600 (9600)
I0901 14:03:43.957679  7345 net.cpp:165] Memory required for data: 2574330080
I0901 14:03:43.957680  7345 layer_factory.hpp:77] Creating layer conv7_2_mbox_priorbox
I0901 14:03:43.957685  7345 net.cpp:100] Creating Layer conv7_2_mbox_priorbox
I0901 14:03:43.957689  7345 net.cpp:434] conv7_2_mbox_priorbox <- conv7_2_conv7_2_relu_0_split_3
I0901 14:03:43.957695  7345 net.cpp:434] conv7_2_mbox_priorbox <- data_data_0_split_3
I0901 14:03:43.957700  7345 net.cpp:408] conv7_2_mbox_priorbox -> conv7_2_mbox_priorbox
I0901 14:03:43.957728  7345 net.cpp:150] Setting up conv7_2_mbox_priorbox
I0901 14:03:43.957733  7345 net.cpp:157] Top shape: 1 2 600 (1200)
I0901 14:03:43.957736  7345 net.cpp:165] Memory required for data: 2574334880
I0901 14:03:43.957741  7345 layer_factory.hpp:77] Creating layer conv8_2_mbox_loc
I0901 14:03:43.957748  7345 net.cpp:100] Creating Layer conv8_2_mbox_loc
I0901 14:03:43.957761  7345 net.cpp:434] conv8_2_mbox_loc <- conv8_2_conv8_2_relu_0_split_1
I0901 14:03:43.957767  7345 net.cpp:408] conv8_2_mbox_loc -> conv8_2_mbox_loc
I0901 14:03:43.959918  7345 net.cpp:150] Setting up conv8_2_mbox_loc
I0901 14:03:43.959928  7345 net.cpp:157] Top shape: 16 24 3 3 (3456)
I0901 14:03:43.959930  7345 net.cpp:165] Memory required for data: 2574348704
I0901 14:03:43.959935  7345 layer_factory.hpp:77] Creating layer conv8_2_mbox_loc_perm
I0901 14:03:43.959940  7345 net.cpp:100] Creating Layer conv8_2_mbox_loc_perm
I0901 14:03:43.959944  7345 net.cpp:434] conv8_2_mbox_loc_perm <- conv8_2_mbox_loc
I0901 14:03:43.959949  7345 net.cpp:408] conv8_2_mbox_loc_perm -> conv8_2_mbox_loc_perm
I0901 14:03:43.960049  7345 net.cpp:150] Setting up conv8_2_mbox_loc_perm
I0901 14:03:43.960057  7345 net.cpp:157] Top shape: 16 3 3 24 (3456)
I0901 14:03:43.960059  7345 net.cpp:165] Memory required for data: 2574362528
I0901 14:03:43.960063  7345 layer_factory.hpp:77] Creating layer conv8_2_mbox_loc_flat
I0901 14:03:43.960068  7345 net.cpp:100] Creating Layer conv8_2_mbox_loc_flat
I0901 14:03:43.960072  7345 net.cpp:434] conv8_2_mbox_loc_flat <- conv8_2_mbox_loc_perm
I0901 14:03:43.960078  7345 net.cpp:408] conv8_2_mbox_loc_flat -> conv8_2_mbox_loc_flat
I0901 14:03:43.960103  7345 net.cpp:150] Setting up conv8_2_mbox_loc_flat
I0901 14:03:43.960115  7345 net.cpp:157] Top shape: 16 216 (3456)
I0901 14:03:43.960119  7345 net.cpp:165] Memory required for data: 2574376352
I0901 14:03:43.960122  7345 layer_factory.hpp:77] Creating layer conv8_2_mbox_conf
I0901 14:03:43.960130  7345 net.cpp:100] Creating Layer conv8_2_mbox_conf
I0901 14:03:43.960134  7345 net.cpp:434] conv8_2_mbox_conf <- conv8_2_conv8_2_relu_0_split_2
I0901 14:03:43.960141  7345 net.cpp:408] conv8_2_mbox_conf -> conv8_2_mbox_conf
I0901 14:03:43.962294  7345 net.cpp:150] Setting up conv8_2_mbox_conf
I0901 14:03:43.962306  7345 net.cpp:157] Top shape: 16 24 3 3 (3456)
I0901 14:03:43.962311  7345 net.cpp:165] Memory required for data: 2574390176
I0901 14:03:43.962316  7345 layer_factory.hpp:77] Creating layer conv8_2_mbox_conf_perm
I0901 14:03:43.962321  7345 net.cpp:100] Creating Layer conv8_2_mbox_conf_perm
I0901 14:03:43.962326  7345 net.cpp:434] conv8_2_mbox_conf_perm <- conv8_2_mbox_conf
I0901 14:03:43.962332  7345 net.cpp:408] conv8_2_mbox_conf_perm -> conv8_2_mbox_conf_perm
I0901 14:03:43.962435  7345 net.cpp:150] Setting up conv8_2_mbox_conf_perm
I0901 14:03:43.962440  7345 net.cpp:157] Top shape: 16 3 3 24 (3456)
I0901 14:03:43.962443  7345 net.cpp:165] Memory required for data: 2574404000
I0901 14:03:43.962447  7345 layer_factory.hpp:77] Creating layer conv8_2_mbox_conf_flat
I0901 14:03:43.962451  7345 net.cpp:100] Creating Layer conv8_2_mbox_conf_flat
I0901 14:03:43.962456  7345 net.cpp:434] conv8_2_mbox_conf_flat <- conv8_2_mbox_conf_perm
I0901 14:03:43.962461  7345 net.cpp:408] conv8_2_mbox_conf_flat -> conv8_2_mbox_conf_flat
I0901 14:03:43.962486  7345 net.cpp:150] Setting up conv8_2_mbox_conf_flat
I0901 14:03:43.962494  7345 net.cpp:157] Top shape: 16 216 (3456)
I0901 14:03:43.962497  7345 net.cpp:165] Memory required for data: 2574417824
I0901 14:03:43.962499  7345 layer_factory.hpp:77] Creating layer conv8_2_mbox_priorbox
I0901 14:03:43.962505  7345 net.cpp:100] Creating Layer conv8_2_mbox_priorbox
I0901 14:03:43.962508  7345 net.cpp:434] conv8_2_mbox_priorbox <- conv8_2_conv8_2_relu_0_split_3
I0901 14:03:43.962513  7345 net.cpp:434] conv8_2_mbox_priorbox <- data_data_0_split_4
I0901 14:03:43.962522  7345 net.cpp:408] conv8_2_mbox_priorbox -> conv8_2_mbox_priorbox
I0901 14:03:43.962548  7345 net.cpp:150] Setting up conv8_2_mbox_priorbox
I0901 14:03:43.962553  7345 net.cpp:157] Top shape: 1 2 216 (432)
I0901 14:03:43.962556  7345 net.cpp:165] Memory required for data: 2574419552
I0901 14:03:43.962559  7345 layer_factory.hpp:77] Creating layer conv9_2_mbox_loc
I0901 14:03:43.962568  7345 net.cpp:100] Creating Layer conv9_2_mbox_loc
I0901 14:03:43.962572  7345 net.cpp:434] conv9_2_mbox_loc <- conv9_2_conv9_2_relu_0_split_1
I0901 14:03:43.962586  7345 net.cpp:408] conv9_2_mbox_loc -> conv9_2_mbox_loc
I0901 14:03:43.964726  7345 net.cpp:150] Setting up conv9_2_mbox_loc
I0901 14:03:43.964737  7345 net.cpp:157] Top shape: 16 24 2 2 (1536)
I0901 14:03:43.964741  7345 net.cpp:165] Memory required for data: 2574425696
I0901 14:03:43.964747  7345 layer_factory.hpp:77] Creating layer conv9_2_mbox_loc_perm
I0901 14:03:43.964753  7345 net.cpp:100] Creating Layer conv9_2_mbox_loc_perm
I0901 14:03:43.964757  7345 net.cpp:434] conv9_2_mbox_loc_perm <- conv9_2_mbox_loc
I0901 14:03:43.964764  7345 net.cpp:408] conv9_2_mbox_loc_perm -> conv9_2_mbox_loc_perm
I0901 14:03:43.964869  7345 net.cpp:150] Setting up conv9_2_mbox_loc_perm
I0901 14:03:43.964874  7345 net.cpp:157] Top shape: 16 2 2 24 (1536)
I0901 14:03:43.964877  7345 net.cpp:165] Memory required for data: 2574431840
I0901 14:03:43.964880  7345 layer_factory.hpp:77] Creating layer conv9_2_mbox_loc_flat
I0901 14:03:43.964885  7345 net.cpp:100] Creating Layer conv9_2_mbox_loc_flat
I0901 14:03:43.964890  7345 net.cpp:434] conv9_2_mbox_loc_flat <- conv9_2_mbox_loc_perm
I0901 14:03:43.964895  7345 net.cpp:408] conv9_2_mbox_loc_flat -> conv9_2_mbox_loc_flat
I0901 14:03:43.964920  7345 net.cpp:150] Setting up conv9_2_mbox_loc_flat
I0901 14:03:43.964926  7345 net.cpp:157] Top shape: 16 96 (1536)
I0901 14:03:43.964929  7345 net.cpp:165] Memory required for data: 2574437984
I0901 14:03:43.964933  7345 layer_factory.hpp:77] Creating layer conv9_2_mbox_conf
I0901 14:03:43.964941  7345 net.cpp:100] Creating Layer conv9_2_mbox_conf
I0901 14:03:43.964946  7345 net.cpp:434] conv9_2_mbox_conf <- conv9_2_conv9_2_relu_0_split_2
I0901 14:03:43.964952  7345 net.cpp:408] conv9_2_mbox_conf -> conv9_2_mbox_conf
I0901 14:03:43.967458  7345 net.cpp:150] Setting up conv9_2_mbox_conf
I0901 14:03:43.967468  7345 net.cpp:157] Top shape: 16 24 2 2 (1536)
I0901 14:03:43.967473  7345 net.cpp:165] Memory required for data: 2574444128
I0901 14:03:43.967478  7345 layer_factory.hpp:77] Creating layer conv9_2_mbox_conf_perm
I0901 14:03:43.967484  7345 net.cpp:100] Creating Layer conv9_2_mbox_conf_perm
I0901 14:03:43.967489  7345 net.cpp:434] conv9_2_mbox_conf_perm <- conv9_2_mbox_conf
I0901 14:03:43.967494  7345 net.cpp:408] conv9_2_mbox_conf_perm -> conv9_2_mbox_conf_perm
I0901 14:03:43.967602  7345 net.cpp:150] Setting up conv9_2_mbox_conf_perm
I0901 14:03:43.967609  7345 net.cpp:157] Top shape: 16 2 2 24 (1536)
I0901 14:03:43.967612  7345 net.cpp:165] Memory required for data: 2574450272
I0901 14:03:43.967617  7345 layer_factory.hpp:77] Creating layer conv9_2_mbox_conf_flat
I0901 14:03:43.967622  7345 net.cpp:100] Creating Layer conv9_2_mbox_conf_flat
I0901 14:03:43.967624  7345 net.cpp:434] conv9_2_mbox_conf_flat <- conv9_2_mbox_conf_perm
I0901 14:03:43.967631  7345 net.cpp:408] conv9_2_mbox_conf_flat -> conv9_2_mbox_conf_flat
I0901 14:03:43.967656  7345 net.cpp:150] Setting up conv9_2_mbox_conf_flat
I0901 14:03:43.967663  7345 net.cpp:157] Top shape: 16 96 (1536)
I0901 14:03:43.967665  7345 net.cpp:165] Memory required for data: 2574456416
I0901 14:03:43.967669  7345 layer_factory.hpp:77] Creating layer conv9_2_mbox_priorbox
I0901 14:03:43.967675  7345 net.cpp:100] Creating Layer conv9_2_mbox_priorbox
I0901 14:03:43.967679  7345 net.cpp:434] conv9_2_mbox_priorbox <- conv9_2_conv9_2_relu_0_split_3
I0901 14:03:43.967684  7345 net.cpp:434] conv9_2_mbox_priorbox <- data_data_0_split_5
I0901 14:03:43.967690  7345 net.cpp:408] conv9_2_mbox_priorbox -> conv9_2_mbox_priorbox
I0901 14:03:43.967716  7345 net.cpp:150] Setting up conv9_2_mbox_priorbox
I0901 14:03:43.967722  7345 net.cpp:157] Top shape: 1 2 96 (192)
I0901 14:03:43.967725  7345 net.cpp:165] Memory required for data: 2574457184
I0901 14:03:43.967728  7345 layer_factory.hpp:77] Creating layer conv10_2_mbox_loc
I0901 14:03:43.967737  7345 net.cpp:100] Creating Layer conv10_2_mbox_loc
I0901 14:03:43.967742  7345 net.cpp:434] conv10_2_mbox_loc <- conv10_2_conv10_2_relu_0_split_0
I0901 14:03:43.967748  7345 net.cpp:408] conv10_2_mbox_loc -> conv10_2_mbox_loc
I0901 14:03:43.969925  7345 net.cpp:150] Setting up conv10_2_mbox_loc
I0901 14:03:43.969936  7345 net.cpp:157] Top shape: 16 24 1 1 (384)
I0901 14:03:43.969940  7345 net.cpp:165] Memory required for data: 2574458720
I0901 14:03:43.969946  7345 layer_factory.hpp:77] Creating layer conv10_2_mbox_loc_perm
I0901 14:03:43.969952  7345 net.cpp:100] Creating Layer conv10_2_mbox_loc_perm
I0901 14:03:43.969956  7345 net.cpp:434] conv10_2_mbox_loc_perm <- conv10_2_mbox_loc
I0901 14:03:43.969962  7345 net.cpp:408] conv10_2_mbox_loc_perm -> conv10_2_mbox_loc_perm
I0901 14:03:43.970069  7345 net.cpp:150] Setting up conv10_2_mbox_loc_perm
I0901 14:03:43.970075  7345 net.cpp:157] Top shape: 16 1 1 24 (384)
I0901 14:03:43.970078  7345 net.cpp:165] Memory required for data: 2574460256
I0901 14:03:43.970082  7345 layer_factory.hpp:77] Creating layer conv10_2_mbox_loc_flat
I0901 14:03:43.970088  7345 net.cpp:100] Creating Layer conv10_2_mbox_loc_flat
I0901 14:03:43.970091  7345 net.cpp:434] conv10_2_mbox_loc_flat <- conv10_2_mbox_loc_perm
I0901 14:03:43.970098  7345 net.cpp:408] conv10_2_mbox_loc_flat -> conv10_2_mbox_loc_flat
I0901 14:03:43.970124  7345 net.cpp:150] Setting up conv10_2_mbox_loc_flat
I0901 14:03:43.970129  7345 net.cpp:157] Top shape: 16 24 (384)
I0901 14:03:43.970132  7345 net.cpp:165] Memory required for data: 2574461792
I0901 14:03:43.970135  7345 layer_factory.hpp:77] Creating layer conv10_2_mbox_conf
I0901 14:03:43.970145  7345 net.cpp:100] Creating Layer conv10_2_mbox_conf
I0901 14:03:43.970149  7345 net.cpp:434] conv10_2_mbox_conf <- conv10_2_conv10_2_relu_0_split_1
I0901 14:03:43.970155  7345 net.cpp:408] conv10_2_mbox_conf -> conv10_2_mbox_conf
I0901 14:03:43.972306  7345 net.cpp:150] Setting up conv10_2_mbox_conf
I0901 14:03:43.972317  7345 net.cpp:157] Top shape: 16 24 1 1 (384)
I0901 14:03:43.972321  7345 net.cpp:165] Memory required for data: 2574463328
I0901 14:03:43.972326  7345 layer_factory.hpp:77] Creating layer conv10_2_mbox_conf_perm
I0901 14:03:43.972332  7345 net.cpp:100] Creating Layer conv10_2_mbox_conf_perm
I0901 14:03:43.972337  7345 net.cpp:434] conv10_2_mbox_conf_perm <- conv10_2_mbox_conf
I0901 14:03:43.972343  7345 net.cpp:408] conv10_2_mbox_conf_perm -> conv10_2_mbox_conf_perm
I0901 14:03:43.972450  7345 net.cpp:150] Setting up conv10_2_mbox_conf_perm
I0901 14:03:43.972456  7345 net.cpp:157] Top shape: 16 1 1 24 (384)
I0901 14:03:43.972460  7345 net.cpp:165] Memory required for data: 2574464864
I0901 14:03:43.972462  7345 layer_factory.hpp:77] Creating layer conv10_2_mbox_conf_flat
I0901 14:03:43.972468  7345 net.cpp:100] Creating Layer conv10_2_mbox_conf_flat
I0901 14:03:43.972472  7345 net.cpp:434] conv10_2_mbox_conf_flat <- conv10_2_mbox_conf_perm
I0901 14:03:43.972478  7345 net.cpp:408] conv10_2_mbox_conf_flat -> conv10_2_mbox_conf_flat
I0901 14:03:43.972503  7345 net.cpp:150] Setting up conv10_2_mbox_conf_flat
I0901 14:03:43.972509  7345 net.cpp:157] Top shape: 16 24 (384)
I0901 14:03:43.972512  7345 net.cpp:165] Memory required for data: 2574466400
I0901 14:03:43.972517  7345 layer_factory.hpp:77] Creating layer conv10_2_mbox_priorbox
I0901 14:03:43.972522  7345 net.cpp:100] Creating Layer conv10_2_mbox_priorbox
I0901 14:03:43.972527  7345 net.cpp:434] conv10_2_mbox_priorbox <- conv10_2_conv10_2_relu_0_split_2
I0901 14:03:43.972532  7345 net.cpp:434] conv10_2_mbox_priorbox <- data_data_0_split_6
I0901 14:03:43.972539  7345 net.cpp:408] conv10_2_mbox_priorbox -> conv10_2_mbox_priorbox
I0901 14:03:43.972565  7345 net.cpp:150] Setting up conv10_2_mbox_priorbox
I0901 14:03:43.972571  7345 net.cpp:157] Top shape: 1 2 24 (48)
I0901 14:03:43.972574  7345 net.cpp:165] Memory required for data: 2574466592
I0901 14:03:43.972578  7345 layer_factory.hpp:77] Creating layer mbox_loc
I0901 14:03:43.972585  7345 net.cpp:100] Creating Layer mbox_loc
I0901 14:03:43.972589  7345 net.cpp:434] mbox_loc <- conv5_5/sep_mbox_loc_flat
I0901 14:03:43.972594  7345 net.cpp:434] mbox_loc <- conv6/sep_mbox_loc_flat
I0901 14:03:43.972599  7345 net.cpp:434] mbox_loc <- conv7_2_mbox_loc_flat
I0901 14:03:43.972602  7345 net.cpp:434] mbox_loc <- conv8_2_mbox_loc_flat
I0901 14:03:43.972615  7345 net.cpp:434] mbox_loc <- conv9_2_mbox_loc_flat
I0901 14:03:43.972618  7345 net.cpp:434] mbox_loc <- conv10_2_mbox_loc_flat
I0901 14:03:43.972625  7345 net.cpp:408] mbox_loc -> mbox_loc
I0901 14:03:43.972656  7345 net.cpp:150] Setting up mbox_loc
I0901 14:03:43.972661  7345 net.cpp:157] Top shape: 16 7668 (122688)
I0901 14:03:43.972666  7345 net.cpp:165] Memory required for data: 2574957344
I0901 14:03:43.972668  7345 layer_factory.hpp:77] Creating layer mbox_conf
I0901 14:03:43.972676  7345 net.cpp:100] Creating Layer mbox_conf
I0901 14:03:43.972678  7345 net.cpp:434] mbox_conf <- conv5_5/sep_mbox_conf_flat
I0901 14:03:43.972683  7345 net.cpp:434] mbox_conf <- conv6/sep_mbox_conf_flat
I0901 14:03:43.972687  7345 net.cpp:434] mbox_conf <- conv7_2_mbox_conf_flat
I0901 14:03:43.972692  7345 net.cpp:434] mbox_conf <- conv8_2_mbox_conf_flat
I0901 14:03:43.972695  7345 net.cpp:434] mbox_conf <- conv9_2_mbox_conf_flat
I0901 14:03:43.972699  7345 net.cpp:434] mbox_conf <- conv10_2_mbox_conf_flat
I0901 14:03:43.972704  7345 net.cpp:408] mbox_conf -> mbox_conf
I0901 14:03:43.972729  7345 net.cpp:150] Setting up mbox_conf
I0901 14:03:43.972734  7345 net.cpp:157] Top shape: 16 7668 (122688)
I0901 14:03:43.972738  7345 net.cpp:165] Memory required for data: 2575448096
I0901 14:03:43.972741  7345 layer_factory.hpp:77] Creating layer mbox_priorbox
I0901 14:03:43.972746  7345 net.cpp:100] Creating Layer mbox_priorbox
I0901 14:03:43.972750  7345 net.cpp:434] mbox_priorbox <- conv5_5/sep_mbox_priorbox
I0901 14:03:43.972754  7345 net.cpp:434] mbox_priorbox <- conv6/sep_mbox_priorbox
I0901 14:03:43.972759  7345 net.cpp:434] mbox_priorbox <- conv7_2_mbox_priorbox
I0901 14:03:43.972762  7345 net.cpp:434] mbox_priorbox <- conv8_2_mbox_priorbox
I0901 14:03:43.972766  7345 net.cpp:434] mbox_priorbox <- conv9_2_mbox_priorbox
I0901 14:03:43.972769  7345 net.cpp:434] mbox_priorbox <- conv10_2_mbox_priorbox
I0901 14:03:43.972775  7345 net.cpp:408] mbox_priorbox -> mbox_priorbox
I0901 14:03:43.972800  7345 net.cpp:150] Setting up mbox_priorbox
I0901 14:03:43.972805  7345 net.cpp:157] Top shape: 1 2 7668 (15336)
I0901 14:03:43.972808  7345 net.cpp:165] Memory required for data: 2575509440
I0901 14:03:43.972811  7345 layer_factory.hpp:77] Creating layer mbox_loss
I0901 14:03:43.972820  7345 net.cpp:100] Creating Layer mbox_loss
I0901 14:03:43.972825  7345 net.cpp:434] mbox_loss <- mbox_loc
I0901 14:03:43.972828  7345 net.cpp:434] mbox_loss <- mbox_conf
I0901 14:03:43.972832  7345 net.cpp:434] mbox_loss <- mbox_priorbox
…
layer {
  name: "data"
  type: "AnnotatedData"
  top: "data"
  top: "label"
  include {
    phase: TEST
  }
  transform_param {
    mean_value: 104
    mean_value: 117
    mean_value: 123
    resize_param {
      prob: 1
      resize_mode: WARP
      height: 300
      width: 300
      interp_mode: LINEAR
    }
  }
  data_param {
    source: "data/BodyFaceHandRegions/lmdb/oxford_test_lmdb"
    batch_size: 8
    backend: LMDB
  }
  annotated_data_param {
    batch_sampler {
    }
    label_map_file: "data/BodyFaceHandRegions/labelmap_voc.prototxt"
  }
}
layer {
  name: "conv1"
  type: "Convolution"
  bottom: "data"
  top: "conv1"
  param {
    lr_mult: 1
    decay_mult: 1
  }
  convolution_param {
    num_output: 32
    bias_term: false
    pad: 1
    kernel_size: 3
    group: 1
    stride: 2
    weight_filler {
      type: "gaussian"
      std: 0.01
    }
    engine: DEFAULT
  }
}
layer {
  name: "conv1/bn"
  type: "BatchNorm"
  bottom: "conv1"
  top: "conv1"
  batch_norm_param {
    moving_average_fraction: 0.999
    eps: 0.001
  }
}
layer {
  name: "conv1/scale"
  type: "Scale"
  bottom: "conv1"
  top: "conv1"
  param {
    lr_mult: 1
    decay_mult: 0
  }
  param {
    lr_mult: 1
    decay_mult: 0
  }
  scale_param {
    filler {
      type: "constant"
      value: 1
    }
    bias_term: true
    bias_filler {
      type: "constant"
      value: 0
    }
  }
}
layer {
  name: "conv1_relu"
  type: "ReLU"
  bottom: "conv1"
  top: "conv1"
}
layer {
  name: "conv2_1/dw"
  type: "Convolution"
  bottom: "conv1"
  top: "conv2_1/dw"
  param {
    lr_mult: 1
    decay_mult: 1
  }
  convolution_param {
    num_output: 32
    bias_term: false
    pad: 1
    kernel_size: 3
    group: 32
    stride: 1
    weight_filler {
      type: "gaussian"
      std: 0.01
    }
    engine: CAFFE
  }
}
layer {
  name: "conv2_1/dw/bn"
  type: "BatchNorm"
  bottom: "conv2_1/dw"
  top: "conv2_1/dw"
  batch_norm_param {
    moving_average_fraction: 0.999
    eps: 0.001
  }
}
layer {
  name: "conv2_1/dw/scale"
  type: "Scale"
  bottom: "conv2_1/dw"
  top: "conv2_1/dw"
  param {
    lr_mult: 1
    decay_mult: 0
  }
  param {
    lr_mult: 1
    decay_mult: 0
  }
  scale_param {
    filler {
      type: "constant"
      value: 1
    }
    bias_term: true
    bias_filler {
      type: "constant"
      value: 0
    }
  }
}
layer {
  name: "conv2_1/dw_relu"
  type: "ReLU"
  bottom: "conv2_1/dw"
  top: "conv2_1/dw"
}
layer {
  name: "conv2_1/sep"
  type: "Convolution"
  bottom: "conv2_1/dw"
  top: "conv2_1/sep"
  param {
    lr_mult: 1
    decay_mult: 1
  }
  convolution_param {
    num_output: 64
    bias_term: false
    pad: 0
    kernel_size: 1
    group: 1
    stride: 1
    weight_filler {
      type: "gaussian"
      std: 0.01
    }
    engine: DEFAULT
  }
}
layer {
  name: "conv2_1/sep/bn"
  type: "BatchNorm"
  bottom: "conv2_1/sep"
  top: "conv2_1/sep"
  batch_norm_param {
    moving_average_fraction: 0.999
    eps: 0.001
  }
}
layer {
  name: "conv2_1/sep/scale"
  type: "Scale"
  bottom: "conv2_1/sep"
  top: "conv2_1/sep"
  param {
    lr_mult: 1
    decay_mult: 0
  }
  param {
    lr_mult: 1
    decay_mult: 0
  }
  scale_param {
    filler {
      type: "constant"
      value: 1
    }
    bias_term: true
    bias_filler {
      type: "constant"
      value: 0
    }
  }
}
layer {
  name: "conv2_1/sep_relu"
  type: "ReLU"
  bottom: "conv2_1/sep"
  top: "conv2_1/sep"
}
layer {
  name: "conv2_2/dw"
  type: "Convolution"
  bottom: "conv2_1/sep"
  top: "conv2_2/dw"
  param {
    lr_mult: 1
    decay_mult: 1
  }
  convolution_param {
    num_output: 64
    bias_term: false
    pad: 1
    kernel_size: 3
    group: 64
    stride: 2
    weight_filler {
      type: "gaussian"
      std: 0.01
    }
    engine: CAFFE
  }
}
layer {
  name: "conv2_2/dw/bn"
  type: "BatchNorm"
  bottom: "conv2_2/dw"
  top: "conv2_2/dw"
  batch_norm_param {
    moving_average_fraction: 0.999
    eps: 0.001
  }
}
layer {
  name: "conv2_2/dw/scale"
  type: "Scale"
  bottom: "conv2_2/dw"
  top: "conv2_2/dw"
  param {
    lr_mult: 1
    decay_mult: 0
  }
  param {
    lr_mult: 1
    decay_mult: 0
  }
  scale_param {
    filler {
      type: "constant"
      value: 1
    }
    bias_term: true
    bias_filler {
      type: "constant"
      value: 0
    }
  }
}
layer {
  name: "conv2_2/dw_relu"
  type: "ReLU"
  bottom: "conv2_2/dw"
  top: "conv2_2/dw"
}
layer {
  name: "conv2_2/sep"
  type: "Convolution"
  bottom: "conv2_2/dw"
  top: "conv2_2/sep"
  param {
    lr_mult: 1
    decay_mult: 1
  }
  convolution_param {
    num_output: 128
    bias_term: false
    pad: 0
    kernel_size: 1
    group: 1
    stride: 1
    weight_filler {
      type: "gaussian"
      std: 0.01
    }
    engine: DEFAULT
  }
}
layer {
  name: "conv2_2/sep/bn"
  type: "BatchNorm"
  bottom: "conv2_2/sep"
  top: "conv2_2/sep"
  batch_norm_param {
    moving_average_fraction: 0.999
    eps: 0.001
  }
}
layer {
  name: "conv2_2/sep/scale"
  type: "Scale"
  bottom: "conv2_2/sep"
  top: "conv2_2/sep"
  param {
    lr_mult: 1
    decay_mult: 0
  }
  param {
    lr_mult: 1
    decay_mult: 0
  }
  scale_param {
    filler {
      type: "constant"
      value: 1
    }
    bias_term: true
    bias_filler {
      type: "constant"
      value: 0
    }
  }
}
layer {
  name: "conv2_2/sep_relu"
  type: "ReLU"
  bottom: "conv2_2/sep"
  top: "conv2_2/sep"
}
layer {
  name: "conv3_1/dw"
  type: "Convolution"
  bottom: "conv2_2/sep"
  top: "conv3_1/dw"
  param {
    lr_mult: 1
    decay_mult: 1
  }
  convolution_param {
    num_output: 128
    bias_term: false
    pad: 1
    kernel_size: 3
    group: 128
    stride: 1
    weight_filler {
      type: "gaussian"
      std: 0.01
    }
    engine: CAFFE
  }
}
layer {
  name: "conv3_1/dw/bn"
  type: "BatchNorm"
  bottom: "conv3_1/dw"
  top: "conv3_1/dw"
  batch_norm_param {
    moving_average_fraction: 0.999
    eps: 0.001
  }
}
layer {
  name: "conv3_1/dw/scale"
  type: "Scale"
  bottom: "conv3_1/dw"
  top: "conv3_1/dw"
  param {
    lr_mult: 1
    decay_mult: 0
  }
  param {
    lr_mult: 1
    decay_mult: 0
  }
  scale_param {
    filler {
      type: "constant"
      value: 1
    }
    bias_term: true
    bias_filler {
      type: "constant"
      value: 0
    }
  }
}
layer {
  name: "conv3_1/dw_relu"
  type: "ReLU"
  bottom: "conv3_1/dw"
  top: "conv3_1/dw"
}
layer {
  name: "conv3_1/sep"
  type: "Convolution"
  bottom: "conv3_1/dw"
  top: "conv3_1/sep"
  param {
    lr_mult: 1
    decay_mult: 1
  }
  convolution_param {
    num_output: 128
    bias_term: false
    pad: 0
    kernel_size: 1
    group: 1
    stride: 1
    weight_filler {
      type: "gaussian"
      std: 0.01
    }
    engine: DEFAULT
  }
}
layer {
  name: "conv3_1/sep/bn"
  type: "BatchNorm"
  bottom: "conv3_1/sep"
  top: "conv3_1/sep"
  batch_norm_param {
    moving_average_fraction: 0.999
    eps: 0.001
  }
}
layer {
  name: "conv3_1/sep/scale"
  type: "Scale"
  bottom: "conv3_1/sep"
  top: "conv3_1/sep"
  param {
    lr_mult: 1
    decay_mult: 0
  }
  param {
    lr_mult: 1
    decay_mult: 0
  }
  scale_param {
    filler {
      type: "constant"
      value: 1
    }
    bias_term: true
    bias_filler {
      type: "constant"
      value: 0
    }
  }
}
layer {
  name: "conv3_1/sep_relu"
  type: "ReLU"
  bottom: "conv3_1/sep"
  top: "conv3_1/sep"
}
layer {
  name: "conv3_2/dw"
  type: "Convolution"
  bottom: "conv3_1/sep"
  top: "conv3_2/dw"
  param {
    lr_mult: 1
    decay_mult: 1
  }
  convolution_param {
    num_output: 128
    bias_term: false
    pad: 1
    kernel_size: 3
    group: 128
    stride: 2
    weight_filler {
      type: "gaussian"
      std: 0.01
    }
    engine: CAFFE
  }
}
layer {
  name: "conv3_2/dw/bn"
  type: "BatchNorm"
  bottom: "conv3_2/dw"
  top: "conv3_2/dw"
  batch_norm_param {
    moving_average_fraction: 0.999
    eps: 0.001
  }
}
layer {
  name: "conv3_2/dw/scale"
  type: "Scale"
  bottom: "conv3_2/dw"
  top: "conv3_2/dw"
  param {
    lr_mult: 1
    decay_mult: 0
  }
  param {
    lr_mult: 1
    decay_mult: 0
  }
  scale_param {
    filler {
      type: "constant"
      value: 1
    }
    bias_term: true
    bias_filler {
      type: "constant"
      value: 0
    }
  }
}
layer {
  name: "conv3_2/dw_relu"
  type: "ReLU"
  bottom: "conv3_2/dw"
  top: "conv3_2/dw"
}
layer {
  name: "conv3_2/sep"
  type: "Convolution"
  bottom: "conv3_2/dw"
  top: "conv3_2/sep"
  param {
    lr_mult: 1
    decay_mult: 1
  }
  convolution_param {
    num_output: 256
    bias_term: false
    pad: 0
    kernel_size: 1
    group: 1
    stride: 1
    weight_filler {
      type: "gaussian"
      std: 0.01
    }
    engine: DEFAULT
  }
}
layer {
  name: "conv3_2/sep/bn"
  type: "BatchNorm"
  bottom: "conv3_2/sep"
  top: "conv3_2/sep"
  batch_norm_param {
    moving_average_fraction: 0.999
    eps: 0.001
  }
}
layer {
  name: "conv3_2/sep/scale"
  type: "Scale"
  bottom: "conv3_2/sep"
  top: "conv3_2/sep"
  param {
    lr_mult: 1
    decay_mult: 0
  }
  param {
    lr_mult: 1
    decay_mult: 0
  }
  scale_param {
    filler {
      type: "constant"
      value: 1
    }
    bias_term: true
    bias_filler {
      type: "constant"
      value: 0
    }
  }
}
layer {
  name: "conv3_2/sep_relu"
  type: "ReLU"
  bottom: "conv3_2/sep"
  top: "conv3_2/sep"
}
layer {
  name: "conv4_1/dw"
  type: "Convolution"
  bottom: "conv3_2/sep"
  top: "conv4_1/dw"
  param {
    lr_mult: 1
    decay_mult: 1
  }
  convolution_param {
    num_output: 256
    bias_term: false
    pad: 1
    kernel_size: 3
    group: 256
    stride: 1
    weight_filler {
      type: "gaussian"
      std: 0.01
    }
    engine: CAFFE
  }
}
layer {
  name: "conv4_1/dw/bn"
  type: "BatchNorm"
  bottom: "conv4_1/dw"
  top: "conv4_1/dw"
  batch_norm_param {
    moving_average_fraction: 0.999
    eps: 0.001
  }
}
layer {
  name: "conv4_1/dw/scale"
  type: "Scale"
  bottom: "conv4_1/dw"
  top: "conv4_1/dw"
  param {
    lr_mult: 1
    decay_mult: 0
  }
  param {
    lr_mult: 1
    decay_mult: 0
  }
  scale_param {
    filler {
      type: "constant"
      value: 1
    }
    bias_term: true
    bias_filler {
      type: "constant"
      value: 0
    }
  }
}
layer {
  name: "conv4_1/dw_relu"
  type: "ReLU"
  bottom: "conv4_1/dw"
  top: "conv4_1/dw"
}
layer {
  name: "conv4_1/sep"
  type: "Convolution"
  bottom: "conv4_1/dw"
  top: "conv4_1/sep"
  param {
    lr_mult: 1
    decay_mult: 1
  }
  convolution_param {
    num_output: 256
    bias_term: false
    pad: 0
    kernel_size: 1
    group: 1
    stride: 1
    weight_filler {
      type: "gaussian"
      std: 0.01
    }
    engine: DEFAULT
  }
}
layer {
  name: "conv4_1/sep/bn"
  type: "BatchNorm"
  bottom: "conv4_1/sep"
  top: "conv4_1/sep"
  batch_norm_param {
    moving_average_fraction: 0.999
    eps: 0.001
  }
}
layer {
  name: "conv4_1/sep/scale"
  type: "Scale"
  bottom: "conv4_1/sep"
  top: "conv4_1/sep"
  param {
    lr_mult: 1
    decay_mult: 0
  }
  param {
    lr_mult: 1
    decay_mult: 0
  }
  scale_param {
    filler {
      type: "constant"
      value: 1
    }
    bias_term: true
    bias_filler {
      type: "constant"
      value: 0
    }
  }
}
layer {
  name: "conv4_1/sep_relu"
  type: "ReLU"
  bottom: "conv4_1/sep"
  top: "conv4_1/sep"
}
layer {
  name: "conv4_2/dw"
  type: "Convolution"
  bottom: "conv4_1/sep"
  top: "conv4_2/dw"
  param {
    lr_mult: 1
    decay_mult: 1
  }
  convolution_param {
    num_output: 256
    bias_term: false
    pad: 1
    kernel_size: 3
    group: 256
    stride: 2
    weight_filler {
      type: "gaussian"
      std: 0.01
    }
    engine: CAFFE
  }
}
layer {
  name: "conv4_2/dw/bn"
  type: "BatchNorm"
  bottom: "conv4_2/dw"
  top: "conv4_2/dw"
  batch_norm_param {
    moving_average_fraction: 0.999
    eps: 0.001
  }
}
layer {
  name: "conv4_2/dw/scale"
  type: "Scale"
  bottom: "conv4_2/dw"
  top: "conv4_2/dw"
  param {
    lr_mult: 1
    decay_mult: 0
  }
  param {
    lr_mult: 1
    decay_mult: 0
  }
  scale_param {
    filler {
      type: "constant"
      value: 1
    }
    bias_term: true
    bias_filler {
      type: "constant"
      value: 0
    }
  }
}
layer {
  name: "conv4_2/dw_relu"
  type: "ReLU"
  bottom: "conv4_2/dw"
  top: "conv4_2/dw"
}
layer {
  name: "conv4_2/sep"
  type: "Convolution"
  bottom: "conv4_2/dw"
  top: "conv4_2/sep"
  param {
    lr_mult: 1
    decay_mult: 1
  }
  convolution_param {
    num_output: 512
    bias_term: false
    pad: 0
    kernel_size: 1
    group: 1
    stride: 1
    weight_filler {
      type: "gaussian"
      std: 0.01
    }
    engine: DEFAULT
  }
}
layer {
  name: "conv4_2/sep/bn"
  type: "BatchNorm"
  bottom: "conv4_2/sep"
  top: "conv4_2/sep"
  batch_norm_param {
    moving_average_fraction: 0.999
    eps: 0.001
  }
}
layer {
  name: "conv4_2/sep/scale"
  type: "Scale"
  bottom: "conv4_2/sep"
  top: "conv4_2/sep"
  param {
    lr_mult: 1
    decay_mult: 0
  }
  param {
    lr_mult: 1
    decay_mult: 0
  }
  scale_param {
    filler {
      type: "constant"
      value: 1
    }
    bias_term: true
    bias_filler {
      type: "constant"
      value: 0
    }
  }
}
layer {
  name: "conv4_2/sep_relu"
  type: "ReLU"
  bottom: "conv4_2/sep"
  top: "conv4_2/sep"
}
layer {
  name: "conv5_1/dw"
  type: "Convolution"
  bottom: "conv4_2/sep"
  top: "conv5_1/dw"
  param {
    lr_mult: 1
    decay_mult: 1
  }
  convolution_param {
    num_output: 512
    bias_term: false
    pad: 1
    kernel_size: 3
    group: 512
    stride: 1
    weight_filler {
      type: "gaussian"
      std: 0.01
    }
    engine: CAFFE
  }
}
layer {
  name: "conv5_1/dw/bn"
  type: "BatchNorm"
  bottom: "conv5_1/dw"
  top: "conv5_1/dw"
  batch_norm_param {
    moving_average_fraction: 0.999
    eps: 0.001
  }
}
layer {
  name: "conv5_1/dw/scale"
  type: "Scale"
  bottom: "conv5_1/dw"
  top: "conv5_1/dw"
  param {
    lr_mult: 1
    decay_mult: 0
  }
  param {
    lr_mult: 1
    decay_mult: 0
  }
  scale_param {
    filler {
      type: "constant"
      value: 1
    }
    bias_term: true
    bias_filler {
      type: "constant"
      value: 0
    }
  }
}
layer {
  name: "conv5_1/dw_relu"
  type: "ReLU"
  bottom: "conv5_1/dw"
  top: "conv5_1/dw"
}
layer {
  name: "conv5_1/sep"
  type: "Convolution"
  bottom: "conv5_1/dw"
  top: "conv5_1/sep"
  param {
    lr_mult: 1
    decay_mult: 1
  }
  convolution_param {
    num_output: 512
    bias_term: false
    pad: 0
    kernel_size: 1
    group: 1
    stride: 1
    weight_filler {
      type: "gaussian"
      std: 0.01
    }
    engine: DEFAULT
  }
}
layer {
  name: "conv5_1/sep/bn"
  type: "BatchNorm"
  bottom: "conv5_1/sep"
  top: "conv5_1/sep"
  batch_norm_param {
    moving_average_fraction: 0.999
    eps: 0.001
  }
}
layer {
  name: "conv5_1/sep/scale"
  type: "Scale"
  bottom: "conv5_1/sep"
  top: "conv5_1/sep"
  param {
    lr_mult: 1
    decay_mult: 0
  }
  param {
    lr_mult: 1
    decay_mult: 0
  }
  scale_param {
    filler {
      type: "constant"
      value: 1
    }
    bias_term: true
    bias_filler {
      type: "constant"
      value: 0
    }
  }
}
layer {
  name: "conv5_1/sep_relu"
  type: "ReLU"
  bottom: "conv5_1/sep"
  top: "conv5_1/sep"
}
layer {
  name: "conv5_2/dw"
  type: "Convolution"
  bottom: "conv5_1/sep"
  top: "conv5_2/dw"
  param {
    lr_mult: 1
    decay_mult: 1
  }
  convolution_param {
    num_output: 512
    bias_term: false
    pad: 1
    kernel_size: 3
    group: 512
    stride: 1
    weight_filler {
      type: "gaussian"
      std: 0.01
    }
    engine: CAFFE
  }
}
layer {
  name: "conv5_2/dw/bn"
  type: "BatchNorm"
  bottom: "conv5_2/dw"
  top: "conv5_2/dw"
  batch_norm_param {
    moving_average_fraction: 0.999
    eps: 0.001
  }
}
layer {
  name: "conv5_2/dw/scale"
  type: "Scale"
  bottom: "conv5_2/dw"
  top: "conv5_2/dw"
  param {
    lr_mult: 1
    decay_mult: 0
  }
  param {
    lr_mult: 1
    decay_mult: 0
  }
  scale_param {
    filler {
      type: "constant"
      value: 1
    }
    bias_term: true
    bias_filler {
      type: "constant"
      value: 0
    }
  }
}
layer {
  name: "conv5_2/dw_relu"
  type: "ReLU"
  bottom: "conv5_2/dw"
  top: "conv5_2/dw"
}
layer {
  name: "conv5_2/sep"
  type: "Convolution"
  bottom: "conv5_2/dw"
  top: "conv5_2/sep"
  param {
    lr_mult: 1
    decay_mult: 1
  }
  convolution_param {
    num_output: 512
    bias_term: false
    pad: 0
    kernel_size: 1
    group: 1
    stride: 1
    weight_filler {
      type: "gaussian"
      std: 0.01
    }
    engine: DEFAULT
  }
}
layer {
  name: "conv5_2/sep/bn"
  type: "BatchNorm"
  bottom: "conv5_2/sep"
  top: "conv5_2/sep"
  batch_norm_param {
    moving_average_fraction: 0.999
    eps: 0.001
  }
}
layer {
  name: "conv5_2/sep/scale"
  type: "Scale"
  bottom: "conv5_2/sep"
  top: "conv5_2/sep"
  param {
    lr_mult: 1
    decay_mult: 0
  }
  param {
    lr_mult: 1
    decay_mult: 0
  }
  scale_param {
    filler {
      type: "constant"
      value: 1
    }
    bias_term: true
    bias_filler {
      type: "constant"
      value: 0
    }
  }
}
layer {
  name: "conv5_2/sep_relu"
  type: "ReLU"
  bottom: "conv5_2/sep"
  top: "conv5_2/sep"
}
layer {
  name: "conv5_3/dw"
  type: "Convolution"
  bottom: "conv5_2/sep"
  top: "conv5_3/dw"
  param {
    lr_mult: 1
    decay_mult: 1
  }
  convolution_param {
    num_output: 512
    bias_term: false
    pad: 1
    kernel_size: 3
    group: 512
    stride: 1
    weight_filler {
      type: "gaussian"
      std: 0.01
    }
    engine: CAFFE
  }
}
layer {
  name: "conv5_3/dw/bn"
  type: "BatchNorm"
  bottom: "conv5_3/dw"
  top: "conv5_3/dw"
  batch_norm_param {
    moving_average_fraction: 0.999
    eps: 0.001
  }
}
layer {
  name: "conv5_3/dw/scale"
  type: "Scale"
  bottom: "conv5_3/dw"
  top: "conv5_3/dw"
  param {
    lr_mult: 1
    decay_mult: 0
  }
  param {
    lr_mult: 1
    decay_mult: 0
  }
  scale_param {
    filler {
      type: "constant"
      value: 1
    }
    bias_term: true
    bias_filler {
      type: "constant"
      value: 0
    }
  }
}
layer {
  name: "conv5_3/dw_relu"
  type: "ReLU"
  bottom: "conv5_3/dw"
  top: "conv5_3/dw"
}
layer {
  name: "conv5_3/sep"
  type: "Convolution"
  bottom: "conv5_3/dw"
  top: "conv5_3/sep"
  param {
    lr_mult: 1
    decay_mult: 1
  }
  convolution_param {
    num_output: 512
    bias_term: false
    pad: 0
    kernel_size: 1
    group: 1
    stride: 1
    weight_filler {
      type: "gaussian"
      std: 0.01
    }
    engine: DEFAULT
  }
}
layer {
  name: "conv5_3/sep/bn"
  type: "BatchNorm"
  bottom: "conv5_3/sep"
  top: "conv5_3/sep"
  batch_norm_param {
    moving_average_fraction: 0.999
    eps: 0.001
  }
}
layer {
  name: "conv5_3/sep/scale"
  type: "Scale"
  bottom: "conv5_3/sep"
  top: "conv5_3/sep"
  param {
    lr_mult: 1
    decay_mult: 0
  }
  param {
    lr_mult: 1
    decay_mult: 0
  }
  scale_param {
    filler {
      type: "constant"
      value: 1
    }
    bias_term: true
    bias_filler {
      type: "constant"
      value: 0
    }
  }
}
layer {
  name: "conv5_3/sep_relu"
  type: "ReLU"
  bottom: "conv5_3/sep"
  top: "conv5_3/sep"
}
layer {
  name: "conv5_4/dw"
  type: "Convolution"
  bottom: "conv5_3/sep"
  top: "conv5_4/dw"
  param {
    lr_mult: 1
    decay_mult: 1
  }
  convolution_param {
    num_output: 512
    bias_term: false
    pad: 1
    kernel_size: 3
    group: 512
    stride: 1
    weight_filler {
      type: "gaussian"
      std: 0.01
    }
    engine: CAFFE
  }
}
layer {
  name: "conv5_4/dw/bn"
  type: "BatchNorm"
  bottom: "conv5_4/dw"
  top: "conv5_4/dw"
  batch_norm_param {
    moving_average_fraction: 0.999
    eps: 0.001
  }
}
layer {
  name: "conv5_4/dw/scale"
  type: "Scale"
  bottom: "conv5_4/dw"
  top: "conv5_4/dw"
  param {
    lr_mult: 1
    decay_mult: 0
  }
  param {
    lr_mult: 1
    decay_mult: 0
  }
  scale_param {
    filler {
      type: "constant"
      value: 1
    }
    bias_term: true
    bias_filler {
      type: "constant"
      value: 0
    }
  }
}
layer {
  name: "conv5_4/dw_relu"
  type: "ReLU"
  bottom: "conv5_4/dw"
…
I0901 14:03:44.074996  7345 net.cpp:150] Setting up conv5_6/dw_relu
I0901 14:03:44.075007  7345 net.cpp:157] Top shape: 8 512 10 10 (409600)
I0901 14:03:44.075012  7345 net.cpp:165] Memory required for data: 1228214528
I0901 14:03:44.075016  7345 layer_factory.hpp:77] Creating layer conv5_6/sep
I0901 14:03:44.075026  7345 net.cpp:100] Creating Layer conv5_6/sep
I0901 14:03:44.075031  7345 net.cpp:434] conv5_6/sep <- conv5_6/dw
I0901 14:03:44.075038  7345 net.cpp:408] conv5_6/sep -> conv5_6/sep
I0901 14:03:44.080585  7345 net.cpp:150] Setting up conv5_6/sep
I0901 14:03:44.080598  7345 net.cpp:157] Top shape: 8 1024 10 10 (819200)
I0901 14:03:44.080603  7345 net.cpp:165] Memory required for data: 1231491328
I0901 14:03:44.080610  7345 layer_factory.hpp:77] Creating layer conv5_6/sep/bn
I0901 14:03:44.080616  7345 net.cpp:100] Creating Layer conv5_6/sep/bn
I0901 14:03:44.080621  7345 net.cpp:434] conv5_6/sep/bn <- conv5_6/sep
I0901 14:03:44.080627  7345 net.cpp:395] conv5_6/sep/bn -> conv5_6/sep (in-place)
I0901 14:03:44.080793  7345 net.cpp:150] Setting up conv5_6/sep/bn
I0901 14:03:44.080801  7345 net.cpp:157] Top shape: 8 1024 10 10 (819200)
I0901 14:03:44.080806  7345 net.cpp:165] Memory required for data: 1234768128
I0901 14:03:44.080813  7345 layer_factory.hpp:77] Creating layer conv5_6/sep/scale
I0901 14:03:44.080819  7345 net.cpp:100] Creating Layer conv5_6/sep/scale
I0901 14:03:44.080823  7345 net.cpp:434] conv5_6/sep/scale <- conv5_6/sep
I0901 14:03:44.080831  7345 net.cpp:395] conv5_6/sep/scale -> conv5_6/sep (in-place)
I0901 14:03:44.080873  7345 layer_factory.hpp:77] Creating layer conv5_6/sep/scale
I0901 14:03:44.080974  7345 net.cpp:150] Setting up conv5_6/sep/scale
I0901 14:03:44.080981  7345 net.cpp:157] Top shape: 8 1024 10 10 (819200)
I0901 14:03:44.080986  7345 net.cpp:165] Memory required for data: 1238044928
I0901 14:03:44.080992  7345 layer_factory.hpp:77] Creating layer conv5_6/sep_relu
I0901 14:03:44.080998  7345 net.cpp:100] Creating Layer conv5_6/sep_relu
I0901 14:03:44.081002  7345 net.cpp:434] conv5_6/sep_relu <- conv5_6/sep
I0901 14:03:44.081009  7345 net.cpp:395] conv5_6/sep_relu -> conv5_6/sep (in-place)
I0901 14:03:44.081590  7345 net.cpp:150] Setting up conv5_6/sep_relu
I0901 14:03:44.081603  7345 net.cpp:157] Top shape: 8 1024 10 10 (819200)
I0901 14:03:44.081607  7345 net.cpp:165] Memory required for data: 1241321728
I0901 14:03:44.081612  7345 layer_factory.hpp:77] Creating layer conv6/dw
I0901 14:03:44.081620  7345 net.cpp:100] Creating Layer conv6/dw
I0901 14:03:44.081624  7345 net.cpp:434] conv6/dw <- conv5_6/sep
I0901 14:03:44.081643  7345 net.cpp:408] conv6/dw -> conv6/dw
I0901 14:03:44.081881  7345 net.cpp:150] Setting up conv6/dw
I0901 14:03:44.081889  7345 net.cpp:157] Top shape: 8 1024 10 10 (819200)
I0901 14:03:44.081894  7345 net.cpp:165] Memory required for data: 1244598528
I0901 14:03:44.081900  7345 layer_factory.hpp:77] Creating layer conv6/dw/bn
I0901 14:03:44.081907  7345 net.cpp:100] Creating Layer conv6/dw/bn
I0901 14:03:44.081910  7345 net.cpp:434] conv6/dw/bn <- conv6/dw
I0901 14:03:44.081917  7345 net.cpp:395] conv6/dw/bn -> conv6/dw (in-place)
I0901 14:03:44.082072  7345 net.cpp:150] Setting up conv6/dw/bn
I0901 14:03:44.082079  7345 net.cpp:157] Top shape: 8 1024 10 10 (819200)
I0901 14:03:44.082083  7345 net.cpp:165] Memory required for data: 1247875328
I0901 14:03:44.082092  7345 layer_factory.hpp:77] Creating layer conv6/dw/scale
I0901 14:03:44.082099  7345 net.cpp:100] Creating Layer conv6/dw/scale
I0901 14:03:44.082103  7345 net.cpp:434] conv6/dw/scale <- conv6/dw
I0901 14:03:44.082109  7345 net.cpp:395] conv6/dw/scale -> conv6/dw (in-place)
I0901 14:03:44.082152  7345 layer_factory.hpp:77] Creating layer conv6/dw/scale
I0901 14:03:44.082249  7345 net.cpp:150] Setting up conv6/dw/scale
I0901 14:03:44.082255  7345 net.cpp:157] Top shape: 8 1024 10 10 (819200)
I0901 14:03:44.082259  7345 net.cpp:165] Memory required for data: 1251152128
I0901 14:03:44.082265  7345 layer_factory.hpp:77] Creating layer conv6/dw_relu
I0901 14:03:44.082271  7345 net.cpp:100] Creating Layer conv6/dw_relu
I0901 14:03:44.082275  7345 net.cpp:434] conv6/dw_relu <- conv6/dw
I0901 14:03:44.082281  7345 net.cpp:395] conv6/dw_relu -> conv6/dw (in-place)
I0901 14:03:44.082440  7345 net.cpp:150] Setting up conv6/dw_relu
I0901 14:03:44.082450  7345 net.cpp:157] Top shape: 8 1024 10 10 (819200)
I0901 14:03:44.082454  7345 net.cpp:165] Memory required for data: 1254428928
I0901 14:03:44.082458  7345 layer_factory.hpp:77] Creating layer conv6/sep
I0901 14:03:44.082468  7345 net.cpp:100] Creating Layer conv6/sep
I0901 14:03:44.082473  7345 net.cpp:434] conv6/sep <- conv6/dw
I0901 14:03:44.082480  7345 net.cpp:408] conv6/sep -> conv6/sep
I0901 14:03:44.092864  7345 net.cpp:150] Setting up conv6/sep
I0901 14:03:44.092880  7345 net.cpp:157] Top shape: 8 1024 10 10 (819200)
I0901 14:03:44.092882  7345 net.cpp:165] Memory required for data: 1257705728
I0901 14:03:44.092887  7345 layer_factory.hpp:77] Creating layer conv6/sep/bn
I0901 14:03:44.092891  7345 net.cpp:100] Creating Layer conv6/sep/bn
I0901 14:03:44.092895  7345 net.cpp:434] conv6/sep/bn <- conv6/sep
I0901 14:03:44.092900  7345 net.cpp:395] conv6/sep/bn -> conv6/sep (in-place)
I0901 14:03:44.093072  7345 net.cpp:150] Setting up conv6/sep/bn
I0901 14:03:44.093080  7345 net.cpp:157] Top shape: 8 1024 10 10 (819200)
I0901 14:03:44.093082  7345 net.cpp:165] Memory required for data: 1260982528
I0901 14:03:44.093091  7345 layer_factory.hpp:77] Creating layer conv6/sep/scale
I0901 14:03:44.093098  7345 net.cpp:100] Creating Layer conv6/sep/scale
I0901 14:03:44.093102  7345 net.cpp:434] conv6/sep/scale <- conv6/sep
I0901 14:03:44.093108  7345 net.cpp:395] conv6/sep/scale -> conv6/sep (in-place)
I0901 14:03:44.093152  7345 layer_factory.hpp:77] Creating layer conv6/sep/scale
I0901 14:03:44.093255  7345 net.cpp:150] Setting up conv6/sep/scale
I0901 14:03:44.093262  7345 net.cpp:157] Top shape: 8 1024 10 10 (819200)
I0901 14:03:44.093266  7345 net.cpp:165] Memory required for data: 1264259328
I0901 14:03:44.093273  7345 layer_factory.hpp:77] Creating layer conv6/sep_relu
I0901 14:03:44.093279  7345 net.cpp:100] Creating Layer conv6/sep_relu
I0901 14:03:44.093283  7345 net.cpp:434] conv6/sep_relu <- conv6/sep
I0901 14:03:44.093291  7345 net.cpp:395] conv6/sep_relu -> conv6/sep (in-place)
I0901 14:03:44.093876  7345 net.cpp:150] Setting up conv6/sep_relu
I0901 14:03:44.093888  7345 net.cpp:157] Top shape: 8 1024 10 10 (819200)
I0901 14:03:44.093892  7345 net.cpp:165] Memory required for data: 1267536128
I0901 14:03:44.093897  7345 layer_factory.hpp:77] Creating layer conv6/sep_conv6/sep_relu_0_split
I0901 14:03:44.093916  7345 net.cpp:100] Creating Layer conv6/sep_conv6/sep_relu_0_split
I0901 14:03:44.093921  7345 net.cpp:434] conv6/sep_conv6/sep_relu_0_split <- conv6/sep
I0901 14:03:44.093928  7345 net.cpp:408] conv6/sep_conv6/sep_relu_0_split -> conv6/sep_conv6/sep_relu_0_split_0
I0901 14:03:44.093937  7345 net.cpp:408] conv6/sep_conv6/sep_relu_0_split -> conv6/sep_conv6/sep_relu_0_split_1
I0901 14:03:44.093945  7345 net.cpp:408] conv6/sep_conv6/sep_relu_0_split -> conv6/sep_conv6/sep_relu_0_split_2
I0901 14:03:44.093950  7345 net.cpp:408] conv6/sep_conv6/sep_relu_0_split -> conv6/sep_conv6/sep_relu_0_split_3
I0901 14:03:44.094007  7345 net.cpp:150] Setting up conv6/sep_conv6/sep_relu_0_split
I0901 14:03:44.094015  7345 net.cpp:157] Top shape: 8 1024 10 10 (819200)
I0901 14:03:44.094020  7345 net.cpp:157] Top shape: 8 1024 10 10 (819200)
I0901 14:03:44.094025  7345 net.cpp:157] Top shape: 8 1024 10 10 (819200)
I0901 14:03:44.094029  7345 net.cpp:157] Top shape: 8 1024 10 10 (819200)
I0901 14:03:44.094033  7345 net.cpp:165] Memory required for data: 1280643328
I0901 14:03:44.094036  7345 layer_factory.hpp:77] Creating layer conv7_1
I0901 14:03:44.094046  7345 net.cpp:100] Creating Layer conv7_1
I0901 14:03:44.094050  7345 net.cpp:434] conv7_1 <- conv6/sep_conv6/sep_relu_0_split_0
I0901 14:03:44.094058  7345 net.cpp:408] conv7_1 -> conv7_1
I0901 14:03:44.097038  7345 net.cpp:150] Setting up conv7_1
I0901 14:03:44.097048  7345 net.cpp:157] Top shape: 8 256 10 10 (204800)
I0901 14:03:44.097050  7345 net.cpp:165] Memory required for data: 1281462528
I0901 14:03:44.097055  7345 layer_factory.hpp:77] Creating layer conv7_1_relu
I0901 14:03:44.097061  7345 net.cpp:100] Creating Layer conv7_1_relu
I0901 14:03:44.097064  7345 net.cpp:434] conv7_1_relu <- conv7_1
I0901 14:03:44.097067  7345 net.cpp:395] conv7_1_relu -> conv7_1 (in-place)
I0901 14:03:44.097228  7345 net.cpp:150] Setting up conv7_1_relu
I0901 14:03:44.097235  7345 net.cpp:157] Top shape: 8 256 10 10 (204800)
I0901 14:03:44.097239  7345 net.cpp:165] Memory required for data: 1282281728
I0901 14:03:44.097242  7345 layer_factory.hpp:77] Creating layer conv7_2
I0901 14:03:44.097254  7345 net.cpp:100] Creating Layer conv7_2
I0901 14:03:44.097259  7345 net.cpp:434] conv7_2 <- conv7_1
I0901 14:03:44.097266  7345 net.cpp:408] conv7_2 -> conv7_2
I0901 14:03:44.104755  7345 net.cpp:150] Setting up conv7_2
I0901 14:03:44.104769  7345 net.cpp:157] Top shape: 8 512 5 5 (102400)
I0901 14:03:44.104774  7345 net.cpp:165] Memory required for data: 1282691328
I0901 14:03:44.104782  7345 layer_factory.hpp:77] Creating layer conv7_2_relu
I0901 14:03:44.104789  7345 net.cpp:100] Creating Layer conv7_2_relu
I0901 14:03:44.104792  7345 net.cpp:434] conv7_2_relu <- conv7_2
I0901 14:03:44.104799  7345 net.cpp:395] conv7_2_relu -> conv7_2 (in-place)
I0901 14:03:44.104959  7345 net.cpp:150] Setting up conv7_2_relu
I0901 14:03:44.104969  7345 net.cpp:157] Top shape: 8 512 5 5 (102400)
I0901 14:03:44.104974  7345 net.cpp:165] Memory required for data: 1283100928
I0901 14:03:44.104977  7345 layer_factory.hpp:77] Creating layer conv7_2_conv7_2_relu_0_split
I0901 14:03:44.104985  7345 net.cpp:100] Creating Layer conv7_2_conv7_2_relu_0_split
I0901 14:03:44.104990  7345 net.cpp:434] conv7_2_conv7_2_relu_0_split <- conv7_2
I0901 14:03:44.104996  7345 net.cpp:408] conv7_2_conv7_2_relu_0_split -> conv7_2_conv7_2_relu_0_split_0
I0901 14:03:44.105005  7345 net.cpp:408] conv7_2_conv7_2_relu_0_split -> conv7_2_conv7_2_relu_0_split_1
I0901 14:03:44.105012  7345 net.cpp:408] conv7_2_conv7_2_relu_0_split -> conv7_2_conv7_2_relu_0_split_2
I0901 14:03:44.105020  7345 net.cpp:408] conv7_2_conv7_2_relu_0_split -> conv7_2_conv7_2_relu_0_split_3
I0901 14:03:44.105074  7345 net.cpp:150] Setting up conv7_2_conv7_2_relu_0_split
I0901 14:03:44.105082  7345 net.cpp:157] Top shape: 8 512 5 5 (102400)
I0901 14:03:44.105087  7345 net.cpp:157] Top shape: 8 512 5 5 (102400)
I0901 14:03:44.105093  7345 net.cpp:157] Top shape: 8 512 5 5 (102400)
I0901 14:03:44.105096  7345 net.cpp:157] Top shape: 8 512 5 5 (102400)
I0901 14:03:44.105111  7345 net.cpp:165] Memory required for data: 1284739328
I0901 14:03:44.105116  7345 layer_factory.hpp:77] Creating layer conv8_1
I0901 14:03:44.105125  7345 net.cpp:100] Creating Layer conv8_1
I0901 14:03:44.105130  7345 net.cpp:434] conv8_1 <- conv7_2_conv7_2_relu_0_split_0
I0901 14:03:44.105137  7345 net.cpp:408] conv8_1 -> conv8_1
I0901 14:03:44.107357  7345 net.cpp:150] Setting up conv8_1
I0901 14:03:44.107368  7345 net.cpp:157] Top shape: 8 128 5 5 (25600)
I0901 14:03:44.107372  7345 net.cpp:165] Memory required for data: 1284841728
I0901 14:03:44.107380  7345 layer_factory.hpp:77] Creating layer conv8_1_relu
I0901 14:03:44.107388  7345 net.cpp:100] Creating Layer conv8_1_relu
I0901 14:03:44.107393  7345 net.cpp:434] conv8_1_relu <- conv8_1
I0901 14:03:44.107398  7345 net.cpp:395] conv8_1_relu -> conv8_1 (in-place)
I0901 14:03:44.107977  7345 net.cpp:150] Setting up conv8_1_relu
I0901 14:03:44.107990  7345 net.cpp:157] Top shape: 8 128 5 5 (25600)
I0901 14:03:44.107993  7345 net.cpp:165] Memory required for data: 1284944128
I0901 14:03:44.107998  7345 layer_factory.hpp:77] Creating layer conv8_2
I0901 14:03:44.108007  7345 net.cpp:100] Creating Layer conv8_2
I0901 14:03:44.108012  7345 net.cpp:434] conv8_2 <- conv8_1
I0901 14:03:44.108021  7345 net.cpp:408] conv8_2 -> conv8_2
I0901 14:03:44.111181  7345 net.cpp:150] Setting up conv8_2
I0901 14:03:44.111192  7345 net.cpp:157] Top shape: 8 256 3 3 (18432)
I0901 14:03:44.111194  7345 net.cpp:165] Memory required for data: 1285017856
I0901 14:03:44.111199  7345 layer_factory.hpp:77] Creating layer conv8_2_relu
I0901 14:03:44.111204  7345 net.cpp:100] Creating Layer conv8_2_relu
I0901 14:03:44.111207  7345 net.cpp:434] conv8_2_relu <- conv8_2
I0901 14:03:44.111212  7345 net.cpp:395] conv8_2_relu -> conv8_2 (in-place)
I0901 14:03:44.111369  7345 net.cpp:150] Setting up conv8_2_relu
I0901 14:03:44.111377  7345 net.cpp:157] Top shape: 8 256 3 3 (18432)
I0901 14:03:44.111380  7345 net.cpp:165] Memory required for data: 1285091584
I0901 14:03:44.111384  7345 layer_factory.hpp:77] Creating layer conv8_2_conv8_2_relu_0_split
I0901 14:03:44.111394  7345 net.cpp:100] Creating Layer conv8_2_conv8_2_relu_0_split
I0901 14:03:44.111398  7345 net.cpp:434] conv8_2_conv8_2_relu_0_split <- conv8_2
I0901 14:03:44.111405  7345 net.cpp:408] conv8_2_conv8_2_relu_0_split -> conv8_2_conv8_2_relu_0_split_0
I0901 14:03:44.111413  7345 net.cpp:408] conv8_2_conv8_2_relu_0_split -> conv8_2_conv8_2_relu_0_split_1
I0901 14:03:44.111419  7345 net.cpp:408] conv8_2_conv8_2_relu_0_split -> conv8_2_conv8_2_relu_0_split_2
I0901 14:03:44.111425  7345 net.cpp:408] conv8_2_conv8_2_relu_0_split -> conv8_2_conv8_2_relu_0_split_3
I0901 14:03:44.111484  7345 net.cpp:150] Setting up conv8_2_conv8_2_relu_0_split
I0901 14:03:44.111490  7345 net.cpp:157] Top shape: 8 256 3 3 (18432)
I0901 14:03:44.111493  7345 net.cpp:157] Top shape: 8 256 3 3 (18432)
I0901 14:03:44.111497  7345 net.cpp:157] Top shape: 8 256 3 3 (18432)
I0901 14:03:44.111501  7345 net.cpp:157] Top shape: 8 256 3 3 (18432)
I0901 14:03:44.111505  7345 net.cpp:165] Memory required for data: 1285386496
I0901 14:03:44.111507  7345 layer_factory.hpp:77] Creating layer conv9_1
I0901 14:03:44.111519  7345 net.cpp:100] Creating Layer conv9_1
I0901 14:03:44.111523  7345 net.cpp:434] conv9_1 <- conv8_2_conv8_2_relu_0_split_0
I0901 14:03:44.111531  7345 net.cpp:408] conv9_1 -> conv9_1
I0901 14:03:44.113553  7345 net.cpp:150] Setting up conv9_1
I0901 14:03:44.113566  7345 net.cpp:157] Top shape: 8 128 3 3 (9216)
I0901 14:03:44.113571  7345 net.cpp:165] Memory required for data: 1285423360
I0901 14:03:44.113579  7345 layer_factory.hpp:77] Creating layer conv9_1_relu
I0901 14:03:44.113584  7345 net.cpp:100] Creating Layer conv9_1_relu
I0901 14:03:44.113589  7345 net.cpp:434] conv9_1_relu <- conv9_1
I0901 14:03:44.113595  7345 net.cpp:395] conv9_1_relu -> conv9_1 (in-place)
I0901 14:03:44.113764  7345 net.cpp:150] Setting up conv9_1_relu
I0901 14:03:44.113773  7345 net.cpp:157] Top shape: 8 128 3 3 (9216)
I0901 14:03:44.113787  7345 net.cpp:165] Memory required for data: 1285460224
I0901 14:03:44.113792  7345 layer_factory.hpp:77] Creating layer conv9_2
I0901 14:03:44.113802  7345 net.cpp:100] Creating Layer conv9_2
I0901 14:03:44.113807  7345 net.cpp:434] conv9_2 <- conv9_1
I0901 14:03:44.113816  7345 net.cpp:408] conv9_2 -> conv9_2
I0901 14:03:44.116971  7345 net.cpp:150] Setting up conv9_2
I0901 14:03:44.116983  7345 net.cpp:157] Top shape: 8 256 2 2 (8192)
I0901 14:03:44.116987  7345 net.cpp:165] Memory required for data: 1285492992
I0901 14:03:44.116996  7345 layer_factory.hpp:77] Creating layer conv9_2_relu
I0901 14:03:44.117002  7345 net.cpp:100] Creating Layer conv9_2_relu
I0901 14:03:44.117005  7345 net.cpp:434] conv9_2_relu <- conv9_2
I0901 14:03:44.117012  7345 net.cpp:395] conv9_2_relu -> conv9_2 (in-place)
I0901 14:03:44.117594  7345 net.cpp:150] Setting up conv9_2_relu
I0901 14:03:44.117605  7345 net.cpp:157] Top shape: 8 256 2 2 (8192)
I0901 14:03:44.117610  7345 net.cpp:165] Memory required for data: 1285525760
I0901 14:03:44.117615  7345 layer_factory.hpp:77] Creating layer conv9_2_conv9_2_relu_0_split
I0901 14:03:44.117624  7345 net.cpp:100] Creating Layer conv9_2_conv9_2_relu_0_split
I0901 14:03:44.117627  7345 net.cpp:434] conv9_2_conv9_2_relu_0_split <- conv9_2
I0901 14:03:44.117635  7345 net.cpp:408] conv9_2_conv9_2_relu_0_split -> conv9_2_conv9_2_relu_0_split_0
I0901 14:03:44.117643  7345 net.cpp:408] conv9_2_conv9_2_relu_0_split -> conv9_2_conv9_2_relu_0_split_1
I0901 14:03:44.117650  7345 net.cpp:408] conv9_2_conv9_2_relu_0_split -> conv9_2_conv9_2_relu_0_split_2
I0901 14:03:44.117657  7345 net.cpp:408] conv9_2_conv9_2_relu_0_split -> conv9_2_conv9_2_relu_0_split_3
I0901 14:03:44.117719  7345 net.cpp:150] Setting up conv9_2_conv9_2_relu_0_split
I0901 14:03:44.117727  7345 net.cpp:157] Top shape: 8 256 2 2 (8192)
I0901 14:03:44.117730  7345 net.cpp:157] Top shape: 8 256 2 2 (8192)
I0901 14:03:44.117733  7345 net.cpp:157] Top shape: 8 256 2 2 (8192)
I0901 14:03:44.117738  7345 net.cpp:157] Top shape: 8 256 2 2 (8192)
I0901 14:03:44.117740  7345 net.cpp:165] Memory required for data: 1285656832
I0901 14:03:44.117744  7345 layer_factory.hpp:77] Creating layer conv10_1
I0901 14:03:44.117753  7345 net.cpp:100] Creating Layer conv10_1
I0901 14:03:44.117756  7345 net.cpp:434] conv10_1 <- conv9_2_conv9_2_relu_0_split_0
I0901 14:03:44.117766  7345 net.cpp:408] conv10_1 -> conv10_1
I0901 14:03:44.119442  7345 net.cpp:150] Setting up conv10_1
I0901 14:03:44.119454  7345 net.cpp:157] Top shape: 8 128 2 2 (4096)
I0901 14:03:44.119458  7345 net.cpp:165] Memory required for data: 1285673216
I0901 14:03:44.119467  7345 layer_factory.hpp:77] Creating layer conv10_1_relu
I0901 14:03:44.119485  7345 net.cpp:100] Creating Layer conv10_1_relu
I0901 14:03:44.119489  7345 net.cpp:434] conv10_1_relu <- conv10_1
I0901 14:03:44.119496  7345 net.cpp:395] conv10_1_relu -> conv10_1 (in-place)
I0901 14:03:44.119706  7345 net.cpp:150] Setting up conv10_1_relu
I0901 14:03:44.119715  7345 net.cpp:157] Top shape: 8 128 2 2 (4096)
I0901 14:03:44.119720  7345 net.cpp:165] Memory required for data: 1285689600
I0901 14:03:44.119725  7345 layer_factory.hpp:77] Creating layer conv10_2
I0901 14:03:44.119735  7345 net.cpp:100] Creating Layer conv10_2
I0901 14:03:44.119738  7345 net.cpp:434] conv10_2 <- conv10_1
I0901 14:03:44.119745  7345 net.cpp:408] conv10_2 -> conv10_2
I0901 14:03:44.122900  7345 net.cpp:150] Setting up conv10_2
I0901 14:03:44.122911  7345 net.cpp:157] Top shape: 8 256 1 1 (2048)
I0901 14:03:44.122916  7345 net.cpp:165] Memory required for data: 1285697792
I0901 14:03:44.122925  7345 layer_factory.hpp:77] Creating layer conv10_2_relu
I0901 14:03:44.122931  7345 net.cpp:100] Creating Layer conv10_2_relu
I0901 14:03:44.122934  7345 net.cpp:434] conv10_2_relu <- conv10_2
I0901 14:03:44.122941  7345 net.cpp:395] conv10_2_relu -> conv10_2 (in-place)
I0901 14:03:44.123102  7345 net.cpp:150] Setting up conv10_2_relu
I0901 14:03:44.123112  7345 net.cpp:157] Top shape: 8 256 1 1 (2048)
I0901 14:03:44.123116  7345 net.cpp:165] Memory required for data: 1285705984
I0901 14:03:44.123131  7345 layer_factory.hpp:77] Creating layer conv10_2_conv10_2_relu_0_split
I0901 14:03:44.123138  7345 net.cpp:100] Creating Layer conv10_2_conv10_2_relu_0_split
I0901 14:03:44.123142  7345 net.cpp:434] conv10_2_conv10_2_relu_0_split <- conv10_2
I0901 14:03:44.123150  7345 net.cpp:408] conv10_2_conv10_2_relu_0_split -> conv10_2_conv10_2_relu_0_split_0
I0901 14:03:44.123167  7345 net.cpp:408] conv10_2_conv10_2_relu_0_split -> conv10_2_conv10_2_relu_0_split_1
I0901 14:03:44.123174  7345 net.cpp:408] conv10_2_conv10_2_relu_0_split -> conv10_2_conv10_2_relu_0_split_2
I0901 14:03:44.123224  7345 net.cpp:150] Setting up conv10_2_conv10_2_relu_0_split
I0901 14:03:44.123230  7345 net.cpp:157] Top shape: 8 256 1 1 (2048)
I0901 14:03:44.123235  7345 net.cpp:157] Top shape: 8 256 1 1 (2048)
I0901 14:03:44.123240  7345 net.cpp:157] Top shape: 8 256 1 1 (2048)
I0901 14:03:44.123244  7345 net.cpp:165] Memory required for data: 1285730560
I0901 14:03:44.123247  7345 layer_factory.hpp:77] Creating layer conv5_5/sep_mbox_loc
I0901 14:03:44.123260  7345 net.cpp:100] Creating Layer conv5_5/sep_mbox_loc
I0901 14:03:44.123265  7345 net.cpp:434] conv5_5/sep_mbox_loc <- conv5_5/sep_conv5_5/sep_relu_0_split_1
I0901 14:03:44.123271  7345 net.cpp:408] conv5_5/sep_mbox_loc -> conv5_5/sep_mbox_loc
I0901 14:03:44.125577  7345 net.cpp:150] Setting up conv5_5/sep_mbox_loc
I0901 14:03:44.125591  7345 net.cpp:157] Top shape: 8 12 19 19 (34656)
I0901 14:03:44.125596  7345 net.cpp:165] Memory required for data: 1285869184
I0901 14:03:44.125602  7345 layer_factory.hpp:77] Creating layer conv5_5/sep_mbox_loc_perm
I0901 14:03:44.125609  7345 net.cpp:100] Creating Layer conv5_5/sep_mbox_loc_perm
I0901 14:03:44.125613  7345 net.cpp:434] conv5_5/sep_mbox_loc_perm <- conv5_5/sep_mbox_loc
I0901 14:03:44.125622  7345 net.cpp:408] conv5_5/sep_mbox_loc_perm -> conv5_5/sep_mbox_loc_perm
I0901 14:03:44.125716  7345 net.cpp:150] Setting up conv5_5/sep_mbox_loc_perm
I0901 14:03:44.125725  7345 net.cpp:157] Top shape: 8 19 19 12 (34656)
I0901 14:03:44.125730  7345 net.cpp:165] Memory required for data: 1286007808
I0901 14:03:44.125733  7345 layer_factory.hpp:77] Creating layer conv5_5/sep_mbox_loc_flat
I0901 14:03:44.125739  7345 net.cpp:100] Creating Layer conv5_5/sep_mbox_loc_flat
I0901 14:03:44.125743  7345 net.cpp:434] conv5_5/sep_mbox_loc_flat <- conv5_5/sep_mbox_loc_perm
I0901 14:03:44.125751  7345 net.cpp:408] conv5_5/sep_mbox_loc_flat -> conv5_5/sep_mbox_loc_flat
I0901 14:03:44.125774  7345 net.cpp:150] Setting up conv5_5/sep_mbox_loc_flat
I0901 14:03:44.125782  7345 net.cpp:157] Top shape: 8 4332 (34656)
I0901 14:03:44.125784  7345 net.cpp:165] Memory required for data: 1286146432
I0901 14:03:44.125788  7345 layer_factory.hpp:77] Creating layer conv5_5/sep_mbox_conf
I0901 14:03:44.125799  7345 net.cpp:100] Creating Layer conv5_5/sep_mbox_conf
I0901 14:03:44.125804  7345 net.cpp:434] conv5_5/sep_mbox_conf <- conv5_5/sep_conv5_5/sep_relu_0_split_2
I0901 14:03:44.125811  7345 net.cpp:408] conv5_5/sep_mbox_conf -> conv5_5/sep_mbox_conf
I0901 14:03:44.128824  7345 net.cpp:150] Setting up conv5_5/sep_mbox_conf
I0901 14:03:44.128835  7345 net.cpp:157] Top shape: 8 12 19 19 (34656)
I0901 14:03:44.128840  7345 net.cpp:165] Memory required for data: 1286285056
I0901 14:03:44.128847  7345 layer_factory.hpp:77] Creating layer conv5_5/sep_mbox_conf_perm
I0901 14:03:44.128854  7345 net.cpp:100] Creating Layer conv5_5/sep_mbox_conf_perm
I0901 14:03:44.128859  7345 net.cpp:434] conv5_5/sep_mbox_conf_perm <- conv5_5/sep_mbox_conf
I0901 14:03:44.128866  7345 net.cpp:408] conv5_5/sep_mbox_conf_perm -> conv5_5/sep_mbox_conf_perm
I0901 14:03:44.130229  7345 net.cpp:150] Setting up conv5_5/sep_mbox_conf_perm
I0901 14:03:44.130239  7345 net.cpp:157] Top shape: 8 19 19 12 (34656)
I0901 14:03:44.130242  7345 net.cpp:165] Memory required for data: 1286423680
I0901 14:03:44.130247  7345 layer_factory.hpp:77] Creating layer conv5_5/sep_mbox_conf_flat
I0901 14:03:44.130254  7345 net.cpp:100] Creating Layer conv5_5/sep_mbox_conf_flat
I0901 14:03:44.130270  7345 net.cpp:434] conv5_5/sep_mbox_conf_flat <- conv5_5/sep_mbox_conf_perm
I0901 14:03:44.130276  7345 net.cpp:408] conv5_5/sep_mbox_conf_flat -> conv5_5/sep_mbox_conf_flat
I0901 14:03:44.130302  7345 net.cpp:150] Setting up conv5_5/sep_mbox_conf_flat
I0901 14:03:44.130309  7345 net.cpp:157] Top shape: 8 4332 (34656)
I0901 14:03:44.130313  7345 net.cpp:165] Memory required for data: 1286562304
I0901 14:03:44.130317  7345 layer_factory.hpp:77] Creating layer conv5_5/sep_mbox_priorbox
I0901 14:03:44.130326  7345 net.cpp:100] Creating Layer conv5_5/sep_mbox_priorbox
I0901 14:03:44.130329  7345 net.cpp:434] conv5_5/sep_mbox_priorbox <- conv5_5/sep_conv5_5/sep_relu_0_split_3
I0901 14:03:44.130336  7345 net.cpp:434] conv5_5/sep_mbox_priorbox <- data_data_0_split_1
I0901 14:03:44.130342  7345 net.cpp:408] conv5_5/sep_mbox_priorbox -> conv5_5/sep_mbox_priorbox
I0901 14:03:44.130369  7345 net.cpp:150] Setting up conv5_5/sep_mbox_priorbox
I0901 14:03:44.130376  7345 net.cpp:157] Top shape: 1 2 4332 (8664)
I0901 14:03:44.130379  7345 net.cpp:165] Memory required for data: 1286596960
I0901 14:03:44.130384  7345 layer_factory.hpp:77] Creating layer conv6/sep_mbox_loc
I0901 14:03:44.130394  7345 net.cpp:100] Creating Layer conv6/sep_mbox_loc
I0901 14:03:44.130398  7345 net.cpp:434] conv6/sep_mbox_loc <- conv6/sep_conv6/sep_relu_0_split_1
I0901 14:03:44.130408  7345 net.cpp:408] conv6/sep_mbox_loc -> conv6/sep_mbox_loc
I0901 14:03:44.134068  7345 net.cpp:150] Setting up conv6/sep_mbox_loc
I0901 14:03:44.134079  7345 net.cpp:157] Top shape: 8 24 10 10 (19200)
I0901 14:03:44.134084  7345 net.cpp:165] Memory required for data: 1286673760
I0901 14:03:44.134093  7345 layer_factory.hpp:77] Creating layer conv6/sep_mbox_loc_perm
I0901 14:03:44.134099  7345 net.cpp:100] Creating Layer conv6/sep_mbox_loc_perm
I0901 14:03:44.134104  7345 net.cpp:434] conv6/sep_mbox_loc_perm <- conv6/sep_mbox_loc
I0901 14:03:44.134110  7345 net.cpp:408] conv6/sep_mbox_loc_perm -> conv6/sep_mbox_loc_perm
I0901 14:03:44.134202  7345 net.cpp:150] Setting up conv6/sep_mbox_loc_perm
I0901 14:03:44.134209  7345 net.cpp:157] Top shape: 8 10 10 24 (19200)
I0901 14:03:44.134213  7345 net.cpp:165] Memory required for data: 1286750560
I0901 14:03:44.134217  7345 layer_factory.hpp:77] Creating layer conv6/sep_mbox_loc_flat
I0901 14:03:44.134225  7345 net.cpp:100] Creating Layer conv6/sep_mbox_loc_flat
I0901 14:03:44.134229  7345 net.cpp:434] conv6/sep_mbox_loc_flat <- conv6/sep_mbox_loc_perm
I0901 14:03:44.134235  7345 net.cpp:408] conv6/sep_mbox_loc_flat -> conv6/sep_mbox_loc_flat
I0901 14:03:44.134258  7345 net.cpp:150] Setting up conv6/sep_mbox_loc_flat
I0901 14:03:44.134264  7345 net.cpp:157] Top shape: 8 2400 (19200)
I0901 14:03:44.134268  7345 net.cpp:165] Memory required for data: 1286827360
I0901 14:03:44.134272  7345 layer_factory.hpp:77] Creating layer conv6/sep_mbox_conf
I0901 14:03:44.134284  7345 net.cpp:100] Creating Layer conv6/sep_mbox_conf
I0901 14:03:44.134287  7345 net.cpp:434] conv6/sep_mbox_conf <- conv6/sep_conv6/sep_relu_0_split_2
I0901 14:03:44.134295  7345 net.cpp:408] conv6/sep_mbox_conf -> conv6/sep_mbox_conf
I0901 14:03:44.137538  7345 net.cpp:150] Setting up conv6/sep_mbox_conf
I0901 14:03:44.137550  7345 net.cpp:157] Top shape: 8 24 10 10 (19200)
I0901 14:03:44.137555  7345 net.cpp:165] Memory required for data: 1286904160
I0901 14:03:44.137562  7345 layer_factory.hpp:77] Creating layer conv6/sep_mbox_conf_perm
I0901 14:03:44.137573  7345 net.cpp:100] Creating Layer conv6/sep_mbox_conf_perm
I0901 14:03:44.137578  7345 net.cpp:434] conv6/sep_mbox_conf_perm <- conv6/sep_mbox_conf
I0901 14:03:44.137584  7345 net.cpp:408] conv6/sep_mbox_conf_perm -> conv6/sep_mbox_conf_perm
I0901 14:03:44.137678  7345 net.cpp:150] Setting up conv6/sep_mbox_conf_perm
I0901 14:03:44.137688  7345 net.cpp:157] Top shape: 8 10 10 24 (19200)
I0901 14:03:44.137692  7345 net.cpp:165] Memory required for data: 1286980960
I0901 14:03:44.137696  7345 layer_factory.hpp:77] Creating layer conv6/sep_mbox_conf_flat
I0901 14:03:44.137702  7345 net.cpp:100] Creating Layer conv6/sep_mbox_conf_flat
I0901 14:03:44.137717  7345 net.cpp:434] conv6/sep_mbox_conf_flat <- conv6/sep_mbox_conf_perm
I0901 14:03:44.137727  7345 net.cpp:408] conv6/sep_mbox_conf_flat -> conv6/sep_mbox_conf_flat
I0901 14:03:44.137754  7345 net.cpp:150] Setting up conv6/sep_mbox_conf_flat
I0901 14:03:44.137760  7345 net.cpp:157] Top shape: 8 2400 (19200)
I0901 14:03:44.137764  7345 net.cpp:165] Memory required for data: 1287057760
I0901 14:03:44.137768  7345 layer_factory.hpp:77] Creating layer conv6/sep_mbox_priorbox
I0901 14:03:44.137774  7345 net.cpp:100] Creating Layer conv6/sep_mbox_priorbox
I0901 14:03:44.137778  7345 net.cpp:434] conv6/sep_mbox_priorbox <- conv6/sep_conv6/sep_relu_0_split_3
I0901 14:03:44.137784  7345 net.cpp:434] conv6/sep_mbox_priorbox <- data_data_0_split_2
I0901 14:03:44.137792  7345 net.cpp:408] conv6/sep_mbox_priorbox -> conv6/sep_mbox_priorbox
I0901 14:03:44.137817  7345 net.cpp:150] Setting up conv6/sep_mbox_priorbox
I0901 14:03:44.137825  7345 net.cpp:157] Top shape: 1 2 2400 (4800)
I0901 14:03:44.137828  7345 net.cpp:165] Memory required for data: 1287076960
I0901 14:03:44.137832  7345 layer_factory.hpp:77] Creating layer conv7_2_mbox_loc
I0901 14:03:44.137842  7345 net.cpp:100] Creating Layer conv7_2_mbox_loc
I0901 14:03:44.137846  7345 net.cpp:434] conv7_2_mbox_loc <- conv7_2_conv7_2_relu_0_split_1
I0901 14:03:44.137853  7345 net.cpp:408] conv7_2_mbox_loc -> conv7_2_mbox_loc
I0901 14:03:44.140229  7345 net.cpp:150] Setting up conv7_2_mbox_loc
I0901 14:03:44.140241  7345 net.cpp:157] Top shape: 8 24 5 5 (4800)
I0901 14:03:44.140245  7345 net.cpp:165] Memory required for data: 1287096160
I0901 14:03:44.140254  7345 layer_factory.hpp:77] Creating layer conv7_2_mbox_loc_perm
I0901 14:03:44.140261  7345 net.cpp:100] Creating Layer conv7_2_mbox_loc_perm
I0901 14:03:44.140265  7345 net.cpp:434] conv7_2_mbox_loc_perm <- conv7_2_mbox_loc
I0901 14:03:44.140274  7345 net.cpp:408] conv7_2_mbox_loc_perm -> conv7_2_mbox_loc_perm
I0901 14:03:44.140364  7345 net.cpp:150] Setting up conv7_2_mbox_loc_perm
I0901 14:03:44.140372  7345 net.cpp:157] Top shape: 8 5 5 24 (4800)
I0901 14:03:44.140375  7345 net.cpp:165] Memory required for data: 1287115360
I0901 14:03:44.140379  7345 layer_factory.hpp:77] Creating layer conv7_2_mbox_loc_flat
I0901 14:03:44.140385  7345 net.cpp:100] Creating Layer conv7_2_mbox_loc_flat
I0901 14:03:44.140389  7345 net.cpp:434] conv7_2_mbox_loc_flat <- conv7_2_mbox_loc_perm
I0901 14:03:44.140398  7345 net.cpp:408] conv7_2_mbox_loc_flat -> conv7_2_mbox_loc_flat
I0901 14:03:44.140421  7345 net.cpp:150] Setting up conv7_2_mbox_loc_flat
I0901 14:03:44.140427  7345 net.cpp:157] Top shape: 8 600 (4800)
I0901 14:03:44.140430  7345 net.cpp:165] Memory required for data: 1287134560
I0901 14:03:44.140434  7345 layer_factory.hpp:77] Creating layer conv7_2_mbox_conf
I0901 14:03:44.140442  7345 net.cpp:100] Creating Layer conv7_2_mbox_conf
I0901 14:03:44.140446  7345 net.cpp:434] conv7_2_mbox_conf <- conv7_2_conv7_2_relu_0_split_2
I0901 14:03:44.140456  7345 net.cpp:408] conv7_2_mbox_conf -> conv7_2_mbox_conf
I0901 14:03:44.142871  7345 net.cpp:150] Setting up conv7_2_mbox_conf
I0901 14:03:44.142882  7345 net.cpp:157] Top shape: 8 24 5 5 (4800)
I0901 14:03:44.142884  7345 net.cpp:165] Memory required for data: 1287153760
I0901 14:03:44.142889  7345 layer_factory.hpp:77] Creating layer conv7_2_mbox_conf_perm
I0901 14:03:44.142896  7345 net.cpp:100] Creating Layer conv7_2_mbox_conf_perm
I0901 14:03:44.142900  7345 net.cpp:434] conv7_2_mbox_conf_perm <- conv7_2_mbox_conf
I0901 14:03:44.142905  7345 net.cpp:408] conv7_2_mbox_conf_perm -> conv7_2_mbox_conf_perm
I0901 14:03:44.142997  7345 net.cpp:150] Setting up conv7_2_mbox_conf_perm
I0901 14:03:44.143004  7345 net.cpp:157] Top shape: 8 5 5 24 (4800)
I0901 14:03:44.143007  7345 net.cpp:165] Memory required for data: 1287172960
I0901 14:03:44.143009  7345 layer_factory.hpp:77] Creating layer conv7_2_mbox_conf_flat
I0901 14:03:44.143015  7345 net.cpp:100] Creating Layer conv7_2_mbox_conf_flat
I0901 14:03:44.143018  7345 net.cpp:434] conv7_2_mbox_conf_flat <- conv7_2_mbox_conf_perm
I0901 14:03:44.143033  7345 net.cpp:408] conv7_2_mbox_conf_flat -> conv7_2_mbox_conf_flat
I0901 14:03:44.143059  7345 net.cpp:150] Setting up conv7_2_mbox_conf_flat
I0901 14:03:44.143064  7345 net.cpp:157] Top shape: 8 600 (4800)
I0901 14:03:44.143067  7345 net.cpp:165] Memory required for data: 1287192160
I0901 14:03:44.143071  7345 layer_factory.hpp:77] Creating layer conv7_2_mbox_priorbox
I0901 14:03:44.143079  7345 net.cpp:100] Creating Layer conv7_2_mbox_priorbox
I0901 14:03:44.143084  7345 net.cpp:434] conv7_2_mbox_priorbox <- conv7_2_conv7_2_relu_0_split_3
I0901 14:03:44.143090  7345 net.cpp:434] conv7_2_mbox_priorbox <- data_data_0_split_3
I0901 14:03:44.143097  7345 net.cpp:408] conv7_2_mbox_priorbox -> conv7_2_mbox_priorbox
I0901 14:03:44.143121  7345 net.cpp:150] Setting up conv7_2_mbox_priorbox
I0901 14:03:44.143129  7345 net.cpp:157] Top shape: 1 2 600 (1200)
I0901 14:03:44.143133  7345 net.cpp:165] Memory required for data: 1287196960
I0901 14:03:44.143137  7345 layer_factory.hpp:77] Creating layer conv8_2_mbox_loc
I0901 14:03:44.143147  7345 net.cpp:100] Creating Layer conv8_2_mbox_loc
I0901 14:03:44.143151  7345 net.cpp:434] conv8_2_mbox_loc <- conv8_2_conv8_2_relu_0_split_1
I0901 14:03:44.143159  7345 net.cpp:408] conv8_2_mbox_loc -> conv8_2_mbox_loc
I0901 14:03:44.145350  7345 net.cpp:150] Setting up conv8_2_mbox_loc
I0901 14:03:44.145362  7345 net.cpp:157] Top shape: 8 24 3 3 (1728)
I0901 14:03:44.145366  7345 net.cpp:165] Memory required for data: 1287203872
I0901 14:03:44.145375  7345 layer_factory.hpp:77] Creating layer conv8_2_mbox_loc_perm
I0901 14:03:44.145381  7345 net.cpp:100] Creating Layer conv8_2_mbox_loc_perm
I0901 14:03:44.145386  7345 net.cpp:434] conv8_2_mbox_loc_perm <- conv8_2_mbox_loc
I0901 14:03:44.145395  7345 net.cpp:408] conv8_2_mbox_loc_perm -> conv8_2_mbox_loc_perm
I0901 14:03:44.145486  7345 net.cpp:150] Setting up conv8_2_mbox_loc_perm
I0901 14:03:44.145494  7345 net.cpp:157] Top shape: 8 3 3 24 (1728)
I0901 14:03:44.145498  7345 net.cpp:165] Memory required for data: 1287210784
I0901 14:03:44.145503  7345 layer_factory.hpp:77] Creating layer conv8_2_mbox_loc_flat
I0901 14:03:44.145509  7345 net.cpp:100] Creating Layer conv8_2_mbox_loc_flat
I0901 14:03:44.145512  7345 net.cpp:434] conv8_2_mbox_loc_flat <- conv8_2_mbox_loc_perm
I0901 14:03:44.145519  7345 net.cpp:408] conv8_2_mbox_loc_flat -> conv8_2_mbox_loc_flat
I0901 14:03:44.145542  7345 net.cpp:150] Setting up conv8_2_mbox_loc_flat
I0901 14:03:44.145550  7345 net.cpp:157] Top shape: 8 216 (1728)
I0901 14:03:44.145552  7345 net.cpp:165] Memory required for data: 1287217696
I0901 14:03:44.145556  7345 layer_factory.hpp:77] Creating layer conv8_2_mbox_conf
I0901 14:03:44.145567  7345 net.cpp:100] Creating Layer conv8_2_mbox_conf
I0901 14:03:44.145571  7345 net.cpp:434] conv8_2_mbox_conf <- conv8_2_conv8_2_relu_0_split_2
I0901 14:03:44.145579  7345 net.cpp:408] conv8_2_mbox_conf -> conv8_2_mbox_conf
I0901 14:03:44.148151  7345 net.cpp:150] Setting up conv8_2_mbox_conf
I0901 14:03:44.148164  7345 net.cpp:157] Top shape: 8 24 3 3 (1728)
I0901 14:03:44.148167  7345 net.cpp:165] Memory required for data: 1287224608
I0901 14:03:44.148175  7345 layer_factory.hpp:77] Creating layer conv8_2_mbox_conf_perm
I0901 14:03:44.148183  7345 net.cpp:100] Creating Layer conv8_2_mbox_conf_perm
I0901 14:03:44.148187  7345 net.cpp:434] conv8_2_mbox_conf_perm <- conv8_2_mbox_conf
I0901 14:03:44.148195  7345 net.cpp:408] conv8_2_mbox_conf_perm -> conv8_2_mbox_conf_perm
I0901 14:03:44.148286  7345 net.cpp:150] Setting up conv8_2_mbox_conf_perm
I0901 14:03:44.148294  7345 net.cpp:157] Top shape: 8 3 3 24 (1728)
I0901 14:03:44.148298  7345 net.cpp:165] Memory required for data: 1287231520
I0901 14:03:44.148303  7345 layer_factory.hpp:77] Creating layer conv8_2_mbox_conf_flat
I0901 14:03:44.148309  7345 net.cpp:100] Creating Layer conv8_2_mbox_conf_flat
I0901 14:03:44.148313  7345 net.cpp:434] conv8_2_mbox_conf_flat <- conv8_2_mbox_conf_perm
I0901 14:03:44.148320  7345 net.cpp:408] conv8_2_mbox_conf_flat -> conv8_2_mbox_conf_flat
I0901 14:03:44.148355  7345 net.cpp:150] Setting up conv8_2_mbox_conf_flat
I0901 14:03:44.148362  7345 net.cpp:157] Top shape: 8 216 (1728)
I0901 14:03:44.148366  7345 net.cpp:165] Memory required for data: 1287238432
I0901 14:03:44.148370  7345 layer_factory.hpp:77] Creating layer conv8_2_mbox_priorbox
I0901 14:03:44.148378  7345 net.cpp:100] Creating Layer conv8_2_mbox_priorbox
I0901 14:03:44.148382  7345 net.cpp:434] conv8_2_mbox_priorbox <- conv8_2_conv8_2_relu_0_split_3
I0901 14:03:44.148388  7345 net.cpp:434] conv8_2_mbox_priorbox <- data_data_0_split_4
I0901 14:03:44.148394  7345 net.cpp:408] conv8_2_mbox_priorbox -> conv8_2_mbox_priorbox
I0901 14:03:44.148422  7345 net.cpp:150] Setting up conv8_2_mbox_priorbox
I0901 14:03:44.148427  7345 net.cpp:157] Top shape: 1 2 216 (432)
I0901 14:03:44.148430  7345 net.cpp:165] Memory required for data: 1287240160
I0901 14:03:44.148434  7345 layer_factory.hpp:77] Creating layer conv9_2_mbox_loc
I0901 14:03:44.148444  7345 net.cpp:100] Creating Layer conv9_2_mbox_loc
I0901 14:03:44.148449  7345 net.cpp:434] conv9_2_mbox_loc <- conv9_2_conv9_2_relu_0_split_1
I0901 14:03:44.148458  7345 net.cpp:408] conv9_2_mbox_loc -> conv9_2_mbox_loc
I0901 14:03:44.150764  7345 net.cpp:150] Setting up conv9_2_mbox_loc
I0901 14:03:44.150775  7345 net.cpp:157] Top shape: 8 24 2 2 (768)
I0901 14:03:44.150780  7345 net.cpp:165] Memory required for data: 1287243232
I0901 14:03:44.150787  7345 layer_factory.hpp:77] Creating layer conv9_2_mbox_loc_perm
I0901 14:03:44.150795  7345 net.cpp:100] Creating Layer conv9_2_mbox_loc_perm
I0901 14:03:44.150799  7345 net.cpp:434] conv9_2_mbox_loc_perm <- conv9_2_mbox_loc
I0901 14:03:44.150806  7345 net.cpp:408] conv9_2_mbox_loc_perm -> conv9_2_mbox_loc_perm
I0901 14:03:44.150897  7345 net.cpp:150] Setting up conv9_2_mbox_loc_perm
I0901 14:03:44.150903  7345 net.cpp:157] Top shape: 8 2 2 24 (768)
I0901 14:03:44.150908  7345 net.cpp:165] Memory required for data: 1287246304
I0901 14:03:44.150913  7345 layer_factory.hpp:77] Creating layer conv9_2_mbox_loc_flat
I0901 14:03:44.150919  7345 net.cpp:100] Creating Layer conv9_2_mbox_loc_flat
I0901 14:03:44.150923  7345 net.cpp:434] conv9_2_mbox_loc_flat <- conv9_2_mbox_loc_perm
I0901 14:03:44.150929  7345 net.cpp:408] conv9_2_mbox_loc_flat -> conv9_2_mbox_loc_flat
I0901 14:03:44.150954  7345 net.cpp:150] Setting up conv9_2_mbox_loc_flat
I0901 14:03:44.150959  7345 net.cpp:157] Top shape: 8 96 (768)
I0901 14:03:44.150964  7345 net.cpp:165] Memory required for data: 1287249376
I0901 14:03:44.150967  7345 layer_factory.hpp:77] Creating layer conv9_2_mbox_conf
I0901 14:03:44.150979  7345 net.cpp:100] Creating Layer conv9_2_mbox_conf
I0901 14:03:44.150982  7345 net.cpp:434] conv9_2_mbox_conf <- conv9_2_conv9_2_relu_0_split_2
I0901 14:03:44.150991  7345 net.cpp:408] conv9_2_mbox_conf -> conv9_2_mbox_conf
I0901 14:03:44.152770  7345 net.cpp:150] Setting up conv9_2_mbox_conf
I0901 14:03:44.152781  7345 net.cpp:157] Top shape: 8 24 2 2 (768)
I0901 14:03:44.152786  7345 net.cpp:165] Memory required for data: 1287252448
I0901 14:03:44.152794  7345 layer_factory.hpp:77] Creating layer conv9_2_mbox_conf_perm
I0901 14:03:44.152802  7345 net.cpp:100] Creating Layer conv9_2_mbox_conf_perm
I0901 14:03:44.152806  7345 net.cpp:434] conv9_2_mbox_conf_perm <- conv9_2_mbox_conf
I0901 14:03:44.152814  7345 net.cpp:408] conv9_2_mbox_conf_perm -> conv9_2_mbox_conf_perm
I0901 14:03:44.152904  7345 net.cpp:150] Setting up conv9_2_mbox_conf_perm
I0901 14:03:44.152910  7345 net.cpp:157] Top shape: 8 2 2 24 (768)
I0901 14:03:44.152915  7345 net.cpp:165] Memory required for data: 1287255520
I0901 14:03:44.152920  7345 layer_factory.hpp:77] Creating layer conv9_2_mbox_conf_flat
I0901 14:03:44.152926  7345 net.cpp:100] Creating Layer conv9_2_mbox_conf_flat
I0901 14:03:44.152930  7345 net.cpp:434] conv9_2_mbox_conf_flat <- conv9_2_mbox_conf_perm
I0901 14:03:44.152936  7345 net.cpp:408] conv9_2_mbox_conf_flat -> conv9_2_mbox_conf_flat
I0901 14:03:44.152961  7345 net.cpp:150] Setting up conv9_2_mbox_conf_flat
I0901 14:03:44.152966  7345 net.cpp:157] Top shape: 8 96 (768)
I0901 14:03:44.152978  7345 net.cpp:165] Memory required for data: 1287258592
I0901 14:03:44.152983  7345 layer_factory.hpp:77] Creating layer conv9_2_mbox_priorbox
I0901 14:03:44.152992  7345 net.cpp:100] Creating Layer conv9_2_mbox_priorbox
I0901 14:03:44.152995  7345 net.cpp:434] conv9_2_mbox_priorbox <- conv9_2_conv9_2_relu_0_split_3
I0901 14:03:44.153002  7345 net.cpp:434] conv9_2_mbox_priorbox <- data_data_0_split_5
I0901 14:03:44.153008  7345 net.cpp:408] conv9_2_mbox_priorbox -> conv9_2_mbox_priorbox
I0901 14:03:44.153036  7345 net.cpp:150] Setting up conv9_2_mbox_priorbox
I0901 14:03:44.153043  7345 net.cpp:157] Top shape: 1 2 96 (192)
I0901 14:03:44.153046  7345 net.cpp:165] Memory required for data: 1287259360
I0901 14:03:44.153050  7345 layer_factory.hpp:77] Creating layer conv10_2_mbox_loc
I0901 14:03:44.153061  7345 net.cpp:100] Creating Layer conv10_2_mbox_loc
I0901 14:03:44.153065  7345 net.cpp:434] conv10_2_mbox_loc <- conv10_2_conv10_2_relu_0_split_0
I0901 14:03:44.153074  7345 net.cpp:408] conv10_2_mbox_loc -> conv10_2_mbox_loc
I0901 14:03:44.155279  7345 net.cpp:150] Setting up conv10_2_mbox_loc
I0901 14:03:44.155290  7345 net.cpp:157] Top shape: 8 24 1 1 (192)
I0901 14:03:44.155295  7345 net.cpp:165] Memory required for data: 1287260128
I0901 14:03:44.155303  7345 layer_factory.hpp:77] Creating layer conv10_2_mbox_loc_perm
I0901 14:03:44.155310  7345 net.cpp:100] Creating Layer conv10_2_mbox_loc_perm
I0901 14:03:44.155314  7345 net.cpp:434] conv10_2_mbox_loc_perm <- conv10_2_mbox_loc
I0901 14:03:44.155321  7345 net.cpp:408] conv10_2_mbox_loc_perm -> conv10_2_mbox_loc_perm
I0901 14:03:44.155412  7345 net.cpp:150] Setting up conv10_2_mbox_loc_perm
I0901 14:03:44.155419  7345 net.cpp:157] Top shape: 8 1 1 24 (192)
I0901 14:03:44.155423  7345 net.cpp:165] Memory required for data: 1287260896
I0901 14:03:44.155428  7345 layer_factory.hpp:77] Creating layer conv10_2_mbox_loc_flat
I0901 14:03:44.155436  7345 net.cpp:100] Creating Layer conv10_2_mbox_loc_flat
I0901 14:03:44.155439  7345 net.cpp:434] conv10_2_mbox_loc_flat <- conv10_2_mbox_loc_perm
I0901 14:03:44.155445  7345 net.cpp:408] conv10_2_mbox_loc_flat -> conv10_2_mbox_loc_flat
I0901 14:03:44.155470  7345 net.cpp:150] Setting up conv10_2_mbox_loc_flat
I0901 14:03:44.155475  7345 net.cpp:157] Top shape: 8 24 (192)
I0901 14:03:44.155478  7345 net.cpp:165] Memory required for data: 1287261664
I0901 14:03:44.155483  7345 layer_factory.hpp:77] Creating layer conv10_2_mbox_conf
I0901 14:03:44.155493  7345 net.cpp:100] Creating Layer conv10_2_mbox_conf
I0901 14:03:44.155496  7345 net.cpp:434] conv10_2_mbox_conf <- conv10_2_conv10_2_relu_0_split_1
I0901 14:03:44.155505  7345 net.cpp:408] conv10_2_mbox_conf -> conv10_2_mbox_conf
I0901 14:03:44.158083  7345 net.cpp:150] Setting up conv10_2_mbox_conf
I0901 14:03:44.158095  7345 net.cpp:157] Top shape: 8 24 1 1 (192)
I0901 14:03:44.158100  7345 net.cpp:165] Memory required for data: 1287262432
I0901 14:03:44.158108  7345 layer_factory.hpp:77] Creating layer conv10_2_mbox_conf_perm
I0901 14:03:44.158115  7345 net.cpp:100] Creating Layer conv10_2_mbox_conf_perm
I0901 14:03:44.158119  7345 net.cpp:434] conv10_2_mbox_conf_perm <- conv10_2_mbox_conf
I0901 14:03:44.158126  7345 net.cpp:408] conv10_2_mbox_conf_perm -> conv10_2_mbox_conf_perm
I0901 14:03:44.158221  7345 net.cpp:150] Setting up conv10_2_mbox_conf_perm
I0901 14:03:44.158228  7345 net.cpp:157] Top shape: 8 1 1 24 (192)
I0901 14:03:44.158232  7345 net.cpp:165] Memory required for data: 1287263200
I0901 14:03:44.158236  7345 layer_factory.hpp:77] Creating layer conv10_2_mbox_conf_flat
I0901 14:03:44.158244  7345 net.cpp:100] Creating Layer conv10_2_mbox_conf_flat
I0901 14:03:44.158248  7345 net.cpp:434] conv10_2_mbox_conf_flat <- conv10_2_mbox_conf_perm
I0901 14:03:44.158254  7345 net.cpp:408] conv10_2_mbox_conf_flat -> conv10_2_mbox_conf_flat
I0901 14:03:44.158279  7345 net.cpp:150] Setting up conv10_2_mbox_conf_flat
I0901 14:03:44.158287  7345 net.cpp:157] Top shape: 8 24 (192)
I0901 14:03:44.158290  7345 net.cpp:165] Memory required for data: 1287263968
I0901 14:03:44.158303  7345 layer_factory.hpp:77] Creating layer conv10_2_mbox_priorbox
I0901 14:03:44.158311  7345 net.cpp:100] Creating Layer conv10_2_mbox_priorbox
I0901 14:03:44.158315  7345 net.cpp:434] conv10_2_mbox_priorbox <- conv10_2_conv10_2_relu_0_split_2
I0901 14:03:44.158321  7345 net.cpp:434] conv10_2_mbox_priorbox <- data_data_0_split_6
I0901 14:03:44.158327  7345 net.cpp:408] conv10_2_mbox_priorbox -> conv10_2_mbox_priorbox
I0901 14:03:44.158355  7345 net.cpp:150] Setting up conv10_2_mbox_priorbox
I0901 14:03:44.158361  7345 net.cpp:157] Top shape: 1 2 24 (48)
I0901 14:03:44.158365  7345 net.cpp:165] Memory required for data: 1287264160
I0901 14:03:44.158370  7345 layer_factory.hpp:77] Creating layer mbox_loc
I0901 14:03:44.158377  7345 net.cpp:100] Creating Layer mbox_loc
I0901 14:03:44.158381  7345 net.cpp:434] mbox_loc <- conv5_5/sep_mbox_loc_flat
I0901 14:03:44.158388  7345 net.cpp:434] mbox_loc <- conv6/sep_mbox_loc_flat
I0901 14:03:44.158393  7345 net.cpp:434] mbox_loc <- conv7_2_mbox_loc_flat
I0901 14:03:44.158397  7345 net.cpp:434] mbox_loc <- conv8_2_mbox_loc_flat
I0901 14:03:44.158402  7345 net.cpp:434] mbox_loc <- conv9_2_mbox_loc_flat
I0901 14:03:44.158406  7345 net.cpp:434] mbox_loc <- conv10_2_mbox_loc_flat
I0901 14:03:44.158412  7345 net.cpp:408] mbox_loc -> mbox_loc
I0901 14:03:44.158438  7345 net.cpp:150] Setting up mbox_loc
I0901 14:03:44.158444  7345 net.cpp:157] Top shape: 8 7668 (61344)
I0901 14:03:44.158448  7345 net.cpp:165] Memory required for data: 1287509536
I0901 14:03:44.158452  7345 layer_factory.hpp:77] Creating layer mbox_conf
I0901 14:03:44.158458  7345 net.cpp:100] Creating Layer mbox_conf
I0901 14:03:44.158463  7345 net.cpp:434] mbox_conf <- conv5_5/sep_mbox_conf_flat
I0901 14:03:44.158468  7345 net.cpp:434] mbox_conf <- conv6/sep_mbox_conf_flat
I0901 14:03:44.158473  7345 net.cpp:434] mbox_conf <- conv7_2_mbox_conf_flat
I0901 14:03:44.158476  7345 net.cpp:434] mbox_conf <- conv8_2_mbox_conf_flat
I0901 14:03:44.158480  7345 net.cpp:434] mbox_conf <- conv9_2_mbox_conf_flat
I0901 14:03:44.158485  7345 net.cpp:434] mbox_conf <- conv10_2_mbox_conf_flat
I0901 14:03:44.158493  7345 net.cpp:408] mbox_conf -> mbox_conf
I0901 14:03:44.158515  7345 net.cpp:150] Setting up mbox_conf
I0901 14:03:44.158521  7345 net.cpp:157] Top shape: 8 7668 (61344)
I0901 14:03:44.158525  7345 net.cpp:165] Memory required for data: 1287754912
I0901 14:03:44.158529  7345 layer_factory.hpp:77] Creating layer mbox_priorbox
I0901 14:03:44.158535  7345 net.cpp:100] Creating Layer mbox_priorbox
I0901 14:03:44.158538  7345 net.cpp:434] mbox_priorbox <- conv5_5/sep_mbox_priorbox
I0901 14:03:44.158545  7345 net.cpp:434] mbox_priorbox <- conv6/sep_mbox_priorbox
I0901 14:03:44.158548  7345 net.cpp:434] mbox_priorbox <- conv7_2_mbox_priorbox
I0901 14:03:44.158553  7345 net.cpp:434] mbox_priorbox <- conv8_2_mbox_priorbox
I0901 14:03:44.158557  7345 net.cpp:434] mbox_priorbox <- conv9_2_mbox_priorbox
I0901 14:03:44.158561  7345 net.cpp:434] mbox_priorbox <- conv10_2_mbox_priorbox
I0901 14:03:44.158568  7345 net.cpp:408] mbox_priorbox -> mbox_priorbox
I0901 14:03:44.158591  7345 net.cpp:150] Setting up mbox_priorbox
I0901 14:03:44.158599  7345 net.cpp:157] Top shape: 1 2 7668 (15336)
I0901 14:03:44.158602  7345 net.cpp:165] Memory required for data: 1287816256
I0901 14:03:44.158607  7345 layer_factory.hpp:77] Creating layer mbox_conf_reshape
I0901 14:03:44.158615  7345 net.cpp:100] Creating Layer mbox_conf_reshape
I0901 14:03:44.158619  7345 net.cpp:434] mbox_conf_reshape <- mbox_conf
I0901 14:03:44.158625  7345 net.cpp:408] mbox_conf_reshape -> mbox_conf_reshape
I0901 14:03:44.158655  7345 net.cpp:150] Setting up mbox_conf_reshape
I0901 14:03:44.158663  7345 net.cpp:157] Top shape: 8 1917 4 (61344)
I0901 14:03:44.158666  7345 net.cpp:165] Memory required for data: 1288061632
I0901 14:03:44.158670  7345 layer_factory.hpp:77] Creating layer mbox_conf_softmax
I0901 14:03:44.158677  7345 net.cpp:100] Creating Layer mbox_conf_softmax
I0901 14:03:44.158681  7345 net.cpp:434] mbox_conf_softmax <- mbox_conf_reshape
I0901 14:03:44.158695  7345 net.cpp:408] mbox_conf_softmax -> mbox_conf_softmax
I0901 14:03:44.159343  7345 net.cpp:150] Setting up mbox_conf_softmax
I0901 14:03:44.159354  7345 net.cpp:157] Top shape: 8 1917 4 (61344)
I0901 14:03:44.159359  7345 net.cpp:165] Memory required for data: 1288307008
I0901 14:03:44.159363  7345 layer_factory.hpp:77] Creating layer mbox_conf_flatten
I0901 14:03:44.159369  7345 net.cpp:100] Creating Layer mbox_conf_flatten
I0901 14:03:44.159373  7345 net.cpp:434] mbox_conf_flatten <- mbox_conf_softmax
I0901 14:03:44.159381  7345 net.cpp:408] mbox_conf_flatten -> mbox_conf_flatten
I0901 14:03:44.159409  7345 net.cpp:150] Setting up mbox_conf_flatten
I0901 14:03:44.159415  7345 net.cpp:157] Top shape: 8 7668 (61344)
I0901 14:03:44.159420  7345 net.cpp:165] Memory required for data: 1288552384
I0901 14:03:44.159423  7345 layer_factory.hpp:77] Creating layer detection_out
I0901 14:03:44.159440  7345 net.cpp:100] Creating Layer detection_out
I0901 14:03:44.159445  7345 net.cpp:434] detection_out <- mbox_loc
I0901 14:03:44.159451  7345 net.cpp:434] detection_out <- mbox_conf_flatten
I0901 14:03:44.159456  7345 net.cpp:434] detection_out <- mbox_priorbox
I0901 14:03:44.159462  7345 net.cpp:408] detection_out -> detection_out
I0901 14:03:44.159740  7345 net.cpp:150] Setting up detection_out
I0901 14:03:44.159749  7345 net.cpp:157] Top shape: 1 1 1 7 (7)
I0901 14:03:44.159754  7345 net.cpp:165] Memory required for data: 1288552412
I0901 14:03:44.159759  7345 layer_factory.hpp:77] Creating layer detection_eval
I0901 14:03:44.159766  7345 net.cpp:100] Creating Layer detection_eval
I0901 14:03:44.159770  7345 net.cpp:434] detection_eval <- detection_out
I0901 14:03:44.159776  7345 net.cpp:434] detection_eval <- label
I0901 14:03:44.159783  7345 net.cpp:408] detection_eval -> detection_eval
I0901 14:03:44.159961  7345 net.cpp:150] Setting up detection_eval
I0901 14:03:44.159970  7345 net.cpp:157] Top shape: 1 1 4 5 (20)
I0901 14:03:44.159972  7345 net.cpp:165] Memory required for data: 1288552492
I0901 14:03:44.159976  7345 net.cpp:228] detection_eval does not need backward computation.
I0901 14:03:44.159981  7345 net.cpp:228] detection_out does not need backward computation.
I0901 14:03:44.159984  7345 net.cpp:228] mbox_conf_flatten does not need backward computation.
I0901 14:03:44.159988  7345 net.cpp:228] mbox_conf_softmax does not need backward computation.
…
