…
        min_scale: 0.3
        max_scale: 1
        min_aspect_ratio: 0.5
        max_aspect_ratio: 2
      }
      sample_constraint {
        min_jaccard_overlap: 0.9
      }
      max_sample: 1
      max_trials: 50
    }
    batch_sampler {
      sampler {
        min_scale: 0.3
        max_scale: 1
        min_aspect_ratio: 0.5
        max_aspect_ratio: 2
      }
      sample_constraint {
        max_jaccard_overlap: 1
      }
      max_sample: 1
      max_trials: 50
    }
    label_map_file: "data/BodyFaceHandRegions/labelmap_voc.prototxt"
  }
}
layer {
  name: "conv1"
  type: "Convolution"
  bottom: "data"
  top: "conv1"
  param {
    lr_mult: 1
    decay_mult: 1
  }
  convolution_param {
    num_output: 32
    bias_term: false
    pad: 1
    kernel_size: 3
    group: 1
    stride: 2
    weight_filler {
      type: "gaussian"
      std: 0.01
    }
    engine: DEFAULT
  }
}
layer {
  name: "conv1/bn"
  type: "BatchNorm"
  bottom: "conv1"
  top: "conv1"
  batch_norm_param {
    moving_average_fraction: 0.999
    eps: 0.001
  }
}
layer {
  name: "conv1/scale"
  type: "Scale"
  bottom: "conv1"
  top: "conv1"
  param {
    lr_mult: 1
    decay_mult: 0
  }
  param {
    lr_mult: 1
    decay_mult: 0
  }
  scale_param {
    filler {
      type: "constant"
      value: 1
    }
    bias_term: true
    bias_filler {
      type: "constant"
      value: 0
    }
  }
}
layer {
  name: "conv1_relu"
  type: "ReLU"
  bottom: "conv1"
  top: "conv1"
}
layer {
  name: "conv2_1/dw"
  type: "Convolution"
  bottom: "conv1"
  top: "conv2_1/dw"
  param {
    lr_mult: 1
    decay_mult: 1
  }
  convolution_param {
    num_output: 32
    bias_term: false
    pad: 1
    kernel_size: 3
    group: 32
    stride: 1
    weight_filler {
      type: "gaussian"
      std: 0.01
    }
    engine: CAFFE
  }
}
layer {
  name: "conv2_1/dw/bn"
  type: "BatchNorm"
  bottom: "conv2_1/dw"
  top: "conv2_1/dw"
  batch_norm_param {
    moving_average_fraction: 0.999
    eps: 0.001
  }
}
layer {
  name: "conv2_1/dw/scale"
  type: "Scale"
  bottom: "conv2_1/dw"
  top: "conv2_1/dw"
  param {
    lr_mult: 1
    decay_mult: 0
  }
  param {
    lr_mult: 1
    decay_mult: 0
  }
  scale_param {
    filler {
      type: "constant"
      value: 1
    }
    bias_term: true
    bias_filler {
      type: "constant"
      value: 0
    }
  }
}
layer {
  name: "conv2_1/dw_relu"
  type: "ReLU"
  bottom: "conv2_1/dw"
  top: "conv2_1/dw"
}
layer {
  name: "conv2_1/sep"
  type: "Convolution"
  bottom: "conv2_1/dw"
  top: "conv2_1/sep"
  param {
    lr_mult: 1
    decay_mult: 1
  }
  convolution_param {
    num_output: 64
    bias_term: false
    pad: 0
    kernel_size: 1
    group: 1
    stride: 1
    weight_filler {
      type: "gaussian"
      std: 0.01
    }
    engine: DEFAULT
  }
}
layer {
  name: "conv2_1/sep/bn"
  type: "BatchNorm"
  bottom: "conv2_1/sep"
  top: "conv2_1/sep"
  batch_norm_param {
    moving_average_fraction: 0.999
    eps: 0.001
  }
}
layer {
  name: "conv2_1/sep/scale"
  type: "Scale"
  bottom: "conv2_1/sep"
  top: "conv2_1/sep"
  param {
    lr_mult: 1
    decay_mult: 0
  }
  param {
    lr_mult: 1
    decay_mult: 0
  }
  scale_param {
    filler {
      type: "constant"
      value: 1
    }
    bias_term: true
    bias_filler {
      type: "constant"
      value: 0
    }
  }
}
layer {
  name: "conv2_1/sep_relu"
  type: "ReLU"
  bottom: "conv2_1/sep"
  top: "conv2_1/sep"
}
layer {
  name: "conv2_2/dw"
  type: "Convolution"
  bottom: "conv2_1/sep"
  top: "conv2_2/dw"
  param {
    lr_mult: 1
    decay_mult: 1
  }
  convolution_param {
    num_output: 64
    bias_term: false
    pad: 1
    kernel_size: 3
    group: 64
    stride: 2
    weight_filler {
      type: "gaussian"
      std: 0.01
    }
    engine: CAFFE
  }
}
layer {
  name: "conv2_2/dw/bn"
  type: "BatchNorm"
  bottom: "conv2_2/dw"
  top: "conv2_2/dw"
  batch_norm_param {
    moving_average_fraction: 0.999
    eps: 0.001
  }
}
layer {
  name: "conv2_2/dw/scale"
  type: "Scale"
  bottom: "conv2_2/dw"
  top: "conv2_2/dw"
  param {
    lr_mult: 1
    decay_mult: 0
  }
  param {
    lr_mult: 1
    decay_mult: 0
  }
  scale_param {
    filler {
      type: "constant"
      value: 1
    }
    bias_term: true
    bias_filler {
      type: "constant"
      value: 0
    }
  }
}
layer {
  name: "conv2_2/dw_relu"
  type: "ReLU"
  bottom: "conv2_2/dw"
  top: "conv2_2/dw"
}
layer {
  name: "conv2_2/sep"
  type: "Convolution"
  bottom: "conv2_2/dw"
  top: "conv2_2/sep"
  param {
    lr_mult: 1
    decay_mult: 1
  }
  convolution_param {
    num_output: 128
    bias_term: false
    pad: 0
    kernel_size: 1
    group: 1
    stride: 1
    weight_filler {
      type: "gaussian"
      std: 0.01
    }
    engine: DEFAULT
  }
}
layer {
  name: "conv2_2/sep/bn"
  type: "BatchNorm"
  bottom: "conv2_2/sep"
  top: "conv2_2/sep"
  batch_norm_param {
    moving_average_fraction: 0.999
    eps: 0.001
  }
}
layer {
  name: "conv2_2/sep/scale"
  type: "Scale"
  bottom: "conv2_2/sep"
  top: "conv2_2/sep"
  param {
    lr_mult: 1
    decay_mult: 0
  }
  param {
    lr_mult: 1
    decay_mult: 0
  }
  scale_param {
    filler {
      type: "constant"
      value: 1
    }
    bias_term: true
    bias_filler {
      type: "constant"
      value: 0
    }
  }
}
layer {
  name: "conv2_2/sep_relu"
  type: "ReLU"
  bottom: "conv2_2/sep"
  top: "conv2_2/sep"
}
layer {
  name: "conv3_1/dw"
  type: "Convolution"
  bottom: "conv2_2/sep"
  top: "conv3_1/dw"
  param {
    lr_mult: 1
    decay_mult: 1
  }
  convolution_param {
    num_output: 128
    bias_term: false
    pad: 1
    kernel_size: 3
    group: 128
    stride: 1
    weight_filler {
      type: "gaussian"
      std: 0.01
    }
    engine: CAFFE
  }
}
layer {
  name: "conv3_1/dw/bn"
  type: "BatchNorm"
  bottom: "conv3_1/dw"
  top: "conv3_1/dw"
  batch_norm_param {
    moving_average_fraction: 0.999
    eps: 0.001
  }
}
layer {
  name: "conv3_1/dw/scale"
  type: "Scale"
  bottom: "conv3_1/dw"
  top: "conv3_1/dw"
  param {
    lr_mult: 1
    decay_mult: 0
  }
  param {
    lr_mult: 1
    decay_mult: 0
  }
  scale_param {
    filler {
      type: "constant"
      value: 1
    }
    bias_term: true
    bias_filler {
      type: "constant"
      value: 0
    }
  }
}
layer {
  name: "conv3_1/dw_relu"
  type: "ReLU"
  bottom: "conv3_1/dw"
  top: "conv3_1/dw"
}
layer {
  name: "conv3_1/sep"
  type: "Convolution"
  bottom: "conv3_1/dw"
  top: "conv3_1/sep"
  param {
    lr_mult: 1
    decay_mult: 1
  }
  convolution_param {
    num_output: 128
    bias_term: false
    pad: 0
    kernel_size: 1
    group: 1
    stride: 1
    weight_filler {
      type: "gaussian"
      std: 0.01
    }
    engine: DEFAULT
  }
}
layer {
  name: "conv3_1/sep/bn"
  type: "BatchNorm"
  bottom: "conv3_1/sep"
  top: "conv3_1/sep"
  batch_norm_param {
    moving_average_fraction: 0.999
    eps: 0.001
  }
}
layer {
  name: "conv3_1/sep/scale"
  type: "Scale"
  bottom: "conv3_1/sep"
  top: "conv3_1/sep"
  param {
    lr_mult: 1
    decay_mult: 0
  }
  param {
    lr_mult: 1
    decay_mult: 0
  }
  scale_param {
    filler {
      type: "constant"
      value: 1
    }
    bias_term: true
    bias_filler {
      type: "constant"
      value: 0
    }
  }
}
layer {
  name: "conv3_1/sep_relu"
  type: "ReLU"
  bottom: "conv3_1/sep"
  top: "conv3_1/sep"
}
layer {
  name: "conv3_2/dw"
  type: "Convolution"
  bottom: "conv3_1/sep"
  top: "conv3_2/dw"
  param {
    lr_mult: 1
    decay_mult: 1
  }
  convolution_param {
    num_output: 128
    bias_term: false
    pad: 1
    kernel_size: 3
    group: 128
    stride: 2
    weight_filler {
      type: "gaussian"
      std: 0.01
    }
    engine: CAFFE
  }
}
layer {
  name: "conv3_2/dw/bn"
  type: "BatchNorm"
  bottom: "conv3_2/dw"
  top: "conv3_2/dw"
  batch_norm_param {
    moving_average_fraction: 0.999
    eps: 0.001
  }
}
layer {
  name: "conv3_2/dw/scale"
  type: "Scale"
  bottom: "conv3_2/dw"
  top: "conv3_2/dw"
  param {
    lr_mult: 1
    decay_mult: 0
  }
  param {
    lr_mult: 1
    decay_mult: 0
  }
  scale_param {
    filler {
      type: "constant"
      value: 1
    }
    bias_term: true
    bias_filler {
      type: "constant"
      value: 0
    }
  }
}
layer {
  name: "conv3_2/dw_relu"
  type: "ReLU"
  bottom: "conv3_2/dw"
  top: "conv3_2/dw"
}
layer {
  name: "conv3_2/sep"
  type: "Convolution"
  bottom: "conv3_2/dw"
  top: "conv3_2/sep"
  param {
    lr_mult: 1
    decay_mult: 1
  }
  convolution_param {
    num_output: 256
    bias_term: false
    pad: 0
    kernel_size: 1
    group: 1
    stride: 1
    weight_filler {
      type: "gaussian"
      std: 0.01
    }
    engine: DEFAULT
  }
}
layer {
  name: "conv3_2/sep/bn"
  type: "BatchNorm"
  bottom: "conv3_2/sep"
  top: "conv3_2/sep"
  batch_norm_param {
    moving_average_fraction: 0.999
    eps: 0.001
  }
}
layer {
  name: "conv3_2/sep/scale"
  type: "Scale"
  bottom: "conv3_2/sep"
  top: "conv3_2/sep"
  param {
    lr_mult: 1
    decay_mult: 0
  }
  param {
    lr_mult: 1
    decay_mult: 0
  }
  scale_param {
    filler {
      type: "constant"
      value: 1
    }
    bias_term: true
    bias_filler {
      type: "constant"
      value: 0
    }
  }
}
layer {
  name: "conv3_2/sep_relu"
  type: "ReLU"
  bottom: "conv3_2/sep"
  top: "conv3_2/sep"
}
layer {
  name: "conv4_1/dw"
  type: "Convolution"
  bottom: "conv3_2/sep"
  top: "conv4_1/dw"
  param {
    lr_mult: 1
    decay_mult: 1
  }
  convolution_param {
    num_output: 256
    bias_term: false
    pad: 1
    kernel_size: 3
    group: 256
    stride: 1
    weight_filler {
      type: "gaussian"
      std: 0.01
    }
    engine: CAFFE
  }
}
layer {
  name: "conv4_1/dw/bn"
  type: "BatchNorm"
  bottom: "conv4_1/dw"
  top: "conv4_1/dw"
  batch_norm_param {
    moving_average_fraction: 0.999
    eps: 0.001
  }
}
layer {
  name: "conv4_1/dw/scale"
  type: "Scale"
  bottom: "conv4_1/dw"
  top: "conv4_1/dw"
  param {
    lr_mult: 1
    decay_mult: 0
  }
  param {
    lr_mult: 1
    decay_mult: 0
  }
  scale_param {
    filler {
      type: "constant"
      value: 1
    }
    bias_term: true
    bias_filler {
      type: "constant"
      value: 0
    }
  }
}
layer {
  name: "conv4_1/dw_relu"
  type: "ReLU"
  bottom: "conv4_1/dw"
  top: "conv4_1/dw"
}
layer {
  name: "conv4_1/sep"
  type: "Convolution"
  bottom: "conv4_1/dw"
  top: "conv4_1/sep"
  param {
    lr_mult: 1
    decay_mult: 1
  }
  convolution_param {
    num_output: 256
    bias_term: false
    pad: 0
    kernel_size: 1
    group: 1
    stride: 1
    weight_filler {
      type: "gaussian"
      std: 0.01
    }
    engine: DEFAULT
  }
}
layer {
  name: "conv4_1/sep/bn"
  type: "BatchNorm"
  bottom: "conv4_1/sep"
  top: "conv4_1/sep"
  batch_norm_param {
    moving_average_fraction: 0.999
    eps: 0.001
  }
}
layer {
  name: "conv4_1/sep/scale"
  type: "Scale"
  bottom: "conv4_1/sep"
  top: "conv4_1/sep"
  param {
    lr_mult: 1
    decay_mult: 0
  }
  param {
    lr_mult: 1
    decay_mult: 0
  }
  scale_param {
    filler {
      type: "constant"
      value: 1
    }
    bias_term: true
    bias_filler {
      type: "constant"
      value: 0
    }
  }
}
layer {
  name: "conv4_1/sep_relu"
  type: "ReLU"
  bottom: "conv4_1/sep"
  top: "conv4_1/sep"
}
layer {
  name: "conv4_2/dw"
  type: "Convolution"
  bottom: "conv4_1/sep"
  top: "conv4_2/dw"
  param {
    lr_mult: 1
    decay_mult: 1
  }
  convolution_param {
    num_output: 256
    bias_term: false
    pad: 1
    kernel_size: 3
    group: 256
    stride: 2
    weight_filler {
      type: "gaussian"
      std: 0.01
    }
    engine: CAFFE
  }
}
layer {
  name: "conv4_2/dw/bn"
  type: "BatchNorm"
  bottom: "conv4_2/dw"
  top: "conv4_2/dw"
  batch_norm_param {
    moving_average_fraction: 0.999
    eps: 0.001
  }
}
layer {
  name: "conv4_2/dw/scale"
  type: "Scale"
  bottom: "conv4_2/dw"
  top: "conv4_2/dw"
  param {
    lr_mult: 1
    decay_mult: 0
  }
  param {
    lr_mult: 1
    decay_mult: 0
  }
  scale_param {
    filler {
      type: "constant"
      value: 1
    }
    bias_term: true
    bias_filler {
      type: "constant"
      value: 0
    }
  }
}
layer {
  name: "conv4_2/dw_relu"
  type: "ReLU"
  bottom: "conv4_2/dw"
  top: "conv4_2/dw"
}
layer {
  name: "conv4_2/sep"
  type: "Convolution"
  bottom: "conv4_2/dw"
  top: "conv4_2/sep"
  param {
    lr_mult: 1
    decay_mult: 1
  }
  convolution_param {
    num_output: 512
    bias_term: false
    pad: 0
    kernel_size: 1
    group: 1
    stride: 1
    weight_filler {
      type: "gaussian"
      std: 0.01
    }
    engine: DEFAULT
  }
}
layer {
  name: "conv4_2/sep/bn"
  type: "BatchNorm"
  bottom: "conv4_2/sep"
  top: "conv4_2/sep"
  batch_norm_param {
    moving_average_fraction: 0.999
    eps: 0.001
  }
}
layer {
  name: "conv4_2/sep/scale"
  type: "Scale"
  bottom: "conv4_2/sep"
  top: "conv4_2/sep"
  param {
    lr_mult: 1
    decay_mult: 0
  }
  param {
    lr_mult: 1
    decay_mult: 0
  }
  scale_param {
    filler {
      type: "constant"
      value: 1
    }
    bias_term: true
    bias_filler {
      type: "constant"
      value: 0
    }
  }
}
layer {
  name: "conv4_2/sep_relu"
  type: "ReLU"
  bottom: "conv4_2/sep"
  top: "conv4_2/sep"
}
layer {
  name: "conv5_1/dw"
  type: "Convolution"
  bottom: "conv4_2/sep"
  top: "conv5_1/dw"
  param {
    lr_mult: 1
    decay_mult: 1
  }
  convolution_param {
    num_output: 512
    bias_term: false
    pad: 1
    kernel_size: 3
    group: 512
    stride: 1
    weight_filler {
      type: "gaussian"
      std: 0.01
    }
    engine: CAFFE
  }
}
layer {
  name: "conv5_1/dw/bn"
  type: "BatchNorm"
  bottom: "conv5_1/dw"
  top: "conv5_1/dw"
  batch_norm_param {
    moving_average_fraction: 0.999
    eps: 0.001
  }
}
layer {
  name: "conv5_1/dw/scale"
  type: "Scale"
  bottom: "conv5_1/dw"
  top: "conv5_1/dw"
  param {
    lr_mult: 1
    decay_mult: 0
  }
  param {
    lr_mult: 1
    decay_mult: 0
  }
  scale_param {
    filler {
      type: "constant"
      value: 1
    }
    bias_term: true
    bias_filler {
      type: "constant"
      value: 0
    }
  }
}
layer {
  name: "conv5_1/dw_relu"
  type: "ReLU"
  bottom: "conv5_1/dw"
  top: "conv5_1/dw"
}
layer {
  name: "conv5_1/sep"
  type: "Convolution"
  bottom: "conv5_1/dw"
  top: "conv5_1/sep"
  param {
    lr_mult: 1
    decay_mult: 1
  }
  convolution_param {
    num_output: 512
    bias_term: false
    pad: 0
    kernel_size: 1
    group: 1
    stride: 1
    weight_filler {
      type: "gaussian"
      std: 0.01
    }
    engine: DEFAULT
  }
}
layer {
  name: "conv5_1/sep/bn"
  type: "BatchNorm"
  bottom: "conv5_1/sep"
  top: "conv5_1/sep"
  batch_norm_param {
    moving_average_fraction: 0.999
    eps: 0.001
  }
}
layer {
  name: "conv5_1/sep/scale"
  type: "Scale"
  bottom: "conv5_1/sep"
  top: "conv5_1/sep"
  param {
    lr_mult: 1
    decay_mult: 0
  }
  param {
    lr_mult: 1
    decay_mult: 0
  }
  scale_param {
    filler {
      type: "constant"
      value: 1
    }
    bias_term: true
    bias_filler {
      type: "constant"
      value: 0
    }
  }
}
layer {
  name: "conv5_1/sep_relu"
  type: "ReLU"
  bottom: "conv5_1/sep"
  top: "conv5_1/sep"
}
layer {
  name: "conv5_2/dw"
  type: "Convolution"
  bottom: "conv5_1/sep"
  top: "conv5_2/dw"
  param {
    lr_mult: 1
    decay_mult: 1
  }
  convolution_param {
    num_output: 512
    bias_term: false
    pad: 1
    kernel_size: 3
    group: 512
    stride: 1
    weight_filler {
      type: "gaussian"
      std: 0.01
    }
    engine: CAFFE
  }
}
layer {
  name: "conv5_2/dw/bn"
  type: "BatchNorm"
  bottom: "conv5_2/dw"
  top: "conv5_2/dw"
  batch_norm_param {
    moving_average_fraction: 0.999
    eps: 0.001
  }
}
layer {
  name: "conv5_2/dw/scale"
  type: "Scale"
  bottom: "conv5_2/dw"
  top: "conv5_2/dw"
  param {
    lr_mult: 1
    decay_mult: 0
  }
  param {
    lr_mult: 1
    decay_mult: 0
  }
  scale_param {
    filler {
      type: "constant"
      value: 1
    }
    bias_term: true
    bias_filler {
      type: "constant"
      value: 0
    }
  }
}
layer {
  name: "conv5_2/dw_relu"
  type: "ReLU"
  bottom: "conv5_2/dw"
  top: "conv5_2/dw"
}
layer {
  name: "conv5_2/sep"
  type: "Convolution"
  bottom: "conv5_2/dw"
  top: "conv5_2/sep"
  param {
    lr_mult: 1
    decay_mult: 1
  }
  convolution_param {
    num_output: 512
    bias_term: false
    pad: 0
    kernel_size: 1
    group: 1
    stride: 1
    weight_filler {
      type: "gaussian"
      std: 0.01
    }
    engine: DEFAULT
  }
}
layer {
  name: "conv5_2/sep/bn"
  type: "BatchNorm"
  bottom: "conv5_2/sep"
  top: "conv5_2/sep"
  batch_norm_param {
    moving_average_fraction: 0.999
    eps: 0.001
  }
}
layer {
  name: "conv5_2/sep/scale"
  type: "Scale"
  bottom: "conv5_2/sep"
  top: "conv5_2/sep"
  param {
    lr_mult: 1
    decay_mult: 0
  }
  param {
    lr_mult: 1
    decay_mult: 0
  }
  scale_param {
    filler {
      type: "constant"
      value: 1
    }
    bias_term: true
    bias_filler {
      type: "constant"
      value: 0
    }
  }
}
layer {
  name: "conv5_2/sep_relu"
  type: "ReLU"
  bottom: "conv5_2/sep"
  top: "conv5_2/sep"
}
layer {
  name: "conv5_3/dw"
  type: "Convolution"
  bottom: "conv5_2/sep"
  top: "conv5_3/dw"
  param {
    lr_mult: 1
    decay_mult: 1
  }
  convolution_param {
    num_output: 512
    bias_term: false
    pad: 1
    kernel_size: 3
    group: 512
    stride: 1
    weight_filler {
      type: "gaussian"
      std: 0.01
    }
    engine: CAFFE
  }
}
layer {
  name: "conv5_3/dw/bn"
  type: "BatchNorm"
  bottom: "conv5_3/dw"
  top: "conv5_3/dw"
  batch_norm_param {
    moving_average_fraction: 0.999
    eps: 0.001
  }
}
layer {
  name: "conv5_3/dw/scale"
  type: "Scale"
  bottom: "conv5_3/dw"
  top: "conv5_3/dw"
  param {
    lr_mult: 1
    decay_mult: 0
  }
  param {
    lr_mult: 1
    decay_mult: 0
  }
  scale_param {
    filler {
      type: "constant"
      value: 1
    }
    bias_term: true
    bias_filler {
      type: "constant"
      value: 0
    }
  }
}
layer {
  name: "conv5_3/dw_relu"
  type: "ReLU"
  bottom: "conv5_3/dw"
  top: "conv5_3/dw"
}
layer {
  name: "conv5_3/sep"
  type: "Convolution"
  bottom: "conv5_3/dw"
  top: "conv5_3/sep"
  param {
    lr_mult: 1
    decay_mult: 1
  }
  convolution_param {
    num_output: 512
    bias_term: false
    pad: 0
    kernel_size: 1
    group: 1
    stride: 1
    weight_filler {
      type: "gaussian"
      std: 0.01
    }
    engine: DEFAULT
  }
}
layer {
  name: "conv5_3/sep/bn"
  type: "BatchNorm"
  bottom: "conv5_3/sep"
  top: "conv5_3/sep"
  batch_norm_param {
    moving_average_fraction: 0.999
    eps: 0.001
  }
}
layer {
  name: "conv5_3/sep/scale"
  type: "Scale"
  bottom: "conv5_3/sep"
  top: "conv5_3/sep"
  param {
    lr_mult: 1
    decay_mult: 0
  }
  param {
    lr_mult: 1
    decay_mult: 0
  }
  scale_param {
    filler {
      type: "constant"
      value: 1
    }
    bias_term: true
    bias_filler {
      type: "constant"
      value: 0
    }
  }
}
layer {
  name: "conv5_3/sep_relu"
  type: "ReLU"
  bottom: "conv5_3/sep"
  top: "conv5_3/sep"
}
layer {
  name: "conv5_4/dw"
  type: "Convolution"
  bottom: "conv5_3/sep"
  top: "conv5_4/dw"
  param {
    lr_mult: 1
    decay_mult: 1
  }
  convolution_param {
    num_output: 512
    bias_term: false
    pad: 1
    kernel_size: 3
    group: 512
    stride: 1
    weight_filler {
      type: "gaussian"
      std: 0.01
    }
    engine: CAFFE
  }
}
layer {
  name: "conv5_4/dw/bn"
  type: "BatchNorm"
  bottom: "conv5_4/dw"
  top: "conv5_4/dw"
  batch_norm_param {
    moving_average_fraction: 0.999
    eps: 0.001
  }
}
layer {
  name: "conv5_4/dw/scale"
  type: "Scale"
  bottom: "conv5_4/dw"
  top: "conv5_4/dw"
  param {
    lr_mult: 1
    decay_mult: 0
  }
  param {
    lr_mult: 1
    decay_mult: 0
  }
  scale_param {
    filler {
      type: "constant"
      value: 1
    }
    bias_term: true
    bias_filler {
      type: "constant"
      value: 0
    }
  }
}
layer {
  name: "conv5_4/dw_relu"
  type: "ReLU"
  bottom: "conv5_4/dw"
  top: "conv5_4/dw"
}
layer {
  name: "conv5_4/sep"
  type: "Convolution"
  bottom: "conv5_4/dw"
  top: "conv5_4/sep"
  param {
    lr_mult: 1
    decay_mult: 1
  }
  convolution_param {
    num_output: 512
    bias_term: false
    pad: 0
    kernel_size: 1
    group: 1
    stride: 1
    weight_filler {
      type: "gaussian"
      std: 0.01
    }
    engine: DEFAULT
  }
}
layer {
  name: "conv5_4/sep/bn"
  type: "BatchNorm"
  bottom: "conv5_4/sep"
  top: "conv5_4/sep"
  batch_norm_param {
    moving_average_fraction: 0.999
    eps: 0.001
  }
}
layer {
  name: "conv5_4/sep/scale"
  type: "Scale"
  bottom: "conv5_4/sep"
  top: "conv5_4/sep"
  param {
    lr_mult: 1
    decay_mult: 0
  }
  param {
    lr_mult: 1
    decay_mult: 0
  }
  scale_param {
    filler {
      type: "constant"
      value: 1
    }
    bias_term: true
    bias_filler {
      type: "constant"
      value: 0
    }
  }
}
layer {
  name: "conv5_4/sep_relu"
  type: "ReLU"
  bottom: "conv5_4/sep"
  top: "conv5_4/sep"
}
layer {
  name: "conv5_5/dw"
  type: "Convolution"
  bottom: "conv5_4/sep"
  top: "conv5_5/dw"
  param {
    lr_mult: 1
    decay_mult: 1
  }
  convolution_param {
    num_output: 512
    bias_term: false
    pad: 1
    kernel_size: 3
    group: 512
    stride: 1
    weight_filler {
      type: "gaussian"
      std: 0.01
    }
    engine: CAFFE
  }
}
layer {
  name: "conv5_5/dw/bn"
  type: "BatchNorm"
  bottom: "conv5_5/dw"
  top: "conv5_5/dw"
  batch_norm_param {
    moving_average_fraction: 0.999
    eps: 0.001
  }
}
layer {
  name: "conv5_5/dw/scale"
  type: "Scale"
  bottom: "conv5_5/dw"
  top: "conv5_5/dw"
  param {
    lr_mult: 1
    decay_mult: 0
  }
  param {
    lr_mult: 1
    decay_mult: 0
  }
  scale_param {
    filler {
      type: "constant"
      value: 1
    }
    bias_term: true
    bias_filler {
      type: "constant"
      value: 0
    }
  }
}
layer {
  name: "conv5_5/dw_relu"
  type: "ReLU"
  bottom: "conv5_5/dw"
  top: "conv5_5/dw"
}
layer {
  name: "conv5_5/sep"
  type: "Convolution"
  bottom: "conv5_5/dw"
  top: "conv5_5/sep"
  param {
    lr_mult: 1
    decay_mult: 1
  }
  convolution_param {
    num_output: 512
    bias_term: false
    pad: 0
    kernel_size: 1
    group: 1
    stride: 1
    weight_filler {
      type: "gaussian"
      std: 0.01
    }
    engine: DEFAULT
  }
}
layer {
  name: "conv5_5/sep/bn"
  type: "BatchNorm"
  bottom: "conv5_5/sep"
  top: "conv5_5/sep"
  batch_norm_param {
    moving_average_fraction: 0.999
    eps: 0.001
  }
}
layer {
  name: "conv5_5/sep/scale"
  type: "Scale"
  bottom: "conv5_5/sep"
  top: "conv5_5/sep"
  param {
    lr_mult: 1
    decay_mult: 0
  }
  param {
    lr_mult: 1
    decay_mult: 0
  }
  scale_param {
    filler {
      type: "constant"
      value: 1
    }
    bias_term: true
    bias_filler {
      type: "constant"
      value: 0
    }
  }
}
layer {
  name: "conv5_5/sep_relu"
  type: "ReLU"
  bottom: "conv5_5/sep"
  top: "conv5_5/sep"
}
layer {
  name: "conv5_6/dw"
  type: "Convolution"
  bottom: "conv5_5/sep"
  top: "conv5_6/dw"
  param {
    lr_mult: 1
    decay_mult: 1
  }
  convolution_param {
    num_output: 512
    bias_term: false
    pad: 1
    kernel_size: 3
    group: 512
    stride: 2
    weight_filler {
      type: "gaussian"
      std: 0.01
    }
    engine: CAFFE
  }
}
layer {
  name: "conv5_6/dw/bn"
  type: "BatchNorm"
  bottom: "conv5_6/dw"
  top: "conv5_6/dw"
  batch_norm_param {
    moving_average_fraction: 0.999
    eps: 0.001
  }
}
layer {
  name: "conv5_6/dw/scale"
  type: "Scale"
  bottom: "conv5_6/dw"
  top: "conv5_6/dw"
  param {
    lr_mult: 1
    decay_mult: 0
  }
  param {
    lr_mult: 1
    decay_mult: 0
  }
  scale_param {
    filler {
      type: "constant"
      value: 1
    }
    bias_term: true
    bias_filler {
      type: "constant"
      value: 0
    }
  }
}
layer {
  name: "conv5_6/dw_relu"
  type: "ReLU"
  bottom: "conv5_6/dw"
  top: "conv5_6/dw"
}
layer {
  name: "conv5_6/sep"
  type: "Convolution"
  bottom: "conv5_6/dw"
  top: "conv5_6/sep"
  param {
    lr_mult: 1
    decay_mult: 1
  }
  convolution_param {
    num_output: 1024
    bias_term: false
    pad: 0
    kernel_size: 1
    group: 1
    stride: 1
    weight_filler {
      type: "gaussian"
      std: 0.01
    }
    engine: DEFAULT
  }
}
layer {
  name: "conv5_6/sep/bn"
  type: "BatchNorm"
  bottom: "conv5_6/sep"
  top: "conv5_6/sep"
  batch_norm_param {
    moving_average_fraction: 0.999
    eps: 0.001
  }
}
layer {
  name: "conv5_6/sep/scale"
  type: "Scale"
  bottom: "conv5_6/sep"
  top: "conv5_6/sep"
  param {
    lr_mult: 1
    decay_mult: 0
  }
  param {
    lr_mult: 1
    decay_mult: 0
  }
  scale_param {
    filler {
      type: "constant"
      value: 1
    }
    bias_term: true
    bias_filler {
      type: "constant"
      value: 0
    }
  }
}
layer {
  name: "conv5_6/sep_relu"
  type: "ReLU"
  bottom: "conv5_6/sep"
  top: "conv5_6/sep"
}
layer {
  name: "conv6/dw"
  type: "Convolution"
  bottom: "conv5_6/sep"
  top: "conv6/dw"
  param {
    lr_mult: 1
    decay_mult: 1
  }
  convolution_param {
    num_output: 1024
    bias_term: false
    pad: 1
    kernel_size: 3
    group: 1024
    stride: 1
    weight_filler {
      type: "gaussian"
      std: 0.01
    }
    engine: CAFFE
  }
}
layer {
  name: "conv6/dw/bn"
  type: "BatchNorm"
  bottom: "conv6/dw"
  top: "conv6/dw"
  batch_norm_param {
    moving_average_fraction: 0.999
    eps: 0.001
  }
}
layer {
  name: "conv6/dw/scale"
  type: "Scale"
  bottom: "conv6/dw"
  top: "conv6/dw"
  param {
    lr_mult: 1
    decay_mult: 0
  }
  param {
    lr_mult: 1
    decay_mult: 0
  }
  scale_param {
    filler {
      type: "constant"
      value: 1
    }
    bias_term: true
    bias_filler {
      type: "constant"
      value: 0
    }
  }
}
layer {
  name: "conv6/dw_relu"
  type: "ReLU"
  bottom: "conv6/dw"
  top: "conv6/dw"
}
layer {
  name: "conv6/sep"
  type: "Convolution"
  bottom: "conv6/dw"
  top: "conv6/sep"
  param {
    lr_mult: 1
    decay_mult: 1
  }
  convolution_param {
    num_output: 1024
    bias_term: false
    pad: 0
    kernel_size: 1
    group: 1
    stride: 1
    weight_filler {
      type: "gaussian"
      std: 0.01
    }
    engine: DEFAULT
  }
}
layer {
  name: "conv6/sep/bn"
  type: "BatchNorm"
  bottom: "conv6/sep"
  top: "conv6/sep"
  batch_norm_param {
    moving_average_fraction: 0.999
    eps: 0.001
  }
}
layer {
  name: "conv6/sep/scale"
  type: "Scale"
  bottom: "conv6/sep"
  top: "conv6/sep"
  param {
    lr_mult: 1
    decay_mult: 0
  }
  param {
    lr_mult: 1
    decay_mult: 0
  }
  scale_param {
    filler {
      type: "constant"
      value: 1
    }
    bias_term: true
    bias_filler {
      type: "constant"
      value: 0
    }
  }
}
layer {
  name: "conv6/sep_relu"
  type: "ReLU"
  bottom: "conv6/sep"
  top: "conv6/sep"
}
layer {
  name: "conv7_1"
  type: "Convolution"
  bottom: "conv6/sep"
  top: "conv7_1"
  param {
    lr_mult: 1
    decay_mult: 1
  }
  param {
    lr_mult: 2
    decay_mult: 0
  }
  convolution_param {
    num_output: 256
    pad: 0
    kernel_size: 1
    group: 1
    stride: 1
    weight_filler {
      type: "xavier"
    }
    bias_filler {
      type: "constant"
      value: 0
    }
    engine: DEFAULT
  }
}
layer {
  name: "conv7_1_relu"
  type: "ReLU"
  bottom: "conv7_1"
  top: "conv7_1"
}
layer {
  name: "conv7_2"
  type: "Convolution"
  bottom: "conv7_1"
  top: "conv7_2"
  param {
    lr_mult: 1
    decay_mult: 1
  }
  param {
    lr_mult: 2
    decay_mult: 0
  }
  convolution_param {
    num_output: 512
    pad: 1
    kernel_size: 3
    group: 1
    stride: 2
    weight_filler {
      type: "xavier"
    }
    bias_filler {
      type: "constant"
      value: 0
    }
    engine: DEFAULT
  }
}
layer {
  name: "conv7_2_relu"
  type: "ReLU"
  bottom: "con
I0907 13:40:37.007946 23688 layer_factory.hpp:77] Creating layer data
I0907 13:40:37.008090 23688 net.cpp:100] Creating Layer data
I0907 13:40:37.008105 23688 net.cpp:408] data -> data
I0907 13:40:37.008132 23688 net.cpp:408] data -> label
I0907 13:40:37.009282 23693 db_lmdb.cpp:35] Opened lmdb data/BodyFaceHandRegions/lmdb/oxford_viva_lmdb
I0907 13:40:37.021641 23688 annotated_data_layer.cpp:62] output data size: 16,3,300,300
I0907 13:40:37.047860 23688 net.cpp:150] Setting up data
I0907 13:40:37.047886 23688 net.cpp:157] Top shape: 16 3 300 300 (4320000)
I0907 13:40:37.047890 23688 net.cpp:157] Top shape: 1 1 4 8 (32)
I0907 13:40:37.047893 23688 net.cpp:165] Memory required for data: 17280128
I0907 13:40:37.047901 23688 layer_factory.hpp:77] Creating layer data_data_0_split
I0907 13:40:37.047914 23688 net.cpp:100] Creating Layer data_data_0_split
I0907 13:40:37.047920 23688 net.cpp:434] data_data_0_split <- data
I0907 13:40:37.047936 23688 net.cpp:408] data_data_0_split -> data_data_0_split_0
I0907 13:40:37.047948 23688 net.cpp:408] data_data_0_split -> data_data_0_split_1
I0907 13:40:37.047958 23688 net.cpp:408] data_data_0_split -> data_data_0_split_2
I0907 13:40:37.047966 23688 net.cpp:408] data_data_0_split -> data_data_0_split_3
I0907 13:40:37.047972 23688 net.cpp:408] data_data_0_split -> data_data_0_split_4
I0907 13:40:37.047979 23688 net.cpp:408] data_data_0_split -> data_data_0_split_5
I0907 13:40:37.047986 23688 net.cpp:408] data_data_0_split -> data_data_0_split_6
I0907 13:40:37.048133 23688 net.cpp:150] Setting up data_data_0_split
I0907 13:40:37.048142 23688 net.cpp:157] Top shape: 16 3 300 300 (4320000)
I0907 13:40:37.048148 23688 net.cpp:157] Top shape: 16 3 300 300 (4320000)
I0907 13:40:37.048154 23688 net.cpp:157] Top shape: 16 3 300 300 (4320000)
I0907 13:40:37.048159 23688 net.cpp:157] Top shape: 16 3 300 300 (4320000)
I0907 13:40:37.048164 23688 net.cpp:157] Top shape: 16 3 300 300 (4320000)
I0907 13:40:37.048168 23688 net.cpp:157] Top shape: 16 3 300 300 (4320000)
I0907 13:40:37.048173 23688 net.cpp:157] Top shape: 16 3 300 300 (4320000)
I0907 13:40:37.048177 23688 net.cpp:165] Memory required for data: 138240128
I0907 13:40:37.048182 23688 layer_factory.hpp:77] Creating layer conv1
I0907 13:40:37.048198 23688 net.cpp:100] Creating Layer conv1
I0907 13:40:37.048203 23688 net.cpp:434] conv1 <- data_data_0_split_0
I0907 13:40:37.048210 23688 net.cpp:408] conv1 -> conv1
I0907 13:40:37.134907 23694 blocking_queue.cpp:50] Waiting for data
I0907 13:40:37.268067 23688 net.cpp:150] Setting up conv1
I0907 13:40:37.268096 23688 net.cpp:157] Top shape: 16 32 150 150 (11520000)
I0907 13:40:37.268102 23688 net.cpp:165] Memory required for data: 184320128
I0907 13:40:37.268120 23688 layer_factory.hpp:77] Creating layer conv1/bn
I0907 13:40:37.268131 23688 net.cpp:100] Creating Layer conv1/bn
I0907 13:40:37.268137 23688 net.cpp:434] conv1/bn <- conv1
I0907 13:40:37.268143 23688 net.cpp:395] conv1/bn -> conv1 (in-place)
I0907 13:40:37.268750 23688 net.cpp:150] Setting up conv1/bn
I0907 13:40:37.268762 23688 net.cpp:157] Top shape: 16 32 150 150 (11520000)
I0907 13:40:37.268767 23688 net.cpp:165] Memory required for data: 230400128
I0907 13:40:37.268779 23688 layer_factory.hpp:77] Creating layer conv1/scale
I0907 13:40:37.268790 23688 net.cpp:100] Creating Layer conv1/scale
I0907 13:40:37.268795 23688 net.cpp:434] conv1/scale <- conv1
I0907 13:40:37.268801 23688 net.cpp:395] conv1/scale -> conv1 (in-place)
I0907 13:40:37.268842 23688 layer_factory.hpp:77] Creating layer conv1/scale
I0907 13:40:37.268962 23688 net.cpp:150] Setting up conv1/scale
I0907 13:40:37.268972 23688 net.cpp:157] Top shape: 16 32 150 150 (11520000)
I0907 13:40:37.268976 23688 net.cpp:165] Memory required for data: 276480128
I0907 13:40:37.268985 23688 layer_factory.hpp:77] Creating layer conv1_relu
I0907 13:40:37.268991 23688 net.cpp:100] Creating Layer conv1_relu
I0907 13:40:37.268996 23688 net.cpp:434] conv1_relu <- conv1
I0907 13:40:37.269001 23688 net.cpp:395] conv1_relu -> conv1 (in-place)
I0907 13:40:37.269150 23688 net.cpp:150] Setting up conv1_relu
I0907 13:40:37.269160 23688 net.cpp:157] Top shape: 16 32 150 150 (11520000)
I0907 13:40:37.269163 23688 net.cpp:165] Memory required for data: 322560128
I0907 13:40:37.269168 23688 layer_factory.hpp:77] Creating layer conv2_1/dw
I0907 13:40:37.269178 23688 net.cpp:100] Creating Layer conv2_1/dw
I0907 13:40:37.269182 23688 net.cpp:434] conv2_1/dw <- conv1
I0907 13:40:37.269189 23688 net.cpp:408] conv2_1/dw -> conv2_1/dw
I0907 13:40:37.269343 23688 net.cpp:150] Setting up conv2_1/dw
I0907 13:40:37.269352 23688 net.cpp:157] Top shape: 16 32 150 150 (11520000)
I0907 13:40:37.269356 23688 net.cpp:165] Memory required for data: 368640128
I0907 13:40:37.269363 23688 layer_factory.hpp:77] Creating layer conv2_1/dw/bn
I0907 13:40:37.269369 23688 net.cpp:100] Creating Layer conv2_1/dw/bn
I0907 13:40:37.269372 23688 net.cpp:434] conv2_1/dw/bn <- conv2_1/dw
I0907 13:40:37.269378 23688 net.cpp:395] conv2_1/dw/bn -> conv2_1/dw (in-place)
I0907 13:40:37.269531 23688 net.cpp:150] Setting up conv2_1/dw/bn
I0907 13:40:37.269539 23688 net.cpp:157] Top shape: 16 32 150 150 (11520000)
I0907 13:40:37.269544 23688 net.cpp:165] Memory required for data: 414720128
I0907 13:40:37.269554 23688 layer_factory.hpp:77] Creating layer conv2_1/dw/scale
I0907 13:40:37.269562 23688 net.cpp:100] Creating Layer conv2_1/dw/scale
I0907 13:40:37.269565 23688 net.cpp:434] conv2_1/dw/scale <- conv2_1/dw
I0907 13:40:37.269572 23688 net.cpp:395] conv2_1/dw/scale -> conv2_1/dw (in-place)
I0907 13:40:37.269629 23688 layer_factory.hpp:77] Creating layer conv2_1/dw/scale
I0907 13:40:37.269740 23688 net.cpp:150] Setting up conv2_1/dw/scale
I0907 13:40:37.269749 23688 net.cpp:157] Top shape: 16 32 150 150 (11520000)
I0907 13:40:37.269753 23688 net.cpp:165] Memory required for data: 460800128
I0907 13:40:37.269762 23688 layer_factory.hpp:77] Creating layer conv2_1/dw_relu
I0907 13:40:37.269767 23688 net.cpp:100] Creating Layer conv2_1/dw_relu
I0907 13:40:37.269770 23688 net.cpp:434] conv2_1/dw_relu <- conv2_1/dw
I0907 13:40:37.269775 23688 net.cpp:395] conv2_1/dw_relu -> conv2_1/dw (in-place)
I0907 13:40:37.270371 23688 net.cpp:150] Setting up conv2_1/dw_relu
I0907 13:40:37.270385 23688 net.cpp:157] Top shape: 16 32 150 150 (11520000)
I0907 13:40:37.270388 23688 net.cpp:165] Memory required for data: 506880128
I0907 13:40:37.270393 23688 layer_factory.hpp:77] Creating layer conv2_1/sep
I0907 13:40:37.270402 23688 net.cpp:100] Creating Layer conv2_1/sep
I0907 13:40:37.270406 23688 net.cpp:434] conv2_1/sep <- conv2_1/dw
I0907 13:40:37.270413 23688 net.cpp:408] conv2_1/sep -> conv2_1/sep
I0907 13:40:37.271849 23688 net.cpp:150] Setting up conv2_1/sep
I0907 13:40:37.271863 23688 net.cpp:157] Top shape: 16 64 150 150 (23040000)
I0907 13:40:37.271868 23688 net.cpp:165] Memory required for data: 599040128
I0907 13:40:37.271875 23688 layer_factory.hpp:77] Creating layer conv2_1/sep/bn
I0907 13:40:37.271881 23688 net.cpp:100] Creating Layer conv2_1/sep/bn
I0907 13:40:37.271885 23688 net.cpp:434] conv2_1/sep/bn <- conv2_1/sep
I0907 13:40:37.271891 23688 net.cpp:395] conv2_1/sep/bn -> conv2_1/sep (in-place)
I0907 13:40:37.272053 23688 net.cpp:150] Setting up conv2_1/sep/bn
I0907 13:40:37.272060 23688 net.cpp:157] Top shape: 16 64 150 150 (23040000)
I0907 13:40:37.272065 23688 net.cpp:165] Memory required for data: 691200128
I0907 13:40:37.272073 23688 layer_factory.hpp:77] Creating layer conv2_1/sep/scale
I0907 13:40:37.272080 23688 net.cpp:100] Creating Layer conv2_1/sep/scale
I0907 13:40:37.272084 23688 net.cpp:434] conv2_1/sep/scale <- conv2_1/sep
I0907 13:40:37.272090 23688 net.cpp:395] conv2_1/sep/scale -> conv2_1/sep (in-place)
I0907 13:40:37.272125 23688 layer_factory.hpp:77] Creating layer conv2_1/sep/scale
I0907 13:40:37.272238 23688 net.cpp:150] Setting up conv2_1/sep/scale
I0907 13:40:37.272248 23688 net.cpp:157] Top shape: 16 64 150 150 (23040000)
I0907 13:40:37.272251 23688 net.cpp:165] Memory required for data: 783360128
I0907 13:40:37.272261 23688 layer_factory.hpp:77] Creating layer conv2_1/sep_relu
I0907 13:40:37.272267 23688 net.cpp:100] Creating Layer conv2_1/sep_relu
I0907 13:40:37.272270 23688 net.cpp:434] conv2_1/sep_relu <- conv2_1/sep
I0907 13:40:37.272276 23688 net.cpp:395] conv2_1/sep_relu -> conv2_1/sep (in-place)
I0907 13:40:37.272857 23688 net.cpp:150] Setting up conv2_1/sep_relu
I0907 13:40:37.272869 23688 net.cpp:157] Top shape: 16 64 150 150 (23040000)
I0907 13:40:37.272874 23688 net.cpp:165] Memory required for data: 875520128
I0907 13:40:37.272878 23688 layer_factory.hpp:77] Creating layer conv2_2/dw
I0907 13:40:37.272887 23688 net.cpp:100] Creating Layer conv2_2/dw
I0907 13:40:37.272891 23688 net.cpp:434] conv2_2/dw <- conv2_1/sep
I0907 13:40:37.272898 23688 net.cpp:408] conv2_2/dw -> conv2_2/dw
I0907 13:40:37.273053 23688 net.cpp:150] Setting up conv2_2/dw
I0907 13:40:37.273062 23688 net.cpp:157] Top shape: 16 64 75 75 (5760000)
I0907 13:40:37.273066 23688 net.cpp:165] Memory required for data: 898560128
I0907 13:40:37.273073 23688 layer_factory.hpp:77] Creating layer conv2_2/dw/bn
I0907 13:40:37.273079 23688 net.cpp:100] Creating Layer conv2_2/dw/bn
I0907 13:40:37.273082 23688 net.cpp:434] conv2_2/dw/bn <- conv2_2/dw
I0907 13:40:37.273088 23688 net.cpp:395] conv2_2/dw/bn -> conv2_2/dw (in-place)
I0907 13:40:37.273658 23688 net.cpp:150] Setting up conv2_2/dw/bn
I0907 13:40:37.273670 23688 net.cpp:157] Top shape: 16 64 75 75 (5760000)
I0907 13:40:37.273674 23688 net.cpp:165] Memory required for data: 921600128
I0907 13:40:37.273684 23688 layer_factory.hpp:77] Creating layer conv2_2/dw/scale
I0907 13:40:37.273702 23688 net.cpp:100] Creating Layer conv2_2/dw/scale
I0907 13:40:37.273707 23688 net.cpp:434] conv2_2/dw/scale <- conv2_2/dw
I0907 13:40:37.273715 23688 net.cpp:395] conv2_2/dw/scale -> conv2_2/dw (in-place)
I0907 13:40:37.273753 23688 layer_factory.hpp:77] Creating layer conv2_2/dw/scale
I0907 13:40:37.273852 23688 net.cpp:150] Setting up conv2_2/dw/scale
I0907 13:40:37.273860 23688 net.cpp:157] Top shape: 16 64 75 75 (5760000)
I0907 13:40:37.273864 23688 net.cpp:165] Memory required for data: 944640128
I0907 13:40:37.273871 23688 layer_factory.hpp:77] Creating layer conv2_2/dw_relu
I0907 13:40:37.273877 23688 net.cpp:100] Creating Layer conv2_2/dw_relu
I0907 13:40:37.273881 23688 net.cpp:434] conv2_2/dw_relu <- conv2_2/dw
I0907 13:40:37.273886 23688 net.cpp:395] conv2_2/dw_relu -> conv2_2/dw (in-place)
I0907 13:40:37.274029 23688 net.cpp:150] Setting up conv2_2/dw_relu
I0907 13:40:37.274039 23688 net.cpp:157] Top shape: 16 64 75 75 (5760000)
I0907 13:40:37.274042 23688 net.cpp:165] Memory required for data: 967680128
I0907 13:40:37.274046 23688 layer_factory.hpp:77] Creating layer conv2_2/sep
I0907 13:40:37.274055 23688 net.cpp:100] Creating Layer conv2_2/sep
I0907 13:40:37.274060 23688 net.cpp:434] conv2_2/sep <- conv2_2/dw
I0907 13:40:37.274066 23688 net.cpp:408] conv2_2/sep -> conv2_2/sep
I0907 13:40:37.276000 23688 net.cpp:150] Setting up conv2_2/sep
I0907 13:40:37.276013 23688 net.cpp:157] Top shape: 16 128 75 75 (11520000)
I0907 13:40:37.276018 23688 net.cpp:165] Memory required for data: 1013760128
I0907 13:40:37.276026 23688 layer_factory.hpp:77] Creating layer conv2_2/sep/bn
I0907 13:40:37.276032 23688 net.cpp:100] Creating Layer conv2_2/sep/bn
I0907 13:40:37.276036 23688 net.cpp:434] conv2_2/sep/bn <- conv2_2/sep
I0907 13:40:37.276041 23688 net.cpp:395] conv2_2/sep/bn -> conv2_2/sep (in-place)
I0907 13:40:37.276188 23688 net.cpp:150] Setting up conv2_2/sep/bn
I0907 13:40:37.276196 23688 net.cpp:157] Top shape: 16 128 75 75 (11520000)
I0907 13:40:37.276201 23688 net.cpp:165] Memory required for data: 1059840128
I0907 13:40:37.276209 23688 layer_factory.hpp:77] Creating layer conv2_2/sep/scale
I0907 13:40:37.276216 23688 net.cpp:100] Creating Layer conv2_2/sep/scale
I0907 13:40:37.276219 23688 net.cpp:434] conv2_2/sep/scale <- conv2_2/sep
I0907 13:40:37.276226 23688 net.cpp:395] conv2_2/sep/scale -> conv2_2/sep (in-place)
I0907 13:40:37.276260 23688 layer_factory.hpp:77] Creating layer conv2_2/sep/scale
I0907 13:40:37.276352 23688 net.cpp:150] Setting up conv2_2/sep/scale
I0907 13:40:37.276360 23688 net.cpp:157] Top shape: 16 128 75 75 (11520000)
I0907 13:40:37.276365 23688 net.cpp:165] Memory required for data: 1105920128
I0907 13:40:37.276372 23688 layer_factory.hpp:77] Creating layer conv2_2/sep_relu
I0907 13:40:37.276377 23688 net.cpp:100] Creating Layer conv2_2/sep_relu
I0907 13:40:37.276381 23688 net.cpp:434] conv2_2/sep_relu <- conv2_2/sep
I0907 13:40:37.276387 23688 net.cpp:395] conv2_2/sep_relu -> conv2_2/sep (in-place)
I0907 13:40:37.276978 23688 net.cpp:150] Setting up conv2_2/sep_relu
I0907 13:40:37.276990 23688 net.cpp:157] Top shape: 16 128 75 75 (11520000)
I0907 13:40:37.276994 23688 net.cpp:165] Memory required for data: 1152000128
I0907 13:40:37.276999 23688 layer_factory.hpp:77] Creating layer conv3_1/dw
I0907 13:40:37.277009 23688 net.cpp:100] Creating Layer conv3_1/dw
I0907 13:40:37.277012 23688 net.cpp:434] conv3_1/dw <- conv2_2/sep
I0907 13:40:37.277019 23688 net.cpp:408] conv3_1/dw -> conv3_1/dw
I0907 13:40:37.277179 23688 net.cpp:150] Setting up conv3_1/dw
I0907 13:40:37.277187 23688 net.cpp:157] Top shape: 16 128 75 75 (11520000)
I0907 13:40:37.277191 23688 net.cpp:165] Memory required for data: 1198080128
I0907 13:40:37.277199 23688 layer_factory.hpp:77] Creating layer conv3_1/dw/bn
I0907 13:40:37.277204 23688 net.cpp:100] Creating Layer conv3_1/dw/bn
I0907 13:40:37.277207 23688 net.cpp:434] conv3_1/dw/bn <- conv3_1/dw
I0907 13:40:37.277214 23688 net.cpp:395] conv3_1/dw/bn -> conv3_1/dw (in-place)
I0907 13:40:37.277355 23688 net.cpp:150] Setting up conv3_1/dw/bn
I0907 13:40:37.277374 23688 net.cpp:157] Top shape: 16 128 75 75 (11520000)
I0907 13:40:37.277379 23688 net.cpp:165] Memory required for data: 1244160128
I0907 13:40:37.277390 23688 layer_factory.hpp:77] Creating layer conv3_1/dw/scale
I0907 13:40:37.277398 23688 net.cpp:100] Creating Layer conv3_1/dw/scale
I0907 13:40:37.277401 23688 net.cpp:434] conv3_1/dw/scale <- conv3_1/dw
I0907 13:40:37.277407 23688 net.cpp:395] conv3_1/dw/scale -> conv3_1/dw (in-place)
I0907 13:40:37.277444 23688 layer_factory.hpp:77] Creating layer conv3_1/dw/scale
I0907 13:40:37.277535 23688 net.cpp:150] Setting up conv3_1/dw/scale
I0907 13:40:37.277544 23688 net.cpp:157] Top shape: 16 128 75 75 (11520000)
I0907 13:40:37.277547 23688 net.cpp:165] Memory required for data: 1290240128
I0907 13:40:37.277554 23688 layer_factory.hpp:77] Creating layer conv3_1/dw_relu
I0907 13:40:37.277559 23688 net.cpp:100] Creating Layer conv3_1/dw_relu
I0907 13:40:37.277564 23688 net.cpp:434] conv3_1/dw_relu <- conv3_1/dw
I0907 13:40:37.277568 23688 net.cpp:395] conv3_1/dw_relu -> conv3_1/dw (in-place)
I0907 13:40:37.277709 23688 net.cpp:150] Setting up conv3_1/dw_relu
I0907 13:40:37.277719 23688 net.cpp:157] Top shape: 16 128 75 75 (11520000)
I0907 13:40:37.277722 23688 net.cpp:165] Memory required for data: 1336320128
I0907 13:40:37.277727 23688 layer_factory.hpp:77] Creating layer conv3_1/sep
I0907 13:40:37.277735 23688 net.cpp:100] Creating Layer conv3_1/sep
I0907 13:40:37.277740 23688 net.cpp:434] conv3_1/sep <- conv3_1/dw
I0907 13:40:37.277746 23688 net.cpp:408] conv3_1/sep -> conv3_1/sep
I0907 13:40:37.279337 23688 net.cpp:150] Setting up conv3_1/sep
I0907 13:40:37.279350 23688 net.cpp:157] Top shape: 16 128 75 75 (11520000)
I0907 13:40:37.279356 23688 net.cpp:165] Memory required for data: 1382400128
I0907 13:40:37.279362 23688 layer_factory.hpp:77] Creating layer conv3_1/sep/bn
I0907 13:40:37.279368 23688 net.cpp:100] Creating Layer conv3_1/sep/bn
I0907 13:40:37.279372 23688 net.cpp:434] conv3_1/sep/bn <- conv3_1/sep
I0907 13:40:37.279378 23688 net.cpp:395] conv3_1/sep/bn -> conv3_1/sep (in-place)
I0907 13:40:37.279525 23688 net.cpp:150] Setting up conv3_1/sep/bn
I0907 13:40:37.279532 23688 net.cpp:157] Top shape: 16 128 75 75 (11520000)
I0907 13:40:37.279536 23688 net.cpp:165] Memory required for data: 1428480128
I0907 13:40:37.279546 23688 layer_factory.hpp:77] Creating layer conv3_1/sep/scale
I0907 13:40:37.279551 23688 net.cpp:100] Creating Layer conv3_1/sep/scale
I0907 13:40:37.279556 23688 net.cpp:434] conv3_1/sep/scale <- conv3_1/sep
I0907 13:40:37.279561 23688 net.cpp:395] conv3_1/sep/scale -> conv3_1/sep (in-place)
I0907 13:40:37.279597 23688 layer_factory.hpp:77] Creating layer conv3_1/sep/scale
I0907 13:40:37.279685 23688 net.cpp:150] Setting up conv3_1/sep/scale
I0907 13:40:37.279693 23688 net.cpp:157] Top shape: 16 128 75 75 (11520000)
I0907 13:40:37.279697 23688 net.cpp:165] Memory required for data: 1474560128
I0907 13:40:37.279705 23688 layer_factory.hpp:77] Creating layer conv3_1/sep_relu
I0907 13:40:37.279711 23688 net.cpp:100] Creating Layer conv3_1/sep_relu
I0907 13:40:37.279714 23688 net.cpp:434] conv3_1/sep_relu <- conv3_1/sep
I0907 13:40:37.279719 23688 net.cpp:395] conv3_1/sep_relu -> conv3_1/sep (in-place)
I0907 13:40:37.280302 23688 net.cpp:150] Setting up conv3_1/sep_relu
I0907 13:40:37.280314 23688 net.cpp:157] Top shape: 16 128 75 75 (11520000)
I0907 13:40:37.280318 23688 net.cpp:165] Memory required for data: 1520640128
I0907 13:40:37.280323 23688 layer_factory.hpp:77] Creating layer conv3_2/dw
I0907 13:40:37.280333 23688 net.cpp:100] Creating Layer conv3_2/dw
I0907 13:40:37.280336 23688 net.cpp:434] conv3_2/dw <- conv3_1/sep
I0907 13:40:37.280344 23688 net.cpp:408] conv3_2/dw -> conv3_2/dw
I0907 13:40:37.280505 23688 net.cpp:150] Setting up conv3_2/dw
I0907 13:40:37.280515 23688 net.cpp:157] Top shape: 16 128 38 38 (2957312)
I0907 13:40:37.280519 23688 net.cpp:165] Memory required for data: 1532469376
I0907 13:40:37.280525 23688 layer_factory.hpp:77] Creating layer conv3_2/dw/bn
I0907 13:40:37.280531 23688 net.cpp:100] Creating Layer conv3_2/dw/bn
I0907 13:40:37.280545 23688 net.cpp:434] conv3_2/dw/bn <- conv3_2/dw
I0907 13:40:37.280552 23688 net.cpp:395] conv3_2/dw/bn -> conv3_2/dw (in-place)
I0907 13:40:37.280691 23688 net.cpp:150] Setting up conv3_2/dw/bn
I0907 13:40:37.280699 23688 net.cpp:157] Top shape: 16 128 38 38 (2957312)
I0907 13:40:37.280704 23688 net.cpp:165] Memory required for data: 1544298624
I0907 13:40:37.280712 23688 layer_factory.hpp:77] Creating layer conv3_2/dw/scale
I0907 13:40:37.280721 23688 net.cpp:100] Creating Layer conv3_2/dw/scale
I0907 13:40:37.280725 23688 net.cpp:434] conv3_2/dw/scale <- conv3_2/dw
I0907 13:40:37.280732 23688 net.cpp:395] conv3_2/dw/scale -> conv3_2/dw (in-place)
I0907 13:40:37.280767 23688 layer_factory.hpp:77] Creating layer conv3_2/dw/scale
I0907 13:40:37.280851 23688 net.cpp:150] Setting up conv3_2/dw/scale
I0907 13:40:37.280858 23688 net.cpp:157] Top shape: 16 128 38 38 (2957312)
I0907 13:40:37.280860 23688 net.cpp:165] Memory required for data: 1556127872
I0907 13:40:37.280869 23688 layer_factory.hpp:77] Creating layer conv3_2/dw_relu
I0907 13:40:37.280874 23688 net.cpp:100] Creating Layer conv3_2/dw_relu
I0907 13:40:37.280877 23688 net.cpp:434] conv3_2/dw_relu <- conv3_2/dw
I0907 13:40:37.280882 23688 net.cpp:395] conv3_2/dw_relu -> conv3_2/dw (in-place)
I0907 13:40:37.281028 23688 net.cpp:150] Setting up conv3_2/dw_relu
I0907 13:40:37.281036 23688 net.cpp:157] Top shape: 16 128 38 38 (2957312)
I0907 13:40:37.281041 23688 net.cpp:165] Memory required for data: 1567957120
I0907 13:40:37.281045 23688 layer_factory.hpp:77] Creating layer conv3_2/sep
I0907 13:40:37.281054 23688 net.cpp:100] Creating Layer conv3_2/sep
I0907 13:40:37.281059 23688 net.cpp:434] conv3_2/sep <- conv3_2/dw
I0907 13:40:37.281065 23688 net.cpp:408] conv3_2/sep -> conv3_2/sep
I0907 13:40:37.282781 23688 net.cpp:150] Setting up conv3_2/sep
I0907 13:40:37.282793 23688 net.cpp:157] Top shape: 16 256 38 38 (5914624)
I0907 13:40:37.282795 23688 net.cpp:165] Memory required for data: 1591615616
I0907 13:40:37.282799 23688 layer_factory.hpp:77] Creating layer conv3_2/sep/bn
I0907 13:40:37.282804 23688 net.cpp:100] Creating Layer conv3_2/sep/bn
I0907 13:40:37.282807 23688 net.cpp:434] conv3_2/sep/bn <- conv3_2/sep
I0907 13:40:37.282811 23688 net.cpp:395] conv3_2/sep/bn -> conv3_2/sep (in-place)
I0907 13:40:37.282958 23688 net.cpp:150] Setting up conv3_2/sep/bn
I0907 13:40:37.282964 23688 net.cpp:157] Top shape: 16 256 38 38 (5914624)
I0907 13:40:37.282968 23688 net.cpp:165] Memory required for data: 1615274112
I0907 13:40:37.282979 23688 layer_factory.hpp:77] Creating layer conv3_2/sep/scale
I0907 13:40:37.282986 23688 net.cpp:100] Creating Layer conv3_2/sep/scale
I0907 13:40:37.282990 23688 net.cpp:434] conv3_2/sep/scale <- conv3_2/sep
I0907 13:40:37.282996 23688 net.cpp:395] conv3_2/sep/scale -> conv3_2/sep (in-place)
I0907 13:40:37.283031 23688 layer_factory.hpp:77] Creating layer conv3_2/sep/scale
I0907 13:40:37.283119 23688 net.cpp:150] Setting up conv3_2/sep/scale
I0907 13:40:37.283128 23688 net.cpp:157] Top shape: 16 256 38 38 (5914624)
I0907 13:40:37.283131 23688 net.cpp:165] Memory required for data: 1638932608
I0907 13:40:37.283138 23688 layer_factory.hpp:77] Creating layer conv3_2/sep_relu
I0907 13:40:37.283144 23688 net.cpp:100] Creating Layer conv3_2/sep_relu
I0907 13:40:37.283149 23688 net.cpp:434] conv3_2/sep_relu <- conv3_2/sep
I0907 13:40:37.283154 23688 net.cpp:395] conv3_2/sep_relu -> conv3_2/sep (in-place)
I0907 13:40:37.283740 23688 net.cpp:150] Setting up conv3_2/sep_relu
I0907 13:40:37.283752 23688 net.cpp:157] Top shape: 16 256 38 38 (5914624)
I0907 13:40:37.283757 23688 net.cpp:165] Memory required for data: 1662591104
I0907 13:40:37.283761 23688 layer_factory.hpp:77] Creating layer conv4_1/dw
I0907 13:40:37.283771 23688 net.cpp:100] Creating Layer conv4_1/dw
I0907 13:40:37.283774 23688 net.cpp:434] conv4_1/dw <- conv3_2/sep
I0907 13:40:37.283782 23688 net.cpp:408] conv4_1/dw -> conv4_1/dw
I0907 13:40:37.283956 23688 net.cpp:150] Setting up conv4_1/dw
I0907 13:40:37.283964 23688 net.cpp:157] Top shape: 16 256 38 38 (5914624)
I0907 13:40:37.283979 23688 net.cpp:165] Memory required for data: 1686249600
I0907 13:40:37.283987 23688 layer_factory.hpp:77] Creating layer conv4_1/dw/bn
I0907 13:40:37.283993 23688 net.cpp:100] Creating Layer conv4_1/dw/bn
I0907 13:40:37.283996 23688 net.cpp:434] conv4_1/dw/bn <- conv4_1/dw
I0907 13:40:37.284003 23688 net.cpp:395] conv4_1/dw/bn -> conv4_1/dw (in-place)
I0907 13:40:37.284147 23688 net.cpp:150] Setting up conv4_1/dw/bn
I0907 13:40:37.284155 23688 net.cpp:157] Top shape: 16 256 38 38 (5914624)
I0907 13:40:37.284159 23688 net.cpp:165] Memory required for data: 1709908096
I0907 13:40:37.284168 23688 layer_factory.hpp:77] Creating layer conv4_1/dw/scale
I0907 13:40:37.284174 23688 net.cpp:100] Creating Layer conv4_1/dw/scale
I0907 13:40:37.284178 23688 net.cpp:434] conv4_1/dw/scale <- conv4_1/dw
I0907 13:40:37.284184 23688 net.cpp:395] conv4_1/dw/scale -> conv4_1/dw (in-place)
I0907 13:40:37.284219 23688 layer_factory.hpp:77] Creating layer conv4_1/dw/scale
I0907 13:40:37.284307 23688 net.cpp:150] Setting up conv4_1/dw/scale
I0907 13:40:37.284315 23688 net.cpp:157] Top shape: 16 256 38 38 (5914624)
I0907 13:40:37.284319 23688 net.cpp:165] Memory required for data: 1733566592
I0907 13:40:37.284327 23688 layer_factory.hpp:77] Creating layer conv4_1/dw_relu
I0907 13:40:37.284332 23688 net.cpp:100] Creating Layer conv4_1/dw_relu
I0907 13:40:37.284337 23688 net.cpp:434] conv4_1/dw_relu <- conv4_1/dw
I0907 13:40:37.284342 23688 net.cpp:395] conv4_1/dw_relu -> conv4_1/dw (in-place)
I0907 13:40:37.284485 23688 net.cpp:150] Setting up conv4_1/dw_relu
I0907 13:40:37.284495 23688 net.cpp:157] Top shape: 16 256 38 38 (5914624)
I0907 13:40:37.284499 23688 net.cpp:165] Memory required for data: 1757225088
I0907 13:40:37.284503 23688 layer_factory.hpp:77] Creating layer conv4_1/sep
I0907 13:40:37.284512 23688 net.cpp:100] Creating Layer conv4_1/sep
I0907 13:40:37.284515 23688 net.cpp:434] conv4_1/sep <- conv4_1/dw
I0907 13:40:37.284523 23688 net.cpp:408] conv4_1/sep -> conv4_1/sep
I0907 13:40:37.287367 23688 net.cpp:150] Setting up conv4_1/sep
I0907 13:40:37.287380 23688 net.cpp:157] Top shape: 16 256 38 38 (5914624)
I0907 13:40:37.287385 23688 net.cpp:165] Memory required for data: 1780883584
I0907 13:40:37.287392 23688 layer_factory.hpp:77] Creating layer conv4_1/sep/bn
I0907 13:40:37.287398 23688 net.cpp:100] Creating Layer conv4_1/sep/bn
I0907 13:40:37.287402 23688 net.cpp:434] conv4_1/sep/bn <- conv4_1/sep
I0907 13:40:37.287412 23688 net.cpp:395] conv4_1/sep/bn -> conv4_1/sep (in-place)
I0907 13:40:37.287569 23688 net.cpp:150] Setting up conv4_1/sep/bn
I0907 13:40:37.287576 23688 net.cpp:157] Top shape: 16 256 38 38 (5914624)
I0907 13:40:37.287580 23688 net.cpp:165] Memory required for data: 1804542080
I0907 13:40:37.287588 23688 layer_factory.hpp:77] Creating layer conv4_1/sep/scale
I0907 13:40:37.287595 23688 net.cpp:100] Creating Layer conv4_1/sep/scale
I0907 13:40:37.287600 23688 net.cpp:434] conv4_1/sep/scale <- conv4_1/sep
I0907 13:40:37.287606 23688 net.cpp:395] conv4_1/sep/scale -> conv4_1/sep (in-place)
I0907 13:40:37.287641 23688 layer_factory.hpp:77] Creating layer conv4_1/sep/scale
I0907 13:40:37.287734 23688 net.cpp:150] Setting up conv4_1/sep/scale
I0907 13:40:37.287742 23688 net.cpp:157] Top shape: 16 256 38 38 (5914624)
I0907 13:40:37.287746 23688 net.cpp:165] Memory required for data: 1828200576
I0907 13:40:37.287758 23688 layer_factory.hpp:77] Creating layer conv4_1/sep_relu
I0907 13:40:37.287765 23688 net.cpp:100] Creating Layer conv4_1/sep_relu
I0907 13:40:37.287770 23688 net.cpp:434] conv4_1/sep_relu <- conv4_1/sep
I0907 13:40:37.287775 23688 net.cpp:395] conv4_1/sep_relu -> conv4_1/sep (in-place)
I0907 13:40:37.287938 23688 net.cpp:150] Setting up conv4_1/sep_relu
I0907 13:40:37.287950 23688 net.cpp:157] Top shape: 16 256 38 38 (5914624)
I0907 13:40:37.287955 23688 net.cpp:165] Memory required for data: 1851859072
I0907 13:40:37.287958 23688 layer_factory.hpp:77] Creating layer conv4_2/dw
I0907 13:40:37.287969 23688 net.cpp:100] Creating Layer conv4_2/dw
I0907 13:40:37.287983 23688 net.cpp:434] conv4_2/dw <- conv4_1/sep
I0907 13:40:37.287992 23688 net.cpp:408] conv4_2/dw -> conv4_2/dw
I0907 13:40:37.288178 23688 net.cpp:150] Setting up conv4_2/dw
I0907 13:40:37.288187 23688 net.cpp:157] Top shape: 16 256 19 19 (1478656)
I0907 13:40:37.288192 23688 net.cpp:165] Memory required for data: 1857773696
I0907 13:40:37.288197 23688 layer_factory.hpp:77] Creating layer conv4_2/dw/bn
I0907 13:40:37.288204 23688 net.cpp:100] Creating Layer conv4_2/dw/bn
I0907 13:40:37.288208 23688 net.cpp:434] conv4_2/dw/bn <- conv4_2/dw
I0907 13:40:37.288214 23688 net.cpp:395] conv4_2/dw/bn -> conv4_2/dw (in-place)
I0907 13:40:37.288369 23688 net.cpp:150] Setting up conv4_2/dw/bn
I0907 13:40:37.288377 23688 net.cpp:157] Top shape: 16 256 19 19 (1478656)
I0907 13:40:37.288380 23688 net.cpp:165] Memory required for data: 1863688320
I0907 13:40:37.288388 23688 layer_factory.hpp:77] Creating layer conv4_2/dw/scale
I0907 13:40:37.288398 23688 net.cpp:100] Creating Layer conv4_2/dw/scale
I0907 13:40:37.288401 23688 net.cpp:434] conv4_2/dw/scale <- conv4_2/dw
I0907 13:40:37.288408 23688 net.cpp:395] conv4_2/dw/scale -> conv4_2/dw (in-place)
I0907 13:40:37.288444 23688 layer_factory.hpp:77] Creating layer conv4_2/dw/scale
I0907 13:40:37.288539 23688 net.cpp:150] Setting up conv4_2/dw/scale
I0907 13:40:37.288547 23688 net.cpp:157] Top shape: 16 256 19 19 (1478656)
I0907 13:40:37.288552 23688 net.cpp:165] Memory required for data: 1869602944
I0907 13:40:37.288558 23688 layer_factory.hpp:77] Creating layer conv4_2/dw_relu
I0907 13:40:37.288565 23688 net.cpp:100] Creating Layer conv4_2/dw_relu
I0907 13:40:37.288569 23688 net.cpp:434] conv4_2/dw_relu <- conv4_2/dw
I0907 13:40:37.288574 23688 net.cpp:395] conv4_2/dw_relu -> conv4_2/dw (in-place)
I0907 13:40:37.289252 23688 net.cpp:150] Setting up conv4_2/dw_relu
I0907 13:40:37.289266 23688 net.cpp:157] Top shape: 16 256 19 19 (1478656)
I0907 13:40:37.289271 23688 net.cpp:165] Memory required for data: 1875517568
I0907 13:40:37.289275 23688 layer_factory.hpp:77] Creating layer conv4_2/sep
I0907 13:40:37.289286 23688 net.cpp:100] Creating Layer conv4_2/sep
I0907 13:40:37.289290 23688 net.cpp:434] conv4_2/sep <- conv4_2/dw
I0907 13:40:37.289297 23688 net.cpp:408] conv4_2/sep -> conv4_2/sep
I0907 13:40:37.292726 23688 net.cpp:150] Setting up conv4_2/sep
I0907 13:40:37.292738 23688 net.cpp:157] Top shape: 16 512 19 19 (2957312)
I0907 13:40:37.292743 23688 net.cpp:165] Memory required for data: 1887346816
I0907 13:40:37.292750 23688 layer_factory.hpp:77] Creating layer conv4_2/sep/bn
I0907 13:40:37.292757 23688 net.cpp:100] Creating Layer conv4_2/sep/bn
I0907 13:40:37.292762 23688 net.cpp:434] conv4_2/sep/bn <- conv4_2/sep
I0907 13:40:37.292769 23688 net.cpp:395] conv4_2/sep/bn -> conv4_2/sep (in-place)
I0907 13:40:37.292943 23688 net.cpp:150] Setting up conv4_2/sep/bn
I0907 13:40:37.292951 23688 net.cpp:157] Top shape: 16 512 19 19 (2957312)
I0907 13:40:37.292955 23688 net.cpp:165] Memory required for data: 1899176064
I0907 13:40:37.292963 23688 layer_factory.hpp:77] Creating layer conv4_2/sep/scale
I0907 13:40:37.292973 23688 net.cpp:100] Creating Layer conv4_2/sep/scale
I0907 13:40:37.292976 23688 net.cpp:434] conv4_2/sep/scale <- conv4_2/sep
I0907 13:40:37.292982 23688 net.cpp:395] conv4_2/sep/scale -> conv4_2/sep (in-place)
I0907 13:40:37.293023 23688 layer_factory.hpp:77] Creating layer conv4_2/sep/scale
I0907 13:40:37.293123 23688 net.cpp:150] Setting up conv4_2/sep/scale
I0907 13:40:37.293131 23688 net.cpp:157] Top shape: 16 512 19 19 (2957312)
I0907 13:40:37.293135 23688 net.cpp:165] Memory required for data: 1911005312
I0907 13:40:37.293143 23688 layer_factory.hpp:77] Creating layer conv4_2/sep_relu
I0907 13:40:37.293148 23688 net.cpp:100] Creating Layer conv4_2/sep_relu
I0907 13:40:37.293153 23688 net.cpp:434] conv4_2/sep_relu <- conv4_2/sep
I0907 13:40:37.293159 23688 net.cpp:395] conv4_2/sep_relu -> conv4_2/sep (in-place)
I0907 13:40:37.293309 23688 net.cpp:150] Setting up conv4_2/sep_relu
I0907 13:40:37.293319 23688 net.cpp:157] Top shape: 16 512 19 19 (2957312)
I0907 13:40:37.293334 23688 net.cpp:165] Memory required for data: 1922834560
I0907 13:40:37.293339 23688 layer_factory.hpp:77] Creating layer conv5_1/dw
I0907 13:40:37.293349 23688 net.cpp:100] Creating Layer conv5_1/dw
I0907 13:40:37.293352 23688 net.cpp:434] conv5_1/dw <- conv4_2/sep
I0907 13:40:37.293360 23688 net.cpp:408] conv5_1/dw -> conv5_1/dw
I0907 13:40:37.293575 23688 net.cpp:150] Setting up conv5_1/dw
I0907 13:40:37.293583 23688 net.cpp:157] Top shape: 16 512 19 19 (2957312)
I0907 13:40:37.293587 23688 net.cpp:165] Memory required for data: 1934663808
I0907 13:40:37.293594 23688 layer_factory.hpp:77] Creating layer conv5_1/dw/bn
I0907 13:40:37.293601 23688 net.cpp:100] Creating Layer conv5_1/dw/bn
I0907 13:40:37.293604 23688 net.cpp:434] conv5_1/dw/bn <- conv5_1/dw
I0907 13:40:37.293611 23688 net.cpp:395] conv5_1/dw/bn -> conv5_1/dw (in-place)
I0907 13:40:37.293772 23688 net.cpp:150] Setting up conv5_1/dw/bn
I0907 13:40:37.293781 23688 net.cpp:157] Top shape: 16 512 19 19 (2957312)
I0907 13:40:37.293786 23688 net.cpp:165] Memory required for data: 1946493056
I0907 13:40:37.293793 23688 layer_factory.hpp:77] Creating layer conv5_1/dw/scale
I0907 13:40:37.293800 23688 net.cpp:100] Creating Layer conv5_1/dw/scale
I0907 13:40:37.293804 23688 net.cpp:434] conv5_1/dw/scale <- conv5_1/dw
I0907 13:40:37.293810 23688 net.cpp:395] conv5_1/dw/scale -> conv5_1/dw (in-place)
I0907 13:40:37.293853 23688 layer_factory.hpp:77] Creating layer conv5_1/dw/scale
I0907 13:40:37.293956 23688 net.cpp:150] Setting up conv5_1/dw/scale
I0907 13:40:37.293963 23688 net.cpp:157] Top shape: 16 512 19 19 (2957312)
I0907 13:40:37.293967 23688 net.cpp:165] Memory required for data: 1958322304
I0907 13:40:37.293974 23688 layer_factory.hpp:77] Creating layer conv5_1/dw_relu
I0907 13:40:37.293979 23688 net.cpp:100] Creating Layer conv5_1/dw_relu
I0907 13:40:37.293982 23688 net.cpp:434] conv5_1/dw_relu <- conv5_1/dw
I0907 13:40:37.293989 23688 net.cpp:395] conv5_1/dw_relu -> conv5_1/dw (in-place)
I0907 13:40:37.294595 23688 net.cpp:150] Setting up conv5_1/dw_relu
I0907 13:40:37.294607 23688 net.cpp:157] Top shape: 16 512 19 19 (2957312)
I0907 13:40:37.294611 23688 net.cpp:165] Memory required for data: 1970151552
I0907 13:40:37.294615 23688 layer_factory.hpp:77] Creating layer conv5_1/sep
I0907 13:40:37.294625 23688 net.cpp:100] Creating Layer conv5_1/sep
I0907 13:40:37.294631 23688 net.cpp:434] conv5_1/sep <- conv5_1/dw
I0907 13:40:37.294637 23688 net.cpp:408] conv5_1/sep -> conv5_1/sep
I0907 13:40:37.298669 23688 net.cpp:150] Setting up conv5_1/sep
I0907 13:40:37.298683 23688 net.cpp:157] Top shape: 16 512 19 19 (2957312)
I0907 13:40:37.298687 23688 net.cpp:165] Memory required for data: 1981980800
I0907 13:40:37.298694 23688 layer_factory.hpp:77] Creating layer conv5_1/sep/bn
I0907 13:40:37.298702 23688 net.cpp:100] Creating Layer conv5_1/sep/bn
I0907 13:40:37.298707 23688 net.cpp:434] conv5_1/sep/bn <- conv5_1/sep
I0907 13:40:37.298712 23688 net.cpp:395] conv5_1/sep/bn -> conv5_1/sep (in-place)
I0907 13:40:37.298887 23688 net.cpp:150] Setting up conv5_1/sep/bn
I0907 13:40:37.298897 23688 net.cpp:157] Top shape: 16 512 19 19 (2957312)
I0907 13:40:37.298900 23688 net.cpp:165] Memory required for data: 1993810048
I0907 13:40:37.298908 23688 layer_factory.hpp:77] Creating layer conv5_1/sep/scale
I0907 13:40:37.298918 23688 net.cpp:100] Creating Layer conv5_1/sep/scale
I0907 13:40:37.298923 23688 net.cpp:434] conv5_1/sep/scale <- conv5_1/sep
I0907 13:40:37.298928 23688 net.cpp:395] conv5_1/sep/scale -> conv5_1/sep (in-place)
I0907 13:40:37.298970 23688 layer_factory.hpp:77] Creating layer conv5_1/sep/scale
I0907 13:40:37.299072 23688 net.cpp:150] Setting up conv5_1/sep/scale
I0907 13:40:37.299079 23688 net.cpp:157] Top shape: 16 512 19 19 (2957312)
I0907 13:40:37.299083 23688 net.cpp:165] Memory required for data: 2005639296
I0907 13:40:37.299090 23688 layer_factory.hpp:77] Creating layer conv5_1/sep_relu
I0907 13:40:37.299098 23688 net.cpp:100] Creating Layer conv5_1/sep_relu
I0907 13:40:37.299101 23688 net.cpp:434] conv5_1/sep_relu <- conv5_1/sep
I0907 13:40:37.299118 23688 net.cpp:395] conv5_1/sep_relu -> conv5_1/sep (in-place)
I0907 13:40:37.299278 23688 net.cpp:150] Setting up conv5_1/sep_relu
I0907 13:40:37.299288 23688 net.cpp:157] Top shape: 16 512 19 19 (2957312)
I0907 13:40:37.299290 23688 net.cpp:165] Memory required for data: 2017468544
I0907 13:40:37.299296 23688 layer_factory.hpp:77] Creating layer conv5_2/dw
I0907 13:40:37.299305 23688 net.cpp:100] Creating Layer conv5_2/dw
I0907 13:40:37.299310 23688 net.cpp:434] conv5_2/dw <- conv5_1/sep
I0907 13:40:37.299317 23688 net.cpp:408] conv5_2/dw -> conv5_2/dw
I0907 13:40:37.299523 23688 net.cpp:150] Setting up conv5_2/dw
I0907 13:40:37.299530 23688 net.cpp:157] Top shape: 16 512 19 19 (2957312)
I0907 13:40:37.299532 23688 net.cpp:165] Memory required for data: 2029297792
I0907 13:40:37.299536 23688 layer_factory.hpp:77] Creating layer conv5_2/dw/bn
I0907 13:40:37.299543 23688 net.cpp:100] Creating Layer conv5_2/dw/bn
I0907 13:40:37.299547 23688 net.cpp:434] conv5_2/dw/bn <- conv5_2/dw
I0907 13:40:37.299552 23688 net.cpp:395] conv5_2/dw/bn -> conv5_2/dw (in-place)
I0907 13:40:37.299717 23688 net.cpp:150] Setting up conv5_2/dw/bn
I0907 13:40:37.299726 23688 net.cpp:157] Top shape: 16 512 19 19 (2957312)
I0907 13:40:37.299729 23688 net.cpp:165] Memory required for data: 2041127040
I0907 13:40:37.299737 23688 layer_factory.hpp:77] Creating layer conv5_2/dw/scale
I0907 13:40:37.299751 23688 net.cpp:100] Creating Layer conv5_2/dw/scale
I0907 13:40:37.299756 23688 net.cpp:434] conv5_2/dw/scale <- conv5_2/dw
I0907 13:40:37.299762 23688 net.cpp:395] conv5_2/dw/scale -> conv5_2/dw (in-place)
I0907 13:40:37.299803 23688 layer_factory.hpp:77] Creating layer conv5_2/dw/scale
I0907 13:40:37.299906 23688 net.cpp:150] Setting up conv5_2/dw/scale
I0907 13:40:37.299914 23688 net.cpp:157] Top shape: 16 512 19 19 (2957312)
I0907 13:40:37.299918 23688 net.cpp:165] Memory required for data: 2052956288
I0907 13:40:37.299926 23688 layer_factory.hpp:77] Creating layer conv5_2/dw_relu
I0907 13:40:37.299932 23688 net.cpp:100] Creating Layer conv5_2/dw_relu
I0907 13:40:37.299934 23688 net.cpp:434] conv5_2/dw_relu <- conv5_2/dw
I0907 13:40:37.299940 23688 net.cpp:395] conv5_2/dw_relu -> conv5_2/dw (in-place)
I0907 13:40:37.300544 23688 net.cpp:150] Setting up conv5_2/dw_relu
I0907 13:40:37.300556 23688 net.cpp:157] Top shape: 16 512 19 19 (2957312)
I0907 13:40:37.300561 23688 net.cpp:165] Memory required for data: 2064785536
I0907 13:40:37.300565 23688 layer_factory.hpp:77] Creating layer conv5_2/sep
I0907 13:40:37.300575 23688 net.cpp:100] Creating Layer conv5_2/sep
I0907 13:40:37.300580 23688 net.cpp:434] conv5_2/sep <- conv5_2/dw
I0907 13:40:37.300587 23688 net.cpp:408] conv5_2/sep -> conv5_2/sep
I0907 13:40:37.304159 23688 net.cpp:150] Setting up conv5_2/sep
I0907 13:40:37.304174 23688 net.cpp:157] Top shape: 16 512 19 19 (2957312)
I0907 13:40:37.304179 23688 net.cpp:165] Memory required for data: 2076614784
I0907 13:40:37.304186 23688 layer_factory.hpp:77] Creating layer conv5_2/sep/bn
I0907 13:40:37.304193 23688 net.cpp:100] Creating Layer conv5_2/sep/bn
I0907 13:40:37.304196 23688 net.cpp:434] conv5_2/sep/bn <- conv5_2/sep
I0907 13:40:37.304204 23688 net.cpp:395] conv5_2/sep/bn -> conv5_2/sep (in-place)
I0907 13:40:37.304381 23688 net.cpp:150] Setting up conv5_2/sep/bn
I0907 13:40:37.304390 23688 net.cpp:157] Top shape: 16 512 19 19 (2957312)
I0907 13:40:37.304394 23688 net.cpp:165] Memory required for data: 2088444032
I0907 13:40:37.304402 23688 layer_factory.hpp:77] Creating layer conv5_2/sep/scale
I0907 13:40:37.304410 23688 net.cpp:100] Creating Layer conv5_2/sep/scale
I0907 13:40:37.304414 23688 net.cpp:434] conv5_2/sep/scale <- conv5_2/sep
I0907 13:40:37.304421 23688 net.cpp:395] conv5_2/sep/scale -> conv5_2/sep (in-place)
I0907 13:40:37.304461 23688 layer_factory.hpp:77] Creating layer conv5_2/sep/scale
I0907 13:40:37.304566 23688 net.cpp:150] Setting up conv5_2/sep/scale
I0907 13:40:37.304574 23688 net.cpp:157] Top shape: 16 512 19 19 (2957312)
I0907 13:40:37.304579 23688 net.cpp:165] Memory required for data: 2100273280
I0907 13:40:37.304596 23688 layer_factory.hpp:77] Creating layer conv5_2/sep_relu
I0907 13:40:37.304602 23688 net.cpp:100] Creating Layer conv5_2/sep_relu
I0907 13:40:37.304606 23688 net.cpp:434] conv5_2/sep_relu <- conv5_2/sep
I0907 13:40:37.304612 23688 net.cpp:395] conv5_2/sep_relu -> conv5_2/sep (in-place)
I0907 13:40:37.305205 23688 net.cpp:150] Setting up conv5_2/sep_relu
I0907 13:40:37.305218 23688 net.cpp:157] Top shape: 16 512 19 19 (2957312)
I0907 13:40:37.305222 23688 net.cpp:165] Memory required for data: 2112102528
I0907 13:40:37.305227 23688 layer_factory.hpp:77] Creating layer conv5_3/dw
I0907 13:40:37.305236 23688 net.cpp:100] Creating Layer conv5_3/dw
I0907 13:40:37.305240 23688 net.cpp:434] conv5_3/dw <- conv5_2/sep
I0907 13:40:37.305248 23688 net.cpp:408] conv5_3/dw -> conv5_3/dw
I0907 13:40:37.305459 23688 net.cpp:150] Setting up conv5_3/dw
I0907 13:40:37.305469 23688 net.cpp:157] Top shape: 16 512 19 19 (2957312)
I0907 13:40:37.305472 23688 net.cpp:165] Memory required for data: 2123931776
I0907 13:40:37.305479 23688 layer_factory.hpp:77] Creating layer conv5_3/dw/bn
I0907 13:40:37.305486 23688 net.cpp:100] Creating Layer conv5_3/dw/bn
I0907 13:40:37.305490 23688 net.cpp:434] conv5_3/dw/bn <- conv5_3/dw
I0907 13:40:37.305495 23688 net.cpp:395] conv5_3/dw/bn -> conv5_3/dw (in-place)
I0907 13:40:37.305665 23688 net.cpp:150] Setting up conv5_3/dw/bn
I0907 13:40:37.305673 23688 net.cpp:157] Top shape: 16 512 19 19 (2957312)
I0907 13:40:37.305677 23688 net.cpp:165] Memory required for data: 2135761024
I0907 13:40:37.305686 23688 layer_factory.hpp:77] Creating layer conv5_3/dw/scale
I0907 13:40:37.305693 23688 net.cpp:100] Creating Layer conv5_3/dw/scale
I0907 13:40:37.305697 23688 net.cpp:434] conv5_3/dw/scale <- conv5_3/dw
I0907 13:40:37.305703 23688 net.cpp:395] conv5_3/dw/scale -> conv5_3/dw (in-place)
I0907 13:40:37.305747 23688 layer_factory.hpp:77] Creating layer conv5_3/dw/scale
I0907 13:40:37.305848 23688 net.cpp:150] Setting up conv5_3/dw/scale
I0907 13:40:37.305856 23688 net.cpp:157] Top shape: 16 512 19 19 (2957312)
I0907 13:40:37.305860 23688 net.cpp:165] Memory required for data: 2147590272
I0907 13:40:37.305867 23688 layer_factory.hpp:77] Creating layer conv5_3/dw_relu
I0907 13:40:37.305874 23688 net.cpp:100] Creating Layer conv5_3/dw_relu
I0907 13:40:37.305878 23688 net.cpp:434] conv5_3/dw_relu <- conv5_3/dw
I0907 13:40:37.305884 23688 net.cpp:395] conv5_3/dw_relu -> conv5_3/dw (in-place)
I0907 13:40:37.306486 23688 net.cpp:150] Setting up conv5_3/dw_relu
I0907 13:40:37.306499 23688 net.cpp:157] Top shape: 16 512 19 19 (2957312)
I0907 13:40:37.306504 23688 net.cpp:165] Memory required for data: 2159419520
I0907 13:40:37.306509 23688 layer_factory.hpp:77] Creating layer conv5_3/sep
I0907 13:40:37.306519 23688 net.cpp:100] Creating Layer conv5_3/sep
I0907 13:40:37.306522 23688 net.cpp:434] conv5_3/sep <- conv5_3/dw
I0907 13:40:37.306530 23688 net.cpp:408] conv5_3/sep -> conv5_3/sep
I0907 13:40:37.310097 23688 net.cpp:150] Setting up conv5_3/sep
I0907 13:40:37.310111 23688 net.cpp:157] Top shape: 16 512 19 19 (2957312)
I0907 13:40:37.310117 23688 net.cpp:165] Memory required for data: 2171248768
I0907 13:40:37.310123 23688 layer_factory.hpp:77] Creating layer conv5_3/sep/bn
I0907 13:40:37.310130 23688 net.cpp:100] Creating Layer conv5_3/sep/bn
I0907 13:40:37.310134 23688 net.cpp:434] conv5_3/sep/bn <- conv5_3/sep
I0907 13:40:37.310142 23688 net.cpp:395] conv5_3/sep/bn -> conv5_3/sep (in-place)
I0907 13:40:37.310326 23688 net.cpp:150] Setting up conv5_3/sep/bn
I0907 13:40:37.310335 23688 net.cpp:157] Top shape: 16 512 19 19 (2957312)
I0907 13:40:37.310339 23688 net.cpp:165] Memory required for data: 2183078016
I0907 13:40:37.310348 23688 layer_factory.hpp:77] Creating layer conv5_3/sep/scale
I0907 13:40:37.310355 23688 net.cpp:100] Creating Layer conv5_3/sep/scale
I0907 13:40:37.310359 23688 net.cpp:434] conv5_3/sep/scale <- conv5_3/sep
I0907 13:40:37.310365 23688 net.cpp:395] conv5_3/sep/scale -> conv5_3/sep (in-place)
I0907 13:40:37.310411 23688 layer_factory.hpp:77] Creating layer conv5_3/sep/scale
I0907 13:40:37.310531 23688 net.cpp:150] Setting up conv5_3/sep/scale
I0907 13:40:37.310542 23688 net.cpp:157] Top shape: 16 512 19 19 (2957312)
I0907 13:40:37.310546 23688 net.cpp:165] Memory required for data: 2194907264
I0907 13:40:37.310554 23688 layer_factory.hpp:77] Creating layer conv5_3/sep_relu
I0907 13:40:37.310560 23688 net.cpp:100] Creating Layer conv5_3/sep_relu
I0907 13:40:37.310564 23688 net.cpp:434] conv5_3/sep_relu <- conv5_3/sep
I0907 13:40:37.310570 23688 net.cpp:395] conv5_3/sep_relu -> conv5_3/sep (in-place)
I0907 13:40:37.311174 23688 net.cpp:150] Setting up conv5_3/sep_relu
I0907 13:40:37.311187 23688 net.cpp:157] Top shape: 16 512 19 19 (2957312)
I0907 13:40:37.311192 23688 net.cpp:165] Memory required for data: 2206736512
I0907 13:40:37.311197 23688 layer_factory.hpp:77] Creating layer conv5_4/dw
I0907 13:40:37.311206 23688 net.cpp:100] Creating Layer conv5_4/dw
I0907 13:40:37.311210 23688 net.cpp:434] conv5_4/dw <- conv5_3/sep
I0907 13:40:37.311218 23688 net.cpp:408] conv5_4/dw -> conv5_4/dw
I0907 13:40:37.311432 23688 net.cpp:150] Setting up conv5_4/dw
I0907 13:40:37.311442 23688 net.cpp:157] Top shape: 16 512 19 19 (2957312)
I0907 13:40:37.311446 23688 net.cpp:165] Memory required for data: 2218565760
I0907 13:40:37.311452 23688 layer_factory.hpp:77] Creating layer conv5_4/dw/bn
I0907 13:40:37.311458 23688 net.cpp:100] Creating Layer conv5_4/dw/bn
I0907 13:40:37.311462 23688 net.cpp:434] conv5_4/dw/bn <- conv5_4/dw
I0907 13:40:37.311468 23688 net.cpp:395] conv5_4/dw/bn -> conv5_4/dw (in-place)
I0907 13:40:37.311638 23688 net.cpp:150] Setting up conv5_4/dw/bn
I0907 13:40:37.311646 23688 net.cpp:157] Top shape: 16 512 19 19 (2957312)
I0907 13:40:37.311650 23688 net.cpp:165] Memory required for data: 2230395008
I0907 13:40:37.311659 23688 layer_factory.hpp:77] Creating layer conv5_4/dw/scale
I0907 13:40:37.311666 23688 net.cpp:100] Creating Layer conv5_4/dw/scale
I0907 13:40:37.311669 23688 net.cpp:434] conv5_4/dw/scale <- conv5_4/dw
I0907 13:40:37.311676 23688 net.cpp:395] conv5_4/dw/scale -> conv5_4/dw (in-place)
I0907 13:40:37.311719 23688 layer_factory.hpp:77] Creating layer conv5_4/dw/scale
I0907 13:40:37.311822 23688 net.cpp:150] Setting up conv5_4/dw/scale
I0907 13:40:37.311830 23688 net.cpp:157] Top shape: 16 512 19 19 (2957312)
I0907 13:40:37.311836 23688 net.cpp:165] Memory required for data: 2242224256
I0907 13:40:37.311842 23688 layer_factory.hpp:77] Creating layer conv5_4/dw_relu
I0907 13:40:37.311847 23688 net.cpp:100] Creating Layer conv5_4/dw_relu
I0907 13:40:37.311851 23688 net.cpp:434] conv5_4/dw_relu <- conv5_4/dw
I0907 13:40:37.311856 23688 net.cpp:395] conv5_4/dw_relu -> conv5_4/dw (in-place)
I0907 13:40:37.312016 23688 net.cpp:150] Setting up conv5_4/dw_relu
I0907 13:40:37.312026 23688 net.cpp:157] Top shape: 16 512 19 19 (2957312)
I0907 13:40:37.312031 23688 net.cpp:165] Memory required for data: 2254053504
I0907 13:40:37.312036 23688 layer_factory.hpp:77] Creating layer conv5_4/sep
I0907 13:40:37.312046 23688 net.cpp:100] Creating Layer conv5_4/sep
I0907 13:40:37.312049 23688 net.cpp:434] conv5_4/sep <- conv5_4/dw
I0907 13:40:37.312057 23688 net.cpp:408] conv5_4/sep -> conv5_4/sep
I0907 13:40:37.316066 23688 net.cpp:150] Setting up conv5_4/sep
I0907 13:40:37.316081 23688 net.cpp:157] Top shape: 16 512 19 19 (2957312)
I0907 13:40:37.316084 23688 net.cpp:165] Memory required for data: 2265882752
I0907 13:40:37.316092 23688 layer_factory.hpp:77] Creating layer conv5_4/sep/bn
I0907 13:40:37.316099 23688 net.cpp:100] Creating Layer conv5_4/sep/bn
I0907 13:40:37.316103 23688 net.cpp:434] conv5_4/sep/bn <- conv5_4/sep
I0907 13:40:37.316109 23688 net.cpp:395] conv5_4/sep/bn -> conv5_4/sep (in-place)
I0907 13:40:37.316285 23688 net.cpp:150] Setting up conv5_4/sep/bn
I0907 13:40:37.316293 23688 net.cpp:157] Top shape: 16 512 19 19 (2957312)
I0907 13:40:37.316298 23688 net.cpp:165] Memory required for data: 2277712000
I0907 13:40:37.316306 23688 layer_factory.hpp:77] Creating layer conv5_4/sep/scale
I0907 13:40:37.316313 23688 net.cpp:100] Creating Layer conv5_4/sep/scale
I0907 13:40:37.316328 23688 net.cpp:434] conv5_4/sep/scale <- conv5_4/sep
I0907 13:40:37.316335 23688 net.cpp:395] conv5_4/sep/scale -> conv5_4/sep (in-place)
I0907 13:40:37.316381 23688 layer_factory.hpp:77] Creating layer conv5_4/sep/scale
I0907 13:40:37.316485 23688 net.cpp:150] Setting up conv5_4/sep/scale
I0907 13:40:37.316494 23688 net.cpp:157] Top shape: 16 512 19 19 (2957312)
I0907 13:40:37.316498 23688 net.cpp:165] Memory required for data: 2289541248
I0907 13:40:37.316505 23688 layer_factory.hpp:77] Creating layer conv5_4/sep_relu
I0907 13:40:37.316511 23688 net.cpp:100] Creating Layer conv5_4/sep_relu
I0907 13:40:37.316515 23688 net.cpp:434] conv5_4/sep_relu <- conv5_4/sep
I0907 13:40:37.316520 23688 net.cpp:395] conv5_4/sep_relu -> conv5_4/sep (in-place)
I0907 13:40:37.317124 23688 net.cpp:150] Setting up conv5_4/sep_relu
I0907 13:40:37.317137 23688 net.cpp:157] Top shape: 16 512 19 19 (2957312)
I0907 13:40:37.317142 23688 net.cpp:165] Memory required for data: 2301370496
I0907 13:40:37.317145 23688 layer_factory.hpp:77] Creating layer conv5_5/dw
I0907 13:40:37.317155 23688 net.cpp:100] Creating Layer conv5_5/dw
I0907 13:40:37.317159 23688 net.cpp:434] conv5_5/dw <- conv5_4/sep
I0907 13:40:37.317167 23688 net.cpp:408] conv5_5/dw -> conv5_5/dw
I0907 13:40:37.317381 23688 net.cpp:150] Setting up conv5_5/dw
I0907 13:40:37.317390 23688 net.cpp:157] Top shape: 16 512 19 19 (2957312)
I0907 13:40:37.317394 23688 net.cpp:165] Memory required for data: 2313199744
I0907 13:40:37.317401 23688 layer_factory.hpp:77] Creating layer conv5_5/dw/bn
I0907 13:40:37.317409 23688 net.cpp:100] Creating Layer conv5_5/dw/bn
I0907 13:40:37.317411 23688 net.cpp:434] conv5_5/dw/bn <- conv5_5/dw
I0907 13:40:37.317417 23688 net.cpp:395] conv5_5/dw/bn -> conv5_5/dw (in-place)
I0907 13:40:37.317592 23688 net.cpp:150] Setting up conv5_5/dw/bn
I0907 13:40:37.317600 23688 net.cpp:157] Top shape: 16 512 19 19 (2957312)
I0907 13:40:37.317605 23688 net.cpp:165] Memory required for data: 2325028992
I0907 13:40:37.317621 23688 layer_factory.hpp:77] Creating layer conv5_5/dw/scale
I0907 13:40:37.317631 23688 net.cpp:100] Creating Layer conv5_5/dw/scale
I0907 13:40:37.317634 23688 net.cpp:434] conv5_5/dw/scale <- conv5_5/dw
I0907 13:40:37.317641 23688 net.cpp:395] conv5_5/dw/scale -> conv5_5/dw (in-place)
I0907 13:40:37.317688 23688 layer_factory.hpp:77] Creating layer conv5_5/dw/scale
I0907 13:40:37.317791 23688 net.cpp:150] Setting up conv5_5/dw/scale
I0907 13:40:37.317800 23688 net.cpp:157] Top shape: 16 512 19 19 (2957312)
I0907 13:40:37.317804 23688 net.cpp:165] Memory required for data: 2336858240
I0907 13:40:37.317811 23688 layer_factory.hpp:77] Creating layer conv5_5/dw_relu
I0907 13:40:37.317817 23688 net.cpp:100] Creating Layer conv5_5/dw_relu
I0907 13:40:37.317821 23688 net.cpp:434] conv5_5/dw_relu <- conv5_5/dw
I0907 13:40:37.317826 23688 net.cpp:395] conv5_5/dw_relu -> conv5_5/dw (in-place)
I0907 13:40:37.317986 23688 net.cpp:150] Setting up conv5_5/dw_relu
I0907 13:40:37.317994 23688 net.cpp:157] Top shape: 16 512 19 19 (2957312)
I0907 13:40:37.317998 23688 net.cpp:165] Memory required for data: 2348687488
I0907 13:40:37.318003 23688 layer_factory.hpp:77] Creating layer conv5_5/sep
I0907 13:40:37.318012 23688 net.cpp:100] Creating Layer conv5_5/sep
I0907 13:40:37.318017 23688 net.cpp:434] conv5_5/sep <- conv5_5/dw
I0907 13:40:37.318024 23688 net.cpp:408] conv5_5/sep -> conv5_5/sep
I0907 13:40:37.322036 23688 net.cpp:150] Setting up conv5_5/sep
I0907 13:40:37.322051 23688 net.cpp:157] Top shape: 16 512 19 19 (2957312)
I0907 13:40:37.322055 23688 net.cpp:165] Memory required for data: 2360516736
I0907 13:40:37.322062 23688 layer_factory.hpp:77] Creating layer conv5_5/sep/bn
I0907 13:40:37.322068 23688 net.cpp:100] Creating Layer conv5_5/sep/bn
I0907 13:40:37.322072 23688 net.cpp:434] conv5_5/sep/bn <- conv5_5/sep
I0907 13:40:37.322079 23688 net.cpp:395] conv5_5/sep/bn -> conv5_5/sep (in-place)
I0907 13:40:37.322257 23688 net.cpp:150] Setting up conv5_5/sep/bn
I0907 13:40:37.322265 23688 net.cpp:157] Top shape: 16 512 19 19 (2957312)
I0907 13:40:37.322279 23688 net.cpp:165] Memory required for data: 2372345984
I0907 13:40:37.322288 23688 layer_factory.hpp:77] Creating layer conv5_5/sep/scale
I0907 13:40:37.322294 23688 net.cpp:100] Creating Layer conv5_5/sep/scale
I0907 13:40:37.322299 23688 net.cpp:434] conv5_5/sep/scale <- conv5_5/sep
I0907 13:40:37.322311 23688 net.cpp:395] conv5_5/sep/scale -> conv5_5/sep (in-place)
I0907 13:40:37.322356 23688 layer_factory.hpp:77] Creating layer conv5_5/sep/scale
I0907 13:40:37.322465 23688 net.cpp:150] Setting up conv5_5/sep/scale
I0907 13:40:37.322480 23688 net.cpp:157] Top shape: 16 512 19 19 (2957312)
I0907 13:40:37.322484 23688 net.cpp:165] Memory required for data: 2384175232
I0907 13:40:37.322492 23688 layer_factory.hpp:77] Creating layer conv5_5/sep_relu
I0907 13:40:37.322499 23688 net.cpp:100] Creating Layer conv5_5/sep_relu
I0907 13:40:37.322501 23688 net.cpp:434] conv5_5/sep_relu <- conv5_5/sep
I0907 13:40:37.322507 23688 net.cpp:395] conv5_5/sep_relu -> conv5_5/sep (in-place)
I0907 13:40:37.323118 23688 net.cpp:150] Setting up conv5_5/sep_relu
I0907 13:40:37.323132 23688 net.cpp:157] Top shape: 16 512 19 19 (2957312)
I0907 13:40:37.323137 23688 net.cpp:165] Memory required for data: 2396004480
I0907 13:40:37.323141 23688 layer_factory.hpp:77] Creating layer conv5_5/sep_conv5_5/sep_relu_0_split
I0907 13:40:37.323148 23688 net.cpp:100] Creating Layer conv5_5/sep_conv5_5/sep_relu_0_split
I0907 13:40:37.323153 23688 net.cpp:434] conv5_5/sep_conv5_5/sep_relu_0_split <- conv5_5/sep
I0907 13:40:37.323159 23688 net.cpp:408] conv5_5/sep_conv5_5/sep_relu_0_split -> conv5_5/sep_conv5_5/sep_relu_0_split_0
I0907 13:40:37.323171 23688 net.cpp:408] conv5_5/sep_conv5_5/sep_relu_0_split -> conv5_5/sep_conv5_5/sep_relu_0_split_1
I0907 13:40:37.323179 23688 net.cpp:408] conv5_5/sep_conv5_5/sep_relu_0_split -> conv5_5/sep_conv5_5/sep_relu_0_split_2
I0907 13:40:37.323186 23688 net.cpp:408] conv5_5/sep_conv5_5/sep_relu_0_split -> conv5_5/sep_conv5_5/sep_relu_0_split_3
I0907 13:40:37.323252 23688 net.cpp:150] Setting up conv5_5/sep_conv5_5/sep_relu_0_split
I0907 13:40:37.323261 23688 net.cpp:157] Top shape: 16 512 19 19 (2957312)
I0907 13:40:37.323266 23688 net.cpp:157] Top shape: 16 512 19 19 (2957312)
I0907 13:40:37.323271 23688 net.cpp:157] Top shape: 16 512 19 19 (2957312)
I0907 13:40:37.323274 23688 net.cpp:157] Top shape: 16 512 19 19 (2957312)
I0907 13:40:37.323277 23688 net.cpp:165] Memory required for data: 2443321472
I0907 13:40:37.323282 23688 layer_factory.hpp:77] Creating layer conv5_6/dw
I0907 13:40:37.323292 23688 net.cpp:100] Creating Layer conv5_6/dw
I0907 13:40:37.323295 23688 net.cpp:434] conv5_6/dw <- conv5_5/sep_conv5_5/sep_relu_0_split_0
I0907 13:40:37.323303 23688 net.cpp:408] conv5_6/dw -> conv5_6/dw
I0907 13:40:37.323505 23688 net.cpp:150] Setting up conv5_6/dw
I0907 13:40:37.323513 23688 net.cpp:157] Top shape: 16 512 10 10 (819200)
I0907 13:40:37.323518 23688 net.cpp:165] Memory required for data: 2446598272
I0907 13:40:37.323523 23688 layer_factory.hpp:77] Creating layer conv5_6/dw/bn
I0907 13:40:37.323529 23688 net.cpp:100] Creating Layer conv5_6/dw/bn
I0907 13:40:37.323534 23688 net.cpp:434] conv5_6/dw/bn <- conv5_6/dw
I0907 13:40:37.323537 23688 net.cpp:395] conv5_6/dw/bn -> conv5_6/dw (in-place)
I0907 13:40:37.323710 23688 net.cpp:150] Setting up conv5_6/dw/bn
I0907 13:40:37.323716 23688 net.cpp:157] Top shape: 16 512 10 10 (819200)
I0907 13:40:37.323720 23688 net.cpp:165] Memory required for data: 2449875072
I0907 13:40:37.323729 23688 layer_factory.hpp:77] Creating layer conv5_6/dw/scale
I0907 13:40:37.323737 23688 net.cpp:100] Creating Layer conv5_6/dw/scale
I0907 13:40:37.323741 23688 net.cpp:434] conv5_6/dw/scale <- conv5_6/dw
I0907 13:40:37.323747 23688 net.cpp:395] conv5_6/dw/scale -> conv5_6/dw (in-place)
I0907 13:40:37.323788 23688 layer_factory.hpp:77] Creating layer conv5_6/dw/scale
I0907 13:40:37.323899 23688 net.cpp:150] Setting up conv5_6/dw/scale
I0907 13:40:37.323907 23688 net.cpp:157] Top shape: 16 512 10 10 (819200)
I0907 13:40:37.323911 23688 net.cpp:165] Memory required for data: 2453151872
I0907 13:40:37.323930 23688 layer_factory.hpp:77] Creating layer conv5_6/dw_relu
I0907 13:40:37.323936 23688 net.cpp:100] Creating Layer conv5_6/dw_relu
I0907 13:40:37.323940 23688 net.cpp:434] conv5_6/dw_relu <- conv5_6/dw
I0907 13:40:37.323947 23688 net.cpp:395] conv5_6/dw_relu -> conv5_6/dw (in-place)
I0907 13:40:37.324542 23688 net.cpp:150] Setting up conv5_6/dw_relu
I0907 13:40:37.324554 23688 net.cpp:157] Top shape: 16 512 10 10 (819200)
I0907 13:40:37.324559 23688 net.cpp:165] Memory required for data: 2456428672
I0907 13:40:37.324563 23688 layer_factory.hpp:77] Creating layer conv5_6/sep
I0907 13:40:37.324574 23688 net.cpp:100] Creating Layer conv5_6/sep
I0907 13:40:37.324579 23688 net.cpp:434] conv5_6/sep <- conv5_6/dw
I0907 13:40:37.324586 23688 net.cpp:408] conv5_6/sep -> conv5_6/sep
I0907 13:40:37.330931 23688 net.cpp:150] Setting up conv5_6/sep
I0907 13:40:37.330945 23688 net.cpp:157] Top shape: 16 1024 10 10 (1638400)
I0907 13:40:37.330950 23688 net.cpp:165] Memory required for data: 2462982272
I0907 13:40:37.330956 23688 layer_factory.hpp:77] Creating layer conv5_6/sep/bn
I0907 13:40:37.330962 23688 net.cpp:100] Creating Layer conv5_6/sep/bn
I0907 13:40:37.330967 23688 net.cpp:434] conv5_6/sep/bn <- conv5_6/sep
I0907 13:40:37.330974 23688 net.cpp:395] conv5_6/sep/bn -> conv5_6/sep (in-place)
I0907 13:40:37.331157 23688 net.cpp:150] Setting up conv5_6/sep/bn
I0907 13:40:37.331166 23688 net.cpp:157] Top shape: 16 1024 10 10 (1638400)
I0907 13:40:37.331169 23688 net.cpp:165] Memory required for data: 2469535872
I0907 13:40:37.331177 23688 layer_factory.hpp:77] Creating layer conv5_6/sep/scale
I0907 13:40:37.331183 23688 net.cpp:100] Creating Layer conv5_6/sep/scale
I0907 13:40:37.331187 23688 net.cpp:434] conv5_6/sep/scale <- conv5_6/sep
I0907 13:40:37.331195 23688 net.cpp:395] conv5_6/sep/scale -> conv5_6/sep (in-place)
I0907 13:40:37.331234 23688 layer_factory.hpp:77] Creating layer conv5_6/sep/scale
I0907 13:40:37.331342 23688 net.cpp:150] Setting up conv5_6/sep/scale
I0907 13:40:37.331351 23688 net.cpp:157] Top shape: 16 1024 10 10 (1638400)
I0907 13:40:37.331356 23688 net.cpp:165] Memory required for data: 2476089472
I0907 13:40:37.331362 23688 layer_factory.hpp:77] Creating layer conv5_6/sep_relu
I0907 13:40:37.331367 23688 net.cpp:100] Creating Layer conv5_6/sep_relu
I0907 13:40:37.331372 23688 net.cpp:434] conv5_6/sep_relu <- conv5_6/sep
I0907 13:40:37.331378 23688 net.cpp:395] conv5_6/sep_relu -> conv5_6/sep (in-place)
I0907 13:40:37.331539 23688 net.cpp:150] Setting up conv5_6/sep_relu
I0907 13:40:37.331549 23688 net.cpp:157] Top shape: 16 1024 10 10 (1638400)
I0907 13:40:37.331553 23688 net.cpp:165] Memory required for data: 2482643072
I0907 13:40:37.331557 23688 layer_factory.hpp:77] Creating layer conv6/dw
I0907 13:40:37.331568 23688 net.cpp:100] Creating Layer conv6/dw
I0907 13:40:37.331573 23688 net.cpp:434] conv6/dw <- conv5_6/sep
I0907 13:40:37.331579 23688 net.cpp:408] conv6/dw -> conv6/dw
I0907 13:40:37.331835 23688 net.cpp:150] Setting up conv6/dw
I0907 13:40:37.331845 23688 net.cpp:157] Top shape: 16 1024 10 10 (1638400)
I0907 13:40:37.331848 23688 net.cpp:165] Memory required for data: 2489196672
I0907 13:40:37.331856 23688 layer_factory.hpp:77] Creating layer conv6/dw/bn
I0907 13:40:37.331861 23688 net.cpp:100] Creating Layer conv6/dw/bn
I0907 13:40:37.331864 23688 net.cpp:434] conv6/dw/bn <- conv6/dw
I0907 13:40:37.331871 23688 net.cpp:395] conv6/dw/bn -> conv6/dw (in-place)
I0907 13:40:37.332046 23688 net.cpp:150] Setting up conv6/dw/bn
I0907 13:40:37.332053 23688 net.cpp:157] Top shape: 16 1024 10 10 (1638400)
I0907 13:40:37.332057 23688 net.cpp:165] Memory required for data: 2495750272
I0907 13:40:37.332064 23688 layer_factory.hpp:77] Creating layer conv6/dw/scale
I0907 13:40:37.332070 23688 net.cpp:100] Creating Layer conv6/dw/scale
I0907 13:40:37.332074 23688 net.cpp:434] conv6/dw/scale <- conv6/dw
I0907 13:40:37.332082 23688 net.cpp:395] conv6/dw/scale -> conv6/dw (in-place)
I0907 13:40:37.332119 23688 layer_factory.hpp:77] Creating layer conv6/dw/scale
I0907 13:40:37.332237 23688 net.cpp:150] Setting up conv6/dw/scale
I0907 13:40:37.332245 23688 net.cpp:157] Top shape: 16 1024 10 10 (1638400)
I0907 13:40:37.332248 23688 net.cpp:165] Memory required for data: 2502303872
I0907 13:40:37.332257 23688 layer_factory.hpp:77] Creating layer conv6/dw_relu
I0907 13:40:37.332262 23688 net.cpp:100] Creating Layer conv6/dw_relu
I0907 13:40:37.332265 23688 net.cpp:434] conv6/dw_relu <- conv6/dw
I0907 13:40:37.332273 23688 net.cpp:395] conv6/dw_relu -> conv6/dw (in-place)
I0907 13:40:37.332873 23688 net.cpp:150] Setting up conv6/dw_relu
I0907 13:40:37.332886 23688 net.cpp:157] Top shape: 16 1024 10 10 (1638400)
I0907 13:40:37.332890 23688 net.cpp:165] Memory required for data: 2508857472
I0907 13:40:37.332895 23688 layer_factory.hpp:77] Creating layer conv6/sep
I0907 13:40:37.332906 23688 net.cpp:100] Creating Layer conv6/sep
I0907 13:40:37.332911 23688 net.cpp:434] conv6/sep <- conv6/dw
I0907 13:40:37.332918 23688 net.cpp:408] conv6/sep -> conv6/sep
I0907 13:40:37.343818 23688 net.cpp:150] Setting up conv6/sep
I0907 13:40:37.343832 23688 net.cpp:157] Top shape: 16 1024 10 10 (1638400)
I0907 13:40:37.343837 23688 net.cpp:165] Memory required for data: 2515411072
I0907 13:40:37.343843 23688 layer_factory.hpp:77] Creating layer conv6/sep/bn
I0907 13:40:37.343852 23688 net.cpp:100] Creating Layer conv6/sep/bn
I0907 13:40:37.343855 23688 net.cpp:434] conv6/sep/bn <- conv6/sep
I0907 13:40:37.343863 23688 net.cpp:395] conv6/sep/bn -> conv6/sep (in-place)
I0907 13:40:37.344046 23688 net.cpp:150] Setting up conv6/sep/bn
I0907 13:40:37.344054 23688 net.cpp:157] Top shape: 16 1024 10 10 (1638400)
I0907 13:40:37.344059 23688 net.cpp:165] Memory required for data: 2521964672
I0907 13:40:37.344068 23688 layer_factory.hpp:77] Creating layer conv6/sep/scale
I0907 13:40:37.344075 23688 net.cpp:100] Creating Layer conv6/sep/scale
I0907 13:40:37.344079 23688 net.cpp:434] conv6/sep/scale <- conv6/sep
I0907 13:40:37.344085 23688 net.cpp:395] conv6/sep/scale -> conv6/sep (in-place)
I0907 13:40:37.344127 23688 layer_factory.hpp:77] Creating layer conv6/sep/scale
I0907 13:40:37.344238 23688 net.cpp:150] Setting up conv6/sep/scale
I0907 13:40:37.344246 23688 net.cpp:157] Top shape: 16 1024 10 10 (1638400)
I0907 13:40:37.344250 23688 net.cpp:165] Memory required for data: 2528518272
I0907 13:40:37.344257 23688 layer_factory.hpp:77] Creating layer conv6/sep_relu
I0907 13:40:37.344264 23688 net.cpp:100] Creating Layer conv6/sep_relu
I0907 13:40:37.344267 23688 net.cpp:434] conv6/sep_relu <- conv6/sep
I0907 13:40:37.344274 23688 net.cpp:395] conv6/sep_relu -> conv6/sep (in-place)
I0907 13:40:37.344429 23688 net.cpp:150] Setting up conv6/sep_relu
I0907 13:40:37.344439 23688 net.cpp:157] Top shape: 16 1024 10 10 (1638400)
I0907 13:40:37.344444 23688 net.cpp:165] Memory required for data: 2535071872
I0907 13:40:37.344447 23688 layer_factory.hpp:77] Creating layer conv6/sep_conv6/sep_relu_0_split
I0907 13:40:37.344456 23688 net.cpp:100] Creating Layer conv6/sep_conv6/sep_relu_0_split
I0907 13:40:37.344460 23688 net.cpp:434] conv6/sep_conv6/sep_relu_0_split <- conv6/sep
I0907 13:40:37.344468 23688 net.cpp:408] conv6/sep_conv6/sep_relu_0_split -> conv6/sep_conv6/sep_relu_0_split_0
I0907 13:40:37.344476 23688 net.cpp:408] conv6/sep_conv6/sep_relu_0_split -> conv6/sep_conv6/sep_relu_0_split_1
I0907 13:40:37.344483 23688 net.cpp:408] conv6/sep_conv6/sep_relu_0_split -> conv6/sep_conv6/sep_relu_0_split_2
I0907 13:40:37.344489 23688 net.cpp:408] conv6/sep_conv6/sep_relu_0_split -> conv6/sep_conv6/sep_relu_0_split_3
I0907 13:40:37.344555 23688 net.cpp:150] Setting up conv6/sep_conv6/sep_relu_0_split
I0907 13:40:37.344563 23688 net.cpp:157] Top shape: 16 1024 10 10 (1638400)
I0907 13:40:37.344568 23688 net.cpp:157] Top shape: 16 1024 10 10 (1638400)
I0907 13:40:37.344573 23688 net.cpp:157] Top shape: 16 1024 10 10 (1638400)
I0907 13:40:37.344578 23688 net.cpp:157] Top shape: 16 1024 10 10 (1638400)
I0907 13:40:37.344580 23688 net.cpp:165] Memory required for data: 2561286272
I0907 13:40:37.344585 23688 layer_factory.hpp:77] Creating layer conv7_1
I0907 13:40:37.344606 23688 net.cpp:100] Creating Layer conv7_1
I0907 13:40:37.344611 23688 net.cpp:434] conv7_1 <- conv6/sep_conv6/sep_relu_0_split_0
I0907 13:40:37.344619 23688 net.cpp:408] conv7_1 -> conv7_1
I0907 13:40:37.347769 23688 net.cpp:150] Setting up conv7_1
I0907 13:40:37.347786 23688 net.cpp:157] Top shape: 16 256 10 10 (409600)
I0907 13:40:37.347790 23688 net.cpp:165] Memory required for data: 2562924672
I0907 13:40:37.347798 23688 layer_factory.hpp:77] Creating layer conv7_1_relu
I0907 13:40:37.347805 23688 net.cpp:100] Creating Layer conv7_1_relu
I0907 13:40:37.347810 23688 net.cpp:434] conv7_1_relu <- conv7_1
I0907 13:40:37.347815 23688 net.cpp:395] conv7_1_relu -> conv7_1 (in-place)
I0907 13:40:37.348426 23688 net.cpp:150] Setting up conv7_1_relu
I0907 13:40:37.348438 23688 net.cpp:157] Top shape: 16 256 10 10 (409600)
I0907 13:40:37.348443 23688 net.cpp:165] Memory required for data: 2564563072
I0907 13:40:37.348448 23688 layer_factory.hpp:77] Creating layer conv7_2
I0907 13:40:37.348459 23688 net.cpp:100] Creating Layer conv7_2
I0907 13:40:37.348462 23688 net.cpp:434] conv7_2 <- conv7_1
I0907 13:40:37.348470 23688 net.cpp:408] conv7_2 -> conv7_2
I0907 13:40:37.356007 23688 net.cpp:150] Setting up conv7_2
I0907 13:40:37.356020 23688 net.cpp:157] Top shape: 16 512 5 5 (204800)
I0907 13:40:37.356025 23688 net.cpp:165] Memory required for data: 2565382272
I0907 13:40:37.356034 23688 layer_factory.hpp:77] Creating layer conv7_2_relu
I0907 13:40:37.356040 23688 net.cpp:100] Creating Layer conv7_2_relu
I0907 13:40:37.356045 23688 net.cpp:434] conv7_2_relu <- conv7_2
I0907 13:40:37.356051 23688 net.cpp:395] conv7_2_relu -> conv7_2 (in-place)
I0907 13:40:37.356652 23688 net.cpp:150] Setting up conv7_2_relu
I0907 13:40:37.356663 23688 net.cpp:157] Top shape: 16 512 5 5 (204800)
I0907 13:40:37.356668 23688 net.cpp:165] Memory required for data: 2566201472
I0907 13:40:37.356673 23688 layer_factory.hpp:77] Creating layer conv7_2_conv7_2_relu_0_split
I0907 13:40:37.356680 23688 net.cpp:100] Creating Layer conv7_2_conv7_2_relu_0_split
I0907 13:40:37.356684 23688 net.cpp:434] conv7_2_conv7_2_relu_0_split <- conv7_2
I0907 13:40:37.356693 23688 net.cpp:408] conv7_2_conv7_2_relu_0_split -> conv7_2_conv7_2_relu_0_split_0
I0907 13:40:37.356700 23688 net.cpp:408] conv7_2_conv7_2_relu_0_split -> conv7_2_conv7_2_relu_0_split_1
I0907 13:40:37.356708 23688 net.cpp:408] conv7_2_conv7_2_relu_0_split -> conv7_2_conv7_2_relu_0_split_2
I0907 13:40:37.356714 23688 net.cpp:408] conv7_2_conv7_2_relu_0_split -> conv7_2_conv7_2_relu_0_split_3
I0907 13:40:37.356783 23688 net.cpp:150] Setting up conv7_2_conv7_2_relu_0_split
I0907 13:40:37.356791 23688 net.cpp:157] Top shape: 16 512 5 5 (204800)
I0907 13:40:37.356796 23688 net.cpp:157] Top shape: 16 512 5 5 (204800)
I0907 13:40:37.356799 23688 net.cpp:157] Top shape: 16 512 5 5 (204800)
I0907 13:40:37.356804 23688 net.cpp:157] Top shape: 16 512 5 5 (204800)
I0907 13:40:37.356808 23688 net.cpp:165] Memory required for data: 2569478272
I0907 13:40:37.356812 23688 layer_factory.hpp:77] Creating layer conv8_1
I0907 13:40:37.356822 23688 net.cpp:100] Creating Layer conv8_1
I0907 13:40:37.356827 23688 net.cpp:434] conv8_1 <- conv7_2_conv7_2_relu_0_split_0
I0907 13:40:37.356835 23688 net.cpp:408] conv8_1 -> conv8_1
I0907 13:40:37.358754 23688 net.cpp:150] Setting up conv8_1
I0907 13:40:37.358769 23688 net.cpp:157] Top shape: 16 128 5 5 (51200)
I0907 13:40:37.358774 23688 net.cpp:165] Memory required for data: 2569683072
I0907 13:40:37.358783 23688 layer_factory.hpp:77] Creating layer conv8_1_relu
I0907 13:40:37.358788 23688 net.cpp:100] Creating Layer conv8_1_relu
I0907 13:40:37.358793 23688 net.cpp:434] conv8_1_relu <- conv8_1
I0907 13:40:37.358798 23688 net.cpp:395] conv8_1_relu -> conv8_1 (in-place)
I0907 13:40:37.358958 23688 net.cpp:150] Setting up conv8_1_relu
I0907 13:40:37.358968 23688 net.cpp:157] Top shape: 16 128 5 5 (51200)
I0907 13:40:37.358973 23688 net.cpp:165] Memory required for data: 2569887872
I0907 13:40:37.358978 23688 layer_factory.hpp:77] Creating layer conv8_2
I0907 13:40:37.358999 23688 net.cpp:100] Creating Layer conv8_2
I0907 13:40:37.359004 23688 net.cpp:434] conv8_2 <- conv8_1
I0907 13:40:37.359012 23688 net.cpp:408] conv8_2 -> conv8_2
I0907 13:40:37.362360 23688 net.cpp:150] Setting up conv8_2
I0907 13:40:37.362373 23688 net.cpp:157] Top shape: 16 256 3 3 (36864)
I0907 13:40:37.362378 23688 net.cpp:165] Memory required for data: 2570035328
I0907 13:40:37.362386 23688 layer_factory.hpp:77] Creating layer conv8_2_relu
I0907 13:40:37.362392 23688 net.cpp:100] Creating Layer conv8_2_relu
I0907 13:40:37.362396 23688 net.cpp:434] conv8_2_relu <- conv8_2
I0907 13:40:37.362404 23688 net.cpp:395] conv8_2_relu -> conv8_2 (in-place)
I0907 13:40:37.363010 23688 net.cpp:150] Setting up conv8_2_relu
I0907 13:40:37.363023 23688 net.cpp:157] Top shape: 16 256 3 3 (36864)
I0907 13:40:37.363028 23688 net.cpp:165] Memory required for data: 2570182784
I0907 13:40:37.363032 23688 layer_factory.hpp:77] Creating layer conv8_2_conv8_2_relu_0_split
I0907 13:40:37.363040 23688 net.cpp:100] Creating Layer conv8_2_conv8_2_relu_0_split
I0907 13:40:37.363044 23688 net.cpp:434] conv8_2_conv8_2_relu_0_split <- conv8_2
I0907 13:40:37.363052 23688 net.cpp:408] conv8_2_conv8_2_relu_0_split -> conv8_2_conv8_2_relu_0_split_0
I0907 13:40:37.363060 23688 net.cpp:408] conv8_2_conv8_2_relu_0_split -> conv8_2_conv8_2_relu_0_split_1
I0907 13:40:37.363067 23688 net.cpp:408] conv8_2_conv8_2_relu_0_split -> conv8_2_conv8_2_relu_0_split_2
I0907 13:40:37.363073 23688 net.cpp:408] conv8_2_conv8_2_relu_0_split -> conv8_2_conv8_2_relu_0_split_3
I0907 13:40:37.363144 23688 net.cpp:150] Setting up conv8_2_conv8_2_relu_0_split
I0907 13:40:37.363152 23688 net.cpp:157] Top shape: 16 256 3 3 (36864)
I0907 13:40:37.363157 23688 net.cpp:157] Top shape: 16 256 3 3 (36864)
I0907 13:40:37.363162 23688 net.cpp:157] Top shape: 16 256 3 3 (36864)
I0907 13:40:37.363167 23688 net.cpp:157] Top shape: 16 256 3 3 (36864)
I0907 13:40:37.363169 23688 net.cpp:165] Memory required for data: 2570772608
I0907 13:40:37.363174 23688 layer_factory.hpp:77] Creating layer conv9_1
I0907 13:40:37.363185 23688 net.cpp:100] Creating Layer conv9_1
I0907 13:40:37.363189 23688 net.cpp:434] conv9_1 <- conv8_2_conv8_2_relu_0_split_0
I0907 13:40:37.363198 23688 net.cpp:408] conv9_1 -> conv9_1
I0907 13:40:37.364511 23688 net.cpp:150] Setting up conv9_1
I0907 13:40:37.364524 23688 net.cpp:157] Top shape: 16 128 3 3 (18432)
I0907 13:40:37.364529 23688 net.cpp:165] Memory required for data: 2570846336
I0907 13:40:37.364537 23688 layer_factory.hpp:77] Creating layer conv9_1_relu
I0907 13:40:37.364543 23688 net.cpp:100] Creating Layer conv9_1_relu
I0907 13:40:37.364547 23688 net.cpp:434] conv9_1_relu <- conv9_1
I0907 13:40:37.364554 23688 net.cpp:395] conv9_1_relu -> conv9_1 (in-place)
I0907 13:40:37.365156 23688 net.cpp:150] Setting up conv9_1_relu
I0907 13:40:37.365169 23688 net.cpp:157] Top shape: 16 128 3 3 (18432)
I0907 13:40:37.365173 23688 net.cpp:165] Memory required for data: 2570920064
I0907 13:40:37.365177 23688 layer_factory.hpp:77] Creating layer conv9_2
I0907 13:40:37.365188 23688 net.cpp:100] Creating Layer conv9_2
I0907 13:40:37.365192 23688 net.cpp:434] conv9_2 <- conv9_1
I0907 13:40:37.365200 23688 net.cpp:408] conv9_2 -> conv9_2
I0907 13:40:37.368973 23688 net.cpp:150] Setting up conv9_2
I0907 13:40:37.368985 23688 net.cpp:157] Top shape: 16 256 2 2 (16384)
I0907 13:40:37.368990 23688 net.cpp:165] Memory required for data: 2570985600
I0907 13:40:37.368999 23688 layer_factory.hpp:77] Creating layer conv9_2_relu
I0907 13:40:37.369004 23688 net.cpp:100] Creating Layer conv9_2_relu
I0907 13:40:37.369009 23688 net.cpp:434] conv9_2_relu <- conv9_2
I0907 13:40:37.369016 23688 net.cpp:395] conv9_2_relu -> conv9_2 (in-place)
I0907 13:40:37.369184 23688 net.cpp:150] Setting up conv9_2_relu
I0907 13:40:37.369194 23688 net.cpp:157] Top shape: 16 256 2 2 (16384)
I0907 13:40:37.369199 23688 net.cpp:165] Memory required for data: 2571051136
I0907 13:40:37.369204 23688 layer_factory.hpp:77] Creating layer conv9_2_conv9_2_relu_0_split
I0907 13:40:37.369210 23688 net.cpp:100] Creating Layer conv9_2_conv9_2_relu_0_split
I0907 13:40:37.369225 23688 net.cpp:434] conv9_2_conv9_2_relu_0_split <- conv9_2
I0907 13:40:37.369233 23688 net.cpp:408] conv9_2_conv9_2_relu_0_split -> conv9_2_conv9_2_relu_0_split_0
I0907 13:40:37.369242 23688 net.cpp:408] conv9_2_conv9_2_relu_0_split -> conv9_2_conv9_2_relu_0_split_1
I0907 13:40:37.369249 23688 net.cpp:408] conv9_2_conv9_2_relu_0_split -> conv9_2_conv9_2_relu_0_split_2
I0907 13:40:37.369256 23688 net.cpp:408] conv9_2_conv9_2_relu_0_split -> conv9_2_conv9_2_relu_0_split_3
I0907 13:40:37.369325 23688 net.cpp:150] Setting up conv9_2_conv9_2_relu_0_split
I0907 13:40:37.369334 23688 net.cpp:157] Top shape: 16 256 2 2 (16384)
I0907 13:40:37.369340 23688 net.cpp:157] Top shape: 16 256 2 2 (16384)
I0907 13:40:37.369344 23688 net.cpp:157] Top shape: 16 256 2 2 (16384)
I0907 13:40:37.369349 23688 net.cpp:157] Top shape: 16 256 2 2 (16384)
I0907 13:40:37.369352 23688 net.cpp:165] Memory required for data: 2571313280
I0907 13:40:37.369356 23688 layer_factory.hpp:77] Creating layer conv10_1
I0907 13:40:37.369366 23688 net.cpp:100] Creating Layer conv10_1
I0907 13:40:37.369371 23688 net.cpp:434] conv10_1 <- conv9_2_conv9_2_relu_0_split_0
I0907 13:40:37.369380 23688 net.cpp:408] conv10_1 -> conv10_1
I0907 13:40:37.371152 23688 net.cpp:150] Setting up conv10_1
I0907 13:40:37.371165 23688 net.cpp:157] Top shape: 16 128 2 2 (8192)
I0907 13:40:37.371170 23688 net.cpp:165] Memory required for data: 2571346048
I0907 13:40:37.371178 23688 layer_factory.hpp:77] Creating layer conv10_1_relu
I0907 13:40:37.371201 23688 net.cpp:100] Creating Layer conv10_1_relu
I0907 13:40:37.371204 23688 net.cpp:434] conv10_1_relu <- conv10_1
I0907 13:40:37.371210 23688 net.cpp:395] conv10_1_relu -> conv10_1 (in-place)
I0907 13:40:37.371816 23688 net.cpp:150] Setting up conv10_1_relu
I0907 13:40:37.371829 23688 net.cpp:157] Top shape: 16 128 2 2 (8192)
I0907 13:40:37.371834 23688 net.cpp:165] Memory required for data: 2571378816
I0907 13:40:37.371840 23688 layer_factory.hpp:77] Creating layer conv10_2
I0907 13:40:37.371850 23688 net.cpp:100] Creating Layer conv10_2
I0907 13:40:37.371855 23688 net.cpp:434] conv10_2 <- conv10_1
I0907 13:40:37.371861 23688 net.cpp:408] conv10_2 -> conv10_2
I0907 13:40:37.374807 23688 net.cpp:150] Setting up conv10_2
I0907 13:40:37.374820 23688 net.cpp:157] Top shape: 16 256 1 1 (4096)
I0907 13:40:37.374825 23688 net.cpp:165] Memory required for data: 2571395200
I0907 13:40:37.374833 23688 layer_factory.hpp:77] Creating layer conv10_2_relu
I0907 13:40:37.374840 23688 net.cpp:100] Creating Layer conv10_2_relu
I0907 13:40:37.374843 23688 net.cpp:434] conv10_2_relu <- conv10_2
I0907 13:40:37.374851 23688 net.cpp:395] conv10_2_relu -> conv10_2 (in-place)
I0907 13:40:37.375455 23688 net.cpp:150] Setting up conv10_2_relu
I0907 13:40:37.375468 23688 net.cpp:157] Top shape: 16 256 1 1 (4096)
I0907 13:40:37.375473 23688 net.cpp:165] Memory required for data: 2571411584
I0907 13:40:37.375478 23688 layer_factory.hpp:77] Creating layer conv10_2_conv10_2_relu_0_split
I0907 13:40:37.375486 23688 net.cpp:100] Creating Layer conv10_2_conv10_2_relu_0_split
I0907 13:40:37.375489 23688 net.cpp:434] conv10_2_conv10_2_relu_0_split <- conv10_2
I0907 13:40:37.375496 23688 net.cpp:408] conv10_2_conv10_2_relu_0_split -> conv10_2_conv10_2_relu_0_split_0
I0907 13:40:37.375512 23688 net.cpp:408] conv10_2_conv10_2_relu_0_split -> conv10_2_conv10_2_relu_0_split_1
I0907 13:40:37.375519 23688 net.cpp:408] conv10_2_conv10_2_relu_0_split -> conv10_2_conv10_2_relu_0_split_2
I0907 13:40:37.375578 23688 net.cpp:150] Setting up conv10_2_conv10_2_relu_0_split
I0907 13:40:37.375589 23688 net.cpp:157] Top shape: 16 256 1 1 (4096)
I0907 13:40:37.375594 23688 net.cpp:157] Top shape: 16 256 1 1 (4096)
I0907 13:40:37.375598 23688 net.cpp:157] Top shape: 16 256 1 1 (4096)
I0907 13:40:37.375602 23688 net.cpp:165] Memory required for data: 2571460736
I0907 13:40:37.375607 23688 layer_factory.hpp:77] Creating layer conv5_5/sep_mbox_loc
I0907 13:40:37.375615 23688 net.cpp:100] Creating Layer conv5_5/sep_mbox_loc
I0907 13:40:37.375629 23688 net.cpp:434] conv5_5/sep_mbox_loc <- conv5_5/sep_conv5_5/sep_relu_0_split_1
I0907 13:40:37.375639 23688 net.cpp:408] conv5_5/sep_mbox_loc -> conv5_5/sep_mbox_loc
I0907 13:40:37.377945 23688 net.cpp:150] Setting up conv5_5/sep_mbox_loc
I0907 13:40:37.377957 23688 net.cpp:157] Top shape: 16 12 19 19 (69312)
I0907 13:40:37.377961 23688 net.cpp:165] Memory required for data: 2571737984
I0907 13:40:37.377969 23688 layer_factory.hpp:77] Creating layer conv5_5/sep_mbox_loc_perm
I0907 13:40:37.377980 23688 net.cpp:100] Creating Layer conv5_5/sep_mbox_loc_perm
I0907 13:40:37.377985 23688 net.cpp:434] conv5_5/sep_mbox_loc_perm <- conv5_5/sep_mbox_loc
I0907 13:40:37.377995 23688 net.cpp:408] conv5_5/sep_mbox_loc_perm -> conv5_5/sep_mbox_loc_perm
I0907 13:40:37.378105 23688 net.cpp:150] Setting up conv5_5/sep_mbox_loc_perm
I0907 13:40:37.378114 23688 net.cpp:157] Top shape: 16 19 19 12 (69312)
I0907 13:40:37.378118 23688 net.cpp:165] Memory required for data: 2572015232
I0907 13:40:37.378123 23688 layer_factory.hpp:77] Creating layer conv5_5/sep_mbox_loc_flat
I0907 13:40:37.378139 23688 net.cpp:100] Creating Layer conv5_5/sep_mbox_loc_flat
I0907 13:40:37.378144 23688 net.cpp:434] conv5_5/sep_mbox_loc_flat <- conv5_5/sep_mbox_loc_perm
I0907 13:40:37.378150 23688 net.cpp:408] conv5_5/sep_mbox_loc_flat -> conv5_5/sep_mbox_loc_flat
I0907 13:40:37.378183 23688 net.cpp:150] Setting up conv5_5/sep_mbox_loc_flat
I0907 13:40:37.378190 23688 net.cpp:157] Top shape: 16 4332 (69312)
I0907 13:40:37.378195 23688 net.cpp:165] Memory required for data: 2572292480
I0907 13:40:37.378198 23688 layer_factory.hpp:77] Creating layer conv5_5/sep_mbox_conf
I0907 13:40:37.378208 23688 net.cpp:100] Creating Layer conv5_5/sep_mbox_conf
I0907 13:40:37.378213 23688 net.cpp:434] conv5_5/sep_mbox_conf <- conv5_5/sep_conv5_5/sep_relu_0_split_2
I0907 13:40:37.378221 23688 net.cpp:408] conv5_5/sep_mbox_conf -> conv5_5/sep_mbox_conf
I0907 13:40:37.380934 23688 net.cpp:150] Setting up conv5_5/sep_mbox_conf
I0907 13:40:37.380946 23688 net.cpp:157] Top shape: 16 12 19 19 (69312)
I0907 13:40:37.380951 23688 net.cpp:165] Memory required for data: 2572569728
I0907 13:40:37.380959 23688 layer_factory.hpp:77] Creating layer conv5_5/sep_mbox_conf_perm
I0907 13:40:37.380967 23688 net.cpp:100] Creating Layer conv5_5/sep_mbox_conf_perm
I0907 13:40:37.380971 23688 net.cpp:434] conv5_5/sep_mbox_conf_perm <- conv5_5/sep_mbox_conf
I0907 13:40:37.380977 23688 net.cpp:408] conv5_5/sep_mbox_conf_perm -> conv5_5/sep_mbox_conf_perm
I0907 13:40:37.381086 23688 net.cpp:150] Setting up conv5_5/sep_mbox_conf_perm
I0907 13:40:37.381094 23688 net.cpp:157] Top shape: 16 19 19 12 (69312)
I0907 13:40:37.381098 23688 net.cpp:165] Memory required for data: 2572846976
I0907 13:40:37.381103 23688 layer_factory.hpp:77] Creating layer conv5_5/sep_mbox_conf_flat
I0907 13:40:37.381114 23688 net.cpp:100] Creating Layer conv5_5/sep_mbox_conf_flat
I0907 13:40:37.381117 23688 net.cpp:434] conv5_5/sep_mbox_conf_flat <- conv5_5/sep_mbox_conf_perm
I0907 13:40:37.381124 23688 net.cpp:408] conv5_5/sep_mbox_conf_flat -> conv5_5/sep_mbox_conf_flat
I0907 13:40:37.381156 23688 net.cpp:150] Setting up conv5_5/sep_mbox_conf_flat
I0907 13:40:37.381162 23688 net.cpp:157] Top shape: 16 4332 (69312)
I0907 13:40:37.381166 23688 net.cpp:165] Memory required for data: 2573124224
I0907 13:40:37.381170 23688 layer_factory.hpp:77] Creating layer conv5_5/sep_mbox_priorbox
I0907 13:40:37.381181 23688 net.cpp:100] Creating Layer conv5_5/sep_mbox_priorbox
I0907 13:40:37.381186 23688 net.cpp:434] conv5_5/sep_mbox_priorbox <- conv5_5/sep_conv5_5/sep_relu_0_split_3
I0907 13:40:37.381191 23688 net.cpp:434] conv5_5/sep_mbox_priorbox <- data_data_0_split_1
I0907 13:40:37.381197 23688 net.cpp:408] conv5_5/sep_mbox_priorbox -> conv5_5/sep_mbox_priorbox
I0907 13:40:37.381232 23688 net.cpp:150] Setting up conv5_5/sep_mbox_priorbox
I0907 13:40:37.381239 23688 net.cpp:157] Top shape: 1 2 4332 (8664)
I0907 13:40:37.381243 23688 net.cpp:165] Memory required for data: 2573158880
I0907 13:40:37.381247 23688 layer_factory.hpp:77] Creating layer conv6/sep_mbox_loc
I0907 13:40:37.381268 23688 net.cpp:100] Creating Layer conv6/sep_mbox_loc
I0907 13:40:37.381273 23688 net.cpp:434] conv6/sep_mbox_loc <- conv6/sep_conv6/sep_relu_0_split_1
I0907 13:40:37.381281 23688 net.cpp:408] conv6/sep_mbox_loc -> conv6/sep_mbox_loc
I0907 13:40:37.384295 23688 net.cpp:150] Setting up conv6/sep_mbox_loc
I0907 13:40:37.384308 23688 net.cpp:157] Top shape: 16 24 10 10 (38400)
I0907 13:40:37.384313 23688 net.cpp:165] Memory required for data: 2573312480
I0907 13:40:37.384321 23688 layer_factory.hpp:77] Creating layer conv6/sep_mbox_loc_perm
I0907 13:40:37.384330 23688 net.cpp:100] Creating Layer conv6/sep_mbox_loc_perm
I0907 13:40:37.384335 23688 net.cpp:434] conv6/sep_mbox_loc_perm <- conv6/sep_mbox_loc
I0907 13:40:37.384341 23688 net.cpp:408] conv6/sep_mbox_loc_perm -> conv6/sep_mbox_loc_perm
I0907 13:40:37.384450 23688 net.cpp:150] Setting up conv6/sep_mbox_loc_perm
I0907 13:40:37.384459 23688 net.cpp:157] Top shape: 16 10 10 24 (38400)
I0907 13:40:37.384464 23688 net.cpp:165] Memory required for data: 2573466080
I0907 13:40:37.384469 23688 layer_factory.hpp:77] Creating layer conv6/sep_mbox_loc_flat
I0907 13:40:37.384476 23688 net.cpp:100] Creating Layer conv6/sep_mbox_loc_flat
I0907 13:40:37.384480 23688 net.cpp:434] conv6/sep_mbox_loc_flat <- conv6/sep_mbox_loc_perm
I0907 13:40:37.384486 23688 net.cpp:408] conv6/sep_mbox_loc_flat -> conv6/sep_mbox_loc_flat
I0907 13:40:37.384516 23688 net.cpp:150] Setting up conv6/sep_mbox_loc_flat
I0907 13:40:37.384523 23688 net.cpp:157] Top shape: 16 2400 (38400)
I0907 13:40:37.384527 23688 net.cpp:165] Memory required for data: 2573619680
I0907 13:40:37.384531 23688 layer_factory.hpp:77] Creating layer conv6/sep_mbox_conf
I0907 13:40:37.384542 23688 net.cpp:100] Creating Layer conv6/sep_mbox_conf
I0907 13:40:37.384546 23688 net.cpp:434] conv6/sep_mbox_conf <- conv6/sep_conv6/sep_relu_0_split_2
I0907 13:40:37.384555 23688 net.cpp:408] conv6/sep_mbox_conf -> conv6/sep_mbox_conf
I0907 13:40:37.388015 23688 net.cpp:150] Setting up conv6/sep_mbox_conf
I0907 13:40:37.388026 23688 net.cpp:157] Top shape: 16 24 10 10 (38400)
I0907 13:40:37.388028 23688 net.cpp:165] Memory required for data: 2573773280
I0907 13:40:37.388034 23688 layer_factory.hpp:77] Creating layer conv6/sep_mbox_conf_perm
I0907 13:40:37.388041 23688 net.cpp:100] Creating Layer conv6/sep_mbox_conf_perm
I0907 13:40:37.388043 23688 net.cpp:434] conv6/sep_mbox_conf_perm <- conv6/sep_mbox_conf
I0907 13:40:37.388047 23688 net.cpp:408] conv6/sep_mbox_conf_perm -> conv6/sep_mbox_conf_perm
I0907 13:40:37.388155 23688 net.cpp:150] Setting up conv6/sep_mbox_conf_perm
I0907 13:40:37.388162 23688 net.cpp:157] Top shape: 16 10 10 24 (38400)
I0907 13:40:37.388165 23688 net.cpp:165] Memory required for data: 2573926880
I0907 13:40:37.388170 23688 layer_factory.hpp:77] Creating layer conv6/sep_mbox_conf_flat
I0907 13:40:37.388180 23688 net.cpp:100] Creating Layer conv6/sep_mbox_conf_flat
I0907 13:40:37.388183 23688 net.cpp:434] conv6/sep_mbox_conf_flat <- conv6/sep_mbox_conf_perm
I0907 13:40:37.388190 23688 net.cpp:408] conv6/sep_mbox_conf_flat -> conv6/sep_mbox_conf_flat
I0907 13:40:37.388222 23688 net.cpp:150] Setting up conv6/sep_mbox_conf_flat
I0907 13:40:37.388229 23688 net.cpp:157] Top shape: 16 2400 (38400)
I0907 13:40:37.388233 23688 net.cpp:165] Memory required for data: 2574080480
I0907 13:40:37.388237 23688 layer_factory.hpp:77] Creating layer conv6/sep_mbox_priorbox
I0907 13:40:37.388245 23688 net.cpp:100] Creating Layer conv6/sep_mbox_priorbox
I0907 13:40:37.388249 23688 net.cpp:434] conv6/sep_mbox_priorbox <- conv6/sep_conv6/sep_relu_0_split_3
I0907 13:40:37.388255 23688 net.cpp:434] conv6/sep_mbox_priorbox <- data_data_0_split_2
I0907 13:40:37.388262 23688 net.cpp:408] conv6/sep_mbox_priorbox -> conv6/sep_mbox_priorbox
I0907 13:40:37.388293 23688 net.cpp:150] Setting up conv6/sep_mbox_priorbox
I0907 13:40:37.388300 23688 net.cpp:157] Top shape: 1 2 2400 (4800)
I0907 13:40:37.388304 23688 net.cpp:165] Memory required for data: 2574099680
I0907 13:40:37.388319 23688 layer_factory.hpp:77] Creating layer conv7_2_mbox_loc
I0907 13:40:37.388329 23688 net.cpp:100] Creating Layer conv7_2_mbox_loc
I0907 13:40:37.388334 23688 net.cpp:434] conv7_2_mbox_loc <- conv7_2_conv7_2_relu_0_split_1
I0907 13:40:37.388342 23688 net.cpp:408] conv7_2_mbox_loc -> conv7_2_mbox_loc
I0907 13:40:37.390936 23688 net.cpp:150] Setting up conv7_2_mbox_loc
I0907 13:40:37.390950 23688 net.cpp:157] Top shape: 16 24 5 5 (9600)
I0907 13:40:37.390954 23688 net.cpp:165] Memory required for data: 2574138080
I0907 13:40:37.390964 23688 layer_factory.hpp:77] Creating layer conv7_2_mbox_loc_perm
I0907 13:40:37.390969 23688 net.cpp:100] Creating Layer conv7_2_mbox_loc_perm
I0907 13:40:37.390974 23688 net.cpp:434] conv7_2_mbox_loc_perm <- conv7_2_mbox_loc
I0907 13:40:37.390981 23688 net.cpp:408] conv7_2_mbox_loc_perm -> conv7_2_mbox_loc_perm
I0907 13:40:37.391095 23688 net.cpp:150] Setting up conv7_2_mbox_loc_perm
I0907 13:40:37.391104 23688 net.cpp:157] Top shape: 16 5 5 24 (9600)
I0907 13:40:37.391108 23688 net.cpp:165] Memory required for data: 2574176480
I0907 13:40:37.391113 23688 layer_factory.hpp:77] Creating layer conv7_2_mbox_loc_flat
I0907 13:40:37.391119 23688 net.cpp:100] Creating Layer conv7_2_mbox_loc_flat
I0907 13:40:37.391124 23688 net.cpp:434] conv7_2_mbox_loc_flat <- conv7_2_mbox_loc_perm
I0907 13:40:37.391130 23688 net.cpp:408] conv7_2_mbox_loc_flat -> conv7_2_mbox_loc_flat
I0907 13:40:37.391161 23688 net.cpp:150] Setting up conv7_2_mbox_loc_flat
I0907 13:40:37.391168 23688 net.cpp:157] Top shape: 16 600 (9600)
I0907 13:40:37.391172 23688 net.cpp:165] Memory required for data: 2574214880
I0907 13:40:37.391177 23688 layer_factory.hpp:77] Creating layer conv7_2_mbox_conf
I0907 13:40:37.391186 23688 net.cpp:100] Creating Layer conv7_2_mbox_conf
I0907 13:40:37.391191 23688 net.cpp:434] conv7_2_mbox_conf <- conv7_2_conv7_2_relu_0_split_2
I0907 13:40:37.391199 23688 net.cpp:408] conv7_2_mbox_conf -> conv7_2_mbox_conf
I0907 13:40:37.394204 23688 net.cpp:150] Setting up conv7_2_mbox_conf
I0907 13:40:37.394217 23688 net.cpp:157] Top shape: 16 24 5 5 (9600)
I0907 13:40:37.394222 23688 net.cpp:165] Memory required for data: 2574253280
I0907 13:40:37.394230 23688 layer_factory.hpp:77] Creating layer conv7_2_mbox_conf_perm
I0907 13:40:37.394238 23688 net.cpp:100] Creating Layer conv7_2_mbox_conf_perm
I0907 13:40:37.394243 23688 net.cpp:434] conv7_2_mbox_conf_perm <- conv7_2_mbox_conf
I0907 13:40:37.394249 23688 net.cpp:408] conv7_2_mbox_conf_perm -> conv7_2_mbox_conf_perm
I0907 13:40:37.394369 23688 net.cpp:150] Setting up conv7_2_mbox_conf_perm
I0907 13:40:37.394378 23688 net.cpp:157] Top shape: 16 5 5 24 (9600)
I0907 13:40:37.394382 23688 net.cpp:165] Memory required for data: 2574291680
I0907 13:40:37.394387 23688 layer_factory.hpp:77] Creating layer conv7_2_mbox_conf_flat
I0907 13:40:37.394398 23688 net.cpp:100] Creating Layer conv7_2_mbox_conf_flat
I0907 13:40:37.394402 23688 net.cpp:434] conv7_2_mbox_conf_flat <- conv7_2_mbox_conf_perm
I0907 13:40:37.394409 23688 net.cpp:408] conv7_2_mbox_conf_flat -> conv7_2_mbox_conf_flat
I0907 13:40:37.394441 23688 net.cpp:150] Setting up conv7_2_mbox_conf_flat
I0907 13:40:37.394448 23688 net.cpp:157] Top shape: 16 600 (9600)
I0907 13:40:37.394453 23688 net.cpp:165] Memory required for data: 2574330080
I0907 13:40:37.394456 23688 layer_factory.hpp:77] Creating layer conv7_2_mbox_priorbox
I0907 13:40:37.394464 23688 net.cpp:100] Creating Layer conv7_2_mbox_priorbox
I0907 13:40:37.394469 23688 net.cpp:434] conv7_2_mbox_priorbox <- conv7_2_conv7_2_relu_0_split_3
I0907 13:40:37.394475 23688 net.cpp:434] conv7_2_mbox_priorbox <- data_data_0_split_3
I0907 13:40:37.394481 23688 net.cpp:408] conv7_2_mbox_priorbox -> conv7_2_mbox_priorbox
I0907 13:40:37.394515 23688 net.cpp:150] Setting up conv7_2_mbox_priorbox
I0907 13:40:37.394521 23688 net.cpp:157] Top shape: 1 2 600 (1200)
I0907 13:40:37.394526 23688 net.cpp:165] Memory required for data: 2574334880
I0907 13:40:37.394529 23688 layer_factory.hpp:77] Creating layer conv8_2_mbox_loc
I0907 13:40:37.394539 23688 net.cpp:100] Creating Layer conv8_2_mbox_loc
I0907 13:40:37.394553 23688 net.cpp:434] conv8_2_mbox_loc <- conv8_2_conv8_2_relu_0_split_1
I0907 13:40:37.394564 23688 net.cpp:408] conv8_2_mbox_loc -> conv8_2_mbox_loc
I0907 13:40:37.396895 23688 net.cpp:150] Setting up conv8_2_mbox_loc
I0907 13:40:37.396908 23688 net.cpp:157] Top shape: 16 24 3 3 (3456)
I0907 13:40:37.396912 23688 net.cpp:165] Memory required for data: 2574348704
I0907 13:40:37.396920 23688 layer_factory.hpp:77] Creating layer conv8_2_mbox_loc_perm
I0907 13:40:37.396929 23688 net.cpp:100] Creating Layer conv8_2_mbox_loc_perm
I0907 13:40:37.396934 23688 net.cpp:434] conv8_2_mbox_loc_perm <- conv8_2_mbox_loc
I0907 13:40:37.396939 23688 net.cpp:408] conv8_2_mbox_loc_perm -> conv8_2_mbox_loc_perm
I0907 13:40:37.397053 23688 net.cpp:150] Setting up conv8_2_mbox_loc_perm
I0907 13:40:37.397060 23688 net.cpp:157] Top shape: 16 3 3 24 (3456)
I0907 13:40:37.397064 23688 net.cpp:165] Memory required for data: 2574362528
I0907 13:40:37.397069 23688 layer_factory.hpp:77] Creating layer conv8_2_mbox_loc_flat
I0907 13:40:37.397075 23688 net.cpp:100] Creating Layer conv8_2_mbox_loc_flat
I0907 13:40:37.397079 23688 net.cpp:434] conv8_2_mbox_loc_flat <- conv8_2_mbox_loc_perm
I0907 13:40:37.397086 23688 net.cpp:408] conv8_2_mbox_loc_flat -> conv8_2_mbox_loc_flat
I0907 13:40:37.397117 23688 net.cpp:150] Setting up conv8_2_mbox_loc_flat
I0907 13:40:37.397123 23688 net.cpp:157] Top shape: 16 216 (3456)
I0907 13:40:37.397127 23688 net.cpp:165] Memory required for data: 2574376352
I0907 13:40:37.397131 23688 layer_factory.hpp:77] Creating layer conv8_2_mbox_conf
I0907 13:40:37.397141 23688 net.cpp:100] Creating Layer conv8_2_mbox_conf
I0907 13:40:37.397146 23688 net.cpp:434] conv8_2_mbox_conf <- conv8_2_conv8_2_relu_0_split_2
I0907 13:40:37.397156 23688 net.cpp:408] conv8_2_mbox_conf -> conv8_2_mbox_conf
I0907 13:40:37.399489 23688 net.cpp:150] Setting up conv8_2_mbox_conf
I0907 13:40:37.399504 23688 net.cpp:157] Top shape: 16 24 3 3 (3456)
I0907 13:40:37.399508 23688 net.cpp:165] Memory required for data: 2574390176
I0907 13:40:37.399516 23688 layer_factory.hpp:77] Creating layer conv8_2_mbox_conf_perm
I0907 13:40:37.399523 23688 net.cpp:100] Creating Layer conv8_2_mbox_conf_perm
I0907 13:40:37.399528 23688 net.cpp:434] conv8_2_mbox_conf_perm <- conv8_2_mbox_conf
I0907 13:40:37.399535 23688 net.cpp:408] conv8_2_mbox_conf_perm -> conv8_2_mbox_conf_perm
I0907 13:40:37.399647 23688 net.cpp:150] Setting up conv8_2_mbox_conf_perm
I0907 13:40:37.399655 23688 net.cpp:157] Top shape: 16 3 3 24 (3456)
I0907 13:40:37.399659 23688 net.cpp:165] Memory required for data: 2574404000
I0907 13:40:37.399663 23688 layer_factory.hpp:77] Creating layer conv8_2_mbox_conf_flat
I0907 13:40:37.399677 23688 net.cpp:100] Creating Layer conv8_2_mbox_conf_flat
I0907 13:40:37.399682 23688 net.cpp:434] conv8_2_mbox_conf_flat <- conv8_2_mbox_conf_perm
I0907 13:40:37.399690 23688 net.cpp:408] conv8_2_mbox_conf_flat -> conv8_2_mbox_conf_flat
I0907 13:40:37.399722 23688 net.cpp:150] Setting up conv8_2_mbox_conf_flat
I0907 13:40:37.399729 23688 net.cpp:157] Top shape: 16 216 (3456)
I0907 13:40:37.399731 23688 net.cpp:165] Memory required for data: 2574417824
I0907 13:40:37.399735 23688 layer_factory.hpp:77] Creating layer conv8_2_mbox_priorbox
I0907 13:40:37.399741 23688 net.cpp:100] Creating Layer conv8_2_mbox_priorbox
I0907 13:40:37.399745 23688 net.cpp:434] conv8_2_mbox_priorbox <- conv8_2_conv8_2_relu_0_split_3
I0907 13:40:37.399750 23688 net.cpp:434] conv8_2_mbox_priorbox <- data_data_0_split_4
I0907 13:40:37.399757 23688 net.cpp:408] conv8_2_mbox_priorbox -> conv8_2_mbox_priorbox
I0907 13:40:37.399790 23688 net.cpp:150] Setting up conv8_2_mbox_priorbox
I0907 13:40:37.399796 23688 net.cpp:157] Top shape: 1 2 216 (432)
I0907 13:40:37.399798 23688 net.cpp:165] Memory required for data: 2574419552
I0907 13:40:37.399802 23688 layer_factory.hpp:77] Creating layer conv9_2_mbox_loc
I0907 13:40:37.399813 23688 net.cpp:100] Creating Layer conv9_2_mbox_loc
I0907 13:40:37.399817 23688 net.cpp:434] conv9_2_mbox_loc <- conv9_2_conv9_2_relu_0_split_1
I0907 13:40:37.399837 23688 net.cpp:408] conv9_2_mbox_loc -> conv9_2_mbox_loc
I0907 13:40:37.402160 23688 net.cpp:150] Setting up conv9_2_mbox_loc
I0907 13:40:37.402175 23688 net.cpp:157] Top shape: 16 24 2 2 (1536)
I0907 13:40:37.402180 23688 net.cpp:165] Memory required for data: 2574425696
I0907 13:40:37.402189 23688 layer_factory.hpp:77] Creating layer conv9_2_mbox_loc_perm
I0907 13:40:37.402194 23688 net.cpp:100] Creating Layer conv9_2_mbox_loc_perm
I0907 13:40:37.402199 23688 net.cpp:434] conv9_2_mbox_loc_perm <- conv9_2_mbox_loc
I0907 13:40:37.402206 23688 net.cpp:408] conv9_2_mbox_loc_perm -> conv9_2_mbox_loc_perm
I0907 13:40:37.402328 23688 net.cpp:150] Setting up conv9_2_mbox_loc_perm
I0907 13:40:37.402343 23688 net.cpp:157] Top shape: 16 2 2 24 (1536)
I0907 13:40:37.402348 23688 net.cpp:165] Memory required for data: 2574431840
I0907 13:40:37.402353 23688 layer_factory.hpp:77] Creating layer conv9_2_mbox_loc_flat
I0907 13:40:37.402359 23688 net.cpp:100] Creating Layer conv9_2_mbox_loc_flat
I0907 13:40:37.402362 23688 net.cpp:434] conv9_2_mbox_loc_flat <- conv9_2_mbox_loc_perm
I0907 13:40:37.402369 23688 net.cpp:408] conv9_2_mbox_loc_flat -> conv9_2_mbox_loc_flat
I0907 13:40:37.402402 23688 net.cpp:150] Setting up conv9_2_mbox_loc_flat
I0907 13:40:37.402410 23688 net.cpp:157] Top shape: 16 96 (1536)
I0907 13:40:37.402413 23688 net.cpp:165] Memory required for data: 2574437984
I0907 13:40:37.402417 23688 layer_factory.hpp:77] Creating layer conv9_2_mbox_conf
I0907 13:40:37.402429 23688 net.cpp:100] Creating Layer conv9_2_mbox_conf
I0907 13:40:37.402433 23688 net.cpp:434] conv9_2_mbox_conf <- conv9_2_conv9_2_relu_0_split_2
I0907 13:40:37.402442 23688 net.cpp:408] conv9_2_mbox_conf -> conv9_2_mbox_conf
I0907 13:40:37.405169 23688 net.cpp:150] Setting up conv9_2_mbox_conf
I0907 13:40:37.405181 23688 net.cpp:157] Top shape: 16 24 2 2 (1536)
I0907 13:40:37.405185 23688 net.cpp:165] Memory required for data: 2574444128
I0907 13:40:37.405194 23688 layer_factory.hpp:77] Creating layer conv9_2_mbox_conf_perm
I0907 13:40:37.405200 23688 net.cpp:100] Creating Layer conv9_2_mbox_conf_perm
I0907 13:40:37.405205 23688 net.cpp:434] conv9_2_mbox_conf_perm <- conv9_2_mbox_conf
I0907 13:40:37.405212 23688 net.cpp:408] conv9_2_mbox_conf_perm -> conv9_2_mbox_conf_perm
I0907 13:40:37.405328 23688 net.cpp:150] Setting up conv9_2_mbox_conf_perm
I0907 13:40:37.405338 23688 net.cpp:157] Top shape: 16 2 2 24 (1536)
I0907 13:40:37.405341 23688 net.cpp:165] Memory required for data: 2574450272
I0907 13:40:37.405345 23688 layer_factory.hpp:77] Creating layer conv9_2_mbox_conf_flat
I0907 13:40:37.405351 23688 net.cpp:100] Creating Layer conv9_2_mbox_conf_flat
I0907 13:40:37.405355 23688 net.cpp:434] conv9_2_mbox_conf_flat <- conv9_2_mbox_conf_perm
I0907 13:40:37.405362 23688 net.cpp:408] conv9_2_mbox_conf_flat -> conv9_2_mbox_conf_flat
I0907 13:40:37.405393 23688 net.cpp:150] Setting up conv9_2_mbox_conf_flat
I0907 13:40:37.405400 23688 net.cpp:157] Top shape: 16 96 (1536)
I0907 13:40:37.405405 23688 net.cpp:165] Memory required for data: 2574456416
I0907 13:40:37.405408 23688 layer_factory.hpp:77] Creating layer conv9_2_mbox_priorbox
I0907 13:40:37.405416 23688 net.cpp:100] Creating Layer conv9_2_mbox_priorbox
I0907 13:40:37.405421 23688 net.cpp:434] conv9_2_mbox_priorbox <- conv9_2_conv9_2_relu_0_split_3
I0907 13:40:37.405426 23688 net.cpp:434] conv9_2_mbox_priorbox <- data_data_0_split_5
I0907 13:40:37.405432 23688 net.cpp:408] conv9_2_mbox_priorbox -> conv9_2_mbox_priorbox
I0907 13:40:37.405467 23688 net.cpp:150] Setting up conv9_2_mbox_priorbox
I0907 13:40:37.405474 23688 net.cpp:157] Top shape: 1 2 96 (192)
I0907 13:40:37.405478 23688 net.cpp:165] Memory required for data: 2574457184
I0907 13:40:37.405481 23688 layer_factory.hpp:77] Creating layer conv10_2_mbox_loc
I0907 13:40:37.405491 23688 net.cpp:100] Creating Layer conv10_2_mbox_loc
I0907 13:40:37.405496 23688 net.cpp:434] conv10_2_mbox_loc <- conv10_2_conv10_2_relu_0_split_0
I0907 13:40:37.405504 23688 net.cpp:408] conv10_2_mbox_loc -> conv10_2_mbox_loc
I0907 13:40:37.407853 23688 net.cpp:150] Setting up conv10_2_mbox_loc
I0907 13:40:37.407867 23688 net.cpp:157] Top shape: 16 24 1 1 (384)
I0907 13:40:37.407872 23688 net.cpp:165] Memory required for data: 2574458720
I0907 13:40:37.407881 23688 layer_factory.hpp:77] Creating layer conv10_2_mbox_loc_perm
I0907 13:40:37.407886 23688 net.cpp:100] Creating Layer conv10_2_mbox_loc_perm
I0907 13:40:37.407891 23688 net.cpp:434] conv10_2_mbox_loc_perm <- conv10_2_mbox_loc
I0907 13:40:37.407898 23688 net.cpp:408] conv10_2_mbox_loc_perm -> conv10_2_mbox_loc_perm
I0907 13:40:37.408017 23688 net.cpp:150] Setting up conv10_2_mbox_loc_perm
I0907 13:40:37.408025 23688 net.cpp:157] Top shape: 16 1 1 24 (384)
I0907 13:40:37.408030 23688 net.cpp:165] Memory required for data: 2574460256
I0907 13:40:37.408033 23688 layer_factory.hpp:77] Creating layer conv10_2_mbox_loc_flat
I0907 13:40:37.408041 23688 net.cpp:100] Creating Layer conv10_2_mbox_loc_flat
I0907 13:40:37.408046 23688 net.cpp:434] conv10_2_mbox_loc_flat <- conv10_2_mbox_loc_perm
I0907 13:40:37.408052 23688 net.cpp:408] conv10_2_mbox_loc_flat -> conv10_2_mbox_loc_flat
I0907 13:40:37.408082 23688 net.cpp:150] Setting up conv10_2_mbox_loc_flat
I0907 13:40:37.408089 23688 net.cpp:157] Top shape: 16 24 (384)
I0907 13:40:37.408093 23688 net.cpp:165] Memory required for data: 2574461792
I0907 13:40:37.408097 23688 layer_factory.hpp:77] Creating layer conv10_2_mbox_conf
I0907 13:40:37.408108 23688 net.cpp:100] Creating Layer conv10_2_mbox_conf
I0907 13:40:37.408113 23688 net.cpp:434] conv10_2_mbox_conf <- conv10_2_conv10_2_relu_0_split_1
I0907 13:40:37.408119 23688 net.cpp:408] conv10_2_mbox_conf -> conv10_2_mbox_conf
I0907 13:40:37.410467 23688 net.cpp:150] Setting up conv10_2_mbox_conf
I0907 13:40:37.410481 23688 net.cpp:157] Top shape: 16 24 1 1 (384)
I0907 13:40:37.410486 23688 net.cpp:165] Memory required for data: 2574463328
I0907 13:40:37.410495 23688 layer_factory.hpp:77] Creating layer conv10_2_mbox_conf_perm
I0907 13:40:37.410501 23688 net.cpp:100] Creating Layer conv10_2_mbox_conf_perm
I0907 13:40:37.410504 23688 net.cpp:434] conv10_2_mbox_conf_perm <- conv10_2_mbox_conf
I0907 13:40:37.410513 23688 net.cpp:408] conv10_2_mbox_conf_perm -> conv10_2_mbox_conf_perm
I0907 13:40:37.410629 23688 net.cpp:150] Setting up conv10_2_mbox_conf_perm
I0907 13:40:37.410637 23688 net.cpp:157] Top shape: 16 1 1 24 (384)
I0907 13:40:37.410641 23688 net.cpp:165] Memory required for data: 2574464864
I0907 13:40:37.410646 23688 layer_factory.hpp:77] Creating layer conv10_2_mbox_conf_flat
I0907 13:40:37.410653 23688 net.cpp:100] Creating Layer conv10_2_mbox_conf_flat
I0907 13:40:37.410657 23688 net.cpp:434] conv10_2_mbox_conf_flat <- conv10_2_mbox_conf_perm
I0907 13:40:37.410665 23688 net.cpp:408] conv10_2_mbox_conf_flat -> conv10_2_mbox_conf_flat
I0907 13:40:37.410696 23688 net.cpp:150] Setting up conv10_2_mbox_conf_flat
I0907 13:40:37.410703 23688 net.cpp:157] Top shape: 16 24 (384)
I0907 13:40:37.410706 23688 net.cpp:165] Memory required for data: 2574466400
I0907 13:40:37.410711 23688 layer_factory.hpp:77] Creating layer conv10_2_mbox_priorbox
I0907 13:40:37.410720 23688 net.cpp:100] Creating Layer conv10_2_mbox_priorbox
I0907 13:40:37.410724 23688 net.cpp:434] conv10_2_mbox_priorbox <- conv10_2_conv10_2_relu_0_split_2
I0907 13:40:37.410729 23688 net.cpp:434] conv10_2_mbox_priorbox <- data_data_0_split_6
I0907 13:40:37.410737 23688 net.cpp:408] conv10_2_mbox_priorbox -> conv10_2_mbox_priorbox
I0907 13:40:37.410769 23688 net.cpp:150] Setting up conv10_2_mbox_priorbox
I0907 13:40:37.410776 23688 net.cpp:157] Top shape: 1 2 24 (48)
I0907 13:40:37.410780 23688 net.cpp:165] Memory required for data: 2574466592
I0907 13:40:37.410784 23688 layer_factory.hpp:77] Creating layer mbox_loc
I0907 13:40:37.410794 23688 net.cpp:100] Creating Layer mbox_loc
I0907 13:40:37.410799 23688 net.cpp:434] mbox_loc <- conv5_5/sep_mbox_loc_flat
I0907 13:40:37.410804 23688 net.cpp:434] mbox_loc <- conv6/sep_mbox_loc_flat
I0907 13:40:37.410809 23688 net.cpp:434] mbox_loc <- conv7_2_mbox_loc_flat
I0907 13:40:37.410814 23688 net.cpp:434] mbox_loc <- conv8_2_mbox_loc_flat
I0907 13:40:37.410828 23688 net.cpp:434] mbox_loc <- conv9_2_mbox_loc_flat
I0907 13:40:37.410835 23688 net.cpp:434] mbox_loc <- conv10_2_mbox_loc_flat
I0907 13:40:37.410842 23688 net.cpp:408] mbox_loc -> mbox_loc
I0907 13:40:37.410879 23688 net.cpp:150] Setting up mbox_loc
I0907 13:40:37.410887 23688 net.cpp:157] Top shape: 16 7668 (122688)
I0907 13:40:37.410892 23688 net.cpp:165] Memory required for data: 2574957344
I0907 13:40:37.410895 23688 layer_factory.hpp:77] Creating layer mbox_conf
I0907 13:40:37.410904 23688 net.cpp:100] Creating Layer mbox_conf
I0907 13:40:37.410908 23688 net.cpp:434] mbox_conf <- conv5_5/sep_mbox_conf_flat
I0907 13:40:37.410913 23688 net.cpp:434] mbox_conf <- conv6/sep_mbox_conf_flat
I0907 13:40:37.410918 23688 net.cpp:434] mbox_conf <- conv7_2_mbox_conf_flat
I0907 13:40:37.410923 23688 net.cpp:434] mbox_conf <- conv8_2_mbox_conf_flat
I0907 13:40:37.410926 23688 net.cpp:434] mbox_conf <- conv9_2_mbox_conf_flat
I0907 13:40:37.410931 23688 net.cpp:434] mbox_conf <- conv10_2_mbox_conf_flat
I0907 13:40:37.410938 23688 net.cpp:408] mbox_conf -> mbox_conf
I0907 13:40:37.410969 23688 net.cpp:150] Setting up mbox_conf
I0907 13:40:37.410975 23688 net.cpp:157] Top shape: 16 7668 (122688)
I0907 13:40:37.410979 23688 net.cpp:165] Memory required for data: 2575448096
I0907 13:40:37.410984 23688 layer_factory.hpp:77] Creating layer mbox_priorbox
I0907 13:40:37.410990 23688 net.cpp:100] Creating Layer mbox_priorbox
I0907 13:40:37.410995 23688 net.cpp:434] mbox_priorbox <- conv5_5/sep_mbox_priorbox
I0907 13:40:37.411000 23688 net.cpp:434] mbox_priorbox <- conv6/sep_mbox_priorbox
I0907 13:40:37.411003 23688 net.cpp:434] mbox_priorbox <- conv7_2_mbox_priorbox
I0907 13:40:37.411008 23688 net.cpp:434] mbox_priorbox <- conv8_2_mbox_priorbox
I0907 13:40:37.411012 23688 net.cpp:434] mbox_priorbox <- conv9_2_mbox_priorbox
I0907 13:40:37.411016 23688 net.cpp:434] mbox_priorbox <- conv10_2_mbox_priorbox
I0907 13:40:37.411023 23688 net.cpp:408] mbox_priorbox -> mbox_priorbox
I0907 13:40:37.411053 23688 net.cpp:150] Setting up mbox_priorbox
I0907 13:40:37.411061 23688 net.cpp:157] Top shape: 1 2 7668 (15336)
I0907 13:40:37.411064 23688 net.cpp:165] Memory required for data: 2575509440
I0907 13:40:37.411068 23688 layer_factory.hpp:77] Creating layer mbox_loss
I0907 13:40:37.411080 23688 net.cpp:100] Creating Layer mbox_loss
I0907 13:40:37.411084 23688 net.cpp:434] mbox_loss <- mbox_loc
I0907 13:40:37.411092 23688 net.cpp:434] mbox_loss <- mbox_conf
I0907 13:40:37.411097 23688 net.cpp:434] mbox_loss <- mbox_priorbox
…
layer {
  name: "data"
  type: "AnnotatedData"
  top: "data"
  top: "label"
  include {
    phase: TEST
  }
  transform_param {
    mean_value: 104
    mean_value: 117
    mean_value: 123
    resize_param {
      prob: 1
      resize_mode: WARP
      height: 300
      width: 300
      interp_mode: LINEAR
    }
  }
  data_param {
    source: "data/BodyFaceHandRegions/lmdb/oxford_test_lmdb"
    batch_size: 8
    backend: LMDB
  }
  annotated_data_param {
    batch_sampler {
    }
    label_map_file: "data/BodyFaceHandRegions/labelmap_voc.prototxt"
  }
}
layer {
  name: "conv1"
  type: "Convolution"
  bottom: "data"
  top: "conv1"
  param {
    lr_mult: 1
    decay_mult: 1
  }
  convolution_param {
    num_output: 32
    bias_term: false
    pad: 1
    kernel_size: 3
    group: 1
    stride: 2
    weight_filler {
      type: "gaussian"
      std: 0.01
    }
    engine: DEFAULT
  }
}
layer {
  name: "conv1/bn"
  type: "BatchNorm"
  bottom: "conv1"
  top: "conv1"
  batch_norm_param {
    moving_average_fraction: 0.999
    eps: 0.001
  }
}
layer {
  name: "conv1/scale"
  type: "Scale"
  bottom: "conv1"
  top: "conv1"
  param {
    lr_mult: 1
    decay_mult: 0
  }
  param {
    lr_mult: 1
    decay_mult: 0
  }
  scale_param {
    filler {
      type: "constant"
      value: 1
    }
    bias_term: true
    bias_filler {
      type: "constant"
      value: 0
    }
  }
}
layer {
  name: "conv1_relu"
  type: "ReLU"
  bottom: "conv1"
  top: "conv1"
}
layer {
  name: "conv2_1/dw"
  type: "Convolution"
  bottom: "conv1"
  top: "conv2_1/dw"
  param {
    lr_mult: 1
    decay_mult: 1
  }
  convolution_param {
    num_output: 32
    bias_term: false
    pad: 1
    kernel_size: 3
    group: 32
    stride: 1
    weight_filler {
      type: "gaussian"
      std: 0.01
    }
    engine: CAFFE
  }
}
layer {
  name: "conv2_1/dw/bn"
  type: "BatchNorm"
  bottom: "conv2_1/dw"
  top: "conv2_1/dw"
  batch_norm_param {
    moving_average_fraction: 0.999
    eps: 0.001
  }
}
layer {
  name: "conv2_1/dw/scale"
  type: "Scale"
  bottom: "conv2_1/dw"
  top: "conv2_1/dw"
  param {
    lr_mult: 1
    decay_mult: 0
  }
  param {
    lr_mult: 1
    decay_mult: 0
  }
  scale_param {
    filler {
      type: "constant"
      value: 1
    }
    bias_term: true
    bias_filler {
      type: "constant"
      value: 0
    }
  }
}
layer {
  name: "conv2_1/dw_relu"
  type: "ReLU"
  bottom: "conv2_1/dw"
  top: "conv2_1/dw"
}
layer {
  name: "conv2_1/sep"
  type: "Convolution"
  bottom: "conv2_1/dw"
  top: "conv2_1/sep"
  param {
    lr_mult: 1
    decay_mult: 1
  }
  convolution_param {
    num_output: 64
    bias_term: false
    pad: 0
    kernel_size: 1
    group: 1
    stride: 1
    weight_filler {
      type: "gaussian"
      std: 0.01
    }
    engine: DEFAULT
  }
}
layer {
  name: "conv2_1/sep/bn"
  type: "BatchNorm"
  bottom: "conv2_1/sep"
  top: "conv2_1/sep"
  batch_norm_param {
    moving_average_fraction: 0.999
    eps: 0.001
  }
}
layer {
  name: "conv2_1/sep/scale"
  type: "Scale"
  bottom: "conv2_1/sep"
  top: "conv2_1/sep"
  param {
    lr_mult: 1
    decay_mult: 0
  }
  param {
    lr_mult: 1
    decay_mult: 0
  }
  scale_param {
    filler {
      type: "constant"
      value: 1
    }
    bias_term: true
    bias_filler {
      type: "constant"
      value: 0
    }
  }
}
layer {
  name: "conv2_1/sep_relu"
  type: "ReLU"
  bottom: "conv2_1/sep"
  top: "conv2_1/sep"
}
layer {
  name: "conv2_2/dw"
  type: "Convolution"
  bottom: "conv2_1/sep"
  top: "conv2_2/dw"
  param {
    lr_mult: 1
    decay_mult: 1
  }
  convolution_param {
    num_output: 64
    bias_term: false
    pad: 1
    kernel_size: 3
    group: 64
    stride: 2
    weight_filler {
      type: "gaussian"
      std: 0.01
    }
    engine: CAFFE
  }
}
layer {
  name: "conv2_2/dw/bn"
  type: "BatchNorm"
  bottom: "conv2_2/dw"
  top: "conv2_2/dw"
  batch_norm_param {
    moving_average_fraction: 0.999
    eps: 0.001
  }
}
layer {
  name: "conv2_2/dw/scale"
  type: "Scale"
  bottom: "conv2_2/dw"
  top: "conv2_2/dw"
  param {
    lr_mult: 1
    decay_mult: 0
  }
  param {
    lr_mult: 1
    decay_mult: 0
  }
  scale_param {
    filler {
      type: "constant"
      value: 1
    }
    bias_term: true
    bias_filler {
      type: "constant"
      value: 0
    }
  }
}
layer {
  name: "conv2_2/dw_relu"
  type: "ReLU"
  bottom: "conv2_2/dw"
  top: "conv2_2/dw"
}
layer {
  name: "conv2_2/sep"
  type: "Convolution"
  bottom: "conv2_2/dw"
  top: "conv2_2/sep"
  param {
    lr_mult: 1
    decay_mult: 1
  }
  convolution_param {
    num_output: 128
    bias_term: false
    pad: 0
    kernel_size: 1
    group: 1
    stride: 1
    weight_filler {
      type: "gaussian"
      std: 0.01
    }
    engine: DEFAULT
  }
}
layer {
  name: "conv2_2/sep/bn"
  type: "BatchNorm"
  bottom: "conv2_2/sep"
  top: "conv2_2/sep"
  batch_norm_param {
    moving_average_fraction: 0.999
    eps: 0.001
  }
}
layer {
  name: "conv2_2/sep/scale"
  type: "Scale"
  bottom: "conv2_2/sep"
  top: "conv2_2/sep"
  param {
    lr_mult: 1
    decay_mult: 0
  }
  param {
    lr_mult: 1
    decay_mult: 0
  }
  scale_param {
    filler {
      type: "constant"
      value: 1
    }
    bias_term: true
    bias_filler {
      type: "constant"
      value: 0
    }
  }
}
layer {
  name: "conv2_2/sep_relu"
  type: "ReLU"
  bottom: "conv2_2/sep"
  top: "conv2_2/sep"
}
layer {
  name: "conv3_1/dw"
  type: "Convolution"
  bottom: "conv2_2/sep"
  top: "conv3_1/dw"
  param {
    lr_mult: 1
    decay_mult: 1
  }
  convolution_param {
    num_output: 128
    bias_term: false
    pad: 1
    kernel_size: 3
    group: 128
    stride: 1
    weight_filler {
      type: "gaussian"
      std: 0.01
    }
    engine: CAFFE
  }
}
layer {
  name: "conv3_1/dw/bn"
  type: "BatchNorm"
  bottom: "conv3_1/dw"
  top: "conv3_1/dw"
  batch_norm_param {
    moving_average_fraction: 0.999
    eps: 0.001
  }
}
layer {
  name: "conv3_1/dw/scale"
  type: "Scale"
  bottom: "conv3_1/dw"
  top: "conv3_1/dw"
  param {
    lr_mult: 1
    decay_mult: 0
  }
  param {
    lr_mult: 1
    decay_mult: 0
  }
  scale_param {
    filler {
      type: "constant"
      value: 1
    }
    bias_term: true
    bias_filler {
      type: "constant"
      value: 0
    }
  }
}
layer {
  name: "conv3_1/dw_relu"
  type: "ReLU"
  bottom: "conv3_1/dw"
  top: "conv3_1/dw"
}
layer {
  name: "conv3_1/sep"
  type: "Convolution"
  bottom: "conv3_1/dw"
  top: "conv3_1/sep"
  param {
    lr_mult: 1
    decay_mult: 1
  }
  convolution_param {
    num_output: 128
    bias_term: false
    pad: 0
    kernel_size: 1
    group: 1
    stride: 1
    weight_filler {
      type: "gaussian"
      std: 0.01
    }
    engine: DEFAULT
  }
}
layer {
  name: "conv3_1/sep/bn"
  type: "BatchNorm"
  bottom: "conv3_1/sep"
  top: "conv3_1/sep"
  batch_norm_param {
    moving_average_fraction: 0.999
    eps: 0.001
  }
}
layer {
  name: "conv3_1/sep/scale"
  type: "Scale"
  bottom: "conv3_1/sep"
  top: "conv3_1/sep"
  param {
    lr_mult: 1
    decay_mult: 0
  }
  param {
    lr_mult: 1
    decay_mult: 0
  }
  scale_param {
    filler {
      type: "constant"
      value: 1
    }
    bias_term: true
    bias_filler {
      type: "constant"
      value: 0
    }
  }
}
layer {
  name: "conv3_1/sep_relu"
  type: "ReLU"
  bottom: "conv3_1/sep"
  top: "conv3_1/sep"
}
layer {
  name: "conv3_2/dw"
  type: "Convolution"
  bottom: "conv3_1/sep"
  top: "conv3_2/dw"
  param {
    lr_mult: 1
    decay_mult: 1
  }
  convolution_param {
    num_output: 128
    bias_term: false
    pad: 1
    kernel_size: 3
    group: 128
    stride: 2
    weight_filler {
      type: "gaussian"
      std: 0.01
    }
    engine: CAFFE
  }
}
layer {
  name: "conv3_2/dw/bn"
  type: "BatchNorm"
  bottom: "conv3_2/dw"
  top: "conv3_2/dw"
  batch_norm_param {
    moving_average_fraction: 0.999
    eps: 0.001
  }
}
layer {
  name: "conv3_2/dw/scale"
  type: "Scale"
  bottom: "conv3_2/dw"
  top: "conv3_2/dw"
  param {
    lr_mult: 1
    decay_mult: 0
  }
  param {
    lr_mult: 1
    decay_mult: 0
  }
  scale_param {
    filler {
      type: "constant"
      value: 1
    }
    bias_term: true
    bias_filler {
      type: "constant"
      value: 0
    }
  }
}
layer {
  name: "conv3_2/dw_relu"
  type: "ReLU"
  bottom: "conv3_2/dw"
  top: "conv3_2/dw"
}
layer {
  name: "conv3_2/sep"
  type: "Convolution"
  bottom: "conv3_2/dw"
  top: "conv3_2/sep"
  param {
    lr_mult: 1
    decay_mult: 1
  }
  convolution_param {
    num_output: 256
    bias_term: false
    pad: 0
    kernel_size: 1
    group: 1
    stride: 1
    weight_filler {
      type: "gaussian"
      std: 0.01
    }
    engine: DEFAULT
  }
}
layer {
  name: "conv3_2/sep/bn"
  type: "BatchNorm"
  bottom: "conv3_2/sep"
  top: "conv3_2/sep"
  batch_norm_param {
    moving_average_fraction: 0.999
    eps: 0.001
  }
}
layer {
  name: "conv3_2/sep/scale"
  type: "Scale"
  bottom: "conv3_2/sep"
  top: "conv3_2/sep"
  param {
    lr_mult: 1
    decay_mult: 0
  }
  param {
    lr_mult: 1
    decay_mult: 0
  }
  scale_param {
    filler {
      type: "constant"
      value: 1
    }
    bias_term: true
    bias_filler {
      type: "constant"
      value: 0
    }
  }
}
layer {
  name: "conv3_2/sep_relu"
  type: "ReLU"
  bottom: "conv3_2/sep"
  top: "conv3_2/sep"
}
layer {
  name: "conv4_1/dw"
  type: "Convolution"
  bottom: "conv3_2/sep"
  top: "conv4_1/dw"
  param {
    lr_mult: 1
    decay_mult: 1
  }
  convolution_param {
    num_output: 256
    bias_term: false
    pad: 1
    kernel_size: 3
    group: 256
    stride: 1
    weight_filler {
      type: "gaussian"
      std: 0.01
    }
    engine: CAFFE
  }
}
layer {
  name: "conv4_1/dw/bn"
  type: "BatchNorm"
  bottom: "conv4_1/dw"
  top: "conv4_1/dw"
  batch_norm_param {
    moving_average_fraction: 0.999
    eps: 0.001
  }
}
layer {
  name: "conv4_1/dw/scale"
  type: "Scale"
  bottom: "conv4_1/dw"
  top: "conv4_1/dw"
  param {
    lr_mult: 1
    decay_mult: 0
  }
  param {
    lr_mult: 1
    decay_mult: 0
  }
  scale_param {
    filler {
      type: "constant"
      value: 1
    }
    bias_term: true
    bias_filler {
      type: "constant"
      value: 0
    }
  }
}
layer {
  name: "conv4_1/dw_relu"
  type: "ReLU"
  bottom: "conv4_1/dw"
  top: "conv4_1/dw"
}
layer {
  name: "conv4_1/sep"
  type: "Convolution"
  bottom: "conv4_1/dw"
  top: "conv4_1/sep"
  param {
    lr_mult: 1
    decay_mult: 1
  }
  convolution_param {
    num_output: 256
    bias_term: false
    pad: 0
    kernel_size: 1
    group: 1
    stride: 1
    weight_filler {
      type: "gaussian"
      std: 0.01
    }
    engine: DEFAULT
  }
}
layer {
  name: "conv4_1/sep/bn"
  type: "BatchNorm"
  bottom: "conv4_1/sep"
  top: "conv4_1/sep"
  batch_norm_param {
    moving_average_fraction: 0.999
    eps: 0.001
  }
}
layer {
  name: "conv4_1/sep/scale"
  type: "Scale"
  bottom: "conv4_1/sep"
  top: "conv4_1/sep"
  param {
    lr_mult: 1
    decay_mult: 0
  }
  param {
    lr_mult: 1
    decay_mult: 0
  }
  scale_param {
    filler {
      type: "constant"
      value: 1
    }
    bias_term: true
    bias_filler {
      type: "constant"
      value: 0
    }
  }
}
layer {
  name: "conv4_1/sep_relu"
  type: "ReLU"
  bottom: "conv4_1/sep"
  top: "conv4_1/sep"
}
layer {
  name: "conv4_2/dw"
  type: "Convolution"
  bottom: "conv4_1/sep"
  top: "conv4_2/dw"
  param {
    lr_mult: 1
    decay_mult: 1
  }
  convolution_param {
    num_output: 256
    bias_term: false
    pad: 1
    kernel_size: 3
    group: 256
    stride: 2
    weight_filler {
      type: "gaussian"
      std: 0.01
    }
    engine: CAFFE
  }
}
layer {
  name: "conv4_2/dw/bn"
  type: "BatchNorm"
  bottom: "conv4_2/dw"
  top: "conv4_2/dw"
  batch_norm_param {
    moving_average_fraction: 0.999
    eps: 0.001
  }
}
layer {
  name: "conv4_2/dw/scale"
  type: "Scale"
  bottom: "conv4_2/dw"
  top: "conv4_2/dw"
  param {
    lr_mult: 1
    decay_mult: 0
  }
  param {
    lr_mult: 1
    decay_mult: 0
  }
  scale_param {
    filler {
      type: "constant"
      value: 1
    }
    bias_term: true
    bias_filler {
      type: "constant"
      value: 0
    }
  }
}
layer {
  name: "conv4_2/dw_relu"
  type: "ReLU"
  bottom: "conv4_2/dw"
  top: "conv4_2/dw"
}
layer {
  name: "conv4_2/sep"
  type: "Convolution"
  bottom: "conv4_2/dw"
  top: "conv4_2/sep"
  param {
    lr_mult: 1
    decay_mult: 1
  }
  convolution_param {
    num_output: 512
    bias_term: false
    pad: 0
    kernel_size: 1
    group: 1
    stride: 1
    weight_filler {
      type: "gaussian"
      std: 0.01
    }
    engine: DEFAULT
  }
}
layer {
  name: "conv4_2/sep/bn"
  type: "BatchNorm"
  bottom: "conv4_2/sep"
  top: "conv4_2/sep"
  batch_norm_param {
    moving_average_fraction: 0.999
    eps: 0.001
  }
}
layer {
  name: "conv4_2/sep/scale"
  type: "Scale"
  bottom: "conv4_2/sep"
  top: "conv4_2/sep"
  param {
    lr_mult: 1
    decay_mult: 0
  }
  param {
    lr_mult: 1
    decay_mult: 0
  }
  scale_param {
    filler {
      type: "constant"
      value: 1
    }
    bias_term: true
    bias_filler {
      type: "constant"
      value: 0
    }
  }
}
layer {
  name: "conv4_2/sep_relu"
  type: "ReLU"
  bottom: "conv4_2/sep"
  top: "conv4_2/sep"
}
layer {
  name: "conv5_1/dw"
  type: "Convolution"
  bottom: "conv4_2/sep"
  top: "conv5_1/dw"
  param {
    lr_mult: 1
    decay_mult: 1
  }
  convolution_param {
    num_output: 512
    bias_term: false
    pad: 1
    kernel_size: 3
    group: 512
    stride: 1
    weight_filler {
      type: "gaussian"
      std: 0.01
    }
    engine: CAFFE
  }
}
layer {
  name: "conv5_1/dw/bn"
  type: "BatchNorm"
  bottom: "conv5_1/dw"
  top: "conv5_1/dw"
  batch_norm_param {
    moving_average_fraction: 0.999
    eps: 0.001
  }
}
layer {
  name: "conv5_1/dw/scale"
  type: "Scale"
  bottom: "conv5_1/dw"
  top: "conv5_1/dw"
  param {
    lr_mult: 1
    decay_mult: 0
  }
  param {
    lr_mult: 1
    decay_mult: 0
  }
  scale_param {
    filler {
      type: "constant"
      value: 1
    }
    bias_term: true
    bias_filler {
      type: "constant"
      value: 0
    }
  }
}
layer {
  name: "conv5_1/dw_relu"
  type: "ReLU"
  bottom: "conv5_1/dw"
  top: "conv5_1/dw"
}
layer {
  name: "conv5_1/sep"
  type: "Convolution"
  bottom: "conv5_1/dw"
  top: "conv5_1/sep"
  param {
    lr_mult: 1
    decay_mult: 1
  }
  convolution_param {
    num_output: 512
    bias_term: false
    pad: 0
    kernel_size: 1
    group: 1
    stride: 1
    weight_filler {
      type: "gaussian"
      std: 0.01
    }
    engine: DEFAULT
  }
}
layer {
  name: "conv5_1/sep/bn"
  type: "BatchNorm"
  bottom: "conv5_1/sep"
  top: "conv5_1/sep"
  batch_norm_param {
    moving_average_fraction: 0.999
    eps: 0.001
  }
}
layer {
  name: "conv5_1/sep/scale"
  type: "Scale"
  bottom: "conv5_1/sep"
  top: "conv5_1/sep"
  param {
    lr_mult: 1
    decay_mult: 0
  }
  param {
    lr_mult: 1
    decay_mult: 0
  }
  scale_param {
    filler {
      type: "constant"
      value: 1
    }
    bias_term: true
    bias_filler {
      type: "constant"
      value: 0
    }
  }
}
layer {
  name: "conv5_1/sep_relu"
  type: "ReLU"
  bottom: "conv5_1/sep"
  top: "conv5_1/sep"
}
layer {
  name: "conv5_2/dw"
  type: "Convolution"
  bottom: "conv5_1/sep"
  top: "conv5_2/dw"
  param {
    lr_mult: 1
    decay_mult: 1
  }
  convolution_param {
    num_output: 512
    bias_term: false
    pad: 1
    kernel_size: 3
    group: 512
    stride: 1
    weight_filler {
      type: "gaussian"
      std: 0.01
    }
    engine: CAFFE
  }
}
layer {
  name: "conv5_2/dw/bn"
  type: "BatchNorm"
  bottom: "conv5_2/dw"
  top: "conv5_2/dw"
  batch_norm_param {
    moving_average_fraction: 0.999
    eps: 0.001
  }
}
layer {
  name: "conv5_2/dw/scale"
  type: "Scale"
  bottom: "conv5_2/dw"
  top: "conv5_2/dw"
  param {
    lr_mult: 1
    decay_mult: 0
  }
  param {
    lr_mult: 1
    decay_mult: 0
  }
  scale_param {
    filler {
      type: "constant"
      value: 1
    }
    bias_term: true
    bias_filler {
      type: "constant"
      value: 0
    }
  }
}
layer {
  name: "conv5_2/dw_relu"
  type: "ReLU"
  bottom: "conv5_2/dw"
  top: "conv5_2/dw"
}
layer {
  name: "conv5_2/sep"
  type: "Convolution"
  bottom: "conv5_2/dw"
  top: "conv5_2/sep"
  param {
    lr_mult: 1
    decay_mult: 1
  }
  convolution_param {
    num_output: 512
    bias_term: false
    pad: 0
    kernel_size: 1
    group: 1
    stride: 1
    weight_filler {
      type: "gaussian"
      std: 0.01
    }
    engine: DEFAULT
  }
}
layer {
  name: "conv5_2/sep/bn"
  type: "BatchNorm"
  bottom: "conv5_2/sep"
  top: "conv5_2/sep"
  batch_norm_param {
    moving_average_fraction: 0.999
    eps: 0.001
  }
}
layer {
  name: "conv5_2/sep/scale"
  type: "Scale"
  bottom: "conv5_2/sep"
  top: "conv5_2/sep"
  param {
    lr_mult: 1
    decay_mult: 0
  }
  param {
    lr_mult: 1
    decay_mult: 0
  }
  scale_param {
    filler {
      type: "constant"
      value: 1
    }
    bias_term: true
    bias_filler {
      type: "constant"
      value: 0
    }
  }
}
layer {
  name: "conv5_2/sep_relu"
  type: "ReLU"
  bottom: "conv5_2/sep"
  top: "conv5_2/sep"
}
layer {
  name: "conv5_3/dw"
  type: "Convolution"
  bottom: "conv5_2/sep"
  top: "conv5_3/dw"
  param {
    lr_mult: 1
    decay_mult: 1
  }
  convolution_param {
    num_output: 512
    bias_term: false
    pad: 1
    kernel_size: 3
    group: 512
    stride: 1
    weight_filler {
      type: "gaussian"
      std: 0.01
    }
    engine: CAFFE
  }
}
layer {
  name: "conv5_3/dw/bn"
  type: "BatchNorm"
  bottom: "conv5_3/dw"
  top: "conv5_3/dw"
  batch_norm_param {
    moving_average_fraction: 0.999
    eps: 0.001
  }
}
layer {
  name: "conv5_3/dw/scale"
  type: "Scale"
  bottom: "conv5_3/dw"
  top: "conv5_3/dw"
  param {
    lr_mult: 1
    decay_mult: 0
  }
  param {
    lr_mult: 1
    decay_mult: 0
  }
  scale_param {
    filler {
      type: "constant"
      value: 1
    }
    bias_term: true
    bias_filler {
      type: "constant"
      value: 0
    }
  }
}
layer {
  name: "conv5_3/dw_relu"
  type: "ReLU"
  bottom: "conv5_3/dw"
  top: "conv5_3/dw"
}
layer {
  name: "conv5_3/sep"
  type: "Convolution"
  bottom: "conv5_3/dw"
  top: "conv5_3/sep"
  param {
    lr_mult: 1
    decay_mult: 1
  }
  convolution_param {
    num_output: 512
    bias_term: false
    pad: 0
    kernel_size: 1
    group: 1
    stride: 1
    weight_filler {
      type: "gaussian"
      std: 0.01
    }
    engine: DEFAULT
  }
}
layer {
  name: "conv5_3/sep/bn"
  type: "BatchNorm"
  bottom: "conv5_3/sep"
  top: "conv5_3/sep"
  batch_norm_param {
    moving_average_fraction: 0.999
    eps: 0.001
  }
}
layer {
  name: "conv5_3/sep/scale"
  type: "Scale"
  bottom: "conv5_3/sep"
  top: "conv5_3/sep"
  param {
    lr_mult: 1
    decay_mult: 0
  }
  param {
    lr_mult: 1
    decay_mult: 0
  }
  scale_param {
    filler {
      type: "constant"
      value: 1
    }
    bias_term: true
    bias_filler {
      type: "constant"
      value: 0
    }
  }
}
layer {
  name: "conv5_3/sep_relu"
  type: "ReLU"
  bottom: "conv5_3/sep"
  top: "conv5_3/sep"
}
layer {
  name: "conv5_4/dw"
  type: "Convolution"
  bottom: "conv5_3/sep"
  top: "conv5_4/dw"
  param {
    lr_mult: 1
    decay_mult: 1
  }
  convolution_param {
    num_output: 512
    bias_term: false
    pad: 1
    kernel_size: 3
    group: 512
    stride: 1
    weight_filler {
      type: "gaussian"
      std: 0.01
    }
    engine: CAFFE
  }
}
layer {
  name: "conv5_4/dw/bn"
  type: "BatchNorm"
  bottom: "conv5_4/dw"
  top: "conv5_4/dw"
  batch_norm_param {
    moving_average_fraction: 0.999
    eps: 0.001
  }
}
layer {
  name: "conv5_4/dw/scale"
  type: "Scale"
  bottom: "conv5_4/dw"
  top: "conv5_4/dw"
  param {
    lr_mult: 1
    decay_mult: 0
  }
  param {
    lr_mult: 1
    decay_mult: 0
  }
  scale_param {
    filler {
      type: "constant"
      value: 1
    }
    bias_term: true
    bias_filler {
      type: "constant"
      value: 0
    }
  }
}
layer {
  name: "conv5_4/dw_relu"
  type: "ReLU"
  bottom: "conv5_4/dw"
…
I0907 13:40:37.495630 23688 net.cpp:150] Setting up conv5_6/dw/scale
I0907 13:40:37.495641 23688 net.cpp:157] Top shape: 8 512 10 10 (409600)
I0907 13:40:37.495645 23688 net.cpp:165] Memory required for data: 1226576128
I0907 13:40:37.495651 23688 layer_factory.hpp:77] Creating layer conv5_6/dw_relu
I0907 13:40:37.495656 23688 net.cpp:100] Creating Layer conv5_6/dw_relu
I0907 13:40:37.495661 23688 net.cpp:434] conv5_6/dw_relu <- conv5_6/dw
I0907 13:40:37.495666 23688 net.cpp:395] conv5_6/dw_relu -> conv5_6/dw (in-place)
I0907 13:40:37.496265 23688 net.cpp:150] Setting up conv5_6/dw_relu
I0907 13:40:37.496278 23688 net.cpp:157] Top shape: 8 512 10 10 (409600)
I0907 13:40:37.496281 23688 net.cpp:165] Memory required for data: 1228214528
I0907 13:40:37.496286 23688 layer_factory.hpp:77] Creating layer conv5_6/sep
I0907 13:40:37.496296 23688 net.cpp:100] Creating Layer conv5_6/sep
I0907 13:40:37.496300 23688 net.cpp:434] conv5_6/sep <- conv5_6/dw
I0907 13:40:37.496307 23688 net.cpp:408] conv5_6/sep -> conv5_6/sep
I0907 13:40:37.501929 23688 net.cpp:150] Setting up conv5_6/sep
I0907 13:40:37.501940 23688 net.cpp:157] Top shape: 8 1024 10 10 (819200)
I0907 13:40:37.501942 23688 net.cpp:165] Memory required for data: 1231491328
I0907 13:40:37.501946 23688 layer_factory.hpp:77] Creating layer conv5_6/sep/bn
I0907 13:40:37.501951 23688 net.cpp:100] Creating Layer conv5_6/sep/bn
I0907 13:40:37.501955 23688 net.cpp:434] conv5_6/sep/bn <- conv5_6/sep
I0907 13:40:37.501958 23688 net.cpp:395] conv5_6/sep/bn -> conv5_6/sep (in-place)
I0907 13:40:37.502126 23688 net.cpp:150] Setting up conv5_6/sep/bn
I0907 13:40:37.502133 23688 net.cpp:157] Top shape: 8 1024 10 10 (819200)
I0907 13:40:37.502136 23688 net.cpp:165] Memory required for data: 1234768128
I0907 13:40:37.502146 23688 layer_factory.hpp:77] Creating layer conv5_6/sep/scale
I0907 13:40:37.502152 23688 net.cpp:100] Creating Layer conv5_6/sep/scale
I0907 13:40:37.502156 23688 net.cpp:434] conv5_6/sep/scale <- conv5_6/sep
I0907 13:40:37.502163 23688 net.cpp:395] conv5_6/sep/scale -> conv5_6/sep (in-place)
I0907 13:40:37.502210 23688 layer_factory.hpp:77] Creating layer conv5_6/sep/scale
I0907 13:40:37.502322 23688 net.cpp:150] Setting up conv5_6/sep/scale
I0907 13:40:37.502331 23688 net.cpp:157] Top shape: 8 1024 10 10 (819200)
I0907 13:40:37.502334 23688 net.cpp:165] Memory required for data: 1238044928
I0907 13:40:37.502341 23688 layer_factory.hpp:77] Creating layer conv5_6/sep_relu
I0907 13:40:37.502347 23688 net.cpp:100] Creating Layer conv5_6/sep_relu
I0907 13:40:37.502351 23688 net.cpp:434] conv5_6/sep_relu <- conv5_6/sep
I0907 13:40:37.502357 23688 net.cpp:395] conv5_6/sep_relu -> conv5_6/sep (in-place)
I0907 13:40:37.502976 23688 net.cpp:150] Setting up conv5_6/sep_relu
I0907 13:40:37.502988 23688 net.cpp:157] Top shape: 8 1024 10 10 (819200)
I0907 13:40:37.502992 23688 net.cpp:165] Memory required for data: 1241321728
I0907 13:40:37.502996 23688 layer_factory.hpp:77] Creating layer conv6/dw
I0907 13:40:37.503006 23688 net.cpp:100] Creating Layer conv6/dw
I0907 13:40:37.503010 23688 net.cpp:434] conv6/dw <- conv5_6/sep
I0907 13:40:37.503026 23688 net.cpp:408] conv6/dw -> conv6/dw
I0907 13:40:37.503263 23688 net.cpp:150] Setting up conv6/dw
I0907 13:40:37.503273 23688 net.cpp:157] Top shape: 8 1024 10 10 (819200)
I0907 13:40:37.503276 23688 net.cpp:165] Memory required for data: 1244598528
I0907 13:40:37.503283 23688 layer_factory.hpp:77] Creating layer conv6/dw/bn
I0907 13:40:37.503289 23688 net.cpp:100] Creating Layer conv6/dw/bn
I0907 13:40:37.503293 23688 net.cpp:434] conv6/dw/bn <- conv6/dw
I0907 13:40:37.503298 23688 net.cpp:395] conv6/dw/bn -> conv6/dw (in-place)
I0907 13:40:37.503461 23688 net.cpp:150] Setting up conv6/dw/bn
I0907 13:40:37.503468 23688 net.cpp:157] Top shape: 8 1024 10 10 (819200)
I0907 13:40:37.503473 23688 net.cpp:165] Memory required for data: 1247875328
I0907 13:40:37.503480 23688 layer_factory.hpp:77] Creating layer conv6/dw/scale
I0907 13:40:37.503487 23688 net.cpp:100] Creating Layer conv6/dw/scale
I0907 13:40:37.503490 23688 net.cpp:434] conv6/dw/scale <- conv6/dw
I0907 13:40:37.503496 23688 net.cpp:395] conv6/dw/scale -> conv6/dw (in-place)
I0907 13:40:37.503540 23688 layer_factory.hpp:77] Creating layer conv6/dw/scale
I0907 13:40:37.503638 23688 net.cpp:150] Setting up conv6/dw/scale
I0907 13:40:37.503644 23688 net.cpp:157] Top shape: 8 1024 10 10 (819200)
I0907 13:40:37.503648 23688 net.cpp:165] Memory required for data: 1251152128
I0907 13:40:37.503655 23688 layer_factory.hpp:77] Creating layer conv6/dw_relu
I0907 13:40:37.503662 23688 net.cpp:100] Creating Layer conv6/dw_relu
I0907 13:40:37.503665 23688 net.cpp:434] conv6/dw_relu <- conv6/dw
I0907 13:40:37.503671 23688 net.cpp:395] conv6/dw_relu -> conv6/dw (in-place)
I0907 13:40:37.503837 23688 net.cpp:150] Setting up conv6/dw_relu
I0907 13:40:37.503847 23688 net.cpp:157] Top shape: 8 1024 10 10 (819200)
I0907 13:40:37.503850 23688 net.cpp:165] Memory required for data: 1254428928
I0907 13:40:37.503855 23688 layer_factory.hpp:77] Creating layer conv6/sep
I0907 13:40:37.503864 23688 net.cpp:100] Creating Layer conv6/sep
I0907 13:40:37.503867 23688 net.cpp:434] conv6/sep <- conv6/dw
I0907 13:40:37.503875 23688 net.cpp:408] conv6/sep -> conv6/sep
I0907 13:40:37.514261 23688 net.cpp:150] Setting up conv6/sep
I0907 13:40:37.514274 23688 net.cpp:157] Top shape: 8 1024 10 10 (819200)
I0907 13:40:37.514278 23688 net.cpp:165] Memory required for data: 1257705728
I0907 13:40:37.514286 23688 layer_factory.hpp:77] Creating layer conv6/sep/bn
I0907 13:40:37.514294 23688 net.cpp:100] Creating Layer conv6/sep/bn
I0907 13:40:37.514303 23688 net.cpp:434] conv6/sep/bn <- conv6/sep
I0907 13:40:37.514309 23688 net.cpp:395] conv6/sep/bn -> conv6/sep (in-place)
I0907 13:40:37.514482 23688 net.cpp:150] Setting up conv6/sep/bn
I0907 13:40:37.514492 23688 net.cpp:157] Top shape: 8 1024 10 10 (819200)
I0907 13:40:37.514494 23688 net.cpp:165] Memory required for data: 1260982528
I0907 13:40:37.514503 23688 layer_factory.hpp:77] Creating layer conv6/sep/scale
I0907 13:40:37.514510 23688 net.cpp:100] Creating Layer conv6/sep/scale
I0907 13:40:37.514514 23688 net.cpp:434] conv6/sep/scale <- conv6/sep
I0907 13:40:37.514519 23688 net.cpp:395] conv6/sep/scale -> conv6/sep (in-place)
I0907 13:40:37.514564 23688 layer_factory.hpp:77] Creating layer conv6/sep/scale
I0907 13:40:37.514667 23688 net.cpp:150] Setting up conv6/sep/scale
I0907 13:40:37.514675 23688 net.cpp:157] Top shape: 8 1024 10 10 (819200)
I0907 13:40:37.514679 23688 net.cpp:165] Memory required for data: 1264259328
I0907 13:40:37.514686 23688 layer_factory.hpp:77] Creating layer conv6/sep_relu
I0907 13:40:37.514693 23688 net.cpp:100] Creating Layer conv6/sep_relu
I0907 13:40:37.514696 23688 net.cpp:434] conv6/sep_relu <- conv6/sep
I0907 13:40:37.514701 23688 net.cpp:395] conv6/sep_relu -> conv6/sep (in-place)
I0907 13:40:37.515295 23688 net.cpp:150] Setting up conv6/sep_relu
I0907 13:40:37.515310 23688 net.cpp:157] Top shape: 8 1024 10 10 (819200)
I0907 13:40:37.515313 23688 net.cpp:165] Memory required for data: 1267536128
I0907 13:40:37.515318 23688 layer_factory.hpp:77] Creating layer conv6/sep_conv6/sep_relu_0_split
I0907 13:40:37.515334 23688 net.cpp:100] Creating Layer conv6/sep_conv6/sep_relu_0_split
I0907 13:40:37.515338 23688 net.cpp:434] conv6/sep_conv6/sep_relu_0_split <- conv6/sep
I0907 13:40:37.515347 23688 net.cpp:408] conv6/sep_conv6/sep_relu_0_split -> conv6/sep_conv6/sep_relu_0_split_0
I0907 13:40:37.515354 23688 net.cpp:408] conv6/sep_conv6/sep_relu_0_split -> conv6/sep_conv6/sep_relu_0_split_1
I0907 13:40:37.515362 23688 net.cpp:408] conv6/sep_conv6/sep_relu_0_split -> conv6/sep_conv6/sep_relu_0_split_2
I0907 13:40:37.515367 23688 net.cpp:408] conv6/sep_conv6/sep_relu_0_split -> conv6/sep_conv6/sep_relu_0_split_3
I0907 13:40:37.515424 23688 net.cpp:150] Setting up conv6/sep_conv6/sep_relu_0_split
I0907 13:40:37.515430 23688 net.cpp:157] Top shape: 8 1024 10 10 (819200)
I0907 13:40:37.515435 23688 net.cpp:157] Top shape: 8 1024 10 10 (819200)
I0907 13:40:37.515439 23688 net.cpp:157] Top shape: 8 1024 10 10 (819200)
I0907 13:40:37.515444 23688 net.cpp:157] Top shape: 8 1024 10 10 (819200)
I0907 13:40:37.515447 23688 net.cpp:165] Memory required for data: 1280643328
I0907 13:40:37.515450 23688 layer_factory.hpp:77] Creating layer conv7_1
I0907 13:40:37.515460 23688 net.cpp:100] Creating Layer conv7_1
I0907 13:40:37.515463 23688 net.cpp:434] conv7_1 <- conv6/sep_conv6/sep_relu_0_split_0
I0907 13:40:37.515471 23688 net.cpp:408] conv7_1 -> conv7_1
I0907 13:40:37.518506 23688 net.cpp:150] Setting up conv7_1
I0907 13:40:37.518517 23688 net.cpp:157] Top shape: 8 256 10 10 (204800)
I0907 13:40:37.518522 23688 net.cpp:165] Memory required for data: 1281462528
I0907 13:40:37.518529 23688 layer_factory.hpp:77] Creating layer conv7_1_relu
I0907 13:40:37.518535 23688 net.cpp:100] Creating Layer conv7_1_relu
I0907 13:40:37.518538 23688 net.cpp:434] conv7_1_relu <- conv7_1
I0907 13:40:37.518545 23688 net.cpp:395] conv7_1_relu -> conv7_1 (in-place)
I0907 13:40:37.518715 23688 net.cpp:150] Setting up conv7_1_relu
I0907 13:40:37.518725 23688 net.cpp:157] Top shape: 8 256 10 10 (204800)
I0907 13:40:37.518728 23688 net.cpp:165] Memory required for data: 1282281728
I0907 13:40:37.518733 23688 layer_factory.hpp:77] Creating layer conv7_2
I0907 13:40:37.518743 23688 net.cpp:100] Creating Layer conv7_2
I0907 13:40:37.518748 23688 net.cpp:434] conv7_2 <- conv7_1
I0907 13:40:37.518754 23688 net.cpp:408] conv7_2 -> conv7_2
I0907 13:40:37.526311 23688 net.cpp:150] Setting up conv7_2
I0907 13:40:37.526326 23688 net.cpp:157] Top shape: 8 512 5 5 (102400)
I0907 13:40:37.526330 23688 net.cpp:165] Memory required for data: 1282691328
I0907 13:40:37.526337 23688 layer_factory.hpp:77] Creating layer conv7_2_relu
I0907 13:40:37.526345 23688 net.cpp:100] Creating Layer conv7_2_relu
I0907 13:40:37.526350 23688 net.cpp:434] conv7_2_relu <- conv7_2
I0907 13:40:37.526355 23688 net.cpp:395] conv7_2_relu -> conv7_2 (in-place)
I0907 13:40:37.526520 23688 net.cpp:150] Setting up conv7_2_relu
I0907 13:40:37.526530 23688 net.cpp:157] Top shape: 8 512 5 5 (102400)
I0907 13:40:37.526535 23688 net.cpp:165] Memory required for data: 1283100928
I0907 13:40:37.526538 23688 layer_factory.hpp:77] Creating layer conv7_2_conv7_2_relu_0_split
I0907 13:40:37.526545 23688 net.cpp:100] Creating Layer conv7_2_conv7_2_relu_0_split
I0907 13:40:37.526548 23688 net.cpp:434] conv7_2_conv7_2_relu_0_split <- conv7_2
I0907 13:40:37.526556 23688 net.cpp:408] conv7_2_conv7_2_relu_0_split -> conv7_2_conv7_2_relu_0_split_0
I0907 13:40:37.526562 23688 net.cpp:408] conv7_2_conv7_2_relu_0_split -> conv7_2_conv7_2_relu_0_split_1
I0907 13:40:37.526568 23688 net.cpp:408] conv7_2_conv7_2_relu_0_split -> conv7_2_conv7_2_relu_0_split_2
I0907 13:40:37.526576 23688 net.cpp:408] conv7_2_conv7_2_relu_0_split -> conv7_2_conv7_2_relu_0_split_3
I0907 13:40:37.526633 23688 net.cpp:150] Setting up conv7_2_conv7_2_relu_0_split
I0907 13:40:37.526639 23688 net.cpp:157] Top shape: 8 512 5 5 (102400)
I0907 13:40:37.526644 23688 net.cpp:157] Top shape: 8 512 5 5 (102400)
I0907 13:40:37.526648 23688 net.cpp:157] Top shape: 8 512 5 5 (102400)
I0907 13:40:37.526652 23688 net.cpp:157] Top shape: 8 512 5 5 (102400)
I0907 13:40:37.526666 23688 net.cpp:165] Memory required for data: 1284739328
I0907 13:40:37.526670 23688 layer_factory.hpp:77] Creating layer conv8_1
I0907 13:40:37.526679 23688 net.cpp:100] Creating Layer conv8_1
I0907 13:40:37.526684 23688 net.cpp:434] conv8_1 <- conv7_2_conv7_2_relu_0_split_0
I0907 13:40:37.526691 23688 net.cpp:408] conv8_1 -> conv8_1
I0907 13:40:37.528955 23688 net.cpp:150] Setting up conv8_1
I0907 13:40:37.528967 23688 net.cpp:157] Top shape: 8 128 5 5 (25600)
I0907 13:40:37.528972 23688 net.cpp:165] Memory required for data: 1284841728
I0907 13:40:37.528980 23688 layer_factory.hpp:77] Creating layer conv8_1_relu
I0907 13:40:37.528985 23688 net.cpp:100] Creating Layer conv8_1_relu
I0907 13:40:37.528988 23688 net.cpp:434] conv8_1_relu <- conv8_1
I0907 13:40:37.528995 23688 net.cpp:395] conv8_1_relu -> conv8_1 (in-place)
I0907 13:40:37.529587 23688 net.cpp:150] Setting up conv8_1_relu
I0907 13:40:37.529597 23688 net.cpp:157] Top shape: 8 128 5 5 (25600)
I0907 13:40:37.529602 23688 net.cpp:165] Memory required for data: 1284944128
I0907 13:40:37.529605 23688 layer_factory.hpp:77] Creating layer conv8_2
I0907 13:40:37.529615 23688 net.cpp:100] Creating Layer conv8_2
I0907 13:40:37.529619 23688 net.cpp:434] conv8_2 <- conv8_1
I0907 13:40:37.529628 23688 net.cpp:408] conv8_2 -> conv8_2
I0907 13:40:37.532832 23688 net.cpp:150] Setting up conv8_2
I0907 13:40:37.532845 23688 net.cpp:157] Top shape: 8 256 3 3 (18432)
I0907 13:40:37.532850 23688 net.cpp:165] Memory required for data: 1285017856
I0907 13:40:37.532856 23688 layer_factory.hpp:77] Creating layer conv8_2_relu
I0907 13:40:37.532862 23688 net.cpp:100] Creating Layer conv8_2_relu
I0907 13:40:37.532866 23688 net.cpp:434] conv8_2_relu <- conv8_2
I0907 13:40:37.532873 23688 net.cpp:395] conv8_2_relu -> conv8_2 (in-place)
I0907 13:40:37.533054 23688 net.cpp:150] Setting up conv8_2_relu
I0907 13:40:37.533063 23688 net.cpp:157] Top shape: 8 256 3 3 (18432)
I0907 13:40:37.533067 23688 net.cpp:165] Memory required for data: 1285091584
I0907 13:40:37.533071 23688 layer_factory.hpp:77] Creating layer conv8_2_conv8_2_relu_0_split
I0907 13:40:37.533078 23688 net.cpp:100] Creating Layer conv8_2_conv8_2_relu_0_split
I0907 13:40:37.533082 23688 net.cpp:434] conv8_2_conv8_2_relu_0_split <- conv8_2
I0907 13:40:37.533089 23688 net.cpp:408] conv8_2_conv8_2_relu_0_split -> conv8_2_conv8_2_relu_0_split_0
I0907 13:40:37.533097 23688 net.cpp:408] conv8_2_conv8_2_relu_0_split -> conv8_2_conv8_2_relu_0_split_1
I0907 13:40:37.533103 23688 net.cpp:408] conv8_2_conv8_2_relu_0_split -> conv8_2_conv8_2_relu_0_split_2
I0907 13:40:37.533109 23688 net.cpp:408] conv8_2_conv8_2_relu_0_split -> conv8_2_conv8_2_relu_0_split_3
I0907 13:40:37.533166 23688 net.cpp:150] Setting up conv8_2_conv8_2_relu_0_split
I0907 13:40:37.533172 23688 net.cpp:157] Top shape: 8 256 3 3 (18432)
I0907 13:40:37.533177 23688 net.cpp:157] Top shape: 8 256 3 3 (18432)
I0907 13:40:37.533182 23688 net.cpp:157] Top shape: 8 256 3 3 (18432)
I0907 13:40:37.533186 23688 net.cpp:157] Top shape: 8 256 3 3 (18432)
I0907 13:40:37.533190 23688 net.cpp:165] Memory required for data: 1285386496
I0907 13:40:37.533193 23688 layer_factory.hpp:77] Creating layer conv9_1
I0907 13:40:37.533203 23688 net.cpp:100] Creating Layer conv9_1
I0907 13:40:37.533206 23688 net.cpp:434] conv9_1 <- conv8_2_conv8_2_relu_0_split_0
I0907 13:40:37.533215 23688 net.cpp:408] conv9_1 -> conv9_1
I0907 13:40:37.535274 23688 net.cpp:150] Setting up conv9_1
I0907 13:40:37.535285 23688 net.cpp:157] Top shape: 8 128 3 3 (9216)
I0907 13:40:37.535290 23688 net.cpp:165] Memory required for data: 1285423360
I0907 13:40:37.535297 23688 layer_factory.hpp:77] Creating layer conv9_1_relu
I0907 13:40:37.535303 23688 net.cpp:100] Creating Layer conv9_1_relu
I0907 13:40:37.535307 23688 net.cpp:434] conv9_1_relu <- conv9_1
I0907 13:40:37.535313 23688 net.cpp:395] conv9_1_relu -> conv9_1 (in-place)
I0907 13:40:37.535476 23688 net.cpp:150] Setting up conv9_1_relu
I0907 13:40:37.535486 23688 net.cpp:157] Top shape: 8 128 3 3 (9216)
I0907 13:40:37.535500 23688 net.cpp:165] Memory required for data: 1285460224
I0907 13:40:37.535504 23688 layer_factory.hpp:77] Creating layer conv9_2
I0907 13:40:37.535513 23688 net.cpp:100] Creating Layer conv9_2
I0907 13:40:37.535517 23688 net.cpp:434] conv9_2 <- conv9_1
I0907 13:40:37.535524 23688 net.cpp:408] conv9_2 -> conv9_2
I0907 13:40:37.538712 23688 net.cpp:150] Setting up conv9_2
I0907 13:40:37.538723 23688 net.cpp:157] Top shape: 8 256 2 2 (8192)
I0907 13:40:37.538727 23688 net.cpp:165] Memory required for data: 1285492992
I0907 13:40:37.538734 23688 layer_factory.hpp:77] Creating layer conv9_2_relu
I0907 13:40:37.538741 23688 net.cpp:100] Creating Layer conv9_2_relu
I0907 13:40:37.538745 23688 net.cpp:434] conv9_2_relu <- conv9_2
I0907 13:40:37.538751 23688 net.cpp:395] conv9_2_relu -> conv9_2 (in-place)
I0907 13:40:37.539345 23688 net.cpp:150] Setting up conv9_2_relu
I0907 13:40:37.539355 23688 net.cpp:157] Top shape: 8 256 2 2 (8192)
I0907 13:40:37.539361 23688 net.cpp:165] Memory required for data: 1285525760
I0907 13:40:37.539364 23688 layer_factory.hpp:77] Creating layer conv9_2_conv9_2_relu_0_split
I0907 13:40:37.539371 23688 net.cpp:100] Creating Layer conv9_2_conv9_2_relu_0_split
I0907 13:40:37.539374 23688 net.cpp:434] conv9_2_conv9_2_relu_0_split <- conv9_2
I0907 13:40:37.539382 23688 net.cpp:408] conv9_2_conv9_2_relu_0_split -> conv9_2_conv9_2_relu_0_split_0
I0907 13:40:37.539389 23688 net.cpp:408] conv9_2_conv9_2_relu_0_split -> conv9_2_conv9_2_relu_0_split_1
I0907 13:40:37.539397 23688 net.cpp:408] conv9_2_conv9_2_relu_0_split -> conv9_2_conv9_2_relu_0_split_2
I0907 13:40:37.539402 23688 net.cpp:408] conv9_2_conv9_2_relu_0_split -> conv9_2_conv9_2_relu_0_split_3
I0907 13:40:37.539458 23688 net.cpp:150] Setting up conv9_2_conv9_2_relu_0_split
I0907 13:40:37.539465 23688 net.cpp:157] Top shape: 8 256 2 2 (8192)
I0907 13:40:37.539471 23688 net.cpp:157] Top shape: 8 256 2 2 (8192)
I0907 13:40:37.539475 23688 net.cpp:157] Top shape: 8 256 2 2 (8192)
I0907 13:40:37.539479 23688 net.cpp:157] Top shape: 8 256 2 2 (8192)
I0907 13:40:37.539482 23688 net.cpp:165] Memory required for data: 1285656832
I0907 13:40:37.539486 23688 layer_factory.hpp:77] Creating layer conv10_1
I0907 13:40:37.539495 23688 net.cpp:100] Creating Layer conv10_1
I0907 13:40:37.539499 23688 net.cpp:434] conv10_1 <- conv9_2_conv9_2_relu_0_split_0
I0907 13:40:37.539510 23688 net.cpp:408] conv10_1 -> conv10_1
I0907 13:40:37.541204 23688 net.cpp:150] Setting up conv10_1
I0907 13:40:37.541214 23688 net.cpp:157] Top shape: 8 128 2 2 (4096)
I0907 13:40:37.541218 23688 net.cpp:165] Memory required for data: 1285673216
I0907 13:40:37.541223 23688 layer_factory.hpp:77] Creating layer conv10_1_relu
I0907 13:40:37.541239 23688 net.cpp:100] Creating Layer conv10_1_relu
I0907 13:40:37.541244 23688 net.cpp:434] conv10_1_relu <- conv10_1
I0907 13:40:37.541250 23688 net.cpp:395] conv10_1_relu -> conv10_1 (in-place)
I0907 13:40:37.541462 23688 net.cpp:150] Setting up conv10_1_relu
I0907 13:40:37.541472 23688 net.cpp:157] Top shape: 8 128 2 2 (4096)
I0907 13:40:37.541476 23688 net.cpp:165] Memory required for data: 1285689600
I0907 13:40:37.541481 23688 layer_factory.hpp:77] Creating layer conv10_2
I0907 13:40:37.541489 23688 net.cpp:100] Creating Layer conv10_2
I0907 13:40:37.541494 23688 net.cpp:434] conv10_2 <- conv10_1
I0907 13:40:37.541499 23688 net.cpp:408] conv10_2 -> conv10_2
I0907 13:40:37.544692 23688 net.cpp:150] Setting up conv10_2
I0907 13:40:37.544704 23688 net.cpp:157] Top shape: 8 256 1 1 (2048)
I0907 13:40:37.544708 23688 net.cpp:165] Memory required for data: 1285697792
I0907 13:40:37.544716 23688 layer_factory.hpp:77] Creating layer conv10_2_relu
I0907 13:40:37.544721 23688 net.cpp:100] Creating Layer conv10_2_relu
I0907 13:40:37.544725 23688 net.cpp:434] conv10_2_relu <- conv10_2
I0907 13:40:37.544730 23688 net.cpp:395] conv10_2_relu -> conv10_2 (in-place)
I0907 13:40:37.544894 23688 net.cpp:150] Setting up conv10_2_relu
I0907 13:40:37.544903 23688 net.cpp:157] Top shape: 8 256 1 1 (2048)
I0907 13:40:37.544908 23688 net.cpp:165] Memory required for data: 1285705984
I0907 13:40:37.544920 23688 layer_factory.hpp:77] Creating layer conv10_2_conv10_2_relu_0_split
I0907 13:40:37.544926 23688 net.cpp:100] Creating Layer conv10_2_conv10_2_relu_0_split
I0907 13:40:37.544930 23688 net.cpp:434] conv10_2_conv10_2_relu_0_split <- conv10_2
I0907 13:40:37.544937 23688 net.cpp:408] conv10_2_conv10_2_relu_0_split -> conv10_2_conv10_2_relu_0_split_0
I0907 13:40:37.544952 23688 net.cpp:408] conv10_2_conv10_2_relu_0_split -> conv10_2_conv10_2_relu_0_split_1
I0907 13:40:37.544960 23688 net.cpp:408] conv10_2_conv10_2_relu_0_split -> conv10_2_conv10_2_relu_0_split_2
I0907 13:40:37.545008 23688 net.cpp:150] Setting up conv10_2_conv10_2_relu_0_split
I0907 13:40:37.545016 23688 net.cpp:157] Top shape: 8 256 1 1 (2048)
I0907 13:40:37.545020 23688 net.cpp:157] Top shape: 8 256 1 1 (2048)
I0907 13:40:37.545025 23688 net.cpp:157] Top shape: 8 256 1 1 (2048)
I0907 13:40:37.545028 23688 net.cpp:165] Memory required for data: 1285730560
I0907 13:40:37.545032 23688 layer_factory.hpp:77] Creating layer conv5_5/sep_mbox_loc
I0907 13:40:37.545042 23688 net.cpp:100] Creating Layer conv5_5/sep_mbox_loc
I0907 13:40:37.545047 23688 net.cpp:434] conv5_5/sep_mbox_loc <- conv5_5/sep_conv5_5/sep_relu_0_split_1
I0907 13:40:37.545053 23688 net.cpp:408] conv5_5/sep_mbox_loc -> conv5_5/sep_mbox_loc
I0907 13:40:37.548151 23688 net.cpp:150] Setting up conv5_5/sep_mbox_loc
I0907 13:40:37.548162 23688 net.cpp:157] Top shape: 8 12 19 19 (34656)
I0907 13:40:37.548167 23688 net.cpp:165] Memory required for data: 1285869184
I0907 13:40:37.548174 23688 layer_factory.hpp:77] Creating layer conv5_5/sep_mbox_loc_perm
I0907 13:40:37.548182 23688 net.cpp:100] Creating Layer conv5_5/sep_mbox_loc_perm
I0907 13:40:37.548185 23688 net.cpp:434] conv5_5/sep_mbox_loc_perm <- conv5_5/sep_mbox_loc
I0907 13:40:37.548192 23688 net.cpp:408] conv5_5/sep_mbox_loc_perm -> conv5_5/sep_mbox_loc_perm
I0907 13:40:37.548281 23688 net.cpp:150] Setting up conv5_5/sep_mbox_loc_perm
I0907 13:40:37.548290 23688 net.cpp:157] Top shape: 8 19 19 12 (34656)
I0907 13:40:37.548293 23688 net.cpp:165] Memory required for data: 1286007808
I0907 13:40:37.548296 23688 layer_factory.hpp:77] Creating layer conv5_5/sep_mbox_loc_flat
I0907 13:40:37.548303 23688 net.cpp:100] Creating Layer conv5_5/sep_mbox_loc_flat
I0907 13:40:37.548306 23688 net.cpp:434] conv5_5/sep_mbox_loc_flat <- conv5_5/sep_mbox_loc_perm
I0907 13:40:37.548313 23688 net.cpp:408] conv5_5/sep_mbox_loc_flat -> conv5_5/sep_mbox_loc_flat
I0907 13:40:37.548337 23688 net.cpp:150] Setting up conv5_5/sep_mbox_loc_flat
I0907 13:40:37.548343 23688 net.cpp:157] Top shape: 8 4332 (34656)
I0907 13:40:37.548346 23688 net.cpp:165] Memory required for data: 1286146432
I0907 13:40:37.548351 23688 layer_factory.hpp:77] Creating layer conv5_5/sep_mbox_conf
I0907 13:40:37.548359 23688 net.cpp:100] Creating Layer conv5_5/sep_mbox_conf
I0907 13:40:37.548363 23688 net.cpp:434] conv5_5/sep_mbox_conf <- conv5_5/sep_conv5_5/sep_relu_0_split_2
I0907 13:40:37.548370 23688 net.cpp:408] conv5_5/sep_mbox_conf -> conv5_5/sep_mbox_conf
I0907 13:40:37.551787 23688 net.cpp:150] Setting up conv5_5/sep_mbox_conf
I0907 13:40:37.551800 23688 net.cpp:157] Top shape: 8 12 19 19 (34656)
I0907 13:40:37.551805 23688 net.cpp:165] Memory required for data: 1286285056
I0907 13:40:37.551811 23688 layer_factory.hpp:77] Creating layer conv5_5/sep_mbox_conf_perm
I0907 13:40:37.551818 23688 net.cpp:100] Creating Layer conv5_5/sep_mbox_conf_perm
I0907 13:40:37.551822 23688 net.cpp:434] conv5_5/sep_mbox_conf_perm <- conv5_5/sep_mbox_conf
I0907 13:40:37.551829 23688 net.cpp:408] conv5_5/sep_mbox_conf_perm -> conv5_5/sep_mbox_conf_perm
I0907 13:40:37.551916 23688 net.cpp:150] Setting up conv5_5/sep_mbox_conf_perm
I0907 13:40:37.551923 23688 net.cpp:157] Top shape: 8 19 19 12 (34656)
I0907 13:40:37.551928 23688 net.cpp:165] Memory required for data: 1286423680
I0907 13:40:37.551931 23688 layer_factory.hpp:77] Creating layer conv5_5/sep_mbox_conf_flat
I0907 13:40:37.551937 23688 net.cpp:100] Creating Layer conv5_5/sep_mbox_conf_flat
I0907 13:40:37.551951 23688 net.cpp:434] conv5_5/sep_mbox_conf_flat <- conv5_5/sep_mbox_conf_perm
I0907 13:40:37.551959 23688 net.cpp:408] conv5_5/sep_mbox_conf_flat -> conv5_5/sep_mbox_conf_flat
I0907 13:40:37.551983 23688 net.cpp:150] Setting up conv5_5/sep_mbox_conf_flat
I0907 13:40:37.551990 23688 net.cpp:157] Top shape: 8 4332 (34656)
I0907 13:40:37.551993 23688 net.cpp:165] Memory required for data: 1286562304
I0907 13:40:37.551997 23688 layer_factory.hpp:77] Creating layer conv5_5/sep_mbox_priorbox
I0907 13:40:37.552004 23688 net.cpp:100] Creating Layer conv5_5/sep_mbox_priorbox
I0907 13:40:37.552008 23688 net.cpp:434] conv5_5/sep_mbox_priorbox <- conv5_5/sep_conv5_5/sep_relu_0_split_3
I0907 13:40:37.552013 23688 net.cpp:434] conv5_5/sep_mbox_priorbox <- data_data_0_split_1
I0907 13:40:37.552021 23688 net.cpp:408] conv5_5/sep_mbox_priorbox -> conv5_5/sep_mbox_priorbox
I0907 13:40:37.552048 23688 net.cpp:150] Setting up conv5_5/sep_mbox_priorbox
I0907 13:40:37.552054 23688 net.cpp:157] Top shape: 1 2 4332 (8664)
I0907 13:40:37.552058 23688 net.cpp:165] Memory required for data: 1286596960
I0907 13:40:37.552062 23688 layer_factory.hpp:77] Creating layer conv6/sep_mbox_loc
I0907 13:40:37.552072 23688 net.cpp:100] Creating Layer conv6/sep_mbox_loc
I0907 13:40:37.552075 23688 net.cpp:434] conv6/sep_mbox_loc <- conv6/sep_conv6/sep_relu_0_split_1
I0907 13:40:37.552083 23688 net.cpp:408] conv6/sep_mbox_loc -> conv6/sep_mbox_loc
I0907 13:40:37.555775 23688 net.cpp:150] Setting up conv6/sep_mbox_loc
I0907 13:40:37.555788 23688 net.cpp:157] Top shape: 8 24 10 10 (19200)
I0907 13:40:37.555791 23688 net.cpp:165] Memory required for data: 1286673760
I0907 13:40:37.555799 23688 layer_factory.hpp:77] Creating layer conv6/sep_mbox_loc_perm
I0907 13:40:37.555806 23688 net.cpp:100] Creating Layer conv6/sep_mbox_loc_perm
I0907 13:40:37.555810 23688 net.cpp:434] conv6/sep_mbox_loc_perm <- conv6/sep_mbox_loc
I0907 13:40:37.555816 23688 net.cpp:408] conv6/sep_mbox_loc_perm -> conv6/sep_mbox_loc_perm
I0907 13:40:37.555907 23688 net.cpp:150] Setting up conv6/sep_mbox_loc_perm
I0907 13:40:37.555914 23688 net.cpp:157] Top shape: 8 10 10 24 (19200)
I0907 13:40:37.555918 23688 net.cpp:165] Memory required for data: 1286750560
I0907 13:40:37.555922 23688 layer_factory.hpp:77] Creating layer conv6/sep_mbox_loc_flat
I0907 13:40:37.555930 23688 net.cpp:100] Creating Layer conv6/sep_mbox_loc_flat
I0907 13:40:37.555933 23688 net.cpp:434] conv6/sep_mbox_loc_flat <- conv6/sep_mbox_loc_perm
I0907 13:40:37.555939 23688 net.cpp:408] conv6/sep_mbox_loc_flat -> conv6/sep_mbox_loc_flat
I0907 13:40:37.555963 23688 net.cpp:150] Setting up conv6/sep_mbox_loc_flat
I0907 13:40:37.555968 23688 net.cpp:157] Top shape: 8 2400 (19200)
I0907 13:40:37.555971 23688 net.cpp:165] Memory required for data: 1286827360
I0907 13:40:37.555975 23688 layer_factory.hpp:77] Creating layer conv6/sep_mbox_conf
I0907 13:40:37.555984 23688 net.cpp:100] Creating Layer conv6/sep_mbox_conf
I0907 13:40:37.555989 23688 net.cpp:434] conv6/sep_mbox_conf <- conv6/sep_conv6/sep_relu_0_split_2
I0907 13:40:37.555996 23688 net.cpp:408] conv6/sep_mbox_conf -> conv6/sep_mbox_conf
I0907 13:40:37.559269 23688 net.cpp:150] Setting up conv6/sep_mbox_conf
I0907 13:40:37.559280 23688 net.cpp:157] Top shape: 8 24 10 10 (19200)
I0907 13:40:37.559285 23688 net.cpp:165] Memory required for data: 1286904160
I0907 13:40:37.559293 23688 layer_factory.hpp:77] Creating layer conv6/sep_mbox_conf_perm
I0907 13:40:37.559299 23688 net.cpp:100] Creating Layer conv6/sep_mbox_conf_perm
I0907 13:40:37.559303 23688 net.cpp:434] conv6/sep_mbox_conf_perm <- conv6/sep_mbox_conf
I0907 13:40:37.559309 23688 net.cpp:408] conv6/sep_mbox_conf_perm -> conv6/sep_mbox_conf_perm
I0907 13:40:37.559398 23688 net.cpp:150] Setting up conv6/sep_mbox_conf_perm
I0907 13:40:37.559406 23688 net.cpp:157] Top shape: 8 10 10 24 (19200)
I0907 13:40:37.559409 23688 net.cpp:165] Memory required for data: 1286980960
I0907 13:40:37.559413 23688 layer_factory.hpp:77] Creating layer conv6/sep_mbox_conf_flat
I0907 13:40:37.559420 23688 net.cpp:100] Creating Layer conv6/sep_mbox_conf_flat
I0907 13:40:37.559433 23688 net.cpp:434] conv6/sep_mbox_conf_flat <- conv6/sep_mbox_conf_perm
I0907 13:40:37.559439 23688 net.cpp:408] conv6/sep_mbox_conf_flat -> conv6/sep_mbox_conf_flat
I0907 13:40:37.559465 23688 net.cpp:150] Setting up conv6/sep_mbox_conf_flat
I0907 13:40:37.559471 23688 net.cpp:157] Top shape: 8 2400 (19200)
I0907 13:40:37.559475 23688 net.cpp:165] Memory required for data: 1287057760
I0907 13:40:37.559479 23688 layer_factory.hpp:77] Creating layer conv6/sep_mbox_priorbox
I0907 13:40:37.559486 23688 net.cpp:100] Creating Layer conv6/sep_mbox_priorbox
I0907 13:40:37.559490 23688 net.cpp:434] conv6/sep_mbox_priorbox <- conv6/sep_conv6/sep_relu_0_split_3
I0907 13:40:37.559495 23688 net.cpp:434] conv6/sep_mbox_priorbox <- data_data_0_split_2
I0907 13:40:37.559501 23688 net.cpp:408] conv6/sep_mbox_priorbox -> conv6/sep_mbox_priorbox
I0907 13:40:37.559526 23688 net.cpp:150] Setting up conv6/sep_mbox_priorbox
I0907 13:40:37.559531 23688 net.cpp:157] Top shape: 1 2 2400 (4800)
I0907 13:40:37.559535 23688 net.cpp:165] Memory required for data: 1287076960
I0907 13:40:37.559540 23688 layer_factory.hpp:77] Creating layer conv7_2_mbox_loc
I0907 13:40:37.559548 23688 net.cpp:100] Creating Layer conv7_2_mbox_loc
I0907 13:40:37.559551 23688 net.cpp:434] conv7_2_mbox_loc <- conv7_2_conv7_2_relu_0_split_1
I0907 13:40:37.559561 23688 net.cpp:408] conv7_2_mbox_loc -> conv7_2_mbox_loc
I0907 13:40:37.561949 23688 net.cpp:150] Setting up conv7_2_mbox_loc
I0907 13:40:37.561959 23688 net.cpp:157] Top shape: 8 24 5 5 (4800)
I0907 13:40:37.561960 23688 net.cpp:165] Memory required for data: 1287096160
I0907 13:40:37.561965 23688 layer_factory.hpp:77] Creating layer conv7_2_mbox_loc_perm
I0907 13:40:37.561971 23688 net.cpp:100] Creating Layer conv7_2_mbox_loc_perm
I0907 13:40:37.561975 23688 net.cpp:434] conv7_2_mbox_loc_perm <- conv7_2_mbox_loc
I0907 13:40:37.561978 23688 net.cpp:408] conv7_2_mbox_loc_perm -> conv7_2_mbox_loc_perm
I0907 13:40:37.562067 23688 net.cpp:150] Setting up conv7_2_mbox_loc_perm
I0907 13:40:37.562073 23688 net.cpp:157] Top shape: 8 5 5 24 (4800)
I0907 13:40:37.562077 23688 net.cpp:165] Memory required for data: 1287115360
I0907 13:40:37.562081 23688 layer_factory.hpp:77] Creating layer conv7_2_mbox_loc_flat
I0907 13:40:37.562088 23688 net.cpp:100] Creating Layer conv7_2_mbox_loc_flat
I0907 13:40:37.562091 23688 net.cpp:434] conv7_2_mbox_loc_flat <- conv7_2_mbox_loc_perm
I0907 13:40:37.562099 23688 net.cpp:408] conv7_2_mbox_loc_flat -> conv7_2_mbox_loc_flat
I0907 13:40:37.562122 23688 net.cpp:150] Setting up conv7_2_mbox_loc_flat
I0907 13:40:37.562129 23688 net.cpp:157] Top shape: 8 600 (4800)
I0907 13:40:37.562134 23688 net.cpp:165] Memory required for data: 1287134560
I0907 13:40:37.562137 23688 layer_factory.hpp:77] Creating layer conv7_2_mbox_conf
I0907 13:40:37.562146 23688 net.cpp:100] Creating Layer conv7_2_mbox_conf
I0907 13:40:37.562150 23688 net.cpp:434] conv7_2_mbox_conf <- conv7_2_conv7_2_relu_0_split_2
I0907 13:40:37.562157 23688 net.cpp:408] conv7_2_mbox_conf -> conv7_2_mbox_conf
I0907 13:40:37.564579 23688 net.cpp:150] Setting up conv7_2_mbox_conf
I0907 13:40:37.564589 23688 net.cpp:157] Top shape: 8 24 5 5 (4800)
I0907 13:40:37.564594 23688 net.cpp:165] Memory required for data: 1287153760
I0907 13:40:37.564600 23688 layer_factory.hpp:77] Creating layer conv7_2_mbox_conf_perm
I0907 13:40:37.564610 23688 net.cpp:100] Creating Layer conv7_2_mbox_conf_perm
I0907 13:40:37.564615 23688 net.cpp:434] conv7_2_mbox_conf_perm <- conv7_2_mbox_conf
I0907 13:40:37.564620 23688 net.cpp:408] conv7_2_mbox_conf_perm -> conv7_2_mbox_conf_perm
I0907 13:40:37.564710 23688 net.cpp:150] Setting up conv7_2_mbox_conf_perm
I0907 13:40:37.564718 23688 net.cpp:157] Top shape: 8 5 5 24 (4800)
I0907 13:40:37.564720 23688 net.cpp:165] Memory required for data: 1287172960
I0907 13:40:37.564724 23688 layer_factory.hpp:77] Creating layer conv7_2_mbox_conf_flat
I0907 13:40:37.564731 23688 net.cpp:100] Creating Layer conv7_2_mbox_conf_flat
I0907 13:40:37.564735 23688 net.cpp:434] conv7_2_mbox_conf_flat <- conv7_2_mbox_conf_perm
I0907 13:40:37.564750 23688 net.cpp:408] conv7_2_mbox_conf_flat -> conv7_2_mbox_conf_flat
I0907 13:40:37.564779 23688 net.cpp:150] Setting up conv7_2_mbox_conf_flat
I0907 13:40:37.564785 23688 net.cpp:157] Top shape: 8 600 (4800)
I0907 13:40:37.564787 23688 net.cpp:165] Memory required for data: 1287192160
I0907 13:40:37.564791 23688 layer_factory.hpp:77] Creating layer conv7_2_mbox_priorbox
I0907 13:40:37.564800 23688 net.cpp:100] Creating Layer conv7_2_mbox_priorbox
I0907 13:40:37.564803 23688 net.cpp:434] conv7_2_mbox_priorbox <- conv7_2_conv7_2_relu_0_split_3
I0907 13:40:37.564808 23688 net.cpp:434] conv7_2_mbox_priorbox <- data_data_0_split_3
I0907 13:40:37.564815 23688 net.cpp:408] conv7_2_mbox_priorbox -> conv7_2_mbox_priorbox
I0907 13:40:37.564839 23688 net.cpp:150] Setting up conv7_2_mbox_priorbox
I0907 13:40:37.564846 23688 net.cpp:157] Top shape: 1 2 600 (1200)
I0907 13:40:37.564848 23688 net.cpp:165] Memory required for data: 1287196960
I0907 13:40:37.564852 23688 layer_factory.hpp:77] Creating layer conv8_2_mbox_loc
I0907 13:40:37.564862 23688 net.cpp:100] Creating Layer conv8_2_mbox_loc
I0907 13:40:37.564865 23688 net.cpp:434] conv8_2_mbox_loc <- conv8_2_conv8_2_relu_0_split_1
I0907 13:40:37.564873 23688 net.cpp:408] conv8_2_mbox_loc -> conv8_2_mbox_loc
I0907 13:40:37.567085 23688 net.cpp:150] Setting up conv8_2_mbox_loc
I0907 13:40:37.567095 23688 net.cpp:157] Top shape: 8 24 3 3 (1728)
I0907 13:40:37.567100 23688 net.cpp:165] Memory required for data: 1287203872
I0907 13:40:37.567107 23688 layer_factory.hpp:77] Creating layer conv8_2_mbox_loc_perm
I0907 13:40:37.567114 23688 net.cpp:100] Creating Layer conv8_2_mbox_loc_perm
I0907 13:40:37.567118 23688 net.cpp:434] conv8_2_mbox_loc_perm <- conv8_2_mbox_loc
I0907 13:40:37.567124 23688 net.cpp:408] conv8_2_mbox_loc_perm -> conv8_2_mbox_loc_perm
I0907 13:40:37.567216 23688 net.cpp:150] Setting up conv8_2_mbox_loc_perm
I0907 13:40:37.567222 23688 net.cpp:157] Top shape: 8 3 3 24 (1728)
I0907 13:40:37.567226 23688 net.cpp:165] Memory required for data: 1287210784
I0907 13:40:37.567230 23688 layer_factory.hpp:77] Creating layer conv8_2_mbox_loc_flat
I0907 13:40:37.567237 23688 net.cpp:100] Creating Layer conv8_2_mbox_loc_flat
I0907 13:40:37.567241 23688 net.cpp:434] conv8_2_mbox_loc_flat <- conv8_2_mbox_loc_perm
I0907 13:40:37.567246 23688 net.cpp:408] conv8_2_mbox_loc_flat -> conv8_2_mbox_loc_flat
I0907 13:40:37.567270 23688 net.cpp:150] Setting up conv8_2_mbox_loc_flat
I0907 13:40:37.567276 23688 net.cpp:157] Top shape: 8 216 (1728)
I0907 13:40:37.567279 23688 net.cpp:165] Memory required for data: 1287217696
I0907 13:40:37.567282 23688 layer_factory.hpp:77] Creating layer conv8_2_mbox_conf
I0907 13:40:37.567292 23688 net.cpp:100] Creating Layer conv8_2_mbox_conf
I0907 13:40:37.567296 23688 net.cpp:434] conv8_2_mbox_conf <- conv8_2_conv8_2_relu_0_split_2
I0907 13:40:37.567303 23688 net.cpp:408] conv8_2_mbox_conf -> conv8_2_mbox_conf
I0907 13:40:37.569883 23688 net.cpp:150] Setting up conv8_2_mbox_conf
I0907 13:40:37.569895 23688 net.cpp:157] Top shape: 8 24 3 3 (1728)
I0907 13:40:37.569898 23688 net.cpp:165] Memory required for data: 1287224608
I0907 13:40:37.569906 23688 layer_factory.hpp:77] Creating layer conv8_2_mbox_conf_perm
I0907 13:40:37.569913 23688 net.cpp:100] Creating Layer conv8_2_mbox_conf_perm
I0907 13:40:37.569917 23688 net.cpp:434] conv8_2_mbox_conf_perm <- conv8_2_mbox_conf
I0907 13:40:37.569924 23688 net.cpp:408] conv8_2_mbox_conf_perm -> conv8_2_mbox_conf_perm
I0907 13:40:37.570017 23688 net.cpp:150] Setting up conv8_2_mbox_conf_perm
I0907 13:40:37.570024 23688 net.cpp:157] Top shape: 8 3 3 24 (1728)
I0907 13:40:37.570027 23688 net.cpp:165] Memory required for data: 1287231520
I0907 13:40:37.570031 23688 layer_factory.hpp:77] Creating layer conv8_2_mbox_conf_flat
I0907 13:40:37.570037 23688 net.cpp:100] Creating Layer conv8_2_mbox_conf_flat
I0907 13:40:37.570041 23688 net.cpp:434] conv8_2_mbox_conf_flat <- conv8_2_mbox_conf_perm
I0907 13:40:37.570049 23688 net.cpp:408] conv8_2_mbox_conf_flat -> conv8_2_mbox_conf_flat
I0907 13:40:37.570085 23688 net.cpp:150] Setting up conv8_2_mbox_conf_flat
I0907 13:40:37.570091 23688 net.cpp:157] Top shape: 8 216 (1728)
I0907 13:40:37.570094 23688 net.cpp:165] Memory required for data: 1287238432
I0907 13:40:37.570098 23688 layer_factory.hpp:77] Creating layer conv8_2_mbox_priorbox
I0907 13:40:37.570104 23688 net.cpp:100] Creating Layer conv8_2_mbox_priorbox
I0907 13:40:37.570108 23688 net.cpp:434] conv8_2_mbox_priorbox <- conv8_2_conv8_2_relu_0_split_3
I0907 13:40:37.570113 23688 net.cpp:434] conv8_2_mbox_priorbox <- data_data_0_split_4
I0907 13:40:37.570121 23688 net.cpp:408] conv8_2_mbox_priorbox -> conv8_2_mbox_priorbox
I0907 13:40:37.570147 23688 net.cpp:150] Setting up conv8_2_mbox_priorbox
I0907 13:40:37.570152 23688 net.cpp:157] Top shape: 1 2 216 (432)
I0907 13:40:37.570155 23688 net.cpp:165] Memory required for data: 1287240160
I0907 13:40:37.570159 23688 layer_factory.hpp:77] Creating layer conv9_2_mbox_loc
I0907 13:40:37.570168 23688 net.cpp:100] Creating Layer conv9_2_mbox_loc
I0907 13:40:37.570173 23688 net.cpp:434] conv9_2_mbox_loc <- conv9_2_conv9_2_relu_0_split_1
I0907 13:40:37.570179 23688 net.cpp:408] conv9_2_mbox_loc -> conv9_2_mbox_loc
I0907 13:40:37.572402 23688 net.cpp:150] Setting up conv9_2_mbox_loc
I0907 13:40:37.572413 23688 net.cpp:157] Top shape: 8 24 2 2 (768)
I0907 13:40:37.572417 23688 net.cpp:165] Memory required for data: 1287243232
I0907 13:40:37.572425 23688 layer_factory.hpp:77] Creating layer conv9_2_mbox_loc_perm
I0907 13:40:37.572432 23688 net.cpp:100] Creating Layer conv9_2_mbox_loc_perm
I0907 13:40:37.572437 23688 net.cpp:434] conv9_2_mbox_loc_perm <- conv9_2_mbox_loc
I0907 13:40:37.572443 23688 net.cpp:408] conv9_2_mbox_loc_perm -> conv9_2_mbox_loc_perm
I0907 13:40:37.572532 23688 net.cpp:150] Setting up conv9_2_mbox_loc_perm
I0907 13:40:37.572540 23688 net.cpp:157] Top shape: 8 2 2 24 (768)
I0907 13:40:37.572543 23688 net.cpp:165] Memory required for data: 1287246304
I0907 13:40:37.572547 23688 layer_factory.hpp:77] Creating layer conv9_2_mbox_loc_flat
I0907 13:40:37.572553 23688 net.cpp:100] Creating Layer conv9_2_mbox_loc_flat
I0907 13:40:37.572556 23688 net.cpp:434] conv9_2_mbox_loc_flat <- conv9_2_mbox_loc_perm
I0907 13:40:37.572563 23688 net.cpp:408] conv9_2_mbox_loc_flat -> conv9_2_mbox_loc_flat
I0907 13:40:37.572587 23688 net.cpp:150] Setting up conv9_2_mbox_loc_flat
I0907 13:40:37.572592 23688 net.cpp:157] Top shape: 8 96 (768)
I0907 13:40:37.572597 23688 net.cpp:165] Memory required for data: 1287249376
I0907 13:40:37.572600 23688 layer_factory.hpp:77] Creating layer conv9_2_mbox_conf
I0907 13:40:37.572609 23688 net.cpp:100] Creating Layer conv9_2_mbox_conf
I0907 13:40:37.572613 23688 net.cpp:434] conv9_2_mbox_conf <- conv9_2_conv9_2_relu_0_split_2
I0907 13:40:37.572620 23688 net.cpp:408] conv9_2_mbox_conf -> conv9_2_mbox_conf
I0907 13:40:37.574412 23688 net.cpp:150] Setting up conv9_2_mbox_conf
I0907 13:40:37.574427 23688 net.cpp:157] Top shape: 8 24 2 2 (768)
I0907 13:40:37.574431 23688 net.cpp:165] Memory required for data: 1287252448
I0907 13:40:37.574440 23688 layer_factory.hpp:77] Creating layer conv9_2_mbox_conf_perm
I0907 13:40:37.574447 23688 net.cpp:100] Creating Layer conv9_2_mbox_conf_perm
I0907 13:40:37.574451 23688 net.cpp:434] conv9_2_mbox_conf_perm <- conv9_2_mbox_conf
I0907 13:40:37.574457 23688 net.cpp:408] conv9_2_mbox_conf_perm -> conv9_2_mbox_conf_perm
I0907 13:40:37.574546 23688 net.cpp:150] Setting up conv9_2_mbox_conf_perm
I0907 13:40:37.574553 23688 net.cpp:157] Top shape: 8 2 2 24 (768)
I0907 13:40:37.574558 23688 net.cpp:165] Memory required for data: 1287255520
I0907 13:40:37.574561 23688 layer_factory.hpp:77] Creating layer conv9_2_mbox_conf_flat
I0907 13:40:37.574568 23688 net.cpp:100] Creating Layer conv9_2_mbox_conf_flat
I0907 13:40:37.574571 23688 net.cpp:434] conv9_2_mbox_conf_flat <- conv9_2_mbox_conf_perm
I0907 13:40:37.574578 23688 net.cpp:408] conv9_2_mbox_conf_flat -> conv9_2_mbox_conf_flat
I0907 13:40:37.574601 23688 net.cpp:150] Setting up conv9_2_mbox_conf_flat
I0907 13:40:37.574607 23688 net.cpp:157] Top shape: 8 96 (768)
I0907 13:40:37.574620 23688 net.cpp:165] Memory required for data: 1287258592
I0907 13:40:37.574623 23688 layer_factory.hpp:77] Creating layer conv9_2_mbox_priorbox
I0907 13:40:37.574632 23688 net.cpp:100] Creating Layer conv9_2_mbox_priorbox
I0907 13:40:37.574636 23688 net.cpp:434] conv9_2_mbox_priorbox <- conv9_2_conv9_2_relu_0_split_3
I0907 13:40:37.574641 23688 net.cpp:434] conv9_2_mbox_priorbox <- data_data_0_split_5
I0907 13:40:37.574647 23688 net.cpp:408] conv9_2_mbox_priorbox -> conv9_2_mbox_priorbox
I0907 13:40:37.574673 23688 net.cpp:150] Setting up conv9_2_mbox_priorbox
I0907 13:40:37.574681 23688 net.cpp:157] Top shape: 1 2 96 (192)
I0907 13:40:37.574683 23688 net.cpp:165] Memory required for data: 1287259360
I0907 13:40:37.574687 23688 layer_factory.hpp:77] Creating layer conv10_2_mbox_loc
I0907 13:40:37.574697 23688 net.cpp:100] Creating Layer conv10_2_mbox_loc
I0907 13:40:37.574700 23688 net.cpp:434] conv10_2_mbox_loc <- conv10_2_conv10_2_relu_0_split_0
I0907 13:40:37.574707 23688 net.cpp:408] conv10_2_mbox_loc -> conv10_2_mbox_loc
I0907 13:40:37.576910 23688 net.cpp:150] Setting up conv10_2_mbox_loc
I0907 13:40:37.576921 23688 net.cpp:157] Top shape: 8 24 1 1 (192)
I0907 13:40:37.576925 23688 net.cpp:165] Memory required for data: 1287260128
I0907 13:40:37.576933 23688 layer_factory.hpp:77] Creating layer conv10_2_mbox_loc_perm
I0907 13:40:37.576939 23688 net.cpp:100] Creating Layer conv10_2_mbox_loc_perm
I0907 13:40:37.576942 23688 net.cpp:434] conv10_2_mbox_loc_perm <- conv10_2_mbox_loc
I0907 13:40:37.576951 23688 net.cpp:408] conv10_2_mbox_loc_perm -> conv10_2_mbox_loc_perm
I0907 13:40:37.577041 23688 net.cpp:150] Setting up conv10_2_mbox_loc_perm
I0907 13:40:37.577049 23688 net.cpp:157] Top shape: 8 1 1 24 (192)
I0907 13:40:37.577051 23688 net.cpp:165] Memory required for data: 1287260896
I0907 13:40:37.577055 23688 layer_factory.hpp:77] Creating layer conv10_2_mbox_loc_flat
I0907 13:40:37.577061 23688 net.cpp:100] Creating Layer conv10_2_mbox_loc_flat
I0907 13:40:37.577065 23688 net.cpp:434] conv10_2_mbox_loc_flat <- conv10_2_mbox_loc_perm
I0907 13:40:37.577071 23688 net.cpp:408] conv10_2_mbox_loc_flat -> conv10_2_mbox_loc_flat
I0907 13:40:37.577096 23688 net.cpp:150] Setting up conv10_2_mbox_loc_flat
I0907 13:40:37.577102 23688 net.cpp:157] Top shape: 8 24 (192)
I0907 13:40:37.577105 23688 net.cpp:165] Memory required for data: 1287261664
I0907 13:40:37.577109 23688 layer_factory.hpp:77] Creating layer conv10_2_mbox_conf
I0907 13:40:37.577118 23688 net.cpp:100] Creating Layer conv10_2_mbox_conf
I0907 13:40:37.577122 23688 net.cpp:434] conv10_2_mbox_conf <- conv10_2_conv10_2_relu_0_split_1
I0907 13:40:37.577129 23688 net.cpp:408] conv10_2_mbox_conf -> conv10_2_mbox_conf
I0907 13:40:37.579737 23688 net.cpp:150] Setting up conv10_2_mbox_conf
I0907 13:40:37.579749 23688 net.cpp:157] Top shape: 8 24 1 1 (192)
I0907 13:40:37.579753 23688 net.cpp:165] Memory required for data: 1287262432
I0907 13:40:37.579761 23688 layer_factory.hpp:77] Creating layer conv10_2_mbox_conf_perm
I0907 13:40:37.579768 23688 net.cpp:100] Creating Layer conv10_2_mbox_conf_perm
I0907 13:40:37.579772 23688 net.cpp:434] conv10_2_mbox_conf_perm <- conv10_2_mbox_conf
I0907 13:40:37.579778 23688 net.cpp:408] conv10_2_mbox_conf_perm -> conv10_2_mbox_conf_perm
I0907 13:40:37.579874 23688 net.cpp:150] Setting up conv10_2_mbox_conf_perm
I0907 13:40:37.579880 23688 net.cpp:157] Top shape: 8 1 1 24 (192)
I0907 13:40:37.579885 23688 net.cpp:165] Memory required for data: 1287263200
I0907 13:40:37.579888 23688 layer_factory.hpp:77] Creating layer conv10_2_mbox_conf_flat
I0907 13:40:37.579895 23688 net.cpp:100] Creating Layer conv10_2_mbox_conf_flat
I0907 13:40:37.579897 23688 net.cpp:434] conv10_2_mbox_conf_flat <- conv10_2_mbox_conf_perm
I0907 13:40:37.579905 23688 net.cpp:408] conv10_2_mbox_conf_flat -> conv10_2_mbox_conf_flat
I0907 13:40:37.579931 23688 net.cpp:150] Setting up conv10_2_mbox_conf_flat
I0907 13:40:37.579937 23688 net.cpp:157] Top shape: 8 24 (192)
I0907 13:40:37.579941 23688 net.cpp:165] Memory required for data: 1287263968
I0907 13:40:37.579953 23688 layer_factory.hpp:77] Creating layer conv10_2_mbox_priorbox
I0907 13:40:37.579960 23688 net.cpp:100] Creating Layer conv10_2_mbox_priorbox
I0907 13:40:37.579963 23688 net.cpp:434] conv10_2_mbox_priorbox <- conv10_2_conv10_2_relu_0_split_2
I0907 13:40:37.579969 23688 net.cpp:434] conv10_2_mbox_priorbox <- data_data_0_split_6
I0907 13:40:37.579977 23688 net.cpp:408] conv10_2_mbox_priorbox -> conv10_2_mbox_priorbox
I0907 13:40:37.580003 23688 net.cpp:150] Setting up conv10_2_mbox_priorbox
I0907 13:40:37.580009 23688 net.cpp:157] Top shape: 1 2 24 (48)
I0907 13:40:37.580013 23688 net.cpp:165] Memory required for data: 1287264160
I0907 13:40:37.580018 23688 layer_factory.hpp:77] Creating layer mbox_loc
I0907 13:40:37.580024 23688 net.cpp:100] Creating Layer mbox_loc
I0907 13:40:37.580029 23688 net.cpp:434] mbox_loc <- conv5_5/sep_mbox_loc_flat
I0907 13:40:37.580034 23688 net.cpp:434] mbox_loc <- conv6/sep_mbox_loc_flat
I0907 13:40:37.580037 23688 net.cpp:434] mbox_loc <- conv7_2_mbox_loc_flat
I0907 13:40:37.580041 23688 net.cpp:434] mbox_loc <- conv8_2_mbox_loc_flat
I0907 13:40:37.580045 23688 net.cpp:434] mbox_loc <- conv9_2_mbox_loc_flat
I0907 13:40:37.580050 23688 net.cpp:434] mbox_loc <- conv10_2_mbox_loc_flat
I0907 13:40:37.580056 23688 net.cpp:408] mbox_loc -> mbox_loc
I0907 13:40:37.580080 23688 net.cpp:150] Setting up mbox_loc
I0907 13:40:37.580086 23688 net.cpp:157] Top shape: 8 7668 (61344)
I0907 13:40:37.580090 23688 net.cpp:165] Memory required for data: 1287509536
I0907 13:40:37.580094 23688 layer_factory.hpp:77] Creating layer mbox_conf
I0907 13:40:37.580101 23688 net.cpp:100] Creating Layer mbox_conf
I0907 13:40:37.580103 23688 net.cpp:434] mbox_conf <- conv5_5/sep_mbox_conf_flat
I0907 13:40:37.580108 23688 net.cpp:434] mbox_conf <- conv6/sep_mbox_conf_flat
I0907 13:40:37.580112 23688 net.cpp:434] mbox_conf <- conv7_2_mbox_conf_flat
I0907 13:40:37.580117 23688 net.cpp:434] mbox_conf <- conv8_2_mbox_conf_flat
I0907 13:40:37.580121 23688 net.cpp:434] mbox_conf <- conv9_2_mbox_conf_flat
I0907 13:40:37.580126 23688 net.cpp:434] mbox_conf <- conv10_2_mbox_conf_flat
I0907 13:40:37.580132 23688 net.cpp:408] mbox_conf -> mbox_conf
I0907 13:40:37.580154 23688 net.cpp:150] Setting up mbox_conf
I0907 13:40:37.580160 23688 net.cpp:157] Top shape: 8 7668 (61344)
I0907 13:40:37.580163 23688 net.cpp:165] Memory required for data: 1287754912
I0907 13:40:37.580168 23688 layer_factory.hpp:77] Creating layer mbox_priorbox
I0907 13:40:37.580173 23688 net.cpp:100] Creating Layer mbox_priorbox
I0907 13:40:37.580178 23688 net.cpp:434] mbox_priorbox <- conv5_5/sep_mbox_priorbox
I0907 13:40:37.580181 23688 net.cpp:434] mbox_priorbox <- conv6/sep_mbox_priorbox
I0907 13:40:37.580186 23688 net.cpp:434] mbox_priorbox <- conv7_2_mbox_priorbox
I0907 13:40:37.580189 23688 net.cpp:434] mbox_priorbox <- conv8_2_mbox_priorbox
I0907 13:40:37.580194 23688 net.cpp:434] mbox_priorbox <- conv9_2_mbox_priorbox
I0907 13:40:37.580199 23688 net.cpp:434] mbox_priorbox <- conv10_2_mbox_priorbox
I0907 13:40:37.580204 23688 net.cpp:408] mbox_priorbox -> mbox_priorbox
I0907 13:40:37.580225 23688 net.cpp:150] Setting up mbox_priorbox
I0907 13:40:37.580231 23688 net.cpp:157] Top shape: 1 2 7668 (15336)
I0907 13:40:37.580235 23688 net.cpp:165] Memory required for data: 1287816256
I0907 13:40:37.580240 23688 layer_factory.hpp:77] Creating layer mbox_conf_reshape
I0907 13:40:37.580248 23688 net.cpp:100] Creating Layer mbox_conf_reshape
I0907 13:40:37.580252 23688 net.cpp:434] mbox_conf_reshape <- mbox_conf
I0907 13:40:37.580258 23688 net.cpp:408] mbox_conf_reshape -> mbox_conf_reshape
I0907 13:40:37.580289 23688 net.cpp:150] Setting up mbox_conf_reshape
I0907 13:40:37.580296 23688 net.cpp:157] Top shape: 8 1917 4 (61344)
I0907 13:40:37.580299 23688 net.cpp:165] Memory required for data: 1288061632
I0907 13:40:37.580303 23688 layer_factory.hpp:77] Creating layer mbox_conf_softmax
I0907 13:40:37.580309 23688 net.cpp:100] Creating Layer mbox_conf_softmax
I0907 13:40:37.580313 23688 net.cpp:434] mbox_conf_softmax <- mbox_conf_reshape
I0907 13:40:37.580327 23688 net.cpp:408] mbox_conf_softmax -> mbox_conf_softmax
I0907 13:40:37.580992 23688 net.cpp:150] Setting up mbox_conf_softmax
I0907 13:40:37.581002 23688 net.cpp:157] Top shape: 8 1917 4 (61344)
I0907 13:40:37.581004 23688 net.cpp:165] Memory required for data: 1288307008
I0907 13:40:37.581007 23688 layer_factory.hpp:77] Creating layer mbox_conf_flatten
I0907 13:40:37.581012 23688 net.cpp:100] Creating Layer mbox_conf_flatten
I0907 13:40:37.581014 23688 net.cpp:434] mbox_conf_flatten <- mbox_conf_softmax
I0907 13:40:37.581018 23688 net.cpp:408] mbox_conf_flatten -> mbox_conf_flatten
I0907 13:40:37.581043 23688 net.cpp:150] Setting up mbox_conf_flatten
I0907 13:40:37.581048 23688 net.cpp:157] Top shape: 8 7668 (61344)
I0907 13:40:37.581051 23688 net.cpp:165] Memory required for data: 1288552384
I0907 13:40:37.581056 23688 layer_factory.hpp:77] Creating layer detection_out
I0907 13:40:37.581074 23688 net.cpp:100] Creating Layer detection_out
I0907 13:40:37.581079 23688 net.cpp:434] detection_out <- mbox_loc
I0907 13:40:37.581084 23688 net.cpp:434] detection_out <- mbox_conf_flatten
I0907 13:40:37.581087 23688 net.cpp:434] detection_out <- mbox_priorbox
I0907 13:40:37.581094 23688 net.cpp:408] detection_out -> detection_out
I0907 13:40:37.581380 23688 net.cpp:150] Setting up detection_out
I0907 13:40:37.581390 23688 net.cpp:157] Top shape: 1 1 1 7 (7)
I0907 13:40:37.581394 23688 net.cpp:165] Memory required for data: 1288552412
I0907 13:40:37.581398 23688 layer_factory.hpp:77] Creating layer detection_eval
I0907 13:40:37.581406 23688 net.cpp:100] Creating Layer detection_eval
I0907 13:40:37.581410 23688 net.cpp:434] detection_eval <- detection_out
I0907 13:40:37.581415 23688 net.cpp:434] detection_eval <- label
I0907 13:40:37.581420 23688 net.cpp:408] detection_eval -> detection_eval
…
