…
        min_scale: 0.3
        max_scale: 1
        min_aspect_ratio: 0.5
        max_aspect_ratio: 2
      }
      sample_constraint {
        min_jaccard_overlap: 0.9
      }
      max_sample: 1
      max_trials: 50
    }
    batch_sampler {
      sampler {
        min_scale: 0.3
        max_scale: 1
        min_aspect_ratio: 0.5
        max_aspect_ratio: 2
      }
      sample_constraint {
        max_jaccard_overlap: 1
      }
      max_sample: 1
      max_trials: 50
    }
    label_map_file: "data/BodyFaceHandRegions/labelmap_voc.prototxt"
  }
}
layer {
  name: "conv1"
  type: "Convolution"
  bottom: "data"
  top: "conv1"
  param {
    lr_mult: 1
    decay_mult: 1
  }
  convolution_param {
    num_output: 32
    bias_term: false
    pad: 1
    kernel_size: 3
    group: 1
    stride: 2
    weight_filler {
      type: "gaussian"
      std: 0.01
    }
    engine: DEFAULT
  }
}
layer {
  name: "conv1/bn"
  type: "BatchNorm"
  bottom: "conv1"
  top: "conv1"
  batch_norm_param {
    moving_average_fraction: 0.999
    eps: 0.001
  }
}
layer {
  name: "conv1/scale"
  type: "Scale"
  bottom: "conv1"
  top: "conv1"
  param {
    lr_mult: 1
    decay_mult: 0
  }
  param {
    lr_mult: 1
    decay_mult: 0
  }
  scale_param {
    filler {
      type: "constant"
      value: 1
    }
    bias_term: true
    bias_filler {
      type: "constant"
      value: 0
    }
  }
}
layer {
  name: "conv1_relu"
  type: "ReLU"
  bottom: "conv1"
  top: "conv1"
}
layer {
  name: "conv2_1/dw"
  type: "Convolution"
  bottom: "conv1"
  top: "conv2_1/dw"
  param {
    lr_mult: 1
    decay_mult: 1
  }
  convolution_param {
    num_output: 32
    bias_term: false
    pad: 1
    kernel_size: 3
    group: 32
    stride: 1
    weight_filler {
      type: "gaussian"
      std: 0.01
    }
    engine: CAFFE
  }
}
layer {
  name: "conv2_1/dw/bn"
  type: "BatchNorm"
  bottom: "conv2_1/dw"
  top: "conv2_1/dw"
  batch_norm_param {
    moving_average_fraction: 0.999
    eps: 0.001
  }
}
layer {
  name: "conv2_1/dw/scale"
  type: "Scale"
  bottom: "conv2_1/dw"
  top: "conv2_1/dw"
  param {
    lr_mult: 1
    decay_mult: 0
  }
  param {
    lr_mult: 1
    decay_mult: 0
  }
  scale_param {
    filler {
      type: "constant"
      value: 1
    }
    bias_term: true
    bias_filler {
      type: "constant"
      value: 0
    }
  }
}
layer {
  name: "conv2_1/dw_relu"
  type: "ReLU"
  bottom: "conv2_1/dw"
  top: "conv2_1/dw"
}
layer {
  name: "conv2_1/sep"
  type: "Convolution"
  bottom: "conv2_1/dw"
  top: "conv2_1/sep"
  param {
    lr_mult: 1
    decay_mult: 1
  }
  convolution_param {
    num_output: 64
    bias_term: false
    pad: 0
    kernel_size: 1
    group: 1
    stride: 1
    weight_filler {
      type: "gaussian"
      std: 0.01
    }
    engine: DEFAULT
  }
}
layer {
  name: "conv2_1/sep/bn"
  type: "BatchNorm"
  bottom: "conv2_1/sep"
  top: "conv2_1/sep"
  batch_norm_param {
    moving_average_fraction: 0.999
    eps: 0.001
  }
}
layer {
  name: "conv2_1/sep/scale"
  type: "Scale"
  bottom: "conv2_1/sep"
  top: "conv2_1/sep"
  param {
    lr_mult: 1
    decay_mult: 0
  }
  param {
    lr_mult: 1
    decay_mult: 0
  }
  scale_param {
    filler {
      type: "constant"
      value: 1
    }
    bias_term: true
    bias_filler {
      type: "constant"
      value: 0
    }
  }
}
layer {
  name: "conv2_1/sep_relu"
  type: "ReLU"
  bottom: "conv2_1/sep"
  top: "conv2_1/sep"
}
layer {
  name: "conv2_2/dw"
  type: "Convolution"
  bottom: "conv2_1/sep"
  top: "conv2_2/dw"
  param {
    lr_mult: 1
    decay_mult: 1
  }
  convolution_param {
    num_output: 64
    bias_term: false
    pad: 1
    kernel_size: 3
    group: 64
    stride: 2
    weight_filler {
      type: "gaussian"
      std: 0.01
    }
    engine: CAFFE
  }
}
layer {
  name: "conv2_2/dw/bn"
  type: "BatchNorm"
  bottom: "conv2_2/dw"
  top: "conv2_2/dw"
  batch_norm_param {
    moving_average_fraction: 0.999
    eps: 0.001
  }
}
layer {
  name: "conv2_2/dw/scale"
  type: "Scale"
  bottom: "conv2_2/dw"
  top: "conv2_2/dw"
  param {
    lr_mult: 1
    decay_mult: 0
  }
  param {
    lr_mult: 1
    decay_mult: 0
  }
  scale_param {
    filler {
      type: "constant"
      value: 1
    }
    bias_term: true
    bias_filler {
      type: "constant"
      value: 0
    }
  }
}
layer {
  name: "conv2_2/dw_relu"
  type: "ReLU"
  bottom: "conv2_2/dw"
  top: "conv2_2/dw"
}
layer {
  name: "conv2_2/sep"
  type: "Convolution"
  bottom: "conv2_2/dw"
  top: "conv2_2/sep"
  param {
    lr_mult: 1
    decay_mult: 1
  }
  convolution_param {
    num_output: 128
    bias_term: false
    pad: 0
    kernel_size: 1
    group: 1
    stride: 1
    weight_filler {
      type: "gaussian"
      std: 0.01
    }
    engine: DEFAULT
  }
}
layer {
  name: "conv2_2/sep/bn"
  type: "BatchNorm"
  bottom: "conv2_2/sep"
  top: "conv2_2/sep"
  batch_norm_param {
    moving_average_fraction: 0.999
    eps: 0.001
  }
}
layer {
  name: "conv2_2/sep/scale"
  type: "Scale"
  bottom: "conv2_2/sep"
  top: "conv2_2/sep"
  param {
    lr_mult: 1
    decay_mult: 0
  }
  param {
    lr_mult: 1
    decay_mult: 0
  }
  scale_param {
    filler {
      type: "constant"
      value: 1
    }
    bias_term: true
    bias_filler {
      type: "constant"
      value: 0
    }
  }
}
layer {
  name: "conv2_2/sep_relu"
  type: "ReLU"
  bottom: "conv2_2/sep"
  top: "conv2_2/sep"
}
layer {
  name: "conv3_1/dw"
  type: "Convolution"
  bottom: "conv2_2/sep"
  top: "conv3_1/dw"
  param {
    lr_mult: 1
    decay_mult: 1
  }
  convolution_param {
    num_output: 128
    bias_term: false
    pad: 1
    kernel_size: 3
    group: 128
    stride: 1
    weight_filler {
      type: "gaussian"
      std: 0.01
    }
    engine: CAFFE
  }
}
layer {
  name: "conv3_1/dw/bn"
  type: "BatchNorm"
  bottom: "conv3_1/dw"
  top: "conv3_1/dw"
  batch_norm_param {
    moving_average_fraction: 0.999
    eps: 0.001
  }
}
layer {
  name: "conv3_1/dw/scale"
  type: "Scale"
  bottom: "conv3_1/dw"
  top: "conv3_1/dw"
  param {
    lr_mult: 1
    decay_mult: 0
  }
  param {
    lr_mult: 1
    decay_mult: 0
  }
  scale_param {
    filler {
      type: "constant"
      value: 1
    }
    bias_term: true
    bias_filler {
      type: "constant"
      value: 0
    }
  }
}
layer {
  name: "conv3_1/dw_relu"
  type: "ReLU"
  bottom: "conv3_1/dw"
  top: "conv3_1/dw"
}
layer {
  name: "conv3_1/sep"
  type: "Convolution"
  bottom: "conv3_1/dw"
  top: "conv3_1/sep"
  param {
    lr_mult: 1
    decay_mult: 1
  }
  convolution_param {
    num_output: 128
    bias_term: false
    pad: 0
    kernel_size: 1
    group: 1
    stride: 1
    weight_filler {
      type: "gaussian"
      std: 0.01
    }
    engine: DEFAULT
  }
}
layer {
  name: "conv3_1/sep/bn"
  type: "BatchNorm"
  bottom: "conv3_1/sep"
  top: "conv3_1/sep"
  batch_norm_param {
    moving_average_fraction: 0.999
    eps: 0.001
  }
}
layer {
  name: "conv3_1/sep/scale"
  type: "Scale"
  bottom: "conv3_1/sep"
  top: "conv3_1/sep"
  param {
    lr_mult: 1
    decay_mult: 0
  }
  param {
    lr_mult: 1
    decay_mult: 0
  }
  scale_param {
    filler {
      type: "constant"
      value: 1
    }
    bias_term: true
    bias_filler {
      type: "constant"
      value: 0
    }
  }
}
layer {
  name: "conv3_1/sep_relu"
  type: "ReLU"
  bottom: "conv3_1/sep"
  top: "conv3_1/sep"
}
layer {
  name: "conv3_2/dw"
  type: "Convolution"
  bottom: "conv3_1/sep"
  top: "conv3_2/dw"
  param {
    lr_mult: 1
    decay_mult: 1
  }
  convolution_param {
    num_output: 128
    bias_term: false
    pad: 1
    kernel_size: 3
    group: 128
    stride: 2
    weight_filler {
      type: "gaussian"
      std: 0.01
    }
    engine: CAFFE
  }
}
layer {
  name: "conv3_2/dw/bn"
  type: "BatchNorm"
  bottom: "conv3_2/dw"
  top: "conv3_2/dw"
  batch_norm_param {
    moving_average_fraction: 0.999
    eps: 0.001
  }
}
layer {
  name: "conv3_2/dw/scale"
  type: "Scale"
  bottom: "conv3_2/dw"
  top: "conv3_2/dw"
  param {
    lr_mult: 1
    decay_mult: 0
  }
  param {
    lr_mult: 1
    decay_mult: 0
  }
  scale_param {
    filler {
      type: "constant"
      value: 1
    }
    bias_term: true
    bias_filler {
      type: "constant"
      value: 0
    }
  }
}
layer {
  name: "conv3_2/dw_relu"
  type: "ReLU"
  bottom: "conv3_2/dw"
  top: "conv3_2/dw"
}
layer {
  name: "conv3_2/sep"
  type: "Convolution"
  bottom: "conv3_2/dw"
  top: "conv3_2/sep"
  param {
    lr_mult: 1
    decay_mult: 1
  }
  convolution_param {
    num_output: 256
    bias_term: false
    pad: 0
    kernel_size: 1
    group: 1
    stride: 1
    weight_filler {
      type: "gaussian"
      std: 0.01
    }
    engine: DEFAULT
  }
}
layer {
  name: "conv3_2/sep/bn"
  type: "BatchNorm"
  bottom: "conv3_2/sep"
  top: "conv3_2/sep"
  batch_norm_param {
    moving_average_fraction: 0.999
    eps: 0.001
  }
}
layer {
  name: "conv3_2/sep/scale"
  type: "Scale"
  bottom: "conv3_2/sep"
  top: "conv3_2/sep"
  param {
    lr_mult: 1
    decay_mult: 0
  }
  param {
    lr_mult: 1
    decay_mult: 0
  }
  scale_param {
    filler {
      type: "constant"
      value: 1
    }
    bias_term: true
    bias_filler {
      type: "constant"
      value: 0
    }
  }
}
layer {
  name: "conv3_2/sep_relu"
  type: "ReLU"
  bottom: "conv3_2/sep"
  top: "conv3_2/sep"
}
layer {
  name: "conv4_1/dw"
  type: "Convolution"
  bottom: "conv3_2/sep"
  top: "conv4_1/dw"
  param {
    lr_mult: 1
    decay_mult: 1
  }
  convolution_param {
    num_output: 256
    bias_term: false
    pad: 1
    kernel_size: 3
    group: 256
    stride: 1
    weight_filler {
      type: "gaussian"
      std: 0.01
    }
    engine: CAFFE
  }
}
layer {
  name: "conv4_1/dw/bn"
  type: "BatchNorm"
  bottom: "conv4_1/dw"
  top: "conv4_1/dw"
  batch_norm_param {
    moving_average_fraction: 0.999
    eps: 0.001
  }
}
layer {
  name: "conv4_1/dw/scale"
  type: "Scale"
  bottom: "conv4_1/dw"
  top: "conv4_1/dw"
  param {
    lr_mult: 1
    decay_mult: 0
  }
  param {
    lr_mult: 1
    decay_mult: 0
  }
  scale_param {
    filler {
      type: "constant"
      value: 1
    }
    bias_term: true
    bias_filler {
      type: "constant"
      value: 0
    }
  }
}
layer {
  name: "conv4_1/dw_relu"
  type: "ReLU"
  bottom: "conv4_1/dw"
  top: "conv4_1/dw"
}
layer {
  name: "conv4_1/sep"
  type: "Convolution"
  bottom: "conv4_1/dw"
  top: "conv4_1/sep"
  param {
    lr_mult: 1
    decay_mult: 1
  }
  convolution_param {
    num_output: 256
    bias_term: false
    pad: 0
    kernel_size: 1
    group: 1
    stride: 1
    weight_filler {
      type: "gaussian"
      std: 0.01
    }
    engine: DEFAULT
  }
}
layer {
  name: "conv4_1/sep/bn"
  type: "BatchNorm"
  bottom: "conv4_1/sep"
  top: "conv4_1/sep"
  batch_norm_param {
    moving_average_fraction: 0.999
    eps: 0.001
  }
}
layer {
  name: "conv4_1/sep/scale"
  type: "Scale"
  bottom: "conv4_1/sep"
  top: "conv4_1/sep"
  param {
    lr_mult: 1
    decay_mult: 0
  }
  param {
    lr_mult: 1
    decay_mult: 0
  }
  scale_param {
    filler {
      type: "constant"
      value: 1
    }
    bias_term: true
    bias_filler {
      type: "constant"
      value: 0
    }
  }
}
layer {
  name: "conv4_1/sep_relu"
  type: "ReLU"
  bottom: "conv4_1/sep"
  top: "conv4_1/sep"
}
layer {
  name: "conv4_2/dw"
  type: "Convolution"
  bottom: "conv4_1/sep"
  top: "conv4_2/dw"
  param {
    lr_mult: 1
    decay_mult: 1
  }
  convolution_param {
    num_output: 256
    bias_term: false
    pad: 1
    kernel_size: 3
    group: 256
    stride: 2
    weight_filler {
      type: "gaussian"
      std: 0.01
    }
    engine: CAFFE
  }
}
layer {
  name: "conv4_2/dw/bn"
  type: "BatchNorm"
  bottom: "conv4_2/dw"
  top: "conv4_2/dw"
  batch_norm_param {
    moving_average_fraction: 0.999
    eps: 0.001
  }
}
layer {
  name: "conv4_2/dw/scale"
  type: "Scale"
  bottom: "conv4_2/dw"
  top: "conv4_2/dw"
  param {
    lr_mult: 1
    decay_mult: 0
  }
  param {
    lr_mult: 1
    decay_mult: 0
  }
  scale_param {
    filler {
      type: "constant"
      value: 1
    }
    bias_term: true
    bias_filler {
      type: "constant"
      value: 0
    }
  }
}
layer {
  name: "conv4_2/dw_relu"
  type: "ReLU"
  bottom: "conv4_2/dw"
  top: "conv4_2/dw"
}
layer {
  name: "conv4_2/sep"
  type: "Convolution"
  bottom: "conv4_2/dw"
  top: "conv4_2/sep"
  param {
    lr_mult: 1
    decay_mult: 1
  }
  convolution_param {
    num_output: 512
    bias_term: false
    pad: 0
    kernel_size: 1
    group: 1
    stride: 1
    weight_filler {
      type: "gaussian"
      std: 0.01
    }
    engine: DEFAULT
  }
}
layer {
  name: "conv4_2/sep/bn"
  type: "BatchNorm"
  bottom: "conv4_2/sep"
  top: "conv4_2/sep"
  batch_norm_param {
    moving_average_fraction: 0.999
    eps: 0.001
  }
}
layer {
  name: "conv4_2/sep/scale"
  type: "Scale"
  bottom: "conv4_2/sep"
  top: "conv4_2/sep"
  param {
    lr_mult: 1
    decay_mult: 0
  }
  param {
    lr_mult: 1
    decay_mult: 0
  }
  scale_param {
    filler {
      type: "constant"
      value: 1
    }
    bias_term: true
    bias_filler {
      type: "constant"
      value: 0
    }
  }
}
layer {
  name: "conv4_2/sep_relu"
  type: "ReLU"
  bottom: "conv4_2/sep"
  top: "conv4_2/sep"
}
layer {
  name: "conv5_1/dw"
  type: "Convolution"
  bottom: "conv4_2/sep"
  top: "conv5_1/dw"
  param {
    lr_mult: 1
    decay_mult: 1
  }
  convolution_param {
    num_output: 512
    bias_term: false
    pad: 1
    kernel_size: 3
    group: 512
    stride: 1
    weight_filler {
      type: "gaussian"
      std: 0.01
    }
    engine: CAFFE
  }
}
layer {
  name: "conv5_1/dw/bn"
  type: "BatchNorm"
  bottom: "conv5_1/dw"
  top: "conv5_1/dw"
  batch_norm_param {
    moving_average_fraction: 0.999
    eps: 0.001
  }
}
layer {
  name: "conv5_1/dw/scale"
  type: "Scale"
  bottom: "conv5_1/dw"
  top: "conv5_1/dw"
  param {
    lr_mult: 1
    decay_mult: 0
  }
  param {
    lr_mult: 1
    decay_mult: 0
  }
  scale_param {
    filler {
      type: "constant"
      value: 1
    }
    bias_term: true
    bias_filler {
      type: "constant"
      value: 0
    }
  }
}
layer {
  name: "conv5_1/dw_relu"
  type: "ReLU"
  bottom: "conv5_1/dw"
  top: "conv5_1/dw"
}
layer {
  name: "conv5_1/sep"
  type: "Convolution"
  bottom: "conv5_1/dw"
  top: "conv5_1/sep"
  param {
    lr_mult: 1
    decay_mult: 1
  }
  convolution_param {
    num_output: 512
    bias_term: false
    pad: 0
    kernel_size: 1
    group: 1
    stride: 1
    weight_filler {
      type: "gaussian"
      std: 0.01
    }
    engine: DEFAULT
  }
}
layer {
  name: "conv5_1/sep/bn"
  type: "BatchNorm"
  bottom: "conv5_1/sep"
  top: "conv5_1/sep"
  batch_norm_param {
    moving_average_fraction: 0.999
    eps: 0.001
  }
}
layer {
  name: "conv5_1/sep/scale"
  type: "Scale"
  bottom: "conv5_1/sep"
  top: "conv5_1/sep"
  param {
    lr_mult: 1
    decay_mult: 0
  }
  param {
    lr_mult: 1
    decay_mult: 0
  }
  scale_param {
    filler {
      type: "constant"
      value: 1
    }
    bias_term: true
    bias_filler {
      type: "constant"
      value: 0
    }
  }
}
layer {
  name: "conv5_1/sep_relu"
  type: "ReLU"
  bottom: "conv5_1/sep"
  top: "conv5_1/sep"
}
layer {
  name: "conv5_2/dw"
  type: "Convolution"
  bottom: "conv5_1/sep"
  top: "conv5_2/dw"
  param {
    lr_mult: 1
    decay_mult: 1
  }
  convolution_param {
    num_output: 512
    bias_term: false
    pad: 1
    kernel_size: 3
    group: 512
    stride: 1
    weight_filler {
      type: "gaussian"
      std: 0.01
    }
    engine: CAFFE
  }
}
layer {
  name: "conv5_2/dw/bn"
  type: "BatchNorm"
  bottom: "conv5_2/dw"
  top: "conv5_2/dw"
  batch_norm_param {
    moving_average_fraction: 0.999
    eps: 0.001
  }
}
layer {
  name: "conv5_2/dw/scale"
  type: "Scale"
  bottom: "conv5_2/dw"
  top: "conv5_2/dw"
  param {
    lr_mult: 1
    decay_mult: 0
  }
  param {
    lr_mult: 1
    decay_mult: 0
  }
  scale_param {
    filler {
      type: "constant"
      value: 1
    }
    bias_term: true
    bias_filler {
      type: "constant"
      value: 0
    }
  }
}
layer {
  name: "conv5_2/dw_relu"
  type: "ReLU"
  bottom: "conv5_2/dw"
  top: "conv5_2/dw"
}
layer {
  name: "conv5_2/sep"
  type: "Convolution"
  bottom: "conv5_2/dw"
  top: "conv5_2/sep"
  param {
    lr_mult: 1
    decay_mult: 1
  }
  convolution_param {
    num_output: 512
    bias_term: false
    pad: 0
    kernel_size: 1
    group: 1
    stride: 1
    weight_filler {
      type: "gaussian"
      std: 0.01
    }
    engine: DEFAULT
  }
}
layer {
  name: "conv5_2/sep/bn"
  type: "BatchNorm"
  bottom: "conv5_2/sep"
  top: "conv5_2/sep"
  batch_norm_param {
    moving_average_fraction: 0.999
    eps: 0.001
  }
}
layer {
  name: "conv5_2/sep/scale"
  type: "Scale"
  bottom: "conv5_2/sep"
  top: "conv5_2/sep"
  param {
    lr_mult: 1
    decay_mult: 0
  }
  param {
    lr_mult: 1
    decay_mult: 0
  }
  scale_param {
    filler {
      type: "constant"
      value: 1
    }
    bias_term: true
    bias_filler {
      type: "constant"
      value: 0
    }
  }
}
layer {
  name: "conv5_2/sep_relu"
  type: "ReLU"
  bottom: "conv5_2/sep"
  top: "conv5_2/sep"
}
layer {
  name: "conv5_3/dw"
  type: "Convolution"
  bottom: "conv5_2/sep"
  top: "conv5_3/dw"
  param {
    lr_mult: 1
    decay_mult: 1
  }
  convolution_param {
    num_output: 512
    bias_term: false
    pad: 1
    kernel_size: 3
    group: 512
    stride: 1
    weight_filler {
      type: "gaussian"
      std: 0.01
    }
    engine: CAFFE
  }
}
layer {
  name: "conv5_3/dw/bn"
  type: "BatchNorm"
  bottom: "conv5_3/dw"
  top: "conv5_3/dw"
  batch_norm_param {
    moving_average_fraction: 0.999
    eps: 0.001
  }
}
layer {
  name: "conv5_3/dw/scale"
  type: "Scale"
  bottom: "conv5_3/dw"
  top: "conv5_3/dw"
  param {
    lr_mult: 1
    decay_mult: 0
  }
  param {
    lr_mult: 1
    decay_mult: 0
  }
  scale_param {
    filler {
      type: "constant"
      value: 1
    }
    bias_term: true
    bias_filler {
      type: "constant"
      value: 0
    }
  }
}
layer {
  name: "conv5_3/dw_relu"
  type: "ReLU"
  bottom: "conv5_3/dw"
  top: "conv5_3/dw"
}
layer {
  name: "conv5_3/sep"
  type: "Convolution"
  bottom: "conv5_3/dw"
  top: "conv5_3/sep"
  param {
    lr_mult: 1
    decay_mult: 1
  }
  convolution_param {
    num_output: 512
    bias_term: false
    pad: 0
    kernel_size: 1
    group: 1
    stride: 1
    weight_filler {
      type: "gaussian"
      std: 0.01
    }
    engine: DEFAULT
  }
}
layer {
  name: "conv5_3/sep/bn"
  type: "BatchNorm"
  bottom: "conv5_3/sep"
  top: "conv5_3/sep"
  batch_norm_param {
    moving_average_fraction: 0.999
    eps: 0.001
  }
}
layer {
  name: "conv5_3/sep/scale"
  type: "Scale"
  bottom: "conv5_3/sep"
  top: "conv5_3/sep"
  param {
    lr_mult: 1
    decay_mult: 0
  }
  param {
    lr_mult: 1
    decay_mult: 0
  }
  scale_param {
    filler {
      type: "constant"
      value: 1
    }
    bias_term: true
    bias_filler {
      type: "constant"
      value: 0
    }
  }
}
layer {
  name: "conv5_3/sep_relu"
  type: "ReLU"
  bottom: "conv5_3/sep"
  top: "conv5_3/sep"
}
layer {
  name: "conv5_4/dw"
  type: "Convolution"
  bottom: "conv5_3/sep"
  top: "conv5_4/dw"
  param {
    lr_mult: 1
    decay_mult: 1
  }
  convolution_param {
    num_output: 512
    bias_term: false
    pad: 1
    kernel_size: 3
    group: 512
    stride: 1
    weight_filler {
      type: "gaussian"
      std: 0.01
    }
    engine: CAFFE
  }
}
layer {
  name: "conv5_4/dw/bn"
  type: "BatchNorm"
  bottom: "conv5_4/dw"
  top: "conv5_4/dw"
  batch_norm_param {
    moving_average_fraction: 0.999
    eps: 0.001
  }
}
layer {
  name: "conv5_4/dw/scale"
  type: "Scale"
  bottom: "conv5_4/dw"
  top: "conv5_4/dw"
  param {
    lr_mult: 1
    decay_mult: 0
  }
  param {
    lr_mult: 1
    decay_mult: 0
  }
  scale_param {
    filler {
      type: "constant"
      value: 1
    }
    bias_term: true
    bias_filler {
      type: "constant"
      value: 0
    }
  }
}
layer {
  name: "conv5_4/dw_relu"
  type: "ReLU"
  bottom: "conv5_4/dw"
  top: "conv5_4/dw"
}
layer {
  name: "conv5_4/sep"
  type: "Convolution"
  bottom: "conv5_4/dw"
  top: "conv5_4/sep"
  param {
    lr_mult: 1
    decay_mult: 1
  }
  convolution_param {
    num_output: 512
    bias_term: false
    pad: 0
    kernel_size: 1
    group: 1
    stride: 1
    weight_filler {
      type: "gaussian"
      std: 0.01
    }
    engine: DEFAULT
  }
}
layer {
  name: "conv5_4/sep/bn"
  type: "BatchNorm"
  bottom: "conv5_4/sep"
  top: "conv5_4/sep"
  batch_norm_param {
    moving_average_fraction: 0.999
    eps: 0.001
  }
}
layer {
  name: "conv5_4/sep/scale"
  type: "Scale"
  bottom: "conv5_4/sep"
  top: "conv5_4/sep"
  param {
    lr_mult: 1
    decay_mult: 0
  }
  param {
    lr_mult: 1
    decay_mult: 0
  }
  scale_param {
    filler {
      type: "constant"
      value: 1
    }
    bias_term: true
    bias_filler {
      type: "constant"
      value: 0
    }
  }
}
layer {
  name: "conv5_4/sep_relu"
  type: "ReLU"
  bottom: "conv5_4/sep"
  top: "conv5_4/sep"
}
layer {
  name: "conv5_5/dw"
  type: "Convolution"
  bottom: "conv5_4/sep"
  top: "conv5_5/dw"
  param {
    lr_mult: 1
    decay_mult: 1
  }
  convolution_param {
    num_output: 512
    bias_term: false
    pad: 1
    kernel_size: 3
    group: 512
    stride: 1
    weight_filler {
      type: "gaussian"
      std: 0.01
    }
    engine: CAFFE
  }
}
layer {
  name: "conv5_5/dw/bn"
  type: "BatchNorm"
  bottom: "conv5_5/dw"
  top: "conv5_5/dw"
  batch_norm_param {
    moving_average_fraction: 0.999
    eps: 0.001
  }
}
layer {
  name: "conv5_5/dw/scale"
  type: "Scale"
  bottom: "conv5_5/dw"
  top: "conv5_5/dw"
  param {
    lr_mult: 1
    decay_mult: 0
  }
  param {
    lr_mult: 1
    decay_mult: 0
  }
  scale_param {
    filler {
      type: "constant"
      value: 1
    }
    bias_term: true
    bias_filler {
      type: "constant"
      value: 0
    }
  }
}
layer {
  name: "conv5_5/dw_relu"
  type: "ReLU"
  bottom: "conv5_5/dw"
  top: "conv5_5/dw"
}
layer {
  name: "conv5_5/sep"
  type: "Convolution"
  bottom: "conv5_5/dw"
  top: "conv5_5/sep"
  param {
    lr_mult: 1
    decay_mult: 1
  }
  convolution_param {
    num_output: 512
    bias_term: false
    pad: 0
    kernel_size: 1
    group: 1
    stride: 1
    weight_filler {
      type: "gaussian"
      std: 0.01
    }
    engine: DEFAULT
  }
}
layer {
  name: "conv5_5/sep/bn"
  type: "BatchNorm"
  bottom: "conv5_5/sep"
  top: "conv5_5/sep"
  batch_norm_param {
    moving_average_fraction: 0.999
    eps: 0.001
  }
}
layer {
  name: "conv5_5/sep/scale"
  type: "Scale"
  bottom: "conv5_5/sep"
  top: "conv5_5/sep"
  param {
    lr_mult: 1
    decay_mult: 0
  }
  param {
    lr_mult: 1
    decay_mult: 0
  }
  scale_param {
    filler {
      type: "constant"
      value: 1
    }
    bias_term: true
    bias_filler {
      type: "constant"
      value: 0
    }
  }
}
layer {
  name: "conv5_5/sep_relu"
  type: "ReLU"
  bottom: "conv5_5/sep"
  top: "conv5_5/sep"
}
layer {
  name: "conv5_6/dw"
  type: "Convolution"
  bottom: "conv5_5/sep"
  top: "conv5_6/dw"
  param {
    lr_mult: 1
    decay_mult: 1
  }
  convolution_param {
    num_output: 512
    bias_term: false
    pad: 1
    kernel_size: 3
    group: 512
    stride: 2
    weight_filler {
      type: "gaussian"
      std: 0.01
    }
    engine: CAFFE
  }
}
layer {
  name: "conv5_6/dw/bn"
  type: "BatchNorm"
  bottom: "conv5_6/dw"
  top: "conv5_6/dw"
  batch_norm_param {
    moving_average_fraction: 0.999
    eps: 0.001
  }
}
layer {
  name: "conv5_6/dw/scale"
  type: "Scale"
  bottom: "conv5_6/dw"
  top: "conv5_6/dw"
  param {
    lr_mult: 1
    decay_mult: 0
  }
  param {
    lr_mult: 1
    decay_mult: 0
  }
  scale_param {
    filler {
      type: "constant"
      value: 1
    }
    bias_term: true
    bias_filler {
      type: "constant"
      value: 0
    }
  }
}
layer {
  name: "conv5_6/dw_relu"
  type: "ReLU"
  bottom: "conv5_6/dw"
  top: "conv5_6/dw"
}
layer {
  name: "conv5_6/sep"
  type: "Convolution"
  bottom: "conv5_6/dw"
  top: "conv5_6/sep"
  param {
    lr_mult: 1
    decay_mult: 1
  }
  convolution_param {
    num_output: 1024
    bias_term: false
    pad: 0
    kernel_size: 1
    group: 1
    stride: 1
    weight_filler {
      type: "gaussian"
      std: 0.01
    }
    engine: DEFAULT
  }
}
layer {
  name: "conv5_6/sep/bn"
  type: "BatchNorm"
  bottom: "conv5_6/sep"
  top: "conv5_6/sep"
  batch_norm_param {
    moving_average_fraction: 0.999
    eps: 0.001
  }
}
layer {
  name: "conv5_6/sep/scale"
  type: "Scale"
  bottom: "conv5_6/sep"
  top: "conv5_6/sep"
  param {
    lr_mult: 1
    decay_mult: 0
  }
  param {
    lr_mult: 1
    decay_mult: 0
  }
  scale_param {
    filler {
      type: "constant"
      value: 1
    }
    bias_term: true
    bias_filler {
      type: "constant"
      value: 0
    }
  }
}
layer {
  name: "conv5_6/sep_relu"
  type: "ReLU"
  bottom: "conv5_6/sep"
  top: "conv5_6/sep"
}
layer {
  name: "conv6/dw"
  type: "Convolution"
  bottom: "conv5_6/sep"
  top: "conv6/dw"
  param {
    lr_mult: 1
    decay_mult: 1
  }
  convolution_param {
    num_output: 1024
    bias_term: false
    pad: 1
    kernel_size: 3
    group: 1024
    stride: 1
    weight_filler {
      type: "gaussian"
      std: 0.01
    }
    engine: CAFFE
  }
}
layer {
  name: "conv6/dw/bn"
  type: "BatchNorm"
  bottom: "conv6/dw"
  top: "conv6/dw"
  batch_norm_param {
    moving_average_fraction: 0.999
    eps: 0.001
  }
}
layer {
  name: "conv6/dw/scale"
  type: "Scale"
  bottom: "conv6/dw"
  top: "conv6/dw"
  param {
    lr_mult: 1
    decay_mult: 0
  }
  param {
    lr_mult: 1
    decay_mult: 0
  }
  scale_param {
    filler {
      type: "constant"
      value: 1
    }
    bias_term: true
    bias_filler {
      type: "constant"
      value: 0
    }
  }
}
layer {
  name: "conv6/dw_relu"
  type: "ReLU"
  bottom: "conv6/dw"
  top: "conv6/dw"
}
layer {
  name: "conv6/sep"
  type: "Convolution"
  bottom: "conv6/dw"
  top: "conv6/sep"
  param {
    lr_mult: 1
    decay_mult: 1
  }
  convolution_param {
    num_output: 1024
    bias_term: false
    pad: 0
    kernel_size: 1
    group: 1
    stride: 1
    weight_filler {
      type: "gaussian"
      std: 0.01
    }
    engine: DEFAULT
  }
}
layer {
  name: "conv6/sep/bn"
  type: "BatchNorm"
  bottom: "conv6/sep"
  top: "conv6/sep"
  batch_norm_param {
    moving_average_fraction: 0.999
    eps: 0.001
  }
}
layer {
  name: "conv6/sep/scale"
  type: "Scale"
  bottom: "conv6/sep"
  top: "conv6/sep"
  param {
    lr_mult: 1
    decay_mult: 0
  }
  param {
    lr_mult: 1
    decay_mult: 0
  }
  scale_param {
    filler {
      type: "constant"
      value: 1
    }
    bias_term: true
    bias_filler {
      type: "constant"
      value: 0
    }
  }
}
layer {
  name: "conv6/sep_relu"
  type: "ReLU"
  bottom: "conv6/sep"
  top: "conv6/sep"
}
layer {
  name: "conv7_1"
  type: "Convolution"
  bottom: "conv6/sep"
  top: "conv7_1"
  param {
    lr_mult: 1
    decay_mult: 1
  }
  param {
    lr_mult: 2
    decay_mult: 0
  }
  convolution_param {
    num_output: 256
    pad: 0
    kernel_size: 1
    group: 1
    stride: 1
    weight_filler {
      type: "xavier"
    }
    bias_filler {
      type: "constant"
      value: 0
    }
    engine: DEFAULT
  }
}
layer {
  name: "conv7_1_relu"
  type: "ReLU"
  bottom: "conv7_1"
  top: "conv7_1"
}
layer {
  name: "conv7_2"
  type: "Convolution"
  bottom: "conv7_1"
  top: "conv7_2"
  param {
    lr_mult: 1
    decay_mult: 1
  }
  param {
    lr_mult: 2
    decay_mult: 0
  }
  convolution_param {
    num_output: 512
    pad: 1
    kernel_size: 3
    group: 1
    stride: 2
    weight_filler {
      type: "xavier"
    }
    bias_filler {
      type: "constant"
      value: 0
    }
    engine: DEFAULT
  }
}
layer {
  name: "conv7_2_relu"
  type: "ReLU"
  bottom: "con
I0903 21:18:25.027253 12819 layer_factory.hpp:77] Creating layer data
I0903 21:18:25.027685 12819 net.cpp:100] Creating Layer data
I0903 21:18:25.027711 12819 net.cpp:408] data -> data
I0903 21:18:25.027757 12819 net.cpp:408] data -> label
I0903 21:18:25.029481 12825 db_lmdb.cpp:35] Opened lmdb data/BodyFaceHandRegions/lmdb/oxford_viva_lmdb
I0903 21:18:25.079093 12819 annotated_data_layer.cpp:62] output data size: 16,3,300,300
I0903 21:18:25.122063 12819 net.cpp:150] Setting up data
I0903 21:18:25.122102 12819 net.cpp:157] Top shape: 16 3 300 300 (4320000)
I0903 21:18:25.122110 12819 net.cpp:157] Top shape: 1 1 4 8 (32)
I0903 21:18:25.122114 12819 net.cpp:165] Memory required for data: 17280128
I0903 21:18:25.122133 12819 layer_factory.hpp:77] Creating layer data_data_0_split
I0903 21:18:25.122156 12819 net.cpp:100] Creating Layer data_data_0_split
I0903 21:18:25.122166 12819 net.cpp:434] data_data_0_split <- data
I0903 21:18:25.122189 12819 net.cpp:408] data_data_0_split -> data_data_0_split_0
I0903 21:18:25.122207 12819 net.cpp:408] data_data_0_split -> data_data_0_split_1
I0903 21:18:25.122220 12819 net.cpp:408] data_data_0_split -> data_data_0_split_2
I0903 21:18:25.122236 12819 net.cpp:408] data_data_0_split -> data_data_0_split_3
I0903 21:18:25.122248 12819 net.cpp:408] data_data_0_split -> data_data_0_split_4
I0903 21:18:25.122259 12819 net.cpp:408] data_data_0_split -> data_data_0_split_5
I0903 21:18:25.122269 12819 net.cpp:408] data_data_0_split -> data_data_0_split_6
I0903 21:18:25.122537 12819 net.cpp:150] Setting up data_data_0_split
I0903 21:18:25.122552 12819 net.cpp:157] Top shape: 16 3 300 300 (4320000)
I0903 21:18:25.122560 12819 net.cpp:157] Top shape: 16 3 300 300 (4320000)
I0903 21:18:25.122568 12819 net.cpp:157] Top shape: 16 3 300 300 (4320000)
I0903 21:18:25.122576 12819 net.cpp:157] Top shape: 16 3 300 300 (4320000)
I0903 21:18:25.122584 12819 net.cpp:157] Top shape: 16 3 300 300 (4320000)
I0903 21:18:25.122591 12819 net.cpp:157] Top shape: 16 3 300 300 (4320000)
I0903 21:18:25.122601 12819 net.cpp:157] Top shape: 16 3 300 300 (4320000)
I0903 21:18:25.122606 12819 net.cpp:165] Memory required for data: 138240128
I0903 21:18:25.122613 12819 layer_factory.hpp:77] Creating layer conv1
I0903 21:18:25.122642 12819 net.cpp:100] Creating Layer conv1
I0903 21:18:25.122650 12819 net.cpp:434] conv1 <- data_data_0_split_0
I0903 21:18:25.122661 12819 net.cpp:408] conv1 -> conv1
I0903 21:18:25.255056 12826 blocking_queue.cpp:50] Waiting for data
I0903 21:18:25.616569 12819 net.cpp:150] Setting up conv1
I0903 21:18:25.616602 12819 net.cpp:157] Top shape: 16 32 150 150 (11520000)
I0903 21:18:25.616606 12819 net.cpp:165] Memory required for data: 184320128
I0903 21:18:25.616626 12819 layer_factory.hpp:77] Creating layer conv1/bn
I0903 21:18:25.616641 12819 net.cpp:100] Creating Layer conv1/bn
I0903 21:18:25.616684 12819 net.cpp:434] conv1/bn <- conv1
I0903 21:18:25.616693 12819 net.cpp:395] conv1/bn -> conv1 (in-place)
I0903 21:18:25.617463 12819 net.cpp:150] Setting up conv1/bn
I0903 21:18:25.617480 12819 net.cpp:157] Top shape: 16 32 150 150 (11520000)
I0903 21:18:25.617482 12819 net.cpp:165] Memory required for data: 230400128
I0903 21:18:25.617494 12819 layer_factory.hpp:77] Creating layer conv1/scale
I0903 21:18:25.617508 12819 net.cpp:100] Creating Layer conv1/scale
I0903 21:18:25.617514 12819 net.cpp:434] conv1/scale <- conv1
I0903 21:18:25.617521 12819 net.cpp:395] conv1/scale -> conv1 (in-place)
I0903 21:18:25.617579 12819 layer_factory.hpp:77] Creating layer conv1/scale
I0903 21:18:25.617734 12819 net.cpp:150] Setting up conv1/scale
I0903 21:18:25.617744 12819 net.cpp:157] Top shape: 16 32 150 150 (11520000)
I0903 21:18:25.617748 12819 net.cpp:165] Memory required for data: 276480128
I0903 21:18:25.617758 12819 layer_factory.hpp:77] Creating layer conv1_relu
I0903 21:18:25.617766 12819 net.cpp:100] Creating Layer conv1_relu
I0903 21:18:25.617774 12819 net.cpp:434] conv1_relu <- conv1
I0903 21:18:25.617779 12819 net.cpp:395] conv1_relu -> conv1 (in-place)
I0903 21:18:25.617980 12819 net.cpp:150] Setting up conv1_relu
I0903 21:18:25.617991 12819 net.cpp:157] Top shape: 16 32 150 150 (11520000)
I0903 21:18:25.617995 12819 net.cpp:165] Memory required for data: 322560128
I0903 21:18:25.618000 12819 layer_factory.hpp:77] Creating layer conv2_1/dw
I0903 21:18:25.618012 12819 net.cpp:100] Creating Layer conv2_1/dw
I0903 21:18:25.618017 12819 net.cpp:434] conv2_1/dw <- conv1
I0903 21:18:25.618027 12819 net.cpp:408] conv2_1/dw -> conv2_1/dw
I0903 21:18:25.618232 12819 net.cpp:150] Setting up conv2_1/dw
I0903 21:18:25.618242 12819 net.cpp:157] Top shape: 16 32 150 150 (11520000)
I0903 21:18:25.618245 12819 net.cpp:165] Memory required for data: 368640128
I0903 21:18:25.618252 12819 layer_factory.hpp:77] Creating layer conv2_1/dw/bn
I0903 21:18:25.618258 12819 net.cpp:100] Creating Layer conv2_1/dw/bn
I0903 21:18:25.618263 12819 net.cpp:434] conv2_1/dw/bn <- conv2_1/dw
I0903 21:18:25.618270 12819 net.cpp:395] conv2_1/dw/bn -> conv2_1/dw (in-place)
I0903 21:18:25.618474 12819 net.cpp:150] Setting up conv2_1/dw/bn
I0903 21:18:25.618484 12819 net.cpp:157] Top shape: 16 32 150 150 (11520000)
I0903 21:18:25.618486 12819 net.cpp:165] Memory required for data: 414720128
I0903 21:18:25.618499 12819 layer_factory.hpp:77] Creating layer conv2_1/dw/scale
I0903 21:18:25.618510 12819 net.cpp:100] Creating Layer conv2_1/dw/scale
I0903 21:18:25.618515 12819 net.cpp:434] conv2_1/dw/scale <- conv2_1/dw
I0903 21:18:25.618522 12819 net.cpp:395] conv2_1/dw/scale -> conv2_1/dw (in-place)
I0903 21:18:25.618594 12819 layer_factory.hpp:77] Creating layer conv2_1/dw/scale
I0903 21:18:25.618742 12819 net.cpp:150] Setting up conv2_1/dw/scale
I0903 21:18:25.618752 12819 net.cpp:157] Top shape: 16 32 150 150 (11520000)
I0903 21:18:25.618755 12819 net.cpp:165] Memory required for data: 460800128
I0903 21:18:25.618763 12819 layer_factory.hpp:77] Creating layer conv2_1/dw_relu
I0903 21:18:25.618770 12819 net.cpp:100] Creating Layer conv2_1/dw_relu
I0903 21:18:25.618775 12819 net.cpp:434] conv2_1/dw_relu <- conv2_1/dw
I0903 21:18:25.618784 12819 net.cpp:395] conv2_1/dw_relu -> conv2_1/dw (in-place)
I0903 21:18:25.619509 12819 net.cpp:150] Setting up conv2_1/dw_relu
I0903 21:18:25.619524 12819 net.cpp:157] Top shape: 16 32 150 150 (11520000)
I0903 21:18:25.619529 12819 net.cpp:165] Memory required for data: 506880128
I0903 21:18:25.619534 12819 layer_factory.hpp:77] Creating layer conv2_1/sep
I0903 21:18:25.619545 12819 net.cpp:100] Creating Layer conv2_1/sep
I0903 21:18:25.619550 12819 net.cpp:434] conv2_1/sep <- conv2_1/dw
I0903 21:18:25.619561 12819 net.cpp:408] conv2_1/sep -> conv2_1/sep
I0903 21:18:25.621409 12819 net.cpp:150] Setting up conv2_1/sep
I0903 21:18:25.621425 12819 net.cpp:157] Top shape: 16 64 150 150 (23040000)
I0903 21:18:25.621428 12819 net.cpp:165] Memory required for data: 599040128
I0903 21:18:25.621434 12819 layer_factory.hpp:77] Creating layer conv2_1/sep/bn
I0903 21:18:25.621443 12819 net.cpp:100] Creating Layer conv2_1/sep/bn
I0903 21:18:25.621446 12819 net.cpp:434] conv2_1/sep/bn <- conv2_1/sep
I0903 21:18:25.621451 12819 net.cpp:395] conv2_1/sep/bn -> conv2_1/sep (in-place)
I0903 21:18:25.621665 12819 net.cpp:150] Setting up conv2_1/sep/bn
I0903 21:18:25.621673 12819 net.cpp:157] Top shape: 16 64 150 150 (23040000)
I0903 21:18:25.621678 12819 net.cpp:165] Memory required for data: 691200128
I0903 21:18:25.621686 12819 layer_factory.hpp:77] Creating layer conv2_1/sep/scale
I0903 21:18:25.621696 12819 net.cpp:100] Creating Layer conv2_1/sep/scale
I0903 21:18:25.621701 12819 net.cpp:434] conv2_1/sep/scale <- conv2_1/sep
I0903 21:18:25.621707 12819 net.cpp:395] conv2_1/sep/scale -> conv2_1/sep (in-place)
I0903 21:18:25.621752 12819 layer_factory.hpp:77] Creating layer conv2_1/sep/scale
I0903 21:18:25.621898 12819 net.cpp:150] Setting up conv2_1/sep/scale
I0903 21:18:25.621909 12819 net.cpp:157] Top shape: 16 64 150 150 (23040000)
I0903 21:18:25.621913 12819 net.cpp:165] Memory required for data: 783360128
I0903 21:18:25.621923 12819 layer_factory.hpp:77] Creating layer conv2_1/sep_relu
I0903 21:18:25.621932 12819 net.cpp:100] Creating Layer conv2_1/sep_relu
I0903 21:18:25.621937 12819 net.cpp:434] conv2_1/sep_relu <- conv2_1/sep
I0903 21:18:25.621944 12819 net.cpp:395] conv2_1/sep_relu -> conv2_1/sep (in-place)
I0903 21:18:25.622675 12819 net.cpp:150] Setting up conv2_1/sep_relu
I0903 21:18:25.622690 12819 net.cpp:157] Top shape: 16 64 150 150 (23040000)
I0903 21:18:25.622694 12819 net.cpp:165] Memory required for data: 875520128
I0903 21:18:25.622696 12819 layer_factory.hpp:77] Creating layer conv2_2/dw
I0903 21:18:25.622730 12819 net.cpp:100] Creating Layer conv2_2/dw
I0903 21:18:25.622733 12819 net.cpp:434] conv2_2/dw <- conv2_1/sep
I0903 21:18:25.622741 12819 net.cpp:408] conv2_2/dw -> conv2_2/dw
I0903 21:18:25.622946 12819 net.cpp:150] Setting up conv2_2/dw
I0903 21:18:25.622956 12819 net.cpp:157] Top shape: 16 64 75 75 (5760000)
I0903 21:18:25.622959 12819 net.cpp:165] Memory required for data: 898560128
I0903 21:18:25.622964 12819 layer_factory.hpp:77] Creating layer conv2_2/dw/bn
I0903 21:18:25.622972 12819 net.cpp:100] Creating Layer conv2_2/dw/bn
I0903 21:18:25.622977 12819 net.cpp:434] conv2_2/dw/bn <- conv2_2/dw
I0903 21:18:25.622982 12819 net.cpp:395] conv2_2/dw/bn -> conv2_2/dw (in-place)
I0903 21:18:25.623688 12819 net.cpp:150] Setting up conv2_2/dw/bn
I0903 21:18:25.623702 12819 net.cpp:157] Top shape: 16 64 75 75 (5760000)
I0903 21:18:25.623704 12819 net.cpp:165] Memory required for data: 921600128
I0903 21:18:25.623713 12819 layer_factory.hpp:77] Creating layer conv2_2/dw/scale
I0903 21:18:25.623739 12819 net.cpp:100] Creating Layer conv2_2/dw/scale
I0903 21:18:25.623745 12819 net.cpp:434] conv2_2/dw/scale <- conv2_2/dw
I0903 21:18:25.623754 12819 net.cpp:395] conv2_2/dw/scale -> conv2_2/dw (in-place)
I0903 21:18:25.623809 12819 layer_factory.hpp:77] Creating layer conv2_2/dw/scale
I0903 21:18:25.623934 12819 net.cpp:150] Setting up conv2_2/dw/scale
I0903 21:18:25.623944 12819 net.cpp:157] Top shape: 16 64 75 75 (5760000)
I0903 21:18:25.623947 12819 net.cpp:165] Memory required for data: 944640128
I0903 21:18:25.623955 12819 layer_factory.hpp:77] Creating layer conv2_2/dw_relu
I0903 21:18:25.623961 12819 net.cpp:100] Creating Layer conv2_2/dw_relu
I0903 21:18:25.623966 12819 net.cpp:434] conv2_2/dw_relu <- conv2_2/dw
I0903 21:18:25.623972 12819 net.cpp:395] conv2_2/dw_relu -> conv2_2/dw (in-place)
I0903 21:18:25.624161 12819 net.cpp:150] Setting up conv2_2/dw_relu
I0903 21:18:25.624171 12819 net.cpp:157] Top shape: 16 64 75 75 (5760000)
I0903 21:18:25.624176 12819 net.cpp:165] Memory required for data: 967680128
I0903 21:18:25.624179 12819 layer_factory.hpp:77] Creating layer conv2_2/sep
I0903 21:18:25.624191 12819 net.cpp:100] Creating Layer conv2_2/sep
I0903 21:18:25.624195 12819 net.cpp:434] conv2_2/sep <- conv2_2/dw
I0903 21:18:25.624207 12819 net.cpp:408] conv2_2/sep -> conv2_2/sep
I0903 21:18:25.627142 12819 net.cpp:150] Setting up conv2_2/sep
I0903 21:18:25.627159 12819 net.cpp:157] Top shape: 16 128 75 75 (11520000)
I0903 21:18:25.627164 12819 net.cpp:165] Memory required for data: 1013760128
I0903 21:18:25.627171 12819 layer_factory.hpp:77] Creating layer conv2_2/sep/bn
I0903 21:18:25.627179 12819 net.cpp:100] Creating Layer conv2_2/sep/bn
I0903 21:18:25.627183 12819 net.cpp:434] conv2_2/sep/bn <- conv2_2/sep
I0903 21:18:25.627192 12819 net.cpp:395] conv2_2/sep/bn -> conv2_2/sep (in-place)
I0903 21:18:25.627379 12819 net.cpp:150] Setting up conv2_2/sep/bn
I0903 21:18:25.627388 12819 net.cpp:157] Top shape: 16 128 75 75 (11520000)
I0903 21:18:25.627391 12819 net.cpp:165] Memory required for data: 1059840128
I0903 21:18:25.627399 12819 layer_factory.hpp:77] Creating layer conv2_2/sep/scale
I0903 21:18:25.627408 12819 net.cpp:100] Creating Layer conv2_2/sep/scale
I0903 21:18:25.627413 12819 net.cpp:434] conv2_2/sep/scale <- conv2_2/sep
I0903 21:18:25.627420 12819 net.cpp:395] conv2_2/sep/scale -> conv2_2/sep (in-place)
I0903 21:18:25.627460 12819 layer_factory.hpp:77] Creating layer conv2_2/sep/scale
I0903 21:18:25.627573 12819 net.cpp:150] Setting up conv2_2/sep/scale
I0903 21:18:25.627581 12819 net.cpp:157] Top shape: 16 128 75 75 (11520000)
I0903 21:18:25.627585 12819 net.cpp:165] Memory required for data: 1105920128
I0903 21:18:25.627591 12819 layer_factory.hpp:77] Creating layer conv2_2/sep_relu
I0903 21:18:25.627599 12819 net.cpp:100] Creating Layer conv2_2/sep_relu
I0903 21:18:25.627604 12819 net.cpp:434] conv2_2/sep_relu <- conv2_2/sep
I0903 21:18:25.627609 12819 net.cpp:395] conv2_2/sep_relu -> conv2_2/sep (in-place)
I0903 21:18:25.628321 12819 net.cpp:150] Setting up conv2_2/sep_relu
I0903 21:18:25.628335 12819 net.cpp:157] Top shape: 16 128 75 75 (11520000)
I0903 21:18:25.628340 12819 net.cpp:165] Memory required for data: 1152000128
I0903 21:18:25.628345 12819 layer_factory.hpp:77] Creating layer conv3_1/dw
I0903 21:18:25.628355 12819 net.cpp:100] Creating Layer conv3_1/dw
I0903 21:18:25.628360 12819 net.cpp:434] conv3_1/dw <- conv2_2/sep
I0903 21:18:25.628368 12819 net.cpp:408] conv3_1/dw -> conv3_1/dw
I0903 21:18:25.628566 12819 net.cpp:150] Setting up conv3_1/dw
I0903 21:18:25.628574 12819 net.cpp:157] Top shape: 16 128 75 75 (11520000)
I0903 21:18:25.628578 12819 net.cpp:165] Memory required for data: 1198080128
I0903 21:18:25.628585 12819 layer_factory.hpp:77] Creating layer conv3_1/dw/bn
I0903 21:18:25.628593 12819 net.cpp:100] Creating Layer conv3_1/dw/bn
I0903 21:18:25.628598 12819 net.cpp:434] conv3_1/dw/bn <- conv3_1/dw
I0903 21:18:25.628604 12819 net.cpp:395] conv3_1/dw/bn -> conv3_1/dw (in-place)
I0903 21:18:25.628782 12819 net.cpp:150] Setting up conv3_1/dw/bn
I0903 21:18:25.628803 12819 net.cpp:157] Top shape: 16 128 75 75 (11520000)
I0903 21:18:25.628806 12819 net.cpp:165] Memory required for data: 1244160128
I0903 21:18:25.628819 12819 layer_factory.hpp:77] Creating layer conv3_1/dw/scale
I0903 21:18:25.628828 12819 net.cpp:100] Creating Layer conv3_1/dw/scale
I0903 21:18:25.628832 12819 net.cpp:434] conv3_1/dw/scale <- conv3_1/dw
I0903 21:18:25.628839 12819 net.cpp:395] conv3_1/dw/scale -> conv3_1/dw (in-place)
I0903 21:18:25.628887 12819 layer_factory.hpp:77] Creating layer conv3_1/dw/scale
I0903 21:18:25.628998 12819 net.cpp:150] Setting up conv3_1/dw/scale
I0903 21:18:25.629005 12819 net.cpp:157] Top shape: 16 128 75 75 (11520000)
I0903 21:18:25.629009 12819 net.cpp:165] Memory required for data: 1290240128
I0903 21:18:25.629015 12819 layer_factory.hpp:77] Creating layer conv3_1/dw_relu
I0903 21:18:25.629022 12819 net.cpp:100] Creating Layer conv3_1/dw_relu
I0903 21:18:25.629026 12819 net.cpp:434] conv3_1/dw_relu <- conv3_1/dw
I0903 21:18:25.629032 12819 net.cpp:395] conv3_1/dw_relu -> conv3_1/dw (in-place)
I0903 21:18:25.629217 12819 net.cpp:150] Setting up conv3_1/dw_relu
I0903 21:18:25.629228 12819 net.cpp:157] Top shape: 16 128 75 75 (11520000)
I0903 21:18:25.629232 12819 net.cpp:165] Memory required for data: 1336320128
I0903 21:18:25.629237 12819 layer_factory.hpp:77] Creating layer conv3_1/sep
I0903 21:18:25.629247 12819 net.cpp:100] Creating Layer conv3_1/sep
I0903 21:18:25.629252 12819 net.cpp:434] conv3_1/sep <- conv3_1/dw
I0903 21:18:25.629259 12819 net.cpp:408] conv3_1/sep -> conv3_1/sep
I0903 21:18:25.631201 12819 net.cpp:150] Setting up conv3_1/sep
I0903 21:18:25.631216 12819 net.cpp:157] Top shape: 16 128 75 75 (11520000)
I0903 21:18:25.631218 12819 net.cpp:165] Memory required for data: 1382400128
I0903 21:18:25.631224 12819 layer_factory.hpp:77] Creating layer conv3_1/sep/bn
I0903 21:18:25.631232 12819 net.cpp:100] Creating Layer conv3_1/sep/bn
I0903 21:18:25.631237 12819 net.cpp:434] conv3_1/sep/bn <- conv3_1/sep
I0903 21:18:25.631242 12819 net.cpp:395] conv3_1/sep/bn -> conv3_1/sep (in-place)
I0903 21:18:25.631422 12819 net.cpp:150] Setting up conv3_1/sep/bn
I0903 21:18:25.631431 12819 net.cpp:157] Top shape: 16 128 75 75 (11520000)
I0903 21:18:25.631435 12819 net.cpp:165] Memory required for data: 1428480128
I0903 21:18:25.631444 12819 layer_factory.hpp:77] Creating layer conv3_1/sep/scale
I0903 21:18:25.631453 12819 net.cpp:100] Creating Layer conv3_1/sep/scale
I0903 21:18:25.631456 12819 net.cpp:434] conv3_1/sep/scale <- conv3_1/sep
I0903 21:18:25.631464 12819 net.cpp:395] conv3_1/sep/scale -> conv3_1/sep (in-place)
I0903 21:18:25.631506 12819 layer_factory.hpp:77] Creating layer conv3_1/sep/scale
I0903 21:18:25.631618 12819 net.cpp:150] Setting up conv3_1/sep/scale
I0903 21:18:25.631625 12819 net.cpp:157] Top shape: 16 128 75 75 (11520000)
I0903 21:18:25.631629 12819 net.cpp:165] Memory required for data: 1474560128
I0903 21:18:25.631636 12819 layer_factory.hpp:77] Creating layer conv3_1/sep_relu
I0903 21:18:25.631644 12819 net.cpp:100] Creating Layer conv3_1/sep_relu
I0903 21:18:25.631649 12819 net.cpp:434] conv3_1/sep_relu <- conv3_1/sep
I0903 21:18:25.631654 12819 net.cpp:395] conv3_1/sep_relu -> conv3_1/sep (in-place)
I0903 21:18:25.632349 12819 net.cpp:150] Setting up conv3_1/sep_relu
I0903 21:18:25.632364 12819 net.cpp:157] Top shape: 16 128 75 75 (11520000)
I0903 21:18:25.632366 12819 net.cpp:165] Memory required for data: 1520640128
I0903 21:18:25.632369 12819 layer_factory.hpp:77] Creating layer conv3_2/dw
I0903 21:18:25.632380 12819 net.cpp:100] Creating Layer conv3_2/dw
I0903 21:18:25.632383 12819 net.cpp:434] conv3_2/dw <- conv3_1/sep
I0903 21:18:25.632390 12819 net.cpp:408] conv3_2/dw -> conv3_2/dw
I0903 21:18:25.632592 12819 net.cpp:150] Setting up conv3_2/dw
I0903 21:18:25.632602 12819 net.cpp:157] Top shape: 16 128 38 38 (2957312)
I0903 21:18:25.632606 12819 net.cpp:165] Memory required for data: 1532469376
I0903 21:18:25.632611 12819 layer_factory.hpp:77] Creating layer conv3_2/dw/bn
I0903 21:18:25.632619 12819 net.cpp:100] Creating Layer conv3_2/dw/bn
I0903 21:18:25.632637 12819 net.cpp:434] conv3_2/dw/bn <- conv3_2/dw
I0903 21:18:25.632643 12819 net.cpp:395] conv3_2/dw/bn -> conv3_2/dw (in-place)
I0903 21:18:25.632818 12819 net.cpp:150] Setting up conv3_2/dw/bn
I0903 21:18:25.632827 12819 net.cpp:157] Top shape: 16 128 38 38 (2957312)
I0903 21:18:25.632830 12819 net.cpp:165] Memory required for data: 1544298624
I0903 21:18:25.632839 12819 layer_factory.hpp:77] Creating layer conv3_2/dw/scale
I0903 21:18:25.632851 12819 net.cpp:100] Creating Layer conv3_2/dw/scale
I0903 21:18:25.632856 12819 net.cpp:434] conv3_2/dw/scale <- conv3_2/dw
I0903 21:18:25.632863 12819 net.cpp:395] conv3_2/dw/scale -> conv3_2/dw (in-place)
I0903 21:18:25.632906 12819 layer_factory.hpp:77] Creating layer conv3_2/dw/scale
I0903 21:18:25.633016 12819 net.cpp:150] Setting up conv3_2/dw/scale
I0903 21:18:25.633023 12819 net.cpp:157] Top shape: 16 128 38 38 (2957312)
I0903 21:18:25.633028 12819 net.cpp:165] Memory required for data: 1556127872
I0903 21:18:25.633034 12819 layer_factory.hpp:77] Creating layer conv3_2/dw_relu
I0903 21:18:25.633040 12819 net.cpp:100] Creating Layer conv3_2/dw_relu
I0903 21:18:25.633046 12819 net.cpp:434] conv3_2/dw_relu <- conv3_2/dw
I0903 21:18:25.633054 12819 net.cpp:395] conv3_2/dw_relu -> conv3_2/dw (in-place)
I0903 21:18:25.633232 12819 net.cpp:150] Setting up conv3_2/dw_relu
I0903 21:18:25.633244 12819 net.cpp:157] Top shape: 16 128 38 38 (2957312)
I0903 21:18:25.633246 12819 net.cpp:165] Memory required for data: 1567957120
I0903 21:18:25.633251 12819 layer_factory.hpp:77] Creating layer conv3_2/sep
I0903 21:18:25.633262 12819 net.cpp:100] Creating Layer conv3_2/sep
I0903 21:18:25.633267 12819 net.cpp:434] conv3_2/sep <- conv3_2/dw
I0903 21:18:25.633275 12819 net.cpp:408] conv3_2/sep -> conv3_2/sep
I0903 21:18:25.635367 12819 net.cpp:150] Setting up conv3_2/sep
I0903 21:18:25.635382 12819 net.cpp:157] Top shape: 16 256 38 38 (5914624)
I0903 21:18:25.635386 12819 net.cpp:165] Memory required for data: 1591615616
I0903 21:18:25.635393 12819 layer_factory.hpp:77] Creating layer conv3_2/sep/bn
I0903 21:18:25.635402 12819 net.cpp:100] Creating Layer conv3_2/sep/bn
I0903 21:18:25.635407 12819 net.cpp:434] conv3_2/sep/bn <- conv3_2/sep
I0903 21:18:25.635414 12819 net.cpp:395] conv3_2/sep/bn -> conv3_2/sep (in-place)
I0903 21:18:25.635601 12819 net.cpp:150] Setting up conv3_2/sep/bn
I0903 21:18:25.635609 12819 net.cpp:157] Top shape: 16 256 38 38 (5914624)
I0903 21:18:25.635613 12819 net.cpp:165] Memory required for data: 1615274112
I0903 21:18:25.635622 12819 layer_factory.hpp:77] Creating layer conv3_2/sep/scale
I0903 21:18:25.635630 12819 net.cpp:100] Creating Layer conv3_2/sep/scale
I0903 21:18:25.635635 12819 net.cpp:434] conv3_2/sep/scale <- conv3_2/sep
I0903 21:18:25.635643 12819 net.cpp:395] conv3_2/sep/scale -> conv3_2/sep (in-place)
I0903 21:18:25.635684 12819 layer_factory.hpp:77] Creating layer conv3_2/sep/scale
I0903 21:18:25.635809 12819 net.cpp:150] Setting up conv3_2/sep/scale
I0903 21:18:25.635818 12819 net.cpp:157] Top shape: 16 256 38 38 (5914624)
I0903 21:18:25.635821 12819 net.cpp:165] Memory required for data: 1638932608
I0903 21:18:25.635828 12819 layer_factory.hpp:77] Creating layer conv3_2/sep_relu
I0903 21:18:25.635835 12819 net.cpp:100] Creating Layer conv3_2/sep_relu
I0903 21:18:25.635840 12819 net.cpp:434] conv3_2/sep_relu <- conv3_2/sep
I0903 21:18:25.635846 12819 net.cpp:395] conv3_2/sep_relu -> conv3_2/sep (in-place)
I0903 21:18:25.636545 12819 net.cpp:150] Setting up conv3_2/sep_relu
I0903 21:18:25.636559 12819 net.cpp:157] Top shape: 16 256 38 38 (5914624)
I0903 21:18:25.636561 12819 net.cpp:165] Memory required for data: 1662591104
I0903 21:18:25.636564 12819 layer_factory.hpp:77] Creating layer conv4_1/dw
I0903 21:18:25.636574 12819 net.cpp:100] Creating Layer conv4_1/dw
I0903 21:18:25.636577 12819 net.cpp:434] conv4_1/dw <- conv3_2/sep
I0903 21:18:25.636584 12819 net.cpp:408] conv4_1/dw -> conv4_1/dw
I0903 21:18:25.636797 12819 net.cpp:150] Setting up conv4_1/dw
I0903 21:18:25.636806 12819 net.cpp:157] Top shape: 16 256 38 38 (5914624)
I0903 21:18:25.636821 12819 net.cpp:165] Memory required for data: 1686249600
I0903 21:18:25.636827 12819 layer_factory.hpp:77] Creating layer conv4_1/dw/bn
I0903 21:18:25.636833 12819 net.cpp:100] Creating Layer conv4_1/dw/bn
I0903 21:18:25.636838 12819 net.cpp:434] conv4_1/dw/bn <- conv4_1/dw
I0903 21:18:25.636844 12819 net.cpp:395] conv4_1/dw/bn -> conv4_1/dw (in-place)
I0903 21:18:25.637024 12819 net.cpp:150] Setting up conv4_1/dw/bn
I0903 21:18:25.637032 12819 net.cpp:157] Top shape: 16 256 38 38 (5914624)
I0903 21:18:25.637037 12819 net.cpp:165] Memory required for data: 1709908096
I0903 21:18:25.637042 12819 layer_factory.hpp:77] Creating layer conv4_1/dw/scale
I0903 21:18:25.637050 12819 net.cpp:100] Creating Layer conv4_1/dw/scale
I0903 21:18:25.637054 12819 net.cpp:434] conv4_1/dw/scale <- conv4_1/dw
I0903 21:18:25.637061 12819 net.cpp:395] conv4_1/dw/scale -> conv4_1/dw (in-place)
I0903 21:18:25.637104 12819 layer_factory.hpp:77] Creating layer conv4_1/dw/scale
I0903 21:18:25.637210 12819 net.cpp:150] Setting up conv4_1/dw/scale
I0903 21:18:25.637219 12819 net.cpp:157] Top shape: 16 256 38 38 (5914624)
I0903 21:18:25.637223 12819 net.cpp:165] Memory required for data: 1733566592
I0903 21:18:25.637228 12819 layer_factory.hpp:77] Creating layer conv4_1/dw_relu
I0903 21:18:25.637234 12819 net.cpp:100] Creating Layer conv4_1/dw_relu
I0903 21:18:25.637238 12819 net.cpp:434] conv4_1/dw_relu <- conv4_1/dw
I0903 21:18:25.637244 12819 net.cpp:395] conv4_1/dw_relu -> conv4_1/dw (in-place)
I0903 21:18:25.637428 12819 net.cpp:150] Setting up conv4_1/dw_relu
I0903 21:18:25.637439 12819 net.cpp:157] Top shape: 16 256 38 38 (5914624)
I0903 21:18:25.637444 12819 net.cpp:165] Memory required for data: 1757225088
I0903 21:18:25.637447 12819 layer_factory.hpp:77] Creating layer conv4_1/sep
I0903 21:18:25.637457 12819 net.cpp:100] Creating Layer conv4_1/sep
I0903 21:18:25.637462 12819 net.cpp:434] conv4_1/sep <- conv4_1/dw
I0903 21:18:25.637471 12819 net.cpp:408] conv4_1/sep -> conv4_1/sep
I0903 21:18:25.641047 12819 net.cpp:150] Setting up conv4_1/sep
I0903 21:18:25.641062 12819 net.cpp:157] Top shape: 16 256 38 38 (5914624)
I0903 21:18:25.641067 12819 net.cpp:165] Memory required for data: 1780883584
I0903 21:18:25.641072 12819 layer_factory.hpp:77] Creating layer conv4_1/sep/bn
I0903 21:18:25.641082 12819 net.cpp:100] Creating Layer conv4_1/sep/bn
I0903 21:18:25.641086 12819 net.cpp:434] conv4_1/sep/bn <- conv4_1/sep
I0903 21:18:25.641093 12819 net.cpp:395] conv4_1/sep/bn -> conv4_1/sep (in-place)
I0903 21:18:25.641283 12819 net.cpp:150] Setting up conv4_1/sep/bn
I0903 21:18:25.641290 12819 net.cpp:157] Top shape: 16 256 38 38 (5914624)
I0903 21:18:25.641294 12819 net.cpp:165] Memory required for data: 1804542080
I0903 21:18:25.641304 12819 layer_factory.hpp:77] Creating layer conv4_1/sep/scale
I0903 21:18:25.641312 12819 net.cpp:100] Creating Layer conv4_1/sep/scale
I0903 21:18:25.641316 12819 net.cpp:434] conv4_1/sep/scale <- conv4_1/sep
I0903 21:18:25.641326 12819 net.cpp:395] conv4_1/sep/scale -> conv4_1/sep (in-place)
I0903 21:18:25.641368 12819 layer_factory.hpp:77] Creating layer conv4_1/sep/scale
I0903 21:18:25.641472 12819 net.cpp:150] Setting up conv4_1/sep/scale
I0903 21:18:25.641480 12819 net.cpp:157] Top shape: 16 256 38 38 (5914624)
I0903 21:18:25.641484 12819 net.cpp:165] Memory required for data: 1828200576
I0903 21:18:25.641499 12819 layer_factory.hpp:77] Creating layer conv4_1/sep_relu
I0903 21:18:25.641505 12819 net.cpp:100] Creating Layer conv4_1/sep_relu
I0903 21:18:25.641510 12819 net.cpp:434] conv4_1/sep_relu <- conv4_1/sep
I0903 21:18:25.641515 12819 net.cpp:395] conv4_1/sep_relu -> conv4_1/sep (in-place)
I0903 21:18:25.641705 12819 net.cpp:150] Setting up conv4_1/sep_relu
I0903 21:18:25.641716 12819 net.cpp:157] Top shape: 16 256 38 38 (5914624)
I0903 21:18:25.641719 12819 net.cpp:165] Memory required for data: 1851859072
I0903 21:18:25.641724 12819 layer_factory.hpp:77] Creating layer conv4_2/dw
I0903 21:18:25.641736 12819 net.cpp:100] Creating Layer conv4_2/dw
I0903 21:18:25.641752 12819 net.cpp:434] conv4_2/dw <- conv4_1/sep
I0903 21:18:25.641759 12819 net.cpp:408] conv4_2/dw -> conv4_2/dw
I0903 21:18:25.641974 12819 net.cpp:150] Setting up conv4_2/dw
I0903 21:18:25.641983 12819 net.cpp:157] Top shape: 16 256 19 19 (1478656)
I0903 21:18:25.641986 12819 net.cpp:165] Memory required for data: 1857773696
I0903 21:18:25.641993 12819 layer_factory.hpp:77] Creating layer conv4_2/dw/bn
I0903 21:18:25.641999 12819 net.cpp:100] Creating Layer conv4_2/dw/bn
I0903 21:18:25.642004 12819 net.cpp:434] conv4_2/dw/bn <- conv4_2/dw
I0903 21:18:25.642009 12819 net.cpp:395] conv4_2/dw/bn -> conv4_2/dw (in-place)
I0903 21:18:25.642190 12819 net.cpp:150] Setting up conv4_2/dw/bn
I0903 21:18:25.642197 12819 net.cpp:157] Top shape: 16 256 19 19 (1478656)
I0903 21:18:25.642201 12819 net.cpp:165] Memory required for data: 1863688320
I0903 21:18:25.642208 12819 layer_factory.hpp:77] Creating layer conv4_2/dw/scale
I0903 21:18:25.642215 12819 net.cpp:100] Creating Layer conv4_2/dw/scale
I0903 21:18:25.642220 12819 net.cpp:434] conv4_2/dw/scale <- conv4_2/dw
I0903 21:18:25.642225 12819 net.cpp:395] conv4_2/dw/scale -> conv4_2/dw (in-place)
I0903 21:18:25.642268 12819 layer_factory.hpp:77] Creating layer conv4_2/dw/scale
I0903 21:18:25.642397 12819 net.cpp:150] Setting up conv4_2/dw/scale
I0903 21:18:25.642406 12819 net.cpp:157] Top shape: 16 256 19 19 (1478656)
I0903 21:18:25.642410 12819 net.cpp:165] Memory required for data: 1869602944
I0903 21:18:25.642417 12819 layer_factory.hpp:77] Creating layer conv4_2/dw_relu
I0903 21:18:25.642423 12819 net.cpp:100] Creating Layer conv4_2/dw_relu
I0903 21:18:25.642428 12819 net.cpp:434] conv4_2/dw_relu <- conv4_2/dw
I0903 21:18:25.642434 12819 net.cpp:395] conv4_2/dw_relu -> conv4_2/dw (in-place)
I0903 21:18:25.643118 12819 net.cpp:150] Setting up conv4_2/dw_relu
I0903 21:18:25.643132 12819 net.cpp:157] Top shape: 16 256 19 19 (1478656)
I0903 21:18:25.643136 12819 net.cpp:165] Memory required for data: 1875517568
I0903 21:18:25.643139 12819 layer_factory.hpp:77] Creating layer conv4_2/sep
I0903 21:18:25.643151 12819 net.cpp:100] Creating Layer conv4_2/sep
I0903 21:18:25.643155 12819 net.cpp:434] conv4_2/sep <- conv4_2/dw
I0903 21:18:25.643162 12819 net.cpp:408] conv4_2/sep -> conv4_2/sep
I0903 21:18:25.647043 12819 net.cpp:150] Setting up conv4_2/sep
I0903 21:18:25.647059 12819 net.cpp:157] Top shape: 16 512 19 19 (2957312)
I0903 21:18:25.647063 12819 net.cpp:165] Memory required for data: 1887346816
I0903 21:18:25.647070 12819 layer_factory.hpp:77] Creating layer conv4_2/sep/bn
I0903 21:18:25.647078 12819 net.cpp:100] Creating Layer conv4_2/sep/bn
I0903 21:18:25.647083 12819 net.cpp:434] conv4_2/sep/bn <- conv4_2/sep
I0903 21:18:25.647089 12819 net.cpp:395] conv4_2/sep/bn -> conv4_2/sep (in-place)
I0903 21:18:25.647285 12819 net.cpp:150] Setting up conv4_2/sep/bn
I0903 21:18:25.647294 12819 net.cpp:157] Top shape: 16 512 19 19 (2957312)
I0903 21:18:25.647297 12819 net.cpp:165] Memory required for data: 1899176064
I0903 21:18:25.647305 12819 layer_factory.hpp:77] Creating layer conv4_2/sep/scale
I0903 21:18:25.647313 12819 net.cpp:100] Creating Layer conv4_2/sep/scale
I0903 21:18:25.647317 12819 net.cpp:434] conv4_2/sep/scale <- conv4_2/sep
I0903 21:18:25.647325 12819 net.cpp:395] conv4_2/sep/scale -> conv4_2/sep (in-place)
I0903 21:18:25.647367 12819 layer_factory.hpp:77] Creating layer conv4_2/sep/scale
I0903 21:18:25.647472 12819 net.cpp:150] Setting up conv4_2/sep/scale
I0903 21:18:25.647480 12819 net.cpp:157] Top shape: 16 512 19 19 (2957312)
I0903 21:18:25.647483 12819 net.cpp:165] Memory required for data: 1911005312
I0903 21:18:25.647490 12819 layer_factory.hpp:77] Creating layer conv4_2/sep_relu
I0903 21:18:25.647496 12819 net.cpp:100] Creating Layer conv4_2/sep_relu
I0903 21:18:25.647500 12819 net.cpp:434] conv4_2/sep_relu <- conv4_2/sep
I0903 21:18:25.647507 12819 net.cpp:395] conv4_2/sep_relu -> conv4_2/sep (in-place)
I0903 21:18:25.647687 12819 net.cpp:150] Setting up conv4_2/sep_relu
I0903 21:18:25.647697 12819 net.cpp:157] Top shape: 16 512 19 19 (2957312)
I0903 21:18:25.647712 12819 net.cpp:165] Memory required for data: 1922834560
I0903 21:18:25.647717 12819 layer_factory.hpp:77] Creating layer conv5_1/dw
I0903 21:18:25.647727 12819 net.cpp:100] Creating Layer conv5_1/dw
I0903 21:18:25.647732 12819 net.cpp:434] conv5_1/dw <- conv4_2/sep
I0903 21:18:25.647740 12819 net.cpp:408] conv5_1/dw -> conv5_1/dw
I0903 21:18:25.647981 12819 net.cpp:150] Setting up conv5_1/dw
I0903 21:18:25.647990 12819 net.cpp:157] Top shape: 16 512 19 19 (2957312)
I0903 21:18:25.647994 12819 net.cpp:165] Memory required for data: 1934663808
I0903 21:18:25.648000 12819 layer_factory.hpp:77] Creating layer conv5_1/dw/bn
I0903 21:18:25.648006 12819 net.cpp:100] Creating Layer conv5_1/dw/bn
I0903 21:18:25.648011 12819 net.cpp:434] conv5_1/dw/bn <- conv5_1/dw
I0903 21:18:25.648018 12819 net.cpp:395] conv5_1/dw/bn -> conv5_1/dw (in-place)
I0903 21:18:25.648196 12819 net.cpp:150] Setting up conv5_1/dw/bn
I0903 21:18:25.648203 12819 net.cpp:157] Top shape: 16 512 19 19 (2957312)
I0903 21:18:25.648207 12819 net.cpp:165] Memory required for data: 1946493056
I0903 21:18:25.648213 12819 layer_factory.hpp:77] Creating layer conv5_1/dw/scale
I0903 21:18:25.648221 12819 net.cpp:100] Creating Layer conv5_1/dw/scale
I0903 21:18:25.648224 12819 net.cpp:434] conv5_1/dw/scale <- conv5_1/dw
I0903 21:18:25.648231 12819 net.cpp:395] conv5_1/dw/scale -> conv5_1/dw (in-place)
I0903 21:18:25.648274 12819 layer_factory.hpp:77] Creating layer conv5_1/dw/scale
I0903 21:18:25.648382 12819 net.cpp:150] Setting up conv5_1/dw/scale
I0903 21:18:25.648389 12819 net.cpp:157] Top shape: 16 512 19 19 (2957312)
I0903 21:18:25.648393 12819 net.cpp:165] Memory required for data: 1958322304
I0903 21:18:25.648399 12819 layer_factory.hpp:77] Creating layer conv5_1/dw_relu
I0903 21:18:25.648406 12819 net.cpp:100] Creating Layer conv5_1/dw_relu
I0903 21:18:25.648411 12819 net.cpp:434] conv5_1/dw_relu <- conv5_1/dw
I0903 21:18:25.648417 12819 net.cpp:395] conv5_1/dw_relu -> conv5_1/dw (in-place)
I0903 21:18:25.649096 12819 net.cpp:150] Setting up conv5_1/dw_relu
I0903 21:18:25.649111 12819 net.cpp:157] Top shape: 16 512 19 19 (2957312)
I0903 21:18:25.649113 12819 net.cpp:165] Memory required for data: 1970151552
I0903 21:18:25.649118 12819 layer_factory.hpp:77] Creating layer conv5_1/sep
I0903 21:18:25.649129 12819 net.cpp:100] Creating Layer conv5_1/sep
I0903 21:18:25.649133 12819 net.cpp:434] conv5_1/sep <- conv5_1/dw
I0903 21:18:25.649142 12819 net.cpp:408] conv5_1/sep -> conv5_1/sep
I0903 21:18:25.653620 12819 net.cpp:150] Setting up conv5_1/sep
I0903 21:18:25.653633 12819 net.cpp:157] Top shape: 16 512 19 19 (2957312)
I0903 21:18:25.653636 12819 net.cpp:165] Memory required for data: 1981980800
I0903 21:18:25.653642 12819 layer_factory.hpp:77] Creating layer conv5_1/sep/bn
I0903 21:18:25.653650 12819 net.cpp:100] Creating Layer conv5_1/sep/bn
I0903 21:18:25.653652 12819 net.cpp:434] conv5_1/sep/bn <- conv5_1/sep
I0903 21:18:25.653657 12819 net.cpp:395] conv5_1/sep/bn -> conv5_1/sep (in-place)
I0903 21:18:25.653849 12819 net.cpp:150] Setting up conv5_1/sep/bn
I0903 21:18:25.653856 12819 net.cpp:157] Top shape: 16 512 19 19 (2957312)
I0903 21:18:25.653861 12819 net.cpp:165] Memory required for data: 1993810048
I0903 21:18:25.653868 12819 layer_factory.hpp:77] Creating layer conv5_1/sep/scale
I0903 21:18:25.653875 12819 net.cpp:100] Creating Layer conv5_1/sep/scale
I0903 21:18:25.653879 12819 net.cpp:434] conv5_1/sep/scale <- conv5_1/sep
I0903 21:18:25.653885 12819 net.cpp:395] conv5_1/sep/scale -> conv5_1/sep (in-place)
I0903 21:18:25.653930 12819 layer_factory.hpp:77] Creating layer conv5_1/sep/scale
I0903 21:18:25.654036 12819 net.cpp:150] Setting up conv5_1/sep/scale
I0903 21:18:25.654043 12819 net.cpp:157] Top shape: 16 512 19 19 (2957312)
I0903 21:18:25.654053 12819 net.cpp:165] Memory required for data: 2005639296
I0903 21:18:25.654059 12819 layer_factory.hpp:77] Creating layer conv5_1/sep_relu
I0903 21:18:25.654067 12819 net.cpp:100] Creating Layer conv5_1/sep_relu
I0903 21:18:25.654070 12819 net.cpp:434] conv5_1/sep_relu <- conv5_1/sep
I0903 21:18:25.654088 12819 net.cpp:395] conv5_1/sep_relu -> conv5_1/sep (in-place)
I0903 21:18:25.654259 12819 net.cpp:150] Setting up conv5_1/sep_relu
I0903 21:18:25.654269 12819 net.cpp:157] Top shape: 16 512 19 19 (2957312)
I0903 21:18:25.654273 12819 net.cpp:165] Memory required for data: 2017468544
I0903 21:18:25.654278 12819 layer_factory.hpp:77] Creating layer conv5_2/dw
I0903 21:18:25.654289 12819 net.cpp:100] Creating Layer conv5_2/dw
I0903 21:18:25.654292 12819 net.cpp:434] conv5_2/dw <- conv5_1/sep
I0903 21:18:25.654305 12819 net.cpp:408] conv5_2/dw -> conv5_2/dw
I0903 21:18:25.654536 12819 net.cpp:150] Setting up conv5_2/dw
I0903 21:18:25.654543 12819 net.cpp:157] Top shape: 16 512 19 19 (2957312)
I0903 21:18:25.654547 12819 net.cpp:165] Memory required for data: 2029297792
I0903 21:18:25.654551 12819 layer_factory.hpp:77] Creating layer conv5_2/dw/bn
I0903 21:18:25.654557 12819 net.cpp:100] Creating Layer conv5_2/dw/bn
I0903 21:18:25.654562 12819 net.cpp:434] conv5_2/dw/bn <- conv5_2/dw
I0903 21:18:25.654567 12819 net.cpp:395] conv5_2/dw/bn -> conv5_2/dw (in-place)
I0903 21:18:25.654750 12819 net.cpp:150] Setting up conv5_2/dw/bn
I0903 21:18:25.654757 12819 net.cpp:157] Top shape: 16 512 19 19 (2957312)
I0903 21:18:25.654762 12819 net.cpp:165] Memory required for data: 2041127040
I0903 21:18:25.654768 12819 layer_factory.hpp:77] Creating layer conv5_2/dw/scale
I0903 21:18:25.654784 12819 net.cpp:100] Creating Layer conv5_2/dw/scale
I0903 21:18:25.654789 12819 net.cpp:434] conv5_2/dw/scale <- conv5_2/dw
I0903 21:18:25.654795 12819 net.cpp:395] conv5_2/dw/scale -> conv5_2/dw (in-place)
I0903 21:18:25.654840 12819 layer_factory.hpp:77] Creating layer conv5_2/dw/scale
I0903 21:18:25.654945 12819 net.cpp:150] Setting up conv5_2/dw/scale
I0903 21:18:25.654953 12819 net.cpp:157] Top shape: 16 512 19 19 (2957312)
I0903 21:18:25.654958 12819 net.cpp:165] Memory required for data: 2052956288
I0903 21:18:25.654963 12819 layer_factory.hpp:77] Creating layer conv5_2/dw_relu
I0903 21:18:25.654969 12819 net.cpp:100] Creating Layer conv5_2/dw_relu
I0903 21:18:25.654973 12819 net.cpp:434] conv5_2/dw_relu <- conv5_2/dw
I0903 21:18:25.654978 12819 net.cpp:395] conv5_2/dw_relu -> conv5_2/dw (in-place)
I0903 21:18:25.655638 12819 net.cpp:150] Setting up conv5_2/dw_relu
I0903 21:18:25.655668 12819 net.cpp:157] Top shape: 16 512 19 19 (2957312)
I0903 21:18:25.655670 12819 net.cpp:165] Memory required for data: 2064785536
I0903 21:18:25.655673 12819 layer_factory.hpp:77] Creating layer conv5_2/sep
I0903 21:18:25.655681 12819 net.cpp:100] Creating Layer conv5_2/sep
I0903 21:18:25.655684 12819 net.cpp:434] conv5_2/sep <- conv5_2/dw
I0903 21:18:25.655691 12819 net.cpp:408] conv5_2/sep -> conv5_2/sep
I0903 21:18:25.659646 12819 net.cpp:150] Setting up conv5_2/sep
I0903 21:18:25.659662 12819 net.cpp:157] Top shape: 16 512 19 19 (2957312)
I0903 21:18:25.659664 12819 net.cpp:165] Memory required for data: 2076614784
I0903 21:18:25.659669 12819 layer_factory.hpp:77] Creating layer conv5_2/sep/bn
I0903 21:18:25.659674 12819 net.cpp:100] Creating Layer conv5_2/sep/bn
I0903 21:18:25.659677 12819 net.cpp:434] conv5_2/sep/bn <- conv5_2/sep
I0903 21:18:25.659683 12819 net.cpp:395] conv5_2/sep/bn -> conv5_2/sep (in-place)
I0903 21:18:25.659873 12819 net.cpp:150] Setting up conv5_2/sep/bn
I0903 21:18:25.659880 12819 net.cpp:157] Top shape: 16 512 19 19 (2957312)
I0903 21:18:25.659883 12819 net.cpp:165] Memory required for data: 2088444032
I0903 21:18:25.659889 12819 layer_factory.hpp:77] Creating layer conv5_2/sep/scale
I0903 21:18:25.659898 12819 net.cpp:100] Creating Layer conv5_2/sep/scale
I0903 21:18:25.659903 12819 net.cpp:434] conv5_2/sep/scale <- conv5_2/sep
I0903 21:18:25.659909 12819 net.cpp:395] conv5_2/sep/scale -> conv5_2/sep (in-place)
I0903 21:18:25.659953 12819 layer_factory.hpp:77] Creating layer conv5_2/sep/scale
I0903 21:18:25.660065 12819 net.cpp:150] Setting up conv5_2/sep/scale
I0903 21:18:25.660073 12819 net.cpp:157] Top shape: 16 512 19 19 (2957312)
I0903 21:18:25.660076 12819 net.cpp:165] Memory required for data: 2100273280
I0903 21:18:25.660094 12819 layer_factory.hpp:77] Creating layer conv5_2/sep_relu
I0903 21:18:25.660100 12819 net.cpp:100] Creating Layer conv5_2/sep_relu
I0903 21:18:25.660105 12819 net.cpp:434] conv5_2/sep_relu <- conv5_2/sep
I0903 21:18:25.660112 12819 net.cpp:395] conv5_2/sep_relu -> conv5_2/sep (in-place)
I0903 21:18:25.660766 12819 net.cpp:150] Setting up conv5_2/sep_relu
I0903 21:18:25.660779 12819 net.cpp:157] Top shape: 16 512 19 19 (2957312)
I0903 21:18:25.660782 12819 net.cpp:165] Memory required for data: 2112102528
I0903 21:18:25.660787 12819 layer_factory.hpp:77] Creating layer conv5_3/dw
I0903 21:18:25.660797 12819 net.cpp:100] Creating Layer conv5_3/dw
I0903 21:18:25.660802 12819 net.cpp:434] conv5_3/dw <- conv5_2/sep
I0903 21:18:25.660810 12819 net.cpp:408] conv5_3/dw -> conv5_3/dw
I0903 21:18:25.661041 12819 net.cpp:150] Setting up conv5_3/dw
I0903 21:18:25.661047 12819 net.cpp:157] Top shape: 16 512 19 19 (2957312)
I0903 21:18:25.661051 12819 net.cpp:165] Memory required for data: 2123931776
I0903 21:18:25.661056 12819 layer_factory.hpp:77] Creating layer conv5_3/dw/bn
I0903 21:18:25.661062 12819 net.cpp:100] Creating Layer conv5_3/dw/bn
I0903 21:18:25.661065 12819 net.cpp:434] conv5_3/dw/bn <- conv5_3/dw
I0903 21:18:25.661072 12819 net.cpp:395] conv5_3/dw/bn -> conv5_3/dw (in-place)
I0903 21:18:25.661250 12819 net.cpp:150] Setting up conv5_3/dw/bn
I0903 21:18:25.661257 12819 net.cpp:157] Top shape: 16 512 19 19 (2957312)
I0903 21:18:25.661262 12819 net.cpp:165] Memory required for data: 2135761024
I0903 21:18:25.661268 12819 layer_factory.hpp:77] Creating layer conv5_3/dw/scale
I0903 21:18:25.661275 12819 net.cpp:100] Creating Layer conv5_3/dw/scale
I0903 21:18:25.661280 12819 net.cpp:434] conv5_3/dw/scale <- conv5_3/dw
I0903 21:18:25.661288 12819 net.cpp:395] conv5_3/dw/scale -> conv5_3/dw (in-place)
I0903 21:18:25.661329 12819 layer_factory.hpp:77] Creating layer conv5_3/dw/scale
I0903 21:18:25.661434 12819 net.cpp:150] Setting up conv5_3/dw/scale
I0903 21:18:25.661442 12819 net.cpp:157] Top shape: 16 512 19 19 (2957312)
I0903 21:18:25.661445 12819 net.cpp:165] Memory required for data: 2147590272
I0903 21:18:25.661451 12819 layer_factory.hpp:77] Creating layer conv5_3/dw_relu
I0903 21:18:25.661458 12819 net.cpp:100] Creating Layer conv5_3/dw_relu
I0903 21:18:25.661461 12819 net.cpp:434] conv5_3/dw_relu <- conv5_3/dw
I0903 21:18:25.661466 12819 net.cpp:395] conv5_3/dw_relu -> conv5_3/dw (in-place)
I0903 21:18:25.662125 12819 net.cpp:150] Setting up conv5_3/dw_relu
I0903 21:18:25.662137 12819 net.cpp:157] Top shape: 16 512 19 19 (2957312)
I0903 21:18:25.662139 12819 net.cpp:165] Memory required for data: 2159419520
I0903 21:18:25.662142 12819 layer_factory.hpp:77] Creating layer conv5_3/sep
I0903 21:18:25.662153 12819 net.cpp:100] Creating Layer conv5_3/sep
I0903 21:18:25.662156 12819 net.cpp:434] conv5_3/sep <- conv5_3/dw
I0903 21:18:25.662163 12819 net.cpp:408] conv5_3/sep -> conv5_3/sep
I0903 21:18:25.666028 12819 net.cpp:150] Setting up conv5_3/sep
I0903 21:18:25.666041 12819 net.cpp:157] Top shape: 16 512 19 19 (2957312)
I0903 21:18:25.666045 12819 net.cpp:165] Memory required for data: 2171248768
I0903 21:18:25.666051 12819 layer_factory.hpp:77] Creating layer conv5_3/sep/bn
I0903 21:18:25.666059 12819 net.cpp:100] Creating Layer conv5_3/sep/bn
I0903 21:18:25.666062 12819 net.cpp:434] conv5_3/sep/bn <- conv5_3/sep
I0903 21:18:25.666069 12819 net.cpp:395] conv5_3/sep/bn -> conv5_3/sep (in-place)
I0903 21:18:25.666260 12819 net.cpp:150] Setting up conv5_3/sep/bn
I0903 21:18:25.666266 12819 net.cpp:157] Top shape: 16 512 19 19 (2957312)
I0903 21:18:25.666270 12819 net.cpp:165] Memory required for data: 2183078016
I0903 21:18:25.666276 12819 layer_factory.hpp:77] Creating layer conv5_3/sep/scale
I0903 21:18:25.666283 12819 net.cpp:100] Creating Layer conv5_3/sep/scale
I0903 21:18:25.666287 12819 net.cpp:434] conv5_3/sep/scale <- conv5_3/sep
I0903 21:18:25.666294 12819 net.cpp:395] conv5_3/sep/scale -> conv5_3/sep (in-place)
I0903 21:18:25.666345 12819 layer_factory.hpp:77] Creating layer conv5_3/sep/scale
I0903 21:18:25.666466 12819 net.cpp:150] Setting up conv5_3/sep/scale
I0903 21:18:25.666473 12819 net.cpp:157] Top shape: 16 512 19 19 (2957312)
I0903 21:18:25.666477 12819 net.cpp:165] Memory required for data: 2194907264
I0903 21:18:25.666483 12819 layer_factory.hpp:77] Creating layer conv5_3/sep_relu
I0903 21:18:25.666489 12819 net.cpp:100] Creating Layer conv5_3/sep_relu
I0903 21:18:25.666493 12819 net.cpp:434] conv5_3/sep_relu <- conv5_3/sep
I0903 21:18:25.666501 12819 net.cpp:395] conv5_3/sep_relu -> conv5_3/sep (in-place)
I0903 21:18:25.667140 12819 net.cpp:150] Setting up conv5_3/sep_relu
I0903 21:18:25.667151 12819 net.cpp:157] Top shape: 16 512 19 19 (2957312)
I0903 21:18:25.667155 12819 net.cpp:165] Memory required for data: 2206736512
I0903 21:18:25.667161 12819 layer_factory.hpp:77] Creating layer conv5_4/dw
I0903 21:18:25.667171 12819 net.cpp:100] Creating Layer conv5_4/dw
I0903 21:18:25.667176 12819 net.cpp:434] conv5_4/dw <- conv5_3/sep
I0903 21:18:25.667183 12819 net.cpp:408] conv5_4/dw -> conv5_4/dw
I0903 21:18:25.667408 12819 net.cpp:150] Setting up conv5_4/dw
I0903 21:18:25.667417 12819 net.cpp:157] Top shape: 16 512 19 19 (2957312)
I0903 21:18:25.667418 12819 net.cpp:165] Memory required for data: 2218565760
I0903 21:18:25.667423 12819 layer_factory.hpp:77] Creating layer conv5_4/dw/bn
I0903 21:18:25.667429 12819 net.cpp:100] Creating Layer conv5_4/dw/bn
I0903 21:18:25.667434 12819 net.cpp:434] conv5_4/dw/bn <- conv5_4/dw
I0903 21:18:25.667439 12819 net.cpp:395] conv5_4/dw/bn -> conv5_4/dw (in-place)
I0903 21:18:25.667619 12819 net.cpp:150] Setting up conv5_4/dw/bn
I0903 21:18:25.667626 12819 net.cpp:157] Top shape: 16 512 19 19 (2957312)
I0903 21:18:25.667630 12819 net.cpp:165] Memory required for data: 2230395008
I0903 21:18:25.667637 12819 layer_factory.hpp:77] Creating layer conv5_4/dw/scale
I0903 21:18:25.667644 12819 net.cpp:100] Creating Layer conv5_4/dw/scale
I0903 21:18:25.667649 12819 net.cpp:434] conv5_4/dw/scale <- conv5_4/dw
I0903 21:18:25.667654 12819 net.cpp:395] conv5_4/dw/scale -> conv5_4/dw (in-place)
I0903 21:18:25.667698 12819 layer_factory.hpp:77] Creating layer conv5_4/dw/scale
I0903 21:18:25.667804 12819 net.cpp:150] Setting up conv5_4/dw/scale
I0903 21:18:25.667811 12819 net.cpp:157] Top shape: 16 512 19 19 (2957312)
I0903 21:18:25.667814 12819 net.cpp:165] Memory required for data: 2242224256
I0903 21:18:25.667820 12819 layer_factory.hpp:77] Creating layer conv5_4/dw_relu
I0903 21:18:25.667826 12819 net.cpp:100] Creating Layer conv5_4/dw_relu
I0903 21:18:25.667830 12819 net.cpp:434] conv5_4/dw_relu <- conv5_4/dw
I0903 21:18:25.667835 12819 net.cpp:395] conv5_4/dw_relu -> conv5_4/dw (in-place)
I0903 21:18:25.667999 12819 net.cpp:150] Setting up conv5_4/dw_relu
I0903 21:18:25.668007 12819 net.cpp:157] Top shape: 16 512 19 19 (2957312)
I0903 21:18:25.668010 12819 net.cpp:165] Memory required for data: 2254053504
I0903 21:18:25.668015 12819 layer_factory.hpp:77] Creating layer conv5_4/sep
I0903 21:18:25.668025 12819 net.cpp:100] Creating Layer conv5_4/sep
I0903 21:18:25.668028 12819 net.cpp:434] conv5_4/sep <- conv5_4/dw
I0903 21:18:25.668035 12819 net.cpp:408] conv5_4/sep -> conv5_4/sep
I0903 21:18:25.672317 12819 net.cpp:150] Setting up conv5_4/sep
I0903 21:18:25.672330 12819 net.cpp:157] Top shape: 16 512 19 19 (2957312)
I0903 21:18:25.672356 12819 net.cpp:165] Memory required for data: 2265882752
I0903 21:18:25.672363 12819 layer_factory.hpp:77] Creating layer conv5_4/sep/bn
I0903 21:18:25.672371 12819 net.cpp:100] Creating Layer conv5_4/sep/bn
I0903 21:18:25.672375 12819 net.cpp:434] conv5_4/sep/bn <- conv5_4/sep
I0903 21:18:25.672382 12819 net.cpp:395] conv5_4/sep/bn -> conv5_4/sep (in-place)
I0903 21:18:25.672572 12819 net.cpp:150] Setting up conv5_4/sep/bn
I0903 21:18:25.672580 12819 net.cpp:157] Top shape: 16 512 19 19 (2957312)
I0903 21:18:25.672582 12819 net.cpp:165] Memory required for data: 2277712000
I0903 21:18:25.672590 12819 layer_factory.hpp:77] Creating layer conv5_4/sep/scale
I0903 21:18:25.672597 12819 net.cpp:100] Creating Layer conv5_4/sep/scale
I0903 21:18:25.672616 12819 net.cpp:434] conv5_4/sep/scale <- conv5_4/sep
I0903 21:18:25.672621 12819 net.cpp:395] conv5_4/sep/scale -> conv5_4/sep (in-place)
I0903 21:18:25.672670 12819 layer_factory.hpp:77] Creating layer conv5_4/sep/scale
I0903 21:18:25.672780 12819 net.cpp:150] Setting up conv5_4/sep/scale
I0903 21:18:25.672786 12819 net.cpp:157] Top shape: 16 512 19 19 (2957312)
I0903 21:18:25.672790 12819 net.cpp:165] Memory required for data: 2289541248
I0903 21:18:25.672796 12819 layer_factory.hpp:77] Creating layer conv5_4/sep_relu
I0903 21:18:25.672801 12819 net.cpp:100] Creating Layer conv5_4/sep_relu
I0903 21:18:25.672806 12819 net.cpp:434] conv5_4/sep_relu <- conv5_4/sep
I0903 21:18:25.672813 12819 net.cpp:395] conv5_4/sep_relu -> conv5_4/sep (in-place)
I0903 21:18:25.673457 12819 net.cpp:150] Setting up conv5_4/sep_relu
I0903 21:18:25.673470 12819 net.cpp:157] Top shape: 16 512 19 19 (2957312)
I0903 21:18:25.673471 12819 net.cpp:165] Memory required for data: 2301370496
I0903 21:18:25.673475 12819 layer_factory.hpp:77] Creating layer conv5_5/dw
I0903 21:18:25.673483 12819 net.cpp:100] Creating Layer conv5_5/dw
I0903 21:18:25.673486 12819 net.cpp:434] conv5_5/dw <- conv5_4/sep
I0903 21:18:25.673492 12819 net.cpp:408] conv5_5/dw -> conv5_5/dw
I0903 21:18:25.673717 12819 net.cpp:150] Setting up conv5_5/dw
I0903 21:18:25.673724 12819 net.cpp:157] Top shape: 16 512 19 19 (2957312)
I0903 21:18:25.673727 12819 net.cpp:165] Memory required for data: 2313199744
I0903 21:18:25.673732 12819 layer_factory.hpp:77] Creating layer conv5_5/dw/bn
I0903 21:18:25.673737 12819 net.cpp:100] Creating Layer conv5_5/dw/bn
I0903 21:18:25.673739 12819 net.cpp:434] conv5_5/dw/bn <- conv5_5/dw
I0903 21:18:25.673745 12819 net.cpp:395] conv5_5/dw/bn -> conv5_5/dw (in-place)
I0903 21:18:25.673928 12819 net.cpp:150] Setting up conv5_5/dw/bn
I0903 21:18:25.673934 12819 net.cpp:157] Top shape: 16 512 19 19 (2957312)
I0903 21:18:25.673938 12819 net.cpp:165] Memory required for data: 2325028992
I0903 21:18:25.673954 12819 layer_factory.hpp:77] Creating layer conv5_5/dw/scale
I0903 21:18:25.673962 12819 net.cpp:100] Creating Layer conv5_5/dw/scale
I0903 21:18:25.673966 12819 net.cpp:434] conv5_5/dw/scale <- conv5_5/dw
I0903 21:18:25.673972 12819 net.cpp:395] conv5_5/dw/scale -> conv5_5/dw (in-place)
I0903 21:18:25.674018 12819 layer_factory.hpp:77] Creating layer conv5_5/dw/scale
I0903 21:18:25.674123 12819 net.cpp:150] Setting up conv5_5/dw/scale
I0903 21:18:25.674129 12819 net.cpp:157] Top shape: 16 512 19 19 (2957312)
I0903 21:18:25.674134 12819 net.cpp:165] Memory required for data: 2336858240
I0903 21:18:25.674139 12819 layer_factory.hpp:77] Creating layer conv5_5/dw_relu
I0903 21:18:25.674147 12819 net.cpp:100] Creating Layer conv5_5/dw_relu
I0903 21:18:25.674151 12819 net.cpp:434] conv5_5/dw_relu <- conv5_5/dw
I0903 21:18:25.674157 12819 net.cpp:395] conv5_5/dw_relu -> conv5_5/dw (in-place)
I0903 21:18:25.674331 12819 net.cpp:150] Setting up conv5_5/dw_relu
I0903 21:18:25.674341 12819 net.cpp:157] Top shape: 16 512 19 19 (2957312)
I0903 21:18:25.674345 12819 net.cpp:165] Memory required for data: 2348687488
I0903 21:18:25.674350 12819 layer_factory.hpp:77] Creating layer conv5_5/sep
I0903 21:18:25.674358 12819 net.cpp:100] Creating Layer conv5_5/sep
I0903 21:18:25.674362 12819 net.cpp:434] conv5_5/sep <- conv5_5/dw
I0903 21:18:25.674371 12819 net.cpp:408] conv5_5/sep -> conv5_5/sep
I0903 21:18:25.678551 12819 net.cpp:150] Setting up conv5_5/sep
I0903 21:18:25.678565 12819 net.cpp:157] Top shape: 16 512 19 19 (2957312)
I0903 21:18:25.678570 12819 net.cpp:165] Memory required for data: 2360516736
I0903 21:18:25.678575 12819 layer_factory.hpp:77] Creating layer conv5_5/sep/bn
I0903 21:18:25.678581 12819 net.cpp:100] Creating Layer conv5_5/sep/bn
I0903 21:18:25.678586 12819 net.cpp:434] conv5_5/sep/bn <- conv5_5/sep
I0903 21:18:25.678592 12819 net.cpp:395] conv5_5/sep/bn -> conv5_5/sep (in-place)
I0903 21:18:25.678776 12819 net.cpp:150] Setting up conv5_5/sep/bn
I0903 21:18:25.678783 12819 net.cpp:157] Top shape: 16 512 19 19 (2957312)
I0903 21:18:25.678797 12819 net.cpp:165] Memory required for data: 2372345984
I0903 21:18:25.678807 12819 layer_factory.hpp:77] Creating layer conv5_5/sep/scale
I0903 21:18:25.678814 12819 net.cpp:100] Creating Layer conv5_5/sep/scale
I0903 21:18:25.678818 12819 net.cpp:434] conv5_5/sep/scale <- conv5_5/sep
I0903 21:18:25.678824 12819 net.cpp:395] conv5_5/sep/scale -> conv5_5/sep (in-place)
I0903 21:18:25.678874 12819 layer_factory.hpp:77] Creating layer conv5_5/sep/scale
I0903 21:18:25.678977 12819 net.cpp:150] Setting up conv5_5/sep/scale
I0903 21:18:25.678982 12819 net.cpp:157] Top shape: 16 512 19 19 (2957312)
I0903 21:18:25.678987 12819 net.cpp:165] Memory required for data: 2384175232
I0903 21:18:25.678992 12819 layer_factory.hpp:77] Creating layer conv5_5/sep_relu
I0903 21:18:25.678998 12819 net.cpp:100] Creating Layer conv5_5/sep_relu
I0903 21:18:25.679002 12819 net.cpp:434] conv5_5/sep_relu <- conv5_5/sep
I0903 21:18:25.679008 12819 net.cpp:395] conv5_5/sep_relu -> conv5_5/sep (in-place)
I0903 21:18:25.679637 12819 net.cpp:150] Setting up conv5_5/sep_relu
I0903 21:18:25.679649 12819 net.cpp:157] Top shape: 16 512 19 19 (2957312)
I0903 21:18:25.679652 12819 net.cpp:165] Memory required for data: 2396004480
I0903 21:18:25.679656 12819 layer_factory.hpp:77] Creating layer conv5_5/sep_conv5_5/sep_relu_0_split
I0903 21:18:25.679662 12819 net.cpp:100] Creating Layer conv5_5/sep_conv5_5/sep_relu_0_split
I0903 21:18:25.679666 12819 net.cpp:434] conv5_5/sep_conv5_5/sep_relu_0_split <- conv5_5/sep
I0903 21:18:25.679674 12819 net.cpp:408] conv5_5/sep_conv5_5/sep_relu_0_split -> conv5_5/sep_conv5_5/sep_relu_0_split_0
I0903 21:18:25.679687 12819 net.cpp:408] conv5_5/sep_conv5_5/sep_relu_0_split -> conv5_5/sep_conv5_5/sep_relu_0_split_1
I0903 21:18:25.679694 12819 net.cpp:408] conv5_5/sep_conv5_5/sep_relu_0_split -> conv5_5/sep_conv5_5/sep_relu_0_split_2
I0903 21:18:25.679699 12819 net.cpp:408] conv5_5/sep_conv5_5/sep_relu_0_split -> conv5_5/sep_conv5_5/sep_relu_0_split_3
I0903 21:18:25.679766 12819 net.cpp:150] Setting up conv5_5/sep_conv5_5/sep_relu_0_split
I0903 21:18:25.679774 12819 net.cpp:157] Top shape: 16 512 19 19 (2957312)
I0903 21:18:25.679778 12819 net.cpp:157] Top shape: 16 512 19 19 (2957312)
I0903 21:18:25.679782 12819 net.cpp:157] Top shape: 16 512 19 19 (2957312)
I0903 21:18:25.679786 12819 net.cpp:157] Top shape: 16 512 19 19 (2957312)
I0903 21:18:25.679790 12819 net.cpp:165] Memory required for data: 2443321472
I0903 21:18:25.679793 12819 layer_factory.hpp:77] Creating layer conv5_6/dw
I0903 21:18:25.679802 12819 net.cpp:100] Creating Layer conv5_6/dw
I0903 21:18:25.679807 12819 net.cpp:434] conv5_6/dw <- conv5_5/sep_conv5_5/sep_relu_0_split_0
I0903 21:18:25.679818 12819 net.cpp:408] conv5_6/dw -> conv5_6/dw
I0903 21:18:25.680028 12819 net.cpp:150] Setting up conv5_6/dw
I0903 21:18:25.680037 12819 net.cpp:157] Top shape: 16 512 10 10 (819200)
I0903 21:18:25.680039 12819 net.cpp:165] Memory required for data: 2446598272
I0903 21:18:25.680045 12819 layer_factory.hpp:77] Creating layer conv5_6/dw/bn
I0903 21:18:25.680052 12819 net.cpp:100] Creating Layer conv5_6/dw/bn
I0903 21:18:25.680057 12819 net.cpp:434] conv5_6/dw/bn <- conv5_6/dw
I0903 21:18:25.680061 12819 net.cpp:395] conv5_6/dw/bn -> conv5_6/dw (in-place)
I0903 21:18:25.680243 12819 net.cpp:150] Setting up conv5_6/dw/bn
I0903 21:18:25.680248 12819 net.cpp:157] Top shape: 16 512 10 10 (819200)
I0903 21:18:25.680253 12819 net.cpp:165] Memory required for data: 2449875072
I0903 21:18:25.680259 12819 layer_factory.hpp:77] Creating layer conv5_6/dw/scale
I0903 21:18:25.680265 12819 net.cpp:100] Creating Layer conv5_6/dw/scale
I0903 21:18:25.680269 12819 net.cpp:434] conv5_6/dw/scale <- conv5_6/dw
I0903 21:18:25.680277 12819 net.cpp:395] conv5_6/dw/scale -> conv5_6/dw (in-place)
I0903 21:18:25.680318 12819 layer_factory.hpp:77] Creating layer conv5_6/dw/scale
I0903 21:18:25.680428 12819 net.cpp:150] Setting up conv5_6/dw/scale
I0903 21:18:25.680434 12819 net.cpp:157] Top shape: 16 512 10 10 (819200)
I0903 21:18:25.680438 12819 net.cpp:165] Memory required for data: 2453151872
I0903 21:18:25.680454 12819 layer_factory.hpp:77] Creating layer conv5_6/dw_relu
I0903 21:18:25.680459 12819 net.cpp:100] Creating Layer conv5_6/dw_relu
I0903 21:18:25.680464 12819 net.cpp:434] conv5_6/dw_relu <- conv5_6/dw
I0903 21:18:25.680469 12819 net.cpp:395] conv5_6/dw_relu -> conv5_6/dw (in-place)
I0903 21:18:25.681079 12819 net.cpp:150] Setting up conv5_6/dw_relu
I0903 21:18:25.681092 12819 net.cpp:157] Top shape: 16 512 10 10 (819200)
I0903 21:18:25.681094 12819 net.cpp:165] Memory required for data: 2456428672
I0903 21:18:25.681098 12819 layer_factory.hpp:77] Creating layer conv5_6/sep
I0903 21:18:25.681108 12819 net.cpp:100] Creating Layer conv5_6/sep
I0903 21:18:25.681113 12819 net.cpp:434] conv5_6/sep <- conv5_6/dw
I0903 21:18:25.681120 12819 net.cpp:408] conv5_6/sep -> conv5_6/sep
I0903 21:18:25.687676 12819 net.cpp:150] Setting up conv5_6/sep
I0903 21:18:25.687690 12819 net.cpp:157] Top shape: 16 1024 10 10 (1638400)
I0903 21:18:25.687691 12819 net.cpp:165] Memory required for data: 2462982272
I0903 21:18:25.687696 12819 layer_factory.hpp:77] Creating layer conv5_6/sep/bn
I0903 21:18:25.687702 12819 net.cpp:100] Creating Layer conv5_6/sep/bn
I0903 21:18:25.687705 12819 net.cpp:434] conv5_6/sep/bn <- conv5_6/sep
I0903 21:18:25.687710 12819 net.cpp:395] conv5_6/sep/bn -> conv5_6/sep (in-place)
I0903 21:18:25.687892 12819 net.cpp:150] Setting up conv5_6/sep/bn
I0903 21:18:25.687902 12819 net.cpp:157] Top shape: 16 1024 10 10 (1638400)
I0903 21:18:25.687906 12819 net.cpp:165] Memory required for data: 2469535872
I0903 21:18:25.687912 12819 layer_factory.hpp:77] Creating layer conv5_6/sep/scale
I0903 21:18:25.687919 12819 net.cpp:100] Creating Layer conv5_6/sep/scale
I0903 21:18:25.687923 12819 net.cpp:434] conv5_6/sep/scale <- conv5_6/sep
I0903 21:18:25.687929 12819 net.cpp:395] conv5_6/sep/scale -> conv5_6/sep (in-place)
I0903 21:18:25.687969 12819 layer_factory.hpp:77] Creating layer conv5_6/sep/scale
I0903 21:18:25.688071 12819 net.cpp:150] Setting up conv5_6/sep/scale
I0903 21:18:25.688078 12819 net.cpp:157] Top shape: 16 1024 10 10 (1638400)
I0903 21:18:25.688081 12819 net.cpp:165] Memory required for data: 2476089472
I0903 21:18:25.688087 12819 layer_factory.hpp:77] Creating layer conv5_6/sep_relu
I0903 21:18:25.688094 12819 net.cpp:100] Creating Layer conv5_6/sep_relu
I0903 21:18:25.688098 12819 net.cpp:434] conv5_6/sep_relu <- conv5_6/sep
I0903 21:18:25.688103 12819 net.cpp:395] conv5_6/sep_relu -> conv5_6/sep (in-place)
I0903 21:18:25.688259 12819 net.cpp:150] Setting up conv5_6/sep_relu
I0903 21:18:25.688267 12819 net.cpp:157] Top shape: 16 1024 10 10 (1638400)
I0903 21:18:25.688271 12819 net.cpp:165] Memory required for data: 2482643072
I0903 21:18:25.688275 12819 layer_factory.hpp:77] Creating layer conv6/dw
I0903 21:18:25.688285 12819 net.cpp:100] Creating Layer conv6/dw
I0903 21:18:25.688289 12819 net.cpp:434] conv6/dw <- conv5_6/sep
I0903 21:18:25.688295 12819 net.cpp:408] conv6/dw -> conv6/dw
I0903 21:18:25.688551 12819 net.cpp:150] Setting up conv6/dw
I0903 21:18:25.688558 12819 net.cpp:157] Top shape: 16 1024 10 10 (1638400)
I0903 21:18:25.688561 12819 net.cpp:165] Memory required for data: 2489196672
I0903 21:18:25.688567 12819 layer_factory.hpp:77] Creating layer conv6/dw/bn
I0903 21:18:25.688572 12819 net.cpp:100] Creating Layer conv6/dw/bn
I0903 21:18:25.688576 12819 net.cpp:434] conv6/dw/bn <- conv6/dw
I0903 21:18:25.688582 12819 net.cpp:395] conv6/dw/bn -> conv6/dw (in-place)
I0903 21:18:25.688752 12819 net.cpp:150] Setting up conv6/dw/bn
I0903 21:18:25.688760 12819 net.cpp:157] Top shape: 16 1024 10 10 (1638400)
I0903 21:18:25.688763 12819 net.cpp:165] Memory required for data: 2495750272
I0903 21:18:25.688769 12819 layer_factory.hpp:77] Creating layer conv6/dw/scale
I0903 21:18:25.688776 12819 net.cpp:100] Creating Layer conv6/dw/scale
I0903 21:18:25.688779 12819 net.cpp:434] conv6/dw/scale <- conv6/dw
I0903 21:18:25.688784 12819 net.cpp:395] conv6/dw/scale -> conv6/dw (in-place)
I0903 21:18:25.688822 12819 layer_factory.hpp:77] Creating layer conv6/dw/scale
I0903 21:18:25.688942 12819 net.cpp:150] Setting up conv6/dw/scale
I0903 21:18:25.688949 12819 net.cpp:157] Top shape: 16 1024 10 10 (1638400)
I0903 21:18:25.688952 12819 net.cpp:165] Memory required for data: 2502303872
I0903 21:18:25.688958 12819 layer_factory.hpp:77] Creating layer conv6/dw_relu
I0903 21:18:25.688964 12819 net.cpp:100] Creating Layer conv6/dw_relu
I0903 21:18:25.688971 12819 net.cpp:434] conv6/dw_relu <- conv6/dw
I0903 21:18:25.688976 12819 net.cpp:395] conv6/dw_relu -> conv6/dw (in-place)
I0903 21:18:25.689574 12819 net.cpp:150] Setting up conv6/dw_relu
I0903 21:18:25.689585 12819 net.cpp:157] Top shape: 16 1024 10 10 (1638400)
I0903 21:18:25.689589 12819 net.cpp:165] Memory required for data: 2508857472
I0903 21:18:25.689594 12819 layer_factory.hpp:77] Creating layer conv6/sep
I0903 21:18:25.689602 12819 net.cpp:100] Creating Layer conv6/sep
I0903 21:18:25.689609 12819 net.cpp:434] conv6/sep <- conv6/dw
I0903 21:18:25.689615 12819 net.cpp:408] conv6/sep -> conv6/sep
I0903 21:18:25.700575 12819 net.cpp:150] Setting up conv6/sep
I0903 21:18:25.700589 12819 net.cpp:157] Top shape: 16 1024 10 10 (1638400)
I0903 21:18:25.700593 12819 net.cpp:165] Memory required for data: 2515411072
I0903 21:18:25.700598 12819 layer_factory.hpp:77] Creating layer conv6/sep/bn
I0903 21:18:25.700604 12819 net.cpp:100] Creating Layer conv6/sep/bn
I0903 21:18:25.700608 12819 net.cpp:434] conv6/sep/bn <- conv6/sep
I0903 21:18:25.700615 12819 net.cpp:395] conv6/sep/bn -> conv6/sep (in-place)
I0903 21:18:25.700798 12819 net.cpp:150] Setting up conv6/sep/bn
I0903 21:18:25.700804 12819 net.cpp:157] Top shape: 16 1024 10 10 (1638400)
I0903 21:18:25.700808 12819 net.cpp:165] Memory required for data: 2521964672
I0903 21:18:25.700814 12819 layer_factory.hpp:77] Creating layer conv6/sep/scale
I0903 21:18:25.700819 12819 net.cpp:100] Creating Layer conv6/sep/scale
I0903 21:18:25.700824 12819 net.cpp:434] conv6/sep/scale <- conv6/sep
I0903 21:18:25.700829 12819 net.cpp:395] conv6/sep/scale -> conv6/sep (in-place)
I0903 21:18:25.700866 12819 layer_factory.hpp:77] Creating layer conv6/sep/scale
I0903 21:18:25.700969 12819 net.cpp:150] Setting up conv6/sep/scale
I0903 21:18:25.700975 12819 net.cpp:157] Top shape: 16 1024 10 10 (1638400)
I0903 21:18:25.700979 12819 net.cpp:165] Memory required for data: 2528518272
I0903 21:18:25.700984 12819 layer_factory.hpp:77] Creating layer conv6/sep_relu
I0903 21:18:25.700990 12819 net.cpp:100] Creating Layer conv6/sep_relu
I0903 21:18:25.700994 12819 net.cpp:434] conv6/sep_relu <- conv6/sep
I0903 21:18:25.701000 12819 net.cpp:395] conv6/sep_relu -> conv6/sep (in-place)
I0903 21:18:25.701154 12819 net.cpp:150] Setting up conv6/sep_relu
I0903 21:18:25.701162 12819 net.cpp:157] Top shape: 16 1024 10 10 (1638400)
I0903 21:18:25.701166 12819 net.cpp:165] Memory required for data: 2535071872
I0903 21:18:25.701170 12819 layer_factory.hpp:77] Creating layer conv6/sep_conv6/sep_relu_0_split
I0903 21:18:25.701179 12819 net.cpp:100] Creating Layer conv6/sep_conv6/sep_relu_0_split
I0903 21:18:25.701182 12819 net.cpp:434] conv6/sep_conv6/sep_relu_0_split <- conv6/sep
I0903 21:18:25.701189 12819 net.cpp:408] conv6/sep_conv6/sep_relu_0_split -> conv6/sep_conv6/sep_relu_0_split_0
I0903 21:18:25.701196 12819 net.cpp:408] conv6/sep_conv6/sep_relu_0_split -> conv6/sep_conv6/sep_relu_0_split_1
I0903 21:18:25.701202 12819 net.cpp:408] conv6/sep_conv6/sep_relu_0_split -> conv6/sep_conv6/sep_relu_0_split_2
I0903 21:18:25.701207 12819 net.cpp:408] conv6/sep_conv6/sep_relu_0_split -> conv6/sep_conv6/sep_relu_0_split_3
I0903 21:18:25.701270 12819 net.cpp:150] Setting up conv6/sep_conv6/sep_relu_0_split
I0903 21:18:25.701279 12819 net.cpp:157] Top shape: 16 1024 10 10 (1638400)
I0903 21:18:25.701283 12819 net.cpp:157] Top shape: 16 1024 10 10 (1638400)
I0903 21:18:25.701287 12819 net.cpp:157] Top shape: 16 1024 10 10 (1638400)
I0903 21:18:25.701292 12819 net.cpp:157] Top shape: 16 1024 10 10 (1638400)
I0903 21:18:25.701297 12819 net.cpp:165] Memory required for data: 2561286272
I0903 21:18:25.701300 12819 layer_factory.hpp:77] Creating layer conv7_1
I0903 21:18:25.701318 12819 net.cpp:100] Creating Layer conv7_1
I0903 21:18:25.701323 12819 net.cpp:434] conv7_1 <- conv6/sep_conv6/sep_relu_0_split_0
I0903 21:18:25.701331 12819 net.cpp:408] conv7_1 -> conv7_1
I0903 21:18:25.704496 12819 net.cpp:150] Setting up conv7_1
I0903 21:18:25.704509 12819 net.cpp:157] Top shape: 16 256 10 10 (409600)
I0903 21:18:25.704514 12819 net.cpp:165] Memory required for data: 2562924672
I0903 21:18:25.704519 12819 layer_factory.hpp:77] Creating layer conv7_1_relu
I0903 21:18:25.704526 12819 net.cpp:100] Creating Layer conv7_1_relu
I0903 21:18:25.704530 12819 net.cpp:434] conv7_1_relu <- conv7_1
I0903 21:18:25.704536 12819 net.cpp:395] conv7_1_relu -> conv7_1 (in-place)
I0903 21:18:25.705137 12819 net.cpp:150] Setting up conv7_1_relu
I0903 21:18:25.705148 12819 net.cpp:157] Top shape: 16 256 10 10 (409600)
I0903 21:18:25.705150 12819 net.cpp:165] Memory required for data: 2564563072
I0903 21:18:25.705153 12819 layer_factory.hpp:77] Creating layer conv7_2
I0903 21:18:25.705162 12819 net.cpp:100] Creating Layer conv7_2
I0903 21:18:25.705164 12819 net.cpp:434] conv7_2 <- conv7_1
I0903 21:18:25.705170 12819 net.cpp:408] conv7_2 -> conv7_2
I0903 21:18:25.712700 12819 net.cpp:150] Setting up conv7_2
I0903 21:18:25.712713 12819 net.cpp:157] Top shape: 16 512 5 5 (204800)
I0903 21:18:25.712716 12819 net.cpp:165] Memory required for data: 2565382272
I0903 21:18:25.712721 12819 layer_factory.hpp:77] Creating layer conv7_2_relu
I0903 21:18:25.712726 12819 net.cpp:100] Creating Layer conv7_2_relu
I0903 21:18:25.712729 12819 net.cpp:434] conv7_2_relu <- conv7_2
I0903 21:18:25.712734 12819 net.cpp:395] conv7_2_relu -> conv7_2 (in-place)
I0903 21:18:25.713331 12819 net.cpp:150] Setting up conv7_2_relu
I0903 21:18:25.713343 12819 net.cpp:157] Top shape: 16 512 5 5 (204800)
I0903 21:18:25.713346 12819 net.cpp:165] Memory required for data: 2566201472
I0903 21:18:25.713348 12819 layer_factory.hpp:77] Creating layer conv7_2_conv7_2_relu_0_split
I0903 21:18:25.713354 12819 net.cpp:100] Creating Layer conv7_2_conv7_2_relu_0_split
I0903 21:18:25.713357 12819 net.cpp:434] conv7_2_conv7_2_relu_0_split <- conv7_2
I0903 21:18:25.713362 12819 net.cpp:408] conv7_2_conv7_2_relu_0_split -> conv7_2_conv7_2_relu_0_split_0
I0903 21:18:25.713369 12819 net.cpp:408] conv7_2_conv7_2_relu_0_split -> conv7_2_conv7_2_relu_0_split_1
I0903 21:18:25.713374 12819 net.cpp:408] conv7_2_conv7_2_relu_0_split -> conv7_2_conv7_2_relu_0_split_2
I0903 21:18:25.713380 12819 net.cpp:408] conv7_2_conv7_2_relu_0_split -> conv7_2_conv7_2_relu_0_split_3
I0903 21:18:25.713448 12819 net.cpp:150] Setting up conv7_2_conv7_2_relu_0_split
I0903 21:18:25.713454 12819 net.cpp:157] Top shape: 16 512 5 5 (204800)
I0903 21:18:25.713457 12819 net.cpp:157] Top shape: 16 512 5 5 (204800)
I0903 21:18:25.713461 12819 net.cpp:157] Top shape: 16 512 5 5 (204800)
I0903 21:18:25.713465 12819 net.cpp:157] Top shape: 16 512 5 5 (204800)
I0903 21:18:25.713469 12819 net.cpp:165] Memory required for data: 2569478272
I0903 21:18:25.713472 12819 layer_factory.hpp:77] Creating layer conv8_1
I0903 21:18:25.713482 12819 net.cpp:100] Creating Layer conv8_1
I0903 21:18:25.713486 12819 net.cpp:434] conv8_1 <- conv7_2_conv7_2_relu_0_split_0
I0903 21:18:25.713493 12819 net.cpp:408] conv8_1 -> conv8_1
I0903 21:18:25.715392 12819 net.cpp:150] Setting up conv8_1
I0903 21:18:25.715404 12819 net.cpp:157] Top shape: 16 128 5 5 (51200)
I0903 21:18:25.715407 12819 net.cpp:165] Memory required for data: 2569683072
I0903 21:18:25.715412 12819 layer_factory.hpp:77] Creating layer conv8_1_relu
I0903 21:18:25.715417 12819 net.cpp:100] Creating Layer conv8_1_relu
I0903 21:18:25.715420 12819 net.cpp:434] conv8_1_relu <- conv8_1
I0903 21:18:25.715425 12819 net.cpp:395] conv8_1_relu -> conv8_1 (in-place)
I0903 21:18:25.715580 12819 net.cpp:150] Setting up conv8_1_relu
I0903 21:18:25.715589 12819 net.cpp:157] Top shape: 16 128 5 5 (51200)
I0903 21:18:25.715592 12819 net.cpp:165] Memory required for data: 2569887872
I0903 21:18:25.715595 12819 layer_factory.hpp:77] Creating layer conv8_2
I0903 21:18:25.715615 12819 net.cpp:100] Creating Layer conv8_2
I0903 21:18:25.715620 12819 net.cpp:434] conv8_2 <- conv8_1
I0903 21:18:25.715626 12819 net.cpp:408] conv8_2 -> conv8_2
I0903 21:18:25.719000 12819 net.cpp:150] Setting up conv8_2
I0903 21:18:25.719012 12819 net.cpp:157] Top shape: 16 256 3 3 (36864)
I0903 21:18:25.719015 12819 net.cpp:165] Memory required for data: 2570035328
I0903 21:18:25.719020 12819 layer_factory.hpp:77] Creating layer conv8_2_relu
I0903 21:18:25.719025 12819 net.cpp:100] Creating Layer conv8_2_relu
I0903 21:18:25.719028 12819 net.cpp:434] conv8_2_relu <- conv8_2
I0903 21:18:25.719034 12819 net.cpp:395] conv8_2_relu -> conv8_2 (in-place)
I0903 21:18:25.719633 12819 net.cpp:150] Setting up conv8_2_relu
I0903 21:18:25.719647 12819 net.cpp:157] Top shape: 16 256 3 3 (36864)
I0903 21:18:25.719650 12819 net.cpp:165] Memory required for data: 2570182784
I0903 21:18:25.719652 12819 layer_factory.hpp:77] Creating layer conv8_2_conv8_2_relu_0_split
I0903 21:18:25.719658 12819 net.cpp:100] Creating Layer conv8_2_conv8_2_relu_0_split
I0903 21:18:25.719661 12819 net.cpp:434] conv8_2_conv8_2_relu_0_split <- conv8_2
I0903 21:18:25.719666 12819 net.cpp:408] conv8_2_conv8_2_relu_0_split -> conv8_2_conv8_2_relu_0_split_0
I0903 21:18:25.719674 12819 net.cpp:408] conv8_2_conv8_2_relu_0_split -> conv8_2_conv8_2_relu_0_split_1
I0903 21:18:25.719681 12819 net.cpp:408] conv8_2_conv8_2_relu_0_split -> conv8_2_conv8_2_relu_0_split_2
I0903 21:18:25.719686 12819 net.cpp:408] conv8_2_conv8_2_relu_0_split -> conv8_2_conv8_2_relu_0_split_3
I0903 21:18:25.719758 12819 net.cpp:150] Setting up conv8_2_conv8_2_relu_0_split
I0903 21:18:25.719763 12819 net.cpp:157] Top shape: 16 256 3 3 (36864)
I0903 21:18:25.719766 12819 net.cpp:157] Top shape: 16 256 3 3 (36864)
I0903 21:18:25.719769 12819 net.cpp:157] Top shape: 16 256 3 3 (36864)
I0903 21:18:25.719771 12819 net.cpp:157] Top shape: 16 256 3 3 (36864)
I0903 21:18:25.719774 12819 net.cpp:165] Memory required for data: 2570772608
I0903 21:18:25.719776 12819 layer_factory.hpp:77] Creating layer conv9_1
I0903 21:18:25.719787 12819 net.cpp:100] Creating Layer conv9_1
I0903 21:18:25.719791 12819 net.cpp:434] conv9_1 <- conv8_2_conv8_2_relu_0_split_0
I0903 21:18:25.719799 12819 net.cpp:408] conv9_1 -> conv9_1
I0903 21:18:25.721112 12819 net.cpp:150] Setting up conv9_1
I0903 21:18:25.721123 12819 net.cpp:157] Top shape: 16 128 3 3 (18432)
I0903 21:18:25.721125 12819 net.cpp:165] Memory required for data: 2570846336
I0903 21:18:25.721130 12819 layer_factory.hpp:77] Creating layer conv9_1_relu
I0903 21:18:25.721135 12819 net.cpp:100] Creating Layer conv9_1_relu
I0903 21:18:25.721138 12819 net.cpp:434] conv9_1_relu <- conv9_1
I0903 21:18:25.721143 12819 net.cpp:395] conv9_1_relu -> conv9_1 (in-place)
I0903 21:18:25.721737 12819 net.cpp:150] Setting up conv9_1_relu
I0903 21:18:25.721748 12819 net.cpp:157] Top shape: 16 128 3 3 (18432)
I0903 21:18:25.721750 12819 net.cpp:165] Memory required for data: 2570920064
I0903 21:18:25.721753 12819 layer_factory.hpp:77] Creating layer conv9_2
I0903 21:18:25.721761 12819 net.cpp:100] Creating Layer conv9_2
I0903 21:18:25.721765 12819 net.cpp:434] conv9_2 <- conv9_1
I0903 21:18:25.721771 12819 net.cpp:408] conv9_2 -> conv9_2
I0903 21:18:25.725533 12819 net.cpp:150] Setting up conv9_2
I0903 21:18:25.725545 12819 net.cpp:157] Top shape: 16 256 2 2 (16384)
I0903 21:18:25.725548 12819 net.cpp:165] Memory required for data: 2570985600
I0903 21:18:25.725553 12819 layer_factory.hpp:77] Creating layer conv9_2_relu
I0903 21:18:25.725558 12819 net.cpp:100] Creating Layer conv9_2_relu
I0903 21:18:25.725560 12819 net.cpp:434] conv9_2_relu <- conv9_2
I0903 21:18:25.725565 12819 net.cpp:395] conv9_2_relu -> conv9_2 (in-place)
I0903 21:18:25.725728 12819 net.cpp:150] Setting up conv9_2_relu
I0903 21:18:25.725738 12819 net.cpp:157] Top shape: 16 256 2 2 (16384)
I0903 21:18:25.725740 12819 net.cpp:165] Memory required for data: 2571051136
I0903 21:18:25.725744 12819 layer_factory.hpp:77] Creating layer conv9_2_conv9_2_relu_0_split
I0903 21:18:25.725749 12819 net.cpp:100] Creating Layer conv9_2_conv9_2_relu_0_split
I0903 21:18:25.725762 12819 net.cpp:434] conv9_2_conv9_2_relu_0_split <- conv9_2
I0903 21:18:25.725770 12819 net.cpp:408] conv9_2_conv9_2_relu_0_split -> conv9_2_conv9_2_relu_0_split_0
I0903 21:18:25.725777 12819 net.cpp:408] conv9_2_conv9_2_relu_0_split -> conv9_2_conv9_2_relu_0_split_1
I0903 21:18:25.725783 12819 net.cpp:408] conv9_2_conv9_2_relu_0_split -> conv9_2_conv9_2_relu_0_split_2
I0903 21:18:25.725790 12819 net.cpp:408] conv9_2_conv9_2_relu_0_split -> conv9_2_conv9_2_relu_0_split_3
I0903 21:18:25.725859 12819 net.cpp:150] Setting up conv9_2_conv9_2_relu_0_split
I0903 21:18:25.725867 12819 net.cpp:157] Top shape: 16 256 2 2 (16384)
I0903 21:18:25.725869 12819 net.cpp:157] Top shape: 16 256 2 2 (16384)
I0903 21:18:25.725873 12819 net.cpp:157] Top shape: 16 256 2 2 (16384)
I0903 21:18:25.725877 12819 net.cpp:157] Top shape: 16 256 2 2 (16384)
I0903 21:18:25.725879 12819 net.cpp:165] Memory required for data: 2571313280
I0903 21:18:25.725883 12819 layer_factory.hpp:77] Creating layer conv10_1
I0903 21:18:25.725891 12819 net.cpp:100] Creating Layer conv10_1
I0903 21:18:25.725896 12819 net.cpp:434] conv10_1 <- conv9_2_conv9_2_relu_0_split_0
I0903 21:18:25.725931 12819 net.cpp:408] conv10_1 -> conv10_1
I0903 21:18:25.727697 12819 net.cpp:150] Setting up conv10_1
I0903 21:18:25.727710 12819 net.cpp:157] Top shape: 16 128 2 2 (8192)
I0903 21:18:25.727712 12819 net.cpp:165] Memory required for data: 2571346048
I0903 21:18:25.727720 12819 layer_factory.hpp:77] Creating layer conv10_1_relu
I0903 21:18:25.727741 12819 net.cpp:100] Creating Layer conv10_1_relu
I0903 21:18:25.727744 12819 net.cpp:434] conv10_1_relu <- conv10_1
I0903 21:18:25.727749 12819 net.cpp:395] conv10_1_relu -> conv10_1 (in-place)
I0903 21:18:25.728350 12819 net.cpp:150] Setting up conv10_1_relu
I0903 21:18:25.728361 12819 net.cpp:157] Top shape: 16 128 2 2 (8192)
I0903 21:18:25.728365 12819 net.cpp:165] Memory required for data: 2571378816
I0903 21:18:25.728368 12819 layer_factory.hpp:77] Creating layer conv10_2
I0903 21:18:25.728379 12819 net.cpp:100] Creating Layer conv10_2
I0903 21:18:25.728384 12819 net.cpp:434] conv10_2 <- conv10_1
I0903 21:18:25.728389 12819 net.cpp:408] conv10_2 -> conv10_2
I0903 21:18:25.731298 12819 net.cpp:150] Setting up conv10_2
I0903 21:18:25.731312 12819 net.cpp:157] Top shape: 16 256 1 1 (4096)
I0903 21:18:25.731314 12819 net.cpp:165] Memory required for data: 2571395200
I0903 21:18:25.731322 12819 layer_factory.hpp:77] Creating layer conv10_2_relu
I0903 21:18:25.731329 12819 net.cpp:100] Creating Layer conv10_2_relu
I0903 21:18:25.731333 12819 net.cpp:434] conv10_2_relu <- conv10_2
I0903 21:18:25.731338 12819 net.cpp:395] conv10_2_relu -> conv10_2 (in-place)
I0903 21:18:25.731940 12819 net.cpp:150] Setting up conv10_2_relu
I0903 21:18:25.731950 12819 net.cpp:157] Top shape: 16 256 1 1 (4096)
I0903 21:18:25.731953 12819 net.cpp:165] Memory required for data: 2571411584
I0903 21:18:25.731956 12819 layer_factory.hpp:77] Creating layer conv10_2_conv10_2_relu_0_split
I0903 21:18:25.731961 12819 net.cpp:100] Creating Layer conv10_2_conv10_2_relu_0_split
I0903 21:18:25.731964 12819 net.cpp:434] conv10_2_conv10_2_relu_0_split <- conv10_2
I0903 21:18:25.731971 12819 net.cpp:408] conv10_2_conv10_2_relu_0_split -> conv10_2_conv10_2_relu_0_split_0
I0903 21:18:25.731986 12819 net.cpp:408] conv10_2_conv10_2_relu_0_split -> conv10_2_conv10_2_relu_0_split_1
I0903 21:18:25.731992 12819 net.cpp:408] conv10_2_conv10_2_relu_0_split -> conv10_2_conv10_2_relu_0_split_2
I0903 21:18:25.732050 12819 net.cpp:150] Setting up conv10_2_conv10_2_relu_0_split
I0903 21:18:25.732058 12819 net.cpp:157] Top shape: 16 256 1 1 (4096)
I0903 21:18:25.732064 12819 net.cpp:157] Top shape: 16 256 1 1 (4096)
I0903 21:18:25.732067 12819 net.cpp:157] Top shape: 16 256 1 1 (4096)
I0903 21:18:25.732070 12819 net.cpp:165] Memory required for data: 2571460736
I0903 21:18:25.732072 12819 layer_factory.hpp:77] Creating layer conv5_5/sep_mbox_loc
I0903 21:18:25.732082 12819 net.cpp:100] Creating Layer conv5_5/sep_mbox_loc
I0903 21:18:25.732097 12819 net.cpp:434] conv5_5/sep_mbox_loc <- conv5_5/sep_conv5_5/sep_relu_0_split_1
I0903 21:18:25.732105 12819 net.cpp:408] conv5_5/sep_mbox_loc -> conv5_5/sep_mbox_loc
I0903 21:18:25.734403 12819 net.cpp:150] Setting up conv5_5/sep_mbox_loc
I0903 21:18:25.734416 12819 net.cpp:157] Top shape: 16 12 19 19 (69312)
I0903 21:18:25.734418 12819 net.cpp:165] Memory required for data: 2571737984
I0903 21:18:25.734423 12819 layer_factory.hpp:77] Creating layer conv5_5/sep_mbox_loc_perm
I0903 21:18:25.734431 12819 net.cpp:100] Creating Layer conv5_5/sep_mbox_loc_perm
I0903 21:18:25.734434 12819 net.cpp:434] conv5_5/sep_mbox_loc_perm <- conv5_5/sep_mbox_loc
I0903 21:18:25.734439 12819 net.cpp:408] conv5_5/sep_mbox_loc_perm -> conv5_5/sep_mbox_loc_perm
I0903 21:18:25.734560 12819 net.cpp:150] Setting up conv5_5/sep_mbox_loc_perm
I0903 21:18:25.734567 12819 net.cpp:157] Top shape: 16 19 19 12 (69312)
I0903 21:18:25.734570 12819 net.cpp:165] Memory required for data: 2572015232
I0903 21:18:25.734575 12819 layer_factory.hpp:77] Creating layer conv5_5/sep_mbox_loc_flat
I0903 21:18:25.734581 12819 net.cpp:100] Creating Layer conv5_5/sep_mbox_loc_flat
I0903 21:18:25.734586 12819 net.cpp:434] conv5_5/sep_mbox_loc_flat <- conv5_5/sep_mbox_loc_perm
I0903 21:18:25.734592 12819 net.cpp:408] conv5_5/sep_mbox_loc_flat -> conv5_5/sep_mbox_loc_flat
I0903 21:18:25.734622 12819 net.cpp:150] Setting up conv5_5/sep_mbox_loc_flat
I0903 21:18:25.734627 12819 net.cpp:157] Top shape: 16 4332 (69312)
I0903 21:18:25.734630 12819 net.cpp:165] Memory required for data: 2572292480
I0903 21:18:25.734634 12819 layer_factory.hpp:77] Creating layer conv5_5/sep_mbox_conf
I0903 21:18:25.734644 12819 net.cpp:100] Creating Layer conv5_5/sep_mbox_conf
I0903 21:18:25.734648 12819 net.cpp:434] conv5_5/sep_mbox_conf <- conv5_5/sep_conv5_5/sep_relu_0_split_2
I0903 21:18:25.734655 12819 net.cpp:408] conv5_5/sep_mbox_conf -> conv5_5/sep_mbox_conf
I0903 21:18:25.737362 12819 net.cpp:150] Setting up conv5_5/sep_mbox_conf
I0903 21:18:25.737375 12819 net.cpp:157] Top shape: 16 12 19 19 (69312)
I0903 21:18:25.737378 12819 net.cpp:165] Memory required for data: 2572569728
I0903 21:18:25.737385 12819 layer_factory.hpp:77] Creating layer conv5_5/sep_mbox_conf_perm
I0903 21:18:25.737392 12819 net.cpp:100] Creating Layer conv5_5/sep_mbox_conf_perm
I0903 21:18:25.737396 12819 net.cpp:434] conv5_5/sep_mbox_conf_perm <- conv5_5/sep_mbox_conf
I0903 21:18:25.737403 12819 net.cpp:408] conv5_5/sep_mbox_conf_perm -> conv5_5/sep_mbox_conf_perm
I0903 21:18:25.737510 12819 net.cpp:150] Setting up conv5_5/sep_mbox_conf_perm
I0903 21:18:25.737516 12819 net.cpp:157] Top shape: 16 19 19 12 (69312)
I0903 21:18:25.737519 12819 net.cpp:165] Memory required for data: 2572846976
I0903 21:18:25.737522 12819 layer_factory.hpp:77] Creating layer conv5_5/sep_mbox_conf_flat
I0903 21:18:25.737529 12819 net.cpp:100] Creating Layer conv5_5/sep_mbox_conf_flat
I0903 21:18:25.737532 12819 net.cpp:434] conv5_5/sep_mbox_conf_flat <- conv5_5/sep_mbox_conf_perm
I0903 21:18:25.737538 12819 net.cpp:408] conv5_5/sep_mbox_conf_flat -> conv5_5/sep_mbox_conf_flat
I0903 21:18:25.737565 12819 net.cpp:150] Setting up conv5_5/sep_mbox_conf_flat
I0903 21:18:25.737571 12819 net.cpp:157] Top shape: 16 4332 (69312)
I0903 21:18:25.737574 12819 net.cpp:165] Memory required for data: 2573124224
I0903 21:18:25.737578 12819 layer_factory.hpp:77] Creating layer conv5_5/sep_mbox_priorbox
I0903 21:18:25.737587 12819 net.cpp:100] Creating Layer conv5_5/sep_mbox_priorbox
I0903 21:18:25.737591 12819 net.cpp:434] conv5_5/sep_mbox_priorbox <- conv5_5/sep_conv5_5/sep_relu_0_split_3
I0903 21:18:25.737599 12819 net.cpp:434] conv5_5/sep_mbox_priorbox <- data_data_0_split_1
I0903 21:18:25.737606 12819 net.cpp:408] conv5_5/sep_mbox_priorbox -> conv5_5/sep_mbox_priorbox
I0903 21:18:25.737638 12819 net.cpp:150] Setting up conv5_5/sep_mbox_priorbox
I0903 21:18:25.737644 12819 net.cpp:157] Top shape: 1 2 4332 (8664)
I0903 21:18:25.737648 12819 net.cpp:165] Memory required for data: 2573158880
I0903 21:18:25.737651 12819 layer_factory.hpp:77] Creating layer conv6/sep_mbox_loc
I0903 21:18:25.737670 12819 net.cpp:100] Creating Layer conv6/sep_mbox_loc
I0903 21:18:25.737675 12819 net.cpp:434] conv6/sep_mbox_loc <- conv6/sep_conv6/sep_relu_0_split_1
I0903 21:18:25.737682 12819 net.cpp:408] conv6/sep_mbox_loc -> conv6/sep_mbox_loc
I0903 21:18:25.740694 12819 net.cpp:150] Setting up conv6/sep_mbox_loc
I0903 21:18:25.740706 12819 net.cpp:157] Top shape: 16 24 10 10 (38400)
I0903 21:18:25.740710 12819 net.cpp:165] Memory required for data: 2573312480
I0903 21:18:25.740715 12819 layer_factory.hpp:77] Creating layer conv6/sep_mbox_loc_perm
I0903 21:18:25.740723 12819 net.cpp:100] Creating Layer conv6/sep_mbox_loc_perm
I0903 21:18:25.740727 12819 net.cpp:434] conv6/sep_mbox_loc_perm <- conv6/sep_mbox_loc
I0903 21:18:25.740734 12819 net.cpp:408] conv6/sep_mbox_loc_perm -> conv6/sep_mbox_loc_perm
I0903 21:18:25.740845 12819 net.cpp:150] Setting up conv6/sep_mbox_loc_perm
I0903 21:18:25.740851 12819 net.cpp:157] Top shape: 16 10 10 24 (38400)
I0903 21:18:25.740855 12819 net.cpp:165] Memory required for data: 2573466080
I0903 21:18:25.740859 12819 layer_factory.hpp:77] Creating layer conv6/sep_mbox_loc_flat
I0903 21:18:25.740869 12819 net.cpp:100] Creating Layer conv6/sep_mbox_loc_flat
I0903 21:18:25.740872 12819 net.cpp:434] conv6/sep_mbox_loc_flat <- conv6/sep_mbox_loc_perm
I0903 21:18:25.740878 12819 net.cpp:408] conv6/sep_mbox_loc_flat -> conv6/sep_mbox_loc_flat
I0903 21:18:25.740906 12819 net.cpp:150] Setting up conv6/sep_mbox_loc_flat
I0903 21:18:25.740912 12819 net.cpp:157] Top shape: 16 2400 (38400)
I0903 21:18:25.740916 12819 net.cpp:165] Memory required for data: 2573619680
I0903 21:18:25.740918 12819 layer_factory.hpp:77] Creating layer conv6/sep_mbox_conf
I0903 21:18:25.740927 12819 net.cpp:100] Creating Layer conv6/sep_mbox_conf
I0903 21:18:25.740931 12819 net.cpp:434] conv6/sep_mbox_conf <- conv6/sep_conv6/sep_relu_0_split_2
I0903 21:18:25.740938 12819 net.cpp:408] conv6/sep_mbox_conf -> conv6/sep_mbox_conf
I0903 21:18:25.744364 12819 net.cpp:150] Setting up conv6/sep_mbox_conf
I0903 21:18:25.744376 12819 net.cpp:157] Top shape: 16 24 10 10 (38400)
I0903 21:18:25.744381 12819 net.cpp:165] Memory required for data: 2573773280
I0903 21:18:25.744388 12819 layer_factory.hpp:77] Creating layer conv6/sep_mbox_conf_perm
I0903 21:18:25.744395 12819 net.cpp:100] Creating Layer conv6/sep_mbox_conf_perm
I0903 21:18:25.744398 12819 net.cpp:434] conv6/sep_mbox_conf_perm <- conv6/sep_mbox_conf
I0903 21:18:25.744405 12819 net.cpp:408] conv6/sep_mbox_conf_perm -> conv6/sep_mbox_conf_perm
I0903 21:18:25.744518 12819 net.cpp:150] Setting up conv6/sep_mbox_conf_perm
I0903 21:18:25.744524 12819 net.cpp:157] Top shape: 16 10 10 24 (38400)
I0903 21:18:25.744527 12819 net.cpp:165] Memory required for data: 2573926880
I0903 21:18:25.744530 12819 layer_factory.hpp:77] Creating layer conv6/sep_mbox_conf_flat
I0903 21:18:25.744537 12819 net.cpp:100] Creating Layer conv6/sep_mbox_conf_flat
I0903 21:18:25.744541 12819 net.cpp:434] conv6/sep_mbox_conf_flat <- conv6/sep_mbox_conf_perm
I0903 21:18:25.744547 12819 net.cpp:408] conv6/sep_mbox_conf_flat -> conv6/sep_mbox_conf_flat
I0903 21:18:25.744575 12819 net.cpp:150] Setting up conv6/sep_mbox_conf_flat
I0903 21:18:25.744581 12819 net.cpp:157] Top shape: 16 2400 (38400)
I0903 21:18:25.744585 12819 net.cpp:165] Memory required for data: 2574080480
I0903 21:18:25.744588 12819 layer_factory.hpp:77] Creating layer conv6/sep_mbox_priorbox
I0903 21:18:25.744596 12819 net.cpp:100] Creating Layer conv6/sep_mbox_priorbox
I0903 21:18:25.744601 12819 net.cpp:434] conv6/sep_mbox_priorbox <- conv6/sep_conv6/sep_relu_0_split_3
I0903 21:18:25.744606 12819 net.cpp:434] conv6/sep_mbox_priorbox <- data_data_0_split_2
I0903 21:18:25.744612 12819 net.cpp:408] conv6/sep_mbox_priorbox -> conv6/sep_mbox_priorbox
I0903 21:18:25.744642 12819 net.cpp:150] Setting up conv6/sep_mbox_priorbox
I0903 21:18:25.744647 12819 net.cpp:157] Top shape: 1 2 2400 (4800)
I0903 21:18:25.744650 12819 net.cpp:165] Memory required for data: 2574099680
I0903 21:18:25.744663 12819 layer_factory.hpp:77] Creating layer conv7_2_mbox_loc
I0903 21:18:25.744674 12819 net.cpp:100] Creating Layer conv7_2_mbox_loc
I0903 21:18:25.744678 12819 net.cpp:434] conv7_2_mbox_loc <- conv7_2_conv7_2_relu_0_split_1
I0903 21:18:25.744688 12819 net.cpp:408] conv7_2_mbox_loc -> conv7_2_mbox_loc
I0903 21:18:25.747262 12819 net.cpp:150] Setting up conv7_2_mbox_loc
I0903 21:18:25.747274 12819 net.cpp:157] Top shape: 16 24 5 5 (9600)
I0903 21:18:25.747277 12819 net.cpp:165] Memory required for data: 2574138080
I0903 21:18:25.747284 12819 layer_factory.hpp:77] Creating layer conv7_2_mbox_loc_perm
I0903 21:18:25.747292 12819 net.cpp:100] Creating Layer conv7_2_mbox_loc_perm
I0903 21:18:25.747297 12819 net.cpp:434] conv7_2_mbox_loc_perm <- conv7_2_mbox_loc
I0903 21:18:25.747303 12819 net.cpp:408] conv7_2_mbox_loc_perm -> conv7_2_mbox_loc_perm
I0903 21:18:25.747417 12819 net.cpp:150] Setting up conv7_2_mbox_loc_perm
I0903 21:18:25.747423 12819 net.cpp:157] Top shape: 16 5 5 24 (9600)
I0903 21:18:25.747426 12819 net.cpp:165] Memory required for data: 2574176480
I0903 21:18:25.747431 12819 layer_factory.hpp:77] Creating layer conv7_2_mbox_loc_flat
I0903 21:18:25.747437 12819 net.cpp:100] Creating Layer conv7_2_mbox_loc_flat
I0903 21:18:25.747442 12819 net.cpp:434] conv7_2_mbox_loc_flat <- conv7_2_mbox_loc_perm
I0903 21:18:25.747447 12819 net.cpp:408] conv7_2_mbox_loc_flat -> conv7_2_mbox_loc_flat
I0903 21:18:25.747475 12819 net.cpp:150] Setting up conv7_2_mbox_loc_flat
I0903 21:18:25.747481 12819 net.cpp:157] Top shape: 16 600 (9600)
I0903 21:18:25.747484 12819 net.cpp:165] Memory required for data: 2574214880
I0903 21:18:25.747488 12819 layer_factory.hpp:77] Creating layer conv7_2_mbox_conf
I0903 21:18:25.747498 12819 net.cpp:100] Creating Layer conv7_2_mbox_conf
I0903 21:18:25.747501 12819 net.cpp:434] conv7_2_mbox_conf <- conv7_2_conv7_2_relu_0_split_2
I0903 21:18:25.747509 12819 net.cpp:408] conv7_2_mbox_conf -> conv7_2_mbox_conf
I0903 21:18:25.750514 12819 net.cpp:150] Setting up conv7_2_mbox_conf
I0903 21:18:25.750526 12819 net.cpp:157] Top shape: 16 24 5 5 (9600)
I0903 21:18:25.750530 12819 net.cpp:165] Memory required for data: 2574253280
I0903 21:18:25.750535 12819 layer_factory.hpp:77] Creating layer conv7_2_mbox_conf_perm
I0903 21:18:25.750540 12819 net.cpp:100] Creating Layer conv7_2_mbox_conf_perm
I0903 21:18:25.750545 12819 net.cpp:434] conv7_2_mbox_conf_perm <- conv7_2_mbox_conf
I0903 21:18:25.750548 12819 net.cpp:408] conv7_2_mbox_conf_perm -> conv7_2_mbox_conf_perm
I0903 21:18:25.750664 12819 net.cpp:150] Setting up conv7_2_mbox_conf_perm
I0903 21:18:25.750671 12819 net.cpp:157] Top shape: 16 5 5 24 (9600)
I0903 21:18:25.750674 12819 net.cpp:165] Memory required for data: 2574291680
I0903 21:18:25.750679 12819 layer_factory.hpp:77] Creating layer conv7_2_mbox_conf_flat
I0903 21:18:25.750684 12819 net.cpp:100] Creating Layer conv7_2_mbox_conf_flat
I0903 21:18:25.750689 12819 net.cpp:434] conv7_2_mbox_conf_flat <- conv7_2_mbox_conf_perm
I0903 21:18:25.750694 12819 net.cpp:408] conv7_2_mbox_conf_flat -> conv7_2_mbox_conf_flat
I0903 21:18:25.750722 12819 net.cpp:150] Setting up conv7_2_mbox_conf_flat
I0903 21:18:25.750727 12819 net.cpp:157] Top shape: 16 600 (9600)
I0903 21:18:25.750730 12819 net.cpp:165] Memory required for data: 2574330080
I0903 21:18:25.750735 12819 layer_factory.hpp:77] Creating layer conv7_2_mbox_priorbox
I0903 21:18:25.750741 12819 net.cpp:100] Creating Layer conv7_2_mbox_priorbox
I0903 21:18:25.750746 12819 net.cpp:434] conv7_2_mbox_priorbox <- conv7_2_conv7_2_relu_0_split_3
I0903 21:18:25.750751 12819 net.cpp:434] conv7_2_mbox_priorbox <- data_data_0_split_3
I0903 21:18:25.750756 12819 net.cpp:408] conv7_2_mbox_priorbox -> conv7_2_mbox_priorbox
I0903 21:18:25.750787 12819 net.cpp:150] Setting up conv7_2_mbox_priorbox
I0903 21:18:25.750793 12819 net.cpp:157] Top shape: 1 2 600 (1200)
I0903 21:18:25.750797 12819 net.cpp:165] Memory required for data: 2574334880
I0903 21:18:25.750799 12819 layer_factory.hpp:77] Creating layer conv8_2_mbox_loc
I0903 21:18:25.750808 12819 net.cpp:100] Creating Layer conv8_2_mbox_loc
I0903 21:18:25.750823 12819 net.cpp:434] conv8_2_mbox_loc <- conv8_2_conv8_2_relu_0_split_1
I0903 21:18:25.750834 12819 net.cpp:408] conv8_2_mbox_loc -> conv8_2_mbox_loc
I0903 21:18:25.753154 12819 net.cpp:150] Setting up conv8_2_mbox_loc
I0903 21:18:25.753166 12819 net.cpp:157] Top shape: 16 24 3 3 (3456)
I0903 21:18:25.753170 12819 net.cpp:165] Memory required for data: 2574348704
I0903 21:18:25.753177 12819 layer_factory.hpp:77] Creating layer conv8_2_mbox_loc_perm
I0903 21:18:25.753185 12819 net.cpp:100] Creating Layer conv8_2_mbox_loc_perm
I0903 21:18:25.753190 12819 net.cpp:434] conv8_2_mbox_loc_perm <- conv8_2_mbox_loc
I0903 21:18:25.753196 12819 net.cpp:408] conv8_2_mbox_loc_perm -> conv8_2_mbox_loc_perm
I0903 21:18:25.753306 12819 net.cpp:150] Setting up conv8_2_mbox_loc_perm
I0903 21:18:25.753312 12819 net.cpp:157] Top shape: 16 3 3 24 (3456)
I0903 21:18:25.753316 12819 net.cpp:165] Memory required for data: 2574362528
I0903 21:18:25.753320 12819 layer_factory.hpp:77] Creating layer conv8_2_mbox_loc_flat
I0903 21:18:25.753327 12819 net.cpp:100] Creating Layer conv8_2_mbox_loc_flat
I0903 21:18:25.753331 12819 net.cpp:434] conv8_2_mbox_loc_flat <- conv8_2_mbox_loc_perm
I0903 21:18:25.753336 12819 net.cpp:408] conv8_2_mbox_loc_flat -> conv8_2_mbox_loc_flat
I0903 21:18:25.753365 12819 net.cpp:150] Setting up conv8_2_mbox_loc_flat
I0903 21:18:25.753371 12819 net.cpp:157] Top shape: 16 216 (3456)
I0903 21:18:25.753373 12819 net.cpp:165] Memory required for data: 2574376352
I0903 21:18:25.753378 12819 layer_factory.hpp:77] Creating layer conv8_2_mbox_conf
I0903 21:18:25.753387 12819 net.cpp:100] Creating Layer conv8_2_mbox_conf
I0903 21:18:25.753391 12819 net.cpp:434] conv8_2_mbox_conf <- conv8_2_conv8_2_relu_0_split_2
I0903 21:18:25.753401 12819 net.cpp:408] conv8_2_mbox_conf -> conv8_2_mbox_conf
I0903 21:18:25.755722 12819 net.cpp:150] Setting up conv8_2_mbox_conf
I0903 21:18:25.755734 12819 net.cpp:157] Top shape: 16 24 3 3 (3456)
I0903 21:18:25.755738 12819 net.cpp:165] Memory required for data: 2574390176
I0903 21:18:25.755744 12819 layer_factory.hpp:77] Creating layer conv8_2_mbox_conf_perm
I0903 21:18:25.755750 12819 net.cpp:100] Creating Layer conv8_2_mbox_conf_perm
I0903 21:18:25.755755 12819 net.cpp:434] conv8_2_mbox_conf_perm <- conv8_2_mbox_conf
I0903 21:18:25.755762 12819 net.cpp:408] conv8_2_mbox_conf_perm -> conv8_2_mbox_conf_perm
I0903 21:18:25.755877 12819 net.cpp:150] Setting up conv8_2_mbox_conf_perm
I0903 21:18:25.755882 12819 net.cpp:157] Top shape: 16 3 3 24 (3456)
I0903 21:18:25.755887 12819 net.cpp:165] Memory required for data: 2574404000
I0903 21:18:25.755889 12819 layer_factory.hpp:77] Creating layer conv8_2_mbox_conf_flat
I0903 21:18:25.755895 12819 net.cpp:100] Creating Layer conv8_2_mbox_conf_flat
I0903 21:18:25.755899 12819 net.cpp:434] conv8_2_mbox_conf_flat <- conv8_2_mbox_conf_perm
I0903 21:18:25.755908 12819 net.cpp:408] conv8_2_mbox_conf_flat -> conv8_2_mbox_conf_flat
I0903 21:18:25.755934 12819 net.cpp:150] Setting up conv8_2_mbox_conf_flat
I0903 21:18:25.755940 12819 net.cpp:157] Top shape: 16 216 (3456)
I0903 21:18:25.755944 12819 net.cpp:165] Memory required for data: 2574417824
I0903 21:18:25.755945 12819 layer_factory.hpp:77] Creating layer conv8_2_mbox_priorbox
I0903 21:18:25.755954 12819 net.cpp:100] Creating Layer conv8_2_mbox_priorbox
I0903 21:18:25.755959 12819 net.cpp:434] conv8_2_mbox_priorbox <- conv8_2_conv8_2_relu_0_split_3
I0903 21:18:25.755964 12819 net.cpp:434] conv8_2_mbox_priorbox <- data_data_0_split_4
I0903 21:18:25.755970 12819 net.cpp:408] conv8_2_mbox_priorbox -> conv8_2_mbox_priorbox
I0903 21:18:25.756001 12819 net.cpp:150] Setting up conv8_2_mbox_priorbox
I0903 21:18:25.756007 12819 net.cpp:157] Top shape: 1 2 216 (432)
I0903 21:18:25.756011 12819 net.cpp:165] Memory required for data: 2574419552
I0903 21:18:25.756012 12819 layer_factory.hpp:77] Creating layer conv9_2_mbox_loc
I0903 21:18:25.756021 12819 net.cpp:100] Creating Layer conv9_2_mbox_loc
I0903 21:18:25.756026 12819 net.cpp:434] conv9_2_mbox_loc <- conv9_2_conv9_2_relu_0_split_1
I0903 21:18:25.756043 12819 net.cpp:408] conv9_2_mbox_loc -> conv9_2_mbox_loc
I0903 21:18:25.758383 12819 net.cpp:150] Setting up conv9_2_mbox_loc
I0903 21:18:25.758394 12819 net.cpp:157] Top shape: 16 24 2 2 (1536)
I0903 21:18:25.758399 12819 net.cpp:165] Memory required for data: 2574425696
I0903 21:18:25.758404 12819 layer_factory.hpp:77] Creating layer conv9_2_mbox_loc_perm
I0903 21:18:25.758409 12819 net.cpp:100] Creating Layer conv9_2_mbox_loc_perm
I0903 21:18:25.758414 12819 net.cpp:434] conv9_2_mbox_loc_perm <- conv9_2_mbox_loc
I0903 21:18:25.758421 12819 net.cpp:408] conv9_2_mbox_loc_perm -> conv9_2_mbox_loc_perm
I0903 21:18:25.758536 12819 net.cpp:150] Setting up conv9_2_mbox_loc_perm
I0903 21:18:25.758543 12819 net.cpp:157] Top shape: 16 2 2 24 (1536)
I0903 21:18:25.758545 12819 net.cpp:165] Memory required for data: 2574431840
I0903 21:18:25.758548 12819 layer_factory.hpp:77] Creating layer conv9_2_mbox_loc_flat
I0903 21:18:25.758553 12819 net.cpp:100] Creating Layer conv9_2_mbox_loc_flat
I0903 21:18:25.758558 12819 net.cpp:434] conv9_2_mbox_loc_flat <- conv9_2_mbox_loc_perm
I0903 21:18:25.758564 12819 net.cpp:408] conv9_2_mbox_loc_flat -> conv9_2_mbox_loc_flat
I0903 21:18:25.758592 12819 net.cpp:150] Setting up conv9_2_mbox_loc_flat
I0903 21:18:25.758597 12819 net.cpp:157] Top shape: 16 96 (1536)
I0903 21:18:25.758600 12819 net.cpp:165] Memory required for data: 2574437984
I0903 21:18:25.758602 12819 layer_factory.hpp:77] Creating layer conv9_2_mbox_conf
I0903 21:18:25.758611 12819 net.cpp:100] Creating Layer conv9_2_mbox_conf
I0903 21:18:25.758615 12819 net.cpp:434] conv9_2_mbox_conf <- conv9_2_conv9_2_relu_0_split_2
I0903 21:18:25.758622 12819 net.cpp:408] conv9_2_mbox_conf -> conv9_2_mbox_conf
I0903 21:18:25.761339 12819 net.cpp:150] Setting up conv9_2_mbox_conf
I0903 21:18:25.761351 12819 net.cpp:157] Top shape: 16 24 2 2 (1536)
I0903 21:18:25.761355 12819 net.cpp:165] Memory required for data: 2574444128
I0903 21:18:25.761363 12819 layer_factory.hpp:77] Creating layer conv9_2_mbox_conf_perm
I0903 21:18:25.761370 12819 net.cpp:100] Creating Layer conv9_2_mbox_conf_perm
I0903 21:18:25.761374 12819 net.cpp:434] conv9_2_mbox_conf_perm <- conv9_2_mbox_conf
I0903 21:18:25.761380 12819 net.cpp:408] conv9_2_mbox_conf_perm -> conv9_2_mbox_conf_perm
I0903 21:18:25.761497 12819 net.cpp:150] Setting up conv9_2_mbox_conf_perm
I0903 21:18:25.761503 12819 net.cpp:157] Top shape: 16 2 2 24 (1536)
I0903 21:18:25.761507 12819 net.cpp:165] Memory required for data: 2574450272
I0903 21:18:25.761510 12819 layer_factory.hpp:77] Creating layer conv9_2_mbox_conf_flat
I0903 21:18:25.761517 12819 net.cpp:100] Creating Layer conv9_2_mbox_conf_flat
I0903 21:18:25.761520 12819 net.cpp:434] conv9_2_mbox_conf_flat <- conv9_2_mbox_conf_perm
I0903 21:18:25.761528 12819 net.cpp:408] conv9_2_mbox_conf_flat -> conv9_2_mbox_conf_flat
I0903 21:18:25.761557 12819 net.cpp:150] Setting up conv9_2_mbox_conf_flat
I0903 21:18:25.761564 12819 net.cpp:157] Top shape: 16 96 (1536)
I0903 21:18:25.761566 12819 net.cpp:165] Memory required for data: 2574456416
I0903 21:18:25.761569 12819 layer_factory.hpp:77] Creating layer conv9_2_mbox_priorbox
I0903 21:18:25.761575 12819 net.cpp:100] Creating Layer conv9_2_mbox_priorbox
I0903 21:18:25.761579 12819 net.cpp:434] conv9_2_mbox_priorbox <- conv9_2_conv9_2_relu_0_split_3
I0903 21:18:25.761585 12819 net.cpp:434] conv9_2_mbox_priorbox <- data_data_0_split_5
I0903 21:18:25.761591 12819 net.cpp:408] conv9_2_mbox_priorbox -> conv9_2_mbox_priorbox
I0903 21:18:25.761623 12819 net.cpp:150] Setting up conv9_2_mbox_priorbox
I0903 21:18:25.761629 12819 net.cpp:157] Top shape: 1 2 96 (192)
I0903 21:18:25.761632 12819 net.cpp:165] Memory required for data: 2574457184
I0903 21:18:25.761636 12819 layer_factory.hpp:77] Creating layer conv10_2_mbox_loc
I0903 21:18:25.761644 12819 net.cpp:100] Creating Layer conv10_2_mbox_loc
I0903 21:18:25.761648 12819 net.cpp:434] conv10_2_mbox_loc <- conv10_2_conv10_2_relu_0_split_0
I0903 21:18:25.761654 12819 net.cpp:408] conv10_2_mbox_loc -> conv10_2_mbox_loc
I0903 21:18:25.764009 12819 net.cpp:150] Setting up conv10_2_mbox_loc
I0903 21:18:25.764021 12819 net.cpp:157] Top shape: 16 24 1 1 (384)
I0903 21:18:25.764024 12819 net.cpp:165] Memory required for data: 2574458720
I0903 21:18:25.764031 12819 layer_factory.hpp:77] Creating layer conv10_2_mbox_loc_perm
I0903 21:18:25.764039 12819 net.cpp:100] Creating Layer conv10_2_mbox_loc_perm
I0903 21:18:25.764044 12819 net.cpp:434] conv10_2_mbox_loc_perm <- conv10_2_mbox_loc
I0903 21:18:25.764050 12819 net.cpp:408] conv10_2_mbox_loc_perm -> conv10_2_mbox_loc_perm
I0903 21:18:25.764164 12819 net.cpp:150] Setting up conv10_2_mbox_loc_perm
I0903 21:18:25.764170 12819 net.cpp:157] Top shape: 16 1 1 24 (384)
I0903 21:18:25.764173 12819 net.cpp:165] Memory required for data: 2574460256
I0903 21:18:25.764178 12819 layer_factory.hpp:77] Creating layer conv10_2_mbox_loc_flat
I0903 21:18:25.764183 12819 net.cpp:100] Creating Layer conv10_2_mbox_loc_flat
I0903 21:18:25.764187 12819 net.cpp:434] conv10_2_mbox_loc_flat <- conv10_2_mbox_loc_perm
I0903 21:18:25.764194 12819 net.cpp:408] conv10_2_mbox_loc_flat -> conv10_2_mbox_loc_flat
I0903 21:18:25.764221 12819 net.cpp:150] Setting up conv10_2_mbox_loc_flat
I0903 21:18:25.764227 12819 net.cpp:157] Top shape: 16 24 (384)
I0903 21:18:25.764230 12819 net.cpp:165] Memory required for data: 2574461792
I0903 21:18:25.764233 12819 layer_factory.hpp:77] Creating layer conv10_2_mbox_conf
I0903 21:18:25.764241 12819 net.cpp:100] Creating Layer conv10_2_mbox_conf
I0903 21:18:25.764245 12819 net.cpp:434] conv10_2_mbox_conf <- conv10_2_conv10_2_relu_0_split_1
I0903 21:18:25.764252 12819 net.cpp:408] conv10_2_mbox_conf -> conv10_2_mbox_conf
I0903 21:18:25.766590 12819 net.cpp:150] Setting up conv10_2_mbox_conf
I0903 21:18:25.766602 12819 net.cpp:157] Top shape: 16 24 1 1 (384)
I0903 21:18:25.766604 12819 net.cpp:165] Memory required for data: 2574463328
I0903 21:18:25.766610 12819 layer_factory.hpp:77] Creating layer conv10_2_mbox_conf_perm
I0903 21:18:25.766618 12819 net.cpp:100] Creating Layer conv10_2_mbox_conf_perm
I0903 21:18:25.766623 12819 net.cpp:434] conv10_2_mbox_conf_perm <- conv10_2_mbox_conf
I0903 21:18:25.766629 12819 net.cpp:408] conv10_2_mbox_conf_perm -> conv10_2_mbox_conf_perm
I0903 21:18:25.766743 12819 net.cpp:150] Setting up conv10_2_mbox_conf_perm
I0903 21:18:25.766751 12819 net.cpp:157] Top shape: 16 1 1 24 (384)
I0903 21:18:25.766753 12819 net.cpp:165] Memory required for data: 2574464864
I0903 21:18:25.766757 12819 layer_factory.hpp:77] Creating layer conv10_2_mbox_conf_flat
I0903 21:18:25.766762 12819 net.cpp:100] Creating Layer conv10_2_mbox_conf_flat
I0903 21:18:25.766765 12819 net.cpp:434] conv10_2_mbox_conf_flat <- conv10_2_mbox_conf_perm
I0903 21:18:25.766772 12819 net.cpp:408] conv10_2_mbox_conf_flat -> conv10_2_mbox_conf_flat
I0903 21:18:25.766799 12819 net.cpp:150] Setting up conv10_2_mbox_conf_flat
I0903 21:18:25.766805 12819 net.cpp:157] Top shape: 16 24 (384)
I0903 21:18:25.766808 12819 net.cpp:165] Memory required for data: 2574466400
I0903 21:18:25.766811 12819 layer_factory.hpp:77] Creating layer conv10_2_mbox_priorbox
I0903 21:18:25.766816 12819 net.cpp:100] Creating Layer conv10_2_mbox_priorbox
I0903 21:18:25.766820 12819 net.cpp:434] conv10_2_mbox_priorbox <- conv10_2_conv10_2_relu_0_split_2
I0903 21:18:25.766826 12819 net.cpp:434] conv10_2_mbox_priorbox <- data_data_0_split_6
I0903 21:18:25.766834 12819 net.cpp:408] conv10_2_mbox_priorbox -> conv10_2_mbox_priorbox
I0903 21:18:25.766865 12819 net.cpp:150] Setting up conv10_2_mbox_priorbox
I0903 21:18:25.766871 12819 net.cpp:157] Top shape: 1 2 24 (48)
I0903 21:18:25.766875 12819 net.cpp:165] Memory required for data: 2574466592
I0903 21:18:25.766876 12819 layer_factory.hpp:77] Creating layer mbox_loc
I0903 21:18:25.766885 12819 net.cpp:100] Creating Layer mbox_loc
I0903 21:18:25.766888 12819 net.cpp:434] mbox_loc <- conv5_5/sep_mbox_loc_flat
I0903 21:18:25.766893 12819 net.cpp:434] mbox_loc <- conv6/sep_mbox_loc_flat
I0903 21:18:25.766898 12819 net.cpp:434] mbox_loc <- conv7_2_mbox_loc_flat
I0903 21:18:25.766902 12819 net.cpp:434] mbox_loc <- conv8_2_mbox_loc_flat
I0903 21:18:25.766916 12819 net.cpp:434] mbox_loc <- conv9_2_mbox_loc_flat
I0903 21:18:25.766921 12819 net.cpp:434] mbox_loc <- conv10_2_mbox_loc_flat
I0903 21:18:25.766928 12819 net.cpp:408] mbox_loc -> mbox_loc
I0903 21:18:25.766963 12819 net.cpp:150] Setting up mbox_loc
I0903 21:18:25.766969 12819 net.cpp:157] Top shape: 16 7668 (122688)
I0903 21:18:25.766973 12819 net.cpp:165] Memory required for data: 2574957344
I0903 21:18:25.766975 12819 layer_factory.hpp:77] Creating layer mbox_conf
I0903 21:18:25.766981 12819 net.cpp:100] Creating Layer mbox_conf
I0903 21:18:25.766985 12819 net.cpp:434] mbox_conf <- conv5_5/sep_mbox_conf_flat
I0903 21:18:25.766990 12819 net.cpp:434] mbox_conf <- conv6/sep_mbox_conf_flat
I0903 21:18:25.766994 12819 net.cpp:434] mbox_conf <- conv7_2_mbox_conf_flat
I0903 21:18:25.766999 12819 net.cpp:434] mbox_conf <- conv8_2_mbox_conf_flat
I0903 21:18:25.767004 12819 net.cpp:434] mbox_conf <- conv9_2_mbox_conf_flat
I0903 21:18:25.767007 12819 net.cpp:434] mbox_conf <- conv10_2_mbox_conf_flat
I0903 21:18:25.767012 12819 net.cpp:408] mbox_conf -> mbox_conf
I0903 21:18:25.767042 12819 net.cpp:150] Setting up mbox_conf
I0903 21:18:25.767047 12819 net.cpp:157] Top shape: 16 7668 (122688)
I0903 21:18:25.767051 12819 net.cpp:165] Memory required for data: 2575448096
I0903 21:18:25.767055 12819 layer_factory.hpp:77] Creating layer mbox_priorbox
I0903 21:18:25.767060 12819 net.cpp:100] Creating Layer mbox_priorbox
I0903 21:18:25.767065 12819 net.cpp:434] mbox_priorbox <- conv5_5/sep_mbox_priorbox
I0903 21:18:25.767068 12819 net.cpp:434] mbox_priorbox <- conv6/sep_mbox_priorbox
I0903 21:18:25.767073 12819 net.cpp:434] mbox_priorbox <- conv7_2_mbox_priorbox
I0903 21:18:25.767077 12819 net.cpp:434] mbox_priorbox <- conv8_2_mbox_priorbox
I0903 21:18:25.767081 12819 net.cpp:434] mbox_priorbox <- conv9_2_mbox_priorbox
I0903 21:18:25.767086 12819 net.cpp:434] mbox_priorbox <- conv10_2_mbox_priorbox
I0903 21:18:25.767091 12819 net.cpp:408] mbox_priorbox -> mbox_priorbox
I0903 21:18:25.767119 12819 net.cpp:150] Setting up mbox_priorbox
I0903 21:18:25.767125 12819 net.cpp:157] Top shape: 1 2 7668 (15336)
I0903 21:18:25.767128 12819 net.cpp:165] Memory required for data: 2575509440
I0903 21:18:25.767132 12819 layer_factory.hpp:77] Creating layer mbox_loss
I0903 21:18:25.767143 12819 net.cpp:100] Creating Layer mbox_loss
I0903 21:18:25.767146 12819 net.cpp:434] mbox_loss <- mbox_loc
I0903 21:18:25.767150 12819 net.cpp:434] mbox_loss <- mbox_conf
I0903 21:18:25.767155 12819 net.cpp:434] mbox_loss <- mbox_priorbox
…
layer {
  name: "data"
  type: "AnnotatedData"
  top: "data"
  top: "label"
  include {
    phase: TEST
  }
  transform_param {
    mean_value: 104
    mean_value: 117
    mean_value: 123
    resize_param {
      prob: 1
      resize_mode: WARP
      height: 300
      width: 300
      interp_mode: LINEAR
    }
  }
  data_param {
    source: "data/BodyFaceHandRegions/lmdb/oxford_test_lmdb"
    batch_size: 8
    backend: LMDB
  }
  annotated_data_param {
    batch_sampler {
    }
    label_map_file: "data/BodyFaceHandRegions/labelmap_voc.prototxt"
  }
}
layer {
  name: "conv1"
  type: "Convolution"
  bottom: "data"
  top: "conv1"
  param {
    lr_mult: 1
    decay_mult: 1
  }
  convolution_param {
    num_output: 32
    bias_term: false
    pad: 1
    kernel_size: 3
    group: 1
    stride: 2
    weight_filler {
      type: "gaussian"
      std: 0.01
    }
    engine: DEFAULT
  }
}
layer {
  name: "conv1/bn"
  type: "BatchNorm"
  bottom: "conv1"
  top: "conv1"
  batch_norm_param {
    moving_average_fraction: 0.999
    eps: 0.001
  }
}
layer {
  name: "conv1/scale"
  type: "Scale"
  bottom: "conv1"
  top: "conv1"
  param {
    lr_mult: 1
    decay_mult: 0
  }
  param {
    lr_mult: 1
    decay_mult: 0
  }
  scale_param {
    filler {
      type: "constant"
      value: 1
    }
    bias_term: true
    bias_filler {
      type: "constant"
      value: 0
    }
  }
}
layer {
  name: "conv1_relu"
  type: "ReLU"
  bottom: "conv1"
  top: "conv1"
}
layer {
  name: "conv2_1/dw"
  type: "Convolution"
  bottom: "conv1"
  top: "conv2_1/dw"
  param {
    lr_mult: 1
    decay_mult: 1
  }
  convolution_param {
    num_output: 32
    bias_term: false
    pad: 1
    kernel_size: 3
    group: 32
    stride: 1
    weight_filler {
      type: "gaussian"
      std: 0.01
    }
    engine: CAFFE
  }
}
layer {
  name: "conv2_1/dw/bn"
  type: "BatchNorm"
  bottom: "conv2_1/dw"
  top: "conv2_1/dw"
  batch_norm_param {
    moving_average_fraction: 0.999
    eps: 0.001
  }
}
layer {
  name: "conv2_1/dw/scale"
  type: "Scale"
  bottom: "conv2_1/dw"
  top: "conv2_1/dw"
  param {
    lr_mult: 1
    decay_mult: 0
  }
  param {
    lr_mult: 1
    decay_mult: 0
  }
  scale_param {
    filler {
      type: "constant"
      value: 1
    }
    bias_term: true
    bias_filler {
      type: "constant"
      value: 0
    }
  }
}
layer {
  name: "conv2_1/dw_relu"
  type: "ReLU"
  bottom: "conv2_1/dw"
  top: "conv2_1/dw"
}
layer {
  name: "conv2_1/sep"
  type: "Convolution"
  bottom: "conv2_1/dw"
  top: "conv2_1/sep"
  param {
    lr_mult: 1
    decay_mult: 1
  }
  convolution_param {
    num_output: 64
    bias_term: false
    pad: 0
    kernel_size: 1
    group: 1
    stride: 1
    weight_filler {
      type: "gaussian"
      std: 0.01
    }
    engine: DEFAULT
  }
}
layer {
  name: "conv2_1/sep/bn"
  type: "BatchNorm"
  bottom: "conv2_1/sep"
  top: "conv2_1/sep"
  batch_norm_param {
    moving_average_fraction: 0.999
    eps: 0.001
  }
}
layer {
  name: "conv2_1/sep/scale"
  type: "Scale"
  bottom: "conv2_1/sep"
  top: "conv2_1/sep"
  param {
    lr_mult: 1
    decay_mult: 0
  }
  param {
    lr_mult: 1
    decay_mult: 0
  }
  scale_param {
    filler {
      type: "constant"
      value: 1
    }
    bias_term: true
    bias_filler {
      type: "constant"
      value: 0
    }
  }
}
layer {
  name: "conv2_1/sep_relu"
  type: "ReLU"
  bottom: "conv2_1/sep"
  top: "conv2_1/sep"
}
layer {
  name: "conv2_2/dw"
  type: "Convolution"
  bottom: "conv2_1/sep"
  top: "conv2_2/dw"
  param {
    lr_mult: 1
    decay_mult: 1
  }
  convolution_param {
    num_output: 64
    bias_term: false
    pad: 1
    kernel_size: 3
    group: 64
    stride: 2
    weight_filler {
      type: "gaussian"
      std: 0.01
    }
    engine: CAFFE
  }
}
layer {
  name: "conv2_2/dw/bn"
  type: "BatchNorm"
  bottom: "conv2_2/dw"
  top: "conv2_2/dw"
  batch_norm_param {
    moving_average_fraction: 0.999
    eps: 0.001
  }
}
layer {
  name: "conv2_2/dw/scale"
  type: "Scale"
  bottom: "conv2_2/dw"
  top: "conv2_2/dw"
  param {
    lr_mult: 1
    decay_mult: 0
  }
  param {
    lr_mult: 1
    decay_mult: 0
  }
  scale_param {
    filler {
      type: "constant"
      value: 1
    }
    bias_term: true
    bias_filler {
      type: "constant"
      value: 0
    }
  }
}
layer {
  name: "conv2_2/dw_relu"
  type: "ReLU"
  bottom: "conv2_2/dw"
  top: "conv2_2/dw"
}
layer {
  name: "conv2_2/sep"
  type: "Convolution"
  bottom: "conv2_2/dw"
  top: "conv2_2/sep"
  param {
    lr_mult: 1
    decay_mult: 1
  }
  convolution_param {
    num_output: 128
    bias_term: false
    pad: 0
    kernel_size: 1
    group: 1
    stride: 1
    weight_filler {
      type: "gaussian"
      std: 0.01
    }
    engine: DEFAULT
  }
}
layer {
  name: "conv2_2/sep/bn"
  type: "BatchNorm"
  bottom: "conv2_2/sep"
  top: "conv2_2/sep"
  batch_norm_param {
    moving_average_fraction: 0.999
    eps: 0.001
  }
}
layer {
  name: "conv2_2/sep/scale"
  type: "Scale"
  bottom: "conv2_2/sep"
  top: "conv2_2/sep"
  param {
    lr_mult: 1
    decay_mult: 0
  }
  param {
    lr_mult: 1
    decay_mult: 0
  }
  scale_param {
    filler {
      type: "constant"
      value: 1
    }
    bias_term: true
    bias_filler {
      type: "constant"
      value: 0
    }
  }
}
layer {
  name: "conv2_2/sep_relu"
  type: "ReLU"
  bottom: "conv2_2/sep"
  top: "conv2_2/sep"
}
layer {
  name: "conv3_1/dw"
  type: "Convolution"
  bottom: "conv2_2/sep"
  top: "conv3_1/dw"
  param {
    lr_mult: 1
    decay_mult: 1
  }
  convolution_param {
    num_output: 128
    bias_term: false
    pad: 1
    kernel_size: 3
    group: 128
    stride: 1
    weight_filler {
      type: "gaussian"
      std: 0.01
    }
    engine: CAFFE
  }
}
layer {
  name: "conv3_1/dw/bn"
  type: "BatchNorm"
  bottom: "conv3_1/dw"
  top: "conv3_1/dw"
  batch_norm_param {
    moving_average_fraction: 0.999
    eps: 0.001
  }
}
layer {
  name: "conv3_1/dw/scale"
  type: "Scale"
  bottom: "conv3_1/dw"
  top: "conv3_1/dw"
  param {
    lr_mult: 1
    decay_mult: 0
  }
  param {
    lr_mult: 1
    decay_mult: 0
  }
  scale_param {
    filler {
      type: "constant"
      value: 1
    }
    bias_term: true
    bias_filler {
      type: "constant"
      value: 0
    }
  }
}
layer {
  name: "conv3_1/dw_relu"
  type: "ReLU"
  bottom: "conv3_1/dw"
  top: "conv3_1/dw"
}
layer {
  name: "conv3_1/sep"
  type: "Convolution"
  bottom: "conv3_1/dw"
  top: "conv3_1/sep"
  param {
    lr_mult: 1
    decay_mult: 1
  }
  convolution_param {
    num_output: 128
    bias_term: false
    pad: 0
    kernel_size: 1
    group: 1
    stride: 1
    weight_filler {
      type: "gaussian"
      std: 0.01
    }
    engine: DEFAULT
  }
}
layer {
  name: "conv3_1/sep/bn"
  type: "BatchNorm"
  bottom: "conv3_1/sep"
  top: "conv3_1/sep"
  batch_norm_param {
    moving_average_fraction: 0.999
    eps: 0.001
  }
}
layer {
  name: "conv3_1/sep/scale"
  type: "Scale"
  bottom: "conv3_1/sep"
  top: "conv3_1/sep"
  param {
    lr_mult: 1
    decay_mult: 0
  }
  param {
    lr_mult: 1
    decay_mult: 0
  }
  scale_param {
    filler {
      type: "constant"
      value: 1
    }
    bias_term: true
    bias_filler {
      type: "constant"
      value: 0
    }
  }
}
layer {
  name: "conv3_1/sep_relu"
  type: "ReLU"
  bottom: "conv3_1/sep"
  top: "conv3_1/sep"
}
layer {
  name: "conv3_2/dw"
  type: "Convolution"
  bottom: "conv3_1/sep"
  top: "conv3_2/dw"
  param {
    lr_mult: 1
    decay_mult: 1
  }
  convolution_param {
    num_output: 128
    bias_term: false
    pad: 1
    kernel_size: 3
    group: 128
    stride: 2
    weight_filler {
      type: "gaussian"
      std: 0.01
    }
    engine: CAFFE
  }
}
layer {
  name: "conv3_2/dw/bn"
  type: "BatchNorm"
  bottom: "conv3_2/dw"
  top: "conv3_2/dw"
  batch_norm_param {
    moving_average_fraction: 0.999
    eps: 0.001
  }
}
layer {
  name: "conv3_2/dw/scale"
  type: "Scale"
  bottom: "conv3_2/dw"
  top: "conv3_2/dw"
  param {
    lr_mult: 1
    decay_mult: 0
  }
  param {
    lr_mult: 1
    decay_mult: 0
  }
  scale_param {
    filler {
      type: "constant"
      value: 1
    }
    bias_term: true
    bias_filler {
      type: "constant"
      value: 0
    }
  }
}
layer {
  name: "conv3_2/dw_relu"
  type: "ReLU"
  bottom: "conv3_2/dw"
  top: "conv3_2/dw"
}
layer {
  name: "conv3_2/sep"
  type: "Convolution"
  bottom: "conv3_2/dw"
  top: "conv3_2/sep"
  param {
    lr_mult: 1
    decay_mult: 1
  }
  convolution_param {
    num_output: 256
    bias_term: false
    pad: 0
    kernel_size: 1
    group: 1
    stride: 1
    weight_filler {
      type: "gaussian"
      std: 0.01
    }
    engine: DEFAULT
  }
}
layer {
  name: "conv3_2/sep/bn"
  type: "BatchNorm"
  bottom: "conv3_2/sep"
  top: "conv3_2/sep"
  batch_norm_param {
    moving_average_fraction: 0.999
    eps: 0.001
  }
}
layer {
  name: "conv3_2/sep/scale"
  type: "Scale"
  bottom: "conv3_2/sep"
  top: "conv3_2/sep"
  param {
    lr_mult: 1
    decay_mult: 0
  }
  param {
    lr_mult: 1
    decay_mult: 0
  }
  scale_param {
    filler {
      type: "constant"
      value: 1
    }
    bias_term: true
    bias_filler {
      type: "constant"
      value: 0
    }
  }
}
layer {
  name: "conv3_2/sep_relu"
  type: "ReLU"
  bottom: "conv3_2/sep"
  top: "conv3_2/sep"
}
layer {
  name: "conv4_1/dw"
  type: "Convolution"
  bottom: "conv3_2/sep"
  top: "conv4_1/dw"
  param {
    lr_mult: 1
    decay_mult: 1
  }
  convolution_param {
    num_output: 256
    bias_term: false
    pad: 1
    kernel_size: 3
    group: 256
    stride: 1
    weight_filler {
      type: "gaussian"
      std: 0.01
    }
    engine: CAFFE
  }
}
layer {
  name: "conv4_1/dw/bn"
  type: "BatchNorm"
  bottom: "conv4_1/dw"
  top: "conv4_1/dw"
  batch_norm_param {
    moving_average_fraction: 0.999
    eps: 0.001
  }
}
layer {
  name: "conv4_1/dw/scale"
  type: "Scale"
  bottom: "conv4_1/dw"
  top: "conv4_1/dw"
  param {
    lr_mult: 1
    decay_mult: 0
  }
  param {
    lr_mult: 1
    decay_mult: 0
  }
  scale_param {
    filler {
      type: "constant"
      value: 1
    }
    bias_term: true
    bias_filler {
      type: "constant"
      value: 0
    }
  }
}
layer {
  name: "conv4_1/dw_relu"
  type: "ReLU"
  bottom: "conv4_1/dw"
  top: "conv4_1/dw"
}
layer {
  name: "conv4_1/sep"
  type: "Convolution"
  bottom: "conv4_1/dw"
  top: "conv4_1/sep"
  param {
    lr_mult: 1
    decay_mult: 1
  }
  convolution_param {
    num_output: 256
    bias_term: false
    pad: 0
    kernel_size: 1
    group: 1
    stride: 1
    weight_filler {
      type: "gaussian"
      std: 0.01
    }
    engine: DEFAULT
  }
}
layer {
  name: "conv4_1/sep/bn"
  type: "BatchNorm"
  bottom: "conv4_1/sep"
  top: "conv4_1/sep"
  batch_norm_param {
    moving_average_fraction: 0.999
    eps: 0.001
  }
}
layer {
  name: "conv4_1/sep/scale"
  type: "Scale"
  bottom: "conv4_1/sep"
  top: "conv4_1/sep"
  param {
    lr_mult: 1
    decay_mult: 0
  }
  param {
    lr_mult: 1
    decay_mult: 0
  }
  scale_param {
    filler {
      type: "constant"
      value: 1
    }
    bias_term: true
    bias_filler {
      type: "constant"
      value: 0
    }
  }
}
layer {
  name: "conv4_1/sep_relu"
  type: "ReLU"
  bottom: "conv4_1/sep"
  top: "conv4_1/sep"
}
layer {
  name: "conv4_2/dw"
  type: "Convolution"
  bottom: "conv4_1/sep"
  top: "conv4_2/dw"
  param {
    lr_mult: 1
    decay_mult: 1
  }
  convolution_param {
    num_output: 256
    bias_term: false
    pad: 1
    kernel_size: 3
    group: 256
    stride: 2
    weight_filler {
      type: "gaussian"
      std: 0.01
    }
    engine: CAFFE
  }
}
layer {
  name: "conv4_2/dw/bn"
  type: "BatchNorm"
  bottom: "conv4_2/dw"
  top: "conv4_2/dw"
  batch_norm_param {
    moving_average_fraction: 0.999
    eps: 0.001
  }
}
layer {
  name: "conv4_2/dw/scale"
  type: "Scale"
  bottom: "conv4_2/dw"
  top: "conv4_2/dw"
  param {
    lr_mult: 1
    decay_mult: 0
  }
  param {
    lr_mult: 1
    decay_mult: 0
  }
  scale_param {
    filler {
      type: "constant"
      value: 1
    }
    bias_term: true
    bias_filler {
      type: "constant"
      value: 0
    }
  }
}
layer {
  name: "conv4_2/dw_relu"
  type: "ReLU"
  bottom: "conv4_2/dw"
  top: "conv4_2/dw"
}
layer {
  name: "conv4_2/sep"
  type: "Convolution"
  bottom: "conv4_2/dw"
  top: "conv4_2/sep"
  param {
    lr_mult: 1
    decay_mult: 1
  }
  convolution_param {
    num_output: 512
    bias_term: false
    pad: 0
    kernel_size: 1
    group: 1
    stride: 1
    weight_filler {
      type: "gaussian"
      std: 0.01
    }
    engine: DEFAULT
  }
}
layer {
  name: "conv4_2/sep/bn"
  type: "BatchNorm"
  bottom: "conv4_2/sep"
  top: "conv4_2/sep"
  batch_norm_param {
    moving_average_fraction: 0.999
    eps: 0.001
  }
}
layer {
  name: "conv4_2/sep/scale"
  type: "Scale"
  bottom: "conv4_2/sep"
  top: "conv4_2/sep"
  param {
    lr_mult: 1
    decay_mult: 0
  }
  param {
    lr_mult: 1
    decay_mult: 0
  }
  scale_param {
    filler {
      type: "constant"
      value: 1
    }
    bias_term: true
    bias_filler {
      type: "constant"
      value: 0
    }
  }
}
layer {
  name: "conv4_2/sep_relu"
  type: "ReLU"
  bottom: "conv4_2/sep"
  top: "conv4_2/sep"
}
layer {
  name: "conv5_1/dw"
  type: "Convolution"
  bottom: "conv4_2/sep"
  top: "conv5_1/dw"
  param {
    lr_mult: 1
    decay_mult: 1
  }
  convolution_param {
    num_output: 512
    bias_term: false
    pad: 1
    kernel_size: 3
    group: 512
    stride: 1
    weight_filler {
      type: "gaussian"
      std: 0.01
    }
    engine: CAFFE
  }
}
layer {
  name: "conv5_1/dw/bn"
  type: "BatchNorm"
  bottom: "conv5_1/dw"
  top: "conv5_1/dw"
  batch_norm_param {
    moving_average_fraction: 0.999
    eps: 0.001
  }
}
layer {
  name: "conv5_1/dw/scale"
  type: "Scale"
  bottom: "conv5_1/dw"
  top: "conv5_1/dw"
  param {
    lr_mult: 1
    decay_mult: 0
  }
  param {
    lr_mult: 1
    decay_mult: 0
  }
  scale_param {
    filler {
      type: "constant"
      value: 1
    }
    bias_term: true
    bias_filler {
      type: "constant"
      value: 0
    }
  }
}
layer {
  name: "conv5_1/dw_relu"
  type: "ReLU"
  bottom: "conv5_1/dw"
  top: "conv5_1/dw"
}
layer {
  name: "conv5_1/sep"
  type: "Convolution"
  bottom: "conv5_1/dw"
  top: "conv5_1/sep"
  param {
    lr_mult: 1
    decay_mult: 1
  }
  convolution_param {
    num_output: 512
    bias_term: false
    pad: 0
    kernel_size: 1
    group: 1
    stride: 1
    weight_filler {
      type: "gaussian"
      std: 0.01
    }
    engine: DEFAULT
  }
}
layer {
  name: "conv5_1/sep/bn"
  type: "BatchNorm"
  bottom: "conv5_1/sep"
  top: "conv5_1/sep"
  batch_norm_param {
    moving_average_fraction: 0.999
    eps: 0.001
  }
}
layer {
  name: "conv5_1/sep/scale"
  type: "Scale"
  bottom: "conv5_1/sep"
  top: "conv5_1/sep"
  param {
    lr_mult: 1
    decay_mult: 0
  }
  param {
    lr_mult: 1
    decay_mult: 0
  }
  scale_param {
    filler {
      type: "constant"
      value: 1
    }
    bias_term: true
    bias_filler {
      type: "constant"
      value: 0
    }
  }
}
layer {
  name: "conv5_1/sep_relu"
  type: "ReLU"
  bottom: "conv5_1/sep"
  top: "conv5_1/sep"
}
layer {
  name: "conv5_2/dw"
  type: "Convolution"
  bottom: "conv5_1/sep"
  top: "conv5_2/dw"
  param {
    lr_mult: 1
    decay_mult: 1
  }
  convolution_param {
    num_output: 512
    bias_term: false
    pad: 1
    kernel_size: 3
    group: 512
    stride: 1
    weight_filler {
      type: "gaussian"
      std: 0.01
    }
    engine: CAFFE
  }
}
layer {
  name: "conv5_2/dw/bn"
  type: "BatchNorm"
  bottom: "conv5_2/dw"
  top: "conv5_2/dw"
  batch_norm_param {
    moving_average_fraction: 0.999
    eps: 0.001
  }
}
layer {
  name: "conv5_2/dw/scale"
  type: "Scale"
  bottom: "conv5_2/dw"
  top: "conv5_2/dw"
  param {
    lr_mult: 1
    decay_mult: 0
  }
  param {
    lr_mult: 1
    decay_mult: 0
  }
  scale_param {
    filler {
      type: "constant"
      value: 1
    }
    bias_term: true
    bias_filler {
      type: "constant"
      value: 0
    }
  }
}
layer {
  name: "conv5_2/dw_relu"
  type: "ReLU"
  bottom: "conv5_2/dw"
  top: "conv5_2/dw"
}
layer {
  name: "conv5_2/sep"
  type: "Convolution"
  bottom: "conv5_2/dw"
  top: "conv5_2/sep"
  param {
    lr_mult: 1
    decay_mult: 1
  }
  convolution_param {
    num_output: 512
    bias_term: false
    pad: 0
    kernel_size: 1
    group: 1
    stride: 1
    weight_filler {
      type: "gaussian"
      std: 0.01
    }
    engine: DEFAULT
  }
}
layer {
  name: "conv5_2/sep/bn"
  type: "BatchNorm"
  bottom: "conv5_2/sep"
  top: "conv5_2/sep"
  batch_norm_param {
    moving_average_fraction: 0.999
    eps: 0.001
  }
}
layer {
  name: "conv5_2/sep/scale"
  type: "Scale"
  bottom: "conv5_2/sep"
  top: "conv5_2/sep"
  param {
    lr_mult: 1
    decay_mult: 0
  }
  param {
    lr_mult: 1
    decay_mult: 0
  }
  scale_param {
    filler {
      type: "constant"
      value: 1
    }
    bias_term: true
    bias_filler {
      type: "constant"
      value: 0
    }
  }
}
layer {
  name: "conv5_2/sep_relu"
  type: "ReLU"
  bottom: "conv5_2/sep"
  top: "conv5_2/sep"
}
layer {
  name: "conv5_3/dw"
  type: "Convolution"
  bottom: "conv5_2/sep"
  top: "conv5_3/dw"
  param {
    lr_mult: 1
    decay_mult: 1
  }
  convolution_param {
    num_output: 512
    bias_term: false
    pad: 1
    kernel_size: 3
    group: 512
    stride: 1
    weight_filler {
      type: "gaussian"
      std: 0.01
    }
    engine: CAFFE
  }
}
layer {
  name: "conv5_3/dw/bn"
  type: "BatchNorm"
  bottom: "conv5_3/dw"
  top: "conv5_3/dw"
  batch_norm_param {
    moving_average_fraction: 0.999
    eps: 0.001
  }
}
layer {
  name: "conv5_3/dw/scale"
  type: "Scale"
  bottom: "conv5_3/dw"
  top: "conv5_3/dw"
  param {
    lr_mult: 1
    decay_mult: 0
  }
  param {
    lr_mult: 1
    decay_mult: 0
  }
  scale_param {
    filler {
      type: "constant"
      value: 1
    }
    bias_term: true
    bias_filler {
      type: "constant"
      value: 0
    }
  }
}
layer {
  name: "conv5_3/dw_relu"
  type: "ReLU"
  bottom: "conv5_3/dw"
  top: "conv5_3/dw"
}
layer {
  name: "conv5_3/sep"
  type: "Convolution"
  bottom: "conv5_3/dw"
  top: "conv5_3/sep"
  param {
    lr_mult: 1
    decay_mult: 1
  }
  convolution_param {
    num_output: 512
    bias_term: false
    pad: 0
    kernel_size: 1
    group: 1
    stride: 1
    weight_filler {
      type: "gaussian"
      std: 0.01
    }
    engine: DEFAULT
  }
}
layer {
  name: "conv5_3/sep/bn"
  type: "BatchNorm"
  bottom: "conv5_3/sep"
  top: "conv5_3/sep"
  batch_norm_param {
    moving_average_fraction: 0.999
    eps: 0.001
  }
}
layer {
  name: "conv5_3/sep/scale"
  type: "Scale"
  bottom: "conv5_3/sep"
  top: "conv5_3/sep"
  param {
    lr_mult: 1
    decay_mult: 0
  }
  param {
    lr_mult: 1
    decay_mult: 0
  }
  scale_param {
    filler {
      type: "constant"
      value: 1
    }
    bias_term: true
    bias_filler {
      type: "constant"
      value: 0
    }
  }
}
layer {
  name: "conv5_3/sep_relu"
  type: "ReLU"
  bottom: "conv5_3/sep"
  top: "conv5_3/sep"
}
layer {
  name: "conv5_4/dw"
  type: "Convolution"
  bottom: "conv5_3/sep"
  top: "conv5_4/dw"
  param {
    lr_mult: 1
    decay_mult: 1
  }
  convolution_param {
    num_output: 512
    bias_term: false
    pad: 1
    kernel_size: 3
    group: 512
    stride: 1
    weight_filler {
      type: "gaussian"
      std: 0.01
    }
    engine: CAFFE
  }
}
layer {
  name: "conv5_4/dw/bn"
  type: "BatchNorm"
  bottom: "conv5_4/dw"
  top: "conv5_4/dw"
  batch_norm_param {
    moving_average_fraction: 0.999
    eps: 0.001
  }
}
layer {
  name: "conv5_4/dw/scale"
  type: "Scale"
  bottom: "conv5_4/dw"
  top: "conv5_4/dw"
  param {
    lr_mult: 1
    decay_mult: 0
  }
  param {
    lr_mult: 1
    decay_mult: 0
  }
  scale_param {
    filler {
      type: "constant"
      value: 1
    }
    bias_term: true
    bias_filler {
      type: "constant"
      value: 0
    }
  }
}
layer {
  name: "conv5_4/dw_relu"
  type: "ReLU"
  bottom: "conv5_4/dw"
…
I0903 21:18:25.863582 12819 net.cpp:150] Setting up conv5_6/dw_relu
I0903 21:18:25.863595 12819 net.cpp:157] Top shape: 8 512 10 10 (409600)
I0903 21:18:25.863597 12819 net.cpp:165] Memory required for data: 1228214528
I0903 21:18:25.863601 12819 layer_factory.hpp:77] Creating layer conv5_6/sep
I0903 21:18:25.863610 12819 net.cpp:100] Creating Layer conv5_6/sep
I0903 21:18:25.863615 12819 net.cpp:434] conv5_6/sep <- conv5_6/dw
I0903 21:18:25.863620 12819 net.cpp:408] conv5_6/sep -> conv5_6/sep
I0903 21:18:25.869552 12819 net.cpp:150] Setting up conv5_6/sep
I0903 21:18:25.869565 12819 net.cpp:157] Top shape: 8 1024 10 10 (819200)
I0903 21:18:25.869570 12819 net.cpp:165] Memory required for data: 1231491328
I0903 21:18:25.869575 12819 layer_factory.hpp:77] Creating layer conv5_6/sep/bn
I0903 21:18:25.869581 12819 net.cpp:100] Creating Layer conv5_6/sep/bn
I0903 21:18:25.869585 12819 net.cpp:434] conv5_6/sep/bn <- conv5_6/sep
I0903 21:18:25.869591 12819 net.cpp:395] conv5_6/sep/bn -> conv5_6/sep (in-place)
I0903 21:18:25.869771 12819 net.cpp:150] Setting up conv5_6/sep/bn
I0903 21:18:25.869776 12819 net.cpp:157] Top shape: 8 1024 10 10 (819200)
I0903 21:18:25.869781 12819 net.cpp:165] Memory required for data: 1234768128
I0903 21:18:25.869786 12819 layer_factory.hpp:77] Creating layer conv5_6/sep/scale
I0903 21:18:25.869793 12819 net.cpp:100] Creating Layer conv5_6/sep/scale
I0903 21:18:25.869797 12819 net.cpp:434] conv5_6/sep/scale <- conv5_6/sep
I0903 21:18:25.869802 12819 net.cpp:395] conv5_6/sep/scale -> conv5_6/sep (in-place)
I0903 21:18:25.869848 12819 layer_factory.hpp:77] Creating layer conv5_6/sep/scale
I0903 21:18:25.869954 12819 net.cpp:150] Setting up conv5_6/sep/scale
I0903 21:18:25.869961 12819 net.cpp:157] Top shape: 8 1024 10 10 (819200)
I0903 21:18:25.869963 12819 net.cpp:165] Memory required for data: 1238044928
I0903 21:18:25.869969 12819 layer_factory.hpp:77] Creating layer conv5_6/sep_relu
I0903 21:18:25.869976 12819 net.cpp:100] Creating Layer conv5_6/sep_relu
I0903 21:18:25.869978 12819 net.cpp:434] conv5_6/sep_relu <- conv5_6/sep
I0903 21:18:25.869983 12819 net.cpp:395] conv5_6/sep_relu -> conv5_6/sep (in-place)
I0903 21:18:25.870617 12819 net.cpp:150] Setting up conv5_6/sep_relu
I0903 21:18:25.870628 12819 net.cpp:157] Top shape: 8 1024 10 10 (819200)
I0903 21:18:25.870632 12819 net.cpp:165] Memory required for data: 1241321728
I0903 21:18:25.870636 12819 layer_factory.hpp:77] Creating layer conv6/dw
I0903 21:18:25.870645 12819 net.cpp:100] Creating Layer conv6/dw
I0903 21:18:25.870648 12819 net.cpp:434] conv6/dw <- conv5_6/sep
I0903 21:18:25.870666 12819 net.cpp:408] conv6/dw -> conv6/dw
I0903 21:18:25.870916 12819 net.cpp:150] Setting up conv6/dw
I0903 21:18:25.870924 12819 net.cpp:157] Top shape: 8 1024 10 10 (819200)
I0903 21:18:25.870928 12819 net.cpp:165] Memory required for data: 1244598528
I0903 21:18:25.870934 12819 layer_factory.hpp:77] Creating layer conv6/dw/bn
I0903 21:18:25.870939 12819 net.cpp:100] Creating Layer conv6/dw/bn
I0903 21:18:25.870942 12819 net.cpp:434] conv6/dw/bn <- conv6/dw
I0903 21:18:25.870947 12819 net.cpp:395] conv6/dw/bn -> conv6/dw (in-place)
I0903 21:18:25.871117 12819 net.cpp:150] Setting up conv6/dw/bn
I0903 21:18:25.871124 12819 net.cpp:157] Top shape: 8 1024 10 10 (819200)
I0903 21:18:25.871126 12819 net.cpp:165] Memory required for data: 1247875328
I0903 21:18:25.871134 12819 layer_factory.hpp:77] Creating layer conv6/dw/scale
I0903 21:18:25.871140 12819 net.cpp:100] Creating Layer conv6/dw/scale
I0903 21:18:25.871142 12819 net.cpp:434] conv6/dw/scale <- conv6/dw
I0903 21:18:25.871147 12819 net.cpp:395] conv6/dw/scale -> conv6/dw (in-place)
I0903 21:18:25.871193 12819 layer_factory.hpp:77] Creating layer conv6/dw/scale
I0903 21:18:25.871295 12819 net.cpp:150] Setting up conv6/dw/scale
I0903 21:18:25.871304 12819 net.cpp:157] Top shape: 8 1024 10 10 (819200)
I0903 21:18:25.871306 12819 net.cpp:165] Memory required for data: 1251152128
I0903 21:18:25.871312 12819 layer_factory.hpp:77] Creating layer conv6/dw_relu
I0903 21:18:25.871317 12819 net.cpp:100] Creating Layer conv6/dw_relu
I0903 21:18:25.871320 12819 net.cpp:434] conv6/dw_relu <- conv6/dw
I0903 21:18:25.871325 12819 net.cpp:395] conv6/dw_relu -> conv6/dw (in-place)
I0903 21:18:25.871500 12819 net.cpp:150] Setting up conv6/dw_relu
I0903 21:18:25.871510 12819 net.cpp:157] Top shape: 8 1024 10 10 (819200)
I0903 21:18:25.871512 12819 net.cpp:165] Memory required for data: 1254428928
I0903 21:18:25.871516 12819 layer_factory.hpp:77] Creating layer conv6/sep
I0903 21:18:25.871525 12819 net.cpp:100] Creating Layer conv6/sep
I0903 21:18:25.871528 12819 net.cpp:434] conv6/sep <- conv6/dw
I0903 21:18:25.871536 12819 net.cpp:408] conv6/sep -> conv6/sep
I0903 21:18:25.882601 12819 net.cpp:150] Setting up conv6/sep
I0903 21:18:25.882616 12819 net.cpp:157] Top shape: 8 1024 10 10 (819200)
I0903 21:18:25.882619 12819 net.cpp:165] Memory required for data: 1257705728
I0903 21:18:25.882627 12819 layer_factory.hpp:77] Creating layer conv6/sep/bn
I0903 21:18:25.882633 12819 net.cpp:100] Creating Layer conv6/sep/bn
I0903 21:18:25.882638 12819 net.cpp:434] conv6/sep/bn <- conv6/sep
I0903 21:18:25.882643 12819 net.cpp:395] conv6/sep/bn -> conv6/sep (in-place)
I0903 21:18:25.882827 12819 net.cpp:150] Setting up conv6/sep/bn
I0903 21:18:25.882834 12819 net.cpp:157] Top shape: 8 1024 10 10 (819200)
I0903 21:18:25.882838 12819 net.cpp:165] Memory required for data: 1260982528
I0903 21:18:25.882844 12819 layer_factory.hpp:77] Creating layer conv6/sep/scale
I0903 21:18:25.882850 12819 net.cpp:100] Creating Layer conv6/sep/scale
I0903 21:18:25.882854 12819 net.cpp:434] conv6/sep/scale <- conv6/sep
I0903 21:18:25.882859 12819 net.cpp:395] conv6/sep/scale -> conv6/sep (in-place)
I0903 21:18:25.882910 12819 layer_factory.hpp:77] Creating layer conv6/sep/scale
I0903 21:18:25.883016 12819 net.cpp:150] Setting up conv6/sep/scale
I0903 21:18:25.883023 12819 net.cpp:157] Top shape: 8 1024 10 10 (819200)
I0903 21:18:25.883026 12819 net.cpp:165] Memory required for data: 1264259328
I0903 21:18:25.883033 12819 layer_factory.hpp:77] Creating layer conv6/sep_relu
I0903 21:18:25.883038 12819 net.cpp:100] Creating Layer conv6/sep_relu
I0903 21:18:25.883041 12819 net.cpp:434] conv6/sep_relu <- conv6/sep
I0903 21:18:25.883046 12819 net.cpp:395] conv6/sep_relu -> conv6/sep (in-place)
I0903 21:18:25.883677 12819 net.cpp:150] Setting up conv6/sep_relu
I0903 21:18:25.883687 12819 net.cpp:157] Top shape: 8 1024 10 10 (819200)
I0903 21:18:25.883690 12819 net.cpp:165] Memory required for data: 1267536128
I0903 21:18:25.883694 12819 layer_factory.hpp:77] Creating layer conv6/sep_conv6/sep_relu_0_split
I0903 21:18:25.883715 12819 net.cpp:100] Creating Layer conv6/sep_conv6/sep_relu_0_split
I0903 21:18:25.883719 12819 net.cpp:434] conv6/sep_conv6/sep_relu_0_split <- conv6/sep
I0903 21:18:25.883726 12819 net.cpp:408] conv6/sep_conv6/sep_relu_0_split -> conv6/sep_conv6/sep_relu_0_split_0
I0903 21:18:25.883733 12819 net.cpp:408] conv6/sep_conv6/sep_relu_0_split -> conv6/sep_conv6/sep_relu_0_split_1
I0903 21:18:25.883739 12819 net.cpp:408] conv6/sep_conv6/sep_relu_0_split -> conv6/sep_conv6/sep_relu_0_split_2
I0903 21:18:25.883744 12819 net.cpp:408] conv6/sep_conv6/sep_relu_0_split -> conv6/sep_conv6/sep_relu_0_split_3
I0903 21:18:25.883805 12819 net.cpp:150] Setting up conv6/sep_conv6/sep_relu_0_split
I0903 21:18:25.883810 12819 net.cpp:157] Top shape: 8 1024 10 10 (819200)
I0903 21:18:25.883815 12819 net.cpp:157] Top shape: 8 1024 10 10 (819200)
I0903 21:18:25.883818 12819 net.cpp:157] Top shape: 8 1024 10 10 (819200)
I0903 21:18:25.883821 12819 net.cpp:157] Top shape: 8 1024 10 10 (819200)
I0903 21:18:25.883824 12819 net.cpp:165] Memory required for data: 1280643328
I0903 21:18:25.883827 12819 layer_factory.hpp:77] Creating layer conv7_1
I0903 21:18:26.066743 12819 net.cpp:100] Creating Layer conv7_1
I0903 21:18:26.066768 12819 net.cpp:434] conv7_1 <- conv6/sep_conv6/sep_relu_0_split_0
I0903 21:18:26.066789 12819 net.cpp:408] conv7_1 -> conv7_1
I0903 21:18:26.075173 12819 net.cpp:150] Setting up conv7_1
I0903 21:18:26.075204 12819 net.cpp:157] Top shape: 8 256 10 10 (204800)
I0903 21:18:26.075211 12819 net.cpp:165] Memory required for data: 1281462528
I0903 21:18:26.075225 12819 layer_factory.hpp:77] Creating layer conv7_1_relu
I0903 21:18:26.075239 12819 net.cpp:100] Creating Layer conv7_1_relu
I0903 21:18:26.075249 12819 net.cpp:434] conv7_1_relu <- conv7_1
I0903 21:18:26.075263 12819 net.cpp:395] conv7_1_relu -> conv7_1 (in-place)
I0903 21:18:26.075685 12819 net.cpp:150] Setting up conv7_1_relu
I0903 21:18:26.075706 12819 net.cpp:157] Top shape: 8 256 10 10 (204800)
I0903 21:18:26.075711 12819 net.cpp:165] Memory required for data: 1282281728
I0903 21:18:26.075717 12819 layer_factory.hpp:77] Creating layer conv7_2
I0903 21:18:26.075734 12819 net.cpp:100] Creating Layer conv7_2
I0903 21:18:26.075743 12819 net.cpp:434] conv7_2 <- conv7_1
I0903 21:18:26.075759 12819 net.cpp:408] conv7_2 -> conv7_2
I0903 21:18:26.094874 12819 net.cpp:150] Setting up conv7_2
I0903 21:18:26.094899 12819 net.cpp:157] Top shape: 8 512 5 5 (102400)
I0903 21:18:26.094905 12819 net.cpp:165] Memory required for data: 1282691328
I0903 21:18:26.094918 12819 layer_factory.hpp:77] Creating layer conv7_2_relu
I0903 21:18:26.094931 12819 net.cpp:100] Creating Layer conv7_2_relu
I0903 21:18:26.094940 12819 net.cpp:434] conv7_2_relu <- conv7_2
I0903 21:18:26.094950 12819 net.cpp:395] conv7_2_relu -> conv7_2 (in-place)
I0903 21:18:26.095310 12819 net.cpp:150] Setting up conv7_2_relu
I0903 21:18:26.095327 12819 net.cpp:157] Top shape: 8 512 5 5 (102400)
I0903 21:18:26.095333 12819 net.cpp:165] Memory required for data: 1283100928
I0903 21:18:26.095340 12819 layer_factory.hpp:77] Creating layer conv7_2_conv7_2_relu_0_split
I0903 21:18:26.095355 12819 net.cpp:100] Creating Layer conv7_2_conv7_2_relu_0_split
I0903 21:18:26.095365 12819 net.cpp:434] conv7_2_conv7_2_relu_0_split <- conv7_2
I0903 21:18:26.095383 12819 net.cpp:408] conv7_2_conv7_2_relu_0_split -> conv7_2_conv7_2_relu_0_split_0
I0903 21:18:26.095405 12819 net.cpp:408] conv7_2_conv7_2_relu_0_split -> conv7_2_conv7_2_relu_0_split_1
I0903 21:18:26.095423 12819 net.cpp:408] conv7_2_conv7_2_relu_0_split -> conv7_2_conv7_2_relu_0_split_2
I0903 21:18:26.095448 12819 net.cpp:408] conv7_2_conv7_2_relu_0_split -> conv7_2_conv7_2_relu_0_split_3
I0903 21:18:26.095580 12819 net.cpp:150] Setting up conv7_2_conv7_2_relu_0_split
I0903 21:18:26.095592 12819 net.cpp:157] Top shape: 8 512 5 5 (102400)
I0903 21:18:26.095600 12819 net.cpp:157] Top shape: 8 512 5 5 (102400)
I0903 21:18:26.095608 12819 net.cpp:157] Top shape: 8 512 5 5 (102400)
I0903 21:18:26.095616 12819 net.cpp:157] Top shape: 8 512 5 5 (102400)
I0903 21:18:26.095649 12819 net.cpp:165] Memory required for data: 1284739328
I0903 21:18:26.095656 12819 layer_factory.hpp:77] Creating layer conv8_1
I0903 21:18:26.095672 12819 net.cpp:100] Creating Layer conv8_1
I0903 21:18:26.095680 12819 net.cpp:434] conv8_1 <- conv7_2_conv7_2_relu_0_split_0
I0903 21:18:26.095693 12819 net.cpp:408] conv8_1 -> conv8_1
I0903 21:18:26.100720 12819 net.cpp:150] Setting up conv8_1
I0903 21:18:26.100744 12819 net.cpp:157] Top shape: 8 128 5 5 (25600)
I0903 21:18:26.100751 12819 net.cpp:165] Memory required for data: 1284841728
I0903 21:18:26.100764 12819 layer_factory.hpp:77] Creating layer conv8_1_relu
I0903 21:18:26.100780 12819 net.cpp:100] Creating Layer conv8_1_relu
I0903 21:18:26.100787 12819 net.cpp:434] conv8_1_relu <- conv8_1
I0903 21:18:26.100800 12819 net.cpp:395] conv8_1_relu -> conv8_1 (in-place)
I0903 21:18:26.102113 12819 net.cpp:150] Setting up conv8_1_relu
I0903 21:18:26.102135 12819 net.cpp:157] Top shape: 8 128 5 5 (25600)
I0903 21:18:26.102141 12819 net.cpp:165] Memory required for data: 1284944128
I0903 21:18:26.102149 12819 layer_factory.hpp:77] Creating layer conv8_2
I0903 21:18:26.102169 12819 net.cpp:100] Creating Layer conv8_2
I0903 21:18:26.102176 12819 net.cpp:434] conv8_2 <- conv8_1
I0903 21:18:26.102190 12819 net.cpp:408] conv8_2 -> conv8_2
I0903 21:18:26.109325 12819 net.cpp:150] Setting up conv8_2
I0903 21:18:26.109347 12819 net.cpp:157] Top shape: 8 256 3 3 (18432)
I0903 21:18:26.109354 12819 net.cpp:165] Memory required for data: 1285017856
I0903 21:18:26.109366 12819 layer_factory.hpp:77] Creating layer conv8_2_relu
I0903 21:18:26.109380 12819 net.cpp:100] Creating Layer conv8_2_relu
I0903 21:18:26.109387 12819 net.cpp:434] conv8_2_relu <- conv8_2
I0903 21:18:26.109397 12819 net.cpp:395] conv8_2_relu -> conv8_2 (in-place)
I0903 21:18:26.109752 12819 net.cpp:150] Setting up conv8_2_relu
I0903 21:18:26.109767 12819 net.cpp:157] Top shape: 8 256 3 3 (18432)
I0903 21:18:26.109773 12819 net.cpp:165] Memory required for data: 1285091584
I0903 21:18:26.109781 12819 layer_factory.hpp:77] Creating layer conv8_2_conv8_2_relu_0_split
I0903 21:18:26.109791 12819 net.cpp:100] Creating Layer conv8_2_conv8_2_relu_0_split
I0903 21:18:26.109798 12819 net.cpp:434] conv8_2_conv8_2_relu_0_split <- conv8_2
I0903 21:18:26.109810 12819 net.cpp:408] conv8_2_conv8_2_relu_0_split -> conv8_2_conv8_2_relu_0_split_0
I0903 21:18:26.109824 12819 net.cpp:408] conv8_2_conv8_2_relu_0_split -> conv8_2_conv8_2_relu_0_split_1
I0903 21:18:26.109836 12819 net.cpp:408] conv8_2_conv8_2_relu_0_split -> conv8_2_conv8_2_relu_0_split_2
I0903 21:18:26.109848 12819 net.cpp:408] conv8_2_conv8_2_relu_0_split -> conv8_2_conv8_2_relu_0_split_3
I0903 21:18:26.109964 12819 net.cpp:150] Setting up conv8_2_conv8_2_relu_0_split
I0903 21:18:26.109974 12819 net.cpp:157] Top shape: 8 256 3 3 (18432)
I0903 21:18:26.109982 12819 net.cpp:157] Top shape: 8 256 3 3 (18432)
I0903 21:18:26.109989 12819 net.cpp:157] Top shape: 8 256 3 3 (18432)
I0903 21:18:26.109997 12819 net.cpp:157] Top shape: 8 256 3 3 (18432)
I0903 21:18:26.110002 12819 net.cpp:165] Memory required for data: 1285386496
I0903 21:18:26.110008 12819 layer_factory.hpp:77] Creating layer conv9_1
I0903 21:18:26.110024 12819 net.cpp:100] Creating Layer conv9_1
I0903 21:18:26.110031 12819 net.cpp:434] conv9_1 <- conv8_2_conv8_2_relu_0_split_0
I0903 21:18:26.110046 12819 net.cpp:408] conv9_1 -> conv9_1
I0903 21:18:26.114409 12819 net.cpp:150] Setting up conv9_1
I0903 21:18:26.114433 12819 net.cpp:157] Top shape: 8 128 3 3 (9216)
I0903 21:18:26.114439 12819 net.cpp:165] Memory required for data: 1285423360
I0903 21:18:26.114450 12819 layer_factory.hpp:77] Creating layer conv9_1_relu
I0903 21:18:26.114461 12819 net.cpp:100] Creating Layer conv9_1_relu
I0903 21:18:26.114470 12819 net.cpp:434] conv9_1_relu <- conv9_1
I0903 21:18:26.114481 12819 net.cpp:395] conv9_1_relu -> conv9_1 (in-place)
I0903 21:18:26.114832 12819 net.cpp:150] Setting up conv9_1_relu
I0903 21:18:26.114850 12819 net.cpp:157] Top shape: 8 128 3 3 (9216)
I0903 21:18:26.114873 12819 net.cpp:165] Memory required for data: 1285460224
I0903 21:18:26.114881 12819 layer_factory.hpp:77] Creating layer conv9_2
I0903 21:18:26.114900 12819 net.cpp:100] Creating Layer conv9_2
I0903 21:18:26.114908 12819 net.cpp:434] conv9_2 <- conv9_1
I0903 21:18:26.114919 12819 net.cpp:408] conv9_2 -> conv9_2
I0903 21:18:26.121842 12819 net.cpp:150] Setting up conv9_2
I0903 21:18:26.121868 12819 net.cpp:157] Top shape: 8 256 2 2 (8192)
I0903 21:18:26.121876 12819 net.cpp:165] Memory required for data: 1285492992
I0903 21:18:26.121886 12819 layer_factory.hpp:77] Creating layer conv9_2_relu
I0903 21:18:26.121898 12819 net.cpp:100] Creating Layer conv9_2_relu
I0903 21:18:26.121906 12819 net.cpp:434] conv9_2_relu <- conv9_2
I0903 21:18:26.121915 12819 net.cpp:395] conv9_2_relu -> conv9_2 (in-place)
I0903 21:18:26.123100 12819 net.cpp:150] Setting up conv9_2_relu
I0903 21:18:26.123119 12819 net.cpp:157] Top shape: 8 256 2 2 (8192)
I0903 21:18:26.123126 12819 net.cpp:165] Memory required for data: 1285525760
I0903 21:18:26.123132 12819 layer_factory.hpp:77] Creating layer conv9_2_conv9_2_relu_0_split
I0903 21:18:26.123143 12819 net.cpp:100] Creating Layer conv9_2_conv9_2_relu_0_split
I0903 21:18:26.123153 12819 net.cpp:434] conv9_2_conv9_2_relu_0_split <- conv9_2
I0903 21:18:26.123164 12819 net.cpp:408] conv9_2_conv9_2_relu_0_split -> conv9_2_conv9_2_relu_0_split_0
I0903 21:18:26.123178 12819 net.cpp:408] conv9_2_conv9_2_relu_0_split -> conv9_2_conv9_2_relu_0_split_1
I0903 21:18:26.123190 12819 net.cpp:408] conv9_2_conv9_2_relu_0_split -> conv9_2_conv9_2_relu_0_split_2
I0903 21:18:26.123201 12819 net.cpp:408] conv9_2_conv9_2_relu_0_split -> conv9_2_conv9_2_relu_0_split_3
I0903 21:18:26.123320 12819 net.cpp:150] Setting up conv9_2_conv9_2_relu_0_split
I0903 21:18:26.123332 12819 net.cpp:157] Top shape: 8 256 2 2 (8192)
I0903 21:18:26.123338 12819 net.cpp:157] Top shape: 8 256 2 2 (8192)
I0903 21:18:26.123345 12819 net.cpp:157] Top shape: 8 256 2 2 (8192)
I0903 21:18:26.123353 12819 net.cpp:157] Top shape: 8 256 2 2 (8192)
I0903 21:18:26.123358 12819 net.cpp:165] Memory required for data: 1285656832
I0903 21:18:26.123364 12819 layer_factory.hpp:77] Creating layer conv10_1
I0903 21:18:26.123381 12819 net.cpp:100] Creating Layer conv10_1
I0903 21:18:26.123389 12819 net.cpp:434] conv10_1 <- conv9_2_conv9_2_relu_0_split_0
I0903 21:18:26.123400 12819 net.cpp:408] conv10_1 -> conv10_1
I0903 21:18:26.126857 12819 net.cpp:150] Setting up conv10_1
I0903 21:18:26.126878 12819 net.cpp:157] Top shape: 8 128 2 2 (4096)
I0903 21:18:26.126883 12819 net.cpp:165] Memory required for data: 1285673216
I0903 21:18:26.126895 12819 layer_factory.hpp:77] Creating layer conv10_1_relu
I0903 21:18:26.126930 12819 net.cpp:100] Creating Layer conv10_1_relu
I0903 21:18:26.126937 12819 net.cpp:434] conv10_1_relu <- conv10_1
I0903 21:18:26.126950 12819 net.cpp:395] conv10_1_relu -> conv10_1 (in-place)
I0903 21:18:26.127420 12819 net.cpp:150] Setting up conv10_1_relu
I0903 21:18:26.127439 12819 net.cpp:157] Top shape: 8 128 2 2 (4096)
I0903 21:18:26.127446 12819 net.cpp:165] Memory required for data: 1285689600
I0903 21:18:26.127454 12819 layer_factory.hpp:77] Creating layer conv10_2
I0903 21:18:26.127470 12819 net.cpp:100] Creating Layer conv10_2
I0903 21:18:26.127476 12819 net.cpp:434] conv10_2 <- conv10_1
I0903 21:18:26.127487 12819 net.cpp:408] conv10_2 -> conv10_2
I0903 21:18:26.133996 12819 net.cpp:150] Setting up conv10_2
I0903 21:18:26.134022 12819 net.cpp:157] Top shape: 8 256 1 1 (2048)
I0903 21:18:26.134029 12819 net.cpp:165] Memory required for data: 1285697792
I0903 21:18:26.134042 12819 layer_factory.hpp:77] Creating layer conv10_2_relu
I0903 21:18:26.134053 12819 net.cpp:100] Creating Layer conv10_2_relu
I0903 21:18:26.134060 12819 net.cpp:434] conv10_2_relu <- conv10_2
I0903 21:18:26.134071 12819 net.cpp:395] conv10_2_relu -> conv10_2 (in-place)
I0903 21:18:26.134415 12819 net.cpp:150] Setting up conv10_2_relu
I0903 21:18:26.134433 12819 net.cpp:157] Top shape: 8 256 1 1 (2048)
I0903 21:18:26.134438 12819 net.cpp:165] Memory required for data: 1285705984
I0903 21:18:26.134461 12819 layer_factory.hpp:77] Creating layer conv10_2_conv10_2_relu_0_split
I0903 21:18:26.134475 12819 net.cpp:100] Creating Layer conv10_2_conv10_2_relu_0_split
I0903 21:18:26.134482 12819 net.cpp:434] conv10_2_conv10_2_relu_0_split <- conv10_2
I0903 21:18:26.134497 12819 net.cpp:408] conv10_2_conv10_2_relu_0_split -> conv10_2_conv10_2_relu_0_split_0
I0903 21:18:26.134524 12819 net.cpp:408] conv10_2_conv10_2_relu_0_split -> conv10_2_conv10_2_relu_0_split_1
I0903 21:18:26.134537 12819 net.cpp:408] conv10_2_conv10_2_relu_0_split -> conv10_2_conv10_2_relu_0_split_2
I0903 21:18:26.134630 12819 net.cpp:150] Setting up conv10_2_conv10_2_relu_0_split
I0903 21:18:26.134642 12819 net.cpp:157] Top shape: 8 256 1 1 (2048)
I0903 21:18:26.134649 12819 net.cpp:157] Top shape: 8 256 1 1 (2048)
I0903 21:18:26.134656 12819 net.cpp:157] Top shape: 8 256 1 1 (2048)
I0903 21:18:26.134661 12819 net.cpp:165] Memory required for data: 1285730560
I0903 21:18:26.134668 12819 layer_factory.hpp:77] Creating layer conv5_5/sep_mbox_loc
I0903 21:18:26.134685 12819 net.cpp:100] Creating Layer conv5_5/sep_mbox_loc
I0903 21:18:26.134692 12819 net.cpp:434] conv5_5/sep_mbox_loc <- conv5_5/sep_conv5_5/sep_relu_0_split_1
I0903 21:18:26.134706 12819 net.cpp:408] conv5_5/sep_mbox_loc -> conv5_5/sep_mbox_loc
I0903 21:18:26.138988 12819 net.cpp:150] Setting up conv5_5/sep_mbox_loc
I0903 21:18:26.139009 12819 net.cpp:157] Top shape: 8 12 19 19 (34656)
I0903 21:18:26.139015 12819 net.cpp:165] Memory required for data: 1285869184
I0903 21:18:26.139027 12819 layer_factory.hpp:77] Creating layer conv5_5/sep_mbox_loc_perm
I0903 21:18:26.139042 12819 net.cpp:100] Creating Layer conv5_5/sep_mbox_loc_perm
I0903 21:18:26.139050 12819 net.cpp:434] conv5_5/sep_mbox_loc_perm <- conv5_5/sep_mbox_loc
I0903 21:18:26.139060 12819 net.cpp:408] conv5_5/sep_mbox_loc_perm -> conv5_5/sep_mbox_loc_perm
I0903 21:18:26.139237 12819 net.cpp:150] Setting up conv5_5/sep_mbox_loc_perm
I0903 21:18:26.139248 12819 net.cpp:157] Top shape: 8 19 19 12 (34656)
I0903 21:18:26.139255 12819 net.cpp:165] Memory required for data: 1286007808
I0903 21:18:26.139261 12819 layer_factory.hpp:77] Creating layer conv5_5/sep_mbox_loc_flat
I0903 21:18:26.139271 12819 net.cpp:100] Creating Layer conv5_5/sep_mbox_loc_flat
I0903 21:18:26.139278 12819 net.cpp:434] conv5_5/sep_mbox_loc_flat <- conv5_5/sep_mbox_loc_perm
I0903 21:18:26.139287 12819 net.cpp:408] conv5_5/sep_mbox_loc_flat -> conv5_5/sep_mbox_loc_flat
I0903 21:18:26.139330 12819 net.cpp:150] Setting up conv5_5/sep_mbox_loc_flat
I0903 21:18:26.139339 12819 net.cpp:157] Top shape: 8 4332 (34656)
I0903 21:18:26.139345 12819 net.cpp:165] Memory required for data: 1286146432
I0903 21:18:26.139351 12819 layer_factory.hpp:77] Creating layer conv5_5/sep_mbox_conf
I0903 21:18:26.139369 12819 net.cpp:100] Creating Layer conv5_5/sep_mbox_conf
I0903 21:18:26.139376 12819 net.cpp:434] conv5_5/sep_mbox_conf <- conv5_5/sep_conv5_5/sep_relu_0_split_2
I0903 21:18:26.139389 12819 net.cpp:408] conv5_5/sep_mbox_conf -> conv5_5/sep_mbox_conf
I0903 21:18:26.143651 12819 net.cpp:150] Setting up conv5_5/sep_mbox_conf
I0903 21:18:26.143671 12819 net.cpp:157] Top shape: 8 12 19 19 (34656)
I0903 21:18:26.143676 12819 net.cpp:165] Memory required for data: 1286285056
I0903 21:18:26.143685 12819 layer_factory.hpp:77] Creating layer conv5_5/sep_mbox_conf_perm
I0903 21:18:26.143697 12819 net.cpp:100] Creating Layer conv5_5/sep_mbox_conf_perm
I0903 21:18:26.143704 12819 net.cpp:434] conv5_5/sep_mbox_conf_perm <- conv5_5/sep_mbox_conf
I0903 21:18:26.143714 12819 net.cpp:408] conv5_5/sep_mbox_conf_perm -> conv5_5/sep_mbox_conf_perm
I0903 21:18:26.143882 12819 net.cpp:150] Setting up conv5_5/sep_mbox_conf_perm
I0903 21:18:26.143898 12819 net.cpp:157] Top shape: 8 19 19 12 (34656)
I0903 21:18:26.143908 12819 net.cpp:165] Memory required for data: 1286423680
I0903 21:18:26.143916 12819 layer_factory.hpp:77] Creating layer conv5_5/sep_mbox_conf_flat
I0903 21:18:26.143932 12819 net.cpp:100] Creating Layer conv5_5/sep_mbox_conf_flat
I0903 21:18:26.143965 12819 net.cpp:434] conv5_5/sep_mbox_conf_flat <- conv5_5/sep_mbox_conf_perm
I0903 21:18:26.143981 12819 net.cpp:408] conv5_5/sep_mbox_conf_flat -> conv5_5/sep_mbox_conf_flat
I0903 21:18:26.144037 12819 net.cpp:150] Setting up conv5_5/sep_mbox_conf_flat
I0903 21:18:26.144047 12819 net.cpp:157] Top shape: 8 4332 (34656)
I0903 21:18:26.144052 12819 net.cpp:165] Memory required for data: 1286562304
I0903 21:18:26.144058 12819 layer_factory.hpp:77] Creating layer conv5_5/sep_mbox_priorbox
I0903 21:18:26.144071 12819 net.cpp:100] Creating Layer conv5_5/sep_mbox_priorbox
I0903 21:18:26.144078 12819 net.cpp:434] conv5_5/sep_mbox_priorbox <- conv5_5/sep_conv5_5/sep_relu_0_split_3
I0903 21:18:26.144088 12819 net.cpp:434] conv5_5/sep_mbox_priorbox <- data_data_0_split_1
I0903 21:18:26.144098 12819 net.cpp:408] conv5_5/sep_mbox_priorbox -> conv5_5/sep_mbox_priorbox
I0903 21:18:26.144145 12819 net.cpp:150] Setting up conv5_5/sep_mbox_priorbox
I0903 21:18:26.144155 12819 net.cpp:157] Top shape: 1 2 4332 (8664)
I0903 21:18:26.144160 12819 net.cpp:165] Memory required for data: 1286596960
I0903 21:18:26.144165 12819 layer_factory.hpp:77] Creating layer conv6/sep_mbox_loc
I0903 21:18:26.144181 12819 net.cpp:100] Creating Layer conv6/sep_mbox_loc
I0903 21:18:26.144187 12819 net.cpp:434] conv6/sep_mbox_loc <- conv6/sep_conv6/sep_relu_0_split_1
I0903 21:18:26.144199 12819 net.cpp:408] conv6/sep_mbox_loc -> conv6/sep_mbox_loc
I0903 21:18:26.151201 12819 net.cpp:150] Setting up conv6/sep_mbox_loc
I0903 21:18:26.151224 12819 net.cpp:157] Top shape: 8 24 10 10 (19200)
I0903 21:18:26.151229 12819 net.cpp:165] Memory required for data: 1286673760
I0903 21:18:26.151239 12819 layer_factory.hpp:77] Creating layer conv6/sep_mbox_loc_perm
I0903 21:18:26.151250 12819 net.cpp:100] Creating Layer conv6/sep_mbox_loc_perm
I0903 21:18:26.151257 12819 net.cpp:434] conv6/sep_mbox_loc_perm <- conv6/sep_mbox_loc
I0903 21:18:26.151268 12819 net.cpp:408] conv6/sep_mbox_loc_perm -> conv6/sep_mbox_loc_perm
I0903 21:18:26.151445 12819 net.cpp:150] Setting up conv6/sep_mbox_loc_perm
I0903 21:18:26.151456 12819 net.cpp:157] Top shape: 8 10 10 24 (19200)
I0903 21:18:26.151463 12819 net.cpp:165] Memory required for data: 1286750560
I0903 21:18:26.151468 12819 layer_factory.hpp:77] Creating layer conv6/sep_mbox_loc_flat
I0903 21:18:26.151479 12819 net.cpp:100] Creating Layer conv6/sep_mbox_loc_flat
I0903 21:18:26.151486 12819 net.cpp:434] conv6/sep_mbox_loc_flat <- conv6/sep_mbox_loc_perm
I0903 21:18:26.151497 12819 net.cpp:408] conv6/sep_mbox_loc_flat -> conv6/sep_mbox_loc_flat
I0903 21:18:26.151536 12819 net.cpp:150] Setting up conv6/sep_mbox_loc_flat
I0903 21:18:26.151545 12819 net.cpp:157] Top shape: 8 2400 (19200)
I0903 21:18:26.151551 12819 net.cpp:165] Memory required for data: 1286827360
I0903 21:18:26.151556 12819 layer_factory.hpp:77] Creating layer conv6/sep_mbox_conf
I0903 21:18:26.151572 12819 net.cpp:100] Creating Layer conv6/sep_mbox_conf
I0903 21:18:26.151579 12819 net.cpp:434] conv6/sep_mbox_conf <- conv6/sep_conv6/sep_relu_0_split_2
I0903 21:18:26.151590 12819 net.cpp:408] conv6/sep_mbox_conf -> conv6/sep_mbox_conf
I0903 21:18:26.157611 12819 net.cpp:150] Setting up conv6/sep_mbox_conf
I0903 21:18:26.157631 12819 net.cpp:157] Top shape: 8 24 10 10 (19200)
I0903 21:18:26.157637 12819 net.cpp:165] Memory required for data: 1286904160
I0903 21:18:26.157649 12819 layer_factory.hpp:77] Creating layer conv6/sep_mbox_conf_perm
I0903 21:18:26.157660 12819 net.cpp:100] Creating Layer conv6/sep_mbox_conf_perm
I0903 21:18:26.157668 12819 net.cpp:434] conv6/sep_mbox_conf_perm <- conv6/sep_mbox_conf
I0903 21:18:26.157680 12819 net.cpp:408] conv6/sep_mbox_conf_perm -> conv6/sep_mbox_conf_perm
I0903 21:18:26.157843 12819 net.cpp:150] Setting up conv6/sep_mbox_conf_perm
I0903 21:18:26.157856 12819 net.cpp:157] Top shape: 8 10 10 24 (19200)
I0903 21:18:26.157861 12819 net.cpp:165] Memory required for data: 1286980960
I0903 21:18:26.157867 12819 layer_factory.hpp:77] Creating layer conv6/sep_mbox_conf_flat
I0903 21:18:26.157876 12819 net.cpp:100] Creating Layer conv6/sep_mbox_conf_flat
I0903 21:18:26.157903 12819 net.cpp:434] conv6/sep_mbox_conf_flat <- conv6/sep_mbox_conf_perm
I0903 21:18:26.157915 12819 net.cpp:408] conv6/sep_mbox_conf_flat -> conv6/sep_mbox_conf_flat
I0903 21:18:26.157959 12819 net.cpp:150] Setting up conv6/sep_mbox_conf_flat
I0903 21:18:26.157970 12819 net.cpp:157] Top shape: 8 2400 (19200)
I0903 21:18:26.157975 12819 net.cpp:165] Memory required for data: 1287057760
I0903 21:18:26.157981 12819 layer_factory.hpp:77] Creating layer conv6/sep_mbox_priorbox
I0903 21:18:26.157991 12819 net.cpp:100] Creating Layer conv6/sep_mbox_priorbox
I0903 21:18:26.157997 12819 net.cpp:434] conv6/sep_mbox_priorbox <- conv6/sep_conv6/sep_relu_0_split_3
I0903 21:18:26.158005 12819 net.cpp:434] conv6/sep_mbox_priorbox <- data_data_0_split_2
I0903 21:18:26.158016 12819 net.cpp:408] conv6/sep_mbox_priorbox -> conv6/sep_mbox_priorbox
I0903 21:18:26.158059 12819 net.cpp:150] Setting up conv6/sep_mbox_priorbox
I0903 21:18:26.158069 12819 net.cpp:157] Top shape: 1 2 2400 (4800)
I0903 21:18:26.158074 12819 net.cpp:165] Memory required for data: 1287076960
I0903 21:18:26.158079 12819 layer_factory.hpp:77] Creating layer conv7_2_mbox_loc
I0903 21:18:26.158093 12819 net.cpp:100] Creating Layer conv7_2_mbox_loc
I0903 21:18:26.158099 12819 net.cpp:434] conv7_2_mbox_loc <- conv7_2_conv7_2_relu_0_split_1
I0903 21:18:26.158110 12819 net.cpp:408] conv7_2_mbox_loc -> conv7_2_mbox_loc
I0903 21:18:26.162446 12819 net.cpp:150] Setting up conv7_2_mbox_loc
I0903 21:18:26.162467 12819 net.cpp:157] Top shape: 8 24 5 5 (4800)
I0903 21:18:26.162472 12819 net.cpp:165] Memory required for data: 1287096160
I0903 21:18:26.162482 12819 layer_factory.hpp:77] Creating layer conv7_2_mbox_loc_perm
I0903 21:18:26.162493 12819 net.cpp:100] Creating Layer conv7_2_mbox_loc_perm
I0903 21:18:26.162500 12819 net.cpp:434] conv7_2_mbox_loc_perm <- conv7_2_mbox_loc
I0903 21:18:26.162513 12819 net.cpp:408] conv7_2_mbox_loc_perm -> conv7_2_mbox_loc_perm
I0903 21:18:26.162685 12819 net.cpp:150] Setting up conv7_2_mbox_loc_perm
I0903 21:18:26.162695 12819 net.cpp:157] Top shape: 8 5 5 24 (4800)
I0903 21:18:26.162700 12819 net.cpp:165] Memory required for data: 1287115360
I0903 21:18:26.162705 12819 layer_factory.hpp:77] Creating layer conv7_2_mbox_loc_flat
I0903 21:18:26.162714 12819 net.cpp:100] Creating Layer conv7_2_mbox_loc_flat
I0903 21:18:26.162720 12819 net.cpp:434] conv7_2_mbox_loc_flat <- conv7_2_mbox_loc_perm
I0903 21:18:26.162732 12819 net.cpp:408] conv7_2_mbox_loc_flat -> conv7_2_mbox_loc_flat
I0903 21:18:26.162775 12819 net.cpp:150] Setting up conv7_2_mbox_loc_flat
I0903 21:18:26.162783 12819 net.cpp:157] Top shape: 8 600 (4800)
I0903 21:18:26.162787 12819 net.cpp:165] Memory required for data: 1287134560
I0903 21:18:26.162793 12819 layer_factory.hpp:77] Creating layer conv7_2_mbox_conf
I0903 21:18:26.162807 12819 net.cpp:100] Creating Layer conv7_2_mbox_conf
I0903 21:18:26.162813 12819 net.cpp:434] conv7_2_mbox_conf <- conv7_2_conv7_2_relu_0_split_2
I0903 21:18:26.162827 12819 net.cpp:408] conv7_2_mbox_conf -> conv7_2_mbox_conf
I0903 21:18:26.167170 12819 net.cpp:150] Setting up conv7_2_mbox_conf
I0903 21:18:26.167188 12819 net.cpp:157] Top shape: 8 24 5 5 (4800)
I0903 21:18:26.167193 12819 net.cpp:165] Memory required for data: 1287153760
I0903 21:18:26.167204 12819 layer_factory.hpp:77] Creating layer conv7_2_mbox_conf_perm
I0903 21:18:26.167217 12819 net.cpp:100] Creating Layer conv7_2_mbox_conf_perm
I0903 21:18:26.167223 12819 net.cpp:434] conv7_2_mbox_conf_perm <- conv7_2_mbox_conf
I0903 21:18:26.167234 12819 net.cpp:408] conv7_2_mbox_conf_perm -> conv7_2_mbox_conf_perm
I0903 21:18:26.167394 12819 net.cpp:150] Setting up conv7_2_mbox_conf_perm
I0903 21:18:26.167407 12819 net.cpp:157] Top shape: 8 5 5 24 (4800)
I0903 21:18:26.167410 12819 net.cpp:165] Memory required for data: 1287172960
I0903 21:18:26.167417 12819 layer_factory.hpp:77] Creating layer conv7_2_mbox_conf_flat
I0903 21:18:26.167424 12819 net.cpp:100] Creating Layer conv7_2_mbox_conf_flat
I0903 21:18:26.167430 12819 net.cpp:434] conv7_2_mbox_conf_flat <- conv7_2_mbox_conf_perm
I0903 21:18:26.167455 12819 net.cpp:408] conv7_2_mbox_conf_flat -> conv7_2_mbox_conf_flat
I0903 21:18:26.167502 12819 net.cpp:150] Setting up conv7_2_mbox_conf_flat
I0903 21:18:26.167512 12819 net.cpp:157] Top shape: 8 600 (4800)
I0903 21:18:26.167516 12819 net.cpp:165] Memory required for data: 1287192160
I0903 21:18:26.167522 12819 layer_factory.hpp:77] Creating layer conv7_2_mbox_priorbox
I0903 21:18:26.167531 12819 net.cpp:100] Creating Layer conv7_2_mbox_priorbox
I0903 21:18:26.167537 12819 net.cpp:434] conv7_2_mbox_priorbox <- conv7_2_conv7_2_relu_0_split_3
I0903 21:18:26.167546 12819 net.cpp:434] conv7_2_mbox_priorbox <- data_data_0_split_3
I0903 21:18:26.167557 12819 net.cpp:408] conv7_2_mbox_priorbox -> conv7_2_mbox_priorbox
I0903 21:18:26.167598 12819 net.cpp:150] Setting up conv7_2_mbox_priorbox
I0903 21:18:26.167608 12819 net.cpp:157] Top shape: 1 2 600 (1200)
I0903 21:18:26.167613 12819 net.cpp:165] Memory required for data: 1287196960
I0903 21:18:26.167618 12819 layer_factory.hpp:77] Creating layer conv8_2_mbox_loc
I0903 21:18:26.167631 12819 net.cpp:100] Creating Layer conv8_2_mbox_loc
I0903 21:18:26.167639 12819 net.cpp:434] conv8_2_mbox_loc <- conv8_2_conv8_2_relu_0_split_1
I0903 21:18:26.167647 12819 net.cpp:408] conv8_2_mbox_loc -> conv8_2_mbox_loc
I0903 21:18:26.171449 12819 net.cpp:150] Setting up conv8_2_mbox_loc
I0903 21:18:26.171468 12819 net.cpp:157] Top shape: 8 24 3 3 (1728)
I0903 21:18:26.171473 12819 net.cpp:165] Memory required for data: 1287203872
I0903 21:18:26.171484 12819 layer_factory.hpp:77] Creating layer conv8_2_mbox_loc_perm
I0903 21:18:26.171495 12819 net.cpp:100] Creating Layer conv8_2_mbox_loc_perm
I0903 21:18:26.171502 12819 net.cpp:434] conv8_2_mbox_loc_perm <- conv8_2_mbox_loc
I0903 21:18:26.171514 12819 net.cpp:408] conv8_2_mbox_loc_perm -> conv8_2_mbox_loc_perm
I0903 21:18:26.171676 12819 net.cpp:150] Setting up conv8_2_mbox_loc_perm
I0903 21:18:26.171687 12819 net.cpp:157] Top shape: 8 3 3 24 (1728)
I0903 21:18:26.171692 12819 net.cpp:165] Memory required for data: 1287210784
I0903 21:18:26.171697 12819 layer_factory.hpp:77] Creating layer conv8_2_mbox_loc_flat
I0903 21:18:26.171705 12819 net.cpp:100] Creating Layer conv8_2_mbox_loc_flat
I0903 21:18:26.171711 12819 net.cpp:434] conv8_2_mbox_loc_flat <- conv8_2_mbox_loc_perm
I0903 21:18:26.171721 12819 net.cpp:408] conv8_2_mbox_loc_flat -> conv8_2_mbox_loc_flat
I0903 21:18:26.171758 12819 net.cpp:150] Setting up conv8_2_mbox_loc_flat
I0903 21:18:26.171768 12819 net.cpp:157] Top shape: 8 216 (1728)
I0903 21:18:26.171772 12819 net.cpp:165] Memory required for data: 1287217696
I0903 21:18:26.171777 12819 layer_factory.hpp:77] Creating layer conv8_2_mbox_conf
I0903 21:18:26.171790 12819 net.cpp:100] Creating Layer conv8_2_mbox_conf
I0903 21:18:26.171797 12819 net.cpp:434] conv8_2_mbox_conf <- conv8_2_conv8_2_relu_0_split_2
I0903 21:18:26.171805 12819 net.cpp:408] conv8_2_mbox_conf -> conv8_2_mbox_conf
I0903 21:18:26.176259 12819 net.cpp:150] Setting up conv8_2_mbox_conf
I0903 21:18:26.176277 12819 net.cpp:157] Top shape: 8 24 3 3 (1728)
I0903 21:18:26.176282 12819 net.cpp:165] Memory required for data: 1287224608
I0903 21:18:26.176292 12819 layer_factory.hpp:77] Creating layer conv8_2_mbox_conf_perm
I0903 21:18:26.176304 12819 net.cpp:100] Creating Layer conv8_2_mbox_conf_perm
I0903 21:18:26.176311 12819 net.cpp:434] conv8_2_mbox_conf_perm <- conv8_2_mbox_conf
I0903 21:18:26.176321 12819 net.cpp:408] conv8_2_mbox_conf_perm -> conv8_2_mbox_conf_perm
I0903 21:18:26.176489 12819 net.cpp:150] Setting up conv8_2_mbox_conf_perm
I0903 21:18:26.176499 12819 net.cpp:157] Top shape: 8 3 3 24 (1728)
I0903 21:18:26.176504 12819 net.cpp:165] Memory required for data: 1287231520
I0903 21:18:26.176511 12819 layer_factory.hpp:77] Creating layer conv8_2_mbox_conf_flat
I0903 21:18:26.176519 12819 net.cpp:100] Creating Layer conv8_2_mbox_conf_flat
I0903 21:18:26.176527 12819 net.cpp:434] conv8_2_mbox_conf_flat <- conv8_2_mbox_conf_perm
I0903 21:18:26.176534 12819 net.cpp:408] conv8_2_mbox_conf_flat -> conv8_2_mbox_conf_flat
I0903 21:18:26.176596 12819 net.cpp:150] Setting up conv8_2_mbox_conf_flat
I0903 21:18:26.176605 12819 net.cpp:157] Top shape: 8 216 (1728)
I0903 21:18:26.176610 12819 net.cpp:165] Memory required for data: 1287238432
I0903 21:18:26.176615 12819 layer_factory.hpp:77] Creating layer conv8_2_mbox_priorbox
I0903 21:18:26.176630 12819 net.cpp:100] Creating Layer conv8_2_mbox_priorbox
I0903 21:18:26.176635 12819 net.cpp:434] conv8_2_mbox_priorbox <- conv8_2_conv8_2_relu_0_split_3
I0903 21:18:26.176643 12819 net.cpp:434] conv8_2_mbox_priorbox <- data_data_0_split_4
I0903 21:18:26.176666 12819 net.cpp:408] conv8_2_mbox_priorbox -> conv8_2_mbox_priorbox
I0903 21:18:26.176707 12819 net.cpp:150] Setting up conv8_2_mbox_priorbox
I0903 21:18:26.176717 12819 net.cpp:157] Top shape: 1 2 216 (432)
I0903 21:18:26.176722 12819 net.cpp:165] Memory required for data: 1287240160
I0903 21:18:26.176726 12819 layer_factory.hpp:77] Creating layer conv9_2_mbox_loc
I0903 21:18:26.176741 12819 net.cpp:100] Creating Layer conv9_2_mbox_loc
I0903 21:18:26.176748 12819 net.cpp:434] conv9_2_mbox_loc <- conv9_2_conv9_2_relu_0_split_1
I0903 21:18:26.176758 12819 net.cpp:408] conv9_2_mbox_loc -> conv9_2_mbox_loc
I0903 21:18:26.180583 12819 net.cpp:150] Setting up conv9_2_mbox_loc
I0903 21:18:26.180601 12819 net.cpp:157] Top shape: 8 24 2 2 (768)
I0903 21:18:26.180606 12819 net.cpp:165] Memory required for data: 1287243232
I0903 21:18:26.180616 12819 layer_factory.hpp:77] Creating layer conv9_2_mbox_loc_perm
I0903 21:18:26.180629 12819 net.cpp:100] Creating Layer conv9_2_mbox_loc_perm
I0903 21:18:26.180634 12819 net.cpp:434] conv9_2_mbox_loc_perm <- conv9_2_mbox_loc
I0903 21:18:26.180644 12819 net.cpp:408] conv9_2_mbox_loc_perm -> conv9_2_mbox_loc_perm
I0903 21:18:26.180797 12819 net.cpp:150] Setting up conv9_2_mbox_loc_perm
I0903 21:18:26.180806 12819 net.cpp:157] Top shape: 8 2 2 24 (768)
I0903 21:18:26.180810 12819 net.cpp:165] Memory required for data: 1287246304
I0903 21:18:26.180815 12819 layer_factory.hpp:77] Creating layer conv9_2_mbox_loc_flat
I0903 21:18:26.180825 12819 net.cpp:100] Creating Layer conv9_2_mbox_loc_flat
I0903 21:18:26.180831 12819 net.cpp:434] conv9_2_mbox_loc_flat <- conv9_2_mbox_loc_perm
I0903 21:18:26.180840 12819 net.cpp:408] conv9_2_mbox_loc_flat -> conv9_2_mbox_loc_flat
I0903 21:18:26.180878 12819 net.cpp:150] Setting up conv9_2_mbox_loc_flat
I0903 21:18:26.180886 12819 net.cpp:157] Top shape: 8 96 (768)
I0903 21:18:26.180891 12819 net.cpp:165] Memory required for data: 1287249376
I0903 21:18:26.180896 12819 layer_factory.hpp:77] Creating layer conv9_2_mbox_conf
I0903 21:18:26.180910 12819 net.cpp:100] Creating Layer conv9_2_mbox_conf
I0903 21:18:26.180917 12819 net.cpp:434] conv9_2_mbox_conf <- conv9_2_conv9_2_relu_0_split_2
I0903 21:18:26.180925 12819 net.cpp:408] conv9_2_mbox_conf -> conv9_2_mbox_conf
I0903 21:18:26.183914 12819 net.cpp:150] Setting up conv9_2_mbox_conf
I0903 21:18:26.183933 12819 net.cpp:157] Top shape: 8 24 2 2 (768)
I0903 21:18:26.183938 12819 net.cpp:165] Memory required for data: 1287252448
I0903 21:18:26.183948 12819 layer_factory.hpp:77] Creating layer conv9_2_mbox_conf_perm
I0903 21:18:26.183960 12819 net.cpp:100] Creating Layer conv9_2_mbox_conf_perm
I0903 21:18:26.183967 12819 net.cpp:434] conv9_2_mbox_conf_perm <- conv9_2_mbox_conf
I0903 21:18:26.183979 12819 net.cpp:408] conv9_2_mbox_conf_perm -> conv9_2_mbox_conf_perm
I0903 21:18:26.184130 12819 net.cpp:150] Setting up conv9_2_mbox_conf_perm
I0903 21:18:26.184140 12819 net.cpp:157] Top shape: 8 2 2 24 (768)
I0903 21:18:26.184145 12819 net.cpp:165] Memory required for data: 1287255520
I0903 21:18:26.184150 12819 layer_factory.hpp:77] Creating layer conv9_2_mbox_conf_flat
I0903 21:18:26.184159 12819 net.cpp:100] Creating Layer conv9_2_mbox_conf_flat
I0903 21:18:26.184165 12819 net.cpp:434] conv9_2_mbox_conf_flat <- conv9_2_mbox_conf_perm
I0903 21:18:26.184172 12819 net.cpp:408] conv9_2_mbox_conf_flat -> conv9_2_mbox_conf_flat
I0903 21:18:26.184211 12819 net.cpp:150] Setting up conv9_2_mbox_conf_flat
I0903 21:18:26.184217 12819 net.cpp:157] Top shape: 8 96 (768)
I0903 21:18:26.184237 12819 net.cpp:165] Memory required for data: 1287258592
I0903 21:18:26.184242 12819 layer_factory.hpp:77] Creating layer conv9_2_mbox_priorbox
I0903 21:18:26.184253 12819 net.cpp:100] Creating Layer conv9_2_mbox_priorbox
I0903 21:18:26.184260 12819 net.cpp:434] conv9_2_mbox_priorbox <- conv9_2_conv9_2_relu_0_split_3
I0903 21:18:26.184267 12819 net.cpp:434] conv9_2_mbox_priorbox <- data_data_0_split_5
I0903 21:18:26.184278 12819 net.cpp:408] conv9_2_mbox_priorbox -> conv9_2_mbox_priorbox
I0903 21:18:26.184324 12819 net.cpp:150] Setting up conv9_2_mbox_priorbox
I0903 21:18:26.184334 12819 net.cpp:157] Top shape: 1 2 96 (192)
I0903 21:18:26.184339 12819 net.cpp:165] Memory required for data: 1287259360
I0903 21:18:26.184343 12819 layer_factory.hpp:77] Creating layer conv10_2_mbox_loc
I0903 21:18:26.184357 12819 net.cpp:100] Creating Layer conv10_2_mbox_loc
I0903 21:18:26.184363 12819 net.cpp:434] conv10_2_mbox_loc <- conv10_2_conv10_2_relu_0_split_0
I0903 21:18:26.184373 12819 net.cpp:408] conv10_2_mbox_loc -> conv10_2_mbox_loc
I0903 21:18:26.188050 12819 net.cpp:150] Setting up conv10_2_mbox_loc
I0903 21:18:26.188067 12819 net.cpp:157] Top shape: 8 24 1 1 (192)
I0903 21:18:26.188072 12819 net.cpp:165] Memory required for data: 1287260128
I0903 21:18:26.188082 12819 layer_factory.hpp:77] Creating layer conv10_2_mbox_loc_perm
I0903 21:18:26.188093 12819 net.cpp:100] Creating Layer conv10_2_mbox_loc_perm
I0903 21:18:26.188100 12819 net.cpp:434] conv10_2_mbox_loc_perm <- conv10_2_mbox_loc
I0903 21:18:26.188108 12819 net.cpp:408] conv10_2_mbox_loc_perm -> conv10_2_mbox_loc_perm
I0903 21:18:26.188271 12819 net.cpp:150] Setting up conv10_2_mbox_loc_perm
I0903 21:18:26.188279 12819 net.cpp:157] Top shape: 8 1 1 24 (192)
I0903 21:18:26.188284 12819 net.cpp:165] Memory required for data: 1287260896
I0903 21:18:26.188290 12819 layer_factory.hpp:77] Creating layer conv10_2_mbox_loc_flat
I0903 21:18:26.188299 12819 net.cpp:100] Creating Layer conv10_2_mbox_loc_flat
I0903 21:18:26.188305 12819 net.cpp:434] conv10_2_mbox_loc_flat <- conv10_2_mbox_loc_perm
I0903 21:18:26.188313 12819 net.cpp:408] conv10_2_mbox_loc_flat -> conv10_2_mbox_loc_flat
I0903 21:18:26.188354 12819 net.cpp:150] Setting up conv10_2_mbox_loc_flat
I0903 21:18:26.188362 12819 net.cpp:157] Top shape: 8 24 (192)
I0903 21:18:26.188367 12819 net.cpp:165] Memory required for data: 1287261664
I0903 21:18:26.188371 12819 layer_factory.hpp:77] Creating layer conv10_2_mbox_conf
I0903 21:18:26.188385 12819 net.cpp:100] Creating Layer conv10_2_mbox_conf
I0903 21:18:26.188390 12819 net.cpp:434] conv10_2_mbox_conf <- conv10_2_conv10_2_relu_0_split_1
I0903 21:18:26.188400 12819 net.cpp:408] conv10_2_mbox_conf -> conv10_2_mbox_conf
I0903 21:18:26.192615 12819 net.cpp:150] Setting up conv10_2_mbox_conf
I0903 21:18:26.192633 12819 net.cpp:157] Top shape: 8 24 1 1 (192)
I0903 21:18:26.192638 12819 net.cpp:165] Memory required for data: 1287262432
I0903 21:18:26.192648 12819 layer_factory.hpp:77] Creating layer conv10_2_mbox_conf_perm
I0903 21:18:26.192659 12819 net.cpp:100] Creating Layer conv10_2_mbox_conf_perm
I0903 21:18:26.192665 12819 net.cpp:434] conv10_2_mbox_conf_perm <- conv10_2_mbox_conf
I0903 21:18:26.192673 12819 net.cpp:408] conv10_2_mbox_conf_perm -> conv10_2_mbox_conf_perm
I0903 21:18:26.192826 12819 net.cpp:150] Setting up conv10_2_mbox_conf_perm
I0903 21:18:26.192836 12819 net.cpp:157] Top shape: 8 1 1 24 (192)
I0903 21:18:26.192839 12819 net.cpp:165] Memory required for data: 1287263200
I0903 21:18:26.192844 12819 layer_factory.hpp:77] Creating layer conv10_2_mbox_conf_flat
I0903 21:18:26.192855 12819 net.cpp:100] Creating Layer conv10_2_mbox_conf_flat
I0903 21:18:26.192862 12819 net.cpp:434] conv10_2_mbox_conf_flat <- conv10_2_mbox_conf_perm
I0903 21:18:26.192869 12819 net.cpp:408] conv10_2_mbox_conf_flat -> conv10_2_mbox_conf_flat
I0903 21:18:26.192908 12819 net.cpp:150] Setting up conv10_2_mbox_conf_flat
I0903 21:18:26.192915 12819 net.cpp:157] Top shape: 8 24 (192)
I0903 21:18:26.192919 12819 net.cpp:165] Memory required for data: 1287263968
I0903 21:18:26.192939 12819 layer_factory.hpp:77] Creating layer conv10_2_mbox_priorbox
I0903 21:18:26.192951 12819 net.cpp:100] Creating Layer conv10_2_mbox_priorbox
I0903 21:18:26.192957 12819 net.cpp:434] conv10_2_mbox_priorbox <- conv10_2_conv10_2_relu_0_split_2
I0903 21:18:26.192966 12819 net.cpp:434] conv10_2_mbox_priorbox <- data_data_0_split_6
I0903 21:18:26.192975 12819 net.cpp:408] conv10_2_mbox_priorbox -> conv10_2_mbox_priorbox
I0903 21:18:26.193022 12819 net.cpp:150] Setting up conv10_2_mbox_priorbox
I0903 21:18:26.193032 12819 net.cpp:157] Top shape: 1 2 24 (48)
I0903 21:18:26.193035 12819 net.cpp:165] Memory required for data: 1287264160
I0903 21:18:26.193038 12819 layer_factory.hpp:77] Creating layer mbox_loc
I0903 21:18:26.193049 12819 net.cpp:100] Creating Layer mbox_loc
I0903 21:18:26.193056 12819 net.cpp:434] mbox_loc <- conv5_5/sep_mbox_loc_flat
I0903 21:18:26.193063 12819 net.cpp:434] mbox_loc <- conv6/sep_mbox_loc_flat
I0903 21:18:26.193071 12819 net.cpp:434] mbox_loc <- conv7_2_mbox_loc_flat
I0903 21:18:26.193078 12819 net.cpp:434] mbox_loc <- conv8_2_mbox_loc_flat
I0903 21:18:26.193084 12819 net.cpp:434] mbox_loc <- conv9_2_mbox_loc_flat
I0903 21:18:26.193091 12819 net.cpp:434] mbox_loc <- conv10_2_mbox_loc_flat
I0903 21:18:26.193099 12819 net.cpp:408] mbox_loc -> mbox_loc
I0903 21:18:26.193140 12819 net.cpp:150] Setting up mbox_loc
I0903 21:18:26.193147 12819 net.cpp:157] Top shape: 8 7668 (61344)
I0903 21:18:26.193152 12819 net.cpp:165] Memory required for data: 1287509536
I0903 21:18:26.193156 12819 layer_factory.hpp:77] Creating layer mbox_conf
I0903 21:18:26.193166 12819 net.cpp:100] Creating Layer mbox_conf
I0903 21:18:26.193171 12819 net.cpp:434] mbox_conf <- conv5_5/sep_mbox_conf_flat
I0903 21:18:26.193177 12819 net.cpp:434] mbox_conf <- conv6/sep_mbox_conf_flat
I0903 21:18:26.193183 12819 net.cpp:434] mbox_conf <- conv7_2_mbox_conf_flat
I0903 21:18:26.193189 12819 net.cpp:434] mbox_conf <- conv8_2_mbox_conf_flat
I0903 21:18:26.193195 12819 net.cpp:434] mbox_conf <- conv9_2_mbox_conf_flat
I0903 21:18:26.193202 12819 net.cpp:434] mbox_conf <- conv10_2_mbox_conf_flat
I0903 21:18:26.193212 12819 net.cpp:408] mbox_conf -> mbox_conf
I0903 21:18:26.193246 12819 net.cpp:150] Setting up mbox_conf
I0903 21:18:26.193253 12819 net.cpp:157] Top shape: 8 7668 (61344)
I0903 21:18:26.193259 12819 net.cpp:165] Memory required for data: 1287754912
I0903 21:18:26.193262 12819 layer_factory.hpp:77] Creating layer mbox_priorbox
I0903 21:18:26.193269 12819 net.cpp:100] Creating Layer mbox_priorbox
I0903 21:18:26.193275 12819 net.cpp:434] mbox_priorbox <- conv5_5/sep_mbox_priorbox
I0903 21:18:26.193282 12819 net.cpp:434] mbox_priorbox <- conv6/sep_mbox_priorbox
I0903 21:18:26.193289 12819 net.cpp:434] mbox_priorbox <- conv7_2_mbox_priorbox
I0903 21:18:26.193295 12819 net.cpp:434] mbox_priorbox <- conv8_2_mbox_priorbox
I0903 21:18:26.193300 12819 net.cpp:434] mbox_priorbox <- conv9_2_mbox_priorbox
I0903 21:18:26.193305 12819 net.cpp:434] mbox_priorbox <- conv10_2_mbox_priorbox
I0903 21:18:26.193315 12819 net.cpp:408] mbox_priorbox -> mbox_priorbox
I0903 21:18:26.193348 12819 net.cpp:150] Setting up mbox_priorbox
I0903 21:18:26.193358 12819 net.cpp:157] Top shape: 1 2 7668 (15336)
I0903 21:18:26.193362 12819 net.cpp:165] Memory required for data: 1287816256
I0903 21:18:26.193367 12819 layer_factory.hpp:77] Creating layer mbox_conf_reshape
I0903 21:18:26.193379 12819 net.cpp:100] Creating Layer mbox_conf_reshape
I0903 21:18:26.193385 12819 net.cpp:434] mbox_conf_reshape <- mbox_conf
I0903 21:18:26.193393 12819 net.cpp:408] mbox_conf_reshape -> mbox_conf_reshape
I0903 21:18:26.193439 12819 net.cpp:150] Setting up mbox_conf_reshape
I0903 21:18:26.193449 12819 net.cpp:157] Top shape: 8 1917 4 (61344)
I0903 21:18:26.193452 12819 net.cpp:165] Memory required for data: 1288061632
I0903 21:18:26.193457 12819 layer_factory.hpp:77] Creating layer mbox_conf_softmax
I0903 21:18:26.193467 12819 net.cpp:100] Creating Layer mbox_conf_softmax
I0903 21:18:26.193473 12819 net.cpp:434] mbox_conf_softmax <- mbox_conf_reshape
I0903 21:18:26.193492 12819 net.cpp:408] mbox_conf_softmax -> mbox_conf_softmax
I0903 21:18:26.194569 12819 net.cpp:150] Setting up mbox_conf_softmax
I0903 21:18:26.194587 12819 net.cpp:157] Top shape: 8 1917 4 (61344)
I0903 21:18:26.194592 12819 net.cpp:165] Memory required for data: 1288307008
I0903 21:18:26.194598 12819 layer_factory.hpp:77] Creating layer mbox_conf_flatten
I0903 21:18:26.194607 12819 net.cpp:100] Creating Layer mbox_conf_flatten
I0903 21:18:26.194613 12819 net.cpp:434] mbox_conf_flatten <- mbox_conf_softmax
I0903 21:18:26.194623 12819 net.cpp:408] mbox_conf_flatten -> mbox_conf_flatten
I0903 21:18:26.194666 12819 net.cpp:150] Setting up mbox_conf_flatten
I0903 21:18:26.194674 12819 net.cpp:157] Top shape: 8 7668 (61344)
I0903 21:18:26.194679 12819 net.cpp:165] Memory required for data: 1288552384
I0903 21:18:26.194684 12819 layer_factory.hpp:77] Creating layer detection_out
I0903 21:18:26.194711 12819 net.cpp:100] Creating Layer detection_out
I0903 21:18:26.194717 12819 net.cpp:434] detection_out <- mbox_loc
I0903 21:18:26.194725 12819 net.cpp:434] detection_out <- mbox_conf_flatten
I0903 21:18:26.194730 12819 net.cpp:434] detection_out <- mbox_priorbox
I0903 21:18:26.194741 12819 net.cpp:408] detection_out -> detection_out
I0903 21:18:26.196991 12819 net.cpp:150] Setting up detection_out
I0903 21:18:26.197008 12819 net.cpp:157] Top shape: 1 1 1 7 (7)
I0903 21:18:26.197012 12819 net.cpp:165] Memory required for data: 1288552412
I0903 21:18:26.197018 12819 layer_factory.hpp:77] Creating layer detection_eval
I0903 21:18:26.197031 12819 net.cpp:100] Creating Layer detection_eval
I0903 21:18:26.197036 12819 net.cpp:434] detection_eval <- detection_out
I0903 21:18:26.197043 12819 net.cpp:434] detection_eval <- label
I0903 21:18:26.197052 12819 net.cpp:408] detection_eval -> detection_eval
I0903 21:18:26.197347 12819 net.cpp:150] Setting up detection_eval
I0903 21:18:26.197360 12819 net.cpp:157] Top shape: 1 1 4 5 (20)
I0903 21:18:26.197363 12819 net.cpp:165] Memory required for data: 1288552492
I0903 21:18:26.197369 12819 net.cpp:228] detection_eval does not need backward computation.
I0903 21:18:26.197376 12819 net.cpp:228] detection_out does not need backward computation.
I0903 21:18:26.197381 12819 net.cpp:228] mbox_conf_flatten does not need backward computation.
I0903 21:18:26.197387 12819 net.cpp:228] mbox_conf_softmax does not need backward computation.
…
