…
        min_scale: 0.3
        max_scale: 1
        min_aspect_ratio: 0.5
        max_aspect_ratio: 2
      }
      sample_constraint {
        min_jaccard_overlap: 0.9
      }
      max_sample: 1
      max_trials: 50
    }
    batch_sampler {
      sampler {
        min_scale: 0.3
        max_scale: 1
        min_aspect_ratio: 0.5
        max_aspect_ratio: 2
      }
      sample_constraint {
        max_jaccard_overlap: 1
      }
      max_sample: 1
      max_trials: 50
    }
    label_map_file: "data/BodyFaceHandRegions/labelmap_voc.prototxt"
  }
}
layer {
  name: "conv1"
  type: "Convolution"
  bottom: "data"
  top: "conv1"
  param {
    lr_mult: 1
    decay_mult: 1
  }
  convolution_param {
    num_output: 32
    bias_term: false
    pad: 1
    kernel_size: 3
    group: 1
    stride: 2
    weight_filler {
      type: "gaussian"
      std: 0.01
    }
    engine: DEFAULT
  }
}
layer {
  name: "conv1/bn"
  type: "BatchNorm"
  bottom: "conv1"
  top: "conv1"
  batch_norm_param {
    moving_average_fraction: 0.999
    eps: 0.001
  }
}
layer {
  name: "conv1/scale"
  type: "Scale"
  bottom: "conv1"
  top: "conv1"
  param {
    lr_mult: 1
    decay_mult: 0
  }
  param {
    lr_mult: 1
    decay_mult: 0
  }
  scale_param {
    filler {
      type: "constant"
      value: 1
    }
    bias_term: true
    bias_filler {
      type: "constant"
      value: 0
    }
  }
}
layer {
  name: "conv1_relu"
  type: "ReLU"
  bottom: "conv1"
  top: "conv1"
}
layer {
  name: "conv2_1/dw"
  type: "Convolution"
  bottom: "conv1"
  top: "conv2_1/dw"
  param {
    lr_mult: 1
    decay_mult: 1
  }
  convolution_param {
    num_output: 32
    bias_term: false
    pad: 1
    kernel_size: 3
    group: 32
    stride: 1
    weight_filler {
      type: "gaussian"
      std: 0.01
    }
    engine: CAFFE
  }
}
layer {
  name: "conv2_1/dw/bn"
  type: "BatchNorm"
  bottom: "conv2_1/dw"
  top: "conv2_1/dw"
  batch_norm_param {
    moving_average_fraction: 0.999
    eps: 0.001
  }
}
layer {
  name: "conv2_1/dw/scale"
  type: "Scale"
  bottom: "conv2_1/dw"
  top: "conv2_1/dw"
  param {
    lr_mult: 1
    decay_mult: 0
  }
  param {
    lr_mult: 1
    decay_mult: 0
  }
  scale_param {
    filler {
      type: "constant"
      value: 1
    }
    bias_term: true
    bias_filler {
      type: "constant"
      value: 0
    }
  }
}
layer {
  name: "conv2_1/dw_relu"
  type: "ReLU"
  bottom: "conv2_1/dw"
  top: "conv2_1/dw"
}
layer {
  name: "conv2_1/sep"
  type: "Convolution"
  bottom: "conv2_1/dw"
  top: "conv2_1/sep"
  param {
    lr_mult: 1
    decay_mult: 1
  }
  convolution_param {
    num_output: 64
    bias_term: false
    pad: 0
    kernel_size: 1
    group: 1
    stride: 1
    weight_filler {
      type: "gaussian"
      std: 0.01
    }
    engine: DEFAULT
  }
}
layer {
  name: "conv2_1/sep/bn"
  type: "BatchNorm"
  bottom: "conv2_1/sep"
  top: "conv2_1/sep"
  batch_norm_param {
    moving_average_fraction: 0.999
    eps: 0.001
  }
}
layer {
  name: "conv2_1/sep/scale"
  type: "Scale"
  bottom: "conv2_1/sep"
  top: "conv2_1/sep"
  param {
    lr_mult: 1
    decay_mult: 0
  }
  param {
    lr_mult: 1
    decay_mult: 0
  }
  scale_param {
    filler {
      type: "constant"
      value: 1
    }
    bias_term: true
    bias_filler {
      type: "constant"
      value: 0
    }
  }
}
layer {
  name: "conv2_1/sep_relu"
  type: "ReLU"
  bottom: "conv2_1/sep"
  top: "conv2_1/sep"
}
layer {
  name: "conv2_2/dw"
  type: "Convolution"
  bottom: "conv2_1/sep"
  top: "conv2_2/dw"
  param {
    lr_mult: 1
    decay_mult: 1
  }
  convolution_param {
    num_output: 64
    bias_term: false
    pad: 1
    kernel_size: 3
    group: 64
    stride: 2
    weight_filler {
      type: "gaussian"
      std: 0.01
    }
    engine: CAFFE
  }
}
layer {
  name: "conv2_2/dw/bn"
  type: "BatchNorm"
  bottom: "conv2_2/dw"
  top: "conv2_2/dw"
  batch_norm_param {
    moving_average_fraction: 0.999
    eps: 0.001
  }
}
layer {
  name: "conv2_2/dw/scale"
  type: "Scale"
  bottom: "conv2_2/dw"
  top: "conv2_2/dw"
  param {
    lr_mult: 1
    decay_mult: 0
  }
  param {
    lr_mult: 1
    decay_mult: 0
  }
  scale_param {
    filler {
      type: "constant"
      value: 1
    }
    bias_term: true
    bias_filler {
      type: "constant"
      value: 0
    }
  }
}
layer {
  name: "conv2_2/dw_relu"
  type: "ReLU"
  bottom: "conv2_2/dw"
  top: "conv2_2/dw"
}
layer {
  name: "conv2_2/sep"
  type: "Convolution"
  bottom: "conv2_2/dw"
  top: "conv2_2/sep"
  param {
    lr_mult: 1
    decay_mult: 1
  }
  convolution_param {
    num_output: 128
    bias_term: false
    pad: 0
    kernel_size: 1
    group: 1
    stride: 1
    weight_filler {
      type: "gaussian"
      std: 0.01
    }
    engine: DEFAULT
  }
}
layer {
  name: "conv2_2/sep/bn"
  type: "BatchNorm"
  bottom: "conv2_2/sep"
  top: "conv2_2/sep"
  batch_norm_param {
    moving_average_fraction: 0.999
    eps: 0.001
  }
}
layer {
  name: "conv2_2/sep/scale"
  type: "Scale"
  bottom: "conv2_2/sep"
  top: "conv2_2/sep"
  param {
    lr_mult: 1
    decay_mult: 0
  }
  param {
    lr_mult: 1
    decay_mult: 0
  }
  scale_param {
    filler {
      type: "constant"
      value: 1
    }
    bias_term: true
    bias_filler {
      type: "constant"
      value: 0
    }
  }
}
layer {
  name: "conv2_2/sep_relu"
  type: "ReLU"
  bottom: "conv2_2/sep"
  top: "conv2_2/sep"
}
layer {
  name: "conv3_1/dw"
  type: "Convolution"
  bottom: "conv2_2/sep"
  top: "conv3_1/dw"
  param {
    lr_mult: 1
    decay_mult: 1
  }
  convolution_param {
    num_output: 128
    bias_term: false
    pad: 1
    kernel_size: 3
    group: 128
    stride: 1
    weight_filler {
      type: "gaussian"
      std: 0.01
    }
    engine: CAFFE
  }
}
layer {
  name: "conv3_1/dw/bn"
  type: "BatchNorm"
  bottom: "conv3_1/dw"
  top: "conv3_1/dw"
  batch_norm_param {
    moving_average_fraction: 0.999
    eps: 0.001
  }
}
layer {
  name: "conv3_1/dw/scale"
  type: "Scale"
  bottom: "conv3_1/dw"
  top: "conv3_1/dw"
  param {
    lr_mult: 1
    decay_mult: 0
  }
  param {
    lr_mult: 1
    decay_mult: 0
  }
  scale_param {
    filler {
      type: "constant"
      value: 1
    }
    bias_term: true
    bias_filler {
      type: "constant"
      value: 0
    }
  }
}
layer {
  name: "conv3_1/dw_relu"
  type: "ReLU"
  bottom: "conv3_1/dw"
  top: "conv3_1/dw"
}
layer {
  name: "conv3_1/sep"
  type: "Convolution"
  bottom: "conv3_1/dw"
  top: "conv3_1/sep"
  param {
    lr_mult: 1
    decay_mult: 1
  }
  convolution_param {
    num_output: 128
    bias_term: false
    pad: 0
    kernel_size: 1
    group: 1
    stride: 1
    weight_filler {
      type: "gaussian"
      std: 0.01
    }
    engine: DEFAULT
  }
}
layer {
  name: "conv3_1/sep/bn"
  type: "BatchNorm"
  bottom: "conv3_1/sep"
  top: "conv3_1/sep"
  batch_norm_param {
    moving_average_fraction: 0.999
    eps: 0.001
  }
}
layer {
  name: "conv3_1/sep/scale"
  type: "Scale"
  bottom: "conv3_1/sep"
  top: "conv3_1/sep"
  param {
    lr_mult: 1
    decay_mult: 0
  }
  param {
    lr_mult: 1
    decay_mult: 0
  }
  scale_param {
    filler {
      type: "constant"
      value: 1
    }
    bias_term: true
    bias_filler {
      type: "constant"
      value: 0
    }
  }
}
layer {
  name: "conv3_1/sep_relu"
  type: "ReLU"
  bottom: "conv3_1/sep"
  top: "conv3_1/sep"
}
layer {
  name: "conv3_2/dw"
  type: "Convolution"
  bottom: "conv3_1/sep"
  top: "conv3_2/dw"
  param {
    lr_mult: 1
    decay_mult: 1
  }
  convolution_param {
    num_output: 128
    bias_term: false
    pad: 1
    kernel_size: 3
    group: 128
    stride: 2
    weight_filler {
      type: "gaussian"
      std: 0.01
    }
    engine: CAFFE
  }
}
layer {
  name: "conv3_2/dw/bn"
  type: "BatchNorm"
  bottom: "conv3_2/dw"
  top: "conv3_2/dw"
  batch_norm_param {
    moving_average_fraction: 0.999
    eps: 0.001
  }
}
layer {
  name: "conv3_2/dw/scale"
  type: "Scale"
  bottom: "conv3_2/dw"
  top: "conv3_2/dw"
  param {
    lr_mult: 1
    decay_mult: 0
  }
  param {
    lr_mult: 1
    decay_mult: 0
  }
  scale_param {
    filler {
      type: "constant"
      value: 1
    }
    bias_term: true
    bias_filler {
      type: "constant"
      value: 0
    }
  }
}
layer {
  name: "conv3_2/dw_relu"
  type: "ReLU"
  bottom: "conv3_2/dw"
  top: "conv3_2/dw"
}
layer {
  name: "conv3_2/sep"
  type: "Convolution"
  bottom: "conv3_2/dw"
  top: "conv3_2/sep"
  param {
    lr_mult: 1
    decay_mult: 1
  }
  convolution_param {
    num_output: 256
    bias_term: false
    pad: 0
    kernel_size: 1
    group: 1
    stride: 1
    weight_filler {
      type: "gaussian"
      std: 0.01
    }
    engine: DEFAULT
  }
}
layer {
  name: "conv3_2/sep/bn"
  type: "BatchNorm"
  bottom: "conv3_2/sep"
  top: "conv3_2/sep"
  batch_norm_param {
    moving_average_fraction: 0.999
    eps: 0.001
  }
}
layer {
  name: "conv3_2/sep/scale"
  type: "Scale"
  bottom: "conv3_2/sep"
  top: "conv3_2/sep"
  param {
    lr_mult: 1
    decay_mult: 0
  }
  param {
    lr_mult: 1
    decay_mult: 0
  }
  scale_param {
    filler {
      type: "constant"
      value: 1
    }
    bias_term: true
    bias_filler {
      type: "constant"
      value: 0
    }
  }
}
layer {
  name: "conv3_2/sep_relu"
  type: "ReLU"
  bottom: "conv3_2/sep"
  top: "conv3_2/sep"
}
layer {
  name: "conv4_1/dw"
  type: "Convolution"
  bottom: "conv3_2/sep"
  top: "conv4_1/dw"
  param {
    lr_mult: 1
    decay_mult: 1
  }
  convolution_param {
    num_output: 256
    bias_term: false
    pad: 1
    kernel_size: 3
    group: 256
    stride: 1
    weight_filler {
      type: "gaussian"
      std: 0.01
    }
    engine: CAFFE
  }
}
layer {
  name: "conv4_1/dw/bn"
  type: "BatchNorm"
  bottom: "conv4_1/dw"
  top: "conv4_1/dw"
  batch_norm_param {
    moving_average_fraction: 0.999
    eps: 0.001
  }
}
layer {
  name: "conv4_1/dw/scale"
  type: "Scale"
  bottom: "conv4_1/dw"
  top: "conv4_1/dw"
  param {
    lr_mult: 1
    decay_mult: 0
  }
  param {
    lr_mult: 1
    decay_mult: 0
  }
  scale_param {
    filler {
      type: "constant"
      value: 1
    }
    bias_term: true
    bias_filler {
      type: "constant"
      value: 0
    }
  }
}
layer {
  name: "conv4_1/dw_relu"
  type: "ReLU"
  bottom: "conv4_1/dw"
  top: "conv4_1/dw"
}
layer {
  name: "conv4_1/sep"
  type: "Convolution"
  bottom: "conv4_1/dw"
  top: "conv4_1/sep"
  param {
    lr_mult: 1
    decay_mult: 1
  }
  convolution_param {
    num_output: 256
    bias_term: false
    pad: 0
    kernel_size: 1
    group: 1
    stride: 1
    weight_filler {
      type: "gaussian"
      std: 0.01
    }
    engine: DEFAULT
  }
}
layer {
  name: "conv4_1/sep/bn"
  type: "BatchNorm"
  bottom: "conv4_1/sep"
  top: "conv4_1/sep"
  batch_norm_param {
    moving_average_fraction: 0.999
    eps: 0.001
  }
}
layer {
  name: "conv4_1/sep/scale"
  type: "Scale"
  bottom: "conv4_1/sep"
  top: "conv4_1/sep"
  param {
    lr_mult: 1
    decay_mult: 0
  }
  param {
    lr_mult: 1
    decay_mult: 0
  }
  scale_param {
    filler {
      type: "constant"
      value: 1
    }
    bias_term: true
    bias_filler {
      type: "constant"
      value: 0
    }
  }
}
layer {
  name: "conv4_1/sep_relu"
  type: "ReLU"
  bottom: "conv4_1/sep"
  top: "conv4_1/sep"
}
layer {
  name: "conv4_2/dw"
  type: "Convolution"
  bottom: "conv4_1/sep"
  top: "conv4_2/dw"
  param {
    lr_mult: 1
    decay_mult: 1
  }
  convolution_param {
    num_output: 256
    bias_term: false
    pad: 1
    kernel_size: 3
    group: 256
    stride: 2
    weight_filler {
      type: "gaussian"
      std: 0.01
    }
    engine: CAFFE
  }
}
layer {
  name: "conv4_2/dw/bn"
  type: "BatchNorm"
  bottom: "conv4_2/dw"
  top: "conv4_2/dw"
  batch_norm_param {
    moving_average_fraction: 0.999
    eps: 0.001
  }
}
layer {
  name: "conv4_2/dw/scale"
  type: "Scale"
  bottom: "conv4_2/dw"
  top: "conv4_2/dw"
  param {
    lr_mult: 1
    decay_mult: 0
  }
  param {
    lr_mult: 1
    decay_mult: 0
  }
  scale_param {
    filler {
      type: "constant"
      value: 1
    }
    bias_term: true
    bias_filler {
      type: "constant"
      value: 0
    }
  }
}
layer {
  name: "conv4_2/dw_relu"
  type: "ReLU"
  bottom: "conv4_2/dw"
  top: "conv4_2/dw"
}
layer {
  name: "conv4_2/sep"
  type: "Convolution"
  bottom: "conv4_2/dw"
  top: "conv4_2/sep"
  param {
    lr_mult: 1
    decay_mult: 1
  }
  convolution_param {
    num_output: 512
    bias_term: false
    pad: 0
    kernel_size: 1
    group: 1
    stride: 1
    weight_filler {
      type: "gaussian"
      std: 0.01
    }
    engine: DEFAULT
  }
}
layer {
  name: "conv4_2/sep/bn"
  type: "BatchNorm"
  bottom: "conv4_2/sep"
  top: "conv4_2/sep"
  batch_norm_param {
    moving_average_fraction: 0.999
    eps: 0.001
  }
}
layer {
  name: "conv4_2/sep/scale"
  type: "Scale"
  bottom: "conv4_2/sep"
  top: "conv4_2/sep"
  param {
    lr_mult: 1
    decay_mult: 0
  }
  param {
    lr_mult: 1
    decay_mult: 0
  }
  scale_param {
    filler {
      type: "constant"
      value: 1
    }
    bias_term: true
    bias_filler {
      type: "constant"
      value: 0
    }
  }
}
layer {
  name: "conv4_2/sep_relu"
  type: "ReLU"
  bottom: "conv4_2/sep"
  top: "conv4_2/sep"
}
layer {
  name: "conv5_1/dw"
  type: "Convolution"
  bottom: "conv4_2/sep"
  top: "conv5_1/dw"
  param {
    lr_mult: 1
    decay_mult: 1
  }
  convolution_param {
    num_output: 512
    bias_term: false
    pad: 1
    kernel_size: 3
    group: 512
    stride: 1
    weight_filler {
      type: "gaussian"
      std: 0.01
    }
    engine: CAFFE
  }
}
layer {
  name: "conv5_1/dw/bn"
  type: "BatchNorm"
  bottom: "conv5_1/dw"
  top: "conv5_1/dw"
  batch_norm_param {
    moving_average_fraction: 0.999
    eps: 0.001
  }
}
layer {
  name: "conv5_1/dw/scale"
  type: "Scale"
  bottom: "conv5_1/dw"
  top: "conv5_1/dw"
  param {
    lr_mult: 1
    decay_mult: 0
  }
  param {
    lr_mult: 1
    decay_mult: 0
  }
  scale_param {
    filler {
      type: "constant"
      value: 1
    }
    bias_term: true
    bias_filler {
      type: "constant"
      value: 0
    }
  }
}
layer {
  name: "conv5_1/dw_relu"
  type: "ReLU"
  bottom: "conv5_1/dw"
  top: "conv5_1/dw"
}
layer {
  name: "conv5_1/sep"
  type: "Convolution"
  bottom: "conv5_1/dw"
  top: "conv5_1/sep"
  param {
    lr_mult: 1
    decay_mult: 1
  }
  convolution_param {
    num_output: 512
    bias_term: false
    pad: 0
    kernel_size: 1
    group: 1
    stride: 1
    weight_filler {
      type: "gaussian"
      std: 0.01
    }
    engine: DEFAULT
  }
}
layer {
  name: "conv5_1/sep/bn"
  type: "BatchNorm"
  bottom: "conv5_1/sep"
  top: "conv5_1/sep"
  batch_norm_param {
    moving_average_fraction: 0.999
    eps: 0.001
  }
}
layer {
  name: "conv5_1/sep/scale"
  type: "Scale"
  bottom: "conv5_1/sep"
  top: "conv5_1/sep"
  param {
    lr_mult: 1
    decay_mult: 0
  }
  param {
    lr_mult: 1
    decay_mult: 0
  }
  scale_param {
    filler {
      type: "constant"
      value: 1
    }
    bias_term: true
    bias_filler {
      type: "constant"
      value: 0
    }
  }
}
layer {
  name: "conv5_1/sep_relu"
  type: "ReLU"
  bottom: "conv5_1/sep"
  top: "conv5_1/sep"
}
layer {
  name: "conv5_2/dw"
  type: "Convolution"
  bottom: "conv5_1/sep"
  top: "conv5_2/dw"
  param {
    lr_mult: 1
    decay_mult: 1
  }
  convolution_param {
    num_output: 512
    bias_term: false
    pad: 1
    kernel_size: 3
    group: 512
    stride: 1
    weight_filler {
      type: "gaussian"
      std: 0.01
    }
    engine: CAFFE
  }
}
layer {
  name: "conv5_2/dw/bn"
  type: "BatchNorm"
  bottom: "conv5_2/dw"
  top: "conv5_2/dw"
  batch_norm_param {
    moving_average_fraction: 0.999
    eps: 0.001
  }
}
layer {
  name: "conv5_2/dw/scale"
  type: "Scale"
  bottom: "conv5_2/dw"
  top: "conv5_2/dw"
  param {
    lr_mult: 1
    decay_mult: 0
  }
  param {
    lr_mult: 1
    decay_mult: 0
  }
  scale_param {
    filler {
      type: "constant"
      value: 1
    }
    bias_term: true
    bias_filler {
      type: "constant"
      value: 0
    }
  }
}
layer {
  name: "conv5_2/dw_relu"
  type: "ReLU"
  bottom: "conv5_2/dw"
  top: "conv5_2/dw"
}
layer {
  name: "conv5_2/sep"
  type: "Convolution"
  bottom: "conv5_2/dw"
  top: "conv5_2/sep"
  param {
    lr_mult: 1
    decay_mult: 1
  }
  convolution_param {
    num_output: 512
    bias_term: false
    pad: 0
    kernel_size: 1
    group: 1
    stride: 1
    weight_filler {
      type: "gaussian"
      std: 0.01
    }
    engine: DEFAULT
  }
}
layer {
  name: "conv5_2/sep/bn"
  type: "BatchNorm"
  bottom: "conv5_2/sep"
  top: "conv5_2/sep"
  batch_norm_param {
    moving_average_fraction: 0.999
    eps: 0.001
  }
}
layer {
  name: "conv5_2/sep/scale"
  type: "Scale"
  bottom: "conv5_2/sep"
  top: "conv5_2/sep"
  param {
    lr_mult: 1
    decay_mult: 0
  }
  param {
    lr_mult: 1
    decay_mult: 0
  }
  scale_param {
    filler {
      type: "constant"
      value: 1
    }
    bias_term: true
    bias_filler {
      type: "constant"
      value: 0
    }
  }
}
layer {
  name: "conv5_2/sep_relu"
  type: "ReLU"
  bottom: "conv5_2/sep"
  top: "conv5_2/sep"
}
layer {
  name: "conv5_3/dw"
  type: "Convolution"
  bottom: "conv5_2/sep"
  top: "conv5_3/dw"
  param {
    lr_mult: 1
    decay_mult: 1
  }
  convolution_param {
    num_output: 512
    bias_term: false
    pad: 1
    kernel_size: 3
    group: 512
    stride: 1
    weight_filler {
      type: "gaussian"
      std: 0.01
    }
    engine: CAFFE
  }
}
layer {
  name: "conv5_3/dw/bn"
  type: "BatchNorm"
  bottom: "conv5_3/dw"
  top: "conv5_3/dw"
  batch_norm_param {
    moving_average_fraction: 0.999
    eps: 0.001
  }
}
layer {
  name: "conv5_3/dw/scale"
  type: "Scale"
  bottom: "conv5_3/dw"
  top: "conv5_3/dw"
  param {
    lr_mult: 1
    decay_mult: 0
  }
  param {
    lr_mult: 1
    decay_mult: 0
  }
  scale_param {
    filler {
      type: "constant"
      value: 1
    }
    bias_term: true
    bias_filler {
      type: "constant"
      value: 0
    }
  }
}
layer {
  name: "conv5_3/dw_relu"
  type: "ReLU"
  bottom: "conv5_3/dw"
  top: "conv5_3/dw"
}
layer {
  name: "conv5_3/sep"
  type: "Convolution"
  bottom: "conv5_3/dw"
  top: "conv5_3/sep"
  param {
    lr_mult: 1
    decay_mult: 1
  }
  convolution_param {
    num_output: 512
    bias_term: false
    pad: 0
    kernel_size: 1
    group: 1
    stride: 1
    weight_filler {
      type: "gaussian"
      std: 0.01
    }
    engine: DEFAULT
  }
}
layer {
  name: "conv5_3/sep/bn"
  type: "BatchNorm"
  bottom: "conv5_3/sep"
  top: "conv5_3/sep"
  batch_norm_param {
    moving_average_fraction: 0.999
    eps: 0.001
  }
}
layer {
  name: "conv5_3/sep/scale"
  type: "Scale"
  bottom: "conv5_3/sep"
  top: "conv5_3/sep"
  param {
    lr_mult: 1
    decay_mult: 0
  }
  param {
    lr_mult: 1
    decay_mult: 0
  }
  scale_param {
    filler {
      type: "constant"
      value: 1
    }
    bias_term: true
    bias_filler {
      type: "constant"
      value: 0
    }
  }
}
layer {
  name: "conv5_3/sep_relu"
  type: "ReLU"
  bottom: "conv5_3/sep"
  top: "conv5_3/sep"
}
layer {
  name: "conv5_4/dw"
  type: "Convolution"
  bottom: "conv5_3/sep"
  top: "conv5_4/dw"
  param {
    lr_mult: 1
    decay_mult: 1
  }
  convolution_param {
    num_output: 512
    bias_term: false
    pad: 1
    kernel_size: 3
    group: 512
    stride: 1
    weight_filler {
      type: "gaussian"
      std: 0.01
    }
    engine: CAFFE
  }
}
layer {
  name: "conv5_4/dw/bn"
  type: "BatchNorm"
  bottom: "conv5_4/dw"
  top: "conv5_4/dw"
  batch_norm_param {
    moving_average_fraction: 0.999
    eps: 0.001
  }
}
layer {
  name: "conv5_4/dw/scale"
  type: "Scale"
  bottom: "conv5_4/dw"
  top: "conv5_4/dw"
  param {
    lr_mult: 1
    decay_mult: 0
  }
  param {
    lr_mult: 1
    decay_mult: 0
  }
  scale_param {
    filler {
      type: "constant"
      value: 1
    }
    bias_term: true
    bias_filler {
      type: "constant"
      value: 0
    }
  }
}
layer {
  name: "conv5_4/dw_relu"
  type: "ReLU"
  bottom: "conv5_4/dw"
  top: "conv5_4/dw"
}
layer {
  name: "conv5_4/sep"
  type: "Convolution"
  bottom: "conv5_4/dw"
  top: "conv5_4/sep"
  param {
    lr_mult: 1
    decay_mult: 1
  }
  convolution_param {
    num_output: 512
    bias_term: false
    pad: 0
    kernel_size: 1
    group: 1
    stride: 1
    weight_filler {
      type: "gaussian"
      std: 0.01
    }
    engine: DEFAULT
  }
}
layer {
  name: "conv5_4/sep/bn"
  type: "BatchNorm"
  bottom: "conv5_4/sep"
  top: "conv5_4/sep"
  batch_norm_param {
    moving_average_fraction: 0.999
    eps: 0.001
  }
}
layer {
  name: "conv5_4/sep/scale"
  type: "Scale"
  bottom: "conv5_4/sep"
  top: "conv5_4/sep"
  param {
    lr_mult: 1
    decay_mult: 0
  }
  param {
    lr_mult: 1
    decay_mult: 0
  }
  scale_param {
    filler {
      type: "constant"
      value: 1
    }
    bias_term: true
    bias_filler {
      type: "constant"
      value: 0
    }
  }
}
layer {
  name: "conv5_4/sep_relu"
  type: "ReLU"
  bottom: "conv5_4/sep"
  top: "conv5_4/sep"
}
layer {
  name: "conv5_5/dw"
  type: "Convolution"
  bottom: "conv5_4/sep"
  top: "conv5_5/dw"
  param {
    lr_mult: 1
    decay_mult: 1
  }
  convolution_param {
    num_output: 512
    bias_term: false
    pad: 1
    kernel_size: 3
    group: 512
    stride: 1
    weight_filler {
      type: "gaussian"
      std: 0.01
    }
    engine: CAFFE
  }
}
layer {
  name: "conv5_5/dw/bn"
  type: "BatchNorm"
  bottom: "conv5_5/dw"
  top: "conv5_5/dw"
  batch_norm_param {
    moving_average_fraction: 0.999
    eps: 0.001
  }
}
layer {
  name: "conv5_5/dw/scale"
  type: "Scale"
  bottom: "conv5_5/dw"
  top: "conv5_5/dw"
  param {
    lr_mult: 1
    decay_mult: 0
  }
  param {
    lr_mult: 1
    decay_mult: 0
  }
  scale_param {
    filler {
      type: "constant"
      value: 1
    }
    bias_term: true
    bias_filler {
      type: "constant"
      value: 0
    }
  }
}
layer {
  name: "conv5_5/dw_relu"
  type: "ReLU"
  bottom: "conv5_5/dw"
  top: "conv5_5/dw"
}
layer {
  name: "conv5_5/sep"
  type: "Convolution"
  bottom: "conv5_5/dw"
  top: "conv5_5/sep"
  param {
    lr_mult: 1
    decay_mult: 1
  }
  convolution_param {
    num_output: 512
    bias_term: false
    pad: 0
    kernel_size: 1
    group: 1
    stride: 1
    weight_filler {
      type: "gaussian"
      std: 0.01
    }
    engine: DEFAULT
  }
}
layer {
  name: "conv5_5/sep/bn"
  type: "BatchNorm"
  bottom: "conv5_5/sep"
  top: "conv5_5/sep"
  batch_norm_param {
    moving_average_fraction: 0.999
    eps: 0.001
  }
}
layer {
  name: "conv5_5/sep/scale"
  type: "Scale"
  bottom: "conv5_5/sep"
  top: "conv5_5/sep"
  param {
    lr_mult: 1
    decay_mult: 0
  }
  param {
    lr_mult: 1
    decay_mult: 0
  }
  scale_param {
    filler {
      type: "constant"
      value: 1
    }
    bias_term: true
    bias_filler {
      type: "constant"
      value: 0
    }
  }
}
layer {
  name: "conv5_5/sep_relu"
  type: "ReLU"
  bottom: "conv5_5/sep"
  top: "conv5_5/sep"
}
layer {
  name: "conv5_6/dw"
  type: "Convolution"
  bottom: "conv5_5/sep"
  top: "conv5_6/dw"
  param {
    lr_mult: 1
    decay_mult: 1
  }
  convolution_param {
    num_output: 512
    bias_term: false
    pad: 1
    kernel_size: 3
    group: 512
    stride: 2
    weight_filler {
      type: "gaussian"
      std: 0.01
    }
    engine: CAFFE
  }
}
layer {
  name: "conv5_6/dw/bn"
  type: "BatchNorm"
  bottom: "conv5_6/dw"
  top: "conv5_6/dw"
  batch_norm_param {
    moving_average_fraction: 0.999
    eps: 0.001
  }
}
layer {
  name: "conv5_6/dw/scale"
  type: "Scale"
  bottom: "conv5_6/dw"
  top: "conv5_6/dw"
  param {
    lr_mult: 1
    decay_mult: 0
  }
  param {
    lr_mult: 1
    decay_mult: 0
  }
  scale_param {
    filler {
      type: "constant"
      value: 1
    }
    bias_term: true
    bias_filler {
      type: "constant"
      value: 0
    }
  }
}
layer {
  name: "conv5_6/dw_relu"
  type: "ReLU"
  bottom: "conv5_6/dw"
  top: "conv5_6/dw"
}
layer {
  name: "conv5_6/sep"
  type: "Convolution"
  bottom: "conv5_6/dw"
  top: "conv5_6/sep"
  param {
    lr_mult: 1
    decay_mult: 1
  }
  convolution_param {
    num_output: 1024
    bias_term: false
    pad: 0
    kernel_size: 1
    group: 1
    stride: 1
    weight_filler {
      type: "gaussian"
      std: 0.01
    }
    engine: DEFAULT
  }
}
layer {
  name: "conv5_6/sep/bn"
  type: "BatchNorm"
  bottom: "conv5_6/sep"
  top: "conv5_6/sep"
  batch_norm_param {
    moving_average_fraction: 0.999
    eps: 0.001
  }
}
layer {
  name: "conv5_6/sep/scale"
  type: "Scale"
  bottom: "conv5_6/sep"
  top: "conv5_6/sep"
  param {
    lr_mult: 1
    decay_mult: 0
  }
  param {
    lr_mult: 1
    decay_mult: 0
  }
  scale_param {
    filler {
      type: "constant"
      value: 1
    }
    bias_term: true
    bias_filler {
      type: "constant"
      value: 0
    }
  }
}
layer {
  name: "conv5_6/sep_relu"
  type: "ReLU"
  bottom: "conv5_6/sep"
  top: "conv5_6/sep"
}
layer {
  name: "conv6/dw"
  type: "Convolution"
  bottom: "conv5_6/sep"
  top: "conv6/dw"
  param {
    lr_mult: 1
    decay_mult: 1
  }
  convolution_param {
    num_output: 1024
    bias_term: false
    pad: 1
    kernel_size: 3
    group: 1024
    stride: 1
    weight_filler {
      type: "gaussian"
      std: 0.01
    }
    engine: CAFFE
  }
}
layer {
  name: "conv6/dw/bn"
  type: "BatchNorm"
  bottom: "conv6/dw"
  top: "conv6/dw"
  batch_norm_param {
    moving_average_fraction: 0.999
    eps: 0.001
  }
}
layer {
  name: "conv6/dw/scale"
  type: "Scale"
  bottom: "conv6/dw"
  top: "conv6/dw"
  param {
    lr_mult: 1
    decay_mult: 0
  }
  param {
    lr_mult: 1
    decay_mult: 0
  }
  scale_param {
    filler {
      type: "constant"
      value: 1
    }
    bias_term: true
    bias_filler {
      type: "constant"
      value: 0
    }
  }
}
layer {
  name: "conv6/dw_relu"
  type: "ReLU"
  bottom: "conv6/dw"
  top: "conv6/dw"
}
layer {
  name: "conv6/sep"
  type: "Convolution"
  bottom: "conv6/dw"
  top: "conv6/sep"
  param {
    lr_mult: 1
    decay_mult: 1
  }
  convolution_param {
    num_output: 1024
    bias_term: false
    pad: 0
    kernel_size: 1
    group: 1
    stride: 1
    weight_filler {
      type: "gaussian"
      std: 0.01
    }
    engine: DEFAULT
  }
}
layer {
  name: "conv6/sep/bn"
  type: "BatchNorm"
  bottom: "conv6/sep"
  top: "conv6/sep"
  batch_norm_param {
    moving_average_fraction: 0.999
    eps: 0.001
  }
}
layer {
  name: "conv6/sep/scale"
  type: "Scale"
  bottom: "conv6/sep"
  top: "conv6/sep"
  param {
    lr_mult: 1
    decay_mult: 0
  }
  param {
    lr_mult: 1
    decay_mult: 0
  }
  scale_param {
    filler {
      type: "constant"
      value: 1
    }
    bias_term: true
    bias_filler {
      type: "constant"
      value: 0
    }
  }
}
layer {
  name: "conv6/sep_relu"
  type: "ReLU"
  bottom: "conv6/sep"
  top: "conv6/sep"
}
layer {
  name: "conv7_1"
  type: "Convolution"
  bottom: "conv6/sep"
  top: "conv7_1"
  param {
    lr_mult: 1
    decay_mult: 1
  }
  param {
    lr_mult: 2
    decay_mult: 0
  }
  convolution_param {
    num_output: 256
    pad: 0
    kernel_size: 1
    group: 1
    stride: 1
    weight_filler {
      type: "xavier"
    }
    bias_filler {
      type: "constant"
      value: 0
    }
    engine: DEFAULT
  }
}
layer {
  name: "conv7_1_relu"
  type: "ReLU"
  bottom: "conv7_1"
  top: "conv7_1"
}
layer {
  name: "conv7_2"
  type: "Convolution"
  bottom: "conv7_1"
  top: "conv7_2"
  param {
    lr_mult: 1
    decay_mult: 1
  }
  param {
    lr_mult: 2
    decay_mult: 0
  }
  convolution_param {
    num_output: 512
    pad: 1
    kernel_size: 3
    group: 1
    stride: 2
    weight_filler {
      type: "xavier"
    }
    bias_filler {
      type: "constant"
      value: 0
    }
    engine: DEFAULT
  }
}
layer {
  name: "conv7_2_relu"
  type: "ReLU"
  bottom: "con
I0903 21:18:58.665000 12836 layer_factory.hpp:77] Creating layer data
I0903 21:18:58.665139 12836 net.cpp:100] Creating Layer data
I0903 21:18:58.665154 12836 net.cpp:408] data -> data
I0903 21:18:58.665184 12836 net.cpp:408] data -> label
I0903 21:18:58.666242 12843 db_lmdb.cpp:35] Opened lmdb data/BodyFaceHandRegions/lmdb/oxford_viva_lmdb
I0903 21:18:58.678846 12836 annotated_data_layer.cpp:62] output data size: 16,3,300,300
I0903 21:18:58.705140 12836 net.cpp:150] Setting up data
I0903 21:18:58.705168 12836 net.cpp:157] Top shape: 16 3 300 300 (4320000)
I0903 21:18:58.705173 12836 net.cpp:157] Top shape: 1 1 4 8 (32)
I0903 21:18:58.705176 12836 net.cpp:165] Memory required for data: 17280128
I0903 21:18:58.705186 12836 layer_factory.hpp:77] Creating layer data_data_0_split
I0903 21:18:58.705199 12836 net.cpp:100] Creating Layer data_data_0_split
I0903 21:18:58.705205 12836 net.cpp:434] data_data_0_split <- data
I0903 21:18:58.705220 12836 net.cpp:408] data_data_0_split -> data_data_0_split_0
I0903 21:18:58.705230 12836 net.cpp:408] data_data_0_split -> data_data_0_split_1
I0903 21:18:58.705236 12836 net.cpp:408] data_data_0_split -> data_data_0_split_2
I0903 21:18:58.705245 12836 net.cpp:408] data_data_0_split -> data_data_0_split_3
I0903 21:18:58.705251 12836 net.cpp:408] data_data_0_split -> data_data_0_split_4
I0903 21:18:58.705256 12836 net.cpp:408] data_data_0_split -> data_data_0_split_5
I0903 21:18:58.705262 12836 net.cpp:408] data_data_0_split -> data_data_0_split_6
I0903 21:18:58.705379 12836 net.cpp:150] Setting up data_data_0_split
I0903 21:18:58.705385 12836 net.cpp:157] Top shape: 16 3 300 300 (4320000)
I0903 21:18:58.705390 12836 net.cpp:157] Top shape: 16 3 300 300 (4320000)
I0903 21:18:58.705394 12836 net.cpp:157] Top shape: 16 3 300 300 (4320000)
I0903 21:18:58.705399 12836 net.cpp:157] Top shape: 16 3 300 300 (4320000)
I0903 21:18:58.705404 12836 net.cpp:157] Top shape: 16 3 300 300 (4320000)
I0903 21:18:58.705409 12836 net.cpp:157] Top shape: 16 3 300 300 (4320000)
I0903 21:18:58.705413 12836 net.cpp:157] Top shape: 16 3 300 300 (4320000)
I0903 21:18:58.705417 12836 net.cpp:165] Memory required for data: 138240128
I0903 21:18:58.705420 12836 layer_factory.hpp:77] Creating layer conv1
I0903 21:18:58.705443 12836 net.cpp:100] Creating Layer conv1
I0903 21:18:58.705448 12836 net.cpp:434] conv1 <- data_data_0_split_0
I0903 21:18:58.705456 12836 net.cpp:408] conv1 -> conv1
I0903 21:18:58.844761 12844 blocking_queue.cpp:50] Waiting for data
I0903 21:18:58.929251 12836 net.cpp:150] Setting up conv1
I0903 21:18:58.929280 12836 net.cpp:157] Top shape: 16 32 150 150 (11520000)
I0903 21:18:58.929281 12836 net.cpp:165] Memory required for data: 184320128
I0903 21:18:58.929297 12836 layer_factory.hpp:77] Creating layer conv1/bn
I0903 21:18:58.929307 12836 net.cpp:100] Creating Layer conv1/bn
I0903 21:18:58.929312 12836 net.cpp:434] conv1/bn <- conv1
I0903 21:18:58.929321 12836 net.cpp:395] conv1/bn -> conv1 (in-place)
I0903 21:18:58.929925 12836 net.cpp:150] Setting up conv1/bn
I0903 21:18:58.929937 12836 net.cpp:157] Top shape: 16 32 150 150 (11520000)
I0903 21:18:58.929939 12836 net.cpp:165] Memory required for data: 230400128
I0903 21:18:58.929949 12836 layer_factory.hpp:77] Creating layer conv1/scale
I0903 21:18:58.929960 12836 net.cpp:100] Creating Layer conv1/scale
I0903 21:18:58.929961 12836 net.cpp:434] conv1/scale <- conv1
I0903 21:18:58.929967 12836 net.cpp:395] conv1/scale -> conv1 (in-place)
I0903 21:18:58.930006 12836 layer_factory.hpp:77] Creating layer conv1/scale
I0903 21:18:58.930124 12836 net.cpp:150] Setting up conv1/scale
I0903 21:18:58.930132 12836 net.cpp:157] Top shape: 16 32 150 150 (11520000)
I0903 21:18:58.930136 12836 net.cpp:165] Memory required for data: 276480128
I0903 21:18:58.930143 12836 layer_factory.hpp:77] Creating layer conv1_relu
I0903 21:18:58.930150 12836 net.cpp:100] Creating Layer conv1_relu
I0903 21:18:58.930155 12836 net.cpp:434] conv1_relu <- conv1
I0903 21:18:58.930158 12836 net.cpp:395] conv1_relu -> conv1 (in-place)
I0903 21:18:58.930310 12836 net.cpp:150] Setting up conv1_relu
I0903 21:18:58.930320 12836 net.cpp:157] Top shape: 16 32 150 150 (11520000)
I0903 21:18:58.930322 12836 net.cpp:165] Memory required for data: 322560128
I0903 21:18:58.930326 12836 layer_factory.hpp:77] Creating layer conv2_1/dw
I0903 21:18:58.930336 12836 net.cpp:100] Creating Layer conv2_1/dw
I0903 21:18:58.930341 12836 net.cpp:434] conv2_1/dw <- conv1
I0903 21:18:58.930346 12836 net.cpp:408] conv2_1/dw -> conv2_1/dw
I0903 21:18:58.930501 12836 net.cpp:150] Setting up conv2_1/dw
I0903 21:18:58.930508 12836 net.cpp:157] Top shape: 16 32 150 150 (11520000)
I0903 21:18:58.930512 12836 net.cpp:165] Memory required for data: 368640128
I0903 21:18:58.930517 12836 layer_factory.hpp:77] Creating layer conv2_1/dw/bn
I0903 21:18:58.930523 12836 net.cpp:100] Creating Layer conv2_1/dw/bn
I0903 21:18:58.930526 12836 net.cpp:434] conv2_1/dw/bn <- conv2_1/dw
I0903 21:18:58.930532 12836 net.cpp:395] conv2_1/dw/bn -> conv2_1/dw (in-place)
I0903 21:18:58.930685 12836 net.cpp:150] Setting up conv2_1/dw/bn
I0903 21:18:58.930692 12836 net.cpp:157] Top shape: 16 32 150 150 (11520000)
I0903 21:18:58.930696 12836 net.cpp:165] Memory required for data: 414720128
I0903 21:18:58.930704 12836 layer_factory.hpp:77] Creating layer conv2_1/dw/scale
I0903 21:18:58.930711 12836 net.cpp:100] Creating Layer conv2_1/dw/scale
I0903 21:18:58.930716 12836 net.cpp:434] conv2_1/dw/scale <- conv2_1/dw
I0903 21:18:58.930721 12836 net.cpp:395] conv2_1/dw/scale -> conv2_1/dw (in-place)
I0903 21:18:58.930774 12836 layer_factory.hpp:77] Creating layer conv2_1/dw/scale
I0903 21:18:58.930882 12836 net.cpp:150] Setting up conv2_1/dw/scale
I0903 21:18:58.930891 12836 net.cpp:157] Top shape: 16 32 150 150 (11520000)
I0903 21:18:58.930893 12836 net.cpp:165] Memory required for data: 460800128
I0903 21:18:58.930899 12836 layer_factory.hpp:77] Creating layer conv2_1/dw_relu
I0903 21:18:58.930905 12836 net.cpp:100] Creating Layer conv2_1/dw_relu
I0903 21:18:58.930908 12836 net.cpp:434] conv2_1/dw_relu <- conv2_1/dw
I0903 21:18:58.930913 12836 net.cpp:395] conv2_1/dw_relu -> conv2_1/dw (in-place)
I0903 21:18:58.931495 12836 net.cpp:150] Setting up conv2_1/dw_relu
I0903 21:18:58.931507 12836 net.cpp:157] Top shape: 16 32 150 150 (11520000)
I0903 21:18:58.931509 12836 net.cpp:165] Memory required for data: 506880128
I0903 21:18:58.931512 12836 layer_factory.hpp:77] Creating layer conv2_1/sep
I0903 21:18:58.931519 12836 net.cpp:100] Creating Layer conv2_1/sep
I0903 21:18:58.931522 12836 net.cpp:434] conv2_1/sep <- conv2_1/dw
I0903 21:18:58.931526 12836 net.cpp:408] conv2_1/sep -> conv2_1/sep
I0903 21:18:58.933055 12836 net.cpp:150] Setting up conv2_1/sep
I0903 21:18:58.933068 12836 net.cpp:157] Top shape: 16 64 150 150 (23040000)
I0903 21:18:58.933070 12836 net.cpp:165] Memory required for data: 599040128
I0903 21:18:58.933074 12836 layer_factory.hpp:77] Creating layer conv2_1/sep/bn
I0903 21:18:58.933079 12836 net.cpp:100] Creating Layer conv2_1/sep/bn
I0903 21:18:58.933082 12836 net.cpp:434] conv2_1/sep/bn <- conv2_1/sep
I0903 21:18:58.933087 12836 net.cpp:395] conv2_1/sep/bn -> conv2_1/sep (in-place)
I0903 21:18:58.933255 12836 net.cpp:150] Setting up conv2_1/sep/bn
I0903 21:18:58.933264 12836 net.cpp:157] Top shape: 16 64 150 150 (23040000)
I0903 21:18:58.933266 12836 net.cpp:165] Memory required for data: 691200128
I0903 21:18:58.933274 12836 layer_factory.hpp:77] Creating layer conv2_1/sep/scale
I0903 21:18:58.933281 12836 net.cpp:100] Creating Layer conv2_1/sep/scale
I0903 21:18:58.933284 12836 net.cpp:434] conv2_1/sep/scale <- conv2_1/sep
I0903 21:18:58.933290 12836 net.cpp:395] conv2_1/sep/scale -> conv2_1/sep (in-place)
I0903 21:18:58.933326 12836 layer_factory.hpp:77] Creating layer conv2_1/sep/scale
I0903 21:18:58.933446 12836 net.cpp:150] Setting up conv2_1/sep/scale
I0903 21:18:58.933454 12836 net.cpp:157] Top shape: 16 64 150 150 (23040000)
I0903 21:18:58.933459 12836 net.cpp:165] Memory required for data: 783360128
I0903 21:18:58.933466 12836 layer_factory.hpp:77] Creating layer conv2_1/sep_relu
I0903 21:18:58.933472 12836 net.cpp:100] Creating Layer conv2_1/sep_relu
I0903 21:18:58.933476 12836 net.cpp:434] conv2_1/sep_relu <- conv2_1/sep
I0903 21:18:58.933482 12836 net.cpp:395] conv2_1/sep_relu -> conv2_1/sep (in-place)
I0903 21:18:58.934070 12836 net.cpp:150] Setting up conv2_1/sep_relu
I0903 21:18:58.934082 12836 net.cpp:157] Top shape: 16 64 150 150 (23040000)
I0903 21:18:58.934083 12836 net.cpp:165] Memory required for data: 875520128
I0903 21:18:58.934087 12836 layer_factory.hpp:77] Creating layer conv2_2/dw
I0903 21:18:58.934095 12836 net.cpp:100] Creating Layer conv2_2/dw
I0903 21:18:58.934098 12836 net.cpp:434] conv2_2/dw <- conv2_1/sep
I0903 21:18:58.934104 12836 net.cpp:408] conv2_2/dw -> conv2_2/dw
I0903 21:18:58.934274 12836 net.cpp:150] Setting up conv2_2/dw
I0903 21:18:58.934283 12836 net.cpp:157] Top shape: 16 64 75 75 (5760000)
I0903 21:18:58.934285 12836 net.cpp:165] Memory required for data: 898560128
I0903 21:18:58.934290 12836 layer_factory.hpp:77] Creating layer conv2_2/dw/bn
I0903 21:18:58.934296 12836 net.cpp:100] Creating Layer conv2_2/dw/bn
I0903 21:18:58.934330 12836 net.cpp:434] conv2_2/dw/bn <- conv2_2/dw
I0903 21:18:58.934336 12836 net.cpp:395] conv2_2/dw/bn -> conv2_2/dw (in-place)
I0903 21:18:58.934912 12836 net.cpp:150] Setting up conv2_2/dw/bn
I0903 21:18:58.934922 12836 net.cpp:157] Top shape: 16 64 75 75 (5760000)
I0903 21:18:58.934926 12836 net.cpp:165] Memory required for data: 921600128
I0903 21:18:58.934931 12836 layer_factory.hpp:77] Creating layer conv2_2/dw/scale
I0903 21:18:58.934949 12836 net.cpp:100] Creating Layer conv2_2/dw/scale
I0903 21:18:58.934955 12836 net.cpp:434] conv2_2/dw/scale <- conv2_2/dw
I0903 21:18:58.934962 12836 net.cpp:395] conv2_2/dw/scale -> conv2_2/dw (in-place)
I0903 21:18:58.935003 12836 layer_factory.hpp:77] Creating layer conv2_2/dw/scale
I0903 21:18:58.935106 12836 net.cpp:150] Setting up conv2_2/dw/scale
I0903 21:18:58.935113 12836 net.cpp:157] Top shape: 16 64 75 75 (5760000)
I0903 21:18:58.935117 12836 net.cpp:165] Memory required for data: 944640128
I0903 21:18:58.935122 12836 layer_factory.hpp:77] Creating layer conv2_2/dw_relu
I0903 21:18:58.935127 12836 net.cpp:100] Creating Layer conv2_2/dw_relu
I0903 21:18:58.935130 12836 net.cpp:434] conv2_2/dw_relu <- conv2_2/dw
I0903 21:18:58.935135 12836 net.cpp:395] conv2_2/dw_relu -> conv2_2/dw (in-place)
I0903 21:18:58.935289 12836 net.cpp:150] Setting up conv2_2/dw_relu
I0903 21:18:58.935298 12836 net.cpp:157] Top shape: 16 64 75 75 (5760000)
I0903 21:18:58.935302 12836 net.cpp:165] Memory required for data: 967680128
I0903 21:18:58.935305 12836 layer_factory.hpp:77] Creating layer conv2_2/sep
I0903 21:18:58.935314 12836 net.cpp:100] Creating Layer conv2_2/sep
I0903 21:18:58.935318 12836 net.cpp:434] conv2_2/sep <- conv2_2/dw
I0903 21:18:58.935325 12836 net.cpp:408] conv2_2/sep -> conv2_2/sep
I0903 21:18:58.937304 12836 net.cpp:150] Setting up conv2_2/sep
I0903 21:18:58.937317 12836 net.cpp:157] Top shape: 16 128 75 75 (11520000)
I0903 21:18:58.937320 12836 net.cpp:165] Memory required for data: 1013760128
I0903 21:18:58.937326 12836 layer_factory.hpp:77] Creating layer conv2_2/sep/bn
I0903 21:18:58.937332 12836 net.cpp:100] Creating Layer conv2_2/sep/bn
I0903 21:18:58.937336 12836 net.cpp:434] conv2_2/sep/bn <- conv2_2/sep
I0903 21:18:58.937342 12836 net.cpp:395] conv2_2/sep/bn -> conv2_2/sep (in-place)
I0903 21:18:58.937497 12836 net.cpp:150] Setting up conv2_2/sep/bn
I0903 21:18:58.937505 12836 net.cpp:157] Top shape: 16 128 75 75 (11520000)
I0903 21:18:58.937508 12836 net.cpp:165] Memory required for data: 1059840128
I0903 21:18:58.937515 12836 layer_factory.hpp:77] Creating layer conv2_2/sep/scale
I0903 21:18:58.937521 12836 net.cpp:100] Creating Layer conv2_2/sep/scale
I0903 21:18:58.937525 12836 net.cpp:434] conv2_2/sep/scale <- conv2_2/sep
I0903 21:18:58.937530 12836 net.cpp:395] conv2_2/sep/scale -> conv2_2/sep (in-place)
I0903 21:18:58.937564 12836 layer_factory.hpp:77] Creating layer conv2_2/sep/scale
I0903 21:18:58.937659 12836 net.cpp:150] Setting up conv2_2/sep/scale
I0903 21:18:58.937666 12836 net.cpp:157] Top shape: 16 128 75 75 (11520000)
I0903 21:18:58.937669 12836 net.cpp:165] Memory required for data: 1105920128
I0903 21:18:58.937675 12836 layer_factory.hpp:77] Creating layer conv2_2/sep_relu
I0903 21:18:58.937681 12836 net.cpp:100] Creating Layer conv2_2/sep_relu
I0903 21:18:58.937685 12836 net.cpp:434] conv2_2/sep_relu <- conv2_2/sep
I0903 21:18:58.937690 12836 net.cpp:395] conv2_2/sep_relu -> conv2_2/sep (in-place)
I0903 21:18:58.938284 12836 net.cpp:150] Setting up conv2_2/sep_relu
I0903 21:18:58.938297 12836 net.cpp:157] Top shape: 16 128 75 75 (11520000)
I0903 21:18:58.938307 12836 net.cpp:165] Memory required for data: 1152000128
I0903 21:18:58.938310 12836 layer_factory.hpp:77] Creating layer conv3_1/dw
I0903 21:18:58.938319 12836 net.cpp:100] Creating Layer conv3_1/dw
I0903 21:18:58.938323 12836 net.cpp:434] conv3_1/dw <- conv2_2/sep
I0903 21:18:58.938329 12836 net.cpp:408] conv3_1/dw -> conv3_1/dw
I0903 21:18:58.938498 12836 net.cpp:150] Setting up conv3_1/dw
I0903 21:18:58.938505 12836 net.cpp:157] Top shape: 16 128 75 75 (11520000)
I0903 21:18:58.938509 12836 net.cpp:165] Memory required for data: 1198080128
I0903 21:18:58.938514 12836 layer_factory.hpp:77] Creating layer conv3_1/dw/bn
I0903 21:18:58.938520 12836 net.cpp:100] Creating Layer conv3_1/dw/bn
I0903 21:18:58.938524 12836 net.cpp:434] conv3_1/dw/bn <- conv3_1/dw
I0903 21:18:58.938529 12836 net.cpp:395] conv3_1/dw/bn -> conv3_1/dw (in-place)
I0903 21:18:58.938680 12836 net.cpp:150] Setting up conv3_1/dw/bn
I0903 21:18:58.938697 12836 net.cpp:157] Top shape: 16 128 75 75 (11520000)
I0903 21:18:58.938700 12836 net.cpp:165] Memory required for data: 1244160128
I0903 21:18:58.938712 12836 layer_factory.hpp:77] Creating layer conv3_1/dw/scale
I0903 21:18:58.938720 12836 net.cpp:100] Creating Layer conv3_1/dw/scale
I0903 21:18:58.938724 12836 net.cpp:434] conv3_1/dw/scale <- conv3_1/dw
I0903 21:18:58.938730 12836 net.cpp:395] conv3_1/dw/scale -> conv3_1/dw (in-place)
I0903 21:18:58.938767 12836 layer_factory.hpp:77] Creating layer conv3_1/dw/scale
I0903 21:18:58.938860 12836 net.cpp:150] Setting up conv3_1/dw/scale
I0903 21:18:58.938868 12836 net.cpp:157] Top shape: 16 128 75 75 (11520000)
I0903 21:18:58.938872 12836 net.cpp:165] Memory required for data: 1290240128
I0903 21:18:58.938877 12836 layer_factory.hpp:77] Creating layer conv3_1/dw_relu
I0903 21:18:58.938884 12836 net.cpp:100] Creating Layer conv3_1/dw_relu
I0903 21:18:58.938886 12836 net.cpp:434] conv3_1/dw_relu <- conv3_1/dw
I0903 21:18:58.938890 12836 net.cpp:395] conv3_1/dw_relu -> conv3_1/dw (in-place)
I0903 21:18:58.939041 12836 net.cpp:150] Setting up conv3_1/dw_relu
I0903 21:18:58.939049 12836 net.cpp:157] Top shape: 16 128 75 75 (11520000)
I0903 21:18:58.939052 12836 net.cpp:165] Memory required for data: 1336320128
I0903 21:18:58.939056 12836 layer_factory.hpp:77] Creating layer conv3_1/sep
I0903 21:18:58.939066 12836 net.cpp:100] Creating Layer conv3_1/sep
I0903 21:18:58.939070 12836 net.cpp:434] conv3_1/sep <- conv3_1/dw
I0903 21:18:58.939077 12836 net.cpp:408] conv3_1/sep -> conv3_1/sep
I0903 21:18:58.940685 12836 net.cpp:150] Setting up conv3_1/sep
I0903 21:18:58.940696 12836 net.cpp:157] Top shape: 16 128 75 75 (11520000)
I0903 21:18:58.940701 12836 net.cpp:165] Memory required for data: 1382400128
I0903 21:18:58.940704 12836 layer_factory.hpp:77] Creating layer conv3_1/sep/bn
I0903 21:18:58.940711 12836 net.cpp:100] Creating Layer conv3_1/sep/bn
I0903 21:18:58.940716 12836 net.cpp:434] conv3_1/sep/bn <- conv3_1/sep
I0903 21:18:58.940721 12836 net.cpp:395] conv3_1/sep/bn -> conv3_1/sep (in-place)
I0903 21:18:58.940876 12836 net.cpp:150] Setting up conv3_1/sep/bn
I0903 21:18:58.940883 12836 net.cpp:157] Top shape: 16 128 75 75 (11520000)
I0903 21:18:58.940887 12836 net.cpp:165] Memory required for data: 1428480128
I0903 21:18:58.940894 12836 layer_factory.hpp:77] Creating layer conv3_1/sep/scale
I0903 21:18:58.940901 12836 net.cpp:100] Creating Layer conv3_1/sep/scale
I0903 21:18:58.940904 12836 net.cpp:434] conv3_1/sep/scale <- conv3_1/sep
I0903 21:18:58.940909 12836 net.cpp:395] conv3_1/sep/scale -> conv3_1/sep (in-place)
I0903 21:18:58.940944 12836 layer_factory.hpp:77] Creating layer conv3_1/sep/scale
I0903 21:18:58.941036 12836 net.cpp:150] Setting up conv3_1/sep/scale
I0903 21:18:58.941043 12836 net.cpp:157] Top shape: 16 128 75 75 (11520000)
I0903 21:18:58.941047 12836 net.cpp:165] Memory required for data: 1474560128
I0903 21:18:58.941052 12836 layer_factory.hpp:77] Creating layer conv3_1/sep_relu
I0903 21:18:58.941058 12836 net.cpp:100] Creating Layer conv3_1/sep_relu
I0903 21:18:58.941061 12836 net.cpp:434] conv3_1/sep_relu <- conv3_1/sep
I0903 21:18:58.941068 12836 net.cpp:395] conv3_1/sep_relu -> conv3_1/sep (in-place)
I0903 21:18:58.941658 12836 net.cpp:150] Setting up conv3_1/sep_relu
I0903 21:18:58.941669 12836 net.cpp:157] Top shape: 16 128 75 75 (11520000)
I0903 21:18:58.941673 12836 net.cpp:165] Memory required for data: 1520640128
I0903 21:18:58.941676 12836 layer_factory.hpp:77] Creating layer conv3_2/dw
I0903 21:18:58.941686 12836 net.cpp:100] Creating Layer conv3_2/dw
I0903 21:18:58.941690 12836 net.cpp:434] conv3_2/dw <- conv3_1/sep
I0903 21:18:58.941697 12836 net.cpp:408] conv3_2/dw -> conv3_2/dw
I0903 21:18:58.941869 12836 net.cpp:150] Setting up conv3_2/dw
I0903 21:18:58.941877 12836 net.cpp:157] Top shape: 16 128 38 38 (2957312)
I0903 21:18:58.941880 12836 net.cpp:165] Memory required for data: 1532469376
I0903 21:18:58.941885 12836 layer_factory.hpp:77] Creating layer conv3_2/dw/bn
I0903 21:18:58.941890 12836 net.cpp:100] Creating Layer conv3_2/dw/bn
I0903 21:18:58.941903 12836 net.cpp:434] conv3_2/dw/bn <- conv3_2/dw
I0903 21:18:58.941910 12836 net.cpp:395] conv3_2/dw/bn -> conv3_2/dw (in-place)
I0903 21:18:58.942057 12836 net.cpp:150] Setting up conv3_2/dw/bn
I0903 21:18:58.942065 12836 net.cpp:157] Top shape: 16 128 38 38 (2957312)
I0903 21:18:58.942067 12836 net.cpp:165] Memory required for data: 1544298624
I0903 21:18:58.942075 12836 layer_factory.hpp:77] Creating layer conv3_2/dw/scale
I0903 21:18:58.942085 12836 net.cpp:100] Creating Layer conv3_2/dw/scale
I0903 21:18:58.942088 12836 net.cpp:434] conv3_2/dw/scale <- conv3_2/dw
I0903 21:18:58.942093 12836 net.cpp:395] conv3_2/dw/scale -> conv3_2/dw (in-place)
I0903 21:18:58.942128 12836 layer_factory.hpp:77] Creating layer conv3_2/dw/scale
I0903 21:18:58.942219 12836 net.cpp:150] Setting up conv3_2/dw/scale
I0903 21:18:58.942226 12836 net.cpp:157] Top shape: 16 128 38 38 (2957312)
I0903 21:18:58.942229 12836 net.cpp:165] Memory required for data: 1556127872
I0903 21:18:58.942235 12836 layer_factory.hpp:77] Creating layer conv3_2/dw_relu
I0903 21:18:58.942240 12836 net.cpp:100] Creating Layer conv3_2/dw_relu
I0903 21:18:58.942245 12836 net.cpp:434] conv3_2/dw_relu <- conv3_2/dw
I0903 21:18:58.942250 12836 net.cpp:395] conv3_2/dw_relu -> conv3_2/dw (in-place)
I0903 21:18:58.942406 12836 net.cpp:150] Setting up conv3_2/dw_relu
I0903 21:18:58.942415 12836 net.cpp:157] Top shape: 16 128 38 38 (2957312)
I0903 21:18:58.942418 12836 net.cpp:165] Memory required for data: 1567957120
I0903 21:18:58.942423 12836 layer_factory.hpp:77] Creating layer conv3_2/sep
I0903 21:18:58.942431 12836 net.cpp:100] Creating Layer conv3_2/sep
I0903 21:18:58.942435 12836 net.cpp:434] conv3_2/sep <- conv3_2/dw
I0903 21:18:58.942445 12836 net.cpp:408] conv3_2/sep -> conv3_2/sep
I0903 21:18:58.944195 12836 net.cpp:150] Setting up conv3_2/sep
I0903 21:18:58.944206 12836 net.cpp:157] Top shape: 16 256 38 38 (5914624)
I0903 21:18:58.944211 12836 net.cpp:165] Memory required for data: 1591615616
I0903 21:18:58.944216 12836 layer_factory.hpp:77] Creating layer conv3_2/sep/bn
I0903 21:18:58.944223 12836 net.cpp:100] Creating Layer conv3_2/sep/bn
I0903 21:18:58.944227 12836 net.cpp:434] conv3_2/sep/bn <- conv3_2/sep
I0903 21:18:58.944232 12836 net.cpp:395] conv3_2/sep/bn -> conv3_2/sep (in-place)
I0903 21:18:58.944391 12836 net.cpp:150] Setting up conv3_2/sep/bn
I0903 21:18:58.944398 12836 net.cpp:157] Top shape: 16 256 38 38 (5914624)
I0903 21:18:58.944401 12836 net.cpp:165] Memory required for data: 1615274112
I0903 21:18:58.944408 12836 layer_factory.hpp:77] Creating layer conv3_2/sep/scale
I0903 21:18:58.944414 12836 net.cpp:100] Creating Layer conv3_2/sep/scale
I0903 21:18:58.944418 12836 net.cpp:434] conv3_2/sep/scale <- conv3_2/sep
I0903 21:18:58.944424 12836 net.cpp:395] conv3_2/sep/scale -> conv3_2/sep (in-place)
I0903 21:18:58.944459 12836 layer_factory.hpp:77] Creating layer conv3_2/sep/scale
I0903 21:18:58.944550 12836 net.cpp:150] Setting up conv3_2/sep/scale
I0903 21:18:58.944557 12836 net.cpp:157] Top shape: 16 256 38 38 (5914624)
I0903 21:18:58.944561 12836 net.cpp:165] Memory required for data: 1638932608
I0903 21:18:58.944566 12836 layer_factory.hpp:77] Creating layer conv3_2/sep_relu
I0903 21:18:58.944572 12836 net.cpp:100] Creating Layer conv3_2/sep_relu
I0903 21:18:58.944576 12836 net.cpp:434] conv3_2/sep_relu <- conv3_2/sep
I0903 21:18:58.944581 12836 net.cpp:395] conv3_2/sep_relu -> conv3_2/sep (in-place)
I0903 21:18:58.945178 12836 net.cpp:150] Setting up conv3_2/sep_relu
I0903 21:18:58.945188 12836 net.cpp:157] Top shape: 16 256 38 38 (5914624)
I0903 21:18:58.945192 12836 net.cpp:165] Memory required for data: 1662591104
I0903 21:18:58.945194 12836 layer_factory.hpp:77] Creating layer conv4_1/dw
I0903 21:18:58.945204 12836 net.cpp:100] Creating Layer conv4_1/dw
I0903 21:18:58.945209 12836 net.cpp:434] conv4_1/dw <- conv3_2/sep
I0903 21:18:58.945214 12836 net.cpp:408] conv4_1/dw -> conv4_1/dw
I0903 21:18:58.945399 12836 net.cpp:150] Setting up conv4_1/dw
I0903 21:18:58.945406 12836 net.cpp:157] Top shape: 16 256 38 38 (5914624)
I0903 21:18:58.945420 12836 net.cpp:165] Memory required for data: 1686249600
I0903 21:18:58.945426 12836 layer_factory.hpp:77] Creating layer conv4_1/dw/bn
I0903 21:18:58.945432 12836 net.cpp:100] Creating Layer conv4_1/dw/bn
I0903 21:18:58.945436 12836 net.cpp:434] conv4_1/dw/bn <- conv4_1/dw
I0903 21:18:58.945441 12836 net.cpp:395] conv4_1/dw/bn -> conv4_1/dw (in-place)
I0903 21:18:58.945595 12836 net.cpp:150] Setting up conv4_1/dw/bn
I0903 21:18:58.945603 12836 net.cpp:157] Top shape: 16 256 38 38 (5914624)
I0903 21:18:58.945607 12836 net.cpp:165] Memory required for data: 1709908096
I0903 21:18:58.945614 12836 layer_factory.hpp:77] Creating layer conv4_1/dw/scale
I0903 21:18:58.945621 12836 net.cpp:100] Creating Layer conv4_1/dw/scale
I0903 21:18:58.945624 12836 net.cpp:434] conv4_1/dw/scale <- conv4_1/dw
I0903 21:18:58.945629 12836 net.cpp:395] conv4_1/dw/scale -> conv4_1/dw (in-place)
I0903 21:18:58.945667 12836 layer_factory.hpp:77] Creating layer conv4_1/dw/scale
I0903 21:18:58.945757 12836 net.cpp:150] Setting up conv4_1/dw/scale
I0903 21:18:58.945765 12836 net.cpp:157] Top shape: 16 256 38 38 (5914624)
I0903 21:18:58.945767 12836 net.cpp:165] Memory required for data: 1733566592
I0903 21:18:58.945773 12836 layer_factory.hpp:77] Creating layer conv4_1/dw_relu
I0903 21:18:58.945780 12836 net.cpp:100] Creating Layer conv4_1/dw_relu
I0903 21:18:58.945785 12836 net.cpp:434] conv4_1/dw_relu <- conv4_1/dw
I0903 21:18:58.945788 12836 net.cpp:395] conv4_1/dw_relu -> conv4_1/dw (in-place)
I0903 21:18:58.945937 12836 net.cpp:150] Setting up conv4_1/dw_relu
I0903 21:18:58.945945 12836 net.cpp:157] Top shape: 16 256 38 38 (5914624)
I0903 21:18:58.945950 12836 net.cpp:165] Memory required for data: 1757225088
I0903 21:18:58.945953 12836 layer_factory.hpp:77] Creating layer conv4_1/sep
I0903 21:18:58.945962 12836 net.cpp:100] Creating Layer conv4_1/sep
I0903 21:18:58.945966 12836 net.cpp:434] conv4_1/sep <- conv4_1/dw
I0903 21:18:58.945972 12836 net.cpp:408] conv4_1/sep -> conv4_1/sep
I0903 21:18:58.948871 12836 net.cpp:150] Setting up conv4_1/sep
I0903 21:18:58.948884 12836 net.cpp:157] Top shape: 16 256 38 38 (5914624)
I0903 21:18:58.948889 12836 net.cpp:165] Memory required for data: 1780883584
I0903 21:18:58.948894 12836 layer_factory.hpp:77] Creating layer conv4_1/sep/bn
I0903 21:18:58.948902 12836 net.cpp:100] Creating Layer conv4_1/sep/bn
I0903 21:18:58.948906 12836 net.cpp:434] conv4_1/sep/bn <- conv4_1/sep
I0903 21:18:58.948911 12836 net.cpp:395] conv4_1/sep/bn -> conv4_1/sep (in-place)
I0903 21:18:58.949076 12836 net.cpp:150] Setting up conv4_1/sep/bn
I0903 21:18:58.949084 12836 net.cpp:157] Top shape: 16 256 38 38 (5914624)
I0903 21:18:58.949086 12836 net.cpp:165] Memory required for data: 1804542080
I0903 21:18:58.949093 12836 layer_factory.hpp:77] Creating layer conv4_1/sep/scale
I0903 21:18:58.949100 12836 net.cpp:100] Creating Layer conv4_1/sep/scale
I0903 21:18:58.949105 12836 net.cpp:434] conv4_1/sep/scale <- conv4_1/sep
I0903 21:18:58.949110 12836 net.cpp:395] conv4_1/sep/scale -> conv4_1/sep (in-place)
I0903 21:18:58.949146 12836 layer_factory.hpp:77] Creating layer conv4_1/sep/scale
I0903 21:18:58.949236 12836 net.cpp:150] Setting up conv4_1/sep/scale
I0903 21:18:58.949244 12836 net.cpp:157] Top shape: 16 256 38 38 (5914624)
I0903 21:18:58.949246 12836 net.cpp:165] Memory required for data: 1828200576
I0903 21:18:58.949261 12836 layer_factory.hpp:77] Creating layer conv4_1/sep_relu
I0903 21:18:58.949267 12836 net.cpp:100] Creating Layer conv4_1/sep_relu
I0903 21:18:58.949272 12836 net.cpp:434] conv4_1/sep_relu <- conv4_1/sep
I0903 21:18:58.949277 12836 net.cpp:395] conv4_1/sep_relu -> conv4_1/sep (in-place)
I0903 21:18:58.949440 12836 net.cpp:150] Setting up conv4_1/sep_relu
I0903 21:18:58.949450 12836 net.cpp:157] Top shape: 16 256 38 38 (5914624)
I0903 21:18:58.949452 12836 net.cpp:165] Memory required for data: 1851859072
I0903 21:18:58.949456 12836 layer_factory.hpp:77] Creating layer conv4_2/dw
I0903 21:18:58.949465 12836 net.cpp:100] Creating Layer conv4_2/dw
I0903 21:18:58.949478 12836 net.cpp:434] conv4_2/dw <- conv4_1/sep
I0903 21:18:58.949484 12836 net.cpp:408] conv4_2/dw -> conv4_2/dw
I0903 21:18:58.949674 12836 net.cpp:150] Setting up conv4_2/dw
I0903 21:18:58.949682 12836 net.cpp:157] Top shape: 16 256 19 19 (1478656)
I0903 21:18:58.949687 12836 net.cpp:165] Memory required for data: 1857773696
I0903 21:18:58.949692 12836 layer_factory.hpp:77] Creating layer conv4_2/dw/bn
I0903 21:18:58.949697 12836 net.cpp:100] Creating Layer conv4_2/dw/bn
I0903 21:18:58.949700 12836 net.cpp:434] conv4_2/dw/bn <- conv4_2/dw
I0903 21:18:58.949705 12836 net.cpp:395] conv4_2/dw/bn -> conv4_2/dw (in-place)
I0903 21:18:58.949861 12836 net.cpp:150] Setting up conv4_2/dw/bn
I0903 21:18:58.949867 12836 net.cpp:157] Top shape: 16 256 19 19 (1478656)
I0903 21:18:58.949870 12836 net.cpp:165] Memory required for data: 1863688320
I0903 21:18:58.949877 12836 layer_factory.hpp:77] Creating layer conv4_2/dw/scale
I0903 21:18:58.949882 12836 net.cpp:100] Creating Layer conv4_2/dw/scale
I0903 21:18:58.949887 12836 net.cpp:434] conv4_2/dw/scale <- conv4_2/dw
I0903 21:18:58.949890 12836 net.cpp:395] conv4_2/dw/scale -> conv4_2/dw (in-place)
I0903 21:18:58.949926 12836 layer_factory.hpp:77] Creating layer conv4_2/dw/scale
I0903 21:18:58.950019 12836 net.cpp:150] Setting up conv4_2/dw/scale
I0903 21:18:58.950027 12836 net.cpp:157] Top shape: 16 256 19 19 (1478656)
I0903 21:18:58.950031 12836 net.cpp:165] Memory required for data: 1869602944
I0903 21:18:58.950037 12836 layer_factory.hpp:77] Creating layer conv4_2/dw_relu
I0903 21:18:58.950042 12836 net.cpp:100] Creating Layer conv4_2/dw_relu
I0903 21:18:58.950045 12836 net.cpp:434] conv4_2/dw_relu <- conv4_2/dw
I0903 21:18:58.950049 12836 net.cpp:395] conv4_2/dw_relu -> conv4_2/dw (in-place)
I0903 21:18:58.950654 12836 net.cpp:150] Setting up conv4_2/dw_relu
I0903 21:18:58.950665 12836 net.cpp:157] Top shape: 16 256 19 19 (1478656)
I0903 21:18:58.950669 12836 net.cpp:165] Memory required for data: 1875517568
I0903 21:18:58.950672 12836 layer_factory.hpp:77] Creating layer conv4_2/sep
I0903 21:18:58.950682 12836 net.cpp:100] Creating Layer conv4_2/sep
I0903 21:18:58.950686 12836 net.cpp:434] conv4_2/sep <- conv4_2/dw
I0903 21:18:58.950692 12836 net.cpp:408] conv4_2/sep -> conv4_2/sep
I0903 21:18:58.954062 12836 net.cpp:150] Setting up conv4_2/sep
I0903 21:18:58.954075 12836 net.cpp:157] Top shape: 16 512 19 19 (2957312)
I0903 21:18:58.954079 12836 net.cpp:165] Memory required for data: 1887346816
I0903 21:18:58.954084 12836 layer_factory.hpp:77] Creating layer conv4_2/sep/bn
I0903 21:18:58.954090 12836 net.cpp:100] Creating Layer conv4_2/sep/bn
I0903 21:18:58.954095 12836 net.cpp:434] conv4_2/sep/bn <- conv4_2/sep
I0903 21:18:58.954102 12836 net.cpp:395] conv4_2/sep/bn -> conv4_2/sep (in-place)
I0903 21:18:58.954273 12836 net.cpp:150] Setting up conv4_2/sep/bn
I0903 21:18:58.954280 12836 net.cpp:157] Top shape: 16 512 19 19 (2957312)
I0903 21:18:58.954284 12836 net.cpp:165] Memory required for data: 1899176064
I0903 21:18:58.954291 12836 layer_factory.hpp:77] Creating layer conv4_2/sep/scale
I0903 21:18:58.954298 12836 net.cpp:100] Creating Layer conv4_2/sep/scale
I0903 21:18:58.954306 12836 net.cpp:434] conv4_2/sep/scale <- conv4_2/sep
I0903 21:18:58.954313 12836 net.cpp:395] conv4_2/sep/scale -> conv4_2/sep (in-place)
I0903 21:18:58.954354 12836 layer_factory.hpp:77] Creating layer conv4_2/sep/scale
I0903 21:18:58.954447 12836 net.cpp:150] Setting up conv4_2/sep/scale
I0903 21:18:58.954454 12836 net.cpp:157] Top shape: 16 512 19 19 (2957312)
I0903 21:18:58.954458 12836 net.cpp:165] Memory required for data: 1911005312
I0903 21:18:58.954463 12836 layer_factory.hpp:77] Creating layer conv4_2/sep_relu
I0903 21:18:58.954469 12836 net.cpp:100] Creating Layer conv4_2/sep_relu
I0903 21:18:58.954473 12836 net.cpp:434] conv4_2/sep_relu <- conv4_2/sep
I0903 21:18:58.954478 12836 net.cpp:395] conv4_2/sep_relu -> conv4_2/sep (in-place)
I0903 21:18:58.954632 12836 net.cpp:150] Setting up conv4_2/sep_relu
I0903 21:18:58.954639 12836 net.cpp:157] Top shape: 16 512 19 19 (2957312)
I0903 21:18:58.954651 12836 net.cpp:165] Memory required for data: 1922834560
I0903 21:18:58.954658 12836 layer_factory.hpp:77] Creating layer conv5_1/dw
I0903 21:18:58.954668 12836 net.cpp:100] Creating Layer conv5_1/dw
I0903 21:18:58.954672 12836 net.cpp:434] conv5_1/dw <- conv4_2/sep
I0903 21:18:58.954679 12836 net.cpp:408] conv5_1/dw -> conv5_1/dw
I0903 21:18:58.954888 12836 net.cpp:150] Setting up conv5_1/dw
I0903 21:18:58.954896 12836 net.cpp:157] Top shape: 16 512 19 19 (2957312)
I0903 21:18:58.954900 12836 net.cpp:165] Memory required for data: 1934663808
I0903 21:18:58.954905 12836 layer_factory.hpp:77] Creating layer conv5_1/dw/bn
I0903 21:18:58.954910 12836 net.cpp:100] Creating Layer conv5_1/dw/bn
I0903 21:18:58.954913 12836 net.cpp:434] conv5_1/dw/bn <- conv5_1/dw
I0903 21:18:58.954919 12836 net.cpp:395] conv5_1/dw/bn -> conv5_1/dw (in-place)
I0903 21:18:58.955081 12836 net.cpp:150] Setting up conv5_1/dw/bn
I0903 21:18:58.955087 12836 net.cpp:157] Top shape: 16 512 19 19 (2957312)
I0903 21:18:58.955091 12836 net.cpp:165] Memory required for data: 1946493056
I0903 21:18:58.955097 12836 layer_factory.hpp:77] Creating layer conv5_1/dw/scale
I0903 21:18:58.955103 12836 net.cpp:100] Creating Layer conv5_1/dw/scale
I0903 21:18:58.955107 12836 net.cpp:434] conv5_1/dw/scale <- conv5_1/dw
I0903 21:18:58.955113 12836 net.cpp:395] conv5_1/dw/scale -> conv5_1/dw (in-place)
I0903 21:18:58.955152 12836 layer_factory.hpp:77] Creating layer conv5_1/dw/scale
I0903 21:18:58.955250 12836 net.cpp:150] Setting up conv5_1/dw/scale
I0903 21:18:58.955256 12836 net.cpp:157] Top shape: 16 512 19 19 (2957312)
I0903 21:18:58.955260 12836 net.cpp:165] Memory required for data: 1958322304
I0903 21:18:58.955265 12836 layer_factory.hpp:77] Creating layer conv5_1/dw_relu
I0903 21:18:58.955271 12836 net.cpp:100] Creating Layer conv5_1/dw_relu
I0903 21:18:58.955274 12836 net.cpp:434] conv5_1/dw_relu <- conv5_1/dw
I0903 21:18:58.955279 12836 net.cpp:395] conv5_1/dw_relu -> conv5_1/dw (in-place)
I0903 21:18:58.955878 12836 net.cpp:150] Setting up conv5_1/dw_relu
I0903 21:18:58.955888 12836 net.cpp:157] Top shape: 16 512 19 19 (2957312)
I0903 21:18:58.955891 12836 net.cpp:165] Memory required for data: 1970151552
I0903 21:18:58.955895 12836 layer_factory.hpp:77] Creating layer conv5_1/sep
I0903 21:18:58.955904 12836 net.cpp:100] Creating Layer conv5_1/sep
I0903 21:18:58.955909 12836 net.cpp:434] conv5_1/sep <- conv5_1/dw
I0903 21:18:58.955915 12836 net.cpp:408] conv5_1/sep -> conv5_1/sep
I0903 21:18:58.959908 12836 net.cpp:150] Setting up conv5_1/sep
I0903 21:18:58.959920 12836 net.cpp:157] Top shape: 16 512 19 19 (2957312)
I0903 21:18:58.959923 12836 net.cpp:165] Memory required for data: 1981980800
I0903 21:18:58.959929 12836 layer_factory.hpp:77] Creating layer conv5_1/sep/bn
I0903 21:18:58.959938 12836 net.cpp:100] Creating Layer conv5_1/sep/bn
I0903 21:18:58.959941 12836 net.cpp:434] conv5_1/sep/bn <- conv5_1/sep
I0903 21:18:58.959946 12836 net.cpp:395] conv5_1/sep/bn -> conv5_1/sep (in-place)
I0903 21:18:58.960119 12836 net.cpp:150] Setting up conv5_1/sep/bn
I0903 21:18:58.960125 12836 net.cpp:157] Top shape: 16 512 19 19 (2957312)
I0903 21:18:58.960129 12836 net.cpp:165] Memory required for data: 1993810048
I0903 21:18:58.960135 12836 layer_factory.hpp:77] Creating layer conv5_1/sep/scale
I0903 21:18:58.960142 12836 net.cpp:100] Creating Layer conv5_1/sep/scale
I0903 21:18:58.960145 12836 net.cpp:434] conv5_1/sep/scale <- conv5_1/sep
I0903 21:18:58.960150 12836 net.cpp:395] conv5_1/sep/scale -> conv5_1/sep (in-place)
I0903 21:18:58.960192 12836 layer_factory.hpp:77] Creating layer conv5_1/sep/scale
I0903 21:18:58.960290 12836 net.cpp:150] Setting up conv5_1/sep/scale
I0903 21:18:58.960299 12836 net.cpp:157] Top shape: 16 512 19 19 (2957312)
I0903 21:18:58.960302 12836 net.cpp:165] Memory required for data: 2005639296
I0903 21:18:58.960309 12836 layer_factory.hpp:77] Creating layer conv5_1/sep_relu
I0903 21:18:58.960314 12836 net.cpp:100] Creating Layer conv5_1/sep_relu
I0903 21:18:58.960317 12836 net.cpp:434] conv5_1/sep_relu <- conv5_1/sep
I0903 21:18:58.960331 12836 net.cpp:395] conv5_1/sep_relu -> conv5_1/sep (in-place)
I0903 21:18:58.960485 12836 net.cpp:150] Setting up conv5_1/sep_relu
I0903 21:18:58.960494 12836 net.cpp:157] Top shape: 16 512 19 19 (2957312)
I0903 21:18:58.960497 12836 net.cpp:165] Memory required for data: 2017468544
I0903 21:18:58.960501 12836 layer_factory.hpp:77] Creating layer conv5_2/dw
I0903 21:18:58.960510 12836 net.cpp:100] Creating Layer conv5_2/dw
I0903 21:18:58.960515 12836 net.cpp:434] conv5_2/dw <- conv5_1/sep
I0903 21:18:58.960520 12836 net.cpp:408] conv5_2/dw -> conv5_2/dw
I0903 21:18:58.960724 12836 net.cpp:150] Setting up conv5_2/dw
I0903 21:18:58.960732 12836 net.cpp:157] Top shape: 16 512 19 19 (2957312)
I0903 21:18:58.960736 12836 net.cpp:165] Memory required for data: 2029297792
I0903 21:18:58.960741 12836 layer_factory.hpp:77] Creating layer conv5_2/dw/bn
I0903 21:18:58.960746 12836 net.cpp:100] Creating Layer conv5_2/dw/bn
I0903 21:18:58.960749 12836 net.cpp:434] conv5_2/dw/bn <- conv5_2/dw
I0903 21:18:58.960754 12836 net.cpp:395] conv5_2/dw/bn -> conv5_2/dw (in-place)
I0903 21:18:58.960917 12836 net.cpp:150] Setting up conv5_2/dw/bn
I0903 21:18:58.960924 12836 net.cpp:157] Top shape: 16 512 19 19 (2957312)
I0903 21:18:58.960927 12836 net.cpp:165] Memory required for data: 2041127040
I0903 21:18:58.960934 12836 layer_factory.hpp:77] Creating layer conv5_2/dw/scale
I0903 21:18:58.960947 12836 net.cpp:100] Creating Layer conv5_2/dw/scale
I0903 21:18:58.960952 12836 net.cpp:434] conv5_2/dw/scale <- conv5_2/dw
I0903 21:18:58.960957 12836 net.cpp:395] conv5_2/dw/scale -> conv5_2/dw (in-place)
I0903 21:18:58.960996 12836 layer_factory.hpp:77] Creating layer conv5_2/dw/scale
I0903 21:18:58.961093 12836 net.cpp:150] Setting up conv5_2/dw/scale
I0903 21:18:58.961100 12836 net.cpp:157] Top shape: 16 512 19 19 (2957312)
I0903 21:18:58.961104 12836 net.cpp:165] Memory required for data: 2052956288
I0903 21:18:58.961110 12836 layer_factory.hpp:77] Creating layer conv5_2/dw_relu
I0903 21:18:58.961115 12836 net.cpp:100] Creating Layer conv5_2/dw_relu
I0903 21:18:58.961119 12836 net.cpp:434] conv5_2/dw_relu <- conv5_2/dw
I0903 21:18:58.961122 12836 net.cpp:395] conv5_2/dw_relu -> conv5_2/dw (in-place)
I0903 21:18:58.961714 12836 net.cpp:150] Setting up conv5_2/dw_relu
I0903 21:18:58.961725 12836 net.cpp:157] Top shape: 16 512 19 19 (2957312)
I0903 21:18:58.961730 12836 net.cpp:165] Memory required for data: 2064785536
I0903 21:18:58.961731 12836 layer_factory.hpp:77] Creating layer conv5_2/sep
I0903 21:18:58.961741 12836 net.cpp:100] Creating Layer conv5_2/sep
I0903 21:18:58.961745 12836 net.cpp:434] conv5_2/sep <- conv5_2/dw
I0903 21:18:58.961752 12836 net.cpp:408] conv5_2/sep -> conv5_2/sep
I0903 21:18:58.965309 12836 net.cpp:150] Setting up conv5_2/sep
I0903 21:18:58.965322 12836 net.cpp:157] Top shape: 16 512 19 19 (2957312)
I0903 21:18:58.965327 12836 net.cpp:165] Memory required for data: 2076614784
I0903 21:18:58.965332 12836 layer_factory.hpp:77] Creating layer conv5_2/sep/bn
I0903 21:18:58.965339 12836 net.cpp:100] Creating Layer conv5_2/sep/bn
I0903 21:18:58.965343 12836 net.cpp:434] conv5_2/sep/bn <- conv5_2/sep
I0903 21:18:58.965349 12836 net.cpp:395] conv5_2/sep/bn -> conv5_2/sep (in-place)
I0903 21:18:58.965523 12836 net.cpp:150] Setting up conv5_2/sep/bn
I0903 21:18:58.965529 12836 net.cpp:157] Top shape: 16 512 19 19 (2957312)
I0903 21:18:58.965533 12836 net.cpp:165] Memory required for data: 2088444032
I0903 21:18:58.965539 12836 layer_factory.hpp:77] Creating layer conv5_2/sep/scale
I0903 21:18:58.965548 12836 net.cpp:100] Creating Layer conv5_2/sep/scale
I0903 21:18:58.965551 12836 net.cpp:434] conv5_2/sep/scale <- conv5_2/sep
I0903 21:18:58.965556 12836 net.cpp:395] conv5_2/sep/scale -> conv5_2/sep (in-place)
I0903 21:18:58.965597 12836 layer_factory.hpp:77] Creating layer conv5_2/sep/scale
I0903 21:18:58.965698 12836 net.cpp:150] Setting up conv5_2/sep/scale
I0903 21:18:58.965705 12836 net.cpp:157] Top shape: 16 512 19 19 (2957312)
I0903 21:18:58.965709 12836 net.cpp:165] Memory required for data: 2100273280
I0903 21:18:58.965724 12836 layer_factory.hpp:77] Creating layer conv5_2/sep_relu
I0903 21:18:58.965730 12836 net.cpp:100] Creating Layer conv5_2/sep_relu
I0903 21:18:58.965734 12836 net.cpp:434] conv5_2/sep_relu <- conv5_2/sep
I0903 21:18:58.965740 12836 net.cpp:395] conv5_2/sep_relu -> conv5_2/sep (in-place)
I0903 21:18:58.966333 12836 net.cpp:150] Setting up conv5_2/sep_relu
I0903 21:18:58.966346 12836 net.cpp:157] Top shape: 16 512 19 19 (2957312)
I0903 21:18:58.966348 12836 net.cpp:165] Memory required for data: 2112102528
I0903 21:18:58.966352 12836 layer_factory.hpp:77] Creating layer conv5_3/dw
I0903 21:18:58.966362 12836 net.cpp:100] Creating Layer conv5_3/dw
I0903 21:18:58.966367 12836 net.cpp:434] conv5_3/dw <- conv5_2/sep
I0903 21:18:58.966373 12836 net.cpp:408] conv5_3/dw -> conv5_3/dw
I0903 21:18:58.966581 12836 net.cpp:150] Setting up conv5_3/dw
I0903 21:18:58.966589 12836 net.cpp:157] Top shape: 16 512 19 19 (2957312)
I0903 21:18:58.966593 12836 net.cpp:165] Memory required for data: 2123931776
I0903 21:18:58.966598 12836 layer_factory.hpp:77] Creating layer conv5_3/dw/bn
I0903 21:18:58.966603 12836 net.cpp:100] Creating Layer conv5_3/dw/bn
I0903 21:18:58.966608 12836 net.cpp:434] conv5_3/dw/bn <- conv5_3/dw
I0903 21:18:58.966611 12836 net.cpp:395] conv5_3/dw/bn -> conv5_3/dw (in-place)
I0903 21:18:58.966779 12836 net.cpp:150] Setting up conv5_3/dw/bn
I0903 21:18:58.966786 12836 net.cpp:157] Top shape: 16 512 19 19 (2957312)
I0903 21:18:58.966789 12836 net.cpp:165] Memory required for data: 2135761024
I0903 21:18:58.966796 12836 layer_factory.hpp:77] Creating layer conv5_3/dw/scale
I0903 21:18:58.966802 12836 net.cpp:100] Creating Layer conv5_3/dw/scale
I0903 21:18:58.966806 12836 net.cpp:434] conv5_3/dw/scale <- conv5_3/dw
I0903 21:18:58.966814 12836 net.cpp:395] conv5_3/dw/scale -> conv5_3/dw (in-place)
I0903 21:18:58.966855 12836 layer_factory.hpp:77] Creating layer conv5_3/dw/scale
I0903 21:18:58.966954 12836 net.cpp:150] Setting up conv5_3/dw/scale
I0903 21:18:58.966961 12836 net.cpp:157] Top shape: 16 512 19 19 (2957312)
I0903 21:18:58.966965 12836 net.cpp:165] Memory required for data: 2147590272
I0903 21:18:58.966970 12836 layer_factory.hpp:77] Creating layer conv5_3/dw_relu
I0903 21:18:58.966975 12836 net.cpp:100] Creating Layer conv5_3/dw_relu
I0903 21:18:58.966979 12836 net.cpp:434] conv5_3/dw_relu <- conv5_3/dw
I0903 21:18:58.966984 12836 net.cpp:395] conv5_3/dw_relu -> conv5_3/dw (in-place)
I0903 21:18:58.967675 12836 net.cpp:150] Setting up conv5_3/dw_relu
I0903 21:18:58.967687 12836 net.cpp:157] Top shape: 16 512 19 19 (2957312)
I0903 21:18:58.967690 12836 net.cpp:165] Memory required for data: 2159419520
I0903 21:18:58.967694 12836 layer_factory.hpp:77] Creating layer conv5_3/sep
I0903 21:18:58.967705 12836 net.cpp:100] Creating Layer conv5_3/sep
I0903 21:18:58.967708 12836 net.cpp:434] conv5_3/sep <- conv5_3/dw
I0903 21:18:58.967715 12836 net.cpp:408] conv5_3/sep -> conv5_3/sep
I0903 21:18:58.971297 12836 net.cpp:150] Setting up conv5_3/sep
I0903 21:18:58.971310 12836 net.cpp:157] Top shape: 16 512 19 19 (2957312)
I0903 21:18:58.971313 12836 net.cpp:165] Memory required for data: 2171248768
I0903 21:18:58.971319 12836 layer_factory.hpp:77] Creating layer conv5_3/sep/bn
I0903 21:18:58.971325 12836 net.cpp:100] Creating Layer conv5_3/sep/bn
I0903 21:18:58.971329 12836 net.cpp:434] conv5_3/sep/bn <- conv5_3/sep
I0903 21:18:58.971336 12836 net.cpp:395] conv5_3/sep/bn -> conv5_3/sep (in-place)
I0903 21:18:58.971513 12836 net.cpp:150] Setting up conv5_3/sep/bn
I0903 21:18:58.971519 12836 net.cpp:157] Top shape: 16 512 19 19 (2957312)
I0903 21:18:58.971524 12836 net.cpp:165] Memory required for data: 2183078016
I0903 21:18:58.971530 12836 layer_factory.hpp:77] Creating layer conv5_3/sep/scale
I0903 21:18:58.971536 12836 net.cpp:100] Creating Layer conv5_3/sep/scale
I0903 21:18:58.971540 12836 net.cpp:434] conv5_3/sep/scale <- conv5_3/sep
I0903 21:18:58.971546 12836 net.cpp:395] conv5_3/sep/scale -> conv5_3/sep (in-place)
I0903 21:18:58.971586 12836 layer_factory.hpp:77] Creating layer conv5_3/sep/scale
I0903 21:18:58.971700 12836 net.cpp:150] Setting up conv5_3/sep/scale
I0903 21:18:58.971709 12836 net.cpp:157] Top shape: 16 512 19 19 (2957312)
I0903 21:18:58.971712 12836 net.cpp:165] Memory required for data: 2194907264
I0903 21:18:58.971717 12836 layer_factory.hpp:77] Creating layer conv5_3/sep_relu
I0903 21:18:58.971724 12836 net.cpp:100] Creating Layer conv5_3/sep_relu
I0903 21:18:58.971727 12836 net.cpp:434] conv5_3/sep_relu <- conv5_3/sep
I0903 21:18:58.971734 12836 net.cpp:395] conv5_3/sep_relu -> conv5_3/sep (in-place)
I0903 21:18:58.972329 12836 net.cpp:150] Setting up conv5_3/sep_relu
I0903 21:18:58.972340 12836 net.cpp:157] Top shape: 16 512 19 19 (2957312)
I0903 21:18:58.972344 12836 net.cpp:165] Memory required for data: 2206736512
I0903 21:18:58.972348 12836 layer_factory.hpp:77] Creating layer conv5_4/dw
I0903 21:18:58.972357 12836 net.cpp:100] Creating Layer conv5_4/dw
I0903 21:18:58.972362 12836 net.cpp:434] conv5_4/dw <- conv5_3/sep
I0903 21:18:58.972368 12836 net.cpp:408] conv5_4/dw -> conv5_4/dw
I0903 21:18:58.972580 12836 net.cpp:150] Setting up conv5_4/dw
I0903 21:18:58.972589 12836 net.cpp:157] Top shape: 16 512 19 19 (2957312)
I0903 21:18:58.972591 12836 net.cpp:165] Memory required for data: 2218565760
I0903 21:18:58.972596 12836 layer_factory.hpp:77] Creating layer conv5_4/dw/bn
I0903 21:18:58.972604 12836 net.cpp:100] Creating Layer conv5_4/dw/bn
I0903 21:18:58.972607 12836 net.cpp:434] conv5_4/dw/bn <- conv5_4/dw
I0903 21:18:58.972612 12836 net.cpp:395] conv5_4/dw/bn -> conv5_4/dw (in-place)
I0903 21:18:58.972779 12836 net.cpp:150] Setting up conv5_4/dw/bn
I0903 21:18:58.972785 12836 net.cpp:157] Top shape: 16 512 19 19 (2957312)
I0903 21:18:58.972789 12836 net.cpp:165] Memory required for data: 2230395008
I0903 21:18:58.972795 12836 layer_factory.hpp:77] Creating layer conv5_4/dw/scale
I0903 21:18:58.972805 12836 net.cpp:100] Creating Layer conv5_4/dw/scale
I0903 21:18:58.972808 12836 net.cpp:434] conv5_4/dw/scale <- conv5_4/dw
I0903 21:18:58.972813 12836 net.cpp:395] conv5_4/dw/scale -> conv5_4/dw (in-place)
I0903 21:18:58.972853 12836 layer_factory.hpp:77] Creating layer conv5_4/dw/scale
I0903 21:18:58.972955 12836 net.cpp:150] Setting up conv5_4/dw/scale
I0903 21:18:58.972962 12836 net.cpp:157] Top shape: 16 512 19 19 (2957312)
I0903 21:18:58.972965 12836 net.cpp:165] Memory required for data: 2242224256
I0903 21:18:58.972971 12836 layer_factory.hpp:77] Creating layer conv5_4/dw_relu
I0903 21:18:58.972976 12836 net.cpp:100] Creating Layer conv5_4/dw_relu
I0903 21:18:58.972980 12836 net.cpp:434] conv5_4/dw_relu <- conv5_4/dw
I0903 21:18:58.972985 12836 net.cpp:395] conv5_4/dw_relu -> conv5_4/dw (in-place)
I0903 21:18:58.973137 12836 net.cpp:150] Setting up conv5_4/dw_relu
I0903 21:18:58.973145 12836 net.cpp:157] Top shape: 16 512 19 19 (2957312)
I0903 21:18:58.973150 12836 net.cpp:165] Memory required for data: 2254053504
I0903 21:18:58.973155 12836 layer_factory.hpp:77] Creating layer conv5_4/sep
I0903 21:18:58.973162 12836 net.cpp:100] Creating Layer conv5_4/sep
I0903 21:18:58.973166 12836 net.cpp:434] conv5_4/sep <- conv5_4/dw
I0903 21:18:58.973173 12836 net.cpp:408] conv5_4/sep -> conv5_4/sep
I0903 21:18:58.977180 12836 net.cpp:150] Setting up conv5_4/sep
I0903 21:18:58.977193 12836 net.cpp:157] Top shape: 16 512 19 19 (2957312)
I0903 21:18:58.977218 12836 net.cpp:165] Memory required for data: 2265882752
I0903 21:18:58.977224 12836 layer_factory.hpp:77] Creating layer conv5_4/sep/bn
I0903 21:18:58.977233 12836 net.cpp:100] Creating Layer conv5_4/sep/bn
I0903 21:18:58.977237 12836 net.cpp:434] conv5_4/sep/bn <- conv5_4/sep
I0903 21:18:58.977243 12836 net.cpp:395] conv5_4/sep/bn -> conv5_4/sep (in-place)
I0903 21:18:58.977422 12836 net.cpp:150] Setting up conv5_4/sep/bn
I0903 21:18:58.977429 12836 net.cpp:157] Top shape: 16 512 19 19 (2957312)
I0903 21:18:58.977432 12836 net.cpp:165] Memory required for data: 2277712000
I0903 21:18:58.977439 12836 layer_factory.hpp:77] Creating layer conv5_4/sep/scale
I0903 21:18:58.977447 12836 net.cpp:100] Creating Layer conv5_4/sep/scale
I0903 21:18:58.977460 12836 net.cpp:434] conv5_4/sep/scale <- conv5_4/sep
I0903 21:18:58.977465 12836 net.cpp:395] conv5_4/sep/scale -> conv5_4/sep (in-place)
I0903 21:18:58.977510 12836 layer_factory.hpp:77] Creating layer conv5_4/sep/scale
I0903 21:18:58.977612 12836 net.cpp:150] Setting up conv5_4/sep/scale
I0903 21:18:58.977619 12836 net.cpp:157] Top shape: 16 512 19 19 (2957312)
I0903 21:18:58.977622 12836 net.cpp:165] Memory required for data: 2289541248
I0903 21:18:58.977628 12836 layer_factory.hpp:77] Creating layer conv5_4/sep_relu
I0903 21:18:58.977633 12836 net.cpp:100] Creating Layer conv5_4/sep_relu
I0903 21:18:58.977638 12836 net.cpp:434] conv5_4/sep_relu <- conv5_4/sep
I0903 21:18:58.977643 12836 net.cpp:395] conv5_4/sep_relu -> conv5_4/sep (in-place)
I0903 21:18:58.978235 12836 net.cpp:150] Setting up conv5_4/sep_relu
I0903 21:18:58.978246 12836 net.cpp:157] Top shape: 16 512 19 19 (2957312)
I0903 21:18:58.978250 12836 net.cpp:165] Memory required for data: 2301370496
I0903 21:18:58.978253 12836 layer_factory.hpp:77] Creating layer conv5_5/dw
I0903 21:18:58.978263 12836 net.cpp:100] Creating Layer conv5_5/dw
I0903 21:18:58.978267 12836 net.cpp:434] conv5_5/dw <- conv5_4/sep
I0903 21:18:58.978274 12836 net.cpp:408] conv5_5/dw -> conv5_5/dw
I0903 21:18:58.978493 12836 net.cpp:150] Setting up conv5_5/dw
I0903 21:18:58.978502 12836 net.cpp:157] Top shape: 16 512 19 19 (2957312)
I0903 21:18:58.978505 12836 net.cpp:165] Memory required for data: 2313199744
I0903 21:18:58.978512 12836 layer_factory.hpp:77] Creating layer conv5_5/dw/bn
I0903 21:18:58.978516 12836 net.cpp:100] Creating Layer conv5_5/dw/bn
I0903 21:18:58.978520 12836 net.cpp:434] conv5_5/dw/bn <- conv5_5/dw
I0903 21:18:58.978525 12836 net.cpp:395] conv5_5/dw/bn -> conv5_5/dw (in-place)
I0903 21:18:58.978703 12836 net.cpp:150] Setting up conv5_5/dw/bn
I0903 21:18:58.978710 12836 net.cpp:157] Top shape: 16 512 19 19 (2957312)
I0903 21:18:58.978713 12836 net.cpp:165] Memory required for data: 2325028992
I0903 21:18:58.978729 12836 layer_factory.hpp:77] Creating layer conv5_5/dw/scale
I0903 21:18:58.978744 12836 net.cpp:100] Creating Layer conv5_5/dw/scale
I0903 21:18:58.978747 12836 net.cpp:434] conv5_5/dw/scale <- conv5_5/dw
I0903 21:18:58.978754 12836 net.cpp:395] conv5_5/dw/scale -> conv5_5/dw (in-place)
I0903 21:18:58.978798 12836 layer_factory.hpp:77] Creating layer conv5_5/dw/scale
I0903 21:18:58.978899 12836 net.cpp:150] Setting up conv5_5/dw/scale
I0903 21:18:58.978905 12836 net.cpp:157] Top shape: 16 512 19 19 (2957312)
I0903 21:18:58.978909 12836 net.cpp:165] Memory required for data: 2336858240
I0903 21:18:58.978914 12836 layer_factory.hpp:77] Creating layer conv5_5/dw_relu
I0903 21:18:58.978920 12836 net.cpp:100] Creating Layer conv5_5/dw_relu
I0903 21:18:58.978924 12836 net.cpp:434] conv5_5/dw_relu <- conv5_5/dw
I0903 21:18:58.978929 12836 net.cpp:395] conv5_5/dw_relu -> conv5_5/dw (in-place)
I0903 21:18:58.979084 12836 net.cpp:150] Setting up conv5_5/dw_relu
I0903 21:18:58.979091 12836 net.cpp:157] Top shape: 16 512 19 19 (2957312)
I0903 21:18:58.979095 12836 net.cpp:165] Memory required for data: 2348687488
I0903 21:18:58.979099 12836 layer_factory.hpp:77] Creating layer conv5_5/sep
I0903 21:18:58.979109 12836 net.cpp:100] Creating Layer conv5_5/sep
I0903 21:18:58.979112 12836 net.cpp:434] conv5_5/sep <- conv5_5/dw
I0903 21:18:58.979118 12836 net.cpp:408] conv5_5/sep -> conv5_5/sep
I0903 21:18:58.983130 12836 net.cpp:150] Setting up conv5_5/sep
I0903 21:18:58.983144 12836 net.cpp:157] Top shape: 16 512 19 19 (2957312)
I0903 21:18:58.983145 12836 net.cpp:165] Memory required for data: 2360516736
I0903 21:18:58.983150 12836 layer_factory.hpp:77] Creating layer conv5_5/sep/bn
I0903 21:18:58.983156 12836 net.cpp:100] Creating Layer conv5_5/sep/bn
I0903 21:18:58.983160 12836 net.cpp:434] conv5_5/sep/bn <- conv5_5/sep
I0903 21:18:58.983163 12836 net.cpp:395] conv5_5/sep/bn -> conv5_5/sep (in-place)
I0903 21:18:58.983340 12836 net.cpp:150] Setting up conv5_5/sep/bn
I0903 21:18:58.983347 12836 net.cpp:157] Top shape: 16 512 19 19 (2957312)
I0903 21:18:58.983359 12836 net.cpp:165] Memory required for data: 2372345984
I0903 21:18:58.983366 12836 layer_factory.hpp:77] Creating layer conv5_5/sep/scale
I0903 21:18:58.983374 12836 net.cpp:100] Creating Layer conv5_5/sep/scale
I0903 21:18:58.983378 12836 net.cpp:434] conv5_5/sep/scale <- conv5_5/sep
I0903 21:18:58.983383 12836 net.cpp:395] conv5_5/sep/scale -> conv5_5/sep (in-place)
I0903 21:18:58.983428 12836 layer_factory.hpp:77] Creating layer conv5_5/sep/scale
I0903 21:18:58.983531 12836 net.cpp:150] Setting up conv5_5/sep/scale
I0903 21:18:58.983539 12836 net.cpp:157] Top shape: 16 512 19 19 (2957312)
I0903 21:18:58.983542 12836 net.cpp:165] Memory required for data: 2384175232
I0903 21:18:58.983548 12836 layer_factory.hpp:77] Creating layer conv5_5/sep_relu
I0903 21:18:58.983553 12836 net.cpp:100] Creating Layer conv5_5/sep_relu
I0903 21:18:58.983557 12836 net.cpp:434] conv5_5/sep_relu <- conv5_5/sep
I0903 21:18:58.983562 12836 net.cpp:395] conv5_5/sep_relu -> conv5_5/sep (in-place)
I0903 21:18:58.984166 12836 net.cpp:150] Setting up conv5_5/sep_relu
I0903 21:18:58.984177 12836 net.cpp:157] Top shape: 16 512 19 19 (2957312)
I0903 21:18:58.984179 12836 net.cpp:165] Memory required for data: 2396004480
I0903 21:18:58.984182 12836 layer_factory.hpp:77] Creating layer conv5_5/sep_conv5_5/sep_relu_0_split
I0903 21:18:58.984187 12836 net.cpp:100] Creating Layer conv5_5/sep_conv5_5/sep_relu_0_split
I0903 21:18:58.984190 12836 net.cpp:434] conv5_5/sep_conv5_5/sep_relu_0_split <- conv5_5/sep
I0903 21:18:58.984196 12836 net.cpp:408] conv5_5/sep_conv5_5/sep_relu_0_split -> conv5_5/sep_conv5_5/sep_relu_0_split_0
I0903 21:18:58.984207 12836 net.cpp:408] conv5_5/sep_conv5_5/sep_relu_0_split -> conv5_5/sep_conv5_5/sep_relu_0_split_1
I0903 21:18:58.984215 12836 net.cpp:408] conv5_5/sep_conv5_5/sep_relu_0_split -> conv5_5/sep_conv5_5/sep_relu_0_split_2
I0903 21:18:58.984220 12836 net.cpp:408] conv5_5/sep_conv5_5/sep_relu_0_split -> conv5_5/sep_conv5_5/sep_relu_0_split_3
I0903 21:18:58.984285 12836 net.cpp:150] Setting up conv5_5/sep_conv5_5/sep_relu_0_split
I0903 21:18:58.984292 12836 net.cpp:157] Top shape: 16 512 19 19 (2957312)
I0903 21:18:58.984297 12836 net.cpp:157] Top shape: 16 512 19 19 (2957312)
I0903 21:18:58.984300 12836 net.cpp:157] Top shape: 16 512 19 19 (2957312)
I0903 21:18:58.984303 12836 net.cpp:157] Top shape: 16 512 19 19 (2957312)
I0903 21:18:58.984308 12836 net.cpp:165] Memory required for data: 2443321472
I0903 21:18:58.984310 12836 layer_factory.hpp:77] Creating layer conv5_6/dw
I0903 21:18:58.984318 12836 net.cpp:100] Creating Layer conv5_6/dw
I0903 21:18:58.984323 12836 net.cpp:434] conv5_6/dw <- conv5_5/sep_conv5_5/sep_relu_0_split_0
I0903 21:18:58.984329 12836 net.cpp:408] conv5_6/dw -> conv5_6/dw
I0903 21:18:58.984531 12836 net.cpp:150] Setting up conv5_6/dw
I0903 21:18:58.984539 12836 net.cpp:157] Top shape: 16 512 10 10 (819200)
I0903 21:18:58.984542 12836 net.cpp:165] Memory required for data: 2446598272
I0903 21:18:58.984547 12836 layer_factory.hpp:77] Creating layer conv5_6/dw/bn
I0903 21:18:58.984553 12836 net.cpp:100] Creating Layer conv5_6/dw/bn
I0903 21:18:58.984557 12836 net.cpp:434] conv5_6/dw/bn <- conv5_6/dw
I0903 21:18:58.984562 12836 net.cpp:395] conv5_6/dw/bn -> conv5_6/dw (in-place)
I0903 21:18:58.984736 12836 net.cpp:150] Setting up conv5_6/dw/bn
I0903 21:18:58.984743 12836 net.cpp:157] Top shape: 16 512 10 10 (819200)
I0903 21:18:58.984746 12836 net.cpp:165] Memory required for data: 2449875072
I0903 21:18:58.984753 12836 layer_factory.hpp:77] Creating layer conv5_6/dw/scale
I0903 21:18:58.984766 12836 net.cpp:100] Creating Layer conv5_6/dw/scale
I0903 21:18:58.984771 12836 net.cpp:434] conv5_6/dw/scale <- conv5_6/dw
I0903 21:18:58.984776 12836 net.cpp:395] conv5_6/dw/scale -> conv5_6/dw (in-place)
I0903 21:18:58.984813 12836 layer_factory.hpp:77] Creating layer conv5_6/dw/scale
I0903 21:18:58.984920 12836 net.cpp:150] Setting up conv5_6/dw/scale
I0903 21:18:58.984926 12836 net.cpp:157] Top shape: 16 512 10 10 (819200)
I0903 21:18:58.984930 12836 net.cpp:165] Memory required for data: 2453151872
I0903 21:18:58.984944 12836 layer_factory.hpp:77] Creating layer conv5_6/dw_relu
I0903 21:18:58.984951 12836 net.cpp:100] Creating Layer conv5_6/dw_relu
I0903 21:18:58.984954 12836 net.cpp:434] conv5_6/dw_relu <- conv5_6/dw
I0903 21:18:58.984958 12836 net.cpp:395] conv5_6/dw_relu -> conv5_6/dw (in-place)
I0903 21:18:58.985556 12836 net.cpp:150] Setting up conv5_6/dw_relu
I0903 21:18:58.985570 12836 net.cpp:157] Top shape: 16 512 10 10 (819200)
I0903 21:18:58.985575 12836 net.cpp:165] Memory required for data: 2456428672
I0903 21:18:58.985581 12836 layer_factory.hpp:77] Creating layer conv5_6/sep
I0903 21:18:58.985595 12836 net.cpp:100] Creating Layer conv5_6/sep
I0903 21:18:58.985601 12836 net.cpp:434] conv5_6/sep <- conv5_6/dw
I0903 21:18:58.985610 12836 net.cpp:408] conv5_6/sep -> conv5_6/sep
I0903 21:18:58.991946 12836 net.cpp:150] Setting up conv5_6/sep
I0903 21:18:58.991958 12836 net.cpp:157] Top shape: 16 1024 10 10 (1638400)
I0903 21:18:58.991962 12836 net.cpp:165] Memory required for data: 2462982272
I0903 21:18:58.991968 12836 layer_factory.hpp:77] Creating layer conv5_6/sep/bn
I0903 21:18:58.991974 12836 net.cpp:100] Creating Layer conv5_6/sep/bn
I0903 21:18:58.991981 12836 net.cpp:434] conv5_6/sep/bn <- conv5_6/sep
I0903 21:18:58.991986 12836 net.cpp:395] conv5_6/sep/bn -> conv5_6/sep (in-place)
I0903 21:18:58.992167 12836 net.cpp:150] Setting up conv5_6/sep/bn
I0903 21:18:58.992175 12836 net.cpp:157] Top shape: 16 1024 10 10 (1638400)
I0903 21:18:58.992179 12836 net.cpp:165] Memory required for data: 2469535872
I0903 21:18:58.992187 12836 layer_factory.hpp:77] Creating layer conv5_6/sep/scale
I0903 21:18:58.992192 12836 net.cpp:100] Creating Layer conv5_6/sep/scale
I0903 21:18:58.992197 12836 net.cpp:434] conv5_6/sep/scale <- conv5_6/sep
I0903 21:18:58.992202 12836 net.cpp:395] conv5_6/sep/scale -> conv5_6/sep (in-place)
I0903 21:18:58.992242 12836 layer_factory.hpp:77] Creating layer conv5_6/sep/scale
I0903 21:18:58.992347 12836 net.cpp:150] Setting up conv5_6/sep/scale
I0903 21:18:58.992354 12836 net.cpp:157] Top shape: 16 1024 10 10 (1638400)
I0903 21:18:58.992357 12836 net.cpp:165] Memory required for data: 2476089472
I0903 21:18:58.992363 12836 layer_factory.hpp:77] Creating layer conv5_6/sep_relu
I0903 21:18:58.992368 12836 net.cpp:100] Creating Layer conv5_6/sep_relu
I0903 21:18:58.992373 12836 net.cpp:434] conv5_6/sep_relu <- conv5_6/sep
I0903 21:18:58.992378 12836 net.cpp:395] conv5_6/sep_relu -> conv5_6/sep (in-place)
I0903 21:18:58.992532 12836 net.cpp:150] Setting up conv5_6/sep_relu
I0903 21:18:58.992542 12836 net.cpp:157] Top shape: 16 1024 10 10 (1638400)
I0903 21:18:58.992547 12836 net.cpp:165] Memory required for data: 2482643072
I0903 21:18:58.992548 12836 layer_factory.hpp:77] Creating layer conv6/dw
I0903 21:18:58.992557 12836 net.cpp:100] Creating Layer conv6/dw
I0903 21:18:58.992560 12836 net.cpp:434] conv6/dw <- conv5_6/sep
I0903 21:18:58.992566 12836 net.cpp:408] conv6/dw -> conv6/dw
I0903 21:18:58.992825 12836 net.cpp:150] Setting up conv6/dw
I0903 21:18:58.992832 12836 net.cpp:157] Top shape: 16 1024 10 10 (1638400)
I0903 21:18:58.992836 12836 net.cpp:165] Memory required for data: 2489196672
I0903 21:18:58.992841 12836 layer_factory.hpp:77] Creating layer conv6/dw/bn
I0903 21:18:58.992846 12836 net.cpp:100] Creating Layer conv6/dw/bn
I0903 21:18:58.992851 12836 net.cpp:434] conv6/dw/bn <- conv6/dw
I0903 21:18:58.992854 12836 net.cpp:395] conv6/dw/bn -> conv6/dw (in-place)
I0903 21:18:58.993026 12836 net.cpp:150] Setting up conv6/dw/bn
I0903 21:18:58.993034 12836 net.cpp:157] Top shape: 16 1024 10 10 (1638400)
I0903 21:18:58.993038 12836 net.cpp:165] Memory required for data: 2495750272
I0903 21:18:58.993044 12836 layer_factory.hpp:77] Creating layer conv6/dw/scale
I0903 21:18:58.993050 12836 net.cpp:100] Creating Layer conv6/dw/scale
I0903 21:18:58.993053 12836 net.cpp:434] conv6/dw/scale <- conv6/dw
I0903 21:18:58.993059 12836 net.cpp:395] conv6/dw/scale -> conv6/dw (in-place)
I0903 21:18:58.993098 12836 layer_factory.hpp:77] Creating layer conv6/dw/scale
I0903 21:18:58.993216 12836 net.cpp:150] Setting up conv6/dw/scale
I0903 21:18:58.993224 12836 net.cpp:157] Top shape: 16 1024 10 10 (1638400)
I0903 21:18:58.993227 12836 net.cpp:165] Memory required for data: 2502303872
I0903 21:18:58.993233 12836 layer_factory.hpp:77] Creating layer conv6/dw_relu
I0903 21:18:58.993238 12836 net.cpp:100] Creating Layer conv6/dw_relu
I0903 21:18:58.993242 12836 net.cpp:434] conv6/dw_relu <- conv6/dw
I0903 21:18:58.993248 12836 net.cpp:395] conv6/dw_relu -> conv6/dw (in-place)
I0903 21:18:58.993839 12836 net.cpp:150] Setting up conv6/dw_relu
I0903 21:18:58.993850 12836 net.cpp:157] Top shape: 16 1024 10 10 (1638400)
I0903 21:18:58.993854 12836 net.cpp:165] Memory required for data: 2508857472
I0903 21:18:58.993858 12836 layer_factory.hpp:77] Creating layer conv6/sep
I0903 21:18:58.993867 12836 net.cpp:100] Creating Layer conv6/sep
I0903 21:18:58.993871 12836 net.cpp:434] conv6/sep <- conv6/dw
I0903 21:18:58.993878 12836 net.cpp:408] conv6/sep -> conv6/sep
I0903 21:18:59.004817 12836 net.cpp:150] Setting up conv6/sep
I0903 21:18:59.004830 12836 net.cpp:157] Top shape: 16 1024 10 10 (1638400)
I0903 21:18:59.004834 12836 net.cpp:165] Memory required for data: 2515411072
I0903 21:18:59.004839 12836 layer_factory.hpp:77] Creating layer conv6/sep/bn
I0903 21:18:59.004847 12836 net.cpp:100] Creating Layer conv6/sep/bn
I0903 21:18:59.004850 12836 net.cpp:434] conv6/sep/bn <- conv6/sep
I0903 21:18:59.004856 12836 net.cpp:395] conv6/sep/bn -> conv6/sep (in-place)
I0903 21:18:59.005040 12836 net.cpp:150] Setting up conv6/sep/bn
I0903 21:18:59.005048 12836 net.cpp:157] Top shape: 16 1024 10 10 (1638400)
I0903 21:18:59.005051 12836 net.cpp:165] Memory required for data: 2521964672
I0903 21:18:59.005059 12836 layer_factory.hpp:77] Creating layer conv6/sep/scale
I0903 21:18:59.005064 12836 net.cpp:100] Creating Layer conv6/sep/scale
I0903 21:18:59.005067 12836 net.cpp:434] conv6/sep/scale <- conv6/sep
I0903 21:18:59.005074 12836 net.cpp:395] conv6/sep/scale -> conv6/sep (in-place)
I0903 21:18:59.005112 12836 layer_factory.hpp:77] Creating layer conv6/sep/scale
I0903 21:18:59.005221 12836 net.cpp:150] Setting up conv6/sep/scale
I0903 21:18:59.005228 12836 net.cpp:157] Top shape: 16 1024 10 10 (1638400)
I0903 21:18:59.005233 12836 net.cpp:165] Memory required for data: 2528518272
I0903 21:18:59.005239 12836 layer_factory.hpp:77] Creating layer conv6/sep_relu
I0903 21:18:59.005244 12836 net.cpp:100] Creating Layer conv6/sep_relu
I0903 21:18:59.005247 12836 net.cpp:434] conv6/sep_relu <- conv6/sep
I0903 21:18:59.005254 12836 net.cpp:395] conv6/sep_relu -> conv6/sep (in-place)
I0903 21:18:59.005405 12836 net.cpp:150] Setting up conv6/sep_relu
I0903 21:18:59.005414 12836 net.cpp:157] Top shape: 16 1024 10 10 (1638400)
I0903 21:18:59.005417 12836 net.cpp:165] Memory required for data: 2535071872
I0903 21:18:59.005420 12836 layer_factory.hpp:77] Creating layer conv6/sep_conv6/sep_relu_0_split
I0903 21:18:59.005429 12836 net.cpp:100] Creating Layer conv6/sep_conv6/sep_relu_0_split
I0903 21:18:59.005434 12836 net.cpp:434] conv6/sep_conv6/sep_relu_0_split <- conv6/sep
I0903 21:18:59.005439 12836 net.cpp:408] conv6/sep_conv6/sep_relu_0_split -> conv6/sep_conv6/sep_relu_0_split_0
I0903 21:18:59.005446 12836 net.cpp:408] conv6/sep_conv6/sep_relu_0_split -> conv6/sep_conv6/sep_relu_0_split_1
I0903 21:18:59.005452 12836 net.cpp:408] conv6/sep_conv6/sep_relu_0_split -> conv6/sep_conv6/sep_relu_0_split_2
I0903 21:18:59.005458 12836 net.cpp:408] conv6/sep_conv6/sep_relu_0_split -> conv6/sep_conv6/sep_relu_0_split_3
I0903 21:18:59.005522 12836 net.cpp:150] Setting up conv6/sep_conv6/sep_relu_0_split
I0903 21:18:59.005529 12836 net.cpp:157] Top shape: 16 1024 10 10 (1638400)
I0903 21:18:59.005533 12836 net.cpp:157] Top shape: 16 1024 10 10 (1638400)
I0903 21:18:59.005538 12836 net.cpp:157] Top shape: 16 1024 10 10 (1638400)
I0903 21:18:59.005542 12836 net.cpp:157] Top shape: 16 1024 10 10 (1638400)
I0903 21:18:59.005545 12836 net.cpp:165] Memory required for data: 2561286272
I0903 21:18:59.005548 12836 layer_factory.hpp:77] Creating layer conv7_1
I0903 21:18:59.005566 12836 net.cpp:100] Creating Layer conv7_1
I0903 21:18:59.005571 12836 net.cpp:434] conv7_1 <- conv6/sep_conv6/sep_relu_0_split_0
I0903 21:18:59.005578 12836 net.cpp:408] conv7_1 -> conv7_1
I0903 21:18:59.008728 12836 net.cpp:150] Setting up conv7_1
I0903 21:18:59.008740 12836 net.cpp:157] Top shape: 16 256 10 10 (409600)
I0903 21:18:59.008744 12836 net.cpp:165] Memory required for data: 2562924672
I0903 21:18:59.008751 12836 layer_factory.hpp:77] Creating layer conv7_1_relu
I0903 21:18:59.008757 12836 net.cpp:100] Creating Layer conv7_1_relu
I0903 21:18:59.008761 12836 net.cpp:434] conv7_1_relu <- conv7_1
I0903 21:18:59.008766 12836 net.cpp:395] conv7_1_relu -> conv7_1 (in-place)
I0903 21:18:59.009366 12836 net.cpp:150] Setting up conv7_1_relu
I0903 21:18:59.009378 12836 net.cpp:157] Top shape: 16 256 10 10 (409600)
I0903 21:18:59.009382 12836 net.cpp:165] Memory required for data: 2564563072
I0903 21:18:59.009385 12836 layer_factory.hpp:77] Creating layer conv7_2
I0903 21:18:59.009395 12836 net.cpp:100] Creating Layer conv7_2
I0903 21:18:59.009399 12836 net.cpp:434] conv7_2 <- conv7_1
I0903 21:18:59.009407 12836 net.cpp:408] conv7_2 -> conv7_2
I0903 21:18:59.016911 12836 net.cpp:150] Setting up conv7_2
I0903 21:18:59.016924 12836 net.cpp:157] Top shape: 16 512 5 5 (204800)
I0903 21:18:59.016928 12836 net.cpp:165] Memory required for data: 2565382272
I0903 21:18:59.016935 12836 layer_factory.hpp:77] Creating layer conv7_2_relu
I0903 21:18:59.016942 12836 net.cpp:100] Creating Layer conv7_2_relu
I0903 21:18:59.016945 12836 net.cpp:434] conv7_2_relu <- conv7_2
I0903 21:18:59.016952 12836 net.cpp:395] conv7_2_relu -> conv7_2 (in-place)
I0903 21:18:59.017545 12836 net.cpp:150] Setting up conv7_2_relu
I0903 21:18:59.017556 12836 net.cpp:157] Top shape: 16 512 5 5 (204800)
I0903 21:18:59.017560 12836 net.cpp:165] Memory required for data: 2566201472
I0903 21:18:59.017565 12836 layer_factory.hpp:77] Creating layer conv7_2_conv7_2_relu_0_split
I0903 21:18:59.017571 12836 net.cpp:100] Creating Layer conv7_2_conv7_2_relu_0_split
I0903 21:18:59.017576 12836 net.cpp:434] conv7_2_conv7_2_relu_0_split <- conv7_2
I0903 21:18:59.017582 12836 net.cpp:408] conv7_2_conv7_2_relu_0_split -> conv7_2_conv7_2_relu_0_split_0
I0903 21:18:59.017590 12836 net.cpp:408] conv7_2_conv7_2_relu_0_split -> conv7_2_conv7_2_relu_0_split_1
I0903 21:18:59.017596 12836 net.cpp:408] conv7_2_conv7_2_relu_0_split -> conv7_2_conv7_2_relu_0_split_2
I0903 21:18:59.017601 12836 net.cpp:408] conv7_2_conv7_2_relu_0_split -> conv7_2_conv7_2_relu_0_split_3
I0903 21:18:59.017671 12836 net.cpp:150] Setting up conv7_2_conv7_2_relu_0_split
I0903 21:18:59.017678 12836 net.cpp:157] Top shape: 16 512 5 5 (204800)
I0903 21:18:59.017683 12836 net.cpp:157] Top shape: 16 512 5 5 (204800)
I0903 21:18:59.017685 12836 net.cpp:157] Top shape: 16 512 5 5 (204800)
I0903 21:18:59.017689 12836 net.cpp:157] Top shape: 16 512 5 5 (204800)
I0903 21:18:59.017693 12836 net.cpp:165] Memory required for data: 2569478272
I0903 21:18:59.017698 12836 layer_factory.hpp:77] Creating layer conv8_1
I0903 21:18:59.017707 12836 net.cpp:100] Creating Layer conv8_1
I0903 21:18:59.017711 12836 net.cpp:434] conv8_1 <- conv7_2_conv7_2_relu_0_split_0
I0903 21:18:59.017719 12836 net.cpp:408] conv8_1 -> conv8_1
I0903 21:18:59.019613 12836 net.cpp:150] Setting up conv8_1
I0903 21:18:59.019626 12836 net.cpp:157] Top shape: 16 128 5 5 (51200)
I0903 21:18:59.019630 12836 net.cpp:165] Memory required for data: 2569683072
I0903 21:18:59.019636 12836 layer_factory.hpp:77] Creating layer conv8_1_relu
I0903 21:18:59.019644 12836 net.cpp:100] Creating Layer conv8_1_relu
I0903 21:18:59.019647 12836 net.cpp:434] conv8_1_relu <- conv8_1
I0903 21:18:59.019652 12836 net.cpp:395] conv8_1_relu -> conv8_1 (in-place)
I0903 21:18:59.019806 12836 net.cpp:150] Setting up conv8_1_relu
I0903 21:18:59.019815 12836 net.cpp:157] Top shape: 16 128 5 5 (51200)
I0903 21:18:59.019819 12836 net.cpp:165] Memory required for data: 2569887872
I0903 21:18:59.019824 12836 layer_factory.hpp:77] Creating layer conv8_2
I0903 21:18:59.019843 12836 net.cpp:100] Creating Layer conv8_2
I0903 21:18:59.019847 12836 net.cpp:434] conv8_2 <- conv8_1
I0903 21:18:59.019855 12836 net.cpp:408] conv8_2 -> conv8_2
I0903 21:18:59.023200 12836 net.cpp:150] Setting up conv8_2
I0903 21:18:59.023211 12836 net.cpp:157] Top shape: 16 256 3 3 (36864)
I0903 21:18:59.023216 12836 net.cpp:165] Memory required for data: 2570035328
I0903 21:18:59.023221 12836 layer_factory.hpp:77] Creating layer conv8_2_relu
I0903 21:18:59.023228 12836 net.cpp:100] Creating Layer conv8_2_relu
I0903 21:18:59.023232 12836 net.cpp:434] conv8_2_relu <- conv8_2
I0903 21:18:59.023239 12836 net.cpp:395] conv8_2_relu -> conv8_2 (in-place)
I0903 21:18:59.023838 12836 net.cpp:150] Setting up conv8_2_relu
I0903 21:18:59.023850 12836 net.cpp:157] Top shape: 16 256 3 3 (36864)
I0903 21:18:59.023854 12836 net.cpp:165] Memory required for data: 2570182784
I0903 21:18:59.023857 12836 layer_factory.hpp:77] Creating layer conv8_2_conv8_2_relu_0_split
I0903 21:18:59.023864 12836 net.cpp:100] Creating Layer conv8_2_conv8_2_relu_0_split
I0903 21:18:59.023869 12836 net.cpp:434] conv8_2_conv8_2_relu_0_split <- conv8_2
I0903 21:18:59.023875 12836 net.cpp:408] conv8_2_conv8_2_relu_0_split -> conv8_2_conv8_2_relu_0_split_0
I0903 21:18:59.023882 12836 net.cpp:408] conv8_2_conv8_2_relu_0_split -> conv8_2_conv8_2_relu_0_split_1
I0903 21:18:59.023888 12836 net.cpp:408] conv8_2_conv8_2_relu_0_split -> conv8_2_conv8_2_relu_0_split_2
I0903 21:18:59.023895 12836 net.cpp:408] conv8_2_conv8_2_relu_0_split -> conv8_2_conv8_2_relu_0_split_3
I0903 21:18:59.023962 12836 net.cpp:150] Setting up conv8_2_conv8_2_relu_0_split
I0903 21:18:59.023969 12836 net.cpp:157] Top shape: 16 256 3 3 (36864)
I0903 21:18:59.023973 12836 net.cpp:157] Top shape: 16 256 3 3 (36864)
I0903 21:18:59.023977 12836 net.cpp:157] Top shape: 16 256 3 3 (36864)
I0903 21:18:59.023980 12836 net.cpp:157] Top shape: 16 256 3 3 (36864)
I0903 21:18:59.023984 12836 net.cpp:165] Memory required for data: 2570772608
I0903 21:18:59.023988 12836 layer_factory.hpp:77] Creating layer conv9_1
I0903 21:18:59.023998 12836 net.cpp:100] Creating Layer conv9_1
I0903 21:18:59.024003 12836 net.cpp:434] conv9_1 <- conv8_2_conv8_2_relu_0_split_0
I0903 21:18:59.024009 12836 net.cpp:408] conv9_1 -> conv9_1
I0903 21:18:59.025316 12836 net.cpp:150] Setting up conv9_1
I0903 21:18:59.025328 12836 net.cpp:157] Top shape: 16 128 3 3 (18432)
I0903 21:18:59.025332 12836 net.cpp:165] Memory required for data: 2570846336
I0903 21:18:59.025338 12836 layer_factory.hpp:77] Creating layer conv9_1_relu
I0903 21:18:59.025344 12836 net.cpp:100] Creating Layer conv9_1_relu
I0903 21:18:59.025348 12836 net.cpp:434] conv9_1_relu <- conv9_1
I0903 21:18:59.025355 12836 net.cpp:395] conv9_1_relu -> conv9_1 (in-place)
I0903 21:18:59.025952 12836 net.cpp:150] Setting up conv9_1_relu
I0903 21:18:59.025964 12836 net.cpp:157] Top shape: 16 128 3 3 (18432)
I0903 21:18:59.025967 12836 net.cpp:165] Memory required for data: 2570920064
I0903 21:18:59.025971 12836 layer_factory.hpp:77] Creating layer conv9_2
I0903 21:18:59.025981 12836 net.cpp:100] Creating Layer conv9_2
I0903 21:18:59.025985 12836 net.cpp:434] conv9_2 <- conv9_1
I0903 21:18:59.025992 12836 net.cpp:408] conv9_2 -> conv9_2
I0903 21:18:59.029968 12836 net.cpp:150] Setting up conv9_2
I0903 21:18:59.029979 12836 net.cpp:157] Top shape: 16 256 2 2 (16384)
I0903 21:18:59.029981 12836 net.cpp:165] Memory required for data: 2570985600
I0903 21:18:59.029986 12836 layer_factory.hpp:77] Creating layer conv9_2_relu
I0903 21:18:59.029991 12836 net.cpp:100] Creating Layer conv9_2_relu
I0903 21:18:59.029994 12836 net.cpp:434] conv9_2_relu <- conv9_2
I0903 21:18:59.029999 12836 net.cpp:395] conv9_2_relu -> conv9_2 (in-place)
I0903 21:18:59.030159 12836 net.cpp:150] Setting up conv9_2_relu
I0903 21:18:59.030169 12836 net.cpp:157] Top shape: 16 256 2 2 (16384)
I0903 21:18:59.030171 12836 net.cpp:165] Memory required for data: 2571051136
I0903 21:18:59.030175 12836 layer_factory.hpp:77] Creating layer conv9_2_conv9_2_relu_0_split
I0903 21:18:59.030181 12836 net.cpp:100] Creating Layer conv9_2_conv9_2_relu_0_split
I0903 21:18:59.030194 12836 net.cpp:434] conv9_2_conv9_2_relu_0_split <- conv9_2
I0903 21:18:59.030202 12836 net.cpp:408] conv9_2_conv9_2_relu_0_split -> conv9_2_conv9_2_relu_0_split_0
I0903 21:18:59.030210 12836 net.cpp:408] conv9_2_conv9_2_relu_0_split -> conv9_2_conv9_2_relu_0_split_1
I0903 21:18:59.030215 12836 net.cpp:408] conv9_2_conv9_2_relu_0_split -> conv9_2_conv9_2_relu_0_split_2
I0903 21:18:59.030221 12836 net.cpp:408] conv9_2_conv9_2_relu_0_split -> conv9_2_conv9_2_relu_0_split_3
I0903 21:18:59.030292 12836 net.cpp:150] Setting up conv9_2_conv9_2_relu_0_split
I0903 21:18:59.030297 12836 net.cpp:157] Top shape: 16 256 2 2 (16384)
I0903 21:18:59.030324 12836 net.cpp:157] Top shape: 16 256 2 2 (16384)
I0903 21:18:59.030328 12836 net.cpp:157] Top shape: 16 256 2 2 (16384)
I0903 21:18:59.030329 12836 net.cpp:157] Top shape: 16 256 2 2 (16384)
I0903 21:18:59.030331 12836 net.cpp:165] Memory required for data: 2571313280
I0903 21:18:59.030334 12836 layer_factory.hpp:77] Creating layer conv10_1
I0903 21:18:59.030344 12836 net.cpp:100] Creating Layer conv10_1
I0903 21:18:59.030349 12836 net.cpp:434] conv10_1 <- conv9_2_conv9_2_relu_0_split_0
I0903 21:18:59.030355 12836 net.cpp:408] conv10_1 -> conv10_1
I0903 21:18:59.032107 12836 net.cpp:150] Setting up conv10_1
I0903 21:18:59.032119 12836 net.cpp:157] Top shape: 16 128 2 2 (8192)
I0903 21:18:59.032124 12836 net.cpp:165] Memory required for data: 2571346048
I0903 21:18:59.032130 12836 layer_factory.hpp:77] Creating layer conv10_1_relu
I0903 21:18:59.032150 12836 net.cpp:100] Creating Layer conv10_1_relu
I0903 21:18:59.032155 12836 net.cpp:434] conv10_1_relu <- conv10_1
I0903 21:18:59.032160 12836 net.cpp:395] conv10_1_relu -> conv10_1 (in-place)
I0903 21:18:59.032762 12836 net.cpp:150] Setting up conv10_1_relu
I0903 21:18:59.032773 12836 net.cpp:157] Top shape: 16 128 2 2 (8192)
I0903 21:18:59.032775 12836 net.cpp:165] Memory required for data: 2571378816
I0903 21:18:59.032780 12836 layer_factory.hpp:77] Creating layer conv10_2
I0903 21:18:59.032790 12836 net.cpp:100] Creating Layer conv10_2
I0903 21:18:59.032794 12836 net.cpp:434] conv10_2 <- conv10_1
I0903 21:18:59.032801 12836 net.cpp:408] conv10_2 -> conv10_2
I0903 21:18:59.035712 12836 net.cpp:150] Setting up conv10_2
I0903 21:18:59.035724 12836 net.cpp:157] Top shape: 16 256 1 1 (4096)
I0903 21:18:59.035727 12836 net.cpp:165] Memory required for data: 2571395200
I0903 21:18:59.035732 12836 layer_factory.hpp:77] Creating layer conv10_2_relu
I0903 21:18:59.035737 12836 net.cpp:100] Creating Layer conv10_2_relu
I0903 21:18:59.035740 12836 net.cpp:434] conv10_2_relu <- conv10_2
I0903 21:18:59.035745 12836 net.cpp:395] conv10_2_relu -> conv10_2 (in-place)
I0903 21:18:59.036343 12836 net.cpp:150] Setting up conv10_2_relu
I0903 21:18:59.036355 12836 net.cpp:157] Top shape: 16 256 1 1 (4096)
I0903 21:18:59.036356 12836 net.cpp:165] Memory required for data: 2571411584
I0903 21:18:59.036360 12836 layer_factory.hpp:77] Creating layer conv10_2_conv10_2_relu_0_split
I0903 21:18:59.036365 12836 net.cpp:100] Creating Layer conv10_2_conv10_2_relu_0_split
I0903 21:18:59.036368 12836 net.cpp:434] conv10_2_conv10_2_relu_0_split <- conv10_2
I0903 21:18:59.036373 12836 net.cpp:408] conv10_2_conv10_2_relu_0_split -> conv10_2_conv10_2_relu_0_split_0
I0903 21:18:59.036388 12836 net.cpp:408] conv10_2_conv10_2_relu_0_split -> conv10_2_conv10_2_relu_0_split_1
I0903 21:18:59.036396 12836 net.cpp:408] conv10_2_conv10_2_relu_0_split -> conv10_2_conv10_2_relu_0_split_2
I0903 21:18:59.036453 12836 net.cpp:150] Setting up conv10_2_conv10_2_relu_0_split
I0903 21:18:59.036460 12836 net.cpp:157] Top shape: 16 256 1 1 (4096)
I0903 21:18:59.036465 12836 net.cpp:157] Top shape: 16 256 1 1 (4096)
I0903 21:18:59.036468 12836 net.cpp:157] Top shape: 16 256 1 1 (4096)
I0903 21:18:59.036470 12836 net.cpp:165] Memory required for data: 2571460736
I0903 21:18:59.036474 12836 layer_factory.hpp:77] Creating layer conv5_5/sep_mbox_loc
I0903 21:18:59.036484 12836 net.cpp:100] Creating Layer conv5_5/sep_mbox_loc
I0903 21:18:59.036497 12836 net.cpp:434] conv5_5/sep_mbox_loc <- conv5_5/sep_conv5_5/sep_relu_0_split_1
I0903 21:18:59.036504 12836 net.cpp:408] conv5_5/sep_mbox_loc -> conv5_5/sep_mbox_loc
I0903 21:18:59.038807 12836 net.cpp:150] Setting up conv5_5/sep_mbox_loc
I0903 21:18:59.038820 12836 net.cpp:157] Top shape: 16 12 19 19 (69312)
I0903 21:18:59.038823 12836 net.cpp:165] Memory required for data: 2571737984
I0903 21:18:59.038830 12836 layer_factory.hpp:77] Creating layer conv5_5/sep_mbox_loc_perm
I0903 21:18:59.038839 12836 net.cpp:100] Creating Layer conv5_5/sep_mbox_loc_perm
I0903 21:18:59.038843 12836 net.cpp:434] conv5_5/sep_mbox_loc_perm <- conv5_5/sep_mbox_loc
I0903 21:18:59.038849 12836 net.cpp:408] conv5_5/sep_mbox_loc_perm -> conv5_5/sep_mbox_loc_perm
I0903 21:18:59.038964 12836 net.cpp:150] Setting up conv5_5/sep_mbox_loc_perm
I0903 21:18:59.038971 12836 net.cpp:157] Top shape: 16 19 19 12 (69312)
I0903 21:18:59.038975 12836 net.cpp:165] Memory required for data: 2572015232
I0903 21:18:59.038978 12836 layer_factory.hpp:77] Creating layer conv5_5/sep_mbox_loc_flat
I0903 21:18:59.038987 12836 net.cpp:100] Creating Layer conv5_5/sep_mbox_loc_flat
I0903 21:18:59.038991 12836 net.cpp:434] conv5_5/sep_mbox_loc_flat <- conv5_5/sep_mbox_loc_perm
I0903 21:18:59.038997 12836 net.cpp:408] conv5_5/sep_mbox_loc_flat -> conv5_5/sep_mbox_loc_flat
I0903 21:18:59.039029 12836 net.cpp:150] Setting up conv5_5/sep_mbox_loc_flat
I0903 21:18:59.039036 12836 net.cpp:157] Top shape: 16 4332 (69312)
I0903 21:18:59.039039 12836 net.cpp:165] Memory required for data: 2572292480
I0903 21:18:59.039042 12836 layer_factory.hpp:77] Creating layer conv5_5/sep_mbox_conf
I0903 21:18:59.039053 12836 net.cpp:100] Creating Layer conv5_5/sep_mbox_conf
I0903 21:18:59.039057 12836 net.cpp:434] conv5_5/sep_mbox_conf <- conv5_5/sep_conv5_5/sep_relu_0_split_2
I0903 21:18:59.039063 12836 net.cpp:408] conv5_5/sep_mbox_conf -> conv5_5/sep_mbox_conf
I0903 21:18:59.041767 12836 net.cpp:150] Setting up conv5_5/sep_mbox_conf
I0903 21:18:59.041780 12836 net.cpp:157] Top shape: 16 12 19 19 (69312)
I0903 21:18:59.041784 12836 net.cpp:165] Memory required for data: 2572569728
I0903 21:18:59.041790 12836 layer_factory.hpp:77] Creating layer conv5_5/sep_mbox_conf_perm
I0903 21:18:59.041798 12836 net.cpp:100] Creating Layer conv5_5/sep_mbox_conf_perm
I0903 21:18:59.041802 12836 net.cpp:434] conv5_5/sep_mbox_conf_perm <- conv5_5/sep_mbox_conf
I0903 21:18:59.041808 12836 net.cpp:408] conv5_5/sep_mbox_conf_perm -> conv5_5/sep_mbox_conf_perm
I0903 21:18:59.041918 12836 net.cpp:150] Setting up conv5_5/sep_mbox_conf_perm
I0903 21:18:59.041926 12836 net.cpp:157] Top shape: 16 19 19 12 (69312)
I0903 21:18:59.041929 12836 net.cpp:165] Memory required for data: 2572846976
I0903 21:18:59.041934 12836 layer_factory.hpp:77] Creating layer conv5_5/sep_mbox_conf_flat
I0903 21:18:59.041940 12836 net.cpp:100] Creating Layer conv5_5/sep_mbox_conf_flat
I0903 21:18:59.041944 12836 net.cpp:434] conv5_5/sep_mbox_conf_flat <- conv5_5/sep_mbox_conf_perm
I0903 21:18:59.041949 12836 net.cpp:408] conv5_5/sep_mbox_conf_flat -> conv5_5/sep_mbox_conf_flat
I0903 21:18:59.041981 12836 net.cpp:150] Setting up conv5_5/sep_mbox_conf_flat
I0903 21:18:59.041987 12836 net.cpp:157] Top shape: 16 4332 (69312)
I0903 21:18:59.041990 12836 net.cpp:165] Memory required for data: 2573124224
I0903 21:18:59.041995 12836 layer_factory.hpp:77] Creating layer conv5_5/sep_mbox_priorbox
I0903 21:18:59.042003 12836 net.cpp:100] Creating Layer conv5_5/sep_mbox_priorbox
I0903 21:18:59.042007 12836 net.cpp:434] conv5_5/sep_mbox_priorbox <- conv5_5/sep_conv5_5/sep_relu_0_split_3
I0903 21:18:59.042012 12836 net.cpp:434] conv5_5/sep_mbox_priorbox <- data_data_0_split_1
I0903 21:18:59.042018 12836 net.cpp:408] conv5_5/sep_mbox_priorbox -> conv5_5/sep_mbox_priorbox
I0903 21:18:59.042052 12836 net.cpp:150] Setting up conv5_5/sep_mbox_priorbox
I0903 21:18:59.042057 12836 net.cpp:157] Top shape: 1 2 4332 (8664)
I0903 21:18:59.042060 12836 net.cpp:165] Memory required for data: 2573158880
I0903 21:18:59.042064 12836 layer_factory.hpp:77] Creating layer conv6/sep_mbox_loc
I0903 21:18:59.042083 12836 net.cpp:100] Creating Layer conv6/sep_mbox_loc
I0903 21:18:59.042088 12836 net.cpp:434] conv6/sep_mbox_loc <- conv6/sep_conv6/sep_relu_0_split_1
I0903 21:18:59.042095 12836 net.cpp:408] conv6/sep_mbox_loc -> conv6/sep_mbox_loc
I0903 21:18:59.045114 12836 net.cpp:150] Setting up conv6/sep_mbox_loc
I0903 21:18:59.045126 12836 net.cpp:157] Top shape: 16 24 10 10 (38400)
I0903 21:18:59.045130 12836 net.cpp:165] Memory required for data: 2573312480
I0903 21:18:59.045137 12836 layer_factory.hpp:77] Creating layer conv6/sep_mbox_loc_perm
I0903 21:18:59.045145 12836 net.cpp:100] Creating Layer conv6/sep_mbox_loc_perm
I0903 21:18:59.045150 12836 net.cpp:434] conv6/sep_mbox_loc_perm <- conv6/sep_mbox_loc
I0903 21:18:59.045155 12836 net.cpp:408] conv6/sep_mbox_loc_perm -> conv6/sep_mbox_loc_perm
I0903 21:18:59.045264 12836 net.cpp:150] Setting up conv6/sep_mbox_loc_perm
I0903 21:18:59.045271 12836 net.cpp:157] Top shape: 16 10 10 24 (38400)
I0903 21:18:59.045275 12836 net.cpp:165] Memory required for data: 2573466080
I0903 21:18:59.045279 12836 layer_factory.hpp:77] Creating layer conv6/sep_mbox_loc_flat
I0903 21:18:59.045286 12836 net.cpp:100] Creating Layer conv6/sep_mbox_loc_flat
I0903 21:18:59.045290 12836 net.cpp:434] conv6/sep_mbox_loc_flat <- conv6/sep_mbox_loc_perm
I0903 21:18:59.045295 12836 net.cpp:408] conv6/sep_mbox_loc_flat -> conv6/sep_mbox_loc_flat
I0903 21:18:59.045323 12836 net.cpp:150] Setting up conv6/sep_mbox_loc_flat
I0903 21:18:59.045330 12836 net.cpp:157] Top shape: 16 2400 (38400)
I0903 21:18:59.045332 12836 net.cpp:165] Memory required for data: 2573619680
I0903 21:18:59.045336 12836 layer_factory.hpp:77] Creating layer conv6/sep_mbox_conf
I0903 21:18:59.045346 12836 net.cpp:100] Creating Layer conv6/sep_mbox_conf
I0903 21:18:59.045349 12836 net.cpp:434] conv6/sep_mbox_conf <- conv6/sep_conv6/sep_relu_0_split_2
I0903 21:18:59.045356 12836 net.cpp:408] conv6/sep_mbox_conf -> conv6/sep_mbox_conf
I0903 21:18:59.048779 12836 net.cpp:150] Setting up conv6/sep_mbox_conf
I0903 21:18:59.048792 12836 net.cpp:157] Top shape: 16 24 10 10 (38400)
I0903 21:18:59.048795 12836 net.cpp:165] Memory required for data: 2573773280
I0903 21:18:59.048802 12836 layer_factory.hpp:77] Creating layer conv6/sep_mbox_conf_perm
I0903 21:18:59.048810 12836 net.cpp:100] Creating Layer conv6/sep_mbox_conf_perm
I0903 21:18:59.048815 12836 net.cpp:434] conv6/sep_mbox_conf_perm <- conv6/sep_mbox_conf
I0903 21:18:59.048820 12836 net.cpp:408] conv6/sep_mbox_conf_perm -> conv6/sep_mbox_conf_perm
I0903 21:18:59.048933 12836 net.cpp:150] Setting up conv6/sep_mbox_conf_perm
I0903 21:18:59.048941 12836 net.cpp:157] Top shape: 16 10 10 24 (38400)
I0903 21:18:59.048944 12836 net.cpp:165] Memory required for data: 2573926880
I0903 21:18:59.048949 12836 layer_factory.hpp:77] Creating layer conv6/sep_mbox_conf_flat
I0903 21:18:59.048956 12836 net.cpp:100] Creating Layer conv6/sep_mbox_conf_flat
I0903 21:18:59.048960 12836 net.cpp:434] conv6/sep_mbox_conf_flat <- conv6/sep_mbox_conf_perm
I0903 21:18:59.048965 12836 net.cpp:408] conv6/sep_mbox_conf_flat -> conv6/sep_mbox_conf_flat
I0903 21:18:59.048995 12836 net.cpp:150] Setting up conv6/sep_mbox_conf_flat
I0903 21:18:59.049000 12836 net.cpp:157] Top shape: 16 2400 (38400)
I0903 21:18:59.049003 12836 net.cpp:165] Memory required for data: 2574080480
I0903 21:18:59.049007 12836 layer_factory.hpp:77] Creating layer conv6/sep_mbox_priorbox
I0903 21:18:59.049015 12836 net.cpp:100] Creating Layer conv6/sep_mbox_priorbox
I0903 21:18:59.049018 12836 net.cpp:434] conv6/sep_mbox_priorbox <- conv6/sep_conv6/sep_relu_0_split_3
I0903 21:18:59.049023 12836 net.cpp:434] conv6/sep_mbox_priorbox <- data_data_0_split_2
I0903 21:18:59.049029 12836 net.cpp:408] conv6/sep_mbox_priorbox -> conv6/sep_mbox_priorbox
I0903 21:18:59.049058 12836 net.cpp:150] Setting up conv6/sep_mbox_priorbox
I0903 21:18:59.049064 12836 net.cpp:157] Top shape: 1 2 2400 (4800)
I0903 21:18:59.049067 12836 net.cpp:165] Memory required for data: 2574099680
I0903 21:18:59.049080 12836 layer_factory.hpp:77] Creating layer conv7_2_mbox_loc
I0903 21:18:59.049091 12836 net.cpp:100] Creating Layer conv7_2_mbox_loc
I0903 21:18:59.049095 12836 net.cpp:434] conv7_2_mbox_loc <- conv7_2_conv7_2_relu_0_split_1
I0903 21:18:59.049103 12836 net.cpp:408] conv7_2_mbox_loc -> conv7_2_mbox_loc
I0903 21:18:59.051679 12836 net.cpp:150] Setting up conv7_2_mbox_loc
I0903 21:18:59.051692 12836 net.cpp:157] Top shape: 16 24 5 5 (9600)
I0903 21:18:59.051695 12836 net.cpp:165] Memory required for data: 2574138080
I0903 21:18:59.051702 12836 layer_factory.hpp:77] Creating layer conv7_2_mbox_loc_perm
I0903 21:18:59.051709 12836 net.cpp:100] Creating Layer conv7_2_mbox_loc_perm
I0903 21:18:59.051714 12836 net.cpp:434] conv7_2_mbox_loc_perm <- conv7_2_mbox_loc
I0903 21:18:59.051719 12836 net.cpp:408] conv7_2_mbox_loc_perm -> conv7_2_mbox_loc_perm
I0903 21:18:59.051834 12836 net.cpp:150] Setting up conv7_2_mbox_loc_perm
I0903 21:18:59.051842 12836 net.cpp:157] Top shape: 16 5 5 24 (9600)
I0903 21:18:59.051846 12836 net.cpp:165] Memory required for data: 2574176480
I0903 21:18:59.051849 12836 layer_factory.hpp:77] Creating layer conv7_2_mbox_loc_flat
I0903 21:18:59.051856 12836 net.cpp:100] Creating Layer conv7_2_mbox_loc_flat
I0903 21:18:59.051859 12836 net.cpp:434] conv7_2_mbox_loc_flat <- conv7_2_mbox_loc_perm
I0903 21:18:59.051867 12836 net.cpp:408] conv7_2_mbox_loc_flat -> conv7_2_mbox_loc_flat
I0903 21:18:59.051895 12836 net.cpp:150] Setting up conv7_2_mbox_loc_flat
I0903 21:18:59.051901 12836 net.cpp:157] Top shape: 16 600 (9600)
I0903 21:18:59.051905 12836 net.cpp:165] Memory required for data: 2574214880
I0903 21:18:59.051908 12836 layer_factory.hpp:77] Creating layer conv7_2_mbox_conf
I0903 21:18:59.051918 12836 net.cpp:100] Creating Layer conv7_2_mbox_conf
I0903 21:18:59.051921 12836 net.cpp:434] conv7_2_mbox_conf <- conv7_2_conv7_2_relu_0_split_2
I0903 21:18:59.051928 12836 net.cpp:408] conv7_2_mbox_conf -> conv7_2_mbox_conf
I0903 21:18:59.054911 12836 net.cpp:150] Setting up conv7_2_mbox_conf
I0903 21:18:59.054924 12836 net.cpp:157] Top shape: 16 24 5 5 (9600)
I0903 21:18:59.054927 12836 net.cpp:165] Memory required for data: 2574253280
I0903 21:18:59.054934 12836 layer_factory.hpp:77] Creating layer conv7_2_mbox_conf_perm
I0903 21:18:59.054941 12836 net.cpp:100] Creating Layer conv7_2_mbox_conf_perm
I0903 21:18:59.054946 12836 net.cpp:434] conv7_2_mbox_conf_perm <- conv7_2_mbox_conf
I0903 21:18:59.054951 12836 net.cpp:408] conv7_2_mbox_conf_perm -> conv7_2_mbox_conf_perm
I0903 21:18:59.055065 12836 net.cpp:150] Setting up conv7_2_mbox_conf_perm
I0903 21:18:59.055073 12836 net.cpp:157] Top shape: 16 5 5 24 (9600)
I0903 21:18:59.055076 12836 net.cpp:165] Memory required for data: 2574291680
I0903 21:18:59.055079 12836 layer_factory.hpp:77] Creating layer conv7_2_mbox_conf_flat
I0903 21:18:59.055086 12836 net.cpp:100] Creating Layer conv7_2_mbox_conf_flat
I0903 21:18:59.055090 12836 net.cpp:434] conv7_2_mbox_conf_flat <- conv7_2_mbox_conf_perm
I0903 21:18:59.055095 12836 net.cpp:408] conv7_2_mbox_conf_flat -> conv7_2_mbox_conf_flat
I0903 21:18:59.055124 12836 net.cpp:150] Setting up conv7_2_mbox_conf_flat
I0903 21:18:59.055130 12836 net.cpp:157] Top shape: 16 600 (9600)
I0903 21:18:59.055133 12836 net.cpp:165] Memory required for data: 2574330080
I0903 21:18:59.055136 12836 layer_factory.hpp:77] Creating layer conv7_2_mbox_priorbox
I0903 21:18:59.055145 12836 net.cpp:100] Creating Layer conv7_2_mbox_priorbox
I0903 21:18:59.055148 12836 net.cpp:434] conv7_2_mbox_priorbox <- conv7_2_conv7_2_relu_0_split_3
I0903 21:18:59.055153 12836 net.cpp:434] conv7_2_mbox_priorbox <- data_data_0_split_3
I0903 21:18:59.055158 12836 net.cpp:408] conv7_2_mbox_priorbox -> conv7_2_mbox_priorbox
I0903 21:18:59.055189 12836 net.cpp:150] Setting up conv7_2_mbox_priorbox
I0903 21:18:59.055196 12836 net.cpp:157] Top shape: 1 2 600 (1200)
I0903 21:18:59.055198 12836 net.cpp:165] Memory required for data: 2574334880
I0903 21:18:59.055202 12836 layer_factory.hpp:77] Creating layer conv8_2_mbox_loc
I0903 21:18:59.055210 12836 net.cpp:100] Creating Layer conv8_2_mbox_loc
I0903 21:18:59.055224 12836 net.cpp:434] conv8_2_mbox_loc <- conv8_2_conv8_2_relu_0_split_1
I0903 21:18:59.055233 12836 net.cpp:408] conv8_2_mbox_loc -> conv8_2_mbox_loc
I0903 21:18:59.057570 12836 net.cpp:150] Setting up conv8_2_mbox_loc
I0903 21:18:59.057582 12836 net.cpp:157] Top shape: 16 24 3 3 (3456)
I0903 21:18:59.057585 12836 net.cpp:165] Memory required for data: 2574348704
I0903 21:18:59.057592 12836 layer_factory.hpp:77] Creating layer conv8_2_mbox_loc_perm
I0903 21:18:59.057600 12836 net.cpp:100] Creating Layer conv8_2_mbox_loc_perm
I0903 21:18:59.057605 12836 net.cpp:434] conv8_2_mbox_loc_perm <- conv8_2_mbox_loc
I0903 21:18:59.057610 12836 net.cpp:408] conv8_2_mbox_loc_perm -> conv8_2_mbox_loc_perm
I0903 21:18:59.057721 12836 net.cpp:150] Setting up conv8_2_mbox_loc_perm
I0903 21:18:59.057729 12836 net.cpp:157] Top shape: 16 3 3 24 (3456)
I0903 21:18:59.057732 12836 net.cpp:165] Memory required for data: 2574362528
I0903 21:18:59.057736 12836 layer_factory.hpp:77] Creating layer conv8_2_mbox_loc_flat
I0903 21:18:59.057744 12836 net.cpp:100] Creating Layer conv8_2_mbox_loc_flat
I0903 21:18:59.057747 12836 net.cpp:434] conv8_2_mbox_loc_flat <- conv8_2_mbox_loc_perm
I0903 21:18:59.057752 12836 net.cpp:408] conv8_2_mbox_loc_flat -> conv8_2_mbox_loc_flat
I0903 21:18:59.057781 12836 net.cpp:150] Setting up conv8_2_mbox_loc_flat
I0903 21:18:59.057787 12836 net.cpp:157] Top shape: 16 216 (3456)
I0903 21:18:59.057791 12836 net.cpp:165] Memory required for data: 2574376352
I0903 21:18:59.057795 12836 layer_factory.hpp:77] Creating layer conv8_2_mbox_conf
I0903 21:18:59.057803 12836 net.cpp:100] Creating Layer conv8_2_mbox_conf
I0903 21:18:59.057807 12836 net.cpp:434] conv8_2_mbox_conf <- conv8_2_conv8_2_relu_0_split_2
I0903 21:18:59.057817 12836 net.cpp:408] conv8_2_mbox_conf -> conv8_2_mbox_conf
I0903 21:18:59.060143 12836 net.cpp:150] Setting up conv8_2_mbox_conf
I0903 21:18:59.060155 12836 net.cpp:157] Top shape: 16 24 3 3 (3456)
I0903 21:18:59.060159 12836 net.cpp:165] Memory required for data: 2574390176
I0903 21:18:59.060166 12836 layer_factory.hpp:77] Creating layer conv8_2_mbox_conf_perm
I0903 21:18:59.060173 12836 net.cpp:100] Creating Layer conv8_2_mbox_conf_perm
I0903 21:18:59.060178 12836 net.cpp:434] conv8_2_mbox_conf_perm <- conv8_2_mbox_conf
I0903 21:18:59.060184 12836 net.cpp:408] conv8_2_mbox_conf_perm -> conv8_2_mbox_conf_perm
I0903 21:18:59.060298 12836 net.cpp:150] Setting up conv8_2_mbox_conf_perm
I0903 21:18:59.060305 12836 net.cpp:157] Top shape: 16 3 3 24 (3456)
I0903 21:18:59.060308 12836 net.cpp:165] Memory required for data: 2574404000
I0903 21:18:59.060312 12836 layer_factory.hpp:77] Creating layer conv8_2_mbox_conf_flat
I0903 21:18:59.060318 12836 net.cpp:100] Creating Layer conv8_2_mbox_conf_flat
I0903 21:18:59.060322 12836 net.cpp:434] conv8_2_mbox_conf_flat <- conv8_2_mbox_conf_perm
I0903 21:18:59.060329 12836 net.cpp:408] conv8_2_mbox_conf_flat -> conv8_2_mbox_conf_flat
I0903 21:18:59.060359 12836 net.cpp:150] Setting up conv8_2_mbox_conf_flat
I0903 21:18:59.060364 12836 net.cpp:157] Top shape: 16 216 (3456)
I0903 21:18:59.060367 12836 net.cpp:165] Memory required for data: 2574417824
I0903 21:18:59.060370 12836 layer_factory.hpp:77] Creating layer conv8_2_mbox_priorbox
I0903 21:18:59.060379 12836 net.cpp:100] Creating Layer conv8_2_mbox_priorbox
I0903 21:18:59.060382 12836 net.cpp:434] conv8_2_mbox_priorbox <- conv8_2_conv8_2_relu_0_split_3
I0903 21:18:59.060387 12836 net.cpp:434] conv8_2_mbox_priorbox <- data_data_0_split_4
I0903 21:18:59.060394 12836 net.cpp:408] conv8_2_mbox_priorbox -> conv8_2_mbox_priorbox
I0903 21:18:59.060423 12836 net.cpp:150] Setting up conv8_2_mbox_priorbox
I0903 21:18:59.060430 12836 net.cpp:157] Top shape: 1 2 216 (432)
I0903 21:18:59.060438 12836 net.cpp:165] Memory required for data: 2574419552
I0903 21:18:59.060441 12836 layer_factory.hpp:77] Creating layer conv9_2_mbox_loc
I0903 21:18:59.060449 12836 net.cpp:100] Creating Layer conv9_2_mbox_loc
I0903 21:18:59.060453 12836 net.cpp:434] conv9_2_mbox_loc <- conv9_2_conv9_2_relu_0_split_1
I0903 21:18:59.060470 12836 net.cpp:408] conv9_2_mbox_loc -> conv9_2_mbox_loc
I0903 21:18:59.062793 12836 net.cpp:150] Setting up conv9_2_mbox_loc
I0903 21:18:59.062805 12836 net.cpp:157] Top shape: 16 24 2 2 (1536)
I0903 21:18:59.062809 12836 net.cpp:165] Memory required for data: 2574425696
I0903 21:18:59.062815 12836 layer_factory.hpp:77] Creating layer conv9_2_mbox_loc_perm
I0903 21:18:59.062822 12836 net.cpp:100] Creating Layer conv9_2_mbox_loc_perm
I0903 21:18:59.062826 12836 net.cpp:434] conv9_2_mbox_loc_perm <- conv9_2_mbox_loc
I0903 21:18:59.062832 12836 net.cpp:408] conv9_2_mbox_loc_perm -> conv9_2_mbox_loc_perm
I0903 21:18:59.062947 12836 net.cpp:150] Setting up conv9_2_mbox_loc_perm
I0903 21:18:59.062954 12836 net.cpp:157] Top shape: 16 2 2 24 (1536)
I0903 21:18:59.062958 12836 net.cpp:165] Memory required for data: 2574431840
I0903 21:18:59.062961 12836 layer_factory.hpp:77] Creating layer conv9_2_mbox_loc_flat
I0903 21:18:59.062968 12836 net.cpp:100] Creating Layer conv9_2_mbox_loc_flat
I0903 21:18:59.062971 12836 net.cpp:434] conv9_2_mbox_loc_flat <- conv9_2_mbox_loc_perm
I0903 21:18:59.062978 12836 net.cpp:408] conv9_2_mbox_loc_flat -> conv9_2_mbox_loc_flat
I0903 21:18:59.063006 12836 net.cpp:150] Setting up conv9_2_mbox_loc_flat
I0903 21:18:59.063012 12836 net.cpp:157] Top shape: 16 96 (1536)
I0903 21:18:59.063015 12836 net.cpp:165] Memory required for data: 2574437984
I0903 21:18:59.063019 12836 layer_factory.hpp:77] Creating layer conv9_2_mbox_conf
I0903 21:18:59.063030 12836 net.cpp:100] Creating Layer conv9_2_mbox_conf
I0903 21:18:59.063033 12836 net.cpp:434] conv9_2_mbox_conf <- conv9_2_conv9_2_relu_0_split_2
I0903 21:18:59.063040 12836 net.cpp:408] conv9_2_mbox_conf -> conv9_2_mbox_conf
I0903 21:18:59.065752 12836 net.cpp:150] Setting up conv9_2_mbox_conf
I0903 21:18:59.065763 12836 net.cpp:157] Top shape: 16 24 2 2 (1536)
I0903 21:18:59.065768 12836 net.cpp:165] Memory required for data: 2574444128
I0903 21:18:59.065774 12836 layer_factory.hpp:77] Creating layer conv9_2_mbox_conf_perm
I0903 21:18:59.065780 12836 net.cpp:100] Creating Layer conv9_2_mbox_conf_perm
I0903 21:18:59.065786 12836 net.cpp:434] conv9_2_mbox_conf_perm <- conv9_2_mbox_conf
I0903 21:18:59.065791 12836 net.cpp:408] conv9_2_mbox_conf_perm -> conv9_2_mbox_conf_perm
I0903 21:18:59.065907 12836 net.cpp:150] Setting up conv9_2_mbox_conf_perm
I0903 21:18:59.065913 12836 net.cpp:157] Top shape: 16 2 2 24 (1536)
I0903 21:18:59.065917 12836 net.cpp:165] Memory required for data: 2574450272
I0903 21:18:59.065920 12836 layer_factory.hpp:77] Creating layer conv9_2_mbox_conf_flat
I0903 21:18:59.065927 12836 net.cpp:100] Creating Layer conv9_2_mbox_conf_flat
I0903 21:18:59.065930 12836 net.cpp:434] conv9_2_mbox_conf_flat <- conv9_2_mbox_conf_perm
I0903 21:18:59.065937 12836 net.cpp:408] conv9_2_mbox_conf_flat -> conv9_2_mbox_conf_flat
I0903 21:18:59.065968 12836 net.cpp:150] Setting up conv9_2_mbox_conf_flat
I0903 21:18:59.065973 12836 net.cpp:157] Top shape: 16 96 (1536)
I0903 21:18:59.065978 12836 net.cpp:165] Memory required for data: 2574456416
I0903 21:18:59.065980 12836 layer_factory.hpp:77] Creating layer conv9_2_mbox_priorbox
I0903 21:18:59.065986 12836 net.cpp:100] Creating Layer conv9_2_mbox_priorbox
I0903 21:18:59.065990 12836 net.cpp:434] conv9_2_mbox_priorbox <- conv9_2_conv9_2_relu_0_split_3
I0903 21:18:59.065995 12836 net.cpp:434] conv9_2_mbox_priorbox <- data_data_0_split_5
I0903 21:18:59.066001 12836 net.cpp:408] conv9_2_mbox_priorbox -> conv9_2_mbox_priorbox
I0903 21:18:59.066032 12836 net.cpp:150] Setting up conv9_2_mbox_priorbox
I0903 21:18:59.066038 12836 net.cpp:157] Top shape: 1 2 96 (192)
I0903 21:18:59.066041 12836 net.cpp:165] Memory required for data: 2574457184
I0903 21:18:59.066045 12836 layer_factory.hpp:77] Creating layer conv10_2_mbox_loc
I0903 21:18:59.066052 12836 net.cpp:100] Creating Layer conv10_2_mbox_loc
I0903 21:18:59.066057 12836 net.cpp:434] conv10_2_mbox_loc <- conv10_2_conv10_2_relu_0_split_0
I0903 21:18:59.066063 12836 net.cpp:408] conv10_2_mbox_loc -> conv10_2_mbox_loc
I0903 21:18:59.068423 12836 net.cpp:150] Setting up conv10_2_mbox_loc
I0903 21:18:59.068435 12836 net.cpp:157] Top shape: 16 24 1 1 (384)
I0903 21:18:59.068439 12836 net.cpp:165] Memory required for data: 2574458720
I0903 21:18:59.068445 12836 layer_factory.hpp:77] Creating layer conv10_2_mbox_loc_perm
I0903 21:18:59.068454 12836 net.cpp:100] Creating Layer conv10_2_mbox_loc_perm
I0903 21:18:59.068457 12836 net.cpp:434] conv10_2_mbox_loc_perm <- conv10_2_mbox_loc
I0903 21:18:59.068464 12836 net.cpp:408] conv10_2_mbox_loc_perm -> conv10_2_mbox_loc_perm
I0903 21:18:59.068579 12836 net.cpp:150] Setting up conv10_2_mbox_loc_perm
I0903 21:18:59.068588 12836 net.cpp:157] Top shape: 16 1 1 24 (384)
I0903 21:18:59.068591 12836 net.cpp:165] Memory required for data: 2574460256
I0903 21:18:59.068595 12836 layer_factory.hpp:77] Creating layer conv10_2_mbox_loc_flat
I0903 21:18:59.068601 12836 net.cpp:100] Creating Layer conv10_2_mbox_loc_flat
I0903 21:18:59.068605 12836 net.cpp:434] conv10_2_mbox_loc_flat <- conv10_2_mbox_loc_perm
I0903 21:18:59.068611 12836 net.cpp:408] conv10_2_mbox_loc_flat -> conv10_2_mbox_loc_flat
I0903 21:18:59.068639 12836 net.cpp:150] Setting up conv10_2_mbox_loc_flat
I0903 21:18:59.068646 12836 net.cpp:157] Top shape: 16 24 (384)
I0903 21:18:59.068650 12836 net.cpp:165] Memory required for data: 2574461792
I0903 21:18:59.068652 12836 layer_factory.hpp:77] Creating layer conv10_2_mbox_conf
I0903 21:18:59.068662 12836 net.cpp:100] Creating Layer conv10_2_mbox_conf
I0903 21:18:59.068666 12836 net.cpp:434] conv10_2_mbox_conf <- conv10_2_conv10_2_relu_0_split_1
I0903 21:18:59.068673 12836 net.cpp:408] conv10_2_mbox_conf -> conv10_2_mbox_conf
I0903 21:18:59.071015 12836 net.cpp:150] Setting up conv10_2_mbox_conf
I0903 21:18:59.071027 12836 net.cpp:157] Top shape: 16 24 1 1 (384)
I0903 21:18:59.071029 12836 net.cpp:165] Memory required for data: 2574463328
I0903 21:18:59.071036 12836 layer_factory.hpp:77] Creating layer conv10_2_mbox_conf_perm
I0903 21:18:59.071044 12836 net.cpp:100] Creating Layer conv10_2_mbox_conf_perm
I0903 21:18:59.071048 12836 net.cpp:434] conv10_2_mbox_conf_perm <- conv10_2_mbox_conf
I0903 21:18:59.071056 12836 net.cpp:408] conv10_2_mbox_conf_perm -> conv10_2_mbox_conf_perm
I0903 21:18:59.071171 12836 net.cpp:150] Setting up conv10_2_mbox_conf_perm
I0903 21:18:59.071179 12836 net.cpp:157] Top shape: 16 1 1 24 (384)
I0903 21:18:59.071182 12836 net.cpp:165] Memory required for data: 2574464864
I0903 21:18:59.071184 12836 layer_factory.hpp:77] Creating layer conv10_2_mbox_conf_flat
I0903 21:18:59.071189 12836 net.cpp:100] Creating Layer conv10_2_mbox_conf_flat
I0903 21:18:59.071193 12836 net.cpp:434] conv10_2_mbox_conf_flat <- conv10_2_mbox_conf_perm
I0903 21:18:59.071199 12836 net.cpp:408] conv10_2_mbox_conf_flat -> conv10_2_mbox_conf_flat
I0903 21:18:59.071228 12836 net.cpp:150] Setting up conv10_2_mbox_conf_flat
I0903 21:18:59.071234 12836 net.cpp:157] Top shape: 16 24 (384)
I0903 21:18:59.071238 12836 net.cpp:165] Memory required for data: 2574466400
I0903 21:18:59.071240 12836 layer_factory.hpp:77] Creating layer conv10_2_mbox_priorbox
I0903 21:18:59.071246 12836 net.cpp:100] Creating Layer conv10_2_mbox_priorbox
I0903 21:18:59.071249 12836 net.cpp:434] conv10_2_mbox_priorbox <- conv10_2_conv10_2_relu_0_split_2
I0903 21:18:59.071254 12836 net.cpp:434] conv10_2_mbox_priorbox <- data_data_0_split_6
I0903 21:18:59.071260 12836 net.cpp:408] conv10_2_mbox_priorbox -> conv10_2_mbox_priorbox
I0903 21:18:59.071290 12836 net.cpp:150] Setting up conv10_2_mbox_priorbox
I0903 21:18:59.071296 12836 net.cpp:157] Top shape: 1 2 24 (48)
I0903 21:18:59.071300 12836 net.cpp:165] Memory required for data: 2574466592
I0903 21:18:59.071303 12836 layer_factory.hpp:77] Creating layer mbox_loc
I0903 21:18:59.071312 12836 net.cpp:100] Creating Layer mbox_loc
I0903 21:18:59.071316 12836 net.cpp:434] mbox_loc <- conv5_5/sep_mbox_loc_flat
I0903 21:18:59.071321 12836 net.cpp:434] mbox_loc <- conv6/sep_mbox_loc_flat
I0903 21:18:59.071326 12836 net.cpp:434] mbox_loc <- conv7_2_mbox_loc_flat
I0903 21:18:59.071329 12836 net.cpp:434] mbox_loc <- conv8_2_mbox_loc_flat
I0903 21:18:59.071343 12836 net.cpp:434] mbox_loc <- conv9_2_mbox_loc_flat
I0903 21:18:59.071348 12836 net.cpp:434] mbox_loc <- conv10_2_mbox_loc_flat
I0903 21:18:59.071354 12836 net.cpp:408] mbox_loc -> mbox_loc
I0903 21:18:59.071389 12836 net.cpp:150] Setting up mbox_loc
I0903 21:18:59.071396 12836 net.cpp:157] Top shape: 16 7668 (122688)
I0903 21:18:59.071399 12836 net.cpp:165] Memory required for data: 2574957344
I0903 21:18:59.071403 12836 layer_factory.hpp:77] Creating layer mbox_conf
I0903 21:18:59.071409 12836 net.cpp:100] Creating Layer mbox_conf
I0903 21:18:59.071413 12836 net.cpp:434] mbox_conf <- conv5_5/sep_mbox_conf_flat
I0903 21:18:59.071419 12836 net.cpp:434] mbox_conf <- conv6/sep_mbox_conf_flat
I0903 21:18:59.071422 12836 net.cpp:434] mbox_conf <- conv7_2_mbox_conf_flat
I0903 21:18:59.071426 12836 net.cpp:434] mbox_conf <- conv8_2_mbox_conf_flat
I0903 21:18:59.071430 12836 net.cpp:434] mbox_conf <- conv9_2_mbox_conf_flat
I0903 21:18:59.071434 12836 net.cpp:434] mbox_conf <- conv10_2_mbox_conf_flat
I0903 21:18:59.071439 12836 net.cpp:408] mbox_conf -> mbox_conf
I0903 21:18:59.071470 12836 net.cpp:150] Setting up mbox_conf
I0903 21:18:59.071475 12836 net.cpp:157] Top shape: 16 7668 (122688)
I0903 21:18:59.071478 12836 net.cpp:165] Memory required for data: 2575448096
I0903 21:18:59.071482 12836 layer_factory.hpp:77] Creating layer mbox_priorbox
I0903 21:18:59.071487 12836 net.cpp:100] Creating Layer mbox_priorbox
I0903 21:18:59.071491 12836 net.cpp:434] mbox_priorbox <- conv5_5/sep_mbox_priorbox
I0903 21:18:59.071496 12836 net.cpp:434] mbox_priorbox <- conv6/sep_mbox_priorbox
I0903 21:18:59.071499 12836 net.cpp:434] mbox_priorbox <- conv7_2_mbox_priorbox
I0903 21:18:59.071503 12836 net.cpp:434] mbox_priorbox <- conv8_2_mbox_priorbox
I0903 21:18:59.071506 12836 net.cpp:434] mbox_priorbox <- conv9_2_mbox_priorbox
I0903 21:18:59.071511 12836 net.cpp:434] mbox_priorbox <- conv10_2_mbox_priorbox
I0903 21:18:59.071516 12836 net.cpp:408] mbox_priorbox -> mbox_priorbox
I0903 21:18:59.071544 12836 net.cpp:150] Setting up mbox_priorbox
I0903 21:18:59.071550 12836 net.cpp:157] Top shape: 1 2 7668 (15336)
I0903 21:18:59.071553 12836 net.cpp:165] Memory required for data: 2575509440
I0903 21:18:59.071557 12836 layer_factory.hpp:77] Creating layer mbox_loss
I0903 21:18:59.071568 12836 net.cpp:100] Creating Layer mbox_loss
I0903 21:18:59.071573 12836 net.cpp:434] mbox_loss <- mbox_loc
I0903 21:18:59.071578 12836 net.cpp:434] mbox_loss <- mbox_conf
I0903 21:18:59.071581 12836 net.cpp:434] mbox_loss <- mbox_priorbox
…
layer {
  name: "data"
  type: "AnnotatedData"
  top: "data"
  top: "label"
  include {
    phase: TEST
  }
  transform_param {
    mean_value: 104
    mean_value: 117
    mean_value: 123
    resize_param {
      prob: 1
      resize_mode: WARP
      height: 300
      width: 300
      interp_mode: LINEAR
    }
  }
  data_param {
    source: "data/BodyFaceHandRegions/lmdb/oxford_test_lmdb"
    batch_size: 8
    backend: LMDB
  }
  annotated_data_param {
    batch_sampler {
    }
    label_map_file: "data/BodyFaceHandRegions/labelmap_voc.prototxt"
  }
}
layer {
  name: "conv1"
  type: "Convolution"
  bottom: "data"
  top: "conv1"
  param {
    lr_mult: 1
    decay_mult: 1
  }
  convolution_param {
    num_output: 32
    bias_term: false
    pad: 1
    kernel_size: 3
    group: 1
    stride: 2
    weight_filler {
      type: "gaussian"
      std: 0.01
    }
    engine: DEFAULT
  }
}
layer {
  name: "conv1/bn"
  type: "BatchNorm"
  bottom: "conv1"
  top: "conv1"
  batch_norm_param {
    moving_average_fraction: 0.999
    eps: 0.001
  }
}
layer {
  name: "conv1/scale"
  type: "Scale"
  bottom: "conv1"
  top: "conv1"
  param {
    lr_mult: 1
    decay_mult: 0
  }
  param {
    lr_mult: 1
    decay_mult: 0
  }
  scale_param {
    filler {
      type: "constant"
      value: 1
    }
    bias_term: true
    bias_filler {
      type: "constant"
      value: 0
    }
  }
}
layer {
  name: "conv1_relu"
  type: "ReLU"
  bottom: "conv1"
  top: "conv1"
}
layer {
  name: "conv2_1/dw"
  type: "Convolution"
  bottom: "conv1"
  top: "conv2_1/dw"
  param {
    lr_mult: 1
    decay_mult: 1
  }
  convolution_param {
    num_output: 32
    bias_term: false
    pad: 1
    kernel_size: 3
    group: 32
    stride: 1
    weight_filler {
      type: "gaussian"
      std: 0.01
    }
    engine: CAFFE
  }
}
layer {
  name: "conv2_1/dw/bn"
  type: "BatchNorm"
  bottom: "conv2_1/dw"
  top: "conv2_1/dw"
  batch_norm_param {
    moving_average_fraction: 0.999
    eps: 0.001
  }
}
layer {
  name: "conv2_1/dw/scale"
  type: "Scale"
  bottom: "conv2_1/dw"
  top: "conv2_1/dw"
  param {
    lr_mult: 1
    decay_mult: 0
  }
  param {
    lr_mult: 1
    decay_mult: 0
  }
  scale_param {
    filler {
      type: "constant"
      value: 1
    }
    bias_term: true
    bias_filler {
      type: "constant"
      value: 0
    }
  }
}
layer {
  name: "conv2_1/dw_relu"
  type: "ReLU"
  bottom: "conv2_1/dw"
  top: "conv2_1/dw"
}
layer {
  name: "conv2_1/sep"
  type: "Convolution"
  bottom: "conv2_1/dw"
  top: "conv2_1/sep"
  param {
    lr_mult: 1
    decay_mult: 1
  }
  convolution_param {
    num_output: 64
    bias_term: false
    pad: 0
    kernel_size: 1
    group: 1
    stride: 1
    weight_filler {
      type: "gaussian"
      std: 0.01
    }
    engine: DEFAULT
  }
}
layer {
  name: "conv2_1/sep/bn"
  type: "BatchNorm"
  bottom: "conv2_1/sep"
  top: "conv2_1/sep"
  batch_norm_param {
    moving_average_fraction: 0.999
    eps: 0.001
  }
}
layer {
  name: "conv2_1/sep/scale"
  type: "Scale"
  bottom: "conv2_1/sep"
  top: "conv2_1/sep"
  param {
    lr_mult: 1
    decay_mult: 0
  }
  param {
    lr_mult: 1
    decay_mult: 0
  }
  scale_param {
    filler {
      type: "constant"
      value: 1
    }
    bias_term: true
    bias_filler {
      type: "constant"
      value: 0
    }
  }
}
layer {
  name: "conv2_1/sep_relu"
  type: "ReLU"
  bottom: "conv2_1/sep"
  top: "conv2_1/sep"
}
layer {
  name: "conv2_2/dw"
  type: "Convolution"
  bottom: "conv2_1/sep"
  top: "conv2_2/dw"
  param {
    lr_mult: 1
    decay_mult: 1
  }
  convolution_param {
    num_output: 64
    bias_term: false
    pad: 1
    kernel_size: 3
    group: 64
    stride: 2
    weight_filler {
      type: "gaussian"
      std: 0.01
    }
    engine: CAFFE
  }
}
layer {
  name: "conv2_2/dw/bn"
  type: "BatchNorm"
  bottom: "conv2_2/dw"
  top: "conv2_2/dw"
  batch_norm_param {
    moving_average_fraction: 0.999
    eps: 0.001
  }
}
layer {
  name: "conv2_2/dw/scale"
  type: "Scale"
  bottom: "conv2_2/dw"
  top: "conv2_2/dw"
  param {
    lr_mult: 1
    decay_mult: 0
  }
  param {
    lr_mult: 1
    decay_mult: 0
  }
  scale_param {
    filler {
      type: "constant"
      value: 1
    }
    bias_term: true
    bias_filler {
      type: "constant"
      value: 0
    }
  }
}
layer {
  name: "conv2_2/dw_relu"
  type: "ReLU"
  bottom: "conv2_2/dw"
  top: "conv2_2/dw"
}
layer {
  name: "conv2_2/sep"
  type: "Convolution"
  bottom: "conv2_2/dw"
  top: "conv2_2/sep"
  param {
    lr_mult: 1
    decay_mult: 1
  }
  convolution_param {
    num_output: 128
    bias_term: false
    pad: 0
    kernel_size: 1
    group: 1
    stride: 1
    weight_filler {
      type: "gaussian"
      std: 0.01
    }
    engine: DEFAULT
  }
}
layer {
  name: "conv2_2/sep/bn"
  type: "BatchNorm"
  bottom: "conv2_2/sep"
  top: "conv2_2/sep"
  batch_norm_param {
    moving_average_fraction: 0.999
    eps: 0.001
  }
}
layer {
  name: "conv2_2/sep/scale"
  type: "Scale"
  bottom: "conv2_2/sep"
  top: "conv2_2/sep"
  param {
    lr_mult: 1
    decay_mult: 0
  }
  param {
    lr_mult: 1
    decay_mult: 0
  }
  scale_param {
    filler {
      type: "constant"
      value: 1
    }
    bias_term: true
    bias_filler {
      type: "constant"
      value: 0
    }
  }
}
layer {
  name: "conv2_2/sep_relu"
  type: "ReLU"
  bottom: "conv2_2/sep"
  top: "conv2_2/sep"
}
layer {
  name: "conv3_1/dw"
  type: "Convolution"
  bottom: "conv2_2/sep"
  top: "conv3_1/dw"
  param {
    lr_mult: 1
    decay_mult: 1
  }
  convolution_param {
    num_output: 128
    bias_term: false
    pad: 1
    kernel_size: 3
    group: 128
    stride: 1
    weight_filler {
      type: "gaussian"
      std: 0.01
    }
    engine: CAFFE
  }
}
layer {
  name: "conv3_1/dw/bn"
  type: "BatchNorm"
  bottom: "conv3_1/dw"
  top: "conv3_1/dw"
  batch_norm_param {
    moving_average_fraction: 0.999
    eps: 0.001
  }
}
layer {
  name: "conv3_1/dw/scale"
  type: "Scale"
  bottom: "conv3_1/dw"
  top: "conv3_1/dw"
  param {
    lr_mult: 1
    decay_mult: 0
  }
  param {
    lr_mult: 1
    decay_mult: 0
  }
  scale_param {
    filler {
      type: "constant"
      value: 1
    }
    bias_term: true
    bias_filler {
      type: "constant"
      value: 0
    }
  }
}
layer {
  name: "conv3_1/dw_relu"
  type: "ReLU"
  bottom: "conv3_1/dw"
  top: "conv3_1/dw"
}
layer {
  name: "conv3_1/sep"
  type: "Convolution"
  bottom: "conv3_1/dw"
  top: "conv3_1/sep"
  param {
    lr_mult: 1
    decay_mult: 1
  }
  convolution_param {
    num_output: 128
    bias_term: false
    pad: 0
    kernel_size: 1
    group: 1
    stride: 1
    weight_filler {
      type: "gaussian"
      std: 0.01
    }
    engine: DEFAULT
  }
}
layer {
  name: "conv3_1/sep/bn"
  type: "BatchNorm"
  bottom: "conv3_1/sep"
  top: "conv3_1/sep"
  batch_norm_param {
    moving_average_fraction: 0.999
    eps: 0.001
  }
}
layer {
  name: "conv3_1/sep/scale"
  type: "Scale"
  bottom: "conv3_1/sep"
  top: "conv3_1/sep"
  param {
    lr_mult: 1
    decay_mult: 0
  }
  param {
    lr_mult: 1
    decay_mult: 0
  }
  scale_param {
    filler {
      type: "constant"
      value: 1
    }
    bias_term: true
    bias_filler {
      type: "constant"
      value: 0
    }
  }
}
layer {
  name: "conv3_1/sep_relu"
  type: "ReLU"
  bottom: "conv3_1/sep"
  top: "conv3_1/sep"
}
layer {
  name: "conv3_2/dw"
  type: "Convolution"
  bottom: "conv3_1/sep"
  top: "conv3_2/dw"
  param {
    lr_mult: 1
    decay_mult: 1
  }
  convolution_param {
    num_output: 128
    bias_term: false
    pad: 1
    kernel_size: 3
    group: 128
    stride: 2
    weight_filler {
      type: "gaussian"
      std: 0.01
    }
    engine: CAFFE
  }
}
layer {
  name: "conv3_2/dw/bn"
  type: "BatchNorm"
  bottom: "conv3_2/dw"
  top: "conv3_2/dw"
  batch_norm_param {
    moving_average_fraction: 0.999
    eps: 0.001
  }
}
layer {
  name: "conv3_2/dw/scale"
  type: "Scale"
  bottom: "conv3_2/dw"
  top: "conv3_2/dw"
  param {
    lr_mult: 1
    decay_mult: 0
  }
  param {
    lr_mult: 1
    decay_mult: 0
  }
  scale_param {
    filler {
      type: "constant"
      value: 1
    }
    bias_term: true
    bias_filler {
      type: "constant"
      value: 0
    }
  }
}
layer {
  name: "conv3_2/dw_relu"
  type: "ReLU"
  bottom: "conv3_2/dw"
  top: "conv3_2/dw"
}
layer {
  name: "conv3_2/sep"
  type: "Convolution"
  bottom: "conv3_2/dw"
  top: "conv3_2/sep"
  param {
    lr_mult: 1
    decay_mult: 1
  }
  convolution_param {
    num_output: 256
    bias_term: false
    pad: 0
    kernel_size: 1
    group: 1
    stride: 1
    weight_filler {
      type: "gaussian"
      std: 0.01
    }
    engine: DEFAULT
  }
}
layer {
  name: "conv3_2/sep/bn"
  type: "BatchNorm"
  bottom: "conv3_2/sep"
  top: "conv3_2/sep"
  batch_norm_param {
    moving_average_fraction: 0.999
    eps: 0.001
  }
}
layer {
  name: "conv3_2/sep/scale"
  type: "Scale"
  bottom: "conv3_2/sep"
  top: "conv3_2/sep"
  param {
    lr_mult: 1
    decay_mult: 0
  }
  param {
    lr_mult: 1
    decay_mult: 0
  }
  scale_param {
    filler {
      type: "constant"
      value: 1
    }
    bias_term: true
    bias_filler {
      type: "constant"
      value: 0
    }
  }
}
layer {
  name: "conv3_2/sep_relu"
  type: "ReLU"
  bottom: "conv3_2/sep"
  top: "conv3_2/sep"
}
layer {
  name: "conv4_1/dw"
  type: "Convolution"
  bottom: "conv3_2/sep"
  top: "conv4_1/dw"
  param {
    lr_mult: 1
    decay_mult: 1
  }
  convolution_param {
    num_output: 256
    bias_term: false
    pad: 1
    kernel_size: 3
    group: 256
    stride: 1
    weight_filler {
      type: "gaussian"
      std: 0.01
    }
    engine: CAFFE
  }
}
layer {
  name: "conv4_1/dw/bn"
  type: "BatchNorm"
  bottom: "conv4_1/dw"
  top: "conv4_1/dw"
  batch_norm_param {
    moving_average_fraction: 0.999
    eps: 0.001
  }
}
layer {
  name: "conv4_1/dw/scale"
  type: "Scale"
  bottom: "conv4_1/dw"
  top: "conv4_1/dw"
  param {
    lr_mult: 1
    decay_mult: 0
  }
  param {
    lr_mult: 1
    decay_mult: 0
  }
  scale_param {
    filler {
      type: "constant"
      value: 1
    }
    bias_term: true
    bias_filler {
      type: "constant"
      value: 0
    }
  }
}
layer {
  name: "conv4_1/dw_relu"
  type: "ReLU"
  bottom: "conv4_1/dw"
  top: "conv4_1/dw"
}
layer {
  name: "conv4_1/sep"
  type: "Convolution"
  bottom: "conv4_1/dw"
  top: "conv4_1/sep"
  param {
    lr_mult: 1
    decay_mult: 1
  }
  convolution_param {
    num_output: 256
    bias_term: false
    pad: 0
    kernel_size: 1
    group: 1
    stride: 1
    weight_filler {
      type: "gaussian"
      std: 0.01
    }
    engine: DEFAULT
  }
}
layer {
  name: "conv4_1/sep/bn"
  type: "BatchNorm"
  bottom: "conv4_1/sep"
  top: "conv4_1/sep"
  batch_norm_param {
    moving_average_fraction: 0.999
    eps: 0.001
  }
}
layer {
  name: "conv4_1/sep/scale"
  type: "Scale"
  bottom: "conv4_1/sep"
  top: "conv4_1/sep"
  param {
    lr_mult: 1
    decay_mult: 0
  }
  param {
    lr_mult: 1
    decay_mult: 0
  }
  scale_param {
    filler {
      type: "constant"
      value: 1
    }
    bias_term: true
    bias_filler {
      type: "constant"
      value: 0
    }
  }
}
layer {
  name: "conv4_1/sep_relu"
  type: "ReLU"
  bottom: "conv4_1/sep"
  top: "conv4_1/sep"
}
layer {
  name: "conv4_2/dw"
  type: "Convolution"
  bottom: "conv4_1/sep"
  top: "conv4_2/dw"
  param {
    lr_mult: 1
    decay_mult: 1
  }
  convolution_param {
    num_output: 256
    bias_term: false
    pad: 1
    kernel_size: 3
    group: 256
    stride: 2
    weight_filler {
      type: "gaussian"
      std: 0.01
    }
    engine: CAFFE
  }
}
layer {
  name: "conv4_2/dw/bn"
  type: "BatchNorm"
  bottom: "conv4_2/dw"
  top: "conv4_2/dw"
  batch_norm_param {
    moving_average_fraction: 0.999
    eps: 0.001
  }
}
layer {
  name: "conv4_2/dw/scale"
  type: "Scale"
  bottom: "conv4_2/dw"
  top: "conv4_2/dw"
  param {
    lr_mult: 1
    decay_mult: 0
  }
  param {
    lr_mult: 1
    decay_mult: 0
  }
  scale_param {
    filler {
      type: "constant"
      value: 1
    }
    bias_term: true
    bias_filler {
      type: "constant"
      value: 0
    }
  }
}
layer {
  name: "conv4_2/dw_relu"
  type: "ReLU"
  bottom: "conv4_2/dw"
  top: "conv4_2/dw"
}
layer {
  name: "conv4_2/sep"
  type: "Convolution"
  bottom: "conv4_2/dw"
  top: "conv4_2/sep"
  param {
    lr_mult: 1
    decay_mult: 1
  }
  convolution_param {
    num_output: 512
    bias_term: false
    pad: 0
    kernel_size: 1
    group: 1
    stride: 1
    weight_filler {
      type: "gaussian"
      std: 0.01
    }
    engine: DEFAULT
  }
}
layer {
  name: "conv4_2/sep/bn"
  type: "BatchNorm"
  bottom: "conv4_2/sep"
  top: "conv4_2/sep"
  batch_norm_param {
    moving_average_fraction: 0.999
    eps: 0.001
  }
}
layer {
  name: "conv4_2/sep/scale"
  type: "Scale"
  bottom: "conv4_2/sep"
  top: "conv4_2/sep"
  param {
    lr_mult: 1
    decay_mult: 0
  }
  param {
    lr_mult: 1
    decay_mult: 0
  }
  scale_param {
    filler {
      type: "constant"
      value: 1
    }
    bias_term: true
    bias_filler {
      type: "constant"
      value: 0
    }
  }
}
layer {
  name: "conv4_2/sep_relu"
  type: "ReLU"
  bottom: "conv4_2/sep"
  top: "conv4_2/sep"
}
layer {
  name: "conv5_1/dw"
  type: "Convolution"
  bottom: "conv4_2/sep"
  top: "conv5_1/dw"
  param {
    lr_mult: 1
    decay_mult: 1
  }
  convolution_param {
    num_output: 512
    bias_term: false
    pad: 1
    kernel_size: 3
    group: 512
    stride: 1
    weight_filler {
      type: "gaussian"
      std: 0.01
    }
    engine: CAFFE
  }
}
layer {
  name: "conv5_1/dw/bn"
  type: "BatchNorm"
  bottom: "conv5_1/dw"
  top: "conv5_1/dw"
  batch_norm_param {
    moving_average_fraction: 0.999
    eps: 0.001
  }
}
layer {
  name: "conv5_1/dw/scale"
  type: "Scale"
  bottom: "conv5_1/dw"
  top: "conv5_1/dw"
  param {
    lr_mult: 1
    decay_mult: 0
  }
  param {
    lr_mult: 1
    decay_mult: 0
  }
  scale_param {
    filler {
      type: "constant"
      value: 1
    }
    bias_term: true
    bias_filler {
      type: "constant"
      value: 0
    }
  }
}
layer {
  name: "conv5_1/dw_relu"
  type: "ReLU"
  bottom: "conv5_1/dw"
  top: "conv5_1/dw"
}
layer {
  name: "conv5_1/sep"
  type: "Convolution"
  bottom: "conv5_1/dw"
  top: "conv5_1/sep"
  param {
    lr_mult: 1
    decay_mult: 1
  }
  convolution_param {
    num_output: 512
    bias_term: false
    pad: 0
    kernel_size: 1
    group: 1
    stride: 1
    weight_filler {
      type: "gaussian"
      std: 0.01
    }
    engine: DEFAULT
  }
}
layer {
  name: "conv5_1/sep/bn"
  type: "BatchNorm"
  bottom: "conv5_1/sep"
  top: "conv5_1/sep"
  batch_norm_param {
    moving_average_fraction: 0.999
    eps: 0.001
  }
}
layer {
  name: "conv5_1/sep/scale"
  type: "Scale"
  bottom: "conv5_1/sep"
  top: "conv5_1/sep"
  param {
    lr_mult: 1
    decay_mult: 0
  }
  param {
    lr_mult: 1
    decay_mult: 0
  }
  scale_param {
    filler {
      type: "constant"
      value: 1
    }
    bias_term: true
    bias_filler {
      type: "constant"
      value: 0
    }
  }
}
layer {
  name: "conv5_1/sep_relu"
  type: "ReLU"
  bottom: "conv5_1/sep"
  top: "conv5_1/sep"
}
layer {
  name: "conv5_2/dw"
  type: "Convolution"
  bottom: "conv5_1/sep"
  top: "conv5_2/dw"
  param {
    lr_mult: 1
    decay_mult: 1
  }
  convolution_param {
    num_output: 512
    bias_term: false
    pad: 1
    kernel_size: 3
    group: 512
    stride: 1
    weight_filler {
      type: "gaussian"
      std: 0.01
    }
    engine: CAFFE
  }
}
layer {
  name: "conv5_2/dw/bn"
  type: "BatchNorm"
  bottom: "conv5_2/dw"
  top: "conv5_2/dw"
  batch_norm_param {
    moving_average_fraction: 0.999
    eps: 0.001
  }
}
layer {
  name: "conv5_2/dw/scale"
  type: "Scale"
  bottom: "conv5_2/dw"
  top: "conv5_2/dw"
  param {
    lr_mult: 1
    decay_mult: 0
  }
  param {
    lr_mult: 1
    decay_mult: 0
  }
  scale_param {
    filler {
      type: "constant"
      value: 1
    }
    bias_term: true
    bias_filler {
      type: "constant"
      value: 0
    }
  }
}
layer {
  name: "conv5_2/dw_relu"
  type: "ReLU"
  bottom: "conv5_2/dw"
  top: "conv5_2/dw"
}
layer {
  name: "conv5_2/sep"
  type: "Convolution"
  bottom: "conv5_2/dw"
  top: "conv5_2/sep"
  param {
    lr_mult: 1
    decay_mult: 1
  }
  convolution_param {
    num_output: 512
    bias_term: false
    pad: 0
    kernel_size: 1
    group: 1
    stride: 1
    weight_filler {
      type: "gaussian"
      std: 0.01
    }
    engine: DEFAULT
  }
}
layer {
  name: "conv5_2/sep/bn"
  type: "BatchNorm"
  bottom: "conv5_2/sep"
  top: "conv5_2/sep"
  batch_norm_param {
    moving_average_fraction: 0.999
    eps: 0.001
  }
}
layer {
  name: "conv5_2/sep/scale"
  type: "Scale"
  bottom: "conv5_2/sep"
  top: "conv5_2/sep"
  param {
    lr_mult: 1
    decay_mult: 0
  }
  param {
    lr_mult: 1
    decay_mult: 0
  }
  scale_param {
    filler {
      type: "constant"
      value: 1
    }
    bias_term: true
    bias_filler {
      type: "constant"
      value: 0
    }
  }
}
layer {
  name: "conv5_2/sep_relu"
  type: "ReLU"
  bottom: "conv5_2/sep"
  top: "conv5_2/sep"
}
layer {
  name: "conv5_3/dw"
  type: "Convolution"
  bottom: "conv5_2/sep"
  top: "conv5_3/dw"
  param {
    lr_mult: 1
    decay_mult: 1
  }
  convolution_param {
    num_output: 512
    bias_term: false
    pad: 1
    kernel_size: 3
    group: 512
    stride: 1
    weight_filler {
      type: "gaussian"
      std: 0.01
    }
    engine: CAFFE
  }
}
layer {
  name: "conv5_3/dw/bn"
  type: "BatchNorm"
  bottom: "conv5_3/dw"
  top: "conv5_3/dw"
  batch_norm_param {
    moving_average_fraction: 0.999
    eps: 0.001
  }
}
layer {
  name: "conv5_3/dw/scale"
  type: "Scale"
  bottom: "conv5_3/dw"
  top: "conv5_3/dw"
  param {
    lr_mult: 1
    decay_mult: 0
  }
  param {
    lr_mult: 1
    decay_mult: 0
  }
  scale_param {
    filler {
      type: "constant"
      value: 1
    }
    bias_term: true
    bias_filler {
      type: "constant"
      value: 0
    }
  }
}
layer {
  name: "conv5_3/dw_relu"
  type: "ReLU"
  bottom: "conv5_3/dw"
  top: "conv5_3/dw"
}
layer {
  name: "conv5_3/sep"
  type: "Convolution"
  bottom: "conv5_3/dw"
  top: "conv5_3/sep"
  param {
    lr_mult: 1
    decay_mult: 1
  }
  convolution_param {
    num_output: 512
    bias_term: false
    pad: 0
    kernel_size: 1
    group: 1
    stride: 1
    weight_filler {
      type: "gaussian"
      std: 0.01
    }
    engine: DEFAULT
  }
}
layer {
  name: "conv5_3/sep/bn"
  type: "BatchNorm"
  bottom: "conv5_3/sep"
  top: "conv5_3/sep"
  batch_norm_param {
    moving_average_fraction: 0.999
    eps: 0.001
  }
}
layer {
  name: "conv5_3/sep/scale"
  type: "Scale"
  bottom: "conv5_3/sep"
  top: "conv5_3/sep"
  param {
    lr_mult: 1
    decay_mult: 0
  }
  param {
    lr_mult: 1
    decay_mult: 0
  }
  scale_param {
    filler {
      type: "constant"
      value: 1
    }
    bias_term: true
    bias_filler {
      type: "constant"
      value: 0
    }
  }
}
layer {
  name: "conv5_3/sep_relu"
  type: "ReLU"
  bottom: "conv5_3/sep"
  top: "conv5_3/sep"
}
layer {
  name: "conv5_4/dw"
  type: "Convolution"
  bottom: "conv5_3/sep"
  top: "conv5_4/dw"
  param {
    lr_mult: 1
    decay_mult: 1
  }
  convolution_param {
    num_output: 512
    bias_term: false
    pad: 1
    kernel_size: 3
    group: 512
    stride: 1
    weight_filler {
      type: "gaussian"
      std: 0.01
    }
    engine: CAFFE
  }
}
layer {
  name: "conv5_4/dw/bn"
  type: "BatchNorm"
  bottom: "conv5_4/dw"
  top: "conv5_4/dw"
  batch_norm_param {
    moving_average_fraction: 0.999
    eps: 0.001
  }
}
layer {
  name: "conv5_4/dw/scale"
  type: "Scale"
  bottom: "conv5_4/dw"
  top: "conv5_4/dw"
  param {
    lr_mult: 1
    decay_mult: 0
  }
  param {
    lr_mult: 1
    decay_mult: 0
  }
  scale_param {
    filler {
      type: "constant"
      value: 1
    }
    bias_term: true
    bias_filler {
      type: "constant"
      value: 0
    }
  }
}
layer {
  name: "conv5_4/dw_relu"
  type: "ReLU"
  bottom: "conv5_4/dw"
…
I0903 21:18:59.275862 12836 net.cpp:150] Setting up conv5_6/dw_relu
I0903 21:18:59.275878 12836 net.cpp:157] Top shape: 8 512 10 10 (409600)
I0903 21:18:59.275883 12836 net.cpp:165] Memory required for data: 1228214528
I0903 21:18:59.275888 12836 layer_factory.hpp:77] Creating layer conv5_6/sep
I0903 21:18:59.275900 12836 net.cpp:100] Creating Layer conv5_6/sep
I0903 21:18:59.275905 12836 net.cpp:434] conv5_6/sep <- conv5_6/dw
I0903 21:18:59.275915 12836 net.cpp:408] conv5_6/sep -> conv5_6/sep
I0903 21:18:59.284270 12836 net.cpp:150] Setting up conv5_6/sep
I0903 21:18:59.284286 12836 net.cpp:157] Top shape: 8 1024 10 10 (819200)
I0903 21:18:59.284291 12836 net.cpp:165] Memory required for data: 1231491328
I0903 21:18:59.284299 12836 layer_factory.hpp:77] Creating layer conv5_6/sep/bn
I0903 21:18:59.284309 12836 net.cpp:100] Creating Layer conv5_6/sep/bn
I0903 21:18:59.284314 12836 net.cpp:434] conv5_6/sep/bn <- conv5_6/sep
I0903 21:18:59.284322 12836 net.cpp:395] conv5_6/sep/bn -> conv5_6/sep (in-place)
I0903 21:18:59.284565 12836 net.cpp:150] Setting up conv5_6/sep/bn
I0903 21:18:59.284579 12836 net.cpp:157] Top shape: 8 1024 10 10 (819200)
I0903 21:18:59.284584 12836 net.cpp:165] Memory required for data: 1234768128
I0903 21:18:59.284591 12836 layer_factory.hpp:77] Creating layer conv5_6/sep/scale
I0903 21:18:59.284600 12836 net.cpp:100] Creating Layer conv5_6/sep/scale
I0903 21:18:59.284605 12836 net.cpp:434] conv5_6/sep/scale <- conv5_6/sep
I0903 21:18:59.284611 12836 net.cpp:395] conv5_6/sep/scale -> conv5_6/sep (in-place)
I0903 21:18:59.284674 12836 layer_factory.hpp:77] Creating layer conv5_6/sep/scale
I0903 21:18:59.284817 12836 net.cpp:150] Setting up conv5_6/sep/scale
I0903 21:18:59.284827 12836 net.cpp:157] Top shape: 8 1024 10 10 (819200)
I0903 21:18:59.284832 12836 net.cpp:165] Memory required for data: 1238044928
I0903 21:18:59.284838 12836 layer_factory.hpp:77] Creating layer conv5_6/sep_relu
I0903 21:18:59.284847 12836 net.cpp:100] Creating Layer conv5_6/sep_relu
I0903 21:18:59.284852 12836 net.cpp:434] conv5_6/sep_relu <- conv5_6/sep
I0903 21:18:59.284858 12836 net.cpp:395] conv5_6/sep_relu -> conv5_6/sep (in-place)
I0903 21:18:59.285694 12836 net.cpp:150] Setting up conv5_6/sep_relu
I0903 21:18:59.285709 12836 net.cpp:157] Top shape: 8 1024 10 10 (819200)
I0903 21:18:59.285714 12836 net.cpp:165] Memory required for data: 1241321728
I0903 21:18:59.285719 12836 layer_factory.hpp:77] Creating layer conv6/dw
I0903 21:18:59.285732 12836 net.cpp:100] Creating Layer conv6/dw
I0903 21:18:59.285737 12836 net.cpp:434] conv6/dw <- conv5_6/sep
I0903 21:18:59.285759 12836 net.cpp:408] conv6/dw -> conv6/dw
I0903 21:18:59.286105 12836 net.cpp:150] Setting up conv6/dw
I0903 21:18:59.286116 12836 net.cpp:157] Top shape: 8 1024 10 10 (819200)
I0903 21:18:59.286120 12836 net.cpp:165] Memory required for data: 1244598528
I0903 21:18:59.286128 12836 layer_factory.hpp:77] Creating layer conv6/dw/bn
I0903 21:18:59.286134 12836 net.cpp:100] Creating Layer conv6/dw/bn
I0903 21:18:59.286140 12836 net.cpp:434] conv6/dw/bn <- conv6/dw
I0903 21:18:59.286149 12836 net.cpp:395] conv6/dw/bn -> conv6/dw (in-place)
I0903 21:18:59.286389 12836 net.cpp:150] Setting up conv6/dw/bn
I0903 21:18:59.286401 12836 net.cpp:157] Top shape: 8 1024 10 10 (819200)
I0903 21:18:59.286404 12836 net.cpp:165] Memory required for data: 1247875328
I0903 21:18:59.286413 12836 layer_factory.hpp:77] Creating layer conv6/dw/scale
I0903 21:18:59.286422 12836 net.cpp:100] Creating Layer conv6/dw/scale
I0903 21:18:59.286427 12836 net.cpp:434] conv6/dw/scale <- conv6/dw
I0903 21:18:59.286434 12836 net.cpp:395] conv6/dw/scale -> conv6/dw (in-place)
I0903 21:18:59.286492 12836 layer_factory.hpp:77] Creating layer conv6/dw/scale
I0903 21:18:59.286638 12836 net.cpp:150] Setting up conv6/dw/scale
I0903 21:18:59.286648 12836 net.cpp:157] Top shape: 8 1024 10 10 (819200)
I0903 21:18:59.286653 12836 net.cpp:165] Memory required for data: 1251152128
I0903 21:18:59.286659 12836 layer_factory.hpp:77] Creating layer conv6/dw_relu
I0903 21:18:59.286666 12836 net.cpp:100] Creating Layer conv6/dw_relu
I0903 21:18:59.286671 12836 net.cpp:434] conv6/dw_relu <- conv6/dw
I0903 21:18:59.286679 12836 net.cpp:395] conv6/dw_relu -> conv6/dw (in-place)
I0903 21:18:59.286921 12836 net.cpp:150] Setting up conv6/dw_relu
I0903 21:18:59.286931 12836 net.cpp:157] Top shape: 8 1024 10 10 (819200)
I0903 21:18:59.286936 12836 net.cpp:165] Memory required for data: 1254428928
I0903 21:18:59.286940 12836 layer_factory.hpp:77] Creating layer conv6/sep
I0903 21:18:59.286952 12836 net.cpp:100] Creating Layer conv6/sep
I0903 21:18:59.286957 12836 net.cpp:434] conv6/sep <- conv6/dw
I0903 21:18:59.286967 12836 net.cpp:408] conv6/sep -> conv6/sep
I0903 21:18:59.301723 12836 net.cpp:150] Setting up conv6/sep
I0903 21:18:59.301741 12836 net.cpp:157] Top shape: 8 1024 10 10 (819200)
I0903 21:18:59.301744 12836 net.cpp:165] Memory required for data: 1257705728
I0903 21:18:59.301750 12836 layer_factory.hpp:77] Creating layer conv6/sep/bn
I0903 21:18:59.301759 12836 net.cpp:100] Creating Layer conv6/sep/bn
I0903 21:18:59.301764 12836 net.cpp:434] conv6/sep/bn <- conv6/sep
I0903 21:18:59.301771 12836 net.cpp:395] conv6/sep/bn -> conv6/sep (in-place)
I0903 21:18:59.302023 12836 net.cpp:150] Setting up conv6/sep/bn
I0903 21:18:59.302032 12836 net.cpp:157] Top shape: 8 1024 10 10 (819200)
I0903 21:18:59.302036 12836 net.cpp:165] Memory required for data: 1260982528
I0903 21:18:59.302042 12836 layer_factory.hpp:77] Creating layer conv6/sep/scale
I0903 21:18:59.302052 12836 net.cpp:100] Creating Layer conv6/sep/scale
I0903 21:18:59.302057 12836 net.cpp:434] conv6/sep/scale <- conv6/sep
I0903 21:18:59.302063 12836 net.cpp:395] conv6/sep/scale -> conv6/sep (in-place)
I0903 21:18:59.302124 12836 layer_factory.hpp:77] Creating layer conv6/sep/scale
I0903 21:18:59.302273 12836 net.cpp:150] Setting up conv6/sep/scale
I0903 21:18:59.302283 12836 net.cpp:157] Top shape: 8 1024 10 10 (819200)
I0903 21:18:59.302286 12836 net.cpp:165] Memory required for data: 1264259328
I0903 21:18:59.302294 12836 layer_factory.hpp:77] Creating layer conv6/sep_relu
I0903 21:18:59.302307 12836 net.cpp:100] Creating Layer conv6/sep_relu
I0903 21:18:59.302312 12836 net.cpp:434] conv6/sep_relu <- conv6/sep
I0903 21:18:59.302320 12836 net.cpp:395] conv6/sep_relu -> conv6/sep (in-place)
I0903 21:18:59.303122 12836 net.cpp:150] Setting up conv6/sep_relu
I0903 21:18:59.303135 12836 net.cpp:157] Top shape: 8 1024 10 10 (819200)
I0903 21:18:59.303139 12836 net.cpp:165] Memory required for data: 1267536128
I0903 21:18:59.303144 12836 layer_factory.hpp:77] Creating layer conv6/sep_conv6/sep_relu_0_split
I0903 21:18:59.303167 12836 net.cpp:100] Creating Layer conv6/sep_conv6/sep_relu_0_split
I0903 21:18:59.303174 12836 net.cpp:434] conv6/sep_conv6/sep_relu_0_split <- conv6/sep
I0903 21:18:59.303181 12836 net.cpp:408] conv6/sep_conv6/sep_relu_0_split -> conv6/sep_conv6/sep_relu_0_split_0
I0903 21:18:59.303190 12836 net.cpp:408] conv6/sep_conv6/sep_relu_0_split -> conv6/sep_conv6/sep_relu_0_split_1
I0903 21:18:59.303200 12836 net.cpp:408] conv6/sep_conv6/sep_relu_0_split -> conv6/sep_conv6/sep_relu_0_split_2
I0903 21:18:59.303205 12836 net.cpp:408] conv6/sep_conv6/sep_relu_0_split -> conv6/sep_conv6/sep_relu_0_split_3
I0903 21:18:59.303280 12836 net.cpp:150] Setting up conv6/sep_conv6/sep_relu_0_split
I0903 21:18:59.303288 12836 net.cpp:157] Top shape: 8 1024 10 10 (819200)
I0903 21:18:59.303293 12836 net.cpp:157] Top shape: 8 1024 10 10 (819200)
I0903 21:18:59.303298 12836 net.cpp:157] Top shape: 8 1024 10 10 (819200)
I0903 21:18:59.303303 12836 net.cpp:157] Top shape: 8 1024 10 10 (819200)
I0903 21:18:59.303306 12836 net.cpp:165] Memory required for data: 1280643328
I0903 21:18:59.303310 12836 layer_factory.hpp:77] Creating layer conv7_1
I0903 21:18:59.303323 12836 net.cpp:100] Creating Layer conv7_1
I0903 21:18:59.303328 12836 net.cpp:434] conv7_1 <- conv6/sep_conv6/sep_relu_0_split_0
I0903 21:18:59.303334 12836 net.cpp:408] conv7_1 -> conv7_1
I0903 21:18:59.307389 12836 net.cpp:150] Setting up conv7_1
I0903 21:18:59.307404 12836 net.cpp:157] Top shape: 8 256 10 10 (204800)
I0903 21:18:59.307407 12836 net.cpp:165] Memory required for data: 1281462528
I0903 21:18:59.307415 12836 layer_factory.hpp:77] Creating layer conv7_1_relu
I0903 21:18:59.307425 12836 net.cpp:100] Creating Layer conv7_1_relu
I0903 21:18:59.307430 12836 net.cpp:434] conv7_1_relu <- conv7_1
I0903 21:18:59.307435 12836 net.cpp:395] conv7_1_relu -> conv7_1 (in-place)
I0903 21:18:59.307658 12836 net.cpp:150] Setting up conv7_1_relu
I0903 21:18:59.307668 12836 net.cpp:157] Top shape: 8 256 10 10 (204800)
I0903 21:18:59.307672 12836 net.cpp:165] Memory required for data: 1282281728
I0903 21:18:59.307677 12836 layer_factory.hpp:77] Creating layer conv7_2
I0903 21:18:59.307687 12836 net.cpp:100] Creating Layer conv7_2
I0903 21:18:59.307693 12836 net.cpp:434] conv7_2 <- conv7_1
I0903 21:18:59.307700 12836 net.cpp:408] conv7_2 -> conv7_2
I0903 21:18:59.317752 12836 net.cpp:150] Setting up conv7_2
I0903 21:18:59.317769 12836 net.cpp:157] Top shape: 8 512 5 5 (102400)
I0903 21:18:59.317772 12836 net.cpp:165] Memory required for data: 1282691328
I0903 21:18:59.317780 12836 layer_factory.hpp:77] Creating layer conv7_2_relu
I0903 21:18:59.317787 12836 net.cpp:100] Creating Layer conv7_2_relu
I0903 21:18:59.317792 12836 net.cpp:434] conv7_2_relu <- conv7_2
I0903 21:18:59.317800 12836 net.cpp:395] conv7_2_relu -> conv7_2 (in-place)
I0903 21:18:59.318006 12836 net.cpp:150] Setting up conv7_2_relu
I0903 21:18:59.318015 12836 net.cpp:157] Top shape: 8 512 5 5 (102400)
I0903 21:18:59.318019 12836 net.cpp:165] Memory required for data: 1283100928
I0903 21:18:59.318023 12836 layer_factory.hpp:77] Creating layer conv7_2_conv7_2_relu_0_split
I0903 21:18:59.318030 12836 net.cpp:100] Creating Layer conv7_2_conv7_2_relu_0_split
I0903 21:18:59.318034 12836 net.cpp:434] conv7_2_conv7_2_relu_0_split <- conv7_2
I0903 21:18:59.318042 12836 net.cpp:408] conv7_2_conv7_2_relu_0_split -> conv7_2_conv7_2_relu_0_split_0
I0903 21:18:59.318050 12836 net.cpp:408] conv7_2_conv7_2_relu_0_split -> conv7_2_conv7_2_relu_0_split_1
I0903 21:18:59.318058 12836 net.cpp:408] conv7_2_conv7_2_relu_0_split -> conv7_2_conv7_2_relu_0_split_2
I0903 21:18:59.318064 12836 net.cpp:408] conv7_2_conv7_2_relu_0_split -> conv7_2_conv7_2_relu_0_split_3
I0903 21:18:59.318137 12836 net.cpp:150] Setting up conv7_2_conv7_2_relu_0_split
I0903 21:18:59.318145 12836 net.cpp:157] Top shape: 8 512 5 5 (102400)
I0903 21:18:59.318148 12836 net.cpp:157] Top shape: 8 512 5 5 (102400)
I0903 21:18:59.318153 12836 net.cpp:157] Top shape: 8 512 5 5 (102400)
I0903 21:18:59.318157 12836 net.cpp:157] Top shape: 8 512 5 5 (102400)
I0903 21:18:59.318173 12836 net.cpp:165] Memory required for data: 1284739328
I0903 21:18:59.318178 12836 layer_factory.hpp:77] Creating layer conv8_1
I0903 21:18:59.318189 12836 net.cpp:100] Creating Layer conv8_1
I0903 21:18:59.318194 12836 net.cpp:434] conv8_1 <- conv7_2_conv7_2_relu_0_split_0
I0903 21:18:59.318202 12836 net.cpp:408] conv8_1 -> conv8_1
I0903 21:18:59.321085 12836 net.cpp:150] Setting up conv8_1
I0903 21:18:59.321099 12836 net.cpp:157] Top shape: 8 128 5 5 (25600)
I0903 21:18:59.321104 12836 net.cpp:165] Memory required for data: 1284841728
I0903 21:18:59.321111 12836 layer_factory.hpp:77] Creating layer conv8_1_relu
I0903 21:18:59.321120 12836 net.cpp:100] Creating Layer conv8_1_relu
I0903 21:18:59.321125 12836 net.cpp:434] conv8_1_relu <- conv8_1
I0903 21:18:59.321130 12836 net.cpp:395] conv8_1_relu -> conv8_1 (in-place)
I0903 21:18:59.321874 12836 net.cpp:150] Setting up conv8_1_relu
I0903 21:18:59.321890 12836 net.cpp:157] Top shape: 8 128 5 5 (25600)
I0903 21:18:59.321894 12836 net.cpp:165] Memory required for data: 1284944128
I0903 21:18:59.321898 12836 layer_factory.hpp:77] Creating layer conv8_2
I0903 21:18:59.321908 12836 net.cpp:100] Creating Layer conv8_2
I0903 21:18:59.321913 12836 net.cpp:434] conv8_2 <- conv8_1
I0903 21:18:59.321921 12836 net.cpp:408] conv8_2 -> conv8_2
I0903 21:18:59.326048 12836 net.cpp:150] Setting up conv8_2
I0903 21:18:59.326063 12836 net.cpp:157] Top shape: 8 256 3 3 (18432)
I0903 21:18:59.326068 12836 net.cpp:165] Memory required for data: 1285017856
I0903 21:18:59.326076 12836 layer_factory.hpp:77] Creating layer conv8_2_relu
I0903 21:18:59.326082 12836 net.cpp:100] Creating Layer conv8_2_relu
I0903 21:18:59.326087 12836 net.cpp:434] conv8_2_relu <- conv8_2
I0903 21:18:59.326092 12836 net.cpp:395] conv8_2_relu -> conv8_2 (in-place)
I0903 21:18:59.326309 12836 net.cpp:150] Setting up conv8_2_relu
I0903 21:18:59.326320 12836 net.cpp:157] Top shape: 8 256 3 3 (18432)
I0903 21:18:59.326323 12836 net.cpp:165] Memory required for data: 1285091584
I0903 21:18:59.326326 12836 layer_factory.hpp:77] Creating layer conv8_2_conv8_2_relu_0_split
I0903 21:18:59.326334 12836 net.cpp:100] Creating Layer conv8_2_conv8_2_relu_0_split
I0903 21:18:59.326339 12836 net.cpp:434] conv8_2_conv8_2_relu_0_split <- conv8_2
I0903 21:18:59.326344 12836 net.cpp:408] conv8_2_conv8_2_relu_0_split -> conv8_2_conv8_2_relu_0_split_0
I0903 21:18:59.326354 12836 net.cpp:408] conv8_2_conv8_2_relu_0_split -> conv8_2_conv8_2_relu_0_split_1
I0903 21:18:59.326360 12836 net.cpp:408] conv8_2_conv8_2_relu_0_split -> conv8_2_conv8_2_relu_0_split_2
I0903 21:18:59.326367 12836 net.cpp:408] conv8_2_conv8_2_relu_0_split -> conv8_2_conv8_2_relu_0_split_3
I0903 21:18:59.326441 12836 net.cpp:150] Setting up conv8_2_conv8_2_relu_0_split
I0903 21:18:59.326447 12836 net.cpp:157] Top shape: 8 256 3 3 (18432)
I0903 21:18:59.326452 12836 net.cpp:157] Top shape: 8 256 3 3 (18432)
I0903 21:18:59.326457 12836 net.cpp:157] Top shape: 8 256 3 3 (18432)
I0903 21:18:59.326462 12836 net.cpp:157] Top shape: 8 256 3 3 (18432)
I0903 21:18:59.326464 12836 net.cpp:165] Memory required for data: 1285386496
I0903 21:18:59.326468 12836 layer_factory.hpp:77] Creating layer conv9_1
I0903 21:18:59.326480 12836 net.cpp:100] Creating Layer conv9_1
I0903 21:18:59.326485 12836 net.cpp:434] conv9_1 <- conv8_2_conv8_2_relu_0_split_0
I0903 21:18:59.326493 12836 net.cpp:408] conv9_1 -> conv9_1
I0903 21:18:59.329040 12836 net.cpp:150] Setting up conv9_1
I0903 21:18:59.329054 12836 net.cpp:157] Top shape: 8 128 3 3 (9216)
I0903 21:18:59.329058 12836 net.cpp:165] Memory required for data: 1285423360
I0903 21:18:59.329066 12836 layer_factory.hpp:77] Creating layer conv9_1_relu
I0903 21:18:59.329072 12836 net.cpp:100] Creating Layer conv9_1_relu
I0903 21:18:59.329077 12836 net.cpp:434] conv9_1_relu <- conv9_1
I0903 21:18:59.329082 12836 net.cpp:395] conv9_1_relu -> conv9_1 (in-place)
I0903 21:18:59.329286 12836 net.cpp:150] Setting up conv9_1_relu
I0903 21:18:59.329295 12836 net.cpp:157] Top shape: 8 128 3 3 (9216)
I0903 21:18:59.329310 12836 net.cpp:165] Memory required for data: 1285460224
I0903 21:18:59.329315 12836 layer_factory.hpp:77] Creating layer conv9_2
I0903 21:18:59.329325 12836 net.cpp:100] Creating Layer conv9_2
I0903 21:18:59.329330 12836 net.cpp:434] conv9_2 <- conv9_1
I0903 21:18:59.329337 12836 net.cpp:408] conv9_2 -> conv9_2
I0903 21:18:59.333662 12836 net.cpp:150] Setting up conv9_2
I0903 21:18:59.333676 12836 net.cpp:157] Top shape: 8 256 2 2 (8192)
I0903 21:18:59.333680 12836 net.cpp:165] Memory required for data: 1285492992
I0903 21:18:59.333688 12836 layer_factory.hpp:77] Creating layer conv9_2_relu
I0903 21:18:59.333695 12836 net.cpp:100] Creating Layer conv9_2_relu
I0903 21:18:59.333700 12836 net.cpp:434] conv9_2_relu <- conv9_2
I0903 21:18:59.333708 12836 net.cpp:395] conv9_2_relu -> conv9_2 (in-place)
I0903 21:18:59.334471 12836 net.cpp:150] Setting up conv9_2_relu
I0903 21:18:59.334484 12836 net.cpp:157] Top shape: 8 256 2 2 (8192)
I0903 21:18:59.334488 12836 net.cpp:165] Memory required for data: 1285525760
I0903 21:18:59.334492 12836 layer_factory.hpp:77] Creating layer conv9_2_conv9_2_relu_0_split
I0903 21:18:59.334501 12836 net.cpp:100] Creating Layer conv9_2_conv9_2_relu_0_split
I0903 21:18:59.334506 12836 net.cpp:434] conv9_2_conv9_2_relu_0_split <- conv9_2
I0903 21:18:59.334513 12836 net.cpp:408] conv9_2_conv9_2_relu_0_split -> conv9_2_conv9_2_relu_0_split_0
I0903 21:18:59.334522 12836 net.cpp:408] conv9_2_conv9_2_relu_0_split -> conv9_2_conv9_2_relu_0_split_1
I0903 21:18:59.334528 12836 net.cpp:408] conv9_2_conv9_2_relu_0_split -> conv9_2_conv9_2_relu_0_split_2
I0903 21:18:59.334534 12836 net.cpp:408] conv9_2_conv9_2_relu_0_split -> conv9_2_conv9_2_relu_0_split_3
I0903 21:18:59.334604 12836 net.cpp:150] Setting up conv9_2_conv9_2_relu_0_split
I0903 21:18:59.334612 12836 net.cpp:157] Top shape: 8 256 2 2 (8192)
I0903 21:18:59.334616 12836 net.cpp:157] Top shape: 8 256 2 2 (8192)
I0903 21:18:59.334621 12836 net.cpp:157] Top shape: 8 256 2 2 (8192)
I0903 21:18:59.334625 12836 net.cpp:157] Top shape: 8 256 2 2 (8192)
I0903 21:18:59.334628 12836 net.cpp:165] Memory required for data: 1285656832
I0903 21:18:59.334632 12836 layer_factory.hpp:77] Creating layer conv10_1
I0903 21:18:59.334642 12836 net.cpp:100] Creating Layer conv10_1
I0903 21:18:59.334647 12836 net.cpp:434] conv10_1 <- conv9_2_conv9_2_relu_0_split_0
I0903 21:18:59.334657 12836 net.cpp:408] conv10_1 -> conv10_1
I0903 21:18:59.336776 12836 net.cpp:150] Setting up conv10_1
I0903 21:18:59.336789 12836 net.cpp:157] Top shape: 8 128 2 2 (4096)
I0903 21:18:59.336793 12836 net.cpp:165] Memory required for data: 1285673216
I0903 21:18:59.336800 12836 layer_factory.hpp:77] Creating layer conv10_1_relu
I0903 21:18:59.336824 12836 net.cpp:100] Creating Layer conv10_1_relu
I0903 21:18:59.336829 12836 net.cpp:434] conv10_1_relu <- conv10_1
I0903 21:18:59.336834 12836 net.cpp:395] conv10_1_relu -> conv10_1 (in-place)
I0903 21:18:59.337096 12836 net.cpp:150] Setting up conv10_1_relu
I0903 21:18:59.337106 12836 net.cpp:157] Top shape: 8 128 2 2 (4096)
I0903 21:18:59.337110 12836 net.cpp:165] Memory required for data: 1285689600
I0903 21:18:59.337116 12836 layer_factory.hpp:77] Creating layer conv10_2
I0903 21:18:59.337124 12836 net.cpp:100] Creating Layer conv10_2
I0903 21:18:59.337128 12836 net.cpp:434] conv10_2 <- conv10_1
I0903 21:18:59.337134 12836 net.cpp:408] conv10_2 -> conv10_2
I0903 21:18:59.341022 12836 net.cpp:150] Setting up conv10_2
I0903 21:18:59.341035 12836 net.cpp:157] Top shape: 8 256 1 1 (2048)
I0903 21:18:59.341039 12836 net.cpp:165] Memory required for data: 1285697792
I0903 21:18:59.341047 12836 layer_factory.hpp:77] Creating layer conv10_2_relu
I0903 21:18:59.341053 12836 net.cpp:100] Creating Layer conv10_2_relu
I0903 21:18:59.341056 12836 net.cpp:434] conv10_2_relu <- conv10_2
I0903 21:18:59.341065 12836 net.cpp:395] conv10_2_relu -> conv10_2 (in-place)
I0903 21:18:59.341264 12836 net.cpp:150] Setting up conv10_2_relu
I0903 21:18:59.341272 12836 net.cpp:157] Top shape: 8 256 1 1 (2048)
I0903 21:18:59.341276 12836 net.cpp:165] Memory required for data: 1285705984
I0903 21:18:59.341291 12836 layer_factory.hpp:77] Creating layer conv10_2_conv10_2_relu_0_split
I0903 21:18:59.341300 12836 net.cpp:100] Creating Layer conv10_2_conv10_2_relu_0_split
I0903 21:18:59.341303 12836 net.cpp:434] conv10_2_conv10_2_relu_0_split <- conv10_2
I0903 21:18:59.341312 12836 net.cpp:408] conv10_2_conv10_2_relu_0_split -> conv10_2_conv10_2_relu_0_split_0
I0903 21:18:59.341329 12836 net.cpp:408] conv10_2_conv10_2_relu_0_split -> conv10_2_conv10_2_relu_0_split_1
I0903 21:18:59.341337 12836 net.cpp:408] conv10_2_conv10_2_relu_0_split -> conv10_2_conv10_2_relu_0_split_2
I0903 21:18:59.341394 12836 net.cpp:150] Setting up conv10_2_conv10_2_relu_0_split
I0903 21:18:59.341401 12836 net.cpp:157] Top shape: 8 256 1 1 (2048)
I0903 21:18:59.341405 12836 net.cpp:157] Top shape: 8 256 1 1 (2048)
I0903 21:18:59.341409 12836 net.cpp:157] Top shape: 8 256 1 1 (2048)
I0903 21:18:59.341413 12836 net.cpp:165] Memory required for data: 1285730560
I0903 21:18:59.341418 12836 layer_factory.hpp:77] Creating layer conv5_5/sep_mbox_loc
I0903 21:18:59.341429 12836 net.cpp:100] Creating Layer conv5_5/sep_mbox_loc
I0903 21:18:59.341434 12836 net.cpp:434] conv5_5/sep_mbox_loc <- conv5_5/sep_conv5_5/sep_relu_0_split_1
I0903 21:18:59.341441 12836 net.cpp:408] conv5_5/sep_mbox_loc -> conv5_5/sep_mbox_loc
I0903 21:18:59.344087 12836 net.cpp:150] Setting up conv5_5/sep_mbox_loc
I0903 21:18:59.344100 12836 net.cpp:157] Top shape: 8 12 19 19 (34656)
I0903 21:18:59.344105 12836 net.cpp:165] Memory required for data: 1285869184
I0903 21:18:59.344111 12836 layer_factory.hpp:77] Creating layer conv5_5/sep_mbox_loc_perm
I0903 21:18:59.344120 12836 net.cpp:100] Creating Layer conv5_5/sep_mbox_loc_perm
I0903 21:18:59.344125 12836 net.cpp:434] conv5_5/sep_mbox_loc_perm <- conv5_5/sep_mbox_loc
I0903 21:18:59.344131 12836 net.cpp:408] conv5_5/sep_mbox_loc_perm -> conv5_5/sep_mbox_loc_perm
I0903 21:18:59.344239 12836 net.cpp:150] Setting up conv5_5/sep_mbox_loc_perm
I0903 21:18:59.344247 12836 net.cpp:157] Top shape: 8 19 19 12 (34656)
I0903 21:18:59.344250 12836 net.cpp:165] Memory required for data: 1286007808
I0903 21:18:59.344254 12836 layer_factory.hpp:77] Creating layer conv5_5/sep_mbox_loc_flat
I0903 21:18:59.344261 12836 net.cpp:100] Creating Layer conv5_5/sep_mbox_loc_flat
I0903 21:18:59.344265 12836 net.cpp:434] conv5_5/sep_mbox_loc_flat <- conv5_5/sep_mbox_loc_perm
I0903 21:18:59.344274 12836 net.cpp:408] conv5_5/sep_mbox_loc_flat -> conv5_5/sep_mbox_loc_flat
I0903 21:18:59.344298 12836 net.cpp:150] Setting up conv5_5/sep_mbox_loc_flat
I0903 21:18:59.344305 12836 net.cpp:157] Top shape: 8 4332 (34656)
I0903 21:18:59.344307 12836 net.cpp:165] Memory required for data: 1286146432
I0903 21:18:59.344311 12836 layer_factory.hpp:77] Creating layer conv5_5/sep_mbox_conf
I0903 21:18:59.344321 12836 net.cpp:100] Creating Layer conv5_5/sep_mbox_conf
I0903 21:18:59.344326 12836 net.cpp:434] conv5_5/sep_mbox_conf <- conv5_5/sep_conv5_5/sep_relu_0_split_2
I0903 21:18:59.344332 12836 net.cpp:408] conv5_5/sep_mbox_conf -> conv5_5/sep_mbox_conf
I0903 21:18:59.347002 12836 net.cpp:150] Setting up conv5_5/sep_mbox_conf
I0903 21:18:59.347015 12836 net.cpp:157] Top shape: 8 12 19 19 (34656)
I0903 21:18:59.347019 12836 net.cpp:165] Memory required for data: 1286285056
I0903 21:18:59.347026 12836 layer_factory.hpp:77] Creating layer conv5_5/sep_mbox_conf_perm
I0903 21:18:59.347035 12836 net.cpp:100] Creating Layer conv5_5/sep_mbox_conf_perm
I0903 21:18:59.347040 12836 net.cpp:434] conv5_5/sep_mbox_conf_perm <- conv5_5/sep_mbox_conf
I0903 21:18:59.347048 12836 net.cpp:408] conv5_5/sep_mbox_conf_perm -> conv5_5/sep_mbox_conf_perm
I0903 21:18:59.347198 12836 net.cpp:150] Setting up conv5_5/sep_mbox_conf_perm
I0903 21:18:59.347208 12836 net.cpp:157] Top shape: 8 19 19 12 (34656)
I0903 21:18:59.347210 12836 net.cpp:165] Memory required for data: 1286423680
I0903 21:18:59.347214 12836 layer_factory.hpp:77] Creating layer conv5_5/sep_mbox_conf_flat
I0903 21:18:59.347221 12836 net.cpp:100] Creating Layer conv5_5/sep_mbox_conf_flat
I0903 21:18:59.347235 12836 net.cpp:434] conv5_5/sep_mbox_conf_flat <- conv5_5/sep_mbox_conf_perm
I0903 21:18:59.347242 12836 net.cpp:408] conv5_5/sep_mbox_conf_flat -> conv5_5/sep_mbox_conf_flat
I0903 21:18:59.347272 12836 net.cpp:150] Setting up conv5_5/sep_mbox_conf_flat
I0903 21:18:59.347278 12836 net.cpp:157] Top shape: 8 4332 (34656)
I0903 21:18:59.347281 12836 net.cpp:165] Memory required for data: 1286562304
I0903 21:18:59.347285 12836 layer_factory.hpp:77] Creating layer conv5_5/sep_mbox_priorbox
I0903 21:18:59.347293 12836 net.cpp:100] Creating Layer conv5_5/sep_mbox_priorbox
I0903 21:18:59.347297 12836 net.cpp:434] conv5_5/sep_mbox_priorbox <- conv5_5/sep_conv5_5/sep_relu_0_split_3
I0903 21:18:59.347302 12836 net.cpp:434] conv5_5/sep_mbox_priorbox <- data_data_0_split_1
I0903 21:18:59.347308 12836 net.cpp:408] conv5_5/sep_mbox_priorbox -> conv5_5/sep_mbox_priorbox
I0903 21:18:59.347338 12836 net.cpp:150] Setting up conv5_5/sep_mbox_priorbox
I0903 21:18:59.347345 12836 net.cpp:157] Top shape: 1 2 4332 (8664)
I0903 21:18:59.347348 12836 net.cpp:165] Memory required for data: 1286596960
I0903 21:18:59.347352 12836 layer_factory.hpp:77] Creating layer conv6/sep_mbox_loc
I0903 21:18:59.347359 12836 net.cpp:100] Creating Layer conv6/sep_mbox_loc
I0903 21:18:59.347364 12836 net.cpp:434] conv6/sep_mbox_loc <- conv6/sep_conv6/sep_relu_0_split_1
I0903 21:18:59.347371 12836 net.cpp:408] conv6/sep_mbox_loc -> conv6/sep_mbox_loc
I0903 21:18:59.352452 12836 net.cpp:150] Setting up conv6/sep_mbox_loc
I0903 21:18:59.352465 12836 net.cpp:157] Top shape: 8 24 10 10 (19200)
I0903 21:18:59.352469 12836 net.cpp:165] Memory required for data: 1286673760
I0903 21:18:59.352476 12836 layer_factory.hpp:77] Creating layer conv6/sep_mbox_loc_perm
I0903 21:18:59.352483 12836 net.cpp:100] Creating Layer conv6/sep_mbox_loc_perm
I0903 21:18:59.352488 12836 net.cpp:434] conv6/sep_mbox_loc_perm <- conv6/sep_mbox_loc
I0903 21:18:59.352494 12836 net.cpp:408] conv6/sep_mbox_loc_perm -> conv6/sep_mbox_loc_perm
I0903 21:18:59.352600 12836 net.cpp:150] Setting up conv6/sep_mbox_loc_perm
I0903 21:18:59.352608 12836 net.cpp:157] Top shape: 8 10 10 24 (19200)
I0903 21:18:59.352612 12836 net.cpp:165] Memory required for data: 1286750560
I0903 21:18:59.352615 12836 layer_factory.hpp:77] Creating layer conv6/sep_mbox_loc_flat
I0903 21:18:59.352622 12836 net.cpp:100] Creating Layer conv6/sep_mbox_loc_flat
I0903 21:18:59.352625 12836 net.cpp:434] conv6/sep_mbox_loc_flat <- conv6/sep_mbox_loc_perm
I0903 21:18:59.352633 12836 net.cpp:408] conv6/sep_mbox_loc_flat -> conv6/sep_mbox_loc_flat
I0903 21:18:59.352658 12836 net.cpp:150] Setting up conv6/sep_mbox_loc_flat
I0903 21:18:59.352663 12836 net.cpp:157] Top shape: 8 2400 (19200)
I0903 21:18:59.352666 12836 net.cpp:165] Memory required for data: 1286827360
I0903 21:18:59.352669 12836 layer_factory.hpp:77] Creating layer conv6/sep_mbox_conf
I0903 21:18:59.352680 12836 net.cpp:100] Creating Layer conv6/sep_mbox_conf
I0903 21:18:59.352684 12836 net.cpp:434] conv6/sep_mbox_conf <- conv6/sep_conv6/sep_relu_0_split_2
I0903 21:18:59.352691 12836 net.cpp:408] conv6/sep_mbox_conf -> conv6/sep_mbox_conf
I0903 21:18:59.356545 12836 net.cpp:150] Setting up conv6/sep_mbox_conf
I0903 21:18:59.356559 12836 net.cpp:157] Top shape: 8 24 10 10 (19200)
I0903 21:18:59.356562 12836 net.cpp:165] Memory required for data: 1286904160
I0903 21:18:59.356570 12836 layer_factory.hpp:77] Creating layer conv6/sep_mbox_conf_perm
I0903 21:18:59.356575 12836 net.cpp:100] Creating Layer conv6/sep_mbox_conf_perm
I0903 21:18:59.356580 12836 net.cpp:434] conv6/sep_mbox_conf_perm <- conv6/sep_mbox_conf
I0903 21:18:59.356587 12836 net.cpp:408] conv6/sep_mbox_conf_perm -> conv6/sep_mbox_conf_perm
I0903 21:18:59.356689 12836 net.cpp:150] Setting up conv6/sep_mbox_conf_perm
I0903 21:18:59.356698 12836 net.cpp:157] Top shape: 8 10 10 24 (19200)
I0903 21:18:59.356703 12836 net.cpp:165] Memory required for data: 1286980960
I0903 21:18:59.356705 12836 layer_factory.hpp:77] Creating layer conv6/sep_mbox_conf_flat
I0903 21:18:59.356711 12836 net.cpp:100] Creating Layer conv6/sep_mbox_conf_flat
I0903 21:18:59.356725 12836 net.cpp:434] conv6/sep_mbox_conf_flat <- conv6/sep_mbox_conf_perm
I0903 21:18:59.356739 12836 net.cpp:408] conv6/sep_mbox_conf_flat -> conv6/sep_mbox_conf_flat
I0903 21:18:59.356765 12836 net.cpp:150] Setting up conv6/sep_mbox_conf_flat
I0903 21:18:59.356772 12836 net.cpp:157] Top shape: 8 2400 (19200)
I0903 21:18:59.356775 12836 net.cpp:165] Memory required for data: 1287057760
I0903 21:18:59.356779 12836 layer_factory.hpp:77] Creating layer conv6/sep_mbox_priorbox
I0903 21:18:59.356786 12836 net.cpp:100] Creating Layer conv6/sep_mbox_priorbox
I0903 21:18:59.356791 12836 net.cpp:434] conv6/sep_mbox_priorbox <- conv6/sep_conv6/sep_relu_0_split_3
I0903 21:18:59.356794 12836 net.cpp:434] conv6/sep_mbox_priorbox <- data_data_0_split_2
I0903 21:18:59.356801 12836 net.cpp:408] conv6/sep_mbox_priorbox -> conv6/sep_mbox_priorbox
I0903 21:18:59.356827 12836 net.cpp:150] Setting up conv6/sep_mbox_priorbox
I0903 21:18:59.356834 12836 net.cpp:157] Top shape: 1 2 2400 (4800)
I0903 21:18:59.356837 12836 net.cpp:165] Memory required for data: 1287076960
I0903 21:18:59.356840 12836 layer_factory.hpp:77] Creating layer conv7_2_mbox_loc
I0903 21:18:59.356849 12836 net.cpp:100] Creating Layer conv7_2_mbox_loc
I0903 21:18:59.356853 12836 net.cpp:434] conv7_2_mbox_loc <- conv7_2_conv7_2_relu_0_split_1
I0903 21:18:59.356860 12836 net.cpp:408] conv7_2_mbox_loc -> conv7_2_mbox_loc
I0903 21:18:59.359660 12836 net.cpp:150] Setting up conv7_2_mbox_loc
I0903 21:18:59.359673 12836 net.cpp:157] Top shape: 8 24 5 5 (4800)
I0903 21:18:59.359676 12836 net.cpp:165] Memory required for data: 1287096160
I0903 21:18:59.359683 12836 layer_factory.hpp:77] Creating layer conv7_2_mbox_loc_perm
I0903 21:18:59.359689 12836 net.cpp:100] Creating Layer conv7_2_mbox_loc_perm
I0903 21:18:59.359694 12836 net.cpp:434] conv7_2_mbox_loc_perm <- conv7_2_mbox_loc
I0903 21:18:59.359700 12836 net.cpp:408] conv7_2_mbox_loc_perm -> conv7_2_mbox_loc_perm
I0903 21:18:59.359807 12836 net.cpp:150] Setting up conv7_2_mbox_loc_perm
I0903 21:18:59.359813 12836 net.cpp:157] Top shape: 8 5 5 24 (4800)
I0903 21:18:59.359817 12836 net.cpp:165] Memory required for data: 1287115360
I0903 21:18:59.359820 12836 layer_factory.hpp:77] Creating layer conv7_2_mbox_loc_flat
I0903 21:18:59.359825 12836 net.cpp:100] Creating Layer conv7_2_mbox_loc_flat
I0903 21:18:59.359829 12836 net.cpp:434] conv7_2_mbox_loc_flat <- conv7_2_mbox_loc_perm
I0903 21:18:59.359838 12836 net.cpp:408] conv7_2_mbox_loc_flat -> conv7_2_mbox_loc_flat
I0903 21:18:59.359863 12836 net.cpp:150] Setting up conv7_2_mbox_loc_flat
I0903 21:18:59.359869 12836 net.cpp:157] Top shape: 8 600 (4800)
I0903 21:18:59.359872 12836 net.cpp:165] Memory required for data: 1287134560
I0903 21:18:59.359875 12836 layer_factory.hpp:77] Creating layer conv7_2_mbox_conf
I0903 21:18:59.359884 12836 net.cpp:100] Creating Layer conv7_2_mbox_conf
I0903 21:18:59.359889 12836 net.cpp:434] conv7_2_mbox_conf <- conv7_2_conv7_2_relu_0_split_2
I0903 21:18:59.359897 12836 net.cpp:408] conv7_2_mbox_conf -> conv7_2_mbox_conf
I0903 21:18:59.362738 12836 net.cpp:150] Setting up conv7_2_mbox_conf
I0903 21:18:59.362749 12836 net.cpp:157] Top shape: 8 24 5 5 (4800)
I0903 21:18:59.362753 12836 net.cpp:165] Memory required for data: 1287153760
I0903 21:18:59.362759 12836 layer_factory.hpp:77] Creating layer conv7_2_mbox_conf_perm
I0903 21:18:59.362769 12836 net.cpp:100] Creating Layer conv7_2_mbox_conf_perm
I0903 21:18:59.362774 12836 net.cpp:434] conv7_2_mbox_conf_perm <- conv7_2_mbox_conf
I0903 21:18:59.362781 12836 net.cpp:408] conv7_2_mbox_conf_perm -> conv7_2_mbox_conf_perm
I0903 21:18:59.362881 12836 net.cpp:150] Setting up conv7_2_mbox_conf_perm
I0903 21:18:59.362890 12836 net.cpp:157] Top shape: 8 5 5 24 (4800)
I0903 21:18:59.362893 12836 net.cpp:165] Memory required for data: 1287172960
I0903 21:18:59.362896 12836 layer_factory.hpp:77] Creating layer conv7_2_mbox_conf_flat
I0903 21:18:59.362902 12836 net.cpp:100] Creating Layer conv7_2_mbox_conf_flat
I0903 21:18:59.362906 12836 net.cpp:434] conv7_2_mbox_conf_flat <- conv7_2_mbox_conf_perm
I0903 21:18:59.362922 12836 net.cpp:408] conv7_2_mbox_conf_flat -> conv7_2_mbox_conf_flat
I0903 21:18:59.362951 12836 net.cpp:150] Setting up conv7_2_mbox_conf_flat
I0903 21:18:59.362958 12836 net.cpp:157] Top shape: 8 600 (4800)
I0903 21:18:59.362962 12836 net.cpp:165] Memory required for data: 1287192160
I0903 21:18:59.362964 12836 layer_factory.hpp:77] Creating layer conv7_2_mbox_priorbox
I0903 21:18:59.362970 12836 net.cpp:100] Creating Layer conv7_2_mbox_priorbox
I0903 21:18:59.362975 12836 net.cpp:434] conv7_2_mbox_priorbox <- conv7_2_conv7_2_relu_0_split_3
I0903 21:18:59.362980 12836 net.cpp:434] conv7_2_mbox_priorbox <- data_data_0_split_3
I0903 21:18:59.362987 12836 net.cpp:408] conv7_2_mbox_priorbox -> conv7_2_mbox_priorbox
I0903 21:18:59.363013 12836 net.cpp:150] Setting up conv7_2_mbox_priorbox
I0903 21:18:59.363019 12836 net.cpp:157] Top shape: 1 2 600 (1200)
I0903 21:18:59.363023 12836 net.cpp:165] Memory required for data: 1287196960
I0903 21:18:59.363026 12836 layer_factory.hpp:77] Creating layer conv8_2_mbox_loc
I0903 21:18:59.363035 12836 net.cpp:100] Creating Layer conv8_2_mbox_loc
I0903 21:18:59.363039 12836 net.cpp:434] conv8_2_mbox_loc <- conv8_2_conv8_2_relu_0_split_1
I0903 21:18:59.363045 12836 net.cpp:408] conv8_2_mbox_loc -> conv8_2_mbox_loc
I0903 21:18:59.365558 12836 net.cpp:150] Setting up conv8_2_mbox_loc
I0903 21:18:59.365569 12836 net.cpp:157] Top shape: 8 24 3 3 (1728)
I0903 21:18:59.365573 12836 net.cpp:165] Memory required for data: 1287203872
I0903 21:18:59.365579 12836 layer_factory.hpp:77] Creating layer conv8_2_mbox_loc_perm
I0903 21:18:59.365587 12836 net.cpp:100] Creating Layer conv8_2_mbox_loc_perm
I0903 21:18:59.365592 12836 net.cpp:434] conv8_2_mbox_loc_perm <- conv8_2_mbox_loc
I0903 21:18:59.365599 12836 net.cpp:408] conv8_2_mbox_loc_perm -> conv8_2_mbox_loc_perm
I0903 21:18:59.365702 12836 net.cpp:150] Setting up conv8_2_mbox_loc_perm
I0903 21:18:59.365710 12836 net.cpp:157] Top shape: 8 3 3 24 (1728)
I0903 21:18:59.365713 12836 net.cpp:165] Memory required for data: 1287210784
I0903 21:18:59.365716 12836 layer_factory.hpp:77] Creating layer conv8_2_mbox_loc_flat
I0903 21:18:59.365722 12836 net.cpp:100] Creating Layer conv8_2_mbox_loc_flat
I0903 21:18:59.365726 12836 net.cpp:434] conv8_2_mbox_loc_flat <- conv8_2_mbox_loc_perm
I0903 21:18:59.365732 12836 net.cpp:408] conv8_2_mbox_loc_flat -> conv8_2_mbox_loc_flat
I0903 21:18:59.365756 12836 net.cpp:150] Setting up conv8_2_mbox_loc_flat
I0903 21:18:59.365762 12836 net.cpp:157] Top shape: 8 216 (1728)
I0903 21:18:59.365766 12836 net.cpp:165] Memory required for data: 1287217696
I0903 21:18:59.365768 12836 layer_factory.hpp:77] Creating layer conv8_2_mbox_conf
I0903 21:18:59.365777 12836 net.cpp:100] Creating Layer conv8_2_mbox_conf
I0903 21:18:59.365782 12836 net.cpp:434] conv8_2_mbox_conf <- conv8_2_conv8_2_relu_0_split_2
I0903 21:18:59.365788 12836 net.cpp:408] conv8_2_mbox_conf -> conv8_2_mbox_conf
I0903 21:18:59.368721 12836 net.cpp:150] Setting up conv8_2_mbox_conf
I0903 21:18:59.368732 12836 net.cpp:157] Top shape: 8 24 3 3 (1728)
I0903 21:18:59.368736 12836 net.cpp:165] Memory required for data: 1287224608
I0903 21:18:59.368742 12836 layer_factory.hpp:77] Creating layer conv8_2_mbox_conf_perm
I0903 21:18:59.368749 12836 net.cpp:100] Creating Layer conv8_2_mbox_conf_perm
I0903 21:18:59.368753 12836 net.cpp:434] conv8_2_mbox_conf_perm <- conv8_2_mbox_conf
I0903 21:18:59.368759 12836 net.cpp:408] conv8_2_mbox_conf_perm -> conv8_2_mbox_conf_perm
I0903 21:18:59.368865 12836 net.cpp:150] Setting up conv8_2_mbox_conf_perm
I0903 21:18:59.368871 12836 net.cpp:157] Top shape: 8 3 3 24 (1728)
I0903 21:18:59.368875 12836 net.cpp:165] Memory required for data: 1287231520
I0903 21:18:59.368877 12836 layer_factory.hpp:77] Creating layer conv8_2_mbox_conf_flat
I0903 21:18:59.368885 12836 net.cpp:100] Creating Layer conv8_2_mbox_conf_flat
I0903 21:18:59.368888 12836 net.cpp:434] conv8_2_mbox_conf_flat <- conv8_2_mbox_conf_perm
I0903 21:18:59.368893 12836 net.cpp:408] conv8_2_mbox_conf_flat -> conv8_2_mbox_conf_flat
I0903 21:18:59.368930 12836 net.cpp:150] Setting up conv8_2_mbox_conf_flat
I0903 21:18:59.368937 12836 net.cpp:157] Top shape: 8 216 (1728)
I0903 21:18:59.368940 12836 net.cpp:165] Memory required for data: 1287238432
I0903 21:18:59.368943 12836 layer_factory.hpp:77] Creating layer conv8_2_mbox_priorbox
I0903 21:18:59.368952 12836 net.cpp:100] Creating Layer conv8_2_mbox_priorbox
I0903 21:18:59.368955 12836 net.cpp:434] conv8_2_mbox_priorbox <- conv8_2_conv8_2_relu_0_split_3
I0903 21:18:59.368960 12836 net.cpp:434] conv8_2_mbox_priorbox <- data_data_0_split_4
I0903 21:18:59.368968 12836 net.cpp:408] conv8_2_mbox_priorbox -> conv8_2_mbox_priorbox
I0903 21:18:59.368994 12836 net.cpp:150] Setting up conv8_2_mbox_priorbox
I0903 21:18:59.369000 12836 net.cpp:157] Top shape: 1 2 216 (432)
I0903 21:18:59.369004 12836 net.cpp:165] Memory required for data: 1287240160
I0903 21:18:59.369006 12836 layer_factory.hpp:77] Creating layer conv9_2_mbox_loc
I0903 21:18:59.369016 12836 net.cpp:100] Creating Layer conv9_2_mbox_loc
I0903 21:18:59.369020 12836 net.cpp:434] conv9_2_mbox_loc <- conv9_2_conv9_2_relu_0_split_1
I0903 21:18:59.369026 12836 net.cpp:408] conv9_2_mbox_loc -> conv9_2_mbox_loc
I0903 21:18:59.371533 12836 net.cpp:150] Setting up conv9_2_mbox_loc
I0903 21:18:59.371546 12836 net.cpp:157] Top shape: 8 24 2 2 (768)
I0903 21:18:59.371548 12836 net.cpp:165] Memory required for data: 1287243232
I0903 21:18:59.371556 12836 layer_factory.hpp:77] Creating layer conv9_2_mbox_loc_perm
I0903 21:18:59.371563 12836 net.cpp:100] Creating Layer conv9_2_mbox_loc_perm
I0903 21:18:59.371567 12836 net.cpp:434] conv9_2_mbox_loc_perm <- conv9_2_mbox_loc
I0903 21:18:59.371573 12836 net.cpp:408] conv9_2_mbox_loc_perm -> conv9_2_mbox_loc_perm
I0903 21:18:59.371675 12836 net.cpp:150] Setting up conv9_2_mbox_loc_perm
I0903 21:18:59.371682 12836 net.cpp:157] Top shape: 8 2 2 24 (768)
I0903 21:18:59.371685 12836 net.cpp:165] Memory required for data: 1287246304
I0903 21:18:59.371688 12836 layer_factory.hpp:77] Creating layer conv9_2_mbox_loc_flat
I0903 21:18:59.371695 12836 net.cpp:100] Creating Layer conv9_2_mbox_loc_flat
I0903 21:18:59.371698 12836 net.cpp:434] conv9_2_mbox_loc_flat <- conv9_2_mbox_loc_perm
I0903 21:18:59.371703 12836 net.cpp:408] conv9_2_mbox_loc_flat -> conv9_2_mbox_loc_flat
I0903 21:18:59.371728 12836 net.cpp:150] Setting up conv9_2_mbox_loc_flat
I0903 21:18:59.371733 12836 net.cpp:157] Top shape: 8 96 (768)
I0903 21:18:59.371737 12836 net.cpp:165] Memory required for data: 1287249376
I0903 21:18:59.371740 12836 layer_factory.hpp:77] Creating layer conv9_2_mbox_conf
I0903 21:18:59.371750 12836 net.cpp:100] Creating Layer conv9_2_mbox_conf
I0903 21:18:59.371754 12836 net.cpp:434] conv9_2_mbox_conf <- conv9_2_conv9_2_relu_0_split_2
I0903 21:18:59.371760 12836 net.cpp:408] conv9_2_mbox_conf -> conv9_2_mbox_conf
I0903 21:18:59.373783 12836 net.cpp:150] Setting up conv9_2_mbox_conf
I0903 21:18:59.373795 12836 net.cpp:157] Top shape: 8 24 2 2 (768)
I0903 21:18:59.373797 12836 net.cpp:165] Memory required for data: 1287252448
I0903 21:18:59.373805 12836 layer_factory.hpp:77] Creating layer conv9_2_mbox_conf_perm
I0903 21:18:59.373812 12836 net.cpp:100] Creating Layer conv9_2_mbox_conf_perm
I0903 21:18:59.373817 12836 net.cpp:434] conv9_2_mbox_conf_perm <- conv9_2_mbox_conf
I0903 21:18:59.373823 12836 net.cpp:408] conv9_2_mbox_conf_perm -> conv9_2_mbox_conf_perm
I0903 21:18:59.373925 12836 net.cpp:150] Setting up conv9_2_mbox_conf_perm
I0903 21:18:59.373932 12836 net.cpp:157] Top shape: 8 2 2 24 (768)
I0903 21:18:59.373936 12836 net.cpp:165] Memory required for data: 1287255520
I0903 21:18:59.373939 12836 layer_factory.hpp:77] Creating layer conv9_2_mbox_conf_flat
I0903 21:18:59.373944 12836 net.cpp:100] Creating Layer conv9_2_mbox_conf_flat
I0903 21:18:59.373949 12836 net.cpp:434] conv9_2_mbox_conf_flat <- conv9_2_mbox_conf_perm
I0903 21:18:59.373955 12836 net.cpp:408] conv9_2_mbox_conf_flat -> conv9_2_mbox_conf_flat
I0903 21:18:59.373977 12836 net.cpp:150] Setting up conv9_2_mbox_conf_flat
I0903 21:18:59.373984 12836 net.cpp:157] Top shape: 8 96 (768)
I0903 21:18:59.373996 12836 net.cpp:165] Memory required for data: 1287258592
I0903 21:18:59.374001 12836 layer_factory.hpp:77] Creating layer conv9_2_mbox_priorbox
I0903 21:18:59.374007 12836 net.cpp:100] Creating Layer conv9_2_mbox_priorbox
I0903 21:18:59.374011 12836 net.cpp:434] conv9_2_mbox_priorbox <- conv9_2_conv9_2_relu_0_split_3
I0903 21:18:59.374017 12836 net.cpp:434] conv9_2_mbox_priorbox <- data_data_0_split_5
I0903 21:18:59.374022 12836 net.cpp:408] conv9_2_mbox_priorbox -> conv9_2_mbox_priorbox
I0903 21:18:59.374050 12836 net.cpp:150] Setting up conv9_2_mbox_priorbox
I0903 21:18:59.374058 12836 net.cpp:157] Top shape: 1 2 96 (192)
I0903 21:18:59.374060 12836 net.cpp:165] Memory required for data: 1287259360
I0903 21:18:59.374064 12836 layer_factory.hpp:77] Creating layer conv10_2_mbox_loc
I0903 21:18:59.374073 12836 net.cpp:100] Creating Layer conv10_2_mbox_loc
I0903 21:18:59.374078 12836 net.cpp:434] conv10_2_mbox_loc <- conv10_2_conv10_2_relu_0_split_0
I0903 21:18:59.374083 12836 net.cpp:408] conv10_2_mbox_loc -> conv10_2_mbox_loc
I0903 21:18:59.376574 12836 net.cpp:150] Setting up conv10_2_mbox_loc
I0903 21:18:59.376585 12836 net.cpp:157] Top shape: 8 24 1 1 (192)
I0903 21:18:59.376588 12836 net.cpp:165] Memory required for data: 1287260128
I0903 21:18:59.376595 12836 layer_factory.hpp:77] Creating layer conv10_2_mbox_loc_perm
I0903 21:18:59.376602 12836 net.cpp:100] Creating Layer conv10_2_mbox_loc_perm
I0903 21:18:59.376606 12836 net.cpp:434] conv10_2_mbox_loc_perm <- conv10_2_mbox_loc
I0903 21:18:59.376611 12836 net.cpp:408] conv10_2_mbox_loc_perm -> conv10_2_mbox_loc_perm
I0903 21:18:59.376711 12836 net.cpp:150] Setting up conv10_2_mbox_loc_perm
I0903 21:18:59.376718 12836 net.cpp:157] Top shape: 8 1 1 24 (192)
I0903 21:18:59.376720 12836 net.cpp:165] Memory required for data: 1287260896
I0903 21:18:59.376724 12836 layer_factory.hpp:77] Creating layer conv10_2_mbox_loc_flat
I0903 21:18:59.376730 12836 net.cpp:100] Creating Layer conv10_2_mbox_loc_flat
I0903 21:18:59.376734 12836 net.cpp:434] conv10_2_mbox_loc_flat <- conv10_2_mbox_loc_perm
I0903 21:18:59.376739 12836 net.cpp:408] conv10_2_mbox_loc_flat -> conv10_2_mbox_loc_flat
I0903 21:18:59.376763 12836 net.cpp:150] Setting up conv10_2_mbox_loc_flat
I0903 21:18:59.376768 12836 net.cpp:157] Top shape: 8 24 (192)
I0903 21:18:59.376771 12836 net.cpp:165] Memory required for data: 1287261664
I0903 21:18:59.376775 12836 layer_factory.hpp:77] Creating layer conv10_2_mbox_conf
I0903 21:18:59.376783 12836 net.cpp:100] Creating Layer conv10_2_mbox_conf
I0903 21:18:59.376787 12836 net.cpp:434] conv10_2_mbox_conf <- conv10_2_conv10_2_relu_0_split_1
I0903 21:18:59.376793 12836 net.cpp:408] conv10_2_mbox_conf -> conv10_2_mbox_conf
I0903 21:18:59.379639 12836 net.cpp:150] Setting up conv10_2_mbox_conf
I0903 21:18:59.379652 12836 net.cpp:157] Top shape: 8 24 1 1 (192)
I0903 21:18:59.379654 12836 net.cpp:165] Memory required for data: 1287262432
I0903 21:18:59.379660 12836 layer_factory.hpp:77] Creating layer conv10_2_mbox_conf_perm
I0903 21:18:59.379667 12836 net.cpp:100] Creating Layer conv10_2_mbox_conf_perm
I0903 21:18:59.379672 12836 net.cpp:434] conv10_2_mbox_conf_perm <- conv10_2_mbox_conf
I0903 21:18:59.379678 12836 net.cpp:408] conv10_2_mbox_conf_perm -> conv10_2_mbox_conf_perm
I0903 21:18:59.379779 12836 net.cpp:150] Setting up conv10_2_mbox_conf_perm
I0903 21:18:59.379786 12836 net.cpp:157] Top shape: 8 1 1 24 (192)
I0903 21:18:59.379789 12836 net.cpp:165] Memory required for data: 1287263200
I0903 21:18:59.379793 12836 layer_factory.hpp:77] Creating layer conv10_2_mbox_conf_flat
I0903 21:18:59.379801 12836 net.cpp:100] Creating Layer conv10_2_mbox_conf_flat
I0903 21:18:59.379804 12836 net.cpp:434] conv10_2_mbox_conf_flat <- conv10_2_mbox_conf_perm
I0903 21:18:59.379809 12836 net.cpp:408] conv10_2_mbox_conf_flat -> conv10_2_mbox_conf_flat
I0903 21:18:59.379834 12836 net.cpp:150] Setting up conv10_2_mbox_conf_flat
I0903 21:18:59.379840 12836 net.cpp:157] Top shape: 8 24 (192)
I0903 21:18:59.379842 12836 net.cpp:165] Memory required for data: 1287263968
I0903 21:18:59.379855 12836 layer_factory.hpp:77] Creating layer conv10_2_mbox_priorbox
I0903 21:18:59.379863 12836 net.cpp:100] Creating Layer conv10_2_mbox_priorbox
I0903 21:18:59.379866 12836 net.cpp:434] conv10_2_mbox_priorbox <- conv10_2_conv10_2_relu_0_split_2
I0903 21:18:59.379871 12836 net.cpp:434] conv10_2_mbox_priorbox <- data_data_0_split_6
I0903 21:18:59.379878 12836 net.cpp:408] conv10_2_mbox_priorbox -> conv10_2_mbox_priorbox
I0903 21:18:59.379905 12836 net.cpp:150] Setting up conv10_2_mbox_priorbox
I0903 21:18:59.379911 12836 net.cpp:157] Top shape: 1 2 24 (48)
I0903 21:18:59.379914 12836 net.cpp:165] Memory required for data: 1287264160
I0903 21:18:59.379917 12836 layer_factory.hpp:77] Creating layer mbox_loc
I0903 21:18:59.379926 12836 net.cpp:100] Creating Layer mbox_loc
I0903 21:18:59.379930 12836 net.cpp:434] mbox_loc <- conv5_5/sep_mbox_loc_flat
I0903 21:18:59.379935 12836 net.cpp:434] mbox_loc <- conv6/sep_mbox_loc_flat
I0903 21:18:59.379940 12836 net.cpp:434] mbox_loc <- conv7_2_mbox_loc_flat
I0903 21:18:59.379943 12836 net.cpp:434] mbox_loc <- conv8_2_mbox_loc_flat
I0903 21:18:59.379947 12836 net.cpp:434] mbox_loc <- conv9_2_mbox_loc_flat
I0903 21:18:59.379951 12836 net.cpp:434] mbox_loc <- conv10_2_mbox_loc_flat
I0903 21:18:59.379956 12836 net.cpp:408] mbox_loc -> mbox_loc
I0903 21:18:59.379982 12836 net.cpp:150] Setting up mbox_loc
I0903 21:18:59.379987 12836 net.cpp:157] Top shape: 8 7668 (61344)
I0903 21:18:59.379990 12836 net.cpp:165] Memory required for data: 1287509536
I0903 21:18:59.379994 12836 layer_factory.hpp:77] Creating layer mbox_conf
I0903 21:18:59.379999 12836 net.cpp:100] Creating Layer mbox_conf
I0903 21:18:59.380003 12836 net.cpp:434] mbox_conf <- conv5_5/sep_mbox_conf_flat
I0903 21:18:59.380009 12836 net.cpp:434] mbox_conf <- conv6/sep_mbox_conf_flat
I0903 21:18:59.380013 12836 net.cpp:434] mbox_conf <- conv7_2_mbox_conf_flat
I0903 21:18:59.380017 12836 net.cpp:434] mbox_conf <- conv8_2_mbox_conf_flat
I0903 21:18:59.380022 12836 net.cpp:434] mbox_conf <- conv9_2_mbox_conf_flat
I0903 21:18:59.380025 12836 net.cpp:434] mbox_conf <- conv10_2_mbox_conf_flat
I0903 21:18:59.380029 12836 net.cpp:408] mbox_conf -> mbox_conf
I0903 21:18:59.380053 12836 net.cpp:150] Setting up mbox_conf
I0903 21:18:59.380058 12836 net.cpp:157] Top shape: 8 7668 (61344)
I0903 21:18:59.380060 12836 net.cpp:165] Memory required for data: 1287754912
I0903 21:18:59.380064 12836 layer_factory.hpp:77] Creating layer mbox_priorbox
I0903 21:18:59.380069 12836 net.cpp:100] Creating Layer mbox_priorbox
I0903 21:18:59.380072 12836 net.cpp:434] mbox_priorbox <- conv5_5/sep_mbox_priorbox
I0903 21:18:59.380077 12836 net.cpp:434] mbox_priorbox <- conv6/sep_mbox_priorbox
I0903 21:18:59.380081 12836 net.cpp:434] mbox_priorbox <- conv7_2_mbox_priorbox
I0903 21:18:59.380084 12836 net.cpp:434] mbox_priorbox <- conv8_2_mbox_priorbox
I0903 21:18:59.380089 12836 net.cpp:434] mbox_priorbox <- conv9_2_mbox_priorbox
I0903 21:18:59.380092 12836 net.cpp:434] mbox_priorbox <- conv10_2_mbox_priorbox
I0903 21:18:59.380097 12836 net.cpp:408] mbox_priorbox -> mbox_priorbox
I0903 21:18:59.380120 12836 net.cpp:150] Setting up mbox_priorbox
I0903 21:18:59.380126 12836 net.cpp:157] Top shape: 1 2 7668 (15336)
I0903 21:18:59.380129 12836 net.cpp:165] Memory required for data: 1287816256
I0903 21:18:59.380132 12836 layer_factory.hpp:77] Creating layer mbox_conf_reshape
I0903 21:18:59.380141 12836 net.cpp:100] Creating Layer mbox_conf_reshape
I0903 21:18:59.380144 12836 net.cpp:434] mbox_conf_reshape <- mbox_conf
I0903 21:18:59.380149 12836 net.cpp:408] mbox_conf_reshape -> mbox_conf_reshape
I0903 21:18:59.380180 12836 net.cpp:150] Setting up mbox_conf_reshape
I0903 21:18:59.380187 12836 net.cpp:157] Top shape: 8 1917 4 (61344)
I0903 21:18:59.380189 12836 net.cpp:165] Memory required for data: 1288061632
I0903 21:18:59.380192 12836 layer_factory.hpp:77] Creating layer mbox_conf_softmax
I0903 21:18:59.380199 12836 net.cpp:100] Creating Layer mbox_conf_softmax
I0903 21:18:59.380203 12836 net.cpp:434] mbox_conf_softmax <- mbox_conf_reshape
I0903 21:18:59.380215 12836 net.cpp:408] mbox_conf_softmax -> mbox_conf_softmax
I0903 21:18:59.380931 12836 net.cpp:150] Setting up mbox_conf_softmax
I0903 21:18:59.380942 12836 net.cpp:157] Top shape: 8 1917 4 (61344)
I0903 21:18:59.380945 12836 net.cpp:165] Memory required for data: 1288307008
I0903 21:18:59.380949 12836 layer_factory.hpp:77] Creating layer mbox_conf_flatten
I0903 21:18:59.380955 12836 net.cpp:100] Creating Layer mbox_conf_flatten
I0903 21:18:59.380959 12836 net.cpp:434] mbox_conf_flatten <- mbox_conf_softmax
I0903 21:18:59.380965 12836 net.cpp:408] mbox_conf_flatten -> mbox_conf_flatten
I0903 21:18:59.380991 12836 net.cpp:150] Setting up mbox_conf_flatten
I0903 21:18:59.380997 12836 net.cpp:157] Top shape: 8 7668 (61344)
I0903 21:18:59.381000 12836 net.cpp:165] Memory required for data: 1288552384
I0903 21:18:59.381003 12836 layer_factory.hpp:77] Creating layer detection_out
I0903 21:18:59.381016 12836 net.cpp:100] Creating Layer detection_out
I0903 21:18:59.381021 12836 net.cpp:434] detection_out <- mbox_loc
I0903 21:18:59.381024 12836 net.cpp:434] detection_out <- mbox_conf_flatten
I0903 21:18:59.381028 12836 net.cpp:434] detection_out <- mbox_priorbox
I0903 21:18:59.381036 12836 net.cpp:408] detection_out -> detection_out
I0903 21:18:59.381345 12836 net.cpp:150] Setting up detection_out
I0903 21:18:59.381353 12836 net.cpp:157] Top shape: 1 1 1 7 (7)
I0903 21:18:59.381356 12836 net.cpp:165] Memory required for data: 1288552412
I0903 21:18:59.381361 12836 layer_factory.hpp:77] Creating layer detection_eval
I0903 21:18:59.381368 12836 net.cpp:100] Creating Layer detection_eval
I0903 21:18:59.381372 12836 net.cpp:434] detection_eval <- detection_out
I0903 21:18:59.381377 12836 net.cpp:434] detection_eval <- label
I0903 21:18:59.381382 12836 net.cpp:408] detection_eval -> detection_eval
I0903 21:18:59.381579 12836 net.cpp:150] Setting up detection_eval
I0903 21:18:59.381587 12836 net.cpp:157] Top shape: 1 1 4 5 (20)
I0903 21:18:59.381589 12836 net.cpp:165] Memory required for data: 1288552492
I0903 21:18:59.381593 12836 net.cpp:228] detection_eval does not need backward computation.
I0903 21:18:59.381597 12836 net.cpp:228] detection_out does not need backward computation.
I0903 21:18:59.381602 12836 net.cpp:228] mbox_conf_flatten does not need backward computation.
I0903 21:18:59.381604 12836 net.cpp:228] mbox_conf_softmax does not need backward computation.
…
