…
        min_scale: 0.3
        max_scale: 1
        min_aspect_ratio: 0.5
        max_aspect_ratio: 2
      }
      sample_constraint {
        min_jaccard_overlap: 0.9
      }
      max_sample: 1
      max_trials: 50
    }
    batch_sampler {
      sampler {
        min_scale: 0.3
        max_scale: 1
        min_aspect_ratio: 0.5
        max_aspect_ratio: 2
      }
      sample_constraint {
        max_jaccard_overlap: 1
      }
      max_sample: 1
      max_trials: 50
    }
    label_map_file: "data/BodyFaceHandRegions/labelmap_voc.prototxt"
  }
}
layer {
  name: "conv1"
  type: "Convolution"
  bottom: "data"
  top: "conv1"
  param {
    lr_mult: 1
    decay_mult: 1
  }
  convolution_param {
    num_output: 32
    bias_term: false
    pad: 1
    kernel_size: 3
    group: 1
    stride: 2
    weight_filler {
      type: "gaussian"
      std: 0.01
    }
    engine: DEFAULT
  }
}
layer {
  name: "conv1/bn"
  type: "BatchNorm"
  bottom: "conv1"
  top: "conv1"
  batch_norm_param {
    moving_average_fraction: 0.999
    eps: 0.001
  }
}
layer {
  name: "conv1/scale"
  type: "Scale"
  bottom: "conv1"
  top: "conv1"
  param {
    lr_mult: 1
    decay_mult: 0
  }
  param {
    lr_mult: 1
    decay_mult: 0
  }
  scale_param {
    filler {
      type: "constant"
      value: 1
    }
    bias_term: true
    bias_filler {
      type: "constant"
      value: 0
    }
  }
}
layer {
  name: "conv1_relu"
  type: "ReLU"
  bottom: "conv1"
  top: "conv1"
}
layer {
  name: "conv2_1/dw"
  type: "Convolution"
  bottom: "conv1"
  top: "conv2_1/dw"
  param {
    lr_mult: 1
    decay_mult: 1
  }
  convolution_param {
    num_output: 32
    bias_term: false
    pad: 1
    kernel_size: 3
    group: 32
    stride: 1
    weight_filler {
      type: "gaussian"
      std: 0.01
    }
    engine: CAFFE
  }
}
layer {
  name: "conv2_1/dw/bn"
  type: "BatchNorm"
  bottom: "conv2_1/dw"
  top: "conv2_1/dw"
  batch_norm_param {
    moving_average_fraction: 0.999
    eps: 0.001
  }
}
layer {
  name: "conv2_1/dw/scale"
  type: "Scale"
  bottom: "conv2_1/dw"
  top: "conv2_1/dw"
  param {
    lr_mult: 1
    decay_mult: 0
  }
  param {
    lr_mult: 1
    decay_mult: 0
  }
  scale_param {
    filler {
      type: "constant"
      value: 1
    }
    bias_term: true
    bias_filler {
      type: "constant"
      value: 0
    }
  }
}
layer {
  name: "conv2_1/dw_relu"
  type: "ReLU"
  bottom: "conv2_1/dw"
  top: "conv2_1/dw"
}
layer {
  name: "conv2_1/sep"
  type: "Convolution"
  bottom: "conv2_1/dw"
  top: "conv2_1/sep"
  param {
    lr_mult: 1
    decay_mult: 1
  }
  convolution_param {
    num_output: 64
    bias_term: false
    pad: 0
    kernel_size: 1
    group: 1
    stride: 1
    weight_filler {
      type: "gaussian"
      std: 0.01
    }
    engine: DEFAULT
  }
}
layer {
  name: "conv2_1/sep/bn"
  type: "BatchNorm"
  bottom: "conv2_1/sep"
  top: "conv2_1/sep"
  batch_norm_param {
    moving_average_fraction: 0.999
    eps: 0.001
  }
}
layer {
  name: "conv2_1/sep/scale"
  type: "Scale"
  bottom: "conv2_1/sep"
  top: "conv2_1/sep"
  param {
    lr_mult: 1
    decay_mult: 0
  }
  param {
    lr_mult: 1
    decay_mult: 0
  }
  scale_param {
    filler {
      type: "constant"
      value: 1
    }
    bias_term: true
    bias_filler {
      type: "constant"
      value: 0
    }
  }
}
layer {
  name: "conv2_1/sep_relu"
  type: "ReLU"
  bottom: "conv2_1/sep"
  top: "conv2_1/sep"
}
layer {
  name: "conv2_2/dw"
  type: "Convolution"
  bottom: "conv2_1/sep"
  top: "conv2_2/dw"
  param {
    lr_mult: 1
    decay_mult: 1
  }
  convolution_param {
    num_output: 64
    bias_term: false
    pad: 1
    kernel_size: 3
    group: 64
    stride: 2
    weight_filler {
      type: "gaussian"
      std: 0.01
    }
    engine: CAFFE
  }
}
layer {
  name: "conv2_2/dw/bn"
  type: "BatchNorm"
  bottom: "conv2_2/dw"
  top: "conv2_2/dw"
  batch_norm_param {
    moving_average_fraction: 0.999
    eps: 0.001
  }
}
layer {
  name: "conv2_2/dw/scale"
  type: "Scale"
  bottom: "conv2_2/dw"
  top: "conv2_2/dw"
  param {
    lr_mult: 1
    decay_mult: 0
  }
  param {
    lr_mult: 1
    decay_mult: 0
  }
  scale_param {
    filler {
      type: "constant"
      value: 1
    }
    bias_term: true
    bias_filler {
      type: "constant"
      value: 0
    }
  }
}
layer {
  name: "conv2_2/dw_relu"
  type: "ReLU"
  bottom: "conv2_2/dw"
  top: "conv2_2/dw"
}
layer {
  name: "conv2_2/sep"
  type: "Convolution"
  bottom: "conv2_2/dw"
  top: "conv2_2/sep"
  param {
    lr_mult: 1
    decay_mult: 1
  }
  convolution_param {
    num_output: 128
    bias_term: false
    pad: 0
    kernel_size: 1
    group: 1
    stride: 1
    weight_filler {
      type: "gaussian"
      std: 0.01
    }
    engine: DEFAULT
  }
}
layer {
  name: "conv2_2/sep/bn"
  type: "BatchNorm"
  bottom: "conv2_2/sep"
  top: "conv2_2/sep"
  batch_norm_param {
    moving_average_fraction: 0.999
    eps: 0.001
  }
}
layer {
  name: "conv2_2/sep/scale"
  type: "Scale"
  bottom: "conv2_2/sep"
  top: "conv2_2/sep"
  param {
    lr_mult: 1
    decay_mult: 0
  }
  param {
    lr_mult: 1
    decay_mult: 0
  }
  scale_param {
    filler {
      type: "constant"
      value: 1
    }
    bias_term: true
    bias_filler {
      type: "constant"
      value: 0
    }
  }
}
layer {
  name: "conv2_2/sep_relu"
  type: "ReLU"
  bottom: "conv2_2/sep"
  top: "conv2_2/sep"
}
layer {
  name: "conv3_1/dw"
  type: "Convolution"
  bottom: "conv2_2/sep"
  top: "conv3_1/dw"
  param {
    lr_mult: 1
    decay_mult: 1
  }
  convolution_param {
    num_output: 128
    bias_term: false
    pad: 1
    kernel_size: 3
    group: 128
    stride: 1
    weight_filler {
      type: "gaussian"
      std: 0.01
    }
    engine: CAFFE
  }
}
layer {
  name: "conv3_1/dw/bn"
  type: "BatchNorm"
  bottom: "conv3_1/dw"
  top: "conv3_1/dw"
  batch_norm_param {
    moving_average_fraction: 0.999
    eps: 0.001
  }
}
layer {
  name: "conv3_1/dw/scale"
  type: "Scale"
  bottom: "conv3_1/dw"
  top: "conv3_1/dw"
  param {
    lr_mult: 1
    decay_mult: 0
  }
  param {
    lr_mult: 1
    decay_mult: 0
  }
  scale_param {
    filler {
      type: "constant"
      value: 1
    }
    bias_term: true
    bias_filler {
      type: "constant"
      value: 0
    }
  }
}
layer {
  name: "conv3_1/dw_relu"
  type: "ReLU"
  bottom: "conv3_1/dw"
  top: "conv3_1/dw"
}
layer {
  name: "conv3_1/sep"
  type: "Convolution"
  bottom: "conv3_1/dw"
  top: "conv3_1/sep"
  param {
    lr_mult: 1
    decay_mult: 1
  }
  convolution_param {
    num_output: 128
    bias_term: false
    pad: 0
    kernel_size: 1
    group: 1
    stride: 1
    weight_filler {
      type: "gaussian"
      std: 0.01
    }
    engine: DEFAULT
  }
}
layer {
  name: "conv3_1/sep/bn"
  type: "BatchNorm"
  bottom: "conv3_1/sep"
  top: "conv3_1/sep"
  batch_norm_param {
    moving_average_fraction: 0.999
    eps: 0.001
  }
}
layer {
  name: "conv3_1/sep/scale"
  type: "Scale"
  bottom: "conv3_1/sep"
  top: "conv3_1/sep"
  param {
    lr_mult: 1
    decay_mult: 0
  }
  param {
    lr_mult: 1
    decay_mult: 0
  }
  scale_param {
    filler {
      type: "constant"
      value: 1
    }
    bias_term: true
    bias_filler {
      type: "constant"
      value: 0
    }
  }
}
layer {
  name: "conv3_1/sep_relu"
  type: "ReLU"
  bottom: "conv3_1/sep"
  top: "conv3_1/sep"
}
layer {
  name: "conv3_2/dw"
  type: "Convolution"
  bottom: "conv3_1/sep"
  top: "conv3_2/dw"
  param {
    lr_mult: 1
    decay_mult: 1
  }
  convolution_param {
    num_output: 128
    bias_term: false
    pad: 1
    kernel_size: 3
    group: 128
    stride: 2
    weight_filler {
      type: "gaussian"
      std: 0.01
    }
    engine: CAFFE
  }
}
layer {
  name: "conv3_2/dw/bn"
  type: "BatchNorm"
  bottom: "conv3_2/dw"
  top: "conv3_2/dw"
  batch_norm_param {
    moving_average_fraction: 0.999
    eps: 0.001
  }
}
layer {
  name: "conv3_2/dw/scale"
  type: "Scale"
  bottom: "conv3_2/dw"
  top: "conv3_2/dw"
  param {
    lr_mult: 1
    decay_mult: 0
  }
  param {
    lr_mult: 1
    decay_mult: 0
  }
  scale_param {
    filler {
      type: "constant"
      value: 1
    }
    bias_term: true
    bias_filler {
      type: "constant"
      value: 0
    }
  }
}
layer {
  name: "conv3_2/dw_relu"
  type: "ReLU"
  bottom: "conv3_2/dw"
  top: "conv3_2/dw"
}
layer {
  name: "conv3_2/sep"
  type: "Convolution"
  bottom: "conv3_2/dw"
  top: "conv3_2/sep"
  param {
    lr_mult: 1
    decay_mult: 1
  }
  convolution_param {
    num_output: 256
    bias_term: false
    pad: 0
    kernel_size: 1
    group: 1
    stride: 1
    weight_filler {
      type: "gaussian"
      std: 0.01
    }
    engine: DEFAULT
  }
}
layer {
  name: "conv3_2/sep/bn"
  type: "BatchNorm"
  bottom: "conv3_2/sep"
  top: "conv3_2/sep"
  batch_norm_param {
    moving_average_fraction: 0.999
    eps: 0.001
  }
}
layer {
  name: "conv3_2/sep/scale"
  type: "Scale"
  bottom: "conv3_2/sep"
  top: "conv3_2/sep"
  param {
    lr_mult: 1
    decay_mult: 0
  }
  param {
    lr_mult: 1
    decay_mult: 0
  }
  scale_param {
    filler {
      type: "constant"
      value: 1
    }
    bias_term: true
    bias_filler {
      type: "constant"
      value: 0
    }
  }
}
layer {
  name: "conv3_2/sep_relu"
  type: "ReLU"
  bottom: "conv3_2/sep"
  top: "conv3_2/sep"
}
layer {
  name: "conv4_1/dw"
  type: "Convolution"
  bottom: "conv3_2/sep"
  top: "conv4_1/dw"
  param {
    lr_mult: 1
    decay_mult: 1
  }
  convolution_param {
    num_output: 256
    bias_term: false
    pad: 1
    kernel_size: 3
    group: 256
    stride: 1
    weight_filler {
      type: "gaussian"
      std: 0.01
    }
    engine: CAFFE
  }
}
layer {
  name: "conv4_1/dw/bn"
  type: "BatchNorm"
  bottom: "conv4_1/dw"
  top: "conv4_1/dw"
  batch_norm_param {
    moving_average_fraction: 0.999
    eps: 0.001
  }
}
layer {
  name: "conv4_1/dw/scale"
  type: "Scale"
  bottom: "conv4_1/dw"
  top: "conv4_1/dw"
  param {
    lr_mult: 1
    decay_mult: 0
  }
  param {
    lr_mult: 1
    decay_mult: 0
  }
  scale_param {
    filler {
      type: "constant"
      value: 1
    }
    bias_term: true
    bias_filler {
      type: "constant"
      value: 0
    }
  }
}
layer {
  name: "conv4_1/dw_relu"
  type: "ReLU"
  bottom: "conv4_1/dw"
  top: "conv4_1/dw"
}
layer {
  name: "conv4_1/sep"
  type: "Convolution"
  bottom: "conv4_1/dw"
  top: "conv4_1/sep"
  param {
    lr_mult: 1
    decay_mult: 1
  }
  convolution_param {
    num_output: 256
    bias_term: false
    pad: 0
    kernel_size: 1
    group: 1
    stride: 1
    weight_filler {
      type: "gaussian"
      std: 0.01
    }
    engine: DEFAULT
  }
}
layer {
  name: "conv4_1/sep/bn"
  type: "BatchNorm"
  bottom: "conv4_1/sep"
  top: "conv4_1/sep"
  batch_norm_param {
    moving_average_fraction: 0.999
    eps: 0.001
  }
}
layer {
  name: "conv4_1/sep/scale"
  type: "Scale"
  bottom: "conv4_1/sep"
  top: "conv4_1/sep"
  param {
    lr_mult: 1
    decay_mult: 0
  }
  param {
    lr_mult: 1
    decay_mult: 0
  }
  scale_param {
    filler {
      type: "constant"
      value: 1
    }
    bias_term: true
    bias_filler {
      type: "constant"
      value: 0
    }
  }
}
layer {
  name: "conv4_1/sep_relu"
  type: "ReLU"
  bottom: "conv4_1/sep"
  top: "conv4_1/sep"
}
layer {
  name: "conv4_2/dw"
  type: "Convolution"
  bottom: "conv4_1/sep"
  top: "conv4_2/dw"
  param {
    lr_mult: 1
    decay_mult: 1
  }
  convolution_param {
    num_output: 256
    bias_term: false
    pad: 1
    kernel_size: 3
    group: 256
    stride: 2
    weight_filler {
      type: "gaussian"
      std: 0.01
    }
    engine: CAFFE
  }
}
layer {
  name: "conv4_2/dw/bn"
  type: "BatchNorm"
  bottom: "conv4_2/dw"
  top: "conv4_2/dw"
  batch_norm_param {
    moving_average_fraction: 0.999
    eps: 0.001
  }
}
layer {
  name: "conv4_2/dw/scale"
  type: "Scale"
  bottom: "conv4_2/dw"
  top: "conv4_2/dw"
  param {
    lr_mult: 1
    decay_mult: 0
  }
  param {
    lr_mult: 1
    decay_mult: 0
  }
  scale_param {
    filler {
      type: "constant"
      value: 1
    }
    bias_term: true
    bias_filler {
      type: "constant"
      value: 0
    }
  }
}
layer {
  name: "conv4_2/dw_relu"
  type: "ReLU"
  bottom: "conv4_2/dw"
  top: "conv4_2/dw"
}
layer {
  name: "conv4_2/sep"
  type: "Convolution"
  bottom: "conv4_2/dw"
  top: "conv4_2/sep"
  param {
    lr_mult: 1
    decay_mult: 1
  }
  convolution_param {
    num_output: 512
    bias_term: false
    pad: 0
    kernel_size: 1
    group: 1
    stride: 1
    weight_filler {
      type: "gaussian"
      std: 0.01
    }
    engine: DEFAULT
  }
}
layer {
  name: "conv4_2/sep/bn"
  type: "BatchNorm"
  bottom: "conv4_2/sep"
  top: "conv4_2/sep"
  batch_norm_param {
    moving_average_fraction: 0.999
    eps: 0.001
  }
}
layer {
  name: "conv4_2/sep/scale"
  type: "Scale"
  bottom: "conv4_2/sep"
  top: "conv4_2/sep"
  param {
    lr_mult: 1
    decay_mult: 0
  }
  param {
    lr_mult: 1
    decay_mult: 0
  }
  scale_param {
    filler {
      type: "constant"
      value: 1
    }
    bias_term: true
    bias_filler {
      type: "constant"
      value: 0
    }
  }
}
layer {
  name: "conv4_2/sep_relu"
  type: "ReLU"
  bottom: "conv4_2/sep"
  top: "conv4_2/sep"
}
layer {
  name: "conv5_1/dw"
  type: "Convolution"
  bottom: "conv4_2/sep"
  top: "conv5_1/dw"
  param {
    lr_mult: 1
    decay_mult: 1
  }
  convolution_param {
    num_output: 512
    bias_term: false
    pad: 1
    kernel_size: 3
    group: 512
    stride: 1
    weight_filler {
      type: "gaussian"
      std: 0.01
    }
    engine: CAFFE
  }
}
layer {
  name: "conv5_1/dw/bn"
  type: "BatchNorm"
  bottom: "conv5_1/dw"
  top: "conv5_1/dw"
  batch_norm_param {
    moving_average_fraction: 0.999
    eps: 0.001
  }
}
layer {
  name: "conv5_1/dw/scale"
  type: "Scale"
  bottom: "conv5_1/dw"
  top: "conv5_1/dw"
  param {
    lr_mult: 1
    decay_mult: 0
  }
  param {
    lr_mult: 1
    decay_mult: 0
  }
  scale_param {
    filler {
      type: "constant"
      value: 1
    }
    bias_term: true
    bias_filler {
      type: "constant"
      value: 0
    }
  }
}
layer {
  name: "conv5_1/dw_relu"
  type: "ReLU"
  bottom: "conv5_1/dw"
  top: "conv5_1/dw"
}
layer {
  name: "conv5_1/sep"
  type: "Convolution"
  bottom: "conv5_1/dw"
  top: "conv5_1/sep"
  param {
    lr_mult: 1
    decay_mult: 1
  }
  convolution_param {
    num_output: 512
    bias_term: false
    pad: 0
    kernel_size: 1
    group: 1
    stride: 1
    weight_filler {
      type: "gaussian"
      std: 0.01
    }
    engine: DEFAULT
  }
}
layer {
  name: "conv5_1/sep/bn"
  type: "BatchNorm"
  bottom: "conv5_1/sep"
  top: "conv5_1/sep"
  batch_norm_param {
    moving_average_fraction: 0.999
    eps: 0.001
  }
}
layer {
  name: "conv5_1/sep/scale"
  type: "Scale"
  bottom: "conv5_1/sep"
  top: "conv5_1/sep"
  param {
    lr_mult: 1
    decay_mult: 0
  }
  param {
    lr_mult: 1
    decay_mult: 0
  }
  scale_param {
    filler {
      type: "constant"
      value: 1
    }
    bias_term: true
    bias_filler {
      type: "constant"
      value: 0
    }
  }
}
layer {
  name: "conv5_1/sep_relu"
  type: "ReLU"
  bottom: "conv5_1/sep"
  top: "conv5_1/sep"
}
layer {
  name: "conv5_2/dw"
  type: "Convolution"
  bottom: "conv5_1/sep"
  top: "conv5_2/dw"
  param {
    lr_mult: 1
    decay_mult: 1
  }
  convolution_param {
    num_output: 512
    bias_term: false
    pad: 1
    kernel_size: 3
    group: 512
    stride: 1
    weight_filler {
      type: "gaussian"
      std: 0.01
    }
    engine: CAFFE
  }
}
layer {
  name: "conv5_2/dw/bn"
  type: "BatchNorm"
  bottom: "conv5_2/dw"
  top: "conv5_2/dw"
  batch_norm_param {
    moving_average_fraction: 0.999
    eps: 0.001
  }
}
layer {
  name: "conv5_2/dw/scale"
  type: "Scale"
  bottom: "conv5_2/dw"
  top: "conv5_2/dw"
  param {
    lr_mult: 1
    decay_mult: 0
  }
  param {
    lr_mult: 1
    decay_mult: 0
  }
  scale_param {
    filler {
      type: "constant"
      value: 1
    }
    bias_term: true
    bias_filler {
      type: "constant"
      value: 0
    }
  }
}
layer {
  name: "conv5_2/dw_relu"
  type: "ReLU"
  bottom: "conv5_2/dw"
  top: "conv5_2/dw"
}
layer {
  name: "conv5_2/sep"
  type: "Convolution"
  bottom: "conv5_2/dw"
  top: "conv5_2/sep"
  param {
    lr_mult: 1
    decay_mult: 1
  }
  convolution_param {
    num_output: 512
    bias_term: false
    pad: 0
    kernel_size: 1
    group: 1
    stride: 1
    weight_filler {
      type: "gaussian"
      std: 0.01
    }
    engine: DEFAULT
  }
}
layer {
  name: "conv5_2/sep/bn"
  type: "BatchNorm"
  bottom: "conv5_2/sep"
  top: "conv5_2/sep"
  batch_norm_param {
    moving_average_fraction: 0.999
    eps: 0.001
  }
}
layer {
  name: "conv5_2/sep/scale"
  type: "Scale"
  bottom: "conv5_2/sep"
  top: "conv5_2/sep"
  param {
    lr_mult: 1
    decay_mult: 0
  }
  param {
    lr_mult: 1
    decay_mult: 0
  }
  scale_param {
    filler {
      type: "constant"
      value: 1
    }
    bias_term: true
    bias_filler {
      type: "constant"
      value: 0
    }
  }
}
layer {
  name: "conv5_2/sep_relu"
  type: "ReLU"
  bottom: "conv5_2/sep"
  top: "conv5_2/sep"
}
layer {
  name: "conv5_3/dw"
  type: "Convolution"
  bottom: "conv5_2/sep"
  top: "conv5_3/dw"
  param {
    lr_mult: 1
    decay_mult: 1
  }
  convolution_param {
    num_output: 512
    bias_term: false
    pad: 1
    kernel_size: 3
    group: 512
    stride: 1
    weight_filler {
      type: "gaussian"
      std: 0.01
    }
    engine: CAFFE
  }
}
layer {
  name: "conv5_3/dw/bn"
  type: "BatchNorm"
  bottom: "conv5_3/dw"
  top: "conv5_3/dw"
  batch_norm_param {
    moving_average_fraction: 0.999
    eps: 0.001
  }
}
layer {
  name: "conv5_3/dw/scale"
  type: "Scale"
  bottom: "conv5_3/dw"
  top: "conv5_3/dw"
  param {
    lr_mult: 1
    decay_mult: 0
  }
  param {
    lr_mult: 1
    decay_mult: 0
  }
  scale_param {
    filler {
      type: "constant"
      value: 1
    }
    bias_term: true
    bias_filler {
      type: "constant"
      value: 0
    }
  }
}
layer {
  name: "conv5_3/dw_relu"
  type: "ReLU"
  bottom: "conv5_3/dw"
  top: "conv5_3/dw"
}
layer {
  name: "conv5_3/sep"
  type: "Convolution"
  bottom: "conv5_3/dw"
  top: "conv5_3/sep"
  param {
    lr_mult: 1
    decay_mult: 1
  }
  convolution_param {
    num_output: 512
    bias_term: false
    pad: 0
    kernel_size: 1
    group: 1
    stride: 1
    weight_filler {
      type: "gaussian"
      std: 0.01
    }
    engine: DEFAULT
  }
}
layer {
  name: "conv5_3/sep/bn"
  type: "BatchNorm"
  bottom: "conv5_3/sep"
  top: "conv5_3/sep"
  batch_norm_param {
    moving_average_fraction: 0.999
    eps: 0.001
  }
}
layer {
  name: "conv5_3/sep/scale"
  type: "Scale"
  bottom: "conv5_3/sep"
  top: "conv5_3/sep"
  param {
    lr_mult: 1
    decay_mult: 0
  }
  param {
    lr_mult: 1
    decay_mult: 0
  }
  scale_param {
    filler {
      type: "constant"
      value: 1
    }
    bias_term: true
    bias_filler {
      type: "constant"
      value: 0
    }
  }
}
layer {
  name: "conv5_3/sep_relu"
  type: "ReLU"
  bottom: "conv5_3/sep"
  top: "conv5_3/sep"
}
layer {
  name: "conv5_4/dw"
  type: "Convolution"
  bottom: "conv5_3/sep"
  top: "conv5_4/dw"
  param {
    lr_mult: 1
    decay_mult: 1
  }
  convolution_param {
    num_output: 512
    bias_term: false
    pad: 1
    kernel_size: 3
    group: 512
    stride: 1
    weight_filler {
      type: "gaussian"
      std: 0.01
    }
    engine: CAFFE
  }
}
layer {
  name: "conv5_4/dw/bn"
  type: "BatchNorm"
  bottom: "conv5_4/dw"
  top: "conv5_4/dw"
  batch_norm_param {
    moving_average_fraction: 0.999
    eps: 0.001
  }
}
layer {
  name: "conv5_4/dw/scale"
  type: "Scale"
  bottom: "conv5_4/dw"
  top: "conv5_4/dw"
  param {
    lr_mult: 1
    decay_mult: 0
  }
  param {
    lr_mult: 1
    decay_mult: 0
  }
  scale_param {
    filler {
      type: "constant"
      value: 1
    }
    bias_term: true
    bias_filler {
      type: "constant"
      value: 0
    }
  }
}
layer {
  name: "conv5_4/dw_relu"
  type: "ReLU"
  bottom: "conv5_4/dw"
  top: "conv5_4/dw"
}
layer {
  name: "conv5_4/sep"
  type: "Convolution"
  bottom: "conv5_4/dw"
  top: "conv5_4/sep"
  param {
    lr_mult: 1
    decay_mult: 1
  }
  convolution_param {
    num_output: 512
    bias_term: false
    pad: 0
    kernel_size: 1
    group: 1
    stride: 1
    weight_filler {
      type: "gaussian"
      std: 0.01
    }
    engine: DEFAULT
  }
}
layer {
  name: "conv5_4/sep/bn"
  type: "BatchNorm"
  bottom: "conv5_4/sep"
  top: "conv5_4/sep"
  batch_norm_param {
    moving_average_fraction: 0.999
    eps: 0.001
  }
}
layer {
  name: "conv5_4/sep/scale"
  type: "Scale"
  bottom: "conv5_4/sep"
  top: "conv5_4/sep"
  param {
    lr_mult: 1
    decay_mult: 0
  }
  param {
    lr_mult: 1
    decay_mult: 0
  }
  scale_param {
    filler {
      type: "constant"
      value: 1
    }
    bias_term: true
    bias_filler {
      type: "constant"
      value: 0
    }
  }
}
layer {
  name: "conv5_4/sep_relu"
  type: "ReLU"
  bottom: "conv5_4/sep"
  top: "conv5_4/sep"
}
layer {
  name: "conv5_5/dw"
  type: "Convolution"
  bottom: "conv5_4/sep"
  top: "conv5_5/dw"
  param {
    lr_mult: 1
    decay_mult: 1
  }
  convolution_param {
    num_output: 512
    bias_term: false
    pad: 1
    kernel_size: 3
    group: 512
    stride: 1
    weight_filler {
      type: "gaussian"
      std: 0.01
    }
    engine: CAFFE
  }
}
layer {
  name: "conv5_5/dw/bn"
  type: "BatchNorm"
  bottom: "conv5_5/dw"
  top: "conv5_5/dw"
  batch_norm_param {
    moving_average_fraction: 0.999
    eps: 0.001
  }
}
layer {
  name: "conv5_5/dw/scale"
  type: "Scale"
  bottom: "conv5_5/dw"
  top: "conv5_5/dw"
  param {
    lr_mult: 1
    decay_mult: 0
  }
  param {
    lr_mult: 1
    decay_mult: 0
  }
  scale_param {
    filler {
      type: "constant"
      value: 1
    }
    bias_term: true
    bias_filler {
      type: "constant"
      value: 0
    }
  }
}
layer {
  name: "conv5_5/dw_relu"
  type: "ReLU"
  bottom: "conv5_5/dw"
  top: "conv5_5/dw"
}
layer {
  name: "conv5_5/sep"
  type: "Convolution"
  bottom: "conv5_5/dw"
  top: "conv5_5/sep"
  param {
    lr_mult: 1
    decay_mult: 1
  }
  convolution_param {
    num_output: 512
    bias_term: false
    pad: 0
    kernel_size: 1
    group: 1
    stride: 1
    weight_filler {
      type: "gaussian"
      std: 0.01
    }
    engine: DEFAULT
  }
}
layer {
  name: "conv5_5/sep/bn"
  type: "BatchNorm"
  bottom: "conv5_5/sep"
  top: "conv5_5/sep"
  batch_norm_param {
    moving_average_fraction: 0.999
    eps: 0.001
  }
}
layer {
  name: "conv5_5/sep/scale"
  type: "Scale"
  bottom: "conv5_5/sep"
  top: "conv5_5/sep"
  param {
    lr_mult: 1
    decay_mult: 0
  }
  param {
    lr_mult: 1
    decay_mult: 0
  }
  scale_param {
    filler {
      type: "constant"
      value: 1
    }
    bias_term: true
    bias_filler {
      type: "constant"
      value: 0
    }
  }
}
layer {
  name: "conv5_5/sep_relu"
  type: "ReLU"
  bottom: "conv5_5/sep"
  top: "conv5_5/sep"
}
layer {
  name: "conv5_6/dw"
  type: "Convolution"
  bottom: "conv5_5/sep"
  top: "conv5_6/dw"
  param {
    lr_mult: 1
    decay_mult: 1
  }
  convolution_param {
    num_output: 512
    bias_term: false
    pad: 1
    kernel_size: 3
    group: 512
    stride: 2
    weight_filler {
      type: "gaussian"
      std: 0.01
    }
    engine: CAFFE
  }
}
layer {
  name: "conv5_6/dw/bn"
  type: "BatchNorm"
  bottom: "conv5_6/dw"
  top: "conv5_6/dw"
  batch_norm_param {
    moving_average_fraction: 0.999
    eps: 0.001
  }
}
layer {
  name: "conv5_6/dw/scale"
  type: "Scale"
  bottom: "conv5_6/dw"
  top: "conv5_6/dw"
  param {
    lr_mult: 1
    decay_mult: 0
  }
  param {
    lr_mult: 1
    decay_mult: 0
  }
  scale_param {
    filler {
      type: "constant"
      value: 1
    }
    bias_term: true
    bias_filler {
      type: "constant"
      value: 0
    }
  }
}
layer {
  name: "conv5_6/dw_relu"
  type: "ReLU"
  bottom: "conv5_6/dw"
  top: "conv5_6/dw"
}
layer {
  name: "conv5_6/sep"
  type: "Convolution"
  bottom: "conv5_6/dw"
  top: "conv5_6/sep"
  param {
    lr_mult: 1
    decay_mult: 1
  }
  convolution_param {
    num_output: 1024
    bias_term: false
    pad: 0
    kernel_size: 1
    group: 1
    stride: 1
    weight_filler {
      type: "gaussian"
      std: 0.01
    }
    engine: DEFAULT
  }
}
layer {
  name: "conv5_6/sep/bn"
  type: "BatchNorm"
  bottom: "conv5_6/sep"
  top: "conv5_6/sep"
  batch_norm_param {
    moving_average_fraction: 0.999
    eps: 0.001
  }
}
layer {
  name: "conv5_6/sep/scale"
  type: "Scale"
  bottom: "conv5_6/sep"
  top: "conv5_6/sep"
  param {
    lr_mult: 1
    decay_mult: 0
  }
  param {
    lr_mult: 1
    decay_mult: 0
  }
  scale_param {
    filler {
      type: "constant"
      value: 1
    }
    bias_term: true
    bias_filler {
      type: "constant"
      value: 0
    }
  }
}
layer {
  name: "conv5_6/sep_relu"
  type: "ReLU"
  bottom: "conv5_6/sep"
  top: "conv5_6/sep"
}
layer {
  name: "conv6/dw"
  type: "Convolution"
  bottom: "conv5_6/sep"
  top: "conv6/dw"
  param {
    lr_mult: 1
    decay_mult: 1
  }
  convolution_param {
    num_output: 1024
    bias_term: false
    pad: 1
    kernel_size: 3
    group: 1024
    stride: 1
    weight_filler {
      type: "gaussian"
      std: 0.01
    }
    engine: CAFFE
  }
}
layer {
  name: "conv6/dw/bn"
  type: "BatchNorm"
  bottom: "conv6/dw"
  top: "conv6/dw"
  batch_norm_param {
    moving_average_fraction: 0.999
    eps: 0.001
  }
}
layer {
  name: "conv6/dw/scale"
  type: "Scale"
  bottom: "conv6/dw"
  top: "conv6/dw"
  param {
    lr_mult: 1
    decay_mult: 0
  }
  param {
    lr_mult: 1
    decay_mult: 0
  }
  scale_param {
    filler {
      type: "constant"
      value: 1
    }
    bias_term: true
    bias_filler {
      type: "constant"
      value: 0
    }
  }
}
layer {
  name: "conv6/dw_relu"
  type: "ReLU"
  bottom: "conv6/dw"
  top: "conv6/dw"
}
layer {
  name: "conv6/sep"
  type: "Convolution"
  bottom: "conv6/dw"
  top: "conv6/sep"
  param {
    lr_mult: 1
    decay_mult: 1
  }
  convolution_param {
    num_output: 1024
    bias_term: false
    pad: 0
    kernel_size: 1
    group: 1
    stride: 1
    weight_filler {
      type: "gaussian"
      std: 0.01
    }
    engine: DEFAULT
  }
}
layer {
  name: "conv6/sep/bn"
  type: "BatchNorm"
  bottom: "conv6/sep"
  top: "conv6/sep"
  batch_norm_param {
    moving_average_fraction: 0.999
    eps: 0.001
  }
}
layer {
  name: "conv6/sep/scale"
  type: "Scale"
  bottom: "conv6/sep"
  top: "conv6/sep"
  param {
    lr_mult: 1
    decay_mult: 0
  }
  param {
    lr_mult: 1
    decay_mult: 0
  }
  scale_param {
    filler {
      type: "constant"
      value: 1
    }
    bias_term: true
    bias_filler {
      type: "constant"
      value: 0
    }
  }
}
layer {
  name: "conv6/sep_relu"
  type: "ReLU"
  bottom: "conv6/sep"
  top: "conv6/sep"
}
layer {
  name: "conv7_1"
  type: "Convolution"
  bottom: "conv6/sep"
  top: "conv7_1"
  param {
    lr_mult: 1
    decay_mult: 1
  }
  param {
    lr_mult: 2
    decay_mult: 0
  }
  convolution_param {
    num_output: 256
    pad: 0
    kernel_size: 1
    group: 1
    stride: 1
    weight_filler {
      type: "xavier"
    }
    bias_filler {
      type: "constant"
      value: 0
    }
    engine: DEFAULT
  }
}
layer {
  name: "conv7_1_relu"
  type: "ReLU"
  bottom: "conv7_1"
  top: "conv7_1"
}
layer {
  name: "conv7_2"
  type: "Convolution"
  bottom: "conv7_1"
  top: "conv7_2"
  param {
    lr_mult: 1
    decay_mult: 1
  }
  param {
    lr_mult: 2
    decay_mult: 0
  }
  convolution_param {
    num_output: 512
    pad: 1
    kernel_size: 3
    group: 1
    stride: 2
    weight_filler {
      type: "xavier"
    }
    bias_filler {
      type: "constant"
      value: 0
    }
    engine: DEFAULT
  }
}
layer {
  name: "conv7_2_relu"
  type: "ReLU"
  bottom: "con
I0907 13:42:24.459781 23754 layer_factory.hpp:77] Creating layer data
I0907 13:42:24.459923 23754 net.cpp:100] Creating Layer data
I0907 13:42:24.459965 23754 net.cpp:408] data -> data
I0907 13:42:24.459995 23754 net.cpp:408] data -> label
I0907 13:42:24.461175 23760 db_lmdb.cpp:35] Opened lmdb data/BodyFaceHandRegions/lmdb/oxford_viva_lmdb
I0907 13:42:24.474216 23754 annotated_data_layer.cpp:62] output data size: 16,3,300,300
I0907 13:42:24.500773 23754 net.cpp:150] Setting up data
I0907 13:42:24.500800 23754 net.cpp:157] Top shape: 16 3 300 300 (4320000)
I0907 13:42:24.500805 23754 net.cpp:157] Top shape: 1 1 4 8 (32)
I0907 13:42:24.500808 23754 net.cpp:165] Memory required for data: 17280128
I0907 13:42:24.500816 23754 layer_factory.hpp:77] Creating layer data_data_0_split
I0907 13:42:24.500830 23754 net.cpp:100] Creating Layer data_data_0_split
I0907 13:42:24.500836 23754 net.cpp:434] data_data_0_split <- data
I0907 13:42:24.500850 23754 net.cpp:408] data_data_0_split -> data_data_0_split_0
I0907 13:42:24.500861 23754 net.cpp:408] data_data_0_split -> data_data_0_split_1
I0907 13:42:24.500867 23754 net.cpp:408] data_data_0_split -> data_data_0_split_2
I0907 13:42:24.500874 23754 net.cpp:408] data_data_0_split -> data_data_0_split_3
I0907 13:42:24.500881 23754 net.cpp:408] data_data_0_split -> data_data_0_split_4
I0907 13:42:24.500887 23754 net.cpp:408] data_data_0_split -> data_data_0_split_5
I0907 13:42:24.500893 23754 net.cpp:408] data_data_0_split -> data_data_0_split_6
I0907 13:42:24.501009 23754 net.cpp:150] Setting up data_data_0_split
I0907 13:42:24.501018 23754 net.cpp:157] Top shape: 16 3 300 300 (4320000)
I0907 13:42:24.501025 23754 net.cpp:157] Top shape: 16 3 300 300 (4320000)
I0907 13:42:24.501030 23754 net.cpp:157] Top shape: 16 3 300 300 (4320000)
I0907 13:42:24.501034 23754 net.cpp:157] Top shape: 16 3 300 300 (4320000)
I0907 13:42:24.501039 23754 net.cpp:157] Top shape: 16 3 300 300 (4320000)
I0907 13:42:24.501042 23754 net.cpp:157] Top shape: 16 3 300 300 (4320000)
I0907 13:42:24.501047 23754 net.cpp:157] Top shape: 16 3 300 300 (4320000)
I0907 13:42:24.501050 23754 net.cpp:165] Memory required for data: 138240128
I0907 13:42:24.501054 23754 layer_factory.hpp:77] Creating layer conv1
I0907 13:42:24.501070 23754 net.cpp:100] Creating Layer conv1
I0907 13:42:24.501075 23754 net.cpp:434] conv1 <- data_data_0_split_0
I0907 13:42:24.501080 23754 net.cpp:408] conv1 -> conv1
I0907 13:42:24.577989 23761 blocking_queue.cpp:50] Waiting for data
I0907 13:42:24.718436 23754 net.cpp:150] Setting up conv1
I0907 13:42:24.718464 23754 net.cpp:157] Top shape: 16 32 150 150 (11520000)
I0907 13:42:24.718467 23754 net.cpp:165] Memory required for data: 184320128
I0907 13:42:24.718482 23754 layer_factory.hpp:77] Creating layer conv1/bn
I0907 13:42:24.718493 23754 net.cpp:100] Creating Layer conv1/bn
I0907 13:42:24.718499 23754 net.cpp:434] conv1/bn <- conv1
I0907 13:42:24.718506 23754 net.cpp:395] conv1/bn -> conv1 (in-place)
I0907 13:42:24.719121 23754 net.cpp:150] Setting up conv1/bn
I0907 13:42:24.719132 23754 net.cpp:157] Top shape: 16 32 150 150 (11520000)
I0907 13:42:24.719136 23754 net.cpp:165] Memory required for data: 230400128
I0907 13:42:24.719147 23754 layer_factory.hpp:77] Creating layer conv1/scale
I0907 13:42:24.719158 23754 net.cpp:100] Creating Layer conv1/scale
I0907 13:42:24.719162 23754 net.cpp:434] conv1/scale <- conv1
I0907 13:42:24.719168 23754 net.cpp:395] conv1/scale -> conv1 (in-place)
I0907 13:42:24.719208 23754 layer_factory.hpp:77] Creating layer conv1/scale
I0907 13:42:24.719323 23754 net.cpp:150] Setting up conv1/scale
I0907 13:42:24.719331 23754 net.cpp:157] Top shape: 16 32 150 150 (11520000)
I0907 13:42:24.719334 23754 net.cpp:165] Memory required for data: 276480128
I0907 13:42:24.719341 23754 layer_factory.hpp:77] Creating layer conv1_relu
I0907 13:42:24.719347 23754 net.cpp:100] Creating Layer conv1_relu
I0907 13:42:24.719350 23754 net.cpp:434] conv1_relu <- conv1
I0907 13:42:24.719355 23754 net.cpp:395] conv1_relu -> conv1 (in-place)
I0907 13:42:24.719521 23754 net.cpp:150] Setting up conv1_relu
I0907 13:42:24.719530 23754 net.cpp:157] Top shape: 16 32 150 150 (11520000)
I0907 13:42:24.719534 23754 net.cpp:165] Memory required for data: 322560128
I0907 13:42:24.719537 23754 layer_factory.hpp:77] Creating layer conv2_1/dw
I0907 13:42:24.719547 23754 net.cpp:100] Creating Layer conv2_1/dw
I0907 13:42:24.719552 23754 net.cpp:434] conv2_1/dw <- conv1
I0907 13:42:24.719557 23754 net.cpp:408] conv2_1/dw -> conv2_1/dw
I0907 13:42:24.719722 23754 net.cpp:150] Setting up conv2_1/dw
I0907 13:42:24.719729 23754 net.cpp:157] Top shape: 16 32 150 150 (11520000)
I0907 13:42:24.719733 23754 net.cpp:165] Memory required for data: 368640128
I0907 13:42:24.719738 23754 layer_factory.hpp:77] Creating layer conv2_1/dw/bn
I0907 13:42:24.719743 23754 net.cpp:100] Creating Layer conv2_1/dw/bn
I0907 13:42:24.719748 23754 net.cpp:434] conv2_1/dw/bn <- conv2_1/dw
I0907 13:42:24.719753 23754 net.cpp:395] conv2_1/dw/bn -> conv2_1/dw (in-place)
I0907 13:42:24.719903 23754 net.cpp:150] Setting up conv2_1/dw/bn
I0907 13:42:24.719910 23754 net.cpp:157] Top shape: 16 32 150 150 (11520000)
I0907 13:42:24.719913 23754 net.cpp:165] Memory required for data: 414720128
I0907 13:42:24.719923 23754 layer_factory.hpp:77] Creating layer conv2_1/dw/scale
I0907 13:42:24.719930 23754 net.cpp:100] Creating Layer conv2_1/dw/scale
I0907 13:42:24.719933 23754 net.cpp:434] conv2_1/dw/scale <- conv2_1/dw
I0907 13:42:24.719939 23754 net.cpp:395] conv2_1/dw/scale -> conv2_1/dw (in-place)
I0907 13:42:24.720006 23754 layer_factory.hpp:77] Creating layer conv2_1/dw/scale
I0907 13:42:24.720115 23754 net.cpp:150] Setting up conv2_1/dw/scale
I0907 13:42:24.720122 23754 net.cpp:157] Top shape: 16 32 150 150 (11520000)
I0907 13:42:24.720126 23754 net.cpp:165] Memory required for data: 460800128
I0907 13:42:24.720131 23754 layer_factory.hpp:77] Creating layer conv2_1/dw_relu
I0907 13:42:24.720137 23754 net.cpp:100] Creating Layer conv2_1/dw_relu
I0907 13:42:24.720140 23754 net.cpp:434] conv2_1/dw_relu <- conv2_1/dw
I0907 13:42:24.720145 23754 net.cpp:395] conv2_1/dw_relu -> conv2_1/dw (in-place)
I0907 13:42:24.720767 23754 net.cpp:150] Setting up conv2_1/dw_relu
I0907 13:42:24.720778 23754 net.cpp:157] Top shape: 16 32 150 150 (11520000)
I0907 13:42:24.720780 23754 net.cpp:165] Memory required for data: 506880128
I0907 13:42:24.720783 23754 layer_factory.hpp:77] Creating layer conv2_1/sep
I0907 13:42:24.720791 23754 net.cpp:100] Creating Layer conv2_1/sep
I0907 13:42:24.720794 23754 net.cpp:434] conv2_1/sep <- conv2_1/dw
I0907 13:42:24.720798 23754 net.cpp:408] conv2_1/sep -> conv2_1/sep
I0907 13:42:24.722254 23754 net.cpp:150] Setting up conv2_1/sep
I0907 13:42:24.722266 23754 net.cpp:157] Top shape: 16 64 150 150 (23040000)
I0907 13:42:24.722268 23754 net.cpp:165] Memory required for data: 599040128
I0907 13:42:24.722273 23754 layer_factory.hpp:77] Creating layer conv2_1/sep/bn
I0907 13:42:24.722278 23754 net.cpp:100] Creating Layer conv2_1/sep/bn
I0907 13:42:24.722281 23754 net.cpp:434] conv2_1/sep/bn <- conv2_1/sep
I0907 13:42:24.722285 23754 net.cpp:395] conv2_1/sep/bn -> conv2_1/sep (in-place)
I0907 13:42:24.722450 23754 net.cpp:150] Setting up conv2_1/sep/bn
I0907 13:42:24.722458 23754 net.cpp:157] Top shape: 16 64 150 150 (23040000)
I0907 13:42:24.722462 23754 net.cpp:165] Memory required for data: 691200128
I0907 13:42:24.722470 23754 layer_factory.hpp:77] Creating layer conv2_1/sep/scale
I0907 13:42:24.722476 23754 net.cpp:100] Creating Layer conv2_1/sep/scale
I0907 13:42:24.722478 23754 net.cpp:434] conv2_1/sep/scale <- conv2_1/sep
I0907 13:42:24.722483 23754 net.cpp:395] conv2_1/sep/scale -> conv2_1/sep (in-place)
I0907 13:42:24.722517 23754 layer_factory.hpp:77] Creating layer conv2_1/sep/scale
I0907 13:42:24.722636 23754 net.cpp:150] Setting up conv2_1/sep/scale
I0907 13:42:24.722645 23754 net.cpp:157] Top shape: 16 64 150 150 (23040000)
I0907 13:42:24.722648 23754 net.cpp:165] Memory required for data: 783360128
I0907 13:42:24.722656 23754 layer_factory.hpp:77] Creating layer conv2_1/sep_relu
I0907 13:42:24.722662 23754 net.cpp:100] Creating Layer conv2_1/sep_relu
I0907 13:42:24.722666 23754 net.cpp:434] conv2_1/sep_relu <- conv2_1/sep
I0907 13:42:24.722671 23754 net.cpp:395] conv2_1/sep_relu -> conv2_1/sep (in-place)
I0907 13:42:24.723268 23754 net.cpp:150] Setting up conv2_1/sep_relu
I0907 13:42:24.723279 23754 net.cpp:157] Top shape: 16 64 150 150 (23040000)
I0907 13:42:24.723282 23754 net.cpp:165] Memory required for data: 875520128
I0907 13:42:24.723286 23754 layer_factory.hpp:77] Creating layer conv2_2/dw
I0907 13:42:24.723295 23754 net.cpp:100] Creating Layer conv2_2/dw
I0907 13:42:24.723299 23754 net.cpp:434] conv2_2/dw <- conv2_1/sep
I0907 13:42:24.723305 23754 net.cpp:408] conv2_2/dw -> conv2_2/dw
I0907 13:42:24.723461 23754 net.cpp:150] Setting up conv2_2/dw
I0907 13:42:24.723469 23754 net.cpp:157] Top shape: 16 64 75 75 (5760000)
I0907 13:42:24.723472 23754 net.cpp:165] Memory required for data: 898560128
I0907 13:42:24.723477 23754 layer_factory.hpp:77] Creating layer conv2_2/dw/bn
I0907 13:42:24.723484 23754 net.cpp:100] Creating Layer conv2_2/dw/bn
I0907 13:42:24.723486 23754 net.cpp:434] conv2_2/dw/bn <- conv2_2/dw
I0907 13:42:24.723491 23754 net.cpp:395] conv2_2/dw/bn -> conv2_2/dw (in-place)
I0907 13:42:24.724088 23754 net.cpp:150] Setting up conv2_2/dw/bn
I0907 13:42:24.724100 23754 net.cpp:157] Top shape: 16 64 75 75 (5760000)
I0907 13:42:24.724103 23754 net.cpp:165] Memory required for data: 921600128
I0907 13:42:24.724112 23754 layer_factory.hpp:77] Creating layer conv2_2/dw/scale
I0907 13:42:24.724131 23754 net.cpp:100] Creating Layer conv2_2/dw/scale
I0907 13:42:24.724136 23754 net.cpp:434] conv2_2/dw/scale <- conv2_2/dw
I0907 13:42:24.724141 23754 net.cpp:395] conv2_2/dw/scale -> conv2_2/dw (in-place)
I0907 13:42:24.724179 23754 layer_factory.hpp:77] Creating layer conv2_2/dw/scale
I0907 13:42:24.724272 23754 net.cpp:150] Setting up conv2_2/dw/scale
I0907 13:42:24.724278 23754 net.cpp:157] Top shape: 16 64 75 75 (5760000)
I0907 13:42:24.724282 23754 net.cpp:165] Memory required for data: 944640128
I0907 13:42:24.724287 23754 layer_factory.hpp:77] Creating layer conv2_2/dw_relu
I0907 13:42:24.724292 23754 net.cpp:100] Creating Layer conv2_2/dw_relu
I0907 13:42:24.724295 23754 net.cpp:434] conv2_2/dw_relu <- conv2_2/dw
I0907 13:42:24.724301 23754 net.cpp:395] conv2_2/dw_relu -> conv2_2/dw (in-place)
I0907 13:42:24.724462 23754 net.cpp:150] Setting up conv2_2/dw_relu
I0907 13:42:24.724472 23754 net.cpp:157] Top shape: 16 64 75 75 (5760000)
I0907 13:42:24.724475 23754 net.cpp:165] Memory required for data: 967680128
I0907 13:42:24.724479 23754 layer_factory.hpp:77] Creating layer conv2_2/sep
I0907 13:42:24.724486 23754 net.cpp:100] Creating Layer conv2_2/sep
I0907 13:42:24.724490 23754 net.cpp:434] conv2_2/sep <- conv2_2/dw
I0907 13:42:24.724496 23754 net.cpp:408] conv2_2/sep -> conv2_2/sep
I0907 13:42:24.726464 23754 net.cpp:150] Setting up conv2_2/sep
I0907 13:42:24.726476 23754 net.cpp:157] Top shape: 16 128 75 75 (11520000)
I0907 13:42:24.726480 23754 net.cpp:165] Memory required for data: 1013760128
I0907 13:42:24.726485 23754 layer_factory.hpp:77] Creating layer conv2_2/sep/bn
I0907 13:42:24.726492 23754 net.cpp:100] Creating Layer conv2_2/sep/bn
I0907 13:42:24.726495 23754 net.cpp:434] conv2_2/sep/bn <- conv2_2/sep
I0907 13:42:24.726500 23754 net.cpp:395] conv2_2/sep/bn -> conv2_2/sep (in-place)
I0907 13:42:24.726646 23754 net.cpp:150] Setting up conv2_2/sep/bn
I0907 13:42:24.726653 23754 net.cpp:157] Top shape: 16 128 75 75 (11520000)
I0907 13:42:24.726656 23754 net.cpp:165] Memory required for data: 1059840128
I0907 13:42:24.726663 23754 layer_factory.hpp:77] Creating layer conv2_2/sep/scale
I0907 13:42:24.726670 23754 net.cpp:100] Creating Layer conv2_2/sep/scale
I0907 13:42:24.726673 23754 net.cpp:434] conv2_2/sep/scale <- conv2_2/sep
I0907 13:42:24.726678 23754 net.cpp:395] conv2_2/sep/scale -> conv2_2/sep (in-place)
I0907 13:42:24.726711 23754 layer_factory.hpp:77] Creating layer conv2_2/sep/scale
I0907 13:42:24.726809 23754 net.cpp:150] Setting up conv2_2/sep/scale
I0907 13:42:24.726816 23754 net.cpp:157] Top shape: 16 128 75 75 (11520000)
I0907 13:42:24.726819 23754 net.cpp:165] Memory required for data: 1105920128
I0907 13:42:24.726825 23754 layer_factory.hpp:77] Creating layer conv2_2/sep_relu
I0907 13:42:24.726831 23754 net.cpp:100] Creating Layer conv2_2/sep_relu
I0907 13:42:24.726835 23754 net.cpp:434] conv2_2/sep_relu <- conv2_2/sep
I0907 13:42:24.726840 23754 net.cpp:395] conv2_2/sep_relu -> conv2_2/sep (in-place)
I0907 13:42:24.727442 23754 net.cpp:150] Setting up conv2_2/sep_relu
I0907 13:42:24.727454 23754 net.cpp:157] Top shape: 16 128 75 75 (11520000)
I0907 13:42:24.727458 23754 net.cpp:165] Memory required for data: 1152000128
I0907 13:42:24.727459 23754 layer_factory.hpp:77] Creating layer conv3_1/dw
I0907 13:42:24.727468 23754 net.cpp:100] Creating Layer conv3_1/dw
I0907 13:42:24.727470 23754 net.cpp:434] conv3_1/dw <- conv2_2/sep
I0907 13:42:24.727474 23754 net.cpp:408] conv3_1/dw -> conv3_1/dw
I0907 13:42:24.727644 23754 net.cpp:150] Setting up conv3_1/dw
I0907 13:42:24.727653 23754 net.cpp:157] Top shape: 16 128 75 75 (11520000)
I0907 13:42:24.727658 23754 net.cpp:165] Memory required for data: 1198080128
I0907 13:42:24.727663 23754 layer_factory.hpp:77] Creating layer conv3_1/dw/bn
I0907 13:42:24.727669 23754 net.cpp:100] Creating Layer conv3_1/dw/bn
I0907 13:42:24.727672 23754 net.cpp:434] conv3_1/dw/bn <- conv3_1/dw
I0907 13:42:24.727676 23754 net.cpp:395] conv3_1/dw/bn -> conv3_1/dw (in-place)
I0907 13:42:24.727820 23754 net.cpp:150] Setting up conv3_1/dw/bn
I0907 13:42:24.727838 23754 net.cpp:157] Top shape: 16 128 75 75 (11520000)
I0907 13:42:24.727841 23754 net.cpp:165] Memory required for data: 1244160128
I0907 13:42:24.727851 23754 layer_factory.hpp:77] Creating layer conv3_1/dw/scale
I0907 13:42:24.727859 23754 net.cpp:100] Creating Layer conv3_1/dw/scale
I0907 13:42:24.727862 23754 net.cpp:434] conv3_1/dw/scale <- conv3_1/dw
I0907 13:42:24.727867 23754 net.cpp:395] conv3_1/dw/scale -> conv3_1/dw (in-place)
I0907 13:42:24.727902 23754 layer_factory.hpp:77] Creating layer conv3_1/dw/scale
I0907 13:42:24.728008 23754 net.cpp:150] Setting up conv3_1/dw/scale
I0907 13:42:24.728015 23754 net.cpp:157] Top shape: 16 128 75 75 (11520000)
I0907 13:42:24.728018 23754 net.cpp:165] Memory required for data: 1290240128
I0907 13:42:24.728024 23754 layer_factory.hpp:77] Creating layer conv3_1/dw_relu
I0907 13:42:24.728029 23754 net.cpp:100] Creating Layer conv3_1/dw_relu
I0907 13:42:24.728034 23754 net.cpp:434] conv3_1/dw_relu <- conv3_1/dw
I0907 13:42:24.728037 23754 net.cpp:395] conv3_1/dw_relu -> conv3_1/dw (in-place)
I0907 13:42:24.728193 23754 net.cpp:150] Setting up conv3_1/dw_relu
I0907 13:42:24.728201 23754 net.cpp:157] Top shape: 16 128 75 75 (11520000)
I0907 13:42:24.728204 23754 net.cpp:165] Memory required for data: 1336320128
I0907 13:42:24.728207 23754 layer_factory.hpp:77] Creating layer conv3_1/sep
I0907 13:42:24.728215 23754 net.cpp:100] Creating Layer conv3_1/sep
I0907 13:42:24.728219 23754 net.cpp:434] conv3_1/sep <- conv3_1/dw
I0907 13:42:24.728225 23754 net.cpp:408] conv3_1/sep -> conv3_1/sep
I0907 13:42:24.729856 23754 net.cpp:150] Setting up conv3_1/sep
I0907 13:42:24.729867 23754 net.cpp:157] Top shape: 16 128 75 75 (11520000)
I0907 13:42:24.729871 23754 net.cpp:165] Memory required for data: 1382400128
I0907 13:42:24.729877 23754 layer_factory.hpp:77] Creating layer conv3_1/sep/bn
I0907 13:42:24.729883 23754 net.cpp:100] Creating Layer conv3_1/sep/bn
I0907 13:42:24.729887 23754 net.cpp:434] conv3_1/sep/bn <- conv3_1/sep
I0907 13:42:24.729892 23754 net.cpp:395] conv3_1/sep/bn -> conv3_1/sep (in-place)
I0907 13:42:24.730038 23754 net.cpp:150] Setting up conv3_1/sep/bn
I0907 13:42:24.730044 23754 net.cpp:157] Top shape: 16 128 75 75 (11520000)
I0907 13:42:24.730048 23754 net.cpp:165] Memory required for data: 1428480128
I0907 13:42:24.730054 23754 layer_factory.hpp:77] Creating layer conv3_1/sep/scale
I0907 13:42:24.730062 23754 net.cpp:100] Creating Layer conv3_1/sep/scale
I0907 13:42:24.730064 23754 net.cpp:434] conv3_1/sep/scale <- conv3_1/sep
I0907 13:42:24.730069 23754 net.cpp:395] conv3_1/sep/scale -> conv3_1/sep (in-place)
I0907 13:42:24.730101 23754 layer_factory.hpp:77] Creating layer conv3_1/sep/scale
I0907 13:42:24.730202 23754 net.cpp:150] Setting up conv3_1/sep/scale
I0907 13:42:24.730209 23754 net.cpp:157] Top shape: 16 128 75 75 (11520000)
I0907 13:42:24.730213 23754 net.cpp:165] Memory required for data: 1474560128
I0907 13:42:24.730219 23754 layer_factory.hpp:77] Creating layer conv3_1/sep_relu
I0907 13:42:24.730224 23754 net.cpp:100] Creating Layer conv3_1/sep_relu
I0907 13:42:24.730228 23754 net.cpp:434] conv3_1/sep_relu <- conv3_1/sep
I0907 13:42:24.730232 23754 net.cpp:395] conv3_1/sep_relu -> conv3_1/sep (in-place)
I0907 13:42:24.730834 23754 net.cpp:150] Setting up conv3_1/sep_relu
I0907 13:42:24.730845 23754 net.cpp:157] Top shape: 16 128 75 75 (11520000)
I0907 13:42:24.730849 23754 net.cpp:165] Memory required for data: 1520640128
I0907 13:42:24.730851 23754 layer_factory.hpp:77] Creating layer conv3_2/dw
I0907 13:42:24.730860 23754 net.cpp:100] Creating Layer conv3_2/dw
I0907 13:42:24.730865 23754 net.cpp:434] conv3_2/dw <- conv3_1/sep
I0907 13:42:24.730870 23754 net.cpp:408] conv3_2/dw -> conv3_2/dw
I0907 13:42:24.731034 23754 net.cpp:150] Setting up conv3_2/dw
I0907 13:42:24.731042 23754 net.cpp:157] Top shape: 16 128 38 38 (2957312)
I0907 13:42:24.731045 23754 net.cpp:165] Memory required for data: 1532469376
I0907 13:42:24.731050 23754 layer_factory.hpp:77] Creating layer conv3_2/dw/bn
I0907 13:42:24.731055 23754 net.cpp:100] Creating Layer conv3_2/dw/bn
I0907 13:42:24.731070 23754 net.cpp:434] conv3_2/dw/bn <- conv3_2/dw
I0907 13:42:24.731075 23754 net.cpp:395] conv3_2/dw/bn -> conv3_2/dw (in-place)
I0907 13:42:24.731230 23754 net.cpp:150] Setting up conv3_2/dw/bn
I0907 13:42:24.731236 23754 net.cpp:157] Top shape: 16 128 38 38 (2957312)
I0907 13:42:24.731240 23754 net.cpp:165] Memory required for data: 1544298624
I0907 13:42:24.731247 23754 layer_factory.hpp:77] Creating layer conv3_2/dw/scale
I0907 13:42:24.731256 23754 net.cpp:100] Creating Layer conv3_2/dw/scale
I0907 13:42:24.731259 23754 net.cpp:434] conv3_2/dw/scale <- conv3_2/dw
I0907 13:42:24.731268 23754 net.cpp:395] conv3_2/dw/scale -> conv3_2/dw (in-place)
I0907 13:42:24.731302 23754 layer_factory.hpp:77] Creating layer conv3_2/dw/scale
I0907 13:42:24.731400 23754 net.cpp:150] Setting up conv3_2/dw/scale
I0907 13:42:24.731408 23754 net.cpp:157] Top shape: 16 128 38 38 (2957312)
I0907 13:42:24.731412 23754 net.cpp:165] Memory required for data: 1556127872
I0907 13:42:24.731418 23754 layer_factory.hpp:77] Creating layer conv3_2/dw_relu
I0907 13:42:24.731425 23754 net.cpp:100] Creating Layer conv3_2/dw_relu
I0907 13:42:24.731427 23754 net.cpp:434] conv3_2/dw_relu <- conv3_2/dw
I0907 13:42:24.731432 23754 net.cpp:395] conv3_2/dw_relu -> conv3_2/dw (in-place)
I0907 13:42:24.731577 23754 net.cpp:150] Setting up conv3_2/dw_relu
I0907 13:42:24.731585 23754 net.cpp:157] Top shape: 16 128 38 38 (2957312)
I0907 13:42:24.731588 23754 net.cpp:165] Memory required for data: 1567957120
I0907 13:42:24.731591 23754 layer_factory.hpp:77] Creating layer conv3_2/sep
I0907 13:42:24.731600 23754 net.cpp:100] Creating Layer conv3_2/sep
I0907 13:42:24.731603 23754 net.cpp:434] conv3_2/sep <- conv3_2/dw
I0907 13:42:24.731609 23754 net.cpp:408] conv3_2/sep -> conv3_2/sep
I0907 13:42:24.733362 23754 net.cpp:150] Setting up conv3_2/sep
I0907 13:42:24.733374 23754 net.cpp:157] Top shape: 16 256 38 38 (5914624)
I0907 13:42:24.733377 23754 net.cpp:165] Memory required for data: 1591615616
I0907 13:42:24.733381 23754 layer_factory.hpp:77] Creating layer conv3_2/sep/bn
I0907 13:42:24.733387 23754 net.cpp:100] Creating Layer conv3_2/sep/bn
I0907 13:42:24.733389 23754 net.cpp:434] conv3_2/sep/bn <- conv3_2/sep
I0907 13:42:24.733393 23754 net.cpp:395] conv3_2/sep/bn -> conv3_2/sep (in-place)
I0907 13:42:24.733542 23754 net.cpp:150] Setting up conv3_2/sep/bn
I0907 13:42:24.733549 23754 net.cpp:157] Top shape: 16 256 38 38 (5914624)
I0907 13:42:24.733552 23754 net.cpp:165] Memory required for data: 1615274112
I0907 13:42:24.733559 23754 layer_factory.hpp:77] Creating layer conv3_2/sep/scale
I0907 13:42:24.733566 23754 net.cpp:100] Creating Layer conv3_2/sep/scale
I0907 13:42:24.733569 23754 net.cpp:434] conv3_2/sep/scale <- conv3_2/sep
I0907 13:42:24.733574 23754 net.cpp:395] conv3_2/sep/scale -> conv3_2/sep (in-place)
I0907 13:42:24.733608 23754 layer_factory.hpp:77] Creating layer conv3_2/sep/scale
I0907 13:42:24.733702 23754 net.cpp:150] Setting up conv3_2/sep/scale
I0907 13:42:24.733716 23754 net.cpp:157] Top shape: 16 256 38 38 (5914624)
I0907 13:42:24.733719 23754 net.cpp:165] Memory required for data: 1638932608
I0907 13:42:24.733726 23754 layer_factory.hpp:77] Creating layer conv3_2/sep_relu
I0907 13:42:24.733731 23754 net.cpp:100] Creating Layer conv3_2/sep_relu
I0907 13:42:24.733734 23754 net.cpp:434] conv3_2/sep_relu <- conv3_2/sep
I0907 13:42:24.733739 23754 net.cpp:395] conv3_2/sep_relu -> conv3_2/sep (in-place)
I0907 13:42:24.734344 23754 net.cpp:150] Setting up conv3_2/sep_relu
I0907 13:42:24.734355 23754 net.cpp:157] Top shape: 16 256 38 38 (5914624)
I0907 13:42:24.734359 23754 net.cpp:165] Memory required for data: 1662591104
I0907 13:42:24.734362 23754 layer_factory.hpp:77] Creating layer conv4_1/dw
I0907 13:42:24.734371 23754 net.cpp:100] Creating Layer conv4_1/dw
I0907 13:42:24.734375 23754 net.cpp:434] conv4_1/dw <- conv3_2/sep
I0907 13:42:24.734381 23754 net.cpp:408] conv4_1/dw -> conv4_1/dw
I0907 13:42:24.734556 23754 net.cpp:150] Setting up conv4_1/dw
I0907 13:42:24.734565 23754 net.cpp:157] Top shape: 16 256 38 38 (5914624)
I0907 13:42:24.734576 23754 net.cpp:165] Memory required for data: 1686249600
I0907 13:42:24.734582 23754 layer_factory.hpp:77] Creating layer conv4_1/dw/bn
I0907 13:42:24.734588 23754 net.cpp:100] Creating Layer conv4_1/dw/bn
I0907 13:42:24.734592 23754 net.cpp:434] conv4_1/dw/bn <- conv4_1/dw
I0907 13:42:24.734596 23754 net.cpp:395] conv4_1/dw/bn -> conv4_1/dw (in-place)
I0907 13:42:24.734764 23754 net.cpp:150] Setting up conv4_1/dw/bn
I0907 13:42:24.734772 23754 net.cpp:157] Top shape: 16 256 38 38 (5914624)
I0907 13:42:24.734776 23754 net.cpp:165] Memory required for data: 1709908096
I0907 13:42:24.734783 23754 layer_factory.hpp:77] Creating layer conv4_1/dw/scale
I0907 13:42:24.734789 23754 net.cpp:100] Creating Layer conv4_1/dw/scale
I0907 13:42:24.734793 23754 net.cpp:434] conv4_1/dw/scale <- conv4_1/dw
I0907 13:42:24.734798 23754 net.cpp:395] conv4_1/dw/scale -> conv4_1/dw (in-place)
I0907 13:42:24.734833 23754 layer_factory.hpp:77] Creating layer conv4_1/dw/scale
I0907 13:42:24.734930 23754 net.cpp:150] Setting up conv4_1/dw/scale
I0907 13:42:24.734937 23754 net.cpp:157] Top shape: 16 256 38 38 (5914624)
I0907 13:42:24.734941 23754 net.cpp:165] Memory required for data: 1733566592
I0907 13:42:24.734946 23754 layer_factory.hpp:77] Creating layer conv4_1/dw_relu
I0907 13:42:24.734952 23754 net.cpp:100] Creating Layer conv4_1/dw_relu
I0907 13:42:24.734956 23754 net.cpp:434] conv4_1/dw_relu <- conv4_1/dw
I0907 13:42:24.734961 23754 net.cpp:395] conv4_1/dw_relu -> conv4_1/dw (in-place)
I0907 13:42:24.735105 23754 net.cpp:150] Setting up conv4_1/dw_relu
I0907 13:42:24.735112 23754 net.cpp:157] Top shape: 16 256 38 38 (5914624)
I0907 13:42:24.735116 23754 net.cpp:165] Memory required for data: 1757225088
I0907 13:42:24.735117 23754 layer_factory.hpp:77] Creating layer conv4_1/sep
I0907 13:42:24.735126 23754 net.cpp:100] Creating Layer conv4_1/sep
I0907 13:42:24.735129 23754 net.cpp:434] conv4_1/sep <- conv4_1/dw
I0907 13:42:24.735136 23754 net.cpp:408] conv4_1/sep -> conv4_1/sep
I0907 13:42:24.738034 23754 net.cpp:150] Setting up conv4_1/sep
I0907 13:42:24.738047 23754 net.cpp:157] Top shape: 16 256 38 38 (5914624)
I0907 13:42:24.738051 23754 net.cpp:165] Memory required for data: 1780883584
I0907 13:42:24.738056 23754 layer_factory.hpp:77] Creating layer conv4_1/sep/bn
I0907 13:42:24.738064 23754 net.cpp:100] Creating Layer conv4_1/sep/bn
I0907 13:42:24.738067 23754 net.cpp:434] conv4_1/sep/bn <- conv4_1/sep
I0907 13:42:24.738072 23754 net.cpp:395] conv4_1/sep/bn -> conv4_1/sep (in-place)
I0907 13:42:24.738226 23754 net.cpp:150] Setting up conv4_1/sep/bn
I0907 13:42:24.738234 23754 net.cpp:157] Top shape: 16 256 38 38 (5914624)
I0907 13:42:24.738236 23754 net.cpp:165] Memory required for data: 1804542080
I0907 13:42:24.738243 23754 layer_factory.hpp:77] Creating layer conv4_1/sep/scale
I0907 13:42:24.738250 23754 net.cpp:100] Creating Layer conv4_1/sep/scale
I0907 13:42:24.738253 23754 net.cpp:434] conv4_1/sep/scale <- conv4_1/sep
I0907 13:42:24.738258 23754 net.cpp:395] conv4_1/sep/scale -> conv4_1/sep (in-place)
I0907 13:42:24.738291 23754 layer_factory.hpp:77] Creating layer conv4_1/sep/scale
I0907 13:42:24.738399 23754 net.cpp:150] Setting up conv4_1/sep/scale
I0907 13:42:24.738406 23754 net.cpp:157] Top shape: 16 256 38 38 (5914624)
I0907 13:42:24.738410 23754 net.cpp:165] Memory required for data: 1828200576
I0907 13:42:24.738421 23754 layer_factory.hpp:77] Creating layer conv4_1/sep_relu
I0907 13:42:24.738427 23754 net.cpp:100] Creating Layer conv4_1/sep_relu
I0907 13:42:24.738431 23754 net.cpp:434] conv4_1/sep_relu <- conv4_1/sep
I0907 13:42:24.738436 23754 net.cpp:395] conv4_1/sep_relu -> conv4_1/sep (in-place)
I0907 13:42:24.738600 23754 net.cpp:150] Setting up conv4_1/sep_relu
I0907 13:42:24.738608 23754 net.cpp:157] Top shape: 16 256 38 38 (5914624)
I0907 13:42:24.738611 23754 net.cpp:165] Memory required for data: 1851859072
I0907 13:42:24.738615 23754 layer_factory.hpp:77] Creating layer conv4_2/dw
I0907 13:42:24.738623 23754 net.cpp:100] Creating Layer conv4_2/dw
I0907 13:42:24.738636 23754 net.cpp:434] conv4_2/dw <- conv4_1/sep
I0907 13:42:24.738643 23754 net.cpp:408] conv4_2/dw -> conv4_2/dw
I0907 13:42:24.738837 23754 net.cpp:150] Setting up conv4_2/dw
I0907 13:42:24.738844 23754 net.cpp:157] Top shape: 16 256 19 19 (1478656)
I0907 13:42:24.738847 23754 net.cpp:165] Memory required for data: 1857773696
I0907 13:42:24.738852 23754 layer_factory.hpp:77] Creating layer conv4_2/dw/bn
I0907 13:42:24.738858 23754 net.cpp:100] Creating Layer conv4_2/dw/bn
I0907 13:42:24.738862 23754 net.cpp:434] conv4_2/dw/bn <- conv4_2/dw
I0907 13:42:24.738867 23754 net.cpp:395] conv4_2/dw/bn -> conv4_2/dw (in-place)
I0907 13:42:24.739015 23754 net.cpp:150] Setting up conv4_2/dw/bn
I0907 13:42:24.739022 23754 net.cpp:157] Top shape: 16 256 19 19 (1478656)
I0907 13:42:24.739024 23754 net.cpp:165] Memory required for data: 1863688320
I0907 13:42:24.739032 23754 layer_factory.hpp:77] Creating layer conv4_2/dw/scale
I0907 13:42:24.739037 23754 net.cpp:100] Creating Layer conv4_2/dw/scale
I0907 13:42:24.739042 23754 net.cpp:434] conv4_2/dw/scale <- conv4_2/dw
I0907 13:42:24.739045 23754 net.cpp:395] conv4_2/dw/scale -> conv4_2/dw (in-place)
I0907 13:42:24.739095 23754 layer_factory.hpp:77] Creating layer conv4_2/dw/scale
I0907 13:42:24.739187 23754 net.cpp:150] Setting up conv4_2/dw/scale
I0907 13:42:24.739194 23754 net.cpp:157] Top shape: 16 256 19 19 (1478656)
I0907 13:42:24.739197 23754 net.cpp:165] Memory required for data: 1869602944
I0907 13:42:24.739203 23754 layer_factory.hpp:77] Creating layer conv4_2/dw_relu
I0907 13:42:24.739208 23754 net.cpp:100] Creating Layer conv4_2/dw_relu
I0907 13:42:24.739212 23754 net.cpp:434] conv4_2/dw_relu <- conv4_2/dw
I0907 13:42:24.739217 23754 net.cpp:395] conv4_2/dw_relu -> conv4_2/dw (in-place)
I0907 13:42:24.739821 23754 net.cpp:150] Setting up conv4_2/dw_relu
I0907 13:42:24.739833 23754 net.cpp:157] Top shape: 16 256 19 19 (1478656)
I0907 13:42:24.739836 23754 net.cpp:165] Memory required for data: 1875517568
I0907 13:42:24.739840 23754 layer_factory.hpp:77] Creating layer conv4_2/sep
I0907 13:42:24.739850 23754 net.cpp:100] Creating Layer conv4_2/sep
I0907 13:42:24.739853 23754 net.cpp:434] conv4_2/sep <- conv4_2/dw
I0907 13:42:24.739861 23754 net.cpp:408] conv4_2/sep -> conv4_2/sep
I0907 13:42:24.743199 23754 net.cpp:150] Setting up conv4_2/sep
I0907 13:42:24.743212 23754 net.cpp:157] Top shape: 16 512 19 19 (2957312)
I0907 13:42:24.743216 23754 net.cpp:165] Memory required for data: 1887346816
I0907 13:42:24.743222 23754 layer_factory.hpp:77] Creating layer conv4_2/sep/bn
I0907 13:42:24.743228 23754 net.cpp:100] Creating Layer conv4_2/sep/bn
I0907 13:42:24.743232 23754 net.cpp:434] conv4_2/sep/bn <- conv4_2/sep
I0907 13:42:24.743237 23754 net.cpp:395] conv4_2/sep/bn -> conv4_2/sep (in-place)
I0907 13:42:24.743396 23754 net.cpp:150] Setting up conv4_2/sep/bn
I0907 13:42:24.743402 23754 net.cpp:157] Top shape: 16 512 19 19 (2957312)
I0907 13:42:24.743407 23754 net.cpp:165] Memory required for data: 1899176064
I0907 13:42:24.743413 23754 layer_factory.hpp:77] Creating layer conv4_2/sep/scale
I0907 13:42:24.743419 23754 net.cpp:100] Creating Layer conv4_2/sep/scale
I0907 13:42:24.743423 23754 net.cpp:434] conv4_2/sep/scale <- conv4_2/sep
I0907 13:42:24.743428 23754 net.cpp:395] conv4_2/sep/scale -> conv4_2/sep (in-place)
I0907 13:42:24.743464 23754 layer_factory.hpp:77] Creating layer conv4_2/sep/scale
I0907 13:42:24.743563 23754 net.cpp:150] Setting up conv4_2/sep/scale
I0907 13:42:24.743571 23754 net.cpp:157] Top shape: 16 512 19 19 (2957312)
I0907 13:42:24.743574 23754 net.cpp:165] Memory required for data: 1911005312
I0907 13:42:24.743580 23754 layer_factory.hpp:77] Creating layer conv4_2/sep_relu
I0907 13:42:24.743587 23754 net.cpp:100] Creating Layer conv4_2/sep_relu
I0907 13:42:24.743590 23754 net.cpp:434] conv4_2/sep_relu <- conv4_2/sep
I0907 13:42:24.743595 23754 net.cpp:395] conv4_2/sep_relu -> conv4_2/sep (in-place)
I0907 13:42:24.743736 23754 net.cpp:150] Setting up conv4_2/sep_relu
I0907 13:42:24.743742 23754 net.cpp:157] Top shape: 16 512 19 19 (2957312)
I0907 13:42:24.743755 23754 net.cpp:165] Memory required for data: 1922834560
I0907 13:42:24.743760 23754 layer_factory.hpp:77] Creating layer conv5_1/dw
I0907 13:42:24.743768 23754 net.cpp:100] Creating Layer conv5_1/dw
I0907 13:42:24.743772 23754 net.cpp:434] conv5_1/dw <- conv4_2/sep
I0907 13:42:24.743778 23754 net.cpp:408] conv5_1/dw -> conv5_1/dw
I0907 13:42:24.743986 23754 net.cpp:150] Setting up conv5_1/dw
I0907 13:42:24.743995 23754 net.cpp:157] Top shape: 16 512 19 19 (2957312)
I0907 13:42:24.743999 23754 net.cpp:165] Memory required for data: 1934663808
I0907 13:42:24.744004 23754 layer_factory.hpp:77] Creating layer conv5_1/dw/bn
I0907 13:42:24.744009 23754 net.cpp:100] Creating Layer conv5_1/dw/bn
I0907 13:42:24.744014 23754 net.cpp:434] conv5_1/dw/bn <- conv5_1/dw
I0907 13:42:24.744019 23754 net.cpp:395] conv5_1/dw/bn -> conv5_1/dw (in-place)
I0907 13:42:24.744179 23754 net.cpp:150] Setting up conv5_1/dw/bn
I0907 13:42:24.744185 23754 net.cpp:157] Top shape: 16 512 19 19 (2957312)
I0907 13:42:24.744189 23754 net.cpp:165] Memory required for data: 1946493056
I0907 13:42:24.744195 23754 layer_factory.hpp:77] Creating layer conv5_1/dw/scale
I0907 13:42:24.744202 23754 net.cpp:100] Creating Layer conv5_1/dw/scale
I0907 13:42:24.744207 23754 net.cpp:434] conv5_1/dw/scale <- conv5_1/dw
I0907 13:42:24.744212 23754 net.cpp:395] conv5_1/dw/scale -> conv5_1/dw (in-place)
I0907 13:42:24.744249 23754 layer_factory.hpp:77] Creating layer conv5_1/dw/scale
I0907 13:42:24.744349 23754 net.cpp:150] Setting up conv5_1/dw/scale
I0907 13:42:24.744356 23754 net.cpp:157] Top shape: 16 512 19 19 (2957312)
I0907 13:42:24.744360 23754 net.cpp:165] Memory required for data: 1958322304
I0907 13:42:24.744366 23754 layer_factory.hpp:77] Creating layer conv5_1/dw_relu
I0907 13:42:24.744371 23754 net.cpp:100] Creating Layer conv5_1/dw_relu
I0907 13:42:24.744375 23754 net.cpp:434] conv5_1/dw_relu <- conv5_1/dw
I0907 13:42:24.744379 23754 net.cpp:395] conv5_1/dw_relu -> conv5_1/dw (in-place)
I0907 13:42:24.744987 23754 net.cpp:150] Setting up conv5_1/dw_relu
I0907 13:42:24.744999 23754 net.cpp:157] Top shape: 16 512 19 19 (2957312)
I0907 13:42:24.745003 23754 net.cpp:165] Memory required for data: 1970151552
I0907 13:42:24.745007 23754 layer_factory.hpp:77] Creating layer conv5_1/sep
I0907 13:42:24.745015 23754 net.cpp:100] Creating Layer conv5_1/sep
I0907 13:42:24.745020 23754 net.cpp:434] conv5_1/sep <- conv5_1/dw
I0907 13:42:24.745025 23754 net.cpp:408] conv5_1/sep -> conv5_1/sep
I0907 13:42:24.749004 23754 net.cpp:150] Setting up conv5_1/sep
I0907 13:42:24.749017 23754 net.cpp:157] Top shape: 16 512 19 19 (2957312)
I0907 13:42:24.749020 23754 net.cpp:165] Memory required for data: 1981980800
I0907 13:42:24.749027 23754 layer_factory.hpp:77] Creating layer conv5_1/sep/bn
I0907 13:42:24.749033 23754 net.cpp:100] Creating Layer conv5_1/sep/bn
I0907 13:42:24.749037 23754 net.cpp:434] conv5_1/sep/bn <- conv5_1/sep
I0907 13:42:24.749043 23754 net.cpp:395] conv5_1/sep/bn -> conv5_1/sep (in-place)
I0907 13:42:24.749204 23754 net.cpp:150] Setting up conv5_1/sep/bn
I0907 13:42:24.749210 23754 net.cpp:157] Top shape: 16 512 19 19 (2957312)
I0907 13:42:24.749214 23754 net.cpp:165] Memory required for data: 1993810048
I0907 13:42:24.749222 23754 layer_factory.hpp:77] Creating layer conv5_1/sep/scale
I0907 13:42:24.749228 23754 net.cpp:100] Creating Layer conv5_1/sep/scale
I0907 13:42:24.749233 23754 net.cpp:434] conv5_1/sep/scale <- conv5_1/sep
I0907 13:42:24.749238 23754 net.cpp:395] conv5_1/sep/scale -> conv5_1/sep (in-place)
I0907 13:42:24.749274 23754 layer_factory.hpp:77] Creating layer conv5_1/sep/scale
I0907 13:42:24.749372 23754 net.cpp:150] Setting up conv5_1/sep/scale
I0907 13:42:24.749378 23754 net.cpp:157] Top shape: 16 512 19 19 (2957312)
I0907 13:42:24.749382 23754 net.cpp:165] Memory required for data: 2005639296
I0907 13:42:24.749387 23754 layer_factory.hpp:77] Creating layer conv5_1/sep_relu
I0907 13:42:24.749393 23754 net.cpp:100] Creating Layer conv5_1/sep_relu
I0907 13:42:24.749397 23754 net.cpp:434] conv5_1/sep_relu <- conv5_1/sep
I0907 13:42:24.749411 23754 net.cpp:395] conv5_1/sep_relu -> conv5_1/sep (in-place)
I0907 13:42:24.749593 23754 net.cpp:150] Setting up conv5_1/sep_relu
I0907 13:42:24.749605 23754 net.cpp:157] Top shape: 16 512 19 19 (2957312)
I0907 13:42:24.749609 23754 net.cpp:165] Memory required for data: 2017468544
I0907 13:42:24.749614 23754 layer_factory.hpp:77] Creating layer conv5_2/dw
I0907 13:42:24.749622 23754 net.cpp:100] Creating Layer conv5_2/dw
I0907 13:42:24.749626 23754 net.cpp:434] conv5_2/dw <- conv5_1/sep
I0907 13:42:24.749632 23754 net.cpp:408] conv5_2/dw -> conv5_2/dw
I0907 13:42:24.749841 23754 net.cpp:150] Setting up conv5_2/dw
I0907 13:42:24.749850 23754 net.cpp:157] Top shape: 16 512 19 19 (2957312)
I0907 13:42:24.749851 23754 net.cpp:165] Memory required for data: 2029297792
I0907 13:42:24.749856 23754 layer_factory.hpp:77] Creating layer conv5_2/dw/bn
I0907 13:42:24.749861 23754 net.cpp:100] Creating Layer conv5_2/dw/bn
I0907 13:42:24.749863 23754 net.cpp:434] conv5_2/dw/bn <- conv5_2/dw
I0907 13:42:24.749867 23754 net.cpp:395] conv5_2/dw/bn -> conv5_2/dw (in-place)
I0907 13:42:24.750020 23754 net.cpp:150] Setting up conv5_2/dw/bn
I0907 13:42:24.750026 23754 net.cpp:157] Top shape: 16 512 19 19 (2957312)
I0907 13:42:24.750030 23754 net.cpp:165] Memory required for data: 2041127040
I0907 13:42:24.750037 23754 layer_factory.hpp:77] Creating layer conv5_2/dw/scale
I0907 13:42:24.750048 23754 net.cpp:100] Creating Layer conv5_2/dw/scale
I0907 13:42:24.750051 23754 net.cpp:434] conv5_2/dw/scale <- conv5_2/dw
I0907 13:42:24.750066 23754 net.cpp:395] conv5_2/dw/scale -> conv5_2/dw (in-place)
I0907 13:42:24.750105 23754 layer_factory.hpp:77] Creating layer conv5_2/dw/scale
I0907 13:42:24.750195 23754 net.cpp:150] Setting up conv5_2/dw/scale
I0907 13:42:24.750201 23754 net.cpp:157] Top shape: 16 512 19 19 (2957312)
I0907 13:42:24.750205 23754 net.cpp:165] Memory required for data: 2052956288
I0907 13:42:24.750211 23754 layer_factory.hpp:77] Creating layer conv5_2/dw_relu
I0907 13:42:24.750216 23754 net.cpp:100] Creating Layer conv5_2/dw_relu
I0907 13:42:24.750221 23754 net.cpp:434] conv5_2/dw_relu <- conv5_2/dw
I0907 13:42:24.750226 23754 net.cpp:395] conv5_2/dw_relu -> conv5_2/dw (in-place)
I0907 13:42:24.750834 23754 net.cpp:150] Setting up conv5_2/dw_relu
I0907 13:42:24.750846 23754 net.cpp:157] Top shape: 16 512 19 19 (2957312)
I0907 13:42:24.750849 23754 net.cpp:165] Memory required for data: 2064785536
I0907 13:42:24.750851 23754 layer_factory.hpp:77] Creating layer conv5_2/sep
I0907 13:42:24.750859 23754 net.cpp:100] Creating Layer conv5_2/sep
I0907 13:42:24.750864 23754 net.cpp:434] conv5_2/sep <- conv5_2/dw
I0907 13:42:24.750869 23754 net.cpp:408] conv5_2/sep -> conv5_2/sep
I0907 13:42:24.754396 23754 net.cpp:150] Setting up conv5_2/sep
I0907 13:42:24.754410 23754 net.cpp:157] Top shape: 16 512 19 19 (2957312)
I0907 13:42:24.754412 23754 net.cpp:165] Memory required for data: 2076614784
I0907 13:42:24.754417 23754 layer_factory.hpp:77] Creating layer conv5_2/sep/bn
I0907 13:42:24.754425 23754 net.cpp:100] Creating Layer conv5_2/sep/bn
I0907 13:42:24.754428 23754 net.cpp:434] conv5_2/sep/bn <- conv5_2/sep
I0907 13:42:24.754433 23754 net.cpp:395] conv5_2/sep/bn -> conv5_2/sep (in-place)
I0907 13:42:24.754592 23754 net.cpp:150] Setting up conv5_2/sep/bn
I0907 13:42:24.754600 23754 net.cpp:157] Top shape: 16 512 19 19 (2957312)
I0907 13:42:24.754602 23754 net.cpp:165] Memory required for data: 2088444032
I0907 13:42:24.754609 23754 layer_factory.hpp:77] Creating layer conv5_2/sep/scale
I0907 13:42:24.754616 23754 net.cpp:100] Creating Layer conv5_2/sep/scale
I0907 13:42:24.754621 23754 net.cpp:434] conv5_2/sep/scale <- conv5_2/sep
I0907 13:42:24.754626 23754 net.cpp:395] conv5_2/sep/scale -> conv5_2/sep (in-place)
I0907 13:42:24.754662 23754 layer_factory.hpp:77] Creating layer conv5_2/sep/scale
I0907 13:42:24.754765 23754 net.cpp:150] Setting up conv5_2/sep/scale
I0907 13:42:24.754772 23754 net.cpp:157] Top shape: 16 512 19 19 (2957312)
I0907 13:42:24.754776 23754 net.cpp:165] Memory required for data: 2100273280
I0907 13:42:24.754792 23754 layer_factory.hpp:77] Creating layer conv5_2/sep_relu
I0907 13:42:24.754798 23754 net.cpp:100] Creating Layer conv5_2/sep_relu
I0907 13:42:24.754802 23754 net.cpp:434] conv5_2/sep_relu <- conv5_2/sep
I0907 13:42:24.754807 23754 net.cpp:395] conv5_2/sep_relu -> conv5_2/sep (in-place)
I0907 13:42:24.755398 23754 net.cpp:150] Setting up conv5_2/sep_relu
I0907 13:42:24.755409 23754 net.cpp:157] Top shape: 16 512 19 19 (2957312)
I0907 13:42:24.755414 23754 net.cpp:165] Memory required for data: 2112102528
I0907 13:42:24.755416 23754 layer_factory.hpp:77] Creating layer conv5_3/dw
I0907 13:42:24.755425 23754 net.cpp:100] Creating Layer conv5_3/dw
I0907 13:42:24.755429 23754 net.cpp:434] conv5_3/dw <- conv5_2/sep
I0907 13:42:24.755435 23754 net.cpp:408] conv5_3/dw -> conv5_3/dw
I0907 13:42:24.755652 23754 net.cpp:150] Setting up conv5_3/dw
I0907 13:42:24.755661 23754 net.cpp:157] Top shape: 16 512 19 19 (2957312)
I0907 13:42:24.755664 23754 net.cpp:165] Memory required for data: 2123931776
I0907 13:42:24.755671 23754 layer_factory.hpp:77] Creating layer conv5_3/dw/bn
I0907 13:42:24.755676 23754 net.cpp:100] Creating Layer conv5_3/dw/bn
I0907 13:42:24.755681 23754 net.cpp:434] conv5_3/dw/bn <- conv5_3/dw
I0907 13:42:24.755686 23754 net.cpp:395] conv5_3/dw/bn -> conv5_3/dw (in-place)
I0907 13:42:24.755853 23754 net.cpp:150] Setting up conv5_3/dw/bn
I0907 13:42:24.755861 23754 net.cpp:157] Top shape: 16 512 19 19 (2957312)
I0907 13:42:24.755864 23754 net.cpp:165] Memory required for data: 2135761024
I0907 13:42:24.755872 23754 layer_factory.hpp:77] Creating layer conv5_3/dw/scale
I0907 13:42:24.755878 23754 net.cpp:100] Creating Layer conv5_3/dw/scale
I0907 13:42:24.755882 23754 net.cpp:434] conv5_3/dw/scale <- conv5_3/dw
I0907 13:42:24.755887 23754 net.cpp:395] conv5_3/dw/scale -> conv5_3/dw (in-place)
I0907 13:42:24.755924 23754 layer_factory.hpp:77] Creating layer conv5_3/dw/scale
I0907 13:42:24.756012 23754 net.cpp:150] Setting up conv5_3/dw/scale
I0907 13:42:24.756019 23754 net.cpp:157] Top shape: 16 512 19 19 (2957312)
I0907 13:42:24.756022 23754 net.cpp:165] Memory required for data: 2147590272
I0907 13:42:24.756028 23754 layer_factory.hpp:77] Creating layer conv5_3/dw_relu
I0907 13:42:24.756033 23754 net.cpp:100] Creating Layer conv5_3/dw_relu
I0907 13:42:24.756037 23754 net.cpp:434] conv5_3/dw_relu <- conv5_3/dw
I0907 13:42:24.756042 23754 net.cpp:395] conv5_3/dw_relu -> conv5_3/dw (in-place)
I0907 13:42:24.756640 23754 net.cpp:150] Setting up conv5_3/dw_relu
I0907 13:42:24.756651 23754 net.cpp:157] Top shape: 16 512 19 19 (2957312)
I0907 13:42:24.756655 23754 net.cpp:165] Memory required for data: 2159419520
I0907 13:42:24.756659 23754 layer_factory.hpp:77] Creating layer conv5_3/sep
I0907 13:42:24.756669 23754 net.cpp:100] Creating Layer conv5_3/sep
I0907 13:42:24.756672 23754 net.cpp:434] conv5_3/sep <- conv5_3/dw
I0907 13:42:24.756677 23754 net.cpp:408] conv5_3/sep -> conv5_3/sep
I0907 13:42:24.760195 23754 net.cpp:150] Setting up conv5_3/sep
I0907 13:42:24.760207 23754 net.cpp:157] Top shape: 16 512 19 19 (2957312)
I0907 13:42:24.760210 23754 net.cpp:165] Memory required for data: 2171248768
I0907 13:42:24.760215 23754 layer_factory.hpp:77] Creating layer conv5_3/sep/bn
I0907 13:42:24.760221 23754 net.cpp:100] Creating Layer conv5_3/sep/bn
I0907 13:42:24.760224 23754 net.cpp:434] conv5_3/sep/bn <- conv5_3/sep
I0907 13:42:24.760229 23754 net.cpp:395] conv5_3/sep/bn -> conv5_3/sep (in-place)
I0907 13:42:24.760393 23754 net.cpp:150] Setting up conv5_3/sep/bn
I0907 13:42:24.760406 23754 net.cpp:157] Top shape: 16 512 19 19 (2957312)
I0907 13:42:24.760409 23754 net.cpp:165] Memory required for data: 2183078016
I0907 13:42:24.760417 23754 layer_factory.hpp:77] Creating layer conv5_3/sep/scale
I0907 13:42:24.760423 23754 net.cpp:100] Creating Layer conv5_3/sep/scale
I0907 13:42:24.760427 23754 net.cpp:434] conv5_3/sep/scale <- conv5_3/sep
I0907 13:42:24.760432 23754 net.cpp:395] conv5_3/sep/scale -> conv5_3/sep (in-place)
I0907 13:42:24.760470 23754 layer_factory.hpp:77] Creating layer conv5_3/sep/scale
I0907 13:42:24.760591 23754 net.cpp:150] Setting up conv5_3/sep/scale
I0907 13:42:24.760598 23754 net.cpp:157] Top shape: 16 512 19 19 (2957312)
I0907 13:42:24.760601 23754 net.cpp:165] Memory required for data: 2194907264
I0907 13:42:24.760607 23754 layer_factory.hpp:77] Creating layer conv5_3/sep_relu
I0907 13:42:24.760613 23754 net.cpp:100] Creating Layer conv5_3/sep_relu
I0907 13:42:24.760618 23754 net.cpp:434] conv5_3/sep_relu <- conv5_3/sep
I0907 13:42:24.760623 23754 net.cpp:395] conv5_3/sep_relu -> conv5_3/sep (in-place)
I0907 13:42:24.761226 23754 net.cpp:150] Setting up conv5_3/sep_relu
I0907 13:42:24.761238 23754 net.cpp:157] Top shape: 16 512 19 19 (2957312)
I0907 13:42:24.761242 23754 net.cpp:165] Memory required for data: 2206736512
I0907 13:42:24.761246 23754 layer_factory.hpp:77] Creating layer conv5_4/dw
I0907 13:42:24.761255 23754 net.cpp:100] Creating Layer conv5_4/dw
I0907 13:42:24.761258 23754 net.cpp:434] conv5_4/dw <- conv5_3/sep
I0907 13:42:24.761265 23754 net.cpp:408] conv5_4/dw -> conv5_4/dw
I0907 13:42:24.761485 23754 net.cpp:150] Setting up conv5_4/dw
I0907 13:42:24.761494 23754 net.cpp:157] Top shape: 16 512 19 19 (2957312)
I0907 13:42:24.761498 23754 net.cpp:165] Memory required for data: 2218565760
I0907 13:42:24.761503 23754 layer_factory.hpp:77] Creating layer conv5_4/dw/bn
I0907 13:42:24.761509 23754 net.cpp:100] Creating Layer conv5_4/dw/bn
I0907 13:42:24.761513 23754 net.cpp:434] conv5_4/dw/bn <- conv5_4/dw
I0907 13:42:24.761518 23754 net.cpp:395] conv5_4/dw/bn -> conv5_4/dw (in-place)
I0907 13:42:24.761673 23754 net.cpp:150] Setting up conv5_4/dw/bn
I0907 13:42:24.761679 23754 net.cpp:157] Top shape: 16 512 19 19 (2957312)
I0907 13:42:24.761683 23754 net.cpp:165] Memory required for data: 2230395008
I0907 13:42:24.761690 23754 layer_factory.hpp:77] Creating layer conv5_4/dw/scale
I0907 13:42:24.761696 23754 net.cpp:100] Creating Layer conv5_4/dw/scale
I0907 13:42:24.761700 23754 net.cpp:434] conv5_4/dw/scale <- conv5_4/dw
I0907 13:42:24.761705 23754 net.cpp:395] conv5_4/dw/scale -> conv5_4/dw (in-place)
I0907 13:42:24.761752 23754 layer_factory.hpp:77] Creating layer conv5_4/dw/scale
I0907 13:42:24.761848 23754 net.cpp:150] Setting up conv5_4/dw/scale
I0907 13:42:24.761855 23754 net.cpp:157] Top shape: 16 512 19 19 (2957312)
I0907 13:42:24.761858 23754 net.cpp:165] Memory required for data: 2242224256
I0907 13:42:24.761865 23754 layer_factory.hpp:77] Creating layer conv5_4/dw_relu
I0907 13:42:24.761870 23754 net.cpp:100] Creating Layer conv5_4/dw_relu
I0907 13:42:24.761874 23754 net.cpp:434] conv5_4/dw_relu <- conv5_4/dw
I0907 13:42:24.761879 23754 net.cpp:395] conv5_4/dw_relu -> conv5_4/dw (in-place)
I0907 13:42:24.762027 23754 net.cpp:150] Setting up conv5_4/dw_relu
I0907 13:42:24.762035 23754 net.cpp:157] Top shape: 16 512 19 19 (2957312)
I0907 13:42:24.762039 23754 net.cpp:165] Memory required for data: 2254053504
I0907 13:42:24.762042 23754 layer_factory.hpp:77] Creating layer conv5_4/sep
I0907 13:42:24.762050 23754 net.cpp:100] Creating Layer conv5_4/sep
I0907 13:42:24.762054 23754 net.cpp:434] conv5_4/sep <- conv5_4/dw
I0907 13:42:24.762060 23754 net.cpp:408] conv5_4/sep -> conv5_4/sep
I0907 13:42:24.766031 23754 net.cpp:150] Setting up conv5_4/sep
I0907 13:42:24.766043 23754 net.cpp:157] Top shape: 16 512 19 19 (2957312)
I0907 13:42:24.766047 23754 net.cpp:165] Memory required for data: 2265882752
I0907 13:42:24.766052 23754 layer_factory.hpp:77] Creating layer conv5_4/sep/bn
I0907 13:42:24.766057 23754 net.cpp:100] Creating Layer conv5_4/sep/bn
I0907 13:42:24.766062 23754 net.cpp:434] conv5_4/sep/bn <- conv5_4/sep
I0907 13:42:24.766067 23754 net.cpp:395] conv5_4/sep/bn -> conv5_4/sep (in-place)
I0907 13:42:24.766227 23754 net.cpp:150] Setting up conv5_4/sep/bn
I0907 13:42:24.766234 23754 net.cpp:157] Top shape: 16 512 19 19 (2957312)
I0907 13:42:24.766237 23754 net.cpp:165] Memory required for data: 2277712000
I0907 13:42:24.766244 23754 layer_factory.hpp:77] Creating layer conv5_4/sep/scale
I0907 13:42:24.766252 23754 net.cpp:100] Creating Layer conv5_4/sep/scale
I0907 13:42:24.766265 23754 net.cpp:434] conv5_4/sep/scale <- conv5_4/sep
I0907 13:42:24.766271 23754 net.cpp:395] conv5_4/sep/scale -> conv5_4/sep (in-place)
I0907 13:42:24.766319 23754 layer_factory.hpp:77] Creating layer conv5_4/sep/scale
I0907 13:42:24.766428 23754 net.cpp:150] Setting up conv5_4/sep/scale
I0907 13:42:24.766436 23754 net.cpp:157] Top shape: 16 512 19 19 (2957312)
I0907 13:42:24.766440 23754 net.cpp:165] Memory required for data: 2289541248
I0907 13:42:24.766446 23754 layer_factory.hpp:77] Creating layer conv5_4/sep_relu
I0907 13:42:24.766453 23754 net.cpp:100] Creating Layer conv5_4/sep_relu
I0907 13:42:24.766455 23754 net.cpp:434] conv5_4/sep_relu <- conv5_4/sep
I0907 13:42:24.766460 23754 net.cpp:395] conv5_4/sep_relu -> conv5_4/sep (in-place)
I0907 13:42:24.767055 23754 net.cpp:150] Setting up conv5_4/sep_relu
I0907 13:42:24.767067 23754 net.cpp:157] Top shape: 16 512 19 19 (2957312)
I0907 13:42:24.767069 23754 net.cpp:165] Memory required for data: 2301370496
I0907 13:42:24.767072 23754 layer_factory.hpp:77] Creating layer conv5_5/dw
I0907 13:42:24.767081 23754 net.cpp:100] Creating Layer conv5_5/dw
I0907 13:42:24.767084 23754 net.cpp:434] conv5_5/dw <- conv5_4/sep
I0907 13:42:24.767091 23754 net.cpp:408] conv5_5/dw -> conv5_5/dw
I0907 13:42:24.767290 23754 net.cpp:150] Setting up conv5_5/dw
I0907 13:42:24.767297 23754 net.cpp:157] Top shape: 16 512 19 19 (2957312)
I0907 13:42:24.767302 23754 net.cpp:165] Memory required for data: 2313199744
I0907 13:42:24.767307 23754 layer_factory.hpp:77] Creating layer conv5_5/dw/bn
I0907 13:42:24.767313 23754 net.cpp:100] Creating Layer conv5_5/dw/bn
I0907 13:42:24.767316 23754 net.cpp:434] conv5_5/dw/bn <- conv5_5/dw
I0907 13:42:24.767324 23754 net.cpp:395] conv5_5/dw/bn -> conv5_5/dw (in-place)
I0907 13:42:24.767504 23754 net.cpp:150] Setting up conv5_5/dw/bn
I0907 13:42:24.767513 23754 net.cpp:157] Top shape: 16 512 19 19 (2957312)
I0907 13:42:24.767516 23754 net.cpp:165] Memory required for data: 2325028992
I0907 13:42:24.767536 23754 layer_factory.hpp:77] Creating layer conv5_5/dw/scale
I0907 13:42:24.767544 23754 net.cpp:100] Creating Layer conv5_5/dw/scale
I0907 13:42:24.767547 23754 net.cpp:434] conv5_5/dw/scale <- conv5_5/dw
I0907 13:42:24.767554 23754 net.cpp:395] conv5_5/dw/scale -> conv5_5/dw (in-place)
I0907 13:42:24.767597 23754 layer_factory.hpp:77] Creating layer conv5_5/dw/scale
I0907 13:42:24.767709 23754 net.cpp:150] Setting up conv5_5/dw/scale
I0907 13:42:24.767716 23754 net.cpp:157] Top shape: 16 512 19 19 (2957312)
I0907 13:42:24.767720 23754 net.cpp:165] Memory required for data: 2336858240
I0907 13:42:24.767726 23754 layer_factory.hpp:77] Creating layer conv5_5/dw_relu
I0907 13:42:24.767732 23754 net.cpp:100] Creating Layer conv5_5/dw_relu
I0907 13:42:24.767736 23754 net.cpp:434] conv5_5/dw_relu <- conv5_5/dw
I0907 13:42:24.767741 23754 net.cpp:395] conv5_5/dw_relu -> conv5_5/dw (in-place)
I0907 13:42:24.767906 23754 net.cpp:150] Setting up conv5_5/dw_relu
I0907 13:42:24.767916 23754 net.cpp:157] Top shape: 16 512 19 19 (2957312)
I0907 13:42:24.767920 23754 net.cpp:165] Memory required for data: 2348687488
I0907 13:42:24.767923 23754 layer_factory.hpp:77] Creating layer conv5_5/sep
I0907 13:42:24.767932 23754 net.cpp:100] Creating Layer conv5_5/sep
I0907 13:42:24.767936 23754 net.cpp:434] conv5_5/sep <- conv5_5/dw
I0907 13:42:24.767943 23754 net.cpp:408] conv5_5/sep -> conv5_5/sep
I0907 13:42:24.771976 23754 net.cpp:150] Setting up conv5_5/sep
I0907 13:42:24.771988 23754 net.cpp:157] Top shape: 16 512 19 19 (2957312)
I0907 13:42:24.771992 23754 net.cpp:165] Memory required for data: 2360516736
I0907 13:42:24.771997 23754 layer_factory.hpp:77] Creating layer conv5_5/sep/bn
I0907 13:42:24.772004 23754 net.cpp:100] Creating Layer conv5_5/sep/bn
I0907 13:42:24.772008 23754 net.cpp:434] conv5_5/sep/bn <- conv5_5/sep
I0907 13:42:24.772014 23754 net.cpp:395] conv5_5/sep/bn -> conv5_5/sep (in-place)
I0907 13:42:24.772188 23754 net.cpp:150] Setting up conv5_5/sep/bn
I0907 13:42:24.772195 23754 net.cpp:157] Top shape: 16 512 19 19 (2957312)
I0907 13:42:24.772207 23754 net.cpp:165] Memory required for data: 2372345984
I0907 13:42:24.772215 23754 layer_factory.hpp:77] Creating layer conv5_5/sep/scale
I0907 13:42:24.772223 23754 net.cpp:100] Creating Layer conv5_5/sep/scale
I0907 13:42:24.772228 23754 net.cpp:434] conv5_5/sep/scale <- conv5_5/sep
I0907 13:42:24.772233 23754 net.cpp:395] conv5_5/sep/scale -> conv5_5/sep (in-place)
I0907 13:42:24.772274 23754 layer_factory.hpp:77] Creating layer conv5_5/sep/scale
I0907 13:42:24.772389 23754 net.cpp:150] Setting up conv5_5/sep/scale
I0907 13:42:24.772397 23754 net.cpp:157] Top shape: 16 512 19 19 (2957312)
I0907 13:42:24.772400 23754 net.cpp:165] Memory required for data: 2384175232
I0907 13:42:24.772406 23754 layer_factory.hpp:77] Creating layer conv5_5/sep_relu
I0907 13:42:24.772411 23754 net.cpp:100] Creating Layer conv5_5/sep_relu
I0907 13:42:24.772415 23754 net.cpp:434] conv5_5/sep_relu <- conv5_5/sep
I0907 13:42:24.772421 23754 net.cpp:395] conv5_5/sep_relu -> conv5_5/sep (in-place)
I0907 13:42:24.773033 23754 net.cpp:150] Setting up conv5_5/sep_relu
I0907 13:42:24.773046 23754 net.cpp:157] Top shape: 16 512 19 19 (2957312)
I0907 13:42:24.773048 23754 net.cpp:165] Memory required for data: 2396004480
I0907 13:42:24.773052 23754 layer_factory.hpp:77] Creating layer conv5_5/sep_conv5_5/sep_relu_0_split
I0907 13:42:24.773059 23754 net.cpp:100] Creating Layer conv5_5/sep_conv5_5/sep_relu_0_split
I0907 13:42:24.773063 23754 net.cpp:434] conv5_5/sep_conv5_5/sep_relu_0_split <- conv5_5/sep
I0907 13:42:24.773071 23754 net.cpp:408] conv5_5/sep_conv5_5/sep_relu_0_split -> conv5_5/sep_conv5_5/sep_relu_0_split_0
I0907 13:42:24.773082 23754 net.cpp:408] conv5_5/sep_conv5_5/sep_relu_0_split -> conv5_5/sep_conv5_5/sep_relu_0_split_1
I0907 13:42:24.773089 23754 net.cpp:408] conv5_5/sep_conv5_5/sep_relu_0_split -> conv5_5/sep_conv5_5/sep_relu_0_split_2
I0907 13:42:24.773095 23754 net.cpp:408] conv5_5/sep_conv5_5/sep_relu_0_split -> conv5_5/sep_conv5_5/sep_relu_0_split_3
I0907 13:42:24.773160 23754 net.cpp:150] Setting up conv5_5/sep_conv5_5/sep_relu_0_split
I0907 13:42:24.773166 23754 net.cpp:157] Top shape: 16 512 19 19 (2957312)
I0907 13:42:24.773171 23754 net.cpp:157] Top shape: 16 512 19 19 (2957312)
I0907 13:42:24.773175 23754 net.cpp:157] Top shape: 16 512 19 19 (2957312)
I0907 13:42:24.773180 23754 net.cpp:157] Top shape: 16 512 19 19 (2957312)
I0907 13:42:24.773183 23754 net.cpp:165] Memory required for data: 2443321472
I0907 13:42:24.773186 23754 layer_factory.hpp:77] Creating layer conv5_6/dw
I0907 13:42:24.773196 23754 net.cpp:100] Creating Layer conv5_6/dw
I0907 13:42:24.773200 23754 net.cpp:434] conv5_6/dw <- conv5_5/sep_conv5_5/sep_relu_0_split_0
I0907 13:42:24.773206 23754 net.cpp:408] conv5_6/dw -> conv5_6/dw
I0907 13:42:24.773437 23754 net.cpp:150] Setting up conv5_6/dw
I0907 13:42:24.773447 23754 net.cpp:157] Top shape: 16 512 10 10 (819200)
I0907 13:42:24.773449 23754 net.cpp:165] Memory required for data: 2446598272
I0907 13:42:24.773453 23754 layer_factory.hpp:77] Creating layer conv5_6/dw/bn
I0907 13:42:24.773458 23754 net.cpp:100] Creating Layer conv5_6/dw/bn
I0907 13:42:24.773463 23754 net.cpp:434] conv5_6/dw/bn <- conv5_6/dw
I0907 13:42:24.773468 23754 net.cpp:395] conv5_6/dw/bn -> conv5_6/dw (in-place)
I0907 13:42:24.773644 23754 net.cpp:150] Setting up conv5_6/dw/bn
I0907 13:42:24.773651 23754 net.cpp:157] Top shape: 16 512 10 10 (819200)
I0907 13:42:24.773654 23754 net.cpp:165] Memory required for data: 2449875072
I0907 13:42:24.773663 23754 layer_factory.hpp:77] Creating layer conv5_6/dw/scale
I0907 13:42:24.773669 23754 net.cpp:100] Creating Layer conv5_6/dw/scale
I0907 13:42:24.773671 23754 net.cpp:434] conv5_6/dw/scale <- conv5_6/dw
I0907 13:42:24.773679 23754 net.cpp:395] conv5_6/dw/scale -> conv5_6/dw (in-place)
I0907 13:42:24.773715 23754 layer_factory.hpp:77] Creating layer conv5_6/dw/scale
I0907 13:42:24.773816 23754 net.cpp:150] Setting up conv5_6/dw/scale
I0907 13:42:24.773823 23754 net.cpp:157] Top shape: 16 512 10 10 (819200)
I0907 13:42:24.773826 23754 net.cpp:165] Memory required for data: 2453151872
I0907 13:42:24.773840 23754 layer_factory.hpp:77] Creating layer conv5_6/dw_relu
I0907 13:42:24.773846 23754 net.cpp:100] Creating Layer conv5_6/dw_relu
I0907 13:42:24.773850 23754 net.cpp:434] conv5_6/dw_relu <- conv5_6/dw
I0907 13:42:24.773854 23754 net.cpp:395] conv5_6/dw_relu -> conv5_6/dw (in-place)
I0907 13:42:24.774468 23754 net.cpp:150] Setting up conv5_6/dw_relu
I0907 13:42:24.774478 23754 net.cpp:157] Top shape: 16 512 10 10 (819200)
I0907 13:42:24.774482 23754 net.cpp:165] Memory required for data: 2456428672
I0907 13:42:24.774484 23754 layer_factory.hpp:77] Creating layer conv5_6/sep
I0907 13:42:24.774503 23754 net.cpp:100] Creating Layer conv5_6/sep
I0907 13:42:24.774509 23754 net.cpp:434] conv5_6/sep <- conv5_6/dw
I0907 13:42:24.774516 23754 net.cpp:408] conv5_6/sep -> conv5_6/sep
I0907 13:42:24.780866 23754 net.cpp:150] Setting up conv5_6/sep
I0907 13:42:24.780879 23754 net.cpp:157] Top shape: 16 1024 10 10 (1638400)
I0907 13:42:24.780882 23754 net.cpp:165] Memory required for data: 2462982272
I0907 13:42:24.780887 23754 layer_factory.hpp:77] Creating layer conv5_6/sep/bn
I0907 13:42:24.780892 23754 net.cpp:100] Creating Layer conv5_6/sep/bn
I0907 13:42:24.780896 23754 net.cpp:434] conv5_6/sep/bn <- conv5_6/sep
I0907 13:42:24.780902 23754 net.cpp:395] conv5_6/sep/bn -> conv5_6/sep (in-place)
I0907 13:42:24.781080 23754 net.cpp:150] Setting up conv5_6/sep/bn
I0907 13:42:24.781090 23754 net.cpp:157] Top shape: 16 1024 10 10 (1638400)
I0907 13:42:24.781095 23754 net.cpp:165] Memory required for data: 2469535872
I0907 13:42:24.781101 23754 layer_factory.hpp:77] Creating layer conv5_6/sep/scale
I0907 13:42:24.781107 23754 net.cpp:100] Creating Layer conv5_6/sep/scale
I0907 13:42:24.781111 23754 net.cpp:434] conv5_6/sep/scale <- conv5_6/sep
I0907 13:42:24.781116 23754 net.cpp:395] conv5_6/sep/scale -> conv5_6/sep (in-place)
I0907 13:42:24.781155 23754 layer_factory.hpp:77] Creating layer conv5_6/sep/scale
I0907 13:42:24.781276 23754 net.cpp:150] Setting up conv5_6/sep/scale
I0907 13:42:24.781286 23754 net.cpp:157] Top shape: 16 1024 10 10 (1638400)
I0907 13:42:24.781288 23754 net.cpp:165] Memory required for data: 2476089472
I0907 13:42:24.781294 23754 layer_factory.hpp:77] Creating layer conv5_6/sep_relu
I0907 13:42:24.781299 23754 net.cpp:100] Creating Layer conv5_6/sep_relu
I0907 13:42:24.781303 23754 net.cpp:434] conv5_6/sep_relu <- conv5_6/sep
I0907 13:42:24.781309 23754 net.cpp:395] conv5_6/sep_relu -> conv5_6/sep (in-place)
I0907 13:42:24.781458 23754 net.cpp:150] Setting up conv5_6/sep_relu
I0907 13:42:24.781477 23754 net.cpp:157] Top shape: 16 1024 10 10 (1638400)
I0907 13:42:24.781482 23754 net.cpp:165] Memory required for data: 2482643072
I0907 13:42:24.781484 23754 layer_factory.hpp:77] Creating layer conv6/dw
I0907 13:42:24.781492 23754 net.cpp:100] Creating Layer conv6/dw
I0907 13:42:24.781497 23754 net.cpp:434] conv6/dw <- conv5_6/sep
I0907 13:42:24.781503 23754 net.cpp:408] conv6/dw -> conv6/dw
I0907 13:42:24.781769 23754 net.cpp:150] Setting up conv6/dw
I0907 13:42:24.781779 23754 net.cpp:157] Top shape: 16 1024 10 10 (1638400)
I0907 13:42:24.781780 23754 net.cpp:165] Memory required for data: 2489196672
I0907 13:42:24.781785 23754 layer_factory.hpp:77] Creating layer conv6/dw/bn
I0907 13:42:24.781788 23754 net.cpp:100] Creating Layer conv6/dw/bn
I0907 13:42:24.781792 23754 net.cpp:434] conv6/dw/bn <- conv6/dw
I0907 13:42:24.781797 23754 net.cpp:395] conv6/dw/bn -> conv6/dw (in-place)
I0907 13:42:24.781965 23754 net.cpp:150] Setting up conv6/dw/bn
I0907 13:42:24.781987 23754 net.cpp:157] Top shape: 16 1024 10 10 (1638400)
I0907 13:42:24.781991 23754 net.cpp:165] Memory required for data: 2495750272
I0907 13:42:24.781997 23754 layer_factory.hpp:77] Creating layer conv6/dw/scale
I0907 13:42:24.782003 23754 net.cpp:100] Creating Layer conv6/dw/scale
I0907 13:42:24.782007 23754 net.cpp:434] conv6/dw/scale <- conv6/dw
I0907 13:42:24.782012 23754 net.cpp:395] conv6/dw/scale -> conv6/dw (in-place)
I0907 13:42:24.782052 23754 layer_factory.hpp:77] Creating layer conv6/dw/scale
I0907 13:42:24.782173 23754 net.cpp:150] Setting up conv6/dw/scale
I0907 13:42:24.782181 23754 net.cpp:157] Top shape: 16 1024 10 10 (1638400)
I0907 13:42:24.782184 23754 net.cpp:165] Memory required for data: 2502303872
I0907 13:42:24.782191 23754 layer_factory.hpp:77] Creating layer conv6/dw_relu
I0907 13:42:24.782196 23754 net.cpp:100] Creating Layer conv6/dw_relu
I0907 13:42:24.782200 23754 net.cpp:434] conv6/dw_relu <- conv6/dw
I0907 13:42:24.782207 23754 net.cpp:395] conv6/dw_relu -> conv6/dw (in-place)
I0907 13:42:24.782836 23754 net.cpp:150] Setting up conv6/dw_relu
I0907 13:42:24.782847 23754 net.cpp:157] Top shape: 16 1024 10 10 (1638400)
I0907 13:42:24.782850 23754 net.cpp:165] Memory required for data: 2508857472
I0907 13:42:24.782852 23754 layer_factory.hpp:77] Creating layer conv6/sep
I0907 13:42:24.782860 23754 net.cpp:100] Creating Layer conv6/sep
I0907 13:42:24.782866 23754 net.cpp:434] conv6/sep <- conv6/dw
I0907 13:42:24.782872 23754 net.cpp:408] conv6/sep -> conv6/sep
I0907 13:42:24.793752 23754 net.cpp:150] Setting up conv6/sep
I0907 13:42:24.793766 23754 net.cpp:157] Top shape: 16 1024 10 10 (1638400)
I0907 13:42:24.793769 23754 net.cpp:165] Memory required for data: 2515411072
I0907 13:42:24.793776 23754 layer_factory.hpp:77] Creating layer conv6/sep/bn
I0907 13:42:24.793781 23754 net.cpp:100] Creating Layer conv6/sep/bn
I0907 13:42:24.793786 23754 net.cpp:434] conv6/sep/bn <- conv6/sep
I0907 13:42:24.793792 23754 net.cpp:395] conv6/sep/bn -> conv6/sep (in-place)
I0907 13:42:24.793972 23754 net.cpp:150] Setting up conv6/sep/bn
I0907 13:42:24.793979 23754 net.cpp:157] Top shape: 16 1024 10 10 (1638400)
I0907 13:42:24.793982 23754 net.cpp:165] Memory required for data: 2521964672
I0907 13:42:24.793989 23754 layer_factory.hpp:77] Creating layer conv6/sep/scale
I0907 13:42:24.793995 23754 net.cpp:100] Creating Layer conv6/sep/scale
I0907 13:42:24.793999 23754 net.cpp:434] conv6/sep/scale <- conv6/sep
I0907 13:42:24.794005 23754 net.cpp:395] conv6/sep/scale -> conv6/sep (in-place)
I0907 13:42:24.794042 23754 layer_factory.hpp:77] Creating layer conv6/sep/scale
I0907 13:42:24.794164 23754 net.cpp:150] Setting up conv6/sep/scale
I0907 13:42:24.794173 23754 net.cpp:157] Top shape: 16 1024 10 10 (1638400)
I0907 13:42:24.794175 23754 net.cpp:165] Memory required for data: 2528518272
I0907 13:42:24.794181 23754 layer_factory.hpp:77] Creating layer conv6/sep_relu
I0907 13:42:24.794188 23754 net.cpp:100] Creating Layer conv6/sep_relu
I0907 13:42:24.794191 23754 net.cpp:434] conv6/sep_relu <- conv6/sep
I0907 13:42:24.794195 23754 net.cpp:395] conv6/sep_relu -> conv6/sep (in-place)
I0907 13:42:24.794400 23754 net.cpp:150] Setting up conv6/sep_relu
I0907 13:42:24.794410 23754 net.cpp:157] Top shape: 16 1024 10 10 (1638400)
I0907 13:42:24.794414 23754 net.cpp:165] Memory required for data: 2535071872
I0907 13:42:24.794419 23754 layer_factory.hpp:77] Creating layer conv6/sep_conv6/sep_relu_0_split
I0907 13:42:24.794426 23754 net.cpp:100] Creating Layer conv6/sep_conv6/sep_relu_0_split
I0907 13:42:24.794431 23754 net.cpp:434] conv6/sep_conv6/sep_relu_0_split <- conv6/sep
I0907 13:42:24.794436 23754 net.cpp:408] conv6/sep_conv6/sep_relu_0_split -> conv6/sep_conv6/sep_relu_0_split_0
I0907 13:42:24.794445 23754 net.cpp:408] conv6/sep_conv6/sep_relu_0_split -> conv6/sep_conv6/sep_relu_0_split_1
I0907 13:42:24.794450 23754 net.cpp:408] conv6/sep_conv6/sep_relu_0_split -> conv6/sep_conv6/sep_relu_0_split_2
I0907 13:42:24.794456 23754 net.cpp:408] conv6/sep_conv6/sep_relu_0_split -> conv6/sep_conv6/sep_relu_0_split_3
I0907 13:42:24.794519 23754 net.cpp:150] Setting up conv6/sep_conv6/sep_relu_0_split
I0907 13:42:24.794528 23754 net.cpp:157] Top shape: 16 1024 10 10 (1638400)
I0907 13:42:24.794531 23754 net.cpp:157] Top shape: 16 1024 10 10 (1638400)
I0907 13:42:24.794535 23754 net.cpp:157] Top shape: 16 1024 10 10 (1638400)
I0907 13:42:24.794539 23754 net.cpp:157] Top shape: 16 1024 10 10 (1638400)
I0907 13:42:24.794543 23754 net.cpp:165] Memory required for data: 2561286272
I0907 13:42:24.794546 23754 layer_factory.hpp:77] Creating layer conv7_1
I0907 13:42:24.794575 23754 net.cpp:100] Creating Layer conv7_1
I0907 13:42:24.794580 23754 net.cpp:434] conv7_1 <- conv6/sep_conv6/sep_relu_0_split_0
I0907 13:42:24.794586 23754 net.cpp:408] conv7_1 -> conv7_1
I0907 13:42:24.797755 23754 net.cpp:150] Setting up conv7_1
I0907 13:42:24.797766 23754 net.cpp:157] Top shape: 16 256 10 10 (409600)
I0907 13:42:24.797770 23754 net.cpp:165] Memory required for data: 2562924672
I0907 13:42:24.797777 23754 layer_factory.hpp:77] Creating layer conv7_1_relu
I0907 13:42:24.797785 23754 net.cpp:100] Creating Layer conv7_1_relu
I0907 13:42:24.797788 23754 net.cpp:434] conv7_1_relu <- conv7_1
I0907 13:42:24.797793 23754 net.cpp:395] conv7_1_relu -> conv7_1 (in-place)
I0907 13:42:24.798400 23754 net.cpp:150] Setting up conv7_1_relu
I0907 13:42:24.798411 23754 net.cpp:157] Top shape: 16 256 10 10 (409600)
I0907 13:42:24.798415 23754 net.cpp:165] Memory required for data: 2564563072
I0907 13:42:24.798418 23754 layer_factory.hpp:77] Creating layer conv7_2
I0907 13:42:24.798429 23754 net.cpp:100] Creating Layer conv7_2
I0907 13:42:24.798432 23754 net.cpp:434] conv7_2 <- conv7_1
I0907 13:42:24.798439 23754 net.cpp:408] conv7_2 -> conv7_2
I0907 13:42:24.805953 23754 net.cpp:150] Setting up conv7_2
I0907 13:42:24.805965 23754 net.cpp:157] Top shape: 16 512 5 5 (204800)
I0907 13:42:24.805969 23754 net.cpp:165] Memory required for data: 2565382272
I0907 13:42:24.805976 23754 layer_factory.hpp:77] Creating layer conv7_2_relu
I0907 13:42:24.805982 23754 net.cpp:100] Creating Layer conv7_2_relu
I0907 13:42:24.805987 23754 net.cpp:434] conv7_2_relu <- conv7_2
I0907 13:42:24.805994 23754 net.cpp:395] conv7_2_relu -> conv7_2 (in-place)
I0907 13:42:24.806596 23754 net.cpp:150] Setting up conv7_2_relu
I0907 13:42:24.806608 23754 net.cpp:157] Top shape: 16 512 5 5 (204800)
I0907 13:42:24.806612 23754 net.cpp:165] Memory required for data: 2566201472
I0907 13:42:24.806615 23754 layer_factory.hpp:77] Creating layer conv7_2_conv7_2_relu_0_split
I0907 13:42:24.806623 23754 net.cpp:100] Creating Layer conv7_2_conv7_2_relu_0_split
I0907 13:42:24.806627 23754 net.cpp:434] conv7_2_conv7_2_relu_0_split <- conv7_2
I0907 13:42:24.806633 23754 net.cpp:408] conv7_2_conv7_2_relu_0_split -> conv7_2_conv7_2_relu_0_split_0
I0907 13:42:24.806641 23754 net.cpp:408] conv7_2_conv7_2_relu_0_split -> conv7_2_conv7_2_relu_0_split_1
I0907 13:42:24.806648 23754 net.cpp:408] conv7_2_conv7_2_relu_0_split -> conv7_2_conv7_2_relu_0_split_2
I0907 13:42:24.806653 23754 net.cpp:408] conv7_2_conv7_2_relu_0_split -> conv7_2_conv7_2_relu_0_split_3
I0907 13:42:24.806721 23754 net.cpp:150] Setting up conv7_2_conv7_2_relu_0_split
I0907 13:42:24.806727 23754 net.cpp:157] Top shape: 16 512 5 5 (204800)
I0907 13:42:24.806732 23754 net.cpp:157] Top shape: 16 512 5 5 (204800)
I0907 13:42:24.806736 23754 net.cpp:157] Top shape: 16 512 5 5 (204800)
I0907 13:42:24.806740 23754 net.cpp:157] Top shape: 16 512 5 5 (204800)
I0907 13:42:24.806743 23754 net.cpp:165] Memory required for data: 2569478272
I0907 13:42:24.806746 23754 layer_factory.hpp:77] Creating layer conv8_1
I0907 13:42:24.806757 23754 net.cpp:100] Creating Layer conv8_1
I0907 13:42:24.806761 23754 net.cpp:434] conv8_1 <- conv7_2_conv7_2_relu_0_split_0
I0907 13:42:24.806767 23754 net.cpp:408] conv8_1 -> conv8_1
I0907 13:42:24.808686 23754 net.cpp:150] Setting up conv8_1
I0907 13:42:24.808697 23754 net.cpp:157] Top shape: 16 128 5 5 (51200)
I0907 13:42:24.808701 23754 net.cpp:165] Memory required for data: 2569683072
I0907 13:42:24.808708 23754 layer_factory.hpp:77] Creating layer conv8_1_relu
I0907 13:42:24.808715 23754 net.cpp:100] Creating Layer conv8_1_relu
I0907 13:42:24.808720 23754 net.cpp:434] conv8_1_relu <- conv8_1
I0907 13:42:24.808725 23754 net.cpp:395] conv8_1_relu -> conv8_1 (in-place)
I0907 13:42:24.808879 23754 net.cpp:150] Setting up conv8_1_relu
I0907 13:42:24.808887 23754 net.cpp:157] Top shape: 16 128 5 5 (51200)
I0907 13:42:24.808892 23754 net.cpp:165] Memory required for data: 2569887872
I0907 13:42:24.808895 23754 layer_factory.hpp:77] Creating layer conv8_2
I0907 13:42:24.808917 23754 net.cpp:100] Creating Layer conv8_2
I0907 13:42:24.808921 23754 net.cpp:434] conv8_2 <- conv8_1
I0907 13:42:24.808931 23754 net.cpp:408] conv8_2 -> conv8_2
I0907 13:42:24.812294 23754 net.cpp:150] Setting up conv8_2
I0907 13:42:24.812307 23754 net.cpp:157] Top shape: 16 256 3 3 (36864)
I0907 13:42:24.812310 23754 net.cpp:165] Memory required for data: 2570035328
I0907 13:42:24.812317 23754 layer_factory.hpp:77] Creating layer conv8_2_relu
I0907 13:42:24.812324 23754 net.cpp:100] Creating Layer conv8_2_relu
I0907 13:42:24.812327 23754 net.cpp:434] conv8_2_relu <- conv8_2
I0907 13:42:24.812335 23754 net.cpp:395] conv8_2_relu -> conv8_2 (in-place)
I0907 13:42:24.812939 23754 net.cpp:150] Setting up conv8_2_relu
I0907 13:42:24.812950 23754 net.cpp:157] Top shape: 16 256 3 3 (36864)
I0907 13:42:24.812953 23754 net.cpp:165] Memory required for data: 2570182784
I0907 13:42:24.812955 23754 layer_factory.hpp:77] Creating layer conv8_2_conv8_2_relu_0_split
I0907 13:42:24.812963 23754 net.cpp:100] Creating Layer conv8_2_conv8_2_relu_0_split
I0907 13:42:24.812965 23754 net.cpp:434] conv8_2_conv8_2_relu_0_split <- conv8_2
I0907 13:42:24.812970 23754 net.cpp:408] conv8_2_conv8_2_relu_0_split -> conv8_2_conv8_2_relu_0_split_0
I0907 13:42:24.812978 23754 net.cpp:408] conv8_2_conv8_2_relu_0_split -> conv8_2_conv8_2_relu_0_split_1
I0907 13:42:24.812983 23754 net.cpp:408] conv8_2_conv8_2_relu_0_split -> conv8_2_conv8_2_relu_0_split_2
I0907 13:42:24.812989 23754 net.cpp:408] conv8_2_conv8_2_relu_0_split -> conv8_2_conv8_2_relu_0_split_3
I0907 13:42:24.813057 23754 net.cpp:150] Setting up conv8_2_conv8_2_relu_0_split
I0907 13:42:24.813063 23754 net.cpp:157] Top shape: 16 256 3 3 (36864)
I0907 13:42:24.813071 23754 net.cpp:157] Top shape: 16 256 3 3 (36864)
I0907 13:42:24.813076 23754 net.cpp:157] Top shape: 16 256 3 3 (36864)
I0907 13:42:24.813079 23754 net.cpp:157] Top shape: 16 256 3 3 (36864)
I0907 13:42:24.813086 23754 net.cpp:165] Memory required for data: 2570772608
I0907 13:42:24.813088 23754 layer_factory.hpp:77] Creating layer conv9_1
I0907 13:42:24.813099 23754 net.cpp:100] Creating Layer conv9_1
I0907 13:42:24.813104 23754 net.cpp:434] conv9_1 <- conv8_2_conv8_2_relu_0_split_0
I0907 13:42:24.813112 23754 net.cpp:408] conv9_1 -> conv9_1
I0907 13:42:24.814440 23754 net.cpp:150] Setting up conv9_1
I0907 13:42:24.814450 23754 net.cpp:157] Top shape: 16 128 3 3 (18432)
I0907 13:42:24.814455 23754 net.cpp:165] Memory required for data: 2570846336
I0907 13:42:24.814461 23754 layer_factory.hpp:77] Creating layer conv9_1_relu
I0907 13:42:24.814467 23754 net.cpp:100] Creating Layer conv9_1_relu
I0907 13:42:24.814471 23754 net.cpp:434] conv9_1_relu <- conv9_1
I0907 13:42:24.814477 23754 net.cpp:395] conv9_1_relu -> conv9_1 (in-place)
I0907 13:42:24.815076 23754 net.cpp:150] Setting up conv9_1_relu
I0907 13:42:24.815088 23754 net.cpp:157] Top shape: 16 128 3 3 (18432)
I0907 13:42:24.815090 23754 net.cpp:165] Memory required for data: 2570920064
I0907 13:42:24.815093 23754 layer_factory.hpp:77] Creating layer conv9_2
I0907 13:42:24.815102 23754 net.cpp:100] Creating Layer conv9_2
I0907 13:42:24.815105 23754 net.cpp:434] conv9_2 <- conv9_1
I0907 13:42:24.815111 23754 net.cpp:408] conv9_2 -> conv9_2
I0907 13:42:24.818876 23754 net.cpp:150] Setting up conv9_2
I0907 13:42:24.818888 23754 net.cpp:157] Top shape: 16 256 2 2 (16384)
I0907 13:42:24.818892 23754 net.cpp:165] Memory required for data: 2570985600
I0907 13:42:24.818897 23754 layer_factory.hpp:77] Creating layer conv9_2_relu
I0907 13:42:24.818902 23754 net.cpp:100] Creating Layer conv9_2_relu
I0907 13:42:24.818904 23754 net.cpp:434] conv9_2_relu <- conv9_2
I0907 13:42:24.818909 23754 net.cpp:395] conv9_2_relu -> conv9_2 (in-place)
I0907 13:42:24.819068 23754 net.cpp:150] Setting up conv9_2_relu
I0907 13:42:24.819077 23754 net.cpp:157] Top shape: 16 256 2 2 (16384)
I0907 13:42:24.819080 23754 net.cpp:165] Memory required for data: 2571051136
I0907 13:42:24.819083 23754 layer_factory.hpp:77] Creating layer conv9_2_conv9_2_relu_0_split
I0907 13:42:24.819092 23754 net.cpp:100] Creating Layer conv9_2_conv9_2_relu_0_split
I0907 13:42:24.819104 23754 net.cpp:434] conv9_2_conv9_2_relu_0_split <- conv9_2
I0907 13:42:24.819113 23754 net.cpp:408] conv9_2_conv9_2_relu_0_split -> conv9_2_conv9_2_relu_0_split_0
I0907 13:42:24.819119 23754 net.cpp:408] conv9_2_conv9_2_relu_0_split -> conv9_2_conv9_2_relu_0_split_1
I0907 13:42:24.819126 23754 net.cpp:408] conv9_2_conv9_2_relu_0_split -> conv9_2_conv9_2_relu_0_split_2
I0907 13:42:24.819131 23754 net.cpp:408] conv9_2_conv9_2_relu_0_split -> conv9_2_conv9_2_relu_0_split_3
I0907 13:42:24.819201 23754 net.cpp:150] Setting up conv9_2_conv9_2_relu_0_split
I0907 13:42:24.819208 23754 net.cpp:157] Top shape: 16 256 2 2 (16384)
I0907 13:42:24.819212 23754 net.cpp:157] Top shape: 16 256 2 2 (16384)
I0907 13:42:24.819216 23754 net.cpp:157] Top shape: 16 256 2 2 (16384)
I0907 13:42:24.819221 23754 net.cpp:157] Top shape: 16 256 2 2 (16384)
I0907 13:42:24.819224 23754 net.cpp:165] Memory required for data: 2571313280
I0907 13:42:24.819227 23754 layer_factory.hpp:77] Creating layer conv10_1
I0907 13:42:24.819237 23754 net.cpp:100] Creating Layer conv10_1
I0907 13:42:24.819247 23754 net.cpp:434] conv10_1 <- conv9_2_conv9_2_relu_0_split_0
I0907 13:42:24.819254 23754 net.cpp:408] conv10_1 -> conv10_1
I0907 13:42:24.821039 23754 net.cpp:150] Setting up conv10_1
I0907 13:42:24.821051 23754 net.cpp:157] Top shape: 16 128 2 2 (8192)
I0907 13:42:24.821055 23754 net.cpp:165] Memory required for data: 2571346048
I0907 13:42:24.821063 23754 layer_factory.hpp:77] Creating layer conv10_1_relu
I0907 13:42:24.821081 23754 net.cpp:100] Creating Layer conv10_1_relu
I0907 13:42:24.821086 23754 net.cpp:434] conv10_1_relu <- conv10_1
I0907 13:42:24.821091 23754 net.cpp:395] conv10_1_relu -> conv10_1 (in-place)
I0907 13:42:24.821708 23754 net.cpp:150] Setting up conv10_1_relu
I0907 13:42:24.821719 23754 net.cpp:157] Top shape: 16 128 2 2 (8192)
I0907 13:42:24.821723 23754 net.cpp:165] Memory required for data: 2571378816
I0907 13:42:24.821727 23754 layer_factory.hpp:77] Creating layer conv10_2
I0907 13:42:24.821737 23754 net.cpp:100] Creating Layer conv10_2
I0907 13:42:24.821740 23754 net.cpp:434] conv10_2 <- conv10_1
I0907 13:42:24.821748 23754 net.cpp:408] conv10_2 -> conv10_2
I0907 13:42:24.824666 23754 net.cpp:150] Setting up conv10_2
I0907 13:42:24.824677 23754 net.cpp:157] Top shape: 16 256 1 1 (4096)
I0907 13:42:24.824681 23754 net.cpp:165] Memory required for data: 2571395200
I0907 13:42:24.824687 23754 layer_factory.hpp:77] Creating layer conv10_2_relu
I0907 13:42:24.824694 23754 net.cpp:100] Creating Layer conv10_2_relu
I0907 13:42:24.824698 23754 net.cpp:434] conv10_2_relu <- conv10_2
I0907 13:42:24.824704 23754 net.cpp:395] conv10_2_relu -> conv10_2 (in-place)
I0907 13:42:24.825306 23754 net.cpp:150] Setting up conv10_2_relu
I0907 13:42:24.825317 23754 net.cpp:157] Top shape: 16 256 1 1 (4096)
I0907 13:42:24.825320 23754 net.cpp:165] Memory required for data: 2571411584
I0907 13:42:24.825325 23754 layer_factory.hpp:77] Creating layer conv10_2_conv10_2_relu_0_split
I0907 13:42:24.825332 23754 net.cpp:100] Creating Layer conv10_2_conv10_2_relu_0_split
I0907 13:42:24.825336 23754 net.cpp:434] conv10_2_conv10_2_relu_0_split <- conv10_2
I0907 13:42:24.825342 23754 net.cpp:408] conv10_2_conv10_2_relu_0_split -> conv10_2_conv10_2_relu_0_split_0
I0907 13:42:24.825359 23754 net.cpp:408] conv10_2_conv10_2_relu_0_split -> conv10_2_conv10_2_relu_0_split_1
I0907 13:42:24.825366 23754 net.cpp:408] conv10_2_conv10_2_relu_0_split -> conv10_2_conv10_2_relu_0_split_2
I0907 13:42:24.825424 23754 net.cpp:150] Setting up conv10_2_conv10_2_relu_0_split
I0907 13:42:24.825431 23754 net.cpp:157] Top shape: 16 256 1 1 (4096)
I0907 13:42:24.825435 23754 net.cpp:157] Top shape: 16 256 1 1 (4096)
I0907 13:42:24.825439 23754 net.cpp:157] Top shape: 16 256 1 1 (4096)
I0907 13:42:24.825443 23754 net.cpp:165] Memory required for data: 2571460736
I0907 13:42:24.825448 23754 layer_factory.hpp:77] Creating layer conv5_5/sep_mbox_loc
I0907 13:42:24.825458 23754 net.cpp:100] Creating Layer conv5_5/sep_mbox_loc
I0907 13:42:24.825471 23754 net.cpp:434] conv5_5/sep_mbox_loc <- conv5_5/sep_conv5_5/sep_relu_0_split_1
I0907 13:42:24.825479 23754 net.cpp:408] conv5_5/sep_mbox_loc -> conv5_5/sep_mbox_loc
I0907 13:42:24.827797 23754 net.cpp:150] Setting up conv5_5/sep_mbox_loc
I0907 13:42:24.827808 23754 net.cpp:157] Top shape: 16 12 19 19 (69312)
I0907 13:42:24.827812 23754 net.cpp:165] Memory required for data: 2571737984
I0907 13:42:24.827819 23754 layer_factory.hpp:77] Creating layer conv5_5/sep_mbox_loc_perm
I0907 13:42:24.827829 23754 net.cpp:100] Creating Layer conv5_5/sep_mbox_loc_perm
I0907 13:42:24.827834 23754 net.cpp:434] conv5_5/sep_mbox_loc_perm <- conv5_5/sep_mbox_loc
I0907 13:42:24.827841 23754 net.cpp:408] conv5_5/sep_mbox_loc_perm -> conv5_5/sep_mbox_loc_perm
I0907 13:42:24.827950 23754 net.cpp:150] Setting up conv5_5/sep_mbox_loc_perm
I0907 13:42:24.827956 23754 net.cpp:157] Top shape: 16 19 19 12 (69312)
I0907 13:42:24.827960 23754 net.cpp:165] Memory required for data: 2572015232
I0907 13:42:24.827963 23754 layer_factory.hpp:77] Creating layer conv5_5/sep_mbox_loc_flat
I0907 13:42:24.827971 23754 net.cpp:100] Creating Layer conv5_5/sep_mbox_loc_flat
I0907 13:42:24.827975 23754 net.cpp:434] conv5_5/sep_mbox_loc_flat <- conv5_5/sep_mbox_loc_perm
I0907 13:42:24.827981 23754 net.cpp:408] conv5_5/sep_mbox_loc_flat -> conv5_5/sep_mbox_loc_flat
I0907 13:42:24.828011 23754 net.cpp:150] Setting up conv5_5/sep_mbox_loc_flat
I0907 13:42:24.828016 23754 net.cpp:157] Top shape: 16 4332 (69312)
I0907 13:42:24.828019 23754 net.cpp:165] Memory required for data: 2572292480
I0907 13:42:24.828022 23754 layer_factory.hpp:77] Creating layer conv5_5/sep_mbox_conf
I0907 13:42:24.828034 23754 net.cpp:100] Creating Layer conv5_5/sep_mbox_conf
I0907 13:42:24.828039 23754 net.cpp:434] conv5_5/sep_mbox_conf <- conv5_5/sep_conv5_5/sep_relu_0_split_2
I0907 13:42:24.828045 23754 net.cpp:408] conv5_5/sep_mbox_conf -> conv5_5/sep_mbox_conf
I0907 13:42:24.830768 23754 net.cpp:150] Setting up conv5_5/sep_mbox_conf
I0907 13:42:24.830780 23754 net.cpp:157] Top shape: 16 12 19 19 (69312)
I0907 13:42:24.830785 23754 net.cpp:165] Memory required for data: 2572569728
I0907 13:42:24.830790 23754 layer_factory.hpp:77] Creating layer conv5_5/sep_mbox_conf_perm
I0907 13:42:24.830799 23754 net.cpp:100] Creating Layer conv5_5/sep_mbox_conf_perm
I0907 13:42:24.830803 23754 net.cpp:434] conv5_5/sep_mbox_conf_perm <- conv5_5/sep_mbox_conf
I0907 13:42:24.830809 23754 net.cpp:408] conv5_5/sep_mbox_conf_perm -> conv5_5/sep_mbox_conf_perm
I0907 13:42:24.830914 23754 net.cpp:150] Setting up conv5_5/sep_mbox_conf_perm
I0907 13:42:24.830921 23754 net.cpp:157] Top shape: 16 19 19 12 (69312)
I0907 13:42:24.830925 23754 net.cpp:165] Memory required for data: 2572846976
I0907 13:42:24.830929 23754 layer_factory.hpp:77] Creating layer conv5_5/sep_mbox_conf_flat
I0907 13:42:24.830936 23754 net.cpp:100] Creating Layer conv5_5/sep_mbox_conf_flat
I0907 13:42:24.830940 23754 net.cpp:434] conv5_5/sep_mbox_conf_flat <- conv5_5/sep_mbox_conf_perm
I0907 13:42:24.830945 23754 net.cpp:408] conv5_5/sep_mbox_conf_flat -> conv5_5/sep_mbox_conf_flat
I0907 13:42:24.830972 23754 net.cpp:150] Setting up conv5_5/sep_mbox_conf_flat
I0907 13:42:24.830977 23754 net.cpp:157] Top shape: 16 4332 (69312)
I0907 13:42:24.830981 23754 net.cpp:165] Memory required for data: 2573124224
I0907 13:42:24.830984 23754 layer_factory.hpp:77] Creating layer conv5_5/sep_mbox_priorbox
I0907 13:42:24.830994 23754 net.cpp:100] Creating Layer conv5_5/sep_mbox_priorbox
I0907 13:42:24.830998 23754 net.cpp:434] conv5_5/sep_mbox_priorbox <- conv5_5/sep_conv5_5/sep_relu_0_split_3
I0907 13:42:24.831003 23754 net.cpp:434] conv5_5/sep_mbox_priorbox <- data_data_0_split_1
I0907 13:42:24.831009 23754 net.cpp:408] conv5_5/sep_mbox_priorbox -> conv5_5/sep_mbox_priorbox
I0907 13:42:24.831040 23754 net.cpp:150] Setting up conv5_5/sep_mbox_priorbox
I0907 13:42:24.831046 23754 net.cpp:157] Top shape: 1 2 4332 (8664)
I0907 13:42:24.831049 23754 net.cpp:165] Memory required for data: 2573158880
I0907 13:42:24.831053 23754 layer_factory.hpp:77] Creating layer conv6/sep_mbox_loc
I0907 13:42:24.831073 23754 net.cpp:100] Creating Layer conv6/sep_mbox_loc
I0907 13:42:24.831077 23754 net.cpp:434] conv6/sep_mbox_loc <- conv6/sep_conv6/sep_relu_0_split_1
I0907 13:42:24.831084 23754 net.cpp:408] conv6/sep_mbox_loc -> conv6/sep_mbox_loc
I0907 13:42:24.834116 23754 net.cpp:150] Setting up conv6/sep_mbox_loc
I0907 13:42:24.834130 23754 net.cpp:157] Top shape: 16 24 10 10 (38400)
I0907 13:42:24.834133 23754 net.cpp:165] Memory required for data: 2573312480
I0907 13:42:24.834141 23754 layer_factory.hpp:77] Creating layer conv6/sep_mbox_loc_perm
I0907 13:42:24.834148 23754 net.cpp:100] Creating Layer conv6/sep_mbox_loc_perm
I0907 13:42:24.834152 23754 net.cpp:434] conv6/sep_mbox_loc_perm <- conv6/sep_mbox_loc
I0907 13:42:24.834158 23754 net.cpp:408] conv6/sep_mbox_loc_perm -> conv6/sep_mbox_loc_perm
I0907 13:42:24.834267 23754 net.cpp:150] Setting up conv6/sep_mbox_loc_perm
I0907 13:42:24.834275 23754 net.cpp:157] Top shape: 16 10 10 24 (38400)
I0907 13:42:24.834278 23754 net.cpp:165] Memory required for data: 2573466080
I0907 13:42:24.834281 23754 layer_factory.hpp:77] Creating layer conv6/sep_mbox_loc_flat
I0907 13:42:24.834290 23754 net.cpp:100] Creating Layer conv6/sep_mbox_loc_flat
I0907 13:42:24.834293 23754 net.cpp:434] conv6/sep_mbox_loc_flat <- conv6/sep_mbox_loc_perm
I0907 13:42:24.834303 23754 net.cpp:408] conv6/sep_mbox_loc_flat -> conv6/sep_mbox_loc_flat
I0907 13:42:24.834365 23754 net.cpp:150] Setting up conv6/sep_mbox_loc_flat
I0907 13:42:24.834372 23754 net.cpp:157] Top shape: 16 2400 (38400)
I0907 13:42:24.834374 23754 net.cpp:165] Memory required for data: 2573619680
I0907 13:42:24.834378 23754 layer_factory.hpp:77] Creating layer conv6/sep_mbox_conf
I0907 13:42:24.834385 23754 net.cpp:100] Creating Layer conv6/sep_mbox_conf
I0907 13:42:24.834401 23754 net.cpp:434] conv6/sep_mbox_conf <- conv6/sep_conv6/sep_relu_0_split_2
I0907 13:42:24.834410 23754 net.cpp:408] conv6/sep_mbox_conf -> conv6/sep_mbox_conf
I0907 13:42:24.837860 23754 net.cpp:150] Setting up conv6/sep_mbox_conf
I0907 13:42:24.837872 23754 net.cpp:157] Top shape: 16 24 10 10 (38400)
I0907 13:42:24.837877 23754 net.cpp:165] Memory required for data: 2573773280
I0907 13:42:24.837883 23754 layer_factory.hpp:77] Creating layer conv6/sep_mbox_conf_perm
I0907 13:42:24.837891 23754 net.cpp:100] Creating Layer conv6/sep_mbox_conf_perm
I0907 13:42:24.837895 23754 net.cpp:434] conv6/sep_mbox_conf_perm <- conv6/sep_mbox_conf
I0907 13:42:24.837901 23754 net.cpp:408] conv6/sep_mbox_conf_perm -> conv6/sep_mbox_conf_perm
I0907 13:42:24.838009 23754 net.cpp:150] Setting up conv6/sep_mbox_conf_perm
I0907 13:42:24.838016 23754 net.cpp:157] Top shape: 16 10 10 24 (38400)
I0907 13:42:24.838019 23754 net.cpp:165] Memory required for data: 2573926880
I0907 13:42:24.838023 23754 layer_factory.hpp:77] Creating layer conv6/sep_mbox_conf_flat
I0907 13:42:24.838032 23754 net.cpp:100] Creating Layer conv6/sep_mbox_conf_flat
I0907 13:42:24.838037 23754 net.cpp:434] conv6/sep_mbox_conf_flat <- conv6/sep_mbox_conf_perm
I0907 13:42:24.838042 23754 net.cpp:408] conv6/sep_mbox_conf_flat -> conv6/sep_mbox_conf_flat
I0907 13:42:24.838069 23754 net.cpp:150] Setting up conv6/sep_mbox_conf_flat
I0907 13:42:24.838075 23754 net.cpp:157] Top shape: 16 2400 (38400)
I0907 13:42:24.838078 23754 net.cpp:165] Memory required for data: 2574080480
I0907 13:42:24.838083 23754 layer_factory.hpp:77] Creating layer conv6/sep_mbox_priorbox
I0907 13:42:24.838089 23754 net.cpp:100] Creating Layer conv6/sep_mbox_priorbox
I0907 13:42:24.838093 23754 net.cpp:434] conv6/sep_mbox_priorbox <- conv6/sep_conv6/sep_relu_0_split_3
I0907 13:42:24.838099 23754 net.cpp:434] conv6/sep_mbox_priorbox <- data_data_0_split_2
I0907 13:42:24.838105 23754 net.cpp:408] conv6/sep_mbox_priorbox -> conv6/sep_mbox_priorbox
I0907 13:42:24.838132 23754 net.cpp:150] Setting up conv6/sep_mbox_priorbox
I0907 13:42:24.838138 23754 net.cpp:157] Top shape: 1 2 2400 (4800)
I0907 13:42:24.838141 23754 net.cpp:165] Memory required for data: 2574099680
I0907 13:42:24.838155 23754 layer_factory.hpp:77] Creating layer conv7_2_mbox_loc
I0907 13:42:24.838165 23754 net.cpp:100] Creating Layer conv7_2_mbox_loc
I0907 13:42:24.838171 23754 net.cpp:434] conv7_2_mbox_loc <- conv7_2_conv7_2_relu_0_split_1
I0907 13:42:24.838176 23754 net.cpp:408] conv7_2_mbox_loc -> conv7_2_mbox_loc
I0907 13:42:24.840796 23754 net.cpp:150] Setting up conv7_2_mbox_loc
I0907 13:42:24.840808 23754 net.cpp:157] Top shape: 16 24 5 5 (9600)
I0907 13:42:24.840812 23754 net.cpp:165] Memory required for data: 2574138080
I0907 13:42:24.840818 23754 layer_factory.hpp:77] Creating layer conv7_2_mbox_loc_perm
I0907 13:42:24.840827 23754 net.cpp:100] Creating Layer conv7_2_mbox_loc_perm
I0907 13:42:24.840832 23754 net.cpp:434] conv7_2_mbox_loc_perm <- conv7_2_mbox_loc
I0907 13:42:24.840839 23754 net.cpp:408] conv7_2_mbox_loc_perm -> conv7_2_mbox_loc_perm
I0907 13:42:24.840947 23754 net.cpp:150] Setting up conv7_2_mbox_loc_perm
I0907 13:42:24.840955 23754 net.cpp:157] Top shape: 16 5 5 24 (9600)
I0907 13:42:24.840957 23754 net.cpp:165] Memory required for data: 2574176480
I0907 13:42:24.840961 23754 layer_factory.hpp:77] Creating layer conv7_2_mbox_loc_flat
I0907 13:42:24.840966 23754 net.cpp:100] Creating Layer conv7_2_mbox_loc_flat
I0907 13:42:24.840970 23754 net.cpp:434] conv7_2_mbox_loc_flat <- conv7_2_mbox_loc_perm
I0907 13:42:24.840976 23754 net.cpp:408] conv7_2_mbox_loc_flat -> conv7_2_mbox_loc_flat
I0907 13:42:24.841003 23754 net.cpp:150] Setting up conv7_2_mbox_loc_flat
I0907 13:42:24.841009 23754 net.cpp:157] Top shape: 16 600 (9600)
I0907 13:42:24.841012 23754 net.cpp:165] Memory required for data: 2574214880
I0907 13:42:24.841017 23754 layer_factory.hpp:77] Creating layer conv7_2_mbox_conf
I0907 13:42:24.841025 23754 net.cpp:100] Creating Layer conv7_2_mbox_conf
I0907 13:42:24.841030 23754 net.cpp:434] conv7_2_mbox_conf <- conv7_2_conv7_2_relu_0_split_2
I0907 13:42:24.841037 23754 net.cpp:408] conv7_2_mbox_conf -> conv7_2_mbox_conf
I0907 13:42:24.844045 23754 net.cpp:150] Setting up conv7_2_mbox_conf
I0907 13:42:24.844058 23754 net.cpp:157] Top shape: 16 24 5 5 (9600)
I0907 13:42:24.844063 23754 net.cpp:165] Memory required for data: 2574253280
I0907 13:42:24.844069 23754 layer_factory.hpp:77] Creating layer conv7_2_mbox_conf_perm
I0907 13:42:24.844076 23754 net.cpp:100] Creating Layer conv7_2_mbox_conf_perm
I0907 13:42:24.844081 23754 net.cpp:434] conv7_2_mbox_conf_perm <- conv7_2_mbox_conf
I0907 13:42:24.844087 23754 net.cpp:408] conv7_2_mbox_conf_perm -> conv7_2_mbox_conf_perm
I0907 13:42:24.844198 23754 net.cpp:150] Setting up conv7_2_mbox_conf_perm
I0907 13:42:24.844205 23754 net.cpp:157] Top shape: 16 5 5 24 (9600)
I0907 13:42:24.844208 23754 net.cpp:165] Memory required for data: 2574291680
I0907 13:42:24.844213 23754 layer_factory.hpp:77] Creating layer conv7_2_mbox_conf_flat
I0907 13:42:24.844218 23754 net.cpp:100] Creating Layer conv7_2_mbox_conf_flat
I0907 13:42:24.844223 23754 net.cpp:434] conv7_2_mbox_conf_flat <- conv7_2_mbox_conf_perm
I0907 13:42:24.844228 23754 net.cpp:408] conv7_2_mbox_conf_flat -> conv7_2_mbox_conf_flat
I0907 13:42:24.844255 23754 net.cpp:150] Setting up conv7_2_mbox_conf_flat
I0907 13:42:24.844261 23754 net.cpp:157] Top shape: 16 600 (9600)
I0907 13:42:24.844264 23754 net.cpp:165] Memory required for data: 2574330080
I0907 13:42:24.844267 23754 layer_factory.hpp:77] Creating layer conv7_2_mbox_priorbox
I0907 13:42:24.844274 23754 net.cpp:100] Creating Layer conv7_2_mbox_priorbox
I0907 13:42:24.844279 23754 net.cpp:434] conv7_2_mbox_priorbox <- conv7_2_conv7_2_relu_0_split_3
I0907 13:42:24.844283 23754 net.cpp:434] conv7_2_mbox_priorbox <- data_data_0_split_3
I0907 13:42:24.844290 23754 net.cpp:408] conv7_2_mbox_priorbox -> conv7_2_mbox_priorbox
I0907 13:42:24.844318 23754 net.cpp:150] Setting up conv7_2_mbox_priorbox
I0907 13:42:24.844324 23754 net.cpp:157] Top shape: 1 2 600 (1200)
I0907 13:42:24.844327 23754 net.cpp:165] Memory required for data: 2574334880
I0907 13:42:24.844331 23754 layer_factory.hpp:77] Creating layer conv8_2_mbox_loc
I0907 13:42:24.844339 23754 net.cpp:100] Creating Layer conv8_2_mbox_loc
I0907 13:42:24.844353 23754 net.cpp:434] conv8_2_mbox_loc <- conv8_2_conv8_2_relu_0_split_1
I0907 13:42:24.844364 23754 net.cpp:408] conv8_2_mbox_loc -> conv8_2_mbox_loc
I0907 13:42:24.846709 23754 net.cpp:150] Setting up conv8_2_mbox_loc
I0907 13:42:24.846721 23754 net.cpp:157] Top shape: 16 24 3 3 (3456)
I0907 13:42:24.846725 23754 net.cpp:165] Memory required for data: 2574348704
I0907 13:42:24.846732 23754 layer_factory.hpp:77] Creating layer conv8_2_mbox_loc_perm
I0907 13:42:24.846740 23754 net.cpp:100] Creating Layer conv8_2_mbox_loc_perm
I0907 13:42:24.846745 23754 net.cpp:434] conv8_2_mbox_loc_perm <- conv8_2_mbox_loc
I0907 13:42:24.846750 23754 net.cpp:408] conv8_2_mbox_loc_perm -> conv8_2_mbox_loc_perm
I0907 13:42:24.846859 23754 net.cpp:150] Setting up conv8_2_mbox_loc_perm
I0907 13:42:24.846866 23754 net.cpp:157] Top shape: 16 3 3 24 (3456)
I0907 13:42:24.846869 23754 net.cpp:165] Memory required for data: 2574362528
I0907 13:42:24.846873 23754 layer_factory.hpp:77] Creating layer conv8_2_mbox_loc_flat
I0907 13:42:24.846879 23754 net.cpp:100] Creating Layer conv8_2_mbox_loc_flat
I0907 13:42:24.846884 23754 net.cpp:434] conv8_2_mbox_loc_flat <- conv8_2_mbox_loc_perm
I0907 13:42:24.846889 23754 net.cpp:408] conv8_2_mbox_loc_flat -> conv8_2_mbox_loc_flat
I0907 13:42:24.846915 23754 net.cpp:150] Setting up conv8_2_mbox_loc_flat
I0907 13:42:24.846920 23754 net.cpp:157] Top shape: 16 216 (3456)
I0907 13:42:24.846925 23754 net.cpp:165] Memory required for data: 2574376352
I0907 13:42:24.846927 23754 layer_factory.hpp:77] Creating layer conv8_2_mbox_conf
I0907 13:42:24.846936 23754 net.cpp:100] Creating Layer conv8_2_mbox_conf
I0907 13:42:24.846940 23754 net.cpp:434] conv8_2_mbox_conf <- conv8_2_conv8_2_relu_0_split_2
I0907 13:42:24.846948 23754 net.cpp:408] conv8_2_mbox_conf -> conv8_2_mbox_conf
I0907 13:42:24.849287 23754 net.cpp:150] Setting up conv8_2_mbox_conf
I0907 13:42:24.849299 23754 net.cpp:157] Top shape: 16 24 3 3 (3456)
I0907 13:42:24.849303 23754 net.cpp:165] Memory required for data: 2574390176
I0907 13:42:24.849310 23754 layer_factory.hpp:77] Creating layer conv8_2_mbox_conf_perm
I0907 13:42:24.849316 23754 net.cpp:100] Creating Layer conv8_2_mbox_conf_perm
I0907 13:42:24.849321 23754 net.cpp:434] conv8_2_mbox_conf_perm <- conv8_2_mbox_conf
I0907 13:42:24.849328 23754 net.cpp:408] conv8_2_mbox_conf_perm -> conv8_2_mbox_conf_perm
I0907 13:42:24.849437 23754 net.cpp:150] Setting up conv8_2_mbox_conf_perm
I0907 13:42:24.849445 23754 net.cpp:157] Top shape: 16 3 3 24 (3456)
I0907 13:42:24.849448 23754 net.cpp:165] Memory required for data: 2574404000
I0907 13:42:24.849452 23754 layer_factory.hpp:77] Creating layer conv8_2_mbox_conf_flat
I0907 13:42:24.849458 23754 net.cpp:100] Creating Layer conv8_2_mbox_conf_flat
I0907 13:42:24.849462 23754 net.cpp:434] conv8_2_mbox_conf_flat <- conv8_2_mbox_conf_perm
I0907 13:42:24.849469 23754 net.cpp:408] conv8_2_mbox_conf_flat -> conv8_2_mbox_conf_flat
I0907 13:42:24.849496 23754 net.cpp:150] Setting up conv8_2_mbox_conf_flat
I0907 13:42:24.849501 23754 net.cpp:157] Top shape: 16 216 (3456)
I0907 13:42:24.849504 23754 net.cpp:165] Memory required for data: 2574417824
I0907 13:42:24.849509 23754 layer_factory.hpp:77] Creating layer conv8_2_mbox_priorbox
I0907 13:42:24.849515 23754 net.cpp:100] Creating Layer conv8_2_mbox_priorbox
I0907 13:42:24.849519 23754 net.cpp:434] conv8_2_mbox_priorbox <- conv8_2_conv8_2_relu_0_split_3
I0907 13:42:24.849524 23754 net.cpp:434] conv8_2_mbox_priorbox <- data_data_0_split_4
I0907 13:42:24.849530 23754 net.cpp:408] conv8_2_mbox_priorbox -> conv8_2_mbox_priorbox
I0907 13:42:24.849558 23754 net.cpp:150] Setting up conv8_2_mbox_priorbox
I0907 13:42:24.849563 23754 net.cpp:157] Top shape: 1 2 216 (432)
I0907 13:42:24.849567 23754 net.cpp:165] Memory required for data: 2574419552
I0907 13:42:24.849570 23754 layer_factory.hpp:77] Creating layer conv9_2_mbox_loc
I0907 13:42:24.849581 23754 net.cpp:100] Creating Layer conv9_2_mbox_loc
I0907 13:42:24.849584 23754 net.cpp:434] conv9_2_mbox_loc <- conv9_2_conv9_2_relu_0_split_1
I0907 13:42:24.849602 23754 net.cpp:408] conv9_2_mbox_loc -> conv9_2_mbox_loc
I0907 13:42:24.851972 23754 net.cpp:150] Setting up conv9_2_mbox_loc
I0907 13:42:24.851984 23754 net.cpp:157] Top shape: 16 24 2 2 (1536)
I0907 13:42:24.851987 23754 net.cpp:165] Memory required for data: 2574425696
I0907 13:42:24.851994 23754 layer_factory.hpp:77] Creating layer conv9_2_mbox_loc_perm
I0907 13:42:24.852000 23754 net.cpp:100] Creating Layer conv9_2_mbox_loc_perm
I0907 13:42:24.852005 23754 net.cpp:434] conv9_2_mbox_loc_perm <- conv9_2_mbox_loc
I0907 13:42:24.852011 23754 net.cpp:408] conv9_2_mbox_loc_perm -> conv9_2_mbox_loc_perm
I0907 13:42:24.852124 23754 net.cpp:150] Setting up conv9_2_mbox_loc_perm
I0907 13:42:24.852131 23754 net.cpp:157] Top shape: 16 2 2 24 (1536)
I0907 13:42:24.852135 23754 net.cpp:165] Memory required for data: 2574431840
I0907 13:42:24.852139 23754 layer_factory.hpp:77] Creating layer conv9_2_mbox_loc_flat
I0907 13:42:24.852144 23754 net.cpp:100] Creating Layer conv9_2_mbox_loc_flat
I0907 13:42:24.852149 23754 net.cpp:434] conv9_2_mbox_loc_flat <- conv9_2_mbox_loc_perm
I0907 13:42:24.852155 23754 net.cpp:408] conv9_2_mbox_loc_flat -> conv9_2_mbox_loc_flat
I0907 13:42:24.852182 23754 net.cpp:150] Setting up conv9_2_mbox_loc_flat
I0907 13:42:24.852188 23754 net.cpp:157] Top shape: 16 96 (1536)
I0907 13:42:24.852191 23754 net.cpp:165] Memory required for data: 2574437984
I0907 13:42:24.852195 23754 layer_factory.hpp:77] Creating layer conv9_2_mbox_conf
I0907 13:42:24.852205 23754 net.cpp:100] Creating Layer conv9_2_mbox_conf
I0907 13:42:24.852210 23754 net.cpp:434] conv9_2_mbox_conf <- conv9_2_conv9_2_relu_0_split_2
I0907 13:42:24.852216 23754 net.cpp:408] conv9_2_mbox_conf -> conv9_2_mbox_conf
I0907 13:42:24.854971 23754 net.cpp:150] Setting up conv9_2_mbox_conf
I0907 13:42:24.854984 23754 net.cpp:157] Top shape: 16 24 2 2 (1536)
I0907 13:42:24.854988 23754 net.cpp:165] Memory required for data: 2574444128
I0907 13:42:24.854995 23754 layer_factory.hpp:77] Creating layer conv9_2_mbox_conf_perm
I0907 13:42:24.855002 23754 net.cpp:100] Creating Layer conv9_2_mbox_conf_perm
I0907 13:42:24.855006 23754 net.cpp:434] conv9_2_mbox_conf_perm <- conv9_2_mbox_conf
I0907 13:42:24.855012 23754 net.cpp:408] conv9_2_mbox_conf_perm -> conv9_2_mbox_conf_perm
I0907 13:42:24.855125 23754 net.cpp:150] Setting up conv9_2_mbox_conf_perm
I0907 13:42:24.855132 23754 net.cpp:157] Top shape: 16 2 2 24 (1536)
I0907 13:42:24.855136 23754 net.cpp:165] Memory required for data: 2574450272
I0907 13:42:24.855140 23754 layer_factory.hpp:77] Creating layer conv9_2_mbox_conf_flat
I0907 13:42:24.855146 23754 net.cpp:100] Creating Layer conv9_2_mbox_conf_flat
I0907 13:42:24.855149 23754 net.cpp:434] conv9_2_mbox_conf_flat <- conv9_2_mbox_conf_perm
I0907 13:42:24.855156 23754 net.cpp:408] conv9_2_mbox_conf_flat -> conv9_2_mbox_conf_flat
I0907 13:42:24.855185 23754 net.cpp:150] Setting up conv9_2_mbox_conf_flat
I0907 13:42:24.855191 23754 net.cpp:157] Top shape: 16 96 (1536)
I0907 13:42:24.855195 23754 net.cpp:165] Memory required for data: 2574456416
I0907 13:42:24.855198 23754 layer_factory.hpp:77] Creating layer conv9_2_mbox_priorbox
I0907 13:42:24.855204 23754 net.cpp:100] Creating Layer conv9_2_mbox_priorbox
I0907 13:42:24.855208 23754 net.cpp:434] conv9_2_mbox_priorbox <- conv9_2_conv9_2_relu_0_split_3
I0907 13:42:24.855213 23754 net.cpp:434] conv9_2_mbox_priorbox <- data_data_0_split_5
I0907 13:42:24.855221 23754 net.cpp:408] conv9_2_mbox_priorbox -> conv9_2_mbox_priorbox
I0907 13:42:24.855252 23754 net.cpp:150] Setting up conv9_2_mbox_priorbox
I0907 13:42:24.855257 23754 net.cpp:157] Top shape: 1 2 96 (192)
I0907 13:42:24.855260 23754 net.cpp:165] Memory required for data: 2574457184
I0907 13:42:24.855263 23754 layer_factory.hpp:77] Creating layer conv10_2_mbox_loc
I0907 13:42:24.855273 23754 net.cpp:100] Creating Layer conv10_2_mbox_loc
I0907 13:42:24.855276 23754 net.cpp:434] conv10_2_mbox_loc <- conv10_2_conv10_2_relu_0_split_0
I0907 13:42:24.855283 23754 net.cpp:408] conv10_2_mbox_loc -> conv10_2_mbox_loc
I0907 13:42:24.857681 23754 net.cpp:150] Setting up conv10_2_mbox_loc
I0907 13:42:24.857692 23754 net.cpp:157] Top shape: 16 24 1 1 (384)
I0907 13:42:24.857695 23754 net.cpp:165] Memory required for data: 2574458720
I0907 13:42:24.857702 23754 layer_factory.hpp:77] Creating layer conv10_2_mbox_loc_perm
I0907 13:42:24.857710 23754 net.cpp:100] Creating Layer conv10_2_mbox_loc_perm
I0907 13:42:24.857714 23754 net.cpp:434] conv10_2_mbox_loc_perm <- conv10_2_mbox_loc
I0907 13:42:24.857722 23754 net.cpp:408] conv10_2_mbox_loc_perm -> conv10_2_mbox_loc_perm
I0907 13:42:24.857834 23754 net.cpp:150] Setting up conv10_2_mbox_loc_perm
I0907 13:42:24.857842 23754 net.cpp:157] Top shape: 16 1 1 24 (384)
I0907 13:42:24.857846 23754 net.cpp:165] Memory required for data: 2574460256
I0907 13:42:24.857849 23754 layer_factory.hpp:77] Creating layer conv10_2_mbox_loc_flat
I0907 13:42:24.857856 23754 net.cpp:100] Creating Layer conv10_2_mbox_loc_flat
I0907 13:42:24.857858 23754 net.cpp:434] conv10_2_mbox_loc_flat <- conv10_2_mbox_loc_perm
I0907 13:42:24.857864 23754 net.cpp:408] conv10_2_mbox_loc_flat -> conv10_2_mbox_loc_flat
I0907 13:42:24.857892 23754 net.cpp:150] Setting up conv10_2_mbox_loc_flat
I0907 13:42:24.857898 23754 net.cpp:157] Top shape: 16 24 (384)
I0907 13:42:24.857902 23754 net.cpp:165] Memory required for data: 2574461792
I0907 13:42:24.857904 23754 layer_factory.hpp:77] Creating layer conv10_2_mbox_conf
I0907 13:42:24.857913 23754 net.cpp:100] Creating Layer conv10_2_mbox_conf
I0907 13:42:24.857918 23754 net.cpp:434] conv10_2_mbox_conf <- conv10_2_conv10_2_relu_0_split_1
I0907 13:42:24.857924 23754 net.cpp:408] conv10_2_mbox_conf -> conv10_2_mbox_conf
I0907 13:42:24.860301 23754 net.cpp:150] Setting up conv10_2_mbox_conf
I0907 13:42:24.860312 23754 net.cpp:157] Top shape: 16 24 1 1 (384)
I0907 13:42:24.860314 23754 net.cpp:165] Memory required for data: 2574463328
I0907 13:42:24.860321 23754 layer_factory.hpp:77] Creating layer conv10_2_mbox_conf_perm
I0907 13:42:24.860327 23754 net.cpp:100] Creating Layer conv10_2_mbox_conf_perm
I0907 13:42:24.860330 23754 net.cpp:434] conv10_2_mbox_conf_perm <- conv10_2_mbox_conf
I0907 13:42:24.860337 23754 net.cpp:408] conv10_2_mbox_conf_perm -> conv10_2_mbox_conf_perm
I0907 13:42:24.860448 23754 net.cpp:150] Setting up conv10_2_mbox_conf_perm
I0907 13:42:24.860456 23754 net.cpp:157] Top shape: 16 1 1 24 (384)
I0907 13:42:24.860460 23754 net.cpp:165] Memory required for data: 2574464864
I0907 13:42:24.860462 23754 layer_factory.hpp:77] Creating layer conv10_2_mbox_conf_flat
I0907 13:42:24.860468 23754 net.cpp:100] Creating Layer conv10_2_mbox_conf_flat
I0907 13:42:24.860472 23754 net.cpp:434] conv10_2_mbox_conf_flat <- conv10_2_mbox_conf_perm
I0907 13:42:24.860477 23754 net.cpp:408] conv10_2_mbox_conf_flat -> conv10_2_mbox_conf_flat
I0907 13:42:24.860507 23754 net.cpp:150] Setting up conv10_2_mbox_conf_flat
I0907 13:42:24.860512 23754 net.cpp:157] Top shape: 16 24 (384)
I0907 13:42:24.860517 23754 net.cpp:165] Memory required for data: 2574466400
I0907 13:42:24.860519 23754 layer_factory.hpp:77] Creating layer conv10_2_mbox_priorbox
I0907 13:42:24.860525 23754 net.cpp:100] Creating Layer conv10_2_mbox_priorbox
I0907 13:42:24.860529 23754 net.cpp:434] conv10_2_mbox_priorbox <- conv10_2_conv10_2_relu_0_split_2
I0907 13:42:24.860534 23754 net.cpp:434] conv10_2_mbox_priorbox <- data_data_0_split_6
I0907 13:42:24.860540 23754 net.cpp:408] conv10_2_mbox_priorbox -> conv10_2_mbox_priorbox
I0907 13:42:24.860569 23754 net.cpp:150] Setting up conv10_2_mbox_priorbox
I0907 13:42:24.860576 23754 net.cpp:157] Top shape: 1 2 24 (48)
I0907 13:42:24.860580 23754 net.cpp:165] Memory required for data: 2574466592
I0907 13:42:24.860584 23754 layer_factory.hpp:77] Creating layer mbox_loc
I0907 13:42:24.860591 23754 net.cpp:100] Creating Layer mbox_loc
I0907 13:42:24.860595 23754 net.cpp:434] mbox_loc <- conv5_5/sep_mbox_loc_flat
I0907 13:42:24.860600 23754 net.cpp:434] mbox_loc <- conv6/sep_mbox_loc_flat
I0907 13:42:24.860610 23754 net.cpp:434] mbox_loc <- conv7_2_mbox_loc_flat
I0907 13:42:24.860615 23754 net.cpp:434] mbox_loc <- conv8_2_mbox_loc_flat
I0907 13:42:24.860628 23754 net.cpp:434] mbox_loc <- conv9_2_mbox_loc_flat
I0907 13:42:24.860633 23754 net.cpp:434] mbox_loc <- conv10_2_mbox_loc_flat
I0907 13:42:24.860641 23754 net.cpp:408] mbox_loc -> mbox_loc
I0907 13:42:24.860674 23754 net.cpp:150] Setting up mbox_loc
I0907 13:42:24.860680 23754 net.cpp:157] Top shape: 16 7668 (122688)
I0907 13:42:24.860684 23754 net.cpp:165] Memory required for data: 2574957344
I0907 13:42:24.860687 23754 layer_factory.hpp:77] Creating layer mbox_conf
I0907 13:42:24.860694 23754 net.cpp:100] Creating Layer mbox_conf
I0907 13:42:24.860698 23754 net.cpp:434] mbox_conf <- conv5_5/sep_mbox_conf_flat
I0907 13:42:24.860702 23754 net.cpp:434] mbox_conf <- conv6/sep_mbox_conf_flat
I0907 13:42:24.860707 23754 net.cpp:434] mbox_conf <- conv7_2_mbox_conf_flat
I0907 13:42:24.860711 23754 net.cpp:434] mbox_conf <- conv8_2_mbox_conf_flat
I0907 13:42:24.860715 23754 net.cpp:434] mbox_conf <- conv9_2_mbox_conf_flat
I0907 13:42:24.860719 23754 net.cpp:434] mbox_conf <- conv10_2_mbox_conf_flat
I0907 13:42:24.860724 23754 net.cpp:408] mbox_conf -> mbox_conf
I0907 13:42:24.860752 23754 net.cpp:150] Setting up mbox_conf
I0907 13:42:24.860759 23754 net.cpp:157] Top shape: 16 7668 (122688)
I0907 13:42:24.860762 23754 net.cpp:165] Memory required for data: 2575448096
I0907 13:42:24.860765 23754 layer_factory.hpp:77] Creating layer mbox_priorbox
I0907 13:42:24.860771 23754 net.cpp:100] Creating Layer mbox_priorbox
I0907 13:42:24.860775 23754 net.cpp:434] mbox_priorbox <- conv5_5/sep_mbox_priorbox
I0907 13:42:24.860780 23754 net.cpp:434] mbox_priorbox <- conv6/sep_mbox_priorbox
I0907 13:42:24.860785 23754 net.cpp:434] mbox_priorbox <- conv7_2_mbox_priorbox
I0907 13:42:24.860788 23754 net.cpp:434] mbox_priorbox <- conv8_2_mbox_priorbox
I0907 13:42:24.860792 23754 net.cpp:434] mbox_priorbox <- conv9_2_mbox_priorbox
I0907 13:42:24.860796 23754 net.cpp:434] mbox_priorbox <- conv10_2_mbox_priorbox
I0907 13:42:24.860801 23754 net.cpp:408] mbox_priorbox -> mbox_priorbox
I0907 13:42:24.860829 23754 net.cpp:150] Setting up mbox_priorbox
I0907 13:42:24.860836 23754 net.cpp:157] Top shape: 1 2 7668 (15336)
I0907 13:42:24.860838 23754 net.cpp:165] Memory required for data: 2575509440
I0907 13:42:24.860841 23754 layer_factory.hpp:77] Creating layer mbox_loss
I0907 13:42:24.860853 23754 net.cpp:100] Creating Layer mbox_loss
I0907 13:42:24.860869 23754 net.cpp:434] mbox_loss <- mbox_loc
I0907 13:42:24.860875 23754 net.cpp:434] mbox_loss <- mbox_conf
I0907 13:42:24.860879 23754 net.cpp:434] mbox_loss <- mbox_priorbox
…
layer {
  name: "data"
  type: "AnnotatedData"
  top: "data"
  top: "label"
  include {
    phase: TEST
  }
  transform_param {
    mean_value: 104
    mean_value: 117
    mean_value: 123
    resize_param {
      prob: 1
      resize_mode: WARP
      height: 300
      width: 300
      interp_mode: LINEAR
    }
  }
  data_param {
    source: "data/BodyFaceHandRegions/lmdb/oxford_test_lmdb"
    batch_size: 8
    backend: LMDB
  }
  annotated_data_param {
    batch_sampler {
    }
    label_map_file: "data/BodyFaceHandRegions/labelmap_voc.prototxt"
  }
}
layer {
  name: "conv1"
  type: "Convolution"
  bottom: "data"
  top: "conv1"
  param {
    lr_mult: 1
    decay_mult: 1
  }
  convolution_param {
    num_output: 32
    bias_term: false
    pad: 1
    kernel_size: 3
    group: 1
    stride: 2
    weight_filler {
      type: "gaussian"
      std: 0.01
    }
    engine: DEFAULT
  }
}
layer {
  name: "conv1/bn"
  type: "BatchNorm"
  bottom: "conv1"
  top: "conv1"
  batch_norm_param {
    moving_average_fraction: 0.999
    eps: 0.001
  }
}
layer {
  name: "conv1/scale"
  type: "Scale"
  bottom: "conv1"
  top: "conv1"
  param {
    lr_mult: 1
    decay_mult: 0
  }
  param {
    lr_mult: 1
    decay_mult: 0
  }
  scale_param {
    filler {
      type: "constant"
      value: 1
    }
    bias_term: true
    bias_filler {
      type: "constant"
      value: 0
    }
  }
}
layer {
  name: "conv1_relu"
  type: "ReLU"
  bottom: "conv1"
  top: "conv1"
}
layer {
  name: "conv2_1/dw"
  type: "Convolution"
  bottom: "conv1"
  top: "conv2_1/dw"
  param {
    lr_mult: 1
    decay_mult: 1
  }
  convolution_param {
    num_output: 32
    bias_term: false
    pad: 1
    kernel_size: 3
    group: 32
    stride: 1
    weight_filler {
      type: "gaussian"
      std: 0.01
    }
    engine: CAFFE
  }
}
layer {
  name: "conv2_1/dw/bn"
  type: "BatchNorm"
  bottom: "conv2_1/dw"
  top: "conv2_1/dw"
  batch_norm_param {
    moving_average_fraction: 0.999
    eps: 0.001
  }
}
layer {
  name: "conv2_1/dw/scale"
  type: "Scale"
  bottom: "conv2_1/dw"
  top: "conv2_1/dw"
  param {
    lr_mult: 1
    decay_mult: 0
  }
  param {
    lr_mult: 1
    decay_mult: 0
  }
  scale_param {
    filler {
      type: "constant"
      value: 1
    }
    bias_term: true
    bias_filler {
      type: "constant"
      value: 0
    }
  }
}
layer {
  name: "conv2_1/dw_relu"
  type: "ReLU"
  bottom: "conv2_1/dw"
  top: "conv2_1/dw"
}
layer {
  name: "conv2_1/sep"
  type: "Convolution"
  bottom: "conv2_1/dw"
  top: "conv2_1/sep"
  param {
    lr_mult: 1
    decay_mult: 1
  }
  convolution_param {
    num_output: 64
    bias_term: false
    pad: 0
    kernel_size: 1
    group: 1
    stride: 1
    weight_filler {
      type: "gaussian"
      std: 0.01
    }
    engine: DEFAULT
  }
}
layer {
  name: "conv2_1/sep/bn"
  type: "BatchNorm"
  bottom: "conv2_1/sep"
  top: "conv2_1/sep"
  batch_norm_param {
    moving_average_fraction: 0.999
    eps: 0.001
  }
}
layer {
  name: "conv2_1/sep/scale"
  type: "Scale"
  bottom: "conv2_1/sep"
  top: "conv2_1/sep"
  param {
    lr_mult: 1
    decay_mult: 0
  }
  param {
    lr_mult: 1
    decay_mult: 0
  }
  scale_param {
    filler {
      type: "constant"
      value: 1
    }
    bias_term: true
    bias_filler {
      type: "constant"
      value: 0
    }
  }
}
layer {
  name: "conv2_1/sep_relu"
  type: "ReLU"
  bottom: "conv2_1/sep"
  top: "conv2_1/sep"
}
layer {
  name: "conv2_2/dw"
  type: "Convolution"
  bottom: "conv2_1/sep"
  top: "conv2_2/dw"
  param {
    lr_mult: 1
    decay_mult: 1
  }
  convolution_param {
    num_output: 64
    bias_term: false
    pad: 1
    kernel_size: 3
    group: 64
    stride: 2
    weight_filler {
      type: "gaussian"
      std: 0.01
    }
    engine: CAFFE
  }
}
layer {
  name: "conv2_2/dw/bn"
  type: "BatchNorm"
  bottom: "conv2_2/dw"
  top: "conv2_2/dw"
  batch_norm_param {
    moving_average_fraction: 0.999
    eps: 0.001
  }
}
layer {
  name: "conv2_2/dw/scale"
  type: "Scale"
  bottom: "conv2_2/dw"
  top: "conv2_2/dw"
  param {
    lr_mult: 1
    decay_mult: 0
  }
  param {
    lr_mult: 1
    decay_mult: 0
  }
  scale_param {
    filler {
      type: "constant"
      value: 1
    }
    bias_term: true
    bias_filler {
      type: "constant"
      value: 0
    }
  }
}
layer {
  name: "conv2_2/dw_relu"
  type: "ReLU"
  bottom: "conv2_2/dw"
  top: "conv2_2/dw"
}
layer {
  name: "conv2_2/sep"
  type: "Convolution"
  bottom: "conv2_2/dw"
  top: "conv2_2/sep"
  param {
    lr_mult: 1
    decay_mult: 1
  }
  convolution_param {
    num_output: 128
    bias_term: false
    pad: 0
    kernel_size: 1
    group: 1
    stride: 1
    weight_filler {
      type: "gaussian"
      std: 0.01
    }
    engine: DEFAULT
  }
}
layer {
  name: "conv2_2/sep/bn"
  type: "BatchNorm"
  bottom: "conv2_2/sep"
  top: "conv2_2/sep"
  batch_norm_param {
    moving_average_fraction: 0.999
    eps: 0.001
  }
}
layer {
  name: "conv2_2/sep/scale"
  type: "Scale"
  bottom: "conv2_2/sep"
  top: "conv2_2/sep"
  param {
    lr_mult: 1
    decay_mult: 0
  }
  param {
    lr_mult: 1
    decay_mult: 0
  }
  scale_param {
    filler {
      type: "constant"
      value: 1
    }
    bias_term: true
    bias_filler {
      type: "constant"
      value: 0
    }
  }
}
layer {
  name: "conv2_2/sep_relu"
  type: "ReLU"
  bottom: "conv2_2/sep"
  top: "conv2_2/sep"
}
layer {
  name: "conv3_1/dw"
  type: "Convolution"
  bottom: "conv2_2/sep"
  top: "conv3_1/dw"
  param {
    lr_mult: 1
    decay_mult: 1
  }
  convolution_param {
    num_output: 128
    bias_term: false
    pad: 1
    kernel_size: 3
    group: 128
    stride: 1
    weight_filler {
      type: "gaussian"
      std: 0.01
    }
    engine: CAFFE
  }
}
layer {
  name: "conv3_1/dw/bn"
  type: "BatchNorm"
  bottom: "conv3_1/dw"
  top: "conv3_1/dw"
  batch_norm_param {
    moving_average_fraction: 0.999
    eps: 0.001
  }
}
layer {
  name: "conv3_1/dw/scale"
  type: "Scale"
  bottom: "conv3_1/dw"
  top: "conv3_1/dw"
  param {
    lr_mult: 1
    decay_mult: 0
  }
  param {
    lr_mult: 1
    decay_mult: 0
  }
  scale_param {
    filler {
      type: "constant"
      value: 1
    }
    bias_term: true
    bias_filler {
      type: "constant"
      value: 0
    }
  }
}
layer {
  name: "conv3_1/dw_relu"
  type: "ReLU"
  bottom: "conv3_1/dw"
  top: "conv3_1/dw"
}
layer {
  name: "conv3_1/sep"
  type: "Convolution"
  bottom: "conv3_1/dw"
  top: "conv3_1/sep"
  param {
    lr_mult: 1
    decay_mult: 1
  }
  convolution_param {
    num_output: 128
    bias_term: false
    pad: 0
    kernel_size: 1
    group: 1
    stride: 1
    weight_filler {
      type: "gaussian"
      std: 0.01
    }
    engine: DEFAULT
  }
}
layer {
  name: "conv3_1/sep/bn"
  type: "BatchNorm"
  bottom: "conv3_1/sep"
  top: "conv3_1/sep"
  batch_norm_param {
    moving_average_fraction: 0.999
    eps: 0.001
  }
}
layer {
  name: "conv3_1/sep/scale"
  type: "Scale"
  bottom: "conv3_1/sep"
  top: "conv3_1/sep"
  param {
    lr_mult: 1
    decay_mult: 0
  }
  param {
    lr_mult: 1
    decay_mult: 0
  }
  scale_param {
    filler {
      type: "constant"
      value: 1
    }
    bias_term: true
    bias_filler {
      type: "constant"
      value: 0
    }
  }
}
layer {
  name: "conv3_1/sep_relu"
  type: "ReLU"
  bottom: "conv3_1/sep"
  top: "conv3_1/sep"
}
layer {
  name: "conv3_2/dw"
  type: "Convolution"
  bottom: "conv3_1/sep"
  top: "conv3_2/dw"
  param {
    lr_mult: 1
    decay_mult: 1
  }
  convolution_param {
    num_output: 128
    bias_term: false
    pad: 1
    kernel_size: 3
    group: 128
    stride: 2
    weight_filler {
      type: "gaussian"
      std: 0.01
    }
    engine: CAFFE
  }
}
layer {
  name: "conv3_2/dw/bn"
  type: "BatchNorm"
  bottom: "conv3_2/dw"
  top: "conv3_2/dw"
  batch_norm_param {
    moving_average_fraction: 0.999
    eps: 0.001
  }
}
layer {
  name: "conv3_2/dw/scale"
  type: "Scale"
  bottom: "conv3_2/dw"
  top: "conv3_2/dw"
  param {
    lr_mult: 1
    decay_mult: 0
  }
  param {
    lr_mult: 1
    decay_mult: 0
  }
  scale_param {
    filler {
      type: "constant"
      value: 1
    }
    bias_term: true
    bias_filler {
      type: "constant"
      value: 0
    }
  }
}
layer {
  name: "conv3_2/dw_relu"
  type: "ReLU"
  bottom: "conv3_2/dw"
  top: "conv3_2/dw"
}
layer {
  name: "conv3_2/sep"
  type: "Convolution"
  bottom: "conv3_2/dw"
  top: "conv3_2/sep"
  param {
    lr_mult: 1
    decay_mult: 1
  }
  convolution_param {
    num_output: 256
    bias_term: false
    pad: 0
    kernel_size: 1
    group: 1
    stride: 1
    weight_filler {
      type: "gaussian"
      std: 0.01
    }
    engine: DEFAULT
  }
}
layer {
  name: "conv3_2/sep/bn"
  type: "BatchNorm"
  bottom: "conv3_2/sep"
  top: "conv3_2/sep"
  batch_norm_param {
    moving_average_fraction: 0.999
    eps: 0.001
  }
}
layer {
  name: "conv3_2/sep/scale"
  type: "Scale"
  bottom: "conv3_2/sep"
  top: "conv3_2/sep"
  param {
    lr_mult: 1
    decay_mult: 0
  }
  param {
    lr_mult: 1
    decay_mult: 0
  }
  scale_param {
    filler {
      type: "constant"
      value: 1
    }
    bias_term: true
    bias_filler {
      type: "constant"
      value: 0
    }
  }
}
layer {
  name: "conv3_2/sep_relu"
  type: "ReLU"
  bottom: "conv3_2/sep"
  top: "conv3_2/sep"
}
layer {
  name: "conv4_1/dw"
  type: "Convolution"
  bottom: "conv3_2/sep"
  top: "conv4_1/dw"
  param {
    lr_mult: 1
    decay_mult: 1
  }
  convolution_param {
    num_output: 256
    bias_term: false
    pad: 1
    kernel_size: 3
    group: 256
    stride: 1
    weight_filler {
      type: "gaussian"
      std: 0.01
    }
    engine: CAFFE
  }
}
layer {
  name: "conv4_1/dw/bn"
  type: "BatchNorm"
  bottom: "conv4_1/dw"
  top: "conv4_1/dw"
  batch_norm_param {
    moving_average_fraction: 0.999
    eps: 0.001
  }
}
layer {
  name: "conv4_1/dw/scale"
  type: "Scale"
  bottom: "conv4_1/dw"
  top: "conv4_1/dw"
  param {
    lr_mult: 1
    decay_mult: 0
  }
  param {
    lr_mult: 1
    decay_mult: 0
  }
  scale_param {
    filler {
      type: "constant"
      value: 1
    }
    bias_term: true
    bias_filler {
      type: "constant"
      value: 0
    }
  }
}
layer {
  name: "conv4_1/dw_relu"
  type: "ReLU"
  bottom: "conv4_1/dw"
  top: "conv4_1/dw"
}
layer {
  name: "conv4_1/sep"
  type: "Convolution"
  bottom: "conv4_1/dw"
  top: "conv4_1/sep"
  param {
    lr_mult: 1
    decay_mult: 1
  }
  convolution_param {
    num_output: 256
    bias_term: false
    pad: 0
    kernel_size: 1
    group: 1
    stride: 1
    weight_filler {
      type: "gaussian"
      std: 0.01
    }
    engine: DEFAULT
  }
}
layer {
  name: "conv4_1/sep/bn"
  type: "BatchNorm"
  bottom: "conv4_1/sep"
  top: "conv4_1/sep"
  batch_norm_param {
    moving_average_fraction: 0.999
    eps: 0.001
  }
}
layer {
  name: "conv4_1/sep/scale"
  type: "Scale"
  bottom: "conv4_1/sep"
  top: "conv4_1/sep"
  param {
    lr_mult: 1
    decay_mult: 0
  }
  param {
    lr_mult: 1
    decay_mult: 0
  }
  scale_param {
    filler {
      type: "constant"
      value: 1
    }
    bias_term: true
    bias_filler {
      type: "constant"
      value: 0
    }
  }
}
layer {
  name: "conv4_1/sep_relu"
  type: "ReLU"
  bottom: "conv4_1/sep"
  top: "conv4_1/sep"
}
layer {
  name: "conv4_2/dw"
  type: "Convolution"
  bottom: "conv4_1/sep"
  top: "conv4_2/dw"
  param {
    lr_mult: 1
    decay_mult: 1
  }
  convolution_param {
    num_output: 256
    bias_term: false
    pad: 1
    kernel_size: 3
    group: 256
    stride: 2
    weight_filler {
      type: "gaussian"
      std: 0.01
    }
    engine: CAFFE
  }
}
layer {
  name: "conv4_2/dw/bn"
  type: "BatchNorm"
  bottom: "conv4_2/dw"
  top: "conv4_2/dw"
  batch_norm_param {
    moving_average_fraction: 0.999
    eps: 0.001
  }
}
layer {
  name: "conv4_2/dw/scale"
  type: "Scale"
  bottom: "conv4_2/dw"
  top: "conv4_2/dw"
  param {
    lr_mult: 1
    decay_mult: 0
  }
  param {
    lr_mult: 1
    decay_mult: 0
  }
  scale_param {
    filler {
      type: "constant"
      value: 1
    }
    bias_term: true
    bias_filler {
      type: "constant"
      value: 0
    }
  }
}
layer {
  name: "conv4_2/dw_relu"
  type: "ReLU"
  bottom: "conv4_2/dw"
  top: "conv4_2/dw"
}
layer {
  name: "conv4_2/sep"
  type: "Convolution"
  bottom: "conv4_2/dw"
  top: "conv4_2/sep"
  param {
    lr_mult: 1
    decay_mult: 1
  }
  convolution_param {
    num_output: 512
    bias_term: false
    pad: 0
    kernel_size: 1
    group: 1
    stride: 1
    weight_filler {
      type: "gaussian"
      std: 0.01
    }
    engine: DEFAULT
  }
}
layer {
  name: "conv4_2/sep/bn"
  type: "BatchNorm"
  bottom: "conv4_2/sep"
  top: "conv4_2/sep"
  batch_norm_param {
    moving_average_fraction: 0.999
    eps: 0.001
  }
}
layer {
  name: "conv4_2/sep/scale"
  type: "Scale"
  bottom: "conv4_2/sep"
  top: "conv4_2/sep"
  param {
    lr_mult: 1
    decay_mult: 0
  }
  param {
    lr_mult: 1
    decay_mult: 0
  }
  scale_param {
    filler {
      type: "constant"
      value: 1
    }
    bias_term: true
    bias_filler {
      type: "constant"
      value: 0
    }
  }
}
layer {
  name: "conv4_2/sep_relu"
  type: "ReLU"
  bottom: "conv4_2/sep"
  top: "conv4_2/sep"
}
layer {
  name: "conv5_1/dw"
  type: "Convolution"
  bottom: "conv4_2/sep"
  top: "conv5_1/dw"
  param {
    lr_mult: 1
    decay_mult: 1
  }
  convolution_param {
    num_output: 512
    bias_term: false
    pad: 1
    kernel_size: 3
    group: 512
    stride: 1
    weight_filler {
      type: "gaussian"
      std: 0.01
    }
    engine: CAFFE
  }
}
layer {
  name: "conv5_1/dw/bn"
  type: "BatchNorm"
  bottom: "conv5_1/dw"
  top: "conv5_1/dw"
  batch_norm_param {
    moving_average_fraction: 0.999
    eps: 0.001
  }
}
layer {
  name: "conv5_1/dw/scale"
  type: "Scale"
  bottom: "conv5_1/dw"
  top: "conv5_1/dw"
  param {
    lr_mult: 1
    decay_mult: 0
  }
  param {
    lr_mult: 1
    decay_mult: 0
  }
  scale_param {
    filler {
      type: "constant"
      value: 1
    }
    bias_term: true
    bias_filler {
      type: "constant"
      value: 0
    }
  }
}
layer {
  name: "conv5_1/dw_relu"
  type: "ReLU"
  bottom: "conv5_1/dw"
  top: "conv5_1/dw"
}
layer {
  name: "conv5_1/sep"
  type: "Convolution"
  bottom: "conv5_1/dw"
  top: "conv5_1/sep"
  param {
    lr_mult: 1
    decay_mult: 1
  }
  convolution_param {
    num_output: 512
    bias_term: false
    pad: 0
    kernel_size: 1
    group: 1
    stride: 1
    weight_filler {
      type: "gaussian"
      std: 0.01
    }
    engine: DEFAULT
  }
}
layer {
  name: "conv5_1/sep/bn"
  type: "BatchNorm"
  bottom: "conv5_1/sep"
  top: "conv5_1/sep"
  batch_norm_param {
    moving_average_fraction: 0.999
    eps: 0.001
  }
}
layer {
  name: "conv5_1/sep/scale"
  type: "Scale"
  bottom: "conv5_1/sep"
  top: "conv5_1/sep"
  param {
    lr_mult: 1
    decay_mult: 0
  }
  param {
    lr_mult: 1
    decay_mult: 0
  }
  scale_param {
    filler {
      type: "constant"
      value: 1
    }
    bias_term: true
    bias_filler {
      type: "constant"
      value: 0
    }
  }
}
layer {
  name: "conv5_1/sep_relu"
  type: "ReLU"
  bottom: "conv5_1/sep"
  top: "conv5_1/sep"
}
layer {
  name: "conv5_2/dw"
  type: "Convolution"
  bottom: "conv5_1/sep"
  top: "conv5_2/dw"
  param {
    lr_mult: 1
    decay_mult: 1
  }
  convolution_param {
    num_output: 512
    bias_term: false
    pad: 1
    kernel_size: 3
    group: 512
    stride: 1
    weight_filler {
      type: "gaussian"
      std: 0.01
    }
    engine: CAFFE
  }
}
layer {
  name: "conv5_2/dw/bn"
  type: "BatchNorm"
  bottom: "conv5_2/dw"
  top: "conv5_2/dw"
  batch_norm_param {
    moving_average_fraction: 0.999
    eps: 0.001
  }
}
layer {
  name: "conv5_2/dw/scale"
  type: "Scale"
  bottom: "conv5_2/dw"
  top: "conv5_2/dw"
  param {
    lr_mult: 1
    decay_mult: 0
  }
  param {
    lr_mult: 1
    decay_mult: 0
  }
  scale_param {
    filler {
      type: "constant"
      value: 1
    }
    bias_term: true
    bias_filler {
      type: "constant"
      value: 0
    }
  }
}
layer {
  name: "conv5_2/dw_relu"
  type: "ReLU"
  bottom: "conv5_2/dw"
  top: "conv5_2/dw"
}
layer {
  name: "conv5_2/sep"
  type: "Convolution"
  bottom: "conv5_2/dw"
  top: "conv5_2/sep"
  param {
    lr_mult: 1
    decay_mult: 1
  }
  convolution_param {
    num_output: 512
    bias_term: false
    pad: 0
    kernel_size: 1
    group: 1
    stride: 1
    weight_filler {
      type: "gaussian"
      std: 0.01
    }
    engine: DEFAULT
  }
}
layer {
  name: "conv5_2/sep/bn"
  type: "BatchNorm"
  bottom: "conv5_2/sep"
  top: "conv5_2/sep"
  batch_norm_param {
    moving_average_fraction: 0.999
    eps: 0.001
  }
}
layer {
  name: "conv5_2/sep/scale"
  type: "Scale"
  bottom: "conv5_2/sep"
  top: "conv5_2/sep"
  param {
    lr_mult: 1
    decay_mult: 0
  }
  param {
    lr_mult: 1
    decay_mult: 0
  }
  scale_param {
    filler {
      type: "constant"
      value: 1
    }
    bias_term: true
    bias_filler {
      type: "constant"
      value: 0
    }
  }
}
layer {
  name: "conv5_2/sep_relu"
  type: "ReLU"
  bottom: "conv5_2/sep"
  top: "conv5_2/sep"
}
layer {
  name: "conv5_3/dw"
  type: "Convolution"
  bottom: "conv5_2/sep"
  top: "conv5_3/dw"
  param {
    lr_mult: 1
    decay_mult: 1
  }
  convolution_param {
    num_output: 512
    bias_term: false
    pad: 1
    kernel_size: 3
    group: 512
    stride: 1
    weight_filler {
      type: "gaussian"
      std: 0.01
    }
    engine: CAFFE
  }
}
layer {
  name: "conv5_3/dw/bn"
  type: "BatchNorm"
  bottom: "conv5_3/dw"
  top: "conv5_3/dw"
  batch_norm_param {
    moving_average_fraction: 0.999
    eps: 0.001
  }
}
layer {
  name: "conv5_3/dw/scale"
  type: "Scale"
  bottom: "conv5_3/dw"
  top: "conv5_3/dw"
  param {
    lr_mult: 1
    decay_mult: 0
  }
  param {
    lr_mult: 1
    decay_mult: 0
  }
  scale_param {
    filler {
      type: "constant"
      value: 1
    }
    bias_term: true
    bias_filler {
      type: "constant"
      value: 0
    }
  }
}
layer {
  name: "conv5_3/dw_relu"
  type: "ReLU"
  bottom: "conv5_3/dw"
  top: "conv5_3/dw"
}
layer {
  name: "conv5_3/sep"
  type: "Convolution"
  bottom: "conv5_3/dw"
  top: "conv5_3/sep"
  param {
    lr_mult: 1
    decay_mult: 1
  }
  convolution_param {
    num_output: 512
    bias_term: false
    pad: 0
    kernel_size: 1
    group: 1
    stride: 1
    weight_filler {
      type: "gaussian"
      std: 0.01
    }
    engine: DEFAULT
  }
}
layer {
  name: "conv5_3/sep/bn"
  type: "BatchNorm"
  bottom: "conv5_3/sep"
  top: "conv5_3/sep"
  batch_norm_param {
    moving_average_fraction: 0.999
    eps: 0.001
  }
}
layer {
  name: "conv5_3/sep/scale"
  type: "Scale"
  bottom: "conv5_3/sep"
  top: "conv5_3/sep"
  param {
    lr_mult: 1
    decay_mult: 0
  }
  param {
    lr_mult: 1
    decay_mult: 0
  }
  scale_param {
    filler {
      type: "constant"
      value: 1
    }
    bias_term: true
    bias_filler {
      type: "constant"
      value: 0
    }
  }
}
layer {
  name: "conv5_3/sep_relu"
  type: "ReLU"
  bottom: "conv5_3/sep"
  top: "conv5_3/sep"
}
layer {
  name: "conv5_4/dw"
  type: "Convolution"
  bottom: "conv5_3/sep"
  top: "conv5_4/dw"
  param {
    lr_mult: 1
    decay_mult: 1
  }
  convolution_param {
    num_output: 512
    bias_term: false
    pad: 1
    kernel_size: 3
    group: 512
    stride: 1
    weight_filler {
      type: "gaussian"
      std: 0.01
    }
    engine: CAFFE
  }
}
layer {
  name: "conv5_4/dw/bn"
  type: "BatchNorm"
  bottom: "conv5_4/dw"
  top: "conv5_4/dw"
  batch_norm_param {
    moving_average_fraction: 0.999
    eps: 0.001
  }
}
layer {
  name: "conv5_4/dw/scale"
  type: "Scale"
  bottom: "conv5_4/dw"
  top: "conv5_4/dw"
  param {
    lr_mult: 1
    decay_mult: 0
  }
  param {
    lr_mult: 1
    decay_mult: 0
  }
  scale_param {
    filler {
      type: "constant"
      value: 1
    }
    bias_term: true
    bias_filler {
      type: "constant"
      value: 0
    }
  }
}
layer {
  name: "conv5_4/dw_relu"
  type: "ReLU"
  bottom: "conv5_4/dw"
…
I0907 13:42:24.946733 23754 net.cpp:150] Setting up conv5_6/dw_relu
I0907 13:42:24.946746 23754 net.cpp:157] Top shape: 8 512 10 10 (409600)
I0907 13:42:24.946750 23754 net.cpp:165] Memory required for data: 1228214528
I0907 13:42:24.946754 23754 layer_factory.hpp:77] Creating layer conv5_6/sep
I0907 13:42:24.946763 23754 net.cpp:100] Creating Layer conv5_6/sep
I0907 13:42:24.946766 23754 net.cpp:434] conv5_6/sep <- conv5_6/dw
I0907 13:42:24.946774 23754 net.cpp:408] conv5_6/sep -> conv5_6/sep
I0907 13:42:24.952800 23754 net.cpp:150] Setting up conv5_6/sep
I0907 13:42:24.952812 23754 net.cpp:157] Top shape: 8 1024 10 10 (819200)
I0907 13:42:24.952816 23754 net.cpp:165] Memory required for data: 1231491328
I0907 13:42:24.952821 23754 layer_factory.hpp:77] Creating layer conv5_6/sep/bn
I0907 13:42:24.952828 23754 net.cpp:100] Creating Layer conv5_6/sep/bn
I0907 13:42:24.952833 23754 net.cpp:434] conv5_6/sep/bn <- conv5_6/sep
I0907 13:42:24.952838 23754 net.cpp:395] conv5_6/sep/bn -> conv5_6/sep (in-place)
I0907 13:42:24.953017 23754 net.cpp:150] Setting up conv5_6/sep/bn
I0907 13:42:24.953024 23754 net.cpp:157] Top shape: 8 1024 10 10 (819200)
I0907 13:42:24.953034 23754 net.cpp:165] Memory required for data: 1234768128
I0907 13:42:24.953040 23754 layer_factory.hpp:77] Creating layer conv5_6/sep/scale
I0907 13:42:24.953048 23754 net.cpp:100] Creating Layer conv5_6/sep/scale
I0907 13:42:24.953053 23754 net.cpp:434] conv5_6/sep/scale <- conv5_6/sep
I0907 13:42:24.953058 23754 net.cpp:395] conv5_6/sep/scale -> conv5_6/sep (in-place)
I0907 13:42:24.953104 23754 layer_factory.hpp:77] Creating layer conv5_6/sep/scale
I0907 13:42:24.953223 23754 net.cpp:150] Setting up conv5_6/sep/scale
I0907 13:42:24.953233 23754 net.cpp:157] Top shape: 8 1024 10 10 (819200)
I0907 13:42:24.953235 23754 net.cpp:165] Memory required for data: 1238044928
I0907 13:42:24.953241 23754 layer_factory.hpp:77] Creating layer conv5_6/sep_relu
I0907 13:42:24.953248 23754 net.cpp:100] Creating Layer conv5_6/sep_relu
I0907 13:42:24.953251 23754 net.cpp:434] conv5_6/sep_relu <- conv5_6/sep
I0907 13:42:24.953258 23754 net.cpp:395] conv5_6/sep_relu -> conv5_6/sep (in-place)
I0907 13:42:24.953881 23754 net.cpp:150] Setting up conv5_6/sep_relu
I0907 13:42:24.953893 23754 net.cpp:157] Top shape: 8 1024 10 10 (819200)
I0907 13:42:24.953896 23754 net.cpp:165] Memory required for data: 1241321728
I0907 13:42:24.953900 23754 layer_factory.hpp:77] Creating layer conv6/dw
I0907 13:42:24.953909 23754 net.cpp:100] Creating Layer conv6/dw
I0907 13:42:24.953914 23754 net.cpp:434] conv6/dw <- conv5_6/sep
I0907 13:42:24.953932 23754 net.cpp:408] conv6/dw -> conv6/dw
I0907 13:42:24.954187 23754 net.cpp:150] Setting up conv6/dw
I0907 13:42:24.954195 23754 net.cpp:157] Top shape: 8 1024 10 10 (819200)
I0907 13:42:24.954197 23754 net.cpp:165] Memory required for data: 1244598528
I0907 13:42:24.954201 23754 layer_factory.hpp:77] Creating layer conv6/dw/bn
I0907 13:42:24.954206 23754 net.cpp:100] Creating Layer conv6/dw/bn
I0907 13:42:24.954210 23754 net.cpp:434] conv6/dw/bn <- conv6/dw
I0907 13:42:24.954215 23754 net.cpp:395] conv6/dw/bn -> conv6/dw (in-place)
I0907 13:42:24.954413 23754 net.cpp:150] Setting up conv6/dw/bn
I0907 13:42:24.954423 23754 net.cpp:157] Top shape: 8 1024 10 10 (819200)
I0907 13:42:24.954427 23754 net.cpp:165] Memory required for data: 1247875328
I0907 13:42:24.954433 23754 layer_factory.hpp:77] Creating layer conv6/dw/scale
I0907 13:42:24.954440 23754 net.cpp:100] Creating Layer conv6/dw/scale
I0907 13:42:24.954444 23754 net.cpp:434] conv6/dw/scale <- conv6/dw
I0907 13:42:24.954447 23754 net.cpp:395] conv6/dw/scale -> conv6/dw (in-place)
I0907 13:42:24.954506 23754 layer_factory.hpp:77] Creating layer conv6/dw/scale
I0907 13:42:24.954617 23754 net.cpp:150] Setting up conv6/dw/scale
I0907 13:42:24.954623 23754 net.cpp:157] Top shape: 8 1024 10 10 (819200)
I0907 13:42:24.954627 23754 net.cpp:165] Memory required for data: 1251152128
I0907 13:42:24.954632 23754 layer_factory.hpp:77] Creating layer conv6/dw_relu
I0907 13:42:24.954639 23754 net.cpp:100] Creating Layer conv6/dw_relu
I0907 13:42:24.954643 23754 net.cpp:434] conv6/dw_relu <- conv6/dw
I0907 13:42:24.954648 23754 net.cpp:395] conv6/dw_relu -> conv6/dw (in-place)
I0907 13:42:24.954838 23754 net.cpp:150] Setting up conv6/dw_relu
I0907 13:42:24.954848 23754 net.cpp:157] Top shape: 8 1024 10 10 (819200)
I0907 13:42:24.954851 23754 net.cpp:165] Memory required for data: 1254428928
I0907 13:42:24.954855 23754 layer_factory.hpp:77] Creating layer conv6/sep
I0907 13:42:24.954864 23754 net.cpp:100] Creating Layer conv6/sep
I0907 13:42:24.954869 23754 net.cpp:434] conv6/sep <- conv6/dw
I0907 13:42:24.954874 23754 net.cpp:408] conv6/sep -> conv6/sep
I0907 13:42:24.965979 23754 net.cpp:150] Setting up conv6/sep
I0907 13:42:24.965996 23754 net.cpp:157] Top shape: 8 1024 10 10 (819200)
I0907 13:42:24.965998 23754 net.cpp:165] Memory required for data: 1257705728
I0907 13:42:24.966003 23754 layer_factory.hpp:77] Creating layer conv6/sep/bn
I0907 13:42:24.966011 23754 net.cpp:100] Creating Layer conv6/sep/bn
I0907 13:42:24.966014 23754 net.cpp:434] conv6/sep/bn <- conv6/sep
I0907 13:42:24.966022 23754 net.cpp:395] conv6/sep/bn -> conv6/sep (in-place)
I0907 13:42:24.966209 23754 net.cpp:150] Setting up conv6/sep/bn
I0907 13:42:24.966217 23754 net.cpp:157] Top shape: 8 1024 10 10 (819200)
I0907 13:42:24.966220 23754 net.cpp:165] Memory required for data: 1260982528
I0907 13:42:24.966226 23754 layer_factory.hpp:77] Creating layer conv6/sep/scale
I0907 13:42:24.966233 23754 net.cpp:100] Creating Layer conv6/sep/scale
I0907 13:42:24.966238 23754 net.cpp:434] conv6/sep/scale <- conv6/sep
I0907 13:42:24.966243 23754 net.cpp:395] conv6/sep/scale -> conv6/sep (in-place)
I0907 13:42:24.966289 23754 layer_factory.hpp:77] Creating layer conv6/sep/scale
I0907 13:42:24.966423 23754 net.cpp:150] Setting up conv6/sep/scale
I0907 13:42:24.966430 23754 net.cpp:157] Top shape: 8 1024 10 10 (819200)
I0907 13:42:24.966434 23754 net.cpp:165] Memory required for data: 1264259328
I0907 13:42:24.966441 23754 layer_factory.hpp:77] Creating layer conv6/sep_relu
I0907 13:42:24.966449 23754 net.cpp:100] Creating Layer conv6/sep_relu
I0907 13:42:24.966452 23754 net.cpp:434] conv6/sep_relu <- conv6/sep
I0907 13:42:24.966457 23754 net.cpp:395] conv6/sep_relu -> conv6/sep (in-place)
I0907 13:42:24.967100 23754 net.cpp:150] Setting up conv6/sep_relu
I0907 13:42:24.967111 23754 net.cpp:157] Top shape: 8 1024 10 10 (819200)
I0907 13:42:24.967114 23754 net.cpp:165] Memory required for data: 1267536128
I0907 13:42:24.967118 23754 layer_factory.hpp:77] Creating layer conv6/sep_conv6/sep_relu_0_split
I0907 13:42:24.967136 23754 net.cpp:100] Creating Layer conv6/sep_conv6/sep_relu_0_split
I0907 13:42:24.967140 23754 net.cpp:434] conv6/sep_conv6/sep_relu_0_split <- conv6/sep
I0907 13:42:24.967146 23754 net.cpp:408] conv6/sep_conv6/sep_relu_0_split -> conv6/sep_conv6/sep_relu_0_split_0
I0907 13:42:24.967154 23754 net.cpp:408] conv6/sep_conv6/sep_relu_0_split -> conv6/sep_conv6/sep_relu_0_split_1
I0907 13:42:24.967159 23754 net.cpp:408] conv6/sep_conv6/sep_relu_0_split -> conv6/sep_conv6/sep_relu_0_split_2
I0907 13:42:24.967165 23754 net.cpp:408] conv6/sep_conv6/sep_relu_0_split -> conv6/sep_conv6/sep_relu_0_split_3
I0907 13:42:24.967226 23754 net.cpp:150] Setting up conv6/sep_conv6/sep_relu_0_split
I0907 13:42:24.967232 23754 net.cpp:157] Top shape: 8 1024 10 10 (819200)
I0907 13:42:24.967236 23754 net.cpp:157] Top shape: 8 1024 10 10 (819200)
I0907 13:42:24.967258 23754 net.cpp:157] Top shape: 8 1024 10 10 (819200)
I0907 13:42:24.967262 23754 net.cpp:157] Top shape: 8 1024 10 10 (819200)
I0907 13:42:24.967267 23754 net.cpp:165] Memory required for data: 1280643328
I0907 13:42:24.967269 23754 layer_factory.hpp:77] Creating layer conv7_1
I0907 13:42:24.967280 23754 net.cpp:100] Creating Layer conv7_1
I0907 13:42:24.967284 23754 net.cpp:434] conv7_1 <- conv6/sep_conv6/sep_relu_0_split_0
I0907 13:42:24.967291 23754 net.cpp:408] conv7_1 -> conv7_1
I0907 13:42:24.970544 23754 net.cpp:150] Setting up conv7_1
I0907 13:42:24.970557 23754 net.cpp:157] Top shape: 8 256 10 10 (204800)
I0907 13:42:24.970561 23754 net.cpp:165] Memory required for data: 1281462528
I0907 13:42:24.970568 23754 layer_factory.hpp:77] Creating layer conv7_1_relu
I0907 13:42:24.970574 23754 net.cpp:100] Creating Layer conv7_1_relu
I0907 13:42:24.970579 23754 net.cpp:434] conv7_1_relu <- conv7_1
I0907 13:42:24.970584 23754 net.cpp:395] conv7_1_relu -> conv7_1 (in-place)
I0907 13:42:24.970763 23754 net.cpp:150] Setting up conv7_1_relu
I0907 13:42:24.970772 23754 net.cpp:157] Top shape: 8 256 10 10 (204800)
I0907 13:42:24.970775 23754 net.cpp:165] Memory required for data: 1282281728
I0907 13:42:24.970779 23754 layer_factory.hpp:77] Creating layer conv7_2
I0907 13:42:24.970788 23754 net.cpp:100] Creating Layer conv7_2
I0907 13:42:24.970793 23754 net.cpp:434] conv7_2 <- conv7_1
I0907 13:42:24.970800 23754 net.cpp:408] conv7_2 -> conv7_2
I0907 13:42:24.978868 23754 net.cpp:150] Setting up conv7_2
I0907 13:42:24.978883 23754 net.cpp:157] Top shape: 8 512 5 5 (102400)
I0907 13:42:24.978885 23754 net.cpp:165] Memory required for data: 1282691328
I0907 13:42:24.978891 23754 layer_factory.hpp:77] Creating layer conv7_2_relu
I0907 13:42:24.978896 23754 net.cpp:100] Creating Layer conv7_2_relu
I0907 13:42:24.978899 23754 net.cpp:434] conv7_2_relu <- conv7_2
I0907 13:42:24.978904 23754 net.cpp:395] conv7_2_relu -> conv7_2 (in-place)
I0907 13:42:24.979075 23754 net.cpp:150] Setting up conv7_2_relu
I0907 13:42:24.979084 23754 net.cpp:157] Top shape: 8 512 5 5 (102400)
I0907 13:42:24.979087 23754 net.cpp:165] Memory required for data: 1283100928
I0907 13:42:24.979090 23754 layer_factory.hpp:77] Creating layer conv7_2_conv7_2_relu_0_split
I0907 13:42:24.979099 23754 net.cpp:100] Creating Layer conv7_2_conv7_2_relu_0_split
I0907 13:42:24.979102 23754 net.cpp:434] conv7_2_conv7_2_relu_0_split <- conv7_2
I0907 13:42:24.979109 23754 net.cpp:408] conv7_2_conv7_2_relu_0_split -> conv7_2_conv7_2_relu_0_split_0
I0907 13:42:24.979115 23754 net.cpp:408] conv7_2_conv7_2_relu_0_split -> conv7_2_conv7_2_relu_0_split_1
I0907 13:42:24.979121 23754 net.cpp:408] conv7_2_conv7_2_relu_0_split -> conv7_2_conv7_2_relu_0_split_2
I0907 13:42:24.979127 23754 net.cpp:408] conv7_2_conv7_2_relu_0_split -> conv7_2_conv7_2_relu_0_split_3
I0907 13:42:24.979189 23754 net.cpp:150] Setting up conv7_2_conv7_2_relu_0_split
I0907 13:42:24.979195 23754 net.cpp:157] Top shape: 8 512 5 5 (102400)
I0907 13:42:24.979199 23754 net.cpp:157] Top shape: 8 512 5 5 (102400)
I0907 13:42:24.979203 23754 net.cpp:157] Top shape: 8 512 5 5 (102400)
I0907 13:42:24.979207 23754 net.cpp:157] Top shape: 8 512 5 5 (102400)
I0907 13:42:24.979223 23754 net.cpp:165] Memory required for data: 1284739328
I0907 13:42:24.979228 23754 layer_factory.hpp:77] Creating layer conv8_1
I0907 13:42:24.979249 23754 net.cpp:100] Creating Layer conv8_1
I0907 13:42:24.979254 23754 net.cpp:434] conv8_1 <- conv7_2_conv7_2_relu_0_split_0
I0907 13:42:24.979262 23754 net.cpp:408] conv8_1 -> conv8_1
I0907 13:42:24.981616 23754 net.cpp:150] Setting up conv8_1
I0907 13:42:24.981629 23754 net.cpp:157] Top shape: 8 128 5 5 (25600)
I0907 13:42:24.981632 23754 net.cpp:165] Memory required for data: 1284841728
I0907 13:42:24.981639 23754 layer_factory.hpp:77] Creating layer conv8_1_relu
I0907 13:42:24.981645 23754 net.cpp:100] Creating Layer conv8_1_relu
I0907 13:42:24.981649 23754 net.cpp:434] conv8_1_relu <- conv8_1
I0907 13:42:24.981655 23754 net.cpp:395] conv8_1_relu -> conv8_1 (in-place)
I0907 13:42:24.982285 23754 net.cpp:150] Setting up conv8_1_relu
I0907 13:42:24.982296 23754 net.cpp:157] Top shape: 8 128 5 5 (25600)
I0907 13:42:24.982305 23754 net.cpp:165] Memory required for data: 1284944128
I0907 13:42:24.982307 23754 layer_factory.hpp:77] Creating layer conv8_2
I0907 13:42:24.982316 23754 net.cpp:100] Creating Layer conv8_2
I0907 13:42:24.982318 23754 net.cpp:434] conv8_2 <- conv8_1
I0907 13:42:24.982324 23754 net.cpp:408] conv8_2 -> conv8_2
I0907 13:42:24.985750 23754 net.cpp:150] Setting up conv8_2
I0907 13:42:24.985762 23754 net.cpp:157] Top shape: 8 256 3 3 (18432)
I0907 13:42:24.985766 23754 net.cpp:165] Memory required for data: 1285017856
I0907 13:42:24.985774 23754 layer_factory.hpp:77] Creating layer conv8_2_relu
I0907 13:42:24.985780 23754 net.cpp:100] Creating Layer conv8_2_relu
I0907 13:42:24.985783 23754 net.cpp:434] conv8_2_relu <- conv8_2
I0907 13:42:24.985790 23754 net.cpp:395] conv8_2_relu -> conv8_2 (in-place)
I0907 13:42:24.985962 23754 net.cpp:150] Setting up conv8_2_relu
I0907 13:42:24.985971 23754 net.cpp:157] Top shape: 8 256 3 3 (18432)
I0907 13:42:24.985975 23754 net.cpp:165] Memory required for data: 1285091584
I0907 13:42:24.985977 23754 layer_factory.hpp:77] Creating layer conv8_2_conv8_2_relu_0_split
I0907 13:42:24.985985 23754 net.cpp:100] Creating Layer conv8_2_conv8_2_relu_0_split
I0907 13:42:24.985988 23754 net.cpp:434] conv8_2_conv8_2_relu_0_split <- conv8_2
I0907 13:42:24.985994 23754 net.cpp:408] conv8_2_conv8_2_relu_0_split -> conv8_2_conv8_2_relu_0_split_0
I0907 13:42:24.986001 23754 net.cpp:408] conv8_2_conv8_2_relu_0_split -> conv8_2_conv8_2_relu_0_split_1
I0907 13:42:24.986008 23754 net.cpp:408] conv8_2_conv8_2_relu_0_split -> conv8_2_conv8_2_relu_0_split_2
I0907 13:42:24.986014 23754 net.cpp:408] conv8_2_conv8_2_relu_0_split -> conv8_2_conv8_2_relu_0_split_3
I0907 13:42:24.986076 23754 net.cpp:150] Setting up conv8_2_conv8_2_relu_0_split
I0907 13:42:24.986094 23754 net.cpp:157] Top shape: 8 256 3 3 (18432)
I0907 13:42:24.986099 23754 net.cpp:157] Top shape: 8 256 3 3 (18432)
I0907 13:42:24.986104 23754 net.cpp:157] Top shape: 8 256 3 3 (18432)
I0907 13:42:24.986107 23754 net.cpp:157] Top shape: 8 256 3 3 (18432)
I0907 13:42:24.986110 23754 net.cpp:165] Memory required for data: 1285386496
I0907 13:42:24.986114 23754 layer_factory.hpp:77] Creating layer conv9_1
I0907 13:42:24.986124 23754 net.cpp:100] Creating Layer conv9_1
I0907 13:42:24.986129 23754 net.cpp:434] conv9_1 <- conv8_2_conv8_2_relu_0_split_0
I0907 13:42:24.986135 23754 net.cpp:408] conv9_1 -> conv9_1
I0907 13:42:24.988389 23754 net.cpp:150] Setting up conv9_1
I0907 13:42:24.988399 23754 net.cpp:157] Top shape: 8 128 3 3 (9216)
I0907 13:42:24.988404 23754 net.cpp:165] Memory required for data: 1285423360
I0907 13:42:24.988410 23754 layer_factory.hpp:77] Creating layer conv9_1_relu
I0907 13:42:24.988416 23754 net.cpp:100] Creating Layer conv9_1_relu
I0907 13:42:24.988420 23754 net.cpp:434] conv9_1_relu <- conv9_1
I0907 13:42:24.988426 23754 net.cpp:395] conv9_1_relu -> conv9_1 (in-place)
I0907 13:42:24.988600 23754 net.cpp:150] Setting up conv9_1_relu
I0907 13:42:24.988610 23754 net.cpp:157] Top shape: 8 128 3 3 (9216)
I0907 13:42:24.988622 23754 net.cpp:165] Memory required for data: 1285460224
I0907 13:42:24.988626 23754 layer_factory.hpp:77] Creating layer conv9_2
I0907 13:42:24.988637 23754 net.cpp:100] Creating Layer conv9_2
I0907 13:42:24.988641 23754 net.cpp:434] conv9_2 <- conv9_1
I0907 13:42:24.988647 23754 net.cpp:408] conv9_2 -> conv9_2
I0907 13:42:24.992095 23754 net.cpp:150] Setting up conv9_2
I0907 13:42:24.992107 23754 net.cpp:157] Top shape: 8 256 2 2 (8192)
I0907 13:42:24.992111 23754 net.cpp:165] Memory required for data: 1285492992
I0907 13:42:24.992117 23754 layer_factory.hpp:77] Creating layer conv9_2_relu
I0907 13:42:24.992126 23754 net.cpp:100] Creating Layer conv9_2_relu
I0907 13:42:24.992130 23754 net.cpp:434] conv9_2_relu <- conv9_2
I0907 13:42:24.992136 23754 net.cpp:395] conv9_2_relu -> conv9_2 (in-place)
I0907 13:42:24.992775 23754 net.cpp:150] Setting up conv9_2_relu
I0907 13:42:24.992786 23754 net.cpp:157] Top shape: 8 256 2 2 (8192)
I0907 13:42:24.992789 23754 net.cpp:165] Memory required for data: 1285525760
I0907 13:42:24.992794 23754 layer_factory.hpp:77] Creating layer conv9_2_conv9_2_relu_0_split
I0907 13:42:24.992801 23754 net.cpp:100] Creating Layer conv9_2_conv9_2_relu_0_split
I0907 13:42:24.992805 23754 net.cpp:434] conv9_2_conv9_2_relu_0_split <- conv9_2
I0907 13:42:24.992811 23754 net.cpp:408] conv9_2_conv9_2_relu_0_split -> conv9_2_conv9_2_relu_0_split_0
I0907 13:42:24.992820 23754 net.cpp:408] conv9_2_conv9_2_relu_0_split -> conv9_2_conv9_2_relu_0_split_1
I0907 13:42:24.992825 23754 net.cpp:408] conv9_2_conv9_2_relu_0_split -> conv9_2_conv9_2_relu_0_split_2
I0907 13:42:24.992833 23754 net.cpp:408] conv9_2_conv9_2_relu_0_split -> conv9_2_conv9_2_relu_0_split_3
I0907 13:42:24.992894 23754 net.cpp:150] Setting up conv9_2_conv9_2_relu_0_split
I0907 13:42:24.992900 23754 net.cpp:157] Top shape: 8 256 2 2 (8192)
I0907 13:42:24.992905 23754 net.cpp:157] Top shape: 8 256 2 2 (8192)
I0907 13:42:24.992908 23754 net.cpp:157] Top shape: 8 256 2 2 (8192)
I0907 13:42:24.992913 23754 net.cpp:157] Top shape: 8 256 2 2 (8192)
I0907 13:42:24.992916 23754 net.cpp:165] Memory required for data: 1285656832
I0907 13:42:24.992920 23754 layer_factory.hpp:77] Creating layer conv10_1
I0907 13:42:24.992929 23754 net.cpp:100] Creating Layer conv10_1
I0907 13:42:24.992933 23754 net.cpp:434] conv10_1 <- conv9_2_conv9_2_relu_0_split_0
I0907 13:42:24.992944 23754 net.cpp:408] conv10_1 -> conv10_1
I0907 13:42:24.994768 23754 net.cpp:150] Setting up conv10_1
I0907 13:42:24.994781 23754 net.cpp:157] Top shape: 8 128 2 2 (4096)
I0907 13:42:24.994783 23754 net.cpp:165] Memory required for data: 1285673216
I0907 13:42:24.994791 23754 layer_factory.hpp:77] Creating layer conv10_1_relu
I0907 13:42:24.994815 23754 net.cpp:100] Creating Layer conv10_1_relu
I0907 13:42:24.994820 23754 net.cpp:434] conv10_1_relu <- conv10_1
I0907 13:42:24.994825 23754 net.cpp:395] conv10_1_relu -> conv10_1 (in-place)
I0907 13:42:24.995054 23754 net.cpp:150] Setting up conv10_1_relu
I0907 13:42:24.995064 23754 net.cpp:157] Top shape: 8 128 2 2 (4096)
I0907 13:42:24.995067 23754 net.cpp:165] Memory required for data: 1285689600
I0907 13:42:24.995071 23754 layer_factory.hpp:77] Creating layer conv10_2
I0907 13:42:24.995079 23754 net.cpp:100] Creating Layer conv10_2
I0907 13:42:24.995084 23754 net.cpp:434] conv10_2 <- conv10_1
I0907 13:42:24.995090 23754 net.cpp:408] conv10_2 -> conv10_2
I0907 13:42:24.999616 23754 net.cpp:150] Setting up conv10_2
I0907 13:42:24.999629 23754 net.cpp:157] Top shape: 8 256 1 1 (2048)
I0907 13:42:24.999634 23754 net.cpp:165] Memory required for data: 1285697792
I0907 13:42:24.999640 23754 layer_factory.hpp:77] Creating layer conv10_2_relu
I0907 13:42:24.999646 23754 net.cpp:100] Creating Layer conv10_2_relu
I0907 13:42:24.999650 23754 net.cpp:434] conv10_2_relu <- conv10_2
I0907 13:42:24.999658 23754 net.cpp:395] conv10_2_relu -> conv10_2 (in-place)
I0907 13:42:24.999836 23754 net.cpp:150] Setting up conv10_2_relu
I0907 13:42:24.999845 23754 net.cpp:157] Top shape: 8 256 1 1 (2048)
I0907 13:42:24.999850 23754 net.cpp:165] Memory required for data: 1285705984
I0907 13:42:24.999863 23754 layer_factory.hpp:77] Creating layer conv10_2_conv10_2_relu_0_split
I0907 13:42:24.999871 23754 net.cpp:100] Creating Layer conv10_2_conv10_2_relu_0_split
I0907 13:42:24.999874 23754 net.cpp:434] conv10_2_conv10_2_relu_0_split <- conv10_2
I0907 13:42:24.999881 23754 net.cpp:408] conv10_2_conv10_2_relu_0_split -> conv10_2_conv10_2_relu_0_split_0
I0907 13:42:24.999897 23754 net.cpp:408] conv10_2_conv10_2_relu_0_split -> conv10_2_conv10_2_relu_0_split_1
I0907 13:42:24.999904 23754 net.cpp:408] conv10_2_conv10_2_relu_0_split -> conv10_2_conv10_2_relu_0_split_2
I0907 13:42:24.999963 23754 net.cpp:150] Setting up conv10_2_conv10_2_relu_0_split
I0907 13:42:24.999970 23754 net.cpp:157] Top shape: 8 256 1 1 (2048)
I0907 13:42:24.999975 23754 net.cpp:157] Top shape: 8 256 1 1 (2048)
I0907 13:42:24.999979 23754 net.cpp:157] Top shape: 8 256 1 1 (2048)
I0907 13:42:24.999982 23754 net.cpp:165] Memory required for data: 1285730560
I0907 13:42:24.999986 23754 layer_factory.hpp:77] Creating layer conv5_5/sep_mbox_loc
I0907 13:42:24.999996 23754 net.cpp:100] Creating Layer conv5_5/sep_mbox_loc
I0907 13:42:25.000000 23754 net.cpp:434] conv5_5/sep_mbox_loc <- conv5_5/sep_conv5_5/sep_relu_0_split_1
I0907 13:42:25.000007 23754 net.cpp:408] conv5_5/sep_mbox_loc -> conv5_5/sep_mbox_loc
I0907 13:42:25.003990 23754 net.cpp:150] Setting up conv5_5/sep_mbox_loc
I0907 13:42:25.004005 23754 net.cpp:157] Top shape: 8 12 19 19 (34656)
I0907 13:42:25.004009 23754 net.cpp:165] Memory required for data: 1285869184
I0907 13:42:25.004017 23754 layer_factory.hpp:77] Creating layer conv5_5/sep_mbox_loc_perm
I0907 13:42:25.004024 23754 net.cpp:100] Creating Layer conv5_5/sep_mbox_loc_perm
I0907 13:42:25.004029 23754 net.cpp:434] conv5_5/sep_mbox_loc_perm <- conv5_5/sep_mbox_loc
I0907 13:42:25.004036 23754 net.cpp:408] conv5_5/sep_mbox_loc_perm -> conv5_5/sep_mbox_loc_perm
I0907 13:42:25.004132 23754 net.cpp:150] Setting up conv5_5/sep_mbox_loc_perm
I0907 13:42:25.004138 23754 net.cpp:157] Top shape: 8 19 19 12 (34656)
I0907 13:42:25.004142 23754 net.cpp:165] Memory required for data: 1286007808
I0907 13:42:25.004146 23754 layer_factory.hpp:77] Creating layer conv5_5/sep_mbox_loc_flat
I0907 13:42:25.004153 23754 net.cpp:100] Creating Layer conv5_5/sep_mbox_loc_flat
I0907 13:42:25.004156 23754 net.cpp:434] conv5_5/sep_mbox_loc_flat <- conv5_5/sep_mbox_loc_perm
I0907 13:42:25.004163 23754 net.cpp:408] conv5_5/sep_mbox_loc_flat -> conv5_5/sep_mbox_loc_flat
I0907 13:42:25.004189 23754 net.cpp:150] Setting up conv5_5/sep_mbox_loc_flat
I0907 13:42:25.004194 23754 net.cpp:157] Top shape: 8 4332 (34656)
I0907 13:42:25.004197 23754 net.cpp:165] Memory required for data: 1286146432
I0907 13:42:25.004201 23754 layer_factory.hpp:77] Creating layer conv5_5/sep_mbox_conf
I0907 13:42:25.004210 23754 net.cpp:100] Creating Layer conv5_5/sep_mbox_conf
I0907 13:42:25.004215 23754 net.cpp:434] conv5_5/sep_mbox_conf <- conv5_5/sep_conv5_5/sep_relu_0_split_2
I0907 13:42:25.004221 23754 net.cpp:408] conv5_5/sep_mbox_conf -> conv5_5/sep_mbox_conf
I0907 13:42:25.006661 23754 net.cpp:150] Setting up conv5_5/sep_mbox_conf
I0907 13:42:25.006675 23754 net.cpp:157] Top shape: 8 12 19 19 (34656)
I0907 13:42:25.006678 23754 net.cpp:165] Memory required for data: 1286285056
I0907 13:42:25.006685 23754 layer_factory.hpp:77] Creating layer conv5_5/sep_mbox_conf_perm
I0907 13:42:25.006692 23754 net.cpp:100] Creating Layer conv5_5/sep_mbox_conf_perm
I0907 13:42:25.006696 23754 net.cpp:434] conv5_5/sep_mbox_conf_perm <- conv5_5/sep_mbox_conf
I0907 13:42:25.006703 23754 net.cpp:408] conv5_5/sep_mbox_conf_perm -> conv5_5/sep_mbox_conf_perm
I0907 13:42:25.006796 23754 net.cpp:150] Setting up conv5_5/sep_mbox_conf_perm
I0907 13:42:25.006803 23754 net.cpp:157] Top shape: 8 19 19 12 (34656)
I0907 13:42:25.006808 23754 net.cpp:165] Memory required for data: 1286423680
I0907 13:42:25.006811 23754 layer_factory.hpp:77] Creating layer conv5_5/sep_mbox_conf_flat
I0907 13:42:25.006816 23754 net.cpp:100] Creating Layer conv5_5/sep_mbox_conf_flat
I0907 13:42:25.006832 23754 net.cpp:434] conv5_5/sep_mbox_conf_flat <- conv5_5/sep_mbox_conf_perm
I0907 13:42:25.006840 23754 net.cpp:408] conv5_5/sep_mbox_conf_flat -> conv5_5/sep_mbox_conf_flat
I0907 13:42:25.006866 23754 net.cpp:150] Setting up conv5_5/sep_mbox_conf_flat
I0907 13:42:25.006872 23754 net.cpp:157] Top shape: 8 4332 (34656)
I0907 13:42:25.006875 23754 net.cpp:165] Memory required for data: 1286562304
I0907 13:42:25.006880 23754 layer_factory.hpp:77] Creating layer conv5_5/sep_mbox_priorbox
I0907 13:42:25.006886 23754 net.cpp:100] Creating Layer conv5_5/sep_mbox_priorbox
I0907 13:42:25.006891 23754 net.cpp:434] conv5_5/sep_mbox_priorbox <- conv5_5/sep_conv5_5/sep_relu_0_split_3
I0907 13:42:25.006896 23754 net.cpp:434] conv5_5/sep_mbox_priorbox <- data_data_0_split_1
I0907 13:42:25.006904 23754 net.cpp:408] conv5_5/sep_mbox_priorbox -> conv5_5/sep_mbox_priorbox
I0907 13:42:25.006932 23754 net.cpp:150] Setting up conv5_5/sep_mbox_priorbox
I0907 13:42:25.006937 23754 net.cpp:157] Top shape: 1 2 4332 (8664)
I0907 13:42:25.006940 23754 net.cpp:165] Memory required for data: 1286596960
I0907 13:42:25.006944 23754 layer_factory.hpp:77] Creating layer conv6/sep_mbox_loc
I0907 13:42:25.006953 23754 net.cpp:100] Creating Layer conv6/sep_mbox_loc
I0907 13:42:25.006958 23754 net.cpp:434] conv6/sep_mbox_loc <- conv6/sep_conv6/sep_relu_0_split_1
I0907 13:42:25.006964 23754 net.cpp:408] conv6/sep_mbox_loc -> conv6/sep_mbox_loc
I0907 13:42:25.010959 23754 net.cpp:150] Setting up conv6/sep_mbox_loc
I0907 13:42:25.010972 23754 net.cpp:157] Top shape: 8 24 10 10 (19200)
I0907 13:42:25.010975 23754 net.cpp:165] Memory required for data: 1286673760
I0907 13:42:25.010982 23754 layer_factory.hpp:77] Creating layer conv6/sep_mbox_loc_perm
I0907 13:42:25.010989 23754 net.cpp:100] Creating Layer conv6/sep_mbox_loc_perm
I0907 13:42:25.010993 23754 net.cpp:434] conv6/sep_mbox_loc_perm <- conv6/sep_mbox_loc
I0907 13:42:25.011000 23754 net.cpp:408] conv6/sep_mbox_loc_perm -> conv6/sep_mbox_loc_perm
I0907 13:42:25.011097 23754 net.cpp:150] Setting up conv6/sep_mbox_loc_perm
I0907 13:42:25.011104 23754 net.cpp:157] Top shape: 8 10 10 24 (19200)
I0907 13:42:25.011107 23754 net.cpp:165] Memory required for data: 1286750560
I0907 13:42:25.011111 23754 layer_factory.hpp:77] Creating layer conv6/sep_mbox_loc_flat
I0907 13:42:25.011118 23754 net.cpp:100] Creating Layer conv6/sep_mbox_loc_flat
I0907 13:42:25.011122 23754 net.cpp:434] conv6/sep_mbox_loc_flat <- conv6/sep_mbox_loc_perm
I0907 13:42:25.011127 23754 net.cpp:408] conv6/sep_mbox_loc_flat -> conv6/sep_mbox_loc_flat
I0907 13:42:25.011152 23754 net.cpp:150] Setting up conv6/sep_mbox_loc_flat
I0907 13:42:25.011157 23754 net.cpp:157] Top shape: 8 2400 (19200)
I0907 13:42:25.011160 23754 net.cpp:165] Memory required for data: 1286827360
I0907 13:42:25.011164 23754 layer_factory.hpp:77] Creating layer conv6/sep_mbox_conf
I0907 13:42:25.011173 23754 net.cpp:100] Creating Layer conv6/sep_mbox_conf
I0907 13:42:25.011178 23754 net.cpp:434] conv6/sep_mbox_conf <- conv6/sep_conv6/sep_relu_0_split_2
I0907 13:42:25.011185 23754 net.cpp:408] conv6/sep_mbox_conf -> conv6/sep_mbox_conf
I0907 13:42:25.014737 23754 net.cpp:150] Setting up conv6/sep_mbox_conf
I0907 13:42:25.014750 23754 net.cpp:157] Top shape: 8 24 10 10 (19200)
I0907 13:42:25.014755 23754 net.cpp:165] Memory required for data: 1286904160
I0907 13:42:25.014760 23754 layer_factory.hpp:77] Creating layer conv6/sep_mbox_conf_perm
I0907 13:42:25.014767 23754 net.cpp:100] Creating Layer conv6/sep_mbox_conf_perm
I0907 13:42:25.014772 23754 net.cpp:434] conv6/sep_mbox_conf_perm <- conv6/sep_mbox_conf
I0907 13:42:25.014778 23754 net.cpp:408] conv6/sep_mbox_conf_perm -> conv6/sep_mbox_conf_perm
I0907 13:42:25.014874 23754 net.cpp:150] Setting up conv6/sep_mbox_conf_perm
I0907 13:42:25.014881 23754 net.cpp:157] Top shape: 8 10 10 24 (19200)
I0907 13:42:25.014884 23754 net.cpp:165] Memory required for data: 1286980960
I0907 13:42:25.014889 23754 layer_factory.hpp:77] Creating layer conv6/sep_mbox_conf_flat
I0907 13:42:25.014896 23754 net.cpp:100] Creating Layer conv6/sep_mbox_conf_flat
I0907 13:42:25.014910 23754 net.cpp:434] conv6/sep_mbox_conf_flat <- conv6/sep_mbox_conf_perm
I0907 13:42:25.014916 23754 net.cpp:408] conv6/sep_mbox_conf_flat -> conv6/sep_mbox_conf_flat
I0907 13:42:25.014943 23754 net.cpp:150] Setting up conv6/sep_mbox_conf_flat
I0907 13:42:25.014950 23754 net.cpp:157] Top shape: 8 2400 (19200)
I0907 13:42:25.014952 23754 net.cpp:165] Memory required for data: 1287057760
I0907 13:42:25.014956 23754 layer_factory.hpp:77] Creating layer conv6/sep_mbox_priorbox
I0907 13:42:25.014964 23754 net.cpp:100] Creating Layer conv6/sep_mbox_priorbox
I0907 13:42:25.014968 23754 net.cpp:434] conv6/sep_mbox_priorbox <- conv6/sep_conv6/sep_relu_0_split_3
I0907 13:42:25.014973 23754 net.cpp:434] conv6/sep_mbox_priorbox <- data_data_0_split_2
I0907 13:42:25.014978 23754 net.cpp:408] conv6/sep_mbox_priorbox -> conv6/sep_mbox_priorbox
I0907 13:42:25.015003 23754 net.cpp:150] Setting up conv6/sep_mbox_priorbox
I0907 13:42:25.015009 23754 net.cpp:157] Top shape: 1 2 2400 (4800)
I0907 13:42:25.015012 23754 net.cpp:165] Memory required for data: 1287076960
I0907 13:42:25.015017 23754 layer_factory.hpp:77] Creating layer conv7_2_mbox_loc
I0907 13:42:25.015033 23754 net.cpp:100] Creating Layer conv7_2_mbox_loc
I0907 13:42:25.015038 23754 net.cpp:434] conv7_2_mbox_loc <- conv7_2_conv7_2_relu_0_split_1
I0907 13:42:25.015044 23754 net.cpp:408] conv7_2_mbox_loc -> conv7_2_mbox_loc
I0907 13:42:25.017673 23754 net.cpp:150] Setting up conv7_2_mbox_loc
I0907 13:42:25.017684 23754 net.cpp:157] Top shape: 8 24 5 5 (4800)
I0907 13:42:25.017688 23754 net.cpp:165] Memory required for data: 1287096160
I0907 13:42:25.017694 23754 layer_factory.hpp:77] Creating layer conv7_2_mbox_loc_perm
I0907 13:42:25.017702 23754 net.cpp:100] Creating Layer conv7_2_mbox_loc_perm
I0907 13:42:25.017709 23754 net.cpp:434] conv7_2_mbox_loc_perm <- conv7_2_mbox_loc
I0907 13:42:25.017715 23754 net.cpp:408] conv7_2_mbox_loc_perm -> conv7_2_mbox_loc_perm
I0907 13:42:25.017812 23754 net.cpp:150] Setting up conv7_2_mbox_loc_perm
I0907 13:42:25.017818 23754 net.cpp:157] Top shape: 8 5 5 24 (4800)
I0907 13:42:25.017822 23754 net.cpp:165] Memory required for data: 1287115360
I0907 13:42:25.017825 23754 layer_factory.hpp:77] Creating layer conv7_2_mbox_loc_flat
I0907 13:42:25.017835 23754 net.cpp:100] Creating Layer conv7_2_mbox_loc_flat
I0907 13:42:25.017840 23754 net.cpp:434] conv7_2_mbox_loc_flat <- conv7_2_mbox_loc_perm
I0907 13:42:25.017846 23754 net.cpp:408] conv7_2_mbox_loc_flat -> conv7_2_mbox_loc_flat
I0907 13:42:25.017870 23754 net.cpp:150] Setting up conv7_2_mbox_loc_flat
I0907 13:42:25.017875 23754 net.cpp:157] Top shape: 8 600 (4800)
I0907 13:42:25.017879 23754 net.cpp:165] Memory required for data: 1287134560
I0907 13:42:25.017882 23754 layer_factory.hpp:77] Creating layer conv7_2_mbox_conf
I0907 13:42:25.017892 23754 net.cpp:100] Creating Layer conv7_2_mbox_conf
I0907 13:42:25.017896 23754 net.cpp:434] conv7_2_mbox_conf <- conv7_2_conv7_2_relu_0_split_2
I0907 13:42:25.017902 23754 net.cpp:408] conv7_2_mbox_conf -> conv7_2_mbox_conf
I0907 13:42:25.020541 23754 net.cpp:150] Setting up conv7_2_mbox_conf
I0907 13:42:25.020553 23754 net.cpp:157] Top shape: 8 24 5 5 (4800)
I0907 13:42:25.020557 23754 net.cpp:165] Memory required for data: 1287153760
I0907 13:42:25.020563 23754 layer_factory.hpp:77] Creating layer conv7_2_mbox_conf_perm
I0907 13:42:25.020571 23754 net.cpp:100] Creating Layer conv7_2_mbox_conf_perm
I0907 13:42:25.020576 23754 net.cpp:434] conv7_2_mbox_conf_perm <- conv7_2_mbox_conf
I0907 13:42:25.020581 23754 net.cpp:408] conv7_2_mbox_conf_perm -> conv7_2_mbox_conf_perm
I0907 13:42:25.020679 23754 net.cpp:150] Setting up conv7_2_mbox_conf_perm
I0907 13:42:25.020685 23754 net.cpp:157] Top shape: 8 5 5 24 (4800)
I0907 13:42:25.020689 23754 net.cpp:165] Memory required for data: 1287172960
I0907 13:42:25.020692 23754 layer_factory.hpp:77] Creating layer conv7_2_mbox_conf_flat
I0907 13:42:25.020697 23754 net.cpp:100] Creating Layer conv7_2_mbox_conf_flat
I0907 13:42:25.020701 23754 net.cpp:434] conv7_2_mbox_conf_flat <- conv7_2_mbox_conf_perm
I0907 13:42:25.020718 23754 net.cpp:408] conv7_2_mbox_conf_flat -> conv7_2_mbox_conf_flat
I0907 13:42:25.020746 23754 net.cpp:150] Setting up conv7_2_mbox_conf_flat
I0907 13:42:25.020751 23754 net.cpp:157] Top shape: 8 600 (4800)
I0907 13:42:25.020756 23754 net.cpp:165] Memory required for data: 1287192160
I0907 13:42:25.020759 23754 layer_factory.hpp:77] Creating layer conv7_2_mbox_priorbox
I0907 13:42:25.020766 23754 net.cpp:100] Creating Layer conv7_2_mbox_priorbox
I0907 13:42:25.020771 23754 net.cpp:434] conv7_2_mbox_priorbox <- conv7_2_conv7_2_relu_0_split_3
I0907 13:42:25.020776 23754 net.cpp:434] conv7_2_mbox_priorbox <- data_data_0_split_3
I0907 13:42:25.020783 23754 net.cpp:408] conv7_2_mbox_priorbox -> conv7_2_mbox_priorbox
I0907 13:42:25.020809 23754 net.cpp:150] Setting up conv7_2_mbox_priorbox
I0907 13:42:25.020815 23754 net.cpp:157] Top shape: 1 2 600 (1200)
I0907 13:42:25.020818 23754 net.cpp:165] Memory required for data: 1287196960
I0907 13:42:25.020823 23754 layer_factory.hpp:77] Creating layer conv8_2_mbox_loc
I0907 13:42:25.020831 23754 net.cpp:100] Creating Layer conv8_2_mbox_loc
I0907 13:42:25.020836 23754 net.cpp:434] conv8_2_mbox_loc <- conv8_2_conv8_2_relu_0_split_1
I0907 13:42:25.020855 23754 net.cpp:408] conv8_2_mbox_loc -> conv8_2_mbox_loc
I0907 13:42:25.023291 23754 net.cpp:150] Setting up conv8_2_mbox_loc
I0907 13:42:25.023303 23754 net.cpp:157] Top shape: 8 24 3 3 (1728)
I0907 13:42:25.023308 23754 net.cpp:165] Memory required for data: 1287203872
I0907 13:42:25.023315 23754 layer_factory.hpp:77] Creating layer conv8_2_mbox_loc_perm
I0907 13:42:25.023322 23754 net.cpp:100] Creating Layer conv8_2_mbox_loc_perm
I0907 13:42:25.023327 23754 net.cpp:434] conv8_2_mbox_loc_perm <- conv8_2_mbox_loc
I0907 13:42:25.023332 23754 net.cpp:408] conv8_2_mbox_loc_perm -> conv8_2_mbox_loc_perm
I0907 13:42:25.023434 23754 net.cpp:150] Setting up conv8_2_mbox_loc_perm
I0907 13:42:25.023442 23754 net.cpp:157] Top shape: 8 3 3 24 (1728)
I0907 13:42:25.023444 23754 net.cpp:165] Memory required for data: 1287210784
I0907 13:42:25.023447 23754 layer_factory.hpp:77] Creating layer conv8_2_mbox_loc_flat
I0907 13:42:25.023453 23754 net.cpp:100] Creating Layer conv8_2_mbox_loc_flat
I0907 13:42:25.023458 23754 net.cpp:434] conv8_2_mbox_loc_flat <- conv8_2_mbox_loc_perm
I0907 13:42:25.023463 23754 net.cpp:408] conv8_2_mbox_loc_flat -> conv8_2_mbox_loc_flat
I0907 13:42:25.023488 23754 net.cpp:150] Setting up conv8_2_mbox_loc_flat
I0907 13:42:25.023494 23754 net.cpp:157] Top shape: 8 216 (1728)
I0907 13:42:25.023496 23754 net.cpp:165] Memory required for data: 1287217696
I0907 13:42:25.023499 23754 layer_factory.hpp:77] Creating layer conv8_2_mbox_conf
I0907 13:42:25.023509 23754 net.cpp:100] Creating Layer conv8_2_mbox_conf
I0907 13:42:25.023512 23754 net.cpp:434] conv8_2_mbox_conf <- conv8_2_conv8_2_relu_0_split_2
I0907 13:42:25.023519 23754 net.cpp:408] conv8_2_mbox_conf -> conv8_2_mbox_conf
I0907 13:42:25.026321 23754 net.cpp:150] Setting up conv8_2_mbox_conf
I0907 13:42:25.026334 23754 net.cpp:157] Top shape: 8 24 3 3 (1728)
I0907 13:42:25.026338 23754 net.cpp:165] Memory required for data: 1287224608
I0907 13:42:25.026343 23754 layer_factory.hpp:77] Creating layer conv8_2_mbox_conf_perm
I0907 13:42:25.026350 23754 net.cpp:100] Creating Layer conv8_2_mbox_conf_perm
I0907 13:42:25.026355 23754 net.cpp:434] conv8_2_mbox_conf_perm <- conv8_2_mbox_conf
I0907 13:42:25.026362 23754 net.cpp:408] conv8_2_mbox_conf_perm -> conv8_2_mbox_conf_perm
I0907 13:42:25.026463 23754 net.cpp:150] Setting up conv8_2_mbox_conf_perm
I0907 13:42:25.026468 23754 net.cpp:157] Top shape: 8 3 3 24 (1728)
I0907 13:42:25.026471 23754 net.cpp:165] Memory required for data: 1287231520
I0907 13:42:25.026476 23754 layer_factory.hpp:77] Creating layer conv8_2_mbox_conf_flat
I0907 13:42:25.026481 23754 net.cpp:100] Creating Layer conv8_2_mbox_conf_flat
I0907 13:42:25.026485 23754 net.cpp:434] conv8_2_mbox_conf_flat <- conv8_2_mbox_conf_perm
I0907 13:42:25.026491 23754 net.cpp:408] conv8_2_mbox_conf_flat -> conv8_2_mbox_conf_flat
I0907 13:42:25.026530 23754 net.cpp:150] Setting up conv8_2_mbox_conf_flat
I0907 13:42:25.026536 23754 net.cpp:157] Top shape: 8 216 (1728)
I0907 13:42:25.026540 23754 net.cpp:165] Memory required for data: 1287238432
I0907 13:42:25.026543 23754 layer_factory.hpp:77] Creating layer conv8_2_mbox_priorbox
I0907 13:42:25.026549 23754 net.cpp:100] Creating Layer conv8_2_mbox_priorbox
I0907 13:42:25.026553 23754 net.cpp:434] conv8_2_mbox_priorbox <- conv8_2_conv8_2_relu_0_split_3
I0907 13:42:25.026558 23754 net.cpp:434] conv8_2_mbox_priorbox <- data_data_0_split_4
I0907 13:42:25.026566 23754 net.cpp:408] conv8_2_mbox_priorbox -> conv8_2_mbox_priorbox
I0907 13:42:25.026592 23754 net.cpp:150] Setting up conv8_2_mbox_priorbox
I0907 13:42:25.026597 23754 net.cpp:157] Top shape: 1 2 216 (432)
I0907 13:42:25.026600 23754 net.cpp:165] Memory required for data: 1287240160
I0907 13:42:25.026617 23754 layer_factory.hpp:77] Creating layer conv9_2_mbox_loc
I0907 13:42:25.026626 23754 net.cpp:100] Creating Layer conv9_2_mbox_loc
I0907 13:42:25.026631 23754 net.cpp:434] conv9_2_mbox_loc <- conv9_2_conv9_2_relu_0_split_1
I0907 13:42:25.026638 23754 net.cpp:408] conv9_2_mbox_loc -> conv9_2_mbox_loc
I0907 13:42:25.029050 23754 net.cpp:150] Setting up conv9_2_mbox_loc
I0907 13:42:25.029062 23754 net.cpp:157] Top shape: 8 24 2 2 (768)
I0907 13:42:25.029065 23754 net.cpp:165] Memory required for data: 1287243232
I0907 13:42:25.029072 23754 layer_factory.hpp:77] Creating layer conv9_2_mbox_loc_perm
I0907 13:42:25.029079 23754 net.cpp:100] Creating Layer conv9_2_mbox_loc_perm
I0907 13:42:25.029083 23754 net.cpp:434] conv9_2_mbox_loc_perm <- conv9_2_mbox_loc
I0907 13:42:25.029090 23754 net.cpp:408] conv9_2_mbox_loc_perm -> conv9_2_mbox_loc_perm
I0907 13:42:25.029186 23754 net.cpp:150] Setting up conv9_2_mbox_loc_perm
I0907 13:42:25.029193 23754 net.cpp:157] Top shape: 8 2 2 24 (768)
I0907 13:42:25.029196 23754 net.cpp:165] Memory required for data: 1287246304
I0907 13:42:25.029199 23754 layer_factory.hpp:77] Creating layer conv9_2_mbox_loc_flat
I0907 13:42:25.029206 23754 net.cpp:100] Creating Layer conv9_2_mbox_loc_flat
I0907 13:42:25.029209 23754 net.cpp:434] conv9_2_mbox_loc_flat <- conv9_2_mbox_loc_perm
I0907 13:42:25.029214 23754 net.cpp:408] conv9_2_mbox_loc_flat -> conv9_2_mbox_loc_flat
I0907 13:42:25.029238 23754 net.cpp:150] Setting up conv9_2_mbox_loc_flat
I0907 13:42:25.029243 23754 net.cpp:157] Top shape: 8 96 (768)
I0907 13:42:25.029247 23754 net.cpp:165] Memory required for data: 1287249376
I0907 13:42:25.029250 23754 layer_factory.hpp:77] Creating layer conv9_2_mbox_conf
I0907 13:42:25.029259 23754 net.cpp:100] Creating Layer conv9_2_mbox_conf
I0907 13:42:25.029264 23754 net.cpp:434] conv9_2_mbox_conf <- conv9_2_conv9_2_relu_0_split_2
I0907 13:42:25.029271 23754 net.cpp:408] conv9_2_mbox_conf -> conv9_2_mbox_conf
I0907 13:42:25.031198 23754 net.cpp:150] Setting up conv9_2_mbox_conf
I0907 13:42:25.031210 23754 net.cpp:157] Top shape: 8 24 2 2 (768)
I0907 13:42:25.031214 23754 net.cpp:165] Memory required for data: 1287252448
I0907 13:42:25.031220 23754 layer_factory.hpp:77] Creating layer conv9_2_mbox_conf_perm
I0907 13:42:25.031229 23754 net.cpp:100] Creating Layer conv9_2_mbox_conf_perm
I0907 13:42:25.031234 23754 net.cpp:434] conv9_2_mbox_conf_perm <- conv9_2_mbox_conf
I0907 13:42:25.031240 23754 net.cpp:408] conv9_2_mbox_conf_perm -> conv9_2_mbox_conf_perm
I0907 13:42:25.031337 23754 net.cpp:150] Setting up conv9_2_mbox_conf_perm
I0907 13:42:25.031343 23754 net.cpp:157] Top shape: 8 2 2 24 (768)
I0907 13:42:25.031347 23754 net.cpp:165] Memory required for data: 1287255520
I0907 13:42:25.031350 23754 layer_factory.hpp:77] Creating layer conv9_2_mbox_conf_flat
I0907 13:42:25.031355 23754 net.cpp:100] Creating Layer conv9_2_mbox_conf_flat
I0907 13:42:25.031359 23754 net.cpp:434] conv9_2_mbox_conf_flat <- conv9_2_mbox_conf_perm
I0907 13:42:25.031366 23754 net.cpp:408] conv9_2_mbox_conf_flat -> conv9_2_mbox_conf_flat
I0907 13:42:25.031390 23754 net.cpp:150] Setting up conv9_2_mbox_conf_flat
I0907 13:42:25.031395 23754 net.cpp:157] Top shape: 8 96 (768)
I0907 13:42:25.031409 23754 net.cpp:165] Memory required for data: 1287258592
I0907 13:42:25.031411 23754 layer_factory.hpp:77] Creating layer conv9_2_mbox_priorbox
I0907 13:42:25.031419 23754 net.cpp:100] Creating Layer conv9_2_mbox_priorbox
I0907 13:42:25.031422 23754 net.cpp:434] conv9_2_mbox_priorbox <- conv9_2_conv9_2_relu_0_split_3
I0907 13:42:25.031428 23754 net.cpp:434] conv9_2_mbox_priorbox <- data_data_0_split_5
I0907 13:42:25.031435 23754 net.cpp:408] conv9_2_mbox_priorbox -> conv9_2_mbox_priorbox
I0907 13:42:25.031464 23754 net.cpp:150] Setting up conv9_2_mbox_priorbox
I0907 13:42:25.031481 23754 net.cpp:157] Top shape: 1 2 96 (192)
I0907 13:42:25.031486 23754 net.cpp:165] Memory required for data: 1287259360
I0907 13:42:25.031489 23754 layer_factory.hpp:77] Creating layer conv10_2_mbox_loc
I0907 13:42:25.031499 23754 net.cpp:100] Creating Layer conv10_2_mbox_loc
I0907 13:42:25.031503 23754 net.cpp:434] conv10_2_mbox_loc <- conv10_2_conv10_2_relu_0_split_0
I0907 13:42:25.031509 23754 net.cpp:408] conv10_2_mbox_loc -> conv10_2_mbox_loc
I0907 13:42:25.033917 23754 net.cpp:150] Setting up conv10_2_mbox_loc
I0907 13:42:25.033929 23754 net.cpp:157] Top shape: 8 24 1 1 (192)
I0907 13:42:25.033932 23754 net.cpp:165] Memory required for data: 1287260128
I0907 13:42:25.033938 23754 layer_factory.hpp:77] Creating layer conv10_2_mbox_loc_perm
I0907 13:42:25.033946 23754 net.cpp:100] Creating Layer conv10_2_mbox_loc_perm
I0907 13:42:25.033951 23754 net.cpp:434] conv10_2_mbox_loc_perm <- conv10_2_mbox_loc
I0907 13:42:25.033957 23754 net.cpp:408] conv10_2_mbox_loc_perm -> conv10_2_mbox_loc_perm
I0907 13:42:25.034054 23754 net.cpp:150] Setting up conv10_2_mbox_loc_perm
I0907 13:42:25.034061 23754 net.cpp:157] Top shape: 8 1 1 24 (192)
I0907 13:42:25.034065 23754 net.cpp:165] Memory required for data: 1287260896
I0907 13:42:25.034067 23754 layer_factory.hpp:77] Creating layer conv10_2_mbox_loc_flat
I0907 13:42:25.034073 23754 net.cpp:100] Creating Layer conv10_2_mbox_loc_flat
I0907 13:42:25.034076 23754 net.cpp:434] conv10_2_mbox_loc_flat <- conv10_2_mbox_loc_perm
I0907 13:42:25.034082 23754 net.cpp:408] conv10_2_mbox_loc_flat -> conv10_2_mbox_loc_flat
I0907 13:42:25.034106 23754 net.cpp:150] Setting up conv10_2_mbox_loc_flat
I0907 13:42:25.034111 23754 net.cpp:157] Top shape: 8 24 (192)
I0907 13:42:25.034116 23754 net.cpp:165] Memory required for data: 1287261664
I0907 13:42:25.034119 23754 layer_factory.hpp:77] Creating layer conv10_2_mbox_conf
I0907 13:42:25.034128 23754 net.cpp:100] Creating Layer conv10_2_mbox_conf
I0907 13:42:25.034132 23754 net.cpp:434] conv10_2_mbox_conf <- conv10_2_conv10_2_relu_0_split_1
I0907 13:42:25.034139 23754 net.cpp:408] conv10_2_mbox_conf -> conv10_2_mbox_conf
I0907 13:42:25.036952 23754 net.cpp:150] Setting up conv10_2_mbox_conf
I0907 13:42:25.036964 23754 net.cpp:157] Top shape: 8 24 1 1 (192)
I0907 13:42:25.036968 23754 net.cpp:165] Memory required for data: 1287262432
I0907 13:42:25.036974 23754 layer_factory.hpp:77] Creating layer conv10_2_mbox_conf_perm
I0907 13:42:25.036981 23754 net.cpp:100] Creating Layer conv10_2_mbox_conf_perm
I0907 13:42:25.036985 23754 net.cpp:434] conv10_2_mbox_conf_perm <- conv10_2_mbox_conf
I0907 13:42:25.036994 23754 net.cpp:408] conv10_2_mbox_conf_perm -> conv10_2_mbox_conf_perm
I0907 13:42:25.037096 23754 net.cpp:150] Setting up conv10_2_mbox_conf_perm
I0907 13:42:25.037101 23754 net.cpp:157] Top shape: 8 1 1 24 (192)
I0907 13:42:25.037104 23754 net.cpp:165] Memory required for data: 1287263200
I0907 13:42:25.037108 23754 layer_factory.hpp:77] Creating layer conv10_2_mbox_conf_flat
I0907 13:42:25.037114 23754 net.cpp:100] Creating Layer conv10_2_mbox_conf_flat
I0907 13:42:25.037117 23754 net.cpp:434] conv10_2_mbox_conf_flat <- conv10_2_mbox_conf_perm
I0907 13:42:25.037123 23754 net.cpp:408] conv10_2_mbox_conf_flat -> conv10_2_mbox_conf_flat
I0907 13:42:25.037148 23754 net.cpp:150] Setting up conv10_2_mbox_conf_flat
I0907 13:42:25.037153 23754 net.cpp:157] Top shape: 8 24 (192)
I0907 13:42:25.037158 23754 net.cpp:165] Memory required for data: 1287263968
I0907 13:42:25.037169 23754 layer_factory.hpp:77] Creating layer conv10_2_mbox_priorbox
I0907 13:42:25.037176 23754 net.cpp:100] Creating Layer conv10_2_mbox_priorbox
I0907 13:42:25.037181 23754 net.cpp:434] conv10_2_mbox_priorbox <- conv10_2_conv10_2_relu_0_split_2
I0907 13:42:25.037186 23754 net.cpp:434] conv10_2_mbox_priorbox <- data_data_0_split_6
I0907 13:42:25.037194 23754 net.cpp:408] conv10_2_mbox_priorbox -> conv10_2_mbox_priorbox
I0907 13:42:25.037223 23754 net.cpp:150] Setting up conv10_2_mbox_priorbox
I0907 13:42:25.037241 23754 net.cpp:157] Top shape: 1 2 24 (48)
I0907 13:42:25.037245 23754 net.cpp:165] Memory required for data: 1287264160
I0907 13:42:25.037248 23754 layer_factory.hpp:77] Creating layer mbox_loc
I0907 13:42:25.037256 23754 net.cpp:100] Creating Layer mbox_loc
I0907 13:42:25.037259 23754 net.cpp:434] mbox_loc <- conv5_5/sep_mbox_loc_flat
I0907 13:42:25.037264 23754 net.cpp:434] mbox_loc <- conv6/sep_mbox_loc_flat
I0907 13:42:25.037276 23754 net.cpp:434] mbox_loc <- conv7_2_mbox_loc_flat
I0907 13:42:25.037281 23754 net.cpp:434] mbox_loc <- conv8_2_mbox_loc_flat
I0907 13:42:25.037284 23754 net.cpp:434] mbox_loc <- conv9_2_mbox_loc_flat
I0907 13:42:25.037288 23754 net.cpp:434] mbox_loc <- conv10_2_mbox_loc_flat
I0907 13:42:25.037294 23754 net.cpp:408] mbox_loc -> mbox_loc
I0907 13:42:25.037324 23754 net.cpp:150] Setting up mbox_loc
I0907 13:42:25.037330 23754 net.cpp:157] Top shape: 8 7668 (61344)
I0907 13:42:25.037333 23754 net.cpp:165] Memory required for data: 1287509536
I0907 13:42:25.037336 23754 layer_factory.hpp:77] Creating layer mbox_conf
I0907 13:42:25.037343 23754 net.cpp:100] Creating Layer mbox_conf
I0907 13:42:25.037346 23754 net.cpp:434] mbox_conf <- conv5_5/sep_mbox_conf_flat
I0907 13:42:25.037351 23754 net.cpp:434] mbox_conf <- conv6/sep_mbox_conf_flat
I0907 13:42:25.037355 23754 net.cpp:434] mbox_conf <- conv7_2_mbox_conf_flat
I0907 13:42:25.037359 23754 net.cpp:434] mbox_conf <- conv8_2_mbox_conf_flat
I0907 13:42:25.037364 23754 net.cpp:434] mbox_conf <- conv9_2_mbox_conf_flat
I0907 13:42:25.037367 23754 net.cpp:434] mbox_conf <- conv10_2_mbox_conf_flat
I0907 13:42:25.037372 23754 net.cpp:408] mbox_conf -> mbox_conf
I0907 13:42:25.037395 23754 net.cpp:150] Setting up mbox_conf
I0907 13:42:25.037400 23754 net.cpp:157] Top shape: 8 7668 (61344)
I0907 13:42:25.037403 23754 net.cpp:165] Memory required for data: 1287754912
I0907 13:42:25.037407 23754 layer_factory.hpp:77] Creating layer mbox_priorbox
I0907 13:42:25.037413 23754 net.cpp:100] Creating Layer mbox_priorbox
I0907 13:42:25.037418 23754 net.cpp:434] mbox_priorbox <- conv5_5/sep_mbox_priorbox
I0907 13:42:25.037422 23754 net.cpp:434] mbox_priorbox <- conv6/sep_mbox_priorbox
I0907 13:42:25.037426 23754 net.cpp:434] mbox_priorbox <- conv7_2_mbox_priorbox
I0907 13:42:25.037431 23754 net.cpp:434] mbox_priorbox <- conv8_2_mbox_priorbox
I0907 13:42:25.037434 23754 net.cpp:434] mbox_priorbox <- conv9_2_mbox_priorbox
I0907 13:42:25.037438 23754 net.cpp:434] mbox_priorbox <- conv10_2_mbox_priorbox
I0907 13:42:25.037443 23754 net.cpp:408] mbox_priorbox -> mbox_priorbox
I0907 13:42:25.037464 23754 net.cpp:150] Setting up mbox_priorbox
I0907 13:42:25.037470 23754 net.cpp:157] Top shape: 1 2 7668 (15336)
I0907 13:42:25.037473 23754 net.cpp:165] Memory required for data: 1287816256
I0907 13:42:25.037488 23754 layer_factory.hpp:77] Creating layer mbox_conf_reshape
I0907 13:42:25.037497 23754 net.cpp:100] Creating Layer mbox_conf_reshape
I0907 13:42:25.037502 23754 net.cpp:434] mbox_conf_reshape <- mbox_conf
I0907 13:42:25.037508 23754 net.cpp:408] mbox_conf_reshape -> mbox_conf_reshape
I0907 13:42:25.037544 23754 net.cpp:150] Setting up mbox_conf_reshape
I0907 13:42:25.037550 23754 net.cpp:157] Top shape: 8 1917 4 (61344)
I0907 13:42:25.037554 23754 net.cpp:165] Memory required for data: 1288061632
I0907 13:42:25.037556 23754 layer_factory.hpp:77] Creating layer mbox_conf_softmax
I0907 13:42:25.037562 23754 net.cpp:100] Creating Layer mbox_conf_softmax
I0907 13:42:25.037566 23754 net.cpp:434] mbox_conf_softmax <- mbox_conf_reshape
I0907 13:42:25.037581 23754 net.cpp:408] mbox_conf_softmax -> mbox_conf_softmax
I0907 13:42:25.038313 23754 net.cpp:150] Setting up mbox_conf_softmax
I0907 13:42:25.038329 23754 net.cpp:157] Top shape: 8 1917 4 (61344)
I0907 13:42:25.038336 23754 net.cpp:165] Memory required for data: 1288307008
I0907 13:42:25.038339 23754 layer_factory.hpp:77] Creating layer mbox_conf_flatten
I0907 13:42:25.038345 23754 net.cpp:100] Creating Layer mbox_conf_flatten
I0907 13:42:25.038349 23754 net.cpp:434] mbox_conf_flatten <- mbox_conf_softmax
I0907 13:42:25.038357 23754 net.cpp:408] mbox_conf_flatten -> mbox_conf_flatten
I0907 13:42:25.038385 23754 net.cpp:150] Setting up mbox_conf_flatten
I0907 13:42:25.038391 23754 net.cpp:157] Top shape: 8 7668 (61344)
I0907 13:42:25.038394 23754 net.cpp:165] Memory required for data: 1288552384
I0907 13:42:25.038398 23754 layer_factory.hpp:77] Creating layer detection_out
I0907 13:42:25.038413 23754 net.cpp:100] Creating Layer detection_out
I0907 13:42:25.038417 23754 net.cpp:434] detection_out <- mbox_loc
I0907 13:42:25.038421 23754 net.cpp:434] detection_out <- mbox_conf_flatten
I0907 13:42:25.038425 23754 net.cpp:434] detection_out <- mbox_priorbox
I0907 13:42:25.038444 23754 net.cpp:408] detection_out -> detection_out
I0907 13:42:25.038769 23754 net.cpp:150] Setting up detection_out
I0907 13:42:25.038779 23754 net.cpp:157] Top shape: 1 1 1 7 (7)
I0907 13:42:25.038784 23754 net.cpp:165] Memory required for data: 1288552412
I0907 13:42:25.038787 23754 layer_factory.hpp:77] Creating layer detection_eval
I0907 13:42:25.038796 23754 net.cpp:100] Creating Layer detection_eval
I0907 13:42:25.038800 23754 net.cpp:434] detection_eval <- detection_out
I0907 13:42:25.038805 23754 net.cpp:434] detection_eval <- label
I0907 13:42:25.038811 23754 net.cpp:408] detection_eval -> detection_eval
I0907 13:42:25.039021 23754 net.cpp:150] Setting up detection_eval
I0907 13:42:25.039031 23754 net.cpp:157] Top shape: 1 1 4 5 (20)
I0907 13:42:25.039033 23754 net.cpp:165] Memory required for data: 1288552492
I0907 13:42:25.039038 23754 net.cpp:228] detection_eval does not need backward computation.
I0907 13:42:25.039043 23754 net.cpp:228] detection_out does not need backward computation.
I0907 13:42:25.039047 23754 net.cpp:228] mbox_conf_flatten does not need backward computation.
I0907 13:42:25.039052 23754 net.cpp:228] mbox_conf_softmax does not need backward computation.
…
