…
        min_scale: 0.3
        max_scale: 1
        min_aspect_ratio: 0.5
        max_aspect_ratio: 2
      }
      sample_constraint {
        min_jaccard_overlap: 0.9
      }
      max_sample: 1
      max_trials: 50
    }
    batch_sampler {
      sampler {
        min_scale: 0.3
        max_scale: 1
        min_aspect_ratio: 0.5
        max_aspect_ratio: 2
      }
      sample_constraint {
        max_jaccard_overlap: 1
      }
      max_sample: 1
      max_trials: 50
    }
    label_map_file: "data/BodyFaceHandRegions/labelmap_voc.prototxt"
  }
}
layer {
  name: "conv1"
  type: "Convolution"
  bottom: "data"
  top: "conv1"
  param {
    lr_mult: 1
    decay_mult: 1
  }
  convolution_param {
    num_output: 32
    bias_term: false
    pad: 1
    kernel_size: 3
    group: 1
    stride: 2
    weight_filler {
      type: "gaussian"
      std: 0.01
    }
    engine: DEFAULT
  }
}
layer {
  name: "conv1/bn"
  type: "BatchNorm"
  bottom: "conv1"
  top: "conv1"
  batch_norm_param {
    moving_average_fraction: 0.999
    eps: 0.001
  }
}
layer {
  name: "conv1/scale"
  type: "Scale"
  bottom: "conv1"
  top: "conv1"
  param {
    lr_mult: 1
    decay_mult: 0
  }
  param {
    lr_mult: 1
    decay_mult: 0
  }
  scale_param {
    filler {
      type: "constant"
      value: 1
    }
    bias_term: true
    bias_filler {
      type: "constant"
      value: 0
    }
  }
}
layer {
  name: "conv1_relu"
  type: "ReLU"
  bottom: "conv1"
  top: "conv1"
}
layer {
  name: "conv2_1/dw"
  type: "Convolution"
  bottom: "conv1"
  top: "conv2_1/dw"
  param {
    lr_mult: 1
    decay_mult: 1
  }
  convolution_param {
    num_output: 32
    bias_term: false
    pad: 1
    kernel_size: 3
    group: 32
    stride: 1
    weight_filler {
      type: "gaussian"
      std: 0.01
    }
    engine: CAFFE
  }
}
layer {
  name: "conv2_1/dw/bn"
  type: "BatchNorm"
  bottom: "conv2_1/dw"
  top: "conv2_1/dw"
  batch_norm_param {
    moving_average_fraction: 0.999
    eps: 0.001
  }
}
layer {
  name: "conv2_1/dw/scale"
  type: "Scale"
  bottom: "conv2_1/dw"
  top: "conv2_1/dw"
  param {
    lr_mult: 1
    decay_mult: 0
  }
  param {
    lr_mult: 1
    decay_mult: 0
  }
  scale_param {
    filler {
      type: "constant"
      value: 1
    }
    bias_term: true
    bias_filler {
      type: "constant"
      value: 0
    }
  }
}
layer {
  name: "conv2_1/dw_relu"
  type: "ReLU"
  bottom: "conv2_1/dw"
  top: "conv2_1/dw"
}
layer {
  name: "conv2_1/sep"
  type: "Convolution"
  bottom: "conv2_1/dw"
  top: "conv2_1/sep"
  param {
    lr_mult: 1
    decay_mult: 1
  }
  convolution_param {
    num_output: 64
    bias_term: false
    pad: 0
    kernel_size: 1
    group: 1
    stride: 1
    weight_filler {
      type: "gaussian"
      std: 0.01
    }
    engine: DEFAULT
  }
}
layer {
  name: "conv2_1/sep/bn"
  type: "BatchNorm"
  bottom: "conv2_1/sep"
  top: "conv2_1/sep"
  batch_norm_param {
    moving_average_fraction: 0.999
    eps: 0.001
  }
}
layer {
  name: "conv2_1/sep/scale"
  type: "Scale"
  bottom: "conv2_1/sep"
  top: "conv2_1/sep"
  param {
    lr_mult: 1
    decay_mult: 0
  }
  param {
    lr_mult: 1
    decay_mult: 0
  }
  scale_param {
    filler {
      type: "constant"
      value: 1
    }
    bias_term: true
    bias_filler {
      type: "constant"
      value: 0
    }
  }
}
layer {
  name: "conv2_1/sep_relu"
  type: "ReLU"
  bottom: "conv2_1/sep"
  top: "conv2_1/sep"
}
layer {
  name: "conv2_2/dw"
  type: "Convolution"
  bottom: "conv2_1/sep"
  top: "conv2_2/dw"
  param {
    lr_mult: 1
    decay_mult: 1
  }
  convolution_param {
    num_output: 64
    bias_term: false
    pad: 1
    kernel_size: 3
    group: 64
    stride: 2
    weight_filler {
      type: "gaussian"
      std: 0.01
    }
    engine: CAFFE
  }
}
layer {
  name: "conv2_2/dw/bn"
  type: "BatchNorm"
  bottom: "conv2_2/dw"
  top: "conv2_2/dw"
  batch_norm_param {
    moving_average_fraction: 0.999
    eps: 0.001
  }
}
layer {
  name: "conv2_2/dw/scale"
  type: "Scale"
  bottom: "conv2_2/dw"
  top: "conv2_2/dw"
  param {
    lr_mult: 1
    decay_mult: 0
  }
  param {
    lr_mult: 1
    decay_mult: 0
  }
  scale_param {
    filler {
      type: "constant"
      value: 1
    }
    bias_term: true
    bias_filler {
      type: "constant"
      value: 0
    }
  }
}
layer {
  name: "conv2_2/dw_relu"
  type: "ReLU"
  bottom: "conv2_2/dw"
  top: "conv2_2/dw"
}
layer {
  name: "conv2_2/sep"
  type: "Convolution"
  bottom: "conv2_2/dw"
  top: "conv2_2/sep"
  param {
    lr_mult: 1
    decay_mult: 1
  }
  convolution_param {
    num_output: 128
    bias_term: false
    pad: 0
    kernel_size: 1
    group: 1
    stride: 1
    weight_filler {
      type: "gaussian"
      std: 0.01
    }
    engine: DEFAULT
  }
}
layer {
  name: "conv2_2/sep/bn"
  type: "BatchNorm"
  bottom: "conv2_2/sep"
  top: "conv2_2/sep"
  batch_norm_param {
    moving_average_fraction: 0.999
    eps: 0.001
  }
}
layer {
  name: "conv2_2/sep/scale"
  type: "Scale"
  bottom: "conv2_2/sep"
  top: "conv2_2/sep"
  param {
    lr_mult: 1
    decay_mult: 0
  }
  param {
    lr_mult: 1
    decay_mult: 0
  }
  scale_param {
    filler {
      type: "constant"
      value: 1
    }
    bias_term: true
    bias_filler {
      type: "constant"
      value: 0
    }
  }
}
layer {
  name: "conv2_2/sep_relu"
  type: "ReLU"
  bottom: "conv2_2/sep"
  top: "conv2_2/sep"
}
layer {
  name: "conv3_1/dw"
  type: "Convolution"
  bottom: "conv2_2/sep"
  top: "conv3_1/dw"
  param {
    lr_mult: 1
    decay_mult: 1
  }
  convolution_param {
    num_output: 128
    bias_term: false
    pad: 1
    kernel_size: 3
    group: 128
    stride: 1
    weight_filler {
      type: "gaussian"
      std: 0.01
    }
    engine: CAFFE
  }
}
layer {
  name: "conv3_1/dw/bn"
  type: "BatchNorm"
  bottom: "conv3_1/dw"
  top: "conv3_1/dw"
  batch_norm_param {
    moving_average_fraction: 0.999
    eps: 0.001
  }
}
layer {
  name: "conv3_1/dw/scale"
  type: "Scale"
  bottom: "conv3_1/dw"
  top: "conv3_1/dw"
  param {
    lr_mult: 1
    decay_mult: 0
  }
  param {
    lr_mult: 1
    decay_mult: 0
  }
  scale_param {
    filler {
      type: "constant"
      value: 1
    }
    bias_term: true
    bias_filler {
      type: "constant"
      value: 0
    }
  }
}
layer {
  name: "conv3_1/dw_relu"
  type: "ReLU"
  bottom: "conv3_1/dw"
  top: "conv3_1/dw"
}
layer {
  name: "conv3_1/sep"
  type: "Convolution"
  bottom: "conv3_1/dw"
  top: "conv3_1/sep"
  param {
    lr_mult: 1
    decay_mult: 1
  }
  convolution_param {
    num_output: 128
    bias_term: false
    pad: 0
    kernel_size: 1
    group: 1
    stride: 1
    weight_filler {
      type: "gaussian"
      std: 0.01
    }
    engine: DEFAULT
  }
}
layer {
  name: "conv3_1/sep/bn"
  type: "BatchNorm"
  bottom: "conv3_1/sep"
  top: "conv3_1/sep"
  batch_norm_param {
    moving_average_fraction: 0.999
    eps: 0.001
  }
}
layer {
  name: "conv3_1/sep/scale"
  type: "Scale"
  bottom: "conv3_1/sep"
  top: "conv3_1/sep"
  param {
    lr_mult: 1
    decay_mult: 0
  }
  param {
    lr_mult: 1
    decay_mult: 0
  }
  scale_param {
    filler {
      type: "constant"
      value: 1
    }
    bias_term: true
    bias_filler {
      type: "constant"
      value: 0
    }
  }
}
layer {
  name: "conv3_1/sep_relu"
  type: "ReLU"
  bottom: "conv3_1/sep"
  top: "conv3_1/sep"
}
layer {
  name: "conv3_2/dw"
  type: "Convolution"
  bottom: "conv3_1/sep"
  top: "conv3_2/dw"
  param {
    lr_mult: 1
    decay_mult: 1
  }
  convolution_param {
    num_output: 128
    bias_term: false
    pad: 1
    kernel_size: 3
    group: 128
    stride: 2
    weight_filler {
      type: "gaussian"
      std: 0.01
    }
    engine: CAFFE
  }
}
layer {
  name: "conv3_2/dw/bn"
  type: "BatchNorm"
  bottom: "conv3_2/dw"
  top: "conv3_2/dw"
  batch_norm_param {
    moving_average_fraction: 0.999
    eps: 0.001
  }
}
layer {
  name: "conv3_2/dw/scale"
  type: "Scale"
  bottom: "conv3_2/dw"
  top: "conv3_2/dw"
  param {
    lr_mult: 1
    decay_mult: 0
  }
  param {
    lr_mult: 1
    decay_mult: 0
  }
  scale_param {
    filler {
      type: "constant"
      value: 1
    }
    bias_term: true
    bias_filler {
      type: "constant"
      value: 0
    }
  }
}
layer {
  name: "conv3_2/dw_relu"
  type: "ReLU"
  bottom: "conv3_2/dw"
  top: "conv3_2/dw"
}
layer {
  name: "conv3_2/sep"
  type: "Convolution"
  bottom: "conv3_2/dw"
  top: "conv3_2/sep"
  param {
    lr_mult: 1
    decay_mult: 1
  }
  convolution_param {
    num_output: 256
    bias_term: false
    pad: 0
    kernel_size: 1
    group: 1
    stride: 1
    weight_filler {
      type: "gaussian"
      std: 0.01
    }
    engine: DEFAULT
  }
}
layer {
  name: "conv3_2/sep/bn"
  type: "BatchNorm"
  bottom: "conv3_2/sep"
  top: "conv3_2/sep"
  batch_norm_param {
    moving_average_fraction: 0.999
    eps: 0.001
  }
}
layer {
  name: "conv3_2/sep/scale"
  type: "Scale"
  bottom: "conv3_2/sep"
  top: "conv3_2/sep"
  param {
    lr_mult: 1
    decay_mult: 0
  }
  param {
    lr_mult: 1
    decay_mult: 0
  }
  scale_param {
    filler {
      type: "constant"
      value: 1
    }
    bias_term: true
    bias_filler {
      type: "constant"
      value: 0
    }
  }
}
layer {
  name: "conv3_2/sep_relu"
  type: "ReLU"
  bottom: "conv3_2/sep"
  top: "conv3_2/sep"
}
layer {
  name: "conv4_1/dw"
  type: "Convolution"
  bottom: "conv3_2/sep"
  top: "conv4_1/dw"
  param {
    lr_mult: 1
    decay_mult: 1
  }
  convolution_param {
    num_output: 256
    bias_term: false
    pad: 1
    kernel_size: 3
    group: 256
    stride: 1
    weight_filler {
      type: "gaussian"
      std: 0.01
    }
    engine: CAFFE
  }
}
layer {
  name: "conv4_1/dw/bn"
  type: "BatchNorm"
  bottom: "conv4_1/dw"
  top: "conv4_1/dw"
  batch_norm_param {
    moving_average_fraction: 0.999
    eps: 0.001
  }
}
layer {
  name: "conv4_1/dw/scale"
  type: "Scale"
  bottom: "conv4_1/dw"
  top: "conv4_1/dw"
  param {
    lr_mult: 1
    decay_mult: 0
  }
  param {
    lr_mult: 1
    decay_mult: 0
  }
  scale_param {
    filler {
      type: "constant"
      value: 1
    }
    bias_term: true
    bias_filler {
      type: "constant"
      value: 0
    }
  }
}
layer {
  name: "conv4_1/dw_relu"
  type: "ReLU"
  bottom: "conv4_1/dw"
  top: "conv4_1/dw"
}
layer {
  name: "conv4_1/sep"
  type: "Convolution"
  bottom: "conv4_1/dw"
  top: "conv4_1/sep"
  param {
    lr_mult: 1
    decay_mult: 1
  }
  convolution_param {
    num_output: 256
    bias_term: false
    pad: 0
    kernel_size: 1
    group: 1
    stride: 1
    weight_filler {
      type: "gaussian"
      std: 0.01
    }
    engine: DEFAULT
  }
}
layer {
  name: "conv4_1/sep/bn"
  type: "BatchNorm"
  bottom: "conv4_1/sep"
  top: "conv4_1/sep"
  batch_norm_param {
    moving_average_fraction: 0.999
    eps: 0.001
  }
}
layer {
  name: "conv4_1/sep/scale"
  type: "Scale"
  bottom: "conv4_1/sep"
  top: "conv4_1/sep"
  param {
    lr_mult: 1
    decay_mult: 0
  }
  param {
    lr_mult: 1
    decay_mult: 0
  }
  scale_param {
    filler {
      type: "constant"
      value: 1
    }
    bias_term: true
    bias_filler {
      type: "constant"
      value: 0
    }
  }
}
layer {
  name: "conv4_1/sep_relu"
  type: "ReLU"
  bottom: "conv4_1/sep"
  top: "conv4_1/sep"
}
layer {
  name: "conv4_2/dw"
  type: "Convolution"
  bottom: "conv4_1/sep"
  top: "conv4_2/dw"
  param {
    lr_mult: 1
    decay_mult: 1
  }
  convolution_param {
    num_output: 256
    bias_term: false
    pad: 1
    kernel_size: 3
    group: 256
    stride: 2
    weight_filler {
      type: "gaussian"
      std: 0.01
    }
    engine: CAFFE
  }
}
layer {
  name: "conv4_2/dw/bn"
  type: "BatchNorm"
  bottom: "conv4_2/dw"
  top: "conv4_2/dw"
  batch_norm_param {
    moving_average_fraction: 0.999
    eps: 0.001
  }
}
layer {
  name: "conv4_2/dw/scale"
  type: "Scale"
  bottom: "conv4_2/dw"
  top: "conv4_2/dw"
  param {
    lr_mult: 1
    decay_mult: 0
  }
  param {
    lr_mult: 1
    decay_mult: 0
  }
  scale_param {
    filler {
      type: "constant"
      value: 1
    }
    bias_term: true
    bias_filler {
      type: "constant"
      value: 0
    }
  }
}
layer {
  name: "conv4_2/dw_relu"
  type: "ReLU"
  bottom: "conv4_2/dw"
  top: "conv4_2/dw"
}
layer {
  name: "conv4_2/sep"
  type: "Convolution"
  bottom: "conv4_2/dw"
  top: "conv4_2/sep"
  param {
    lr_mult: 1
    decay_mult: 1
  }
  convolution_param {
    num_output: 512
    bias_term: false
    pad: 0
    kernel_size: 1
    group: 1
    stride: 1
    weight_filler {
      type: "gaussian"
      std: 0.01
    }
    engine: DEFAULT
  }
}
layer {
  name: "conv4_2/sep/bn"
  type: "BatchNorm"
  bottom: "conv4_2/sep"
  top: "conv4_2/sep"
  batch_norm_param {
    moving_average_fraction: 0.999
    eps: 0.001
  }
}
layer {
  name: "conv4_2/sep/scale"
  type: "Scale"
  bottom: "conv4_2/sep"
  top: "conv4_2/sep"
  param {
    lr_mult: 1
    decay_mult: 0
  }
  param {
    lr_mult: 1
    decay_mult: 0
  }
  scale_param {
    filler {
      type: "constant"
      value: 1
    }
    bias_term: true
    bias_filler {
      type: "constant"
      value: 0
    }
  }
}
layer {
  name: "conv4_2/sep_relu"
  type: "ReLU"
  bottom: "conv4_2/sep"
  top: "conv4_2/sep"
}
layer {
  name: "conv5_1/dw"
  type: "Convolution"
  bottom: "conv4_2/sep"
  top: "conv5_1/dw"
  param {
    lr_mult: 1
    decay_mult: 1
  }
  convolution_param {
    num_output: 512
    bias_term: false
    pad: 1
    kernel_size: 3
    group: 512
    stride: 1
    weight_filler {
      type: "gaussian"
      std: 0.01
    }
    engine: CAFFE
  }
}
layer {
  name: "conv5_1/dw/bn"
  type: "BatchNorm"
  bottom: "conv5_1/dw"
  top: "conv5_1/dw"
  batch_norm_param {
    moving_average_fraction: 0.999
    eps: 0.001
  }
}
layer {
  name: "conv5_1/dw/scale"
  type: "Scale"
  bottom: "conv5_1/dw"
  top: "conv5_1/dw"
  param {
    lr_mult: 1
    decay_mult: 0
  }
  param {
    lr_mult: 1
    decay_mult: 0
  }
  scale_param {
    filler {
      type: "constant"
      value: 1
    }
    bias_term: true
    bias_filler {
      type: "constant"
      value: 0
    }
  }
}
layer {
  name: "conv5_1/dw_relu"
  type: "ReLU"
  bottom: "conv5_1/dw"
  top: "conv5_1/dw"
}
layer {
  name: "conv5_1/sep"
  type: "Convolution"
  bottom: "conv5_1/dw"
  top: "conv5_1/sep"
  param {
    lr_mult: 1
    decay_mult: 1
  }
  convolution_param {
    num_output: 512
    bias_term: false
    pad: 0
    kernel_size: 1
    group: 1
    stride: 1
    weight_filler {
      type: "gaussian"
      std: 0.01
    }
    engine: DEFAULT
  }
}
layer {
  name: "conv5_1/sep/bn"
  type: "BatchNorm"
  bottom: "conv5_1/sep"
  top: "conv5_1/sep"
  batch_norm_param {
    moving_average_fraction: 0.999
    eps: 0.001
  }
}
layer {
  name: "conv5_1/sep/scale"
  type: "Scale"
  bottom: "conv5_1/sep"
  top: "conv5_1/sep"
  param {
    lr_mult: 1
    decay_mult: 0
  }
  param {
    lr_mult: 1
    decay_mult: 0
  }
  scale_param {
    filler {
      type: "constant"
      value: 1
    }
    bias_term: true
    bias_filler {
      type: "constant"
      value: 0
    }
  }
}
layer {
  name: "conv5_1/sep_relu"
  type: "ReLU"
  bottom: "conv5_1/sep"
  top: "conv5_1/sep"
}
layer {
  name: "conv5_2/dw"
  type: "Convolution"
  bottom: "conv5_1/sep"
  top: "conv5_2/dw"
  param {
    lr_mult: 1
    decay_mult: 1
  }
  convolution_param {
    num_output: 512
    bias_term: false
    pad: 1
    kernel_size: 3
    group: 512
    stride: 1
    weight_filler {
      type: "gaussian"
      std: 0.01
    }
    engine: CAFFE
  }
}
layer {
  name: "conv5_2/dw/bn"
  type: "BatchNorm"
  bottom: "conv5_2/dw"
  top: "conv5_2/dw"
  batch_norm_param {
    moving_average_fraction: 0.999
    eps: 0.001
  }
}
layer {
  name: "conv5_2/dw/scale"
  type: "Scale"
  bottom: "conv5_2/dw"
  top: "conv5_2/dw"
  param {
    lr_mult: 1
    decay_mult: 0
  }
  param {
    lr_mult: 1
    decay_mult: 0
  }
  scale_param {
    filler {
      type: "constant"
      value: 1
    }
    bias_term: true
    bias_filler {
      type: "constant"
      value: 0
    }
  }
}
layer {
  name: "conv5_2/dw_relu"
  type: "ReLU"
  bottom: "conv5_2/dw"
  top: "conv5_2/dw"
}
layer {
  name: "conv5_2/sep"
  type: "Convolution"
  bottom: "conv5_2/dw"
  top: "conv5_2/sep"
  param {
    lr_mult: 1
    decay_mult: 1
  }
  convolution_param {
    num_output: 512
    bias_term: false
    pad: 0
    kernel_size: 1
    group: 1
    stride: 1
    weight_filler {
      type: "gaussian"
      std: 0.01
    }
    engine: DEFAULT
  }
}
layer {
  name: "conv5_2/sep/bn"
  type: "BatchNorm"
  bottom: "conv5_2/sep"
  top: "conv5_2/sep"
  batch_norm_param {
    moving_average_fraction: 0.999
    eps: 0.001
  }
}
layer {
  name: "conv5_2/sep/scale"
  type: "Scale"
  bottom: "conv5_2/sep"
  top: "conv5_2/sep"
  param {
    lr_mult: 1
    decay_mult: 0
  }
  param {
    lr_mult: 1
    decay_mult: 0
  }
  scale_param {
    filler {
      type: "constant"
      value: 1
    }
    bias_term: true
    bias_filler {
      type: "constant"
      value: 0
    }
  }
}
layer {
  name: "conv5_2/sep_relu"
  type: "ReLU"
  bottom: "conv5_2/sep"
  top: "conv5_2/sep"
}
layer {
  name: "conv5_3/dw"
  type: "Convolution"
  bottom: "conv5_2/sep"
  top: "conv5_3/dw"
  param {
    lr_mult: 1
    decay_mult: 1
  }
  convolution_param {
    num_output: 512
    bias_term: false
    pad: 1
    kernel_size: 3
    group: 512
    stride: 1
    weight_filler {
      type: "gaussian"
      std: 0.01
    }
    engine: CAFFE
  }
}
layer {
  name: "conv5_3/dw/bn"
  type: "BatchNorm"
  bottom: "conv5_3/dw"
  top: "conv5_3/dw"
  batch_norm_param {
    moving_average_fraction: 0.999
    eps: 0.001
  }
}
layer {
  name: "conv5_3/dw/scale"
  type: "Scale"
  bottom: "conv5_3/dw"
  top: "conv5_3/dw"
  param {
    lr_mult: 1
    decay_mult: 0
  }
  param {
    lr_mult: 1
    decay_mult: 0
  }
  scale_param {
    filler {
      type: "constant"
      value: 1
    }
    bias_term: true
    bias_filler {
      type: "constant"
      value: 0
    }
  }
}
layer {
  name: "conv5_3/dw_relu"
  type: "ReLU"
  bottom: "conv5_3/dw"
  top: "conv5_3/dw"
}
layer {
  name: "conv5_3/sep"
  type: "Convolution"
  bottom: "conv5_3/dw"
  top: "conv5_3/sep"
  param {
    lr_mult: 1
    decay_mult: 1
  }
  convolution_param {
    num_output: 512
    bias_term: false
    pad: 0
    kernel_size: 1
    group: 1
    stride: 1
    weight_filler {
      type: "gaussian"
      std: 0.01
    }
    engine: DEFAULT
  }
}
layer {
  name: "conv5_3/sep/bn"
  type: "BatchNorm"
  bottom: "conv5_3/sep"
  top: "conv5_3/sep"
  batch_norm_param {
    moving_average_fraction: 0.999
    eps: 0.001
  }
}
layer {
  name: "conv5_3/sep/scale"
  type: "Scale"
  bottom: "conv5_3/sep"
  top: "conv5_3/sep"
  param {
    lr_mult: 1
    decay_mult: 0
  }
  param {
    lr_mult: 1
    decay_mult: 0
  }
  scale_param {
    filler {
      type: "constant"
      value: 1
    }
    bias_term: true
    bias_filler {
      type: "constant"
      value: 0
    }
  }
}
layer {
  name: "conv5_3/sep_relu"
  type: "ReLU"
  bottom: "conv5_3/sep"
  top: "conv5_3/sep"
}
layer {
  name: "conv5_4/dw"
  type: "Convolution"
  bottom: "conv5_3/sep"
  top: "conv5_4/dw"
  param {
    lr_mult: 1
    decay_mult: 1
  }
  convolution_param {
    num_output: 512
    bias_term: false
    pad: 1
    kernel_size: 3
    group: 512
    stride: 1
    weight_filler {
      type: "gaussian"
      std: 0.01
    }
    engine: CAFFE
  }
}
layer {
  name: "conv5_4/dw/bn"
  type: "BatchNorm"
  bottom: "conv5_4/dw"
  top: "conv5_4/dw"
  batch_norm_param {
    moving_average_fraction: 0.999
    eps: 0.001
  }
}
layer {
  name: "conv5_4/dw/scale"
  type: "Scale"
  bottom: "conv5_4/dw"
  top: "conv5_4/dw"
  param {
    lr_mult: 1
    decay_mult: 0
  }
  param {
    lr_mult: 1
    decay_mult: 0
  }
  scale_param {
    filler {
      type: "constant"
      value: 1
    }
    bias_term: true
    bias_filler {
      type: "constant"
      value: 0
    }
  }
}
layer {
  name: "conv5_4/dw_relu"
  type: "ReLU"
  bottom: "conv5_4/dw"
  top: "conv5_4/dw"
}
layer {
  name: "conv5_4/sep"
  type: "Convolution"
  bottom: "conv5_4/dw"
  top: "conv5_4/sep"
  param {
    lr_mult: 1
    decay_mult: 1
  }
  convolution_param {
    num_output: 512
    bias_term: false
    pad: 0
    kernel_size: 1
    group: 1
    stride: 1
    weight_filler {
      type: "gaussian"
      std: 0.01
    }
    engine: DEFAULT
  }
}
layer {
  name: "conv5_4/sep/bn"
  type: "BatchNorm"
  bottom: "conv5_4/sep"
  top: "conv5_4/sep"
  batch_norm_param {
    moving_average_fraction: 0.999
    eps: 0.001
  }
}
layer {
  name: "conv5_4/sep/scale"
  type: "Scale"
  bottom: "conv5_4/sep"
  top: "conv5_4/sep"
  param {
    lr_mult: 1
    decay_mult: 0
  }
  param {
    lr_mult: 1
    decay_mult: 0
  }
  scale_param {
    filler {
      type: "constant"
      value: 1
    }
    bias_term: true
    bias_filler {
      type: "constant"
      value: 0
    }
  }
}
layer {
  name: "conv5_4/sep_relu"
  type: "ReLU"
  bottom: "conv5_4/sep"
  top: "conv5_4/sep"
}
layer {
  name: "conv5_5/dw"
  type: "Convolution"
  bottom: "conv5_4/sep"
  top: "conv5_5/dw"
  param {
    lr_mult: 1
    decay_mult: 1
  }
  convolution_param {
    num_output: 512
    bias_term: false
    pad: 1
    kernel_size: 3
    group: 512
    stride: 1
    weight_filler {
      type: "gaussian"
      std: 0.01
    }
    engine: CAFFE
  }
}
layer {
  name: "conv5_5/dw/bn"
  type: "BatchNorm"
  bottom: "conv5_5/dw"
  top: "conv5_5/dw"
  batch_norm_param {
    moving_average_fraction: 0.999
    eps: 0.001
  }
}
layer {
  name: "conv5_5/dw/scale"
  type: "Scale"
  bottom: "conv5_5/dw"
  top: "conv5_5/dw"
  param {
    lr_mult: 1
    decay_mult: 0
  }
  param {
    lr_mult: 1
    decay_mult: 0
  }
  scale_param {
    filler {
      type: "constant"
      value: 1
    }
    bias_term: true
    bias_filler {
      type: "constant"
      value: 0
    }
  }
}
layer {
  name: "conv5_5/dw_relu"
  type: "ReLU"
  bottom: "conv5_5/dw"
  top: "conv5_5/dw"
}
layer {
  name: "conv5_5/sep"
  type: "Convolution"
  bottom: "conv5_5/dw"
  top: "conv5_5/sep"
  param {
    lr_mult: 1
    decay_mult: 1
  }
  convolution_param {
    num_output: 512
    bias_term: false
    pad: 0
    kernel_size: 1
    group: 1
    stride: 1
    weight_filler {
      type: "gaussian"
      std: 0.01
    }
    engine: DEFAULT
  }
}
layer {
  name: "conv5_5/sep/bn"
  type: "BatchNorm"
  bottom: "conv5_5/sep"
  top: "conv5_5/sep"
  batch_norm_param {
    moving_average_fraction: 0.999
    eps: 0.001
  }
}
layer {
  name: "conv5_5/sep/scale"
  type: "Scale"
  bottom: "conv5_5/sep"
  top: "conv5_5/sep"
  param {
    lr_mult: 1
    decay_mult: 0
  }
  param {
    lr_mult: 1
    decay_mult: 0
  }
  scale_param {
    filler {
      type: "constant"
      value: 1
    }
    bias_term: true
    bias_filler {
      type: "constant"
      value: 0
    }
  }
}
layer {
  name: "conv5_5/sep_relu"
  type: "ReLU"
  bottom: "conv5_5/sep"
  top: "conv5_5/sep"
}
layer {
  name: "conv5_6/dw"
  type: "Convolution"
  bottom: "conv5_5/sep"
  top: "conv5_6/dw"
  param {
    lr_mult: 1
    decay_mult: 1
  }
  convolution_param {
    num_output: 512
    bias_term: false
    pad: 1
    kernel_size: 3
    group: 512
    stride: 2
    weight_filler {
      type: "gaussian"
      std: 0.01
    }
    engine: CAFFE
  }
}
layer {
  name: "conv5_6/dw/bn"
  type: "BatchNorm"
  bottom: "conv5_6/dw"
  top: "conv5_6/dw"
  batch_norm_param {
    moving_average_fraction: 0.999
    eps: 0.001
  }
}
layer {
  name: "conv5_6/dw/scale"
  type: "Scale"
  bottom: "conv5_6/dw"
  top: "conv5_6/dw"
  param {
    lr_mult: 1
    decay_mult: 0
  }
  param {
    lr_mult: 1
    decay_mult: 0
  }
  scale_param {
    filler {
      type: "constant"
      value: 1
    }
    bias_term: true
    bias_filler {
      type: "constant"
      value: 0
    }
  }
}
layer {
  name: "conv5_6/dw_relu"
  type: "ReLU"
  bottom: "conv5_6/dw"
  top: "conv5_6/dw"
}
layer {
  name: "conv5_6/sep"
  type: "Convolution"
  bottom: "conv5_6/dw"
  top: "conv5_6/sep"
  param {
    lr_mult: 1
    decay_mult: 1
  }
  convolution_param {
    num_output: 1024
    bias_term: false
    pad: 0
    kernel_size: 1
    group: 1
    stride: 1
    weight_filler {
      type: "gaussian"
      std: 0.01
    }
    engine: DEFAULT
  }
}
layer {
  name: "conv5_6/sep/bn"
  type: "BatchNorm"
  bottom: "conv5_6/sep"
  top: "conv5_6/sep"
  batch_norm_param {
    moving_average_fraction: 0.999
    eps: 0.001
  }
}
layer {
  name: "conv5_6/sep/scale"
  type: "Scale"
  bottom: "conv5_6/sep"
  top: "conv5_6/sep"
  param {
    lr_mult: 1
    decay_mult: 0
  }
  param {
    lr_mult: 1
    decay_mult: 0
  }
  scale_param {
    filler {
      type: "constant"
      value: 1
    }
    bias_term: true
    bias_filler {
      type: "constant"
      value: 0
    }
  }
}
layer {
  name: "conv5_6/sep_relu"
  type: "ReLU"
  bottom: "conv5_6/sep"
  top: "conv5_6/sep"
}
layer {
  name: "conv6/dw"
  type: "Convolution"
  bottom: "conv5_6/sep"
  top: "conv6/dw"
  param {
    lr_mult: 1
    decay_mult: 1
  }
  convolution_param {
    num_output: 1024
    bias_term: false
    pad: 1
    kernel_size: 3
    group: 1024
    stride: 1
    weight_filler {
      type: "gaussian"
      std: 0.01
    }
    engine: CAFFE
  }
}
layer {
  name: "conv6/dw/bn"
  type: "BatchNorm"
  bottom: "conv6/dw"
  top: "conv6/dw"
  batch_norm_param {
    moving_average_fraction: 0.999
    eps: 0.001
  }
}
layer {
  name: "conv6/dw/scale"
  type: "Scale"
  bottom: "conv6/dw"
  top: "conv6/dw"
  param {
    lr_mult: 1
    decay_mult: 0
  }
  param {
    lr_mult: 1
    decay_mult: 0
  }
  scale_param {
    filler {
      type: "constant"
      value: 1
    }
    bias_term: true
    bias_filler {
      type: "constant"
      value: 0
    }
  }
}
layer {
  name: "conv6/dw_relu"
  type: "ReLU"
  bottom: "conv6/dw"
  top: "conv6/dw"
}
layer {
  name: "conv6/sep"
  type: "Convolution"
  bottom: "conv6/dw"
  top: "conv6/sep"
  param {
    lr_mult: 1
    decay_mult: 1
  }
  convolution_param {
    num_output: 1024
    bias_term: false
    pad: 0
    kernel_size: 1
    group: 1
    stride: 1
    weight_filler {
      type: "gaussian"
      std: 0.01
    }
    engine: DEFAULT
  }
}
layer {
  name: "conv6/sep/bn"
  type: "BatchNorm"
  bottom: "conv6/sep"
  top: "conv6/sep"
  batch_norm_param {
    moving_average_fraction: 0.999
    eps: 0.001
  }
}
layer {
  name: "conv6/sep/scale"
  type: "Scale"
  bottom: "conv6/sep"
  top: "conv6/sep"
  param {
    lr_mult: 1
    decay_mult: 0
  }
  param {
    lr_mult: 1
    decay_mult: 0
  }
  scale_param {
    filler {
      type: "constant"
      value: 1
    }
    bias_term: true
    bias_filler {
      type: "constant"
      value: 0
    }
  }
}
layer {
  name: "conv6/sep_relu"
  type: "ReLU"
  bottom: "conv6/sep"
  top: "conv6/sep"
}
layer {
  name: "conv7_1"
  type: "Convolution"
  bottom: "conv6/sep"
  top: "conv7_1"
  param {
    lr_mult: 1
    decay_mult: 1
  }
  param {
    lr_mult: 2
    decay_mult: 0
  }
  convolution_param {
    num_output: 256
    pad: 0
    kernel_size: 1
    group: 1
    stride: 1
    weight_filler {
      type: "xavier"
    }
    bias_filler {
      type: "constant"
      value: 0
    }
    engine: DEFAULT
  }
}
layer {
  name: "conv7_1_relu"
  type: "ReLU"
  bottom: "conv7_1"
  top: "conv7_1"
}
layer {
  name: "conv7_2"
  type: "Convolution"
  bottom: "conv7_1"
  top: "conv7_2"
  param {
    lr_mult: 1
    decay_mult: 1
  }
  param {
    lr_mult: 2
    decay_mult: 0
  }
  convolution_param {
    num_output: 512
    pad: 1
    kernel_size: 3
    group: 1
    stride: 2
    weight_filler {
      type: "xavier"
    }
    bias_filler {
      type: "constant"
      value: 0
    }
    engine: DEFAULT
  }
}
layer {
  name: "conv7_2_relu"
  type: "ReLU"
  bottom: "con
I0907 13:37:30.738425 23576 layer_factory.hpp:77] Creating layer data
I0907 13:37:30.738590 23576 net.cpp:100] Creating Layer data
I0907 13:37:30.738603 23576 net.cpp:408] data -> data
I0907 13:37:30.738634 23576 net.cpp:408] data -> label
I0907 13:37:30.739778 23581 db_lmdb.cpp:35] Opened lmdb data/BodyFaceHandRegions/lmdb/oxford_viva_lmdb
I0907 13:37:30.752689 23576 annotated_data_layer.cpp:62] output data size: 16,3,300,300
I0907 13:37:30.778772 23576 net.cpp:150] Setting up data
I0907 13:37:30.778798 23576 net.cpp:157] Top shape: 16 3 300 300 (4320000)
I0907 13:37:30.778802 23576 net.cpp:157] Top shape: 1 1 4 8 (32)
I0907 13:37:30.778805 23576 net.cpp:165] Memory required for data: 17280128
I0907 13:37:30.778815 23576 layer_factory.hpp:77] Creating layer data_data_0_split
I0907 13:37:30.778828 23576 net.cpp:100] Creating Layer data_data_0_split
I0907 13:37:30.778834 23576 net.cpp:434] data_data_0_split <- data
I0907 13:37:30.778847 23576 net.cpp:408] data_data_0_split -> data_data_0_split_0
I0907 13:37:30.778858 23576 net.cpp:408] data_data_0_split -> data_data_0_split_1
I0907 13:37:30.778864 23576 net.cpp:408] data_data_0_split -> data_data_0_split_2
I0907 13:37:30.778870 23576 net.cpp:408] data_data_0_split -> data_data_0_split_3
I0907 13:37:30.778877 23576 net.cpp:408] data_data_0_split -> data_data_0_split_4
I0907 13:37:30.778884 23576 net.cpp:408] data_data_0_split -> data_data_0_split_5
I0907 13:37:30.778890 23576 net.cpp:408] data_data_0_split -> data_data_0_split_6
I0907 13:37:30.779031 23576 net.cpp:150] Setting up data_data_0_split
I0907 13:37:30.779038 23576 net.cpp:157] Top shape: 16 3 300 300 (4320000)
I0907 13:37:30.779043 23576 net.cpp:157] Top shape: 16 3 300 300 (4320000)
I0907 13:37:30.779048 23576 net.cpp:157] Top shape: 16 3 300 300 (4320000)
I0907 13:37:30.779052 23576 net.cpp:157] Top shape: 16 3 300 300 (4320000)
I0907 13:37:30.779057 23576 net.cpp:157] Top shape: 16 3 300 300 (4320000)
I0907 13:37:30.779060 23576 net.cpp:157] Top shape: 16 3 300 300 (4320000)
I0907 13:37:30.779065 23576 net.cpp:157] Top shape: 16 3 300 300 (4320000)
I0907 13:37:30.779068 23576 net.cpp:165] Memory required for data: 138240128
I0907 13:37:30.779072 23576 layer_factory.hpp:77] Creating layer conv1
I0907 13:37:30.779088 23576 net.cpp:100] Creating Layer conv1
I0907 13:37:30.779093 23576 net.cpp:434] conv1 <- data_data_0_split_0
I0907 13:37:30.779100 23576 net.cpp:408] conv1 -> conv1
I0907 13:37:30.896281 23582 blocking_queue.cpp:50] Waiting for data
I0907 13:37:30.999478 23576 net.cpp:150] Setting up conv1
I0907 13:37:30.999505 23576 net.cpp:157] Top shape: 16 32 150 150 (11520000)
I0907 13:37:30.999508 23576 net.cpp:165] Memory required for data: 184320128
I0907 13:37:30.999524 23576 layer_factory.hpp:77] Creating layer conv1/bn
I0907 13:37:30.999533 23576 net.cpp:100] Creating Layer conv1/bn
I0907 13:37:30.999539 23576 net.cpp:434] conv1/bn <- conv1
I0907 13:37:30.999546 23576 net.cpp:395] conv1/bn -> conv1 (in-place)
I0907 13:37:31.000149 23576 net.cpp:150] Setting up conv1/bn
I0907 13:37:31.000160 23576 net.cpp:157] Top shape: 16 32 150 150 (11520000)
I0907 13:37:31.000162 23576 net.cpp:165] Memory required for data: 230400128
I0907 13:37:31.000172 23576 layer_factory.hpp:77] Creating layer conv1/scale
I0907 13:37:31.000182 23576 net.cpp:100] Creating Layer conv1/scale
I0907 13:37:31.000187 23576 net.cpp:434] conv1/scale <- conv1
I0907 13:37:31.000195 23576 net.cpp:395] conv1/scale -> conv1 (in-place)
I0907 13:37:31.000232 23576 layer_factory.hpp:77] Creating layer conv1/scale
I0907 13:37:31.000346 23576 net.cpp:150] Setting up conv1/scale
I0907 13:37:31.000353 23576 net.cpp:157] Top shape: 16 32 150 150 (11520000)
I0907 13:37:31.000356 23576 net.cpp:165] Memory required for data: 276480128
I0907 13:37:31.000365 23576 layer_factory.hpp:77] Creating layer conv1_relu
I0907 13:37:31.000370 23576 net.cpp:100] Creating Layer conv1_relu
I0907 13:37:31.000373 23576 net.cpp:434] conv1_relu <- conv1
I0907 13:37:31.000378 23576 net.cpp:395] conv1_relu -> conv1 (in-place)
I0907 13:37:31.000524 23576 net.cpp:150] Setting up conv1_relu
I0907 13:37:31.000532 23576 net.cpp:157] Top shape: 16 32 150 150 (11520000)
I0907 13:37:31.000536 23576 net.cpp:165] Memory required for data: 322560128
I0907 13:37:31.000540 23576 layer_factory.hpp:77] Creating layer conv2_1/dw
I0907 13:37:31.000550 23576 net.cpp:100] Creating Layer conv2_1/dw
I0907 13:37:31.000553 23576 net.cpp:434] conv2_1/dw <- conv1
I0907 13:37:31.000560 23576 net.cpp:408] conv2_1/dw -> conv2_1/dw
I0907 13:37:31.000716 23576 net.cpp:150] Setting up conv2_1/dw
I0907 13:37:31.000723 23576 net.cpp:157] Top shape: 16 32 150 150 (11520000)
I0907 13:37:31.000727 23576 net.cpp:165] Memory required for data: 368640128
I0907 13:37:31.000731 23576 layer_factory.hpp:77] Creating layer conv2_1/dw/bn
I0907 13:37:31.000737 23576 net.cpp:100] Creating Layer conv2_1/dw/bn
I0907 13:37:31.000741 23576 net.cpp:434] conv2_1/dw/bn <- conv2_1/dw
I0907 13:37:31.000746 23576 net.cpp:395] conv2_1/dw/bn -> conv2_1/dw (in-place)
I0907 13:37:31.000900 23576 net.cpp:150] Setting up conv2_1/dw/bn
I0907 13:37:31.000908 23576 net.cpp:157] Top shape: 16 32 150 150 (11520000)
I0907 13:37:31.000911 23576 net.cpp:165] Memory required for data: 414720128
I0907 13:37:31.000919 23576 layer_factory.hpp:77] Creating layer conv2_1/dw/scale
I0907 13:37:31.000926 23576 net.cpp:100] Creating Layer conv2_1/dw/scale
I0907 13:37:31.000931 23576 net.cpp:434] conv2_1/dw/scale <- conv2_1/dw
I0907 13:37:31.000936 23576 net.cpp:395] conv2_1/dw/scale -> conv2_1/dw (in-place)
I0907 13:37:31.000990 23576 layer_factory.hpp:77] Creating layer conv2_1/dw/scale
I0907 13:37:31.001103 23576 net.cpp:150] Setting up conv2_1/dw/scale
I0907 13:37:31.001111 23576 net.cpp:157] Top shape: 16 32 150 150 (11520000)
I0907 13:37:31.001114 23576 net.cpp:165] Memory required for data: 460800128
I0907 13:37:31.001119 23576 layer_factory.hpp:77] Creating layer conv2_1/dw_relu
I0907 13:37:31.001127 23576 net.cpp:100] Creating Layer conv2_1/dw_relu
I0907 13:37:31.001130 23576 net.cpp:434] conv2_1/dw_relu <- conv2_1/dw
I0907 13:37:31.001135 23576 net.cpp:395] conv2_1/dw_relu -> conv2_1/dw (in-place)
I0907 13:37:31.001724 23576 net.cpp:150] Setting up conv2_1/dw_relu
I0907 13:37:31.001736 23576 net.cpp:157] Top shape: 16 32 150 150 (11520000)
I0907 13:37:31.001740 23576 net.cpp:165] Memory required for data: 506880128
I0907 13:37:31.001742 23576 layer_factory.hpp:77] Creating layer conv2_1/sep
I0907 13:37:31.001754 23576 net.cpp:100] Creating Layer conv2_1/sep
I0907 13:37:31.001756 23576 net.cpp:434] conv2_1/sep <- conv2_1/dw
I0907 13:37:31.001762 23576 net.cpp:408] conv2_1/sep -> conv2_1/sep
I0907 13:37:31.003249 23576 net.cpp:150] Setting up conv2_1/sep
I0907 13:37:31.003262 23576 net.cpp:157] Top shape: 16 64 150 150 (23040000)
I0907 13:37:31.003265 23576 net.cpp:165] Memory required for data: 599040128
I0907 13:37:31.003269 23576 layer_factory.hpp:77] Creating layer conv2_1/sep/bn
I0907 13:37:31.003274 23576 net.cpp:100] Creating Layer conv2_1/sep/bn
I0907 13:37:31.003278 23576 net.cpp:434] conv2_1/sep/bn <- conv2_1/sep
I0907 13:37:31.003283 23576 net.cpp:395] conv2_1/sep/bn -> conv2_1/sep (in-place)
I0907 13:37:31.003453 23576 net.cpp:150] Setting up conv2_1/sep/bn
I0907 13:37:31.003459 23576 net.cpp:157] Top shape: 16 64 150 150 (23040000)
I0907 13:37:31.003463 23576 net.cpp:165] Memory required for data: 691200128
I0907 13:37:31.003470 23576 layer_factory.hpp:77] Creating layer conv2_1/sep/scale
I0907 13:37:31.003478 23576 net.cpp:100] Creating Layer conv2_1/sep/scale
I0907 13:37:31.003482 23576 net.cpp:434] conv2_1/sep/scale <- conv2_1/sep
I0907 13:37:31.003485 23576 net.cpp:395] conv2_1/sep/scale -> conv2_1/sep (in-place)
I0907 13:37:31.003520 23576 layer_factory.hpp:77] Creating layer conv2_1/sep/scale
I0907 13:37:31.003635 23576 net.cpp:150] Setting up conv2_1/sep/scale
I0907 13:37:31.003643 23576 net.cpp:157] Top shape: 16 64 150 150 (23040000)
I0907 13:37:31.003645 23576 net.cpp:165] Memory required for data: 783360128
I0907 13:37:31.003654 23576 layer_factory.hpp:77] Creating layer conv2_1/sep_relu
I0907 13:37:31.003659 23576 net.cpp:100] Creating Layer conv2_1/sep_relu
I0907 13:37:31.003664 23576 net.cpp:434] conv2_1/sep_relu <- conv2_1/sep
I0907 13:37:31.003669 23576 net.cpp:395] conv2_1/sep_relu -> conv2_1/sep (in-place)
I0907 13:37:31.004253 23576 net.cpp:150] Setting up conv2_1/sep_relu
I0907 13:37:31.004266 23576 net.cpp:157] Top shape: 16 64 150 150 (23040000)
I0907 13:37:31.004267 23576 net.cpp:165] Memory required for data: 875520128
I0907 13:37:31.004269 23576 layer_factory.hpp:77] Creating layer conv2_2/dw
I0907 13:37:31.004277 23576 net.cpp:100] Creating Layer conv2_2/dw
I0907 13:37:31.004281 23576 net.cpp:434] conv2_2/dw <- conv2_1/sep
I0907 13:37:31.004286 23576 net.cpp:408] conv2_2/dw -> conv2_2/dw
I0907 13:37:31.004446 23576 net.cpp:150] Setting up conv2_2/dw
I0907 13:37:31.004453 23576 net.cpp:157] Top shape: 16 64 75 75 (5760000)
I0907 13:37:31.004456 23576 net.cpp:165] Memory required for data: 898560128
I0907 13:37:31.004462 23576 layer_factory.hpp:77] Creating layer conv2_2/dw/bn
I0907 13:37:31.004468 23576 net.cpp:100] Creating Layer conv2_2/dw/bn
I0907 13:37:31.004472 23576 net.cpp:434] conv2_2/dw/bn <- conv2_2/dw
I0907 13:37:31.004477 23576 net.cpp:395] conv2_2/dw/bn -> conv2_2/dw (in-place)
I0907 13:37:31.005059 23576 net.cpp:150] Setting up conv2_2/dw/bn
I0907 13:37:31.005069 23576 net.cpp:157] Top shape: 16 64 75 75 (5760000)
I0907 13:37:31.005072 23576 net.cpp:165] Memory required for data: 921600128
I0907 13:37:31.005079 23576 layer_factory.hpp:77] Creating layer conv2_2/dw/scale
I0907 13:37:31.005097 23576 net.cpp:100] Creating Layer conv2_2/dw/scale
I0907 13:37:31.005102 23576 net.cpp:434] conv2_2/dw/scale <- conv2_2/dw
I0907 13:37:31.005110 23576 net.cpp:395] conv2_2/dw/scale -> conv2_2/dw (in-place)
I0907 13:37:31.005147 23576 layer_factory.hpp:77] Creating layer conv2_2/dw/scale
I0907 13:37:31.005247 23576 net.cpp:150] Setting up conv2_2/dw/scale
I0907 13:37:31.005254 23576 net.cpp:157] Top shape: 16 64 75 75 (5760000)
I0907 13:37:31.005259 23576 net.cpp:165] Memory required for data: 944640128
I0907 13:37:31.005264 23576 layer_factory.hpp:77] Creating layer conv2_2/dw_relu
I0907 13:37:31.005269 23576 net.cpp:100] Creating Layer conv2_2/dw_relu
I0907 13:37:31.005273 23576 net.cpp:434] conv2_2/dw_relu <- conv2_2/dw
I0907 13:37:31.005278 23576 net.cpp:395] conv2_2/dw_relu -> conv2_2/dw (in-place)
I0907 13:37:31.005424 23576 net.cpp:150] Setting up conv2_2/dw_relu
I0907 13:37:31.005434 23576 net.cpp:157] Top shape: 16 64 75 75 (5760000)
I0907 13:37:31.005437 23576 net.cpp:165] Memory required for data: 967680128
I0907 13:37:31.005440 23576 layer_factory.hpp:77] Creating layer conv2_2/sep
I0907 13:37:31.005448 23576 net.cpp:100] Creating Layer conv2_2/sep
I0907 13:37:31.005452 23576 net.cpp:434] conv2_2/sep <- conv2_2/dw
I0907 13:37:31.005457 23576 net.cpp:408] conv2_2/sep -> conv2_2/sep
I0907 13:37:31.007431 23576 net.cpp:150] Setting up conv2_2/sep
I0907 13:37:31.007444 23576 net.cpp:157] Top shape: 16 128 75 75 (11520000)
I0907 13:37:31.007447 23576 net.cpp:165] Memory required for data: 1013760128
I0907 13:37:31.007452 23576 layer_factory.hpp:77] Creating layer conv2_2/sep/bn
I0907 13:37:31.007457 23576 net.cpp:100] Creating Layer conv2_2/sep/bn
I0907 13:37:31.007460 23576 net.cpp:434] conv2_2/sep/bn <- conv2_2/sep
I0907 13:37:31.007467 23576 net.cpp:395] conv2_2/sep/bn -> conv2_2/sep (in-place)
I0907 13:37:31.007621 23576 net.cpp:150] Setting up conv2_2/sep/bn
I0907 13:37:31.007627 23576 net.cpp:157] Top shape: 16 128 75 75 (11520000)
I0907 13:37:31.007630 23576 net.cpp:165] Memory required for data: 1059840128
I0907 13:37:31.007637 23576 layer_factory.hpp:77] Creating layer conv2_2/sep/scale
I0907 13:37:31.007642 23576 net.cpp:100] Creating Layer conv2_2/sep/scale
I0907 13:37:31.007647 23576 net.cpp:434] conv2_2/sep/scale <- conv2_2/sep
I0907 13:37:31.007649 23576 net.cpp:395] conv2_2/sep/scale -> conv2_2/sep (in-place)
I0907 13:37:31.007684 23576 layer_factory.hpp:77] Creating layer conv2_2/sep/scale
I0907 13:37:31.007776 23576 net.cpp:150] Setting up conv2_2/sep/scale
I0907 13:37:31.007781 23576 net.cpp:157] Top shape: 16 128 75 75 (11520000)
I0907 13:37:31.007786 23576 net.cpp:165] Memory required for data: 1105920128
I0907 13:37:31.007791 23576 layer_factory.hpp:77] Creating layer conv2_2/sep_relu
I0907 13:37:31.007797 23576 net.cpp:100] Creating Layer conv2_2/sep_relu
I0907 13:37:31.007802 23576 net.cpp:434] conv2_2/sep_relu <- conv2_2/sep
I0907 13:37:31.007807 23576 net.cpp:395] conv2_2/sep_relu -> conv2_2/sep (in-place)
I0907 13:37:31.008401 23576 net.cpp:150] Setting up conv2_2/sep_relu
I0907 13:37:31.008412 23576 net.cpp:157] Top shape: 16 128 75 75 (11520000)
I0907 13:37:31.008415 23576 net.cpp:165] Memory required for data: 1152000128
I0907 13:37:31.008419 23576 layer_factory.hpp:77] Creating layer conv3_1/dw
I0907 13:37:31.008430 23576 net.cpp:100] Creating Layer conv3_1/dw
I0907 13:37:31.008433 23576 net.cpp:434] conv3_1/dw <- conv2_2/sep
I0907 13:37:31.008440 23576 net.cpp:408] conv3_1/dw -> conv3_1/dw
I0907 13:37:31.008604 23576 net.cpp:150] Setting up conv3_1/dw
I0907 13:37:31.008610 23576 net.cpp:157] Top shape: 16 128 75 75 (11520000)
I0907 13:37:31.008615 23576 net.cpp:165] Memory required for data: 1198080128
I0907 13:37:31.008620 23576 layer_factory.hpp:77] Creating layer conv3_1/dw/bn
I0907 13:37:31.008625 23576 net.cpp:100] Creating Layer conv3_1/dw/bn
I0907 13:37:31.008628 23576 net.cpp:434] conv3_1/dw/bn <- conv3_1/dw
I0907 13:37:31.008635 23576 net.cpp:395] conv3_1/dw/bn -> conv3_1/dw (in-place)
I0907 13:37:31.008781 23576 net.cpp:150] Setting up conv3_1/dw/bn
I0907 13:37:31.008798 23576 net.cpp:157] Top shape: 16 128 75 75 (11520000)
I0907 13:37:31.008802 23576 net.cpp:165] Memory required for data: 1244160128
I0907 13:37:31.008813 23576 layer_factory.hpp:77] Creating layer conv3_1/dw/scale
I0907 13:37:31.008821 23576 net.cpp:100] Creating Layer conv3_1/dw/scale
I0907 13:37:31.008823 23576 net.cpp:434] conv3_1/dw/scale <- conv3_1/dw
I0907 13:37:31.008828 23576 net.cpp:395] conv3_1/dw/scale -> conv3_1/dw (in-place)
I0907 13:37:31.008865 23576 layer_factory.hpp:77] Creating layer conv3_1/dw/scale
I0907 13:37:31.008955 23576 net.cpp:150] Setting up conv3_1/dw/scale
I0907 13:37:31.008961 23576 net.cpp:157] Top shape: 16 128 75 75 (11520000)
I0907 13:37:31.008965 23576 net.cpp:165] Memory required for data: 1290240128
I0907 13:37:31.008970 23576 layer_factory.hpp:77] Creating layer conv3_1/dw_relu
I0907 13:37:31.008976 23576 net.cpp:100] Creating Layer conv3_1/dw_relu
I0907 13:37:31.008980 23576 net.cpp:434] conv3_1/dw_relu <- conv3_1/dw
I0907 13:37:31.008985 23576 net.cpp:395] conv3_1/dw_relu -> conv3_1/dw (in-place)
I0907 13:37:31.009130 23576 net.cpp:150] Setting up conv3_1/dw_relu
I0907 13:37:31.009138 23576 net.cpp:157] Top shape: 16 128 75 75 (11520000)
I0907 13:37:31.009141 23576 net.cpp:165] Memory required for data: 1336320128
I0907 13:37:31.009145 23576 layer_factory.hpp:77] Creating layer conv3_1/sep
I0907 13:37:31.009153 23576 net.cpp:100] Creating Layer conv3_1/sep
I0907 13:37:31.009157 23576 net.cpp:434] conv3_1/sep <- conv3_1/dw
I0907 13:37:31.009163 23576 net.cpp:408] conv3_1/sep -> conv3_1/sep
I0907 13:37:31.010779 23576 net.cpp:150] Setting up conv3_1/sep
I0907 13:37:31.010794 23576 net.cpp:157] Top shape: 16 128 75 75 (11520000)
I0907 13:37:31.010797 23576 net.cpp:165] Memory required for data: 1382400128
I0907 13:37:31.010802 23576 layer_factory.hpp:77] Creating layer conv3_1/sep/bn
I0907 13:37:31.010807 23576 net.cpp:100] Creating Layer conv3_1/sep/bn
I0907 13:37:31.010810 23576 net.cpp:434] conv3_1/sep/bn <- conv3_1/sep
I0907 13:37:31.010815 23576 net.cpp:395] conv3_1/sep/bn -> conv3_1/sep (in-place)
I0907 13:37:31.010969 23576 net.cpp:150] Setting up conv3_1/sep/bn
I0907 13:37:31.010975 23576 net.cpp:157] Top shape: 16 128 75 75 (11520000)
I0907 13:37:31.010979 23576 net.cpp:165] Memory required for data: 1428480128
I0907 13:37:31.010987 23576 layer_factory.hpp:77] Creating layer conv3_1/sep/scale
I0907 13:37:31.010993 23576 net.cpp:100] Creating Layer conv3_1/sep/scale
I0907 13:37:31.010998 23576 net.cpp:434] conv3_1/sep/scale <- conv3_1/sep
I0907 13:37:31.011003 23576 net.cpp:395] conv3_1/sep/scale -> conv3_1/sep (in-place)
I0907 13:37:31.011036 23576 layer_factory.hpp:77] Creating layer conv3_1/sep/scale
I0907 13:37:31.011132 23576 net.cpp:150] Setting up conv3_1/sep/scale
I0907 13:37:31.011137 23576 net.cpp:157] Top shape: 16 128 75 75 (11520000)
I0907 13:37:31.011142 23576 net.cpp:165] Memory required for data: 1474560128
I0907 13:37:31.011147 23576 layer_factory.hpp:77] Creating layer conv3_1/sep_relu
I0907 13:37:31.011152 23576 net.cpp:100] Creating Layer conv3_1/sep_relu
I0907 13:37:31.011155 23576 net.cpp:434] conv3_1/sep_relu <- conv3_1/sep
I0907 13:37:31.011162 23576 net.cpp:395] conv3_1/sep_relu -> conv3_1/sep (in-place)
I0907 13:37:31.011745 23576 net.cpp:150] Setting up conv3_1/sep_relu
I0907 13:37:31.011756 23576 net.cpp:157] Top shape: 16 128 75 75 (11520000)
I0907 13:37:31.011760 23576 net.cpp:165] Memory required for data: 1520640128
I0907 13:37:31.011764 23576 layer_factory.hpp:77] Creating layer conv3_2/dw
I0907 13:37:31.011772 23576 net.cpp:100] Creating Layer conv3_2/dw
I0907 13:37:31.011775 23576 net.cpp:434] conv3_2/dw <- conv3_1/sep
I0907 13:37:31.011781 23576 net.cpp:408] conv3_2/dw -> conv3_2/dw
I0907 13:37:31.011948 23576 net.cpp:150] Setting up conv3_2/dw
I0907 13:37:31.011956 23576 net.cpp:157] Top shape: 16 128 38 38 (2957312)
I0907 13:37:31.011960 23576 net.cpp:165] Memory required for data: 1532469376
I0907 13:37:31.011963 23576 layer_factory.hpp:77] Creating layer conv3_2/dw/bn
I0907 13:37:31.011970 23576 net.cpp:100] Creating Layer conv3_2/dw/bn
I0907 13:37:31.011982 23576 net.cpp:434] conv3_2/dw/bn <- conv3_2/dw
I0907 13:37:31.011988 23576 net.cpp:395] conv3_2/dw/bn -> conv3_2/dw (in-place)
I0907 13:37:31.012135 23576 net.cpp:150] Setting up conv3_2/dw/bn
I0907 13:37:31.012141 23576 net.cpp:157] Top shape: 16 128 38 38 (2957312)
I0907 13:37:31.012145 23576 net.cpp:165] Memory required for data: 1544298624
I0907 13:37:31.012151 23576 layer_factory.hpp:77] Creating layer conv3_2/dw/scale
I0907 13:37:31.012161 23576 net.cpp:100] Creating Layer conv3_2/dw/scale
I0907 13:37:31.012164 23576 net.cpp:434] conv3_2/dw/scale <- conv3_2/dw
I0907 13:37:31.012169 23576 net.cpp:395] conv3_2/dw/scale -> conv3_2/dw (in-place)
I0907 13:37:31.012204 23576 layer_factory.hpp:77] Creating layer conv3_2/dw/scale
I0907 13:37:31.012292 23576 net.cpp:150] Setting up conv3_2/dw/scale
I0907 13:37:31.012298 23576 net.cpp:157] Top shape: 16 128 38 38 (2957312)
I0907 13:37:31.012302 23576 net.cpp:165] Memory required for data: 1556127872
I0907 13:37:31.012307 23576 layer_factory.hpp:77] Creating layer conv3_2/dw_relu
I0907 13:37:31.012313 23576 net.cpp:100] Creating Layer conv3_2/dw_relu
I0907 13:37:31.012317 23576 net.cpp:434] conv3_2/dw_relu <- conv3_2/dw
I0907 13:37:31.012321 23576 net.cpp:395] conv3_2/dw_relu -> conv3_2/dw (in-place)
I0907 13:37:31.012466 23576 net.cpp:150] Setting up conv3_2/dw_relu
I0907 13:37:31.012475 23576 net.cpp:157] Top shape: 16 128 38 38 (2957312)
I0907 13:37:31.012478 23576 net.cpp:165] Memory required for data: 1567957120
I0907 13:37:31.012480 23576 layer_factory.hpp:77] Creating layer conv3_2/sep
I0907 13:37:31.012490 23576 net.cpp:100] Creating Layer conv3_2/sep
I0907 13:37:31.012492 23576 net.cpp:434] conv3_2/sep <- conv3_2/dw
I0907 13:37:31.012497 23576 net.cpp:408] conv3_2/sep -> conv3_2/sep
I0907 13:37:31.014240 23576 net.cpp:150] Setting up conv3_2/sep
I0907 13:37:31.014251 23576 net.cpp:157] Top shape: 16 256 38 38 (5914624)
I0907 13:37:31.014255 23576 net.cpp:165] Memory required for data: 1591615616
I0907 13:37:31.014259 23576 layer_factory.hpp:77] Creating layer conv3_2/sep/bn
I0907 13:37:31.014266 23576 net.cpp:100] Creating Layer conv3_2/sep/bn
I0907 13:37:31.014269 23576 net.cpp:434] conv3_2/sep/bn <- conv3_2/sep
I0907 13:37:31.014276 23576 net.cpp:395] conv3_2/sep/bn -> conv3_2/sep (in-place)
I0907 13:37:31.014441 23576 net.cpp:150] Setting up conv3_2/sep/bn
I0907 13:37:31.014449 23576 net.cpp:157] Top shape: 16 256 38 38 (5914624)
I0907 13:37:31.014452 23576 net.cpp:165] Memory required for data: 1615274112
I0907 13:37:31.014459 23576 layer_factory.hpp:77] Creating layer conv3_2/sep/scale
I0907 13:37:31.014466 23576 net.cpp:100] Creating Layer conv3_2/sep/scale
I0907 13:37:31.014468 23576 net.cpp:434] conv3_2/sep/scale <- conv3_2/sep
I0907 13:37:31.014475 23576 net.cpp:395] conv3_2/sep/scale -> conv3_2/sep (in-place)
I0907 13:37:31.014511 23576 layer_factory.hpp:77] Creating layer conv3_2/sep/scale
I0907 13:37:31.014600 23576 net.cpp:150] Setting up conv3_2/sep/scale
I0907 13:37:31.014605 23576 net.cpp:157] Top shape: 16 256 38 38 (5914624)
I0907 13:37:31.014608 23576 net.cpp:165] Memory required for data: 1638932608
I0907 13:37:31.014614 23576 layer_factory.hpp:77] Creating layer conv3_2/sep_relu
I0907 13:37:31.014619 23576 net.cpp:100] Creating Layer conv3_2/sep_relu
I0907 13:37:31.014623 23576 net.cpp:434] conv3_2/sep_relu <- conv3_2/sep
I0907 13:37:31.014629 23576 net.cpp:395] conv3_2/sep_relu -> conv3_2/sep (in-place)
I0907 13:37:31.015224 23576 net.cpp:150] Setting up conv3_2/sep_relu
I0907 13:37:31.015236 23576 net.cpp:157] Top shape: 16 256 38 38 (5914624)
I0907 13:37:31.015240 23576 net.cpp:165] Memory required for data: 1662591104
I0907 13:37:31.015244 23576 layer_factory.hpp:77] Creating layer conv4_1/dw
I0907 13:37:31.015252 23576 net.cpp:100] Creating Layer conv4_1/dw
I0907 13:37:31.015256 23576 net.cpp:434] conv4_1/dw <- conv3_2/sep
I0907 13:37:31.015264 23576 net.cpp:408] conv4_1/dw -> conv4_1/dw
I0907 13:37:31.015445 23576 net.cpp:150] Setting up conv4_1/dw
I0907 13:37:31.015452 23576 net.cpp:157] Top shape: 16 256 38 38 (5914624)
I0907 13:37:31.015466 23576 net.cpp:165] Memory required for data: 1686249600
I0907 13:37:31.015471 23576 layer_factory.hpp:77] Creating layer conv4_1/dw/bn
I0907 13:37:31.015477 23576 net.cpp:100] Creating Layer conv4_1/dw/bn
I0907 13:37:31.015480 23576 net.cpp:434] conv4_1/dw/bn <- conv4_1/dw
I0907 13:37:31.015486 23576 net.cpp:395] conv4_1/dw/bn -> conv4_1/dw (in-place)
I0907 13:37:31.015635 23576 net.cpp:150] Setting up conv4_1/dw/bn
I0907 13:37:31.015642 23576 net.cpp:157] Top shape: 16 256 38 38 (5914624)
I0907 13:37:31.015645 23576 net.cpp:165] Memory required for data: 1709908096
I0907 13:37:31.015652 23576 layer_factory.hpp:77] Creating layer conv4_1/dw/scale
I0907 13:37:31.015658 23576 net.cpp:100] Creating Layer conv4_1/dw/scale
I0907 13:37:31.015662 23576 net.cpp:434] conv4_1/dw/scale <- conv4_1/dw
I0907 13:37:31.015667 23576 net.cpp:395] conv4_1/dw/scale -> conv4_1/dw (in-place)
I0907 13:37:31.015702 23576 layer_factory.hpp:77] Creating layer conv4_1/dw/scale
I0907 13:37:31.015790 23576 net.cpp:150] Setting up conv4_1/dw/scale
I0907 13:37:31.015796 23576 net.cpp:157] Top shape: 16 256 38 38 (5914624)
I0907 13:37:31.015799 23576 net.cpp:165] Memory required for data: 1733566592
I0907 13:37:31.015805 23576 layer_factory.hpp:77] Creating layer conv4_1/dw_relu
I0907 13:37:31.015810 23576 net.cpp:100] Creating Layer conv4_1/dw_relu
I0907 13:37:31.015813 23576 net.cpp:434] conv4_1/dw_relu <- conv4_1/dw
I0907 13:37:31.015820 23576 net.cpp:395] conv4_1/dw_relu -> conv4_1/dw (in-place)
I0907 13:37:31.015966 23576 net.cpp:150] Setting up conv4_1/dw_relu
I0907 13:37:31.015975 23576 net.cpp:157] Top shape: 16 256 38 38 (5914624)
I0907 13:37:31.015978 23576 net.cpp:165] Memory required for data: 1757225088
I0907 13:37:31.015981 23576 layer_factory.hpp:77] Creating layer conv4_1/sep
I0907 13:37:31.015988 23576 net.cpp:100] Creating Layer conv4_1/sep
I0907 13:37:31.015992 23576 net.cpp:434] conv4_1/sep <- conv4_1/dw
I0907 13:37:31.015997 23576 net.cpp:408] conv4_1/sep -> conv4_1/sep
I0907 13:37:31.018889 23576 net.cpp:150] Setting up conv4_1/sep
I0907 13:37:31.018901 23576 net.cpp:157] Top shape: 16 256 38 38 (5914624)
I0907 13:37:31.018904 23576 net.cpp:165] Memory required for data: 1780883584
I0907 13:37:31.018908 23576 layer_factory.hpp:77] Creating layer conv4_1/sep/bn
I0907 13:37:31.018913 23576 net.cpp:100] Creating Layer conv4_1/sep/bn
I0907 13:37:31.018918 23576 net.cpp:434] conv4_1/sep/bn <- conv4_1/sep
I0907 13:37:31.018923 23576 net.cpp:395] conv4_1/sep/bn -> conv4_1/sep (in-place)
I0907 13:37:31.019086 23576 net.cpp:150] Setting up conv4_1/sep/bn
I0907 13:37:31.019093 23576 net.cpp:157] Top shape: 16 256 38 38 (5914624)
I0907 13:37:31.019096 23576 net.cpp:165] Memory required for data: 1804542080
I0907 13:37:31.019104 23576 layer_factory.hpp:77] Creating layer conv4_1/sep/scale
I0907 13:37:31.019110 23576 net.cpp:100] Creating Layer conv4_1/sep/scale
I0907 13:37:31.019114 23576 net.cpp:434] conv4_1/sep/scale <- conv4_1/sep
I0907 13:37:31.019119 23576 net.cpp:395] conv4_1/sep/scale -> conv4_1/sep (in-place)
I0907 13:37:31.019155 23576 layer_factory.hpp:77] Creating layer conv4_1/sep/scale
I0907 13:37:31.019246 23576 net.cpp:150] Setting up conv4_1/sep/scale
I0907 13:37:31.019253 23576 net.cpp:157] Top shape: 16 256 38 38 (5914624)
I0907 13:37:31.019256 23576 net.cpp:165] Memory required for data: 1828200576
I0907 13:37:31.019268 23576 layer_factory.hpp:77] Creating layer conv4_1/sep_relu
I0907 13:37:31.019274 23576 net.cpp:100] Creating Layer conv4_1/sep_relu
I0907 13:37:31.019278 23576 net.cpp:434] conv4_1/sep_relu <- conv4_1/sep
I0907 13:37:31.019282 23576 net.cpp:395] conv4_1/sep_relu -> conv4_1/sep (in-place)
I0907 13:37:31.019440 23576 net.cpp:150] Setting up conv4_1/sep_relu
I0907 13:37:31.019450 23576 net.cpp:157] Top shape: 16 256 38 38 (5914624)
I0907 13:37:31.019454 23576 net.cpp:165] Memory required for data: 1851859072
I0907 13:37:31.019457 23576 layer_factory.hpp:77] Creating layer conv4_2/dw
I0907 13:37:31.019464 23576 net.cpp:100] Creating Layer conv4_2/dw
I0907 13:37:31.019477 23576 net.cpp:434] conv4_2/dw <- conv4_1/sep
I0907 13:37:31.019485 23576 net.cpp:408] conv4_2/dw -> conv4_2/dw
I0907 13:37:31.019675 23576 net.cpp:150] Setting up conv4_2/dw
I0907 13:37:31.019682 23576 net.cpp:157] Top shape: 16 256 19 19 (1478656)
I0907 13:37:31.019686 23576 net.cpp:165] Memory required for data: 1857773696
I0907 13:37:31.019690 23576 layer_factory.hpp:77] Creating layer conv4_2/dw/bn
I0907 13:37:31.019696 23576 net.cpp:100] Creating Layer conv4_2/dw/bn
I0907 13:37:31.019700 23576 net.cpp:434] conv4_2/dw/bn <- conv4_2/dw
I0907 13:37:31.019703 23576 net.cpp:395] conv4_2/dw/bn -> conv4_2/dw (in-place)
I0907 13:37:31.019857 23576 net.cpp:150] Setting up conv4_2/dw/bn
I0907 13:37:31.019865 23576 net.cpp:157] Top shape: 16 256 19 19 (1478656)
I0907 13:37:31.019867 23576 net.cpp:165] Memory required for data: 1863688320
I0907 13:37:31.019873 23576 layer_factory.hpp:77] Creating layer conv4_2/dw/scale
I0907 13:37:31.019879 23576 net.cpp:100] Creating Layer conv4_2/dw/scale
I0907 13:37:31.019882 23576 net.cpp:434] conv4_2/dw/scale <- conv4_2/dw
I0907 13:37:31.019886 23576 net.cpp:395] conv4_2/dw/scale -> conv4_2/dw (in-place)
I0907 13:37:31.019922 23576 layer_factory.hpp:77] Creating layer conv4_2/dw/scale
I0907 13:37:31.020015 23576 net.cpp:150] Setting up conv4_2/dw/scale
I0907 13:37:31.020020 23576 net.cpp:157] Top shape: 16 256 19 19 (1478656)
I0907 13:37:31.020025 23576 net.cpp:165] Memory required for data: 1869602944
I0907 13:37:31.020030 23576 layer_factory.hpp:77] Creating layer conv4_2/dw_relu
I0907 13:37:31.020035 23576 net.cpp:100] Creating Layer conv4_2/dw_relu
I0907 13:37:31.020040 23576 net.cpp:434] conv4_2/dw_relu <- conv4_2/dw
I0907 13:37:31.020045 23576 net.cpp:395] conv4_2/dw_relu -> conv4_2/dw (in-place)
I0907 13:37:31.020632 23576 net.cpp:150] Setting up conv4_2/dw_relu
I0907 13:37:31.020642 23576 net.cpp:157] Top shape: 16 256 19 19 (1478656)
I0907 13:37:31.020647 23576 net.cpp:165] Memory required for data: 1875517568
I0907 13:37:31.020649 23576 layer_factory.hpp:77] Creating layer conv4_2/sep
I0907 13:37:31.020658 23576 net.cpp:100] Creating Layer conv4_2/sep
I0907 13:37:31.020663 23576 net.cpp:434] conv4_2/sep <- conv4_2/dw
I0907 13:37:31.020668 23576 net.cpp:408] conv4_2/sep -> conv4_2/sep
I0907 13:37:31.024050 23576 net.cpp:150] Setting up conv4_2/sep
I0907 13:37:31.024062 23576 net.cpp:157] Top shape: 16 512 19 19 (2957312)
I0907 13:37:31.024065 23576 net.cpp:165] Memory required for data: 1887346816
I0907 13:37:31.024070 23576 layer_factory.hpp:77] Creating layer conv4_2/sep/bn
I0907 13:37:31.024075 23576 net.cpp:100] Creating Layer conv4_2/sep/bn
I0907 13:37:31.024078 23576 net.cpp:434] conv4_2/sep/bn <- conv4_2/sep
I0907 13:37:31.024082 23576 net.cpp:395] conv4_2/sep/bn -> conv4_2/sep (in-place)
I0907 13:37:31.024253 23576 net.cpp:150] Setting up conv4_2/sep/bn
I0907 13:37:31.024260 23576 net.cpp:157] Top shape: 16 512 19 19 (2957312)
I0907 13:37:31.024263 23576 net.cpp:165] Memory required for data: 1899176064
I0907 13:37:31.024271 23576 layer_factory.hpp:77] Creating layer conv4_2/sep/scale
I0907 13:37:31.024276 23576 net.cpp:100] Creating Layer conv4_2/sep/scale
I0907 13:37:31.024281 23576 net.cpp:434] conv4_2/sep/scale <- conv4_2/sep
I0907 13:37:31.024286 23576 net.cpp:395] conv4_2/sep/scale -> conv4_2/sep (in-place)
I0907 13:37:31.024325 23576 layer_factory.hpp:77] Creating layer conv4_2/sep/scale
I0907 13:37:31.024418 23576 net.cpp:150] Setting up conv4_2/sep/scale
I0907 13:37:31.024425 23576 net.cpp:157] Top shape: 16 512 19 19 (2957312)
I0907 13:37:31.024428 23576 net.cpp:165] Memory required for data: 1911005312
I0907 13:37:31.024435 23576 layer_factory.hpp:77] Creating layer conv4_2/sep_relu
I0907 13:37:31.024440 23576 net.cpp:100] Creating Layer conv4_2/sep_relu
I0907 13:37:31.024443 23576 net.cpp:434] conv4_2/sep_relu <- conv4_2/sep
I0907 13:37:31.024448 23576 net.cpp:395] conv4_2/sep_relu -> conv4_2/sep (in-place)
I0907 13:37:31.024601 23576 net.cpp:150] Setting up conv4_2/sep_relu
I0907 13:37:31.024610 23576 net.cpp:157] Top shape: 16 512 19 19 (2957312)
I0907 13:37:31.024621 23576 net.cpp:165] Memory required for data: 1922834560
I0907 13:37:31.024626 23576 layer_factory.hpp:77] Creating layer conv5_1/dw
I0907 13:37:31.024636 23576 net.cpp:100] Creating Layer conv5_1/dw
I0907 13:37:31.024639 23576 net.cpp:434] conv5_1/dw <- conv4_2/sep
I0907 13:37:31.024646 23576 net.cpp:408] conv5_1/dw -> conv5_1/dw
I0907 13:37:31.024854 23576 net.cpp:150] Setting up conv5_1/dw
I0907 13:37:31.024862 23576 net.cpp:157] Top shape: 16 512 19 19 (2957312)
I0907 13:37:31.024865 23576 net.cpp:165] Memory required for data: 1934663808
I0907 13:37:31.024868 23576 layer_factory.hpp:77] Creating layer conv5_1/dw/bn
I0907 13:37:31.024873 23576 net.cpp:100] Creating Layer conv5_1/dw/bn
I0907 13:37:31.024878 23576 net.cpp:434] conv5_1/dw/bn <- conv5_1/dw
I0907 13:37:31.024883 23576 net.cpp:395] conv5_1/dw/bn -> conv5_1/dw (in-place)
I0907 13:37:31.025040 23576 net.cpp:150] Setting up conv5_1/dw/bn
I0907 13:37:31.025046 23576 net.cpp:157] Top shape: 16 512 19 19 (2957312)
I0907 13:37:31.025050 23576 net.cpp:165] Memory required for data: 1946493056
I0907 13:37:31.025056 23576 layer_factory.hpp:77] Creating layer conv5_1/dw/scale
I0907 13:37:31.025063 23576 net.cpp:100] Creating Layer conv5_1/dw/scale
I0907 13:37:31.025065 23576 net.cpp:434] conv5_1/dw/scale <- conv5_1/dw
I0907 13:37:31.025071 23576 net.cpp:395] conv5_1/dw/scale -> conv5_1/dw (in-place)
I0907 13:37:31.025108 23576 layer_factory.hpp:77] Creating layer conv5_1/dw/scale
I0907 13:37:31.025204 23576 net.cpp:150] Setting up conv5_1/dw/scale
I0907 13:37:31.025210 23576 net.cpp:157] Top shape: 16 512 19 19 (2957312)
I0907 13:37:31.025214 23576 net.cpp:165] Memory required for data: 1958322304
I0907 13:37:31.025219 23576 layer_factory.hpp:77] Creating layer conv5_1/dw_relu
I0907 13:37:31.025224 23576 net.cpp:100] Creating Layer conv5_1/dw_relu
I0907 13:37:31.025228 23576 net.cpp:434] conv5_1/dw_relu <- conv5_1/dw
I0907 13:37:31.025233 23576 net.cpp:395] conv5_1/dw_relu -> conv5_1/dw (in-place)
I0907 13:37:31.025842 23576 net.cpp:150] Setting up conv5_1/dw_relu
I0907 13:37:31.025853 23576 net.cpp:157] Top shape: 16 512 19 19 (2957312)
I0907 13:37:31.025857 23576 net.cpp:165] Memory required for data: 1970151552
I0907 13:37:31.025861 23576 layer_factory.hpp:77] Creating layer conv5_1/sep
I0907 13:37:31.025871 23576 net.cpp:100] Creating Layer conv5_1/sep
I0907 13:37:31.025873 23576 net.cpp:434] conv5_1/sep <- conv5_1/dw
I0907 13:37:31.025880 23576 net.cpp:408] conv5_1/sep -> conv5_1/sep
I0907 13:37:31.029886 23576 net.cpp:150] Setting up conv5_1/sep
I0907 13:37:31.029897 23576 net.cpp:157] Top shape: 16 512 19 19 (2957312)
I0907 13:37:31.029901 23576 net.cpp:165] Memory required for data: 1981980800
I0907 13:37:31.029904 23576 layer_factory.hpp:77] Creating layer conv5_1/sep/bn
I0907 13:37:31.029911 23576 net.cpp:100] Creating Layer conv5_1/sep/bn
I0907 13:37:31.029914 23576 net.cpp:434] conv5_1/sep/bn <- conv5_1/sep
I0907 13:37:31.029919 23576 net.cpp:395] conv5_1/sep/bn -> conv5_1/sep (in-place)
I0907 13:37:31.030093 23576 net.cpp:150] Setting up conv5_1/sep/bn
I0907 13:37:31.030100 23576 net.cpp:157] Top shape: 16 512 19 19 (2957312)
I0907 13:37:31.030104 23576 net.cpp:165] Memory required for data: 1993810048
I0907 13:37:31.030112 23576 layer_factory.hpp:77] Creating layer conv5_1/sep/scale
I0907 13:37:31.030117 23576 net.cpp:100] Creating Layer conv5_1/sep/scale
I0907 13:37:31.030122 23576 net.cpp:434] conv5_1/sep/scale <- conv5_1/sep
I0907 13:37:31.030125 23576 net.cpp:395] conv5_1/sep/scale -> conv5_1/sep (in-place)
I0907 13:37:31.030165 23576 layer_factory.hpp:77] Creating layer conv5_1/sep/scale
I0907 13:37:31.030261 23576 net.cpp:150] Setting up conv5_1/sep/scale
I0907 13:37:31.030267 23576 net.cpp:157] Top shape: 16 512 19 19 (2957312)
I0907 13:37:31.030270 23576 net.cpp:165] Memory required for data: 2005639296
I0907 13:37:31.030277 23576 layer_factory.hpp:77] Creating layer conv5_1/sep_relu
I0907 13:37:31.030282 23576 net.cpp:100] Creating Layer conv5_1/sep_relu
I0907 13:37:31.030287 23576 net.cpp:434] conv5_1/sep_relu <- conv5_1/sep
I0907 13:37:31.030304 23576 net.cpp:395] conv5_1/sep_relu -> conv5_1/sep (in-place)
I0907 13:37:31.030458 23576 net.cpp:150] Setting up conv5_1/sep_relu
I0907 13:37:31.030467 23576 net.cpp:157] Top shape: 16 512 19 19 (2957312)
I0907 13:37:31.030470 23576 net.cpp:165] Memory required for data: 2017468544
I0907 13:37:31.030473 23576 layer_factory.hpp:77] Creating layer conv5_2/dw
I0907 13:37:31.030480 23576 net.cpp:100] Creating Layer conv5_2/dw
I0907 13:37:31.030483 23576 net.cpp:434] conv5_2/dw <- conv5_1/sep
I0907 13:37:31.030489 23576 net.cpp:408] conv5_2/dw -> conv5_2/dw
I0907 13:37:31.030704 23576 net.cpp:150] Setting up conv5_2/dw
I0907 13:37:31.030711 23576 net.cpp:157] Top shape: 16 512 19 19 (2957312)
I0907 13:37:31.030714 23576 net.cpp:165] Memory required for data: 2029297792
I0907 13:37:31.030717 23576 layer_factory.hpp:77] Creating layer conv5_2/dw/bn
I0907 13:37:31.030722 23576 net.cpp:100] Creating Layer conv5_2/dw/bn
I0907 13:37:31.030726 23576 net.cpp:434] conv5_2/dw/bn <- conv5_2/dw
I0907 13:37:31.030730 23576 net.cpp:395] conv5_2/dw/bn -> conv5_2/dw (in-place)
I0907 13:37:31.030894 23576 net.cpp:150] Setting up conv5_2/dw/bn
I0907 13:37:31.030901 23576 net.cpp:157] Top shape: 16 512 19 19 (2957312)
I0907 13:37:31.030905 23576 net.cpp:165] Memory required for data: 2041127040
I0907 13:37:31.030912 23576 layer_factory.hpp:77] Creating layer conv5_2/dw/scale
I0907 13:37:31.030925 23576 net.cpp:100] Creating Layer conv5_2/dw/scale
I0907 13:37:31.030928 23576 net.cpp:434] conv5_2/dw/scale <- conv5_2/dw
I0907 13:37:31.030933 23576 net.cpp:395] conv5_2/dw/scale -> conv5_2/dw (in-place)
I0907 13:37:31.030974 23576 layer_factory.hpp:77] Creating layer conv5_2/dw/scale
I0907 13:37:31.031070 23576 net.cpp:150] Setting up conv5_2/dw/scale
I0907 13:37:31.031076 23576 net.cpp:157] Top shape: 16 512 19 19 (2957312)
I0907 13:37:31.031080 23576 net.cpp:165] Memory required for data: 2052956288
I0907 13:37:31.031085 23576 layer_factory.hpp:77] Creating layer conv5_2/dw_relu
I0907 13:37:31.031091 23576 net.cpp:100] Creating Layer conv5_2/dw_relu
I0907 13:37:31.031095 23576 net.cpp:434] conv5_2/dw_relu <- conv5_2/dw
I0907 13:37:31.031100 23576 net.cpp:395] conv5_2/dw_relu -> conv5_2/dw (in-place)
I0907 13:37:31.031692 23576 net.cpp:150] Setting up conv5_2/dw_relu
I0907 13:37:31.031703 23576 net.cpp:157] Top shape: 16 512 19 19 (2957312)
I0907 13:37:31.031708 23576 net.cpp:165] Memory required for data: 2064785536
I0907 13:37:31.031709 23576 layer_factory.hpp:77] Creating layer conv5_2/sep
I0907 13:37:31.031718 23576 net.cpp:100] Creating Layer conv5_2/sep
I0907 13:37:31.031723 23576 net.cpp:434] conv5_2/sep <- conv5_2/dw
I0907 13:37:31.031729 23576 net.cpp:408] conv5_2/sep -> conv5_2/sep
I0907 13:37:31.035300 23576 net.cpp:150] Setting up conv5_2/sep
I0907 13:37:31.035312 23576 net.cpp:157] Top shape: 16 512 19 19 (2957312)
I0907 13:37:31.035315 23576 net.cpp:165] Memory required for data: 2076614784
I0907 13:37:31.035320 23576 layer_factory.hpp:77] Creating layer conv5_2/sep/bn
I0907 13:37:31.035325 23576 net.cpp:100] Creating Layer conv5_2/sep/bn
I0907 13:37:31.035327 23576 net.cpp:434] conv5_2/sep/bn <- conv5_2/sep
I0907 13:37:31.035331 23576 net.cpp:395] conv5_2/sep/bn -> conv5_2/sep (in-place)
I0907 13:37:31.035502 23576 net.cpp:150] Setting up conv5_2/sep/bn
I0907 13:37:31.035509 23576 net.cpp:157] Top shape: 16 512 19 19 (2957312)
I0907 13:37:31.035511 23576 net.cpp:165] Memory required for data: 2088444032
I0907 13:37:31.035518 23576 layer_factory.hpp:77] Creating layer conv5_2/sep/scale
I0907 13:37:31.035526 23576 net.cpp:100] Creating Layer conv5_2/sep/scale
I0907 13:37:31.035529 23576 net.cpp:434] conv5_2/sep/scale <- conv5_2/sep
I0907 13:37:31.035533 23576 net.cpp:395] conv5_2/sep/scale -> conv5_2/sep (in-place)
I0907 13:37:31.035573 23576 layer_factory.hpp:77] Creating layer conv5_2/sep/scale
I0907 13:37:31.035670 23576 net.cpp:150] Setting up conv5_2/sep/scale
I0907 13:37:31.035676 23576 net.cpp:157] Top shape: 16 512 19 19 (2957312)
I0907 13:37:31.035679 23576 net.cpp:165] Memory required for data: 2100273280
I0907 13:37:31.035694 23576 layer_factory.hpp:77] Creating layer conv5_2/sep_relu
I0907 13:37:31.035703 23576 net.cpp:100] Creating Layer conv5_2/sep_relu
I0907 13:37:31.035707 23576 net.cpp:434] conv5_2/sep_relu <- conv5_2/sep
I0907 13:37:31.035711 23576 net.cpp:395] conv5_2/sep_relu -> conv5_2/sep (in-place)
I0907 13:37:31.036309 23576 net.cpp:150] Setting up conv5_2/sep_relu
I0907 13:37:31.036319 23576 net.cpp:157] Top shape: 16 512 19 19 (2957312)
I0907 13:37:31.036321 23576 net.cpp:165] Memory required for data: 2112102528
I0907 13:37:31.036324 23576 layer_factory.hpp:77] Creating layer conv5_3/dw
I0907 13:37:31.036332 23576 net.cpp:100] Creating Layer conv5_3/dw
I0907 13:37:31.036335 23576 net.cpp:434] conv5_3/dw <- conv5_2/sep
I0907 13:37:31.036340 23576 net.cpp:408] conv5_3/dw -> conv5_3/dw
I0907 13:37:31.036548 23576 net.cpp:150] Setting up conv5_3/dw
I0907 13:37:31.036556 23576 net.cpp:157] Top shape: 16 512 19 19 (2957312)
I0907 13:37:31.036558 23576 net.cpp:165] Memory required for data: 2123931776
I0907 13:37:31.036563 23576 layer_factory.hpp:77] Creating layer conv5_3/dw/bn
I0907 13:37:31.036569 23576 net.cpp:100] Creating Layer conv5_3/dw/bn
I0907 13:37:31.036573 23576 net.cpp:434] conv5_3/dw/bn <- conv5_3/dw
I0907 13:37:31.036577 23576 net.cpp:395] conv5_3/dw/bn -> conv5_3/dw (in-place)
I0907 13:37:31.036741 23576 net.cpp:150] Setting up conv5_3/dw/bn
I0907 13:37:31.036747 23576 net.cpp:157] Top shape: 16 512 19 19 (2957312)
I0907 13:37:31.036751 23576 net.cpp:165] Memory required for data: 2135761024
I0907 13:37:31.036757 23576 layer_factory.hpp:77] Creating layer conv5_3/dw/scale
I0907 13:37:31.036763 23576 net.cpp:100] Creating Layer conv5_3/dw/scale
I0907 13:37:31.036767 23576 net.cpp:434] conv5_3/dw/scale <- conv5_3/dw
I0907 13:37:31.036772 23576 net.cpp:395] conv5_3/dw/scale -> conv5_3/dw (in-place)
I0907 13:37:31.036813 23576 layer_factory.hpp:77] Creating layer conv5_3/dw/scale
I0907 13:37:31.036908 23576 net.cpp:150] Setting up conv5_3/dw/scale
I0907 13:37:31.036916 23576 net.cpp:157] Top shape: 16 512 19 19 (2957312)
I0907 13:37:31.036919 23576 net.cpp:165] Memory required for data: 2147590272
I0907 13:37:31.036924 23576 layer_factory.hpp:77] Creating layer conv5_3/dw_relu
I0907 13:37:31.036929 23576 net.cpp:100] Creating Layer conv5_3/dw_relu
I0907 13:37:31.036933 23576 net.cpp:434] conv5_3/dw_relu <- conv5_3/dw
I0907 13:37:31.036938 23576 net.cpp:395] conv5_3/dw_relu -> conv5_3/dw (in-place)
I0907 13:37:31.037531 23576 net.cpp:150] Setting up conv5_3/dw_relu
I0907 13:37:31.037542 23576 net.cpp:157] Top shape: 16 512 19 19 (2957312)
I0907 13:37:31.037545 23576 net.cpp:165] Memory required for data: 2159419520
I0907 13:37:31.037547 23576 layer_factory.hpp:77] Creating layer conv5_3/sep
I0907 13:37:31.037557 23576 net.cpp:100] Creating Layer conv5_3/sep
I0907 13:37:31.037561 23576 net.cpp:434] conv5_3/sep <- conv5_3/dw
I0907 13:37:31.037567 23576 net.cpp:408] conv5_3/sep -> conv5_3/sep
I0907 13:37:31.041141 23576 net.cpp:150] Setting up conv5_3/sep
I0907 13:37:31.041152 23576 net.cpp:157] Top shape: 16 512 19 19 (2957312)
I0907 13:37:31.041155 23576 net.cpp:165] Memory required for data: 2171248768
I0907 13:37:31.041159 23576 layer_factory.hpp:77] Creating layer conv5_3/sep/bn
I0907 13:37:31.041165 23576 net.cpp:100] Creating Layer conv5_3/sep/bn
I0907 13:37:31.041169 23576 net.cpp:434] conv5_3/sep/bn <- conv5_3/sep
I0907 13:37:31.041174 23576 net.cpp:395] conv5_3/sep/bn -> conv5_3/sep (in-place)
I0907 13:37:31.041350 23576 net.cpp:150] Setting up conv5_3/sep/bn
I0907 13:37:31.041357 23576 net.cpp:157] Top shape: 16 512 19 19 (2957312)
I0907 13:37:31.041360 23576 net.cpp:165] Memory required for data: 2183078016
I0907 13:37:31.041368 23576 layer_factory.hpp:77] Creating layer conv5_3/sep/scale
I0907 13:37:31.041373 23576 net.cpp:100] Creating Layer conv5_3/sep/scale
I0907 13:37:31.041378 23576 net.cpp:434] conv5_3/sep/scale <- conv5_3/sep
I0907 13:37:31.041383 23576 net.cpp:395] conv5_3/sep/scale -> conv5_3/sep (in-place)
I0907 13:37:31.041424 23576 layer_factory.hpp:77] Creating layer conv5_3/sep/scale
I0907 13:37:31.041538 23576 net.cpp:150] Setting up conv5_3/sep/scale
I0907 13:37:31.041545 23576 net.cpp:157] Top shape: 16 512 19 19 (2957312)
I0907 13:37:31.041548 23576 net.cpp:165] Memory required for data: 2194907264
I0907 13:37:31.041553 23576 layer_factory.hpp:77] Creating layer conv5_3/sep_relu
I0907 13:37:31.041556 23576 net.cpp:100] Creating Layer conv5_3/sep_relu
I0907 13:37:31.041559 23576 net.cpp:434] conv5_3/sep_relu <- conv5_3/sep
I0907 13:37:31.041563 23576 net.cpp:395] conv5_3/sep_relu -> conv5_3/sep (in-place)
I0907 13:37:31.042160 23576 net.cpp:150] Setting up conv5_3/sep_relu
I0907 13:37:31.042171 23576 net.cpp:157] Top shape: 16 512 19 19 (2957312)
I0907 13:37:31.042173 23576 net.cpp:165] Memory required for data: 2206736512
I0907 13:37:31.042176 23576 layer_factory.hpp:77] Creating layer conv5_4/dw
I0907 13:37:31.042183 23576 net.cpp:100] Creating Layer conv5_4/dw
I0907 13:37:31.042186 23576 net.cpp:434] conv5_4/dw <- conv5_3/sep
I0907 13:37:31.042191 23576 net.cpp:408] conv5_4/dw -> conv5_4/dw
I0907 13:37:31.042410 23576 net.cpp:150] Setting up conv5_4/dw
I0907 13:37:31.042418 23576 net.cpp:157] Top shape: 16 512 19 19 (2957312)
I0907 13:37:31.042420 23576 net.cpp:165] Memory required for data: 2218565760
I0907 13:37:31.042425 23576 layer_factory.hpp:77] Creating layer conv5_4/dw/bn
I0907 13:37:31.042430 23576 net.cpp:100] Creating Layer conv5_4/dw/bn
I0907 13:37:31.042433 23576 net.cpp:434] conv5_4/dw/bn <- conv5_4/dw
I0907 13:37:31.042436 23576 net.cpp:395] conv5_4/dw/bn -> conv5_4/dw (in-place)
I0907 13:37:31.042606 23576 net.cpp:150] Setting up conv5_4/dw/bn
I0907 13:37:31.042613 23576 net.cpp:157] Top shape: 16 512 19 19 (2957312)
I0907 13:37:31.042618 23576 net.cpp:165] Memory required for data: 2230395008
I0907 13:37:31.042624 23576 layer_factory.hpp:77] Creating layer conv5_4/dw/scale
I0907 13:37:31.042631 23576 net.cpp:100] Creating Layer conv5_4/dw/scale
I0907 13:37:31.042635 23576 net.cpp:434] conv5_4/dw/scale <- conv5_4/dw
I0907 13:37:31.042640 23576 net.cpp:395] conv5_4/dw/scale -> conv5_4/dw (in-place)
I0907 13:37:31.042681 23576 layer_factory.hpp:77] Creating layer conv5_4/dw/scale
I0907 13:37:31.042779 23576 net.cpp:150] Setting up conv5_4/dw/scale
I0907 13:37:31.042785 23576 net.cpp:157] Top shape: 16 512 19 19 (2957312)
I0907 13:37:31.042789 23576 net.cpp:165] Memory required for data: 2242224256
I0907 13:37:31.042794 23576 layer_factory.hpp:77] Creating layer conv5_4/dw_relu
I0907 13:37:31.042800 23576 net.cpp:100] Creating Layer conv5_4/dw_relu
I0907 13:37:31.042804 23576 net.cpp:434] conv5_4/dw_relu <- conv5_4/dw
I0907 13:37:31.042809 23576 net.cpp:395] conv5_4/dw_relu -> conv5_4/dw (in-place)
I0907 13:37:31.042961 23576 net.cpp:150] Setting up conv5_4/dw_relu
I0907 13:37:31.042969 23576 net.cpp:157] Top shape: 16 512 19 19 (2957312)
I0907 13:37:31.042973 23576 net.cpp:165] Memory required for data: 2254053504
I0907 13:37:31.042976 23576 layer_factory.hpp:77] Creating layer conv5_4/sep
I0907 13:37:31.042984 23576 net.cpp:100] Creating Layer conv5_4/sep
I0907 13:37:31.042989 23576 net.cpp:434] conv5_4/sep <- conv5_4/dw
I0907 13:37:31.042994 23576 net.cpp:408] conv5_4/sep -> conv5_4/sep
I0907 13:37:31.047046 23576 net.cpp:150] Setting up conv5_4/sep
I0907 13:37:31.047058 23576 net.cpp:157] Top shape: 16 512 19 19 (2957312)
I0907 13:37:31.047062 23576 net.cpp:165] Memory required for data: 2265882752
I0907 13:37:31.047068 23576 layer_factory.hpp:77] Creating layer conv5_4/sep/bn
I0907 13:37:31.047075 23576 net.cpp:100] Creating Layer conv5_4/sep/bn
I0907 13:37:31.047080 23576 net.cpp:434] conv5_4/sep/bn <- conv5_4/sep
I0907 13:37:31.047086 23576 net.cpp:395] conv5_4/sep/bn -> conv5_4/sep (in-place)
I0907 13:37:31.047262 23576 net.cpp:150] Setting up conv5_4/sep/bn
I0907 13:37:31.047269 23576 net.cpp:157] Top shape: 16 512 19 19 (2957312)
I0907 13:37:31.047273 23576 net.cpp:165] Memory required for data: 2277712000
I0907 13:37:31.047279 23576 layer_factory.hpp:77] Creating layer conv5_4/sep/scale
I0907 13:37:31.047287 23576 net.cpp:100] Creating Layer conv5_4/sep/scale
I0907 13:37:31.047300 23576 net.cpp:434] conv5_4/sep/scale <- conv5_4/sep
I0907 13:37:31.047305 23576 net.cpp:395] conv5_4/sep/scale -> conv5_4/sep (in-place)
I0907 13:37:31.047348 23576 layer_factory.hpp:77] Creating layer conv5_4/sep/scale
I0907 13:37:31.047446 23576 net.cpp:150] Setting up conv5_4/sep/scale
I0907 13:37:31.047453 23576 net.cpp:157] Top shape: 16 512 19 19 (2957312)
I0907 13:37:31.047457 23576 net.cpp:165] Memory required for data: 2289541248
I0907 13:37:31.047462 23576 layer_factory.hpp:77] Creating layer conv5_4/sep_relu
I0907 13:37:31.047469 23576 net.cpp:100] Creating Layer conv5_4/sep_relu
I0907 13:37:31.047472 23576 net.cpp:434] conv5_4/sep_relu <- conv5_4/sep
I0907 13:37:31.047477 23576 net.cpp:395] conv5_4/sep_relu -> conv5_4/sep (in-place)
I0907 13:37:31.048076 23576 net.cpp:150] Setting up conv5_4/sep_relu
I0907 13:37:31.048087 23576 net.cpp:157] Top shape: 16 512 19 19 (2957312)
I0907 13:37:31.048091 23576 net.cpp:165] Memory required for data: 2301370496
I0907 13:37:31.048095 23576 layer_factory.hpp:77] Creating layer conv5_5/dw
I0907 13:37:31.048104 23576 net.cpp:100] Creating Layer conv5_5/dw
I0907 13:37:31.048107 23576 net.cpp:434] conv5_5/dw <- conv5_4/sep
I0907 13:37:31.048115 23576 net.cpp:408] conv5_5/dw -> conv5_5/dw
I0907 13:37:31.048326 23576 net.cpp:150] Setting up conv5_5/dw
I0907 13:37:31.048332 23576 net.cpp:157] Top shape: 16 512 19 19 (2957312)
I0907 13:37:31.048336 23576 net.cpp:165] Memory required for data: 2313199744
I0907 13:37:31.048341 23576 layer_factory.hpp:77] Creating layer conv5_5/dw/bn
I0907 13:37:31.048346 23576 net.cpp:100] Creating Layer conv5_5/dw/bn
I0907 13:37:31.048352 23576 net.cpp:434] conv5_5/dw/bn <- conv5_5/dw
I0907 13:37:31.048355 23576 net.cpp:395] conv5_5/dw/bn -> conv5_5/dw (in-place)
I0907 13:37:31.048522 23576 net.cpp:150] Setting up conv5_5/dw/bn
I0907 13:37:31.048529 23576 net.cpp:157] Top shape: 16 512 19 19 (2957312)
I0907 13:37:31.048533 23576 net.cpp:165] Memory required for data: 2325028992
I0907 13:37:31.048550 23576 layer_factory.hpp:77] Creating layer conv5_5/dw/scale
I0907 13:37:31.048557 23576 net.cpp:100] Creating Layer conv5_5/dw/scale
I0907 13:37:31.048562 23576 net.cpp:434] conv5_5/dw/scale <- conv5_5/dw
I0907 13:37:31.048568 23576 net.cpp:395] conv5_5/dw/scale -> conv5_5/dw (in-place)
I0907 13:37:31.048610 23576 layer_factory.hpp:77] Creating layer conv5_5/dw/scale
I0907 13:37:31.048707 23576 net.cpp:150] Setting up conv5_5/dw/scale
I0907 13:37:31.048712 23576 net.cpp:157] Top shape: 16 512 19 19 (2957312)
I0907 13:37:31.048715 23576 net.cpp:165] Memory required for data: 2336858240
I0907 13:37:31.048722 23576 layer_factory.hpp:77] Creating layer conv5_5/dw_relu
I0907 13:37:31.048729 23576 net.cpp:100] Creating Layer conv5_5/dw_relu
I0907 13:37:31.048732 23576 net.cpp:434] conv5_5/dw_relu <- conv5_5/dw
I0907 13:37:31.048738 23576 net.cpp:395] conv5_5/dw_relu -> conv5_5/dw (in-place)
I0907 13:37:31.048889 23576 net.cpp:150] Setting up conv5_5/dw_relu
I0907 13:37:31.048898 23576 net.cpp:157] Top shape: 16 512 19 19 (2957312)
I0907 13:37:31.048902 23576 net.cpp:165] Memory required for data: 2348687488
I0907 13:37:31.048907 23576 layer_factory.hpp:77] Creating layer conv5_5/sep
I0907 13:37:31.048915 23576 net.cpp:100] Creating Layer conv5_5/sep
I0907 13:37:31.048919 23576 net.cpp:434] conv5_5/sep <- conv5_5/dw
I0907 13:37:31.048924 23576 net.cpp:408] conv5_5/sep -> conv5_5/sep
I0907 13:37:31.052948 23576 net.cpp:150] Setting up conv5_5/sep
I0907 13:37:31.052960 23576 net.cpp:157] Top shape: 16 512 19 19 (2957312)
I0907 13:37:31.052963 23576 net.cpp:165] Memory required for data: 2360516736
I0907 13:37:31.052968 23576 layer_factory.hpp:77] Creating layer conv5_5/sep/bn
I0907 13:37:31.052973 23576 net.cpp:100] Creating Layer conv5_5/sep/bn
I0907 13:37:31.052976 23576 net.cpp:434] conv5_5/sep/bn <- conv5_5/sep
I0907 13:37:31.052979 23576 net.cpp:395] conv5_5/sep/bn -> conv5_5/sep (in-place)
I0907 13:37:31.053159 23576 net.cpp:150] Setting up conv5_5/sep/bn
I0907 13:37:31.053166 23576 net.cpp:157] Top shape: 16 512 19 19 (2957312)
I0907 13:37:31.053179 23576 net.cpp:165] Memory required for data: 2372345984
I0907 13:37:31.053189 23576 layer_factory.hpp:77] Creating layer conv5_5/sep/scale
I0907 13:37:31.053196 23576 net.cpp:100] Creating Layer conv5_5/sep/scale
I0907 13:37:31.053200 23576 net.cpp:434] conv5_5/sep/scale <- conv5_5/sep
I0907 13:37:31.053205 23576 net.cpp:395] conv5_5/sep/scale -> conv5_5/sep (in-place)
I0907 13:37:31.053248 23576 layer_factory.hpp:77] Creating layer conv5_5/sep/scale
I0907 13:37:31.053346 23576 net.cpp:150] Setting up conv5_5/sep/scale
I0907 13:37:31.053354 23576 net.cpp:157] Top shape: 16 512 19 19 (2957312)
I0907 13:37:31.053356 23576 net.cpp:165] Memory required for data: 2384175232
I0907 13:37:31.053362 23576 layer_factory.hpp:77] Creating layer conv5_5/sep_relu
I0907 13:37:31.053369 23576 net.cpp:100] Creating Layer conv5_5/sep_relu
I0907 13:37:31.053373 23576 net.cpp:434] conv5_5/sep_relu <- conv5_5/sep
I0907 13:37:31.053378 23576 net.cpp:395] conv5_5/sep_relu -> conv5_5/sep (in-place)
I0907 13:37:31.053987 23576 net.cpp:150] Setting up conv5_5/sep_relu
I0907 13:37:31.053999 23576 net.cpp:157] Top shape: 16 512 19 19 (2957312)
I0907 13:37:31.054003 23576 net.cpp:165] Memory required for data: 2396004480
I0907 13:37:31.054006 23576 layer_factory.hpp:77] Creating layer conv5_5/sep_conv5_5/sep_relu_0_split
I0907 13:37:31.054013 23576 net.cpp:100] Creating Layer conv5_5/sep_conv5_5/sep_relu_0_split
I0907 13:37:31.054016 23576 net.cpp:434] conv5_5/sep_conv5_5/sep_relu_0_split <- conv5_5/sep
I0907 13:37:31.054023 23576 net.cpp:408] conv5_5/sep_conv5_5/sep_relu_0_split -> conv5_5/sep_conv5_5/sep_relu_0_split_0
I0907 13:37:31.054034 23576 net.cpp:408] conv5_5/sep_conv5_5/sep_relu_0_split -> conv5_5/sep_conv5_5/sep_relu_0_split_1
I0907 13:37:31.054040 23576 net.cpp:408] conv5_5/sep_conv5_5/sep_relu_0_split -> conv5_5/sep_conv5_5/sep_relu_0_split_2
I0907 13:37:31.054046 23576 net.cpp:408] conv5_5/sep_conv5_5/sep_relu_0_split -> conv5_5/sep_conv5_5/sep_relu_0_split_3
I0907 13:37:31.054110 23576 net.cpp:150] Setting up conv5_5/sep_conv5_5/sep_relu_0_split
I0907 13:37:31.054117 23576 net.cpp:157] Top shape: 16 512 19 19 (2957312)
I0907 13:37:31.054121 23576 net.cpp:157] Top shape: 16 512 19 19 (2957312)
I0907 13:37:31.054126 23576 net.cpp:157] Top shape: 16 512 19 19 (2957312)
I0907 13:37:31.054129 23576 net.cpp:157] Top shape: 16 512 19 19 (2957312)
I0907 13:37:31.054132 23576 net.cpp:165] Memory required for data: 2443321472
I0907 13:37:31.054136 23576 layer_factory.hpp:77] Creating layer conv5_6/dw
I0907 13:37:31.054144 23576 net.cpp:100] Creating Layer conv5_6/dw
I0907 13:37:31.054148 23576 net.cpp:434] conv5_6/dw <- conv5_5/sep_conv5_5/sep_relu_0_split_0
I0907 13:37:31.054154 23576 net.cpp:408] conv5_6/dw -> conv5_6/dw
I0907 13:37:31.054366 23576 net.cpp:150] Setting up conv5_6/dw
I0907 13:37:31.054374 23576 net.cpp:157] Top shape: 16 512 10 10 (819200)
I0907 13:37:31.054376 23576 net.cpp:165] Memory required for data: 2446598272
I0907 13:37:31.054380 23576 layer_factory.hpp:77] Creating layer conv5_6/dw/bn
I0907 13:37:31.054385 23576 net.cpp:100] Creating Layer conv5_6/dw/bn
I0907 13:37:31.054388 23576 net.cpp:434] conv5_6/dw/bn <- conv5_6/dw
I0907 13:37:31.054392 23576 net.cpp:395] conv5_6/dw/bn -> conv5_6/dw (in-place)
I0907 13:37:31.054566 23576 net.cpp:150] Setting up conv5_6/dw/bn
I0907 13:37:31.054574 23576 net.cpp:157] Top shape: 16 512 10 10 (819200)
I0907 13:37:31.054576 23576 net.cpp:165] Memory required for data: 2449875072
I0907 13:37:31.054584 23576 layer_factory.hpp:77] Creating layer conv5_6/dw/scale
I0907 13:37:31.054590 23576 net.cpp:100] Creating Layer conv5_6/dw/scale
I0907 13:37:31.054594 23576 net.cpp:434] conv5_6/dw/scale <- conv5_6/dw
I0907 13:37:31.054599 23576 net.cpp:395] conv5_6/dw/scale -> conv5_6/dw (in-place)
I0907 13:37:31.054636 23576 layer_factory.hpp:77] Creating layer conv5_6/dw/scale
I0907 13:37:31.054739 23576 net.cpp:150] Setting up conv5_6/dw/scale
I0907 13:37:31.054747 23576 net.cpp:157] Top shape: 16 512 10 10 (819200)
I0907 13:37:31.054750 23576 net.cpp:165] Memory required for data: 2453151872
I0907 13:37:31.054765 23576 layer_factory.hpp:77] Creating layer conv5_6/dw_relu
I0907 13:37:31.054770 23576 net.cpp:100] Creating Layer conv5_6/dw_relu
I0907 13:37:31.054774 23576 net.cpp:434] conv5_6/dw_relu <- conv5_6/dw
I0907 13:37:31.054778 23576 net.cpp:395] conv5_6/dw_relu -> conv5_6/dw (in-place)
I0907 13:37:31.055369 23576 net.cpp:150] Setting up conv5_6/dw_relu
I0907 13:37:31.055380 23576 net.cpp:157] Top shape: 16 512 10 10 (819200)
I0907 13:37:31.055384 23576 net.cpp:165] Memory required for data: 2456428672
I0907 13:37:31.055387 23576 layer_factory.hpp:77] Creating layer conv5_6/sep
I0907 13:37:31.055395 23576 net.cpp:100] Creating Layer conv5_6/sep
I0907 13:37:31.055399 23576 net.cpp:434] conv5_6/sep <- conv5_6/dw
I0907 13:37:31.055407 23576 net.cpp:408] conv5_6/sep -> conv5_6/sep
I0907 13:37:31.061754 23576 net.cpp:150] Setting up conv5_6/sep
I0907 13:37:31.061769 23576 net.cpp:157] Top shape: 16 1024 10 10 (1638400)
I0907 13:37:31.061774 23576 net.cpp:165] Memory required for data: 2462982272
I0907 13:37:31.061779 23576 layer_factory.hpp:77] Creating layer conv5_6/sep/bn
I0907 13:37:31.061784 23576 net.cpp:100] Creating Layer conv5_6/sep/bn
I0907 13:37:31.061789 23576 net.cpp:434] conv5_6/sep/bn <- conv5_6/sep
I0907 13:37:31.061795 23576 net.cpp:395] conv5_6/sep/bn -> conv5_6/sep (in-place)
I0907 13:37:31.061975 23576 net.cpp:150] Setting up conv5_6/sep/bn
I0907 13:37:31.061982 23576 net.cpp:157] Top shape: 16 1024 10 10 (1638400)
I0907 13:37:31.061985 23576 net.cpp:165] Memory required for data: 2469535872
I0907 13:37:31.061991 23576 layer_factory.hpp:77] Creating layer conv5_6/sep/scale
I0907 13:37:31.062001 23576 net.cpp:100] Creating Layer conv5_6/sep/scale
I0907 13:37:31.062005 23576 net.cpp:434] conv5_6/sep/scale <- conv5_6/sep
I0907 13:37:31.062011 23576 net.cpp:395] conv5_6/sep/scale -> conv5_6/sep (in-place)
I0907 13:37:31.062050 23576 layer_factory.hpp:77] Creating layer conv5_6/sep/scale
I0907 13:37:31.062155 23576 net.cpp:150] Setting up conv5_6/sep/scale
I0907 13:37:31.062161 23576 net.cpp:157] Top shape: 16 1024 10 10 (1638400)
I0907 13:37:31.062165 23576 net.cpp:165] Memory required for data: 2476089472
I0907 13:37:31.062171 23576 layer_factory.hpp:77] Creating layer conv5_6/sep_relu
I0907 13:37:31.062176 23576 net.cpp:100] Creating Layer conv5_6/sep_relu
I0907 13:37:31.062180 23576 net.cpp:434] conv5_6/sep_relu <- conv5_6/sep
I0907 13:37:31.062186 23576 net.cpp:395] conv5_6/sep_relu -> conv5_6/sep (in-place)
I0907 13:37:31.062345 23576 net.cpp:150] Setting up conv5_6/sep_relu
I0907 13:37:31.062355 23576 net.cpp:157] Top shape: 16 1024 10 10 (1638400)
I0907 13:37:31.062358 23576 net.cpp:165] Memory required for data: 2482643072
I0907 13:37:31.062361 23576 layer_factory.hpp:77] Creating layer conv6/dw
I0907 13:37:31.062371 23576 net.cpp:100] Creating Layer conv6/dw
I0907 13:37:31.062374 23576 net.cpp:434] conv6/dw <- conv5_6/sep
I0907 13:37:31.062381 23576 net.cpp:408] conv6/dw -> conv6/dw
I0907 13:37:31.062638 23576 net.cpp:150] Setting up conv6/dw
I0907 13:37:31.062644 23576 net.cpp:157] Top shape: 16 1024 10 10 (1638400)
I0907 13:37:31.062647 23576 net.cpp:165] Memory required for data: 2489196672
I0907 13:37:31.062651 23576 layer_factory.hpp:77] Creating layer conv6/dw/bn
I0907 13:37:31.062656 23576 net.cpp:100] Creating Layer conv6/dw/bn
I0907 13:37:31.062659 23576 net.cpp:434] conv6/dw/bn <- conv6/dw
I0907 13:37:31.062662 23576 net.cpp:395] conv6/dw/bn -> conv6/dw (in-place)
I0907 13:37:31.062831 23576 net.cpp:150] Setting up conv6/dw/bn
I0907 13:37:31.062839 23576 net.cpp:157] Top shape: 16 1024 10 10 (1638400)
I0907 13:37:31.062841 23576 net.cpp:165] Memory required for data: 2495750272
I0907 13:37:31.062849 23576 layer_factory.hpp:77] Creating layer conv6/dw/scale
I0907 13:37:31.062855 23576 net.cpp:100] Creating Layer conv6/dw/scale
I0907 13:37:31.062858 23576 net.cpp:434] conv6/dw/scale <- conv6/dw
I0907 13:37:31.062863 23576 net.cpp:395] conv6/dw/scale -> conv6/dw (in-place)
I0907 13:37:31.062901 23576 layer_factory.hpp:77] Creating layer conv6/dw/scale
I0907 13:37:31.063020 23576 net.cpp:150] Setting up conv6/dw/scale
I0907 13:37:31.063027 23576 net.cpp:157] Top shape: 16 1024 10 10 (1638400)
I0907 13:37:31.063030 23576 net.cpp:165] Memory required for data: 2502303872
I0907 13:37:31.063036 23576 layer_factory.hpp:77] Creating layer conv6/dw_relu
I0907 13:37:31.063041 23576 net.cpp:100] Creating Layer conv6/dw_relu
I0907 13:37:31.063045 23576 net.cpp:434] conv6/dw_relu <- conv6/dw
I0907 13:37:31.063052 23576 net.cpp:395] conv6/dw_relu -> conv6/dw (in-place)
I0907 13:37:31.063643 23576 net.cpp:150] Setting up conv6/dw_relu
I0907 13:37:31.063654 23576 net.cpp:157] Top shape: 16 1024 10 10 (1638400)
I0907 13:37:31.063657 23576 net.cpp:165] Memory required for data: 2508857472
I0907 13:37:31.063658 23576 layer_factory.hpp:77] Creating layer conv6/sep
I0907 13:37:31.063666 23576 net.cpp:100] Creating Layer conv6/sep
I0907 13:37:31.063669 23576 net.cpp:434] conv6/sep <- conv6/dw
I0907 13:37:31.063675 23576 net.cpp:408] conv6/sep -> conv6/sep
I0907 13:37:31.074609 23576 net.cpp:150] Setting up conv6/sep
I0907 13:37:31.074620 23576 net.cpp:157] Top shape: 16 1024 10 10 (1638400)
I0907 13:37:31.074623 23576 net.cpp:165] Memory required for data: 2515411072
I0907 13:37:31.074627 23576 layer_factory.hpp:77] Creating layer conv6/sep/bn
I0907 13:37:31.074633 23576 net.cpp:100] Creating Layer conv6/sep/bn
I0907 13:37:31.074637 23576 net.cpp:434] conv6/sep/bn <- conv6/sep
I0907 13:37:31.074643 23576 net.cpp:395] conv6/sep/bn -> conv6/sep (in-place)
I0907 13:37:31.074828 23576 net.cpp:150] Setting up conv6/sep/bn
I0907 13:37:31.074836 23576 net.cpp:157] Top shape: 16 1024 10 10 (1638400)
I0907 13:37:31.074838 23576 net.cpp:165] Memory required for data: 2521964672
I0907 13:37:31.074844 23576 layer_factory.hpp:77] Creating layer conv6/sep/scale
I0907 13:37:31.074849 23576 net.cpp:100] Creating Layer conv6/sep/scale
I0907 13:37:31.074853 23576 net.cpp:434] conv6/sep/scale <- conv6/sep
I0907 13:37:31.074858 23576 net.cpp:395] conv6/sep/scale -> conv6/sep (in-place)
I0907 13:37:31.074899 23576 layer_factory.hpp:77] Creating layer conv6/sep/scale
I0907 13:37:31.075006 23576 net.cpp:150] Setting up conv6/sep/scale
I0907 13:37:31.075012 23576 net.cpp:157] Top shape: 16 1024 10 10 (1638400)
I0907 13:37:31.075016 23576 net.cpp:165] Memory required for data: 2528518272
I0907 13:37:31.075021 23576 layer_factory.hpp:77] Creating layer conv6/sep_relu
I0907 13:37:31.075027 23576 net.cpp:100] Creating Layer conv6/sep_relu
I0907 13:37:31.075031 23576 net.cpp:434] conv6/sep_relu <- conv6/sep
I0907 13:37:31.075036 23576 net.cpp:395] conv6/sep_relu -> conv6/sep (in-place)
I0907 13:37:31.075189 23576 net.cpp:150] Setting up conv6/sep_relu
I0907 13:37:31.075197 23576 net.cpp:157] Top shape: 16 1024 10 10 (1638400)
I0907 13:37:31.075201 23576 net.cpp:165] Memory required for data: 2535071872
I0907 13:37:31.075206 23576 layer_factory.hpp:77] Creating layer conv6/sep_conv6/sep_relu_0_split
I0907 13:37:31.075212 23576 net.cpp:100] Creating Layer conv6/sep_conv6/sep_relu_0_split
I0907 13:37:31.075217 23576 net.cpp:434] conv6/sep_conv6/sep_relu_0_split <- conv6/sep
I0907 13:37:31.075223 23576 net.cpp:408] conv6/sep_conv6/sep_relu_0_split -> conv6/sep_conv6/sep_relu_0_split_0
I0907 13:37:31.075230 23576 net.cpp:408] conv6/sep_conv6/sep_relu_0_split -> conv6/sep_conv6/sep_relu_0_split_1
I0907 13:37:31.075237 23576 net.cpp:408] conv6/sep_conv6/sep_relu_0_split -> conv6/sep_conv6/sep_relu_0_split_2
I0907 13:37:31.075242 23576 net.cpp:408] conv6/sep_conv6/sep_relu_0_split -> conv6/sep_conv6/sep_relu_0_split_3
I0907 13:37:31.075306 23576 net.cpp:150] Setting up conv6/sep_conv6/sep_relu_0_split
I0907 13:37:31.075314 23576 net.cpp:157] Top shape: 16 1024 10 10 (1638400)
I0907 13:37:31.075317 23576 net.cpp:157] Top shape: 16 1024 10 10 (1638400)
I0907 13:37:31.075321 23576 net.cpp:157] Top shape: 16 1024 10 10 (1638400)
I0907 13:37:31.075325 23576 net.cpp:157] Top shape: 16 1024 10 10 (1638400)
I0907 13:37:31.075328 23576 net.cpp:165] Memory required for data: 2561286272
I0907 13:37:31.075331 23576 layer_factory.hpp:77] Creating layer conv7_1
I0907 13:37:31.075350 23576 net.cpp:100] Creating Layer conv7_1
I0907 13:37:31.075354 23576 net.cpp:434] conv7_1 <- conv6/sep_conv6/sep_relu_0_split_0
I0907 13:37:31.075361 23576 net.cpp:408] conv7_1 -> conv7_1
I0907 13:37:31.078505 23576 net.cpp:150] Setting up conv7_1
I0907 13:37:31.078517 23576 net.cpp:157] Top shape: 16 256 10 10 (409600)
I0907 13:37:31.078521 23576 net.cpp:165] Memory required for data: 2562924672
I0907 13:37:31.078527 23576 layer_factory.hpp:77] Creating layer conv7_1_relu
I0907 13:37:31.078536 23576 net.cpp:100] Creating Layer conv7_1_relu
I0907 13:37:31.078539 23576 net.cpp:434] conv7_1_relu <- conv7_1
I0907 13:37:31.078544 23576 net.cpp:395] conv7_1_relu -> conv7_1 (in-place)
I0907 13:37:31.079141 23576 net.cpp:150] Setting up conv7_1_relu
I0907 13:37:31.079154 23576 net.cpp:157] Top shape: 16 256 10 10 (409600)
I0907 13:37:31.079157 23576 net.cpp:165] Memory required for data: 2564563072
I0907 13:37:31.079161 23576 layer_factory.hpp:77] Creating layer conv7_2
I0907 13:37:31.079170 23576 net.cpp:100] Creating Layer conv7_2
I0907 13:37:31.079174 23576 net.cpp:434] conv7_2 <- conv7_1
I0907 13:37:31.079181 23576 net.cpp:408] conv7_2 -> conv7_2
I0907 13:37:31.086688 23576 net.cpp:150] Setting up conv7_2
I0907 13:37:31.086699 23576 net.cpp:157] Top shape: 16 512 5 5 (204800)
I0907 13:37:31.086702 23576 net.cpp:165] Memory required for data: 2565382272
I0907 13:37:31.086707 23576 layer_factory.hpp:77] Creating layer conv7_2_relu
I0907 13:37:31.086712 23576 net.cpp:100] Creating Layer conv7_2_relu
I0907 13:37:31.086715 23576 net.cpp:434] conv7_2_relu <- conv7_2
I0907 13:37:31.086719 23576 net.cpp:395] conv7_2_relu -> conv7_2 (in-place)
I0907 13:37:31.087316 23576 net.cpp:150] Setting up conv7_2_relu
I0907 13:37:31.087327 23576 net.cpp:157] Top shape: 16 512 5 5 (204800)
I0907 13:37:31.087329 23576 net.cpp:165] Memory required for data: 2566201472
I0907 13:37:31.087332 23576 layer_factory.hpp:77] Creating layer conv7_2_conv7_2_relu_0_split
I0907 13:37:31.087338 23576 net.cpp:100] Creating Layer conv7_2_conv7_2_relu_0_split
I0907 13:37:31.087342 23576 net.cpp:434] conv7_2_conv7_2_relu_0_split <- conv7_2
I0907 13:37:31.087345 23576 net.cpp:408] conv7_2_conv7_2_relu_0_split -> conv7_2_conv7_2_relu_0_split_0
I0907 13:37:31.087352 23576 net.cpp:408] conv7_2_conv7_2_relu_0_split -> conv7_2_conv7_2_relu_0_split_1
I0907 13:37:31.087358 23576 net.cpp:408] conv7_2_conv7_2_relu_0_split -> conv7_2_conv7_2_relu_0_split_2
I0907 13:37:31.087364 23576 net.cpp:408] conv7_2_conv7_2_relu_0_split -> conv7_2_conv7_2_relu_0_split_3
I0907 13:37:31.087433 23576 net.cpp:150] Setting up conv7_2_conv7_2_relu_0_split
I0907 13:37:31.087440 23576 net.cpp:157] Top shape: 16 512 5 5 (204800)
I0907 13:37:31.087443 23576 net.cpp:157] Top shape: 16 512 5 5 (204800)
I0907 13:37:31.087448 23576 net.cpp:157] Top shape: 16 512 5 5 (204800)
I0907 13:37:31.087452 23576 net.cpp:157] Top shape: 16 512 5 5 (204800)
I0907 13:37:31.087455 23576 net.cpp:165] Memory required for data: 2569478272
I0907 13:37:31.087460 23576 layer_factory.hpp:77] Creating layer conv8_1
I0907 13:37:31.087468 23576 net.cpp:100] Creating Layer conv8_1
I0907 13:37:31.087472 23576 net.cpp:434] conv8_1 <- conv7_2_conv7_2_relu_0_split_0
I0907 13:37:31.087479 23576 net.cpp:408] conv8_1 -> conv8_1
I0907 13:37:31.089366 23576 net.cpp:150] Setting up conv8_1
I0907 13:37:31.089378 23576 net.cpp:157] Top shape: 16 128 5 5 (51200)
I0907 13:37:31.089381 23576 net.cpp:165] Memory required for data: 2569683072
I0907 13:37:31.089387 23576 layer_factory.hpp:77] Creating layer conv8_1_relu
I0907 13:37:31.089395 23576 net.cpp:100] Creating Layer conv8_1_relu
I0907 13:37:31.089398 23576 net.cpp:434] conv8_1_relu <- conv8_1
I0907 13:37:31.089403 23576 net.cpp:395] conv8_1_relu -> conv8_1 (in-place)
I0907 13:37:31.089560 23576 net.cpp:150] Setting up conv8_1_relu
I0907 13:37:31.089567 23576 net.cpp:157] Top shape: 16 128 5 5 (51200)
I0907 13:37:31.089570 23576 net.cpp:165] Memory required for data: 2569887872
I0907 13:37:31.089573 23576 layer_factory.hpp:77] Creating layer conv8_2
I0907 13:37:31.089593 23576 net.cpp:100] Creating Layer conv8_2
I0907 13:37:31.089597 23576 net.cpp:434] conv8_2 <- conv8_1
I0907 13:37:31.089604 23576 net.cpp:408] conv8_2 -> conv8_2
I0907 13:37:31.092934 23576 net.cpp:150] Setting up conv8_2
I0907 13:37:31.092947 23576 net.cpp:157] Top shape: 16 256 3 3 (36864)
I0907 13:37:31.092950 23576 net.cpp:165] Memory required for data: 2570035328
I0907 13:37:31.092957 23576 layer_factory.hpp:77] Creating layer conv8_2_relu
I0907 13:37:31.092962 23576 net.cpp:100] Creating Layer conv8_2_relu
I0907 13:37:31.092967 23576 net.cpp:434] conv8_2_relu <- conv8_2
I0907 13:37:31.092972 23576 net.cpp:395] conv8_2_relu -> conv8_2 (in-place)
I0907 13:37:31.093576 23576 net.cpp:150] Setting up conv8_2_relu
I0907 13:37:31.093587 23576 net.cpp:157] Top shape: 16 256 3 3 (36864)
I0907 13:37:31.093590 23576 net.cpp:165] Memory required for data: 2570182784
I0907 13:37:31.093592 23576 layer_factory.hpp:77] Creating layer conv8_2_conv8_2_relu_0_split
I0907 13:37:31.093600 23576 net.cpp:100] Creating Layer conv8_2_conv8_2_relu_0_split
I0907 13:37:31.093602 23576 net.cpp:434] conv8_2_conv8_2_relu_0_split <- conv8_2
I0907 13:37:31.093606 23576 net.cpp:408] conv8_2_conv8_2_relu_0_split -> conv8_2_conv8_2_relu_0_split_0
I0907 13:37:31.093613 23576 net.cpp:408] conv8_2_conv8_2_relu_0_split -> conv8_2_conv8_2_relu_0_split_1
I0907 13:37:31.093619 23576 net.cpp:408] conv8_2_conv8_2_relu_0_split -> conv8_2_conv8_2_relu_0_split_2
I0907 13:37:31.093624 23576 net.cpp:408] conv8_2_conv8_2_relu_0_split -> conv8_2_conv8_2_relu_0_split_3
I0907 13:37:31.093695 23576 net.cpp:150] Setting up conv8_2_conv8_2_relu_0_split
I0907 13:37:31.093700 23576 net.cpp:157] Top shape: 16 256 3 3 (36864)
I0907 13:37:31.093705 23576 net.cpp:157] Top shape: 16 256 3 3 (36864)
I0907 13:37:31.093709 23576 net.cpp:157] Top shape: 16 256 3 3 (36864)
I0907 13:37:31.093713 23576 net.cpp:157] Top shape: 16 256 3 3 (36864)
I0907 13:37:31.093716 23576 net.cpp:165] Memory required for data: 2570772608
I0907 13:37:31.093719 23576 layer_factory.hpp:77] Creating layer conv9_1
I0907 13:37:31.093729 23576 net.cpp:100] Creating Layer conv9_1
I0907 13:37:31.093734 23576 net.cpp:434] conv9_1 <- conv8_2_conv8_2_relu_0_split_0
I0907 13:37:31.093739 23576 net.cpp:408] conv9_1 -> conv9_1
I0907 13:37:31.095057 23576 net.cpp:150] Setting up conv9_1
I0907 13:37:31.095069 23576 net.cpp:157] Top shape: 16 128 3 3 (18432)
I0907 13:37:31.095072 23576 net.cpp:165] Memory required for data: 2570846336
I0907 13:37:31.095079 23576 layer_factory.hpp:77] Creating layer conv9_1_relu
I0907 13:37:31.095085 23576 net.cpp:100] Creating Layer conv9_1_relu
I0907 13:37:31.095089 23576 net.cpp:434] conv9_1_relu <- conv9_1
I0907 13:37:31.095094 23576 net.cpp:395] conv9_1_relu -> conv9_1 (in-place)
I0907 13:37:31.095692 23576 net.cpp:150] Setting up conv9_1_relu
I0907 13:37:31.095703 23576 net.cpp:157] Top shape: 16 128 3 3 (18432)
I0907 13:37:31.095705 23576 net.cpp:165] Memory required for data: 2570920064
I0907 13:37:31.095708 23576 layer_factory.hpp:77] Creating layer conv9_2
I0907 13:37:31.095716 23576 net.cpp:100] Creating Layer conv9_2
I0907 13:37:31.095719 23576 net.cpp:434] conv9_2 <- conv9_1
I0907 13:37:31.095724 23576 net.cpp:408] conv9_2 -> conv9_2
I0907 13:37:31.099483 23576 net.cpp:150] Setting up conv9_2
I0907 13:37:31.099496 23576 net.cpp:157] Top shape: 16 256 2 2 (16384)
I0907 13:37:31.099498 23576 net.cpp:165] Memory required for data: 2570985600
I0907 13:37:31.099504 23576 layer_factory.hpp:77] Creating layer conv9_2_relu
I0907 13:37:31.099509 23576 net.cpp:100] Creating Layer conv9_2_relu
I0907 13:37:31.099511 23576 net.cpp:434] conv9_2_relu <- conv9_2
I0907 13:37:31.099515 23576 net.cpp:395] conv9_2_relu -> conv9_2 (in-place)
I0907 13:37:31.099680 23576 net.cpp:150] Setting up conv9_2_relu
I0907 13:37:31.099689 23576 net.cpp:157] Top shape: 16 256 2 2 (16384)
I0907 13:37:31.099694 23576 net.cpp:165] Memory required for data: 2571051136
I0907 13:37:31.099699 23576 layer_factory.hpp:77] Creating layer conv9_2_conv9_2_relu_0_split
I0907 13:37:31.099705 23576 net.cpp:100] Creating Layer conv9_2_conv9_2_relu_0_split
I0907 13:37:31.099719 23576 net.cpp:434] conv9_2_conv9_2_relu_0_split <- conv9_2
I0907 13:37:31.099725 23576 net.cpp:408] conv9_2_conv9_2_relu_0_split -> conv9_2_conv9_2_relu_0_split_0
I0907 13:37:31.099731 23576 net.cpp:408] conv9_2_conv9_2_relu_0_split -> conv9_2_conv9_2_relu_0_split_1
I0907 13:37:31.099738 23576 net.cpp:408] conv9_2_conv9_2_relu_0_split -> conv9_2_conv9_2_relu_0_split_2
I0907 13:37:31.099743 23576 net.cpp:408] conv9_2_conv9_2_relu_0_split -> conv9_2_conv9_2_relu_0_split_3
I0907 13:37:31.099812 23576 net.cpp:150] Setting up conv9_2_conv9_2_relu_0_split
I0907 13:37:31.099818 23576 net.cpp:157] Top shape: 16 256 2 2 (16384)
I0907 13:37:31.099822 23576 net.cpp:157] Top shape: 16 256 2 2 (16384)
I0907 13:37:31.099826 23576 net.cpp:157] Top shape: 16 256 2 2 (16384)
I0907 13:37:31.099830 23576 net.cpp:157] Top shape: 16 256 2 2 (16384)
I0907 13:37:31.099833 23576 net.cpp:165] Memory required for data: 2571313280
I0907 13:37:31.099838 23576 layer_factory.hpp:77] Creating layer conv10_1
I0907 13:37:31.099848 23576 net.cpp:100] Creating Layer conv10_1
I0907 13:37:31.099851 23576 net.cpp:434] conv10_1 <- conv9_2_conv9_2_relu_0_split_0
I0907 13:37:31.099858 23576 net.cpp:408] conv10_1 -> conv10_1
I0907 13:37:31.101604 23576 net.cpp:150] Setting up conv10_1
I0907 13:37:31.101616 23576 net.cpp:157] Top shape: 16 128 2 2 (8192)
I0907 13:37:31.101620 23576 net.cpp:165] Memory required for data: 2571346048
I0907 13:37:31.101627 23576 layer_factory.hpp:77] Creating layer conv10_1_relu
I0907 13:37:31.101646 23576 net.cpp:100] Creating Layer conv10_1_relu
I0907 13:37:31.101651 23576 net.cpp:434] conv10_1_relu <- conv10_1
I0907 13:37:31.101656 23576 net.cpp:395] conv10_1_relu -> conv10_1 (in-place)
I0907 13:37:31.102255 23576 net.cpp:150] Setting up conv10_1_relu
I0907 13:37:31.102267 23576 net.cpp:157] Top shape: 16 128 2 2 (8192)
I0907 13:37:31.102270 23576 net.cpp:165] Memory required for data: 2571378816
I0907 13:37:31.102274 23576 layer_factory.hpp:77] Creating layer conv10_2
I0907 13:37:31.102284 23576 net.cpp:100] Creating Layer conv10_2
I0907 13:37:31.102288 23576 net.cpp:434] conv10_2 <- conv10_1
I0907 13:37:31.102295 23576 net.cpp:408] conv10_2 -> conv10_2
I0907 13:37:31.105216 23576 net.cpp:150] Setting up conv10_2
I0907 13:37:31.105228 23576 net.cpp:157] Top shape: 16 256 1 1 (4096)
I0907 13:37:31.105232 23576 net.cpp:165] Memory required for data: 2571395200
I0907 13:37:31.105237 23576 layer_factory.hpp:77] Creating layer conv10_2_relu
I0907 13:37:31.105242 23576 net.cpp:100] Creating Layer conv10_2_relu
I0907 13:37:31.105243 23576 net.cpp:434] conv10_2_relu <- conv10_2
I0907 13:37:31.105249 23576 net.cpp:395] conv10_2_relu -> conv10_2 (in-place)
I0907 13:37:31.105847 23576 net.cpp:150] Setting up conv10_2_relu
I0907 13:37:31.105859 23576 net.cpp:157] Top shape: 16 256 1 1 (4096)
I0907 13:37:31.105860 23576 net.cpp:165] Memory required for data: 2571411584
I0907 13:37:31.105864 23576 layer_factory.hpp:77] Creating layer conv10_2_conv10_2_relu_0_split
I0907 13:37:31.105870 23576 net.cpp:100] Creating Layer conv10_2_conv10_2_relu_0_split
I0907 13:37:31.105872 23576 net.cpp:434] conv10_2_conv10_2_relu_0_split <- conv10_2
I0907 13:37:31.105876 23576 net.cpp:408] conv10_2_conv10_2_relu_0_split -> conv10_2_conv10_2_relu_0_split_0
I0907 13:37:31.105890 23576 net.cpp:408] conv10_2_conv10_2_relu_0_split -> conv10_2_conv10_2_relu_0_split_1
I0907 13:37:31.105897 23576 net.cpp:408] conv10_2_conv10_2_relu_0_split -> conv10_2_conv10_2_relu_0_split_2
I0907 13:37:31.105958 23576 net.cpp:150] Setting up conv10_2_conv10_2_relu_0_split
I0907 13:37:31.105965 23576 net.cpp:157] Top shape: 16 256 1 1 (4096)
I0907 13:37:31.105969 23576 net.cpp:157] Top shape: 16 256 1 1 (4096)
I0907 13:37:31.105973 23576 net.cpp:157] Top shape: 16 256 1 1 (4096)
I0907 13:37:31.105978 23576 net.cpp:165] Memory required for data: 2571460736
I0907 13:37:31.105980 23576 layer_factory.hpp:77] Creating layer conv5_5/sep_mbox_loc
I0907 13:37:31.105990 23576 net.cpp:100] Creating Layer conv5_5/sep_mbox_loc
I0907 13:37:31.106004 23576 net.cpp:434] conv5_5/sep_mbox_loc <- conv5_5/sep_conv5_5/sep_relu_0_split_1
I0907 13:37:31.106012 23576 net.cpp:408] conv5_5/sep_mbox_loc -> conv5_5/sep_mbox_loc
I0907 13:37:31.108321 23576 net.cpp:150] Setting up conv5_5/sep_mbox_loc
I0907 13:37:31.108333 23576 net.cpp:157] Top shape: 16 12 19 19 (69312)
I0907 13:37:31.108335 23576 net.cpp:165] Memory required for data: 2571737984
I0907 13:37:31.108340 23576 layer_factory.hpp:77] Creating layer conv5_5/sep_mbox_loc_perm
I0907 13:37:31.108350 23576 net.cpp:100] Creating Layer conv5_5/sep_mbox_loc_perm
I0907 13:37:31.108352 23576 net.cpp:434] conv5_5/sep_mbox_loc_perm <- conv5_5/sep_mbox_loc
I0907 13:37:31.108356 23576 net.cpp:408] conv5_5/sep_mbox_loc_perm -> conv5_5/sep_mbox_loc_perm
I0907 13:37:31.108469 23576 net.cpp:150] Setting up conv5_5/sep_mbox_loc_perm
I0907 13:37:31.108475 23576 net.cpp:157] Top shape: 16 19 19 12 (69312)
I0907 13:37:31.108479 23576 net.cpp:165] Memory required for data: 2572015232
I0907 13:37:31.108482 23576 layer_factory.hpp:77] Creating layer conv5_5/sep_mbox_loc_flat
I0907 13:37:31.108491 23576 net.cpp:100] Creating Layer conv5_5/sep_mbox_loc_flat
I0907 13:37:31.108496 23576 net.cpp:434] conv5_5/sep_mbox_loc_flat <- conv5_5/sep_mbox_loc_perm
I0907 13:37:31.108501 23576 net.cpp:408] conv5_5/sep_mbox_loc_flat -> conv5_5/sep_mbox_loc_flat
I0907 13:37:31.108531 23576 net.cpp:150] Setting up conv5_5/sep_mbox_loc_flat
I0907 13:37:31.108536 23576 net.cpp:157] Top shape: 16 4332 (69312)
I0907 13:37:31.108539 23576 net.cpp:165] Memory required for data: 2572292480
I0907 13:37:31.108543 23576 layer_factory.hpp:77] Creating layer conv5_5/sep_mbox_conf
I0907 13:37:31.108552 23576 net.cpp:100] Creating Layer conv5_5/sep_mbox_conf
I0907 13:37:31.108556 23576 net.cpp:434] conv5_5/sep_mbox_conf <- conv5_5/sep_conv5_5/sep_relu_0_split_2
I0907 13:37:31.108563 23576 net.cpp:408] conv5_5/sep_mbox_conf -> conv5_5/sep_mbox_conf
I0907 13:37:31.111280 23576 net.cpp:150] Setting up conv5_5/sep_mbox_conf
I0907 13:37:31.111292 23576 net.cpp:157] Top shape: 16 12 19 19 (69312)
I0907 13:37:31.111296 23576 net.cpp:165] Memory required for data: 2572569728
I0907 13:37:31.111304 23576 layer_factory.hpp:77] Creating layer conv5_5/sep_mbox_conf_perm
I0907 13:37:31.111310 23576 net.cpp:100] Creating Layer conv5_5/sep_mbox_conf_perm
I0907 13:37:31.111315 23576 net.cpp:434] conv5_5/sep_mbox_conf_perm <- conv5_5/sep_mbox_conf
I0907 13:37:31.111320 23576 net.cpp:408] conv5_5/sep_mbox_conf_perm -> conv5_5/sep_mbox_conf_perm
I0907 13:37:31.111431 23576 net.cpp:150] Setting up conv5_5/sep_mbox_conf_perm
I0907 13:37:31.111438 23576 net.cpp:157] Top shape: 16 19 19 12 (69312)
I0907 13:37:31.111441 23576 net.cpp:165] Memory required for data: 2572846976
I0907 13:37:31.111444 23576 layer_factory.hpp:77] Creating layer conv5_5/sep_mbox_conf_flat
I0907 13:37:31.111449 23576 net.cpp:100] Creating Layer conv5_5/sep_mbox_conf_flat
I0907 13:37:31.111454 23576 net.cpp:434] conv5_5/sep_mbox_conf_flat <- conv5_5/sep_mbox_conf_perm
I0907 13:37:31.111460 23576 net.cpp:408] conv5_5/sep_mbox_conf_flat -> conv5_5/sep_mbox_conf_flat
I0907 13:37:31.111488 23576 net.cpp:150] Setting up conv5_5/sep_mbox_conf_flat
I0907 13:37:31.111495 23576 net.cpp:157] Top shape: 16 4332 (69312)
I0907 13:37:31.111497 23576 net.cpp:165] Memory required for data: 2573124224
I0907 13:37:31.111500 23576 layer_factory.hpp:77] Creating layer conv5_5/sep_mbox_priorbox
I0907 13:37:31.111506 23576 net.cpp:100] Creating Layer conv5_5/sep_mbox_priorbox
I0907 13:37:31.111511 23576 net.cpp:434] conv5_5/sep_mbox_priorbox <- conv5_5/sep_conv5_5/sep_relu_0_split_3
I0907 13:37:31.111517 23576 net.cpp:434] conv5_5/sep_mbox_priorbox <- data_data_0_split_1
I0907 13:37:31.111522 23576 net.cpp:408] conv5_5/sep_mbox_priorbox -> conv5_5/sep_mbox_priorbox
I0907 13:37:31.111554 23576 net.cpp:150] Setting up conv5_5/sep_mbox_priorbox
I0907 13:37:31.111560 23576 net.cpp:157] Top shape: 1 2 4332 (8664)
I0907 13:37:31.111563 23576 net.cpp:165] Memory required for data: 2573158880
I0907 13:37:31.111567 23576 layer_factory.hpp:77] Creating layer conv6/sep_mbox_loc
I0907 13:37:31.111587 23576 net.cpp:100] Creating Layer conv6/sep_mbox_loc
I0907 13:37:31.111590 23576 net.cpp:434] conv6/sep_mbox_loc <- conv6/sep_conv6/sep_relu_0_split_1
I0907 13:37:31.111598 23576 net.cpp:408] conv6/sep_mbox_loc -> conv6/sep_mbox_loc
I0907 13:37:31.114583 23576 net.cpp:150] Setting up conv6/sep_mbox_loc
I0907 13:37:31.114594 23576 net.cpp:157] Top shape: 16 24 10 10 (38400)
I0907 13:37:31.114598 23576 net.cpp:165] Memory required for data: 2573312480
I0907 13:37:31.114605 23576 layer_factory.hpp:77] Creating layer conv6/sep_mbox_loc_perm
I0907 13:37:31.114611 23576 net.cpp:100] Creating Layer conv6/sep_mbox_loc_perm
I0907 13:37:31.114615 23576 net.cpp:434] conv6/sep_mbox_loc_perm <- conv6/sep_mbox_loc
I0907 13:37:31.114622 23576 net.cpp:408] conv6/sep_mbox_loc_perm -> conv6/sep_mbox_loc_perm
I0907 13:37:31.114735 23576 net.cpp:150] Setting up conv6/sep_mbox_loc_perm
I0907 13:37:31.114742 23576 net.cpp:157] Top shape: 16 10 10 24 (38400)
I0907 13:37:31.114747 23576 net.cpp:165] Memory required for data: 2573466080
I0907 13:37:31.114749 23576 layer_factory.hpp:77] Creating layer conv6/sep_mbox_loc_flat
I0907 13:37:31.114755 23576 net.cpp:100] Creating Layer conv6/sep_mbox_loc_flat
I0907 13:37:31.114759 23576 net.cpp:434] conv6/sep_mbox_loc_flat <- conv6/sep_mbox_loc_perm
I0907 13:37:31.114765 23576 net.cpp:408] conv6/sep_mbox_loc_flat -> conv6/sep_mbox_loc_flat
I0907 13:37:31.114794 23576 net.cpp:150] Setting up conv6/sep_mbox_loc_flat
I0907 13:37:31.114799 23576 net.cpp:157] Top shape: 16 2400 (38400)
I0907 13:37:31.114802 23576 net.cpp:165] Memory required for data: 2573619680
I0907 13:37:31.114806 23576 layer_factory.hpp:77] Creating layer conv6/sep_mbox_conf
I0907 13:37:31.114815 23576 net.cpp:100] Creating Layer conv6/sep_mbox_conf
I0907 13:37:31.114819 23576 net.cpp:434] conv6/sep_mbox_conf <- conv6/sep_conv6/sep_relu_0_split_2
I0907 13:37:31.114825 23576 net.cpp:408] conv6/sep_mbox_conf -> conv6/sep_mbox_conf
I0907 13:37:31.118253 23576 net.cpp:150] Setting up conv6/sep_mbox_conf
I0907 13:37:31.118265 23576 net.cpp:157] Top shape: 16 24 10 10 (38400)
I0907 13:37:31.118269 23576 net.cpp:165] Memory required for data: 2573773280
I0907 13:37:31.118276 23576 layer_factory.hpp:77] Creating layer conv6/sep_mbox_conf_perm
I0907 13:37:31.118283 23576 net.cpp:100] Creating Layer conv6/sep_mbox_conf_perm
I0907 13:37:31.118288 23576 net.cpp:434] conv6/sep_mbox_conf_perm <- conv6/sep_mbox_conf
I0907 13:37:31.118294 23576 net.cpp:408] conv6/sep_mbox_conf_perm -> conv6/sep_mbox_conf_perm
I0907 13:37:31.118415 23576 net.cpp:150] Setting up conv6/sep_mbox_conf_perm
I0907 13:37:31.118422 23576 net.cpp:157] Top shape: 16 10 10 24 (38400)
I0907 13:37:31.118425 23576 net.cpp:165] Memory required for data: 2573926880
I0907 13:37:31.118428 23576 layer_factory.hpp:77] Creating layer conv6/sep_mbox_conf_flat
I0907 13:37:31.118434 23576 net.cpp:100] Creating Layer conv6/sep_mbox_conf_flat
I0907 13:37:31.118438 23576 net.cpp:434] conv6/sep_mbox_conf_flat <- conv6/sep_mbox_conf_perm
I0907 13:37:31.118445 23576 net.cpp:408] conv6/sep_mbox_conf_flat -> conv6/sep_mbox_conf_flat
I0907 13:37:31.118474 23576 net.cpp:150] Setting up conv6/sep_mbox_conf_flat
I0907 13:37:31.118480 23576 net.cpp:157] Top shape: 16 2400 (38400)
I0907 13:37:31.118484 23576 net.cpp:165] Memory required for data: 2574080480
I0907 13:37:31.118486 23576 layer_factory.hpp:77] Creating layer conv6/sep_mbox_priorbox
I0907 13:37:31.118494 23576 net.cpp:100] Creating Layer conv6/sep_mbox_priorbox
I0907 13:37:31.118499 23576 net.cpp:434] conv6/sep_mbox_priorbox <- conv6/sep_conv6/sep_relu_0_split_3
I0907 13:37:31.118504 23576 net.cpp:434] conv6/sep_mbox_priorbox <- data_data_0_split_2
I0907 13:37:31.118510 23576 net.cpp:408] conv6/sep_mbox_priorbox -> conv6/sep_mbox_priorbox
I0907 13:37:31.118538 23576 net.cpp:150] Setting up conv6/sep_mbox_priorbox
I0907 13:37:31.118544 23576 net.cpp:157] Top shape: 1 2 2400 (4800)
I0907 13:37:31.118547 23576 net.cpp:165] Memory required for data: 2574099680
I0907 13:37:31.118561 23576 layer_factory.hpp:77] Creating layer conv7_2_mbox_loc
I0907 13:37:31.118569 23576 net.cpp:100] Creating Layer conv7_2_mbox_loc
I0907 13:37:31.118573 23576 net.cpp:434] conv7_2_mbox_loc <- conv7_2_conv7_2_relu_0_split_1
I0907 13:37:31.118580 23576 net.cpp:408] conv7_2_mbox_loc -> conv7_2_mbox_loc
I0907 13:37:31.121150 23576 net.cpp:150] Setting up conv7_2_mbox_loc
I0907 13:37:31.121161 23576 net.cpp:157] Top shape: 16 24 5 5 (9600)
I0907 13:37:31.121165 23576 net.cpp:165] Memory required for data: 2574138080
I0907 13:37:31.121172 23576 layer_factory.hpp:77] Creating layer conv7_2_mbox_loc_perm
I0907 13:37:31.121178 23576 net.cpp:100] Creating Layer conv7_2_mbox_loc_perm
I0907 13:37:31.121182 23576 net.cpp:434] conv7_2_mbox_loc_perm <- conv7_2_mbox_loc
I0907 13:37:31.121189 23576 net.cpp:408] conv7_2_mbox_loc_perm -> conv7_2_mbox_loc_perm
I0907 13:37:31.121301 23576 net.cpp:150] Setting up conv7_2_mbox_loc_perm
I0907 13:37:31.121307 23576 net.cpp:157] Top shape: 16 5 5 24 (9600)
I0907 13:37:31.121311 23576 net.cpp:165] Memory required for data: 2574176480
I0907 13:37:31.121315 23576 layer_factory.hpp:77] Creating layer conv7_2_mbox_loc_flat
I0907 13:37:31.121320 23576 net.cpp:100] Creating Layer conv7_2_mbox_loc_flat
I0907 13:37:31.121325 23576 net.cpp:434] conv7_2_mbox_loc_flat <- conv7_2_mbox_loc_perm
I0907 13:37:31.121330 23576 net.cpp:408] conv7_2_mbox_loc_flat -> conv7_2_mbox_loc_flat
I0907 13:37:31.121358 23576 net.cpp:150] Setting up conv7_2_mbox_loc_flat
I0907 13:37:31.121363 23576 net.cpp:157] Top shape: 16 600 (9600)
I0907 13:37:31.121366 23576 net.cpp:165] Memory required for data: 2574214880
I0907 13:37:31.121371 23576 layer_factory.hpp:77] Creating layer conv7_2_mbox_conf
I0907 13:37:31.121379 23576 net.cpp:100] Creating Layer conv7_2_mbox_conf
I0907 13:37:31.121383 23576 net.cpp:434] conv7_2_mbox_conf <- conv7_2_conv7_2_relu_0_split_2
I0907 13:37:31.121390 23576 net.cpp:408] conv7_2_mbox_conf -> conv7_2_mbox_conf
I0907 13:37:31.124366 23576 net.cpp:150] Setting up conv7_2_mbox_conf
I0907 13:37:31.124378 23576 net.cpp:157] Top shape: 16 24 5 5 (9600)
I0907 13:37:31.124382 23576 net.cpp:165] Memory required for data: 2574253280
I0907 13:37:31.124389 23576 layer_factory.hpp:77] Creating layer conv7_2_mbox_conf_perm
I0907 13:37:31.124395 23576 net.cpp:100] Creating Layer conv7_2_mbox_conf_perm
I0907 13:37:31.124400 23576 net.cpp:434] conv7_2_mbox_conf_perm <- conv7_2_mbox_conf
I0907 13:37:31.124408 23576 net.cpp:408] conv7_2_mbox_conf_perm -> conv7_2_mbox_conf_perm
I0907 13:37:31.124519 23576 net.cpp:150] Setting up conv7_2_mbox_conf_perm
I0907 13:37:31.124526 23576 net.cpp:157] Top shape: 16 5 5 24 (9600)
I0907 13:37:31.124529 23576 net.cpp:165] Memory required for data: 2574291680
I0907 13:37:31.124533 23576 layer_factory.hpp:77] Creating layer conv7_2_mbox_conf_flat
I0907 13:37:31.124539 23576 net.cpp:100] Creating Layer conv7_2_mbox_conf_flat
I0907 13:37:31.124543 23576 net.cpp:434] conv7_2_mbox_conf_flat <- conv7_2_mbox_conf_perm
I0907 13:37:31.124549 23576 net.cpp:408] conv7_2_mbox_conf_flat -> conv7_2_mbox_conf_flat
I0907 13:37:31.124577 23576 net.cpp:150] Setting up conv7_2_mbox_conf_flat
I0907 13:37:31.124583 23576 net.cpp:157] Top shape: 16 600 (9600)
I0907 13:37:31.124586 23576 net.cpp:165] Memory required for data: 2574330080
I0907 13:37:31.124589 23576 layer_factory.hpp:77] Creating layer conv7_2_mbox_priorbox
I0907 13:37:31.124596 23576 net.cpp:100] Creating Layer conv7_2_mbox_priorbox
I0907 13:37:31.124600 23576 net.cpp:434] conv7_2_mbox_priorbox <- conv7_2_conv7_2_relu_0_split_3
I0907 13:37:31.124605 23576 net.cpp:434] conv7_2_mbox_priorbox <- data_data_0_split_3
I0907 13:37:31.124611 23576 net.cpp:408] conv7_2_mbox_priorbox -> conv7_2_mbox_priorbox
I0907 13:37:31.124641 23576 net.cpp:150] Setting up conv7_2_mbox_priorbox
I0907 13:37:31.124647 23576 net.cpp:157] Top shape: 1 2 600 (1200)
I0907 13:37:31.124650 23576 net.cpp:165] Memory required for data: 2574334880
I0907 13:37:31.124653 23576 layer_factory.hpp:77] Creating layer conv8_2_mbox_loc
I0907 13:37:31.124662 23576 net.cpp:100] Creating Layer conv8_2_mbox_loc
I0907 13:37:31.124678 23576 net.cpp:434] conv8_2_mbox_loc <- conv8_2_conv8_2_relu_0_split_1
I0907 13:37:31.124689 23576 net.cpp:408] conv8_2_mbox_loc -> conv8_2_mbox_loc
I0907 13:37:31.127014 23576 net.cpp:150] Setting up conv8_2_mbox_loc
I0907 13:37:31.127027 23576 net.cpp:157] Top shape: 16 24 3 3 (3456)
I0907 13:37:31.127030 23576 net.cpp:165] Memory required for data: 2574348704
I0907 13:37:31.127038 23576 layer_factory.hpp:77] Creating layer conv8_2_mbox_loc_perm
I0907 13:37:31.127043 23576 net.cpp:100] Creating Layer conv8_2_mbox_loc_perm
I0907 13:37:31.127048 23576 net.cpp:434] conv8_2_mbox_loc_perm <- conv8_2_mbox_loc
I0907 13:37:31.127054 23576 net.cpp:408] conv8_2_mbox_loc_perm -> conv8_2_mbox_loc_perm
I0907 13:37:31.127166 23576 net.cpp:150] Setting up conv8_2_mbox_loc_perm
I0907 13:37:31.127171 23576 net.cpp:157] Top shape: 16 3 3 24 (3456)
I0907 13:37:31.127176 23576 net.cpp:165] Memory required for data: 2574362528
I0907 13:37:31.127179 23576 layer_factory.hpp:77] Creating layer conv8_2_mbox_loc_flat
I0907 13:37:31.127184 23576 net.cpp:100] Creating Layer conv8_2_mbox_loc_flat
I0907 13:37:31.127188 23576 net.cpp:434] conv8_2_mbox_loc_flat <- conv8_2_mbox_loc_perm
I0907 13:37:31.127194 23576 net.cpp:408] conv8_2_mbox_loc_flat -> conv8_2_mbox_loc_flat
I0907 13:37:31.127221 23576 net.cpp:150] Setting up conv8_2_mbox_loc_flat
I0907 13:37:31.127228 23576 net.cpp:157] Top shape: 16 216 (3456)
I0907 13:37:31.127230 23576 net.cpp:165] Memory required for data: 2574376352
I0907 13:37:31.127234 23576 layer_factory.hpp:77] Creating layer conv8_2_mbox_conf
I0907 13:37:31.127244 23576 net.cpp:100] Creating Layer conv8_2_mbox_conf
I0907 13:37:31.127249 23576 net.cpp:434] conv8_2_mbox_conf <- conv8_2_conv8_2_relu_0_split_2
I0907 13:37:31.127255 23576 net.cpp:408] conv8_2_mbox_conf -> conv8_2_mbox_conf
I0907 13:37:31.129560 23576 net.cpp:150] Setting up conv8_2_mbox_conf
I0907 13:37:31.129573 23576 net.cpp:157] Top shape: 16 24 3 3 (3456)
I0907 13:37:31.129576 23576 net.cpp:165] Memory required for data: 2574390176
I0907 13:37:31.129583 23576 layer_factory.hpp:77] Creating layer conv8_2_mbox_conf_perm
I0907 13:37:31.129590 23576 net.cpp:100] Creating Layer conv8_2_mbox_conf_perm
I0907 13:37:31.129593 23576 net.cpp:434] conv8_2_mbox_conf_perm <- conv8_2_mbox_conf
I0907 13:37:31.129601 23576 net.cpp:408] conv8_2_mbox_conf_perm -> conv8_2_mbox_conf_perm
I0907 13:37:31.129712 23576 net.cpp:150] Setting up conv8_2_mbox_conf_perm
I0907 13:37:31.129719 23576 net.cpp:157] Top shape: 16 3 3 24 (3456)
I0907 13:37:31.129722 23576 net.cpp:165] Memory required for data: 2574404000
I0907 13:37:31.129726 23576 layer_factory.hpp:77] Creating layer conv8_2_mbox_conf_flat
I0907 13:37:31.129732 23576 net.cpp:100] Creating Layer conv8_2_mbox_conf_flat
I0907 13:37:31.129736 23576 net.cpp:434] conv8_2_mbox_conf_flat <- conv8_2_mbox_conf_perm
I0907 13:37:31.129743 23576 net.cpp:408] conv8_2_mbox_conf_flat -> conv8_2_mbox_conf_flat
I0907 13:37:31.129770 23576 net.cpp:150] Setting up conv8_2_mbox_conf_flat
I0907 13:37:31.129776 23576 net.cpp:157] Top shape: 16 216 (3456)
I0907 13:37:31.129778 23576 net.cpp:165] Memory required for data: 2574417824
I0907 13:37:31.129782 23576 layer_factory.hpp:77] Creating layer conv8_2_mbox_priorbox
I0907 13:37:31.129789 23576 net.cpp:100] Creating Layer conv8_2_mbox_priorbox
I0907 13:37:31.129793 23576 net.cpp:434] conv8_2_mbox_priorbox <- conv8_2_conv8_2_relu_0_split_3
I0907 13:37:31.129798 23576 net.cpp:434] conv8_2_mbox_priorbox <- data_data_0_split_4
I0907 13:37:31.129806 23576 net.cpp:408] conv8_2_mbox_priorbox -> conv8_2_mbox_priorbox
I0907 13:37:31.129832 23576 net.cpp:150] Setting up conv8_2_mbox_priorbox
I0907 13:37:31.129838 23576 net.cpp:157] Top shape: 1 2 216 (432)
I0907 13:37:31.129842 23576 net.cpp:165] Memory required for data: 2574419552
I0907 13:37:31.129845 23576 layer_factory.hpp:77] Creating layer conv9_2_mbox_loc
I0907 13:37:31.129855 23576 net.cpp:100] Creating Layer conv9_2_mbox_loc
I0907 13:37:31.129859 23576 net.cpp:434] conv9_2_mbox_loc <- conv9_2_conv9_2_relu_0_split_1
I0907 13:37:31.129875 23576 net.cpp:408] conv9_2_mbox_loc -> conv9_2_mbox_loc
I0907 13:37:31.132191 23576 net.cpp:150] Setting up conv9_2_mbox_loc
I0907 13:37:31.132205 23576 net.cpp:157] Top shape: 16 24 2 2 (1536)
I0907 13:37:31.132208 23576 net.cpp:165] Memory required for data: 2574425696
I0907 13:37:31.132215 23576 layer_factory.hpp:77] Creating layer conv9_2_mbox_loc_perm
I0907 13:37:31.132221 23576 net.cpp:100] Creating Layer conv9_2_mbox_loc_perm
I0907 13:37:31.132225 23576 net.cpp:434] conv9_2_mbox_loc_perm <- conv9_2_mbox_loc
I0907 13:37:31.132232 23576 net.cpp:408] conv9_2_mbox_loc_perm -> conv9_2_mbox_loc_perm
I0907 13:37:31.132347 23576 net.cpp:150] Setting up conv9_2_mbox_loc_perm
I0907 13:37:31.132354 23576 net.cpp:157] Top shape: 16 2 2 24 (1536)
I0907 13:37:31.132359 23576 net.cpp:165] Memory required for data: 2574431840
I0907 13:37:31.132361 23576 layer_factory.hpp:77] Creating layer conv9_2_mbox_loc_flat
I0907 13:37:31.132367 23576 net.cpp:100] Creating Layer conv9_2_mbox_loc_flat
I0907 13:37:31.132371 23576 net.cpp:434] conv9_2_mbox_loc_flat <- conv9_2_mbox_loc_perm
I0907 13:37:31.132377 23576 net.cpp:408] conv9_2_mbox_loc_flat -> conv9_2_mbox_loc_flat
I0907 13:37:31.132405 23576 net.cpp:150] Setting up conv9_2_mbox_loc_flat
I0907 13:37:31.132411 23576 net.cpp:157] Top shape: 16 96 (1536)
I0907 13:37:31.132414 23576 net.cpp:165] Memory required for data: 2574437984
I0907 13:37:31.132417 23576 layer_factory.hpp:77] Creating layer conv9_2_mbox_conf
I0907 13:37:31.132427 23576 net.cpp:100] Creating Layer conv9_2_mbox_conf
I0907 13:37:31.132431 23576 net.cpp:434] conv9_2_mbox_conf <- conv9_2_conv9_2_relu_0_split_2
I0907 13:37:31.132438 23576 net.cpp:408] conv9_2_mbox_conf -> conv9_2_mbox_conf
I0907 13:37:31.135161 23576 net.cpp:150] Setting up conv9_2_mbox_conf
I0907 13:37:31.135176 23576 net.cpp:157] Top shape: 16 24 2 2 (1536)
I0907 13:37:31.135180 23576 net.cpp:165] Memory required for data: 2574444128
I0907 13:37:31.135188 23576 layer_factory.hpp:77] Creating layer conv9_2_mbox_conf_perm
I0907 13:37:31.135195 23576 net.cpp:100] Creating Layer conv9_2_mbox_conf_perm
I0907 13:37:31.135200 23576 net.cpp:434] conv9_2_mbox_conf_perm <- conv9_2_mbox_conf
I0907 13:37:31.135205 23576 net.cpp:408] conv9_2_mbox_conf_perm -> conv9_2_mbox_conf_perm
I0907 13:37:31.135318 23576 net.cpp:150] Setting up conv9_2_mbox_conf_perm
I0907 13:37:31.135326 23576 net.cpp:157] Top shape: 16 2 2 24 (1536)
I0907 13:37:31.135329 23576 net.cpp:165] Memory required for data: 2574450272
I0907 13:37:31.135332 23576 layer_factory.hpp:77] Creating layer conv9_2_mbox_conf_flat
I0907 13:37:31.135337 23576 net.cpp:100] Creating Layer conv9_2_mbox_conf_flat
I0907 13:37:31.135342 23576 net.cpp:434] conv9_2_mbox_conf_flat <- conv9_2_mbox_conf_perm
I0907 13:37:31.135349 23576 net.cpp:408] conv9_2_mbox_conf_flat -> conv9_2_mbox_conf_flat
I0907 13:37:31.135376 23576 net.cpp:150] Setting up conv9_2_mbox_conf_flat
I0907 13:37:31.135383 23576 net.cpp:157] Top shape: 16 96 (1536)
I0907 13:37:31.135386 23576 net.cpp:165] Memory required for data: 2574456416
I0907 13:37:31.135390 23576 layer_factory.hpp:77] Creating layer conv9_2_mbox_priorbox
I0907 13:37:31.135396 23576 net.cpp:100] Creating Layer conv9_2_mbox_priorbox
I0907 13:37:31.135401 23576 net.cpp:434] conv9_2_mbox_priorbox <- conv9_2_conv9_2_relu_0_split_3
I0907 13:37:31.135406 23576 net.cpp:434] conv9_2_mbox_priorbox <- data_data_0_split_5
I0907 13:37:31.135411 23576 net.cpp:408] conv9_2_mbox_priorbox -> conv9_2_mbox_priorbox
I0907 13:37:31.135442 23576 net.cpp:150] Setting up conv9_2_mbox_priorbox
I0907 13:37:31.135448 23576 net.cpp:157] Top shape: 1 2 96 (192)
I0907 13:37:31.135452 23576 net.cpp:165] Memory required for data: 2574457184
I0907 13:37:31.135457 23576 layer_factory.hpp:77] Creating layer conv10_2_mbox_loc
I0907 13:37:31.135465 23576 net.cpp:100] Creating Layer conv10_2_mbox_loc
I0907 13:37:31.135469 23576 net.cpp:434] conv10_2_mbox_loc <- conv10_2_conv10_2_relu_0_split_0
I0907 13:37:31.135475 23576 net.cpp:408] conv10_2_mbox_loc -> conv10_2_mbox_loc
I0907 13:37:31.137876 23576 net.cpp:150] Setting up conv10_2_mbox_loc
I0907 13:37:31.137887 23576 net.cpp:157] Top shape: 16 24 1 1 (384)
I0907 13:37:31.137892 23576 net.cpp:165] Memory required for data: 2574458720
I0907 13:37:31.137897 23576 layer_factory.hpp:77] Creating layer conv10_2_mbox_loc_perm
I0907 13:37:31.137930 23576 net.cpp:100] Creating Layer conv10_2_mbox_loc_perm
I0907 13:37:31.137934 23576 net.cpp:434] conv10_2_mbox_loc_perm <- conv10_2_mbox_loc
I0907 13:37:31.137941 23576 net.cpp:408] conv10_2_mbox_loc_perm -> conv10_2_mbox_loc_perm
I0907 13:37:31.138056 23576 net.cpp:150] Setting up conv10_2_mbox_loc_perm
I0907 13:37:31.138062 23576 net.cpp:157] Top shape: 16 1 1 24 (384)
I0907 13:37:31.138063 23576 net.cpp:165] Memory required for data: 2574460256
I0907 13:37:31.138067 23576 layer_factory.hpp:77] Creating layer conv10_2_mbox_loc_flat
I0907 13:37:31.138074 23576 net.cpp:100] Creating Layer conv10_2_mbox_loc_flat
I0907 13:37:31.138078 23576 net.cpp:434] conv10_2_mbox_loc_flat <- conv10_2_mbox_loc_perm
I0907 13:37:31.138083 23576 net.cpp:408] conv10_2_mbox_loc_flat -> conv10_2_mbox_loc_flat
I0907 13:37:31.138111 23576 net.cpp:150] Setting up conv10_2_mbox_loc_flat
I0907 13:37:31.138116 23576 net.cpp:157] Top shape: 16 24 (384)
I0907 13:37:31.138120 23576 net.cpp:165] Memory required for data: 2574461792
I0907 13:37:31.138123 23576 layer_factory.hpp:77] Creating layer conv10_2_mbox_conf
I0907 13:37:31.138133 23576 net.cpp:100] Creating Layer conv10_2_mbox_conf
I0907 13:37:31.138136 23576 net.cpp:434] conv10_2_mbox_conf <- conv10_2_conv10_2_relu_0_split_1
I0907 13:37:31.138142 23576 net.cpp:408] conv10_2_mbox_conf -> conv10_2_mbox_conf
I0907 13:37:31.140506 23576 net.cpp:150] Setting up conv10_2_mbox_conf
I0907 13:37:31.140517 23576 net.cpp:157] Top shape: 16 24 1 1 (384)
I0907 13:37:31.140522 23576 net.cpp:165] Memory required for data: 2574463328
I0907 13:37:31.140527 23576 layer_factory.hpp:77] Creating layer conv10_2_mbox_conf_perm
I0907 13:37:31.140535 23576 net.cpp:100] Creating Layer conv10_2_mbox_conf_perm
I0907 13:37:31.140540 23576 net.cpp:434] conv10_2_mbox_conf_perm <- conv10_2_mbox_conf
I0907 13:37:31.140545 23576 net.cpp:408] conv10_2_mbox_conf_perm -> conv10_2_mbox_conf_perm
I0907 13:37:31.140661 23576 net.cpp:150] Setting up conv10_2_mbox_conf_perm
I0907 13:37:31.140666 23576 net.cpp:157] Top shape: 16 1 1 24 (384)
I0907 13:37:31.140669 23576 net.cpp:165] Memory required for data: 2574464864
I0907 13:37:31.140673 23576 layer_factory.hpp:77] Creating layer conv10_2_mbox_conf_flat
I0907 13:37:31.140679 23576 net.cpp:100] Creating Layer conv10_2_mbox_conf_flat
I0907 13:37:31.140683 23576 net.cpp:434] conv10_2_mbox_conf_flat <- conv10_2_mbox_conf_perm
I0907 13:37:31.140688 23576 net.cpp:408] conv10_2_mbox_conf_flat -> conv10_2_mbox_conf_flat
I0907 13:37:31.140717 23576 net.cpp:150] Setting up conv10_2_mbox_conf_flat
I0907 13:37:31.140723 23576 net.cpp:157] Top shape: 16 24 (384)
I0907 13:37:31.140727 23576 net.cpp:165] Memory required for data: 2574466400
I0907 13:37:31.140729 23576 layer_factory.hpp:77] Creating layer conv10_2_mbox_priorbox
I0907 13:37:31.140736 23576 net.cpp:100] Creating Layer conv10_2_mbox_priorbox
I0907 13:37:31.140740 23576 net.cpp:434] conv10_2_mbox_priorbox <- conv10_2_conv10_2_relu_0_split_2
I0907 13:37:31.140745 23576 net.cpp:434] conv10_2_mbox_priorbox <- data_data_0_split_6
I0907 13:37:31.140751 23576 net.cpp:408] conv10_2_mbox_priorbox -> conv10_2_mbox_priorbox
I0907 13:37:31.140782 23576 net.cpp:150] Setting up conv10_2_mbox_priorbox
I0907 13:37:31.140787 23576 net.cpp:157] Top shape: 1 2 24 (48)
I0907 13:37:31.140791 23576 net.cpp:165] Memory required for data: 2574466592
I0907 13:37:31.140794 23576 layer_factory.hpp:77] Creating layer mbox_loc
I0907 13:37:31.140803 23576 net.cpp:100] Creating Layer mbox_loc
I0907 13:37:31.140807 23576 net.cpp:434] mbox_loc <- conv5_5/sep_mbox_loc_flat
I0907 13:37:31.140812 23576 net.cpp:434] mbox_loc <- conv6/sep_mbox_loc_flat
I0907 13:37:31.140816 23576 net.cpp:434] mbox_loc <- conv7_2_mbox_loc_flat
I0907 13:37:31.140821 23576 net.cpp:434] mbox_loc <- conv8_2_mbox_loc_flat
I0907 13:37:31.140835 23576 net.cpp:434] mbox_loc <- conv9_2_mbox_loc_flat
I0907 13:37:31.140839 23576 net.cpp:434] mbox_loc <- conv10_2_mbox_loc_flat
I0907 13:37:31.140846 23576 net.cpp:408] mbox_loc -> mbox_loc
I0907 13:37:31.140882 23576 net.cpp:150] Setting up mbox_loc
I0907 13:37:31.140887 23576 net.cpp:157] Top shape: 16 7668 (122688)
I0907 13:37:31.140892 23576 net.cpp:165] Memory required for data: 2574957344
I0907 13:37:31.140894 23576 layer_factory.hpp:77] Creating layer mbox_conf
I0907 13:37:31.140902 23576 net.cpp:100] Creating Layer mbox_conf
I0907 13:37:31.140905 23576 net.cpp:434] mbox_conf <- conv5_5/sep_mbox_conf_flat
I0907 13:37:31.140910 23576 net.cpp:434] mbox_conf <- conv6/sep_mbox_conf_flat
I0907 13:37:31.140914 23576 net.cpp:434] mbox_conf <- conv7_2_mbox_conf_flat
I0907 13:37:31.140918 23576 net.cpp:434] mbox_conf <- conv8_2_mbox_conf_flat
I0907 13:37:31.140923 23576 net.cpp:434] mbox_conf <- conv9_2_mbox_conf_flat
I0907 13:37:31.140928 23576 net.cpp:434] mbox_conf <- conv10_2_mbox_conf_flat
I0907 13:37:31.140933 23576 net.cpp:408] mbox_conf -> mbox_conf
I0907 13:37:31.140962 23576 net.cpp:150] Setting up mbox_conf
I0907 13:37:31.140969 23576 net.cpp:157] Top shape: 16 7668 (122688)
I0907 13:37:31.140971 23576 net.cpp:165] Memory required for data: 2575448096
I0907 13:37:31.140975 23576 layer_factory.hpp:77] Creating layer mbox_priorbox
I0907 13:37:31.140980 23576 net.cpp:100] Creating Layer mbox_priorbox
I0907 13:37:31.140985 23576 net.cpp:434] mbox_priorbox <- conv5_5/sep_mbox_priorbox
I0907 13:37:31.140990 23576 net.cpp:434] mbox_priorbox <- conv6/sep_mbox_priorbox
I0907 13:37:31.140993 23576 net.cpp:434] mbox_priorbox <- conv7_2_mbox_priorbox
I0907 13:37:31.140997 23576 net.cpp:434] mbox_priorbox <- conv8_2_mbox_priorbox
I0907 13:37:31.141001 23576 net.cpp:434] mbox_priorbox <- conv9_2_mbox_priorbox
I0907 13:37:31.141005 23576 net.cpp:434] mbox_priorbox <- conv10_2_mbox_priorbox
I0907 13:37:31.141010 23576 net.cpp:408] mbox_priorbox -> mbox_priorbox
I0907 13:37:31.141037 23576 net.cpp:150] Setting up mbox_priorbox
I0907 13:37:31.141043 23576 net.cpp:157] Top shape: 1 2 7668 (15336)
I0907 13:37:31.141047 23576 net.cpp:165] Memory required for data: 2575509440
I0907 13:37:31.141049 23576 layer_factory.hpp:77] Creating layer mbox_loss
I0907 13:37:31.141062 23576 net.cpp:100] Creating Layer mbox_loss
I0907 13:37:31.141065 23576 net.cpp:434] mbox_loss <- mbox_loc
I0907 13:37:31.141070 23576 net.cpp:434] mbox_loss <- mbox_conf
I0907 13:37:31.141074 23576 net.cpp:434] mbox_loss <- mbox_priorbox
…
layer {
  name: "data"
  type: "AnnotatedData"
  top: "data"
  top: "label"
  include {
    phase: TEST
  }
  transform_param {
    mean_value: 104
    mean_value: 117
    mean_value: 123
    resize_param {
      prob: 1
      resize_mode: WARP
      height: 300
      width: 300
      interp_mode: LINEAR
    }
  }
  data_param {
    source: "data/BodyFaceHandRegions/lmdb/oxford_test_lmdb"
    batch_size: 8
    backend: LMDB
  }
  annotated_data_param {
    batch_sampler {
    }
    label_map_file: "data/BodyFaceHandRegions/labelmap_voc.prototxt"
  }
}
layer {
  name: "conv1"
  type: "Convolution"
  bottom: "data"
  top: "conv1"
  param {
    lr_mult: 1
    decay_mult: 1
  }
  convolution_param {
    num_output: 32
    bias_term: false
    pad: 1
    kernel_size: 3
    group: 1
    stride: 2
    weight_filler {
      type: "gaussian"
      std: 0.01
    }
    engine: DEFAULT
  }
}
layer {
  name: "conv1/bn"
  type: "BatchNorm"
  bottom: "conv1"
  top: "conv1"
  batch_norm_param {
    moving_average_fraction: 0.999
    eps: 0.001
  }
}
layer {
  name: "conv1/scale"
  type: "Scale"
  bottom: "conv1"
  top: "conv1"
  param {
    lr_mult: 1
    decay_mult: 0
  }
  param {
    lr_mult: 1
    decay_mult: 0
  }
  scale_param {
    filler {
      type: "constant"
      value: 1
    }
    bias_term: true
    bias_filler {
      type: "constant"
      value: 0
    }
  }
}
layer {
  name: "conv1_relu"
  type: "ReLU"
  bottom: "conv1"
  top: "conv1"
}
layer {
  name: "conv2_1/dw"
  type: "Convolution"
  bottom: "conv1"
  top: "conv2_1/dw"
  param {
    lr_mult: 1
    decay_mult: 1
  }
  convolution_param {
    num_output: 32
    bias_term: false
    pad: 1
    kernel_size: 3
    group: 32
    stride: 1
    weight_filler {
      type: "gaussian"
      std: 0.01
    }
    engine: CAFFE
  }
}
layer {
  name: "conv2_1/dw/bn"
  type: "BatchNorm"
  bottom: "conv2_1/dw"
  top: "conv2_1/dw"
  batch_norm_param {
    moving_average_fraction: 0.999
    eps: 0.001
  }
}
layer {
  name: "conv2_1/dw/scale"
  type: "Scale"
  bottom: "conv2_1/dw"
  top: "conv2_1/dw"
  param {
    lr_mult: 1
    decay_mult: 0
  }
  param {
    lr_mult: 1
    decay_mult: 0
  }
  scale_param {
    filler {
      type: "constant"
      value: 1
    }
    bias_term: true
    bias_filler {
      type: "constant"
      value: 0
    }
  }
}
layer {
  name: "conv2_1/dw_relu"
  type: "ReLU"
  bottom: "conv2_1/dw"
  top: "conv2_1/dw"
}
layer {
  name: "conv2_1/sep"
  type: "Convolution"
  bottom: "conv2_1/dw"
  top: "conv2_1/sep"
  param {
    lr_mult: 1
    decay_mult: 1
  }
  convolution_param {
    num_output: 64
    bias_term: false
    pad: 0
    kernel_size: 1
    group: 1
    stride: 1
    weight_filler {
      type: "gaussian"
      std: 0.01
    }
    engine: DEFAULT
  }
}
layer {
  name: "conv2_1/sep/bn"
  type: "BatchNorm"
  bottom: "conv2_1/sep"
  top: "conv2_1/sep"
  batch_norm_param {
    moving_average_fraction: 0.999
    eps: 0.001
  }
}
layer {
  name: "conv2_1/sep/scale"
  type: "Scale"
  bottom: "conv2_1/sep"
  top: "conv2_1/sep"
  param {
    lr_mult: 1
    decay_mult: 0
  }
  param {
    lr_mult: 1
    decay_mult: 0
  }
  scale_param {
    filler {
      type: "constant"
      value: 1
    }
    bias_term: true
    bias_filler {
      type: "constant"
      value: 0
    }
  }
}
layer {
  name: "conv2_1/sep_relu"
  type: "ReLU"
  bottom: "conv2_1/sep"
  top: "conv2_1/sep"
}
layer {
  name: "conv2_2/dw"
  type: "Convolution"
  bottom: "conv2_1/sep"
  top: "conv2_2/dw"
  param {
    lr_mult: 1
    decay_mult: 1
  }
  convolution_param {
    num_output: 64
    bias_term: false
    pad: 1
    kernel_size: 3
    group: 64
    stride: 2
    weight_filler {
      type: "gaussian"
      std: 0.01
    }
    engine: CAFFE
  }
}
layer {
  name: "conv2_2/dw/bn"
  type: "BatchNorm"
  bottom: "conv2_2/dw"
  top: "conv2_2/dw"
  batch_norm_param {
    moving_average_fraction: 0.999
    eps: 0.001
  }
}
layer {
  name: "conv2_2/dw/scale"
  type: "Scale"
  bottom: "conv2_2/dw"
  top: "conv2_2/dw"
  param {
    lr_mult: 1
    decay_mult: 0
  }
  param {
    lr_mult: 1
    decay_mult: 0
  }
  scale_param {
    filler {
      type: "constant"
      value: 1
    }
    bias_term: true
    bias_filler {
      type: "constant"
      value: 0
    }
  }
}
layer {
  name: "conv2_2/dw_relu"
  type: "ReLU"
  bottom: "conv2_2/dw"
  top: "conv2_2/dw"
}
layer {
  name: "conv2_2/sep"
  type: "Convolution"
  bottom: "conv2_2/dw"
  top: "conv2_2/sep"
  param {
    lr_mult: 1
    decay_mult: 1
  }
  convolution_param {
    num_output: 128
    bias_term: false
    pad: 0
    kernel_size: 1
    group: 1
    stride: 1
    weight_filler {
      type: "gaussian"
      std: 0.01
    }
    engine: DEFAULT
  }
}
layer {
  name: "conv2_2/sep/bn"
  type: "BatchNorm"
  bottom: "conv2_2/sep"
  top: "conv2_2/sep"
  batch_norm_param {
    moving_average_fraction: 0.999
    eps: 0.001
  }
}
layer {
  name: "conv2_2/sep/scale"
  type: "Scale"
  bottom: "conv2_2/sep"
  top: "conv2_2/sep"
  param {
    lr_mult: 1
    decay_mult: 0
  }
  param {
    lr_mult: 1
    decay_mult: 0
  }
  scale_param {
    filler {
      type: "constant"
      value: 1
    }
    bias_term: true
    bias_filler {
      type: "constant"
      value: 0
    }
  }
}
layer {
  name: "conv2_2/sep_relu"
  type: "ReLU"
  bottom: "conv2_2/sep"
  top: "conv2_2/sep"
}
layer {
  name: "conv3_1/dw"
  type: "Convolution"
  bottom: "conv2_2/sep"
  top: "conv3_1/dw"
  param {
    lr_mult: 1
    decay_mult: 1
  }
  convolution_param {
    num_output: 128
    bias_term: false
    pad: 1
    kernel_size: 3
    group: 128
    stride: 1
    weight_filler {
      type: "gaussian"
      std: 0.01
    }
    engine: CAFFE
  }
}
layer {
  name: "conv3_1/dw/bn"
  type: "BatchNorm"
  bottom: "conv3_1/dw"
  top: "conv3_1/dw"
  batch_norm_param {
    moving_average_fraction: 0.999
    eps: 0.001
  }
}
layer {
  name: "conv3_1/dw/scale"
  type: "Scale"
  bottom: "conv3_1/dw"
  top: "conv3_1/dw"
  param {
    lr_mult: 1
    decay_mult: 0
  }
  param {
    lr_mult: 1
    decay_mult: 0
  }
  scale_param {
    filler {
      type: "constant"
      value: 1
    }
    bias_term: true
    bias_filler {
      type: "constant"
      value: 0
    }
  }
}
layer {
  name: "conv3_1/dw_relu"
  type: "ReLU"
  bottom: "conv3_1/dw"
  top: "conv3_1/dw"
}
layer {
  name: "conv3_1/sep"
  type: "Convolution"
  bottom: "conv3_1/dw"
  top: "conv3_1/sep"
  param {
    lr_mult: 1
    decay_mult: 1
  }
  convolution_param {
    num_output: 128
    bias_term: false
    pad: 0
    kernel_size: 1
    group: 1
    stride: 1
    weight_filler {
      type: "gaussian"
      std: 0.01
    }
    engine: DEFAULT
  }
}
layer {
  name: "conv3_1/sep/bn"
  type: "BatchNorm"
  bottom: "conv3_1/sep"
  top: "conv3_1/sep"
  batch_norm_param {
    moving_average_fraction: 0.999
    eps: 0.001
  }
}
layer {
  name: "conv3_1/sep/scale"
  type: "Scale"
  bottom: "conv3_1/sep"
  top: "conv3_1/sep"
  param {
    lr_mult: 1
    decay_mult: 0
  }
  param {
    lr_mult: 1
    decay_mult: 0
  }
  scale_param {
    filler {
      type: "constant"
      value: 1
    }
    bias_term: true
    bias_filler {
      type: "constant"
      value: 0
    }
  }
}
layer {
  name: "conv3_1/sep_relu"
  type: "ReLU"
  bottom: "conv3_1/sep"
  top: "conv3_1/sep"
}
layer {
  name: "conv3_2/dw"
  type: "Convolution"
  bottom: "conv3_1/sep"
  top: "conv3_2/dw"
  param {
    lr_mult: 1
    decay_mult: 1
  }
  convolution_param {
    num_output: 128
    bias_term: false
    pad: 1
    kernel_size: 3
    group: 128
    stride: 2
    weight_filler {
      type: "gaussian"
      std: 0.01
    }
    engine: CAFFE
  }
}
layer {
  name: "conv3_2/dw/bn"
  type: "BatchNorm"
  bottom: "conv3_2/dw"
  top: "conv3_2/dw"
  batch_norm_param {
    moving_average_fraction: 0.999
    eps: 0.001
  }
}
layer {
  name: "conv3_2/dw/scale"
  type: "Scale"
  bottom: "conv3_2/dw"
  top: "conv3_2/dw"
  param {
    lr_mult: 1
    decay_mult: 0
  }
  param {
    lr_mult: 1
    decay_mult: 0
  }
  scale_param {
    filler {
      type: "constant"
      value: 1
    }
    bias_term: true
    bias_filler {
      type: "constant"
      value: 0
    }
  }
}
layer {
  name: "conv3_2/dw_relu"
  type: "ReLU"
  bottom: "conv3_2/dw"
  top: "conv3_2/dw"
}
layer {
  name: "conv3_2/sep"
  type: "Convolution"
  bottom: "conv3_2/dw"
  top: "conv3_2/sep"
  param {
    lr_mult: 1
    decay_mult: 1
  }
  convolution_param {
    num_output: 256
    bias_term: false
    pad: 0
    kernel_size: 1
    group: 1
    stride: 1
    weight_filler {
      type: "gaussian"
      std: 0.01
    }
    engine: DEFAULT
  }
}
layer {
  name: "conv3_2/sep/bn"
  type: "BatchNorm"
  bottom: "conv3_2/sep"
  top: "conv3_2/sep"
  batch_norm_param {
    moving_average_fraction: 0.999
    eps: 0.001
  }
}
layer {
  name: "conv3_2/sep/scale"
  type: "Scale"
  bottom: "conv3_2/sep"
  top: "conv3_2/sep"
  param {
    lr_mult: 1
    decay_mult: 0
  }
  param {
    lr_mult: 1
    decay_mult: 0
  }
  scale_param {
    filler {
      type: "constant"
      value: 1
    }
    bias_term: true
    bias_filler {
      type: "constant"
      value: 0
    }
  }
}
layer {
  name: "conv3_2/sep_relu"
  type: "ReLU"
  bottom: "conv3_2/sep"
  top: "conv3_2/sep"
}
layer {
  name: "conv4_1/dw"
  type: "Convolution"
  bottom: "conv3_2/sep"
  top: "conv4_1/dw"
  param {
    lr_mult: 1
    decay_mult: 1
  }
  convolution_param {
    num_output: 256
    bias_term: false
    pad: 1
    kernel_size: 3
    group: 256
    stride: 1
    weight_filler {
      type: "gaussian"
      std: 0.01
    }
    engine: CAFFE
  }
}
layer {
  name: "conv4_1/dw/bn"
  type: "BatchNorm"
  bottom: "conv4_1/dw"
  top: "conv4_1/dw"
  batch_norm_param {
    moving_average_fraction: 0.999
    eps: 0.001
  }
}
layer {
  name: "conv4_1/dw/scale"
  type: "Scale"
  bottom: "conv4_1/dw"
  top: "conv4_1/dw"
  param {
    lr_mult: 1
    decay_mult: 0
  }
  param {
    lr_mult: 1
    decay_mult: 0
  }
  scale_param {
    filler {
      type: "constant"
      value: 1
    }
    bias_term: true
    bias_filler {
      type: "constant"
      value: 0
    }
  }
}
layer {
  name: "conv4_1/dw_relu"
  type: "ReLU"
  bottom: "conv4_1/dw"
  top: "conv4_1/dw"
}
layer {
  name: "conv4_1/sep"
  type: "Convolution"
  bottom: "conv4_1/dw"
  top: "conv4_1/sep"
  param {
    lr_mult: 1
    decay_mult: 1
  }
  convolution_param {
    num_output: 256
    bias_term: false
    pad: 0
    kernel_size: 1
    group: 1
    stride: 1
    weight_filler {
      type: "gaussian"
      std: 0.01
    }
    engine: DEFAULT
  }
}
layer {
  name: "conv4_1/sep/bn"
  type: "BatchNorm"
  bottom: "conv4_1/sep"
  top: "conv4_1/sep"
  batch_norm_param {
    moving_average_fraction: 0.999
    eps: 0.001
  }
}
layer {
  name: "conv4_1/sep/scale"
  type: "Scale"
  bottom: "conv4_1/sep"
  top: "conv4_1/sep"
  param {
    lr_mult: 1
    decay_mult: 0
  }
  param {
    lr_mult: 1
    decay_mult: 0
  }
  scale_param {
    filler {
      type: "constant"
      value: 1
    }
    bias_term: true
    bias_filler {
      type: "constant"
      value: 0
    }
  }
}
layer {
  name: "conv4_1/sep_relu"
  type: "ReLU"
  bottom: "conv4_1/sep"
  top: "conv4_1/sep"
}
layer {
  name: "conv4_2/dw"
  type: "Convolution"
  bottom: "conv4_1/sep"
  top: "conv4_2/dw"
  param {
    lr_mult: 1
    decay_mult: 1
  }
  convolution_param {
    num_output: 256
    bias_term: false
    pad: 1
    kernel_size: 3
    group: 256
    stride: 2
    weight_filler {
      type: "gaussian"
      std: 0.01
    }
    engine: CAFFE
  }
}
layer {
  name: "conv4_2/dw/bn"
  type: "BatchNorm"
  bottom: "conv4_2/dw"
  top: "conv4_2/dw"
  batch_norm_param {
    moving_average_fraction: 0.999
    eps: 0.001
  }
}
layer {
  name: "conv4_2/dw/scale"
  type: "Scale"
  bottom: "conv4_2/dw"
  top: "conv4_2/dw"
  param {
    lr_mult: 1
    decay_mult: 0
  }
  param {
    lr_mult: 1
    decay_mult: 0
  }
  scale_param {
    filler {
      type: "constant"
      value: 1
    }
    bias_term: true
    bias_filler {
      type: "constant"
      value: 0
    }
  }
}
layer {
  name: "conv4_2/dw_relu"
  type: "ReLU"
  bottom: "conv4_2/dw"
  top: "conv4_2/dw"
}
layer {
  name: "conv4_2/sep"
  type: "Convolution"
  bottom: "conv4_2/dw"
  top: "conv4_2/sep"
  param {
    lr_mult: 1
    decay_mult: 1
  }
  convolution_param {
    num_output: 512
    bias_term: false
    pad: 0
    kernel_size: 1
    group: 1
    stride: 1
    weight_filler {
      type: "gaussian"
      std: 0.01
    }
    engine: DEFAULT
  }
}
layer {
  name: "conv4_2/sep/bn"
  type: "BatchNorm"
  bottom: "conv4_2/sep"
  top: "conv4_2/sep"
  batch_norm_param {
    moving_average_fraction: 0.999
    eps: 0.001
  }
}
layer {
  name: "conv4_2/sep/scale"
  type: "Scale"
  bottom: "conv4_2/sep"
  top: "conv4_2/sep"
  param {
    lr_mult: 1
    decay_mult: 0
  }
  param {
    lr_mult: 1
    decay_mult: 0
  }
  scale_param {
    filler {
      type: "constant"
      value: 1
    }
    bias_term: true
    bias_filler {
      type: "constant"
      value: 0
    }
  }
}
layer {
  name: "conv4_2/sep_relu"
  type: "ReLU"
  bottom: "conv4_2/sep"
  top: "conv4_2/sep"
}
layer {
  name: "conv5_1/dw"
  type: "Convolution"
  bottom: "conv4_2/sep"
  top: "conv5_1/dw"
  param {
    lr_mult: 1
    decay_mult: 1
  }
  convolution_param {
    num_output: 512
    bias_term: false
    pad: 1
    kernel_size: 3
    group: 512
    stride: 1
    weight_filler {
      type: "gaussian"
      std: 0.01
    }
    engine: CAFFE
  }
}
layer {
  name: "conv5_1/dw/bn"
  type: "BatchNorm"
  bottom: "conv5_1/dw"
  top: "conv5_1/dw"
  batch_norm_param {
    moving_average_fraction: 0.999
    eps: 0.001
  }
}
layer {
  name: "conv5_1/dw/scale"
  type: "Scale"
  bottom: "conv5_1/dw"
  top: "conv5_1/dw"
  param {
    lr_mult: 1
    decay_mult: 0
  }
  param {
    lr_mult: 1
    decay_mult: 0
  }
  scale_param {
    filler {
      type: "constant"
      value: 1
    }
    bias_term: true
    bias_filler {
      type: "constant"
      value: 0
    }
  }
}
layer {
  name: "conv5_1/dw_relu"
  type: "ReLU"
  bottom: "conv5_1/dw"
  top: "conv5_1/dw"
}
layer {
  name: "conv5_1/sep"
  type: "Convolution"
  bottom: "conv5_1/dw"
  top: "conv5_1/sep"
  param {
    lr_mult: 1
    decay_mult: 1
  }
  convolution_param {
    num_output: 512
    bias_term: false
    pad: 0
    kernel_size: 1
    group: 1
    stride: 1
    weight_filler {
      type: "gaussian"
      std: 0.01
    }
    engine: DEFAULT
  }
}
layer {
  name: "conv5_1/sep/bn"
  type: "BatchNorm"
  bottom: "conv5_1/sep"
  top: "conv5_1/sep"
  batch_norm_param {
    moving_average_fraction: 0.999
    eps: 0.001
  }
}
layer {
  name: "conv5_1/sep/scale"
  type: "Scale"
  bottom: "conv5_1/sep"
  top: "conv5_1/sep"
  param {
    lr_mult: 1
    decay_mult: 0
  }
  param {
    lr_mult: 1
    decay_mult: 0
  }
  scale_param {
    filler {
      type: "constant"
      value: 1
    }
    bias_term: true
    bias_filler {
      type: "constant"
      value: 0
    }
  }
}
layer {
  name: "conv5_1/sep_relu"
  type: "ReLU"
  bottom: "conv5_1/sep"
  top: "conv5_1/sep"
}
layer {
  name: "conv5_2/dw"
  type: "Convolution"
  bottom: "conv5_1/sep"
  top: "conv5_2/dw"
  param {
    lr_mult: 1
    decay_mult: 1
  }
  convolution_param {
    num_output: 512
    bias_term: false
    pad: 1
    kernel_size: 3
    group: 512
    stride: 1
    weight_filler {
      type: "gaussian"
      std: 0.01
    }
    engine: CAFFE
  }
}
layer {
  name: "conv5_2/dw/bn"
  type: "BatchNorm"
  bottom: "conv5_2/dw"
  top: "conv5_2/dw"
  batch_norm_param {
    moving_average_fraction: 0.999
    eps: 0.001
  }
}
layer {
  name: "conv5_2/dw/scale"
  type: "Scale"
  bottom: "conv5_2/dw"
  top: "conv5_2/dw"
  param {
    lr_mult: 1
    decay_mult: 0
  }
  param {
    lr_mult: 1
    decay_mult: 0
  }
  scale_param {
    filler {
      type: "constant"
      value: 1
    }
    bias_term: true
    bias_filler {
      type: "constant"
      value: 0
    }
  }
}
layer {
  name: "conv5_2/dw_relu"
  type: "ReLU"
  bottom: "conv5_2/dw"
  top: "conv5_2/dw"
}
layer {
  name: "conv5_2/sep"
  type: "Convolution"
  bottom: "conv5_2/dw"
  top: "conv5_2/sep"
  param {
    lr_mult: 1
    decay_mult: 1
  }
  convolution_param {
    num_output: 512
    bias_term: false
    pad: 0
    kernel_size: 1
    group: 1
    stride: 1
    weight_filler {
      type: "gaussian"
      std: 0.01
    }
    engine: DEFAULT
  }
}
layer {
  name: "conv5_2/sep/bn"
  type: "BatchNorm"
  bottom: "conv5_2/sep"
  top: "conv5_2/sep"
  batch_norm_param {
    moving_average_fraction: 0.999
    eps: 0.001
  }
}
layer {
  name: "conv5_2/sep/scale"
  type: "Scale"
  bottom: "conv5_2/sep"
  top: "conv5_2/sep"
  param {
    lr_mult: 1
    decay_mult: 0
  }
  param {
    lr_mult: 1
    decay_mult: 0
  }
  scale_param {
    filler {
      type: "constant"
      value: 1
    }
    bias_term: true
    bias_filler {
      type: "constant"
      value: 0
    }
  }
}
layer {
  name: "conv5_2/sep_relu"
  type: "ReLU"
  bottom: "conv5_2/sep"
  top: "conv5_2/sep"
}
layer {
  name: "conv5_3/dw"
  type: "Convolution"
  bottom: "conv5_2/sep"
  top: "conv5_3/dw"
  param {
    lr_mult: 1
    decay_mult: 1
  }
  convolution_param {
    num_output: 512
    bias_term: false
    pad: 1
    kernel_size: 3
    group: 512
    stride: 1
    weight_filler {
      type: "gaussian"
      std: 0.01
    }
    engine: CAFFE
  }
}
layer {
  name: "conv5_3/dw/bn"
  type: "BatchNorm"
  bottom: "conv5_3/dw"
  top: "conv5_3/dw"
  batch_norm_param {
    moving_average_fraction: 0.999
    eps: 0.001
  }
}
layer {
  name: "conv5_3/dw/scale"
  type: "Scale"
  bottom: "conv5_3/dw"
  top: "conv5_3/dw"
  param {
    lr_mult: 1
    decay_mult: 0
  }
  param {
    lr_mult: 1
    decay_mult: 0
  }
  scale_param {
    filler {
      type: "constant"
      value: 1
    }
    bias_term: true
    bias_filler {
      type: "constant"
      value: 0
    }
  }
}
layer {
  name: "conv5_3/dw_relu"
  type: "ReLU"
  bottom: "conv5_3/dw"
  top: "conv5_3/dw"
}
layer {
  name: "conv5_3/sep"
  type: "Convolution"
  bottom: "conv5_3/dw"
  top: "conv5_3/sep"
  param {
    lr_mult: 1
    decay_mult: 1
  }
  convolution_param {
    num_output: 512
    bias_term: false
    pad: 0
    kernel_size: 1
    group: 1
    stride: 1
    weight_filler {
      type: "gaussian"
      std: 0.01
    }
    engine: DEFAULT
  }
}
layer {
  name: "conv5_3/sep/bn"
  type: "BatchNorm"
  bottom: "conv5_3/sep"
  top: "conv5_3/sep"
  batch_norm_param {
    moving_average_fraction: 0.999
    eps: 0.001
  }
}
layer {
  name: "conv5_3/sep/scale"
  type: "Scale"
  bottom: "conv5_3/sep"
  top: "conv5_3/sep"
  param {
    lr_mult: 1
    decay_mult: 0
  }
  param {
    lr_mult: 1
    decay_mult: 0
  }
  scale_param {
    filler {
      type: "constant"
      value: 1
    }
    bias_term: true
    bias_filler {
      type: "constant"
      value: 0
    }
  }
}
layer {
  name: "conv5_3/sep_relu"
  type: "ReLU"
  bottom: "conv5_3/sep"
  top: "conv5_3/sep"
}
layer {
  name: "conv5_4/dw"
  type: "Convolution"
  bottom: "conv5_3/sep"
  top: "conv5_4/dw"
  param {
    lr_mult: 1
    decay_mult: 1
  }
  convolution_param {
    num_output: 512
    bias_term: false
    pad: 1
    kernel_size: 3
    group: 512
    stride: 1
    weight_filler {
      type: "gaussian"
      std: 0.01
    }
    engine: CAFFE
  }
}
layer {
  name: "conv5_4/dw/bn"
  type: "BatchNorm"
  bottom: "conv5_4/dw"
  top: "conv5_4/dw"
  batch_norm_param {
    moving_average_fraction: 0.999
    eps: 0.001
  }
}
layer {
  name: "conv5_4/dw/scale"
  type: "Scale"
  bottom: "conv5_4/dw"
  top: "conv5_4/dw"
  param {
    lr_mult: 1
    decay_mult: 0
  }
  param {
    lr_mult: 1
    decay_mult: 0
  }
  scale_param {
    filler {
      type: "constant"
      value: 1
    }
    bias_term: true
    bias_filler {
      type: "constant"
      value: 0
    }
  }
}
layer {
  name: "conv5_4/dw_relu"
  type: "ReLU"
  bottom: "conv5_4/dw"
…
I0907 13:37:31.224563 23576 net.cpp:395] conv5_6/dw/bn -> conv5_6/dw (in-place)
I0907 13:37:31.224745 23576 net.cpp:150] Setting up conv5_6/dw/bn
I0907 13:37:31.224752 23576 net.cpp:157] Top shape: 8 512 10 10 (409600)
I0907 13:37:31.224756 23576 net.cpp:165] Memory required for data: 1224937728
I0907 13:37:31.224762 23576 layer_factory.hpp:77] Creating layer conv5_6/dw/scale
I0907 13:37:31.224768 23576 net.cpp:100] Creating Layer conv5_6/dw/scale
I0907 13:37:31.224772 23576 net.cpp:434] conv5_6/dw/scale <- conv5_6/dw
I0907 13:37:31.224778 23576 net.cpp:395] conv5_6/dw/scale -> conv5_6/dw (in-place)
I0907 13:37:31.224822 23576 layer_factory.hpp:77] Creating layer conv5_6/dw/scale
I0907 13:37:31.224926 23576 net.cpp:150] Setting up conv5_6/dw/scale
I0907 13:37:31.224933 23576 net.cpp:157] Top shape: 8 512 10 10 (409600)
I0907 13:37:31.224936 23576 net.cpp:165] Memory required for data: 1226576128
I0907 13:37:31.224941 23576 layer_factory.hpp:77] Creating layer conv5_6/dw_relu
I0907 13:37:31.224947 23576 net.cpp:100] Creating Layer conv5_6/dw_relu
I0907 13:37:31.224951 23576 net.cpp:434] conv5_6/dw_relu <- conv5_6/dw
I0907 13:37:31.224956 23576 net.cpp:395] conv5_6/dw_relu -> conv5_6/dw (in-place)
I0907 13:37:31.225591 23576 net.cpp:150] Setting up conv5_6/dw_relu
I0907 13:37:31.225602 23576 net.cpp:157] Top shape: 8 512 10 10 (409600)
I0907 13:37:31.225605 23576 net.cpp:165] Memory required for data: 1228214528
I0907 13:37:31.225610 23576 layer_factory.hpp:77] Creating layer conv5_6/sep
I0907 13:37:31.225620 23576 net.cpp:100] Creating Layer conv5_6/sep
I0907 13:37:31.225623 23576 net.cpp:434] conv5_6/sep <- conv5_6/dw
I0907 13:37:31.225630 23576 net.cpp:408] conv5_6/sep -> conv5_6/sep
I0907 13:37:31.231570 23576 net.cpp:150] Setting up conv5_6/sep
I0907 13:37:31.231583 23576 net.cpp:157] Top shape: 8 1024 10 10 (819200)
I0907 13:37:31.231585 23576 net.cpp:165] Memory required for data: 1231491328
I0907 13:37:31.231590 23576 layer_factory.hpp:77] Creating layer conv5_6/sep/bn
I0907 13:37:31.231595 23576 net.cpp:100] Creating Layer conv5_6/sep/bn
I0907 13:37:31.231600 23576 net.cpp:434] conv5_6/sep/bn <- conv5_6/sep
I0907 13:37:31.231606 23576 net.cpp:395] conv5_6/sep/bn -> conv5_6/sep (in-place)
I0907 13:37:31.231789 23576 net.cpp:150] Setting up conv5_6/sep/bn
I0907 13:37:31.231796 23576 net.cpp:157] Top shape: 8 1024 10 10 (819200)
I0907 13:37:31.231799 23576 net.cpp:165] Memory required for data: 1234768128
I0907 13:37:31.231806 23576 layer_factory.hpp:77] Creating layer conv5_6/sep/scale
I0907 13:37:31.231813 23576 net.cpp:100] Creating Layer conv5_6/sep/scale
I0907 13:37:31.231818 23576 net.cpp:434] conv5_6/sep/scale <- conv5_6/sep
I0907 13:37:31.231823 23576 net.cpp:395] conv5_6/sep/scale -> conv5_6/sep (in-place)
I0907 13:37:31.231868 23576 layer_factory.hpp:77] Creating layer conv5_6/sep/scale
I0907 13:37:31.231972 23576 net.cpp:150] Setting up conv5_6/sep/scale
I0907 13:37:31.231979 23576 net.cpp:157] Top shape: 8 1024 10 10 (819200)
I0907 13:37:31.231982 23576 net.cpp:165] Memory required for data: 1238044928
I0907 13:37:31.231988 23576 layer_factory.hpp:77] Creating layer conv5_6/sep_relu
I0907 13:37:31.231995 23576 net.cpp:100] Creating Layer conv5_6/sep_relu
I0907 13:37:31.231998 23576 net.cpp:434] conv5_6/sep_relu <- conv5_6/sep
I0907 13:37:31.232003 23576 net.cpp:395] conv5_6/sep_relu -> conv5_6/sep (in-place)
I0907 13:37:31.232636 23576 net.cpp:150] Setting up conv5_6/sep_relu
I0907 13:37:31.232648 23576 net.cpp:157] Top shape: 8 1024 10 10 (819200)
I0907 13:37:31.232652 23576 net.cpp:165] Memory required for data: 1241321728
I0907 13:37:31.232656 23576 layer_factory.hpp:77] Creating layer conv6/dw
I0907 13:37:31.232666 23576 net.cpp:100] Creating Layer conv6/dw
I0907 13:37:31.232669 23576 net.cpp:434] conv6/dw <- conv5_6/sep
I0907 13:37:31.232684 23576 net.cpp:408] conv6/dw -> conv6/dw
I0907 13:37:31.232940 23576 net.cpp:150] Setting up conv6/dw
I0907 13:37:31.232947 23576 net.cpp:157] Top shape: 8 1024 10 10 (819200)
I0907 13:37:31.232951 23576 net.cpp:165] Memory required for data: 1244598528
I0907 13:37:31.232956 23576 layer_factory.hpp:77] Creating layer conv6/dw/bn
I0907 13:37:31.232962 23576 net.cpp:100] Creating Layer conv6/dw/bn
I0907 13:37:31.232966 23576 net.cpp:434] conv6/dw/bn <- conv6/dw
I0907 13:37:31.232970 23576 net.cpp:395] conv6/dw/bn -> conv6/dw (in-place)
I0907 13:37:31.233139 23576 net.cpp:150] Setting up conv6/dw/bn
I0907 13:37:31.233147 23576 net.cpp:157] Top shape: 8 1024 10 10 (819200)
I0907 13:37:31.233150 23576 net.cpp:165] Memory required for data: 1247875328
I0907 13:37:31.233157 23576 layer_factory.hpp:77] Creating layer conv6/dw/scale
I0907 13:37:31.233165 23576 net.cpp:100] Creating Layer conv6/dw/scale
I0907 13:37:31.233167 23576 net.cpp:434] conv6/dw/scale <- conv6/dw
I0907 13:37:31.233172 23576 net.cpp:395] conv6/dw/scale -> conv6/dw (in-place)
I0907 13:37:31.233217 23576 layer_factory.hpp:77] Creating layer conv6/dw/scale
I0907 13:37:31.233319 23576 net.cpp:150] Setting up conv6/dw/scale
I0907 13:37:31.233325 23576 net.cpp:157] Top shape: 8 1024 10 10 (819200)
I0907 13:37:31.233328 23576 net.cpp:165] Memory required for data: 1251152128
I0907 13:37:31.233335 23576 layer_factory.hpp:77] Creating layer conv6/dw_relu
I0907 13:37:31.233341 23576 net.cpp:100] Creating Layer conv6/dw_relu
I0907 13:37:31.233345 23576 net.cpp:434] conv6/dw_relu <- conv6/dw
I0907 13:37:31.233350 23576 net.cpp:395] conv6/dw_relu -> conv6/dw (in-place)
I0907 13:37:31.233521 23576 net.cpp:150] Setting up conv6/dw_relu
I0907 13:37:31.233530 23576 net.cpp:157] Top shape: 8 1024 10 10 (819200)
I0907 13:37:31.233534 23576 net.cpp:165] Memory required for data: 1254428928
I0907 13:37:31.233538 23576 layer_factory.hpp:77] Creating layer conv6/sep
I0907 13:37:31.233546 23576 net.cpp:100] Creating Layer conv6/sep
I0907 13:37:31.233551 23576 net.cpp:434] conv6/sep <- conv6/dw
I0907 13:37:31.233556 23576 net.cpp:408] conv6/sep -> conv6/sep
I0907 13:37:31.244581 23576 net.cpp:150] Setting up conv6/sep
I0907 13:37:31.244595 23576 net.cpp:157] Top shape: 8 1024 10 10 (819200)
I0907 13:37:31.244598 23576 net.cpp:165] Memory required for data: 1257705728
I0907 13:37:31.244603 23576 layer_factory.hpp:77] Creating layer conv6/sep/bn
I0907 13:37:31.244611 23576 net.cpp:100] Creating Layer conv6/sep/bn
I0907 13:37:31.244616 23576 net.cpp:434] conv6/sep/bn <- conv6/sep
I0907 13:37:31.244621 23576 net.cpp:395] conv6/sep/bn -> conv6/sep (in-place)
I0907 13:37:31.244817 23576 net.cpp:150] Setting up conv6/sep/bn
I0907 13:37:31.244824 23576 net.cpp:157] Top shape: 8 1024 10 10 (819200)
I0907 13:37:31.244828 23576 net.cpp:165] Memory required for data: 1260982528
I0907 13:37:31.244835 23576 layer_factory.hpp:77] Creating layer conv6/sep/scale
I0907 13:37:31.244841 23576 net.cpp:100] Creating Layer conv6/sep/scale
I0907 13:37:31.244845 23576 net.cpp:434] conv6/sep/scale <- conv6/sep
I0907 13:37:31.244851 23576 net.cpp:395] conv6/sep/scale -> conv6/sep (in-place)
I0907 13:37:31.244897 23576 layer_factory.hpp:77] Creating layer conv6/sep/scale
I0907 13:37:31.245002 23576 net.cpp:150] Setting up conv6/sep/scale
I0907 13:37:31.245008 23576 net.cpp:157] Top shape: 8 1024 10 10 (819200)
I0907 13:37:31.245012 23576 net.cpp:165] Memory required for data: 1264259328
I0907 13:37:31.245018 23576 layer_factory.hpp:77] Creating layer conv6/sep_relu
I0907 13:37:31.245023 23576 net.cpp:100] Creating Layer conv6/sep_relu
I0907 13:37:31.245028 23576 net.cpp:434] conv6/sep_relu <- conv6/sep
I0907 13:37:31.245031 23576 net.cpp:395] conv6/sep_relu -> conv6/sep (in-place)
I0907 13:37:31.245664 23576 net.cpp:150] Setting up conv6/sep_relu
I0907 13:37:31.245676 23576 net.cpp:157] Top shape: 8 1024 10 10 (819200)
I0907 13:37:31.245678 23576 net.cpp:165] Memory required for data: 1267536128
I0907 13:37:31.245682 23576 layer_factory.hpp:77] Creating layer conv6/sep_conv6/sep_relu_0_split
I0907 13:37:31.245702 23576 net.cpp:100] Creating Layer conv6/sep_conv6/sep_relu_0_split
I0907 13:37:31.245705 23576 net.cpp:434] conv6/sep_conv6/sep_relu_0_split <- conv6/sep
I0907 13:37:31.245712 23576 net.cpp:408] conv6/sep_conv6/sep_relu_0_split -> conv6/sep_conv6/sep_relu_0_split_0
I0907 13:37:31.245719 23576 net.cpp:408] conv6/sep_conv6/sep_relu_0_split -> conv6/sep_conv6/sep_relu_0_split_1
I0907 13:37:31.245725 23576 net.cpp:408] conv6/sep_conv6/sep_relu_0_split -> conv6/sep_conv6/sep_relu_0_split_2
I0907 13:37:31.245731 23576 net.cpp:408] conv6/sep_conv6/sep_relu_0_split -> conv6/sep_conv6/sep_relu_0_split_3
I0907 13:37:31.245791 23576 net.cpp:150] Setting up conv6/sep_conv6/sep_relu_0_split
I0907 13:37:31.245797 23576 net.cpp:157] Top shape: 8 1024 10 10 (819200)
I0907 13:37:31.245800 23576 net.cpp:157] Top shape: 8 1024 10 10 (819200)
I0907 13:37:31.245805 23576 net.cpp:157] Top shape: 8 1024 10 10 (819200)
I0907 13:37:31.245810 23576 net.cpp:157] Top shape: 8 1024 10 10 (819200)
I0907 13:37:31.245811 23576 net.cpp:165] Memory required for data: 1280643328
I0907 13:37:31.245815 23576 layer_factory.hpp:77] Creating layer conv7_1
I0907 13:37:31.245824 23576 net.cpp:100] Creating Layer conv7_1
I0907 13:37:31.245828 23576 net.cpp:434] conv7_1 <- conv6/sep_conv6/sep_relu_0_split_0
I0907 13:37:31.245836 23576 net.cpp:408] conv7_1 -> conv7_1
I0907 13:37:31.249094 23576 net.cpp:150] Setting up conv7_1
I0907 13:37:31.249106 23576 net.cpp:157] Top shape: 8 256 10 10 (204800)
I0907 13:37:31.249109 23576 net.cpp:165] Memory required for data: 1281462528
I0907 13:37:31.249115 23576 layer_factory.hpp:77] Creating layer conv7_1_relu
I0907 13:37:31.249122 23576 net.cpp:100] Creating Layer conv7_1_relu
I0907 13:37:31.249126 23576 net.cpp:434] conv7_1_relu <- conv7_1
I0907 13:37:31.249132 23576 net.cpp:395] conv7_1_relu -> conv7_1 (in-place)
I0907 13:37:31.249310 23576 net.cpp:150] Setting up conv7_1_relu
I0907 13:37:31.249320 23576 net.cpp:157] Top shape: 8 256 10 10 (204800)
I0907 13:37:31.249322 23576 net.cpp:165] Memory required for data: 1282281728
I0907 13:37:31.249326 23576 layer_factory.hpp:77] Creating layer conv7_2
I0907 13:37:31.249336 23576 net.cpp:100] Creating Layer conv7_2
I0907 13:37:31.249339 23576 net.cpp:434] conv7_2 <- conv7_1
I0907 13:37:31.249346 23576 net.cpp:408] conv7_2 -> conv7_2
I0907 13:37:31.257416 23576 net.cpp:150] Setting up conv7_2
I0907 13:37:31.257433 23576 net.cpp:157] Top shape: 8 512 5 5 (102400)
I0907 13:37:31.257436 23576 net.cpp:165] Memory required for data: 1282691328
I0907 13:37:31.257442 23576 layer_factory.hpp:77] Creating layer conv7_2_relu
I0907 13:37:31.257449 23576 net.cpp:100] Creating Layer conv7_2_relu
I0907 13:37:31.257454 23576 net.cpp:434] conv7_2_relu <- conv7_2
I0907 13:37:31.257460 23576 net.cpp:395] conv7_2_relu -> conv7_2 (in-place)
I0907 13:37:31.257635 23576 net.cpp:150] Setting up conv7_2_relu
I0907 13:37:31.257644 23576 net.cpp:157] Top shape: 8 512 5 5 (102400)
I0907 13:37:31.257647 23576 net.cpp:165] Memory required for data: 1283100928
I0907 13:37:31.257652 23576 layer_factory.hpp:77] Creating layer conv7_2_conv7_2_relu_0_split
I0907 13:37:31.257659 23576 net.cpp:100] Creating Layer conv7_2_conv7_2_relu_0_split
I0907 13:37:31.257663 23576 net.cpp:434] conv7_2_conv7_2_relu_0_split <- conv7_2
I0907 13:37:31.257669 23576 net.cpp:408] conv7_2_conv7_2_relu_0_split -> conv7_2_conv7_2_relu_0_split_0
I0907 13:37:31.257676 23576 net.cpp:408] conv7_2_conv7_2_relu_0_split -> conv7_2_conv7_2_relu_0_split_1
I0907 13:37:31.257683 23576 net.cpp:408] conv7_2_conv7_2_relu_0_split -> conv7_2_conv7_2_relu_0_split_2
I0907 13:37:31.257688 23576 net.cpp:408] conv7_2_conv7_2_relu_0_split -> conv7_2_conv7_2_relu_0_split_3
I0907 13:37:31.257750 23576 net.cpp:150] Setting up conv7_2_conv7_2_relu_0_split
I0907 13:37:31.257755 23576 net.cpp:157] Top shape: 8 512 5 5 (102400)
I0907 13:37:31.257758 23576 net.cpp:157] Top shape: 8 512 5 5 (102400)
I0907 13:37:31.257762 23576 net.cpp:157] Top shape: 8 512 5 5 (102400)
I0907 13:37:31.257766 23576 net.cpp:157] Top shape: 8 512 5 5 (102400)
I0907 13:37:31.257783 23576 net.cpp:165] Memory required for data: 1284739328
I0907 13:37:31.257787 23576 layer_factory.hpp:77] Creating layer conv8_1
I0907 13:37:31.257797 23576 net.cpp:100] Creating Layer conv8_1
I0907 13:37:31.257802 23576 net.cpp:434] conv8_1 <- conv7_2_conv7_2_relu_0_split_0
I0907 13:37:31.257807 23576 net.cpp:408] conv8_1 -> conv8_1
I0907 13:37:31.260216 23576 net.cpp:150] Setting up conv8_1
I0907 13:37:31.260229 23576 net.cpp:157] Top shape: 8 128 5 5 (25600)
I0907 13:37:31.260232 23576 net.cpp:165] Memory required for data: 1284841728
I0907 13:37:31.260237 23576 layer_factory.hpp:77] Creating layer conv8_1_relu
I0907 13:37:31.260242 23576 net.cpp:100] Creating Layer conv8_1_relu
I0907 13:37:31.260246 23576 net.cpp:434] conv8_1_relu <- conv8_1
I0907 13:37:31.260248 23576 net.cpp:395] conv8_1_relu -> conv8_1 (in-place)
I0907 13:37:31.260875 23576 net.cpp:150] Setting up conv8_1_relu
I0907 13:37:31.260886 23576 net.cpp:157] Top shape: 8 128 5 5 (25600)
I0907 13:37:31.260890 23576 net.cpp:165] Memory required for data: 1284944128
I0907 13:37:31.260891 23576 layer_factory.hpp:77] Creating layer conv8_2
I0907 13:37:31.260900 23576 net.cpp:100] Creating Layer conv8_2
I0907 13:37:31.260903 23576 net.cpp:434] conv8_2 <- conv8_1
I0907 13:37:31.260908 23576 net.cpp:408] conv8_2 -> conv8_2
I0907 13:37:31.264331 23576 net.cpp:150] Setting up conv8_2
I0907 13:37:31.264343 23576 net.cpp:157] Top shape: 8 256 3 3 (18432)
I0907 13:37:31.264345 23576 net.cpp:165] Memory required for data: 1285017856
I0907 13:37:31.264350 23576 layer_factory.hpp:77] Creating layer conv8_2_relu
I0907 13:37:31.264355 23576 net.cpp:100] Creating Layer conv8_2_relu
I0907 13:37:31.264358 23576 net.cpp:434] conv8_2_relu <- conv8_2
I0907 13:37:31.264364 23576 net.cpp:395] conv8_2_relu -> conv8_2 (in-place)
I0907 13:37:31.264536 23576 net.cpp:150] Setting up conv8_2_relu
I0907 13:37:31.264545 23576 net.cpp:157] Top shape: 8 256 3 3 (18432)
I0907 13:37:31.264549 23576 net.cpp:165] Memory required for data: 1285091584
I0907 13:37:31.264554 23576 layer_factory.hpp:77] Creating layer conv8_2_conv8_2_relu_0_split
I0907 13:37:31.264559 23576 net.cpp:100] Creating Layer conv8_2_conv8_2_relu_0_split
I0907 13:37:31.264564 23576 net.cpp:434] conv8_2_conv8_2_relu_0_split <- conv8_2
I0907 13:37:31.264570 23576 net.cpp:408] conv8_2_conv8_2_relu_0_split -> conv8_2_conv8_2_relu_0_split_0
I0907 13:37:31.264577 23576 net.cpp:408] conv8_2_conv8_2_relu_0_split -> conv8_2_conv8_2_relu_0_split_1
I0907 13:37:31.264583 23576 net.cpp:408] conv8_2_conv8_2_relu_0_split -> conv8_2_conv8_2_relu_0_split_2
I0907 13:37:31.264588 23576 net.cpp:408] conv8_2_conv8_2_relu_0_split -> conv8_2_conv8_2_relu_0_split_3
I0907 13:37:31.264649 23576 net.cpp:150] Setting up conv8_2_conv8_2_relu_0_split
I0907 13:37:31.264655 23576 net.cpp:157] Top shape: 8 256 3 3 (18432)
I0907 13:37:31.264659 23576 net.cpp:157] Top shape: 8 256 3 3 (18432)
I0907 13:37:31.264663 23576 net.cpp:157] Top shape: 8 256 3 3 (18432)
I0907 13:37:31.264667 23576 net.cpp:157] Top shape: 8 256 3 3 (18432)
I0907 13:37:31.264672 23576 net.cpp:165] Memory required for data: 1285386496
I0907 13:37:31.264674 23576 layer_factory.hpp:77] Creating layer conv9_1
I0907 13:37:31.264684 23576 net.cpp:100] Creating Layer conv9_1
I0907 13:37:31.264688 23576 net.cpp:434] conv9_1 <- conv8_2_conv8_2_relu_0_split_0
I0907 13:37:31.264695 23576 net.cpp:408] conv9_1 -> conv9_1
I0907 13:37:31.266916 23576 net.cpp:150] Setting up conv9_1
I0907 13:37:31.266928 23576 net.cpp:157] Top shape: 8 128 3 3 (9216)
I0907 13:37:31.266932 23576 net.cpp:165] Memory required for data: 1285423360
I0907 13:37:31.266938 23576 layer_factory.hpp:77] Creating layer conv9_1_relu
I0907 13:37:31.266944 23576 net.cpp:100] Creating Layer conv9_1_relu
I0907 13:37:31.266948 23576 net.cpp:434] conv9_1_relu <- conv9_1
I0907 13:37:31.266954 23576 net.cpp:395] conv9_1_relu -> conv9_1 (in-place)
I0907 13:37:31.267128 23576 net.cpp:150] Setting up conv9_1_relu
I0907 13:37:31.267137 23576 net.cpp:157] Top shape: 8 128 3 3 (9216)
I0907 13:37:31.267149 23576 net.cpp:165] Memory required for data: 1285460224
I0907 13:37:31.267153 23576 layer_factory.hpp:77] Creating layer conv9_2
I0907 13:37:31.267163 23576 net.cpp:100] Creating Layer conv9_2
I0907 13:37:31.267168 23576 net.cpp:434] conv9_2 <- conv9_1
I0907 13:37:31.267174 23576 net.cpp:408] conv9_2 -> conv9_2
I0907 13:37:31.270601 23576 net.cpp:150] Setting up conv9_2
I0907 13:37:31.270612 23576 net.cpp:157] Top shape: 8 256 2 2 (8192)
I0907 13:37:31.270614 23576 net.cpp:165] Memory required for data: 1285492992
I0907 13:37:31.270619 23576 layer_factory.hpp:77] Creating layer conv9_2_relu
I0907 13:37:31.270627 23576 net.cpp:100] Creating Layer conv9_2_relu
I0907 13:37:31.270629 23576 net.cpp:434] conv9_2_relu <- conv9_2
I0907 13:37:31.270633 23576 net.cpp:395] conv9_2_relu -> conv9_2 (in-place)
I0907 13:37:31.271271 23576 net.cpp:150] Setting up conv9_2_relu
I0907 13:37:31.271282 23576 net.cpp:157] Top shape: 8 256 2 2 (8192)
I0907 13:37:31.271284 23576 net.cpp:165] Memory required for data: 1285525760
I0907 13:37:31.271287 23576 layer_factory.hpp:77] Creating layer conv9_2_conv9_2_relu_0_split
I0907 13:37:31.271293 23576 net.cpp:100] Creating Layer conv9_2_conv9_2_relu_0_split
I0907 13:37:31.271296 23576 net.cpp:434] conv9_2_conv9_2_relu_0_split <- conv9_2
I0907 13:37:31.271301 23576 net.cpp:408] conv9_2_conv9_2_relu_0_split -> conv9_2_conv9_2_relu_0_split_0
I0907 13:37:31.271307 23576 net.cpp:408] conv9_2_conv9_2_relu_0_split -> conv9_2_conv9_2_relu_0_split_1
I0907 13:37:31.271313 23576 net.cpp:408] conv9_2_conv9_2_relu_0_split -> conv9_2_conv9_2_relu_0_split_2
I0907 13:37:31.271320 23576 net.cpp:408] conv9_2_conv9_2_relu_0_split -> conv9_2_conv9_2_relu_0_split_3
I0907 13:37:31.271381 23576 net.cpp:150] Setting up conv9_2_conv9_2_relu_0_split
I0907 13:37:31.271387 23576 net.cpp:157] Top shape: 8 256 2 2 (8192)
I0907 13:37:31.271391 23576 net.cpp:157] Top shape: 8 256 2 2 (8192)
I0907 13:37:31.271395 23576 net.cpp:157] Top shape: 8 256 2 2 (8192)
I0907 13:37:31.271399 23576 net.cpp:157] Top shape: 8 256 2 2 (8192)
I0907 13:37:31.271402 23576 net.cpp:165] Memory required for data: 1285656832
I0907 13:37:31.271406 23576 layer_factory.hpp:77] Creating layer conv10_1
I0907 13:37:31.271414 23576 net.cpp:100] Creating Layer conv10_1
I0907 13:37:31.271419 23576 net.cpp:434] conv10_1 <- conv9_2_conv9_2_relu_0_split_0
I0907 13:37:31.271426 23576 net.cpp:408] conv10_1 -> conv10_1
I0907 13:37:31.273234 23576 net.cpp:150] Setting up conv10_1
I0907 13:37:31.273247 23576 net.cpp:157] Top shape: 8 128 2 2 (4096)
I0907 13:37:31.273249 23576 net.cpp:165] Memory required for data: 1285673216
I0907 13:37:31.273257 23576 layer_factory.hpp:77] Creating layer conv10_1_relu
I0907 13:37:31.273277 23576 net.cpp:100] Creating Layer conv10_1_relu
I0907 13:37:31.273282 23576 net.cpp:434] conv10_1_relu <- conv10_1
I0907 13:37:31.273286 23576 net.cpp:395] conv10_1_relu -> conv10_1 (in-place)
I0907 13:37:31.273519 23576 net.cpp:150] Setting up conv10_1_relu
I0907 13:37:31.273528 23576 net.cpp:157] Top shape: 8 128 2 2 (4096)
I0907 13:37:31.273531 23576 net.cpp:165] Memory required for data: 1285689600
I0907 13:37:31.273535 23576 layer_factory.hpp:77] Creating layer conv10_2
I0907 13:37:31.273541 23576 net.cpp:100] Creating Layer conv10_2
I0907 13:37:31.273543 23576 net.cpp:434] conv10_2 <- conv10_1
I0907 13:37:31.273548 23576 net.cpp:408] conv10_2 -> conv10_2
I0907 13:37:31.276996 23576 net.cpp:150] Setting up conv10_2
I0907 13:37:31.277009 23576 net.cpp:157] Top shape: 8 256 1 1 (2048)
I0907 13:37:31.277011 23576 net.cpp:165] Memory required for data: 1285697792
I0907 13:37:31.277017 23576 layer_factory.hpp:77] Creating layer conv10_2_relu
I0907 13:37:31.277022 23576 net.cpp:100] Creating Layer conv10_2_relu
I0907 13:37:31.277025 23576 net.cpp:434] conv10_2_relu <- conv10_2
I0907 13:37:31.277029 23576 net.cpp:395] conv10_2_relu -> conv10_2 (in-place)
I0907 13:37:31.277204 23576 net.cpp:150] Setting up conv10_2_relu
I0907 13:37:31.277214 23576 net.cpp:157] Top shape: 8 256 1 1 (2048)
I0907 13:37:31.277217 23576 net.cpp:165] Memory required for data: 1285705984
I0907 13:37:31.277230 23576 layer_factory.hpp:77] Creating layer conv10_2_conv10_2_relu_0_split
I0907 13:37:31.277237 23576 net.cpp:100] Creating Layer conv10_2_conv10_2_relu_0_split
I0907 13:37:31.277241 23576 net.cpp:434] conv10_2_conv10_2_relu_0_split <- conv10_2
I0907 13:37:31.277248 23576 net.cpp:408] conv10_2_conv10_2_relu_0_split -> conv10_2_conv10_2_relu_0_split_0
I0907 13:37:31.277264 23576 net.cpp:408] conv10_2_conv10_2_relu_0_split -> conv10_2_conv10_2_relu_0_split_1
I0907 13:37:31.277271 23576 net.cpp:408] conv10_2_conv10_2_relu_0_split -> conv10_2_conv10_2_relu_0_split_2
I0907 13:37:31.277321 23576 net.cpp:150] Setting up conv10_2_conv10_2_relu_0_split
I0907 13:37:31.277329 23576 net.cpp:157] Top shape: 8 256 1 1 (2048)
I0907 13:37:31.277333 23576 net.cpp:157] Top shape: 8 256 1 1 (2048)
I0907 13:37:31.277338 23576 net.cpp:157] Top shape: 8 256 1 1 (2048)
I0907 13:37:31.277340 23576 net.cpp:165] Memory required for data: 1285730560
I0907 13:37:31.277344 23576 layer_factory.hpp:77] Creating layer conv5_5/sep_mbox_loc
I0907 13:37:31.277354 23576 net.cpp:100] Creating Layer conv5_5/sep_mbox_loc
I0907 13:37:31.277359 23576 net.cpp:434] conv5_5/sep_mbox_loc <- conv5_5/sep_conv5_5/sep_relu_0_split_1
I0907 13:37:31.277365 23576 net.cpp:408] conv5_5/sep_mbox_loc -> conv5_5/sep_mbox_loc
I0907 13:37:31.279736 23576 net.cpp:150] Setting up conv5_5/sep_mbox_loc
I0907 13:37:31.279747 23576 net.cpp:157] Top shape: 8 12 19 19 (34656)
I0907 13:37:31.279750 23576 net.cpp:165] Memory required for data: 1285869184
I0907 13:37:31.279757 23576 layer_factory.hpp:77] Creating layer conv5_5/sep_mbox_loc_perm
I0907 13:37:31.279767 23576 net.cpp:100] Creating Layer conv5_5/sep_mbox_loc_perm
I0907 13:37:31.279772 23576 net.cpp:434] conv5_5/sep_mbox_loc_perm <- conv5_5/sep_mbox_loc
I0907 13:37:31.279779 23576 net.cpp:408] conv5_5/sep_mbox_loc_perm -> conv5_5/sep_mbox_loc_perm
I0907 13:37:31.279969 23576 net.cpp:150] Setting up conv5_5/sep_mbox_loc_perm
I0907 13:37:31.279978 23576 net.cpp:157] Top shape: 8 19 19 12 (34656)
I0907 13:37:31.279981 23576 net.cpp:165] Memory required for data: 1286007808
I0907 13:37:31.279985 23576 layer_factory.hpp:77] Creating layer conv5_5/sep_mbox_loc_flat
I0907 13:37:31.279991 23576 net.cpp:100] Creating Layer conv5_5/sep_mbox_loc_flat
I0907 13:37:31.279995 23576 net.cpp:434] conv5_5/sep_mbox_loc_flat <- conv5_5/sep_mbox_loc_perm
I0907 13:37:31.280002 23576 net.cpp:408] conv5_5/sep_mbox_loc_flat -> conv5_5/sep_mbox_loc_flat
I0907 13:37:31.280025 23576 net.cpp:150] Setting up conv5_5/sep_mbox_loc_flat
I0907 13:37:31.280031 23576 net.cpp:157] Top shape: 8 4332 (34656)
I0907 13:37:31.280035 23576 net.cpp:165] Memory required for data: 1286146432
I0907 13:37:31.280038 23576 layer_factory.hpp:77] Creating layer conv5_5/sep_mbox_conf
I0907 13:37:31.280048 23576 net.cpp:100] Creating Layer conv5_5/sep_mbox_conf
I0907 13:37:31.280052 23576 net.cpp:434] conv5_5/sep_mbox_conf <- conv5_5/sep_conv5_5/sep_relu_0_split_2
I0907 13:37:31.280059 23576 net.cpp:408] conv5_5/sep_mbox_conf -> conv5_5/sep_mbox_conf
I0907 13:37:31.282943 23576 net.cpp:150] Setting up conv5_5/sep_mbox_conf
I0907 13:37:31.282954 23576 net.cpp:157] Top shape: 8 12 19 19 (34656)
I0907 13:37:31.282958 23576 net.cpp:165] Memory required for data: 1286285056
I0907 13:37:31.282964 23576 layer_factory.hpp:77] Creating layer conv5_5/sep_mbox_conf_perm
I0907 13:37:31.282973 23576 net.cpp:100] Creating Layer conv5_5/sep_mbox_conf_perm
I0907 13:37:31.282976 23576 net.cpp:434] conv5_5/sep_mbox_conf_perm <- conv5_5/sep_mbox_conf
I0907 13:37:31.282984 23576 net.cpp:408] conv5_5/sep_mbox_conf_perm -> conv5_5/sep_mbox_conf_perm
I0907 13:37:31.283076 23576 net.cpp:150] Setting up conv5_5/sep_mbox_conf_perm
I0907 13:37:31.283082 23576 net.cpp:157] Top shape: 8 19 19 12 (34656)
I0907 13:37:31.283085 23576 net.cpp:165] Memory required for data: 1286423680
I0907 13:37:31.283089 23576 layer_factory.hpp:77] Creating layer conv5_5/sep_mbox_conf_flat
I0907 13:37:31.283094 23576 net.cpp:100] Creating Layer conv5_5/sep_mbox_conf_flat
I0907 13:37:31.283109 23576 net.cpp:434] conv5_5/sep_mbox_conf_flat <- conv5_5/sep_mbox_conf_perm
I0907 13:37:31.283115 23576 net.cpp:408] conv5_5/sep_mbox_conf_flat -> conv5_5/sep_mbox_conf_flat
I0907 13:37:31.283140 23576 net.cpp:150] Setting up conv5_5/sep_mbox_conf_flat
I0907 13:37:31.283146 23576 net.cpp:157] Top shape: 8 4332 (34656)
I0907 13:37:31.283149 23576 net.cpp:165] Memory required for data: 1286562304
I0907 13:37:31.283152 23576 layer_factory.hpp:77] Creating layer conv5_5/sep_mbox_priorbox
I0907 13:37:31.283160 23576 net.cpp:100] Creating Layer conv5_5/sep_mbox_priorbox
I0907 13:37:31.283164 23576 net.cpp:434] conv5_5/sep_mbox_priorbox <- conv5_5/sep_conv5_5/sep_relu_0_split_3
I0907 13:37:31.283169 23576 net.cpp:434] conv5_5/sep_mbox_priorbox <- data_data_0_split_1
I0907 13:37:31.283179 23576 net.cpp:408] conv5_5/sep_mbox_priorbox -> conv5_5/sep_mbox_priorbox
I0907 13:37:31.283203 23576 net.cpp:150] Setting up conv5_5/sep_mbox_priorbox
I0907 13:37:31.283210 23576 net.cpp:157] Top shape: 1 2 4332 (8664)
I0907 13:37:31.283213 23576 net.cpp:165] Memory required for data: 1286596960
I0907 13:37:31.283217 23576 layer_factory.hpp:77] Creating layer conv6/sep_mbox_loc
I0907 13:37:31.283226 23576 net.cpp:100] Creating Layer conv6/sep_mbox_loc
I0907 13:37:31.283229 23576 net.cpp:434] conv6/sep_mbox_loc <- conv6/sep_conv6/sep_relu_0_split_1
I0907 13:37:31.283236 23576 net.cpp:408] conv6/sep_mbox_loc -> conv6/sep_mbox_loc
I0907 13:37:31.287583 23576 net.cpp:150] Setting up conv6/sep_mbox_loc
I0907 13:37:31.287598 23576 net.cpp:157] Top shape: 8 24 10 10 (19200)
I0907 13:37:31.287602 23576 net.cpp:165] Memory required for data: 1286673760
I0907 13:37:31.287608 23576 layer_factory.hpp:77] Creating layer conv6/sep_mbox_loc_perm
I0907 13:37:31.287614 23576 net.cpp:100] Creating Layer conv6/sep_mbox_loc_perm
I0907 13:37:31.287619 23576 net.cpp:434] conv6/sep_mbox_loc_perm <- conv6/sep_mbox_loc
I0907 13:37:31.287626 23576 net.cpp:408] conv6/sep_mbox_loc_perm -> conv6/sep_mbox_loc_perm
I0907 13:37:31.287726 23576 net.cpp:150] Setting up conv6/sep_mbox_loc_perm
I0907 13:37:31.287734 23576 net.cpp:157] Top shape: 8 10 10 24 (19200)
I0907 13:37:31.287737 23576 net.cpp:165] Memory required for data: 1286750560
I0907 13:37:31.287740 23576 layer_factory.hpp:77] Creating layer conv6/sep_mbox_loc_flat
I0907 13:37:31.287746 23576 net.cpp:100] Creating Layer conv6/sep_mbox_loc_flat
I0907 13:37:31.287750 23576 net.cpp:434] conv6/sep_mbox_loc_flat <- conv6/sep_mbox_loc_perm
I0907 13:37:31.287756 23576 net.cpp:408] conv6/sep_mbox_loc_flat -> conv6/sep_mbox_loc_flat
I0907 13:37:31.287778 23576 net.cpp:150] Setting up conv6/sep_mbox_loc_flat
I0907 13:37:31.287783 23576 net.cpp:157] Top shape: 8 2400 (19200)
I0907 13:37:31.287786 23576 net.cpp:165] Memory required for data: 1286827360
I0907 13:37:31.287791 23576 layer_factory.hpp:77] Creating layer conv6/sep_mbox_conf
I0907 13:37:31.287801 23576 net.cpp:100] Creating Layer conv6/sep_mbox_conf
I0907 13:37:31.287806 23576 net.cpp:434] conv6/sep_mbox_conf <- conv6/sep_conv6/sep_relu_0_split_2
I0907 13:37:31.287812 23576 net.cpp:408] conv6/sep_mbox_conf -> conv6/sep_mbox_conf
I0907 13:37:31.291354 23576 net.cpp:150] Setting up conv6/sep_mbox_conf
I0907 13:37:31.291368 23576 net.cpp:157] Top shape: 8 24 10 10 (19200)
I0907 13:37:31.291371 23576 net.cpp:165] Memory required for data: 1286904160
I0907 13:37:31.291378 23576 layer_factory.hpp:77] Creating layer conv6/sep_mbox_conf_perm
I0907 13:37:31.291384 23576 net.cpp:100] Creating Layer conv6/sep_mbox_conf_perm
I0907 13:37:31.291388 23576 net.cpp:434] conv6/sep_mbox_conf_perm <- conv6/sep_mbox_conf
I0907 13:37:31.291395 23576 net.cpp:408] conv6/sep_mbox_conf_perm -> conv6/sep_mbox_conf_perm
I0907 13:37:31.291491 23576 net.cpp:150] Setting up conv6/sep_mbox_conf_perm
I0907 13:37:31.291496 23576 net.cpp:157] Top shape: 8 10 10 24 (19200)
I0907 13:37:31.291501 23576 net.cpp:165] Memory required for data: 1286980960
I0907 13:37:31.291504 23576 layer_factory.hpp:77] Creating layer conv6/sep_mbox_conf_flat
I0907 13:37:31.291509 23576 net.cpp:100] Creating Layer conv6/sep_mbox_conf_flat
I0907 13:37:31.291527 23576 net.cpp:434] conv6/sep_mbox_conf_flat <- conv6/sep_mbox_conf_perm
I0907 13:37:31.291533 23576 net.cpp:408] conv6/sep_mbox_conf_flat -> conv6/sep_mbox_conf_flat
I0907 13:37:31.291561 23576 net.cpp:150] Setting up conv6/sep_mbox_conf_flat
I0907 13:37:31.291568 23576 net.cpp:157] Top shape: 8 2400 (19200)
I0907 13:37:31.291570 23576 net.cpp:165] Memory required for data: 1287057760
I0907 13:37:31.291574 23576 layer_factory.hpp:77] Creating layer conv6/sep_mbox_priorbox
I0907 13:37:31.291579 23576 net.cpp:100] Creating Layer conv6/sep_mbox_priorbox
I0907 13:37:31.291584 23576 net.cpp:434] conv6/sep_mbox_priorbox <- conv6/sep_conv6/sep_relu_0_split_3
I0907 13:37:31.291589 23576 net.cpp:434] conv6/sep_mbox_priorbox <- data_data_0_split_2
I0907 13:37:31.291595 23576 net.cpp:408] conv6/sep_mbox_priorbox -> conv6/sep_mbox_priorbox
I0907 13:37:31.291621 23576 net.cpp:150] Setting up conv6/sep_mbox_priorbox
I0907 13:37:31.291626 23576 net.cpp:157] Top shape: 1 2 2400 (4800)
I0907 13:37:31.291630 23576 net.cpp:165] Memory required for data: 1287076960
I0907 13:37:31.291633 23576 layer_factory.hpp:77] Creating layer conv7_2_mbox_loc
I0907 13:37:31.291642 23576 net.cpp:100] Creating Layer conv7_2_mbox_loc
I0907 13:37:31.291646 23576 net.cpp:434] conv7_2_mbox_loc <- conv7_2_conv7_2_relu_0_split_1
I0907 13:37:31.291653 23576 net.cpp:408] conv7_2_mbox_loc -> conv7_2_mbox_loc
I0907 13:37:31.294270 23576 net.cpp:150] Setting up conv7_2_mbox_loc
I0907 13:37:31.294281 23576 net.cpp:157] Top shape: 8 24 5 5 (4800)
I0907 13:37:31.294286 23576 net.cpp:165] Memory required for data: 1287096160
I0907 13:37:31.294291 23576 layer_factory.hpp:77] Creating layer conv7_2_mbox_loc_perm
I0907 13:37:31.294298 23576 net.cpp:100] Creating Layer conv7_2_mbox_loc_perm
I0907 13:37:31.294307 23576 net.cpp:434] conv7_2_mbox_loc_perm <- conv7_2_mbox_loc
I0907 13:37:31.294313 23576 net.cpp:408] conv7_2_mbox_loc_perm -> conv7_2_mbox_loc_perm
I0907 13:37:31.294412 23576 net.cpp:150] Setting up conv7_2_mbox_loc_perm
I0907 13:37:31.294419 23576 net.cpp:157] Top shape: 8 5 5 24 (4800)
I0907 13:37:31.294430 23576 net.cpp:165] Memory required for data: 1287115360
I0907 13:37:31.294435 23576 layer_factory.hpp:77] Creating layer conv7_2_mbox_loc_flat
I0907 13:37:31.294440 23576 net.cpp:100] Creating Layer conv7_2_mbox_loc_flat
I0907 13:37:31.294443 23576 net.cpp:434] conv7_2_mbox_loc_flat <- conv7_2_mbox_loc_perm
I0907 13:37:31.294448 23576 net.cpp:408] conv7_2_mbox_loc_flat -> conv7_2_mbox_loc_flat
I0907 13:37:31.294473 23576 net.cpp:150] Setting up conv7_2_mbox_loc_flat
I0907 13:37:31.294479 23576 net.cpp:157] Top shape: 8 600 (4800)
I0907 13:37:31.294482 23576 net.cpp:165] Memory required for data: 1287134560
I0907 13:37:31.294486 23576 layer_factory.hpp:77] Creating layer conv7_2_mbox_conf
I0907 13:37:31.294495 23576 net.cpp:100] Creating Layer conv7_2_mbox_conf
I0907 13:37:31.294499 23576 net.cpp:434] conv7_2_mbox_conf <- conv7_2_conv7_2_relu_0_split_2
I0907 13:37:31.294505 23576 net.cpp:408] conv7_2_mbox_conf -> conv7_2_mbox_conf
I0907 13:37:31.297132 23576 net.cpp:150] Setting up conv7_2_mbox_conf
I0907 13:37:31.297143 23576 net.cpp:157] Top shape: 8 24 5 5 (4800)
I0907 13:37:31.297147 23576 net.cpp:165] Memory required for data: 1287153760
I0907 13:37:31.297152 23576 layer_factory.hpp:77] Creating layer conv7_2_mbox_conf_perm
I0907 13:37:31.297163 23576 net.cpp:100] Creating Layer conv7_2_mbox_conf_perm
I0907 13:37:31.297166 23576 net.cpp:434] conv7_2_mbox_conf_perm <- conv7_2_mbox_conf
I0907 13:37:31.297173 23576 net.cpp:408] conv7_2_mbox_conf_perm -> conv7_2_mbox_conf_perm
I0907 13:37:31.297272 23576 net.cpp:150] Setting up conv7_2_mbox_conf_perm
I0907 13:37:31.297278 23576 net.cpp:157] Top shape: 8 5 5 24 (4800)
I0907 13:37:31.297281 23576 net.cpp:165] Memory required for data: 1287172960
I0907 13:37:31.297286 23576 layer_factory.hpp:77] Creating layer conv7_2_mbox_conf_flat
I0907 13:37:31.297291 23576 net.cpp:100] Creating Layer conv7_2_mbox_conf_flat
I0907 13:37:31.297296 23576 net.cpp:434] conv7_2_mbox_conf_flat <- conv7_2_mbox_conf_perm
I0907 13:37:31.297312 23576 net.cpp:408] conv7_2_mbox_conf_flat -> conv7_2_mbox_conf_flat
I0907 13:37:31.297339 23576 net.cpp:150] Setting up conv7_2_mbox_conf_flat
I0907 13:37:31.297344 23576 net.cpp:157] Top shape: 8 600 (4800)
I0907 13:37:31.297348 23576 net.cpp:165] Memory required for data: 1287192160
I0907 13:37:31.297351 23576 layer_factory.hpp:77] Creating layer conv7_2_mbox_priorbox
I0907 13:37:31.297358 23576 net.cpp:100] Creating Layer conv7_2_mbox_priorbox
I0907 13:37:31.297361 23576 net.cpp:434] conv7_2_mbox_priorbox <- conv7_2_conv7_2_relu_0_split_3
I0907 13:37:31.297366 23576 net.cpp:434] conv7_2_mbox_priorbox <- data_data_0_split_3
I0907 13:37:31.297374 23576 net.cpp:408] conv7_2_mbox_priorbox -> conv7_2_mbox_priorbox
I0907 13:37:31.297399 23576 net.cpp:150] Setting up conv7_2_mbox_priorbox
I0907 13:37:31.297405 23576 net.cpp:157] Top shape: 1 2 600 (1200)
I0907 13:37:31.297408 23576 net.cpp:165] Memory required for data: 1287196960
I0907 13:37:31.297412 23576 layer_factory.hpp:77] Creating layer conv8_2_mbox_loc
I0907 13:37:31.297421 23576 net.cpp:100] Creating Layer conv8_2_mbox_loc
I0907 13:37:31.297425 23576 net.cpp:434] conv8_2_mbox_loc <- conv8_2_conv8_2_relu_0_split_1
I0907 13:37:31.297430 23576 net.cpp:408] conv8_2_mbox_loc -> conv8_2_mbox_loc
I0907 13:37:31.299837 23576 net.cpp:150] Setting up conv8_2_mbox_loc
I0907 13:37:31.299849 23576 net.cpp:157] Top shape: 8 24 3 3 (1728)
I0907 13:37:31.299852 23576 net.cpp:165] Memory required for data: 1287203872
I0907 13:37:31.299860 23576 layer_factory.hpp:77] Creating layer conv8_2_mbox_loc_perm
I0907 13:37:31.299866 23576 net.cpp:100] Creating Layer conv8_2_mbox_loc_perm
I0907 13:37:31.299870 23576 net.cpp:434] conv8_2_mbox_loc_perm <- conv8_2_mbox_loc
I0907 13:37:31.299878 23576 net.cpp:408] conv8_2_mbox_loc_perm -> conv8_2_mbox_loc_perm
I0907 13:37:31.299986 23576 net.cpp:150] Setting up conv8_2_mbox_loc_perm
I0907 13:37:31.299993 23576 net.cpp:157] Top shape: 8 3 3 24 (1728)
I0907 13:37:31.299995 23576 net.cpp:165] Memory required for data: 1287210784
I0907 13:37:31.299998 23576 layer_factory.hpp:77] Creating layer conv8_2_mbox_loc_flat
I0907 13:37:31.300004 23576 net.cpp:100] Creating Layer conv8_2_mbox_loc_flat
I0907 13:37:31.300009 23576 net.cpp:434] conv8_2_mbox_loc_flat <- conv8_2_mbox_loc_perm
I0907 13:37:31.300014 23576 net.cpp:408] conv8_2_mbox_loc_flat -> conv8_2_mbox_loc_flat
I0907 13:37:31.300036 23576 net.cpp:150] Setting up conv8_2_mbox_loc_flat
I0907 13:37:31.300041 23576 net.cpp:157] Top shape: 8 216 (1728)
I0907 13:37:31.300045 23576 net.cpp:165] Memory required for data: 1287217696
I0907 13:37:31.300048 23576 layer_factory.hpp:77] Creating layer conv8_2_mbox_conf
I0907 13:37:31.300057 23576 net.cpp:100] Creating Layer conv8_2_mbox_conf
I0907 13:37:31.300061 23576 net.cpp:434] conv8_2_mbox_conf <- conv8_2_conv8_2_relu_0_split_2
I0907 13:37:31.300067 23576 net.cpp:408] conv8_2_mbox_conf -> conv8_2_mbox_conf
I0907 13:37:31.302830 23576 net.cpp:150] Setting up conv8_2_mbox_conf
I0907 13:37:31.302845 23576 net.cpp:157] Top shape: 8 24 3 3 (1728)
I0907 13:37:31.302848 23576 net.cpp:165] Memory required for data: 1287224608
I0907 13:37:31.302853 23576 layer_factory.hpp:77] Creating layer conv8_2_mbox_conf_perm
I0907 13:37:31.302860 23576 net.cpp:100] Creating Layer conv8_2_mbox_conf_perm
I0907 13:37:31.302863 23576 net.cpp:434] conv8_2_mbox_conf_perm <- conv8_2_mbox_conf
I0907 13:37:31.302870 23576 net.cpp:408] conv8_2_mbox_conf_perm -> conv8_2_mbox_conf_perm
I0907 13:37:31.302968 23576 net.cpp:150] Setting up conv8_2_mbox_conf_perm
I0907 13:37:31.302973 23576 net.cpp:157] Top shape: 8 3 3 24 (1728)
I0907 13:37:31.302976 23576 net.cpp:165] Memory required for data: 1287231520
I0907 13:37:31.302981 23576 layer_factory.hpp:77] Creating layer conv8_2_mbox_conf_flat
I0907 13:37:31.302987 23576 net.cpp:100] Creating Layer conv8_2_mbox_conf_flat
I0907 13:37:31.302992 23576 net.cpp:434] conv8_2_mbox_conf_flat <- conv8_2_mbox_conf_perm
I0907 13:37:31.302999 23576 net.cpp:408] conv8_2_mbox_conf_flat -> conv8_2_mbox_conf_flat
I0907 13:37:31.303032 23576 net.cpp:150] Setting up conv8_2_mbox_conf_flat
I0907 13:37:31.303038 23576 net.cpp:157] Top shape: 8 216 (1728)
I0907 13:37:31.303041 23576 net.cpp:165] Memory required for data: 1287238432
I0907 13:37:31.303045 23576 layer_factory.hpp:77] Creating layer conv8_2_mbox_priorbox
I0907 13:37:31.303053 23576 net.cpp:100] Creating Layer conv8_2_mbox_priorbox
I0907 13:37:31.303057 23576 net.cpp:434] conv8_2_mbox_priorbox <- conv8_2_conv8_2_relu_0_split_3
I0907 13:37:31.303062 23576 net.cpp:434] conv8_2_mbox_priorbox <- data_data_0_split_4
I0907 13:37:31.303069 23576 net.cpp:408] conv8_2_mbox_priorbox -> conv8_2_mbox_priorbox
I0907 13:37:31.303093 23576 net.cpp:150] Setting up conv8_2_mbox_priorbox
I0907 13:37:31.303098 23576 net.cpp:157] Top shape: 1 2 216 (432)
I0907 13:37:31.303102 23576 net.cpp:165] Memory required for data: 1287240160
I0907 13:37:31.303105 23576 layer_factory.hpp:77] Creating layer conv9_2_mbox_loc
I0907 13:37:31.303114 23576 net.cpp:100] Creating Layer conv9_2_mbox_loc
I0907 13:37:31.303122 23576 net.cpp:434] conv9_2_mbox_loc <- conv9_2_conv9_2_relu_0_split_1
I0907 13:37:31.303128 23576 net.cpp:408] conv9_2_mbox_loc -> conv9_2_mbox_loc
I0907 13:37:31.305457 23576 net.cpp:150] Setting up conv9_2_mbox_loc
I0907 13:37:31.305470 23576 net.cpp:157] Top shape: 8 24 2 2 (768)
I0907 13:37:31.305474 23576 net.cpp:165] Memory required for data: 1287243232
I0907 13:37:31.305480 23576 layer_factory.hpp:77] Creating layer conv9_2_mbox_loc_perm
I0907 13:37:31.305485 23576 net.cpp:100] Creating Layer conv9_2_mbox_loc_perm
I0907 13:37:31.305490 23576 net.cpp:434] conv9_2_mbox_loc_perm <- conv9_2_mbox_loc
I0907 13:37:31.305497 23576 net.cpp:408] conv9_2_mbox_loc_perm -> conv9_2_mbox_loc_perm
I0907 13:37:31.305593 23576 net.cpp:150] Setting up conv9_2_mbox_loc_perm
I0907 13:37:31.305598 23576 net.cpp:157] Top shape: 8 2 2 24 (768)
I0907 13:37:31.305601 23576 net.cpp:165] Memory required for data: 1287246304
I0907 13:37:31.305605 23576 layer_factory.hpp:77] Creating layer conv9_2_mbox_loc_flat
I0907 13:37:31.305613 23576 net.cpp:100] Creating Layer conv9_2_mbox_loc_flat
I0907 13:37:31.305616 23576 net.cpp:434] conv9_2_mbox_loc_flat <- conv9_2_mbox_loc_perm
I0907 13:37:31.305622 23576 net.cpp:408] conv9_2_mbox_loc_flat -> conv9_2_mbox_loc_flat
I0907 13:37:31.305644 23576 net.cpp:150] Setting up conv9_2_mbox_loc_flat
I0907 13:37:31.305649 23576 net.cpp:157] Top shape: 8 96 (768)
I0907 13:37:31.305651 23576 net.cpp:165] Memory required for data: 1287249376
I0907 13:37:31.305655 23576 layer_factory.hpp:77] Creating layer conv9_2_mbox_conf
I0907 13:37:31.305665 23576 net.cpp:100] Creating Layer conv9_2_mbox_conf
I0907 13:37:31.305670 23576 net.cpp:434] conv9_2_mbox_conf <- conv9_2_conv9_2_relu_0_split_2
I0907 13:37:31.305675 23576 net.cpp:408] conv9_2_mbox_conf -> conv9_2_mbox_conf
I0907 13:37:31.307564 23576 net.cpp:150] Setting up conv9_2_mbox_conf
I0907 13:37:31.307575 23576 net.cpp:157] Top shape: 8 24 2 2 (768)
I0907 13:37:31.307579 23576 net.cpp:165] Memory required for data: 1287252448
I0907 13:37:31.307585 23576 layer_factory.hpp:77] Creating layer conv9_2_mbox_conf_perm
I0907 13:37:31.307592 23576 net.cpp:100] Creating Layer conv9_2_mbox_conf_perm
I0907 13:37:31.307597 23576 net.cpp:434] conv9_2_mbox_conf_perm <- conv9_2_mbox_conf
I0907 13:37:31.307605 23576 net.cpp:408] conv9_2_mbox_conf_perm -> conv9_2_mbox_conf_perm
I0907 13:37:31.307701 23576 net.cpp:150] Setting up conv9_2_mbox_conf_perm
I0907 13:37:31.307706 23576 net.cpp:157] Top shape: 8 2 2 24 (768)
I0907 13:37:31.307709 23576 net.cpp:165] Memory required for data: 1287255520
I0907 13:37:31.307713 23576 layer_factory.hpp:77] Creating layer conv9_2_mbox_conf_flat
I0907 13:37:31.307719 23576 net.cpp:100] Creating Layer conv9_2_mbox_conf_flat
I0907 13:37:31.307723 23576 net.cpp:434] conv9_2_mbox_conf_flat <- conv9_2_mbox_conf_perm
I0907 13:37:31.307729 23576 net.cpp:408] conv9_2_mbox_conf_flat -> conv9_2_mbox_conf_flat
I0907 13:37:31.307754 23576 net.cpp:150] Setting up conv9_2_mbox_conf_flat
I0907 13:37:31.307759 23576 net.cpp:157] Top shape: 8 96 (768)
I0907 13:37:31.307770 23576 net.cpp:165] Memory required for data: 1287258592
I0907 13:37:31.307775 23576 layer_factory.hpp:77] Creating layer conv9_2_mbox_priorbox
I0907 13:37:31.307780 23576 net.cpp:100] Creating Layer conv9_2_mbox_priorbox
I0907 13:37:31.307785 23576 net.cpp:434] conv9_2_mbox_priorbox <- conv9_2_conv9_2_relu_0_split_3
I0907 13:37:31.307790 23576 net.cpp:434] conv9_2_mbox_priorbox <- data_data_0_split_5
I0907 13:37:31.307796 23576 net.cpp:408] conv9_2_mbox_priorbox -> conv9_2_mbox_priorbox
I0907 13:37:31.307824 23576 net.cpp:150] Setting up conv9_2_mbox_priorbox
I0907 13:37:31.307829 23576 net.cpp:157] Top shape: 1 2 96 (192)
I0907 13:37:31.307832 23576 net.cpp:165] Memory required for data: 1287259360
I0907 13:37:31.307837 23576 layer_factory.hpp:77] Creating layer conv10_2_mbox_loc
I0907 13:37:31.307845 23576 net.cpp:100] Creating Layer conv10_2_mbox_loc
I0907 13:37:31.307849 23576 net.cpp:434] conv10_2_mbox_loc <- conv10_2_conv10_2_relu_0_split_0
I0907 13:37:31.307857 23576 net.cpp:408] conv10_2_mbox_loc -> conv10_2_mbox_loc
I0907 13:37:31.310186 23576 net.cpp:150] Setting up conv10_2_mbox_loc
I0907 13:37:31.310197 23576 net.cpp:157] Top shape: 8 24 1 1 (192)
I0907 13:37:31.310201 23576 net.cpp:165] Memory required for data: 1287260128
I0907 13:37:31.310206 23576 layer_factory.hpp:77] Creating layer conv10_2_mbox_loc_perm
I0907 13:37:31.310214 23576 net.cpp:100] Creating Layer conv10_2_mbox_loc_perm
I0907 13:37:31.310219 23576 net.cpp:434] conv10_2_mbox_loc_perm <- conv10_2_mbox_loc
I0907 13:37:31.310225 23576 net.cpp:408] conv10_2_mbox_loc_perm -> conv10_2_mbox_loc_perm
I0907 13:37:31.310325 23576 net.cpp:150] Setting up conv10_2_mbox_loc_perm
I0907 13:37:31.310333 23576 net.cpp:157] Top shape: 8 1 1 24 (192)
I0907 13:37:31.310335 23576 net.cpp:165] Memory required for data: 1287260896
I0907 13:37:31.310338 23576 layer_factory.hpp:77] Creating layer conv10_2_mbox_loc_flat
I0907 13:37:31.310344 23576 net.cpp:100] Creating Layer conv10_2_mbox_loc_flat
I0907 13:37:31.310348 23576 net.cpp:434] conv10_2_mbox_loc_flat <- conv10_2_mbox_loc_perm
I0907 13:37:31.310353 23576 net.cpp:408] conv10_2_mbox_loc_flat -> conv10_2_mbox_loc_flat
I0907 13:37:31.310377 23576 net.cpp:150] Setting up conv10_2_mbox_loc_flat
I0907 13:37:31.310382 23576 net.cpp:157] Top shape: 8 24 (192)
I0907 13:37:31.310384 23576 net.cpp:165] Memory required for data: 1287261664
I0907 13:37:31.310389 23576 layer_factory.hpp:77] Creating layer conv10_2_mbox_conf
I0907 13:37:31.310398 23576 net.cpp:100] Creating Layer conv10_2_mbox_conf
I0907 13:37:31.310402 23576 net.cpp:434] conv10_2_mbox_conf <- conv10_2_conv10_2_relu_0_split_1
I0907 13:37:31.310407 23576 net.cpp:408] conv10_2_mbox_conf -> conv10_2_mbox_conf
I0907 13:37:31.313140 23576 net.cpp:150] Setting up conv10_2_mbox_conf
I0907 13:37:31.313153 23576 net.cpp:157] Top shape: 8 24 1 1 (192)
I0907 13:37:31.313156 23576 net.cpp:165] Memory required for data: 1287262432
I0907 13:37:31.313161 23576 layer_factory.hpp:77] Creating layer conv10_2_mbox_conf_perm
I0907 13:37:31.313169 23576 net.cpp:100] Creating Layer conv10_2_mbox_conf_perm
I0907 13:37:31.313172 23576 net.cpp:434] conv10_2_mbox_conf_perm <- conv10_2_mbox_conf
I0907 13:37:31.313181 23576 net.cpp:408] conv10_2_mbox_conf_perm -> conv10_2_mbox_conf_perm
I0907 13:37:31.313280 23576 net.cpp:150] Setting up conv10_2_mbox_conf_perm
I0907 13:37:31.313287 23576 net.cpp:157] Top shape: 8 1 1 24 (192)
I0907 13:37:31.313289 23576 net.cpp:165] Memory required for data: 1287263200
I0907 13:37:31.313293 23576 layer_factory.hpp:77] Creating layer conv10_2_mbox_conf_flat
I0907 13:37:31.313299 23576 net.cpp:100] Creating Layer conv10_2_mbox_conf_flat
I0907 13:37:31.313303 23576 net.cpp:434] conv10_2_mbox_conf_flat <- conv10_2_mbox_conf_perm
I0907 13:37:31.313309 23576 net.cpp:408] conv10_2_mbox_conf_flat -> conv10_2_mbox_conf_flat
I0907 13:37:31.313333 23576 net.cpp:150] Setting up conv10_2_mbox_conf_flat
I0907 13:37:31.313338 23576 net.cpp:157] Top shape: 8 24 (192)
I0907 13:37:31.313339 23576 net.cpp:165] Memory required for data: 1287263968
I0907 13:37:31.313351 23576 layer_factory.hpp:77] Creating layer conv10_2_mbox_priorbox
I0907 13:37:31.313359 23576 net.cpp:100] Creating Layer conv10_2_mbox_priorbox
I0907 13:37:31.313364 23576 net.cpp:434] conv10_2_mbox_priorbox <- conv10_2_conv10_2_relu_0_split_2
I0907 13:37:31.313369 23576 net.cpp:434] conv10_2_mbox_priorbox <- data_data_0_split_6
I0907 13:37:31.313375 23576 net.cpp:408] conv10_2_mbox_priorbox -> conv10_2_mbox_priorbox
I0907 13:37:31.313402 23576 net.cpp:150] Setting up conv10_2_mbox_priorbox
I0907 13:37:31.313407 23576 net.cpp:157] Top shape: 1 2 24 (48)
I0907 13:37:31.313410 23576 net.cpp:165] Memory required for data: 1287264160
I0907 13:37:31.313415 23576 layer_factory.hpp:77] Creating layer mbox_loc
I0907 13:37:31.313421 23576 net.cpp:100] Creating Layer mbox_loc
I0907 13:37:31.313426 23576 net.cpp:434] mbox_loc <- conv5_5/sep_mbox_loc_flat
I0907 13:37:31.313431 23576 net.cpp:434] mbox_loc <- conv6/sep_mbox_loc_flat
I0907 13:37:31.313436 23576 net.cpp:434] mbox_loc <- conv7_2_mbox_loc_flat
I0907 13:37:31.313439 23576 net.cpp:434] mbox_loc <- conv8_2_mbox_loc_flat
I0907 13:37:31.313444 23576 net.cpp:434] mbox_loc <- conv9_2_mbox_loc_flat
I0907 13:37:31.313448 23576 net.cpp:434] mbox_loc <- conv10_2_mbox_loc_flat
I0907 13:37:31.313454 23576 net.cpp:408] mbox_loc -> mbox_loc
I0907 13:37:31.313478 23576 net.cpp:150] Setting up mbox_loc
I0907 13:37:31.313483 23576 net.cpp:157] Top shape: 8 7668 (61344)
I0907 13:37:31.313486 23576 net.cpp:165] Memory required for data: 1287509536
I0907 13:37:31.313490 23576 layer_factory.hpp:77] Creating layer mbox_conf
I0907 13:37:31.313498 23576 net.cpp:100] Creating Layer mbox_conf
I0907 13:37:31.313500 23576 net.cpp:434] mbox_conf <- conv5_5/sep_mbox_conf_flat
I0907 13:37:31.313505 23576 net.cpp:434] mbox_conf <- conv6/sep_mbox_conf_flat
I0907 13:37:31.313510 23576 net.cpp:434] mbox_conf <- conv7_2_mbox_conf_flat
I0907 13:37:31.313514 23576 net.cpp:434] mbox_conf <- conv8_2_mbox_conf_flat
I0907 13:37:31.313519 23576 net.cpp:434] mbox_conf <- conv9_2_mbox_conf_flat
I0907 13:37:31.313522 23576 net.cpp:434] mbox_conf <- conv10_2_mbox_conf_flat
I0907 13:37:31.313527 23576 net.cpp:408] mbox_conf -> mbox_conf
I0907 13:37:31.313549 23576 net.cpp:150] Setting up mbox_conf
I0907 13:37:31.313554 23576 net.cpp:157] Top shape: 8 7668 (61344)
I0907 13:37:31.313556 23576 net.cpp:165] Memory required for data: 1287754912
I0907 13:37:31.313560 23576 layer_factory.hpp:77] Creating layer mbox_priorbox
I0907 13:37:31.313565 23576 net.cpp:100] Creating Layer mbox_priorbox
I0907 13:37:31.313568 23576 net.cpp:434] mbox_priorbox <- conv5_5/sep_mbox_priorbox
I0907 13:37:31.313573 23576 net.cpp:434] mbox_priorbox <- conv6/sep_mbox_priorbox
I0907 13:37:31.313577 23576 net.cpp:434] mbox_priorbox <- conv7_2_mbox_priorbox
I0907 13:37:31.313581 23576 net.cpp:434] mbox_priorbox <- conv8_2_mbox_priorbox
I0907 13:37:31.313585 23576 net.cpp:434] mbox_priorbox <- conv9_2_mbox_priorbox
I0907 13:37:31.313588 23576 net.cpp:434] mbox_priorbox <- conv10_2_mbox_priorbox
I0907 13:37:31.313594 23576 net.cpp:408] mbox_priorbox -> mbox_priorbox
I0907 13:37:31.313614 23576 net.cpp:150] Setting up mbox_priorbox
I0907 13:37:31.313619 23576 net.cpp:157] Top shape: 1 2 7668 (15336)
I0907 13:37:31.313622 23576 net.cpp:165] Memory required for data: 1287816256
I0907 13:37:31.313627 23576 layer_factory.hpp:77] Creating layer mbox_conf_reshape
I0907 13:37:31.313634 23576 net.cpp:100] Creating Layer mbox_conf_reshape
I0907 13:37:31.313638 23576 net.cpp:434] mbox_conf_reshape <- mbox_conf
I0907 13:37:31.313644 23576 net.cpp:408] mbox_conf_reshape -> mbox_conf_reshape
I0907 13:37:31.313673 23576 net.cpp:150] Setting up mbox_conf_reshape
I0907 13:37:31.313679 23576 net.cpp:157] Top shape: 8 1917 4 (61344)
I0907 13:37:31.313683 23576 net.cpp:165] Memory required for data: 1288061632
I0907 13:37:31.313688 23576 layer_factory.hpp:77] Creating layer mbox_conf_softmax
I0907 13:37:31.313693 23576 net.cpp:100] Creating Layer mbox_conf_softmax
I0907 13:37:31.313696 23576 net.cpp:434] mbox_conf_softmax <- mbox_conf_reshape
I0907 13:37:31.313709 23576 net.cpp:408] mbox_conf_softmax -> mbox_conf_softmax
I0907 13:37:31.314420 23576 net.cpp:150] Setting up mbox_conf_softmax
I0907 13:37:31.314431 23576 net.cpp:157] Top shape: 8 1917 4 (61344)
I0907 13:37:31.314435 23576 net.cpp:165] Memory required for data: 1288307008
I0907 13:37:31.314438 23576 layer_factory.hpp:77] Creating layer mbox_conf_flatten
I0907 13:37:31.314445 23576 net.cpp:100] Creating Layer mbox_conf_flatten
I0907 13:37:31.314450 23576 net.cpp:434] mbox_conf_flatten <- mbox_conf_softmax
I0907 13:37:31.314455 23576 net.cpp:408] mbox_conf_flatten -> mbox_conf_flatten
I0907 13:37:31.314479 23576 net.cpp:150] Setting up mbox_conf_flatten
I0907 13:37:31.314486 23576 net.cpp:157] Top shape: 8 7668 (61344)
I0907 13:37:31.314488 23576 net.cpp:165] Memory required for data: 1288552384
I0907 13:37:31.314491 23576 layer_factory.hpp:77] Creating layer detection_out
I0907 13:37:31.314504 23576 net.cpp:100] Creating Layer detection_out
I0907 13:37:31.314508 23576 net.cpp:434] detection_out <- mbox_loc
I0907 13:37:31.314513 23576 net.cpp:434] detection_out <- mbox_conf_flatten
I0907 13:37:31.314518 23576 net.cpp:434] detection_out <- mbox_priorbox
…
