…
      sampler {
        min_scale: 0.3
        max_scale: 1
        min_aspect_ratio: 0.5
        max_aspect_ratio: 2
      }
      sample_constraint {
        min_jaccard_overlap: 0.9
      }
      max_sample: 1
      max_trials: 50
    }
    batch_sampler {
      sampler {
        min_scale: 0.3
        max_scale: 1
        min_aspect_ratio: 0.5
        max_aspect_ratio: 2
      }
      sample_constraint {
        max_jaccard_overlap: 1
      }
      max_sample: 1
      max_trials: 50
    }
    label_map_file: "data/VOC0712/labelmap_voc.prototxt"
  }
}
layer {
  name: "conv1"
  type: "Convolution"
  bottom: "data"
  top: "conv1"
  param {
    lr_mult: 1
    decay_mult: 1
  }
  convolution_param {
    num_output: 32
    bias_term: false
    pad: 1
    kernel_size: 3
    group: 1
    stride: 2
    weight_filler {
      type: "gaussian"
      std: 0.01
    }
    engine: DEFAULT
  }
}
layer {
  name: "conv1/bn"
  type: "BatchNorm"
  bottom: "conv1"
  top: "conv1"
  batch_norm_param {
    moving_average_fraction: 0.999
    eps: 0.001
  }
}
layer {
  name: "conv1/scale"
  type: "Scale"
  bottom: "conv1"
  top: "conv1"
  param {
    lr_mult: 1
    decay_mult: 0
  }
  param {
    lr_mult: 1
    decay_mult: 0
  }
  scale_param {
    filler {
      type: "constant"
      value: 1
    }
    bias_term: true
    bias_filler {
      type: "constant"
      value: 0
    }
  }
}
layer {
  name: "conv1_relu"
  type: "ReLU"
  bottom: "conv1"
  top: "conv1"
}
layer {
  name: "conv2_1/dw"
  type: "Convolution"
  bottom: "conv1"
  top: "conv2_1/dw"
  param {
    lr_mult: 0
    decay_mult: 1
  }
  convolution_param {
    num_output: 32
    bias_term: false
    pad: 1
    kernel_size: 3
    group: 32
    stride: 1
    weight_filler {
      type: "gaussian"
      std: 0.01
    }
    engine: CAFFE
  }
}
layer {
  name: "conv2_1/dw/bn"
  type: "BatchNorm"
  bottom: "conv2_1/dw"
  top: "conv2_1/dw"
  batch_norm_param {
    moving_average_fraction: 0.999
    eps: 0.001
  }
}
layer {
  name: "conv2_1/dw/scale"
  type: "Scale"
  bottom: "conv2_1/dw"
  top: "conv2_1/dw"
  param {
    lr_mult: 0
    decay_mult: 0
  }
  param {
    lr_mult: 0
    decay_mult: 0
  }
  scale_param {
    filler {
      type: "constant"
      value: 1
    }
    bias_term: true
    bias_filler {
      type: "constant"
      value: 0
    }
  }
}
layer {
  name: "conv2_1/dw_relu"
  type: "ReLU"
  bottom: "conv2_1/dw"
  top: "conv2_1/dw"
}
layer {
  name: "conv2_1/sep"
  type: "Convolution"
  bottom: "conv2_1/dw"
  top: "conv2_1/sep"
  param {
    lr_mult: 0
    decay_mult: 1
  }
  convolution_param {
    num_output: 64
    bias_term: false
    pad: 0
    kernel_size: 1
    group: 1
    stride: 1
    weight_filler {
      type: "gaussian"
      std: 0.01
    }
    engine: DEFAULT
  }
}
layer {
  name: "conv2_1/sep/bn"
  type: "BatchNorm"
  bottom: "conv2_1/sep"
  top: "conv2_1/sep"
  batch_norm_param {
    moving_average_fraction: 0.999
    eps: 0.001
  }
}
layer {
  name: "conv2_1/sep/scale"
  type: "Scale"
  bottom: "conv2_1/sep"
  top: "conv2_1/sep"
  param {
    lr_mult: 0
    decay_mult: 0
  }
  param {
    lr_mult: 0
    decay_mult: 0
  }
  scale_param {
    filler {
      type: "constant"
      value: 1
    }
    bias_term: true
    bias_filler {
      type: "constant"
      value: 0
    }
  }
}
layer {
  name: "conv2_1/sep_relu"
  type: "ReLU"
  bottom: "conv2_1/sep"
  top: "conv2_1/sep"
}
layer {
  name: "conv2_2/dw"
  type: "Convolution"
  bottom: "conv2_1/sep"
  top: "conv2_2/dw"
  param {
    lr_mult: 0
    decay_mult: 1
  }
  convolution_param {
    num_output: 64
    bias_term: false
    pad: 1
    kernel_size: 3
    group: 64
    stride: 2
    weight_filler {
      type: "gaussian"
      std: 0.01
    }
    engine: CAFFE
  }
}
layer {
  name: "conv2_2/dw/bn"
  type: "BatchNorm"
  bottom: "conv2_2/dw"
  top: "conv2_2/dw"
  batch_norm_param {
    moving_average_fraction: 0.999
    eps: 0.001
  }
}
layer {
  name: "conv2_2/dw/scale"
  type: "Scale"
  bottom: "conv2_2/dw"
  top: "conv2_2/dw"
  param {
    lr_mult: 0
    decay_mult: 0
  }
  param {
    lr_mult: 0
    decay_mult: 0
  }
  scale_param {
    filler {
      type: "constant"
      value: 1
    }
    bias_term: true
    bias_filler {
      type: "constant"
      value: 0
    }
  }
}
layer {
  name: "conv2_2/dw_relu"
  type: "ReLU"
  bottom: "conv2_2/dw"
  top: "conv2_2/dw"
}
layer {
  name: "conv2_2/sep"
  type: "Convolution"
  bottom: "conv2_2/dw"
  top: "conv2_2/sep"
  param {
    lr_mult: 0
    decay_mult: 1
  }
  convolution_param {
    num_output: 128
    bias_term: false
    pad: 0
    kernel_size: 1
    group: 1
    stride: 1
    weight_filler {
      type: "gaussian"
      std: 0.01
    }
    engine: DEFAULT
  }
}
layer {
  name: "conv2_2/sep/bn"
  type: "BatchNorm"
  bottom: "conv2_2/sep"
  top: "conv2_2/sep"
  batch_norm_param {
    moving_average_fraction: 0.999
    eps: 0.001
  }
}
layer {
  name: "conv2_2/sep/scale"
  type: "Scale"
  bottom: "conv2_2/sep"
  top: "conv2_2/sep"
  param {
    lr_mult: 0
    decay_mult: 0
  }
  param {
    lr_mult: 0
    decay_mult: 0
  }
  scale_param {
    filler {
      type: "constant"
      value: 1
    }
    bias_term: true
    bias_filler {
      type: "constant"
      value: 0
    }
  }
}
layer {
  name: "conv2_2/sep_relu"
  type: "ReLU"
  bottom: "conv2_2/sep"
  top: "conv2_2/sep"
}
layer {
  name: "conv3_1/dw"
  type: "Convolution"
  bottom: "conv2_2/sep"
  top: "conv3_1/dw"
  param {
    lr_mult: 0
    decay_mult: 1
  }
  convolution_param {
    num_output: 128
    bias_term: false
    pad: 1
    kernel_size: 3
    group: 128
    stride: 1
    weight_filler {
      type: "gaussian"
      std: 0.01
    }
    engine: CAFFE
  }
}
layer {
  name: "conv3_1/dw/bn"
  type: "BatchNorm"
  bottom: "conv3_1/dw"
  top: "conv3_1/dw"
  batch_norm_param {
    moving_average_fraction: 0.999
    eps: 0.001
  }
}
layer {
  name: "conv3_1/dw/scale"
  type: "Scale"
  bottom: "conv3_1/dw"
  top: "conv3_1/dw"
  param {
    lr_mult: 0
    decay_mult: 0
  }
  param {
    lr_mult: 0
    decay_mult: 0
  }
  scale_param {
    filler {
      type: "constant"
      value: 1
    }
    bias_term: true
    bias_filler {
      type: "constant"
      value: 0
    }
  }
}
layer {
  name: "conv3_1/dw_relu"
  type: "ReLU"
  bottom: "conv3_1/dw"
  top: "conv3_1/dw"
}
layer {
  name: "conv3_1/sep"
  type: "Convolution"
  bottom: "conv3_1/dw"
  top: "conv3_1/sep"
  param {
    lr_mult: 0
    decay_mult: 1
  }
  convolution_param {
    num_output: 128
    bias_term: false
    pad: 0
    kernel_size: 1
    group: 1
    stride: 1
    weight_filler {
      type: "gaussian"
      std: 0.01
    }
    engine: DEFAULT
  }
}
layer {
  name: "conv3_1/sep/bn"
  type: "BatchNorm"
  bottom: "conv3_1/sep"
  top: "conv3_1/sep"
  batch_norm_param {
    moving_average_fraction: 0.999
    eps: 0.001
  }
}
layer {
  name: "conv3_1/sep/scale"
  type: "Scale"
  bottom: "conv3_1/sep"
  top: "conv3_1/sep"
  param {
    lr_mult: 0
    decay_mult: 0
  }
  param {
    lr_mult: 0
    decay_mult: 0
  }
  scale_param {
    filler {
      type: "constant"
      value: 1
    }
    bias_term: true
    bias_filler {
      type: "constant"
      value: 0
    }
  }
}
layer {
  name: "conv3_1/sep_relu"
  type: "ReLU"
  bottom: "conv3_1/sep"
  top: "conv3_1/sep"
}
layer {
  name: "conv3_2/dw"
  type: "Convolution"
  bottom: "conv3_1/sep"
  top: "conv3_2/dw"
  param {
    lr_mult: 0
    decay_mult: 1
  }
  convolution_param {
    num_output: 128
    bias_term: false
    pad: 1
    kernel_size: 3
    group: 128
    stride: 2
    weight_filler {
      type: "gaussian"
      std: 0.01
    }
    engine: CAFFE
  }
}
layer {
  name: "conv3_2/dw/bn"
  type: "BatchNorm"
  bottom: "conv3_2/dw"
  top: "conv3_2/dw"
  batch_norm_param {
    moving_average_fraction: 0.999
    eps: 0.001
  }
}
layer {
  name: "conv3_2/dw/scale"
  type: "Scale"
  bottom: "conv3_2/dw"
  top: "conv3_2/dw"
  param {
    lr_mult: 0
    decay_mult: 0
  }
  param {
    lr_mult: 0
    decay_mult: 0
  }
  scale_param {
    filler {
      type: "constant"
      value: 1
    }
    bias_term: true
    bias_filler {
      type: "constant"
      value: 0
    }
  }
}
layer {
  name: "conv3_2/dw_relu"
  type: "ReLU"
  bottom: "conv3_2/dw"
  top: "conv3_2/dw"
}
layer {
  name: "conv3_2/sep"
  type: "Convolution"
  bottom: "conv3_2/dw"
  top: "conv3_2/sep"
  param {
    lr_mult: 0
    decay_mult: 1
  }
  convolution_param {
    num_output: 256
    bias_term: false
    pad: 0
    kernel_size: 1
    group: 1
    stride: 1
    weight_filler {
      type: "gaussian"
      std: 0.01
    }
    engine: DEFAULT
  }
}
layer {
  name: "conv3_2/sep/bn"
  type: "BatchNorm"
  bottom: "conv3_2/sep"
  top: "conv3_2/sep"
  batch_norm_param {
    moving_average_fraction: 0.999
    eps: 0.001
  }
}
layer {
  name: "conv3_2/sep/scale"
  type: "Scale"
  bottom: "conv3_2/sep"
  top: "conv3_2/sep"
  param {
    lr_mult: 0
    decay_mult: 0
  }
  param {
    lr_mult: 0
    decay_mult: 0
  }
  scale_param {
    filler {
      type: "constant"
      value: 1
    }
    bias_term: true
    bias_filler {
      type: "constant"
      value: 0
    }
  }
}
layer {
  name: "conv3_2/sep_relu"
  type: "ReLU"
  bottom: "conv3_2/sep"
  top: "conv3_2/sep"
}
layer {
  name: "conv4_1/dw"
  type: "Convolution"
  bottom: "conv3_2/sep"
  top: "conv4_1/dw"
  param {
    lr_mult: 0
    decay_mult: 1
  }
  convolution_param {
    num_output: 256
    bias_term: false
    pad: 1
    kernel_size: 3
    group: 256
    stride: 1
    weight_filler {
      type: "gaussian"
      std: 0.01
    }
    engine: CAFFE
  }
}
layer {
  name: "conv4_1/dw/bn"
  type: "BatchNorm"
  bottom: "conv4_1/dw"
  top: "conv4_1/dw"
  batch_norm_param {
    moving_average_fraction: 0.999
    eps: 0.001
  }
}
layer {
  name: "conv4_1/dw/scale"
  type: "Scale"
  bottom: "conv4_1/dw"
  top: "conv4_1/dw"
  param {
    lr_mult: 0
    decay_mult: 0
  }
  param {
    lr_mult: 0
    decay_mult: 0
  }
  scale_param {
    filler {
      type: "constant"
      value: 1
    }
    bias_term: true
    bias_filler {
      type: "constant"
      value: 0
    }
  }
}
layer {
  name: "conv4_1/dw_relu"
  type: "ReLU"
  bottom: "conv4_1/dw"
  top: "conv4_1/dw"
}
layer {
  name: "conv4_1/sep"
  type: "Convolution"
  bottom: "conv4_1/dw"
  top: "conv4_1/sep"
  param {
    lr_mult: 0
    decay_mult: 1
  }
  convolution_param {
    num_output: 256
    bias_term: false
    pad: 0
    kernel_size: 1
    group: 1
    stride: 1
    weight_filler {
      type: "gaussian"
      std: 0.01
    }
    engine: DEFAULT
  }
}
layer {
  name: "conv4_1/sep/bn"
  type: "BatchNorm"
  bottom: "conv4_1/sep"
  top: "conv4_1/sep"
  batch_norm_param {
    moving_average_fraction: 0.999
    eps: 0.001
  }
}
layer {
  name: "conv4_1/sep/scale"
  type: "Scale"
  bottom: "conv4_1/sep"
  top: "conv4_1/sep"
  param {
    lr_mult: 0
    decay_mult: 0
  }
  param {
    lr_mult: 0
    decay_mult: 0
  }
  scale_param {
    filler {
      type: "constant"
      value: 1
    }
    bias_term: true
    bias_filler {
      type: "constant"
      value: 0
    }
  }
}
layer {
  name: "conv4_1/sep_relu"
  type: "ReLU"
  bottom: "conv4_1/sep"
  top: "conv4_1/sep"
}
layer {
  name: "conv4_2/dw"
  type: "Convolution"
  bottom: "conv4_1/sep"
  top: "conv4_2/dw"
  param {
    lr_mult: 1
    decay_mult: 1
  }
  convolution_param {
    num_output: 256
    bias_term: false
    pad: 1
    kernel_size: 3
    group: 256
    stride: 2
    weight_filler {
      type: "gaussian"
      std: 0.01
    }
    engine: CAFFE
  }
}
layer {
  name: "conv4_2/dw/bn"
  type: "BatchNorm"
  bottom: "conv4_2/dw"
  top: "conv4_2/dw"
  batch_norm_param {
    moving_average_fraction: 0.999
    eps: 0.001
  }
}
layer {
  name: "conv4_2/dw/scale"
  type: "Scale"
  bottom: "conv4_2/dw"
  top: "conv4_2/dw"
  param {
    lr_mult: 1
    decay_mult: 0
  }
  param {
    lr_mult: 1
    decay_mult: 0
  }
  scale_param {
    filler {
      type: "constant"
      value: 1
    }
    bias_term: true
    bias_filler {
      type: "constant"
      value: 0
    }
  }
}
layer {
  name: "conv4_2/dw_relu"
  type: "ReLU"
  bottom: "conv4_2/dw"
  top: "conv4_2/dw"
}
layer {
  name: "conv4_2/sep"
  type: "Convolution"
  bottom: "conv4_2/dw"
  top: "conv4_2/sep"
  param {
    lr_mult: 1
    decay_mult: 1
  }
  convolution_param {
    num_output: 512
    bias_term: false
    pad: 0
    kernel_size: 1
    group: 1
    stride: 1
    weight_filler {
      type: "gaussian"
      std: 0.01
    }
    engine: DEFAULT
  }
}
layer {
  name: "conv4_2/sep/bn"
  type: "BatchNorm"
  bottom: "conv4_2/sep"
  top: "conv4_2/sep"
  batch_norm_param {
    moving_average_fraction: 0.999
    eps: 0.001
  }
}
layer {
  name: "conv4_2/sep/scale"
  type: "Scale"
  bottom: "conv4_2/sep"
  top: "conv4_2/sep"
  param {
    lr_mult: 1
    decay_mult: 0
  }
  param {
    lr_mult: 1
    decay_mult: 0
  }
  scale_param {
    filler {
      type: "constant"
      value: 1
    }
    bias_term: true
    bias_filler {
      type: "constant"
      value: 0
    }
  }
}
layer {
  name: "conv4_2/sep_relu"
  type: "ReLU"
  bottom: "conv4_2/sep"
  top: "conv4_2/sep"
}
layer {
  name: "conv5_1/dw"
  type: "Convolution"
  bottom: "conv4_2/sep"
  top: "conv5_1/dw"
  param {
    lr_mult: 1
    decay_mult: 1
  }
  convolution_param {
    num_output: 512
    bias_term: false
    pad: 1
    kernel_size: 3
    group: 512
    stride: 1
    weight_filler {
      type: "gaussian"
      std: 0.01
    }
    engine: CAFFE
  }
}
layer {
  name: "conv5_1/dw/bn"
  type: "BatchNorm"
  bottom: "conv5_1/dw"
  top: "conv5_1/dw"
  batch_norm_param {
    moving_average_fraction: 0.999
    eps: 0.001
  }
}
layer {
  name: "conv5_1/dw/scale"
  type: "Scale"
  bottom: "conv5_1/dw"
  top: "conv5_1/dw"
  param {
    lr_mult: 1
    decay_mult: 0
  }
  param {
    lr_mult: 1
    decay_mult: 0
  }
  scale_param {
    filler {
      type: "constant"
      value: 1
    }
    bias_term: true
    bias_filler {
      type: "constant"
      value: 0
    }
  }
}
layer {
  name: "conv5_1/dw_relu"
  type: "ReLU"
  bottom: "conv5_1/dw"
  top: "conv5_1/dw"
}
layer {
  name: "conv5_1/sep"
  type: "Convolution"
  bottom: "conv5_1/dw"
  top: "conv5_1/sep"
  param {
    lr_mult: 1
    decay_mult: 1
  }
  convolution_param {
    num_output: 512
    bias_term: false
    pad: 0
    kernel_size: 1
    group: 1
    stride: 1
    weight_filler {
      type: "gaussian"
      std: 0.01
    }
    engine: DEFAULT
  }
}
layer {
  name: "conv5_1/sep/bn"
  type: "BatchNorm"
  bottom: "conv5_1/sep"
  top: "conv5_1/sep"
  batch_norm_param {
    moving_average_fraction: 0.999
    eps: 0.001
  }
}
layer {
  name: "conv5_1/sep/scale"
  type: "Scale"
  bottom: "conv5_1/sep"
  top: "conv5_1/sep"
  param {
    lr_mult: 1
    decay_mult: 0
  }
  param {
    lr_mult: 1
    decay_mult: 0
  }
  scale_param {
    filler {
      type: "constant"
      value: 1
    }
    bias_term: true
    bias_filler {
      type: "constant"
      value: 0
    }
  }
}
layer {
  name: "conv5_1/sep_relu"
  type: "ReLU"
  bottom: "conv5_1/sep"
  top: "conv5_1/sep"
}
layer {
  name: "conv5_2/dw"
  type: "Convolution"
  bottom: "conv5_1/sep"
  top: "conv5_2/dw"
  param {
    lr_mult: 1
    decay_mult: 1
  }
  convolution_param {
    num_output: 512
    bias_term: false
    pad: 1
    kernel_size: 3
    group: 512
    stride: 1
    weight_filler {
      type: "gaussian"
      std: 0.01
    }
    engine: CAFFE
  }
}
layer {
  name: "conv5_2/dw/bn"
  type: "BatchNorm"
  bottom: "conv5_2/dw"
  top: "conv5_2/dw"
  batch_norm_param {
    moving_average_fraction: 0.999
    eps: 0.001
  }
}
layer {
  name: "conv5_2/dw/scale"
  type: "Scale"
  bottom: "conv5_2/dw"
  top: "conv5_2/dw"
  param {
    lr_mult: 1
    decay_mult: 0
  }
  param {
    lr_mult: 1
    decay_mult: 0
  }
  scale_param {
    filler {
      type: "constant"
      value: 1
    }
    bias_term: true
    bias_filler {
      type: "constant"
      value: 0
    }
  }
}
layer {
  name: "conv5_2/dw_relu"
  type: "ReLU"
  bottom: "conv5_2/dw"
  top: "conv5_2/dw"
}
layer {
  name: "conv5_2/sep"
  type: "Convolution"
  bottom: "conv5_2/dw"
  top: "conv5_2/sep"
  param {
    lr_mult: 1
    decay_mult: 1
  }
  convolution_param {
    num_output: 512
    bias_term: false
    pad: 0
    kernel_size: 1
    group: 1
    stride: 1
    weight_filler {
      type: "gaussian"
      std: 0.01
    }
    engine: DEFAULT
  }
}
layer {
  name: "conv5_2/sep/bn"
  type: "BatchNorm"
  bottom: "conv5_2/sep"
  top: "conv5_2/sep"
  batch_norm_param {
    moving_average_fraction: 0.999
    eps: 0.001
  }
}
layer {
  name: "conv5_2/sep/scale"
  type: "Scale"
  bottom: "conv5_2/sep"
  top: "conv5_2/sep"
  param {
    lr_mult: 1
    decay_mult: 0
  }
  param {
    lr_mult: 1
    decay_mult: 0
  }
  scale_param {
    filler {
      type: "constant"
      value: 1
    }
    bias_term: true
    bias_filler {
      type: "constant"
      value: 0
    }
  }
}
layer {
  name: "conv5_2/sep_relu"
  type: "ReLU"
  bottom: "conv5_2/sep"
  top: "conv5_2/sep"
}
layer {
  name: "conv5_3/dw"
  type: "Convolution"
  bottom: "conv5_2/sep"
  top: "conv5_3/dw"
  param {
    lr_mult: 1
    decay_mult: 1
  }
  convolution_param {
    num_output: 512
    bias_term: false
    pad: 1
    kernel_size: 3
    group: 512
    stride: 1
    weight_filler {
      type: "gaussian"
      std: 0.01
    }
    engine: CAFFE
  }
}
layer {
  name: "conv5_3/dw/bn"
  type: "BatchNorm"
  bottom: "conv5_3/dw"
  top: "conv5_3/dw"
  batch_norm_param {
    moving_average_fraction: 0.999
    eps: 0.001
  }
}
layer {
  name: "conv5_3/dw/scale"
  type: "Scale"
  bottom: "conv5_3/dw"
  top: "conv5_3/dw"
  param {
    lr_mult: 1
    decay_mult: 0
  }
  param {
    lr_mult: 1
    decay_mult: 0
  }
  scale_param {
    filler {
      type: "constant"
      value: 1
    }
    bias_term: true
    bias_filler {
      type: "constant"
      value: 0
    }
  }
}
layer {
  name: "conv5_3/dw_relu"
  type: "ReLU"
  bottom: "conv5_3/dw"
  top: "conv5_3/dw"
}
layer {
  name: "conv5_3/sep"
  type: "Convolution"
  bottom: "conv5_3/dw"
  top: "conv5_3/sep"
  param {
    lr_mult: 1
    decay_mult: 1
  }
  convolution_param {
    num_output: 512
    bias_term: false
    pad: 0
    kernel_size: 1
    group: 1
    stride: 1
    weight_filler {
      type: "gaussian"
      std: 0.01
    }
    engine: DEFAULT
  }
}
layer {
  name: "conv5_3/sep/bn"
  type: "BatchNorm"
  bottom: "conv5_3/sep"
  top: "conv5_3/sep"
  batch_norm_param {
    moving_average_fraction: 0.999
    eps: 0.001
  }
}
layer {
  name: "conv5_3/sep/scale"
  type: "Scale"
  bottom: "conv5_3/sep"
  top: "conv5_3/sep"
  param {
    lr_mult: 1
    decay_mult: 0
  }
  param {
    lr_mult: 1
    decay_mult: 0
  }
  scale_param {
    filler {
      type: "constant"
      value: 1
    }
    bias_term: true
    bias_filler {
      type: "constant"
      value: 0
    }
  }
}
layer {
  name: "conv5_3/sep_relu"
  type: "ReLU"
  bottom: "conv5_3/sep"
  top: "conv5_3/sep"
}
layer {
  name: "conv5_4/dw"
  type: "Convolution"
  bottom: "conv5_3/sep"
  top: "conv5_4/dw"
  param {
    lr_mult: 1
    decay_mult: 1
  }
  convolution_param {
    num_output: 512
    bias_term: false
    pad: 1
    kernel_size: 3
    group: 512
    stride: 1
    weight_filler {
      type: "gaussian"
      std: 0.01
    }
    engine: CAFFE
  }
}
layer {
  name: "conv5_4/dw/bn"
  type: "BatchNorm"
  bottom: "conv5_4/dw"
  top: "conv5_4/dw"
  batch_norm_param {
    moving_average_fraction: 0.999
    eps: 0.001
  }
}
layer {
  name: "conv5_4/dw/scale"
  type: "Scale"
  bottom: "conv5_4/dw"
  top: "conv5_4/dw"
  param {
    lr_mult: 1
    decay_mult: 0
  }
  param {
    lr_mult: 1
    decay_mult: 0
  }
  scale_param {
    filler {
      type: "constant"
      value: 1
    }
    bias_term: true
    bias_filler {
      type: "constant"
      value: 0
    }
  }
}
layer {
  name: "conv5_4/dw_relu"
  type: "ReLU"
  bottom: "conv5_4/dw"
  top: "conv5_4/dw"
}
layer {
  name: "conv5_4/sep"
  type: "Convolution"
  bottom: "conv5_4/dw"
  top: "conv5_4/sep"
  param {
    lr_mult: 1
    decay_mult: 1
  }
  convolution_param {
    num_output: 512
    bias_term: false
    pad: 0
    kernel_size: 1
    group: 1
    stride: 1
    weight_filler {
      type: "gaussian"
      std: 0.01
    }
    engine: DEFAULT
  }
}
layer {
  name: "conv5_4/sep/bn"
  type: "BatchNorm"
  bottom: "conv5_4/sep"
  top: "conv5_4/sep"
  batch_norm_param {
    moving_average_fraction: 0.999
    eps: 0.001
  }
}
layer {
  name: "conv5_4/sep/scale"
  type: "Scale"
  bottom: "conv5_4/sep"
  top: "conv5_4/sep"
  param {
    lr_mult: 1
    decay_mult: 0
  }
  param {
    lr_mult: 1
    decay_mult: 0
  }
  scale_param {
    filler {
      type: "constant"
      value: 1
    }
    bias_term: true
    bias_filler {
      type: "constant"
      value: 0
    }
  }
}
layer {
  name: "conv5_4/sep_relu"
  type: "ReLU"
  bottom: "conv5_4/sep"
  top: "conv5_4/sep"
}
layer {
  name: "conv5_5/dw"
  type: "Convolution"
  bottom: "conv5_4/sep"
  top: "conv5_5/dw"
  param {
    lr_mult: 1
    decay_mult: 1
  }
  convolution_param {
    num_output: 512
    bias_term: false
    pad: 1
    kernel_size: 3
    group: 512
    stride: 1
    weight_filler {
      type: "gaussian"
      std: 0.01
    }
    engine: CAFFE
  }
}
layer {
  name: "conv5_5/dw/bn"
  type: "BatchNorm"
  bottom: "conv5_5/dw"
  top: "conv5_5/dw"
  batch_norm_param {
    moving_average_fraction: 0.999
    eps: 0.001
  }
}
layer {
  name: "conv5_5/dw/scale"
  type: "Scale"
  bottom: "conv5_5/dw"
  top: "conv5_5/dw"
  param {
    lr_mult: 1
    decay_mult: 0
  }
  param {
    lr_mult: 1
    decay_mult: 0
  }
  scale_param {
    filler {
      type: "constant"
      value: 1
    }
    bias_term: true
    bias_filler {
      type: "constant"
      value: 0
    }
  }
}
layer {
  name: "conv5_5/dw_relu"
  type: "ReLU"
  bottom: "conv5_5/dw"
  top: "conv5_5/dw"
}
layer {
  name: "conv5_5/sep"
  type: "Convolution"
  bottom: "conv5_5/dw"
  top: "conv5_5/sep"
  param {
    lr_mult: 1
    decay_mult: 1
  }
  convolution_param {
    num_output: 512
    bias_term: false
    pad: 0
    kernel_size: 1
    group: 1
    stride: 1
    weight_filler {
      type: "gaussian"
      std: 0.01
    }
    engine: DEFAULT
  }
}
layer {
  name: "conv5_5/sep/bn"
  type: "BatchNorm"
  bottom: "conv5_5/sep"
  top: "conv5_5/sep"
  batch_norm_param {
    moving_average_fraction: 0.999
    eps: 0.001
  }
}
layer {
  name: "conv5_5/sep/scale"
  type: "Scale"
  bottom: "conv5_5/sep"
  top: "conv5_5/sep"
  param {
    lr_mult: 1
    decay_mult: 0
  }
  param {
    lr_mult: 1
    decay_mult: 0
  }
  scale_param {
    filler {
      type: "constant"
      value: 1
    }
    bias_term: true
    bias_filler {
      type: "constant"
      value: 0
    }
  }
}
layer {
  name: "conv5_5/sep_relu"
  type: "ReLU"
  bottom: "conv5_5/sep"
  top: "conv5_5/sep"
}
layer {
  name: "conv5_6/dw"
  type: "Convolution"
  bottom: "conv5_5/sep"
  top: "conv5_6/dw"
  param {
    lr_mult: 1
    decay_mult: 1
  }
  convolution_param {
    num_output: 512
    bias_term: false
    pad: 1
    kernel_size: 3
    group: 512
    stride: 2
    weight_filler {
      type: "gaussian"
      std: 0.01
    }
    engine: CAFFE
  }
}
layer {
  name: "conv5_6/dw/bn"
  type: "BatchNorm"
  bottom: "conv5_6/dw"
  top: "conv5_6/dw"
  batch_norm_param {
    moving_average_fraction: 0.999
    eps: 0.001
  }
}
layer {
  name: "conv5_6/dw/scale"
  type: "Scale"
  bottom: "conv5_6/dw"
  top: "conv5_6/dw"
  param {
    lr_mult: 1
    decay_mult: 0
  }
  param {
    lr_mult: 1
    decay_mult: 0
  }
  scale_param {
    filler {
      type: "constant"
      value: 1
    }
    bias_term: true
    bias_filler {
      type: "constant"
      value: 0
    }
  }
}
layer {
  name: "conv5_6/dw_relu"
  type: "ReLU"
  bottom: "conv5_6/dw"
  top: "conv5_6/dw"
}
layer {
  name: "conv5_6/sep"
  type: "Convolution"
  bottom: "conv5_6/dw"
  top: "conv5_6/sep"
  param {
    lr_mult: 1
    decay_mult: 1
  }
  convolution_param {
    num_output: 1024
    bias_term: false
    pad: 0
    kernel_size: 1
    group: 1
    stride: 1
    weight_filler {
      type: "gaussian"
      std: 0.01
    }
    engine: DEFAULT
  }
}
layer {
  name: "conv5_6/sep/bn"
  type: "BatchNorm"
  bottom: "conv5_6/sep"
  top: "conv5_6/sep"
  batch_norm_param {
    moving_average_fraction: 0.999
    eps: 0.001
  }
}
layer {
  name: "conv5_6/sep/scale"
  type: "Scale"
  bottom: "conv5_6/sep"
  top: "conv5_6/sep"
  param {
    lr_mult: 1
    decay_mult: 0
  }
  param {
    lr_mult: 1
    decay_mult: 0
  }
  scale_param {
    filler {
      type: "constant"
      value: 1
    }
    bias_term: true
    bias_filler {
      type: "constant"
      value: 0
    }
  }
}
layer {
  name: "conv5_6/sep_relu"
  type: "ReLU"
  bottom: "conv5_6/sep"
  top: "conv5_6/sep"
}
layer {
  name: "conv6/dw"
  type: "Convolution"
  bottom: "conv5_6/sep"
  top: "conv6/dw"
  param {
    lr_mult: 1
    decay_mult: 1
  }
  convolution_param {
    num_output: 1024
    bias_term: false
    pad: 1
    kernel_size: 3
    group: 1024
    stride: 1
    weight_filler {
      type: "gaussian"
      std: 0.01
    }
    engine: CAFFE
  }
}
layer {
  name: "conv6/dw/bn"
  type: "BatchNorm"
  bottom: "conv6/dw"
  top: "conv6/dw"
  batch_norm_param {
    moving_average_fraction: 0.999
    eps: 0.001
  }
}
layer {
  name: "conv6/dw/scale"
  type: "Scale"
  bottom: "conv6/dw"
  top: "conv6/dw"
  param {
    lr_mult: 1
    decay_mult: 0
  }
  param {
    lr_mult: 1
    decay_mult: 0
  }
  scale_param {
    filler {
      type: "constant"
      value: 1
    }
    bias_term: true
    bias_filler {
      type: "constant"
      value: 0
    }
  }
}
layer {
  name: "conv6/dw_relu"
  type: "ReLU"
  bottom: "conv6/dw"
  top: "conv6/dw"
}
layer {
  name: "conv6/sep"
  type: "Convolution"
  bottom: "conv6/dw"
  top: "conv6/sep"
  param {
    lr_mult: 1
    decay_mult: 1
  }
  convolution_param {
    num_output: 1024
    bias_term: false
    pad: 0
    kernel_size: 1
    group: 1
    stride: 1
    weight_filler {
      type: "gaussian"
      std: 0.01
    }
    engine: DEFAULT
  }
}
layer {
  name: "conv6/sep/bn"
  type: "BatchNorm"
  bottom: "conv6/sep"
  top: "conv6/sep"
  batch_norm_param {
    moving_average_fraction: 0.999
    eps: 0.001
  }
}
layer {
  name: "conv6/sep/scale"
  type: "Scale"
  bottom: "conv6/sep"
  top: "conv6/sep"
  param {
    lr_mult: 1
    decay_mult: 0
  }
  param {
    lr_mult: 1
    decay_mult: 0
  }
  scale_param {
    filler {
      type: "constant"
      value: 1
    }
    bias_term: true
    bias_filler {
      type: "constant"
      value: 0
    }
  }
}
layer {
  name: "conv6/sep_relu"
  type: "ReLU"
  bottom: "conv6/sep"
  top: "conv6/sep"
}
layer {
  name: "conv7_1"
  type: "Convolution"
  bottom: "conv6/sep"
  top: "conv7_1"
  param {
    lr_mult: 1
    decay_mult: 1
  }
  convolution_param {
    num_output: 256
    bias_term: false
    pad: 0
    kernel_size: 1
    group: 1
    stride: 1
    weight_filler {
      type: "gaussian"
      std: 0.01
    }
    engine: DEFAULT
  }
}
layer {
  name: "conv7_1_bn"
  type: "BatchNorm"
  bottom: "conv7_1"
  top: "conv7_1"
  batch_norm_param {
    moving_average_fraction: 0.999
    eps: 0.001
  }
}
layer {
  name: "conv7_1_scale"
  type: "Scale"
  bottom: "conv7_1"
  top: "conv7_1"
  param {
    lr_mult: 1
    decay_mult: 0
  }
  param {
    lr_mult: 1
    decay_mult: 0
  }
  scale_param {
    filler {
      type: "constant"
      value: 1
    }
    bias_term: true
    bias_filler {
      type: "constant"
      value: 0
    }
  }
}
layer {
  name: "conv7_1_relu"
  type: "ReLU"
  bottom: "conv7_1"
  top: "conv7_1"
}
layer {
  name: "conv7_2"
  type: "Convolution"
  bottom: "conv
I0621 17:36:48.021564  7797 layer_factory.hpp:77] Creating layer data
I0621 17:36:48.021711  7797 net.cpp:100] Creating Layer data
I0621 17:36:48.021725  7797 net.cpp:408] data -> data
I0621 17:36:48.021755  7797 net.cpp:408] data -> label
I0621 17:36:48.022527  7803 db_lmdb.cpp:35] Opened lmdb examples/VOC0712/VOC0712_trainval_lmdb
I0621 17:36:48.039381  7797 annotated_data_layer.cpp:62] output data size: 16,3,300,300
I0621 17:36:48.068943  7797 net.cpp:150] Setting up data
I0621 17:36:48.068997  7797 net.cpp:157] Top shape: 16 3 300 300 (4320000)
I0621 17:36:48.069012  7797 net.cpp:157] Top shape: 1 1 1 8 (8)
I0621 17:36:48.069022  7797 net.cpp:165] Memory required for data: 17280032
I0621 17:36:48.069039  7797 layer_factory.hpp:77] Creating layer data_data_0_split
I0621 17:36:48.069061  7797 net.cpp:100] Creating Layer data_data_0_split
I0621 17:36:48.069074  7797 net.cpp:434] data_data_0_split <- data
I0621 17:36:48.069097  7797 net.cpp:408] data_data_0_split -> data_data_0_split_0
I0621 17:36:48.069116  7797 net.cpp:408] data_data_0_split -> data_data_0_split_1
I0621 17:36:48.069135  7797 net.cpp:408] data_data_0_split -> data_data_0_split_2
I0621 17:36:48.069151  7797 net.cpp:408] data_data_0_split -> data_data_0_split_3
I0621 17:36:48.069166  7797 net.cpp:408] data_data_0_split -> data_data_0_split_4
I0621 17:36:48.069180  7797 net.cpp:408] data_data_0_split -> data_data_0_split_5
I0621 17:36:48.069193  7797 net.cpp:408] data_data_0_split -> data_data_0_split_6
I0621 17:36:48.069313  7797 net.cpp:150] Setting up data_data_0_split
I0621 17:36:48.069329  7797 net.cpp:157] Top shape: 16 3 300 300 (4320000)
I0621 17:36:48.069342  7797 net.cpp:157] Top shape: 16 3 300 300 (4320000)
I0621 17:36:48.069355  7797 net.cpp:157] Top shape: 16 3 300 300 (4320000)
I0621 17:36:48.069365  7797 net.cpp:157] Top shape: 16 3 300 300 (4320000)
I0621 17:36:48.069377  7797 net.cpp:157] Top shape: 16 3 300 300 (4320000)
I0621 17:36:48.069388  7797 net.cpp:157] Top shape: 16 3 300 300 (4320000)
I0621 17:36:48.069399  7797 net.cpp:157] Top shape: 16 3 300 300 (4320000)
I0621 17:36:48.069409  7797 net.cpp:165] Memory required for data: 138240032
I0621 17:36:48.069419  7797 layer_factory.hpp:77] Creating layer conv1
I0621 17:36:48.069444  7797 net.cpp:100] Creating Layer conv1
I0621 17:36:48.069456  7797 net.cpp:434] conv1 <- data_data_0_split_0
I0621 17:36:48.069470  7797 net.cpp:408] conv1 -> conv1
I0621 17:36:48.105698  7804 blocking_queue.cpp:50] Waiting for data
I0621 17:36:48.332191  7797 net.cpp:150] Setting up conv1
I0621 17:36:48.332217  7797 net.cpp:157] Top shape: 16 32 150 150 (11520000)
I0621 17:36:48.332221  7797 net.cpp:165] Memory required for data: 184320032
I0621 17:36:48.332237  7797 layer_factory.hpp:77] Creating layer conv1/bn
I0621 17:36:48.332250  7797 net.cpp:100] Creating Layer conv1/bn
I0621 17:36:48.332257  7797 net.cpp:434] conv1/bn <- conv1
I0621 17:36:48.332262  7797 net.cpp:395] conv1/bn -> conv1 (in-place)
I0621 17:36:48.333003  7797 net.cpp:150] Setting up conv1/bn
I0621 17:36:48.333015  7797 net.cpp:157] Top shape: 16 32 150 150 (11520000)
I0621 17:36:48.333019  7797 net.cpp:165] Memory required for data: 230400032
I0621 17:36:48.333031  7797 layer_factory.hpp:77] Creating layer conv1/scale
I0621 17:36:48.333042  7797 net.cpp:100] Creating Layer conv1/scale
I0621 17:36:48.333047  7797 net.cpp:434] conv1/scale <- conv1
I0621 17:36:48.333052  7797 net.cpp:395] conv1/scale -> conv1 (in-place)
I0621 17:36:48.333097  7797 layer_factory.hpp:77] Creating layer conv1/scale
I0621 17:36:48.333240  7797 net.cpp:150] Setting up conv1/scale
I0621 17:36:48.333250  7797 net.cpp:157] Top shape: 16 32 150 150 (11520000)
I0621 17:36:48.333252  7797 net.cpp:165] Memory required for data: 276480032
I0621 17:36:48.333261  7797 layer_factory.hpp:77] Creating layer conv1_relu
I0621 17:36:48.333266  7797 net.cpp:100] Creating Layer conv1_relu
I0621 17:36:48.333269  7797 net.cpp:434] conv1_relu <- conv1
I0621 17:36:48.333274  7797 net.cpp:395] conv1_relu -> conv1 (in-place)
I0621 17:36:48.333452  7797 net.cpp:150] Setting up conv1_relu
I0621 17:36:48.333462  7797 net.cpp:157] Top shape: 16 32 150 150 (11520000)
I0621 17:36:48.333465  7797 net.cpp:165] Memory required for data: 322560032
I0621 17:36:48.333469  7797 layer_factory.hpp:77] Creating layer conv2_1/dw
I0621 17:36:48.333479  7797 net.cpp:100] Creating Layer conv2_1/dw
I0621 17:36:48.333482  7797 net.cpp:434] conv2_1/dw <- conv1
I0621 17:36:48.333487  7797 net.cpp:408] conv2_1/dw -> conv2_1/dw
I0621 17:36:48.333678  7797 net.cpp:150] Setting up conv2_1/dw
I0621 17:36:48.333688  7797 net.cpp:157] Top shape: 16 32 150 150 (11520000)
I0621 17:36:48.333690  7797 net.cpp:165] Memory required for data: 368640032
I0621 17:36:48.333695  7797 layer_factory.hpp:77] Creating layer conv2_1/dw/bn
I0621 17:36:48.333700  7797 net.cpp:100] Creating Layer conv2_1/dw/bn
I0621 17:36:48.333703  7797 net.cpp:434] conv2_1/dw/bn <- conv2_1/dw
I0621 17:36:48.333708  7797 net.cpp:395] conv2_1/dw/bn -> conv2_1/dw (in-place)
I0621 17:36:48.333899  7797 net.cpp:150] Setting up conv2_1/dw/bn
I0621 17:36:48.333907  7797 net.cpp:157] Top shape: 16 32 150 150 (11520000)
I0621 17:36:48.333910  7797 net.cpp:165] Memory required for data: 414720032
I0621 17:36:48.333920  7797 layer_factory.hpp:77] Creating layer conv2_1/dw/scale
I0621 17:36:48.333930  7797 net.cpp:100] Creating Layer conv2_1/dw/scale
I0621 17:36:48.333935  7797 net.cpp:434] conv2_1/dw/scale <- conv2_1/dw
I0621 17:36:48.333940  7797 net.cpp:395] conv2_1/dw/scale -> conv2_1/dw (in-place)
I0621 17:36:48.333997  7797 layer_factory.hpp:77] Creating layer conv2_1/dw/scale
I0621 17:36:48.334133  7797 net.cpp:150] Setting up conv2_1/dw/scale
I0621 17:36:48.334142  7797 net.cpp:157] Top shape: 16 32 150 150 (11520000)
I0621 17:36:48.334146  7797 net.cpp:165] Memory required for data: 460800032
I0621 17:36:48.334151  7797 layer_factory.hpp:77] Creating layer conv2_1/dw_relu
I0621 17:36:48.334156  7797 net.cpp:100] Creating Layer conv2_1/dw_relu
I0621 17:36:48.334159  7797 net.cpp:434] conv2_1/dw_relu <- conv2_1/dw
I0621 17:36:48.334163  7797 net.cpp:395] conv2_1/dw_relu -> conv2_1/dw (in-place)
I0621 17:36:48.334807  7797 net.cpp:150] Setting up conv2_1/dw_relu
I0621 17:36:48.334820  7797 net.cpp:157] Top shape: 16 32 150 150 (11520000)
I0621 17:36:48.334823  7797 net.cpp:165] Memory required for data: 506880032
I0621 17:36:48.334826  7797 layer_factory.hpp:77] Creating layer conv2_1/sep
I0621 17:36:48.334836  7797 net.cpp:100] Creating Layer conv2_1/sep
I0621 17:36:48.334839  7797 net.cpp:434] conv2_1/sep <- conv2_1/dw
I0621 17:36:48.334844  7797 net.cpp:408] conv2_1/sep -> conv2_1/sep
I0621 17:36:48.336546  7797 net.cpp:150] Setting up conv2_1/sep
I0621 17:36:48.336560  7797 net.cpp:157] Top shape: 16 64 150 150 (23040000)
I0621 17:36:48.336562  7797 net.cpp:165] Memory required for data: 599040032
I0621 17:36:48.336568  7797 layer_factory.hpp:77] Creating layer conv2_1/sep/bn
I0621 17:36:48.336573  7797 net.cpp:100] Creating Layer conv2_1/sep/bn
I0621 17:36:48.336578  7797 net.cpp:434] conv2_1/sep/bn <- conv2_1/sep
I0621 17:36:48.336583  7797 net.cpp:395] conv2_1/sep/bn -> conv2_1/sep (in-place)
I0621 17:36:48.336787  7797 net.cpp:150] Setting up conv2_1/sep/bn
I0621 17:36:48.336796  7797 net.cpp:157] Top shape: 16 64 150 150 (23040000)
I0621 17:36:48.336799  7797 net.cpp:165] Memory required for data: 691200032
I0621 17:36:48.336807  7797 layer_factory.hpp:77] Creating layer conv2_1/sep/scale
I0621 17:36:48.336812  7797 net.cpp:100] Creating Layer conv2_1/sep/scale
I0621 17:36:48.336815  7797 net.cpp:434] conv2_1/sep/scale <- conv2_1/sep
I0621 17:36:48.336820  7797 net.cpp:395] conv2_1/sep/scale -> conv2_1/sep (in-place)
I0621 17:36:48.336858  7797 layer_factory.hpp:77] Creating layer conv2_1/sep/scale
I0621 17:36:48.336994  7797 net.cpp:150] Setting up conv2_1/sep/scale
I0621 17:36:48.337004  7797 net.cpp:157] Top shape: 16 64 150 150 (23040000)
I0621 17:36:48.337007  7797 net.cpp:165] Memory required for data: 783360032
I0621 17:36:48.337016  7797 layer_factory.hpp:77] Creating layer conv2_1/sep_relu
I0621 17:36:48.337021  7797 net.cpp:100] Creating Layer conv2_1/sep_relu
I0621 17:36:48.337024  7797 net.cpp:434] conv2_1/sep_relu <- conv2_1/sep
I0621 17:36:48.337028  7797 net.cpp:395] conv2_1/sep_relu -> conv2_1/sep (in-place)
I0621 17:36:48.337663  7797 net.cpp:150] Setting up conv2_1/sep_relu
I0621 17:36:48.337676  7797 net.cpp:157] Top shape: 16 64 150 150 (23040000)
I0621 17:36:48.337678  7797 net.cpp:165] Memory required for data: 875520032
I0621 17:36:48.337682  7797 layer_factory.hpp:77] Creating layer conv2_2/dw
I0621 17:36:48.337690  7797 net.cpp:100] Creating Layer conv2_2/dw
I0621 17:36:48.337693  7797 net.cpp:434] conv2_2/dw <- conv2_1/sep
I0621 17:36:48.337699  7797 net.cpp:408] conv2_2/dw -> conv2_2/dw
I0621 17:36:48.337895  7797 net.cpp:150] Setting up conv2_2/dw
I0621 17:36:48.337903  7797 net.cpp:157] Top shape: 16 64 75 75 (5760000)
I0621 17:36:48.337906  7797 net.cpp:165] Memory required for data: 898560032
I0621 17:36:48.337911  7797 layer_factory.hpp:77] Creating layer conv2_2/dw/bn
I0621 17:36:48.337916  7797 net.cpp:100] Creating Layer conv2_2/dw/bn
I0621 17:36:48.337919  7797 net.cpp:434] conv2_2/dw/bn <- conv2_2/dw
I0621 17:36:48.337924  7797 net.cpp:395] conv2_2/dw/bn -> conv2_2/dw (in-place)
I0621 17:36:48.338625  7797 net.cpp:150] Setting up conv2_2/dw/bn
I0621 17:36:48.338637  7797 net.cpp:157] Top shape: 16 64 75 75 (5760000)
I0621 17:36:48.338640  7797 net.cpp:165] Memory required for data: 921600032
I0621 17:36:48.338649  7797 layer_factory.hpp:77] Creating layer conv2_2/dw/scale
I0621 17:36:48.338670  7797 net.cpp:100] Creating Layer conv2_2/dw/scale
I0621 17:36:48.338673  7797 net.cpp:434] conv2_2/dw/scale <- conv2_2/dw
I0621 17:36:48.338680  7797 net.cpp:395] conv2_2/dw/scale -> conv2_2/dw (in-place)
I0621 17:36:48.338721  7797 layer_factory.hpp:77] Creating layer conv2_2/dw/scale
I0621 17:36:48.338838  7797 net.cpp:150] Setting up conv2_2/dw/scale
I0621 17:36:48.338846  7797 net.cpp:157] Top shape: 16 64 75 75 (5760000)
I0621 17:36:48.338850  7797 net.cpp:165] Memory required for data: 944640032
I0621 17:36:48.338855  7797 layer_factory.hpp:77] Creating layer conv2_2/dw_relu
I0621 17:36:48.338860  7797 net.cpp:100] Creating Layer conv2_2/dw_relu
I0621 17:36:48.338863  7797 net.cpp:434] conv2_2/dw_relu <- conv2_2/dw
I0621 17:36:48.338867  7797 net.cpp:395] conv2_2/dw_relu -> conv2_2/dw (in-place)
I0621 17:36:48.339043  7797 net.cpp:150] Setting up conv2_2/dw_relu
I0621 17:36:48.339052  7797 net.cpp:157] Top shape: 16 64 75 75 (5760000)
I0621 17:36:48.339056  7797 net.cpp:165] Memory required for data: 967680032
I0621 17:36:48.339058  7797 layer_factory.hpp:77] Creating layer conv2_2/sep
I0621 17:36:48.339066  7797 net.cpp:100] Creating Layer conv2_2/sep
I0621 17:36:48.339069  7797 net.cpp:434] conv2_2/sep <- conv2_2/dw
I0621 17:36:48.339074  7797 net.cpp:408] conv2_2/sep -> conv2_2/sep
I0621 17:36:48.341259  7797 net.cpp:150] Setting up conv2_2/sep
I0621 17:36:48.341271  7797 net.cpp:157] Top shape: 16 128 75 75 (11520000)
I0621 17:36:48.341274  7797 net.cpp:165] Memory required for data: 1013760032
I0621 17:36:48.341279  7797 layer_factory.hpp:77] Creating layer conv2_2/sep/bn
I0621 17:36:48.341285  7797 net.cpp:100] Creating Layer conv2_2/sep/bn
I0621 17:36:48.341289  7797 net.cpp:434] conv2_2/sep/bn <- conv2_2/sep
I0621 17:36:48.341294  7797 net.cpp:395] conv2_2/sep/bn -> conv2_2/sep (in-place)
I0621 17:36:48.341482  7797 net.cpp:150] Setting up conv2_2/sep/bn
I0621 17:36:48.341490  7797 net.cpp:157] Top shape: 16 128 75 75 (11520000)
I0621 17:36:48.341493  7797 net.cpp:165] Memory required for data: 1059840032
I0621 17:36:48.341501  7797 layer_factory.hpp:77] Creating layer conv2_2/sep/scale
I0621 17:36:48.341507  7797 net.cpp:100] Creating Layer conv2_2/sep/scale
I0621 17:36:48.341511  7797 net.cpp:434] conv2_2/sep/scale <- conv2_2/sep
I0621 17:36:48.341516  7797 net.cpp:395] conv2_2/sep/scale -> conv2_2/sep (in-place)
I0621 17:36:48.341552  7797 layer_factory.hpp:77] Creating layer conv2_2/sep/scale
I0621 17:36:48.341662  7797 net.cpp:150] Setting up conv2_2/sep/scale
I0621 17:36:48.341670  7797 net.cpp:157] Top shape: 16 128 75 75 (11520000)
I0621 17:36:48.341673  7797 net.cpp:165] Memory required for data: 1105920032
I0621 17:36:48.341680  7797 layer_factory.hpp:77] Creating layer conv2_2/sep_relu
I0621 17:36:48.341684  7797 net.cpp:100] Creating Layer conv2_2/sep_relu
I0621 17:36:48.341687  7797 net.cpp:434] conv2_2/sep_relu <- conv2_2/sep
I0621 17:36:48.341691  7797 net.cpp:395] conv2_2/sep_relu -> conv2_2/sep (in-place)
I0621 17:36:48.342373  7797 net.cpp:150] Setting up conv2_2/sep_relu
I0621 17:36:48.342386  7797 net.cpp:157] Top shape: 16 128 75 75 (11520000)
I0621 17:36:48.342388  7797 net.cpp:165] Memory required for data: 1152000032
I0621 17:36:48.342391  7797 layer_factory.hpp:77] Creating layer conv3_1/dw
I0621 17:36:48.342401  7797 net.cpp:100] Creating Layer conv3_1/dw
I0621 17:36:48.342403  7797 net.cpp:434] conv3_1/dw <- conv2_2/sep
I0621 17:36:48.342409  7797 net.cpp:408] conv3_1/dw -> conv3_1/dw
I0621 17:36:48.342612  7797 net.cpp:150] Setting up conv3_1/dw
I0621 17:36:48.342619  7797 net.cpp:157] Top shape: 16 128 75 75 (11520000)
I0621 17:36:48.342622  7797 net.cpp:165] Memory required for data: 1198080032
I0621 17:36:48.342628  7797 layer_factory.hpp:77] Creating layer conv3_1/dw/bn
I0621 17:36:48.342633  7797 net.cpp:100] Creating Layer conv3_1/dw/bn
I0621 17:36:48.342635  7797 net.cpp:434] conv3_1/dw/bn <- conv3_1/dw
I0621 17:36:48.342639  7797 net.cpp:395] conv3_1/dw/bn -> conv3_1/dw (in-place)
I0621 17:36:48.342825  7797 net.cpp:150] Setting up conv3_1/dw/bn
I0621 17:36:48.342844  7797 net.cpp:157] Top shape: 16 128 75 75 (11520000)
I0621 17:36:48.342847  7797 net.cpp:165] Memory required for data: 1244160032
I0621 17:36:48.342859  7797 layer_factory.hpp:77] Creating layer conv3_1/dw/scale
I0621 17:36:48.342867  7797 net.cpp:100] Creating Layer conv3_1/dw/scale
I0621 17:36:48.342870  7797 net.cpp:434] conv3_1/dw/scale <- conv3_1/dw
I0621 17:36:48.342875  7797 net.cpp:395] conv3_1/dw/scale -> conv3_1/dw (in-place)
I0621 17:36:48.342916  7797 layer_factory.hpp:77] Creating layer conv3_1/dw/scale
I0621 17:36:48.343027  7797 net.cpp:150] Setting up conv3_1/dw/scale
I0621 17:36:48.343034  7797 net.cpp:157] Top shape: 16 128 75 75 (11520000)
I0621 17:36:48.343037  7797 net.cpp:165] Memory required for data: 1290240032
I0621 17:36:48.343044  7797 layer_factory.hpp:77] Creating layer conv3_1/dw_relu
I0621 17:36:48.343049  7797 net.cpp:100] Creating Layer conv3_1/dw_relu
I0621 17:36:48.343051  7797 net.cpp:434] conv3_1/dw_relu <- conv3_1/dw
I0621 17:36:48.343056  7797 net.cpp:395] conv3_1/dw_relu -> conv3_1/dw (in-place)
I0621 17:36:48.343228  7797 net.cpp:150] Setting up conv3_1/dw_relu
I0621 17:36:48.343237  7797 net.cpp:157] Top shape: 16 128 75 75 (11520000)
I0621 17:36:48.343240  7797 net.cpp:165] Memory required for data: 1336320032
I0621 17:36:48.343243  7797 layer_factory.hpp:77] Creating layer conv3_1/sep
I0621 17:36:48.343250  7797 net.cpp:100] Creating Layer conv3_1/sep
I0621 17:36:48.343253  7797 net.cpp:434] conv3_1/sep <- conv3_1/dw
I0621 17:36:48.343260  7797 net.cpp:408] conv3_1/sep -> conv3_1/sep
I0621 17:36:48.345773  7797 net.cpp:150] Setting up conv3_1/sep
I0621 17:36:48.345788  7797 net.cpp:157] Top shape: 16 128 75 75 (11520000)
I0621 17:36:48.345790  7797 net.cpp:165] Memory required for data: 1382400032
I0621 17:36:48.345796  7797 layer_factory.hpp:77] Creating layer conv3_1/sep/bn
I0621 17:36:48.345803  7797 net.cpp:100] Creating Layer conv3_1/sep/bn
I0621 17:36:48.345805  7797 net.cpp:434] conv3_1/sep/bn <- conv3_1/sep
I0621 17:36:48.345811  7797 net.cpp:395] conv3_1/sep/bn -> conv3_1/sep (in-place)
I0621 17:36:48.345999  7797 net.cpp:150] Setting up conv3_1/sep/bn
I0621 17:36:48.346006  7797 net.cpp:157] Top shape: 16 128 75 75 (11520000)
I0621 17:36:48.346009  7797 net.cpp:165] Memory required for data: 1428480032
I0621 17:36:48.346017  7797 layer_factory.hpp:77] Creating layer conv3_1/sep/scale
I0621 17:36:48.346024  7797 net.cpp:100] Creating Layer conv3_1/sep/scale
I0621 17:36:48.346026  7797 net.cpp:434] conv3_1/sep/scale <- conv3_1/sep
I0621 17:36:48.346031  7797 net.cpp:395] conv3_1/sep/scale -> conv3_1/sep (in-place)
I0621 17:36:48.346070  7797 layer_factory.hpp:77] Creating layer conv3_1/sep/scale
I0621 17:36:48.346181  7797 net.cpp:150] Setting up conv3_1/sep/scale
I0621 17:36:48.346189  7797 net.cpp:157] Top shape: 16 128 75 75 (11520000)
I0621 17:36:48.346191  7797 net.cpp:165] Memory required for data: 1474560032
I0621 17:36:48.346197  7797 layer_factory.hpp:77] Creating layer conv3_1/sep_relu
I0621 17:36:48.346204  7797 net.cpp:100] Creating Layer conv3_1/sep_relu
I0621 17:36:48.346210  7797 net.cpp:434] conv3_1/sep_relu <- conv3_1/sep
I0621 17:36:48.346216  7797 net.cpp:395] conv3_1/sep_relu -> conv3_1/sep (in-place)
I0621 17:36:48.346863  7797 net.cpp:150] Setting up conv3_1/sep_relu
I0621 17:36:48.346875  7797 net.cpp:157] Top shape: 16 128 75 75 (11520000)
I0621 17:36:48.346879  7797 net.cpp:165] Memory required for data: 1520640032
I0621 17:36:48.346881  7797 layer_factory.hpp:77] Creating layer conv3_2/dw
I0621 17:36:48.346891  7797 net.cpp:100] Creating Layer conv3_2/dw
I0621 17:36:48.346896  7797 net.cpp:434] conv3_2/dw <- conv3_1/sep
I0621 17:36:48.346902  7797 net.cpp:408] conv3_2/dw -> conv3_2/dw
I0621 17:36:48.347121  7797 net.cpp:150] Setting up conv3_2/dw
I0621 17:36:48.347129  7797 net.cpp:157] Top shape: 16 128 38 38 (2957312)
I0621 17:36:48.347132  7797 net.cpp:165] Memory required for data: 1532469280
I0621 17:36:48.347137  7797 layer_factory.hpp:77] Creating layer conv3_2/dw/bn
I0621 17:36:48.347143  7797 net.cpp:100] Creating Layer conv3_2/dw/bn
I0621 17:36:48.347159  7797 net.cpp:434] conv3_2/dw/bn <- conv3_2/dw
I0621 17:36:48.347164  7797 net.cpp:395] conv3_2/dw/bn -> conv3_2/dw (in-place)
I0621 17:36:48.347354  7797 net.cpp:150] Setting up conv3_2/dw/bn
I0621 17:36:48.347362  7797 net.cpp:157] Top shape: 16 128 38 38 (2957312)
I0621 17:36:48.347365  7797 net.cpp:165] Memory required for data: 1544298528
I0621 17:36:48.347373  7797 layer_factory.hpp:77] Creating layer conv3_2/dw/scale
I0621 17:36:48.347383  7797 net.cpp:100] Creating Layer conv3_2/dw/scale
I0621 17:36:48.347388  7797 net.cpp:434] conv3_2/dw/scale <- conv3_2/dw
I0621 17:36:48.347393  7797 net.cpp:395] conv3_2/dw/scale -> conv3_2/dw (in-place)
I0621 17:36:48.347434  7797 layer_factory.hpp:77] Creating layer conv3_2/dw/scale
I0621 17:36:48.347548  7797 net.cpp:150] Setting up conv3_2/dw/scale
I0621 17:36:48.347556  7797 net.cpp:157] Top shape: 16 128 38 38 (2957312)
I0621 17:36:48.347559  7797 net.cpp:165] Memory required for data: 1556127776
I0621 17:36:48.347565  7797 layer_factory.hpp:77] Creating layer conv3_2/dw_relu
I0621 17:36:48.347571  7797 net.cpp:100] Creating Layer conv3_2/dw_relu
I0621 17:36:48.347574  7797 net.cpp:434] conv3_2/dw_relu <- conv3_2/dw
I0621 17:36:48.347579  7797 net.cpp:395] conv3_2/dw_relu -> conv3_2/dw (in-place)
I0621 17:36:48.347761  7797 net.cpp:150] Setting up conv3_2/dw_relu
I0621 17:36:48.347772  7797 net.cpp:157] Top shape: 16 128 38 38 (2957312)
I0621 17:36:48.347775  7797 net.cpp:165] Memory required for data: 1567957024
I0621 17:36:48.347779  7797 layer_factory.hpp:77] Creating layer conv3_2/sep
I0621 17:36:48.347789  7797 net.cpp:100] Creating Layer conv3_2/sep
I0621 17:36:48.347791  7797 net.cpp:434] conv3_2/sep <- conv3_2/dw
I0621 17:36:48.347797  7797 net.cpp:408] conv3_2/sep -> conv3_2/sep
I0621 17:36:48.349887  7797 net.cpp:150] Setting up conv3_2/sep
I0621 17:36:48.349900  7797 net.cpp:157] Top shape: 16 256 38 38 (5914624)
I0621 17:36:48.349903  7797 net.cpp:165] Memory required for data: 1591615520
I0621 17:36:48.349910  7797 layer_factory.hpp:77] Creating layer conv3_2/sep/bn
I0621 17:36:48.349915  7797 net.cpp:100] Creating Layer conv3_2/sep/bn
I0621 17:36:48.349920  7797 net.cpp:434] conv3_2/sep/bn <- conv3_2/sep
I0621 17:36:48.349925  7797 net.cpp:395] conv3_2/sep/bn -> conv3_2/sep (in-place)
I0621 17:36:48.350123  7797 net.cpp:150] Setting up conv3_2/sep/bn
I0621 17:36:48.350131  7797 net.cpp:157] Top shape: 16 256 38 38 (5914624)
I0621 17:36:48.350134  7797 net.cpp:165] Memory required for data: 1615274016
I0621 17:36:48.350142  7797 layer_factory.hpp:77] Creating layer conv3_2/sep/scale
I0621 17:36:48.350149  7797 net.cpp:100] Creating Layer conv3_2/sep/scale
I0621 17:36:48.350152  7797 net.cpp:434] conv3_2/sep/scale <- conv3_2/sep
I0621 17:36:48.350157  7797 net.cpp:395] conv3_2/sep/scale -> conv3_2/sep (in-place)
I0621 17:36:48.350198  7797 layer_factory.hpp:77] Creating layer conv3_2/sep/scale
I0621 17:36:48.350323  7797 net.cpp:150] Setting up conv3_2/sep/scale
I0621 17:36:48.350332  7797 net.cpp:157] Top shape: 16 256 38 38 (5914624)
I0621 17:36:48.350335  7797 net.cpp:165] Memory required for data: 1638932512
I0621 17:36:48.350342  7797 layer_factory.hpp:77] Creating layer conv3_2/sep_relu
I0621 17:36:48.350347  7797 net.cpp:100] Creating Layer conv3_2/sep_relu
I0621 17:36:48.350349  7797 net.cpp:434] conv3_2/sep_relu <- conv3_2/sep
I0621 17:36:48.350355  7797 net.cpp:395] conv3_2/sep_relu -> conv3_2/sep (in-place)
I0621 17:36:48.351007  7797 net.cpp:150] Setting up conv3_2/sep_relu
I0621 17:36:48.351019  7797 net.cpp:157] Top shape: 16 256 38 38 (5914624)
I0621 17:36:48.351022  7797 net.cpp:165] Memory required for data: 1662591008
I0621 17:36:48.351025  7797 layer_factory.hpp:77] Creating layer conv4_1/dw
I0621 17:36:48.351035  7797 net.cpp:100] Creating Layer conv4_1/dw
I0621 17:36:48.351038  7797 net.cpp:434] conv4_1/dw <- conv3_2/sep
I0621 17:36:48.351047  7797 net.cpp:408] conv4_1/dw -> conv4_1/dw
I0621 17:36:48.351280  7797 net.cpp:150] Setting up conv4_1/dw
I0621 17:36:48.351289  7797 net.cpp:157] Top shape: 16 256 38 38 (5914624)
I0621 17:36:48.351303  7797 net.cpp:165] Memory required for data: 1686249504
I0621 17:36:48.351308  7797 layer_factory.hpp:77] Creating layer conv4_1/dw/bn
I0621 17:36:48.351315  7797 net.cpp:100] Creating Layer conv4_1/dw/bn
I0621 17:36:48.351317  7797 net.cpp:434] conv4_1/dw/bn <- conv4_1/dw
I0621 17:36:48.351323  7797 net.cpp:395] conv4_1/dw/bn -> conv4_1/dw (in-place)
I0621 17:36:48.351521  7797 net.cpp:150] Setting up conv4_1/dw/bn
I0621 17:36:48.351528  7797 net.cpp:157] Top shape: 16 256 38 38 (5914624)
I0621 17:36:48.351531  7797 net.cpp:165] Memory required for data: 1709908000
I0621 17:36:48.351538  7797 layer_factory.hpp:77] Creating layer conv4_1/dw/scale
I0621 17:36:48.351544  7797 net.cpp:100] Creating Layer conv4_1/dw/scale
I0621 17:36:48.351547  7797 net.cpp:434] conv4_1/dw/scale <- conv4_1/dw
I0621 17:36:48.351554  7797 net.cpp:395] conv4_1/dw/scale -> conv4_1/dw (in-place)
I0621 17:36:48.351593  7797 layer_factory.hpp:77] Creating layer conv4_1/dw/scale
I0621 17:36:48.351708  7797 net.cpp:150] Setting up conv4_1/dw/scale
I0621 17:36:48.351716  7797 net.cpp:157] Top shape: 16 256 38 38 (5914624)
I0621 17:36:48.351718  7797 net.cpp:165] Memory required for data: 1733566496
I0621 17:36:48.351724  7797 layer_factory.hpp:77] Creating layer conv4_1/dw_relu
I0621 17:36:48.351729  7797 net.cpp:100] Creating Layer conv4_1/dw_relu
I0621 17:36:48.351732  7797 net.cpp:434] conv4_1/dw_relu <- conv4_1/dw
I0621 17:36:48.351737  7797 net.cpp:395] conv4_1/dw_relu -> conv4_1/dw (in-place)
I0621 17:36:48.351923  7797 net.cpp:150] Setting up conv4_1/dw_relu
I0621 17:36:48.351933  7797 net.cpp:157] Top shape: 16 256 38 38 (5914624)
I0621 17:36:48.351935  7797 net.cpp:165] Memory required for data: 1757224992
I0621 17:36:48.351938  7797 layer_factory.hpp:77] Creating layer conv4_1/sep
I0621 17:36:48.351948  7797 net.cpp:100] Creating Layer conv4_1/sep
I0621 17:36:48.351953  7797 net.cpp:434] conv4_1/sep <- conv4_1/dw
I0621 17:36:48.351959  7797 net.cpp:408] conv4_1/sep -> conv4_1/sep
I0621 17:36:48.355438  7797 net.cpp:150] Setting up conv4_1/sep
I0621 17:36:48.355453  7797 net.cpp:157] Top shape: 16 256 38 38 (5914624)
I0621 17:36:48.355456  7797 net.cpp:165] Memory required for data: 1780883488
I0621 17:36:48.355463  7797 layer_factory.hpp:77] Creating layer conv4_1/sep/bn
I0621 17:36:48.355468  7797 net.cpp:100] Creating Layer conv4_1/sep/bn
I0621 17:36:48.355471  7797 net.cpp:434] conv4_1/sep/bn <- conv4_1/sep
I0621 17:36:48.355478  7797 net.cpp:395] conv4_1/sep/bn -> conv4_1/sep (in-place)
I0621 17:36:48.355684  7797 net.cpp:150] Setting up conv4_1/sep/bn
I0621 17:36:48.355691  7797 net.cpp:157] Top shape: 16 256 38 38 (5914624)
I0621 17:36:48.355695  7797 net.cpp:165] Memory required for data: 1804541984
I0621 17:36:48.355702  7797 layer_factory.hpp:77] Creating layer conv4_1/sep/scale
I0621 17:36:48.355710  7797 net.cpp:100] Creating Layer conv4_1/sep/scale
I0621 17:36:48.355712  7797 net.cpp:434] conv4_1/sep/scale <- conv4_1/sep
I0621 17:36:48.355717  7797 net.cpp:395] conv4_1/sep/scale -> conv4_1/sep (in-place)
I0621 17:36:48.355759  7797 layer_factory.hpp:77] Creating layer conv4_1/sep/scale
I0621 17:36:48.355875  7797 net.cpp:150] Setting up conv4_1/sep/scale
I0621 17:36:48.355882  7797 net.cpp:157] Top shape: 16 256 38 38 (5914624)
I0621 17:36:48.355885  7797 net.cpp:165] Memory required for data: 1828200480
I0621 17:36:48.355901  7797 layer_factory.hpp:77] Creating layer conv4_1/sep_relu
I0621 17:36:48.355908  7797 net.cpp:100] Creating Layer conv4_1/sep_relu
I0621 17:36:48.355911  7797 net.cpp:434] conv4_1/sep_relu <- conv4_1/sep
I0621 17:36:48.355917  7797 net.cpp:395] conv4_1/sep_relu -> conv4_1/sep (in-place)
I0621 17:36:48.356115  7797 net.cpp:150] Setting up conv4_1/sep_relu
I0621 17:36:48.356125  7797 net.cpp:157] Top shape: 16 256 38 38 (5914624)
I0621 17:36:48.356128  7797 net.cpp:165] Memory required for data: 1851858976
I0621 17:36:48.356132  7797 layer_factory.hpp:77] Creating layer conv4_2/dw
I0621 17:36:48.356140  7797 net.cpp:100] Creating Layer conv4_2/dw
I0621 17:36:48.356144  7797 net.cpp:434] conv4_2/dw <- conv4_1/sep
I0621 17:36:48.356163  7797 net.cpp:408] conv4_2/dw -> conv4_2/dw
I0621 17:36:48.356405  7797 net.cpp:150] Setting up conv4_2/dw
I0621 17:36:48.356413  7797 net.cpp:157] Top shape: 16 256 19 19 (1478656)
I0621 17:36:48.356416  7797 net.cpp:165] Memory required for data: 1857773600
I0621 17:36:48.356421  7797 layer_factory.hpp:77] Creating layer conv4_2/dw/bn
I0621 17:36:48.356426  7797 net.cpp:100] Creating Layer conv4_2/dw/bn
I0621 17:36:48.356429  7797 net.cpp:434] conv4_2/dw/bn <- conv4_2/dw
I0621 17:36:48.356436  7797 net.cpp:395] conv4_2/dw/bn -> conv4_2/dw (in-place)
I0621 17:36:48.356632  7797 net.cpp:150] Setting up conv4_2/dw/bn
I0621 17:36:48.356639  7797 net.cpp:157] Top shape: 16 256 19 19 (1478656)
I0621 17:36:48.356642  7797 net.cpp:165] Memory required for data: 1863688224
I0621 17:36:48.356649  7797 layer_factory.hpp:77] Creating layer conv4_2/dw/scale
I0621 17:36:48.356655  7797 net.cpp:100] Creating Layer conv4_2/dw/scale
I0621 17:36:48.356658  7797 net.cpp:434] conv4_2/dw/scale <- conv4_2/dw
I0621 17:36:48.356664  7797 net.cpp:395] conv4_2/dw/scale -> conv4_2/dw (in-place)
I0621 17:36:48.356703  7797 layer_factory.hpp:77] Creating layer conv4_2/dw/scale
I0621 17:36:48.356820  7797 net.cpp:150] Setting up conv4_2/dw/scale
I0621 17:36:48.356828  7797 net.cpp:157] Top shape: 16 256 19 19 (1478656)
I0621 17:36:48.356832  7797 net.cpp:165] Memory required for data: 1869602848
I0621 17:36:48.356837  7797 layer_factory.hpp:77] Creating layer conv4_2/dw_relu
I0621 17:36:48.356842  7797 net.cpp:100] Creating Layer conv4_2/dw_relu
I0621 17:36:48.356845  7797 net.cpp:434] conv4_2/dw_relu <- conv4_2/dw
I0621 17:36:48.356851  7797 net.cpp:395] conv4_2/dw_relu -> conv4_2/dw (in-place)
I0621 17:36:48.357503  7797 net.cpp:150] Setting up conv4_2/dw_relu
I0621 17:36:48.357514  7797 net.cpp:157] Top shape: 16 256 19 19 (1478656)
I0621 17:36:48.357517  7797 net.cpp:165] Memory required for data: 1875517472
I0621 17:36:48.357522  7797 layer_factory.hpp:77] Creating layer conv4_2/sep
I0621 17:36:48.357532  7797 net.cpp:100] Creating Layer conv4_2/sep
I0621 17:36:48.357534  7797 net.cpp:434] conv4_2/sep <- conv4_2/dw
I0621 17:36:48.357542  7797 net.cpp:408] conv4_2/sep -> conv4_2/sep
I0621 17:36:48.362084  7797 net.cpp:150] Setting up conv4_2/sep
I0621 17:36:48.362097  7797 net.cpp:157] Top shape: 16 512 19 19 (2957312)
I0621 17:36:48.362102  7797 net.cpp:165] Memory required for data: 1887346720
I0621 17:36:48.362107  7797 layer_factory.hpp:77] Creating layer conv4_2/sep/bn
I0621 17:36:48.362112  7797 net.cpp:100] Creating Layer conv4_2/sep/bn
I0621 17:36:48.362115  7797 net.cpp:434] conv4_2/sep/bn <- conv4_2/sep
I0621 17:36:48.362121  7797 net.cpp:395] conv4_2/sep/bn -> conv4_2/sep (in-place)
I0621 17:36:48.362346  7797 net.cpp:150] Setting up conv4_2/sep/bn
I0621 17:36:48.362354  7797 net.cpp:157] Top shape: 16 512 19 19 (2957312)
I0621 17:36:48.362356  7797 net.cpp:165] Memory required for data: 1899175968
I0621 17:36:48.362365  7797 layer_factory.hpp:77] Creating layer conv4_2/sep/scale
I0621 17:36:48.362370  7797 net.cpp:100] Creating Layer conv4_2/sep/scale
I0621 17:36:48.362373  7797 net.cpp:434] conv4_2/sep/scale <- conv4_2/sep
I0621 17:36:48.362380  7797 net.cpp:395] conv4_2/sep/scale -> conv4_2/sep (in-place)
I0621 17:36:48.362424  7797 layer_factory.hpp:77] Creating layer conv4_2/sep/scale
I0621 17:36:48.362540  7797 net.cpp:150] Setting up conv4_2/sep/scale
I0621 17:36:48.362546  7797 net.cpp:157] Top shape: 16 512 19 19 (2957312)
I0621 17:36:48.362550  7797 net.cpp:165] Memory required for data: 1911005216
I0621 17:36:48.362555  7797 layer_factory.hpp:77] Creating layer conv4_2/sep_relu
I0621 17:36:48.362560  7797 net.cpp:100] Creating Layer conv4_2/sep_relu
I0621 17:36:48.362563  7797 net.cpp:434] conv4_2/sep_relu <- conv4_2/sep
I0621 17:36:48.362571  7797 net.cpp:395] conv4_2/sep_relu -> conv4_2/sep (in-place)
I0621 17:36:48.362756  7797 net.cpp:150] Setting up conv4_2/sep_relu
I0621 17:36:48.362763  7797 net.cpp:157] Top shape: 16 512 19 19 (2957312)
I0621 17:36:48.362776  7797 net.cpp:165] Memory required for data: 1922834464
I0621 17:36:48.362779  7797 layer_factory.hpp:77] Creating layer conv5_1/dw
I0621 17:36:48.362789  7797 net.cpp:100] Creating Layer conv5_1/dw
I0621 17:36:48.362793  7797 net.cpp:434] conv5_1/dw <- conv4_2/sep
I0621 17:36:48.362798  7797 net.cpp:408] conv5_1/dw -> conv5_1/dw
I0621 17:36:48.363070  7797 net.cpp:150] Setting up conv5_1/dw
I0621 17:36:48.363077  7797 net.cpp:157] Top shape: 16 512 19 19 (2957312)
I0621 17:36:48.363081  7797 net.cpp:165] Memory required for data: 1934663712
I0621 17:36:48.363086  7797 layer_factory.hpp:77] Creating layer conv5_1/dw/bn
I0621 17:36:48.363092  7797 net.cpp:100] Creating Layer conv5_1/dw/bn
I0621 17:36:48.363095  7797 net.cpp:434] conv5_1/dw/bn <- conv5_1/dw
I0621 17:36:48.363101  7797 net.cpp:395] conv5_1/dw/bn -> conv5_1/dw (in-place)
I0621 17:36:48.363304  7797 net.cpp:150] Setting up conv5_1/dw/bn
I0621 17:36:48.363310  7797 net.cpp:157] Top shape: 16 512 19 19 (2957312)
I0621 17:36:48.363313  7797 net.cpp:165] Memory required for data: 1946492960
I0621 17:36:48.363320  7797 layer_factory.hpp:77] Creating layer conv5_1/dw/scale
I0621 17:36:48.363327  7797 net.cpp:100] Creating Layer conv5_1/dw/scale
I0621 17:36:48.363332  7797 net.cpp:434] conv5_1/dw/scale <- conv5_1/dw
I0621 17:36:48.363335  7797 net.cpp:395] conv5_1/dw/scale -> conv5_1/dw (in-place)
I0621 17:36:48.363379  7797 layer_factory.hpp:77] Creating layer conv5_1/dw/scale
I0621 17:36:48.363499  7797 net.cpp:150] Setting up conv5_1/dw/scale
I0621 17:36:48.363505  7797 net.cpp:157] Top shape: 16 512 19 19 (2957312)
I0621 17:36:48.363508  7797 net.cpp:165] Memory required for data: 1958322208
I0621 17:36:48.363514  7797 layer_factory.hpp:77] Creating layer conv5_1/dw_relu
I0621 17:36:48.363520  7797 net.cpp:100] Creating Layer conv5_1/dw_relu
I0621 17:36:48.363523  7797 net.cpp:434] conv5_1/dw_relu <- conv5_1/dw
I0621 17:36:48.363528  7797 net.cpp:395] conv5_1/dw_relu -> conv5_1/dw (in-place)
I0621 17:36:48.364183  7797 net.cpp:150] Setting up conv5_1/dw_relu
I0621 17:36:48.364193  7797 net.cpp:157] Top shape: 16 512 19 19 (2957312)
I0621 17:36:48.364197  7797 net.cpp:165] Memory required for data: 1970151456
I0621 17:36:48.364199  7797 layer_factory.hpp:77] Creating layer conv5_1/sep
I0621 17:36:48.364208  7797 net.cpp:100] Creating Layer conv5_1/sep
I0621 17:36:48.364212  7797 net.cpp:434] conv5_1/sep <- conv5_1/dw
I0621 17:36:48.364218  7797 net.cpp:408] conv5_1/sep -> conv5_1/sep
I0621 17:36:48.369544  7797 net.cpp:150] Setting up conv5_1/sep
I0621 17:36:48.369560  7797 net.cpp:157] Top shape: 16 512 19 19 (2957312)
I0621 17:36:48.369563  7797 net.cpp:165] Memory required for data: 1981980704
I0621 17:36:48.369568  7797 layer_factory.hpp:77] Creating layer conv5_1/sep/bn
I0621 17:36:48.369575  7797 net.cpp:100] Creating Layer conv5_1/sep/bn
I0621 17:36:48.369577  7797 net.cpp:434] conv5_1/sep/bn <- conv5_1/sep
I0621 17:36:48.369583  7797 net.cpp:395] conv5_1/sep/bn -> conv5_1/sep (in-place)
I0621 17:36:48.369803  7797 net.cpp:150] Setting up conv5_1/sep/bn
I0621 17:36:48.369809  7797 net.cpp:157] Top shape: 16 512 19 19 (2957312)
I0621 17:36:48.369812  7797 net.cpp:165] Memory required for data: 1993809952
I0621 17:36:48.369820  7797 layer_factory.hpp:77] Creating layer conv5_1/sep/scale
I0621 17:36:48.369827  7797 net.cpp:100] Creating Layer conv5_1/sep/scale
I0621 17:36:48.369829  7797 net.cpp:434] conv5_1/sep/scale <- conv5_1/sep
I0621 17:36:48.369835  7797 net.cpp:395] conv5_1/sep/scale -> conv5_1/sep (in-place)
I0621 17:36:48.369879  7797 layer_factory.hpp:77] Creating layer conv5_1/sep/scale
I0621 17:36:48.370000  7797 net.cpp:150] Setting up conv5_1/sep/scale
I0621 17:36:48.370007  7797 net.cpp:157] Top shape: 16 512 19 19 (2957312)
I0621 17:36:48.370009  7797 net.cpp:165] Memory required for data: 2005639200
I0621 17:36:48.370016  7797 layer_factory.hpp:77] Creating layer conv5_1/sep_relu
I0621 17:36:48.370021  7797 net.cpp:100] Creating Layer conv5_1/sep_relu
I0621 17:36:48.370023  7797 net.cpp:434] conv5_1/sep_relu <- conv5_1/sep
I0621 17:36:48.370039  7797 net.cpp:395] conv5_1/sep_relu -> conv5_1/sep (in-place)
I0621 17:36:48.370236  7797 net.cpp:150] Setting up conv5_1/sep_relu
I0621 17:36:48.370245  7797 net.cpp:157] Top shape: 16 512 19 19 (2957312)
I0621 17:36:48.370247  7797 net.cpp:165] Memory required for data: 2017468448
I0621 17:36:48.370251  7797 layer_factory.hpp:77] Creating layer conv5_2/dw
I0621 17:36:48.370260  7797 net.cpp:100] Creating Layer conv5_2/dw
I0621 17:36:48.370263  7797 net.cpp:434] conv5_2/dw <- conv5_1/sep
I0621 17:36:48.370270  7797 net.cpp:408] conv5_2/dw -> conv5_2/dw
I0621 17:36:48.370535  7797 net.cpp:150] Setting up conv5_2/dw
I0621 17:36:48.370543  7797 net.cpp:157] Top shape: 16 512 19 19 (2957312)
I0621 17:36:48.370545  7797 net.cpp:165] Memory required for data: 2029297696
I0621 17:36:48.370550  7797 layer_factory.hpp:77] Creating layer conv5_2/dw/bn
I0621 17:36:48.370555  7797 net.cpp:100] Creating Layer conv5_2/dw/bn
I0621 17:36:48.370558  7797 net.cpp:434] conv5_2/dw/bn <- conv5_2/dw
I0621 17:36:48.370564  7797 net.cpp:395] conv5_2/dw/bn -> conv5_2/dw (in-place)
I0621 17:36:48.370769  7797 net.cpp:150] Setting up conv5_2/dw/bn
I0621 17:36:48.370775  7797 net.cpp:157] Top shape: 16 512 19 19 (2957312)
I0621 17:36:48.370779  7797 net.cpp:165] Memory required for data: 2041126944
I0621 17:36:48.370786  7797 layer_factory.hpp:77] Creating layer conv5_2/dw/scale
I0621 17:36:48.370800  7797 net.cpp:100] Creating Layer conv5_2/dw/scale
I0621 17:36:48.370802  7797 net.cpp:434] conv5_2/dw/scale <- conv5_2/dw
I0621 17:36:48.370807  7797 net.cpp:395] conv5_2/dw/scale -> conv5_2/dw (in-place)
I0621 17:36:48.370852  7797 layer_factory.hpp:77] Creating layer conv5_2/dw/scale
I0621 17:36:48.370970  7797 net.cpp:150] Setting up conv5_2/dw/scale
I0621 17:36:48.370976  7797 net.cpp:157] Top shape: 16 512 19 19 (2957312)
I0621 17:36:48.370980  7797 net.cpp:165] Memory required for data: 2052956192
I0621 17:36:48.370986  7797 layer_factory.hpp:77] Creating layer conv5_2/dw_relu
I0621 17:36:48.370993  7797 net.cpp:100] Creating Layer conv5_2/dw_relu
I0621 17:36:48.370996  7797 net.cpp:434] conv5_2/dw_relu <- conv5_2/dw
I0621 17:36:48.371001  7797 net.cpp:395] conv5_2/dw_relu -> conv5_2/dw (in-place)
I0621 17:36:48.371656  7797 net.cpp:150] Setting up conv5_2/dw_relu
I0621 17:36:48.371666  7797 net.cpp:157] Top shape: 16 512 19 19 (2957312)
I0621 17:36:48.371670  7797 net.cpp:165] Memory required for data: 2064785440
I0621 17:36:48.371672  7797 layer_factory.hpp:77] Creating layer conv5_2/sep
I0621 17:36:48.371682  7797 net.cpp:100] Creating Layer conv5_2/sep
I0621 17:36:48.371686  7797 net.cpp:434] conv5_2/sep <- conv5_2/dw
I0621 17:36:48.371692  7797 net.cpp:408] conv5_2/sep -> conv5_2/sep
I0621 17:36:48.376559  7797 net.cpp:150] Setting up conv5_2/sep
I0621 17:36:48.376572  7797 net.cpp:157] Top shape: 16 512 19 19 (2957312)
I0621 17:36:48.376575  7797 net.cpp:165] Memory required for data: 2076614688
I0621 17:36:48.376581  7797 layer_factory.hpp:77] Creating layer conv5_2/sep/bn
I0621 17:36:48.376588  7797 net.cpp:100] Creating Layer conv5_2/sep/bn
I0621 17:36:48.376591  7797 net.cpp:434] conv5_2/sep/bn <- conv5_2/sep
I0621 17:36:48.376596  7797 net.cpp:395] conv5_2/sep/bn -> conv5_2/sep (in-place)
I0621 17:36:48.376813  7797 net.cpp:150] Setting up conv5_2/sep/bn
I0621 17:36:48.376821  7797 net.cpp:157] Top shape: 16 512 19 19 (2957312)
I0621 17:36:48.376824  7797 net.cpp:165] Memory required for data: 2088443936
I0621 17:36:48.376832  7797 layer_factory.hpp:77] Creating layer conv5_2/sep/scale
I0621 17:36:48.376837  7797 net.cpp:100] Creating Layer conv5_2/sep/scale
I0621 17:36:48.376840  7797 net.cpp:434] conv5_2/sep/scale <- conv5_2/sep
I0621 17:36:48.376845  7797 net.cpp:395] conv5_2/sep/scale -> conv5_2/sep (in-place)
I0621 17:36:48.376893  7797 layer_factory.hpp:77] Creating layer conv5_2/sep/scale
I0621 17:36:48.377013  7797 net.cpp:150] Setting up conv5_2/sep/scale
I0621 17:36:48.377020  7797 net.cpp:157] Top shape: 16 512 19 19 (2957312)
I0621 17:36:48.377022  7797 net.cpp:165] Memory required for data: 2100273184
I0621 17:36:48.377038  7797 layer_factory.hpp:77] Creating layer conv5_2/sep_relu
I0621 17:36:48.377045  7797 net.cpp:100] Creating Layer conv5_2/sep_relu
I0621 17:36:48.377048  7797 net.cpp:434] conv5_2/sep_relu <- conv5_2/sep
I0621 17:36:48.377053  7797 net.cpp:395] conv5_2/sep_relu -> conv5_2/sep (in-place)
I0621 17:36:48.377704  7797 net.cpp:150] Setting up conv5_2/sep_relu
I0621 17:36:48.377714  7797 net.cpp:157] Top shape: 16 512 19 19 (2957312)
I0621 17:36:48.377717  7797 net.cpp:165] Memory required for data: 2112102432
I0621 17:36:48.377722  7797 layer_factory.hpp:77] Creating layer conv5_3/dw
I0621 17:36:48.377732  7797 net.cpp:100] Creating Layer conv5_3/dw
I0621 17:36:48.377734  7797 net.cpp:434] conv5_3/dw <- conv5_2/sep
I0621 17:36:48.377740  7797 net.cpp:408] conv5_3/dw -> conv5_3/dw
I0621 17:36:48.378010  7797 net.cpp:150] Setting up conv5_3/dw
I0621 17:36:48.378018  7797 net.cpp:157] Top shape: 16 512 19 19 (2957312)
I0621 17:36:48.378021  7797 net.cpp:165] Memory required for data: 2123931680
I0621 17:36:48.378026  7797 layer_factory.hpp:77] Creating layer conv5_3/dw/bn
I0621 17:36:48.378031  7797 net.cpp:100] Creating Layer conv5_3/dw/bn
I0621 17:36:48.378034  7797 net.cpp:434] conv5_3/dw/bn <- conv5_3/dw
I0621 17:36:48.378039  7797 net.cpp:395] conv5_3/dw/bn -> conv5_3/dw (in-place)
I0621 17:36:48.378259  7797 net.cpp:150] Setting up conv5_3/dw/bn
I0621 17:36:48.378268  7797 net.cpp:157] Top shape: 16 512 19 19 (2957312)
I0621 17:36:48.378269  7797 net.cpp:165] Memory required for data: 2135760928
I0621 17:36:48.378278  7797 layer_factory.hpp:77] Creating layer conv5_3/dw/scale
I0621 17:36:48.378283  7797 net.cpp:100] Creating Layer conv5_3/dw/scale
I0621 17:36:48.378286  7797 net.cpp:434] conv5_3/dw/scale <- conv5_3/dw
I0621 17:36:48.378293  7797 net.cpp:395] conv5_3/dw/scale -> conv5_3/dw (in-place)
I0621 17:36:48.378338  7797 layer_factory.hpp:77] Creating layer conv5_3/dw/scale
I0621 17:36:48.378459  7797 net.cpp:150] Setting up conv5_3/dw/scale
I0621 17:36:48.378466  7797 net.cpp:157] Top shape: 16 512 19 19 (2957312)
I0621 17:36:48.378469  7797 net.cpp:165] Memory required for data: 2147590176
I0621 17:36:48.378475  7797 layer_factory.hpp:77] Creating layer conv5_3/dw_relu
I0621 17:36:48.378480  7797 net.cpp:100] Creating Layer conv5_3/dw_relu
I0621 17:36:48.378482  7797 net.cpp:434] conv5_3/dw_relu <- conv5_3/dw
I0621 17:36:48.378489  7797 net.cpp:395] conv5_3/dw_relu -> conv5_3/dw (in-place)
I0621 17:36:48.379163  7797 net.cpp:150] Setting up conv5_3/dw_relu
I0621 17:36:48.379173  7797 net.cpp:157] Top shape: 16 512 19 19 (2957312)
I0621 17:36:48.379175  7797 net.cpp:165] Memory required for data: 2159419424
I0621 17:36:48.379179  7797 layer_factory.hpp:77] Creating layer conv5_3/sep
I0621 17:36:48.379189  7797 net.cpp:100] Creating Layer conv5_3/sep
I0621 17:36:48.379191  7797 net.cpp:434] conv5_3/sep <- conv5_3/dw
I0621 17:36:48.379199  7797 net.cpp:408] conv5_3/sep -> conv5_3/sep
I0621 17:36:48.384080  7797 net.cpp:150] Setting up conv5_3/sep
I0621 17:36:48.384094  7797 net.cpp:157] Top shape: 16 512 19 19 (2957312)
I0621 17:36:48.384097  7797 net.cpp:165] Memory required for data: 2171248672
I0621 17:36:48.384104  7797 layer_factory.hpp:77] Creating layer conv5_3/sep/bn
I0621 17:36:48.384110  7797 net.cpp:100] Creating Layer conv5_3/sep/bn
I0621 17:36:48.384114  7797 net.cpp:434] conv5_3/sep/bn <- conv5_3/sep
I0621 17:36:48.384119  7797 net.cpp:395] conv5_3/sep/bn -> conv5_3/sep (in-place)
I0621 17:36:48.384343  7797 net.cpp:150] Setting up conv5_3/sep/bn
I0621 17:36:48.384351  7797 net.cpp:157] Top shape: 16 512 19 19 (2957312)
I0621 17:36:48.384353  7797 net.cpp:165] Memory required for data: 2183077920
I0621 17:36:48.384361  7797 layer_factory.hpp:77] Creating layer conv5_3/sep/scale
I0621 17:36:48.384368  7797 net.cpp:100] Creating Layer conv5_3/sep/scale
I0621 17:36:48.384371  7797 net.cpp:434] conv5_3/sep/scale <- conv5_3/sep
I0621 17:36:48.384377  7797 net.cpp:395] conv5_3/sep/scale -> conv5_3/sep (in-place)
I0621 17:36:48.384421  7797 layer_factory.hpp:77] Creating layer conv5_3/sep/scale
I0621 17:36:48.384560  7797 net.cpp:150] Setting up conv5_3/sep/scale
I0621 17:36:48.384567  7797 net.cpp:157] Top shape: 16 512 19 19 (2957312)
I0621 17:36:48.384570  7797 net.cpp:165] Memory required for data: 2194907168
I0621 17:36:48.384577  7797 layer_factory.hpp:77] Creating layer conv5_3/sep_relu
I0621 17:36:48.384582  7797 net.cpp:100] Creating Layer conv5_3/sep_relu
I0621 17:36:48.384585  7797 net.cpp:434] conv5_3/sep_relu <- conv5_3/sep
I0621 17:36:48.384590  7797 net.cpp:395] conv5_3/sep_relu -> conv5_3/sep (in-place)
I0621 17:36:48.385246  7797 net.cpp:150] Setting up conv5_3/sep_relu
I0621 17:36:48.385257  7797 net.cpp:157] Top shape: 16 512 19 19 (2957312)
I0621 17:36:48.385260  7797 net.cpp:165] Memory required for data: 2206736416
I0621 17:36:48.385263  7797 layer_factory.hpp:77] Creating layer conv5_3/sep_conv5_3/sep_relu_0_split
I0621 17:36:48.385269  7797 net.cpp:100] Creating Layer conv5_3/sep_conv5_3/sep_relu_0_split
I0621 17:36:48.385273  7797 net.cpp:434] conv5_3/sep_conv5_3/sep_relu_0_split <- conv5_3/sep
I0621 17:36:48.385279  7797 net.cpp:408] conv5_3/sep_conv5_3/sep_relu_0_split -> conv5_3/sep_conv5_3/sep_relu_0_split_0
I0621 17:36:48.385287  7797 net.cpp:408] conv5_3/sep_conv5_3/sep_relu_0_split -> conv5_3/sep_conv5_3/sep_relu_0_split_1
I0621 17:36:48.385334  7797 net.cpp:150] Setting up conv5_3/sep_conv5_3/sep_relu_0_split
I0621 17:36:48.385339  7797 net.cpp:157] Top shape: 16 512 19 19 (2957312)
I0621 17:36:48.385344  7797 net.cpp:157] Top shape: 16 512 19 19 (2957312)
I0621 17:36:48.385346  7797 net.cpp:165] Memory required for data: 2230394912
I0621 17:36:48.385349  7797 layer_factory.hpp:77] Creating layer conv5_4/dw
I0621 17:36:48.385360  7797 net.cpp:100] Creating Layer conv5_4/dw
I0621 17:36:48.385362  7797 net.cpp:434] conv5_4/dw <- conv5_3/sep_conv5_3/sep_relu_0_split_0
I0621 17:36:48.385368  7797 net.cpp:408] conv5_4/dw -> conv5_4/dw
I0621 17:36:48.385633  7797 net.cpp:150] Setting up conv5_4/dw
I0621 17:36:48.385640  7797 net.cpp:157] Top shape: 16 512 19 19 (2957312)
I0621 17:36:48.385643  7797 net.cpp:165] Memory required for data: 2242224160
I0621 17:36:48.385648  7797 layer_factory.hpp:77] Creating layer conv5_4/dw/bn
I0621 17:36:48.385653  7797 net.cpp:100] Creating Layer conv5_4/dw/bn
I0621 17:36:48.385656  7797 net.cpp:434] conv5_4/dw/bn <- conv5_4/dw
I0621 17:36:48.385663  7797 net.cpp:395] conv5_4/dw/bn -> conv5_4/dw (in-place)
I0621 17:36:48.385879  7797 net.cpp:150] Setting up conv5_4/dw/bn
I0621 17:36:48.385905  7797 net.cpp:157] Top shape: 16 512 19 19 (2957312)
I0621 17:36:48.385917  7797 net.cpp:165] Memory required for data: 2254053408
I0621 17:36:48.385931  7797 layer_factory.hpp:77] Creating layer conv5_4/dw/scale
I0621 17:36:48.385944  7797 net.cpp:100] Creating Layer conv5_4/dw/scale
I0621 17:36:48.385953  7797 net.cpp:434] conv5_4/dw/scale <- conv5_4/dw
I0621 17:36:48.385967  7797 net.cpp:395] conv5_4/dw/scale -> conv5_4/dw (in-place)
I0621 17:36:48.386026  7797 layer_factory.hpp:77] Creating layer conv5_4/dw/scale
I0621 17:36:48.386171  7797 net.cpp:150] Setting up conv5_4/dw/scale
I0621 17:36:48.386189  7797 net.cpp:157] Top shape: 16 512 19 19 (2957312)
I0621 17:36:48.386199  7797 net.cpp:165] Memory required for data: 2265882656
I0621 17:36:48.386219  7797 layer_factory.hpp:77] Creating layer conv5_4/dw_relu
I0621 17:36:48.386240  7797 net.cpp:100] Creating Layer conv5_4/dw_relu
I0621 17:36:48.386251  7797 net.cpp:434] conv5_4/dw_relu <- conv5_4/dw
I0621 17:36:48.386260  7797 net.cpp:395] conv5_4/dw_relu -> conv5_4/dw (in-place)
I0621 17:36:48.386482  7797 net.cpp:150] Setting up conv5_4/dw_relu
I0621 17:36:48.386493  7797 net.cpp:157] Top shape: 16 512 19 19 (2957312)
I0621 17:36:48.386497  7797 net.cpp:165] Memory required for data: 2277711904
I0621 17:36:48.386502  7797 layer_factory.hpp:77] Creating layer conv5_4/sep
I0621 17:36:48.386513  7797 net.cpp:100] Creating Layer conv5_4/sep
I0621 17:36:48.386518  7797 net.cpp:434] conv5_4/sep <- conv5_4/dw
I0621 17:36:48.386524  7797 net.cpp:408] conv5_4/sep -> conv5_4/sep
I0621 17:36:48.392134  7797 net.cpp:150] Setting up conv5_4/sep
I0621 17:36:48.392159  7797 net.cpp:157] Top shape: 16 512 19 19 (2957312)
I0621 17:36:48.392164  7797 net.cpp:165] Memory required for data: 2289541152
I0621 17:36:48.392170  7797 layer_factory.hpp:77] Creating layer conv5_4/sep/bn
I0621 17:36:48.392177  7797 net.cpp:100] Creating Layer conv5_4/sep/bn
I0621 17:36:48.392182  7797 net.cpp:434] conv5_4/sep/bn <- conv5_4/sep
I0621 17:36:48.392189  7797 net.cpp:395] conv5_4/sep/bn -> conv5_4/sep (in-place)
I0621 17:36:48.392431  7797 net.cpp:150] Setting up conv5_4/sep/bn
I0621 17:36:48.392439  7797 net.cpp:157] Top shape: 16 512 19 19 (2957312)
I0621 17:36:48.392447  7797 net.cpp:165] Memory required for data: 2301370400
I0621 17:36:48.392455  7797 layer_factory.hpp:77] Creating layer conv5_4/sep/scale
I0621 17:36:48.392463  7797 net.cpp:100] Creating Layer conv5_4/sep/scale
I0621 17:36:48.392467  7797 net.cpp:434] conv5_4/sep/scale <- conv5_4/sep
I0621 17:36:48.392474  7797 net.cpp:395] conv5_4/sep/scale -> conv5_4/sep (in-place)
I0621 17:36:48.392526  7797 layer_factory.hpp:77] Creating layer conv5_4/sep/scale
I0621 17:36:48.392659  7797 net.cpp:150] Setting up conv5_4/sep/scale
I0621 17:36:48.392668  7797 net.cpp:157] Top shape: 16 512 19 19 (2957312)
I0621 17:36:48.392673  7797 net.cpp:165] Memory required for data: 2313199648
I0621 17:36:48.392678  7797 layer_factory.hpp:77] Creating layer conv5_4/sep_relu
I0621 17:36:48.392685  7797 net.cpp:100] Creating Layer conv5_4/sep_relu
I0621 17:36:48.392689  7797 net.cpp:434] conv5_4/sep_relu <- conv5_4/sep
I0621 17:36:48.392696  7797 net.cpp:395] conv5_4/sep_relu -> conv5_4/sep (in-place)
I0621 17:36:48.393366  7797 net.cpp:150] Setting up conv5_4/sep_relu
I0621 17:36:48.393379  7797 net.cpp:157] Top shape: 16 512 19 19 (2957312)
I0621 17:36:48.393383  7797 net.cpp:165] Memory required for data: 2325028896
I0621 17:36:48.393388  7797 layer_factory.hpp:77] Creating layer conv5_5/dw
I0621 17:36:48.393398  7797 net.cpp:100] Creating Layer conv5_5/dw
I0621 17:36:48.393402  7797 net.cpp:434] conv5_5/dw <- conv5_4/sep
I0621 17:36:48.393409  7797 net.cpp:408] conv5_5/dw -> conv5_5/dw
I0621 17:36:48.393704  7797 net.cpp:150] Setting up conv5_5/dw
I0621 17:36:48.393714  7797 net.cpp:157] Top shape: 16 512 19 19 (2957312)
I0621 17:36:48.393718  7797 net.cpp:165] Memory required for data: 2336858144
I0621 17:36:48.393723  7797 layer_factory.hpp:77] Creating layer conv5_5/dw/bn
I0621 17:36:48.393731  7797 net.cpp:100] Creating Layer conv5_5/dw/bn
I0621 17:36:48.393735  7797 net.cpp:434] conv5_5/dw/bn <- conv5_5/dw
I0621 17:36:48.393743  7797 net.cpp:395] conv5_5/dw/bn -> conv5_5/dw (in-place)
I0621 17:36:48.393975  7797 net.cpp:150] Setting up conv5_5/dw/bn
I0621 17:36:48.393985  7797 net.cpp:157] Top shape: 16 512 19 19 (2957312)
I0621 17:36:48.393988  7797 net.cpp:165] Memory required for data: 2348687392
I0621 17:36:48.394008  7797 layer_factory.hpp:77] Creating layer conv5_5/dw/scale
I0621 17:36:48.394017  7797 net.cpp:100] Creating Layer conv5_5/dw/scale
I0621 17:36:48.394022  7797 net.cpp:434] conv5_5/dw/scale <- conv5_5/dw
I0621 17:36:48.394027  7797 net.cpp:395] conv5_5/dw/scale -> conv5_5/dw (in-place)
I0621 17:36:48.394081  7797 layer_factory.hpp:77] Creating layer conv5_5/dw/scale
I0621 17:36:48.394220  7797 net.cpp:150] Setting up conv5_5/dw/scale
I0621 17:36:48.394230  7797 net.cpp:157] Top shape: 16 512 19 19 (2957312)
I0621 17:36:48.394235  7797 net.cpp:165] Memory required for data: 2360516640
I0621 17:36:48.394242  7797 layer_factory.hpp:77] Creating layer conv5_5/dw_relu
I0621 17:36:48.394248  7797 net.cpp:100] Creating Layer conv5_5/dw_relu
I0621 17:36:48.394253  7797 net.cpp:434] conv5_5/dw_relu <- conv5_5/dw
I0621 17:36:48.394261  7797 net.cpp:395] conv5_5/dw_relu -> conv5_5/dw (in-place)
I0621 17:36:48.394459  7797 net.cpp:150] Setting up conv5_5/dw_relu
I0621 17:36:48.394469  7797 net.cpp:157] Top shape: 16 512 19 19 (2957312)
I0621 17:36:48.394472  7797 net.cpp:165] Memory required for data: 2372345888
I0621 17:36:48.394476  7797 layer_factory.hpp:77] Creating layer conv5_5/sep
I0621 17:36:48.394497  7797 net.cpp:100] Creating Layer conv5_5/sep
I0621 17:36:48.394501  7797 net.cpp:434] conv5_5/sep <- conv5_5/dw
I0621 17:36:48.394510  7797 net.cpp:408] conv5_5/sep -> conv5_5/sep
I0621 17:36:48.400077  7797 net.cpp:150] Setting up conv5_5/sep
I0621 17:36:48.400092  7797 net.cpp:157] Top shape: 16 512 19 19 (2957312)
I0621 17:36:48.400097  7797 net.cpp:165] Memory required for data: 2384175136
I0621 17:36:48.400104  7797 layer_factory.hpp:77] Creating layer conv5_5/sep/bn
I0621 17:36:48.400110  7797 net.cpp:100] Creating Layer conv5_5/sep/bn
I0621 17:36:48.400117  7797 net.cpp:434] conv5_5/sep/bn <- conv5_5/sep
I0621 17:36:48.400123  7797 net.cpp:395] conv5_5/sep/bn -> conv5_5/sep (in-place)
I0621 17:36:48.400362  7797 net.cpp:150] Setting up conv5_5/sep/bn
I0621 17:36:48.400372  7797 net.cpp:157] Top shape: 16 512 19 19 (2957312)
I0621 17:36:48.400375  7797 net.cpp:165] Memory required for data: 2396004384
I0621 17:36:48.400383  7797 layer_factory.hpp:77] Creating layer conv5_5/sep/scale
I0621 17:36:48.400390  7797 net.cpp:100] Creating Layer conv5_5/sep/scale
I0621 17:36:48.400395  7797 net.cpp:434] conv5_5/sep/scale <- conv5_5/sep
I0621 17:36:48.400400  7797 net.cpp:395] conv5_5/sep/scale -> conv5_5/sep (in-place)
I0621 17:36:48.400451  7797 layer_factory.hpp:77] Creating layer conv5_5/sep/scale
I0621 17:36:48.400588  7797 net.cpp:150] Setting up conv5_5/sep/scale
I0621 17:36:48.400598  7797 net.cpp:157] Top shape: 16 512 19 19 (2957312)
I0621 17:36:48.400601  7797 net.cpp:165] Memory required for data: 2407833632
I0621 17:36:48.400607  7797 layer_factory.hpp:77] Creating layer conv5_5/sep_relu
I0621 17:36:48.400614  7797 net.cpp:100] Creating Layer conv5_5/sep_relu
I0621 17:36:48.400619  7797 net.cpp:434] conv5_5/sep_relu <- conv5_5/sep
I0621 17:36:48.400626  7797 net.cpp:395] conv5_5/sep_relu -> conv5_5/sep (in-place)
I0621 17:36:48.401310  7797 net.cpp:150] Setting up conv5_5/sep_relu
I0621 17:36:48.401322  7797 net.cpp:157] Top shape: 16 512 19 19 (2957312)
I0621 17:36:48.401326  7797 net.cpp:165] Memory required for data: 2419662880
I0621 17:36:48.401330  7797 layer_factory.hpp:77] Creating layer conv5_5/sep_conv5_5/sep_relu_0_split
I0621 17:36:48.401338  7797 net.cpp:100] Creating Layer conv5_5/sep_conv5_5/sep_relu_0_split
I0621 17:36:48.401342  7797 net.cpp:434] conv5_5/sep_conv5_5/sep_relu_0_split <- conv5_5/sep
I0621 17:36:48.401348  7797 net.cpp:408] conv5_5/sep_conv5_5/sep_relu_0_split -> conv5_5/sep_conv5_5/sep_relu_0_split_0
I0621 17:36:48.401360  7797 net.cpp:408] conv5_5/sep_conv5_5/sep_relu_0_split -> conv5_5/sep_conv5_5/sep_relu_0_split_1
I0621 17:36:48.401366  7797 net.cpp:408] conv5_5/sep_conv5_5/sep_relu_0_split -> conv5_5/sep_conv5_5/sep_relu_0_split_2
I0621 17:36:48.401374  7797 net.cpp:408] conv5_5/sep_conv5_5/sep_relu_0_split -> conv5_5/sep_conv5_5/sep_relu_0_split_3
I0621 17:36:48.401453  7797 net.cpp:150] Setting up conv5_5/sep_conv5_5/sep_relu_0_split
I0621 17:36:48.401461  7797 net.cpp:157] Top shape: 16 512 19 19 (2957312)
I0621 17:36:48.401468  7797 net.cpp:157] Top shape: 16 512 19 19 (2957312)
I0621 17:36:48.401471  7797 net.cpp:157] Top shape: 16 512 19 19 (2957312)
I0621 17:36:48.401477  7797 net.cpp:157] Top shape: 16 512 19 19 (2957312)
I0621 17:36:48.401480  7797 net.cpp:165] Memory required for data: 2466979872
I0621 17:36:48.401484  7797 layer_factory.hpp:77] Creating layer conv5_6/dw
I0621 17:36:48.401491  7797 net.cpp:100] Creating Layer conv5_6/dw
I0621 17:36:48.401495  7797 net.cpp:434] conv5_6/dw <- conv5_5/sep_conv5_5/sep_relu_0_split_0
I0621 17:36:48.401504  7797 net.cpp:408] conv5_6/dw -> conv5_6/dw
I0621 17:36:48.401787  7797 net.cpp:150] Setting up conv5_6/dw
I0621 17:36:48.401796  7797 net.cpp:157] Top shape: 16 512 10 10 (819200)
I0621 17:36:48.401800  7797 net.cpp:165] Memory required for data: 2470256672
I0621 17:36:48.401805  7797 layer_factory.hpp:77] Creating layer conv5_6/dw/bn
I0621 17:36:48.401813  7797 net.cpp:100] Creating Layer conv5_6/dw/bn
I0621 17:36:48.401818  7797 net.cpp:434] conv5_6/dw/bn <- conv5_6/dw
I0621 17:36:48.401823  7797 net.cpp:395] conv5_6/dw/bn -> conv5_6/dw (in-place)
I0621 17:36:48.402071  7797 net.cpp:150] Setting up conv5_6/dw/bn
I0621 17:36:48.402081  7797 net.cpp:157] Top shape: 16 512 10 10 (819200)
I0621 17:36:48.402086  7797 net.cpp:165] Memory required for data: 2473533472
I0621 17:36:48.402093  7797 layer_factory.hpp:77] Creating layer conv5_6/dw/scale
I0621 17:36:48.402101  7797 net.cpp:100] Creating Layer conv5_6/dw/scale
I0621 17:36:48.402106  7797 net.cpp:434] conv5_6/dw/scale <- conv5_6/dw
I0621 17:36:48.402110  7797 net.cpp:395] conv5_6/dw/scale -> conv5_6/dw (in-place)
I0621 17:36:48.402158  7797 layer_factory.hpp:77] Creating layer conv5_6/dw/scale
I0621 17:36:48.402305  7797 net.cpp:150] Setting up conv5_6/dw/scale
I0621 17:36:48.402314  7797 net.cpp:157] Top shape: 16 512 10 10 (819200)
I0621 17:36:48.402319  7797 net.cpp:165] Memory required for data: 2476810272
I0621 17:36:48.402326  7797 layer_factory.hpp:77] Creating layer conv5_6/dw_relu
I0621 17:36:48.402334  7797 net.cpp:100] Creating Layer conv5_6/dw_relu
I0621 17:36:48.402338  7797 net.cpp:434] conv5_6/dw_relu <- conv5_6/dw
I0621 17:36:48.402343  7797 net.cpp:395] conv5_6/dw_relu -> conv5_6/dw (in-place)
I0621 17:36:48.403010  7797 net.cpp:150] Setting up conv5_6/dw_relu
I0621 17:36:48.403023  7797 net.cpp:157] Top shape: 16 512 10 10 (819200)
I0621 17:36:48.403026  7797 net.cpp:165] Memory required for data: 2480087072
I0621 17:36:48.403030  7797 layer_factory.hpp:77] Creating layer conv5_6/sep
I0621 17:36:48.403040  7797 net.cpp:100] Creating Layer conv5_6/sep
I0621 17:36:48.403045  7797 net.cpp:434] conv5_6/sep <- conv5_6/dw
I0621 17:36:48.403051  7797 net.cpp:408] conv5_6/sep -> conv5_6/sep
I0621 17:36:48.412449  7797 net.cpp:150] Setting up conv5_6/sep
I0621 17:36:48.412464  7797 net.cpp:157] Top shape: 16 1024 10 10 (1638400)
I0621 17:36:48.412467  7797 net.cpp:165] Memory required for data: 2486640672
I0621 17:36:48.412473  7797 layer_factory.hpp:77] Creating layer conv5_6/sep/bn
I0621 17:36:48.412482  7797 net.cpp:100] Creating Layer conv5_6/sep/bn
I0621 17:36:48.412487  7797 net.cpp:434] conv5_6/sep/bn <- conv5_6/sep
I0621 17:36:48.412492  7797 net.cpp:395] conv5_6/sep/bn -> conv5_6/sep (in-place)
I0621 17:36:48.412735  7797 net.cpp:150] Setting up conv5_6/sep/bn
I0621 17:36:48.412744  7797 net.cpp:157] Top shape: 16 1024 10 10 (1638400)
I0621 17:36:48.412748  7797 net.cpp:165] Memory required for data: 2493194272
I0621 17:36:48.412756  7797 layer_factory.hpp:77] Creating layer conv5_6/sep/scale
I0621 17:36:48.412765  7797 net.cpp:100] Creating Layer conv5_6/sep/scale
I0621 17:36:48.412770  7797 net.cpp:434] conv5_6/sep/scale <- conv5_6/sep
I0621 17:36:48.412775  7797 net.cpp:395] conv5_6/sep/scale -> conv5_6/sep (in-place)
I0621 17:36:48.412822  7797 layer_factory.hpp:77] Creating layer conv5_6/sep/scale
I0621 17:36:48.412961  7797 net.cpp:150] Setting up conv5_6/sep/scale
I0621 17:36:48.412971  7797 net.cpp:157] Top shape: 16 1024 10 10 (1638400)
I0621 17:36:48.412974  7797 net.cpp:165] Memory required for data: 2499747872
I0621 17:36:48.412981  7797 layer_factory.hpp:77] Creating layer conv5_6/sep_relu
I0621 17:36:48.412989  7797 net.cpp:100] Creating Layer conv5_6/sep_relu
I0621 17:36:48.412994  7797 net.cpp:434] conv5_6/sep_relu <- conv5_6/sep
I0621 17:36:48.412999  7797 net.cpp:395] conv5_6/sep_relu -> conv5_6/sep (in-place)
I0621 17:36:48.413197  7797 net.cpp:150] Setting up conv5_6/sep_relu
I0621 17:36:48.413208  7797 net.cpp:157] Top shape: 16 1024 10 10 (1638400)
I0621 17:36:48.413213  7797 net.cpp:165] Memory required for data: 2506301472
I0621 17:36:48.413215  7797 layer_factory.hpp:77] Creating layer conv6/dw
I0621 17:36:48.413224  7797 net.cpp:100] Creating Layer conv6/dw
I0621 17:36:48.413229  7797 net.cpp:434] conv6/dw <- conv5_6/sep
I0621 17:36:48.413236  7797 net.cpp:408] conv6/dw -> conv6/dw
I0621 17:36:48.413594  7797 net.cpp:150] Setting up conv6/dw
I0621 17:36:48.413602  7797 net.cpp:157] Top shape: 16 1024 10 10 (1638400)
I0621 17:36:48.413606  7797 net.cpp:165] Memory required for data: 2512855072
I0621 17:36:48.413611  7797 layer_factory.hpp:77] Creating layer conv6/dw/bn
I0621 17:36:48.413630  7797 net.cpp:100] Creating Layer conv6/dw/bn
I0621 17:36:48.413635  7797 net.cpp:434] conv6/dw/bn <- conv6/dw
I0621 17:36:48.413640  7797 net.cpp:395] conv6/dw/bn -> conv6/dw (in-place)
I0621 17:36:48.413873  7797 net.cpp:150] Setting up conv6/dw/bn
I0621 17:36:48.413882  7797 net.cpp:157] Top shape: 16 1024 10 10 (1638400)
I0621 17:36:48.413885  7797 net.cpp:165] Memory required for data: 2519408672
I0621 17:36:48.413893  7797 layer_factory.hpp:77] Creating layer conv6/dw/scale
I0621 17:36:48.413903  7797 net.cpp:100] Creating Layer conv6/dw/scale
I0621 17:36:48.413908  7797 net.cpp:434] conv6/dw/scale <- conv6/dw
I0621 17:36:48.413913  7797 net.cpp:395] conv6/dw/scale -> conv6/dw (in-place)
I0621 17:36:48.413959  7797 layer_factory.hpp:77] Creating layer conv6/dw/scale
I0621 17:36:48.414099  7797 net.cpp:150] Setting up conv6/dw/scale
I0621 17:36:48.414108  7797 net.cpp:157] Top shape: 16 1024 10 10 (1638400)
I0621 17:36:48.414111  7797 net.cpp:165] Memory required for data: 2525962272
I0621 17:36:48.414117  7797 layer_factory.hpp:77] Creating layer conv6/dw_relu
I0621 17:36:48.414124  7797 net.cpp:100] Creating Layer conv6/dw_relu
I0621 17:36:48.414127  7797 net.cpp:434] conv6/dw_relu <- conv6/dw
I0621 17:36:48.414132  7797 net.cpp:395] conv6/dw_relu -> conv6/dw (in-place)
I0621 17:36:48.414801  7797 net.cpp:150] Setting up conv6/dw_relu
I0621 17:36:48.414814  7797 net.cpp:157] Top shape: 16 1024 10 10 (1638400)
I0621 17:36:48.414818  7797 net.cpp:165] Memory required for data: 2532515872
I0621 17:36:48.414821  7797 layer_factory.hpp:77] Creating layer conv6/sep
I0621 17:36:48.414831  7797 net.cpp:100] Creating Layer conv6/sep
I0621 17:36:48.414836  7797 net.cpp:434] conv6/sep <- conv6/dw
I0621 17:36:48.414844  7797 net.cpp:408] conv6/sep -> conv6/sep
I0621 17:36:48.431170  7797 net.cpp:150] Setting up conv6/sep
I0621 17:36:48.431185  7797 net.cpp:157] Top shape: 16 1024 10 10 (1638400)
I0621 17:36:48.431188  7797 net.cpp:165] Memory required for data: 2539069472
I0621 17:36:48.431193  7797 layer_factory.hpp:77] Creating layer conv6/sep/bn
I0621 17:36:48.431201  7797 net.cpp:100] Creating Layer conv6/sep/bn
I0621 17:36:48.431205  7797 net.cpp:434] conv6/sep/bn <- conv6/sep
I0621 17:36:48.431210  7797 net.cpp:395] conv6/sep/bn -> conv6/sep (in-place)
I0621 17:36:48.431452  7797 net.cpp:150] Setting up conv6/sep/bn
I0621 17:36:48.431462  7797 net.cpp:157] Top shape: 16 1024 10 10 (1638400)
I0621 17:36:48.431464  7797 net.cpp:165] Memory required for data: 2545623072
I0621 17:36:48.431473  7797 layer_factory.hpp:77] Creating layer conv6/sep/scale
I0621 17:36:48.431478  7797 net.cpp:100] Creating Layer conv6/sep/scale
I0621 17:36:48.431481  7797 net.cpp:434] conv6/sep/scale <- conv6/sep
I0621 17:36:48.431488  7797 net.cpp:395] conv6/sep/scale -> conv6/sep (in-place)
I0621 17:36:48.431535  7797 layer_factory.hpp:77] Creating layer conv6/sep/scale
I0621 17:36:48.431675  7797 net.cpp:150] Setting up conv6/sep/scale
I0621 17:36:48.431684  7797 net.cpp:157] Top shape: 16 1024 10 10 (1638400)
I0621 17:36:48.431687  7797 net.cpp:165] Memory required for data: 2552176672
I0621 17:36:48.431694  7797 layer_factory.hpp:77] Creating layer conv6/sep_relu
I0621 17:36:48.431700  7797 net.cpp:100] Creating Layer conv6/sep_relu
I0621 17:36:48.431704  7797 net.cpp:434] conv6/sep_relu <- conv6/sep
I0621 17:36:48.431709  7797 net.cpp:395] conv6/sep_relu -> conv6/sep (in-place)
I0621 17:36:48.431907  7797 net.cpp:150] Setting up conv6/sep_relu
I0621 17:36:48.431917  7797 net.cpp:157] Top shape: 16 1024 10 10 (1638400)
I0621 17:36:48.431921  7797 net.cpp:165] Memory required for data: 2558730272
I0621 17:36:48.431923  7797 layer_factory.hpp:77] Creating layer conv7_1
I0621 17:36:48.431932  7797 net.cpp:100] Creating Layer conv7_1
I0621 17:36:48.431936  7797 net.cpp:434] conv7_1 <- conv6/sep
I0621 17:36:48.431942  7797 net.cpp:408] conv7_1 -> conv7_1
I0621 17:36:48.437507  7797 net.cpp:150] Setting up conv7_1
I0621 17:36:48.437521  7797 net.cpp:157] Top shape: 16 256 10 10 (409600)
I0621 17:36:48.437537  7797 net.cpp:165] Memory required for data: 2560368672
I0621 17:36:48.437544  7797 layer_factory.hpp:77] Creating layer conv7_1_bn
I0621 17:36:48.437551  7797 net.cpp:100] Creating Layer conv7_1_bn
I0621 17:36:48.437556  7797 net.cpp:434] conv7_1_bn <- conv7_1
I0621 17:36:48.437561  7797 net.cpp:395] conv7_1_bn -> conv7_1 (in-place)
I0621 17:36:48.437804  7797 net.cpp:150] Setting up conv7_1_bn
I0621 17:36:48.437813  7797 net.cpp:157] Top shape: 16 256 10 10 (409600)
I0621 17:36:48.437815  7797 net.cpp:165] Memory required for data: 2562007072
I0621 17:36:48.437824  7797 layer_factory.hpp:77] Creating layer conv7_1_scale
I0621 17:36:48.437829  7797 net.cpp:100] Creating Layer conv7_1_scale
I0621 17:36:48.437834  7797 net.cpp:434] conv7_1_scale <- conv7_1
I0621 17:36:48.437839  7797 net.cpp:395] conv7_1_scale -> conv7_1 (in-place)
I0621 17:36:48.437891  7797 layer_factory.hpp:77] Creating layer conv7_1_scale
I0621 17:36:48.438029  7797 net.cpp:150] Setting up conv7_1_scale
I0621 17:36:48.438036  7797 net.cpp:157] Top shape: 16 256 10 10 (409600)
I0621 17:36:48.438043  7797 net.cpp:165] Memory required for data: 2563645472
I0621 17:36:48.438050  7797 layer_factory.hpp:77] Creating layer conv7_1_relu
I0621 17:36:48.438057  7797 net.cpp:100] Creating Layer conv7_1_relu
I0621 17:36:48.438061  7797 net.cpp:434] conv7_1_relu <- conv7_1
I0621 17:36:48.438066  7797 net.cpp:395] conv7_1_relu -> conv7_1 (in-place)
I0621 17:36:48.438746  7797 net.cpp:150] Setting up conv7_1_relu
I0621 17:36:48.438760  7797 net.cpp:157] Top shape: 16 256 10 10 (409600)
I0621 17:36:48.438763  7797 net.cpp:165] Memory required for data: 2565283872
I0621 17:36:48.438767  7797 layer_factory.hpp:77] Creating layer conv7_2
I0621 17:36:48.438777  7797 net.cpp:100] Creating Layer conv7_2
I0621 17:36:48.438782  7797 net.cpp:434] conv7_2 <- conv7_1
I0621 17:36:48.438788  7797 net.cpp:408] conv7_2 -> conv7_2
I0621 17:36:48.456454  7797 net.cpp:150] Setting up conv7_2
I0621 17:36:48.456473  7797 net.cpp:157] Top shape: 16 512 5 5 (204800)
I0621 17:36:48.456476  7797 net.cpp:165] Memory required for data: 2566103072
I0621 17:36:48.456482  7797 layer_factory.hpp:77] Creating layer conv7_2_bn
I0621 17:36:48.456490  7797 net.cpp:100] Creating Layer conv7_2_bn
I0621 17:36:48.456499  7797 net.cpp:434] conv7_2_bn <- conv7_2
I0621 17:36:48.456506  7797 net.cpp:395] conv7_2_bn -> conv7_2 (in-place)
I0621 17:36:48.456761  7797 net.cpp:150] Setting up conv7_2_bn
I0621 17:36:48.456769  7797 net.cpp:157] Top shape: 16 512 5 5 (204800)
I0621 17:36:48.456778  7797 net.cpp:165] Memory required for data: 2566922272
I0621 17:36:48.456785  7797 layer_factory.hpp:77] Creating layer conv7_2_scale
I0621 17:36:48.456792  7797 net.cpp:100] Creating Layer conv7_2_scale
I0621 17:36:48.456799  7797 net.cpp:434] conv7_2_scale <- conv7_2
I0621 17:36:48.456805  7797 net.cpp:395] conv7_2_scale -> conv7_2 (in-place)
I0621 17:36:48.456852  7797 layer_factory.hpp:77] Creating layer conv7_2_scale
I0621 17:36:48.456997  7797 net.cpp:150] Setting up conv7_2_scale
I0621 17:36:48.457005  7797 net.cpp:157] Top shape: 16 512 5 5 (204800)
I0621 17:36:48.457010  7797 net.cpp:165] Memory required for data: 2567741472
I0621 17:36:48.457016  7797 layer_factory.hpp:77] Creating layer conv7_2_relu
I0621 17:36:48.457023  7797 net.cpp:100] Creating Layer conv7_2_relu
I0621 17:36:48.457026  7797 net.cpp:434] conv7_2_relu <- conv7_2
I0621 17:36:48.457031  7797 net.cpp:395] conv7_2_relu -> conv7_2 (in-place)
I0621 17:36:48.457705  7797 net.cpp:150] Setting up conv7_2_relu
I0621 17:36:48.457717  7797 net.cpp:157] Top shape: 16 512 5 5 (204800)
I0621 17:36:48.457722  7797 net.cpp:165] Memory required for data: 2568560672
I0621 17:36:48.457726  7797 layer_factory.hpp:77] Creating layer conv7_2_conv7_2_relu_0_split
I0621 17:36:48.457734  7797 net.cpp:100] Creating Layer conv7_2_conv7_2_relu_0_split
I0621 17:36:48.457739  7797 net.cpp:434] conv7_2_conv7_2_relu_0_split <- conv7_2
I0621 17:36:48.457746  7797 net.cpp:408] conv7_2_conv7_2_relu_0_split -> conv7_2_conv7_2_relu_0_split_0
I0621 17:36:48.457767  7797 net.cpp:408] conv7_2_conv7_2_relu_0_split -> conv7_2_conv7_2_relu_0_split_1
I0621 17:36:48.457774  7797 net.cpp:408] conv7_2_conv7_2_relu_0_split -> conv7_2_conv7_2_relu_0_split_2
I0621 17:36:48.457782  7797 net.cpp:408] conv7_2_conv7_2_relu_0_split -> conv7_2_conv7_2_relu_0_split_3
I0621 17:36:48.457867  7797 net.cpp:150] Setting up conv7_2_conv7_2_relu_0_split
I0621 17:36:48.457875  7797 net.cpp:157] Top shape: 16 512 5 5 (204800)
I0621 17:36:48.457881  7797 net.cpp:157] Top shape: 16 512 5 5 (204800)
I0621 17:36:48.457885  7797 net.cpp:157] Top shape: 16 512 5 5 (204800)
I0621 17:36:48.457890  7797 net.cpp:157] Top shape: 16 512 5 5 (204800)
I0621 17:36:48.457893  7797 net.cpp:165] Memory required for data: 2571837472
I0621 17:36:48.457897  7797 layer_factory.hpp:77] Creating layer conv8_1
I0621 17:36:48.457907  7797 net.cpp:100] Creating Layer conv8_1
I0621 17:36:48.457912  7797 net.cpp:434] conv8_1 <- conv7_2_conv7_2_relu_0_split_0
I0621 17:36:48.457918  7797 net.cpp:408] conv8_1 -> conv8_1
I0621 17:36:48.460572  7797 net.cpp:150] Setting up conv8_1
I0621 17:36:48.460587  7797 net.cpp:157] Top shape: 16 128 5 5 (51200)
I0621 17:36:48.460590  7797 net.cpp:165] Memory required for data: 2572042272
I0621 17:36:48.460597  7797 layer_factory.hpp:77] Creating layer conv8_1_bn
I0621 17:36:48.460604  7797 net.cpp:100] Creating Layer conv8_1_bn
I0621 17:36:48.460609  7797 net.cpp:434] conv8_1_bn <- conv8_1
I0621 17:36:48.460614  7797 net.cpp:395] conv8_1_bn -> conv8_1 (in-place)
I0621 17:36:48.460858  7797 net.cpp:150] Setting up conv8_1_bn
I0621 17:36:48.460868  7797 net.cpp:157] Top shape: 16 128 5 5 (51200)
I0621 17:36:48.460872  7797 net.cpp:165] Memory required for data: 2572247072
I0621 17:36:48.460880  7797 layer_factory.hpp:77] Creating layer conv8_1_scale
I0621 17:36:48.460887  7797 net.cpp:100] Creating Layer conv8_1_scale
I0621 17:36:48.460892  7797 net.cpp:434] conv8_1_scale <- conv8_1
I0621 17:36:48.460897  7797 net.cpp:395] conv8_1_scale -> conv8_1 (in-place)
I0621 17:36:48.460948  7797 layer_factory.hpp:77] Creating layer conv8_1_scale
I0621 17:36:48.461086  7797 net.cpp:150] Setting up conv8_1_scale
I0621 17:36:48.461096  7797 net.cpp:157] Top shape: 16 128 5 5 (51200)
I0621 17:36:48.461099  7797 net.cpp:165] Memory required for data: 2572451872
I0621 17:36:48.461105  7797 layer_factory.hpp:77] Creating layer conv8_1_relu
I0621 17:36:48.461113  7797 net.cpp:100] Creating Layer conv8_1_relu
I0621 17:36:48.461117  7797 net.cpp:434] conv8_1_relu <- conv8_1
I0621 17:36:48.461122  7797 net.cpp:395] conv8_1_relu -> conv8_1 (in-place)
I0621 17:36:48.461319  7797 net.cpp:150] Setting up conv8_1_relu
I0621 17:36:48.461330  7797 net.cpp:157] Top shape: 16 128 5 5 (51200)
I0621 17:36:48.461334  7797 net.cpp:165] Memory required for data: 2572656672
I0621 17:36:48.461338  7797 layer_factory.hpp:77] Creating layer conv8_2
I0621 17:36:48.461347  7797 net.cpp:100] Creating Layer conv8_2
I0621 17:36:48.461351  7797 net.cpp:434] conv8_2 <- conv8_1
I0621 17:36:48.461357  7797 net.cpp:408] conv8_2 -> conv8_2
I0621 17:36:48.467406  7797 net.cpp:150] Setting up conv8_2
I0621 17:36:48.467419  7797 net.cpp:157] Top shape: 16 256 3 3 (36864)
I0621 17:36:48.467427  7797 net.cpp:165] Memory required for data: 2572804128
I0621 17:36:48.467433  7797 layer_factory.hpp:77] Creating layer conv8_2_bn
I0621 17:36:48.467440  7797 net.cpp:100] Creating Layer conv8_2_bn
I0621 17:36:48.467444  7797 net.cpp:434] conv8_2_bn <- conv8_2
I0621 17:36:48.467449  7797 net.cpp:395] conv8_2_bn -> conv8_2 (in-place)
I0621 17:36:48.467700  7797 net.cpp:150] Setting up conv8_2_bn
I0621 17:36:48.467707  7797 net.cpp:157] Top shape: 16 256 3 3 (36864)
I0621 17:36:48.467710  7797 net.cpp:165] Memory required for data: 2572951584
I0621 17:36:48.467718  7797 layer_factory.hpp:77] Creating layer conv8_2_scale
I0621 17:36:48.467725  7797 net.cpp:100] Creating Layer conv8_2_scale
I0621 17:36:48.467728  7797 net.cpp:434] conv8_2_scale <- conv8_2
I0621 17:36:48.467733  7797 net.cpp:395] conv8_2_scale -> conv8_2 (in-place)
I0621 17:36:48.467787  7797 layer_factory.hpp:77] Creating layer conv8_2_scale
I0621 17:36:48.467939  7797 net.cpp:150] Setting up conv8_2_scale
I0621 17:36:48.467952  7797 net.cpp:157] Top shape: 16 256 3 3 (36864)
I0621 17:36:48.467955  7797 net.cpp:165] Memory required for data: 2573099040
I0621 17:36:48.467962  7797 layer_factory.hpp:77] Creating layer conv8_2_relu
I0621 17:36:48.467981  7797 net.cpp:100] Creating Layer conv8_2_relu
I0621 17:36:48.467986  7797 net.cpp:434] conv8_2_relu <- conv8_2
I0621 17:36:48.467993  7797 net.cpp:395] conv8_2_relu -> conv8_2 (in-place)
I0621 17:36:48.468669  7797 net.cpp:150] Setting up conv8_2_relu
I0621 17:36:48.468683  7797 net.cpp:157] Top shape: 16 256 3 3 (36864)
I0621 17:36:48.468688  7797 net.cpp:165] Memory required for data: 2573246496
I0621 17:36:48.468691  7797 layer_factory.hpp:77] Creating layer conv8_2_conv8_2_relu_0_split
I0621 17:36:48.468698  7797 net.cpp:100] Creating Layer conv8_2_conv8_2_relu_0_split
I0621 17:36:48.468703  7797 net.cpp:434] conv8_2_conv8_2_relu_0_split <- conv8_2
I0621 17:36:48.468710  7797 net.cpp:408] conv8_2_conv8_2_relu_0_split -> conv8_2_conv8_2_relu_0_split_0
I0621 17:36:48.468719  7797 net.cpp:408] conv8_2_conv8_2_relu_0_split -> conv8_2_conv8_2_relu_0_split_1
I0621 17:36:48.468726  7797 net.cpp:408] conv8_2_conv8_2_relu_0_split -> conv8_2_conv8_2_relu_0_split_2
I0621 17:36:48.468735  7797 net.cpp:408] conv8_2_conv8_2_relu_0_split -> conv8_2_conv8_2_relu_0_split_3
I0621 17:36:48.468822  7797 net.cpp:150] Setting up conv8_2_conv8_2_relu_0_split
I0621 17:36:48.468829  7797 net.cpp:157] Top shape: 16 256 3 3 (36864)
I0621 17:36:48.468835  7797 net.cpp:157] Top shape: 16 256 3 3 (36864)
I0621 17:36:48.468839  7797 net.cpp:157] Top shape: 16 256 3 3 (36864)
I0621 17:36:48.468844  7797 net.cpp:157] Top shape: 16 256 3 3 (36864)
I0621 17:36:48.468847  7797 net.cpp:165] Memory required for data: 2573836320
I0621 17:36:48.468850  7797 layer_factory.hpp:77] Creating layer conv9_1
I0621 17:36:48.468861  7797 net.cpp:100] Creating Layer conv9_1
I0621 17:36:48.468866  7797 net.cpp:434] conv9_1 <- conv8_2_conv8_2_relu_0_split_0
I0621 17:36:48.468873  7797 net.cpp:408] conv9_1 -> conv9_1
I0621 17:36:48.470641  7797 net.cpp:150] Setting up conv9_1
I0621 17:36:48.470655  7797 net.cpp:157] Top shape: 16 128 3 3 (18432)
I0621 17:36:48.470659  7797 net.cpp:165] Memory required for data: 2573910048
I0621 17:36:48.470665  7797 layer_factory.hpp:77] Creating layer conv9_1_bn
I0621 17:36:48.470672  7797 net.cpp:100] Creating Layer conv9_1_bn
I0621 17:36:48.470677  7797 net.cpp:434] conv9_1_bn <- conv9_1
I0621 17:36:48.470683  7797 net.cpp:395] conv9_1_bn -> conv9_1 (in-place)
I0621 17:36:48.470927  7797 net.cpp:150] Setting up conv9_1_bn
I0621 17:36:48.470939  7797 net.cpp:157] Top shape: 16 128 3 3 (18432)
I0621 17:36:48.470943  7797 net.cpp:165] Memory required for data: 2573983776
I0621 17:36:48.470952  7797 layer_factory.hpp:77] Creating layer conv9_1_scale
I0621 17:36:48.470958  7797 net.cpp:100] Creating Layer conv9_1_scale
I0621 17:36:48.470963  7797 net.cpp:434] conv9_1_scale <- conv9_1
I0621 17:36:48.470968  7797 net.cpp:395] conv9_1_scale -> conv9_1 (in-place)
I0621 17:36:48.471019  7797 layer_factory.hpp:77] Creating layer conv9_1_scale
I0621 17:36:48.471158  7797 net.cpp:150] Setting up conv9_1_scale
I0621 17:36:48.471166  7797 net.cpp:157] Top shape: 16 128 3 3 (18432)
I0621 17:36:48.471170  7797 net.cpp:165] Memory required for data: 2574057504
I0621 17:36:48.471177  7797 layer_factory.hpp:77] Creating layer conv9_1_relu
I0621 17:36:48.471184  7797 net.cpp:100] Creating Layer conv9_1_relu
I0621 17:36:48.471187  7797 net.cpp:434] conv9_1_relu <- conv9_1
I0621 17:36:48.471194  7797 net.cpp:395] conv9_1_relu -> conv9_1 (in-place)
I0621 17:36:48.471863  7797 net.cpp:150] Setting up conv9_1_relu
I0621 17:36:48.471874  7797 net.cpp:157] Top shape: 16 128 3 3 (18432)
I0621 17:36:48.471879  7797 net.cpp:165] Memory required for data: 2574131232
I0621 17:36:48.471882  7797 layer_factory.hpp:77] Creating layer conv9_2
I0621 17:36:48.471894  7797 net.cpp:100] Creating Layer conv9_2
I0621 17:36:48.471909  7797 net.cpp:434] conv9_2 <- conv9_1
I0621 17:36:48.471916  7797 net.cpp:408] conv9_2 -> conv9_2
I0621 17:36:48.478421  7797 net.cpp:150] Setting up conv9_2
I0621 17:36:48.478435  7797 net.cpp:157] Top shape: 16 256 1 1 (4096)
I0621 17:36:48.478440  7797 net.cpp:165] Memory required for data: 2574147616
I0621 17:36:48.478446  7797 layer_factory.hpp:77] Creating layer conv9_2_bn
I0621 17:36:48.478453  7797 net.cpp:100] Creating Layer conv9_2_bn
I0621 17:36:48.478458  7797 net.cpp:434] conv9_2_bn <- conv9_2
I0621 17:36:48.478464  7797 net.cpp:395] conv9_2_bn -> conv9_2 (in-place)
I0621 17:36:48.478710  7797 net.cpp:150] Setting up conv9_2_bn
I0621 17:36:48.478718  7797 net.cpp:157] Top shape: 16 256 1 1 (4096)
I0621 17:36:48.478723  7797 net.cpp:165] Memory required for data: 2574164000
I0621 17:36:48.478730  7797 layer_factory.hpp:77] Creating layer conv9_2_scale
I0621 17:36:48.478739  7797 net.cpp:100] Creating Layer conv9_2_scale
I0621 17:36:48.478744  7797 net.cpp:434] conv9_2_scale <- conv9_2
I0621 17:36:48.478749  7797 net.cpp:395] conv9_2_scale -> conv9_2 (in-place)
I0621 17:36:48.478801  7797 layer_factory.hpp:77] Creating layer conv9_2_scale
I0621 17:36:48.478937  7797 net.cpp:150] Setting up conv9_2_scale
I0621 17:36:48.478945  7797 net.cpp:157] Top shape: 16 256 1 1 (4096)
I0621 17:36:48.478950  7797 net.cpp:165] Memory required for data: 2574180384
I0621 17:36:48.478956  7797 layer_factory.hpp:77] Creating layer conv9_2_relu
I0621 17:36:48.478962  7797 net.cpp:100] Creating Layer conv9_2_relu
I0621 17:36:48.478967  7797 net.cpp:434] conv9_2_relu <- conv9_2
I0621 17:36:48.478974  7797 net.cpp:395] conv9_2_relu -> conv9_2 (in-place)
I0621 17:36:48.479184  7797 net.cpp:150] Setting up conv9_2_relu
I0621 17:36:48.479193  7797 net.cpp:157] Top shape: 16 256 1 1 (4096)
I0621 17:36:48.479198  7797 net.cpp:165] Memory required for data: 2574196768
I0621 17:36:48.479202  7797 layer_factory.hpp:77] Creating layer conv9_2_conv9_2_relu_0_split
I0621 17:36:48.479209  7797 net.cpp:100] Creating Layer conv9_2_conv9_2_relu_0_split
I0621 17:36:48.479213  7797 net.cpp:434] conv9_2_conv9_2_relu_0_split <- conv9_2
I0621 17:36:48.479219  7797 net.cpp:408] conv9_2_conv9_2_relu_0_split -> conv9_2_conv9_2_relu_0_split_0
I0621 17:36:48.479229  7797 net.cpp:408] conv9_2_conv9_2_relu_0_split -> conv9_2_conv9_2_relu_0_split_1
I0621 17:36:48.479236  7797 net.cpp:408] conv9_2_conv9_2_relu_0_split -> conv9_2_conv9_2_relu_0_split_2
I0621 17:36:48.479244  7797 net.cpp:408] conv9_2_conv9_2_relu_0_split -> conv9_2_conv9_2_relu_0_split_3
I0621 17:36:48.479331  7797 net.cpp:150] Setting up conv9_2_conv9_2_relu_0_split
I0621 17:36:48.479338  7797 net.cpp:157] Top shape: 16 256 1 1 (4096)
I0621 17:36:48.479343  7797 net.cpp:157] Top shape: 16 256 1 1 (4096)
I0621 17:36:48.479347  7797 net.cpp:157] Top shape: 16 256 1 1 (4096)
I0621 17:36:48.479353  7797 net.cpp:157] Top shape: 16 256 1 1 (4096)
I0621 17:36:48.479356  7797 net.cpp:165] Memory required for data: 2574262304
I0621 17:36:48.479358  7797 layer_factory.hpp:77] Creating layer conv10_1
I0621 17:36:48.479368  7797 net.cpp:100] Creating Layer conv10_1
I0621 17:36:48.479373  7797 net.cpp:434] conv10_1 <- conv9_2_conv9_2_relu_0_split_0
I0621 17:36:48.479380  7797 net.cpp:408] conv10_1 -> conv10_1
I0621 17:36:48.481654  7797 net.cpp:150] Setting up conv10_1
I0621 17:36:48.481668  7797 net.cpp:157] Top shape: 16 128 1 1 (2048)
I0621 17:36:48.481673  7797 net.cpp:165] Memory required for data: 2574270496
I0621 17:36:48.481678  7797 layer_factory.hpp:77] Creating layer conv10_1_bn
I0621 17:36:48.481685  7797 net.cpp:100] Creating Layer conv10_1_bn
I0621 17:36:48.481690  7797 net.cpp:434] conv10_1_bn <- conv10_1
I0621 17:36:48.481696  7797 net.cpp:395] conv10_1_bn -> conv10_1 (in-place)
I0621 17:36:48.481945  7797 net.cpp:150] Setting up conv10_1_bn
I0621 17:36:48.481972  7797 net.cpp:157] Top shape: 16 128 1 1 (2048)
I0621 17:36:48.481984  7797 net.cpp:165] Memory required for data: 2574278688
I0621 17:36:48.482000  7797 layer_factory.hpp:77] Creating layer conv10_1_scale
I0621 17:36:48.482026  7797 net.cpp:100] Creating Layer conv10_1_scale
I0621 17:36:48.482038  7797 net.cpp:434] conv10_1_scale <- conv10_1
I0621 17:36:48.482053  7797 net.cpp:395] conv10_1_scale -> conv10_1 (in-place)
I0621 17:36:48.482116  7797 layer_factory.hpp:77] Creating layer conv10_1_scale
I0621 17:36:48.482280  7797 net.cpp:150] Setting up conv10_1_scale
I0621 17:36:48.482300  7797 net.cpp:157] Top shape: 16 128 1 1 (2048)
I0621 17:36:48.482311  7797 net.cpp:165] Memory required for data: 2574286880
I0621 17:36:48.482324  7797 layer_factory.hpp:77] Creating layer conv10_1_relu
I0621 17:36:48.482338  7797 net.cpp:100] Creating Layer conv10_1_relu
I0621 17:36:48.482349  7797 net.cpp:434] conv10_1_relu <- conv10_1
I0621 17:36:48.482362  7797 net.cpp:395] conv10_1_relu -> conv10_1 (in-place)
I0621 17:36:48.483054  7797 net.cpp:150] Setting up conv10_1_relu
I0621 17:36:48.483079  7797 net.cpp:157] Top shape: 16 128 1 1 (2048)
I0621 17:36:48.483091  7797 net.cpp:165] Memory required for data: 2574295072
I0621 17:36:48.483103  7797 layer_factory.hpp:77] Creating layer conv10_2
I0621 17:36:48.483119  7797 net.cpp:100] Creating Layer conv10_2
I0621 17:36:48.483132  7797 net.cpp:434] conv10_2 <- conv10_1
I0621 17:36:48.483150  7797 net.cpp:408] conv10_2 -> conv10_2
I0621 17:36:48.484942  7797 net.cpp:150] Setting up conv10_2
I0621 17:36:48.484971  7797 net.cpp:157] Top shape: 16 256 1 1 (4096)
I0621 17:36:48.484982  7797 net.cpp:165] Memory required for data: 2574311456
I0621 17:36:48.484995  7797 layer_factory.hpp:77] Creating layer conv10_2_bn
I0621 17:36:48.485009  7797 net.cpp:100] Creating Layer conv10_2_bn
I0621 17:36:48.485020  7797 net.cpp:434] conv10_2_bn <- conv10_2
I0621 17:36:48.485035  7797 net.cpp:395] conv10_2_bn -> conv10_2 (in-place)
I0621 17:36:48.485293  7797 net.cpp:150] Setting up conv10_2_bn
I0621 17:36:48.485311  7797 net.cpp:157] Top shape: 16 256 1 1 (4096)
I0621 17:36:48.485322  7797 net.cpp:165] Memory required for data: 2574327840
I0621 17:36:48.485337  7797 layer_factory.hpp:77] Creating layer conv10_2_scale
I0621 17:36:48.485357  7797 net.cpp:100] Creating Layer conv10_2_scale
I0621 17:36:48.485368  7797 net.cpp:434] conv10_2_scale <- conv10_2
I0621 17:36:48.485381  7797 net.cpp:395] conv10_2_scale -> conv10_2 (in-place)
I0621 17:36:48.485446  7797 layer_factory.hpp:77] Creating layer conv10_2_scale
I0621 17:36:48.485602  7797 net.cpp:150] Setting up conv10_2_scale
I0621 17:36:48.485620  7797 net.cpp:157] Top shape: 16 256 1 1 (4096)
I0621 17:36:48.485631  7797 net.cpp:165] Memory required for data: 2574344224
I0621 17:36:48.485646  7797 layer_factory.hpp:77] Creating layer conv10_2_relu
I0621 17:36:48.485658  7797 net.cpp:100] Creating Layer conv10_2_relu
I0621 17:36:48.485669  7797 net.cpp:434] conv10_2_relu <- conv10_2
I0621 17:36:48.485683  7797 net.cpp:395] conv10_2_relu -> conv10_2 (in-place)
I0621 17:36:48.486371  7797 net.cpp:150] Setting up conv10_2_relu
I0621 17:36:48.486397  7797 net.cpp:157] Top shape: 16 256 1 1 (4096)
I0621 17:36:48.486407  7797 net.cpp:165] Memory required for data: 2574360608
I0621 17:36:48.486418  7797 layer_factory.hpp:77] Creating layer conv10_2_conv10_2_relu_0_split
I0621 17:36:48.486434  7797 net.cpp:100] Creating Layer conv10_2_conv10_2_relu_0_split
I0621 17:36:48.486445  7797 net.cpp:434] conv10_2_conv10_2_relu_0_split <- conv10_2
I0621 17:36:48.486459  7797 net.cpp:408] conv10_2_conv10_2_relu_0_split -> conv10_2_conv10_2_relu_0_split_0
I0621 17:36:48.486477  7797 net.cpp:408] conv10_2_conv10_2_relu_0_split -> conv10_2_conv10_2_relu_0_split_1
I0621 17:36:48.486493  7797 net.cpp:408] conv10_2_conv10_2_relu_0_split -> conv10_2_conv10_2_relu_0_split_2
I0621 17:36:48.486587  7797 net.cpp:150] Setting up conv10_2_conv10_2_relu_0_split
I0621 17:36:48.486604  7797 net.cpp:157] Top shape: 16 256 1 1 (4096)
I0621 17:36:48.486618  7797 net.cpp:157] Top shape: 16 256 1 1 (4096)
I0621 17:36:48.486629  7797 net.cpp:157] Top shape: 16 256 1 1 (4096)
I0621 17:36:48.486639  7797 net.cpp:165] Memory required for data: 2574409760
I0621 17:36:48.486655  7797 layer_factory.hpp:77] Creating layer conv5_3/sep_norm
I0621 17:36:48.486678  7797 net.cpp:100] Creating Layer conv5_3/sep_norm
I0621 17:36:48.486691  7797 net.cpp:434] conv5_3/sep_norm <- conv5_3/sep_conv5_3/sep_relu_0_split_1
I0621 17:36:48.486706  7797 net.cpp:408] conv5_3/sep_norm -> conv5_3/sep_norm
I0621 17:36:48.486920  7797 net.cpp:150] Setting up conv5_3/sep_norm
I0621 17:36:48.486938  7797 net.cpp:157] Top shape: 16 512 19 19 (2957312)
I0621 17:36:48.486949  7797 net.cpp:165] Memory required for data: 2586239008
I0621 17:36:48.486963  7797 layer_factory.hpp:77] Creating layer conv5_3/sep_norm_conv5_3/sep_norm_0_split
I0621 17:36:48.486979  7797 net.cpp:100] Creating Layer conv5_3/sep_norm_conv5_3/sep_norm_0_split
I0621 17:36:48.486989  7797 net.cpp:434] conv5_3/sep_norm_conv5_3/sep_norm_0_split <- conv5_3/sep_norm
I0621 17:36:48.487005  7797 net.cpp:408] conv5_3/sep_norm_conv5_3/sep_norm_0_split -> conv5_3/sep_norm_conv5_3/sep_norm_0_split_0
I0621 17:36:48.487021  7797 net.cpp:408] conv5_3/sep_norm_conv5_3/sep_norm_0_split -> conv5_3/sep_norm_conv5_3/sep_norm_0_split_1
I0621 17:36:48.487036  7797 net.cpp:408] conv5_3/sep_norm_conv5_3/sep_norm_0_split -> conv5_3/sep_norm_conv5_3/sep_norm_0_split_2
I0621 17:36:48.487110  7797 net.cpp:150] Setting up conv5_3/sep_norm_conv5_3/sep_norm_0_split
I0621 17:36:48.487128  7797 net.cpp:157] Top shape: 16 512 19 19 (2957312)
I0621 17:36:48.487140  7797 net.cpp:157] Top shape: 16 512 19 19 (2957312)
I0621 17:36:48.487152  7797 net.cpp:157] Top shape: 16 512 19 19 (2957312)
I0621 17:36:48.487164  7797 net.cpp:165] Memory required for data: 2621726752
I0621 17:36:48.487174  7797 layer_factory.hpp:77] Creating layer conv5_3/sep_norm_mbox_loc
I0621 17:36:48.487191  7797 net.cpp:100] Creating Layer conv5_3/sep_norm_mbox_loc
I0621 17:36:48.487203  7797 net.cpp:434] conv5_3/sep_norm_mbox_loc <- conv5_3/sep_norm_conv5_3/sep_norm_0_split_0
I0621 17:36:48.487218  7797 net.cpp:408] conv5_3/sep_norm_mbox_loc -> conv5_3/sep_norm_mbox_loc
I0621 17:36:48.490445  7797 net.cpp:150] Setting up conv5_3/sep_norm_mbox_loc
I0621 17:36:48.490473  7797 net.cpp:157] Top shape: 16 16 19 19 (92416)
I0621 17:36:48.490484  7797 net.cpp:165] Memory required for data: 2622096416
I0621 17:36:48.490499  7797 layer_factory.hpp:77] Creating layer conv5_3/sep_norm_mbox_loc_bn
I0621 17:36:48.490514  7797 net.cpp:100] Creating Layer conv5_3/sep_norm_mbox_loc_bn
I0621 17:36:48.490526  7797 net.cpp:434] conv5_3/sep_norm_mbox_loc_bn <- conv5_3/sep_norm_mbox_loc
I0621 17:36:48.490540  7797 net.cpp:395] conv5_3/sep_norm_mbox_loc_bn -> conv5_3/sep_norm_mbox_loc (in-place)
I0621 17:36:48.490816  7797 net.cpp:150] Setting up conv5_3/sep_norm_mbox_loc_bn
I0621 17:36:48.490836  7797 net.cpp:157] Top shape: 16 16 19 19 (92416)
I0621 17:36:48.490847  7797 net.cpp:165] Memory required for data: 2622466080
I0621 17:36:48.490862  7797 layer_factory.hpp:77] Creating layer conv5_3/sep_norm_mbox_loc_scale
I0621 17:36:48.490877  7797 net.cpp:100] Creating Layer conv5_3/sep_norm_mbox_loc_scale
I0621 17:36:48.490890  7797 net.cpp:434] conv5_3/sep_norm_mbox_loc_scale <- conv5_3/sep_norm_mbox_loc
I0621 17:36:48.490902  7797 net.cpp:395] conv5_3/sep_norm_mbox_loc_scale -> conv5_3/sep_norm_mbox_loc (in-place)
I0621 17:36:48.490969  7797 layer_factory.hpp:77] Creating layer conv5_3/sep_norm_mbox_loc_scale
I0621 17:36:48.491147  7797 net.cpp:150] Setting up conv5_3/sep_norm_mbox_loc_scale
I0621 17:36:48.491164  7797 net.cpp:157] Top shape: 16 16 19 19 (92416)
I0621 17:36:48.491175  7797 net.cpp:165] Memory required for data: 2622835744
I0621 17:36:48.491189  7797 layer_factory.hpp:77] Creating layer conv5_3/sep_norm_mbox_loc_perm
I0621 17:36:48.491204  7797 net.cpp:100] Creating Layer conv5_3/sep_norm_mbox_loc_perm
I0621 17:36:48.491215  7797 net.cpp:434] conv5_3/sep_norm_mbox_loc_perm <- conv5_3/sep_norm_mbox_loc
I0621 17:36:48.491231  7797 net.cpp:408] conv5_3/sep_norm_mbox_loc_perm -> conv5_3/sep_norm_mbox_loc_perm
I0621 17:36:48.491374  7797 net.cpp:150] Setting up conv5_3/sep_norm_mbox_loc_perm
I0621 17:36:48.491399  7797 net.cpp:157] Top shape: 16 19 19 16 (92416)
I0621 17:36:48.491417  7797 net.cpp:165] Memory required for data: 2623205408
I0621 17:36:48.491428  7797 layer_factory.hpp:77] Creating layer conv5_3/sep_norm_mbox_loc_flat
I0621 17:36:48.491442  7797 net.cpp:100] Creating Layer conv5_3/sep_norm_mbox_loc_flat
I0621 17:36:48.491454  7797 net.cpp:434] conv5_3/sep_norm_mbox_loc_flat <- conv5_3/sep_norm_mbox_loc_perm
I0621 17:36:48.491469  7797 net.cpp:408] conv5_3/sep_norm_mbox_loc_flat -> conv5_3/sep_norm_mbox_loc_flat
I0621 17:36:48.491515  7797 net.cpp:150] Setting up conv5_3/sep_norm_mbox_loc_flat
I0621 17:36:48.491533  7797 net.cpp:157] Top shape: 16 5776 (92416)
I0621 17:36:48.491542  7797 net.cpp:165] Memory required for data: 2623575072
I0621 17:36:48.491552  7797 layer_factory.hpp:77] Creating layer conv5_3/sep_norm_mbox_conf
I0621 17:36:48.491571  7797 net.cpp:100] Creating Layer conv5_3/sep_norm_mbox_conf
I0621 17:36:48.491585  7797 net.cpp:434] conv5_3/sep_norm_mbox_conf <- conv5_3/sep_norm_conv5_3/sep_norm_0_split_1
I0621 17:36:48.491600  7797 net.cpp:408] conv5_3/sep_norm_mbox_conf -> conv5_3/sep_norm_mbox_conf
I0621 17:36:48.499392  7797 net.cpp:150] Setting up conv5_3/sep_norm_mbox_conf
I0621 17:36:48.499419  7797 net.cpp:157] Top shape: 16 84 19 19 (485184)
I0621 17:36:48.499433  7797 net.cpp:165] Memory required for data: 2625515808
I0621 17:36:48.499445  7797 layer_factory.hpp:77] Creating layer conv5_3/sep_norm_mbox_conf_bn
I0621 17:36:48.499461  7797 net.cpp:100] Creating Layer conv5_3/sep_norm_mbox_conf_bn
I0621 17:36:48.499475  7797 net.cpp:434] conv5_3/sep_norm_mbox_conf_bn <- conv5_3/sep_norm_mbox_conf
I0621 17:36:48.499487  7797 net.cpp:395] conv5_3/sep_norm_mbox_conf_bn -> conv5_3/sep_norm_mbox_conf (in-place)
I0621 17:36:48.499774  7797 net.cpp:150] Setting up conv5_3/sep_norm_mbox_conf_bn
I0621 17:36:48.499794  7797 net.cpp:157] Top shape: 16 84 19 19 (485184)
I0621 17:36:48.499804  7797 net.cpp:165] Memory required for data: 2627456544
I0621 17:36:48.499820  7797 layer_factory.hpp:77] Creating layer conv5_3/sep_norm_mbox_conf_scale
I0621 17:36:48.499835  7797 net.cpp:100] Creating Layer conv5_3/sep_norm_mbox_conf_scale
I0621 17:36:48.499846  7797 net.cpp:434] conv5_3/sep_norm_mbox_conf_scale <- conv5_3/sep_norm_mbox_conf
I0621 17:36:48.499861  7797 net.cpp:395] conv5_3/sep_norm_mbox_conf_scale -> conv5_3/sep_norm_mbox_conf (in-place)
I0621 17:36:48.499929  7797 layer_factory.hpp:77] Creating layer conv5_3/sep_norm_mbox_conf_scale
I0621 17:36:48.500110  7797 net.cpp:150] Setting up conv5_3/sep_norm_mbox_conf_scale
I0621 17:36:48.500129  7797 net.cpp:157] Top shape: 16 84 19 19 (485184)
I0621 17:36:48.500139  7797 net.cpp:165] Memory required for data: 2629397280
I0621 17:36:48.500154  7797 layer_factory.hpp:77] Creating layer conv5_3/sep_norm_mbox_conf_perm
I0621 17:36:48.500169  7797 net.cpp:100] Creating Layer conv5_3/sep_norm_mbox_conf_perm
I0621 17:36:48.500180  7797 net.cpp:434] conv5_3/sep_norm_mbox_conf_perm <- conv5_3/sep_norm_mbox_conf
I0621 17:36:48.500195  7797 net.cpp:408] conv5_3/sep_norm_mbox_conf_perm -> conv5_3/sep_norm_mbox_conf_perm
I0621 17:36:48.500336  7797 net.cpp:150] Setting up conv5_3/sep_norm_mbox_conf_perm
I0621 17:36:48.500355  7797 net.cpp:157] Top shape: 16 19 19 84 (485184)
I0621 17:36:48.500365  7797 net.cpp:165] Memory required for data: 2631338016
I0621 17:36:48.500376  7797 layer_factory.hpp:77] Creating layer conv5_3/sep_norm_mbox_conf_flat
I0621 17:36:48.500389  7797 net.cpp:100] Creating Layer conv5_3/sep_norm_mbox_conf_flat
I0621 17:36:48.500401  7797 net.cpp:434] conv5_3/sep_norm_mbox_conf_flat <- conv5_3/sep_norm_mbox_conf_perm
I0621 17:36:48.500413  7797 net.cpp:408] conv5_3/sep_norm_mbox_conf_flat -> conv5_3/sep_norm_mbox_conf_flat
I0621 17:36:48.500458  7797 net.cpp:150] Setting up conv5_3/sep_norm_mbox_conf_flat
I0621 17:36:48.500474  7797 net.cpp:157] Top shape: 16 30324 (485184)
I0621 17:36:48.500484  7797 net.cpp:165] Memory required for data: 2633278752
I0621 17:36:48.500495  7797 layer_factory.hpp:77] Creating layer conv5_3/sep_norm_mbox_priorbox
I0621 17:36:48.500516  7797 net.cpp:100] Creating Layer conv5_3/sep_norm_mbox_priorbox
I0621 17:36:48.500535  7797 net.cpp:434] conv5_3/sep_norm_mbox_priorbox <- conv5_3/sep_norm_conv5_3/sep_norm_0_split_2
I0621 17:36:48.500548  7797 net.cpp:434] conv5_3/sep_norm_mbox_priorbox <- data_data_0_split_1
I0621 17:36:48.500566  7797 net.cpp:408] conv5_3/sep_norm_mbox_priorbox -> conv5_3/sep_norm_mbox_priorbox
I0621 17:36:48.500617  7797 net.cpp:150] Setting up conv5_3/sep_norm_mbox_priorbox
I0621 17:36:48.500635  7797 net.cpp:157] Top shape: 1 2 5776 (11552)
I0621 17:36:48.500646  7797 net.cpp:165] Memory required for data: 2633324960
I0621 17:36:48.500656  7797 layer_factory.hpp:77] Creating layer conv5_5/sep_mbox_loc
I0621 17:36:48.500674  7797 net.cpp:100] Creating Layer conv5_5/sep_mbox_loc
I0621 17:36:48.500685  7797 net.cpp:434] conv5_5/sep_mbox_loc <- conv5_5/sep_conv5_5/sep_relu_0_split_1
I0621 17:36:48.500704  7797 net.cpp:408] conv5_5/sep_mbox_loc -> conv5_5/sep_mbox_loc
I0621 17:36:48.504441  7797 net.cpp:150] Setting up conv5_5/sep_mbox_loc
I0621 17:36:48.504469  7797 net.cpp:157] Top shape: 16 24 19 19 (138624)
I0621 17:36:48.504482  7797 net.cpp:165] Memory required for data: 2633879456
I0621 17:36:48.504495  7797 layer_factory.hpp:77] Creating layer conv5_5/sep_mbox_loc_bn
I0621 17:36:48.504511  7797 net.cpp:100] Creating Layer conv5_5/sep_mbox_loc_bn
I0621 17:36:48.504523  7797 net.cpp:434] conv5_5/sep_mbox_loc_bn <- conv5_5/sep_mbox_loc
I0621 17:36:48.504536  7797 net.cpp:395] conv5_5/sep_mbox_loc_bn -> conv5_5/sep_mbox_loc (in-place)
I0621 17:36:48.504822  7797 net.cpp:150] Setting up conv5_5/sep_mbox_loc_bn
I0621 17:36:48.504842  7797 net.cpp:157] Top shape: 16 24 19 19 (138624)
I0621 17:36:48.504853  7797 net.cpp:165] Memory required for data: 2634433952
I0621 17:36:48.504868  7797 layer_factory.hpp:77] Creating layer conv5_5/sep_mbox_loc_scale
I0621 17:36:48.504884  7797 net.cpp:100] Creating Layer conv5_5/sep_mbox_loc_scale
I0621 17:36:48.504894  7797 net.cpp:434] conv5_5/sep_mbox_loc_scale <- conv5_5/sep_mbox_loc
I0621 17:36:48.504909  7797 net.cpp:395] conv5_5/sep_mbox_loc_scale -> conv5_5/sep_mbox_loc (in-place)
I0621 17:36:48.504981  7797 layer_factory.hpp:77] Creating layer conv5_5/sep_mbox_loc_scale
I0621 17:36:48.505158  7797 net.cpp:150] Setting up conv5_5/sep_mbox_loc_scale
I0621 17:36:48.505177  7797 net.cpp:157] Top shape: 16 24 19 19 (138624)
I0621 17:36:48.505188  7797 net.cpp:165] Memory required for data: 2634988448
I0621 17:36:48.505203  7797 layer_factory.hpp:77] Creating layer conv5_5/sep_mbox_loc_perm
I0621 17:36:48.505216  7797 net.cpp:100] Creating Layer conv5_5/sep_mbox_loc_perm
I0621 17:36:48.505228  7797 net.cpp:434] conv5_5/sep_mbox_loc_perm <- conv5_5/sep_mbox_loc
I0621 17:36:48.505242  7797 net.cpp:408] conv5_5/sep_mbox_loc_perm -> conv5_5/sep_mbox_loc_perm
I0621 17:36:48.505383  7797 net.cpp:150] Setting up conv5_5/sep_mbox_loc_perm
I0621 17:36:48.505401  7797 net.cpp:157] Top shape: 16 19 19 24 (138624)
I0621 17:36:48.505412  7797 net.cpp:165] Memory required for data: 2635542944
I0621 17:36:48.505422  7797 layer_factory.hpp:77] Creating layer conv5_5/sep_mbox_loc_flat
I0621 17:36:48.505435  7797 net.cpp:100] Creating Layer conv5_5/sep_mbox_loc_flat
I0621 17:36:48.505446  7797 net.cpp:434] conv5_5/sep_mbox_loc_flat <- conv5_5/sep_mbox_loc_perm
I0621 17:36:48.505460  7797 net.cpp:408] conv5_5/sep_mbox_loc_flat -> conv5_5/sep_mbox_loc_flat
I0621 17:36:48.505504  7797 net.cpp:150] Setting up conv5_5/sep_mbox_loc_flat
I0621 17:36:48.505522  7797 net.cpp:157] Top shape: 16 8664 (138624)
I0621 17:36:48.505533  7797 net.cpp:165] Memory required for data: 2636097440
I0621 17:36:48.505544  7797 layer_factory.hpp:77] Creating layer conv5_5/sep_mbox_conf
I0621 17:36:48.505559  7797 net.cpp:100] Creating Layer conv5_5/sep_mbox_conf
I0621 17:36:48.505571  7797 net.cpp:434] conv5_5/sep_mbox_conf <- conv5_5/sep_conv5_5/sep_relu_0_split_2
I0621 17:36:48.505589  7797 net.cpp:408] conv5_5/sep_mbox_conf -> conv5_5/sep_mbox_conf
I0621 17:36:48.516028  7797 net.cpp:150] Setting up conv5_5/sep_mbox_conf
I0621 17:36:48.516062  7797 net.cpp:157] Top shape: 16 126 19 19 (727776)
I0621 17:36:48.516080  7797 net.cpp:165] Memory required for data: 2639008544
I0621 17:36:48.516094  7797 layer_factory.hpp:77] Creating layer conv5_5/sep_mbox_conf_bn
I0621 17:36:48.516110  7797 net.cpp:100] Creating Layer conv5_5/sep_mbox_conf_bn
I0621 17:36:48.516122  7797 net.cpp:434] conv5_5/sep_mbox_conf_bn <- conv5_5/sep_mbox_conf
I0621 17:36:48.516135  7797 net.cpp:395] conv5_5/sep_mbox_conf_bn -> conv5_5/sep_mbox_conf (in-place)
I0621 17:36:48.516430  7797 net.cpp:150] Setting up conv5_5/sep_mbox_conf_bn
I0621 17:36:48.516449  7797 net.cpp:157] Top shape: 16 126 19 19 (727776)
I0621 17:36:48.516460  7797 net.cpp:165] Memory required for data: 2641919648
I0621 17:36:48.516476  7797 layer_factory.hpp:77] Creating layer conv5_5/sep_mbox_conf_scale
I0621 17:36:48.516492  7797 net.cpp:100] Creating Layer conv5_5/sep_mbox_conf_scale
I0621 17:36:48.516505  7797 net.cpp:434] conv5_5/sep_mbox_conf_scale <- conv5_5/sep_mbox_conf
I0621 17:36:48.516518  7797 net.cpp:395] conv5_5/sep_mbox_conf_scale -> conv5_5/sep_mbox_conf (in-place)
I0621 17:36:48.516587  7797 layer_factory.hpp:77] Creating layer conv5_5/sep_mbox_conf_scale
I0621 17:36:48.516772  7797 net.cpp:150] Setting up conv5_5/sep_mbox_conf_scale
I0621 17:36:48.516791  7797 net.cpp:157] Top shape: 16 126 19 19 (727776)
I0621 17:36:48.516803  7797 net.cpp:165] Memory required for data: 2644830752
I0621 17:36:48.516815  7797 layer_factory.hpp:77] Creating layer conv5_5/sep_mbox_conf_perm
I0621 17:36:48.516829  7797 net.cpp:100] Creating Layer conv5_5/sep_mbox_conf_perm
I0621 17:36:48.516841  7797 net.cpp:434] conv5_5/sep_mbox_conf_perm <- conv5_5/sep_mbox_conf
I0621 17:36:48.516856  7797 net.cpp:408] conv5_5/sep_mbox_conf_perm -> conv5_5/sep_mbox_conf_perm
I0621 17:36:48.517000  7797 net.cpp:150] Setting up conv5_5/sep_mbox_conf_perm
I0621 17:36:48.517019  7797 net.cpp:157] Top shape: 16 19 19 126 (727776)
I0621 17:36:48.517029  7797 net.cpp:165] Memory required for data: 2647741856
I0621 17:36:48.517040  7797 layer_factory.hpp:77] Creating layer conv5_5/sep_mbox_conf_flat
I0621 17:36:48.517053  7797 net.cpp:100] Creating Layer conv5_5/sep_mbox_conf_flat
I0621 17:36:48.517065  7797 net.cpp:434] conv5_5/sep_mbox_conf_flat <- conv5_5/sep_mbox_conf_perm
I0621 17:36:48.517079  7797 net.cpp:408] conv5_5/sep_mbox_conf_flat -> conv5_5/sep_mbox_conf_flat
I0621 17:36:48.517123  7797 net.cpp:150] Setting up conv5_5/sep_mbox_conf_flat
I0621 17:36:48.517139  7797 net.cpp:157] Top shape: 16 45486 (727776)
I0621 17:36:48.517149  7797 net.cpp:165] Memory required for data: 2650652960
I0621 17:36:48.517160  7797 layer_factory.hpp:77] Creating layer conv5_5/sep_mbox_priorbox
I0621 17:36:48.517175  7797 net.cpp:100] Creating Layer conv5_5/sep_mbox_priorbox
I0621 17:36:48.517187  7797 net.cpp:434] conv5_5/sep_mbox_priorbox <- conv5_5/sep_conv5_5/sep_relu_0_split_3
I0621 17:36:48.517200  7797 net.cpp:434] conv5_5/sep_mbox_priorbox <- data_data_0_split_2
I0621 17:36:48.517215  7797 net.cpp:408] conv5_5/sep_mbox_priorbox -> conv5_5/sep_mbox_priorbox
I0621 17:36:48.517261  7797 net.cpp:150] Setting up conv5_5/sep_mbox_priorbox
I0621 17:36:48.517278  7797 net.cpp:157] Top shape: 1 2 8664 (17328)
I0621 17:36:48.517288  7797 net.cpp:165] Memory required for data: 2650722272
I0621 17:36:48.517299  7797 layer_factory.hpp:77] Creating layer conv7_2_mbox_loc
I0621 17:36:48.517318  7797 net.cpp:100] Creating Layer conv7_2_mbox_loc
I0621 17:36:48.517330  7797 net.cpp:434] conv7_2_mbox_loc <- conv7_2_conv7_2_relu_0_split_1
I0621 17:36:48.517344  7797 net.cpp:408] conv7_2_mbox_loc -> conv7_2_mbox_loc
I0621 17:36:48.521045  7797 net.cpp:150] Setting up conv7_2_mbox_loc
I0621 17:36:48.521075  7797 net.cpp:157] Top shape: 16 24 5 5 (9600)
I0621 17:36:48.521087  7797 net.cpp:165] Memory required for data: 2650760672
I0621 17:36:48.521101  7797 layer_factory.hpp:77] Creating layer conv7_2_mbox_loc_bn
I0621 17:36:48.521116  7797 net.cpp:100] Creating Layer conv7_2_mbox_loc_bn
I0621 17:36:48.521126  7797 net.cpp:434] conv7_2_mbox_loc_bn <- conv7_2_mbox_loc
I0621 17:36:48.521160  7797 net.cpp:395] conv7_2_mbox_loc_bn -> conv7_2_mbox_loc (in-place)
I0621 17:36:48.521461  7797 net.cpp:150] Setting up conv7_2_mbox_loc_bn
I0621 17:36:48.521698  7797 net.cpp:157] Top shape: 16 24 5 5 (9600)
I0621 17:36:48.521708  7797 net.cpp:165] Memory required for data: 2650799072
I0621 17:36:48.521945  7797 layer_factory.hpp:77] Creating layer conv7_2_mbox_loc_scale
I0621 17:36:48.522044  7797 net.cpp:100] Creating Layer conv7_2_mbox_loc_scale
I0621 17:36:48.522052  7797 net.cpp:434] conv7_2_mbox_loc_scale <- conv7_2_mbox_loc
I0621 17:36:48.522215  7797 net.cpp:395] conv7_2_mbox_loc_scale -> conv7_2_mbox_loc (in-place)
I0621 17:36:48.522370  7797 layer_factory.hpp:77] Creating layer conv7_2_mbox_loc_scale
I0621 17:36:48.522619  7797 net.cpp:150] Setting up conv7_2_mbox_loc_scale
I0621 17:36:48.522704  7797 net.cpp:157] Top shape: 16 24 5 5 (9600)
I0621 17:36:48.522711  7797 net.cpp:165] Memory required for data: 2650837472
I0621 17:36:48.522845  7797 layer_factory.hpp:77] Creating layer conv7_2_mbox_loc_perm
I0621 17:36:48.522933  7797 net.cpp:100] Creating Layer conv7_2_mbox_loc_perm
I0621 17:36:48.522940  7797 net.cpp:434] conv7_2_mbox_loc_perm <- conv7_2_mbox_loc
I0621 17:36:48.523089  7797 net.cpp:408] conv7_2_mbox_loc_perm -> conv7_2_mbox_loc_perm
I0621 17:36:48.523300  7797 net.cpp:150] Setting up conv7_2_mbox_loc_perm
I0621 17:36:48.523381  7797 net.cpp:157] Top shape: 16 5 5 24 (9600)
I0621 17:36:48.523388  7797 net.cpp:165] Memory required for data: 2650875872
I0621 17:36:48.523524  7797 layer_factory.hpp:77] Creating layer conv7_2_mbox_loc_flat
I0621 17:36:48.523607  7797 net.cpp:100] Creating Layer conv7_2_mbox_loc_flat
I0621 17:36:48.523613  7797 net.cpp:434] conv7_2_mbox_loc_flat <- conv7_2_mbox_loc_perm
I0621 17:36:48.523766  7797 net.cpp:408] conv7_2_mbox_loc_flat -> conv7_2_mbox_loc_flat
I0621 17:36:48.523886  7797 net.cpp:150] Setting up conv7_2_mbox_loc_flat
I0621 17:36:48.523967  7797 net.cpp:157] Top shape: 16 600 (9600)
I0621 17:36:48.523972  7797 net.cpp:165] Memory required for data: 2650914272
I0621 17:36:48.524039  7797 layer_factory.hpp:77] Creating layer conv7_2_mbox_conf
I0621 17:36:48.524197  7797 net.cpp:100] Creating Layer conv7_2_mbox_conf
I0621 17:36:48.524204  7797 net.cpp:434] conv7_2_mbox_conf <- conv7_2_conv7_2_relu_0_split_2
I0621 17:36:48.524364  7797 net.cpp:408] conv7_2_mbox_conf -> conv7_2_mbox_conf
I0621 17:36:48.534602  7797 net.cpp:150] Setting up conv7_2_mbox_conf
I0621 17:36:48.534617  7797 net.cpp:157] Top shape: 16 126 5 5 (50400)
I0621 17:36:48.534703  7797 net.cpp:165] Memory required for data: 2651115872
I0621 17:36:48.534716  7797 layer_factory.hpp:77] Creating layer conv7_2_mbox_conf_bn
I0621 17:36:48.534725  7797 net.cpp:100] Creating Layer conv7_2_mbox_conf_bn
I0621 17:36:48.534730  7797 net.cpp:434] conv7_2_mbox_conf_bn <- conv7_2_mbox_conf
I0621 17:36:48.534737  7797 net.cpp:395] conv7_2_mbox_conf_bn -> conv7_2_mbox_conf (in-place)
I0621 17:36:48.535009  7797 net.cpp:150] Setting up conv7_2_mbox_conf_bn
I0621 17:36:48.535018  7797 net.cpp:157] Top shape: 16 126 5 5 (50400)
I0621 17:36:48.535022  7797 net.cpp:165] Memory required for data: 2651317472
I0621 17:36:48.535030  7797 layer_factory.hpp:77] Creating layer conv7_2_mbox_conf_scale
I0621 17:36:48.535038  7797 net.cpp:100] Creating Layer conv7_2_mbox_conf_scale
I0621 17:36:48.535043  7797 net.cpp:434] conv7_2_mbox_conf_scale <- conv7_2_mbox_conf
I0621 17:36:48.535048  7797 net.cpp:395] conv7_2_mbox_conf_scale -> conv7_2_mbox_conf (in-place)
I0621 17:36:48.535102  7797 layer_factory.hpp:77] Creating layer conv7_2_mbox_conf_scale
I0621 17:36:48.535254  7797 net.cpp:150] Setting up conv7_2_mbox_conf_scale
I0621 17:36:48.535262  7797 net.cpp:157] Top shape: 16 126 5 5 (50400)
I0621 17:36:48.535267  7797 net.cpp:165] Memory required for data: 2651519072
I0621 17:36:48.535274  7797 layer_factory.hpp:77] Creating layer conv7_2_mbox_conf_perm
I0621 17:36:48.535281  7797 net.cpp:100] Creating Layer conv7_2_mbox_conf_perm
I0621 17:36:48.535285  7797 net.cpp:434] conv7_2_mbox_conf_perm <- conv7_2_mbox_conf
I0621 17:36:48.535303  7797 net.cpp:408] conv7_2_mbox_conf_perm -> conv7_2_mbox_conf_perm
I0621 17:36:48.535430  7797 net.cpp:150] Setting up conv7_2_mbox_conf_perm
I0621 17:36:48.535439  7797 net.cpp:157] Top shape: 16 5 5 126 (50400)
I0621 17:36:48.535442  7797 net.cpp:165] Memory required for data: 2651720672
I0621 17:36:48.535445  7797 layer_factory.hpp:77] Creating layer conv7_2_mbox_conf_flat
I0621 17:36:48.535451  7797 net.cpp:100] Creating Layer conv7_2_mbox_conf_flat
I0621 17:36:48.535456  7797 net.cpp:434] conv7_2_mbox_conf_flat <- conv7_2_mbox_conf_perm
I0621 17:36:48.535461  7797 net.cpp:408] conv7_2_mbox_conf_flat -> conv7_2_mbox_conf_flat
I0621 17:36:48.535491  7797 net.cpp:150] Setting up conv7_2_mbox_conf_flat
I0621 17:36:48.535498  7797 net.cpp:157] Top shape: 16 3150 (50400)
I0621 17:36:48.535501  7797 net.cpp:165] Memory required for data: 2651922272
I0621 17:36:48.535504  7797 layer_factory.hpp:77] Creating layer conv7_2_mbox_priorbox
I0621 17:36:48.535511  7797 net.cpp:100] Creating Layer conv7_2_mbox_priorbox
I0621 17:36:48.535516  7797 net.cpp:434] conv7_2_mbox_priorbox <- conv7_2_conv7_2_relu_0_split_3
I0621 17:36:48.535521  7797 net.cpp:434] conv7_2_mbox_priorbox <- data_data_0_split_3
I0621 17:36:48.535526  7797 net.cpp:408] conv7_2_mbox_priorbox -> conv7_2_mbox_priorbox
I0621 17:36:48.535558  7797 net.cpp:150] Setting up conv7_2_mbox_priorbox
I0621 17:36:48.535565  7797 net.cpp:157] Top shape: 1 2 600 (1200)
I0621 17:36:48.535568  7797 net.cpp:165] Memory required for data: 2651927072
I0621 17:36:48.535571  7797 layer_factory.hpp:77] Creating layer conv8_2_mbox_loc
I0621 17:36:48.535579  7797 net.cpp:100] Creating Layer conv8_2_mbox_loc
I0621 17:36:48.535584  7797 net.cpp:434] conv8_2_mbox_loc <- conv8_2_conv8_2_relu_0_split_1
I0621 17:36:48.535593  7797 net.cpp:408] conv8_2_mbox_loc -> conv8_2_mbox_loc
I0621 17:36:48.539032  7797 net.cpp:150] Setting up conv8_2_mbox_loc
I0621 17:36:48.539047  7797 net.cpp:157] Top shape: 16 24 3 3 (3456)
I0621 17:36:48.539050  7797 net.cpp:165] Memory required for data: 2651940896
I0621 17:36:48.539057  7797 layer_factory.hpp:77] Creating layer conv8_2_mbox_loc_bn
I0621 17:36:48.539063  7797 net.cpp:100] Creating Layer conv8_2_mbox_loc_bn
I0621 17:36:48.539068  7797 net.cpp:434] conv8_2_mbox_loc_bn <- conv8_2_mbox_loc
I0621 17:36:48.539075  7797 net.cpp:395] conv8_2_mbox_loc_bn -> conv8_2_mbox_loc (in-place)
I0621 17:36:48.539345  7797 net.cpp:150] Setting up conv8_2_mbox_loc_bn
I0621 17:36:48.539353  7797 net.cpp:157] Top shape: 16 24 3 3 (3456)
I0621 17:36:48.539357  7797 net.cpp:165] Memory required for data: 2651954720
I0621 17:36:48.539366  7797 layer_factory.hpp:77] Creating layer conv8_2_mbox_loc_scale
I0621 17:36:48.539374  7797 net.cpp:100] Creating Layer conv8_2_mbox_loc_scale
I0621 17:36:48.539378  7797 net.cpp:434] conv8_2_mbox_loc_scale <- conv8_2_mbox_loc
I0621 17:36:48.539384  7797 net.cpp:395] conv8_2_mbox_loc_scale -> conv8_2_mbox_loc (in-place)
I0621 17:36:48.539436  7797 layer_factory.hpp:77] Creating layer conv8_2_mbox_loc_scale
I0621 17:36:48.539587  7797 net.cpp:150] Setting up conv8_2_mbox_loc_scale
I0621 17:36:48.539597  7797 net.cpp:157] Top shape: 16 24 3 3 (3456)
I0621 17:36:48.539599  7797 net.cpp:165] Memory required for data: 2651968544
I0621 17:36:48.539607  7797 layer_factory.hpp:77] Creating layer conv8_2_mbox_loc_perm
I0621 17:36:48.539613  7797 net.cpp:100] Creating Layer conv8_2_mbox_loc_perm
I0621 17:36:48.539618  7797 net.cpp:434] conv8_2_mbox_loc_perm <- conv8_2_mbox_loc
I0621 17:36:48.539623  7797 net.cpp:408] conv8_2_mbox_loc_perm -> conv8_2_mbox_loc_perm
I0621 17:36:48.539746  7797 net.cpp:150] Setting up conv8_2_mbox_loc_perm
I0621 17:36:48.539753  7797 net.cpp:157] Top shape: 16 3 3 24 (3456)
I0621 17:36:48.539757  7797 net.cpp:165] Memory required for data: 2651982368
I0621 17:36:48.539760  7797 layer_factory.hpp:77] Creating layer conv8_2_mbox_loc_flat
I0621 17:36:48.539767  7797 net.cpp:100] Creating Layer conv8_2_mbox_loc_flat
I0621 17:36:48.539772  7797 net.cpp:434] conv8_2_mbox_loc_flat <- conv8_2_mbox_loc_perm
I0621 17:36:48.539788  7797 net.cpp:408] conv8_2_mbox_loc_flat -> conv8_2_mbox_loc_flat
I0621 17:36:48.539822  7797 net.cpp:150] Setting up conv8_2_mbox_loc_flat
I0621 17:36:48.539829  7797 net.cpp:157] Top shape: 16 216 (3456)
I0621 17:36:48.539831  7797 net.cpp:165] Memory required for data: 2651996192
I0621 17:36:48.539834  7797 layer_factory.hpp:77] Creating layer conv8_2_mbox_conf
I0621 17:36:48.539845  7797 net.cpp:100] Creating Layer conv8_2_mbox_conf
I0621 17:36:48.539850  7797 net.cpp:434] conv8_2_mbox_conf <- conv8_2_conv8_2_relu_0_split_2
I0621 17:36:48.539860  7797 net.cpp:408] conv8_2_mbox_conf -> conv8_2_mbox_conf
I0621 17:36:48.546115  7797 net.cpp:150] Setting up conv8_2_mbox_conf
I0621 17:36:48.546128  7797 net.cpp:157] Top shape: 16 126 3 3 (18144)
I0621 17:36:48.546133  7797 net.cpp:165] Memory required for data: 2652068768
I0621 17:36:48.546139  7797 layer_factory.hpp:77] Creating layer conv8_2_mbox_conf_bn
I0621 17:36:48.546147  7797 net.cpp:100] Creating Layer conv8_2_mbox_conf_bn
I0621 17:36:48.546152  7797 net.cpp:434] conv8_2_mbox_conf_bn <- conv8_2_mbox_conf
I0621 17:36:48.546159  7797 net.cpp:395] conv8_2_mbox_conf_bn -> conv8_2_mbox_conf (in-place)
I0621 17:36:48.546437  7797 net.cpp:150] Setting up conv8_2_mbox_conf_bn
I0621 17:36:48.546447  7797 net.cpp:157] Top shape: 16 126 3 3 (18144)
I0621 17:36:48.546452  7797 net.cpp:165] Memory required for data: 2652141344
I0621 17:36:48.546481  7797 layer_factory.hpp:77] Creating layer conv8_2_mbox_conf_scale
I0621 17:36:48.546490  7797 net.cpp:100] Creating Layer conv8_2_mbox_conf_scale
I0621 17:36:48.546494  7797 net.cpp:434] conv8_2_mbox_conf_scale <- conv8_2_mbox_conf
I0621 17:36:48.546500  7797 net.cpp:395] conv8_2_mbox_conf_scale -> conv8_2_mbox_conf (in-place)
I0621 17:36:48.546555  7797 layer_factory.hpp:77] Creating layer conv8_2_mbox_conf_scale
I0621 17:36:48.546707  7797 net.cpp:150] Setting up conv8_2_mbox_conf_scale
I0621 17:36:48.546715  7797 net.cpp:157] Top shape: 16 126 3 3 (18144)
I0621 17:36:48.546720  7797 net.cpp:165] Memory required for data: 2652213920
I0621 17:36:48.546726  7797 layer_factory.hpp:77] Creating layer conv8_2_mbox_conf_perm
I0621 17:36:48.546733  7797 net.cpp:100] Creating Layer conv8_2_mbox_conf_perm
I0621 17:36:48.546737  7797 net.cpp:434] conv8_2_mbox_conf_perm <- conv8_2_mbox_conf
I0621 17:36:48.546744  7797 net.cpp:408] conv8_2_mbox_conf_perm -> conv8_2_mbox_conf_perm
I0621 17:36:48.546875  7797 net.cpp:150] Setting up conv8_2_mbox_conf_perm
I0621 17:36:48.546883  7797 net.cpp:157] Top shape: 16 3 3 126 (18144)
I0621 17:36:48.546887  7797 net.cpp:165] Memory required for data: 2652286496
I0621 17:36:48.546890  7797 layer_factory.hpp:77] Creating layer conv8_2_mbox_conf_flat
I0621 17:36:48.546895  7797 net.cpp:100] Creating Layer conv8_2_mbox_conf_flat
I0621 17:36:48.546900  7797 net.cpp:434] conv8_2_mbox_conf_flat <- conv8_2_mbox_conf_perm
I0621 17:36:48.546905  7797 net.cpp:408] conv8_2_mbox_conf_flat -> conv8_2_mbox_conf_flat
I0621 17:36:48.546936  7797 net.cpp:150] Setting up conv8_2_mbox_conf_flat
I0621 17:36:48.546942  7797 net.cpp:157] Top shape: 16 1134 (18144)
I0621 17:36:48.546946  7797 net.cpp:165] Memory required for data: 2652359072
I0621 17:36:48.546948  7797 layer_factory.hpp:77] Creating layer conv8_2_mbox_priorbox
I0621 17:36:48.546955  7797 net.cpp:100] Creating Layer conv8_2_mbox_priorbox
I0621 17:36:48.546959  7797 net.cpp:434] conv8_2_mbox_priorbox <- conv8_2_conv8_2_relu_0_split_3
I0621 17:36:48.546964  7797 net.cpp:434] conv8_2_mbox_priorbox <- data_data_0_split_4
I0621 17:36:48.546972  7797 net.cpp:408] conv8_2_mbox_priorbox -> conv8_2_mbox_priorbox
I0621 17:36:48.547004  7797 net.cpp:150] Setting up conv8_2_mbox_priorbox
I0621 17:36:48.547010  7797 net.cpp:157] Top shape: 1 2 216 (432)
I0621 17:36:48.547013  7797 net.cpp:165] Memory required for data: 2652360800
I0621 17:36:48.547016  7797 layer_factory.hpp:77] Creating layer conv9_2_mbox_loc
I0621 17:36:48.547025  7797 net.cpp:100] Creating Layer conv9_2_mbox_loc
I0621 17:36:48.547029  7797 net.cpp:434] conv9_2_mbox_loc <- conv9_2_conv9_2_relu_0_split_1
I0621 17:36:48.547047  7797 net.cpp:408] conv9_2_mbox_loc -> conv9_2_mbox_loc
I0621 17:36:48.549751  7797 net.cpp:150] Setting up conv9_2_mbox_loc
I0621 17:36:48.549762  7797 net.cpp:157] Top shape: 16 16 1 1 (256)
I0621 17:36:48.549767  7797 net.cpp:165] Memory required for data: 2652361824
I0621 17:36:48.549772  7797 layer_factory.hpp:77] Creating layer conv9_2_mbox_loc_bn
I0621 17:36:48.549779  7797 net.cpp:100] Creating Layer conv9_2_mbox_loc_bn
I0621 17:36:48.549784  7797 net.cpp:434] conv9_2_mbox_loc_bn <- conv9_2_mbox_loc
I0621 17:36:48.549793  7797 net.cpp:395] conv9_2_mbox_loc_bn -> conv9_2_mbox_loc (in-place)
I0621 17:36:48.550063  7797 net.cpp:150] Setting up conv9_2_mbox_loc_bn
I0621 17:36:48.550071  7797 net.cpp:157] Top shape: 16 16 1 1 (256)
I0621 17:36:48.550076  7797 net.cpp:165] Memory required for data: 2652362848
I0621 17:36:48.550083  7797 layer_factory.hpp:77] Creating layer conv9_2_mbox_loc_scale
I0621 17:36:48.550091  7797 net.cpp:100] Creating Layer conv9_2_mbox_loc_scale
I0621 17:36:48.550096  7797 net.cpp:434] conv9_2_mbox_loc_scale <- conv9_2_mbox_loc
I0621 17:36:48.550101  7797 net.cpp:395] conv9_2_mbox_loc_scale -> conv9_2_mbox_loc (in-place)
I0621 17:36:48.550156  7797 layer_factory.hpp:77] Creating layer conv9_2_mbox_loc_scale
I0621 17:36:48.550315  7797 net.cpp:150] Setting up conv9_2_mbox_loc_scale
I0621 17:36:48.550324  7797 net.cpp:157] Top shape: 16 16 1 1 (256)
I0621 17:36:48.550328  7797 net.cpp:165] Memory required for data: 2652363872
I0621 17:36:48.550333  7797 layer_factory.hpp:77] Creating layer conv9_2_mbox_loc_perm
I0621 17:36:48.550340  7797 net.cpp:100] Creating Layer conv9_2_mbox_loc_perm
I0621 17:36:48.550344  7797 net.cpp:434] conv9_2_mbox_loc_perm <- conv9_2_mbox_loc
I0621 17:36:48.550353  7797 net.cpp:408] conv9_2_mbox_loc_perm -> conv9_2_mbox_loc_perm
I0621 17:36:48.550479  7797 net.cpp:150] Setting up conv9_2_mbox_loc_perm
I0621 17:36:48.550487  7797 net.cpp:157] Top shape: 16 1 1 16 (256)
I0621 17:36:48.550490  7797 net.cpp:165] Memory required for data: 2652364896
I0621 17:36:48.550493  7797 layer_factory.hpp:77] Creating layer conv9_2_mbox_loc_flat
I0621 17:36:48.550499  7797 net.cpp:100] Creating Layer conv9_2_mbox_loc_flat
I0621 17:36:48.550503  7797 net.cpp:434] conv9_2_mbox_loc_flat <- conv9_2_mbox_loc_perm
I0621 17:36:48.550509  7797 net.cpp:408] conv9_2_mbox_loc_flat -> conv9_2_mbox_loc_flat
I0621 17:36:48.550540  7797 net.cpp:150] Setting up conv9_2_mbox_loc_flat
I0621 17:36:48.550546  7797 net.cpp:157] Top shape: 16 16 (256)
I0621 17:36:48.550549  7797 net.cpp:165] Memory required for data: 2652365920
I0621 17:36:48.550552  7797 layer_factory.hpp:77] Creating layer conv9_2_mbox_conf
I0621 17:36:48.550562  7797 net.cpp:100] Creating Layer conv9_2_mbox_conf
I0621 17:36:48.550566  7797 net.cpp:434] conv9_2_mbox_conf <- conv9_2_conv9_2_relu_0_split_2
I0621 17:36:48.550572  7797 net.cpp:408] conv9_2_mbox_conf -> conv9_2_mbox_conf
I0621 17:36:48.555629  7797 net.cpp:150] Setting up conv9_2_mbox_conf
I0621 17:36:48.555644  7797 net.cpp:157] Top shape: 16 84 1 1 (1344)
I0621 17:36:48.555655  7797 net.cpp:165] Memory required for data: 2652371296
I0621 17:36:48.555660  7797 layer_factory.hpp:77] Creating layer conv9_2_mbox_conf_bn
I0621 17:36:48.555667  7797 net.cpp:100] Creating Layer conv9_2_mbox_conf_bn
I0621 17:36:48.555672  7797 net.cpp:434] conv9_2_mbox_conf_bn <- conv9_2_mbox_conf
I0621 17:36:48.555680  7797 net.cpp:395] conv9_2_mbox_conf_bn -> conv9_2_mbox_conf (in-place)
I0621 17:36:48.555960  7797 net.cpp:150] Setting up conv9_2_mbox_conf_bn
I0621 17:36:48.555969  7797 net.cpp:157] Top shape: 16 84 1 1 (1344)
I0621 17:36:48.555974  7797 net.cpp:165] Memory required for data: 2652376672
I0621 17:36:48.555981  7797 layer_factory.hpp:77] Creating layer conv9_2_mbox_conf_scale
I0621 17:36:48.555989  7797 net.cpp:100] Creating Layer conv9_2_mbox_conf_scale
I0621 17:36:48.555994  7797 net.cpp:434] conv9_2_mbox_conf_scale <- conv9_2_mbox_conf
I0621 17:36:48.556000  7797 net.cpp:395] conv9_2_mbox_conf_scale -> conv9_2_mbox_conf (in-place)
I0621 17:36:48.556068  7797 layer_factory.hpp:77] Creating layer conv9_2_mbox_conf_scale
I0621 17:36:48.556226  7797 net.cpp:150] Setting up conv9_2_mbox_conf_scale
I0621 17:36:48.556233  7797 net.cpp:157] Top shape: 16 84 1 1 (1344)
I0621 17:36:48.556236  7797 net.cpp:165] Memory required for data: 2652382048
I0621 17:36:48.556243  7797 layer_factory.hpp:77] Creating layer conv9_2_mbox_conf_perm
I0621 17:36:48.556249  7797 net.cpp:100] Creating Layer conv9_2_mbox_conf_perm
I0621 17:36:48.556253  7797 net.cpp:434] conv9_2_mbox_conf_perm <- conv9_2_mbox_conf
I0621 17:36:48.556259  7797 net.cpp:408] conv9_2_mbox_conf_perm -> conv9_2_mbox_conf_perm
I0621 17:36:48.556390  7797 net.cpp:150] Setting up conv9_2_mbox_conf_perm
I0621 17:36:48.556397  7797 net.cpp:157] Top shape: 16 1 1 84 (1344)
I0621 17:36:48.556401  7797 net.cpp:165] Memory required for data: 2652387424
I0621 17:36:48.556403  7797 layer_factory.hpp:77] Creating layer conv9_2_mbox_conf_flat
I0621 17:36:48.556408  7797 net.cpp:100] Creating Layer conv9_2_mbox_conf_flat
I0621 17:36:48.556411  7797 net.cpp:434] conv9_2_mbox_conf_flat <- conv9_2_mbox_conf_perm
I0621 17:36:48.556417  7797 net.cpp:408] conv9_2_mbox_conf_flat -> conv9_2_mbox_conf_flat
I0621 17:36:48.556452  7797 net.cpp:150] Setting up conv9_2_mbox_conf_flat
I0621 17:36:48.556457  7797 net.cpp:157] Top shape: 16 84 (1344)
I0621 17:36:48.556460  7797 net.cpp:165] Memory required for data: 2652392800
I0621 17:36:48.556463  7797 layer_factory.hpp:77] Creating layer conv9_2_mbox_priorbox
I0621 17:36:48.556469  7797 net.cpp:100] Creating Layer conv9_2_mbox_priorbox
I0621 17:36:48.556474  7797 net.cpp:434] conv9_2_mbox_priorbox <- conv9_2_conv9_2_relu_0_split_3
I0621 17:36:48.556478  7797 net.cpp:434] conv9_2_mbox_priorbox <- data_data_0_split_5
I0621 17:36:48.556488  7797 net.cpp:408] conv9_2_mbox_priorbox -> conv9_2_mbox_priorbox
I0621 17:36:48.556524  7797 net.cpp:150] Setting up conv9_2_mbox_priorbox
I0621 17:36:48.556531  7797 net.cpp:157] Top shape: 1 2 16 (32)
I0621 17:36:48.556533  7797 net.cpp:165] Memory required for data: 2652392928
I0621 17:36:48.556536  7797 layer_factory.hpp:77] Creating layer conv10_2_mbox_loc
I0621 17:36:48.556545  7797 net.cpp:100] Creating Layer conv10_2_mbox_loc
I0621 17:36:48.556550  7797 net.cpp:434] conv10_2_mbox_loc <- conv10_2_conv10_2_relu_0_split_0
I0621 17:36:48.556558  7797 net.cpp:408] conv10_2_mbox_loc -> conv10_2_mbox_loc
I0621 17:36:48.559294  7797 net.cpp:150] Setting up conv10_2_mbox_loc
I0621 17:36:48.559306  7797 net.cpp:157] Top shape: 16 16 1 1 (256)
I0621 17:36:48.559310  7797 net.cpp:165] Memory required for data: 2652393952
I0621 17:36:48.559316  7797 layer_factory.hpp:77] Creating layer conv10_2_mbox_loc_bn
I0621 17:36:48.559324  7797 net.cpp:100] Creating Layer conv10_2_mbox_loc_bn
I0621 17:36:48.559329  7797 net.cpp:434] conv10_2_mbox_loc_bn <- conv10_2_mbox_loc
I0621 17:36:48.559334  7797 net.cpp:395] conv10_2_mbox_loc_bn -> conv10_2_mbox_loc (in-place)
I0621 17:36:48.559605  7797 net.cpp:150] Setting up conv10_2_mbox_loc_bn
I0621 17:36:48.559613  7797 net.cpp:157] Top shape: 16 16 1 1 (256)
I0621 17:36:48.559615  7797 net.cpp:165] Memory required for data: 2652394976
I0621 17:36:48.559623  7797 layer_factory.hpp:77] Creating layer conv10_2_mbox_loc_scale
I0621 17:36:48.559631  7797 net.cpp:100] Creating Layer conv10_2_mbox_loc_scale
I0621 17:36:48.559635  7797 net.cpp:434] conv10_2_mbox_loc_scale <- conv10_2_mbox_loc
I0621 17:36:48.559643  7797 net.cpp:395] conv10_2_mbox_loc_scale -> conv10_2_mbox_loc (in-place)
I0621 17:36:48.559695  7797 layer_factory.hpp:77] Creating layer conv10_2_mbox_loc_scale
I0621 17:36:48.559850  7797 net.cpp:150] Setting up conv10_2_mbox_loc_scale
I0621 17:36:48.559859  7797 net.cpp:157] Top shape: 16 16 1 1 (256)
I0621 17:36:48.559860  7797 net.cpp:165] Memory required for data: 2652396000
I0621 17:36:48.559866  7797 layer_factory.hpp:77] Creating layer conv10_2_mbox_loc_perm
I0621 17:36:48.559875  7797 net.cpp:100] Creating Layer conv10_2_mbox_loc_perm
I0621 17:36:48.559880  7797 net.cpp:434] conv10_2_mbox_loc_perm <- conv10_2_mbox_loc
I0621 17:36:48.559896  7797 net.cpp:408] conv10_2_mbox_loc_perm -> conv10_2_mbox_loc_perm
I0621 17:36:48.560029  7797 net.cpp:150] Setting up conv10_2_mbox_loc_perm
I0621 17:36:48.560035  7797 net.cpp:157] Top shape: 16 1 1 16 (256)
I0621 17:36:48.560039  7797 net.cpp:165] Memory required for data: 2652397024
I0621 17:36:48.560041  7797 layer_factory.hpp:77] Creating layer conv10_2_mbox_loc_flat
I0621 17:36:48.560047  7797 net.cpp:100] Creating Layer conv10_2_mbox_loc_flat
I0621 17:36:48.560052  7797 net.cpp:434] conv10_2_mbox_loc_flat <- conv10_2_mbox_loc_perm
I0621 17:36:48.560057  7797 net.cpp:408] conv10_2_mbox_loc_flat -> conv10_2_mbox_loc_flat
I0621 17:36:48.560091  7797 net.cpp:150] Setting up conv10_2_mbox_loc_flat
I0621 17:36:48.560096  7797 net.cpp:157] Top shape: 16 16 (256)
I0621 17:36:48.560099  7797 net.cpp:165] Memory required for data: 2652398048
I0621 17:36:48.560102  7797 layer_factory.hpp:77] Creating layer conv10_2_mbox_conf
I0621 17:36:48.560111  7797 net.cpp:100] Creating Layer conv10_2_mbox_conf
I0621 17:36:48.560115  7797 net.cpp:434] conv10_2_mbox_conf <- conv10_2_conv10_2_relu_0_split_1
I0621 17:36:48.560122  7797 net.cpp:408] conv10_2_mbox_conf -> conv10_2_mbox_conf
I0621 17:36:48.565304  7797 net.cpp:150] Setting up conv10_2_mbox_conf
I0621 17:36:48.565318  7797 net.cpp:157] Top shape: 16 84 1 1 (1344)
I0621 17:36:48.565321  7797 net.cpp:165] Memory required for data: 2652403424
I0621 17:36:48.565327  7797 layer_factory.hpp:77] Creating layer conv10_2_mbox_conf_bn
I0621 17:36:48.565333  7797 net.cpp:100] Creating Layer conv10_2_mbox_conf_bn
I0621 17:36:48.565336  7797 net.cpp:434] conv10_2_mbox_conf_bn <- conv10_2_mbox_conf
I0621 17:36:48.565343  7797 net.cpp:395] conv10_2_mbox_conf_bn -> conv10_2_mbox_conf (in-place)
I0621 17:36:48.565623  7797 net.cpp:150] Setting up conv10_2_mbox_conf_bn
I0621 17:36:48.565632  7797 net.cpp:157] Top shape: 16 84 1 1 (1344)
…
I0621 17:36:48.765239  7797 net.cpp:408] conv10_2 -> conv10_2
I0621 17:36:48.767554  7797 net.cpp:150] Setting up conv10_2
I0621 17:36:48.767588  7797 net.cpp:157] Top shape: 8 256 1 1 (2048)
I0621 17:36:48.767601  7797 net.cpp:165] Memory required for data: 1287155776
I0621 17:36:48.767614  7797 layer_factory.hpp:77] Creating layer conv10_2_bn
I0621 17:36:48.767629  7797 net.cpp:100] Creating Layer conv10_2_bn
I0621 17:36:48.767640  7797 net.cpp:434] conv10_2_bn <- conv10_2
I0621 17:36:48.767653  7797 net.cpp:395] conv10_2_bn -> conv10_2 (in-place)
I0621 17:36:48.767884  7797 net.cpp:150] Setting up conv10_2_bn
I0621 17:36:48.767901  7797 net.cpp:157] Top shape: 8 256 1 1 (2048)
I0621 17:36:48.767911  7797 net.cpp:165] Memory required for data: 1287163968
I0621 17:36:48.767926  7797 layer_factory.hpp:77] Creating layer conv10_2_scale
I0621 17:36:48.767941  7797 net.cpp:100] Creating Layer conv10_2_scale
I0621 17:36:48.767952  7797 net.cpp:434] conv10_2_scale <- conv10_2
I0621 17:36:48.767964  7797 net.cpp:395] conv10_2_scale -> conv10_2 (in-place)
I0621 17:36:48.768023  7797 layer_factory.hpp:77] Creating layer conv10_2_scale
I0621 17:36:48.768163  7797 net.cpp:150] Setting up conv10_2_scale
I0621 17:36:48.768189  7797 net.cpp:157] Top shape: 8 256 1 1 (2048)
I0621 17:36:48.768199  7797 net.cpp:165] Memory required for data: 1287172160
I0621 17:36:48.768213  7797 layer_factory.hpp:77] Creating layer conv10_2_relu
I0621 17:36:48.768227  7797 net.cpp:100] Creating Layer conv10_2_relu
I0621 17:36:48.768239  7797 net.cpp:434] conv10_2_relu <- conv10_2
I0621 17:36:48.768249  7797 net.cpp:395] conv10_2_relu -> conv10_2 (in-place)
I0621 17:36:48.768476  7797 net.cpp:150] Setting up conv10_2_relu
I0621 17:36:48.768497  7797 net.cpp:157] Top shape: 8 256 1 1 (2048)
I0621 17:36:48.768507  7797 net.cpp:165] Memory required for data: 1287180352
I0621 17:36:48.768517  7797 layer_factory.hpp:77] Creating layer conv10_2_conv10_2_relu_0_split
I0621 17:36:48.768532  7797 net.cpp:100] Creating Layer conv10_2_conv10_2_relu_0_split
I0621 17:36:48.768543  7797 net.cpp:434] conv10_2_conv10_2_relu_0_split <- conv10_2
I0621 17:36:48.768555  7797 net.cpp:408] conv10_2_conv10_2_relu_0_split -> conv10_2_conv10_2_relu_0_split_0
I0621 17:36:48.768570  7797 net.cpp:408] conv10_2_conv10_2_relu_0_split -> conv10_2_conv10_2_relu_0_split_1
I0621 17:36:48.768584  7797 net.cpp:408] conv10_2_conv10_2_relu_0_split -> conv10_2_conv10_2_relu_0_split_2
I0621 17:36:48.768671  7797 net.cpp:150] Setting up conv10_2_conv10_2_relu_0_split
I0621 17:36:48.768688  7797 net.cpp:157] Top shape: 8 256 1 1 (2048)
I0621 17:36:48.768699  7797 net.cpp:157] Top shape: 8 256 1 1 (2048)
I0621 17:36:48.768712  7797 net.cpp:157] Top shape: 8 256 1 1 (2048)
I0621 17:36:48.768720  7797 net.cpp:165] Memory required for data: 1287204928
I0621 17:36:48.768730  7797 layer_factory.hpp:77] Creating layer conv5_3/sep_norm
I0621 17:36:48.768745  7797 net.cpp:100] Creating Layer conv5_3/sep_norm
I0621 17:36:48.768756  7797 net.cpp:434] conv5_3/sep_norm <- conv5_3/sep_conv5_3/sep_relu_0_split_1
I0621 17:36:48.768769  7797 net.cpp:408] conv5_3/sep_norm -> conv5_3/sep_norm
I0621 17:36:48.768982  7797 net.cpp:150] Setting up conv5_3/sep_norm
I0621 17:36:48.769001  7797 net.cpp:157] Top shape: 8 512 19 19 (1478656)
I0621 17:36:48.769011  7797 net.cpp:165] Memory required for data: 1293119552
I0621 17:36:48.769023  7797 layer_factory.hpp:77] Creating layer conv5_3/sep_norm_conv5_3/sep_norm_0_split
I0621 17:36:48.769037  7797 net.cpp:100] Creating Layer conv5_3/sep_norm_conv5_3/sep_norm_0_split
I0621 17:36:48.769048  7797 net.cpp:434] conv5_3/sep_norm_conv5_3/sep_norm_0_split <- conv5_3/sep_norm
I0621 17:36:48.769060  7797 net.cpp:408] conv5_3/sep_norm_conv5_3/sep_norm_0_split -> conv5_3/sep_norm_conv5_3/sep_norm_0_split_0
I0621 17:36:48.769075  7797 net.cpp:408] conv5_3/sep_norm_conv5_3/sep_norm_0_split -> conv5_3/sep_norm_conv5_3/sep_norm_0_split_1
I0621 17:36:48.769090  7797 net.cpp:408] conv5_3/sep_norm_conv5_3/sep_norm_0_split -> conv5_3/sep_norm_conv5_3/sep_norm_0_split_2
I0621 17:36:48.769155  7797 net.cpp:150] Setting up conv5_3/sep_norm_conv5_3/sep_norm_0_split
I0621 17:36:48.769170  7797 net.cpp:157] Top shape: 8 512 19 19 (1478656)
I0621 17:36:48.769182  7797 net.cpp:157] Top shape: 8 512 19 19 (1478656)
I0621 17:36:48.769193  7797 net.cpp:157] Top shape: 8 512 19 19 (1478656)
I0621 17:36:48.769203  7797 net.cpp:165] Memory required for data: 1310863424
I0621 17:36:48.769212  7797 layer_factory.hpp:77] Creating layer conv5_3/sep_norm_mbox_loc
I0621 17:36:48.769227  7797 net.cpp:100] Creating Layer conv5_3/sep_norm_mbox_loc
I0621 17:36:48.769238  7797 net.cpp:434] conv5_3/sep_norm_mbox_loc <- conv5_3/sep_norm_conv5_3/sep_norm_0_split_0
I0621 17:36:48.769256  7797 net.cpp:408] conv5_3/sep_norm_mbox_loc -> conv5_3/sep_norm_mbox_loc
I0621 17:36:48.772474  7797 net.cpp:150] Setting up conv5_3/sep_norm_mbox_loc
I0621 17:36:48.772500  7797 net.cpp:157] Top shape: 8 16 19 19 (46208)
I0621 17:36:48.772512  7797 net.cpp:165] Memory required for data: 1311048256
I0621 17:36:48.772526  7797 layer_factory.hpp:77] Creating layer conv5_3/sep_norm_mbox_loc_bn
I0621 17:36:48.772541  7797 net.cpp:100] Creating Layer conv5_3/sep_norm_mbox_loc_bn
I0621 17:36:48.772557  7797 net.cpp:434] conv5_3/sep_norm_mbox_loc_bn <- conv5_3/sep_norm_mbox_loc
I0621 17:36:48.772575  7797 net.cpp:395] conv5_3/sep_norm_mbox_loc_bn -> conv5_3/sep_norm_mbox_loc (in-place)
I0621 17:36:48.772837  7797 net.cpp:150] Setting up conv5_3/sep_norm_mbox_loc_bn
I0621 17:36:48.772855  7797 net.cpp:157] Top shape: 8 16 19 19 (46208)
I0621 17:36:48.772866  7797 net.cpp:165] Memory required for data: 1311233088
I0621 17:36:48.772881  7797 layer_factory.hpp:77] Creating layer conv5_3/sep_norm_mbox_loc_scale
I0621 17:36:48.772896  7797 net.cpp:100] Creating Layer conv5_3/sep_norm_mbox_loc_scale
I0621 17:36:48.772905  7797 net.cpp:434] conv5_3/sep_norm_mbox_loc_scale <- conv5_3/sep_norm_mbox_loc
I0621 17:36:48.772919  7797 net.cpp:395] conv5_3/sep_norm_mbox_loc_scale -> conv5_3/sep_norm_mbox_loc (in-place)
I0621 17:36:48.772979  7797 layer_factory.hpp:77] Creating layer conv5_3/sep_norm_mbox_loc_scale
I0621 17:36:48.773159  7797 net.cpp:150] Setting up conv5_3/sep_norm_mbox_loc_scale
I0621 17:36:48.773177  7797 net.cpp:157] Top shape: 8 16 19 19 (46208)
I0621 17:36:48.773187  7797 net.cpp:165] Memory required for data: 1311417920
I0621 17:36:48.773200  7797 layer_factory.hpp:77] Creating layer conv5_3/sep_norm_mbox_loc_perm
I0621 17:36:48.773216  7797 net.cpp:100] Creating Layer conv5_3/sep_norm_mbox_loc_perm
I0621 17:36:48.773227  7797 net.cpp:434] conv5_3/sep_norm_mbox_loc_perm <- conv5_3/sep_norm_mbox_loc
I0621 17:36:48.773241  7797 net.cpp:408] conv5_3/sep_norm_mbox_loc_perm -> conv5_3/sep_norm_mbox_loc_perm
I0621 17:36:48.773366  7797 net.cpp:150] Setting up conv5_3/sep_norm_mbox_loc_perm
I0621 17:36:48.773383  7797 net.cpp:157] Top shape: 8 19 19 16 (46208)
I0621 17:36:48.773393  7797 net.cpp:165] Memory required for data: 1311602752
I0621 17:36:48.773403  7797 layer_factory.hpp:77] Creating layer conv5_3/sep_norm_mbox_loc_flat
I0621 17:36:48.773417  7797 net.cpp:100] Creating Layer conv5_3/sep_norm_mbox_loc_flat
I0621 17:36:48.773428  7797 net.cpp:434] conv5_3/sep_norm_mbox_loc_flat <- conv5_3/sep_norm_mbox_loc_perm
I0621 17:36:48.773440  7797 net.cpp:408] conv5_3/sep_norm_mbox_loc_flat -> conv5_3/sep_norm_mbox_loc_flat
I0621 17:36:48.773479  7797 net.cpp:150] Setting up conv5_3/sep_norm_mbox_loc_flat
I0621 17:36:48.773494  7797 net.cpp:157] Top shape: 8 5776 (46208)
I0621 17:36:48.773504  7797 net.cpp:165] Memory required for data: 1311787584
I0621 17:36:48.773514  7797 layer_factory.hpp:77] Creating layer conv5_3/sep_norm_mbox_conf
I0621 17:36:48.773530  7797 net.cpp:100] Creating Layer conv5_3/sep_norm_mbox_conf
I0621 17:36:48.773541  7797 net.cpp:434] conv5_3/sep_norm_mbox_conf <- conv5_3/sep_norm_conv5_3/sep_norm_0_split_1
I0621 17:36:48.773556  7797 net.cpp:408] conv5_3/sep_norm_mbox_conf -> conv5_3/sep_norm_mbox_conf
I0621 17:36:48.781141  7797 net.cpp:150] Setting up conv5_3/sep_norm_mbox_conf
I0621 17:36:48.781170  7797 net.cpp:157] Top shape: 8 84 19 19 (242592)
I0621 17:36:48.781183  7797 net.cpp:165] Memory required for data: 1312757952
I0621 17:36:48.781195  7797 layer_factory.hpp:77] Creating layer conv5_3/sep_norm_mbox_conf_bn
I0621 17:36:48.781209  7797 net.cpp:100] Creating Layer conv5_3/sep_norm_mbox_conf_bn
I0621 17:36:48.781220  7797 net.cpp:434] conv5_3/sep_norm_mbox_conf_bn <- conv5_3/sep_norm_mbox_conf
I0621 17:36:48.781235  7797 net.cpp:395] conv5_3/sep_norm_mbox_conf_bn -> conv5_3/sep_norm_mbox_conf (in-place)
I0621 17:36:48.781512  7797 net.cpp:150] Setting up conv5_3/sep_norm_mbox_conf_bn
I0621 17:36:48.781530  7797 net.cpp:157] Top shape: 8 84 19 19 (242592)
I0621 17:36:48.781540  7797 net.cpp:165] Memory required for data: 1313728320
I0621 17:36:48.781555  7797 layer_factory.hpp:77] Creating layer conv5_3/sep_norm_mbox_conf_scale
I0621 17:36:48.781571  7797 net.cpp:100] Creating Layer conv5_3/sep_norm_mbox_conf_scale
I0621 17:36:48.781582  7797 net.cpp:434] conv5_3/sep_norm_mbox_conf_scale <- conv5_3/sep_norm_mbox_conf
I0621 17:36:48.781595  7797 net.cpp:395] conv5_3/sep_norm_mbox_conf_scale -> conv5_3/sep_norm_mbox_conf (in-place)
I0621 17:36:48.781656  7797 layer_factory.hpp:77] Creating layer conv5_3/sep_norm_mbox_conf_scale
I0621 17:36:48.781855  7797 net.cpp:150] Setting up conv5_3/sep_norm_mbox_conf_scale
I0621 17:36:48.781875  7797 net.cpp:157] Top shape: 8 84 19 19 (242592)
I0621 17:36:48.781886  7797 net.cpp:165] Memory required for data: 1314698688
I0621 17:36:48.781899  7797 layer_factory.hpp:77] Creating layer conv5_3/sep_norm_mbox_conf_perm
I0621 17:36:48.781913  7797 net.cpp:100] Creating Layer conv5_3/sep_norm_mbox_conf_perm
I0621 17:36:48.781924  7797 net.cpp:434] conv5_3/sep_norm_mbox_conf_perm <- conv5_3/sep_norm_mbox_conf
I0621 17:36:48.781937  7797 net.cpp:408] conv5_3/sep_norm_mbox_conf_perm -> conv5_3/sep_norm_mbox_conf_perm
I0621 17:36:48.782060  7797 net.cpp:150] Setting up conv5_3/sep_norm_mbox_conf_perm
I0621 17:36:48.782078  7797 net.cpp:157] Top shape: 8 19 19 84 (242592)
I0621 17:36:48.782088  7797 net.cpp:165] Memory required for data: 1315669056
I0621 17:36:48.782097  7797 layer_factory.hpp:77] Creating layer conv5_3/sep_norm_mbox_conf_flat
I0621 17:36:48.782111  7797 net.cpp:100] Creating Layer conv5_3/sep_norm_mbox_conf_flat
I0621 17:36:48.782122  7797 net.cpp:434] conv5_3/sep_norm_mbox_conf_flat <- conv5_3/sep_norm_mbox_conf_perm
I0621 17:36:48.782135  7797 net.cpp:408] conv5_3/sep_norm_mbox_conf_flat -> conv5_3/sep_norm_mbox_conf_flat
I0621 17:36:48.782176  7797 net.cpp:150] Setting up conv5_3/sep_norm_mbox_conf_flat
I0621 17:36:48.782191  7797 net.cpp:157] Top shape: 8 30324 (242592)
I0621 17:36:48.782200  7797 net.cpp:165] Memory required for data: 1316639424
I0621 17:36:48.782217  7797 layer_factory.hpp:77] Creating layer conv5_3/sep_norm_mbox_priorbox
I0621 17:36:48.782233  7797 net.cpp:100] Creating Layer conv5_3/sep_norm_mbox_priorbox
I0621 17:36:48.782244  7797 net.cpp:434] conv5_3/sep_norm_mbox_priorbox <- conv5_3/sep_norm_conv5_3/sep_norm_0_split_2
I0621 17:36:48.782256  7797 net.cpp:434] conv5_3/sep_norm_mbox_priorbox <- data_data_0_split_1
I0621 17:36:48.782271  7797 net.cpp:408] conv5_3/sep_norm_mbox_priorbox -> conv5_3/sep_norm_mbox_priorbox
I0621 17:36:48.782315  7797 net.cpp:150] Setting up conv5_3/sep_norm_mbox_priorbox
I0621 17:36:48.782330  7797 net.cpp:157] Top shape: 1 2 5776 (11552)
I0621 17:36:48.782341  7797 net.cpp:165] Memory required for data: 1316685632
I0621 17:36:48.782349  7797 layer_factory.hpp:77] Creating layer conv5_5/sep_mbox_loc
I0621 17:36:48.782367  7797 net.cpp:100] Creating Layer conv5_5/sep_mbox_loc
I0621 17:36:48.782378  7797 net.cpp:434] conv5_5/sep_mbox_loc <- conv5_5/sep_conv5_5/sep_relu_0_split_1
I0621 17:36:48.782395  7797 net.cpp:408] conv5_5/sep_mbox_loc -> conv5_5/sep_mbox_loc
I0621 17:36:48.787029  7797 net.cpp:150] Setting up conv5_5/sep_mbox_loc
I0621 17:36:48.787058  7797 net.cpp:157] Top shape: 8 24 19 19 (69312)
I0621 17:36:48.787070  7797 net.cpp:165] Memory required for data: 1316962880
I0621 17:36:48.787082  7797 layer_factory.hpp:77] Creating layer conv5_5/sep_mbox_loc_bn
I0621 17:36:48.787096  7797 net.cpp:100] Creating Layer conv5_5/sep_mbox_loc_bn
I0621 17:36:48.787106  7797 net.cpp:434] conv5_5/sep_mbox_loc_bn <- conv5_5/sep_mbox_loc
I0621 17:36:48.787122  7797 net.cpp:395] conv5_5/sep_mbox_loc_bn -> conv5_5/sep_mbox_loc (in-place)
I0621 17:36:48.787389  7797 net.cpp:150] Setting up conv5_5/sep_mbox_loc_bn
I0621 17:36:48.787407  7797 net.cpp:157] Top shape: 8 24 19 19 (69312)
I0621 17:36:48.787417  7797 net.cpp:165] Memory required for data: 1317240128
I0621 17:36:48.787433  7797 layer_factory.hpp:77] Creating layer conv5_5/sep_mbox_loc_scale
I0621 17:36:48.787448  7797 net.cpp:100] Creating Layer conv5_5/sep_mbox_loc_scale
I0621 17:36:48.787459  7797 net.cpp:434] conv5_5/sep_mbox_loc_scale <- conv5_5/sep_mbox_loc
I0621 17:36:48.787472  7797 net.cpp:395] conv5_5/sep_mbox_loc_scale -> conv5_5/sep_mbox_loc (in-place)
I0621 17:36:48.787531  7797 layer_factory.hpp:77] Creating layer conv5_5/sep_mbox_loc_scale
I0621 17:36:48.787714  7797 net.cpp:150] Setting up conv5_5/sep_mbox_loc_scale
I0621 17:36:48.787731  7797 net.cpp:157] Top shape: 8 24 19 19 (69312)
I0621 17:36:48.787741  7797 net.cpp:165] Memory required for data: 1317517376
I0621 17:36:48.787765  7797 layer_factory.hpp:77] Creating layer conv5_5/sep_mbox_loc_perm
I0621 17:36:48.787781  7797 net.cpp:100] Creating Layer conv5_5/sep_mbox_loc_perm
I0621 17:36:48.787791  7797 net.cpp:434] conv5_5/sep_mbox_loc_perm <- conv5_5/sep_mbox_loc
I0621 17:36:48.787804  7797 net.cpp:408] conv5_5/sep_mbox_loc_perm -> conv5_5/sep_mbox_loc_perm
I0621 17:36:48.787926  7797 net.cpp:150] Setting up conv5_5/sep_mbox_loc_perm
I0621 17:36:48.787943  7797 net.cpp:157] Top shape: 8 19 19 24 (69312)
I0621 17:36:48.787952  7797 net.cpp:165] Memory required for data: 1317794624
I0621 17:36:48.787963  7797 layer_factory.hpp:77] Creating layer conv5_5/sep_mbox_loc_flat
I0621 17:36:48.787976  7797 net.cpp:100] Creating Layer conv5_5/sep_mbox_loc_flat
I0621 17:36:48.787986  7797 net.cpp:434] conv5_5/sep_mbox_loc_flat <- conv5_5/sep_mbox_loc_perm
I0621 17:36:48.788000  7797 net.cpp:408] conv5_5/sep_mbox_loc_flat -> conv5_5/sep_mbox_loc_flat
I0621 17:36:48.788041  7797 net.cpp:150] Setting up conv5_5/sep_mbox_loc_flat
I0621 17:36:48.788056  7797 net.cpp:157] Top shape: 8 8664 (69312)
I0621 17:36:48.788065  7797 net.cpp:165] Memory required for data: 1318071872
I0621 17:36:48.788075  7797 layer_factory.hpp:77] Creating layer conv5_5/sep_mbox_conf
I0621 17:36:48.788091  7797 net.cpp:100] Creating Layer conv5_5/sep_mbox_conf
I0621 17:36:48.788103  7797 net.cpp:434] conv5_5/sep_mbox_conf <- conv5_5/sep_conv5_5/sep_relu_0_split_2
I0621 17:36:48.788118  7797 net.cpp:408] conv5_5/sep_mbox_conf -> conv5_5/sep_mbox_conf
I0621 17:36:48.798234  7797 net.cpp:150] Setting up conv5_5/sep_mbox_conf
I0621 17:36:48.798261  7797 net.cpp:157] Top shape: 8 126 19 19 (363888)
I0621 17:36:48.798272  7797 net.cpp:165] Memory required for data: 1319527424
I0621 17:36:48.798285  7797 layer_factory.hpp:77] Creating layer conv5_5/sep_mbox_conf_bn
I0621 17:36:48.798303  7797 net.cpp:100] Creating Layer conv5_5/sep_mbox_conf_bn
I0621 17:36:48.798315  7797 net.cpp:434] conv5_5/sep_mbox_conf_bn <- conv5_5/sep_mbox_conf
I0621 17:36:48.798329  7797 net.cpp:395] conv5_5/sep_mbox_conf_bn -> conv5_5/sep_mbox_conf (in-place)
I0621 17:36:48.798600  7797 net.cpp:150] Setting up conv5_5/sep_mbox_conf_bn
I0621 17:36:48.798619  7797 net.cpp:157] Top shape: 8 126 19 19 (363888)
I0621 17:36:48.798629  7797 net.cpp:165] Memory required for data: 1320982976
I0621 17:36:48.798645  7797 layer_factory.hpp:77] Creating layer conv5_5/sep_mbox_conf_scale
I0621 17:36:48.798658  7797 net.cpp:100] Creating Layer conv5_5/sep_mbox_conf_scale
I0621 17:36:48.798669  7797 net.cpp:434] conv5_5/sep_mbox_conf_scale <- conv5_5/sep_mbox_conf
I0621 17:36:48.798681  7797 net.cpp:395] conv5_5/sep_mbox_conf_scale -> conv5_5/sep_mbox_conf (in-place)
I0621 17:36:48.798744  7797 layer_factory.hpp:77] Creating layer conv5_5/sep_mbox_conf_scale
I0621 17:36:48.798929  7797 net.cpp:150] Setting up conv5_5/sep_mbox_conf_scale
I0621 17:36:48.798949  7797 net.cpp:157] Top shape: 8 126 19 19 (363888)
I0621 17:36:48.798959  7797 net.cpp:165] Memory required for data: 1322438528
I0621 17:36:48.798971  7797 layer_factory.hpp:77] Creating layer conv5_5/sep_mbox_conf_perm
I0621 17:36:48.798985  7797 net.cpp:100] Creating Layer conv5_5/sep_mbox_conf_perm
I0621 17:36:48.798995  7797 net.cpp:434] conv5_5/sep_mbox_conf_perm <- conv5_5/sep_mbox_conf
I0621 17:36:48.799010  7797 net.cpp:408] conv5_5/sep_mbox_conf_perm -> conv5_5/sep_mbox_conf_perm
I0621 17:36:48.799137  7797 net.cpp:150] Setting up conv5_5/sep_mbox_conf_perm
I0621 17:36:48.799154  7797 net.cpp:157] Top shape: 8 19 19 126 (363888)
I0621 17:36:48.799165  7797 net.cpp:165] Memory required for data: 1323894080
I0621 17:36:48.799175  7797 layer_factory.hpp:77] Creating layer conv5_5/sep_mbox_conf_flat
I0621 17:36:48.799187  7797 net.cpp:100] Creating Layer conv5_5/sep_mbox_conf_flat
I0621 17:36:48.799197  7797 net.cpp:434] conv5_5/sep_mbox_conf_flat <- conv5_5/sep_mbox_conf_perm
I0621 17:36:48.799211  7797 net.cpp:408] conv5_5/sep_mbox_conf_flat -> conv5_5/sep_mbox_conf_flat
I0621 17:36:48.799252  7797 net.cpp:150] Setting up conv5_5/sep_mbox_conf_flat
I0621 17:36:48.799278  7797 net.cpp:157] Top shape: 8 45486 (363888)
I0621 17:36:48.799288  7797 net.cpp:165] Memory required for data: 1325349632
I0621 17:36:48.799299  7797 layer_factory.hpp:77] Creating layer conv5_5/sep_mbox_priorbox
I0621 17:36:48.799311  7797 net.cpp:100] Creating Layer conv5_5/sep_mbox_priorbox
I0621 17:36:48.799324  7797 net.cpp:434] conv5_5/sep_mbox_priorbox <- conv5_5/sep_conv5_5/sep_relu_0_split_3
I0621 17:36:48.799336  7797 net.cpp:434] conv5_5/sep_mbox_priorbox <- data_data_0_split_2
I0621 17:36:48.799350  7797 net.cpp:408] conv5_5/sep_mbox_priorbox -> conv5_5/sep_mbox_priorbox
I0621 17:36:48.799392  7797 net.cpp:150] Setting up conv5_5/sep_mbox_priorbox
I0621 17:36:48.799408  7797 net.cpp:157] Top shape: 1 2 8664 (17328)
I0621 17:36:48.799418  7797 net.cpp:165] Memory required for data: 1325418944
I0621 17:36:48.799428  7797 layer_factory.hpp:77] Creating layer conv7_2_mbox_loc
I0621 17:36:48.799444  7797 net.cpp:100] Creating Layer conv7_2_mbox_loc
I0621 17:36:48.799456  7797 net.cpp:434] conv7_2_mbox_loc <- conv7_2_conv7_2_relu_0_split_1
I0621 17:36:48.799471  7797 net.cpp:408] conv7_2_mbox_loc -> conv7_2_mbox_loc
I0621 17:36:48.802664  7797 net.cpp:150] Setting up conv7_2_mbox_loc
I0621 17:36:48.802690  7797 net.cpp:157] Top shape: 8 24 5 5 (4800)
I0621 17:36:48.802701  7797 net.cpp:165] Memory required for data: 1325438144
I0621 17:36:48.802714  7797 layer_factory.hpp:77] Creating layer conv7_2_mbox_loc_bn
I0621 17:36:48.802727  7797 net.cpp:100] Creating Layer conv7_2_mbox_loc_bn
I0621 17:36:48.802738  7797 net.cpp:434] conv7_2_mbox_loc_bn <- conv7_2_mbox_loc
I0621 17:36:48.802752  7797 net.cpp:395] conv7_2_mbox_loc_bn -> conv7_2_mbox_loc (in-place)
I0621 17:36:48.803010  7797 net.cpp:150] Setting up conv7_2_mbox_loc_bn
I0621 17:36:48.803028  7797 net.cpp:157] Top shape: 8 24 5 5 (4800)
I0621 17:36:48.803037  7797 net.cpp:165] Memory required for data: 1325457344
I0621 17:36:48.803052  7797 layer_factory.hpp:77] Creating layer conv7_2_mbox_loc_scale
I0621 17:36:48.803067  7797 net.cpp:100] Creating Layer conv7_2_mbox_loc_scale
I0621 17:36:48.803079  7797 net.cpp:434] conv7_2_mbox_loc_scale <- conv7_2_mbox_loc
I0621 17:36:48.803092  7797 net.cpp:395] conv7_2_mbox_loc_scale -> conv7_2_mbox_loc (in-place)
I0621 17:36:48.803151  7797 layer_factory.hpp:77] Creating layer conv7_2_mbox_loc_scale
I0621 17:36:48.803311  7797 net.cpp:150] Setting up conv7_2_mbox_loc_scale
I0621 17:36:48.803329  7797 net.cpp:157] Top shape: 8 24 5 5 (4800)
I0621 17:36:48.803339  7797 net.cpp:165] Memory required for data: 1325476544
I0621 17:36:48.803352  7797 layer_factory.hpp:77] Creating layer conv7_2_mbox_loc_perm
I0621 17:36:48.803366  7797 net.cpp:100] Creating Layer conv7_2_mbox_loc_perm
I0621 17:36:48.803377  7797 net.cpp:434] conv7_2_mbox_loc_perm <- conv7_2_mbox_loc
I0621 17:36:48.803390  7797 net.cpp:408] conv7_2_mbox_loc_perm -> conv7_2_mbox_loc_perm
I0621 17:36:48.803514  7797 net.cpp:150] Setting up conv7_2_mbox_loc_perm
I0621 17:36:48.803530  7797 net.cpp:157] Top shape: 8 5 5 24 (4800)
I0621 17:36:48.803539  7797 net.cpp:165] Memory required for data: 1325495744
I0621 17:36:48.803547  7797 layer_factory.hpp:77] Creating layer conv7_2_mbox_loc_flat
I0621 17:36:48.803558  7797 net.cpp:100] Creating Layer conv7_2_mbox_loc_flat
I0621 17:36:48.803568  7797 net.cpp:434] conv7_2_mbox_loc_flat <- conv7_2_mbox_loc_perm
I0621 17:36:48.803581  7797 net.cpp:408] conv7_2_mbox_loc_flat -> conv7_2_mbox_loc_flat
I0621 17:36:48.803622  7797 net.cpp:150] Setting up conv7_2_mbox_loc_flat
I0621 17:36:48.803635  7797 net.cpp:157] Top shape: 8 600 (4800)
I0621 17:36:48.803643  7797 net.cpp:165] Memory required for data: 1325514944
I0621 17:36:48.803653  7797 layer_factory.hpp:77] Creating layer conv7_2_mbox_conf
I0621 17:36:48.803668  7797 net.cpp:100] Creating Layer conv7_2_mbox_conf
I0621 17:36:48.803678  7797 net.cpp:434] conv7_2_mbox_conf <- conv7_2_conv7_2_relu_0_split_2
I0621 17:36:48.803691  7797 net.cpp:408] conv7_2_mbox_conf -> conv7_2_mbox_conf
I0621 17:36:48.813808  7797 net.cpp:150] Setting up conv7_2_mbox_conf
I0621 17:36:48.813848  7797 net.cpp:157] Top shape: 8 126 5 5 (25200)
I0621 17:36:48.813861  7797 net.cpp:165] Memory required for data: 1325615744
I0621 17:36:48.813874  7797 layer_factory.hpp:77] Creating layer conv7_2_mbox_conf_bn
I0621 17:36:48.813889  7797 net.cpp:100] Creating Layer conv7_2_mbox_conf_bn
I0621 17:36:48.813901  7797 net.cpp:434] conv7_2_mbox_conf_bn <- conv7_2_mbox_conf
I0621 17:36:48.813915  7797 net.cpp:395] conv7_2_mbox_conf_bn -> conv7_2_mbox_conf (in-place)
I0621 17:36:48.814175  7797 net.cpp:150] Setting up conv7_2_mbox_conf_bn
I0621 17:36:48.814193  7797 net.cpp:157] Top shape: 8 126 5 5 (25200)
I0621 17:36:48.814203  7797 net.cpp:165] Memory required for data: 1325716544
I0621 17:36:48.814224  7797 layer_factory.hpp:77] Creating layer conv7_2_mbox_conf_scale
I0621 17:36:48.814239  7797 net.cpp:100] Creating Layer conv7_2_mbox_conf_scale
I0621 17:36:48.814249  7797 net.cpp:434] conv7_2_mbox_conf_scale <- conv7_2_mbox_conf
I0621 17:36:48.814265  7797 net.cpp:395] conv7_2_mbox_conf_scale -> conv7_2_mbox_conf (in-place)
I0621 17:36:48.814327  7797 layer_factory.hpp:77] Creating layer conv7_2_mbox_conf_scale
I0621 17:36:48.815790  7797 net.cpp:150] Setting up conv7_2_mbox_conf_scale
I0621 17:36:48.815812  7797 net.cpp:157] Top shape: 8 126 5 5 (25200)
I0621 17:36:48.815824  7797 net.cpp:165] Memory required for data: 1325817344
I0621 17:36:48.815836  7797 layer_factory.hpp:77] Creating layer conv7_2_mbox_conf_perm
I0621 17:36:48.815851  7797 net.cpp:100] Creating Layer conv7_2_mbox_conf_perm
I0621 17:36:48.815862  7797 net.cpp:434] conv7_2_mbox_conf_perm <- conv7_2_mbox_conf
I0621 17:36:48.815876  7797 net.cpp:408] conv7_2_mbox_conf_perm -> conv7_2_mbox_conf_perm
I0621 17:36:48.816005  7797 net.cpp:150] Setting up conv7_2_mbox_conf_perm
I0621 17:36:48.816022  7797 net.cpp:157] Top shape: 8 5 5 126 (25200)
I0621 17:36:48.816032  7797 net.cpp:165] Memory required for data: 1325918144
I0621 17:36:48.816042  7797 layer_factory.hpp:77] Creating layer conv7_2_mbox_conf_flat
I0621 17:36:48.816056  7797 net.cpp:100] Creating Layer conv7_2_mbox_conf_flat
I0621 17:36:48.816066  7797 net.cpp:434] conv7_2_mbox_conf_flat <- conv7_2_mbox_conf_perm
I0621 17:36:48.816079  7797 net.cpp:408] conv7_2_mbox_conf_flat -> conv7_2_mbox_conf_flat
I0621 17:36:48.816120  7797 net.cpp:150] Setting up conv7_2_mbox_conf_flat
I0621 17:36:48.816135  7797 net.cpp:157] Top shape: 8 3150 (25200)
I0621 17:36:48.816145  7797 net.cpp:165] Memory required for data: 1326018944
I0621 17:36:48.816154  7797 layer_factory.hpp:77] Creating layer conv7_2_mbox_priorbox
I0621 17:36:48.816169  7797 net.cpp:100] Creating Layer conv7_2_mbox_priorbox
I0621 17:36:48.816180  7797 net.cpp:434] conv7_2_mbox_priorbox <- conv7_2_conv7_2_relu_0_split_3
I0621 17:36:48.816192  7797 net.cpp:434] conv7_2_mbox_priorbox <- data_data_0_split_3
I0621 17:36:48.816205  7797 net.cpp:408] conv7_2_mbox_priorbox -> conv7_2_mbox_priorbox
I0621 17:36:48.816248  7797 net.cpp:150] Setting up conv7_2_mbox_priorbox
I0621 17:36:48.816263  7797 net.cpp:157] Top shape: 1 2 600 (1200)
I0621 17:36:48.816273  7797 net.cpp:165] Memory required for data: 1326023744
I0621 17:36:48.816283  7797 layer_factory.hpp:77] Creating layer conv8_2_mbox_loc
I0621 17:36:48.816299  7797 net.cpp:100] Creating Layer conv8_2_mbox_loc
I0621 17:36:48.816310  7797 net.cpp:434] conv8_2_mbox_loc <- conv8_2_conv8_2_relu_0_split_1
I0621 17:36:48.816326  7797 net.cpp:408] conv8_2_mbox_loc -> conv8_2_mbox_loc
I0621 17:36:48.819414  7797 net.cpp:150] Setting up conv8_2_mbox_loc
I0621 17:36:48.819440  7797 net.cpp:157] Top shape: 8 24 3 3 (1728)
I0621 17:36:48.819452  7797 net.cpp:165] Memory required for data: 1326030656
I0621 17:36:48.819464  7797 layer_factory.hpp:77] Creating layer conv8_2_mbox_loc_bn
I0621 17:36:48.819478  7797 net.cpp:100] Creating Layer conv8_2_mbox_loc_bn
I0621 17:36:48.819490  7797 net.cpp:434] conv8_2_mbox_loc_bn <- conv8_2_mbox_loc
I0621 17:36:48.819505  7797 net.cpp:395] conv8_2_mbox_loc_bn -> conv8_2_mbox_loc (in-place)
I0621 17:36:48.819772  7797 net.cpp:150] Setting up conv8_2_mbox_loc_bn
I0621 17:36:48.819797  7797 net.cpp:157] Top shape: 8 24 3 3 (1728)
I0621 17:36:48.819808  7797 net.cpp:165] Memory required for data: 1326037568
I0621 17:36:48.819823  7797 layer_factory.hpp:77] Creating layer conv8_2_mbox_loc_scale
I0621 17:36:48.819839  7797 net.cpp:100] Creating Layer conv8_2_mbox_loc_scale
I0621 17:36:48.819849  7797 net.cpp:434] conv8_2_mbox_loc_scale <- conv8_2_mbox_loc
I0621 17:36:48.819864  7797 net.cpp:395] conv8_2_mbox_loc_scale -> conv8_2_mbox_loc (in-place)
I0621 17:36:48.819926  7797 layer_factory.hpp:77] Creating layer conv8_2_mbox_loc_scale
I0621 17:36:48.820081  7797 net.cpp:150] Setting up conv8_2_mbox_loc_scale
I0621 17:36:48.820098  7797 net.cpp:157] Top shape: 8 24 3 3 (1728)
I0621 17:36:48.820108  7797 net.cpp:165] Memory required for data: 1326044480
I0621 17:36:48.820122  7797 layer_factory.hpp:77] Creating layer conv8_2_mbox_loc_perm
I0621 17:36:48.820137  7797 net.cpp:100] Creating Layer conv8_2_mbox_loc_perm
I0621 17:36:48.820147  7797 net.cpp:434] conv8_2_mbox_loc_perm <- conv8_2_mbox_loc
I0621 17:36:48.820160  7797 net.cpp:408] conv8_2_mbox_loc_perm -> conv8_2_mbox_loc_perm
I0621 17:36:48.820286  7797 net.cpp:150] Setting up conv8_2_mbox_loc_perm
I0621 17:36:48.820303  7797 net.cpp:157] Top shape: 8 3 3 24 (1728)
I0621 17:36:48.820313  7797 net.cpp:165] Memory required for data: 1326051392
I0621 17:36:48.820323  7797 layer_factory.hpp:77] Creating layer conv8_2_mbox_loc_flat
I0621 17:36:48.820336  7797 net.cpp:100] Creating Layer conv8_2_mbox_loc_flat
I0621 17:36:48.820346  7797 net.cpp:434] conv8_2_mbox_loc_flat <- conv8_2_mbox_loc_perm
I0621 17:36:48.820359  7797 net.cpp:408] conv8_2_mbox_loc_flat -> conv8_2_mbox_loc_flat
I0621 17:36:48.820400  7797 net.cpp:150] Setting up conv8_2_mbox_loc_flat
I0621 17:36:48.820415  7797 net.cpp:157] Top shape: 8 216 (1728)
I0621 17:36:48.820425  7797 net.cpp:165] Memory required for data: 1326058304
I0621 17:36:48.820435  7797 layer_factory.hpp:77] Creating layer conv8_2_mbox_conf
I0621 17:36:48.820449  7797 net.cpp:100] Creating Layer conv8_2_mbox_conf
I0621 17:36:48.820461  7797 net.cpp:434] conv8_2_mbox_conf <- conv8_2_conv8_2_relu_0_split_2
I0621 17:36:48.820477  7797 net.cpp:408] conv8_2_mbox_conf -> conv8_2_mbox_conf
I0621 17:36:48.826854  7797 net.cpp:150] Setting up conv8_2_mbox_conf
I0621 17:36:48.826881  7797 net.cpp:157] Top shape: 8 126 3 3 (9072)
I0621 17:36:48.826895  7797 net.cpp:165] Memory required for data: 1326094592
I0621 17:36:48.826908  7797 layer_factory.hpp:77] Creating layer conv8_2_mbox_conf_bn
I0621 17:36:48.826921  7797 net.cpp:100] Creating Layer conv8_2_mbox_conf_bn
I0621 17:36:48.826932  7797 net.cpp:434] conv8_2_mbox_conf_bn <- conv8_2_mbox_conf
I0621 17:36:48.826947  7797 net.cpp:395] conv8_2_mbox_conf_bn -> conv8_2_mbox_conf (in-place)
I0621 17:36:48.827205  7797 net.cpp:150] Setting up conv8_2_mbox_conf_bn
I0621 17:36:48.827224  7797 net.cpp:157] Top shape: 8 126 3 3 (9072)
I0621 17:36:48.827234  7797 net.cpp:165] Memory required for data: 1326130880
I0621 17:36:48.827271  7797 layer_factory.hpp:77] Creating layer conv8_2_mbox_conf_scale
I0621 17:36:48.827289  7797 net.cpp:100] Creating Layer conv8_2_mbox_conf_scale
I0621 17:36:48.827299  7797 net.cpp:434] conv8_2_mbox_conf_scale <- conv8_2_mbox_conf
I0621 17:36:48.827313  7797 net.cpp:395] conv8_2_mbox_conf_scale -> conv8_2_mbox_conf (in-place)
I0621 17:36:48.827376  7797 layer_factory.hpp:77] Creating layer conv8_2_mbox_conf_scale
I0621 17:36:48.827538  7797 net.cpp:150] Setting up conv8_2_mbox_conf_scale
I0621 17:36:48.827556  7797 net.cpp:157] Top shape: 8 126 3 3 (9072)
I0621 17:36:48.827566  7797 net.cpp:165] Memory required for data: 1326167168
I0621 17:36:48.827579  7797 layer_factory.hpp:77] Creating layer conv8_2_mbox_conf_perm
I0621 17:36:48.827594  7797 net.cpp:100] Creating Layer conv8_2_mbox_conf_perm
I0621 17:36:48.827605  7797 net.cpp:434] conv8_2_mbox_conf_perm <- conv8_2_mbox_conf
I0621 17:36:48.827618  7797 net.cpp:408] conv8_2_mbox_conf_perm -> conv8_2_mbox_conf_perm
I0621 17:36:48.827751  7797 net.cpp:150] Setting up conv8_2_mbox_conf_perm
I0621 17:36:48.827775  7797 net.cpp:157] Top shape: 8 3 3 126 (9072)
I0621 17:36:48.827785  7797 net.cpp:165] Memory required for data: 1326203456
I0621 17:36:48.827795  7797 layer_factory.hpp:77] Creating layer conv8_2_mbox_conf_flat
I0621 17:36:48.827806  7797 net.cpp:100] Creating Layer conv8_2_mbox_conf_flat
I0621 17:36:48.827817  7797 net.cpp:434] conv8_2_mbox_conf_flat <- conv8_2_mbox_conf_perm
I0621 17:36:48.827831  7797 net.cpp:408] conv8_2_mbox_conf_flat -> conv8_2_mbox_conf_flat
I0621 17:36:48.827873  7797 net.cpp:150] Setting up conv8_2_mbox_conf_flat
I0621 17:36:48.827888  7797 net.cpp:157] Top shape: 8 1134 (9072)
I0621 17:36:48.827898  7797 net.cpp:165] Memory required for data: 1326239744
I0621 17:36:48.827908  7797 layer_factory.hpp:77] Creating layer conv8_2_mbox_priorbox
I0621 17:36:48.827920  7797 net.cpp:100] Creating Layer conv8_2_mbox_priorbox
I0621 17:36:48.827931  7797 net.cpp:434] conv8_2_mbox_priorbox <- conv8_2_conv8_2_relu_0_split_3
I0621 17:36:48.827942  7797 net.cpp:434] conv8_2_mbox_priorbox <- data_data_0_split_4
I0621 17:36:48.827957  7797 net.cpp:408] conv8_2_mbox_priorbox -> conv8_2_mbox_priorbox
I0621 17:36:48.827999  7797 net.cpp:150] Setting up conv8_2_mbox_priorbox
I0621 17:36:48.828016  7797 net.cpp:157] Top shape: 1 2 216 (432)
I0621 17:36:48.828024  7797 net.cpp:165] Memory required for data: 1326241472
I0621 17:36:48.828034  7797 layer_factory.hpp:77] Creating layer conv9_2_mbox_loc
I0621 17:36:48.828050  7797 net.cpp:100] Creating Layer conv9_2_mbox_loc
I0621 17:36:48.828063  7797 net.cpp:434] conv9_2_mbox_loc <- conv9_2_conv9_2_relu_0_split_1
I0621 17:36:48.828078  7797 net.cpp:408] conv9_2_mbox_loc -> conv9_2_mbox_loc
I0621 17:36:48.830905  7797 net.cpp:150] Setting up conv9_2_mbox_loc
I0621 17:36:48.830931  7797 net.cpp:157] Top shape: 8 16 1 1 (128)
I0621 17:36:48.830943  7797 net.cpp:165] Memory required for data: 1326241984
I0621 17:36:48.830955  7797 layer_factory.hpp:77] Creating layer conv9_2_mbox_loc_bn
I0621 17:36:48.830971  7797 net.cpp:100] Creating Layer conv9_2_mbox_loc_bn
I0621 17:36:48.830982  7797 net.cpp:434] conv9_2_mbox_loc_bn <- conv9_2_mbox_loc
I0621 17:36:48.830997  7797 net.cpp:395] conv9_2_mbox_loc_bn -> conv9_2_mbox_loc (in-place)
I0621 17:36:48.831254  7797 net.cpp:150] Setting up conv9_2_mbox_loc_bn
I0621 17:36:48.831271  7797 net.cpp:157] Top shape: 8 16 1 1 (128)
I0621 17:36:48.831280  7797 net.cpp:165] Memory required for data: 1326242496
I0621 17:36:48.831295  7797 layer_factory.hpp:77] Creating layer conv9_2_mbox_loc_scale
I0621 17:36:48.831311  7797 net.cpp:100] Creating Layer conv9_2_mbox_loc_scale
I0621 17:36:48.831322  7797 net.cpp:434] conv9_2_mbox_loc_scale <- conv9_2_mbox_loc
I0621 17:36:48.831334  7797 net.cpp:395] conv9_2_mbox_loc_scale -> conv9_2_mbox_loc (in-place)
I0621 17:36:48.831394  7797 layer_factory.hpp:77] Creating layer conv9_2_mbox_loc_scale
I0621 17:36:48.831548  7797 net.cpp:150] Setting up conv9_2_mbox_loc_scale
I0621 17:36:48.831565  7797 net.cpp:157] Top shape: 8 16 1 1 (128)
I0621 17:36:48.831575  7797 net.cpp:165] Memory required for data: 1326243008
I0621 17:36:48.831588  7797 layer_factory.hpp:77] Creating layer conv9_2_mbox_loc_perm
I0621 17:36:48.831630  7797 net.cpp:100] Creating Layer conv9_2_mbox_loc_perm
I0621 17:36:48.831642  7797 net.cpp:434] conv9_2_mbox_loc_perm <- conv9_2_mbox_loc
I0621 17:36:48.831657  7797 net.cpp:408] conv9_2_mbox_loc_perm -> conv9_2_mbox_loc_perm
I0621 17:36:48.831786  7797 net.cpp:150] Setting up conv9_2_mbox_loc_perm
I0621 17:36:48.831804  7797 net.cpp:157] Top shape: 8 1 1 16 (128)
I0621 17:36:48.831814  7797 net.cpp:165] Memory required for data: 1326243520
I0621 17:36:48.831823  7797 layer_factory.hpp:77] Creating layer conv9_2_mbox_loc_flat
I0621 17:36:48.831835  7797 net.cpp:100] Creating Layer conv9_2_mbox_loc_flat
I0621 17:36:48.831845  7797 net.cpp:434] conv9_2_mbox_loc_flat <- conv9_2_mbox_loc_perm
I0621 17:36:48.831861  7797 net.cpp:408] conv9_2_mbox_loc_flat -> conv9_2_mbox_loc_flat
I0621 17:36:48.831907  7797 net.cpp:150] Setting up conv9_2_mbox_loc_flat
I0621 17:36:48.831928  7797 net.cpp:157] Top shape: 8 16 (128)
I0621 17:36:48.831938  7797 net.cpp:165] Memory required for data: 1326244032
I0621 17:36:48.831949  7797 layer_factory.hpp:77] Creating layer conv9_2_mbox_conf
I0621 17:36:48.831965  7797 net.cpp:100] Creating Layer conv9_2_mbox_conf
I0621 17:36:48.831977  7797 net.cpp:434] conv9_2_mbox_conf <- conv9_2_conv9_2_relu_0_split_2
I0621 17:36:48.831992  7797 net.cpp:408] conv9_2_mbox_conf -> conv9_2_mbox_conf
I0621 17:36:48.836688  7797 net.cpp:150] Setting up conv9_2_mbox_conf
I0621 17:36:48.836716  7797 net.cpp:157] Top shape: 8 84 1 1 (672)
I0621 17:36:48.836729  7797 net.cpp:165] Memory required for data: 1326246720
I0621 17:36:48.836740  7797 layer_factory.hpp:77] Creating layer conv9_2_mbox_conf_bn
I0621 17:36:48.836755  7797 net.cpp:100] Creating Layer conv9_2_mbox_conf_bn
I0621 17:36:48.836766  7797 net.cpp:434] conv9_2_mbox_conf_bn <- conv9_2_mbox_conf
I0621 17:36:48.836781  7797 net.cpp:395] conv9_2_mbox_conf_bn -> conv9_2_mbox_conf (in-place)
I0621 17:36:48.837051  7797 net.cpp:150] Setting up conv9_2_mbox_conf_bn
I0621 17:36:48.837069  7797 net.cpp:157] Top shape: 8 84 1 1 (672)
I0621 17:36:48.837080  7797 net.cpp:165] Memory required for data: 1326249408
I0621 17:36:48.837095  7797 layer_factory.hpp:77] Creating layer conv9_2_mbox_conf_scale
I0621 17:36:48.837110  7797 net.cpp:100] Creating Layer conv9_2_mbox_conf_scale
I0621 17:36:48.837121  7797 net.cpp:434] conv9_2_mbox_conf_scale <- conv9_2_mbox_conf
I0621 17:36:48.837134  7797 net.cpp:395] conv9_2_mbox_conf_scale -> conv9_2_mbox_conf (in-place)
I0621 17:36:48.837198  7797 layer_factory.hpp:77] Creating layer conv9_2_mbox_conf_scale
I0621 17:36:48.837355  7797 net.cpp:150] Setting up conv9_2_mbox_conf_scale
I0621 17:36:48.837373  7797 net.cpp:157] Top shape: 8 84 1 1 (672)
I0621 17:36:48.837381  7797 net.cpp:165] Memory required for data: 1326252096
I0621 17:36:48.837394  7797 layer_factory.hpp:77] Creating layer conv9_2_mbox_conf_perm
I0621 17:36:48.837410  7797 net.cpp:100] Creating Layer conv9_2_mbox_conf_perm
I0621 17:36:48.837421  7797 net.cpp:434] conv9_2_mbox_conf_perm <- conv9_2_mbox_conf
I0621 17:36:48.837435  7797 net.cpp:408] conv9_2_mbox_conf_perm -> conv9_2_mbox_conf_perm
I0621 17:36:48.837563  7797 net.cpp:150] Setting up conv9_2_mbox_conf_perm
I0621 17:36:48.837579  7797 net.cpp:157] Top shape: 8 1 1 84 (672)
I0621 17:36:48.837589  7797 net.cpp:165] Memory required for data: 1326254784
I0621 17:36:48.837599  7797 layer_factory.hpp:77] Creating layer conv9_2_mbox_conf_flat
I0621 17:36:48.837610  7797 net.cpp:100] Creating Layer conv9_2_mbox_conf_flat
I0621 17:36:48.837621  7797 net.cpp:434] conv9_2_mbox_conf_flat <- conv9_2_mbox_conf_perm
I0621 17:36:48.837635  7797 net.cpp:408] conv9_2_mbox_conf_flat -> conv9_2_mbox_conf_flat
I0621 17:36:48.837677  7797 net.cpp:150] Setting up conv9_2_mbox_conf_flat
I0621 17:36:48.837692  7797 net.cpp:157] Top shape: 8 84 (672)
I0621 17:36:48.837702  7797 net.cpp:165] Memory required for data: 1326257472
I0621 17:36:48.837712  7797 layer_factory.hpp:77] Creating layer conv9_2_mbox_priorbox
I0621 17:36:48.837724  7797 net.cpp:100] Creating Layer conv9_2_mbox_priorbox
I0621 17:36:48.837734  7797 net.cpp:434] conv9_2_mbox_priorbox <- conv9_2_conv9_2_relu_0_split_3
I0621 17:36:48.837748  7797 net.cpp:434] conv9_2_mbox_priorbox <- data_data_0_split_5
I0621 17:36:48.837761  7797 net.cpp:408] conv9_2_mbox_priorbox -> conv9_2_mbox_priorbox
I0621 17:36:48.837805  7797 net.cpp:150] Setting up conv9_2_mbox_priorbox
I0621 17:36:48.837821  7797 net.cpp:157] Top shape: 1 2 16 (32)
I0621 17:36:48.837831  7797 net.cpp:165] Memory required for data: 1326257600
I0621 17:36:48.837839  7797 layer_factory.hpp:77] Creating layer conv10_2_mbox_loc
I0621 17:36:48.837857  7797 net.cpp:100] Creating Layer conv10_2_mbox_loc
I0621 17:36:48.837868  7797 net.cpp:434] conv10_2_mbox_loc <- conv10_2_conv10_2_relu_0_split_0
I0621 17:36:48.837884  7797 net.cpp:408] conv10_2_mbox_loc -> conv10_2_mbox_loc
I0621 17:36:48.840714  7797 net.cpp:150] Setting up conv10_2_mbox_loc
I0621 17:36:48.840749  7797 net.cpp:157] Top shape: 8 16 1 1 (128)
I0621 17:36:48.840759  7797 net.cpp:165] Memory required for data: 1326258112
I0621 17:36:48.840771  7797 layer_factory.hpp:77] Creating layer conv10_2_mbox_loc_bn
I0621 17:36:48.840787  7797 net.cpp:100] Creating Layer conv10_2_mbox_loc_bn
I0621 17:36:48.840798  7797 net.cpp:434] conv10_2_mbox_loc_bn <- conv10_2_mbox_loc
I0621 17:36:48.840811  7797 net.cpp:395] conv10_2_mbox_loc_bn -> conv10_2_mbox_loc (in-place)
I0621 17:36:48.841070  7797 net.cpp:150] Setting up conv10_2_mbox_loc_bn
I0621 17:36:48.841089  7797 net.cpp:157] Top shape: 8 16 1 1 (128)
I0621 17:36:48.841097  7797 net.cpp:165] Memory required for data: 1326258624
I0621 17:36:48.841114  7797 layer_factory.hpp:77] Creating layer conv10_2_mbox_loc_scale
I0621 17:36:48.841127  7797 net.cpp:100] Creating Layer conv10_2_mbox_loc_scale
I0621 17:36:48.841137  7797 net.cpp:434] conv10_2_mbox_loc_scale <- conv10_2_mbox_loc
I0621 17:36:48.841151  7797 net.cpp:395] conv10_2_mbox_loc_scale -> conv10_2_mbox_loc (in-place)
I0621 17:36:48.841217  7797 layer_factory.hpp:77] Creating layer conv10_2_mbox_loc_scale
I0621 17:36:48.841375  7797 net.cpp:150] Setting up conv10_2_mbox_loc_scale
I0621 17:36:48.841392  7797 net.cpp:157] Top shape: 8 16 1 1 (128)
I0621 17:36:48.841403  7797 net.cpp:165] Memory required for data: 1326259136
I0621 17:36:48.841415  7797 layer_factory.hpp:77] Creating layer conv10_2_mbox_loc_perm
I0621 17:36:48.841428  7797 net.cpp:100] Creating Layer conv10_2_mbox_loc_perm
I0621 17:36:48.841439  7797 net.cpp:434] conv10_2_mbox_loc_perm <- conv10_2_mbox_loc
I0621 17:36:48.841452  7797 net.cpp:408] conv10_2_mbox_loc_perm -> conv10_2_mbox_loc_perm
I0621 17:36:48.841579  7797 net.cpp:150] Setting up conv10_2_mbox_loc_perm
I0621 17:36:48.841595  7797 net.cpp:157] Top shape: 8 1 1 16 (128)
I0621 17:36:48.841605  7797 net.cpp:165] Memory required for data: 1326259648
I0621 17:36:48.841615  7797 layer_factory.hpp:77] Creating layer conv10_2_mbox_loc_flat
I0621 17:36:48.841626  7797 net.cpp:100] Creating Layer conv10_2_mbox_loc_flat
I0621 17:36:48.841637  7797 net.cpp:434] conv10_2_mbox_loc_flat <- conv10_2_mbox_loc_perm
I0621 17:36:48.841655  7797 net.cpp:408] conv10_2_mbox_loc_flat -> conv10_2_mbox_loc_flat
I0621 17:36:48.841696  7797 net.cpp:150] Setting up conv10_2_mbox_loc_flat
I0621 17:36:48.841713  7797 net.cpp:157] Top shape: 8 16 (128)
I0621 17:36:48.841723  7797 net.cpp:165] Memory required for data: 1326260160
I0621 17:36:48.841732  7797 layer_factory.hpp:77] Creating layer conv10_2_mbox_conf
I0621 17:36:48.841749  7797 net.cpp:100] Creating Layer conv10_2_mbox_conf
I0621 17:36:48.841760  7797 net.cpp:434] conv10_2_mbox_conf <- conv10_2_conv10_2_relu_0_split_1
I0621 17:36:48.841774  7797 net.cpp:408] conv10_2_mbox_conf -> conv10_2_mbox_conf
I0621 17:36:48.846947  7797 net.cpp:150] Setting up conv10_2_mbox_conf
I0621 17:36:48.846974  7797 net.cpp:157] Top shape: 8 84 1 1 (672)
I0621 17:36:48.846985  7797 net.cpp:165] Memory required for data: 1326262848
I0621 17:36:48.846998  7797 layer_factory.hpp:77] Creating layer conv10_2_mbox_conf_bn
I0621 17:36:48.847013  7797 net.cpp:100] Creating Layer conv10_2_mbox_conf_bn
I0621 17:36:48.847025  7797 net.cpp:434] conv10_2_mbox_conf_bn <- conv10_2_mbox_conf
I0621 17:36:48.847038  7797 net.cpp:395] conv10_2_mbox_conf_bn -> conv10_2_mbox_conf (in-place)
I0621 17:36:48.847303  7797 net.cpp:150] Setting up conv10_2_mbox_conf_bn
I0621 17:36:48.847321  7797 net.cpp:157] Top shape: 8 84 1 1 (672)
I0621 17:36:48.847332  7797 net.cpp:165] Memory required for data: 1326265536
I0621 17:36:48.847347  7797 layer_factory.hpp:77] Creating layer conv10_2_mbox_conf_scale
I0621 17:36:48.847362  7797 net.cpp:100] Creating Layer conv10_2_mbox_conf_scale
I0621 17:36:48.847373  7797 net.cpp:434] conv10_2_mbox_conf_scale <- conv10_2_mbox_conf
I0621 17:36:48.847386  7797 net.cpp:395] conv10_2_mbox_conf_scale -> conv10_2_mbox_conf (in-place)
I0621 17:36:48.847450  7797 layer_factory.hpp:77] Creating layer conv10_2_mbox_conf_scale
I0621 17:36:48.847617  7797 net.cpp:150] Setting up conv10_2_mbox_conf_scale
I0621 17:36:48.847642  7797 net.cpp:157] Top shape: 8 84 1 1 (672)
I0621 17:36:48.847651  7797 net.cpp:165] Memory required for data: 1326268224
I0621 17:36:48.847666  7797 layer_factory.hpp:77] Creating layer conv10_2_mbox_conf_perm
I0621 17:36:48.847678  7797 net.cpp:100] Creating Layer conv10_2_mbox_conf_perm
I0621 17:36:48.847689  7797 net.cpp:434] conv10_2_mbox_conf_perm <- conv10_2_mbox_conf
I0621 17:36:48.847704  7797 net.cpp:408] conv10_2_mbox_conf_perm -> conv10_2_mbox_conf_perm
I0621 17:36:48.847836  7797 net.cpp:150] Setting up conv10_2_mbox_conf_perm
I0621 17:36:48.847852  7797 net.cpp:157] Top shape: 8 1 1 84 (672)
I0621 17:36:48.847862  7797 net.cpp:165] Memory required for data: 1326270912
I0621 17:36:48.847872  7797 layer_factory.hpp:77] Creating layer conv10_2_mbox_conf_flat
I0621 17:36:48.847887  7797 net.cpp:100] Creating Layer conv10_2_mbox_conf_flat
I0621 17:36:48.847898  7797 net.cpp:434] conv10_2_mbox_conf_flat <- conv10_2_mbox_conf_perm
I0621 17:36:48.847913  7797 net.cpp:408] conv10_2_mbox_conf_flat -> conv10_2_mbox_conf_flat
I0621 17:36:48.847954  7797 net.cpp:150] Setting up conv10_2_mbox_conf_flat
I0621 17:36:48.847968  7797 net.cpp:157] Top shape: 8 84 (672)
I0621 17:36:48.847978  7797 net.cpp:165] Memory required for data: 1326273600
I0621 17:36:48.847988  7797 layer_factory.hpp:77] Creating layer conv10_2_mbox_priorbox
I0621 17:36:48.848002  7797 net.cpp:100] Creating Layer conv10_2_mbox_priorbox
I0621 17:36:48.848014  7797 net.cpp:434] conv10_2_mbox_priorbox <- conv10_2_conv10_2_relu_0_split_2
I0621 17:36:48.848026  7797 net.cpp:434] conv10_2_mbox_priorbox <- data_data_0_split_6
I0621 17:36:48.848040  7797 net.cpp:408] conv10_2_mbox_priorbox -> conv10_2_mbox_priorbox
I0621 17:36:48.848083  7797 net.cpp:150] Setting up conv10_2_mbox_priorbox
I0621 17:36:48.848098  7797 net.cpp:157] Top shape: 1 2 16 (32)
I0621 17:36:48.848107  7797 net.cpp:165] Memory required for data: 1326273728
I0621 17:36:48.848117  7797 layer_factory.hpp:77] Creating layer mbox_loc
I0621 17:36:48.848132  7797 net.cpp:100] Creating Layer mbox_loc
I0621 17:36:48.848145  7797 net.cpp:434] mbox_loc <- conv5_3/sep_norm_mbox_loc_flat
I0621 17:36:48.848157  7797 net.cpp:434] mbox_loc <- conv5_5/sep_mbox_loc_flat
I0621 17:36:48.848170  7797 net.cpp:434] mbox_loc <- conv7_2_mbox_loc_flat
I0621 17:36:48.848181  7797 net.cpp:434] mbox_loc <- conv8_2_mbox_loc_flat
I0621 17:36:48.848191  7797 net.cpp:434] mbox_loc <- conv9_2_mbox_loc_flat
I0621 17:36:48.848202  7797 net.cpp:434] mbox_loc <- conv10_2_mbox_loc_flat
I0621 17:36:48.848217  7797 net.cpp:408] mbox_loc -> mbox_loc
I0621 17:36:48.848259  7797 net.cpp:150] Setting up mbox_loc
I0621 17:36:48.848275  7797 net.cpp:157] Top shape: 8 15288 (122304)
I0621 17:36:48.848285  7797 net.cpp:165] Memory required for data: 1326762944
I0621 17:36:48.848295  7797 layer_factory.hpp:77] Creating layer mbox_conf
I0621 17:36:48.848310  7797 net.cpp:100] Creating Layer mbox_conf
I0621 17:36:48.848321  7797 net.cpp:434] mbox_conf <- conv5_3/sep_norm_mbox_conf_flat
I0621 17:36:48.848333  7797 net.cpp:434] mbox_conf <- conv5_5/sep_mbox_conf_flat
I0621 17:36:48.848345  7797 net.cpp:434] mbox_conf <- conv7_2_mbox_conf_flat
I0621 17:36:48.848356  7797 net.cpp:434] mbox_conf <- conv8_2_mbox_conf_flat
I0621 17:36:48.848367  7797 net.cpp:434] mbox_conf <- conv9_2_mbox_conf_flat
I0621 17:36:48.848378  7797 net.cpp:434] mbox_conf <- conv10_2_mbox_conf_flat
I0621 17:36:48.848392  7797 net.cpp:408] mbox_conf -> mbox_conf
I0621 17:36:48.848433  7797 net.cpp:150] Setting up mbox_conf
I0621 17:36:48.848448  7797 net.cpp:157] Top shape: 8 80262 (642096)
I0621 17:36:48.848457  7797 net.cpp:165] Memory required for data: 1329331328
I0621 17:36:48.848467  7797 layer_factory.hpp:77] Creating layer mbox_priorbox
I0621 17:36:48.848480  7797 net.cpp:100] Creating Layer mbox_priorbox
I0621 17:36:48.848490  7797 net.cpp:434] mbox_priorbox <- conv5_3/sep_norm_mbox_priorbox
I0621 17:36:48.848502  7797 net.cpp:434] mbox_priorbox <- conv5_5/sep_mbox_priorbox
I0621 17:36:48.848517  7797 net.cpp:434] mbox_priorbox <- conv7_2_mbox_priorbox
I0621 17:36:48.848534  7797 net.cpp:434] mbox_priorbox <- conv8_2_mbox_priorbox
I0621 17:36:48.848546  7797 net.cpp:434] mbox_priorbox <- conv9_2_mbox_priorbox
I0621 17:36:48.848557  7797 net.cpp:434] mbox_priorbox <- conv10_2_mbox_priorbox
I0621 17:36:48.848572  7797 net.cpp:408] mbox_priorbox -> mbox_priorbox
I0621 17:36:48.848613  7797 net.cpp:150] Setting up mbox_priorbox
I0621 17:36:48.848628  7797 net.cpp:157] Top shape: 1 2 15288 (30576)
I0621 17:36:48.848637  7797 net.cpp:165] Memory required for data: 1329453632
I0621 17:36:48.848647  7797 layer_factory.hpp:77] Creating layer mbox_conf_reshape
I0621 17:36:48.848664  7797 net.cpp:100] Creating Layer mbox_conf_reshape
I0621 17:36:48.848673  7797 net.cpp:434] mbox_conf_reshape <- mbox_conf
I0621 17:36:48.848687  7797 net.cpp:408] mbox_conf_reshape -> mbox_conf_reshape
I0621 17:36:48.848736  7797 net.cpp:150] Setting up mbox_conf_reshape
I0621 17:36:48.848753  7797 net.cpp:157] Top shape: 8 3822 21 (642096)
I0621 17:36:48.848763  7797 net.cpp:165] Memory required for data: 1332022016
I0621 17:36:48.848773  7797 layer_factory.hpp:77] Creating layer mbox_conf_softmax
I0621 17:36:48.848786  7797 net.cpp:100] Creating Layer mbox_conf_softmax
I0621 17:36:48.848798  7797 net.cpp:434] mbox_conf_softmax <- mbox_conf_reshape
I0621 17:36:48.848809  7797 net.cpp:408] mbox_conf_softmax -> mbox_conf_softmax
I0621 17:36:48.849617  7797 net.cpp:150] Setting up mbox_conf_softmax
I0621 17:36:48.849640  7797 net.cpp:157] Top shape: 8 3822 21 (642096)
I0621 17:36:48.849651  7797 net.cpp:165] Memory required for data: 1334590400
I0621 17:36:48.849661  7797 layer_factory.hpp:77] Creating layer mbox_conf_flatten
I0621 17:36:48.849675  7797 net.cpp:100] Creating Layer mbox_conf_flatten
I0621 17:36:48.849686  7797 net.cpp:434] mbox_conf_flatten <- mbox_conf_softmax
I0621 17:36:48.849699  7797 net.cpp:408] mbox_conf_flatten -> mbox_conf_flatten
I0621 17:36:48.849743  7797 net.cpp:150] Setting up mbox_conf_flatten
I0621 17:36:48.849759  7797 net.cpp:157] Top shape: 8 80262 (642096)
I0621 17:36:48.849769  7797 net.cpp:165] Memory required for data: 1337158784
I0621 17:36:48.849779  7797 layer_factory.hpp:77] Creating layer detection_out
I0621 17:36:48.849800  7797 net.cpp:100] Creating Layer detection_out
I0621 17:36:48.849812  7797 net.cpp:434] detection_out <- mbox_loc
I0621 17:36:48.849823  7797 net.cpp:434] detection_out <- mbox_conf_flatten
I0621 17:36:48.849836  7797 net.cpp:434] detection_out <- mbox_priorbox
I0621 17:36:48.849850  7797 net.cpp:408] detection_out -> detection_out
I0621 17:36:48.852416  7797 net.cpp:150] Setting up detection_out
I0621 17:36:48.852442  7797 net.cpp:157] Top shape: 1 1 1 7 (7)
I0621 17:36:48.852452  7797 net.cpp:165] Memory required for data: 1337158812
I0621 17:36:48.852463  7797 layer_factory.hpp:77] Creating layer detection_eval
I0621 17:36:48.852478  7797 net.cpp:100] Creating Layer detection_eval
I0621 17:36:48.852489  7797 net.cpp:434] detection_eval <- detection_out
I0621 17:36:48.852500  7797 net.cpp:434] detection_eval <- label
I0621 17:36:48.852514  7797 net.cpp:408] detection_eval -> detection_eval
I0621 17:36:48.854209  7797 net.cpp:150] Setting up detection_eval
I0621 17:36:48.854231  7797 net.cpp:157] Top shape: 1 1 21 5 (105)
I0621 17:36:48.854241  7797 net.cpp:165] Memory required for data: 1337159232
I0621 17:36:48.854251  7797 net.cpp:228] detection_eval does not need backward computation.
I0621 17:36:48.854262  7797 net.cpp:228] detection_out does not need backward computation.
I0621 17:36:48.854274  7797 net.cpp:228] mbox_conf_flatten does not need backward computation.
I0621 17:36:48.854284  7797 net.cpp:228] mbox_conf_softmax does not need backward computation.
…
