…
      sampler {
        min_scale: 0.3
        max_scale: 1
        min_aspect_ratio: 0.5
        max_aspect_ratio: 2
      }
      sample_constraint {
        min_jaccard_overlap: 0.9
      }
      max_sample: 1
      max_trials: 50
    }
    batch_sampler {
      sampler {
        min_scale: 0.3
        max_scale: 1
        min_aspect_ratio: 0.5
        max_aspect_ratio: 2
      }
      sample_constraint {
        max_jaccard_overlap: 1
      }
      max_sample: 1
      max_trials: 50
    }
    label_map_file: "data/BodyFaceRegions/labelmap_voc.prototxt"
  }
}
layer {
  name: "conv1"
  type: "Convolution"
  bottom: "data"
  top: "conv1"
  param {
    lr_mult: 1
    decay_mult: 1
  }
  convolution_param {
    num_output: 32
    bias_term: false
    pad: 1
    kernel_size: 3
    group: 1
    stride: 2
    weight_filler {
      type: "gaussian"
      std: 0.01
    }
    engine: DEFAULT
  }
}
layer {
  name: "conv1/bn"
  type: "BatchNorm"
  bottom: "conv1"
  top: "conv1"
  batch_norm_param {
    moving_average_fraction: 0.999
    eps: 0.001
  }
}
layer {
  name: "conv1/scale"
  type: "Scale"
  bottom: "conv1"
  top: "conv1"
  param {
    lr_mult: 1
    decay_mult: 0
  }
  param {
    lr_mult: 1
    decay_mult: 0
  }
  scale_param {
    filler {
      type: "constant"
      value: 1
    }
    bias_term: true
    bias_filler {
      type: "constant"
      value: 0
    }
  }
}
layer {
  name: "conv1_relu"
  type: "ReLU"
  bottom: "conv1"
  top: "conv1"
}
layer {
  name: "conv2_1/dw"
  type: "Convolution"
  bottom: "conv1"
  top: "conv2_1/dw"
  param {
    lr_mult: 1
    decay_mult: 1
  }
  convolution_param {
    num_output: 32
    bias_term: false
    pad: 1
    kernel_size: 3
    group: 32
    stride: 1
    weight_filler {
      type: "gaussian"
      std: 0.01
    }
    engine: CAFFE
  }
}
layer {
  name: "conv2_1/dw/bn"
  type: "BatchNorm"
  bottom: "conv2_1/dw"
  top: "conv2_1/dw"
  batch_norm_param {
    moving_average_fraction: 0.999
    eps: 0.001
  }
}
layer {
  name: "conv2_1/dw/scale"
  type: "Scale"
  bottom: "conv2_1/dw"
  top: "conv2_1/dw"
  param {
    lr_mult: 1
    decay_mult: 0
  }
  param {
    lr_mult: 1
    decay_mult: 0
  }
  scale_param {
    filler {
      type: "constant"
      value: 1
    }
    bias_term: true
    bias_filler {
      type: "constant"
      value: 0
    }
  }
}
layer {
  name: "conv2_1/dw_relu"
  type: "ReLU"
  bottom: "conv2_1/dw"
  top: "conv2_1/dw"
}
layer {
  name: "conv2_1/sep"
  type: "Convolution"
  bottom: "conv2_1/dw"
  top: "conv2_1/sep"
  param {
    lr_mult: 1
    decay_mult: 1
  }
  convolution_param {
    num_output: 64
    bias_term: false
    pad: 0
    kernel_size: 1
    group: 1
    stride: 1
    weight_filler {
      type: "gaussian"
      std: 0.01
    }
    engine: DEFAULT
  }
}
layer {
  name: "conv2_1/sep/bn"
  type: "BatchNorm"
  bottom: "conv2_1/sep"
  top: "conv2_1/sep"
  batch_norm_param {
    moving_average_fraction: 0.999
    eps: 0.001
  }
}
layer {
  name: "conv2_1/sep/scale"
  type: "Scale"
  bottom: "conv2_1/sep"
  top: "conv2_1/sep"
  param {
    lr_mult: 1
    decay_mult: 0
  }
  param {
    lr_mult: 1
    decay_mult: 0
  }
  scale_param {
    filler {
      type: "constant"
      value: 1
    }
    bias_term: true
    bias_filler {
      type: "constant"
      value: 0
    }
  }
}
layer {
  name: "conv2_1/sep_relu"
  type: "ReLU"
  bottom: "conv2_1/sep"
  top: "conv2_1/sep"
}
layer {
  name: "conv2_2/dw"
  type: "Convolution"
  bottom: "conv2_1/sep"
  top: "conv2_2/dw"
  param {
    lr_mult: 1
    decay_mult: 1
  }
  convolution_param {
    num_output: 64
    bias_term: false
    pad: 1
    kernel_size: 3
    group: 64
    stride: 2
    weight_filler {
      type: "gaussian"
      std: 0.01
    }
    engine: CAFFE
  }
}
layer {
  name: "conv2_2/dw/bn"
  type: "BatchNorm"
  bottom: "conv2_2/dw"
  top: "conv2_2/dw"
  batch_norm_param {
    moving_average_fraction: 0.999
    eps: 0.001
  }
}
layer {
  name: "conv2_2/dw/scale"
  type: "Scale"
  bottom: "conv2_2/dw"
  top: "conv2_2/dw"
  param {
    lr_mult: 1
    decay_mult: 0
  }
  param {
    lr_mult: 1
    decay_mult: 0
  }
  scale_param {
    filler {
      type: "constant"
      value: 1
    }
    bias_term: true
    bias_filler {
      type: "constant"
      value: 0
    }
  }
}
layer {
  name: "conv2_2/dw_relu"
  type: "ReLU"
  bottom: "conv2_2/dw"
  top: "conv2_2/dw"
}
layer {
  name: "conv2_2/sep"
  type: "Convolution"
  bottom: "conv2_2/dw"
  top: "conv2_2/sep"
  param {
    lr_mult: 1
    decay_mult: 1
  }
  convolution_param {
    num_output: 128
    bias_term: false
    pad: 0
    kernel_size: 1
    group: 1
    stride: 1
    weight_filler {
      type: "gaussian"
      std: 0.01
    }
    engine: DEFAULT
  }
}
layer {
  name: "conv2_2/sep/bn"
  type: "BatchNorm"
  bottom: "conv2_2/sep"
  top: "conv2_2/sep"
  batch_norm_param {
    moving_average_fraction: 0.999
    eps: 0.001
  }
}
layer {
  name: "conv2_2/sep/scale"
  type: "Scale"
  bottom: "conv2_2/sep"
  top: "conv2_2/sep"
  param {
    lr_mult: 1
    decay_mult: 0
  }
  param {
    lr_mult: 1
    decay_mult: 0
  }
  scale_param {
    filler {
      type: "constant"
      value: 1
    }
    bias_term: true
    bias_filler {
      type: "constant"
      value: 0
    }
  }
}
layer {
  name: "conv2_2/sep_relu"
  type: "ReLU"
  bottom: "conv2_2/sep"
  top: "conv2_2/sep"
}
layer {
  name: "conv3_1/dw"
  type: "Convolution"
  bottom: "conv2_2/sep"
  top: "conv3_1/dw"
  param {
    lr_mult: 1
    decay_mult: 1
  }
  convolution_param {
    num_output: 128
    bias_term: false
    pad: 1
    kernel_size: 3
    group: 128
    stride: 1
    weight_filler {
      type: "gaussian"
      std: 0.01
    }
    engine: CAFFE
  }
}
layer {
  name: "conv3_1/dw/bn"
  type: "BatchNorm"
  bottom: "conv3_1/dw"
  top: "conv3_1/dw"
  batch_norm_param {
    moving_average_fraction: 0.999
    eps: 0.001
  }
}
layer {
  name: "conv3_1/dw/scale"
  type: "Scale"
  bottom: "conv3_1/dw"
  top: "conv3_1/dw"
  param {
    lr_mult: 1
    decay_mult: 0
  }
  param {
    lr_mult: 1
    decay_mult: 0
  }
  scale_param {
    filler {
      type: "constant"
      value: 1
    }
    bias_term: true
    bias_filler {
      type: "constant"
      value: 0
    }
  }
}
layer {
  name: "conv3_1/dw_relu"
  type: "ReLU"
  bottom: "conv3_1/dw"
  top: "conv3_1/dw"
}
layer {
  name: "conv3_1/sep"
  type: "Convolution"
  bottom: "conv3_1/dw"
  top: "conv3_1/sep"
  param {
    lr_mult: 1
    decay_mult: 1
  }
  convolution_param {
    num_output: 128
    bias_term: false
    pad: 0
    kernel_size: 1
    group: 1
    stride: 1
    weight_filler {
      type: "gaussian"
      std: 0.01
    }
    engine: DEFAULT
  }
}
layer {
  name: "conv3_1/sep/bn"
  type: "BatchNorm"
  bottom: "conv3_1/sep"
  top: "conv3_1/sep"
  batch_norm_param {
    moving_average_fraction: 0.999
    eps: 0.001
  }
}
layer {
  name: "conv3_1/sep/scale"
  type: "Scale"
  bottom: "conv3_1/sep"
  top: "conv3_1/sep"
  param {
    lr_mult: 1
    decay_mult: 0
  }
  param {
    lr_mult: 1
    decay_mult: 0
  }
  scale_param {
    filler {
      type: "constant"
      value: 1
    }
    bias_term: true
    bias_filler {
      type: "constant"
      value: 0
    }
  }
}
layer {
  name: "conv3_1/sep_relu"
  type: "ReLU"
  bottom: "conv3_1/sep"
  top: "conv3_1/sep"
}
layer {
  name: "conv3_2/dw"
  type: "Convolution"
  bottom: "conv3_1/sep"
  top: "conv3_2/dw"
  param {
    lr_mult: 1
    decay_mult: 1
  }
  convolution_param {
    num_output: 128
    bias_term: false
    pad: 1
    kernel_size: 3
    group: 128
    stride: 2
    weight_filler {
      type: "gaussian"
      std: 0.01
    }
    engine: CAFFE
  }
}
layer {
  name: "conv3_2/dw/bn"
  type: "BatchNorm"
  bottom: "conv3_2/dw"
  top: "conv3_2/dw"
  batch_norm_param {
    moving_average_fraction: 0.999
    eps: 0.001
  }
}
layer {
  name: "conv3_2/dw/scale"
  type: "Scale"
  bottom: "conv3_2/dw"
  top: "conv3_2/dw"
  param {
    lr_mult: 1
    decay_mult: 0
  }
  param {
    lr_mult: 1
    decay_mult: 0
  }
  scale_param {
    filler {
      type: "constant"
      value: 1
    }
    bias_term: true
    bias_filler {
      type: "constant"
      value: 0
    }
  }
}
layer {
  name: "conv3_2/dw_relu"
  type: "ReLU"
  bottom: "conv3_2/dw"
  top: "conv3_2/dw"
}
layer {
  name: "conv3_2/sep"
  type: "Convolution"
  bottom: "conv3_2/dw"
  top: "conv3_2/sep"
  param {
    lr_mult: 1
    decay_mult: 1
  }
  convolution_param {
    num_output: 256
    bias_term: false
    pad: 0
    kernel_size: 1
    group: 1
    stride: 1
    weight_filler {
      type: "gaussian"
      std: 0.01
    }
    engine: DEFAULT
  }
}
layer {
  name: "conv3_2/sep/bn"
  type: "BatchNorm"
  bottom: "conv3_2/sep"
  top: "conv3_2/sep"
  batch_norm_param {
    moving_average_fraction: 0.999
    eps: 0.001
  }
}
layer {
  name: "conv3_2/sep/scale"
  type: "Scale"
  bottom: "conv3_2/sep"
  top: "conv3_2/sep"
  param {
    lr_mult: 1
    decay_mult: 0
  }
  param {
    lr_mult: 1
    decay_mult: 0
  }
  scale_param {
    filler {
      type: "constant"
      value: 1
    }
    bias_term: true
    bias_filler {
      type: "constant"
      value: 0
    }
  }
}
layer {
  name: "conv3_2/sep_relu"
  type: "ReLU"
  bottom: "conv3_2/sep"
  top: "conv3_2/sep"
}
layer {
  name: "conv4_1/dw"
  type: "Convolution"
  bottom: "conv3_2/sep"
  top: "conv4_1/dw"
  param {
    lr_mult: 1
    decay_mult: 1
  }
  convolution_param {
    num_output: 256
    bias_term: false
    pad: 1
    kernel_size: 3
    group: 256
    stride: 1
    weight_filler {
      type: "gaussian"
      std: 0.01
    }
    engine: CAFFE
  }
}
layer {
  name: "conv4_1/dw/bn"
  type: "BatchNorm"
  bottom: "conv4_1/dw"
  top: "conv4_1/dw"
  batch_norm_param {
    moving_average_fraction: 0.999
    eps: 0.001
  }
}
layer {
  name: "conv4_1/dw/scale"
  type: "Scale"
  bottom: "conv4_1/dw"
  top: "conv4_1/dw"
  param {
    lr_mult: 1
    decay_mult: 0
  }
  param {
    lr_mult: 1
    decay_mult: 0
  }
  scale_param {
    filler {
      type: "constant"
      value: 1
    }
    bias_term: true
    bias_filler {
      type: "constant"
      value: 0
    }
  }
}
layer {
  name: "conv4_1/dw_relu"
  type: "ReLU"
  bottom: "conv4_1/dw"
  top: "conv4_1/dw"
}
layer {
  name: "conv4_1/sep"
  type: "Convolution"
  bottom: "conv4_1/dw"
  top: "conv4_1/sep"
  param {
    lr_mult: 1
    decay_mult: 1
  }
  convolution_param {
    num_output: 256
    bias_term: false
    pad: 0
    kernel_size: 1
    group: 1
    stride: 1
    weight_filler {
      type: "gaussian"
      std: 0.01
    }
    engine: DEFAULT
  }
}
layer {
  name: "conv4_1/sep/bn"
  type: "BatchNorm"
  bottom: "conv4_1/sep"
  top: "conv4_1/sep"
  batch_norm_param {
    moving_average_fraction: 0.999
    eps: 0.001
  }
}
layer {
  name: "conv4_1/sep/scale"
  type: "Scale"
  bottom: "conv4_1/sep"
  top: "conv4_1/sep"
  param {
    lr_mult: 1
    decay_mult: 0
  }
  param {
    lr_mult: 1
    decay_mult: 0
  }
  scale_param {
    filler {
      type: "constant"
      value: 1
    }
    bias_term: true
    bias_filler {
      type: "constant"
      value: 0
    }
  }
}
layer {
  name: "conv4_1/sep_relu"
  type: "ReLU"
  bottom: "conv4_1/sep"
  top: "conv4_1/sep"
}
layer {
  name: "conv4_2/dw"
  type: "Convolution"
  bottom: "conv4_1/sep"
  top: "conv4_2/dw"
  param {
    lr_mult: 1
    decay_mult: 1
  }
  convolution_param {
    num_output: 256
    bias_term: false
    pad: 1
    kernel_size: 3
    group: 256
    stride: 2
    weight_filler {
      type: "gaussian"
      std: 0.01
    }
    engine: CAFFE
  }
}
layer {
  name: "conv4_2/dw/bn"
  type: "BatchNorm"
  bottom: "conv4_2/dw"
  top: "conv4_2/dw"
  batch_norm_param {
    moving_average_fraction: 0.999
    eps: 0.001
  }
}
layer {
  name: "conv4_2/dw/scale"
  type: "Scale"
  bottom: "conv4_2/dw"
  top: "conv4_2/dw"
  param {
    lr_mult: 1
    decay_mult: 0
  }
  param {
    lr_mult: 1
    decay_mult: 0
  }
  scale_param {
    filler {
      type: "constant"
      value: 1
    }
    bias_term: true
    bias_filler {
      type: "constant"
      value: 0
    }
  }
}
layer {
  name: "conv4_2/dw_relu"
  type: "ReLU"
  bottom: "conv4_2/dw"
  top: "conv4_2/dw"
}
layer {
  name: "conv4_2/sep"
  type: "Convolution"
  bottom: "conv4_2/dw"
  top: "conv4_2/sep"
  param {
    lr_mult: 1
    decay_mult: 1
  }
  convolution_param {
    num_output: 512
    bias_term: false
    pad: 0
    kernel_size: 1
    group: 1
    stride: 1
    weight_filler {
      type: "gaussian"
      std: 0.01
    }
    engine: DEFAULT
  }
}
layer {
  name: "conv4_2/sep/bn"
  type: "BatchNorm"
  bottom: "conv4_2/sep"
  top: "conv4_2/sep"
  batch_norm_param {
    moving_average_fraction: 0.999
    eps: 0.001
  }
}
layer {
  name: "conv4_2/sep/scale"
  type: "Scale"
  bottom: "conv4_2/sep"
  top: "conv4_2/sep"
  param {
    lr_mult: 1
    decay_mult: 0
  }
  param {
    lr_mult: 1
    decay_mult: 0
  }
  scale_param {
    filler {
      type: "constant"
      value: 1
    }
    bias_term: true
    bias_filler {
      type: "constant"
      value: 0
    }
  }
}
layer {
  name: "conv4_2/sep_relu"
  type: "ReLU"
  bottom: "conv4_2/sep"
  top: "conv4_2/sep"
}
layer {
  name: "conv5_1/dw"
  type: "Convolution"
  bottom: "conv4_2/sep"
  top: "conv5_1/dw"
  param {
    lr_mult: 1
    decay_mult: 1
  }
  convolution_param {
    num_output: 512
    bias_term: false
    pad: 1
    kernel_size: 3
    group: 512
    stride: 1
    weight_filler {
      type: "gaussian"
      std: 0.01
    }
    engine: CAFFE
  }
}
layer {
  name: "conv5_1/dw/bn"
  type: "BatchNorm"
  bottom: "conv5_1/dw"
  top: "conv5_1/dw"
  batch_norm_param {
    moving_average_fraction: 0.999
    eps: 0.001
  }
}
layer {
  name: "conv5_1/dw/scale"
  type: "Scale"
  bottom: "conv5_1/dw"
  top: "conv5_1/dw"
  param {
    lr_mult: 1
    decay_mult: 0
  }
  param {
    lr_mult: 1
    decay_mult: 0
  }
  scale_param {
    filler {
      type: "constant"
      value: 1
    }
    bias_term: true
    bias_filler {
      type: "constant"
      value: 0
    }
  }
}
layer {
  name: "conv5_1/dw_relu"
  type: "ReLU"
  bottom: "conv5_1/dw"
  top: "conv5_1/dw"
}
layer {
  name: "conv5_1/sep"
  type: "Convolution"
  bottom: "conv5_1/dw"
  top: "conv5_1/sep"
  param {
    lr_mult: 1
    decay_mult: 1
  }
  convolution_param {
    num_output: 512
    bias_term: false
    pad: 0
    kernel_size: 1
    group: 1
    stride: 1
    weight_filler {
      type: "gaussian"
      std: 0.01
    }
    engine: DEFAULT
  }
}
layer {
  name: "conv5_1/sep/bn"
  type: "BatchNorm"
  bottom: "conv5_1/sep"
  top: "conv5_1/sep"
  batch_norm_param {
    moving_average_fraction: 0.999
    eps: 0.001
  }
}
layer {
  name: "conv5_1/sep/scale"
  type: "Scale"
  bottom: "conv5_1/sep"
  top: "conv5_1/sep"
  param {
    lr_mult: 1
    decay_mult: 0
  }
  param {
    lr_mult: 1
    decay_mult: 0
  }
  scale_param {
    filler {
      type: "constant"
      value: 1
    }
    bias_term: true
    bias_filler {
      type: "constant"
      value: 0
    }
  }
}
layer {
  name: "conv5_1/sep_relu"
  type: "ReLU"
  bottom: "conv5_1/sep"
  top: "conv5_1/sep"
}
layer {
  name: "conv5_2/dw"
  type: "Convolution"
  bottom: "conv5_1/sep"
  top: "conv5_2/dw"
  param {
    lr_mult: 1
    decay_mult: 1
  }
  convolution_param {
    num_output: 512
    bias_term: false
    pad: 1
    kernel_size: 3
    group: 512
    stride: 1
    weight_filler {
      type: "gaussian"
      std: 0.01
    }
    engine: CAFFE
  }
}
layer {
  name: "conv5_2/dw/bn"
  type: "BatchNorm"
  bottom: "conv5_2/dw"
  top: "conv5_2/dw"
  batch_norm_param {
    moving_average_fraction: 0.999
    eps: 0.001
  }
}
layer {
  name: "conv5_2/dw/scale"
  type: "Scale"
  bottom: "conv5_2/dw"
  top: "conv5_2/dw"
  param {
    lr_mult: 1
    decay_mult: 0
  }
  param {
    lr_mult: 1
    decay_mult: 0
  }
  scale_param {
    filler {
      type: "constant"
      value: 1
    }
    bias_term: true
    bias_filler {
      type: "constant"
      value: 0
    }
  }
}
layer {
  name: "conv5_2/dw_relu"
  type: "ReLU"
  bottom: "conv5_2/dw"
  top: "conv5_2/dw"
}
layer {
  name: "conv5_2/sep"
  type: "Convolution"
  bottom: "conv5_2/dw"
  top: "conv5_2/sep"
  param {
    lr_mult: 1
    decay_mult: 1
  }
  convolution_param {
    num_output: 512
    bias_term: false
    pad: 0
    kernel_size: 1
    group: 1
    stride: 1
    weight_filler {
      type: "gaussian"
      std: 0.01
    }
    engine: DEFAULT
  }
}
layer {
  name: "conv5_2/sep/bn"
  type: "BatchNorm"
  bottom: "conv5_2/sep"
  top: "conv5_2/sep"
  batch_norm_param {
    moving_average_fraction: 0.999
    eps: 0.001
  }
}
layer {
  name: "conv5_2/sep/scale"
  type: "Scale"
  bottom: "conv5_2/sep"
  top: "conv5_2/sep"
  param {
    lr_mult: 1
    decay_mult: 0
  }
  param {
    lr_mult: 1
    decay_mult: 0
  }
  scale_param {
    filler {
      type: "constant"
      value: 1
    }
    bias_term: true
    bias_filler {
      type: "constant"
      value: 0
    }
  }
}
layer {
  name: "conv5_2/sep_relu"
  type: "ReLU"
  bottom: "conv5_2/sep"
  top: "conv5_2/sep"
}
layer {
  name: "conv5_3/dw"
  type: "Convolution"
  bottom: "conv5_2/sep"
  top: "conv5_3/dw"
  param {
    lr_mult: 1
    decay_mult: 1
  }
  convolution_param {
    num_output: 512
    bias_term: false
    pad: 1
    kernel_size: 3
    group: 512
    stride: 1
    weight_filler {
      type: "gaussian"
      std: 0.01
    }
    engine: CAFFE
  }
}
layer {
  name: "conv5_3/dw/bn"
  type: "BatchNorm"
  bottom: "conv5_3/dw"
  top: "conv5_3/dw"
  batch_norm_param {
    moving_average_fraction: 0.999
    eps: 0.001
  }
}
layer {
  name: "conv5_3/dw/scale"
  type: "Scale"
  bottom: "conv5_3/dw"
  top: "conv5_3/dw"
  param {
    lr_mult: 1
    decay_mult: 0
  }
  param {
    lr_mult: 1
    decay_mult: 0
  }
  scale_param {
    filler {
      type: "constant"
      value: 1
    }
    bias_term: true
    bias_filler {
      type: "constant"
      value: 0
    }
  }
}
layer {
  name: "conv5_3/dw_relu"
  type: "ReLU"
  bottom: "conv5_3/dw"
  top: "conv5_3/dw"
}
layer {
  name: "conv5_3/sep"
  type: "Convolution"
  bottom: "conv5_3/dw"
  top: "conv5_3/sep"
  param {
    lr_mult: 1
    decay_mult: 1
  }
  convolution_param {
    num_output: 512
    bias_term: false
    pad: 0
    kernel_size: 1
    group: 1
    stride: 1
    weight_filler {
      type: "gaussian"
      std: 0.01
    }
    engine: DEFAULT
  }
}
layer {
  name: "conv5_3/sep/bn"
  type: "BatchNorm"
  bottom: "conv5_3/sep"
  top: "conv5_3/sep"
  batch_norm_param {
    moving_average_fraction: 0.999
    eps: 0.001
  }
}
layer {
  name: "conv5_3/sep/scale"
  type: "Scale"
  bottom: "conv5_3/sep"
  top: "conv5_3/sep"
  param {
    lr_mult: 1
    decay_mult: 0
  }
  param {
    lr_mult: 1
    decay_mult: 0
  }
  scale_param {
    filler {
      type: "constant"
      value: 1
    }
    bias_term: true
    bias_filler {
      type: "constant"
      value: 0
    }
  }
}
layer {
  name: "conv5_3/sep_relu"
  type: "ReLU"
  bottom: "conv5_3/sep"
  top: "conv5_3/sep"
}
layer {
  name: "conv5_4/dw"
  type: "Convolution"
  bottom: "conv5_3/sep"
  top: "conv5_4/dw"
  param {
    lr_mult: 1
    decay_mult: 1
  }
  convolution_param {
    num_output: 512
    bias_term: false
    pad: 1
    kernel_size: 3
    group: 512
    stride: 1
    weight_filler {
      type: "gaussian"
      std: 0.01
    }
    engine: CAFFE
  }
}
layer {
  name: "conv5_4/dw/bn"
  type: "BatchNorm"
  bottom: "conv5_4/dw"
  top: "conv5_4/dw"
  batch_norm_param {
    moving_average_fraction: 0.999
    eps: 0.001
  }
}
layer {
  name: "conv5_4/dw/scale"
  type: "Scale"
  bottom: "conv5_4/dw"
  top: "conv5_4/dw"
  param {
    lr_mult: 1
    decay_mult: 0
  }
  param {
    lr_mult: 1
    decay_mult: 0
  }
  scale_param {
    filler {
      type: "constant"
      value: 1
    }
    bias_term: true
    bias_filler {
      type: "constant"
      value: 0
    }
  }
}
layer {
  name: "conv5_4/dw_relu"
  type: "ReLU"
  bottom: "conv5_4/dw"
  top: "conv5_4/dw"
}
layer {
  name: "conv5_4/sep"
  type: "Convolution"
  bottom: "conv5_4/dw"
  top: "conv5_4/sep"
  param {
    lr_mult: 1
    decay_mult: 1
  }
  convolution_param {
    num_output: 512
    bias_term: false
    pad: 0
    kernel_size: 1
    group: 1
    stride: 1
    weight_filler {
      type: "gaussian"
      std: 0.01
    }
    engine: DEFAULT
  }
}
layer {
  name: "conv5_4/sep/bn"
  type: "BatchNorm"
  bottom: "conv5_4/sep"
  top: "conv5_4/sep"
  batch_norm_param {
    moving_average_fraction: 0.999
    eps: 0.001
  }
}
layer {
  name: "conv5_4/sep/scale"
  type: "Scale"
  bottom: "conv5_4/sep"
  top: "conv5_4/sep"
  param {
    lr_mult: 1
    decay_mult: 0
  }
  param {
    lr_mult: 1
    decay_mult: 0
  }
  scale_param {
    filler {
      type: "constant"
      value: 1
    }
    bias_term: true
    bias_filler {
      type: "constant"
      value: 0
    }
  }
}
layer {
  name: "conv5_4/sep_relu"
  type: "ReLU"
  bottom: "conv5_4/sep"
  top: "conv5_4/sep"
}
layer {
  name: "conv5_5/dw"
  type: "Convolution"
  bottom: "conv5_4/sep"
  top: "conv5_5/dw"
  param {
    lr_mult: 1
    decay_mult: 1
  }
  convolution_param {
    num_output: 512
    bias_term: false
    pad: 1
    kernel_size: 3
    group: 512
    stride: 1
    weight_filler {
      type: "gaussian"
      std: 0.01
    }
    engine: CAFFE
  }
}
layer {
  name: "conv5_5/dw/bn"
  type: "BatchNorm"
  bottom: "conv5_5/dw"
  top: "conv5_5/dw"
  batch_norm_param {
    moving_average_fraction: 0.999
    eps: 0.001
  }
}
layer {
  name: "conv5_5/dw/scale"
  type: "Scale"
  bottom: "conv5_5/dw"
  top: "conv5_5/dw"
  param {
    lr_mult: 1
    decay_mult: 0
  }
  param {
    lr_mult: 1
    decay_mult: 0
  }
  scale_param {
    filler {
      type: "constant"
      value: 1
    }
    bias_term: true
    bias_filler {
      type: "constant"
      value: 0
    }
  }
}
layer {
  name: "conv5_5/dw_relu"
  type: "ReLU"
  bottom: "conv5_5/dw"
  top: "conv5_5/dw"
}
layer {
  name: "conv5_5/sep"
  type: "Convolution"
  bottom: "conv5_5/dw"
  top: "conv5_5/sep"
  param {
    lr_mult: 1
    decay_mult: 1
  }
  convolution_param {
    num_output: 512
    bias_term: false
    pad: 0
    kernel_size: 1
    group: 1
    stride: 1
    weight_filler {
      type: "gaussian"
      std: 0.01
    }
    engine: DEFAULT
  }
}
layer {
  name: "conv5_5/sep/bn"
  type: "BatchNorm"
  bottom: "conv5_5/sep"
  top: "conv5_5/sep"
  batch_norm_param {
    moving_average_fraction: 0.999
    eps: 0.001
  }
}
layer {
  name: "conv5_5/sep/scale"
  type: "Scale"
  bottom: "conv5_5/sep"
  top: "conv5_5/sep"
  param {
    lr_mult: 1
    decay_mult: 0
  }
  param {
    lr_mult: 1
    decay_mult: 0
  }
  scale_param {
    filler {
      type: "constant"
      value: 1
    }
    bias_term: true
    bias_filler {
      type: "constant"
      value: 0
    }
  }
}
layer {
  name: "conv5_5/sep_relu"
  type: "ReLU"
  bottom: "conv5_5/sep"
  top: "conv5_5/sep"
}
layer {
  name: "conv5_6/dw"
  type: "Convolution"
  bottom: "conv5_5/sep"
  top: "conv5_6/dw"
  param {
    lr_mult: 1
    decay_mult: 1
  }
  convolution_param {
    num_output: 512
    bias_term: false
    pad: 1
    kernel_size: 3
    group: 512
    stride: 2
    weight_filler {
      type: "gaussian"
      std: 0.01
    }
    engine: CAFFE
  }
}
layer {
  name: "conv5_6/dw/bn"
  type: "BatchNorm"
  bottom: "conv5_6/dw"
  top: "conv5_6/dw"
  batch_norm_param {
    moving_average_fraction: 0.999
    eps: 0.001
  }
}
layer {
  name: "conv5_6/dw/scale"
  type: "Scale"
  bottom: "conv5_6/dw"
  top: "conv5_6/dw"
  param {
    lr_mult: 1
    decay_mult: 0
  }
  param {
    lr_mult: 1
    decay_mult: 0
  }
  scale_param {
    filler {
      type: "constant"
      value: 1
    }
    bias_term: true
    bias_filler {
      type: "constant"
      value: 0
    }
  }
}
layer {
  name: "conv5_6/dw_relu"
  type: "ReLU"
  bottom: "conv5_6/dw"
  top: "conv5_6/dw"
}
layer {
  name: "conv5_6/sep"
  type: "Convolution"
  bottom: "conv5_6/dw"
  top: "conv5_6/sep"
  param {
    lr_mult: 1
    decay_mult: 1
  }
  convolution_param {
    num_output: 1024
    bias_term: false
    pad: 0
    kernel_size: 1
    group: 1
    stride: 1
    weight_filler {
      type: "gaussian"
      std: 0.01
    }
    engine: DEFAULT
  }
}
layer {
  name: "conv5_6/sep/bn"
  type: "BatchNorm"
  bottom: "conv5_6/sep"
  top: "conv5_6/sep"
  batch_norm_param {
    moving_average_fraction: 0.999
    eps: 0.001
  }
}
layer {
  name: "conv5_6/sep/scale"
  type: "Scale"
  bottom: "conv5_6/sep"
  top: "conv5_6/sep"
  param {
    lr_mult: 1
    decay_mult: 0
  }
  param {
    lr_mult: 1
    decay_mult: 0
  }
  scale_param {
    filler {
      type: "constant"
      value: 1
    }
    bias_term: true
    bias_filler {
      type: "constant"
      value: 0
    }
  }
}
layer {
  name: "conv5_6/sep_relu"
  type: "ReLU"
  bottom: "conv5_6/sep"
  top: "conv5_6/sep"
}
layer {
  name: "conv6/dw"
  type: "Convolution"
  bottom: "conv5_6/sep"
  top: "conv6/dw"
  param {
    lr_mult: 1
    decay_mult: 1
  }
  convolution_param {
    num_output: 1024
    bias_term: false
    pad: 1
    kernel_size: 3
    group: 1024
    stride: 1
    weight_filler {
      type: "gaussian"
      std: 0.01
    }
    engine: CAFFE
  }
}
layer {
  name: "conv6/dw/bn"
  type: "BatchNorm"
  bottom: "conv6/dw"
  top: "conv6/dw"
  batch_norm_param {
    moving_average_fraction: 0.999
    eps: 0.001
  }
}
layer {
  name: "conv6/dw/scale"
  type: "Scale"
  bottom: "conv6/dw"
  top: "conv6/dw"
  param {
    lr_mult: 1
    decay_mult: 0
  }
  param {
    lr_mult: 1
    decay_mult: 0
  }
  scale_param {
    filler {
      type: "constant"
      value: 1
    }
    bias_term: true
    bias_filler {
      type: "constant"
      value: 0
    }
  }
}
layer {
  name: "conv6/dw_relu"
  type: "ReLU"
  bottom: "conv6/dw"
  top: "conv6/dw"
}
layer {
  name: "conv6/sep"
  type: "Convolution"
  bottom: "conv6/dw"
  top: "conv6/sep"
  param {
    lr_mult: 1
    decay_mult: 1
  }
  convolution_param {
    num_output: 1024
    bias_term: false
    pad: 0
    kernel_size: 1
    group: 1
    stride: 1
    weight_filler {
      type: "gaussian"
      std: 0.01
    }
    engine: DEFAULT
  }
}
layer {
  name: "conv6/sep/bn"
  type: "BatchNorm"
  bottom: "conv6/sep"
  top: "conv6/sep"
  batch_norm_param {
    moving_average_fraction: 0.999
    eps: 0.001
  }
}
layer {
  name: "conv6/sep/scale"
  type: "Scale"
  bottom: "conv6/sep"
  top: "conv6/sep"
  param {
    lr_mult: 1
    decay_mult: 0
  }
  param {
    lr_mult: 1
    decay_mult: 0
  }
  scale_param {
    filler {
      type: "constant"
      value: 1
    }
    bias_term: true
    bias_filler {
      type: "constant"
      value: 0
    }
  }
}
layer {
  name: "conv6/sep_relu"
  type: "ReLU"
  bottom: "conv6/sep"
  top: "conv6/sep"
}
layer {
  name: "conv7_1"
  type: "Convolution"
  bottom: "conv6/sep"
  top: "conv7_1"
  param {
    lr_mult: 1
    decay_mult: 1
  }
  param {
    lr_mult: 2
    decay_mult: 0
  }
  convolution_param {
    num_output: 256
    pad: 0
    kernel_size: 1
    group: 1
    stride: 1
    weight_filler {
      type: "xavier"
    }
    bias_filler {
      type: "constant"
      value: 0
    }
    engine: DEFAULT
  }
}
layer {
  name: "conv7_1_relu"
  type: "ReLU"
  bottom: "conv7_1"
  top: "conv7_1"
}
layer {
  name: "conv7_2"
  type: "Convolution"
  bottom: "conv7_1"
  top: "conv7_2"
  param {
    lr_mult: 1
    decay_mult: 1
  }
  param {
    lr_mult: 2
    decay_mult: 0
  }
  convolution_param {
    num_output: 512
    pad: 1
    kernel_size: 3
    group: 1
    stride: 2
    weight_filler {
      type: "xavier"
    }
    bias_filler {
      type: "constant"
      value: 0
    }
    engine: DEFAULT
  }
}
layer {
  name: "conv7_2_relu"
  type: "ReLU"
  bottom: "co
I0729 21:15:15.463704 13348 layer_factory.hpp:77] Creating layer data
I0729 21:15:15.463832 13348 net.cpp:100] Creating Layer data
I0729 21:15:15.463845 13348 net.cpp:408] data -> data
I0729 21:15:15.463871 13348 net.cpp:408] data -> label
I0729 21:15:15.465282 13353 db_lmdb.cpp:35] Opened lmdb data/BodyFaceRegions/lmdb/VOC0712_170404_161114_lmdb
I0729 21:15:15.479146 13348 annotated_data_layer.cpp:62] output data size: 16,3,300,300
I0729 21:15:15.504108 13348 net.cpp:150] Setting up data
I0729 21:15:15.504135 13348 net.cpp:157] Top shape: 16 3 300 300 (4320000)
I0729 21:15:15.504140 13348 net.cpp:157] Top shape: 1 1 4 8 (32)
I0729 21:15:15.504142 13348 net.cpp:165] Memory required for data: 17280128
I0729 21:15:15.504150 13348 layer_factory.hpp:77] Creating layer data_data_0_split
I0729 21:15:15.504163 13348 net.cpp:100] Creating Layer data_data_0_split
I0729 21:15:15.504168 13348 net.cpp:434] data_data_0_split <- data
I0729 21:15:15.504179 13348 net.cpp:408] data_data_0_split -> data_data_0_split_0
I0729 21:15:15.504187 13348 net.cpp:408] data_data_0_split -> data_data_0_split_1
I0729 21:15:15.504192 13348 net.cpp:408] data_data_0_split -> data_data_0_split_2
I0729 21:15:15.504197 13348 net.cpp:408] data_data_0_split -> data_data_0_split_3
I0729 21:15:15.504202 13348 net.cpp:408] data_data_0_split -> data_data_0_split_4
I0729 21:15:15.504218 13348 net.cpp:408] data_data_0_split -> data_data_0_split_5
I0729 21:15:15.504223 13348 net.cpp:408] data_data_0_split -> data_data_0_split_6
I0729 21:15:15.504321 13348 net.cpp:150] Setting up data_data_0_split
I0729 21:15:15.504328 13348 net.cpp:157] Top shape: 16 3 300 300 (4320000)
I0729 21:15:15.504331 13348 net.cpp:157] Top shape: 16 3 300 300 (4320000)
I0729 21:15:15.504335 13348 net.cpp:157] Top shape: 16 3 300 300 (4320000)
I0729 21:15:15.504338 13348 net.cpp:157] Top shape: 16 3 300 300 (4320000)
I0729 21:15:15.504341 13348 net.cpp:157] Top shape: 16 3 300 300 (4320000)
I0729 21:15:15.504345 13348 net.cpp:157] Top shape: 16 3 300 300 (4320000)
I0729 21:15:15.504348 13348 net.cpp:157] Top shape: 16 3 300 300 (4320000)
I0729 21:15:15.504351 13348 net.cpp:165] Memory required for data: 138240128
I0729 21:15:15.504359 13348 layer_factory.hpp:77] Creating layer conv1
I0729 21:15:15.504372 13348 net.cpp:100] Creating Layer conv1
I0729 21:15:15.504375 13348 net.cpp:434] conv1 <- data_data_0_split_0
I0729 21:15:15.504381 13348 net.cpp:408] conv1 -> conv1
I0729 21:15:15.522593 13354 blocking_queue.cpp:50] Waiting for data
I0729 21:15:15.708068 13348 net.cpp:150] Setting up conv1
I0729 21:15:15.708097 13348 net.cpp:157] Top shape: 16 32 150 150 (11520000)
I0729 21:15:15.708101 13348 net.cpp:165] Memory required for data: 184320128
I0729 21:15:15.708114 13348 layer_factory.hpp:77] Creating layer conv1/bn
I0729 21:15:15.708124 13348 net.cpp:100] Creating Layer conv1/bn
I0729 21:15:15.708128 13348 net.cpp:434] conv1/bn <- conv1
I0729 21:15:15.708133 13348 net.cpp:395] conv1/bn -> conv1 (in-place)
I0729 21:15:15.708683 13348 net.cpp:150] Setting up conv1/bn
I0729 21:15:15.708693 13348 net.cpp:157] Top shape: 16 32 150 150 (11520000)
I0729 21:15:15.708696 13348 net.cpp:165] Memory required for data: 230400128
I0729 21:15:15.708705 13348 layer_factory.hpp:77] Creating layer conv1/scale
I0729 21:15:15.708715 13348 net.cpp:100] Creating Layer conv1/scale
I0729 21:15:15.708719 13348 net.cpp:434] conv1/scale <- conv1
I0729 21:15:15.708722 13348 net.cpp:395] conv1/scale -> conv1 (in-place)
I0729 21:15:15.708760 13348 layer_factory.hpp:77] Creating layer conv1/scale
I0729 21:15:15.708868 13348 net.cpp:150] Setting up conv1/scale
I0729 21:15:15.708875 13348 net.cpp:157] Top shape: 16 32 150 150 (11520000)
I0729 21:15:15.708878 13348 net.cpp:165] Memory required for data: 276480128
I0729 21:15:15.708884 13348 layer_factory.hpp:77] Creating layer conv1_relu
I0729 21:15:15.708889 13348 net.cpp:100] Creating Layer conv1_relu
I0729 21:15:15.708890 13348 net.cpp:434] conv1_relu <- conv1
I0729 21:15:15.708894 13348 net.cpp:395] conv1_relu -> conv1 (in-place)
I0729 21:15:15.709034 13348 net.cpp:150] Setting up conv1_relu
I0729 21:15:15.709041 13348 net.cpp:157] Top shape: 16 32 150 150 (11520000)
I0729 21:15:15.709043 13348 net.cpp:165] Memory required for data: 322560128
I0729 21:15:15.709046 13348 layer_factory.hpp:77] Creating layer conv2_1/dw
I0729 21:15:15.709053 13348 net.cpp:100] Creating Layer conv2_1/dw
I0729 21:15:15.709056 13348 net.cpp:434] conv2_1/dw <- conv1
I0729 21:15:15.709060 13348 net.cpp:408] conv2_1/dw -> conv2_1/dw
I0729 21:15:15.709208 13348 net.cpp:150] Setting up conv2_1/dw
I0729 21:15:15.709213 13348 net.cpp:157] Top shape: 16 32 150 150 (11520000)
I0729 21:15:15.709215 13348 net.cpp:165] Memory required for data: 368640128
I0729 21:15:15.709219 13348 layer_factory.hpp:77] Creating layer conv2_1/dw/bn
I0729 21:15:15.709223 13348 net.cpp:100] Creating Layer conv2_1/dw/bn
I0729 21:15:15.709226 13348 net.cpp:434] conv2_1/dw/bn <- conv2_1/dw
I0729 21:15:15.709230 13348 net.cpp:395] conv2_1/dw/bn -> conv2_1/dw (in-place)
I0729 21:15:15.709375 13348 net.cpp:150] Setting up conv2_1/dw/bn
I0729 21:15:15.709381 13348 net.cpp:157] Top shape: 16 32 150 150 (11520000)
I0729 21:15:15.709383 13348 net.cpp:165] Memory required for data: 414720128
I0729 21:15:15.709390 13348 layer_factory.hpp:77] Creating layer conv2_1/dw/scale
I0729 21:15:15.709398 13348 net.cpp:100] Creating Layer conv2_1/dw/scale
I0729 21:15:15.709409 13348 net.cpp:434] conv2_1/dw/scale <- conv2_1/dw
I0729 21:15:15.709414 13348 net.cpp:395] conv2_1/dw/scale -> conv2_1/dw (in-place)
I0729 21:15:15.709444 13348 layer_factory.hpp:77] Creating layer conv2_1/dw/scale
I0729 21:15:15.709547 13348 net.cpp:150] Setting up conv2_1/dw/scale
I0729 21:15:15.709553 13348 net.cpp:157] Top shape: 16 32 150 150 (11520000)
I0729 21:15:15.709555 13348 net.cpp:165] Memory required for data: 460800128
I0729 21:15:15.709560 13348 layer_factory.hpp:77] Creating layer conv2_1/dw_relu
I0729 21:15:15.709564 13348 net.cpp:100] Creating Layer conv2_1/dw_relu
I0729 21:15:15.709568 13348 net.cpp:434] conv2_1/dw_relu <- conv2_1/dw
I0729 21:15:15.709570 13348 net.cpp:395] conv2_1/dw_relu -> conv2_1/dw (in-place)
I0729 21:15:15.710126 13348 net.cpp:150] Setting up conv2_1/dw_relu
I0729 21:15:15.710140 13348 net.cpp:157] Top shape: 16 32 150 150 (11520000)
I0729 21:15:15.710144 13348 net.cpp:165] Memory required for data: 506880128
I0729 21:15:15.710146 13348 layer_factory.hpp:77] Creating layer conv2_1/sep
I0729 21:15:15.710152 13348 net.cpp:100] Creating Layer conv2_1/sep
I0729 21:15:15.710155 13348 net.cpp:434] conv2_1/sep <- conv2_1/dw
I0729 21:15:15.710160 13348 net.cpp:408] conv2_1/sep -> conv2_1/sep
I0729 21:15:15.711503 13348 net.cpp:150] Setting up conv2_1/sep
I0729 21:15:15.711514 13348 net.cpp:157] Top shape: 16 64 150 150 (23040000)
I0729 21:15:15.711518 13348 net.cpp:165] Memory required for data: 599040128
I0729 21:15:15.711521 13348 layer_factory.hpp:77] Creating layer conv2_1/sep/bn
I0729 21:15:15.711527 13348 net.cpp:100] Creating Layer conv2_1/sep/bn
I0729 21:15:15.711529 13348 net.cpp:434] conv2_1/sep/bn <- conv2_1/sep
I0729 21:15:15.711534 13348 net.cpp:395] conv2_1/sep/bn -> conv2_1/sep (in-place)
I0729 21:15:15.711688 13348 net.cpp:150] Setting up conv2_1/sep/bn
I0729 21:15:15.711694 13348 net.cpp:157] Top shape: 16 64 150 150 (23040000)
I0729 21:15:15.711695 13348 net.cpp:165] Memory required for data: 691200128
I0729 21:15:15.711701 13348 layer_factory.hpp:77] Creating layer conv2_1/sep/scale
I0729 21:15:15.711706 13348 net.cpp:100] Creating Layer conv2_1/sep/scale
I0729 21:15:15.711709 13348 net.cpp:434] conv2_1/sep/scale <- conv2_1/sep
I0729 21:15:15.711712 13348 net.cpp:395] conv2_1/sep/scale -> conv2_1/sep (in-place)
I0729 21:15:15.711742 13348 layer_factory.hpp:77] Creating layer conv2_1/sep/scale
I0729 21:15:15.711845 13348 net.cpp:150] Setting up conv2_1/sep/scale
I0729 21:15:15.711851 13348 net.cpp:157] Top shape: 16 64 150 150 (23040000)
I0729 21:15:15.711853 13348 net.cpp:165] Memory required for data: 783360128
I0729 21:15:15.711860 13348 layer_factory.hpp:77] Creating layer conv2_1/sep_relu
I0729 21:15:15.711865 13348 net.cpp:100] Creating Layer conv2_1/sep_relu
I0729 21:15:15.711868 13348 net.cpp:434] conv2_1/sep_relu <- conv2_1/sep
I0729 21:15:15.711871 13348 net.cpp:395] conv2_1/sep_relu -> conv2_1/sep (in-place)
I0729 21:15:15.712419 13348 net.cpp:150] Setting up conv2_1/sep_relu
I0729 21:15:15.712430 13348 net.cpp:157] Top shape: 16 64 150 150 (23040000)
I0729 21:15:15.712432 13348 net.cpp:165] Memory required for data: 875520128
I0729 21:15:15.712435 13348 layer_factory.hpp:77] Creating layer conv2_2/dw
I0729 21:15:15.712441 13348 net.cpp:100] Creating Layer conv2_2/dw
I0729 21:15:15.712448 13348 net.cpp:434] conv2_2/dw <- conv2_1/sep
I0729 21:15:15.712455 13348 net.cpp:408] conv2_2/dw -> conv2_2/dw
I0729 21:15:15.712605 13348 net.cpp:150] Setting up conv2_2/dw
I0729 21:15:15.712610 13348 net.cpp:157] Top shape: 16 64 75 75 (5760000)
I0729 21:15:15.712613 13348 net.cpp:165] Memory required for data: 898560128
I0729 21:15:15.712617 13348 layer_factory.hpp:77] Creating layer conv2_2/dw/bn
I0729 21:15:15.712621 13348 net.cpp:100] Creating Layer conv2_2/dw/bn
I0729 21:15:15.712625 13348 net.cpp:434] conv2_2/dw/bn <- conv2_2/dw
I0729 21:15:15.712627 13348 net.cpp:395] conv2_2/dw/bn -> conv2_2/dw (in-place)
I0729 21:15:15.713135 13348 net.cpp:150] Setting up conv2_2/dw/bn
I0729 21:15:15.713143 13348 net.cpp:157] Top shape: 16 64 75 75 (5760000)
I0729 21:15:15.713152 13348 net.cpp:165] Memory required for data: 921600128
I0729 21:15:15.713158 13348 layer_factory.hpp:77] Creating layer conv2_2/dw/scale
I0729 21:15:15.713166 13348 net.cpp:100] Creating Layer conv2_2/dw/scale
I0729 21:15:15.713168 13348 net.cpp:434] conv2_2/dw/scale <- conv2_2/dw
I0729 21:15:15.713173 13348 net.cpp:395] conv2_2/dw/scale -> conv2_2/dw (in-place)
I0729 21:15:15.713205 13348 layer_factory.hpp:77] Creating layer conv2_2/dw/scale
I0729 21:15:15.713294 13348 net.cpp:150] Setting up conv2_2/dw/scale
I0729 21:15:15.713299 13348 net.cpp:157] Top shape: 16 64 75 75 (5760000)
I0729 21:15:15.713302 13348 net.cpp:165] Memory required for data: 944640128
I0729 21:15:15.713306 13348 layer_factory.hpp:77] Creating layer conv2_2/dw_relu
I0729 21:15:15.713310 13348 net.cpp:100] Creating Layer conv2_2/dw_relu
I0729 21:15:15.713316 13348 net.cpp:434] conv2_2/dw_relu <- conv2_2/dw
I0729 21:15:15.713320 13348 net.cpp:395] conv2_2/dw_relu -> conv2_2/dw (in-place)
I0729 21:15:15.713454 13348 net.cpp:150] Setting up conv2_2/dw_relu
I0729 21:15:15.713460 13348 net.cpp:157] Top shape: 16 64 75 75 (5760000)
I0729 21:15:15.713462 13348 net.cpp:165] Memory required for data: 967680128
I0729 21:15:15.713465 13348 layer_factory.hpp:77] Creating layer conv2_2/sep
I0729 21:15:15.713471 13348 net.cpp:100] Creating Layer conv2_2/sep
I0729 21:15:15.713474 13348 net.cpp:434] conv2_2/sep <- conv2_2/dw
I0729 21:15:15.713479 13348 net.cpp:408] conv2_2/sep -> conv2_2/sep
I0729 21:15:15.715325 13348 net.cpp:150] Setting up conv2_2/sep
I0729 21:15:15.715337 13348 net.cpp:157] Top shape: 16 128 75 75 (11520000)
I0729 21:15:15.715339 13348 net.cpp:165] Memory required for data: 1013760128
I0729 21:15:15.715343 13348 layer_factory.hpp:77] Creating layer conv2_2/sep/bn
I0729 21:15:15.715348 13348 net.cpp:100] Creating Layer conv2_2/sep/bn
I0729 21:15:15.715351 13348 net.cpp:434] conv2_2/sep/bn <- conv2_2/sep
I0729 21:15:15.715355 13348 net.cpp:395] conv2_2/sep/bn -> conv2_2/sep (in-place)
I0729 21:15:15.715495 13348 net.cpp:150] Setting up conv2_2/sep/bn
I0729 21:15:15.715502 13348 net.cpp:157] Top shape: 16 128 75 75 (11520000)
I0729 21:15:15.715503 13348 net.cpp:165] Memory required for data: 1059840128
I0729 21:15:15.715509 13348 layer_factory.hpp:77] Creating layer conv2_2/sep/scale
I0729 21:15:15.715514 13348 net.cpp:100] Creating Layer conv2_2/sep/scale
I0729 21:15:15.715517 13348 net.cpp:434] conv2_2/sep/scale <- conv2_2/sep
I0729 21:15:15.715520 13348 net.cpp:395] conv2_2/sep/scale -> conv2_2/sep (in-place)
I0729 21:15:15.715553 13348 layer_factory.hpp:77] Creating layer conv2_2/sep/scale
I0729 21:15:15.715638 13348 net.cpp:150] Setting up conv2_2/sep/scale
I0729 21:15:15.715643 13348 net.cpp:157] Top shape: 16 128 75 75 (11520000)
I0729 21:15:15.715646 13348 net.cpp:165] Memory required for data: 1105920128
I0729 21:15:15.715651 13348 layer_factory.hpp:77] Creating layer conv2_2/sep_relu
I0729 21:15:15.715654 13348 net.cpp:100] Creating Layer conv2_2/sep_relu
I0729 21:15:15.715656 13348 net.cpp:434] conv2_2/sep_relu <- conv2_2/sep
I0729 21:15:15.715661 13348 net.cpp:395] conv2_2/sep_relu -> conv2_2/sep (in-place)
I0729 21:15:15.716225 13348 net.cpp:150] Setting up conv2_2/sep_relu
I0729 21:15:15.716235 13348 net.cpp:157] Top shape: 16 128 75 75 (11520000)
I0729 21:15:15.716238 13348 net.cpp:165] Memory required for data: 1152000128
I0729 21:15:15.716240 13348 layer_factory.hpp:77] Creating layer conv3_1/dw
I0729 21:15:15.716248 13348 net.cpp:100] Creating Layer conv3_1/dw
I0729 21:15:15.716251 13348 net.cpp:434] conv3_1/dw <- conv2_2/sep
I0729 21:15:15.716256 13348 net.cpp:408] conv3_1/dw -> conv3_1/dw
I0729 21:15:15.716416 13348 net.cpp:150] Setting up conv3_1/dw
I0729 21:15:15.716423 13348 net.cpp:157] Top shape: 16 128 75 75 (11520000)
I0729 21:15:15.716424 13348 net.cpp:165] Memory required for data: 1198080128
I0729 21:15:15.716428 13348 layer_factory.hpp:77] Creating layer conv3_1/dw/bn
I0729 21:15:15.716434 13348 net.cpp:100] Creating Layer conv3_1/dw/bn
I0729 21:15:15.716436 13348 net.cpp:434] conv3_1/dw/bn <- conv3_1/dw
I0729 21:15:15.716450 13348 net.cpp:395] conv3_1/dw/bn -> conv3_1/dw (in-place)
I0729 21:15:15.716600 13348 net.cpp:150] Setting up conv3_1/dw/bn
I0729 21:15:15.716606 13348 net.cpp:157] Top shape: 16 128 75 75 (11520000)
I0729 21:15:15.716609 13348 net.cpp:165] Memory required for data: 1244160128
I0729 21:15:15.716619 13348 layer_factory.hpp:77] Creating layer conv3_1/dw/scale
I0729 21:15:15.716624 13348 net.cpp:100] Creating Layer conv3_1/dw/scale
I0729 21:15:15.716626 13348 net.cpp:434] conv3_1/dw/scale <- conv3_1/dw
I0729 21:15:15.716630 13348 net.cpp:395] conv3_1/dw/scale -> conv3_1/dw (in-place)
I0729 21:15:15.716663 13348 layer_factory.hpp:77] Creating layer conv3_1/dw/scale
I0729 21:15:15.716753 13348 net.cpp:150] Setting up conv3_1/dw/scale
I0729 21:15:15.716758 13348 net.cpp:157] Top shape: 16 128 75 75 (11520000)
I0729 21:15:15.716763 13348 net.cpp:165] Memory required for data: 1290240128
I0729 21:15:15.716768 13348 layer_factory.hpp:77] Creating layer conv3_1/dw_relu
I0729 21:15:15.716773 13348 net.cpp:100] Creating Layer conv3_1/dw_relu
I0729 21:15:15.716774 13348 net.cpp:434] conv3_1/dw_relu <- conv3_1/dw
I0729 21:15:15.716779 13348 net.cpp:395] conv3_1/dw_relu -> conv3_1/dw (in-place)
I0729 21:15:15.716918 13348 net.cpp:150] Setting up conv3_1/dw_relu
I0729 21:15:15.716925 13348 net.cpp:157] Top shape: 16 128 75 75 (11520000)
I0729 21:15:15.716928 13348 net.cpp:165] Memory required for data: 1336320128
I0729 21:15:15.716930 13348 layer_factory.hpp:77] Creating layer conv3_1/sep
I0729 21:15:15.716938 13348 net.cpp:100] Creating Layer conv3_1/sep
I0729 21:15:15.716940 13348 net.cpp:434] conv3_1/sep <- conv3_1/dw
I0729 21:15:15.716945 13348 net.cpp:408] conv3_1/sep -> conv3_1/sep
I0729 21:15:15.718499 13348 net.cpp:150] Setting up conv3_1/sep
I0729 21:15:15.718510 13348 net.cpp:157] Top shape: 16 128 75 75 (11520000)
I0729 21:15:15.718513 13348 net.cpp:165] Memory required for data: 1382400128
I0729 21:15:15.718518 13348 layer_factory.hpp:77] Creating layer conv3_1/sep/bn
I0729 21:15:15.718523 13348 net.cpp:100] Creating Layer conv3_1/sep/bn
I0729 21:15:15.718525 13348 net.cpp:434] conv3_1/sep/bn <- conv3_1/sep
I0729 21:15:15.718530 13348 net.cpp:395] conv3_1/sep/bn -> conv3_1/sep (in-place)
I0729 21:15:15.718682 13348 net.cpp:150] Setting up conv3_1/sep/bn
I0729 21:15:15.718688 13348 net.cpp:157] Top shape: 16 128 75 75 (11520000)
I0729 21:15:15.718689 13348 net.cpp:165] Memory required for data: 1428480128
I0729 21:15:15.718694 13348 layer_factory.hpp:77] Creating layer conv3_1/sep/scale
I0729 21:15:15.718699 13348 net.cpp:100] Creating Layer conv3_1/sep/scale
I0729 21:15:15.718703 13348 net.cpp:434] conv3_1/sep/scale <- conv3_1/sep
I0729 21:15:15.718706 13348 net.cpp:395] conv3_1/sep/scale -> conv3_1/sep (in-place)
I0729 21:15:15.718737 13348 layer_factory.hpp:77] Creating layer conv3_1/sep/scale
I0729 21:15:15.718825 13348 net.cpp:150] Setting up conv3_1/sep/scale
I0729 21:15:15.718830 13348 net.cpp:157] Top shape: 16 128 75 75 (11520000)
I0729 21:15:15.718833 13348 net.cpp:165] Memory required for data: 1474560128
I0729 21:15:15.718837 13348 layer_factory.hpp:77] Creating layer conv3_1/sep_relu
I0729 21:15:15.718842 13348 net.cpp:100] Creating Layer conv3_1/sep_relu
I0729 21:15:15.718844 13348 net.cpp:434] conv3_1/sep_relu <- conv3_1/sep
I0729 21:15:15.718847 13348 net.cpp:395] conv3_1/sep_relu -> conv3_1/sep (in-place)
I0729 21:15:15.719411 13348 net.cpp:150] Setting up conv3_1/sep_relu
I0729 21:15:15.719421 13348 net.cpp:157] Top shape: 16 128 75 75 (11520000)
I0729 21:15:15.719424 13348 net.cpp:165] Memory required for data: 1520640128
I0729 21:15:15.719426 13348 layer_factory.hpp:77] Creating layer conv3_2/dw
I0729 21:15:15.719434 13348 net.cpp:100] Creating Layer conv3_2/dw
I0729 21:15:15.719437 13348 net.cpp:434] conv3_2/dw <- conv3_1/sep
I0729 21:15:15.719441 13348 net.cpp:408] conv3_2/dw -> conv3_2/dw
I0729 21:15:15.719604 13348 net.cpp:150] Setting up conv3_2/dw
I0729 21:15:15.719611 13348 net.cpp:157] Top shape: 16 128 38 38 (2957312)
I0729 21:15:15.719614 13348 net.cpp:165] Memory required for data: 1532469376
I0729 21:15:15.719624 13348 layer_factory.hpp:77] Creating layer conv3_2/dw/bn
I0729 21:15:15.719630 13348 net.cpp:100] Creating Layer conv3_2/dw/bn
I0729 21:15:15.719632 13348 net.cpp:434] conv3_2/dw/bn <- conv3_2/dw
I0729 21:15:15.719636 13348 net.cpp:395] conv3_2/dw/bn -> conv3_2/dw (in-place)
I0729 21:15:15.719776 13348 net.cpp:150] Setting up conv3_2/dw/bn
I0729 21:15:15.719782 13348 net.cpp:157] Top shape: 16 128 38 38 (2957312)
I0729 21:15:15.719784 13348 net.cpp:165] Memory required for data: 1544298624
I0729 21:15:15.719789 13348 layer_factory.hpp:77] Creating layer conv3_2/dw/scale
I0729 21:15:15.719797 13348 net.cpp:100] Creating Layer conv3_2/dw/scale
I0729 21:15:15.719800 13348 net.cpp:434] conv3_2/dw/scale <- conv3_2/dw
I0729 21:15:15.719807 13348 net.cpp:395] conv3_2/dw/scale -> conv3_2/dw (in-place)
I0729 21:15:15.719841 13348 layer_factory.hpp:77] Creating layer conv3_2/dw/scale
I0729 21:15:15.719926 13348 net.cpp:150] Setting up conv3_2/dw/scale
I0729 21:15:15.719931 13348 net.cpp:157] Top shape: 16 128 38 38 (2957312)
I0729 21:15:15.719933 13348 net.cpp:165] Memory required for data: 1556127872
I0729 21:15:15.719938 13348 layer_factory.hpp:77] Creating layer conv3_2/dw_relu
I0729 21:15:15.719944 13348 net.cpp:100] Creating Layer conv3_2/dw_relu
I0729 21:15:15.719946 13348 net.cpp:434] conv3_2/dw_relu <- conv3_2/dw
I0729 21:15:15.719950 13348 net.cpp:395] conv3_2/dw_relu -> conv3_2/dw (in-place)
I0729 21:15:15.720093 13348 net.cpp:150] Setting up conv3_2/dw_relu
I0729 21:15:15.720099 13348 net.cpp:157] Top shape: 16 128 38 38 (2957312)
I0729 21:15:15.720101 13348 net.cpp:165] Memory required for data: 1567957120
I0729 21:15:15.720104 13348 layer_factory.hpp:77] Creating layer conv3_2/sep
I0729 21:15:15.720111 13348 net.cpp:100] Creating Layer conv3_2/sep
I0729 21:15:15.720114 13348 net.cpp:434] conv3_2/sep <- conv3_2/dw
I0729 21:15:15.720118 13348 net.cpp:408] conv3_2/sep -> conv3_2/sep
I0729 21:15:15.721822 13348 net.cpp:150] Setting up conv3_2/sep
I0729 21:15:15.721834 13348 net.cpp:157] Top shape: 16 256 38 38 (5914624)
I0729 21:15:15.721837 13348 net.cpp:165] Memory required for data: 1591615616
I0729 21:15:15.721842 13348 layer_factory.hpp:77] Creating layer conv3_2/sep/bn
I0729 21:15:15.721846 13348 net.cpp:100] Creating Layer conv3_2/sep/bn
I0729 21:15:15.721849 13348 net.cpp:434] conv3_2/sep/bn <- conv3_2/sep
I0729 21:15:15.721854 13348 net.cpp:395] conv3_2/sep/bn -> conv3_2/sep (in-place)
I0729 21:15:15.722003 13348 net.cpp:150] Setting up conv3_2/sep/bn
I0729 21:15:15.722008 13348 net.cpp:157] Top shape: 16 256 38 38 (5914624)
I0729 21:15:15.722012 13348 net.cpp:165] Memory required for data: 1615274112
I0729 21:15:15.722017 13348 layer_factory.hpp:77] Creating layer conv3_2/sep/scale
I0729 21:15:15.722023 13348 net.cpp:100] Creating Layer conv3_2/sep/scale
I0729 21:15:15.722025 13348 net.cpp:434] conv3_2/sep/scale <- conv3_2/sep
I0729 21:15:15.722029 13348 net.cpp:395] conv3_2/sep/scale -> conv3_2/sep (in-place)
I0729 21:15:15.722061 13348 layer_factory.hpp:77] Creating layer conv3_2/sep/scale
I0729 21:15:15.722146 13348 net.cpp:150] Setting up conv3_2/sep/scale
I0729 21:15:15.722151 13348 net.cpp:157] Top shape: 16 256 38 38 (5914624)
I0729 21:15:15.722153 13348 net.cpp:165] Memory required for data: 1638932608
I0729 21:15:15.722158 13348 layer_factory.hpp:77] Creating layer conv3_2/sep_relu
I0729 21:15:15.722162 13348 net.cpp:100] Creating Layer conv3_2/sep_relu
I0729 21:15:15.722164 13348 net.cpp:434] conv3_2/sep_relu <- conv3_2/sep
I0729 21:15:15.722169 13348 net.cpp:395] conv3_2/sep_relu -> conv3_2/sep (in-place)
I0729 21:15:15.722734 13348 net.cpp:150] Setting up conv3_2/sep_relu
I0729 21:15:15.722744 13348 net.cpp:157] Top shape: 16 256 38 38 (5914624)
I0729 21:15:15.722746 13348 net.cpp:165] Memory required for data: 1662591104
I0729 21:15:15.722749 13348 layer_factory.hpp:77] Creating layer conv4_1/dw
I0729 21:15:15.722756 13348 net.cpp:100] Creating Layer conv4_1/dw
I0729 21:15:15.722760 13348 net.cpp:434] conv4_1/dw <- conv3_2/sep
I0729 21:15:15.722771 13348 net.cpp:408] conv4_1/dw -> conv4_1/dw
I0729 21:15:15.722947 13348 net.cpp:150] Setting up conv4_1/dw
I0729 21:15:15.722954 13348 net.cpp:157] Top shape: 16 256 38 38 (5914624)
I0729 21:15:15.722956 13348 net.cpp:165] Memory required for data: 1686249600
I0729 21:15:15.722960 13348 layer_factory.hpp:77] Creating layer conv4_1/dw/bn
I0729 21:15:15.722965 13348 net.cpp:100] Creating Layer conv4_1/dw/bn
I0729 21:15:15.722967 13348 net.cpp:434] conv4_1/dw/bn <- conv4_1/dw
I0729 21:15:15.722971 13348 net.cpp:395] conv4_1/dw/bn -> conv4_1/dw (in-place)
I0729 21:15:15.723116 13348 net.cpp:150] Setting up conv4_1/dw/bn
I0729 21:15:15.723122 13348 net.cpp:157] Top shape: 16 256 38 38 (5914624)
I0729 21:15:15.723124 13348 net.cpp:165] Memory required for data: 1709908096
I0729 21:15:15.723132 13348 layer_factory.hpp:77] Creating layer conv4_1/dw/scale
I0729 21:15:15.723137 13348 net.cpp:100] Creating Layer conv4_1/dw/scale
I0729 21:15:15.723140 13348 net.cpp:434] conv4_1/dw/scale <- conv4_1/dw
I0729 21:15:15.723145 13348 net.cpp:395] conv4_1/dw/scale -> conv4_1/dw (in-place)
I0729 21:15:15.723177 13348 layer_factory.hpp:77] Creating layer conv4_1/dw/scale
I0729 21:15:15.723264 13348 net.cpp:150] Setting up conv4_1/dw/scale
I0729 21:15:15.723269 13348 net.cpp:157] Top shape: 16 256 38 38 (5914624)
I0729 21:15:15.723273 13348 net.cpp:165] Memory required for data: 1733566592
I0729 21:15:15.723276 13348 layer_factory.hpp:77] Creating layer conv4_1/dw_relu
I0729 21:15:15.723280 13348 net.cpp:100] Creating Layer conv4_1/dw_relu
I0729 21:15:15.723284 13348 net.cpp:434] conv4_1/dw_relu <- conv4_1/dw
I0729 21:15:15.723287 13348 net.cpp:395] conv4_1/dw_relu -> conv4_1/dw (in-place)
I0729 21:15:15.723429 13348 net.cpp:150] Setting up conv4_1/dw_relu
I0729 21:15:15.723436 13348 net.cpp:157] Top shape: 16 256 38 38 (5914624)
I0729 21:15:15.723438 13348 net.cpp:165] Memory required for data: 1757225088
I0729 21:15:15.723441 13348 layer_factory.hpp:77] Creating layer conv4_1/sep
I0729 21:15:15.723448 13348 net.cpp:100] Creating Layer conv4_1/sep
I0729 21:15:15.723450 13348 net.cpp:434] conv4_1/sep <- conv4_1/dw
I0729 21:15:15.723456 13348 net.cpp:408] conv4_1/sep -> conv4_1/sep
I0729 21:15:15.726248 13348 net.cpp:150] Setting up conv4_1/sep
I0729 21:15:15.726260 13348 net.cpp:157] Top shape: 16 256 38 38 (5914624)
I0729 21:15:15.726263 13348 net.cpp:165] Memory required for data: 1780883584
I0729 21:15:15.726269 13348 layer_factory.hpp:77] Creating layer conv4_1/sep/bn
I0729 21:15:15.726272 13348 net.cpp:100] Creating Layer conv4_1/sep/bn
I0729 21:15:15.726275 13348 net.cpp:434] conv4_1/sep/bn <- conv4_1/sep
I0729 21:15:15.726280 13348 net.cpp:395] conv4_1/sep/bn -> conv4_1/sep (in-place)
I0729 21:15:15.726438 13348 net.cpp:150] Setting up conv4_1/sep/bn
I0729 21:15:15.726445 13348 net.cpp:157] Top shape: 16 256 38 38 (5914624)
I0729 21:15:15.726449 13348 net.cpp:165] Memory required for data: 1804542080
I0729 21:15:15.726454 13348 layer_factory.hpp:77] Creating layer conv4_1/sep/scale
I0729 21:15:15.726459 13348 net.cpp:100] Creating Layer conv4_1/sep/scale
I0729 21:15:15.726460 13348 net.cpp:434] conv4_1/sep/scale <- conv4_1/sep
I0729 21:15:15.726464 13348 net.cpp:395] conv4_1/sep/scale -> conv4_1/sep (in-place)
I0729 21:15:15.726498 13348 layer_factory.hpp:77] Creating layer conv4_1/sep/scale
I0729 21:15:15.726585 13348 net.cpp:150] Setting up conv4_1/sep/scale
I0729 21:15:15.726591 13348 net.cpp:157] Top shape: 16 256 38 38 (5914624)
I0729 21:15:15.726593 13348 net.cpp:165] Memory required for data: 1828200576
I0729 21:15:15.726605 13348 layer_factory.hpp:77] Creating layer conv4_1/sep_relu
I0729 21:15:15.726610 13348 net.cpp:100] Creating Layer conv4_1/sep_relu
I0729 21:15:15.726613 13348 net.cpp:434] conv4_1/sep_relu <- conv4_1/sep
I0729 21:15:15.726617 13348 net.cpp:395] conv4_1/sep_relu -> conv4_1/sep (in-place)
I0729 21:15:15.726773 13348 net.cpp:150] Setting up conv4_1/sep_relu
I0729 21:15:15.726779 13348 net.cpp:157] Top shape: 16 256 38 38 (5914624)
I0729 21:15:15.726781 13348 net.cpp:165] Memory required for data: 1851859072
I0729 21:15:15.726790 13348 layer_factory.hpp:77] Creating layer conv4_2/dw
I0729 21:15:15.726797 13348 net.cpp:100] Creating Layer conv4_2/dw
I0729 21:15:15.726800 13348 net.cpp:434] conv4_2/dw <- conv4_1/sep
I0729 21:15:15.726805 13348 net.cpp:408] conv4_2/dw -> conv4_2/dw
I0729 21:15:15.726987 13348 net.cpp:150] Setting up conv4_2/dw
I0729 21:15:15.726994 13348 net.cpp:157] Top shape: 16 256 19 19 (1478656)
I0729 21:15:15.726995 13348 net.cpp:165] Memory required for data: 1857773696
I0729 21:15:15.726999 13348 layer_factory.hpp:77] Creating layer conv4_2/dw/bn
I0729 21:15:15.727004 13348 net.cpp:100] Creating Layer conv4_2/dw/bn
I0729 21:15:15.727006 13348 net.cpp:434] conv4_2/dw/bn <- conv4_2/dw
I0729 21:15:15.727010 13348 net.cpp:395] conv4_2/dw/bn -> conv4_2/dw (in-place)
I0729 21:15:15.727162 13348 net.cpp:150] Setting up conv4_2/dw/bn
I0729 21:15:15.727167 13348 net.cpp:157] Top shape: 16 256 19 19 (1478656)
I0729 21:15:15.727170 13348 net.cpp:165] Memory required for data: 1863688320
I0729 21:15:15.727175 13348 layer_factory.hpp:77] Creating layer conv4_2/dw/scale
I0729 21:15:15.727180 13348 net.cpp:100] Creating Layer conv4_2/dw/scale
I0729 21:15:15.727182 13348 net.cpp:434] conv4_2/dw/scale <- conv4_2/dw
I0729 21:15:15.727187 13348 net.cpp:395] conv4_2/dw/scale -> conv4_2/dw (in-place)
I0729 21:15:15.727219 13348 layer_factory.hpp:77] Creating layer conv4_2/dw/scale
I0729 21:15:15.727308 13348 net.cpp:150] Setting up conv4_2/dw/scale
I0729 21:15:15.727313 13348 net.cpp:157] Top shape: 16 256 19 19 (1478656)
I0729 21:15:15.727316 13348 net.cpp:165] Memory required for data: 1869602944
I0729 21:15:15.727320 13348 layer_factory.hpp:77] Creating layer conv4_2/dw_relu
I0729 21:15:15.727324 13348 net.cpp:100] Creating Layer conv4_2/dw_relu
I0729 21:15:15.727326 13348 net.cpp:434] conv4_2/dw_relu <- conv4_2/dw
I0729 21:15:15.727331 13348 net.cpp:395] conv4_2/dw_relu -> conv4_2/dw (in-place)
I0729 21:15:15.727893 13348 net.cpp:150] Setting up conv4_2/dw_relu
I0729 21:15:15.727903 13348 net.cpp:157] Top shape: 16 256 19 19 (1478656)
I0729 21:15:15.727906 13348 net.cpp:165] Memory required for data: 1875517568
I0729 21:15:15.727908 13348 layer_factory.hpp:77] Creating layer conv4_2/sep
I0729 21:15:15.727916 13348 net.cpp:100] Creating Layer conv4_2/sep
I0729 21:15:15.727919 13348 net.cpp:434] conv4_2/sep <- conv4_2/dw
I0729 21:15:15.727924 13348 net.cpp:408] conv4_2/sep -> conv4_2/sep
I0729 21:15:15.731166 13348 net.cpp:150] Setting up conv4_2/sep
I0729 21:15:15.731178 13348 net.cpp:157] Top shape: 16 512 19 19 (2957312)
I0729 21:15:15.731181 13348 net.cpp:165] Memory required for data: 1887346816
I0729 21:15:15.731185 13348 layer_factory.hpp:77] Creating layer conv4_2/sep/bn
I0729 21:15:15.731191 13348 net.cpp:100] Creating Layer conv4_2/sep/bn
I0729 21:15:15.731194 13348 net.cpp:434] conv4_2/sep/bn <- conv4_2/sep
I0729 21:15:15.731199 13348 net.cpp:395] conv4_2/sep/bn -> conv4_2/sep (in-place)
I0729 21:15:15.731364 13348 net.cpp:150] Setting up conv4_2/sep/bn
I0729 21:15:15.731370 13348 net.cpp:157] Top shape: 16 512 19 19 (2957312)
I0729 21:15:15.731374 13348 net.cpp:165] Memory required for data: 1899176064
I0729 21:15:15.731379 13348 layer_factory.hpp:77] Creating layer conv4_2/sep/scale
I0729 21:15:15.731384 13348 net.cpp:100] Creating Layer conv4_2/sep/scale
I0729 21:15:15.731387 13348 net.cpp:434] conv4_2/sep/scale <- conv4_2/sep
I0729 21:15:15.731391 13348 net.cpp:395] conv4_2/sep/scale -> conv4_2/sep (in-place)
I0729 21:15:15.731426 13348 layer_factory.hpp:77] Creating layer conv4_2/sep/scale
I0729 21:15:15.731515 13348 net.cpp:150] Setting up conv4_2/sep/scale
I0729 21:15:15.731520 13348 net.cpp:157] Top shape: 16 512 19 19 (2957312)
I0729 21:15:15.731523 13348 net.cpp:165] Memory required for data: 1911005312
I0729 21:15:15.731528 13348 layer_factory.hpp:77] Creating layer conv4_2/sep_relu
I0729 21:15:15.731533 13348 net.cpp:100] Creating Layer conv4_2/sep_relu
I0729 21:15:15.731535 13348 net.cpp:434] conv4_2/sep_relu <- conv4_2/sep
I0729 21:15:15.731539 13348 net.cpp:395] conv4_2/sep_relu -> conv4_2/sep (in-place)
I0729 21:15:15.731688 13348 net.cpp:150] Setting up conv4_2/sep_relu
I0729 21:15:15.731696 13348 net.cpp:157] Top shape: 16 512 19 19 (2957312)
I0729 21:15:15.731699 13348 net.cpp:165] Memory required for data: 1922834560
I0729 21:15:15.731701 13348 layer_factory.hpp:77] Creating layer conv5_1/dw
I0729 21:15:15.731709 13348 net.cpp:100] Creating Layer conv5_1/dw
I0729 21:15:15.731711 13348 net.cpp:434] conv5_1/dw <- conv4_2/sep
I0729 21:15:15.731716 13348 net.cpp:408] conv5_1/dw -> conv5_1/dw
I0729 21:15:15.731914 13348 net.cpp:150] Setting up conv5_1/dw
I0729 21:15:15.731920 13348 net.cpp:157] Top shape: 16 512 19 19 (2957312)
I0729 21:15:15.731923 13348 net.cpp:165] Memory required for data: 1934663808
I0729 21:15:15.731927 13348 layer_factory.hpp:77] Creating layer conv5_1/dw/bn
I0729 21:15:15.731935 13348 net.cpp:100] Creating Layer conv5_1/dw/bn
I0729 21:15:15.731938 13348 net.cpp:434] conv5_1/dw/bn <- conv5_1/dw
I0729 21:15:15.731941 13348 net.cpp:395] conv5_1/dw/bn -> conv5_1/dw (in-place)
I0729 21:15:15.732098 13348 net.cpp:150] Setting up conv5_1/dw/bn
I0729 21:15:15.732103 13348 net.cpp:157] Top shape: 16 512 19 19 (2957312)
I0729 21:15:15.732106 13348 net.cpp:165] Memory required for data: 1946493056
I0729 21:15:15.732111 13348 layer_factory.hpp:77] Creating layer conv5_1/dw/scale
I0729 21:15:15.732117 13348 net.cpp:100] Creating Layer conv5_1/dw/scale
I0729 21:15:15.732120 13348 net.cpp:434] conv5_1/dw/scale <- conv5_1/dw
I0729 21:15:15.732123 13348 net.cpp:395] conv5_1/dw/scale -> conv5_1/dw (in-place)
I0729 21:15:15.732159 13348 layer_factory.hpp:77] Creating layer conv5_1/dw/scale
I0729 21:15:15.732251 13348 net.cpp:150] Setting up conv5_1/dw/scale
I0729 21:15:15.732257 13348 net.cpp:157] Top shape: 16 512 19 19 (2957312)
I0729 21:15:15.732259 13348 net.cpp:165] Memory required for data: 1958322304
I0729 21:15:15.732264 13348 layer_factory.hpp:77] Creating layer conv5_1/dw_relu
I0729 21:15:15.732270 13348 net.cpp:100] Creating Layer conv5_1/dw_relu
I0729 21:15:15.732271 13348 net.cpp:434] conv5_1/dw_relu <- conv5_1/dw
I0729 21:15:15.732275 13348 net.cpp:395] conv5_1/dw_relu -> conv5_1/dw (in-place)
I0729 21:15:15.732846 13348 net.cpp:150] Setting up conv5_1/dw_relu
I0729 21:15:15.732856 13348 net.cpp:157] Top shape: 16 512 19 19 (2957312)
I0729 21:15:15.732858 13348 net.cpp:165] Memory required for data: 1970151552
I0729 21:15:15.732861 13348 layer_factory.hpp:77] Creating layer conv5_1/sep
I0729 21:15:15.732868 13348 net.cpp:100] Creating Layer conv5_1/sep
I0729 21:15:15.732872 13348 net.cpp:434] conv5_1/sep <- conv5_1/dw
I0729 21:15:15.732877 13348 net.cpp:408] conv5_1/sep -> conv5_1/sep
I0729 21:15:15.736749 13348 net.cpp:150] Setting up conv5_1/sep
I0729 21:15:15.736762 13348 net.cpp:157] Top shape: 16 512 19 19 (2957312)
I0729 21:15:15.736764 13348 net.cpp:165] Memory required for data: 1981980800
I0729 21:15:15.736768 13348 layer_factory.hpp:77] Creating layer conv5_1/sep/bn
I0729 21:15:15.736773 13348 net.cpp:100] Creating Layer conv5_1/sep/bn
I0729 21:15:15.736776 13348 net.cpp:434] conv5_1/sep/bn <- conv5_1/sep
I0729 21:15:15.736781 13348 net.cpp:395] conv5_1/sep/bn -> conv5_1/sep (in-place)
I0729 21:15:15.736950 13348 net.cpp:150] Setting up conv5_1/sep/bn
I0729 21:15:15.736956 13348 net.cpp:157] Top shape: 16 512 19 19 (2957312)
I0729 21:15:15.736959 13348 net.cpp:165] Memory required for data: 1993810048
I0729 21:15:15.736964 13348 layer_factory.hpp:77] Creating layer conv5_1/sep/scale
I0729 21:15:15.736969 13348 net.cpp:100] Creating Layer conv5_1/sep/scale
I0729 21:15:15.736971 13348 net.cpp:434] conv5_1/sep/scale <- conv5_1/sep
I0729 21:15:15.736976 13348 net.cpp:395] conv5_1/sep/scale -> conv5_1/sep (in-place)
I0729 21:15:15.737013 13348 layer_factory.hpp:77] Creating layer conv5_1/sep/scale
I0729 21:15:15.737104 13348 net.cpp:150] Setting up conv5_1/sep/scale
I0729 21:15:15.737109 13348 net.cpp:157] Top shape: 16 512 19 19 (2957312)
I0729 21:15:15.737112 13348 net.cpp:165] Memory required for data: 2005639296
I0729 21:15:15.737116 13348 layer_factory.hpp:77] Creating layer conv5_1/sep_relu
I0729 21:15:15.737126 13348 net.cpp:100] Creating Layer conv5_1/sep_relu
I0729 21:15:15.737129 13348 net.cpp:434] conv5_1/sep_relu <- conv5_1/sep
I0729 21:15:15.737133 13348 net.cpp:395] conv5_1/sep_relu -> conv5_1/sep (in-place)
I0729 21:15:15.737277 13348 net.cpp:150] Setting up conv5_1/sep_relu
I0729 21:15:15.737284 13348 net.cpp:157] Top shape: 16 512 19 19 (2957312)
I0729 21:15:15.737287 13348 net.cpp:165] Memory required for data: 2017468544
I0729 21:15:15.737290 13348 layer_factory.hpp:77] Creating layer conv5_2/dw
I0729 21:15:15.737296 13348 net.cpp:100] Creating Layer conv5_2/dw
I0729 21:15:15.737299 13348 net.cpp:434] conv5_2/dw <- conv5_1/sep
I0729 21:15:15.737304 13348 net.cpp:408] conv5_2/dw -> conv5_2/dw
I0729 21:15:15.737502 13348 net.cpp:150] Setting up conv5_2/dw
I0729 21:15:15.737511 13348 net.cpp:157] Top shape: 16 512 19 19 (2957312)
I0729 21:15:15.737514 13348 net.cpp:165] Memory required for data: 2029297792
I0729 21:15:15.737519 13348 layer_factory.hpp:77] Creating layer conv5_2/dw/bn
I0729 21:15:15.737522 13348 net.cpp:100] Creating Layer conv5_2/dw/bn
I0729 21:15:15.737525 13348 net.cpp:434] conv5_2/dw/bn <- conv5_2/dw
I0729 21:15:15.737529 13348 net.cpp:395] conv5_2/dw/bn -> conv5_2/dw (in-place)
I0729 21:15:15.737689 13348 net.cpp:150] Setting up conv5_2/dw/bn
I0729 21:15:15.737694 13348 net.cpp:157] Top shape: 16 512 19 19 (2957312)
I0729 21:15:15.737695 13348 net.cpp:165] Memory required for data: 2041127040
I0729 21:15:15.737701 13348 layer_factory.hpp:77] Creating layer conv5_2/dw/scale
I0729 21:15:15.737711 13348 net.cpp:100] Creating Layer conv5_2/dw/scale
I0729 21:15:15.737713 13348 net.cpp:434] conv5_2/dw/scale <- conv5_2/dw
I0729 21:15:15.737717 13348 net.cpp:395] conv5_2/dw/scale -> conv5_2/dw (in-place)
I0729 21:15:15.737754 13348 layer_factory.hpp:77] Creating layer conv5_2/dw/scale
I0729 21:15:15.737844 13348 net.cpp:150] Setting up conv5_2/dw/scale
I0729 21:15:15.737850 13348 net.cpp:157] Top shape: 16 512 19 19 (2957312)
I0729 21:15:15.737853 13348 net.cpp:165] Memory required for data: 2052956288
I0729 21:15:15.737857 13348 layer_factory.hpp:77] Creating layer conv5_2/dw_relu
I0729 21:15:15.737861 13348 net.cpp:100] Creating Layer conv5_2/dw_relu
I0729 21:15:15.737864 13348 net.cpp:434] conv5_2/dw_relu <- conv5_2/dw
I0729 21:15:15.737867 13348 net.cpp:395] conv5_2/dw_relu -> conv5_2/dw (in-place)
I0729 21:15:15.738435 13348 net.cpp:150] Setting up conv5_2/dw_relu
I0729 21:15:15.738445 13348 net.cpp:157] Top shape: 16 512 19 19 (2957312)
I0729 21:15:15.738447 13348 net.cpp:165] Memory required for data: 2064785536
I0729 21:15:15.738451 13348 layer_factory.hpp:77] Creating layer conv5_2/sep
I0729 21:15:15.738458 13348 net.cpp:100] Creating Layer conv5_2/sep
I0729 21:15:15.738461 13348 net.cpp:434] conv5_2/sep <- conv5_2/dw
I0729 21:15:15.738466 13348 net.cpp:408] conv5_2/sep -> conv5_2/sep
I0729 21:15:15.741928 13348 net.cpp:150] Setting up conv5_2/sep
I0729 21:15:15.741940 13348 net.cpp:157] Top shape: 16 512 19 19 (2957312)
I0729 21:15:15.741942 13348 net.cpp:165] Memory required for data: 2076614784
I0729 21:15:15.741947 13348 layer_factory.hpp:77] Creating layer conv5_2/sep/bn
I0729 21:15:15.741953 13348 net.cpp:100] Creating Layer conv5_2/sep/bn
I0729 21:15:15.741956 13348 net.cpp:434] conv5_2/sep/bn <- conv5_2/sep
I0729 21:15:15.741961 13348 net.cpp:395] conv5_2/sep/bn -> conv5_2/sep (in-place)
I0729 21:15:15.742128 13348 net.cpp:150] Setting up conv5_2/sep/bn
I0729 21:15:15.742133 13348 net.cpp:157] Top shape: 16 512 19 19 (2957312)
I0729 21:15:15.742136 13348 net.cpp:165] Memory required for data: 2088444032
I0729 21:15:15.742141 13348 layer_factory.hpp:77] Creating layer conv5_2/sep/scale
I0729 21:15:15.742146 13348 net.cpp:100] Creating Layer conv5_2/sep/scale
I0729 21:15:15.742149 13348 net.cpp:434] conv5_2/sep/scale <- conv5_2/sep
I0729 21:15:15.742153 13348 net.cpp:395] conv5_2/sep/scale -> conv5_2/sep (in-place)
I0729 21:15:15.742190 13348 layer_factory.hpp:77] Creating layer conv5_2/sep/scale
I0729 21:15:15.742282 13348 net.cpp:150] Setting up conv5_2/sep/scale
I0729 21:15:15.742295 13348 net.cpp:157] Top shape: 16 512 19 19 (2957312)
I0729 21:15:15.742297 13348 net.cpp:165] Memory required for data: 2100273280
I0729 21:15:15.742301 13348 layer_factory.hpp:77] Creating layer conv5_2/sep_relu
I0729 21:15:15.742305 13348 net.cpp:100] Creating Layer conv5_2/sep_relu
I0729 21:15:15.742308 13348 net.cpp:434] conv5_2/sep_relu <- conv5_2/sep
I0729 21:15:15.742312 13348 net.cpp:395] conv5_2/sep_relu -> conv5_2/sep (in-place)
I0729 21:15:15.742873 13348 net.cpp:150] Setting up conv5_2/sep_relu
I0729 21:15:15.742883 13348 net.cpp:157] Top shape: 16 512 19 19 (2957312)
I0729 21:15:15.742885 13348 net.cpp:165] Memory required for data: 2112102528
I0729 21:15:15.742888 13348 layer_factory.hpp:77] Creating layer conv5_3/dw
I0729 21:15:15.742897 13348 net.cpp:100] Creating Layer conv5_3/dw
I0729 21:15:15.742903 13348 net.cpp:434] conv5_3/dw <- conv5_2/sep
I0729 21:15:15.742908 13348 net.cpp:408] conv5_3/dw -> conv5_3/dw
I0729 21:15:15.743113 13348 net.cpp:150] Setting up conv5_3/dw
I0729 21:15:15.743120 13348 net.cpp:157] Top shape: 16 512 19 19 (2957312)
I0729 21:15:15.743122 13348 net.cpp:165] Memory required for data: 2123931776
I0729 21:15:15.743126 13348 layer_factory.hpp:77] Creating layer conv5_3/dw/bn
I0729 21:15:15.743130 13348 net.cpp:100] Creating Layer conv5_3/dw/bn
I0729 21:15:15.743134 13348 net.cpp:434] conv5_3/dw/bn <- conv5_3/dw
I0729 21:15:15.743137 13348 net.cpp:395] conv5_3/dw/bn -> conv5_3/dw (in-place)
I0729 21:15:15.743299 13348 net.cpp:150] Setting up conv5_3/dw/bn
I0729 21:15:15.743304 13348 net.cpp:157] Top shape: 16 512 19 19 (2957312)
I0729 21:15:15.743306 13348 net.cpp:165] Memory required for data: 2135761024
I0729 21:15:15.743312 13348 layer_factory.hpp:77] Creating layer conv5_3/dw/scale
I0729 21:15:15.743317 13348 net.cpp:100] Creating Layer conv5_3/dw/scale
I0729 21:15:15.743319 13348 net.cpp:434] conv5_3/dw/scale <- conv5_3/dw
I0729 21:15:15.743324 13348 net.cpp:395] conv5_3/dw/scale -> conv5_3/dw (in-place)
I0729 21:15:15.743361 13348 layer_factory.hpp:77] Creating layer conv5_3/dw/scale
I0729 21:15:15.743453 13348 net.cpp:150] Setting up conv5_3/dw/scale
I0729 21:15:15.743458 13348 net.cpp:157] Top shape: 16 512 19 19 (2957312)
I0729 21:15:15.743460 13348 net.cpp:165] Memory required for data: 2147590272
I0729 21:15:15.743465 13348 layer_factory.hpp:77] Creating layer conv5_3/dw_relu
I0729 21:15:15.743469 13348 net.cpp:100] Creating Layer conv5_3/dw_relu
I0729 21:15:15.743471 13348 net.cpp:434] conv5_3/dw_relu <- conv5_3/dw
I0729 21:15:15.743476 13348 net.cpp:395] conv5_3/dw_relu -> conv5_3/dw (in-place)
I0729 21:15:15.744038 13348 net.cpp:150] Setting up conv5_3/dw_relu
I0729 21:15:15.744050 13348 net.cpp:157] Top shape: 16 512 19 19 (2957312)
I0729 21:15:15.744052 13348 net.cpp:165] Memory required for data: 2159419520
I0729 21:15:15.744055 13348 layer_factory.hpp:77] Creating layer conv5_3/sep
I0729 21:15:15.744061 13348 net.cpp:100] Creating Layer conv5_3/sep
I0729 21:15:15.744063 13348 net.cpp:434] conv5_3/sep <- conv5_3/dw
I0729 21:15:15.744069 13348 net.cpp:408] conv5_3/sep -> conv5_3/sep
I0729 21:15:15.747553 13348 net.cpp:150] Setting up conv5_3/sep
I0729 21:15:15.747565 13348 net.cpp:157] Top shape: 16 512 19 19 (2957312)
I0729 21:15:15.747568 13348 net.cpp:165] Memory required for data: 2171248768
I0729 21:15:15.747573 13348 layer_factory.hpp:77] Creating layer conv5_3/sep/bn
I0729 21:15:15.747578 13348 net.cpp:100] Creating Layer conv5_3/sep/bn
I0729 21:15:15.747582 13348 net.cpp:434] conv5_3/sep/bn <- conv5_3/sep
I0729 21:15:15.747586 13348 net.cpp:395] conv5_3/sep/bn -> conv5_3/sep (in-place)
I0729 21:15:15.747756 13348 net.cpp:150] Setting up conv5_3/sep/bn
I0729 21:15:15.747761 13348 net.cpp:157] Top shape: 16 512 19 19 (2957312)
I0729 21:15:15.747763 13348 net.cpp:165] Memory required for data: 2183078016
I0729 21:15:15.747769 13348 layer_factory.hpp:77] Creating layer conv5_3/sep/scale
I0729 21:15:15.747776 13348 net.cpp:100] Creating Layer conv5_3/sep/scale
I0729 21:15:15.747778 13348 net.cpp:434] conv5_3/sep/scale <- conv5_3/sep
I0729 21:15:15.747787 13348 net.cpp:395] conv5_3/sep/scale -> conv5_3/sep (in-place)
I0729 21:15:15.747826 13348 layer_factory.hpp:77] Creating layer conv5_3/sep/scale
I0729 21:15:15.747921 13348 net.cpp:150] Setting up conv5_3/sep/scale
I0729 21:15:15.747926 13348 net.cpp:157] Top shape: 16 512 19 19 (2957312)
I0729 21:15:15.747930 13348 net.cpp:165] Memory required for data: 2194907264
I0729 21:15:15.747933 13348 layer_factory.hpp:77] Creating layer conv5_3/sep_relu
I0729 21:15:15.747939 13348 net.cpp:100] Creating Layer conv5_3/sep_relu
I0729 21:15:15.747941 13348 net.cpp:434] conv5_3/sep_relu <- conv5_3/sep
I0729 21:15:15.747946 13348 net.cpp:395] conv5_3/sep_relu -> conv5_3/sep (in-place)
I0729 21:15:15.748518 13348 net.cpp:150] Setting up conv5_3/sep_relu
I0729 21:15:15.748529 13348 net.cpp:157] Top shape: 16 512 19 19 (2957312)
I0729 21:15:15.748535 13348 net.cpp:165] Memory required for data: 2206736512
I0729 21:15:15.748538 13348 layer_factory.hpp:77] Creating layer conv5_4/dw
I0729 21:15:15.748545 13348 net.cpp:100] Creating Layer conv5_4/dw
I0729 21:15:15.748548 13348 net.cpp:434] conv5_4/dw <- conv5_3/sep
I0729 21:15:15.748553 13348 net.cpp:408] conv5_4/dw -> conv5_4/dw
I0729 21:15:15.748762 13348 net.cpp:150] Setting up conv5_4/dw
I0729 21:15:15.748769 13348 net.cpp:157] Top shape: 16 512 19 19 (2957312)
I0729 21:15:15.748771 13348 net.cpp:165] Memory required for data: 2218565760
I0729 21:15:15.748775 13348 layer_factory.hpp:77] Creating layer conv5_4/dw/bn
I0729 21:15:15.748780 13348 net.cpp:100] Creating Layer conv5_4/dw/bn
I0729 21:15:15.748782 13348 net.cpp:434] conv5_4/dw/bn <- conv5_4/dw
I0729 21:15:15.748785 13348 net.cpp:395] conv5_4/dw/bn -> conv5_4/dw (in-place)
I0729 21:15:15.748947 13348 net.cpp:150] Setting up conv5_4/dw/bn
I0729 21:15:15.748955 13348 net.cpp:157] Top shape: 16 512 19 19 (2957312)
I0729 21:15:15.748956 13348 net.cpp:165] Memory required for data: 2230395008
I0729 21:15:15.748962 13348 layer_factory.hpp:77] Creating layer conv5_4/dw/scale
I0729 21:15:15.748966 13348 net.cpp:100] Creating Layer conv5_4/dw/scale
I0729 21:15:15.748970 13348 net.cpp:434] conv5_4/dw/scale <- conv5_4/dw
I0729 21:15:15.748972 13348 net.cpp:395] conv5_4/dw/scale -> conv5_4/dw (in-place)
I0729 21:15:15.749011 13348 layer_factory.hpp:77] Creating layer conv5_4/dw/scale
I0729 21:15:15.749104 13348 net.cpp:150] Setting up conv5_4/dw/scale
I0729 21:15:15.749110 13348 net.cpp:157] Top shape: 16 512 19 19 (2957312)
I0729 21:15:15.749112 13348 net.cpp:165] Memory required for data: 2242224256
I0729 21:15:15.749117 13348 layer_factory.hpp:77] Creating layer conv5_4/dw_relu
I0729 21:15:15.749122 13348 net.cpp:100] Creating Layer conv5_4/dw_relu
I0729 21:15:15.749125 13348 net.cpp:434] conv5_4/dw_relu <- conv5_4/dw
I0729 21:15:15.749128 13348 net.cpp:395] conv5_4/dw_relu -> conv5_4/dw (in-place)
I0729 21:15:15.749274 13348 net.cpp:150] Setting up conv5_4/dw_relu
I0729 21:15:15.749281 13348 net.cpp:157] Top shape: 16 512 19 19 (2957312)
I0729 21:15:15.749284 13348 net.cpp:165] Memory required for data: 2254053504
I0729 21:15:15.749286 13348 layer_factory.hpp:77] Creating layer conv5_4/sep
I0729 21:15:15.749292 13348 net.cpp:100] Creating Layer conv5_4/sep
I0729 21:15:15.749295 13348 net.cpp:434] conv5_4/sep <- conv5_4/dw
I0729 21:15:15.749300 13348 net.cpp:408] conv5_4/sep -> conv5_4/sep
I0729 21:15:15.753186 13348 net.cpp:150] Setting up conv5_4/sep
I0729 21:15:15.753198 13348 net.cpp:157] Top shape: 16 512 19 19 (2957312)
I0729 21:15:15.753201 13348 net.cpp:165] Memory required for data: 2265882752
I0729 21:15:15.753206 13348 layer_factory.hpp:77] Creating layer conv5_4/sep/bn
I0729 21:15:15.753211 13348 net.cpp:100] Creating Layer conv5_4/sep/bn
I0729 21:15:15.753214 13348 net.cpp:434] conv5_4/sep/bn <- conv5_4/sep
I0729 21:15:15.753218 13348 net.cpp:395] conv5_4/sep/bn -> conv5_4/sep (in-place)
I0729 21:15:15.753389 13348 net.cpp:150] Setting up conv5_4/sep/bn
I0729 21:15:15.753396 13348 net.cpp:157] Top shape: 16 512 19 19 (2957312)
I0729 21:15:15.753398 13348 net.cpp:165] Memory required for data: 2277712000
I0729 21:15:15.753408 13348 layer_factory.hpp:77] Creating layer conv5_4/sep/scale
I0729 21:15:15.753414 13348 net.cpp:100] Creating Layer conv5_4/sep/scale
I0729 21:15:15.753417 13348 net.cpp:434] conv5_4/sep/scale <- conv5_4/sep
I0729 21:15:15.753420 13348 net.cpp:395] conv5_4/sep/scale -> conv5_4/sep (in-place)
I0729 21:15:15.753460 13348 layer_factory.hpp:77] Creating layer conv5_4/sep/scale
I0729 21:15:15.753556 13348 net.cpp:150] Setting up conv5_4/sep/scale
I0729 21:15:15.753561 13348 net.cpp:157] Top shape: 16 512 19 19 (2957312)
I0729 21:15:15.753564 13348 net.cpp:165] Memory required for data: 2289541248
I0729 21:15:15.753568 13348 layer_factory.hpp:77] Creating layer conv5_4/sep_relu
I0729 21:15:15.753573 13348 net.cpp:100] Creating Layer conv5_4/sep_relu
I0729 21:15:15.753578 13348 net.cpp:434] conv5_4/sep_relu <- conv5_4/sep
I0729 21:15:15.753582 13348 net.cpp:395] conv5_4/sep_relu -> conv5_4/sep (in-place)
I0729 21:15:15.754148 13348 net.cpp:150] Setting up conv5_4/sep_relu
I0729 21:15:15.754158 13348 net.cpp:157] Top shape: 16 512 19 19 (2957312)
I0729 21:15:15.754160 13348 net.cpp:165] Memory required for data: 2301370496
I0729 21:15:15.754163 13348 layer_factory.hpp:77] Creating layer conv5_5/dw
I0729 21:15:15.754171 13348 net.cpp:100] Creating Layer conv5_5/dw
I0729 21:15:15.754174 13348 net.cpp:434] conv5_5/dw <- conv5_4/sep
I0729 21:15:15.754179 13348 net.cpp:408] conv5_5/dw -> conv5_5/dw
I0729 21:15:15.754385 13348 net.cpp:150] Setting up conv5_5/dw
I0729 21:15:15.754391 13348 net.cpp:157] Top shape: 16 512 19 19 (2957312)
I0729 21:15:15.754395 13348 net.cpp:165] Memory required for data: 2313199744
I0729 21:15:15.754397 13348 layer_factory.hpp:77] Creating layer conv5_5/dw/bn
I0729 21:15:15.754401 13348 net.cpp:100] Creating Layer conv5_5/dw/bn
I0729 21:15:15.754405 13348 net.cpp:434] conv5_5/dw/bn <- conv5_5/dw
I0729 21:15:15.754410 13348 net.cpp:395] conv5_5/dw/bn -> conv5_5/dw (in-place)
I0729 21:15:15.754575 13348 net.cpp:150] Setting up conv5_5/dw/bn
I0729 21:15:15.754581 13348 net.cpp:157] Top shape: 16 512 19 19 (2957312)
I0729 21:15:15.754583 13348 net.cpp:165] Memory required for data: 2325028992
I0729 21:15:15.754597 13348 layer_factory.hpp:77] Creating layer conv5_5/dw/scale
I0729 21:15:15.754603 13348 net.cpp:100] Creating Layer conv5_5/dw/scale
I0729 21:15:15.754606 13348 net.cpp:434] conv5_5/dw/scale <- conv5_5/dw
I0729 21:15:15.754609 13348 net.cpp:395] conv5_5/dw/scale -> conv5_5/dw (in-place)
I0729 21:15:15.754652 13348 layer_factory.hpp:77] Creating layer conv5_5/dw/scale
I0729 21:15:15.754747 13348 net.cpp:150] Setting up conv5_5/dw/scale
I0729 21:15:15.754752 13348 net.cpp:157] Top shape: 16 512 19 19 (2957312)
I0729 21:15:15.754755 13348 net.cpp:165] Memory required for data: 2336858240
I0729 21:15:15.754760 13348 layer_factory.hpp:77] Creating layer conv5_5/dw_relu
I0729 21:15:15.754763 13348 net.cpp:100] Creating Layer conv5_5/dw_relu
I0729 21:15:15.754765 13348 net.cpp:434] conv5_5/dw_relu <- conv5_5/dw
I0729 21:15:15.754771 13348 net.cpp:395] conv5_5/dw_relu -> conv5_5/dw (in-place)
I0729 21:15:15.754914 13348 net.cpp:150] Setting up conv5_5/dw_relu
I0729 21:15:15.754922 13348 net.cpp:157] Top shape: 16 512 19 19 (2957312)
I0729 21:15:15.754925 13348 net.cpp:165] Memory required for data: 2348687488
I0729 21:15:15.754927 13348 layer_factory.hpp:77] Creating layer conv5_5/sep
I0729 21:15:15.754933 13348 net.cpp:100] Creating Layer conv5_5/sep
I0729 21:15:15.754936 13348 net.cpp:434] conv5_5/sep <- conv5_5/dw
I0729 21:15:15.754940 13348 net.cpp:408] conv5_5/sep -> conv5_5/sep
I0729 21:15:15.758829 13348 net.cpp:150] Setting up conv5_5/sep
I0729 21:15:15.758841 13348 net.cpp:157] Top shape: 16 512 19 19 (2957312)
I0729 21:15:15.758844 13348 net.cpp:165] Memory required for data: 2360516736
I0729 21:15:15.758848 13348 layer_factory.hpp:77] Creating layer conv5_5/sep/bn
I0729 21:15:15.758854 13348 net.cpp:100] Creating Layer conv5_5/sep/bn
I0729 21:15:15.758857 13348 net.cpp:434] conv5_5/sep/bn <- conv5_5/sep
I0729 21:15:15.758862 13348 net.cpp:395] conv5_5/sep/bn -> conv5_5/sep (in-place)
I0729 21:15:15.759039 13348 net.cpp:150] Setting up conv5_5/sep/bn
I0729 21:15:15.759045 13348 net.cpp:157] Top shape: 16 512 19 19 (2957312)
I0729 21:15:15.759048 13348 net.cpp:165] Memory required for data: 2372345984
I0729 21:15:15.759053 13348 layer_factory.hpp:77] Creating layer conv5_5/sep/scale
I0729 21:15:15.759058 13348 net.cpp:100] Creating Layer conv5_5/sep/scale
I0729 21:15:15.759061 13348 net.cpp:434] conv5_5/sep/scale <- conv5_5/sep
I0729 21:15:15.759065 13348 net.cpp:395] conv5_5/sep/scale -> conv5_5/sep (in-place)
I0729 21:15:15.759104 13348 layer_factory.hpp:77] Creating layer conv5_5/sep/scale
I0729 21:15:15.759202 13348 net.cpp:150] Setting up conv5_5/sep/scale
I0729 21:15:15.759208 13348 net.cpp:157] Top shape: 16 512 19 19 (2957312)
I0729 21:15:15.759213 13348 net.cpp:165] Memory required for data: 2384175232
I0729 21:15:15.759218 13348 layer_factory.hpp:77] Creating layer conv5_5/sep_relu
I0729 21:15:15.759222 13348 net.cpp:100] Creating Layer conv5_5/sep_relu
I0729 21:15:15.759225 13348 net.cpp:434] conv5_5/sep_relu <- conv5_5/sep
I0729 21:15:15.759228 13348 net.cpp:395] conv5_5/sep_relu -> conv5_5/sep (in-place)
I0729 21:15:15.759804 13348 net.cpp:150] Setting up conv5_5/sep_relu
I0729 21:15:15.759814 13348 net.cpp:157] Top shape: 16 512 19 19 (2957312)
I0729 21:15:15.759815 13348 net.cpp:165] Memory required for data: 2396004480
I0729 21:15:15.759819 13348 layer_factory.hpp:77] Creating layer conv5_5/sep_conv5_5/sep_relu_0_split
I0729 21:15:15.759824 13348 net.cpp:100] Creating Layer conv5_5/sep_conv5_5/sep_relu_0_split
I0729 21:15:15.759827 13348 net.cpp:434] conv5_5/sep_conv5_5/sep_relu_0_split <- conv5_5/sep
I0729 21:15:15.759832 13348 net.cpp:408] conv5_5/sep_conv5_5/sep_relu_0_split -> conv5_5/sep_conv5_5/sep_relu_0_split_0
I0729 21:15:15.759841 13348 net.cpp:408] conv5_5/sep_conv5_5/sep_relu_0_split -> conv5_5/sep_conv5_5/sep_relu_0_split_1
I0729 21:15:15.759847 13348 net.cpp:408] conv5_5/sep_conv5_5/sep_relu_0_split -> conv5_5/sep_conv5_5/sep_relu_0_split_2
I0729 21:15:15.759851 13348 net.cpp:408] conv5_5/sep_conv5_5/sep_relu_0_split -> conv5_5/sep_conv5_5/sep_relu_0_split_3
I0729 21:15:15.759912 13348 net.cpp:150] Setting up conv5_5/sep_conv5_5/sep_relu_0_split
I0729 21:15:15.759917 13348 net.cpp:157] Top shape: 16 512 19 19 (2957312)
I0729 21:15:15.759920 13348 net.cpp:157] Top shape: 16 512 19 19 (2957312)
I0729 21:15:15.759923 13348 net.cpp:157] Top shape: 16 512 19 19 (2957312)
I0729 21:15:15.759927 13348 net.cpp:157] Top shape: 16 512 19 19 (2957312)
I0729 21:15:15.759928 13348 net.cpp:165] Memory required for data: 2443321472
I0729 21:15:15.759932 13348 layer_factory.hpp:77] Creating layer conv5_6/dw
I0729 21:15:15.759939 13348 net.cpp:100] Creating Layer conv5_6/dw
I0729 21:15:15.759943 13348 net.cpp:434] conv5_6/dw <- conv5_5/sep_conv5_5/sep_relu_0_split_0
I0729 21:15:15.759948 13348 net.cpp:408] conv5_6/dw -> conv5_6/dw
I0729 21:15:15.760141 13348 net.cpp:150] Setting up conv5_6/dw
I0729 21:15:15.760148 13348 net.cpp:157] Top shape: 16 512 10 10 (819200)
I0729 21:15:15.760149 13348 net.cpp:165] Memory required for data: 2446598272
I0729 21:15:15.760154 13348 layer_factory.hpp:77] Creating layer conv5_6/dw/bn
I0729 21:15:15.760157 13348 net.cpp:100] Creating Layer conv5_6/dw/bn
I0729 21:15:15.760160 13348 net.cpp:434] conv5_6/dw/bn <- conv5_6/dw
I0729 21:15:15.760164 13348 net.cpp:395] conv5_6/dw/bn -> conv5_6/dw (in-place)
I0729 21:15:15.760330 13348 net.cpp:150] Setting up conv5_6/dw/bn
I0729 21:15:15.760335 13348 net.cpp:157] Top shape: 16 512 10 10 (819200)
I0729 21:15:15.760337 13348 net.cpp:165] Memory required for data: 2449875072
I0729 21:15:15.760344 13348 layer_factory.hpp:77] Creating layer conv5_6/dw/scale
I0729 21:15:15.760350 13348 net.cpp:100] Creating Layer conv5_6/dw/scale
I0729 21:15:15.760354 13348 net.cpp:434] conv5_6/dw/scale <- conv5_6/dw
I0729 21:15:15.760357 13348 net.cpp:395] conv5_6/dw/scale -> conv5_6/dw (in-place)
I0729 21:15:15.760390 13348 layer_factory.hpp:77] Creating layer conv5_6/dw/scale
I0729 21:15:15.760495 13348 net.cpp:150] Setting up conv5_6/dw/scale
I0729 21:15:15.760507 13348 net.cpp:157] Top shape: 16 512 10 10 (819200)
I0729 21:15:15.760510 13348 net.cpp:165] Memory required for data: 2453151872
I0729 21:15:15.760515 13348 layer_factory.hpp:77] Creating layer conv5_6/dw_relu
I0729 21:15:15.760520 13348 net.cpp:100] Creating Layer conv5_6/dw_relu
I0729 21:15:15.760524 13348 net.cpp:434] conv5_6/dw_relu <- conv5_6/dw
I0729 21:15:15.760527 13348 net.cpp:395] conv5_6/dw_relu -> conv5_6/dw (in-place)
I0729 21:15:15.761085 13348 net.cpp:150] Setting up conv5_6/dw_relu
I0729 21:15:15.761095 13348 net.cpp:157] Top shape: 16 512 10 10 (819200)
I0729 21:15:15.761096 13348 net.cpp:165] Memory required for data: 2456428672
I0729 21:15:15.761099 13348 layer_factory.hpp:77] Creating layer conv5_6/sep
I0729 21:15:15.761111 13348 net.cpp:100] Creating Layer conv5_6/sep
I0729 21:15:15.761114 13348 net.cpp:434] conv5_6/sep <- conv5_6/dw
I0729 21:15:15.761121 13348 net.cpp:408] conv5_6/sep -> conv5_6/sep
I0729 21:15:15.767289 13348 net.cpp:150] Setting up conv5_6/sep
I0729 21:15:15.767302 13348 net.cpp:157] Top shape: 16 1024 10 10 (1638400)
I0729 21:15:15.767305 13348 net.cpp:165] Memory required for data: 2462982272
I0729 21:15:15.767309 13348 layer_factory.hpp:77] Creating layer conv5_6/sep/bn
I0729 21:15:15.767314 13348 net.cpp:100] Creating Layer conv5_6/sep/bn
I0729 21:15:15.767318 13348 net.cpp:434] conv5_6/sep/bn <- conv5_6/sep
I0729 21:15:15.767323 13348 net.cpp:395] conv5_6/sep/bn -> conv5_6/sep (in-place)
I0729 21:15:15.767494 13348 net.cpp:150] Setting up conv5_6/sep/bn
I0729 21:15:15.767500 13348 net.cpp:157] Top shape: 16 1024 10 10 (1638400)
I0729 21:15:15.767503 13348 net.cpp:165] Memory required for data: 2469535872
I0729 21:15:15.767508 13348 layer_factory.hpp:77] Creating layer conv5_6/sep/scale
I0729 21:15:15.767513 13348 net.cpp:100] Creating Layer conv5_6/sep/scale
I0729 21:15:15.767516 13348 net.cpp:434] conv5_6/sep/scale <- conv5_6/sep
I0729 21:15:15.767521 13348 net.cpp:395] conv5_6/sep/scale -> conv5_6/sep (in-place)
I0729 21:15:15.767554 13348 layer_factory.hpp:77] Creating layer conv5_6/sep/scale
I0729 21:15:15.767653 13348 net.cpp:150] Setting up conv5_6/sep/scale
I0729 21:15:15.767658 13348 net.cpp:157] Top shape: 16 1024 10 10 (1638400)
I0729 21:15:15.767660 13348 net.cpp:165] Memory required for data: 2476089472
I0729 21:15:15.767665 13348 layer_factory.hpp:77] Creating layer conv5_6/sep_relu
I0729 21:15:15.767669 13348 net.cpp:100] Creating Layer conv5_6/sep_relu
I0729 21:15:15.767671 13348 net.cpp:434] conv5_6/sep_relu <- conv5_6/sep
I0729 21:15:15.767675 13348 net.cpp:395] conv5_6/sep_relu -> conv5_6/sep (in-place)
I0729 21:15:15.767823 13348 net.cpp:150] Setting up conv5_6/sep_relu
I0729 21:15:15.767830 13348 net.cpp:157] Top shape: 16 1024 10 10 (1638400)
I0729 21:15:15.767833 13348 net.cpp:165] Memory required for data: 2482643072
I0729 21:15:15.767835 13348 layer_factory.hpp:77] Creating layer conv6/dw
I0729 21:15:15.767843 13348 net.cpp:100] Creating Layer conv6/dw
I0729 21:15:15.767845 13348 net.cpp:434] conv6/dw <- conv5_6/sep
I0729 21:15:15.767850 13348 net.cpp:408] conv6/dw -> conv6/dw
I0729 21:15:15.768097 13348 net.cpp:150] Setting up conv6/dw
I0729 21:15:15.768103 13348 net.cpp:157] Top shape: 16 1024 10 10 (1638400)
I0729 21:15:15.768106 13348 net.cpp:165] Memory required for data: 2489196672
I0729 21:15:15.768110 13348 layer_factory.hpp:77] Creating layer conv6/dw/bn
I0729 21:15:15.768113 13348 net.cpp:100] Creating Layer conv6/dw/bn
I0729 21:15:15.768116 13348 net.cpp:434] conv6/dw/bn <- conv6/dw
I0729 21:15:15.768121 13348 net.cpp:395] conv6/dw/bn -> conv6/dw (in-place)
I0729 21:15:15.768285 13348 net.cpp:150] Setting up conv6/dw/bn
I0729 21:15:15.768290 13348 net.cpp:157] Top shape: 16 1024 10 10 (1638400)
I0729 21:15:15.768292 13348 net.cpp:165] Memory required for data: 2495750272
I0729 21:15:15.768297 13348 layer_factory.hpp:77] Creating layer conv6/dw/scale
I0729 21:15:15.768301 13348 net.cpp:100] Creating Layer conv6/dw/scale
I0729 21:15:15.768304 13348 net.cpp:434] conv6/dw/scale <- conv6/dw
I0729 21:15:15.768316 13348 net.cpp:395] conv6/dw/scale -> conv6/dw (in-place)
I0729 21:15:15.768350 13348 layer_factory.hpp:77] Creating layer conv6/dw/scale
I0729 21:15:15.768452 13348 net.cpp:150] Setting up conv6/dw/scale
I0729 21:15:15.768460 13348 net.cpp:157] Top shape: 16 1024 10 10 (1638400)
I0729 21:15:15.768461 13348 net.cpp:165] Memory required for data: 2502303872
I0729 21:15:15.768466 13348 layer_factory.hpp:77] Creating layer conv6/dw_relu
I0729 21:15:15.768471 13348 net.cpp:100] Creating Layer conv6/dw_relu
I0729 21:15:15.768472 13348 net.cpp:434] conv6/dw_relu <- conv6/dw
I0729 21:15:15.768476 13348 net.cpp:395] conv6/dw_relu -> conv6/dw (in-place)
I0729 21:15:15.769042 13348 net.cpp:150] Setting up conv6/dw_relu
I0729 21:15:15.769052 13348 net.cpp:157] Top shape: 16 1024 10 10 (1638400)
I0729 21:15:15.769058 13348 net.cpp:165] Memory required for data: 2508857472
I0729 21:15:15.769060 13348 layer_factory.hpp:77] Creating layer conv6/sep
I0729 21:15:15.769068 13348 net.cpp:100] Creating Layer conv6/sep
I0729 21:15:15.769073 13348 net.cpp:434] conv6/sep <- conv6/dw
I0729 21:15:15.769076 13348 net.cpp:408] conv6/sep -> conv6/sep
I0729 21:15:15.779772 13348 net.cpp:150] Setting up conv6/sep
I0729 21:15:15.779784 13348 net.cpp:157] Top shape: 16 1024 10 10 (1638400)
I0729 21:15:15.779788 13348 net.cpp:165] Memory required for data: 2515411072
I0729 21:15:15.779793 13348 layer_factory.hpp:77] Creating layer conv6/sep/bn
I0729 21:15:15.779798 13348 net.cpp:100] Creating Layer conv6/sep/bn
I0729 21:15:15.779801 13348 net.cpp:434] conv6/sep/bn <- conv6/sep
I0729 21:15:15.779805 13348 net.cpp:395] conv6/sep/bn -> conv6/sep (in-place)
I0729 21:15:15.779979 13348 net.cpp:150] Setting up conv6/sep/bn
I0729 21:15:15.779985 13348 net.cpp:157] Top shape: 16 1024 10 10 (1638400)
I0729 21:15:15.779988 13348 net.cpp:165] Memory required for data: 2521964672
I0729 21:15:15.779994 13348 layer_factory.hpp:77] Creating layer conv6/sep/scale
I0729 21:15:15.779999 13348 net.cpp:100] Creating Layer conv6/sep/scale
I0729 21:15:15.780002 13348 net.cpp:434] conv6/sep/scale <- conv6/sep
I0729 21:15:15.780005 13348 net.cpp:395] conv6/sep/scale -> conv6/sep (in-place)
I0729 21:15:15.780041 13348 layer_factory.hpp:77] Creating layer conv6/sep/scale
I0729 21:15:15.780140 13348 net.cpp:150] Setting up conv6/sep/scale
I0729 21:15:15.780146 13348 net.cpp:157] Top shape: 16 1024 10 10 (1638400)
I0729 21:15:15.780148 13348 net.cpp:165] Memory required for data: 2528518272
I0729 21:15:15.780153 13348 layer_factory.hpp:77] Creating layer conv6/sep_relu
I0729 21:15:15.780158 13348 net.cpp:100] Creating Layer conv6/sep_relu
I0729 21:15:15.780161 13348 net.cpp:434] conv6/sep_relu <- conv6/sep
I0729 21:15:15.780164 13348 net.cpp:395] conv6/sep_relu -> conv6/sep (in-place)
I0729 21:15:15.780309 13348 net.cpp:150] Setting up conv6/sep_relu
I0729 21:15:15.780316 13348 net.cpp:157] Top shape: 16 1024 10 10 (1638400)
I0729 21:15:15.780318 13348 net.cpp:165] Memory required for data: 2535071872
I0729 21:15:15.780321 13348 layer_factory.hpp:77] Creating layer conv6/sep_conv6/sep_relu_0_split
I0729 21:15:15.780326 13348 net.cpp:100] Creating Layer conv6/sep_conv6/sep_relu_0_split
I0729 21:15:15.780328 13348 net.cpp:434] conv6/sep_conv6/sep_relu_0_split <- conv6/sep
I0729 21:15:15.780333 13348 net.cpp:408] conv6/sep_conv6/sep_relu_0_split -> conv6/sep_conv6/sep_relu_0_split_0
I0729 21:15:15.780339 13348 net.cpp:408] conv6/sep_conv6/sep_relu_0_split -> conv6/sep_conv6/sep_relu_0_split_1
I0729 21:15:15.780344 13348 net.cpp:408] conv6/sep_conv6/sep_relu_0_split -> conv6/sep_conv6/sep_relu_0_split_2
I0729 21:15:15.780349 13348 net.cpp:408] conv6/sep_conv6/sep_relu_0_split -> conv6/sep_conv6/sep_relu_0_split_3
I0729 21:15:15.780411 13348 net.cpp:150] Setting up conv6/sep_conv6/sep_relu_0_split
I0729 21:15:15.780416 13348 net.cpp:157] Top shape: 16 1024 10 10 (1638400)
I0729 21:15:15.780419 13348 net.cpp:157] Top shape: 16 1024 10 10 (1638400)
I0729 21:15:15.780422 13348 net.cpp:157] Top shape: 16 1024 10 10 (1638400)
I0729 21:15:15.780426 13348 net.cpp:157] Top shape: 16 1024 10 10 (1638400)
I0729 21:15:15.780434 13348 net.cpp:165] Memory required for data: 2561286272
I0729 21:15:15.780437 13348 layer_factory.hpp:77] Creating layer conv7_1
I0729 21:15:15.780448 13348 net.cpp:100] Creating Layer conv7_1
I0729 21:15:15.780452 13348 net.cpp:434] conv7_1 <- conv6/sep_conv6/sep_relu_0_split_0
I0729 21:15:15.780458 13348 net.cpp:408] conv7_1 -> conv7_1
I0729 21:15:15.783473 13348 net.cpp:150] Setting up conv7_1
I0729 21:15:15.783483 13348 net.cpp:157] Top shape: 16 256 10 10 (409600)
I0729 21:15:15.783486 13348 net.cpp:165] Memory required for data: 2562924672
I0729 21:15:15.783491 13348 layer_factory.hpp:77] Creating layer conv7_1_relu
I0729 21:15:15.783496 13348 net.cpp:100] Creating Layer conv7_1_relu
I0729 21:15:15.783500 13348 net.cpp:434] conv7_1_relu <- conv7_1
I0729 21:15:15.783507 13348 net.cpp:395] conv7_1_relu -> conv7_1 (in-place)
I0729 21:15:15.784077 13348 net.cpp:150] Setting up conv7_1_relu
I0729 21:15:15.784087 13348 net.cpp:157] Top shape: 16 256 10 10 (409600)
I0729 21:15:15.784090 13348 net.cpp:165] Memory required for data: 2564563072
I0729 21:15:15.784093 13348 layer_factory.hpp:77] Creating layer conv7_2
I0729 21:15:15.784101 13348 net.cpp:100] Creating Layer conv7_2
I0729 21:15:15.784104 13348 net.cpp:434] conv7_2 <- conv7_1
I0729 21:15:15.784109 13348 net.cpp:408] conv7_2 -> conv7_2
I0729 21:15:15.791432 13348 net.cpp:150] Setting up conv7_2
I0729 21:15:15.791445 13348 net.cpp:157] Top shape: 16 512 5 5 (204800)
I0729 21:15:15.791448 13348 net.cpp:165] Memory required for data: 2565382272
I0729 21:15:15.791455 13348 layer_factory.hpp:77] Creating layer conv7_2_relu
I0729 21:15:15.791460 13348 net.cpp:100] Creating Layer conv7_2_relu
I0729 21:15:15.791462 13348 net.cpp:434] conv7_2_relu <- conv7_2
I0729 21:15:15.791465 13348 net.cpp:395] conv7_2_relu -> conv7_2 (in-place)
I0729 21:15:15.792033 13348 net.cpp:150] Setting up conv7_2_relu
I0729 21:15:15.792044 13348 net.cpp:157] Top shape: 16 512 5 5 (204800)
I0729 21:15:15.792047 13348 net.cpp:165] Memory required for data: 2566201472
I0729 21:15:15.792049 13348 layer_factory.hpp:77] Creating layer conv7_2_conv7_2_relu_0_split
I0729 21:15:15.792054 13348 net.cpp:100] Creating Layer conv7_2_conv7_2_relu_0_split
I0729 21:15:15.792057 13348 net.cpp:434] conv7_2_conv7_2_relu_0_split <- conv7_2
I0729 21:15:15.792062 13348 net.cpp:408] conv7_2_conv7_2_relu_0_split -> conv7_2_conv7_2_relu_0_split_0
I0729 21:15:15.792069 13348 net.cpp:408] conv7_2_conv7_2_relu_0_split -> conv7_2_conv7_2_relu_0_split_1
I0729 21:15:15.792074 13348 net.cpp:408] conv7_2_conv7_2_relu_0_split -> conv7_2_conv7_2_relu_0_split_2
I0729 21:15:15.792078 13348 net.cpp:408] conv7_2_conv7_2_relu_0_split -> conv7_2_conv7_2_relu_0_split_3
I0729 21:15:15.792140 13348 net.cpp:150] Setting up conv7_2_conv7_2_relu_0_split
I0729 21:15:15.792145 13348 net.cpp:157] Top shape: 16 512 5 5 (204800)
I0729 21:15:15.792148 13348 net.cpp:157] Top shape: 16 512 5 5 (204800)
I0729 21:15:15.792151 13348 net.cpp:157] Top shape: 16 512 5 5 (204800)
I0729 21:15:15.792155 13348 net.cpp:157] Top shape: 16 512 5 5 (204800)
I0729 21:15:15.792157 13348 net.cpp:165] Memory required for data: 2569478272
I0729 21:15:15.792160 13348 layer_factory.hpp:77] Creating layer conv8_1
I0729 21:15:15.792166 13348 net.cpp:100] Creating Layer conv8_1
I0729 21:15:15.792170 13348 net.cpp:434] conv8_1 <- conv7_2_conv7_2_relu_0_split_0
I0729 21:15:15.792176 13348 net.cpp:408] conv8_1 -> conv8_1
I0729 21:15:15.793997 13348 net.cpp:150] Setting up conv8_1
I0729 21:15:15.794008 13348 net.cpp:157] Top shape: 16 128 5 5 (51200)
I0729 21:15:15.794011 13348 net.cpp:165] Memory required for data: 2569683072
I0729 21:15:15.794016 13348 layer_factory.hpp:77] Creating layer conv8_1_relu
I0729 21:15:15.794023 13348 net.cpp:100] Creating Layer conv8_1_relu
I0729 21:15:15.794025 13348 net.cpp:434] conv8_1_relu <- conv8_1
I0729 21:15:15.794029 13348 net.cpp:395] conv8_1_relu -> conv8_1 (in-place)
I0729 21:15:15.794175 13348 net.cpp:150] Setting up conv8_1_relu
I0729 21:15:15.794183 13348 net.cpp:157] Top shape: 16 128 5 5 (51200)
I0729 21:15:15.794191 13348 net.cpp:165] Memory required for data: 2569887872
I0729 21:15:15.794194 13348 layer_factory.hpp:77] Creating layer conv8_2
I0729 21:15:15.794201 13348 net.cpp:100] Creating Layer conv8_2
I0729 21:15:15.794205 13348 net.cpp:434] conv8_2 <- conv8_1
I0729 21:15:15.794210 13348 net.cpp:408] conv8_2 -> conv8_2
I0729 21:15:15.797410 13348 net.cpp:150] Setting up conv8_2
I0729 21:15:15.797422 13348 net.cpp:157] Top shape: 16 256 3 3 (36864)
I0729 21:15:15.797425 13348 net.cpp:165] Memory required for data: 2570035328
I0729 21:15:15.797430 13348 layer_factory.hpp:77] Creating layer conv8_2_relu
I0729 21:15:15.797435 13348 net.cpp:100] Creating Layer conv8_2_relu
I0729 21:15:15.797438 13348 net.cpp:434] conv8_2_relu <- conv8_2
I0729 21:15:15.797443 13348 net.cpp:395] conv8_2_relu -> conv8_2 (in-place)
I0729 21:15:15.798017 13348 net.cpp:150] Setting up conv8_2_relu
I0729 21:15:15.798027 13348 net.cpp:157] Top shape: 16 256 3 3 (36864)
I0729 21:15:15.798029 13348 net.cpp:165] Memory required for data: 2570182784
I0729 21:15:15.798032 13348 layer_factory.hpp:77] Creating layer conv8_2_conv8_2_relu_0_split
I0729 21:15:15.798038 13348 net.cpp:100] Creating Layer conv8_2_conv8_2_relu_0_split
I0729 21:15:15.798040 13348 net.cpp:434] conv8_2_conv8_2_relu_0_split <- conv8_2
I0729 21:15:15.798045 13348 net.cpp:408] conv8_2_conv8_2_relu_0_split -> conv8_2_conv8_2_relu_0_split_0
I0729 21:15:15.798051 13348 net.cpp:408] conv8_2_conv8_2_relu_0_split -> conv8_2_conv8_2_relu_0_split_1
I0729 21:15:15.798058 13348 net.cpp:408] conv8_2_conv8_2_relu_0_split -> conv8_2_conv8_2_relu_0_split_2
I0729 21:15:15.798061 13348 net.cpp:408] conv8_2_conv8_2_relu_0_split -> conv8_2_conv8_2_relu_0_split_3
I0729 21:15:15.798125 13348 net.cpp:150] Setting up conv8_2_conv8_2_relu_0_split
I0729 21:15:15.798130 13348 net.cpp:157] Top shape: 16 256 3 3 (36864)
I0729 21:15:15.798133 13348 net.cpp:157] Top shape: 16 256 3 3 (36864)
I0729 21:15:15.798137 13348 net.cpp:157] Top shape: 16 256 3 3 (36864)
I0729 21:15:15.798141 13348 net.cpp:157] Top shape: 16 256 3 3 (36864)
I0729 21:15:15.798142 13348 net.cpp:165] Memory required for data: 2570772608
I0729 21:15:15.798144 13348 layer_factory.hpp:77] Creating layer conv9_1
I0729 21:15:15.798153 13348 net.cpp:100] Creating Layer conv9_1
I0729 21:15:15.798156 13348 net.cpp:434] conv9_1 <- conv8_2_conv8_2_relu_0_split_0
I0729 21:15:15.798161 13348 net.cpp:408] conv9_1 -> conv9_1
I0729 21:15:15.799412 13348 net.cpp:150] Setting up conv9_1
I0729 21:15:15.799422 13348 net.cpp:157] Top shape: 16 128 3 3 (18432)
I0729 21:15:15.799425 13348 net.cpp:165] Memory required for data: 2570846336
I0729 21:15:15.799430 13348 layer_factory.hpp:77] Creating layer conv9_1_relu
I0729 21:15:15.799437 13348 net.cpp:100] Creating Layer conv9_1_relu
I0729 21:15:15.799439 13348 net.cpp:434] conv9_1_relu <- conv9_1
I0729 21:15:15.799443 13348 net.cpp:395] conv9_1_relu -> conv9_1 (in-place)
I0729 21:15:15.800009 13348 net.cpp:150] Setting up conv9_1_relu
I0729 21:15:15.800019 13348 net.cpp:157] Top shape: 16 128 3 3 (18432)
I0729 21:15:15.800021 13348 net.cpp:165] Memory required for data: 2570920064
I0729 21:15:15.800024 13348 layer_factory.hpp:77] Creating layer conv9_2
I0729 21:15:15.800032 13348 net.cpp:100] Creating Layer conv9_2
I0729 21:15:15.800035 13348 net.cpp:434] conv9_2 <- conv9_1
I0729 21:15:15.800041 13348 net.cpp:408] conv9_2 -> conv9_2
I0729 21:15:15.803644 13348 net.cpp:150] Setting up conv9_2
I0729 21:15:15.803658 13348 net.cpp:157] Top shape: 16 256 2 2 (16384)
I0729 21:15:15.803660 13348 net.cpp:165] Memory required for data: 2570985600
I0729 21:15:15.803665 13348 layer_factory.hpp:77] Creating layer conv9_2_relu
I0729 21:15:15.803670 13348 net.cpp:100] Creating Layer conv9_2_relu
I0729 21:15:15.803673 13348 net.cpp:434] conv9_2_relu <- conv9_2
I0729 21:15:15.803678 13348 net.cpp:395] conv9_2_relu -> conv9_2 (in-place)
I0729 21:15:15.803833 13348 net.cpp:150] Setting up conv9_2_relu
I0729 21:15:15.803840 13348 net.cpp:157] Top shape: 16 256 2 2 (16384)
I0729 21:15:15.803843 13348 net.cpp:165] Memory required for data: 2571051136
I0729 21:15:15.803851 13348 layer_factory.hpp:77] Creating layer conv9_2_conv9_2_relu_0_split
I0729 21:15:15.803856 13348 net.cpp:100] Creating Layer conv9_2_conv9_2_relu_0_split
I0729 21:15:15.803859 13348 net.cpp:434] conv9_2_conv9_2_relu_0_split <- conv9_2
I0729 21:15:15.803864 13348 net.cpp:408] conv9_2_conv9_2_relu_0_split -> conv9_2_conv9_2_relu_0_split_0
I0729 21:15:15.803870 13348 net.cpp:408] conv9_2_conv9_2_relu_0_split -> conv9_2_conv9_2_relu_0_split_1
I0729 21:15:15.803876 13348 net.cpp:408] conv9_2_conv9_2_relu_0_split -> conv9_2_conv9_2_relu_0_split_2
I0729 21:15:15.803881 13348 net.cpp:408] conv9_2_conv9_2_relu_0_split -> conv9_2_conv9_2_relu_0_split_3
I0729 21:15:15.803943 13348 net.cpp:150] Setting up conv9_2_conv9_2_relu_0_split
I0729 21:15:15.803951 13348 net.cpp:157] Top shape: 16 256 2 2 (16384)
I0729 21:15:15.803956 13348 net.cpp:157] Top shape: 16 256 2 2 (16384)
I0729 21:15:15.803958 13348 net.cpp:157] Top shape: 16 256 2 2 (16384)
I0729 21:15:15.803961 13348 net.cpp:157] Top shape: 16 256 2 2 (16384)
I0729 21:15:15.803963 13348 net.cpp:165] Memory required for data: 2571313280
I0729 21:15:15.803966 13348 layer_factory.hpp:77] Creating layer conv10_1
I0729 21:15:15.803974 13348 net.cpp:100] Creating Layer conv10_1
I0729 21:15:15.803977 13348 net.cpp:434] conv10_1 <- conv9_2_conv9_2_relu_0_split_0
I0729 21:15:15.803982 13348 net.cpp:408] conv10_1 -> conv10_1
I0729 21:15:15.805660 13348 net.cpp:150] Setting up conv10_1
I0729 21:15:15.805671 13348 net.cpp:157] Top shape: 16 128 2 2 (8192)
I0729 21:15:15.805675 13348 net.cpp:165] Memory required for data: 2571346048
I0729 21:15:15.805680 13348 layer_factory.hpp:77] Creating layer conv10_1_relu
I0729 21:15:15.805699 13348 net.cpp:100] Creating Layer conv10_1_relu
I0729 21:15:15.805702 13348 net.cpp:434] conv10_1_relu <- conv10_1
I0729 21:15:15.805706 13348 net.cpp:395] conv10_1_relu -> conv10_1 (in-place)
I0729 21:15:15.806277 13348 net.cpp:150] Setting up conv10_1_relu
I0729 21:15:15.806288 13348 net.cpp:157] Top shape: 16 128 2 2 (8192)
I0729 21:15:15.806289 13348 net.cpp:165] Memory required for data: 2571378816
I0729 21:15:15.806293 13348 layer_factory.hpp:77] Creating layer conv10_2
I0729 21:15:15.806300 13348 net.cpp:100] Creating Layer conv10_2
I0729 21:15:15.806304 13348 net.cpp:434] conv10_2 <- conv10_1
I0729 21:15:15.806309 13348 net.cpp:408] conv10_2 -> conv10_2
I0729 21:15:15.809109 13348 net.cpp:150] Setting up conv10_2
I0729 21:15:15.809121 13348 net.cpp:157] Top shape: 16 256 1 1 (4096)
I0729 21:15:15.809124 13348 net.cpp:165] Memory required for data: 2571395200
I0729 21:15:15.809129 13348 layer_factory.hpp:77] Creating layer conv10_2_relu
I0729 21:15:15.809134 13348 net.cpp:100] Creating Layer conv10_2_relu
I0729 21:15:15.809137 13348 net.cpp:434] conv10_2_relu <- conv10_2
I0729 21:15:15.809141 13348 net.cpp:395] conv10_2_relu -> conv10_2 (in-place)
I0729 21:15:15.809710 13348 net.cpp:150] Setting up conv10_2_relu
I0729 21:15:15.809720 13348 net.cpp:157] Top shape: 16 256 1 1 (4096)
I0729 21:15:15.809722 13348 net.cpp:165] Memory required for data: 2571411584
I0729 21:15:15.809725 13348 layer_factory.hpp:77] Creating layer conv10_2_conv10_2_relu_0_split
I0729 21:15:15.809731 13348 net.cpp:100] Creating Layer conv10_2_conv10_2_relu_0_split
I0729 21:15:15.809734 13348 net.cpp:434] conv10_2_conv10_2_relu_0_split <- conv10_2
I0729 21:15:15.809739 13348 net.cpp:408] conv10_2_conv10_2_relu_0_split -> conv10_2_conv10_2_relu_0_split_0
I0729 21:15:15.809752 13348 net.cpp:408] conv10_2_conv10_2_relu_0_split -> conv10_2_conv10_2_relu_0_split_1
I0729 21:15:15.809757 13348 net.cpp:408] conv10_2_conv10_2_relu_0_split -> conv10_2_conv10_2_relu_0_split_2
I0729 21:15:15.809811 13348 net.cpp:150] Setting up conv10_2_conv10_2_relu_0_split
I0729 21:15:15.809818 13348 net.cpp:157] Top shape: 16 256 1 1 (4096)
I0729 21:15:15.809821 13348 net.cpp:157] Top shape: 16 256 1 1 (4096)
I0729 21:15:15.809824 13348 net.cpp:157] Top shape: 16 256 1 1 (4096)
I0729 21:15:15.809826 13348 net.cpp:165] Memory required for data: 2571460736
I0729 21:15:15.809835 13348 layer_factory.hpp:77] Creating layer conv5_5/sep_mbox_loc
I0729 21:15:15.809844 13348 net.cpp:100] Creating Layer conv5_5/sep_mbox_loc
I0729 21:15:15.809846 13348 net.cpp:434] conv5_5/sep_mbox_loc <- conv5_5/sep_conv5_5/sep_relu_0_split_1
I0729 21:15:15.809852 13348 net.cpp:408] conv5_5/sep_mbox_loc -> conv5_5/sep_mbox_loc
I0729 21:15:15.812084 13348 net.cpp:150] Setting up conv5_5/sep_mbox_loc
I0729 21:15:15.812095 13348 net.cpp:157] Top shape: 16 12 19 19 (69312)
I0729 21:15:15.812098 13348 net.cpp:165] Memory required for data: 2571737984
I0729 21:15:15.812103 13348 layer_factory.hpp:77] Creating layer conv5_5/sep_mbox_loc_perm
I0729 21:15:15.812110 13348 net.cpp:100] Creating Layer conv5_5/sep_mbox_loc_perm
I0729 21:15:15.812114 13348 net.cpp:434] conv5_5/sep_mbox_loc_perm <- conv5_5/sep_mbox_loc
I0729 21:15:15.812126 13348 net.cpp:408] conv5_5/sep_mbox_loc_perm -> conv5_5/sep_mbox_loc_perm
I0729 21:15:15.812233 13348 net.cpp:150] Setting up conv5_5/sep_mbox_loc_perm
I0729 21:15:15.812239 13348 net.cpp:157] Top shape: 16 19 19 12 (69312)
I0729 21:15:15.812242 13348 net.cpp:165] Memory required for data: 2572015232
I0729 21:15:15.812244 13348 layer_factory.hpp:77] Creating layer conv5_5/sep_mbox_loc_flat
I0729 21:15:15.812250 13348 net.cpp:100] Creating Layer conv5_5/sep_mbox_loc_flat
I0729 21:15:15.812254 13348 net.cpp:434] conv5_5/sep_mbox_loc_flat <- conv5_5/sep_mbox_loc_perm
I0729 21:15:15.812258 13348 net.cpp:408] conv5_5/sep_mbox_loc_flat -> conv5_5/sep_mbox_loc_flat
I0729 21:15:15.812284 13348 net.cpp:150] Setting up conv5_5/sep_mbox_loc_flat
I0729 21:15:15.812289 13348 net.cpp:157] Top shape: 16 4332 (69312)
I0729 21:15:15.812291 13348 net.cpp:165] Memory required for data: 2572292480
I0729 21:15:15.812294 13348 layer_factory.hpp:77] Creating layer conv5_5/sep_mbox_conf
I0729 21:15:15.812301 13348 net.cpp:100] Creating Layer conv5_5/sep_mbox_conf
I0729 21:15:15.812304 13348 net.cpp:434] conv5_5/sep_mbox_conf <- conv5_5/sep_conv5_5/sep_relu_0_split_2
I0729 21:15:15.812310 13348 net.cpp:408] conv5_5/sep_mbox_conf -> conv5_5/sep_mbox_conf
I0729 21:15:15.814828 13348 net.cpp:150] Setting up conv5_5/sep_mbox_conf
I0729 21:15:15.814841 13348 net.cpp:157] Top shape: 16 9 19 19 (51984)
I0729 21:15:15.814843 13348 net.cpp:165] Memory required for data: 2572500416
I0729 21:15:15.814849 13348 layer_factory.hpp:77] Creating layer conv5_5/sep_mbox_conf_perm
I0729 21:15:15.814854 13348 net.cpp:100] Creating Layer conv5_5/sep_mbox_conf_perm
I0729 21:15:15.814857 13348 net.cpp:434] conv5_5/sep_mbox_conf_perm <- conv5_5/sep_mbox_conf
I0729 21:15:15.814862 13348 net.cpp:408] conv5_5/sep_mbox_conf_perm -> conv5_5/sep_mbox_conf_perm
I0729 21:15:15.814965 13348 net.cpp:150] Setting up conv5_5/sep_mbox_conf_perm
I0729 21:15:15.814970 13348 net.cpp:157] Top shape: 16 19 19 9 (51984)
I0729 21:15:15.814972 13348 net.cpp:165] Memory required for data: 2572708352
I0729 21:15:15.814975 13348 layer_factory.hpp:77] Creating layer conv5_5/sep_mbox_conf_flat
I0729 21:15:15.814980 13348 net.cpp:100] Creating Layer conv5_5/sep_mbox_conf_flat
I0729 21:15:15.814982 13348 net.cpp:434] conv5_5/sep_mbox_conf_flat <- conv5_5/sep_mbox_conf_perm
I0729 21:15:15.814990 13348 net.cpp:408] conv5_5/sep_mbox_conf_flat -> conv5_5/sep_mbox_conf_flat
I0729 21:15:15.815016 13348 net.cpp:150] Setting up conv5_5/sep_mbox_conf_flat
I0729 21:15:15.815021 13348 net.cpp:157] Top shape: 16 3249 (51984)
I0729 21:15:15.815022 13348 net.cpp:165] Memory required for data: 2572916288
I0729 21:15:15.815026 13348 layer_factory.hpp:77] Creating layer conv5_5/sep_mbox_priorbox
I0729 21:15:15.815032 13348 net.cpp:100] Creating Layer conv5_5/sep_mbox_priorbox
I0729 21:15:15.815034 13348 net.cpp:434] conv5_5/sep_mbox_priorbox <- conv5_5/sep_conv5_5/sep_relu_0_split_3
I0729 21:15:15.815037 13348 net.cpp:434] conv5_5/sep_mbox_priorbox <- data_data_0_split_1
I0729 21:15:15.815043 13348 net.cpp:408] conv5_5/sep_mbox_priorbox -> conv5_5/sep_mbox_priorbox
I0729 21:15:15.815071 13348 net.cpp:150] Setting up conv5_5/sep_mbox_priorbox
I0729 21:15:15.815076 13348 net.cpp:157] Top shape: 1 2 4332 (8664)
I0729 21:15:15.815084 13348 net.cpp:165] Memory required for data: 2572950944
I0729 21:15:15.815088 13348 layer_factory.hpp:77] Creating layer conv6/sep_mbox_loc
I0729 21:15:15.815095 13348 net.cpp:100] Creating Layer conv6/sep_mbox_loc
I0729 21:15:15.815099 13348 net.cpp:434] conv6/sep_mbox_loc <- conv6/sep_conv6/sep_relu_0_split_1
I0729 21:15:15.815104 13348 net.cpp:408] conv6/sep_mbox_loc -> conv6/sep_mbox_loc
I0729 21:15:15.817971 13348 net.cpp:150] Setting up conv6/sep_mbox_loc
I0729 21:15:15.817983 13348 net.cpp:157] Top shape: 16 24 10 10 (38400)
I0729 21:15:15.817986 13348 net.cpp:165] Memory required for data: 2573104544
I0729 21:15:15.817991 13348 layer_factory.hpp:77] Creating layer conv6/sep_mbox_loc_perm
I0729 21:15:15.817997 13348 net.cpp:100] Creating Layer conv6/sep_mbox_loc_perm
I0729 21:15:15.818003 13348 net.cpp:434] conv6/sep_mbox_loc_perm <- conv6/sep_mbox_loc
I0729 21:15:15.818009 13348 net.cpp:408] conv6/sep_mbox_loc_perm -> conv6/sep_mbox_loc_perm
I0729 21:15:15.818115 13348 net.cpp:150] Setting up conv6/sep_mbox_loc_perm
I0729 21:15:15.818121 13348 net.cpp:157] Top shape: 16 10 10 24 (38400)
I0729 21:15:15.818125 13348 net.cpp:165] Memory required for data: 2573258144
I0729 21:15:15.818126 13348 layer_factory.hpp:77] Creating layer conv6/sep_mbox_loc_flat
I0729 21:15:15.818130 13348 net.cpp:100] Creating Layer conv6/sep_mbox_loc_flat
I0729 21:15:15.818133 13348 net.cpp:434] conv6/sep_mbox_loc_flat <- conv6/sep_mbox_loc_perm
I0729 21:15:15.818138 13348 net.cpp:408] conv6/sep_mbox_loc_flat -> conv6/sep_mbox_loc_flat
I0729 21:15:15.818163 13348 net.cpp:150] Setting up conv6/sep_mbox_loc_flat
I0729 21:15:15.818167 13348 net.cpp:157] Top shape: 16 2400 (38400)
I0729 21:15:15.818169 13348 net.cpp:165] Memory required for data: 2573411744
I0729 21:15:15.818172 13348 layer_factory.hpp:77] Creating layer conv6/sep_mbox_conf
I0729 21:15:15.818179 13348 net.cpp:100] Creating Layer conv6/sep_mbox_conf
I0729 21:15:15.818182 13348 net.cpp:434] conv6/sep_mbox_conf <- conv6/sep_conv6/sep_relu_0_split_2
I0729 21:15:15.818187 13348 net.cpp:408] conv6/sep_mbox_conf -> conv6/sep_mbox_conf
I0729 21:15:15.821219 13348 net.cpp:150] Setting up conv6/sep_mbox_conf
I0729 21:15:15.821230 13348 net.cpp:157] Top shape: 16 18 10 10 (28800)
I0729 21:15:15.821233 13348 net.cpp:165] Memory required for data: 2573526944
I0729 21:15:15.821238 13348 layer_factory.hpp:77] Creating layer conv6/sep_mbox_conf_perm
I0729 21:15:15.821244 13348 net.cpp:100] Creating Layer conv6/sep_mbox_conf_perm
I0729 21:15:15.821247 13348 net.cpp:434] conv6/sep_mbox_conf_perm <- conv6/sep_mbox_conf
I0729 21:15:15.821252 13348 net.cpp:408] conv6/sep_mbox_conf_perm -> conv6/sep_mbox_conf_perm
I0729 21:15:15.821358 13348 net.cpp:150] Setting up conv6/sep_mbox_conf_perm
I0729 21:15:15.821364 13348 net.cpp:157] Top shape: 16 10 10 18 (28800)
I0729 21:15:15.821367 13348 net.cpp:165] Memory required for data: 2573642144
I0729 21:15:15.821369 13348 layer_factory.hpp:77] Creating layer conv6/sep_mbox_conf_flat
I0729 21:15:15.821373 13348 net.cpp:100] Creating Layer conv6/sep_mbox_conf_flat
I0729 21:15:15.821377 13348 net.cpp:434] conv6/sep_mbox_conf_flat <- conv6/sep_mbox_conf_perm
I0729 21:15:15.821382 13348 net.cpp:408] conv6/sep_mbox_conf_flat -> conv6/sep_mbox_conf_flat
I0729 21:15:15.821406 13348 net.cpp:150] Setting up conv6/sep_mbox_conf_flat
I0729 21:15:15.821410 13348 net.cpp:157] Top shape: 16 1800 (28800)
I0729 21:15:15.821413 13348 net.cpp:165] Memory required for data: 2573757344
I0729 21:15:15.821415 13348 layer_factory.hpp:77] Creating layer conv6/sep_mbox_priorbox
I0729 21:15:15.821420 13348 net.cpp:100] Creating Layer conv6/sep_mbox_priorbox
I0729 21:15:15.821424 13348 net.cpp:434] conv6/sep_mbox_priorbox <- conv6/sep_conv6/sep_relu_0_split_3
I0729 21:15:15.821427 13348 net.cpp:434] conv6/sep_mbox_priorbox <- data_data_0_split_2
I0729 21:15:15.821431 13348 net.cpp:408] conv6/sep_mbox_priorbox -> conv6/sep_mbox_priorbox
I0729 21:15:15.821458 13348 net.cpp:150] Setting up conv6/sep_mbox_priorbox
I0729 21:15:15.821468 13348 net.cpp:157] Top shape: 1 2 2400 (4800)
I0729 21:15:15.821470 13348 net.cpp:165] Memory required for data: 2573776544
I0729 21:15:15.821473 13348 layer_factory.hpp:77] Creating layer conv7_2_mbox_loc
I0729 21:15:15.821480 13348 net.cpp:100] Creating Layer conv7_2_mbox_loc
I0729 21:15:15.821483 13348 net.cpp:434] conv7_2_mbox_loc <- conv7_2_conv7_2_relu_0_split_1
I0729 21:15:15.821491 13348 net.cpp:408] conv7_2_mbox_loc -> conv7_2_mbox_loc
I0729 21:15:15.823951 13348 net.cpp:150] Setting up conv7_2_mbox_loc
I0729 21:15:15.823962 13348 net.cpp:157] Top shape: 16 24 5 5 (9600)
I0729 21:15:15.823966 13348 net.cpp:165] Memory required for data: 2573814944
I0729 21:15:15.823971 13348 layer_factory.hpp:77] Creating layer conv7_2_mbox_loc_perm
I0729 21:15:15.823976 13348 net.cpp:100] Creating Layer conv7_2_mbox_loc_perm
I0729 21:15:15.823982 13348 net.cpp:434] conv7_2_mbox_loc_perm <- conv7_2_mbox_loc
I0729 21:15:15.823988 13348 net.cpp:408] conv7_2_mbox_loc_perm -> conv7_2_mbox_loc_perm
I0729 21:15:15.824095 13348 net.cpp:150] Setting up conv7_2_mbox_loc_perm
I0729 21:15:15.824102 13348 net.cpp:157] Top shape: 16 5 5 24 (9600)
I0729 21:15:15.824105 13348 net.cpp:165] Memory required for data: 2573853344
I0729 21:15:15.824107 13348 layer_factory.hpp:77] Creating layer conv7_2_mbox_loc_flat
I0729 21:15:15.824112 13348 net.cpp:100] Creating Layer conv7_2_mbox_loc_flat
I0729 21:15:15.824115 13348 net.cpp:434] conv7_2_mbox_loc_flat <- conv7_2_mbox_loc_perm
I0729 21:15:15.824120 13348 net.cpp:408] conv7_2_mbox_loc_flat -> conv7_2_mbox_loc_flat
I0729 21:15:15.824144 13348 net.cpp:150] Setting up conv7_2_mbox_loc_flat
I0729 21:15:15.824148 13348 net.cpp:157] Top shape: 16 600 (9600)
I0729 21:15:15.824151 13348 net.cpp:165] Memory required for data: 2573891744
I0729 21:15:15.824153 13348 layer_factory.hpp:77] Creating layer conv7_2_mbox_conf
I0729 21:15:15.824162 13348 net.cpp:100] Creating Layer conv7_2_mbox_conf
I0729 21:15:15.824164 13348 net.cpp:434] conv7_2_mbox_conf <- conv7_2_conv7_2_relu_0_split_2
I0729 21:15:15.824168 13348 net.cpp:408] conv7_2_mbox_conf -> conv7_2_mbox_conf
I0729 21:15:15.826632 13348 net.cpp:150] Setting up conv7_2_mbox_conf
I0729 21:15:15.826644 13348 net.cpp:157] Top shape: 16 18 5 5 (7200)
I0729 21:15:15.826647 13348 net.cpp:165] Memory required for data: 2573920544
I0729 21:15:15.826653 13348 layer_factory.hpp:77] Creating layer conv7_2_mbox_conf_perm
I0729 21:15:15.826658 13348 net.cpp:100] Creating Layer conv7_2_mbox_conf_perm
I0729 21:15:15.826660 13348 net.cpp:434] conv7_2_mbox_conf_perm <- conv7_2_mbox_conf
I0729 21:15:15.826666 13348 net.cpp:408] conv7_2_mbox_conf_perm -> conv7_2_mbox_conf_perm
I0729 21:15:15.826771 13348 net.cpp:150] Setting up conv7_2_mbox_conf_perm
I0729 21:15:15.826778 13348 net.cpp:157] Top shape: 16 5 5 18 (7200)
I0729 21:15:15.826781 13348 net.cpp:165] Memory required for data: 2573949344
I0729 21:15:15.826783 13348 layer_factory.hpp:77] Creating layer conv7_2_mbox_conf_flat
I0729 21:15:15.826787 13348 net.cpp:100] Creating Layer conv7_2_mbox_conf_flat
I0729 21:15:15.826791 13348 net.cpp:434] conv7_2_mbox_conf_flat <- conv7_2_mbox_conf_perm
I0729 21:15:15.826795 13348 net.cpp:408] conv7_2_mbox_conf_flat -> conv7_2_mbox_conf_flat
I0729 21:15:15.826819 13348 net.cpp:150] Setting up conv7_2_mbox_conf_flat
I0729 21:15:15.826823 13348 net.cpp:157] Top shape: 16 450 (7200)
I0729 21:15:15.826825 13348 net.cpp:165] Memory required for data: 2573978144
I0729 21:15:15.826828 13348 layer_factory.hpp:77] Creating layer conv7_2_mbox_priorbox
I0729 21:15:15.826835 13348 net.cpp:100] Creating Layer conv7_2_mbox_priorbox
I0729 21:15:15.826838 13348 net.cpp:434] conv7_2_mbox_priorbox <- conv7_2_conv7_2_relu_0_split_3
I0729 21:15:15.826841 13348 net.cpp:434] conv7_2_mbox_priorbox <- data_data_0_split_3
I0729 21:15:15.826848 13348 net.cpp:408] conv7_2_mbox_priorbox -> conv7_2_mbox_priorbox
I0729 21:15:15.826872 13348 net.cpp:150] Setting up conv7_2_mbox_priorbox
I0729 21:15:15.826876 13348 net.cpp:157] Top shape: 1 2 600 (1200)
I0729 21:15:15.826879 13348 net.cpp:165] Memory required for data: 2573982944
I0729 21:15:15.826887 13348 layer_factory.hpp:77] Creating layer conv8_2_mbox_loc
I0729 21:15:15.826895 13348 net.cpp:100] Creating Layer conv8_2_mbox_loc
I0729 21:15:15.826898 13348 net.cpp:434] conv8_2_mbox_loc <- conv8_2_conv8_2_relu_0_split_1
I0729 21:15:15.826905 13348 net.cpp:408] conv8_2_mbox_loc -> conv8_2_mbox_loc
I0729 21:15:15.829131 13348 net.cpp:150] Setting up conv8_2_mbox_loc
I0729 21:15:15.829144 13348 net.cpp:157] Top shape: 16 24 3 3 (3456)
I0729 21:15:15.829147 13348 net.cpp:165] Memory required for data: 2573996768
I0729 21:15:15.829152 13348 layer_factory.hpp:77] Creating layer conv8_2_mbox_loc_perm
I0729 21:15:15.829157 13348 net.cpp:100] Creating Layer conv8_2_mbox_loc_perm
I0729 21:15:15.829160 13348 net.cpp:434] conv8_2_mbox_loc_perm <- conv8_2_mbox_loc
I0729 21:15:15.829169 13348 net.cpp:408] conv8_2_mbox_loc_perm -> conv8_2_mbox_loc_perm
I0729 21:15:15.829275 13348 net.cpp:150] Setting up conv8_2_mbox_loc_perm
I0729 21:15:15.829282 13348 net.cpp:157] Top shape: 16 3 3 24 (3456)
I0729 21:15:15.829284 13348 net.cpp:165] Memory required for data: 2574010592
I0729 21:15:15.829286 13348 layer_factory.hpp:77] Creating layer conv8_2_mbox_loc_flat
I0729 21:15:15.829290 13348 net.cpp:100] Creating Layer conv8_2_mbox_loc_flat
I0729 21:15:15.829293 13348 net.cpp:434] conv8_2_mbox_loc_flat <- conv8_2_mbox_loc_perm
I0729 21:15:15.829298 13348 net.cpp:408] conv8_2_mbox_loc_flat -> conv8_2_mbox_loc_flat
I0729 21:15:15.829322 13348 net.cpp:150] Setting up conv8_2_mbox_loc_flat
I0729 21:15:15.829327 13348 net.cpp:157] Top shape: 16 216 (3456)
I0729 21:15:15.829329 13348 net.cpp:165] Memory required for data: 2574024416
I0729 21:15:15.829331 13348 layer_factory.hpp:77] Creating layer conv8_2_mbox_conf
I0729 21:15:15.829339 13348 net.cpp:100] Creating Layer conv8_2_mbox_conf
I0729 21:15:15.829342 13348 net.cpp:434] conv8_2_mbox_conf <- conv8_2_conv8_2_relu_0_split_2
I0729 21:15:15.829349 13348 net.cpp:408] conv8_2_mbox_conf -> conv8_2_mbox_conf
I0729 21:15:15.831509 13348 net.cpp:150] Setting up conv8_2_mbox_conf
I0729 21:15:15.831519 13348 net.cpp:157] Top shape: 16 18 3 3 (2592)
I0729 21:15:15.831522 13348 net.cpp:165] Memory required for data: 2574034784
I0729 21:15:15.831528 13348 layer_factory.hpp:77] Creating layer conv8_2_mbox_conf_perm
I0729 21:15:15.831534 13348 net.cpp:100] Creating Layer conv8_2_mbox_conf_perm
I0729 21:15:15.831538 13348 net.cpp:434] conv8_2_mbox_conf_perm <- conv8_2_mbox_conf
I0729 21:15:15.831543 13348 net.cpp:408] conv8_2_mbox_conf_perm -> conv8_2_mbox_conf_perm
I0729 21:15:15.831648 13348 net.cpp:150] Setting up conv8_2_mbox_conf_perm
I0729 21:15:15.831655 13348 net.cpp:157] Top shape: 16 3 3 18 (2592)
I0729 21:15:15.831656 13348 net.cpp:165] Memory required for data: 2574045152
I0729 21:15:15.831660 13348 layer_factory.hpp:77] Creating layer conv8_2_mbox_conf_flat
I0729 21:15:15.831665 13348 net.cpp:100] Creating Layer conv8_2_mbox_conf_flat
I0729 21:15:15.831667 13348 net.cpp:434] conv8_2_mbox_conf_flat <- conv8_2_mbox_conf_perm
I0729 21:15:15.831671 13348 net.cpp:408] conv8_2_mbox_conf_flat -> conv8_2_mbox_conf_flat
I0729 21:15:15.831696 13348 net.cpp:150] Setting up conv8_2_mbox_conf_flat
I0729 21:15:15.831701 13348 net.cpp:157] Top shape: 16 162 (2592)
I0729 21:15:15.831702 13348 net.cpp:165] Memory required for data: 2574055520
I0729 21:15:15.831706 13348 layer_factory.hpp:77] Creating layer conv8_2_mbox_priorbox
I0729 21:15:15.831712 13348 net.cpp:100] Creating Layer conv8_2_mbox_priorbox
I0729 21:15:15.831714 13348 net.cpp:434] conv8_2_mbox_priorbox <- conv8_2_conv8_2_relu_0_split_3
I0729 21:15:15.831717 13348 net.cpp:434] conv8_2_mbox_priorbox <- data_data_0_split_4
I0729 21:15:15.831722 13348 net.cpp:408] conv8_2_mbox_priorbox -> conv8_2_mbox_priorbox
I0729 21:15:15.831748 13348 net.cpp:150] Setting up conv8_2_mbox_priorbox
I0729 21:15:15.831753 13348 net.cpp:157] Top shape: 1 2 216 (432)
I0729 21:15:15.831754 13348 net.cpp:165] Memory required for data: 2574057248
I0729 21:15:15.831756 13348 layer_factory.hpp:77] Creating layer conv9_2_mbox_loc
I0729 21:15:15.831771 13348 net.cpp:100] Creating Layer conv9_2_mbox_loc
I0729 21:15:15.831775 13348 net.cpp:434] conv9_2_mbox_loc <- conv9_2_conv9_2_relu_0_split_1
I0729 21:15:15.831779 13348 net.cpp:408] conv9_2_mbox_loc -> conv9_2_mbox_loc
I0729 21:15:15.834000 13348 net.cpp:150] Setting up conv9_2_mbox_loc
I0729 21:15:15.834012 13348 net.cpp:157] Top shape: 16 24 2 2 (1536)
I0729 21:15:15.834014 13348 net.cpp:165] Memory required for data: 2574063392
I0729 21:15:15.834019 13348 layer_factory.hpp:77] Creating layer conv9_2_mbox_loc_perm
I0729 21:15:15.834025 13348 net.cpp:100] Creating Layer conv9_2_mbox_loc_perm
I0729 21:15:15.834029 13348 net.cpp:434] conv9_2_mbox_loc_perm <- conv9_2_mbox_loc
I0729 21:15:15.834033 13348 net.cpp:408] conv9_2_mbox_loc_perm -> conv9_2_mbox_loc_perm
I0729 21:15:15.834142 13348 net.cpp:150] Setting up conv9_2_mbox_loc_perm
I0729 21:15:15.834148 13348 net.cpp:157] Top shape: 16 2 2 24 (1536)
I0729 21:15:15.834151 13348 net.cpp:165] Memory required for data: 2574069536
I0729 21:15:15.834153 13348 layer_factory.hpp:77] Creating layer conv9_2_mbox_loc_flat
I0729 21:15:15.834158 13348 net.cpp:100] Creating Layer conv9_2_mbox_loc_flat
I0729 21:15:15.834161 13348 net.cpp:434] conv9_2_mbox_loc_flat <- conv9_2_mbox_loc_perm
I0729 21:15:15.834166 13348 net.cpp:408] conv9_2_mbox_loc_flat -> conv9_2_mbox_loc_flat
I0729 21:15:15.834190 13348 net.cpp:150] Setting up conv9_2_mbox_loc_flat
I0729 21:15:15.834195 13348 net.cpp:157] Top shape: 16 96 (1536)
I0729 21:15:15.834197 13348 net.cpp:165] Memory required for data: 2574075680
I0729 21:15:15.834200 13348 layer_factory.hpp:77] Creating layer conv9_2_mbox_conf
I0729 21:15:15.834208 13348 net.cpp:100] Creating Layer conv9_2_mbox_conf
I0729 21:15:15.834211 13348 net.cpp:434] conv9_2_mbox_conf <- conv9_2_conv9_2_relu_0_split_2
I0729 21:15:15.834216 13348 net.cpp:408] conv9_2_mbox_conf -> conv9_2_mbox_conf
I0729 21:15:15.836371 13348 net.cpp:150] Setting up conv9_2_mbox_conf
I0729 21:15:15.836381 13348 net.cpp:157] Top shape: 16 18 2 2 (1152)
I0729 21:15:15.836385 13348 net.cpp:165] Memory required for data: 2574080288
I0729 21:15:15.836390 13348 layer_factory.hpp:77] Creating layer conv9_2_mbox_conf_perm
I0729 21:15:15.836395 13348 net.cpp:100] Creating Layer conv9_2_mbox_conf_perm
I0729 21:15:15.836400 13348 net.cpp:434] conv9_2_mbox_conf_perm <- conv9_2_mbox_conf
I0729 21:15:15.836403 13348 net.cpp:408] conv9_2_mbox_conf_perm -> conv9_2_mbox_conf_perm
I0729 21:15:15.836516 13348 net.cpp:150] Setting up conv9_2_mbox_conf_perm
I0729 21:15:15.836524 13348 net.cpp:157] Top shape: 16 2 2 18 (1152)
I0729 21:15:15.836525 13348 net.cpp:165] Memory required for data: 2574084896
I0729 21:15:15.836529 13348 layer_factory.hpp:77] Creating layer conv9_2_mbox_conf_flat
I0729 21:15:15.836534 13348 net.cpp:100] Creating Layer conv9_2_mbox_conf_flat
I0729 21:15:15.836536 13348 net.cpp:434] conv9_2_mbox_conf_flat <- conv9_2_mbox_conf_perm
I0729 21:15:15.836540 13348 net.cpp:408] conv9_2_mbox_conf_flat -> conv9_2_mbox_conf_flat
I0729 21:15:15.836565 13348 net.cpp:150] Setting up conv9_2_mbox_conf_flat
I0729 21:15:15.836570 13348 net.cpp:157] Top shape: 16 72 (1152)
I0729 21:15:15.836572 13348 net.cpp:165] Memory required for data: 2574089504
I0729 21:15:15.836575 13348 layer_factory.hpp:77] Creating layer conv9_2_mbox_priorbox
I0729 21:15:15.836580 13348 net.cpp:100] Creating Layer conv9_2_mbox_priorbox
I0729 21:15:15.836585 13348 net.cpp:434] conv9_2_mbox_priorbox <- conv9_2_conv9_2_relu_0_split_3
I0729 21:15:15.836587 13348 net.cpp:434] conv9_2_mbox_priorbox <- data_data_0_split_5
I0729 21:15:15.836591 13348 net.cpp:408] conv9_2_mbox_priorbox -> conv9_2_mbox_priorbox
I0729 21:15:15.836618 13348 net.cpp:150] Setting up conv9_2_mbox_priorbox
I0729 21:15:15.836622 13348 net.cpp:157] Top shape: 1 2 96 (192)
I0729 21:15:15.836625 13348 net.cpp:165] Memory required for data: 2574090272
I0729 21:15:15.836627 13348 layer_factory.hpp:77] Creating layer conv10_2_mbox_loc
I0729 21:15:15.836637 13348 net.cpp:100] Creating Layer conv10_2_mbox_loc
I0729 21:15:15.836640 13348 net.cpp:434] conv10_2_mbox_loc <- conv10_2_conv10_2_relu_0_split_0
I0729 21:15:15.836650 13348 net.cpp:408] conv10_2_mbox_loc -> conv10_2_mbox_loc
I0729 21:15:15.839236 13348 net.cpp:150] Setting up conv10_2_mbox_loc
I0729 21:15:15.839246 13348 net.cpp:157] Top shape: 16 24 1 1 (384)
I0729 21:15:15.839249 13348 net.cpp:165] Memory required for data: 2574091808
I0729 21:15:15.839256 13348 layer_factory.hpp:77] Creating layer conv10_2_mbox_loc_perm
I0729 21:15:15.839262 13348 net.cpp:100] Creating Layer conv10_2_mbox_loc_perm
I0729 21:15:15.839264 13348 net.cpp:434] conv10_2_mbox_loc_perm <- conv10_2_mbox_loc
I0729 21:15:15.839268 13348 net.cpp:408] conv10_2_mbox_loc_perm -> conv10_2_mbox_loc_perm
I0729 21:15:15.839378 13348 net.cpp:150] Setting up conv10_2_mbox_loc_perm
I0729 21:15:15.839387 13348 net.cpp:157] Top shape: 16 1 1 24 (384)
I0729 21:15:15.839390 13348 net.cpp:165] Memory required for data: 2574093344
I0729 21:15:15.839392 13348 layer_factory.hpp:77] Creating layer conv10_2_mbox_loc_flat
I0729 21:15:15.839397 13348 net.cpp:100] Creating Layer conv10_2_mbox_loc_flat
I0729 21:15:15.839401 13348 net.cpp:434] conv10_2_mbox_loc_flat <- conv10_2_mbox_loc_perm
I0729 21:15:15.839404 13348 net.cpp:408] conv10_2_mbox_loc_flat -> conv10_2_mbox_loc_flat
I0729 21:15:15.839431 13348 net.cpp:150] Setting up conv10_2_mbox_loc_flat
I0729 21:15:15.839435 13348 net.cpp:157] Top shape: 16 24 (384)
I0729 21:15:15.839437 13348 net.cpp:165] Memory required for data: 2574094880
I0729 21:15:15.839440 13348 layer_factory.hpp:77] Creating layer conv10_2_mbox_conf
I0729 21:15:15.839447 13348 net.cpp:100] Creating Layer conv10_2_mbox_conf
I0729 21:15:15.839450 13348 net.cpp:434] conv10_2_mbox_conf <- conv10_2_conv10_2_relu_0_split_1
I0729 21:15:15.839455 13348 net.cpp:408] conv10_2_mbox_conf -> conv10_2_mbox_conf
I0729 21:15:15.841629 13348 net.cpp:150] Setting up conv10_2_mbox_conf
I0729 21:15:15.841640 13348 net.cpp:157] Top shape: 16 18 1 1 (288)
I0729 21:15:15.841644 13348 net.cpp:165] Memory required for data: 2574096032
I0729 21:15:15.841648 13348 layer_factory.hpp:77] Creating layer conv10_2_mbox_conf_perm
I0729 21:15:15.841655 13348 net.cpp:100] Creating Layer conv10_2_mbox_conf_perm
I0729 21:15:15.841658 13348 net.cpp:434] conv10_2_mbox_conf_perm <- conv10_2_mbox_conf
I0729 21:15:15.841662 13348 net.cpp:408] conv10_2_mbox_conf_perm -> conv10_2_mbox_conf_perm
I0729 21:15:15.841771 13348 net.cpp:150] Setting up conv10_2_mbox_conf_perm
I0729 21:15:15.841776 13348 net.cpp:157] Top shape: 16 1 1 18 (288)
I0729 21:15:15.841779 13348 net.cpp:165] Memory required for data: 2574097184
I0729 21:15:15.841781 13348 layer_factory.hpp:77] Creating layer conv10_2_mbox_conf_flat
I0729 21:15:15.841786 13348 net.cpp:100] Creating Layer conv10_2_mbox_conf_flat
I0729 21:15:15.841789 13348 net.cpp:434] conv10_2_mbox_conf_flat <- conv10_2_mbox_conf_perm
I0729 21:15:15.841794 13348 net.cpp:408] conv10_2_mbox_conf_flat -> conv10_2_mbox_conf_flat
I0729 21:15:15.841820 13348 net.cpp:150] Setting up conv10_2_mbox_conf_flat
I0729 21:15:15.841825 13348 net.cpp:157] Top shape: 16 18 (288)
I0729 21:15:15.841826 13348 net.cpp:165] Memory required for data: 2574098336
I0729 21:15:15.841828 13348 layer_factory.hpp:77] Creating layer conv10_2_mbox_priorbox
I0729 21:15:15.841835 13348 net.cpp:100] Creating Layer conv10_2_mbox_priorbox
I0729 21:15:15.841837 13348 net.cpp:434] conv10_2_mbox_priorbox <- conv10_2_conv10_2_relu_0_split_2
I0729 21:15:15.841841 13348 net.cpp:434] conv10_2_mbox_priorbox <- data_data_0_split_6
I0729 21:15:15.841845 13348 net.cpp:408] conv10_2_mbox_priorbox -> conv10_2_mbox_priorbox
I0729 21:15:15.841897 13348 net.cpp:150] Setting up conv10_2_mbox_priorbox
I0729 21:15:15.841904 13348 net.cpp:157] Top shape: 1 2 24 (48)
I0729 21:15:15.841907 13348 net.cpp:165] Memory required for data: 2574098528
I0729 21:15:15.841908 13348 layer_factory.hpp:77] Creating layer mbox_loc
I0729 21:15:15.841917 13348 net.cpp:100] Creating Layer mbox_loc
I0729 21:15:15.841920 13348 net.cpp:434] mbox_loc <- conv5_5/sep_mbox_loc_flat
I0729 21:15:15.841924 13348 net.cpp:434] mbox_loc <- conv6/sep_mbox_loc_flat
I0729 21:15:15.841933 13348 net.cpp:434] mbox_loc <- conv7_2_mbox_loc_flat
I0729 21:15:15.841938 13348 net.cpp:434] mbox_loc <- conv8_2_mbox_loc_flat
I0729 21:15:15.841939 13348 net.cpp:434] mbox_loc <- conv9_2_mbox_loc_flat
I0729 21:15:15.841943 13348 net.cpp:434] mbox_loc <- conv10_2_mbox_loc_flat
I0729 21:15:15.841948 13348 net.cpp:408] mbox_loc -> mbox_loc
I0729 21:15:15.841979 13348 net.cpp:150] Setting up mbox_loc
I0729 21:15:15.841984 13348 net.cpp:157] Top shape: 16 7668 (122688)
I0729 21:15:15.841986 13348 net.cpp:165] Memory required for data: 2574589280
I0729 21:15:15.841989 13348 layer_factory.hpp:77] Creating layer mbox_conf
I0729 21:15:15.841994 13348 net.cpp:100] Creating Layer mbox_conf
I0729 21:15:15.841996 13348 net.cpp:434] mbox_conf <- conv5_5/sep_mbox_conf_flat
I0729 21:15:15.842002 13348 net.cpp:434] mbox_conf <- conv6/sep_mbox_conf_flat
I0729 21:15:15.842005 13348 net.cpp:434] mbox_conf <- conv7_2_mbox_conf_flat
I0729 21:15:15.842008 13348 net.cpp:434] mbox_conf <- conv8_2_mbox_conf_flat
I0729 21:15:15.842011 13348 net.cpp:434] mbox_conf <- conv9_2_mbox_conf_flat
I0729 21:15:15.842015 13348 net.cpp:434] mbox_conf <- conv10_2_mbox_conf_flat
I0729 21:15:15.842018 13348 net.cpp:408] mbox_conf -> mbox_conf
I0729 21:15:15.842046 13348 net.cpp:150] Setting up mbox_conf
I0729 21:15:15.842049 13348 net.cpp:157] Top shape: 16 5751 (92016)
I0729 21:15:15.842051 13348 net.cpp:165] Memory required for data: 2574957344
I0729 21:15:15.842054 13348 layer_factory.hpp:77] Creating layer mbox_priorbox
I0729 21:15:15.842059 13348 net.cpp:100] Creating Layer mbox_priorbox
I0729 21:15:15.842062 13348 net.cpp:434] mbox_priorbox <- conv5_5/sep_mbox_priorbox
I0729 21:15:15.842066 13348 net.cpp:434] mbox_priorbox <- conv6/sep_mbox_priorbox
I0729 21:15:15.842068 13348 net.cpp:434] mbox_priorbox <- conv7_2_mbox_priorbox
I0729 21:15:15.842072 13348 net.cpp:434] mbox_priorbox <- conv8_2_mbox_priorbox
I0729 21:15:15.842074 13348 net.cpp:434] mbox_priorbox <- conv9_2_mbox_priorbox
I0729 21:15:15.842077 13348 net.cpp:434] mbox_priorbox <- conv10_2_mbox_priorbox
I0729 21:15:15.842082 13348 net.cpp:408] mbox_priorbox -> mbox_priorbox
I0729 21:15:15.842105 13348 net.cpp:150] Setting up mbox_priorbox
I0729 21:15:15.842110 13348 net.cpp:157] Top shape: 1 2 7668 (15336)
I0729 21:15:15.842113 13348 net.cpp:165] Memory required for data: 2575018688
I0729 21:15:15.842114 13348 layer_factory.hpp:77] Creating layer mbox_loss
I0729 21:15:15.842124 13348 net.cpp:100] Creating Layer mbox_loss
I0729 21:15:15.842128 13348 net.cpp:434] mbox_loss <- mbox_loc
I0729 21:15:15.842131 13348 net.cpp:434] mbox_loss <- mbox_conf
I0729 21:15:15.842133 13348 net.cpp:434] mbox_loss <- mbox_priorbox
…
  phase: TEST
}
layer {
  name: "data"
  type: "AnnotatedData"
  top: "data"
  top: "label"
  include {
    phase: TEST
  }
  transform_param {
    mean_value: 104
    mean_value: 117
    mean_value: 123
    resize_param {
      prob: 1
      resize_mode: WARP
      height: 300
      width: 300
      interp_mode: LINEAR
    }
  }
  data_param {
    source: "data/BodyFaceRegions/lmdb/VOC0712_test_lmdb"
    batch_size: 8
    backend: LMDB
  }
  annotated_data_param {
    batch_sampler {
    }
    label_map_file: "data/BodyFaceRegions/labelmap_voc.prototxt"
  }
}
layer {
  name: "conv1"
  type: "Convolution"
  bottom: "data"
  top: "conv1"
  param {
    lr_mult: 1
    decay_mult: 1
  }
  convolution_param {
    num_output: 32
    bias_term: false
    pad: 1
    kernel_size: 3
    group: 1
    stride: 2
    weight_filler {
      type: "gaussian"
      std: 0.01
    }
    engine: DEFAULT
  }
}
layer {
  name: "conv1/bn"
  type: "BatchNorm"
  bottom: "conv1"
  top: "conv1"
  batch_norm_param {
    moving_average_fraction: 0.999
    eps: 0.001
  }
}
layer {
  name: "conv1/scale"
  type: "Scale"
  bottom: "conv1"
  top: "conv1"
  param {
    lr_mult: 1
    decay_mult: 0
  }
  param {
    lr_mult: 1
    decay_mult: 0
  }
  scale_param {
    filler {
      type: "constant"
      value: 1
    }
    bias_term: true
    bias_filler {
      type: "constant"
      value: 0
    }
  }
}
layer {
  name: "conv1_relu"
  type: "ReLU"
  bottom: "conv1"
  top: "conv1"
}
layer {
  name: "conv2_1/dw"
  type: "Convolution"
  bottom: "conv1"
  top: "conv2_1/dw"
  param {
    lr_mult: 1
    decay_mult: 1
  }
  convolution_param {
    num_output: 32
    bias_term: false
    pad: 1
    kernel_size: 3
    group: 32
    stride: 1
    weight_filler {
      type: "gaussian"
      std: 0.01
    }
    engine: CAFFE
  }
}
layer {
  name: "conv2_1/dw/bn"
  type: "BatchNorm"
  bottom: "conv2_1/dw"
  top: "conv2_1/dw"
  batch_norm_param {
    moving_average_fraction: 0.999
    eps: 0.001
  }
}
layer {
  name: "conv2_1/dw/scale"
  type: "Scale"
  bottom: "conv2_1/dw"
  top: "conv2_1/dw"
  param {
    lr_mult: 1
    decay_mult: 0
  }
  param {
    lr_mult: 1
    decay_mult: 0
  }
  scale_param {
    filler {
      type: "constant"
      value: 1
    }
    bias_term: true
    bias_filler {
      type: "constant"
      value: 0
    }
  }
}
layer {
  name: "conv2_1/dw_relu"
  type: "ReLU"
  bottom: "conv2_1/dw"
  top: "conv2_1/dw"
}
layer {
  name: "conv2_1/sep"
  type: "Convolution"
  bottom: "conv2_1/dw"
  top: "conv2_1/sep"
  param {
    lr_mult: 1
    decay_mult: 1
  }
  convolution_param {
    num_output: 64
    bias_term: false
    pad: 0
    kernel_size: 1
    group: 1
    stride: 1
    weight_filler {
      type: "gaussian"
      std: 0.01
    }
    engine: DEFAULT
  }
}
layer {
  name: "conv2_1/sep/bn"
  type: "BatchNorm"
  bottom: "conv2_1/sep"
  top: "conv2_1/sep"
  batch_norm_param {
    moving_average_fraction: 0.999
    eps: 0.001
  }
}
layer {
  name: "conv2_1/sep/scale"
  type: "Scale"
  bottom: "conv2_1/sep"
  top: "conv2_1/sep"
  param {
    lr_mult: 1
    decay_mult: 0
  }
  param {
    lr_mult: 1
    decay_mult: 0
  }
  scale_param {
    filler {
      type: "constant"
      value: 1
    }
    bias_term: true
    bias_filler {
      type: "constant"
      value: 0
    }
  }
}
layer {
  name: "conv2_1/sep_relu"
  type: "ReLU"
  bottom: "conv2_1/sep"
  top: "conv2_1/sep"
}
layer {
  name: "conv2_2/dw"
  type: "Convolution"
  bottom: "conv2_1/sep"
  top: "conv2_2/dw"
  param {
    lr_mult: 1
    decay_mult: 1
  }
  convolution_param {
    num_output: 64
    bias_term: false
    pad: 1
    kernel_size: 3
    group: 64
    stride: 2
    weight_filler {
      type: "gaussian"
      std: 0.01
    }
    engine: CAFFE
  }
}
layer {
  name: "conv2_2/dw/bn"
  type: "BatchNorm"
  bottom: "conv2_2/dw"
  top: "conv2_2/dw"
  batch_norm_param {
    moving_average_fraction: 0.999
    eps: 0.001
  }
}
layer {
  name: "conv2_2/dw/scale"
  type: "Scale"
  bottom: "conv2_2/dw"
  top: "conv2_2/dw"
  param {
    lr_mult: 1
    decay_mult: 0
  }
  param {
    lr_mult: 1
    decay_mult: 0
  }
  scale_param {
    filler {
      type: "constant"
      value: 1
    }
    bias_term: true
    bias_filler {
      type: "constant"
      value: 0
    }
  }
}
layer {
  name: "conv2_2/dw_relu"
  type: "ReLU"
  bottom: "conv2_2/dw"
  top: "conv2_2/dw"
}
layer {
  name: "conv2_2/sep"
  type: "Convolution"
  bottom: "conv2_2/dw"
  top: "conv2_2/sep"
  param {
    lr_mult: 1
    decay_mult: 1
  }
  convolution_param {
    num_output: 128
    bias_term: false
    pad: 0
    kernel_size: 1
    group: 1
    stride: 1
    weight_filler {
      type: "gaussian"
      std: 0.01
    }
    engine: DEFAULT
  }
}
layer {
  name: "conv2_2/sep/bn"
  type: "BatchNorm"
  bottom: "conv2_2/sep"
  top: "conv2_2/sep"
  batch_norm_param {
    moving_average_fraction: 0.999
    eps: 0.001
  }
}
layer {
  name: "conv2_2/sep/scale"
  type: "Scale"
  bottom: "conv2_2/sep"
  top: "conv2_2/sep"
  param {
    lr_mult: 1
    decay_mult: 0
  }
  param {
    lr_mult: 1
    decay_mult: 0
  }
  scale_param {
    filler {
      type: "constant"
      value: 1
    }
    bias_term: true
    bias_filler {
      type: "constant"
      value: 0
    }
  }
}
layer {
  name: "conv2_2/sep_relu"
  type: "ReLU"
  bottom: "conv2_2/sep"
  top: "conv2_2/sep"
}
layer {
  name: "conv3_1/dw"
  type: "Convolution"
  bottom: "conv2_2/sep"
  top: "conv3_1/dw"
  param {
    lr_mult: 1
    decay_mult: 1
  }
  convolution_param {
    num_output: 128
    bias_term: false
    pad: 1
    kernel_size: 3
    group: 128
    stride: 1
    weight_filler {
      type: "gaussian"
      std: 0.01
    }
    engine: CAFFE
  }
}
layer {
  name: "conv3_1/dw/bn"
  type: "BatchNorm"
  bottom: "conv3_1/dw"
  top: "conv3_1/dw"
  batch_norm_param {
    moving_average_fraction: 0.999
    eps: 0.001
  }
}
layer {
  name: "conv3_1/dw/scale"
  type: "Scale"
  bottom: "conv3_1/dw"
  top: "conv3_1/dw"
  param {
    lr_mult: 1
    decay_mult: 0
  }
  param {
    lr_mult: 1
    decay_mult: 0
  }
  scale_param {
    filler {
      type: "constant"
      value: 1
    }
    bias_term: true
    bias_filler {
      type: "constant"
      value: 0
    }
  }
}
layer {
  name: "conv3_1/dw_relu"
  type: "ReLU"
  bottom: "conv3_1/dw"
  top: "conv3_1/dw"
}
layer {
  name: "conv3_1/sep"
  type: "Convolution"
  bottom: "conv3_1/dw"
  top: "conv3_1/sep"
  param {
    lr_mult: 1
    decay_mult: 1
  }
  convolution_param {
    num_output: 128
    bias_term: false
    pad: 0
    kernel_size: 1
    group: 1
    stride: 1
    weight_filler {
      type: "gaussian"
      std: 0.01
    }
    engine: DEFAULT
  }
}
layer {
  name: "conv3_1/sep/bn"
  type: "BatchNorm"
  bottom: "conv3_1/sep"
  top: "conv3_1/sep"
  batch_norm_param {
    moving_average_fraction: 0.999
    eps: 0.001
  }
}
layer {
  name: "conv3_1/sep/scale"
  type: "Scale"
  bottom: "conv3_1/sep"
  top: "conv3_1/sep"
  param {
    lr_mult: 1
    decay_mult: 0
  }
  param {
    lr_mult: 1
    decay_mult: 0
  }
  scale_param {
    filler {
      type: "constant"
      value: 1
    }
    bias_term: true
    bias_filler {
      type: "constant"
      value: 0
    }
  }
}
layer {
  name: "conv3_1/sep_relu"
  type: "ReLU"
  bottom: "conv3_1/sep"
  top: "conv3_1/sep"
}
layer {
  name: "conv3_2/dw"
  type: "Convolution"
  bottom: "conv3_1/sep"
  top: "conv3_2/dw"
  param {
    lr_mult: 1
    decay_mult: 1
  }
  convolution_param {
    num_output: 128
    bias_term: false
    pad: 1
    kernel_size: 3
    group: 128
    stride: 2
    weight_filler {
      type: "gaussian"
      std: 0.01
    }
    engine: CAFFE
  }
}
layer {
  name: "conv3_2/dw/bn"
  type: "BatchNorm"
  bottom: "conv3_2/dw"
  top: "conv3_2/dw"
  batch_norm_param {
    moving_average_fraction: 0.999
    eps: 0.001
  }
}
layer {
  name: "conv3_2/dw/scale"
  type: "Scale"
  bottom: "conv3_2/dw"
  top: "conv3_2/dw"
  param {
    lr_mult: 1
    decay_mult: 0
  }
  param {
    lr_mult: 1
    decay_mult: 0
  }
  scale_param {
    filler {
      type: "constant"
      value: 1
    }
    bias_term: true
    bias_filler {
      type: "constant"
      value: 0
    }
  }
}
layer {
  name: "conv3_2/dw_relu"
  type: "ReLU"
  bottom: "conv3_2/dw"
  top: "conv3_2/dw"
}
layer {
  name: "conv3_2/sep"
  type: "Convolution"
  bottom: "conv3_2/dw"
  top: "conv3_2/sep"
  param {
    lr_mult: 1
    decay_mult: 1
  }
  convolution_param {
    num_output: 256
    bias_term: false
    pad: 0
    kernel_size: 1
    group: 1
    stride: 1
    weight_filler {
      type: "gaussian"
      std: 0.01
    }
    engine: DEFAULT
  }
}
layer {
  name: "conv3_2/sep/bn"
  type: "BatchNorm"
  bottom: "conv3_2/sep"
  top: "conv3_2/sep"
  batch_norm_param {
    moving_average_fraction: 0.999
    eps: 0.001
  }
}
layer {
  name: "conv3_2/sep/scale"
  type: "Scale"
  bottom: "conv3_2/sep"
  top: "conv3_2/sep"
  param {
    lr_mult: 1
    decay_mult: 0
  }
  param {
    lr_mult: 1
    decay_mult: 0
  }
  scale_param {
    filler {
      type: "constant"
      value: 1
    }
    bias_term: true
    bias_filler {
      type: "constant"
      value: 0
    }
  }
}
layer {
  name: "conv3_2/sep_relu"
  type: "ReLU"
  bottom: "conv3_2/sep"
  top: "conv3_2/sep"
}
layer {
  name: "conv4_1/dw"
  type: "Convolution"
  bottom: "conv3_2/sep"
  top: "conv4_1/dw"
  param {
    lr_mult: 1
    decay_mult: 1
  }
  convolution_param {
    num_output: 256
    bias_term: false
    pad: 1
    kernel_size: 3
    group: 256
    stride: 1
    weight_filler {
      type: "gaussian"
      std: 0.01
    }
    engine: CAFFE
  }
}
layer {
  name: "conv4_1/dw/bn"
  type: "BatchNorm"
  bottom: "conv4_1/dw"
  top: "conv4_1/dw"
  batch_norm_param {
    moving_average_fraction: 0.999
    eps: 0.001
  }
}
layer {
  name: "conv4_1/dw/scale"
  type: "Scale"
  bottom: "conv4_1/dw"
  top: "conv4_1/dw"
  param {
    lr_mult: 1
    decay_mult: 0
  }
  param {
    lr_mult: 1
    decay_mult: 0
  }
  scale_param {
    filler {
      type: "constant"
      value: 1
    }
    bias_term: true
    bias_filler {
      type: "constant"
      value: 0
    }
  }
}
layer {
  name: "conv4_1/dw_relu"
  type: "ReLU"
  bottom: "conv4_1/dw"
  top: "conv4_1/dw"
}
layer {
  name: "conv4_1/sep"
  type: "Convolution"
  bottom: "conv4_1/dw"
  top: "conv4_1/sep"
  param {
    lr_mult: 1
    decay_mult: 1
  }
  convolution_param {
    num_output: 256
    bias_term: false
    pad: 0
    kernel_size: 1
    group: 1
    stride: 1
    weight_filler {
      type: "gaussian"
      std: 0.01
    }
    engine: DEFAULT
  }
}
layer {
  name: "conv4_1/sep/bn"
  type: "BatchNorm"
  bottom: "conv4_1/sep"
  top: "conv4_1/sep"
  batch_norm_param {
    moving_average_fraction: 0.999
    eps: 0.001
  }
}
layer {
  name: "conv4_1/sep/scale"
  type: "Scale"
  bottom: "conv4_1/sep"
  top: "conv4_1/sep"
  param {
    lr_mult: 1
    decay_mult: 0
  }
  param {
    lr_mult: 1
    decay_mult: 0
  }
  scale_param {
    filler {
      type: "constant"
      value: 1
    }
    bias_term: true
    bias_filler {
      type: "constant"
      value: 0
    }
  }
}
layer {
  name: "conv4_1/sep_relu"
  type: "ReLU"
  bottom: "conv4_1/sep"
  top: "conv4_1/sep"
}
layer {
  name: "conv4_2/dw"
  type: "Convolution"
  bottom: "conv4_1/sep"
  top: "conv4_2/dw"
  param {
    lr_mult: 1
    decay_mult: 1
  }
  convolution_param {
    num_output: 256
    bias_term: false
    pad: 1
    kernel_size: 3
    group: 256
    stride: 2
    weight_filler {
      type: "gaussian"
      std: 0.01
    }
    engine: CAFFE
  }
}
layer {
  name: "conv4_2/dw/bn"
  type: "BatchNorm"
  bottom: "conv4_2/dw"
  top: "conv4_2/dw"
  batch_norm_param {
    moving_average_fraction: 0.999
    eps: 0.001
  }
}
layer {
  name: "conv4_2/dw/scale"
  type: "Scale"
  bottom: "conv4_2/dw"
  top: "conv4_2/dw"
  param {
    lr_mult: 1
    decay_mult: 0
  }
  param {
    lr_mult: 1
    decay_mult: 0
  }
  scale_param {
    filler {
      type: "constant"
      value: 1
    }
    bias_term: true
    bias_filler {
      type: "constant"
      value: 0
    }
  }
}
layer {
  name: "conv4_2/dw_relu"
  type: "ReLU"
  bottom: "conv4_2/dw"
  top: "conv4_2/dw"
}
layer {
  name: "conv4_2/sep"
  type: "Convolution"
  bottom: "conv4_2/dw"
  top: "conv4_2/sep"
  param {
    lr_mult: 1
    decay_mult: 1
  }
  convolution_param {
    num_output: 512
    bias_term: false
    pad: 0
    kernel_size: 1
    group: 1
    stride: 1
    weight_filler {
      type: "gaussian"
      std: 0.01
    }
    engine: DEFAULT
  }
}
layer {
  name: "conv4_2/sep/bn"
  type: "BatchNorm"
  bottom: "conv4_2/sep"
  top: "conv4_2/sep"
  batch_norm_param {
    moving_average_fraction: 0.999
    eps: 0.001
  }
}
layer {
  name: "conv4_2/sep/scale"
  type: "Scale"
  bottom: "conv4_2/sep"
  top: "conv4_2/sep"
  param {
    lr_mult: 1
    decay_mult: 0
  }
  param {
    lr_mult: 1
    decay_mult: 0
  }
  scale_param {
    filler {
      type: "constant"
      value: 1
    }
    bias_term: true
    bias_filler {
      type: "constant"
      value: 0
    }
  }
}
layer {
  name: "conv4_2/sep_relu"
  type: "ReLU"
  bottom: "conv4_2/sep"
  top: "conv4_2/sep"
}
layer {
  name: "conv5_1/dw"
  type: "Convolution"
  bottom: "conv4_2/sep"
  top: "conv5_1/dw"
  param {
    lr_mult: 1
    decay_mult: 1
  }
  convolution_param {
    num_output: 512
    bias_term: false
    pad: 1
    kernel_size: 3
    group: 512
    stride: 1
    weight_filler {
      type: "gaussian"
      std: 0.01
    }
    engine: CAFFE
  }
}
layer {
  name: "conv5_1/dw/bn"
  type: "BatchNorm"
  bottom: "conv5_1/dw"
  top: "conv5_1/dw"
  batch_norm_param {
    moving_average_fraction: 0.999
    eps: 0.001
  }
}
layer {
  name: "conv5_1/dw/scale"
  type: "Scale"
  bottom: "conv5_1/dw"
  top: "conv5_1/dw"
  param {
    lr_mult: 1
    decay_mult: 0
  }
  param {
    lr_mult: 1
    decay_mult: 0
  }
  scale_param {
    filler {
      type: "constant"
      value: 1
    }
    bias_term: true
    bias_filler {
      type: "constant"
      value: 0
    }
  }
}
layer {
  name: "conv5_1/dw_relu"
  type: "ReLU"
  bottom: "conv5_1/dw"
  top: "conv5_1/dw"
}
layer {
  name: "conv5_1/sep"
  type: "Convolution"
  bottom: "conv5_1/dw"
  top: "conv5_1/sep"
  param {
    lr_mult: 1
    decay_mult: 1
  }
  convolution_param {
    num_output: 512
    bias_term: false
    pad: 0
    kernel_size: 1
    group: 1
    stride: 1
    weight_filler {
      type: "gaussian"
      std: 0.01
    }
    engine: DEFAULT
  }
}
layer {
  name: "conv5_1/sep/bn"
  type: "BatchNorm"
  bottom: "conv5_1/sep"
  top: "conv5_1/sep"
  batch_norm_param {
    moving_average_fraction: 0.999
    eps: 0.001
  }
}
layer {
  name: "conv5_1/sep/scale"
  type: "Scale"
  bottom: "conv5_1/sep"
  top: "conv5_1/sep"
  param {
    lr_mult: 1
    decay_mult: 0
  }
  param {
    lr_mult: 1
    decay_mult: 0
  }
  scale_param {
    filler {
      type: "constant"
      value: 1
    }
    bias_term: true
    bias_filler {
      type: "constant"
      value: 0
    }
  }
}
layer {
  name: "conv5_1/sep_relu"
  type: "ReLU"
  bottom: "conv5_1/sep"
  top: "conv5_1/sep"
}
layer {
  name: "conv5_2/dw"
  type: "Convolution"
  bottom: "conv5_1/sep"
  top: "conv5_2/dw"
  param {
    lr_mult: 1
    decay_mult: 1
  }
  convolution_param {
    num_output: 512
    bias_term: false
    pad: 1
    kernel_size: 3
    group: 512
    stride: 1
    weight_filler {
      type: "gaussian"
      std: 0.01
    }
    engine: CAFFE
  }
}
layer {
  name: "conv5_2/dw/bn"
  type: "BatchNorm"
  bottom: "conv5_2/dw"
  top: "conv5_2/dw"
  batch_norm_param {
    moving_average_fraction: 0.999
    eps: 0.001
  }
}
layer {
  name: "conv5_2/dw/scale"
  type: "Scale"
  bottom: "conv5_2/dw"
  top: "conv5_2/dw"
  param {
    lr_mult: 1
    decay_mult: 0
  }
  param {
    lr_mult: 1
    decay_mult: 0
  }
  scale_param {
    filler {
      type: "constant"
      value: 1
    }
    bias_term: true
    bias_filler {
      type: "constant"
      value: 0
    }
  }
}
layer {
  name: "conv5_2/dw_relu"
  type: "ReLU"
  bottom: "conv5_2/dw"
  top: "conv5_2/dw"
}
layer {
  name: "conv5_2/sep"
  type: "Convolution"
  bottom: "conv5_2/dw"
  top: "conv5_2/sep"
  param {
    lr_mult: 1
    decay_mult: 1
  }
  convolution_param {
    num_output: 512
    bias_term: false
    pad: 0
    kernel_size: 1
    group: 1
    stride: 1
    weight_filler {
      type: "gaussian"
      std: 0.01
    }
    engine: DEFAULT
  }
}
layer {
  name: "conv5_2/sep/bn"
  type: "BatchNorm"
  bottom: "conv5_2/sep"
  top: "conv5_2/sep"
  batch_norm_param {
    moving_average_fraction: 0.999
    eps: 0.001
  }
}
layer {
  name: "conv5_2/sep/scale"
  type: "Scale"
  bottom: "conv5_2/sep"
  top: "conv5_2/sep"
  param {
    lr_mult: 1
    decay_mult: 0
  }
  param {
    lr_mult: 1
    decay_mult: 0
  }
  scale_param {
    filler {
      type: "constant"
      value: 1
    }
    bias_term: true
    bias_filler {
      type: "constant"
      value: 0
    }
  }
}
layer {
  name: "conv5_2/sep_relu"
  type: "ReLU"
  bottom: "conv5_2/sep"
  top: "conv5_2/sep"
}
layer {
  name: "conv5_3/dw"
  type: "Convolution"
  bottom: "conv5_2/sep"
  top: "conv5_3/dw"
  param {
    lr_mult: 1
    decay_mult: 1
  }
  convolution_param {
    num_output: 512
    bias_term: false
    pad: 1
    kernel_size: 3
    group: 512
    stride: 1
    weight_filler {
      type: "gaussian"
      std: 0.01
    }
    engine: CAFFE
  }
}
layer {
  name: "conv5_3/dw/bn"
  type: "BatchNorm"
  bottom: "conv5_3/dw"
  top: "conv5_3/dw"
  batch_norm_param {
    moving_average_fraction: 0.999
    eps: 0.001
  }
}
layer {
  name: "conv5_3/dw/scale"
  type: "Scale"
  bottom: "conv5_3/dw"
  top: "conv5_3/dw"
  param {
    lr_mult: 1
    decay_mult: 0
  }
  param {
    lr_mult: 1
    decay_mult: 0
  }
  scale_param {
    filler {
      type: "constant"
      value: 1
    }
    bias_term: true
    bias_filler {
      type: "constant"
      value: 0
    }
  }
}
layer {
  name: "conv5_3/dw_relu"
  type: "ReLU"
  bottom: "conv5_3/dw"
  top: "conv5_3/dw"
}
layer {
  name: "conv5_3/sep"
  type: "Convolution"
  bottom: "conv5_3/dw"
  top: "conv5_3/sep"
  param {
    lr_mult: 1
    decay_mult: 1
  }
  convolution_param {
    num_output: 512
    bias_term: false
    pad: 0
    kernel_size: 1
    group: 1
    stride: 1
    weight_filler {
      type: "gaussian"
      std: 0.01
    }
    engine: DEFAULT
  }
}
layer {
  name: "conv5_3/sep/bn"
  type: "BatchNorm"
  bottom: "conv5_3/sep"
  top: "conv5_3/sep"
  batch_norm_param {
    moving_average_fraction: 0.999
    eps: 0.001
  }
}
layer {
  name: "conv5_3/sep/scale"
  type: "Scale"
  bottom: "conv5_3/sep"
  top: "conv5_3/sep"
  param {
    lr_mult: 1
    decay_mult: 0
  }
  param {
    lr_mult: 1
    decay_mult: 0
  }
  scale_param {
    filler {
      type: "constant"
      value: 1
    }
    bias_term: true
    bias_filler {
      type: "constant"
      value: 0
    }
  }
}
layer {
  name: "conv5_3/sep_relu"
  type: "ReLU"
  bottom: "conv5_3/sep"
  top: "conv5_3/sep"
}
layer {
  name: "conv5_4/dw"
  type: "Convolution"
  bottom: "conv5_3/sep"
  top: "conv5_4/dw"
  param {
    lr_mult: 1
    decay_mult: 1
  }
  convolution_param {
    num_output: 512
    bias_term: false
    pad: 1
    kernel_size: 3
    group: 512
    stride: 1
    weight_filler {
      type: "gaussian"
      std: 0.01
    }
    engine: CAFFE
  }
}
layer {
  name: "conv5_4/dw/bn"
  type: "BatchNorm"
  bottom: "conv5_4/dw"
  top: "conv5_4/dw"
  batch_norm_param {
    moving_average_fraction: 0.999
    eps: 0.001
  }
}
layer {
  name: "conv5_4/dw/scale"
  type: "Scale"
  bottom: "conv5_4/dw"
  top: "conv5_4/dw"
  param {
    lr_mult: 1
    decay_mult: 0
  }
  param {
    lr_mult: 1
    decay_mult: 0
  }
  scale_param {
    filler {
      type: "constant"
      value: 1
    }
    bias_term: true
    bias_filler {
      type: "constant"
      value: 0
    }
  }
}
layer {
  name: "conv5_4/dw_relu"
  type: "ReLU"
…
I0729 21:15:15.984712 13348 net.cpp:150] Setting up conv5_6/dw_relu
I0729 21:15:15.984727 13348 net.cpp:157] Top shape: 8 512 10 10 (409600)
I0729 21:15:15.984731 13348 net.cpp:165] Memory required for data: 1228214336
I0729 21:15:15.984735 13348 layer_factory.hpp:77] Creating layer conv5_6/sep
I0729 21:15:15.984746 13348 net.cpp:100] Creating Layer conv5_6/sep
I0729 21:15:15.984751 13348 net.cpp:434] conv5_6/sep <- conv5_6/dw
I0729 21:15:15.984760 13348 net.cpp:408] conv5_6/sep -> conv5_6/sep
I0729 21:15:15.993250 13348 net.cpp:150] Setting up conv5_6/sep
I0729 21:15:15.993266 13348 net.cpp:157] Top shape: 8 1024 10 10 (819200)
I0729 21:15:15.993270 13348 net.cpp:165] Memory required for data: 1231491136
I0729 21:15:15.993278 13348 layer_factory.hpp:77] Creating layer conv5_6/sep/bn
I0729 21:15:15.993285 13348 net.cpp:100] Creating Layer conv5_6/sep/bn
I0729 21:15:15.993289 13348 net.cpp:434] conv5_6/sep/bn <- conv5_6/sep
I0729 21:15:15.993295 13348 net.cpp:395] conv5_6/sep/bn -> conv5_6/sep (in-place)
I0729 21:15:15.993532 13348 net.cpp:150] Setting up conv5_6/sep/bn
I0729 21:15:15.993541 13348 net.cpp:157] Top shape: 8 1024 10 10 (819200)
I0729 21:15:15.993543 13348 net.cpp:165] Memory required for data: 1234767936
I0729 21:15:15.993551 13348 layer_factory.hpp:77] Creating layer conv5_6/sep/scale
I0729 21:15:15.993557 13348 net.cpp:100] Creating Layer conv5_6/sep/scale
I0729 21:15:15.993561 13348 net.cpp:434] conv5_6/sep/scale <- conv5_6/sep
I0729 21:15:15.993566 13348 net.cpp:395] conv5_6/sep/scale -> conv5_6/sep (in-place)
I0729 21:15:15.993623 13348 layer_factory.hpp:77] Creating layer conv5_6/sep/scale
I0729 21:15:15.993762 13348 net.cpp:150] Setting up conv5_6/sep/scale
I0729 21:15:15.993770 13348 net.cpp:157] Top shape: 8 1024 10 10 (819200)
I0729 21:15:15.993773 13348 net.cpp:165] Memory required for data: 1238044736
I0729 21:15:15.993780 13348 layer_factory.hpp:77] Creating layer conv5_6/sep_relu
I0729 21:15:15.993787 13348 net.cpp:100] Creating Layer conv5_6/sep_relu
I0729 21:15:15.993789 13348 net.cpp:434] conv5_6/sep_relu <- conv5_6/sep
I0729 21:15:15.993795 13348 net.cpp:395] conv5_6/sep_relu -> conv5_6/sep (in-place)
I0729 21:15:15.994616 13348 net.cpp:150] Setting up conv5_6/sep_relu
I0729 21:15:15.994629 13348 net.cpp:157] Top shape: 8 1024 10 10 (819200)
I0729 21:15:15.994633 13348 net.cpp:165] Memory required for data: 1241321536
I0729 21:15:15.994645 13348 layer_factory.hpp:77] Creating layer conv6/dw
I0729 21:15:15.994655 13348 net.cpp:100] Creating Layer conv6/dw
I0729 21:15:15.994660 13348 net.cpp:434] conv6/dw <- conv5_6/sep
I0729 21:15:15.994668 13348 net.cpp:408] conv6/dw -> conv6/dw
I0729 21:15:15.995025 13348 net.cpp:150] Setting up conv6/dw
I0729 21:15:15.995034 13348 net.cpp:157] Top shape: 8 1024 10 10 (819200)
I0729 21:15:15.995038 13348 net.cpp:165] Memory required for data: 1244598336
I0729 21:15:15.995043 13348 layer_factory.hpp:77] Creating layer conv6/dw/bn
I0729 21:15:15.995051 13348 net.cpp:100] Creating Layer conv6/dw/bn
I0729 21:15:15.995056 13348 net.cpp:434] conv6/dw/bn <- conv6/dw
I0729 21:15:15.995061 13348 net.cpp:395] conv6/dw/bn -> conv6/dw (in-place)
I0729 21:15:15.995293 13348 net.cpp:150] Setting up conv6/dw/bn
I0729 21:15:15.995301 13348 net.cpp:157] Top shape: 8 1024 10 10 (819200)
I0729 21:15:15.995304 13348 net.cpp:165] Memory required for data: 1247875136
I0729 21:15:15.995312 13348 layer_factory.hpp:77] Creating layer conv6/dw/scale
I0729 21:15:15.995319 13348 net.cpp:100] Creating Layer conv6/dw/scale
I0729 21:15:15.995323 13348 net.cpp:434] conv6/dw/scale <- conv6/dw
I0729 21:15:15.995329 13348 net.cpp:395] conv6/dw/scale -> conv6/dw (in-place)
I0729 21:15:15.995402 13348 layer_factory.hpp:77] Creating layer conv6/dw/scale
I0729 21:15:15.995540 13348 net.cpp:150] Setting up conv6/dw/scale
I0729 21:15:15.995548 13348 net.cpp:157] Top shape: 8 1024 10 10 (819200)
I0729 21:15:15.995553 13348 net.cpp:165] Memory required for data: 1251151936
I0729 21:15:15.995558 13348 layer_factory.hpp:77] Creating layer conv6/dw_relu
I0729 21:15:15.995563 13348 net.cpp:100] Creating Layer conv6/dw_relu
I0729 21:15:15.995568 13348 net.cpp:434] conv6/dw_relu <- conv6/dw
I0729 21:15:15.995576 13348 net.cpp:395] conv6/dw_relu -> conv6/dw (in-place)
I0729 21:15:15.995807 13348 net.cpp:150] Setting up conv6/dw_relu
I0729 21:15:15.995817 13348 net.cpp:157] Top shape: 8 1024 10 10 (819200)
I0729 21:15:15.995820 13348 net.cpp:165] Memory required for data: 1254428736
I0729 21:15:15.995824 13348 layer_factory.hpp:77] Creating layer conv6/sep
I0729 21:15:15.995833 13348 net.cpp:100] Creating Layer conv6/sep
I0729 21:15:15.995837 13348 net.cpp:434] conv6/sep <- conv6/dw
I0729 21:15:15.995846 13348 net.cpp:408] conv6/sep -> conv6/sep
I0729 21:15:16.011034 13348 net.cpp:150] Setting up conv6/sep
I0729 21:15:16.011050 13348 net.cpp:157] Top shape: 8 1024 10 10 (819200)
I0729 21:15:16.011054 13348 net.cpp:165] Memory required for data: 1257705536
I0729 21:15:16.011060 13348 layer_factory.hpp:77] Creating layer conv6/sep/bn
I0729 21:15:16.011068 13348 net.cpp:100] Creating Layer conv6/sep/bn
I0729 21:15:16.011081 13348 net.cpp:434] conv6/sep/bn <- conv6/sep
I0729 21:15:16.011088 13348 net.cpp:395] conv6/sep/bn -> conv6/sep (in-place)
I0729 21:15:16.011313 13348 net.cpp:150] Setting up conv6/sep/bn
I0729 21:15:16.011320 13348 net.cpp:157] Top shape: 8 1024 10 10 (819200)
I0729 21:15:16.011324 13348 net.cpp:165] Memory required for data: 1260982336
I0729 21:15:16.011332 13348 layer_factory.hpp:77] Creating layer conv6/sep/scale
I0729 21:15:16.011338 13348 net.cpp:100] Creating Layer conv6/sep/scale
I0729 21:15:16.011343 13348 net.cpp:434] conv6/sep/scale <- conv6/sep
I0729 21:15:16.011348 13348 net.cpp:395] conv6/sep/scale -> conv6/sep (in-place)
I0729 21:15:16.011399 13348 layer_factory.hpp:77] Creating layer conv6/sep/scale
I0729 21:15:16.011528 13348 net.cpp:150] Setting up conv6/sep/scale
I0729 21:15:16.011535 13348 net.cpp:157] Top shape: 8 1024 10 10 (819200)
I0729 21:15:16.011538 13348 net.cpp:165] Memory required for data: 1264259136
I0729 21:15:16.011544 13348 layer_factory.hpp:77] Creating layer conv6/sep_relu
I0729 21:15:16.011551 13348 net.cpp:100] Creating Layer conv6/sep_relu
I0729 21:15:16.011555 13348 net.cpp:434] conv6/sep_relu <- conv6/sep
I0729 21:15:16.011559 13348 net.cpp:395] conv6/sep_relu -> conv6/sep (in-place)
I0729 21:15:16.012372 13348 net.cpp:150] Setting up conv6/sep_relu
I0729 21:15:16.012392 13348 net.cpp:157] Top shape: 8 1024 10 10 (819200)
I0729 21:15:16.012395 13348 net.cpp:165] Memory required for data: 1267535936
I0729 21:15:16.012399 13348 layer_factory.hpp:77] Creating layer conv6/sep_conv6/sep_relu_0_split
I0729 21:15:16.012406 13348 net.cpp:100] Creating Layer conv6/sep_conv6/sep_relu_0_split
I0729 21:15:16.012410 13348 net.cpp:434] conv6/sep_conv6/sep_relu_0_split <- conv6/sep
I0729 21:15:16.012418 13348 net.cpp:408] conv6/sep_conv6/sep_relu_0_split -> conv6/sep_conv6/sep_relu_0_split_0
I0729 21:15:16.012425 13348 net.cpp:408] conv6/sep_conv6/sep_relu_0_split -> conv6/sep_conv6/sep_relu_0_split_1
I0729 21:15:16.012432 13348 net.cpp:408] conv6/sep_conv6/sep_relu_0_split -> conv6/sep_conv6/sep_relu_0_split_2
I0729 21:15:16.012439 13348 net.cpp:408] conv6/sep_conv6/sep_relu_0_split -> conv6/sep_conv6/sep_relu_0_split_3
I0729 21:15:16.012527 13348 net.cpp:150] Setting up conv6/sep_conv6/sep_relu_0_split
I0729 21:15:16.012536 13348 net.cpp:157] Top shape: 8 1024 10 10 (819200)
I0729 21:15:16.012540 13348 net.cpp:157] Top shape: 8 1024 10 10 (819200)
I0729 21:15:16.012544 13348 net.cpp:157] Top shape: 8 1024 10 10 (819200)
I0729 21:15:16.012548 13348 net.cpp:157] Top shape: 8 1024 10 10 (819200)
I0729 21:15:16.012552 13348 net.cpp:165] Memory required for data: 1280643136
I0729 21:15:16.012555 13348 layer_factory.hpp:77] Creating layer conv7_1
I0729 21:15:16.012564 13348 net.cpp:100] Creating Layer conv7_1
I0729 21:15:16.012568 13348 net.cpp:434] conv7_1 <- conv6/sep_conv6/sep_relu_0_split_0
I0729 21:15:16.012575 13348 net.cpp:408] conv7_1 -> conv7_1
I0729 21:15:16.016582 13348 net.cpp:150] Setting up conv7_1
I0729 21:15:16.016597 13348 net.cpp:157] Top shape: 8 256 10 10 (204800)
I0729 21:15:16.016602 13348 net.cpp:165] Memory required for data: 1281462336
I0729 21:15:16.016608 13348 layer_factory.hpp:77] Creating layer conv7_1_relu
I0729 21:15:16.016614 13348 net.cpp:100] Creating Layer conv7_1_relu
I0729 21:15:16.016618 13348 net.cpp:434] conv7_1_relu <- conv7_1
I0729 21:15:16.016625 13348 net.cpp:395] conv7_1_relu -> conv7_1 (in-place)
I0729 21:15:16.016842 13348 net.cpp:150] Setting up conv7_1_relu
I0729 21:15:16.016854 13348 net.cpp:157] Top shape: 8 256 10 10 (204800)
I0729 21:15:16.016856 13348 net.cpp:165] Memory required for data: 1282281536
I0729 21:15:16.016860 13348 layer_factory.hpp:77] Creating layer conv7_2
I0729 21:15:16.016870 13348 net.cpp:100] Creating Layer conv7_2
I0729 21:15:16.016875 13348 net.cpp:434] conv7_2 <- conv7_1
I0729 21:15:16.016880 13348 net.cpp:408] conv7_2 -> conv7_2
I0729 21:15:16.027259 13348 net.cpp:150] Setting up conv7_2
I0729 21:15:16.027276 13348 net.cpp:157] Top shape: 8 512 5 5 (102400)
I0729 21:15:16.027279 13348 net.cpp:165] Memory required for data: 1282691136
I0729 21:15:16.027287 13348 layer_factory.hpp:77] Creating layer conv7_2_relu
I0729 21:15:16.027293 13348 net.cpp:100] Creating Layer conv7_2_relu
I0729 21:15:16.027297 13348 net.cpp:434] conv7_2_relu <- conv7_2
I0729 21:15:16.027302 13348 net.cpp:395] conv7_2_relu -> conv7_2 (in-place)
I0729 21:15:16.027505 13348 net.cpp:150] Setting up conv7_2_relu
I0729 21:15:16.027513 13348 net.cpp:157] Top shape: 8 512 5 5 (102400)
I0729 21:15:16.027518 13348 net.cpp:165] Memory required for data: 1283100736
I0729 21:15:16.027520 13348 layer_factory.hpp:77] Creating layer conv7_2_conv7_2_relu_0_split
I0729 21:15:16.027528 13348 net.cpp:100] Creating Layer conv7_2_conv7_2_relu_0_split
I0729 21:15:16.027530 13348 net.cpp:434] conv7_2_conv7_2_relu_0_split <- conv7_2
I0729 21:15:16.027537 13348 net.cpp:408] conv7_2_conv7_2_relu_0_split -> conv7_2_conv7_2_relu_0_split_0
I0729 21:15:16.027544 13348 net.cpp:408] conv7_2_conv7_2_relu_0_split -> conv7_2_conv7_2_relu_0_split_1
I0729 21:15:16.027551 13348 net.cpp:408] conv7_2_conv7_2_relu_0_split -> conv7_2_conv7_2_relu_0_split_2
I0729 21:15:16.027557 13348 net.cpp:408] conv7_2_conv7_2_relu_0_split -> conv7_2_conv7_2_relu_0_split_3
I0729 21:15:16.027626 13348 net.cpp:150] Setting up conv7_2_conv7_2_relu_0_split
I0729 21:15:16.027632 13348 net.cpp:157] Top shape: 8 512 5 5 (102400)
I0729 21:15:16.027644 13348 net.cpp:157] Top shape: 8 512 5 5 (102400)
I0729 21:15:16.027648 13348 net.cpp:157] Top shape: 8 512 5 5 (102400)
I0729 21:15:16.027652 13348 net.cpp:157] Top shape: 8 512 5 5 (102400)
I0729 21:15:16.027655 13348 net.cpp:165] Memory required for data: 1284739136
I0729 21:15:16.027659 13348 layer_factory.hpp:77] Creating layer conv8_1
I0729 21:15:16.027668 13348 net.cpp:100] Creating Layer conv8_1
I0729 21:15:16.027673 13348 net.cpp:434] conv8_1 <- conv7_2_conv7_2_relu_0_split_0
I0729 21:15:16.027680 13348 net.cpp:408] conv8_1 -> conv8_1
I0729 21:15:16.030663 13348 net.cpp:150] Setting up conv8_1
I0729 21:15:16.030676 13348 net.cpp:157] Top shape: 8 128 5 5 (25600)
I0729 21:15:16.030680 13348 net.cpp:165] Memory required for data: 1284841536
I0729 21:15:16.030691 13348 layer_factory.hpp:77] Creating layer conv8_1_relu
I0729 21:15:16.030697 13348 net.cpp:100] Creating Layer conv8_1_relu
I0729 21:15:16.030701 13348 net.cpp:434] conv8_1_relu <- conv8_1
I0729 21:15:16.030709 13348 net.cpp:395] conv8_1_relu -> conv8_1 (in-place)
I0729 21:15:16.031487 13348 net.cpp:150] Setting up conv8_1_relu
I0729 21:15:16.031500 13348 net.cpp:157] Top shape: 8 128 5 5 (25600)
I0729 21:15:16.031503 13348 net.cpp:165] Memory required for data: 1284943936
I0729 21:15:16.031507 13348 layer_factory.hpp:77] Creating layer conv8_2
I0729 21:15:16.031517 13348 net.cpp:100] Creating Layer conv8_2
I0729 21:15:16.031520 13348 net.cpp:434] conv8_2 <- conv8_1
I0729 21:15:16.031527 13348 net.cpp:408] conv8_2 -> conv8_2
I0729 21:15:16.035785 13348 net.cpp:150] Setting up conv8_2
I0729 21:15:16.035799 13348 net.cpp:157] Top shape: 8 256 3 3 (18432)
I0729 21:15:16.035804 13348 net.cpp:165] Memory required for data: 1285017664
I0729 21:15:16.035809 13348 layer_factory.hpp:77] Creating layer conv8_2_relu
I0729 21:15:16.035818 13348 net.cpp:100] Creating Layer conv8_2_relu
I0729 21:15:16.035822 13348 net.cpp:434] conv8_2_relu <- conv8_2
I0729 21:15:16.035827 13348 net.cpp:395] conv8_2_relu -> conv8_2 (in-place)
I0729 21:15:16.036034 13348 net.cpp:150] Setting up conv8_2_relu
I0729 21:15:16.036043 13348 net.cpp:157] Top shape: 8 256 3 3 (18432)
I0729 21:15:16.036046 13348 net.cpp:165] Memory required for data: 1285091392
I0729 21:15:16.036049 13348 layer_factory.hpp:77] Creating layer conv8_2_conv8_2_relu_0_split
I0729 21:15:16.036056 13348 net.cpp:100] Creating Layer conv8_2_conv8_2_relu_0_split
I0729 21:15:16.036061 13348 net.cpp:434] conv8_2_conv8_2_relu_0_split <- conv8_2
I0729 21:15:16.036067 13348 net.cpp:408] conv8_2_conv8_2_relu_0_split -> conv8_2_conv8_2_relu_0_split_0
I0729 21:15:16.036073 13348 net.cpp:408] conv8_2_conv8_2_relu_0_split -> conv8_2_conv8_2_relu_0_split_1
I0729 21:15:16.036080 13348 net.cpp:408] conv8_2_conv8_2_relu_0_split -> conv8_2_conv8_2_relu_0_split_2
I0729 21:15:16.036087 13348 net.cpp:408] conv8_2_conv8_2_relu_0_split -> conv8_2_conv8_2_relu_0_split_3
I0729 21:15:16.036160 13348 net.cpp:150] Setting up conv8_2_conv8_2_relu_0_split
I0729 21:15:16.036167 13348 net.cpp:157] Top shape: 8 256 3 3 (18432)
I0729 21:15:16.036171 13348 net.cpp:157] Top shape: 8 256 3 3 (18432)
I0729 21:15:16.036175 13348 net.cpp:157] Top shape: 8 256 3 3 (18432)
I0729 21:15:16.036180 13348 net.cpp:157] Top shape: 8 256 3 3 (18432)
I0729 21:15:16.036182 13348 net.cpp:165] Memory required for data: 1285386304
I0729 21:15:16.036185 13348 layer_factory.hpp:77] Creating layer conv9_1
I0729 21:15:16.036195 13348 net.cpp:100] Creating Layer conv9_1
I0729 21:15:16.036198 13348 net.cpp:434] conv9_1 <- conv8_2_conv8_2_relu_0_split_0
I0729 21:15:16.036204 13348 net.cpp:408] conv9_1 -> conv9_1
I0729 21:15:16.038336 13348 net.cpp:150] Setting up conv9_1
I0729 21:15:16.038349 13348 net.cpp:157] Top shape: 8 128 3 3 (9216)
I0729 21:15:16.038353 13348 net.cpp:165] Memory required for data: 1285423168
I0729 21:15:16.038359 13348 layer_factory.hpp:77] Creating layer conv9_1_relu
I0729 21:15:16.038367 13348 net.cpp:100] Creating Layer conv9_1_relu
I0729 21:15:16.038370 13348 net.cpp:434] conv9_1_relu <- conv9_1
I0729 21:15:16.038383 13348 net.cpp:395] conv9_1_relu -> conv9_1 (in-place)
I0729 21:15:16.038584 13348 net.cpp:150] Setting up conv9_1_relu
I0729 21:15:16.038594 13348 net.cpp:157] Top shape: 8 128 3 3 (9216)
I0729 21:15:16.038597 13348 net.cpp:165] Memory required for data: 1285460032
I0729 21:15:16.038600 13348 layer_factory.hpp:77] Creating layer conv9_2
I0729 21:15:16.038609 13348 net.cpp:100] Creating Layer conv9_2
I0729 21:15:16.038614 13348 net.cpp:434] conv9_2 <- conv9_1
I0729 21:15:16.038619 13348 net.cpp:408] conv9_2 -> conv9_2
I0729 21:15:16.042649 13348 net.cpp:150] Setting up conv9_2
I0729 21:15:16.042665 13348 net.cpp:157] Top shape: 8 256 2 2 (8192)
I0729 21:15:16.042668 13348 net.cpp:165] Memory required for data: 1285492800
I0729 21:15:16.042675 13348 layer_factory.hpp:77] Creating layer conv9_2_relu
I0729 21:15:16.042685 13348 net.cpp:100] Creating Layer conv9_2_relu
I0729 21:15:16.042690 13348 net.cpp:434] conv9_2_relu <- conv9_2
I0729 21:15:16.042695 13348 net.cpp:395] conv9_2_relu -> conv9_2 (in-place)
I0729 21:15:16.043413 13348 net.cpp:150] Setting up conv9_2_relu
I0729 21:15:16.043426 13348 net.cpp:157] Top shape: 8 256 2 2 (8192)
I0729 21:15:16.043428 13348 net.cpp:165] Memory required for data: 1285525568
I0729 21:15:16.043432 13348 layer_factory.hpp:77] Creating layer conv9_2_conv9_2_relu_0_split
I0729 21:15:16.043439 13348 net.cpp:100] Creating Layer conv9_2_conv9_2_relu_0_split
I0729 21:15:16.043443 13348 net.cpp:434] conv9_2_conv9_2_relu_0_split <- conv9_2
I0729 21:15:16.043449 13348 net.cpp:408] conv9_2_conv9_2_relu_0_split -> conv9_2_conv9_2_relu_0_split_0
I0729 21:15:16.043457 13348 net.cpp:408] conv9_2_conv9_2_relu_0_split -> conv9_2_conv9_2_relu_0_split_1
I0729 21:15:16.043463 13348 net.cpp:408] conv9_2_conv9_2_relu_0_split -> conv9_2_conv9_2_relu_0_split_2
I0729 21:15:16.043468 13348 net.cpp:408] conv9_2_conv9_2_relu_0_split -> conv9_2_conv9_2_relu_0_split_3
I0729 21:15:16.043540 13348 net.cpp:150] Setting up conv9_2_conv9_2_relu_0_split
I0729 21:15:16.043547 13348 net.cpp:157] Top shape: 8 256 2 2 (8192)
I0729 21:15:16.043551 13348 net.cpp:157] Top shape: 8 256 2 2 (8192)
I0729 21:15:16.043555 13348 net.cpp:157] Top shape: 8 256 2 2 (8192)
I0729 21:15:16.043560 13348 net.cpp:157] Top shape: 8 256 2 2 (8192)
I0729 21:15:16.043561 13348 net.cpp:165] Memory required for data: 1285656640
I0729 21:15:16.043565 13348 layer_factory.hpp:77] Creating layer conv10_1
I0729 21:15:16.043575 13348 net.cpp:100] Creating Layer conv10_1
I0729 21:15:16.043577 13348 net.cpp:434] conv10_1 <- conv9_2_conv9_2_relu_0_split_0
I0729 21:15:16.043584 13348 net.cpp:408] conv10_1 -> conv10_1
I0729 21:15:16.045686 13348 net.cpp:150] Setting up conv10_1
I0729 21:15:16.045699 13348 net.cpp:157] Top shape: 8 128 2 2 (4096)
I0729 21:15:16.045703 13348 net.cpp:165] Memory required for data: 1285673024
I0729 21:15:16.045709 13348 layer_factory.hpp:77] Creating layer conv10_1_relu
I0729 21:15:16.045730 13348 net.cpp:100] Creating Layer conv10_1_relu
I0729 21:15:16.045734 13348 net.cpp:434] conv10_1_relu <- conv10_1
I0729 21:15:16.045739 13348 net.cpp:395] conv10_1_relu -> conv10_1 (in-place)
I0729 21:15:16.045999 13348 net.cpp:150] Setting up conv10_1_relu
I0729 21:15:16.046007 13348 net.cpp:157] Top shape: 8 128 2 2 (4096)
I0729 21:15:16.046011 13348 net.cpp:165] Memory required for data: 1285689408
I0729 21:15:16.046015 13348 layer_factory.hpp:77] Creating layer conv10_2
I0729 21:15:16.046023 13348 net.cpp:100] Creating Layer conv10_2
I0729 21:15:16.046026 13348 net.cpp:434] conv10_2 <- conv10_1
I0729 21:15:16.046031 13348 net.cpp:408] conv10_2 -> conv10_2
I0729 21:15:16.050271 13348 net.cpp:150] Setting up conv10_2
I0729 21:15:16.050287 13348 net.cpp:157] Top shape: 8 256 1 1 (2048)
I0729 21:15:16.050289 13348 net.cpp:165] Memory required for data: 1285697600
I0729 21:15:16.050295 13348 layer_factory.hpp:77] Creating layer conv10_2_relu
I0729 21:15:16.050302 13348 net.cpp:100] Creating Layer conv10_2_relu
I0729 21:15:16.050305 13348 net.cpp:434] conv10_2_relu <- conv10_2
I0729 21:15:16.050310 13348 net.cpp:395] conv10_2_relu -> conv10_2 (in-place)
I0729 21:15:16.050513 13348 net.cpp:150] Setting up conv10_2_relu
I0729 21:15:16.050523 13348 net.cpp:157] Top shape: 8 256 1 1 (2048)
I0729 21:15:16.050525 13348 net.cpp:165] Memory required for data: 1285705792
I0729 21:15:16.050529 13348 layer_factory.hpp:77] Creating layer conv10_2_conv10_2_relu_0_split
I0729 21:15:16.050535 13348 net.cpp:100] Creating Layer conv10_2_conv10_2_relu_0_split
I0729 21:15:16.050539 13348 net.cpp:434] conv10_2_conv10_2_relu_0_split <- conv10_2
I0729 21:15:16.050544 13348 net.cpp:408] conv10_2_conv10_2_relu_0_split -> conv10_2_conv10_2_relu_0_split_0
I0729 21:15:16.050559 13348 net.cpp:408] conv10_2_conv10_2_relu_0_split -> conv10_2_conv10_2_relu_0_split_1
I0729 21:15:16.050567 13348 net.cpp:408] conv10_2_conv10_2_relu_0_split -> conv10_2_conv10_2_relu_0_split_2
I0729 21:15:16.050629 13348 net.cpp:150] Setting up conv10_2_conv10_2_relu_0_split
I0729 21:15:16.050637 13348 net.cpp:157] Top shape: 8 256 1 1 (2048)
I0729 21:15:16.050640 13348 net.cpp:157] Top shape: 8 256 1 1 (2048)
I0729 21:15:16.050643 13348 net.cpp:157] Top shape: 8 256 1 1 (2048)
I0729 21:15:16.050647 13348 net.cpp:165] Memory required for data: 1285730368
I0729 21:15:16.050649 13348 layer_factory.hpp:77] Creating layer conv5_5/sep_mbox_loc
I0729 21:15:16.050658 13348 net.cpp:100] Creating Layer conv5_5/sep_mbox_loc
I0729 21:15:16.050662 13348 net.cpp:434] conv5_5/sep_mbox_loc <- conv5_5/sep_conv5_5/sep_relu_0_split_1
I0729 21:15:16.050670 13348 net.cpp:408] conv5_5/sep_mbox_loc -> conv5_5/sep_mbox_loc
I0729 21:15:16.054121 13348 net.cpp:150] Setting up conv5_5/sep_mbox_loc
I0729 21:15:16.054137 13348 net.cpp:157] Top shape: 8 12 19 19 (34656)
I0729 21:15:16.054142 13348 net.cpp:165] Memory required for data: 1285868992
I0729 21:15:16.054152 13348 layer_factory.hpp:77] Creating layer conv5_5/sep_mbox_loc_perm
I0729 21:15:16.054162 13348 net.cpp:100] Creating Layer conv5_5/sep_mbox_loc_perm
I0729 21:15:16.054168 13348 net.cpp:434] conv5_5/sep_mbox_loc_perm <- conv5_5/sep_mbox_loc
I0729 21:15:16.054177 13348 net.cpp:408] conv5_5/sep_mbox_loc_perm -> conv5_5/sep_mbox_loc_perm
I0729 21:15:16.054322 13348 net.cpp:150] Setting up conv5_5/sep_mbox_loc_perm
I0729 21:15:16.054332 13348 net.cpp:157] Top shape: 8 19 19 12 (34656)
I0729 21:15:16.054337 13348 net.cpp:165] Memory required for data: 1286007616
I0729 21:15:16.054342 13348 layer_factory.hpp:77] Creating layer conv5_5/sep_mbox_loc_flat
I0729 21:15:16.054348 13348 net.cpp:100] Creating Layer conv5_5/sep_mbox_loc_flat
I0729 21:15:16.054354 13348 net.cpp:434] conv5_5/sep_mbox_loc_flat <- conv5_5/sep_mbox_loc_perm
I0729 21:15:16.054363 13348 net.cpp:408] conv5_5/sep_mbox_loc_flat -> conv5_5/sep_mbox_loc_flat
I0729 21:15:16.054395 13348 net.cpp:150] Setting up conv5_5/sep_mbox_loc_flat
I0729 21:15:16.054404 13348 net.cpp:157] Top shape: 8 4332 (34656)
I0729 21:15:16.054409 13348 net.cpp:165] Memory required for data: 1286146240
I0729 21:15:16.054412 13348 layer_factory.hpp:77] Creating layer conv5_5/sep_mbox_conf
I0729 21:15:16.054425 13348 net.cpp:100] Creating Layer conv5_5/sep_mbox_conf
I0729 21:15:16.054430 13348 net.cpp:434] conv5_5/sep_mbox_conf <- conv5_5/sep_conv5_5/sep_relu_0_split_2
I0729 21:15:16.054440 13348 net.cpp:408] conv5_5/sep_mbox_conf -> conv5_5/sep_mbox_conf
I0729 21:15:16.057181 13348 net.cpp:150] Setting up conv5_5/sep_mbox_conf
I0729 21:15:16.057195 13348 net.cpp:157] Top shape: 8 9 19 19 (25992)
I0729 21:15:16.057199 13348 net.cpp:165] Memory required for data: 1286250208
I0729 21:15:16.057205 13348 layer_factory.hpp:77] Creating layer conv5_5/sep_mbox_conf_perm
I0729 21:15:16.057212 13348 net.cpp:100] Creating Layer conv5_5/sep_mbox_conf_perm
I0729 21:15:16.057216 13348 net.cpp:434] conv5_5/sep_mbox_conf_perm <- conv5_5/sep_mbox_conf
I0729 21:15:16.057221 13348 net.cpp:408] conv5_5/sep_mbox_conf_perm -> conv5_5/sep_mbox_conf_perm
I0729 21:15:16.057329 13348 net.cpp:150] Setting up conv5_5/sep_mbox_conf_perm
I0729 21:15:16.057335 13348 net.cpp:157] Top shape: 8 19 19 9 (25992)
I0729 21:15:16.057338 13348 net.cpp:165] Memory required for data: 1286354176
I0729 21:15:16.057348 13348 layer_factory.hpp:77] Creating layer conv5_5/sep_mbox_conf_flat
I0729 21:15:16.057353 13348 net.cpp:100] Creating Layer conv5_5/sep_mbox_conf_flat
I0729 21:15:16.057356 13348 net.cpp:434] conv5_5/sep_mbox_conf_flat <- conv5_5/sep_mbox_conf_perm
I0729 21:15:16.057365 13348 net.cpp:408] conv5_5/sep_mbox_conf_flat -> conv5_5/sep_mbox_conf_flat
I0729 21:15:16.057391 13348 net.cpp:150] Setting up conv5_5/sep_mbox_conf_flat
I0729 21:15:16.057397 13348 net.cpp:157] Top shape: 8 3249 (25992)
I0729 21:15:16.057399 13348 net.cpp:165] Memory required for data: 1286458144
I0729 21:15:16.057402 13348 layer_factory.hpp:77] Creating layer conv5_5/sep_mbox_priorbox
I0729 21:15:16.057409 13348 net.cpp:100] Creating Layer conv5_5/sep_mbox_priorbox
I0729 21:15:16.057415 13348 net.cpp:434] conv5_5/sep_mbox_priorbox <- conv5_5/sep_conv5_5/sep_relu_0_split_3
I0729 21:15:16.057420 13348 net.cpp:434] conv5_5/sep_mbox_priorbox <- data_data_0_split_1
I0729 21:15:16.057426 13348 net.cpp:408] conv5_5/sep_mbox_priorbox -> conv5_5/sep_mbox_priorbox
I0729 21:15:16.057454 13348 net.cpp:150] Setting up conv5_5/sep_mbox_priorbox
I0729 21:15:16.057459 13348 net.cpp:157] Top shape: 1 2 4332 (8664)
I0729 21:15:16.057462 13348 net.cpp:165] Memory required for data: 1286492800
I0729 21:15:16.057464 13348 layer_factory.hpp:77] Creating layer conv6/sep_mbox_loc
I0729 21:15:16.057473 13348 net.cpp:100] Creating Layer conv6/sep_mbox_loc
I0729 21:15:16.057477 13348 net.cpp:434] conv6/sep_mbox_loc <- conv6/sep_conv6/sep_relu_0_split_1
I0729 21:15:16.057482 13348 net.cpp:408] conv6/sep_mbox_loc -> conv6/sep_mbox_loc
I0729 21:15:16.062687 13348 net.cpp:150] Setting up conv6/sep_mbox_loc
I0729 21:15:16.062700 13348 net.cpp:157] Top shape: 8 24 10 10 (19200)
I0729 21:15:16.062703 13348 net.cpp:165] Memory required for data: 1286569600
I0729 21:15:16.062710 13348 layer_factory.hpp:77] Creating layer conv6/sep_mbox_loc_perm
I0729 21:15:16.062714 13348 net.cpp:100] Creating Layer conv6/sep_mbox_loc_perm
I0729 21:15:16.062717 13348 net.cpp:434] conv6/sep_mbox_loc_perm <- conv6/sep_mbox_loc
I0729 21:15:16.062723 13348 net.cpp:408] conv6/sep_mbox_loc_perm -> conv6/sep_mbox_loc_perm
I0729 21:15:16.062818 13348 net.cpp:150] Setting up conv6/sep_mbox_loc_perm
I0729 21:15:16.062824 13348 net.cpp:157] Top shape: 8 10 10 24 (19200)
I0729 21:15:16.062826 13348 net.cpp:165] Memory required for data: 1286646400
I0729 21:15:16.062829 13348 layer_factory.hpp:77] Creating layer conv6/sep_mbox_loc_flat
I0729 21:15:16.062832 13348 net.cpp:100] Creating Layer conv6/sep_mbox_loc_flat
I0729 21:15:16.062835 13348 net.cpp:434] conv6/sep_mbox_loc_flat <- conv6/sep_mbox_loc_perm
I0729 21:15:16.062841 13348 net.cpp:408] conv6/sep_mbox_loc_flat -> conv6/sep_mbox_loc_flat
I0729 21:15:16.062861 13348 net.cpp:150] Setting up conv6/sep_mbox_loc_flat
I0729 21:15:16.062867 13348 net.cpp:157] Top shape: 8 2400 (19200)
I0729 21:15:16.062870 13348 net.cpp:165] Memory required for data: 1286723200
I0729 21:15:16.062872 13348 layer_factory.hpp:77] Creating layer conv6/sep_mbox_conf
I0729 21:15:16.062880 13348 net.cpp:100] Creating Layer conv6/sep_mbox_conf
I0729 21:15:16.062882 13348 net.cpp:434] conv6/sep_mbox_conf <- conv6/sep_conv6/sep_relu_0_split_2
I0729 21:15:16.062886 13348 net.cpp:408] conv6/sep_mbox_conf -> conv6/sep_mbox_conf
I0729 21:15:16.066012 13348 net.cpp:150] Setting up conv6/sep_mbox_conf
I0729 21:15:16.066025 13348 net.cpp:157] Top shape: 8 18 10 10 (14400)
I0729 21:15:16.066028 13348 net.cpp:165] Memory required for data: 1286780800
I0729 21:15:16.066033 13348 layer_factory.hpp:77] Creating layer conv6/sep_mbox_conf_perm
I0729 21:15:16.066038 13348 net.cpp:100] Creating Layer conv6/sep_mbox_conf_perm
I0729 21:15:16.066042 13348 net.cpp:434] conv6/sep_mbox_conf_perm <- conv6/sep_mbox_conf
I0729 21:15:16.066047 13348 net.cpp:408] conv6/sep_mbox_conf_perm -> conv6/sep_mbox_conf_perm
I0729 21:15:16.066143 13348 net.cpp:150] Setting up conv6/sep_mbox_conf_perm
I0729 21:15:16.066148 13348 net.cpp:157] Top shape: 8 10 10 18 (14400)
I0729 21:15:16.066162 13348 net.cpp:165] Memory required for data: 1286838400
I0729 21:15:16.066165 13348 layer_factory.hpp:77] Creating layer conv6/sep_mbox_conf_flat
I0729 21:15:16.066169 13348 net.cpp:100] Creating Layer conv6/sep_mbox_conf_flat
I0729 21:15:16.066172 13348 net.cpp:434] conv6/sep_mbox_conf_flat <- conv6/sep_mbox_conf_perm
I0729 21:15:16.066177 13348 net.cpp:408] conv6/sep_mbox_conf_flat -> conv6/sep_mbox_conf_flat
I0729 21:15:16.066200 13348 net.cpp:150] Setting up conv6/sep_mbox_conf_flat
I0729 21:15:16.066203 13348 net.cpp:157] Top shape: 8 1800 (14400)
I0729 21:15:16.066205 13348 net.cpp:165] Memory required for data: 1286896000
I0729 21:15:16.066208 13348 layer_factory.hpp:77] Creating layer conv6/sep_mbox_priorbox
I0729 21:15:16.066215 13348 net.cpp:100] Creating Layer conv6/sep_mbox_priorbox
I0729 21:15:16.066220 13348 net.cpp:434] conv6/sep_mbox_priorbox <- conv6/sep_conv6/sep_relu_0_split_3
I0729 21:15:16.066224 13348 net.cpp:434] conv6/sep_mbox_priorbox <- data_data_0_split_2
I0729 21:15:16.066229 13348 net.cpp:408] conv6/sep_mbox_priorbox -> conv6/sep_mbox_priorbox
I0729 21:15:16.066252 13348 net.cpp:150] Setting up conv6/sep_mbox_priorbox
I0729 21:15:16.066256 13348 net.cpp:157] Top shape: 1 2 2400 (4800)
I0729 21:15:16.066259 13348 net.cpp:165] Memory required for data: 1286915200
I0729 21:15:16.066262 13348 layer_factory.hpp:77] Creating layer conv7_2_mbox_loc
I0729 21:15:16.066269 13348 net.cpp:100] Creating Layer conv7_2_mbox_loc
I0729 21:15:16.066272 13348 net.cpp:434] conv7_2_mbox_loc <- conv7_2_conv7_2_relu_0_split_1
I0729 21:15:16.066278 13348 net.cpp:408] conv7_2_mbox_loc -> conv7_2_mbox_loc
I0729 21:15:16.068797 13348 net.cpp:150] Setting up conv7_2_mbox_loc
I0729 21:15:16.068809 13348 net.cpp:157] Top shape: 8 24 5 5 (4800)
I0729 21:15:16.068811 13348 net.cpp:165] Memory required for data: 1286934400
I0729 21:15:16.068817 13348 layer_factory.hpp:77] Creating layer conv7_2_mbox_loc_perm
I0729 21:15:16.068822 13348 net.cpp:100] Creating Layer conv7_2_mbox_loc_perm
I0729 21:15:16.068825 13348 net.cpp:434] conv7_2_mbox_loc_perm <- conv7_2_mbox_loc
I0729 21:15:16.068832 13348 net.cpp:408] conv7_2_mbox_loc_perm -> conv7_2_mbox_loc_perm
I0729 21:15:16.068929 13348 net.cpp:150] Setting up conv7_2_mbox_loc_perm
I0729 21:15:16.068935 13348 net.cpp:157] Top shape: 8 5 5 24 (4800)
I0729 21:15:16.068938 13348 net.cpp:165] Memory required for data: 1286953600
I0729 21:15:16.068940 13348 layer_factory.hpp:77] Creating layer conv7_2_mbox_loc_flat
I0729 21:15:16.068944 13348 net.cpp:100] Creating Layer conv7_2_mbox_loc_flat
I0729 21:15:16.068948 13348 net.cpp:434] conv7_2_mbox_loc_flat <- conv7_2_mbox_loc_perm
I0729 21:15:16.068951 13348 net.cpp:408] conv7_2_mbox_loc_flat -> conv7_2_mbox_loc_flat
I0729 21:15:16.068974 13348 net.cpp:150] Setting up conv7_2_mbox_loc_flat
I0729 21:15:16.068977 13348 net.cpp:157] Top shape: 8 600 (4800)
I0729 21:15:16.068980 13348 net.cpp:165] Memory required for data: 1286972800
I0729 21:15:16.068982 13348 layer_factory.hpp:77] Creating layer conv7_2_mbox_conf
I0729 21:15:16.068989 13348 net.cpp:100] Creating Layer conv7_2_mbox_conf
I0729 21:15:16.068992 13348 net.cpp:434] conv7_2_mbox_conf <- conv7_2_conv7_2_relu_0_split_2
I0729 21:15:16.068998 13348 net.cpp:408] conv7_2_mbox_conf -> conv7_2_mbox_conf
I0729 21:15:16.071367 13348 net.cpp:150] Setting up conv7_2_mbox_conf
I0729 21:15:16.071378 13348 net.cpp:157] Top shape: 8 18 5 5 (3600)
I0729 21:15:16.071380 13348 net.cpp:165] Memory required for data: 1286987200
I0729 21:15:16.071386 13348 layer_factory.hpp:77] Creating layer conv7_2_mbox_conf_perm
I0729 21:15:16.071393 13348 net.cpp:100] Creating Layer conv7_2_mbox_conf_perm
I0729 21:15:16.071395 13348 net.cpp:434] conv7_2_mbox_conf_perm <- conv7_2_mbox_conf
I0729 21:15:16.071401 13348 net.cpp:408] conv7_2_mbox_conf_perm -> conv7_2_mbox_conf_perm
I0729 21:15:16.071492 13348 net.cpp:150] Setting up conv7_2_mbox_conf_perm
I0729 21:15:16.071498 13348 net.cpp:157] Top shape: 8 5 5 18 (3600)
I0729 21:15:16.071501 13348 net.cpp:165] Memory required for data: 1287001600
I0729 21:15:16.071509 13348 layer_factory.hpp:77] Creating layer conv7_2_mbox_conf_flat
I0729 21:15:16.071513 13348 net.cpp:100] Creating Layer conv7_2_mbox_conf_flat
I0729 21:15:16.071516 13348 net.cpp:434] conv7_2_mbox_conf_flat <- conv7_2_mbox_conf_perm
I0729 21:15:16.071521 13348 net.cpp:408] conv7_2_mbox_conf_flat -> conv7_2_mbox_conf_flat
I0729 21:15:16.071542 13348 net.cpp:150] Setting up conv7_2_mbox_conf_flat
I0729 21:15:16.071548 13348 net.cpp:157] Top shape: 8 450 (3600)
I0729 21:15:16.071550 13348 net.cpp:165] Memory required for data: 1287016000
I0729 21:15:16.071553 13348 layer_factory.hpp:77] Creating layer conv7_2_mbox_priorbox
I0729 21:15:16.071558 13348 net.cpp:100] Creating Layer conv7_2_mbox_priorbox
I0729 21:15:16.071560 13348 net.cpp:434] conv7_2_mbox_priorbox <- conv7_2_conv7_2_relu_0_split_3
I0729 21:15:16.071568 13348 net.cpp:434] conv7_2_mbox_priorbox <- data_data_0_split_3
I0729 21:15:16.071573 13348 net.cpp:408] conv7_2_mbox_priorbox -> conv7_2_mbox_priorbox
I0729 21:15:16.071595 13348 net.cpp:150] Setting up conv7_2_mbox_priorbox
I0729 21:15:16.071601 13348 net.cpp:157] Top shape: 1 2 600 (1200)
I0729 21:15:16.071604 13348 net.cpp:165] Memory required for data: 1287020800
I0729 21:15:16.071605 13348 layer_factory.hpp:77] Creating layer conv8_2_mbox_loc
I0729 21:15:16.071614 13348 net.cpp:100] Creating Layer conv8_2_mbox_loc
I0729 21:15:16.071616 13348 net.cpp:434] conv8_2_mbox_loc <- conv8_2_conv8_2_relu_0_split_1
I0729 21:15:16.071620 13348 net.cpp:408] conv8_2_mbox_loc -> conv8_2_mbox_loc
I0729 21:15:16.073937 13348 net.cpp:150] Setting up conv8_2_mbox_loc
I0729 21:15:16.073949 13348 net.cpp:157] Top shape: 8 24 3 3 (1728)
I0729 21:15:16.073952 13348 net.cpp:165] Memory required for data: 1287027712
I0729 21:15:16.073958 13348 layer_factory.hpp:77] Creating layer conv8_2_mbox_loc_perm
I0729 21:15:16.073963 13348 net.cpp:100] Creating Layer conv8_2_mbox_loc_perm
I0729 21:15:16.073966 13348 net.cpp:434] conv8_2_mbox_loc_perm <- conv8_2_mbox_loc
I0729 21:15:16.073971 13348 net.cpp:408] conv8_2_mbox_loc_perm -> conv8_2_mbox_loc_perm
I0729 21:15:16.074097 13348 net.cpp:150] Setting up conv8_2_mbox_loc_perm
I0729 21:15:16.074103 13348 net.cpp:157] Top shape: 8 3 3 24 (1728)
I0729 21:15:16.074105 13348 net.cpp:165] Memory required for data: 1287034624
I0729 21:15:16.074108 13348 layer_factory.hpp:77] Creating layer conv8_2_mbox_loc_flat
I0729 21:15:16.074113 13348 net.cpp:100] Creating Layer conv8_2_mbox_loc_flat
I0729 21:15:16.074116 13348 net.cpp:434] conv8_2_mbox_loc_flat <- conv8_2_mbox_loc_perm
I0729 21:15:16.074120 13348 net.cpp:408] conv8_2_mbox_loc_flat -> conv8_2_mbox_loc_flat
I0729 21:15:16.074144 13348 net.cpp:150] Setting up conv8_2_mbox_loc_flat
I0729 21:15:16.074149 13348 net.cpp:157] Top shape: 8 216 (1728)
I0729 21:15:16.074151 13348 net.cpp:165] Memory required for data: 1287041536
I0729 21:15:16.074153 13348 layer_factory.hpp:77] Creating layer conv8_2_mbox_conf
I0729 21:15:16.074160 13348 net.cpp:100] Creating Layer conv8_2_mbox_conf
I0729 21:15:16.074163 13348 net.cpp:434] conv8_2_mbox_conf <- conv8_2_conv8_2_relu_0_split_2
I0729 21:15:16.074169 13348 net.cpp:408] conv8_2_mbox_conf -> conv8_2_mbox_conf
I0729 21:15:16.076936 13348 net.cpp:150] Setting up conv8_2_mbox_conf
I0729 21:15:16.076947 13348 net.cpp:157] Top shape: 8 18 3 3 (1296)
I0729 21:15:16.076949 13348 net.cpp:165] Memory required for data: 1287046720
I0729 21:15:16.076956 13348 layer_factory.hpp:77] Creating layer conv8_2_mbox_conf_perm
I0729 21:15:16.076961 13348 net.cpp:100] Creating Layer conv8_2_mbox_conf_perm
I0729 21:15:16.076964 13348 net.cpp:434] conv8_2_mbox_conf_perm <- conv8_2_mbox_conf
I0729 21:15:16.076970 13348 net.cpp:408] conv8_2_mbox_conf_perm -> conv8_2_mbox_conf_perm
I0729 21:15:16.077062 13348 net.cpp:150] Setting up conv8_2_mbox_conf_perm
I0729 21:15:16.077067 13348 net.cpp:157] Top shape: 8 3 3 18 (1296)
I0729 21:15:16.077069 13348 net.cpp:165] Memory required for data: 1287051904
I0729 21:15:16.077072 13348 layer_factory.hpp:77] Creating layer conv8_2_mbox_conf_flat
I0729 21:15:16.077076 13348 net.cpp:100] Creating Layer conv8_2_mbox_conf_flat
I0729 21:15:16.077085 13348 net.cpp:434] conv8_2_mbox_conf_flat <- conv8_2_mbox_conf_perm
I0729 21:15:16.077092 13348 net.cpp:408] conv8_2_mbox_conf_flat -> conv8_2_mbox_conf_flat
I0729 21:15:16.077117 13348 net.cpp:150] Setting up conv8_2_mbox_conf_flat
I0729 21:15:16.077122 13348 net.cpp:157] Top shape: 8 162 (1296)
I0729 21:15:16.077124 13348 net.cpp:165] Memory required for data: 1287057088
I0729 21:15:16.077126 13348 layer_factory.hpp:77] Creating layer conv8_2_mbox_priorbox
I0729 21:15:16.077131 13348 net.cpp:100] Creating Layer conv8_2_mbox_priorbox
I0729 21:15:16.077134 13348 net.cpp:434] conv8_2_mbox_priorbox <- conv8_2_conv8_2_relu_0_split_3
I0729 21:15:16.077138 13348 net.cpp:434] conv8_2_mbox_priorbox <- data_data_0_split_4
I0729 21:15:16.077145 13348 net.cpp:408] conv8_2_mbox_priorbox -> conv8_2_mbox_priorbox
I0729 21:15:16.077169 13348 net.cpp:150] Setting up conv8_2_mbox_priorbox
I0729 21:15:16.077174 13348 net.cpp:157] Top shape: 1 2 216 (432)
I0729 21:15:16.077177 13348 net.cpp:165] Memory required for data: 1287058816
I0729 21:15:16.077178 13348 layer_factory.hpp:77] Creating layer conv9_2_mbox_loc
I0729 21:15:16.077186 13348 net.cpp:100] Creating Layer conv9_2_mbox_loc
I0729 21:15:16.077189 13348 net.cpp:434] conv9_2_mbox_loc <- conv9_2_conv9_2_relu_0_split_1
I0729 21:15:16.077194 13348 net.cpp:408] conv9_2_mbox_loc -> conv9_2_mbox_loc
I0729 21:15:16.080824 13348 net.cpp:150] Setting up conv9_2_mbox_loc
I0729 21:15:16.080835 13348 net.cpp:157] Top shape: 8 24 2 2 (768)
I0729 21:15:16.080838 13348 net.cpp:165] Memory required for data: 1287061888
I0729 21:15:16.080843 13348 layer_factory.hpp:77] Creating layer conv9_2_mbox_loc_perm
I0729 21:15:16.080850 13348 net.cpp:100] Creating Layer conv9_2_mbox_loc_perm
I0729 21:15:16.080853 13348 net.cpp:434] conv9_2_mbox_loc_perm <- conv9_2_mbox_loc
I0729 21:15:16.080859 13348 net.cpp:408] conv9_2_mbox_loc_perm -> conv9_2_mbox_loc_perm
I0729 21:15:16.080950 13348 net.cpp:150] Setting up conv9_2_mbox_loc_perm
I0729 21:15:16.080956 13348 net.cpp:157] Top shape: 8 2 2 24 (768)
I0729 21:15:16.080958 13348 net.cpp:165] Memory required for data: 1287064960
I0729 21:15:16.080960 13348 layer_factory.hpp:77] Creating layer conv9_2_mbox_loc_flat
I0729 21:15:16.080965 13348 net.cpp:100] Creating Layer conv9_2_mbox_loc_flat
I0729 21:15:16.080967 13348 net.cpp:434] conv9_2_mbox_loc_flat <- conv9_2_mbox_loc_perm
I0729 21:15:16.080972 13348 net.cpp:408] conv9_2_mbox_loc_flat -> conv9_2_mbox_loc_flat
I0729 21:15:16.080994 13348 net.cpp:150] Setting up conv9_2_mbox_loc_flat
I0729 21:15:16.080999 13348 net.cpp:157] Top shape: 8 96 (768)
I0729 21:15:16.081001 13348 net.cpp:165] Memory required for data: 1287068032
I0729 21:15:16.081003 13348 layer_factory.hpp:77] Creating layer conv9_2_mbox_conf
I0729 21:15:16.081010 13348 net.cpp:100] Creating Layer conv9_2_mbox_conf
I0729 21:15:16.081013 13348 net.cpp:434] conv9_2_mbox_conf <- conv9_2_conv9_2_relu_0_split_2
I0729 21:15:16.081020 13348 net.cpp:408] conv9_2_mbox_conf -> conv9_2_mbox_conf
I0729 21:15:16.083204 13348 net.cpp:150] Setting up conv9_2_mbox_conf
I0729 21:15:16.083214 13348 net.cpp:157] Top shape: 8 18 2 2 (576)
I0729 21:15:16.083217 13348 net.cpp:165] Memory required for data: 1287070336
I0729 21:15:16.083223 13348 layer_factory.hpp:77] Creating layer conv9_2_mbox_conf_perm
I0729 21:15:16.083230 13348 net.cpp:100] Creating Layer conv9_2_mbox_conf_perm
I0729 21:15:16.083232 13348 net.cpp:434] conv9_2_mbox_conf_perm <- conv9_2_mbox_conf
I0729 21:15:16.083237 13348 net.cpp:408] conv9_2_mbox_conf_perm -> conv9_2_mbox_conf_perm
I0729 21:15:16.083326 13348 net.cpp:150] Setting up conv9_2_mbox_conf_perm
I0729 21:15:16.083333 13348 net.cpp:157] Top shape: 8 2 2 18 (576)
I0729 21:15:16.083334 13348 net.cpp:165] Memory required for data: 1287072640
I0729 21:15:16.083336 13348 layer_factory.hpp:77] Creating layer conv9_2_mbox_conf_flat
I0729 21:15:16.083341 13348 net.cpp:100] Creating Layer conv9_2_mbox_conf_flat
I0729 21:15:16.083344 13348 net.cpp:434] conv9_2_mbox_conf_flat <- conv9_2_mbox_conf_perm
I0729 21:15:16.083356 13348 net.cpp:408] conv9_2_mbox_conf_flat -> conv9_2_mbox_conf_flat
I0729 21:15:16.083379 13348 net.cpp:150] Setting up conv9_2_mbox_conf_flat
I0729 21:15:16.083384 13348 net.cpp:157] Top shape: 8 72 (576)
I0729 21:15:16.083386 13348 net.cpp:165] Memory required for data: 1287074944
I0729 21:15:16.083389 13348 layer_factory.hpp:77] Creating layer conv9_2_mbox_priorbox
I0729 21:15:16.083394 13348 net.cpp:100] Creating Layer conv9_2_mbox_priorbox
I0729 21:15:16.083396 13348 net.cpp:434] conv9_2_mbox_priorbox <- conv9_2_conv9_2_relu_0_split_3
I0729 21:15:16.083400 13348 net.cpp:434] conv9_2_mbox_priorbox <- data_data_0_split_5
I0729 21:15:16.083405 13348 net.cpp:408] conv9_2_mbox_priorbox -> conv9_2_mbox_priorbox
I0729 21:15:16.083429 13348 net.cpp:150] Setting up conv9_2_mbox_priorbox
I0729 21:15:16.083436 13348 net.cpp:157] Top shape: 1 2 96 (192)
I0729 21:15:16.083438 13348 net.cpp:165] Memory required for data: 1287075712
I0729 21:15:16.083441 13348 layer_factory.hpp:77] Creating layer conv10_2_mbox_loc
I0729 21:15:16.083448 13348 net.cpp:100] Creating Layer conv10_2_mbox_loc
I0729 21:15:16.083452 13348 net.cpp:434] conv10_2_mbox_loc <- conv10_2_conv10_2_relu_0_split_0
I0729 21:15:16.083457 13348 net.cpp:408] conv10_2_mbox_loc -> conv10_2_mbox_loc
I0729 21:15:16.085768 13348 net.cpp:150] Setting up conv10_2_mbox_loc
I0729 21:15:16.085788 13348 net.cpp:157] Top shape: 8 24 1 1 (192)
I0729 21:15:16.085790 13348 net.cpp:165] Memory required for data: 1287076480
I0729 21:15:16.085798 13348 layer_factory.hpp:77] Creating layer conv10_2_mbox_loc_perm
I0729 21:15:16.085804 13348 net.cpp:100] Creating Layer conv10_2_mbox_loc_perm
I0729 21:15:16.085808 13348 net.cpp:434] conv10_2_mbox_loc_perm <- conv10_2_mbox_loc
I0729 21:15:16.085814 13348 net.cpp:408] conv10_2_mbox_loc_perm -> conv10_2_mbox_loc_perm
I0729 21:15:16.085911 13348 net.cpp:150] Setting up conv10_2_mbox_loc_perm
I0729 21:15:16.085916 13348 net.cpp:157] Top shape: 8 1 1 24 (192)
I0729 21:15:16.085918 13348 net.cpp:165] Memory required for data: 1287077248
I0729 21:15:16.085921 13348 layer_factory.hpp:77] Creating layer conv10_2_mbox_loc_flat
I0729 21:15:16.085925 13348 net.cpp:100] Creating Layer conv10_2_mbox_loc_flat
I0729 21:15:16.085928 13348 net.cpp:434] conv10_2_mbox_loc_flat <- conv10_2_mbox_loc_perm
I0729 21:15:16.085932 13348 net.cpp:408] conv10_2_mbox_loc_flat -> conv10_2_mbox_loc_flat
I0729 21:15:16.085955 13348 net.cpp:150] Setting up conv10_2_mbox_loc_flat
I0729 21:15:16.085960 13348 net.cpp:157] Top shape: 8 24 (192)
I0729 21:15:16.085963 13348 net.cpp:165] Memory required for data: 1287078016
I0729 21:15:16.085964 13348 layer_factory.hpp:77] Creating layer conv10_2_mbox_conf
I0729 21:15:16.085973 13348 net.cpp:100] Creating Layer conv10_2_mbox_conf
I0729 21:15:16.085975 13348 net.cpp:434] conv10_2_mbox_conf <- conv10_2_conv10_2_relu_0_split_1
I0729 21:15:16.085981 13348 net.cpp:408] conv10_2_mbox_conf -> conv10_2_mbox_conf
I0729 21:15:16.088238 13348 net.cpp:150] Setting up conv10_2_mbox_conf
I0729 21:15:16.088250 13348 net.cpp:157] Top shape: 8 18 1 1 (144)
I0729 21:15:16.088253 13348 net.cpp:165] Memory required for data: 1287078592
I0729 21:15:16.088258 13348 layer_factory.hpp:77] Creating layer conv10_2_mbox_conf_perm
I0729 21:15:16.088268 13348 net.cpp:100] Creating Layer conv10_2_mbox_conf_perm
I0729 21:15:16.088271 13348 net.cpp:434] conv10_2_mbox_conf_perm <- conv10_2_mbox_conf
I0729 21:15:16.088277 13348 net.cpp:408] conv10_2_mbox_conf_perm -> conv10_2_mbox_conf_perm
I0729 21:15:16.088372 13348 net.cpp:150] Setting up conv10_2_mbox_conf_perm
I0729 21:15:16.088377 13348 net.cpp:157] Top shape: 8 1 1 18 (144)
I0729 21:15:16.088379 13348 net.cpp:165] Memory required for data: 1287079168
I0729 21:15:16.088382 13348 layer_factory.hpp:77] Creating layer conv10_2_mbox_conf_flat
I0729 21:15:16.088387 13348 net.cpp:100] Creating Layer conv10_2_mbox_conf_flat
I0729 21:15:16.088388 13348 net.cpp:434] conv10_2_mbox_conf_flat <- conv10_2_mbox_conf_perm
I0729 21:15:16.088393 13348 net.cpp:408] conv10_2_mbox_conf_flat -> conv10_2_mbox_conf_flat
I0729 21:15:16.088424 13348 net.cpp:150] Setting up conv10_2_mbox_conf_flat
I0729 21:15:16.088430 13348 net.cpp:157] Top shape: 8 18 (144)
I0729 21:15:16.088433 13348 net.cpp:165] Memory required for data: 1287079744
I0729 21:15:16.088435 13348 layer_factory.hpp:77] Creating layer conv10_2_mbox_priorbox
I0729 21:15:16.088441 13348 net.cpp:100] Creating Layer conv10_2_mbox_priorbox
I0729 21:15:16.088443 13348 net.cpp:434] conv10_2_mbox_priorbox <- conv10_2_conv10_2_relu_0_split_2
I0729 21:15:16.088454 13348 net.cpp:434] conv10_2_mbox_priorbox <- data_data_0_split_6
I0729 21:15:16.088459 13348 net.cpp:408] conv10_2_mbox_priorbox -> conv10_2_mbox_priorbox
I0729 21:15:16.088485 13348 net.cpp:150] Setting up conv10_2_mbox_priorbox
I0729 21:15:16.088490 13348 net.cpp:157] Top shape: 1 2 24 (48)
I0729 21:15:16.088495 13348 net.cpp:165] Memory required for data: 1287079936
I0729 21:15:16.088498 13348 layer_factory.hpp:77] Creating layer mbox_loc
I0729 21:15:16.088503 13348 net.cpp:100] Creating Layer mbox_loc
I0729 21:15:16.088506 13348 net.cpp:434] mbox_loc <- conv5_5/sep_mbox_loc_flat
I0729 21:15:16.088511 13348 net.cpp:434] mbox_loc <- conv6/sep_mbox_loc_flat
I0729 21:15:16.088515 13348 net.cpp:434] mbox_loc <- conv7_2_mbox_loc_flat
I0729 21:15:16.088518 13348 net.cpp:434] mbox_loc <- conv8_2_mbox_loc_flat
I0729 21:15:16.088521 13348 net.cpp:434] mbox_loc <- conv9_2_mbox_loc_flat
I0729 21:15:16.088524 13348 net.cpp:434] mbox_loc <- conv10_2_mbox_loc_flat
I0729 21:15:16.088529 13348 net.cpp:408] mbox_loc -> mbox_loc
I0729 21:15:16.088553 13348 net.cpp:150] Setting up mbox_loc
I0729 21:15:16.088558 13348 net.cpp:157] Top shape: 8 7668 (61344)
I0729 21:15:16.088560 13348 net.cpp:165] Memory required for data: 1287325312
I0729 21:15:16.088562 13348 layer_factory.hpp:77] Creating layer mbox_conf
I0729 21:15:16.088567 13348 net.cpp:100] Creating Layer mbox_conf
I0729 21:15:16.088570 13348 net.cpp:434] mbox_conf <- conv5_5/sep_mbox_conf_flat
I0729 21:15:16.088573 13348 net.cpp:434] mbox_conf <- conv6/sep_mbox_conf_flat
I0729 21:15:16.088577 13348 net.cpp:434] mbox_conf <- conv7_2_mbox_conf_flat
I0729 21:15:16.088580 13348 net.cpp:434] mbox_conf <- conv8_2_mbox_conf_flat
I0729 21:15:16.088583 13348 net.cpp:434] mbox_conf <- conv9_2_mbox_conf_flat
I0729 21:15:16.088587 13348 net.cpp:434] mbox_conf <- conv10_2_mbox_conf_flat
I0729 21:15:16.088590 13348 net.cpp:408] mbox_conf -> mbox_conf
I0729 21:15:16.088611 13348 net.cpp:150] Setting up mbox_conf
I0729 21:15:16.088615 13348 net.cpp:157] Top shape: 8 5751 (46008)
I0729 21:15:16.088618 13348 net.cpp:165] Memory required for data: 1287509344
I0729 21:15:16.088620 13348 layer_factory.hpp:77] Creating layer mbox_priorbox
I0729 21:15:16.088624 13348 net.cpp:100] Creating Layer mbox_priorbox
I0729 21:15:16.088627 13348 net.cpp:434] mbox_priorbox <- conv5_5/sep_mbox_priorbox
I0729 21:15:16.088630 13348 net.cpp:434] mbox_priorbox <- conv6/sep_mbox_priorbox
I0729 21:15:16.088634 13348 net.cpp:434] mbox_priorbox <- conv7_2_mbox_priorbox
I0729 21:15:16.088636 13348 net.cpp:434] mbox_priorbox <- conv8_2_mbox_priorbox
I0729 21:15:16.088639 13348 net.cpp:434] mbox_priorbox <- conv9_2_mbox_priorbox
I0729 21:15:16.088642 13348 net.cpp:434] mbox_priorbox <- conv10_2_mbox_priorbox
I0729 21:15:16.088645 13348 net.cpp:408] mbox_priorbox -> mbox_priorbox
I0729 21:15:16.088667 13348 net.cpp:150] Setting up mbox_priorbox
I0729 21:15:16.088672 13348 net.cpp:157] Top shape: 1 2 7668 (15336)
I0729 21:15:16.088675 13348 net.cpp:165] Memory required for data: 1287570688
I0729 21:15:16.088681 13348 layer_factory.hpp:77] Creating layer mbox_conf_reshape
I0729 21:15:16.088687 13348 net.cpp:100] Creating Layer mbox_conf_reshape
I0729 21:15:16.088690 13348 net.cpp:434] mbox_conf_reshape <- mbox_conf
I0729 21:15:16.088696 13348 net.cpp:408] mbox_conf_reshape -> mbox_conf_reshape
I0729 21:15:16.088723 13348 net.cpp:150] Setting up mbox_conf_reshape
I0729 21:15:16.088728 13348 net.cpp:157] Top shape: 8 1917 3 (46008)
I0729 21:15:16.088732 13348 net.cpp:165] Memory required for data: 1287754720
I0729 21:15:16.088738 13348 layer_factory.hpp:77] Creating layer mbox_conf_softmax
I0729 21:15:16.088743 13348 net.cpp:100] Creating Layer mbox_conf_softmax
I0729 21:15:16.088747 13348 net.cpp:434] mbox_conf_softmax <- mbox_conf_reshape
I0729 21:15:16.088752 13348 net.cpp:408] mbox_conf_softmax -> mbox_conf_softmax
I0729 21:15:16.089416 13348 net.cpp:150] Setting up mbox_conf_softmax
I0729 21:15:16.089428 13348 net.cpp:157] Top shape: 8 1917 3 (46008)
I0729 21:15:16.089432 13348 net.cpp:165] Memory required for data: 1287938752
I0729 21:15:16.089433 13348 layer_factory.hpp:77] Creating layer mbox_conf_flatten
I0729 21:15:16.089438 13348 net.cpp:100] Creating Layer mbox_conf_flatten
I0729 21:15:16.089442 13348 net.cpp:434] mbox_conf_flatten <- mbox_conf_softmax
I0729 21:15:16.089447 13348 net.cpp:408] mbox_conf_flatten -> mbox_conf_flatten
I0729 21:15:16.089473 13348 net.cpp:150] Setting up mbox_conf_flatten
I0729 21:15:16.089480 13348 net.cpp:157] Top shape: 8 5751 (46008)
I0729 21:15:16.089483 13348 net.cpp:165] Memory required for data: 1288122784
I0729 21:15:16.089484 13348 layer_factory.hpp:77] Creating layer detection_out
I0729 21:15:16.089499 13348 net.cpp:100] Creating Layer detection_out
I0729 21:15:16.089503 13348 net.cpp:434] detection_out <- mbox_loc
I0729 21:15:16.089507 13348 net.cpp:434] detection_out <- mbox_conf_flatten
I0729 21:15:16.089510 13348 net.cpp:434] detection_out <- mbox_priorbox
I0729 21:15:16.089514 13348 net.cpp:408] detection_out -> detection_out
I0729 21:15:16.090376 13348 net.cpp:150] Setting up detection_out
I0729 21:15:16.090385 13348 net.cpp:157] Top shape: 1 1 1 7 (7)
I0729 21:15:16.090389 13348 net.cpp:165] Memory required for data: 1288122812
I0729 21:15:16.090391 13348 layer_factory.hpp:77] Creating layer detection_eval
I0729 21:15:16.090397 13348 net.cpp:100] Creating Layer detection_eval
I0729 21:15:16.090401 13348 net.cpp:434] detection_eval <- detection_out
I0729 21:15:16.090404 13348 net.cpp:434] detection_eval <- label
I0729 21:15:16.090409 13348 net.cpp:408] detection_eval -> detection_eval
I0729 21:15:16.090790 13348 net.cpp:150] Setting up detection_eval
I0729 21:15:16.090795 13348 net.cpp:157] Top shape: 1 1 3 5 (15)
I0729 21:15:16.090798 13348 net.cpp:165] Memory required for data: 1288122872
I0729 21:15:16.090801 13348 net.cpp:228] detection_eval does not need backward computation.
I0729 21:15:16.090804 13348 net.cpp:228] detection_out does not need backward computation.
I0729 21:15:16.090807 13348 net.cpp:228] mbox_conf_flatten does not need backward computation.
I0729 21:15:16.090811 13348 net.cpp:228] mbox_conf_softmax does not need backward computation.
…
