…
      sampler {
        min_scale: 0.3
        max_scale: 1
        min_aspect_ratio: 0.5
        max_aspect_ratio: 2
      }
      sample_constraint {
        min_jaccard_overlap: 0.9
      }
      max_sample: 1
      max_trials: 50
    }
    batch_sampler {
      sampler {
        min_scale: 0.3
        max_scale: 1
        min_aspect_ratio: 0.5
        max_aspect_ratio: 2
      }
      sample_constraint {
        max_jaccard_overlap: 1
      }
      max_sample: 1
      max_trials: 50
    }
    label_map_file: "data/BodyFaceRegions/labelmap_voc.prototxt"
  }
}
layer {
  name: "conv1"
  type: "Convolution"
  bottom: "data"
  top: "conv1"
  param {
    lr_mult: 1
    decay_mult: 1
  }
  convolution_param {
    num_output: 32
    bias_term: false
    pad: 1
    kernel_size: 3
    group: 1
    stride: 2
    weight_filler {
      type: "gaussian"
      std: 0.01
    }
    engine: DEFAULT
  }
}
layer {
  name: "conv1/bn"
  type: "BatchNorm"
  bottom: "conv1"
  top: "conv1"
  batch_norm_param {
    moving_average_fraction: 0.999
    eps: 0.001
  }
}
layer {
  name: "conv1/scale"
  type: "Scale"
  bottom: "conv1"
  top: "conv1"
  param {
    lr_mult: 1
    decay_mult: 0
  }
  param {
    lr_mult: 1
    decay_mult: 0
  }
  scale_param {
    filler {
      type: "constant"
      value: 1
    }
    bias_term: true
    bias_filler {
      type: "constant"
      value: 0
    }
  }
}
layer {
  name: "conv1_relu"
  type: "ReLU"
  bottom: "conv1"
  top: "conv1"
}
layer {
  name: "conv2_1/dw"
  type: "Convolution"
  bottom: "conv1"
  top: "conv2_1/dw"
  param {
    lr_mult: 1
    decay_mult: 1
  }
  convolution_param {
    num_output: 32
    bias_term: false
    pad: 1
    kernel_size: 3
    group: 32
    stride: 1
    weight_filler {
      type: "gaussian"
      std: 0.01
    }
    engine: CAFFE
  }
}
layer {
  name: "conv2_1/dw/bn"
  type: "BatchNorm"
  bottom: "conv2_1/dw"
  top: "conv2_1/dw"
  batch_norm_param {
    moving_average_fraction: 0.999
    eps: 0.001
  }
}
layer {
  name: "conv2_1/dw/scale"
  type: "Scale"
  bottom: "conv2_1/dw"
  top: "conv2_1/dw"
  param {
    lr_mult: 1
    decay_mult: 0
  }
  param {
    lr_mult: 1
    decay_mult: 0
  }
  scale_param {
    filler {
      type: "constant"
      value: 1
    }
    bias_term: true
    bias_filler {
      type: "constant"
      value: 0
    }
  }
}
layer {
  name: "conv2_1/dw_relu"
  type: "ReLU"
  bottom: "conv2_1/dw"
  top: "conv2_1/dw"
}
layer {
  name: "conv2_1/sep"
  type: "Convolution"
  bottom: "conv2_1/dw"
  top: "conv2_1/sep"
  param {
    lr_mult: 1
    decay_mult: 1
  }
  convolution_param {
    num_output: 64
    bias_term: false
    pad: 0
    kernel_size: 1
    group: 1
    stride: 1
    weight_filler {
      type: "gaussian"
      std: 0.01
    }
    engine: DEFAULT
  }
}
layer {
  name: "conv2_1/sep/bn"
  type: "BatchNorm"
  bottom: "conv2_1/sep"
  top: "conv2_1/sep"
  batch_norm_param {
    moving_average_fraction: 0.999
    eps: 0.001
  }
}
layer {
  name: "conv2_1/sep/scale"
  type: "Scale"
  bottom: "conv2_1/sep"
  top: "conv2_1/sep"
  param {
    lr_mult: 1
    decay_mult: 0
  }
  param {
    lr_mult: 1
    decay_mult: 0
  }
  scale_param {
    filler {
      type: "constant"
      value: 1
    }
    bias_term: true
    bias_filler {
      type: "constant"
      value: 0
    }
  }
}
layer {
  name: "conv2_1/sep_relu"
  type: "ReLU"
  bottom: "conv2_1/sep"
  top: "conv2_1/sep"
}
layer {
  name: "conv2_2/dw"
  type: "Convolution"
  bottom: "conv2_1/sep"
  top: "conv2_2/dw"
  param {
    lr_mult: 1
    decay_mult: 1
  }
  convolution_param {
    num_output: 64
    bias_term: false
    pad: 1
    kernel_size: 3
    group: 64
    stride: 2
    weight_filler {
      type: "gaussian"
      std: 0.01
    }
    engine: CAFFE
  }
}
layer {
  name: "conv2_2/dw/bn"
  type: "BatchNorm"
  bottom: "conv2_2/dw"
  top: "conv2_2/dw"
  batch_norm_param {
    moving_average_fraction: 0.999
    eps: 0.001
  }
}
layer {
  name: "conv2_2/dw/scale"
  type: "Scale"
  bottom: "conv2_2/dw"
  top: "conv2_2/dw"
  param {
    lr_mult: 1
    decay_mult: 0
  }
  param {
    lr_mult: 1
    decay_mult: 0
  }
  scale_param {
    filler {
      type: "constant"
      value: 1
    }
    bias_term: true
    bias_filler {
      type: "constant"
      value: 0
    }
  }
}
layer {
  name: "conv2_2/dw_relu"
  type: "ReLU"
  bottom: "conv2_2/dw"
  top: "conv2_2/dw"
}
layer {
  name: "conv2_2/sep"
  type: "Convolution"
  bottom: "conv2_2/dw"
  top: "conv2_2/sep"
  param {
    lr_mult: 1
    decay_mult: 1
  }
  convolution_param {
    num_output: 128
    bias_term: false
    pad: 0
    kernel_size: 1
    group: 1
    stride: 1
    weight_filler {
      type: "gaussian"
      std: 0.01
    }
    engine: DEFAULT
  }
}
layer {
  name: "conv2_2/sep/bn"
  type: "BatchNorm"
  bottom: "conv2_2/sep"
  top: "conv2_2/sep"
  batch_norm_param {
    moving_average_fraction: 0.999
    eps: 0.001
  }
}
layer {
  name: "conv2_2/sep/scale"
  type: "Scale"
  bottom: "conv2_2/sep"
  top: "conv2_2/sep"
  param {
    lr_mult: 1
    decay_mult: 0
  }
  param {
    lr_mult: 1
    decay_mult: 0
  }
  scale_param {
    filler {
      type: "constant"
      value: 1
    }
    bias_term: true
    bias_filler {
      type: "constant"
      value: 0
    }
  }
}
layer {
  name: "conv2_2/sep_relu"
  type: "ReLU"
  bottom: "conv2_2/sep"
  top: "conv2_2/sep"
}
layer {
  name: "conv3_1/dw"
  type: "Convolution"
  bottom: "conv2_2/sep"
  top: "conv3_1/dw"
  param {
    lr_mult: 1
    decay_mult: 1
  }
  convolution_param {
    num_output: 128
    bias_term: false
    pad: 1
    kernel_size: 3
    group: 128
    stride: 1
    weight_filler {
      type: "gaussian"
      std: 0.01
    }
    engine: CAFFE
  }
}
layer {
  name: "conv3_1/dw/bn"
  type: "BatchNorm"
  bottom: "conv3_1/dw"
  top: "conv3_1/dw"
  batch_norm_param {
    moving_average_fraction: 0.999
    eps: 0.001
  }
}
layer {
  name: "conv3_1/dw/scale"
  type: "Scale"
  bottom: "conv3_1/dw"
  top: "conv3_1/dw"
  param {
    lr_mult: 1
    decay_mult: 0
  }
  param {
    lr_mult: 1
    decay_mult: 0
  }
  scale_param {
    filler {
      type: "constant"
      value: 1
    }
    bias_term: true
    bias_filler {
      type: "constant"
      value: 0
    }
  }
}
layer {
  name: "conv3_1/dw_relu"
  type: "ReLU"
  bottom: "conv3_1/dw"
  top: "conv3_1/dw"
}
layer {
  name: "conv3_1/sep"
  type: "Convolution"
  bottom: "conv3_1/dw"
  top: "conv3_1/sep"
  param {
    lr_mult: 1
    decay_mult: 1
  }
  convolution_param {
    num_output: 128
    bias_term: false
    pad: 0
    kernel_size: 1
    group: 1
    stride: 1
    weight_filler {
      type: "gaussian"
      std: 0.01
    }
    engine: DEFAULT
  }
}
layer {
  name: "conv3_1/sep/bn"
  type: "BatchNorm"
  bottom: "conv3_1/sep"
  top: "conv3_1/sep"
  batch_norm_param {
    moving_average_fraction: 0.999
    eps: 0.001
  }
}
layer {
  name: "conv3_1/sep/scale"
  type: "Scale"
  bottom: "conv3_1/sep"
  top: "conv3_1/sep"
  param {
    lr_mult: 1
    decay_mult: 0
  }
  param {
    lr_mult: 1
    decay_mult: 0
  }
  scale_param {
    filler {
      type: "constant"
      value: 1
    }
    bias_term: true
    bias_filler {
      type: "constant"
      value: 0
    }
  }
}
layer {
  name: "conv3_1/sep_relu"
  type: "ReLU"
  bottom: "conv3_1/sep"
  top: "conv3_1/sep"
}
layer {
  name: "conv3_2/dw"
  type: "Convolution"
  bottom: "conv3_1/sep"
  top: "conv3_2/dw"
  param {
    lr_mult: 1
    decay_mult: 1
  }
  convolution_param {
    num_output: 128
    bias_term: false
    pad: 1
    kernel_size: 3
    group: 128
    stride: 2
    weight_filler {
      type: "gaussian"
      std: 0.01
    }
    engine: CAFFE
  }
}
layer {
  name: "conv3_2/dw/bn"
  type: "BatchNorm"
  bottom: "conv3_2/dw"
  top: "conv3_2/dw"
  batch_norm_param {
    moving_average_fraction: 0.999
    eps: 0.001
  }
}
layer {
  name: "conv3_2/dw/scale"
  type: "Scale"
  bottom: "conv3_2/dw"
  top: "conv3_2/dw"
  param {
    lr_mult: 1
    decay_mult: 0
  }
  param {
    lr_mult: 1
    decay_mult: 0
  }
  scale_param {
    filler {
      type: "constant"
      value: 1
    }
    bias_term: true
    bias_filler {
      type: "constant"
      value: 0
    }
  }
}
layer {
  name: "conv3_2/dw_relu"
  type: "ReLU"
  bottom: "conv3_2/dw"
  top: "conv3_2/dw"
}
layer {
  name: "conv3_2/sep"
  type: "Convolution"
  bottom: "conv3_2/dw"
  top: "conv3_2/sep"
  param {
    lr_mult: 1
    decay_mult: 1
  }
  convolution_param {
    num_output: 256
    bias_term: false
    pad: 0
    kernel_size: 1
    group: 1
    stride: 1
    weight_filler {
      type: "gaussian"
      std: 0.01
    }
    engine: DEFAULT
  }
}
layer {
  name: "conv3_2/sep/bn"
  type: "BatchNorm"
  bottom: "conv3_2/sep"
  top: "conv3_2/sep"
  batch_norm_param {
    moving_average_fraction: 0.999
    eps: 0.001
  }
}
layer {
  name: "conv3_2/sep/scale"
  type: "Scale"
  bottom: "conv3_2/sep"
  top: "conv3_2/sep"
  param {
    lr_mult: 1
    decay_mult: 0
  }
  param {
    lr_mult: 1
    decay_mult: 0
  }
  scale_param {
    filler {
      type: "constant"
      value: 1
    }
    bias_term: true
    bias_filler {
      type: "constant"
      value: 0
    }
  }
}
layer {
  name: "conv3_2/sep_relu"
  type: "ReLU"
  bottom: "conv3_2/sep"
  top: "conv3_2/sep"
}
layer {
  name: "conv4_1/dw"
  type: "Convolution"
  bottom: "conv3_2/sep"
  top: "conv4_1/dw"
  param {
    lr_mult: 1
    decay_mult: 1
  }
  convolution_param {
    num_output: 256
    bias_term: false
    pad: 1
    kernel_size: 3
    group: 256
    stride: 1
    weight_filler {
      type: "gaussian"
      std: 0.01
    }
    engine: CAFFE
  }
}
layer {
  name: "conv4_1/dw/bn"
  type: "BatchNorm"
  bottom: "conv4_1/dw"
  top: "conv4_1/dw"
  batch_norm_param {
    moving_average_fraction: 0.999
    eps: 0.001
  }
}
layer {
  name: "conv4_1/dw/scale"
  type: "Scale"
  bottom: "conv4_1/dw"
  top: "conv4_1/dw"
  param {
    lr_mult: 1
    decay_mult: 0
  }
  param {
    lr_mult: 1
    decay_mult: 0
  }
  scale_param {
    filler {
      type: "constant"
      value: 1
    }
    bias_term: true
    bias_filler {
      type: "constant"
      value: 0
    }
  }
}
layer {
  name: "conv4_1/dw_relu"
  type: "ReLU"
  bottom: "conv4_1/dw"
  top: "conv4_1/dw"
}
layer {
  name: "conv4_1/sep"
  type: "Convolution"
  bottom: "conv4_1/dw"
  top: "conv4_1/sep"
  param {
    lr_mult: 1
    decay_mult: 1
  }
  convolution_param {
    num_output: 256
    bias_term: false
    pad: 0
    kernel_size: 1
    group: 1
    stride: 1
    weight_filler {
      type: "gaussian"
      std: 0.01
    }
    engine: DEFAULT
  }
}
layer {
  name: "conv4_1/sep/bn"
  type: "BatchNorm"
  bottom: "conv4_1/sep"
  top: "conv4_1/sep"
  batch_norm_param {
    moving_average_fraction: 0.999
    eps: 0.001
  }
}
layer {
  name: "conv4_1/sep/scale"
  type: "Scale"
  bottom: "conv4_1/sep"
  top: "conv4_1/sep"
  param {
    lr_mult: 1
    decay_mult: 0
  }
  param {
    lr_mult: 1
    decay_mult: 0
  }
  scale_param {
    filler {
      type: "constant"
      value: 1
    }
    bias_term: true
    bias_filler {
      type: "constant"
      value: 0
    }
  }
}
layer {
  name: "conv4_1/sep_relu"
  type: "ReLU"
  bottom: "conv4_1/sep"
  top: "conv4_1/sep"
}
layer {
  name: "conv4_2/dw"
  type: "Convolution"
  bottom: "conv4_1/sep"
  top: "conv4_2/dw"
  param {
    lr_mult: 1
    decay_mult: 1
  }
  convolution_param {
    num_output: 256
    bias_term: false
    pad: 1
    kernel_size: 3
    group: 256
    stride: 2
    weight_filler {
      type: "gaussian"
      std: 0.01
    }
    engine: CAFFE
  }
}
layer {
  name: "conv4_2/dw/bn"
  type: "BatchNorm"
  bottom: "conv4_2/dw"
  top: "conv4_2/dw"
  batch_norm_param {
    moving_average_fraction: 0.999
    eps: 0.001
  }
}
layer {
  name: "conv4_2/dw/scale"
  type: "Scale"
  bottom: "conv4_2/dw"
  top: "conv4_2/dw"
  param {
    lr_mult: 1
    decay_mult: 0
  }
  param {
    lr_mult: 1
    decay_mult: 0
  }
  scale_param {
    filler {
      type: "constant"
      value: 1
    }
    bias_term: true
    bias_filler {
      type: "constant"
      value: 0
    }
  }
}
layer {
  name: "conv4_2/dw_relu"
  type: "ReLU"
  bottom: "conv4_2/dw"
  top: "conv4_2/dw"
}
layer {
  name: "conv4_2/sep"
  type: "Convolution"
  bottom: "conv4_2/dw"
  top: "conv4_2/sep"
  param {
    lr_mult: 1
    decay_mult: 1
  }
  convolution_param {
    num_output: 512
    bias_term: false
    pad: 0
    kernel_size: 1
    group: 1
    stride: 1
    weight_filler {
      type: "gaussian"
      std: 0.01
    }
    engine: DEFAULT
  }
}
layer {
  name: "conv4_2/sep/bn"
  type: "BatchNorm"
  bottom: "conv4_2/sep"
  top: "conv4_2/sep"
  batch_norm_param {
    moving_average_fraction: 0.999
    eps: 0.001
  }
}
layer {
  name: "conv4_2/sep/scale"
  type: "Scale"
  bottom: "conv4_2/sep"
  top: "conv4_2/sep"
  param {
    lr_mult: 1
    decay_mult: 0
  }
  param {
    lr_mult: 1
    decay_mult: 0
  }
  scale_param {
    filler {
      type: "constant"
      value: 1
    }
    bias_term: true
    bias_filler {
      type: "constant"
      value: 0
    }
  }
}
layer {
  name: "conv4_2/sep_relu"
  type: "ReLU"
  bottom: "conv4_2/sep"
  top: "conv4_2/sep"
}
layer {
  name: "conv5_1/dw"
  type: "Convolution"
  bottom: "conv4_2/sep"
  top: "conv5_1/dw"
  param {
    lr_mult: 1
    decay_mult: 1
  }
  convolution_param {
    num_output: 512
    bias_term: false
    pad: 1
    kernel_size: 3
    group: 512
    stride: 1
    weight_filler {
      type: "gaussian"
      std: 0.01
    }
    engine: CAFFE
  }
}
layer {
  name: "conv5_1/dw/bn"
  type: "BatchNorm"
  bottom: "conv5_1/dw"
  top: "conv5_1/dw"
  batch_norm_param {
    moving_average_fraction: 0.999
    eps: 0.001
  }
}
layer {
  name: "conv5_1/dw/scale"
  type: "Scale"
  bottom: "conv5_1/dw"
  top: "conv5_1/dw"
  param {
    lr_mult: 1
    decay_mult: 0
  }
  param {
    lr_mult: 1
    decay_mult: 0
  }
  scale_param {
    filler {
      type: "constant"
      value: 1
    }
    bias_term: true
    bias_filler {
      type: "constant"
      value: 0
    }
  }
}
layer {
  name: "conv5_1/dw_relu"
  type: "ReLU"
  bottom: "conv5_1/dw"
  top: "conv5_1/dw"
}
layer {
  name: "conv5_1/sep"
  type: "Convolution"
  bottom: "conv5_1/dw"
  top: "conv5_1/sep"
  param {
    lr_mult: 1
    decay_mult: 1
  }
  convolution_param {
    num_output: 512
    bias_term: false
    pad: 0
    kernel_size: 1
    group: 1
    stride: 1
    weight_filler {
      type: "gaussian"
      std: 0.01
    }
    engine: DEFAULT
  }
}
layer {
  name: "conv5_1/sep/bn"
  type: "BatchNorm"
  bottom: "conv5_1/sep"
  top: "conv5_1/sep"
  batch_norm_param {
    moving_average_fraction: 0.999
    eps: 0.001
  }
}
layer {
  name: "conv5_1/sep/scale"
  type: "Scale"
  bottom: "conv5_1/sep"
  top: "conv5_1/sep"
  param {
    lr_mult: 1
    decay_mult: 0
  }
  param {
    lr_mult: 1
    decay_mult: 0
  }
  scale_param {
    filler {
      type: "constant"
      value: 1
    }
    bias_term: true
    bias_filler {
      type: "constant"
      value: 0
    }
  }
}
layer {
  name: "conv5_1/sep_relu"
  type: "ReLU"
  bottom: "conv5_1/sep"
  top: "conv5_1/sep"
}
layer {
  name: "conv5_2/dw"
  type: "Convolution"
  bottom: "conv5_1/sep"
  top: "conv5_2/dw"
  param {
    lr_mult: 1
    decay_mult: 1
  }
  convolution_param {
    num_output: 512
    bias_term: false
    pad: 1
    kernel_size: 3
    group: 512
    stride: 1
    weight_filler {
      type: "gaussian"
      std: 0.01
    }
    engine: CAFFE
  }
}
layer {
  name: "conv5_2/dw/bn"
  type: "BatchNorm"
  bottom: "conv5_2/dw"
  top: "conv5_2/dw"
  batch_norm_param {
    moving_average_fraction: 0.999
    eps: 0.001
  }
}
layer {
  name: "conv5_2/dw/scale"
  type: "Scale"
  bottom: "conv5_2/dw"
  top: "conv5_2/dw"
  param {
    lr_mult: 1
    decay_mult: 0
  }
  param {
    lr_mult: 1
    decay_mult: 0
  }
  scale_param {
    filler {
      type: "constant"
      value: 1
    }
    bias_term: true
    bias_filler {
      type: "constant"
      value: 0
    }
  }
}
layer {
  name: "conv5_2/dw_relu"
  type: "ReLU"
  bottom: "conv5_2/dw"
  top: "conv5_2/dw"
}
layer {
  name: "conv5_2/sep"
  type: "Convolution"
  bottom: "conv5_2/dw"
  top: "conv5_2/sep"
  param {
    lr_mult: 1
    decay_mult: 1
  }
  convolution_param {
    num_output: 512
    bias_term: false
    pad: 0
    kernel_size: 1
    group: 1
    stride: 1
    weight_filler {
      type: "gaussian"
      std: 0.01
    }
    engine: DEFAULT
  }
}
layer {
  name: "conv5_2/sep/bn"
  type: "BatchNorm"
  bottom: "conv5_2/sep"
  top: "conv5_2/sep"
  batch_norm_param {
    moving_average_fraction: 0.999
    eps: 0.001
  }
}
layer {
  name: "conv5_2/sep/scale"
  type: "Scale"
  bottom: "conv5_2/sep"
  top: "conv5_2/sep"
  param {
    lr_mult: 1
    decay_mult: 0
  }
  param {
    lr_mult: 1
    decay_mult: 0
  }
  scale_param {
    filler {
      type: "constant"
      value: 1
    }
    bias_term: true
    bias_filler {
      type: "constant"
      value: 0
    }
  }
}
layer {
  name: "conv5_2/sep_relu"
  type: "ReLU"
  bottom: "conv5_2/sep"
  top: "conv5_2/sep"
}
layer {
  name: "conv5_3/dw"
  type: "Convolution"
  bottom: "conv5_2/sep"
  top: "conv5_3/dw"
  param {
    lr_mult: 1
    decay_mult: 1
  }
  convolution_param {
    num_output: 512
    bias_term: false
    pad: 1
    kernel_size: 3
    group: 512
    stride: 1
    weight_filler {
      type: "gaussian"
      std: 0.01
    }
    engine: CAFFE
  }
}
layer {
  name: "conv5_3/dw/bn"
  type: "BatchNorm"
  bottom: "conv5_3/dw"
  top: "conv5_3/dw"
  batch_norm_param {
    moving_average_fraction: 0.999
    eps: 0.001
  }
}
layer {
  name: "conv5_3/dw/scale"
  type: "Scale"
  bottom: "conv5_3/dw"
  top: "conv5_3/dw"
  param {
    lr_mult: 1
    decay_mult: 0
  }
  param {
    lr_mult: 1
    decay_mult: 0
  }
  scale_param {
    filler {
      type: "constant"
      value: 1
    }
    bias_term: true
    bias_filler {
      type: "constant"
      value: 0
    }
  }
}
layer {
  name: "conv5_3/dw_relu"
  type: "ReLU"
  bottom: "conv5_3/dw"
  top: "conv5_3/dw"
}
layer {
  name: "conv5_3/sep"
  type: "Convolution"
  bottom: "conv5_3/dw"
  top: "conv5_3/sep"
  param {
    lr_mult: 1
    decay_mult: 1
  }
  convolution_param {
    num_output: 512
    bias_term: false
    pad: 0
    kernel_size: 1
    group: 1
    stride: 1
    weight_filler {
      type: "gaussian"
      std: 0.01
    }
    engine: DEFAULT
  }
}
layer {
  name: "conv5_3/sep/bn"
  type: "BatchNorm"
  bottom: "conv5_3/sep"
  top: "conv5_3/sep"
  batch_norm_param {
    moving_average_fraction: 0.999
    eps: 0.001
  }
}
layer {
  name: "conv5_3/sep/scale"
  type: "Scale"
  bottom: "conv5_3/sep"
  top: "conv5_3/sep"
  param {
    lr_mult: 1
    decay_mult: 0
  }
  param {
    lr_mult: 1
    decay_mult: 0
  }
  scale_param {
    filler {
      type: "constant"
      value: 1
    }
    bias_term: true
    bias_filler {
      type: "constant"
      value: 0
    }
  }
}
layer {
  name: "conv5_3/sep_relu"
  type: "ReLU"
  bottom: "conv5_3/sep"
  top: "conv5_3/sep"
}
layer {
  name: "conv5_4/dw"
  type: "Convolution"
  bottom: "conv5_3/sep"
  top: "conv5_4/dw"
  param {
    lr_mult: 1
    decay_mult: 1
  }
  convolution_param {
    num_output: 512
    bias_term: false
    pad: 1
    kernel_size: 3
    group: 512
    stride: 1
    weight_filler {
      type: "gaussian"
      std: 0.01
    }
    engine: CAFFE
  }
}
layer {
  name: "conv5_4/dw/bn"
  type: "BatchNorm"
  bottom: "conv5_4/dw"
  top: "conv5_4/dw"
  batch_norm_param {
    moving_average_fraction: 0.999
    eps: 0.001
  }
}
layer {
  name: "conv5_4/dw/scale"
  type: "Scale"
  bottom: "conv5_4/dw"
  top: "conv5_4/dw"
  param {
    lr_mult: 1
    decay_mult: 0
  }
  param {
    lr_mult: 1
    decay_mult: 0
  }
  scale_param {
    filler {
      type: "constant"
      value: 1
    }
    bias_term: true
    bias_filler {
      type: "constant"
      value: 0
    }
  }
}
layer {
  name: "conv5_4/dw_relu"
  type: "ReLU"
  bottom: "conv5_4/dw"
  top: "conv5_4/dw"
}
layer {
  name: "conv5_4/sep"
  type: "Convolution"
  bottom: "conv5_4/dw"
  top: "conv5_4/sep"
  param {
    lr_mult: 1
    decay_mult: 1
  }
  convolution_param {
    num_output: 512
    bias_term: false
    pad: 0
    kernel_size: 1
    group: 1
    stride: 1
    weight_filler {
      type: "gaussian"
      std: 0.01
    }
    engine: DEFAULT
  }
}
layer {
  name: "conv5_4/sep/bn"
  type: "BatchNorm"
  bottom: "conv5_4/sep"
  top: "conv5_4/sep"
  batch_norm_param {
    moving_average_fraction: 0.999
    eps: 0.001
  }
}
layer {
  name: "conv5_4/sep/scale"
  type: "Scale"
  bottom: "conv5_4/sep"
  top: "conv5_4/sep"
  param {
    lr_mult: 1
    decay_mult: 0
  }
  param {
    lr_mult: 1
    decay_mult: 0
  }
  scale_param {
    filler {
      type: "constant"
      value: 1
    }
    bias_term: true
    bias_filler {
      type: "constant"
      value: 0
    }
  }
}
layer {
  name: "conv5_4/sep_relu"
  type: "ReLU"
  bottom: "conv5_4/sep"
  top: "conv5_4/sep"
}
layer {
  name: "conv5_5/dw"
  type: "Convolution"
  bottom: "conv5_4/sep"
  top: "conv5_5/dw"
  param {
    lr_mult: 1
    decay_mult: 1
  }
  convolution_param {
    num_output: 512
    bias_term: false
    pad: 1
    kernel_size: 3
    group: 512
    stride: 1
    weight_filler {
      type: "gaussian"
      std: 0.01
    }
    engine: CAFFE
  }
}
layer {
  name: "conv5_5/dw/bn"
  type: "BatchNorm"
  bottom: "conv5_5/dw"
  top: "conv5_5/dw"
  batch_norm_param {
    moving_average_fraction: 0.999
    eps: 0.001
  }
}
layer {
  name: "conv5_5/dw/scale"
  type: "Scale"
  bottom: "conv5_5/dw"
  top: "conv5_5/dw"
  param {
    lr_mult: 1
    decay_mult: 0
  }
  param {
    lr_mult: 1
    decay_mult: 0
  }
  scale_param {
    filler {
      type: "constant"
      value: 1
    }
    bias_term: true
    bias_filler {
      type: "constant"
      value: 0
    }
  }
}
layer {
  name: "conv5_5/dw_relu"
  type: "ReLU"
  bottom: "conv5_5/dw"
  top: "conv5_5/dw"
}
layer {
  name: "conv5_5/sep"
  type: "Convolution"
  bottom: "conv5_5/dw"
  top: "conv5_5/sep"
  param {
    lr_mult: 1
    decay_mult: 1
  }
  convolution_param {
    num_output: 512
    bias_term: false
    pad: 0
    kernel_size: 1
    group: 1
    stride: 1
    weight_filler {
      type: "gaussian"
      std: 0.01
    }
    engine: DEFAULT
  }
}
layer {
  name: "conv5_5/sep/bn"
  type: "BatchNorm"
  bottom: "conv5_5/sep"
  top: "conv5_5/sep"
  batch_norm_param {
    moving_average_fraction: 0.999
    eps: 0.001
  }
}
layer {
  name: "conv5_5/sep/scale"
  type: "Scale"
  bottom: "conv5_5/sep"
  top: "conv5_5/sep"
  param {
    lr_mult: 1
    decay_mult: 0
  }
  param {
    lr_mult: 1
    decay_mult: 0
  }
  scale_param {
    filler {
      type: "constant"
      value: 1
    }
    bias_term: true
    bias_filler {
      type: "constant"
      value: 0
    }
  }
}
layer {
  name: "conv5_5/sep_relu"
  type: "ReLU"
  bottom: "conv5_5/sep"
  top: "conv5_5/sep"
}
layer {
  name: "conv5_6/dw"
  type: "Convolution"
  bottom: "conv5_5/sep"
  top: "conv5_6/dw"
  param {
    lr_mult: 1
    decay_mult: 1
  }
  convolution_param {
    num_output: 512
    bias_term: false
    pad: 1
    kernel_size: 3
    group: 512
    stride: 2
    weight_filler {
      type: "gaussian"
      std: 0.01
    }
    engine: CAFFE
  }
}
layer {
  name: "conv5_6/dw/bn"
  type: "BatchNorm"
  bottom: "conv5_6/dw"
  top: "conv5_6/dw"
  batch_norm_param {
    moving_average_fraction: 0.999
    eps: 0.001
  }
}
layer {
  name: "conv5_6/dw/scale"
  type: "Scale"
  bottom: "conv5_6/dw"
  top: "conv5_6/dw"
  param {
    lr_mult: 1
    decay_mult: 0
  }
  param {
    lr_mult: 1
    decay_mult: 0
  }
  scale_param {
    filler {
      type: "constant"
      value: 1
    }
    bias_term: true
    bias_filler {
      type: "constant"
      value: 0
    }
  }
}
layer {
  name: "conv5_6/dw_relu"
  type: "ReLU"
  bottom: "conv5_6/dw"
  top: "conv5_6/dw"
}
layer {
  name: "conv5_6/sep"
  type: "Convolution"
  bottom: "conv5_6/dw"
  top: "conv5_6/sep"
  param {
    lr_mult: 1
    decay_mult: 1
  }
  convolution_param {
    num_output: 1024
    bias_term: false
    pad: 0
    kernel_size: 1
    group: 1
    stride: 1
    weight_filler {
      type: "gaussian"
      std: 0.01
    }
    engine: DEFAULT
  }
}
layer {
  name: "conv5_6/sep/bn"
  type: "BatchNorm"
  bottom: "conv5_6/sep"
  top: "conv5_6/sep"
  batch_norm_param {
    moving_average_fraction: 0.999
    eps: 0.001
  }
}
layer {
  name: "conv5_6/sep/scale"
  type: "Scale"
  bottom: "conv5_6/sep"
  top: "conv5_6/sep"
  param {
    lr_mult: 1
    decay_mult: 0
  }
  param {
    lr_mult: 1
    decay_mult: 0
  }
  scale_param {
    filler {
      type: "constant"
      value: 1
    }
    bias_term: true
    bias_filler {
      type: "constant"
      value: 0
    }
  }
}
layer {
  name: "conv5_6/sep_relu"
  type: "ReLU"
  bottom: "conv5_6/sep"
  top: "conv5_6/sep"
}
layer {
  name: "conv6/dw"
  type: "Convolution"
  bottom: "conv5_6/sep"
  top: "conv6/dw"
  param {
    lr_mult: 1
    decay_mult: 1
  }
  convolution_param {
    num_output: 1024
    bias_term: false
    pad: 1
    kernel_size: 3
    group: 1024
    stride: 1
    weight_filler {
      type: "gaussian"
      std: 0.01
    }
    engine: CAFFE
  }
}
layer {
  name: "conv6/dw/bn"
  type: "BatchNorm"
  bottom: "conv6/dw"
  top: "conv6/dw"
  batch_norm_param {
    moving_average_fraction: 0.999
    eps: 0.001
  }
}
layer {
  name: "conv6/dw/scale"
  type: "Scale"
  bottom: "conv6/dw"
  top: "conv6/dw"
  param {
    lr_mult: 1
    decay_mult: 0
  }
  param {
    lr_mult: 1
    decay_mult: 0
  }
  scale_param {
    filler {
      type: "constant"
      value: 1
    }
    bias_term: true
    bias_filler {
      type: "constant"
      value: 0
    }
  }
}
layer {
  name: "conv6/dw_relu"
  type: "ReLU"
  bottom: "conv6/dw"
  top: "conv6/dw"
}
layer {
  name: "conv6/sep"
  type: "Convolution"
  bottom: "conv6/dw"
  top: "conv6/sep"
  param {
    lr_mult: 1
    decay_mult: 1
  }
  convolution_param {
    num_output: 1024
    bias_term: false
    pad: 0
    kernel_size: 1
    group: 1
    stride: 1
    weight_filler {
      type: "gaussian"
      std: 0.01
    }
    engine: DEFAULT
  }
}
layer {
  name: "conv6/sep/bn"
  type: "BatchNorm"
  bottom: "conv6/sep"
  top: "conv6/sep"
  batch_norm_param {
    moving_average_fraction: 0.999
    eps: 0.001
  }
}
layer {
  name: "conv6/sep/scale"
  type: "Scale"
  bottom: "conv6/sep"
  top: "conv6/sep"
  param {
    lr_mult: 1
    decay_mult: 0
  }
  param {
    lr_mult: 1
    decay_mult: 0
  }
  scale_param {
    filler {
      type: "constant"
      value: 1
    }
    bias_term: true
    bias_filler {
      type: "constant"
      value: 0
    }
  }
}
layer {
  name: "conv6/sep_relu"
  type: "ReLU"
  bottom: "conv6/sep"
  top: "conv6/sep"
}
layer {
  name: "conv7_1"
  type: "Convolution"
  bottom: "conv6/sep"
  top: "conv7_1"
  param {
    lr_mult: 1
    decay_mult: 1
  }
  param {
    lr_mult: 2
    decay_mult: 0
  }
  convolution_param {
    num_output: 256
    pad: 0
    kernel_size: 1
    group: 1
    stride: 1
    weight_filler {
      type: "xavier"
    }
    bias_filler {
      type: "constant"
      value: 0
    }
    engine: DEFAULT
  }
}
layer {
  name: "conv7_1_relu"
  type: "ReLU"
  bottom: "conv7_1"
  top: "conv7_1"
}
layer {
  name: "conv7_2"
  type: "Convolution"
  bottom: "conv7_1"
  top: "conv7_2"
  param {
    lr_mult: 1
    decay_mult: 1
  }
  param {
    lr_mult: 2
    decay_mult: 0
  }
  convolution_param {
    num_output: 512
    pad: 1
    kernel_size: 3
    group: 1
    stride: 2
    weight_filler {
      type: "xavier"
    }
    bias_filler {
      type: "constant"
      value: 0
    }
    engine: DEFAULT
  }
}
layer {
  name: "conv7_2_relu"
  type: "ReLU"
  bottom: "co
I0729 21:15:24.240387 13373 layer_factory.hpp:77] Creating layer data
I0729 21:15:24.240516 13373 net.cpp:100] Creating Layer data
I0729 21:15:24.240535 13373 net.cpp:408] data -> data
I0729 21:15:24.240561 13373 net.cpp:408] data -> label
I0729 21:15:24.241592 13378 db_lmdb.cpp:35] Opened lmdb data/BodyFaceRegions/lmdb/VOC0712_170404_161114_lmdb
I0729 21:15:24.254014 13373 annotated_data_layer.cpp:62] output data size: 16,3,300,300
I0729 21:15:24.278462 13373 net.cpp:150] Setting up data
I0729 21:15:24.278486 13373 net.cpp:157] Top shape: 16 3 300 300 (4320000)
I0729 21:15:24.278489 13373 net.cpp:157] Top shape: 1 1 4 8 (32)
I0729 21:15:24.278491 13373 net.cpp:165] Memory required for data: 17280128
I0729 21:15:24.278501 13373 layer_factory.hpp:77] Creating layer data_data_0_split
I0729 21:15:24.278512 13373 net.cpp:100] Creating Layer data_data_0_split
I0729 21:15:24.278517 13373 net.cpp:434] data_data_0_split <- data
I0729 21:15:24.278527 13373 net.cpp:408] data_data_0_split -> data_data_0_split_0
I0729 21:15:24.278537 13373 net.cpp:408] data_data_0_split -> data_data_0_split_1
I0729 21:15:24.278549 13373 net.cpp:408] data_data_0_split -> data_data_0_split_2
I0729 21:15:24.278555 13373 net.cpp:408] data_data_0_split -> data_data_0_split_3
I0729 21:15:24.278560 13373 net.cpp:408] data_data_0_split -> data_data_0_split_4
I0729 21:15:24.278573 13373 net.cpp:408] data_data_0_split -> data_data_0_split_5
I0729 21:15:24.278578 13373 net.cpp:408] data_data_0_split -> data_data_0_split_6
I0729 21:15:24.278652 13373 net.cpp:150] Setting up data_data_0_split
I0729 21:15:24.278657 13373 net.cpp:157] Top shape: 16 3 300 300 (4320000)
I0729 21:15:24.278661 13373 net.cpp:157] Top shape: 16 3 300 300 (4320000)
I0729 21:15:24.278664 13373 net.cpp:157] Top shape: 16 3 300 300 (4320000)
I0729 21:15:24.278667 13373 net.cpp:157] Top shape: 16 3 300 300 (4320000)
I0729 21:15:24.278671 13373 net.cpp:157] Top shape: 16 3 300 300 (4320000)
I0729 21:15:24.278673 13373 net.cpp:157] Top shape: 16 3 300 300 (4320000)
I0729 21:15:24.278676 13373 net.cpp:157] Top shape: 16 3 300 300 (4320000)
I0729 21:15:24.278678 13373 net.cpp:165] Memory required for data: 138240128
I0729 21:15:24.278681 13373 layer_factory.hpp:77] Creating layer conv1
I0729 21:15:24.278695 13373 net.cpp:100] Creating Layer conv1
I0729 21:15:24.278698 13373 net.cpp:434] conv1 <- data_data_0_split_0
I0729 21:15:24.278703 13373 net.cpp:408] conv1 -> conv1
I0729 21:15:24.299278 13379 blocking_queue.cpp:50] Waiting for data
I0729 21:15:24.484480 13373 net.cpp:150] Setting up conv1
I0729 21:15:24.484508 13373 net.cpp:157] Top shape: 16 32 150 150 (11520000)
I0729 21:15:24.484510 13373 net.cpp:165] Memory required for data: 184320128
I0729 21:15:24.484525 13373 layer_factory.hpp:77] Creating layer conv1/bn
I0729 21:15:24.484534 13373 net.cpp:100] Creating Layer conv1/bn
I0729 21:15:24.484539 13373 net.cpp:434] conv1/bn <- conv1
I0729 21:15:24.484544 13373 net.cpp:395] conv1/bn -> conv1 (in-place)
I0729 21:15:24.485080 13373 net.cpp:150] Setting up conv1/bn
I0729 21:15:24.485090 13373 net.cpp:157] Top shape: 16 32 150 150 (11520000)
I0729 21:15:24.485093 13373 net.cpp:165] Memory required for data: 230400128
I0729 21:15:24.485102 13373 layer_factory.hpp:77] Creating layer conv1/scale
I0729 21:15:24.485111 13373 net.cpp:100] Creating Layer conv1/scale
I0729 21:15:24.485116 13373 net.cpp:434] conv1/scale <- conv1
I0729 21:15:24.485119 13373 net.cpp:395] conv1/scale -> conv1 (in-place)
I0729 21:15:24.485155 13373 layer_factory.hpp:77] Creating layer conv1/scale
I0729 21:15:24.485266 13373 net.cpp:150] Setting up conv1/scale
I0729 21:15:24.485272 13373 net.cpp:157] Top shape: 16 32 150 150 (11520000)
I0729 21:15:24.485275 13373 net.cpp:165] Memory required for data: 276480128
I0729 21:15:24.485280 13373 layer_factory.hpp:77] Creating layer conv1_relu
I0729 21:15:24.485285 13373 net.cpp:100] Creating Layer conv1_relu
I0729 21:15:24.485288 13373 net.cpp:434] conv1_relu <- conv1
I0729 21:15:24.485291 13373 net.cpp:395] conv1_relu -> conv1 (in-place)
I0729 21:15:24.485430 13373 net.cpp:150] Setting up conv1_relu
I0729 21:15:24.485436 13373 net.cpp:157] Top shape: 16 32 150 150 (11520000)
I0729 21:15:24.485438 13373 net.cpp:165] Memory required for data: 322560128
I0729 21:15:24.485441 13373 layer_factory.hpp:77] Creating layer conv2_1/dw
I0729 21:15:24.485448 13373 net.cpp:100] Creating Layer conv2_1/dw
I0729 21:15:24.485451 13373 net.cpp:434] conv2_1/dw <- conv1
I0729 21:15:24.485455 13373 net.cpp:408] conv2_1/dw -> conv2_1/dw
I0729 21:15:24.485608 13373 net.cpp:150] Setting up conv2_1/dw
I0729 21:15:24.485615 13373 net.cpp:157] Top shape: 16 32 150 150 (11520000)
I0729 21:15:24.485617 13373 net.cpp:165] Memory required for data: 368640128
I0729 21:15:24.485621 13373 layer_factory.hpp:77] Creating layer conv2_1/dw/bn
I0729 21:15:24.485627 13373 net.cpp:100] Creating Layer conv2_1/dw/bn
I0729 21:15:24.485630 13373 net.cpp:434] conv2_1/dw/bn <- conv2_1/dw
I0729 21:15:24.485635 13373 net.cpp:395] conv2_1/dw/bn -> conv2_1/dw (in-place)
I0729 21:15:24.485785 13373 net.cpp:150] Setting up conv2_1/dw/bn
I0729 21:15:24.485792 13373 net.cpp:157] Top shape: 16 32 150 150 (11520000)
I0729 21:15:24.485800 13373 net.cpp:165] Memory required for data: 414720128
I0729 21:15:24.485808 13373 layer_factory.hpp:77] Creating layer conv2_1/dw/scale
I0729 21:15:24.485815 13373 net.cpp:100] Creating Layer conv2_1/dw/scale
I0729 21:15:24.485824 13373 net.cpp:434] conv2_1/dw/scale <- conv2_1/dw
I0729 21:15:24.485829 13373 net.cpp:395] conv2_1/dw/scale -> conv2_1/dw (in-place)
I0729 21:15:24.485862 13373 layer_factory.hpp:77] Creating layer conv2_1/dw/scale
I0729 21:15:24.485970 13373 net.cpp:150] Setting up conv2_1/dw/scale
I0729 21:15:24.485976 13373 net.cpp:157] Top shape: 16 32 150 150 (11520000)
I0729 21:15:24.485980 13373 net.cpp:165] Memory required for data: 460800128
I0729 21:15:24.485983 13373 layer_factory.hpp:77] Creating layer conv2_1/dw_relu
I0729 21:15:24.485988 13373 net.cpp:100] Creating Layer conv2_1/dw_relu
I0729 21:15:24.485991 13373 net.cpp:434] conv2_1/dw_relu <- conv2_1/dw
I0729 21:15:24.485994 13373 net.cpp:395] conv2_1/dw_relu -> conv2_1/dw (in-place)
I0729 21:15:24.486549 13373 net.cpp:150] Setting up conv2_1/dw_relu
I0729 21:15:24.486560 13373 net.cpp:157] Top shape: 16 32 150 150 (11520000)
I0729 21:15:24.486562 13373 net.cpp:165] Memory required for data: 506880128
I0729 21:15:24.486565 13373 layer_factory.hpp:77] Creating layer conv2_1/sep
I0729 21:15:24.486573 13373 net.cpp:100] Creating Layer conv2_1/sep
I0729 21:15:24.486577 13373 net.cpp:434] conv2_1/sep <- conv2_1/dw
I0729 21:15:24.486580 13373 net.cpp:408] conv2_1/sep -> conv2_1/sep
I0729 21:15:24.487951 13373 net.cpp:150] Setting up conv2_1/sep
I0729 21:15:24.487963 13373 net.cpp:157] Top shape: 16 64 150 150 (23040000)
I0729 21:15:24.487965 13373 net.cpp:165] Memory required for data: 599040128
I0729 21:15:24.487970 13373 layer_factory.hpp:77] Creating layer conv2_1/sep/bn
I0729 21:15:24.487975 13373 net.cpp:100] Creating Layer conv2_1/sep/bn
I0729 21:15:24.487978 13373 net.cpp:434] conv2_1/sep/bn <- conv2_1/sep
I0729 21:15:24.487983 13373 net.cpp:395] conv2_1/sep/bn -> conv2_1/sep (in-place)
I0729 21:15:24.488150 13373 net.cpp:150] Setting up conv2_1/sep/bn
I0729 21:15:24.488155 13373 net.cpp:157] Top shape: 16 64 150 150 (23040000)
I0729 21:15:24.488158 13373 net.cpp:165] Memory required for data: 691200128
I0729 21:15:24.488163 13373 layer_factory.hpp:77] Creating layer conv2_1/sep/scale
I0729 21:15:24.488169 13373 net.cpp:100] Creating Layer conv2_1/sep/scale
I0729 21:15:24.488173 13373 net.cpp:434] conv2_1/sep/scale <- conv2_1/sep
I0729 21:15:24.488176 13373 net.cpp:395] conv2_1/sep/scale -> conv2_1/sep (in-place)
I0729 21:15:24.488209 13373 layer_factory.hpp:77] Creating layer conv2_1/sep/scale
I0729 21:15:24.488318 13373 net.cpp:150] Setting up conv2_1/sep/scale
I0729 21:15:24.488324 13373 net.cpp:157] Top shape: 16 64 150 150 (23040000)
I0729 21:15:24.488327 13373 net.cpp:165] Memory required for data: 783360128
I0729 21:15:24.488334 13373 layer_factory.hpp:77] Creating layer conv2_1/sep_relu
I0729 21:15:24.488338 13373 net.cpp:100] Creating Layer conv2_1/sep_relu
I0729 21:15:24.488342 13373 net.cpp:434] conv2_1/sep_relu <- conv2_1/sep
I0729 21:15:24.488345 13373 net.cpp:395] conv2_1/sep_relu -> conv2_1/sep (in-place)
I0729 21:15:24.488957 13373 net.cpp:150] Setting up conv2_1/sep_relu
I0729 21:15:24.488970 13373 net.cpp:157] Top shape: 16 64 150 150 (23040000)
I0729 21:15:24.488972 13373 net.cpp:165] Memory required for data: 875520128
I0729 21:15:24.488976 13373 layer_factory.hpp:77] Creating layer conv2_2/dw
I0729 21:15:24.488982 13373 net.cpp:100] Creating Layer conv2_2/dw
I0729 21:15:24.488986 13373 net.cpp:434] conv2_2/dw <- conv2_1/sep
I0729 21:15:24.488991 13373 net.cpp:408] conv2_2/dw -> conv2_2/dw
I0729 21:15:24.489151 13373 net.cpp:150] Setting up conv2_2/dw
I0729 21:15:24.489158 13373 net.cpp:157] Top shape: 16 64 75 75 (5760000)
I0729 21:15:24.489161 13373 net.cpp:165] Memory required for data: 898560128
I0729 21:15:24.489164 13373 layer_factory.hpp:77] Creating layer conv2_2/dw/bn
I0729 21:15:24.489169 13373 net.cpp:100] Creating Layer conv2_2/dw/bn
I0729 21:15:24.489172 13373 net.cpp:434] conv2_2/dw/bn <- conv2_2/dw
I0729 21:15:24.489179 13373 net.cpp:395] conv2_2/dw/bn -> conv2_2/dw (in-place)
I0729 21:15:24.489691 13373 net.cpp:150] Setting up conv2_2/dw/bn
I0729 21:15:24.489701 13373 net.cpp:157] Top shape: 16 64 75 75 (5760000)
I0729 21:15:24.489708 13373 net.cpp:165] Memory required for data: 921600128
I0729 21:15:24.489714 13373 layer_factory.hpp:77] Creating layer conv2_2/dw/scale
I0729 21:15:24.489723 13373 net.cpp:100] Creating Layer conv2_2/dw/scale
I0729 21:15:24.489727 13373 net.cpp:434] conv2_2/dw/scale <- conv2_2/dw
I0729 21:15:24.489732 13373 net.cpp:395] conv2_2/dw/scale -> conv2_2/dw (in-place)
I0729 21:15:24.489766 13373 layer_factory.hpp:77] Creating layer conv2_2/dw/scale
I0729 21:15:24.489863 13373 net.cpp:150] Setting up conv2_2/dw/scale
I0729 21:15:24.489869 13373 net.cpp:157] Top shape: 16 64 75 75 (5760000)
I0729 21:15:24.489871 13373 net.cpp:165] Memory required for data: 944640128
I0729 21:15:24.489876 13373 layer_factory.hpp:77] Creating layer conv2_2/dw_relu
I0729 21:15:24.489881 13373 net.cpp:100] Creating Layer conv2_2/dw_relu
I0729 21:15:24.489884 13373 net.cpp:434] conv2_2/dw_relu <- conv2_2/dw
I0729 21:15:24.489888 13373 net.cpp:395] conv2_2/dw_relu -> conv2_2/dw (in-place)
I0729 21:15:24.490027 13373 net.cpp:150] Setting up conv2_2/dw_relu
I0729 21:15:24.490036 13373 net.cpp:157] Top shape: 16 64 75 75 (5760000)
I0729 21:15:24.490037 13373 net.cpp:165] Memory required for data: 967680128
I0729 21:15:24.490041 13373 layer_factory.hpp:77] Creating layer conv2_2/sep
I0729 21:15:24.490047 13373 net.cpp:100] Creating Layer conv2_2/sep
I0729 21:15:24.490049 13373 net.cpp:434] conv2_2/sep <- conv2_2/dw
I0729 21:15:24.490054 13373 net.cpp:408] conv2_2/sep -> conv2_2/sep
I0729 21:15:24.491932 13373 net.cpp:150] Setting up conv2_2/sep
I0729 21:15:24.491943 13373 net.cpp:157] Top shape: 16 128 75 75 (11520000)
I0729 21:15:24.491946 13373 net.cpp:165] Memory required for data: 1013760128
I0729 21:15:24.491950 13373 layer_factory.hpp:77] Creating layer conv2_2/sep/bn
I0729 21:15:24.491956 13373 net.cpp:100] Creating Layer conv2_2/sep/bn
I0729 21:15:24.491960 13373 net.cpp:434] conv2_2/sep/bn <- conv2_2/sep
I0729 21:15:24.491963 13373 net.cpp:395] conv2_2/sep/bn -> conv2_2/sep (in-place)
I0729 21:15:24.492110 13373 net.cpp:150] Setting up conv2_2/sep/bn
I0729 21:15:24.492116 13373 net.cpp:157] Top shape: 16 128 75 75 (11520000)
I0729 21:15:24.492118 13373 net.cpp:165] Memory required for data: 1059840128
I0729 21:15:24.492125 13373 layer_factory.hpp:77] Creating layer conv2_2/sep/scale
I0729 21:15:24.492130 13373 net.cpp:100] Creating Layer conv2_2/sep/scale
I0729 21:15:24.492132 13373 net.cpp:434] conv2_2/sep/scale <- conv2_2/sep
I0729 21:15:24.492136 13373 net.cpp:395] conv2_2/sep/scale -> conv2_2/sep (in-place)
I0729 21:15:24.492167 13373 layer_factory.hpp:77] Creating layer conv2_2/sep/scale
I0729 21:15:24.492257 13373 net.cpp:150] Setting up conv2_2/sep/scale
I0729 21:15:24.492264 13373 net.cpp:157] Top shape: 16 128 75 75 (11520000)
I0729 21:15:24.492265 13373 net.cpp:165] Memory required for data: 1105920128
I0729 21:15:24.492270 13373 layer_factory.hpp:77] Creating layer conv2_2/sep_relu
I0729 21:15:24.492275 13373 net.cpp:100] Creating Layer conv2_2/sep_relu
I0729 21:15:24.492277 13373 net.cpp:434] conv2_2/sep_relu <- conv2_2/sep
I0729 21:15:24.492281 13373 net.cpp:395] conv2_2/sep_relu -> conv2_2/sep (in-place)
I0729 21:15:24.492854 13373 net.cpp:150] Setting up conv2_2/sep_relu
I0729 21:15:24.492866 13373 net.cpp:157] Top shape: 16 128 75 75 (11520000)
I0729 21:15:24.492867 13373 net.cpp:165] Memory required for data: 1152000128
I0729 21:15:24.492871 13373 layer_factory.hpp:77] Creating layer conv3_1/dw
I0729 21:15:24.492879 13373 net.cpp:100] Creating Layer conv3_1/dw
I0729 21:15:24.492883 13373 net.cpp:434] conv3_1/dw <- conv2_2/sep
I0729 21:15:24.492888 13373 net.cpp:408] conv3_1/dw -> conv3_1/dw
I0729 21:15:24.493046 13373 net.cpp:150] Setting up conv3_1/dw
I0729 21:15:24.493052 13373 net.cpp:157] Top shape: 16 128 75 75 (11520000)
I0729 21:15:24.493053 13373 net.cpp:165] Memory required for data: 1198080128
I0729 21:15:24.493062 13373 layer_factory.hpp:77] Creating layer conv3_1/dw/bn
I0729 21:15:24.493065 13373 net.cpp:100] Creating Layer conv3_1/dw/bn
I0729 21:15:24.493068 13373 net.cpp:434] conv3_1/dw/bn <- conv3_1/dw
I0729 21:15:24.493077 13373 net.cpp:395] conv3_1/dw/bn -> conv3_1/dw (in-place)
I0729 21:15:24.493222 13373 net.cpp:150] Setting up conv3_1/dw/bn
I0729 21:15:24.493228 13373 net.cpp:157] Top shape: 16 128 75 75 (11520000)
I0729 21:15:24.493230 13373 net.cpp:165] Memory required for data: 1244160128
I0729 21:15:24.493239 13373 layer_factory.hpp:77] Creating layer conv3_1/dw/scale
I0729 21:15:24.493244 13373 net.cpp:100] Creating Layer conv3_1/dw/scale
I0729 21:15:24.493247 13373 net.cpp:434] conv3_1/dw/scale <- conv3_1/dw
I0729 21:15:24.493252 13373 net.cpp:395] conv3_1/dw/scale -> conv3_1/dw (in-place)
I0729 21:15:24.493283 13373 layer_factory.hpp:77] Creating layer conv3_1/dw/scale
I0729 21:15:24.493371 13373 net.cpp:150] Setting up conv3_1/dw/scale
I0729 21:15:24.493376 13373 net.cpp:157] Top shape: 16 128 75 75 (11520000)
I0729 21:15:24.493378 13373 net.cpp:165] Memory required for data: 1290240128
I0729 21:15:24.493382 13373 layer_factory.hpp:77] Creating layer conv3_1/dw_relu
I0729 21:15:24.493387 13373 net.cpp:100] Creating Layer conv3_1/dw_relu
I0729 21:15:24.493391 13373 net.cpp:434] conv3_1/dw_relu <- conv3_1/dw
I0729 21:15:24.493393 13373 net.cpp:395] conv3_1/dw_relu -> conv3_1/dw (in-place)
I0729 21:15:24.493530 13373 net.cpp:150] Setting up conv3_1/dw_relu
I0729 21:15:24.493540 13373 net.cpp:157] Top shape: 16 128 75 75 (11520000)
I0729 21:15:24.493541 13373 net.cpp:165] Memory required for data: 1336320128
I0729 21:15:24.493544 13373 layer_factory.hpp:77] Creating layer conv3_1/sep
I0729 21:15:24.493551 13373 net.cpp:100] Creating Layer conv3_1/sep
I0729 21:15:24.493554 13373 net.cpp:434] conv3_1/sep <- conv3_1/dw
I0729 21:15:24.493558 13373 net.cpp:408] conv3_1/sep -> conv3_1/sep
I0729 21:15:24.495098 13373 net.cpp:150] Setting up conv3_1/sep
I0729 21:15:24.495112 13373 net.cpp:157] Top shape: 16 128 75 75 (11520000)
I0729 21:15:24.495115 13373 net.cpp:165] Memory required for data: 1382400128
I0729 21:15:24.495120 13373 layer_factory.hpp:77] Creating layer conv3_1/sep/bn
I0729 21:15:24.495124 13373 net.cpp:100] Creating Layer conv3_1/sep/bn
I0729 21:15:24.495127 13373 net.cpp:434] conv3_1/sep/bn <- conv3_1/sep
I0729 21:15:24.495132 13373 net.cpp:395] conv3_1/sep/bn -> conv3_1/sep (in-place)
I0729 21:15:24.495280 13373 net.cpp:150] Setting up conv3_1/sep/bn
I0729 21:15:24.495285 13373 net.cpp:157] Top shape: 16 128 75 75 (11520000)
I0729 21:15:24.495287 13373 net.cpp:165] Memory required for data: 1428480128
I0729 21:15:24.495292 13373 layer_factory.hpp:77] Creating layer conv3_1/sep/scale
I0729 21:15:24.495298 13373 net.cpp:100] Creating Layer conv3_1/sep/scale
I0729 21:15:24.495301 13373 net.cpp:434] conv3_1/sep/scale <- conv3_1/sep
I0729 21:15:24.495306 13373 net.cpp:395] conv3_1/sep/scale -> conv3_1/sep (in-place)
I0729 21:15:24.495337 13373 layer_factory.hpp:77] Creating layer conv3_1/sep/scale
I0729 21:15:24.495425 13373 net.cpp:150] Setting up conv3_1/sep/scale
I0729 21:15:24.495431 13373 net.cpp:157] Top shape: 16 128 75 75 (11520000)
I0729 21:15:24.495434 13373 net.cpp:165] Memory required for data: 1474560128
I0729 21:15:24.495438 13373 layer_factory.hpp:77] Creating layer conv3_1/sep_relu
I0729 21:15:24.495442 13373 net.cpp:100] Creating Layer conv3_1/sep_relu
I0729 21:15:24.495445 13373 net.cpp:434] conv3_1/sep_relu <- conv3_1/sep
I0729 21:15:24.495450 13373 net.cpp:395] conv3_1/sep_relu -> conv3_1/sep (in-place)
I0729 21:15:24.496001 13373 net.cpp:150] Setting up conv3_1/sep_relu
I0729 21:15:24.496011 13373 net.cpp:157] Top shape: 16 128 75 75 (11520000)
I0729 21:15:24.496013 13373 net.cpp:165] Memory required for data: 1520640128
I0729 21:15:24.496016 13373 layer_factory.hpp:77] Creating layer conv3_2/dw
I0729 21:15:24.496023 13373 net.cpp:100] Creating Layer conv3_2/dw
I0729 21:15:24.496027 13373 net.cpp:434] conv3_2/dw <- conv3_1/sep
I0729 21:15:24.496035 13373 net.cpp:408] conv3_2/dw -> conv3_2/dw
I0729 21:15:24.496201 13373 net.cpp:150] Setting up conv3_2/dw
I0729 21:15:24.496207 13373 net.cpp:157] Top shape: 16 128 38 38 (2957312)
I0729 21:15:24.496209 13373 net.cpp:165] Memory required for data: 1532469376
I0729 21:15:24.496217 13373 layer_factory.hpp:77] Creating layer conv3_2/dw/bn
I0729 21:15:24.496222 13373 net.cpp:100] Creating Layer conv3_2/dw/bn
I0729 21:15:24.496224 13373 net.cpp:434] conv3_2/dw/bn <- conv3_2/dw
I0729 21:15:24.496229 13373 net.cpp:395] conv3_2/dw/bn -> conv3_2/dw (in-place)
I0729 21:15:24.496371 13373 net.cpp:150] Setting up conv3_2/dw/bn
I0729 21:15:24.496376 13373 net.cpp:157] Top shape: 16 128 38 38 (2957312)
I0729 21:15:24.496378 13373 net.cpp:165] Memory required for data: 1544298624
I0729 21:15:24.496383 13373 layer_factory.hpp:77] Creating layer conv3_2/dw/scale
I0729 21:15:24.496392 13373 net.cpp:100] Creating Layer conv3_2/dw/scale
I0729 21:15:24.496394 13373 net.cpp:434] conv3_2/dw/scale <- conv3_2/dw
I0729 21:15:24.496398 13373 net.cpp:395] conv3_2/dw/scale -> conv3_2/dw (in-place)
I0729 21:15:24.496429 13373 layer_factory.hpp:77] Creating layer conv3_2/dw/scale
I0729 21:15:24.496533 13373 net.cpp:150] Setting up conv3_2/dw/scale
I0729 21:15:24.496541 13373 net.cpp:157] Top shape: 16 128 38 38 (2957312)
I0729 21:15:24.496544 13373 net.cpp:165] Memory required for data: 1556127872
I0729 21:15:24.496548 13373 layer_factory.hpp:77] Creating layer conv3_2/dw_relu
I0729 21:15:24.496554 13373 net.cpp:100] Creating Layer conv3_2/dw_relu
I0729 21:15:24.496556 13373 net.cpp:434] conv3_2/dw_relu <- conv3_2/dw
I0729 21:15:24.496561 13373 net.cpp:395] conv3_2/dw_relu -> conv3_2/dw (in-place)
I0729 21:15:24.496701 13373 net.cpp:150] Setting up conv3_2/dw_relu
I0729 21:15:24.496707 13373 net.cpp:157] Top shape: 16 128 38 38 (2957312)
I0729 21:15:24.496711 13373 net.cpp:165] Memory required for data: 1567957120
I0729 21:15:24.496712 13373 layer_factory.hpp:77] Creating layer conv3_2/sep
I0729 21:15:24.496719 13373 net.cpp:100] Creating Layer conv3_2/sep
I0729 21:15:24.496722 13373 net.cpp:434] conv3_2/sep <- conv3_2/dw
I0729 21:15:24.496726 13373 net.cpp:408] conv3_2/sep -> conv3_2/sep
I0729 21:15:24.498401 13373 net.cpp:150] Setting up conv3_2/sep
I0729 21:15:24.498412 13373 net.cpp:157] Top shape: 16 256 38 38 (5914624)
I0729 21:15:24.498415 13373 net.cpp:165] Memory required for data: 1591615616
I0729 21:15:24.498420 13373 layer_factory.hpp:77] Creating layer conv3_2/sep/bn
I0729 21:15:24.498425 13373 net.cpp:100] Creating Layer conv3_2/sep/bn
I0729 21:15:24.498427 13373 net.cpp:434] conv3_2/sep/bn <- conv3_2/sep
I0729 21:15:24.498432 13373 net.cpp:395] conv3_2/sep/bn -> conv3_2/sep (in-place)
I0729 21:15:24.498584 13373 net.cpp:150] Setting up conv3_2/sep/bn
I0729 21:15:24.498589 13373 net.cpp:157] Top shape: 16 256 38 38 (5914624)
I0729 21:15:24.498591 13373 net.cpp:165] Memory required for data: 1615274112
I0729 21:15:24.498596 13373 layer_factory.hpp:77] Creating layer conv3_2/sep/scale
I0729 21:15:24.498601 13373 net.cpp:100] Creating Layer conv3_2/sep/scale
I0729 21:15:24.498605 13373 net.cpp:434] conv3_2/sep/scale <- conv3_2/sep
I0729 21:15:24.498608 13373 net.cpp:395] conv3_2/sep/scale -> conv3_2/sep (in-place)
I0729 21:15:24.498641 13373 layer_factory.hpp:77] Creating layer conv3_2/sep/scale
I0729 21:15:24.498726 13373 net.cpp:150] Setting up conv3_2/sep/scale
I0729 21:15:24.498733 13373 net.cpp:157] Top shape: 16 256 38 38 (5914624)
I0729 21:15:24.498734 13373 net.cpp:165] Memory required for data: 1638932608
I0729 21:15:24.498739 13373 layer_factory.hpp:77] Creating layer conv3_2/sep_relu
I0729 21:15:24.498742 13373 net.cpp:100] Creating Layer conv3_2/sep_relu
I0729 21:15:24.498745 13373 net.cpp:434] conv3_2/sep_relu <- conv3_2/sep
I0729 21:15:24.498749 13373 net.cpp:395] conv3_2/sep_relu -> conv3_2/sep (in-place)
I0729 21:15:24.499307 13373 net.cpp:150] Setting up conv3_2/sep_relu
I0729 21:15:24.499318 13373 net.cpp:157] Top shape: 16 256 38 38 (5914624)
I0729 21:15:24.499320 13373 net.cpp:165] Memory required for data: 1662591104
I0729 21:15:24.499327 13373 layer_factory.hpp:77] Creating layer conv4_1/dw
I0729 21:15:24.499333 13373 net.cpp:100] Creating Layer conv4_1/dw
I0729 21:15:24.499336 13373 net.cpp:434] conv4_1/dw <- conv3_2/sep
I0729 21:15:24.499346 13373 net.cpp:408] conv4_1/dw -> conv4_1/dw
I0729 21:15:24.499522 13373 net.cpp:150] Setting up conv4_1/dw
I0729 21:15:24.499528 13373 net.cpp:157] Top shape: 16 256 38 38 (5914624)
I0729 21:15:24.499531 13373 net.cpp:165] Memory required for data: 1686249600
I0729 21:15:24.499534 13373 layer_factory.hpp:77] Creating layer conv4_1/dw/bn
I0729 21:15:24.499538 13373 net.cpp:100] Creating Layer conv4_1/dw/bn
I0729 21:15:24.499541 13373 net.cpp:434] conv4_1/dw/bn <- conv4_1/dw
I0729 21:15:24.499546 13373 net.cpp:395] conv4_1/dw/bn -> conv4_1/dw (in-place)
I0729 21:15:24.499688 13373 net.cpp:150] Setting up conv4_1/dw/bn
I0729 21:15:24.499694 13373 net.cpp:157] Top shape: 16 256 38 38 (5914624)
I0729 21:15:24.499696 13373 net.cpp:165] Memory required for data: 1709908096
I0729 21:15:24.499702 13373 layer_factory.hpp:77] Creating layer conv4_1/dw/scale
I0729 21:15:24.499706 13373 net.cpp:100] Creating Layer conv4_1/dw/scale
I0729 21:15:24.499709 13373 net.cpp:434] conv4_1/dw/scale <- conv4_1/dw
I0729 21:15:24.499712 13373 net.cpp:395] conv4_1/dw/scale -> conv4_1/dw (in-place)
I0729 21:15:24.499745 13373 layer_factory.hpp:77] Creating layer conv4_1/dw/scale
I0729 21:15:24.499832 13373 net.cpp:150] Setting up conv4_1/dw/scale
I0729 21:15:24.499837 13373 net.cpp:157] Top shape: 16 256 38 38 (5914624)
I0729 21:15:24.499840 13373 net.cpp:165] Memory required for data: 1733566592
I0729 21:15:24.499845 13373 layer_factory.hpp:77] Creating layer conv4_1/dw_relu
I0729 21:15:24.499848 13373 net.cpp:100] Creating Layer conv4_1/dw_relu
I0729 21:15:24.499850 13373 net.cpp:434] conv4_1/dw_relu <- conv4_1/dw
I0729 21:15:24.499855 13373 net.cpp:395] conv4_1/dw_relu -> conv4_1/dw (in-place)
I0729 21:15:24.499995 13373 net.cpp:150] Setting up conv4_1/dw_relu
I0729 21:15:24.500003 13373 net.cpp:157] Top shape: 16 256 38 38 (5914624)
I0729 21:15:24.500005 13373 net.cpp:165] Memory required for data: 1757225088
I0729 21:15:24.500008 13373 layer_factory.hpp:77] Creating layer conv4_1/sep
I0729 21:15:24.500015 13373 net.cpp:100] Creating Layer conv4_1/sep
I0729 21:15:24.500016 13373 net.cpp:434] conv4_1/sep <- conv4_1/dw
I0729 21:15:24.500021 13373 net.cpp:408] conv4_1/sep -> conv4_1/sep
I0729 21:15:24.502887 13373 net.cpp:150] Setting up conv4_1/sep
I0729 21:15:24.502899 13373 net.cpp:157] Top shape: 16 256 38 38 (5914624)
I0729 21:15:24.502902 13373 net.cpp:165] Memory required for data: 1780883584
I0729 21:15:24.502907 13373 layer_factory.hpp:77] Creating layer conv4_1/sep/bn
I0729 21:15:24.502912 13373 net.cpp:100] Creating Layer conv4_1/sep/bn
I0729 21:15:24.502914 13373 net.cpp:434] conv4_1/sep/bn <- conv4_1/sep
I0729 21:15:24.502919 13373 net.cpp:395] conv4_1/sep/bn -> conv4_1/sep (in-place)
I0729 21:15:24.503077 13373 net.cpp:150] Setting up conv4_1/sep/bn
I0729 21:15:24.503083 13373 net.cpp:157] Top shape: 16 256 38 38 (5914624)
I0729 21:15:24.503087 13373 net.cpp:165] Memory required for data: 1804542080
I0729 21:15:24.503092 13373 layer_factory.hpp:77] Creating layer conv4_1/sep/scale
I0729 21:15:24.503096 13373 net.cpp:100] Creating Layer conv4_1/sep/scale
I0729 21:15:24.503099 13373 net.cpp:434] conv4_1/sep/scale <- conv4_1/sep
I0729 21:15:24.503104 13373 net.cpp:395] conv4_1/sep/scale -> conv4_1/sep (in-place)
I0729 21:15:24.503136 13373 layer_factory.hpp:77] Creating layer conv4_1/sep/scale
I0729 21:15:24.503224 13373 net.cpp:150] Setting up conv4_1/sep/scale
I0729 21:15:24.503229 13373 net.cpp:157] Top shape: 16 256 38 38 (5914624)
I0729 21:15:24.503232 13373 net.cpp:165] Memory required for data: 1828200576
I0729 21:15:24.503242 13373 layer_factory.hpp:77] Creating layer conv4_1/sep_relu
I0729 21:15:24.503247 13373 net.cpp:100] Creating Layer conv4_1/sep_relu
I0729 21:15:24.503249 13373 net.cpp:434] conv4_1/sep_relu <- conv4_1/sep
I0729 21:15:24.503252 13373 net.cpp:395] conv4_1/sep_relu -> conv4_1/sep (in-place)
I0729 21:15:24.503409 13373 net.cpp:150] Setting up conv4_1/sep_relu
I0729 21:15:24.503419 13373 net.cpp:157] Top shape: 16 256 38 38 (5914624)
I0729 21:15:24.503422 13373 net.cpp:165] Memory required for data: 1851859072
I0729 21:15:24.503430 13373 layer_factory.hpp:77] Creating layer conv4_2/dw
I0729 21:15:24.503437 13373 net.cpp:100] Creating Layer conv4_2/dw
I0729 21:15:24.503439 13373 net.cpp:434] conv4_2/dw <- conv4_1/sep
I0729 21:15:24.503444 13373 net.cpp:408] conv4_2/dw -> conv4_2/dw
I0729 21:15:24.503625 13373 net.cpp:150] Setting up conv4_2/dw
I0729 21:15:24.503631 13373 net.cpp:157] Top shape: 16 256 19 19 (1478656)
I0729 21:15:24.503633 13373 net.cpp:165] Memory required for data: 1857773696
I0729 21:15:24.503638 13373 layer_factory.hpp:77] Creating layer conv4_2/dw/bn
I0729 21:15:24.503641 13373 net.cpp:100] Creating Layer conv4_2/dw/bn
I0729 21:15:24.503644 13373 net.cpp:434] conv4_2/dw/bn <- conv4_2/dw
I0729 21:15:24.503648 13373 net.cpp:395] conv4_2/dw/bn -> conv4_2/dw (in-place)
I0729 21:15:24.503795 13373 net.cpp:150] Setting up conv4_2/dw/bn
I0729 21:15:24.503803 13373 net.cpp:157] Top shape: 16 256 19 19 (1478656)
I0729 21:15:24.503804 13373 net.cpp:165] Memory required for data: 1863688320
I0729 21:15:24.503809 13373 layer_factory.hpp:77] Creating layer conv4_2/dw/scale
I0729 21:15:24.503814 13373 net.cpp:100] Creating Layer conv4_2/dw/scale
I0729 21:15:24.503818 13373 net.cpp:434] conv4_2/dw/scale <- conv4_2/dw
I0729 21:15:24.503820 13373 net.cpp:395] conv4_2/dw/scale -> conv4_2/dw (in-place)
I0729 21:15:24.503854 13373 layer_factory.hpp:77] Creating layer conv4_2/dw/scale
I0729 21:15:24.503942 13373 net.cpp:150] Setting up conv4_2/dw/scale
I0729 21:15:24.503947 13373 net.cpp:157] Top shape: 16 256 19 19 (1478656)
I0729 21:15:24.503949 13373 net.cpp:165] Memory required for data: 1869602944
I0729 21:15:24.503953 13373 layer_factory.hpp:77] Creating layer conv4_2/dw_relu
I0729 21:15:24.503958 13373 net.cpp:100] Creating Layer conv4_2/dw_relu
I0729 21:15:24.503962 13373 net.cpp:434] conv4_2/dw_relu <- conv4_2/dw
I0729 21:15:24.503964 13373 net.cpp:395] conv4_2/dw_relu -> conv4_2/dw (in-place)
I0729 21:15:24.504534 13373 net.cpp:150] Setting up conv4_2/dw_relu
I0729 21:15:24.504544 13373 net.cpp:157] Top shape: 16 256 19 19 (1478656)
I0729 21:15:24.504546 13373 net.cpp:165] Memory required for data: 1875517568
I0729 21:15:24.504549 13373 layer_factory.hpp:77] Creating layer conv4_2/sep
I0729 21:15:24.504559 13373 net.cpp:100] Creating Layer conv4_2/sep
I0729 21:15:24.504561 13373 net.cpp:434] conv4_2/sep <- conv4_2/dw
I0729 21:15:24.504566 13373 net.cpp:408] conv4_2/sep -> conv4_2/sep
I0729 21:15:24.507788 13373 net.cpp:150] Setting up conv4_2/sep
I0729 21:15:24.507799 13373 net.cpp:157] Top shape: 16 512 19 19 (2957312)
I0729 21:15:24.507802 13373 net.cpp:165] Memory required for data: 1887346816
I0729 21:15:24.507807 13373 layer_factory.hpp:77] Creating layer conv4_2/sep/bn
I0729 21:15:24.507812 13373 net.cpp:100] Creating Layer conv4_2/sep/bn
I0729 21:15:24.507815 13373 net.cpp:434] conv4_2/sep/bn <- conv4_2/sep
I0729 21:15:24.507819 13373 net.cpp:395] conv4_2/sep/bn -> conv4_2/sep (in-place)
I0729 21:15:24.507983 13373 net.cpp:150] Setting up conv4_2/sep/bn
I0729 21:15:24.507989 13373 net.cpp:157] Top shape: 16 512 19 19 (2957312)
I0729 21:15:24.507992 13373 net.cpp:165] Memory required for data: 1899176064
I0729 21:15:24.507997 13373 layer_factory.hpp:77] Creating layer conv4_2/sep/scale
I0729 21:15:24.508002 13373 net.cpp:100] Creating Layer conv4_2/sep/scale
I0729 21:15:24.508004 13373 net.cpp:434] conv4_2/sep/scale <- conv4_2/sep
I0729 21:15:24.508008 13373 net.cpp:395] conv4_2/sep/scale -> conv4_2/sep (in-place)
I0729 21:15:24.508044 13373 layer_factory.hpp:77] Creating layer conv4_2/sep/scale
I0729 21:15:24.508131 13373 net.cpp:150] Setting up conv4_2/sep/scale
I0729 21:15:24.508137 13373 net.cpp:157] Top shape: 16 512 19 19 (2957312)
I0729 21:15:24.508141 13373 net.cpp:165] Memory required for data: 1911005312
I0729 21:15:24.508144 13373 layer_factory.hpp:77] Creating layer conv4_2/sep_relu
I0729 21:15:24.508152 13373 net.cpp:100] Creating Layer conv4_2/sep_relu
I0729 21:15:24.508154 13373 net.cpp:434] conv4_2/sep_relu <- conv4_2/sep
I0729 21:15:24.508158 13373 net.cpp:395] conv4_2/sep_relu -> conv4_2/sep (in-place)
I0729 21:15:24.508311 13373 net.cpp:150] Setting up conv4_2/sep_relu
I0729 21:15:24.508318 13373 net.cpp:157] Top shape: 16 512 19 19 (2957312)
I0729 21:15:24.508322 13373 net.cpp:165] Memory required for data: 1922834560
I0729 21:15:24.508323 13373 layer_factory.hpp:77] Creating layer conv5_1/dw
I0729 21:15:24.508330 13373 net.cpp:100] Creating Layer conv5_1/dw
I0729 21:15:24.508333 13373 net.cpp:434] conv5_1/dw <- conv4_2/sep
I0729 21:15:24.508339 13373 net.cpp:408] conv5_1/dw -> conv5_1/dw
I0729 21:15:24.508554 13373 net.cpp:150] Setting up conv5_1/dw
I0729 21:15:24.508563 13373 net.cpp:157] Top shape: 16 512 19 19 (2957312)
I0729 21:15:24.508565 13373 net.cpp:165] Memory required for data: 1934663808
I0729 21:15:24.508569 13373 layer_factory.hpp:77] Creating layer conv5_1/dw/bn
I0729 21:15:24.508574 13373 net.cpp:100] Creating Layer conv5_1/dw/bn
I0729 21:15:24.508575 13373 net.cpp:434] conv5_1/dw/bn <- conv5_1/dw
I0729 21:15:24.508580 13373 net.cpp:395] conv5_1/dw/bn -> conv5_1/dw (in-place)
I0729 21:15:24.508733 13373 net.cpp:150] Setting up conv5_1/dw/bn
I0729 21:15:24.508738 13373 net.cpp:157] Top shape: 16 512 19 19 (2957312)
I0729 21:15:24.508740 13373 net.cpp:165] Memory required for data: 1946493056
I0729 21:15:24.508745 13373 layer_factory.hpp:77] Creating layer conv5_1/dw/scale
I0729 21:15:24.508750 13373 net.cpp:100] Creating Layer conv5_1/dw/scale
I0729 21:15:24.508754 13373 net.cpp:434] conv5_1/dw/scale <- conv5_1/dw
I0729 21:15:24.508757 13373 net.cpp:395] conv5_1/dw/scale -> conv5_1/dw (in-place)
I0729 21:15:24.508790 13373 layer_factory.hpp:77] Creating layer conv5_1/dw/scale
I0729 21:15:24.508882 13373 net.cpp:150] Setting up conv5_1/dw/scale
I0729 21:15:24.508888 13373 net.cpp:157] Top shape: 16 512 19 19 (2957312)
I0729 21:15:24.508890 13373 net.cpp:165] Memory required for data: 1958322304
I0729 21:15:24.508894 13373 layer_factory.hpp:77] Creating layer conv5_1/dw_relu
I0729 21:15:24.508898 13373 net.cpp:100] Creating Layer conv5_1/dw_relu
I0729 21:15:24.508900 13373 net.cpp:434] conv5_1/dw_relu <- conv5_1/dw
I0729 21:15:24.508903 13373 net.cpp:395] conv5_1/dw_relu -> conv5_1/dw (in-place)
I0729 21:15:24.509471 13373 net.cpp:150] Setting up conv5_1/dw_relu
I0729 21:15:24.509481 13373 net.cpp:157] Top shape: 16 512 19 19 (2957312)
I0729 21:15:24.509485 13373 net.cpp:165] Memory required for data: 1970151552
I0729 21:15:24.509487 13373 layer_factory.hpp:77] Creating layer conv5_1/sep
I0729 21:15:24.509495 13373 net.cpp:100] Creating Layer conv5_1/sep
I0729 21:15:24.509497 13373 net.cpp:434] conv5_1/sep <- conv5_1/dw
I0729 21:15:24.509503 13373 net.cpp:408] conv5_1/sep -> conv5_1/sep
I0729 21:15:24.513380 13373 net.cpp:150] Setting up conv5_1/sep
I0729 21:15:24.513391 13373 net.cpp:157] Top shape: 16 512 19 19 (2957312)
I0729 21:15:24.513394 13373 net.cpp:165] Memory required for data: 1981980800
I0729 21:15:24.513398 13373 layer_factory.hpp:77] Creating layer conv5_1/sep/bn
I0729 21:15:24.513404 13373 net.cpp:100] Creating Layer conv5_1/sep/bn
I0729 21:15:24.513408 13373 net.cpp:434] conv5_1/sep/bn <- conv5_1/sep
I0729 21:15:24.513412 13373 net.cpp:395] conv5_1/sep/bn -> conv5_1/sep (in-place)
I0729 21:15:24.513576 13373 net.cpp:150] Setting up conv5_1/sep/bn
I0729 21:15:24.513582 13373 net.cpp:157] Top shape: 16 512 19 19 (2957312)
I0729 21:15:24.513584 13373 net.cpp:165] Memory required for data: 1993810048
I0729 21:15:24.513591 13373 layer_factory.hpp:77] Creating layer conv5_1/sep/scale
I0729 21:15:24.513595 13373 net.cpp:100] Creating Layer conv5_1/sep/scale
I0729 21:15:24.513597 13373 net.cpp:434] conv5_1/sep/scale <- conv5_1/sep
I0729 21:15:24.513602 13373 net.cpp:395] conv5_1/sep/scale -> conv5_1/sep (in-place)
I0729 21:15:24.513638 13373 layer_factory.hpp:77] Creating layer conv5_1/sep/scale
I0729 21:15:24.513728 13373 net.cpp:150] Setting up conv5_1/sep/scale
I0729 21:15:24.513737 13373 net.cpp:157] Top shape: 16 512 19 19 (2957312)
I0729 21:15:24.513741 13373 net.cpp:165] Memory required for data: 2005639296
I0729 21:15:24.513744 13373 layer_factory.hpp:77] Creating layer conv5_1/sep_relu
I0729 21:15:24.513754 13373 net.cpp:100] Creating Layer conv5_1/sep_relu
I0729 21:15:24.513756 13373 net.cpp:434] conv5_1/sep_relu <- conv5_1/sep
I0729 21:15:24.513761 13373 net.cpp:395] conv5_1/sep_relu -> conv5_1/sep (in-place)
I0729 21:15:24.513902 13373 net.cpp:150] Setting up conv5_1/sep_relu
I0729 21:15:24.513911 13373 net.cpp:157] Top shape: 16 512 19 19 (2957312)
I0729 21:15:24.513912 13373 net.cpp:165] Memory required for data: 2017468544
I0729 21:15:24.513916 13373 layer_factory.hpp:77] Creating layer conv5_2/dw
I0729 21:15:24.513922 13373 net.cpp:100] Creating Layer conv5_2/dw
I0729 21:15:24.513926 13373 net.cpp:434] conv5_2/dw <- conv5_1/sep
I0729 21:15:24.513929 13373 net.cpp:408] conv5_2/dw -> conv5_2/dw
I0729 21:15:24.514127 13373 net.cpp:150] Setting up conv5_2/dw
I0729 21:15:24.514133 13373 net.cpp:157] Top shape: 16 512 19 19 (2957312)
I0729 21:15:24.514135 13373 net.cpp:165] Memory required for data: 2029297792
I0729 21:15:24.514139 13373 layer_factory.hpp:77] Creating layer conv5_2/dw/bn
I0729 21:15:24.514143 13373 net.cpp:100] Creating Layer conv5_2/dw/bn
I0729 21:15:24.514147 13373 net.cpp:434] conv5_2/dw/bn <- conv5_2/dw
I0729 21:15:24.514149 13373 net.cpp:395] conv5_2/dw/bn -> conv5_2/dw (in-place)
I0729 21:15:24.514305 13373 net.cpp:150] Setting up conv5_2/dw/bn
I0729 21:15:24.514312 13373 net.cpp:157] Top shape: 16 512 19 19 (2957312)
I0729 21:15:24.514314 13373 net.cpp:165] Memory required for data: 2041127040
I0729 21:15:24.514319 13373 layer_factory.hpp:77] Creating layer conv5_2/dw/scale
I0729 21:15:24.514330 13373 net.cpp:100] Creating Layer conv5_2/dw/scale
I0729 21:15:24.514333 13373 net.cpp:434] conv5_2/dw/scale <- conv5_2/dw
I0729 21:15:24.514338 13373 net.cpp:395] conv5_2/dw/scale -> conv5_2/dw (in-place)
I0729 21:15:24.514374 13373 layer_factory.hpp:77] Creating layer conv5_2/dw/scale
I0729 21:15:24.514467 13373 net.cpp:150] Setting up conv5_2/dw/scale
I0729 21:15:24.514472 13373 net.cpp:157] Top shape: 16 512 19 19 (2957312)
I0729 21:15:24.514473 13373 net.cpp:165] Memory required for data: 2052956288
I0729 21:15:24.514478 13373 layer_factory.hpp:77] Creating layer conv5_2/dw_relu
I0729 21:15:24.514483 13373 net.cpp:100] Creating Layer conv5_2/dw_relu
I0729 21:15:24.514485 13373 net.cpp:434] conv5_2/dw_relu <- conv5_2/dw
I0729 21:15:24.514489 13373 net.cpp:395] conv5_2/dw_relu -> conv5_2/dw (in-place)
I0729 21:15:24.515050 13373 net.cpp:150] Setting up conv5_2/dw_relu
I0729 21:15:24.515060 13373 net.cpp:157] Top shape: 16 512 19 19 (2957312)
I0729 21:15:24.515063 13373 net.cpp:165] Memory required for data: 2064785536
I0729 21:15:24.515065 13373 layer_factory.hpp:77] Creating layer conv5_2/sep
I0729 21:15:24.515072 13373 net.cpp:100] Creating Layer conv5_2/sep
I0729 21:15:24.515075 13373 net.cpp:434] conv5_2/sep <- conv5_2/dw
I0729 21:15:24.515081 13373 net.cpp:408] conv5_2/sep -> conv5_2/sep
I0729 21:15:24.518561 13373 net.cpp:150] Setting up conv5_2/sep
I0729 21:15:24.518573 13373 net.cpp:157] Top shape: 16 512 19 19 (2957312)
I0729 21:15:24.518576 13373 net.cpp:165] Memory required for data: 2076614784
I0729 21:15:24.518580 13373 layer_factory.hpp:77] Creating layer conv5_2/sep/bn
I0729 21:15:24.518586 13373 net.cpp:100] Creating Layer conv5_2/sep/bn
I0729 21:15:24.518589 13373 net.cpp:434] conv5_2/sep/bn <- conv5_2/sep
I0729 21:15:24.518594 13373 net.cpp:395] conv5_2/sep/bn -> conv5_2/sep (in-place)
I0729 21:15:24.518759 13373 net.cpp:150] Setting up conv5_2/sep/bn
I0729 21:15:24.518765 13373 net.cpp:157] Top shape: 16 512 19 19 (2957312)
I0729 21:15:24.518767 13373 net.cpp:165] Memory required for data: 2088444032
I0729 21:15:24.518772 13373 layer_factory.hpp:77] Creating layer conv5_2/sep/scale
I0729 21:15:24.518779 13373 net.cpp:100] Creating Layer conv5_2/sep/scale
I0729 21:15:24.518781 13373 net.cpp:434] conv5_2/sep/scale <- conv5_2/sep
I0729 21:15:24.518790 13373 net.cpp:395] conv5_2/sep/scale -> conv5_2/sep (in-place)
I0729 21:15:24.518826 13373 layer_factory.hpp:77] Creating layer conv5_2/sep/scale
I0729 21:15:24.518920 13373 net.cpp:150] Setting up conv5_2/sep/scale
I0729 21:15:24.518930 13373 net.cpp:157] Top shape: 16 512 19 19 (2957312)
I0729 21:15:24.518932 13373 net.cpp:165] Memory required for data: 2100273280
I0729 21:15:24.518937 13373 layer_factory.hpp:77] Creating layer conv5_2/sep_relu
I0729 21:15:24.518944 13373 net.cpp:100] Creating Layer conv5_2/sep_relu
I0729 21:15:24.518947 13373 net.cpp:434] conv5_2/sep_relu <- conv5_2/sep
I0729 21:15:24.518950 13373 net.cpp:395] conv5_2/sep_relu -> conv5_2/sep (in-place)
I0729 21:15:24.519510 13373 net.cpp:150] Setting up conv5_2/sep_relu
I0729 21:15:24.519520 13373 net.cpp:157] Top shape: 16 512 19 19 (2957312)
I0729 21:15:24.519521 13373 net.cpp:165] Memory required for data: 2112102528
I0729 21:15:24.519525 13373 layer_factory.hpp:77] Creating layer conv5_3/dw
I0729 21:15:24.519532 13373 net.cpp:100] Creating Layer conv5_3/dw
I0729 21:15:24.519536 13373 net.cpp:434] conv5_3/dw <- conv5_2/sep
I0729 21:15:24.519541 13373 net.cpp:408] conv5_3/dw -> conv5_3/dw
I0729 21:15:24.519739 13373 net.cpp:150] Setting up conv5_3/dw
I0729 21:15:24.519747 13373 net.cpp:157] Top shape: 16 512 19 19 (2957312)
I0729 21:15:24.519748 13373 net.cpp:165] Memory required for data: 2123931776
I0729 21:15:24.519752 13373 layer_factory.hpp:77] Creating layer conv5_3/dw/bn
I0729 21:15:24.519757 13373 net.cpp:100] Creating Layer conv5_3/dw/bn
I0729 21:15:24.519758 13373 net.cpp:434] conv5_3/dw/bn <- conv5_3/dw
I0729 21:15:24.519762 13373 net.cpp:395] conv5_3/dw/bn -> conv5_3/dw (in-place)
I0729 21:15:24.519920 13373 net.cpp:150] Setting up conv5_3/dw/bn
I0729 21:15:24.519925 13373 net.cpp:157] Top shape: 16 512 19 19 (2957312)
I0729 21:15:24.519928 13373 net.cpp:165] Memory required for data: 2135761024
I0729 21:15:24.519933 13373 layer_factory.hpp:77] Creating layer conv5_3/dw/scale
I0729 21:15:24.519938 13373 net.cpp:100] Creating Layer conv5_3/dw/scale
I0729 21:15:24.519940 13373 net.cpp:434] conv5_3/dw/scale <- conv5_3/dw
I0729 21:15:24.519944 13373 net.cpp:395] conv5_3/dw/scale -> conv5_3/dw (in-place)
I0729 21:15:24.519980 13373 layer_factory.hpp:77] Creating layer conv5_3/dw/scale
I0729 21:15:24.520072 13373 net.cpp:150] Setting up conv5_3/dw/scale
I0729 21:15:24.520078 13373 net.cpp:157] Top shape: 16 512 19 19 (2957312)
I0729 21:15:24.520081 13373 net.cpp:165] Memory required for data: 2147590272
I0729 21:15:24.520086 13373 layer_factory.hpp:77] Creating layer conv5_3/dw_relu
I0729 21:15:24.520089 13373 net.cpp:100] Creating Layer conv5_3/dw_relu
I0729 21:15:24.520092 13373 net.cpp:434] conv5_3/dw_relu <- conv5_3/dw
I0729 21:15:24.520095 13373 net.cpp:395] conv5_3/dw_relu -> conv5_3/dw (in-place)
I0729 21:15:24.520668 13373 net.cpp:150] Setting up conv5_3/dw_relu
I0729 21:15:24.520678 13373 net.cpp:157] Top shape: 16 512 19 19 (2957312)
I0729 21:15:24.520680 13373 net.cpp:165] Memory required for data: 2159419520
I0729 21:15:24.520684 13373 layer_factory.hpp:77] Creating layer conv5_3/sep
I0729 21:15:24.520691 13373 net.cpp:100] Creating Layer conv5_3/sep
I0729 21:15:24.520695 13373 net.cpp:434] conv5_3/sep <- conv5_3/dw
I0729 21:15:24.520699 13373 net.cpp:408] conv5_3/sep -> conv5_3/sep
I0729 21:15:24.524118 13373 net.cpp:150] Setting up conv5_3/sep
I0729 21:15:24.524128 13373 net.cpp:157] Top shape: 16 512 19 19 (2957312)
I0729 21:15:24.524132 13373 net.cpp:165] Memory required for data: 2171248768
I0729 21:15:24.524137 13373 layer_factory.hpp:77] Creating layer conv5_3/sep/bn
I0729 21:15:24.524140 13373 net.cpp:100] Creating Layer conv5_3/sep/bn
I0729 21:15:24.524143 13373 net.cpp:434] conv5_3/sep/bn <- conv5_3/sep
I0729 21:15:24.524147 13373 net.cpp:395] conv5_3/sep/bn -> conv5_3/sep (in-place)
I0729 21:15:24.524307 13373 net.cpp:150] Setting up conv5_3/sep/bn
I0729 21:15:24.524313 13373 net.cpp:157] Top shape: 16 512 19 19 (2957312)
I0729 21:15:24.524315 13373 net.cpp:165] Memory required for data: 2183078016
I0729 21:15:24.524323 13373 layer_factory.hpp:77] Creating layer conv5_3/sep/scale
I0729 21:15:24.524328 13373 net.cpp:100] Creating Layer conv5_3/sep/scale
I0729 21:15:24.524332 13373 net.cpp:434] conv5_3/sep/scale <- conv5_3/sep
I0729 21:15:24.524340 13373 net.cpp:395] conv5_3/sep/scale -> conv5_3/sep (in-place)
I0729 21:15:24.524376 13373 layer_factory.hpp:77] Creating layer conv5_3/sep/scale
I0729 21:15:24.524483 13373 net.cpp:150] Setting up conv5_3/sep/scale
I0729 21:15:24.524492 13373 net.cpp:157] Top shape: 16 512 19 19 (2957312)
I0729 21:15:24.524493 13373 net.cpp:165] Memory required for data: 2194907264
I0729 21:15:24.524497 13373 layer_factory.hpp:77] Creating layer conv5_3/sep_relu
I0729 21:15:24.524502 13373 net.cpp:100] Creating Layer conv5_3/sep_relu
I0729 21:15:24.524504 13373 net.cpp:434] conv5_3/sep_relu <- conv5_3/sep
I0729 21:15:24.524508 13373 net.cpp:395] conv5_3/sep_relu -> conv5_3/sep (in-place)
I0729 21:15:24.525048 13373 net.cpp:150] Setting up conv5_3/sep_relu
I0729 21:15:24.525058 13373 net.cpp:157] Top shape: 16 512 19 19 (2957312)
I0729 21:15:24.525059 13373 net.cpp:165] Memory required for data: 2206736512
I0729 21:15:24.525063 13373 layer_factory.hpp:77] Creating layer conv5_4/dw
I0729 21:15:24.525069 13373 net.cpp:100] Creating Layer conv5_4/dw
I0729 21:15:24.525072 13373 net.cpp:434] conv5_4/dw <- conv5_3/sep
I0729 21:15:24.525076 13373 net.cpp:408] conv5_4/dw -> conv5_4/dw
I0729 21:15:24.525269 13373 net.cpp:150] Setting up conv5_4/dw
I0729 21:15:24.525275 13373 net.cpp:157] Top shape: 16 512 19 19 (2957312)
I0729 21:15:24.525277 13373 net.cpp:165] Memory required for data: 2218565760
I0729 21:15:24.525281 13373 layer_factory.hpp:77] Creating layer conv5_4/dw/bn
I0729 21:15:24.525285 13373 net.cpp:100] Creating Layer conv5_4/dw/bn
I0729 21:15:24.525288 13373 net.cpp:434] conv5_4/dw/bn <- conv5_4/dw
I0729 21:15:24.525291 13373 net.cpp:395] conv5_4/dw/bn -> conv5_4/dw (in-place)
I0729 21:15:24.525447 13373 net.cpp:150] Setting up conv5_4/dw/bn
I0729 21:15:24.525452 13373 net.cpp:157] Top shape: 16 512 19 19 (2957312)
I0729 21:15:24.525455 13373 net.cpp:165] Memory required for data: 2230395008
I0729 21:15:24.525460 13373 layer_factory.hpp:77] Creating layer conv5_4/dw/scale
I0729 21:15:24.525465 13373 net.cpp:100] Creating Layer conv5_4/dw/scale
I0729 21:15:24.525468 13373 net.cpp:434] conv5_4/dw/scale <- conv5_4/dw
I0729 21:15:24.525471 13373 net.cpp:395] conv5_4/dw/scale -> conv5_4/dw (in-place)
I0729 21:15:24.525507 13373 layer_factory.hpp:77] Creating layer conv5_4/dw/scale
I0729 21:15:24.525596 13373 net.cpp:150] Setting up conv5_4/dw/scale
I0729 21:15:24.525601 13373 net.cpp:157] Top shape: 16 512 19 19 (2957312)
I0729 21:15:24.525604 13373 net.cpp:165] Memory required for data: 2242224256
I0729 21:15:24.525609 13373 layer_factory.hpp:77] Creating layer conv5_4/dw_relu
I0729 21:15:24.525612 13373 net.cpp:100] Creating Layer conv5_4/dw_relu
I0729 21:15:24.525615 13373 net.cpp:434] conv5_4/dw_relu <- conv5_4/dw
I0729 21:15:24.525619 13373 net.cpp:395] conv5_4/dw_relu -> conv5_4/dw (in-place)
I0729 21:15:24.525753 13373 net.cpp:150] Setting up conv5_4/dw_relu
I0729 21:15:24.525760 13373 net.cpp:157] Top shape: 16 512 19 19 (2957312)
I0729 21:15:24.525763 13373 net.cpp:165] Memory required for data: 2254053504
I0729 21:15:24.525765 13373 layer_factory.hpp:77] Creating layer conv5_4/sep
I0729 21:15:24.525771 13373 net.cpp:100] Creating Layer conv5_4/sep
I0729 21:15:24.525774 13373 net.cpp:434] conv5_4/sep <- conv5_4/dw
I0729 21:15:24.525779 13373 net.cpp:408] conv5_4/sep -> conv5_4/sep
I0729 21:15:24.529462 13373 net.cpp:150] Setting up conv5_4/sep
I0729 21:15:24.529474 13373 net.cpp:157] Top shape: 16 512 19 19 (2957312)
I0729 21:15:24.529476 13373 net.cpp:165] Memory required for data: 2265882752
I0729 21:15:24.529480 13373 layer_factory.hpp:77] Creating layer conv5_4/sep/bn
I0729 21:15:24.529486 13373 net.cpp:100] Creating Layer conv5_4/sep/bn
I0729 21:15:24.529489 13373 net.cpp:434] conv5_4/sep/bn <- conv5_4/sep
I0729 21:15:24.529492 13373 net.cpp:395] conv5_4/sep/bn -> conv5_4/sep (in-place)
I0729 21:15:24.529660 13373 net.cpp:150] Setting up conv5_4/sep/bn
I0729 21:15:24.529666 13373 net.cpp:157] Top shape: 16 512 19 19 (2957312)
I0729 21:15:24.529669 13373 net.cpp:165] Memory required for data: 2277712000
I0729 21:15:24.529678 13373 layer_factory.hpp:77] Creating layer conv5_4/sep/scale
I0729 21:15:24.529685 13373 net.cpp:100] Creating Layer conv5_4/sep/scale
I0729 21:15:24.529687 13373 net.cpp:434] conv5_4/sep/scale <- conv5_4/sep
I0729 21:15:24.529690 13373 net.cpp:395] conv5_4/sep/scale -> conv5_4/sep (in-place)
I0729 21:15:24.529726 13373 layer_factory.hpp:77] Creating layer conv5_4/sep/scale
I0729 21:15:24.529815 13373 net.cpp:150] Setting up conv5_4/sep/scale
I0729 21:15:24.529820 13373 net.cpp:157] Top shape: 16 512 19 19 (2957312)
I0729 21:15:24.529822 13373 net.cpp:165] Memory required for data: 2289541248
I0729 21:15:24.529826 13373 layer_factory.hpp:77] Creating layer conv5_4/sep_relu
I0729 21:15:24.529831 13373 net.cpp:100] Creating Layer conv5_4/sep_relu
I0729 21:15:24.529834 13373 net.cpp:434] conv5_4/sep_relu <- conv5_4/sep
I0729 21:15:24.529837 13373 net.cpp:395] conv5_4/sep_relu -> conv5_4/sep (in-place)
I0729 21:15:24.530378 13373 net.cpp:150] Setting up conv5_4/sep_relu
I0729 21:15:24.530387 13373 net.cpp:157] Top shape: 16 512 19 19 (2957312)
I0729 21:15:24.530390 13373 net.cpp:165] Memory required for data: 2301370496
I0729 21:15:24.530392 13373 layer_factory.hpp:77] Creating layer conv5_5/dw
I0729 21:15:24.530400 13373 net.cpp:100] Creating Layer conv5_5/dw
I0729 21:15:24.530402 13373 net.cpp:434] conv5_5/dw <- conv5_4/sep
I0729 21:15:24.530407 13373 net.cpp:408] conv5_5/dw -> conv5_5/dw
I0729 21:15:24.530601 13373 net.cpp:150] Setting up conv5_5/dw
I0729 21:15:24.530608 13373 net.cpp:157] Top shape: 16 512 19 19 (2957312)
I0729 21:15:24.530611 13373 net.cpp:165] Memory required for data: 2313199744
I0729 21:15:24.530613 13373 layer_factory.hpp:77] Creating layer conv5_5/dw/bn
I0729 21:15:24.530617 13373 net.cpp:100] Creating Layer conv5_5/dw/bn
I0729 21:15:24.530620 13373 net.cpp:434] conv5_5/dw/bn <- conv5_5/dw
I0729 21:15:24.530623 13373 net.cpp:395] conv5_5/dw/bn -> conv5_5/dw (in-place)
I0729 21:15:24.530781 13373 net.cpp:150] Setting up conv5_5/dw/bn
I0729 21:15:24.530786 13373 net.cpp:157] Top shape: 16 512 19 19 (2957312)
I0729 21:15:24.530788 13373 net.cpp:165] Memory required for data: 2325028992
I0729 21:15:24.530802 13373 layer_factory.hpp:77] Creating layer conv5_5/dw/scale
I0729 21:15:24.530807 13373 net.cpp:100] Creating Layer conv5_5/dw/scale
I0729 21:15:24.530810 13373 net.cpp:434] conv5_5/dw/scale <- conv5_5/dw
I0729 21:15:24.530815 13373 net.cpp:395] conv5_5/dw/scale -> conv5_5/dw (in-place)
I0729 21:15:24.530853 13373 layer_factory.hpp:77] Creating layer conv5_5/dw/scale
I0729 21:15:24.530942 13373 net.cpp:150] Setting up conv5_5/dw/scale
I0729 21:15:24.530947 13373 net.cpp:157] Top shape: 16 512 19 19 (2957312)
I0729 21:15:24.530949 13373 net.cpp:165] Memory required for data: 2336858240
I0729 21:15:24.530953 13373 layer_factory.hpp:77] Creating layer conv5_5/dw_relu
I0729 21:15:24.530959 13373 net.cpp:100] Creating Layer conv5_5/dw_relu
I0729 21:15:24.530961 13373 net.cpp:434] conv5_5/dw_relu <- conv5_5/dw
I0729 21:15:24.530964 13373 net.cpp:395] conv5_5/dw_relu -> conv5_5/dw (in-place)
I0729 21:15:24.531102 13373 net.cpp:150] Setting up conv5_5/dw_relu
I0729 21:15:24.531110 13373 net.cpp:157] Top shape: 16 512 19 19 (2957312)
I0729 21:15:24.531111 13373 net.cpp:165] Memory required for data: 2348687488
I0729 21:15:24.531113 13373 layer_factory.hpp:77] Creating layer conv5_5/sep
I0729 21:15:24.531121 13373 net.cpp:100] Creating Layer conv5_5/sep
I0729 21:15:24.531123 13373 net.cpp:434] conv5_5/sep <- conv5_5/dw
I0729 21:15:24.531128 13373 net.cpp:408] conv5_5/sep -> conv5_5/sep
I0729 21:15:24.534952 13373 net.cpp:150] Setting up conv5_5/sep
I0729 21:15:24.534965 13373 net.cpp:157] Top shape: 16 512 19 19 (2957312)
I0729 21:15:24.534966 13373 net.cpp:165] Memory required for data: 2360516736
I0729 21:15:24.534971 13373 layer_factory.hpp:77] Creating layer conv5_5/sep/bn
I0729 21:15:24.534981 13373 net.cpp:100] Creating Layer conv5_5/sep/bn
I0729 21:15:24.534983 13373 net.cpp:434] conv5_5/sep/bn <- conv5_5/sep
I0729 21:15:24.534987 13373 net.cpp:395] conv5_5/sep/bn -> conv5_5/sep (in-place)
I0729 21:15:24.535153 13373 net.cpp:150] Setting up conv5_5/sep/bn
I0729 21:15:24.535159 13373 net.cpp:157] Top shape: 16 512 19 19 (2957312)
I0729 21:15:24.535161 13373 net.cpp:165] Memory required for data: 2372345984
I0729 21:15:24.535167 13373 layer_factory.hpp:77] Creating layer conv5_5/sep/scale
I0729 21:15:24.535172 13373 net.cpp:100] Creating Layer conv5_5/sep/scale
I0729 21:15:24.535176 13373 net.cpp:434] conv5_5/sep/scale <- conv5_5/sep
I0729 21:15:24.535179 13373 net.cpp:395] conv5_5/sep/scale -> conv5_5/sep (in-place)
I0729 21:15:24.535214 13373 layer_factory.hpp:77] Creating layer conv5_5/sep/scale
I0729 21:15:24.535305 13373 net.cpp:150] Setting up conv5_5/sep/scale
I0729 21:15:24.535310 13373 net.cpp:157] Top shape: 16 512 19 19 (2957312)
I0729 21:15:24.535312 13373 net.cpp:165] Memory required for data: 2384175232
I0729 21:15:24.535316 13373 layer_factory.hpp:77] Creating layer conv5_5/sep_relu
I0729 21:15:24.535321 13373 net.cpp:100] Creating Layer conv5_5/sep_relu
I0729 21:15:24.535323 13373 net.cpp:434] conv5_5/sep_relu <- conv5_5/sep
I0729 21:15:24.535327 13373 net.cpp:395] conv5_5/sep_relu -> conv5_5/sep (in-place)
I0729 21:15:24.535872 13373 net.cpp:150] Setting up conv5_5/sep_relu
I0729 21:15:24.535883 13373 net.cpp:157] Top shape: 16 512 19 19 (2957312)
I0729 21:15:24.535886 13373 net.cpp:165] Memory required for data: 2396004480
I0729 21:15:24.535888 13373 layer_factory.hpp:77] Creating layer conv5_5/sep_conv5_5/sep_relu_0_split
I0729 21:15:24.535893 13373 net.cpp:100] Creating Layer conv5_5/sep_conv5_5/sep_relu_0_split
I0729 21:15:24.535897 13373 net.cpp:434] conv5_5/sep_conv5_5/sep_relu_0_split <- conv5_5/sep
I0729 21:15:24.535902 13373 net.cpp:408] conv5_5/sep_conv5_5/sep_relu_0_split -> conv5_5/sep_conv5_5/sep_relu_0_split_0
I0729 21:15:24.535910 13373 net.cpp:408] conv5_5/sep_conv5_5/sep_relu_0_split -> conv5_5/sep_conv5_5/sep_relu_0_split_1
I0729 21:15:24.535915 13373 net.cpp:408] conv5_5/sep_conv5_5/sep_relu_0_split -> conv5_5/sep_conv5_5/sep_relu_0_split_2
I0729 21:15:24.535920 13373 net.cpp:408] conv5_5/sep_conv5_5/sep_relu_0_split -> conv5_5/sep_conv5_5/sep_relu_0_split_3
I0729 21:15:24.535976 13373 net.cpp:150] Setting up conv5_5/sep_conv5_5/sep_relu_0_split
I0729 21:15:24.535981 13373 net.cpp:157] Top shape: 16 512 19 19 (2957312)
I0729 21:15:24.535984 13373 net.cpp:157] Top shape: 16 512 19 19 (2957312)
I0729 21:15:24.535987 13373 net.cpp:157] Top shape: 16 512 19 19 (2957312)
I0729 21:15:24.535990 13373 net.cpp:157] Top shape: 16 512 19 19 (2957312)
I0729 21:15:24.535992 13373 net.cpp:165] Memory required for data: 2443321472
I0729 21:15:24.535995 13373 layer_factory.hpp:77] Creating layer conv5_6/dw
I0729 21:15:24.536001 13373 net.cpp:100] Creating Layer conv5_6/dw
I0729 21:15:24.536005 13373 net.cpp:434] conv5_6/dw <- conv5_5/sep_conv5_5/sep_relu_0_split_0
I0729 21:15:24.536008 13373 net.cpp:408] conv5_6/dw -> conv5_6/dw
I0729 21:15:24.536195 13373 net.cpp:150] Setting up conv5_6/dw
I0729 21:15:24.536201 13373 net.cpp:157] Top shape: 16 512 10 10 (819200)
I0729 21:15:24.536204 13373 net.cpp:165] Memory required for data: 2446598272
I0729 21:15:24.536207 13373 layer_factory.hpp:77] Creating layer conv5_6/dw/bn
I0729 21:15:24.536211 13373 net.cpp:100] Creating Layer conv5_6/dw/bn
I0729 21:15:24.536214 13373 net.cpp:434] conv5_6/dw/bn <- conv5_6/dw
I0729 21:15:24.536217 13373 net.cpp:395] conv5_6/dw/bn -> conv5_6/dw (in-place)
I0729 21:15:24.536376 13373 net.cpp:150] Setting up conv5_6/dw/bn
I0729 21:15:24.536381 13373 net.cpp:157] Top shape: 16 512 10 10 (819200)
I0729 21:15:24.536384 13373 net.cpp:165] Memory required for data: 2449875072
I0729 21:15:24.536389 13373 layer_factory.hpp:77] Creating layer conv5_6/dw/scale
I0729 21:15:24.536393 13373 net.cpp:100] Creating Layer conv5_6/dw/scale
I0729 21:15:24.536396 13373 net.cpp:434] conv5_6/dw/scale <- conv5_6/dw
I0729 21:15:24.536403 13373 net.cpp:395] conv5_6/dw/scale -> conv5_6/dw (in-place)
I0729 21:15:24.536437 13373 layer_factory.hpp:77] Creating layer conv5_6/dw/scale
I0729 21:15:24.536589 13373 net.cpp:150] Setting up conv5_6/dw/scale
I0729 21:15:24.536610 13373 net.cpp:157] Top shape: 16 512 10 10 (819200)
I0729 21:15:24.536615 13373 net.cpp:165] Memory required for data: 2453151872
I0729 21:15:24.536623 13373 layer_factory.hpp:77] Creating layer conv5_6/dw_relu
I0729 21:15:24.536631 13373 net.cpp:100] Creating Layer conv5_6/dw_relu
I0729 21:15:24.536636 13373 net.cpp:434] conv5_6/dw_relu <- conv5_6/dw
I0729 21:15:24.536643 13373 net.cpp:395] conv5_6/dw_relu -> conv5_6/dw (in-place)
I0729 21:15:24.537251 13373 net.cpp:150] Setting up conv5_6/dw_relu
I0729 21:15:24.537261 13373 net.cpp:157] Top shape: 16 512 10 10 (819200)
I0729 21:15:24.537264 13373 net.cpp:165] Memory required for data: 2456428672
I0729 21:15:24.537267 13373 layer_factory.hpp:77] Creating layer conv5_6/sep
I0729 21:15:24.537276 13373 net.cpp:100] Creating Layer conv5_6/sep
I0729 21:15:24.537279 13373 net.cpp:434] conv5_6/sep <- conv5_6/dw
I0729 21:15:24.537284 13373 net.cpp:408] conv5_6/sep -> conv5_6/sep
I0729 21:15:24.543148 13373 net.cpp:150] Setting up conv5_6/sep
I0729 21:15:24.543161 13373 net.cpp:157] Top shape: 16 1024 10 10 (1638400)
I0729 21:15:24.543164 13373 net.cpp:165] Memory required for data: 2462982272
I0729 21:15:24.543169 13373 layer_factory.hpp:77] Creating layer conv5_6/sep/bn
I0729 21:15:24.543172 13373 net.cpp:100] Creating Layer conv5_6/sep/bn
I0729 21:15:24.543175 13373 net.cpp:434] conv5_6/sep/bn <- conv5_6/sep
I0729 21:15:24.543180 13373 net.cpp:395] conv5_6/sep/bn -> conv5_6/sep (in-place)
I0729 21:15:24.543345 13373 net.cpp:150] Setting up conv5_6/sep/bn
I0729 21:15:24.543351 13373 net.cpp:157] Top shape: 16 1024 10 10 (1638400)
I0729 21:15:24.543354 13373 net.cpp:165] Memory required for data: 2469535872
I0729 21:15:24.543359 13373 layer_factory.hpp:77] Creating layer conv5_6/sep/scale
I0729 21:15:24.543366 13373 net.cpp:100] Creating Layer conv5_6/sep/scale
I0729 21:15:24.543370 13373 net.cpp:434] conv5_6/sep/scale <- conv5_6/sep
I0729 21:15:24.543373 13373 net.cpp:395] conv5_6/sep/scale -> conv5_6/sep (in-place)
I0729 21:15:24.543407 13373 layer_factory.hpp:77] Creating layer conv5_6/sep/scale
I0729 21:15:24.543503 13373 net.cpp:150] Setting up conv5_6/sep/scale
I0729 21:15:24.543507 13373 net.cpp:157] Top shape: 16 1024 10 10 (1638400)
I0729 21:15:24.543510 13373 net.cpp:165] Memory required for data: 2476089472
I0729 21:15:24.543514 13373 layer_factory.hpp:77] Creating layer conv5_6/sep_relu
I0729 21:15:24.543519 13373 net.cpp:100] Creating Layer conv5_6/sep_relu
I0729 21:15:24.543520 13373 net.cpp:434] conv5_6/sep_relu <- conv5_6/sep
I0729 21:15:24.543525 13373 net.cpp:395] conv5_6/sep_relu -> conv5_6/sep (in-place)
I0729 21:15:24.543663 13373 net.cpp:150] Setting up conv5_6/sep_relu
I0729 21:15:24.543669 13373 net.cpp:157] Top shape: 16 1024 10 10 (1638400)
I0729 21:15:24.543671 13373 net.cpp:165] Memory required for data: 2482643072
I0729 21:15:24.543674 13373 layer_factory.hpp:77] Creating layer conv6/dw
I0729 21:15:24.543680 13373 net.cpp:100] Creating Layer conv6/dw
I0729 21:15:24.543684 13373 net.cpp:434] conv6/dw <- conv5_6/sep
I0729 21:15:24.543689 13373 net.cpp:408] conv6/dw -> conv6/dw
I0729 21:15:24.543921 13373 net.cpp:150] Setting up conv6/dw
I0729 21:15:24.543927 13373 net.cpp:157] Top shape: 16 1024 10 10 (1638400)
I0729 21:15:24.543929 13373 net.cpp:165] Memory required for data: 2489196672
I0729 21:15:24.543933 13373 layer_factory.hpp:77] Creating layer conv6/dw/bn
I0729 21:15:24.543938 13373 net.cpp:100] Creating Layer conv6/dw/bn
I0729 21:15:24.543941 13373 net.cpp:434] conv6/dw/bn <- conv6/dw
I0729 21:15:24.543944 13373 net.cpp:395] conv6/dw/bn -> conv6/dw (in-place)
I0729 21:15:24.544100 13373 net.cpp:150] Setting up conv6/dw/bn
I0729 21:15:24.544106 13373 net.cpp:157] Top shape: 16 1024 10 10 (1638400)
I0729 21:15:24.544108 13373 net.cpp:165] Memory required for data: 2495750272
I0729 21:15:24.544117 13373 layer_factory.hpp:77] Creating layer conv6/dw/scale
I0729 21:15:24.544123 13373 net.cpp:100] Creating Layer conv6/dw/scale
I0729 21:15:24.544126 13373 net.cpp:434] conv6/dw/scale <- conv6/dw
I0729 21:15:24.544133 13373 net.cpp:395] conv6/dw/scale -> conv6/dw (in-place)
I0729 21:15:24.544167 13373 layer_factory.hpp:77] Creating layer conv6/dw/scale
I0729 21:15:24.544265 13373 net.cpp:150] Setting up conv6/dw/scale
I0729 21:15:24.544270 13373 net.cpp:157] Top shape: 16 1024 10 10 (1638400)
I0729 21:15:24.544272 13373 net.cpp:165] Memory required for data: 2502303872
I0729 21:15:24.544276 13373 layer_factory.hpp:77] Creating layer conv6/dw_relu
I0729 21:15:24.544281 13373 net.cpp:100] Creating Layer conv6/dw_relu
I0729 21:15:24.544282 13373 net.cpp:434] conv6/dw_relu <- conv6/dw
I0729 21:15:24.544286 13373 net.cpp:395] conv6/dw_relu -> conv6/dw (in-place)
I0729 21:15:24.544839 13373 net.cpp:150] Setting up conv6/dw_relu
I0729 21:15:24.544850 13373 net.cpp:157] Top shape: 16 1024 10 10 (1638400)
I0729 21:15:24.544852 13373 net.cpp:165] Memory required for data: 2508857472
I0729 21:15:24.544855 13373 layer_factory.hpp:77] Creating layer conv6/sep
I0729 21:15:24.544862 13373 net.cpp:100] Creating Layer conv6/sep
I0729 21:15:24.544865 13373 net.cpp:434] conv6/sep <- conv6/dw
I0729 21:15:24.544872 13373 net.cpp:408] conv6/sep -> conv6/sep
I0729 21:15:24.555042 13373 net.cpp:150] Setting up conv6/sep
I0729 21:15:24.555052 13373 net.cpp:157] Top shape: 16 1024 10 10 (1638400)
I0729 21:15:24.555055 13373 net.cpp:165] Memory required for data: 2515411072
I0729 21:15:24.555059 13373 layer_factory.hpp:77] Creating layer conv6/sep/bn
I0729 21:15:24.555065 13373 net.cpp:100] Creating Layer conv6/sep/bn
I0729 21:15:24.555068 13373 net.cpp:434] conv6/sep/bn <- conv6/sep
I0729 21:15:24.555073 13373 net.cpp:395] conv6/sep/bn -> conv6/sep (in-place)
I0729 21:15:24.555238 13373 net.cpp:150] Setting up conv6/sep/bn
I0729 21:15:24.555243 13373 net.cpp:157] Top shape: 16 1024 10 10 (1638400)
I0729 21:15:24.555245 13373 net.cpp:165] Memory required for data: 2521964672
I0729 21:15:24.555250 13373 layer_factory.hpp:77] Creating layer conv6/sep/scale
I0729 21:15:24.555255 13373 net.cpp:100] Creating Layer conv6/sep/scale
I0729 21:15:24.555258 13373 net.cpp:434] conv6/sep/scale <- conv6/sep
I0729 21:15:24.555261 13373 net.cpp:395] conv6/sep/scale -> conv6/sep (in-place)
I0729 21:15:24.555296 13373 layer_factory.hpp:77] Creating layer conv6/sep/scale
I0729 21:15:24.555392 13373 net.cpp:150] Setting up conv6/sep/scale
I0729 21:15:24.555397 13373 net.cpp:157] Top shape: 16 1024 10 10 (1638400)
I0729 21:15:24.555400 13373 net.cpp:165] Memory required for data: 2528518272
I0729 21:15:24.555404 13373 layer_factory.hpp:77] Creating layer conv6/sep_relu
I0729 21:15:24.555408 13373 net.cpp:100] Creating Layer conv6/sep_relu
I0729 21:15:24.555410 13373 net.cpp:434] conv6/sep_relu <- conv6/sep
I0729 21:15:24.555414 13373 net.cpp:395] conv6/sep_relu -> conv6/sep (in-place)
I0729 21:15:24.555552 13373 net.cpp:150] Setting up conv6/sep_relu
I0729 21:15:24.555559 13373 net.cpp:157] Top shape: 16 1024 10 10 (1638400)
I0729 21:15:24.555562 13373 net.cpp:165] Memory required for data: 2535071872
I0729 21:15:24.555564 13373 layer_factory.hpp:77] Creating layer conv6/sep_conv6/sep_relu_0_split
I0729 21:15:24.555569 13373 net.cpp:100] Creating Layer conv6/sep_conv6/sep_relu_0_split
I0729 21:15:24.555572 13373 net.cpp:434] conv6/sep_conv6/sep_relu_0_split <- conv6/sep
I0729 21:15:24.555577 13373 net.cpp:408] conv6/sep_conv6/sep_relu_0_split -> conv6/sep_conv6/sep_relu_0_split_0
I0729 21:15:24.555583 13373 net.cpp:408] conv6/sep_conv6/sep_relu_0_split -> conv6/sep_conv6/sep_relu_0_split_1
I0729 21:15:24.555588 13373 net.cpp:408] conv6/sep_conv6/sep_relu_0_split -> conv6/sep_conv6/sep_relu_0_split_2
I0729 21:15:24.555593 13373 net.cpp:408] conv6/sep_conv6/sep_relu_0_split -> conv6/sep_conv6/sep_relu_0_split_3
I0729 21:15:24.555649 13373 net.cpp:150] Setting up conv6/sep_conv6/sep_relu_0_split
I0729 21:15:24.555654 13373 net.cpp:157] Top shape: 16 1024 10 10 (1638400)
I0729 21:15:24.555660 13373 net.cpp:157] Top shape: 16 1024 10 10 (1638400)
I0729 21:15:24.555662 13373 net.cpp:157] Top shape: 16 1024 10 10 (1638400)
I0729 21:15:24.555665 13373 net.cpp:157] Top shape: 16 1024 10 10 (1638400)
I0729 21:15:24.555671 13373 net.cpp:165] Memory required for data: 2561286272
I0729 21:15:24.555673 13373 layer_factory.hpp:77] Creating layer conv7_1
I0729 21:15:24.555681 13373 net.cpp:100] Creating Layer conv7_1
I0729 21:15:24.555685 13373 net.cpp:434] conv7_1 <- conv6/sep_conv6/sep_relu_0_split_0
I0729 21:15:24.555688 13373 net.cpp:408] conv7_1 -> conv7_1
I0729 21:15:24.558557 13373 net.cpp:150] Setting up conv7_1
I0729 21:15:24.558568 13373 net.cpp:157] Top shape: 16 256 10 10 (409600)
I0729 21:15:24.558570 13373 net.cpp:165] Memory required for data: 2562924672
I0729 21:15:24.558575 13373 layer_factory.hpp:77] Creating layer conv7_1_relu
I0729 21:15:24.558581 13373 net.cpp:100] Creating Layer conv7_1_relu
I0729 21:15:24.558584 13373 net.cpp:434] conv7_1_relu <- conv7_1
I0729 21:15:24.558588 13373 net.cpp:395] conv7_1_relu -> conv7_1 (in-place)
I0729 21:15:24.559129 13373 net.cpp:150] Setting up conv7_1_relu
I0729 21:15:24.559140 13373 net.cpp:157] Top shape: 16 256 10 10 (409600)
I0729 21:15:24.559142 13373 net.cpp:165] Memory required for data: 2564563072
I0729 21:15:24.559145 13373 layer_factory.hpp:77] Creating layer conv7_2
I0729 21:15:24.559152 13373 net.cpp:100] Creating Layer conv7_2
I0729 21:15:24.559156 13373 net.cpp:434] conv7_2 <- conv7_1
I0729 21:15:24.559161 13373 net.cpp:408] conv7_2 -> conv7_2
I0729 21:15:24.566267 13373 net.cpp:150] Setting up conv7_2
I0729 21:15:24.566278 13373 net.cpp:157] Top shape: 16 512 5 5 (204800)
I0729 21:15:24.566282 13373 net.cpp:165] Memory required for data: 2565382272
I0729 21:15:24.566287 13373 layer_factory.hpp:77] Creating layer conv7_2_relu
I0729 21:15:24.566292 13373 net.cpp:100] Creating Layer conv7_2_relu
I0729 21:15:24.566294 13373 net.cpp:434] conv7_2_relu <- conv7_2
I0729 21:15:24.566299 13373 net.cpp:395] conv7_2_relu -> conv7_2 (in-place)
I0729 21:15:24.566840 13373 net.cpp:150] Setting up conv7_2_relu
I0729 21:15:24.566850 13373 net.cpp:157] Top shape: 16 512 5 5 (204800)
I0729 21:15:24.566853 13373 net.cpp:165] Memory required for data: 2566201472
I0729 21:15:24.566855 13373 layer_factory.hpp:77] Creating layer conv7_2_conv7_2_relu_0_split
I0729 21:15:24.566861 13373 net.cpp:100] Creating Layer conv7_2_conv7_2_relu_0_split
I0729 21:15:24.566864 13373 net.cpp:434] conv7_2_conv7_2_relu_0_split <- conv7_2
I0729 21:15:24.566869 13373 net.cpp:408] conv7_2_conv7_2_relu_0_split -> conv7_2_conv7_2_relu_0_split_0
I0729 21:15:24.566874 13373 net.cpp:408] conv7_2_conv7_2_relu_0_split -> conv7_2_conv7_2_relu_0_split_1
I0729 21:15:24.566880 13373 net.cpp:408] conv7_2_conv7_2_relu_0_split -> conv7_2_conv7_2_relu_0_split_2
I0729 21:15:24.566884 13373 net.cpp:408] conv7_2_conv7_2_relu_0_split -> conv7_2_conv7_2_relu_0_split_3
I0729 21:15:24.566946 13373 net.cpp:150] Setting up conv7_2_conv7_2_relu_0_split
I0729 21:15:24.566951 13373 net.cpp:157] Top shape: 16 512 5 5 (204800)
I0729 21:15:24.566953 13373 net.cpp:157] Top shape: 16 512 5 5 (204800)
I0729 21:15:24.566956 13373 net.cpp:157] Top shape: 16 512 5 5 (204800)
I0729 21:15:24.566958 13373 net.cpp:157] Top shape: 16 512 5 5 (204800)
I0729 21:15:24.566961 13373 net.cpp:165] Memory required for data: 2569478272
I0729 21:15:24.566963 13373 layer_factory.hpp:77] Creating layer conv8_1
I0729 21:15:24.566970 13373 net.cpp:100] Creating Layer conv8_1
I0729 21:15:24.566973 13373 net.cpp:434] conv8_1 <- conv7_2_conv7_2_relu_0_split_0
I0729 21:15:24.566978 13373 net.cpp:408] conv8_1 -> conv8_1
I0729 21:15:24.568717 13373 net.cpp:150] Setting up conv8_1
I0729 21:15:24.568727 13373 net.cpp:157] Top shape: 16 128 5 5 (51200)
I0729 21:15:24.568730 13373 net.cpp:165] Memory required for data: 2569683072
I0729 21:15:24.568734 13373 layer_factory.hpp:77] Creating layer conv8_1_relu
I0729 21:15:24.568740 13373 net.cpp:100] Creating Layer conv8_1_relu
I0729 21:15:24.568743 13373 net.cpp:434] conv8_1_relu <- conv8_1
I0729 21:15:24.568752 13373 net.cpp:395] conv8_1_relu -> conv8_1 (in-place)
I0729 21:15:24.568891 13373 net.cpp:150] Setting up conv8_1_relu
I0729 21:15:24.568897 13373 net.cpp:157] Top shape: 16 128 5 5 (51200)
I0729 21:15:24.568905 13373 net.cpp:165] Memory required for data: 2569887872
I0729 21:15:24.568908 13373 layer_factory.hpp:77] Creating layer conv8_2
I0729 21:15:24.568915 13373 net.cpp:100] Creating Layer conv8_2
I0729 21:15:24.568918 13373 net.cpp:434] conv8_2 <- conv8_1
I0729 21:15:24.568923 13373 net.cpp:408] conv8_2 -> conv8_2
I0729 21:15:24.571954 13373 net.cpp:150] Setting up conv8_2
I0729 21:15:24.571964 13373 net.cpp:157] Top shape: 16 256 3 3 (36864)
I0729 21:15:24.571966 13373 net.cpp:165] Memory required for data: 2570035328
I0729 21:15:24.571971 13373 layer_factory.hpp:77] Creating layer conv8_2_relu
I0729 21:15:24.571976 13373 net.cpp:100] Creating Layer conv8_2_relu
I0729 21:15:24.571979 13373 net.cpp:434] conv8_2_relu <- conv8_2
I0729 21:15:24.571983 13373 net.cpp:395] conv8_2_relu -> conv8_2 (in-place)
I0729 21:15:24.572536 13373 net.cpp:150] Setting up conv8_2_relu
I0729 21:15:24.572547 13373 net.cpp:157] Top shape: 16 256 3 3 (36864)
I0729 21:15:24.572549 13373 net.cpp:165] Memory required for data: 2570182784
I0729 21:15:24.572552 13373 layer_factory.hpp:77] Creating layer conv8_2_conv8_2_relu_0_split
I0729 21:15:24.572558 13373 net.cpp:100] Creating Layer conv8_2_conv8_2_relu_0_split
I0729 21:15:24.572561 13373 net.cpp:434] conv8_2_conv8_2_relu_0_split <- conv8_2
I0729 21:15:24.572566 13373 net.cpp:408] conv8_2_conv8_2_relu_0_split -> conv8_2_conv8_2_relu_0_split_0
I0729 21:15:24.572572 13373 net.cpp:408] conv8_2_conv8_2_relu_0_split -> conv8_2_conv8_2_relu_0_split_1
I0729 21:15:24.572577 13373 net.cpp:408] conv8_2_conv8_2_relu_0_split -> conv8_2_conv8_2_relu_0_split_2
I0729 21:15:24.572582 13373 net.cpp:408] conv8_2_conv8_2_relu_0_split -> conv8_2_conv8_2_relu_0_split_3
I0729 21:15:24.572643 13373 net.cpp:150] Setting up conv8_2_conv8_2_relu_0_split
I0729 21:15:24.572649 13373 net.cpp:157] Top shape: 16 256 3 3 (36864)
I0729 21:15:24.572651 13373 net.cpp:157] Top shape: 16 256 3 3 (36864)
I0729 21:15:24.572654 13373 net.cpp:157] Top shape: 16 256 3 3 (36864)
I0729 21:15:24.572657 13373 net.cpp:157] Top shape: 16 256 3 3 (36864)
I0729 21:15:24.572659 13373 net.cpp:165] Memory required for data: 2570772608
I0729 21:15:24.572661 13373 layer_factory.hpp:77] Creating layer conv9_1
I0729 21:15:24.572670 13373 net.cpp:100] Creating Layer conv9_1
I0729 21:15:24.572674 13373 net.cpp:434] conv9_1 <- conv8_2_conv8_2_relu_0_split_0
I0729 21:15:24.572677 13373 net.cpp:408] conv9_1 -> conv9_1
I0729 21:15:24.573861 13373 net.cpp:150] Setting up conv9_1
I0729 21:15:24.573871 13373 net.cpp:157] Top shape: 16 128 3 3 (18432)
I0729 21:15:24.573874 13373 net.cpp:165] Memory required for data: 2570846336
I0729 21:15:24.573879 13373 layer_factory.hpp:77] Creating layer conv9_1_relu
I0729 21:15:24.573884 13373 net.cpp:100] Creating Layer conv9_1_relu
I0729 21:15:24.573887 13373 net.cpp:434] conv9_1_relu <- conv9_1
I0729 21:15:24.573890 13373 net.cpp:395] conv9_1_relu -> conv9_1 (in-place)
I0729 21:15:24.574431 13373 net.cpp:150] Setting up conv9_1_relu
I0729 21:15:24.574441 13373 net.cpp:157] Top shape: 16 128 3 3 (18432)
I0729 21:15:24.574443 13373 net.cpp:165] Memory required for data: 2570920064
I0729 21:15:24.574446 13373 layer_factory.hpp:77] Creating layer conv9_2
I0729 21:15:24.574453 13373 net.cpp:100] Creating Layer conv9_2
I0729 21:15:24.574456 13373 net.cpp:434] conv9_2 <- conv9_1
I0729 21:15:24.574462 13373 net.cpp:408] conv9_2 -> conv9_2
I0729 21:15:24.577883 13373 net.cpp:150] Setting up conv9_2
I0729 21:15:24.577894 13373 net.cpp:157] Top shape: 16 256 2 2 (16384)
I0729 21:15:24.577898 13373 net.cpp:165] Memory required for data: 2570985600
I0729 21:15:24.577903 13373 layer_factory.hpp:77] Creating layer conv9_2_relu
I0729 21:15:24.577906 13373 net.cpp:100] Creating Layer conv9_2_relu
I0729 21:15:24.577909 13373 net.cpp:434] conv9_2_relu <- conv9_2
I0729 21:15:24.577917 13373 net.cpp:395] conv9_2_relu -> conv9_2 (in-place)
I0729 21:15:24.578066 13373 net.cpp:150] Setting up conv9_2_relu
I0729 21:15:24.578074 13373 net.cpp:157] Top shape: 16 256 2 2 (16384)
I0729 21:15:24.578076 13373 net.cpp:165] Memory required for data: 2571051136
I0729 21:15:24.578083 13373 layer_factory.hpp:77] Creating layer conv9_2_conv9_2_relu_0_split
I0729 21:15:24.578089 13373 net.cpp:100] Creating Layer conv9_2_conv9_2_relu_0_split
I0729 21:15:24.578092 13373 net.cpp:434] conv9_2_conv9_2_relu_0_split <- conv9_2
I0729 21:15:24.578096 13373 net.cpp:408] conv9_2_conv9_2_relu_0_split -> conv9_2_conv9_2_relu_0_split_0
I0729 21:15:24.578102 13373 net.cpp:408] conv9_2_conv9_2_relu_0_split -> conv9_2_conv9_2_relu_0_split_1
I0729 21:15:24.578107 13373 net.cpp:408] conv9_2_conv9_2_relu_0_split -> conv9_2_conv9_2_relu_0_split_2
I0729 21:15:24.578112 13373 net.cpp:408] conv9_2_conv9_2_relu_0_split -> conv9_2_conv9_2_relu_0_split_3
I0729 21:15:24.578173 13373 net.cpp:150] Setting up conv9_2_conv9_2_relu_0_split
I0729 21:15:24.578178 13373 net.cpp:157] Top shape: 16 256 2 2 (16384)
I0729 21:15:24.578181 13373 net.cpp:157] Top shape: 16 256 2 2 (16384)
I0729 21:15:24.578183 13373 net.cpp:157] Top shape: 16 256 2 2 (16384)
I0729 21:15:24.578186 13373 net.cpp:157] Top shape: 16 256 2 2 (16384)
I0729 21:15:24.578188 13373 net.cpp:165] Memory required for data: 2571313280
I0729 21:15:24.578191 13373 layer_factory.hpp:77] Creating layer conv10_1
I0729 21:15:24.578198 13373 net.cpp:100] Creating Layer conv10_1
I0729 21:15:24.578202 13373 net.cpp:434] conv10_1 <- conv9_2_conv9_2_relu_0_split_0
I0729 21:15:24.578207 13373 net.cpp:408] conv10_1 -> conv10_1
I0729 21:15:24.584198 13373 net.cpp:150] Setting up conv10_1
I0729 21:15:24.584210 13373 net.cpp:157] Top shape: 16 128 2 2 (8192)
I0729 21:15:24.584213 13373 net.cpp:165] Memory required for data: 2571346048
I0729 21:15:24.584218 13373 layer_factory.hpp:77] Creating layer conv10_1_relu
I0729 21:15:24.584235 13373 net.cpp:100] Creating Layer conv10_1_relu
I0729 21:15:24.584239 13373 net.cpp:434] conv10_1_relu <- conv10_1
I0729 21:15:24.584242 13373 net.cpp:395] conv10_1_relu -> conv10_1 (in-place)
I0729 21:15:24.584805 13373 net.cpp:150] Setting up conv10_1_relu
I0729 21:15:24.584816 13373 net.cpp:157] Top shape: 16 128 2 2 (8192)
I0729 21:15:24.584818 13373 net.cpp:165] Memory required for data: 2571378816
I0729 21:15:24.584821 13373 layer_factory.hpp:77] Creating layer conv10_2
I0729 21:15:24.584830 13373 net.cpp:100] Creating Layer conv10_2
I0729 21:15:24.584832 13373 net.cpp:434] conv10_2 <- conv10_1
I0729 21:15:24.584837 13373 net.cpp:408] conv10_2 -> conv10_2
I0729 21:15:24.587488 13373 net.cpp:150] Setting up conv10_2
I0729 21:15:24.587499 13373 net.cpp:157] Top shape: 16 256 1 1 (4096)
I0729 21:15:24.587502 13373 net.cpp:165] Memory required for data: 2571395200
I0729 21:15:24.587507 13373 layer_factory.hpp:77] Creating layer conv10_2_relu
I0729 21:15:24.587512 13373 net.cpp:100] Creating Layer conv10_2_relu
I0729 21:15:24.587514 13373 net.cpp:434] conv10_2_relu <- conv10_2
I0729 21:15:24.587519 13373 net.cpp:395] conv10_2_relu -> conv10_2 (in-place)
I0729 21:15:24.588063 13373 net.cpp:150] Setting up conv10_2_relu
I0729 21:15:24.588073 13373 net.cpp:157] Top shape: 16 256 1 1 (4096)
I0729 21:15:24.588075 13373 net.cpp:165] Memory required for data: 2571411584
I0729 21:15:24.588078 13373 layer_factory.hpp:77] Creating layer conv10_2_conv10_2_relu_0_split
I0729 21:15:24.588084 13373 net.cpp:100] Creating Layer conv10_2_conv10_2_relu_0_split
I0729 21:15:24.588088 13373 net.cpp:434] conv10_2_conv10_2_relu_0_split <- conv10_2
I0729 21:15:24.588091 13373 net.cpp:408] conv10_2_conv10_2_relu_0_split -> conv10_2_conv10_2_relu_0_split_0
I0729 21:15:24.588104 13373 net.cpp:408] conv10_2_conv10_2_relu_0_split -> conv10_2_conv10_2_relu_0_split_1
I0729 21:15:24.588109 13373 net.cpp:408] conv10_2_conv10_2_relu_0_split -> conv10_2_conv10_2_relu_0_split_2
I0729 21:15:24.588162 13373 net.cpp:150] Setting up conv10_2_conv10_2_relu_0_split
I0729 21:15:24.588167 13373 net.cpp:157] Top shape: 16 256 1 1 (4096)
I0729 21:15:24.588173 13373 net.cpp:157] Top shape: 16 256 1 1 (4096)
I0729 21:15:24.588176 13373 net.cpp:157] Top shape: 16 256 1 1 (4096)
I0729 21:15:24.588178 13373 net.cpp:165] Memory required for data: 2571460736
I0729 21:15:24.588186 13373 layer_factory.hpp:77] Creating layer conv5_5/sep_mbox_loc
I0729 21:15:24.588194 13373 net.cpp:100] Creating Layer conv5_5/sep_mbox_loc
I0729 21:15:24.588197 13373 net.cpp:434] conv5_5/sep_mbox_loc <- conv5_5/sep_conv5_5/sep_relu_0_split_1
I0729 21:15:24.588202 13373 net.cpp:408] conv5_5/sep_mbox_loc -> conv5_5/sep_mbox_loc
I0729 21:15:24.590308 13373 net.cpp:150] Setting up conv5_5/sep_mbox_loc
I0729 21:15:24.590319 13373 net.cpp:157] Top shape: 16 12 19 19 (69312)
I0729 21:15:24.590322 13373 net.cpp:165] Memory required for data: 2571737984
I0729 21:15:24.590327 13373 layer_factory.hpp:77] Creating layer conv5_5/sep_mbox_loc_perm
I0729 21:15:24.590334 13373 net.cpp:100] Creating Layer conv5_5/sep_mbox_loc_perm
I0729 21:15:24.590337 13373 net.cpp:434] conv5_5/sep_mbox_loc_perm <- conv5_5/sep_mbox_loc
I0729 21:15:24.590342 13373 net.cpp:408] conv5_5/sep_mbox_loc_perm -> conv5_5/sep_mbox_loc_perm
I0729 21:15:24.590441 13373 net.cpp:150] Setting up conv5_5/sep_mbox_loc_perm
I0729 21:15:24.590447 13373 net.cpp:157] Top shape: 16 19 19 12 (69312)
I0729 21:15:24.590450 13373 net.cpp:165] Memory required for data: 2572015232
I0729 21:15:24.590451 13373 layer_factory.hpp:77] Creating layer conv5_5/sep_mbox_loc_flat
I0729 21:15:24.590457 13373 net.cpp:100] Creating Layer conv5_5/sep_mbox_loc_flat
I0729 21:15:24.590461 13373 net.cpp:434] conv5_5/sep_mbox_loc_flat <- conv5_5/sep_mbox_loc_perm
I0729 21:15:24.590464 13373 net.cpp:408] conv5_5/sep_mbox_loc_flat -> conv5_5/sep_mbox_loc_flat
I0729 21:15:24.590489 13373 net.cpp:150] Setting up conv5_5/sep_mbox_loc_flat
I0729 21:15:24.590493 13373 net.cpp:157] Top shape: 16 4332 (69312)
I0729 21:15:24.590495 13373 net.cpp:165] Memory required for data: 2572292480
I0729 21:15:24.590497 13373 layer_factory.hpp:77] Creating layer conv5_5/sep_mbox_conf
I0729 21:15:24.590504 13373 net.cpp:100] Creating Layer conv5_5/sep_mbox_conf
I0729 21:15:24.590507 13373 net.cpp:434] conv5_5/sep_mbox_conf <- conv5_5/sep_conv5_5/sep_relu_0_split_2
I0729 21:15:24.590513 13373 net.cpp:408] conv5_5/sep_mbox_conf -> conv5_5/sep_mbox_conf
I0729 21:15:24.592906 13373 net.cpp:150] Setting up conv5_5/sep_mbox_conf
I0729 21:15:24.592918 13373 net.cpp:157] Top shape: 16 9 19 19 (51984)
I0729 21:15:24.592921 13373 net.cpp:165] Memory required for data: 2572500416
I0729 21:15:24.592926 13373 layer_factory.hpp:77] Creating layer conv5_5/sep_mbox_conf_perm
I0729 21:15:24.592931 13373 net.cpp:100] Creating Layer conv5_5/sep_mbox_conf_perm
I0729 21:15:24.592933 13373 net.cpp:434] conv5_5/sep_mbox_conf_perm <- conv5_5/sep_mbox_conf
I0729 21:15:24.592938 13373 net.cpp:408] conv5_5/sep_mbox_conf_perm -> conv5_5/sep_mbox_conf_perm
I0729 21:15:24.593037 13373 net.cpp:150] Setting up conv5_5/sep_mbox_conf_perm
I0729 21:15:24.593042 13373 net.cpp:157] Top shape: 16 19 19 9 (51984)
I0729 21:15:24.593045 13373 net.cpp:165] Memory required for data: 2572708352
I0729 21:15:24.593047 13373 layer_factory.hpp:77] Creating layer conv5_5/sep_mbox_conf_flat
I0729 21:15:24.593051 13373 net.cpp:100] Creating Layer conv5_5/sep_mbox_conf_flat
I0729 21:15:24.593055 13373 net.cpp:434] conv5_5/sep_mbox_conf_flat <- conv5_5/sep_mbox_conf_perm
I0729 21:15:24.593060 13373 net.cpp:408] conv5_5/sep_mbox_conf_flat -> conv5_5/sep_mbox_conf_flat
I0729 21:15:24.593082 13373 net.cpp:150] Setting up conv5_5/sep_mbox_conf_flat
I0729 21:15:24.593087 13373 net.cpp:157] Top shape: 16 3249 (51984)
I0729 21:15:24.593089 13373 net.cpp:165] Memory required for data: 2572916288
I0729 21:15:24.593091 13373 layer_factory.hpp:77] Creating layer conv5_5/sep_mbox_priorbox
I0729 21:15:24.593098 13373 net.cpp:100] Creating Layer conv5_5/sep_mbox_priorbox
I0729 21:15:24.593101 13373 net.cpp:434] conv5_5/sep_mbox_priorbox <- conv5_5/sep_conv5_5/sep_relu_0_split_3
I0729 21:15:24.593104 13373 net.cpp:434] conv5_5/sep_mbox_priorbox <- data_data_0_split_1
I0729 21:15:24.593112 13373 net.cpp:408] conv5_5/sep_mbox_priorbox -> conv5_5/sep_mbox_priorbox
I0729 21:15:24.593140 13373 net.cpp:150] Setting up conv5_5/sep_mbox_priorbox
I0729 21:15:24.593145 13373 net.cpp:157] Top shape: 1 2 4332 (8664)
I0729 21:15:24.593152 13373 net.cpp:165] Memory required for data: 2572950944
I0729 21:15:24.593154 13373 layer_factory.hpp:77] Creating layer conv6/sep_mbox_loc
I0729 21:15:24.593161 13373 net.cpp:100] Creating Layer conv6/sep_mbox_loc
I0729 21:15:24.593164 13373 net.cpp:434] conv6/sep_mbox_loc <- conv6/sep_conv6/sep_relu_0_split_1
I0729 21:15:24.593169 13373 net.cpp:408] conv6/sep_mbox_loc -> conv6/sep_mbox_loc
I0729 21:15:24.595896 13373 net.cpp:150] Setting up conv6/sep_mbox_loc
I0729 21:15:24.595906 13373 net.cpp:157] Top shape: 16 24 10 10 (38400)
I0729 21:15:24.595909 13373 net.cpp:165] Memory required for data: 2573104544
I0729 21:15:24.595914 13373 layer_factory.hpp:77] Creating layer conv6/sep_mbox_loc_perm
I0729 21:15:24.595918 13373 net.cpp:100] Creating Layer conv6/sep_mbox_loc_perm
I0729 21:15:24.595921 13373 net.cpp:434] conv6/sep_mbox_loc_perm <- conv6/sep_mbox_loc
I0729 21:15:24.595927 13373 net.cpp:408] conv6/sep_mbox_loc_perm -> conv6/sep_mbox_loc_perm
I0729 21:15:24.596029 13373 net.cpp:150] Setting up conv6/sep_mbox_loc_perm
I0729 21:15:24.596035 13373 net.cpp:157] Top shape: 16 10 10 24 (38400)
I0729 21:15:24.596037 13373 net.cpp:165] Memory required for data: 2573258144
I0729 21:15:24.596040 13373 layer_factory.hpp:77] Creating layer conv6/sep_mbox_loc_flat
I0729 21:15:24.596045 13373 net.cpp:100] Creating Layer conv6/sep_mbox_loc_flat
I0729 21:15:24.596047 13373 net.cpp:434] conv6/sep_mbox_loc_flat <- conv6/sep_mbox_loc_perm
I0729 21:15:24.596051 13373 net.cpp:408] conv6/sep_mbox_loc_flat -> conv6/sep_mbox_loc_flat
I0729 21:15:24.596074 13373 net.cpp:150] Setting up conv6/sep_mbox_loc_flat
I0729 21:15:24.596078 13373 net.cpp:157] Top shape: 16 2400 (38400)
I0729 21:15:24.596081 13373 net.cpp:165] Memory required for data: 2573411744
I0729 21:15:24.596082 13373 layer_factory.hpp:77] Creating layer conv6/sep_mbox_conf
I0729 21:15:24.596091 13373 net.cpp:100] Creating Layer conv6/sep_mbox_conf
I0729 21:15:24.596093 13373 net.cpp:434] conv6/sep_mbox_conf <- conv6/sep_conv6/sep_relu_0_split_2
I0729 21:15:24.596098 13373 net.cpp:408] conv6/sep_mbox_conf -> conv6/sep_mbox_conf
I0729 21:15:24.598991 13373 net.cpp:150] Setting up conv6/sep_mbox_conf
I0729 21:15:24.599004 13373 net.cpp:157] Top shape: 16 18 10 10 (28800)
I0729 21:15:24.599005 13373 net.cpp:165] Memory required for data: 2573526944
I0729 21:15:24.599011 13373 layer_factory.hpp:77] Creating layer conv6/sep_mbox_conf_perm
I0729 21:15:24.599017 13373 net.cpp:100] Creating Layer conv6/sep_mbox_conf_perm
I0729 21:15:24.599020 13373 net.cpp:434] conv6/sep_mbox_conf_perm <- conv6/sep_mbox_conf
I0729 21:15:24.599025 13373 net.cpp:408] conv6/sep_mbox_conf_perm -> conv6/sep_mbox_conf_perm
I0729 21:15:24.599123 13373 net.cpp:150] Setting up conv6/sep_mbox_conf_perm
I0729 21:15:24.599128 13373 net.cpp:157] Top shape: 16 10 10 18 (28800)
I0729 21:15:24.599130 13373 net.cpp:165] Memory required for data: 2573642144
I0729 21:15:24.599133 13373 layer_factory.hpp:77] Creating layer conv6/sep_mbox_conf_flat
I0729 21:15:24.599136 13373 net.cpp:100] Creating Layer conv6/sep_mbox_conf_flat
I0729 21:15:24.599139 13373 net.cpp:434] conv6/sep_mbox_conf_flat <- conv6/sep_mbox_conf_perm
I0729 21:15:24.599144 13373 net.cpp:408] conv6/sep_mbox_conf_flat -> conv6/sep_mbox_conf_flat
I0729 21:15:24.599167 13373 net.cpp:150] Setting up conv6/sep_mbox_conf_flat
I0729 21:15:24.599172 13373 net.cpp:157] Top shape: 16 1800 (28800)
I0729 21:15:24.599174 13373 net.cpp:165] Memory required for data: 2573757344
I0729 21:15:24.599176 13373 layer_factory.hpp:77] Creating layer conv6/sep_mbox_priorbox
I0729 21:15:24.599181 13373 net.cpp:100] Creating Layer conv6/sep_mbox_priorbox
I0729 21:15:24.599184 13373 net.cpp:434] conv6/sep_mbox_priorbox <- conv6/sep_conv6/sep_relu_0_split_3
I0729 21:15:24.599191 13373 net.cpp:434] conv6/sep_mbox_priorbox <- data_data_0_split_2
I0729 21:15:24.599195 13373 net.cpp:408] conv6/sep_mbox_priorbox -> conv6/sep_mbox_priorbox
I0729 21:15:24.599220 13373 net.cpp:150] Setting up conv6/sep_mbox_priorbox
I0729 21:15:24.599231 13373 net.cpp:157] Top shape: 1 2 2400 (4800)
I0729 21:15:24.599232 13373 net.cpp:165] Memory required for data: 2573776544
I0729 21:15:24.599234 13373 layer_factory.hpp:77] Creating layer conv7_2_mbox_loc
I0729 21:15:24.599241 13373 net.cpp:100] Creating Layer conv7_2_mbox_loc
I0729 21:15:24.599244 13373 net.cpp:434] conv7_2_mbox_loc <- conv7_2_conv7_2_relu_0_split_1
I0729 21:15:24.599248 13373 net.cpp:408] conv7_2_mbox_loc -> conv7_2_mbox_loc
I0729 21:15:24.601613 13373 net.cpp:150] Setting up conv7_2_mbox_loc
I0729 21:15:24.601625 13373 net.cpp:157] Top shape: 16 24 5 5 (9600)
I0729 21:15:24.601627 13373 net.cpp:165] Memory required for data: 2573814944
I0729 21:15:24.601634 13373 layer_factory.hpp:77] Creating layer conv7_2_mbox_loc_perm
I0729 21:15:24.601639 13373 net.cpp:100] Creating Layer conv7_2_mbox_loc_perm
I0729 21:15:24.601641 13373 net.cpp:434] conv7_2_mbox_loc_perm <- conv7_2_mbox_loc
I0729 21:15:24.601647 13373 net.cpp:408] conv7_2_mbox_loc_perm -> conv7_2_mbox_loc_perm
I0729 21:15:24.601744 13373 net.cpp:150] Setting up conv7_2_mbox_loc_perm
I0729 21:15:24.601749 13373 net.cpp:157] Top shape: 16 5 5 24 (9600)
I0729 21:15:24.601752 13373 net.cpp:165] Memory required for data: 2573853344
I0729 21:15:24.601754 13373 layer_factory.hpp:77] Creating layer conv7_2_mbox_loc_flat
I0729 21:15:24.601758 13373 net.cpp:100] Creating Layer conv7_2_mbox_loc_flat
I0729 21:15:24.601761 13373 net.cpp:434] conv7_2_mbox_loc_flat <- conv7_2_mbox_loc_perm
I0729 21:15:24.601765 13373 net.cpp:408] conv7_2_mbox_loc_flat -> conv7_2_mbox_loc_flat
I0729 21:15:24.601788 13373 net.cpp:150] Setting up conv7_2_mbox_loc_flat
I0729 21:15:24.601793 13373 net.cpp:157] Top shape: 16 600 (9600)
I0729 21:15:24.601794 13373 net.cpp:165] Memory required for data: 2573891744
I0729 21:15:24.601797 13373 layer_factory.hpp:77] Creating layer conv7_2_mbox_conf
I0729 21:15:24.601804 13373 net.cpp:100] Creating Layer conv7_2_mbox_conf
I0729 21:15:24.601807 13373 net.cpp:434] conv7_2_mbox_conf <- conv7_2_conv7_2_relu_0_split_2
I0729 21:15:24.601814 13373 net.cpp:408] conv7_2_mbox_conf -> conv7_2_mbox_conf
I0729 21:15:24.604044 13373 net.cpp:150] Setting up conv7_2_mbox_conf
I0729 21:15:24.604055 13373 net.cpp:157] Top shape: 16 18 5 5 (7200)
I0729 21:15:24.604058 13373 net.cpp:165] Memory required for data: 2573920544
I0729 21:15:24.604063 13373 layer_factory.hpp:77] Creating layer conv7_2_mbox_conf_perm
I0729 21:15:24.604068 13373 net.cpp:100] Creating Layer conv7_2_mbox_conf_perm
I0729 21:15:24.604071 13373 net.cpp:434] conv7_2_mbox_conf_perm <- conv7_2_mbox_conf
I0729 21:15:24.604076 13373 net.cpp:408] conv7_2_mbox_conf_perm -> conv7_2_mbox_conf_perm
I0729 21:15:24.604176 13373 net.cpp:150] Setting up conv7_2_mbox_conf_perm
I0729 21:15:24.604181 13373 net.cpp:157] Top shape: 16 5 5 18 (7200)
I0729 21:15:24.604183 13373 net.cpp:165] Memory required for data: 2573949344
I0729 21:15:24.604185 13373 layer_factory.hpp:77] Creating layer conv7_2_mbox_conf_flat
I0729 21:15:24.604189 13373 net.cpp:100] Creating Layer conv7_2_mbox_conf_flat
I0729 21:15:24.604192 13373 net.cpp:434] conv7_2_mbox_conf_flat <- conv7_2_mbox_conf_perm
I0729 21:15:24.604197 13373 net.cpp:408] conv7_2_mbox_conf_flat -> conv7_2_mbox_conf_flat
I0729 21:15:24.604220 13373 net.cpp:150] Setting up conv7_2_mbox_conf_flat
I0729 21:15:24.604224 13373 net.cpp:157] Top shape: 16 450 (7200)
I0729 21:15:24.604228 13373 net.cpp:165] Memory required for data: 2573978144
I0729 21:15:24.604229 13373 layer_factory.hpp:77] Creating layer conv7_2_mbox_priorbox
I0729 21:15:24.604233 13373 net.cpp:100] Creating Layer conv7_2_mbox_priorbox
I0729 21:15:24.604236 13373 net.cpp:434] conv7_2_mbox_priorbox <- conv7_2_conv7_2_relu_0_split_3
I0729 21:15:24.604239 13373 net.cpp:434] conv7_2_mbox_priorbox <- data_data_0_split_3
I0729 21:15:24.604244 13373 net.cpp:408] conv7_2_mbox_priorbox -> conv7_2_mbox_priorbox
I0729 21:15:24.604274 13373 net.cpp:150] Setting up conv7_2_mbox_priorbox
I0729 21:15:24.604279 13373 net.cpp:157] Top shape: 1 2 600 (1200)
I0729 21:15:24.604281 13373 net.cpp:165] Memory required for data: 2573982944
I0729 21:15:24.604288 13373 layer_factory.hpp:77] Creating layer conv8_2_mbox_loc
I0729 21:15:24.604295 13373 net.cpp:100] Creating Layer conv8_2_mbox_loc
I0729 21:15:24.604298 13373 net.cpp:434] conv8_2_mbox_loc <- conv8_2_conv8_2_relu_0_split_1
I0729 21:15:24.604302 13373 net.cpp:408] conv8_2_mbox_loc -> conv8_2_mbox_loc
I0729 21:15:24.606434 13373 net.cpp:150] Setting up conv8_2_mbox_loc
I0729 21:15:24.606446 13373 net.cpp:157] Top shape: 16 24 3 3 (3456)
I0729 21:15:24.606448 13373 net.cpp:165] Memory required for data: 2573996768
I0729 21:15:24.606453 13373 layer_factory.hpp:77] Creating layer conv8_2_mbox_loc_perm
I0729 21:15:24.606458 13373 net.cpp:100] Creating Layer conv8_2_mbox_loc_perm
I0729 21:15:24.606462 13373 net.cpp:434] conv8_2_mbox_loc_perm <- conv8_2_mbox_loc
I0729 21:15:24.606467 13373 net.cpp:408] conv8_2_mbox_loc_perm -> conv8_2_mbox_loc_perm
I0729 21:15:24.606566 13373 net.cpp:150] Setting up conv8_2_mbox_loc_perm
I0729 21:15:24.606572 13373 net.cpp:157] Top shape: 16 3 3 24 (3456)
I0729 21:15:24.606575 13373 net.cpp:165] Memory required for data: 2574010592
I0729 21:15:24.606577 13373 layer_factory.hpp:77] Creating layer conv8_2_mbox_loc_flat
I0729 21:15:24.606581 13373 net.cpp:100] Creating Layer conv8_2_mbox_loc_flat
I0729 21:15:24.606583 13373 net.cpp:434] conv8_2_mbox_loc_flat <- conv8_2_mbox_loc_perm
I0729 21:15:24.606588 13373 net.cpp:408] conv8_2_mbox_loc_flat -> conv8_2_mbox_loc_flat
I0729 21:15:24.606611 13373 net.cpp:150] Setting up conv8_2_mbox_loc_flat
I0729 21:15:24.606616 13373 net.cpp:157] Top shape: 16 216 (3456)
I0729 21:15:24.606617 13373 net.cpp:165] Memory required for data: 2574024416
I0729 21:15:24.606621 13373 layer_factory.hpp:77] Creating layer conv8_2_mbox_conf
I0729 21:15:24.606626 13373 net.cpp:100] Creating Layer conv8_2_mbox_conf
I0729 21:15:24.606629 13373 net.cpp:434] conv8_2_mbox_conf <- conv8_2_conv8_2_relu_0_split_2
I0729 21:15:24.606634 13373 net.cpp:408] conv8_2_mbox_conf -> conv8_2_mbox_conf
I0729 21:15:24.608695 13373 net.cpp:150] Setting up conv8_2_mbox_conf
I0729 21:15:24.608706 13373 net.cpp:157] Top shape: 16 18 3 3 (2592)
I0729 21:15:24.608710 13373 net.cpp:165] Memory required for data: 2574034784
I0729 21:15:24.608714 13373 layer_factory.hpp:77] Creating layer conv8_2_mbox_conf_perm
I0729 21:15:24.608721 13373 net.cpp:100] Creating Layer conv8_2_mbox_conf_perm
I0729 21:15:24.608724 13373 net.cpp:434] conv8_2_mbox_conf_perm <- conv8_2_mbox_conf
I0729 21:15:24.608729 13373 net.cpp:408] conv8_2_mbox_conf_perm -> conv8_2_mbox_conf_perm
I0729 21:15:24.608827 13373 net.cpp:150] Setting up conv8_2_mbox_conf_perm
I0729 21:15:24.608834 13373 net.cpp:157] Top shape: 16 3 3 18 (2592)
I0729 21:15:24.608836 13373 net.cpp:165] Memory required for data: 2574045152
I0729 21:15:24.608839 13373 layer_factory.hpp:77] Creating layer conv8_2_mbox_conf_flat
I0729 21:15:24.608842 13373 net.cpp:100] Creating Layer conv8_2_mbox_conf_flat
I0729 21:15:24.608845 13373 net.cpp:434] conv8_2_mbox_conf_flat <- conv8_2_mbox_conf_perm
I0729 21:15:24.608850 13373 net.cpp:408] conv8_2_mbox_conf_flat -> conv8_2_mbox_conf_flat
I0729 21:15:24.608872 13373 net.cpp:150] Setting up conv8_2_mbox_conf_flat
I0729 21:15:24.608876 13373 net.cpp:157] Top shape: 16 162 (2592)
I0729 21:15:24.608878 13373 net.cpp:165] Memory required for data: 2574055520
I0729 21:15:24.608881 13373 layer_factory.hpp:77] Creating layer conv8_2_mbox_priorbox
I0729 21:15:24.608886 13373 net.cpp:100] Creating Layer conv8_2_mbox_priorbox
I0729 21:15:24.608889 13373 net.cpp:434] conv8_2_mbox_priorbox <- conv8_2_conv8_2_relu_0_split_3
I0729 21:15:24.608892 13373 net.cpp:434] conv8_2_mbox_priorbox <- data_data_0_split_4
I0729 21:15:24.608896 13373 net.cpp:408] conv8_2_mbox_priorbox -> conv8_2_mbox_priorbox
I0729 21:15:24.608922 13373 net.cpp:150] Setting up conv8_2_mbox_priorbox
I0729 21:15:24.608929 13373 net.cpp:157] Top shape: 1 2 216 (432)
I0729 21:15:24.608932 13373 net.cpp:165] Memory required for data: 2574057248
I0729 21:15:24.608933 13373 layer_factory.hpp:77] Creating layer conv9_2_mbox_loc
I0729 21:15:24.608944 13373 net.cpp:100] Creating Layer conv9_2_mbox_loc
I0729 21:15:24.608948 13373 net.cpp:434] conv9_2_mbox_loc <- conv9_2_conv9_2_relu_0_split_1
I0729 21:15:24.608952 13373 net.cpp:408] conv9_2_mbox_loc -> conv9_2_mbox_loc
I0729 21:15:24.611065 13373 net.cpp:150] Setting up conv9_2_mbox_loc
I0729 21:15:24.611075 13373 net.cpp:157] Top shape: 16 24 2 2 (1536)
I0729 21:15:24.611078 13373 net.cpp:165] Memory required for data: 2574063392
I0729 21:15:24.611083 13373 layer_factory.hpp:77] Creating layer conv9_2_mbox_loc_perm
I0729 21:15:24.611089 13373 net.cpp:100] Creating Layer conv9_2_mbox_loc_perm
I0729 21:15:24.611093 13373 net.cpp:434] conv9_2_mbox_loc_perm <- conv9_2_mbox_loc
I0729 21:15:24.611098 13373 net.cpp:408] conv9_2_mbox_loc_perm -> conv9_2_mbox_loc_perm
I0729 21:15:24.611196 13373 net.cpp:150] Setting up conv9_2_mbox_loc_perm
I0729 21:15:24.611202 13373 net.cpp:157] Top shape: 16 2 2 24 (1536)
I0729 21:15:24.611204 13373 net.cpp:165] Memory required for data: 2574069536
I0729 21:15:24.611207 13373 layer_factory.hpp:77] Creating layer conv9_2_mbox_loc_flat
I0729 21:15:24.611212 13373 net.cpp:100] Creating Layer conv9_2_mbox_loc_flat
I0729 21:15:24.611213 13373 net.cpp:434] conv9_2_mbox_loc_flat <- conv9_2_mbox_loc_perm
I0729 21:15:24.611217 13373 net.cpp:408] conv9_2_mbox_loc_flat -> conv9_2_mbox_loc_flat
I0729 21:15:24.611240 13373 net.cpp:150] Setting up conv9_2_mbox_loc_flat
I0729 21:15:24.611244 13373 net.cpp:157] Top shape: 16 96 (1536)
I0729 21:15:24.611246 13373 net.cpp:165] Memory required for data: 2574075680
I0729 21:15:24.611249 13373 layer_factory.hpp:77] Creating layer conv9_2_mbox_conf
I0729 21:15:24.611258 13373 net.cpp:100] Creating Layer conv9_2_mbox_conf
I0729 21:15:24.611260 13373 net.cpp:434] conv9_2_mbox_conf <- conv9_2_conv9_2_relu_0_split_2
I0729 21:15:24.611264 13373 net.cpp:408] conv9_2_mbox_conf -> conv9_2_mbox_conf
I0729 21:15:24.613314 13373 net.cpp:150] Setting up conv9_2_mbox_conf
I0729 21:15:24.613324 13373 net.cpp:157] Top shape: 16 18 2 2 (1152)
I0729 21:15:24.613327 13373 net.cpp:165] Memory required for data: 2574080288
I0729 21:15:24.613332 13373 layer_factory.hpp:77] Creating layer conv9_2_mbox_conf_perm
I0729 21:15:24.613340 13373 net.cpp:100] Creating Layer conv9_2_mbox_conf_perm
I0729 21:15:24.613343 13373 net.cpp:434] conv9_2_mbox_conf_perm <- conv9_2_mbox_conf
I0729 21:15:24.613349 13373 net.cpp:408] conv9_2_mbox_conf_perm -> conv9_2_mbox_conf_perm
I0729 21:15:24.613450 13373 net.cpp:150] Setting up conv9_2_mbox_conf_perm
I0729 21:15:24.613456 13373 net.cpp:157] Top shape: 16 2 2 18 (1152)
I0729 21:15:24.613458 13373 net.cpp:165] Memory required for data: 2574084896
I0729 21:15:24.613461 13373 layer_factory.hpp:77] Creating layer conv9_2_mbox_conf_flat
I0729 21:15:24.613464 13373 net.cpp:100] Creating Layer conv9_2_mbox_conf_flat
I0729 21:15:24.613467 13373 net.cpp:434] conv9_2_mbox_conf_flat <- conv9_2_mbox_conf_perm
I0729 21:15:24.613471 13373 net.cpp:408] conv9_2_mbox_conf_flat -> conv9_2_mbox_conf_flat
I0729 21:15:24.613494 13373 net.cpp:150] Setting up conv9_2_mbox_conf_flat
I0729 21:15:24.613499 13373 net.cpp:157] Top shape: 16 72 (1152)
I0729 21:15:24.613502 13373 net.cpp:165] Memory required for data: 2574089504
I0729 21:15:24.613503 13373 layer_factory.hpp:77] Creating layer conv9_2_mbox_priorbox
I0729 21:15:24.613508 13373 net.cpp:100] Creating Layer conv9_2_mbox_priorbox
I0729 21:15:24.613512 13373 net.cpp:434] conv9_2_mbox_priorbox <- conv9_2_conv9_2_relu_0_split_3
I0729 21:15:24.613514 13373 net.cpp:434] conv9_2_mbox_priorbox <- data_data_0_split_5
I0729 21:15:24.613519 13373 net.cpp:408] conv9_2_mbox_priorbox -> conv9_2_mbox_priorbox
I0729 21:15:24.613543 13373 net.cpp:150] Setting up conv9_2_mbox_priorbox
I0729 21:15:24.613548 13373 net.cpp:157] Top shape: 1 2 96 (192)
I0729 21:15:24.613554 13373 net.cpp:165] Memory required for data: 2574090272
I0729 21:15:24.613556 13373 layer_factory.hpp:77] Creating layer conv10_2_mbox_loc
I0729 21:15:24.613564 13373 net.cpp:100] Creating Layer conv10_2_mbox_loc
I0729 21:15:24.613567 13373 net.cpp:434] conv10_2_mbox_loc <- conv10_2_conv10_2_relu_0_split_0
I0729 21:15:24.613576 13373 net.cpp:408] conv10_2_mbox_loc -> conv10_2_mbox_loc
I0729 21:15:24.616055 13373 net.cpp:150] Setting up conv10_2_mbox_loc
I0729 21:15:24.616065 13373 net.cpp:157] Top shape: 16 24 1 1 (384)
I0729 21:15:24.616066 13373 net.cpp:165] Memory required for data: 2574091808
I0729 21:15:24.616071 13373 layer_factory.hpp:77] Creating layer conv10_2_mbox_loc_perm
I0729 21:15:24.616077 13373 net.cpp:100] Creating Layer conv10_2_mbox_loc_perm
I0729 21:15:24.616080 13373 net.cpp:434] conv10_2_mbox_loc_perm <- conv10_2_mbox_loc
I0729 21:15:24.616084 13373 net.cpp:408] conv10_2_mbox_loc_perm -> conv10_2_mbox_loc_perm
I0729 21:15:24.616189 13373 net.cpp:150] Setting up conv10_2_mbox_loc_perm
I0729 21:15:24.616194 13373 net.cpp:157] Top shape: 16 1 1 24 (384)
I0729 21:15:24.616196 13373 net.cpp:165] Memory required for data: 2574093344
I0729 21:15:24.616199 13373 layer_factory.hpp:77] Creating layer conv10_2_mbox_loc_flat
I0729 21:15:24.616204 13373 net.cpp:100] Creating Layer conv10_2_mbox_loc_flat
I0729 21:15:24.616207 13373 net.cpp:434] conv10_2_mbox_loc_flat <- conv10_2_mbox_loc_perm
I0729 21:15:24.616211 13373 net.cpp:408] conv10_2_mbox_loc_flat -> conv10_2_mbox_loc_flat
I0729 21:15:24.616235 13373 net.cpp:150] Setting up conv10_2_mbox_loc_flat
I0729 21:15:24.616240 13373 net.cpp:157] Top shape: 16 24 (384)
I0729 21:15:24.616242 13373 net.cpp:165] Memory required for data: 2574094880
I0729 21:15:24.616245 13373 layer_factory.hpp:77] Creating layer conv10_2_mbox_conf
I0729 21:15:24.616251 13373 net.cpp:100] Creating Layer conv10_2_mbox_conf
I0729 21:15:24.616255 13373 net.cpp:434] conv10_2_mbox_conf <- conv10_2_conv10_2_relu_0_split_1
I0729 21:15:24.616259 13373 net.cpp:408] conv10_2_mbox_conf -> conv10_2_mbox_conf
I0729 21:15:24.618351 13373 net.cpp:150] Setting up conv10_2_mbox_conf
I0729 21:15:24.618366 13373 net.cpp:157] Top shape: 16 18 1 1 (288)
I0729 21:15:24.618369 13373 net.cpp:165] Memory required for data: 2574096032
I0729 21:15:24.618376 13373 layer_factory.hpp:77] Creating layer conv10_2_mbox_conf_perm
I0729 21:15:24.618386 13373 net.cpp:100] Creating Layer conv10_2_mbox_conf_perm
I0729 21:15:24.618389 13373 net.cpp:434] conv10_2_mbox_conf_perm <- conv10_2_mbox_conf
I0729 21:15:24.618396 13373 net.cpp:408] conv10_2_mbox_conf_perm -> conv10_2_mbox_conf_perm
I0729 21:15:24.618505 13373 net.cpp:150] Setting up conv10_2_mbox_conf_perm
I0729 21:15:24.618511 13373 net.cpp:157] Top shape: 16 1 1 18 (288)
I0729 21:15:24.618513 13373 net.cpp:165] Memory required for data: 2574097184
I0729 21:15:24.618515 13373 layer_factory.hpp:77] Creating layer conv10_2_mbox_conf_flat
I0729 21:15:24.618520 13373 net.cpp:100] Creating Layer conv10_2_mbox_conf_flat
I0729 21:15:24.618523 13373 net.cpp:434] conv10_2_mbox_conf_flat <- conv10_2_mbox_conf_perm
I0729 21:15:24.618527 13373 net.cpp:408] conv10_2_mbox_conf_flat -> conv10_2_mbox_conf_flat
I0729 21:15:24.618552 13373 net.cpp:150] Setting up conv10_2_mbox_conf_flat
I0729 21:15:24.618556 13373 net.cpp:157] Top shape: 16 18 (288)
I0729 21:15:24.618558 13373 net.cpp:165] Memory required for data: 2574098336
I0729 21:15:24.618561 13373 layer_factory.hpp:77] Creating layer conv10_2_mbox_priorbox
I0729 21:15:24.618566 13373 net.cpp:100] Creating Layer conv10_2_mbox_priorbox
I0729 21:15:24.618568 13373 net.cpp:434] conv10_2_mbox_priorbox <- conv10_2_conv10_2_relu_0_split_2
I0729 21:15:24.618572 13373 net.cpp:434] conv10_2_mbox_priorbox <- data_data_0_split_6
I0729 21:15:24.618577 13373 net.cpp:408] conv10_2_mbox_priorbox -> conv10_2_mbox_priorbox
I0729 21:15:24.618602 13373 net.cpp:150] Setting up conv10_2_mbox_priorbox
I0729 21:15:24.618607 13373 net.cpp:157] Top shape: 1 2 24 (48)
I0729 21:15:24.618608 13373 net.cpp:165] Memory required for data: 2574098528
I0729 21:15:24.618613 13373 layer_factory.hpp:77] Creating layer mbox_loc
I0729 21:15:24.618620 13373 net.cpp:100] Creating Layer mbox_loc
I0729 21:15:24.618623 13373 net.cpp:434] mbox_loc <- conv5_5/sep_mbox_loc_flat
I0729 21:15:24.618628 13373 net.cpp:434] mbox_loc <- conv6/sep_mbox_loc_flat
I0729 21:15:24.618634 13373 net.cpp:434] mbox_loc <- conv7_2_mbox_loc_flat
I0729 21:15:24.618638 13373 net.cpp:434] mbox_loc <- conv8_2_mbox_loc_flat
I0729 21:15:24.618640 13373 net.cpp:434] mbox_loc <- conv9_2_mbox_loc_flat
I0729 21:15:24.618643 13373 net.cpp:434] mbox_loc <- conv10_2_mbox_loc_flat
I0729 21:15:24.618647 13373 net.cpp:408] mbox_loc -> mbox_loc
I0729 21:15:24.618676 13373 net.cpp:150] Setting up mbox_loc
I0729 21:15:24.618681 13373 net.cpp:157] Top shape: 16 7668 (122688)
I0729 21:15:24.618683 13373 net.cpp:165] Memory required for data: 2574589280
I0729 21:15:24.618686 13373 layer_factory.hpp:77] Creating layer mbox_conf
I0729 21:15:24.618690 13373 net.cpp:100] Creating Layer mbox_conf
I0729 21:15:24.618692 13373 net.cpp:434] mbox_conf <- conv5_5/sep_mbox_conf_flat
I0729 21:15:24.618696 13373 net.cpp:434] mbox_conf <- conv6/sep_mbox_conf_flat
I0729 21:15:24.618698 13373 net.cpp:434] mbox_conf <- conv7_2_mbox_conf_flat
I0729 21:15:24.618701 13373 net.cpp:434] mbox_conf <- conv8_2_mbox_conf_flat
I0729 21:15:24.618705 13373 net.cpp:434] mbox_conf <- conv9_2_mbox_conf_flat
I0729 21:15:24.618707 13373 net.cpp:434] mbox_conf <- conv10_2_mbox_conf_flat
I0729 21:15:24.618711 13373 net.cpp:408] mbox_conf -> mbox_conf
I0729 21:15:24.618736 13373 net.cpp:150] Setting up mbox_conf
I0729 21:15:24.618739 13373 net.cpp:157] Top shape: 16 5751 (92016)
I0729 21:15:24.618741 13373 net.cpp:165] Memory required for data: 2574957344
I0729 21:15:24.618743 13373 layer_factory.hpp:77] Creating layer mbox_priorbox
I0729 21:15:24.618747 13373 net.cpp:100] Creating Layer mbox_priorbox
I0729 21:15:24.618751 13373 net.cpp:434] mbox_priorbox <- conv5_5/sep_mbox_priorbox
I0729 21:15:24.618753 13373 net.cpp:434] mbox_priorbox <- conv6/sep_mbox_priorbox
I0729 21:15:24.618757 13373 net.cpp:434] mbox_priorbox <- conv7_2_mbox_priorbox
I0729 21:15:24.618759 13373 net.cpp:434] mbox_priorbox <- conv8_2_mbox_priorbox
I0729 21:15:24.618762 13373 net.cpp:434] mbox_priorbox <- conv9_2_mbox_priorbox
I0729 21:15:24.618764 13373 net.cpp:434] mbox_priorbox <- conv10_2_mbox_priorbox
I0729 21:15:24.618768 13373 net.cpp:408] mbox_priorbox -> mbox_priorbox
I0729 21:15:24.618790 13373 net.cpp:150] Setting up mbox_priorbox
I0729 21:15:24.618796 13373 net.cpp:157] Top shape: 1 2 7668 (15336)
I0729 21:15:24.618798 13373 net.cpp:165] Memory required for data: 2575018688
I0729 21:15:24.618801 13373 layer_factory.hpp:77] Creating layer mbox_loss
I0729 21:15:24.618809 13373 net.cpp:100] Creating Layer mbox_loss
I0729 21:15:24.618813 13373 net.cpp:434] mbox_loss <- mbox_loc
I0729 21:15:24.618815 13373 net.cpp:434] mbox_loss <- mbox_conf
I0729 21:15:24.618818 13373 net.cpp:434] mbox_loss <- mbox_priorbox
…
  phase: TEST
}
layer {
  name: "data"
  type: "AnnotatedData"
  top: "data"
  top: "label"
  include {
    phase: TEST
  }
  transform_param {
    mean_value: 104
    mean_value: 117
    mean_value: 123
    resize_param {
      prob: 1
      resize_mode: WARP
      height: 300
      width: 300
      interp_mode: LINEAR
    }
  }
  data_param {
    source: "data/BodyFaceRegions/lmdb/VOC0712_test_lmdb"
    batch_size: 8
    backend: LMDB
  }
  annotated_data_param {
    batch_sampler {
    }
    label_map_file: "data/BodyFaceRegions/labelmap_voc.prototxt"
  }
}
layer {
  name: "conv1"
  type: "Convolution"
  bottom: "data"
  top: "conv1"
  param {
    lr_mult: 1
    decay_mult: 1
  }
  convolution_param {
    num_output: 32
    bias_term: false
    pad: 1
    kernel_size: 3
    group: 1
    stride: 2
    weight_filler {
      type: "gaussian"
      std: 0.01
    }
    engine: DEFAULT
  }
}
layer {
  name: "conv1/bn"
  type: "BatchNorm"
  bottom: "conv1"
  top: "conv1"
  batch_norm_param {
    moving_average_fraction: 0.999
    eps: 0.001
  }
}
layer {
  name: "conv1/scale"
  type: "Scale"
  bottom: "conv1"
  top: "conv1"
  param {
    lr_mult: 1
    decay_mult: 0
  }
  param {
    lr_mult: 1
    decay_mult: 0
  }
  scale_param {
    filler {
      type: "constant"
      value: 1
    }
    bias_term: true
    bias_filler {
      type: "constant"
      value: 0
    }
  }
}
layer {
  name: "conv1_relu"
  type: "ReLU"
  bottom: "conv1"
  top: "conv1"
}
layer {
  name: "conv2_1/dw"
  type: "Convolution"
  bottom: "conv1"
  top: "conv2_1/dw"
  param {
    lr_mult: 1
    decay_mult: 1
  }
  convolution_param {
    num_output: 32
    bias_term: false
    pad: 1
    kernel_size: 3
    group: 32
    stride: 1
    weight_filler {
      type: "gaussian"
      std: 0.01
    }
    engine: CAFFE
  }
}
layer {
  name: "conv2_1/dw/bn"
  type: "BatchNorm"
  bottom: "conv2_1/dw"
  top: "conv2_1/dw"
  batch_norm_param {
    moving_average_fraction: 0.999
    eps: 0.001
  }
}
layer {
  name: "conv2_1/dw/scale"
  type: "Scale"
  bottom: "conv2_1/dw"
  top: "conv2_1/dw"
  param {
    lr_mult: 1
    decay_mult: 0
  }
  param {
    lr_mult: 1
    decay_mult: 0
  }
  scale_param {
    filler {
      type: "constant"
      value: 1
    }
    bias_term: true
    bias_filler {
      type: "constant"
      value: 0
    }
  }
}
layer {
  name: "conv2_1/dw_relu"
  type: "ReLU"
  bottom: "conv2_1/dw"
  top: "conv2_1/dw"
}
layer {
  name: "conv2_1/sep"
  type: "Convolution"
  bottom: "conv2_1/dw"
  top: "conv2_1/sep"
  param {
    lr_mult: 1
    decay_mult: 1
  }
  convolution_param {
    num_output: 64
    bias_term: false
    pad: 0
    kernel_size: 1
    group: 1
    stride: 1
    weight_filler {
      type: "gaussian"
      std: 0.01
    }
    engine: DEFAULT
  }
}
layer {
  name: "conv2_1/sep/bn"
  type: "BatchNorm"
  bottom: "conv2_1/sep"
  top: "conv2_1/sep"
  batch_norm_param {
    moving_average_fraction: 0.999
    eps: 0.001
  }
}
layer {
  name: "conv2_1/sep/scale"
  type: "Scale"
  bottom: "conv2_1/sep"
  top: "conv2_1/sep"
  param {
    lr_mult: 1
    decay_mult: 0
  }
  param {
    lr_mult: 1
    decay_mult: 0
  }
  scale_param {
    filler {
      type: "constant"
      value: 1
    }
    bias_term: true
    bias_filler {
      type: "constant"
      value: 0
    }
  }
}
layer {
  name: "conv2_1/sep_relu"
  type: "ReLU"
  bottom: "conv2_1/sep"
  top: "conv2_1/sep"
}
layer {
  name: "conv2_2/dw"
  type: "Convolution"
  bottom: "conv2_1/sep"
  top: "conv2_2/dw"
  param {
    lr_mult: 1
    decay_mult: 1
  }
  convolution_param {
    num_output: 64
    bias_term: false
    pad: 1
    kernel_size: 3
    group: 64
    stride: 2
    weight_filler {
      type: "gaussian"
      std: 0.01
    }
    engine: CAFFE
  }
}
layer {
  name: "conv2_2/dw/bn"
  type: "BatchNorm"
  bottom: "conv2_2/dw"
  top: "conv2_2/dw"
  batch_norm_param {
    moving_average_fraction: 0.999
    eps: 0.001
  }
}
layer {
  name: "conv2_2/dw/scale"
  type: "Scale"
  bottom: "conv2_2/dw"
  top: "conv2_2/dw"
  param {
    lr_mult: 1
    decay_mult: 0
  }
  param {
    lr_mult: 1
    decay_mult: 0
  }
  scale_param {
    filler {
      type: "constant"
      value: 1
    }
    bias_term: true
    bias_filler {
      type: "constant"
      value: 0
    }
  }
}
layer {
  name: "conv2_2/dw_relu"
  type: "ReLU"
  bottom: "conv2_2/dw"
  top: "conv2_2/dw"
}
layer {
  name: "conv2_2/sep"
  type: "Convolution"
  bottom: "conv2_2/dw"
  top: "conv2_2/sep"
  param {
    lr_mult: 1
    decay_mult: 1
  }
  convolution_param {
    num_output: 128
    bias_term: false
    pad: 0
    kernel_size: 1
    group: 1
    stride: 1
    weight_filler {
      type: "gaussian"
      std: 0.01
    }
    engine: DEFAULT
  }
}
layer {
  name: "conv2_2/sep/bn"
  type: "BatchNorm"
  bottom: "conv2_2/sep"
  top: "conv2_2/sep"
  batch_norm_param {
    moving_average_fraction: 0.999
    eps: 0.001
  }
}
layer {
  name: "conv2_2/sep/scale"
  type: "Scale"
  bottom: "conv2_2/sep"
  top: "conv2_2/sep"
  param {
    lr_mult: 1
    decay_mult: 0
  }
  param {
    lr_mult: 1
    decay_mult: 0
  }
  scale_param {
    filler {
      type: "constant"
      value: 1
    }
    bias_term: true
    bias_filler {
      type: "constant"
      value: 0
    }
  }
}
layer {
  name: "conv2_2/sep_relu"
  type: "ReLU"
  bottom: "conv2_2/sep"
  top: "conv2_2/sep"
}
layer {
  name: "conv3_1/dw"
  type: "Convolution"
  bottom: "conv2_2/sep"
  top: "conv3_1/dw"
  param {
    lr_mult: 1
    decay_mult: 1
  }
  convolution_param {
    num_output: 128
    bias_term: false
    pad: 1
    kernel_size: 3
    group: 128
    stride: 1
    weight_filler {
      type: "gaussian"
      std: 0.01
    }
    engine: CAFFE
  }
}
layer {
  name: "conv3_1/dw/bn"
  type: "BatchNorm"
  bottom: "conv3_1/dw"
  top: "conv3_1/dw"
  batch_norm_param {
    moving_average_fraction: 0.999
    eps: 0.001
  }
}
layer {
  name: "conv3_1/dw/scale"
  type: "Scale"
  bottom: "conv3_1/dw"
  top: "conv3_1/dw"
  param {
    lr_mult: 1
    decay_mult: 0
  }
  param {
    lr_mult: 1
    decay_mult: 0
  }
  scale_param {
    filler {
      type: "constant"
      value: 1
    }
    bias_term: true
    bias_filler {
      type: "constant"
      value: 0
    }
  }
}
layer {
  name: "conv3_1/dw_relu"
  type: "ReLU"
  bottom: "conv3_1/dw"
  top: "conv3_1/dw"
}
layer {
  name: "conv3_1/sep"
  type: "Convolution"
  bottom: "conv3_1/dw"
  top: "conv3_1/sep"
  param {
    lr_mult: 1
    decay_mult: 1
  }
  convolution_param {
    num_output: 128
    bias_term: false
    pad: 0
    kernel_size: 1
    group: 1
    stride: 1
    weight_filler {
      type: "gaussian"
      std: 0.01
    }
    engine: DEFAULT
  }
}
layer {
  name: "conv3_1/sep/bn"
  type: "BatchNorm"
  bottom: "conv3_1/sep"
  top: "conv3_1/sep"
  batch_norm_param {
    moving_average_fraction: 0.999
    eps: 0.001
  }
}
layer {
  name: "conv3_1/sep/scale"
  type: "Scale"
  bottom: "conv3_1/sep"
  top: "conv3_1/sep"
  param {
    lr_mult: 1
    decay_mult: 0
  }
  param {
    lr_mult: 1
    decay_mult: 0
  }
  scale_param {
    filler {
      type: "constant"
      value: 1
    }
    bias_term: true
    bias_filler {
      type: "constant"
      value: 0
    }
  }
}
layer {
  name: "conv3_1/sep_relu"
  type: "ReLU"
  bottom: "conv3_1/sep"
  top: "conv3_1/sep"
}
layer {
  name: "conv3_2/dw"
  type: "Convolution"
  bottom: "conv3_1/sep"
  top: "conv3_2/dw"
  param {
    lr_mult: 1
    decay_mult: 1
  }
  convolution_param {
    num_output: 128
    bias_term: false
    pad: 1
    kernel_size: 3
    group: 128
    stride: 2
    weight_filler {
      type: "gaussian"
      std: 0.01
    }
    engine: CAFFE
  }
}
layer {
  name: "conv3_2/dw/bn"
  type: "BatchNorm"
  bottom: "conv3_2/dw"
  top: "conv3_2/dw"
  batch_norm_param {
    moving_average_fraction: 0.999
    eps: 0.001
  }
}
layer {
  name: "conv3_2/dw/scale"
  type: "Scale"
  bottom: "conv3_2/dw"
  top: "conv3_2/dw"
  param {
    lr_mult: 1
    decay_mult: 0
  }
  param {
    lr_mult: 1
    decay_mult: 0
  }
  scale_param {
    filler {
      type: "constant"
      value: 1
    }
    bias_term: true
    bias_filler {
      type: "constant"
      value: 0
    }
  }
}
layer {
  name: "conv3_2/dw_relu"
  type: "ReLU"
  bottom: "conv3_2/dw"
  top: "conv3_2/dw"
}
layer {
  name: "conv3_2/sep"
  type: "Convolution"
  bottom: "conv3_2/dw"
  top: "conv3_2/sep"
  param {
    lr_mult: 1
    decay_mult: 1
  }
  convolution_param {
    num_output: 256
    bias_term: false
    pad: 0
    kernel_size: 1
    group: 1
    stride: 1
    weight_filler {
      type: "gaussian"
      std: 0.01
    }
    engine: DEFAULT
  }
}
layer {
  name: "conv3_2/sep/bn"
  type: "BatchNorm"
  bottom: "conv3_2/sep"
  top: "conv3_2/sep"
  batch_norm_param {
    moving_average_fraction: 0.999
    eps: 0.001
  }
}
layer {
  name: "conv3_2/sep/scale"
  type: "Scale"
  bottom: "conv3_2/sep"
  top: "conv3_2/sep"
  param {
    lr_mult: 1
    decay_mult: 0
  }
  param {
    lr_mult: 1
    decay_mult: 0
  }
  scale_param {
    filler {
      type: "constant"
      value: 1
    }
    bias_term: true
    bias_filler {
      type: "constant"
      value: 0
    }
  }
}
layer {
  name: "conv3_2/sep_relu"
  type: "ReLU"
  bottom: "conv3_2/sep"
  top: "conv3_2/sep"
}
layer {
  name: "conv4_1/dw"
  type: "Convolution"
  bottom: "conv3_2/sep"
  top: "conv4_1/dw"
  param {
    lr_mult: 1
    decay_mult: 1
  }
  convolution_param {
    num_output: 256
    bias_term: false
    pad: 1
    kernel_size: 3
    group: 256
    stride: 1
    weight_filler {
      type: "gaussian"
      std: 0.01
    }
    engine: CAFFE
  }
}
layer {
  name: "conv4_1/dw/bn"
  type: "BatchNorm"
  bottom: "conv4_1/dw"
  top: "conv4_1/dw"
  batch_norm_param {
    moving_average_fraction: 0.999
    eps: 0.001
  }
}
layer {
  name: "conv4_1/dw/scale"
  type: "Scale"
  bottom: "conv4_1/dw"
  top: "conv4_1/dw"
  param {
    lr_mult: 1
    decay_mult: 0
  }
  param {
    lr_mult: 1
    decay_mult: 0
  }
  scale_param {
    filler {
      type: "constant"
      value: 1
    }
    bias_term: true
    bias_filler {
      type: "constant"
      value: 0
    }
  }
}
layer {
  name: "conv4_1/dw_relu"
  type: "ReLU"
  bottom: "conv4_1/dw"
  top: "conv4_1/dw"
}
layer {
  name: "conv4_1/sep"
  type: "Convolution"
  bottom: "conv4_1/dw"
  top: "conv4_1/sep"
  param {
    lr_mult: 1
    decay_mult: 1
  }
  convolution_param {
    num_output: 256
    bias_term: false
    pad: 0
    kernel_size: 1
    group: 1
    stride: 1
    weight_filler {
      type: "gaussian"
      std: 0.01
    }
    engine: DEFAULT
  }
}
layer {
  name: "conv4_1/sep/bn"
  type: "BatchNorm"
  bottom: "conv4_1/sep"
  top: "conv4_1/sep"
  batch_norm_param {
    moving_average_fraction: 0.999
    eps: 0.001
  }
}
layer {
  name: "conv4_1/sep/scale"
  type: "Scale"
  bottom: "conv4_1/sep"
  top: "conv4_1/sep"
  param {
    lr_mult: 1
    decay_mult: 0
  }
  param {
    lr_mult: 1
    decay_mult: 0
  }
  scale_param {
    filler {
      type: "constant"
      value: 1
    }
    bias_term: true
    bias_filler {
      type: "constant"
      value: 0
    }
  }
}
layer {
  name: "conv4_1/sep_relu"
  type: "ReLU"
  bottom: "conv4_1/sep"
  top: "conv4_1/sep"
}
layer {
  name: "conv4_2/dw"
  type: "Convolution"
  bottom: "conv4_1/sep"
  top: "conv4_2/dw"
  param {
    lr_mult: 1
    decay_mult: 1
  }
  convolution_param {
    num_output: 256
    bias_term: false
    pad: 1
    kernel_size: 3
    group: 256
    stride: 2
    weight_filler {
      type: "gaussian"
      std: 0.01
    }
    engine: CAFFE
  }
}
layer {
  name: "conv4_2/dw/bn"
  type: "BatchNorm"
  bottom: "conv4_2/dw"
  top: "conv4_2/dw"
  batch_norm_param {
    moving_average_fraction: 0.999
    eps: 0.001
  }
}
layer {
  name: "conv4_2/dw/scale"
  type: "Scale"
  bottom: "conv4_2/dw"
  top: "conv4_2/dw"
  param {
    lr_mult: 1
    decay_mult: 0
  }
  param {
    lr_mult: 1
    decay_mult: 0
  }
  scale_param {
    filler {
      type: "constant"
      value: 1
    }
    bias_term: true
    bias_filler {
      type: "constant"
      value: 0
    }
  }
}
layer {
  name: "conv4_2/dw_relu"
  type: "ReLU"
  bottom: "conv4_2/dw"
  top: "conv4_2/dw"
}
layer {
  name: "conv4_2/sep"
  type: "Convolution"
  bottom: "conv4_2/dw"
  top: "conv4_2/sep"
  param {
    lr_mult: 1
    decay_mult: 1
  }
  convolution_param {
    num_output: 512
    bias_term: false
    pad: 0
    kernel_size: 1
    group: 1
    stride: 1
    weight_filler {
      type: "gaussian"
      std: 0.01
    }
    engine: DEFAULT
  }
}
layer {
  name: "conv4_2/sep/bn"
  type: "BatchNorm"
  bottom: "conv4_2/sep"
  top: "conv4_2/sep"
  batch_norm_param {
    moving_average_fraction: 0.999
    eps: 0.001
  }
}
layer {
  name: "conv4_2/sep/scale"
  type: "Scale"
  bottom: "conv4_2/sep"
  top: "conv4_2/sep"
  param {
    lr_mult: 1
    decay_mult: 0
  }
  param {
    lr_mult: 1
    decay_mult: 0
  }
  scale_param {
    filler {
      type: "constant"
      value: 1
    }
    bias_term: true
    bias_filler {
      type: "constant"
      value: 0
    }
  }
}
layer {
  name: "conv4_2/sep_relu"
  type: "ReLU"
  bottom: "conv4_2/sep"
  top: "conv4_2/sep"
}
layer {
  name: "conv5_1/dw"
  type: "Convolution"
  bottom: "conv4_2/sep"
  top: "conv5_1/dw"
  param {
    lr_mult: 1
    decay_mult: 1
  }
  convolution_param {
    num_output: 512
    bias_term: false
    pad: 1
    kernel_size: 3
    group: 512
    stride: 1
    weight_filler {
      type: "gaussian"
      std: 0.01
    }
    engine: CAFFE
  }
}
layer {
  name: "conv5_1/dw/bn"
  type: "BatchNorm"
  bottom: "conv5_1/dw"
  top: "conv5_1/dw"
  batch_norm_param {
    moving_average_fraction: 0.999
    eps: 0.001
  }
}
layer {
  name: "conv5_1/dw/scale"
  type: "Scale"
  bottom: "conv5_1/dw"
  top: "conv5_1/dw"
  param {
    lr_mult: 1
    decay_mult: 0
  }
  param {
    lr_mult: 1
    decay_mult: 0
  }
  scale_param {
    filler {
      type: "constant"
      value: 1
    }
    bias_term: true
    bias_filler {
      type: "constant"
      value: 0
    }
  }
}
layer {
  name: "conv5_1/dw_relu"
  type: "ReLU"
  bottom: "conv5_1/dw"
  top: "conv5_1/dw"
}
layer {
  name: "conv5_1/sep"
  type: "Convolution"
  bottom: "conv5_1/dw"
  top: "conv5_1/sep"
  param {
    lr_mult: 1
    decay_mult: 1
  }
  convolution_param {
    num_output: 512
    bias_term: false
    pad: 0
    kernel_size: 1
    group: 1
    stride: 1
    weight_filler {
      type: "gaussian"
      std: 0.01
    }
    engine: DEFAULT
  }
}
layer {
  name: "conv5_1/sep/bn"
  type: "BatchNorm"
  bottom: "conv5_1/sep"
  top: "conv5_1/sep"
  batch_norm_param {
    moving_average_fraction: 0.999
    eps: 0.001
  }
}
layer {
  name: "conv5_1/sep/scale"
  type: "Scale"
  bottom: "conv5_1/sep"
  top: "conv5_1/sep"
  param {
    lr_mult: 1
    decay_mult: 0
  }
  param {
    lr_mult: 1
    decay_mult: 0
  }
  scale_param {
    filler {
      type: "constant"
      value: 1
    }
    bias_term: true
    bias_filler {
      type: "constant"
      value: 0
    }
  }
}
layer {
  name: "conv5_1/sep_relu"
  type: "ReLU"
  bottom: "conv5_1/sep"
  top: "conv5_1/sep"
}
layer {
  name: "conv5_2/dw"
  type: "Convolution"
  bottom: "conv5_1/sep"
  top: "conv5_2/dw"
  param {
    lr_mult: 1
    decay_mult: 1
  }
  convolution_param {
    num_output: 512
    bias_term: false
    pad: 1
    kernel_size: 3
    group: 512
    stride: 1
    weight_filler {
      type: "gaussian"
      std: 0.01
    }
    engine: CAFFE
  }
}
layer {
  name: "conv5_2/dw/bn"
  type: "BatchNorm"
  bottom: "conv5_2/dw"
  top: "conv5_2/dw"
  batch_norm_param {
    moving_average_fraction: 0.999
    eps: 0.001
  }
}
layer {
  name: "conv5_2/dw/scale"
  type: "Scale"
  bottom: "conv5_2/dw"
  top: "conv5_2/dw"
  param {
    lr_mult: 1
    decay_mult: 0
  }
  param {
    lr_mult: 1
    decay_mult: 0
  }
  scale_param {
    filler {
      type: "constant"
      value: 1
    }
    bias_term: true
    bias_filler {
      type: "constant"
      value: 0
    }
  }
}
layer {
  name: "conv5_2/dw_relu"
  type: "ReLU"
  bottom: "conv5_2/dw"
  top: "conv5_2/dw"
}
layer {
  name: "conv5_2/sep"
  type: "Convolution"
  bottom: "conv5_2/dw"
  top: "conv5_2/sep"
  param {
    lr_mult: 1
    decay_mult: 1
  }
  convolution_param {
    num_output: 512
    bias_term: false
    pad: 0
    kernel_size: 1
    group: 1
    stride: 1
    weight_filler {
      type: "gaussian"
      std: 0.01
    }
    engine: DEFAULT
  }
}
layer {
  name: "conv5_2/sep/bn"
  type: "BatchNorm"
  bottom: "conv5_2/sep"
  top: "conv5_2/sep"
  batch_norm_param {
    moving_average_fraction: 0.999
    eps: 0.001
  }
}
layer {
  name: "conv5_2/sep/scale"
  type: "Scale"
  bottom: "conv5_2/sep"
  top: "conv5_2/sep"
  param {
    lr_mult: 1
    decay_mult: 0
  }
  param {
    lr_mult: 1
    decay_mult: 0
  }
  scale_param {
    filler {
      type: "constant"
      value: 1
    }
    bias_term: true
    bias_filler {
      type: "constant"
      value: 0
    }
  }
}
layer {
  name: "conv5_2/sep_relu"
  type: "ReLU"
  bottom: "conv5_2/sep"
  top: "conv5_2/sep"
}
layer {
  name: "conv5_3/dw"
  type: "Convolution"
  bottom: "conv5_2/sep"
  top: "conv5_3/dw"
  param {
    lr_mult: 1
    decay_mult: 1
  }
  convolution_param {
    num_output: 512
    bias_term: false
    pad: 1
    kernel_size: 3
    group: 512
    stride: 1
    weight_filler {
      type: "gaussian"
      std: 0.01
    }
    engine: CAFFE
  }
}
layer {
  name: "conv5_3/dw/bn"
  type: "BatchNorm"
  bottom: "conv5_3/dw"
  top: "conv5_3/dw"
  batch_norm_param {
    moving_average_fraction: 0.999
    eps: 0.001
  }
}
layer {
  name: "conv5_3/dw/scale"
  type: "Scale"
  bottom: "conv5_3/dw"
  top: "conv5_3/dw"
  param {
    lr_mult: 1
    decay_mult: 0
  }
  param {
    lr_mult: 1
    decay_mult: 0
  }
  scale_param {
    filler {
      type: "constant"
      value: 1
    }
    bias_term: true
    bias_filler {
      type: "constant"
      value: 0
    }
  }
}
layer {
  name: "conv5_3/dw_relu"
  type: "ReLU"
  bottom: "conv5_3/dw"
  top: "conv5_3/dw"
}
layer {
  name: "conv5_3/sep"
  type: "Convolution"
  bottom: "conv5_3/dw"
  top: "conv5_3/sep"
  param {
    lr_mult: 1
    decay_mult: 1
  }
  convolution_param {
    num_output: 512
    bias_term: false
    pad: 0
    kernel_size: 1
    group: 1
    stride: 1
    weight_filler {
      type: "gaussian"
      std: 0.01
    }
    engine: DEFAULT
  }
}
layer {
  name: "conv5_3/sep/bn"
  type: "BatchNorm"
  bottom: "conv5_3/sep"
  top: "conv5_3/sep"
  batch_norm_param {
    moving_average_fraction: 0.999
    eps: 0.001
  }
}
layer {
  name: "conv5_3/sep/scale"
  type: "Scale"
  bottom: "conv5_3/sep"
  top: "conv5_3/sep"
  param {
    lr_mult: 1
    decay_mult: 0
  }
  param {
    lr_mult: 1
    decay_mult: 0
  }
  scale_param {
    filler {
      type: "constant"
      value: 1
    }
    bias_term: true
    bias_filler {
      type: "constant"
      value: 0
    }
  }
}
layer {
  name: "conv5_3/sep_relu"
  type: "ReLU"
  bottom: "conv5_3/sep"
  top: "conv5_3/sep"
}
layer {
  name: "conv5_4/dw"
  type: "Convolution"
  bottom: "conv5_3/sep"
  top: "conv5_4/dw"
  param {
    lr_mult: 1
    decay_mult: 1
  }
  convolution_param {
    num_output: 512
    bias_term: false
    pad: 1
    kernel_size: 3
    group: 512
    stride: 1
    weight_filler {
      type: "gaussian"
      std: 0.01
    }
    engine: CAFFE
  }
}
layer {
  name: "conv5_4/dw/bn"
  type: "BatchNorm"
  bottom: "conv5_4/dw"
  top: "conv5_4/dw"
  batch_norm_param {
    moving_average_fraction: 0.999
    eps: 0.001
  }
}
layer {
  name: "conv5_4/dw/scale"
  type: "Scale"
  bottom: "conv5_4/dw"
  top: "conv5_4/dw"
  param {
    lr_mult: 1
    decay_mult: 0
  }
  param {
    lr_mult: 1
    decay_mult: 0
  }
  scale_param {
    filler {
      type: "constant"
      value: 1
    }
    bias_term: true
    bias_filler {
      type: "constant"
      value: 0
    }
  }
}
layer {
  name: "conv5_4/dw_relu"
  type: "ReLU"
…
I0729 21:15:24.696677 13373 net.cpp:150] Setting up conv5_6/dw_relu
I0729 21:15:24.696687 13373 net.cpp:157] Top shape: 8 512 10 10 (409600)
I0729 21:15:24.696691 13373 net.cpp:165] Memory required for data: 1228214336
I0729 21:15:24.696692 13373 layer_factory.hpp:77] Creating layer conv5_6/sep
I0729 21:15:24.696701 13373 net.cpp:100] Creating Layer conv5_6/sep
I0729 21:15:24.696703 13373 net.cpp:434] conv5_6/sep <- conv5_6/dw
I0729 21:15:24.696708 13373 net.cpp:408] conv5_6/sep -> conv5_6/sep
I0729 21:15:24.702246 13373 net.cpp:150] Setting up conv5_6/sep
I0729 21:15:24.702257 13373 net.cpp:157] Top shape: 8 1024 10 10 (819200)
I0729 21:15:24.702260 13373 net.cpp:165] Memory required for data: 1231491136
I0729 21:15:24.702265 13373 layer_factory.hpp:77] Creating layer conv5_6/sep/bn
I0729 21:15:24.702270 13373 net.cpp:100] Creating Layer conv5_6/sep/bn
I0729 21:15:24.702273 13373 net.cpp:434] conv5_6/sep/bn <- conv5_6/sep
I0729 21:15:24.702277 13373 net.cpp:395] conv5_6/sep/bn -> conv5_6/sep (in-place)
I0729 21:15:24.702440 13373 net.cpp:150] Setting up conv5_6/sep/bn
I0729 21:15:24.702445 13373 net.cpp:157] Top shape: 8 1024 10 10 (819200)
I0729 21:15:24.702447 13373 net.cpp:165] Memory required for data: 1234767936
I0729 21:15:24.702452 13373 layer_factory.hpp:77] Creating layer conv5_6/sep/scale
I0729 21:15:24.702458 13373 net.cpp:100] Creating Layer conv5_6/sep/scale
I0729 21:15:24.702461 13373 net.cpp:434] conv5_6/sep/scale <- conv5_6/sep
I0729 21:15:24.702464 13373 net.cpp:395] conv5_6/sep/scale -> conv5_6/sep (in-place)
I0729 21:15:24.702504 13373 layer_factory.hpp:77] Creating layer conv5_6/sep/scale
I0729 21:15:24.702600 13373 net.cpp:150] Setting up conv5_6/sep/scale
I0729 21:15:24.702605 13373 net.cpp:157] Top shape: 8 1024 10 10 (819200)
I0729 21:15:24.702606 13373 net.cpp:165] Memory required for data: 1238044736
I0729 21:15:24.702611 13373 layer_factory.hpp:77] Creating layer conv5_6/sep_relu
I0729 21:15:24.702615 13373 net.cpp:100] Creating Layer conv5_6/sep_relu
I0729 21:15:24.702618 13373 net.cpp:434] conv5_6/sep_relu <- conv5_6/sep
I0729 21:15:24.702622 13373 net.cpp:395] conv5_6/sep_relu -> conv5_6/sep (in-place)
I0729 21:15:24.703198 13373 net.cpp:150] Setting up conv5_6/sep_relu
I0729 21:15:24.703208 13373 net.cpp:157] Top shape: 8 1024 10 10 (819200)
I0729 21:15:24.703212 13373 net.cpp:165] Memory required for data: 1241321536
I0729 21:15:24.703219 13373 layer_factory.hpp:77] Creating layer conv6/dw
I0729 21:15:24.703227 13373 net.cpp:100] Creating Layer conv6/dw
I0729 21:15:24.703230 13373 net.cpp:434] conv6/dw <- conv5_6/sep
I0729 21:15:24.703234 13373 net.cpp:408] conv6/dw -> conv6/dw
I0729 21:15:24.703466 13373 net.cpp:150] Setting up conv6/dw
I0729 21:15:24.703474 13373 net.cpp:157] Top shape: 8 1024 10 10 (819200)
I0729 21:15:24.703475 13373 net.cpp:165] Memory required for data: 1244598336
I0729 21:15:24.703480 13373 layer_factory.hpp:77] Creating layer conv6/dw/bn
I0729 21:15:24.703483 13373 net.cpp:100] Creating Layer conv6/dw/bn
I0729 21:15:24.703486 13373 net.cpp:434] conv6/dw/bn <- conv6/dw
I0729 21:15:24.703490 13373 net.cpp:395] conv6/dw/bn -> conv6/dw (in-place)
I0729 21:15:24.703642 13373 net.cpp:150] Setting up conv6/dw/bn
I0729 21:15:24.703649 13373 net.cpp:157] Top shape: 8 1024 10 10 (819200)
I0729 21:15:24.703651 13373 net.cpp:165] Memory required for data: 1247875136
I0729 21:15:24.703655 13373 layer_factory.hpp:77] Creating layer conv6/dw/scale
I0729 21:15:24.703660 13373 net.cpp:100] Creating Layer conv6/dw/scale
I0729 21:15:24.703662 13373 net.cpp:434] conv6/dw/scale <- conv6/dw
I0729 21:15:24.703666 13373 net.cpp:395] conv6/dw/scale -> conv6/dw (in-place)
I0729 21:15:24.703706 13373 layer_factory.hpp:77] Creating layer conv6/dw/scale
I0729 21:15:24.703799 13373 net.cpp:150] Setting up conv6/dw/scale
I0729 21:15:24.703804 13373 net.cpp:157] Top shape: 8 1024 10 10 (819200)
I0729 21:15:24.703807 13373 net.cpp:165] Memory required for data: 1251151936
I0729 21:15:24.703811 13373 layer_factory.hpp:77] Creating layer conv6/dw_relu
I0729 21:15:24.703815 13373 net.cpp:100] Creating Layer conv6/dw_relu
I0729 21:15:24.703819 13373 net.cpp:434] conv6/dw_relu <- conv6/dw
I0729 21:15:24.703821 13373 net.cpp:395] conv6/dw_relu -> conv6/dw (in-place)
I0729 21:15:24.703977 13373 net.cpp:150] Setting up conv6/dw_relu
I0729 21:15:24.703985 13373 net.cpp:157] Top shape: 8 1024 10 10 (819200)
I0729 21:15:24.703987 13373 net.cpp:165] Memory required for data: 1254428736
I0729 21:15:24.703990 13373 layer_factory.hpp:77] Creating layer conv6/sep
I0729 21:15:24.703996 13373 net.cpp:100] Creating Layer conv6/sep
I0729 21:15:24.703999 13373 net.cpp:434] conv6/sep <- conv6/dw
I0729 21:15:24.704004 13373 net.cpp:408] conv6/sep -> conv6/sep
I0729 21:15:24.714257 13373 net.cpp:150] Setting up conv6/sep
I0729 21:15:24.714273 13373 net.cpp:157] Top shape: 8 1024 10 10 (819200)
I0729 21:15:24.714277 13373 net.cpp:165] Memory required for data: 1257705536
I0729 21:15:24.714282 13373 layer_factory.hpp:77] Creating layer conv6/sep/bn
I0729 21:15:24.714287 13373 net.cpp:100] Creating Layer conv6/sep/bn
I0729 21:15:24.714290 13373 net.cpp:434] conv6/sep/bn <- conv6/sep
I0729 21:15:24.714294 13373 net.cpp:395] conv6/sep/bn -> conv6/sep (in-place)
I0729 21:15:24.714465 13373 net.cpp:150] Setting up conv6/sep/bn
I0729 21:15:24.714473 13373 net.cpp:157] Top shape: 8 1024 10 10 (819200)
I0729 21:15:24.714474 13373 net.cpp:165] Memory required for data: 1260982336
I0729 21:15:24.714479 13373 layer_factory.hpp:77] Creating layer conv6/sep/scale
I0729 21:15:24.714485 13373 net.cpp:100] Creating Layer conv6/sep/scale
I0729 21:15:24.714488 13373 net.cpp:434] conv6/sep/scale <- conv6/sep
I0729 21:15:24.714491 13373 net.cpp:395] conv6/sep/scale -> conv6/sep (in-place)
I0729 21:15:24.714534 13373 layer_factory.hpp:77] Creating layer conv6/sep/scale
I0729 21:15:24.714629 13373 net.cpp:150] Setting up conv6/sep/scale
I0729 21:15:24.714635 13373 net.cpp:157] Top shape: 8 1024 10 10 (819200)
I0729 21:15:24.714637 13373 net.cpp:165] Memory required for data: 1264259136
I0729 21:15:24.714642 13373 layer_factory.hpp:77] Creating layer conv6/sep_relu
I0729 21:15:24.714646 13373 net.cpp:100] Creating Layer conv6/sep_relu
I0729 21:15:24.714655 13373 net.cpp:434] conv6/sep_relu <- conv6/sep
I0729 21:15:24.714658 13373 net.cpp:395] conv6/sep_relu -> conv6/sep (in-place)
I0729 21:15:24.715237 13373 net.cpp:150] Setting up conv6/sep_relu
I0729 21:15:24.715253 13373 net.cpp:157] Top shape: 8 1024 10 10 (819200)
I0729 21:15:24.715256 13373 net.cpp:165] Memory required for data: 1267535936
I0729 21:15:24.715258 13373 layer_factory.hpp:77] Creating layer conv6/sep_conv6/sep_relu_0_split
I0729 21:15:24.715265 13373 net.cpp:100] Creating Layer conv6/sep_conv6/sep_relu_0_split
I0729 21:15:24.715268 13373 net.cpp:434] conv6/sep_conv6/sep_relu_0_split <- conv6/sep
I0729 21:15:24.715273 13373 net.cpp:408] conv6/sep_conv6/sep_relu_0_split -> conv6/sep_conv6/sep_relu_0_split_0
I0729 21:15:24.715279 13373 net.cpp:408] conv6/sep_conv6/sep_relu_0_split -> conv6/sep_conv6/sep_relu_0_split_1
I0729 21:15:24.715284 13373 net.cpp:408] conv6/sep_conv6/sep_relu_0_split -> conv6/sep_conv6/sep_relu_0_split_2
I0729 21:15:24.715288 13373 net.cpp:408] conv6/sep_conv6/sep_relu_0_split -> conv6/sep_conv6/sep_relu_0_split_3
I0729 21:15:24.715342 13373 net.cpp:150] Setting up conv6/sep_conv6/sep_relu_0_split
I0729 21:15:24.715346 13373 net.cpp:157] Top shape: 8 1024 10 10 (819200)
I0729 21:15:24.715348 13373 net.cpp:157] Top shape: 8 1024 10 10 (819200)
I0729 21:15:24.715351 13373 net.cpp:157] Top shape: 8 1024 10 10 (819200)
I0729 21:15:24.715354 13373 net.cpp:157] Top shape: 8 1024 10 10 (819200)
I0729 21:15:24.715356 13373 net.cpp:165] Memory required for data: 1280643136
I0729 21:15:24.715358 13373 layer_factory.hpp:77] Creating layer conv7_1
I0729 21:15:24.715365 13373 net.cpp:100] Creating Layer conv7_1
I0729 21:15:24.715368 13373 net.cpp:434] conv7_1 <- conv6/sep_conv6/sep_relu_0_split_0
I0729 21:15:24.715374 13373 net.cpp:408] conv7_1 -> conv7_1
I0729 21:15:24.718557 13373 net.cpp:150] Setting up conv7_1
I0729 21:15:24.718572 13373 net.cpp:157] Top shape: 8 256 10 10 (204800)
I0729 21:15:24.718575 13373 net.cpp:165] Memory required for data: 1281462336
I0729 21:15:24.718581 13373 layer_factory.hpp:77] Creating layer conv7_1_relu
I0729 21:15:24.718586 13373 net.cpp:100] Creating Layer conv7_1_relu
I0729 21:15:24.718590 13373 net.cpp:434] conv7_1_relu <- conv7_1
I0729 21:15:24.718595 13373 net.cpp:395] conv7_1_relu -> conv7_1 (in-place)
I0729 21:15:24.718752 13373 net.cpp:150] Setting up conv7_1_relu
I0729 21:15:24.718760 13373 net.cpp:157] Top shape: 8 256 10 10 (204800)
I0729 21:15:24.718762 13373 net.cpp:165] Memory required for data: 1282281536
I0729 21:15:24.718765 13373 layer_factory.hpp:77] Creating layer conv7_2
I0729 21:15:24.718772 13373 net.cpp:100] Creating Layer conv7_2
I0729 21:15:24.718775 13373 net.cpp:434] conv7_2 <- conv7_1
I0729 21:15:24.718780 13373 net.cpp:408] conv7_2 -> conv7_2
I0729 21:15:24.726374 13373 net.cpp:150] Setting up conv7_2
I0729 21:15:24.726394 13373 net.cpp:157] Top shape: 8 512 5 5 (102400)
I0729 21:15:24.726397 13373 net.cpp:165] Memory required for data: 1282691136
I0729 21:15:24.726404 13373 layer_factory.hpp:77] Creating layer conv7_2_relu
I0729 21:15:24.726410 13373 net.cpp:100] Creating Layer conv7_2_relu
I0729 21:15:24.726414 13373 net.cpp:434] conv7_2_relu <- conv7_2
I0729 21:15:24.726420 13373 net.cpp:395] conv7_2_relu -> conv7_2 (in-place)
I0729 21:15:24.726575 13373 net.cpp:150] Setting up conv7_2_relu
I0729 21:15:24.726583 13373 net.cpp:157] Top shape: 8 512 5 5 (102400)
I0729 21:15:24.726585 13373 net.cpp:165] Memory required for data: 1283100736
I0729 21:15:24.726588 13373 layer_factory.hpp:77] Creating layer conv7_2_conv7_2_relu_0_split
I0729 21:15:24.726593 13373 net.cpp:100] Creating Layer conv7_2_conv7_2_relu_0_split
I0729 21:15:24.726596 13373 net.cpp:434] conv7_2_conv7_2_relu_0_split <- conv7_2
I0729 21:15:24.726601 13373 net.cpp:408] conv7_2_conv7_2_relu_0_split -> conv7_2_conv7_2_relu_0_split_0
I0729 21:15:24.726608 13373 net.cpp:408] conv7_2_conv7_2_relu_0_split -> conv7_2_conv7_2_relu_0_split_1
I0729 21:15:24.726613 13373 net.cpp:408] conv7_2_conv7_2_relu_0_split -> conv7_2_conv7_2_relu_0_split_2
I0729 21:15:24.726622 13373 net.cpp:408] conv7_2_conv7_2_relu_0_split -> conv7_2_conv7_2_relu_0_split_3
I0729 21:15:24.726677 13373 net.cpp:150] Setting up conv7_2_conv7_2_relu_0_split
I0729 21:15:24.726682 13373 net.cpp:157] Top shape: 8 512 5 5 (102400)
I0729 21:15:24.726691 13373 net.cpp:157] Top shape: 8 512 5 5 (102400)
I0729 21:15:24.726694 13373 net.cpp:157] Top shape: 8 512 5 5 (102400)
I0729 21:15:24.726696 13373 net.cpp:157] Top shape: 8 512 5 5 (102400)
I0729 21:15:24.726698 13373 net.cpp:165] Memory required for data: 1284739136
I0729 21:15:24.726701 13373 layer_factory.hpp:77] Creating layer conv8_1
I0729 21:15:24.726709 13373 net.cpp:100] Creating Layer conv8_1
I0729 21:15:24.726712 13373 net.cpp:434] conv8_1 <- conv7_2_conv7_2_relu_0_split_0
I0729 21:15:24.726717 13373 net.cpp:408] conv8_1 -> conv8_1
I0729 21:15:24.728916 13373 net.cpp:150] Setting up conv8_1
I0729 21:15:24.728929 13373 net.cpp:157] Top shape: 8 128 5 5 (25600)
I0729 21:15:24.728931 13373 net.cpp:165] Memory required for data: 1284841536
I0729 21:15:24.728936 13373 layer_factory.hpp:77] Creating layer conv8_1_relu
I0729 21:15:24.728941 13373 net.cpp:100] Creating Layer conv8_1_relu
I0729 21:15:24.728945 13373 net.cpp:434] conv8_1_relu <- conv8_1
I0729 21:15:24.728948 13373 net.cpp:395] conv8_1_relu -> conv8_1 (in-place)
I0729 21:15:24.729518 13373 net.cpp:150] Setting up conv8_1_relu
I0729 21:15:24.729528 13373 net.cpp:157] Top shape: 8 128 5 5 (25600)
I0729 21:15:24.729531 13373 net.cpp:165] Memory required for data: 1284943936
I0729 21:15:24.729533 13373 layer_factory.hpp:77] Creating layer conv8_2
I0729 21:15:24.729542 13373 net.cpp:100] Creating Layer conv8_2
I0729 21:15:24.729544 13373 net.cpp:434] conv8_2 <- conv8_1
I0729 21:15:24.729550 13373 net.cpp:408] conv8_2 -> conv8_2
I0729 21:15:24.732703 13373 net.cpp:150] Setting up conv8_2
I0729 21:15:24.732717 13373 net.cpp:157] Top shape: 8 256 3 3 (18432)
I0729 21:15:24.732720 13373 net.cpp:165] Memory required for data: 1285017664
I0729 21:15:24.732725 13373 layer_factory.hpp:77] Creating layer conv8_2_relu
I0729 21:15:24.732730 13373 net.cpp:100] Creating Layer conv8_2_relu
I0729 21:15:24.732734 13373 net.cpp:434] conv8_2_relu <- conv8_2
I0729 21:15:24.732739 13373 net.cpp:395] conv8_2_relu -> conv8_2 (in-place)
I0729 21:15:24.732894 13373 net.cpp:150] Setting up conv8_2_relu
I0729 21:15:24.732903 13373 net.cpp:157] Top shape: 8 256 3 3 (18432)
I0729 21:15:24.732904 13373 net.cpp:165] Memory required for data: 1285091392
I0729 21:15:24.732908 13373 layer_factory.hpp:77] Creating layer conv8_2_conv8_2_relu_0_split
I0729 21:15:24.732913 13373 net.cpp:100] Creating Layer conv8_2_conv8_2_relu_0_split
I0729 21:15:24.732915 13373 net.cpp:434] conv8_2_conv8_2_relu_0_split <- conv8_2
I0729 21:15:24.732920 13373 net.cpp:408] conv8_2_conv8_2_relu_0_split -> conv8_2_conv8_2_relu_0_split_0
I0729 21:15:24.732926 13373 net.cpp:408] conv8_2_conv8_2_relu_0_split -> conv8_2_conv8_2_relu_0_split_1
I0729 21:15:24.732931 13373 net.cpp:408] conv8_2_conv8_2_relu_0_split -> conv8_2_conv8_2_relu_0_split_2
I0729 21:15:24.732935 13373 net.cpp:408] conv8_2_conv8_2_relu_0_split -> conv8_2_conv8_2_relu_0_split_3
I0729 21:15:24.732992 13373 net.cpp:150] Setting up conv8_2_conv8_2_relu_0_split
I0729 21:15:24.732997 13373 net.cpp:157] Top shape: 8 256 3 3 (18432)
I0729 21:15:24.733000 13373 net.cpp:157] Top shape: 8 256 3 3 (18432)
I0729 21:15:24.733003 13373 net.cpp:157] Top shape: 8 256 3 3 (18432)
I0729 21:15:24.733006 13373 net.cpp:157] Top shape: 8 256 3 3 (18432)
I0729 21:15:24.733007 13373 net.cpp:165] Memory required for data: 1285386304
I0729 21:15:24.733011 13373 layer_factory.hpp:77] Creating layer conv9_1
I0729 21:15:24.733018 13373 net.cpp:100] Creating Layer conv9_1
I0729 21:15:24.733021 13373 net.cpp:434] conv9_1 <- conv8_2_conv8_2_relu_0_split_0
I0729 21:15:24.733026 13373 net.cpp:408] conv9_1 -> conv9_1
I0729 21:15:24.734669 13373 net.cpp:150] Setting up conv9_1
I0729 21:15:24.734680 13373 net.cpp:157] Top shape: 8 128 3 3 (9216)
I0729 21:15:24.734683 13373 net.cpp:165] Memory required for data: 1285423168
I0729 21:15:24.734694 13373 layer_factory.hpp:77] Creating layer conv9_1_relu
I0729 21:15:24.734697 13373 net.cpp:100] Creating Layer conv9_1_relu
I0729 21:15:24.734700 13373 net.cpp:434] conv9_1_relu <- conv9_1
I0729 21:15:24.734711 13373 net.cpp:395] conv9_1_relu -> conv9_1 (in-place)
I0729 21:15:24.734868 13373 net.cpp:150] Setting up conv9_1_relu
I0729 21:15:24.734875 13373 net.cpp:157] Top shape: 8 128 3 3 (9216)
I0729 21:15:24.734877 13373 net.cpp:165] Memory required for data: 1285460032
I0729 21:15:24.734879 13373 layer_factory.hpp:77] Creating layer conv9_2
I0729 21:15:24.734886 13373 net.cpp:100] Creating Layer conv9_2
I0729 21:15:24.734889 13373 net.cpp:434] conv9_2 <- conv9_1
I0729 21:15:24.734894 13373 net.cpp:408] conv9_2 -> conv9_2
I0729 21:15:24.738036 13373 net.cpp:150] Setting up conv9_2
I0729 21:15:24.738047 13373 net.cpp:157] Top shape: 8 256 2 2 (8192)
I0729 21:15:24.738049 13373 net.cpp:165] Memory required for data: 1285492800
I0729 21:15:24.738054 13373 layer_factory.hpp:77] Creating layer conv9_2_relu
I0729 21:15:24.738059 13373 net.cpp:100] Creating Layer conv9_2_relu
I0729 21:15:24.738062 13373 net.cpp:434] conv9_2_relu <- conv9_2
I0729 21:15:24.738087 13373 net.cpp:395] conv9_2_relu -> conv9_2 (in-place)
I0729 21:15:24.738665 13373 net.cpp:150] Setting up conv9_2_relu
I0729 21:15:24.738677 13373 net.cpp:157] Top shape: 8 256 2 2 (8192)
I0729 21:15:24.738679 13373 net.cpp:165] Memory required for data: 1285525568
I0729 21:15:24.738682 13373 layer_factory.hpp:77] Creating layer conv9_2_conv9_2_relu_0_split
I0729 21:15:24.738687 13373 net.cpp:100] Creating Layer conv9_2_conv9_2_relu_0_split
I0729 21:15:24.738690 13373 net.cpp:434] conv9_2_conv9_2_relu_0_split <- conv9_2
I0729 21:15:24.738695 13373 net.cpp:408] conv9_2_conv9_2_relu_0_split -> conv9_2_conv9_2_relu_0_split_0
I0729 21:15:24.738701 13373 net.cpp:408] conv9_2_conv9_2_relu_0_split -> conv9_2_conv9_2_relu_0_split_1
I0729 21:15:24.738705 13373 net.cpp:408] conv9_2_conv9_2_relu_0_split -> conv9_2_conv9_2_relu_0_split_2
I0729 21:15:24.738709 13373 net.cpp:408] conv9_2_conv9_2_relu_0_split -> conv9_2_conv9_2_relu_0_split_3
I0729 21:15:24.738765 13373 net.cpp:150] Setting up conv9_2_conv9_2_relu_0_split
I0729 21:15:24.738770 13373 net.cpp:157] Top shape: 8 256 2 2 (8192)
I0729 21:15:24.738772 13373 net.cpp:157] Top shape: 8 256 2 2 (8192)
I0729 21:15:24.738775 13373 net.cpp:157] Top shape: 8 256 2 2 (8192)
I0729 21:15:24.738777 13373 net.cpp:157] Top shape: 8 256 2 2 (8192)
I0729 21:15:24.738780 13373 net.cpp:165] Memory required for data: 1285656640
I0729 21:15:24.738781 13373 layer_factory.hpp:77] Creating layer conv10_1
I0729 21:15:24.738788 13373 net.cpp:100] Creating Layer conv10_1
I0729 21:15:24.738791 13373 net.cpp:434] conv10_1 <- conv9_2_conv9_2_relu_0_split_0
I0729 21:15:24.738797 13373 net.cpp:408] conv10_1 -> conv10_1
I0729 21:15:24.740468 13373 net.cpp:150] Setting up conv10_1
I0729 21:15:24.740479 13373 net.cpp:157] Top shape: 8 128 2 2 (4096)
I0729 21:15:24.740483 13373 net.cpp:165] Memory required for data: 1285673024
I0729 21:15:24.740487 13373 layer_factory.hpp:77] Creating layer conv10_1_relu
I0729 21:15:24.740505 13373 net.cpp:100] Creating Layer conv10_1_relu
I0729 21:15:24.740509 13373 net.cpp:434] conv10_1_relu <- conv10_1
I0729 21:15:24.740512 13373 net.cpp:395] conv10_1_relu -> conv10_1 (in-place)
I0729 21:15:24.740718 13373 net.cpp:150] Setting up conv10_1_relu
I0729 21:15:24.740725 13373 net.cpp:157] Top shape: 8 128 2 2 (4096)
I0729 21:15:24.740728 13373 net.cpp:165] Memory required for data: 1285689408
I0729 21:15:24.740731 13373 layer_factory.hpp:77] Creating layer conv10_2
I0729 21:15:24.740737 13373 net.cpp:100] Creating Layer conv10_2
I0729 21:15:24.740741 13373 net.cpp:434] conv10_2 <- conv10_1
I0729 21:15:24.740744 13373 net.cpp:408] conv10_2 -> conv10_2
I0729 21:15:24.743872 13373 net.cpp:150] Setting up conv10_2
I0729 21:15:24.743883 13373 net.cpp:157] Top shape: 8 256 1 1 (2048)
I0729 21:15:24.743886 13373 net.cpp:165] Memory required for data: 1285697600
I0729 21:15:24.743891 13373 layer_factory.hpp:77] Creating layer conv10_2_relu
I0729 21:15:24.743901 13373 net.cpp:100] Creating Layer conv10_2_relu
I0729 21:15:24.743904 13373 net.cpp:434] conv10_2_relu <- conv10_2
I0729 21:15:24.743908 13373 net.cpp:395] conv10_2_relu -> conv10_2 (in-place)
I0729 21:15:24.744071 13373 net.cpp:150] Setting up conv10_2_relu
I0729 21:15:24.744078 13373 net.cpp:157] Top shape: 8 256 1 1 (2048)
I0729 21:15:24.744081 13373 net.cpp:165] Memory required for data: 1285705792
I0729 21:15:24.744083 13373 layer_factory.hpp:77] Creating layer conv10_2_conv10_2_relu_0_split
I0729 21:15:24.744087 13373 net.cpp:100] Creating Layer conv10_2_conv10_2_relu_0_split
I0729 21:15:24.744091 13373 net.cpp:434] conv10_2_conv10_2_relu_0_split <- conv10_2
I0729 21:15:24.744096 13373 net.cpp:408] conv10_2_conv10_2_relu_0_split -> conv10_2_conv10_2_relu_0_split_0
I0729 21:15:24.744108 13373 net.cpp:408] conv10_2_conv10_2_relu_0_split -> conv10_2_conv10_2_relu_0_split_1
I0729 21:15:24.744113 13373 net.cpp:408] conv10_2_conv10_2_relu_0_split -> conv10_2_conv10_2_relu_0_split_2
I0729 21:15:24.744158 13373 net.cpp:150] Setting up conv10_2_conv10_2_relu_0_split
I0729 21:15:24.744163 13373 net.cpp:157] Top shape: 8 256 1 1 (2048)
I0729 21:15:24.744166 13373 net.cpp:157] Top shape: 8 256 1 1 (2048)
I0729 21:15:24.744169 13373 net.cpp:157] Top shape: 8 256 1 1 (2048)
I0729 21:15:24.744171 13373 net.cpp:165] Memory required for data: 1285730368
I0729 21:15:24.744174 13373 layer_factory.hpp:77] Creating layer conv5_5/sep_mbox_loc
I0729 21:15:24.744181 13373 net.cpp:100] Creating Layer conv5_5/sep_mbox_loc
I0729 21:15:24.744184 13373 net.cpp:434] conv5_5/sep_mbox_loc <- conv5_5/sep_conv5_5/sep_relu_0_split_1
I0729 21:15:24.744189 13373 net.cpp:408] conv5_5/sep_mbox_loc -> conv5_5/sep_mbox_loc
I0729 21:15:24.746698 13373 net.cpp:150] Setting up conv5_5/sep_mbox_loc
I0729 21:15:24.746711 13373 net.cpp:157] Top shape: 8 12 19 19 (34656)
I0729 21:15:24.746713 13373 net.cpp:165] Memory required for data: 1285868992
I0729 21:15:24.746718 13373 layer_factory.hpp:77] Creating layer conv5_5/sep_mbox_loc_perm
I0729 21:15:24.746723 13373 net.cpp:100] Creating Layer conv5_5/sep_mbox_loc_perm
I0729 21:15:24.746726 13373 net.cpp:434] conv5_5/sep_mbox_loc_perm <- conv5_5/sep_mbox_loc
I0729 21:15:24.746731 13373 net.cpp:408] conv5_5/sep_mbox_loc_perm -> conv5_5/sep_mbox_loc_perm
I0729 21:15:24.746816 13373 net.cpp:150] Setting up conv5_5/sep_mbox_loc_perm
I0729 21:15:24.746824 13373 net.cpp:157] Top shape: 8 19 19 12 (34656)
I0729 21:15:24.746825 13373 net.cpp:165] Memory required for data: 1286007616
I0729 21:15:24.746829 13373 layer_factory.hpp:77] Creating layer conv5_5/sep_mbox_loc_flat
I0729 21:15:24.746832 13373 net.cpp:100] Creating Layer conv5_5/sep_mbox_loc_flat
I0729 21:15:24.746835 13373 net.cpp:434] conv5_5/sep_mbox_loc_flat <- conv5_5/sep_mbox_loc_perm
I0729 21:15:24.746840 13373 net.cpp:408] conv5_5/sep_mbox_loc_flat -> conv5_5/sep_mbox_loc_flat
I0729 21:15:24.746858 13373 net.cpp:150] Setting up conv5_5/sep_mbox_loc_flat
I0729 21:15:24.746862 13373 net.cpp:157] Top shape: 8 4332 (34656)
I0729 21:15:24.746865 13373 net.cpp:165] Memory required for data: 1286146240
I0729 21:15:24.746866 13373 layer_factory.hpp:77] Creating layer conv5_5/sep_mbox_conf
I0729 21:15:24.746875 13373 net.cpp:100] Creating Layer conv5_5/sep_mbox_conf
I0729 21:15:24.746877 13373 net.cpp:434] conv5_5/sep_mbox_conf <- conv5_5/sep_conv5_5/sep_relu_0_split_2
I0729 21:15:24.746881 13373 net.cpp:408] conv5_5/sep_mbox_conf -> conv5_5/sep_mbox_conf
I0729 21:15:24.749070 13373 net.cpp:150] Setting up conv5_5/sep_mbox_conf
I0729 21:15:24.749083 13373 net.cpp:157] Top shape: 8 9 19 19 (25992)
I0729 21:15:24.749085 13373 net.cpp:165] Memory required for data: 1286250208
I0729 21:15:24.749091 13373 layer_factory.hpp:77] Creating layer conv5_5/sep_mbox_conf_perm
I0729 21:15:24.749095 13373 net.cpp:100] Creating Layer conv5_5/sep_mbox_conf_perm
I0729 21:15:24.749099 13373 net.cpp:434] conv5_5/sep_mbox_conf_perm <- conv5_5/sep_mbox_conf
I0729 21:15:24.749104 13373 net.cpp:408] conv5_5/sep_mbox_conf_perm -> conv5_5/sep_mbox_conf_perm
I0729 21:15:24.749197 13373 net.cpp:150] Setting up conv5_5/sep_mbox_conf_perm
I0729 21:15:24.749202 13373 net.cpp:157] Top shape: 8 19 19 9 (25992)
I0729 21:15:24.749204 13373 net.cpp:165] Memory required for data: 1286354176
I0729 21:15:24.749212 13373 layer_factory.hpp:77] Creating layer conv5_5/sep_mbox_conf_flat
I0729 21:15:24.749217 13373 net.cpp:100] Creating Layer conv5_5/sep_mbox_conf_flat
I0729 21:15:24.749218 13373 net.cpp:434] conv5_5/sep_mbox_conf_flat <- conv5_5/sep_mbox_conf_perm
I0729 21:15:24.749223 13373 net.cpp:408] conv5_5/sep_mbox_conf_flat -> conv5_5/sep_mbox_conf_flat
I0729 21:15:24.749243 13373 net.cpp:150] Setting up conv5_5/sep_mbox_conf_flat
I0729 21:15:24.749248 13373 net.cpp:157] Top shape: 8 3249 (25992)
I0729 21:15:24.749249 13373 net.cpp:165] Memory required for data: 1286458144
I0729 21:15:24.749251 13373 layer_factory.hpp:77] Creating layer conv5_5/sep_mbox_priorbox
I0729 21:15:24.749259 13373 net.cpp:100] Creating Layer conv5_5/sep_mbox_priorbox
I0729 21:15:24.749263 13373 net.cpp:434] conv5_5/sep_mbox_priorbox <- conv5_5/sep_conv5_5/sep_relu_0_split_3
I0729 21:15:24.749266 13373 net.cpp:434] conv5_5/sep_mbox_priorbox <- data_data_0_split_1
I0729 21:15:24.749271 13373 net.cpp:408] conv5_5/sep_mbox_priorbox -> conv5_5/sep_mbox_priorbox
I0729 21:15:24.749294 13373 net.cpp:150] Setting up conv5_5/sep_mbox_priorbox
I0729 21:15:24.749299 13373 net.cpp:157] Top shape: 1 2 4332 (8664)
I0729 21:15:24.749300 13373 net.cpp:165] Memory required for data: 1286492800
I0729 21:15:24.749302 13373 layer_factory.hpp:77] Creating layer conv6/sep_mbox_loc
I0729 21:15:24.749310 13373 net.cpp:100] Creating Layer conv6/sep_mbox_loc
I0729 21:15:24.749313 13373 net.cpp:434] conv6/sep_mbox_loc <- conv6/sep_conv6/sep_relu_0_split_1
I0729 21:15:24.749317 13373 net.cpp:408] conv6/sep_mbox_loc -> conv6/sep_mbox_loc
I0729 21:15:24.752913 13373 net.cpp:150] Setting up conv6/sep_mbox_loc
I0729 21:15:24.752924 13373 net.cpp:157] Top shape: 8 24 10 10 (19200)
I0729 21:15:24.752928 13373 net.cpp:165] Memory required for data: 1286569600
I0729 21:15:24.752933 13373 layer_factory.hpp:77] Creating layer conv6/sep_mbox_loc_perm
I0729 21:15:24.752938 13373 net.cpp:100] Creating Layer conv6/sep_mbox_loc_perm
I0729 21:15:24.752943 13373 net.cpp:434] conv6/sep_mbox_loc_perm <- conv6/sep_mbox_loc
I0729 21:15:24.752946 13373 net.cpp:408] conv6/sep_mbox_loc_perm -> conv6/sep_mbox_loc_perm
I0729 21:15:24.753034 13373 net.cpp:150] Setting up conv6/sep_mbox_loc_perm
I0729 21:15:24.753039 13373 net.cpp:157] Top shape: 8 10 10 24 (19200)
I0729 21:15:24.753042 13373 net.cpp:165] Memory required for data: 1286646400
I0729 21:15:24.753044 13373 layer_factory.hpp:77] Creating layer conv6/sep_mbox_loc_flat
I0729 21:15:24.753048 13373 net.cpp:100] Creating Layer conv6/sep_mbox_loc_flat
I0729 21:15:24.753051 13373 net.cpp:434] conv6/sep_mbox_loc_flat <- conv6/sep_mbox_loc_perm
I0729 21:15:24.753056 13373 net.cpp:408] conv6/sep_mbox_loc_flat -> conv6/sep_mbox_loc_flat
I0729 21:15:24.753075 13373 net.cpp:150] Setting up conv6/sep_mbox_loc_flat
I0729 21:15:24.753079 13373 net.cpp:157] Top shape: 8 2400 (19200)
I0729 21:15:24.753082 13373 net.cpp:165] Memory required for data: 1286723200
I0729 21:15:24.753083 13373 layer_factory.hpp:77] Creating layer conv6/sep_mbox_conf
I0729 21:15:24.753090 13373 net.cpp:100] Creating Layer conv6/sep_mbox_conf
I0729 21:15:24.753093 13373 net.cpp:434] conv6/sep_mbox_conf <- conv6/sep_conv6/sep_relu_0_split_2
I0729 21:15:24.753099 13373 net.cpp:408] conv6/sep_mbox_conf -> conv6/sep_mbox_conf
I0729 21:15:24.756114 13373 net.cpp:150] Setting up conv6/sep_mbox_conf
I0729 21:15:24.756124 13373 net.cpp:157] Top shape: 8 18 10 10 (14400)
I0729 21:15:24.756127 13373 net.cpp:165] Memory required for data: 1286780800
I0729 21:15:24.756132 13373 layer_factory.hpp:77] Creating layer conv6/sep_mbox_conf_perm
I0729 21:15:24.756139 13373 net.cpp:100] Creating Layer conv6/sep_mbox_conf_perm
I0729 21:15:24.756141 13373 net.cpp:434] conv6/sep_mbox_conf_perm <- conv6/sep_mbox_conf
I0729 21:15:24.756150 13373 net.cpp:408] conv6/sep_mbox_conf_perm -> conv6/sep_mbox_conf_perm
I0729 21:15:24.756239 13373 net.cpp:150] Setting up conv6/sep_mbox_conf_perm
I0729 21:15:24.756245 13373 net.cpp:157] Top shape: 8 10 10 18 (14400)
I0729 21:15:24.756253 13373 net.cpp:165] Memory required for data: 1286838400
I0729 21:15:24.756255 13373 layer_factory.hpp:77] Creating layer conv6/sep_mbox_conf_flat
I0729 21:15:24.756260 13373 net.cpp:100] Creating Layer conv6/sep_mbox_conf_flat
I0729 21:15:24.756263 13373 net.cpp:434] conv6/sep_mbox_conf_flat <- conv6/sep_mbox_conf_perm
I0729 21:15:24.756268 13373 net.cpp:408] conv6/sep_mbox_conf_flat -> conv6/sep_mbox_conf_flat
I0729 21:15:24.756289 13373 net.cpp:150] Setting up conv6/sep_mbox_conf_flat
I0729 21:15:24.756292 13373 net.cpp:157] Top shape: 8 1800 (14400)
I0729 21:15:24.756294 13373 net.cpp:165] Memory required for data: 1286896000
I0729 21:15:24.756296 13373 layer_factory.hpp:77] Creating layer conv6/sep_mbox_priorbox
I0729 21:15:24.756302 13373 net.cpp:100] Creating Layer conv6/sep_mbox_priorbox
I0729 21:15:24.756305 13373 net.cpp:434] conv6/sep_mbox_priorbox <- conv6/sep_conv6/sep_relu_0_split_3
I0729 21:15:24.756309 13373 net.cpp:434] conv6/sep_mbox_priorbox <- data_data_0_split_2
I0729 21:15:24.756312 13373 net.cpp:408] conv6/sep_mbox_priorbox -> conv6/sep_mbox_priorbox
I0729 21:15:24.756335 13373 net.cpp:150] Setting up conv6/sep_mbox_priorbox
I0729 21:15:24.756338 13373 net.cpp:157] Top shape: 1 2 2400 (4800)
I0729 21:15:24.756340 13373 net.cpp:165] Memory required for data: 1286915200
I0729 21:15:24.756343 13373 layer_factory.hpp:77] Creating layer conv7_2_mbox_loc
I0729 21:15:24.756350 13373 net.cpp:100] Creating Layer conv7_2_mbox_loc
I0729 21:15:24.756352 13373 net.cpp:434] conv7_2_mbox_loc <- conv7_2_conv7_2_relu_0_split_1
I0729 21:15:24.756358 13373 net.cpp:408] conv7_2_mbox_loc -> conv7_2_mbox_loc
I0729 21:15:24.758489 13373 net.cpp:150] Setting up conv7_2_mbox_loc
I0729 21:15:24.758502 13373 net.cpp:157] Top shape: 8 24 5 5 (4800)
I0729 21:15:24.758507 13373 net.cpp:165] Memory required for data: 1286934400
I0729 21:15:24.758514 13373 layer_factory.hpp:77] Creating layer conv7_2_mbox_loc_perm
I0729 21:15:24.758522 13373 net.cpp:100] Creating Layer conv7_2_mbox_loc_perm
I0729 21:15:24.758527 13373 net.cpp:434] conv7_2_mbox_loc_perm <- conv7_2_mbox_loc
I0729 21:15:24.758534 13373 net.cpp:408] conv7_2_mbox_loc_perm -> conv7_2_mbox_loc_perm
I0729 21:15:24.758652 13373 net.cpp:150] Setting up conv7_2_mbox_loc_perm
I0729 21:15:24.758661 13373 net.cpp:157] Top shape: 8 5 5 24 (4800)
I0729 21:15:24.758664 13373 net.cpp:165] Memory required for data: 1286953600
I0729 21:15:24.758668 13373 layer_factory.hpp:77] Creating layer conv7_2_mbox_loc_flat
I0729 21:15:24.758677 13373 net.cpp:100] Creating Layer conv7_2_mbox_loc_flat
I0729 21:15:24.758682 13373 net.cpp:434] conv7_2_mbox_loc_flat <- conv7_2_mbox_loc_perm
I0729 21:15:24.758687 13373 net.cpp:408] conv7_2_mbox_loc_flat -> conv7_2_mbox_loc_flat
I0729 21:15:24.758715 13373 net.cpp:150] Setting up conv7_2_mbox_loc_flat
I0729 21:15:24.758721 13373 net.cpp:157] Top shape: 8 600 (4800)
I0729 21:15:24.758724 13373 net.cpp:165] Memory required for data: 1286972800
I0729 21:15:24.758728 13373 layer_factory.hpp:77] Creating layer conv7_2_mbox_conf
I0729 21:15:24.758739 13373 net.cpp:100] Creating Layer conv7_2_mbox_conf
I0729 21:15:24.758744 13373 net.cpp:434] conv7_2_mbox_conf <- conv7_2_conv7_2_relu_0_split_2
I0729 21:15:24.758750 13373 net.cpp:408] conv7_2_mbox_conf -> conv7_2_mbox_conf
I0729 21:15:24.761116 13373 net.cpp:150] Setting up conv7_2_mbox_conf
I0729 21:15:24.761127 13373 net.cpp:157] Top shape: 8 18 5 5 (3600)
I0729 21:15:24.761129 13373 net.cpp:165] Memory required for data: 1286987200
I0729 21:15:24.761134 13373 layer_factory.hpp:77] Creating layer conv7_2_mbox_conf_perm
I0729 21:15:24.761140 13373 net.cpp:100] Creating Layer conv7_2_mbox_conf_perm
I0729 21:15:24.761143 13373 net.cpp:434] conv7_2_mbox_conf_perm <- conv7_2_mbox_conf
I0729 21:15:24.761147 13373 net.cpp:408] conv7_2_mbox_conf_perm -> conv7_2_mbox_conf_perm
I0729 21:15:24.761240 13373 net.cpp:150] Setting up conv7_2_mbox_conf_perm
I0729 21:15:24.761245 13373 net.cpp:157] Top shape: 8 5 5 18 (3600)
I0729 21:15:24.761247 13373 net.cpp:165] Memory required for data: 1287001600
I0729 21:15:24.761255 13373 layer_factory.hpp:77] Creating layer conv7_2_mbox_conf_flat
I0729 21:15:24.761258 13373 net.cpp:100] Creating Layer conv7_2_mbox_conf_flat
I0729 21:15:24.761261 13373 net.cpp:434] conv7_2_mbox_conf_flat <- conv7_2_mbox_conf_perm
I0729 21:15:24.761266 13373 net.cpp:408] conv7_2_mbox_conf_flat -> conv7_2_mbox_conf_flat
I0729 21:15:24.761286 13373 net.cpp:150] Setting up conv7_2_mbox_conf_flat
I0729 21:15:24.761291 13373 net.cpp:157] Top shape: 8 450 (3600)
I0729 21:15:24.761293 13373 net.cpp:165] Memory required for data: 1287016000
I0729 21:15:24.761296 13373 layer_factory.hpp:77] Creating layer conv7_2_mbox_priorbox
I0729 21:15:24.761299 13373 net.cpp:100] Creating Layer conv7_2_mbox_priorbox
I0729 21:15:24.761302 13373 net.cpp:434] conv7_2_mbox_priorbox <- conv7_2_conv7_2_relu_0_split_3
I0729 21:15:24.761307 13373 net.cpp:434] conv7_2_mbox_priorbox <- data_data_0_split_3
I0729 21:15:24.761312 13373 net.cpp:408] conv7_2_mbox_priorbox -> conv7_2_mbox_priorbox
I0729 21:15:24.761332 13373 net.cpp:150] Setting up conv7_2_mbox_priorbox
I0729 21:15:24.761337 13373 net.cpp:157] Top shape: 1 2 600 (1200)
I0729 21:15:24.761338 13373 net.cpp:165] Memory required for data: 1287020800
I0729 21:15:24.761340 13373 layer_factory.hpp:77] Creating layer conv8_2_mbox_loc
I0729 21:15:24.761348 13373 net.cpp:100] Creating Layer conv8_2_mbox_loc
I0729 21:15:24.761350 13373 net.cpp:434] conv8_2_mbox_loc <- conv8_2_conv8_2_relu_0_split_1
I0729 21:15:24.761354 13373 net.cpp:408] conv8_2_mbox_loc -> conv8_2_mbox_loc
I0729 21:15:24.763519 13373 net.cpp:150] Setting up conv8_2_mbox_loc
I0729 21:15:24.763528 13373 net.cpp:157] Top shape: 8 24 3 3 (1728)
I0729 21:15:24.763530 13373 net.cpp:165] Memory required for data: 1287027712
I0729 21:15:24.763535 13373 layer_factory.hpp:77] Creating layer conv8_2_mbox_loc_perm
I0729 21:15:24.763541 13373 net.cpp:100] Creating Layer conv8_2_mbox_loc_perm
I0729 21:15:24.763545 13373 net.cpp:434] conv8_2_mbox_loc_perm <- conv8_2_mbox_loc
I0729 21:15:24.763550 13373 net.cpp:408] conv8_2_mbox_loc_perm -> conv8_2_mbox_loc_perm
I0729 21:15:24.763638 13373 net.cpp:150] Setting up conv8_2_mbox_loc_perm
I0729 21:15:24.763643 13373 net.cpp:157] Top shape: 8 3 3 24 (1728)
I0729 21:15:24.763645 13373 net.cpp:165] Memory required for data: 1287034624
I0729 21:15:24.763648 13373 layer_factory.hpp:77] Creating layer conv8_2_mbox_loc_flat
I0729 21:15:24.763653 13373 net.cpp:100] Creating Layer conv8_2_mbox_loc_flat
I0729 21:15:24.763654 13373 net.cpp:434] conv8_2_mbox_loc_flat <- conv8_2_mbox_loc_perm
I0729 21:15:24.763659 13373 net.cpp:408] conv8_2_mbox_loc_flat -> conv8_2_mbox_loc_flat
I0729 21:15:24.763679 13373 net.cpp:150] Setting up conv8_2_mbox_loc_flat
I0729 21:15:24.763684 13373 net.cpp:157] Top shape: 8 216 (1728)
I0729 21:15:24.763685 13373 net.cpp:165] Memory required for data: 1287041536
I0729 21:15:24.763687 13373 layer_factory.hpp:77] Creating layer conv8_2_mbox_conf
I0729 21:15:24.763694 13373 net.cpp:100] Creating Layer conv8_2_mbox_conf
I0729 21:15:24.763696 13373 net.cpp:434] conv8_2_mbox_conf <- conv8_2_conv8_2_relu_0_split_2
I0729 21:15:24.763702 13373 net.cpp:408] conv8_2_mbox_conf -> conv8_2_mbox_conf
I0729 21:15:24.765825 13373 net.cpp:150] Setting up conv8_2_mbox_conf
I0729 21:15:24.765836 13373 net.cpp:157] Top shape: 8 18 3 3 (1296)
I0729 21:15:24.765837 13373 net.cpp:165] Memory required for data: 1287046720
I0729 21:15:24.765842 13373 layer_factory.hpp:77] Creating layer conv8_2_mbox_conf_perm
I0729 21:15:24.765848 13373 net.cpp:100] Creating Layer conv8_2_mbox_conf_perm
I0729 21:15:24.765851 13373 net.cpp:434] conv8_2_mbox_conf_perm <- conv8_2_mbox_conf
I0729 21:15:24.765856 13373 net.cpp:408] conv8_2_mbox_conf_perm -> conv8_2_mbox_conf_perm
I0729 21:15:24.765945 13373 net.cpp:150] Setting up conv8_2_mbox_conf_perm
I0729 21:15:24.765950 13373 net.cpp:157] Top shape: 8 3 3 18 (1296)
I0729 21:15:24.765955 13373 net.cpp:165] Memory required for data: 1287051904
I0729 21:15:24.765959 13373 layer_factory.hpp:77] Creating layer conv8_2_mbox_conf_flat
I0729 21:15:24.765962 13373 net.cpp:100] Creating Layer conv8_2_mbox_conf_flat
I0729 21:15:24.765969 13373 net.cpp:434] conv8_2_mbox_conf_flat <- conv8_2_mbox_conf_perm
I0729 21:15:24.765975 13373 net.cpp:408] conv8_2_mbox_conf_flat -> conv8_2_mbox_conf_flat
I0729 21:15:24.765997 13373 net.cpp:150] Setting up conv8_2_mbox_conf_flat
I0729 21:15:24.766001 13373 net.cpp:157] Top shape: 8 162 (1296)
I0729 21:15:24.766003 13373 net.cpp:165] Memory required for data: 1287057088
I0729 21:15:24.766005 13373 layer_factory.hpp:77] Creating layer conv8_2_mbox_priorbox
I0729 21:15:24.766010 13373 net.cpp:100] Creating Layer conv8_2_mbox_priorbox
I0729 21:15:24.766013 13373 net.cpp:434] conv8_2_mbox_priorbox <- conv8_2_conv8_2_relu_0_split_3
I0729 21:15:24.766016 13373 net.cpp:434] conv8_2_mbox_priorbox <- data_data_0_split_4
I0729 21:15:24.766021 13373 net.cpp:408] conv8_2_mbox_priorbox -> conv8_2_mbox_priorbox
I0729 21:15:24.766043 13373 net.cpp:150] Setting up conv8_2_mbox_priorbox
I0729 21:15:24.766047 13373 net.cpp:157] Top shape: 1 2 216 (432)
I0729 21:15:24.766049 13373 net.cpp:165] Memory required for data: 1287058816
I0729 21:15:24.766052 13373 layer_factory.hpp:77] Creating layer conv9_2_mbox_loc
I0729 21:15:24.766058 13373 net.cpp:100] Creating Layer conv9_2_mbox_loc
I0729 21:15:24.766062 13373 net.cpp:434] conv9_2_mbox_loc <- conv9_2_conv9_2_relu_0_split_1
I0729 21:15:24.766067 13373 net.cpp:408] conv9_2_mbox_loc -> conv9_2_mbox_loc
I0729 21:15:24.768237 13373 net.cpp:150] Setting up conv9_2_mbox_loc
I0729 21:15:24.768247 13373 net.cpp:157] Top shape: 8 24 2 2 (768)
I0729 21:15:24.768250 13373 net.cpp:165] Memory required for data: 1287061888
I0729 21:15:24.768255 13373 layer_factory.hpp:77] Creating layer conv9_2_mbox_loc_perm
I0729 21:15:24.768263 13373 net.cpp:100] Creating Layer conv9_2_mbox_loc_perm
I0729 21:15:24.768266 13373 net.cpp:434] conv9_2_mbox_loc_perm <- conv9_2_mbox_loc
I0729 21:15:24.768271 13373 net.cpp:408] conv9_2_mbox_loc_perm -> conv9_2_mbox_loc_perm
I0729 21:15:24.768358 13373 net.cpp:150] Setting up conv9_2_mbox_loc_perm
I0729 21:15:24.768363 13373 net.cpp:157] Top shape: 8 2 2 24 (768)
I0729 21:15:24.768365 13373 net.cpp:165] Memory required for data: 1287064960
I0729 21:15:24.768368 13373 layer_factory.hpp:77] Creating layer conv9_2_mbox_loc_flat
I0729 21:15:24.768373 13373 net.cpp:100] Creating Layer conv9_2_mbox_loc_flat
I0729 21:15:24.768375 13373 net.cpp:434] conv9_2_mbox_loc_flat <- conv9_2_mbox_loc_perm
I0729 21:15:24.768379 13373 net.cpp:408] conv9_2_mbox_loc_flat -> conv9_2_mbox_loc_flat
I0729 21:15:24.768399 13373 net.cpp:150] Setting up conv9_2_mbox_loc_flat
I0729 21:15:24.768404 13373 net.cpp:157] Top shape: 8 96 (768)
I0729 21:15:24.768405 13373 net.cpp:165] Memory required for data: 1287068032
I0729 21:15:24.768407 13373 layer_factory.hpp:77] Creating layer conv9_2_mbox_conf
I0729 21:15:24.768414 13373 net.cpp:100] Creating Layer conv9_2_mbox_conf
I0729 21:15:24.768419 13373 net.cpp:434] conv9_2_mbox_conf <- conv9_2_conv9_2_relu_0_split_2
I0729 21:15:24.768424 13373 net.cpp:408] conv9_2_mbox_conf -> conv9_2_mbox_conf
I0729 21:15:24.770623 13373 net.cpp:150] Setting up conv9_2_mbox_conf
I0729 21:15:24.770634 13373 net.cpp:157] Top shape: 8 18 2 2 (576)
I0729 21:15:24.770637 13373 net.cpp:165] Memory required for data: 1287070336
I0729 21:15:24.770642 13373 layer_factory.hpp:77] Creating layer conv9_2_mbox_conf_perm
I0729 21:15:24.770648 13373 net.cpp:100] Creating Layer conv9_2_mbox_conf_perm
I0729 21:15:24.770650 13373 net.cpp:434] conv9_2_mbox_conf_perm <- conv9_2_mbox_conf
I0729 21:15:24.770654 13373 net.cpp:408] conv9_2_mbox_conf_perm -> conv9_2_mbox_conf_perm
I0729 21:15:24.770743 13373 net.cpp:150] Setting up conv9_2_mbox_conf_perm
I0729 21:15:24.770748 13373 net.cpp:157] Top shape: 8 2 2 18 (576)
I0729 21:15:24.770750 13373 net.cpp:165] Memory required for data: 1287072640
I0729 21:15:24.770757 13373 layer_factory.hpp:77] Creating layer conv9_2_mbox_conf_flat
I0729 21:15:24.770761 13373 net.cpp:100] Creating Layer conv9_2_mbox_conf_flat
I0729 21:15:24.770764 13373 net.cpp:434] conv9_2_mbox_conf_flat <- conv9_2_mbox_conf_perm
I0729 21:15:24.770773 13373 net.cpp:408] conv9_2_mbox_conf_flat -> conv9_2_mbox_conf_flat
I0729 21:15:24.770794 13373 net.cpp:150] Setting up conv9_2_mbox_conf_flat
I0729 21:15:24.770799 13373 net.cpp:157] Top shape: 8 72 (576)
I0729 21:15:24.770802 13373 net.cpp:165] Memory required for data: 1287074944
I0729 21:15:24.770803 13373 layer_factory.hpp:77] Creating layer conv9_2_mbox_priorbox
I0729 21:15:24.770808 13373 net.cpp:100] Creating Layer conv9_2_mbox_priorbox
I0729 21:15:24.770810 13373 net.cpp:434] conv9_2_mbox_priorbox <- conv9_2_conv9_2_relu_0_split_3
I0729 21:15:24.770814 13373 net.cpp:434] conv9_2_mbox_priorbox <- data_data_0_split_5
I0729 21:15:24.770819 13373 net.cpp:408] conv9_2_mbox_priorbox -> conv9_2_mbox_priorbox
I0729 21:15:24.770841 13373 net.cpp:150] Setting up conv9_2_mbox_priorbox
I0729 21:15:24.770846 13373 net.cpp:157] Top shape: 1 2 96 (192)
I0729 21:15:24.770848 13373 net.cpp:165] Memory required for data: 1287075712
I0729 21:15:24.770850 13373 layer_factory.hpp:77] Creating layer conv10_2_mbox_loc
I0729 21:15:24.770858 13373 net.cpp:100] Creating Layer conv10_2_mbox_loc
I0729 21:15:24.770860 13373 net.cpp:434] conv10_2_mbox_loc <- conv10_2_conv10_2_relu_0_split_0
I0729 21:15:24.770865 13373 net.cpp:408] conv10_2_mbox_loc -> conv10_2_mbox_loc
I0729 21:15:24.773042 13373 net.cpp:150] Setting up conv10_2_mbox_loc
I0729 21:15:24.773053 13373 net.cpp:157] Top shape: 8 24 1 1 (192)
I0729 21:15:24.773056 13373 net.cpp:165] Memory required for data: 1287076480
I0729 21:15:24.773061 13373 layer_factory.hpp:77] Creating layer conv10_2_mbox_loc_perm
I0729 21:15:24.773066 13373 net.cpp:100] Creating Layer conv10_2_mbox_loc_perm
I0729 21:15:24.773069 13373 net.cpp:434] conv10_2_mbox_loc_perm <- conv10_2_mbox_loc
I0729 21:15:24.773075 13373 net.cpp:408] conv10_2_mbox_loc_perm -> conv10_2_mbox_loc_perm
I0729 21:15:24.773162 13373 net.cpp:150] Setting up conv10_2_mbox_loc_perm
I0729 21:15:24.773169 13373 net.cpp:157] Top shape: 8 1 1 24 (192)
I0729 21:15:24.773170 13373 net.cpp:165] Memory required for data: 1287077248
I0729 21:15:24.773172 13373 layer_factory.hpp:77] Creating layer conv10_2_mbox_loc_flat
I0729 21:15:24.773176 13373 net.cpp:100] Creating Layer conv10_2_mbox_loc_flat
I0729 21:15:24.773180 13373 net.cpp:434] conv10_2_mbox_loc_flat <- conv10_2_mbox_loc_perm
I0729 21:15:24.773183 13373 net.cpp:408] conv10_2_mbox_loc_flat -> conv10_2_mbox_loc_flat
I0729 21:15:24.773205 13373 net.cpp:150] Setting up conv10_2_mbox_loc_flat
I0729 21:15:24.773208 13373 net.cpp:157] Top shape: 8 24 (192)
I0729 21:15:24.773211 13373 net.cpp:165] Memory required for data: 1287078016
I0729 21:15:24.773212 13373 layer_factory.hpp:77] Creating layer conv10_2_mbox_conf
I0729 21:15:24.773221 13373 net.cpp:100] Creating Layer conv10_2_mbox_conf
I0729 21:15:24.773223 13373 net.cpp:434] conv10_2_mbox_conf <- conv10_2_conv10_2_relu_0_split_1
I0729 21:15:24.773228 13373 net.cpp:408] conv10_2_mbox_conf -> conv10_2_mbox_conf
I0729 21:15:24.775331 13373 net.cpp:150] Setting up conv10_2_mbox_conf
I0729 21:15:24.775341 13373 net.cpp:157] Top shape: 8 18 1 1 (144)
I0729 21:15:24.775344 13373 net.cpp:165] Memory required for data: 1287078592
I0729 21:15:24.775349 13373 layer_factory.hpp:77] Creating layer conv10_2_mbox_conf_perm
I0729 21:15:24.775355 13373 net.cpp:100] Creating Layer conv10_2_mbox_conf_perm
I0729 21:15:24.775359 13373 net.cpp:434] conv10_2_mbox_conf_perm <- conv10_2_mbox_conf
I0729 21:15:24.775364 13373 net.cpp:408] conv10_2_mbox_conf_perm -> conv10_2_mbox_conf_perm
I0729 21:15:24.775455 13373 net.cpp:150] Setting up conv10_2_mbox_conf_perm
I0729 21:15:24.775460 13373 net.cpp:157] Top shape: 8 1 1 18 (144)
I0729 21:15:24.775462 13373 net.cpp:165] Memory required for data: 1287079168
I0729 21:15:24.775465 13373 layer_factory.hpp:77] Creating layer conv10_2_mbox_conf_flat
I0729 21:15:24.775472 13373 net.cpp:100] Creating Layer conv10_2_mbox_conf_flat
I0729 21:15:24.775475 13373 net.cpp:434] conv10_2_mbox_conf_flat <- conv10_2_mbox_conf_perm
I0729 21:15:24.775481 13373 net.cpp:408] conv10_2_mbox_conf_flat -> conv10_2_mbox_conf_flat
I0729 21:15:24.775508 13373 net.cpp:150] Setting up conv10_2_mbox_conf_flat
I0729 21:15:24.775512 13373 net.cpp:157] Top shape: 8 18 (144)
I0729 21:15:24.775514 13373 net.cpp:165] Memory required for data: 1287079744
I0729 21:15:24.775517 13373 layer_factory.hpp:77] Creating layer conv10_2_mbox_priorbox
I0729 21:15:24.775521 13373 net.cpp:100] Creating Layer conv10_2_mbox_priorbox
I0729 21:15:24.775524 13373 net.cpp:434] conv10_2_mbox_priorbox <- conv10_2_conv10_2_relu_0_split_2
I0729 21:15:24.775527 13373 net.cpp:434] conv10_2_mbox_priorbox <- data_data_0_split_6
I0729 21:15:24.775532 13373 net.cpp:408] conv10_2_mbox_priorbox -> conv10_2_mbox_priorbox
I0729 21:15:24.775555 13373 net.cpp:150] Setting up conv10_2_mbox_priorbox
I0729 21:15:24.775559 13373 net.cpp:157] Top shape: 1 2 24 (48)
I0729 21:15:24.775562 13373 net.cpp:165] Memory required for data: 1287079936
I0729 21:15:24.775564 13373 layer_factory.hpp:77] Creating layer mbox_loc
I0729 21:15:24.775568 13373 net.cpp:100] Creating Layer mbox_loc
I0729 21:15:24.775573 13373 net.cpp:434] mbox_loc <- conv5_5/sep_mbox_loc_flat
I0729 21:15:24.775575 13373 net.cpp:434] mbox_loc <- conv6/sep_mbox_loc_flat
I0729 21:15:24.775579 13373 net.cpp:434] mbox_loc <- conv7_2_mbox_loc_flat
I0729 21:15:24.775583 13373 net.cpp:434] mbox_loc <- conv8_2_mbox_loc_flat
I0729 21:15:24.775585 13373 net.cpp:434] mbox_loc <- conv9_2_mbox_loc_flat
I0729 21:15:24.775588 13373 net.cpp:434] mbox_loc <- conv10_2_mbox_loc_flat
I0729 21:15:24.775593 13373 net.cpp:408] mbox_loc -> mbox_loc
I0729 21:15:24.775619 13373 net.cpp:150] Setting up mbox_loc
I0729 21:15:24.775624 13373 net.cpp:157] Top shape: 8 7668 (61344)
I0729 21:15:24.775625 13373 net.cpp:165] Memory required for data: 1287325312
I0729 21:15:24.775627 13373 layer_factory.hpp:77] Creating layer mbox_conf
I0729 21:15:24.775631 13373 net.cpp:100] Creating Layer mbox_conf
I0729 21:15:24.775635 13373 net.cpp:434] mbox_conf <- conv5_5/sep_mbox_conf_flat
I0729 21:15:24.775640 13373 net.cpp:434] mbox_conf <- conv6/sep_mbox_conf_flat
I0729 21:15:24.775643 13373 net.cpp:434] mbox_conf <- conv7_2_mbox_conf_flat
I0729 21:15:24.775647 13373 net.cpp:434] mbox_conf <- conv8_2_mbox_conf_flat
I0729 21:15:24.775650 13373 net.cpp:434] mbox_conf <- conv9_2_mbox_conf_flat
I0729 21:15:24.775653 13373 net.cpp:434] mbox_conf <- conv10_2_mbox_conf_flat
I0729 21:15:24.775657 13373 net.cpp:408] mbox_conf -> mbox_conf
I0729 21:15:24.775681 13373 net.cpp:150] Setting up mbox_conf
I0729 21:15:24.775686 13373 net.cpp:157] Top shape: 8 5751 (46008)
I0729 21:15:24.775687 13373 net.cpp:165] Memory required for data: 1287509344
I0729 21:15:24.775689 13373 layer_factory.hpp:77] Creating layer mbox_priorbox
I0729 21:15:24.775696 13373 net.cpp:100] Creating Layer mbox_priorbox
I0729 21:15:24.775699 13373 net.cpp:434] mbox_priorbox <- conv5_5/sep_mbox_priorbox
I0729 21:15:24.775703 13373 net.cpp:434] mbox_priorbox <- conv6/sep_mbox_priorbox
I0729 21:15:24.775707 13373 net.cpp:434] mbox_priorbox <- conv7_2_mbox_priorbox
I0729 21:15:24.775709 13373 net.cpp:434] mbox_priorbox <- conv8_2_mbox_priorbox
I0729 21:15:24.775712 13373 net.cpp:434] mbox_priorbox <- conv9_2_mbox_priorbox
I0729 21:15:24.775714 13373 net.cpp:434] mbox_priorbox <- conv10_2_mbox_priorbox
I0729 21:15:24.775717 13373 net.cpp:408] mbox_priorbox -> mbox_priorbox
I0729 21:15:24.775753 13373 net.cpp:150] Setting up mbox_priorbox
I0729 21:15:24.775758 13373 net.cpp:157] Top shape: 1 2 7668 (15336)
I0729 21:15:24.775761 13373 net.cpp:165] Memory required for data: 1287570688
I0729 21:15:24.775763 13373 layer_factory.hpp:77] Creating layer mbox_conf_reshape
I0729 21:15:24.775769 13373 net.cpp:100] Creating Layer mbox_conf_reshape
I0729 21:15:24.775773 13373 net.cpp:434] mbox_conf_reshape <- mbox_conf
I0729 21:15:24.775779 13373 net.cpp:408] mbox_conf_reshape -> mbox_conf_reshape
I0729 21:15:24.775810 13373 net.cpp:150] Setting up mbox_conf_reshape
I0729 21:15:24.775816 13373 net.cpp:157] Top shape: 8 1917 3 (46008)
I0729 21:15:24.775818 13373 net.cpp:165] Memory required for data: 1287754720
I0729 21:15:24.775825 13373 layer_factory.hpp:77] Creating layer mbox_conf_softmax
I0729 21:15:24.775830 13373 net.cpp:100] Creating Layer mbox_conf_softmax
I0729 21:15:24.775832 13373 net.cpp:434] mbox_conf_softmax <- mbox_conf_reshape
I0729 21:15:24.775836 13373 net.cpp:408] mbox_conf_softmax -> mbox_conf_softmax
I0729 21:15:24.777338 13373 net.cpp:150] Setting up mbox_conf_softmax
I0729 21:15:24.777348 13373 net.cpp:157] Top shape: 8 1917 3 (46008)
I0729 21:15:24.777350 13373 net.cpp:165] Memory required for data: 1287938752
I0729 21:15:24.777354 13373 layer_factory.hpp:77] Creating layer mbox_conf_flatten
I0729 21:15:24.777359 13373 net.cpp:100] Creating Layer mbox_conf_flatten
I0729 21:15:24.777360 13373 net.cpp:434] mbox_conf_flatten <- mbox_conf_softmax
I0729 21:15:24.777366 13373 net.cpp:408] mbox_conf_flatten -> mbox_conf_flatten
I0729 21:15:24.777390 13373 net.cpp:150] Setting up mbox_conf_flatten
I0729 21:15:24.777393 13373 net.cpp:157] Top shape: 8 5751 (46008)
I0729 21:15:24.777395 13373 net.cpp:165] Memory required for data: 1288122784
I0729 21:15:24.777397 13373 layer_factory.hpp:77] Creating layer detection_out
I0729 21:15:24.777408 13373 net.cpp:100] Creating Layer detection_out
I0729 21:15:24.777411 13373 net.cpp:434] detection_out <- mbox_loc
I0729 21:15:24.777415 13373 net.cpp:434] detection_out <- mbox_conf_flatten
I0729 21:15:24.777418 13373 net.cpp:434] detection_out <- mbox_priorbox
I0729 21:15:24.777423 13373 net.cpp:408] detection_out -> detection_out
I0729 21:15:24.777940 13373 net.cpp:150] Setting up detection_out
I0729 21:15:24.777947 13373 net.cpp:157] Top shape: 1 1 1 7 (7)
I0729 21:15:24.777950 13373 net.cpp:165] Memory required for data: 1288122812
I0729 21:15:24.777952 13373 layer_factory.hpp:77] Creating layer detection_eval
I0729 21:15:24.777958 13373 net.cpp:100] Creating Layer detection_eval
I0729 21:15:24.777961 13373 net.cpp:434] detection_eval <- detection_out
I0729 21:15:24.777964 13373 net.cpp:434] detection_eval <- label
I0729 21:15:24.777968 13373 net.cpp:408] detection_eval -> detection_eval
I0729 21:15:24.778326 13373 net.cpp:150] Setting up detection_eval
I0729 21:15:24.778331 13373 net.cpp:157] Top shape: 1 1 3 5 (15)
I0729 21:15:24.778334 13373 net.cpp:165] Memory required for data: 1288122872
I0729 21:15:24.778337 13373 net.cpp:228] detection_eval does not need backward computation.
I0729 21:15:24.778340 13373 net.cpp:228] detection_out does not need backward computation.
I0729 21:15:24.778343 13373 net.cpp:228] mbox_conf_flatten does not need backward computation.
I0729 21:15:24.778345 13373 net.cpp:228] mbox_conf_softmax does not need backward computation.
…
