…
      sampler {
        min_scale: 0.3
        max_scale: 1
        min_aspect_ratio: 0.5
        max_aspect_ratio: 2
      }
      sample_constraint {
        min_jaccard_overlap: 0.9
      }
      max_sample: 1
      max_trials: 50
    }
    batch_sampler {
      sampler {
        min_scale: 0.3
        max_scale: 1
        min_aspect_ratio: 0.5
        max_aspect_ratio: 2
      }
      sample_constraint {
        max_jaccard_overlap: 1
      }
      max_sample: 1
      max_trials: 50
    }
    label_map_file: "data/VOC0712/labelmap_voc.prototxt"
  }
}
layer {
  name: "conv1"
  type: "Convolution"
  bottom: "data"
  top: "conv1"
  param {
    lr_mult: 1
    decay_mult: 1
  }
  convolution_param {
    num_output: 64
    bias_term: false
    pad: 3
    kernel_size: 7
    group: 1
    stride: 2
    weight_filler {
      type: "gaussian"
      std: 0.01
    }
    engine: DEFAULT
  }
}
layer {
  name: "bn_conv1"
  type: "BatchNorm"
  bottom: "conv1"
  top: "conv1"
  batch_norm_param {
    moving_average_fraction: 0.999
    eps: 0.001
  }
}
layer {
  name: "scale_conv1"
  type: "Scale"
  bottom: "conv1"
  top: "conv1"
  param {
    lr_mult: 1
    decay_mult: 0
  }
  param {
    lr_mult: 1
    decay_mult: 0
  }
  scale_param {
    filler {
      type: "constant"
      value: 1
    }
    bias_term: true
    bias_filler {
      type: "constant"
      value: 0
    }
  }
}
layer {
  name: "conv1_relu"
  type: "ReLU"
  bottom: "conv1"
  top: "conv1"
}
layer {
  name: "pool1"
  type: "Pooling"
  bottom: "conv1"
  top: "pool1"
  pooling_param {
    pool: MAX
    kernel_size: 3
    stride: 2
  }
}
layer {
  name: "res2a_branch1"
  type: "Convolution"
  bottom: "pool1"
  top: "res2a_branch1"
  param {
    lr_mult: 1
    decay_mult: 1
  }
  convolution_param {
    num_output: 256
    bias_term: false
    pad: 0
    kernel_size: 1
    group: 1
    stride: 1
    weight_filler {
      type: "gaussian"
      std: 0.01
    }
    engine: DEFAULT
  }
}
layer {
  name: "bn2a_branch1"
  type: "BatchNorm"
  bottom: "res2a_branch1"
  top: "res2a_branch1"
  batch_norm_param {
    moving_average_fraction: 0.999
    eps: 0.001
  }
}
layer {
  name: "scale2a_branch1"
  type: "Scale"
  bottom: "res2a_branch1"
  top: "res2a_branch1"
  param {
    lr_mult: 1
    decay_mult: 0
  }
  param {
    lr_mult: 1
    decay_mult: 0
  }
  scale_param {
    filler {
      type: "constant"
      value: 1
    }
    bias_term: true
    bias_filler {
      type: "constant"
      value: 0
    }
  }
}
layer {
  name: "res2a_branch2a"
  type: "Convolution"
  bottom: "pool1"
  top: "res2a_branch2a"
  param {
    lr_mult: 1
    decay_mult: 1
  }
  convolution_param {
    num_output: 64
    bias_term: false
    pad: 0
    kernel_size: 1
    group: 1
    stride: 1
    weight_filler {
      type: "gaussian"
      std: 0.01
    }
    engine: DEFAULT
  }
}
layer {
  name: "bn2a_branch2a"
  type: "BatchNorm"
  bottom: "res2a_branch2a"
  top: "res2a_branch2a"
  batch_norm_param {
    moving_average_fraction: 0.999
    eps: 0.001
  }
}
layer {
  name: "scale2a_branch2a"
  type: "Scale"
  bottom: "res2a_branch2a"
  top: "res2a_branch2a"
  param {
    lr_mult: 1
    decay_mult: 0
  }
  param {
    lr_mult: 1
    decay_mult: 0
  }
  scale_param {
    filler {
      type: "constant"
      value: 1
    }
    bias_term: true
    bias_filler {
      type: "constant"
      value: 0
    }
  }
}
layer {
  name: "res2a_branch2a_relu"
  type: "ReLU"
  bottom: "res2a_branch2a"
  top: "res2a_branch2a"
}
layer {
  name: "res2a_branch2b"
  type: "Convolution"
  bottom: "res2a_branch2a"
  top: "res2a_branch2b"
  param {
    lr_mult: 1
    decay_mult: 1
  }
  convolution_param {
    num_output: 64
    bias_term: false
    pad: 1
    kernel_size: 3
    group: 1
    stride: 1
    weight_filler {
      type: "gaussian"
      std: 0.01
    }
    engine: DEFAULT
  }
}
layer {
  name: "bn2a_branch2b"
  type: "BatchNorm"
  bottom: "res2a_branch2b"
  top: "res2a_branch2b"
  batch_norm_param {
    moving_average_fraction: 0.999
    eps: 0.001
  }
}
layer {
  name: "scale2a_branch2b"
  type: "Scale"
  bottom: "res2a_branch2b"
  top: "res2a_branch2b"
  param {
    lr_mult: 1
    decay_mult: 0
  }
  param {
    lr_mult: 1
    decay_mult: 0
  }
  scale_param {
    filler {
      type: "constant"
      value: 1
    }
    bias_term: true
    bias_filler {
      type: "constant"
      value: 0
    }
  }
}
layer {
  name: "res2a_branch2b_relu"
  type: "ReLU"
  bottom: "res2a_branch2b"
  top: "res2a_branch2b"
}
layer {
  name: "res2a_branch2c"
  type: "Convolution"
  bottom: "res2a_branch2b"
  top: "res2a_branch2c"
  param {
    lr_mult: 1
    decay_mult: 1
  }
  convolution_param {
    num_output: 256
    bias_term: false
    pad: 0
    kernel_size: 1
    group: 1
    stride: 1
    weight_filler {
      type: "gaussian"
      std: 0.01
    }
    engine: DEFAULT
  }
}
layer {
  name: "bn2a_branch2c"
  type: "BatchNorm"
  bottom: "res2a_branch2c"
  top: "res2a_branch2c"
  batch_norm_param {
    moving_average_fraction: 0.999
    eps: 0.001
  }
}
layer {
  name: "scale2a_branch2c"
  type: "Scale"
  bottom: "res2a_branch2c"
  top: "res2a_branch2c"
  param {
    lr_mult: 1
    decay_mult: 0
  }
  param {
    lr_mult: 1
    decay_mult: 0
  }
  scale_param {
    filler {
      type: "constant"
      value: 1
    }
    bias_term: true
    bias_filler {
      type: "constant"
      value: 0
    }
  }
}
layer {
  name: "res2a"
  type: "Eltwise"
  bottom: "res2a_branch1"
  bottom: "res2a_branch2c"
  top: "res2a"
}
layer {
  name: "res2a_relu"
  type: "ReLU"
  bottom: "res2a"
  top: "res2a"
}
layer {
  name: "res2b_branch2a"
  type: "Convolution"
  bottom: "res2a"
  top: "res2b_branch2a"
  param {
    lr_mult: 1
    decay_mult: 1
  }
  convolution_param {
    num_output: 64
    bias_term: false
    pad: 0
    kernel_size: 1
    group: 1
    stride: 1
    weight_filler {
      type: "gaussian"
      std: 0.01
    }
    engine: DEFAULT
  }
}
layer {
  name: "bn2b_branch2a"
  type: "BatchNorm"
  bottom: "res2b_branch2a"
  top: "res2b_branch2a"
  batch_norm_param {
    moving_average_fraction: 0.999
    eps: 0.001
  }
}
layer {
  name: "scale2b_branch2a"
  type: "Scale"
  bottom: "res2b_branch2a"
  top: "res2b_branch2a"
  param {
    lr_mult: 1
    decay_mult: 0
  }
  param {
    lr_mult: 1
    decay_mult: 0
  }
  scale_param {
    filler {
      type: "constant"
      value: 1
    }
    bias_term: true
    bias_filler {
      type: "constant"
      value: 0
    }
  }
}
layer {
  name: "res2b_branch2a_relu"
  type: "ReLU"
  bottom: "res2b_branch2a"
  top: "res2b_branch2a"
}
layer {
  name: "res2b_branch2b"
  type: "Convolution"
  bottom: "res2b_branch2a"
  top: "res2b_branch2b"
  param {
    lr_mult: 1
    decay_mult: 1
  }
  convolution_param {
    num_output: 64
    bias_term: false
    pad: 1
    kernel_size: 3
    group: 1
    stride: 1
    weight_filler {
      type: "gaussian"
      std: 0.01
    }
    engine: DEFAULT
  }
}
layer {
  name: "bn2b_branch2b"
  type: "BatchNorm"
  bottom: "res2b_branch2b"
  top: "res2b_branch2b"
  batch_norm_param {
    moving_average_fraction: 0.999
    eps: 0.001
  }
}
layer {
  name: "scale2b_branch2b"
  type: "Scale"
  bottom: "res2b_branch2b"
  top: "res2b_branch2b"
  param {
    lr_mult: 1
    decay_mult: 0
  }
  param {
    lr_mult: 1
    decay_mult: 0
  }
  scale_param {
    filler {
      type: "constant"
      value: 1
    }
    bias_term: true
    bias_filler {
      type: "constant"
      value: 0
    }
  }
}
layer {
  name: "res2b_branch2b_relu"
  type: "ReLU"
  bottom: "res2b_branch2b"
  top: "res2b_branch2b"
}
layer {
  name: "res2b_branch2c"
  type: "Convolution"
  bottom: "res2b_branch2b"
  top: "res2b_branch2c"
  param {
    lr_mult: 1
    decay_mult: 1
  }
  convolution_param {
    num_output: 256
    bias_term: false
    pad: 0
    kernel_size: 1
    group: 1
    stride: 1
    weight_filler {
      type: "gaussian"
      std: 0.01
    }
    engine: DEFAULT
  }
}
layer {
  name: "bn2b_branch2c"
  type: "BatchNorm"
  bottom: "res2b_branch2c"
  top: "res2b_branch2c"
  batch_norm_param {
    moving_average_fraction: 0.999
    eps: 0.001
  }
}
layer {
  name: "scale2b_branch2c"
  type: "Scale"
  bottom: "res2b_branch2c"
  top: "res2b_branch2c"
  param {
    lr_mult: 1
    decay_mult: 0
  }
  param {
    lr_mult: 1
    decay_mult: 0
  }
  scale_param {
    filler {
      type: "constant"
      value: 1
    }
    bias_term: true
    bias_filler {
      type: "constant"
      value: 0
    }
  }
}
layer {
  name: "res2b"
  type: "Eltwise"
  bottom: "res2a"
  bottom: "res2b_branch2c"
  top: "res2b"
}
layer {
  name: "res2b_relu"
  type: "ReLU"
  bottom: "res2b"
  top: "res2b"
}
layer {
  name: "res2c_branch2a"
  type: "Convolution"
  bottom: "res2b"
  top: "res2c_branch2a"
  param {
    lr_mult: 1
    decay_mult: 1
  }
  convolution_param {
    num_output: 64
    bias_term: false
    pad: 0
    kernel_size: 1
    group: 1
    stride: 1
    weight_filler {
      type: "gaussian"
      std: 0.01
    }
    engine: DEFAULT
  }
}
layer {
  name: "bn2c_branch2a"
  type: "BatchNorm"
  bottom: "res2c_branch2a"
  top: "res2c_branch2a"
  batch_norm_param {
    moving_average_fraction: 0.999
    eps: 0.001
  }
}
layer {
  name: "scale2c_branch2a"
  type: "Scale"
  bottom: "res2c_branch2a"
  top: "res2c_branch2a"
  param {
    lr_mult: 1
    decay_mult: 0
  }
  param {
    lr_mult: 1
    decay_mult: 0
  }
  scale_param {
    filler {
      type: "constant"
      value: 1
    }
    bias_term: true
    bias_filler {
      type: "constant"
      value: 0
    }
  }
}
layer {
  name: "res2c_branch2a_relu"
  type: "ReLU"
  bottom: "res2c_branch2a"
  top: "res2c_branch2a"
}
layer {
  name: "res2c_branch2b"
  type: "Convolution"
  bottom: "res2c_branch2a"
  top: "res2c_branch2b"
  param {
    lr_mult: 1
    decay_mult: 1
  }
  convolution_param {
    num_output: 64
    bias_term: false
    pad: 1
    kernel_size: 3
    group: 1
    stride: 1
    weight_filler {
      type: "gaussian"
      std: 0.01
    }
    engine: DEFAULT
  }
}
layer {
  name: "bn2c_branch2b"
  type: "BatchNorm"
  bottom: "res2c_branch2b"
  top: "res2c_branch2b"
  batch_norm_param {
    moving_average_fraction: 0.999
    eps: 0.001
  }
}
layer {
  name: "scale2c_branch2b"
  type: "Scale"
  bottom: "res2c_branch2b"
  top: "res2c_branch2b"
  param {
    lr_mult: 1
    decay_mult: 0
  }
  param {
    lr_mult: 1
    decay_mult: 0
  }
  scale_param {
    filler {
      type: "constant"
      value: 1
    }
    bias_term: true
    bias_filler {
      type: "constant"
      value: 0
    }
  }
}
layer {
  name: "res2c_branch2b_relu"
  type: "ReLU"
  bottom: "res2c_branch2b"
  top: "res2c_branch2b"
}
layer {
  name: "res2c_branch2c"
  type: "Convolution"
  bottom: "res2c_branch2b"
  top: "res2c_branch2c"
  param {
    lr_mult: 1
    decay_mult: 1
  }
  convolution_param {
    num_output: 256
    bias_term: false
    pad: 0
    kernel_size: 1
    group: 1
    stride: 1
    weight_filler {
      type: "gaussian"
      std: 0.01
    }
    engine: DEFAULT
  }
}
layer {
  name: "bn2c_branch2c"
  type: "BatchNorm"
  bottom: "res2c_branch2c"
  top: "res2c_branch2c"
  batch_norm_param {
    moving_average_fraction: 0.999
    eps: 0.001
  }
}
layer {
  name: "scale2c_branch2c"
  type: "Scale"
  bottom: "res2c_branch2c"
  top: "res2c_branch2c"
  param {
    lr_mult: 1
    decay_mult: 0
  }
  param {
    lr_mult: 1
    decay_mult: 0
  }
  scale_param {
    filler {
      type: "constant"
      value: 1
    }
    bias_term: true
    bias_filler {
      type: "constant"
      value: 0
    }
  }
}
layer {
  name: "res2c"
  type: "Eltwise"
  bottom: "res2b"
  bottom: "res2c_branch2c"
  top: "res2c"
}
layer {
  name: "res2c_relu"
  type: "ReLU"
  bottom: "res2c"
  top: "res2c"
}
layer {
  name: "res3a_branch1"
  type: "Convolution"
  bottom: "res2c"
  top: "res3a_branch1"
  param {
    lr_mult: 1
    decay_mult: 1
  }
  convolution_param {
    num_output: 512
    bias_term: false
    pad: 0
    kernel_size: 1
    group: 1
    stride: 2
    weight_filler {
      type: "gaussian"
      std: 0.01
    }
    engine: DEFAULT
  }
}
layer {
  name: "bn3a_branch1"
  type: "BatchNorm"
  bottom: "res3a_branch1"
  top: "res3a_branch1"
  batch_norm_param {
    moving_average_fraction: 0.999
    eps: 0.001
  }
}
layer {
  name: "scale3a_branch1"
  type: "Scale"
  bottom: "res3a_branch1"
  top: "res3a_branch1"
  param {
    lr_mult: 1
    decay_mult: 0
  }
  param {
    lr_mult: 1
    decay_mult: 0
  }
  scale_param {
    filler {
      type: "constant"
      value: 1
    }
    bias_term: true
    bias_filler {
      type: "constant"
      value: 0
    }
  }
}
layer {
  name: "res3a_branch2a"
  type: "Convolution"
  bottom: "res2c"
  top: "res3a_branch2a"
  param {
    lr_mult: 1
    decay_mult: 1
  }
  convolution_param {
    num_output: 128
    bias_term: false
    pad: 0
    kernel_size: 1
    group: 1
    stride: 2
    weight_filler {
      type: "gaussian"
      std: 0.01
    }
    engine: DEFAULT
  }
}
layer {
  name: "bn3a_branch2a"
  type: "BatchNorm"
  bottom: "res3a_branch2a"
  top: "res3a_branch2a"
  batch_norm_param {
    moving_average_fraction: 0.999
    eps: 0.001
  }
}
layer {
  name: "scale3a_branch2a"
  type: "Scale"
  bottom: "res3a_branch2a"
  top: "res3a_branch2a"
  param {
    lr_mult: 1
    decay_mult: 0
  }
  param {
    lr_mult: 1
    decay_mult: 0
  }
  scale_param {
    filler {
      type: "constant"
      value: 1
    }
    bias_term: true
    bias_filler {
      type: "constant"
      value: 0
    }
  }
}
layer {
  name: "res3a_branch2a_relu"
  type: "ReLU"
  bottom: "res3a_branch2a"
  top: "res3a_branch2a"
}
layer {
  name: "res3a_branch2b"
  type: "Convolution"
  bottom: "res3a_branch2a"
  top: "res3a_branch2b"
  param {
    lr_mult: 1
    decay_mult: 1
  }
  convolution_param {
    num_output: 128
    bias_term: false
    pad: 1
    kernel_size: 3
    group: 1
    stride: 1
    weight_filler {
      type: "gaussian"
      std: 0.01
    }
    engine: DEFAULT
  }
}
layer {
  name: "bn3a_branch2b"
  type: "BatchNorm"
  bottom: "res3a_branch2b"
  top: "res3a_branch2b"
  batch_norm_param {
    moving_average_fraction: 0.999
    eps: 0.001
  }
}
layer {
  name: "scale3a_branch2b"
  type: "Scale"
  bottom: "res3a_branch2b"
  top: "res3a_branch2b"
  param {
    lr_mult: 1
    decay_mult: 0
  }
  param {
    lr_mult: 1
    decay_mult: 0
  }
  scale_param {
    filler {
      type: "constant"
      value: 1
    }
    bias_term: true
    bias_filler {
      type: "constant"
      value: 0
    }
  }
}
layer {
  name: "res3a_branch2b_relu"
  type: "ReLU"
  bottom: "res3a_branch2b"
  top: "res3a_branch2b"
}
layer {
  name: "res3a_branch2c"
  type: "Convolution"
  bottom: "res3a_branch2b"
  top: "res3a_branch2c"
  param {
    lr_mult: 1
    decay_mult: 1
  }
  convolution_param {
    num_output: 512
    bias_term: false
    pad: 0
    kernel_size: 1
    group: 1
    stride: 1
    weight_filler {
      type: "gaussian"
      std: 0.01
    }
    engine: DEFAULT
  }
}
layer {
  name: "bn3a_branch2c"
  type: "BatchNorm"
  bottom: "res3a_branch2c"
  top: "res3a_branch2c"
  batch_norm_param {
    moving_average_fraction: 0.999
    eps: 0.001
  }
}
layer {
  name: "scale3a_branch2c"
  type: "Scale"
  bottom: "res3a_branch2c"
  top: "res3a_branch2c"
  param {
    lr_mult: 1
    decay_mult: 0
  }
  param {
    lr_mult: 1
    decay_mult: 0
  }
  scale_param {
    filler {
      type: "constant"
      value: 1
    }
    bias_term: true
    bias_filler {
      type: "constant"
      value: 0
    }
  }
}
layer {
  name: "res3a"
  type: "Eltwise"
  bottom: "res3a_branch1"
  bottom: "res3a_branch2c"
  top: "res3a"
}
layer {
  name: "res3a_relu"
  type: "ReLU"
  bottom: "res3a"
  top: "res3a"
}
layer {
  name: "res3b1_branch2a"
  type: "Convolution"
  bottom: "res3a"
  top: "res3b1_branch2a"
  param {
    lr_mult: 1
    decay_mult: 1
  }
  convolution_param {
    num_output: 128
    bias_term: false
    pad: 0
    kernel_size: 1
    group: 1
    stride: 1
    weight_filler {
      type: "gaussian"
      std: 0.01
    }
    engine: DEFAULT
  }
}
layer {
  name: "bn3b1_branch2a"
  type: "BatchNorm"
  bottom: "res3b1_branch2a"
  top: "res3b1_branch2a"
  batch_norm_param {
    moving_average_fraction: 0.999
    eps: 0.001
  }
}
layer {
  name: "scale3b1_branch2a"
  type: "Scale"
  bottom: "res3b1_branch2a"
  top: "res3b1_branch2a"
  param {
    lr_mult: 1
    decay_mult: 0
  }
  param {
    lr_mult: 1
    decay_mult: 0
  }
  scale_param {
    filler {
      type: "constant"
      value: 1
    }
    bias_term: true
    bias_filler {
      type: "constant"
      value: 0
    }
  }
}
layer {
  name: "res3b1_branch2a_relu"
  type: "ReLU"
  bottom: "res3b1_branch2a"
  top: "res3b1_branch2a"
}
layer {
  name: "res3b1_branch2b"
  type: "Convolution"
  bottom: "res3b1_branch2a"
  top: "res3b1_branch2b"
  param {
    lr_mult: 1
    decay_mult: 1
  }
  convolution_param {
    num_output: 128
    bias_term: false
    pad: 1
    kernel_size: 3
    group: 1
    stride: 1
    weight_filler {
      type: "gaussian"
      std: 0.01
    }
    engine: DEFAULT
  }
}
layer {
  name: "bn3b1_branch2b"
  type: "BatchNorm"
  bottom: "res3b1_branch2b"
  top: "res3b1_branch2b"
  batch_norm_param {
    moving_average_fraction: 0.999
    eps: 0.001
  }
}
layer {
  name: "scale3b1_branch2b"
  type: "Scale"
  bottom: "res3b1_branch2b"
  top: "res3b1_branch2b"
  param {
    lr_mult: 1
    decay_mult: 0
  }
  param {
    lr_mult: 1
    decay_mult: 0
  }
  scale_param {
    filler {
      type: "constant"
      value: 1
    }
    bias_term: true
    bias_filler {
      type: "constant"
      value: 0
    }
  }
}
layer {
  name: "res3b1_branch2b_relu"
  type: "ReLU"
  bottom: "res3b1_branch2b"
  top: "res3b1_branch2b"
}
layer {
  name: "res3b1_branch2c"
  type: "Convolution"
  bottom: "res3b1_branch2b"
  top: "res3b1_branch2c"
  param {
    lr_mult: 1
    decay_mult: 1
  }
  convolution_param {
    num_output: 512
    bias_term: false
    pad: 0
    kernel_size: 1
    group: 1
    stride: 1
    weight_filler {
      type: "gaussian"
      std: 0.01
    }
    engine: DEFAULT
  }
}
layer {
  name: "bn3b1_branch2c"
  type: "BatchNorm"
  bottom: "res3b1_branch2c"
  top: "res3b1_branch2c"
  batch_norm_param {
    moving_average_fraction: 0.999
    eps: 0.001
  }
}
layer {
  name: "scale3b1_branch2c"
  type: "Scale"
  bottom: "res3b1_branch2c"
  top: "res3b1_branch2c"
  param {
    lr_mult: 1
    decay_mult: 0
  }
  param {
    lr_mult: 1
    decay_mult: 0
  }
  scale_param {
    filler {
      type: "constant"
      value: 1
    }
    bias_term: true
    bias_filler {
      type: "constant"
      value: 0
    }
  }
}
layer {
  name: "res3b1"
  type: "Eltwise"
  bottom: "res3a"
  bottom: "res3b1_branch2c"
  top: "res3b1"
}
layer {
  name: "res3b1_relu"
  type: "ReLU"
  bottom: "res3b1"
  top: "res3b1"
}
layer {
  name: "res3b2_branch2a"
  type: "Convolution"
  bottom: "res3b1"
  top: "res3b2_branch2a"
  param {
    lr_mult: 1
    decay_mult: 1
  }
  convolution_param {
    num_output: 128
    bias_term: false
    pad: 0
    kernel_size: 1
    group: 1
    stride: 1
    weight_filler {
      type: "gaussian"
      std: 0.01
    }
    engine: DEFAULT
  }
}
layer {
  name: "bn3b2_branch2a"
  type: "BatchNorm"
  bottom: "res3b2_branch2a"
  top: "res3b2_branch2a"
  batch_norm_param {
    moving_average_fraction: 0.999
    eps: 0.001
  }
}
layer {
  name: "scale3b2_branch2a"
  type: "Scale"
  bottom: "res3b2_branch2a"
  top: "res3b2_branch2a"
  param {
    lr_mult: 1
    decay_mult: 0
  }
  param {
    lr_mult: 1
    decay_mult: 0
  }
  scale_param {
    filler {
      type: "constant"
      value: 1
    }
    bias_term: true
    bias_filler {
      type: "constant"
      value: 0
    }
  }
}
layer {
  name: "res3b2_branch2a_relu"
  type: "ReLU"
  bottom: "res3b2_branch2a"
  top: "res3b2_branch2a"
}
layer {
  name: "res3b2_branch2b"
  type: "Convolution"
  bottom: "res3b2_branch2a"
  top: "res3b2_branch2b"
  param {
    lr_mult: 1
    decay_mult: 1
  }
  convolution_param {
    num_output: 128
    bias_term: false
    pad: 1
    kernel_size: 3
    group: 1
    stride: 1
    weight_filler {
      type: "gaussian"
      std: 0.01
    }
    engine: DEFAULT
  }
}
layer {
  name: "bn3b2_branch2b"
  type: "BatchNorm"
  bottom: "res3b2_branch2b"
  top: "res3b2_branch2b"
  batch_norm_param {
    moving_average_fraction: 0.999
    eps: 0.001
  }
}
layer {
  name: "scale3b2_branch2b"
  type: "Scale"
  bottom: "res3b2_branch2b"
  top: "res3b2_branch2b"
  param {
    lr_mult: 1
    decay_mult: 0
  }
  param {
    lr_mult: 1
    decay_mult: 0
  }
  scale_param {
    filler {
      type: "constant"
      value: 1
    }
    bias_term: true
    bias_filler {
      type: "constant"
      value: 0
    }
  }
}
layer {
  name: "res3b2_branch2b_relu"
  type: "ReLU"
  bottom: "res3b2_branch2b"
  top: "res3b2_branch2b"
}
layer {
  name: "res3b2_branch2c"
  type: "Convolution"
  bottom: "res3b2_branch2b"
  top: "res3b2_branch2c"
  param {
    lr_mult: 1
    decay_mult: 1
  }
  convolution_param {
    num_output: 512
    bias_term: false
    pad: 0
    kernel_size: 1
    group: 1
    stride: 1
    weight_filler {
      type: "gaussian"
      std: 0.01
    }
    engine: DEFAULT
  }
}
layer {
  name: "bn3b2_branch2c"
  type: "BatchNorm"
  bottom: "res3b2_branch2c"
  top: "res3b2_branch2c"
  batch_norm_param {
    moving_average_fraction: 0.999
    eps: 0.001
  }
}
layer {
  name: "scale3b2_branch2c"
  type: "Scale"
  bottom: "res3b2_branch2c"
  top: "res3b2_branch2c"
  param {
    lr_mult: 1
    decay_mult: 0
  }
  param {
    lr_mult: 1
    decay_mult: 0
  }
  scale_param {
    filler {
      type: "constant"
      value: 1
    }
    bias_term: true
    bias_filler {
      type: "constant"
      value: 0
    }
  }
}
layer {
  name: "res3b2"
  type: "Eltwise"
  bottom: "res3b1"
  bottom: "res3b2_branch2c"
  top: "res3b2"
}
layer {
  name: "res3b2_relu"
  type: "ReLU"
  bottom: "res3b2"
  top: "res3b2"
}
layer {
  name: "res3b3_branch2a"
  type: "Convolution"
  bottom: "res3b2"
  top: "res3b3_branch2a"
  param {
    lr_mult: 1
    decay_mult: 1
  }
  convolution_param {
    num_output: 128
    bias_term: false
    pad: 0
    kernel_size: 1
    group: 1
    stride: 1
    weight_filler {
      type: "gaussian"
      std: 0.01
    }
    engine: DEFAULT
  }
}
layer {
  name: "bn3b3_branch2a"
  type: "BatchNorm"
  bottom: "res3b3_branch2a"
  top: "res3b3_branch2a"
  batch_norm_param {
    moving_average_fraction: 0.999
    eps: 0.001
  }
}
layer {
  name: "scale3b3_branch2a"
  type: "Scale"
  bottom: "res3b3_branch2a"
  top: "res3b3_branch2a"
  param {
    lr_mult: 1
    decay_mult: 0
  }
  param {
    lr_mult: 1
    decay_mult: 0
  }
  scale_param {
    filler {
      type: "constant"
      value: 1
    }
    bias_term: true
    bias_filler {
      type: "constant"
      value: 0
    }
  }
}
layer {
  name: "res3b3_branch2a_relu"
  type: "ReLU"
  bottom: "res3b3_branch2a"
  top: "res3b3_branch2a"
}
layer {
  name: "res3b3_branch2b"
  type: "Convolution"
  bottom: "res3b3_branch2a"
  top: "res3b3_branch2b"
  param {
    lr_mult: 1
    decay_mult: 1
  }
  convolution_param {
    num_output: 128
    bias_term: false
    pad: 1
    kernel_size: 3
    group: 1
    stride: 1
    weight_filler {
      type: "gaussian"
      std: 0.01
    }
    engine: DEFAULT
  }
}
layer {
  name: "bn3b3_branch2b"
  type: "BatchNorm"
  bottom: "res3b3_branch2b"
  top: "res3b3_branch2b"
  batch_norm_param {
    moving_average_fraction: 0.999
    eps: 0.001
  }
}
layer {
  name: "scale3b3_branch2b"
  type: "Scale"
  bottom: "res3b3_branch2b"
  top: "res3b3_branch2b"
  param {
    lr_mult: 1
    decay_mult: 0
  }
  param {
    lr_mult: 1
    decay_mult: 0
  }
  scale_param {
    filler {
      type: "constant"
      value: 1
    }
    bias_term: true
    bias_filler {
      type: "constant"
      value: 0
    }
  }
}
layer {
  name: "res3b3_branch2b_relu"
  type: "ReLU"
  bottom: "res3b3_branch2b"
  top: "res3b3_branch2b"
}
layer {
  name: "res3b3_branch2c"
  type: "Convolution"
  bottom: "res3b3_branch2b"
  top: "res3b3_branch2c"
  param {
    lr_mult: 1
    decay_mult: 1
  }
  convolution_param {
    num_output: 512
    bias_term: false
    pad: 0
    kernel_size: 1
    group: 1
    stride: 1
    weight_filler {
      type: "gaussian"
      std: 0.01
    }
    engine: DEFAULT
  }
}
layer {
  name: "bn3b3_branch2c"
  type: "BatchNorm"
  bottom: "res3b3_branch2c"
  top: "res3b3_branch2c"
  batch_norm_param {
    moving_average_fraction: 0.999
    eps: 0.001
  }
}
layer {
  name: "scale3b3_branch2c"
  type: "Scale"
  bottom: "res3b3_branch2c"
  top: "res3b3_branch2c"
  param {
    lr_mult: 1
    decay_mult: 0
  }
  param {
    lr_mult: 1
    decay_mult: 0
  }
  scale_param {
    filler {
      type: "constant"
      value: 1
    }
    bias_term: true
    bias_filler {
      type: "constant"
      value: 0
    }
  }
}
layer {
  name: "res3b3"
  type: "Eltwise"
  bottom: "res3b2"
  bottom: "res3b3_branch2c"
  top: "res3b3"
}
layer {
  name: "res3b3_relu"
  type: "ReLU"
  bottom: "res3b3"
  top: "res3b3"
}
layer {
  name: "res4a_branch1"
  type: "Convolution"
  bottom: "res3b3"
  top: "res4a_branch1"
  param {
    lr_mult: 1
    decay_mult: 1
  }
  convolution_param {
    num_output: 1024
    bias_term: false
    pad: 0
    kernel_size: 1
    group: 1
    stride: 2
    weight_filler {
      type: "gaussian"
      std: 0.01
    }
    engine: DEFAULT
  }
}
layer {
  name: "bn4a_branch1"
  type: "BatchNorm"
  bottom: "res4a_branch1"
  top: "res4a_branch1"
  batch_norm_param {
    moving_average_fraction: 0.999
    eps: 0.001
  }
}
layer {
  name: "scale4a_branch1"
  type: "Scale"
  bottom: "res4a_branch1"
  top: "res4a_branch1"
  param {
    lr_mult: 1
    decay_mult: 0
  }
  param {
    lr_mult: 1
    decay_mult: 0
  }
  scale_param {
    filler {
      type: "constant"
      value: 1
    }
    bias_term: true
    bias_filler {
      type: "constant"
      value: 0
    }
  }
}
layer {
  name: "res4a_branch2a"
  type: "Convolution"
  bottom: "res3b3"
  top: "res4a_branch2a"
  param {
    lr_mult: 1
    decay_mult: 1
  }
  convolution_param {
    num_output: 256
    bias_term: false
    pad: 0
    kernel_size: 1
    group: 1
    stride: 2
    weight_filler {
      type: "gaussian"
      std: 0.01
    }
    engine: DEFAULT
  }
}
layer {
  name: "bn4a_branch2a"
  type: "BatchNorm"
  bottom: "res4a_branch2a"
  top: "res4a_branch2a"
  batch_norm_param {
    moving_average_fraction: 0.999
    eps: 0.001
  }
}
layer {
  name: "scale4a_branch2a"
  type: "Scale"
  bottom: "res4a_branch2a"
  top: "res4a_branch2a"
  param {
    lr_mult: 1
    decay_mult: 0
  }
  param {
    lr_mult: 1
    decay_mult: 0
  }
  scale_param {
    filler {
      type: "constant"
      value: 1
    }
    bias_term: true
    bias_filler {
      type: "constant"
      value: 0
    }
  }
}
layer {
  name: "res4a_branch2a_relu"
  type: "ReLU"
  bottom: "res4a_branch2a"
  top: "res4a_branch2a"
}
layer {
  name: "res4a_branch2b"
  type: "Convolution"
  bottom: "res4a_branch2a"
  top: "res4a_branch2b"
  param {
    lr_mult: 1
    decay_mult: 1
  }
  convolution_param {
    num_output: 256
    bias_term: false
    pad: 1
    kernel_size: 3
    group: 1
    stride: 1
    weight_filler {
      type: "gaussian"
      std: 0.01
    }
    engine: DEFAULT
  }
}
layer {
  name: "bn4a_branch2b"
  type: "BatchNorm"
  bottom: "res4a_branch2b"
  top: "res4a_branch2b"
  batch_norm_param {
    moving_average_fraction: 0.999
    eps: 0.001
  }
}
layer {
  name: "scale4a_branch2b"
  type: "Scale"
  bottom: "res4a_branch2b"
  top: "res4a_branch2b"
  param {
    lr_mult: 1
    decay_mult: 0
  }
  param {
    lr_mult: 1
    decay_mult: 0
  }
  scale_param {
    filler {
      type: "constant"
      value: 1
    }
    bias_term: true
    bias_filler {
      type: "constant"
      value: 0
    }
  }
}
layer {
  name: "res4a_branch2b_relu"
  type: "ReLU"
  bottom: "res4a_branch2b"
  top: "res4a_branch2b"
}
layer {
  name: "res4a_branch2c"
  type: "Convolution"
  bott
I0711 10:14:37.157902 20510 layer_factory.hpp:77] Creating layer data
I0711 10:14:37.158027 20510 net.cpp:100] Creating Layer data
I0711 10:14:37.158037 20510 net.cpp:408] data -> data
I0711 10:14:37.158061 20510 net.cpp:408] data -> label
I0711 10:14:37.159215 20516 db_lmdb.cpp:35] Opened lmdb examples/VOC0712/VOC0712_trainval_lmdb
I0711 10:14:37.173027 20510 annotated_data_layer.cpp:62] output data size: 16,3,300,300
I0711 10:14:37.198045 20510 net.cpp:150] Setting up data
I0711 10:14:37.198067 20510 net.cpp:157] Top shape: 16 3 300 300 (4320000)
I0711 10:14:37.198073 20510 net.cpp:157] Top shape: 1 1 2 8 (16)
I0711 10:14:37.198076 20510 net.cpp:165] Memory required for data: 17280064
I0711 10:14:37.198086 20510 layer_factory.hpp:77] Creating layer data_data_0_split
I0711 10:14:37.198107 20510 net.cpp:100] Creating Layer data_data_0_split
I0711 10:14:37.198113 20510 net.cpp:434] data_data_0_split <- data
I0711 10:14:37.198130 20510 net.cpp:408] data_data_0_split -> data_data_0_split_0
I0711 10:14:37.198145 20510 net.cpp:408] data_data_0_split -> data_data_0_split_1
I0711 10:14:37.198154 20510 net.cpp:408] data_data_0_split -> data_data_0_split_2
I0711 10:14:37.198164 20510 net.cpp:408] data_data_0_split -> data_data_0_split_3
I0711 10:14:37.198171 20510 net.cpp:408] data_data_0_split -> data_data_0_split_4
I0711 10:14:37.198179 20510 net.cpp:408] data_data_0_split -> data_data_0_split_5
I0711 10:14:37.198190 20510 net.cpp:408] data_data_0_split -> data_data_0_split_6
I0711 10:14:37.198274 20510 net.cpp:150] Setting up data_data_0_split
I0711 10:14:37.198282 20510 net.cpp:157] Top shape: 16 3 300 300 (4320000)
I0711 10:14:37.198299 20510 net.cpp:157] Top shape: 16 3 300 300 (4320000)
I0711 10:14:37.198305 20510 net.cpp:157] Top shape: 16 3 300 300 (4320000)
I0711 10:14:37.198310 20510 net.cpp:157] Top shape: 16 3 300 300 (4320000)
I0711 10:14:37.198315 20510 net.cpp:157] Top shape: 16 3 300 300 (4320000)
I0711 10:14:37.198320 20510 net.cpp:157] Top shape: 16 3 300 300 (4320000)
I0711 10:14:37.198326 20510 net.cpp:157] Top shape: 16 3 300 300 (4320000)
I0711 10:14:37.198330 20510 net.cpp:165] Memory required for data: 138240064
I0711 10:14:37.198333 20510 layer_factory.hpp:77] Creating layer conv1
I0711 10:14:37.198350 20510 net.cpp:100] Creating Layer conv1
I0711 10:14:37.198354 20510 net.cpp:434] conv1 <- data_data_0_split_0
I0711 10:14:37.198362 20510 net.cpp:408] conv1 -> conv1
I0711 10:14:37.412690 20510 net.cpp:150] Setting up conv1
I0711 10:14:37.412714 20510 net.cpp:157] Top shape: 16 64 150 150 (23040000)
I0711 10:14:37.412719 20510 net.cpp:165] Memory required for data: 230400064
I0711 10:14:37.412734 20510 layer_factory.hpp:77] Creating layer bn_conv1
I0711 10:14:37.412748 20510 net.cpp:100] Creating Layer bn_conv1
I0711 10:14:37.412755 20510 net.cpp:434] bn_conv1 <- conv1
I0711 10:14:37.412770 20510 net.cpp:395] bn_conv1 -> conv1 (in-place)
I0711 10:14:37.413347 20510 net.cpp:150] Setting up bn_conv1
I0711 10:14:37.413358 20510 net.cpp:157] Top shape: 16 64 150 150 (23040000)
I0711 10:14:37.413362 20510 net.cpp:165] Memory required for data: 322560064
I0711 10:14:37.413375 20510 layer_factory.hpp:77] Creating layer scale_conv1
I0711 10:14:37.413389 20510 net.cpp:100] Creating Layer scale_conv1
I0711 10:14:37.413394 20510 net.cpp:434] scale_conv1 <- conv1
I0711 10:14:37.413403 20510 net.cpp:395] scale_conv1 -> conv1 (in-place)
I0711 10:14:37.413447 20510 layer_factory.hpp:77] Creating layer scale_conv1
I0711 10:14:37.413573 20510 net.cpp:150] Setting up scale_conv1
I0711 10:14:37.413583 20510 net.cpp:157] Top shape: 16 64 150 150 (23040000)
I0711 10:14:37.413588 20510 net.cpp:165] Memory required for data: 414720064
I0711 10:14:37.413597 20510 layer_factory.hpp:77] Creating layer conv1_relu
I0711 10:14:37.413604 20510 net.cpp:100] Creating Layer conv1_relu
I0711 10:14:37.413609 20510 net.cpp:434] conv1_relu <- conv1
I0711 10:14:37.413614 20510 net.cpp:395] conv1_relu -> conv1 (in-place)
I0711 10:14:37.413764 20510 net.cpp:150] Setting up conv1_relu
I0711 10:14:37.413774 20510 net.cpp:157] Top shape: 16 64 150 150 (23040000)
I0711 10:14:37.413776 20510 net.cpp:165] Memory required for data: 506880064
I0711 10:14:37.413779 20510 layer_factory.hpp:77] Creating layer pool1
I0711 10:14:37.413789 20510 net.cpp:100] Creating Layer pool1
I0711 10:14:37.413794 20510 net.cpp:434] pool1 <- conv1
I0711 10:14:37.413800 20510 net.cpp:408] pool1 -> pool1
I0711 10:14:37.413844 20510 net.cpp:150] Setting up pool1
I0711 10:14:37.413851 20510 net.cpp:157] Top shape: 16 64 75 75 (5760000)
I0711 10:14:37.413856 20510 net.cpp:165] Memory required for data: 529920064
I0711 10:14:37.413859 20510 layer_factory.hpp:77] Creating layer pool1_pool1_0_split
I0711 10:14:37.413866 20510 net.cpp:100] Creating Layer pool1_pool1_0_split
I0711 10:14:37.413871 20510 net.cpp:434] pool1_pool1_0_split <- pool1
I0711 10:14:37.413877 20510 net.cpp:408] pool1_pool1_0_split -> pool1_pool1_0_split_0
I0711 10:14:37.413885 20510 net.cpp:408] pool1_pool1_0_split -> pool1_pool1_0_split_1
I0711 10:14:37.413918 20510 net.cpp:150] Setting up pool1_pool1_0_split
I0711 10:14:37.413924 20510 net.cpp:157] Top shape: 16 64 75 75 (5760000)
I0711 10:14:37.413930 20510 net.cpp:157] Top shape: 16 64 75 75 (5760000)
I0711 10:14:37.413933 20510 net.cpp:165] Memory required for data: 576000064
I0711 10:14:37.413938 20510 layer_factory.hpp:77] Creating layer res2a_branch1
I0711 10:14:37.413949 20510 net.cpp:100] Creating Layer res2a_branch1
I0711 10:14:37.413954 20510 net.cpp:434] res2a_branch1 <- pool1_pool1_0_split_0
I0711 10:14:37.413961 20510 net.cpp:408] res2a_branch1 -> res2a_branch1
I0711 10:14:37.418608 20510 net.cpp:150] Setting up res2a_branch1
I0711 10:14:37.418632 20510 net.cpp:157] Top shape: 16 256 75 75 (23040000)
I0711 10:14:37.418637 20510 net.cpp:165] Memory required for data: 668160064
I0711 10:14:37.418642 20510 layer_factory.hpp:77] Creating layer bn2a_branch1
I0711 10:14:37.418661 20510 net.cpp:100] Creating Layer bn2a_branch1
I0711 10:14:37.418666 20510 net.cpp:434] bn2a_branch1 <- res2a_branch1
I0711 10:14:37.418673 20510 net.cpp:395] bn2a_branch1 -> res2a_branch1 (in-place)
I0711 10:14:37.418851 20510 net.cpp:150] Setting up bn2a_branch1
I0711 10:14:37.418861 20510 net.cpp:157] Top shape: 16 256 75 75 (23040000)
I0711 10:14:37.418864 20510 net.cpp:165] Memory required for data: 760320064
I0711 10:14:37.418876 20510 layer_factory.hpp:77] Creating layer scale2a_branch1
I0711 10:14:37.418885 20510 net.cpp:100] Creating Layer scale2a_branch1
I0711 10:14:37.418890 20510 net.cpp:434] scale2a_branch1 <- res2a_branch1
I0711 10:14:37.418896 20510 net.cpp:395] scale2a_branch1 -> res2a_branch1 (in-place)
I0711 10:14:37.418936 20510 layer_factory.hpp:77] Creating layer scale2a_branch1
I0711 10:14:37.419028 20510 net.cpp:150] Setting up scale2a_branch1
I0711 10:14:37.419036 20510 net.cpp:157] Top shape: 16 256 75 75 (23040000)
I0711 10:14:37.419039 20510 net.cpp:165] Memory required for data: 852480064
I0711 10:14:37.419046 20510 layer_factory.hpp:77] Creating layer res2a_branch2a
I0711 10:14:37.419056 20510 net.cpp:100] Creating Layer res2a_branch2a
I0711 10:14:37.419061 20510 net.cpp:434] res2a_branch2a <- pool1_pool1_0_split_1
I0711 10:14:37.419068 20510 net.cpp:408] res2a_branch2a -> res2a_branch2a
I0711 10:14:37.420907 20510 net.cpp:150] Setting up res2a_branch2a
I0711 10:14:37.420919 20510 net.cpp:157] Top shape: 16 64 75 75 (5760000)
I0711 10:14:37.420922 20510 net.cpp:165] Memory required for data: 875520064
I0711 10:14:37.420928 20510 layer_factory.hpp:77] Creating layer bn2a_branch2a
I0711 10:14:37.420948 20510 net.cpp:100] Creating Layer bn2a_branch2a
I0711 10:14:37.420953 20510 net.cpp:434] bn2a_branch2a <- res2a_branch2a
I0711 10:14:37.420959 20510 net.cpp:395] bn2a_branch2a -> res2a_branch2a (in-place)
I0711 10:14:37.421119 20510 net.cpp:150] Setting up bn2a_branch2a
I0711 10:14:37.421126 20510 net.cpp:157] Top shape: 16 64 75 75 (5760000)
I0711 10:14:37.421130 20510 net.cpp:165] Memory required for data: 898560064
I0711 10:14:37.421139 20510 layer_factory.hpp:77] Creating layer scale2a_branch2a
I0711 10:14:37.421147 20510 net.cpp:100] Creating Layer scale2a_branch2a
I0711 10:14:37.421152 20510 net.cpp:434] scale2a_branch2a <- res2a_branch2a
I0711 10:14:37.421159 20510 net.cpp:395] scale2a_branch2a -> res2a_branch2a (in-place)
I0711 10:14:37.421196 20510 layer_factory.hpp:77] Creating layer scale2a_branch2a
I0711 10:14:37.421296 20510 net.cpp:150] Setting up scale2a_branch2a
I0711 10:14:37.421303 20510 net.cpp:157] Top shape: 16 64 75 75 (5760000)
I0711 10:14:37.421308 20510 net.cpp:165] Memory required for data: 921600064
I0711 10:14:37.421317 20510 layer_factory.hpp:77] Creating layer res2a_branch2a_relu
I0711 10:14:37.421324 20510 net.cpp:100] Creating Layer res2a_branch2a_relu
I0711 10:14:37.421329 20510 net.cpp:434] res2a_branch2a_relu <- res2a_branch2a
I0711 10:14:37.421335 20510 net.cpp:395] res2a_branch2a_relu -> res2a_branch2a (in-place)
I0711 10:14:37.421475 20510 net.cpp:150] Setting up res2a_branch2a_relu
I0711 10:14:37.421484 20510 net.cpp:157] Top shape: 16 64 75 75 (5760000)
I0711 10:14:37.421488 20510 net.cpp:165] Memory required for data: 944640064
I0711 10:14:37.421490 20510 layer_factory.hpp:77] Creating layer res2a_branch2b
I0711 10:14:37.421500 20510 net.cpp:100] Creating Layer res2a_branch2b
I0711 10:14:37.421504 20510 net.cpp:434] res2a_branch2b <- res2a_branch2a
I0711 10:14:37.421510 20510 net.cpp:408] res2a_branch2b -> res2a_branch2b
I0711 10:14:37.423813 20510 net.cpp:150] Setting up res2a_branch2b
I0711 10:14:37.423843 20510 net.cpp:157] Top shape: 16 64 75 75 (5760000)
I0711 10:14:37.423856 20510 net.cpp:165] Memory required for data: 967680064
I0711 10:14:37.423871 20510 layer_factory.hpp:77] Creating layer bn2a_branch2b
I0711 10:14:37.423900 20510 net.cpp:100] Creating Layer bn2a_branch2b
I0711 10:14:37.423913 20510 net.cpp:434] bn2a_branch2b <- res2a_branch2b
I0711 10:14:37.423928 20510 net.cpp:395] bn2a_branch2b -> res2a_branch2b (in-place)
I0711 10:14:37.424100 20510 net.cpp:150] Setting up bn2a_branch2b
I0711 10:14:37.424108 20510 net.cpp:157] Top shape: 16 64 75 75 (5760000)
I0711 10:14:37.424111 20510 net.cpp:165] Memory required for data: 990720064
I0711 10:14:37.424120 20510 layer_factory.hpp:77] Creating layer scale2a_branch2b
I0711 10:14:37.424129 20510 net.cpp:100] Creating Layer scale2a_branch2b
I0711 10:14:37.424135 20510 net.cpp:434] scale2a_branch2b <- res2a_branch2b
I0711 10:14:37.424142 20510 net.cpp:395] scale2a_branch2b -> res2a_branch2b (in-place)
I0711 10:14:37.424180 20510 layer_factory.hpp:77] Creating layer scale2a_branch2b
I0711 10:14:37.424280 20510 net.cpp:150] Setting up scale2a_branch2b
I0711 10:14:37.424288 20510 net.cpp:157] Top shape: 16 64 75 75 (5760000)
I0711 10:14:37.424290 20510 net.cpp:165] Memory required for data: 1013760064
I0711 10:14:37.424298 20510 layer_factory.hpp:77] Creating layer res2a_branch2b_relu
I0711 10:14:37.424305 20510 net.cpp:100] Creating Layer res2a_branch2b_relu
I0711 10:14:37.424310 20510 net.cpp:434] res2a_branch2b_relu <- res2a_branch2b
I0711 10:14:37.424315 20510 net.cpp:395] res2a_branch2b_relu -> res2a_branch2b (in-place)
I0711 10:14:37.424988 20510 net.cpp:150] Setting up res2a_branch2b_relu
I0711 10:14:37.425002 20510 net.cpp:157] Top shape: 16 64 75 75 (5760000)
I0711 10:14:37.425005 20510 net.cpp:165] Memory required for data: 1036800064
I0711 10:14:37.425009 20510 layer_factory.hpp:77] Creating layer res2a_branch2c
I0711 10:14:37.425019 20510 net.cpp:100] Creating Layer res2a_branch2c
I0711 10:14:37.425022 20510 net.cpp:434] res2a_branch2c <- res2a_branch2b
I0711 10:14:37.425029 20510 net.cpp:408] res2a_branch2c -> res2a_branch2c
I0711 10:14:37.426569 20510 net.cpp:150] Setting up res2a_branch2c
I0711 10:14:37.426584 20510 net.cpp:157] Top shape: 16 256 75 75 (23040000)
I0711 10:14:37.426586 20510 net.cpp:165] Memory required for data: 1128960064
I0711 10:14:37.426599 20510 layer_factory.hpp:77] Creating layer bn2a_branch2c
I0711 10:14:37.426606 20510 net.cpp:100] Creating Layer bn2a_branch2c
I0711 10:14:37.426611 20510 net.cpp:434] bn2a_branch2c <- res2a_branch2c
I0711 10:14:37.426617 20510 net.cpp:395] bn2a_branch2c -> res2a_branch2c (in-place)
I0711 10:14:37.426838 20510 net.cpp:150] Setting up bn2a_branch2c
I0711 10:14:37.426848 20510 net.cpp:157] Top shape: 16 256 75 75 (23040000)
I0711 10:14:37.426851 20510 net.cpp:165] Memory required for data: 1221120064
I0711 10:14:37.426859 20510 layer_factory.hpp:77] Creating layer scale2a_branch2c
I0711 10:14:37.426868 20510 net.cpp:100] Creating Layer scale2a_branch2c
I0711 10:14:37.426872 20510 net.cpp:434] scale2a_branch2c <- res2a_branch2c
I0711 10:14:37.426878 20510 net.cpp:395] scale2a_branch2c -> res2a_branch2c (in-place)
I0711 10:14:37.426921 20510 layer_factory.hpp:77] Creating layer scale2a_branch2c
I0711 10:14:37.427053 20510 net.cpp:150] Setting up scale2a_branch2c
I0711 10:14:37.427064 20510 net.cpp:157] Top shape: 16 256 75 75 (23040000)
I0711 10:14:37.427070 20510 net.cpp:165] Memory required for data: 1313280064
I0711 10:14:37.427078 20510 layer_factory.hpp:77] Creating layer res2a
I0711 10:14:37.427086 20510 net.cpp:100] Creating Layer res2a
I0711 10:14:37.427091 20510 net.cpp:434] res2a <- res2a_branch1
I0711 10:14:37.427095 20510 net.cpp:434] res2a <- res2a_branch2c
I0711 10:14:37.427101 20510 net.cpp:408] res2a -> res2a
I0711 10:14:37.427134 20510 net.cpp:150] Setting up res2a
I0711 10:14:37.427140 20510 net.cpp:157] Top shape: 16 256 75 75 (23040000)
I0711 10:14:37.427144 20510 net.cpp:165] Memory required for data: 1405440064
I0711 10:14:37.427147 20510 layer_factory.hpp:77] Creating layer res2a_relu
I0711 10:14:37.427155 20510 net.cpp:100] Creating Layer res2a_relu
I0711 10:14:37.427157 20510 net.cpp:434] res2a_relu <- res2a
I0711 10:14:37.427165 20510 net.cpp:395] res2a_relu -> res2a (in-place)
I0711 10:14:37.427886 20510 net.cpp:150] Setting up res2a_relu
I0711 10:14:37.427898 20510 net.cpp:157] Top shape: 16 256 75 75 (23040000)
I0711 10:14:37.427902 20510 net.cpp:165] Memory required for data: 1497600064
I0711 10:14:37.427907 20510 layer_factory.hpp:77] Creating layer res2a_res2a_relu_0_split
I0711 10:14:37.427914 20510 net.cpp:100] Creating Layer res2a_res2a_relu_0_split
I0711 10:14:37.427919 20510 net.cpp:434] res2a_res2a_relu_0_split <- res2a
I0711 10:14:37.427925 20510 net.cpp:408] res2a_res2a_relu_0_split -> res2a_res2a_relu_0_split_0
I0711 10:14:37.427933 20510 net.cpp:408] res2a_res2a_relu_0_split -> res2a_res2a_relu_0_split_1
I0711 10:14:37.427989 20510 net.cpp:150] Setting up res2a_res2a_relu_0_split
I0711 10:14:37.427996 20510 net.cpp:157] Top shape: 16 256 75 75 (23040000)
I0711 10:14:37.428000 20510 net.cpp:157] Top shape: 16 256 75 75 (23040000)
I0711 10:14:37.428005 20510 net.cpp:165] Memory required for data: 1681920064
I0711 10:14:37.428009 20510 layer_factory.hpp:77] Creating layer res2b_branch2a
I0711 10:14:37.428017 20510 net.cpp:100] Creating Layer res2b_branch2a
I0711 10:14:37.428022 20510 net.cpp:434] res2b_branch2a <- res2a_res2a_relu_0_split_0
I0711 10:14:37.428028 20510 net.cpp:408] res2b_branch2a -> res2b_branch2a
I0711 10:14:37.429692 20510 net.cpp:150] Setting up res2b_branch2a
I0711 10:14:37.429702 20510 net.cpp:157] Top shape: 16 64 75 75 (5760000)
I0711 10:14:37.429704 20510 net.cpp:165] Memory required for data: 1704960064
I0711 10:14:37.429708 20510 layer_factory.hpp:77] Creating layer bn2b_branch2a
I0711 10:14:37.429713 20510 net.cpp:100] Creating Layer bn2b_branch2a
I0711 10:14:37.429718 20510 net.cpp:434] bn2b_branch2a <- res2b_branch2a
I0711 10:14:37.429721 20510 net.cpp:395] bn2b_branch2a -> res2b_branch2a (in-place)
I0711 10:14:37.429875 20510 net.cpp:150] Setting up bn2b_branch2a
I0711 10:14:37.429880 20510 net.cpp:157] Top shape: 16 64 75 75 (5760000)
I0711 10:14:37.429883 20510 net.cpp:165] Memory required for data: 1728000064
I0711 10:14:37.429890 20510 layer_factory.hpp:77] Creating layer scale2b_branch2a
I0711 10:14:37.429898 20510 net.cpp:100] Creating Layer scale2b_branch2a
I0711 10:14:37.429899 20510 net.cpp:434] scale2b_branch2a <- res2b_branch2a
I0711 10:14:37.429903 20510 net.cpp:395] scale2b_branch2a -> res2b_branch2a (in-place)
I0711 10:14:37.429934 20510 layer_factory.hpp:77] Creating layer scale2b_branch2a
I0711 10:14:37.430027 20510 net.cpp:150] Setting up scale2b_branch2a
I0711 10:14:37.430032 20510 net.cpp:157] Top shape: 16 64 75 75 (5760000)
I0711 10:14:37.430033 20510 net.cpp:165] Memory required for data: 1751040064
I0711 10:14:37.430037 20510 layer_factory.hpp:77] Creating layer res2b_branch2a_relu
I0711 10:14:37.430040 20510 net.cpp:100] Creating Layer res2b_branch2a_relu
I0711 10:14:37.430045 20510 net.cpp:434] res2b_branch2a_relu <- res2b_branch2a
I0711 10:14:37.430048 20510 net.cpp:395] res2b_branch2a_relu -> res2b_branch2a (in-place)
I0711 10:14:37.430194 20510 net.cpp:150] Setting up res2b_branch2a_relu
I0711 10:14:37.430202 20510 net.cpp:157] Top shape: 16 64 75 75 (5760000)
I0711 10:14:37.430204 20510 net.cpp:165] Memory required for data: 1774080064
I0711 10:14:37.430207 20510 layer_factory.hpp:77] Creating layer res2b_branch2b
I0711 10:14:37.430213 20510 net.cpp:100] Creating Layer res2b_branch2b
I0711 10:14:37.430217 20510 net.cpp:434] res2b_branch2b <- res2b_branch2a
I0711 10:14:37.430220 20510 net.cpp:408] res2b_branch2b -> res2b_branch2b
I0711 10:14:37.432351 20510 net.cpp:150] Setting up res2b_branch2b
I0711 10:14:37.432364 20510 net.cpp:157] Top shape: 16 64 75 75 (5760000)
I0711 10:14:37.432366 20510 net.cpp:165] Memory required for data: 1797120064
I0711 10:14:37.432371 20510 layer_factory.hpp:77] Creating layer bn2b_branch2b
I0711 10:14:37.432376 20510 net.cpp:100] Creating Layer bn2b_branch2b
I0711 10:14:37.432380 20510 net.cpp:434] bn2b_branch2b <- res2b_branch2b
I0711 10:14:37.432384 20510 net.cpp:395] bn2b_branch2b -> res2b_branch2b (in-place)
I0711 10:14:37.432544 20510 net.cpp:150] Setting up bn2b_branch2b
I0711 10:14:37.432560 20510 net.cpp:157] Top shape: 16 64 75 75 (5760000)
I0711 10:14:37.432562 20510 net.cpp:165] Memory required for data: 1820160064
I0711 10:14:37.432569 20510 layer_factory.hpp:77] Creating layer scale2b_branch2b
I0711 10:14:37.432574 20510 net.cpp:100] Creating Layer scale2b_branch2b
I0711 10:14:37.432577 20510 net.cpp:434] scale2b_branch2b <- res2b_branch2b
I0711 10:14:37.432580 20510 net.cpp:395] scale2b_branch2b -> res2b_branch2b (in-place)
I0711 10:14:37.432615 20510 layer_factory.hpp:77] Creating layer scale2b_branch2b
I0711 10:14:37.432710 20510 net.cpp:150] Setting up scale2b_branch2b
I0711 10:14:37.432715 20510 net.cpp:157] Top shape: 16 64 75 75 (5760000)
I0711 10:14:37.432718 20510 net.cpp:165] Memory required for data: 1843200064
I0711 10:14:37.432721 20510 layer_factory.hpp:77] Creating layer res2b_branch2b_relu
I0711 10:14:37.432729 20510 net.cpp:100] Creating Layer res2b_branch2b_relu
I0711 10:14:37.432731 20510 net.cpp:434] res2b_branch2b_relu <- res2b_branch2b
I0711 10:14:37.432734 20510 net.cpp:395] res2b_branch2b_relu -> res2b_branch2b (in-place)
I0711 10:14:37.433296 20510 net.cpp:150] Setting up res2b_branch2b_relu
I0711 10:14:37.433306 20510 net.cpp:157] Top shape: 16 64 75 75 (5760000)
I0711 10:14:37.433308 20510 net.cpp:165] Memory required for data: 1866240064
I0711 10:14:37.433310 20510 layer_factory.hpp:77] Creating layer res2b_branch2c
I0711 10:14:37.433317 20510 net.cpp:100] Creating Layer res2b_branch2c
I0711 10:14:37.433320 20510 net.cpp:434] res2b_branch2c <- res2b_branch2b
I0711 10:14:37.433324 20510 net.cpp:408] res2b_branch2c -> res2b_branch2c
I0711 10:14:37.434896 20510 net.cpp:150] Setting up res2b_branch2c
I0711 10:14:37.434907 20510 net.cpp:157] Top shape: 16 256 75 75 (23040000)
I0711 10:14:37.434909 20510 net.cpp:165] Memory required for data: 1958400064
I0711 10:14:37.434913 20510 layer_factory.hpp:77] Creating layer bn2b_branch2c
I0711 10:14:37.434918 20510 net.cpp:100] Creating Layer bn2b_branch2c
I0711 10:14:37.434922 20510 net.cpp:434] bn2b_branch2c <- res2b_branch2c
I0711 10:14:37.434926 20510 net.cpp:395] bn2b_branch2c -> res2b_branch2c (in-place)
I0711 10:14:37.435071 20510 net.cpp:150] Setting up bn2b_branch2c
I0711 10:14:37.435077 20510 net.cpp:157] Top shape: 16 256 75 75 (23040000)
I0711 10:14:37.435078 20510 net.cpp:165] Memory required for data: 2050560064
I0711 10:14:37.435084 20510 layer_factory.hpp:77] Creating layer scale2b_branch2c
I0711 10:14:37.435091 20510 net.cpp:100] Creating Layer scale2b_branch2c
I0711 10:14:37.435092 20510 net.cpp:434] scale2b_branch2c <- res2b_branch2c
I0711 10:14:37.435096 20510 net.cpp:395] scale2b_branch2c -> res2b_branch2c (in-place)
I0711 10:14:37.435128 20510 layer_factory.hpp:77] Creating layer scale2b_branch2c
I0711 10:14:37.435220 20510 net.cpp:150] Setting up scale2b_branch2c
I0711 10:14:37.435225 20510 net.cpp:157] Top shape: 16 256 75 75 (23040000)
I0711 10:14:37.435226 20510 net.cpp:165] Memory required for data: 2142720064
I0711 10:14:37.435230 20510 layer_factory.hpp:77] Creating layer res2b
I0711 10:14:37.435235 20510 net.cpp:100] Creating Layer res2b
I0711 10:14:37.435237 20510 net.cpp:434] res2b <- res2a_res2a_relu_0_split_1
I0711 10:14:37.435240 20510 net.cpp:434] res2b <- res2b_branch2c
I0711 10:14:37.435243 20510 net.cpp:408] res2b -> res2b
I0711 10:14:37.435262 20510 net.cpp:150] Setting up res2b
I0711 10:14:37.435266 20510 net.cpp:157] Top shape: 16 256 75 75 (23040000)
I0711 10:14:37.435268 20510 net.cpp:165] Memory required for data: 2234880064
I0711 10:14:37.435271 20510 layer_factory.hpp:77] Creating layer res2b_relu
I0711 10:14:37.435273 20510 net.cpp:100] Creating Layer res2b_relu
I0711 10:14:37.435276 20510 net.cpp:434] res2b_relu <- res2b
I0711 10:14:37.435278 20510 net.cpp:395] res2b_relu -> res2b (in-place)
I0711 10:14:37.435839 20510 net.cpp:150] Setting up res2b_relu
I0711 10:14:37.435848 20510 net.cpp:157] Top shape: 16 256 75 75 (23040000)
I0711 10:14:37.435850 20510 net.cpp:165] Memory required for data: 2327040064
I0711 10:14:37.435853 20510 layer_factory.hpp:77] Creating layer res2b_res2b_relu_0_split
I0711 10:14:37.435868 20510 net.cpp:100] Creating Layer res2b_res2b_relu_0_split
I0711 10:14:37.435870 20510 net.cpp:434] res2b_res2b_relu_0_split <- res2b
I0711 10:14:37.435874 20510 net.cpp:408] res2b_res2b_relu_0_split -> res2b_res2b_relu_0_split_0
I0711 10:14:37.435880 20510 net.cpp:408] res2b_res2b_relu_0_split -> res2b_res2b_relu_0_split_1
I0711 10:14:37.435915 20510 net.cpp:150] Setting up res2b_res2b_relu_0_split
I0711 10:14:37.435920 20510 net.cpp:157] Top shape: 16 256 75 75 (23040000)
I0711 10:14:37.435923 20510 net.cpp:157] Top shape: 16 256 75 75 (23040000)
I0711 10:14:37.435925 20510 net.cpp:165] Memory required for data: 2511360064
I0711 10:14:37.435926 20510 layer_factory.hpp:77] Creating layer res2c_branch2a
I0711 10:14:37.435932 20510 net.cpp:100] Creating Layer res2c_branch2a
I0711 10:14:37.435935 20510 net.cpp:434] res2c_branch2a <- res2b_res2b_relu_0_split_0
I0711 10:14:37.435940 20510 net.cpp:408] res2c_branch2a -> res2c_branch2a
I0711 10:14:37.437489 20510 net.cpp:150] Setting up res2c_branch2a
I0711 10:14:37.437500 20510 net.cpp:157] Top shape: 16 64 75 75 (5760000)
I0711 10:14:37.437501 20510 net.cpp:165] Memory required for data: 2534400064
I0711 10:14:37.437505 20510 layer_factory.hpp:77] Creating layer bn2c_branch2a
I0711 10:14:37.437510 20510 net.cpp:100] Creating Layer bn2c_branch2a
I0711 10:14:37.437513 20510 net.cpp:434] bn2c_branch2a <- res2c_branch2a
I0711 10:14:37.437517 20510 net.cpp:395] bn2c_branch2a -> res2c_branch2a (in-place)
I0711 10:14:37.437671 20510 net.cpp:150] Setting up bn2c_branch2a
I0711 10:14:37.437677 20510 net.cpp:157] Top shape: 16 64 75 75 (5760000)
I0711 10:14:37.437680 20510 net.cpp:165] Memory required for data: 2557440064
I0711 10:14:37.437685 20510 layer_factory.hpp:77] Creating layer scale2c_branch2a
I0711 10:14:37.437691 20510 net.cpp:100] Creating Layer scale2c_branch2a
I0711 10:14:37.437693 20510 net.cpp:434] scale2c_branch2a <- res2c_branch2a
I0711 10:14:37.437696 20510 net.cpp:395] scale2c_branch2a -> res2c_branch2a (in-place)
I0711 10:14:37.437728 20510 layer_factory.hpp:77] Creating layer scale2c_branch2a
I0711 10:14:37.437826 20510 net.cpp:150] Setting up scale2c_branch2a
I0711 10:14:37.437831 20510 net.cpp:157] Top shape: 16 64 75 75 (5760000)
I0711 10:14:37.437834 20510 net.cpp:165] Memory required for data: 2580480064
I0711 10:14:37.437837 20510 layer_factory.hpp:77] Creating layer res2c_branch2a_relu
I0711 10:14:37.437841 20510 net.cpp:100] Creating Layer res2c_branch2a_relu
I0711 10:14:37.437844 20510 net.cpp:434] res2c_branch2a_relu <- res2c_branch2a
I0711 10:14:37.437846 20510 net.cpp:395] res2c_branch2a_relu -> res2c_branch2a (in-place)
I0711 10:14:37.437980 20510 net.cpp:150] Setting up res2c_branch2a_relu
I0711 10:14:37.437986 20510 net.cpp:157] Top shape: 16 64 75 75 (5760000)
I0711 10:14:37.437988 20510 net.cpp:165] Memory required for data: 2603520064
I0711 10:14:37.437990 20510 layer_factory.hpp:77] Creating layer res2c_branch2b
I0711 10:14:37.437996 20510 net.cpp:100] Creating Layer res2c_branch2b
I0711 10:14:37.437999 20510 net.cpp:434] res2c_branch2b <- res2c_branch2a
I0711 10:14:37.438004 20510 net.cpp:408] res2c_branch2b -> res2c_branch2b
I0711 10:14:37.440119 20510 net.cpp:150] Setting up res2c_branch2b
I0711 10:14:37.440130 20510 net.cpp:157] Top shape: 16 64 75 75 (5760000)
I0711 10:14:37.440132 20510 net.cpp:165] Memory required for data: 2626560064
I0711 10:14:37.440136 20510 layer_factory.hpp:77] Creating layer bn2c_branch2b
I0711 10:14:37.440140 20510 net.cpp:100] Creating Layer bn2c_branch2b
I0711 10:14:37.440145 20510 net.cpp:434] bn2c_branch2b <- res2c_branch2b
I0711 10:14:37.440148 20510 net.cpp:395] bn2c_branch2b -> res2c_branch2b (in-place)
I0711 10:14:37.440312 20510 net.cpp:150] Setting up bn2c_branch2b
I0711 10:14:37.440317 20510 net.cpp:157] Top shape: 16 64 75 75 (5760000)
I0711 10:14:37.440320 20510 net.cpp:165] Memory required for data: 2649600064
I0711 10:14:37.440325 20510 layer_factory.hpp:77] Creating layer scale2c_branch2b
I0711 10:14:37.440331 20510 net.cpp:100] Creating Layer scale2c_branch2b
I0711 10:14:37.440343 20510 net.cpp:434] scale2c_branch2b <- res2c_branch2b
I0711 10:14:37.440347 20510 net.cpp:395] scale2c_branch2b -> res2c_branch2b (in-place)
I0711 10:14:37.440382 20510 layer_factory.hpp:77] Creating layer scale2c_branch2b
I0711 10:14:37.440510 20510 net.cpp:150] Setting up scale2c_branch2b
I0711 10:14:37.440520 20510 net.cpp:157] Top shape: 16 64 75 75 (5760000)
I0711 10:14:37.440522 20510 net.cpp:165] Memory required for data: 2672640064
I0711 10:14:37.440529 20510 layer_factory.hpp:77] Creating layer res2c_branch2b_relu
I0711 10:14:37.440536 20510 net.cpp:100] Creating Layer res2c_branch2b_relu
I0711 10:14:37.440541 20510 net.cpp:434] res2c_branch2b_relu <- res2c_branch2b
I0711 10:14:37.440546 20510 net.cpp:395] res2c_branch2b_relu -> res2c_branch2b (in-place)
I0711 10:14:37.441265 20510 net.cpp:150] Setting up res2c_branch2b_relu
I0711 10:14:37.441277 20510 net.cpp:157] Top shape: 16 64 75 75 (5760000)
I0711 10:14:37.441282 20510 net.cpp:165] Memory required for data: 2695680064
I0711 10:14:37.441285 20510 layer_factory.hpp:77] Creating layer res2c_branch2c
I0711 10:14:37.441294 20510 net.cpp:100] Creating Layer res2c_branch2c
I0711 10:14:37.441299 20510 net.cpp:434] res2c_branch2c <- res2c_branch2b
I0711 10:14:37.441306 20510 net.cpp:408] res2c_branch2c -> res2c_branch2c
I0711 10:14:37.442869 20510 net.cpp:150] Setting up res2c_branch2c
I0711 10:14:37.442883 20510 net.cpp:157] Top shape: 16 256 75 75 (23040000)
I0711 10:14:37.442885 20510 net.cpp:165] Memory required for data: 2787840064
I0711 10:14:37.442891 20510 layer_factory.hpp:77] Creating layer bn2c_branch2c
I0711 10:14:37.442899 20510 net.cpp:100] Creating Layer bn2c_branch2c
I0711 10:14:37.442904 20510 net.cpp:434] bn2c_branch2c <- res2c_branch2c
I0711 10:14:37.442911 20510 net.cpp:395] bn2c_branch2c -> res2c_branch2c (in-place)
I0711 10:14:37.443694 20510 net.cpp:150] Setting up bn2c_branch2c
I0711 10:14:37.443706 20510 net.cpp:157] Top shape: 16 256 75 75 (23040000)
I0711 10:14:37.443711 20510 net.cpp:165] Memory required for data: 2880000064
I0711 10:14:37.443720 20510 layer_factory.hpp:77] Creating layer scale2c_branch2c
I0711 10:14:37.443729 20510 net.cpp:100] Creating Layer scale2c_branch2c
I0711 10:14:37.443734 20510 net.cpp:434] scale2c_branch2c <- res2c_branch2c
I0711 10:14:37.443740 20510 net.cpp:395] scale2c_branch2c -> res2c_branch2c (in-place)
I0711 10:14:37.443791 20510 layer_factory.hpp:77] Creating layer scale2c_branch2c
I0711 10:14:37.443922 20510 net.cpp:150] Setting up scale2c_branch2c
I0711 10:14:37.443930 20510 net.cpp:157] Top shape: 16 256 75 75 (23040000)
I0711 10:14:37.443934 20510 net.cpp:165] Memory required for data: 2972160064
I0711 10:14:37.443949 20510 layer_factory.hpp:77] Creating layer res2c
I0711 10:14:37.443956 20510 net.cpp:100] Creating Layer res2c
I0711 10:14:37.443963 20510 net.cpp:434] res2c <- res2b_res2b_relu_0_split_1
I0711 10:14:37.443967 20510 net.cpp:434] res2c <- res2c_branch2c
I0711 10:14:37.443974 20510 net.cpp:408] res2c -> res2c
I0711 10:14:37.444005 20510 net.cpp:150] Setting up res2c
I0711 10:14:37.444011 20510 net.cpp:157] Top shape: 16 256 75 75 (23040000)
I0711 10:14:37.444015 20510 net.cpp:165] Memory required for data: 3064320064
I0711 10:14:37.444018 20510 layer_factory.hpp:77] Creating layer res2c_relu
I0711 10:14:37.444023 20510 net.cpp:100] Creating Layer res2c_relu
I0711 10:14:37.444027 20510 net.cpp:434] res2c_relu <- res2c
I0711 10:14:37.444032 20510 net.cpp:395] res2c_relu -> res2c (in-place)
I0711 10:14:37.444746 20510 net.cpp:150] Setting up res2c_relu
I0711 10:14:37.444759 20510 net.cpp:157] Top shape: 16 256 75 75 (23040000)
I0711 10:14:37.444766 20510 net.cpp:165] Memory required for data: 3156480064
I0711 10:14:37.444769 20510 layer_factory.hpp:77] Creating layer res2c_res2c_relu_0_split
I0711 10:14:37.444775 20510 net.cpp:100] Creating Layer res2c_res2c_relu_0_split
I0711 10:14:37.444780 20510 net.cpp:434] res2c_res2c_relu_0_split <- res2c
I0711 10:14:37.444787 20510 net.cpp:408] res2c_res2c_relu_0_split -> res2c_res2c_relu_0_split_0
I0711 10:14:37.444794 20510 net.cpp:408] res2c_res2c_relu_0_split -> res2c_res2c_relu_0_split_1
I0711 10:14:37.444856 20510 net.cpp:150] Setting up res2c_res2c_relu_0_split
I0711 10:14:37.444865 20510 net.cpp:157] Top shape: 16 256 75 75 (23040000)
I0711 10:14:37.444869 20510 net.cpp:157] Top shape: 16 256 75 75 (23040000)
I0711 10:14:37.444871 20510 net.cpp:165] Memory required for data: 3340800064
I0711 10:14:37.444875 20510 layer_factory.hpp:77] Creating layer res3a_branch1
I0711 10:14:37.444883 20510 net.cpp:100] Creating Layer res3a_branch1
I0711 10:14:37.444888 20510 net.cpp:434] res3a_branch1 <- res2c_res2c_relu_0_split_0
I0711 10:14:37.444895 20510 net.cpp:408] res3a_branch1 -> res3a_branch1
I0711 10:14:37.448056 20510 net.cpp:150] Setting up res3a_branch1
I0711 10:14:37.448070 20510 net.cpp:157] Top shape: 16 512 38 38 (11829248)
I0711 10:14:37.448071 20510 net.cpp:165] Memory required for data: 3388117056
I0711 10:14:37.448076 20510 layer_factory.hpp:77] Creating layer bn3a_branch1
I0711 10:14:37.448081 20510 net.cpp:100] Creating Layer bn3a_branch1
I0711 10:14:37.448084 20510 net.cpp:434] bn3a_branch1 <- res3a_branch1
I0711 10:14:37.448088 20510 net.cpp:395] bn3a_branch1 -> res3a_branch1 (in-place)
I0711 10:14:37.448631 20510 net.cpp:150] Setting up bn3a_branch1
I0711 10:14:37.448639 20510 net.cpp:157] Top shape: 16 512 38 38 (11829248)
I0711 10:14:37.448642 20510 net.cpp:165] Memory required for data: 3435434048
I0711 10:14:37.448647 20510 layer_factory.hpp:77] Creating layer scale3a_branch1
I0711 10:14:37.448653 20510 net.cpp:100] Creating Layer scale3a_branch1
I0711 10:14:37.448655 20510 net.cpp:434] scale3a_branch1 <- res3a_branch1
I0711 10:14:37.448659 20510 net.cpp:395] scale3a_branch1 -> res3a_branch1 (in-place)
I0711 10:14:37.448705 20510 layer_factory.hpp:77] Creating layer scale3a_branch1
I0711 10:14:37.448807 20510 net.cpp:150] Setting up scale3a_branch1
I0711 10:14:37.448814 20510 net.cpp:157] Top shape: 16 512 38 38 (11829248)
I0711 10:14:37.448817 20510 net.cpp:165] Memory required for data: 3482751040
I0711 10:14:37.448824 20510 layer_factory.hpp:77] Creating layer res3a_branch2a
I0711 10:14:37.448835 20510 net.cpp:100] Creating Layer res3a_branch2a
I0711 10:14:37.448839 20510 net.cpp:434] res3a_branch2a <- res2c_res2c_relu_0_split_1
I0711 10:14:37.448846 20510 net.cpp:408] res3a_branch2a -> res3a_branch2a
I0711 10:14:37.450103 20510 net.cpp:150] Setting up res3a_branch2a
I0711 10:14:37.450114 20510 net.cpp:157] Top shape: 16 128 38 38 (2957312)
I0711 10:14:37.450117 20510 net.cpp:165] Memory required for data: 3494580288
I0711 10:14:37.450122 20510 layer_factory.hpp:77] Creating layer bn3a_branch2a
I0711 10:14:37.450129 20510 net.cpp:100] Creating Layer bn3a_branch2a
I0711 10:14:37.450134 20510 net.cpp:434] bn3a_branch2a <- res3a_branch2a
I0711 10:14:37.450140 20510 net.cpp:395] bn3a_branch2a -> res3a_branch2a (in-place)
I0711 10:14:37.450296 20510 net.cpp:150] Setting up bn3a_branch2a
I0711 10:14:37.450304 20510 net.cpp:157] Top shape: 16 128 38 38 (2957312)
I0711 10:14:37.450307 20510 net.cpp:165] Memory required for data: 3506409536
I0711 10:14:37.450315 20510 layer_factory.hpp:77] Creating layer scale3a_branch2a
I0711 10:14:37.450323 20510 net.cpp:100] Creating Layer scale3a_branch2a
I0711 10:14:37.450328 20510 net.cpp:434] scale3a_branch2a <- res3a_branch2a
I0711 10:14:37.450335 20510 net.cpp:395] scale3a_branch2a -> res3a_branch2a (in-place)
I0711 10:14:37.450373 20510 layer_factory.hpp:77] Creating layer scale3a_branch2a
I0711 10:14:37.450464 20510 net.cpp:150] Setting up scale3a_branch2a
I0711 10:14:37.450471 20510 net.cpp:157] Top shape: 16 128 38 38 (2957312)
I0711 10:14:37.450475 20510 net.cpp:165] Memory required for data: 3518238784
I0711 10:14:37.450481 20510 layer_factory.hpp:77] Creating layer res3a_branch2a_relu
I0711 10:14:37.450489 20510 net.cpp:100] Creating Layer res3a_branch2a_relu
I0711 10:14:37.450494 20510 net.cpp:434] res3a_branch2a_relu <- res3a_branch2a
I0711 10:14:37.450498 20510 net.cpp:395] res3a_branch2a_relu -> res3a_branch2a (in-place)
I0711 10:14:37.451093 20510 net.cpp:150] Setting up res3a_branch2a_relu
I0711 10:14:37.451113 20510 net.cpp:157] Top shape: 16 128 38 38 (2957312)
I0711 10:14:37.451117 20510 net.cpp:165] Memory required for data: 3530068032
I0711 10:14:37.451122 20510 layer_factory.hpp:77] Creating layer res3a_branch2b
I0711 10:14:37.451130 20510 net.cpp:100] Creating Layer res3a_branch2b
I0711 10:14:37.451135 20510 net.cpp:434] res3a_branch2b <- res3a_branch2a
I0711 10:14:37.451143 20510 net.cpp:408] res3a_branch2b -> res3a_branch2b
I0711 10:14:37.454517 20510 net.cpp:150] Setting up res3a_branch2b
I0711 10:14:37.454530 20510 net.cpp:157] Top shape: 16 128 38 38 (2957312)
I0711 10:14:37.454533 20510 net.cpp:165] Memory required for data: 3541897280
I0711 10:14:37.454540 20510 layer_factory.hpp:77] Creating layer bn3a_branch2b
I0711 10:14:37.454546 20510 net.cpp:100] Creating Layer bn3a_branch2b
I0711 10:14:37.454551 20510 net.cpp:434] bn3a_branch2b <- res3a_branch2b
I0711 10:14:37.454557 20510 net.cpp:395] bn3a_branch2b -> res3a_branch2b (in-place)
I0711 10:14:37.454717 20510 net.cpp:150] Setting up bn3a_branch2b
I0711 10:14:37.454725 20510 net.cpp:157] Top shape: 16 128 38 38 (2957312)
I0711 10:14:37.454728 20510 net.cpp:165] Memory required for data: 3553726528
I0711 10:14:37.454737 20510 layer_factory.hpp:77] Creating layer scale3a_branch2b
I0711 10:14:37.454746 20510 net.cpp:100] Creating Layer scale3a_branch2b
I0711 10:14:37.454751 20510 net.cpp:434] scale3a_branch2b <- res3a_branch2b
I0711 10:14:37.454756 20510 net.cpp:395] scale3a_branch2b -> res3a_branch2b (in-place)
I0711 10:14:37.454795 20510 layer_factory.hpp:77] Creating layer scale3a_branch2b
I0711 10:14:37.454900 20510 net.cpp:150] Setting up scale3a_branch2b
I0711 10:14:37.454908 20510 net.cpp:157] Top shape: 16 128 38 38 (2957312)
I0711 10:14:37.454911 20510 net.cpp:165] Memory required for data: 3565555776
I0711 10:14:37.454918 20510 layer_factory.hpp:77] Creating layer res3a_branch2b_relu
I0711 10:14:37.454926 20510 net.cpp:100] Creating Layer res3a_branch2b_relu
I0711 10:14:37.454929 20510 net.cpp:434] res3a_branch2b_relu <- res3a_branch2b
I0711 10:14:37.454936 20510 net.cpp:395] res3a_branch2b_relu -> res3a_branch2b (in-place)
I0711 10:14:37.455083 20510 net.cpp:150] Setting up res3a_branch2b_relu
I0711 10:14:37.455092 20510 net.cpp:157] Top shape: 16 128 38 38 (2957312)
I0711 10:14:37.455096 20510 net.cpp:165] Memory required for data: 3577385024
I0711 10:14:37.455099 20510 layer_factory.hpp:77] Creating layer res3a_branch2c
I0711 10:14:37.455116 20510 net.cpp:100] Creating Layer res3a_branch2c
I0711 10:14:37.455119 20510 net.cpp:434] res3a_branch2c <- res3a_branch2b
I0711 10:14:37.455126 20510 net.cpp:408] res3a_branch2c -> res3a_branch2c
I0711 10:14:37.457440 20510 net.cpp:150] Setting up res3a_branch2c
I0711 10:14:37.457451 20510 net.cpp:157] Top shape: 16 512 38 38 (11829248)
I0711 10:14:37.457455 20510 net.cpp:165] Memory required for data: 3624702016
I0711 10:14:37.457461 20510 layer_factory.hpp:77] Creating layer bn3a_branch2c
I0711 10:14:37.457468 20510 net.cpp:100] Creating Layer bn3a_branch2c
I0711 10:14:37.457473 20510 net.cpp:434] bn3a_branch2c <- res3a_branch2c
I0711 10:14:37.457479 20510 net.cpp:395] bn3a_branch2c -> res3a_branch2c (in-place)
I0711 10:14:37.457640 20510 net.cpp:150] Setting up bn3a_branch2c
I0711 10:14:37.457648 20510 net.cpp:157] Top shape: 16 512 38 38 (11829248)
I0711 10:14:37.457651 20510 net.cpp:165] Memory required for data: 3672019008
I0711 10:14:37.457660 20510 layer_factory.hpp:77] Creating layer scale3a_branch2c
I0711 10:14:37.457667 20510 net.cpp:100] Creating Layer scale3a_branch2c
I0711 10:14:37.457672 20510 net.cpp:434] scale3a_branch2c <- res3a_branch2c
I0711 10:14:37.457679 20510 net.cpp:395] scale3a_branch2c -> res3a_branch2c (in-place)
I0711 10:14:37.457715 20510 layer_factory.hpp:77] Creating layer scale3a_branch2c
I0711 10:14:37.457813 20510 net.cpp:150] Setting up scale3a_branch2c
I0711 10:14:37.457821 20510 net.cpp:157] Top shape: 16 512 38 38 (11829248)
I0711 10:14:37.457824 20510 net.cpp:165] Memory required for data: 3719336000
I0711 10:14:37.457831 20510 layer_factory.hpp:77] Creating layer res3a
I0711 10:14:37.457847 20510 net.cpp:100] Creating Layer res3a
I0711 10:14:37.457852 20510 net.cpp:434] res3a <- res3a_branch1
I0711 10:14:37.457857 20510 net.cpp:434] res3a <- res3a_branch2c
I0711 10:14:37.457864 20510 net.cpp:408] res3a -> res3a
I0711 10:14:37.457891 20510 net.cpp:150] Setting up res3a
I0711 10:14:37.457901 20510 net.cpp:157] Top shape: 16 512 38 38 (11829248)
I0711 10:14:37.457903 20510 net.cpp:165] Memory required for data: 3766652992
I0711 10:14:37.457906 20510 layer_factory.hpp:77] Creating layer res3a_relu
I0711 10:14:37.457911 20510 net.cpp:100] Creating Layer res3a_relu
I0711 10:14:37.457916 20510 net.cpp:434] res3a_relu <- res3a
I0711 10:14:37.457921 20510 net.cpp:395] res3a_relu -> res3a (in-place)
I0711 10:14:37.458518 20510 net.cpp:150] Setting up res3a_relu
I0711 10:14:37.458529 20510 net.cpp:157] Top shape: 16 512 38 38 (11829248)
I0711 10:14:37.458533 20510 net.cpp:165] Memory required for data: 3813969984
I0711 10:14:37.458536 20510 layer_factory.hpp:77] Creating layer res3a_res3a_relu_0_split
I0711 10:14:37.458544 20510 net.cpp:100] Creating Layer res3a_res3a_relu_0_split
I0711 10:14:37.458547 20510 net.cpp:434] res3a_res3a_relu_0_split <- res3a
I0711 10:14:37.458554 20510 net.cpp:408] res3a_res3a_relu_0_split -> res3a_res3a_relu_0_split_0
I0711 10:14:37.458564 20510 net.cpp:408] res3a_res3a_relu_0_split -> res3a_res3a_relu_0_split_1
I0711 10:14:37.458606 20510 net.cpp:150] Setting up res3a_res3a_relu_0_split
I0711 10:14:37.458612 20510 net.cpp:157] Top shape: 16 512 38 38 (11829248)
I0711 10:14:37.458616 20510 net.cpp:157] Top shape: 16 512 38 38 (11829248)
I0711 10:14:37.458619 20510 net.cpp:165] Memory required for data: 3908603968
I0711 10:14:37.458623 20510 layer_factory.hpp:77] Creating layer res3b1_branch2a
I0711 10:14:37.458631 20510 net.cpp:100] Creating Layer res3b1_branch2a
I0711 10:14:37.458636 20510 net.cpp:434] res3b1_branch2a <- res3a_res3a_relu_0_split_0
I0711 10:14:37.458642 20510 net.cpp:408] res3b1_branch2a -> res3b1_branch2a
I0711 10:14:37.460577 20510 net.cpp:150] Setting up res3b1_branch2a
I0711 10:14:37.460588 20510 net.cpp:157] Top shape: 16 128 38 38 (2957312)
I0711 10:14:37.460592 20510 net.cpp:165] Memory required for data: 3920433216
I0711 10:14:37.460597 20510 layer_factory.hpp:77] Creating layer bn3b1_branch2a
I0711 10:14:37.460603 20510 net.cpp:100] Creating Layer bn3b1_branch2a
I0711 10:14:37.460609 20510 net.cpp:434] bn3b1_branch2a <- res3b1_branch2a
I0711 10:14:37.460614 20510 net.cpp:395] bn3b1_branch2a -> res3b1_branch2a (in-place)
I0711 10:14:37.460779 20510 net.cpp:150] Setting up bn3b1_branch2a
I0711 10:14:37.460788 20510 net.cpp:157] Top shape: 16 128 38 38 (2957312)
I0711 10:14:37.460790 20510 net.cpp:165] Memory required for data: 3932262464
I0711 10:14:37.460799 20510 layer_factory.hpp:77] Creating layer scale3b1_branch2a
I0711 10:14:37.460808 20510 net.cpp:100] Creating Layer scale3b1_branch2a
I0711 10:14:37.460813 20510 net.cpp:434] scale3b1_branch2a <- res3b1_branch2a
I0711 10:14:37.460819 20510 net.cpp:395] scale3b1_branch2a -> res3b1_branch2a (in-place)
I0711 10:14:37.460857 20510 layer_factory.hpp:77] Creating layer scale3b1_branch2a
I0711 10:14:37.460953 20510 net.cpp:150] Setting up scale3b1_branch2a
I0711 10:14:37.460961 20510 net.cpp:157] Top shape: 16 128 38 38 (2957312)
I0711 10:14:37.460964 20510 net.cpp:165] Memory required for data: 3944091712
I0711 10:14:37.460971 20510 layer_factory.hpp:77] Creating layer res3b1_branch2a_relu
I0711 10:14:37.460978 20510 net.cpp:100] Creating Layer res3b1_branch2a_relu
I0711 10:14:37.460983 20510 net.cpp:434] res3b1_branch2a_relu <- res3b1_branch2a
I0711 10:14:37.460988 20510 net.cpp:395] res3b1_branch2a_relu -> res3b1_branch2a (in-place)
I0711 10:14:37.461551 20510 net.cpp:150] Setting up res3b1_branch2a_relu
I0711 10:14:37.461561 20510 net.cpp:157] Top shape: 16 128 38 38 (2957312)
I0711 10:14:37.461565 20510 net.cpp:165] Memory required for data: 3955920960
I0711 10:14:37.461568 20510 layer_factory.hpp:77] Creating layer res3b1_branch2b
I0711 10:14:37.461578 20510 net.cpp:100] Creating Layer res3b1_branch2b
I0711 10:14:37.461591 20510 net.cpp:434] res3b1_branch2b <- res3b1_branch2a
I0711 10:14:37.461599 20510 net.cpp:408] res3b1_branch2b -> res3b1_branch2b
I0711 10:14:37.464977 20510 net.cpp:150] Setting up res3b1_branch2b
I0711 10:14:37.464988 20510 net.cpp:157] Top shape: 16 128 38 38 (2957312)
I0711 10:14:37.464993 20510 net.cpp:165] Memory required for data: 3967750208
I0711 10:14:37.464998 20510 layer_factory.hpp:77] Creating layer bn3b1_branch2b
I0711 10:14:37.465005 20510 net.cpp:100] Creating Layer bn3b1_branch2b
I0711 10:14:37.465024 20510 net.cpp:434] bn3b1_branch2b <- res3b1_branch2b
I0711 10:14:37.465030 20510 net.cpp:395] bn3b1_branch2b -> res3b1_branch2b (in-place)
I0711 10:14:37.465200 20510 net.cpp:150] Setting up bn3b1_branch2b
I0711 10:14:37.465209 20510 net.cpp:157] Top shape: 16 128 38 38 (2957312)
I0711 10:14:37.465211 20510 net.cpp:165] Memory required for data: 3979579456
I0711 10:14:37.465219 20510 layer_factory.hpp:77] Creating layer scale3b1_branch2b
I0711 10:14:37.465227 20510 net.cpp:100] Creating Layer scale3b1_branch2b
I0711 10:14:37.465232 20510 net.cpp:434] scale3b1_branch2b <- res3b1_branch2b
I0711 10:14:37.465239 20510 net.cpp:395] scale3b1_branch2b -> res3b1_branch2b (in-place)
I0711 10:14:37.465279 20510 layer_factory.hpp:77] Creating layer scale3b1_branch2b
I0711 10:14:37.465378 20510 net.cpp:150] Setting up scale3b1_branch2b
I0711 10:14:37.465384 20510 net.cpp:157] Top shape: 16 128 38 38 (2957312)
I0711 10:14:37.465387 20510 net.cpp:165] Memory required for data: 3991408704
I0711 10:14:37.465394 20510 layer_factory.hpp:77] Creating layer res3b1_branch2b_relu
I0711 10:14:37.465400 20510 net.cpp:100] Creating Layer res3b1_branch2b_relu
I0711 10:14:37.465405 20510 net.cpp:434] res3b1_branch2b_relu <- res3b1_branch2b
I0711 10:14:37.465410 20510 net.cpp:395] res3b1_branch2b_relu -> res3b1_branch2b (in-place)
I0711 10:14:37.465557 20510 net.cpp:150] Setting up res3b1_branch2b_relu
I0711 10:14:37.465565 20510 net.cpp:157] Top shape: 16 128 38 38 (2957312)
I0711 10:14:37.465569 20510 net.cpp:165] Memory required for data: 4003237952
I0711 10:14:37.465571 20510 layer_factory.hpp:77] Creating layer res3b1_branch2c
I0711 10:14:37.465580 20510 net.cpp:100] Creating Layer res3b1_branch2c
I0711 10:14:37.465585 20510 net.cpp:434] res3b1_branch2c <- res3b1_branch2b
I0711 10:14:37.465591 20510 net.cpp:408] res3b1_branch2c -> res3b1_branch2c
I0711 10:14:37.467537 20510 net.cpp:150] Setting up res3b1_branch2c
I0711 10:14:37.467548 20510 net.cpp:157] Top shape: 16 512 38 38 (11829248)
I0711 10:14:37.467552 20510 net.cpp:165] Memory required for data: 4050554944
I0711 10:14:37.467558 20510 layer_factory.hpp:77] Creating layer bn3b1_branch2c
I0711 10:14:37.467566 20510 net.cpp:100] Creating Layer bn3b1_branch2c
I0711 10:14:37.467571 20510 net.cpp:434] bn3b1_branch2c <- res3b1_branch2c
I0711 10:14:37.467576 20510 net.cpp:395] bn3b1_branch2c -> res3b1_branch2c (in-place)
I0711 10:14:37.467741 20510 net.cpp:150] Setting up bn3b1_branch2c
I0711 10:14:37.467748 20510 net.cpp:157] Top shape: 16 512 38 38 (11829248)
I0711 10:14:37.467751 20510 net.cpp:165] Memory required for data: 4097871936
I0711 10:14:37.467761 20510 layer_factory.hpp:77] Creating layer scale3b1_branch2c
I0711 10:14:37.467767 20510 net.cpp:100] Creating Layer scale3b1_branch2c
I0711 10:14:37.467772 20510 net.cpp:434] scale3b1_branch2c <- res3b1_branch2c
I0711 10:14:37.467778 20510 net.cpp:395] scale3b1_branch2c -> res3b1_branch2c (in-place)
I0711 10:14:37.467815 20510 layer_factory.hpp:77] Creating layer scale3b1_branch2c
I0711 10:14:37.467914 20510 net.cpp:150] Setting up scale3b1_branch2c
I0711 10:14:37.467922 20510 net.cpp:157] Top shape: 16 512 38 38 (11829248)
I0711 10:14:37.467926 20510 net.cpp:165] Memory required for data: 4145188928
I0711 10:14:37.467932 20510 layer_factory.hpp:77] Creating layer res3b1
I0711 10:14:37.467939 20510 net.cpp:100] Creating Layer res3b1
I0711 10:14:37.467944 20510 net.cpp:434] res3b1 <- res3a_res3a_relu_0_split_1
I0711 10:14:37.467948 20510 net.cpp:434] res3b1 <- res3b1_branch2c
I0711 10:14:37.467964 20510 net.cpp:408] res3b1 -> res3b1
I0711 10:14:37.467994 20510 net.cpp:150] Setting up res3b1
I0711 10:14:37.468001 20510 net.cpp:157] Top shape: 16 512 38 38 (11829248)
I0711 10:14:37.468004 20510 net.cpp:165] Memory required for data: 4192505920
I0711 10:14:37.468008 20510 layer_factory.hpp:77] Creating layer res3b1_relu
I0711 10:14:37.468013 20510 net.cpp:100] Creating Layer res3b1_relu
I0711 10:14:37.468016 20510 net.cpp:434] res3b1_relu <- res3b1
I0711 10:14:37.468021 20510 net.cpp:395] res3b1_relu -> res3b1 (in-place)
I0711 10:14:37.468593 20510 net.cpp:150] Setting up res3b1_relu
I0711 10:14:37.468605 20510 net.cpp:157] Top shape: 16 512 38 38 (11829248)
I0711 10:14:37.468607 20510 net.cpp:165] Memory required for data: 4239822912
I0711 10:14:37.468611 20510 layer_factory.hpp:77] Creating layer res3b1_res3b1_relu_0_split
I0711 10:14:37.468617 20510 net.cpp:100] Creating Layer res3b1_res3b1_relu_0_split
I0711 10:14:37.468622 20510 net.cpp:434] res3b1_res3b1_relu_0_split <- res3b1
I0711 10:14:37.468629 20510 net.cpp:408] res3b1_res3b1_relu_0_split -> res3b1_res3b1_relu_0_split_0
I0711 10:14:37.468638 20510 net.cpp:408] res3b1_res3b1_relu_0_split -> res3b1_res3b1_relu_0_split_1
I0711 10:14:37.468680 20510 net.cpp:150] Setting up res3b1_res3b1_relu_0_split
I0711 10:14:37.468688 20510 net.cpp:157] Top shape: 16 512 38 38 (11829248)
I0711 10:14:37.468693 20510 net.cpp:157] Top shape: 16 512 38 38 (11829248)
I0711 10:14:37.468695 20510 net.cpp:165] Memory required for data: 4334456896
I0711 10:14:37.468698 20510 layer_factory.hpp:77] Creating layer res3b2_branch2a
I0711 10:14:37.468708 20510 net.cpp:100] Creating Layer res3b2_branch2a
I0711 10:14:37.468711 20510 net.cpp:434] res3b2_branch2a <- res3b1_res3b1_relu_0_split_0
I0711 10:14:37.468717 20510 net.cpp:408] res3b2_branch2a -> res3b2_branch2a
I0711 10:14:37.470235 20510 net.cpp:150] Setting up res3b2_branch2a
I0711 10:14:37.470247 20510 net.cpp:157] Top shape: 16 128 38 38 (2957312)
I0711 10:14:37.470249 20510 net.cpp:165] Memory required for data: 4346286144
I0711 10:14:37.470255 20510 layer_factory.hpp:77] Creating layer bn3b2_branch2a
I0711 10:14:37.470264 20510 net.cpp:100] Creating Layer bn3b2_branch2a
I0711 10:14:37.470269 20510 net.cpp:434] bn3b2_branch2a <- res3b2_branch2a
I0711 10:14:37.470275 20510 net.cpp:395] bn3b2_branch2a -> res3b2_branch2a (in-place)
I0711 10:14:37.470440 20510 net.cpp:150] Setting up bn3b2_branch2a
I0711 10:14:37.470448 20510 net.cpp:157] Top shape: 16 128 38 38 (2957312)
I0711 10:14:37.470450 20510 net.cpp:165] Memory required for data: 4358115392
I0711 10:14:37.470459 20510 layer_factory.hpp:77] Creating layer scale3b2_branch2a
I0711 10:14:37.470468 20510 net.cpp:100] Creating Layer scale3b2_branch2a
I0711 10:14:37.470474 20510 net.cpp:434] scale3b2_branch2a <- res3b2_branch2a
I0711 10:14:37.470479 20510 net.cpp:395] scale3b2_branch2a -> res3b2_branch2a (in-place)
I0711 10:14:37.470518 20510 layer_factory.hpp:77] Creating layer scale3b2_branch2a
I0711 10:14:37.470614 20510 net.cpp:150] Setting up scale3b2_branch2a
I0711 10:14:37.470623 20510 net.cpp:157] Top shape: 16 128 38 38 (2957312)
I0711 10:14:37.470625 20510 net.cpp:165] Memory required for data: 4369944640
I0711 10:14:37.470633 20510 layer_factory.hpp:77] Creating layer res3b2_branch2a_relu
I0711 10:14:37.470638 20510 net.cpp:100] Creating Layer res3b2_branch2a_relu
I0711 10:14:37.470643 20510 net.cpp:434] res3b2_branch2a_relu <- res3b2_branch2a
I0711 10:14:37.470649 20510 net.cpp:395] res3b2_branch2a_relu -> res3b2_branch2a (in-place)
I0711 10:14:37.471218 20510 net.cpp:150] Setting up res3b2_branch2a_relu
I0711 10:14:37.471230 20510 net.cpp:157] Top shape: 16 128 38 38 (2957312)
I0711 10:14:37.471233 20510 net.cpp:165] Memory required for data: 4381773888
I0711 10:14:37.471236 20510 layer_factory.hpp:77] Creating layer res3b2_branch2b
I0711 10:14:37.471246 20510 net.cpp:100] Creating Layer res3b2_branch2b
I0711 10:14:37.471251 20510 net.cpp:434] res3b2_branch2b <- res3b2_branch2a
I0711 10:14:37.471258 20510 net.cpp:408] res3b2_branch2b -> res3b2_branch2b
I0711 10:14:37.474632 20510 net.cpp:150] Setting up res3b2_branch2b
I0711 10:14:37.474642 20510 net.cpp:157] Top shape: 16 128 38 38 (2957312)
I0711 10:14:37.474647 20510 net.cpp:165] Memory required for data: 4393603136
I0711 10:14:37.474653 20510 layer_factory.hpp:77] Creating layer bn3b2_branch2b
I0711 10:14:37.474659 20510 net.cpp:100] Creating Layer bn3b2_branch2b
I0711 10:14:37.474673 20510 net.cpp:434] bn3b2_branch2b <- res3b2_branch2b
I0711 10:14:37.474679 20510 net.cpp:395] bn3b2_branch2b -> res3b2_branch2b (in-place)
I0711 10:14:37.474856 20510 net.cpp:150] Setting up bn3b2_branch2b
I0711 10:14:37.474864 20510 net.cpp:157] Top shape: 16 128 38 38 (2957312)
I0711 10:14:37.474867 20510 net.cpp:165] Memory required for data: 4405432384
I0711 10:14:37.474876 20510 layer_factory.hpp:77] Creating layer scale3b2_branch2b
I0711 10:14:37.474885 20510 net.cpp:100] Creating Layer scale3b2_branch2b
I0711 10:14:37.474890 20510 net.cpp:434] scale3b2_branch2b <- res3b2_branch2b
I0711 10:14:37.474896 20510 net.cpp:395] scale3b2_branch2b -> res3b2_branch2b (in-place)
I0711 10:14:37.474937 20510 layer_factory.hpp:77] Creating layer scale3b2_branch2b
I0711 10:14:37.475036 20510 net.cpp:150] Setting up scale3b2_branch2b
I0711 10:14:37.475044 20510 net.cpp:157] Top shape: 16 128 38 38 (2957312)
I0711 10:14:37.475046 20510 net.cpp:165] Memory required for data: 4417261632
I0711 10:14:37.475054 20510 layer_factory.hpp:77] Creating layer res3b2_branch2b_relu
I0711 10:14:37.475059 20510 net.cpp:100] Creating Layer res3b2_branch2b_relu
I0711 10:14:37.475064 20510 net.cpp:434] res3b2_branch2b_relu <- res3b2_branch2b
I0711 10:14:37.475069 20510 net.cpp:395] res3b2_branch2b_relu -> res3b2_branch2b (in-place)
I0711 10:14:37.475219 20510 net.cpp:150] Setting up res3b2_branch2b_relu
I0711 10:14:37.475229 20510 net.cpp:157] Top shape: 16 128 38 38 (2957312)
I0711 10:14:37.475231 20510 net.cpp:165] Memory required for data: 4429090880
I0711 10:14:37.475235 20510 layer_factory.hpp:77] Creating layer res3b2_branch2c
I0711 10:14:37.475244 20510 net.cpp:100] Creating Layer res3b2_branch2c
I0711 10:14:37.475250 20510 net.cpp:434] res3b2_branch2c <- res3b2_branch2b
I0711 10:14:37.475255 20510 net.cpp:408] res3b2_branch2c -> res3b2_branch2c
I0711 10:14:37.477574 20510 net.cpp:150] Setting up res3b2_branch2c
I0711 10:14:37.477586 20510 net.cpp:157] Top shape: 16 512 38 38 (11829248)
I0711 10:14:37.477589 20510 net.cpp:165] Memory required for data: 4476407872
I0711 10:14:37.477596 20510 layer_factory.hpp:77] Creating layer bn3b2_branch2c
I0711 10:14:37.477602 20510 net.cpp:100] Creating Layer bn3b2_branch2c
I0711 10:14:37.477607 20510 net.cpp:434] bn3b2_branch2c <- res3b2_branch2c
I0711 10:14:37.477612 20510 net.cpp:395] bn3b2_branch2c -> res3b2_branch2c (in-place)
I0711 10:14:37.477780 20510 net.cpp:150] Setting up bn3b2_branch2c
I0711 10:14:37.477788 20510 net.cpp:157] Top shape: 16 512 38 38 (11829248)
I0711 10:14:37.477792 20510 net.cpp:165] Memory required for data: 4523724864
I0711 10:14:37.477800 20510 layer_factory.hpp:77] Creating layer scale3b2_branch2c
I0711 10:14:37.477808 20510 net.cpp:100] Creating Layer scale3b2_branch2c
I0711 10:14:37.477813 20510 net.cpp:434] scale3b2_branch2c <- res3b2_branch2c
I0711 10:14:37.477819 20510 net.cpp:395] scale3b2_branch2c -> res3b2_branch2c (in-place)
I0711 10:14:37.477856 20510 layer_factory.hpp:77] Creating layer scale3b2_branch2c
I0711 10:14:37.477958 20510 net.cpp:150] Setting up scale3b2_branch2c
I0711 10:14:37.477965 20510 net.cpp:157] Top shape: 16 512 38 38 (11829248)
I0711 10:14:37.477968 20510 net.cpp:165] Memory required for data: 4571041856
I0711 10:14:37.477975 20510 layer_factory.hpp:77] Creating layer res3b2
I0711 10:14:37.477982 20510 net.cpp:100] Creating Layer res3b2
I0711 10:14:37.477988 20510 net.cpp:434] res3b2 <- res3b1_res3b1_relu_0_split_1
I0711 10:14:37.477993 20510 net.cpp:434] res3b2 <- res3b2_branch2c
I0711 10:14:37.477999 20510 net.cpp:408] res3b2 -> res3b2
I0711 10:14:37.478026 20510 net.cpp:150] Setting up res3b2
I0711 10:14:37.478032 20510 net.cpp:157] Top shape: 16 512 38 38 (11829248)
I0711 10:14:37.478044 20510 net.cpp:165] Memory required for data: 4618358848
I0711 10:14:37.478049 20510 layer_factory.hpp:77] Creating layer res3b2_relu
I0711 10:14:37.478055 20510 net.cpp:100] Creating Layer res3b2_relu
I0711 10:14:37.478060 20510 net.cpp:434] res3b2_relu <- res3b2
I0711 10:14:37.478065 20510 net.cpp:395] res3b2_relu -> res3b2 (in-place)
I0711 10:14:37.478637 20510 net.cpp:150] Setting up res3b2_relu
I0711 10:14:37.478648 20510 net.cpp:157] Top shape: 16 512 38 38 (11829248)
I0711 10:14:37.478652 20510 net.cpp:165] Memory required for data: 4665675840
I0711 10:14:37.478654 20510 layer_factory.hpp:77] Creating layer res3b2_res3b2_relu_0_split
I0711 10:14:37.478662 20510 net.cpp:100] Creating Layer res3b2_res3b2_relu_0_split
I0711 10:14:37.478664 20510 net.cpp:434] res3b2_res3b2_relu_0_split <- res3b2
I0711 10:14:37.478672 20510 net.cpp:408] res3b2_res3b2_relu_0_split -> res3b2_res3b2_relu_0_split_0
I0711 10:14:37.478680 20510 net.cpp:408] res3b2_res3b2_relu_0_split -> res3b2_res3b2_relu_0_split_1
I0711 10:14:37.478724 20510 net.cpp:150] Setting up res3b2_res3b2_relu_0_split
I0711 10:14:37.478731 20510 net.cpp:157] Top shape: 16 512 38 38 (11829248)
I0711 10:14:37.478736 20510 net.cpp:157] Top shape: 16 512 38 38 (11829248)
I0711 10:14:37.478739 20510 net.cpp:165] Memory required for data: 4760309824
I0711 10:14:37.478742 20510 layer_factory.hpp:77] Creating layer res3b3_branch2a
I0711 10:14:37.478751 20510 net.cpp:100] Creating Layer res3b3_branch2a
I0711 10:14:37.478755 20510 net.cpp:434] res3b3_branch2a <- res3b2_res3b2_relu_0_split_0
I0711 10:14:37.478762 20510 net.cpp:408] res3b3_branch2a -> res3b3_branch2a
I0711 10:14:37.480288 20510 net.cpp:150] Setting up res3b3_branch2a
I0711 10:14:37.480299 20510 net.cpp:157] Top shape: 16 128 38 38 (2957312)
I0711 10:14:37.480304 20510 net.cpp:165] Memory required for data: 4772139072
I0711 10:14:37.480309 20510 layer_factory.hpp:77] Creating layer bn3b3_branch2a
I0711 10:14:37.480315 20510 net.cpp:100] Creating Layer bn3b3_branch2a
I0711 10:14:37.480321 20510 net.cpp:434] bn3b3_branch2a <- res3b3_branch2a
I0711 10:14:37.480326 20510 net.cpp:395] bn3b3_branch2a -> res3b3_branch2a (in-place)
I0711 10:14:37.480497 20510 net.cpp:150] Setting up bn3b3_branch2a
I0711 10:14:37.480505 20510 net.cpp:157] Top shape: 16 128 38 38 (2957312)
I0711 10:14:37.480509 20510 net.cpp:165] Memory required for data: 4783968320
I0711 10:14:37.480526 20510 layer_factory.hpp:77] Creating layer scale3b3_branch2a
I0711 10:14:37.480533 20510 net.cpp:100] Creating Layer scale3b3_branch2a
I0711 10:14:37.480538 20510 net.cpp:434] scale3b3_branch2a <- res3b3_branch2a
I0711 10:14:37.480545 20510 net.cpp:395] scale3b3_branch2a -> res3b3_branch2a (in-place)
I0711 10:14:37.480587 20510 layer_factory.hpp:77] Creating layer scale3b3_branch2a
I0711 10:14:37.480685 20510 net.cpp:150] Setting up scale3b3_branch2a
I0711 10:14:37.480693 20510 net.cpp:157] Top shape: 16 128 38 38 (2957312)
I0711 10:14:37.480696 20510 net.cpp:165] Memory required for data: 4795797568
I0711 10:14:37.480703 20510 layer_factory.hpp:77] Creating layer res3b3_branch2a_relu
I0711 10:14:37.480710 20510 net.cpp:100] Creating Layer res3b3_branch2a_relu
I0711 10:14:37.480715 20510 net.cpp:434] res3b3_branch2a_relu <- res3b3_branch2a
I0711 10:14:37.480720 20510 net.cpp:395] res3b3_branch2a_relu -> res3b3_branch2a (in-place)
I0711 10:14:37.481689 20510 net.cpp:150] Setting up res3b3_branch2a_relu
I0711 10:14:37.481700 20510 net.cpp:157] Top shape: 16 128 38 38 (2957312)
I0711 10:14:37.481703 20510 net.cpp:165] Memory required for data: 4807626816
I0711 10:14:37.481708 20510 layer_factory.hpp:77] Creating layer res3b3_branch2b
I0711 10:14:37.481716 20510 net.cpp:100] Creating Layer res3b3_branch2b
I0711 10:14:37.481721 20510 net.cpp:434] res3b3_branch2b <- res3b3_branch2a
I0711 10:14:37.481729 20510 net.cpp:408] res3b3_branch2b -> res3b3_branch2b
I0711 10:14:37.485102 20510 net.cpp:150] Setting up res3b3_branch2b
I0711 10:14:37.485115 20510 net.cpp:157] Top shape: 16 128 38 38 (2957312)
I0711 10:14:37.485129 20510 net.cpp:165] Memory required for data: 4819456064
I0711 10:14:37.485137 20510 layer_factory.hpp:77] Creating layer bn3b3_branch2b
I0711 10:14:37.485144 20510 net.cpp:100] Creating Layer bn3b3_branch2b
I0711 10:14:37.485149 20510 net.cpp:434] bn3b3_branch2b <- res3b3_branch2b
I0711 10:14:37.485154 20510 net.cpp:395] bn3b3_branch2b -> res3b3_branch2b (in-place)
I0711 10:14:37.485327 20510 net.cpp:150] Setting up bn3b3_branch2b
I0711 10:14:37.485334 20510 net.cpp:157] Top shape: 16 128 38 38 (2957312)
I0711 10:14:37.485337 20510 net.cpp:165] Memory required for data: 4831285312
I0711 10:14:37.485347 20510 layer_factory.hpp:77] Creating layer scale3b3_branch2b
I0711 10:14:37.485354 20510 net.cpp:100] Creating Layer scale3b3_branch2b
I0711 10:14:37.485359 20510 net.cpp:434] scale3b3_branch2b <- res3b3_branch2b
I0711 10:14:37.485365 20510 net.cpp:395] scale3b3_branch2b -> res3b3_branch2b (in-place)
I0711 10:14:37.485406 20510 layer_factory.hpp:77] Creating layer scale3b3_branch2b
I0711 10:14:37.485505 20510 net.cpp:150] Setting up scale3b3_branch2b
I0711 10:14:37.485512 20510 net.cpp:157] Top shape: 16 128 38 38 (2957312)
I0711 10:14:37.485515 20510 net.cpp:165] Memory required for data: 4843114560
I0711 10:14:37.485522 20510 layer_factory.hpp:77] Creating layer res3b3_branch2b_relu
I0711 10:14:37.485529 20510 net.cpp:100] Creating Layer res3b3_branch2b_relu
I0711 10:14:37.485534 20510 net.cpp:434] res3b3_branch2b_relu <- res3b3_branch2b
I0711 10:14:37.485539 20510 net.cpp:395] res3b3_branch2b_relu -> res3b3_branch2b (in-place)
I0711 10:14:37.485687 20510 net.cpp:150] Setting up res3b3_branch2b_relu
I0711 10:14:37.485697 20510 net.cpp:157] Top shape: 16 128 38 38 (2957312)
I0711 10:14:37.485699 20510 net.cpp:165] Memory required for data: 4854943808
I0711 10:14:37.485703 20510 layer_factory.hpp:77] Creating layer res3b3_branch2c
I0711 10:14:37.485711 20510 net.cpp:100] Creating Layer res3b3_branch2c
I0711 10:14:37.485716 20510 net.cpp:434] res3b3_branch2c <- res3b3_branch2b
I0711 10:14:37.485723 20510 net.cpp:408] res3b3_branch2c -> res3b3_branch2c
I0711 10:14:37.487686 20510 net.cpp:150] Setting up res3b3_branch2c
I0711 10:14:37.487699 20510 net.cpp:157] Top shape: 16 512 38 38 (11829248)
I0711 10:14:37.487701 20510 net.cpp:165] Memory required for data: 4902260800
I0711 10:14:37.487709 20510 layer_factory.hpp:77] Creating layer bn3b3_branch2c
I0711 10:14:37.487715 20510 net.cpp:100] Creating Layer bn3b3_branch2c
I0711 10:14:37.487718 20510 net.cpp:434] bn3b3_branch2c <- res3b3_branch2c
I0711 10:14:37.487725 20510 net.cpp:395] bn3b3_branch2c -> res3b3_branch2c (in-place)
I0711 10:14:37.487896 20510 net.cpp:150] Setting up bn3b3_branch2c
I0711 10:14:37.487903 20510 net.cpp:157] Top shape: 16 512 38 38 (11829248)
I0711 10:14:37.487907 20510 net.cpp:165] Memory required for data: 4949577792
I0711 10:14:37.487915 20510 layer_factory.hpp:77] Creating layer scale3b3_branch2c
I0711 10:14:37.487924 20510 net.cpp:100] Creating Layer scale3b3_branch2c
I0711 10:14:37.487928 20510 net.cpp:434] scale3b3_branch2c <- res3b3_branch2c
I0711 10:14:37.487934 20510 net.cpp:395] scale3b3_branch2c -> res3b3_branch2c (in-place)
I0711 10:14:37.487972 20510 layer_factory.hpp:77] Creating layer scale3b3_branch2c
I0711 10:14:37.488076 20510 net.cpp:150] Setting up scale3b3_branch2c
I0711 10:14:37.488085 20510 net.cpp:157] Top shape: 16 512 38 38 (11829248)
I0711 10:14:37.488087 20510 net.cpp:165] Memory required for data: 4996894784
I0711 10:14:37.488095 20510 layer_factory.hpp:77] Creating layer res3b3
I0711 10:14:37.488101 20510 net.cpp:100] Creating Layer res3b3
I0711 10:14:37.488106 20510 net.cpp:434] res3b3 <- res3b2_res3b2_relu_0_split_1
I0711 10:14:37.488111 20510 net.cpp:434] res3b3 <- res3b3_branch2c
I0711 10:14:37.488117 20510 net.cpp:408] res3b3 -> res3b3
I0711 10:14:37.488145 20510 net.cpp:150] Setting up res3b3
I0711 10:14:37.488152 20510 net.cpp:157] Top shape: 16 512 38 38 (11829248)
I0711 10:14:37.488155 20510 net.cpp:165] Memory required for data: 5044211776
I0711 10:14:37.488158 20510 layer_factory.hpp:77] Creating layer res3b3_relu
I0711 10:14:37.488174 20510 net.cpp:100] Creating Layer res3b3_relu
I0711 10:14:37.488180 20510 net.cpp:434] res3b3_relu <- res3b3
I0711 10:14:37.488185 20510 net.cpp:395] res3b3_relu -> res3b3 (in-place)
I0711 10:14:37.488759 20510 net.cpp:150] Setting up res3b3_relu
I0711 10:14:37.488770 20510 net.cpp:157] Top shape: 16 512 38 38 (11829248)
I0711 10:14:37.488773 20510 net.cpp:165] Memory required for data: 5091528768
I0711 10:14:37.488777 20510 layer_factory.hpp:77] Creating layer res3b3_res3b3_relu_0_split
I0711 10:14:37.488785 20510 net.cpp:100] Creating Layer res3b3_res3b3_relu_0_split
I0711 10:14:37.488790 20510 net.cpp:434] res3b3_res3b3_relu_0_split <- res3b3
I0711 10:14:37.488796 20510 net.cpp:408] res3b3_res3b3_relu_0_split -> res3b3_res3b3_relu_0_split_0
I0711 10:14:37.488806 20510 net.cpp:408] res3b3_res3b3_relu_0_split -> res3b3_res3b3_relu_0_split_1
I0711 10:14:37.488813 20510 net.cpp:408] res3b3_res3b3_relu_0_split -> res3b3_res3b3_relu_0_split_2
I0711 10:14:37.488822 20510 net.cpp:408] res3b3_res3b3_relu_0_split -> res3b3_res3b3_relu_0_split_3
I0711 10:14:37.488829 20510 net.cpp:408] res3b3_res3b3_relu_0_split -> res3b3_res3b3_relu_0_split_4
I0711 10:14:37.488903 20510 net.cpp:150] Setting up res3b3_res3b3_relu_0_split
I0711 10:14:37.488909 20510 net.cpp:157] Top shape: 16 512 38 38 (11829248)
I0711 10:14:37.488914 20510 net.cpp:157] Top shape: 16 512 38 38 (11829248)
I0711 10:14:37.488919 20510 net.cpp:157] Top shape: 16 512 38 38 (11829248)
I0711 10:14:37.488924 20510 net.cpp:157] Top shape: 16 512 38 38 (11829248)
I0711 10:14:37.488929 20510 net.cpp:157] Top shape: 16 512 38 38 (11829248)
I0711 10:14:37.488934 20510 net.cpp:165] Memory required for data: 5328113728
I0711 10:14:37.488936 20510 layer_factory.hpp:77] Creating layer res4a_branch1
I0711 10:14:37.488945 20510 net.cpp:100] Creating Layer res4a_branch1
I0711 10:14:37.488950 20510 net.cpp:434] res4a_branch1 <- res3b3_res3b3_relu_0_split_0
I0711 10:14:37.488956 20510 net.cpp:408] res4a_branch1 -> res4a_branch1
I0711 10:14:37.495291 20510 net.cpp:150] Setting up res4a_branch1
I0711 10:14:37.495309 20510 net.cpp:157] Top shape: 16 1024 19 19 (5914624)
I0711 10:14:37.495313 20510 net.cpp:165] Memory required for data: 5351772224
I0711 10:14:37.495321 20510 layer_factory.hpp:77] Creating layer bn4a_branch1
I0711 10:14:37.495331 20510 net.cpp:100] Creating Layer bn4a_branch1
I0711 10:14:37.495337 20510 net.cpp:434] bn4a_branch1 <- res4a_branch1
I0711 10:14:37.495344 20510 net.cpp:395] bn4a_branch1 -> res4a_branch1 (in-place)
I0711 10:14:37.495522 20510 net.cpp:150] Setting up bn4a_branch1
I0711 10:14:37.495529 20510 net.cpp:157] Top shape: 16 1024 19 19 (5914624)
I0711 10:14:37.495532 20510 net.cpp:165] Memory required for data: 5375430720
I0711 10:14:37.495542 20510 layer_factory.hpp:77] Creating layer scale4a_branch1
I0711 10:14:37.495550 20510 net.cpp:100] Creating Layer scale4a_branch1
I0711 10:14:37.495555 20510 net.cpp:434] scale4a_branch1 <- res4a_branch1
I0711 10:14:37.495561 20510 net.cpp:395] scale4a_branch1 -> res4a_branch1 (in-place)
I0711 10:14:37.495609 20510 layer_factory.hpp:77] Creating layer scale4a_branch1
I0711 10:14:37.495707 20510 net.cpp:150] Setting up scale4a_branch1
I0711 10:14:37.495714 20510 net.cpp:157] Top shape: 16 1024 19 19 (5914624)
I0711 10:14:37.495718 20510 net.cpp:165] Memory required for data: 5399089216
I0711 10:14:37.495724 20510 layer_factory.hpp:77] Creating layer res4a_branch2a
I0711 10:14:37.495735 20510 net.cpp:100] Creating Layer res4a_branch2a
I0711 10:14:37.495740 20510 net.cpp:434] res4a_branch2a <- res3b3_res3b3_relu_0_split_1
I0711 10:14:37.495748 20510 net.cpp:408] res4a_branch2a -> res4a_branch2a
I0711 10:14:37.498224 20510 net.cpp:150] Setting up res4a_branch2a
I0711 10:14:37.498235 20510 net.cpp:157] Top shape: 16 256 19 19 (1478656)
I0711 10:14:37.498239 20510 net.cpp:165] Memory required for data: 5405003840
I0711 10:14:37.498245 20510 layer_factory.hpp:77] Creating layer bn4a_branch2a
I0711 10:14:37.498253 20510 net.cpp:100] Creating Layer bn4a_branch2a
I0711 10:14:37.498258 20510 net.cpp:434] bn4a_branch2a <- res4a_branch2a
I0711 10:14:37.498275 20510 net.cpp:395] bn4a_branch2a -> res4a_branch2a (in-place)
I0711 10:14:37.498450 20510 net.cpp:150] Setting up bn4a_branch2a
I0711 10:14:37.498456 20510 net.cpp:157] Top shape: 16 256 19 19 (1478656)
I0711 10:14:37.498459 20510 net.cpp:165] Memory required for data: 5410918464
I0711 10:14:37.498468 20510 layer_factory.hpp:77] Creating layer scale4a_branch2a
I0711 10:14:37.498477 20510 net.cpp:100] Creating Layer scale4a_branch2a
I0711 10:14:37.498481 20510 net.cpp:434] scale4a_branch2a <- res4a_branch2a
I0711 10:14:37.498488 20510 net.cpp:395] scale4a_branch2a -> res4a_branch2a (in-place)
I0711 10:14:37.498529 20510 layer_factory.hpp:77] Creating layer scale4a_branch2a
I0711 10:14:37.498627 20510 net.cpp:150] Setting up scale4a_branch2a
I0711 10:14:37.498634 20510 net.cpp:157] Top shape: 16 256 19 19 (1478656)
I0711 10:14:37.498637 20510 net.cpp:165] Memory required for data: 5416833088
I0711 10:14:37.498644 20510 layer_factory.hpp:77] Creating layer res4a_branch2a_relu
I0711 10:14:37.498652 20510 net.cpp:100] Creating Layer res4a_branch2a_relu
I0711 10:14:37.498656 20510 net.cpp:434] res4a_branch2a_relu <- res4a_branch2a
I0711 10:14:37.498661 20510 net.cpp:395] res4a_branch2a_relu -> res4a_branch2a (in-place)
I0711 10:14:37.499233 20510 net.cpp:150] Setting up res4a_branch2a_relu
I0711 10:14:37.499244 20510 net.cpp:157] Top shape: 16 256 19 19 (1478656)
I0711 10:14:37.499248 20510 net.cpp:165] Memory required for data: 5422747712
I0711 10:14:37.499250 20510 layer_factory.hpp:77] Creating layer res4a_branch2b
I0711 10:14:37.499260 20510 net.cpp:100] Creating Layer res4a_branch2b
I0711 10:14:37.499265 20510 net.cpp:434] res4a_branch2b <- res4a_branch2a
I0711 10:14:37.499272 20510 net.cpp:408] res4a_branch2b -> res4a_branch2b
I0711 10:14:37.506472 20510 net.cpp:150] Setting up res4a_branch2b
I0711 10:14:37.506486 20510 net.cpp:157] Top shape: 16 256 19 19 (1478656)
I0711 10:14:37.506489 20510 net.cpp:165] Memory required for data: 5428662336
I0711 10:14:37.506495 20510 layer_factory.hpp:77] Creating layer bn4a_branch2b
I0711 10:14:37.506502 20510 net.cpp:100] Creating Layer bn4a_branch2b
I0711 10:14:37.506506 20510 net.cpp:434] bn4a_branch2b <- res4a_branch2b
I0711 10:14:37.506512 20510 net.cpp:395] bn4a_branch2b -> res4a_branch2b (in-place)
I0711 10:14:37.506690 20510 net.cpp:150] Setting up bn4a_branch2b
I0711 10:14:37.506698 20510 net.cpp:157] Top shape: 16 256 19 19 (1478656)
I0711 10:14:37.506701 20510 net.cpp:165] Memory required for data: 5434576960
I0711 10:14:37.506711 20510 layer_factory.hpp:77] Creating layer scale4a_branch2b
I0711 10:14:37.506718 20510 net.cpp:100] Creating Layer scale4a_branch2b
I0711 10:14:37.506723 20510 net.cpp:434] scale4a_branch2b <- res4a_branch2b
I0711 10:14:37.506729 20510 net.cpp:395] scale4a_branch2b -> res4a_branch2b (in-place)
I0711 10:14:37.506772 20510 layer_factory.hpp:77] Creating layer scale4a_branch2b
I0711 10:14:37.506880 20510 net.cpp:150] Setting up scale4a_branch2b
I0711 10:14:37.506887 20510 net.cpp:157] Top shape: 16 256 19 19 (1478656)
I0711 10:14:37.506891 20510 net.cpp:165] Memory required for data: 5440491584
I0711 10:14:37.506897 20510 layer_factory.hpp:77] Creating layer res4a_branch2b_relu
I0711 10:14:37.506904 20510 net.cpp:100] Creating Layer res4a_branch2b_relu
I0711 10:14:37.506909 20510 net.cpp:434] res4a_branch2b_relu <- res4a_branch2b
I0711 10:14:37.506914 20510 net.cpp:395] res4a_branch2b_relu -> res4a_branch2b (in-place)
I0711 10:14:37.507062 20510 net.cpp:150] Setting up res4a_branch2b_relu
I0711 10:14:37.507071 20510 net.cpp:157] Top shape: 16 256 19 19 (1478656)
I0711 10:14:37.507074 20510 net.cpp:165] Memory required for data: 5446406208
I0711 10:14:37.507077 20510 layer_factory.hpp:77] Creating layer res4a_branch2c
I0711 10:14:37.507086 20510 net.cpp:100] Creating Layer res4a_branch2c
I0711 10:14:37.507091 20510 net.cpp:434] res4a_branch2c <- res4a_branch2b
I0711 10:14:37.507097 20510 net.cpp:408] res4a_branch2c -> res4a_branch2c
I0711 10:14:37.511015 20510 net.cpp:150] Setting up res4a_branch2c
I0711 10:14:37.511040 20510 net.cpp:157] Top shape: 16 1024 19 19 (5914624)
I0711 10:14:37.511044 20510 net.cpp:165] Memory required for data: 5470064704
I0711 10:14:37.511050 20510 layer_factory.hpp:77] Creating layer bn4a_branch2c
I0711 10:14:37.511060 20510 net.cpp:100] Creating Layer bn4a_branch2c
I0711 10:14:37.511065 20510 net.cpp:434] bn4a_branch2c <- res4a_branch2c
I0711 10:14:37.511071 20510 net.cpp:395] bn4a_branch2c -> res4a_branch2c (in-place)
I0711 10:14:37.511248 20510 net.cpp:150] Setting up bn4a_branch2c
I0711 10:14:37.511255 20510 net.cpp:157] Top shape: 16 1024 19 19 (5914624)
I0711 10:14:37.511260 20510 net.cpp:165] Memory required for data: 5493723200
I0711 10:14:37.511267 20510 layer_factory.hpp:77] Creating layer scale4a_branch2c
I0711 10:14:37.511276 20510 net.cpp:100] Creating Layer scale4a_branch2c
I0711 10:14:37.511281 20510 net.cpp:434] scale4a_branch2c <- res4a_branch2c
I0711 10:14:37.511286 20510 net.cpp:395] scale4a_branch2c -> res4a_branch2c (in-place)
I0711 10:14:37.511329 20510 layer_factory.hpp:77] Creating layer scale4a_branch2c
I0711 10:14:37.511430 20510 net.cpp:150] Setting up scale4a_branch2c
I0711 10:14:37.511437 20510 net.cpp:157] Top shape: 16 1024 19 19 (5914624)
I0711 10:14:37.511440 20510 net.cpp:165] Memory required for data: 5517381696
I0711 10:14:37.511447 20510 layer_factory.hpp:77] Creating layer res4a
I0711 10:14:37.511454 20510 net.cpp:100] Creating Layer res4a
I0711 10:14:37.511459 20510 net.cpp:434] res4a <- res4a_branch1
I0711 10:14:37.511464 20510 net.cpp:434] res4a <- res4a_branch2c
I0711 10:14:37.511469 20510 net.cpp:408] res4a -> res4a
I0711 10:14:37.511505 20510 net.cpp:150] Setting up res4a
I0711 10:14:37.511513 20510 net.cpp:157] Top shape: 16 1024 19 19 (5914624)
I0711 10:14:37.511518 20510 net.cpp:165] Memory required for data: 5541040192
I0711 10:14:37.511520 20510 layer_factory.hpp:77] Creating layer res4a_relu
I0711 10:14:37.511525 20510 net.cpp:100] Creating Layer res4a_relu
I0711 10:14:37.511530 20510 net.cpp:434] res4a_relu <- res4a
I0711 10:14:37.511535 20510 net.cpp:395] res4a_relu -> res4a (in-place)
I0711 10:14:37.511682 20510 net.cpp:150] Setting up res4a_relu
I0711 10:14:37.511689 20510 net.cpp:157] Top shape: 16 1024 19 19 (5914624)
I0711 10:14:37.511693 20510 net.cpp:165] Memory required for data: 5564698688
I0711 10:14:37.511695 20510 layer_factory.hpp:77] Creating layer res4a_res4a_relu_0_split
I0711 10:14:37.511713 20510 net.cpp:100] Creating Layer res4a_res4a_relu_0_split
I0711 10:14:37.511718 20510 net.cpp:434] res4a_res4a_relu_0_split <- res4a
I0711 10:14:37.511723 20510 net.cpp:408] res4a_res4a_relu_0_split -> res4a_res4a_relu_0_split_0
I0711 10:14:37.511732 20510 net.cpp:408] res4a_res4a_relu_0_split -> res4a_res4a_relu_0_split_1
I0711 10:14:37.511775 20510 net.cpp:150] Setting up res4a_res4a_relu_0_split
I0711 10:14:37.511781 20510 net.cpp:157] Top shape: 16 1024 19 19 (5914624)
I0711 10:14:37.511786 20510 net.cpp:157] Top shape: 16 1024 19 19 (5914624)
I0711 10:14:37.511790 20510 net.cpp:165] Memory required for data: 5612015680
I0711 10:14:37.511793 20510 layer_factory.hpp:77] Creating layer res4b1_branch2a
I0711 10:14:37.511802 20510 net.cpp:100] Creating Layer res4b1_branch2a
I0711 10:14:37.511806 20510 net.cpp:434] res4b1_branch2a <- res4a_res4a_relu_0_split_0
I0711 10:14:37.511812 20510 net.cpp:408] res4b1_branch2a -> res4b1_branch2a
I0711 10:14:37.515741 20510 net.cpp:150] Setting up res4b1_branch2a
I0711 10:14:37.515756 20510 net.cpp:157] Top shape: 16 256 19 19 (1478656)
I0711 10:14:37.515759 20510 net.cpp:165] Memory required for data: 5617930304
I0711 10:14:37.515768 20510 layer_factory.hpp:77] Creating layer bn4b1_branch2a
I0711 10:14:37.515774 20510 net.cpp:100] Creating Layer bn4b1_branch2a
I0711 10:14:37.515779 20510 net.cpp:434] bn4b1_branch2a <- res4b1_branch2a
I0711 10:14:37.515785 20510 net.cpp:395] bn4b1_branch2a -> res4b1_branch2a (in-place)
I0711 10:14:37.515965 20510 net.cpp:150] Setting up bn4b1_branch2a
I0711 10:14:37.515974 20510 net.cpp:157] Top shape: 16 256 19 19 (1478656)
I0711 10:14:37.515987 20510 net.cpp:165] Memory required for data: 5623844928
I0711 10:14:37.515997 20510 layer_factory.hpp:77] Creating layer scale4b1_branch2a
I0711 10:14:37.516005 20510 net.cpp:100] Creating Layer scale4b1_branch2a
I0711 10:14:37.516010 20510 net.cpp:434] scale4b1_branch2a <- res4b1_branch2a
I0711 10:14:37.516016 20510 net.cpp:395] scale4b1_branch2a -> res4b1_branch2a (in-place)
I0711 10:14:37.516062 20510 layer_factory.hpp:77] Creating layer scale4b1_branch2a
I0711 10:14:37.516165 20510 net.cpp:150] Setting up scale4b1_branch2a
I0711 10:14:37.516171 20510 net.cpp:157] Top shape: 16 256 19 19 (1478656)
I0711 10:14:37.516175 20510 net.cpp:165] Memory required for data: 5629759552
I0711 10:14:37.516181 20510 layer_factory.hpp:77] Creating layer res4b1_branch2a_relu
I0711 10:14:37.516189 20510 net.cpp:100] Creating Layer res4b1_branch2a_relu
I0711 10:14:37.516194 20510 net.cpp:434] res4b1_branch2a_relu <- res4b1_branch2a
I0711 10:14:37.516199 20510 net.cpp:395] res4b1_branch2a_relu -> res4b1_branch2a (in-place)
I0711 10:14:37.516774 20510 net.cpp:150] Setting up res4b1_branch2a_relu
I0711 10:14:37.516785 20510 net.cpp:157] Top shape: 16 256 19 19 (1478656)
I0711 10:14:37.516788 20510 net.cpp:165] Memory required for data: 5635674176
I0711 10:14:37.516793 20510 layer_factory.hpp:77] Creating layer res4b1_branch2b
I0711 10:14:37.516801 20510 net.cpp:100] Creating Layer res4b1_branch2b
I0711 10:14:37.516806 20510 net.cpp:434] res4b1_branch2b <- res4b1_branch2a
I0711 10:14:37.516813 20510 net.cpp:408] res4b1_branch2b -> res4b1_branch2b
I0711 10:14:37.524173 20510 net.cpp:150] Setting up res4b1_branch2b
I0711 10:14:37.524189 20510 net.cpp:157] Top shape: 16 256 19 19 (1478656)
I0711 10:14:37.524194 20510 net.cpp:165] Memory required for data: 5641588800
I0711 10:14:37.524200 20510 layer_factory.hpp:77] Creating layer bn4b1_branch2b
I0711 10:14:37.524207 20510 net.cpp:100] Creating Layer bn4b1_branch2b
I0711 10:14:37.524215 20510 net.cpp:434] bn4b1_branch2b <- res4b1_branch2b
I0711 10:14:37.524222 20510 net.cpp:395] bn4b1_branch2b -> res4b1_branch2b (in-place)
I0711 10:14:37.525199 20510 net.cpp:150] Setting up bn4b1_branch2b
I0711 10:14:37.525209 20510 net.cpp:157] Top shape: 16 256 19 19 (1478656)
I0711 10:14:37.525213 20510 net.cpp:165] Memory required for data: 5647503424
I0711 10:14:37.525221 20510 layer_factory.hpp:77] Creating layer scale4b1_branch2b
I0711 10:14:37.525234 20510 net.cpp:100] Creating Layer scale4b1_branch2b
I0711 10:14:37.525240 20510 net.cpp:434] scale4b1_branch2b <- res4b1_branch2b
I0711 10:14:37.525246 20510 net.cpp:395] scale4b1_branch2b -> res4b1_branch2b (in-place)
I0711 10:14:37.525295 20510 layer_factory.hpp:77] Creating layer scale4b1_branch2b
I0711 10:14:37.525400 20510 net.cpp:150] Setting up scale4b1_branch2b
I0711 10:14:37.525408 20510 net.cpp:157] Top shape: 16 256 19 19 (1478656)
I0711 10:14:37.525410 20510 net.cpp:165] Memory required for data: 5653418048
I0711 10:14:37.525418 20510 layer_factory.hpp:77] Creating layer res4b1_branch2b_relu
I0711 10:14:37.525425 20510 net.cpp:100] Creating Layer res4b1_branch2b_relu
I0711 10:14:37.525430 20510 net.cpp:434] res4b1_branch2b_relu <- res4b1_branch2b
I0711 10:14:37.525436 20510 net.cpp:395] res4b1_branch2b_relu -> res4b1_branch2b (in-place)
I0711 10:14:37.526006 20510 net.cpp:150] Setting up res4b1_branch2b_relu
I0711 10:14:37.526016 20510 net.cpp:157] Top shape: 16 256 19 19 (1478656)
I0711 10:14:37.526021 20510 net.cpp:165] Memory required for data: 5659332672
I0711 10:14:37.526023 20510 layer_factory.hpp:77] Creating layer res4b1_branch2c
I0711 10:14:37.526033 20510 net.cpp:100] Creating Layer res4b1_branch2c
I0711 10:14:37.526038 20510 net.cpp:434] res4b1_branch2c <- res4b1_branch2b
I0711 10:14:37.526046 20510 net.cpp:408] res4b1_branch2c -> res4b1_branch2c
I0711 10:14:37.529984 20510 net.cpp:150] Setting up res4b1_branch2c
I0711 10:14:37.529997 20510 net.cpp:157] Top shape: 16 1024 19 19 (5914624)
I0711 10:14:37.530000 20510 net.cpp:165] Memory required for data: 5682991168
I0711 10:14:37.530007 20510 layer_factory.hpp:77] Creating layer bn4b1_branch2c
I0711 10:14:37.530030 20510 net.cpp:100] Creating Layer bn4b1_branch2c
I0711 10:14:37.530036 20510 net.cpp:434] bn4b1_branch2c <- res4b1_branch2c
I0711 10:14:37.530042 20510 net.cpp:395] bn4b1_branch2c -> res4b1_branch2c (in-place)
I0711 10:14:37.530228 20510 net.cpp:150] Setting up bn4b1_branch2c
I0711 10:14:37.530236 20510 net.cpp:157] Top shape: 16 1024 19 19 (5914624)
I0711 10:14:37.530239 20510 net.cpp:165] Memory required for data: 5706649664
I0711 10:14:37.530248 20510 layer_factory.hpp:77] Creating layer scale4b1_branch2c
I0711 10:14:37.530257 20510 net.cpp:100] Creating Layer scale4b1_branch2c
I0711 10:14:37.530262 20510 net.cpp:434] scale4b1_branch2c <- res4b1_branch2c
I0711 10:14:37.530268 20510 net.cpp:395] scale4b1_branch2c -> res4b1_branch2c (in-place)
I0711 10:14:37.530313 20510 layer_factory.hpp:77] Creating layer scale4b1_branch2c
I0711 10:14:37.530418 20510 net.cpp:150] Setting up scale4b1_branch2c
I0711 10:14:37.530426 20510 net.cpp:157] Top shape: 16 1024 19 19 (5914624)
I0711 10:14:37.530428 20510 net.cpp:165] Memory required for data: 5730308160
I0711 10:14:37.530436 20510 layer_factory.hpp:77] Creating layer res4b1
I0711 10:14:37.530442 20510 net.cpp:100] Creating Layer res4b1
I0711 10:14:37.530447 20510 net.cpp:434] res4b1 <- res4a_res4a_relu_0_split_1
I0711 10:14:37.530452 20510 net.cpp:434] res4b1 <- res4b1_branch2c
I0711 10:14:37.530459 20510 net.cpp:408] res4b1 -> res4b1
I0711 10:14:37.530488 20510 net.cpp:150] Setting up res4b1
I0711 10:14:37.530495 20510 net.cpp:157] Top shape: 16 1024 19 19 (5914624)
I0711 10:14:37.530498 20510 net.cpp:165] Memory required for data: 5753966656
I0711 10:14:37.530501 20510 layer_factory.hpp:77] Creating layer res4b1_relu
I0711 10:14:37.530508 20510 net.cpp:100] Creating Layer res4b1_relu
I0711 10:14:37.530513 20510 net.cpp:434] res4b1_relu <- res4b1
I0711 10:14:37.530519 20510 net.cpp:395] res4b1_relu -> res4b1 (in-place)
I0711 10:14:37.530668 20510 net.cpp:150] Setting up res4b1_relu
I0711 10:14:37.530675 20510 net.cpp:157] Top shape: 16 1024 19 19 (5914624)
I0711 10:14:37.530678 20510 net.cpp:165] Memory required for data: 5777625152
I0711 10:14:37.530683 20510 layer_factory.hpp:77] Creating layer res4b1_res4b1_relu_0_split
I0711 10:14:37.530689 20510 net.cpp:100] Creating Layer res4b1_res4b1_relu_0_split
I0711 10:14:37.530694 20510 net.cpp:434] res4b1_res4b1_relu_0_split <- res4b1
I0711 10:14:37.530699 20510 net.cpp:408] res4b1_res4b1_relu_0_split -> res4b1_res4b1_relu_0_split_0
I0711 10:14:37.530709 20510 net.cpp:408] res4b1_res4b1_relu_0_split -> res4b1_res4b1_relu_0_split_1
I0711 10:14:37.530751 20510 net.cpp:150] Setting up res4b1_res4b1_relu_0_split
I0711 10:14:37.530758 20510 net.cpp:157] Top shape: 16 1024 19 19 (5914624)
I0711 10:14:37.530763 20510 net.cpp:157] Top shape: 16 1024 19 19 (5914624)
I0711 10:14:37.530766 20510 net.cpp:165] Memory required for data: 5824942144
I0711 10:14:37.530769 20510 layer_factory.hpp:77] Creating layer res4b2_branch2a
I0711 10:14:37.530778 20510 net.cpp:100] Creating Layer res4b2_branch2a
I0711 10:14:37.530782 20510 net.cpp:434] res4b2_branch2a <- res4b1_res4b1_relu_0_split_0
I0711 10:14:37.530789 20510 net.cpp:408] res4b2_branch2a -> res4b2_branch2a
I0711 10:14:37.534799 20510 net.cpp:150] Setting up res4b2_branch2a
I0711 10:14:37.534821 20510 net.cpp:157] Top shape: 16 256 19 19 (1478656)
I0711 10:14:37.534824 20510 net.cpp:165] Memory required for data: 5830856768
I0711 10:14:37.534832 20510 layer_factory.hpp:77] Creating layer bn4b2_branch2a
I0711 10:14:37.534840 20510 net.cpp:100] Creating Layer bn4b2_branch2a
I0711 10:14:37.534847 20510 net.cpp:434] bn4b2_branch2a <- res4b2_branch2a
I0711 10:14:37.534854 20510 net.cpp:395] bn4b2_branch2a -> res4b2_branch2a (in-place)
I0711 10:14:37.535048 20510 net.cpp:150] Setting up bn4b2_branch2a
I0711 10:14:37.535055 20510 net.cpp:157] Top shape: 16 256 19 19 (1478656)
I0711 10:14:37.535058 20510 net.cpp:165] Memory required for data: 5836771392
I0711 10:14:37.535068 20510 layer_factory.hpp:77] Creating layer scale4b2_branch2a
I0711 10:14:37.535076 20510 net.cpp:100] Creating Layer scale4b2_branch2a
I0711 10:14:37.535092 20510 net.cpp:434] scale4b2_branch2a <- res4b2_branch2a
I0711 10:14:37.535099 20510 net.cpp:395] scale4b2_branch2a -> res4b2_branch2a (in-place)
I0711 10:14:37.535148 20510 layer_factory.hpp:77] Creating layer scale4b2_branch2a
I0711 10:14:37.535256 20510 net.cpp:150] Setting up scale4b2_branch2a
I0711 10:14:37.535264 20510 net.cpp:157] Top shape: 16 256 19 19 (1478656)
I0711 10:14:37.535266 20510 net.cpp:165] Memory required for data: 5842686016
I0711 10:14:37.535274 20510 layer_factory.hpp:77] Creating layer res4b2_branch2a_relu
I0711 10:14:37.535281 20510 net.cpp:100] Creating Layer res4b2_branch2a_relu
I0711 10:14:37.535286 20510 net.cpp:434] res4b2_branch2a_relu <- res4b2_branch2a
I0711 10:14:37.535292 20510 net.cpp:395] res4b2_branch2a_relu -> res4b2_branch2a (in-place)
I0711 10:14:37.535884 20510 net.cpp:150] Setting up res4b2_branch2a_relu
I0711 10:14:37.535895 20510 net.cpp:157] Top shape: 16 256 19 19 (1478656)
I0711 10:14:37.535898 20510 net.cpp:165] Memory required for data: 5848600640
I0711 10:14:37.535902 20510 layer_factory.hpp:77] Creating layer res4b2_branch2b
I0711 10:14:37.535914 20510 net.cpp:100] Creating Layer res4b2_branch2b
I0711 10:14:37.535918 20510 net.cpp:434] res4b2_branch2b <- res4b2_branch2a
I0711 10:14:37.535925 20510 net.cpp:408] res4b2_branch2b -> res4b2_branch2b
I0711 10:14:37.543341 20510 net.cpp:150] Setting up res4b2_branch2b
I0711 10:14:37.543357 20510 net.cpp:157] Top shape: 16 256 19 19 (1478656)
I0711 10:14:37.543361 20510 net.cpp:165] Memory required for data: 5854515264
I0711 10:14:37.543367 20510 layer_factory.hpp:77] Creating layer bn4b2_branch2b
I0711 10:14:37.543376 20510 net.cpp:100] Creating Layer bn4b2_branch2b
I0711 10:14:37.543390 20510 net.cpp:434] bn4b2_branch2b <- res4b2_branch2b
I0711 10:14:37.543397 20510 net.cpp:395] bn4b2_branch2b -> res4b2_branch2b (in-place)
I0711 10:14:37.543606 20510 net.cpp:150] Setting up bn4b2_branch2b
I0711 10:14:37.543613 20510 net.cpp:157] Top shape: 16 256 19 19 (1478656)
I0711 10:14:37.543617 20510 net.cpp:165] Memory required for data: 5860429888
I0711 10:14:37.543624 20510 layer_factory.hpp:77] Creating layer scale4b2_branch2b
I0711 10:14:37.543637 20510 net.cpp:100] Creating Layer scale4b2_branch2b
I0711 10:14:37.543643 20510 net.cpp:434] scale4b2_branch2b <- res4b2_branch2b
I0711 10:14:37.543649 20510 net.cpp:395] scale4b2_branch2b -> res4b2_branch2b (in-place)
I0711 10:14:37.543701 20510 layer_factory.hpp:77] Creating layer scale4b2_branch2b
I0711 10:14:37.543818 20510 net.cpp:150] Setting up scale4b2_branch2b
I0711 10:14:37.543825 20510 net.cpp:157] Top shape: 16 256 19 19 (1478656)
I0711 10:14:37.543828 20510 net.cpp:165] Memory required for data: 5866344512
I0711 10:14:37.543835 20510 layer_factory.hpp:77] Creating layer res4b2_branch2b_relu
I0711 10:14:37.543843 20510 net.cpp:100] Creating Layer res4b2_branch2b_relu
I0711 10:14:37.543848 20510 net.cpp:434] res4b2_branch2b_relu <- res4b2_branch2b
I0711 10:14:37.543855 20510 net.cpp:395] res4b2_branch2b_relu -> res4b2_branch2b (in-place)
I0711 10:14:37.544015 20510 net.cpp:150] Setting up res4b2_branch2b_relu
I0711 10:14:37.544024 20510 net.cpp:157] Top shape: 16 256 19 19 (1478656)
I0711 10:14:37.544028 20510 net.cpp:165] Memory required for data: 5872259136
I0711 10:14:37.544030 20510 layer_factory.hpp:77] Creating layer res4b2_branch2c
I0711 10:14:37.544042 20510 net.cpp:100] Creating Layer res4b2_branch2c
I0711 10:14:37.544046 20510 net.cpp:434] res4b2_branch2c <- res4b2_branch2b
I0711 10:14:37.544054 20510 net.cpp:408] res4b2_branch2c -> res4b2_branch2c
I0711 10:14:37.548852 20510 net.cpp:150] Setting up res4b2_branch2c
I0711 10:14:37.548872 20510 net.cpp:157] Top shape: 16 1024 19 19 (5914624)
I0711 10:14:37.548877 20510 net.cpp:165] Memory required for data: 5895917632
I0711 10:14:37.548883 20510 layer_factory.hpp:77] Creating layer bn4b2_branch2c
I0711 10:14:37.548892 20510 net.cpp:100] Creating Layer bn4b2_branch2c
I0711 10:14:37.548897 20510 net.cpp:434] bn4b2_branch2c <- res4b2_branch2c
I0711 10:14:37.548921 20510 net.cpp:395] bn4b2_branch2c -> res4b2_branch2c (in-place)
I0711 10:14:37.549129 20510 net.cpp:150] Setting up bn4b2_branch2c
I0711 10:14:37.549136 20510 net.cpp:157] Top shape: 16 1024 19 19 (5914624)
I0711 10:14:37.549139 20510 net.cpp:165] Memory required for data: 5919576128
I0711 10:14:37.549147 20510 layer_factory.hpp:77] Creating layer scale4b2_branch2c
I0711 10:14:37.549165 20510 net.cpp:100] Creating Layer scale4b2_branch2c
I0711 10:14:37.549170 20510 net.cpp:434] scale4b2_branch2c <- res4b2_branch2c
I0711 10:14:37.549175 20510 net.cpp:395] scale4b2_branch2c -> res4b2_branch2c (in-place)
I0711 10:14:37.549228 20510 layer_factory.hpp:77] Creating layer scale4b2_branch2c
I0711 10:14:37.549342 20510 net.cpp:150] Setting up scale4b2_branch2c
I0711 10:14:37.549350 20510 net.cpp:157] Top shape: 16 1024 19 19 (5914624)
I0711 10:14:37.549352 20510 net.cpp:165] Memory required for data: 5943234624
I0711 10:14:37.549360 20510 layer_factory.hpp:77] Creating layer res4b2
I0711 10:14:37.549368 20510 net.cpp:100] Creating Layer res4b2
I0711 10:14:37.549373 20510 net.cpp:434] res4b2 <- res4b1_res4b1_relu_0_split_1
I0711 10:14:37.549378 20510 net.cpp:434] res4b2 <- res4b2_branch2c
I0711 10:14:37.549387 20510 net.cpp:408] res4b2 -> res4b2
I0711 10:14:37.549417 20510 net.cpp:150] Setting up res4b2
I0711 10:14:37.549424 20510 net.cpp:157] Top shape: 16 1024 19 19 (5914624)
I0711 10:14:37.549427 20510 net.cpp:165] Memory required for data: 5966893120
I0711 10:14:37.549430 20510 layer_factory.hpp:77] Creating layer res4b2_relu
I0711 10:14:37.549438 20510 net.cpp:100] Creating Layer res4b2_relu
I0711 10:14:37.549443 20510 net.cpp:434] res4b2_relu <- res4b2
I0711 10:14:37.549448 20510 net.cpp:395] res4b2_relu -> res4b2 (in-place)
I0711 10:14:37.549608 20510 net.cpp:150] Setting up res4b2_relu
I0711 10:14:37.549616 20510 net.cpp:157] Top shape: 16 1024 19 19 (5914624)
I0711 10:14:37.549619 20510 net.cpp:165] Memory required for data: 5990551616
I0711 10:14:37.549623 20510 layer_factory.hpp:77] Creating layer res4b2_res4b2_relu_0_split
I0711 10:14:37.549630 20510 net.cpp:100] Creating Layer res4b2_res4b2_relu_0_split
I0711 10:14:37.549635 20510 net.cpp:434] res4b2_res4b2_relu_0_split <- res4b2
I0711 10:14:37.549641 20510 net.cpp:408] res4b2_res4b2_relu_0_split -> res4b2_res4b2_relu_0_split_0
I0711 10:14:37.549650 20510 net.cpp:408] res4b2_res4b2_relu_0_split -> res4b2_res4b2_relu_0_split_1
I0711 10:14:37.549697 20510 net.cpp:150] Setting up res4b2_res4b2_relu_0_split
I0711 10:14:37.549705 20510 net.cpp:157] Top shape: 16 1024 19 19 (5914624)
I0711 10:14:37.549710 20510 net.cpp:157] Top shape: 16 1024 19 19 (5914624)
I0711 10:14:37.549712 20510 net.cpp:165] Memory required for data: 6037868608
I0711 10:14:37.549715 20510 layer_factory.hpp:77] Creating layer res4b3_branch2a
I0711 10:14:37.549726 20510 net.cpp:100] Creating Layer res4b3_branch2a
I0711 10:14:37.549729 20510 net.cpp:434] res4b3_branch2a <- res4b2_res4b2_relu_0_split_0
I0711 10:14:37.549737 20510 net.cpp:408] res4b3_branch2a -> res4b3_branch2a
I0711 10:14:37.553863 20510 net.cpp:150] Setting up res4b3_branch2a
I0711 10:14:37.553884 20510 net.cpp:157] Top shape: 16 256 19 19 (1478656)
I0711 10:14:37.553886 20510 net.cpp:165] Memory required for data: 6043783232
I0711 10:14:37.553894 20510 layer_factory.hpp:77] Creating layer bn4b3_branch2a
I0711 10:14:37.553905 20510 net.cpp:100] Creating Layer bn4b3_branch2a
I0711 10:14:37.553910 20510 net.cpp:434] bn4b3_branch2a <- res4b3_branch2a
I0711 10:14:37.553917 20510 net.cpp:395] bn4b3_branch2a -> res4b3_branch2a (in-place)
I0711 10:14:37.554127 20510 net.cpp:150] Setting up bn4b3_branch2a
I0711 10:14:37.554136 20510 net.cpp:157] Top shape: 16 256 19 19 (1478656)
I0711 10:14:37.554138 20510 net.cpp:165] Memory required for data: 6049697856
I0711 10:14:37.554147 20510 layer_factory.hpp:77] Creating layer scale4b3_branch2a
I0711 10:14:37.554159 20510 net.cpp:100] Creating Layer scale4b3_branch2a
I0711 10:14:37.554163 20510 net.cpp:434] scale4b3_branch2a <- res4b3_branch2a
I0711 10:14:37.554172 20510 net.cpp:395] scale4b3_branch2a -> res4b3_branch2a (in-place)
I0711 10:14:37.554236 20510 layer_factory.hpp:77] Creating layer scale4b3_branch2a
I0711 10:14:37.554356 20510 net.cpp:150] Setting up scale4b3_branch2a
I0711 10:14:37.554364 20510 net.cpp:157] Top shape: 16 256 19 19 (1478656)
I0711 10:14:37.554368 20510 net.cpp:165] Memory required for data: 6055612480
I0711 10:14:37.554374 20510 layer_factory.hpp:77] Creating layer res4b3_branch2a_relu
I0711 10:14:37.554383 20510 net.cpp:100] Creating Layer res4b3_branch2a_relu
I0711 10:14:37.554388 20510 net.cpp:434] res4b3_branch2a_relu <- res4b3_branch2a
I0711 10:14:37.554394 20510 net.cpp:395] res4b3_branch2a_relu -> res4b3_branch2a (in-place)
I0711 10:14:37.556165 20510 net.cpp:150] Setting up res4b3_branch2a_relu
I0711 10:14:37.556179 20510 net.cpp:157] Top shape: 16 256 19 19 (1478656)
I0711 10:14:37.556182 20510 net.cpp:165] Memory required for data: 6061527104
I0711 10:14:37.556185 20510 layer_factory.hpp:77] Creating layer res4b3_branch2b
I0711 10:14:37.556198 20510 net.cpp:100] Creating Layer res4b3_branch2b
I0711 10:14:37.556203 20510 net.cpp:434] res4b3_branch2b <- res4b3_branch2a
I0711 10:14:37.556212 20510 net.cpp:408] res4b3_branch2b -> res4b3_branch2b
I0711 10:14:37.563720 20510 net.cpp:150] Setting up res4b3_branch2b
I0711 10:14:37.563741 20510 net.cpp:157] Top shape: 16 256 19 19 (1478656)
I0711 10:14:37.563745 20510 net.cpp:165] Memory required for data: 6067441728
I0711 10:14:37.563752 20510 layer_factory.hpp:77] Creating layer bn4b3_branch2b
I0711 10:14:37.563762 20510 net.cpp:100] Creating Layer bn4b3_branch2b
I0711 10:14:37.563768 20510 net.cpp:434] bn4b3_branch2b <- res4b3_branch2b
I0711 10:14:37.563776 20510 net.cpp:395] bn4b3_branch2b -> res4b3_branch2b (in-place)
I0711 10:14:37.563987 20510 net.cpp:150] Setting up bn4b3_branch2b
I0711 10:14:37.563995 20510 net.cpp:157] Top shape: 16 256 19 19 (1478656)
I0711 10:14:37.563998 20510 net.cpp:165] Memory required for data: 6073356352
I0711 10:14:37.564007 20510 layer_factory.hpp:77] Creating layer scale4b3_branch2b
I0711 10:14:37.564015 20510 net.cpp:100] Creating Layer scale4b3_branch2b
I0711 10:14:37.564020 20510 net.cpp:434] scale4b3_branch2b <- res4b3_branch2b
I0711 10:14:37.564028 20510 net.cpp:395] scale4b3_branch2b -> res4b3_branch2b (in-place)
I0711 10:14:37.564079 20510 layer_factory.hpp:77] Creating layer scale4b3_branch2b
I0711 10:14:37.564198 20510 net.cpp:150] Setting up scale4b3_branch2b
I0711 10:14:37.564205 20510 net.cpp:157] Top shape: 16 256 19 19 (1478656)
I0711 10:14:37.564208 20510 net.cpp:165] Memory required for data: 6079270976
I0711 10:14:37.564214 20510 layer_factory.hpp:77] Creating layer res4b3_branch2b_relu
I0711 10:14:37.564223 20510 net.cpp:100] Creating Layer res4b3_branch2b_relu
I0711 10:14:37.564226 20510 net.cpp:434] res4b3_branch2b_relu <- res4b3_branch2b
I0711 10:14:37.564232 20510 net.cpp:395] res4b3_branch2b_relu -> res4b3_branch2b (in-place)
I0711 10:14:37.564398 20510 net.cpp:150] Setting up res4b3_branch2b_relu
I0711 10:14:37.564406 20510 net.cpp:157] Top shape: 16 256 19 19 (1478656)
I0711 10:14:37.564409 20510 net.cpp:165] Memory required for data: 6085185600
I0711 10:14:37.564412 20510 layer_factory.hpp:77] Creating layer res4b3_branch2c
I0711 10:14:37.564424 20510 net.cpp:100] Creating Layer res4b3_branch2c
I0711 10:14:37.564427 20510 net.cpp:434] res4b3_branch2c <- res4b3_branch2b
I0711 10:14:37.564437 20510 net.cpp:408] res4b3_branch2c -> res4b3_branch2c
I0711 10:14:37.568565 20510 net.cpp:150] Setting up res4b3_branch2c
I0711 10:14:37.568584 20510 net.cpp:157] Top shape: 16 1024 19 19 (5914624)
I0711 10:14:37.568589 20510 net.cpp:165] Memory required for data: 6108844096
I0711 10:14:37.568596 20510 layer_factory.hpp:77] Creating layer bn4b3_branch2c
I0711 10:14:37.568604 20510 net.cpp:100] Creating Layer bn4b3_branch2c
I0711 10:14:37.568611 20510 net.cpp:434] bn4b3_branch2c <- res4b3_branch2c
I0711 10:14:37.568619 20510 net.cpp:395] bn4b3_branch2c -> res4b3_branch2c (in-place)
I0711 10:14:37.568828 20510 net.cpp:150] Setting up bn4b3_branch2c
I0711 10:14:37.568836 20510 net.cpp:157] Top shape: 16 1024 19 19 (5914624)
I0711 10:14:37.568853 20510 net.cpp:165] Memory required for data: 6132502592
I0711 10:14:37.568862 20510 layer_factory.hpp:77] Creating layer scale4b3_branch2c
I0711 10:14:37.568871 20510 net.cpp:100] Creating Layer scale4b3_branch2c
I0711 10:14:37.568876 20510 net.cpp:434] scale4b3_branch2c <- res4b3_branch2c
I0711 10:14:37.568882 20510 net.cpp:395] scale4b3_branch2c -> res4b3_branch2c (in-place)
I0711 10:14:37.568935 20510 layer_factory.hpp:77] Creating layer scale4b3_branch2c
I0711 10:14:37.569053 20510 net.cpp:150] Setting up scale4b3_branch2c
I0711 10:14:37.569061 20510 net.cpp:157] Top shape: 16 1024 19 19 (5914624)
I0711 10:14:37.569064 20510 net.cpp:165] Memory required for data: 6156161088
I0711 10:14:37.569072 20510 layer_factory.hpp:77] Creating layer res4b3
I0711 10:14:37.569078 20510 net.cpp:100] Creating Layer res4b3
I0711 10:14:37.569083 20510 net.cpp:434] res4b3 <- res4b2_res4b2_relu_0_split_1
I0711 10:14:37.569088 20510 net.cpp:434] res4b3 <- res4b3_branch2c
I0711 10:14:37.569095 20510 net.cpp:408] res4b3 -> res4b3
I0711 10:14:37.569126 20510 net.cpp:150] Setting up res4b3
I0711 10:14:37.569133 20510 net.cpp:157] Top shape: 16 1024 19 19 (5914624)
I0711 10:14:37.569136 20510 net.cpp:165] Memory required for data: 6179819584
I0711 10:14:37.569139 20510 layer_factory.hpp:77] Creating layer res4b3_relu
I0711 10:14:37.569147 20510 net.cpp:100] Creating Layer res4b3_relu
I0711 10:14:37.569151 20510 net.cpp:434] res4b3_relu <- res4b3
I0711 10:14:37.569156 20510 net.cpp:395] res4b3_relu -> res4b3 (in-place)
I0711 10:14:37.569319 20510 net.cpp:150] Setting up res4b3_relu
I0711 10:14:37.569327 20510 net.cpp:157] Top shape: 16 1024 19 19 (5914624)
I0711 10:14:37.569330 20510 net.cpp:165] Memory required for data: 6203478080
I0711 10:14:37.569334 20510 layer_factory.hpp:77] Creating layer res4b3_res4b3_relu_0_split
I0711 10:14:37.569340 20510 net.cpp:100] Creating Layer res4b3_res4b3_relu_0_split
I0711 10:14:37.569345 20510 net.cpp:434] res4b3_res4b3_relu_0_split <- res4b3
I0711 10:14:37.569355 20510 net.cpp:408] res4b3_res4b3_relu_0_split -> res4b3_res4b3_relu_0_split_0
I0711 10:14:37.569362 20510 net.cpp:408] res4b3_res4b3_relu_0_split -> res4b3_res4b3_relu_0_split_1
I0711 10:14:37.569411 20510 net.cpp:150] Setting up res4b3_res4b3_relu_0_split
I0711 10:14:37.569416 20510 net.cpp:157] Top shape: 16 1024 19 19 (5914624)
I0711 10:14:37.569422 20510 net.cpp:157] Top shape: 16 1024 19 19 (5914624)
I0711 10:14:37.569424 20510 net.cpp:165] Memory required for data: 6250795072
I0711 10:14:37.569427 20510 layer_factory.hpp:77] Creating layer res4b4_branch2a
I0711 10:14:37.569437 20510 net.cpp:100] Creating Layer res4b4_branch2a
I0711 10:14:37.569442 20510 net.cpp:434] res4b4_branch2a <- res4b3_res4b3_relu_0_split_0
I0711 10:14:37.569448 20510 net.cpp:408] res4b4_branch2a -> res4b4_branch2a
I0711 10:14:37.574358 20510 net.cpp:150] Setting up res4b4_branch2a
I0711 10:14:37.574374 20510 net.cpp:157] Top shape: 16 256 19 19 (1478656)
I0711 10:14:37.574378 20510 net.cpp:165] Memory required for data: 6256709696
I0711 10:14:37.574384 20510 layer_factory.hpp:77] Creating layer bn4b4_branch2a
I0711 10:14:37.574393 20510 net.cpp:100] Creating Layer bn4b4_branch2a
I0711 10:14:37.574398 20510 net.cpp:434] bn4b4_branch2a <- res4b4_branch2a
I0711 10:14:37.574405 20510 net.cpp:395] bn4b4_branch2a -> res4b4_branch2a (in-place)
I0711 10:14:37.574615 20510 net.cpp:150] Setting up bn4b4_branch2a
I0711 10:14:37.574622 20510 net.cpp:157] Top shape: 16 256 19 19 (1478656)
I0711 10:14:37.574625 20510 net.cpp:165] Memory required for data: 6262624320
I0711 10:14:37.574635 20510 layer_factory.hpp:77] Creating layer scale4b4_branch2a
I0711 10:14:37.574642 20510 net.cpp:100] Creating Layer scale4b4_branch2a
I0711 10:14:37.574647 20510 net.cpp:434] scale4b4_branch2a <- res4b4_branch2a
I0711 10:14:37.574654 20510 net.cpp:395] scale4b4_branch2a -> res4b4_branch2a (in-place)
I0711 10:14:37.574704 20510 layer_factory.hpp:77] Creating layer scale4b4_branch2a
I0711 10:14:37.574841 20510 net.cpp:150] Setting up scale4b4_branch2a
I0711 10:14:37.574861 20510 net.cpp:157] Top shape: 16 256 19 19 (1478656)
I0711 10:14:37.574863 20510 net.cpp:165] Memory required for data: 6268538944
I0711 10:14:37.574870 20510 layer_factory.hpp:77] Creating layer res4b4_branch2a_relu
I0711 10:14:37.574878 20510 net.cpp:100] Creating Layer res4b4_branch2a_relu
I0711 10:14:37.574883 20510 net.cpp:434] res4b4_branch2a_relu <- res4b4_branch2a
I0711 10:14:37.574890 20510 net.cpp:395] res4b4_branch2a_relu -> res4b4_branch2a (in-place)
I0711 10:14:37.575891 20510 net.cpp:150] Setting up res4b4_branch2a_relu
I0711 10:14:37.575902 20510 net.cpp:157] Top shape: 16 256 19 19 (1478656)
I0711 10:14:37.575906 20510 net.cpp:165] Memory required for data: 6274453568
I0711 10:14:37.575908 20510 layer_factory.hpp:77] Creating layer res4b4_branch2b
I0711 10:14:37.575920 20510 net.cpp:100] Creating Layer res4b4_branch2b
I0711 10:14:37.575925 20510 net.cpp:434] res4b4_branch2b <- res4b4_branch2a
I0711 10:14:37.575932 20510 net.cpp:408] res4b4_branch2b -> res4b4_branch2b
I0711 10:14:37.585904 20510 net.cpp:150] Setting up res4b4_branch2b
I0711 10:14:37.585927 20510 net.cpp:157] Top shape: 16 256 19 19 (1478656)
I0711 10:14:37.585933 20510 net.cpp:165] Memory required for data: 6280368192
I0711 10:14:37.585942 20510 layer_factory.hpp:77] Creating layer bn4b4_branch2b
I0711 10:14:37.585952 20510 net.cpp:100] Creating Layer bn4b4_branch2b
I0711 10:14:37.585958 20510 net.cpp:434] bn4b4_branch2b <- res4b4_branch2b
I0711 10:14:37.585965 20510 net.cpp:395] bn4b4_branch2b -> res4b4_branch2b (in-place)
I0711 10:14:37.586210 20510 net.cpp:150] Setting up bn4b4_branch2b
I0711 10:14:37.586216 20510 net.cpp:157] Top shape: 16 256 19 19 (1478656)
I0711 10:14:37.586220 20510 net.cpp:165] Memory required for data: 6286282816
I0711 10:14:37.586228 20510 layer_factory.hpp:77] Creating layer scale4b4_branch2b
I0711 10:14:37.586237 20510 net.cpp:100] Creating Layer scale4b4_branch2b
I0711 10:14:37.586241 20510 net.cpp:434] scale4b4_branch2b <- res4b4_branch2b
I0711 10:14:37.586249 20510 net.cpp:395] scale4b4_branch2b -> res4b4_branch2b (in-place)
I0711 10:14:37.586302 20510 layer_factory.hpp:77] Creating layer scale4b4_branch2b
I0711 10:14:37.586427 20510 net.cpp:150] Setting up scale4b4_branch2b
I0711 10:14:37.586434 20510 net.cpp:157] Top shape: 16 256 19 19 (1478656)
I0711 10:14:37.586437 20510 net.cpp:165] Memory required for data: 6292197440
I0711 10:14:37.586443 20510 layer_factory.hpp:77] Creating layer res4b4_branch2b_relu
I0711 10:14:37.586452 20510 net.cpp:100] Creating Layer res4b4_branch2b_relu
I0711 10:14:37.586455 20510 net.cpp:434] res4b4_branch2b_relu <- res4b4_branch2b
I0711 10:14:37.586462 20510 net.cpp:395] res4b4_branch2b_relu -> res4b4_branch2b (in-place)
I0711 10:14:37.586652 20510 net.cpp:150] Setting up res4b4_branch2b_relu
I0711 10:14:37.586663 20510 net.cpp:157] Top shape: 16 256 19 19 (1478656)
I0711 10:14:37.586665 20510 net.cpp:165] Memory required for data: 6298112064
I0711 10:14:37.586668 20510 layer_factory.hpp:77] Creating layer res4b4_branch2c
I0711 10:14:37.586680 20510 net.cpp:100] Creating Layer res4b4_branch2c
I0711 10:14:37.586684 20510 net.cpp:434] res4b4_branch2c <- res4b4_branch2b
I0711 10:14:37.586694 20510 net.cpp:408] res4b4_branch2c -> res4b4_branch2c
I0711 10:14:37.592020 20510 net.cpp:150] Setting up res4b4_branch2c
I0711 10:14:37.592039 20510 net.cpp:157] Top shape: 16 1024 19 19 (5914624)
I0711 10:14:37.592043 20510 net.cpp:165] Memory required for data: 6321770560
I0711 10:14:37.592051 20510 layer_factory.hpp:77] Creating layer bn4b4_branch2c
I0711 10:14:37.592068 20510 net.cpp:100] Creating Layer bn4b4_branch2c
I0711 10:14:37.592074 20510 net.cpp:434] bn4b4_branch2c <- res4b4_branch2c
I0711 10:14:37.592087 20510 net.cpp:395] bn4b4_branch2c -> res4b4_branch2c (in-place)
I0711 10:14:37.592304 20510 net.cpp:150] Setting up bn4b4_branch2c
I0711 10:14:37.592311 20510 net.cpp:157] Top shape: 16 1024 19 19 (5914624)
I0711 10:14:37.592314 20510 net.cpp:165] Memory required for data: 6345429056
I0711 10:14:37.592324 20510 layer_factory.hpp:77] Creating layer scale4b4_branch2c
I0711 10:14:37.592342 20510 net.cpp:100] Creating Layer scale4b4_branch2c
I0711 10:14:37.592346 20510 net.cpp:434] scale4b4_branch2c <- res4b4_branch2c
I0711 10:14:37.592355 20510 net.cpp:395] scale4b4_branch2c -> res4b4_branch2c (in-place)
I0711 10:14:37.592406 20510 layer_factory.hpp:77] Creating layer scale4b4_branch2c
I0711 10:14:37.592526 20510 net.cpp:150] Setting up scale4b4_branch2c
I0711 10:14:37.592535 20510 net.cpp:157] Top shape: 16 1024 19 19 (5914624)
I0711 10:14:37.592537 20510 net.cpp:165] Memory required for data: 6369087552
I0711 10:14:37.592545 20510 layer_factory.hpp:77] Creating layer res4b4
I0711 10:14:37.592552 20510 net.cpp:100] Creating Layer res4b4
I0711 10:14:37.592557 20510 net.cpp:434] res4b4 <- res4b3_res4b3_relu_0_split_1
I0711 10:14:37.592562 20510 net.cpp:434] res4b4 <- res4b4_branch2c
I0711 10:14:37.592571 20510 net.cpp:408] res4b4 -> res4b4
I0711 10:14:37.592600 20510 net.cpp:150] Setting up res4b4
I0711 10:14:37.592608 20510 net.cpp:157] Top shape: 16 1024 19 19 (5914624)
I0711 10:14:37.592612 20510 net.cpp:165] Memory required for data: 6392746048
I0711 10:14:37.592615 20510 layer_factory.hpp:77] Creating layer res4b4_relu
I0711 10:14:37.592622 20510 net.cpp:100] Creating Layer res4b4_relu
I0711 10:14:37.592625 20510 net.cpp:434] res4b4_relu <- res4b4
I0711 10:14:37.592630 20510 net.cpp:395] res4b4_relu -> res4b4 (in-place)
I0711 10:14:37.592794 20510 net.cpp:150] Setting up res4b4_relu
I0711 10:14:37.592803 20510 net.cpp:157] Top shape: 16 1024 19 19 (5914624)
I0711 10:14:37.592806 20510 net.cpp:165] Memory required for data: 6416404544
I0711 10:14:37.592809 20510 layer_factory.hpp:77] Creating layer res4b4_res4b4_relu_0_split
I0711 10:14:37.592818 20510 net.cpp:100] Creating Layer res4b4_res4b4_relu_0_split
I0711 10:14:37.592821 20510 net.cpp:434] res4b4_res4b4_relu_0_split <- res4b4
I0711 10:14:37.592829 20510 net.cpp:408] res4b4_res4b4_relu_0_split -> res4b4_res4b4_relu_0_split_0
I0711 10:14:37.592838 20510 net.cpp:408] res4b4_res4b4_relu_0_split -> res4b4_res4b4_relu_0_split_1
I0711 10:14:37.592885 20510 net.cpp:150] Setting up res4b4_res4b4_relu_0_split
I0711 10:14:37.592891 20510 net.cpp:157] Top shape: 16 1024 19 19 (5914624)
I0711 10:14:37.592896 20510 net.cpp:157] Top shape: 16 1024 19 19 (5914624)
I0711 10:14:37.592900 20510 net.cpp:165] Memory required for data: 6463721536
I0711 10:14:37.592903 20510 layer_factory.hpp:77] Creating layer res4b5_branch2a
I0711 10:14:37.592913 20510 net.cpp:100] Creating Layer res4b5_branch2a
I0711 10:14:37.592917 20510 net.cpp:434] res4b5_branch2a <- res4b4_res4b4_relu_0_split_0
I0711 10:14:37.592926 20510 net.cpp:408] res4b5_branch2a -> res4b5_branch2a
I0711 10:14:37.597065 20510 net.cpp:150] Setting up res4b5_branch2a
I0711 10:14:37.597084 20510 net.cpp:157] Top shape: 16 256 19 19 (1478656)
I0711 10:14:37.597088 20510 net.cpp:165] Memory required for data: 6469636160
I0711 10:14:37.597095 20510 layer_factory.hpp:77] Creating layer bn4b5_branch2a
I0711 10:14:37.597105 20510 net.cpp:100] Creating Layer bn4b5_branch2a
I0711 10:14:37.597110 20510 net.cpp:434] bn4b5_branch2a <- res4b5_branch2a
I0711 10:14:37.597117 20510 net.cpp:395] bn4b5_branch2a -> res4b5_branch2a (in-place)
I0711 10:14:37.597334 20510 net.cpp:150] Setting up bn4b5_branch2a
I0711 10:14:37.597342 20510 net.cpp:157] Top shape: 16 256 19 19 (1478656)
I0711 10:14:37.597345 20510 net.cpp:165] Memory required for data: 6475550784
I0711 10:14:37.597354 20510 layer_factory.hpp:77] Creating layer scale4b5_branch2a
I0711 10:14:37.597364 20510 net.cpp:100] Creating Layer scale4b5_branch2a
I0711 10:14:37.597370 20510 net.cpp:434] scale4b5_branch2a <- res4b5_branch2a
I0711 10:14:37.597376 20510 net.cpp:395] scale4b5_branch2a -> res4b5_branch2a (in-place)
I0711 10:14:37.597429 20510 layer_factory.hpp:77] Creating layer scale4b5_branch2a
I0711 10:14:37.597553 20510 net.cpp:150] Setting up scale4b5_branch2a
I0711 10:14:37.597560 20510 net.cpp:157] Top shape: 16 256 19 19 (1478656)
I0711 10:14:37.597563 20510 net.cpp:165] Memory required for data: 6481465408
I0711 10:14:37.597585 20510 layer_factory.hpp:77] Creating layer res4b5_branch2a_relu
I0711 10:14:37.597595 20510 net.cpp:100] Creating Layer res4b5_branch2a_relu
I0711 10:14:37.597600 20510 net.cpp:434] res4b5_branch2a_relu <- res4b5_branch2a
I0711 10:14:37.597606 20510 net.cpp:395] res4b5_branch2a_relu -> res4b5_branch2a (in-place)
I0711 10:14:37.598207 20510 net.cpp:150] Setting up res4b5_branch2a_relu
I0711 10:14:37.598218 20510 net.cpp:157] Top shape: 16 256 19 19 (1478656)
I0711 10:14:37.598222 20510 net.cpp:165] Memory required for data: 6487380032
I0711 10:14:37.598225 20510 layer_factory.hpp:77] Creating layer res4b5_branch2b
I0711 10:14:37.598237 20510 net.cpp:100] Creating Layer res4b5_branch2b
I0711 10:14:37.598242 20510 net.cpp:434] res4b5_branch2b <- res4b5_branch2a
I0711 10:14:37.598249 20510 net.cpp:408] res4b5_branch2b -> res4b5_branch2b
I0711 10:14:37.605748 20510 net.cpp:150] Setting up res4b5_branch2b
I0711 10:14:37.605769 20510 net.cpp:157] Top shape: 16 256 19 19 (1478656)
I0711 10:14:37.605773 20510 net.cpp:165] Memory required for data: 6493294656
I0711 10:14:37.605782 20510 layer_factory.hpp:77] Creating layer bn4b5_branch2b
I0711 10:14:37.605792 20510 net.cpp:100] Creating Layer bn4b5_branch2b
I0711 10:14:37.605798 20510 net.cpp:434] bn4b5_branch2b <- res4b5_branch2b
I0711 10:14:37.605804 20510 net.cpp:395] bn4b5_branch2b -> res4b5_branch2b (in-place)
I0711 10:14:37.606042 20510 net.cpp:150] Setting up bn4b5_branch2b
I0711 10:14:37.606051 20510 net.cpp:157] Top shape: 16 256 19 19 (1478656)
I0711 10:14:37.606055 20510 net.cpp:165] Memory required for data: 6499209280
I0711 10:14:37.606063 20510 layer_factory.hpp:77] Creating layer scale4b5_branch2b
I0711 10:14:37.606075 20510 net.cpp:100] Creating Layer scale4b5_branch2b
I0711 10:14:37.606083 20510 net.cpp:434] scale4b5_branch2b <- res4b5_branch2b
I0711 10:14:37.606091 20510 net.cpp:395] scale4b5_branch2b -> res4b5_branch2b (in-place)
I0711 10:14:37.606148 20510 layer_factory.hpp:77] Creating layer scale4b5_branch2b
I0711 10:14:37.606276 20510 net.cpp:150] Setting up scale4b5_branch2b
I0711 10:14:37.606284 20510 net.cpp:157] Top shape: 16 256 19 19 (1478656)
I0711 10:14:37.606287 20510 net.cpp:165] Memory required for data: 6505123904
I0711 10:14:37.606293 20510 layer_factory.hpp:77] Creating layer res4b5_branch2b_relu
I0711 10:14:37.606302 20510 net.cpp:100] Creating Layer res4b5_branch2b_relu
I0711 10:14:37.606307 20510 net.cpp:434] res4b5_branch2b_relu <- res4b5_branch2b
I0711 10:14:37.606312 20510 net.cpp:395] res4b5_branch2b_relu -> res4b5_branch2b (in-place)
I0711 10:14:37.606484 20510 net.cpp:150] Setting up res4b5_branch2b_relu
I0711 10:14:37.606493 20510 net.cpp:157] Top shape: 16 256 19 19 (1478656)
I0711 10:14:37.606497 20510 net.cpp:165] Memory required for data: 6511038528
I0711 10:14:37.606500 20510 layer_factory.hpp:77] Creating layer res4b5_branch2c
I0711 10:14:37.606511 20510 net.cpp:100] Creating Layer res4b5_branch2c
I0711 10:14:37.606515 20510 net.cpp:434] res4b5_branch2c <- res4b5_branch2b
I0711 10:14:37.606523 20510 net.cpp:408] res4b5_branch2c -> res4b5_branch2c
I0711 10:14:37.610610 20510 net.cpp:150] Setting up res4b5_branch2c
I0711 10:14:37.610623 20510 net.cpp:157] Top shape: 16 1024 19 19 (5914624)
I0711 10:14:37.610627 20510 net.cpp:165] Memory required for data: 6534697024
I0711 10:14:37.610633 20510 layer_factory.hpp:77] Creating layer bn4b5_branch2c
I0711 10:14:37.610641 20510 net.cpp:100] Creating Layer bn4b5_branch2c
I0711 10:14:37.610644 20510 net.cpp:434] bn4b5_branch2c <- res4b5_branch2c
I0711 10:14:37.610652 20510 net.cpp:395] bn4b5_branch2c -> res4b5_branch2c (in-place)
I0711 10:14:37.610888 20510 net.cpp:150] Setting up bn4b5_branch2c
I0711 10:14:37.610898 20510 net.cpp:157] Top shape: 16 1024 19 19 (5914624)
I0711 10:14:37.610900 20510 net.cpp:165] Memory required for data: 6558355520
I0711 10:14:37.610909 20510 layer_factory.hpp:77] Creating layer scale4b5_branch2c
I0711 10:14:37.610918 20510 net.cpp:100] Creating Layer scale4b5_branch2c
I0711 10:14:37.610921 20510 net.cpp:434] scale4b5_branch2c <- res4b5_branch2c
I0711 10:14:37.610944 20510 net.cpp:395] scale4b5_branch2c -> res4b5_branch2c (in-place)
I0711 10:14:37.610999 20510 layer_factory.hpp:77] Creating layer scale4b5_branch2c
I0711 10:14:37.611124 20510 net.cpp:150] Setting up scale4b5_branch2c
I0711 10:14:37.611132 20510 net.cpp:157] Top shape: 16 1024 19 19 (5914624)
I0711 10:14:37.611135 20510 net.cpp:165] Memory required for data: 6582014016
I0711 10:14:37.611166 20510 layer_factory.hpp:77] Creating layer res4b5
I0711 10:14:37.611174 20510 net.cpp:100] Creating Layer res4b5
I0711 10:14:37.611178 20510 net.cpp:434] res4b5 <- res4b4_res4b4_relu_0_split_1
I0711 10:14:37.611183 20510 net.cpp:434] res4b5 <- res4b5_branch2c
I0711 10:14:37.611189 20510 net.cpp:408] res4b5 -> res4b5
I0711 10:14:37.611225 20510 net.cpp:150] Setting up res4b5
I0711 10:14:37.611232 20510 net.cpp:157] Top shape: 16 1024 19 19 (5914624)
I0711 10:14:37.611235 20510 net.cpp:165] Memory required for data: 6605672512
I0711 10:14:37.611238 20510 layer_factory.hpp:77] Creating layer res4b5_relu
I0711 10:14:37.611244 20510 net.cpp:100] Creating Layer res4b5_relu
I0711 10:14:37.611248 20510 net.cpp:434] res4b5_relu <- res4b5
I0711 10:14:37.611255 20510 net.cpp:395] res4b5_relu -> res4b5 (in-place)
I0711 10:14:37.611419 20510 net.cpp:150] Setting up res4b5_relu
I0711 10:14:37.611428 20510 net.cpp:157] Top shape: 16 1024 19 19 (5914624)
I0711 10:14:37.611431 20510 net.cpp:165] Memory required for data: 6629331008
I0711 10:14:37.611435 20510 layer_factory.hpp:77] Creating layer res4b5_res4b5_relu_0_split
I0711 10:14:37.611444 20510 net.cpp:100] Creating Layer res4b5_res4b5_relu_0_split
I0711 10:14:37.611449 20510 net.cpp:434] res4b5_res4b5_relu_0_split <- res4b5
I0711 10:14:37.611456 20510 net.cpp:408] res4b5_res4b5_relu_0_split -> res4b5_res4b5_relu_0_split_0
I0711 10:14:37.611464 20510 net.cpp:408] res4b5_res4b5_relu_0_split -> res4b5_res4b5_relu_0_split_1
I0711 10:14:37.611513 20510 net.cpp:150] Setting up res4b5_res4b5_relu_0_split
I0711 10:14:37.611522 20510 net.cpp:157] Top shape: 16 1024 19 19 (5914624)
I0711 10:14:37.611526 20510 net.cpp:157] Top shape: 16 1024 19 19 (5914624)
I0711 10:14:37.611529 20510 net.cpp:165] Memory required for data: 6676648000
I0711 10:14:37.611533 20510 layer_factory.hpp:77] Creating layer res4b6_branch2a
I0711 10:14:37.611542 20510 net.cpp:100] Creating Layer res4b6_branch2a
I0711 10:14:37.611546 20510 net.cpp:434] res4b6_branch2a <- res4b5_res4b5_relu_0_split_0
I0711 10:14:37.611554 20510 net.cpp:408] res4b6_branch2a -> res4b6_branch2a
I0711 10:14:37.615651 20510 net.cpp:150] Setting up res4b6_branch2a
I0711 10:14:37.615669 20510 net.cpp:157] Top shape: 16 256 19 19 (1478656)
I0711 10:14:37.615674 20510 net.cpp:165] Memory required for data: 6682562624
I0711 10:14:37.615680 20510 layer_factory.hpp:77] Creating layer bn4b6_branch2a
I0711 10:14:37.615690 20510 net.cpp:100] Creating Layer bn4b6_branch2a
I0711 10:14:37.615695 20510 net.cpp:434] bn4b6_branch2a <- res4b6_branch2a
I0711 10:14:37.615702 20510 net.cpp:395] bn4b6_branch2a -> res4b6_branch2a (in-place)
I0711 10:14:37.615931 20510 net.cpp:150] Setting up bn4b6_branch2a
I0711 10:14:37.615939 20510 net.cpp:157] Top shape: 16 256 19 19 (1478656)
I0711 10:14:37.615942 20510 net.cpp:165] Memory required for data: 6688477248
I0711 10:14:37.615952 20510 layer_factory.hpp:77] Creating layer scale4b6_branch2a
I0711 10:14:37.615959 20510 net.cpp:100] Creating Layer scale4b6_branch2a
I0711 10:14:37.615963 20510 net.cpp:434] scale4b6_branch2a <- res4b6_branch2a
I0711 10:14:37.615970 20510 net.cpp:395] scale4b6_branch2a -> res4b6_branch2a (in-place)
I0711 10:14:37.616025 20510 layer_factory.hpp:77] Creating layer scale4b6_branch2a
I0711 10:14:37.616154 20510 net.cpp:150] Setting up scale4b6_branch2a
I0711 10:14:37.616163 20510 net.cpp:157] Top shape: 16 256 19 19 (1478656)
I0711 10:14:37.616166 20510 net.cpp:165] Memory required for data: 6694391872
I0711 10:14:37.616173 20510 layer_factory.hpp:77] Creating layer res4b6_branch2a_relu
I0711 10:14:37.616180 20510 net.cpp:100] Creating Layer res4b6_branch2a_relu
I0711 10:14:37.616199 20510 net.cpp:434] res4b6_branch2a_relu <- res4b6_branch2a
I0711 10:14:37.616204 20510 net.cpp:395] res4b6_branch2a_relu -> res4b6_branch2a (in-place)
I0711 10:14:37.616803 20510 net.cpp:150] Setting up res4b6_branch2a_relu
I0711 10:14:37.616814 20510 net.cpp:157] Top shape: 16 256 19 19 (1478656)
I0711 10:14:37.616818 20510 net.cpp:165] Memory required for data: 6700306496
I0711 10:14:37.616822 20510 layer_factory.hpp:77] Creating layer res4b6_branch2b
I0711 10:14:37.616834 20510 net.cpp:100] Creating Layer res4b6_branch2b
I0711 10:14:37.616838 20510 net.cpp:434] res4b6_branch2b <- res4b6_branch2a
I0711 10:14:37.616847 20510 net.cpp:408] res4b6_branch2b -> res4b6_branch2b
I0711 10:14:37.624330 20510 net.cpp:150] Setting up res4b6_branch2b
I0711 10:14:37.624349 20510 net.cpp:157] Top shape: 16 256 19 19 (1478656)
I0711 10:14:37.624353 20510 net.cpp:165] Memory required for data: 6706221120
I0711 10:14:37.624361 20510 layer_factory.hpp:77] Creating layer bn4b6_branch2b
I0711 10:14:37.624372 20510 net.cpp:100] Creating Layer bn4b6_branch2b
I0711 10:14:37.624377 20510 net.cpp:434] bn4b6_branch2b <- res4b6_branch2b
I0711 10:14:37.624383 20510 net.cpp:395] bn4b6_branch2b -> res4b6_branch2b (in-place)
I0711 10:14:37.624619 20510 net.cpp:150] Setting up bn4b6_branch2b
I0711 10:14:37.624630 20510 net.cpp:157] Top shape: 16 256 19 19 (1478656)
I0711 10:14:37.624634 20510 net.cpp:165] Memory required for data: 6712135744
I0711 10:14:37.624642 20510 layer_factory.hpp:77] Creating layer scale4b6_branch2b
I0711 10:14:37.624650 20510 net.cpp:100] Creating Layer scale4b6_branch2b
I0711 10:14:37.624660 20510 net.cpp:434] scale4b6_branch2b <- res4b6_branch2b
I0711 10:14:37.624667 20510 net.cpp:395] scale4b6_branch2b -> res4b6_branch2b (in-place)
I0711 10:14:37.624727 20510 layer_factory.hpp:77] Creating layer scale4b6_branch2b
I0711 10:14:37.624861 20510 net.cpp:150] Setting up scale4b6_branch2b
I0711 10:14:37.624868 20510 net.cpp:157] Top shape: 16 256 19 19 (1478656)
I0711 10:14:37.624871 20510 net.cpp:165] Memory required for data: 6718050368
I0711 10:14:37.624878 20510 layer_factory.hpp:77] Creating layer res4b6_branch2b_relu
I0711 10:14:37.624887 20510 net.cpp:100] Creating Layer res4b6_branch2b_relu
I0711 10:14:37.624891 20510 net.cpp:434] res4b6_branch2b_relu <- res4b6_branch2b
I0711 10:14:37.624897 20510 net.cpp:395] res4b6_branch2b_relu -> res4b6_branch2b (in-place)
I0711 10:14:37.625066 20510 net.cpp:150] Setting up res4b6_branch2b_relu
I0711 10:14:37.625075 20510 net.cpp:157] Top shape: 16 256 19 19 (1478656)
I0711 10:14:37.625079 20510 net.cpp:165] Memory required for data: 6723964992
I0711 10:14:37.625082 20510 layer_factory.hpp:77] Creating layer res4b6_branch2c
I0711 10:14:37.625094 20510 net.cpp:100] Creating Layer res4b6_branch2c
I0711 10:14:37.625099 20510 net.cpp:434] res4b6_branch2c <- res4b6_branch2b
I0711 10:14:37.625107 20510 net.cpp:408] res4b6_branch2c -> res4b6_branch2c
I0711 10:14:37.629195 20510 net.cpp:150] Setting up res4b6_branch2c
I0711 10:14:37.629209 20510 net.cpp:157] Top shape: 16 1024 19 19 (5914624)
I0711 10:14:37.629212 20510 net.cpp:165] Memory required for data: 6747623488
I0711 10:14:37.629218 20510 layer_factory.hpp:77] Creating layer bn4b6_branch2c
I0711 10:14:37.629226 20510 net.cpp:100] Creating Layer bn4b6_branch2c
I0711 10:14:37.629231 20510 net.cpp:434] bn4b6_branch2c <- res4b6_branch2c
I0711 10:14:37.629238 20510 net.cpp:395] bn4b6_branch2c -> res4b6_branch2c (in-place)
I0711 10:14:37.629464 20510 net.cpp:150] Setting up bn4b6_branch2c
I0711 10:14:37.629472 20510 net.cpp:157] Top shape: 16 1024 19 19 (5914624)
I0711 10:14:37.629475 20510 net.cpp:165] Memory required for data: 6771281984
I0711 10:14:37.629484 20510 layer_factory.hpp:77] Creating layer scale4b6_branch2c
I0711 10:14:37.629495 20510 net.cpp:100] Creating Layer scale4b6_branch2c
I0711 10:14:37.629505 20510 net.cpp:434] scale4b6_branch2c <- res4b6_branch2c
I0711 10:14:37.629513 20510 net.cpp:395] scale4b6_branch2c -> res4b6_branch2c (in-place)
I0711 10:14:37.629570 20510 layer_factory.hpp:77] Creating layer scale4b6_branch2c
I0711 10:14:37.629711 20510 net.cpp:150] Setting up scale4b6_branch2c
I0711 10:14:37.629719 20510 net.cpp:157] Top shape: 16 1024 19 19 (5914624)
I0711 10:14:37.629722 20510 net.cpp:165] Memory required for data: 6794940480
I0711 10:14:37.629729 20510 layer_factory.hpp:77] Creating layer res4b6
I0711 10:14:37.629736 20510 net.cpp:100] Creating Layer res4b6
I0711 10:14:37.629741 20510 net.cpp:434] res4b6 <- res4b5_res4b5_relu_0_split_1
I0711 10:14:37.629746 20510 net.cpp:434] res4b6 <- res4b6_branch2c
I0711 10:14:37.629755 20510 net.cpp:408] res4b6 -> res4b6
I0711 10:14:37.629787 20510 net.cpp:150] Setting up res4b6
I0711 10:14:37.629794 20510 net.cpp:157] Top shape: 16 1024 19 19 (5914624)
I0711 10:14:37.629797 20510 net.cpp:165] Memory required for data: 6818598976
I0711 10:14:37.629801 20510 layer_factory.hpp:77] Creating layer res4b6_relu
I0711 10:14:37.629809 20510 net.cpp:100] Creating Layer res4b6_relu
I0711 10:14:37.629813 20510 net.cpp:434] res4b6_relu <- res4b6
I0711 10:14:37.629818 20510 net.cpp:395] res4b6_relu -> res4b6 (in-place)
I0711 10:14:37.630409 20510 net.cpp:150] Setting up res4b6_relu
I0711 10:14:37.630419 20510 net.cpp:157] Top shape: 16 1024 19 19 (5914624)
I0711 10:14:37.630422 20510 net.cpp:165] Memory required for data: 6842257472
I0711 10:14:37.630426 20510 layer_factory.hpp:77] Creating layer res4b6_res4b6_relu_0_split
I0711 10:14:37.630434 20510 net.cpp:100] Creating Layer res4b6_res4b6_relu_0_split
…
I0711 10:14:38.941712 20510 layer_factory.hpp:77] Creating layer res5c_relu/conv1_1_scale
I0711 10:14:38.941818 20510 net.cpp:150] Setting up res5c_relu/conv1_1_scale
I0711 10:14:38.941823 20510 net.cpp:157] Top shape: 1 256 19 19 (92416)
I0711 10:14:38.941825 20510 net.cpp:165] Memory required for data: 739267904
I0711 10:14:38.941829 20510 layer_factory.hpp:77] Creating layer res5c_relu/conv1_1_relu
I0711 10:14:38.941833 20510 net.cpp:100] Creating Layer res5c_relu/conv1_1_relu
I0711 10:14:38.941838 20510 net.cpp:434] res5c_relu/conv1_1_relu <- res5c_relu/conv1_1
I0711 10:14:38.941841 20510 net.cpp:395] res5c_relu/conv1_1_relu -> res5c_relu/conv1_1 (in-place)
I0711 10:14:38.941999 20510 net.cpp:150] Setting up res5c_relu/conv1_1_relu
I0711 10:14:38.942005 20510 net.cpp:157] Top shape: 1 256 19 19 (92416)
I0711 10:14:38.942008 20510 net.cpp:165] Memory required for data: 739637568
I0711 10:14:38.942009 20510 layer_factory.hpp:77] Creating layer res5c_relu/conv1_2
I0711 10:14:38.942016 20510 net.cpp:100] Creating Layer res5c_relu/conv1_2
I0711 10:14:38.942020 20510 net.cpp:434] res5c_relu/conv1_2 <- res5c_relu/conv1_1
I0711 10:14:38.942024 20510 net.cpp:408] res5c_relu/conv1_2 -> res5c_relu/conv1_2
I0711 10:14:38.953687 20510 net.cpp:150] Setting up res5c_relu/conv1_2
I0711 10:14:38.953702 20510 net.cpp:157] Top shape: 1 512 10 10 (51200)
I0711 10:14:38.953704 20510 net.cpp:165] Memory required for data: 739842368
I0711 10:14:38.953709 20510 layer_factory.hpp:77] Creating layer res5c_relu/conv1_2_bn
I0711 10:14:38.953716 20510 net.cpp:100] Creating Layer res5c_relu/conv1_2_bn
I0711 10:14:38.953718 20510 net.cpp:434] res5c_relu/conv1_2_bn <- res5c_relu/conv1_2
I0711 10:14:38.953722 20510 net.cpp:395] res5c_relu/conv1_2_bn -> res5c_relu/conv1_2 (in-place)
I0711 10:14:38.953912 20510 net.cpp:150] Setting up res5c_relu/conv1_2_bn
I0711 10:14:38.953917 20510 net.cpp:157] Top shape: 1 512 10 10 (51200)
I0711 10:14:38.953919 20510 net.cpp:165] Memory required for data: 740047168
I0711 10:14:38.953924 20510 layer_factory.hpp:77] Creating layer res5c_relu/conv1_2_scale
I0711 10:14:38.953932 20510 net.cpp:100] Creating Layer res5c_relu/conv1_2_scale
I0711 10:14:38.953933 20510 net.cpp:434] res5c_relu/conv1_2_scale <- res5c_relu/conv1_2
I0711 10:14:38.953936 20510 net.cpp:395] res5c_relu/conv1_2_scale -> res5c_relu/conv1_2 (in-place)
I0711 10:14:38.953977 20510 layer_factory.hpp:77] Creating layer res5c_relu/conv1_2_scale
I0711 10:14:38.954077 20510 net.cpp:150] Setting up res5c_relu/conv1_2_scale
I0711 10:14:38.954082 20510 net.cpp:157] Top shape: 1 512 10 10 (51200)
I0711 10:14:38.954082 20510 net.cpp:165] Memory required for data: 740251968
I0711 10:14:38.954087 20510 layer_factory.hpp:77] Creating layer res5c_relu/conv1_2_relu
I0711 10:14:38.954090 20510 net.cpp:100] Creating Layer res5c_relu/conv1_2_relu
I0711 10:14:38.954092 20510 net.cpp:434] res5c_relu/conv1_2_relu <- res5c_relu/conv1_2
I0711 10:14:38.954097 20510 net.cpp:395] res5c_relu/conv1_2_relu -> res5c_relu/conv1_2 (in-place)
I0711 10:14:38.954258 20510 net.cpp:150] Setting up res5c_relu/conv1_2_relu
I0711 10:14:38.954264 20510 net.cpp:157] Top shape: 1 512 10 10 (51200)
I0711 10:14:38.954265 20510 net.cpp:165] Memory required for data: 740456768
I0711 10:14:38.954267 20510 layer_factory.hpp:77] Creating layer res5c_relu/conv1_2_res5c_relu/conv1_2_relu_0_split
I0711 10:14:38.954273 20510 net.cpp:100] Creating Layer res5c_relu/conv1_2_res5c_relu/conv1_2_relu_0_split
I0711 10:14:38.954275 20510 net.cpp:434] res5c_relu/conv1_2_res5c_relu/conv1_2_relu_0_split <- res5c_relu/conv1_2
I0711 10:14:38.954280 20510 net.cpp:408] res5c_relu/conv1_2_res5c_relu/conv1_2_relu_0_split -> res5c_relu/conv1_2_res5c_relu/conv1_2_relu_0_split_0
I0711 10:14:38.954285 20510 net.cpp:408] res5c_relu/conv1_2_res5c_relu/conv1_2_relu_0_split -> res5c_relu/conv1_2_res5c_relu/conv1_2_relu_0_split_1
I0711 10:14:38.954289 20510 net.cpp:408] res5c_relu/conv1_2_res5c_relu/conv1_2_relu_0_split -> res5c_relu/conv1_2_res5c_relu/conv1_2_relu_0_split_2
I0711 10:14:38.954293 20510 net.cpp:408] res5c_relu/conv1_2_res5c_relu/conv1_2_relu_0_split -> res5c_relu/conv1_2_res5c_relu/conv1_2_relu_0_split_3
I0711 10:14:38.954346 20510 net.cpp:150] Setting up res5c_relu/conv1_2_res5c_relu/conv1_2_relu_0_split
I0711 10:14:38.954350 20510 net.cpp:157] Top shape: 1 512 10 10 (51200)
I0711 10:14:38.954352 20510 net.cpp:157] Top shape: 1 512 10 10 (51200)
I0711 10:14:38.954355 20510 net.cpp:157] Top shape: 1 512 10 10 (51200)
I0711 10:14:38.954357 20510 net.cpp:157] Top shape: 1 512 10 10 (51200)
I0711 10:14:38.954358 20510 net.cpp:165] Memory required for data: 741275968
I0711 10:14:38.954360 20510 layer_factory.hpp:77] Creating layer res5c_relu/conv2_1
I0711 10:14:38.954366 20510 net.cpp:100] Creating Layer res5c_relu/conv2_1
I0711 10:14:38.954368 20510 net.cpp:434] res5c_relu/conv2_1 <- res5c_relu/conv1_2_res5c_relu/conv1_2_relu_0_split_0
I0711 10:14:38.954373 20510 net.cpp:408] res5c_relu/conv2_1 -> res5c_relu/conv2_1
I0711 10:14:38.957782 20510 net.cpp:150] Setting up res5c_relu/conv2_1
I0711 10:14:38.957792 20510 net.cpp:157] Top shape: 1 256 10 10 (25600)
I0711 10:14:38.957794 20510 net.cpp:165] Memory required for data: 741378368
I0711 10:14:38.957798 20510 layer_factory.hpp:77] Creating layer res5c_relu/conv2_1_bn
I0711 10:14:38.957814 20510 net.cpp:100] Creating Layer res5c_relu/conv2_1_bn
I0711 10:14:38.957818 20510 net.cpp:434] res5c_relu/conv2_1_bn <- res5c_relu/conv2_1
I0711 10:14:38.957821 20510 net.cpp:395] res5c_relu/conv2_1_bn -> res5c_relu/conv2_1 (in-place)
I0711 10:14:38.957973 20510 net.cpp:150] Setting up res5c_relu/conv2_1_bn
I0711 10:14:38.957978 20510 net.cpp:157] Top shape: 1 256 10 10 (25600)
I0711 10:14:38.957978 20510 net.cpp:165] Memory required for data: 741480768
I0711 10:14:38.957983 20510 layer_factory.hpp:77] Creating layer res5c_relu/conv2_1_scale
I0711 10:14:38.957988 20510 net.cpp:100] Creating Layer res5c_relu/conv2_1_scale
I0711 10:14:38.957991 20510 net.cpp:434] res5c_relu/conv2_1_scale <- res5c_relu/conv2_1
I0711 10:14:38.957995 20510 net.cpp:395] res5c_relu/conv2_1_scale -> res5c_relu/conv2_1 (in-place)
I0711 10:14:38.958024 20510 layer_factory.hpp:77] Creating layer res5c_relu/conv2_1_scale
I0711 10:14:38.958104 20510 net.cpp:150] Setting up res5c_relu/conv2_1_scale
I0711 10:14:38.958109 20510 net.cpp:157] Top shape: 1 256 10 10 (25600)
I0711 10:14:38.958111 20510 net.cpp:165] Memory required for data: 741583168
I0711 10:14:38.958114 20510 layer_factory.hpp:77] Creating layer res5c_relu/conv2_1_relu
I0711 10:14:38.958118 20510 net.cpp:100] Creating Layer res5c_relu/conv2_1_relu
I0711 10:14:38.958122 20510 net.cpp:434] res5c_relu/conv2_1_relu <- res5c_relu/conv2_1
I0711 10:14:38.958125 20510 net.cpp:395] res5c_relu/conv2_1_relu -> res5c_relu/conv2_1 (in-place)
I0711 10:14:38.958746 20510 net.cpp:150] Setting up res5c_relu/conv2_1_relu
I0711 10:14:38.958755 20510 net.cpp:157] Top shape: 1 256 10 10 (25600)
I0711 10:14:38.958757 20510 net.cpp:165] Memory required for data: 741685568
I0711 10:14:38.958760 20510 layer_factory.hpp:77] Creating layer res5c_relu/conv2_2
I0711 10:14:38.958766 20510 net.cpp:100] Creating Layer res5c_relu/conv2_2
I0711 10:14:38.958770 20510 net.cpp:434] res5c_relu/conv2_2 <- res5c_relu/conv2_1
I0711 10:14:38.958775 20510 net.cpp:408] res5c_relu/conv2_2 -> res5c_relu/conv2_2
I0711 10:14:38.970538 20510 net.cpp:150] Setting up res5c_relu/conv2_2
I0711 10:14:38.970558 20510 net.cpp:157] Top shape: 1 512 5 5 (12800)
I0711 10:14:38.970561 20510 net.cpp:165] Memory required for data: 741736768
I0711 10:14:38.970566 20510 layer_factory.hpp:77] Creating layer res5c_relu/conv2_2_bn
I0711 10:14:38.970573 20510 net.cpp:100] Creating Layer res5c_relu/conv2_2_bn
I0711 10:14:38.970577 20510 net.cpp:434] res5c_relu/conv2_2_bn <- res5c_relu/conv2_2
I0711 10:14:38.970582 20510 net.cpp:395] res5c_relu/conv2_2_bn -> res5c_relu/conv2_2 (in-place)
I0711 10:14:38.970770 20510 net.cpp:150] Setting up res5c_relu/conv2_2_bn
I0711 10:14:38.970777 20510 net.cpp:157] Top shape: 1 512 5 5 (12800)
I0711 10:14:38.970779 20510 net.cpp:165] Memory required for data: 741787968
I0711 10:14:38.970784 20510 layer_factory.hpp:77] Creating layer res5c_relu/conv2_2_scale
I0711 10:14:38.970790 20510 net.cpp:100] Creating Layer res5c_relu/conv2_2_scale
I0711 10:14:38.970793 20510 net.cpp:434] res5c_relu/conv2_2_scale <- res5c_relu/conv2_2
I0711 10:14:38.970796 20510 net.cpp:395] res5c_relu/conv2_2_scale -> res5c_relu/conv2_2 (in-place)
I0711 10:14:38.970844 20510 layer_factory.hpp:77] Creating layer res5c_relu/conv2_2_scale
I0711 10:14:38.970947 20510 net.cpp:150] Setting up res5c_relu/conv2_2_scale
I0711 10:14:38.970953 20510 net.cpp:157] Top shape: 1 512 5 5 (12800)
I0711 10:14:38.970957 20510 net.cpp:165] Memory required for data: 741839168
I0711 10:14:38.970960 20510 layer_factory.hpp:77] Creating layer res5c_relu/conv2_2_relu
I0711 10:14:38.970964 20510 net.cpp:100] Creating Layer res5c_relu/conv2_2_relu
I0711 10:14:38.970968 20510 net.cpp:434] res5c_relu/conv2_2_relu <- res5c_relu/conv2_2
I0711 10:14:38.970970 20510 net.cpp:395] res5c_relu/conv2_2_relu -> res5c_relu/conv2_2 (in-place)
I0711 10:14:38.971132 20510 net.cpp:150] Setting up res5c_relu/conv2_2_relu
I0711 10:14:38.971138 20510 net.cpp:157] Top shape: 1 512 5 5 (12800)
I0711 10:14:38.971140 20510 net.cpp:165] Memory required for data: 741890368
I0711 10:14:38.971153 20510 layer_factory.hpp:77] Creating layer res5c_relu/conv2_2_res5c_relu/conv2_2_relu_0_split
I0711 10:14:38.971158 20510 net.cpp:100] Creating Layer res5c_relu/conv2_2_res5c_relu/conv2_2_relu_0_split
I0711 10:14:38.971161 20510 net.cpp:434] res5c_relu/conv2_2_res5c_relu/conv2_2_relu_0_split <- res5c_relu/conv2_2
I0711 10:14:38.971166 20510 net.cpp:408] res5c_relu/conv2_2_res5c_relu/conv2_2_relu_0_split -> res5c_relu/conv2_2_res5c_relu/conv2_2_relu_0_split_0
I0711 10:14:38.971174 20510 net.cpp:408] res5c_relu/conv2_2_res5c_relu/conv2_2_relu_0_split -> res5c_relu/conv2_2_res5c_relu/conv2_2_relu_0_split_1
I0711 10:14:38.971179 20510 net.cpp:408] res5c_relu/conv2_2_res5c_relu/conv2_2_relu_0_split -> res5c_relu/conv2_2_res5c_relu/conv2_2_relu_0_split_2
I0711 10:14:38.971184 20510 net.cpp:408] res5c_relu/conv2_2_res5c_relu/conv2_2_relu_0_split -> res5c_relu/conv2_2_res5c_relu/conv2_2_relu_0_split_3
I0711 10:14:38.971236 20510 net.cpp:150] Setting up res5c_relu/conv2_2_res5c_relu/conv2_2_relu_0_split
I0711 10:14:38.971242 20510 net.cpp:157] Top shape: 1 512 5 5 (12800)
I0711 10:14:38.971246 20510 net.cpp:157] Top shape: 1 512 5 5 (12800)
I0711 10:14:38.971247 20510 net.cpp:157] Top shape: 1 512 5 5 (12800)
I0711 10:14:38.971249 20510 net.cpp:157] Top shape: 1 512 5 5 (12800)
I0711 10:14:38.971251 20510 net.cpp:165] Memory required for data: 742095168
I0711 10:14:38.971253 20510 layer_factory.hpp:77] Creating layer res5c_relu/conv3_1
I0711 10:14:38.971259 20510 net.cpp:100] Creating Layer res5c_relu/conv3_1
I0711 10:14:38.971262 20510 net.cpp:434] res5c_relu/conv3_1 <- res5c_relu/conv2_2_res5c_relu/conv2_2_relu_0_split_0
I0711 10:14:38.971267 20510 net.cpp:408] res5c_relu/conv3_1 -> res5c_relu/conv3_1
I0711 10:14:38.973841 20510 net.cpp:150] Setting up res5c_relu/conv3_1
I0711 10:14:38.973851 20510 net.cpp:157] Top shape: 1 256 5 5 (6400)
I0711 10:14:38.973853 20510 net.cpp:165] Memory required for data: 742120768
I0711 10:14:38.973857 20510 layer_factory.hpp:77] Creating layer res5c_relu/conv3_1_bn
I0711 10:14:38.973862 20510 net.cpp:100] Creating Layer res5c_relu/conv3_1_bn
I0711 10:14:38.973865 20510 net.cpp:434] res5c_relu/conv3_1_bn <- res5c_relu/conv3_1
I0711 10:14:38.973870 20510 net.cpp:395] res5c_relu/conv3_1_bn -> res5c_relu/conv3_1 (in-place)
I0711 10:14:38.974020 20510 net.cpp:150] Setting up res5c_relu/conv3_1_bn
I0711 10:14:38.974025 20510 net.cpp:157] Top shape: 1 256 5 5 (6400)
I0711 10:14:38.974026 20510 net.cpp:165] Memory required for data: 742146368
I0711 10:14:38.974030 20510 layer_factory.hpp:77] Creating layer res5c_relu/conv3_1_scale
I0711 10:14:38.974037 20510 net.cpp:100] Creating Layer res5c_relu/conv3_1_scale
I0711 10:14:38.974040 20510 net.cpp:434] res5c_relu/conv3_1_scale <- res5c_relu/conv3_1
I0711 10:14:38.974042 20510 net.cpp:395] res5c_relu/conv3_1_scale -> res5c_relu/conv3_1 (in-place)
I0711 10:14:38.974071 20510 layer_factory.hpp:77] Creating layer res5c_relu/conv3_1_scale
I0711 10:14:38.974154 20510 net.cpp:150] Setting up res5c_relu/conv3_1_scale
I0711 10:14:38.974159 20510 net.cpp:157] Top shape: 1 256 5 5 (6400)
I0711 10:14:38.974161 20510 net.cpp:165] Memory required for data: 742171968
I0711 10:14:38.974164 20510 layer_factory.hpp:77] Creating layer res5c_relu/conv3_1_relu
I0711 10:14:38.974169 20510 net.cpp:100] Creating Layer res5c_relu/conv3_1_relu
I0711 10:14:38.974172 20510 net.cpp:434] res5c_relu/conv3_1_relu <- res5c_relu/conv3_1
I0711 10:14:38.974175 20510 net.cpp:395] res5c_relu/conv3_1_relu -> res5c_relu/conv3_1 (in-place)
I0711 10:14:38.974335 20510 net.cpp:150] Setting up res5c_relu/conv3_1_relu
I0711 10:14:38.974341 20510 net.cpp:157] Top shape: 1 256 5 5 (6400)
I0711 10:14:38.974344 20510 net.cpp:165] Memory required for data: 742197568
I0711 10:14:38.974346 20510 layer_factory.hpp:77] Creating layer res5c_relu/conv3_2
I0711 10:14:38.974352 20510 net.cpp:100] Creating Layer res5c_relu/conv3_2
I0711 10:14:38.974355 20510 net.cpp:434] res5c_relu/conv3_2 <- res5c_relu/conv3_1
I0711 10:14:38.974360 20510 net.cpp:408] res5c_relu/conv3_2 -> res5c_relu/conv3_2
I0711 10:14:38.986899 20510 net.cpp:150] Setting up res5c_relu/conv3_2
I0711 10:14:38.986917 20510 net.cpp:157] Top shape: 1 512 3 3 (4608)
I0711 10:14:38.986919 20510 net.cpp:165] Memory required for data: 742216000
I0711 10:14:38.986924 20510 layer_factory.hpp:77] Creating layer res5c_relu/conv3_2_bn
I0711 10:14:38.986930 20510 net.cpp:100] Creating Layer res5c_relu/conv3_2_bn
I0711 10:14:38.986934 20510 net.cpp:434] res5c_relu/conv3_2_bn <- res5c_relu/conv3_2
I0711 10:14:38.986939 20510 net.cpp:395] res5c_relu/conv3_2_bn -> res5c_relu/conv3_2 (in-place)
I0711 10:14:38.987125 20510 net.cpp:150] Setting up res5c_relu/conv3_2_bn
I0711 10:14:38.987131 20510 net.cpp:157] Top shape: 1 512 3 3 (4608)
I0711 10:14:38.987133 20510 net.cpp:165] Memory required for data: 742234432
I0711 10:14:38.987138 20510 layer_factory.hpp:77] Creating layer res5c_relu/conv3_2_scale
I0711 10:14:38.987146 20510 net.cpp:100] Creating Layer res5c_relu/conv3_2_scale
I0711 10:14:38.987149 20510 net.cpp:434] res5c_relu/conv3_2_scale <- res5c_relu/conv3_2
I0711 10:14:38.987152 20510 net.cpp:395] res5c_relu/conv3_2_scale -> res5c_relu/conv3_2 (in-place)
I0711 10:14:38.987193 20510 layer_factory.hpp:77] Creating layer res5c_relu/conv3_2_scale
I0711 10:14:38.987296 20510 net.cpp:150] Setting up res5c_relu/conv3_2_scale
I0711 10:14:38.987303 20510 net.cpp:157] Top shape: 1 512 3 3 (4608)
I0711 10:14:38.987303 20510 net.cpp:165] Memory required for data: 742252864
I0711 10:14:38.987308 20510 layer_factory.hpp:77] Creating layer res5c_relu/conv3_2_relu
I0711 10:14:38.987313 20510 net.cpp:100] Creating Layer res5c_relu/conv3_2_relu
I0711 10:14:38.987316 20510 net.cpp:434] res5c_relu/conv3_2_relu <- res5c_relu/conv3_2
I0711 10:14:38.987319 20510 net.cpp:395] res5c_relu/conv3_2_relu -> res5c_relu/conv3_2 (in-place)
I0711 10:14:38.987944 20510 net.cpp:150] Setting up res5c_relu/conv3_2_relu
I0711 10:14:38.987953 20510 net.cpp:157] Top shape: 1 512 3 3 (4608)
I0711 10:14:38.987954 20510 net.cpp:165] Memory required for data: 742271296
I0711 10:14:38.987957 20510 layer_factory.hpp:77] Creating layer res5c_relu/conv3_2_res5c_relu/conv3_2_relu_0_split
I0711 10:14:38.987962 20510 net.cpp:100] Creating Layer res5c_relu/conv3_2_res5c_relu/conv3_2_relu_0_split
I0711 10:14:38.987965 20510 net.cpp:434] res5c_relu/conv3_2_res5c_relu/conv3_2_relu_0_split <- res5c_relu/conv3_2
I0711 10:14:38.987970 20510 net.cpp:408] res5c_relu/conv3_2_res5c_relu/conv3_2_relu_0_split -> res5c_relu/conv3_2_res5c_relu/conv3_2_relu_0_split_0
I0711 10:14:38.987975 20510 net.cpp:408] res5c_relu/conv3_2_res5c_relu/conv3_2_relu_0_split -> res5c_relu/conv3_2_res5c_relu/conv3_2_relu_0_split_1
I0711 10:14:38.987979 20510 net.cpp:408] res5c_relu/conv3_2_res5c_relu/conv3_2_relu_0_split -> res5c_relu/conv3_2_res5c_relu/conv3_2_relu_0_split_2
I0711 10:14:38.987983 20510 net.cpp:408] res5c_relu/conv3_2_res5c_relu/conv3_2_relu_0_split -> res5c_relu/conv3_2_res5c_relu/conv3_2_relu_0_split_3
I0711 10:14:38.988039 20510 net.cpp:150] Setting up res5c_relu/conv3_2_res5c_relu/conv3_2_relu_0_split
I0711 10:14:38.988044 20510 net.cpp:157] Top shape: 1 512 3 3 (4608)
I0711 10:14:38.988047 20510 net.cpp:157] Top shape: 1 512 3 3 (4608)
I0711 10:14:38.988049 20510 net.cpp:157] Top shape: 1 512 3 3 (4608)
I0711 10:14:38.988051 20510 net.cpp:157] Top shape: 1 512 3 3 (4608)
I0711 10:14:38.988054 20510 net.cpp:165] Memory required for data: 742345024
I0711 10:14:38.988054 20510 layer_factory.hpp:77] Creating layer pool6
I0711 10:14:38.988059 20510 net.cpp:100] Creating Layer pool6
I0711 10:14:38.988061 20510 net.cpp:434] pool6 <- res5c_relu/conv3_2_res5c_relu/conv3_2_relu_0_split_0
I0711 10:14:38.988066 20510 net.cpp:408] pool6 -> pool6
I0711 10:14:38.988243 20510 net.cpp:150] Setting up pool6
I0711 10:14:38.988251 20510 net.cpp:157] Top shape: 1 512 1 1 (512)
I0711 10:14:38.988255 20510 net.cpp:165] Memory required for data: 742347072
I0711 10:14:38.988256 20510 layer_factory.hpp:77] Creating layer pool6_pool6_0_split
I0711 10:14:38.988260 20510 net.cpp:100] Creating Layer pool6_pool6_0_split
I0711 10:14:38.988275 20510 net.cpp:434] pool6_pool6_0_split <- pool6
I0711 10:14:38.988279 20510 net.cpp:408] pool6_pool6_0_split -> pool6_pool6_0_split_0
I0711 10:14:38.988284 20510 net.cpp:408] pool6_pool6_0_split -> pool6_pool6_0_split_1
I0711 10:14:38.988289 20510 net.cpp:408] pool6_pool6_0_split -> pool6_pool6_0_split_2
I0711 10:14:38.988329 20510 net.cpp:150] Setting up pool6_pool6_0_split
I0711 10:14:38.988333 20510 net.cpp:157] Top shape: 1 512 1 1 (512)
I0711 10:14:38.988335 20510 net.cpp:157] Top shape: 1 512 1 1 (512)
I0711 10:14:38.988337 20510 net.cpp:157] Top shape: 1 512 1 1 (512)
I0711 10:14:38.988339 20510 net.cpp:165] Memory required for data: 742353216
I0711 10:14:38.988340 20510 layer_factory.hpp:77] Creating layer res3b3_relu_mbox_loc
I0711 10:14:38.988348 20510 net.cpp:100] Creating Layer res3b3_relu_mbox_loc
I0711 10:14:38.988351 20510 net.cpp:434] res3b3_relu_mbox_loc <- res3b3_res3b3_relu_0_split_2
I0711 10:14:38.988356 20510 net.cpp:408] res3b3_relu_mbox_loc -> res3b3_relu_mbox_loc
I0711 10:14:38.991132 20510 net.cpp:150] Setting up res3b3_relu_mbox_loc
I0711 10:14:38.991142 20510 net.cpp:157] Top shape: 1 12 38 38 (17328)
I0711 10:14:38.991143 20510 net.cpp:165] Memory required for data: 742422528
I0711 10:14:38.991149 20510 layer_factory.hpp:77] Creating layer res3b3_relu_mbox_loc_perm
I0711 10:14:38.991210 20510 net.cpp:100] Creating Layer res3b3_relu_mbox_loc_perm
I0711 10:14:38.991214 20510 net.cpp:434] res3b3_relu_mbox_loc_perm <- res3b3_relu_mbox_loc
I0711 10:14:38.991219 20510 net.cpp:408] res3b3_relu_mbox_loc_perm -> res3b3_relu_mbox_loc_perm
I0711 10:14:38.991304 20510 net.cpp:150] Setting up res3b3_relu_mbox_loc_perm
I0711 10:14:38.991309 20510 net.cpp:157] Top shape: 1 38 38 12 (17328)
I0711 10:14:38.991312 20510 net.cpp:165] Memory required for data: 742491840
I0711 10:14:38.991313 20510 layer_factory.hpp:77] Creating layer res3b3_relu_mbox_loc_flat
I0711 10:14:38.991317 20510 net.cpp:100] Creating Layer res3b3_relu_mbox_loc_flat
I0711 10:14:38.991320 20510 net.cpp:434] res3b3_relu_mbox_loc_flat <- res3b3_relu_mbox_loc_perm
I0711 10:14:38.991324 20510 net.cpp:408] res3b3_relu_mbox_loc_flat -> res3b3_relu_mbox_loc_flat
I0711 10:14:38.991343 20510 net.cpp:150] Setting up res3b3_relu_mbox_loc_flat
I0711 10:14:38.991346 20510 net.cpp:157] Top shape: 1 17328 (17328)
I0711 10:14:38.991348 20510 net.cpp:165] Memory required for data: 742561152
I0711 10:14:38.991349 20510 layer_factory.hpp:77] Creating layer res3b3_relu_mbox_conf
I0711 10:14:38.991355 20510 net.cpp:100] Creating Layer res3b3_relu_mbox_conf
I0711 10:14:38.991358 20510 net.cpp:434] res3b3_relu_mbox_conf <- res3b3_res3b3_relu_0_split_3
I0711 10:14:38.991363 20510 net.cpp:408] res3b3_relu_mbox_conf -> res3b3_relu_mbox_conf
I0711 10:14:38.995088 20510 net.cpp:150] Setting up res3b3_relu_mbox_conf
I0711 10:14:38.995098 20510 net.cpp:157] Top shape: 1 63 38 38 (90972)
I0711 10:14:38.995101 20510 net.cpp:165] Memory required for data: 742925040
I0711 10:14:38.995106 20510 layer_factory.hpp:77] Creating layer res3b3_relu_mbox_conf_perm
I0711 10:14:38.995111 20510 net.cpp:100] Creating Layer res3b3_relu_mbox_conf_perm
I0711 10:14:38.995115 20510 net.cpp:434] res3b3_relu_mbox_conf_perm <- res3b3_relu_mbox_conf
I0711 10:14:38.995118 20510 net.cpp:408] res3b3_relu_mbox_conf_perm -> res3b3_relu_mbox_conf_perm
I0711 10:14:38.995206 20510 net.cpp:150] Setting up res3b3_relu_mbox_conf_perm
I0711 10:14:38.995211 20510 net.cpp:157] Top shape: 1 38 38 63 (90972)
I0711 10:14:38.995213 20510 net.cpp:165] Memory required for data: 743288928
I0711 10:14:38.995215 20510 layer_factory.hpp:77] Creating layer res3b3_relu_mbox_conf_flat
I0711 10:14:38.995219 20510 net.cpp:100] Creating Layer res3b3_relu_mbox_conf_flat
I0711 10:14:38.995223 20510 net.cpp:434] res3b3_relu_mbox_conf_flat <- res3b3_relu_mbox_conf_perm
I0711 10:14:38.995226 20510 net.cpp:408] res3b3_relu_mbox_conf_flat -> res3b3_relu_mbox_conf_flat
I0711 10:14:38.995244 20510 net.cpp:150] Setting up res3b3_relu_mbox_conf_flat
I0711 10:14:38.995249 20510 net.cpp:157] Top shape: 1 90972 (90972)
I0711 10:14:38.995259 20510 net.cpp:165] Memory required for data: 743652816
I0711 10:14:38.995260 20510 layer_factory.hpp:77] Creating layer res3b3_relu_mbox_priorbox
I0711 10:14:38.995267 20510 net.cpp:100] Creating Layer res3b3_relu_mbox_priorbox
I0711 10:14:38.995270 20510 net.cpp:434] res3b3_relu_mbox_priorbox <- res3b3_res3b3_relu_0_split_4
I0711 10:14:38.995273 20510 net.cpp:434] res3b3_relu_mbox_priorbox <- data_data_0_split_1
I0711 10:14:38.995277 20510 net.cpp:408] res3b3_relu_mbox_priorbox -> res3b3_relu_mbox_priorbox
I0711 10:14:38.995301 20510 net.cpp:150] Setting up res3b3_relu_mbox_priorbox
I0711 10:14:38.995306 20510 net.cpp:157] Top shape: 1 2 17328 (34656)
I0711 10:14:38.995306 20510 net.cpp:165] Memory required for data: 743791440
I0711 10:14:38.995308 20510 layer_factory.hpp:77] Creating layer res5c_relu_mbox_loc
I0711 10:14:38.995316 20510 net.cpp:100] Creating Layer res5c_relu_mbox_loc
I0711 10:14:38.995319 20510 net.cpp:434] res5c_relu_mbox_loc <- res5c_res5c_relu_0_split_1
I0711 10:14:38.995323 20510 net.cpp:408] res5c_relu_mbox_loc -> res5c_relu_mbox_loc
I0711 10:14:38.999789 20510 net.cpp:150] Setting up res5c_relu_mbox_loc
I0711 10:14:38.999799 20510 net.cpp:157] Top shape: 1 24 19 19 (8664)
I0711 10:14:38.999802 20510 net.cpp:165] Memory required for data: 743826096
I0711 10:14:38.999806 20510 layer_factory.hpp:77] Creating layer res5c_relu_mbox_loc_perm
I0711 10:14:38.999812 20510 net.cpp:100] Creating Layer res5c_relu_mbox_loc_perm
I0711 10:14:38.999825 20510 net.cpp:434] res5c_relu_mbox_loc_perm <- res5c_relu_mbox_loc
I0711 10:14:38.999830 20510 net.cpp:408] res5c_relu_mbox_loc_perm -> res5c_relu_mbox_loc_perm
I0711 10:14:38.999917 20510 net.cpp:150] Setting up res5c_relu_mbox_loc_perm
I0711 10:14:38.999922 20510 net.cpp:157] Top shape: 1 19 19 24 (8664)
I0711 10:14:38.999924 20510 net.cpp:165] Memory required for data: 743860752
I0711 10:14:38.999927 20510 layer_factory.hpp:77] Creating layer res5c_relu_mbox_loc_flat
I0711 10:14:38.999930 20510 net.cpp:100] Creating Layer res5c_relu_mbox_loc_flat
I0711 10:14:38.999933 20510 net.cpp:434] res5c_relu_mbox_loc_flat <- res5c_relu_mbox_loc_perm
I0711 10:14:38.999935 20510 net.cpp:408] res5c_relu_mbox_loc_flat -> res5c_relu_mbox_loc_flat
I0711 10:14:38.999955 20510 net.cpp:150] Setting up res5c_relu_mbox_loc_flat
I0711 10:14:38.999959 20510 net.cpp:157] Top shape: 1 8664 (8664)
I0711 10:14:38.999961 20510 net.cpp:165] Memory required for data: 743895408
I0711 10:14:38.999963 20510 layer_factory.hpp:77] Creating layer res5c_relu_mbox_conf
I0711 10:14:38.999969 20510 net.cpp:100] Creating Layer res5c_relu_mbox_conf
I0711 10:14:38.999972 20510 net.cpp:434] res5c_relu_mbox_conf <- res5c_res5c_relu_0_split_2
I0711 10:14:38.999976 20510 net.cpp:408] res5c_relu_mbox_conf -> res5c_relu_mbox_conf
I0711 10:14:39.013180 20510 net.cpp:150] Setting up res5c_relu_mbox_conf
I0711 10:14:39.013203 20510 net.cpp:157] Top shape: 1 126 19 19 (45486)
I0711 10:14:39.013206 20510 net.cpp:165] Memory required for data: 744077352
I0711 10:14:39.013212 20510 layer_factory.hpp:77] Creating layer res5c_relu_mbox_conf_perm
I0711 10:14:39.013219 20510 net.cpp:100] Creating Layer res5c_relu_mbox_conf_perm
I0711 10:14:39.013223 20510 net.cpp:434] res5c_relu_mbox_conf_perm <- res5c_relu_mbox_conf
I0711 10:14:39.013229 20510 net.cpp:408] res5c_relu_mbox_conf_perm -> res5c_relu_mbox_conf_perm
I0711 10:14:39.013319 20510 net.cpp:150] Setting up res5c_relu_mbox_conf_perm
I0711 10:14:39.013324 20510 net.cpp:157] Top shape: 1 19 19 126 (45486)
I0711 10:14:39.013325 20510 net.cpp:165] Memory required for data: 744259296
I0711 10:14:39.013327 20510 layer_factory.hpp:77] Creating layer res5c_relu_mbox_conf_flat
I0711 10:14:39.013331 20510 net.cpp:100] Creating Layer res5c_relu_mbox_conf_flat
I0711 10:14:39.013334 20510 net.cpp:434] res5c_relu_mbox_conf_flat <- res5c_relu_mbox_conf_perm
I0711 10:14:39.013337 20510 net.cpp:408] res5c_relu_mbox_conf_flat -> res5c_relu_mbox_conf_flat
I0711 10:14:39.013356 20510 net.cpp:150] Setting up res5c_relu_mbox_conf_flat
I0711 10:14:39.013360 20510 net.cpp:157] Top shape: 1 45486 (45486)
I0711 10:14:39.013373 20510 net.cpp:165] Memory required for data: 744441240
I0711 10:14:39.013375 20510 layer_factory.hpp:77] Creating layer res5c_relu_mbox_priorbox
I0711 10:14:39.013382 20510 net.cpp:100] Creating Layer res5c_relu_mbox_priorbox
I0711 10:14:39.013386 20510 net.cpp:434] res5c_relu_mbox_priorbox <- res5c_res5c_relu_0_split_3
I0711 10:14:39.013389 20510 net.cpp:434] res5c_relu_mbox_priorbox <- data_data_0_split_2
I0711 10:14:39.013394 20510 net.cpp:408] res5c_relu_mbox_priorbox -> res5c_relu_mbox_priorbox
I0711 10:14:39.013417 20510 net.cpp:150] Setting up res5c_relu_mbox_priorbox
I0711 10:14:39.013422 20510 net.cpp:157] Top shape: 1 2 8664 (17328)
I0711 10:14:39.013423 20510 net.cpp:165] Memory required for data: 744510552
I0711 10:14:39.013425 20510 layer_factory.hpp:77] Creating layer res5c_relu/conv1_2_mbox_loc
I0711 10:14:39.013433 20510 net.cpp:100] Creating Layer res5c_relu/conv1_2_mbox_loc
I0711 10:14:39.013437 20510 net.cpp:434] res5c_relu/conv1_2_mbox_loc <- res5c_relu/conv1_2_res5c_relu/conv1_2_relu_0_split_1
I0711 10:14:39.013442 20510 net.cpp:408] res5c_relu/conv1_2_mbox_loc -> res5c_relu/conv1_2_mbox_loc
I0711 10:14:39.016021 20510 net.cpp:150] Setting up res5c_relu/conv1_2_mbox_loc
I0711 10:14:39.016033 20510 net.cpp:157] Top shape: 1 24 10 10 (2400)
I0711 10:14:39.016036 20510 net.cpp:165] Memory required for data: 744520152
I0711 10:14:39.016041 20510 layer_factory.hpp:77] Creating layer res5c_relu/conv1_2_mbox_loc_perm
I0711 10:14:39.016047 20510 net.cpp:100] Creating Layer res5c_relu/conv1_2_mbox_loc_perm
I0711 10:14:39.016049 20510 net.cpp:434] res5c_relu/conv1_2_mbox_loc_perm <- res5c_relu/conv1_2_mbox_loc
I0711 10:14:39.016053 20510 net.cpp:408] res5c_relu/conv1_2_mbox_loc_perm -> res5c_relu/conv1_2_mbox_loc_perm
I0711 10:14:39.016145 20510 net.cpp:150] Setting up res5c_relu/conv1_2_mbox_loc_perm
I0711 10:14:39.016150 20510 net.cpp:157] Top shape: 1 10 10 24 (2400)
I0711 10:14:39.016152 20510 net.cpp:165] Memory required for data: 744529752
I0711 10:14:39.016155 20510 layer_factory.hpp:77] Creating layer res5c_relu/conv1_2_mbox_loc_flat
I0711 10:14:39.016157 20510 net.cpp:100] Creating Layer res5c_relu/conv1_2_mbox_loc_flat
I0711 10:14:39.016160 20510 net.cpp:434] res5c_relu/conv1_2_mbox_loc_flat <- res5c_relu/conv1_2_mbox_loc_perm
I0711 10:14:39.016163 20510 net.cpp:408] res5c_relu/conv1_2_mbox_loc_flat -> res5c_relu/conv1_2_mbox_loc_flat
I0711 10:14:39.016182 20510 net.cpp:150] Setting up res5c_relu/conv1_2_mbox_loc_flat
I0711 10:14:39.016186 20510 net.cpp:157] Top shape: 1 2400 (2400)
I0711 10:14:39.016188 20510 net.cpp:165] Memory required for data: 744539352
I0711 10:14:39.016191 20510 layer_factory.hpp:77] Creating layer res5c_relu/conv1_2_mbox_conf
I0711 10:14:39.016196 20510 net.cpp:100] Creating Layer res5c_relu/conv1_2_mbox_conf
I0711 10:14:39.016199 20510 net.cpp:434] res5c_relu/conv1_2_mbox_conf <- res5c_relu/conv1_2_res5c_relu/conv1_2_relu_0_split_2
I0711 10:14:39.016203 20510 net.cpp:408] res5c_relu/conv1_2_mbox_conf -> res5c_relu/conv1_2_mbox_conf
I0711 10:14:39.021767 20510 net.cpp:150] Setting up res5c_relu/conv1_2_mbox_conf
I0711 10:14:39.021778 20510 net.cpp:157] Top shape: 1 126 10 10 (12600)
I0711 10:14:39.021780 20510 net.cpp:165] Memory required for data: 744589752
I0711 10:14:39.021785 20510 layer_factory.hpp:77] Creating layer res5c_relu/conv1_2_mbox_conf_perm
I0711 10:14:39.021791 20510 net.cpp:100] Creating Layer res5c_relu/conv1_2_mbox_conf_perm
I0711 10:14:39.021795 20510 net.cpp:434] res5c_relu/conv1_2_mbox_conf_perm <- res5c_relu/conv1_2_mbox_conf
I0711 10:14:39.021801 20510 net.cpp:408] res5c_relu/conv1_2_mbox_conf_perm -> res5c_relu/conv1_2_mbox_conf_perm
I0711 10:14:39.021889 20510 net.cpp:150] Setting up res5c_relu/conv1_2_mbox_conf_perm
I0711 10:14:39.021895 20510 net.cpp:157] Top shape: 1 10 10 126 (12600)
I0711 10:14:39.021898 20510 net.cpp:165] Memory required for data: 744640152
I0711 10:14:39.021899 20510 layer_factory.hpp:77] Creating layer res5c_relu/conv1_2_mbox_conf_flat
I0711 10:14:39.021903 20510 net.cpp:100] Creating Layer res5c_relu/conv1_2_mbox_conf_flat
I0711 10:14:39.021915 20510 net.cpp:434] res5c_relu/conv1_2_mbox_conf_flat <- res5c_relu/conv1_2_mbox_conf_perm
I0711 10:14:39.021919 20510 net.cpp:408] res5c_relu/conv1_2_mbox_conf_flat -> res5c_relu/conv1_2_mbox_conf_flat
I0711 10:14:39.021941 20510 net.cpp:150] Setting up res5c_relu/conv1_2_mbox_conf_flat
I0711 10:14:39.021946 20510 net.cpp:157] Top shape: 1 12600 (12600)
I0711 10:14:39.021947 20510 net.cpp:165] Memory required for data: 744690552
I0711 10:14:39.021950 20510 layer_factory.hpp:77] Creating layer res5c_relu/conv1_2_mbox_priorbox
I0711 10:14:39.021955 20510 net.cpp:100] Creating Layer res5c_relu/conv1_2_mbox_priorbox
I0711 10:14:39.021957 20510 net.cpp:434] res5c_relu/conv1_2_mbox_priorbox <- res5c_relu/conv1_2_res5c_relu/conv1_2_relu_0_split_3
I0711 10:14:39.021960 20510 net.cpp:434] res5c_relu/conv1_2_mbox_priorbox <- data_data_0_split_3
I0711 10:14:39.021965 20510 net.cpp:408] res5c_relu/conv1_2_mbox_priorbox -> res5c_relu/conv1_2_mbox_priorbox
I0711 10:14:39.021986 20510 net.cpp:150] Setting up res5c_relu/conv1_2_mbox_priorbox
I0711 10:14:39.021991 20510 net.cpp:157] Top shape: 1 2 2400 (4800)
I0711 10:14:39.021993 20510 net.cpp:165] Memory required for data: 744709752
I0711 10:14:39.021994 20510 layer_factory.hpp:77] Creating layer res5c_relu/conv2_2_mbox_loc
I0711 10:14:39.022003 20510 net.cpp:100] Creating Layer res5c_relu/conv2_2_mbox_loc
I0711 10:14:39.022007 20510 net.cpp:434] res5c_relu/conv2_2_mbox_loc <- res5c_relu/conv2_2_res5c_relu/conv2_2_relu_0_split_1
I0711 10:14:39.022011 20510 net.cpp:408] res5c_relu/conv2_2_mbox_loc -> res5c_relu/conv2_2_mbox_loc
I0711 10:14:39.024554 20510 net.cpp:150] Setting up res5c_relu/conv2_2_mbox_loc
I0711 10:14:39.024564 20510 net.cpp:157] Top shape: 1 24 5 5 (600)
I0711 10:14:39.024567 20510 net.cpp:165] Memory required for data: 744712152
I0711 10:14:39.024571 20510 layer_factory.hpp:77] Creating layer res5c_relu/conv2_2_mbox_loc_perm
I0711 10:14:39.024577 20510 net.cpp:100] Creating Layer res5c_relu/conv2_2_mbox_loc_perm
I0711 10:14:39.024581 20510 net.cpp:434] res5c_relu/conv2_2_mbox_loc_perm <- res5c_relu/conv2_2_mbox_loc
I0711 10:14:39.024586 20510 net.cpp:408] res5c_relu/conv2_2_mbox_loc_perm -> res5c_relu/conv2_2_mbox_loc_perm
I0711 10:14:39.024675 20510 net.cpp:150] Setting up res5c_relu/conv2_2_mbox_loc_perm
I0711 10:14:39.024682 20510 net.cpp:157] Top shape: 1 5 5 24 (600)
I0711 10:14:39.024683 20510 net.cpp:165] Memory required for data: 744714552
I0711 10:14:39.024685 20510 layer_factory.hpp:77] Creating layer res5c_relu/conv2_2_mbox_loc_flat
I0711 10:14:39.024688 20510 net.cpp:100] Creating Layer res5c_relu/conv2_2_mbox_loc_flat
I0711 10:14:39.024691 20510 net.cpp:434] res5c_relu/conv2_2_mbox_loc_flat <- res5c_relu/conv2_2_mbox_loc_perm
I0711 10:14:39.024695 20510 net.cpp:408] res5c_relu/conv2_2_mbox_loc_flat -> res5c_relu/conv2_2_mbox_loc_flat
I0711 10:14:39.024714 20510 net.cpp:150] Setting up res5c_relu/conv2_2_mbox_loc_flat
I0711 10:14:39.024719 20510 net.cpp:157] Top shape: 1 600 (600)
I0711 10:14:39.024721 20510 net.cpp:165] Memory required for data: 744716952
I0711 10:14:39.024722 20510 layer_factory.hpp:77] Creating layer res5c_relu/conv2_2_mbox_conf
I0711 10:14:39.024729 20510 net.cpp:100] Creating Layer res5c_relu/conv2_2_mbox_conf
I0711 10:14:39.024731 20510 net.cpp:434] res5c_relu/conv2_2_mbox_conf <- res5c_relu/conv2_2_res5c_relu/conv2_2_relu_0_split_2
I0711 10:14:39.024736 20510 net.cpp:408] res5c_relu/conv2_2_mbox_conf -> res5c_relu/conv2_2_mbox_conf
I0711 10:14:39.029932 20510 net.cpp:150] Setting up res5c_relu/conv2_2_mbox_conf
I0711 10:14:39.029942 20510 net.cpp:157] Top shape: 1 126 5 5 (3150)
I0711 10:14:39.029945 20510 net.cpp:165] Memory required for data: 744729552
I0711 10:14:39.029950 20510 layer_factory.hpp:77] Creating layer res5c_relu/conv2_2_mbox_conf_perm
I0711 10:14:39.029955 20510 net.cpp:100] Creating Layer res5c_relu/conv2_2_mbox_conf_perm
I0711 10:14:39.029959 20510 net.cpp:434] res5c_relu/conv2_2_mbox_conf_perm <- res5c_relu/conv2_2_mbox_conf
I0711 10:14:39.029973 20510 net.cpp:408] res5c_relu/conv2_2_mbox_conf_perm -> res5c_relu/conv2_2_mbox_conf_perm
I0711 10:14:39.030066 20510 net.cpp:150] Setting up res5c_relu/conv2_2_mbox_conf_perm
I0711 10:14:39.030071 20510 net.cpp:157] Top shape: 1 5 5 126 (3150)
I0711 10:14:39.030073 20510 net.cpp:165] Memory required for data: 744742152
I0711 10:14:39.030076 20510 layer_factory.hpp:77] Creating layer res5c_relu/conv2_2_mbox_conf_flat
I0711 10:14:39.030078 20510 net.cpp:100] Creating Layer res5c_relu/conv2_2_mbox_conf_flat
I0711 10:14:39.030081 20510 net.cpp:434] res5c_relu/conv2_2_mbox_conf_flat <- res5c_relu/conv2_2_mbox_conf_perm
I0711 10:14:39.030086 20510 net.cpp:408] res5c_relu/conv2_2_mbox_conf_flat -> res5c_relu/conv2_2_mbox_conf_flat
I0711 10:14:39.030104 20510 net.cpp:150] Setting up res5c_relu/conv2_2_mbox_conf_flat
I0711 10:14:39.030108 20510 net.cpp:157] Top shape: 1 3150 (3150)
I0711 10:14:39.030109 20510 net.cpp:165] Memory required for data: 744754752
I0711 10:14:39.030112 20510 layer_factory.hpp:77] Creating layer res5c_relu/conv2_2_mbox_priorbox
I0711 10:14:39.030117 20510 net.cpp:100] Creating Layer res5c_relu/conv2_2_mbox_priorbox
I0711 10:14:39.030120 20510 net.cpp:434] res5c_relu/conv2_2_mbox_priorbox <- res5c_relu/conv2_2_res5c_relu/conv2_2_relu_0_split_3
I0711 10:14:39.030123 20510 net.cpp:434] res5c_relu/conv2_2_mbox_priorbox <- data_data_0_split_4
I0711 10:14:39.030128 20510 net.cpp:408] res5c_relu/conv2_2_mbox_priorbox -> res5c_relu/conv2_2_mbox_priorbox
I0711 10:14:39.030150 20510 net.cpp:150] Setting up res5c_relu/conv2_2_mbox_priorbox
I0711 10:14:39.030153 20510 net.cpp:157] Top shape: 1 2 600 (1200)
I0711 10:14:39.030155 20510 net.cpp:165] Memory required for data: 744759552
I0711 10:14:39.030158 20510 layer_factory.hpp:77] Creating layer res5c_relu/conv3_2_mbox_loc
I0711 10:14:39.030164 20510 net.cpp:100] Creating Layer res5c_relu/conv3_2_mbox_loc
I0711 10:14:39.030166 20510 net.cpp:434] res5c_relu/conv3_2_mbox_loc <- res5c_relu/conv3_2_res5c_relu/conv3_2_relu_0_split_1
I0711 10:14:39.030171 20510 net.cpp:408] res5c_relu/conv3_2_mbox_loc -> res5c_relu/conv3_2_mbox_loc
I0711 10:14:39.032275 20510 net.cpp:150] Setting up res5c_relu/conv3_2_mbox_loc
I0711 10:14:39.032284 20510 net.cpp:157] Top shape: 1 24 3 3 (216)
I0711 10:14:39.032287 20510 net.cpp:165] Memory required for data: 744760416
I0711 10:14:39.032292 20510 layer_factory.hpp:77] Creating layer res5c_relu/conv3_2_mbox_loc_perm
I0711 10:14:39.032299 20510 net.cpp:100] Creating Layer res5c_relu/conv3_2_mbox_loc_perm
I0711 10:14:39.032302 20510 net.cpp:434] res5c_relu/conv3_2_mbox_loc_perm <- res5c_relu/conv3_2_mbox_loc
I0711 10:14:39.032307 20510 net.cpp:408] res5c_relu/conv3_2_mbox_loc_perm -> res5c_relu/conv3_2_mbox_loc_perm
I0711 10:14:39.032399 20510 net.cpp:150] Setting up res5c_relu/conv3_2_mbox_loc_perm
I0711 10:14:39.032403 20510 net.cpp:157] Top shape: 1 3 3 24 (216)
I0711 10:14:39.032405 20510 net.cpp:165] Memory required for data: 744761280
I0711 10:14:39.032407 20510 layer_factory.hpp:77] Creating layer res5c_relu/conv3_2_mbox_loc_flat
I0711 10:14:39.032410 20510 net.cpp:100] Creating Layer res5c_relu/conv3_2_mbox_loc_flat
I0711 10:14:39.032413 20510 net.cpp:434] res5c_relu/conv3_2_mbox_loc_flat <- res5c_relu/conv3_2_mbox_loc_perm
I0711 10:14:39.032418 20510 net.cpp:408] res5c_relu/conv3_2_mbox_loc_flat -> res5c_relu/conv3_2_mbox_loc_flat
I0711 10:14:39.032438 20510 net.cpp:150] Setting up res5c_relu/conv3_2_mbox_loc_flat
I0711 10:14:39.032441 20510 net.cpp:157] Top shape: 1 216 (216)
I0711 10:14:39.032443 20510 net.cpp:165] Memory required for data: 744762144
I0711 10:14:39.032444 20510 layer_factory.hpp:77] Creating layer res5c_relu/conv3_2_mbox_conf
I0711 10:14:39.032450 20510 net.cpp:100] Creating Layer res5c_relu/conv3_2_mbox_conf
I0711 10:14:39.032454 20510 net.cpp:434] res5c_relu/conv3_2_mbox_conf <- res5c_relu/conv3_2_res5c_relu/conv3_2_relu_0_split_2
I0711 10:14:39.032459 20510 net.cpp:408] res5c_relu/conv3_2_mbox_conf -> res5c_relu/conv3_2_mbox_conf
I0711 10:14:39.037564 20510 net.cpp:150] Setting up res5c_relu/conv3_2_mbox_conf
I0711 10:14:39.037582 20510 net.cpp:157] Top shape: 1 126 3 3 (1134)
I0711 10:14:39.037585 20510 net.cpp:165] Memory required for data: 744766680
I0711 10:14:39.037590 20510 layer_factory.hpp:77] Creating layer res5c_relu/conv3_2_mbox_conf_perm
I0711 10:14:39.037595 20510 net.cpp:100] Creating Layer res5c_relu/conv3_2_mbox_conf_perm
I0711 10:14:39.037598 20510 net.cpp:434] res5c_relu/conv3_2_mbox_conf_perm <- res5c_relu/conv3_2_mbox_conf
I0711 10:14:39.037605 20510 net.cpp:408] res5c_relu/conv3_2_mbox_conf_perm -> res5c_relu/conv3_2_mbox_conf_perm
I0711 10:14:39.037698 20510 net.cpp:150] Setting up res5c_relu/conv3_2_mbox_conf_perm
I0711 10:14:39.037703 20510 net.cpp:157] Top shape: 1 3 3 126 (1134)
I0711 10:14:39.037704 20510 net.cpp:165] Memory required for data: 744771216
I0711 10:14:39.037706 20510 layer_factory.hpp:77] Creating layer res5c_relu/conv3_2_mbox_conf_flat
I0711 10:14:39.037710 20510 net.cpp:100] Creating Layer res5c_relu/conv3_2_mbox_conf_flat
I0711 10:14:39.037714 20510 net.cpp:434] res5c_relu/conv3_2_mbox_conf_flat <- res5c_relu/conv3_2_mbox_conf_perm
I0711 10:14:39.037717 20510 net.cpp:408] res5c_relu/conv3_2_mbox_conf_flat -> res5c_relu/conv3_2_mbox_conf_flat
I0711 10:14:39.037739 20510 net.cpp:150] Setting up res5c_relu/conv3_2_mbox_conf_flat
I0711 10:14:39.037742 20510 net.cpp:157] Top shape: 1 1134 (1134)
I0711 10:14:39.037744 20510 net.cpp:165] Memory required for data: 744775752
I0711 10:14:39.037745 20510 layer_factory.hpp:77] Creating layer res5c_relu/conv3_2_mbox_priorbox
I0711 10:14:39.037750 20510 net.cpp:100] Creating Layer res5c_relu/conv3_2_mbox_priorbox
I0711 10:14:39.037753 20510 net.cpp:434] res5c_relu/conv3_2_mbox_priorbox <- res5c_relu/conv3_2_res5c_relu/conv3_2_relu_0_split_3
I0711 10:14:39.037757 20510 net.cpp:434] res5c_relu/conv3_2_mbox_priorbox <- data_data_0_split_5
I0711 10:14:39.037760 20510 net.cpp:408] res5c_relu/conv3_2_mbox_priorbox -> res5c_relu/conv3_2_mbox_priorbox
I0711 10:14:39.037782 20510 net.cpp:150] Setting up res5c_relu/conv3_2_mbox_priorbox
I0711 10:14:39.037786 20510 net.cpp:157] Top shape: 1 2 216 (432)
I0711 10:14:39.037788 20510 net.cpp:165] Memory required for data: 744777480
I0711 10:14:39.037791 20510 layer_factory.hpp:77] Creating layer pool6_mbox_loc
I0711 10:14:39.037796 20510 net.cpp:100] Creating Layer pool6_mbox_loc
I0711 10:14:39.037801 20510 net.cpp:434] pool6_mbox_loc <- pool6_pool6_0_split_0
I0711 10:14:39.037806 20510 net.cpp:408] pool6_mbox_loc -> pool6_mbox_loc
I0711 10:14:39.040352 20510 net.cpp:150] Setting up pool6_mbox_loc
I0711 10:14:39.040362 20510 net.cpp:157] Top shape: 1 24 1 1 (24)
I0711 10:14:39.040364 20510 net.cpp:165] Memory required for data: 744777576
I0711 10:14:39.040369 20510 layer_factory.hpp:77] Creating layer pool6_mbox_loc_perm
I0711 10:14:39.040374 20510 net.cpp:100] Creating Layer pool6_mbox_loc_perm
I0711 10:14:39.040377 20510 net.cpp:434] pool6_mbox_loc_perm <- pool6_mbox_loc
I0711 10:14:39.040382 20510 net.cpp:408] pool6_mbox_loc_perm -> pool6_mbox_loc_perm
I0711 10:14:39.040473 20510 net.cpp:150] Setting up pool6_mbox_loc_perm
I0711 10:14:39.040477 20510 net.cpp:157] Top shape: 1 1 1 24 (24)
I0711 10:14:39.040479 20510 net.cpp:165] Memory required for data: 744777672
I0711 10:14:39.040482 20510 layer_factory.hpp:77] Creating layer pool6_mbox_loc_flat
I0711 10:14:39.040484 20510 net.cpp:100] Creating Layer pool6_mbox_loc_flat
I0711 10:14:39.040488 20510 net.cpp:434] pool6_mbox_loc_flat <- pool6_mbox_loc_perm
I0711 10:14:39.040491 20510 net.cpp:408] pool6_mbox_loc_flat -> pool6_mbox_loc_flat
I0711 10:14:39.040511 20510 net.cpp:150] Setting up pool6_mbox_loc_flat
I0711 10:14:39.040515 20510 net.cpp:157] Top shape: 1 24 (24)
I0711 10:14:39.040518 20510 net.cpp:165] Memory required for data: 744777768
I0711 10:14:39.040518 20510 layer_factory.hpp:77] Creating layer pool6_mbox_conf
I0711 10:14:39.040525 20510 net.cpp:100] Creating Layer pool6_mbox_conf
I0711 10:14:39.040529 20510 net.cpp:434] pool6_mbox_conf <- pool6_pool6_0_split_1
I0711 10:14:39.040534 20510 net.cpp:408] pool6_mbox_conf -> pool6_mbox_conf
I0711 10:14:39.045673 20510 net.cpp:150] Setting up pool6_mbox_conf
I0711 10:14:39.045682 20510 net.cpp:157] Top shape: 1 126 1 1 (126)
I0711 10:14:39.045686 20510 net.cpp:165] Memory required for data: 744778272
I0711 10:14:39.045691 20510 layer_factory.hpp:77] Creating layer pool6_mbox_conf_perm
I0711 10:14:39.045696 20510 net.cpp:100] Creating Layer pool6_mbox_conf_perm
I0711 10:14:39.045699 20510 net.cpp:434] pool6_mbox_conf_perm <- pool6_mbox_conf
I0711 10:14:39.045704 20510 net.cpp:408] pool6_mbox_conf_perm -> pool6_mbox_conf_perm
I0711 10:14:39.045794 20510 net.cpp:150] Setting up pool6_mbox_conf_perm
I0711 10:14:39.045799 20510 net.cpp:157] Top shape: 1 1 1 126 (126)
I0711 10:14:39.045800 20510 net.cpp:165] Memory required for data: 744778776
I0711 10:14:39.045802 20510 layer_factory.hpp:77] Creating layer pool6_mbox_conf_flat
I0711 10:14:39.045805 20510 net.cpp:100] Creating Layer pool6_mbox_conf_flat
I0711 10:14:39.045809 20510 net.cpp:434] pool6_mbox_conf_flat <- pool6_mbox_conf_perm
I0711 10:14:39.045812 20510 net.cpp:408] pool6_mbox_conf_flat -> pool6_mbox_conf_flat
I0711 10:14:39.045831 20510 net.cpp:150] Setting up pool6_mbox_conf_flat
I0711 10:14:39.045835 20510 net.cpp:157] Top shape: 1 126 (126)
I0711 10:14:39.045838 20510 net.cpp:165] Memory required for data: 744779280
I0711 10:14:39.045840 20510 layer_factory.hpp:77] Creating layer pool6_mbox_priorbox
I0711 10:14:39.045843 20510 net.cpp:100] Creating Layer pool6_mbox_priorbox
I0711 10:14:39.045845 20510 net.cpp:434] pool6_mbox_priorbox <- pool6_pool6_0_split_2
I0711 10:14:39.045848 20510 net.cpp:434] pool6_mbox_priorbox <- data_data_0_split_6
I0711 10:14:39.045853 20510 net.cpp:408] pool6_mbox_priorbox -> pool6_mbox_priorbox
I0711 10:14:39.045874 20510 net.cpp:150] Setting up pool6_mbox_priorbox
I0711 10:14:39.045878 20510 net.cpp:157] Top shape: 1 2 24 (48)
I0711 10:14:39.045886 20510 net.cpp:165] Memory required for data: 744779472
I0711 10:14:39.045887 20510 layer_factory.hpp:77] Creating layer mbox_loc
I0711 10:14:39.045892 20510 net.cpp:100] Creating Layer mbox_loc
I0711 10:14:39.045895 20510 net.cpp:434] mbox_loc <- res3b3_relu_mbox_loc_flat
I0711 10:14:39.045898 20510 net.cpp:434] mbox_loc <- res5c_relu_mbox_loc_flat
I0711 10:14:39.045902 20510 net.cpp:434] mbox_loc <- res5c_relu/conv1_2_mbox_loc_flat
I0711 10:14:39.045905 20510 net.cpp:434] mbox_loc <- res5c_relu/conv2_2_mbox_loc_flat
I0711 10:14:39.045908 20510 net.cpp:434] mbox_loc <- res5c_relu/conv3_2_mbox_loc_flat
I0711 10:14:39.045912 20510 net.cpp:434] mbox_loc <- pool6_mbox_loc_flat
I0711 10:14:39.045915 20510 net.cpp:408] mbox_loc -> mbox_loc
I0711 10:14:39.045936 20510 net.cpp:150] Setting up mbox_loc
I0711 10:14:39.045940 20510 net.cpp:157] Top shape: 1 29232 (29232)
I0711 10:14:39.045941 20510 net.cpp:165] Memory required for data: 744896400
I0711 10:14:39.045943 20510 layer_factory.hpp:77] Creating layer mbox_conf
I0711 10:14:39.045948 20510 net.cpp:100] Creating Layer mbox_conf
I0711 10:14:39.045950 20510 net.cpp:434] mbox_conf <- res3b3_relu_mbox_conf_flat
I0711 10:14:39.045953 20510 net.cpp:434] mbox_conf <- res5c_relu_mbox_conf_flat
I0711 10:14:39.045956 20510 net.cpp:434] mbox_conf <- res5c_relu/conv1_2_mbox_conf_flat
I0711 10:14:39.045960 20510 net.cpp:434] mbox_conf <- res5c_relu/conv2_2_mbox_conf_flat
I0711 10:14:39.045963 20510 net.cpp:434] mbox_conf <- res5c_relu/conv3_2_mbox_conf_flat
I0711 10:14:39.045964 20510 net.cpp:434] mbox_conf <- pool6_mbox_conf_flat
I0711 10:14:39.045967 20510 net.cpp:408] mbox_conf -> mbox_conf
I0711 10:14:39.045987 20510 net.cpp:150] Setting up mbox_conf
I0711 10:14:39.045991 20510 net.cpp:157] Top shape: 1 153468 (153468)
I0711 10:14:39.045994 20510 net.cpp:165] Memory required for data: 745510272
I0711 10:14:39.045995 20510 layer_factory.hpp:77] Creating layer mbox_priorbox
I0711 10:14:39.045999 20510 net.cpp:100] Creating Layer mbox_priorbox
I0711 10:14:39.046000 20510 net.cpp:434] mbox_priorbox <- res3b3_relu_mbox_priorbox
I0711 10:14:39.046003 20510 net.cpp:434] mbox_priorbox <- res5c_relu_mbox_priorbox
I0711 10:14:39.046006 20510 net.cpp:434] mbox_priorbox <- res5c_relu/conv1_2_mbox_priorbox
I0711 10:14:39.046018 20510 net.cpp:434] mbox_priorbox <- res5c_relu/conv2_2_mbox_priorbox
I0711 10:14:39.046021 20510 net.cpp:434] mbox_priorbox <- res5c_relu/conv3_2_mbox_priorbox
I0711 10:14:39.046025 20510 net.cpp:434] mbox_priorbox <- pool6_mbox_priorbox
I0711 10:14:39.046027 20510 net.cpp:408] mbox_priorbox -> mbox_priorbox
I0711 10:14:39.046049 20510 net.cpp:150] Setting up mbox_priorbox
I0711 10:14:39.046053 20510 net.cpp:157] Top shape: 1 2 29232 (58464)
I0711 10:14:39.046056 20510 net.cpp:165] Memory required for data: 745744128
I0711 10:14:39.046057 20510 layer_factory.hpp:77] Creating layer mbox_conf_reshape
I0711 10:14:39.046062 20510 net.cpp:100] Creating Layer mbox_conf_reshape
I0711 10:14:39.046066 20510 net.cpp:434] mbox_conf_reshape <- mbox_conf
I0711 10:14:39.046070 20510 net.cpp:408] mbox_conf_reshape -> mbox_conf_reshape
I0711 10:14:39.046095 20510 net.cpp:150] Setting up mbox_conf_reshape
I0711 10:14:39.046100 20510 net.cpp:157] Top shape: 1 7308 21 (153468)
I0711 10:14:39.046102 20510 net.cpp:165] Memory required for data: 746358000
I0711 10:14:39.046103 20510 layer_factory.hpp:77] Creating layer mbox_conf_softmax
I0711 10:14:39.046108 20510 net.cpp:100] Creating Layer mbox_conf_softmax
I0711 10:14:39.046111 20510 net.cpp:434] mbox_conf_softmax <- mbox_conf_reshape
I0711 10:14:39.046115 20510 net.cpp:408] mbox_conf_softmax -> mbox_conf_softmax
I0711 10:14:39.046344 20510 net.cpp:150] Setting up mbox_conf_softmax
I0711 10:14:39.046352 20510 net.cpp:157] Top shape: 1 7308 21 (153468)
I0711 10:14:39.046355 20510 net.cpp:165] Memory required for data: 746971872
I0711 10:14:39.046356 20510 layer_factory.hpp:77] Creating layer mbox_conf_flatten
I0711 10:14:39.046360 20510 net.cpp:100] Creating Layer mbox_conf_flatten
I0711 10:14:39.046363 20510 net.cpp:434] mbox_conf_flatten <- mbox_conf_softmax
I0711 10:14:39.046367 20510 net.cpp:408] mbox_conf_flatten -> mbox_conf_flatten
I0711 10:14:39.046388 20510 net.cpp:150] Setting up mbox_conf_flatten
I0711 10:14:39.046392 20510 net.cpp:157] Top shape: 1 153468 (153468)
I0711 10:14:39.046394 20510 net.cpp:165] Memory required for data: 747585744
I0711 10:14:39.046396 20510 layer_factory.hpp:77] Creating layer detection_out
I0711 10:14:39.046411 20510 net.cpp:100] Creating Layer detection_out
I0711 10:14:39.046414 20510 net.cpp:434] detection_out <- mbox_loc
I0711 10:14:39.046417 20510 net.cpp:434] detection_out <- mbox_conf_flatten
I0711 10:14:39.046421 20510 net.cpp:434] detection_out <- mbox_priorbox
I0711 10:14:39.046429 20510 net.cpp:408] detection_out -> detection_out
I0711 10:14:39.047850 20510 net.cpp:150] Setting up detection_out
I0711 10:14:39.047858 20510 net.cpp:157] Top shape: 1 1 1 7 (7)
I0711 10:14:39.047860 20510 net.cpp:165] Memory required for data: 747585772
I0711 10:14:39.047863 20510 layer_factory.hpp:77] Creating layer detection_eval
I0711 10:14:39.047868 20510 net.cpp:100] Creating Layer detection_eval
I0711 10:14:39.047873 20510 net.cpp:434] detection_eval <- detection_out
I0711 10:14:39.047875 20510 net.cpp:434] detection_eval <- label
I0711 10:14:39.047878 20510 net.cpp:408] detection_eval -> detection_eval
I0711 10:14:39.048640 20510 net.cpp:150] Setting up detection_eval
I0711 10:14:39.048645 20510 net.cpp:157] Top shape: 1 1 21 5 (105)
I0711 10:14:39.048646 20510 net.cpp:165] Memory required for data: 747586192
I0711 10:14:39.048648 20510 net.cpp:228] detection_eval does not need backward computation.
I0711 10:14:39.048651 20510 net.cpp:228] detection_out does not need backward computation.
I0711 10:14:39.048653 20510 net.cpp:228] mbox_conf_flatten does not need backward computation.
I0711 10:14:39.048655 20510 net.cpp:228] mbox_conf_softmax does not need backward computation.
…
