…
      sampler {
        min_scale: 0.3
        max_scale: 1
        min_aspect_ratio: 0.5
        max_aspect_ratio: 2
      }
      sample_constraint {
        min_jaccard_overlap: 0.9
      }
      max_sample: 1
      max_trials: 50
    }
    batch_sampler {
      sampler {
        min_scale: 0.3
        max_scale: 1
        min_aspect_ratio: 0.5
        max_aspect_ratio: 2
      }
      sample_constraint {
        max_jaccard_overlap: 1
      }
      max_sample: 1
      max_trials: 50
    }
    label_map_file: "data/coco/labelmap_coco.prototxt"
  }
}
layer {
  name: "conv1"
  type: "Convolution"
  bottom: "data"
  top: "conv1"
  param {
    lr_mult: 1
    decay_mult: 1
  }
  convolution_param {
    num_output: 32
    bias_term: false
    pad: 1
    kernel_size: 3
    group: 1
    stride: 2
    weight_filler {
      type: "gaussian"
      std: 0.01
    }
    engine: DEFAULT
  }
}
layer {
  name: "conv1/bn"
  type: "BatchNorm"
  bottom: "conv1"
  top: "conv1"
  batch_norm_param {
    moving_average_fraction: 0.999
    eps: 0.001
  }
}
layer {
  name: "conv1/scale"
  type: "Scale"
  bottom: "conv1"
  top: "conv1"
  param {
    lr_mult: 1
    decay_mult: 0
  }
  param {
    lr_mult: 1
    decay_mult: 0
  }
  scale_param {
    filler {
      type: "constant"
      value: 1
    }
    bias_term: true
    bias_filler {
      type: "constant"
      value: 0
    }
  }
}
layer {
  name: "conv1_relu"
  type: "ReLU"
  bottom: "conv1"
  top: "conv1"
}
layer {
  name: "conv2_1/dw"
  type: "Convolution"
  bottom: "conv1"
  top: "conv2_1/dw"
  param {
    lr_mult: 1
    decay_mult: 1
  }
  convolution_param {
    num_output: 32
    bias_term: false
    pad: 1
    kernel_size: 3
    group: 32
    stride: 1
    weight_filler {
      type: "gaussian"
      std: 0.01
    }
    engine: CAFFE
  }
}
layer {
  name: "conv2_1/dw/bn"
  type: "BatchNorm"
  bottom: "conv2_1/dw"
  top: "conv2_1/dw"
  batch_norm_param {
    moving_average_fraction: 0.999
    eps: 0.001
  }
}
layer {
  name: "conv2_1/dw/scale"
  type: "Scale"
  bottom: "conv2_1/dw"
  top: "conv2_1/dw"
  param {
    lr_mult: 1
    decay_mult: 0
  }
  param {
    lr_mult: 1
    decay_mult: 0
  }
  scale_param {
    filler {
      type: "constant"
      value: 1
    }
    bias_term: true
    bias_filler {
      type: "constant"
      value: 0
    }
  }
}
layer {
  name: "conv2_1/dw_relu"
  type: "ReLU"
  bottom: "conv2_1/dw"
  top: "conv2_1/dw"
}
layer {
  name: "conv2_1/sep"
  type: "Convolution"
  bottom: "conv2_1/dw"
  top: "conv2_1/sep"
  param {
    lr_mult: 1
    decay_mult: 1
  }
  convolution_param {
    num_output: 64
    bias_term: false
    pad: 0
    kernel_size: 1
    group: 1
    stride: 1
    weight_filler {
      type: "gaussian"
      std: 0.01
    }
    engine: DEFAULT
  }
}
layer {
  name: "conv2_1/sep/bn"
  type: "BatchNorm"
  bottom: "conv2_1/sep"
  top: "conv2_1/sep"
  batch_norm_param {
    moving_average_fraction: 0.999
    eps: 0.001
  }
}
layer {
  name: "conv2_1/sep/scale"
  type: "Scale"
  bottom: "conv2_1/sep"
  top: "conv2_1/sep"
  param {
    lr_mult: 1
    decay_mult: 0
  }
  param {
    lr_mult: 1
    decay_mult: 0
  }
  scale_param {
    filler {
      type: "constant"
      value: 1
    }
    bias_term: true
    bias_filler {
      type: "constant"
      value: 0
    }
  }
}
layer {
  name: "conv2_1/sep_relu"
  type: "ReLU"
  bottom: "conv2_1/sep"
  top: "conv2_1/sep"
}
layer {
  name: "conv2_2/dw"
  type: "Convolution"
  bottom: "conv2_1/sep"
  top: "conv2_2/dw"
  param {
    lr_mult: 1
    decay_mult: 1
  }
  convolution_param {
    num_output: 64
    bias_term: false
    pad: 1
    kernel_size: 3
    group: 64
    stride: 2
    weight_filler {
      type: "gaussian"
      std: 0.01
    }
    engine: CAFFE
  }
}
layer {
  name: "conv2_2/dw/bn"
  type: "BatchNorm"
  bottom: "conv2_2/dw"
  top: "conv2_2/dw"
  batch_norm_param {
    moving_average_fraction: 0.999
    eps: 0.001
  }
}
layer {
  name: "conv2_2/dw/scale"
  type: "Scale"
  bottom: "conv2_2/dw"
  top: "conv2_2/dw"
  param {
    lr_mult: 1
    decay_mult: 0
  }
  param {
    lr_mult: 1
    decay_mult: 0
  }
  scale_param {
    filler {
      type: "constant"
      value: 1
    }
    bias_term: true
    bias_filler {
      type: "constant"
      value: 0
    }
  }
}
layer {
  name: "conv2_2/dw_relu"
  type: "ReLU"
  bottom: "conv2_2/dw"
  top: "conv2_2/dw"
}
layer {
  name: "conv2_2/sep"
  type: "Convolution"
  bottom: "conv2_2/dw"
  top: "conv2_2/sep"
  param {
    lr_mult: 1
    decay_mult: 1
  }
  convolution_param {
    num_output: 128
    bias_term: false
    pad: 0
    kernel_size: 1
    group: 1
    stride: 1
    weight_filler {
      type: "gaussian"
      std: 0.01
    }
    engine: DEFAULT
  }
}
layer {
  name: "conv2_2/sep/bn"
  type: "BatchNorm"
  bottom: "conv2_2/sep"
  top: "conv2_2/sep"
  batch_norm_param {
    moving_average_fraction: 0.999
    eps: 0.001
  }
}
layer {
  name: "conv2_2/sep/scale"
  type: "Scale"
  bottom: "conv2_2/sep"
  top: "conv2_2/sep"
  param {
    lr_mult: 1
    decay_mult: 0
  }
  param {
    lr_mult: 1
    decay_mult: 0
  }
  scale_param {
    filler {
      type: "constant"
      value: 1
    }
    bias_term: true
    bias_filler {
      type: "constant"
      value: 0
    }
  }
}
layer {
  name: "conv2_2/sep_relu"
  type: "ReLU"
  bottom: "conv2_2/sep"
  top: "conv2_2/sep"
}
layer {
  name: "conv3_1/dw"
  type: "Convolution"
  bottom: "conv2_2/sep"
  top: "conv3_1/dw"
  param {
    lr_mult: 1
    decay_mult: 1
  }
  convolution_param {
    num_output: 128
    bias_term: false
    pad: 1
    kernel_size: 3
    group: 128
    stride: 1
    weight_filler {
      type: "gaussian"
      std: 0.01
    }
    engine: CAFFE
  }
}
layer {
  name: "conv3_1/dw/bn"
  type: "BatchNorm"
  bottom: "conv3_1/dw"
  top: "conv3_1/dw"
  batch_norm_param {
    moving_average_fraction: 0.999
    eps: 0.001
  }
}
layer {
  name: "conv3_1/dw/scale"
  type: "Scale"
  bottom: "conv3_1/dw"
  top: "conv3_1/dw"
  param {
    lr_mult: 1
    decay_mult: 0
  }
  param {
    lr_mult: 1
    decay_mult: 0
  }
  scale_param {
    filler {
      type: "constant"
      value: 1
    }
    bias_term: true
    bias_filler {
      type: "constant"
      value: 0
    }
  }
}
layer {
  name: "conv3_1/dw_relu"
  type: "ReLU"
  bottom: "conv3_1/dw"
  top: "conv3_1/dw"
}
layer {
  name: "conv3_1/sep"
  type: "Convolution"
  bottom: "conv3_1/dw"
  top: "conv3_1/sep"
  param {
    lr_mult: 1
    decay_mult: 1
  }
  convolution_param {
    num_output: 128
    bias_term: false
    pad: 0
    kernel_size: 1
    group: 1
    stride: 1
    weight_filler {
      type: "gaussian"
      std: 0.01
    }
    engine: DEFAULT
  }
}
layer {
  name: "conv3_1/sep/bn"
  type: "BatchNorm"
  bottom: "conv3_1/sep"
  top: "conv3_1/sep"
  batch_norm_param {
    moving_average_fraction: 0.999
    eps: 0.001
  }
}
layer {
  name: "conv3_1/sep/scale"
  type: "Scale"
  bottom: "conv3_1/sep"
  top: "conv3_1/sep"
  param {
    lr_mult: 1
    decay_mult: 0
  }
  param {
    lr_mult: 1
    decay_mult: 0
  }
  scale_param {
    filler {
      type: "constant"
      value: 1
    }
    bias_term: true
    bias_filler {
      type: "constant"
      value: 0
    }
  }
}
layer {
  name: "conv3_1/sep_relu"
  type: "ReLU"
  bottom: "conv3_1/sep"
  top: "conv3_1/sep"
}
layer {
  name: "conv3_2/dw"
  type: "Convolution"
  bottom: "conv3_1/sep"
  top: "conv3_2/dw"
  param {
    lr_mult: 1
    decay_mult: 1
  }
  convolution_param {
    num_output: 128
    bias_term: false
    pad: 1
    kernel_size: 3
    group: 128
    stride: 2
    weight_filler {
      type: "gaussian"
      std: 0.01
    }
    engine: CAFFE
  }
}
layer {
  name: "conv3_2/dw/bn"
  type: "BatchNorm"
  bottom: "conv3_2/dw"
  top: "conv3_2/dw"
  batch_norm_param {
    moving_average_fraction: 0.999
    eps: 0.001
  }
}
layer {
  name: "conv3_2/dw/scale"
  type: "Scale"
  bottom: "conv3_2/dw"
  top: "conv3_2/dw"
  param {
    lr_mult: 1
    decay_mult: 0
  }
  param {
    lr_mult: 1
    decay_mult: 0
  }
  scale_param {
    filler {
      type: "constant"
      value: 1
    }
    bias_term: true
    bias_filler {
      type: "constant"
      value: 0
    }
  }
}
layer {
  name: "conv3_2/dw_relu"
  type: "ReLU"
  bottom: "conv3_2/dw"
  top: "conv3_2/dw"
}
layer {
  name: "conv3_2/sep"
  type: "Convolution"
  bottom: "conv3_2/dw"
  top: "conv3_2/sep"
  param {
    lr_mult: 1
    decay_mult: 1
  }
  convolution_param {
    num_output: 256
    bias_term: false
    pad: 0
    kernel_size: 1
    group: 1
    stride: 1
    weight_filler {
      type: "gaussian"
      std: 0.01
    }
    engine: DEFAULT
  }
}
layer {
  name: "conv3_2/sep/bn"
  type: "BatchNorm"
  bottom: "conv3_2/sep"
  top: "conv3_2/sep"
  batch_norm_param {
    moving_average_fraction: 0.999
    eps: 0.001
  }
}
layer {
  name: "conv3_2/sep/scale"
  type: "Scale"
  bottom: "conv3_2/sep"
  top: "conv3_2/sep"
  param {
    lr_mult: 1
    decay_mult: 0
  }
  param {
    lr_mult: 1
    decay_mult: 0
  }
  scale_param {
    filler {
      type: "constant"
      value: 1
    }
    bias_term: true
    bias_filler {
      type: "constant"
      value: 0
    }
  }
}
layer {
  name: "conv3_2/sep_relu"
  type: "ReLU"
  bottom: "conv3_2/sep"
  top: "conv3_2/sep"
}
layer {
  name: "conv4_1/dw"
  type: "Convolution"
  bottom: "conv3_2/sep"
  top: "conv4_1/dw"
  param {
    lr_mult: 1
    decay_mult: 1
  }
  convolution_param {
    num_output: 256
    bias_term: false
    pad: 1
    kernel_size: 3
    group: 256
    stride: 1
    weight_filler {
      type: "gaussian"
      std: 0.01
    }
    engine: CAFFE
  }
}
layer {
  name: "conv4_1/dw/bn"
  type: "BatchNorm"
  bottom: "conv4_1/dw"
  top: "conv4_1/dw"
  batch_norm_param {
    moving_average_fraction: 0.999
    eps: 0.001
  }
}
layer {
  name: "conv4_1/dw/scale"
  type: "Scale"
  bottom: "conv4_1/dw"
  top: "conv4_1/dw"
  param {
    lr_mult: 1
    decay_mult: 0
  }
  param {
    lr_mult: 1
    decay_mult: 0
  }
  scale_param {
    filler {
      type: "constant"
      value: 1
    }
    bias_term: true
    bias_filler {
      type: "constant"
      value: 0
    }
  }
}
layer {
  name: "conv4_1/dw_relu"
  type: "ReLU"
  bottom: "conv4_1/dw"
  top: "conv4_1/dw"
}
layer {
  name: "conv4_1/sep"
  type: "Convolution"
  bottom: "conv4_1/dw"
  top: "conv4_1/sep"
  param {
    lr_mult: 1
    decay_mult: 1
  }
  convolution_param {
    num_output: 256
    bias_term: false
    pad: 0
    kernel_size: 1
    group: 1
    stride: 1
    weight_filler {
      type: "gaussian"
      std: 0.01
    }
    engine: DEFAULT
  }
}
layer {
  name: "conv4_1/sep/bn"
  type: "BatchNorm"
  bottom: "conv4_1/sep"
  top: "conv4_1/sep"
  batch_norm_param {
    moving_average_fraction: 0.999
    eps: 0.001
  }
}
layer {
  name: "conv4_1/sep/scale"
  type: "Scale"
  bottom: "conv4_1/sep"
  top: "conv4_1/sep"
  param {
    lr_mult: 1
    decay_mult: 0
  }
  param {
    lr_mult: 1
    decay_mult: 0
  }
  scale_param {
    filler {
      type: "constant"
      value: 1
    }
    bias_term: true
    bias_filler {
      type: "constant"
      value: 0
    }
  }
}
layer {
  name: "conv4_1/sep_relu"
  type: "ReLU"
  bottom: "conv4_1/sep"
  top: "conv4_1/sep"
}
layer {
  name: "conv4_2/dw"
  type: "Convolution"
  bottom: "conv4_1/sep"
  top: "conv4_2/dw"
  param {
    lr_mult: 1
    decay_mult: 1
  }
  convolution_param {
    num_output: 256
    bias_term: false
    pad: 1
    kernel_size: 3
    group: 256
    stride: 2
    weight_filler {
      type: "gaussian"
      std: 0.01
    }
    engine: CAFFE
  }
}
layer {
  name: "conv4_2/dw/bn"
  type: "BatchNorm"
  bottom: "conv4_2/dw"
  top: "conv4_2/dw"
  batch_norm_param {
    moving_average_fraction: 0.999
    eps: 0.001
  }
}
layer {
  name: "conv4_2/dw/scale"
  type: "Scale"
  bottom: "conv4_2/dw"
  top: "conv4_2/dw"
  param {
    lr_mult: 1
    decay_mult: 0
  }
  param {
    lr_mult: 1
    decay_mult: 0
  }
  scale_param {
    filler {
      type: "constant"
      value: 1
    }
    bias_term: true
    bias_filler {
      type: "constant"
      value: 0
    }
  }
}
layer {
  name: "conv4_2/dw_relu"
  type: "ReLU"
  bottom: "conv4_2/dw"
  top: "conv4_2/dw"
}
layer {
  name: "conv4_2/sep"
  type: "Convolution"
  bottom: "conv4_2/dw"
  top: "conv4_2/sep"
  param {
    lr_mult: 1
    decay_mult: 1
  }
  convolution_param {
    num_output: 512
    bias_term: false
    pad: 0
    kernel_size: 1
    group: 1
    stride: 1
    weight_filler {
      type: "gaussian"
      std: 0.01
    }
    engine: DEFAULT
  }
}
layer {
  name: "conv4_2/sep/bn"
  type: "BatchNorm"
  bottom: "conv4_2/sep"
  top: "conv4_2/sep"
  batch_norm_param {
    moving_average_fraction: 0.999
    eps: 0.001
  }
}
layer {
  name: "conv4_2/sep/scale"
  type: "Scale"
  bottom: "conv4_2/sep"
  top: "conv4_2/sep"
  param {
    lr_mult: 1
    decay_mult: 0
  }
  param {
    lr_mult: 1
    decay_mult: 0
  }
  scale_param {
    filler {
      type: "constant"
      value: 1
    }
    bias_term: true
    bias_filler {
      type: "constant"
      value: 0
    }
  }
}
layer {
  name: "conv4_2/sep_relu"
  type: "ReLU"
  bottom: "conv4_2/sep"
  top: "conv4_2/sep"
}
layer {
  name: "conv5_1/dw"
  type: "Convolution"
  bottom: "conv4_2/sep"
  top: "conv5_1/dw"
  param {
    lr_mult: 1
    decay_mult: 1
  }
  convolution_param {
    num_output: 512
    bias_term: false
    pad: 1
    kernel_size: 3
    group: 512
    stride: 1
    weight_filler {
      type: "gaussian"
      std: 0.01
    }
    engine: CAFFE
  }
}
layer {
  name: "conv5_1/dw/bn"
  type: "BatchNorm"
  bottom: "conv5_1/dw"
  top: "conv5_1/dw"
  batch_norm_param {
    moving_average_fraction: 0.999
    eps: 0.001
  }
}
layer {
  name: "conv5_1/dw/scale"
  type: "Scale"
  bottom: "conv5_1/dw"
  top: "conv5_1/dw"
  param {
    lr_mult: 1
    decay_mult: 0
  }
  param {
    lr_mult: 1
    decay_mult: 0
  }
  scale_param {
    filler {
      type: "constant"
      value: 1
    }
    bias_term: true
    bias_filler {
      type: "constant"
      value: 0
    }
  }
}
layer {
  name: "conv5_1/dw_relu"
  type: "ReLU"
  bottom: "conv5_1/dw"
  top: "conv5_1/dw"
}
layer {
  name: "conv5_1/sep"
  type: "Convolution"
  bottom: "conv5_1/dw"
  top: "conv5_1/sep"
  param {
    lr_mult: 1
    decay_mult: 1
  }
  convolution_param {
    num_output: 512
    bias_term: false
    pad: 0
    kernel_size: 1
    group: 1
    stride: 1
    weight_filler {
      type: "gaussian"
      std: 0.01
    }
    engine: DEFAULT
  }
}
layer {
  name: "conv5_1/sep/bn"
  type: "BatchNorm"
  bottom: "conv5_1/sep"
  top: "conv5_1/sep"
  batch_norm_param {
    moving_average_fraction: 0.999
    eps: 0.001
  }
}
layer {
  name: "conv5_1/sep/scale"
  type: "Scale"
  bottom: "conv5_1/sep"
  top: "conv5_1/sep"
  param {
    lr_mult: 1
    decay_mult: 0
  }
  param {
    lr_mult: 1
    decay_mult: 0
  }
  scale_param {
    filler {
      type: "constant"
      value: 1
    }
    bias_term: true
    bias_filler {
      type: "constant"
      value: 0
    }
  }
}
layer {
  name: "conv5_1/sep_relu"
  type: "ReLU"
  bottom: "conv5_1/sep"
  top: "conv5_1/sep"
}
layer {
  name: "conv5_2/dw"
  type: "Convolution"
  bottom: "conv5_1/sep"
  top: "conv5_2/dw"
  param {
    lr_mult: 1
    decay_mult: 1
  }
  convolution_param {
    num_output: 512
    bias_term: false
    pad: 1
    kernel_size: 3
    group: 512
    stride: 1
    weight_filler {
      type: "gaussian"
      std: 0.01
    }
    engine: CAFFE
  }
}
layer {
  name: "conv5_2/dw/bn"
  type: "BatchNorm"
  bottom: "conv5_2/dw"
  top: "conv5_2/dw"
  batch_norm_param {
    moving_average_fraction: 0.999
    eps: 0.001
  }
}
layer {
  name: "conv5_2/dw/scale"
  type: "Scale"
  bottom: "conv5_2/dw"
  top: "conv5_2/dw"
  param {
    lr_mult: 1
    decay_mult: 0
  }
  param {
    lr_mult: 1
    decay_mult: 0
  }
  scale_param {
    filler {
      type: "constant"
      value: 1
    }
    bias_term: true
    bias_filler {
      type: "constant"
      value: 0
    }
  }
}
layer {
  name: "conv5_2/dw_relu"
  type: "ReLU"
  bottom: "conv5_2/dw"
  top: "conv5_2/dw"
}
layer {
  name: "conv5_2/sep"
  type: "Convolution"
  bottom: "conv5_2/dw"
  top: "conv5_2/sep"
  param {
    lr_mult: 1
    decay_mult: 1
  }
  convolution_param {
    num_output: 512
    bias_term: false
    pad: 0
    kernel_size: 1
    group: 1
    stride: 1
    weight_filler {
      type: "gaussian"
      std: 0.01
    }
    engine: DEFAULT
  }
}
layer {
  name: "conv5_2/sep/bn"
  type: "BatchNorm"
  bottom: "conv5_2/sep"
  top: "conv5_2/sep"
  batch_norm_param {
    moving_average_fraction: 0.999
    eps: 0.001
  }
}
layer {
  name: "conv5_2/sep/scale"
  type: "Scale"
  bottom: "conv5_2/sep"
  top: "conv5_2/sep"
  param {
    lr_mult: 1
    decay_mult: 0
  }
  param {
    lr_mult: 1
    decay_mult: 0
  }
  scale_param {
    filler {
      type: "constant"
      value: 1
    }
    bias_term: true
    bias_filler {
      type: "constant"
      value: 0
    }
  }
}
layer {
  name: "conv5_2/sep_relu"
  type: "ReLU"
  bottom: "conv5_2/sep"
  top: "conv5_2/sep"
}
layer {
  name: "conv5_3/dw"
  type: "Convolution"
  bottom: "conv5_2/sep"
  top: "conv5_3/dw"
  param {
    lr_mult: 1
    decay_mult: 1
  }
  convolution_param {
    num_output: 512
    bias_term: false
    pad: 1
    kernel_size: 3
    group: 512
    stride: 1
    weight_filler {
      type: "gaussian"
      std: 0.01
    }
    engine: CAFFE
  }
}
layer {
  name: "conv5_3/dw/bn"
  type: "BatchNorm"
  bottom: "conv5_3/dw"
  top: "conv5_3/dw"
  batch_norm_param {
    moving_average_fraction: 0.999
    eps: 0.001
  }
}
layer {
  name: "conv5_3/dw/scale"
  type: "Scale"
  bottom: "conv5_3/dw"
  top: "conv5_3/dw"
  param {
    lr_mult: 1
    decay_mult: 0
  }
  param {
    lr_mult: 1
    decay_mult: 0
  }
  scale_param {
    filler {
      type: "constant"
      value: 1
    }
    bias_term: true
    bias_filler {
      type: "constant"
      value: 0
    }
  }
}
layer {
  name: "conv5_3/dw_relu"
  type: "ReLU"
  bottom: "conv5_3/dw"
  top: "conv5_3/dw"
}
layer {
  name: "conv5_3/sep"
  type: "Convolution"
  bottom: "conv5_3/dw"
  top: "conv5_3/sep"
  param {
    lr_mult: 1
    decay_mult: 1
  }
  convolution_param {
    num_output: 512
    bias_term: false
    pad: 0
    kernel_size: 1
    group: 1
    stride: 1
    weight_filler {
      type: "gaussian"
      std: 0.01
    }
    engine: DEFAULT
  }
}
layer {
  name: "conv5_3/sep/bn"
  type: "BatchNorm"
  bottom: "conv5_3/sep"
  top: "conv5_3/sep"
  batch_norm_param {
    moving_average_fraction: 0.999
    eps: 0.001
  }
}
layer {
  name: "conv5_3/sep/scale"
  type: "Scale"
  bottom: "conv5_3/sep"
  top: "conv5_3/sep"
  param {
    lr_mult: 1
    decay_mult: 0
  }
  param {
    lr_mult: 1
    decay_mult: 0
  }
  scale_param {
    filler {
      type: "constant"
      value: 1
    }
    bias_term: true
    bias_filler {
      type: "constant"
      value: 0
    }
  }
}
layer {
  name: "conv5_3/sep_relu"
  type: "ReLU"
  bottom: "conv5_3/sep"
  top: "conv5_3/sep"
}
layer {
  name: "conv5_4/dw"
  type: "Convolution"
  bottom: "conv5_3/sep"
  top: "conv5_4/dw"
  param {
    lr_mult: 1
    decay_mult: 1
  }
  convolution_param {
    num_output: 512
    bias_term: false
    pad: 1
    kernel_size: 3
    group: 512
    stride: 1
    weight_filler {
      type: "gaussian"
      std: 0.01
    }
    engine: CAFFE
  }
}
layer {
  name: "conv5_4/dw/bn"
  type: "BatchNorm"
  bottom: "conv5_4/dw"
  top: "conv5_4/dw"
  batch_norm_param {
    moving_average_fraction: 0.999
    eps: 0.001
  }
}
layer {
  name: "conv5_4/dw/scale"
  type: "Scale"
  bottom: "conv5_4/dw"
  top: "conv5_4/dw"
  param {
    lr_mult: 1
    decay_mult: 0
  }
  param {
    lr_mult: 1
    decay_mult: 0
  }
  scale_param {
    filler {
      type: "constant"
      value: 1
    }
    bias_term: true
    bias_filler {
      type: "constant"
      value: 0
    }
  }
}
layer {
  name: "conv5_4/dw_relu"
  type: "ReLU"
  bottom: "conv5_4/dw"
  top: "conv5_4/dw"
}
layer {
  name: "conv5_4/sep"
  type: "Convolution"
  bottom: "conv5_4/dw"
  top: "conv5_4/sep"
  param {
    lr_mult: 1
    decay_mult: 1
  }
  convolution_param {
    num_output: 512
    bias_term: false
    pad: 0
    kernel_size: 1
    group: 1
    stride: 1
    weight_filler {
      type: "gaussian"
      std: 0.01
    }
    engine: DEFAULT
  }
}
layer {
  name: "conv5_4/sep/bn"
  type: "BatchNorm"
  bottom: "conv5_4/sep"
  top: "conv5_4/sep"
  batch_norm_param {
    moving_average_fraction: 0.999
    eps: 0.001
  }
}
layer {
  name: "conv5_4/sep/scale"
  type: "Scale"
  bottom: "conv5_4/sep"
  top: "conv5_4/sep"
  param {
    lr_mult: 1
    decay_mult: 0
  }
  param {
    lr_mult: 1
    decay_mult: 0
  }
  scale_param {
    filler {
      type: "constant"
      value: 1
    }
    bias_term: true
    bias_filler {
      type: "constant"
      value: 0
    }
  }
}
layer {
  name: "conv5_4/sep_relu"
  type: "ReLU"
  bottom: "conv5_4/sep"
  top: "conv5_4/sep"
}
layer {
  name: "conv5_5/dw"
  type: "Convolution"
  bottom: "conv5_4/sep"
  top: "conv5_5/dw"
  param {
    lr_mult: 1
    decay_mult: 1
  }
  convolution_param {
    num_output: 512
    bias_term: false
    pad: 1
    kernel_size: 3
    group: 512
    stride: 1
    weight_filler {
      type: "gaussian"
      std: 0.01
    }
    engine: CAFFE
  }
}
layer {
  name: "conv5_5/dw/bn"
  type: "BatchNorm"
  bottom: "conv5_5/dw"
  top: "conv5_5/dw"
  batch_norm_param {
    moving_average_fraction: 0.999
    eps: 0.001
  }
}
layer {
  name: "conv5_5/dw/scale"
  type: "Scale"
  bottom: "conv5_5/dw"
  top: "conv5_5/dw"
  param {
    lr_mult: 1
    decay_mult: 0
  }
  param {
    lr_mult: 1
    decay_mult: 0
  }
  scale_param {
    filler {
      type: "constant"
      value: 1
    }
    bias_term: true
    bias_filler {
      type: "constant"
      value: 0
    }
  }
}
layer {
  name: "conv5_5/dw_relu"
  type: "ReLU"
  bottom: "conv5_5/dw"
  top: "conv5_5/dw"
}
layer {
  name: "conv5_5/sep"
  type: "Convolution"
  bottom: "conv5_5/dw"
  top: "conv5_5/sep"
  param {
    lr_mult: 1
    decay_mult: 1
  }
  convolution_param {
    num_output: 512
    bias_term: false
    pad: 0
    kernel_size: 1
    group: 1
    stride: 1
    weight_filler {
      type: "gaussian"
      std: 0.01
    }
    engine: DEFAULT
  }
}
layer {
  name: "conv5_5/sep/bn"
  type: "BatchNorm"
  bottom: "conv5_5/sep"
  top: "conv5_5/sep"
  batch_norm_param {
    moving_average_fraction: 0.999
    eps: 0.001
  }
}
layer {
  name: "conv5_5/sep/scale"
  type: "Scale"
  bottom: "conv5_5/sep"
  top: "conv5_5/sep"
  param {
    lr_mult: 1
    decay_mult: 0
  }
  param {
    lr_mult: 1
    decay_mult: 0
  }
  scale_param {
    filler {
      type: "constant"
      value: 1
    }
    bias_term: true
    bias_filler {
      type: "constant"
      value: 0
    }
  }
}
layer {
  name: "conv5_5/sep_relu"
  type: "ReLU"
  bottom: "conv5_5/sep"
  top: "conv5_5/sep"
}
layer {
  name: "conv5_6/dw"
  type: "Convolution"
  bottom: "conv5_5/sep"
  top: "conv5_6/dw"
  param {
    lr_mult: 1
    decay_mult: 1
  }
  convolution_param {
    num_output: 512
    bias_term: false
    pad: 1
    kernel_size: 3
    group: 512
    stride: 2
    weight_filler {
      type: "gaussian"
      std: 0.01
    }
    engine: CAFFE
  }
}
layer {
  name: "conv5_6/dw/bn"
  type: "BatchNorm"
  bottom: "conv5_6/dw"
  top: "conv5_6/dw"
  batch_norm_param {
    moving_average_fraction: 0.999
    eps: 0.001
  }
}
layer {
  name: "conv5_6/dw/scale"
  type: "Scale"
  bottom: "conv5_6/dw"
  top: "conv5_6/dw"
  param {
    lr_mult: 1
    decay_mult: 0
  }
  param {
    lr_mult: 1
    decay_mult: 0
  }
  scale_param {
    filler {
      type: "constant"
      value: 1
    }
    bias_term: true
    bias_filler {
      type: "constant"
      value: 0
    }
  }
}
layer {
  name: "conv5_6/dw_relu"
  type: "ReLU"
  bottom: "conv5_6/dw"
  top: "conv5_6/dw"
}
layer {
  name: "conv5_6/sep"
  type: "Convolution"
  bottom: "conv5_6/dw"
  top: "conv5_6/sep"
  param {
    lr_mult: 1
    decay_mult: 1
  }
  convolution_param {
    num_output: 1024
    bias_term: false
    pad: 0
    kernel_size: 1
    group: 1
    stride: 1
    weight_filler {
      type: "gaussian"
      std: 0.01
    }
    engine: DEFAULT
  }
}
layer {
  name: "conv5_6/sep/bn"
  type: "BatchNorm"
  bottom: "conv5_6/sep"
  top: "conv5_6/sep"
  batch_norm_param {
    moving_average_fraction: 0.999
    eps: 0.001
  }
}
layer {
  name: "conv5_6/sep/scale"
  type: "Scale"
  bottom: "conv5_6/sep"
  top: "conv5_6/sep"
  param {
    lr_mult: 1
    decay_mult: 0
  }
  param {
    lr_mult: 1
    decay_mult: 0
  }
  scale_param {
    filler {
      type: "constant"
      value: 1
    }
    bias_term: true
    bias_filler {
      type: "constant"
      value: 0
    }
  }
}
layer {
  name: "conv5_6/sep_relu"
  type: "ReLU"
  bottom: "conv5_6/sep"
  top: "conv5_6/sep"
}
layer {
  name: "conv6/dw"
  type: "Convolution"
  bottom: "conv5_6/sep"
  top: "conv6/dw"
  param {
    lr_mult: 1
    decay_mult: 1
  }
  convolution_param {
    num_output: 1024
    bias_term: false
    pad: 1
    kernel_size: 3
    group: 1024
    stride: 1
    weight_filler {
      type: "gaussian"
      std: 0.01
    }
    engine: CAFFE
  }
}
layer {
  name: "conv6/dw/bn"
  type: "BatchNorm"
  bottom: "conv6/dw"
  top: "conv6/dw"
  batch_norm_param {
    moving_average_fraction: 0.999
    eps: 0.001
  }
}
layer {
  name: "conv6/dw/scale"
  type: "Scale"
  bottom: "conv6/dw"
  top: "conv6/dw"
  param {
    lr_mult: 1
    decay_mult: 0
  }
  param {
    lr_mult: 1
    decay_mult: 0
  }
  scale_param {
    filler {
      type: "constant"
      value: 1
    }
    bias_term: true
    bias_filler {
      type: "constant"
      value: 0
    }
  }
}
layer {
  name: "conv6/dw_relu"
  type: "ReLU"
  bottom: "conv6/dw"
  top: "conv6/dw"
}
layer {
  name: "conv6/sep"
  type: "Convolution"
  bottom: "conv6/dw"
  top: "conv6/sep"
  param {
    lr_mult: 1
    decay_mult: 1
  }
  convolution_param {
    num_output: 1024
    bias_term: false
    pad: 0
    kernel_size: 1
    group: 1
    stride: 1
    weight_filler {
      type: "gaussian"
      std: 0.01
    }
    engine: DEFAULT
  }
}
layer {
  name: "conv6/sep/bn"
  type: "BatchNorm"
  bottom: "conv6/sep"
  top: "conv6/sep"
  batch_norm_param {
    moving_average_fraction: 0.999
    eps: 0.001
  }
}
layer {
  name: "conv6/sep/scale"
  type: "Scale"
  bottom: "conv6/sep"
  top: "conv6/sep"
  param {
    lr_mult: 1
    decay_mult: 0
  }
  param {
    lr_mult: 1
    decay_mult: 0
  }
  scale_param {
    filler {
      type: "constant"
      value: 1
    }
    bias_term: true
    bias_filler {
      type: "constant"
      value: 0
    }
  }
}
layer {
  name: "conv6/sep_relu"
  type: "ReLU"
  bottom: "conv6/sep"
  top: "conv6/sep"
}
layer {
  name: "conv7_1"
  type: "Convolution"
  bottom: "conv6/sep"
  top: "conv7_1"
  param {
    lr_mult: 1
    decay_mult: 1
  }
  param {
    lr_mult: 2
    decay_mult: 0
  }
  convolution_param {
    num_output: 256
    pad: 0
    kernel_size: 1
    stride: 1
    weight_filler {
      type: "xavier"
    }
    bias_filler {
      type: "constant"
      value: 0
    }
  }
}
layer {
  name: "conv7_1_relu"
  type: "ReLU"
  bottom: "conv7_1"
  top: "conv7_1"
}
layer {
  name: "conv7_2"
  type: "Convolution"
  bottom: "conv7_1"
  top: "conv7_2"
  param {
    lr_mult: 1
    decay_mult: 1
  }
  param {
    lr_mult: 2
    decay_mult: 0
  }
  convolution_param {
    num_output: 512
    pad: 1
    kernel_size: 3
    stride: 2
    weight_filler {
      type: "xavier"
    }
    bias_filler {
      type: "constant"
      value: 0
    }
  }
}
layer {
  name: "conv7_2_relu"
  type: "ReLU"
  bottom: "conv7_2"
  top: "conv7_2"
}
layer {
  name: "conv8_1"
  type: "Convolution"
  bottom
I0717 10:13:05.936841  3874 layer_factory.hpp:77] Creating layer data
I0717 10:13:05.937116  3874 net.cpp:100] Creating Layer data
I0717 10:13:05.937144  3874 net.cpp:408] data -> data
I0717 10:13:05.937197  3874 net.cpp:408] data -> label
I0717 10:13:05.938639  3881 db_lmdb.cpp:35] Opened lmdb examples/coco/coco_train_lmdb
I0717 10:13:05.962709  3874 annotated_data_layer.cpp:62] output data size: 16,3,300,300
I0717 10:13:05.992272  3874 net.cpp:150] Setting up data
I0717 10:13:05.992300  3874 net.cpp:157] Top shape: 16 3 300 300 (4320000)
I0717 10:13:05.992305  3874 net.cpp:157] Top shape: 1 1 25 8 (200)
I0717 10:13:05.992308  3874 net.cpp:165] Memory required for data: 17280800
I0717 10:13:05.992317  3874 layer_factory.hpp:77] Creating layer data_data_0_split
I0717 10:13:05.992331  3874 net.cpp:100] Creating Layer data_data_0_split
I0717 10:13:05.992338  3874 net.cpp:434] data_data_0_split <- data
I0717 10:13:05.992358  3874 net.cpp:408] data_data_0_split -> data_data_0_split_0
I0717 10:13:05.992370  3874 net.cpp:408] data_data_0_split -> data_data_0_split_1
I0717 10:13:05.992378  3874 net.cpp:408] data_data_0_split -> data_data_0_split_2
I0717 10:13:05.992386  3874 net.cpp:408] data_data_0_split -> data_data_0_split_3
I0717 10:13:05.992393  3874 net.cpp:408] data_data_0_split -> data_data_0_split_4
I0717 10:13:05.992399  3874 net.cpp:408] data_data_0_split -> data_data_0_split_5
I0717 10:13:05.992406  3874 net.cpp:408] data_data_0_split -> data_data_0_split_6
I0717 10:13:05.992550  3874 net.cpp:150] Setting up data_data_0_split
I0717 10:13:05.992574  3874 net.cpp:157] Top shape: 16 3 300 300 (4320000)
I0717 10:13:05.992579  3874 net.cpp:157] Top shape: 16 3 300 300 (4320000)
I0717 10:13:05.992583  3874 net.cpp:157] Top shape: 16 3 300 300 (4320000)
I0717 10:13:05.992588  3874 net.cpp:157] Top shape: 16 3 300 300 (4320000)
I0717 10:13:05.992591  3874 net.cpp:157] Top shape: 16 3 300 300 (4320000)
I0717 10:13:05.992597  3874 net.cpp:157] Top shape: 16 3 300 300 (4320000)
I0717 10:13:05.992605  3874 net.cpp:157] Top shape: 16 3 300 300 (4320000)
I0717 10:13:05.992611  3874 net.cpp:165] Memory required for data: 138240800
I0717 10:13:05.992615  3874 layer_factory.hpp:77] Creating layer conv1
I0717 10:13:05.992635  3874 net.cpp:100] Creating Layer conv1
I0717 10:13:05.992640  3874 net.cpp:434] conv1 <- data_data_0_split_0
I0717 10:13:05.992646  3874 net.cpp:408] conv1 -> conv1
I0717 10:13:06.111335  3882 blocking_queue.cpp:50] Waiting for data
I0717 10:13:06.209072  3874 net.cpp:150] Setting up conv1
I0717 10:13:06.209096  3874 net.cpp:157] Top shape: 16 32 150 150 (11520000)
I0717 10:13:06.209100  3874 net.cpp:165] Memory required for data: 184320800
I0717 10:13:06.209111  3874 layer_factory.hpp:77] Creating layer conv1/bn
I0717 10:13:06.209120  3874 net.cpp:100] Creating Layer conv1/bn
I0717 10:13:06.209123  3874 net.cpp:434] conv1/bn <- conv1
I0717 10:13:06.209127  3874 net.cpp:395] conv1/bn -> conv1 (in-place)
I0717 10:13:06.209669  3874 net.cpp:150] Setting up conv1/bn
I0717 10:13:06.209678  3874 net.cpp:157] Top shape: 16 32 150 150 (11520000)
I0717 10:13:06.209681  3874 net.cpp:165] Memory required for data: 230400800
I0717 10:13:06.209688  3874 layer_factory.hpp:77] Creating layer conv1/scale
I0717 10:13:06.209697  3874 net.cpp:100] Creating Layer conv1/scale
I0717 10:13:06.209700  3874 net.cpp:434] conv1/scale <- conv1
I0717 10:13:06.209704  3874 net.cpp:395] conv1/scale -> conv1 (in-place)
I0717 10:13:06.209744  3874 layer_factory.hpp:77] Creating layer conv1/scale
I0717 10:13:06.209861  3874 net.cpp:150] Setting up conv1/scale
I0717 10:13:06.209869  3874 net.cpp:157] Top shape: 16 32 150 150 (11520000)
I0717 10:13:06.209872  3874 net.cpp:165] Memory required for data: 276480800
I0717 10:13:06.209879  3874 layer_factory.hpp:77] Creating layer conv1_relu
I0717 10:13:06.209887  3874 net.cpp:100] Creating Layer conv1_relu
I0717 10:13:06.209888  3874 net.cpp:434] conv1_relu <- conv1
I0717 10:13:06.209892  3874 net.cpp:395] conv1_relu -> conv1 (in-place)
I0717 10:13:06.210033  3874 net.cpp:150] Setting up conv1_relu
I0717 10:13:06.210041  3874 net.cpp:157] Top shape: 16 32 150 150 (11520000)
I0717 10:13:06.210043  3874 net.cpp:165] Memory required for data: 322560800
I0717 10:13:06.210047  3874 layer_factory.hpp:77] Creating layer conv2_1/dw
I0717 10:13:06.210057  3874 net.cpp:100] Creating Layer conv2_1/dw
I0717 10:13:06.210060  3874 net.cpp:434] conv2_1/dw <- conv1
I0717 10:13:06.210067  3874 net.cpp:408] conv2_1/dw -> conv2_1/dw
I0717 10:13:06.210219  3874 net.cpp:150] Setting up conv2_1/dw
I0717 10:13:06.210227  3874 net.cpp:157] Top shape: 16 32 150 150 (11520000)
I0717 10:13:06.210228  3874 net.cpp:165] Memory required for data: 368640800
I0717 10:13:06.210232  3874 layer_factory.hpp:77] Creating layer conv2_1/dw/bn
I0717 10:13:06.210238  3874 net.cpp:100] Creating Layer conv2_1/dw/bn
I0717 10:13:06.210240  3874 net.cpp:434] conv2_1/dw/bn <- conv2_1/dw
I0717 10:13:06.210244  3874 net.cpp:395] conv2_1/dw/bn -> conv2_1/dw (in-place)
I0717 10:13:06.210407  3874 net.cpp:150] Setting up conv2_1/dw/bn
I0717 10:13:06.210414  3874 net.cpp:157] Top shape: 16 32 150 150 (11520000)
I0717 10:13:06.210417  3874 net.cpp:165] Memory required for data: 414720800
I0717 10:13:06.210424  3874 layer_factory.hpp:77] Creating layer conv2_1/dw/scale
I0717 10:13:06.210433  3874 net.cpp:100] Creating Layer conv2_1/dw/scale
I0717 10:13:06.210436  3874 net.cpp:434] conv2_1/dw/scale <- conv2_1/dw
I0717 10:13:06.210443  3874 net.cpp:395] conv2_1/dw/scale -> conv2_1/dw (in-place)
I0717 10:13:06.210475  3874 layer_factory.hpp:77] Creating layer conv2_1/dw/scale
I0717 10:13:06.210595  3874 net.cpp:150] Setting up conv2_1/dw/scale
I0717 10:13:06.210602  3874 net.cpp:157] Top shape: 16 32 150 150 (11520000)
I0717 10:13:06.210604  3874 net.cpp:165] Memory required for data: 460800800
I0717 10:13:06.210609  3874 layer_factory.hpp:77] Creating layer conv2_1/dw_relu
I0717 10:13:06.210615  3874 net.cpp:100] Creating Layer conv2_1/dw_relu
I0717 10:13:06.210618  3874 net.cpp:434] conv2_1/dw_relu <- conv2_1/dw
I0717 10:13:06.210623  3874 net.cpp:395] conv2_1/dw_relu -> conv2_1/dw (in-place)
I0717 10:13:06.211163  3874 net.cpp:150] Setting up conv2_1/dw_relu
I0717 10:13:06.211174  3874 net.cpp:157] Top shape: 16 32 150 150 (11520000)
I0717 10:13:06.211175  3874 net.cpp:165] Memory required for data: 506880800
I0717 10:13:06.211177  3874 layer_factory.hpp:77] Creating layer conv2_1/sep
I0717 10:13:06.211184  3874 net.cpp:100] Creating Layer conv2_1/sep
I0717 10:13:06.211186  3874 net.cpp:434] conv2_1/sep <- conv2_1/dw
I0717 10:13:06.211190  3874 net.cpp:408] conv2_1/sep -> conv2_1/sep
I0717 10:13:06.212532  3874 net.cpp:150] Setting up conv2_1/sep
I0717 10:13:06.212543  3874 net.cpp:157] Top shape: 16 64 150 150 (23040000)
I0717 10:13:06.212545  3874 net.cpp:165] Memory required for data: 599040800
I0717 10:13:06.212549  3874 layer_factory.hpp:77] Creating layer conv2_1/sep/bn
I0717 10:13:06.212553  3874 net.cpp:100] Creating Layer conv2_1/sep/bn
I0717 10:13:06.212555  3874 net.cpp:434] conv2_1/sep/bn <- conv2_1/sep
I0717 10:13:06.212559  3874 net.cpp:395] conv2_1/sep/bn -> conv2_1/sep (in-place)
I0717 10:13:06.212713  3874 net.cpp:150] Setting up conv2_1/sep/bn
I0717 10:13:06.212718  3874 net.cpp:157] Top shape: 16 64 150 150 (23040000)
I0717 10:13:06.212720  3874 net.cpp:165] Memory required for data: 691200800
I0717 10:13:06.212724  3874 layer_factory.hpp:77] Creating layer conv2_1/sep/scale
I0717 10:13:06.212728  3874 net.cpp:100] Creating Layer conv2_1/sep/scale
I0717 10:13:06.212730  3874 net.cpp:434] conv2_1/sep/scale <- conv2_1/sep
I0717 10:13:06.212733  3874 net.cpp:395] conv2_1/sep/scale -> conv2_1/sep (in-place)
I0717 10:13:06.212764  3874 layer_factory.hpp:77] Creating layer conv2_1/sep/scale
I0717 10:13:06.212867  3874 net.cpp:150] Setting up conv2_1/sep/scale
I0717 10:13:06.212873  3874 net.cpp:157] Top shape: 16 64 150 150 (23040000)
I0717 10:13:06.212874  3874 net.cpp:165] Memory required for data: 783360800
I0717 10:13:06.212882  3874 layer_factory.hpp:77] Creating layer conv2_1/sep_relu
I0717 10:13:06.212885  3874 net.cpp:100] Creating Layer conv2_1/sep_relu
I0717 10:13:06.212888  3874 net.cpp:434] conv2_1/sep_relu <- conv2_1/sep
I0717 10:13:06.212890  3874 net.cpp:395] conv2_1/sep_relu -> conv2_1/sep (in-place)
I0717 10:13:06.213424  3874 net.cpp:150] Setting up conv2_1/sep_relu
I0717 10:13:06.213433  3874 net.cpp:157] Top shape: 16 64 150 150 (23040000)
I0717 10:13:06.213435  3874 net.cpp:165] Memory required for data: 875520800
I0717 10:13:06.213438  3874 layer_factory.hpp:77] Creating layer conv2_2/dw
I0717 10:13:06.213443  3874 net.cpp:100] Creating Layer conv2_2/dw
I0717 10:13:06.213445  3874 net.cpp:434] conv2_2/dw <- conv2_1/sep
I0717 10:13:06.213450  3874 net.cpp:408] conv2_2/dw -> conv2_2/dw
I0717 10:13:06.213601  3874 net.cpp:150] Setting up conv2_2/dw
I0717 10:13:06.213608  3874 net.cpp:157] Top shape: 16 64 75 75 (5760000)
I0717 10:13:06.213609  3874 net.cpp:165] Memory required for data: 898560800
I0717 10:13:06.213613  3874 layer_factory.hpp:77] Creating layer conv2_2/dw/bn
I0717 10:13:06.213618  3874 net.cpp:100] Creating Layer conv2_2/dw/bn
I0717 10:13:06.213621  3874 net.cpp:434] conv2_2/dw/bn <- conv2_2/dw
I0717 10:13:06.213626  3874 net.cpp:395] conv2_2/dw/bn -> conv2_2/dw (in-place)
I0717 10:13:06.214128  3874 net.cpp:150] Setting up conv2_2/dw/bn
I0717 10:13:06.214138  3874 net.cpp:157] Top shape: 16 64 75 75 (5760000)
I0717 10:13:06.214140  3874 net.cpp:165] Memory required for data: 921600800
I0717 10:13:06.214145  3874 layer_factory.hpp:77] Creating layer conv2_2/dw/scale
I0717 10:13:06.214151  3874 net.cpp:100] Creating Layer conv2_2/dw/scale
I0717 10:13:06.214161  3874 net.cpp:434] conv2_2/dw/scale <- conv2_2/dw
I0717 10:13:06.214166  3874 net.cpp:395] conv2_2/dw/scale -> conv2_2/dw (in-place)
I0717 10:13:06.214203  3874 layer_factory.hpp:77] Creating layer conv2_2/dw/scale
I0717 10:13:06.214299  3874 net.cpp:150] Setting up conv2_2/dw/scale
I0717 10:13:06.214305  3874 net.cpp:157] Top shape: 16 64 75 75 (5760000)
I0717 10:13:06.214308  3874 net.cpp:165] Memory required for data: 944640800
I0717 10:13:06.214313  3874 layer_factory.hpp:77] Creating layer conv2_2/dw_relu
I0717 10:13:06.214318  3874 net.cpp:100] Creating Layer conv2_2/dw_relu
I0717 10:13:06.214320  3874 net.cpp:434] conv2_2/dw_relu <- conv2_2/dw
I0717 10:13:06.214326  3874 net.cpp:395] conv2_2/dw_relu -> conv2_2/dw (in-place)
I0717 10:13:06.214468  3874 net.cpp:150] Setting up conv2_2/dw_relu
I0717 10:13:06.214474  3874 net.cpp:157] Top shape: 16 64 75 75 (5760000)
I0717 10:13:06.214476  3874 net.cpp:165] Memory required for data: 967680800
I0717 10:13:06.214478  3874 layer_factory.hpp:77] Creating layer conv2_2/sep
I0717 10:13:06.214488  3874 net.cpp:100] Creating Layer conv2_2/sep
I0717 10:13:06.214491  3874 net.cpp:434] conv2_2/sep <- conv2_2/dw
I0717 10:13:06.214496  3874 net.cpp:408] conv2_2/sep -> conv2_2/sep
I0717 10:13:06.216300  3874 net.cpp:150] Setting up conv2_2/sep
I0717 10:13:06.216310  3874 net.cpp:157] Top shape: 16 128 75 75 (11520000)
I0717 10:13:06.216312  3874 net.cpp:165] Memory required for data: 1013760800
I0717 10:13:06.216315  3874 layer_factory.hpp:77] Creating layer conv2_2/sep/bn
I0717 10:13:06.216320  3874 net.cpp:100] Creating Layer conv2_2/sep/bn
I0717 10:13:06.216323  3874 net.cpp:434] conv2_2/sep/bn <- conv2_2/sep
I0717 10:13:06.216327  3874 net.cpp:395] conv2_2/sep/bn -> conv2_2/sep (in-place)
I0717 10:13:06.216470  3874 net.cpp:150] Setting up conv2_2/sep/bn
I0717 10:13:06.216476  3874 net.cpp:157] Top shape: 16 128 75 75 (11520000)
I0717 10:13:06.216478  3874 net.cpp:165] Memory required for data: 1059840800
I0717 10:13:06.216485  3874 layer_factory.hpp:77] Creating layer conv2_2/sep/scale
I0717 10:13:06.216490  3874 net.cpp:100] Creating Layer conv2_2/sep/scale
I0717 10:13:06.216492  3874 net.cpp:434] conv2_2/sep/scale <- conv2_2/sep
I0717 10:13:06.216497  3874 net.cpp:395] conv2_2/sep/scale -> conv2_2/sep (in-place)
I0717 10:13:06.216531  3874 layer_factory.hpp:77] Creating layer conv2_2/sep/scale
I0717 10:13:06.216620  3874 net.cpp:150] Setting up conv2_2/sep/scale
I0717 10:13:06.216626  3874 net.cpp:157] Top shape: 16 128 75 75 (11520000)
I0717 10:13:06.216627  3874 net.cpp:165] Memory required for data: 1105920800
I0717 10:13:06.216632  3874 layer_factory.hpp:77] Creating layer conv2_2/sep_relu
I0717 10:13:06.216637  3874 net.cpp:100] Creating Layer conv2_2/sep_relu
I0717 10:13:06.216640  3874 net.cpp:434] conv2_2/sep_relu <- conv2_2/sep
I0717 10:13:06.216647  3874 net.cpp:395] conv2_2/sep_relu -> conv2_2/sep (in-place)
I0717 10:13:06.217196  3874 net.cpp:150] Setting up conv2_2/sep_relu
I0717 10:13:06.217206  3874 net.cpp:157] Top shape: 16 128 75 75 (11520000)
I0717 10:13:06.217209  3874 net.cpp:165] Memory required for data: 1152000800
I0717 10:13:06.217212  3874 layer_factory.hpp:77] Creating layer conv3_1/dw
I0717 10:13:06.217221  3874 net.cpp:100] Creating Layer conv3_1/dw
I0717 10:13:06.217223  3874 net.cpp:434] conv3_1/dw <- conv2_2/sep
I0717 10:13:06.217231  3874 net.cpp:408] conv3_1/dw -> conv3_1/dw
I0717 10:13:06.217384  3874 net.cpp:150] Setting up conv3_1/dw
I0717 10:13:06.217391  3874 net.cpp:157] Top shape: 16 128 75 75 (11520000)
I0717 10:13:06.217393  3874 net.cpp:165] Memory required for data: 1198080800
I0717 10:13:06.217397  3874 layer_factory.hpp:77] Creating layer conv3_1/dw/bn
I0717 10:13:06.217403  3874 net.cpp:100] Creating Layer conv3_1/dw/bn
I0717 10:13:06.217406  3874 net.cpp:434] conv3_1/dw/bn <- conv3_1/dw
I0717 10:13:06.217411  3874 net.cpp:395] conv3_1/dw/bn -> conv3_1/dw (in-place)
I0717 10:13:06.217546  3874 net.cpp:150] Setting up conv3_1/dw/bn
I0717 10:13:06.217552  3874 net.cpp:157] Top shape: 16 128 75 75 (11520000)
I0717 10:13:06.217566  3874 net.cpp:165] Memory required for data: 1244160800
I0717 10:13:06.217577  3874 layer_factory.hpp:77] Creating layer conv3_1/dw/scale
I0717 10:13:06.217584  3874 net.cpp:100] Creating Layer conv3_1/dw/scale
I0717 10:13:06.217587  3874 net.cpp:434] conv3_1/dw/scale <- conv3_1/dw
I0717 10:13:06.217594  3874 net.cpp:395] conv3_1/dw/scale -> conv3_1/dw (in-place)
I0717 10:13:06.217630  3874 layer_factory.hpp:77] Creating layer conv3_1/dw/scale
I0717 10:13:06.217716  3874 net.cpp:150] Setting up conv3_1/dw/scale
I0717 10:13:06.217721  3874 net.cpp:157] Top shape: 16 128 75 75 (11520000)
I0717 10:13:06.217723  3874 net.cpp:165] Memory required for data: 1290240800
I0717 10:13:06.217728  3874 layer_factory.hpp:77] Creating layer conv3_1/dw_relu
I0717 10:13:06.217732  3874 net.cpp:100] Creating Layer conv3_1/dw_relu
I0717 10:13:06.217736  3874 net.cpp:434] conv3_1/dw_relu <- conv3_1/dw
I0717 10:13:06.217741  3874 net.cpp:395] conv3_1/dw_relu -> conv3_1/dw (in-place)
I0717 10:13:06.217878  3874 net.cpp:150] Setting up conv3_1/dw_relu
I0717 10:13:06.217886  3874 net.cpp:157] Top shape: 16 128 75 75 (11520000)
I0717 10:13:06.217887  3874 net.cpp:165] Memory required for data: 1336320800
I0717 10:13:06.217890  3874 layer_factory.hpp:77] Creating layer conv3_1/sep
I0717 10:13:06.217897  3874 net.cpp:100] Creating Layer conv3_1/sep
I0717 10:13:06.217900  3874 net.cpp:434] conv3_1/sep <- conv3_1/dw
I0717 10:13:06.217903  3874 net.cpp:408] conv3_1/sep -> conv3_1/sep
I0717 10:13:06.219390  3874 net.cpp:150] Setting up conv3_1/sep
I0717 10:13:06.219400  3874 net.cpp:157] Top shape: 16 128 75 75 (11520000)
I0717 10:13:06.219403  3874 net.cpp:165] Memory required for data: 1382400800
I0717 10:13:06.219406  3874 layer_factory.hpp:77] Creating layer conv3_1/sep/bn
I0717 10:13:06.219409  3874 net.cpp:100] Creating Layer conv3_1/sep/bn
I0717 10:13:06.219411  3874 net.cpp:434] conv3_1/sep/bn <- conv3_1/sep
I0717 10:13:06.219415  3874 net.cpp:395] conv3_1/sep/bn -> conv3_1/sep (in-place)
I0717 10:13:06.219554  3874 net.cpp:150] Setting up conv3_1/sep/bn
I0717 10:13:06.219559  3874 net.cpp:157] Top shape: 16 128 75 75 (11520000)
I0717 10:13:06.219563  3874 net.cpp:165] Memory required for data: 1428480800
I0717 10:13:06.219566  3874 layer_factory.hpp:77] Creating layer conv3_1/sep/scale
I0717 10:13:06.219570  3874 net.cpp:100] Creating Layer conv3_1/sep/scale
I0717 10:13:06.219573  3874 net.cpp:434] conv3_1/sep/scale <- conv3_1/sep
I0717 10:13:06.219576  3874 net.cpp:395] conv3_1/sep/scale -> conv3_1/sep (in-place)
I0717 10:13:06.219604  3874 layer_factory.hpp:77] Creating layer conv3_1/sep/scale
I0717 10:13:06.219687  3874 net.cpp:150] Setting up conv3_1/sep/scale
I0717 10:13:06.219693  3874 net.cpp:157] Top shape: 16 128 75 75 (11520000)
I0717 10:13:06.219694  3874 net.cpp:165] Memory required for data: 1474560800
I0717 10:13:06.219698  3874 layer_factory.hpp:77] Creating layer conv3_1/sep_relu
I0717 10:13:06.219702  3874 net.cpp:100] Creating Layer conv3_1/sep_relu
I0717 10:13:06.219703  3874 net.cpp:434] conv3_1/sep_relu <- conv3_1/sep
I0717 10:13:06.219707  3874 net.cpp:395] conv3_1/sep_relu -> conv3_1/sep (in-place)
I0717 10:13:06.220240  3874 net.cpp:150] Setting up conv3_1/sep_relu
I0717 10:13:06.220249  3874 net.cpp:157] Top shape: 16 128 75 75 (11520000)
I0717 10:13:06.220252  3874 net.cpp:165] Memory required for data: 1520640800
I0717 10:13:06.220253  3874 layer_factory.hpp:77] Creating layer conv3_2/dw
I0717 10:13:06.220260  3874 net.cpp:100] Creating Layer conv3_2/dw
I0717 10:13:06.220263  3874 net.cpp:434] conv3_2/dw <- conv3_1/sep
I0717 10:13:06.220266  3874 net.cpp:408] conv3_2/dw -> conv3_2/dw
I0717 10:13:06.220419  3874 net.cpp:150] Setting up conv3_2/dw
I0717 10:13:06.220427  3874 net.cpp:157] Top shape: 16 128 38 38 (2957312)
I0717 10:13:06.220428  3874 net.cpp:165] Memory required for data: 1532470048
I0717 10:13:06.220432  3874 layer_factory.hpp:77] Creating layer conv3_2/dw/bn
I0717 10:13:06.220434  3874 net.cpp:100] Creating Layer conv3_2/dw/bn
I0717 10:13:06.220444  3874 net.cpp:434] conv3_2/dw/bn <- conv3_2/dw
I0717 10:13:06.220448  3874 net.cpp:395] conv3_2/dw/bn -> conv3_2/dw (in-place)
I0717 10:13:06.220579  3874 net.cpp:150] Setting up conv3_2/dw/bn
I0717 10:13:06.220585  3874 net.cpp:157] Top shape: 16 128 38 38 (2957312)
I0717 10:13:06.220587  3874 net.cpp:165] Memory required for data: 1544299296
I0717 10:13:06.220592  3874 layer_factory.hpp:77] Creating layer conv3_2/dw/scale
I0717 10:13:06.220599  3874 net.cpp:100] Creating Layer conv3_2/dw/scale
I0717 10:13:06.220602  3874 net.cpp:434] conv3_2/dw/scale <- conv3_2/dw
I0717 10:13:06.220604  3874 net.cpp:395] conv3_2/dw/scale -> conv3_2/dw (in-place)
I0717 10:13:06.220635  3874 layer_factory.hpp:77] Creating layer conv3_2/dw/scale
I0717 10:13:06.220715  3874 net.cpp:150] Setting up conv3_2/dw/scale
I0717 10:13:06.220721  3874 net.cpp:157] Top shape: 16 128 38 38 (2957312)
I0717 10:13:06.220723  3874 net.cpp:165] Memory required for data: 1556128544
I0717 10:13:06.220726  3874 layer_factory.hpp:77] Creating layer conv3_2/dw_relu
I0717 10:13:06.220731  3874 net.cpp:100] Creating Layer conv3_2/dw_relu
I0717 10:13:06.220732  3874 net.cpp:434] conv3_2/dw_relu <- conv3_2/dw
I0717 10:13:06.220736  3874 net.cpp:395] conv3_2/dw_relu -> conv3_2/dw (in-place)
I0717 10:13:06.220866  3874 net.cpp:150] Setting up conv3_2/dw_relu
I0717 10:13:06.220873  3874 net.cpp:157] Top shape: 16 128 38 38 (2957312)
I0717 10:13:06.220875  3874 net.cpp:165] Memory required for data: 1567957792
I0717 10:13:06.220876  3874 layer_factory.hpp:77] Creating layer conv3_2/sep
I0717 10:13:06.220882  3874 net.cpp:100] Creating Layer conv3_2/sep
I0717 10:13:06.220885  3874 net.cpp:434] conv3_2/sep <- conv3_2/dw
I0717 10:13:06.220888  3874 net.cpp:408] conv3_2/sep -> conv3_2/sep
I0717 10:13:06.222491  3874 net.cpp:150] Setting up conv3_2/sep
I0717 10:13:06.222501  3874 net.cpp:157] Top shape: 16 256 38 38 (5914624)
I0717 10:13:06.222503  3874 net.cpp:165] Memory required for data: 1591616288
I0717 10:13:06.222507  3874 layer_factory.hpp:77] Creating layer conv3_2/sep/bn
I0717 10:13:06.222512  3874 net.cpp:100] Creating Layer conv3_2/sep/bn
I0717 10:13:06.222513  3874 net.cpp:434] conv3_2/sep/bn <- conv3_2/sep
I0717 10:13:06.222517  3874 net.cpp:395] conv3_2/sep/bn -> conv3_2/sep (in-place)
I0717 10:13:06.222657  3874 net.cpp:150] Setting up conv3_2/sep/bn
I0717 10:13:06.222663  3874 net.cpp:157] Top shape: 16 256 38 38 (5914624)
I0717 10:13:06.222666  3874 net.cpp:165] Memory required for data: 1615274784
I0717 10:13:06.222671  3874 layer_factory.hpp:77] Creating layer conv3_2/sep/scale
I0717 10:13:06.222674  3874 net.cpp:100] Creating Layer conv3_2/sep/scale
I0717 10:13:06.222676  3874 net.cpp:434] conv3_2/sep/scale <- conv3_2/sep
I0717 10:13:06.222679  3874 net.cpp:395] conv3_2/sep/scale -> conv3_2/sep (in-place)
I0717 10:13:06.222708  3874 layer_factory.hpp:77] Creating layer conv3_2/sep/scale
I0717 10:13:06.222787  3874 net.cpp:150] Setting up conv3_2/sep/scale
I0717 10:13:06.222792  3874 net.cpp:157] Top shape: 16 256 38 38 (5914624)
I0717 10:13:06.222795  3874 net.cpp:165] Memory required for data: 1638933280
I0717 10:13:06.222798  3874 layer_factory.hpp:77] Creating layer conv3_2/sep_relu
I0717 10:13:06.222801  3874 net.cpp:100] Creating Layer conv3_2/sep_relu
I0717 10:13:06.222803  3874 net.cpp:434] conv3_2/sep_relu <- conv3_2/sep
I0717 10:13:06.222806  3874 net.cpp:395] conv3_2/sep_relu -> conv3_2/sep (in-place)
I0717 10:13:06.223346  3874 net.cpp:150] Setting up conv3_2/sep_relu
I0717 10:13:06.223356  3874 net.cpp:157] Top shape: 16 256 38 38 (5914624)
I0717 10:13:06.223358  3874 net.cpp:165] Memory required for data: 1662591776
I0717 10:13:06.223361  3874 layer_factory.hpp:77] Creating layer conv4_1/dw
I0717 10:13:06.223368  3874 net.cpp:100] Creating Layer conv4_1/dw
I0717 10:13:06.223371  3874 net.cpp:434] conv4_1/dw <- conv3_2/sep
I0717 10:13:06.223374  3874 net.cpp:408] conv4_1/dw -> conv4_1/dw
I0717 10:13:06.223541  3874 net.cpp:150] Setting up conv4_1/dw
I0717 10:13:06.223547  3874 net.cpp:157] Top shape: 16 256 38 38 (5914624)
I0717 10:13:06.223558  3874 net.cpp:165] Memory required for data: 1686250272
I0717 10:13:06.223562  3874 layer_factory.hpp:77] Creating layer conv4_1/dw/bn
I0717 10:13:06.223567  3874 net.cpp:100] Creating Layer conv4_1/dw/bn
I0717 10:13:06.223569  3874 net.cpp:434] conv4_1/dw/bn <- conv4_1/dw
I0717 10:13:06.223572  3874 net.cpp:395] conv4_1/dw/bn -> conv4_1/dw (in-place)
I0717 10:13:06.223706  3874 net.cpp:150] Setting up conv4_1/dw/bn
I0717 10:13:06.223711  3874 net.cpp:157] Top shape: 16 256 38 38 (5914624)
I0717 10:13:06.223713  3874 net.cpp:165] Memory required for data: 1709908768
I0717 10:13:06.223719  3874 layer_factory.hpp:77] Creating layer conv4_1/dw/scale
I0717 10:13:06.223723  3874 net.cpp:100] Creating Layer conv4_1/dw/scale
I0717 10:13:06.223724  3874 net.cpp:434] conv4_1/dw/scale <- conv4_1/dw
I0717 10:13:06.223728  3874 net.cpp:395] conv4_1/dw/scale -> conv4_1/dw (in-place)
I0717 10:13:06.223757  3874 layer_factory.hpp:77] Creating layer conv4_1/dw/scale
I0717 10:13:06.223839  3874 net.cpp:150] Setting up conv4_1/dw/scale
I0717 10:13:06.223843  3874 net.cpp:157] Top shape: 16 256 38 38 (5914624)
I0717 10:13:06.223845  3874 net.cpp:165] Memory required for data: 1733567264
I0717 10:13:06.223848  3874 layer_factory.hpp:77] Creating layer conv4_1/dw_relu
I0717 10:13:06.223852  3874 net.cpp:100] Creating Layer conv4_1/dw_relu
I0717 10:13:06.223853  3874 net.cpp:434] conv4_1/dw_relu <- conv4_1/dw
I0717 10:13:06.223858  3874 net.cpp:395] conv4_1/dw_relu -> conv4_1/dw (in-place)
I0717 10:13:06.223991  3874 net.cpp:150] Setting up conv4_1/dw_relu
I0717 10:13:06.223997  3874 net.cpp:157] Top shape: 16 256 38 38 (5914624)
I0717 10:13:06.223999  3874 net.cpp:165] Memory required for data: 1757225760
I0717 10:13:06.224001  3874 layer_factory.hpp:77] Creating layer conv4_1/sep
I0717 10:13:06.224009  3874 net.cpp:100] Creating Layer conv4_1/sep
I0717 10:13:06.224010  3874 net.cpp:434] conv4_1/sep <- conv4_1/dw
I0717 10:13:06.224014  3874 net.cpp:408] conv4_1/sep -> conv4_1/sep
I0717 10:13:06.226671  3874 net.cpp:150] Setting up conv4_1/sep
I0717 10:13:06.226681  3874 net.cpp:157] Top shape: 16 256 38 38 (5914624)
I0717 10:13:06.226683  3874 net.cpp:165] Memory required for data: 1780884256
I0717 10:13:06.226687  3874 layer_factory.hpp:77] Creating layer conv4_1/sep/bn
I0717 10:13:06.226692  3874 net.cpp:100] Creating Layer conv4_1/sep/bn
I0717 10:13:06.226694  3874 net.cpp:434] conv4_1/sep/bn <- conv4_1/sep
I0717 10:13:06.226697  3874 net.cpp:395] conv4_1/sep/bn -> conv4_1/sep (in-place)
I0717 10:13:06.226850  3874 net.cpp:150] Setting up conv4_1/sep/bn
I0717 10:13:06.226857  3874 net.cpp:157] Top shape: 16 256 38 38 (5914624)
I0717 10:13:06.226860  3874 net.cpp:165] Memory required for data: 1804542752
I0717 10:13:06.226864  3874 layer_factory.hpp:77] Creating layer conv4_1/sep/scale
I0717 10:13:06.226868  3874 net.cpp:100] Creating Layer conv4_1/sep/scale
I0717 10:13:06.226871  3874 net.cpp:434] conv4_1/sep/scale <- conv4_1/sep
I0717 10:13:06.226873  3874 net.cpp:395] conv4_1/sep/scale -> conv4_1/sep (in-place)
I0717 10:13:06.226904  3874 layer_factory.hpp:77] Creating layer conv4_1/sep/scale
I0717 10:13:06.226989  3874 net.cpp:150] Setting up conv4_1/sep/scale
I0717 10:13:06.226994  3874 net.cpp:157] Top shape: 16 256 38 38 (5914624)
I0717 10:13:06.226995  3874 net.cpp:165] Memory required for data: 1828201248
I0717 10:13:06.227005  3874 layer_factory.hpp:77] Creating layer conv4_1/sep_relu
I0717 10:13:06.227010  3874 net.cpp:100] Creating Layer conv4_1/sep_relu
I0717 10:13:06.227012  3874 net.cpp:434] conv4_1/sep_relu <- conv4_1/sep
I0717 10:13:06.227015  3874 net.cpp:395] conv4_1/sep_relu -> conv4_1/sep (in-place)
I0717 10:13:06.227159  3874 net.cpp:150] Setting up conv4_1/sep_relu
I0717 10:13:06.227166  3874 net.cpp:157] Top shape: 16 256 38 38 (5914624)
I0717 10:13:06.227169  3874 net.cpp:165] Memory required for data: 1851859744
I0717 10:13:06.227170  3874 layer_factory.hpp:77] Creating layer conv4_2/dw
I0717 10:13:06.227176  3874 net.cpp:100] Creating Layer conv4_2/dw
I0717 10:13:06.227179  3874 net.cpp:434] conv4_2/dw <- conv4_1/sep
I0717 10:13:06.227197  3874 net.cpp:408] conv4_2/dw -> conv4_2/dw
I0717 10:13:06.227368  3874 net.cpp:150] Setting up conv4_2/dw
I0717 10:13:06.227375  3874 net.cpp:157] Top shape: 16 256 19 19 (1478656)
I0717 10:13:06.227377  3874 net.cpp:165] Memory required for data: 1857774368
I0717 10:13:06.227381  3874 layer_factory.hpp:77] Creating layer conv4_2/dw/bn
I0717 10:13:06.227386  3874 net.cpp:100] Creating Layer conv4_2/dw/bn
I0717 10:13:06.227390  3874 net.cpp:434] conv4_2/dw/bn <- conv4_2/dw
I0717 10:13:06.227394  3874 net.cpp:395] conv4_2/dw/bn -> conv4_2/dw (in-place)
I0717 10:13:06.227540  3874 net.cpp:150] Setting up conv4_2/dw/bn
I0717 10:13:06.227545  3874 net.cpp:157] Top shape: 16 256 19 19 (1478656)
I0717 10:13:06.227546  3874 net.cpp:165] Memory required for data: 1863688992
I0717 10:13:06.227552  3874 layer_factory.hpp:77] Creating layer conv4_2/dw/scale
I0717 10:13:06.227558  3874 net.cpp:100] Creating Layer conv4_2/dw/scale
I0717 10:13:06.227561  3874 net.cpp:434] conv4_2/dw/scale <- conv4_2/dw
I0717 10:13:06.227566  3874 net.cpp:395] conv4_2/dw/scale -> conv4_2/dw (in-place)
I0717 10:13:06.227600  3874 layer_factory.hpp:77] Creating layer conv4_2/dw/scale
I0717 10:13:06.227687  3874 net.cpp:150] Setting up conv4_2/dw/scale
I0717 10:13:06.227694  3874 net.cpp:157] Top shape: 16 256 19 19 (1478656)
I0717 10:13:06.227695  3874 net.cpp:165] Memory required for data: 1869603616
I0717 10:13:06.227700  3874 layer_factory.hpp:77] Creating layer conv4_2/dw_relu
I0717 10:13:06.227705  3874 net.cpp:100] Creating Layer conv4_2/dw_relu
I0717 10:13:06.227707  3874 net.cpp:434] conv4_2/dw_relu <- conv4_2/dw
I0717 10:13:06.227712  3874 net.cpp:395] conv4_2/dw_relu -> conv4_2/dw (in-place)
I0717 10:13:06.228255  3874 net.cpp:150] Setting up conv4_2/dw_relu
I0717 10:13:06.228265  3874 net.cpp:157] Top shape: 16 256 19 19 (1478656)
I0717 10:13:06.228266  3874 net.cpp:165] Memory required for data: 1875518240
I0717 10:13:06.228268  3874 layer_factory.hpp:77] Creating layer conv4_2/sep
I0717 10:13:06.228274  3874 net.cpp:100] Creating Layer conv4_2/sep
I0717 10:13:06.228276  3874 net.cpp:434] conv4_2/sep <- conv4_2/dw
I0717 10:13:06.228282  3874 net.cpp:408] conv4_2/sep -> conv4_2/sep
I0717 10:13:06.231397  3874 net.cpp:150] Setting up conv4_2/sep
I0717 10:13:06.231408  3874 net.cpp:157] Top shape: 16 512 19 19 (2957312)
I0717 10:13:06.231410  3874 net.cpp:165] Memory required for data: 1887347488
I0717 10:13:06.231415  3874 layer_factory.hpp:77] Creating layer conv4_2/sep/bn
I0717 10:13:06.231420  3874 net.cpp:100] Creating Layer conv4_2/sep/bn
I0717 10:13:06.231421  3874 net.cpp:434] conv4_2/sep/bn <- conv4_2/sep
I0717 10:13:06.231425  3874 net.cpp:395] conv4_2/sep/bn -> conv4_2/sep (in-place)
I0717 10:13:06.231577  3874 net.cpp:150] Setting up conv4_2/sep/bn
I0717 10:13:06.231583  3874 net.cpp:157] Top shape: 16 512 19 19 (2957312)
I0717 10:13:06.231585  3874 net.cpp:165] Memory required for data: 1899176736
I0717 10:13:06.231590  3874 layer_factory.hpp:77] Creating layer conv4_2/sep/scale
I0717 10:13:06.231595  3874 net.cpp:100] Creating Layer conv4_2/sep/scale
I0717 10:13:06.231596  3874 net.cpp:434] conv4_2/sep/scale <- conv4_2/sep
I0717 10:13:06.231600  3874 net.cpp:395] conv4_2/sep/scale -> conv4_2/sep (in-place)
I0717 10:13:06.231631  3874 layer_factory.hpp:77] Creating layer conv4_2/sep/scale
I0717 10:13:06.231714  3874 net.cpp:150] Setting up conv4_2/sep/scale
I0717 10:13:06.231719  3874 net.cpp:157] Top shape: 16 512 19 19 (2957312)
I0717 10:13:06.231721  3874 net.cpp:165] Memory required for data: 1911005984
I0717 10:13:06.231724  3874 layer_factory.hpp:77] Creating layer conv4_2/sep_relu
I0717 10:13:06.231729  3874 net.cpp:100] Creating Layer conv4_2/sep_relu
I0717 10:13:06.231730  3874 net.cpp:434] conv4_2/sep_relu <- conv4_2/sep
I0717 10:13:06.231734  3874 net.cpp:395] conv4_2/sep_relu -> conv4_2/sep (in-place)
I0717 10:13:06.231873  3874 net.cpp:150] Setting up conv4_2/sep_relu
I0717 10:13:06.231879  3874 net.cpp:157] Top shape: 16 512 19 19 (2957312)
I0717 10:13:06.231881  3874 net.cpp:165] Memory required for data: 1922835232
I0717 10:13:06.231891  3874 layer_factory.hpp:77] Creating layer conv5_1/dw
I0717 10:13:06.231897  3874 net.cpp:100] Creating Layer conv5_1/dw
I0717 10:13:06.231899  3874 net.cpp:434] conv5_1/dw <- conv4_2/sep
I0717 10:13:06.231904  3874 net.cpp:408] conv5_1/dw -> conv5_1/dw
I0717 10:13:06.232094  3874 net.cpp:150] Setting up conv5_1/dw
I0717 10:13:06.232100  3874 net.cpp:157] Top shape: 16 512 19 19 (2957312)
I0717 10:13:06.232101  3874 net.cpp:165] Memory required for data: 1934664480
I0717 10:13:06.232105  3874 layer_factory.hpp:77] Creating layer conv5_1/dw/bn
I0717 10:13:06.232108  3874 net.cpp:100] Creating Layer conv5_1/dw/bn
I0717 10:13:06.232110  3874 net.cpp:434] conv5_1/dw/bn <- conv5_1/dw
I0717 10:13:06.232113  3874 net.cpp:395] conv5_1/dw/bn -> conv5_1/dw (in-place)
I0717 10:13:06.232259  3874 net.cpp:150] Setting up conv5_1/dw/bn
I0717 10:13:06.232264  3874 net.cpp:157] Top shape: 16 512 19 19 (2957312)
I0717 10:13:06.232265  3874 net.cpp:165] Memory required for data: 1946493728
I0717 10:13:06.232270  3874 layer_factory.hpp:77] Creating layer conv5_1/dw/scale
I0717 10:13:06.232275  3874 net.cpp:100] Creating Layer conv5_1/dw/scale
I0717 10:13:06.232277  3874 net.cpp:434] conv5_1/dw/scale <- conv5_1/dw
I0717 10:13:06.232280  3874 net.cpp:395] conv5_1/dw/scale -> conv5_1/dw (in-place)
I0717 10:13:06.232312  3874 layer_factory.hpp:77] Creating layer conv5_1/dw/scale
I0717 10:13:06.232399  3874 net.cpp:150] Setting up conv5_1/dw/scale
I0717 10:13:06.232404  3874 net.cpp:157] Top shape: 16 512 19 19 (2957312)
I0717 10:13:06.232406  3874 net.cpp:165] Memory required for data: 1958322976
I0717 10:13:06.232409  3874 layer_factory.hpp:77] Creating layer conv5_1/dw_relu
I0717 10:13:06.232412  3874 net.cpp:100] Creating Layer conv5_1/dw_relu
I0717 10:13:06.232414  3874 net.cpp:434] conv5_1/dw_relu <- conv5_1/dw
I0717 10:13:06.232417  3874 net.cpp:395] conv5_1/dw_relu -> conv5_1/dw (in-place)
I0717 10:13:06.232964  3874 net.cpp:150] Setting up conv5_1/dw_relu
I0717 10:13:06.232973  3874 net.cpp:157] Top shape: 16 512 19 19 (2957312)
I0717 10:13:06.232975  3874 net.cpp:165] Memory required for data: 1970152224
I0717 10:13:06.232976  3874 layer_factory.hpp:77] Creating layer conv5_1/sep
I0717 10:13:06.232983  3874 net.cpp:100] Creating Layer conv5_1/sep
I0717 10:13:06.232985  3874 net.cpp:434] conv5_1/sep <- conv5_1/dw
I0717 10:13:06.232990  3874 net.cpp:408] conv5_1/sep -> conv5_1/sep
I0717 10:13:06.236721  3874 net.cpp:150] Setting up conv5_1/sep
I0717 10:13:06.236732  3874 net.cpp:157] Top shape: 16 512 19 19 (2957312)
I0717 10:13:06.236734  3874 net.cpp:165] Memory required for data: 1981981472
I0717 10:13:06.236737  3874 layer_factory.hpp:77] Creating layer conv5_1/sep/bn
I0717 10:13:06.236742  3874 net.cpp:100] Creating Layer conv5_1/sep/bn
I0717 10:13:06.236743  3874 net.cpp:434] conv5_1/sep/bn <- conv5_1/sep
I0717 10:13:06.236747  3874 net.cpp:395] conv5_1/sep/bn -> conv5_1/sep (in-place)
I0717 10:13:06.236907  3874 net.cpp:150] Setting up conv5_1/sep/bn
I0717 10:13:06.236913  3874 net.cpp:157] Top shape: 16 512 19 19 (2957312)
I0717 10:13:06.236915  3874 net.cpp:165] Memory required for data: 1993810720
I0717 10:13:06.236922  3874 layer_factory.hpp:77] Creating layer conv5_1/sep/scale
I0717 10:13:06.236928  3874 net.cpp:100] Creating Layer conv5_1/sep/scale
I0717 10:13:06.236930  3874 net.cpp:434] conv5_1/sep/scale <- conv5_1/sep
I0717 10:13:06.236937  3874 net.cpp:395] conv5_1/sep/scale -> conv5_1/sep (in-place)
I0717 10:13:06.236974  3874 layer_factory.hpp:77] Creating layer conv5_1/sep/scale
I0717 10:13:06.237064  3874 net.cpp:150] Setting up conv5_1/sep/scale
I0717 10:13:06.237069  3874 net.cpp:157] Top shape: 16 512 19 19 (2957312)
I0717 10:13:06.237071  3874 net.cpp:165] Memory required for data: 2005639968
I0717 10:13:06.237076  3874 layer_factory.hpp:77] Creating layer conv5_1/sep_relu
I0717 10:13:06.237082  3874 net.cpp:100] Creating Layer conv5_1/sep_relu
I0717 10:13:06.237083  3874 net.cpp:434] conv5_1/sep_relu <- conv5_1/sep
I0717 10:13:06.237089  3874 net.cpp:395] conv5_1/sep_relu -> conv5_1/sep (in-place)
I0717 10:13:06.237239  3874 net.cpp:150] Setting up conv5_1/sep_relu
I0717 10:13:06.237247  3874 net.cpp:157] Top shape: 16 512 19 19 (2957312)
I0717 10:13:06.237248  3874 net.cpp:165] Memory required for data: 2017469216
I0717 10:13:06.237251  3874 layer_factory.hpp:77] Creating layer conv5_2/dw
I0717 10:13:06.237262  3874 net.cpp:100] Creating Layer conv5_2/dw
I0717 10:13:06.237264  3874 net.cpp:434] conv5_2/dw <- conv5_1/sep
I0717 10:13:06.237269  3874 net.cpp:408] conv5_2/dw -> conv5_2/dw
I0717 10:13:06.237459  3874 net.cpp:150] Setting up conv5_2/dw
I0717 10:13:06.237465  3874 net.cpp:157] Top shape: 16 512 19 19 (2957312)
I0717 10:13:06.237468  3874 net.cpp:165] Memory required for data: 2029298464
I0717 10:13:06.237471  3874 layer_factory.hpp:77] Creating layer conv5_2/dw/bn
I0717 10:13:06.237476  3874 net.cpp:100] Creating Layer conv5_2/dw/bn
I0717 10:13:06.237479  3874 net.cpp:434] conv5_2/dw/bn <- conv5_2/dw
I0717 10:13:06.237484  3874 net.cpp:395] conv5_2/dw/bn -> conv5_2/dw (in-place)
I0717 10:13:06.237637  3874 net.cpp:150] Setting up conv5_2/dw/bn
I0717 10:13:06.237643  3874 net.cpp:157] Top shape: 16 512 19 19 (2957312)
I0717 10:13:06.237645  3874 net.cpp:165] Memory required for data: 2041127712
I0717 10:13:06.237651  3874 layer_factory.hpp:77] Creating layer conv5_2/dw/scale
I0717 10:13:06.237663  3874 net.cpp:100] Creating Layer conv5_2/dw/scale
I0717 10:13:06.237668  3874 net.cpp:434] conv5_2/dw/scale <- conv5_2/dw
I0717 10:13:06.237670  3874 net.cpp:395] conv5_2/dw/scale -> conv5_2/dw (in-place)
I0717 10:13:06.237709  3874 layer_factory.hpp:77] Creating layer conv5_2/dw/scale
I0717 10:13:06.237797  3874 net.cpp:150] Setting up conv5_2/dw/scale
I0717 10:13:06.237803  3874 net.cpp:157] Top shape: 16 512 19 19 (2957312)
I0717 10:13:06.237805  3874 net.cpp:165] Memory required for data: 2052956960
I0717 10:13:06.237810  3874 layer_factory.hpp:77] Creating layer conv5_2/dw_relu
I0717 10:13:06.237815  3874 net.cpp:100] Creating Layer conv5_2/dw_relu
I0717 10:13:06.237818  3874 net.cpp:434] conv5_2/dw_relu <- conv5_2/dw
I0717 10:13:06.237821  3874 net.cpp:395] conv5_2/dw_relu -> conv5_2/dw (in-place)
I0717 10:13:06.238373  3874 net.cpp:150] Setting up conv5_2/dw_relu
I0717 10:13:06.238384  3874 net.cpp:157] Top shape: 16 512 19 19 (2957312)
I0717 10:13:06.238384  3874 net.cpp:165] Memory required for data: 2064786208
I0717 10:13:06.238386  3874 layer_factory.hpp:77] Creating layer conv5_2/sep
I0717 10:13:06.238394  3874 net.cpp:100] Creating Layer conv5_2/sep
I0717 10:13:06.238396  3874 net.cpp:434] conv5_2/sep <- conv5_2/dw
I0717 10:13:06.238400  3874 net.cpp:408] conv5_2/sep -> conv5_2/sep
I0717 10:13:06.241706  3874 net.cpp:150] Setting up conv5_2/sep
I0717 10:13:06.241715  3874 net.cpp:157] Top shape: 16 512 19 19 (2957312)
I0717 10:13:06.241717  3874 net.cpp:165] Memory required for data: 2076615456
I0717 10:13:06.241721  3874 layer_factory.hpp:77] Creating layer conv5_2/sep/bn
I0717 10:13:06.241726  3874 net.cpp:100] Creating Layer conv5_2/sep/bn
I0717 10:13:06.241729  3874 net.cpp:434] conv5_2/sep/bn <- conv5_2/sep
I0717 10:13:06.241731  3874 net.cpp:395] conv5_2/sep/bn -> conv5_2/sep (in-place)
I0717 10:13:06.241888  3874 net.cpp:150] Setting up conv5_2/sep/bn
I0717 10:13:06.241894  3874 net.cpp:157] Top shape: 16 512 19 19 (2957312)
I0717 10:13:06.241896  3874 net.cpp:165] Memory required for data: 2088444704
I0717 10:13:06.241900  3874 layer_factory.hpp:77] Creating layer conv5_2/sep/scale
I0717 10:13:06.241904  3874 net.cpp:100] Creating Layer conv5_2/sep/scale
I0717 10:13:06.241906  3874 net.cpp:434] conv5_2/sep/scale <- conv5_2/sep
I0717 10:13:06.241909  3874 net.cpp:395] conv5_2/sep/scale -> conv5_2/sep (in-place)
I0717 10:13:06.241945  3874 layer_factory.hpp:77] Creating layer conv5_2/sep/scale
I0717 10:13:06.242030  3874 net.cpp:150] Setting up conv5_2/sep/scale
I0717 10:13:06.242036  3874 net.cpp:157] Top shape: 16 512 19 19 (2957312)
I0717 10:13:06.242038  3874 net.cpp:165] Memory required for data: 2100273952
I0717 10:13:06.242041  3874 layer_factory.hpp:77] Creating layer conv5_2/sep_relu
I0717 10:13:06.242053  3874 net.cpp:100] Creating Layer conv5_2/sep_relu
I0717 10:13:06.242055  3874 net.cpp:434] conv5_2/sep_relu <- conv5_2/sep
I0717 10:13:06.242058  3874 net.cpp:395] conv5_2/sep_relu -> conv5_2/sep (in-place)
I0717 10:13:06.242607  3874 net.cpp:150] Setting up conv5_2/sep_relu
I0717 10:13:06.242619  3874 net.cpp:157] Top shape: 16 512 19 19 (2957312)
I0717 10:13:06.242619  3874 net.cpp:165] Memory required for data: 2112103200
I0717 10:13:06.242621  3874 layer_factory.hpp:77] Creating layer conv5_3/dw
I0717 10:13:06.242629  3874 net.cpp:100] Creating Layer conv5_3/dw
I0717 10:13:06.242630  3874 net.cpp:434] conv5_3/dw <- conv5_2/sep
I0717 10:13:06.242635  3874 net.cpp:408] conv5_3/dw -> conv5_3/dw
I0717 10:13:06.242837  3874 net.cpp:150] Setting up conv5_3/dw
I0717 10:13:06.242844  3874 net.cpp:157] Top shape: 16 512 19 19 (2957312)
I0717 10:13:06.242846  3874 net.cpp:165] Memory required for data: 2123932448
I0717 10:13:06.242849  3874 layer_factory.hpp:77] Creating layer conv5_3/dw/bn
I0717 10:13:06.242853  3874 net.cpp:100] Creating Layer conv5_3/dw/bn
I0717 10:13:06.242856  3874 net.cpp:434] conv5_3/dw/bn <- conv5_3/dw
I0717 10:13:06.242858  3874 net.cpp:395] conv5_3/dw/bn -> conv5_3/dw (in-place)
I0717 10:13:06.243008  3874 net.cpp:150] Setting up conv5_3/dw/bn
I0717 10:13:06.243015  3874 net.cpp:157] Top shape: 16 512 19 19 (2957312)
I0717 10:13:06.243016  3874 net.cpp:165] Memory required for data: 2135761696
I0717 10:13:06.243021  3874 layer_factory.hpp:77] Creating layer conv5_3/dw/scale
I0717 10:13:06.243024  3874 net.cpp:100] Creating Layer conv5_3/dw/scale
I0717 10:13:06.243026  3874 net.cpp:434] conv5_3/dw/scale <- conv5_3/dw
I0717 10:13:06.243031  3874 net.cpp:395] conv5_3/dw/scale -> conv5_3/dw (in-place)
I0717 10:13:06.243063  3874 layer_factory.hpp:77] Creating layer conv5_3/dw/scale
I0717 10:13:06.243151  3874 net.cpp:150] Setting up conv5_3/dw/scale
I0717 10:13:06.243156  3874 net.cpp:157] Top shape: 16 512 19 19 (2957312)
I0717 10:13:06.243158  3874 net.cpp:165] Memory required for data: 2147590944
I0717 10:13:06.243162  3874 layer_factory.hpp:77] Creating layer conv5_3/dw_relu
I0717 10:13:06.243166  3874 net.cpp:100] Creating Layer conv5_3/dw_relu
I0717 10:13:06.243168  3874 net.cpp:434] conv5_3/dw_relu <- conv5_3/dw
I0717 10:13:06.243170  3874 net.cpp:395] conv5_3/dw_relu -> conv5_3/dw (in-place)
I0717 10:13:06.243711  3874 net.cpp:150] Setting up conv5_3/dw_relu
I0717 10:13:06.243721  3874 net.cpp:157] Top shape: 16 512 19 19 (2957312)
I0717 10:13:06.243723  3874 net.cpp:165] Memory required for data: 2159420192
I0717 10:13:06.243726  3874 layer_factory.hpp:77] Creating layer conv5_3/sep
I0717 10:13:06.243731  3874 net.cpp:100] Creating Layer conv5_3/sep
I0717 10:13:06.243734  3874 net.cpp:434] conv5_3/sep <- conv5_3/dw
I0717 10:13:06.243737  3874 net.cpp:408] conv5_3/sep -> conv5_3/sep
I0717 10:13:06.247066  3874 net.cpp:150] Setting up conv5_3/sep
I0717 10:13:06.247076  3874 net.cpp:157] Top shape: 16 512 19 19 (2957312)
I0717 10:13:06.247078  3874 net.cpp:165] Memory required for data: 2171249440
I0717 10:13:06.247082  3874 layer_factory.hpp:77] Creating layer conv5_3/sep/bn
I0717 10:13:06.247087  3874 net.cpp:100] Creating Layer conv5_3/sep/bn
I0717 10:13:06.247089  3874 net.cpp:434] conv5_3/sep/bn <- conv5_3/sep
I0717 10:13:06.247093  3874 net.cpp:395] conv5_3/sep/bn -> conv5_3/sep (in-place)
I0717 10:13:06.247256  3874 net.cpp:150] Setting up conv5_3/sep/bn
I0717 10:13:06.247262  3874 net.cpp:157] Top shape: 16 512 19 19 (2957312)
I0717 10:13:06.247264  3874 net.cpp:165] Memory required for data: 2183078688
I0717 10:13:06.247270  3874 layer_factory.hpp:77] Creating layer conv5_3/sep/scale
I0717 10:13:06.247277  3874 net.cpp:100] Creating Layer conv5_3/sep/scale
I0717 10:13:06.247280  3874 net.cpp:434] conv5_3/sep/scale <- conv5_3/sep
I0717 10:13:06.247284  3874 net.cpp:395] conv5_3/sep/scale -> conv5_3/sep (in-place)
I0717 10:13:06.247323  3874 layer_factory.hpp:77] Creating layer conv5_3/sep/scale
I0717 10:13:06.247417  3874 net.cpp:150] Setting up conv5_3/sep/scale
I0717 10:13:06.247432  3874 net.cpp:157] Top shape: 16 512 19 19 (2957312)
I0717 10:13:06.247437  3874 net.cpp:165] Memory required for data: 2194907936
I0717 10:13:06.247440  3874 layer_factory.hpp:77] Creating layer conv5_3/sep_relu
I0717 10:13:06.247445  3874 net.cpp:100] Creating Layer conv5_3/sep_relu
I0717 10:13:06.247448  3874 net.cpp:434] conv5_3/sep_relu <- conv5_3/sep
I0717 10:13:06.247452  3874 net.cpp:395] conv5_3/sep_relu -> conv5_3/sep (in-place)
I0717 10:13:06.247999  3874 net.cpp:150] Setting up conv5_3/sep_relu
I0717 10:13:06.248008  3874 net.cpp:157] Top shape: 16 512 19 19 (2957312)
I0717 10:13:06.248010  3874 net.cpp:165] Memory required for data: 2206737184
I0717 10:13:06.248013  3874 layer_factory.hpp:77] Creating layer conv5_4/dw
I0717 10:13:06.248018  3874 net.cpp:100] Creating Layer conv5_4/dw
I0717 10:13:06.248021  3874 net.cpp:434] conv5_4/dw <- conv5_3/sep
I0717 10:13:06.248025  3874 net.cpp:408] conv5_4/dw -> conv5_4/dw
I0717 10:13:06.248224  3874 net.cpp:150] Setting up conv5_4/dw
I0717 10:13:06.248231  3874 net.cpp:157] Top shape: 16 512 19 19 (2957312)
I0717 10:13:06.248234  3874 net.cpp:165] Memory required for data: 2218566432
I0717 10:13:06.248239  3874 layer_factory.hpp:77] Creating layer conv5_4/dw/bn
I0717 10:13:06.248242  3874 net.cpp:100] Creating Layer conv5_4/dw/bn
I0717 10:13:06.248245  3874 net.cpp:434] conv5_4/dw/bn <- conv5_4/dw
I0717 10:13:06.248250  3874 net.cpp:395] conv5_4/dw/bn -> conv5_4/dw (in-place)
I0717 10:13:06.248407  3874 net.cpp:150] Setting up conv5_4/dw/bn
I0717 10:13:06.248414  3874 net.cpp:157] Top shape: 16 512 19 19 (2957312)
I0717 10:13:06.248415  3874 net.cpp:165] Memory required for data: 2230395680
I0717 10:13:06.248421  3874 layer_factory.hpp:77] Creating layer conv5_4/dw/scale
I0717 10:13:06.248427  3874 net.cpp:100] Creating Layer conv5_4/dw/scale
I0717 10:13:06.248430  3874 net.cpp:434] conv5_4/dw/scale <- conv5_4/dw
I0717 10:13:06.248435  3874 net.cpp:395] conv5_4/dw/scale -> conv5_4/dw (in-place)
I0717 10:13:06.248474  3874 layer_factory.hpp:77] Creating layer conv5_4/dw/scale
I0717 10:13:06.248566  3874 net.cpp:150] Setting up conv5_4/dw/scale
I0717 10:13:06.248572  3874 net.cpp:157] Top shape: 16 512 19 19 (2957312)
I0717 10:13:06.248574  3874 net.cpp:165] Memory required for data: 2242224928
I0717 10:13:06.248580  3874 layer_factory.hpp:77] Creating layer conv5_4/dw_relu
I0717 10:13:06.248584  3874 net.cpp:100] Creating Layer conv5_4/dw_relu
I0717 10:13:06.248587  3874 net.cpp:434] conv5_4/dw_relu <- conv5_4/dw
I0717 10:13:06.248591  3874 net.cpp:395] conv5_4/dw_relu -> conv5_4/dw (in-place)
I0717 10:13:06.248730  3874 net.cpp:150] Setting up conv5_4/dw_relu
I0717 10:13:06.248738  3874 net.cpp:157] Top shape: 16 512 19 19 (2957312)
I0717 10:13:06.248739  3874 net.cpp:165] Memory required for data: 2254054176
I0717 10:13:06.248742  3874 layer_factory.hpp:77] Creating layer conv5_4/sep
I0717 10:13:06.248750  3874 net.cpp:100] Creating Layer conv5_4/sep
I0717 10:13:06.248754  3874 net.cpp:434] conv5_4/sep <- conv5_4/dw
I0717 10:13:06.248759  3874 net.cpp:408] conv5_4/sep -> conv5_4/sep
I0717 10:13:06.252485  3874 net.cpp:150] Setting up conv5_4/sep
I0717 10:13:06.252496  3874 net.cpp:157] Top shape: 16 512 19 19 (2957312)
I0717 10:13:06.252497  3874 net.cpp:165] Memory required for data: 2265883424
I0717 10:13:06.252501  3874 layer_factory.hpp:77] Creating layer conv5_4/sep/bn
I0717 10:13:06.252506  3874 net.cpp:100] Creating Layer conv5_4/sep/bn
I0717 10:13:06.252508  3874 net.cpp:434] conv5_4/sep/bn <- conv5_4/sep
I0717 10:13:06.252511  3874 net.cpp:395] conv5_4/sep/bn -> conv5_4/sep (in-place)
I0717 10:13:06.252679  3874 net.cpp:150] Setting up conv5_4/sep/bn
I0717 10:13:06.252686  3874 net.cpp:157] Top shape: 16 512 19 19 (2957312)
I0717 10:13:06.252688  3874 net.cpp:165] Memory required for data: 2277712672
I0717 10:13:06.252694  3874 layer_factory.hpp:77] Creating layer conv5_4/sep/scale
I0717 10:13:06.252701  3874 net.cpp:100] Creating Layer conv5_4/sep/scale
I0717 10:13:06.252702  3874 net.cpp:434] conv5_4/sep/scale <- conv5_4/sep
I0717 10:13:06.252717  3874 net.cpp:395] conv5_4/sep/scale -> conv5_4/sep (in-place)
I0717 10:13:06.252756  3874 layer_factory.hpp:77] Creating layer conv5_4/sep/scale
I0717 10:13:06.252851  3874 net.cpp:150] Setting up conv5_4/sep/scale
I0717 10:13:06.252856  3874 net.cpp:157] Top shape: 16 512 19 19 (2957312)
I0717 10:13:06.252858  3874 net.cpp:165] Memory required for data: 2289541920
I0717 10:13:06.252864  3874 layer_factory.hpp:77] Creating layer conv5_4/sep_relu
I0717 10:13:06.252869  3874 net.cpp:100] Creating Layer conv5_4/sep_relu
I0717 10:13:06.252871  3874 net.cpp:434] conv5_4/sep_relu <- conv5_4/sep
I0717 10:13:06.252876  3874 net.cpp:395] conv5_4/sep_relu -> conv5_4/sep (in-place)
I0717 10:13:06.253422  3874 net.cpp:150] Setting up conv5_4/sep_relu
I0717 10:13:06.253432  3874 net.cpp:157] Top shape: 16 512 19 19 (2957312)
I0717 10:13:06.253433  3874 net.cpp:165] Memory required for data: 2301371168
I0717 10:13:06.253435  3874 layer_factory.hpp:77] Creating layer conv5_5/dw
I0717 10:13:06.253443  3874 net.cpp:100] Creating Layer conv5_5/dw
I0717 10:13:06.253444  3874 net.cpp:434] conv5_5/dw <- conv5_4/sep
I0717 10:13:06.253448  3874 net.cpp:408] conv5_5/dw -> conv5_5/dw
I0717 10:13:06.253648  3874 net.cpp:150] Setting up conv5_5/dw
I0717 10:13:06.253654  3874 net.cpp:157] Top shape: 16 512 19 19 (2957312)
I0717 10:13:06.253655  3874 net.cpp:165] Memory required for data: 2313200416
I0717 10:13:06.253659  3874 layer_factory.hpp:77] Creating layer conv5_5/dw/bn
I0717 10:13:06.253662  3874 net.cpp:100] Creating Layer conv5_5/dw/bn
I0717 10:13:06.253664  3874 net.cpp:434] conv5_5/dw/bn <- conv5_5/dw
I0717 10:13:06.253667  3874 net.cpp:395] conv5_5/dw/bn -> conv5_5/dw (in-place)
I0717 10:13:06.253823  3874 net.cpp:150] Setting up conv5_5/dw/bn
I0717 10:13:06.253829  3874 net.cpp:157] Top shape: 16 512 19 19 (2957312)
I0717 10:13:06.253830  3874 net.cpp:165] Memory required for data: 2325029664
I0717 10:13:06.253844  3874 layer_factory.hpp:77] Creating layer conv5_5/dw/scale
I0717 10:13:06.253849  3874 net.cpp:100] Creating Layer conv5_5/dw/scale
I0717 10:13:06.253851  3874 net.cpp:434] conv5_5/dw/scale <- conv5_5/dw
I0717 10:13:06.253855  3874 net.cpp:395] conv5_5/dw/scale -> conv5_5/dw (in-place)
I0717 10:13:06.253891  3874 layer_factory.hpp:77] Creating layer conv5_5/dw/scale
I0717 10:13:06.253980  3874 net.cpp:150] Setting up conv5_5/dw/scale
I0717 10:13:06.253986  3874 net.cpp:157] Top shape: 16 512 19 19 (2957312)
I0717 10:13:06.253988  3874 net.cpp:165] Memory required for data: 2336858912
I0717 10:13:06.253991  3874 layer_factory.hpp:77] Creating layer conv5_5/dw_relu
I0717 10:13:06.253995  3874 net.cpp:100] Creating Layer conv5_5/dw_relu
I0717 10:13:06.253998  3874 net.cpp:434] conv5_5/dw_relu <- conv5_5/dw
I0717 10:13:06.254000  3874 net.cpp:395] conv5_5/dw_relu -> conv5_5/dw (in-place)
I0717 10:13:06.254140  3874 net.cpp:150] Setting up conv5_5/dw_relu
I0717 10:13:06.254148  3874 net.cpp:157] Top shape: 16 512 19 19 (2957312)
I0717 10:13:06.254149  3874 net.cpp:165] Memory required for data: 2348688160
I0717 10:13:06.254151  3874 layer_factory.hpp:77] Creating layer conv5_5/sep
I0717 10:13:06.254158  3874 net.cpp:100] Creating Layer conv5_5/sep
I0717 10:13:06.254159  3874 net.cpp:434] conv5_5/sep <- conv5_5/dw
I0717 10:13:06.254163  3874 net.cpp:408] conv5_5/sep -> conv5_5/sep
I0717 10:13:06.257867  3874 net.cpp:150] Setting up conv5_5/sep
I0717 10:13:06.257877  3874 net.cpp:157] Top shape: 16 512 19 19 (2957312)
I0717 10:13:06.257879  3874 net.cpp:165] Memory required for data: 2360517408
I0717 10:13:06.257882  3874 layer_factory.hpp:77] Creating layer conv5_5/sep/bn
I0717 10:13:06.257887  3874 net.cpp:100] Creating Layer conv5_5/sep/bn
I0717 10:13:06.257889  3874 net.cpp:434] conv5_5/sep/bn <- conv5_5/sep
I0717 10:13:06.257892  3874 net.cpp:395] conv5_5/sep/bn -> conv5_5/sep (in-place)
I0717 10:13:06.258055  3874 net.cpp:150] Setting up conv5_5/sep/bn
I0717 10:13:06.258060  3874 net.cpp:157] Top shape: 16 512 19 19 (2957312)
I0717 10:13:06.258062  3874 net.cpp:165] Memory required for data: 2372346656
I0717 10:13:06.258075  3874 layer_factory.hpp:77] Creating layer conv5_5/sep/scale
I0717 10:13:06.258080  3874 net.cpp:100] Creating Layer conv5_5/sep/scale
I0717 10:13:06.258081  3874 net.cpp:434] conv5_5/sep/scale <- conv5_5/sep
I0717 10:13:06.258085  3874 net.cpp:395] conv5_5/sep/scale -> conv5_5/sep (in-place)
I0717 10:13:06.258122  3874 layer_factory.hpp:77] Creating layer conv5_5/sep/scale
I0717 10:13:06.258218  3874 net.cpp:150] Setting up conv5_5/sep/scale
I0717 10:13:06.258224  3874 net.cpp:157] Top shape: 16 512 19 19 (2957312)
I0717 10:13:06.258225  3874 net.cpp:165] Memory required for data: 2384175904
I0717 10:13:06.258229  3874 layer_factory.hpp:77] Creating layer conv5_5/sep_relu
I0717 10:13:06.258232  3874 net.cpp:100] Creating Layer conv5_5/sep_relu
I0717 10:13:06.258234  3874 net.cpp:434] conv5_5/sep_relu <- conv5_5/sep
I0717 10:13:06.258236  3874 net.cpp:395] conv5_5/sep_relu -> conv5_5/sep (in-place)
I0717 10:13:06.258798  3874 net.cpp:150] Setting up conv5_5/sep_relu
I0717 10:13:06.258807  3874 net.cpp:157] Top shape: 16 512 19 19 (2957312)
I0717 10:13:06.258810  3874 net.cpp:165] Memory required for data: 2396005152
I0717 10:13:06.258811  3874 layer_factory.hpp:77] Creating layer conv5_5/sep_conv5_5/sep_relu_0_split
I0717 10:13:06.258816  3874 net.cpp:100] Creating Layer conv5_5/sep_conv5_5/sep_relu_0_split
I0717 10:13:06.258818  3874 net.cpp:434] conv5_5/sep_conv5_5/sep_relu_0_split <- conv5_5/sep
I0717 10:13:06.258823  3874 net.cpp:408] conv5_5/sep_conv5_5/sep_relu_0_split -> conv5_5/sep_conv5_5/sep_relu_0_split_0
I0717 10:13:06.258831  3874 net.cpp:408] conv5_5/sep_conv5_5/sep_relu_0_split -> conv5_5/sep_conv5_5/sep_relu_0_split_1
I0717 10:13:06.258836  3874 net.cpp:408] conv5_5/sep_conv5_5/sep_relu_0_split -> conv5_5/sep_conv5_5/sep_relu_0_split_2
I0717 10:13:06.258839  3874 net.cpp:408] conv5_5/sep_conv5_5/sep_relu_0_split -> conv5_5/sep_conv5_5/sep_relu_0_split_3
I0717 10:13:06.258896  3874 net.cpp:150] Setting up conv5_5/sep_conv5_5/sep_relu_0_split
I0717 10:13:06.258901  3874 net.cpp:157] Top shape: 16 512 19 19 (2957312)
I0717 10:13:06.258903  3874 net.cpp:157] Top shape: 16 512 19 19 (2957312)
I0717 10:13:06.258906  3874 net.cpp:157] Top shape: 16 512 19 19 (2957312)
I0717 10:13:06.258908  3874 net.cpp:157] Top shape: 16 512 19 19 (2957312)
I0717 10:13:06.258909  3874 net.cpp:165] Memory required for data: 2443322144
I0717 10:13:06.258911  3874 layer_factory.hpp:77] Creating layer conv5_6/dw
I0717 10:13:06.258919  3874 net.cpp:100] Creating Layer conv5_6/dw
I0717 10:13:06.258921  3874 net.cpp:434] conv5_6/dw <- conv5_5/sep_conv5_5/sep_relu_0_split_0
I0717 10:13:06.258925  3874 net.cpp:408] conv5_6/dw -> conv5_6/dw
I0717 10:13:06.259110  3874 net.cpp:150] Setting up conv5_6/dw
I0717 10:13:06.259116  3874 net.cpp:157] Top shape: 16 512 10 10 (819200)
I0717 10:13:06.259119  3874 net.cpp:165] Memory required for data: 2446598944
I0717 10:13:06.259121  3874 layer_factory.hpp:77] Creating layer conv5_6/dw/bn
I0717 10:13:06.259124  3874 net.cpp:100] Creating Layer conv5_6/dw/bn
I0717 10:13:06.259126  3874 net.cpp:434] conv5_6/dw/bn <- conv5_6/dw
I0717 10:13:06.259130  3874 net.cpp:395] conv5_6/dw/bn -> conv5_6/dw (in-place)
I0717 10:13:06.259289  3874 net.cpp:150] Setting up conv5_6/dw/bn
I0717 10:13:06.259294  3874 net.cpp:157] Top shape: 16 512 10 10 (819200)
I0717 10:13:06.259295  3874 net.cpp:165] Memory required for data: 2449875744
I0717 10:13:06.259299  3874 layer_factory.hpp:77] Creating layer conv5_6/dw/scale
I0717 10:13:06.259305  3874 net.cpp:100] Creating Layer conv5_6/dw/scale
I0717 10:13:06.259306  3874 net.cpp:434] conv5_6/dw/scale <- conv5_6/dw
I0717 10:13:06.259310  3874 net.cpp:395] conv5_6/dw/scale -> conv5_6/dw (in-place)
I0717 10:13:06.259340  3874 layer_factory.hpp:77] Creating layer conv5_6/dw/scale
I0717 10:13:06.259434  3874 net.cpp:150] Setting up conv5_6/dw/scale
I0717 10:13:06.259440  3874 net.cpp:157] Top shape: 16 512 10 10 (819200)
I0717 10:13:06.259441  3874 net.cpp:165] Memory required for data: 2453152544
I0717 10:13:06.259445  3874 layer_factory.hpp:77] Creating layer conv5_6/dw_relu
I0717 10:13:06.259457  3874 net.cpp:100] Creating Layer conv5_6/dw_relu
I0717 10:13:06.259459  3874 net.cpp:434] conv5_6/dw_relu <- conv5_6/dw
I0717 10:13:06.259462  3874 net.cpp:395] conv5_6/dw_relu -> conv5_6/dw (in-place)
I0717 10:13:06.260000  3874 net.cpp:150] Setting up conv5_6/dw_relu
I0717 10:13:06.260010  3874 net.cpp:157] Top shape: 16 512 10 10 (819200)
I0717 10:13:06.260011  3874 net.cpp:165] Memory required for data: 2456429344
I0717 10:13:06.260013  3874 layer_factory.hpp:77] Creating layer conv5_6/sep
I0717 10:13:06.260020  3874 net.cpp:100] Creating Layer conv5_6/sep
I0717 10:13:06.260022  3874 net.cpp:434] conv5_6/sep <- conv5_6/dw
I0717 10:13:06.260026  3874 net.cpp:408] conv5_6/sep -> conv5_6/sep
I0717 10:13:06.265967  3874 net.cpp:150] Setting up conv5_6/sep
I0717 10:13:06.265980  3874 net.cpp:157] Top shape: 16 1024 10 10 (1638400)
I0717 10:13:06.265981  3874 net.cpp:165] Memory required for data: 2462982944
I0717 10:13:06.265985  3874 layer_factory.hpp:77] Creating layer conv5_6/sep/bn
I0717 10:13:06.265988  3874 net.cpp:100] Creating Layer conv5_6/sep/bn
I0717 10:13:06.265991  3874 net.cpp:434] conv5_6/sep/bn <- conv5_6/sep
I0717 10:13:06.265995  3874 net.cpp:395] conv5_6/sep/bn -> conv5_6/sep (in-place)
I0717 10:13:06.266166  3874 net.cpp:150] Setting up conv5_6/sep/bn
I0717 10:13:06.266173  3874 net.cpp:157] Top shape: 16 1024 10 10 (1638400)
I0717 10:13:06.266175  3874 net.cpp:165] Memory required for data: 2469536544
I0717 10:13:06.266180  3874 layer_factory.hpp:77] Creating layer conv5_6/sep/scale
I0717 10:13:06.266185  3874 net.cpp:100] Creating Layer conv5_6/sep/scale
I0717 10:13:06.266186  3874 net.cpp:434] conv5_6/sep/scale <- conv5_6/sep
I0717 10:13:06.266191  3874 net.cpp:395] conv5_6/sep/scale -> conv5_6/sep (in-place)
I0717 10:13:06.266222  3874 layer_factory.hpp:77] Creating layer conv5_6/sep/scale
I0717 10:13:06.266315  3874 net.cpp:150] Setting up conv5_6/sep/scale
I0717 10:13:06.266320  3874 net.cpp:157] Top shape: 16 1024 10 10 (1638400)
I0717 10:13:06.266322  3874 net.cpp:165] Memory required for data: 2476090144
I0717 10:13:06.266325  3874 layer_factory.hpp:77] Creating layer conv5_6/sep_relu
I0717 10:13:06.266330  3874 net.cpp:100] Creating Layer conv5_6/sep_relu
I0717 10:13:06.266331  3874 net.cpp:434] conv5_6/sep_relu <- conv5_6/sep
I0717 10:13:06.266335  3874 net.cpp:395] conv5_6/sep_relu -> conv5_6/sep (in-place)
I0717 10:13:06.266486  3874 net.cpp:150] Setting up conv5_6/sep_relu
I0717 10:13:06.266494  3874 net.cpp:157] Top shape: 16 1024 10 10 (1638400)
I0717 10:13:06.266496  3874 net.cpp:165] Memory required for data: 2482643744
I0717 10:13:06.266499  3874 layer_factory.hpp:77] Creating layer conv6/dw
I0717 10:13:06.266505  3874 net.cpp:100] Creating Layer conv6/dw
I0717 10:13:06.266506  3874 net.cpp:434] conv6/dw <- conv5_6/sep
I0717 10:13:06.266510  3874 net.cpp:408] conv6/dw -> conv6/dw
I0717 10:13:06.266743  3874 net.cpp:150] Setting up conv6/dw
I0717 10:13:06.266749  3874 net.cpp:157] Top shape: 16 1024 10 10 (1638400)
I0717 10:13:06.266752  3874 net.cpp:165] Memory required for data: 2489197344
I0717 10:13:06.266754  3874 layer_factory.hpp:77] Creating layer conv6/dw/bn
I0717 10:13:06.266757  3874 net.cpp:100] Creating Layer conv6/dw/bn
I0717 10:13:06.266759  3874 net.cpp:434] conv6/dw/bn <- conv6/dw
I0717 10:13:06.266763  3874 net.cpp:395] conv6/dw/bn -> conv6/dw (in-place)
I0717 10:13:06.266922  3874 net.cpp:150] Setting up conv6/dw/bn
I0717 10:13:06.266927  3874 net.cpp:157] Top shape: 16 1024 10 10 (1638400)
I0717 10:13:06.266929  3874 net.cpp:165] Memory required for data: 2495750944
I0717 10:13:06.266933  3874 layer_factory.hpp:77] Creating layer conv6/dw/scale
I0717 10:13:06.266937  3874 net.cpp:100] Creating Layer conv6/dw/scale
I0717 10:13:06.266939  3874 net.cpp:434] conv6/dw/scale <- conv6/dw
I0717 10:13:06.266943  3874 net.cpp:395] conv6/dw/scale -> conv6/dw (in-place)
I0717 10:13:06.266973  3874 layer_factory.hpp:77] Creating layer conv6/dw/scale
I0717 10:13:06.267068  3874 net.cpp:150] Setting up conv6/dw/scale
I0717 10:13:06.267082  3874 net.cpp:157] Top shape: 16 1024 10 10 (1638400)
I0717 10:13:06.267084  3874 net.cpp:165] Memory required for data: 2502304544
I0717 10:13:06.267087  3874 layer_factory.hpp:77] Creating layer conv6/dw_relu
I0717 10:13:06.267091  3874 net.cpp:100] Creating Layer conv6/dw_relu
I0717 10:13:06.267093  3874 net.cpp:434] conv6/dw_relu <- conv6/dw
I0717 10:13:06.267096  3874 net.cpp:395] conv6/dw_relu -> conv6/dw (in-place)
I0717 10:13:06.267638  3874 net.cpp:150] Setting up conv6/dw_relu
I0717 10:13:06.267647  3874 net.cpp:157] Top shape: 16 1024 10 10 (1638400)
I0717 10:13:06.267649  3874 net.cpp:165] Memory required for data: 2508858144
I0717 10:13:06.267652  3874 layer_factory.hpp:77] Creating layer conv6/sep
I0717 10:13:06.267658  3874 net.cpp:100] Creating Layer conv6/sep
I0717 10:13:06.267660  3874 net.cpp:434] conv6/sep <- conv6/dw
I0717 10:13:06.267664  3874 net.cpp:408] conv6/sep -> conv6/sep
I0717 10:13:06.277878  3874 net.cpp:150] Setting up conv6/sep
I0717 10:13:06.277890  3874 net.cpp:157] Top shape: 16 1024 10 10 (1638400)
I0717 10:13:06.277892  3874 net.cpp:165] Memory required for data: 2515411744
I0717 10:13:06.277896  3874 layer_factory.hpp:77] Creating layer conv6/sep/bn
I0717 10:13:06.277901  3874 net.cpp:100] Creating Layer conv6/sep/bn
I0717 10:13:06.277904  3874 net.cpp:434] conv6/sep/bn <- conv6/sep
I0717 10:13:06.277906  3874 net.cpp:395] conv6/sep/bn -> conv6/sep (in-place)
I0717 10:13:06.278084  3874 net.cpp:150] Setting up conv6/sep/bn
I0717 10:13:06.278090  3874 net.cpp:157] Top shape: 16 1024 10 10 (1638400)
I0717 10:13:06.278091  3874 net.cpp:165] Memory required for data: 2521965344
I0717 10:13:06.278096  3874 layer_factory.hpp:77] Creating layer conv6/sep/scale
I0717 10:13:06.278102  3874 net.cpp:100] Creating Layer conv6/sep/scale
I0717 10:13:06.278105  3874 net.cpp:434] conv6/sep/scale <- conv6/sep
I0717 10:13:06.278110  3874 net.cpp:395] conv6/sep/scale -> conv6/sep (in-place)
I0717 10:13:06.278149  3874 layer_factory.hpp:77] Creating layer conv6/sep/scale
I0717 10:13:06.278249  3874 net.cpp:150] Setting up conv6/sep/scale
I0717 10:13:06.278255  3874 net.cpp:157] Top shape: 16 1024 10 10 (1638400)
I0717 10:13:06.278257  3874 net.cpp:165] Memory required for data: 2528518944
I0717 10:13:06.278261  3874 layer_factory.hpp:77] Creating layer conv6/sep_relu
I0717 10:13:06.278267  3874 net.cpp:100] Creating Layer conv6/sep_relu
I0717 10:13:06.278270  3874 net.cpp:434] conv6/sep_relu <- conv6/sep
I0717 10:13:06.278275  3874 net.cpp:395] conv6/sep_relu -> conv6/sep (in-place)
I0717 10:13:06.278422  3874 net.cpp:150] Setting up conv6/sep_relu
I0717 10:13:06.278429  3874 net.cpp:157] Top shape: 16 1024 10 10 (1638400)
I0717 10:13:06.278431  3874 net.cpp:165] Memory required for data: 2535072544
I0717 10:13:06.278434  3874 layer_factory.hpp:77] Creating layer conv6/sep_conv6/sep_relu_0_split
I0717 10:13:06.278437  3874 net.cpp:100] Creating Layer conv6/sep_conv6/sep_relu_0_split
I0717 10:13:06.278440  3874 net.cpp:434] conv6/sep_conv6/sep_relu_0_split <- conv6/sep
I0717 10:13:06.278445  3874 net.cpp:408] conv6/sep_conv6/sep_relu_0_split -> conv6/sep_conv6/sep_relu_0_split_0
I0717 10:13:06.278450  3874 net.cpp:408] conv6/sep_conv6/sep_relu_0_split -> conv6/sep_conv6/sep_relu_0_split_1
I0717 10:13:06.278453  3874 net.cpp:408] conv6/sep_conv6/sep_relu_0_split -> conv6/sep_conv6/sep_relu_0_split_2
I0717 10:13:06.278458  3874 net.cpp:408] conv6/sep_conv6/sep_relu_0_split -> conv6/sep_conv6/sep_relu_0_split_3
I0717 10:13:06.278518  3874 net.cpp:150] Setting up conv6/sep_conv6/sep_relu_0_split
I0717 10:13:06.278524  3874 net.cpp:157] Top shape: 16 1024 10 10 (1638400)
I0717 10:13:06.278527  3874 net.cpp:157] Top shape: 16 1024 10 10 (1638400)
I0717 10:13:06.278529  3874 net.cpp:157] Top shape: 16 1024 10 10 (1638400)
I0717 10:13:06.278532  3874 net.cpp:157] Top shape: 16 1024 10 10 (1638400)
I0717 10:13:06.278533  3874 net.cpp:165] Memory required for data: 2561286944
I0717 10:13:06.278537  3874 layer_factory.hpp:77] Creating layer conv7_1
I0717 10:13:06.278544  3874 net.cpp:100] Creating Layer conv7_1
I0717 10:13:06.278558  3874 net.cpp:434] conv7_1 <- conv6/sep_conv6/sep_relu_0_split_0
I0717 10:13:06.278563  3874 net.cpp:408] conv7_1 -> conv7_1
I0717 10:13:06.281450  3874 net.cpp:150] Setting up conv7_1
I0717 10:13:06.281461  3874 net.cpp:157] Top shape: 16 256 10 10 (409600)
I0717 10:13:06.281463  3874 net.cpp:165] Memory required for data: 2562925344
I0717 10:13:06.281467  3874 layer_factory.hpp:77] Creating layer conv7_1_relu
I0717 10:13:06.281472  3874 net.cpp:100] Creating Layer conv7_1_relu
I0717 10:13:06.281476  3874 net.cpp:434] conv7_1_relu <- conv7_1
I0717 10:13:06.281479  3874 net.cpp:395] conv7_1_relu -> conv7_1 (in-place)
I0717 10:13:06.282027  3874 net.cpp:150] Setting up conv7_1_relu
I0717 10:13:06.282035  3874 net.cpp:157] Top shape: 16 256 10 10 (409600)
I0717 10:13:06.282037  3874 net.cpp:165] Memory required for data: 2564563744
I0717 10:13:06.282039  3874 layer_factory.hpp:77] Creating layer conv7_2
I0717 10:13:06.282049  3874 net.cpp:100] Creating Layer conv7_2
I0717 10:13:06.282054  3874 net.cpp:434] conv7_2 <- conv7_1
I0717 10:13:06.282059  3874 net.cpp:408] conv7_2 -> conv7_2
I0717 10:13:06.289096  3874 net.cpp:150] Setting up conv7_2
I0717 10:13:06.289114  3874 net.cpp:157] Top shape: 16 512 5 5 (204800)
I0717 10:13:06.289116  3874 net.cpp:165] Memory required for data: 2565382944
I0717 10:13:06.289120  3874 layer_factory.hpp:77] Creating layer conv7_2_relu
I0717 10:13:06.289124  3874 net.cpp:100] Creating Layer conv7_2_relu
I0717 10:13:06.289127  3874 net.cpp:434] conv7_2_relu <- conv7_2
I0717 10:13:06.289130  3874 net.cpp:395] conv7_2_relu -> conv7_2 (in-place)
I0717 10:13:06.289679  3874 net.cpp:150] Setting up conv7_2_relu
I0717 10:13:06.289688  3874 net.cpp:157] Top shape: 16 512 5 5 (204800)
I0717 10:13:06.289690  3874 net.cpp:165] Memory required for data: 2566202144
I0717 10:13:06.289692  3874 layer_factory.hpp:77] Creating layer conv7_2_conv7_2_relu_0_split
I0717 10:13:06.289696  3874 net.cpp:100] Creating Layer conv7_2_conv7_2_relu_0_split
I0717 10:13:06.289700  3874 net.cpp:434] conv7_2_conv7_2_relu_0_split <- conv7_2
I0717 10:13:06.289705  3874 net.cpp:408] conv7_2_conv7_2_relu_0_split -> conv7_2_conv7_2_relu_0_split_0
I0717 10:13:06.289710  3874 net.cpp:408] conv7_2_conv7_2_relu_0_split -> conv7_2_conv7_2_relu_0_split_1
I0717 10:13:06.289716  3874 net.cpp:408] conv7_2_conv7_2_relu_0_split -> conv7_2_conv7_2_relu_0_split_2
I0717 10:13:06.289719  3874 net.cpp:408] conv7_2_conv7_2_relu_0_split -> conv7_2_conv7_2_relu_0_split_3
I0717 10:13:06.289783  3874 net.cpp:150] Setting up conv7_2_conv7_2_relu_0_split
I0717 10:13:06.289789  3874 net.cpp:157] Top shape: 16 512 5 5 (204800)
I0717 10:13:06.289793  3874 net.cpp:157] Top shape: 16 512 5 5 (204800)
I0717 10:13:06.289794  3874 net.cpp:157] Top shape: 16 512 5 5 (204800)
I0717 10:13:06.289796  3874 net.cpp:157] Top shape: 16 512 5 5 (204800)
I0717 10:13:06.289798  3874 net.cpp:165] Memory required for data: 2569478944
I0717 10:13:06.289800  3874 layer_factory.hpp:77] Creating layer conv8_1
I0717 10:13:06.289808  3874 net.cpp:100] Creating Layer conv8_1
I0717 10:13:06.289809  3874 net.cpp:434] conv8_1 <- conv7_2_conv7_2_relu_0_split_0
I0717 10:13:06.289814  3874 net.cpp:408] conv8_1 -> conv8_1
I0717 10:13:06.291551  3874 net.cpp:150] Setting up conv8_1
I0717 10:13:06.291560  3874 net.cpp:157] Top shape: 16 128 5 5 (51200)
I0717 10:13:06.291563  3874 net.cpp:165] Memory required for data: 2569683744
I0717 10:13:06.291568  3874 layer_factory.hpp:77] Creating layer conv8_1_relu
I0717 10:13:06.291571  3874 net.cpp:100] Creating Layer conv8_1_relu
I0717 10:13:06.291574  3874 net.cpp:434] conv8_1_relu <- conv8_1
I0717 10:13:06.291577  3874 net.cpp:395] conv8_1_relu -> conv8_1 (in-place)
I0717 10:13:06.291720  3874 net.cpp:150] Setting up conv8_1_relu
I0717 10:13:06.291728  3874 net.cpp:157] Top shape: 16 128 5 5 (51200)
I0717 10:13:06.291730  3874 net.cpp:165] Memory required for data: 2569888544
I0717 10:13:06.291733  3874 layer_factory.hpp:77] Creating layer conv8_2
I0717 10:13:06.291739  3874 net.cpp:100] Creating Layer conv8_2
I0717 10:13:06.291749  3874 net.cpp:434] conv8_2 <- conv8_1
I0717 10:13:06.291755  3874 net.cpp:408] conv8_2 -> conv8_2
I0717 10:13:06.294827  3874 net.cpp:150] Setting up conv8_2
I0717 10:13:06.294838  3874 net.cpp:157] Top shape: 16 256 3 3 (36864)
I0717 10:13:06.294842  3874 net.cpp:165] Memory required for data: 2570036000
I0717 10:13:06.294845  3874 layer_factory.hpp:77] Creating layer conv8_2_relu
I0717 10:13:06.294849  3874 net.cpp:100] Creating Layer conv8_2_relu
I0717 10:13:06.294852  3874 net.cpp:434] conv8_2_relu <- conv8_2
I0717 10:13:06.294857  3874 net.cpp:395] conv8_2_relu -> conv8_2 (in-place)
I0717 10:13:06.295402  3874 net.cpp:150] Setting up conv8_2_relu
I0717 10:13:06.295410  3874 net.cpp:157] Top shape: 16 256 3 3 (36864)
I0717 10:13:06.295413  3874 net.cpp:165] Memory required for data: 2570183456
I0717 10:13:06.295414  3874 layer_factory.hpp:77] Creating layer conv8_2_conv8_2_relu_0_split
I0717 10:13:06.295421  3874 net.cpp:100] Creating Layer conv8_2_conv8_2_relu_0_split
I0717 10:13:06.295423  3874 net.cpp:434] conv8_2_conv8_2_relu_0_split <- conv8_2
I0717 10:13:06.295428  3874 net.cpp:408] conv8_2_conv8_2_relu_0_split -> conv8_2_conv8_2_relu_0_split_0
I0717 10:13:06.295433  3874 net.cpp:408] conv8_2_conv8_2_relu_0_split -> conv8_2_conv8_2_relu_0_split_1
I0717 10:13:06.295438  3874 net.cpp:408] conv8_2_conv8_2_relu_0_split -> conv8_2_conv8_2_relu_0_split_2
I0717 10:13:06.295441  3874 net.cpp:408] conv8_2_conv8_2_relu_0_split -> conv8_2_conv8_2_relu_0_split_3
I0717 10:13:06.295506  3874 net.cpp:150] Setting up conv8_2_conv8_2_relu_0_split
I0717 10:13:06.295512  3874 net.cpp:157] Top shape: 16 256 3 3 (36864)
I0717 10:13:06.295516  3874 net.cpp:157] Top shape: 16 256 3 3 (36864)
I0717 10:13:06.295517  3874 net.cpp:157] Top shape: 16 256 3 3 (36864)
I0717 10:13:06.295519  3874 net.cpp:157] Top shape: 16 256 3 3 (36864)
I0717 10:13:06.295521  3874 net.cpp:165] Memory required for data: 2570773280
I0717 10:13:06.295522  3874 layer_factory.hpp:77] Creating layer conv9_1
I0717 10:13:06.295531  3874 net.cpp:100] Creating Layer conv9_1
I0717 10:13:06.295533  3874 net.cpp:434] conv9_1 <- conv8_2_conv8_2_relu_0_split_0
I0717 10:13:06.295537  3874 net.cpp:408] conv9_1 -> conv9_1
I0717 10:13:06.296736  3874 net.cpp:150] Setting up conv9_1
I0717 10:13:06.296744  3874 net.cpp:157] Top shape: 16 128 3 3 (18432)
I0717 10:13:06.296746  3874 net.cpp:165] Memory required for data: 2570847008
I0717 10:13:06.296751  3874 layer_factory.hpp:77] Creating layer conv9_1_relu
I0717 10:13:06.296756  3874 net.cpp:100] Creating Layer conv9_1_relu
I0717 10:13:06.296758  3874 net.cpp:434] conv9_1_relu <- conv9_1
I0717 10:13:06.296761  3874 net.cpp:395] conv9_1_relu -> conv9_1 (in-place)
I0717 10:13:06.297307  3874 net.cpp:150] Setting up conv9_1_relu
I0717 10:13:06.297317  3874 net.cpp:157] Top shape: 16 128 3 3 (18432)
I0717 10:13:06.297318  3874 net.cpp:165] Memory required for data: 2570920736
I0717 10:13:06.297320  3874 layer_factory.hpp:77] Creating layer conv9_2
I0717 10:13:06.297327  3874 net.cpp:100] Creating Layer conv9_2
I0717 10:13:06.297329  3874 net.cpp:434] conv9_2 <- conv9_1
I0717 10:13:06.297334  3874 net.cpp:408] conv9_2 -> conv9_2
I0717 10:13:06.300806  3874 net.cpp:150] Setting up conv9_2
I0717 10:13:06.300818  3874 net.cpp:157] Top shape: 16 256 2 2 (16384)
I0717 10:13:06.300820  3874 net.cpp:165] Memory required for data: 2570986272
I0717 10:13:06.300824  3874 layer_factory.hpp:77] Creating layer conv9_2_relu
I0717 10:13:06.300828  3874 net.cpp:100] Creating Layer conv9_2_relu
I0717 10:13:06.300830  3874 net.cpp:434] conv9_2_relu <- conv9_2
I0717 10:13:06.300833  3874 net.cpp:395] conv9_2_relu -> conv9_2 (in-place)
I0717 10:13:06.300988  3874 net.cpp:150] Setting up conv9_2_relu
I0717 10:13:06.300995  3874 net.cpp:157] Top shape: 16 256 2 2 (16384)
I0717 10:13:06.301002  3874 net.cpp:165] Memory required for data: 2571051808
I0717 10:13:06.301004  3874 layer_factory.hpp:77] Creating layer conv9_2_conv9_2_relu_0_split
I0717 10:13:06.301008  3874 net.cpp:100] Creating Layer conv9_2_conv9_2_relu_0_split
I0717 10:13:06.301018  3874 net.cpp:434] conv9_2_conv9_2_relu_0_split <- conv9_2
I0717 10:13:06.301025  3874 net.cpp:408] conv9_2_conv9_2_relu_0_split -> conv9_2_conv9_2_relu_0_split_0
I0717 10:13:06.301031  3874 net.cpp:408] conv9_2_conv9_2_relu_0_split -> conv9_2_conv9_2_relu_0_split_1
I0717 10:13:06.301035  3874 net.cpp:408] conv9_2_conv9_2_relu_0_split -> conv9_2_conv9_2_relu_0_split_2
I0717 10:13:06.301039  3874 net.cpp:408] conv9_2_conv9_2_relu_0_split -> conv9_2_conv9_2_relu_0_split_3
I0717 10:13:06.301097  3874 net.cpp:150] Setting up conv9_2_conv9_2_relu_0_split
I0717 10:13:06.301103  3874 net.cpp:157] Top shape: 16 256 2 2 (16384)
I0717 10:13:06.301105  3874 net.cpp:157] Top shape: 16 256 2 2 (16384)
I0717 10:13:06.301107  3874 net.cpp:157] Top shape: 16 256 2 2 (16384)
I0717 10:13:06.301110  3874 net.cpp:157] Top shape: 16 256 2 2 (16384)
I0717 10:13:06.301111  3874 net.cpp:165] Memory required for data: 2571313952
I0717 10:13:06.301113  3874 layer_factory.hpp:77] Creating layer conv10_1
I0717 10:13:06.301121  3874 net.cpp:100] Creating Layer conv10_1
I0717 10:13:06.301123  3874 net.cpp:434] conv10_1 <- conv9_2_conv9_2_relu_0_split_0
I0717 10:13:06.301127  3874 net.cpp:408] conv10_1 -> conv10_1
I0717 10:13:06.302947  3874 net.cpp:150] Setting up conv10_1
I0717 10:13:06.302958  3874 net.cpp:157] Top shape: 16 128 2 2 (8192)
I0717 10:13:06.302959  3874 net.cpp:165] Memory required for data: 2571346720
I0717 10:13:06.302964  3874 layer_factory.hpp:77] Creating layer conv10_1_relu
I0717 10:13:06.302980  3874 net.cpp:100] Creating Layer conv10_1_relu
I0717 10:13:06.302983  3874 net.cpp:434] conv10_1_relu <- conv10_1
I0717 10:13:06.302986  3874 net.cpp:395] conv10_1_relu -> conv10_1 (in-place)
I0717 10:13:06.303535  3874 net.cpp:150] Setting up conv10_1_relu
I0717 10:13:06.303544  3874 net.cpp:157] Top shape: 16 128 2 2 (8192)
I0717 10:13:06.303546  3874 net.cpp:165] Memory required for data: 2571379488
I0717 10:13:06.303549  3874 layer_factory.hpp:77] Creating layer conv10_2
I0717 10:13:06.303555  3874 net.cpp:100] Creating Layer conv10_2
I0717 10:13:06.303557  3874 net.cpp:434] conv10_2 <- conv10_1
I0717 10:13:06.303562  3874 net.cpp:408] conv10_2 -> conv10_2
I0717 10:13:06.306231  3874 net.cpp:150] Setting up conv10_2
I0717 10:13:06.306241  3874 net.cpp:157] Top shape: 16 256 1 1 (4096)
I0717 10:13:06.306242  3874 net.cpp:165] Memory required for data: 2571395872
I0717 10:13:06.306247  3874 layer_factory.hpp:77] Creating layer conv10_2_relu
I0717 10:13:06.306251  3874 net.cpp:100] Creating Layer conv10_2_relu
I0717 10:13:06.306253  3874 net.cpp:434] conv10_2_relu <- conv10_2
I0717 10:13:06.306257  3874 net.cpp:395] conv10_2_relu -> conv10_2 (in-place)
I0717 10:13:06.306812  3874 net.cpp:150] Setting up conv10_2_relu
I0717 10:13:06.306820  3874 net.cpp:157] Top shape: 16 256 1 1 (4096)
I0717 10:13:06.306823  3874 net.cpp:165] Memory required for data: 2571412256
I0717 10:13:06.306824  3874 layer_factory.hpp:77] Creating layer conv10_2_conv10_2_relu_0_split
I0717 10:13:06.306829  3874 net.cpp:100] Creating Layer conv10_2_conv10_2_relu_0_split
I0717 10:13:06.306831  3874 net.cpp:434] conv10_2_conv10_2_relu_0_split <- conv10_2
I0717 10:13:06.306835  3874 net.cpp:408] conv10_2_conv10_2_relu_0_split -> conv10_2_conv10_2_relu_0_split_0
I0717 10:13:06.306846  3874 net.cpp:408] conv10_2_conv10_2_relu_0_split -> conv10_2_conv10_2_relu_0_split_1
I0717 10:13:06.306851  3874 net.cpp:408] conv10_2_conv10_2_relu_0_split -> conv10_2_conv10_2_relu_0_split_2
I0717 10:13:06.306907  3874 net.cpp:150] Setting up conv10_2_conv10_2_relu_0_split
I0717 10:13:06.306915  3874 net.cpp:157] Top shape: 16 256 1 1 (4096)
I0717 10:13:06.306917  3874 net.cpp:157] Top shape: 16 256 1 1 (4096)
I0717 10:13:06.306921  3874 net.cpp:157] Top shape: 16 256 1 1 (4096)
I0717 10:13:06.306923  3874 net.cpp:165] Memory required for data: 2571461408
I0717 10:13:06.306926  3874 layer_factory.hpp:77] Creating layer conv5_5/sep_mbox_loc
I0717 10:13:06.306937  3874 net.cpp:100] Creating Layer conv5_5/sep_mbox_loc
I0717 10:13:06.306941  3874 net.cpp:434] conv5_5/sep_mbox_loc <- conv5_5/sep_conv5_5/sep_relu_0_split_1
I0717 10:13:06.306958  3874 net.cpp:408] conv5_5/sep_mbox_loc -> conv5_5/sep_mbox_loc
I0717 10:13:06.309068  3874 net.cpp:150] Setting up conv5_5/sep_mbox_loc
I0717 10:13:06.309077  3874 net.cpp:157] Top shape: 16 12 19 19 (69312)
I0717 10:13:06.309079  3874 net.cpp:165] Memory required for data: 2571738656
I0717 10:13:06.309084  3874 layer_factory.hpp:77] Creating layer conv5_5/sep_mbox_loc_perm
I0717 10:13:06.309092  3874 net.cpp:100] Creating Layer conv5_5/sep_mbox_loc_perm
I0717 10:13:06.309093  3874 net.cpp:434] conv5_5/sep_mbox_loc_perm <- conv5_5/sep_mbox_loc
I0717 10:13:06.309098  3874 net.cpp:408] conv5_5/sep_mbox_loc_perm -> conv5_5/sep_mbox_loc_perm
I0717 10:13:06.309211  3874 net.cpp:150] Setting up conv5_5/sep_mbox_loc_perm
I0717 10:13:06.309217  3874 net.cpp:157] Top shape: 16 19 19 12 (69312)
I0717 10:13:06.309218  3874 net.cpp:165] Memory required for data: 2572015904
I0717 10:13:06.309221  3874 layer_factory.hpp:77] Creating layer conv5_5/sep_mbox_loc_flat
I0717 10:13:06.309226  3874 net.cpp:100] Creating Layer conv5_5/sep_mbox_loc_flat
I0717 10:13:06.309228  3874 net.cpp:434] conv5_5/sep_mbox_loc_flat <- conv5_5/sep_mbox_loc_perm
I0717 10:13:06.309232  3874 net.cpp:408] conv5_5/sep_mbox_loc_flat -> conv5_5/sep_mbox_loc_flat
I0717 10:13:06.309257  3874 net.cpp:150] Setting up conv5_5/sep_mbox_loc_flat
I0717 10:13:06.309260  3874 net.cpp:157] Top shape: 16 4332 (69312)
I0717 10:13:06.309262  3874 net.cpp:165] Memory required for data: 2572293152
I0717 10:13:06.309264  3874 layer_factory.hpp:77] Creating layer conv5_5/sep_mbox_conf
I0717 10:13:06.309270  3874 net.cpp:100] Creating Layer conv5_5/sep_mbox_conf
I0717 10:13:06.309274  3874 net.cpp:434] conv5_5/sep_mbox_conf <- conv5_5/sep_conv5_5/sep_relu_0_split_2
I0717 10:13:06.309279  3874 net.cpp:408] conv5_5/sep_mbox_conf -> conv5_5/sep_mbox_conf
I0717 10:13:06.316794  3874 net.cpp:150] Setting up conv5_5/sep_mbox_conf
I0717 10:13:06.316807  3874 net.cpp:157] Top shape: 16 243 19 19 (1403568)
I0717 10:13:06.316808  3874 net.cpp:165] Memory required for data: 2577907424
I0717 10:13:06.316812  3874 layer_factory.hpp:77] Creating layer conv5_5/sep_mbox_conf_perm
I0717 10:13:06.316817  3874 net.cpp:100] Creating Layer conv5_5/sep_mbox_conf_perm
I0717 10:13:06.316821  3874 net.cpp:434] conv5_5/sep_mbox_conf_perm <- conv5_5/sep_mbox_conf
I0717 10:13:06.316824  3874 net.cpp:408] conv5_5/sep_mbox_conf_perm -> conv5_5/sep_mbox_conf_perm
I0717 10:13:06.316928  3874 net.cpp:150] Setting up conv5_5/sep_mbox_conf_perm
I0717 10:13:06.316936  3874 net.cpp:157] Top shape: 16 19 19 243 (1403568)
I0717 10:13:06.316936  3874 net.cpp:165] Memory required for data: 2583521696
I0717 10:13:06.316938  3874 layer_factory.hpp:77] Creating layer conv5_5/sep_mbox_conf_flat
I0717 10:13:06.316942  3874 net.cpp:100] Creating Layer conv5_5/sep_mbox_conf_flat
I0717 10:13:06.316944  3874 net.cpp:434] conv5_5/sep_mbox_conf_flat <- conv5_5/sep_mbox_conf_perm
I0717 10:13:06.316948  3874 net.cpp:408] conv5_5/sep_mbox_conf_flat -> conv5_5/sep_mbox_conf_flat
I0717 10:13:06.316972  3874 net.cpp:150] Setting up conv5_5/sep_mbox_conf_flat
I0717 10:13:06.316977  3874 net.cpp:157] Top shape: 16 87723 (1403568)
I0717 10:13:06.316978  3874 net.cpp:165] Memory required for data: 2589135968
I0717 10:13:06.316980  3874 layer_factory.hpp:77] Creating layer conv5_5/sep_mbox_priorbox
I0717 10:13:06.316985  3874 net.cpp:100] Creating Layer conv5_5/sep_mbox_priorbox
I0717 10:13:06.316987  3874 net.cpp:434] conv5_5/sep_mbox_priorbox <- conv5_5/sep_conv5_5/sep_relu_0_split_3
I0717 10:13:06.316990  3874 net.cpp:434] conv5_5/sep_mbox_priorbox <- data_data_0_split_1
I0717 10:13:06.316995  3874 net.cpp:408] conv5_5/sep_mbox_priorbox -> conv5_5/sep_mbox_priorbox
I0717 10:13:06.317021  3874 net.cpp:150] Setting up conv5_5/sep_mbox_priorbox
I0717 10:13:06.317026  3874 net.cpp:157] Top shape: 1 2 4332 (8664)
I0717 10:13:06.317028  3874 net.cpp:165] Memory required for data: 2589170624
I0717 10:13:06.317030  3874 layer_factory.hpp:77] Creating layer conv6/sep_mbox_loc
I0717 10:13:06.317045  3874 net.cpp:100] Creating Layer conv6/sep_mbox_loc
I0717 10:13:06.317049  3874 net.cpp:434] conv6/sep_mbox_loc <- conv6/sep_conv6/sep_relu_0_split_1
I0717 10:13:06.317052  3874 net.cpp:408] conv6/sep_mbox_loc -> conv6/sep_mbox_loc
I0717 10:13:06.319814  3874 net.cpp:150] Setting up conv6/sep_mbox_loc
I0717 10:13:06.319825  3874 net.cpp:157] Top shape: 16 24 10 10 (38400)
I0717 10:13:06.319828  3874 net.cpp:165] Memory required for data: 2589324224
I0717 10:13:06.319831  3874 layer_factory.hpp:77] Creating layer conv6/sep_mbox_loc_perm
I0717 10:13:06.319838  3874 net.cpp:100] Creating Layer conv6/sep_mbox_loc_perm
I0717 10:13:06.319839  3874 net.cpp:434] conv6/sep_mbox_loc_perm <- conv6/sep_mbox_loc
I0717 10:13:06.319844  3874 net.cpp:408] conv6/sep_mbox_loc_perm -> conv6/sep_mbox_loc_perm
I0717 10:13:06.319947  3874 net.cpp:150] Setting up conv6/sep_mbox_loc_perm
I0717 10:13:06.319952  3874 net.cpp:157] Top shape: 16 10 10 24 (38400)
I0717 10:13:06.319954  3874 net.cpp:165] Memory required for data: 2589477824
I0717 10:13:06.319957  3874 layer_factory.hpp:77] Creating layer conv6/sep_mbox_loc_flat
I0717 10:13:06.319959  3874 net.cpp:100] Creating Layer conv6/sep_mbox_loc_flat
I0717 10:13:06.319962  3874 net.cpp:434] conv6/sep_mbox_loc_flat <- conv6/sep_mbox_loc_perm
I0717 10:13:06.319965  3874 net.cpp:408] conv6/sep_mbox_loc_flat -> conv6/sep_mbox_loc_flat
I0717 10:13:06.319986  3874 net.cpp:150] Setting up conv6/sep_mbox_loc_flat
I0717 10:13:06.319991  3874 net.cpp:157] Top shape: 16 2400 (38400)
I0717 10:13:06.319993  3874 net.cpp:165] Memory required for data: 2589631424
I0717 10:13:06.319994  3874 layer_factory.hpp:77] Creating layer conv6/sep_mbox_conf
I0717 10:13:06.320000  3874 net.cpp:100] Creating Layer conv6/sep_mbox_conf
I0717 10:13:06.320003  3874 net.cpp:434] conv6/sep_mbox_conf <- conv6/sep_conv6/sep_relu_0_split_2
I0717 10:13:06.320008  3874 net.cpp:408] conv6/sep_mbox_conf -> conv6/sep_mbox_conf
I0717 10:13:06.344341  3874 net.cpp:150] Setting up conv6/sep_mbox_conf
I0717 10:13:06.344362  3874 net.cpp:157] Top shape: 16 486 10 10 (777600)
I0717 10:13:06.344364  3874 net.cpp:165] Memory required for data: 2592741824
I0717 10:13:06.344372  3874 layer_factory.hpp:77] Creating layer conv6/sep_mbox_conf_perm
I0717 10:13:06.344379  3874 net.cpp:100] Creating Layer conv6/sep_mbox_conf_perm
I0717 10:13:06.344383  3874 net.cpp:434] conv6/sep_mbox_conf_perm <- conv6/sep_mbox_conf
I0717 10:13:06.344388  3874 net.cpp:408] conv6/sep_mbox_conf_perm -> conv6/sep_mbox_conf_perm
I0717 10:13:06.344488  3874 net.cpp:150] Setting up conv6/sep_mbox_conf_perm
I0717 10:13:06.344493  3874 net.cpp:157] Top shape: 16 10 10 486 (777600)
I0717 10:13:06.344496  3874 net.cpp:165] Memory required for data: 2595852224
I0717 10:13:06.344497  3874 layer_factory.hpp:77] Creating layer conv6/sep_mbox_conf_flat
I0717 10:13:06.344501  3874 net.cpp:100] Creating Layer conv6/sep_mbox_conf_flat
I0717 10:13:06.344503  3874 net.cpp:434] conv6/sep_mbox_conf_flat <- conv6/sep_mbox_conf_perm
I0717 10:13:06.344507  3874 net.cpp:408] conv6/sep_mbox_conf_flat -> conv6/sep_mbox_conf_flat
I0717 10:13:06.344529  3874 net.cpp:150] Setting up conv6/sep_mbox_conf_flat
I0717 10:13:06.344533  3874 net.cpp:157] Top shape: 16 48600 (777600)
I0717 10:13:06.344535  3874 net.cpp:165] Memory required for data: 2598962624
I0717 10:13:06.344538  3874 layer_factory.hpp:77] Creating layer conv6/sep_mbox_priorbox
I0717 10:13:06.344544  3874 net.cpp:100] Creating Layer conv6/sep_mbox_priorbox
I0717 10:13:06.344547  3874 net.cpp:434] conv6/sep_mbox_priorbox <- conv6/sep_conv6/sep_relu_0_split_3
I0717 10:13:06.344550  3874 net.cpp:434] conv6/sep_mbox_priorbox <- data_data_0_split_2
I0717 10:13:06.344558  3874 net.cpp:408] conv6/sep_mbox_priorbox -> conv6/sep_mbox_priorbox
I0717 10:13:06.344588  3874 net.cpp:150] Setting up conv6/sep_mbox_priorbox
I0717 10:13:06.344593  3874 net.cpp:157] Top shape: 1 2 2400 (4800)
I0717 10:13:06.344594  3874 net.cpp:165] Memory required for data: 2598981824
I0717 10:13:06.344595  3874 layer_factory.hpp:77] Creating layer conv7_2_mbox_loc
I0717 10:13:06.344616  3874 net.cpp:100] Creating Layer conv7_2_mbox_loc
I0717 10:13:06.344620  3874 net.cpp:434] conv7_2_mbox_loc <- conv7_2_conv7_2_relu_0_split_1
I0717 10:13:06.344625  3874 net.cpp:408] conv7_2_mbox_loc -> conv7_2_mbox_loc
I0717 10:13:06.346982  3874 net.cpp:150] Setting up conv7_2_mbox_loc
I0717 10:13:06.346993  3874 net.cpp:157] Top shape: 16 24 5 5 (9600)
I0717 10:13:06.346995  3874 net.cpp:165] Memory required for data: 2599020224
I0717 10:13:06.346999  3874 layer_factory.hpp:77] Creating layer conv7_2_mbox_loc_perm
I0717 10:13:06.347005  3874 net.cpp:100] Creating Layer conv7_2_mbox_loc_perm
I0717 10:13:06.347008  3874 net.cpp:434] conv7_2_mbox_loc_perm <- conv7_2_mbox_loc
I0717 10:13:06.347012  3874 net.cpp:408] conv7_2_mbox_loc_perm -> conv7_2_mbox_loc_perm
I0717 10:13:06.347110  3874 net.cpp:150] Setting up conv7_2_mbox_loc_perm
I0717 10:13:06.347115  3874 net.cpp:157] Top shape: 16 5 5 24 (9600)
I0717 10:13:06.347117  3874 net.cpp:165] Memory required for data: 2599058624
I0717 10:13:06.347120  3874 layer_factory.hpp:77] Creating layer conv7_2_mbox_loc_flat
I0717 10:13:06.347123  3874 net.cpp:100] Creating Layer conv7_2_mbox_loc_flat
I0717 10:13:06.347126  3874 net.cpp:434] conv7_2_mbox_loc_flat <- conv7_2_mbox_loc_perm
I0717 10:13:06.347128  3874 net.cpp:408] conv7_2_mbox_loc_flat -> conv7_2_mbox_loc_flat
I0717 10:13:06.347151  3874 net.cpp:150] Setting up conv7_2_mbox_loc_flat
I0717 10:13:06.347154  3874 net.cpp:157] Top shape: 16 600 (9600)
I0717 10:13:06.347157  3874 net.cpp:165] Memory required for data: 2599097024
I0717 10:13:06.347158  3874 layer_factory.hpp:77] Creating layer conv7_2_mbox_conf
I0717 10:13:06.347164  3874 net.cpp:100] Creating Layer conv7_2_mbox_conf
I0717 10:13:06.347167  3874 net.cpp:434] conv7_2_mbox_conf <- conv7_2_conv7_2_relu_0_split_2
I0717 10:13:06.347172  3874 net.cpp:408] conv7_2_mbox_conf -> conv7_2_mbox_conf
I0717 10:13:06.359859  3874 net.cpp:150] Setting up conv7_2_mbox_conf
I0717 10:13:06.359874  3874 net.cpp:157] Top shape: 16 486 5 5 (194400)
I0717 10:13:06.359876  3874 net.cpp:165] Memory required for data: 2599874624
I0717 10:13:06.359881  3874 layer_factory.hpp:77] Creating layer conv7_2_mbox_conf_perm
I0717 10:13:06.359886  3874 net.cpp:100] Creating Layer conv7_2_mbox_conf_perm
I0717 10:13:06.359889  3874 net.cpp:434] conv7_2_mbox_conf_perm <- conv7_2_mbox_conf
I0717 10:13:06.359894  3874 net.cpp:408] conv7_2_mbox_conf_perm -> conv7_2_mbox_conf_perm
I0717 10:13:06.359992  3874 net.cpp:150] Setting up conv7_2_mbox_conf_perm
I0717 10:13:06.359997  3874 net.cpp:157] Top shape: 16 5 5 486 (194400)
I0717 10:13:06.359999  3874 net.cpp:165] Memory required for data: 2600652224
I0717 10:13:06.360002  3874 layer_factory.hpp:77] Creating layer conv7_2_mbox_conf_flat
I0717 10:13:06.360004  3874 net.cpp:100] Creating Layer conv7_2_mbox_conf_flat
I0717 10:13:06.360008  3874 net.cpp:434] conv7_2_mbox_conf_flat <- conv7_2_mbox_conf_perm
I0717 10:13:06.360011  3874 net.cpp:408] conv7_2_mbox_conf_flat -> conv7_2_mbox_conf_flat
I0717 10:13:06.360038  3874 net.cpp:150] Setting up conv7_2_mbox_conf_flat
I0717 10:13:06.360044  3874 net.cpp:157] Top shape: 16 12150 (194400)
I0717 10:13:06.360044  3874 net.cpp:165] Memory required for data: 2601429824
I0717 10:13:06.360046  3874 layer_factory.hpp:77] Creating layer conv7_2_mbox_priorbox
I0717 10:13:06.360055  3874 net.cpp:100] Creating Layer conv7_2_mbox_priorbox
I0717 10:13:06.360059  3874 net.cpp:434] conv7_2_mbox_priorbox <- conv7_2_conv7_2_relu_0_split_3
I0717 10:13:06.360064  3874 net.cpp:434] conv7_2_mbox_priorbox <- data_data_0_split_3
I0717 10:13:06.360067  3874 net.cpp:408] conv7_2_mbox_priorbox -> conv7_2_mbox_priorbox
I0717 10:13:06.360093  3874 net.cpp:150] Setting up conv7_2_mbox_priorbox
I0717 10:13:06.360098  3874 net.cpp:157] Top shape: 1 2 600 (1200)
I0717 10:13:06.360100  3874 net.cpp:165] Memory required for data: 2601434624
I0717 10:13:06.360102  3874 layer_factory.hpp:77] Creating layer conv8_2_mbox_loc
I0717 10:13:06.360110  3874 net.cpp:100] Creating Layer conv8_2_mbox_loc
I0717 10:13:06.360123  3874 net.cpp:434] conv8_2_mbox_loc <- conv8_2_conv8_2_relu_0_split_1
I0717 10:13:06.360133  3874 net.cpp:408] conv8_2_mbox_loc -> conv8_2_mbox_loc
I0717 10:13:06.362663  3874 net.cpp:150] Setting up conv8_2_mbox_loc
I0717 10:13:06.362674  3874 net.cpp:157] Top shape: 16 24 3 3 (3456)
I0717 10:13:06.362676  3874 net.cpp:165] Memory required for data: 2601448448
I0717 10:13:06.362681  3874 layer_factory.hpp:77] Creating layer conv8_2_mbox_loc_perm
I0717 10:13:06.362687  3874 net.cpp:100] Creating Layer conv8_2_mbox_loc_perm
I0717 10:13:06.362691  3874 net.cpp:434] conv8_2_mbox_loc_perm <- conv8_2_mbox_loc
I0717 10:13:06.362696  3874 net.cpp:408] conv8_2_mbox_loc_perm -> conv8_2_mbox_loc_perm
I0717 10:13:06.362803  3874 net.cpp:150] Setting up conv8_2_mbox_loc_perm
I0717 10:13:06.362810  3874 net.cpp:157] Top shape: 16 3 3 24 (3456)
I0717 10:13:06.362812  3874 net.cpp:165] Memory required for data: 2601462272
I0717 10:13:06.362814  3874 layer_factory.hpp:77] Creating layer conv8_2_mbox_loc_flat
I0717 10:13:06.362819  3874 net.cpp:100] Creating Layer conv8_2_mbox_loc_flat
I0717 10:13:06.362821  3874 net.cpp:434] conv8_2_mbox_loc_flat <- conv8_2_mbox_loc_perm
I0717 10:13:06.362825  3874 net.cpp:408] conv8_2_mbox_loc_flat -> conv8_2_mbox_loc_flat
I0717 10:13:06.362855  3874 net.cpp:150] Setting up conv8_2_mbox_loc_flat
I0717 10:13:06.362860  3874 net.cpp:157] Top shape: 16 216 (3456)
I0717 10:13:06.362862  3874 net.cpp:165] Memory required for data: 2601476096
I0717 10:13:06.362864  3874 layer_factory.hpp:77] Creating layer conv8_2_mbox_conf
I0717 10:13:06.362871  3874 net.cpp:100] Creating Layer conv8_2_mbox_conf
I0717 10:13:06.362874  3874 net.cpp:434] conv8_2_mbox_conf <- conv8_2_conv8_2_relu_0_split_2
I0717 10:13:06.362879  3874 net.cpp:408] conv8_2_mbox_conf -> conv8_2_mbox_conf
I0717 10:13:06.370442  3874 net.cpp:150] Setting up conv8_2_mbox_conf
I0717 10:13:06.370453  3874 net.cpp:157] Top shape: 16 486 3 3 (69984)
I0717 10:13:06.370455  3874 net.cpp:165] Memory required for data: 2601756032
I0717 10:13:06.370460  3874 layer_factory.hpp:77] Creating layer conv8_2_mbox_conf_perm
I0717 10:13:06.370465  3874 net.cpp:100] Creating Layer conv8_2_mbox_conf_perm
I0717 10:13:06.370466  3874 net.cpp:434] conv8_2_mbox_conf_perm <- conv8_2_mbox_conf
I0717 10:13:06.370471  3874 net.cpp:408] conv8_2_mbox_conf_perm -> conv8_2_mbox_conf_perm
I0717 10:13:06.370571  3874 net.cpp:150] Setting up conv8_2_mbox_conf_perm
I0717 10:13:06.370578  3874 net.cpp:157] Top shape: 16 3 3 486 (69984)
I0717 10:13:06.370579  3874 net.cpp:165] Memory required for data: 2602035968
I0717 10:13:06.370581  3874 layer_factory.hpp:77] Creating layer conv8_2_mbox_conf_flat
I0717 10:13:06.370584  3874 net.cpp:100] Creating Layer conv8_2_mbox_conf_flat
I0717 10:13:06.370586  3874 net.cpp:434] conv8_2_mbox_conf_flat <- conv8_2_mbox_conf_perm
I0717 10:13:06.370591  3874 net.cpp:408] conv8_2_mbox_conf_flat -> conv8_2_mbox_conf_flat
I0717 10:13:06.370613  3874 net.cpp:150] Setting up conv8_2_mbox_conf_flat
I0717 10:13:06.370618  3874 net.cpp:157] Top shape: 16 4374 (69984)
I0717 10:13:06.370620  3874 net.cpp:165] Memory required for data: 2602315904
I0717 10:13:06.370621  3874 layer_factory.hpp:77] Creating layer conv8_2_mbox_priorbox
I0717 10:13:06.370626  3874 net.cpp:100] Creating Layer conv8_2_mbox_priorbox
I0717 10:13:06.370628  3874 net.cpp:434] conv8_2_mbox_priorbox <- conv8_2_conv8_2_relu_0_split_3
I0717 10:13:06.370631  3874 net.cpp:434] conv8_2_mbox_priorbox <- data_data_0_split_4
I0717 10:13:06.370635  3874 net.cpp:408] conv8_2_mbox_priorbox -> conv8_2_mbox_priorbox
I0717 10:13:06.370659  3874 net.cpp:150] Setting up conv8_2_mbox_priorbox
I0717 10:13:06.370672  3874 net.cpp:157] Top shape: 1 2 216 (432)
I0717 10:13:06.370674  3874 net.cpp:165] Memory required for data: 2602317632
I0717 10:13:06.370676  3874 layer_factory.hpp:77] Creating layer conv9_2_mbox_loc
I0717 10:13:06.370682  3874 net.cpp:100] Creating Layer conv9_2_mbox_loc
I0717 10:13:06.370685  3874 net.cpp:434] conv9_2_mbox_loc <- conv9_2_conv9_2_relu_0_split_1
I0717 10:13:06.370699  3874 net.cpp:408] conv9_2_mbox_loc -> conv9_2_mbox_loc
I0717 10:13:06.372807  3874 net.cpp:150] Setting up conv9_2_mbox_loc
I0717 10:13:06.372817  3874 net.cpp:157] Top shape: 16 24 2 2 (1536)
I0717 10:13:06.372819  3874 net.cpp:165] Memory required for data: 2602323776
I0717 10:13:06.372824  3874 layer_factory.hpp:77] Creating layer conv9_2_mbox_loc_perm
I0717 10:13:06.372828  3874 net.cpp:100] Creating Layer conv9_2_mbox_loc_perm
I0717 10:13:06.372830  3874 net.cpp:434] conv9_2_mbox_loc_perm <- conv9_2_mbox_loc
I0717 10:13:06.372835  3874 net.cpp:408] conv9_2_mbox_loc_perm -> conv9_2_mbox_loc_perm
I0717 10:13:06.372946  3874 net.cpp:150] Setting up conv9_2_mbox_loc_perm
I0717 10:13:06.372952  3874 net.cpp:157] Top shape: 16 2 2 24 (1536)
I0717 10:13:06.372954  3874 net.cpp:165] Memory required for data: 2602329920
I0717 10:13:06.372956  3874 layer_factory.hpp:77] Creating layer conv9_2_mbox_loc_flat
I0717 10:13:06.372961  3874 net.cpp:100] Creating Layer conv9_2_mbox_loc_flat
I0717 10:13:06.372964  3874 net.cpp:434] conv9_2_mbox_loc_flat <- conv9_2_mbox_loc_perm
I0717 10:13:06.372969  3874 net.cpp:408] conv9_2_mbox_loc_flat -> conv9_2_mbox_loc_flat
I0717 10:13:06.372994  3874 net.cpp:150] Setting up conv9_2_mbox_loc_flat
I0717 10:13:06.372999  3874 net.cpp:157] Top shape: 16 96 (1536)
I0717 10:13:06.373001  3874 net.cpp:165] Memory required for data: 2602336064
I0717 10:13:06.373003  3874 layer_factory.hpp:77] Creating layer conv9_2_mbox_conf
I0717 10:13:06.373009  3874 net.cpp:100] Creating Layer conv9_2_mbox_conf
I0717 10:13:06.373011  3874 net.cpp:434] conv9_2_mbox_conf <- conv9_2_conv9_2_relu_0_split_2
I0717 10:13:06.373018  3874 net.cpp:408] conv9_2_mbox_conf -> conv9_2_mbox_conf
I0717 10:13:06.380576  3874 net.cpp:150] Setting up conv9_2_mbox_conf
I0717 10:13:06.380587  3874 net.cpp:157] Top shape: 16 486 2 2 (31104)
I0717 10:13:06.380589  3874 net.cpp:165] Memory required for data: 2602460480
I0717 10:13:06.380594  3874 layer_factory.hpp:77] Creating layer conv9_2_mbox_conf_perm
I0717 10:13:06.380599  3874 net.cpp:100] Creating Layer conv9_2_mbox_conf_perm
I0717 10:13:06.380602  3874 net.cpp:434] conv9_2_mbox_conf_perm <- conv9_2_mbox_conf
I0717 10:13:06.380607  3874 net.cpp:408] conv9_2_mbox_conf_perm -> conv9_2_mbox_conf_perm
I0717 10:13:06.380713  3874 net.cpp:150] Setting up conv9_2_mbox_conf_perm
I0717 10:13:06.380719  3874 net.cpp:157] Top shape: 16 2 2 486 (31104)
I0717 10:13:06.380722  3874 net.cpp:165] Memory required for data: 2602584896
I0717 10:13:06.380724  3874 layer_factory.hpp:77] Creating layer conv9_2_mbox_conf_flat
I0717 10:13:06.380730  3874 net.cpp:100] Creating Layer conv9_2_mbox_conf_flat
I0717 10:13:06.380733  3874 net.cpp:434] conv9_2_mbox_conf_flat <- conv9_2_mbox_conf_perm
I0717 10:13:06.380740  3874 net.cpp:408] conv9_2_mbox_conf_flat -> conv9_2_mbox_conf_flat
I0717 10:13:06.380769  3874 net.cpp:150] Setting up conv9_2_mbox_conf_flat
I0717 10:13:06.380774  3874 net.cpp:157] Top shape: 16 1944 (31104)
I0717 10:13:06.380775  3874 net.cpp:165] Memory required for data: 2602709312
I0717 10:13:06.380777  3874 layer_factory.hpp:77] Creating layer conv9_2_mbox_priorbox
I0717 10:13:06.380784  3874 net.cpp:100] Creating Layer conv9_2_mbox_priorbox
I0717 10:13:06.380789  3874 net.cpp:434] conv9_2_mbox_priorbox <- conv9_2_conv9_2_relu_0_split_3
I0717 10:13:06.380794  3874 net.cpp:434] conv9_2_mbox_priorbox <- data_data_0_split_5
I0717 10:13:06.380800  3874 net.cpp:408] conv9_2_mbox_priorbox -> conv9_2_mbox_priorbox
I0717 10:13:06.380830  3874 net.cpp:150] Setting up conv9_2_mbox_priorbox
I0717 10:13:06.380834  3874 net.cpp:157] Top shape: 1 2 96 (192)
I0717 10:13:06.380836  3874 net.cpp:165] Memory required for data: 2602710080
I0717 10:13:06.380838  3874 layer_factory.hpp:77] Creating layer conv10_2_mbox_loc
I0717 10:13:06.380848  3874 net.cpp:100] Creating Layer conv10_2_mbox_loc
I0717 10:13:06.380852  3874 net.cpp:434] conv10_2_mbox_loc <- conv10_2_conv10_2_relu_0_split_0
I0717 10:13:06.380859  3874 net.cpp:408] conv10_2_mbox_loc -> conv10_2_mbox_loc
I0717 10:13:06.383025  3874 net.cpp:150] Setting up conv10_2_mbox_loc
I0717 10:13:06.383035  3874 net.cpp:157] Top shape: 16 24 1 1 (384)
I0717 10:13:06.383038  3874 net.cpp:165] Memory required for data: 2602711616
I0717 10:13:06.383044  3874 layer_factory.hpp:77] Creating layer conv10_2_mbox_loc_perm
I0717 10:13:06.383051  3874 net.cpp:100] Creating Layer conv10_2_mbox_loc_perm
I0717 10:13:06.383054  3874 net.cpp:434] conv10_2_mbox_loc_perm <- conv10_2_mbox_loc
I0717 10:13:06.383060  3874 net.cpp:408] conv10_2_mbox_loc_perm -> conv10_2_mbox_loc_perm
I0717 10:13:06.383167  3874 net.cpp:150] Setting up conv10_2_mbox_loc_perm
I0717 10:13:06.383172  3874 net.cpp:157] Top shape: 16 1 1 24 (384)
I0717 10:13:06.383174  3874 net.cpp:165] Memory required for data: 2602713152
I0717 10:13:06.383177  3874 layer_factory.hpp:77] Creating layer conv10_2_mbox_loc_flat
I0717 10:13:06.383182  3874 net.cpp:100] Creating Layer conv10_2_mbox_loc_flat
I0717 10:13:06.383184  3874 net.cpp:434] conv10_2_mbox_loc_flat <- conv10_2_mbox_loc_perm
I0717 10:13:06.383189  3874 net.cpp:408] conv10_2_mbox_loc_flat -> conv10_2_mbox_loc_flat
I0717 10:13:06.383218  3874 net.cpp:150] Setting up conv10_2_mbox_loc_flat
I0717 10:13:06.383222  3874 net.cpp:157] Top shape: 16 24 (384)
I0717 10:13:06.383225  3874 net.cpp:165] Memory required for data: 2602714688
I0717 10:13:06.383226  3874 layer_factory.hpp:77] Creating layer conv10_2_mbox_conf
I0717 10:13:06.383234  3874 net.cpp:100] Creating Layer conv10_2_mbox_conf
I0717 10:13:06.383235  3874 net.cpp:434] conv10_2_mbox_conf <- conv10_2_conv10_2_relu_0_split_1
I0717 10:13:06.383240  3874 net.cpp:408] conv10_2_mbox_conf -> conv10_2_mbox_conf
I0717 10:13:06.390797  3874 net.cpp:150] Setting up conv10_2_mbox_conf
I0717 10:13:06.390810  3874 net.cpp:157] Top shape: 16 486 1 1 (7776)
I0717 10:13:06.390811  3874 net.cpp:165] Memory required for data: 2602745792
I0717 10:13:06.390816  3874 layer_factory.hpp:77] Creating layer conv10_2_mbox_conf_perm
I0717 10:13:06.390821  3874 net.cpp:100] Creating Layer conv10_2_mbox_conf_perm
I0717 10:13:06.390825  3874 net.cpp:434] conv10_2_mbox_conf_perm <- conv10_2_mbox_conf
I0717 10:13:06.390827  3874 net.cpp:408] conv10_2_mbox_conf_perm -> conv10_2_mbox_conf_perm
I0717 10:13:06.390934  3874 net.cpp:150] Setting up conv10_2_mbox_conf_perm
I0717 10:13:06.390940  3874 net.cpp:157] Top shape: 16 1 1 486 (7776)
I0717 10:13:06.390944  3874 net.cpp:165] Memory required for data: 2602776896
I0717 10:13:06.390944  3874 layer_factory.hpp:77] Creating layer conv10_2_mbox_conf_flat
I0717 10:13:06.390949  3874 net.cpp:100] Creating Layer conv10_2_mbox_conf_flat
I0717 10:13:06.390952  3874 net.cpp:434] conv10_2_mbox_conf_flat <- conv10_2_mbox_conf_perm
I0717 10:13:06.390955  3874 net.cpp:408] conv10_2_mbox_conf_flat -> conv10_2_mbox_conf_flat
I0717 10:13:06.390983  3874 net.cpp:150] Setting up conv10_2_mbox_conf_flat
I0717 10:13:06.390990  3874 net.cpp:157] Top shape: 16 486 (7776)
I0717 10:13:06.390991  3874 net.cpp:165] Memory required for data: 2602808000
I0717 10:13:06.390992  3874 layer_factory.hpp:77] Creating layer conv10_2_mbox_priorbox
I0717 10:13:06.390998  3874 net.cpp:100] Creating Layer conv10_2_mbox_priorbox
I0717 10:13:06.391001  3874 net.cpp:434] conv10_2_mbox_priorbox <- conv10_2_conv10_2_relu_0_split_2
I0717 10:13:06.391005  3874 net.cpp:434] conv10_2_mbox_priorbox <- data_data_0_split_6
I0717 10:13:06.391007  3874 net.cpp:408] conv10_2_mbox_priorbox -> conv10_2_mbox_priorbox
I0717 10:13:06.391034  3874 net.cpp:150] Setting up conv10_2_mbox_priorbox
I0717 10:13:06.391039  3874 net.cpp:157] Top shape: 1 2 24 (48)
I0717 10:13:06.391041  3874 net.cpp:165] Memory required for data: 2602808192
I0717 10:13:06.391042  3874 layer_factory.hpp:77] Creating layer mbox_loc
I0717 10:13:06.391049  3874 net.cpp:100] Creating Layer mbox_loc
I0717 10:13:06.391052  3874 net.cpp:434] mbox_loc <- conv5_5/sep_mbox_loc_flat
I0717 10:13:06.391057  3874 net.cpp:434] mbox_loc <- conv6/sep_mbox_loc_flat
I0717 10:13:06.391062  3874 net.cpp:434] mbox_loc <- conv7_2_mbox_loc_flat
I0717 10:13:06.391065  3874 net.cpp:434] mbox_loc <- conv8_2_mbox_loc_flat
I0717 10:13:06.391078  3874 net.cpp:434] mbox_loc <- conv9_2_mbox_loc_flat
I0717 10:13:06.391082  3874 net.cpp:434] mbox_loc <- conv10_2_mbox_loc_flat
I0717 10:13:06.391084  3874 net.cpp:408] mbox_loc -> mbox_loc
I0717 10:13:06.391116  3874 net.cpp:150] Setting up mbox_loc
I0717 10:13:06.391122  3874 net.cpp:157] Top shape: 16 7668 (122688)
I0717 10:13:06.391124  3874 net.cpp:165] Memory required for data: 2603298944
I0717 10:13:06.391126  3874 layer_factory.hpp:77] Creating layer mbox_conf
I0717 10:13:06.391129  3874 net.cpp:100] Creating Layer mbox_conf
I0717 10:13:06.391132  3874 net.cpp:434] mbox_conf <- conv5_5/sep_mbox_conf_flat
I0717 10:13:06.391135  3874 net.cpp:434] mbox_conf <- conv6/sep_mbox_conf_flat
I0717 10:13:06.391139  3874 net.cpp:434] mbox_conf <- conv7_2_mbox_conf_flat
I0717 10:13:06.391144  3874 net.cpp:434] mbox_conf <- conv8_2_mbox_conf_flat
I0717 10:13:06.391146  3874 net.cpp:434] mbox_conf <- conv9_2_mbox_conf_flat
I0717 10:13:06.391149  3874 net.cpp:434] mbox_conf <- conv10_2_mbox_conf_flat
I0717 10:13:06.391152  3874 net.cpp:408] mbox_conf -> mbox_conf
I0717 10:13:06.391177  3874 net.cpp:150] Setting up mbox_conf
I0717 10:13:06.391181  3874 net.cpp:157] Top shape: 16 155277 (2484432)
I0717 10:13:06.391183  3874 net.cpp:165] Memory required for data: 2613236672
I0717 10:13:06.391185  3874 layer_factory.hpp:77] Creating layer mbox_priorbox
I0717 10:13:06.391189  3874 net.cpp:100] Creating Layer mbox_priorbox
I0717 10:13:06.391191  3874 net.cpp:434] mbox_priorbox <- conv5_5/sep_mbox_priorbox
I0717 10:13:06.391194  3874 net.cpp:434] mbox_priorbox <- conv6/sep_mbox_priorbox
I0717 10:13:06.391198  3874 net.cpp:434] mbox_priorbox <- conv7_2_mbox_priorbox
I0717 10:13:06.391201  3874 net.cpp:434] mbox_priorbox <- conv8_2_mbox_priorbox
I0717 10:13:06.391206  3874 net.cpp:434] mbox_priorbox <- conv9_2_mbox_priorbox
I0717 10:13:06.391208  3874 net.cpp:434] mbox_priorbox <- conv10_2_mbox_priorbox
I0717 10:13:06.391212  3874 net.cpp:408] mbox_priorbox -> mbox_priorbox
I0717 10:13:06.391234  3874 net.cpp:150] Setting up mbox_priorbox
I0717 10:13:06.391239  3874 net.cpp:157] Top shape: 1 2 7668 (15336)
I0717 10:13:06.391242  3874 net.cpp:165] Memory required for data: 2613298016
I0717 10:13:06.391243  3874 layer_factory.hpp:77] Creating layer mbox_loss
I0717 10:13:06.391252  3874 net.cpp:100] Creating Layer mbox_loss
I0717 10:13:06.391255  3874 net.cpp:434] mbox_loss <- mbox_loc
I0717 10:13:06.391259  3874 net.cpp:434] mbox_loss <- mbox_conf
I0717 10:13:06.391263  3874 net.cpp:434] mbox_loss <- mbox_priorbox
…
  phase: TEST
}
layer {
  name: "data"
  type: "AnnotatedData"
  top: "data"
  top: "label"
  include {
    phase: TEST
  }
  transform_param {
    mean_value: 104
    mean_value: 117
    mean_value: 123
    force_color: true
    resize_param {
      prob: 1
      resize_mode: WARP
      height: 300
      width: 300
      interp_mode: LINEAR
    }
  }
  data_param {
    source: "examples/coco/coco_minival_lmdb"
    batch_size: 8
    backend: LMDB
  }
  annotated_data_param {
    batch_sampler {
    }
    label_map_file: "data/coco/labelmap_coco.prototxt"
  }
}
layer {
  name: "conv1"
  type: "Convolution"
  bottom: "data"
  top: "conv1"
  param {
    lr_mult: 1
    decay_mult: 1
  }
  convolution_param {
    num_output: 32
    bias_term: false
    pad: 1
    kernel_size: 3
    group: 1
    stride: 2
    weight_filler {
      type: "gaussian"
      std: 0.01
    }
    engine: DEFAULT
  }
}
layer {
  name: "conv1/bn"
  type: "BatchNorm"
  bottom: "conv1"
  top: "conv1"
  batch_norm_param {
    moving_average_fraction: 0.999
    eps: 0.001
  }
}
layer {
  name: "conv1/scale"
  type: "Scale"
  bottom: "conv1"
  top: "conv1"
  param {
    lr_mult: 1
    decay_mult: 0
  }
  param {
    lr_mult: 1
    decay_mult: 0
  }
  scale_param {
    filler {
      type: "constant"
      value: 1
    }
    bias_term: true
    bias_filler {
      type: "constant"
      value: 0
    }
  }
}
layer {
  name: "conv1_relu"
  type: "ReLU"
  bottom: "conv1"
  top: "conv1"
}
layer {
  name: "conv2_1/dw"
  type: "Convolution"
  bottom: "conv1"
  top: "conv2_1/dw"
  param {
    lr_mult: 1
    decay_mult: 1
  }
  convolution_param {
    num_output: 32
    bias_term: false
    pad: 1
    kernel_size: 3
    group: 32
    stride: 1
    weight_filler {
      type: "gaussian"
      std: 0.01
    }
    engine: CAFFE
  }
}
layer {
  name: "conv2_1/dw/bn"
  type: "BatchNorm"
  bottom: "conv2_1/dw"
  top: "conv2_1/dw"
  batch_norm_param {
    moving_average_fraction: 0.999
    eps: 0.001
  }
}
layer {
  name: "conv2_1/dw/scale"
  type: "Scale"
  bottom: "conv2_1/dw"
  top: "conv2_1/dw"
  param {
    lr_mult: 1
    decay_mult: 0
  }
  param {
    lr_mult: 1
    decay_mult: 0
  }
  scale_param {
    filler {
      type: "constant"
      value: 1
    }
    bias_term: true
    bias_filler {
      type: "constant"
      value: 0
    }
  }
}
layer {
  name: "conv2_1/dw_relu"
  type: "ReLU"
  bottom: "conv2_1/dw"
  top: "conv2_1/dw"
}
layer {
  name: "conv2_1/sep"
  type: "Convolution"
  bottom: "conv2_1/dw"
  top: "conv2_1/sep"
  param {
    lr_mult: 1
    decay_mult: 1
  }
  convolution_param {
    num_output: 64
    bias_term: false
    pad: 0
    kernel_size: 1
    group: 1
    stride: 1
    weight_filler {
      type: "gaussian"
      std: 0.01
    }
    engine: DEFAULT
  }
}
layer {
  name: "conv2_1/sep/bn"
  type: "BatchNorm"
  bottom: "conv2_1/sep"
  top: "conv2_1/sep"
  batch_norm_param {
    moving_average_fraction: 0.999
    eps: 0.001
  }
}
layer {
  name: "conv2_1/sep/scale"
  type: "Scale"
  bottom: "conv2_1/sep"
  top: "conv2_1/sep"
  param {
    lr_mult: 1
    decay_mult: 0
  }
  param {
    lr_mult: 1
    decay_mult: 0
  }
  scale_param {
    filler {
      type: "constant"
      value: 1
    }
    bias_term: true
    bias_filler {
      type: "constant"
      value: 0
    }
  }
}
layer {
  name: "conv2_1/sep_relu"
  type: "ReLU"
  bottom: "conv2_1/sep"
  top: "conv2_1/sep"
}
layer {
  name: "conv2_2/dw"
  type: "Convolution"
  bottom: "conv2_1/sep"
  top: "conv2_2/dw"
  param {
    lr_mult: 1
    decay_mult: 1
  }
  convolution_param {
    num_output: 64
    bias_term: false
    pad: 1
    kernel_size: 3
    group: 64
    stride: 2
    weight_filler {
      type: "gaussian"
      std: 0.01
    }
    engine: CAFFE
  }
}
layer {
  name: "conv2_2/dw/bn"
  type: "BatchNorm"
  bottom: "conv2_2/dw"
  top: "conv2_2/dw"
  batch_norm_param {
    moving_average_fraction: 0.999
    eps: 0.001
  }
}
layer {
  name: "conv2_2/dw/scale"
  type: "Scale"
  bottom: "conv2_2/dw"
  top: "conv2_2/dw"
  param {
    lr_mult: 1
    decay_mult: 0
  }
  param {
    lr_mult: 1
    decay_mult: 0
  }
  scale_param {
    filler {
      type: "constant"
      value: 1
    }
    bias_term: true
    bias_filler {
      type: "constant"
      value: 0
    }
  }
}
layer {
  name: "conv2_2/dw_relu"
  type: "ReLU"
  bottom: "conv2_2/dw"
  top: "conv2_2/dw"
}
layer {
  name: "conv2_2/sep"
  type: "Convolution"
  bottom: "conv2_2/dw"
  top: "conv2_2/sep"
  param {
    lr_mult: 1
    decay_mult: 1
  }
  convolution_param {
    num_output: 128
    bias_term: false
    pad: 0
    kernel_size: 1
    group: 1
    stride: 1
    weight_filler {
      type: "gaussian"
      std: 0.01
    }
    engine: DEFAULT
  }
}
layer {
  name: "conv2_2/sep/bn"
  type: "BatchNorm"
  bottom: "conv2_2/sep"
  top: "conv2_2/sep"
  batch_norm_param {
    moving_average_fraction: 0.999
    eps: 0.001
  }
}
layer {
  name: "conv2_2/sep/scale"
  type: "Scale"
  bottom: "conv2_2/sep"
  top: "conv2_2/sep"
  param {
    lr_mult: 1
    decay_mult: 0
  }
  param {
    lr_mult: 1
    decay_mult: 0
  }
  scale_param {
    filler {
      type: "constant"
      value: 1
    }
    bias_term: true
    bias_filler {
      type: "constant"
      value: 0
    }
  }
}
layer {
  name: "conv2_2/sep_relu"
  type: "ReLU"
  bottom: "conv2_2/sep"
  top: "conv2_2/sep"
}
layer {
  name: "conv3_1/dw"
  type: "Convolution"
  bottom: "conv2_2/sep"
  top: "conv3_1/dw"
  param {
    lr_mult: 1
    decay_mult: 1
  }
  convolution_param {
    num_output: 128
    bias_term: false
    pad: 1
    kernel_size: 3
    group: 128
    stride: 1
    weight_filler {
      type: "gaussian"
      std: 0.01
    }
    engine: CAFFE
  }
}
layer {
  name: "conv3_1/dw/bn"
  type: "BatchNorm"
  bottom: "conv3_1/dw"
  top: "conv3_1/dw"
  batch_norm_param {
    moving_average_fraction: 0.999
    eps: 0.001
  }
}
layer {
  name: "conv3_1/dw/scale"
  type: "Scale"
  bottom: "conv3_1/dw"
  top: "conv3_1/dw"
  param {
    lr_mult: 1
    decay_mult: 0
  }
  param {
    lr_mult: 1
    decay_mult: 0
  }
  scale_param {
    filler {
      type: "constant"
      value: 1
    }
    bias_term: true
    bias_filler {
      type: "constant"
      value: 0
    }
  }
}
layer {
  name: "conv3_1/dw_relu"
  type: "ReLU"
  bottom: "conv3_1/dw"
  top: "conv3_1/dw"
}
layer {
  name: "conv3_1/sep"
  type: "Convolution"
  bottom: "conv3_1/dw"
  top: "conv3_1/sep"
  param {
    lr_mult: 1
    decay_mult: 1
  }
  convolution_param {
    num_output: 128
    bias_term: false
    pad: 0
    kernel_size: 1
    group: 1
    stride: 1
    weight_filler {
      type: "gaussian"
      std: 0.01
    }
    engine: DEFAULT
  }
}
layer {
  name: "conv3_1/sep/bn"
  type: "BatchNorm"
  bottom: "conv3_1/sep"
  top: "conv3_1/sep"
  batch_norm_param {
    moving_average_fraction: 0.999
    eps: 0.001
  }
}
layer {
  name: "conv3_1/sep/scale"
  type: "Scale"
  bottom: "conv3_1/sep"
  top: "conv3_1/sep"
  param {
    lr_mult: 1
    decay_mult: 0
  }
  param {
    lr_mult: 1
    decay_mult: 0
  }
  scale_param {
    filler {
      type: "constant"
      value: 1
    }
    bias_term: true
    bias_filler {
      type: "constant"
      value: 0
    }
  }
}
layer {
  name: "conv3_1/sep_relu"
  type: "ReLU"
  bottom: "conv3_1/sep"
  top: "conv3_1/sep"
}
layer {
  name: "conv3_2/dw"
  type: "Convolution"
  bottom: "conv3_1/sep"
  top: "conv3_2/dw"
  param {
    lr_mult: 1
    decay_mult: 1
  }
  convolution_param {
    num_output: 128
    bias_term: false
    pad: 1
    kernel_size: 3
    group: 128
    stride: 2
    weight_filler {
      type: "gaussian"
      std: 0.01
    }
    engine: CAFFE
  }
}
layer {
  name: "conv3_2/dw/bn"
  type: "BatchNorm"
  bottom: "conv3_2/dw"
  top: "conv3_2/dw"
  batch_norm_param {
    moving_average_fraction: 0.999
    eps: 0.001
  }
}
layer {
  name: "conv3_2/dw/scale"
  type: "Scale"
  bottom: "conv3_2/dw"
  top: "conv3_2/dw"
  param {
    lr_mult: 1
    decay_mult: 0
  }
  param {
    lr_mult: 1
    decay_mult: 0
  }
  scale_param {
    filler {
      type: "constant"
      value: 1
    }
    bias_term: true
    bias_filler {
      type: "constant"
      value: 0
    }
  }
}
layer {
  name: "conv3_2/dw_relu"
  type: "ReLU"
  bottom: "conv3_2/dw"
  top: "conv3_2/dw"
}
layer {
  name: "conv3_2/sep"
  type: "Convolution"
  bottom: "conv3_2/dw"
  top: "conv3_2/sep"
  param {
    lr_mult: 1
    decay_mult: 1
  }
  convolution_param {
    num_output: 256
    bias_term: false
    pad: 0
    kernel_size: 1
    group: 1
    stride: 1
    weight_filler {
      type: "gaussian"
      std: 0.01
    }
    engine: DEFAULT
  }
}
layer {
  name: "conv3_2/sep/bn"
  type: "BatchNorm"
  bottom: "conv3_2/sep"
  top: "conv3_2/sep"
  batch_norm_param {
    moving_average_fraction: 0.999
    eps: 0.001
  }
}
layer {
  name: "conv3_2/sep/scale"
  type: "Scale"
  bottom: "conv3_2/sep"
  top: "conv3_2/sep"
  param {
    lr_mult: 1
    decay_mult: 0
  }
  param {
    lr_mult: 1
    decay_mult: 0
  }
  scale_param {
    filler {
      type: "constant"
      value: 1
    }
    bias_term: true
    bias_filler {
      type: "constant"
      value: 0
    }
  }
}
layer {
  name: "conv3_2/sep_relu"
  type: "ReLU"
  bottom: "conv3_2/sep"
  top: "conv3_2/sep"
}
layer {
  name: "conv4_1/dw"
  type: "Convolution"
  bottom: "conv3_2/sep"
  top: "conv4_1/dw"
  param {
    lr_mult: 1
    decay_mult: 1
  }
  convolution_param {
    num_output: 256
    bias_term: false
    pad: 1
    kernel_size: 3
    group: 256
    stride: 1
    weight_filler {
      type: "gaussian"
      std: 0.01
    }
    engine: CAFFE
  }
}
layer {
  name: "conv4_1/dw/bn"
  type: "BatchNorm"
  bottom: "conv4_1/dw"
  top: "conv4_1/dw"
  batch_norm_param {
    moving_average_fraction: 0.999
    eps: 0.001
  }
}
layer {
  name: "conv4_1/dw/scale"
  type: "Scale"
  bottom: "conv4_1/dw"
  top: "conv4_1/dw"
  param {
    lr_mult: 1
    decay_mult: 0
  }
  param {
    lr_mult: 1
    decay_mult: 0
  }
  scale_param {
    filler {
      type: "constant"
      value: 1
    }
    bias_term: true
    bias_filler {
      type: "constant"
      value: 0
    }
  }
}
layer {
  name: "conv4_1/dw_relu"
  type: "ReLU"
  bottom: "conv4_1/dw"
  top: "conv4_1/dw"
}
layer {
  name: "conv4_1/sep"
  type: "Convolution"
  bottom: "conv4_1/dw"
  top: "conv4_1/sep"
  param {
    lr_mult: 1
    decay_mult: 1
  }
  convolution_param {
    num_output: 256
    bias_term: false
    pad: 0
    kernel_size: 1
    group: 1
    stride: 1
    weight_filler {
      type: "gaussian"
      std: 0.01
    }
    engine: DEFAULT
  }
}
layer {
  name: "conv4_1/sep/bn"
  type: "BatchNorm"
  bottom: "conv4_1/sep"
  top: "conv4_1/sep"
  batch_norm_param {
    moving_average_fraction: 0.999
    eps: 0.001
  }
}
layer {
  name: "conv4_1/sep/scale"
  type: "Scale"
  bottom: "conv4_1/sep"
  top: "conv4_1/sep"
  param {
    lr_mult: 1
    decay_mult: 0
  }
  param {
    lr_mult: 1
    decay_mult: 0
  }
  scale_param {
    filler {
      type: "constant"
      value: 1
    }
    bias_term: true
    bias_filler {
      type: "constant"
      value: 0
    }
  }
}
layer {
  name: "conv4_1/sep_relu"
  type: "ReLU"
  bottom: "conv4_1/sep"
  top: "conv4_1/sep"
}
layer {
  name: "conv4_2/dw"
  type: "Convolution"
  bottom: "conv4_1/sep"
  top: "conv4_2/dw"
  param {
    lr_mult: 1
    decay_mult: 1
  }
  convolution_param {
    num_output: 256
    bias_term: false
    pad: 1
    kernel_size: 3
    group: 256
    stride: 2
    weight_filler {
      type: "gaussian"
      std: 0.01
    }
    engine: CAFFE
  }
}
layer {
  name: "conv4_2/dw/bn"
  type: "BatchNorm"
  bottom: "conv4_2/dw"
  top: "conv4_2/dw"
  batch_norm_param {
    moving_average_fraction: 0.999
    eps: 0.001
  }
}
layer {
  name: "conv4_2/dw/scale"
  type: "Scale"
  bottom: "conv4_2/dw"
  top: "conv4_2/dw"
  param {
    lr_mult: 1
    decay_mult: 0
  }
  param {
    lr_mult: 1
    decay_mult: 0
  }
  scale_param {
    filler {
      type: "constant"
      value: 1
    }
    bias_term: true
    bias_filler {
      type: "constant"
      value: 0
    }
  }
}
layer {
  name: "conv4_2/dw_relu"
  type: "ReLU"
  bottom: "conv4_2/dw"
  top: "conv4_2/dw"
}
layer {
  name: "conv4_2/sep"
  type: "Convolution"
  bottom: "conv4_2/dw"
  top: "conv4_2/sep"
  param {
    lr_mult: 1
    decay_mult: 1
  }
  convolution_param {
    num_output: 512
    bias_term: false
    pad: 0
    kernel_size: 1
    group: 1
    stride: 1
    weight_filler {
      type: "gaussian"
      std: 0.01
    }
    engine: DEFAULT
  }
}
layer {
  name: "conv4_2/sep/bn"
  type: "BatchNorm"
  bottom: "conv4_2/sep"
  top: "conv4_2/sep"
  batch_norm_param {
    moving_average_fraction: 0.999
    eps: 0.001
  }
}
layer {
  name: "conv4_2/sep/scale"
  type: "Scale"
  bottom: "conv4_2/sep"
  top: "conv4_2/sep"
  param {
    lr_mult: 1
    decay_mult: 0
  }
  param {
    lr_mult: 1
    decay_mult: 0
  }
  scale_param {
    filler {
      type: "constant"
      value: 1
    }
    bias_term: true
    bias_filler {
      type: "constant"
      value: 0
    }
  }
}
layer {
  name: "conv4_2/sep_relu"
  type: "ReLU"
  bottom: "conv4_2/sep"
  top: "conv4_2/sep"
}
layer {
  name: "conv5_1/dw"
  type: "Convolution"
  bottom: "conv4_2/sep"
  top: "conv5_1/dw"
  param {
    lr_mult: 1
    decay_mult: 1
  }
  convolution_param {
    num_output: 512
    bias_term: false
    pad: 1
    kernel_size: 3
    group: 512
    stride: 1
    weight_filler {
      type: "gaussian"
      std: 0.01
    }
    engine: CAFFE
  }
}
layer {
  name: "conv5_1/dw/bn"
  type: "BatchNorm"
  bottom: "conv5_1/dw"
  top: "conv5_1/dw"
  batch_norm_param {
    moving_average_fraction: 0.999
    eps: 0.001
  }
}
layer {
  name: "conv5_1/dw/scale"
  type: "Scale"
  bottom: "conv5_1/dw"
  top: "conv5_1/dw"
  param {
    lr_mult: 1
    decay_mult: 0
  }
  param {
    lr_mult: 1
    decay_mult: 0
  }
  scale_param {
    filler {
      type: "constant"
      value: 1
    }
    bias_term: true
    bias_filler {
      type: "constant"
      value: 0
    }
  }
}
layer {
  name: "conv5_1/dw_relu"
  type: "ReLU"
  bottom: "conv5_1/dw"
  top: "conv5_1/dw"
}
layer {
  name: "conv5_1/sep"
  type: "Convolution"
  bottom: "conv5_1/dw"
  top: "conv5_1/sep"
  param {
    lr_mult: 1
    decay_mult: 1
  }
  convolution_param {
    num_output: 512
    bias_term: false
    pad: 0
    kernel_size: 1
    group: 1
    stride: 1
    weight_filler {
      type: "gaussian"
      std: 0.01
    }
    engine: DEFAULT
  }
}
layer {
  name: "conv5_1/sep/bn"
  type: "BatchNorm"
  bottom: "conv5_1/sep"
  top: "conv5_1/sep"
  batch_norm_param {
    moving_average_fraction: 0.999
    eps: 0.001
  }
}
layer {
  name: "conv5_1/sep/scale"
  type: "Scale"
  bottom: "conv5_1/sep"
  top: "conv5_1/sep"
  param {
    lr_mult: 1
    decay_mult: 0
  }
  param {
    lr_mult: 1
    decay_mult: 0
  }
  scale_param {
    filler {
      type: "constant"
      value: 1
    }
    bias_term: true
    bias_filler {
      type: "constant"
      value: 0
    }
  }
}
layer {
  name: "conv5_1/sep_relu"
  type: "ReLU"
  bottom: "conv5_1/sep"
  top: "conv5_1/sep"
}
layer {
  name: "conv5_2/dw"
  type: "Convolution"
  bottom: "conv5_1/sep"
  top: "conv5_2/dw"
  param {
    lr_mult: 1
    decay_mult: 1
  }
  convolution_param {
    num_output: 512
    bias_term: false
    pad: 1
    kernel_size: 3
    group: 512
    stride: 1
    weight_filler {
      type: "gaussian"
      std: 0.01
    }
    engine: CAFFE
  }
}
layer {
  name: "conv5_2/dw/bn"
  type: "BatchNorm"
  bottom: "conv5_2/dw"
  top: "conv5_2/dw"
  batch_norm_param {
    moving_average_fraction: 0.999
    eps: 0.001
  }
}
layer {
  name: "conv5_2/dw/scale"
  type: "Scale"
  bottom: "conv5_2/dw"
  top: "conv5_2/dw"
  param {
    lr_mult: 1
    decay_mult: 0
  }
  param {
    lr_mult: 1
    decay_mult: 0
  }
  scale_param {
    filler {
      type: "constant"
      value: 1
    }
    bias_term: true
    bias_filler {
      type: "constant"
      value: 0
    }
  }
}
layer {
  name: "conv5_2/dw_relu"
  type: "ReLU"
  bottom: "conv5_2/dw"
  top: "conv5_2/dw"
}
layer {
  name: "conv5_2/sep"
  type: "Convolution"
  bottom: "conv5_2/dw"
  top: "conv5_2/sep"
  param {
    lr_mult: 1
    decay_mult: 1
  }
  convolution_param {
    num_output: 512
    bias_term: false
    pad: 0
    kernel_size: 1
    group: 1
    stride: 1
    weight_filler {
      type: "gaussian"
      std: 0.01
    }
    engine: DEFAULT
  }
}
layer {
  name: "conv5_2/sep/bn"
  type: "BatchNorm"
  bottom: "conv5_2/sep"
  top: "conv5_2/sep"
  batch_norm_param {
    moving_average_fraction: 0.999
    eps: 0.001
  }
}
layer {
  name: "conv5_2/sep/scale"
  type: "Scale"
  bottom: "conv5_2/sep"
  top: "conv5_2/sep"
  param {
    lr_mult: 1
    decay_mult: 0
  }
  param {
    lr_mult: 1
    decay_mult: 0
  }
  scale_param {
    filler {
      type: "constant"
      value: 1
    }
    bias_term: true
    bias_filler {
      type: "constant"
      value: 0
    }
  }
}
layer {
  name: "conv5_2/sep_relu"
  type: "ReLU"
  bottom: "conv5_2/sep"
  top: "conv5_2/sep"
}
layer {
  name: "conv5_3/dw"
  type: "Convolution"
  bottom: "conv5_2/sep"
  top: "conv5_3/dw"
  param {
    lr_mult: 1
    decay_mult: 1
  }
  convolution_param {
    num_output: 512
    bias_term: false
    pad: 1
    kernel_size: 3
    group: 512
    stride: 1
    weight_filler {
      type: "gaussian"
      std: 0.01
    }
    engine: CAFFE
  }
}
layer {
  name: "conv5_3/dw/bn"
  type: "BatchNorm"
  bottom: "conv5_3/dw"
  top: "conv5_3/dw"
  batch_norm_param {
    moving_average_fraction: 0.999
    eps: 0.001
  }
}
layer {
  name: "conv5_3/dw/scale"
  type: "Scale"
  bottom: "conv5_3/dw"
  top: "conv5_3/dw"
  param {
    lr_mult: 1
    decay_mult: 0
  }
  param {
    lr_mult: 1
    decay_mult: 0
  }
  scale_param {
    filler {
      type: "constant"
      value: 1
    }
    bias_term: true
    bias_filler {
      type: "constant"
      value: 0
    }
  }
}
layer {
  name: "conv5_3/dw_relu"
  type: "ReLU"
  bottom: "conv5_3/dw"
  top: "conv5_3/dw"
}
layer {
  name: "conv5_3/sep"
  type: "Convolution"
  bottom: "conv5_3/dw"
  top: "conv5_3/sep"
  param {
    lr_mult: 1
    decay_mult: 1
  }
  convolution_param {
    num_output: 512
    bias_term: false
    pad: 0
    kernel_size: 1
    group: 1
    stride: 1
    weight_filler {
      type: "gaussian"
      std: 0.01
    }
    engine: DEFAULT
  }
}
layer {
  name: "conv5_3/sep/bn"
  type: "BatchNorm"
  bottom: "conv5_3/sep"
  top: "conv5_3/sep"
  batch_norm_param {
    moving_average_fraction: 0.999
    eps: 0.001
  }
}
layer {
  name: "conv5_3/sep/scale"
  type: "Scale"
  bottom: "conv5_3/sep"
  top: "conv5_3/sep"
  param {
    lr_mult: 1
    decay_mult: 0
  }
  param {
    lr_mult: 1
    decay_mult: 0
  }
  scale_param {
    filler {
      type: "constant"
      value: 1
    }
    bias_term: true
    bias_filler {
      type: "constant"
      value: 0
    }
  }
}
layer {
  name: "conv5_3/sep_relu"
  type: "ReLU"
  bottom: "conv5_3/sep"
  top: "conv5_3/sep"
}
layer {
  name: "conv5_4/dw"
  type: "Convolution"
  bottom: "conv5_3/sep"
  top: "conv5_4/dw"
  param {
    lr_mult: 1
    decay_mult: 1
  }
  convolution_param {
    num_output: 512
    bias_term: false
    pad: 1
    kernel_size: 3
    group: 512
    stride: 1
    weight_filler {
      type: "gaussian"
      std: 0.01
    }
    engine: CAFFE
  }
}
layer {
  name: "conv5_4/dw/bn"
  type: "BatchNorm"
  bottom: "conv5_4/dw"
  top: "conv5_4/dw"
  batch_norm_param {
    moving_average_fraction: 0.999
    eps: 0.001
  }
}
layer {
  name: "conv5_4/dw/scale"
  type: "Scale"
  bottom: "conv5_4/dw"
  top: "conv5_4/dw"
  param {
    lr_mult: 1
    decay_mult: 0
  }
  param {
    lr_mult: 1
    decay_mult: 0
  }
  scale_param {
    filler {
      type: "constant"
      value: 1
    }
    bias_term: true
    bias_filler {
      type: "constant"
      value: 0
    }
  }
}
layer {
…
I0717 10:13:06.471832  3874 net.cpp:157] Top shape: 8 512 10 10 (409600)
I0717 10:13:06.471834  3874 net.cpp:165] Memory required for data: 1228214912
I0717 10:13:06.471837  3874 layer_factory.hpp:77] Creating layer conv5_6/sep
I0717 10:13:06.471843  3874 net.cpp:100] Creating Layer conv5_6/sep
I0717 10:13:06.471844  3874 net.cpp:434] conv5_6/sep <- conv5_6/dw
I0717 10:13:06.471849  3874 net.cpp:408] conv5_6/sep -> conv5_6/sep
I0717 10:13:06.477406  3874 net.cpp:150] Setting up conv5_6/sep
I0717 10:13:06.477413  3874 net.cpp:157] Top shape: 8 1024 10 10 (819200)
I0717 10:13:06.477416  3874 net.cpp:165] Memory required for data: 1231491712
I0717 10:13:06.477418  3874 layer_factory.hpp:77] Creating layer conv5_6/sep/bn
I0717 10:13:06.477423  3874 net.cpp:100] Creating Layer conv5_6/sep/bn
I0717 10:13:06.477425  3874 net.cpp:434] conv5_6/sep/bn <- conv5_6/sep
I0717 10:13:06.477429  3874 net.cpp:395] conv5_6/sep/bn -> conv5_6/sep (in-place)
I0717 10:13:06.477586  3874 net.cpp:150] Setting up conv5_6/sep/bn
I0717 10:13:06.477591  3874 net.cpp:157] Top shape: 8 1024 10 10 (819200)
I0717 10:13:06.477591  3874 net.cpp:165] Memory required for data: 1234768512
I0717 10:13:06.477596  3874 layer_factory.hpp:77] Creating layer conv5_6/sep/scale
I0717 10:13:06.477600  3874 net.cpp:100] Creating Layer conv5_6/sep/scale
I0717 10:13:06.477602  3874 net.cpp:434] conv5_6/sep/scale <- conv5_6/sep
I0717 10:13:06.477605  3874 net.cpp:395] conv5_6/sep/scale -> conv5_6/sep (in-place)
I0717 10:13:06.477643  3874 layer_factory.hpp:77] Creating layer conv5_6/sep/scale
I0717 10:13:06.477732  3874 net.cpp:150] Setting up conv5_6/sep/scale
I0717 10:13:06.477736  3874 net.cpp:157] Top shape: 8 1024 10 10 (819200)
I0717 10:13:06.477738  3874 net.cpp:165] Memory required for data: 1238045312
I0717 10:13:06.477741  3874 layer_factory.hpp:77] Creating layer conv5_6/sep_relu
I0717 10:13:06.477746  3874 net.cpp:100] Creating Layer conv5_6/sep_relu
I0717 10:13:06.477747  3874 net.cpp:434] conv5_6/sep_relu <- conv5_6/sep
I0717 10:13:06.477749  3874 net.cpp:395] conv5_6/sep_relu -> conv5_6/sep (in-place)
I0717 10:13:06.478319  3874 net.cpp:150] Setting up conv5_6/sep_relu
I0717 10:13:06.478327  3874 net.cpp:157] Top shape: 8 1024 10 10 (819200)
I0717 10:13:06.478328  3874 net.cpp:165] Memory required for data: 1241322112
I0717 10:13:06.478330  3874 layer_factory.hpp:77] Creating layer conv6/dw
I0717 10:13:06.478351  3874 net.cpp:100] Creating Layer conv6/dw
I0717 10:13:06.478355  3874 net.cpp:434] conv6/dw <- conv5_6/sep
I0717 10:13:06.478377  3874 net.cpp:408] conv6/dw -> conv6/dw
I0717 10:13:06.478608  3874 net.cpp:150] Setting up conv6/dw
I0717 10:13:06.478613  3874 net.cpp:157] Top shape: 8 1024 10 10 (819200)
I0717 10:13:06.478615  3874 net.cpp:165] Memory required for data: 1244598912
I0717 10:13:06.478618  3874 layer_factory.hpp:77] Creating layer conv6/dw/bn
I0717 10:13:06.478621  3874 net.cpp:100] Creating Layer conv6/dw/bn
I0717 10:13:06.478623  3874 net.cpp:434] conv6/dw/bn <- conv6/dw
I0717 10:13:06.478628  3874 net.cpp:395] conv6/dw/bn -> conv6/dw (in-place)
I0717 10:13:06.478778  3874 net.cpp:150] Setting up conv6/dw/bn
I0717 10:13:06.478782  3874 net.cpp:157] Top shape: 8 1024 10 10 (819200)
I0717 10:13:06.478785  3874 net.cpp:165] Memory required for data: 1247875712
I0717 10:13:06.478788  3874 layer_factory.hpp:77] Creating layer conv6/dw/scale
I0717 10:13:06.478792  3874 net.cpp:100] Creating Layer conv6/dw/scale
I0717 10:13:06.478794  3874 net.cpp:434] conv6/dw/scale <- conv6/dw
I0717 10:13:06.478797  3874 net.cpp:395] conv6/dw/scale -> conv6/dw (in-place)
I0717 10:13:06.478832  3874 layer_factory.hpp:77] Creating layer conv6/dw/scale
I0717 10:13:06.478924  3874 net.cpp:150] Setting up conv6/dw/scale
I0717 10:13:06.478927  3874 net.cpp:157] Top shape: 8 1024 10 10 (819200)
I0717 10:13:06.478929  3874 net.cpp:165] Memory required for data: 1251152512
I0717 10:13:06.478932  3874 layer_factory.hpp:77] Creating layer conv6/dw_relu
I0717 10:13:06.478935  3874 net.cpp:100] Creating Layer conv6/dw_relu
I0717 10:13:06.478937  3874 net.cpp:434] conv6/dw_relu <- conv6/dw
I0717 10:13:06.478940  3874 net.cpp:395] conv6/dw_relu -> conv6/dw (in-place)
I0717 10:13:06.479100  3874 net.cpp:150] Setting up conv6/dw_relu
I0717 10:13:06.479106  3874 net.cpp:157] Top shape: 8 1024 10 10 (819200)
I0717 10:13:06.479107  3874 net.cpp:165] Memory required for data: 1254429312
I0717 10:13:06.479110  3874 layer_factory.hpp:77] Creating layer conv6/sep
I0717 10:13:06.479116  3874 net.cpp:100] Creating Layer conv6/sep
I0717 10:13:06.479118  3874 net.cpp:434] conv6/sep <- conv6/dw
I0717 10:13:06.479121  3874 net.cpp:408] conv6/sep -> conv6/sep
I0717 10:13:06.489558  3874 net.cpp:150] Setting up conv6/sep
I0717 10:13:06.489568  3874 net.cpp:157] Top shape: 8 1024 10 10 (819200)
I0717 10:13:06.489570  3874 net.cpp:165] Memory required for data: 1257706112
I0717 10:13:06.489574  3874 layer_factory.hpp:77] Creating layer conv6/sep/bn
I0717 10:13:06.489578  3874 net.cpp:100] Creating Layer conv6/sep/bn
I0717 10:13:06.489581  3874 net.cpp:434] conv6/sep/bn <- conv6/sep
I0717 10:13:06.489588  3874 net.cpp:395] conv6/sep/bn -> conv6/sep (in-place)
I0717 10:13:06.489754  3874 net.cpp:150] Setting up conv6/sep/bn
I0717 10:13:06.489758  3874 net.cpp:157] Top shape: 8 1024 10 10 (819200)
I0717 10:13:06.489759  3874 net.cpp:165] Memory required for data: 1260982912
I0717 10:13:06.489764  3874 layer_factory.hpp:77] Creating layer conv6/sep/scale
I0717 10:13:06.489768  3874 net.cpp:100] Creating Layer conv6/sep/scale
I0717 10:13:06.489770  3874 net.cpp:434] conv6/sep/scale <- conv6/sep
I0717 10:13:06.489774  3874 net.cpp:395] conv6/sep/scale -> conv6/sep (in-place)
I0717 10:13:06.489811  3874 layer_factory.hpp:77] Creating layer conv6/sep/scale
I0717 10:13:06.489905  3874 net.cpp:150] Setting up conv6/sep/scale
I0717 10:13:06.489909  3874 net.cpp:157] Top shape: 8 1024 10 10 (819200)
I0717 10:13:06.489912  3874 net.cpp:165] Memory required for data: 1264259712
I0717 10:13:06.489914  3874 layer_factory.hpp:77] Creating layer conv6/sep_relu
I0717 10:13:06.489917  3874 net.cpp:100] Creating Layer conv6/sep_relu
I0717 10:13:06.489919  3874 net.cpp:434] conv6/sep_relu <- conv6/sep
I0717 10:13:06.489923  3874 net.cpp:395] conv6/sep_relu -> conv6/sep (in-place)
I0717 10:13:06.490499  3874 net.cpp:150] Setting up conv6/sep_relu
I0717 10:13:06.490506  3874 net.cpp:157] Top shape: 8 1024 10 10 (819200)
I0717 10:13:06.490507  3874 net.cpp:165] Memory required for data: 1267536512
I0717 10:13:06.490509  3874 layer_factory.hpp:77] Creating layer conv6/sep_conv6/sep_relu_0_split
I0717 10:13:06.490525  3874 net.cpp:100] Creating Layer conv6/sep_conv6/sep_relu_0_split
I0717 10:13:06.490526  3874 net.cpp:434] conv6/sep_conv6/sep_relu_0_split <- conv6/sep
I0717 10:13:06.490530  3874 net.cpp:408] conv6/sep_conv6/sep_relu_0_split -> conv6/sep_conv6/sep_relu_0_split_0
I0717 10:13:06.490536  3874 net.cpp:408] conv6/sep_conv6/sep_relu_0_split -> conv6/sep_conv6/sep_relu_0_split_1
I0717 10:13:06.490540  3874 net.cpp:408] conv6/sep_conv6/sep_relu_0_split -> conv6/sep_conv6/sep_relu_0_split_2
I0717 10:13:06.490543  3874 net.cpp:408] conv6/sep_conv6/sep_relu_0_split -> conv6/sep_conv6/sep_relu_0_split_3
I0717 10:13:06.490594  3874 net.cpp:150] Setting up conv6/sep_conv6/sep_relu_0_split
I0717 10:13:06.490598  3874 net.cpp:157] Top shape: 8 1024 10 10 (819200)
I0717 10:13:06.490600  3874 net.cpp:157] Top shape: 8 1024 10 10 (819200)
I0717 10:13:06.490602  3874 net.cpp:157] Top shape: 8 1024 10 10 (819200)
I0717 10:13:06.490604  3874 net.cpp:157] Top shape: 8 1024 10 10 (819200)
I0717 10:13:06.490607  3874 net.cpp:165] Memory required for data: 1280643712
I0717 10:13:06.490607  3874 layer_factory.hpp:77] Creating layer conv7_1
I0717 10:13:06.490614  3874 net.cpp:100] Creating Layer conv7_1
I0717 10:13:06.490617  3874 net.cpp:434] conv7_1 <- conv6/sep_conv6/sep_relu_0_split_0
I0717 10:13:06.490620  3874 net.cpp:408] conv7_1 -> conv7_1
I0717 10:13:06.493654  3874 net.cpp:150] Setting up conv7_1
I0717 10:13:06.493664  3874 net.cpp:157] Top shape: 8 256 10 10 (204800)
I0717 10:13:06.493665  3874 net.cpp:165] Memory required for data: 1281462912
I0717 10:13:06.493669  3874 layer_factory.hpp:77] Creating layer conv7_1_relu
I0717 10:13:06.493674  3874 net.cpp:100] Creating Layer conv7_1_relu
I0717 10:13:06.493675  3874 net.cpp:434] conv7_1_relu <- conv7_1
I0717 10:13:06.493680  3874 net.cpp:395] conv7_1_relu -> conv7_1 (in-place)
I0717 10:13:06.493836  3874 net.cpp:150] Setting up conv7_1_relu
I0717 10:13:06.493841  3874 net.cpp:157] Top shape: 8 256 10 10 (204800)
I0717 10:13:06.493844  3874 net.cpp:165] Memory required for data: 1282282112
I0717 10:13:06.493845  3874 layer_factory.hpp:77] Creating layer conv7_2
I0717 10:13:06.493851  3874 net.cpp:100] Creating Layer conv7_2
I0717 10:13:06.493854  3874 net.cpp:434] conv7_2 <- conv7_1
I0717 10:13:06.493860  3874 net.cpp:408] conv7_2 -> conv7_2
I0717 10:13:06.501528  3874 net.cpp:150] Setting up conv7_2
I0717 10:13:06.501538  3874 net.cpp:157] Top shape: 8 512 5 5 (102400)
I0717 10:13:06.501539  3874 net.cpp:165] Memory required for data: 1282691712
I0717 10:13:06.501543  3874 layer_factory.hpp:77] Creating layer conv7_2_relu
I0717 10:13:06.501547  3874 net.cpp:100] Creating Layer conv7_2_relu
I0717 10:13:06.501550  3874 net.cpp:434] conv7_2_relu <- conv7_2
I0717 10:13:06.501554  3874 net.cpp:395] conv7_2_relu -> conv7_2 (in-place)
I0717 10:13:06.501706  3874 net.cpp:150] Setting up conv7_2_relu
I0717 10:13:06.501713  3874 net.cpp:157] Top shape: 8 512 5 5 (102400)
I0717 10:13:06.501713  3874 net.cpp:165] Memory required for data: 1283101312
I0717 10:13:06.501715  3874 layer_factory.hpp:77] Creating layer conv7_2_conv7_2_relu_0_split
I0717 10:13:06.501720  3874 net.cpp:100] Creating Layer conv7_2_conv7_2_relu_0_split
I0717 10:13:06.501723  3874 net.cpp:434] conv7_2_conv7_2_relu_0_split <- conv7_2
I0717 10:13:06.501725  3874 net.cpp:408] conv7_2_conv7_2_relu_0_split -> conv7_2_conv7_2_relu_0_split_0
I0717 10:13:06.501730  3874 net.cpp:408] conv7_2_conv7_2_relu_0_split -> conv7_2_conv7_2_relu_0_split_1
I0717 10:13:06.501734  3874 net.cpp:408] conv7_2_conv7_2_relu_0_split -> conv7_2_conv7_2_relu_0_split_2
I0717 10:13:06.501739  3874 net.cpp:408] conv7_2_conv7_2_relu_0_split -> conv7_2_conv7_2_relu_0_split_3
I0717 10:13:06.501790  3874 net.cpp:150] Setting up conv7_2_conv7_2_relu_0_split
I0717 10:13:06.501793  3874 net.cpp:157] Top shape: 8 512 5 5 (102400)
I0717 10:13:06.501796  3874 net.cpp:157] Top shape: 8 512 5 5 (102400)
I0717 10:13:06.501797  3874 net.cpp:157] Top shape: 8 512 5 5 (102400)
I0717 10:13:06.501799  3874 net.cpp:157] Top shape: 8 512 5 5 (102400)
I0717 10:13:06.501811  3874 net.cpp:165] Memory required for data: 1284739712
I0717 10:13:06.501812  3874 layer_factory.hpp:77] Creating layer conv8_1
I0717 10:13:06.501819  3874 net.cpp:100] Creating Layer conv8_1
I0717 10:13:06.501821  3874 net.cpp:434] conv8_1 <- conv7_2_conv7_2_relu_0_split_0
I0717 10:13:06.501827  3874 net.cpp:408] conv8_1 -> conv8_1
I0717 10:13:06.504245  3874 net.cpp:150] Setting up conv8_1
I0717 10:13:06.504254  3874 net.cpp:157] Top shape: 8 128 5 5 (25600)
I0717 10:13:06.504256  3874 net.cpp:165] Memory required for data: 1284842112
I0717 10:13:06.504261  3874 layer_factory.hpp:77] Creating layer conv8_1_relu
I0717 10:13:06.504264  3874 net.cpp:100] Creating Layer conv8_1_relu
I0717 10:13:06.504266  3874 net.cpp:434] conv8_1_relu <- conv8_1
I0717 10:13:06.504269  3874 net.cpp:395] conv8_1_relu -> conv8_1 (in-place)
I0717 10:13:06.504881  3874 net.cpp:150] Setting up conv8_1_relu
I0717 10:13:06.504889  3874 net.cpp:157] Top shape: 8 128 5 5 (25600)
I0717 10:13:06.504890  3874 net.cpp:165] Memory required for data: 1284944512
I0717 10:13:06.504892  3874 layer_factory.hpp:77] Creating layer conv8_2
I0717 10:13:06.504899  3874 net.cpp:100] Creating Layer conv8_2
I0717 10:13:06.504901  3874 net.cpp:434] conv8_2 <- conv8_1
I0717 10:13:06.504906  3874 net.cpp:408] conv8_2 -> conv8_2
I0717 10:13:06.508185  3874 net.cpp:150] Setting up conv8_2
I0717 10:13:06.508193  3874 net.cpp:157] Top shape: 8 256 3 3 (18432)
I0717 10:13:06.508195  3874 net.cpp:165] Memory required for data: 1285018240
I0717 10:13:06.508199  3874 layer_factory.hpp:77] Creating layer conv8_2_relu
I0717 10:13:06.508203  3874 net.cpp:100] Creating Layer conv8_2_relu
I0717 10:13:06.508205  3874 net.cpp:434] conv8_2_relu <- conv8_2
I0717 10:13:06.508209  3874 net.cpp:395] conv8_2_relu -> conv8_2 (in-place)
I0717 10:13:06.508366  3874 net.cpp:150] Setting up conv8_2_relu
I0717 10:13:06.508373  3874 net.cpp:157] Top shape: 8 256 3 3 (18432)
I0717 10:13:06.508373  3874 net.cpp:165] Memory required for data: 1285091968
I0717 10:13:06.508375  3874 layer_factory.hpp:77] Creating layer conv8_2_conv8_2_relu_0_split
I0717 10:13:06.508380  3874 net.cpp:100] Creating Layer conv8_2_conv8_2_relu_0_split
I0717 10:13:06.508383  3874 net.cpp:434] conv8_2_conv8_2_relu_0_split <- conv8_2
I0717 10:13:06.508386  3874 net.cpp:408] conv8_2_conv8_2_relu_0_split -> conv8_2_conv8_2_relu_0_split_0
I0717 10:13:06.508391  3874 net.cpp:408] conv8_2_conv8_2_relu_0_split -> conv8_2_conv8_2_relu_0_split_1
I0717 10:13:06.508395  3874 net.cpp:408] conv8_2_conv8_2_relu_0_split -> conv8_2_conv8_2_relu_0_split_2
I0717 10:13:06.508399  3874 net.cpp:408] conv8_2_conv8_2_relu_0_split -> conv8_2_conv8_2_relu_0_split_3
I0717 10:13:06.508452  3874 net.cpp:150] Setting up conv8_2_conv8_2_relu_0_split
I0717 10:13:06.508456  3874 net.cpp:157] Top shape: 8 256 3 3 (18432)
I0717 10:13:06.508458  3874 net.cpp:157] Top shape: 8 256 3 3 (18432)
I0717 10:13:06.508460  3874 net.cpp:157] Top shape: 8 256 3 3 (18432)
I0717 10:13:06.508462  3874 net.cpp:157] Top shape: 8 256 3 3 (18432)
I0717 10:13:06.508463  3874 net.cpp:165] Memory required for data: 1285386880
I0717 10:13:06.508466  3874 layer_factory.hpp:77] Creating layer conv9_1
I0717 10:13:06.508471  3874 net.cpp:100] Creating Layer conv9_1
I0717 10:13:06.508473  3874 net.cpp:434] conv9_1 <- conv8_2_conv8_2_relu_0_split_0
I0717 10:13:06.508479  3874 net.cpp:408] conv9_1 -> conv9_1
I0717 10:13:06.510653  3874 net.cpp:150] Setting up conv9_1
I0717 10:13:06.510663  3874 net.cpp:157] Top shape: 8 128 3 3 (9216)
I0717 10:13:06.510663  3874 net.cpp:165] Memory required for data: 1285423744
I0717 10:13:06.510668  3874 layer_factory.hpp:77] Creating layer conv9_1_relu
I0717 10:13:06.510673  3874 net.cpp:100] Creating Layer conv9_1_relu
I0717 10:13:06.510674  3874 net.cpp:434] conv9_1_relu <- conv9_1
I0717 10:13:06.510679  3874 net.cpp:395] conv9_1_relu -> conv9_1 (in-place)
I0717 10:13:06.510834  3874 net.cpp:150] Setting up conv9_1_relu
I0717 10:13:06.510840  3874 net.cpp:157] Top shape: 8 128 3 3 (9216)
I0717 10:13:06.510841  3874 net.cpp:165] Memory required for data: 1285460608
I0717 10:13:06.510852  3874 layer_factory.hpp:77] Creating layer conv9_2
I0717 10:13:06.510859  3874 net.cpp:100] Creating Layer conv9_2
I0717 10:13:06.510861  3874 net.cpp:434] conv9_2 <- conv9_1
I0717 10:13:06.510865  3874 net.cpp:408] conv9_2 -> conv9_2
I0717 10:13:06.514005  3874 net.cpp:150] Setting up conv9_2
I0717 10:13:06.514014  3874 net.cpp:157] Top shape: 8 256 2 2 (8192)
I0717 10:13:06.514015  3874 net.cpp:165] Memory required for data: 1285493376
I0717 10:13:06.514019  3874 layer_factory.hpp:77] Creating layer conv9_2_relu
I0717 10:13:06.514024  3874 net.cpp:100] Creating Layer conv9_2_relu
I0717 10:13:06.514025  3874 net.cpp:434] conv9_2_relu <- conv9_2
I0717 10:13:06.514029  3874 net.cpp:395] conv9_2_relu -> conv9_2 (in-place)
I0717 10:13:06.514605  3874 net.cpp:150] Setting up conv9_2_relu
I0717 10:13:06.514613  3874 net.cpp:157] Top shape: 8 256 2 2 (8192)
I0717 10:13:06.514616  3874 net.cpp:165] Memory required for data: 1285526144
I0717 10:13:06.514617  3874 layer_factory.hpp:77] Creating layer conv9_2_conv9_2_relu_0_split
I0717 10:13:06.514621  3874 net.cpp:100] Creating Layer conv9_2_conv9_2_relu_0_split
I0717 10:13:06.514623  3874 net.cpp:434] conv9_2_conv9_2_relu_0_split <- conv9_2
I0717 10:13:06.514629  3874 net.cpp:408] conv9_2_conv9_2_relu_0_split -> conv9_2_conv9_2_relu_0_split_0
I0717 10:13:06.514634  3874 net.cpp:408] conv9_2_conv9_2_relu_0_split -> conv9_2_conv9_2_relu_0_split_1
I0717 10:13:06.514638  3874 net.cpp:408] conv9_2_conv9_2_relu_0_split -> conv9_2_conv9_2_relu_0_split_2
I0717 10:13:06.514642  3874 net.cpp:408] conv9_2_conv9_2_relu_0_split -> conv9_2_conv9_2_relu_0_split_3
I0717 10:13:06.514694  3874 net.cpp:150] Setting up conv9_2_conv9_2_relu_0_split
I0717 10:13:06.514698  3874 net.cpp:157] Top shape: 8 256 2 2 (8192)
I0717 10:13:06.514700  3874 net.cpp:157] Top shape: 8 256 2 2 (8192)
I0717 10:13:06.514703  3874 net.cpp:157] Top shape: 8 256 2 2 (8192)
I0717 10:13:06.514704  3874 net.cpp:157] Top shape: 8 256 2 2 (8192)
I0717 10:13:06.514706  3874 net.cpp:165] Memory required for data: 1285657216
I0717 10:13:06.514708  3874 layer_factory.hpp:77] Creating layer conv10_1
I0717 10:13:06.514714  3874 net.cpp:100] Creating Layer conv10_1
I0717 10:13:06.514716  3874 net.cpp:434] conv10_1 <- conv9_2_conv9_2_relu_0_split_0
I0717 10:13:06.514720  3874 net.cpp:408] conv10_1 -> conv10_1
I0717 10:13:06.516368  3874 net.cpp:150] Setting up conv10_1
I0717 10:13:06.516376  3874 net.cpp:157] Top shape: 8 128 2 2 (4096)
I0717 10:13:06.516378  3874 net.cpp:165] Memory required for data: 1285673600
I0717 10:13:06.516382  3874 layer_factory.hpp:77] Creating layer conv10_1_relu
I0717 10:13:06.516399  3874 net.cpp:100] Creating Layer conv10_1_relu
I0717 10:13:06.516402  3874 net.cpp:434] conv10_1_relu <- conv10_1
I0717 10:13:06.516405  3874 net.cpp:395] conv10_1_relu -> conv10_1 (in-place)
I0717 10:13:06.516607  3874 net.cpp:150] Setting up conv10_1_relu
I0717 10:13:06.516613  3874 net.cpp:157] Top shape: 8 128 2 2 (4096)
I0717 10:13:06.516614  3874 net.cpp:165] Memory required for data: 1285689984
I0717 10:13:06.516618  3874 layer_factory.hpp:77] Creating layer conv10_2
I0717 10:13:06.516623  3874 net.cpp:100] Creating Layer conv10_2
I0717 10:13:06.516625  3874 net.cpp:434] conv10_2 <- conv10_1
I0717 10:13:06.516629  3874 net.cpp:408] conv10_2 -> conv10_2
I0717 10:13:06.519891  3874 net.cpp:150] Setting up conv10_2
I0717 10:13:06.519901  3874 net.cpp:157] Top shape: 8 256 1 1 (2048)
I0717 10:13:06.519904  3874 net.cpp:165] Memory required for data: 1285698176
I0717 10:13:06.519912  3874 layer_factory.hpp:77] Creating layer conv10_2_relu
I0717 10:13:06.519917  3874 net.cpp:100] Creating Layer conv10_2_relu
I0717 10:13:06.519922  3874 net.cpp:434] conv10_2_relu <- conv10_2
I0717 10:13:06.519925  3874 net.cpp:395] conv10_2_relu -> conv10_2 (in-place)
I0717 10:13:06.520141  3874 net.cpp:150] Setting up conv10_2_relu
I0717 10:13:06.520149  3874 net.cpp:157] Top shape: 8 256 1 1 (2048)
I0717 10:13:06.520153  3874 net.cpp:165] Memory required for data: 1285706368
I0717 10:13:06.520166  3874 layer_factory.hpp:77] Creating layer conv10_2_conv10_2_relu_0_split
I0717 10:13:06.520172  3874 net.cpp:100] Creating Layer conv10_2_conv10_2_relu_0_split
I0717 10:13:06.520176  3874 net.cpp:434] conv10_2_conv10_2_relu_0_split <- conv10_2
I0717 10:13:06.520182  3874 net.cpp:408] conv10_2_conv10_2_relu_0_split -> conv10_2_conv10_2_relu_0_split_0
I0717 10:13:06.520200  3874 net.cpp:408] conv10_2_conv10_2_relu_0_split -> conv10_2_conv10_2_relu_0_split_1
I0717 10:13:06.520206  3874 net.cpp:408] conv10_2_conv10_2_relu_0_split -> conv10_2_conv10_2_relu_0_split_2
I0717 10:13:06.520263  3874 net.cpp:150] Setting up conv10_2_conv10_2_relu_0_split
I0717 10:13:06.520270  3874 net.cpp:157] Top shape: 8 256 1 1 (2048)
I0717 10:13:06.520274  3874 net.cpp:157] Top shape: 8 256 1 1 (2048)
I0717 10:13:06.520278  3874 net.cpp:157] Top shape: 8 256 1 1 (2048)
I0717 10:13:06.520282  3874 net.cpp:165] Memory required for data: 1285730944
I0717 10:13:06.520284  3874 layer_factory.hpp:77] Creating layer conv5_5/sep_mbox_loc
I0717 10:13:06.520294  3874 net.cpp:100] Creating Layer conv5_5/sep_mbox_loc
I0717 10:13:06.520298  3874 net.cpp:434] conv5_5/sep_mbox_loc <- conv5_5/sep_conv5_5/sep_relu_0_split_1
I0717 10:13:06.520305  3874 net.cpp:408] conv5_5/sep_mbox_loc -> conv5_5/sep_mbox_loc
I0717 10:13:06.522526  3874 net.cpp:150] Setting up conv5_5/sep_mbox_loc
I0717 10:13:06.522536  3874 net.cpp:157] Top shape: 8 12 19 19 (34656)
I0717 10:13:06.522537  3874 net.cpp:165] Memory required for data: 1285869568
I0717 10:13:06.522542  3874 layer_factory.hpp:77] Creating layer conv5_5/sep_mbox_loc_perm
I0717 10:13:06.522547  3874 net.cpp:100] Creating Layer conv5_5/sep_mbox_loc_perm
I0717 10:13:06.522549  3874 net.cpp:434] conv5_5/sep_mbox_loc_perm <- conv5_5/sep_mbox_loc
I0717 10:13:06.522553  3874 net.cpp:408] conv5_5/sep_mbox_loc_perm -> conv5_5/sep_mbox_loc_perm
I0717 10:13:06.522639  3874 net.cpp:150] Setting up conv5_5/sep_mbox_loc_perm
I0717 10:13:06.522644  3874 net.cpp:157] Top shape: 8 19 19 12 (34656)
I0717 10:13:06.522646  3874 net.cpp:165] Memory required for data: 1286008192
I0717 10:13:06.522649  3874 layer_factory.hpp:77] Creating layer conv5_5/sep_mbox_loc_flat
I0717 10:13:06.522651  3874 net.cpp:100] Creating Layer conv5_5/sep_mbox_loc_flat
I0717 10:13:06.522653  3874 net.cpp:434] conv5_5/sep_mbox_loc_flat <- conv5_5/sep_mbox_loc_perm
I0717 10:13:06.522657  3874 net.cpp:408] conv5_5/sep_mbox_loc_flat -> conv5_5/sep_mbox_loc_flat
I0717 10:13:06.522677  3874 net.cpp:150] Setting up conv5_5/sep_mbox_loc_flat
I0717 10:13:06.522680  3874 net.cpp:157] Top shape: 8 4332 (34656)
I0717 10:13:06.522682  3874 net.cpp:165] Memory required for data: 1286146816
I0717 10:13:06.522683  3874 layer_factory.hpp:77] Creating layer conv5_5/sep_mbox_conf
I0717 10:13:06.522691  3874 net.cpp:100] Creating Layer conv5_5/sep_mbox_conf
I0717 10:13:06.522692  3874 net.cpp:434] conv5_5/sep_mbox_conf <- conv5_5/sep_conv5_5/sep_relu_0_split_2
I0717 10:13:06.522696  3874 net.cpp:408] conv5_5/sep_mbox_conf -> conv5_5/sep_mbox_conf
I0717 10:13:06.531807  3874 net.cpp:150] Setting up conv5_5/sep_mbox_conf
I0717 10:13:06.531823  3874 net.cpp:157] Top shape: 8 243 19 19 (701784)
I0717 10:13:06.531826  3874 net.cpp:165] Memory required for data: 1288953952
I0717 10:13:06.531831  3874 layer_factory.hpp:77] Creating layer conv5_5/sep_mbox_conf_perm
I0717 10:13:06.531836  3874 net.cpp:100] Creating Layer conv5_5/sep_mbox_conf_perm
I0717 10:13:06.531839  3874 net.cpp:434] conv5_5/sep_mbox_conf_perm <- conv5_5/sep_mbox_conf
I0717 10:13:06.531844  3874 net.cpp:408] conv5_5/sep_mbox_conf_perm -> conv5_5/sep_mbox_conf_perm
I0717 10:13:06.531930  3874 net.cpp:150] Setting up conv5_5/sep_mbox_conf_perm
I0717 10:13:06.531937  3874 net.cpp:157] Top shape: 8 19 19 243 (701784)
I0717 10:13:06.531939  3874 net.cpp:165] Memory required for data: 1291761088
I0717 10:13:06.531940  3874 layer_factory.hpp:77] Creating layer conv5_5/sep_mbox_conf_flat
I0717 10:13:06.531944  3874 net.cpp:100] Creating Layer conv5_5/sep_mbox_conf_flat
I0717 10:13:06.531946  3874 net.cpp:434] conv5_5/sep_mbox_conf_flat <- conv5_5/sep_mbox_conf_perm
I0717 10:13:06.531965  3874 net.cpp:408] conv5_5/sep_mbox_conf_flat -> conv5_5/sep_mbox_conf_flat
I0717 10:13:06.531987  3874 net.cpp:150] Setting up conv5_5/sep_mbox_conf_flat
I0717 10:13:06.531993  3874 net.cpp:157] Top shape: 8 87723 (701784)
I0717 10:13:06.531996  3874 net.cpp:165] Memory required for data: 1294568224
I0717 10:13:06.531997  3874 layer_factory.hpp:77] Creating layer conv5_5/sep_mbox_priorbox
I0717 10:13:06.532007  3874 net.cpp:100] Creating Layer conv5_5/sep_mbox_priorbox
I0717 10:13:06.532011  3874 net.cpp:434] conv5_5/sep_mbox_priorbox <- conv5_5/sep_conv5_5/sep_relu_0_split_3
I0717 10:13:06.532016  3874 net.cpp:434] conv5_5/sep_mbox_priorbox <- data_data_0_split_1
I0717 10:13:06.532022  3874 net.cpp:408] conv5_5/sep_mbox_priorbox -> conv5_5/sep_mbox_priorbox
I0717 10:13:06.532049  3874 net.cpp:150] Setting up conv5_5/sep_mbox_priorbox
I0717 10:13:06.532054  3874 net.cpp:157] Top shape: 1 2 4332 (8664)
I0717 10:13:06.532055  3874 net.cpp:165] Memory required for data: 1294602880
I0717 10:13:06.532058  3874 layer_factory.hpp:77] Creating layer conv6/sep_mbox_loc
I0717 10:13:06.532068  3874 net.cpp:100] Creating Layer conv6/sep_mbox_loc
I0717 10:13:06.532073  3874 net.cpp:434] conv6/sep_mbox_loc <- conv6/sep_conv6/sep_relu_0_split_1
I0717 10:13:06.532078  3874 net.cpp:408] conv6/sep_mbox_loc -> conv6/sep_mbox_loc
I0717 10:13:06.535729  3874 net.cpp:150] Setting up conv6/sep_mbox_loc
I0717 10:13:06.535742  3874 net.cpp:157] Top shape: 8 24 10 10 (19200)
I0717 10:13:06.535743  3874 net.cpp:165] Memory required for data: 1294679680
I0717 10:13:06.535748  3874 layer_factory.hpp:77] Creating layer conv6/sep_mbox_loc_perm
I0717 10:13:06.535754  3874 net.cpp:100] Creating Layer conv6/sep_mbox_loc_perm
I0717 10:13:06.535756  3874 net.cpp:434] conv6/sep_mbox_loc_perm <- conv6/sep_mbox_loc
I0717 10:13:06.535760  3874 net.cpp:408] conv6/sep_mbox_loc_perm -> conv6/sep_mbox_loc_perm
I0717 10:13:06.535852  3874 net.cpp:150] Setting up conv6/sep_mbox_loc_perm
I0717 10:13:06.535858  3874 net.cpp:157] Top shape: 8 10 10 24 (19200)
I0717 10:13:06.535861  3874 net.cpp:165] Memory required for data: 1294756480
I0717 10:13:06.535862  3874 layer_factory.hpp:77] Creating layer conv6/sep_mbox_loc_flat
I0717 10:13:06.535868  3874 net.cpp:100] Creating Layer conv6/sep_mbox_loc_flat
I0717 10:13:06.535871  3874 net.cpp:434] conv6/sep_mbox_loc_flat <- conv6/sep_mbox_loc_perm
I0717 10:13:06.535873  3874 net.cpp:408] conv6/sep_mbox_loc_flat -> conv6/sep_mbox_loc_flat
I0717 10:13:06.535892  3874 net.cpp:150] Setting up conv6/sep_mbox_loc_flat
I0717 10:13:06.535897  3874 net.cpp:157] Top shape: 8 2400 (19200)
I0717 10:13:06.535898  3874 net.cpp:165] Memory required for data: 1294833280
I0717 10:13:06.535900  3874 layer_factory.hpp:77] Creating layer conv6/sep_mbox_conf
I0717 10:13:06.535907  3874 net.cpp:100] Creating Layer conv6/sep_mbox_conf
I0717 10:13:06.535909  3874 net.cpp:434] conv6/sep_mbox_conf <- conv6/sep_conv6/sep_relu_0_split_2
I0717 10:13:06.535913  3874 net.cpp:408] conv6/sep_mbox_conf -> conv6/sep_mbox_conf
I0717 10:13:06.560995  3874 net.cpp:150] Setting up conv6/sep_mbox_conf
I0717 10:13:06.561014  3874 net.cpp:157] Top shape: 8 486 10 10 (388800)
I0717 10:13:06.561017  3874 net.cpp:165] Memory required for data: 1296388480
I0717 10:13:06.561024  3874 layer_factory.hpp:77] Creating layer conv6/sep_mbox_conf_perm
I0717 10:13:06.561031  3874 net.cpp:100] Creating Layer conv6/sep_mbox_conf_perm
I0717 10:13:06.561034  3874 net.cpp:434] conv6/sep_mbox_conf_perm <- conv6/sep_mbox_conf
I0717 10:13:06.561040  3874 net.cpp:408] conv6/sep_mbox_conf_perm -> conv6/sep_mbox_conf_perm
I0717 10:13:06.561134  3874 net.cpp:150] Setting up conv6/sep_mbox_conf_perm
I0717 10:13:06.561141  3874 net.cpp:157] Top shape: 8 10 10 486 (388800)
I0717 10:13:06.561143  3874 net.cpp:165] Memory required for data: 1297943680
I0717 10:13:06.561144  3874 layer_factory.hpp:77] Creating layer conv6/sep_mbox_conf_flat
I0717 10:13:06.561148  3874 net.cpp:100] Creating Layer conv6/sep_mbox_conf_flat
I0717 10:13:06.561162  3874 net.cpp:434] conv6/sep_mbox_conf_flat <- conv6/sep_mbox_conf_perm
I0717 10:13:06.561166  3874 net.cpp:408] conv6/sep_mbox_conf_flat -> conv6/sep_mbox_conf_flat
I0717 10:13:06.561187  3874 net.cpp:150] Setting up conv6/sep_mbox_conf_flat
I0717 10:13:06.561190  3874 net.cpp:157] Top shape: 8 48600 (388800)
I0717 10:13:06.561192  3874 net.cpp:165] Memory required for data: 1299498880
I0717 10:13:06.561194  3874 layer_factory.hpp:77] Creating layer conv6/sep_mbox_priorbox
I0717 10:13:06.561199  3874 net.cpp:100] Creating Layer conv6/sep_mbox_priorbox
I0717 10:13:06.561202  3874 net.cpp:434] conv6/sep_mbox_priorbox <- conv6/sep_conv6/sep_relu_0_split_3
I0717 10:13:06.561205  3874 net.cpp:434] conv6/sep_mbox_priorbox <- data_data_0_split_2
I0717 10:13:06.561209  3874 net.cpp:408] conv6/sep_mbox_priorbox -> conv6/sep_mbox_priorbox
I0717 10:13:06.561234  3874 net.cpp:150] Setting up conv6/sep_mbox_priorbox
I0717 10:13:06.561238  3874 net.cpp:157] Top shape: 1 2 2400 (4800)
I0717 10:13:06.561239  3874 net.cpp:165] Memory required for data: 1299518080
I0717 10:13:06.561240  3874 layer_factory.hpp:77] Creating layer conv7_2_mbox_loc
I0717 10:13:06.561249  3874 net.cpp:100] Creating Layer conv7_2_mbox_loc
I0717 10:13:06.561250  3874 net.cpp:434] conv7_2_mbox_loc <- conv7_2_conv7_2_relu_0_split_1
I0717 10:13:06.561254  3874 net.cpp:408] conv7_2_mbox_loc -> conv7_2_mbox_loc
I0717 10:13:06.563272  3874 net.cpp:150] Setting up conv7_2_mbox_loc
I0717 10:13:06.563283  3874 net.cpp:157] Top shape: 8 24 5 5 (4800)
I0717 10:13:06.563285  3874 net.cpp:165] Memory required for data: 1299537280
I0717 10:13:06.563290  3874 layer_factory.hpp:77] Creating layer conv7_2_mbox_loc_perm
I0717 10:13:06.563295  3874 net.cpp:100] Creating Layer conv7_2_mbox_loc_perm
I0717 10:13:06.563297  3874 net.cpp:434] conv7_2_mbox_loc_perm <- conv7_2_mbox_loc
I0717 10:13:06.563302  3874 net.cpp:408] conv7_2_mbox_loc_perm -> conv7_2_mbox_loc_perm
I0717 10:13:06.563392  3874 net.cpp:150] Setting up conv7_2_mbox_loc_perm
I0717 10:13:06.563397  3874 net.cpp:157] Top shape: 8 5 5 24 (4800)
I0717 10:13:06.563400  3874 net.cpp:165] Memory required for data: 1299556480
I0717 10:13:06.563401  3874 layer_factory.hpp:77] Creating layer conv7_2_mbox_loc_flat
I0717 10:13:06.563405  3874 net.cpp:100] Creating Layer conv7_2_mbox_loc_flat
I0717 10:13:06.563407  3874 net.cpp:434] conv7_2_mbox_loc_flat <- conv7_2_mbox_loc_perm
I0717 10:13:06.563412  3874 net.cpp:408] conv7_2_mbox_loc_flat -> conv7_2_mbox_loc_flat
I0717 10:13:06.563431  3874 net.cpp:150] Setting up conv7_2_mbox_loc_flat
I0717 10:13:06.563436  3874 net.cpp:157] Top shape: 8 600 (4800)
I0717 10:13:06.563437  3874 net.cpp:165] Memory required for data: 1299575680
I0717 10:13:06.563438  3874 layer_factory.hpp:77] Creating layer conv7_2_mbox_conf
I0717 10:13:06.563446  3874 net.cpp:100] Creating Layer conv7_2_mbox_conf
I0717 10:13:06.563448  3874 net.cpp:434] conv7_2_mbox_conf <- conv7_2_conv7_2_relu_0_split_2
I0717 10:13:06.563453  3874 net.cpp:408] conv7_2_mbox_conf -> conv7_2_mbox_conf
I0717 10:13:06.578418  3874 net.cpp:150] Setting up conv7_2_mbox_conf
I0717 10:13:06.578436  3874 net.cpp:157] Top shape: 8 486 5 5 (97200)
I0717 10:13:06.578438  3874 net.cpp:165] Memory required for data: 1299964480
I0717 10:13:06.578445  3874 layer_factory.hpp:77] Creating layer conv7_2_mbox_conf_perm
I0717 10:13:06.578451  3874 net.cpp:100] Creating Layer conv7_2_mbox_conf_perm
I0717 10:13:06.578455  3874 net.cpp:434] conv7_2_mbox_conf_perm <- conv7_2_mbox_conf
I0717 10:13:06.578461  3874 net.cpp:408] conv7_2_mbox_conf_perm -> conv7_2_mbox_conf_perm
I0717 10:13:06.578555  3874 net.cpp:150] Setting up conv7_2_mbox_conf_perm
I0717 10:13:06.578562  3874 net.cpp:157] Top shape: 8 5 5 486 (97200)
I0717 10:13:06.578563  3874 net.cpp:165] Memory required for data: 1300353280
I0717 10:13:06.578567  3874 layer_factory.hpp:77] Creating layer conv7_2_mbox_conf_flat
I0717 10:13:06.578572  3874 net.cpp:100] Creating Layer conv7_2_mbox_conf_flat
I0717 10:13:06.578575  3874 net.cpp:434] conv7_2_mbox_conf_flat <- conv7_2_mbox_conf_perm
I0717 10:13:06.578596  3874 net.cpp:408] conv7_2_mbox_conf_flat -> conv7_2_mbox_conf_flat
I0717 10:13:06.578624  3874 net.cpp:150] Setting up conv7_2_mbox_conf_flat
I0717 10:13:06.578629  3874 net.cpp:157] Top shape: 8 12150 (97200)
I0717 10:13:06.578630  3874 net.cpp:165] Memory required for data: 1300742080
I0717 10:13:06.578634  3874 layer_factory.hpp:77] Creating layer conv7_2_mbox_priorbox
I0717 10:13:06.578640  3874 net.cpp:100] Creating Layer conv7_2_mbox_priorbox
I0717 10:13:06.578645  3874 net.cpp:434] conv7_2_mbox_priorbox <- conv7_2_conv7_2_relu_0_split_3
I0717 10:13:06.578649  3874 net.cpp:434] conv7_2_mbox_priorbox <- data_data_0_split_3
I0717 10:13:06.578656  3874 net.cpp:408] conv7_2_mbox_priorbox -> conv7_2_mbox_priorbox
I0717 10:13:06.578687  3874 net.cpp:150] Setting up conv7_2_mbox_priorbox
I0717 10:13:06.578692  3874 net.cpp:157] Top shape: 1 2 600 (1200)
I0717 10:13:06.578694  3874 net.cpp:165] Memory required for data: 1300746880
I0717 10:13:06.578697  3874 layer_factory.hpp:77] Creating layer conv8_2_mbox_loc
I0717 10:13:06.578707  3874 net.cpp:100] Creating Layer conv8_2_mbox_loc
I0717 10:13:06.578711  3874 net.cpp:434] conv8_2_mbox_loc <- conv8_2_conv8_2_relu_0_split_1
I0717 10:13:06.578717  3874 net.cpp:408] conv8_2_mbox_loc -> conv8_2_mbox_loc
I0717 10:13:06.580921  3874 net.cpp:150] Setting up conv8_2_mbox_loc
I0717 10:13:06.580934  3874 net.cpp:157] Top shape: 8 24 3 3 (1728)
I0717 10:13:06.580936  3874 net.cpp:165] Memory required for data: 1300753792
I0717 10:13:06.580945  3874 layer_factory.hpp:77] Creating layer conv8_2_mbox_loc_perm
I0717 10:13:06.580953  3874 net.cpp:100] Creating Layer conv8_2_mbox_loc_perm
I0717 10:13:06.580960  3874 net.cpp:434] conv8_2_mbox_loc_perm <- conv8_2_mbox_loc
I0717 10:13:06.580965  3874 net.cpp:408] conv8_2_mbox_loc_perm -> conv8_2_mbox_loc_perm
I0717 10:13:06.581058  3874 net.cpp:150] Setting up conv8_2_mbox_loc_perm
I0717 10:13:06.581063  3874 net.cpp:157] Top shape: 8 3 3 24 (1728)
I0717 10:13:06.581065  3874 net.cpp:165] Memory required for data: 1300760704
I0717 10:13:06.581069  3874 layer_factory.hpp:77] Creating layer conv8_2_mbox_loc_flat
I0717 10:13:06.581075  3874 net.cpp:100] Creating Layer conv8_2_mbox_loc_flat
I0717 10:13:06.581079  3874 net.cpp:434] conv8_2_mbox_loc_flat <- conv8_2_mbox_loc_perm
I0717 10:13:06.581084  3874 net.cpp:408] conv8_2_mbox_loc_flat -> conv8_2_mbox_loc_flat
I0717 10:13:06.581109  3874 net.cpp:150] Setting up conv8_2_mbox_loc_flat
I0717 10:13:06.581112  3874 net.cpp:157] Top shape: 8 216 (1728)
I0717 10:13:06.581115  3874 net.cpp:165] Memory required for data: 1300767616
I0717 10:13:06.581116  3874 layer_factory.hpp:77] Creating layer conv8_2_mbox_conf
I0717 10:13:06.581126  3874 net.cpp:100] Creating Layer conv8_2_mbox_conf
I0717 10:13:06.581130  3874 net.cpp:434] conv8_2_mbox_conf <- conv8_2_conv8_2_relu_0_split_2
I0717 10:13:06.581136  3874 net.cpp:408] conv8_2_mbox_conf -> conv8_2_mbox_conf
I0717 10:13:06.589105  3874 net.cpp:150] Setting up conv8_2_mbox_conf
I0717 10:13:06.589125  3874 net.cpp:157] Top shape: 8 486 3 3 (34992)
I0717 10:13:06.589128  3874 net.cpp:165] Memory required for data: 1300907584
I0717 10:13:06.589138  3874 layer_factory.hpp:77] Creating layer conv8_2_mbox_conf_perm
I0717 10:13:06.589149  3874 net.cpp:100] Creating Layer conv8_2_mbox_conf_perm
I0717 10:13:06.589155  3874 net.cpp:434] conv8_2_mbox_conf_perm <- conv8_2_mbox_conf
I0717 10:13:06.589161  3874 net.cpp:408] conv8_2_mbox_conf_perm -> conv8_2_mbox_conf_perm
I0717 10:13:06.589262  3874 net.cpp:150] Setting up conv8_2_mbox_conf_perm
I0717 10:13:06.589268  3874 net.cpp:157] Top shape: 8 3 3 486 (34992)
I0717 10:13:06.589270  3874 net.cpp:165] Memory required for data: 1301047552
I0717 10:13:06.589273  3874 layer_factory.hpp:77] Creating layer conv8_2_mbox_conf_flat
I0717 10:13:06.589279  3874 net.cpp:100] Creating Layer conv8_2_mbox_conf_flat
I0717 10:13:06.589282  3874 net.cpp:434] conv8_2_mbox_conf_flat <- conv8_2_mbox_conf_perm
I0717 10:13:06.589290  3874 net.cpp:408] conv8_2_mbox_conf_flat -> conv8_2_mbox_conf_flat
I0717 10:13:06.589329  3874 net.cpp:150] Setting up conv8_2_mbox_conf_flat
I0717 10:13:06.589334  3874 net.cpp:157] Top shape: 8 4374 (34992)
I0717 10:13:06.589335  3874 net.cpp:165] Memory required for data: 1301187520
I0717 10:13:06.589339  3874 layer_factory.hpp:77] Creating layer conv8_2_mbox_priorbox
I0717 10:13:06.589346  3874 net.cpp:100] Creating Layer conv8_2_mbox_priorbox
I0717 10:13:06.589350  3874 net.cpp:434] conv8_2_mbox_priorbox <- conv8_2_conv8_2_relu_0_split_3
I0717 10:13:06.589355  3874 net.cpp:434] conv8_2_mbox_priorbox <- data_data_0_split_4
I0717 10:13:06.589361  3874 net.cpp:408] conv8_2_mbox_priorbox -> conv8_2_mbox_priorbox
I0717 10:13:06.589392  3874 net.cpp:150] Setting up conv8_2_mbox_priorbox
I0717 10:13:06.589397  3874 net.cpp:157] Top shape: 1 2 216 (432)
I0717 10:13:06.589399  3874 net.cpp:165] Memory required for data: 1301189248
I0717 10:13:06.589401  3874 layer_factory.hpp:77] Creating layer conv9_2_mbox_loc
I0717 10:13:06.589412  3874 net.cpp:100] Creating Layer conv9_2_mbox_loc
I0717 10:13:06.589416  3874 net.cpp:434] conv9_2_mbox_loc <- conv9_2_conv9_2_relu_0_split_1
I0717 10:13:06.589421  3874 net.cpp:408] conv9_2_mbox_loc -> conv9_2_mbox_loc
I0717 10:13:06.591631  3874 net.cpp:150] Setting up conv9_2_mbox_loc
I0717 10:13:06.591641  3874 net.cpp:157] Top shape: 8 24 2 2 (768)
I0717 10:13:06.591644  3874 net.cpp:165] Memory required for data: 1301192320
I0717 10:13:06.591652  3874 layer_factory.hpp:77] Creating layer conv9_2_mbox_loc_perm
I0717 10:13:06.591658  3874 net.cpp:100] Creating Layer conv9_2_mbox_loc_perm
I0717 10:13:06.591661  3874 net.cpp:434] conv9_2_mbox_loc_perm <- conv9_2_mbox_loc
I0717 10:13:06.591665  3874 net.cpp:408] conv9_2_mbox_loc_perm -> conv9_2_mbox_loc_perm
I0717 10:13:06.591751  3874 net.cpp:150] Setting up conv9_2_mbox_loc_perm
I0717 10:13:06.591756  3874 net.cpp:157] Top shape: 8 2 2 24 (768)
I0717 10:13:06.591758  3874 net.cpp:165] Memory required for data: 1301195392
I0717 10:13:06.591760  3874 layer_factory.hpp:77] Creating layer conv9_2_mbox_loc_flat
I0717 10:13:06.591763  3874 net.cpp:100] Creating Layer conv9_2_mbox_loc_flat
I0717 10:13:06.591765  3874 net.cpp:434] conv9_2_mbox_loc_flat <- conv9_2_mbox_loc_perm
I0717 10:13:06.591769  3874 net.cpp:408] conv9_2_mbox_loc_flat -> conv9_2_mbox_loc_flat
I0717 10:13:06.591789  3874 net.cpp:150] Setting up conv9_2_mbox_loc_flat
I0717 10:13:06.591794  3874 net.cpp:157] Top shape: 8 96 (768)
I0717 10:13:06.591794  3874 net.cpp:165] Memory required for data: 1301198464
I0717 10:13:06.591796  3874 layer_factory.hpp:77] Creating layer conv9_2_mbox_conf
I0717 10:13:06.591802  3874 net.cpp:100] Creating Layer conv9_2_mbox_conf
I0717 10:13:06.591805  3874 net.cpp:434] conv9_2_mbox_conf <- conv9_2_conv9_2_relu_0_split_2
I0717 10:13:06.591809  3874 net.cpp:408] conv9_2_mbox_conf -> conv9_2_mbox_conf
I0717 10:13:06.599426  3874 net.cpp:150] Setting up conv9_2_mbox_conf
I0717 10:13:06.599442  3874 net.cpp:157] Top shape: 8 486 2 2 (15552)
I0717 10:13:06.599445  3874 net.cpp:165] Memory required for data: 1301260672
I0717 10:13:06.599452  3874 layer_factory.hpp:77] Creating layer conv9_2_mbox_conf_perm
I0717 10:13:06.599457  3874 net.cpp:100] Creating Layer conv9_2_mbox_conf_perm
I0717 10:13:06.599462  3874 net.cpp:434] conv9_2_mbox_conf_perm <- conv9_2_mbox_conf
I0717 10:13:06.599467  3874 net.cpp:408] conv9_2_mbox_conf_perm -> conv9_2_mbox_conf_perm
I0717 10:13:06.599558  3874 net.cpp:150] Setting up conv9_2_mbox_conf_perm
I0717 10:13:06.599565  3874 net.cpp:157] Top shape: 8 2 2 486 (15552)
I0717 10:13:06.599566  3874 net.cpp:165] Memory required for data: 1301322880
I0717 10:13:06.599570  3874 layer_factory.hpp:77] Creating layer conv9_2_mbox_conf_flat
I0717 10:13:06.599576  3874 net.cpp:100] Creating Layer conv9_2_mbox_conf_flat
I0717 10:13:06.599580  3874 net.cpp:434] conv9_2_mbox_conf_flat <- conv9_2_mbox_conf_perm
I0717 10:13:06.599586  3874 net.cpp:408] conv9_2_mbox_conf_flat -> conv9_2_mbox_conf_flat
I0717 10:13:06.599611  3874 net.cpp:150] Setting up conv9_2_mbox_conf_flat
I0717 10:13:06.599627  3874 net.cpp:157] Top shape: 8 1944 (15552)
I0717 10:13:06.599629  3874 net.cpp:165] Memory required for data: 1301385088
I0717 10:13:06.599632  3874 layer_factory.hpp:77] Creating layer conv9_2_mbox_priorbox
I0717 10:13:06.599639  3874 net.cpp:100] Creating Layer conv9_2_mbox_priorbox
I0717 10:13:06.599642  3874 net.cpp:434] conv9_2_mbox_priorbox <- conv9_2_conv9_2_relu_0_split_3
I0717 10:13:06.599647  3874 net.cpp:434] conv9_2_mbox_priorbox <- data_data_0_split_5
I0717 10:13:06.599653  3874 net.cpp:408] conv9_2_mbox_priorbox -> conv9_2_mbox_priorbox
I0717 10:13:06.599685  3874 net.cpp:150] Setting up conv9_2_mbox_priorbox
I0717 10:13:06.599690  3874 net.cpp:157] Top shape: 1 2 96 (192)
I0717 10:13:06.599692  3874 net.cpp:165] Memory required for data: 1301385856
I0717 10:13:06.599694  3874 layer_factory.hpp:77] Creating layer conv10_2_mbox_loc
I0717 10:13:06.599705  3874 net.cpp:100] Creating Layer conv10_2_mbox_loc
I0717 10:13:06.599709  3874 net.cpp:434] conv10_2_mbox_loc <- conv10_2_conv10_2_relu_0_split_0
I0717 10:13:06.599715  3874 net.cpp:408] conv10_2_mbox_loc -> conv10_2_mbox_loc
I0717 10:13:06.602540  3874 net.cpp:150] Setting up conv10_2_mbox_loc
I0717 10:13:06.602550  3874 net.cpp:157] Top shape: 8 24 1 1 (192)
I0717 10:13:06.602552  3874 net.cpp:165] Memory required for data: 1301386624
I0717 10:13:06.602557  3874 layer_factory.hpp:77] Creating layer conv10_2_mbox_loc_perm
I0717 10:13:06.602562  3874 net.cpp:100] Creating Layer conv10_2_mbox_loc_perm
I0717 10:13:06.602566  3874 net.cpp:434] conv10_2_mbox_loc_perm <- conv10_2_mbox_loc
I0717 10:13:06.602571  3874 net.cpp:408] conv10_2_mbox_loc_perm -> conv10_2_mbox_loc_perm
I0717 10:13:06.602663  3874 net.cpp:150] Setting up conv10_2_mbox_loc_perm
I0717 10:13:06.602671  3874 net.cpp:157] Top shape: 8 1 1 24 (192)
I0717 10:13:06.602674  3874 net.cpp:165] Memory required for data: 1301387392
I0717 10:13:06.602677  3874 layer_factory.hpp:77] Creating layer conv10_2_mbox_loc_flat
I0717 10:13:06.602682  3874 net.cpp:100] Creating Layer conv10_2_mbox_loc_flat
I0717 10:13:06.602686  3874 net.cpp:434] conv10_2_mbox_loc_flat <- conv10_2_mbox_loc_perm
I0717 10:13:06.602691  3874 net.cpp:408] conv10_2_mbox_loc_flat -> conv10_2_mbox_loc_flat
I0717 10:13:06.602717  3874 net.cpp:150] Setting up conv10_2_mbox_loc_flat
I0717 10:13:06.602721  3874 net.cpp:157] Top shape: 8 24 (192)
I0717 10:13:06.602723  3874 net.cpp:165] Memory required for data: 1301388160
I0717 10:13:06.602726  3874 layer_factory.hpp:77] Creating layer conv10_2_mbox_conf
I0717 10:13:06.602736  3874 net.cpp:100] Creating Layer conv10_2_mbox_conf
I0717 10:13:06.602741  3874 net.cpp:434] conv10_2_mbox_conf <- conv10_2_conv10_2_relu_0_split_1
I0717 10:13:06.602746  3874 net.cpp:408] conv10_2_mbox_conf -> conv10_2_mbox_conf
I0717 10:13:06.611027  3874 net.cpp:150] Setting up conv10_2_mbox_conf
I0717 10:13:06.611047  3874 net.cpp:157] Top shape: 8 486 1 1 (3888)
I0717 10:13:06.611050  3874 net.cpp:165] Memory required for data: 1301403712
I0717 10:13:06.611059  3874 layer_factory.hpp:77] Creating layer conv10_2_mbox_conf_perm
I0717 10:13:06.611069  3874 net.cpp:100] Creating Layer conv10_2_mbox_conf_perm
I0717 10:13:06.611074  3874 net.cpp:434] conv10_2_mbox_conf_perm <- conv10_2_mbox_conf
I0717 10:13:06.611079  3874 net.cpp:408] conv10_2_mbox_conf_perm -> conv10_2_mbox_conf_perm
I0717 10:13:06.611172  3874 net.cpp:150] Setting up conv10_2_mbox_conf_perm
I0717 10:13:06.611177  3874 net.cpp:157] Top shape: 8 1 1 486 (3888)
I0717 10:13:06.611179  3874 net.cpp:165] Memory required for data: 1301419264
I0717 10:13:06.611181  3874 layer_factory.hpp:77] Creating layer conv10_2_mbox_conf_flat
I0717 10:13:06.611186  3874 net.cpp:100] Creating Layer conv10_2_mbox_conf_flat
I0717 10:13:06.611188  3874 net.cpp:434] conv10_2_mbox_conf_flat <- conv10_2_mbox_conf_perm
I0717 10:13:06.611191  3874 net.cpp:408] conv10_2_mbox_conf_flat -> conv10_2_mbox_conf_flat
I0717 10:13:06.611212  3874 net.cpp:150] Setting up conv10_2_mbox_conf_flat
I0717 10:13:06.611215  3874 net.cpp:157] Top shape: 8 486 (3888)
I0717 10:13:06.611217  3874 net.cpp:165] Memory required for data: 1301434816
I0717 10:13:06.611232  3874 layer_factory.hpp:77] Creating layer conv10_2_mbox_priorbox
I0717 10:13:06.611238  3874 net.cpp:100] Creating Layer conv10_2_mbox_priorbox
I0717 10:13:06.611241  3874 net.cpp:434] conv10_2_mbox_priorbox <- conv10_2_conv10_2_relu_0_split_2
I0717 10:13:06.611245  3874 net.cpp:434] conv10_2_mbox_priorbox <- data_data_0_split_6
I0717 10:13:06.611248  3874 net.cpp:408] conv10_2_mbox_priorbox -> conv10_2_mbox_priorbox
I0717 10:13:06.611279  3874 net.cpp:150] Setting up conv10_2_mbox_priorbox
I0717 10:13:06.611282  3874 net.cpp:157] Top shape: 1 2 24 (48)
I0717 10:13:06.611284  3874 net.cpp:165] Memory required for data: 1301435008
I0717 10:13:06.611286  3874 layer_factory.hpp:77] Creating layer mbox_loc
I0717 10:13:06.611291  3874 net.cpp:100] Creating Layer mbox_loc
I0717 10:13:06.611294  3874 net.cpp:434] mbox_loc <- conv5_5/sep_mbox_loc_flat
I0717 10:13:06.611297  3874 net.cpp:434] mbox_loc <- conv6/sep_mbox_loc_flat
I0717 10:13:06.611301  3874 net.cpp:434] mbox_loc <- conv7_2_mbox_loc_flat
I0717 10:13:06.611304  3874 net.cpp:434] mbox_loc <- conv8_2_mbox_loc_flat
I0717 10:13:06.611306  3874 net.cpp:434] mbox_loc <- conv9_2_mbox_loc_flat
I0717 10:13:06.611308  3874 net.cpp:434] mbox_loc <- conv10_2_mbox_loc_flat
I0717 10:13:06.611311  3874 net.cpp:408] mbox_loc -> mbox_loc
I0717 10:13:06.611333  3874 net.cpp:150] Setting up mbox_loc
I0717 10:13:06.611337  3874 net.cpp:157] Top shape: 8 7668 (61344)
I0717 10:13:06.611340  3874 net.cpp:165] Memory required for data: 1301680384
I0717 10:13:06.611341  3874 layer_factory.hpp:77] Creating layer mbox_conf
I0717 10:13:06.611346  3874 net.cpp:100] Creating Layer mbox_conf
I0717 10:13:06.611347  3874 net.cpp:434] mbox_conf <- conv5_5/sep_mbox_conf_flat
I0717 10:13:06.611351  3874 net.cpp:434] mbox_conf <- conv6/sep_mbox_conf_flat
I0717 10:13:06.611353  3874 net.cpp:434] mbox_conf <- conv7_2_mbox_conf_flat
I0717 10:13:06.611356  3874 net.cpp:434] mbox_conf <- conv8_2_mbox_conf_flat
I0717 10:13:06.611358  3874 net.cpp:434] mbox_conf <- conv9_2_mbox_conf_flat
I0717 10:13:06.611361  3874 net.cpp:434] mbox_conf <- conv10_2_mbox_conf_flat
I0717 10:13:06.611364  3874 net.cpp:408] mbox_conf -> mbox_conf
I0717 10:13:06.611382  3874 net.cpp:150] Setting up mbox_conf
I0717 10:13:06.611387  3874 net.cpp:157] Top shape: 8 155277 (1242216)
I0717 10:13:06.611388  3874 net.cpp:165] Memory required for data: 1306649248
I0717 10:13:06.611389  3874 layer_factory.hpp:77] Creating layer mbox_priorbox
I0717 10:13:06.611394  3874 net.cpp:100] Creating Layer mbox_priorbox
I0717 10:13:06.611397  3874 net.cpp:434] mbox_priorbox <- conv5_5/sep_mbox_priorbox
I0717 10:13:06.611399  3874 net.cpp:434] mbox_priorbox <- conv6/sep_mbox_priorbox
I0717 10:13:06.611402  3874 net.cpp:434] mbox_priorbox <- conv7_2_mbox_priorbox
I0717 10:13:06.611404  3874 net.cpp:434] mbox_priorbox <- conv8_2_mbox_priorbox
I0717 10:13:06.611407  3874 net.cpp:434] mbox_priorbox <- conv9_2_mbox_priorbox
I0717 10:13:06.611408  3874 net.cpp:434] mbox_priorbox <- conv10_2_mbox_priorbox
I0717 10:13:06.611412  3874 net.cpp:408] mbox_priorbox -> mbox_priorbox
I0717 10:13:06.611434  3874 net.cpp:150] Setting up mbox_priorbox
I0717 10:13:06.611439  3874 net.cpp:157] Top shape: 1 2 7668 (15336)
I0717 10:13:06.611441  3874 net.cpp:165] Memory required for data: 1306710592
I0717 10:13:06.611444  3874 layer_factory.hpp:77] Creating layer mbox_conf_reshape
I0717 10:13:06.611454  3874 net.cpp:100] Creating Layer mbox_conf_reshape
I0717 10:13:06.611457  3874 net.cpp:434] mbox_conf_reshape <- mbox_conf
I0717 10:13:06.611461  3874 net.cpp:408] mbox_conf_reshape -> mbox_conf_reshape
I0717 10:13:06.611492  3874 net.cpp:150] Setting up mbox_conf_reshape
I0717 10:13:06.611498  3874 net.cpp:157] Top shape: 8 1917 81 (1242216)
I0717 10:13:06.611500  3874 net.cpp:165] Memory required for data: 1311679456
I0717 10:13:06.611503  3874 layer_factory.hpp:77] Creating layer mbox_conf_softmax
I0717 10:13:06.611510  3874 net.cpp:100] Creating Layer mbox_conf_softmax
I0717 10:13:06.611512  3874 net.cpp:434] mbox_conf_softmax <- mbox_conf_reshape
I0717 10:13:06.611527  3874 net.cpp:408] mbox_conf_softmax -> mbox_conf_softmax
I0717 10:13:06.612205  3874 net.cpp:150] Setting up mbox_conf_softmax
I0717 10:13:06.612213  3874 net.cpp:157] Top shape: 8 1917 81 (1242216)
I0717 10:13:06.612217  3874 net.cpp:165] Memory required for data: 1316648320
I0717 10:13:06.612221  3874 layer_factory.hpp:77] Creating layer mbox_conf_flatten
I0717 10:13:06.612226  3874 net.cpp:100] Creating Layer mbox_conf_flatten
I0717 10:13:06.612231  3874 net.cpp:434] mbox_conf_flatten <- mbox_conf_softmax
I0717 10:13:06.612237  3874 net.cpp:408] mbox_conf_flatten -> mbox_conf_flatten
I0717 10:13:06.612265  3874 net.cpp:150] Setting up mbox_conf_flatten
I0717 10:13:06.612270  3874 net.cpp:157] Top shape: 8 155277 (1242216)
I0717 10:13:06.612272  3874 net.cpp:165] Memory required for data: 1321617184
I0717 10:13:06.612274  3874 layer_factory.hpp:77] Creating layer detection_out
I0717 10:13:06.612289  3874 net.cpp:100] Creating Layer detection_out
I0717 10:13:06.612293  3874 net.cpp:434] detection_out <- mbox_loc
I0717 10:13:06.612296  3874 net.cpp:434] detection_out <- mbox_conf_flatten
I0717 10:13:06.612299  3874 net.cpp:434] detection_out <- mbox_priorbox
I0717 10:13:06.612308  3874 net.cpp:408] detection_out -> detection_out
I0717 10:13:06.615826  3874 net.cpp:150] Setting up detection_out
I0717 10:13:06.615841  3874 net.cpp:157] Top shape: 1 1 1 7 (7)
I0717 10:13:06.615845  3874 net.cpp:165] Memory required for data: 1321617212
I0717 10:13:06.615849  3874 layer_factory.hpp:77] Creating layer detection_eval
I0717 10:13:06.615859  3874 net.cpp:100] Creating Layer detection_eval
I0717 10:13:06.615864  3874 net.cpp:434] detection_eval <- detection_out
I0717 10:13:06.615869  3874 net.cpp:434] detection_eval <- label
I0717 10:13:06.615877  3874 net.cpp:408] detection_eval -> detection_eval
I0717 10:13:06.617560  3874 net.cpp:150] Setting up detection_eval
I0717 10:13:06.617571  3874 net.cpp:157] Top shape: 1 1 81 5 (405)
I0717 10:13:06.617574  3874 net.cpp:165] Memory required for data: 1321618832
I0717 10:13:06.617578  3874 net.cpp:228] detection_eval does not need backward computation.
I0717 10:13:06.617583  3874 net.cpp:228] detection_out does not need backward computation.
I0717 10:13:06.617588  3874 net.cpp:228] mbox_conf_flatten does not need backward computation.
I0717 10:13:06.617590  3874 net.cpp:228] mbox_conf_softmax does not need backward computation.
…
