…
      sampler {
        min_scale: 0.3
        max_scale: 1
        min_aspect_ratio: 0.5
        max_aspect_ratio: 2
      }
      sample_constraint {
        min_jaccard_overlap: 0.9
      }
      max_sample: 1
      max_trials: 50
    }
    batch_sampler {
      sampler {
        min_scale: 0.3
        max_scale: 1
        min_aspect_ratio: 0.5
        max_aspect_ratio: 2
      }
      sample_constraint {
        max_jaccard_overlap: 1
      }
      max_sample: 1
      max_trials: 50
    }
    label_map_file: "data/BodyFaceRegions/labelmap_voc.prototxt"
  }
}
layer {
  name: "conv1"
  type: "Convolution"
  bottom: "data"
  top: "conv1"
  param {
    lr_mult: 1
    decay_mult: 1
  }
  convolution_param {
    num_output: 32
    bias_term: false
    pad: 1
    kernel_size: 3
    group: 1
    stride: 2
    weight_filler {
      type: "gaussian"
      std: 0.01
    }
    engine: DEFAULT
  }
}
layer {
  name: "conv1/bn"
  type: "BatchNorm"
  bottom: "conv1"
  top: "conv1"
  batch_norm_param {
    moving_average_fraction: 0.999
    eps: 0.001
  }
}
layer {
  name: "conv1/scale"
  type: "Scale"
  bottom: "conv1"
  top: "conv1"
  param {
    lr_mult: 1
    decay_mult: 0
  }
  param {
    lr_mult: 1
    decay_mult: 0
  }
  scale_param {
    filler {
      type: "constant"
      value: 1
    }
    bias_term: true
    bias_filler {
      type: "constant"
      value: 0
    }
  }
}
layer {
  name: "conv1_relu"
  type: "ReLU"
  bottom: "conv1"
  top: "conv1"
}
layer {
  name: "conv2_1/dw"
  type: "Convolution"
  bottom: "conv1"
  top: "conv2_1/dw"
  param {
    lr_mult: 1
    decay_mult: 1
  }
  convolution_param {
    num_output: 32
    bias_term: false
    pad: 1
    kernel_size: 3
    group: 32
    stride: 1
    weight_filler {
      type: "gaussian"
      std: 0.01
    }
    engine: CAFFE
  }
}
layer {
  name: "conv2_1/dw/bn"
  type: "BatchNorm"
  bottom: "conv2_1/dw"
  top: "conv2_1/dw"
  batch_norm_param {
    moving_average_fraction: 0.999
    eps: 0.001
  }
}
layer {
  name: "conv2_1/dw/scale"
  type: "Scale"
  bottom: "conv2_1/dw"
  top: "conv2_1/dw"
  param {
    lr_mult: 1
    decay_mult: 0
  }
  param {
    lr_mult: 1
    decay_mult: 0
  }
  scale_param {
    filler {
      type: "constant"
      value: 1
    }
    bias_term: true
    bias_filler {
      type: "constant"
      value: 0
    }
  }
}
layer {
  name: "conv2_1/dw_relu"
  type: "ReLU"
  bottom: "conv2_1/dw"
  top: "conv2_1/dw"
}
layer {
  name: "conv2_1/sep"
  type: "Convolution"
  bottom: "conv2_1/dw"
  top: "conv2_1/sep"
  param {
    lr_mult: 1
    decay_mult: 1
  }
  convolution_param {
    num_output: 64
    bias_term: false
    pad: 0
    kernel_size: 1
    group: 1
    stride: 1
    weight_filler {
      type: "gaussian"
      std: 0.01
    }
    engine: DEFAULT
  }
}
layer {
  name: "conv2_1/sep/bn"
  type: "BatchNorm"
  bottom: "conv2_1/sep"
  top: "conv2_1/sep"
  batch_norm_param {
    moving_average_fraction: 0.999
    eps: 0.001
  }
}
layer {
  name: "conv2_1/sep/scale"
  type: "Scale"
  bottom: "conv2_1/sep"
  top: "conv2_1/sep"
  param {
    lr_mult: 1
    decay_mult: 0
  }
  param {
    lr_mult: 1
    decay_mult: 0
  }
  scale_param {
    filler {
      type: "constant"
      value: 1
    }
    bias_term: true
    bias_filler {
      type: "constant"
      value: 0
    }
  }
}
layer {
  name: "conv2_1/sep_relu"
  type: "ReLU"
  bottom: "conv2_1/sep"
  top: "conv2_1/sep"
}
layer {
  name: "conv2_2/dw"
  type: "Convolution"
  bottom: "conv2_1/sep"
  top: "conv2_2/dw"
  param {
    lr_mult: 1
    decay_mult: 1
  }
  convolution_param {
    num_output: 64
    bias_term: false
    pad: 1
    kernel_size: 3
    group: 64
    stride: 2
    weight_filler {
      type: "gaussian"
      std: 0.01
    }
    engine: CAFFE
  }
}
layer {
  name: "conv2_2/dw/bn"
  type: "BatchNorm"
  bottom: "conv2_2/dw"
  top: "conv2_2/dw"
  batch_norm_param {
    moving_average_fraction: 0.999
    eps: 0.001
  }
}
layer {
  name: "conv2_2/dw/scale"
  type: "Scale"
  bottom: "conv2_2/dw"
  top: "conv2_2/dw"
  param {
    lr_mult: 1
    decay_mult: 0
  }
  param {
    lr_mult: 1
    decay_mult: 0
  }
  scale_param {
    filler {
      type: "constant"
      value: 1
    }
    bias_term: true
    bias_filler {
      type: "constant"
      value: 0
    }
  }
}
layer {
  name: "conv2_2/dw_relu"
  type: "ReLU"
  bottom: "conv2_2/dw"
  top: "conv2_2/dw"
}
layer {
  name: "conv2_2/sep"
  type: "Convolution"
  bottom: "conv2_2/dw"
  top: "conv2_2/sep"
  param {
    lr_mult: 1
    decay_mult: 1
  }
  convolution_param {
    num_output: 128
    bias_term: false
    pad: 0
    kernel_size: 1
    group: 1
    stride: 1
    weight_filler {
      type: "gaussian"
      std: 0.01
    }
    engine: DEFAULT
  }
}
layer {
  name: "conv2_2/sep/bn"
  type: "BatchNorm"
  bottom: "conv2_2/sep"
  top: "conv2_2/sep"
  batch_norm_param {
    moving_average_fraction: 0.999
    eps: 0.001
  }
}
layer {
  name: "conv2_2/sep/scale"
  type: "Scale"
  bottom: "conv2_2/sep"
  top: "conv2_2/sep"
  param {
    lr_mult: 1
    decay_mult: 0
  }
  param {
    lr_mult: 1
    decay_mult: 0
  }
  scale_param {
    filler {
      type: "constant"
      value: 1
    }
    bias_term: true
    bias_filler {
      type: "constant"
      value: 0
    }
  }
}
layer {
  name: "conv2_2/sep_relu"
  type: "ReLU"
  bottom: "conv2_2/sep"
  top: "conv2_2/sep"
}
layer {
  name: "conv3_1/dw"
  type: "Convolution"
  bottom: "conv2_2/sep"
  top: "conv3_1/dw"
  param {
    lr_mult: 1
    decay_mult: 1
  }
  convolution_param {
    num_output: 128
    bias_term: false
    pad: 1
    kernel_size: 3
    group: 128
    stride: 1
    weight_filler {
      type: "gaussian"
      std: 0.01
    }
    engine: CAFFE
  }
}
layer {
  name: "conv3_1/dw/bn"
  type: "BatchNorm"
  bottom: "conv3_1/dw"
  top: "conv3_1/dw"
  batch_norm_param {
    moving_average_fraction: 0.999
    eps: 0.001
  }
}
layer {
  name: "conv3_1/dw/scale"
  type: "Scale"
  bottom: "conv3_1/dw"
  top: "conv3_1/dw"
  param {
    lr_mult: 1
    decay_mult: 0
  }
  param {
    lr_mult: 1
    decay_mult: 0
  }
  scale_param {
    filler {
      type: "constant"
      value: 1
    }
    bias_term: true
    bias_filler {
      type: "constant"
      value: 0
    }
  }
}
layer {
  name: "conv3_1/dw_relu"
  type: "ReLU"
  bottom: "conv3_1/dw"
  top: "conv3_1/dw"
}
layer {
  name: "conv3_1/sep"
  type: "Convolution"
  bottom: "conv3_1/dw"
  top: "conv3_1/sep"
  param {
    lr_mult: 1
    decay_mult: 1
  }
  convolution_param {
    num_output: 128
    bias_term: false
    pad: 0
    kernel_size: 1
    group: 1
    stride: 1
    weight_filler {
      type: "gaussian"
      std: 0.01
    }
    engine: DEFAULT
  }
}
layer {
  name: "conv3_1/sep/bn"
  type: "BatchNorm"
  bottom: "conv3_1/sep"
  top: "conv3_1/sep"
  batch_norm_param {
    moving_average_fraction: 0.999
    eps: 0.001
  }
}
layer {
  name: "conv3_1/sep/scale"
  type: "Scale"
  bottom: "conv3_1/sep"
  top: "conv3_1/sep"
  param {
    lr_mult: 1
    decay_mult: 0
  }
  param {
    lr_mult: 1
    decay_mult: 0
  }
  scale_param {
    filler {
      type: "constant"
      value: 1
    }
    bias_term: true
    bias_filler {
      type: "constant"
      value: 0
    }
  }
}
layer {
  name: "conv3_1/sep_relu"
  type: "ReLU"
  bottom: "conv3_1/sep"
  top: "conv3_1/sep"
}
layer {
  name: "conv3_2/dw"
  type: "Convolution"
  bottom: "conv3_1/sep"
  top: "conv3_2/dw"
  param {
    lr_mult: 1
    decay_mult: 1
  }
  convolution_param {
    num_output: 128
    bias_term: false
    pad: 1
    kernel_size: 3
    group: 128
    stride: 2
    weight_filler {
      type: "gaussian"
      std: 0.01
    }
    engine: CAFFE
  }
}
layer {
  name: "conv3_2/dw/bn"
  type: "BatchNorm"
  bottom: "conv3_2/dw"
  top: "conv3_2/dw"
  batch_norm_param {
    moving_average_fraction: 0.999
    eps: 0.001
  }
}
layer {
  name: "conv3_2/dw/scale"
  type: "Scale"
  bottom: "conv3_2/dw"
  top: "conv3_2/dw"
  param {
    lr_mult: 1
    decay_mult: 0
  }
  param {
    lr_mult: 1
    decay_mult: 0
  }
  scale_param {
    filler {
      type: "constant"
      value: 1
    }
    bias_term: true
    bias_filler {
      type: "constant"
      value: 0
    }
  }
}
layer {
  name: "conv3_2/dw_relu"
  type: "ReLU"
  bottom: "conv3_2/dw"
  top: "conv3_2/dw"
}
layer {
  name: "conv3_2/sep"
  type: "Convolution"
  bottom: "conv3_2/dw"
  top: "conv3_2/sep"
  param {
    lr_mult: 1
    decay_mult: 1
  }
  convolution_param {
    num_output: 256
    bias_term: false
    pad: 0
    kernel_size: 1
    group: 1
    stride: 1
    weight_filler {
      type: "gaussian"
      std: 0.01
    }
    engine: DEFAULT
  }
}
layer {
  name: "conv3_2/sep/bn"
  type: "BatchNorm"
  bottom: "conv3_2/sep"
  top: "conv3_2/sep"
  batch_norm_param {
    moving_average_fraction: 0.999
    eps: 0.001
  }
}
layer {
  name: "conv3_2/sep/scale"
  type: "Scale"
  bottom: "conv3_2/sep"
  top: "conv3_2/sep"
  param {
    lr_mult: 1
    decay_mult: 0
  }
  param {
    lr_mult: 1
    decay_mult: 0
  }
  scale_param {
    filler {
      type: "constant"
      value: 1
    }
    bias_term: true
    bias_filler {
      type: "constant"
      value: 0
    }
  }
}
layer {
  name: "conv3_2/sep_relu"
  type: "ReLU"
  bottom: "conv3_2/sep"
  top: "conv3_2/sep"
}
layer {
  name: "conv4_1/dw"
  type: "Convolution"
  bottom: "conv3_2/sep"
  top: "conv4_1/dw"
  param {
    lr_mult: 1
    decay_mult: 1
  }
  convolution_param {
    num_output: 256
    bias_term: false
    pad: 1
    kernel_size: 3
    group: 256
    stride: 1
    weight_filler {
      type: "gaussian"
      std: 0.01
    }
    engine: CAFFE
  }
}
layer {
  name: "conv4_1/dw/bn"
  type: "BatchNorm"
  bottom: "conv4_1/dw"
  top: "conv4_1/dw"
  batch_norm_param {
    moving_average_fraction: 0.999
    eps: 0.001
  }
}
layer {
  name: "conv4_1/dw/scale"
  type: "Scale"
  bottom: "conv4_1/dw"
  top: "conv4_1/dw"
  param {
    lr_mult: 1
    decay_mult: 0
  }
  param {
    lr_mult: 1
    decay_mult: 0
  }
  scale_param {
    filler {
      type: "constant"
      value: 1
    }
    bias_term: true
    bias_filler {
      type: "constant"
      value: 0
    }
  }
}
layer {
  name: "conv4_1/dw_relu"
  type: "ReLU"
  bottom: "conv4_1/dw"
  top: "conv4_1/dw"
}
layer {
  name: "conv4_1/sep"
  type: "Convolution"
  bottom: "conv4_1/dw"
  top: "conv4_1/sep"
  param {
    lr_mult: 1
    decay_mult: 1
  }
  convolution_param {
    num_output: 256
    bias_term: false
    pad: 0
    kernel_size: 1
    group: 1
    stride: 1
    weight_filler {
      type: "gaussian"
      std: 0.01
    }
    engine: DEFAULT
  }
}
layer {
  name: "conv4_1/sep/bn"
  type: "BatchNorm"
  bottom: "conv4_1/sep"
  top: "conv4_1/sep"
  batch_norm_param {
    moving_average_fraction: 0.999
    eps: 0.001
  }
}
layer {
  name: "conv4_1/sep/scale"
  type: "Scale"
  bottom: "conv4_1/sep"
  top: "conv4_1/sep"
  param {
    lr_mult: 1
    decay_mult: 0
  }
  param {
    lr_mult: 1
    decay_mult: 0
  }
  scale_param {
    filler {
      type: "constant"
      value: 1
    }
    bias_term: true
    bias_filler {
      type: "constant"
      value: 0
    }
  }
}
layer {
  name: "conv4_1/sep_relu"
  type: "ReLU"
  bottom: "conv4_1/sep"
  top: "conv4_1/sep"
}
layer {
  name: "conv4_2/dw"
  type: "Convolution"
  bottom: "conv4_1/sep"
  top: "conv4_2/dw"
  param {
    lr_mult: 1
    decay_mult: 1
  }
  convolution_param {
    num_output: 256
    bias_term: false
    pad: 1
    kernel_size: 3
    group: 256
    stride: 2
    weight_filler {
      type: "gaussian"
      std: 0.01
    }
    engine: CAFFE
  }
}
layer {
  name: "conv4_2/dw/bn"
  type: "BatchNorm"
  bottom: "conv4_2/dw"
  top: "conv4_2/dw"
  batch_norm_param {
    moving_average_fraction: 0.999
    eps: 0.001
  }
}
layer {
  name: "conv4_2/dw/scale"
  type: "Scale"
  bottom: "conv4_2/dw"
  top: "conv4_2/dw"
  param {
    lr_mult: 1
    decay_mult: 0
  }
  param {
    lr_mult: 1
    decay_mult: 0
  }
  scale_param {
    filler {
      type: "constant"
      value: 1
    }
    bias_term: true
    bias_filler {
      type: "constant"
      value: 0
    }
  }
}
layer {
  name: "conv4_2/dw_relu"
  type: "ReLU"
  bottom: "conv4_2/dw"
  top: "conv4_2/dw"
}
layer {
  name: "conv4_2/sep"
  type: "Convolution"
  bottom: "conv4_2/dw"
  top: "conv4_2/sep"
  param {
    lr_mult: 1
    decay_mult: 1
  }
  convolution_param {
    num_output: 512
    bias_term: false
    pad: 0
    kernel_size: 1
    group: 1
    stride: 1
    weight_filler {
      type: "gaussian"
      std: 0.01
    }
    engine: DEFAULT
  }
}
layer {
  name: "conv4_2/sep/bn"
  type: "BatchNorm"
  bottom: "conv4_2/sep"
  top: "conv4_2/sep"
  batch_norm_param {
    moving_average_fraction: 0.999
    eps: 0.001
  }
}
layer {
  name: "conv4_2/sep/scale"
  type: "Scale"
  bottom: "conv4_2/sep"
  top: "conv4_2/sep"
  param {
    lr_mult: 1
    decay_mult: 0
  }
  param {
    lr_mult: 1
    decay_mult: 0
  }
  scale_param {
    filler {
      type: "constant"
      value: 1
    }
    bias_term: true
    bias_filler {
      type: "constant"
      value: 0
    }
  }
}
layer {
  name: "conv4_2/sep_relu"
  type: "ReLU"
  bottom: "conv4_2/sep"
  top: "conv4_2/sep"
}
layer {
  name: "conv5_1/dw"
  type: "Convolution"
  bottom: "conv4_2/sep"
  top: "conv5_1/dw"
  param {
    lr_mult: 1
    decay_mult: 1
  }
  convolution_param {
    num_output: 512
    bias_term: false
    pad: 1
    kernel_size: 3
    group: 512
    stride: 1
    weight_filler {
      type: "gaussian"
      std: 0.01
    }
    engine: CAFFE
  }
}
layer {
  name: "conv5_1/dw/bn"
  type: "BatchNorm"
  bottom: "conv5_1/dw"
  top: "conv5_1/dw"
  batch_norm_param {
    moving_average_fraction: 0.999
    eps: 0.001
  }
}
layer {
  name: "conv5_1/dw/scale"
  type: "Scale"
  bottom: "conv5_1/dw"
  top: "conv5_1/dw"
  param {
    lr_mult: 1
    decay_mult: 0
  }
  param {
    lr_mult: 1
    decay_mult: 0
  }
  scale_param {
    filler {
      type: "constant"
      value: 1
    }
    bias_term: true
    bias_filler {
      type: "constant"
      value: 0
    }
  }
}
layer {
  name: "conv5_1/dw_relu"
  type: "ReLU"
  bottom: "conv5_1/dw"
  top: "conv5_1/dw"
}
layer {
  name: "conv5_1/sep"
  type: "Convolution"
  bottom: "conv5_1/dw"
  top: "conv5_1/sep"
  param {
    lr_mult: 1
    decay_mult: 1
  }
  convolution_param {
    num_output: 512
    bias_term: false
    pad: 0
    kernel_size: 1
    group: 1
    stride: 1
    weight_filler {
      type: "gaussian"
      std: 0.01
    }
    engine: DEFAULT
  }
}
layer {
  name: "conv5_1/sep/bn"
  type: "BatchNorm"
  bottom: "conv5_1/sep"
  top: "conv5_1/sep"
  batch_norm_param {
    moving_average_fraction: 0.999
    eps: 0.001
  }
}
layer {
  name: "conv5_1/sep/scale"
  type: "Scale"
  bottom: "conv5_1/sep"
  top: "conv5_1/sep"
  param {
    lr_mult: 1
    decay_mult: 0
  }
  param {
    lr_mult: 1
    decay_mult: 0
  }
  scale_param {
    filler {
      type: "constant"
      value: 1
    }
    bias_term: true
    bias_filler {
      type: "constant"
      value: 0
    }
  }
}
layer {
  name: "conv5_1/sep_relu"
  type: "ReLU"
  bottom: "conv5_1/sep"
  top: "conv5_1/sep"
}
layer {
  name: "conv5_2/dw"
  type: "Convolution"
  bottom: "conv5_1/sep"
  top: "conv5_2/dw"
  param {
    lr_mult: 1
    decay_mult: 1
  }
  convolution_param {
    num_output: 512
    bias_term: false
    pad: 1
    kernel_size: 3
    group: 512
    stride: 1
    weight_filler {
      type: "gaussian"
      std: 0.01
    }
    engine: CAFFE
  }
}
layer {
  name: "conv5_2/dw/bn"
  type: "BatchNorm"
  bottom: "conv5_2/dw"
  top: "conv5_2/dw"
  batch_norm_param {
    moving_average_fraction: 0.999
    eps: 0.001
  }
}
layer {
  name: "conv5_2/dw/scale"
  type: "Scale"
  bottom: "conv5_2/dw"
  top: "conv5_2/dw"
  param {
    lr_mult: 1
    decay_mult: 0
  }
  param {
    lr_mult: 1
    decay_mult: 0
  }
  scale_param {
    filler {
      type: "constant"
      value: 1
    }
    bias_term: true
    bias_filler {
      type: "constant"
      value: 0
    }
  }
}
layer {
  name: "conv5_2/dw_relu"
  type: "ReLU"
  bottom: "conv5_2/dw"
  top: "conv5_2/dw"
}
layer {
  name: "conv5_2/sep"
  type: "Convolution"
  bottom: "conv5_2/dw"
  top: "conv5_2/sep"
  param {
    lr_mult: 1
    decay_mult: 1
  }
  convolution_param {
    num_output: 512
    bias_term: false
    pad: 0
    kernel_size: 1
    group: 1
    stride: 1
    weight_filler {
      type: "gaussian"
      std: 0.01
    }
    engine: DEFAULT
  }
}
layer {
  name: "conv5_2/sep/bn"
  type: "BatchNorm"
  bottom: "conv5_2/sep"
  top: "conv5_2/sep"
  batch_norm_param {
    moving_average_fraction: 0.999
    eps: 0.001
  }
}
layer {
  name: "conv5_2/sep/scale"
  type: "Scale"
  bottom: "conv5_2/sep"
  top: "conv5_2/sep"
  param {
    lr_mult: 1
    decay_mult: 0
  }
  param {
    lr_mult: 1
    decay_mult: 0
  }
  scale_param {
    filler {
      type: "constant"
      value: 1
    }
    bias_term: true
    bias_filler {
      type: "constant"
      value: 0
    }
  }
}
layer {
  name: "conv5_2/sep_relu"
  type: "ReLU"
  bottom: "conv5_2/sep"
  top: "conv5_2/sep"
}
layer {
  name: "conv5_3/dw"
  type: "Convolution"
  bottom: "conv5_2/sep"
  top: "conv5_3/dw"
  param {
    lr_mult: 1
    decay_mult: 1
  }
  convolution_param {
    num_output: 512
    bias_term: false
    pad: 1
    kernel_size: 3
    group: 512
    stride: 1
    weight_filler {
      type: "gaussian"
      std: 0.01
    }
    engine: CAFFE
  }
}
layer {
  name: "conv5_3/dw/bn"
  type: "BatchNorm"
  bottom: "conv5_3/dw"
  top: "conv5_3/dw"
  batch_norm_param {
    moving_average_fraction: 0.999
    eps: 0.001
  }
}
layer {
  name: "conv5_3/dw/scale"
  type: "Scale"
  bottom: "conv5_3/dw"
  top: "conv5_3/dw"
  param {
    lr_mult: 1
    decay_mult: 0
  }
  param {
    lr_mult: 1
    decay_mult: 0
  }
  scale_param {
    filler {
      type: "constant"
      value: 1
    }
    bias_term: true
    bias_filler {
      type: "constant"
      value: 0
    }
  }
}
layer {
  name: "conv5_3/dw_relu"
  type: "ReLU"
  bottom: "conv5_3/dw"
  top: "conv5_3/dw"
}
layer {
  name: "conv5_3/sep"
  type: "Convolution"
  bottom: "conv5_3/dw"
  top: "conv5_3/sep"
  param {
    lr_mult: 1
    decay_mult: 1
  }
  convolution_param {
    num_output: 512
    bias_term: false
    pad: 0
    kernel_size: 1
    group: 1
    stride: 1
    weight_filler {
      type: "gaussian"
      std: 0.01
    }
    engine: DEFAULT
  }
}
layer {
  name: "conv5_3/sep/bn"
  type: "BatchNorm"
  bottom: "conv5_3/sep"
  top: "conv5_3/sep"
  batch_norm_param {
    moving_average_fraction: 0.999
    eps: 0.001
  }
}
layer {
  name: "conv5_3/sep/scale"
  type: "Scale"
  bottom: "conv5_3/sep"
  top: "conv5_3/sep"
  param {
    lr_mult: 1
    decay_mult: 0
  }
  param {
    lr_mult: 1
    decay_mult: 0
  }
  scale_param {
    filler {
      type: "constant"
      value: 1
    }
    bias_term: true
    bias_filler {
      type: "constant"
      value: 0
    }
  }
}
layer {
  name: "conv5_3/sep_relu"
  type: "ReLU"
  bottom: "conv5_3/sep"
  top: "conv5_3/sep"
}
layer {
  name: "conv5_4/dw"
  type: "Convolution"
  bottom: "conv5_3/sep"
  top: "conv5_4/dw"
  param {
    lr_mult: 1
    decay_mult: 1
  }
  convolution_param {
    num_output: 512
    bias_term: false
    pad: 1
    kernel_size: 3
    group: 512
    stride: 1
    weight_filler {
      type: "gaussian"
      std: 0.01
    }
    engine: CAFFE
  }
}
layer {
  name: "conv5_4/dw/bn"
  type: "BatchNorm"
  bottom: "conv5_4/dw"
  top: "conv5_4/dw"
  batch_norm_param {
    moving_average_fraction: 0.999
    eps: 0.001
  }
}
layer {
  name: "conv5_4/dw/scale"
  type: "Scale"
  bottom: "conv5_4/dw"
  top: "conv5_4/dw"
  param {
    lr_mult: 1
    decay_mult: 0
  }
  param {
    lr_mult: 1
    decay_mult: 0
  }
  scale_param {
    filler {
      type: "constant"
      value: 1
    }
    bias_term: true
    bias_filler {
      type: "constant"
      value: 0
    }
  }
}
layer {
  name: "conv5_4/dw_relu"
  type: "ReLU"
  bottom: "conv5_4/dw"
  top: "conv5_4/dw"
}
layer {
  name: "conv5_4/sep"
  type: "Convolution"
  bottom: "conv5_4/dw"
  top: "conv5_4/sep"
  param {
    lr_mult: 1
    decay_mult: 1
  }
  convolution_param {
    num_output: 512
    bias_term: false
    pad: 0
    kernel_size: 1
    group: 1
    stride: 1
    weight_filler {
      type: "gaussian"
      std: 0.01
    }
    engine: DEFAULT
  }
}
layer {
  name: "conv5_4/sep/bn"
  type: "BatchNorm"
  bottom: "conv5_4/sep"
  top: "conv5_4/sep"
  batch_norm_param {
    moving_average_fraction: 0.999
    eps: 0.001
  }
}
layer {
  name: "conv5_4/sep/scale"
  type: "Scale"
  bottom: "conv5_4/sep"
  top: "conv5_4/sep"
  param {
    lr_mult: 1
    decay_mult: 0
  }
  param {
    lr_mult: 1
    decay_mult: 0
  }
  scale_param {
    filler {
      type: "constant"
      value: 1
    }
    bias_term: true
    bias_filler {
      type: "constant"
      value: 0
    }
  }
}
layer {
  name: "conv5_4/sep_relu"
  type: "ReLU"
  bottom: "conv5_4/sep"
  top: "conv5_4/sep"
}
layer {
  name: "conv5_5/dw"
  type: "Convolution"
  bottom: "conv5_4/sep"
  top: "conv5_5/dw"
  param {
    lr_mult: 1
    decay_mult: 1
  }
  convolution_param {
    num_output: 512
    bias_term: false
    pad: 1
    kernel_size: 3
    group: 512
    stride: 1
    weight_filler {
      type: "gaussian"
      std: 0.01
    }
    engine: CAFFE
  }
}
layer {
  name: "conv5_5/dw/bn"
  type: "BatchNorm"
  bottom: "conv5_5/dw"
  top: "conv5_5/dw"
  batch_norm_param {
    moving_average_fraction: 0.999
    eps: 0.001
  }
}
layer {
  name: "conv5_5/dw/scale"
  type: "Scale"
  bottom: "conv5_5/dw"
  top: "conv5_5/dw"
  param {
    lr_mult: 1
    decay_mult: 0
  }
  param {
    lr_mult: 1
    decay_mult: 0
  }
  scale_param {
    filler {
      type: "constant"
      value: 1
    }
    bias_term: true
    bias_filler {
      type: "constant"
      value: 0
    }
  }
}
layer {
  name: "conv5_5/dw_relu"
  type: "ReLU"
  bottom: "conv5_5/dw"
  top: "conv5_5/dw"
}
layer {
  name: "conv5_5/sep"
  type: "Convolution"
  bottom: "conv5_5/dw"
  top: "conv5_5/sep"
  param {
    lr_mult: 1
    decay_mult: 1
  }
  convolution_param {
    num_output: 512
    bias_term: false
    pad: 0
    kernel_size: 1
    group: 1
    stride: 1
    weight_filler {
      type: "gaussian"
      std: 0.01
    }
    engine: DEFAULT
  }
}
layer {
  name: "conv5_5/sep/bn"
  type: "BatchNorm"
  bottom: "conv5_5/sep"
  top: "conv5_5/sep"
  batch_norm_param {
    moving_average_fraction: 0.999
    eps: 0.001
  }
}
layer {
  name: "conv5_5/sep/scale"
  type: "Scale"
  bottom: "conv5_5/sep"
  top: "conv5_5/sep"
  param {
    lr_mult: 1
    decay_mult: 0
  }
  param {
    lr_mult: 1
    decay_mult: 0
  }
  scale_param {
    filler {
      type: "constant"
      value: 1
    }
    bias_term: true
    bias_filler {
      type: "constant"
      value: 0
    }
  }
}
layer {
  name: "conv5_5/sep_relu"
  type: "ReLU"
  bottom: "conv5_5/sep"
  top: "conv5_5/sep"
}
layer {
  name: "conv5_6/dw"
  type: "Convolution"
  bottom: "conv5_5/sep"
  top: "conv5_6/dw"
  param {
    lr_mult: 1
    decay_mult: 1
  }
  convolution_param {
    num_output: 512
    bias_term: false
    pad: 1
    kernel_size: 3
    group: 512
    stride: 2
    weight_filler {
      type: "gaussian"
      std: 0.01
    }
    engine: CAFFE
  }
}
layer {
  name: "conv5_6/dw/bn"
  type: "BatchNorm"
  bottom: "conv5_6/dw"
  top: "conv5_6/dw"
  batch_norm_param {
    moving_average_fraction: 0.999
    eps: 0.001
  }
}
layer {
  name: "conv5_6/dw/scale"
  type: "Scale"
  bottom: "conv5_6/dw"
  top: "conv5_6/dw"
  param {
    lr_mult: 1
    decay_mult: 0
  }
  param {
    lr_mult: 1
    decay_mult: 0
  }
  scale_param {
    filler {
      type: "constant"
      value: 1
    }
    bias_term: true
    bias_filler {
      type: "constant"
      value: 0
    }
  }
}
layer {
  name: "conv5_6/dw_relu"
  type: "ReLU"
  bottom: "conv5_6/dw"
  top: "conv5_6/dw"
}
layer {
  name: "conv5_6/sep"
  type: "Convolution"
  bottom: "conv5_6/dw"
  top: "conv5_6/sep"
  param {
    lr_mult: 1
    decay_mult: 1
  }
  convolution_param {
    num_output: 1024
    bias_term: false
    pad: 0
    kernel_size: 1
    group: 1
    stride: 1
    weight_filler {
      type: "gaussian"
      std: 0.01
    }
    engine: DEFAULT
  }
}
layer {
  name: "conv5_6/sep/bn"
  type: "BatchNorm"
  bottom: "conv5_6/sep"
  top: "conv5_6/sep"
  batch_norm_param {
    moving_average_fraction: 0.999
    eps: 0.001
  }
}
layer {
  name: "conv5_6/sep/scale"
  type: "Scale"
  bottom: "conv5_6/sep"
  top: "conv5_6/sep"
  param {
    lr_mult: 1
    decay_mult: 0
  }
  param {
    lr_mult: 1
    decay_mult: 0
  }
  scale_param {
    filler {
      type: "constant"
      value: 1
    }
    bias_term: true
    bias_filler {
      type: "constant"
      value: 0
    }
  }
}
layer {
  name: "conv5_6/sep_relu"
  type: "ReLU"
  bottom: "conv5_6/sep"
  top: "conv5_6/sep"
}
layer {
  name: "conv6/dw"
  type: "Convolution"
  bottom: "conv5_6/sep"
  top: "conv6/dw"
  param {
    lr_mult: 1
    decay_mult: 1
  }
  convolution_param {
    num_output: 1024
    bias_term: false
    pad: 1
    kernel_size: 3
    group: 1024
    stride: 1
    weight_filler {
      type: "gaussian"
      std: 0.01
    }
    engine: CAFFE
  }
}
layer {
  name: "conv6/dw/bn"
  type: "BatchNorm"
  bottom: "conv6/dw"
  top: "conv6/dw"
  batch_norm_param {
    moving_average_fraction: 0.999
    eps: 0.001
  }
}
layer {
  name: "conv6/dw/scale"
  type: "Scale"
  bottom: "conv6/dw"
  top: "conv6/dw"
  param {
    lr_mult: 1
    decay_mult: 0
  }
  param {
    lr_mult: 1
    decay_mult: 0
  }
  scale_param {
    filler {
      type: "constant"
      value: 1
    }
    bias_term: true
    bias_filler {
      type: "constant"
      value: 0
    }
  }
}
layer {
  name: "conv6/dw_relu"
  type: "ReLU"
  bottom: "conv6/dw"
  top: "conv6/dw"
}
layer {
  name: "conv6/sep"
  type: "Convolution"
  bottom: "conv6/dw"
  top: "conv6/sep"
  param {
    lr_mult: 1
    decay_mult: 1
  }
  convolution_param {
    num_output: 1024
    bias_term: false
    pad: 0
    kernel_size: 1
    group: 1
    stride: 1
    weight_filler {
      type: "gaussian"
      std: 0.01
    }
    engine: DEFAULT
  }
}
layer {
  name: "conv6/sep/bn"
  type: "BatchNorm"
  bottom: "conv6/sep"
  top: "conv6/sep"
  batch_norm_param {
    moving_average_fraction: 0.999
    eps: 0.001
  }
}
layer {
  name: "conv6/sep/scale"
  type: "Scale"
  bottom: "conv6/sep"
  top: "conv6/sep"
  param {
    lr_mult: 1
    decay_mult: 0
  }
  param {
    lr_mult: 1
    decay_mult: 0
  }
  scale_param {
    filler {
      type: "constant"
      value: 1
    }
    bias_term: true
    bias_filler {
      type: "constant"
      value: 0
    }
  }
}
layer {
  name: "conv6/sep_relu"
  type: "ReLU"
  bottom: "conv6/sep"
  top: "conv6/sep"
}
layer {
  name: "conv7_1"
  type: "Convolution"
  bottom: "conv6/sep"
  top: "conv7_1"
  param {
    lr_mult: 1
    decay_mult: 1
  }
  param {
    lr_mult: 2
    decay_mult: 0
  }
  convolution_param {
    num_output: 256
    pad: 0
    kernel_size: 1
    group: 1
    stride: 1
    weight_filler {
      type: "xavier"
    }
    bias_filler {
      type: "constant"
      value: 0
    }
    engine: DEFAULT
  }
}
layer {
  name: "conv7_1_relu"
  type: "ReLU"
  bottom: "conv7_1"
  top: "conv7_1"
}
layer {
  name: "conv7_2"
  type: "Convolution"
  bottom: "conv7_1"
  top: "conv7_2"
  param {
    lr_mult: 1
    decay_mult: 1
  }
  param {
    lr_mult: 2
    decay_mult: 0
  }
  convolution_param {
    num_output: 512
    pad: 1
    kernel_size: 3
    group: 1
    stride: 2
    weight_filler {
      type: "xavier"
    }
    bias_filler {
      type: "constant"
      value: 0
    }
    engine: DEFAULT
  }
}
layer {
  name: "conv7_2_relu"
  type: "ReLU"
  bottom: "co
I0828 13:26:45.406172 19238 layer_factory.hpp:77] Creating layer data
I0828 13:26:45.406349 19238 net.cpp:100] Creating Layer data
I0828 13:26:45.406364 19238 net.cpp:408] data -> data
I0828 13:26:45.406393 19238 net.cpp:408] data -> label
I0828 13:26:45.408519 19244 db_lmdb.cpp:35] Opened lmdb data/BodyFaceRegions/lmdb/VOC0712_170404_161114_lmdb
I0828 13:26:45.421780 19238 annotated_data_layer.cpp:62] output data size: 16,3,300,300
I0828 13:26:45.448685 19238 net.cpp:150] Setting up data
I0828 13:26:45.448716 19238 net.cpp:157] Top shape: 16 3 300 300 (4320000)
I0828 13:26:45.448721 19238 net.cpp:157] Top shape: 1 1 4 8 (32)
I0828 13:26:45.448724 19238 net.cpp:165] Memory required for data: 17280128
I0828 13:26:45.448734 19238 layer_factory.hpp:77] Creating layer data_data_0_split
I0828 13:26:45.448751 19238 net.cpp:100] Creating Layer data_data_0_split
I0828 13:26:45.448758 19238 net.cpp:434] data_data_0_split <- data
I0828 13:26:45.448776 19238 net.cpp:408] data_data_0_split -> data_data_0_split_0
I0828 13:26:45.448789 19238 net.cpp:408] data_data_0_split -> data_data_0_split_1
I0828 13:26:45.448798 19238 net.cpp:408] data_data_0_split -> data_data_0_split_2
I0828 13:26:45.448807 19238 net.cpp:408] data_data_0_split -> data_data_0_split_3
I0828 13:26:45.448814 19238 net.cpp:408] data_data_0_split -> data_data_0_split_4
I0828 13:26:45.448848 19238 net.cpp:408] data_data_0_split -> data_data_0_split_5
I0828 13:26:45.448853 19238 net.cpp:408] data_data_0_split -> data_data_0_split_6
I0828 13:26:45.448947 19238 net.cpp:150] Setting up data_data_0_split
I0828 13:26:45.448958 19238 net.cpp:157] Top shape: 16 3 300 300 (4320000)
I0828 13:26:45.448976 19238 net.cpp:157] Top shape: 16 3 300 300 (4320000)
I0828 13:26:45.448993 19238 net.cpp:157] Top shape: 16 3 300 300 (4320000)
I0828 13:26:45.449007 19238 net.cpp:157] Top shape: 16 3 300 300 (4320000)
I0828 13:26:45.449013 19238 net.cpp:157] Top shape: 16 3 300 300 (4320000)
I0828 13:26:45.449019 19238 net.cpp:157] Top shape: 16 3 300 300 (4320000)
I0828 13:26:45.449028 19238 net.cpp:157] Top shape: 16 3 300 300 (4320000)
I0828 13:26:45.449033 19238 net.cpp:165] Memory required for data: 138240128
I0828 13:26:45.449038 19238 layer_factory.hpp:77] Creating layer conv1
I0828 13:26:45.449060 19238 net.cpp:100] Creating Layer conv1
I0828 13:26:45.449066 19238 net.cpp:434] conv1 <- data_data_0_split_0
I0828 13:26:45.449079 19238 net.cpp:408] conv1 -> conv1
I0828 13:26:45.479866 19245 blocking_queue.cpp:50] Waiting for data
I0828 13:26:45.666172 19238 net.cpp:150] Setting up conv1
I0828 13:26:45.666198 19238 net.cpp:157] Top shape: 16 32 150 150 (11520000)
I0828 13:26:45.666200 19238 net.cpp:165] Memory required for data: 184320128
I0828 13:26:45.666213 19238 layer_factory.hpp:77] Creating layer conv1/bn
I0828 13:26:45.666225 19238 net.cpp:100] Creating Layer conv1/bn
I0828 13:26:45.666230 19238 net.cpp:434] conv1/bn <- conv1
I0828 13:26:45.666236 19238 net.cpp:395] conv1/bn -> conv1 (in-place)
I0828 13:26:45.666786 19238 net.cpp:150] Setting up conv1/bn
I0828 13:26:45.666796 19238 net.cpp:157] Top shape: 16 32 150 150 (11520000)
I0828 13:26:45.666798 19238 net.cpp:165] Memory required for data: 230400128
I0828 13:26:45.666807 19238 layer_factory.hpp:77] Creating layer conv1/scale
I0828 13:26:45.666816 19238 net.cpp:100] Creating Layer conv1/scale
I0828 13:26:45.666820 19238 net.cpp:434] conv1/scale <- conv1
I0828 13:26:45.666823 19238 net.cpp:395] conv1/scale -> conv1 (in-place)
I0828 13:26:45.666863 19238 layer_factory.hpp:77] Creating layer conv1/scale
I0828 13:26:45.666978 19238 net.cpp:150] Setting up conv1/scale
I0828 13:26:45.666985 19238 net.cpp:157] Top shape: 16 32 150 150 (11520000)
I0828 13:26:45.666988 19238 net.cpp:165] Memory required for data: 276480128
I0828 13:26:45.666996 19238 layer_factory.hpp:77] Creating layer conv1_relu
I0828 13:26:45.667002 19238 net.cpp:100] Creating Layer conv1_relu
I0828 13:26:45.667006 19238 net.cpp:434] conv1_relu <- conv1
I0828 13:26:45.667011 19238 net.cpp:395] conv1_relu -> conv1 (in-place)
I0828 13:26:45.667152 19238 net.cpp:150] Setting up conv1_relu
I0828 13:26:45.667160 19238 net.cpp:157] Top shape: 16 32 150 150 (11520000)
I0828 13:26:45.667163 19238 net.cpp:165] Memory required for data: 322560128
I0828 13:26:45.667167 19238 layer_factory.hpp:77] Creating layer conv2_1/dw
I0828 13:26:45.667176 19238 net.cpp:100] Creating Layer conv2_1/dw
I0828 13:26:45.667181 19238 net.cpp:434] conv2_1/dw <- conv1
I0828 13:26:45.667186 19238 net.cpp:408] conv2_1/dw -> conv2_1/dw
I0828 13:26:45.667332 19238 net.cpp:150] Setting up conv2_1/dw
I0828 13:26:45.667340 19238 net.cpp:157] Top shape: 16 32 150 150 (11520000)
I0828 13:26:45.667341 19238 net.cpp:165] Memory required for data: 368640128
I0828 13:26:45.667347 19238 layer_factory.hpp:77] Creating layer conv2_1/dw/bn
I0828 13:26:45.667354 19238 net.cpp:100] Creating Layer conv2_1/dw/bn
I0828 13:26:45.667357 19238 net.cpp:434] conv2_1/dw/bn <- conv2_1/dw
I0828 13:26:45.667361 19238 net.cpp:395] conv2_1/dw/bn -> conv2_1/dw (in-place)
I0828 13:26:45.667508 19238 net.cpp:150] Setting up conv2_1/dw/bn
I0828 13:26:45.667515 19238 net.cpp:157] Top shape: 16 32 150 150 (11520000)
I0828 13:26:45.667517 19238 net.cpp:165] Memory required for data: 414720128
I0828 13:26:45.667527 19238 layer_factory.hpp:77] Creating layer conv2_1/dw/scale
I0828 13:26:45.667534 19238 net.cpp:100] Creating Layer conv2_1/dw/scale
I0828 13:26:45.667557 19238 net.cpp:434] conv2_1/dw/scale <- conv2_1/dw
I0828 13:26:45.667563 19238 net.cpp:395] conv2_1/dw/scale -> conv2_1/dw (in-place)
I0828 13:26:45.667598 19238 layer_factory.hpp:77] Creating layer conv2_1/dw/scale
I0828 13:26:45.667706 19238 net.cpp:150] Setting up conv2_1/dw/scale
I0828 13:26:45.667713 19238 net.cpp:157] Top shape: 16 32 150 150 (11520000)
I0828 13:26:45.667716 19238 net.cpp:165] Memory required for data: 460800128
I0828 13:26:45.667721 19238 layer_factory.hpp:77] Creating layer conv2_1/dw_relu
I0828 13:26:45.667726 19238 net.cpp:100] Creating Layer conv2_1/dw_relu
I0828 13:26:45.667729 19238 net.cpp:434] conv2_1/dw_relu <- conv2_1/dw
I0828 13:26:45.667734 19238 net.cpp:395] conv2_1/dw_relu -> conv2_1/dw (in-place)
I0828 13:26:45.668274 19238 net.cpp:150] Setting up conv2_1/dw_relu
I0828 13:26:45.668285 19238 net.cpp:157] Top shape: 16 32 150 150 (11520000)
I0828 13:26:45.668288 19238 net.cpp:165] Memory required for data: 506880128
I0828 13:26:45.668292 19238 layer_factory.hpp:77] Creating layer conv2_1/sep
I0828 13:26:45.668299 19238 net.cpp:100] Creating Layer conv2_1/sep
I0828 13:26:45.668303 19238 net.cpp:434] conv2_1/sep <- conv2_1/dw
I0828 13:26:45.668308 19238 net.cpp:408] conv2_1/sep -> conv2_1/sep
I0828 13:26:45.669716 19238 net.cpp:150] Setting up conv2_1/sep
I0828 13:26:45.669728 19238 net.cpp:157] Top shape: 16 64 150 150 (23040000)
I0828 13:26:45.669731 19238 net.cpp:165] Memory required for data: 599040128
I0828 13:26:45.669736 19238 layer_factory.hpp:77] Creating layer conv2_1/sep/bn
I0828 13:26:45.669742 19238 net.cpp:100] Creating Layer conv2_1/sep/bn
I0828 13:26:45.669745 19238 net.cpp:434] conv2_1/sep/bn <- conv2_1/sep
I0828 13:26:45.669750 19238 net.cpp:395] conv2_1/sep/bn -> conv2_1/sep (in-place)
I0828 13:26:45.669898 19238 net.cpp:150] Setting up conv2_1/sep/bn
I0828 13:26:45.669904 19238 net.cpp:157] Top shape: 16 64 150 150 (23040000)
I0828 13:26:45.669909 19238 net.cpp:165] Memory required for data: 691200128
I0828 13:26:45.669914 19238 layer_factory.hpp:77] Creating layer conv2_1/sep/scale
I0828 13:26:45.669920 19238 net.cpp:100] Creating Layer conv2_1/sep/scale
I0828 13:26:45.669924 19238 net.cpp:434] conv2_1/sep/scale <- conv2_1/sep
I0828 13:26:45.669929 19238 net.cpp:395] conv2_1/sep/scale -> conv2_1/sep (in-place)
I0828 13:26:45.669958 19238 layer_factory.hpp:77] Creating layer conv2_1/sep/scale
I0828 13:26:45.670059 19238 net.cpp:150] Setting up conv2_1/sep/scale
I0828 13:26:45.670065 19238 net.cpp:157] Top shape: 16 64 150 150 (23040000)
I0828 13:26:45.670068 19238 net.cpp:165] Memory required for data: 783360128
I0828 13:26:45.670076 19238 layer_factory.hpp:77] Creating layer conv2_1/sep_relu
I0828 13:26:45.670081 19238 net.cpp:100] Creating Layer conv2_1/sep_relu
I0828 13:26:45.670084 19238 net.cpp:434] conv2_1/sep_relu <- conv2_1/sep
I0828 13:26:45.670089 19238 net.cpp:395] conv2_1/sep_relu -> conv2_1/sep (in-place)
I0828 13:26:45.670616 19238 net.cpp:150] Setting up conv2_1/sep_relu
I0828 13:26:45.670626 19238 net.cpp:157] Top shape: 16 64 150 150 (23040000)
I0828 13:26:45.670629 19238 net.cpp:165] Memory required for data: 875520128
I0828 13:26:45.670632 19238 layer_factory.hpp:77] Creating layer conv2_2/dw
I0828 13:26:45.670640 19238 net.cpp:100] Creating Layer conv2_2/dw
I0828 13:26:45.670644 19238 net.cpp:434] conv2_2/dw <- conv2_1/sep
I0828 13:26:45.670648 19238 net.cpp:408] conv2_2/dw -> conv2_2/dw
I0828 13:26:45.670791 19238 net.cpp:150] Setting up conv2_2/dw
I0828 13:26:45.670797 19238 net.cpp:157] Top shape: 16 64 75 75 (5760000)
I0828 13:26:45.670800 19238 net.cpp:165] Memory required for data: 898560128
I0828 13:26:45.670805 19238 layer_factory.hpp:77] Creating layer conv2_2/dw/bn
I0828 13:26:45.670810 19238 net.cpp:100] Creating Layer conv2_2/dw/bn
I0828 13:26:45.670814 19238 net.cpp:434] conv2_2/dw/bn <- conv2_2/dw
I0828 13:26:45.670819 19238 net.cpp:395] conv2_2/dw/bn -> conv2_2/dw (in-place)
I0828 13:26:45.671337 19238 net.cpp:150] Setting up conv2_2/dw/bn
I0828 13:26:45.671346 19238 net.cpp:157] Top shape: 16 64 75 75 (5760000)
I0828 13:26:45.671360 19238 net.cpp:165] Memory required for data: 921600128
I0828 13:26:45.671366 19238 layer_factory.hpp:77] Creating layer conv2_2/dw/scale
I0828 13:26:45.671375 19238 net.cpp:100] Creating Layer conv2_2/dw/scale
I0828 13:26:45.671378 19238 net.cpp:434] conv2_2/dw/scale <- conv2_2/dw
I0828 13:26:45.671383 19238 net.cpp:395] conv2_2/dw/scale -> conv2_2/dw (in-place)
I0828 13:26:45.671416 19238 layer_factory.hpp:77] Creating layer conv2_2/dw/scale
I0828 13:26:45.671504 19238 net.cpp:150] Setting up conv2_2/dw/scale
I0828 13:26:45.671509 19238 net.cpp:157] Top shape: 16 64 75 75 (5760000)
I0828 13:26:45.671511 19238 net.cpp:165] Memory required for data: 944640128
I0828 13:26:45.671516 19238 layer_factory.hpp:77] Creating layer conv2_2/dw_relu
I0828 13:26:45.671521 19238 net.cpp:100] Creating Layer conv2_2/dw_relu
I0828 13:26:45.671525 19238 net.cpp:434] conv2_2/dw_relu <- conv2_2/dw
I0828 13:26:45.671528 19238 net.cpp:395] conv2_2/dw_relu -> conv2_2/dw (in-place)
I0828 13:26:45.671663 19238 net.cpp:150] Setting up conv2_2/dw_relu
I0828 13:26:45.671669 19238 net.cpp:157] Top shape: 16 64 75 75 (5760000)
I0828 13:26:45.671672 19238 net.cpp:165] Memory required for data: 967680128
I0828 13:26:45.671675 19238 layer_factory.hpp:77] Creating layer conv2_2/sep
I0828 13:26:45.671682 19238 net.cpp:100] Creating Layer conv2_2/sep
I0828 13:26:45.671685 19238 net.cpp:434] conv2_2/sep <- conv2_2/dw
I0828 13:26:45.671690 19238 net.cpp:408] conv2_2/sep -> conv2_2/sep
I0828 13:26:45.673460 19238 net.cpp:150] Setting up conv2_2/sep
I0828 13:26:45.673471 19238 net.cpp:157] Top shape: 16 128 75 75 (11520000)
I0828 13:26:45.673475 19238 net.cpp:165] Memory required for data: 1013760128
I0828 13:26:45.673480 19238 layer_factory.hpp:77] Creating layer conv2_2/sep/bn
I0828 13:26:45.673485 19238 net.cpp:100] Creating Layer conv2_2/sep/bn
I0828 13:26:45.673490 19238 net.cpp:434] conv2_2/sep/bn <- conv2_2/sep
I0828 13:26:45.673493 19238 net.cpp:395] conv2_2/sep/bn -> conv2_2/sep (in-place)
I0828 13:26:45.673629 19238 net.cpp:150] Setting up conv2_2/sep/bn
I0828 13:26:45.673635 19238 net.cpp:157] Top shape: 16 128 75 75 (11520000)
I0828 13:26:45.673638 19238 net.cpp:165] Memory required for data: 1059840128
I0828 13:26:45.673645 19238 layer_factory.hpp:77] Creating layer conv2_2/sep/scale
I0828 13:26:45.673650 19238 net.cpp:100] Creating Layer conv2_2/sep/scale
I0828 13:26:45.673653 19238 net.cpp:434] conv2_2/sep/scale <- conv2_2/sep
I0828 13:26:45.673657 19238 net.cpp:395] conv2_2/sep/scale -> conv2_2/sep (in-place)
I0828 13:26:45.673686 19238 layer_factory.hpp:77] Creating layer conv2_2/sep/scale
I0828 13:26:45.673766 19238 net.cpp:150] Setting up conv2_2/sep/scale
I0828 13:26:45.673771 19238 net.cpp:157] Top shape: 16 128 75 75 (11520000)
I0828 13:26:45.673774 19238 net.cpp:165] Memory required for data: 1105920128
I0828 13:26:45.673779 19238 layer_factory.hpp:77] Creating layer conv2_2/sep_relu
I0828 13:26:45.673784 19238 net.cpp:100] Creating Layer conv2_2/sep_relu
I0828 13:26:45.673787 19238 net.cpp:434] conv2_2/sep_relu <- conv2_2/sep
I0828 13:26:45.673791 19238 net.cpp:395] conv2_2/sep_relu -> conv2_2/sep (in-place)
I0828 13:26:45.674324 19238 net.cpp:150] Setting up conv2_2/sep_relu
I0828 13:26:45.674335 19238 net.cpp:157] Top shape: 16 128 75 75 (11520000)
I0828 13:26:45.674337 19238 net.cpp:165] Memory required for data: 1152000128
I0828 13:26:45.674341 19238 layer_factory.hpp:77] Creating layer conv3_1/dw
I0828 13:26:45.674348 19238 net.cpp:100] Creating Layer conv3_1/dw
I0828 13:26:45.674352 19238 net.cpp:434] conv3_1/dw <- conv2_2/sep
I0828 13:26:45.674357 19238 net.cpp:408] conv3_1/dw -> conv3_1/dw
I0828 13:26:45.674501 19238 net.cpp:150] Setting up conv3_1/dw
I0828 13:26:45.674509 19238 net.cpp:157] Top shape: 16 128 75 75 (11520000)
I0828 13:26:45.674510 19238 net.cpp:165] Memory required for data: 1198080128
I0828 13:26:45.674515 19238 layer_factory.hpp:77] Creating layer conv3_1/dw/bn
I0828 13:26:45.674520 19238 net.cpp:100] Creating Layer conv3_1/dw/bn
I0828 13:26:45.674523 19238 net.cpp:434] conv3_1/dw/bn <- conv3_1/dw
I0828 13:26:45.674538 19238 net.cpp:395] conv3_1/dw/bn -> conv3_1/dw (in-place)
I0828 13:26:45.674675 19238 net.cpp:150] Setting up conv3_1/dw/bn
I0828 13:26:45.674681 19238 net.cpp:157] Top shape: 16 128 75 75 (11520000)
I0828 13:26:45.674685 19238 net.cpp:165] Memory required for data: 1244160128
I0828 13:26:45.674693 19238 layer_factory.hpp:77] Creating layer conv3_1/dw/scale
I0828 13:26:45.674700 19238 net.cpp:100] Creating Layer conv3_1/dw/scale
I0828 13:26:45.674702 19238 net.cpp:434] conv3_1/dw/scale <- conv3_1/dw
I0828 13:26:45.674706 19238 net.cpp:395] conv3_1/dw/scale -> conv3_1/dw (in-place)
I0828 13:26:45.674737 19238 layer_factory.hpp:77] Creating layer conv3_1/dw/scale
I0828 13:26:45.674823 19238 net.cpp:150] Setting up conv3_1/dw/scale
I0828 13:26:45.674829 19238 net.cpp:157] Top shape: 16 128 75 75 (11520000)
I0828 13:26:45.674831 19238 net.cpp:165] Memory required for data: 1290240128
I0828 13:26:45.674836 19238 layer_factory.hpp:77] Creating layer conv3_1/dw_relu
I0828 13:26:45.674842 19238 net.cpp:100] Creating Layer conv3_1/dw_relu
I0828 13:26:45.674845 19238 net.cpp:434] conv3_1/dw_relu <- conv3_1/dw
I0828 13:26:45.674850 19238 net.cpp:395] conv3_1/dw_relu -> conv3_1/dw (in-place)
I0828 13:26:45.674990 19238 net.cpp:150] Setting up conv3_1/dw_relu
I0828 13:26:45.674998 19238 net.cpp:157] Top shape: 16 128 75 75 (11520000)
I0828 13:26:45.675000 19238 net.cpp:165] Memory required for data: 1336320128
I0828 13:26:45.675004 19238 layer_factory.hpp:77] Creating layer conv3_1/sep
I0828 13:26:45.675011 19238 net.cpp:100] Creating Layer conv3_1/sep
I0828 13:26:45.675014 19238 net.cpp:434] conv3_1/sep <- conv3_1/dw
I0828 13:26:45.675024 19238 net.cpp:408] conv3_1/sep -> conv3_1/sep
I0828 13:26:45.676530 19238 net.cpp:150] Setting up conv3_1/sep
I0828 13:26:45.676540 19238 net.cpp:157] Top shape: 16 128 75 75 (11520000)
I0828 13:26:45.676543 19238 net.cpp:165] Memory required for data: 1382400128
I0828 13:26:45.676547 19238 layer_factory.hpp:77] Creating layer conv3_1/sep/bn
I0828 13:26:45.676553 19238 net.cpp:100] Creating Layer conv3_1/sep/bn
I0828 13:26:45.676555 19238 net.cpp:434] conv3_1/sep/bn <- conv3_1/sep
I0828 13:26:45.676558 19238 net.cpp:395] conv3_1/sep/bn -> conv3_1/sep (in-place)
I0828 13:26:45.676700 19238 net.cpp:150] Setting up conv3_1/sep/bn
I0828 13:26:45.676707 19238 net.cpp:157] Top shape: 16 128 75 75 (11520000)
I0828 13:26:45.676709 19238 net.cpp:165] Memory required for data: 1428480128
I0828 13:26:45.676715 19238 layer_factory.hpp:77] Creating layer conv3_1/sep/scale
I0828 13:26:45.676722 19238 net.cpp:100] Creating Layer conv3_1/sep/scale
I0828 13:26:45.676724 19238 net.cpp:434] conv3_1/sep/scale <- conv3_1/sep
I0828 13:26:45.676729 19238 net.cpp:395] conv3_1/sep/scale -> conv3_1/sep (in-place)
I0828 13:26:45.676760 19238 layer_factory.hpp:77] Creating layer conv3_1/sep/scale
I0828 13:26:45.676846 19238 net.cpp:150] Setting up conv3_1/sep/scale
I0828 13:26:45.676852 19238 net.cpp:157] Top shape: 16 128 75 75 (11520000)
I0828 13:26:45.676856 19238 net.cpp:165] Memory required for data: 1474560128
I0828 13:26:45.676861 19238 layer_factory.hpp:77] Creating layer conv3_1/sep_relu
I0828 13:26:45.676865 19238 net.cpp:100] Creating Layer conv3_1/sep_relu
I0828 13:26:45.676868 19238 net.cpp:434] conv3_1/sep_relu <- conv3_1/sep
I0828 13:26:45.676873 19238 net.cpp:395] conv3_1/sep_relu -> conv3_1/sep (in-place)
I0828 13:26:45.677407 19238 net.cpp:150] Setting up conv3_1/sep_relu
I0828 13:26:45.677417 19238 net.cpp:157] Top shape: 16 128 75 75 (11520000)
I0828 13:26:45.677420 19238 net.cpp:165] Memory required for data: 1520640128
I0828 13:26:45.677423 19238 layer_factory.hpp:77] Creating layer conv3_2/dw
I0828 13:26:45.677430 19238 net.cpp:100] Creating Layer conv3_2/dw
I0828 13:26:45.677434 19238 net.cpp:434] conv3_2/dw <- conv3_1/sep
I0828 13:26:45.677440 19238 net.cpp:408] conv3_2/dw -> conv3_2/dw
I0828 13:26:45.677597 19238 net.cpp:150] Setting up conv3_2/dw
I0828 13:26:45.677604 19238 net.cpp:157] Top shape: 16 128 38 38 (2957312)
I0828 13:26:45.677608 19238 net.cpp:165] Memory required for data: 1532469376
I0828 13:26:45.677620 19238 layer_factory.hpp:77] Creating layer conv3_2/dw/bn
I0828 13:26:45.677625 19238 net.cpp:100] Creating Layer conv3_2/dw/bn
I0828 13:26:45.677629 19238 net.cpp:434] conv3_2/dw/bn <- conv3_2/dw
I0828 13:26:45.677634 19238 net.cpp:395] conv3_2/dw/bn -> conv3_2/dw (in-place)
I0828 13:26:45.677772 19238 net.cpp:150] Setting up conv3_2/dw/bn
I0828 13:26:45.677778 19238 net.cpp:157] Top shape: 16 128 38 38 (2957312)
I0828 13:26:45.677781 19238 net.cpp:165] Memory required for data: 1544298624
I0828 13:26:45.677788 19238 layer_factory.hpp:77] Creating layer conv3_2/dw/scale
I0828 13:26:45.677795 19238 net.cpp:100] Creating Layer conv3_2/dw/scale
I0828 13:26:45.677799 19238 net.cpp:434] conv3_2/dw/scale <- conv3_2/dw
I0828 13:26:45.677804 19238 net.cpp:395] conv3_2/dw/scale -> conv3_2/dw (in-place)
I0828 13:26:45.677836 19238 layer_factory.hpp:77] Creating layer conv3_2/dw/scale
I0828 13:26:45.677919 19238 net.cpp:150] Setting up conv3_2/dw/scale
I0828 13:26:45.677925 19238 net.cpp:157] Top shape: 16 128 38 38 (2957312)
I0828 13:26:45.677928 19238 net.cpp:165] Memory required for data: 1556127872
I0828 13:26:45.677934 19238 layer_factory.hpp:77] Creating layer conv3_2/dw_relu
I0828 13:26:45.677939 19238 net.cpp:100] Creating Layer conv3_2/dw_relu
I0828 13:26:45.677942 19238 net.cpp:434] conv3_2/dw_relu <- conv3_2/dw
I0828 13:26:45.677947 19238 net.cpp:395] conv3_2/dw_relu -> conv3_2/dw (in-place)
I0828 13:26:45.678086 19238 net.cpp:150] Setting up conv3_2/dw_relu
I0828 13:26:45.678092 19238 net.cpp:157] Top shape: 16 128 38 38 (2957312)
I0828 13:26:45.678098 19238 net.cpp:165] Memory required for data: 1567957120
I0828 13:26:45.678102 19238 layer_factory.hpp:77] Creating layer conv3_2/sep
I0828 13:26:45.678109 19238 net.cpp:100] Creating Layer conv3_2/sep
I0828 13:26:45.678113 19238 net.cpp:434] conv3_2/sep <- conv3_2/dw
I0828 13:26:45.678119 19238 net.cpp:408] conv3_2/sep -> conv3_2/sep
I0828 13:26:45.679738 19238 net.cpp:150] Setting up conv3_2/sep
I0828 13:26:45.679749 19238 net.cpp:157] Top shape: 16 256 38 38 (5914624)
I0828 13:26:45.679751 19238 net.cpp:165] Memory required for data: 1591615616
I0828 13:26:45.679757 19238 layer_factory.hpp:77] Creating layer conv3_2/sep/bn
I0828 13:26:45.679764 19238 net.cpp:100] Creating Layer conv3_2/sep/bn
I0828 13:26:45.679767 19238 net.cpp:434] conv3_2/sep/bn <- conv3_2/sep
I0828 13:26:45.679772 19238 net.cpp:395] conv3_2/sep/bn -> conv3_2/sep (in-place)
I0828 13:26:45.679919 19238 net.cpp:150] Setting up conv3_2/sep/bn
I0828 13:26:45.679925 19238 net.cpp:157] Top shape: 16 256 38 38 (5914624)
I0828 13:26:45.679929 19238 net.cpp:165] Memory required for data: 1615274112
I0828 13:26:45.679934 19238 layer_factory.hpp:77] Creating layer conv3_2/sep/scale
I0828 13:26:45.679939 19238 net.cpp:100] Creating Layer conv3_2/sep/scale
I0828 13:26:45.679942 19238 net.cpp:434] conv3_2/sep/scale <- conv3_2/sep
I0828 13:26:45.679947 19238 net.cpp:395] conv3_2/sep/scale -> conv3_2/sep (in-place)
I0828 13:26:45.679980 19238 layer_factory.hpp:77] Creating layer conv3_2/sep/scale
I0828 13:26:45.680063 19238 net.cpp:150] Setting up conv3_2/sep/scale
I0828 13:26:45.680068 19238 net.cpp:157] Top shape: 16 256 38 38 (5914624)
I0828 13:26:45.680071 19238 net.cpp:165] Memory required for data: 1638932608
I0828 13:26:45.680076 19238 layer_factory.hpp:77] Creating layer conv3_2/sep_relu
I0828 13:26:45.680081 19238 net.cpp:100] Creating Layer conv3_2/sep_relu
I0828 13:26:45.680084 19238 net.cpp:434] conv3_2/sep_relu <- conv3_2/sep
I0828 13:26:45.680088 19238 net.cpp:395] conv3_2/sep_relu -> conv3_2/sep (in-place)
I0828 13:26:45.680629 19238 net.cpp:150] Setting up conv3_2/sep_relu
I0828 13:26:45.680639 19238 net.cpp:157] Top shape: 16 256 38 38 (5914624)
I0828 13:26:45.680640 19238 net.cpp:165] Memory required for data: 1662591104
I0828 13:26:45.680644 19238 layer_factory.hpp:77] Creating layer conv4_1/dw
I0828 13:26:45.680652 19238 net.cpp:100] Creating Layer conv4_1/dw
I0828 13:26:45.680656 19238 net.cpp:434] conv4_1/dw <- conv3_2/sep
I0828 13:26:45.680671 19238 net.cpp:408] conv4_1/dw -> conv4_1/dw
I0828 13:26:45.680843 19238 net.cpp:150] Setting up conv4_1/dw
I0828 13:26:45.680850 19238 net.cpp:157] Top shape: 16 256 38 38 (5914624)
I0828 13:26:45.680852 19238 net.cpp:165] Memory required for data: 1686249600
I0828 13:26:45.680857 19238 layer_factory.hpp:77] Creating layer conv4_1/dw/bn
I0828 13:26:45.680862 19238 net.cpp:100] Creating Layer conv4_1/dw/bn
I0828 13:26:45.680866 19238 net.cpp:434] conv4_1/dw/bn <- conv4_1/dw
I0828 13:26:45.680871 19238 net.cpp:395] conv4_1/dw/bn -> conv4_1/dw (in-place)
I0828 13:26:45.681007 19238 net.cpp:150] Setting up conv4_1/dw/bn
I0828 13:26:45.681013 19238 net.cpp:157] Top shape: 16 256 38 38 (5914624)
I0828 13:26:45.681015 19238 net.cpp:165] Memory required for data: 1709908096
I0828 13:26:45.681021 19238 layer_factory.hpp:77] Creating layer conv4_1/dw/scale
I0828 13:26:45.681030 19238 net.cpp:100] Creating Layer conv4_1/dw/scale
I0828 13:26:45.681032 19238 net.cpp:434] conv4_1/dw/scale <- conv4_1/dw
I0828 13:26:45.681038 19238 net.cpp:395] conv4_1/dw/scale -> conv4_1/dw (in-place)
I0828 13:26:45.681071 19238 layer_factory.hpp:77] Creating layer conv4_1/dw/scale
I0828 13:26:45.681151 19238 net.cpp:150] Setting up conv4_1/dw/scale
I0828 13:26:45.681157 19238 net.cpp:157] Top shape: 16 256 38 38 (5914624)
I0828 13:26:45.681160 19238 net.cpp:165] Memory required for data: 1733566592
I0828 13:26:45.681165 19238 layer_factory.hpp:77] Creating layer conv4_1/dw_relu
I0828 13:26:45.681170 19238 net.cpp:100] Creating Layer conv4_1/dw_relu
I0828 13:26:45.681174 19238 net.cpp:434] conv4_1/dw_relu <- conv4_1/dw
I0828 13:26:45.681179 19238 net.cpp:395] conv4_1/dw_relu -> conv4_1/dw (in-place)
I0828 13:26:45.681319 19238 net.cpp:150] Setting up conv4_1/dw_relu
I0828 13:26:45.681327 19238 net.cpp:157] Top shape: 16 256 38 38 (5914624)
I0828 13:26:45.681330 19238 net.cpp:165] Memory required for data: 1757225088
I0828 13:26:45.681334 19238 layer_factory.hpp:77] Creating layer conv4_1/sep
I0828 13:26:45.681341 19238 net.cpp:100] Creating Layer conv4_1/sep
I0828 13:26:45.681345 19238 net.cpp:434] conv4_1/sep <- conv4_1/dw
I0828 13:26:45.681350 19238 net.cpp:408] conv4_1/sep -> conv4_1/sep
I0828 13:26:45.684003 19238 net.cpp:150] Setting up conv4_1/sep
I0828 13:26:45.684015 19238 net.cpp:157] Top shape: 16 256 38 38 (5914624)
I0828 13:26:45.684016 19238 net.cpp:165] Memory required for data: 1780883584
I0828 13:26:45.684021 19238 layer_factory.hpp:77] Creating layer conv4_1/sep/bn
I0828 13:26:45.684026 19238 net.cpp:100] Creating Layer conv4_1/sep/bn
I0828 13:26:45.684029 19238 net.cpp:434] conv4_1/sep/bn <- conv4_1/sep
I0828 13:26:45.684032 19238 net.cpp:395] conv4_1/sep/bn -> conv4_1/sep (in-place)
I0828 13:26:45.684182 19238 net.cpp:150] Setting up conv4_1/sep/bn
I0828 13:26:45.684190 19238 net.cpp:157] Top shape: 16 256 38 38 (5914624)
I0828 13:26:45.684192 19238 net.cpp:165] Memory required for data: 1804542080
I0828 13:26:45.684198 19238 layer_factory.hpp:77] Creating layer conv4_1/sep/scale
I0828 13:26:45.684203 19238 net.cpp:100] Creating Layer conv4_1/sep/scale
I0828 13:26:45.684206 19238 net.cpp:434] conv4_1/sep/scale <- conv4_1/sep
I0828 13:26:45.684212 19238 net.cpp:395] conv4_1/sep/scale -> conv4_1/sep (in-place)
I0828 13:26:45.684244 19238 layer_factory.hpp:77] Creating layer conv4_1/sep/scale
I0828 13:26:45.684327 19238 net.cpp:150] Setting up conv4_1/sep/scale
I0828 13:26:45.684334 19238 net.cpp:157] Top shape: 16 256 38 38 (5914624)
I0828 13:26:45.684341 19238 net.cpp:165] Memory required for data: 1828200576
I0828 13:26:45.684358 19238 layer_factory.hpp:77] Creating layer conv4_1/sep_relu
I0828 13:26:45.684367 19238 net.cpp:100] Creating Layer conv4_1/sep_relu
I0828 13:26:45.684373 19238 net.cpp:434] conv4_1/sep_relu <- conv4_1/sep
I0828 13:26:45.684381 19238 net.cpp:395] conv4_1/sep_relu -> conv4_1/sep (in-place)
I0828 13:26:45.684551 19238 net.cpp:150] Setting up conv4_1/sep_relu
I0828 13:26:45.684559 19238 net.cpp:157] Top shape: 16 256 38 38 (5914624)
I0828 13:26:45.684562 19238 net.cpp:165] Memory required for data: 1851859072
I0828 13:26:45.684574 19238 layer_factory.hpp:77] Creating layer conv4_2/dw
I0828 13:26:45.684583 19238 net.cpp:100] Creating Layer conv4_2/dw
I0828 13:26:45.684587 19238 net.cpp:434] conv4_2/dw <- conv4_1/sep
I0828 13:26:45.684592 19238 net.cpp:408] conv4_2/dw -> conv4_2/dw
I0828 13:26:45.684779 19238 net.cpp:150] Setting up conv4_2/dw
I0828 13:26:45.684785 19238 net.cpp:157] Top shape: 16 256 19 19 (1478656)
I0828 13:26:45.684788 19238 net.cpp:165] Memory required for data: 1857773696
I0828 13:26:45.684792 19238 layer_factory.hpp:77] Creating layer conv4_2/dw/bn
I0828 13:26:45.684798 19238 net.cpp:100] Creating Layer conv4_2/dw/bn
I0828 13:26:45.684801 19238 net.cpp:434] conv4_2/dw/bn <- conv4_2/dw
I0828 13:26:45.684806 19238 net.cpp:395] conv4_2/dw/bn -> conv4_2/dw (in-place)
I0828 13:26:45.684950 19238 net.cpp:150] Setting up conv4_2/dw/bn
I0828 13:26:45.684957 19238 net.cpp:157] Top shape: 16 256 19 19 (1478656)
I0828 13:26:45.684959 19238 net.cpp:165] Memory required for data: 1863688320
I0828 13:26:45.684965 19238 layer_factory.hpp:77] Creating layer conv4_2/dw/scale
I0828 13:26:45.684972 19238 net.cpp:100] Creating Layer conv4_2/dw/scale
I0828 13:26:45.684974 19238 net.cpp:434] conv4_2/dw/scale <- conv4_2/dw
I0828 13:26:45.684979 19238 net.cpp:395] conv4_2/dw/scale -> conv4_2/dw (in-place)
I0828 13:26:45.685010 19238 layer_factory.hpp:77] Creating layer conv4_2/dw/scale
I0828 13:26:45.685094 19238 net.cpp:150] Setting up conv4_2/dw/scale
I0828 13:26:45.685101 19238 net.cpp:157] Top shape: 16 256 19 19 (1478656)
I0828 13:26:45.685102 19238 net.cpp:165] Memory required for data: 1869602944
I0828 13:26:45.685107 19238 layer_factory.hpp:77] Creating layer conv4_2/dw_relu
I0828 13:26:45.685113 19238 net.cpp:100] Creating Layer conv4_2/dw_relu
I0828 13:26:45.685117 19238 net.cpp:434] conv4_2/dw_relu <- conv4_2/dw
I0828 13:26:45.685120 19238 net.cpp:395] conv4_2/dw_relu -> conv4_2/dw (in-place)
I0828 13:26:45.685657 19238 net.cpp:150] Setting up conv4_2/dw_relu
I0828 13:26:45.685665 19238 net.cpp:157] Top shape: 16 256 19 19 (1478656)
I0828 13:26:45.685668 19238 net.cpp:165] Memory required for data: 1875517568
I0828 13:26:45.685672 19238 layer_factory.hpp:77] Creating layer conv4_2/sep
I0828 13:26:45.685679 19238 net.cpp:100] Creating Layer conv4_2/sep
I0828 13:26:45.685683 19238 net.cpp:434] conv4_2/sep <- conv4_2/dw
I0828 13:26:45.685689 19238 net.cpp:408] conv4_2/sep -> conv4_2/sep
I0828 13:26:45.688860 19238 net.cpp:150] Setting up conv4_2/sep
I0828 13:26:45.688871 19238 net.cpp:157] Top shape: 16 512 19 19 (2957312)
I0828 13:26:45.688875 19238 net.cpp:165] Memory required for data: 1887346816
I0828 13:26:45.688880 19238 layer_factory.hpp:77] Creating layer conv4_2/sep/bn
I0828 13:26:45.688885 19238 net.cpp:100] Creating Layer conv4_2/sep/bn
I0828 13:26:45.688889 19238 net.cpp:434] conv4_2/sep/bn <- conv4_2/sep
I0828 13:26:45.688894 19238 net.cpp:395] conv4_2/sep/bn -> conv4_2/sep (in-place)
I0828 13:26:45.689051 19238 net.cpp:150] Setting up conv4_2/sep/bn
I0828 13:26:45.689057 19238 net.cpp:157] Top shape: 16 512 19 19 (2957312)
I0828 13:26:45.689060 19238 net.cpp:165] Memory required for data: 1899176064
I0828 13:26:45.689066 19238 layer_factory.hpp:77] Creating layer conv4_2/sep/scale
I0828 13:26:45.689072 19238 net.cpp:100] Creating Layer conv4_2/sep/scale
I0828 13:26:45.689076 19238 net.cpp:434] conv4_2/sep/scale <- conv4_2/sep
I0828 13:26:45.689080 19238 net.cpp:395] conv4_2/sep/scale -> conv4_2/sep (in-place)
I0828 13:26:45.689116 19238 layer_factory.hpp:77] Creating layer conv4_2/sep/scale
I0828 13:26:45.689201 19238 net.cpp:150] Setting up conv4_2/sep/scale
I0828 13:26:45.689208 19238 net.cpp:157] Top shape: 16 512 19 19 (2957312)
I0828 13:26:45.689210 19238 net.cpp:165] Memory required for data: 1911005312
I0828 13:26:45.689215 19238 layer_factory.hpp:77] Creating layer conv4_2/sep_relu
I0828 13:26:45.689219 19238 net.cpp:100] Creating Layer conv4_2/sep_relu
I0828 13:26:45.689223 19238 net.cpp:434] conv4_2/sep_relu <- conv4_2/sep
I0828 13:26:45.689227 19238 net.cpp:395] conv4_2/sep_relu -> conv4_2/sep (in-place)
I0828 13:26:45.689381 19238 net.cpp:150] Setting up conv4_2/sep_relu
I0828 13:26:45.689389 19238 net.cpp:157] Top shape: 16 512 19 19 (2957312)
I0828 13:26:45.689393 19238 net.cpp:165] Memory required for data: 1922834560
I0828 13:26:45.689395 19238 layer_factory.hpp:77] Creating layer conv5_1/dw
I0828 13:26:45.689404 19238 net.cpp:100] Creating Layer conv5_1/dw
I0828 13:26:45.689406 19238 net.cpp:434] conv5_1/dw <- conv4_2/sep
I0828 13:26:45.689412 19238 net.cpp:408] conv5_1/dw -> conv5_1/dw
I0828 13:26:45.689607 19238 net.cpp:150] Setting up conv5_1/dw
I0828 13:26:45.689613 19238 net.cpp:157] Top shape: 16 512 19 19 (2957312)
I0828 13:26:45.689616 19238 net.cpp:165] Memory required for data: 1934663808
I0828 13:26:45.689620 19238 layer_factory.hpp:77] Creating layer conv5_1/dw/bn
I0828 13:26:45.689625 19238 net.cpp:100] Creating Layer conv5_1/dw/bn
I0828 13:26:45.689628 19238 net.cpp:434] conv5_1/dw/bn <- conv5_1/dw
I0828 13:26:45.689632 19238 net.cpp:395] conv5_1/dw/bn -> conv5_1/dw (in-place)
I0828 13:26:45.689776 19238 net.cpp:150] Setting up conv5_1/dw/bn
I0828 13:26:45.689784 19238 net.cpp:157] Top shape: 16 512 19 19 (2957312)
I0828 13:26:45.689785 19238 net.cpp:165] Memory required for data: 1946493056
I0828 13:26:45.689792 19238 layer_factory.hpp:77] Creating layer conv5_1/dw/scale
I0828 13:26:45.689797 19238 net.cpp:100] Creating Layer conv5_1/dw/scale
I0828 13:26:45.689800 19238 net.cpp:434] conv5_1/dw/scale <- conv5_1/dw
I0828 13:26:45.689805 19238 net.cpp:395] conv5_1/dw/scale -> conv5_1/dw (in-place)
I0828 13:26:45.689839 19238 layer_factory.hpp:77] Creating layer conv5_1/dw/scale
I0828 13:26:45.689925 19238 net.cpp:150] Setting up conv5_1/dw/scale
I0828 13:26:45.689931 19238 net.cpp:157] Top shape: 16 512 19 19 (2957312)
I0828 13:26:45.689934 19238 net.cpp:165] Memory required for data: 1958322304
I0828 13:26:45.689939 19238 layer_factory.hpp:77] Creating layer conv5_1/dw_relu
I0828 13:26:45.689944 19238 net.cpp:100] Creating Layer conv5_1/dw_relu
I0828 13:26:45.689946 19238 net.cpp:434] conv5_1/dw_relu <- conv5_1/dw
I0828 13:26:45.689951 19238 net.cpp:395] conv5_1/dw_relu -> conv5_1/dw (in-place)
I0828 13:26:45.690495 19238 net.cpp:150] Setting up conv5_1/dw_relu
I0828 13:26:45.690505 19238 net.cpp:157] Top shape: 16 512 19 19 (2957312)
I0828 13:26:45.690507 19238 net.cpp:165] Memory required for data: 1970151552
I0828 13:26:45.690510 19238 layer_factory.hpp:77] Creating layer conv5_1/sep
I0828 13:26:45.690518 19238 net.cpp:100] Creating Layer conv5_1/sep
I0828 13:26:45.690522 19238 net.cpp:434] conv5_1/sep <- conv5_1/dw
I0828 13:26:45.690528 19238 net.cpp:408] conv5_1/sep -> conv5_1/sep
I0828 13:26:45.694244 19238 net.cpp:150] Setting up conv5_1/sep
I0828 13:26:45.694255 19238 net.cpp:157] Top shape: 16 512 19 19 (2957312)
I0828 13:26:45.694258 19238 net.cpp:165] Memory required for data: 1981980800
I0828 13:26:45.694263 19238 layer_factory.hpp:77] Creating layer conv5_1/sep/bn
I0828 13:26:45.694269 19238 net.cpp:100] Creating Layer conv5_1/sep/bn
I0828 13:26:45.694273 19238 net.cpp:434] conv5_1/sep/bn <- conv5_1/sep
I0828 13:26:45.694278 19238 net.cpp:395] conv5_1/sep/bn -> conv5_1/sep (in-place)
I0828 13:26:45.694437 19238 net.cpp:150] Setting up conv5_1/sep/bn
I0828 13:26:45.694443 19238 net.cpp:157] Top shape: 16 512 19 19 (2957312)
I0828 13:26:45.694447 19238 net.cpp:165] Memory required for data: 1993810048
I0828 13:26:45.694453 19238 layer_factory.hpp:77] Creating layer conv5_1/sep/scale
I0828 13:26:45.694458 19238 net.cpp:100] Creating Layer conv5_1/sep/scale
I0828 13:26:45.694463 19238 net.cpp:434] conv5_1/sep/scale <- conv5_1/sep
I0828 13:26:45.694466 19238 net.cpp:395] conv5_1/sep/scale -> conv5_1/sep (in-place)
I0828 13:26:45.694501 19238 layer_factory.hpp:77] Creating layer conv5_1/sep/scale
I0828 13:26:45.694589 19238 net.cpp:150] Setting up conv5_1/sep/scale
I0828 13:26:45.694595 19238 net.cpp:157] Top shape: 16 512 19 19 (2957312)
I0828 13:26:45.694598 19238 net.cpp:165] Memory required for data: 2005639296
I0828 13:26:45.694602 19238 layer_factory.hpp:77] Creating layer conv5_1/sep_relu
I0828 13:26:45.694617 19238 net.cpp:100] Creating Layer conv5_1/sep_relu
I0828 13:26:45.694622 19238 net.cpp:434] conv5_1/sep_relu <- conv5_1/sep
I0828 13:26:45.694625 19238 net.cpp:395] conv5_1/sep_relu -> conv5_1/sep (in-place)
I0828 13:26:45.694767 19238 net.cpp:150] Setting up conv5_1/sep_relu
I0828 13:26:45.694775 19238 net.cpp:157] Top shape: 16 512 19 19 (2957312)
I0828 13:26:45.694777 19238 net.cpp:165] Memory required for data: 2017468544
I0828 13:26:45.694782 19238 layer_factory.hpp:77] Creating layer conv5_2/dw
I0828 13:26:45.694788 19238 net.cpp:100] Creating Layer conv5_2/dw
I0828 13:26:45.694792 19238 net.cpp:434] conv5_2/dw <- conv5_1/sep
I0828 13:26:45.694797 19238 net.cpp:408] conv5_2/dw -> conv5_2/dw
I0828 13:26:45.695003 19238 net.cpp:150] Setting up conv5_2/dw
I0828 13:26:45.695008 19238 net.cpp:157] Top shape: 16 512 19 19 (2957312)
I0828 13:26:45.695011 19238 net.cpp:165] Memory required for data: 2029297792
I0828 13:26:45.695015 19238 layer_factory.hpp:77] Creating layer conv5_2/dw/bn
I0828 13:26:45.695020 19238 net.cpp:100] Creating Layer conv5_2/dw/bn
I0828 13:26:45.695024 19238 net.cpp:434] conv5_2/dw/bn <- conv5_2/dw
I0828 13:26:45.695029 19238 net.cpp:395] conv5_2/dw/bn -> conv5_2/dw (in-place)
I0828 13:26:45.695178 19238 net.cpp:150] Setting up conv5_2/dw/bn
I0828 13:26:45.695183 19238 net.cpp:157] Top shape: 16 512 19 19 (2957312)
I0828 13:26:45.695186 19238 net.cpp:165] Memory required for data: 2041127040
I0828 13:26:45.695191 19238 layer_factory.hpp:77] Creating layer conv5_2/dw/scale
I0828 13:26:45.695202 19238 net.cpp:100] Creating Layer conv5_2/dw/scale
I0828 13:26:45.695206 19238 net.cpp:434] conv5_2/dw/scale <- conv5_2/dw
I0828 13:26:45.695210 19238 net.cpp:395] conv5_2/dw/scale -> conv5_2/dw (in-place)
I0828 13:26:45.695245 19238 layer_factory.hpp:77] Creating layer conv5_2/dw/scale
I0828 13:26:45.695332 19238 net.cpp:150] Setting up conv5_2/dw/scale
I0828 13:26:45.695338 19238 net.cpp:157] Top shape: 16 512 19 19 (2957312)
I0828 13:26:45.695339 19238 net.cpp:165] Memory required for data: 2052956288
I0828 13:26:45.695344 19238 layer_factory.hpp:77] Creating layer conv5_2/dw_relu
I0828 13:26:45.695349 19238 net.cpp:100] Creating Layer conv5_2/dw_relu
I0828 13:26:45.695353 19238 net.cpp:434] conv5_2/dw_relu <- conv5_2/dw
I0828 13:26:45.695358 19238 net.cpp:395] conv5_2/dw_relu -> conv5_2/dw (in-place)
I0828 13:26:45.695894 19238 net.cpp:150] Setting up conv5_2/dw_relu
I0828 13:26:45.695904 19238 net.cpp:157] Top shape: 16 512 19 19 (2957312)
I0828 13:26:45.695907 19238 net.cpp:165] Memory required for data: 2064785536
I0828 13:26:45.695910 19238 layer_factory.hpp:77] Creating layer conv5_2/sep
I0828 13:26:45.695919 19238 net.cpp:100] Creating Layer conv5_2/sep
I0828 13:26:45.695921 19238 net.cpp:434] conv5_2/sep <- conv5_2/dw
I0828 13:26:45.695927 19238 net.cpp:408] conv5_2/sep -> conv5_2/sep
I0828 13:26:45.699241 19238 net.cpp:150] Setting up conv5_2/sep
I0828 13:26:45.699252 19238 net.cpp:157] Top shape: 16 512 19 19 (2957312)
I0828 13:26:45.699255 19238 net.cpp:165] Memory required for data: 2076614784
I0828 13:26:45.699260 19238 layer_factory.hpp:77] Creating layer conv5_2/sep/bn
I0828 13:26:45.699266 19238 net.cpp:100] Creating Layer conv5_2/sep/bn
I0828 13:26:45.699270 19238 net.cpp:434] conv5_2/sep/bn <- conv5_2/sep
I0828 13:26:45.699275 19238 net.cpp:395] conv5_2/sep/bn -> conv5_2/sep (in-place)
I0828 13:26:45.699434 19238 net.cpp:150] Setting up conv5_2/sep/bn
I0828 13:26:45.699439 19238 net.cpp:157] Top shape: 16 512 19 19 (2957312)
I0828 13:26:45.699441 19238 net.cpp:165] Memory required for data: 2088444032
I0828 13:26:45.699447 19238 layer_factory.hpp:77] Creating layer conv5_2/sep/scale
I0828 13:26:45.699453 19238 net.cpp:100] Creating Layer conv5_2/sep/scale
I0828 13:26:45.699456 19238 net.cpp:434] conv5_2/sep/scale <- conv5_2/sep
I0828 13:26:45.699461 19238 net.cpp:395] conv5_2/sep/scale -> conv5_2/sep (in-place)
I0828 13:26:45.699496 19238 layer_factory.hpp:77] Creating layer conv5_2/sep/scale
I0828 13:26:45.699586 19238 net.cpp:150] Setting up conv5_2/sep/scale
I0828 13:26:45.699600 19238 net.cpp:157] Top shape: 16 512 19 19 (2957312)
I0828 13:26:45.699604 19238 net.cpp:165] Memory required for data: 2100273280
I0828 13:26:45.699609 19238 layer_factory.hpp:77] Creating layer conv5_2/sep_relu
I0828 13:26:45.699614 19238 net.cpp:100] Creating Layer conv5_2/sep_relu
I0828 13:26:45.699616 19238 net.cpp:434] conv5_2/sep_relu <- conv5_2/sep
I0828 13:26:45.699623 19238 net.cpp:395] conv5_2/sep_relu -> conv5_2/sep (in-place)
I0828 13:26:45.700161 19238 net.cpp:150] Setting up conv5_2/sep_relu
I0828 13:26:45.700170 19238 net.cpp:157] Top shape: 16 512 19 19 (2957312)
I0828 13:26:45.700173 19238 net.cpp:165] Memory required for data: 2112102528
I0828 13:26:45.700176 19238 layer_factory.hpp:77] Creating layer conv5_3/dw
I0828 13:26:45.700184 19238 net.cpp:100] Creating Layer conv5_3/dw
I0828 13:26:45.700188 19238 net.cpp:434] conv5_3/dw <- conv5_2/sep
I0828 13:26:45.700194 19238 net.cpp:408] conv5_3/dw -> conv5_3/dw
I0828 13:26:45.700392 19238 net.cpp:150] Setting up conv5_3/dw
I0828 13:26:45.700399 19238 net.cpp:157] Top shape: 16 512 19 19 (2957312)
I0828 13:26:45.700402 19238 net.cpp:165] Memory required for data: 2123931776
I0828 13:26:45.700407 19238 layer_factory.hpp:77] Creating layer conv5_3/dw/bn
I0828 13:26:45.700412 19238 net.cpp:100] Creating Layer conv5_3/dw/bn
I0828 13:26:45.700415 19238 net.cpp:434] conv5_3/dw/bn <- conv5_3/dw
I0828 13:26:45.700419 19238 net.cpp:395] conv5_3/dw/bn -> conv5_3/dw (in-place)
I0828 13:26:45.700568 19238 net.cpp:150] Setting up conv5_3/dw/bn
I0828 13:26:45.700574 19238 net.cpp:157] Top shape: 16 512 19 19 (2957312)
I0828 13:26:45.700577 19238 net.cpp:165] Memory required for data: 2135761024
I0828 13:26:45.700582 19238 layer_factory.hpp:77] Creating layer conv5_3/dw/scale
I0828 13:26:45.700589 19238 net.cpp:100] Creating Layer conv5_3/dw/scale
I0828 13:26:45.700592 19238 net.cpp:434] conv5_3/dw/scale <- conv5_3/dw
I0828 13:26:45.700597 19238 net.cpp:395] conv5_3/dw/scale -> conv5_3/dw (in-place)
I0828 13:26:45.700630 19238 layer_factory.hpp:77] Creating layer conv5_3/dw/scale
I0828 13:26:45.700718 19238 net.cpp:150] Setting up conv5_3/dw/scale
I0828 13:26:45.700723 19238 net.cpp:157] Top shape: 16 512 19 19 (2957312)
I0828 13:26:45.700726 19238 net.cpp:165] Memory required for data: 2147590272
I0828 13:26:45.700731 19238 layer_factory.hpp:77] Creating layer conv5_3/dw_relu
I0828 13:26:45.700736 19238 net.cpp:100] Creating Layer conv5_3/dw_relu
I0828 13:26:45.700738 19238 net.cpp:434] conv5_3/dw_relu <- conv5_3/dw
I0828 13:26:45.700742 19238 net.cpp:395] conv5_3/dw_relu -> conv5_3/dw (in-place)
I0828 13:26:45.701284 19238 net.cpp:150] Setting up conv5_3/dw_relu
I0828 13:26:45.701293 19238 net.cpp:157] Top shape: 16 512 19 19 (2957312)
I0828 13:26:45.701297 19238 net.cpp:165] Memory required for data: 2159419520
I0828 13:26:45.701299 19238 layer_factory.hpp:77] Creating layer conv5_3/sep
I0828 13:26:45.701308 19238 net.cpp:100] Creating Layer conv5_3/sep
I0828 13:26:45.701311 19238 net.cpp:434] conv5_3/sep <- conv5_3/dw
I0828 13:26:45.701318 19238 net.cpp:408] conv5_3/sep -> conv5_3/sep
I0828 13:26:45.704640 19238 net.cpp:150] Setting up conv5_3/sep
I0828 13:26:45.704651 19238 net.cpp:157] Top shape: 16 512 19 19 (2957312)
I0828 13:26:45.704655 19238 net.cpp:165] Memory required for data: 2171248768
I0828 13:26:45.704659 19238 layer_factory.hpp:77] Creating layer conv5_3/sep/bn
I0828 13:26:45.704665 19238 net.cpp:100] Creating Layer conv5_3/sep/bn
I0828 13:26:45.704668 19238 net.cpp:434] conv5_3/sep/bn <- conv5_3/sep
I0828 13:26:45.704674 19238 net.cpp:395] conv5_3/sep/bn -> conv5_3/sep (in-place)
I0828 13:26:45.704834 19238 net.cpp:150] Setting up conv5_3/sep/bn
I0828 13:26:45.704839 19238 net.cpp:157] Top shape: 16 512 19 19 (2957312)
I0828 13:26:45.704843 19238 net.cpp:165] Memory required for data: 2183078016
I0828 13:26:45.704849 19238 layer_factory.hpp:77] Creating layer conv5_3/sep/scale
I0828 13:26:45.704855 19238 net.cpp:100] Creating Layer conv5_3/sep/scale
I0828 13:26:45.704859 19238 net.cpp:434] conv5_3/sep/scale <- conv5_3/sep
I0828 13:26:45.704872 19238 net.cpp:395] conv5_3/sep/scale -> conv5_3/sep (in-place)
I0828 13:26:45.704912 19238 layer_factory.hpp:77] Creating layer conv5_3/sep/scale
I0828 13:26:45.705003 19238 net.cpp:150] Setting up conv5_3/sep/scale
I0828 13:26:45.705008 19238 net.cpp:157] Top shape: 16 512 19 19 (2957312)
I0828 13:26:45.705011 19238 net.cpp:165] Memory required for data: 2194907264
I0828 13:26:45.705016 19238 layer_factory.hpp:77] Creating layer conv5_3/sep_relu
I0828 13:26:45.705021 19238 net.cpp:100] Creating Layer conv5_3/sep_relu
I0828 13:26:45.705024 19238 net.cpp:434] conv5_3/sep_relu <- conv5_3/sep
I0828 13:26:45.705029 19238 net.cpp:395] conv5_3/sep_relu -> conv5_3/sep (in-place)
I0828 13:26:45.705566 19238 net.cpp:150] Setting up conv5_3/sep_relu
I0828 13:26:45.705576 19238 net.cpp:157] Top shape: 16 512 19 19 (2957312)
I0828 13:26:45.705579 19238 net.cpp:165] Memory required for data: 2206736512
I0828 13:26:45.705582 19238 layer_factory.hpp:77] Creating layer conv5_4/dw
I0828 13:26:45.705590 19238 net.cpp:100] Creating Layer conv5_4/dw
I0828 13:26:45.705593 19238 net.cpp:434] conv5_4/dw <- conv5_3/sep
I0828 13:26:45.705600 19238 net.cpp:408] conv5_4/dw -> conv5_4/dw
I0828 13:26:45.705791 19238 net.cpp:150] Setting up conv5_4/dw
I0828 13:26:45.705797 19238 net.cpp:157] Top shape: 16 512 19 19 (2957312)
I0828 13:26:45.705801 19238 net.cpp:165] Memory required for data: 2218565760
I0828 13:26:45.705804 19238 layer_factory.hpp:77] Creating layer conv5_4/dw/bn
I0828 13:26:45.705809 19238 net.cpp:100] Creating Layer conv5_4/dw/bn
I0828 13:26:45.705812 19238 net.cpp:434] conv5_4/dw/bn <- conv5_4/dw
I0828 13:26:45.705817 19238 net.cpp:395] conv5_4/dw/bn -> conv5_4/dw (in-place)
I0828 13:26:45.705971 19238 net.cpp:150] Setting up conv5_4/dw/bn
I0828 13:26:45.705977 19238 net.cpp:157] Top shape: 16 512 19 19 (2957312)
I0828 13:26:45.705979 19238 net.cpp:165] Memory required for data: 2230395008
I0828 13:26:45.705986 19238 layer_factory.hpp:77] Creating layer conv5_4/dw/scale
I0828 13:26:45.705991 19238 net.cpp:100] Creating Layer conv5_4/dw/scale
I0828 13:26:45.705993 19238 net.cpp:434] conv5_4/dw/scale <- conv5_4/dw
I0828 13:26:45.705999 19238 net.cpp:395] conv5_4/dw/scale -> conv5_4/dw (in-place)
I0828 13:26:45.706033 19238 layer_factory.hpp:77] Creating layer conv5_4/dw/scale
I0828 13:26:45.706123 19238 net.cpp:150] Setting up conv5_4/dw/scale
I0828 13:26:45.706128 19238 net.cpp:157] Top shape: 16 512 19 19 (2957312)
I0828 13:26:45.706131 19238 net.cpp:165] Memory required for data: 2242224256
I0828 13:26:45.706136 19238 layer_factory.hpp:77] Creating layer conv5_4/dw_relu
I0828 13:26:45.706141 19238 net.cpp:100] Creating Layer conv5_4/dw_relu
I0828 13:26:45.706145 19238 net.cpp:434] conv5_4/dw_relu <- conv5_4/dw
I0828 13:26:45.706147 19238 net.cpp:395] conv5_4/dw_relu -> conv5_4/dw (in-place)
I0828 13:26:45.706290 19238 net.cpp:150] Setting up conv5_4/dw_relu
I0828 13:26:45.706296 19238 net.cpp:157] Top shape: 16 512 19 19 (2957312)
I0828 13:26:45.706300 19238 net.cpp:165] Memory required for data: 2254053504
I0828 13:26:45.706302 19238 layer_factory.hpp:77] Creating layer conv5_4/sep
I0828 13:26:45.706310 19238 net.cpp:100] Creating Layer conv5_4/sep
I0828 13:26:45.706312 19238 net.cpp:434] conv5_4/sep <- conv5_4/dw
I0828 13:26:45.706318 19238 net.cpp:408] conv5_4/sep -> conv5_4/sep
I0828 13:26:45.710014 19238 net.cpp:150] Setting up conv5_4/sep
I0828 13:26:45.710026 19238 net.cpp:157] Top shape: 16 512 19 19 (2957312)
I0828 13:26:45.710029 19238 net.cpp:165] Memory required for data: 2265882752
I0828 13:26:45.710034 19238 layer_factory.hpp:77] Creating layer conv5_4/sep/bn
I0828 13:26:45.710039 19238 net.cpp:100] Creating Layer conv5_4/sep/bn
I0828 13:26:45.710042 19238 net.cpp:434] conv5_4/sep/bn <- conv5_4/sep
I0828 13:26:45.710047 19238 net.cpp:395] conv5_4/sep/bn -> conv5_4/sep (in-place)
I0828 13:26:45.710206 19238 net.cpp:150] Setting up conv5_4/sep/bn
I0828 13:26:45.710211 19238 net.cpp:157] Top shape: 16 512 19 19 (2957312)
I0828 13:26:45.710214 19238 net.cpp:165] Memory required for data: 2277712000
I0828 13:26:45.710229 19238 layer_factory.hpp:77] Creating layer conv5_4/sep/scale
I0828 13:26:45.710235 19238 net.cpp:100] Creating Layer conv5_4/sep/scale
I0828 13:26:45.710238 19238 net.cpp:434] conv5_4/sep/scale <- conv5_4/sep
I0828 13:26:45.710244 19238 net.cpp:395] conv5_4/sep/scale -> conv5_4/sep (in-place)
I0828 13:26:45.710280 19238 layer_factory.hpp:77] Creating layer conv5_4/sep/scale
I0828 13:26:45.710369 19238 net.cpp:150] Setting up conv5_4/sep/scale
I0828 13:26:45.710374 19238 net.cpp:157] Top shape: 16 512 19 19 (2957312)
I0828 13:26:45.710377 19238 net.cpp:165] Memory required for data: 2289541248
I0828 13:26:45.710382 19238 layer_factory.hpp:77] Creating layer conv5_4/sep_relu
I0828 13:26:45.710387 19238 net.cpp:100] Creating Layer conv5_4/sep_relu
I0828 13:26:45.710391 19238 net.cpp:434] conv5_4/sep_relu <- conv5_4/sep
I0828 13:26:45.710394 19238 net.cpp:395] conv5_4/sep_relu -> conv5_4/sep (in-place)
I0828 13:26:45.710937 19238 net.cpp:150] Setting up conv5_4/sep_relu
I0828 13:26:45.710947 19238 net.cpp:157] Top shape: 16 512 19 19 (2957312)
I0828 13:26:45.710949 19238 net.cpp:165] Memory required for data: 2301370496
I0828 13:26:45.710952 19238 layer_factory.hpp:77] Creating layer conv5_5/dw
I0828 13:26:45.710960 19238 net.cpp:100] Creating Layer conv5_5/dw
I0828 13:26:45.710964 19238 net.cpp:434] conv5_5/dw <- conv5_4/sep
I0828 13:26:45.710970 19238 net.cpp:408] conv5_5/dw -> conv5_5/dw
I0828 13:26:45.711161 19238 net.cpp:150] Setting up conv5_5/dw
I0828 13:26:45.711168 19238 net.cpp:157] Top shape: 16 512 19 19 (2957312)
I0828 13:26:45.711170 19238 net.cpp:165] Memory required for data: 2313199744
I0828 13:26:45.711174 19238 layer_factory.hpp:77] Creating layer conv5_5/dw/bn
I0828 13:26:45.711180 19238 net.cpp:100] Creating Layer conv5_5/dw/bn
I0828 13:26:45.711184 19238 net.cpp:434] conv5_5/dw/bn <- conv5_5/dw
I0828 13:26:45.711187 19238 net.cpp:395] conv5_5/dw/bn -> conv5_5/dw (in-place)
I0828 13:26:45.711340 19238 net.cpp:150] Setting up conv5_5/dw/bn
I0828 13:26:45.711345 19238 net.cpp:157] Top shape: 16 512 19 19 (2957312)
I0828 13:26:45.711349 19238 net.cpp:165] Memory required for data: 2325028992
I0828 13:26:45.711364 19238 layer_factory.hpp:77] Creating layer conv5_5/dw/scale
I0828 13:26:45.711370 19238 net.cpp:100] Creating Layer conv5_5/dw/scale
I0828 13:26:45.711374 19238 net.cpp:434] conv5_5/dw/scale <- conv5_5/dw
I0828 13:26:45.711378 19238 net.cpp:395] conv5_5/dw/scale -> conv5_5/dw (in-place)
I0828 13:26:45.711416 19238 layer_factory.hpp:77] Creating layer conv5_5/dw/scale
I0828 13:26:45.711504 19238 net.cpp:150] Setting up conv5_5/dw/scale
I0828 13:26:45.711509 19238 net.cpp:157] Top shape: 16 512 19 19 (2957312)
I0828 13:26:45.711513 19238 net.cpp:165] Memory required for data: 2336858240
I0828 13:26:45.711518 19238 layer_factory.hpp:77] Creating layer conv5_5/dw_relu
I0828 13:26:45.711521 19238 net.cpp:100] Creating Layer conv5_5/dw_relu
I0828 13:26:45.711524 19238 net.cpp:434] conv5_5/dw_relu <- conv5_5/dw
I0828 13:26:45.711529 19238 net.cpp:395] conv5_5/dw_relu -> conv5_5/dw (in-place)
I0828 13:26:45.711673 19238 net.cpp:150] Setting up conv5_5/dw_relu
I0828 13:26:45.711680 19238 net.cpp:157] Top shape: 16 512 19 19 (2957312)
I0828 13:26:45.711683 19238 net.cpp:165] Memory required for data: 2348687488
I0828 13:26:45.711686 19238 layer_factory.hpp:77] Creating layer conv5_5/sep
I0828 13:26:45.711694 19238 net.cpp:100] Creating Layer conv5_5/sep
I0828 13:26:45.711697 19238 net.cpp:434] conv5_5/sep <- conv5_5/dw
I0828 13:26:45.711702 19238 net.cpp:408] conv5_5/sep -> conv5_5/sep
I0828 13:26:45.715414 19238 net.cpp:150] Setting up conv5_5/sep
I0828 13:26:45.715425 19238 net.cpp:157] Top shape: 16 512 19 19 (2957312)
I0828 13:26:45.715427 19238 net.cpp:165] Memory required for data: 2360516736
I0828 13:26:45.715430 19238 layer_factory.hpp:77] Creating layer conv5_5/sep/bn
I0828 13:26:45.715435 19238 net.cpp:100] Creating Layer conv5_5/sep/bn
I0828 13:26:45.715437 19238 net.cpp:434] conv5_5/sep/bn <- conv5_5/sep
I0828 13:26:45.715441 19238 net.cpp:395] conv5_5/sep/bn -> conv5_5/sep (in-place)
I0828 13:26:45.715615 19238 net.cpp:150] Setting up conv5_5/sep/bn
I0828 13:26:45.715621 19238 net.cpp:157] Top shape: 16 512 19 19 (2957312)
I0828 13:26:45.715625 19238 net.cpp:165] Memory required for data: 2372345984
I0828 13:26:45.715631 19238 layer_factory.hpp:77] Creating layer conv5_5/sep/scale
I0828 13:26:45.715636 19238 net.cpp:100] Creating Layer conv5_5/sep/scale
I0828 13:26:45.715641 19238 net.cpp:434] conv5_5/sep/scale <- conv5_5/sep
I0828 13:26:45.715646 19238 net.cpp:395] conv5_5/sep/scale -> conv5_5/sep (in-place)
I0828 13:26:45.715682 19238 layer_factory.hpp:77] Creating layer conv5_5/sep/scale
I0828 13:26:45.715771 19238 net.cpp:150] Setting up conv5_5/sep/scale
I0828 13:26:45.715777 19238 net.cpp:157] Top shape: 16 512 19 19 (2957312)
I0828 13:26:45.715780 19238 net.cpp:165] Memory required for data: 2384175232
I0828 13:26:45.715785 19238 layer_factory.hpp:77] Creating layer conv5_5/sep_relu
I0828 13:26:45.715790 19238 net.cpp:100] Creating Layer conv5_5/sep_relu
I0828 13:26:45.715795 19238 net.cpp:434] conv5_5/sep_relu <- conv5_5/sep
I0828 13:26:45.715800 19238 net.cpp:395] conv5_5/sep_relu -> conv5_5/sep (in-place)
I0828 13:26:45.716346 19238 net.cpp:150] Setting up conv5_5/sep_relu
I0828 13:26:45.716356 19238 net.cpp:157] Top shape: 16 512 19 19 (2957312)
I0828 13:26:45.716359 19238 net.cpp:165] Memory required for data: 2396004480
I0828 13:26:45.716362 19238 layer_factory.hpp:77] Creating layer conv5_5/sep_conv5_5/sep_relu_0_split
I0828 13:26:45.716368 19238 net.cpp:100] Creating Layer conv5_5/sep_conv5_5/sep_relu_0_split
I0828 13:26:45.716372 19238 net.cpp:434] conv5_5/sep_conv5_5/sep_relu_0_split <- conv5_5/sep
I0828 13:26:45.716377 19238 net.cpp:408] conv5_5/sep_conv5_5/sep_relu_0_split -> conv5_5/sep_conv5_5/sep_relu_0_split_0
I0828 13:26:45.716387 19238 net.cpp:408] conv5_5/sep_conv5_5/sep_relu_0_split -> conv5_5/sep_conv5_5/sep_relu_0_split_1
I0828 13:26:45.716393 19238 net.cpp:408] conv5_5/sep_conv5_5/sep_relu_0_split -> conv5_5/sep_conv5_5/sep_relu_0_split_2
I0828 13:26:45.716398 19238 net.cpp:408] conv5_5/sep_conv5_5/sep_relu_0_split -> conv5_5/sep_conv5_5/sep_relu_0_split_3
I0828 13:26:45.716456 19238 net.cpp:150] Setting up conv5_5/sep_conv5_5/sep_relu_0_split
I0828 13:26:45.716461 19238 net.cpp:157] Top shape: 16 512 19 19 (2957312)
I0828 13:26:45.716465 19238 net.cpp:157] Top shape: 16 512 19 19 (2957312)
I0828 13:26:45.716469 19238 net.cpp:157] Top shape: 16 512 19 19 (2957312)
I0828 13:26:45.716471 19238 net.cpp:157] Top shape: 16 512 19 19 (2957312)
I0828 13:26:45.716475 19238 net.cpp:165] Memory required for data: 2443321472
I0828 13:26:45.716477 19238 layer_factory.hpp:77] Creating layer conv5_6/dw
I0828 13:26:45.716485 19238 net.cpp:100] Creating Layer conv5_6/dw
I0828 13:26:45.716488 19238 net.cpp:434] conv5_6/dw <- conv5_5/sep_conv5_5/sep_relu_0_split_0
I0828 13:26:45.716495 19238 net.cpp:408] conv5_6/dw -> conv5_6/dw
I0828 13:26:45.716678 19238 net.cpp:150] Setting up conv5_6/dw
I0828 13:26:45.716686 19238 net.cpp:157] Top shape: 16 512 10 10 (819200)
I0828 13:26:45.716687 19238 net.cpp:165] Memory required for data: 2446598272
I0828 13:26:45.716692 19238 layer_factory.hpp:77] Creating layer conv5_6/dw/bn
I0828 13:26:45.716698 19238 net.cpp:100] Creating Layer conv5_6/dw/bn
I0828 13:26:45.716701 19238 net.cpp:434] conv5_6/dw/bn <- conv5_6/dw
I0828 13:26:45.716706 19238 net.cpp:395] conv5_6/dw/bn -> conv5_6/dw (in-place)
I0828 13:26:45.716863 19238 net.cpp:150] Setting up conv5_6/dw/bn
I0828 13:26:45.716869 19238 net.cpp:157] Top shape: 16 512 10 10 (819200)
I0828 13:26:45.716871 19238 net.cpp:165] Memory required for data: 2449875072
I0828 13:26:45.716877 19238 layer_factory.hpp:77] Creating layer conv5_6/dw/scale
I0828 13:26:45.716883 19238 net.cpp:100] Creating Layer conv5_6/dw/scale
I0828 13:26:45.716886 19238 net.cpp:434] conv5_6/dw/scale <- conv5_6/dw
I0828 13:26:45.716892 19238 net.cpp:395] conv5_6/dw/scale -> conv5_6/dw (in-place)
I0828 13:26:45.716922 19238 layer_factory.hpp:77] Creating layer conv5_6/dw/scale
I0828 13:26:45.717015 19238 net.cpp:150] Setting up conv5_6/dw/scale
I0828 13:26:45.717028 19238 net.cpp:157] Top shape: 16 512 10 10 (819200)
I0828 13:26:45.717031 19238 net.cpp:165] Memory required for data: 2453151872
I0828 13:26:45.717036 19238 layer_factory.hpp:77] Creating layer conv5_6/dw_relu
I0828 13:26:45.717041 19238 net.cpp:100] Creating Layer conv5_6/dw_relu
I0828 13:26:45.717044 19238 net.cpp:434] conv5_6/dw_relu <- conv5_6/dw
I0828 13:26:45.717049 19238 net.cpp:395] conv5_6/dw_relu -> conv5_6/dw (in-place)
I0828 13:26:45.717581 19238 net.cpp:150] Setting up conv5_6/dw_relu
I0828 13:26:45.717591 19238 net.cpp:157] Top shape: 16 512 10 10 (819200)
I0828 13:26:45.717592 19238 net.cpp:165] Memory required for data: 2456428672
I0828 13:26:45.717595 19238 layer_factory.hpp:77] Creating layer conv5_6/sep
I0828 13:26:45.717604 19238 net.cpp:100] Creating Layer conv5_6/sep
I0828 13:26:45.717607 19238 net.cpp:434] conv5_6/sep <- conv5_6/dw
I0828 13:26:45.717613 19238 net.cpp:408] conv5_6/sep -> conv5_6/sep
I0828 13:26:45.723491 19238 net.cpp:150] Setting up conv5_6/sep
I0828 13:26:45.723502 19238 net.cpp:157] Top shape: 16 1024 10 10 (1638400)
I0828 13:26:45.723505 19238 net.cpp:165] Memory required for data: 2462982272
I0828 13:26:45.723510 19238 layer_factory.hpp:77] Creating layer conv5_6/sep/bn
I0828 13:26:45.723515 19238 net.cpp:100] Creating Layer conv5_6/sep/bn
I0828 13:26:45.723518 19238 net.cpp:434] conv5_6/sep/bn <- conv5_6/sep
I0828 13:26:45.723525 19238 net.cpp:395] conv5_6/sep/bn -> conv5_6/sep (in-place)
I0828 13:26:45.723690 19238 net.cpp:150] Setting up conv5_6/sep/bn
I0828 13:26:45.723695 19238 net.cpp:157] Top shape: 16 1024 10 10 (1638400)
I0828 13:26:45.723698 19238 net.cpp:165] Memory required for data: 2469535872
I0828 13:26:45.723704 19238 layer_factory.hpp:77] Creating layer conv5_6/sep/scale
I0828 13:26:45.723709 19238 net.cpp:100] Creating Layer conv5_6/sep/scale
I0828 13:26:45.723713 19238 net.cpp:434] conv5_6/sep/scale <- conv5_6/sep
I0828 13:26:45.723718 19238 net.cpp:395] conv5_6/sep/scale -> conv5_6/sep (in-place)
I0828 13:26:45.723752 19238 layer_factory.hpp:77] Creating layer conv5_6/sep/scale
I0828 13:26:45.723845 19238 net.cpp:150] Setting up conv5_6/sep/scale
I0828 13:26:45.723850 19238 net.cpp:157] Top shape: 16 1024 10 10 (1638400)
I0828 13:26:45.723852 19238 net.cpp:165] Memory required for data: 2476089472
I0828 13:26:45.723857 19238 layer_factory.hpp:77] Creating layer conv5_6/sep_relu
I0828 13:26:45.723862 19238 net.cpp:100] Creating Layer conv5_6/sep_relu
I0828 13:26:45.723865 19238 net.cpp:434] conv5_6/sep_relu <- conv5_6/sep
I0828 13:26:45.723870 19238 net.cpp:395] conv5_6/sep_relu -> conv5_6/sep (in-place)
I0828 13:26:45.724009 19238 net.cpp:150] Setting up conv5_6/sep_relu
I0828 13:26:45.724016 19238 net.cpp:157] Top shape: 16 1024 10 10 (1638400)
I0828 13:26:45.724020 19238 net.cpp:165] Memory required for data: 2482643072
I0828 13:26:45.724022 19238 layer_factory.hpp:77] Creating layer conv6/dw
I0828 13:26:45.724032 19238 net.cpp:100] Creating Layer conv6/dw
I0828 13:26:45.724035 19238 net.cpp:434] conv6/dw <- conv5_6/sep
I0828 13:26:45.724040 19238 net.cpp:408] conv6/dw -> conv6/dw
I0828 13:26:45.724270 19238 net.cpp:150] Setting up conv6/dw
I0828 13:26:45.724277 19238 net.cpp:157] Top shape: 16 1024 10 10 (1638400)
I0828 13:26:45.724279 19238 net.cpp:165] Memory required for data: 2489196672
I0828 13:26:45.724284 19238 layer_factory.hpp:77] Creating layer conv6/dw/bn
I0828 13:26:45.724288 19238 net.cpp:100] Creating Layer conv6/dw/bn
I0828 13:26:45.724292 19238 net.cpp:434] conv6/dw/bn <- conv6/dw
I0828 13:26:45.724297 19238 net.cpp:395] conv6/dw/bn -> conv6/dw (in-place)
I0828 13:26:45.724457 19238 net.cpp:150] Setting up conv6/dw/bn
I0828 13:26:45.724463 19238 net.cpp:157] Top shape: 16 1024 10 10 (1638400)
I0828 13:26:45.724465 19238 net.cpp:165] Memory required for data: 2495750272
I0828 13:26:45.724472 19238 layer_factory.hpp:77] Creating layer conv6/dw/scale
I0828 13:26:45.724478 19238 net.cpp:100] Creating Layer conv6/dw/scale
I0828 13:26:45.724480 19238 net.cpp:434] conv6/dw/scale <- conv6/dw
I0828 13:26:45.724494 19238 net.cpp:395] conv6/dw/scale -> conv6/dw (in-place)
I0828 13:26:45.724529 19238 layer_factory.hpp:77] Creating layer conv6/dw/scale
I0828 13:26:45.724622 19238 net.cpp:150] Setting up conv6/dw/scale
I0828 13:26:45.724628 19238 net.cpp:157] Top shape: 16 1024 10 10 (1638400)
I0828 13:26:45.724632 19238 net.cpp:165] Memory required for data: 2502303872
I0828 13:26:45.724637 19238 layer_factory.hpp:77] Creating layer conv6/dw_relu
I0828 13:26:45.724640 19238 net.cpp:100] Creating Layer conv6/dw_relu
I0828 13:26:45.724643 19238 net.cpp:434] conv6/dw_relu <- conv6/dw
I0828 13:26:45.724648 19238 net.cpp:395] conv6/dw_relu -> conv6/dw (in-place)
I0828 13:26:45.725183 19238 net.cpp:150] Setting up conv6/dw_relu
I0828 13:26:45.725193 19238 net.cpp:157] Top shape: 16 1024 10 10 (1638400)
I0828 13:26:45.725196 19238 net.cpp:165] Memory required for data: 2508857472
I0828 13:26:45.725199 19238 layer_factory.hpp:77] Creating layer conv6/sep
I0828 13:26:45.725206 19238 net.cpp:100] Creating Layer conv6/sep
I0828 13:26:45.725210 19238 net.cpp:434] conv6/sep <- conv6/dw
I0828 13:26:45.725216 19238 net.cpp:408] conv6/sep -> conv6/sep
I0828 13:26:45.735364 19238 net.cpp:150] Setting up conv6/sep
I0828 13:26:45.735375 19238 net.cpp:157] Top shape: 16 1024 10 10 (1638400)
I0828 13:26:45.735378 19238 net.cpp:165] Memory required for data: 2515411072
I0828 13:26:45.735383 19238 layer_factory.hpp:77] Creating layer conv6/sep/bn
I0828 13:26:45.735386 19238 net.cpp:100] Creating Layer conv6/sep/bn
I0828 13:26:45.735389 19238 net.cpp:434] conv6/sep/bn <- conv6/sep
I0828 13:26:45.735394 19238 net.cpp:395] conv6/sep/bn -> conv6/sep (in-place)
I0828 13:26:45.735558 19238 net.cpp:150] Setting up conv6/sep/bn
I0828 13:26:45.735564 19238 net.cpp:157] Top shape: 16 1024 10 10 (1638400)
I0828 13:26:45.735566 19238 net.cpp:165] Memory required for data: 2521964672
I0828 13:26:45.735572 19238 layer_factory.hpp:77] Creating layer conv6/sep/scale
I0828 13:26:45.735579 19238 net.cpp:100] Creating Layer conv6/sep/scale
I0828 13:26:45.735584 19238 net.cpp:434] conv6/sep/scale <- conv6/sep
I0828 13:26:45.735587 19238 net.cpp:395] conv6/sep/scale -> conv6/sep (in-place)
I0828 13:26:45.735620 19238 layer_factory.hpp:77] Creating layer conv6/sep/scale
I0828 13:26:45.735715 19238 net.cpp:150] Setting up conv6/sep/scale
I0828 13:26:45.735720 19238 net.cpp:157] Top shape: 16 1024 10 10 (1638400)
I0828 13:26:45.735723 19238 net.cpp:165] Memory required for data: 2528518272
I0828 13:26:45.735728 19238 layer_factory.hpp:77] Creating layer conv6/sep_relu
I0828 13:26:45.735733 19238 net.cpp:100] Creating Layer conv6/sep_relu
I0828 13:26:45.735736 19238 net.cpp:434] conv6/sep_relu <- conv6/sep
I0828 13:26:45.735740 19238 net.cpp:395] conv6/sep_relu -> conv6/sep (in-place)
I0828 13:26:45.735880 19238 net.cpp:150] Setting up conv6/sep_relu
I0828 13:26:45.735888 19238 net.cpp:157] Top shape: 16 1024 10 10 (1638400)
I0828 13:26:45.735890 19238 net.cpp:165] Memory required for data: 2535071872
I0828 13:26:45.735893 19238 layer_factory.hpp:77] Creating layer conv6/sep_conv6/sep_relu_0_split
I0828 13:26:45.735900 19238 net.cpp:100] Creating Layer conv6/sep_conv6/sep_relu_0_split
I0828 13:26:45.735903 19238 net.cpp:434] conv6/sep_conv6/sep_relu_0_split <- conv6/sep
I0828 13:26:45.735908 19238 net.cpp:408] conv6/sep_conv6/sep_relu_0_split -> conv6/sep_conv6/sep_relu_0_split_0
I0828 13:26:45.735915 19238 net.cpp:408] conv6/sep_conv6/sep_relu_0_split -> conv6/sep_conv6/sep_relu_0_split_1
I0828 13:26:45.735949 19238 net.cpp:408] conv6/sep_conv6/sep_relu_0_split -> conv6/sep_conv6/sep_relu_0_split_2
I0828 13:26:45.735954 19238 net.cpp:408] conv6/sep_conv6/sep_relu_0_split -> conv6/sep_conv6/sep_relu_0_split_3
I0828 13:26:45.736011 19238 net.cpp:150] Setting up conv6/sep_conv6/sep_relu_0_split
I0828 13:26:45.736016 19238 net.cpp:157] Top shape: 16 1024 10 10 (1638400)
I0828 13:26:45.736019 19238 net.cpp:157] Top shape: 16 1024 10 10 (1638400)
I0828 13:26:45.736022 19238 net.cpp:157] Top shape: 16 1024 10 10 (1638400)
I0828 13:26:45.736026 19238 net.cpp:157] Top shape: 16 1024 10 10 (1638400)
I0828 13:26:45.736038 19238 net.cpp:165] Memory required for data: 2561286272
I0828 13:26:45.736042 19238 layer_factory.hpp:77] Creating layer conv7_1
I0828 13:26:45.736050 19238 net.cpp:100] Creating Layer conv7_1
I0828 13:26:45.736053 19238 net.cpp:434] conv7_1 <- conv6/sep_conv6/sep_relu_0_split_0
I0828 13:26:45.736058 19238 net.cpp:408] conv7_1 -> conv7_1
I0828 13:26:45.738922 19238 net.cpp:150] Setting up conv7_1
I0828 13:26:45.738934 19238 net.cpp:157] Top shape: 16 256 10 10 (409600)
I0828 13:26:45.738936 19238 net.cpp:165] Memory required for data: 2562924672
I0828 13:26:45.738942 19238 layer_factory.hpp:77] Creating layer conv7_1_relu
I0828 13:26:45.738947 19238 net.cpp:100] Creating Layer conv7_1_relu
I0828 13:26:45.738951 19238 net.cpp:434] conv7_1_relu <- conv7_1
I0828 13:26:45.738955 19238 net.cpp:395] conv7_1_relu -> conv7_1 (in-place)
I0828 13:26:45.739491 19238 net.cpp:150] Setting up conv7_1_relu
I0828 13:26:45.739500 19238 net.cpp:157] Top shape: 16 256 10 10 (409600)
I0828 13:26:45.739503 19238 net.cpp:165] Memory required for data: 2564563072
I0828 13:26:45.739506 19238 layer_factory.hpp:77] Creating layer conv7_2
I0828 13:26:45.739514 19238 net.cpp:100] Creating Layer conv7_2
I0828 13:26:45.739518 19238 net.cpp:434] conv7_2 <- conv7_1
I0828 13:26:45.739524 19238 net.cpp:408] conv7_2 -> conv7_2
I0828 13:26:45.746480 19238 net.cpp:150] Setting up conv7_2
I0828 13:26:45.746491 19238 net.cpp:157] Top shape: 16 512 5 5 (204800)
I0828 13:26:45.746493 19238 net.cpp:165] Memory required for data: 2565382272
I0828 13:26:45.746500 19238 layer_factory.hpp:77] Creating layer conv7_2_relu
I0828 13:26:45.746505 19238 net.cpp:100] Creating Layer conv7_2_relu
I0828 13:26:45.746508 19238 net.cpp:434] conv7_2_relu <- conv7_2
I0828 13:26:45.746513 19238 net.cpp:395] conv7_2_relu -> conv7_2 (in-place)
I0828 13:26:45.747047 19238 net.cpp:150] Setting up conv7_2_relu
I0828 13:26:45.747056 19238 net.cpp:157] Top shape: 16 512 5 5 (204800)
I0828 13:26:45.747059 19238 net.cpp:165] Memory required for data: 2566201472
I0828 13:26:45.747062 19238 layer_factory.hpp:77] Creating layer conv7_2_conv7_2_relu_0_split
I0828 13:26:45.747071 19238 net.cpp:100] Creating Layer conv7_2_conv7_2_relu_0_split
I0828 13:26:45.747074 19238 net.cpp:434] conv7_2_conv7_2_relu_0_split <- conv7_2
I0828 13:26:45.747081 19238 net.cpp:408] conv7_2_conv7_2_relu_0_split -> conv7_2_conv7_2_relu_0_split_0
I0828 13:26:45.747087 19238 net.cpp:408] conv7_2_conv7_2_relu_0_split -> conv7_2_conv7_2_relu_0_split_1
I0828 13:26:45.747092 19238 net.cpp:408] conv7_2_conv7_2_relu_0_split -> conv7_2_conv7_2_relu_0_split_2
I0828 13:26:45.747097 19238 net.cpp:408] conv7_2_conv7_2_relu_0_split -> conv7_2_conv7_2_relu_0_split_3
I0828 13:26:45.747155 19238 net.cpp:150] Setting up conv7_2_conv7_2_relu_0_split
I0828 13:26:45.747160 19238 net.cpp:157] Top shape: 16 512 5 5 (204800)
I0828 13:26:45.747164 19238 net.cpp:157] Top shape: 16 512 5 5 (204800)
I0828 13:26:45.747167 19238 net.cpp:157] Top shape: 16 512 5 5 (204800)
I0828 13:26:45.747170 19238 net.cpp:157] Top shape: 16 512 5 5 (204800)
I0828 13:26:45.747174 19238 net.cpp:165] Memory required for data: 2569478272
I0828 13:26:45.747176 19238 layer_factory.hpp:77] Creating layer conv8_1
I0828 13:26:45.747184 19238 net.cpp:100] Creating Layer conv8_1
I0828 13:26:45.747187 19238 net.cpp:434] conv8_1 <- conv7_2_conv7_2_relu_0_split_0
I0828 13:26:45.747193 19238 net.cpp:408] conv8_1 -> conv8_1
I0828 13:26:45.748914 19238 net.cpp:150] Setting up conv8_1
I0828 13:26:45.748925 19238 net.cpp:157] Top shape: 16 128 5 5 (51200)
I0828 13:26:45.748929 19238 net.cpp:165] Memory required for data: 2569683072
I0828 13:26:45.748934 19238 layer_factory.hpp:77] Creating layer conv8_1_relu
I0828 13:26:45.748939 19238 net.cpp:100] Creating Layer conv8_1_relu
I0828 13:26:45.748942 19238 net.cpp:434] conv8_1_relu <- conv8_1
I0828 13:26:45.748946 19238 net.cpp:395] conv8_1_relu -> conv8_1 (in-place)
I0828 13:26:45.749091 19238 net.cpp:150] Setting up conv8_1_relu
I0828 13:26:45.749099 19238 net.cpp:157] Top shape: 16 128 5 5 (51200)
I0828 13:26:45.749110 19238 net.cpp:165] Memory required for data: 2569887872
I0828 13:26:45.749114 19238 layer_factory.hpp:77] Creating layer conv8_2
I0828 13:26:45.749121 19238 net.cpp:100] Creating Layer conv8_2
I0828 13:26:45.749125 19238 net.cpp:434] conv8_2 <- conv8_1
I0828 13:26:45.749130 19238 net.cpp:408] conv8_2 -> conv8_2
I0828 13:26:45.752171 19238 net.cpp:150] Setting up conv8_2
I0828 13:26:45.752180 19238 net.cpp:157] Top shape: 16 256 3 3 (36864)
I0828 13:26:45.752184 19238 net.cpp:165] Memory required for data: 2570035328
I0828 13:26:45.752189 19238 layer_factory.hpp:77] Creating layer conv8_2_relu
I0828 13:26:45.752194 19238 net.cpp:100] Creating Layer conv8_2_relu
I0828 13:26:45.752199 19238 net.cpp:434] conv8_2_relu <- conv8_2
I0828 13:26:45.752203 19238 net.cpp:395] conv8_2_relu -> conv8_2 (in-place)
I0828 13:26:45.752749 19238 net.cpp:150] Setting up conv8_2_relu
I0828 13:26:45.752758 19238 net.cpp:157] Top shape: 16 256 3 3 (36864)
I0828 13:26:45.752761 19238 net.cpp:165] Memory required for data: 2570182784
I0828 13:26:45.752764 19238 layer_factory.hpp:77] Creating layer conv8_2_conv8_2_relu_0_split
I0828 13:26:45.752774 19238 net.cpp:100] Creating Layer conv8_2_conv8_2_relu_0_split
I0828 13:26:45.752779 19238 net.cpp:434] conv8_2_conv8_2_relu_0_split <- conv8_2
I0828 13:26:45.752784 19238 net.cpp:408] conv8_2_conv8_2_relu_0_split -> conv8_2_conv8_2_relu_0_split_0
I0828 13:26:45.752790 19238 net.cpp:408] conv8_2_conv8_2_relu_0_split -> conv8_2_conv8_2_relu_0_split_1
I0828 13:26:45.752795 19238 net.cpp:408] conv8_2_conv8_2_relu_0_split -> conv8_2_conv8_2_relu_0_split_2
I0828 13:26:45.752799 19238 net.cpp:408] conv8_2_conv8_2_relu_0_split -> conv8_2_conv8_2_relu_0_split_3
I0828 13:26:45.752861 19238 net.cpp:150] Setting up conv8_2_conv8_2_relu_0_split
I0828 13:26:45.752866 19238 net.cpp:157] Top shape: 16 256 3 3 (36864)
I0828 13:26:45.752869 19238 net.cpp:157] Top shape: 16 256 3 3 (36864)
I0828 13:26:45.752872 19238 net.cpp:157] Top shape: 16 256 3 3 (36864)
I0828 13:26:45.752876 19238 net.cpp:157] Top shape: 16 256 3 3 (36864)
I0828 13:26:45.752878 19238 net.cpp:165] Memory required for data: 2570772608
I0828 13:26:45.752882 19238 layer_factory.hpp:77] Creating layer conv9_1
I0828 13:26:45.752889 19238 net.cpp:100] Creating Layer conv9_1
I0828 13:26:45.752892 19238 net.cpp:434] conv9_1 <- conv8_2_conv8_2_relu_0_split_0
I0828 13:26:45.752898 19238 net.cpp:408] conv9_1 -> conv9_1
I0828 13:26:45.754086 19238 net.cpp:150] Setting up conv9_1
I0828 13:26:45.754096 19238 net.cpp:157] Top shape: 16 128 3 3 (18432)
I0828 13:26:45.754099 19238 net.cpp:165] Memory required for data: 2570846336
I0828 13:26:45.754104 19238 layer_factory.hpp:77] Creating layer conv9_1_relu
I0828 13:26:45.754109 19238 net.cpp:100] Creating Layer conv9_1_relu
I0828 13:26:45.754113 19238 net.cpp:434] conv9_1_relu <- conv9_1
I0828 13:26:45.754118 19238 net.cpp:395] conv9_1_relu -> conv9_1 (in-place)
I0828 13:26:45.754652 19238 net.cpp:150] Setting up conv9_1_relu
I0828 13:26:45.754662 19238 net.cpp:157] Top shape: 16 128 3 3 (18432)
I0828 13:26:45.754664 19238 net.cpp:165] Memory required for data: 2570920064
I0828 13:26:45.754667 19238 layer_factory.hpp:77] Creating layer conv9_2
I0828 13:26:45.754675 19238 net.cpp:100] Creating Layer conv9_2
I0828 13:26:45.754679 19238 net.cpp:434] conv9_2 <- conv9_1
I0828 13:26:45.754685 19238 net.cpp:408] conv9_2 -> conv9_2
I0828 13:26:45.758200 19238 net.cpp:150] Setting up conv9_2
I0828 13:26:45.758211 19238 net.cpp:157] Top shape: 16 256 2 2 (16384)
I0828 13:26:45.758214 19238 net.cpp:165] Memory required for data: 2570985600
I0828 13:26:45.758219 19238 layer_factory.hpp:77] Creating layer conv9_2_relu
I0828 13:26:45.758224 19238 net.cpp:100] Creating Layer conv9_2_relu
I0828 13:26:45.758229 19238 net.cpp:434] conv9_2_relu <- conv9_2
I0828 13:26:45.758234 19238 net.cpp:395] conv9_2_relu -> conv9_2 (in-place)
I0828 13:26:45.758384 19238 net.cpp:150] Setting up conv9_2_relu
I0828 13:26:45.758391 19238 net.cpp:157] Top shape: 16 256 2 2 (16384)
I0828 13:26:45.758394 19238 net.cpp:165] Memory required for data: 2571051136
I0828 13:26:45.758405 19238 layer_factory.hpp:77] Creating layer conv9_2_conv9_2_relu_0_split
I0828 13:26:45.758414 19238 net.cpp:100] Creating Layer conv9_2_conv9_2_relu_0_split
I0828 13:26:45.758417 19238 net.cpp:434] conv9_2_conv9_2_relu_0_split <- conv9_2
I0828 13:26:45.758424 19238 net.cpp:408] conv9_2_conv9_2_relu_0_split -> conv9_2_conv9_2_relu_0_split_0
I0828 13:26:45.758430 19238 net.cpp:408] conv9_2_conv9_2_relu_0_split -> conv9_2_conv9_2_relu_0_split_1
I0828 13:26:45.758435 19238 net.cpp:408] conv9_2_conv9_2_relu_0_split -> conv9_2_conv9_2_relu_0_split_2
I0828 13:26:45.758440 19238 net.cpp:408] conv9_2_conv9_2_relu_0_split -> conv9_2_conv9_2_relu_0_split_3
I0828 13:26:45.758500 19238 net.cpp:150] Setting up conv9_2_conv9_2_relu_0_split
I0828 13:26:45.758504 19238 net.cpp:157] Top shape: 16 256 2 2 (16384)
I0828 13:26:45.758508 19238 net.cpp:157] Top shape: 16 256 2 2 (16384)
I0828 13:26:45.758512 19238 net.cpp:157] Top shape: 16 256 2 2 (16384)
I0828 13:26:45.758514 19238 net.cpp:157] Top shape: 16 256 2 2 (16384)
I0828 13:26:45.758517 19238 net.cpp:165] Memory required for data: 2571313280
I0828 13:26:45.758520 19238 layer_factory.hpp:77] Creating layer conv10_1
I0828 13:26:45.758527 19238 net.cpp:100] Creating Layer conv10_1
I0828 13:26:45.758530 19238 net.cpp:434] conv10_1 <- conv9_2_conv9_2_relu_0_split_0
I0828 13:26:45.758536 19238 net.cpp:408] conv10_1 -> conv10_1
I0828 13:26:45.760104 19238 net.cpp:150] Setting up conv10_1
I0828 13:26:45.760114 19238 net.cpp:157] Top shape: 16 128 2 2 (8192)
I0828 13:26:45.760118 19238 net.cpp:165] Memory required for data: 2571346048
I0828 13:26:45.760123 19238 layer_factory.hpp:77] Creating layer conv10_1_relu
I0828 13:26:45.760140 19238 net.cpp:100] Creating Layer conv10_1_relu
I0828 13:26:45.760144 19238 net.cpp:434] conv10_1_relu <- conv10_1
I0828 13:26:45.760149 19238 net.cpp:395] conv10_1_relu -> conv10_1 (in-place)
I0828 13:26:45.760679 19238 net.cpp:150] Setting up conv10_1_relu
I0828 13:26:45.760689 19238 net.cpp:157] Top shape: 16 128 2 2 (8192)
I0828 13:26:45.760692 19238 net.cpp:165] Memory required for data: 2571378816
I0828 13:26:45.760696 19238 layer_factory.hpp:77] Creating layer conv10_2
I0828 13:26:45.760704 19238 net.cpp:100] Creating Layer conv10_2
I0828 13:26:45.760709 19238 net.cpp:434] conv10_2 <- conv10_1
I0828 13:26:45.760713 19238 net.cpp:408] conv10_2 -> conv10_2
I0828 13:26:45.763367 19238 net.cpp:150] Setting up conv10_2
I0828 13:26:45.763377 19238 net.cpp:157] Top shape: 16 256 1 1 (4096)
I0828 13:26:45.763381 19238 net.cpp:165] Memory required for data: 2571395200
I0828 13:26:45.763386 19238 layer_factory.hpp:77] Creating layer conv10_2_relu
I0828 13:26:45.763391 19238 net.cpp:100] Creating Layer conv10_2_relu
I0828 13:26:45.763394 19238 net.cpp:434] conv10_2_relu <- conv10_2
I0828 13:26:45.763401 19238 net.cpp:395] conv10_2_relu -> conv10_2 (in-place)
I0828 13:26:45.763937 19238 net.cpp:150] Setting up conv10_2_relu
I0828 13:26:45.763948 19238 net.cpp:157] Top shape: 16 256 1 1 (4096)
I0828 13:26:45.763952 19238 net.cpp:165] Memory required for data: 2571411584
I0828 13:26:45.763954 19238 layer_factory.hpp:77] Creating layer conv10_2_conv10_2_relu_0_split
I0828 13:26:45.763960 19238 net.cpp:100] Creating Layer conv10_2_conv10_2_relu_0_split
I0828 13:26:45.763964 19238 net.cpp:434] conv10_2_conv10_2_relu_0_split <- conv10_2
I0828 13:26:45.763969 19238 net.cpp:408] conv10_2_conv10_2_relu_0_split -> conv10_2_conv10_2_relu_0_split_0
I0828 13:26:45.763983 19238 net.cpp:408] conv10_2_conv10_2_relu_0_split -> conv10_2_conv10_2_relu_0_split_1
I0828 13:26:45.763989 19238 net.cpp:408] conv10_2_conv10_2_relu_0_split -> conv10_2_conv10_2_relu_0_split_2
I0828 13:26:45.764040 19238 net.cpp:150] Setting up conv10_2_conv10_2_relu_0_split
I0828 13:26:45.764046 19238 net.cpp:157] Top shape: 16 256 1 1 (4096)
I0828 13:26:45.764050 19238 net.cpp:157] Top shape: 16 256 1 1 (4096)
I0828 13:26:45.764053 19238 net.cpp:157] Top shape: 16 256 1 1 (4096)
I0828 13:26:45.764056 19238 net.cpp:165] Memory required for data: 2571460736
I0828 13:26:45.764067 19238 layer_factory.hpp:77] Creating layer conv5_5/sep_mbox_loc
I0828 13:26:45.764076 19238 net.cpp:100] Creating Layer conv5_5/sep_mbox_loc
I0828 13:26:45.764081 19238 net.cpp:434] conv5_5/sep_mbox_loc <- conv5_5/sep_conv5_5/sep_relu_0_split_1
I0828 13:26:45.764086 19238 net.cpp:408] conv5_5/sep_mbox_loc -> conv5_5/sep_mbox_loc
I0828 13:26:45.766173 19238 net.cpp:150] Setting up conv5_5/sep_mbox_loc
I0828 13:26:45.766183 19238 net.cpp:157] Top shape: 16 12 19 19 (69312)
I0828 13:26:45.766186 19238 net.cpp:165] Memory required for data: 2571737984
I0828 13:26:45.766192 19238 layer_factory.hpp:77] Creating layer conv5_5/sep_mbox_loc_perm
I0828 13:26:45.766201 19238 net.cpp:100] Creating Layer conv5_5/sep_mbox_loc_perm
I0828 13:26:45.766204 19238 net.cpp:434] conv5_5/sep_mbox_loc_perm <- conv5_5/sep_mbox_loc
I0828 13:26:45.766211 19238 net.cpp:408] conv5_5/sep_mbox_loc_perm -> conv5_5/sep_mbox_loc_perm
I0828 13:26:45.766309 19238 net.cpp:150] Setting up conv5_5/sep_mbox_loc_perm
I0828 13:26:45.766314 19238 net.cpp:157] Top shape: 16 19 19 12 (69312)
I0828 13:26:45.766317 19238 net.cpp:165] Memory required for data: 2572015232
I0828 13:26:45.766320 19238 layer_factory.hpp:77] Creating layer conv5_5/sep_mbox_loc_flat
I0828 13:26:45.766326 19238 net.cpp:100] Creating Layer conv5_5/sep_mbox_loc_flat
I0828 13:26:45.766330 19238 net.cpp:434] conv5_5/sep_mbox_loc_flat <- conv5_5/sep_mbox_loc_perm
I0828 13:26:45.766335 19238 net.cpp:408] conv5_5/sep_mbox_loc_flat -> conv5_5/sep_mbox_loc_flat
I0828 13:26:45.766358 19238 net.cpp:150] Setting up conv5_5/sep_mbox_loc_flat
I0828 13:26:45.766363 19238 net.cpp:157] Top shape: 16 4332 (69312)
I0828 13:26:45.766366 19238 net.cpp:165] Memory required for data: 2572292480
I0828 13:26:45.766368 19238 layer_factory.hpp:77] Creating layer conv5_5/sep_mbox_conf
I0828 13:26:45.766376 19238 net.cpp:100] Creating Layer conv5_5/sep_mbox_conf
I0828 13:26:45.766381 19238 net.cpp:434] conv5_5/sep_mbox_conf <- conv5_5/sep_conv5_5/sep_relu_0_split_2
I0828 13:26:45.766386 19238 net.cpp:408] conv5_5/sep_mbox_conf -> conv5_5/sep_mbox_conf
I0828 13:26:45.768812 19238 net.cpp:150] Setting up conv5_5/sep_mbox_conf
I0828 13:26:45.768823 19238 net.cpp:157] Top shape: 16 12 19 19 (69312)
I0828 13:26:45.768826 19238 net.cpp:165] Memory required for data: 2572569728
I0828 13:26:45.768831 19238 layer_factory.hpp:77] Creating layer conv5_5/sep_mbox_conf_perm
I0828 13:26:45.768838 19238 net.cpp:100] Creating Layer conv5_5/sep_mbox_conf_perm
I0828 13:26:45.768842 19238 net.cpp:434] conv5_5/sep_mbox_conf_perm <- conv5_5/sep_mbox_conf
I0828 13:26:45.768846 19238 net.cpp:408] conv5_5/sep_mbox_conf_perm -> conv5_5/sep_mbox_conf_perm
I0828 13:26:45.768942 19238 net.cpp:150] Setting up conv5_5/sep_mbox_conf_perm
I0828 13:26:45.768949 19238 net.cpp:157] Top shape: 16 19 19 12 (69312)
I0828 13:26:45.768950 19238 net.cpp:165] Memory required for data: 2572846976
I0828 13:26:45.768954 19238 layer_factory.hpp:77] Creating layer conv5_5/sep_mbox_conf_flat
I0828 13:26:45.768959 19238 net.cpp:100] Creating Layer conv5_5/sep_mbox_conf_flat
I0828 13:26:45.768963 19238 net.cpp:434] conv5_5/sep_mbox_conf_flat <- conv5_5/sep_mbox_conf_perm
I0828 13:26:45.768967 19238 net.cpp:408] conv5_5/sep_mbox_conf_flat -> conv5_5/sep_mbox_conf_flat
I0828 13:26:45.768990 19238 net.cpp:150] Setting up conv5_5/sep_mbox_conf_flat
I0828 13:26:45.768995 19238 net.cpp:157] Top shape: 16 4332 (69312)
I0828 13:26:45.768997 19238 net.cpp:165] Memory required for data: 2573124224
I0828 13:26:45.769001 19238 layer_factory.hpp:77] Creating layer conv5_5/sep_mbox_priorbox
I0828 13:26:45.769008 19238 net.cpp:100] Creating Layer conv5_5/sep_mbox_priorbox
I0828 13:26:45.769011 19238 net.cpp:434] conv5_5/sep_mbox_priorbox <- conv5_5/sep_conv5_5/sep_relu_0_split_3
I0828 13:26:45.769016 19238 net.cpp:434] conv5_5/sep_mbox_priorbox <- data_data_0_split_1
I0828 13:26:45.769022 19238 net.cpp:408] conv5_5/sep_mbox_priorbox -> conv5_5/sep_mbox_priorbox
I0828 13:26:45.769048 19238 net.cpp:150] Setting up conv5_5/sep_mbox_priorbox
I0828 13:26:45.769062 19238 net.cpp:157] Top shape: 1 2 4332 (8664)
I0828 13:26:45.769065 19238 net.cpp:165] Memory required for data: 2573158880
I0828 13:26:45.769068 19238 layer_factory.hpp:77] Creating layer conv6/sep_mbox_loc
I0828 13:26:45.769078 19238 net.cpp:100] Creating Layer conv6/sep_mbox_loc
I0828 13:26:45.769081 19238 net.cpp:434] conv6/sep_mbox_loc <- conv6/sep_conv6/sep_relu_0_split_1
I0828 13:26:45.769086 19238 net.cpp:408] conv6/sep_mbox_loc -> conv6/sep_mbox_loc
I0828 13:26:45.771813 19238 net.cpp:150] Setting up conv6/sep_mbox_loc
I0828 13:26:45.771823 19238 net.cpp:157] Top shape: 16 24 10 10 (38400)
I0828 13:26:45.771827 19238 net.cpp:165] Memory required for data: 2573312480
I0828 13:26:45.771832 19238 layer_factory.hpp:77] Creating layer conv6/sep_mbox_loc_perm
I0828 13:26:45.771838 19238 net.cpp:100] Creating Layer conv6/sep_mbox_loc_perm
I0828 13:26:45.771842 19238 net.cpp:434] conv6/sep_mbox_loc_perm <- conv6/sep_mbox_loc
I0828 13:26:45.771847 19238 net.cpp:408] conv6/sep_mbox_loc_perm -> conv6/sep_mbox_loc_perm
I0828 13:26:45.771946 19238 net.cpp:150] Setting up conv6/sep_mbox_loc_perm
I0828 13:26:45.771952 19238 net.cpp:157] Top shape: 16 10 10 24 (38400)
I0828 13:26:45.771955 19238 net.cpp:165] Memory required for data: 2573466080
I0828 13:26:45.771957 19238 layer_factory.hpp:77] Creating layer conv6/sep_mbox_loc_flat
I0828 13:26:45.771965 19238 net.cpp:100] Creating Layer conv6/sep_mbox_loc_flat
I0828 13:26:45.771967 19238 net.cpp:434] conv6/sep_mbox_loc_flat <- conv6/sep_mbox_loc_perm
I0828 13:26:45.771971 19238 net.cpp:408] conv6/sep_mbox_loc_flat -> conv6/sep_mbox_loc_flat
I0828 13:26:45.771996 19238 net.cpp:150] Setting up conv6/sep_mbox_loc_flat
I0828 13:26:45.772001 19238 net.cpp:157] Top shape: 16 2400 (38400)
I0828 13:26:45.772003 19238 net.cpp:165] Memory required for data: 2573619680
I0828 13:26:45.772006 19238 layer_factory.hpp:77] Creating layer conv6/sep_mbox_conf
I0828 13:26:45.772014 19238 net.cpp:100] Creating Layer conv6/sep_mbox_conf
I0828 13:26:45.772018 19238 net.cpp:434] conv6/sep_mbox_conf <- conv6/sep_conv6/sep_relu_0_split_2
I0828 13:26:45.772023 19238 net.cpp:408] conv6/sep_mbox_conf -> conv6/sep_mbox_conf
I0828 13:26:45.775130 19238 net.cpp:150] Setting up conv6/sep_mbox_conf
I0828 13:26:45.775140 19238 net.cpp:157] Top shape: 16 24 10 10 (38400)
I0828 13:26:45.775143 19238 net.cpp:165] Memory required for data: 2573773280
I0828 13:26:45.775149 19238 layer_factory.hpp:77] Creating layer conv6/sep_mbox_conf_perm
I0828 13:26:45.775156 19238 net.cpp:100] Creating Layer conv6/sep_mbox_conf_perm
I0828 13:26:45.775159 19238 net.cpp:434] conv6/sep_mbox_conf_perm <- conv6/sep_mbox_conf
I0828 13:26:45.775166 19238 net.cpp:408] conv6/sep_mbox_conf_perm -> conv6/sep_mbox_conf_perm
I0828 13:26:45.775264 19238 net.cpp:150] Setting up conv6/sep_mbox_conf_perm
I0828 13:26:45.775270 19238 net.cpp:157] Top shape: 16 10 10 24 (38400)
I0828 13:26:45.775274 19238 net.cpp:165] Memory required for data: 2573926880
I0828 13:26:45.775276 19238 layer_factory.hpp:77] Creating layer conv6/sep_mbox_conf_flat
I0828 13:26:45.775280 19238 net.cpp:100] Creating Layer conv6/sep_mbox_conf_flat
I0828 13:26:45.775285 19238 net.cpp:434] conv6/sep_mbox_conf_flat <- conv6/sep_mbox_conf_perm
I0828 13:26:45.775288 19238 net.cpp:408] conv6/sep_mbox_conf_flat -> conv6/sep_mbox_conf_flat
I0828 13:26:45.775311 19238 net.cpp:150] Setting up conv6/sep_mbox_conf_flat
I0828 13:26:45.775316 19238 net.cpp:157] Top shape: 16 2400 (38400)
I0828 13:26:45.775319 19238 net.cpp:165] Memory required for data: 2574080480
I0828 13:26:45.775322 19238 layer_factory.hpp:77] Creating layer conv6/sep_mbox_priorbox
I0828 13:26:45.775327 19238 net.cpp:100] Creating Layer conv6/sep_mbox_priorbox
I0828 13:26:45.775331 19238 net.cpp:434] conv6/sep_mbox_priorbox <- conv6/sep_conv6/sep_relu_0_split_3
I0828 13:26:45.775336 19238 net.cpp:434] conv6/sep_mbox_priorbox <- data_data_0_split_2
I0828 13:26:45.775341 19238 net.cpp:408] conv6/sep_mbox_priorbox -> conv6/sep_mbox_priorbox
I0828 13:26:45.775364 19238 net.cpp:150] Setting up conv6/sep_mbox_priorbox
I0828 13:26:45.775377 19238 net.cpp:157] Top shape: 1 2 2400 (4800)
I0828 13:26:45.775380 19238 net.cpp:165] Memory required for data: 2574099680
I0828 13:26:45.775383 19238 layer_factory.hpp:77] Creating layer conv7_2_mbox_loc
I0828 13:26:45.775393 19238 net.cpp:100] Creating Layer conv7_2_mbox_loc
I0828 13:26:45.775395 19238 net.cpp:434] conv7_2_mbox_loc <- conv7_2_conv7_2_relu_0_split_1
I0828 13:26:45.775401 19238 net.cpp:408] conv7_2_mbox_loc -> conv7_2_mbox_loc
I0828 13:26:45.777746 19238 net.cpp:150] Setting up conv7_2_mbox_loc
I0828 13:26:45.777757 19238 net.cpp:157] Top shape: 16 24 5 5 (9600)
I0828 13:26:45.777760 19238 net.cpp:165] Memory required for data: 2574138080
I0828 13:26:45.777765 19238 layer_factory.hpp:77] Creating layer conv7_2_mbox_loc_perm
I0828 13:26:45.777772 19238 net.cpp:100] Creating Layer conv7_2_mbox_loc_perm
I0828 13:26:45.777776 19238 net.cpp:434] conv7_2_mbox_loc_perm <- conv7_2_mbox_loc
I0828 13:26:45.777781 19238 net.cpp:408] conv7_2_mbox_loc_perm -> conv7_2_mbox_loc_perm
I0828 13:26:45.777880 19238 net.cpp:150] Setting up conv7_2_mbox_loc_perm
I0828 13:26:45.777885 19238 net.cpp:157] Top shape: 16 5 5 24 (9600)
I0828 13:26:45.777889 19238 net.cpp:165] Memory required for data: 2574176480
I0828 13:26:45.777891 19238 layer_factory.hpp:77] Creating layer conv7_2_mbox_loc_flat
I0828 13:26:45.777896 19238 net.cpp:100] Creating Layer conv7_2_mbox_loc_flat
I0828 13:26:45.777900 19238 net.cpp:434] conv7_2_mbox_loc_flat <- conv7_2_mbox_loc_perm
I0828 13:26:45.777904 19238 net.cpp:408] conv7_2_mbox_loc_flat -> conv7_2_mbox_loc_flat
I0828 13:26:45.777927 19238 net.cpp:150] Setting up conv7_2_mbox_loc_flat
I0828 13:26:45.777931 19238 net.cpp:157] Top shape: 16 600 (9600)
I0828 13:26:45.777935 19238 net.cpp:165] Memory required for data: 2574214880
I0828 13:26:45.777937 19238 layer_factory.hpp:77] Creating layer conv7_2_mbox_conf
I0828 13:26:45.777945 19238 net.cpp:100] Creating Layer conv7_2_mbox_conf
I0828 13:26:45.777948 19238 net.cpp:434] conv7_2_mbox_conf <- conv7_2_conv7_2_relu_0_split_2
I0828 13:26:45.777954 19238 net.cpp:408] conv7_2_mbox_conf -> conv7_2_mbox_conf
I0828 13:26:45.780638 19238 net.cpp:150] Setting up conv7_2_mbox_conf
I0828 13:26:45.780648 19238 net.cpp:157] Top shape: 16 24 5 5 (9600)
I0828 13:26:45.780652 19238 net.cpp:165] Memory required for data: 2574253280
I0828 13:26:45.780658 19238 layer_factory.hpp:77] Creating layer conv7_2_mbox_conf_perm
I0828 13:26:45.780663 19238 net.cpp:100] Creating Layer conv7_2_mbox_conf_perm
I0828 13:26:45.780668 19238 net.cpp:434] conv7_2_mbox_conf_perm <- conv7_2_mbox_conf
I0828 13:26:45.780673 19238 net.cpp:408] conv7_2_mbox_conf_perm -> conv7_2_mbox_conf_perm
I0828 13:26:45.780771 19238 net.cpp:150] Setting up conv7_2_mbox_conf_perm
I0828 13:26:45.780777 19238 net.cpp:157] Top shape: 16 5 5 24 (9600)
I0828 13:26:45.780779 19238 net.cpp:165] Memory required for data: 2574291680
I0828 13:26:45.780782 19238 layer_factory.hpp:77] Creating layer conv7_2_mbox_conf_flat
I0828 13:26:45.780787 19238 net.cpp:100] Creating Layer conv7_2_mbox_conf_flat
I0828 13:26:45.780791 19238 net.cpp:434] conv7_2_mbox_conf_flat <- conv7_2_mbox_conf_perm
I0828 13:26:45.780796 19238 net.cpp:408] conv7_2_mbox_conf_flat -> conv7_2_mbox_conf_flat
I0828 13:26:45.780819 19238 net.cpp:150] Setting up conv7_2_mbox_conf_flat
I0828 13:26:45.780823 19238 net.cpp:157] Top shape: 16 600 (9600)
I0828 13:26:45.780827 19238 net.cpp:165] Memory required for data: 2574330080
I0828 13:26:45.780828 19238 layer_factory.hpp:77] Creating layer conv7_2_mbox_priorbox
I0828 13:26:45.780836 19238 net.cpp:100] Creating Layer conv7_2_mbox_priorbox
I0828 13:26:45.780839 19238 net.cpp:434] conv7_2_mbox_priorbox <- conv7_2_conv7_2_relu_0_split_3
I0828 13:26:45.780843 19238 net.cpp:434] conv7_2_mbox_priorbox <- data_data_0_split_3
I0828 13:26:45.780848 19238 net.cpp:408] conv7_2_mbox_priorbox -> conv7_2_mbox_priorbox
I0828 13:26:45.780872 19238 net.cpp:150] Setting up conv7_2_mbox_priorbox
I0828 13:26:45.780877 19238 net.cpp:157] Top shape: 1 2 600 (1200)
I0828 13:26:45.780879 19238 net.cpp:165] Memory required for data: 2574334880
I0828 13:26:45.780891 19238 layer_factory.hpp:77] Creating layer conv8_2_mbox_loc
I0828 13:26:45.780900 19238 net.cpp:100] Creating Layer conv8_2_mbox_loc
I0828 13:26:45.780903 19238 net.cpp:434] conv8_2_mbox_loc <- conv8_2_conv8_2_relu_0_split_1
I0828 13:26:45.780910 19238 net.cpp:408] conv8_2_mbox_loc -> conv8_2_mbox_loc
I0828 13:26:45.783002 19238 net.cpp:150] Setting up conv8_2_mbox_loc
I0828 13:26:45.783012 19238 net.cpp:157] Top shape: 16 24 3 3 (3456)
I0828 13:26:45.783015 19238 net.cpp:165] Memory required for data: 2574348704
I0828 13:26:45.783020 19238 layer_factory.hpp:77] Creating layer conv8_2_mbox_loc_perm
I0828 13:26:45.783027 19238 net.cpp:100] Creating Layer conv8_2_mbox_loc_perm
I0828 13:26:45.783031 19238 net.cpp:434] conv8_2_mbox_loc_perm <- conv8_2_mbox_loc
I0828 13:26:45.783035 19238 net.cpp:408] conv8_2_mbox_loc_perm -> conv8_2_mbox_loc_perm
I0828 13:26:45.783134 19238 net.cpp:150] Setting up conv8_2_mbox_loc_perm
I0828 13:26:45.783140 19238 net.cpp:157] Top shape: 16 3 3 24 (3456)
I0828 13:26:45.783143 19238 net.cpp:165] Memory required for data: 2574362528
I0828 13:26:45.783145 19238 layer_factory.hpp:77] Creating layer conv8_2_mbox_loc_flat
I0828 13:26:45.783150 19238 net.cpp:100] Creating Layer conv8_2_mbox_loc_flat
I0828 13:26:45.783154 19238 net.cpp:434] conv8_2_mbox_loc_flat <- conv8_2_mbox_loc_perm
I0828 13:26:45.783159 19238 net.cpp:408] conv8_2_mbox_loc_flat -> conv8_2_mbox_loc_flat
I0828 13:26:45.783181 19238 net.cpp:150] Setting up conv8_2_mbox_loc_flat
I0828 13:26:45.783186 19238 net.cpp:157] Top shape: 16 216 (3456)
I0828 13:26:45.783188 19238 net.cpp:165] Memory required for data: 2574376352
I0828 13:26:45.783191 19238 layer_factory.hpp:77] Creating layer conv8_2_mbox_conf
I0828 13:26:45.783198 19238 net.cpp:100] Creating Layer conv8_2_mbox_conf
I0828 13:26:45.783202 19238 net.cpp:434] conv8_2_mbox_conf <- conv8_2_conv8_2_relu_0_split_2
I0828 13:26:45.783208 19238 net.cpp:408] conv8_2_mbox_conf -> conv8_2_mbox_conf
I0828 13:26:45.785298 19238 net.cpp:150] Setting up conv8_2_mbox_conf
I0828 13:26:45.785310 19238 net.cpp:157] Top shape: 16 24 3 3 (3456)
I0828 13:26:45.785312 19238 net.cpp:165] Memory required for data: 2574390176
I0828 13:26:45.785318 19238 layer_factory.hpp:77] Creating layer conv8_2_mbox_conf_perm
I0828 13:26:45.785323 19238 net.cpp:100] Creating Layer conv8_2_mbox_conf_perm
I0828 13:26:45.785327 19238 net.cpp:434] conv8_2_mbox_conf_perm <- conv8_2_mbox_conf
I0828 13:26:45.785333 19238 net.cpp:408] conv8_2_mbox_conf_perm -> conv8_2_mbox_conf_perm
I0828 13:26:45.785432 19238 net.cpp:150] Setting up conv8_2_mbox_conf_perm
I0828 13:26:45.785437 19238 net.cpp:157] Top shape: 16 3 3 24 (3456)
I0828 13:26:45.785440 19238 net.cpp:165] Memory required for data: 2574404000
I0828 13:26:45.785444 19238 layer_factory.hpp:77] Creating layer conv8_2_mbox_conf_flat
I0828 13:26:45.785447 19238 net.cpp:100] Creating Layer conv8_2_mbox_conf_flat
I0828 13:26:45.785451 19238 net.cpp:434] conv8_2_mbox_conf_flat <- conv8_2_mbox_conf_perm
I0828 13:26:45.785457 19238 net.cpp:408] conv8_2_mbox_conf_flat -> conv8_2_mbox_conf_flat
I0828 13:26:45.785481 19238 net.cpp:150] Setting up conv8_2_mbox_conf_flat
I0828 13:26:45.785485 19238 net.cpp:157] Top shape: 16 216 (3456)
I0828 13:26:45.785488 19238 net.cpp:165] Memory required for data: 2574417824
I0828 13:26:45.785491 19238 layer_factory.hpp:77] Creating layer conv8_2_mbox_priorbox
I0828 13:26:45.785496 19238 net.cpp:100] Creating Layer conv8_2_mbox_priorbox
I0828 13:26:45.785501 19238 net.cpp:434] conv8_2_mbox_priorbox <- conv8_2_conv8_2_relu_0_split_3
I0828 13:26:45.785503 19238 net.cpp:434] conv8_2_mbox_priorbox <- data_data_0_split_4
I0828 13:26:45.785511 19238 net.cpp:408] conv8_2_mbox_priorbox -> conv8_2_mbox_priorbox
I0828 13:26:45.785536 19238 net.cpp:150] Setting up conv8_2_mbox_priorbox
I0828 13:26:45.785540 19238 net.cpp:157] Top shape: 1 2 216 (432)
I0828 13:26:45.785543 19238 net.cpp:165] Memory required for data: 2574419552
I0828 13:26:45.785545 19238 layer_factory.hpp:77] Creating layer conv9_2_mbox_loc
I0828 13:26:45.785562 19238 net.cpp:100] Creating Layer conv9_2_mbox_loc
I0828 13:26:45.785567 19238 net.cpp:434] conv9_2_mbox_loc <- conv9_2_conv9_2_relu_0_split_1
I0828 13:26:45.785571 19238 net.cpp:408] conv9_2_mbox_loc -> conv9_2_mbox_loc
I0828 13:26:45.787657 19238 net.cpp:150] Setting up conv9_2_mbox_loc
I0828 13:26:45.787667 19238 net.cpp:157] Top shape: 16 24 2 2 (1536)
I0828 13:26:45.787670 19238 net.cpp:165] Memory required for data: 2574425696
I0828 13:26:45.787677 19238 layer_factory.hpp:77] Creating layer conv9_2_mbox_loc_perm
I0828 13:26:45.787681 19238 net.cpp:100] Creating Layer conv9_2_mbox_loc_perm
I0828 13:26:45.787685 19238 net.cpp:434] conv9_2_mbox_loc_perm <- conv9_2_mbox_loc
I0828 13:26:45.787691 19238 net.cpp:408] conv9_2_mbox_loc_perm -> conv9_2_mbox_loc_perm
I0828 13:26:45.787792 19238 net.cpp:150] Setting up conv9_2_mbox_loc_perm
I0828 13:26:45.787797 19238 net.cpp:157] Top shape: 16 2 2 24 (1536)
I0828 13:26:45.787801 19238 net.cpp:165] Memory required for data: 2574431840
I0828 13:26:45.787803 19238 layer_factory.hpp:77] Creating layer conv9_2_mbox_loc_flat
I0828 13:26:45.787807 19238 net.cpp:100] Creating Layer conv9_2_mbox_loc_flat
I0828 13:26:45.787811 19238 net.cpp:434] conv9_2_mbox_loc_flat <- conv9_2_mbox_loc_perm
I0828 13:26:45.787817 19238 net.cpp:408] conv9_2_mbox_loc_flat -> conv9_2_mbox_loc_flat
I0828 13:26:45.787840 19238 net.cpp:150] Setting up conv9_2_mbox_loc_flat
I0828 13:26:45.787845 19238 net.cpp:157] Top shape: 16 96 (1536)
I0828 13:26:45.787847 19238 net.cpp:165] Memory required for data: 2574437984
I0828 13:26:45.787850 19238 layer_factory.hpp:77] Creating layer conv9_2_mbox_conf
I0828 13:26:45.787858 19238 net.cpp:100] Creating Layer conv9_2_mbox_conf
I0828 13:26:45.787861 19238 net.cpp:434] conv9_2_mbox_conf <- conv9_2_conv9_2_relu_0_split_2
I0828 13:26:45.787868 19238 net.cpp:408] conv9_2_mbox_conf -> conv9_2_mbox_conf
I0828 13:26:45.790318 19238 net.cpp:150] Setting up conv9_2_mbox_conf
I0828 13:26:45.790328 19238 net.cpp:157] Top shape: 16 24 2 2 (1536)
I0828 13:26:45.790331 19238 net.cpp:165] Memory required for data: 2574444128
I0828 13:26:45.790336 19238 layer_factory.hpp:77] Creating layer conv9_2_mbox_conf_perm
I0828 13:26:45.790343 19238 net.cpp:100] Creating Layer conv9_2_mbox_conf_perm
I0828 13:26:45.790345 19238 net.cpp:434] conv9_2_mbox_conf_perm <- conv9_2_mbox_conf
I0828 13:26:45.790354 19238 net.cpp:408] conv9_2_mbox_conf_perm -> conv9_2_mbox_conf_perm
I0828 13:26:45.790459 19238 net.cpp:150] Setting up conv9_2_mbox_conf_perm
I0828 13:26:45.790464 19238 net.cpp:157] Top shape: 16 2 2 24 (1536)
I0828 13:26:45.790467 19238 net.cpp:165] Memory required for data: 2574450272
I0828 13:26:45.790470 19238 layer_factory.hpp:77] Creating layer conv9_2_mbox_conf_flat
I0828 13:26:45.790475 19238 net.cpp:100] Creating Layer conv9_2_mbox_conf_flat
I0828 13:26:45.790478 19238 net.cpp:434] conv9_2_mbox_conf_flat <- conv9_2_mbox_conf_perm
I0828 13:26:45.790483 19238 net.cpp:408] conv9_2_mbox_conf_flat -> conv9_2_mbox_conf_flat
I0828 13:26:45.790508 19238 net.cpp:150] Setting up conv9_2_mbox_conf_flat
I0828 13:26:45.790513 19238 net.cpp:157] Top shape: 16 96 (1536)
I0828 13:26:45.790516 19238 net.cpp:165] Memory required for data: 2574456416
I0828 13:26:45.790518 19238 layer_factory.hpp:77] Creating layer conv9_2_mbox_priorbox
I0828 13:26:45.790524 19238 net.cpp:100] Creating Layer conv9_2_mbox_priorbox
I0828 13:26:45.790529 19238 net.cpp:434] conv9_2_mbox_priorbox <- conv9_2_conv9_2_relu_0_split_3
I0828 13:26:45.790532 19238 net.cpp:434] conv9_2_mbox_priorbox <- data_data_0_split_5
I0828 13:26:45.790536 19238 net.cpp:408] conv9_2_mbox_priorbox -> conv9_2_mbox_priorbox
I0828 13:26:45.790562 19238 net.cpp:150] Setting up conv9_2_mbox_priorbox
I0828 13:26:45.790567 19238 net.cpp:157] Top shape: 1 2 96 (192)
I0828 13:26:45.790570 19238 net.cpp:165] Memory required for data: 2574457184
I0828 13:26:45.790572 19238 layer_factory.hpp:77] Creating layer conv10_2_mbox_loc
I0828 13:26:45.790580 19238 net.cpp:100] Creating Layer conv10_2_mbox_loc
I0828 13:26:45.790593 19238 net.cpp:434] conv10_2_mbox_loc <- conv10_2_conv10_2_relu_0_split_0
I0828 13:26:45.790601 19238 net.cpp:408] conv10_2_mbox_loc -> conv10_2_mbox_loc
I0828 13:26:45.792707 19238 net.cpp:150] Setting up conv10_2_mbox_loc
I0828 13:26:45.792717 19238 net.cpp:157] Top shape: 16 24 1 1 (384)
I0828 13:26:45.792721 19238 net.cpp:165] Memory required for data: 2574458720
I0828 13:26:45.792726 19238 layer_factory.hpp:77] Creating layer conv10_2_mbox_loc_perm
I0828 13:26:45.792732 19238 net.cpp:100] Creating Layer conv10_2_mbox_loc_perm
I0828 13:26:45.792735 19238 net.cpp:434] conv10_2_mbox_loc_perm <- conv10_2_mbox_loc
I0828 13:26:45.792742 19238 net.cpp:408] conv10_2_mbox_loc_perm -> conv10_2_mbox_loc_perm
I0828 13:26:45.792845 19238 net.cpp:150] Setting up conv10_2_mbox_loc_perm
I0828 13:26:45.792850 19238 net.cpp:157] Top shape: 16 1 1 24 (384)
I0828 13:26:45.792853 19238 net.cpp:165] Memory required for data: 2574460256
I0828 13:26:45.792856 19238 layer_factory.hpp:77] Creating layer conv10_2_mbox_loc_flat
I0828 13:26:45.792861 19238 net.cpp:100] Creating Layer conv10_2_mbox_loc_flat
I0828 13:26:45.792865 19238 net.cpp:434] conv10_2_mbox_loc_flat <- conv10_2_mbox_loc_perm
I0828 13:26:45.792870 19238 net.cpp:408] conv10_2_mbox_loc_flat -> conv10_2_mbox_loc_flat
I0828 13:26:45.792892 19238 net.cpp:150] Setting up conv10_2_mbox_loc_flat
I0828 13:26:45.792897 19238 net.cpp:157] Top shape: 16 24 (384)
I0828 13:26:45.792899 19238 net.cpp:165] Memory required for data: 2574461792
I0828 13:26:45.792902 19238 layer_factory.hpp:77] Creating layer conv10_2_mbox_conf
I0828 13:26:45.792912 19238 net.cpp:100] Creating Layer conv10_2_mbox_conf
I0828 13:26:45.792914 19238 net.cpp:434] conv10_2_mbox_conf <- conv10_2_conv10_2_relu_0_split_1
I0828 13:26:45.792919 19238 net.cpp:408] conv10_2_mbox_conf -> conv10_2_mbox_conf
I0828 13:26:45.795022 19238 net.cpp:150] Setting up conv10_2_mbox_conf
I0828 13:26:45.795032 19238 net.cpp:157] Top shape: 16 24 1 1 (384)
I0828 13:26:45.795035 19238 net.cpp:165] Memory required for data: 2574463328
I0828 13:26:45.795042 19238 layer_factory.hpp:77] Creating layer conv10_2_mbox_conf_perm
I0828 13:26:45.795047 19238 net.cpp:100] Creating Layer conv10_2_mbox_conf_perm
I0828 13:26:45.795050 19238 net.cpp:434] conv10_2_mbox_conf_perm <- conv10_2_mbox_conf
I0828 13:26:45.795056 19238 net.cpp:408] conv10_2_mbox_conf_perm -> conv10_2_mbox_conf_perm
I0828 13:26:45.795161 19238 net.cpp:150] Setting up conv10_2_mbox_conf_perm
I0828 13:26:45.795166 19238 net.cpp:157] Top shape: 16 1 1 24 (384)
I0828 13:26:45.795167 19238 net.cpp:165] Memory required for data: 2574464864
I0828 13:26:45.795171 19238 layer_factory.hpp:77] Creating layer conv10_2_mbox_conf_flat
I0828 13:26:45.795176 19238 net.cpp:100] Creating Layer conv10_2_mbox_conf_flat
I0828 13:26:45.795179 19238 net.cpp:434] conv10_2_mbox_conf_flat <- conv10_2_mbox_conf_perm
I0828 13:26:45.795183 19238 net.cpp:408] conv10_2_mbox_conf_flat -> conv10_2_mbox_conf_flat
I0828 13:26:45.795207 19238 net.cpp:150] Setting up conv10_2_mbox_conf_flat
I0828 13:26:45.795212 19238 net.cpp:157] Top shape: 16 24 (384)
I0828 13:26:45.795214 19238 net.cpp:165] Memory required for data: 2574466400
I0828 13:26:45.795217 19238 layer_factory.hpp:77] Creating layer conv10_2_mbox_priorbox
I0828 13:26:45.795223 19238 net.cpp:100] Creating Layer conv10_2_mbox_priorbox
I0828 13:26:45.795228 19238 net.cpp:434] conv10_2_mbox_priorbox <- conv10_2_conv10_2_relu_0_split_2
I0828 13:26:45.795231 19238 net.cpp:434] conv10_2_mbox_priorbox <- data_data_0_split_6
I0828 13:26:45.795238 19238 net.cpp:408] conv10_2_mbox_priorbox -> conv10_2_mbox_priorbox
I0828 13:26:45.795262 19238 net.cpp:150] Setting up conv10_2_mbox_priorbox
I0828 13:26:45.795266 19238 net.cpp:157] Top shape: 1 2 24 (48)
I0828 13:26:45.795269 19238 net.cpp:165] Memory required for data: 2574466592
I0828 13:26:45.795272 19238 layer_factory.hpp:77] Creating layer mbox_loc
I0828 13:26:45.795279 19238 net.cpp:100] Creating Layer mbox_loc
I0828 13:26:45.795284 19238 net.cpp:434] mbox_loc <- conv5_5/sep_mbox_loc_flat
I0828 13:26:45.795296 19238 net.cpp:434] mbox_loc <- conv6/sep_mbox_loc_flat
I0828 13:26:45.795300 19238 net.cpp:434] mbox_loc <- conv7_2_mbox_loc_flat
I0828 13:26:45.795305 19238 net.cpp:434] mbox_loc <- conv8_2_mbox_loc_flat
I0828 13:26:45.795307 19238 net.cpp:434] mbox_loc <- conv9_2_mbox_loc_flat
I0828 13:26:45.795311 19238 net.cpp:434] mbox_loc <- conv10_2_mbox_loc_flat
I0828 13:26:45.795316 19238 net.cpp:408] mbox_loc -> mbox_loc
I0828 13:26:45.795346 19238 net.cpp:150] Setting up mbox_loc
I0828 13:26:45.795351 19238 net.cpp:157] Top shape: 16 7668 (122688)
I0828 13:26:45.795353 19238 net.cpp:165] Memory required for data: 2574957344
I0828 13:26:45.795356 19238 layer_factory.hpp:77] Creating layer mbox_conf
I0828 13:26:45.795362 19238 net.cpp:100] Creating Layer mbox_conf
I0828 13:26:45.795367 19238 net.cpp:434] mbox_conf <- conv5_5/sep_mbox_conf_flat
I0828 13:26:45.795370 19238 net.cpp:434] mbox_conf <- conv6/sep_mbox_conf_flat
I0828 13:26:45.795373 19238 net.cpp:434] mbox_conf <- conv7_2_mbox_conf_flat
I0828 13:26:45.795377 19238 net.cpp:434] mbox_conf <- conv8_2_mbox_conf_flat
I0828 13:26:45.795380 19238 net.cpp:434] mbox_conf <- conv9_2_mbox_conf_flat
I0828 13:26:45.795384 19238 net.cpp:434] mbox_conf <- conv10_2_mbox_conf_flat
I0828 13:26:45.795388 19238 net.cpp:408] mbox_conf -> mbox_conf
I0828 13:26:45.795411 19238 net.cpp:150] Setting up mbox_conf
I0828 13:26:45.795416 19238 net.cpp:157] Top shape: 16 7668 (122688)
I0828 13:26:45.795418 19238 net.cpp:165] Memory required for data: 2575448096
I0828 13:26:45.795423 19238 layer_factory.hpp:77] Creating layer mbox_priorbox
I0828 13:26:45.795426 19238 net.cpp:100] Creating Layer mbox_priorbox
I0828 13:26:45.795429 19238 net.cpp:434] mbox_priorbox <- conv5_5/sep_mbox_priorbox
I0828 13:26:45.795434 19238 net.cpp:434] mbox_priorbox <- conv6/sep_mbox_priorbox
I0828 13:26:45.795439 19238 net.cpp:434] mbox_priorbox <- conv7_2_mbox_priorbox
I0828 13:26:45.795441 19238 net.cpp:434] mbox_priorbox <- conv8_2_mbox_priorbox
I0828 13:26:45.795444 19238 net.cpp:434] mbox_priorbox <- conv9_2_mbox_priorbox
I0828 13:26:45.795447 19238 net.cpp:434] mbox_priorbox <- conv10_2_mbox_priorbox
I0828 13:26:45.795452 19238 net.cpp:408] mbox_priorbox -> mbox_priorbox
I0828 13:26:45.795475 19238 net.cpp:150] Setting up mbox_priorbox
I0828 13:26:45.795478 19238 net.cpp:157] Top shape: 1 2 7668 (15336)
I0828 13:26:45.795481 19238 net.cpp:165] Memory required for data: 2575509440
I0828 13:26:45.795485 19238 layer_factory.hpp:77] Creating layer mbox_loss
I0828 13:26:45.795495 19238 net.cpp:100] Creating Layer mbox_loss
I0828 13:26:45.795500 19238 net.cpp:434] mbox_loss <- mbox_loc
I0828 13:26:45.795502 19238 net.cpp:434] mbox_loss <- mbox_conf
I0828 13:26:45.795506 19238 net.cpp:434] mbox_loss <- mbox_priorbox
…
  phase: TEST
}
layer {
  name: "data"
  type: "AnnotatedData"
  top: "data"
  top: "label"
  include {
    phase: TEST
  }
  transform_param {
    mean_value: 104
    mean_value: 117
    mean_value: 123
    resize_param {
      prob: 1
      resize_mode: WARP
      height: 300
      width: 300
      interp_mode: LINEAR
    }
  }
  data_param {
    source: "data/BodyFaceRegions/lmdb/VOC0712_test_lmdb"
    batch_size: 8
    backend: LMDB
  }
  annotated_data_param {
    batch_sampler {
    }
    label_map_file: "data/BodyFaceRegions/labelmap_voc.prototxt"
  }
}
layer {
  name: "conv1"
  type: "Convolution"
  bottom: "data"
  top: "conv1"
  param {
    lr_mult: 1
    decay_mult: 1
  }
  convolution_param {
    num_output: 32
    bias_term: false
    pad: 1
    kernel_size: 3
    group: 1
    stride: 2
    weight_filler {
      type: "gaussian"
      std: 0.01
    }
    engine: DEFAULT
  }
}
layer {
  name: "conv1/bn"
  type: "BatchNorm"
  bottom: "conv1"
  top: "conv1"
  batch_norm_param {
    moving_average_fraction: 0.999
    eps: 0.001
  }
}
layer {
  name: "conv1/scale"
  type: "Scale"
  bottom: "conv1"
  top: "conv1"
  param {
    lr_mult: 1
    decay_mult: 0
  }
  param {
    lr_mult: 1
    decay_mult: 0
  }
  scale_param {
    filler {
      type: "constant"
      value: 1
    }
    bias_term: true
    bias_filler {
      type: "constant"
      value: 0
    }
  }
}
layer {
  name: "conv1_relu"
  type: "ReLU"
  bottom: "conv1"
  top: "conv1"
}
layer {
  name: "conv2_1/dw"
  type: "Convolution"
  bottom: "conv1"
  top: "conv2_1/dw"
  param {
    lr_mult: 1
    decay_mult: 1
  }
  convolution_param {
    num_output: 32
    bias_term: false
    pad: 1
    kernel_size: 3
    group: 32
    stride: 1
    weight_filler {
      type: "gaussian"
      std: 0.01
    }
    engine: CAFFE
  }
}
layer {
  name: "conv2_1/dw/bn"
  type: "BatchNorm"
  bottom: "conv2_1/dw"
  top: "conv2_1/dw"
  batch_norm_param {
    moving_average_fraction: 0.999
    eps: 0.001
  }
}
layer {
  name: "conv2_1/dw/scale"
  type: "Scale"
  bottom: "conv2_1/dw"
  top: "conv2_1/dw"
  param {
    lr_mult: 1
    decay_mult: 0
  }
  param {
    lr_mult: 1
    decay_mult: 0
  }
  scale_param {
    filler {
      type: "constant"
      value: 1
    }
    bias_term: true
    bias_filler {
      type: "constant"
      value: 0
    }
  }
}
layer {
  name: "conv2_1/dw_relu"
  type: "ReLU"
  bottom: "conv2_1/dw"
  top: "conv2_1/dw"
}
layer {
  name: "conv2_1/sep"
  type: "Convolution"
  bottom: "conv2_1/dw"
  top: "conv2_1/sep"
  param {
    lr_mult: 1
    decay_mult: 1
  }
  convolution_param {
    num_output: 64
    bias_term: false
    pad: 0
    kernel_size: 1
    group: 1
    stride: 1
    weight_filler {
      type: "gaussian"
      std: 0.01
    }
    engine: DEFAULT
  }
}
layer {
  name: "conv2_1/sep/bn"
  type: "BatchNorm"
  bottom: "conv2_1/sep"
  top: "conv2_1/sep"
  batch_norm_param {
    moving_average_fraction: 0.999
    eps: 0.001
  }
}
layer {
  name: "conv2_1/sep/scale"
  type: "Scale"
  bottom: "conv2_1/sep"
  top: "conv2_1/sep"
  param {
    lr_mult: 1
    decay_mult: 0
  }
  param {
    lr_mult: 1
    decay_mult: 0
  }
  scale_param {
    filler {
      type: "constant"
      value: 1
    }
    bias_term: true
    bias_filler {
      type: "constant"
      value: 0
    }
  }
}
layer {
  name: "conv2_1/sep_relu"
  type: "ReLU"
  bottom: "conv2_1/sep"
  top: "conv2_1/sep"
}
layer {
  name: "conv2_2/dw"
  type: "Convolution"
  bottom: "conv2_1/sep"
  top: "conv2_2/dw"
  param {
    lr_mult: 1
    decay_mult: 1
  }
  convolution_param {
    num_output: 64
    bias_term: false
    pad: 1
    kernel_size: 3
    group: 64
    stride: 2
    weight_filler {
      type: "gaussian"
      std: 0.01
    }
    engine: CAFFE
  }
}
layer {
  name: "conv2_2/dw/bn"
  type: "BatchNorm"
  bottom: "conv2_2/dw"
  top: "conv2_2/dw"
  batch_norm_param {
    moving_average_fraction: 0.999
    eps: 0.001
  }
}
layer {
  name: "conv2_2/dw/scale"
  type: "Scale"
  bottom: "conv2_2/dw"
  top: "conv2_2/dw"
  param {
    lr_mult: 1
    decay_mult: 0
  }
  param {
    lr_mult: 1
    decay_mult: 0
  }
  scale_param {
    filler {
      type: "constant"
      value: 1
    }
    bias_term: true
    bias_filler {
      type: "constant"
      value: 0
    }
  }
}
layer {
  name: "conv2_2/dw_relu"
  type: "ReLU"
  bottom: "conv2_2/dw"
  top: "conv2_2/dw"
}
layer {
  name: "conv2_2/sep"
  type: "Convolution"
  bottom: "conv2_2/dw"
  top: "conv2_2/sep"
  param {
    lr_mult: 1
    decay_mult: 1
  }
  convolution_param {
    num_output: 128
    bias_term: false
    pad: 0
    kernel_size: 1
    group: 1
    stride: 1
    weight_filler {
      type: "gaussian"
      std: 0.01
    }
    engine: DEFAULT
  }
}
layer {
  name: "conv2_2/sep/bn"
  type: "BatchNorm"
  bottom: "conv2_2/sep"
  top: "conv2_2/sep"
  batch_norm_param {
    moving_average_fraction: 0.999
    eps: 0.001
  }
}
layer {
  name: "conv2_2/sep/scale"
  type: "Scale"
  bottom: "conv2_2/sep"
  top: "conv2_2/sep"
  param {
    lr_mult: 1
    decay_mult: 0
  }
  param {
    lr_mult: 1
    decay_mult: 0
  }
  scale_param {
    filler {
      type: "constant"
      value: 1
    }
    bias_term: true
    bias_filler {
      type: "constant"
      value: 0
    }
  }
}
layer {
  name: "conv2_2/sep_relu"
  type: "ReLU"
  bottom: "conv2_2/sep"
  top: "conv2_2/sep"
}
layer {
  name: "conv3_1/dw"
  type: "Convolution"
  bottom: "conv2_2/sep"
  top: "conv3_1/dw"
  param {
    lr_mult: 1
    decay_mult: 1
  }
  convolution_param {
    num_output: 128
    bias_term: false
    pad: 1
    kernel_size: 3
    group: 128
    stride: 1
    weight_filler {
      type: "gaussian"
      std: 0.01
    }
    engine: CAFFE
  }
}
layer {
  name: "conv3_1/dw/bn"
  type: "BatchNorm"
  bottom: "conv3_1/dw"
  top: "conv3_1/dw"
  batch_norm_param {
    moving_average_fraction: 0.999
    eps: 0.001
  }
}
layer {
  name: "conv3_1/dw/scale"
  type: "Scale"
  bottom: "conv3_1/dw"
  top: "conv3_1/dw"
  param {
    lr_mult: 1
    decay_mult: 0
  }
  param {
    lr_mult: 1
    decay_mult: 0
  }
  scale_param {
    filler {
      type: "constant"
      value: 1
    }
    bias_term: true
    bias_filler {
      type: "constant"
      value: 0
    }
  }
}
layer {
  name: "conv3_1/dw_relu"
  type: "ReLU"
  bottom: "conv3_1/dw"
  top: "conv3_1/dw"
}
layer {
  name: "conv3_1/sep"
  type: "Convolution"
  bottom: "conv3_1/dw"
  top: "conv3_1/sep"
  param {
    lr_mult: 1
    decay_mult: 1
  }
  convolution_param {
    num_output: 128
    bias_term: false
    pad: 0
    kernel_size: 1
    group: 1
    stride: 1
    weight_filler {
      type: "gaussian"
      std: 0.01
    }
    engine: DEFAULT
  }
}
layer {
  name: "conv3_1/sep/bn"
  type: "BatchNorm"
  bottom: "conv3_1/sep"
  top: "conv3_1/sep"
  batch_norm_param {
    moving_average_fraction: 0.999
    eps: 0.001
  }
}
layer {
  name: "conv3_1/sep/scale"
  type: "Scale"
  bottom: "conv3_1/sep"
  top: "conv3_1/sep"
  param {
    lr_mult: 1
    decay_mult: 0
  }
  param {
    lr_mult: 1
    decay_mult: 0
  }
  scale_param {
    filler {
      type: "constant"
      value: 1
    }
    bias_term: true
    bias_filler {
      type: "constant"
      value: 0
    }
  }
}
layer {
  name: "conv3_1/sep_relu"
  type: "ReLU"
  bottom: "conv3_1/sep"
  top: "conv3_1/sep"
}
layer {
  name: "conv3_2/dw"
  type: "Convolution"
  bottom: "conv3_1/sep"
  top: "conv3_2/dw"
  param {
    lr_mult: 1
    decay_mult: 1
  }
  convolution_param {
    num_output: 128
    bias_term: false
    pad: 1
    kernel_size: 3
    group: 128
    stride: 2
    weight_filler {
      type: "gaussian"
      std: 0.01
    }
    engine: CAFFE
  }
}
layer {
  name: "conv3_2/dw/bn"
  type: "BatchNorm"
  bottom: "conv3_2/dw"
  top: "conv3_2/dw"
  batch_norm_param {
    moving_average_fraction: 0.999
    eps: 0.001
  }
}
layer {
  name: "conv3_2/dw/scale"
  type: "Scale"
  bottom: "conv3_2/dw"
  top: "conv3_2/dw"
  param {
    lr_mult: 1
    decay_mult: 0
  }
  param {
    lr_mult: 1
    decay_mult: 0
  }
  scale_param {
    filler {
      type: "constant"
      value: 1
    }
    bias_term: true
    bias_filler {
      type: "constant"
      value: 0
    }
  }
}
layer {
  name: "conv3_2/dw_relu"
  type: "ReLU"
  bottom: "conv3_2/dw"
  top: "conv3_2/dw"
}
layer {
  name: "conv3_2/sep"
  type: "Convolution"
  bottom: "conv3_2/dw"
  top: "conv3_2/sep"
  param {
    lr_mult: 1
    decay_mult: 1
  }
  convolution_param {
    num_output: 256
    bias_term: false
    pad: 0
    kernel_size: 1
    group: 1
    stride: 1
    weight_filler {
      type: "gaussian"
      std: 0.01
    }
    engine: DEFAULT
  }
}
layer {
  name: "conv3_2/sep/bn"
  type: "BatchNorm"
  bottom: "conv3_2/sep"
  top: "conv3_2/sep"
  batch_norm_param {
    moving_average_fraction: 0.999
    eps: 0.001
  }
}
layer {
  name: "conv3_2/sep/scale"
  type: "Scale"
  bottom: "conv3_2/sep"
  top: "conv3_2/sep"
  param {
    lr_mult: 1
    decay_mult: 0
  }
  param {
    lr_mult: 1
    decay_mult: 0
  }
  scale_param {
    filler {
      type: "constant"
      value: 1
    }
    bias_term: true
    bias_filler {
      type: "constant"
      value: 0
    }
  }
}
layer {
  name: "conv3_2/sep_relu"
  type: "ReLU"
  bottom: "conv3_2/sep"
  top: "conv3_2/sep"
}
layer {
  name: "conv4_1/dw"
  type: "Convolution"
  bottom: "conv3_2/sep"
  top: "conv4_1/dw"
  param {
    lr_mult: 1
    decay_mult: 1
  }
  convolution_param {
    num_output: 256
    bias_term: false
    pad: 1
    kernel_size: 3
    group: 256
    stride: 1
    weight_filler {
      type: "gaussian"
      std: 0.01
    }
    engine: CAFFE
  }
}
layer {
  name: "conv4_1/dw/bn"
  type: "BatchNorm"
  bottom: "conv4_1/dw"
  top: "conv4_1/dw"
  batch_norm_param {
    moving_average_fraction: 0.999
    eps: 0.001
  }
}
layer {
  name: "conv4_1/dw/scale"
  type: "Scale"
  bottom: "conv4_1/dw"
  top: "conv4_1/dw"
  param {
    lr_mult: 1
    decay_mult: 0
  }
  param {
    lr_mult: 1
    decay_mult: 0
  }
  scale_param {
    filler {
      type: "constant"
      value: 1
    }
    bias_term: true
    bias_filler {
      type: "constant"
      value: 0
    }
  }
}
layer {
  name: "conv4_1/dw_relu"
  type: "ReLU"
  bottom: "conv4_1/dw"
  top: "conv4_1/dw"
}
layer {
  name: "conv4_1/sep"
  type: "Convolution"
  bottom: "conv4_1/dw"
  top: "conv4_1/sep"
  param {
    lr_mult: 1
    decay_mult: 1
  }
  convolution_param {
    num_output: 256
    bias_term: false
    pad: 0
    kernel_size: 1
    group: 1
    stride: 1
    weight_filler {
      type: "gaussian"
      std: 0.01
    }
    engine: DEFAULT
  }
}
layer {
  name: "conv4_1/sep/bn"
  type: "BatchNorm"
  bottom: "conv4_1/sep"
  top: "conv4_1/sep"
  batch_norm_param {
    moving_average_fraction: 0.999
    eps: 0.001
  }
}
layer {
  name: "conv4_1/sep/scale"
  type: "Scale"
  bottom: "conv4_1/sep"
  top: "conv4_1/sep"
  param {
    lr_mult: 1
    decay_mult: 0
  }
  param {
    lr_mult: 1
    decay_mult: 0
  }
  scale_param {
    filler {
      type: "constant"
      value: 1
    }
    bias_term: true
    bias_filler {
      type: "constant"
      value: 0
    }
  }
}
layer {
  name: "conv4_1/sep_relu"
  type: "ReLU"
  bottom: "conv4_1/sep"
  top: "conv4_1/sep"
}
layer {
  name: "conv4_2/dw"
  type: "Convolution"
  bottom: "conv4_1/sep"
  top: "conv4_2/dw"
  param {
    lr_mult: 1
    decay_mult: 1
  }
  convolution_param {
    num_output: 256
    bias_term: false
    pad: 1
    kernel_size: 3
    group: 256
    stride: 2
    weight_filler {
      type: "gaussian"
      std: 0.01
    }
    engine: CAFFE
  }
}
layer {
  name: "conv4_2/dw/bn"
  type: "BatchNorm"
  bottom: "conv4_2/dw"
  top: "conv4_2/dw"
  batch_norm_param {
    moving_average_fraction: 0.999
    eps: 0.001
  }
}
layer {
  name: "conv4_2/dw/scale"
  type: "Scale"
  bottom: "conv4_2/dw"
  top: "conv4_2/dw"
  param {
    lr_mult: 1
    decay_mult: 0
  }
  param {
    lr_mult: 1
    decay_mult: 0
  }
  scale_param {
    filler {
      type: "constant"
      value: 1
    }
    bias_term: true
    bias_filler {
      type: "constant"
      value: 0
    }
  }
}
layer {
  name: "conv4_2/dw_relu"
  type: "ReLU"
  bottom: "conv4_2/dw"
  top: "conv4_2/dw"
}
layer {
  name: "conv4_2/sep"
  type: "Convolution"
  bottom: "conv4_2/dw"
  top: "conv4_2/sep"
  param {
    lr_mult: 1
    decay_mult: 1
  }
  convolution_param {
    num_output: 512
    bias_term: false
    pad: 0
    kernel_size: 1
    group: 1
    stride: 1
    weight_filler {
      type: "gaussian"
      std: 0.01
    }
    engine: DEFAULT
  }
}
layer {
  name: "conv4_2/sep/bn"
  type: "BatchNorm"
  bottom: "conv4_2/sep"
  top: "conv4_2/sep"
  batch_norm_param {
    moving_average_fraction: 0.999
    eps: 0.001
  }
}
layer {
  name: "conv4_2/sep/scale"
  type: "Scale"
  bottom: "conv4_2/sep"
  top: "conv4_2/sep"
  param {
    lr_mult: 1
    decay_mult: 0
  }
  param {
    lr_mult: 1
    decay_mult: 0
  }
  scale_param {
    filler {
      type: "constant"
      value: 1
    }
    bias_term: true
    bias_filler {
      type: "constant"
      value: 0
    }
  }
}
layer {
  name: "conv4_2/sep_relu"
  type: "ReLU"
  bottom: "conv4_2/sep"
  top: "conv4_2/sep"
}
layer {
  name: "conv5_1/dw"
  type: "Convolution"
  bottom: "conv4_2/sep"
  top: "conv5_1/dw"
  param {
    lr_mult: 1
    decay_mult: 1
  }
  convolution_param {
    num_output: 512
    bias_term: false
    pad: 1
    kernel_size: 3
    group: 512
    stride: 1
    weight_filler {
      type: "gaussian"
      std: 0.01
    }
    engine: CAFFE
  }
}
layer {
  name: "conv5_1/dw/bn"
  type: "BatchNorm"
  bottom: "conv5_1/dw"
  top: "conv5_1/dw"
  batch_norm_param {
    moving_average_fraction: 0.999
    eps: 0.001
  }
}
layer {
  name: "conv5_1/dw/scale"
  type: "Scale"
  bottom: "conv5_1/dw"
  top: "conv5_1/dw"
  param {
    lr_mult: 1
    decay_mult: 0
  }
  param {
    lr_mult: 1
    decay_mult: 0
  }
  scale_param {
    filler {
      type: "constant"
      value: 1
    }
    bias_term: true
    bias_filler {
      type: "constant"
      value: 0
    }
  }
}
layer {
  name: "conv5_1/dw_relu"
  type: "ReLU"
  bottom: "conv5_1/dw"
  top: "conv5_1/dw"
}
layer {
  name: "conv5_1/sep"
  type: "Convolution"
  bottom: "conv5_1/dw"
  top: "conv5_1/sep"
  param {
    lr_mult: 1
    decay_mult: 1
  }
  convolution_param {
    num_output: 512
    bias_term: false
    pad: 0
    kernel_size: 1
    group: 1
    stride: 1
    weight_filler {
      type: "gaussian"
      std: 0.01
    }
    engine: DEFAULT
  }
}
layer {
  name: "conv5_1/sep/bn"
  type: "BatchNorm"
  bottom: "conv5_1/sep"
  top: "conv5_1/sep"
  batch_norm_param {
    moving_average_fraction: 0.999
    eps: 0.001
  }
}
layer {
  name: "conv5_1/sep/scale"
  type: "Scale"
  bottom: "conv5_1/sep"
  top: "conv5_1/sep"
  param {
    lr_mult: 1
    decay_mult: 0
  }
  param {
    lr_mult: 1
    decay_mult: 0
  }
  scale_param {
    filler {
      type: "constant"
      value: 1
    }
    bias_term: true
    bias_filler {
      type: "constant"
      value: 0
    }
  }
}
layer {
  name: "conv5_1/sep_relu"
  type: "ReLU"
  bottom: "conv5_1/sep"
  top: "conv5_1/sep"
}
layer {
  name: "conv5_2/dw"
  type: "Convolution"
  bottom: "conv5_1/sep"
  top: "conv5_2/dw"
  param {
    lr_mult: 1
    decay_mult: 1
  }
  convolution_param {
    num_output: 512
    bias_term: false
    pad: 1
    kernel_size: 3
    group: 512
    stride: 1
    weight_filler {
      type: "gaussian"
      std: 0.01
    }
    engine: CAFFE
  }
}
layer {
  name: "conv5_2/dw/bn"
  type: "BatchNorm"
  bottom: "conv5_2/dw"
  top: "conv5_2/dw"
  batch_norm_param {
    moving_average_fraction: 0.999
    eps: 0.001
  }
}
layer {
  name: "conv5_2/dw/scale"
  type: "Scale"
  bottom: "conv5_2/dw"
  top: "conv5_2/dw"
  param {
    lr_mult: 1
    decay_mult: 0
  }
  param {
    lr_mult: 1
    decay_mult: 0
  }
  scale_param {
    filler {
      type: "constant"
      value: 1
    }
    bias_term: true
    bias_filler {
      type: "constant"
      value: 0
    }
  }
}
layer {
  name: "conv5_2/dw_relu"
  type: "ReLU"
  bottom: "conv5_2/dw"
  top: "conv5_2/dw"
}
layer {
  name: "conv5_2/sep"
  type: "Convolution"
  bottom: "conv5_2/dw"
  top: "conv5_2/sep"
  param {
    lr_mult: 1
    decay_mult: 1
  }
  convolution_param {
    num_output: 512
    bias_term: false
    pad: 0
    kernel_size: 1
    group: 1
    stride: 1
    weight_filler {
      type: "gaussian"
      std: 0.01
    }
    engine: DEFAULT
  }
}
layer {
  name: "conv5_2/sep/bn"
  type: "BatchNorm"
  bottom: "conv5_2/sep"
  top: "conv5_2/sep"
  batch_norm_param {
    moving_average_fraction: 0.999
    eps: 0.001
  }
}
layer {
  name: "conv5_2/sep/scale"
  type: "Scale"
  bottom: "conv5_2/sep"
  top: "conv5_2/sep"
  param {
    lr_mult: 1
    decay_mult: 0
  }
  param {
    lr_mult: 1
    decay_mult: 0
  }
  scale_param {
    filler {
      type: "constant"
      value: 1
    }
    bias_term: true
    bias_filler {
      type: "constant"
      value: 0
    }
  }
}
layer {
  name: "conv5_2/sep_relu"
  type: "ReLU"
  bottom: "conv5_2/sep"
  top: "conv5_2/sep"
}
layer {
  name: "conv5_3/dw"
  type: "Convolution"
  bottom: "conv5_2/sep"
  top: "conv5_3/dw"
  param {
    lr_mult: 1
    decay_mult: 1
  }
  convolution_param {
    num_output: 512
    bias_term: false
    pad: 1
    kernel_size: 3
    group: 512
    stride: 1
    weight_filler {
      type: "gaussian"
      std: 0.01
    }
    engine: CAFFE
  }
}
layer {
  name: "conv5_3/dw/bn"
  type: "BatchNorm"
  bottom: "conv5_3/dw"
  top: "conv5_3/dw"
  batch_norm_param {
    moving_average_fraction: 0.999
    eps: 0.001
  }
}
layer {
  name: "conv5_3/dw/scale"
  type: "Scale"
  bottom: "conv5_3/dw"
  top: "conv5_3/dw"
  param {
    lr_mult: 1
    decay_mult: 0
  }
  param {
    lr_mult: 1
    decay_mult: 0
  }
  scale_param {
    filler {
      type: "constant"
      value: 1
    }
    bias_term: true
    bias_filler {
      type: "constant"
      value: 0
    }
  }
}
layer {
  name: "conv5_3/dw_relu"
  type: "ReLU"
  bottom: "conv5_3/dw"
  top: "conv5_3/dw"
}
layer {
  name: "conv5_3/sep"
  type: "Convolution"
  bottom: "conv5_3/dw"
  top: "conv5_3/sep"
  param {
    lr_mult: 1
    decay_mult: 1
  }
  convolution_param {
    num_output: 512
    bias_term: false
    pad: 0
    kernel_size: 1
    group: 1
    stride: 1
    weight_filler {
      type: "gaussian"
      std: 0.01
    }
    engine: DEFAULT
  }
}
layer {
  name: "conv5_3/sep/bn"
  type: "BatchNorm"
  bottom: "conv5_3/sep"
  top: "conv5_3/sep"
  batch_norm_param {
    moving_average_fraction: 0.999
    eps: 0.001
  }
}
layer {
  name: "conv5_3/sep/scale"
  type: "Scale"
  bottom: "conv5_3/sep"
  top: "conv5_3/sep"
  param {
    lr_mult: 1
    decay_mult: 0
  }
  param {
    lr_mult: 1
    decay_mult: 0
  }
  scale_param {
    filler {
      type: "constant"
      value: 1
    }
    bias_term: true
    bias_filler {
      type: "constant"
      value: 0
    }
  }
}
layer {
  name: "conv5_3/sep_relu"
  type: "ReLU"
  bottom: "conv5_3/sep"
  top: "conv5_3/sep"
}
layer {
  name: "conv5_4/dw"
  type: "Convolution"
  bottom: "conv5_3/sep"
  top: "conv5_4/dw"
  param {
    lr_mult: 1
    decay_mult: 1
  }
  convolution_param {
    num_output: 512
    bias_term: false
    pad: 1
    kernel_size: 3
    group: 512
    stride: 1
    weight_filler {
      type: "gaussian"
      std: 0.01
    }
    engine: CAFFE
  }
}
layer {
  name: "conv5_4/dw/bn"
  type: "BatchNorm"
  bottom: "conv5_4/dw"
  top: "conv5_4/dw"
  batch_norm_param {
    moving_average_fraction: 0.999
    eps: 0.001
  }
}
layer {
  name: "conv5_4/dw/scale"
  type: "Scale"
  bottom: "conv5_4/dw"
  top: "conv5_4/dw"
  param {
    lr_mult: 1
    decay_mult: 0
  }
  param {
    lr_mult: 1
    decay_mult: 0
  }
  scale_param {
    filler {
      type: "constant"
      value: 1
    }
    bias_term: true
    bias_filler {
      type: "constant"
      value: 0
    }
  }
}
layer {
  name: "conv5_4/dw_relu"
  type: "ReLU"
…
I0828 13:26:45.882254 19238 net.cpp:150] Setting up conv5_6/dw_relu
I0828 13:26:45.882264 19238 net.cpp:157] Top shape: 8 512 10 10 (409600)
I0828 13:26:45.882267 19238 net.cpp:165] Memory required for data: 1228214336
I0828 13:26:45.882270 19238 layer_factory.hpp:77] Creating layer conv5_6/sep
I0828 13:26:45.882279 19238 net.cpp:100] Creating Layer conv5_6/sep
I0828 13:26:45.882282 19238 net.cpp:434] conv5_6/sep <- conv5_6/dw
I0828 13:26:45.882287 19238 net.cpp:408] conv5_6/sep -> conv5_6/sep
I0828 13:26:45.888041 19238 net.cpp:150] Setting up conv5_6/sep
I0828 13:26:45.888054 19238 net.cpp:157] Top shape: 8 1024 10 10 (819200)
I0828 13:26:45.888057 19238 net.cpp:165] Memory required for data: 1231491136
I0828 13:26:45.888062 19238 layer_factory.hpp:77] Creating layer conv5_6/sep/bn
I0828 13:26:45.888067 19238 net.cpp:100] Creating Layer conv5_6/sep/bn
I0828 13:26:45.888072 19238 net.cpp:434] conv5_6/sep/bn <- conv5_6/sep
I0828 13:26:45.888077 19238 net.cpp:395] conv5_6/sep/bn -> conv5_6/sep (in-place)
I0828 13:26:45.888257 19238 net.cpp:150] Setting up conv5_6/sep/bn
I0828 13:26:45.888263 19238 net.cpp:157] Top shape: 8 1024 10 10 (819200)
I0828 13:26:45.888265 19238 net.cpp:165] Memory required for data: 1234767936
I0828 13:26:45.888272 19238 layer_factory.hpp:77] Creating layer conv5_6/sep/scale
I0828 13:26:45.888278 19238 net.cpp:100] Creating Layer conv5_6/sep/scale
I0828 13:26:45.888280 19238 net.cpp:434] conv5_6/sep/scale <- conv5_6/sep
I0828 13:26:45.888285 19238 net.cpp:395] conv5_6/sep/scale -> conv5_6/sep (in-place)
I0828 13:26:45.888330 19238 layer_factory.hpp:77] Creating layer conv5_6/sep/scale
I0828 13:26:45.888460 19238 net.cpp:150] Setting up conv5_6/sep/scale
I0828 13:26:45.888468 19238 net.cpp:157] Top shape: 8 1024 10 10 (819200)
I0828 13:26:45.888471 19238 net.cpp:165] Memory required for data: 1238044736
I0828 13:26:45.888475 19238 layer_factory.hpp:77] Creating layer conv5_6/sep_relu
I0828 13:26:45.888480 19238 net.cpp:100] Creating Layer conv5_6/sep_relu
I0828 13:26:45.888484 19238 net.cpp:434] conv5_6/sep_relu <- conv5_6/sep
I0828 13:26:45.888489 19238 net.cpp:395] conv5_6/sep_relu -> conv5_6/sep (in-place)
I0828 13:26:45.889078 19238 net.cpp:150] Setting up conv5_6/sep_relu
I0828 13:26:45.889088 19238 net.cpp:157] Top shape: 8 1024 10 10 (819200)
I0828 13:26:45.889101 19238 net.cpp:165] Memory required for data: 1241321536
I0828 13:26:45.889104 19238 layer_factory.hpp:77] Creating layer conv6/dw
I0828 13:26:45.889116 19238 net.cpp:100] Creating Layer conv6/dw
I0828 13:26:45.889119 19238 net.cpp:434] conv6/dw <- conv5_6/sep
I0828 13:26:45.889125 19238 net.cpp:408] conv6/dw -> conv6/dw
I0828 13:26:45.889384 19238 net.cpp:150] Setting up conv6/dw
I0828 13:26:45.889390 19238 net.cpp:157] Top shape: 8 1024 10 10 (819200)
I0828 13:26:45.889392 19238 net.cpp:165] Memory required for data: 1244598336
I0828 13:26:45.889397 19238 layer_factory.hpp:77] Creating layer conv6/dw/bn
I0828 13:26:45.889403 19238 net.cpp:100] Creating Layer conv6/dw/bn
I0828 13:26:45.889406 19238 net.cpp:434] conv6/dw/bn <- conv6/dw
I0828 13:26:45.889410 19238 net.cpp:395] conv6/dw/bn -> conv6/dw (in-place)
I0828 13:26:45.889576 19238 net.cpp:150] Setting up conv6/dw/bn
I0828 13:26:45.889583 19238 net.cpp:157] Top shape: 8 1024 10 10 (819200)
I0828 13:26:45.889585 19238 net.cpp:165] Memory required for data: 1247875136
I0828 13:26:45.889591 19238 layer_factory.hpp:77] Creating layer conv6/dw/scale
I0828 13:26:45.889598 19238 net.cpp:100] Creating Layer conv6/dw/scale
I0828 13:26:45.889601 19238 net.cpp:434] conv6/dw/scale <- conv6/dw
I0828 13:26:45.889605 19238 net.cpp:395] conv6/dw/scale -> conv6/dw (in-place)
I0828 13:26:45.889649 19238 layer_factory.hpp:77] Creating layer conv6/dw/scale
I0828 13:26:45.889752 19238 net.cpp:150] Setting up conv6/dw/scale
I0828 13:26:45.889758 19238 net.cpp:157] Top shape: 8 1024 10 10 (819200)
I0828 13:26:45.889761 19238 net.cpp:165] Memory required for data: 1251151936
I0828 13:26:45.889770 19238 layer_factory.hpp:77] Creating layer conv6/dw_relu
I0828 13:26:45.889776 19238 net.cpp:100] Creating Layer conv6/dw_relu
I0828 13:26:45.889780 19238 net.cpp:434] conv6/dw_relu <- conv6/dw
I0828 13:26:45.889784 19238 net.cpp:395] conv6/dw_relu -> conv6/dw (in-place)
I0828 13:26:45.889953 19238 net.cpp:150] Setting up conv6/dw_relu
I0828 13:26:45.889961 19238 net.cpp:157] Top shape: 8 1024 10 10 (819200)
I0828 13:26:45.889966 19238 net.cpp:165] Memory required for data: 1254428736
I0828 13:26:45.889971 19238 layer_factory.hpp:77] Creating layer conv6/sep
I0828 13:26:45.889978 19238 net.cpp:100] Creating Layer conv6/sep
I0828 13:26:45.889981 19238 net.cpp:434] conv6/sep <- conv6/dw
I0828 13:26:45.889987 19238 net.cpp:408] conv6/sep -> conv6/sep
I0828 13:26:45.900653 19238 net.cpp:150] Setting up conv6/sep
I0828 13:26:45.900665 19238 net.cpp:157] Top shape: 8 1024 10 10 (819200)
I0828 13:26:45.900671 19238 net.cpp:165] Memory required for data: 1257705536
I0828 13:26:45.900677 19238 layer_factory.hpp:77] Creating layer conv6/sep/bn
I0828 13:26:45.900686 19238 net.cpp:100] Creating Layer conv6/sep/bn
I0828 13:26:45.900689 19238 net.cpp:434] conv6/sep/bn <- conv6/sep
I0828 13:26:45.900694 19238 net.cpp:395] conv6/sep/bn -> conv6/sep (in-place)
I0828 13:26:45.900876 19238 net.cpp:150] Setting up conv6/sep/bn
I0828 13:26:45.900883 19238 net.cpp:157] Top shape: 8 1024 10 10 (819200)
I0828 13:26:45.900887 19238 net.cpp:165] Memory required for data: 1260982336
I0828 13:26:45.900892 19238 layer_factory.hpp:77] Creating layer conv6/sep/scale
I0828 13:26:45.900899 19238 net.cpp:100] Creating Layer conv6/sep/scale
I0828 13:26:45.900903 19238 net.cpp:434] conv6/sep/scale <- conv6/sep
I0828 13:26:45.900908 19238 net.cpp:395] conv6/sep/scale -> conv6/sep (in-place)
I0828 13:26:45.900954 19238 layer_factory.hpp:77] Creating layer conv6/sep/scale
I0828 13:26:45.901059 19238 net.cpp:150] Setting up conv6/sep/scale
I0828 13:26:45.901067 19238 net.cpp:157] Top shape: 8 1024 10 10 (819200)
I0828 13:26:45.901072 19238 net.cpp:165] Memory required for data: 1264259136
I0828 13:26:45.901077 19238 layer_factory.hpp:77] Creating layer conv6/sep_relu
I0828 13:26:45.901083 19238 net.cpp:100] Creating Layer conv6/sep_relu
I0828 13:26:45.901087 19238 net.cpp:434] conv6/sep_relu <- conv6/sep
I0828 13:26:45.901091 19238 net.cpp:395] conv6/sep_relu -> conv6/sep (in-place)
I0828 13:26:45.901679 19238 net.cpp:150] Setting up conv6/sep_relu
I0828 13:26:45.901700 19238 net.cpp:157] Top shape: 8 1024 10 10 (819200)
I0828 13:26:45.901703 19238 net.cpp:165] Memory required for data: 1267535936
I0828 13:26:45.901706 19238 layer_factory.hpp:77] Creating layer conv6/sep_conv6/sep_relu_0_split
I0828 13:26:45.901712 19238 net.cpp:100] Creating Layer conv6/sep_conv6/sep_relu_0_split
I0828 13:26:45.901715 19238 net.cpp:434] conv6/sep_conv6/sep_relu_0_split <- conv6/sep
I0828 13:26:45.901724 19238 net.cpp:408] conv6/sep_conv6/sep_relu_0_split -> conv6/sep_conv6/sep_relu_0_split_0
I0828 13:26:45.901732 19238 net.cpp:408] conv6/sep_conv6/sep_relu_0_split -> conv6/sep_conv6/sep_relu_0_split_1
I0828 13:26:45.901737 19238 net.cpp:408] conv6/sep_conv6/sep_relu_0_split -> conv6/sep_conv6/sep_relu_0_split_2
I0828 13:26:45.901743 19238 net.cpp:408] conv6/sep_conv6/sep_relu_0_split -> conv6/sep_conv6/sep_relu_0_split_3
I0828 13:26:45.901800 19238 net.cpp:150] Setting up conv6/sep_conv6/sep_relu_0_split
I0828 13:26:45.901806 19238 net.cpp:157] Top shape: 8 1024 10 10 (819200)
I0828 13:26:45.901810 19238 net.cpp:157] Top shape: 8 1024 10 10 (819200)
I0828 13:26:45.901813 19238 net.cpp:157] Top shape: 8 1024 10 10 (819200)
I0828 13:26:45.901816 19238 net.cpp:157] Top shape: 8 1024 10 10 (819200)
I0828 13:26:45.901819 19238 net.cpp:165] Memory required for data: 1280643136
I0828 13:26:45.901823 19238 layer_factory.hpp:77] Creating layer conv7_1
I0828 13:26:45.901830 19238 net.cpp:100] Creating Layer conv7_1
I0828 13:26:45.901834 19238 net.cpp:434] conv7_1 <- conv6/sep_conv6/sep_relu_0_split_0
I0828 13:26:45.901839 19238 net.cpp:408] conv7_1 -> conv7_1
I0828 13:26:45.904934 19238 net.cpp:150] Setting up conv7_1
I0828 13:26:45.904944 19238 net.cpp:157] Top shape: 8 256 10 10 (204800)
I0828 13:26:45.904947 19238 net.cpp:165] Memory required for data: 1281462336
I0828 13:26:45.904953 19238 layer_factory.hpp:77] Creating layer conv7_1_relu
I0828 13:26:45.904960 19238 net.cpp:100] Creating Layer conv7_1_relu
I0828 13:26:45.904965 19238 net.cpp:434] conv7_1_relu <- conv7_1
I0828 13:26:45.904971 19238 net.cpp:395] conv7_1_relu -> conv7_1 (in-place)
I0828 13:26:45.905144 19238 net.cpp:150] Setting up conv7_1_relu
I0828 13:26:45.905153 19238 net.cpp:157] Top shape: 8 256 10 10 (204800)
I0828 13:26:45.905156 19238 net.cpp:165] Memory required for data: 1282281536
I0828 13:26:45.905161 19238 layer_factory.hpp:77] Creating layer conv7_2
I0828 13:26:45.905172 19238 net.cpp:100] Creating Layer conv7_2
I0828 13:26:45.905176 19238 net.cpp:434] conv7_2 <- conv7_1
I0828 13:26:45.905181 19238 net.cpp:408] conv7_2 -> conv7_2
I0828 13:26:45.912948 19238 net.cpp:150] Setting up conv7_2
I0828 13:26:45.912961 19238 net.cpp:157] Top shape: 8 512 5 5 (102400)
I0828 13:26:45.912963 19238 net.cpp:165] Memory required for data: 1282691136
I0828 13:26:45.912969 19238 layer_factory.hpp:77] Creating layer conv7_2_relu
I0828 13:26:45.912976 19238 net.cpp:100] Creating Layer conv7_2_relu
I0828 13:26:45.912981 19238 net.cpp:434] conv7_2_relu <- conv7_2
I0828 13:26:45.912986 19238 net.cpp:395] conv7_2_relu -> conv7_2 (in-place)
I0828 13:26:45.913158 19238 net.cpp:150] Setting up conv7_2_relu
I0828 13:26:45.913166 19238 net.cpp:157] Top shape: 8 512 5 5 (102400)
I0828 13:26:45.913169 19238 net.cpp:165] Memory required for data: 1283100736
I0828 13:26:45.913173 19238 layer_factory.hpp:77] Creating layer conv7_2_conv7_2_relu_0_split
I0828 13:26:45.913182 19238 net.cpp:100] Creating Layer conv7_2_conv7_2_relu_0_split
I0828 13:26:45.913185 19238 net.cpp:434] conv7_2_conv7_2_relu_0_split <- conv7_2
I0828 13:26:45.913192 19238 net.cpp:408] conv7_2_conv7_2_relu_0_split -> conv7_2_conv7_2_relu_0_split_0
I0828 13:26:45.913198 19238 net.cpp:408] conv7_2_conv7_2_relu_0_split -> conv7_2_conv7_2_relu_0_split_1
I0828 13:26:45.913203 19238 net.cpp:408] conv7_2_conv7_2_relu_0_split -> conv7_2_conv7_2_relu_0_split_2
I0828 13:26:45.913208 19238 net.cpp:408] conv7_2_conv7_2_relu_0_split -> conv7_2_conv7_2_relu_0_split_3
I0828 13:26:45.913267 19238 net.cpp:150] Setting up conv7_2_conv7_2_relu_0_split
I0828 13:26:45.913274 19238 net.cpp:157] Top shape: 8 512 5 5 (102400)
I0828 13:26:45.913287 19238 net.cpp:157] Top shape: 8 512 5 5 (102400)
I0828 13:26:45.913290 19238 net.cpp:157] Top shape: 8 512 5 5 (102400)
I0828 13:26:45.913293 19238 net.cpp:157] Top shape: 8 512 5 5 (102400)
I0828 13:26:45.913296 19238 net.cpp:165] Memory required for data: 1284739136
I0828 13:26:45.913300 19238 layer_factory.hpp:77] Creating layer conv8_1
I0828 13:26:45.913308 19238 net.cpp:100] Creating Layer conv8_1
I0828 13:26:45.913313 19238 net.cpp:434] conv8_1 <- conv7_2_conv7_2_relu_0_split_0
I0828 13:26:45.913321 19238 net.cpp:408] conv8_1 -> conv8_1
I0828 13:26:45.916693 19238 net.cpp:150] Setting up conv8_1
I0828 13:26:45.916703 19238 net.cpp:157] Top shape: 8 128 5 5 (25600)
I0828 13:26:45.916707 19238 net.cpp:165] Memory required for data: 1284841536
I0828 13:26:45.916712 19238 layer_factory.hpp:77] Creating layer conv8_1_relu
I0828 13:26:45.916718 19238 net.cpp:100] Creating Layer conv8_1_relu
I0828 13:26:45.916721 19238 net.cpp:434] conv8_1_relu <- conv8_1
I0828 13:26:45.916730 19238 net.cpp:395] conv8_1_relu -> conv8_1 (in-place)
I0828 13:26:45.917315 19238 net.cpp:150] Setting up conv8_1_relu
I0828 13:26:45.917325 19238 net.cpp:157] Top shape: 8 128 5 5 (25600)
I0828 13:26:45.917327 19238 net.cpp:165] Memory required for data: 1284943936
I0828 13:26:45.917330 19238 layer_factory.hpp:77] Creating layer conv8_2
I0828 13:26:45.917340 19238 net.cpp:100] Creating Layer conv8_2
I0828 13:26:45.917343 19238 net.cpp:434] conv8_2 <- conv8_1
I0828 13:26:45.917348 19238 net.cpp:408] conv8_2 -> conv8_2
I0828 13:26:45.920922 19238 net.cpp:150] Setting up conv8_2
I0828 13:26:45.920933 19238 net.cpp:157] Top shape: 8 256 3 3 (18432)
I0828 13:26:45.920935 19238 net.cpp:165] Memory required for data: 1285017664
I0828 13:26:45.920941 19238 layer_factory.hpp:77] Creating layer conv8_2_relu
I0828 13:26:45.920948 19238 net.cpp:100] Creating Layer conv8_2_relu
I0828 13:26:45.920951 19238 net.cpp:434] conv8_2_relu <- conv8_2
I0828 13:26:45.920955 19238 net.cpp:395] conv8_2_relu -> conv8_2 (in-place)
I0828 13:26:45.921130 19238 net.cpp:150] Setting up conv8_2_relu
I0828 13:26:45.921138 19238 net.cpp:157] Top shape: 8 256 3 3 (18432)
I0828 13:26:45.921140 19238 net.cpp:165] Memory required for data: 1285091392
I0828 13:26:45.921144 19238 layer_factory.hpp:77] Creating layer conv8_2_conv8_2_relu_0_split
I0828 13:26:45.921149 19238 net.cpp:100] Creating Layer conv8_2_conv8_2_relu_0_split
I0828 13:26:45.921152 19238 net.cpp:434] conv8_2_conv8_2_relu_0_split <- conv8_2
I0828 13:26:45.921157 19238 net.cpp:408] conv8_2_conv8_2_relu_0_split -> conv8_2_conv8_2_relu_0_split_0
I0828 13:26:45.921164 19238 net.cpp:408] conv8_2_conv8_2_relu_0_split -> conv8_2_conv8_2_relu_0_split_1
I0828 13:26:45.921169 19238 net.cpp:408] conv8_2_conv8_2_relu_0_split -> conv8_2_conv8_2_relu_0_split_2
I0828 13:26:45.921176 19238 net.cpp:408] conv8_2_conv8_2_relu_0_split -> conv8_2_conv8_2_relu_0_split_3
I0828 13:26:45.921234 19238 net.cpp:150] Setting up conv8_2_conv8_2_relu_0_split
I0828 13:26:45.921239 19238 net.cpp:157] Top shape: 8 256 3 3 (18432)
I0828 13:26:45.921245 19238 net.cpp:157] Top shape: 8 256 3 3 (18432)
I0828 13:26:45.921250 19238 net.cpp:157] Top shape: 8 256 3 3 (18432)
I0828 13:26:45.921253 19238 net.cpp:157] Top shape: 8 256 3 3 (18432)
I0828 13:26:45.921257 19238 net.cpp:165] Memory required for data: 1285386304
I0828 13:26:45.921259 19238 layer_factory.hpp:77] Creating layer conv9_1
I0828 13:26:45.921267 19238 net.cpp:100] Creating Layer conv9_1
I0828 13:26:45.921270 19238 net.cpp:434] conv9_1 <- conv8_2_conv8_2_relu_0_split_0
I0828 13:26:45.921277 19238 net.cpp:408] conv9_1 -> conv9_1
I0828 13:26:45.923374 19238 net.cpp:150] Setting up conv9_1
I0828 13:26:45.923387 19238 net.cpp:157] Top shape: 8 128 3 3 (9216)
I0828 13:26:45.923390 19238 net.cpp:165] Memory required for data: 1285423168
I0828 13:26:45.923396 19238 layer_factory.hpp:77] Creating layer conv9_1_relu
I0828 13:26:45.923401 19238 net.cpp:100] Creating Layer conv9_1_relu
I0828 13:26:45.923404 19238 net.cpp:434] conv9_1_relu <- conv9_1
I0828 13:26:45.923420 19238 net.cpp:395] conv9_1_relu -> conv9_1 (in-place)
I0828 13:26:45.923594 19238 net.cpp:150] Setting up conv9_1_relu
I0828 13:26:45.923602 19238 net.cpp:157] Top shape: 8 128 3 3 (9216)
I0828 13:26:45.923605 19238 net.cpp:165] Memory required for data: 1285460032
I0828 13:26:45.923609 19238 layer_factory.hpp:77] Creating layer conv9_2
I0828 13:26:45.923617 19238 net.cpp:100] Creating Layer conv9_2
I0828 13:26:45.923621 19238 net.cpp:434] conv9_2 <- conv9_1
I0828 13:26:45.923626 19238 net.cpp:408] conv9_2 -> conv9_2
I0828 13:26:45.926906 19238 net.cpp:150] Setting up conv9_2
I0828 13:26:45.926918 19238 net.cpp:157] Top shape: 8 256 2 2 (8192)
I0828 13:26:45.926921 19238 net.cpp:165] Memory required for data: 1285492800
I0828 13:26:45.926928 19238 layer_factory.hpp:77] Creating layer conv9_2_relu
I0828 13:26:45.926934 19238 net.cpp:100] Creating Layer conv9_2_relu
I0828 13:26:45.926936 19238 net.cpp:434] conv9_2_relu <- conv9_2
I0828 13:26:45.926944 19238 net.cpp:395] conv9_2_relu -> conv9_2 (in-place)
I0828 13:26:45.927531 19238 net.cpp:150] Setting up conv9_2_relu
I0828 13:26:45.927541 19238 net.cpp:157] Top shape: 8 256 2 2 (8192)
I0828 13:26:45.927542 19238 net.cpp:165] Memory required for data: 1285525568
I0828 13:26:45.927544 19238 layer_factory.hpp:77] Creating layer conv9_2_conv9_2_relu_0_split
I0828 13:26:45.927549 19238 net.cpp:100] Creating Layer conv9_2_conv9_2_relu_0_split
I0828 13:26:45.927552 19238 net.cpp:434] conv9_2_conv9_2_relu_0_split <- conv9_2
I0828 13:26:45.927557 19238 net.cpp:408] conv9_2_conv9_2_relu_0_split -> conv9_2_conv9_2_relu_0_split_0
I0828 13:26:45.927562 19238 net.cpp:408] conv9_2_conv9_2_relu_0_split -> conv9_2_conv9_2_relu_0_split_1
I0828 13:26:45.927567 19238 net.cpp:408] conv9_2_conv9_2_relu_0_split -> conv9_2_conv9_2_relu_0_split_2
I0828 13:26:45.927572 19238 net.cpp:408] conv9_2_conv9_2_relu_0_split -> conv9_2_conv9_2_relu_0_split_3
I0828 13:26:45.927631 19238 net.cpp:150] Setting up conv9_2_conv9_2_relu_0_split
I0828 13:26:45.927637 19238 net.cpp:157] Top shape: 8 256 2 2 (8192)
I0828 13:26:45.927640 19238 net.cpp:157] Top shape: 8 256 2 2 (8192)
I0828 13:26:45.927644 19238 net.cpp:157] Top shape: 8 256 2 2 (8192)
I0828 13:26:45.927647 19238 net.cpp:157] Top shape: 8 256 2 2 (8192)
I0828 13:26:45.927649 19238 net.cpp:165] Memory required for data: 1285656640
I0828 13:26:45.927652 19238 layer_factory.hpp:77] Creating layer conv10_1
I0828 13:26:45.927664 19238 net.cpp:100] Creating Layer conv10_1
I0828 13:26:45.927667 19238 net.cpp:434] conv10_1 <- conv9_2_conv9_2_relu_0_split_0
I0828 13:26:45.927673 19238 net.cpp:408] conv10_1 -> conv10_1
I0828 13:26:45.929402 19238 net.cpp:150] Setting up conv10_1
I0828 13:26:45.929412 19238 net.cpp:157] Top shape: 8 128 2 2 (4096)
I0828 13:26:45.929415 19238 net.cpp:165] Memory required for data: 1285673024
I0828 13:26:45.929421 19238 layer_factory.hpp:77] Creating layer conv10_1_relu
I0828 13:26:45.929443 19238 net.cpp:100] Creating Layer conv10_1_relu
I0828 13:26:45.929447 19238 net.cpp:434] conv10_1_relu <- conv10_1
I0828 13:26:45.929451 19238 net.cpp:395] conv10_1_relu -> conv10_1 (in-place)
I0828 13:26:45.929672 19238 net.cpp:150] Setting up conv10_1_relu
I0828 13:26:45.929682 19238 net.cpp:157] Top shape: 8 128 2 2 (4096)
I0828 13:26:45.929684 19238 net.cpp:165] Memory required for data: 1285689408
I0828 13:26:45.929688 19238 layer_factory.hpp:77] Creating layer conv10_2
I0828 13:26:45.929698 19238 net.cpp:100] Creating Layer conv10_2
I0828 13:26:45.929702 19238 net.cpp:434] conv10_2 <- conv10_1
I0828 13:26:45.929708 19238 net.cpp:408] conv10_2 -> conv10_2
I0828 13:26:45.932986 19238 net.cpp:150] Setting up conv10_2
I0828 13:26:45.932997 19238 net.cpp:157] Top shape: 8 256 1 1 (2048)
I0828 13:26:45.933001 19238 net.cpp:165] Memory required for data: 1285697600
I0828 13:26:45.933007 19238 layer_factory.hpp:77] Creating layer conv10_2_relu
I0828 13:26:45.933012 19238 net.cpp:100] Creating Layer conv10_2_relu
I0828 13:26:45.933015 19238 net.cpp:434] conv10_2_relu <- conv10_2
I0828 13:26:45.933019 19238 net.cpp:395] conv10_2_relu -> conv10_2 (in-place)
I0828 13:26:45.933207 19238 net.cpp:150] Setting up conv10_2_relu
I0828 13:26:45.933214 19238 net.cpp:157] Top shape: 8 256 1 1 (2048)
I0828 13:26:45.933218 19238 net.cpp:165] Memory required for data: 1285705792
I0828 13:26:45.933220 19238 layer_factory.hpp:77] Creating layer conv10_2_conv10_2_relu_0_split
I0828 13:26:45.933226 19238 net.cpp:100] Creating Layer conv10_2_conv10_2_relu_0_split
I0828 13:26:45.933230 19238 net.cpp:434] conv10_2_conv10_2_relu_0_split <- conv10_2
I0828 13:26:45.933234 19238 net.cpp:408] conv10_2_conv10_2_relu_0_split -> conv10_2_conv10_2_relu_0_split_0
I0828 13:26:45.933253 19238 net.cpp:408] conv10_2_conv10_2_relu_0_split -> conv10_2_conv10_2_relu_0_split_1
I0828 13:26:45.933259 19238 net.cpp:408] conv10_2_conv10_2_relu_0_split -> conv10_2_conv10_2_relu_0_split_2
I0828 13:26:45.933305 19238 net.cpp:150] Setting up conv10_2_conv10_2_relu_0_split
I0828 13:26:45.933313 19238 net.cpp:157] Top shape: 8 256 1 1 (2048)
I0828 13:26:45.933317 19238 net.cpp:157] Top shape: 8 256 1 1 (2048)
I0828 13:26:45.933320 19238 net.cpp:157] Top shape: 8 256 1 1 (2048)
I0828 13:26:45.933323 19238 net.cpp:165] Memory required for data: 1285730368
I0828 13:26:45.933326 19238 layer_factory.hpp:77] Creating layer conv5_5/sep_mbox_loc
I0828 13:26:45.933336 19238 net.cpp:100] Creating Layer conv5_5/sep_mbox_loc
I0828 13:26:45.933338 19238 net.cpp:434] conv5_5/sep_mbox_loc <- conv5_5/sep_conv5_5/sep_relu_0_split_1
I0828 13:26:45.933344 19238 net.cpp:408] conv5_5/sep_mbox_loc -> conv5_5/sep_mbox_loc
I0828 13:26:45.935567 19238 net.cpp:150] Setting up conv5_5/sep_mbox_loc
I0828 13:26:45.935578 19238 net.cpp:157] Top shape: 8 12 19 19 (34656)
I0828 13:26:45.935582 19238 net.cpp:165] Memory required for data: 1285868992
I0828 13:26:45.935587 19238 layer_factory.hpp:77] Creating layer conv5_5/sep_mbox_loc_perm
I0828 13:26:45.935595 19238 net.cpp:100] Creating Layer conv5_5/sep_mbox_loc_perm
I0828 13:26:45.935598 19238 net.cpp:434] conv5_5/sep_mbox_loc_perm <- conv5_5/sep_mbox_loc
I0828 13:26:45.935603 19238 net.cpp:408] conv5_5/sep_mbox_loc_perm -> conv5_5/sep_mbox_loc_perm
I0828 13:26:45.935693 19238 net.cpp:150] Setting up conv5_5/sep_mbox_loc_perm
I0828 13:26:45.935701 19238 net.cpp:157] Top shape: 8 19 19 12 (34656)
I0828 13:26:45.935705 19238 net.cpp:165] Memory required for data: 1286007616
I0828 13:26:45.935709 19238 layer_factory.hpp:77] Creating layer conv5_5/sep_mbox_loc_flat
I0828 13:26:45.935716 19238 net.cpp:100] Creating Layer conv5_5/sep_mbox_loc_flat
I0828 13:26:45.935719 19238 net.cpp:434] conv5_5/sep_mbox_loc_flat <- conv5_5/sep_mbox_loc_perm
I0828 13:26:45.935724 19238 net.cpp:408] conv5_5/sep_mbox_loc_flat -> conv5_5/sep_mbox_loc_flat
I0828 13:26:45.935748 19238 net.cpp:150] Setting up conv5_5/sep_mbox_loc_flat
I0828 13:26:45.935752 19238 net.cpp:157] Top shape: 8 4332 (34656)
I0828 13:26:45.935755 19238 net.cpp:165] Memory required for data: 1286146240
I0828 13:26:45.935757 19238 layer_factory.hpp:77] Creating layer conv5_5/sep_mbox_conf
I0828 13:26:45.935767 19238 net.cpp:100] Creating Layer conv5_5/sep_mbox_conf
I0828 13:26:45.935773 19238 net.cpp:434] conv5_5/sep_mbox_conf <- conv5_5/sep_conv5_5/sep_relu_0_split_2
I0828 13:26:45.935780 19238 net.cpp:408] conv5_5/sep_mbox_conf -> conv5_5/sep_mbox_conf
I0828 13:26:45.938019 19238 net.cpp:150] Setting up conv5_5/sep_mbox_conf
I0828 13:26:45.938029 19238 net.cpp:157] Top shape: 8 12 19 19 (34656)
I0828 13:26:45.938032 19238 net.cpp:165] Memory required for data: 1286284864
I0828 13:26:45.938038 19238 layer_factory.hpp:77] Creating layer conv5_5/sep_mbox_conf_perm
I0828 13:26:45.938048 19238 net.cpp:100] Creating Layer conv5_5/sep_mbox_conf_perm
I0828 13:26:45.938052 19238 net.cpp:434] conv5_5/sep_mbox_conf_perm <- conv5_5/sep_mbox_conf
I0828 13:26:45.938057 19238 net.cpp:408] conv5_5/sep_mbox_conf_perm -> conv5_5/sep_mbox_conf_perm
I0828 13:26:45.938146 19238 net.cpp:150] Setting up conv5_5/sep_mbox_conf_perm
I0828 13:26:45.938153 19238 net.cpp:157] Top shape: 8 19 19 12 (34656)
I0828 13:26:45.938155 19238 net.cpp:165] Memory required for data: 1286423488
I0828 13:26:45.938168 19238 layer_factory.hpp:77] Creating layer conv5_5/sep_mbox_conf_flat
I0828 13:26:45.938175 19238 net.cpp:100] Creating Layer conv5_5/sep_mbox_conf_flat
I0828 13:26:45.938181 19238 net.cpp:434] conv5_5/sep_mbox_conf_flat <- conv5_5/sep_mbox_conf_perm
I0828 13:26:45.938186 19238 net.cpp:408] conv5_5/sep_mbox_conf_flat -> conv5_5/sep_mbox_conf_flat
I0828 13:26:45.938212 19238 net.cpp:150] Setting up conv5_5/sep_mbox_conf_flat
I0828 13:26:45.938217 19238 net.cpp:157] Top shape: 8 4332 (34656)
I0828 13:26:45.938220 19238 net.cpp:165] Memory required for data: 1286562112
I0828 13:26:45.938223 19238 layer_factory.hpp:77] Creating layer conv5_5/sep_mbox_priorbox
I0828 13:26:45.938230 19238 net.cpp:100] Creating Layer conv5_5/sep_mbox_priorbox
I0828 13:26:45.938233 19238 net.cpp:434] conv5_5/sep_mbox_priorbox <- conv5_5/sep_conv5_5/sep_relu_0_split_3
I0828 13:26:45.938237 19238 net.cpp:434] conv5_5/sep_mbox_priorbox <- data_data_0_split_1
I0828 13:26:45.938244 19238 net.cpp:408] conv5_5/sep_mbox_priorbox -> conv5_5/sep_mbox_priorbox
I0828 13:26:45.938272 19238 net.cpp:150] Setting up conv5_5/sep_mbox_priorbox
I0828 13:26:45.938277 19238 net.cpp:157] Top shape: 1 2 4332 (8664)
I0828 13:26:45.938279 19238 net.cpp:165] Memory required for data: 1286596768
I0828 13:26:45.938282 19238 layer_factory.hpp:77] Creating layer conv6/sep_mbox_loc
I0828 13:26:45.938290 19238 net.cpp:100] Creating Layer conv6/sep_mbox_loc
I0828 13:26:45.938293 19238 net.cpp:434] conv6/sep_mbox_loc <- conv6/sep_conv6/sep_relu_0_split_1
I0828 13:26:45.938299 19238 net.cpp:408] conv6/sep_mbox_loc -> conv6/sep_mbox_loc
I0828 13:26:45.942042 19238 net.cpp:150] Setting up conv6/sep_mbox_loc
I0828 13:26:45.942054 19238 net.cpp:157] Top shape: 8 24 10 10 (19200)
I0828 13:26:45.942059 19238 net.cpp:165] Memory required for data: 1286673568
I0828 13:26:45.942065 19238 layer_factory.hpp:77] Creating layer conv6/sep_mbox_loc_perm
I0828 13:26:45.942071 19238 net.cpp:100] Creating Layer conv6/sep_mbox_loc_perm
I0828 13:26:45.942075 19238 net.cpp:434] conv6/sep_mbox_loc_perm <- conv6/sep_mbox_loc
I0828 13:26:45.942080 19238 net.cpp:408] conv6/sep_mbox_loc_perm -> conv6/sep_mbox_loc_perm
I0828 13:26:45.942173 19238 net.cpp:150] Setting up conv6/sep_mbox_loc_perm
I0828 13:26:45.942179 19238 net.cpp:157] Top shape: 8 10 10 24 (19200)
I0828 13:26:45.942183 19238 net.cpp:165] Memory required for data: 1286750368
I0828 13:26:45.942188 19238 layer_factory.hpp:77] Creating layer conv6/sep_mbox_loc_flat
I0828 13:26:45.942195 19238 net.cpp:100] Creating Layer conv6/sep_mbox_loc_flat
I0828 13:26:45.942198 19238 net.cpp:434] conv6/sep_mbox_loc_flat <- conv6/sep_mbox_loc_perm
I0828 13:26:45.942203 19238 net.cpp:408] conv6/sep_mbox_loc_flat -> conv6/sep_mbox_loc_flat
I0828 13:26:45.942224 19238 net.cpp:150] Setting up conv6/sep_mbox_loc_flat
I0828 13:26:45.942229 19238 net.cpp:157] Top shape: 8 2400 (19200)
I0828 13:26:45.942231 19238 net.cpp:165] Memory required for data: 1286827168
I0828 13:26:45.942234 19238 layer_factory.hpp:77] Creating layer conv6/sep_mbox_conf
I0828 13:26:45.942243 19238 net.cpp:100] Creating Layer conv6/sep_mbox_conf
I0828 13:26:45.942246 19238 net.cpp:434] conv6/sep_mbox_conf <- conv6/sep_conv6/sep_relu_0_split_2
I0828 13:26:45.942253 19238 net.cpp:408] conv6/sep_mbox_conf -> conv6/sep_mbox_conf
I0828 13:26:45.945600 19238 net.cpp:150] Setting up conv6/sep_mbox_conf
I0828 13:26:45.945611 19238 net.cpp:157] Top shape: 8 24 10 10 (19200)
I0828 13:26:45.945616 19238 net.cpp:165] Memory required for data: 1286903968
I0828 13:26:45.945622 19238 layer_factory.hpp:77] Creating layer conv6/sep_mbox_conf_perm
I0828 13:26:45.945629 19238 net.cpp:100] Creating Layer conv6/sep_mbox_conf_perm
I0828 13:26:45.945633 19238 net.cpp:434] conv6/sep_mbox_conf_perm <- conv6/sep_mbox_conf
I0828 13:26:45.945638 19238 net.cpp:408] conv6/sep_mbox_conf_perm -> conv6/sep_mbox_conf_perm
I0828 13:26:45.945730 19238 net.cpp:150] Setting up conv6/sep_mbox_conf_perm
I0828 13:26:45.945739 19238 net.cpp:157] Top shape: 8 10 10 24 (19200)
I0828 13:26:45.945753 19238 net.cpp:165] Memory required for data: 1286980768
I0828 13:26:45.945757 19238 layer_factory.hpp:77] Creating layer conv6/sep_mbox_conf_flat
I0828 13:26:45.945763 19238 net.cpp:100] Creating Layer conv6/sep_mbox_conf_flat
I0828 13:26:45.945767 19238 net.cpp:434] conv6/sep_mbox_conf_flat <- conv6/sep_mbox_conf_perm
I0828 13:26:45.945771 19238 net.cpp:408] conv6/sep_mbox_conf_flat -> conv6/sep_mbox_conf_flat
I0828 13:26:45.945796 19238 net.cpp:150] Setting up conv6/sep_mbox_conf_flat
I0828 13:26:45.945801 19238 net.cpp:157] Top shape: 8 2400 (19200)
I0828 13:26:45.945804 19238 net.cpp:165] Memory required for data: 1287057568
I0828 13:26:45.945807 19238 layer_factory.hpp:77] Creating layer conv6/sep_mbox_priorbox
I0828 13:26:45.945814 19238 net.cpp:100] Creating Layer conv6/sep_mbox_priorbox
I0828 13:26:45.945819 19238 net.cpp:434] conv6/sep_mbox_priorbox <- conv6/sep_conv6/sep_relu_0_split_3
I0828 13:26:45.945823 19238 net.cpp:434] conv6/sep_mbox_priorbox <- data_data_0_split_2
I0828 13:26:45.945829 19238 net.cpp:408] conv6/sep_mbox_priorbox -> conv6/sep_mbox_priorbox
I0828 13:26:45.945853 19238 net.cpp:150] Setting up conv6/sep_mbox_priorbox
I0828 13:26:45.945858 19238 net.cpp:157] Top shape: 1 2 2400 (4800)
I0828 13:26:45.945861 19238 net.cpp:165] Memory required for data: 1287076768
I0828 13:26:45.945863 19238 layer_factory.hpp:77] Creating layer conv7_2_mbox_loc
I0828 13:26:45.945871 19238 net.cpp:100] Creating Layer conv7_2_mbox_loc
I0828 13:26:45.945875 19238 net.cpp:434] conv7_2_mbox_loc <- conv7_2_conv7_2_relu_0_split_1
I0828 13:26:45.945881 19238 net.cpp:408] conv7_2_mbox_loc -> conv7_2_mbox_loc
I0828 13:26:45.948345 19238 net.cpp:150] Setting up conv7_2_mbox_loc
I0828 13:26:45.948356 19238 net.cpp:157] Top shape: 8 24 5 5 (4800)
I0828 13:26:45.948359 19238 net.cpp:165] Memory required for data: 1287095968
I0828 13:26:45.948364 19238 layer_factory.hpp:77] Creating layer conv7_2_mbox_loc_perm
I0828 13:26:45.948370 19238 net.cpp:100] Creating Layer conv7_2_mbox_loc_perm
I0828 13:26:45.948374 19238 net.cpp:434] conv7_2_mbox_loc_perm <- conv7_2_mbox_loc
I0828 13:26:45.948380 19238 net.cpp:408] conv7_2_mbox_loc_perm -> conv7_2_mbox_loc_perm
I0828 13:26:45.948478 19238 net.cpp:150] Setting up conv7_2_mbox_loc_perm
I0828 13:26:45.948484 19238 net.cpp:157] Top shape: 8 5 5 24 (4800)
I0828 13:26:45.948487 19238 net.cpp:165] Memory required for data: 1287115168
I0828 13:26:45.948489 19238 layer_factory.hpp:77] Creating layer conv7_2_mbox_loc_flat
I0828 13:26:45.948494 19238 net.cpp:100] Creating Layer conv7_2_mbox_loc_flat
I0828 13:26:45.948498 19238 net.cpp:434] conv7_2_mbox_loc_flat <- conv7_2_mbox_loc_perm
I0828 13:26:45.948504 19238 net.cpp:408] conv7_2_mbox_loc_flat -> conv7_2_mbox_loc_flat
I0828 13:26:45.948527 19238 net.cpp:150] Setting up conv7_2_mbox_loc_flat
I0828 13:26:45.948532 19238 net.cpp:157] Top shape: 8 600 (4800)
I0828 13:26:45.948535 19238 net.cpp:165] Memory required for data: 1287134368
I0828 13:26:45.948539 19238 layer_factory.hpp:77] Creating layer conv7_2_mbox_conf
I0828 13:26:45.948549 19238 net.cpp:100] Creating Layer conv7_2_mbox_conf
I0828 13:26:45.948554 19238 net.cpp:434] conv7_2_mbox_conf <- conv7_2_conv7_2_relu_0_split_2
I0828 13:26:45.948559 19238 net.cpp:408] conv7_2_mbox_conf -> conv7_2_mbox_conf
I0828 13:26:45.951025 19238 net.cpp:150] Setting up conv7_2_mbox_conf
I0828 13:26:45.951035 19238 net.cpp:157] Top shape: 8 24 5 5 (4800)
I0828 13:26:45.951037 19238 net.cpp:165] Memory required for data: 1287153568
I0828 13:26:45.951042 19238 layer_factory.hpp:77] Creating layer conv7_2_mbox_conf_perm
I0828 13:26:45.951050 19238 net.cpp:100] Creating Layer conv7_2_mbox_conf_perm
I0828 13:26:45.951053 19238 net.cpp:434] conv7_2_mbox_conf_perm <- conv7_2_mbox_conf
I0828 13:26:45.951062 19238 net.cpp:408] conv7_2_mbox_conf_perm -> conv7_2_mbox_conf_perm
I0828 13:26:45.951159 19238 net.cpp:150] Setting up conv7_2_mbox_conf_perm
I0828 13:26:45.951165 19238 net.cpp:157] Top shape: 8 5 5 24 (4800)
I0828 13:26:45.951167 19238 net.cpp:165] Memory required for data: 1287172768
I0828 13:26:45.951179 19238 layer_factory.hpp:77] Creating layer conv7_2_mbox_conf_flat
I0828 13:26:45.951184 19238 net.cpp:100] Creating Layer conv7_2_mbox_conf_flat
I0828 13:26:45.951189 19238 net.cpp:434] conv7_2_mbox_conf_flat <- conv7_2_mbox_conf_perm
I0828 13:26:45.951196 19238 net.cpp:408] conv7_2_mbox_conf_flat -> conv7_2_mbox_conf_flat
I0828 13:26:45.951222 19238 net.cpp:150] Setting up conv7_2_mbox_conf_flat
I0828 13:26:45.951227 19238 net.cpp:157] Top shape: 8 600 (4800)
I0828 13:26:45.951230 19238 net.cpp:165] Memory required for data: 1287191968
I0828 13:26:45.951231 19238 layer_factory.hpp:77] Creating layer conv7_2_mbox_priorbox
I0828 13:26:45.951238 19238 net.cpp:100] Creating Layer conv7_2_mbox_priorbox
I0828 13:26:45.951242 19238 net.cpp:434] conv7_2_mbox_priorbox <- conv7_2_conv7_2_relu_0_split_3
I0828 13:26:45.951246 19238 net.cpp:434] conv7_2_mbox_priorbox <- data_data_0_split_3
I0828 13:26:45.951252 19238 net.cpp:408] conv7_2_mbox_priorbox -> conv7_2_mbox_priorbox
I0828 13:26:45.951280 19238 net.cpp:150] Setting up conv7_2_mbox_priorbox
I0828 13:26:45.951287 19238 net.cpp:157] Top shape: 1 2 600 (1200)
I0828 13:26:45.951289 19238 net.cpp:165] Memory required for data: 1287196768
I0828 13:26:45.951292 19238 layer_factory.hpp:77] Creating layer conv8_2_mbox_loc
I0828 13:26:45.951299 19238 net.cpp:100] Creating Layer conv8_2_mbox_loc
I0828 13:26:45.951303 19238 net.cpp:434] conv8_2_mbox_loc <- conv8_2_conv8_2_relu_0_split_1
I0828 13:26:45.951309 19238 net.cpp:408] conv8_2_mbox_loc -> conv8_2_mbox_loc
I0828 13:26:45.953574 19238 net.cpp:150] Setting up conv8_2_mbox_loc
I0828 13:26:45.953584 19238 net.cpp:157] Top shape: 8 24 3 3 (1728)
I0828 13:26:45.953588 19238 net.cpp:165] Memory required for data: 1287203680
I0828 13:26:45.953594 19238 layer_factory.hpp:77] Creating layer conv8_2_mbox_loc_perm
I0828 13:26:45.953603 19238 net.cpp:100] Creating Layer conv8_2_mbox_loc_perm
I0828 13:26:45.953608 19238 net.cpp:434] conv8_2_mbox_loc_perm <- conv8_2_mbox_loc
I0828 13:26:45.953613 19238 net.cpp:408] conv8_2_mbox_loc_perm -> conv8_2_mbox_loc_perm
I0828 13:26:45.953711 19238 net.cpp:150] Setting up conv8_2_mbox_loc_perm
I0828 13:26:45.953717 19238 net.cpp:157] Top shape: 8 3 3 24 (1728)
I0828 13:26:45.953721 19238 net.cpp:165] Memory required for data: 1287210592
I0828 13:26:45.953722 19238 layer_factory.hpp:77] Creating layer conv8_2_mbox_loc_flat
I0828 13:26:45.953728 19238 net.cpp:100] Creating Layer conv8_2_mbox_loc_flat
I0828 13:26:45.953734 19238 net.cpp:434] conv8_2_mbox_loc_flat <- conv8_2_mbox_loc_perm
I0828 13:26:45.953738 19238 net.cpp:408] conv8_2_mbox_loc_flat -> conv8_2_mbox_loc_flat
I0828 13:26:45.953763 19238 net.cpp:150] Setting up conv8_2_mbox_loc_flat
I0828 13:26:45.953768 19238 net.cpp:157] Top shape: 8 216 (1728)
I0828 13:26:45.953770 19238 net.cpp:165] Memory required for data: 1287217504
I0828 13:26:45.953773 19238 layer_factory.hpp:77] Creating layer conv8_2_mbox_conf
I0828 13:26:45.953781 19238 net.cpp:100] Creating Layer conv8_2_mbox_conf
I0828 13:26:45.953785 19238 net.cpp:434] conv8_2_mbox_conf <- conv8_2_conv8_2_relu_0_split_2
I0828 13:26:45.953790 19238 net.cpp:408] conv8_2_mbox_conf -> conv8_2_mbox_conf
I0828 13:26:45.956441 19238 net.cpp:150] Setting up conv8_2_mbox_conf
I0828 13:26:45.956451 19238 net.cpp:157] Top shape: 8 24 3 3 (1728)
I0828 13:26:45.956454 19238 net.cpp:165] Memory required for data: 1287224416
I0828 13:26:45.956461 19238 layer_factory.hpp:77] Creating layer conv8_2_mbox_conf_perm
I0828 13:26:45.956470 19238 net.cpp:100] Creating Layer conv8_2_mbox_conf_perm
I0828 13:26:45.956475 19238 net.cpp:434] conv8_2_mbox_conf_perm <- conv8_2_mbox_conf
I0828 13:26:45.956480 19238 net.cpp:408] conv8_2_mbox_conf_perm -> conv8_2_mbox_conf_perm
I0828 13:26:45.956581 19238 net.cpp:150] Setting up conv8_2_mbox_conf_perm
I0828 13:26:45.956588 19238 net.cpp:157] Top shape: 8 3 3 24 (1728)
I0828 13:26:45.956590 19238 net.cpp:165] Memory required for data: 1287231328
I0828 13:26:45.956594 19238 layer_factory.hpp:77] Creating layer conv8_2_mbox_conf_flat
I0828 13:26:45.956610 19238 net.cpp:100] Creating Layer conv8_2_mbox_conf_flat
I0828 13:26:45.956615 19238 net.cpp:434] conv8_2_mbox_conf_flat <- conv8_2_mbox_conf_perm
I0828 13:26:45.956619 19238 net.cpp:408] conv8_2_mbox_conf_flat -> conv8_2_mbox_conf_flat
I0828 13:26:45.956645 19238 net.cpp:150] Setting up conv8_2_mbox_conf_flat
I0828 13:26:45.956650 19238 net.cpp:157] Top shape: 8 216 (1728)
I0828 13:26:45.956652 19238 net.cpp:165] Memory required for data: 1287238240
I0828 13:26:45.956655 19238 layer_factory.hpp:77] Creating layer conv8_2_mbox_priorbox
I0828 13:26:45.956663 19238 net.cpp:100] Creating Layer conv8_2_mbox_priorbox
I0828 13:26:45.956668 19238 net.cpp:434] conv8_2_mbox_priorbox <- conv8_2_conv8_2_relu_0_split_3
I0828 13:26:45.956673 19238 net.cpp:434] conv8_2_mbox_priorbox <- data_data_0_split_4
I0828 13:26:45.956677 19238 net.cpp:408] conv8_2_mbox_priorbox -> conv8_2_mbox_priorbox
I0828 13:26:45.956702 19238 net.cpp:150] Setting up conv8_2_mbox_priorbox
I0828 13:26:45.956707 19238 net.cpp:157] Top shape: 1 2 216 (432)
I0828 13:26:45.956710 19238 net.cpp:165] Memory required for data: 1287239968
I0828 13:26:45.956712 19238 layer_factory.hpp:77] Creating layer conv9_2_mbox_loc
I0828 13:26:45.956720 19238 net.cpp:100] Creating Layer conv9_2_mbox_loc
I0828 13:26:45.956724 19238 net.cpp:434] conv9_2_mbox_loc <- conv9_2_conv9_2_relu_0_split_1
I0828 13:26:45.956732 19238 net.cpp:408] conv9_2_mbox_loc -> conv9_2_mbox_loc
I0828 13:26:45.958986 19238 net.cpp:150] Setting up conv9_2_mbox_loc
I0828 13:26:45.958997 19238 net.cpp:157] Top shape: 8 24 2 2 (768)
I0828 13:26:45.959000 19238 net.cpp:165] Memory required for data: 1287243040
I0828 13:26:45.959007 19238 layer_factory.hpp:77] Creating layer conv9_2_mbox_loc_perm
I0828 13:26:45.959012 19238 net.cpp:100] Creating Layer conv9_2_mbox_loc_perm
I0828 13:26:45.959017 19238 net.cpp:434] conv9_2_mbox_loc_perm <- conv9_2_mbox_loc
I0828 13:26:45.959022 19238 net.cpp:408] conv9_2_mbox_loc_perm -> conv9_2_mbox_loc_perm
I0828 13:26:45.959116 19238 net.cpp:150] Setting up conv9_2_mbox_loc_perm
I0828 13:26:45.959123 19238 net.cpp:157] Top shape: 8 2 2 24 (768)
I0828 13:26:45.959127 19238 net.cpp:165] Memory required for data: 1287246112
I0828 13:26:45.959131 19238 layer_factory.hpp:77] Creating layer conv9_2_mbox_loc_flat
I0828 13:26:45.959136 19238 net.cpp:100] Creating Layer conv9_2_mbox_loc_flat
I0828 13:26:45.959141 19238 net.cpp:434] conv9_2_mbox_loc_flat <- conv9_2_mbox_loc_perm
I0828 13:26:45.959144 19238 net.cpp:408] conv9_2_mbox_loc_flat -> conv9_2_mbox_loc_flat
I0828 13:26:45.959168 19238 net.cpp:150] Setting up conv9_2_mbox_loc_flat
I0828 13:26:45.959172 19238 net.cpp:157] Top shape: 8 96 (768)
I0828 13:26:45.959174 19238 net.cpp:165] Memory required for data: 1287249184
I0828 13:26:45.959177 19238 layer_factory.hpp:77] Creating layer conv9_2_mbox_conf
I0828 13:26:45.959185 19238 net.cpp:100] Creating Layer conv9_2_mbox_conf
I0828 13:26:45.959190 19238 net.cpp:434] conv9_2_mbox_conf <- conv9_2_conv9_2_relu_0_split_2
I0828 13:26:45.959199 19238 net.cpp:408] conv9_2_mbox_conf -> conv9_2_mbox_conf
I0828 13:26:45.961046 19238 net.cpp:150] Setting up conv9_2_mbox_conf
I0828 13:26:45.961056 19238 net.cpp:157] Top shape: 8 24 2 2 (768)
I0828 13:26:45.961060 19238 net.cpp:165] Memory required for data: 1287252256
I0828 13:26:45.961066 19238 layer_factory.hpp:77] Creating layer conv9_2_mbox_conf_perm
I0828 13:26:45.961072 19238 net.cpp:100] Creating Layer conv9_2_mbox_conf_perm
I0828 13:26:45.961076 19238 net.cpp:434] conv9_2_mbox_conf_perm <- conv9_2_mbox_conf
I0828 13:26:45.961082 19238 net.cpp:408] conv9_2_mbox_conf_perm -> conv9_2_mbox_conf_perm
I0828 13:26:45.961179 19238 net.cpp:150] Setting up conv9_2_mbox_conf_perm
I0828 13:26:45.961185 19238 net.cpp:157] Top shape: 8 2 2 24 (768)
I0828 13:26:45.961187 19238 net.cpp:165] Memory required for data: 1287255328
I0828 13:26:45.961190 19238 layer_factory.hpp:77] Creating layer conv9_2_mbox_conf_flat
I0828 13:26:45.961195 19238 net.cpp:100] Creating Layer conv9_2_mbox_conf_flat
I0828 13:26:45.961199 19238 net.cpp:434] conv9_2_mbox_conf_flat <- conv9_2_mbox_conf_perm
I0828 13:26:45.961212 19238 net.cpp:408] conv9_2_mbox_conf_flat -> conv9_2_mbox_conf_flat
I0828 13:26:45.961241 19238 net.cpp:150] Setting up conv9_2_mbox_conf_flat
I0828 13:26:45.961246 19238 net.cpp:157] Top shape: 8 96 (768)
I0828 13:26:45.961248 19238 net.cpp:165] Memory required for data: 1287258400
I0828 13:26:45.961251 19238 layer_factory.hpp:77] Creating layer conv9_2_mbox_priorbox
I0828 13:26:45.961259 19238 net.cpp:100] Creating Layer conv9_2_mbox_priorbox
I0828 13:26:45.961263 19238 net.cpp:434] conv9_2_mbox_priorbox <- conv9_2_conv9_2_relu_0_split_3
I0828 13:26:45.961267 19238 net.cpp:434] conv9_2_mbox_priorbox <- data_data_0_split_5
I0828 13:26:45.961274 19238 net.cpp:408] conv9_2_mbox_priorbox -> conv9_2_mbox_priorbox
I0828 13:26:45.961302 19238 net.cpp:150] Setting up conv9_2_mbox_priorbox
I0828 13:26:45.961307 19238 net.cpp:157] Top shape: 1 2 96 (192)
I0828 13:26:45.961309 19238 net.cpp:165] Memory required for data: 1287259168
I0828 13:26:45.961313 19238 layer_factory.hpp:77] Creating layer conv10_2_mbox_loc
I0828 13:26:45.961321 19238 net.cpp:100] Creating Layer conv10_2_mbox_loc
I0828 13:26:45.961325 19238 net.cpp:434] conv10_2_mbox_loc <- conv10_2_conv10_2_relu_0_split_0
I0828 13:26:45.961330 19238 net.cpp:408] conv10_2_mbox_loc -> conv10_2_mbox_loc
I0828 13:26:45.963587 19238 net.cpp:150] Setting up conv10_2_mbox_loc
I0828 13:26:45.963598 19238 net.cpp:157] Top shape: 8 24 1 1 (192)
I0828 13:26:45.963600 19238 net.cpp:165] Memory required for data: 1287259936
I0828 13:26:45.963606 19238 layer_factory.hpp:77] Creating layer conv10_2_mbox_loc_perm
I0828 13:26:45.963613 19238 net.cpp:100] Creating Layer conv10_2_mbox_loc_perm
I0828 13:26:45.963619 19238 net.cpp:434] conv10_2_mbox_loc_perm <- conv10_2_mbox_loc
I0828 13:26:45.963625 19238 net.cpp:408] conv10_2_mbox_loc_perm -> conv10_2_mbox_loc_perm
I0828 13:26:45.963723 19238 net.cpp:150] Setting up conv10_2_mbox_loc_perm
I0828 13:26:45.963729 19238 net.cpp:157] Top shape: 8 1 1 24 (192)
I0828 13:26:45.963732 19238 net.cpp:165] Memory required for data: 1287260704
I0828 13:26:45.963734 19238 layer_factory.hpp:77] Creating layer conv10_2_mbox_loc_flat
I0828 13:26:45.963740 19238 net.cpp:100] Creating Layer conv10_2_mbox_loc_flat
I0828 13:26:45.963743 19238 net.cpp:434] conv10_2_mbox_loc_flat <- conv10_2_mbox_loc_perm
I0828 13:26:45.963749 19238 net.cpp:408] conv10_2_mbox_loc_flat -> conv10_2_mbox_loc_flat
I0828 13:26:45.963776 19238 net.cpp:150] Setting up conv10_2_mbox_loc_flat
I0828 13:26:45.963781 19238 net.cpp:157] Top shape: 8 24 (192)
I0828 13:26:45.963783 19238 net.cpp:165] Memory required for data: 1287261472
I0828 13:26:45.963786 19238 layer_factory.hpp:77] Creating layer conv10_2_mbox_conf
I0828 13:26:45.963794 19238 net.cpp:100] Creating Layer conv10_2_mbox_conf
I0828 13:26:45.963798 19238 net.cpp:434] conv10_2_mbox_conf <- conv10_2_conv10_2_relu_0_split_1
I0828 13:26:45.963804 19238 net.cpp:408] conv10_2_mbox_conf -> conv10_2_mbox_conf
I0828 13:26:45.966456 19238 net.cpp:150] Setting up conv10_2_mbox_conf
I0828 13:26:45.966466 19238 net.cpp:157] Top shape: 8 24 1 1 (192)
I0828 13:26:45.966470 19238 net.cpp:165] Memory required for data: 1287262240
I0828 13:26:45.966475 19238 layer_factory.hpp:77] Creating layer conv10_2_mbox_conf_perm
I0828 13:26:45.966485 19238 net.cpp:100] Creating Layer conv10_2_mbox_conf_perm
I0828 13:26:45.966490 19238 net.cpp:434] conv10_2_mbox_conf_perm <- conv10_2_mbox_conf
I0828 13:26:45.966495 19238 net.cpp:408] conv10_2_mbox_conf_perm -> conv10_2_mbox_conf_perm
I0828 13:26:45.966593 19238 net.cpp:150] Setting up conv10_2_mbox_conf_perm
I0828 13:26:45.966599 19238 net.cpp:157] Top shape: 8 1 1 24 (192)
I0828 13:26:45.966601 19238 net.cpp:165] Memory required for data: 1287263008
I0828 13:26:45.966604 19238 layer_factory.hpp:77] Creating layer conv10_2_mbox_conf_flat
I0828 13:26:45.966614 19238 net.cpp:100] Creating Layer conv10_2_mbox_conf_flat
I0828 13:26:45.966619 19238 net.cpp:434] conv10_2_mbox_conf_flat <- conv10_2_mbox_conf_perm
I0828 13:26:45.966624 19238 net.cpp:408] conv10_2_mbox_conf_flat -> conv10_2_mbox_conf_flat
I0828 13:26:45.966658 19238 net.cpp:150] Setting up conv10_2_mbox_conf_flat
I0828 13:26:45.966663 19238 net.cpp:157] Top shape: 8 24 (192)
I0828 13:26:45.966665 19238 net.cpp:165] Memory required for data: 1287263776
I0828 13:26:45.966670 19238 layer_factory.hpp:77] Creating layer conv10_2_mbox_priorbox
I0828 13:26:45.966675 19238 net.cpp:100] Creating Layer conv10_2_mbox_priorbox
I0828 13:26:45.966681 19238 net.cpp:434] conv10_2_mbox_priorbox <- conv10_2_conv10_2_relu_0_split_2
I0828 13:26:45.966692 19238 net.cpp:434] conv10_2_mbox_priorbox <- data_data_0_split_6
I0828 13:26:45.966697 19238 net.cpp:408] conv10_2_mbox_priorbox -> conv10_2_mbox_priorbox
I0828 13:26:45.966723 19238 net.cpp:150] Setting up conv10_2_mbox_priorbox
I0828 13:26:45.966728 19238 net.cpp:157] Top shape: 1 2 24 (48)
I0828 13:26:45.966730 19238 net.cpp:165] Memory required for data: 1287263968
I0828 13:26:45.966733 19238 layer_factory.hpp:77] Creating layer mbox_loc
I0828 13:26:45.966740 19238 net.cpp:100] Creating Layer mbox_loc
I0828 13:26:45.966744 19238 net.cpp:434] mbox_loc <- conv5_5/sep_mbox_loc_flat
I0828 13:26:45.966748 19238 net.cpp:434] mbox_loc <- conv6/sep_mbox_loc_flat
I0828 13:26:45.966755 19238 net.cpp:434] mbox_loc <- conv7_2_mbox_loc_flat
I0828 13:26:45.966760 19238 net.cpp:434] mbox_loc <- conv8_2_mbox_loc_flat
I0828 13:26:45.966764 19238 net.cpp:434] mbox_loc <- conv9_2_mbox_loc_flat
I0828 13:26:45.966768 19238 net.cpp:434] mbox_loc <- conv10_2_mbox_loc_flat
I0828 13:26:45.966773 19238 net.cpp:408] mbox_loc -> mbox_loc
I0828 13:26:45.966799 19238 net.cpp:150] Setting up mbox_loc
I0828 13:26:45.966802 19238 net.cpp:157] Top shape: 8 7668 (61344)
I0828 13:26:45.966805 19238 net.cpp:165] Memory required for data: 1287509344
I0828 13:26:45.966809 19238 layer_factory.hpp:77] Creating layer mbox_conf
I0828 13:26:45.966814 19238 net.cpp:100] Creating Layer mbox_conf
I0828 13:26:45.966819 19238 net.cpp:434] mbox_conf <- conv5_5/sep_mbox_conf_flat
I0828 13:26:45.966825 19238 net.cpp:434] mbox_conf <- conv6/sep_mbox_conf_flat
I0828 13:26:45.966828 19238 net.cpp:434] mbox_conf <- conv7_2_mbox_conf_flat
I0828 13:26:45.966831 19238 net.cpp:434] mbox_conf <- conv8_2_mbox_conf_flat
I0828 13:26:45.966835 19238 net.cpp:434] mbox_conf <- conv9_2_mbox_conf_flat
I0828 13:26:45.966838 19238 net.cpp:434] mbox_conf <- conv10_2_mbox_conf_flat
I0828 13:26:45.966843 19238 net.cpp:408] mbox_conf -> mbox_conf
I0828 13:26:45.966866 19238 net.cpp:150] Setting up mbox_conf
I0828 13:26:45.966871 19238 net.cpp:157] Top shape: 8 7668 (61344)
I0828 13:26:45.966873 19238 net.cpp:165] Memory required for data: 1287754720
I0828 13:26:45.966876 19238 layer_factory.hpp:77] Creating layer mbox_priorbox
I0828 13:26:45.966881 19238 net.cpp:100] Creating Layer mbox_priorbox
I0828 13:26:45.966886 19238 net.cpp:434] mbox_priorbox <- conv5_5/sep_mbox_priorbox
I0828 13:26:45.966892 19238 net.cpp:434] mbox_priorbox <- conv6/sep_mbox_priorbox
I0828 13:26:45.966897 19238 net.cpp:434] mbox_priorbox <- conv7_2_mbox_priorbox
I0828 13:26:45.966899 19238 net.cpp:434] mbox_priorbox <- conv8_2_mbox_priorbox
I0828 13:26:45.966902 19238 net.cpp:434] mbox_priorbox <- conv9_2_mbox_priorbox
I0828 13:26:45.966905 19238 net.cpp:434] mbox_priorbox <- conv10_2_mbox_priorbox
I0828 13:26:45.966910 19238 net.cpp:408] mbox_priorbox -> mbox_priorbox
I0828 13:26:45.966933 19238 net.cpp:150] Setting up mbox_priorbox
I0828 13:26:45.966938 19238 net.cpp:157] Top shape: 1 2 7668 (15336)
I0828 13:26:45.966941 19238 net.cpp:165] Memory required for data: 1287816064
I0828 13:26:45.966944 19238 layer_factory.hpp:77] Creating layer mbox_conf_reshape
I0828 13:26:45.966953 19238 net.cpp:100] Creating Layer mbox_conf_reshape
I0828 13:26:45.966958 19238 net.cpp:434] mbox_conf_reshape <- mbox_conf
I0828 13:26:45.966962 19238 net.cpp:408] mbox_conf_reshape -> mbox_conf_reshape
I0828 13:26:45.966992 19238 net.cpp:150] Setting up mbox_conf_reshape
I0828 13:26:45.966997 19238 net.cpp:157] Top shape: 8 1917 4 (61344)
I0828 13:26:45.967000 19238 net.cpp:165] Memory required for data: 1288061440
I0828 13:26:45.967010 19238 layer_factory.hpp:77] Creating layer mbox_conf_softmax
I0828 13:26:45.967017 19238 net.cpp:100] Creating Layer mbox_conf_softmax
I0828 13:26:45.967022 19238 net.cpp:434] mbox_conf_softmax <- mbox_conf_reshape
I0828 13:26:45.967028 19238 net.cpp:408] mbox_conf_softmax -> mbox_conf_softmax
I0828 13:26:45.967684 19238 net.cpp:150] Setting up mbox_conf_softmax
I0828 13:26:45.967694 19238 net.cpp:157] Top shape: 8 1917 4 (61344)
I0828 13:26:45.967697 19238 net.cpp:165] Memory required for data: 1288306816
I0828 13:26:45.967700 19238 layer_factory.hpp:77] Creating layer mbox_conf_flatten
I0828 13:26:45.967705 19238 net.cpp:100] Creating Layer mbox_conf_flatten
I0828 13:26:45.967710 19238 net.cpp:434] mbox_conf_flatten <- mbox_conf_softmax
I0828 13:26:45.967715 19238 net.cpp:408] mbox_conf_flatten -> mbox_conf_flatten
I0828 13:26:45.967742 19238 net.cpp:150] Setting up mbox_conf_flatten
I0828 13:26:45.967747 19238 net.cpp:157] Top shape: 8 7668 (61344)
I0828 13:26:45.967751 19238 net.cpp:165] Memory required for data: 1288552192
I0828 13:26:45.967753 19238 layer_factory.hpp:77] Creating layer detection_out
I0828 13:26:45.967769 19238 net.cpp:100] Creating Layer detection_out
I0828 13:26:45.967773 19238 net.cpp:434] detection_out <- mbox_loc
I0828 13:26:45.967777 19238 net.cpp:434] detection_out <- mbox_conf_flatten
I0828 13:26:45.967780 19238 net.cpp:434] detection_out <- mbox_priorbox
I0828 13:26:45.967787 19238 net.cpp:408] detection_out -> detection_out
I0828 13:26:45.969149 19238 net.cpp:150] Setting up detection_out
I0828 13:26:45.969168 19238 net.cpp:157] Top shape: 1 1 1 7 (7)
I0828 13:26:45.969174 19238 net.cpp:165] Memory required for data: 1288552220
I0828 13:26:45.969180 19238 layer_factory.hpp:77] Creating layer detection_eval
I0828 13:26:45.969193 19238 net.cpp:100] Creating Layer detection_eval
I0828 13:26:45.969200 19238 net.cpp:434] detection_eval <- detection_out
I0828 13:26:45.969208 19238 net.cpp:434] detection_eval <- label
I0828 13:26:45.969218 19238 net.cpp:408] detection_eval -> detection_eval
I0828 13:26:45.970002 19238 net.cpp:150] Setting up detection_eval
I0828 13:26:45.970016 19238 net.cpp:157] Top shape: 1 1 4 5 (20)
I0828 13:26:45.970021 19238 net.cpp:165] Memory required for data: 1288552300
I0828 13:26:45.970027 19238 net.cpp:228] detection_eval does not need backward computation.
I0828 13:26:45.970034 19238 net.cpp:228] detection_out does not need backward computation.
I0828 13:26:45.970041 19238 net.cpp:228] mbox_conf_flatten does not need backward computation.
I0828 13:26:45.970048 19238 net.cpp:228] mbox_conf_softmax does not need backward computation.
…
