…
      sampler {
        min_scale: 0.3
        max_scale: 1
        min_aspect_ratio: 0.5
        max_aspect_ratio: 2
      }
      sample_constraint {
        min_jaccard_overlap: 0.9
      }
      max_sample: 1
      max_trials: 50
    }
    batch_sampler {
      sampler {
        min_scale: 0.3
        max_scale: 1
        min_aspect_ratio: 0.5
        max_aspect_ratio: 2
      }
      sample_constraint {
        max_jaccard_overlap: 1
      }
      max_sample: 1
      max_trials: 50
    }
    label_map_file: "data/BodyFaceRegions/labelmap_voc.prototxt"
  }
}
layer {
  name: "conv1"
  type: "Convolution"
  bottom: "data"
  top: "conv1"
  param {
    lr_mult: 1
    decay_mult: 1
  }
  convolution_param {
    num_output: 32
    bias_term: false
    pad: 1
    kernel_size: 3
    group: 1
    stride: 2
    weight_filler {
      type: "gaussian"
      std: 0.01
    }
    engine: DEFAULT
  }
}
layer {
  name: "conv1/bn"
  type: "BatchNorm"
  bottom: "conv1"
  top: "conv1"
  batch_norm_param {
    moving_average_fraction: 0.999
    eps: 0.001
  }
}
layer {
  name: "conv1/scale"
  type: "Scale"
  bottom: "conv1"
  top: "conv1"
  param {
    lr_mult: 1
    decay_mult: 0
  }
  param {
    lr_mult: 1
    decay_mult: 0
  }
  scale_param {
    filler {
      type: "constant"
      value: 1
    }
    bias_term: true
    bias_filler {
      type: "constant"
      value: 0
    }
  }
}
layer {
  name: "conv1_relu"
  type: "ReLU"
  bottom: "conv1"
  top: "conv1"
}
layer {
  name: "conv2_1/dw"
  type: "Convolution"
  bottom: "conv1"
  top: "conv2_1/dw"
  param {
    lr_mult: 1
    decay_mult: 1
  }
  convolution_param {
    num_output: 32
    bias_term: false
    pad: 1
    kernel_size: 3
    group: 32
    stride: 1
    weight_filler {
      type: "gaussian"
      std: 0.01
    }
    engine: CAFFE
  }
}
layer {
  name: "conv2_1/dw/bn"
  type: "BatchNorm"
  bottom: "conv2_1/dw"
  top: "conv2_1/dw"
  batch_norm_param {
    moving_average_fraction: 0.999
    eps: 0.001
  }
}
layer {
  name: "conv2_1/dw/scale"
  type: "Scale"
  bottom: "conv2_1/dw"
  top: "conv2_1/dw"
  param {
    lr_mult: 1
    decay_mult: 0
  }
  param {
    lr_mult: 1
    decay_mult: 0
  }
  scale_param {
    filler {
      type: "constant"
      value: 1
    }
    bias_term: true
    bias_filler {
      type: "constant"
      value: 0
    }
  }
}
layer {
  name: "conv2_1/dw_relu"
  type: "ReLU"
  bottom: "conv2_1/dw"
  top: "conv2_1/dw"
}
layer {
  name: "conv2_1/sep"
  type: "Convolution"
  bottom: "conv2_1/dw"
  top: "conv2_1/sep"
  param {
    lr_mult: 1
    decay_mult: 1
  }
  convolution_param {
    num_output: 64
    bias_term: false
    pad: 0
    kernel_size: 1
    group: 1
    stride: 1
    weight_filler {
      type: "gaussian"
      std: 0.01
    }
    engine: DEFAULT
  }
}
layer {
  name: "conv2_1/sep/bn"
  type: "BatchNorm"
  bottom: "conv2_1/sep"
  top: "conv2_1/sep"
  batch_norm_param {
    moving_average_fraction: 0.999
    eps: 0.001
  }
}
layer {
  name: "conv2_1/sep/scale"
  type: "Scale"
  bottom: "conv2_1/sep"
  top: "conv2_1/sep"
  param {
    lr_mult: 1
    decay_mult: 0
  }
  param {
    lr_mult: 1
    decay_mult: 0
  }
  scale_param {
    filler {
      type: "constant"
      value: 1
    }
    bias_term: true
    bias_filler {
      type: "constant"
      value: 0
    }
  }
}
layer {
  name: "conv2_1/sep_relu"
  type: "ReLU"
  bottom: "conv2_1/sep"
  top: "conv2_1/sep"
}
layer {
  name: "conv2_2/dw"
  type: "Convolution"
  bottom: "conv2_1/sep"
  top: "conv2_2/dw"
  param {
    lr_mult: 1
    decay_mult: 1
  }
  convolution_param {
    num_output: 64
    bias_term: false
    pad: 1
    kernel_size: 3
    group: 64
    stride: 2
    weight_filler {
      type: "gaussian"
      std: 0.01
    }
    engine: CAFFE
  }
}
layer {
  name: "conv2_2/dw/bn"
  type: "BatchNorm"
  bottom: "conv2_2/dw"
  top: "conv2_2/dw"
  batch_norm_param {
    moving_average_fraction: 0.999
    eps: 0.001
  }
}
layer {
  name: "conv2_2/dw/scale"
  type: "Scale"
  bottom: "conv2_2/dw"
  top: "conv2_2/dw"
  param {
    lr_mult: 1
    decay_mult: 0
  }
  param {
    lr_mult: 1
    decay_mult: 0
  }
  scale_param {
    filler {
      type: "constant"
      value: 1
    }
    bias_term: true
    bias_filler {
      type: "constant"
      value: 0
    }
  }
}
layer {
  name: "conv2_2/dw_relu"
  type: "ReLU"
  bottom: "conv2_2/dw"
  top: "conv2_2/dw"
}
layer {
  name: "conv2_2/sep"
  type: "Convolution"
  bottom: "conv2_2/dw"
  top: "conv2_2/sep"
  param {
    lr_mult: 1
    decay_mult: 1
  }
  convolution_param {
    num_output: 128
    bias_term: false
    pad: 0
    kernel_size: 1
    group: 1
    stride: 1
    weight_filler {
      type: "gaussian"
      std: 0.01
    }
    engine: DEFAULT
  }
}
layer {
  name: "conv2_2/sep/bn"
  type: "BatchNorm"
  bottom: "conv2_2/sep"
  top: "conv2_2/sep"
  batch_norm_param {
    moving_average_fraction: 0.999
    eps: 0.001
  }
}
layer {
  name: "conv2_2/sep/scale"
  type: "Scale"
  bottom: "conv2_2/sep"
  top: "conv2_2/sep"
  param {
    lr_mult: 1
    decay_mult: 0
  }
  param {
    lr_mult: 1
    decay_mult: 0
  }
  scale_param {
    filler {
      type: "constant"
      value: 1
    }
    bias_term: true
    bias_filler {
      type: "constant"
      value: 0
    }
  }
}
layer {
  name: "conv2_2/sep_relu"
  type: "ReLU"
  bottom: "conv2_2/sep"
  top: "conv2_2/sep"
}
layer {
  name: "conv3_1/dw"
  type: "Convolution"
  bottom: "conv2_2/sep"
  top: "conv3_1/dw"
  param {
    lr_mult: 1
    decay_mult: 1
  }
  convolution_param {
    num_output: 128
    bias_term: false
    pad: 1
    kernel_size: 3
    group: 128
    stride: 1
    weight_filler {
      type: "gaussian"
      std: 0.01
    }
    engine: CAFFE
  }
}
layer {
  name: "conv3_1/dw/bn"
  type: "BatchNorm"
  bottom: "conv3_1/dw"
  top: "conv3_1/dw"
  batch_norm_param {
    moving_average_fraction: 0.999
    eps: 0.001
  }
}
layer {
  name: "conv3_1/dw/scale"
  type: "Scale"
  bottom: "conv3_1/dw"
  top: "conv3_1/dw"
  param {
    lr_mult: 1
    decay_mult: 0
  }
  param {
    lr_mult: 1
    decay_mult: 0
  }
  scale_param {
    filler {
      type: "constant"
      value: 1
    }
    bias_term: true
    bias_filler {
      type: "constant"
      value: 0
    }
  }
}
layer {
  name: "conv3_1/dw_relu"
  type: "ReLU"
  bottom: "conv3_1/dw"
  top: "conv3_1/dw"
}
layer {
  name: "conv3_1/sep"
  type: "Convolution"
  bottom: "conv3_1/dw"
  top: "conv3_1/sep"
  param {
    lr_mult: 1
    decay_mult: 1
  }
  convolution_param {
    num_output: 128
    bias_term: false
    pad: 0
    kernel_size: 1
    group: 1
    stride: 1
    weight_filler {
      type: "gaussian"
      std: 0.01
    }
    engine: DEFAULT
  }
}
layer {
  name: "conv3_1/sep/bn"
  type: "BatchNorm"
  bottom: "conv3_1/sep"
  top: "conv3_1/sep"
  batch_norm_param {
    moving_average_fraction: 0.999
    eps: 0.001
  }
}
layer {
  name: "conv3_1/sep/scale"
  type: "Scale"
  bottom: "conv3_1/sep"
  top: "conv3_1/sep"
  param {
    lr_mult: 1
    decay_mult: 0
  }
  param {
    lr_mult: 1
    decay_mult: 0
  }
  scale_param {
    filler {
      type: "constant"
      value: 1
    }
    bias_term: true
    bias_filler {
      type: "constant"
      value: 0
    }
  }
}
layer {
  name: "conv3_1/sep_relu"
  type: "ReLU"
  bottom: "conv3_1/sep"
  top: "conv3_1/sep"
}
layer {
  name: "conv3_2/dw"
  type: "Convolution"
  bottom: "conv3_1/sep"
  top: "conv3_2/dw"
  param {
    lr_mult: 1
    decay_mult: 1
  }
  convolution_param {
    num_output: 128
    bias_term: false
    pad: 1
    kernel_size: 3
    group: 128
    stride: 2
    weight_filler {
      type: "gaussian"
      std: 0.01
    }
    engine: CAFFE
  }
}
layer {
  name: "conv3_2/dw/bn"
  type: "BatchNorm"
  bottom: "conv3_2/dw"
  top: "conv3_2/dw"
  batch_norm_param {
    moving_average_fraction: 0.999
    eps: 0.001
  }
}
layer {
  name: "conv3_2/dw/scale"
  type: "Scale"
  bottom: "conv3_2/dw"
  top: "conv3_2/dw"
  param {
    lr_mult: 1
    decay_mult: 0
  }
  param {
    lr_mult: 1
    decay_mult: 0
  }
  scale_param {
    filler {
      type: "constant"
      value: 1
    }
    bias_term: true
    bias_filler {
      type: "constant"
      value: 0
    }
  }
}
layer {
  name: "conv3_2/dw_relu"
  type: "ReLU"
  bottom: "conv3_2/dw"
  top: "conv3_2/dw"
}
layer {
  name: "conv3_2/sep"
  type: "Convolution"
  bottom: "conv3_2/dw"
  top: "conv3_2/sep"
  param {
    lr_mult: 1
    decay_mult: 1
  }
  convolution_param {
    num_output: 256
    bias_term: false
    pad: 0
    kernel_size: 1
    group: 1
    stride: 1
    weight_filler {
      type: "gaussian"
      std: 0.01
    }
    engine: DEFAULT
  }
}
layer {
  name: "conv3_2/sep/bn"
  type: "BatchNorm"
  bottom: "conv3_2/sep"
  top: "conv3_2/sep"
  batch_norm_param {
    moving_average_fraction: 0.999
    eps: 0.001
  }
}
layer {
  name: "conv3_2/sep/scale"
  type: "Scale"
  bottom: "conv3_2/sep"
  top: "conv3_2/sep"
  param {
    lr_mult: 1
    decay_mult: 0
  }
  param {
    lr_mult: 1
    decay_mult: 0
  }
  scale_param {
    filler {
      type: "constant"
      value: 1
    }
    bias_term: true
    bias_filler {
      type: "constant"
      value: 0
    }
  }
}
layer {
  name: "conv3_2/sep_relu"
  type: "ReLU"
  bottom: "conv3_2/sep"
  top: "conv3_2/sep"
}
layer {
  name: "conv4_1/dw"
  type: "Convolution"
  bottom: "conv3_2/sep"
  top: "conv4_1/dw"
  param {
    lr_mult: 1
    decay_mult: 1
  }
  convolution_param {
    num_output: 256
    bias_term: false
    pad: 1
    kernel_size: 3
    group: 256
    stride: 1
    weight_filler {
      type: "gaussian"
      std: 0.01
    }
    engine: CAFFE
  }
}
layer {
  name: "conv4_1/dw/bn"
  type: "BatchNorm"
  bottom: "conv4_1/dw"
  top: "conv4_1/dw"
  batch_norm_param {
    moving_average_fraction: 0.999
    eps: 0.001
  }
}
layer {
  name: "conv4_1/dw/scale"
  type: "Scale"
  bottom: "conv4_1/dw"
  top: "conv4_1/dw"
  param {
    lr_mult: 1
    decay_mult: 0
  }
  param {
    lr_mult: 1
    decay_mult: 0
  }
  scale_param {
    filler {
      type: "constant"
      value: 1
    }
    bias_term: true
    bias_filler {
      type: "constant"
      value: 0
    }
  }
}
layer {
  name: "conv4_1/dw_relu"
  type: "ReLU"
  bottom: "conv4_1/dw"
  top: "conv4_1/dw"
}
layer {
  name: "conv4_1/sep"
  type: "Convolution"
  bottom: "conv4_1/dw"
  top: "conv4_1/sep"
  param {
    lr_mult: 1
    decay_mult: 1
  }
  convolution_param {
    num_output: 256
    bias_term: false
    pad: 0
    kernel_size: 1
    group: 1
    stride: 1
    weight_filler {
      type: "gaussian"
      std: 0.01
    }
    engine: DEFAULT
  }
}
layer {
  name: "conv4_1/sep/bn"
  type: "BatchNorm"
  bottom: "conv4_1/sep"
  top: "conv4_1/sep"
  batch_norm_param {
    moving_average_fraction: 0.999
    eps: 0.001
  }
}
layer {
  name: "conv4_1/sep/scale"
  type: "Scale"
  bottom: "conv4_1/sep"
  top: "conv4_1/sep"
  param {
    lr_mult: 1
    decay_mult: 0
  }
  param {
    lr_mult: 1
    decay_mult: 0
  }
  scale_param {
    filler {
      type: "constant"
      value: 1
    }
    bias_term: true
    bias_filler {
      type: "constant"
      value: 0
    }
  }
}
layer {
  name: "conv4_1/sep_relu"
  type: "ReLU"
  bottom: "conv4_1/sep"
  top: "conv4_1/sep"
}
layer {
  name: "conv4_2/dw"
  type: "Convolution"
  bottom: "conv4_1/sep"
  top: "conv4_2/dw"
  param {
    lr_mult: 1
    decay_mult: 1
  }
  convolution_param {
    num_output: 256
    bias_term: false
    pad: 1
    kernel_size: 3
    group: 256
    stride: 2
    weight_filler {
      type: "gaussian"
      std: 0.01
    }
    engine: CAFFE
  }
}
layer {
  name: "conv4_2/dw/bn"
  type: "BatchNorm"
  bottom: "conv4_2/dw"
  top: "conv4_2/dw"
  batch_norm_param {
    moving_average_fraction: 0.999
    eps: 0.001
  }
}
layer {
  name: "conv4_2/dw/scale"
  type: "Scale"
  bottom: "conv4_2/dw"
  top: "conv4_2/dw"
  param {
    lr_mult: 1
    decay_mult: 0
  }
  param {
    lr_mult: 1
    decay_mult: 0
  }
  scale_param {
    filler {
      type: "constant"
      value: 1
    }
    bias_term: true
    bias_filler {
      type: "constant"
      value: 0
    }
  }
}
layer {
  name: "conv4_2/dw_relu"
  type: "ReLU"
  bottom: "conv4_2/dw"
  top: "conv4_2/dw"
}
layer {
  name: "conv4_2/sep"
  type: "Convolution"
  bottom: "conv4_2/dw"
  top: "conv4_2/sep"
  param {
    lr_mult: 1
    decay_mult: 1
  }
  convolution_param {
    num_output: 512
    bias_term: false
    pad: 0
    kernel_size: 1
    group: 1
    stride: 1
    weight_filler {
      type: "gaussian"
      std: 0.01
    }
    engine: DEFAULT
  }
}
layer {
  name: "conv4_2/sep/bn"
  type: "BatchNorm"
  bottom: "conv4_2/sep"
  top: "conv4_2/sep"
  batch_norm_param {
    moving_average_fraction: 0.999
    eps: 0.001
  }
}
layer {
  name: "conv4_2/sep/scale"
  type: "Scale"
  bottom: "conv4_2/sep"
  top: "conv4_2/sep"
  param {
    lr_mult: 1
    decay_mult: 0
  }
  param {
    lr_mult: 1
    decay_mult: 0
  }
  scale_param {
    filler {
      type: "constant"
      value: 1
    }
    bias_term: true
    bias_filler {
      type: "constant"
      value: 0
    }
  }
}
layer {
  name: "conv4_2/sep_relu"
  type: "ReLU"
  bottom: "conv4_2/sep"
  top: "conv4_2/sep"
}
layer {
  name: "conv5_1/dw"
  type: "Convolution"
  bottom: "conv4_2/sep"
  top: "conv5_1/dw"
  param {
    lr_mult: 1
    decay_mult: 1
  }
  convolution_param {
    num_output: 512
    bias_term: false
    pad: 1
    kernel_size: 3
    group: 512
    stride: 1
    weight_filler {
      type: "gaussian"
      std: 0.01
    }
    engine: CAFFE
  }
}
layer {
  name: "conv5_1/dw/bn"
  type: "BatchNorm"
  bottom: "conv5_1/dw"
  top: "conv5_1/dw"
  batch_norm_param {
    moving_average_fraction: 0.999
    eps: 0.001
  }
}
layer {
  name: "conv5_1/dw/scale"
  type: "Scale"
  bottom: "conv5_1/dw"
  top: "conv5_1/dw"
  param {
    lr_mult: 1
    decay_mult: 0
  }
  param {
    lr_mult: 1
    decay_mult: 0
  }
  scale_param {
    filler {
      type: "constant"
      value: 1
    }
    bias_term: true
    bias_filler {
      type: "constant"
      value: 0
    }
  }
}
layer {
  name: "conv5_1/dw_relu"
  type: "ReLU"
  bottom: "conv5_1/dw"
  top: "conv5_1/dw"
}
layer {
  name: "conv5_1/sep"
  type: "Convolution"
  bottom: "conv5_1/dw"
  top: "conv5_1/sep"
  param {
    lr_mult: 1
    decay_mult: 1
  }
  convolution_param {
    num_output: 512
    bias_term: false
    pad: 0
    kernel_size: 1
    group: 1
    stride: 1
    weight_filler {
      type: "gaussian"
      std: 0.01
    }
    engine: DEFAULT
  }
}
layer {
  name: "conv5_1/sep/bn"
  type: "BatchNorm"
  bottom: "conv5_1/sep"
  top: "conv5_1/sep"
  batch_norm_param {
    moving_average_fraction: 0.999
    eps: 0.001
  }
}
layer {
  name: "conv5_1/sep/scale"
  type: "Scale"
  bottom: "conv5_1/sep"
  top: "conv5_1/sep"
  param {
    lr_mult: 1
    decay_mult: 0
  }
  param {
    lr_mult: 1
    decay_mult: 0
  }
  scale_param {
    filler {
      type: "constant"
      value: 1
    }
    bias_term: true
    bias_filler {
      type: "constant"
      value: 0
    }
  }
}
layer {
  name: "conv5_1/sep_relu"
  type: "ReLU"
  bottom: "conv5_1/sep"
  top: "conv5_1/sep"
}
layer {
  name: "conv5_2/dw"
  type: "Convolution"
  bottom: "conv5_1/sep"
  top: "conv5_2/dw"
  param {
    lr_mult: 1
    decay_mult: 1
  }
  convolution_param {
    num_output: 512
    bias_term: false
    pad: 1
    kernel_size: 3
    group: 512
    stride: 1
    weight_filler {
      type: "gaussian"
      std: 0.01
    }
    engine: CAFFE
  }
}
layer {
  name: "conv5_2/dw/bn"
  type: "BatchNorm"
  bottom: "conv5_2/dw"
  top: "conv5_2/dw"
  batch_norm_param {
    moving_average_fraction: 0.999
    eps: 0.001
  }
}
layer {
  name: "conv5_2/dw/scale"
  type: "Scale"
  bottom: "conv5_2/dw"
  top: "conv5_2/dw"
  param {
    lr_mult: 1
    decay_mult: 0
  }
  param {
    lr_mult: 1
    decay_mult: 0
  }
  scale_param {
    filler {
      type: "constant"
      value: 1
    }
    bias_term: true
    bias_filler {
      type: "constant"
      value: 0
    }
  }
}
layer {
  name: "conv5_2/dw_relu"
  type: "ReLU"
  bottom: "conv5_2/dw"
  top: "conv5_2/dw"
}
layer {
  name: "conv5_2/sep"
  type: "Convolution"
  bottom: "conv5_2/dw"
  top: "conv5_2/sep"
  param {
    lr_mult: 1
    decay_mult: 1
  }
  convolution_param {
    num_output: 512
    bias_term: false
    pad: 0
    kernel_size: 1
    group: 1
    stride: 1
    weight_filler {
      type: "gaussian"
      std: 0.01
    }
    engine: DEFAULT
  }
}
layer {
  name: "conv5_2/sep/bn"
  type: "BatchNorm"
  bottom: "conv5_2/sep"
  top: "conv5_2/sep"
  batch_norm_param {
    moving_average_fraction: 0.999
    eps: 0.001
  }
}
layer {
  name: "conv5_2/sep/scale"
  type: "Scale"
  bottom: "conv5_2/sep"
  top: "conv5_2/sep"
  param {
    lr_mult: 1
    decay_mult: 0
  }
  param {
    lr_mult: 1
    decay_mult: 0
  }
  scale_param {
    filler {
      type: "constant"
      value: 1
    }
    bias_term: true
    bias_filler {
      type: "constant"
      value: 0
    }
  }
}
layer {
  name: "conv5_2/sep_relu"
  type: "ReLU"
  bottom: "conv5_2/sep"
  top: "conv5_2/sep"
}
layer {
  name: "conv5_3/dw"
  type: "Convolution"
  bottom: "conv5_2/sep"
  top: "conv5_3/dw"
  param {
    lr_mult: 1
    decay_mult: 1
  }
  convolution_param {
    num_output: 512
    bias_term: false
    pad: 1
    kernel_size: 3
    group: 512
    stride: 1
    weight_filler {
      type: "gaussian"
      std: 0.01
    }
    engine: CAFFE
  }
}
layer {
  name: "conv5_3/dw/bn"
  type: "BatchNorm"
  bottom: "conv5_3/dw"
  top: "conv5_3/dw"
  batch_norm_param {
    moving_average_fraction: 0.999
    eps: 0.001
  }
}
layer {
  name: "conv5_3/dw/scale"
  type: "Scale"
  bottom: "conv5_3/dw"
  top: "conv5_3/dw"
  param {
    lr_mult: 1
    decay_mult: 0
  }
  param {
    lr_mult: 1
    decay_mult: 0
  }
  scale_param {
    filler {
      type: "constant"
      value: 1
    }
    bias_term: true
    bias_filler {
      type: "constant"
      value: 0
    }
  }
}
layer {
  name: "conv5_3/dw_relu"
  type: "ReLU"
  bottom: "conv5_3/dw"
  top: "conv5_3/dw"
}
layer {
  name: "conv5_3/sep"
  type: "Convolution"
  bottom: "conv5_3/dw"
  top: "conv5_3/sep"
  param {
    lr_mult: 1
    decay_mult: 1
  }
  convolution_param {
    num_output: 512
    bias_term: false
    pad: 0
    kernel_size: 1
    group: 1
    stride: 1
    weight_filler {
      type: "gaussian"
      std: 0.01
    }
    engine: DEFAULT
  }
}
layer {
  name: "conv5_3/sep/bn"
  type: "BatchNorm"
  bottom: "conv5_3/sep"
  top: "conv5_3/sep"
  batch_norm_param {
    moving_average_fraction: 0.999
    eps: 0.001
  }
}
layer {
  name: "conv5_3/sep/scale"
  type: "Scale"
  bottom: "conv5_3/sep"
  top: "conv5_3/sep"
  param {
    lr_mult: 1
    decay_mult: 0
  }
  param {
    lr_mult: 1
    decay_mult: 0
  }
  scale_param {
    filler {
      type: "constant"
      value: 1
    }
    bias_term: true
    bias_filler {
      type: "constant"
      value: 0
    }
  }
}
layer {
  name: "conv5_3/sep_relu"
  type: "ReLU"
  bottom: "conv5_3/sep"
  top: "conv5_3/sep"
}
layer {
  name: "conv5_4/dw"
  type: "Convolution"
  bottom: "conv5_3/sep"
  top: "conv5_4/dw"
  param {
    lr_mult: 1
    decay_mult: 1
  }
  convolution_param {
    num_output: 512
    bias_term: false
    pad: 1
    kernel_size: 3
    group: 512
    stride: 1
    weight_filler {
      type: "gaussian"
      std: 0.01
    }
    engine: CAFFE
  }
}
layer {
  name: "conv5_4/dw/bn"
  type: "BatchNorm"
  bottom: "conv5_4/dw"
  top: "conv5_4/dw"
  batch_norm_param {
    moving_average_fraction: 0.999
    eps: 0.001
  }
}
layer {
  name: "conv5_4/dw/scale"
  type: "Scale"
  bottom: "conv5_4/dw"
  top: "conv5_4/dw"
  param {
    lr_mult: 1
    decay_mult: 0
  }
  param {
    lr_mult: 1
    decay_mult: 0
  }
  scale_param {
    filler {
      type: "constant"
      value: 1
    }
    bias_term: true
    bias_filler {
      type: "constant"
      value: 0
    }
  }
}
layer {
  name: "conv5_4/dw_relu"
  type: "ReLU"
  bottom: "conv5_4/dw"
  top: "conv5_4/dw"
}
layer {
  name: "conv5_4/sep"
  type: "Convolution"
  bottom: "conv5_4/dw"
  top: "conv5_4/sep"
  param {
    lr_mult: 1
    decay_mult: 1
  }
  convolution_param {
    num_output: 512
    bias_term: false
    pad: 0
    kernel_size: 1
    group: 1
    stride: 1
    weight_filler {
      type: "gaussian"
      std: 0.01
    }
    engine: DEFAULT
  }
}
layer {
  name: "conv5_4/sep/bn"
  type: "BatchNorm"
  bottom: "conv5_4/sep"
  top: "conv5_4/sep"
  batch_norm_param {
    moving_average_fraction: 0.999
    eps: 0.001
  }
}
layer {
  name: "conv5_4/sep/scale"
  type: "Scale"
  bottom: "conv5_4/sep"
  top: "conv5_4/sep"
  param {
    lr_mult: 1
    decay_mult: 0
  }
  param {
    lr_mult: 1
    decay_mult: 0
  }
  scale_param {
    filler {
      type: "constant"
      value: 1
    }
    bias_term: true
    bias_filler {
      type: "constant"
      value: 0
    }
  }
}
layer {
  name: "conv5_4/sep_relu"
  type: "ReLU"
  bottom: "conv5_4/sep"
  top: "conv5_4/sep"
}
layer {
  name: "conv5_5/dw"
  type: "Convolution"
  bottom: "conv5_4/sep"
  top: "conv5_5/dw"
  param {
    lr_mult: 1
    decay_mult: 1
  }
  convolution_param {
    num_output: 512
    bias_term: false
    pad: 1
    kernel_size: 3
    group: 512
    stride: 1
    weight_filler {
      type: "gaussian"
      std: 0.01
    }
    engine: CAFFE
  }
}
layer {
  name: "conv5_5/dw/bn"
  type: "BatchNorm"
  bottom: "conv5_5/dw"
  top: "conv5_5/dw"
  batch_norm_param {
    moving_average_fraction: 0.999
    eps: 0.001
  }
}
layer {
  name: "conv5_5/dw/scale"
  type: "Scale"
  bottom: "conv5_5/dw"
  top: "conv5_5/dw"
  param {
    lr_mult: 1
    decay_mult: 0
  }
  param {
    lr_mult: 1
    decay_mult: 0
  }
  scale_param {
    filler {
      type: "constant"
      value: 1
    }
    bias_term: true
    bias_filler {
      type: "constant"
      value: 0
    }
  }
}
layer {
  name: "conv5_5/dw_relu"
  type: "ReLU"
  bottom: "conv5_5/dw"
  top: "conv5_5/dw"
}
layer {
  name: "conv5_5/sep"
  type: "Convolution"
  bottom: "conv5_5/dw"
  top: "conv5_5/sep"
  param {
    lr_mult: 1
    decay_mult: 1
  }
  convolution_param {
    num_output: 512
    bias_term: false
    pad: 0
    kernel_size: 1
    group: 1
    stride: 1
    weight_filler {
      type: "gaussian"
      std: 0.01
    }
    engine: DEFAULT
  }
}
layer {
  name: "conv5_5/sep/bn"
  type: "BatchNorm"
  bottom: "conv5_5/sep"
  top: "conv5_5/sep"
  batch_norm_param {
    moving_average_fraction: 0.999
    eps: 0.001
  }
}
layer {
  name: "conv5_5/sep/scale"
  type: "Scale"
  bottom: "conv5_5/sep"
  top: "conv5_5/sep"
  param {
    lr_mult: 1
    decay_mult: 0
  }
  param {
    lr_mult: 1
    decay_mult: 0
  }
  scale_param {
    filler {
      type: "constant"
      value: 1
    }
    bias_term: true
    bias_filler {
      type: "constant"
      value: 0
    }
  }
}
layer {
  name: "conv5_5/sep_relu"
  type: "ReLU"
  bottom: "conv5_5/sep"
  top: "conv5_5/sep"
}
layer {
  name: "conv5_6/dw"
  type: "Convolution"
  bottom: "conv5_5/sep"
  top: "conv5_6/dw"
  param {
    lr_mult: 1
    decay_mult: 1
  }
  convolution_param {
    num_output: 512
    bias_term: false
    pad: 1
    kernel_size: 3
    group: 512
    stride: 2
    weight_filler {
      type: "gaussian"
      std: 0.01
    }
    engine: CAFFE
  }
}
layer {
  name: "conv5_6/dw/bn"
  type: "BatchNorm"
  bottom: "conv5_6/dw"
  top: "conv5_6/dw"
  batch_norm_param {
    moving_average_fraction: 0.999
    eps: 0.001
  }
}
layer {
  name: "conv5_6/dw/scale"
  type: "Scale"
  bottom: "conv5_6/dw"
  top: "conv5_6/dw"
  param {
    lr_mult: 1
    decay_mult: 0
  }
  param {
    lr_mult: 1
    decay_mult: 0
  }
  scale_param {
    filler {
      type: "constant"
      value: 1
    }
    bias_term: true
    bias_filler {
      type: "constant"
      value: 0
    }
  }
}
layer {
  name: "conv5_6/dw_relu"
  type: "ReLU"
  bottom: "conv5_6/dw"
  top: "conv5_6/dw"
}
layer {
  name: "conv5_6/sep"
  type: "Convolution"
  bottom: "conv5_6/dw"
  top: "conv5_6/sep"
  param {
    lr_mult: 1
    decay_mult: 1
  }
  convolution_param {
    num_output: 1024
    bias_term: false
    pad: 0
    kernel_size: 1
    group: 1
    stride: 1
    weight_filler {
      type: "gaussian"
      std: 0.01
    }
    engine: DEFAULT
  }
}
layer {
  name: "conv5_6/sep/bn"
  type: "BatchNorm"
  bottom: "conv5_6/sep"
  top: "conv5_6/sep"
  batch_norm_param {
    moving_average_fraction: 0.999
    eps: 0.001
  }
}
layer {
  name: "conv5_6/sep/scale"
  type: "Scale"
  bottom: "conv5_6/sep"
  top: "conv5_6/sep"
  param {
    lr_mult: 1
    decay_mult: 0
  }
  param {
    lr_mult: 1
    decay_mult: 0
  }
  scale_param {
    filler {
      type: "constant"
      value: 1
    }
    bias_term: true
    bias_filler {
      type: "constant"
      value: 0
    }
  }
}
layer {
  name: "conv5_6/sep_relu"
  type: "ReLU"
  bottom: "conv5_6/sep"
  top: "conv5_6/sep"
}
layer {
  name: "conv6/dw"
  type: "Convolution"
  bottom: "conv5_6/sep"
  top: "conv6/dw"
  param {
    lr_mult: 1
    decay_mult: 1
  }
  convolution_param {
    num_output: 1024
    bias_term: false
    pad: 1
    kernel_size: 3
    group: 1024
    stride: 1
    weight_filler {
      type: "gaussian"
      std: 0.01
    }
    engine: CAFFE
  }
}
layer {
  name: "conv6/dw/bn"
  type: "BatchNorm"
  bottom: "conv6/dw"
  top: "conv6/dw"
  batch_norm_param {
    moving_average_fraction: 0.999
    eps: 0.001
  }
}
layer {
  name: "conv6/dw/scale"
  type: "Scale"
  bottom: "conv6/dw"
  top: "conv6/dw"
  param {
    lr_mult: 1
    decay_mult: 0
  }
  param {
    lr_mult: 1
    decay_mult: 0
  }
  scale_param {
    filler {
      type: "constant"
      value: 1
    }
    bias_term: true
    bias_filler {
      type: "constant"
      value: 0
    }
  }
}
layer {
  name: "conv6/dw_relu"
  type: "ReLU"
  bottom: "conv6/dw"
  top: "conv6/dw"
}
layer {
  name: "conv6/sep"
  type: "Convolution"
  bottom: "conv6/dw"
  top: "conv6/sep"
  param {
    lr_mult: 1
    decay_mult: 1
  }
  convolution_param {
    num_output: 1024
    bias_term: false
    pad: 0
    kernel_size: 1
    group: 1
    stride: 1
    weight_filler {
      type: "gaussian"
      std: 0.01
    }
    engine: DEFAULT
  }
}
layer {
  name: "conv6/sep/bn"
  type: "BatchNorm"
  bottom: "conv6/sep"
  top: "conv6/sep"
  batch_norm_param {
    moving_average_fraction: 0.999
    eps: 0.001
  }
}
layer {
  name: "conv6/sep/scale"
  type: "Scale"
  bottom: "conv6/sep"
  top: "conv6/sep"
  param {
    lr_mult: 1
    decay_mult: 0
  }
  param {
    lr_mult: 1
    decay_mult: 0
  }
  scale_param {
    filler {
      type: "constant"
      value: 1
    }
    bias_term: true
    bias_filler {
      type: "constant"
      value: 0
    }
  }
}
layer {
  name: "conv6/sep_relu"
  type: "ReLU"
  bottom: "conv6/sep"
  top: "conv6/sep"
}
layer {
  name: "conv7_1"
  type: "Convolution"
  bottom: "conv6/sep"
  top: "conv7_1"
  param {
    lr_mult: 1
    decay_mult: 1
  }
  param {
    lr_mult: 2
    decay_mult: 0
  }
  convolution_param {
    num_output: 256
    pad: 0
    kernel_size: 1
    group: 1
    stride: 1
    weight_filler {
      type: "xavier"
    }
    bias_filler {
      type: "constant"
      value: 0
    }
    engine: DEFAULT
  }
}
layer {
  name: "conv7_1_relu"
  type: "ReLU"
  bottom: "conv7_1"
  top: "conv7_1"
}
layer {
  name: "conv7_2"
  type: "Convolution"
  bottom: "conv7_1"
  top: "conv7_2"
  param {
    lr_mult: 1
    decay_mult: 1
  }
  param {
    lr_mult: 2
    decay_mult: 0
  }
  convolution_param {
    num_output: 512
    pad: 1
    kernel_size: 3
    group: 1
    stride: 2
    weight_filler {
      type: "xavier"
    }
    bias_filler {
      type: "constant"
      value: 0
    }
    engine: DEFAULT
  }
}
layer {
  name: "conv7_2_relu"
  type: "ReLU"
  bottom: "co
I0825 11:37:48.397806  4584 layer_factory.hpp:77] Creating layer data
I0825 11:37:48.398574  4584 net.cpp:100] Creating Layer data
I0825 11:37:48.398599  4584 net.cpp:408] data -> data
I0825 11:37:48.398648  4584 net.cpp:408] data -> label
I0825 11:37:48.400773  4591 db_lmdb.cpp:35] Opened lmdb data/BodyFaceRegions/lmdb/VOC0712_170404_161114_lmdb
I0825 11:37:48.455353  4584 annotated_data_layer.cpp:62] output data size: 16,3,300,300
I0825 11:37:48.498169  4584 net.cpp:150] Setting up data
I0825 11:37:48.498241  4584 net.cpp:157] Top shape: 16 3 300 300 (4320000)
I0825 11:37:48.498255  4584 net.cpp:157] Top shape: 1 1 4 8 (32)
I0825 11:37:48.498260  4584 net.cpp:165] Memory required for data: 17280128
I0825 11:37:48.498276  4584 layer_factory.hpp:77] Creating layer data_data_0_split
I0825 11:37:48.498302  4584 net.cpp:100] Creating Layer data_data_0_split
I0825 11:37:48.498312  4584 net.cpp:434] data_data_0_split <- data
I0825 11:37:48.498334  4584 net.cpp:408] data_data_0_split -> data_data_0_split_0
I0825 11:37:48.498353  4584 net.cpp:408] data_data_0_split -> data_data_0_split_1
I0825 11:37:48.498364  4584 net.cpp:408] data_data_0_split -> data_data_0_split_2
I0825 11:37:48.498376  4584 net.cpp:408] data_data_0_split -> data_data_0_split_3
I0825 11:37:48.498389  4584 net.cpp:408] data_data_0_split -> data_data_0_split_4
I0825 11:37:48.498433  4584 net.cpp:408] data_data_0_split -> data_data_0_split_5
I0825 11:37:48.498445  4584 net.cpp:408] data_data_0_split -> data_data_0_split_6
I0825 11:37:48.498603  4584 net.cpp:150] Setting up data_data_0_split
I0825 11:37:48.498615  4584 net.cpp:157] Top shape: 16 3 300 300 (4320000)
I0825 11:37:48.498623  4584 net.cpp:157] Top shape: 16 3 300 300 (4320000)
I0825 11:37:48.498632  4584 net.cpp:157] Top shape: 16 3 300 300 (4320000)
I0825 11:37:48.498641  4584 net.cpp:157] Top shape: 16 3 300 300 (4320000)
I0825 11:37:48.498648  4584 net.cpp:157] Top shape: 16 3 300 300 (4320000)
I0825 11:37:48.498656  4584 net.cpp:157] Top shape: 16 3 300 300 (4320000)
I0825 11:37:48.498663  4584 net.cpp:157] Top shape: 16 3 300 300 (4320000)
I0825 11:37:48.498669  4584 net.cpp:165] Memory required for data: 138240128
I0825 11:37:48.498677  4584 layer_factory.hpp:77] Creating layer conv1
I0825 11:37:48.498704  4584 net.cpp:100] Creating Layer conv1
I0825 11:37:48.498711  4584 net.cpp:434] conv1 <- data_data_0_split_0
I0825 11:37:48.498726  4584 net.cpp:408] conv1 -> conv1
I0825 11:37:48.539465  4592 blocking_queue.cpp:50] Waiting for data
I0825 11:37:49.026895  4584 net.cpp:150] Setting up conv1
I0825 11:37:49.026935  4584 net.cpp:157] Top shape: 16 32 150 150 (11520000)
I0825 11:37:49.026940  4584 net.cpp:165] Memory required for data: 184320128
I0825 11:37:49.026962  4584 layer_factory.hpp:77] Creating layer conv1/bn
I0825 11:37:49.027021  4584 net.cpp:100] Creating Layer conv1/bn
I0825 11:37:49.027029  4584 net.cpp:434] conv1/bn <- conv1
I0825 11:37:49.027040  4584 net.cpp:395] conv1/bn -> conv1 (in-place)
I0825 11:37:49.028013  4584 net.cpp:150] Setting up conv1/bn
I0825 11:37:49.028033  4584 net.cpp:157] Top shape: 16 32 150 150 (11520000)
I0825 11:37:49.028036  4584 net.cpp:165] Memory required for data: 230400128
I0825 11:37:49.028053  4584 layer_factory.hpp:77] Creating layer conv1/scale
I0825 11:37:49.028072  4584 net.cpp:100] Creating Layer conv1/scale
I0825 11:37:49.028079  4584 net.cpp:434] conv1/scale <- conv1
I0825 11:37:49.028087  4584 net.cpp:395] conv1/scale -> conv1 (in-place)
I0825 11:37:49.028162  4584 layer_factory.hpp:77] Creating layer conv1/scale
I0825 11:37:49.028394  4584 net.cpp:150] Setting up conv1/scale
I0825 11:37:49.028409  4584 net.cpp:157] Top shape: 16 32 150 150 (11520000)
I0825 11:37:49.028414  4584 net.cpp:165] Memory required for data: 276480128
I0825 11:37:49.028429  4584 layer_factory.hpp:77] Creating layer conv1_relu
I0825 11:37:49.028439  4584 net.cpp:100] Creating Layer conv1_relu
I0825 11:37:49.028446  4584 net.cpp:434] conv1_relu <- conv1
I0825 11:37:49.028455  4584 net.cpp:395] conv1_relu -> conv1 (in-place)
I0825 11:37:49.028725  4584 net.cpp:150] Setting up conv1_relu
I0825 11:37:49.028740  4584 net.cpp:157] Top shape: 16 32 150 150 (11520000)
I0825 11:37:49.028746  4584 net.cpp:165] Memory required for data: 322560128
I0825 11:37:49.028753  4584 layer_factory.hpp:77] Creating layer conv2_1/dw
I0825 11:37:49.028769  4584 net.cpp:100] Creating Layer conv2_1/dw
I0825 11:37:49.028774  4584 net.cpp:434] conv2_1/dw <- conv1
I0825 11:37:49.028784  4584 net.cpp:408] conv2_1/dw -> conv2_1/dw
I0825 11:37:49.029057  4584 net.cpp:150] Setting up conv2_1/dw
I0825 11:37:49.029067  4584 net.cpp:157] Top shape: 16 32 150 150 (11520000)
I0825 11:37:49.029072  4584 net.cpp:165] Memory required for data: 368640128
I0825 11:37:49.029081  4584 layer_factory.hpp:77] Creating layer conv2_1/dw/bn
I0825 11:37:49.029091  4584 net.cpp:100] Creating Layer conv2_1/dw/bn
I0825 11:37:49.029098  4584 net.cpp:434] conv2_1/dw/bn <- conv2_1/dw
I0825 11:37:49.029105  4584 net.cpp:395] conv2_1/dw/bn -> conv2_1/dw (in-place)
I0825 11:37:49.029376  4584 net.cpp:150] Setting up conv2_1/dw/bn
I0825 11:37:49.029386  4584 net.cpp:157] Top shape: 16 32 150 150 (11520000)
I0825 11:37:49.029392  4584 net.cpp:165] Memory required for data: 414720128
I0825 11:37:49.029408  4584 layer_factory.hpp:77] Creating layer conv2_1/dw/scale
I0825 11:37:49.029420  4584 net.cpp:100] Creating Layer conv2_1/dw/scale
I0825 11:37:49.029453  4584 net.cpp:434] conv2_1/dw/scale <- conv2_1/dw
I0825 11:37:49.029462  4584 net.cpp:395] conv2_1/dw/scale -> conv2_1/dw (in-place)
I0825 11:37:49.029523  4584 layer_factory.hpp:77] Creating layer conv2_1/dw/scale
I0825 11:37:49.029713  4584 net.cpp:150] Setting up conv2_1/dw/scale
I0825 11:37:49.029724  4584 net.cpp:157] Top shape: 16 32 150 150 (11520000)
I0825 11:37:49.029731  4584 net.cpp:165] Memory required for data: 460800128
I0825 11:37:49.029742  4584 layer_factory.hpp:77] Creating layer conv2_1/dw_relu
I0825 11:37:49.029750  4584 net.cpp:100] Creating Layer conv2_1/dw_relu
I0825 11:37:49.029757  4584 net.cpp:434] conv2_1/dw_relu <- conv2_1/dw
I0825 11:37:49.029765  4584 net.cpp:395] conv2_1/dw_relu -> conv2_1/dw (in-place)
I0825 11:37:49.030760  4584 net.cpp:150] Setting up conv2_1/dw_relu
I0825 11:37:49.030778  4584 net.cpp:157] Top shape: 16 32 150 150 (11520000)
I0825 11:37:49.030782  4584 net.cpp:165] Memory required for data: 506880128
I0825 11:37:49.030788  4584 layer_factory.hpp:77] Creating layer conv2_1/sep
I0825 11:37:49.030800  4584 net.cpp:100] Creating Layer conv2_1/sep
I0825 11:37:49.030807  4584 net.cpp:434] conv2_1/sep <- conv2_1/dw
I0825 11:37:49.030817  4584 net.cpp:408] conv2_1/sep -> conv2_1/sep
I0825 11:37:49.033291  4584 net.cpp:150] Setting up conv2_1/sep
I0825 11:37:49.033314  4584 net.cpp:157] Top shape: 16 64 150 150 (23040000)
I0825 11:37:49.033321  4584 net.cpp:165] Memory required for data: 599040128
I0825 11:37:49.033331  4584 layer_factory.hpp:77] Creating layer conv2_1/sep/bn
I0825 11:37:49.033341  4584 net.cpp:100] Creating Layer conv2_1/sep/bn
I0825 11:37:49.033349  4584 net.cpp:434] conv2_1/sep/bn <- conv2_1/sep
I0825 11:37:49.033360  4584 net.cpp:395] conv2_1/sep/bn -> conv2_1/sep (in-place)
I0825 11:37:49.033668  4584 net.cpp:150] Setting up conv2_1/sep/bn
I0825 11:37:49.033682  4584 net.cpp:157] Top shape: 16 64 150 150 (23040000)
I0825 11:37:49.033689  4584 net.cpp:165] Memory required for data: 691200128
I0825 11:37:49.033700  4584 layer_factory.hpp:77] Creating layer conv2_1/sep/scale
I0825 11:37:49.033712  4584 net.cpp:100] Creating Layer conv2_1/sep/scale
I0825 11:37:49.033718  4584 net.cpp:434] conv2_1/sep/scale <- conv2_1/sep
I0825 11:37:49.033726  4584 net.cpp:395] conv2_1/sep/scale -> conv2_1/sep (in-place)
I0825 11:37:49.033787  4584 layer_factory.hpp:77] Creating layer conv2_1/sep/scale
I0825 11:37:49.033993  4584 net.cpp:150] Setting up conv2_1/sep/scale
I0825 11:37:49.034004  4584 net.cpp:157] Top shape: 16 64 150 150 (23040000)
I0825 11:37:49.034010  4584 net.cpp:165] Memory required for data: 783360128
I0825 11:37:49.034026  4584 layer_factory.hpp:77] Creating layer conv2_1/sep_relu
I0825 11:37:49.034035  4584 net.cpp:100] Creating Layer conv2_1/sep_relu
I0825 11:37:49.034041  4584 net.cpp:434] conv2_1/sep_relu <- conv2_1/sep
I0825 11:37:49.034051  4584 net.cpp:395] conv2_1/sep_relu -> conv2_1/sep (in-place)
I0825 11:37:49.035055  4584 net.cpp:150] Setting up conv2_1/sep_relu
I0825 11:37:49.035074  4584 net.cpp:157] Top shape: 16 64 150 150 (23040000)
I0825 11:37:49.035079  4584 net.cpp:165] Memory required for data: 875520128
I0825 11:37:49.035086  4584 layer_factory.hpp:77] Creating layer conv2_2/dw
I0825 11:37:49.035101  4584 net.cpp:100] Creating Layer conv2_2/dw
I0825 11:37:49.035109  4584 net.cpp:434] conv2_2/dw <- conv2_1/sep
I0825 11:37:49.035121  4584 net.cpp:408] conv2_2/dw -> conv2_2/dw
I0825 11:37:49.035415  4584 net.cpp:150] Setting up conv2_2/dw
I0825 11:37:49.035426  4584 net.cpp:157] Top shape: 16 64 75 75 (5760000)
I0825 11:37:49.035432  4584 net.cpp:165] Memory required for data: 898560128
I0825 11:37:49.035440  4584 layer_factory.hpp:77] Creating layer conv2_2/dw/bn
I0825 11:37:49.035451  4584 net.cpp:100] Creating Layer conv2_2/dw/bn
I0825 11:37:49.035459  4584 net.cpp:434] conv2_2/dw/bn <- conv2_2/dw
I0825 11:37:49.035467  4584 net.cpp:395] conv2_2/dw/bn -> conv2_2/dw (in-place)
I0825 11:37:49.036397  4584 net.cpp:150] Setting up conv2_2/dw/bn
I0825 11:37:49.036417  4584 net.cpp:157] Top shape: 16 64 75 75 (5760000)
I0825 11:37:49.036439  4584 net.cpp:165] Memory required for data: 921600128
I0825 11:37:49.036453  4584 layer_factory.hpp:77] Creating layer conv2_2/dw/scale
I0825 11:37:49.036470  4584 net.cpp:100] Creating Layer conv2_2/dw/scale
I0825 11:37:49.036478  4584 net.cpp:434] conv2_2/dw/scale <- conv2_2/dw
I0825 11:37:49.036489  4584 net.cpp:395] conv2_2/dw/scale -> conv2_2/dw (in-place)
I0825 11:37:49.036556  4584 layer_factory.hpp:77] Creating layer conv2_2/dw/scale
I0825 11:37:49.036741  4584 net.cpp:150] Setting up conv2_2/dw/scale
I0825 11:37:49.036752  4584 net.cpp:157] Top shape: 16 64 75 75 (5760000)
I0825 11:37:49.036758  4584 net.cpp:165] Memory required for data: 944640128
I0825 11:37:49.036770  4584 layer_factory.hpp:77] Creating layer conv2_2/dw_relu
I0825 11:37:49.036779  4584 net.cpp:100] Creating Layer conv2_2/dw_relu
I0825 11:37:49.036787  4584 net.cpp:434] conv2_2/dw_relu <- conv2_2/dw
I0825 11:37:49.036795  4584 net.cpp:395] conv2_2/dw_relu -> conv2_2/dw (in-place)
I0825 11:37:49.037065  4584 net.cpp:150] Setting up conv2_2/dw_relu
I0825 11:37:49.037081  4584 net.cpp:157] Top shape: 16 64 75 75 (5760000)
I0825 11:37:49.037086  4584 net.cpp:165] Memory required for data: 967680128
I0825 11:37:49.037094  4584 layer_factory.hpp:77] Creating layer conv2_2/sep
I0825 11:37:49.037108  4584 net.cpp:100] Creating Layer conv2_2/sep
I0825 11:37:49.037116  4584 net.cpp:434] conv2_2/sep <- conv2_2/dw
I0825 11:37:49.037124  4584 net.cpp:408] conv2_2/sep -> conv2_2/sep
I0825 11:37:49.041079  4584 net.cpp:150] Setting up conv2_2/sep
I0825 11:37:49.041100  4584 net.cpp:157] Top shape: 16 128 75 75 (11520000)
I0825 11:37:49.041142  4584 net.cpp:165] Memory required for data: 1013760128
I0825 11:37:49.041152  4584 layer_factory.hpp:77] Creating layer conv2_2/sep/bn
I0825 11:37:49.041163  4584 net.cpp:100] Creating Layer conv2_2/sep/bn
I0825 11:37:49.041170  4584 net.cpp:434] conv2_2/sep/bn <- conv2_2/sep
I0825 11:37:49.041178  4584 net.cpp:395] conv2_2/sep/bn -> conv2_2/sep (in-place)
I0825 11:37:49.041446  4584 net.cpp:150] Setting up conv2_2/sep/bn
I0825 11:37:49.041458  4584 net.cpp:157] Top shape: 16 128 75 75 (11520000)
I0825 11:37:49.041465  4584 net.cpp:165] Memory required for data: 1059840128
I0825 11:37:49.041476  4584 layer_factory.hpp:77] Creating layer conv2_2/sep/scale
I0825 11:37:49.041486  4584 net.cpp:100] Creating Layer conv2_2/sep/scale
I0825 11:37:49.041491  4584 net.cpp:434] conv2_2/sep/scale <- conv2_2/sep
I0825 11:37:49.041499  4584 net.cpp:395] conv2_2/sep/scale -> conv2_2/sep (in-place)
I0825 11:37:49.041559  4584 layer_factory.hpp:77] Creating layer conv2_2/sep/scale
I0825 11:37:49.041714  4584 net.cpp:150] Setting up conv2_2/sep/scale
I0825 11:37:49.041725  4584 net.cpp:157] Top shape: 16 128 75 75 (11520000)
I0825 11:37:49.041730  4584 net.cpp:165] Memory required for data: 1105920128
I0825 11:37:49.041739  4584 layer_factory.hpp:77] Creating layer conv2_2/sep_relu
I0825 11:37:49.041750  4584 net.cpp:100] Creating Layer conv2_2/sep_relu
I0825 11:37:49.041756  4584 net.cpp:434] conv2_2/sep_relu <- conv2_2/sep
I0825 11:37:49.041764  4584 net.cpp:395] conv2_2/sep_relu -> conv2_2/sep (in-place)
I0825 11:37:49.042747  4584 net.cpp:150] Setting up conv2_2/sep_relu
I0825 11:37:49.042767  4584 net.cpp:157] Top shape: 16 128 75 75 (11520000)
I0825 11:37:49.042773  4584 net.cpp:165] Memory required for data: 1152000128
I0825 11:37:49.042778  4584 layer_factory.hpp:77] Creating layer conv3_1/dw
I0825 11:37:49.042794  4584 net.cpp:100] Creating Layer conv3_1/dw
I0825 11:37:49.042801  4584 net.cpp:434] conv3_1/dw <- conv2_2/sep
I0825 11:37:49.042811  4584 net.cpp:408] conv3_1/dw -> conv3_1/dw
I0825 11:37:49.043097  4584 net.cpp:150] Setting up conv3_1/dw
I0825 11:37:49.043107  4584 net.cpp:157] Top shape: 16 128 75 75 (11520000)
I0825 11:37:49.043113  4584 net.cpp:165] Memory required for data: 1198080128
I0825 11:37:49.043123  4584 layer_factory.hpp:77] Creating layer conv3_1/dw/bn
I0825 11:37:49.043131  4584 net.cpp:100] Creating Layer conv3_1/dw/bn
I0825 11:37:49.043138  4584 net.cpp:434] conv3_1/dw/bn <- conv3_1/dw
I0825 11:37:49.043164  4584 net.cpp:395] conv3_1/dw/bn -> conv3_1/dw (in-place)
I0825 11:37:49.043428  4584 net.cpp:150] Setting up conv3_1/dw/bn
I0825 11:37:49.043438  4584 net.cpp:157] Top shape: 16 128 75 75 (11520000)
I0825 11:37:49.043443  4584 net.cpp:165] Memory required for data: 1244160128
I0825 11:37:49.043462  4584 layer_factory.hpp:77] Creating layer conv3_1/dw/scale
I0825 11:37:49.043473  4584 net.cpp:100] Creating Layer conv3_1/dw/scale
I0825 11:37:49.043479  4584 net.cpp:434] conv3_1/dw/scale <- conv3_1/dw
I0825 11:37:49.043514  4584 net.cpp:395] conv3_1/dw/scale -> conv3_1/dw (in-place)
I0825 11:37:49.043573  4584 layer_factory.hpp:77] Creating layer conv3_1/dw/scale
I0825 11:37:49.043730  4584 net.cpp:150] Setting up conv3_1/dw/scale
I0825 11:37:49.043740  4584 net.cpp:157] Top shape: 16 128 75 75 (11520000)
I0825 11:37:49.043745  4584 net.cpp:165] Memory required for data: 1290240128
I0825 11:37:49.043754  4584 layer_factory.hpp:77] Creating layer conv3_1/dw_relu
I0825 11:37:49.043764  4584 net.cpp:100] Creating Layer conv3_1/dw_relu
I0825 11:37:49.043771  4584 net.cpp:434] conv3_1/dw_relu <- conv3_1/dw
I0825 11:37:49.043778  4584 net.cpp:395] conv3_1/dw_relu -> conv3_1/dw (in-place)
I0825 11:37:49.044031  4584 net.cpp:150] Setting up conv3_1/dw_relu
I0825 11:37:49.044046  4584 net.cpp:157] Top shape: 16 128 75 75 (11520000)
I0825 11:37:49.044051  4584 net.cpp:165] Memory required for data: 1336320128
I0825 11:37:49.044057  4584 layer_factory.hpp:77] Creating layer conv3_1/sep
I0825 11:37:49.044071  4584 net.cpp:100] Creating Layer conv3_1/sep
I0825 11:37:49.044077  4584 net.cpp:434] conv3_1/sep <- conv3_1/dw
I0825 11:37:49.044087  4584 net.cpp:408] conv3_1/sep -> conv3_1/sep
I0825 11:37:49.046816  4584 net.cpp:150] Setting up conv3_1/sep
I0825 11:37:49.046844  4584 net.cpp:157] Top shape: 16 128 75 75 (11520000)
I0825 11:37:49.046849  4584 net.cpp:165] Memory required for data: 1382400128
I0825 11:37:49.046859  4584 layer_factory.hpp:77] Creating layer conv3_1/sep/bn
I0825 11:37:49.046869  4584 net.cpp:100] Creating Layer conv3_1/sep/bn
I0825 11:37:49.046876  4584 net.cpp:434] conv3_1/sep/bn <- conv3_1/sep
I0825 11:37:49.046886  4584 net.cpp:395] conv3_1/sep/bn -> conv3_1/sep (in-place)
I0825 11:37:49.047154  4584 net.cpp:150] Setting up conv3_1/sep/bn
I0825 11:37:49.047165  4584 net.cpp:157] Top shape: 16 128 75 75 (11520000)
I0825 11:37:49.047170  4584 net.cpp:165] Memory required for data: 1428480128
I0825 11:37:49.047181  4584 layer_factory.hpp:77] Creating layer conv3_1/sep/scale
I0825 11:37:49.047194  4584 net.cpp:100] Creating Layer conv3_1/sep/scale
I0825 11:37:49.047199  4584 net.cpp:434] conv3_1/sep/scale <- conv3_1/sep
I0825 11:37:49.047207  4584 net.cpp:395] conv3_1/sep/scale -> conv3_1/sep (in-place)
I0825 11:37:49.047264  4584 layer_factory.hpp:77] Creating layer conv3_1/sep/scale
I0825 11:37:49.047425  4584 net.cpp:150] Setting up conv3_1/sep/scale
I0825 11:37:49.047435  4584 net.cpp:157] Top shape: 16 128 75 75 (11520000)
I0825 11:37:49.047441  4584 net.cpp:165] Memory required for data: 1474560128
I0825 11:37:49.047451  4584 layer_factory.hpp:77] Creating layer conv3_1/sep_relu
I0825 11:37:49.047459  4584 net.cpp:100] Creating Layer conv3_1/sep_relu
I0825 11:37:49.047464  4584 net.cpp:434] conv3_1/sep_relu <- conv3_1/sep
I0825 11:37:49.047475  4584 net.cpp:395] conv3_1/sep_relu -> conv3_1/sep (in-place)
I0825 11:37:49.048452  4584 net.cpp:150] Setting up conv3_1/sep_relu
I0825 11:37:49.048471  4584 net.cpp:157] Top shape: 16 128 75 75 (11520000)
I0825 11:37:49.048476  4584 net.cpp:165] Memory required for data: 1520640128
I0825 11:37:49.048483  4584 layer_factory.hpp:77] Creating layer conv3_2/dw
I0825 11:37:49.048498  4584 net.cpp:100] Creating Layer conv3_2/dw
I0825 11:37:49.048504  4584 net.cpp:434] conv3_2/dw <- conv3_1/sep
I0825 11:37:49.048516  4584 net.cpp:408] conv3_2/dw -> conv3_2/dw
I0825 11:37:49.048812  4584 net.cpp:150] Setting up conv3_2/dw
I0825 11:37:49.048825  4584 net.cpp:157] Top shape: 16 128 38 38 (2957312)
I0825 11:37:49.048828  4584 net.cpp:165] Memory required for data: 1532469376
I0825 11:37:49.048851  4584 layer_factory.hpp:77] Creating layer conv3_2/dw/bn
I0825 11:37:49.048861  4584 net.cpp:100] Creating Layer conv3_2/dw/bn
I0825 11:37:49.048866  4584 net.cpp:434] conv3_2/dw/bn <- conv3_2/dw
I0825 11:37:49.048877  4584 net.cpp:395] conv3_2/dw/bn -> conv3_2/dw (in-place)
I0825 11:37:49.049131  4584 net.cpp:150] Setting up conv3_2/dw/bn
I0825 11:37:49.049142  4584 net.cpp:157] Top shape: 16 128 38 38 (2957312)
I0825 11:37:49.049149  4584 net.cpp:165] Memory required for data: 1544298624
I0825 11:37:49.049160  4584 layer_factory.hpp:77] Creating layer conv3_2/dw/scale
I0825 11:37:49.049175  4584 net.cpp:100] Creating Layer conv3_2/dw/scale
I0825 11:37:49.049181  4584 net.cpp:434] conv3_2/dw/scale <- conv3_2/dw
I0825 11:37:49.049190  4584 net.cpp:395] conv3_2/dw/scale -> conv3_2/dw (in-place)
I0825 11:37:49.049249  4584 layer_factory.hpp:77] Creating layer conv3_2/dw/scale
I0825 11:37:49.049403  4584 net.cpp:150] Setting up conv3_2/dw/scale
I0825 11:37:49.049414  4584 net.cpp:157] Top shape: 16 128 38 38 (2957312)
I0825 11:37:49.049419  4584 net.cpp:165] Memory required for data: 1556127872
I0825 11:37:49.049428  4584 layer_factory.hpp:77] Creating layer conv3_2/dw_relu
I0825 11:37:49.049438  4584 net.cpp:100] Creating Layer conv3_2/dw_relu
I0825 11:37:49.049444  4584 net.cpp:434] conv3_2/dw_relu <- conv3_2/dw
I0825 11:37:49.049453  4584 net.cpp:395] conv3_2/dw_relu -> conv3_2/dw (in-place)
I0825 11:37:49.049708  4584 net.cpp:150] Setting up conv3_2/dw_relu
I0825 11:37:49.049721  4584 net.cpp:157] Top shape: 16 128 38 38 (2957312)
I0825 11:37:49.049727  4584 net.cpp:165] Memory required for data: 1567957120
I0825 11:37:49.049733  4584 layer_factory.hpp:77] Creating layer conv3_2/sep
I0825 11:37:49.049746  4584 net.cpp:100] Creating Layer conv3_2/sep
I0825 11:37:49.049752  4584 net.cpp:434] conv3_2/sep <- conv3_2/dw
I0825 11:37:49.049762  4584 net.cpp:408] conv3_2/sep -> conv3_2/sep
I0825 11:37:49.052719  4584 net.cpp:150] Setting up conv3_2/sep
I0825 11:37:49.052738  4584 net.cpp:157] Top shape: 16 256 38 38 (5914624)
I0825 11:37:49.052744  4584 net.cpp:165] Memory required for data: 1591615616
I0825 11:37:49.052754  4584 layer_factory.hpp:77] Creating layer conv3_2/sep/bn
I0825 11:37:49.052764  4584 net.cpp:100] Creating Layer conv3_2/sep/bn
I0825 11:37:49.052770  4584 net.cpp:434] conv3_2/sep/bn <- conv3_2/sep
I0825 11:37:49.052780  4584 net.cpp:395] conv3_2/sep/bn -> conv3_2/sep (in-place)
I0825 11:37:49.053040  4584 net.cpp:150] Setting up conv3_2/sep/bn
I0825 11:37:49.053050  4584 net.cpp:157] Top shape: 16 256 38 38 (5914624)
I0825 11:37:49.053055  4584 net.cpp:165] Memory required for data: 1615274112
I0825 11:37:49.053066  4584 layer_factory.hpp:77] Creating layer conv3_2/sep/scale
I0825 11:37:49.053076  4584 net.cpp:100] Creating Layer conv3_2/sep/scale
I0825 11:37:49.053081  4584 net.cpp:434] conv3_2/sep/scale <- conv3_2/sep
I0825 11:37:49.053092  4584 net.cpp:395] conv3_2/sep/scale -> conv3_2/sep (in-place)
I0825 11:37:49.053148  4584 layer_factory.hpp:77] Creating layer conv3_2/sep/scale
I0825 11:37:49.053294  4584 net.cpp:150] Setting up conv3_2/sep/scale
I0825 11:37:49.053304  4584 net.cpp:157] Top shape: 16 256 38 38 (5914624)
I0825 11:37:49.053309  4584 net.cpp:165] Memory required for data: 1638932608
I0825 11:37:49.053319  4584 layer_factory.hpp:77] Creating layer conv3_2/sep_relu
I0825 11:37:49.053328  4584 net.cpp:100] Creating Layer conv3_2/sep_relu
I0825 11:37:49.053333  4584 net.cpp:434] conv3_2/sep_relu <- conv3_2/sep
I0825 11:37:49.053344  4584 net.cpp:395] conv3_2/sep_relu -> conv3_2/sep (in-place)
I0825 11:37:49.054275  4584 net.cpp:150] Setting up conv3_2/sep_relu
I0825 11:37:49.054296  4584 net.cpp:157] Top shape: 16 256 38 38 (5914624)
I0825 11:37:49.054301  4584 net.cpp:165] Memory required for data: 1662591104
I0825 11:37:49.054307  4584 layer_factory.hpp:77] Creating layer conv4_1/dw
I0825 11:37:49.054321  4584 net.cpp:100] Creating Layer conv4_1/dw
I0825 11:37:49.054327  4584 net.cpp:434] conv4_1/dw <- conv3_2/sep
I0825 11:37:49.054354  4584 net.cpp:408] conv4_1/dw -> conv4_1/dw
I0825 11:37:49.054662  4584 net.cpp:150] Setting up conv4_1/dw
I0825 11:37:49.054673  4584 net.cpp:157] Top shape: 16 256 38 38 (5914624)
I0825 11:37:49.054678  4584 net.cpp:165] Memory required for data: 1686249600
I0825 11:37:49.054687  4584 layer_factory.hpp:77] Creating layer conv4_1/dw/bn
I0825 11:37:49.054695  4584 net.cpp:100] Creating Layer conv4_1/dw/bn
I0825 11:37:49.054702  4584 net.cpp:434] conv4_1/dw/bn <- conv4_1/dw
I0825 11:37:49.054709  4584 net.cpp:395] conv4_1/dw/bn -> conv4_1/dw (in-place)
I0825 11:37:49.054955  4584 net.cpp:150] Setting up conv4_1/dw/bn
I0825 11:37:49.054965  4584 net.cpp:157] Top shape: 16 256 38 38 (5914624)
I0825 11:37:49.054971  4584 net.cpp:165] Memory required for data: 1709908096
I0825 11:37:49.054982  4584 layer_factory.hpp:77] Creating layer conv4_1/dw/scale
I0825 11:37:49.054992  4584 net.cpp:100] Creating Layer conv4_1/dw/scale
I0825 11:37:49.054998  4584 net.cpp:434] conv4_1/dw/scale <- conv4_1/dw
I0825 11:37:49.055006  4584 net.cpp:395] conv4_1/dw/scale -> conv4_1/dw (in-place)
I0825 11:37:49.055065  4584 layer_factory.hpp:77] Creating layer conv4_1/dw/scale
I0825 11:37:49.055209  4584 net.cpp:150] Setting up conv4_1/dw/scale
I0825 11:37:49.055220  4584 net.cpp:157] Top shape: 16 256 38 38 (5914624)
I0825 11:37:49.055225  4584 net.cpp:165] Memory required for data: 1733566592
I0825 11:37:49.055235  4584 layer_factory.hpp:77] Creating layer conv4_1/dw_relu
I0825 11:37:49.055243  4584 net.cpp:100] Creating Layer conv4_1/dw_relu
I0825 11:37:49.055248  4584 net.cpp:434] conv4_1/dw_relu <- conv4_1/dw
I0825 11:37:49.055258  4584 net.cpp:395] conv4_1/dw_relu -> conv4_1/dw (in-place)
I0825 11:37:49.055507  4584 net.cpp:150] Setting up conv4_1/dw_relu
I0825 11:37:49.055522  4584 net.cpp:157] Top shape: 16 256 38 38 (5914624)
I0825 11:37:49.055527  4584 net.cpp:165] Memory required for data: 1757225088
I0825 11:37:49.055533  4584 layer_factory.hpp:77] Creating layer conv4_1/sep
I0825 11:37:49.055544  4584 net.cpp:100] Creating Layer conv4_1/sep
I0825 11:37:49.055550  4584 net.cpp:434] conv4_1/sep <- conv4_1/dw
I0825 11:37:49.055562  4584 net.cpp:408] conv4_1/sep -> conv4_1/sep
I0825 11:37:49.060418  4584 net.cpp:150] Setting up conv4_1/sep
I0825 11:37:49.060438  4584 net.cpp:157] Top shape: 16 256 38 38 (5914624)
I0825 11:37:49.060442  4584 net.cpp:165] Memory required for data: 1780883584
I0825 11:37:49.060451  4584 layer_factory.hpp:77] Creating layer conv4_1/sep/bn
I0825 11:37:49.060458  4584 net.cpp:100] Creating Layer conv4_1/sep/bn
I0825 11:37:49.060464  4584 net.cpp:434] conv4_1/sep/bn <- conv4_1/sep
I0825 11:37:49.060472  4584 net.cpp:395] conv4_1/sep/bn -> conv4_1/sep (in-place)
I0825 11:37:49.060765  4584 net.cpp:150] Setting up conv4_1/sep/bn
I0825 11:37:49.060776  4584 net.cpp:157] Top shape: 16 256 38 38 (5914624)
I0825 11:37:49.060781  4584 net.cpp:165] Memory required for data: 1804542080
I0825 11:37:49.060789  4584 layer_factory.hpp:77] Creating layer conv4_1/sep/scale
I0825 11:37:49.060797  4584 net.cpp:100] Creating Layer conv4_1/sep/scale
I0825 11:37:49.060801  4584 net.cpp:434] conv4_1/sep/scale <- conv4_1/sep
I0825 11:37:49.060811  4584 net.cpp:395] conv4_1/sep/scale -> conv4_1/sep (in-place)
I0825 11:37:49.060869  4584 layer_factory.hpp:77] Creating layer conv4_1/sep/scale
I0825 11:37:49.061019  4584 net.cpp:150] Setting up conv4_1/sep/scale
I0825 11:37:49.061030  4584 net.cpp:157] Top shape: 16 256 38 38 (5914624)
I0825 11:37:49.061035  4584 net.cpp:165] Memory required for data: 1828200576
I0825 11:37:49.061054  4584 layer_factory.hpp:77] Creating layer conv4_1/sep_relu
I0825 11:37:49.061064  4584 net.cpp:100] Creating Layer conv4_1/sep_relu
I0825 11:37:49.061070  4584 net.cpp:434] conv4_1/sep_relu <- conv4_1/sep
I0825 11:37:49.061077  4584 net.cpp:395] conv4_1/sep_relu -> conv4_1/sep (in-place)
I0825 11:37:49.061345  4584 net.cpp:150] Setting up conv4_1/sep_relu
I0825 11:37:49.061360  4584 net.cpp:157] Top shape: 16 256 38 38 (5914624)
I0825 11:37:49.061367  4584 net.cpp:165] Memory required for data: 1851859072
I0825 11:37:49.061388  4584 layer_factory.hpp:77] Creating layer conv4_2/dw
I0825 11:37:49.061399  4584 net.cpp:100] Creating Layer conv4_2/dw
I0825 11:37:49.061406  4584 net.cpp:434] conv4_2/dw <- conv4_1/sep
I0825 11:37:49.061419  4584 net.cpp:408] conv4_2/dw -> conv4_2/dw
I0825 11:37:49.061733  4584 net.cpp:150] Setting up conv4_2/dw
I0825 11:37:49.061744  4584 net.cpp:157] Top shape: 16 256 19 19 (1478656)
I0825 11:37:49.061748  4584 net.cpp:165] Memory required for data: 1857773696
I0825 11:37:49.061754  4584 layer_factory.hpp:77] Creating layer conv4_2/dw/bn
I0825 11:37:49.061760  4584 net.cpp:100] Creating Layer conv4_2/dw/bn
I0825 11:37:49.061765  4584 net.cpp:434] conv4_2/dw/bn <- conv4_2/dw
I0825 11:37:49.061770  4584 net.cpp:395] conv4_2/dw/bn -> conv4_2/dw (in-place)
I0825 11:37:49.062023  4584 net.cpp:150] Setting up conv4_2/dw/bn
I0825 11:37:49.062036  4584 net.cpp:157] Top shape: 16 256 19 19 (1478656)
I0825 11:37:49.062041  4584 net.cpp:165] Memory required for data: 1863688320
I0825 11:37:49.062052  4584 layer_factory.hpp:77] Creating layer conv4_2/dw/scale
I0825 11:37:49.062060  4584 net.cpp:100] Creating Layer conv4_2/dw/scale
I0825 11:37:49.062067  4584 net.cpp:434] conv4_2/dw/scale <- conv4_2/dw
I0825 11:37:49.062074  4584 net.cpp:395] conv4_2/dw/scale -> conv4_2/dw (in-place)
I0825 11:37:49.062134  4584 layer_factory.hpp:77] Creating layer conv4_2/dw/scale
I0825 11:37:49.062285  4584 net.cpp:150] Setting up conv4_2/dw/scale
I0825 11:37:49.062295  4584 net.cpp:157] Top shape: 16 256 19 19 (1478656)
I0825 11:37:49.062300  4584 net.cpp:165] Memory required for data: 1869602944
I0825 11:37:49.062309  4584 layer_factory.hpp:77] Creating layer conv4_2/dw_relu
I0825 11:37:49.062319  4584 net.cpp:100] Creating Layer conv4_2/dw_relu
I0825 11:37:49.062325  4584 net.cpp:434] conv4_2/dw_relu <- conv4_2/dw
I0825 11:37:49.062332  4584 net.cpp:395] conv4_2/dw_relu -> conv4_2/dw (in-place)
I0825 11:37:49.063268  4584 net.cpp:150] Setting up conv4_2/dw_relu
I0825 11:37:49.063285  4584 net.cpp:157] Top shape: 16 256 19 19 (1478656)
I0825 11:37:49.063289  4584 net.cpp:165] Memory required for data: 1875517568
I0825 11:37:49.063294  4584 layer_factory.hpp:77] Creating layer conv4_2/sep
I0825 11:37:49.063308  4584 net.cpp:100] Creating Layer conv4_2/sep
I0825 11:37:49.063314  4584 net.cpp:434] conv4_2/sep <- conv4_2/dw
I0825 11:37:49.063323  4584 net.cpp:408] conv4_2/sep -> conv4_2/sep
I0825 11:37:49.068629  4584 net.cpp:150] Setting up conv4_2/sep
I0825 11:37:49.068648  4584 net.cpp:157] Top shape: 16 512 19 19 (2957312)
I0825 11:37:49.068652  4584 net.cpp:165] Memory required for data: 1887346816
I0825 11:37:49.068660  4584 layer_factory.hpp:77] Creating layer conv4_2/sep/bn
I0825 11:37:49.068668  4584 net.cpp:100] Creating Layer conv4_2/sep/bn
I0825 11:37:49.068675  4584 net.cpp:434] conv4_2/sep/bn <- conv4_2/sep
I0825 11:37:49.068681  4584 net.cpp:395] conv4_2/sep/bn -> conv4_2/sep (in-place)
I0825 11:37:49.068958  4584 net.cpp:150] Setting up conv4_2/sep/bn
I0825 11:37:49.068969  4584 net.cpp:157] Top shape: 16 512 19 19 (2957312)
I0825 11:37:49.068972  4584 net.cpp:165] Memory required for data: 1899176064
I0825 11:37:49.068980  4584 layer_factory.hpp:77] Creating layer conv4_2/sep/scale
I0825 11:37:49.068990  4584 net.cpp:100] Creating Layer conv4_2/sep/scale
I0825 11:37:49.068996  4584 net.cpp:434] conv4_2/sep/scale <- conv4_2/sep
I0825 11:37:49.069003  4584 net.cpp:395] conv4_2/sep/scale -> conv4_2/sep (in-place)
I0825 11:37:49.069067  4584 layer_factory.hpp:77] Creating layer conv4_2/sep/scale
I0825 11:37:49.069211  4584 net.cpp:150] Setting up conv4_2/sep/scale
I0825 11:37:49.069223  4584 net.cpp:157] Top shape: 16 512 19 19 (2957312)
I0825 11:37:49.069228  4584 net.cpp:165] Memory required for data: 1911005312
I0825 11:37:49.069236  4584 layer_factory.hpp:77] Creating layer conv4_2/sep_relu
I0825 11:37:49.069244  4584 net.cpp:100] Creating Layer conv4_2/sep_relu
I0825 11:37:49.069250  4584 net.cpp:434] conv4_2/sep_relu <- conv4_2/sep
I0825 11:37:49.069257  4584 net.cpp:395] conv4_2/sep_relu -> conv4_2/sep (in-place)
I0825 11:37:49.069527  4584 net.cpp:150] Setting up conv4_2/sep_relu
I0825 11:37:49.069541  4584 net.cpp:157] Top shape: 16 512 19 19 (2957312)
I0825 11:37:49.069545  4584 net.cpp:165] Memory required for data: 1922834560
I0825 11:37:49.069548  4584 layer_factory.hpp:77] Creating layer conv5_1/dw
I0825 11:37:49.069561  4584 net.cpp:100] Creating Layer conv5_1/dw
I0825 11:37:49.069564  4584 net.cpp:434] conv5_1/dw <- conv4_2/sep
I0825 11:37:49.069574  4584 net.cpp:408] conv5_1/dw -> conv5_1/dw
I0825 11:37:49.069903  4584 net.cpp:150] Setting up conv5_1/dw
I0825 11:37:49.069914  4584 net.cpp:157] Top shape: 16 512 19 19 (2957312)
I0825 11:37:49.069917  4584 net.cpp:165] Memory required for data: 1934663808
I0825 11:37:49.069923  4584 layer_factory.hpp:77] Creating layer conv5_1/dw/bn
I0825 11:37:49.069929  4584 net.cpp:100] Creating Layer conv5_1/dw/bn
I0825 11:37:49.069933  4584 net.cpp:434] conv5_1/dw/bn <- conv5_1/dw
I0825 11:37:49.069941  4584 net.cpp:395] conv5_1/dw/bn -> conv5_1/dw (in-place)
I0825 11:37:49.070188  4584 net.cpp:150] Setting up conv5_1/dw/bn
I0825 11:37:49.070197  4584 net.cpp:157] Top shape: 16 512 19 19 (2957312)
I0825 11:37:49.070202  4584 net.cpp:165] Memory required for data: 1946493056
I0825 11:37:49.070212  4584 layer_factory.hpp:77] Creating layer conv5_1/dw/scale
I0825 11:37:49.070220  4584 net.cpp:100] Creating Layer conv5_1/dw/scale
I0825 11:37:49.070226  4584 net.cpp:434] conv5_1/dw/scale <- conv5_1/dw
I0825 11:37:49.070242  4584 net.cpp:395] conv5_1/dw/scale -> conv5_1/dw (in-place)
I0825 11:37:49.070300  4584 layer_factory.hpp:77] Creating layer conv5_1/dw/scale
I0825 11:37:49.070452  4584 net.cpp:150] Setting up conv5_1/dw/scale
I0825 11:37:49.070461  4584 net.cpp:157] Top shape: 16 512 19 19 (2957312)
I0825 11:37:49.070467  4584 net.cpp:165] Memory required for data: 1958322304
I0825 11:37:49.070475  4584 layer_factory.hpp:77] Creating layer conv5_1/dw_relu
I0825 11:37:49.070483  4584 net.cpp:100] Creating Layer conv5_1/dw_relu
I0825 11:37:49.070489  4584 net.cpp:434] conv5_1/dw_relu <- conv5_1/dw
I0825 11:37:49.070497  4584 net.cpp:395] conv5_1/dw_relu -> conv5_1/dw (in-place)
I0825 11:37:49.071410  4584 net.cpp:150] Setting up conv5_1/dw_relu
I0825 11:37:49.071429  4584 net.cpp:157] Top shape: 16 512 19 19 (2957312)
I0825 11:37:49.071431  4584 net.cpp:165] Memory required for data: 1970151552
I0825 11:37:49.071436  4584 layer_factory.hpp:77] Creating layer conv5_1/sep
I0825 11:37:49.071449  4584 net.cpp:100] Creating Layer conv5_1/sep
I0825 11:37:49.071455  4584 net.cpp:434] conv5_1/sep <- conv5_1/dw
I0825 11:37:49.071463  4584 net.cpp:408] conv5_1/sep -> conv5_1/sep
I0825 11:37:49.077677  4584 net.cpp:150] Setting up conv5_1/sep
I0825 11:37:49.077697  4584 net.cpp:157] Top shape: 16 512 19 19 (2957312)
I0825 11:37:49.077700  4584 net.cpp:165] Memory required for data: 1981980800
I0825 11:37:49.077708  4584 layer_factory.hpp:77] Creating layer conv5_1/sep/bn
I0825 11:37:49.077716  4584 net.cpp:100] Creating Layer conv5_1/sep/bn
I0825 11:37:49.077721  4584 net.cpp:434] conv5_1/sep/bn <- conv5_1/sep
I0825 11:37:49.077728  4584 net.cpp:395] conv5_1/sep/bn -> conv5_1/sep (in-place)
I0825 11:37:49.077992  4584 net.cpp:150] Setting up conv5_1/sep/bn
I0825 11:37:49.078004  4584 net.cpp:157] Top shape: 16 512 19 19 (2957312)
I0825 11:37:49.078007  4584 net.cpp:165] Memory required for data: 1993810048
I0825 11:37:49.078016  4584 layer_factory.hpp:77] Creating layer conv5_1/sep/scale
I0825 11:37:49.078024  4584 net.cpp:100] Creating Layer conv5_1/sep/scale
I0825 11:37:49.078030  4584 net.cpp:434] conv5_1/sep/scale <- conv5_1/sep
I0825 11:37:49.078038  4584 net.cpp:395] conv5_1/sep/scale -> conv5_1/sep (in-place)
I0825 11:37:49.078100  4584 layer_factory.hpp:77] Creating layer conv5_1/sep/scale
I0825 11:37:49.078244  4584 net.cpp:150] Setting up conv5_1/sep/scale
I0825 11:37:49.078254  4584 net.cpp:157] Top shape: 16 512 19 19 (2957312)
I0825 11:37:49.078259  4584 net.cpp:165] Memory required for data: 2005639296
I0825 11:37:49.078269  4584 layer_factory.hpp:77] Creating layer conv5_1/sep_relu
I0825 11:37:49.078292  4584 net.cpp:100] Creating Layer conv5_1/sep_relu
I0825 11:37:49.078299  4584 net.cpp:434] conv5_1/sep_relu <- conv5_1/sep
I0825 11:37:49.078306  4584 net.cpp:395] conv5_1/sep_relu -> conv5_1/sep (in-place)
I0825 11:37:49.078539  4584 net.cpp:150] Setting up conv5_1/sep_relu
I0825 11:37:49.078554  4584 net.cpp:157] Top shape: 16 512 19 19 (2957312)
I0825 11:37:49.078557  4584 net.cpp:165] Memory required for data: 2017468544
I0825 11:37:49.078562  4584 layer_factory.hpp:77] Creating layer conv5_2/dw
I0825 11:37:49.078572  4584 net.cpp:100] Creating Layer conv5_2/dw
I0825 11:37:49.078577  4584 net.cpp:434] conv5_2/dw <- conv5_1/sep
I0825 11:37:49.078584  4584 net.cpp:408] conv5_2/dw -> conv5_2/dw
I0825 11:37:49.078899  4584 net.cpp:150] Setting up conv5_2/dw
I0825 11:37:49.078909  4584 net.cpp:157] Top shape: 16 512 19 19 (2957312)
I0825 11:37:49.078912  4584 net.cpp:165] Memory required for data: 2029297792
I0825 11:37:49.078917  4584 layer_factory.hpp:77] Creating layer conv5_2/dw/bn
I0825 11:37:49.078923  4584 net.cpp:100] Creating Layer conv5_2/dw/bn
I0825 11:37:49.078927  4584 net.cpp:434] conv5_2/dw/bn <- conv5_2/dw
I0825 11:37:49.078933  4584 net.cpp:395] conv5_2/dw/bn -> conv5_2/dw (in-place)
I0825 11:37:49.079181  4584 net.cpp:150] Setting up conv5_2/dw/bn
I0825 11:37:49.079193  4584 net.cpp:157] Top shape: 16 512 19 19 (2957312)
I0825 11:37:49.079196  4584 net.cpp:165] Memory required for data: 2041127040
I0825 11:37:49.079205  4584 layer_factory.hpp:77] Creating layer conv5_2/dw/scale
I0825 11:37:49.079221  4584 net.cpp:100] Creating Layer conv5_2/dw/scale
I0825 11:37:49.079227  4584 net.cpp:434] conv5_2/dw/scale <- conv5_2/dw
I0825 11:37:49.079236  4584 net.cpp:395] conv5_2/dw/scale -> conv5_2/dw (in-place)
I0825 11:37:49.079296  4584 layer_factory.hpp:77] Creating layer conv5_2/dw/scale
I0825 11:37:49.079442  4584 net.cpp:150] Setting up conv5_2/dw/scale
I0825 11:37:49.079450  4584 net.cpp:157] Top shape: 16 512 19 19 (2957312)
I0825 11:37:49.079455  4584 net.cpp:165] Memory required for data: 2052956288
I0825 11:37:49.079463  4584 layer_factory.hpp:77] Creating layer conv5_2/dw_relu
I0825 11:37:49.079473  4584 net.cpp:100] Creating Layer conv5_2/dw_relu
I0825 11:37:49.079478  4584 net.cpp:434] conv5_2/dw_relu <- conv5_2/dw
I0825 11:37:49.079484  4584 net.cpp:395] conv5_2/dw_relu -> conv5_2/dw (in-place)
I0825 11:37:49.080364  4584 net.cpp:150] Setting up conv5_2/dw_relu
I0825 11:37:49.080381  4584 net.cpp:157] Top shape: 16 512 19 19 (2957312)
I0825 11:37:49.080384  4584 net.cpp:165] Memory required for data: 2064785536
I0825 11:37:49.080389  4584 layer_factory.hpp:77] Creating layer conv5_2/sep
I0825 11:37:49.080400  4584 net.cpp:100] Creating Layer conv5_2/sep
I0825 11:37:49.080404  4584 net.cpp:434] conv5_2/sep <- conv5_2/dw
I0825 11:37:49.080413  4584 net.cpp:408] conv5_2/sep -> conv5_2/sep
I0825 11:37:49.085762  4584 net.cpp:150] Setting up conv5_2/sep
I0825 11:37:49.085782  4584 net.cpp:157] Top shape: 16 512 19 19 (2957312)
I0825 11:37:49.085785  4584 net.cpp:165] Memory required for data: 2076614784
I0825 11:37:49.085793  4584 layer_factory.hpp:77] Creating layer conv5_2/sep/bn
I0825 11:37:49.085805  4584 net.cpp:100] Creating Layer conv5_2/sep/bn
I0825 11:37:49.085811  4584 net.cpp:434] conv5_2/sep/bn <- conv5_2/sep
I0825 11:37:49.085820  4584 net.cpp:395] conv5_2/sep/bn -> conv5_2/sep (in-place)
I0825 11:37:49.086083  4584 net.cpp:150] Setting up conv5_2/sep/bn
I0825 11:37:49.086092  4584 net.cpp:157] Top shape: 16 512 19 19 (2957312)
I0825 11:37:49.086097  4584 net.cpp:165] Memory required for data: 2088444032
I0825 11:37:49.086104  4584 layer_factory.hpp:77] Creating layer conv5_2/sep/scale
I0825 11:37:49.086113  4584 net.cpp:100] Creating Layer conv5_2/sep/scale
I0825 11:37:49.086117  4584 net.cpp:434] conv5_2/sep/scale <- conv5_2/sep
I0825 11:37:49.086122  4584 net.cpp:395] conv5_2/sep/scale -> conv5_2/sep (in-place)
I0825 11:37:49.086184  4584 layer_factory.hpp:77] Creating layer conv5_2/sep/scale
I0825 11:37:49.086330  4584 net.cpp:150] Setting up conv5_2/sep/scale
I0825 11:37:49.086355  4584 net.cpp:157] Top shape: 16 512 19 19 (2957312)
I0825 11:37:49.086360  4584 net.cpp:165] Memory required for data: 2100273280
I0825 11:37:49.086369  4584 layer_factory.hpp:77] Creating layer conv5_2/sep_relu
I0825 11:37:49.086383  4584 net.cpp:100] Creating Layer conv5_2/sep_relu
I0825 11:37:49.086390  4584 net.cpp:434] conv5_2/sep_relu <- conv5_2/sep
I0825 11:37:49.086397  4584 net.cpp:395] conv5_2/sep_relu -> conv5_2/sep (in-place)
I0825 11:37:49.087263  4584 net.cpp:150] Setting up conv5_2/sep_relu
I0825 11:37:49.087280  4584 net.cpp:157] Top shape: 16 512 19 19 (2957312)
I0825 11:37:49.087285  4584 net.cpp:165] Memory required for data: 2112102528
I0825 11:37:49.087291  4584 layer_factory.hpp:77] Creating layer conv5_3/dw
I0825 11:37:49.087304  4584 net.cpp:100] Creating Layer conv5_3/dw
I0825 11:37:49.087311  4584 net.cpp:434] conv5_3/dw <- conv5_2/sep
I0825 11:37:49.087322  4584 net.cpp:408] conv5_3/dw -> conv5_3/dw
I0825 11:37:49.087641  4584 net.cpp:150] Setting up conv5_3/dw
I0825 11:37:49.087651  4584 net.cpp:157] Top shape: 16 512 19 19 (2957312)
I0825 11:37:49.087656  4584 net.cpp:165] Memory required for data: 2123931776
I0825 11:37:49.087663  4584 layer_factory.hpp:77] Creating layer conv5_3/dw/bn
I0825 11:37:49.087671  4584 net.cpp:100] Creating Layer conv5_3/dw/bn
I0825 11:37:49.087677  4584 net.cpp:434] conv5_3/dw/bn <- conv5_3/dw
I0825 11:37:49.087683  4584 net.cpp:395] conv5_3/dw/bn -> conv5_3/dw (in-place)
I0825 11:37:49.087936  4584 net.cpp:150] Setting up conv5_3/dw/bn
I0825 11:37:49.087946  4584 net.cpp:157] Top shape: 16 512 19 19 (2957312)
I0825 11:37:49.087951  4584 net.cpp:165] Memory required for data: 2135761024
I0825 11:37:49.087960  4584 layer_factory.hpp:77] Creating layer conv5_3/dw/scale
I0825 11:37:49.087970  4584 net.cpp:100] Creating Layer conv5_3/dw/scale
I0825 11:37:49.087973  4584 net.cpp:434] conv5_3/dw/scale <- conv5_3/dw
I0825 11:37:49.087981  4584 net.cpp:395] conv5_3/dw/scale -> conv5_3/dw (in-place)
I0825 11:37:49.088044  4584 layer_factory.hpp:77] Creating layer conv5_3/dw/scale
I0825 11:37:49.088188  4584 net.cpp:150] Setting up conv5_3/dw/scale
I0825 11:37:49.088201  4584 net.cpp:157] Top shape: 16 512 19 19 (2957312)
I0825 11:37:49.088205  4584 net.cpp:165] Memory required for data: 2147590272
I0825 11:37:49.088213  4584 layer_factory.hpp:77] Creating layer conv5_3/dw_relu
I0825 11:37:49.088220  4584 net.cpp:100] Creating Layer conv5_3/dw_relu
I0825 11:37:49.088225  4584 net.cpp:434] conv5_3/dw_relu <- conv5_3/dw
I0825 11:37:49.088232  4584 net.cpp:395] conv5_3/dw_relu -> conv5_3/dw (in-place)
I0825 11:37:49.089109  4584 net.cpp:150] Setting up conv5_3/dw_relu
I0825 11:37:49.089126  4584 net.cpp:157] Top shape: 16 512 19 19 (2957312)
I0825 11:37:49.089130  4584 net.cpp:165] Memory required for data: 2159419520
I0825 11:37:49.089136  4584 layer_factory.hpp:77] Creating layer conv5_3/sep
I0825 11:37:49.089150  4584 net.cpp:100] Creating Layer conv5_3/sep
I0825 11:37:49.089156  4584 net.cpp:434] conv5_3/sep <- conv5_3/dw
I0825 11:37:49.089164  4584 net.cpp:408] conv5_3/sep -> conv5_3/sep
I0825 11:37:49.094337  4584 net.cpp:150] Setting up conv5_3/sep
I0825 11:37:49.094354  4584 net.cpp:157] Top shape: 16 512 19 19 (2957312)
I0825 11:37:49.094360  4584 net.cpp:165] Memory required for data: 2171248768
I0825 11:37:49.094367  4584 layer_factory.hpp:77] Creating layer conv5_3/sep/bn
I0825 11:37:49.094373  4584 net.cpp:100] Creating Layer conv5_3/sep/bn
I0825 11:37:49.094377  4584 net.cpp:434] conv5_3/sep/bn <- conv5_3/sep
I0825 11:37:49.094383  4584 net.cpp:395] conv5_3/sep/bn -> conv5_3/sep (in-place)
I0825 11:37:49.094641  4584 net.cpp:150] Setting up conv5_3/sep/bn
I0825 11:37:49.094650  4584 net.cpp:157] Top shape: 16 512 19 19 (2957312)
I0825 11:37:49.094655  4584 net.cpp:165] Memory required for data: 2183078016
I0825 11:37:49.094665  4584 layer_factory.hpp:77] Creating layer conv5_3/sep/scale
I0825 11:37:49.094673  4584 net.cpp:100] Creating Layer conv5_3/sep/scale
I0825 11:37:49.094678  4584 net.cpp:434] conv5_3/sep/scale <- conv5_3/sep
I0825 11:37:49.094702  4584 net.cpp:395] conv5_3/sep/scale -> conv5_3/sep (in-place)
I0825 11:37:49.094764  4584 layer_factory.hpp:77] Creating layer conv5_3/sep/scale
I0825 11:37:49.094908  4584 net.cpp:150] Setting up conv5_3/sep/scale
I0825 11:37:49.094918  4584 net.cpp:157] Top shape: 16 512 19 19 (2957312)
I0825 11:37:49.094923  4584 net.cpp:165] Memory required for data: 2194907264
I0825 11:37:49.094931  4584 layer_factory.hpp:77] Creating layer conv5_3/sep_relu
I0825 11:37:49.094938  4584 net.cpp:100] Creating Layer conv5_3/sep_relu
I0825 11:37:49.094944  4584 net.cpp:434] conv5_3/sep_relu <- conv5_3/sep
I0825 11:37:49.094950  4584 net.cpp:395] conv5_3/sep_relu -> conv5_3/sep (in-place)
I0825 11:37:49.095789  4584 net.cpp:150] Setting up conv5_3/sep_relu
I0825 11:37:49.095805  4584 net.cpp:157] Top shape: 16 512 19 19 (2957312)
I0825 11:37:49.095810  4584 net.cpp:165] Memory required for data: 2206736512
I0825 11:37:49.095815  4584 layer_factory.hpp:77] Creating layer conv5_4/dw
I0825 11:37:49.095829  4584 net.cpp:100] Creating Layer conv5_4/dw
I0825 11:37:49.095834  4584 net.cpp:434] conv5_4/dw <- conv5_3/sep
I0825 11:37:49.095844  4584 net.cpp:408] conv5_4/dw -> conv5_4/dw
I0825 11:37:49.096153  4584 net.cpp:150] Setting up conv5_4/dw
I0825 11:37:49.096163  4584 net.cpp:157] Top shape: 16 512 19 19 (2957312)
I0825 11:37:49.096168  4584 net.cpp:165] Memory required for data: 2218565760
I0825 11:37:49.096175  4584 layer_factory.hpp:77] Creating layer conv5_4/dw/bn
I0825 11:37:49.096184  4584 net.cpp:100] Creating Layer conv5_4/dw/bn
I0825 11:37:49.096190  4584 net.cpp:434] conv5_4/dw/bn <- conv5_4/dw
I0825 11:37:49.096196  4584 net.cpp:395] conv5_4/dw/bn -> conv5_4/dw (in-place)
I0825 11:37:49.096452  4584 net.cpp:150] Setting up conv5_4/dw/bn
I0825 11:37:49.096463  4584 net.cpp:157] Top shape: 16 512 19 19 (2957312)
I0825 11:37:49.096468  4584 net.cpp:165] Memory required for data: 2230395008
I0825 11:37:49.096477  4584 layer_factory.hpp:77] Creating layer conv5_4/dw/scale
I0825 11:37:49.096487  4584 net.cpp:100] Creating Layer conv5_4/dw/scale
I0825 11:37:49.096493  4584 net.cpp:434] conv5_4/dw/scale <- conv5_4/dw
I0825 11:37:49.096499  4584 net.cpp:395] conv5_4/dw/scale -> conv5_4/dw (in-place)
I0825 11:37:49.096561  4584 layer_factory.hpp:77] Creating layer conv5_4/dw/scale
I0825 11:37:49.096704  4584 net.cpp:150] Setting up conv5_4/dw/scale
I0825 11:37:49.096712  4584 net.cpp:157] Top shape: 16 512 19 19 (2957312)
I0825 11:37:49.096716  4584 net.cpp:165] Memory required for data: 2242224256
I0825 11:37:49.096724  4584 layer_factory.hpp:77] Creating layer conv5_4/dw_relu
I0825 11:37:49.096734  4584 net.cpp:100] Creating Layer conv5_4/dw_relu
I0825 11:37:49.096738  4584 net.cpp:434] conv5_4/dw_relu <- conv5_4/dw
I0825 11:37:49.096743  4584 net.cpp:395] conv5_4/dw_relu -> conv5_4/dw (in-place)
I0825 11:37:49.096964  4584 net.cpp:150] Setting up conv5_4/dw_relu
I0825 11:37:49.096976  4584 net.cpp:157] Top shape: 16 512 19 19 (2957312)
I0825 11:37:49.096982  4584 net.cpp:165] Memory required for data: 2254053504
I0825 11:37:49.096987  4584 layer_factory.hpp:77] Creating layer conv5_4/sep
I0825 11:37:49.096998  4584 net.cpp:100] Creating Layer conv5_4/sep
I0825 11:37:49.097003  4584 net.cpp:434] conv5_4/sep <- conv5_4/dw
I0825 11:37:49.097012  4584 net.cpp:408] conv5_4/sep -> conv5_4/sep
I0825 11:37:49.102675  4584 net.cpp:150] Setting up conv5_4/sep
I0825 11:37:49.102692  4584 net.cpp:157] Top shape: 16 512 19 19 (2957312)
I0825 11:37:49.102695  4584 net.cpp:165] Memory required for data: 2265882752
I0825 11:37:49.102702  4584 layer_factory.hpp:77] Creating layer conv5_4/sep/bn
I0825 11:37:49.102710  4584 net.cpp:100] Creating Layer conv5_4/sep/bn
I0825 11:37:49.102715  4584 net.cpp:434] conv5_4/sep/bn <- conv5_4/sep
I0825 11:37:49.102722  4584 net.cpp:395] conv5_4/sep/bn -> conv5_4/sep (in-place)
I0825 11:37:49.102968  4584 net.cpp:150] Setting up conv5_4/sep/bn
I0825 11:37:49.102977  4584 net.cpp:157] Top shape: 16 512 19 19 (2957312)
I0825 11:37:49.102980  4584 net.cpp:165] Memory required for data: 2277712000
I0825 11:37:49.103001  4584 layer_factory.hpp:77] Creating layer conv5_4/sep/scale
I0825 11:37:49.103013  4584 net.cpp:100] Creating Layer conv5_4/sep/scale
I0825 11:37:49.103019  4584 net.cpp:434] conv5_4/sep/scale <- conv5_4/sep
I0825 11:37:49.103026  4584 net.cpp:395] conv5_4/sep/scale -> conv5_4/sep (in-place)
I0825 11:37:49.103087  4584 layer_factory.hpp:77] Creating layer conv5_4/sep/scale
I0825 11:37:49.103229  4584 net.cpp:150] Setting up conv5_4/sep/scale
I0825 11:37:49.103238  4584 net.cpp:157] Top shape: 16 512 19 19 (2957312)
I0825 11:37:49.103242  4584 net.cpp:165] Memory required for data: 2289541248
I0825 11:37:49.103250  4584 layer_factory.hpp:77] Creating layer conv5_4/sep_relu
I0825 11:37:49.103258  4584 net.cpp:100] Creating Layer conv5_4/sep_relu
I0825 11:37:49.103263  4584 net.cpp:434] conv5_4/sep_relu <- conv5_4/sep
I0825 11:37:49.103271  4584 net.cpp:395] conv5_4/sep_relu -> conv5_4/sep (in-place)
I0825 11:37:49.104086  4584 net.cpp:150] Setting up conv5_4/sep_relu
I0825 11:37:49.104101  4584 net.cpp:157] Top shape: 16 512 19 19 (2957312)
I0825 11:37:49.104104  4584 net.cpp:165] Memory required for data: 2301370496
I0825 11:37:49.104109  4584 layer_factory.hpp:77] Creating layer conv5_5/dw
I0825 11:37:49.104120  4584 net.cpp:100] Creating Layer conv5_5/dw
I0825 11:37:49.104123  4584 net.cpp:434] conv5_5/dw <- conv5_4/sep
I0825 11:37:49.104130  4584 net.cpp:408] conv5_5/dw -> conv5_5/dw
I0825 11:37:49.104440  4584 net.cpp:150] Setting up conv5_5/dw
I0825 11:37:49.104450  4584 net.cpp:157] Top shape: 16 512 19 19 (2957312)
I0825 11:37:49.104454  4584 net.cpp:165] Memory required for data: 2313199744
I0825 11:37:49.104460  4584 layer_factory.hpp:77] Creating layer conv5_5/dw/bn
I0825 11:37:49.104465  4584 net.cpp:100] Creating Layer conv5_5/dw/bn
I0825 11:37:49.104470  4584 net.cpp:434] conv5_5/dw/bn <- conv5_5/dw
I0825 11:37:49.104475  4584 net.cpp:395] conv5_5/dw/bn -> conv5_5/dw (in-place)
I0825 11:37:49.104713  4584 net.cpp:150] Setting up conv5_5/dw/bn
I0825 11:37:49.104724  4584 net.cpp:157] Top shape: 16 512 19 19 (2957312)
I0825 11:37:49.104727  4584 net.cpp:165] Memory required for data: 2325028992
I0825 11:37:49.104749  4584 layer_factory.hpp:77] Creating layer conv5_5/dw/scale
I0825 11:37:49.104758  4584 net.cpp:100] Creating Layer conv5_5/dw/scale
I0825 11:37:49.104763  4584 net.cpp:434] conv5_5/dw/scale <- conv5_5/dw
I0825 11:37:49.104771  4584 net.cpp:395] conv5_5/dw/scale -> conv5_5/dw (in-place)
I0825 11:37:49.104832  4584 layer_factory.hpp:77] Creating layer conv5_5/dw/scale
I0825 11:37:49.104969  4584 net.cpp:150] Setting up conv5_5/dw/scale
I0825 11:37:49.104977  4584 net.cpp:157] Top shape: 16 512 19 19 (2957312)
I0825 11:37:49.104982  4584 net.cpp:165] Memory required for data: 2336858240
I0825 11:37:49.104990  4584 layer_factory.hpp:77] Creating layer conv5_5/dw_relu
I0825 11:37:49.105000  4584 net.cpp:100] Creating Layer conv5_5/dw_relu
I0825 11:37:49.105005  4584 net.cpp:434] conv5_5/dw_relu <- conv5_5/dw
I0825 11:37:49.105010  4584 net.cpp:395] conv5_5/dw_relu -> conv5_5/dw (in-place)
I0825 11:37:49.105229  4584 net.cpp:150] Setting up conv5_5/dw_relu
I0825 11:37:49.105242  4584 net.cpp:157] Top shape: 16 512 19 19 (2957312)
I0825 11:37:49.105247  4584 net.cpp:165] Memory required for data: 2348687488
I0825 11:37:49.105252  4584 layer_factory.hpp:77] Creating layer conv5_5/sep
I0825 11:37:49.105264  4584 net.cpp:100] Creating Layer conv5_5/sep
I0825 11:37:49.105269  4584 net.cpp:434] conv5_5/sep <- conv5_5/dw
I0825 11:37:49.105278  4584 net.cpp:408] conv5_5/sep -> conv5_5/sep
I0825 11:37:49.110823  4584 net.cpp:150] Setting up conv5_5/sep
I0825 11:37:49.110841  4584 net.cpp:157] Top shape: 16 512 19 19 (2957312)
I0825 11:37:49.110846  4584 net.cpp:165] Memory required for data: 2360516736
I0825 11:37:49.110854  4584 layer_factory.hpp:77] Creating layer conv5_5/sep/bn
I0825 11:37:49.110863  4584 net.cpp:100] Creating Layer conv5_5/sep/bn
I0825 11:37:49.110869  4584 net.cpp:434] conv5_5/sep/bn <- conv5_5/sep
I0825 11:37:49.110877  4584 net.cpp:395] conv5_5/sep/bn -> conv5_5/sep (in-place)
I0825 11:37:49.111142  4584 net.cpp:150] Setting up conv5_5/sep/bn
I0825 11:37:49.111152  4584 net.cpp:157] Top shape: 16 512 19 19 (2957312)
I0825 11:37:49.111160  4584 net.cpp:165] Memory required for data: 2372345984
I0825 11:37:49.111171  4584 layer_factory.hpp:77] Creating layer conv5_5/sep/scale
I0825 11:37:49.111181  4584 net.cpp:100] Creating Layer conv5_5/sep/scale
I0825 11:37:49.111186  4584 net.cpp:434] conv5_5/sep/scale <- conv5_5/sep
I0825 11:37:49.111191  4584 net.cpp:395] conv5_5/sep/scale -> conv5_5/sep (in-place)
I0825 11:37:49.111248  4584 layer_factory.hpp:77] Creating layer conv5_5/sep/scale
I0825 11:37:49.111387  4584 net.cpp:150] Setting up conv5_5/sep/scale
I0825 11:37:49.111397  4584 net.cpp:157] Top shape: 16 512 19 19 (2957312)
I0825 11:37:49.111402  4584 net.cpp:165] Memory required for data: 2384175232
I0825 11:37:49.111409  4584 layer_factory.hpp:77] Creating layer conv5_5/sep_relu
I0825 11:37:49.111418  4584 net.cpp:100] Creating Layer conv5_5/sep_relu
I0825 11:37:49.111423  4584 net.cpp:434] conv5_5/sep_relu <- conv5_5/sep
I0825 11:37:49.111429  4584 net.cpp:395] conv5_5/sep_relu -> conv5_5/sep (in-place)
I0825 11:37:49.112249  4584 net.cpp:150] Setting up conv5_5/sep_relu
I0825 11:37:49.112267  4584 net.cpp:157] Top shape: 16 512 19 19 (2957312)
I0825 11:37:49.112272  4584 net.cpp:165] Memory required for data: 2396004480
I0825 11:37:49.112278  4584 layer_factory.hpp:77] Creating layer conv5_5/sep_conv5_5/sep_relu_0_split
I0825 11:37:49.112287  4584 net.cpp:100] Creating Layer conv5_5/sep_conv5_5/sep_relu_0_split
I0825 11:37:49.112293  4584 net.cpp:434] conv5_5/sep_conv5_5/sep_relu_0_split <- conv5_5/sep
I0825 11:37:49.112301  4584 net.cpp:408] conv5_5/sep_conv5_5/sep_relu_0_split -> conv5_5/sep_conv5_5/sep_relu_0_split_0
I0825 11:37:49.112316  4584 net.cpp:408] conv5_5/sep_conv5_5/sep_relu_0_split -> conv5_5/sep_conv5_5/sep_relu_0_split_1
I0825 11:37:49.112324  4584 net.cpp:408] conv5_5/sep_conv5_5/sep_relu_0_split -> conv5_5/sep_conv5_5/sep_relu_0_split_2
I0825 11:37:49.112332  4584 net.cpp:408] conv5_5/sep_conv5_5/sep_relu_0_split -> conv5_5/sep_conv5_5/sep_relu_0_split_3
I0825 11:37:49.112432  4584 net.cpp:150] Setting up conv5_5/sep_conv5_5/sep_relu_0_split
I0825 11:37:49.112440  4584 net.cpp:157] Top shape: 16 512 19 19 (2957312)
I0825 11:37:49.112447  4584 net.cpp:157] Top shape: 16 512 19 19 (2957312)
I0825 11:37:49.112452  4584 net.cpp:157] Top shape: 16 512 19 19 (2957312)
I0825 11:37:49.112457  4584 net.cpp:157] Top shape: 16 512 19 19 (2957312)
I0825 11:37:49.112462  4584 net.cpp:165] Memory required for data: 2443321472
I0825 11:37:49.112467  4584 layer_factory.hpp:77] Creating layer conv5_6/dw
I0825 11:37:49.112478  4584 net.cpp:100] Creating Layer conv5_6/dw
I0825 11:37:49.112484  4584 net.cpp:434] conv5_6/dw <- conv5_5/sep_conv5_5/sep_relu_0_split_0
I0825 11:37:49.112494  4584 net.cpp:408] conv5_6/dw -> conv5_6/dw
I0825 11:37:49.112793  4584 net.cpp:150] Setting up conv5_6/dw
I0825 11:37:49.112803  4584 net.cpp:157] Top shape: 16 512 10 10 (819200)
I0825 11:37:49.112808  4584 net.cpp:165] Memory required for data: 2446598272
I0825 11:37:49.112815  4584 layer_factory.hpp:77] Creating layer conv5_6/dw/bn
I0825 11:37:49.112823  4584 net.cpp:100] Creating Layer conv5_6/dw/bn
I0825 11:37:49.112828  4584 net.cpp:434] conv5_6/dw/bn <- conv5_6/dw
I0825 11:37:49.112834  4584 net.cpp:395] conv5_6/dw/bn -> conv5_6/dw (in-place)
I0825 11:37:49.113070  4584 net.cpp:150] Setting up conv5_6/dw/bn
I0825 11:37:49.113077  4584 net.cpp:157] Top shape: 16 512 10 10 (819200)
I0825 11:37:49.113082  4584 net.cpp:165] Memory required for data: 2449875072
I0825 11:37:49.113091  4584 layer_factory.hpp:77] Creating layer conv5_6/dw/scale
I0825 11:37:49.113099  4584 net.cpp:100] Creating Layer conv5_6/dw/scale
I0825 11:37:49.113104  4584 net.cpp:434] conv5_6/dw/scale <- conv5_6/dw
I0825 11:37:49.113111  4584 net.cpp:395] conv5_6/dw/scale -> conv5_6/dw (in-place)
I0825 11:37:49.113160  4584 layer_factory.hpp:77] Creating layer conv5_6/dw/scale
I0825 11:37:49.113299  4584 net.cpp:150] Setting up conv5_6/dw/scale
I0825 11:37:49.113322  4584 net.cpp:157] Top shape: 16 512 10 10 (819200)
I0825 11:37:49.113325  4584 net.cpp:165] Memory required for data: 2453151872
I0825 11:37:49.113333  4584 layer_factory.hpp:77] Creating layer conv5_6/dw_relu
I0825 11:37:49.113342  4584 net.cpp:100] Creating Layer conv5_6/dw_relu
I0825 11:37:49.113346  4584 net.cpp:434] conv5_6/dw_relu <- conv5_6/dw
I0825 11:37:49.113353  4584 net.cpp:395] conv5_6/dw_relu -> conv5_6/dw (in-place)
I0825 11:37:49.114125  4584 net.cpp:150] Setting up conv5_6/dw_relu
I0825 11:37:49.114140  4584 net.cpp:157] Top shape: 16 512 10 10 (819200)
I0825 11:37:49.114143  4584 net.cpp:165] Memory required for data: 2456428672
I0825 11:37:49.114147  4584 layer_factory.hpp:77] Creating layer conv5_6/sep
I0825 11:37:49.114157  4584 net.cpp:100] Creating Layer conv5_6/sep
I0825 11:37:49.114163  4584 net.cpp:434] conv5_6/sep <- conv5_6/dw
I0825 11:37:49.114173  4584 net.cpp:408] conv5_6/sep -> conv5_6/sep
I0825 11:37:49.122614  4584 net.cpp:150] Setting up conv5_6/sep
I0825 11:37:49.122632  4584 net.cpp:157] Top shape: 16 1024 10 10 (1638400)
I0825 11:37:49.122637  4584 net.cpp:165] Memory required for data: 2462982272
I0825 11:37:49.122642  4584 layer_factory.hpp:77] Creating layer conv5_6/sep/bn
I0825 11:37:49.122650  4584 net.cpp:100] Creating Layer conv5_6/sep/bn
I0825 11:37:49.122655  4584 net.cpp:434] conv5_6/sep/bn <- conv5_6/sep
I0825 11:37:49.122665  4584 net.cpp:395] conv5_6/sep/bn -> conv5_6/sep (in-place)
I0825 11:37:49.122911  4584 net.cpp:150] Setting up conv5_6/sep/bn
I0825 11:37:49.122921  4584 net.cpp:157] Top shape: 16 1024 10 10 (1638400)
I0825 11:37:49.122926  4584 net.cpp:165] Memory required for data: 2469535872
I0825 11:37:49.122936  4584 layer_factory.hpp:77] Creating layer conv5_6/sep/scale
I0825 11:37:49.122947  4584 net.cpp:100] Creating Layer conv5_6/sep/scale
I0825 11:37:49.122953  4584 net.cpp:434] conv5_6/sep/scale <- conv5_6/sep
I0825 11:37:49.122961  4584 net.cpp:395] conv5_6/sep/scale -> conv5_6/sep (in-place)
I0825 11:37:49.123014  4584 layer_factory.hpp:77] Creating layer conv5_6/sep/scale
I0825 11:37:49.123158  4584 net.cpp:150] Setting up conv5_6/sep/scale
I0825 11:37:49.123167  4584 net.cpp:157] Top shape: 16 1024 10 10 (1638400)
I0825 11:37:49.123172  4584 net.cpp:165] Memory required for data: 2476089472
I0825 11:37:49.123178  4584 layer_factory.hpp:77] Creating layer conv5_6/sep_relu
I0825 11:37:49.123185  4584 net.cpp:100] Creating Layer conv5_6/sep_relu
I0825 11:37:49.123190  4584 net.cpp:434] conv5_6/sep_relu <- conv5_6/sep
I0825 11:37:49.123198  4584 net.cpp:395] conv5_6/sep_relu -> conv5_6/sep (in-place)
I0825 11:37:49.123405  4584 net.cpp:150] Setting up conv5_6/sep_relu
I0825 11:37:49.123416  4584 net.cpp:157] Top shape: 16 1024 10 10 (1638400)
I0825 11:37:49.123420  4584 net.cpp:165] Memory required for data: 2482643072
I0825 11:37:49.123426  4584 layer_factory.hpp:77] Creating layer conv6/dw
I0825 11:37:49.123437  4584 net.cpp:100] Creating Layer conv6/dw
I0825 11:37:49.123442  4584 net.cpp:434] conv6/dw <- conv5_6/sep
I0825 11:37:49.123451  4584 net.cpp:408] conv6/dw -> conv6/dw
I0825 11:37:49.123796  4584 net.cpp:150] Setting up conv6/dw
I0825 11:37:49.123805  4584 net.cpp:157] Top shape: 16 1024 10 10 (1638400)
I0825 11:37:49.123811  4584 net.cpp:165] Memory required for data: 2489196672
I0825 11:37:49.123817  4584 layer_factory.hpp:77] Creating layer conv6/dw/bn
I0825 11:37:49.123826  4584 net.cpp:100] Creating Layer conv6/dw/bn
I0825 11:37:49.123831  4584 net.cpp:434] conv6/dw/bn <- conv6/dw
I0825 11:37:49.123837  4584 net.cpp:395] conv6/dw/bn -> conv6/dw (in-place)
I0825 11:37:49.124069  4584 net.cpp:150] Setting up conv6/dw/bn
I0825 11:37:49.124078  4584 net.cpp:157] Top shape: 16 1024 10 10 (1638400)
I0825 11:37:49.124083  4584 net.cpp:165] Memory required for data: 2495750272
I0825 11:37:49.124090  4584 layer_factory.hpp:77] Creating layer conv6/dw/scale
I0825 11:37:49.124099  4584 net.cpp:100] Creating Layer conv6/dw/scale
I0825 11:37:49.124104  4584 net.cpp:434] conv6/dw/scale <- conv6/dw
I0825 11:37:49.124125  4584 net.cpp:395] conv6/dw/scale -> conv6/dw (in-place)
I0825 11:37:49.124179  4584 layer_factory.hpp:77] Creating layer conv6/dw/scale
I0825 11:37:49.124325  4584 net.cpp:150] Setting up conv6/dw/scale
I0825 11:37:49.124335  4584 net.cpp:157] Top shape: 16 1024 10 10 (1638400)
I0825 11:37:49.124359  4584 net.cpp:165] Memory required for data: 2502303872
I0825 11:37:49.124366  4584 layer_factory.hpp:77] Creating layer conv6/dw_relu
I0825 11:37:49.124373  4584 net.cpp:100] Creating Layer conv6/dw_relu
I0825 11:37:49.124378  4584 net.cpp:434] conv6/dw_relu <- conv6/dw
I0825 11:37:49.124387  4584 net.cpp:395] conv6/dw_relu -> conv6/dw (in-place)
I0825 11:37:49.125159  4584 net.cpp:150] Setting up conv6/dw_relu
I0825 11:37:49.125174  4584 net.cpp:157] Top shape: 16 1024 10 10 (1638400)
I0825 11:37:49.125176  4584 net.cpp:165] Memory required for data: 2508857472
I0825 11:37:49.125180  4584 layer_factory.hpp:77] Creating layer conv6/sep
I0825 11:37:49.125190  4584 net.cpp:100] Creating Layer conv6/sep
I0825 11:37:49.125195  4584 net.cpp:434] conv6/sep <- conv6/dw
I0825 11:37:49.125202  4584 net.cpp:408] conv6/sep -> conv6/sep
I0825 11:37:49.139276  4584 net.cpp:150] Setting up conv6/sep
I0825 11:37:49.139292  4584 net.cpp:157] Top shape: 16 1024 10 10 (1638400)
I0825 11:37:49.139294  4584 net.cpp:165] Memory required for data: 2515411072
I0825 11:37:49.139300  4584 layer_factory.hpp:77] Creating layer conv6/sep/bn
I0825 11:37:49.139308  4584 net.cpp:100] Creating Layer conv6/sep/bn
I0825 11:37:49.139313  4584 net.cpp:434] conv6/sep/bn <- conv6/sep
I0825 11:37:49.139319  4584 net.cpp:395] conv6/sep/bn -> conv6/sep (in-place)
I0825 11:37:49.139551  4584 net.cpp:150] Setting up conv6/sep/bn
I0825 11:37:49.139560  4584 net.cpp:157] Top shape: 16 1024 10 10 (1638400)
I0825 11:37:49.139564  4584 net.cpp:165] Memory required for data: 2521964672
I0825 11:37:49.139572  4584 layer_factory.hpp:77] Creating layer conv6/sep/scale
I0825 11:37:49.139580  4584 net.cpp:100] Creating Layer conv6/sep/scale
I0825 11:37:49.139585  4584 net.cpp:434] conv6/sep/scale <- conv6/sep
I0825 11:37:49.139592  4584 net.cpp:395] conv6/sep/scale -> conv6/sep (in-place)
I0825 11:37:49.139642  4584 layer_factory.hpp:77] Creating layer conv6/sep/scale
I0825 11:37:49.139775  4584 net.cpp:150] Setting up conv6/sep/scale
I0825 11:37:49.139783  4584 net.cpp:157] Top shape: 16 1024 10 10 (1638400)
I0825 11:37:49.139787  4584 net.cpp:165] Memory required for data: 2528518272
I0825 11:37:49.139796  4584 layer_factory.hpp:77] Creating layer conv6/sep_relu
I0825 11:37:49.139801  4584 net.cpp:100] Creating Layer conv6/sep_relu
I0825 11:37:49.139806  4584 net.cpp:434] conv6/sep_relu <- conv6/sep
I0825 11:37:49.139812  4584 net.cpp:395] conv6/sep_relu -> conv6/sep (in-place)
I0825 11:37:49.140010  4584 net.cpp:150] Setting up conv6/sep_relu
I0825 11:37:49.140020  4584 net.cpp:157] Top shape: 16 1024 10 10 (1638400)
I0825 11:37:49.140025  4584 net.cpp:165] Memory required for data: 2535071872
I0825 11:37:49.140030  4584 layer_factory.hpp:77] Creating layer conv6/sep_conv6/sep_relu_0_split
I0825 11:37:49.140038  4584 net.cpp:100] Creating Layer conv6/sep_conv6/sep_relu_0_split
I0825 11:37:49.140043  4584 net.cpp:434] conv6/sep_conv6/sep_relu_0_split <- conv6/sep
I0825 11:37:49.140053  4584 net.cpp:408] conv6/sep_conv6/sep_relu_0_split -> conv6/sep_conv6/sep_relu_0_split_0
I0825 11:37:49.140061  4584 net.cpp:408] conv6/sep_conv6/sep_relu_0_split -> conv6/sep_conv6/sep_relu_0_split_1
I0825 11:37:49.140070  4584 net.cpp:408] conv6/sep_conv6/sep_relu_0_split -> conv6/sep_conv6/sep_relu_0_split_2
I0825 11:37:49.140076  4584 net.cpp:408] conv6/sep_conv6/sep_relu_0_split -> conv6/sep_conv6/sep_relu_0_split_3
I0825 11:37:49.140156  4584 net.cpp:150] Setting up conv6/sep_conv6/sep_relu_0_split
I0825 11:37:49.140164  4584 net.cpp:157] Top shape: 16 1024 10 10 (1638400)
I0825 11:37:49.140169  4584 net.cpp:157] Top shape: 16 1024 10 10 (1638400)
I0825 11:37:49.140174  4584 net.cpp:157] Top shape: 16 1024 10 10 (1638400)
I0825 11:37:49.140179  4584 net.cpp:157] Top shape: 16 1024 10 10 (1638400)
I0825 11:37:49.140194  4584 net.cpp:165] Memory required for data: 2561286272
I0825 11:37:49.140200  4584 layer_factory.hpp:77] Creating layer conv7_1
I0825 11:37:49.140213  4584 net.cpp:100] Creating Layer conv7_1
I0825 11:37:49.140218  4584 net.cpp:434] conv7_1 <- conv6/sep_conv6/sep_relu_0_split_0
I0825 11:37:49.140226  4584 net.cpp:408] conv7_1 -> conv7_1
I0825 11:37:49.144107  4584 net.cpp:150] Setting up conv7_1
I0825 11:37:49.144122  4584 net.cpp:157] Top shape: 16 256 10 10 (409600)
I0825 11:37:49.144127  4584 net.cpp:165] Memory required for data: 2562924672
I0825 11:37:49.144135  4584 layer_factory.hpp:77] Creating layer conv7_1_relu
I0825 11:37:49.144145  4584 net.cpp:100] Creating Layer conv7_1_relu
I0825 11:37:49.144150  4584 net.cpp:434] conv7_1_relu <- conv7_1
I0825 11:37:49.144156  4584 net.cpp:395] conv7_1_relu -> conv7_1 (in-place)
I0825 11:37:49.144836  4584 net.cpp:150] Setting up conv7_1_relu
I0825 11:37:49.144851  4584 net.cpp:157] Top shape: 16 256 10 10 (409600)
I0825 11:37:49.144855  4584 net.cpp:165] Memory required for data: 2564563072
I0825 11:37:49.144860  4584 layer_factory.hpp:77] Creating layer conv7_2
I0825 11:37:49.144872  4584 net.cpp:100] Creating Layer conv7_2
I0825 11:37:49.144878  4584 net.cpp:434] conv7_2 <- conv7_1
I0825 11:37:49.144887  4584 net.cpp:408] conv7_2 -> conv7_2
I0825 11:37:49.154063  4584 net.cpp:150] Setting up conv7_2
I0825 11:37:49.154078  4584 net.cpp:157] Top shape: 16 512 5 5 (204800)
I0825 11:37:49.154083  4584 net.cpp:165] Memory required for data: 2565382272
I0825 11:37:49.154091  4584 layer_factory.hpp:77] Creating layer conv7_2_relu
I0825 11:37:49.154098  4584 net.cpp:100] Creating Layer conv7_2_relu
I0825 11:37:49.154103  4584 net.cpp:434] conv7_2_relu <- conv7_2
I0825 11:37:49.154110  4584 net.cpp:395] conv7_2_relu -> conv7_2 (in-place)
I0825 11:37:49.154814  4584 net.cpp:150] Setting up conv7_2_relu
I0825 11:37:49.154829  4584 net.cpp:157] Top shape: 16 512 5 5 (204800)
I0825 11:37:49.154832  4584 net.cpp:165] Memory required for data: 2566201472
I0825 11:37:49.154836  4584 layer_factory.hpp:77] Creating layer conv7_2_conv7_2_relu_0_split
I0825 11:37:49.154845  4584 net.cpp:100] Creating Layer conv7_2_conv7_2_relu_0_split
I0825 11:37:49.154850  4584 net.cpp:434] conv7_2_conv7_2_relu_0_split <- conv7_2
I0825 11:37:49.154857  4584 net.cpp:408] conv7_2_conv7_2_relu_0_split -> conv7_2_conv7_2_relu_0_split_0
I0825 11:37:49.154865  4584 net.cpp:408] conv7_2_conv7_2_relu_0_split -> conv7_2_conv7_2_relu_0_split_1
I0825 11:37:49.154873  4584 net.cpp:408] conv7_2_conv7_2_relu_0_split -> conv7_2_conv7_2_relu_0_split_2
I0825 11:37:49.154881  4584 net.cpp:408] conv7_2_conv7_2_relu_0_split -> conv7_2_conv7_2_relu_0_split_3
I0825 11:37:49.154961  4584 net.cpp:150] Setting up conv7_2_conv7_2_relu_0_split
I0825 11:37:49.154969  4584 net.cpp:157] Top shape: 16 512 5 5 (204800)
I0825 11:37:49.154973  4584 net.cpp:157] Top shape: 16 512 5 5 (204800)
I0825 11:37:49.154978  4584 net.cpp:157] Top shape: 16 512 5 5 (204800)
I0825 11:37:49.154983  4584 net.cpp:157] Top shape: 16 512 5 5 (204800)
I0825 11:37:49.154986  4584 net.cpp:165] Memory required for data: 2569478272
I0825 11:37:49.154990  4584 layer_factory.hpp:77] Creating layer conv8_1
I0825 11:37:49.155002  4584 net.cpp:100] Creating Layer conv8_1
I0825 11:37:49.155007  4584 net.cpp:434] conv8_1 <- conv7_2_conv7_2_relu_0_split_0
I0825 11:37:49.155014  4584 net.cpp:408] conv8_1 -> conv8_1
I0825 11:37:49.157307  4584 net.cpp:150] Setting up conv8_1
I0825 11:37:49.157322  4584 net.cpp:157] Top shape: 16 128 5 5 (51200)
I0825 11:37:49.157325  4584 net.cpp:165] Memory required for data: 2569683072
I0825 11:37:49.157331  4584 layer_factory.hpp:77] Creating layer conv8_1_relu
I0825 11:37:49.157338  4584 net.cpp:100] Creating Layer conv8_1_relu
I0825 11:37:49.157342  4584 net.cpp:434] conv8_1_relu <- conv8_1
I0825 11:37:49.157348  4584 net.cpp:395] conv8_1_relu -> conv8_1 (in-place)
I0825 11:37:49.157536  4584 net.cpp:150] Setting up conv8_1_relu
I0825 11:37:49.157546  4584 net.cpp:157] Top shape: 16 128 5 5 (51200)
I0825 11:37:49.157562  4584 net.cpp:165] Memory required for data: 2569887872
I0825 11:37:49.157567  4584 layer_factory.hpp:77] Creating layer conv8_2
I0825 11:37:49.157578  4584 net.cpp:100] Creating Layer conv8_2
I0825 11:37:49.157583  4584 net.cpp:434] conv8_2 <- conv8_1
I0825 11:37:49.157593  4584 net.cpp:408] conv8_2 -> conv8_2
I0825 11:37:49.161554  4584 net.cpp:150] Setting up conv8_2
I0825 11:37:49.161569  4584 net.cpp:157] Top shape: 16 256 3 3 (36864)
I0825 11:37:49.161572  4584 net.cpp:165] Memory required for data: 2570035328
I0825 11:37:49.161578  4584 layer_factory.hpp:77] Creating layer conv8_2_relu
I0825 11:37:49.161583  4584 net.cpp:100] Creating Layer conv8_2_relu
I0825 11:37:49.161587  4584 net.cpp:434] conv8_2_relu <- conv8_2
I0825 11:37:49.161593  4584 net.cpp:395] conv8_2_relu -> conv8_2 (in-place)
I0825 11:37:49.162287  4584 net.cpp:150] Setting up conv8_2_relu
I0825 11:37:49.162302  4584 net.cpp:157] Top shape: 16 256 3 3 (36864)
I0825 11:37:49.162303  4584 net.cpp:165] Memory required for data: 2570182784
I0825 11:37:49.162307  4584 layer_factory.hpp:77] Creating layer conv8_2_conv8_2_relu_0_split
I0825 11:37:49.162314  4584 net.cpp:100] Creating Layer conv8_2_conv8_2_relu_0_split
I0825 11:37:49.162318  4584 net.cpp:434] conv8_2_conv8_2_relu_0_split <- conv8_2
I0825 11:37:49.162323  4584 net.cpp:408] conv8_2_conv8_2_relu_0_split -> conv8_2_conv8_2_relu_0_split_0
I0825 11:37:49.162331  4584 net.cpp:408] conv8_2_conv8_2_relu_0_split -> conv8_2_conv8_2_relu_0_split_1
I0825 11:37:49.162338  4584 net.cpp:408] conv8_2_conv8_2_relu_0_split -> conv8_2_conv8_2_relu_0_split_2
I0825 11:37:49.162345  4584 net.cpp:408] conv8_2_conv8_2_relu_0_split -> conv8_2_conv8_2_relu_0_split_3
I0825 11:37:49.162426  4584 net.cpp:150] Setting up conv8_2_conv8_2_relu_0_split
I0825 11:37:49.162433  4584 net.cpp:157] Top shape: 16 256 3 3 (36864)
I0825 11:37:49.162437  4584 net.cpp:157] Top shape: 16 256 3 3 (36864)
I0825 11:37:49.162441  4584 net.cpp:157] Top shape: 16 256 3 3 (36864)
I0825 11:37:49.162446  4584 net.cpp:157] Top shape: 16 256 3 3 (36864)
I0825 11:37:49.162448  4584 net.cpp:165] Memory required for data: 2570772608
I0825 11:37:49.162452  4584 layer_factory.hpp:77] Creating layer conv9_1
I0825 11:37:49.162466  4584 net.cpp:100] Creating Layer conv9_1
I0825 11:37:49.162470  4584 net.cpp:434] conv9_1 <- conv8_2_conv8_2_relu_0_split_0
I0825 11:37:49.162477  4584 net.cpp:408] conv9_1 -> conv9_1
I0825 11:37:49.163991  4584 net.cpp:150] Setting up conv9_1
I0825 11:37:49.164008  4584 net.cpp:157] Top shape: 16 128 3 3 (18432)
I0825 11:37:49.164012  4584 net.cpp:165] Memory required for data: 2570846336
I0825 11:37:49.164021  4584 layer_factory.hpp:77] Creating layer conv9_1_relu
I0825 11:37:49.164028  4584 net.cpp:100] Creating Layer conv9_1_relu
I0825 11:37:49.164033  4584 net.cpp:434] conv9_1_relu <- conv9_1
I0825 11:37:49.164041  4584 net.cpp:395] conv9_1_relu -> conv9_1 (in-place)
I0825 11:37:49.164736  4584 net.cpp:150] Setting up conv9_1_relu
I0825 11:37:49.164749  4584 net.cpp:157] Top shape: 16 128 3 3 (18432)
I0825 11:37:49.164752  4584 net.cpp:165] Memory required for data: 2570920064
I0825 11:37:49.164757  4584 layer_factory.hpp:77] Creating layer conv9_2
I0825 11:37:49.164768  4584 net.cpp:100] Creating Layer conv9_2
I0825 11:37:49.164773  4584 net.cpp:434] conv9_2 <- conv9_1
I0825 11:37:49.164782  4584 net.cpp:408] conv9_2 -> conv9_2
I0825 11:37:49.169117  4584 net.cpp:150] Setting up conv9_2
I0825 11:37:49.169132  4584 net.cpp:157] Top shape: 16 256 2 2 (16384)
I0825 11:37:49.169136  4584 net.cpp:165] Memory required for data: 2570985600
I0825 11:37:49.169142  4584 layer_factory.hpp:77] Creating layer conv9_2_relu
I0825 11:37:49.169147  4584 net.cpp:100] Creating Layer conv9_2_relu
I0825 11:37:49.169150  4584 net.cpp:434] conv9_2_relu <- conv9_2
I0825 11:37:49.169155  4584 net.cpp:395] conv9_2_relu -> conv9_2 (in-place)
I0825 11:37:49.169354  4584 net.cpp:150] Setting up conv9_2_relu
I0825 11:37:49.169365  4584 net.cpp:157] Top shape: 16 256 2 2 (16384)
I0825 11:37:49.169370  4584 net.cpp:165] Memory required for data: 2571051136
I0825 11:37:49.169386  4584 layer_factory.hpp:77] Creating layer conv9_2_conv9_2_relu_0_split
I0825 11:37:49.169397  4584 net.cpp:100] Creating Layer conv9_2_conv9_2_relu_0_split
I0825 11:37:49.169402  4584 net.cpp:434] conv9_2_conv9_2_relu_0_split <- conv9_2
I0825 11:37:49.169407  4584 net.cpp:408] conv9_2_conv9_2_relu_0_split -> conv9_2_conv9_2_relu_0_split_0
I0825 11:37:49.169416  4584 net.cpp:408] conv9_2_conv9_2_relu_0_split -> conv9_2_conv9_2_relu_0_split_1
I0825 11:37:49.169425  4584 net.cpp:408] conv9_2_conv9_2_relu_0_split -> conv9_2_conv9_2_relu_0_split_2
I0825 11:37:49.169430  4584 net.cpp:408] conv9_2_conv9_2_relu_0_split -> conv9_2_conv9_2_relu_0_split_3
I0825 11:37:49.169510  4584 net.cpp:150] Setting up conv9_2_conv9_2_relu_0_split
I0825 11:37:49.169518  4584 net.cpp:157] Top shape: 16 256 2 2 (16384)
I0825 11:37:49.169523  4584 net.cpp:157] Top shape: 16 256 2 2 (16384)
I0825 11:37:49.169528  4584 net.cpp:157] Top shape: 16 256 2 2 (16384)
I0825 11:37:49.169531  4584 net.cpp:157] Top shape: 16 256 2 2 (16384)
I0825 11:37:49.169536  4584 net.cpp:165] Memory required for data: 2571313280
I0825 11:37:49.169539  4584 layer_factory.hpp:77] Creating layer conv10_1
I0825 11:37:49.169551  4584 net.cpp:100] Creating Layer conv10_1
I0825 11:37:49.169556  4584 net.cpp:434] conv10_1 <- conv9_2_conv9_2_relu_0_split_0
I0825 11:37:49.169564  4584 net.cpp:408] conv10_1 -> conv10_1
I0825 11:37:49.171603  4584 net.cpp:150] Setting up conv10_1
I0825 11:37:49.171618  4584 net.cpp:157] Top shape: 16 128 2 2 (8192)
I0825 11:37:49.171622  4584 net.cpp:165] Memory required for data: 2571346048
I0825 11:37:49.171627  4584 layer_factory.hpp:77] Creating layer conv10_1_relu
I0825 11:37:49.171649  4584 net.cpp:100] Creating Layer conv10_1_relu
I0825 11:37:49.171654  4584 net.cpp:434] conv10_1_relu <- conv10_1
I0825 11:37:49.171660  4584 net.cpp:395] conv10_1_relu -> conv10_1 (in-place)
I0825 11:37:49.172356  4584 net.cpp:150] Setting up conv10_1_relu
I0825 11:37:49.172369  4584 net.cpp:157] Top shape: 16 128 2 2 (8192)
I0825 11:37:49.172371  4584 net.cpp:165] Memory required for data: 2571378816
I0825 11:37:49.172375  4584 layer_factory.hpp:77] Creating layer conv10_2
I0825 11:37:49.172402  4584 net.cpp:100] Creating Layer conv10_2
I0825 11:37:49.172405  4584 net.cpp:434] conv10_2 <- conv10_1
I0825 11:37:49.172413  4584 net.cpp:408] conv10_2 -> conv10_2
I0825 11:37:49.175674  4584 net.cpp:150] Setting up conv10_2
I0825 11:37:49.175688  4584 net.cpp:157] Top shape: 16 256 1 1 (4096)
I0825 11:37:49.175690  4584 net.cpp:165] Memory required for data: 2571395200
I0825 11:37:49.175698  4584 layer_factory.hpp:77] Creating layer conv10_2_relu
I0825 11:37:49.175703  4584 net.cpp:100] Creating Layer conv10_2_relu
I0825 11:37:49.175705  4584 net.cpp:434] conv10_2_relu <- conv10_2
I0825 11:37:49.175712  4584 net.cpp:395] conv10_2_relu -> conv10_2 (in-place)
I0825 11:37:49.176390  4584 net.cpp:150] Setting up conv10_2_relu
I0825 11:37:49.176403  4584 net.cpp:157] Top shape: 16 256 1 1 (4096)
I0825 11:37:49.176405  4584 net.cpp:165] Memory required for data: 2571411584
I0825 11:37:49.176409  4584 layer_factory.hpp:77] Creating layer conv10_2_conv10_2_relu_0_split
I0825 11:37:49.176415  4584 net.cpp:100] Creating Layer conv10_2_conv10_2_relu_0_split
I0825 11:37:49.176419  4584 net.cpp:434] conv10_2_conv10_2_relu_0_split <- conv10_2
I0825 11:37:49.176424  4584 net.cpp:408] conv10_2_conv10_2_relu_0_split -> conv10_2_conv10_2_relu_0_split_0
I0825 11:37:49.176440  4584 net.cpp:408] conv10_2_conv10_2_relu_0_split -> conv10_2_conv10_2_relu_0_split_1
I0825 11:37:49.176447  4584 net.cpp:408] conv10_2_conv10_2_relu_0_split -> conv10_2_conv10_2_relu_0_split_2
I0825 11:37:49.176515  4584 net.cpp:150] Setting up conv10_2_conv10_2_relu_0_split
I0825 11:37:49.176523  4584 net.cpp:157] Top shape: 16 256 1 1 (4096)
I0825 11:37:49.176528  4584 net.cpp:157] Top shape: 16 256 1 1 (4096)
I0825 11:37:49.176532  4584 net.cpp:157] Top shape: 16 256 1 1 (4096)
I0825 11:37:49.176537  4584 net.cpp:165] Memory required for data: 2571460736
I0825 11:37:49.176551  4584 layer_factory.hpp:77] Creating layer conv5_5/sep_mbox_loc
I0825 11:37:49.176563  4584 net.cpp:100] Creating Layer conv5_5/sep_mbox_loc
I0825 11:37:49.176568  4584 net.cpp:434] conv5_5/sep_mbox_loc <- conv5_5/sep_conv5_5/sep_relu_0_split_1
I0825 11:37:49.176578  4584 net.cpp:408] conv5_5/sep_mbox_loc -> conv5_5/sep_mbox_loc
I0825 11:37:49.179147  4584 net.cpp:150] Setting up conv5_5/sep_mbox_loc
I0825 11:37:49.179160  4584 net.cpp:157] Top shape: 16 12 19 19 (69312)
I0825 11:37:49.179163  4584 net.cpp:165] Memory required for data: 2571737984
I0825 11:37:49.179169  4584 layer_factory.hpp:77] Creating layer conv5_5/sep_mbox_loc_perm
I0825 11:37:49.179178  4584 net.cpp:100] Creating Layer conv5_5/sep_mbox_loc_perm
I0825 11:37:49.179183  4584 net.cpp:434] conv5_5/sep_mbox_loc_perm <- conv5_5/sep_mbox_loc
I0825 11:37:49.179190  4584 net.cpp:408] conv5_5/sep_mbox_loc_perm -> conv5_5/sep_mbox_loc_perm
I0825 11:37:49.179322  4584 net.cpp:150] Setting up conv5_5/sep_mbox_loc_perm
I0825 11:37:49.179328  4584 net.cpp:157] Top shape: 16 19 19 12 (69312)
I0825 11:37:49.179332  4584 net.cpp:165] Memory required for data: 2572015232
I0825 11:37:49.179337  4584 layer_factory.hpp:77] Creating layer conv5_5/sep_mbox_loc_flat
I0825 11:37:49.179347  4584 net.cpp:100] Creating Layer conv5_5/sep_mbox_loc_flat
I0825 11:37:49.179352  4584 net.cpp:434] conv5_5/sep_mbox_loc_flat <- conv5_5/sep_mbox_loc_perm
I0825 11:37:49.179358  4584 net.cpp:408] conv5_5/sep_mbox_loc_flat -> conv5_5/sep_mbox_loc_flat
I0825 11:37:49.179391  4584 net.cpp:150] Setting up conv5_5/sep_mbox_loc_flat
I0825 11:37:49.179397  4584 net.cpp:157] Top shape: 16 4332 (69312)
I0825 11:37:49.179401  4584 net.cpp:165] Memory required for data: 2572292480
I0825 11:37:49.179404  4584 layer_factory.hpp:77] Creating layer conv5_5/sep_mbox_conf
I0825 11:37:49.179412  4584 net.cpp:100] Creating Layer conv5_5/sep_mbox_conf
I0825 11:37:49.179417  4584 net.cpp:434] conv5_5/sep_mbox_conf <- conv5_5/sep_conv5_5/sep_relu_0_split_2
I0825 11:37:49.179425  4584 net.cpp:408] conv5_5/sep_mbox_conf -> conv5_5/sep_mbox_conf
I0825 11:37:49.182442  4584 net.cpp:150] Setting up conv5_5/sep_mbox_conf
I0825 11:37:49.182456  4584 net.cpp:157] Top shape: 16 12 19 19 (69312)
I0825 11:37:49.182461  4584 net.cpp:165] Memory required for data: 2572569728
I0825 11:37:49.182468  4584 layer_factory.hpp:77] Creating layer conv5_5/sep_mbox_conf_perm
I0825 11:37:49.182476  4584 net.cpp:100] Creating Layer conv5_5/sep_mbox_conf_perm
I0825 11:37:49.182481  4584 net.cpp:434] conv5_5/sep_mbox_conf_perm <- conv5_5/sep_mbox_conf
I0825 11:37:49.182488  4584 net.cpp:408] conv5_5/sep_mbox_conf_perm -> conv5_5/sep_mbox_conf_perm
I0825 11:37:49.182612  4584 net.cpp:150] Setting up conv5_5/sep_mbox_conf_perm
I0825 11:37:49.182621  4584 net.cpp:157] Top shape: 16 19 19 12 (69312)
I0825 11:37:49.182623  4584 net.cpp:165] Memory required for data: 2572846976
I0825 11:37:49.182628  4584 layer_factory.hpp:77] Creating layer conv5_5/sep_mbox_conf_flat
I0825 11:37:49.182634  4584 net.cpp:100] Creating Layer conv5_5/sep_mbox_conf_flat
I0825 11:37:49.182641  4584 net.cpp:434] conv5_5/sep_mbox_conf_flat <- conv5_5/sep_mbox_conf_perm
I0825 11:37:49.182646  4584 net.cpp:408] conv5_5/sep_mbox_conf_flat -> conv5_5/sep_mbox_conf_flat
I0825 11:37:49.182678  4584 net.cpp:150] Setting up conv5_5/sep_mbox_conf_flat
I0825 11:37:49.182685  4584 net.cpp:157] Top shape: 16 4332 (69312)
I0825 11:37:49.182688  4584 net.cpp:165] Memory required for data: 2573124224
I0825 11:37:49.182693  4584 layer_factory.hpp:77] Creating layer conv5_5/sep_mbox_priorbox
I0825 11:37:49.182703  4584 net.cpp:100] Creating Layer conv5_5/sep_mbox_priorbox
I0825 11:37:49.182708  4584 net.cpp:434] conv5_5/sep_mbox_priorbox <- conv5_5/sep_conv5_5/sep_relu_0_split_3
I0825 11:37:49.182714  4584 net.cpp:434] conv5_5/sep_mbox_priorbox <- data_data_0_split_1
I0825 11:37:49.182720  4584 net.cpp:408] conv5_5/sep_mbox_priorbox -> conv5_5/sep_mbox_priorbox
I0825 11:37:49.182756  4584 net.cpp:150] Setting up conv5_5/sep_mbox_priorbox
I0825 11:37:49.182773  4584 net.cpp:157] Top shape: 1 2 4332 (8664)
I0825 11:37:49.182777  4584 net.cpp:165] Memory required for data: 2573158880
I0825 11:37:49.182781  4584 layer_factory.hpp:77] Creating layer conv6/sep_mbox_loc
I0825 11:37:49.182792  4584 net.cpp:100] Creating Layer conv6/sep_mbox_loc
I0825 11:37:49.182797  4584 net.cpp:434] conv6/sep_mbox_loc <- conv6/sep_conv6/sep_relu_0_split_1
I0825 11:37:49.182806  4584 net.cpp:408] conv6/sep_mbox_loc -> conv6/sep_mbox_loc
I0825 11:37:49.186136  4584 net.cpp:150] Setting up conv6/sep_mbox_loc
I0825 11:37:49.186148  4584 net.cpp:157] Top shape: 16 24 10 10 (38400)
I0825 11:37:49.186151  4584 net.cpp:165] Memory required for data: 2573312480
I0825 11:37:49.186157  4584 layer_factory.hpp:77] Creating layer conv6/sep_mbox_loc_perm
I0825 11:37:49.186163  4584 net.cpp:100] Creating Layer conv6/sep_mbox_loc_perm
I0825 11:37:49.186168  4584 net.cpp:434] conv6/sep_mbox_loc_perm <- conv6/sep_mbox_loc
I0825 11:37:49.186174  4584 net.cpp:408] conv6/sep_mbox_loc_perm -> conv6/sep_mbox_loc_perm
I0825 11:37:49.186298  4584 net.cpp:150] Setting up conv6/sep_mbox_loc_perm
I0825 11:37:49.186306  4584 net.cpp:157] Top shape: 16 10 10 24 (38400)
I0825 11:37:49.186311  4584 net.cpp:165] Memory required for data: 2573466080
I0825 11:37:49.186313  4584 layer_factory.hpp:77] Creating layer conv6/sep_mbox_loc_flat
I0825 11:37:49.186319  4584 net.cpp:100] Creating Layer conv6/sep_mbox_loc_flat
I0825 11:37:49.186324  4584 net.cpp:434] conv6/sep_mbox_loc_flat <- conv6/sep_mbox_loc_perm
I0825 11:37:49.186331  4584 net.cpp:408] conv6/sep_mbox_loc_flat -> conv6/sep_mbox_loc_flat
I0825 11:37:49.186362  4584 net.cpp:150] Setting up conv6/sep_mbox_loc_flat
I0825 11:37:49.186367  4584 net.cpp:157] Top shape: 16 2400 (38400)
I0825 11:37:49.186370  4584 net.cpp:165] Memory required for data: 2573619680
I0825 11:37:49.186374  4584 layer_factory.hpp:77] Creating layer conv6/sep_mbox_conf
I0825 11:37:49.186384  4584 net.cpp:100] Creating Layer conv6/sep_mbox_conf
I0825 11:37:49.186388  4584 net.cpp:434] conv6/sep_mbox_conf <- conv6/sep_conv6/sep_relu_0_split_2
I0825 11:37:49.186396  4584 net.cpp:408] conv6/sep_mbox_conf -> conv6/sep_mbox_conf
I0825 11:37:49.190129  4584 net.cpp:150] Setting up conv6/sep_mbox_conf
I0825 11:37:49.190142  4584 net.cpp:157] Top shape: 16 24 10 10 (38400)
I0825 11:37:49.190147  4584 net.cpp:165] Memory required for data: 2573773280
I0825 11:37:49.190153  4584 layer_factory.hpp:77] Creating layer conv6/sep_mbox_conf_perm
I0825 11:37:49.190161  4584 net.cpp:100] Creating Layer conv6/sep_mbox_conf_perm
I0825 11:37:49.190166  4584 net.cpp:434] conv6/sep_mbox_conf_perm <- conv6/sep_mbox_conf
I0825 11:37:49.190172  4584 net.cpp:408] conv6/sep_mbox_conf_perm -> conv6/sep_mbox_conf_perm
I0825 11:37:49.190292  4584 net.cpp:150] Setting up conv6/sep_mbox_conf_perm
I0825 11:37:49.190299  4584 net.cpp:157] Top shape: 16 10 10 24 (38400)
I0825 11:37:49.190304  4584 net.cpp:165] Memory required for data: 2573926880
I0825 11:37:49.190307  4584 layer_factory.hpp:77] Creating layer conv6/sep_mbox_conf_flat
I0825 11:37:49.190315  4584 net.cpp:100] Creating Layer conv6/sep_mbox_conf_flat
I0825 11:37:49.190318  4584 net.cpp:434] conv6/sep_mbox_conf_flat <- conv6/sep_mbox_conf_perm
I0825 11:37:49.190325  4584 net.cpp:408] conv6/sep_mbox_conf_flat -> conv6/sep_mbox_conf_flat
I0825 11:37:49.190357  4584 net.cpp:150] Setting up conv6/sep_mbox_conf_flat
I0825 11:37:49.190363  4584 net.cpp:157] Top shape: 16 2400 (38400)
I0825 11:37:49.190366  4584 net.cpp:165] Memory required for data: 2574080480
I0825 11:37:49.190371  4584 layer_factory.hpp:77] Creating layer conv6/sep_mbox_priorbox
I0825 11:37:49.190379  4584 net.cpp:100] Creating Layer conv6/sep_mbox_priorbox
I0825 11:37:49.190383  4584 net.cpp:434] conv6/sep_mbox_priorbox <- conv6/sep_conv6/sep_relu_0_split_3
I0825 11:37:49.190388  4584 net.cpp:434] conv6/sep_mbox_priorbox <- data_data_0_split_2
I0825 11:37:49.190394  4584 net.cpp:408] conv6/sep_mbox_priorbox -> conv6/sep_mbox_priorbox
I0825 11:37:49.190426  4584 net.cpp:150] Setting up conv6/sep_mbox_priorbox
I0825 11:37:49.190443  4584 net.cpp:157] Top shape: 1 2 2400 (4800)
I0825 11:37:49.190448  4584 net.cpp:165] Memory required for data: 2574099680
I0825 11:37:49.190451  4584 layer_factory.hpp:77] Creating layer conv7_2_mbox_loc
I0825 11:37:49.190462  4584 net.cpp:100] Creating Layer conv7_2_mbox_loc
I0825 11:37:49.190467  4584 net.cpp:434] conv7_2_mbox_loc <- conv7_2_conv7_2_relu_0_split_1
I0825 11:37:49.190474  4584 net.cpp:408] conv7_2_mbox_loc -> conv7_2_mbox_loc
I0825 11:37:49.193282  4584 net.cpp:150] Setting up conv7_2_mbox_loc
I0825 11:37:49.193296  4584 net.cpp:157] Top shape: 16 24 5 5 (9600)
I0825 11:37:49.193301  4584 net.cpp:165] Memory required for data: 2574138080
I0825 11:37:49.193308  4584 layer_factory.hpp:77] Creating layer conv7_2_mbox_loc_perm
I0825 11:37:49.193316  4584 net.cpp:100] Creating Layer conv7_2_mbox_loc_perm
I0825 11:37:49.193321  4584 net.cpp:434] conv7_2_mbox_loc_perm <- conv7_2_mbox_loc
I0825 11:37:49.193330  4584 net.cpp:408] conv7_2_mbox_loc_perm -> conv7_2_mbox_loc_perm
I0825 11:37:49.193450  4584 net.cpp:150] Setting up conv7_2_mbox_loc_perm
I0825 11:37:49.193457  4584 net.cpp:157] Top shape: 16 5 5 24 (9600)
I0825 11:37:49.193461  4584 net.cpp:165] Memory required for data: 2574176480
I0825 11:37:49.193464  4584 layer_factory.hpp:77] Creating layer conv7_2_mbox_loc_flat
I0825 11:37:49.193470  4584 net.cpp:100] Creating Layer conv7_2_mbox_loc_flat
I0825 11:37:49.193475  4584 net.cpp:434] conv7_2_mbox_loc_flat <- conv7_2_mbox_loc_perm
I0825 11:37:49.193481  4584 net.cpp:408] conv7_2_mbox_loc_flat -> conv7_2_mbox_loc_flat
I0825 11:37:49.193511  4584 net.cpp:150] Setting up conv7_2_mbox_loc_flat
I0825 11:37:49.193517  4584 net.cpp:157] Top shape: 16 600 (9600)
I0825 11:37:49.193521  4584 net.cpp:165] Memory required for data: 2574214880
I0825 11:37:49.193526  4584 layer_factory.hpp:77] Creating layer conv7_2_mbox_conf
I0825 11:37:49.193536  4584 net.cpp:100] Creating Layer conv7_2_mbox_conf
I0825 11:37:49.193539  4584 net.cpp:434] conv7_2_mbox_conf <- conv7_2_conv7_2_relu_0_split_2
I0825 11:37:49.193548  4584 net.cpp:408] conv7_2_mbox_conf -> conv7_2_mbox_conf
I0825 11:37:49.196799  4584 net.cpp:150] Setting up conv7_2_mbox_conf
I0825 11:37:49.196812  4584 net.cpp:157] Top shape: 16 24 5 5 (9600)
I0825 11:37:49.196817  4584 net.cpp:165] Memory required for data: 2574253280
I0825 11:37:49.196823  4584 layer_factory.hpp:77] Creating layer conv7_2_mbox_conf_perm
I0825 11:37:49.196830  4584 net.cpp:100] Creating Layer conv7_2_mbox_conf_perm
I0825 11:37:49.196835  4584 net.cpp:434] conv7_2_mbox_conf_perm <- conv7_2_mbox_conf
I0825 11:37:49.196842  4584 net.cpp:408] conv7_2_mbox_conf_perm -> conv7_2_mbox_conf_perm
I0825 11:37:49.196969  4584 net.cpp:150] Setting up conv7_2_mbox_conf_perm
I0825 11:37:49.196977  4584 net.cpp:157] Top shape: 16 5 5 24 (9600)
I0825 11:37:49.196980  4584 net.cpp:165] Memory required for data: 2574291680
I0825 11:37:49.196985  4584 layer_factory.hpp:77] Creating layer conv7_2_mbox_conf_flat
I0825 11:37:49.196990  4584 net.cpp:100] Creating Layer conv7_2_mbox_conf_flat
I0825 11:37:49.196995  4584 net.cpp:434] conv7_2_mbox_conf_flat <- conv7_2_mbox_conf_perm
I0825 11:37:49.197001  4584 net.cpp:408] conv7_2_mbox_conf_flat -> conv7_2_mbox_conf_flat
I0825 11:37:49.197031  4584 net.cpp:150] Setting up conv7_2_mbox_conf_flat
I0825 11:37:49.197037  4584 net.cpp:157] Top shape: 16 600 (9600)
I0825 11:37:49.197041  4584 net.cpp:165] Memory required for data: 2574330080
I0825 11:37:49.197044  4584 layer_factory.hpp:77] Creating layer conv7_2_mbox_priorbox
I0825 11:37:49.197052  4584 net.cpp:100] Creating Layer conv7_2_mbox_priorbox
I0825 11:37:49.197055  4584 net.cpp:434] conv7_2_mbox_priorbox <- conv7_2_conv7_2_relu_0_split_3
I0825 11:37:49.197060  4584 net.cpp:434] conv7_2_mbox_priorbox <- data_data_0_split_3
I0825 11:37:49.197067  4584 net.cpp:408] conv7_2_mbox_priorbox -> conv7_2_mbox_priorbox
I0825 11:37:49.197099  4584 net.cpp:150] Setting up conv7_2_mbox_priorbox
I0825 11:37:49.197105  4584 net.cpp:157] Top shape: 1 2 600 (1200)
I0825 11:37:49.197108  4584 net.cpp:165] Memory required for data: 2574334880
I0825 11:37:49.197121  4584 layer_factory.hpp:77] Creating layer conv8_2_mbox_loc
I0825 11:37:49.197134  4584 net.cpp:100] Creating Layer conv8_2_mbox_loc
I0825 11:37:49.197139  4584 net.cpp:434] conv8_2_mbox_loc <- conv8_2_conv8_2_relu_0_split_1
I0825 11:37:49.197149  4584 net.cpp:408] conv8_2_mbox_loc -> conv8_2_mbox_loc
I0825 11:37:49.199604  4584 net.cpp:150] Setting up conv8_2_mbox_loc
I0825 11:37:49.199617  4584 net.cpp:157] Top shape: 16 24 3 3 (3456)
I0825 11:37:49.199621  4584 net.cpp:165] Memory required for data: 2574348704
I0825 11:37:49.199628  4584 layer_factory.hpp:77] Creating layer conv8_2_mbox_loc_perm
I0825 11:37:49.199635  4584 net.cpp:100] Creating Layer conv8_2_mbox_loc_perm
I0825 11:37:49.199640  4584 net.cpp:434] conv8_2_mbox_loc_perm <- conv8_2_mbox_loc
I0825 11:37:49.199647  4584 net.cpp:408] conv8_2_mbox_loc_perm -> conv8_2_mbox_loc_perm
I0825 11:37:49.199764  4584 net.cpp:150] Setting up conv8_2_mbox_loc_perm
I0825 11:37:49.199771  4584 net.cpp:157] Top shape: 16 3 3 24 (3456)
I0825 11:37:49.199774  4584 net.cpp:165] Memory required for data: 2574362528
I0825 11:37:49.199779  4584 layer_factory.hpp:77] Creating layer conv8_2_mbox_loc_flat
I0825 11:37:49.199784  4584 net.cpp:100] Creating Layer conv8_2_mbox_loc_flat
I0825 11:37:49.199789  4584 net.cpp:434] conv8_2_mbox_loc_flat <- conv8_2_mbox_loc_perm
I0825 11:37:49.199795  4584 net.cpp:408] conv8_2_mbox_loc_flat -> conv8_2_mbox_loc_flat
I0825 11:37:49.199825  4584 net.cpp:150] Setting up conv8_2_mbox_loc_flat
I0825 11:37:49.199831  4584 net.cpp:157] Top shape: 16 216 (3456)
I0825 11:37:49.199834  4584 net.cpp:165] Memory required for data: 2574376352
I0825 11:37:49.199838  4584 layer_factory.hpp:77] Creating layer conv8_2_mbox_conf
I0825 11:37:49.199848  4584 net.cpp:100] Creating Layer conv8_2_mbox_conf
I0825 11:37:49.199852  4584 net.cpp:434] conv8_2_mbox_conf <- conv8_2_conv8_2_relu_0_split_2
I0825 11:37:49.199861  4584 net.cpp:408] conv8_2_mbox_conf -> conv8_2_mbox_conf
I0825 11:37:49.202304  4584 net.cpp:150] Setting up conv8_2_mbox_conf
I0825 11:37:49.202318  4584 net.cpp:157] Top shape: 16 24 3 3 (3456)
I0825 11:37:49.202322  4584 net.cpp:165] Memory required for data: 2574390176
I0825 11:37:49.202329  4584 layer_factory.hpp:77] Creating layer conv8_2_mbox_conf_perm
I0825 11:37:49.202337  4584 net.cpp:100] Creating Layer conv8_2_mbox_conf_perm
I0825 11:37:49.202342  4584 net.cpp:434] conv8_2_mbox_conf_perm <- conv8_2_mbox_conf
I0825 11:37:49.202348  4584 net.cpp:408] conv8_2_mbox_conf_perm -> conv8_2_mbox_conf_perm
I0825 11:37:49.202466  4584 net.cpp:150] Setting up conv8_2_mbox_conf_perm
I0825 11:37:49.202473  4584 net.cpp:157] Top shape: 16 3 3 24 (3456)
I0825 11:37:49.202476  4584 net.cpp:165] Memory required for data: 2574404000
I0825 11:37:49.202481  4584 layer_factory.hpp:77] Creating layer conv8_2_mbox_conf_flat
I0825 11:37:49.202486  4584 net.cpp:100] Creating Layer conv8_2_mbox_conf_flat
I0825 11:37:49.202491  4584 net.cpp:434] conv8_2_mbox_conf_flat <- conv8_2_mbox_conf_perm
I0825 11:37:49.202498  4584 net.cpp:408] conv8_2_mbox_conf_flat -> conv8_2_mbox_conf_flat
I0825 11:37:49.202527  4584 net.cpp:150] Setting up conv8_2_mbox_conf_flat
I0825 11:37:49.202533  4584 net.cpp:157] Top shape: 16 216 (3456)
I0825 11:37:49.202536  4584 net.cpp:165] Memory required for data: 2574417824
I0825 11:37:49.202539  4584 layer_factory.hpp:77] Creating layer conv8_2_mbox_priorbox
I0825 11:37:49.202548  4584 net.cpp:100] Creating Layer conv8_2_mbox_priorbox
I0825 11:37:49.202551  4584 net.cpp:434] conv8_2_mbox_priorbox <- conv8_2_conv8_2_relu_0_split_3
I0825 11:37:49.202556  4584 net.cpp:434] conv8_2_mbox_priorbox <- data_data_0_split_4
I0825 11:37:49.202564  4584 net.cpp:408] conv8_2_mbox_priorbox -> conv8_2_mbox_priorbox
I0825 11:37:49.202594  4584 net.cpp:150] Setting up conv8_2_mbox_priorbox
I0825 11:37:49.202600  4584 net.cpp:157] Top shape: 1 2 216 (432)
I0825 11:37:49.202603  4584 net.cpp:165] Memory required for data: 2574419552
I0825 11:37:49.202607  4584 layer_factory.hpp:77] Creating layer conv9_2_mbox_loc
I0825 11:37:49.202628  4584 net.cpp:100] Creating Layer conv9_2_mbox_loc
I0825 11:37:49.202633  4584 net.cpp:434] conv9_2_mbox_loc <- conv9_2_conv9_2_relu_0_split_1
I0825 11:37:49.202641  4584 net.cpp:408] conv9_2_mbox_loc -> conv9_2_mbox_loc
I0825 11:37:49.205112  4584 net.cpp:150] Setting up conv9_2_mbox_loc
I0825 11:37:49.205127  4584 net.cpp:157] Top shape: 16 24 2 2 (1536)
I0825 11:37:49.205130  4584 net.cpp:165] Memory required for data: 2574425696
I0825 11:37:49.205138  4584 layer_factory.hpp:77] Creating layer conv9_2_mbox_loc_perm
I0825 11:37:49.205144  4584 net.cpp:100] Creating Layer conv9_2_mbox_loc_perm
I0825 11:37:49.205149  4584 net.cpp:434] conv9_2_mbox_loc_perm <- conv9_2_mbox_loc
I0825 11:37:49.205157  4584 net.cpp:408] conv9_2_mbox_loc_perm -> conv9_2_mbox_loc_perm
I0825 11:37:49.205276  4584 net.cpp:150] Setting up conv9_2_mbox_loc_perm
I0825 11:37:49.205284  4584 net.cpp:157] Top shape: 16 2 2 24 (1536)
I0825 11:37:49.205287  4584 net.cpp:165] Memory required for data: 2574431840
I0825 11:37:49.205291  4584 layer_factory.hpp:77] Creating layer conv9_2_mbox_loc_flat
I0825 11:37:49.205296  4584 net.cpp:100] Creating Layer conv9_2_mbox_loc_flat
I0825 11:37:49.205301  4584 net.cpp:434] conv9_2_mbox_loc_flat <- conv9_2_mbox_loc_perm
I0825 11:37:49.205307  4584 net.cpp:408] conv9_2_mbox_loc_flat -> conv9_2_mbox_loc_flat
I0825 11:37:49.205337  4584 net.cpp:150] Setting up conv9_2_mbox_loc_flat
I0825 11:37:49.205343  4584 net.cpp:157] Top shape: 16 96 (1536)
I0825 11:37:49.205345  4584 net.cpp:165] Memory required for data: 2574437984
I0825 11:37:49.205348  4584 layer_factory.hpp:77] Creating layer conv9_2_mbox_conf
I0825 11:37:49.205359  4584 net.cpp:100] Creating Layer conv9_2_mbox_conf
I0825 11:37:49.205364  4584 net.cpp:434] conv9_2_mbox_conf <- conv9_2_conv9_2_relu_0_split_2
I0825 11:37:49.205370  4584 net.cpp:408] conv9_2_mbox_conf -> conv9_2_mbox_conf
I0825 11:37:49.208256  4584 net.cpp:150] Setting up conv9_2_mbox_conf
I0825 11:37:49.208272  4584 net.cpp:157] Top shape: 16 24 2 2 (1536)
I0825 11:37:49.208276  4584 net.cpp:165] Memory required for data: 2574444128
I0825 11:37:49.208284  4584 layer_factory.hpp:77] Creating layer conv9_2_mbox_conf_perm
I0825 11:37:49.208292  4584 net.cpp:100] Creating Layer conv9_2_mbox_conf_perm
I0825 11:37:49.208295  4584 net.cpp:434] conv9_2_mbox_conf_perm <- conv9_2_mbox_conf
I0825 11:37:49.208302  4584 net.cpp:408] conv9_2_mbox_conf_perm -> conv9_2_mbox_conf_perm
I0825 11:37:49.208429  4584 net.cpp:150] Setting up conv9_2_mbox_conf_perm
I0825 11:37:49.208438  4584 net.cpp:157] Top shape: 16 2 2 24 (1536)
I0825 11:37:49.208441  4584 net.cpp:165] Memory required for data: 2574450272
I0825 11:37:49.208444  4584 layer_factory.hpp:77] Creating layer conv9_2_mbox_conf_flat
I0825 11:37:49.208451  4584 net.cpp:100] Creating Layer conv9_2_mbox_conf_flat
I0825 11:37:49.208454  4584 net.cpp:434] conv9_2_mbox_conf_flat <- conv9_2_mbox_conf_perm
I0825 11:37:49.208461  4584 net.cpp:408] conv9_2_mbox_conf_flat -> conv9_2_mbox_conf_flat
I0825 11:37:49.208490  4584 net.cpp:150] Setting up conv9_2_mbox_conf_flat
I0825 11:37:49.208498  4584 net.cpp:157] Top shape: 16 96 (1536)
I0825 11:37:49.208501  4584 net.cpp:165] Memory required for data: 2574456416
I0825 11:37:49.208505  4584 layer_factory.hpp:77] Creating layer conv9_2_mbox_priorbox
I0825 11:37:49.208513  4584 net.cpp:100] Creating Layer conv9_2_mbox_priorbox
I0825 11:37:49.208516  4584 net.cpp:434] conv9_2_mbox_priorbox <- conv9_2_conv9_2_relu_0_split_3
I0825 11:37:49.208521  4584 net.cpp:434] conv9_2_mbox_priorbox <- data_data_0_split_5
I0825 11:37:49.208528  4584 net.cpp:408] conv9_2_mbox_priorbox -> conv9_2_mbox_priorbox
I0825 11:37:49.208559  4584 net.cpp:150] Setting up conv9_2_mbox_priorbox
I0825 11:37:49.208566  4584 net.cpp:157] Top shape: 1 2 96 (192)
I0825 11:37:49.208570  4584 net.cpp:165] Memory required for data: 2574457184
I0825 11:37:49.208573  4584 layer_factory.hpp:77] Creating layer conv10_2_mbox_loc
I0825 11:37:49.208583  4584 net.cpp:100] Creating Layer conv10_2_mbox_loc
I0825 11:37:49.208598  4584 net.cpp:434] conv10_2_mbox_loc <- conv10_2_conv10_2_relu_0_split_0
I0825 11:37:49.208606  4584 net.cpp:408] conv10_2_mbox_loc -> conv10_2_mbox_loc
I0825 11:37:49.211015  4584 net.cpp:150] Setting up conv10_2_mbox_loc
I0825 11:37:49.211027  4584 net.cpp:157] Top shape: 16 24 1 1 (384)
I0825 11:37:49.211030  4584 net.cpp:165] Memory required for data: 2574458720
I0825 11:37:49.211036  4584 layer_factory.hpp:77] Creating layer conv10_2_mbox_loc_perm
I0825 11:37:49.211045  4584 net.cpp:100] Creating Layer conv10_2_mbox_loc_perm
I0825 11:37:49.211050  4584 net.cpp:434] conv10_2_mbox_loc_perm <- conv10_2_mbox_loc
I0825 11:37:49.211056  4584 net.cpp:408] conv10_2_mbox_loc_perm -> conv10_2_mbox_loc_perm
I0825 11:37:49.211171  4584 net.cpp:150] Setting up conv10_2_mbox_loc_perm
I0825 11:37:49.211179  4584 net.cpp:157] Top shape: 16 1 1 24 (384)
I0825 11:37:49.211181  4584 net.cpp:165] Memory required for data: 2574460256
I0825 11:37:49.211185  4584 layer_factory.hpp:77] Creating layer conv10_2_mbox_loc_flat
I0825 11:37:49.211192  4584 net.cpp:100] Creating Layer conv10_2_mbox_loc_flat
I0825 11:37:49.211196  4584 net.cpp:434] conv10_2_mbox_loc_flat <- conv10_2_mbox_loc_perm
I0825 11:37:49.211201  4584 net.cpp:408] conv10_2_mbox_loc_flat -> conv10_2_mbox_loc_flat
I0825 11:37:49.211230  4584 net.cpp:150] Setting up conv10_2_mbox_loc_flat
I0825 11:37:49.211236  4584 net.cpp:157] Top shape: 16 24 (384)
I0825 11:37:49.211239  4584 net.cpp:165] Memory required for data: 2574461792
I0825 11:37:49.211242  4584 layer_factory.hpp:77] Creating layer conv10_2_mbox_conf
I0825 11:37:49.211251  4584 net.cpp:100] Creating Layer conv10_2_mbox_conf
I0825 11:37:49.211256  4584 net.cpp:434] conv10_2_mbox_conf <- conv10_2_conv10_2_relu_0_split_1
I0825 11:37:49.211261  4584 net.cpp:408] conv10_2_mbox_conf -> conv10_2_mbox_conf
I0825 11:37:49.213666  4584 net.cpp:150] Setting up conv10_2_mbox_conf
I0825 11:37:49.213678  4584 net.cpp:157] Top shape: 16 24 1 1 (384)
I0825 11:37:49.213682  4584 net.cpp:165] Memory required for data: 2574463328
I0825 11:37:49.213688  4584 layer_factory.hpp:77] Creating layer conv10_2_mbox_conf_perm
I0825 11:37:49.213696  4584 net.cpp:100] Creating Layer conv10_2_mbox_conf_perm
I0825 11:37:49.213701  4584 net.cpp:434] conv10_2_mbox_conf_perm <- conv10_2_mbox_conf
I0825 11:37:49.213707  4584 net.cpp:408] conv10_2_mbox_conf_perm -> conv10_2_mbox_conf_perm
I0825 11:37:49.213824  4584 net.cpp:150] Setting up conv10_2_mbox_conf_perm
I0825 11:37:49.213830  4584 net.cpp:157] Top shape: 16 1 1 24 (384)
I0825 11:37:49.213835  4584 net.cpp:165] Memory required for data: 2574464864
I0825 11:37:49.213837  4584 layer_factory.hpp:77] Creating layer conv10_2_mbox_conf_flat
I0825 11:37:49.213845  4584 net.cpp:100] Creating Layer conv10_2_mbox_conf_flat
I0825 11:37:49.213848  4584 net.cpp:434] conv10_2_mbox_conf_flat <- conv10_2_mbox_conf_perm
I0825 11:37:49.213853  4584 net.cpp:408] conv10_2_mbox_conf_flat -> conv10_2_mbox_conf_flat
I0825 11:37:49.213883  4584 net.cpp:150] Setting up conv10_2_mbox_conf_flat
I0825 11:37:49.213888  4584 net.cpp:157] Top shape: 16 24 (384)
I0825 11:37:49.213891  4584 net.cpp:165] Memory required for data: 2574466400
I0825 11:37:49.213896  4584 layer_factory.hpp:77] Creating layer conv10_2_mbox_priorbox
I0825 11:37:49.213903  4584 net.cpp:100] Creating Layer conv10_2_mbox_priorbox
I0825 11:37:49.213907  4584 net.cpp:434] conv10_2_mbox_priorbox <- conv10_2_conv10_2_relu_0_split_2
I0825 11:37:49.213912  4584 net.cpp:434] conv10_2_mbox_priorbox <- data_data_0_split_6
I0825 11:37:49.213917  4584 net.cpp:408] conv10_2_mbox_priorbox -> conv10_2_mbox_priorbox
I0825 11:37:49.213948  4584 net.cpp:150] Setting up conv10_2_mbox_priorbox
I0825 11:37:49.213954  4584 net.cpp:157] Top shape: 1 2 24 (48)
I0825 11:37:49.213958  4584 net.cpp:165] Memory required for data: 2574466592
I0825 11:37:49.213961  4584 layer_factory.hpp:77] Creating layer mbox_loc
I0825 11:37:49.213973  4584 net.cpp:100] Creating Layer mbox_loc
I0825 11:37:49.213979  4584 net.cpp:434] mbox_loc <- conv5_5/sep_mbox_loc_flat
I0825 11:37:49.213994  4584 net.cpp:434] mbox_loc <- conv6/sep_mbox_loc_flat
I0825 11:37:49.213999  4584 net.cpp:434] mbox_loc <- conv7_2_mbox_loc_flat
I0825 11:37:49.214002  4584 net.cpp:434] mbox_loc <- conv8_2_mbox_loc_flat
I0825 11:37:49.214006  4584 net.cpp:434] mbox_loc <- conv9_2_mbox_loc_flat
I0825 11:37:49.214011  4584 net.cpp:434] mbox_loc <- conv10_2_mbox_loc_flat
I0825 11:37:49.214016  4584 net.cpp:408] mbox_loc -> mbox_loc
I0825 11:37:49.214053  4584 net.cpp:150] Setting up mbox_loc
I0825 11:37:49.214061  4584 net.cpp:157] Top shape: 16 7668 (122688)
I0825 11:37:49.214063  4584 net.cpp:165] Memory required for data: 2574957344
I0825 11:37:49.214067  4584 layer_factory.hpp:77] Creating layer mbox_conf
I0825 11:37:49.214074  4584 net.cpp:100] Creating Layer mbox_conf
I0825 11:37:49.214078  4584 net.cpp:434] mbox_conf <- conv5_5/sep_mbox_conf_flat
I0825 11:37:49.214082  4584 net.cpp:434] mbox_conf <- conv6/sep_mbox_conf_flat
I0825 11:37:49.214087  4584 net.cpp:434] mbox_conf <- conv7_2_mbox_conf_flat
I0825 11:37:49.214092  4584 net.cpp:434] mbox_conf <- conv8_2_mbox_conf_flat
I0825 11:37:49.214097  4584 net.cpp:434] mbox_conf <- conv9_2_mbox_conf_flat
I0825 11:37:49.214102  4584 net.cpp:434] mbox_conf <- conv10_2_mbox_conf_flat
I0825 11:37:49.214107  4584 net.cpp:408] mbox_conf -> mbox_conf
I0825 11:37:49.214136  4584 net.cpp:150] Setting up mbox_conf
I0825 11:37:49.214143  4584 net.cpp:157] Top shape: 16 7668 (122688)
I0825 11:37:49.214145  4584 net.cpp:165] Memory required for data: 2575448096
I0825 11:37:49.214150  4584 layer_factory.hpp:77] Creating layer mbox_priorbox
I0825 11:37:49.214155  4584 net.cpp:100] Creating Layer mbox_priorbox
I0825 11:37:49.214159  4584 net.cpp:434] mbox_priorbox <- conv5_5/sep_mbox_priorbox
I0825 11:37:49.214164  4584 net.cpp:434] mbox_priorbox <- conv6/sep_mbox_priorbox
I0825 11:37:49.214169  4584 net.cpp:434] mbox_priorbox <- conv7_2_mbox_priorbox
I0825 11:37:49.214172  4584 net.cpp:434] mbox_priorbox <- conv8_2_mbox_priorbox
I0825 11:37:49.214176  4584 net.cpp:434] mbox_priorbox <- conv9_2_mbox_priorbox
I0825 11:37:49.214180  4584 net.cpp:434] mbox_priorbox <- conv10_2_mbox_priorbox
I0825 11:37:49.214185  4584 net.cpp:408] mbox_priorbox -> mbox_priorbox
I0825 11:37:49.214212  4584 net.cpp:150] Setting up mbox_priorbox
I0825 11:37:49.214218  4584 net.cpp:157] Top shape: 1 2 7668 (15336)
I0825 11:37:49.214221  4584 net.cpp:165] Memory required for data: 2575509440
I0825 11:37:49.214226  4584 layer_factory.hpp:77] Creating layer mbox_loss
I0825 11:37:49.214238  4584 net.cpp:100] Creating Layer mbox_loss
I0825 11:37:49.214242  4584 net.cpp:434] mbox_loss <- mbox_loc
I0825 11:37:49.214247  4584 net.cpp:434] mbox_loss <- mbox_conf
I0825 11:37:49.214251  4584 net.cpp:434] mbox_loss <- mbox_priorbox
…
  phase: TEST
}
layer {
  name: "data"
  type: "AnnotatedData"
  top: "data"
  top: "label"
  include {
    phase: TEST
  }
  transform_param {
    mean_value: 104
    mean_value: 117
    mean_value: 123
    resize_param {
      prob: 1
      resize_mode: WARP
      height: 300
      width: 300
      interp_mode: LINEAR
    }
  }
  data_param {
    source: "data/BodyFaceRegions/lmdb/VOC0712_test_lmdb"
    batch_size: 8
    backend: LMDB
  }
  annotated_data_param {
    batch_sampler {
    }
    label_map_file: "data/BodyFaceRegions/labelmap_voc.prototxt"
  }
}
layer {
  name: "conv1"
  type: "Convolution"
  bottom: "data"
  top: "conv1"
  param {
    lr_mult: 1
    decay_mult: 1
  }
  convolution_param {
    num_output: 32
    bias_term: false
    pad: 1
    kernel_size: 3
    group: 1
    stride: 2
    weight_filler {
      type: "gaussian"
      std: 0.01
    }
    engine: DEFAULT
  }
}
layer {
  name: "conv1/bn"
  type: "BatchNorm"
  bottom: "conv1"
  top: "conv1"
  batch_norm_param {
    moving_average_fraction: 0.999
    eps: 0.001
  }
}
layer {
  name: "conv1/scale"
  type: "Scale"
  bottom: "conv1"
  top: "conv1"
  param {
    lr_mult: 1
    decay_mult: 0
  }
  param {
    lr_mult: 1
    decay_mult: 0
  }
  scale_param {
    filler {
      type: "constant"
      value: 1
    }
    bias_term: true
    bias_filler {
      type: "constant"
      value: 0
    }
  }
}
layer {
  name: "conv1_relu"
  type: "ReLU"
  bottom: "conv1"
  top: "conv1"
}
layer {
  name: "conv2_1/dw"
  type: "Convolution"
  bottom: "conv1"
  top: "conv2_1/dw"
  param {
    lr_mult: 1
    decay_mult: 1
  }
  convolution_param {
    num_output: 32
    bias_term: false
    pad: 1
    kernel_size: 3
    group: 32
    stride: 1
    weight_filler {
      type: "gaussian"
      std: 0.01
    }
    engine: CAFFE
  }
}
layer {
  name: "conv2_1/dw/bn"
  type: "BatchNorm"
  bottom: "conv2_1/dw"
  top: "conv2_1/dw"
  batch_norm_param {
    moving_average_fraction: 0.999
    eps: 0.001
  }
}
layer {
  name: "conv2_1/dw/scale"
  type: "Scale"
  bottom: "conv2_1/dw"
  top: "conv2_1/dw"
  param {
    lr_mult: 1
    decay_mult: 0
  }
  param {
    lr_mult: 1
    decay_mult: 0
  }
  scale_param {
    filler {
      type: "constant"
      value: 1
    }
    bias_term: true
    bias_filler {
      type: "constant"
      value: 0
    }
  }
}
layer {
  name: "conv2_1/dw_relu"
  type: "ReLU"
  bottom: "conv2_1/dw"
  top: "conv2_1/dw"
}
layer {
  name: "conv2_1/sep"
  type: "Convolution"
  bottom: "conv2_1/dw"
  top: "conv2_1/sep"
  param {
    lr_mult: 1
    decay_mult: 1
  }
  convolution_param {
    num_output: 64
    bias_term: false
    pad: 0
    kernel_size: 1
    group: 1
    stride: 1
    weight_filler {
      type: "gaussian"
      std: 0.01
    }
    engine: DEFAULT
  }
}
layer {
  name: "conv2_1/sep/bn"
  type: "BatchNorm"
  bottom: "conv2_1/sep"
  top: "conv2_1/sep"
  batch_norm_param {
    moving_average_fraction: 0.999
    eps: 0.001
  }
}
layer {
  name: "conv2_1/sep/scale"
  type: "Scale"
  bottom: "conv2_1/sep"
  top: "conv2_1/sep"
  param {
    lr_mult: 1
    decay_mult: 0
  }
  param {
    lr_mult: 1
    decay_mult: 0
  }
  scale_param {
    filler {
      type: "constant"
      value: 1
    }
    bias_term: true
    bias_filler {
      type: "constant"
      value: 0
    }
  }
}
layer {
  name: "conv2_1/sep_relu"
  type: "ReLU"
  bottom: "conv2_1/sep"
  top: "conv2_1/sep"
}
layer {
  name: "conv2_2/dw"
  type: "Convolution"
  bottom: "conv2_1/sep"
  top: "conv2_2/dw"
  param {
    lr_mult: 1
    decay_mult: 1
  }
  convolution_param {
    num_output: 64
    bias_term: false
    pad: 1
    kernel_size: 3
    group: 64
    stride: 2
    weight_filler {
      type: "gaussian"
      std: 0.01
    }
    engine: CAFFE
  }
}
layer {
  name: "conv2_2/dw/bn"
  type: "BatchNorm"
  bottom: "conv2_2/dw"
  top: "conv2_2/dw"
  batch_norm_param {
    moving_average_fraction: 0.999
    eps: 0.001
  }
}
layer {
  name: "conv2_2/dw/scale"
  type: "Scale"
  bottom: "conv2_2/dw"
  top: "conv2_2/dw"
  param {
    lr_mult: 1
    decay_mult: 0
  }
  param {
    lr_mult: 1
    decay_mult: 0
  }
  scale_param {
    filler {
      type: "constant"
      value: 1
    }
    bias_term: true
    bias_filler {
      type: "constant"
      value: 0
    }
  }
}
layer {
  name: "conv2_2/dw_relu"
  type: "ReLU"
  bottom: "conv2_2/dw"
  top: "conv2_2/dw"
}
layer {
  name: "conv2_2/sep"
  type: "Convolution"
  bottom: "conv2_2/dw"
  top: "conv2_2/sep"
  param {
    lr_mult: 1
    decay_mult: 1
  }
  convolution_param {
    num_output: 128
    bias_term: false
    pad: 0
    kernel_size: 1
    group: 1
    stride: 1
    weight_filler {
      type: "gaussian"
      std: 0.01
    }
    engine: DEFAULT
  }
}
layer {
  name: "conv2_2/sep/bn"
  type: "BatchNorm"
  bottom: "conv2_2/sep"
  top: "conv2_2/sep"
  batch_norm_param {
    moving_average_fraction: 0.999
    eps: 0.001
  }
}
layer {
  name: "conv2_2/sep/scale"
  type: "Scale"
  bottom: "conv2_2/sep"
  top: "conv2_2/sep"
  param {
    lr_mult: 1
    decay_mult: 0
  }
  param {
    lr_mult: 1
    decay_mult: 0
  }
  scale_param {
    filler {
      type: "constant"
      value: 1
    }
    bias_term: true
    bias_filler {
      type: "constant"
      value: 0
    }
  }
}
layer {
  name: "conv2_2/sep_relu"
  type: "ReLU"
  bottom: "conv2_2/sep"
  top: "conv2_2/sep"
}
layer {
  name: "conv3_1/dw"
  type: "Convolution"
  bottom: "conv2_2/sep"
  top: "conv3_1/dw"
  param {
    lr_mult: 1
    decay_mult: 1
  }
  convolution_param {
    num_output: 128
    bias_term: false
    pad: 1
    kernel_size: 3
    group: 128
    stride: 1
    weight_filler {
      type: "gaussian"
      std: 0.01
    }
    engine: CAFFE
  }
}
layer {
  name: "conv3_1/dw/bn"
  type: "BatchNorm"
  bottom: "conv3_1/dw"
  top: "conv3_1/dw"
  batch_norm_param {
    moving_average_fraction: 0.999
    eps: 0.001
  }
}
layer {
  name: "conv3_1/dw/scale"
  type: "Scale"
  bottom: "conv3_1/dw"
  top: "conv3_1/dw"
  param {
    lr_mult: 1
    decay_mult: 0
  }
  param {
    lr_mult: 1
    decay_mult: 0
  }
  scale_param {
    filler {
      type: "constant"
      value: 1
    }
    bias_term: true
    bias_filler {
      type: "constant"
      value: 0
    }
  }
}
layer {
  name: "conv3_1/dw_relu"
  type: "ReLU"
  bottom: "conv3_1/dw"
  top: "conv3_1/dw"
}
layer {
  name: "conv3_1/sep"
  type: "Convolution"
  bottom: "conv3_1/dw"
  top: "conv3_1/sep"
  param {
    lr_mult: 1
    decay_mult: 1
  }
  convolution_param {
    num_output: 128
    bias_term: false
    pad: 0
    kernel_size: 1
    group: 1
    stride: 1
    weight_filler {
      type: "gaussian"
      std: 0.01
    }
    engine: DEFAULT
  }
}
layer {
  name: "conv3_1/sep/bn"
  type: "BatchNorm"
  bottom: "conv3_1/sep"
  top: "conv3_1/sep"
  batch_norm_param {
    moving_average_fraction: 0.999
    eps: 0.001
  }
}
layer {
  name: "conv3_1/sep/scale"
  type: "Scale"
  bottom: "conv3_1/sep"
  top: "conv3_1/sep"
  param {
    lr_mult: 1
    decay_mult: 0
  }
  param {
    lr_mult: 1
    decay_mult: 0
  }
  scale_param {
    filler {
      type: "constant"
      value: 1
    }
    bias_term: true
    bias_filler {
      type: "constant"
      value: 0
    }
  }
}
layer {
  name: "conv3_1/sep_relu"
  type: "ReLU"
  bottom: "conv3_1/sep"
  top: "conv3_1/sep"
}
layer {
  name: "conv3_2/dw"
  type: "Convolution"
  bottom: "conv3_1/sep"
  top: "conv3_2/dw"
  param {
    lr_mult: 1
    decay_mult: 1
  }
  convolution_param {
    num_output: 128
    bias_term: false
    pad: 1
    kernel_size: 3
    group: 128
    stride: 2
    weight_filler {
      type: "gaussian"
      std: 0.01
    }
    engine: CAFFE
  }
}
layer {
  name: "conv3_2/dw/bn"
  type: "BatchNorm"
  bottom: "conv3_2/dw"
  top: "conv3_2/dw"
  batch_norm_param {
    moving_average_fraction: 0.999
    eps: 0.001
  }
}
layer {
  name: "conv3_2/dw/scale"
  type: "Scale"
  bottom: "conv3_2/dw"
  top: "conv3_2/dw"
  param {
    lr_mult: 1
    decay_mult: 0
  }
  param {
    lr_mult: 1
    decay_mult: 0
  }
  scale_param {
    filler {
      type: "constant"
      value: 1
    }
    bias_term: true
    bias_filler {
      type: "constant"
      value: 0
    }
  }
}
layer {
  name: "conv3_2/dw_relu"
  type: "ReLU"
  bottom: "conv3_2/dw"
  top: "conv3_2/dw"
}
layer {
  name: "conv3_2/sep"
  type: "Convolution"
  bottom: "conv3_2/dw"
  top: "conv3_2/sep"
  param {
    lr_mult: 1
    decay_mult: 1
  }
  convolution_param {
    num_output: 256
    bias_term: false
    pad: 0
    kernel_size: 1
    group: 1
    stride: 1
    weight_filler {
      type: "gaussian"
      std: 0.01
    }
    engine: DEFAULT
  }
}
layer {
  name: "conv3_2/sep/bn"
  type: "BatchNorm"
  bottom: "conv3_2/sep"
  top: "conv3_2/sep"
  batch_norm_param {
    moving_average_fraction: 0.999
    eps: 0.001
  }
}
layer {
  name: "conv3_2/sep/scale"
  type: "Scale"
  bottom: "conv3_2/sep"
  top: "conv3_2/sep"
  param {
    lr_mult: 1
    decay_mult: 0
  }
  param {
    lr_mult: 1
    decay_mult: 0
  }
  scale_param {
    filler {
      type: "constant"
      value: 1
    }
    bias_term: true
    bias_filler {
      type: "constant"
      value: 0
    }
  }
}
layer {
  name: "conv3_2/sep_relu"
  type: "ReLU"
  bottom: "conv3_2/sep"
  top: "conv3_2/sep"
}
layer {
  name: "conv4_1/dw"
  type: "Convolution"
  bottom: "conv3_2/sep"
  top: "conv4_1/dw"
  param {
    lr_mult: 1
    decay_mult: 1
  }
  convolution_param {
    num_output: 256
    bias_term: false
    pad: 1
    kernel_size: 3
    group: 256
    stride: 1
    weight_filler {
      type: "gaussian"
      std: 0.01
    }
    engine: CAFFE
  }
}
layer {
  name: "conv4_1/dw/bn"
  type: "BatchNorm"
  bottom: "conv4_1/dw"
  top: "conv4_1/dw"
  batch_norm_param {
    moving_average_fraction: 0.999
    eps: 0.001
  }
}
layer {
  name: "conv4_1/dw/scale"
  type: "Scale"
  bottom: "conv4_1/dw"
  top: "conv4_1/dw"
  param {
    lr_mult: 1
    decay_mult: 0
  }
  param {
    lr_mult: 1
    decay_mult: 0
  }
  scale_param {
    filler {
      type: "constant"
      value: 1
    }
    bias_term: true
    bias_filler {
      type: "constant"
      value: 0
    }
  }
}
layer {
  name: "conv4_1/dw_relu"
  type: "ReLU"
  bottom: "conv4_1/dw"
  top: "conv4_1/dw"
}
layer {
  name: "conv4_1/sep"
  type: "Convolution"
  bottom: "conv4_1/dw"
  top: "conv4_1/sep"
  param {
    lr_mult: 1
    decay_mult: 1
  }
  convolution_param {
    num_output: 256
    bias_term: false
    pad: 0
    kernel_size: 1
    group: 1
    stride: 1
    weight_filler {
      type: "gaussian"
      std: 0.01
    }
    engine: DEFAULT
  }
}
layer {
  name: "conv4_1/sep/bn"
  type: "BatchNorm"
  bottom: "conv4_1/sep"
  top: "conv4_1/sep"
  batch_norm_param {
    moving_average_fraction: 0.999
    eps: 0.001
  }
}
layer {
  name: "conv4_1/sep/scale"
  type: "Scale"
  bottom: "conv4_1/sep"
  top: "conv4_1/sep"
  param {
    lr_mult: 1
    decay_mult: 0
  }
  param {
    lr_mult: 1
    decay_mult: 0
  }
  scale_param {
    filler {
      type: "constant"
      value: 1
    }
    bias_term: true
    bias_filler {
      type: "constant"
      value: 0
    }
  }
}
layer {
  name: "conv4_1/sep_relu"
  type: "ReLU"
  bottom: "conv4_1/sep"
  top: "conv4_1/sep"
}
layer {
  name: "conv4_2/dw"
  type: "Convolution"
  bottom: "conv4_1/sep"
  top: "conv4_2/dw"
  param {
    lr_mult: 1
    decay_mult: 1
  }
  convolution_param {
    num_output: 256
    bias_term: false
    pad: 1
    kernel_size: 3
    group: 256
    stride: 2
    weight_filler {
      type: "gaussian"
      std: 0.01
    }
    engine: CAFFE
  }
}
layer {
  name: "conv4_2/dw/bn"
  type: "BatchNorm"
  bottom: "conv4_2/dw"
  top: "conv4_2/dw"
  batch_norm_param {
    moving_average_fraction: 0.999
    eps: 0.001
  }
}
layer {
  name: "conv4_2/dw/scale"
  type: "Scale"
  bottom: "conv4_2/dw"
  top: "conv4_2/dw"
  param {
    lr_mult: 1
    decay_mult: 0
  }
  param {
    lr_mult: 1
    decay_mult: 0
  }
  scale_param {
    filler {
      type: "constant"
      value: 1
    }
    bias_term: true
    bias_filler {
      type: "constant"
      value: 0
    }
  }
}
layer {
  name: "conv4_2/dw_relu"
  type: "ReLU"
  bottom: "conv4_2/dw"
  top: "conv4_2/dw"
}
layer {
  name: "conv4_2/sep"
  type: "Convolution"
  bottom: "conv4_2/dw"
  top: "conv4_2/sep"
  param {
    lr_mult: 1
    decay_mult: 1
  }
  convolution_param {
    num_output: 512
    bias_term: false
    pad: 0
    kernel_size: 1
    group: 1
    stride: 1
    weight_filler {
      type: "gaussian"
      std: 0.01
    }
    engine: DEFAULT
  }
}
layer {
  name: "conv4_2/sep/bn"
  type: "BatchNorm"
  bottom: "conv4_2/sep"
  top: "conv4_2/sep"
  batch_norm_param {
    moving_average_fraction: 0.999
    eps: 0.001
  }
}
layer {
  name: "conv4_2/sep/scale"
  type: "Scale"
  bottom: "conv4_2/sep"
  top: "conv4_2/sep"
  param {
    lr_mult: 1
    decay_mult: 0
  }
  param {
    lr_mult: 1
    decay_mult: 0
  }
  scale_param {
    filler {
      type: "constant"
      value: 1
    }
    bias_term: true
    bias_filler {
      type: "constant"
      value: 0
    }
  }
}
layer {
  name: "conv4_2/sep_relu"
  type: "ReLU"
  bottom: "conv4_2/sep"
  top: "conv4_2/sep"
}
layer {
  name: "conv5_1/dw"
  type: "Convolution"
  bottom: "conv4_2/sep"
  top: "conv5_1/dw"
  param {
    lr_mult: 1
    decay_mult: 1
  }
  convolution_param {
    num_output: 512
    bias_term: false
    pad: 1
    kernel_size: 3
    group: 512
    stride: 1
    weight_filler {
      type: "gaussian"
      std: 0.01
    }
    engine: CAFFE
  }
}
layer {
  name: "conv5_1/dw/bn"
  type: "BatchNorm"
  bottom: "conv5_1/dw"
  top: "conv5_1/dw"
  batch_norm_param {
    moving_average_fraction: 0.999
    eps: 0.001
  }
}
layer {
  name: "conv5_1/dw/scale"
  type: "Scale"
  bottom: "conv5_1/dw"
  top: "conv5_1/dw"
  param {
    lr_mult: 1
    decay_mult: 0
  }
  param {
    lr_mult: 1
    decay_mult: 0
  }
  scale_param {
    filler {
      type: "constant"
      value: 1
    }
    bias_term: true
    bias_filler {
      type: "constant"
      value: 0
    }
  }
}
layer {
  name: "conv5_1/dw_relu"
  type: "ReLU"
  bottom: "conv5_1/dw"
  top: "conv5_1/dw"
}
layer {
  name: "conv5_1/sep"
  type: "Convolution"
  bottom: "conv5_1/dw"
  top: "conv5_1/sep"
  param {
    lr_mult: 1
    decay_mult: 1
  }
  convolution_param {
    num_output: 512
    bias_term: false
    pad: 0
    kernel_size: 1
    group: 1
    stride: 1
    weight_filler {
      type: "gaussian"
      std: 0.01
    }
    engine: DEFAULT
  }
}
layer {
  name: "conv5_1/sep/bn"
  type: "BatchNorm"
  bottom: "conv5_1/sep"
  top: "conv5_1/sep"
  batch_norm_param {
    moving_average_fraction: 0.999
    eps: 0.001
  }
}
layer {
  name: "conv5_1/sep/scale"
  type: "Scale"
  bottom: "conv5_1/sep"
  top: "conv5_1/sep"
  param {
    lr_mult: 1
    decay_mult: 0
  }
  param {
    lr_mult: 1
    decay_mult: 0
  }
  scale_param {
    filler {
      type: "constant"
      value: 1
    }
    bias_term: true
    bias_filler {
      type: "constant"
      value: 0
    }
  }
}
layer {
  name: "conv5_1/sep_relu"
  type: "ReLU"
  bottom: "conv5_1/sep"
  top: "conv5_1/sep"
}
layer {
  name: "conv5_2/dw"
  type: "Convolution"
  bottom: "conv5_1/sep"
  top: "conv5_2/dw"
  param {
    lr_mult: 1
    decay_mult: 1
  }
  convolution_param {
    num_output: 512
    bias_term: false
    pad: 1
    kernel_size: 3
    group: 512
    stride: 1
    weight_filler {
      type: "gaussian"
      std: 0.01
    }
    engine: CAFFE
  }
}
layer {
  name: "conv5_2/dw/bn"
  type: "BatchNorm"
  bottom: "conv5_2/dw"
  top: "conv5_2/dw"
  batch_norm_param {
    moving_average_fraction: 0.999
    eps: 0.001
  }
}
layer {
  name: "conv5_2/dw/scale"
  type: "Scale"
  bottom: "conv5_2/dw"
  top: "conv5_2/dw"
  param {
    lr_mult: 1
    decay_mult: 0
  }
  param {
    lr_mult: 1
    decay_mult: 0
  }
  scale_param {
    filler {
      type: "constant"
      value: 1
    }
    bias_term: true
    bias_filler {
      type: "constant"
      value: 0
    }
  }
}
layer {
  name: "conv5_2/dw_relu"
  type: "ReLU"
  bottom: "conv5_2/dw"
  top: "conv5_2/dw"
}
layer {
  name: "conv5_2/sep"
  type: "Convolution"
  bottom: "conv5_2/dw"
  top: "conv5_2/sep"
  param {
    lr_mult: 1
    decay_mult: 1
  }
  convolution_param {
    num_output: 512
    bias_term: false
    pad: 0
    kernel_size: 1
    group: 1
    stride: 1
    weight_filler {
      type: "gaussian"
      std: 0.01
    }
    engine: DEFAULT
  }
}
layer {
  name: "conv5_2/sep/bn"
  type: "BatchNorm"
  bottom: "conv5_2/sep"
  top: "conv5_2/sep"
  batch_norm_param {
    moving_average_fraction: 0.999
    eps: 0.001
  }
}
layer {
  name: "conv5_2/sep/scale"
  type: "Scale"
  bottom: "conv5_2/sep"
  top: "conv5_2/sep"
  param {
    lr_mult: 1
    decay_mult: 0
  }
  param {
    lr_mult: 1
    decay_mult: 0
  }
  scale_param {
    filler {
      type: "constant"
      value: 1
    }
    bias_term: true
    bias_filler {
      type: "constant"
      value: 0
    }
  }
}
layer {
  name: "conv5_2/sep_relu"
  type: "ReLU"
  bottom: "conv5_2/sep"
  top: "conv5_2/sep"
}
layer {
  name: "conv5_3/dw"
  type: "Convolution"
  bottom: "conv5_2/sep"
  top: "conv5_3/dw"
  param {
    lr_mult: 1
    decay_mult: 1
  }
  convolution_param {
    num_output: 512
    bias_term: false
    pad: 1
    kernel_size: 3
    group: 512
    stride: 1
    weight_filler {
      type: "gaussian"
      std: 0.01
    }
    engine: CAFFE
  }
}
layer {
  name: "conv5_3/dw/bn"
  type: "BatchNorm"
  bottom: "conv5_3/dw"
  top: "conv5_3/dw"
  batch_norm_param {
    moving_average_fraction: 0.999
    eps: 0.001
  }
}
layer {
  name: "conv5_3/dw/scale"
  type: "Scale"
  bottom: "conv5_3/dw"
  top: "conv5_3/dw"
  param {
    lr_mult: 1
    decay_mult: 0
  }
  param {
    lr_mult: 1
    decay_mult: 0
  }
  scale_param {
    filler {
      type: "constant"
      value: 1
    }
    bias_term: true
    bias_filler {
      type: "constant"
      value: 0
    }
  }
}
layer {
  name: "conv5_3/dw_relu"
  type: "ReLU"
  bottom: "conv5_3/dw"
  top: "conv5_3/dw"
}
layer {
  name: "conv5_3/sep"
  type: "Convolution"
  bottom: "conv5_3/dw"
  top: "conv5_3/sep"
  param {
    lr_mult: 1
    decay_mult: 1
  }
  convolution_param {
    num_output: 512
    bias_term: false
    pad: 0
    kernel_size: 1
    group: 1
    stride: 1
    weight_filler {
      type: "gaussian"
      std: 0.01
    }
    engine: DEFAULT
  }
}
layer {
  name: "conv5_3/sep/bn"
  type: "BatchNorm"
  bottom: "conv5_3/sep"
  top: "conv5_3/sep"
  batch_norm_param {
    moving_average_fraction: 0.999
    eps: 0.001
  }
}
layer {
  name: "conv5_3/sep/scale"
  type: "Scale"
  bottom: "conv5_3/sep"
  top: "conv5_3/sep"
  param {
    lr_mult: 1
    decay_mult: 0
  }
  param {
    lr_mult: 1
    decay_mult: 0
  }
  scale_param {
    filler {
      type: "constant"
      value: 1
    }
    bias_term: true
    bias_filler {
      type: "constant"
      value: 0
    }
  }
}
layer {
  name: "conv5_3/sep_relu"
  type: "ReLU"
  bottom: "conv5_3/sep"
  top: "conv5_3/sep"
}
layer {
  name: "conv5_4/dw"
  type: "Convolution"
  bottom: "conv5_3/sep"
  top: "conv5_4/dw"
  param {
    lr_mult: 1
    decay_mult: 1
  }
  convolution_param {
    num_output: 512
    bias_term: false
    pad: 1
    kernel_size: 3
    group: 512
    stride: 1
    weight_filler {
      type: "gaussian"
      std: 0.01
    }
    engine: CAFFE
  }
}
layer {
  name: "conv5_4/dw/bn"
  type: "BatchNorm"
  bottom: "conv5_4/dw"
  top: "conv5_4/dw"
  batch_norm_param {
    moving_average_fraction: 0.999
    eps: 0.001
  }
}
layer {
  name: "conv5_4/dw/scale"
  type: "Scale"
  bottom: "conv5_4/dw"
  top: "conv5_4/dw"
  param {
    lr_mult: 1
    decay_mult: 0
  }
  param {
    lr_mult: 1
    decay_mult: 0
  }
  scale_param {
    filler {
      type: "constant"
      value: 1
    }
    bias_term: true
    bias_filler {
      type: "constant"
      value: 0
    }
  }
}
layer {
  name: "conv5_4/dw_relu"
  type: "ReLU"
…
I0825 11:37:49.359252  4584 net.cpp:150] Setting up conv5_6/dw_relu
I0825 11:37:49.359268  4584 net.cpp:157] Top shape: 8 512 10 10 (409600)
I0825 11:37:49.359274  4584 net.cpp:165] Memory required for data: 1228214336
I0825 11:37:49.359279  4584 layer_factory.hpp:77] Creating layer conv5_6/sep
I0825 11:37:49.359292  4584 net.cpp:100] Creating Layer conv5_6/sep
I0825 11:37:49.359298  4584 net.cpp:434] conv5_6/sep <- conv5_6/dw
I0825 11:37:49.359308  4584 net.cpp:408] conv5_6/sep -> conv5_6/sep
I0825 11:37:49.367828  4584 net.cpp:150] Setting up conv5_6/sep
I0825 11:37:49.367846  4584 net.cpp:157] Top shape: 8 1024 10 10 (819200)
I0825 11:37:49.367849  4584 net.cpp:165] Memory required for data: 1231491136
I0825 11:37:49.367856  4584 layer_factory.hpp:77] Creating layer conv5_6/sep/bn
I0825 11:37:49.367866  4584 net.cpp:100] Creating Layer conv5_6/sep/bn
I0825 11:37:49.367871  4584 net.cpp:434] conv5_6/sep/bn <- conv5_6/sep
I0825 11:37:49.367879  4584 net.cpp:395] conv5_6/sep/bn -> conv5_6/sep (in-place)
I0825 11:37:49.368129  4584 net.cpp:150] Setting up conv5_6/sep/bn
I0825 11:37:49.368139  4584 net.cpp:157] Top shape: 8 1024 10 10 (819200)
I0825 11:37:49.368141  4584 net.cpp:165] Memory required for data: 1234767936
I0825 11:37:49.368149  4584 layer_factory.hpp:77] Creating layer conv5_6/sep/scale
I0825 11:37:49.368158  4584 net.cpp:100] Creating Layer conv5_6/sep/scale
I0825 11:37:49.368162  4584 net.cpp:434] conv5_6/sep/scale <- conv5_6/sep
I0825 11:37:49.368167  4584 net.cpp:395] conv5_6/sep/scale -> conv5_6/sep (in-place)
I0825 11:37:49.368232  4584 layer_factory.hpp:77] Creating layer conv5_6/sep/scale
I0825 11:37:49.368420  4584 net.cpp:150] Setting up conv5_6/sep/scale
I0825 11:37:49.368436  4584 net.cpp:157] Top shape: 8 1024 10 10 (819200)
I0825 11:37:49.368444  4584 net.cpp:165] Memory required for data: 1238044736
I0825 11:37:49.368453  4584 layer_factory.hpp:77] Creating layer conv5_6/sep_relu
I0825 11:37:49.368463  4584 net.cpp:100] Creating Layer conv5_6/sep_relu
I0825 11:37:49.368470  4584 net.cpp:434] conv5_6/sep_relu <- conv5_6/sep
I0825 11:37:49.368477  4584 net.cpp:395] conv5_6/sep_relu -> conv5_6/sep (in-place)
I0825 11:37:49.369338  4584 net.cpp:150] Setting up conv5_6/sep_relu
I0825 11:37:49.369355  4584 net.cpp:157] Top shape: 8 1024 10 10 (819200)
I0825 11:37:49.369375  4584 net.cpp:165] Memory required for data: 1241321536
I0825 11:37:49.369380  4584 layer_factory.hpp:77] Creating layer conv6/dw
I0825 11:37:49.369392  4584 net.cpp:100] Creating Layer conv6/dw
I0825 11:37:49.369398  4584 net.cpp:434] conv6/dw <- conv5_6/sep
I0825 11:37:49.369408  4584 net.cpp:408] conv6/dw -> conv6/dw
I0825 11:37:49.369763  4584 net.cpp:150] Setting up conv6/dw
I0825 11:37:49.369773  4584 net.cpp:157] Top shape: 8 1024 10 10 (819200)
I0825 11:37:49.369778  4584 net.cpp:165] Memory required for data: 1244598336
I0825 11:37:49.369786  4584 layer_factory.hpp:77] Creating layer conv6/dw/bn
I0825 11:37:49.369793  4584 net.cpp:100] Creating Layer conv6/dw/bn
I0825 11:37:49.369798  4584 net.cpp:434] conv6/dw/bn <- conv6/dw
I0825 11:37:49.369805  4584 net.cpp:395] conv6/dw/bn -> conv6/dw (in-place)
I0825 11:37:49.370038  4584 net.cpp:150] Setting up conv6/dw/bn
I0825 11:37:49.370048  4584 net.cpp:157] Top shape: 8 1024 10 10 (819200)
I0825 11:37:49.370054  4584 net.cpp:165] Memory required for data: 1247875136
I0825 11:37:49.370062  4584 layer_factory.hpp:77] Creating layer conv6/dw/scale
I0825 11:37:49.370070  4584 net.cpp:100] Creating Layer conv6/dw/scale
I0825 11:37:49.370075  4584 net.cpp:434] conv6/dw/scale <- conv6/dw
I0825 11:37:49.370081  4584 net.cpp:395] conv6/dw/scale -> conv6/dw (in-place)
I0825 11:37:49.370143  4584 layer_factory.hpp:77] Creating layer conv6/dw/scale
I0825 11:37:49.370288  4584 net.cpp:150] Setting up conv6/dw/scale
I0825 11:37:49.370298  4584 net.cpp:157] Top shape: 8 1024 10 10 (819200)
I0825 11:37:49.370302  4584 net.cpp:165] Memory required for data: 1251151936
I0825 11:37:49.370311  4584 layer_factory.hpp:77] Creating layer conv6/dw_relu
I0825 11:37:49.370317  4584 net.cpp:100] Creating Layer conv6/dw_relu
I0825 11:37:49.370322  4584 net.cpp:434] conv6/dw_relu <- conv6/dw
I0825 11:37:49.370332  4584 net.cpp:395] conv6/dw_relu -> conv6/dw (in-place)
I0825 11:37:49.370579  4584 net.cpp:150] Setting up conv6/dw_relu
I0825 11:37:49.370592  4584 net.cpp:157] Top shape: 8 1024 10 10 (819200)
I0825 11:37:49.370596  4584 net.cpp:165] Memory required for data: 1254428736
I0825 11:37:49.370601  4584 layer_factory.hpp:77] Creating layer conv6/sep
I0825 11:37:49.370611  4584 net.cpp:100] Creating Layer conv6/sep
I0825 11:37:49.370617  4584 net.cpp:434] conv6/sep <- conv6/dw
I0825 11:37:49.370627  4584 net.cpp:408] conv6/sep -> conv6/sep
I0825 11:37:49.385720  4584 net.cpp:150] Setting up conv6/sep
I0825 11:37:49.385741  4584 net.cpp:157] Top shape: 8 1024 10 10 (819200)
I0825 11:37:49.385746  4584 net.cpp:165] Memory required for data: 1257705536
I0825 11:37:49.385754  4584 layer_factory.hpp:77] Creating layer conv6/sep/bn
I0825 11:37:49.385763  4584 net.cpp:100] Creating Layer conv6/sep/bn
I0825 11:37:49.385769  4584 net.cpp:434] conv6/sep/bn <- conv6/sep
I0825 11:37:49.385777  4584 net.cpp:395] conv6/sep/bn -> conv6/sep (in-place)
I0825 11:37:49.386019  4584 net.cpp:150] Setting up conv6/sep/bn
I0825 11:37:49.386030  4584 net.cpp:157] Top shape: 8 1024 10 10 (819200)
I0825 11:37:49.386034  4584 net.cpp:165] Memory required for data: 1260982336
I0825 11:37:49.386044  4584 layer_factory.hpp:77] Creating layer conv6/sep/scale
I0825 11:37:49.386051  4584 net.cpp:100] Creating Layer conv6/sep/scale
I0825 11:37:49.386057  4584 net.cpp:434] conv6/sep/scale <- conv6/sep
I0825 11:37:49.386065  4584 net.cpp:395] conv6/sep/scale -> conv6/sep (in-place)
I0825 11:37:49.386127  4584 layer_factory.hpp:77] Creating layer conv6/sep/scale
I0825 11:37:49.386268  4584 net.cpp:150] Setting up conv6/sep/scale
I0825 11:37:49.386277  4584 net.cpp:157] Top shape: 8 1024 10 10 (819200)
I0825 11:37:49.386281  4584 net.cpp:165] Memory required for data: 1264259136
I0825 11:37:49.386289  4584 layer_factory.hpp:77] Creating layer conv6/sep_relu
I0825 11:37:49.386296  4584 net.cpp:100] Creating Layer conv6/sep_relu
I0825 11:37:49.386301  4584 net.cpp:434] conv6/sep_relu <- conv6/sep
I0825 11:37:49.386309  4584 net.cpp:395] conv6/sep_relu -> conv6/sep (in-place)
I0825 11:37:49.387137  4584 net.cpp:150] Setting up conv6/sep_relu
I0825 11:37:49.387166  4584 net.cpp:157] Top shape: 8 1024 10 10 (819200)
I0825 11:37:49.387172  4584 net.cpp:165] Memory required for data: 1267535936
I0825 11:37:49.387176  4584 layer_factory.hpp:77] Creating layer conv6/sep_conv6/sep_relu_0_split
I0825 11:37:49.387187  4584 net.cpp:100] Creating Layer conv6/sep_conv6/sep_relu_0_split
I0825 11:37:49.387193  4584 net.cpp:434] conv6/sep_conv6/sep_relu_0_split <- conv6/sep
I0825 11:37:49.387202  4584 net.cpp:408] conv6/sep_conv6/sep_relu_0_split -> conv6/sep_conv6/sep_relu_0_split_0
I0825 11:37:49.387212  4584 net.cpp:408] conv6/sep_conv6/sep_relu_0_split -> conv6/sep_conv6/sep_relu_0_split_1
I0825 11:37:49.387219  4584 net.cpp:408] conv6/sep_conv6/sep_relu_0_split -> conv6/sep_conv6/sep_relu_0_split_2
I0825 11:37:49.387228  4584 net.cpp:408] conv6/sep_conv6/sep_relu_0_split -> conv6/sep_conv6/sep_relu_0_split_3
I0825 11:37:49.387306  4584 net.cpp:150] Setting up conv6/sep_conv6/sep_relu_0_split
I0825 11:37:49.387315  4584 net.cpp:157] Top shape: 8 1024 10 10 (819200)
I0825 11:37:49.387321  4584 net.cpp:157] Top shape: 8 1024 10 10 (819200)
I0825 11:37:49.387327  4584 net.cpp:157] Top shape: 8 1024 10 10 (819200)
I0825 11:37:49.387332  4584 net.cpp:157] Top shape: 8 1024 10 10 (819200)
I0825 11:37:49.387336  4584 net.cpp:165] Memory required for data: 1280643136
I0825 11:37:49.387341  4584 layer_factory.hpp:77] Creating layer conv7_1
I0825 11:37:49.387352  4584 net.cpp:100] Creating Layer conv7_1
I0825 11:37:49.387357  4584 net.cpp:434] conv7_1 <- conv6/sep_conv6/sep_relu_0_split_0
I0825 11:37:49.387367  4584 net.cpp:408] conv7_1 -> conv7_1
I0825 11:37:49.391602  4584 net.cpp:150] Setting up conv7_1
I0825 11:37:49.391620  4584 net.cpp:157] Top shape: 8 256 10 10 (204800)
I0825 11:37:49.391625  4584 net.cpp:165] Memory required for data: 1281462336
I0825 11:37:49.391635  4584 layer_factory.hpp:77] Creating layer conv7_1_relu
I0825 11:37:49.391644  4584 net.cpp:100] Creating Layer conv7_1_relu
I0825 11:37:49.391649  4584 net.cpp:434] conv7_1_relu <- conv7_1
I0825 11:37:49.391655  4584 net.cpp:395] conv7_1_relu -> conv7_1 (in-place)
I0825 11:37:49.391892  4584 net.cpp:150] Setting up conv7_1_relu
I0825 11:37:49.391904  4584 net.cpp:157] Top shape: 8 256 10 10 (204800)
I0825 11:37:49.391908  4584 net.cpp:165] Memory required for data: 1282281536
I0825 11:37:49.391913  4584 layer_factory.hpp:77] Creating layer conv7_2
I0825 11:37:49.391926  4584 net.cpp:100] Creating Layer conv7_2
I0825 11:37:49.391932  4584 net.cpp:434] conv7_2 <- conv7_1
I0825 11:37:49.391940  4584 net.cpp:408] conv7_2 -> conv7_2
I0825 11:37:49.402447  4584 net.cpp:150] Setting up conv7_2
I0825 11:37:49.402467  4584 net.cpp:157] Top shape: 8 512 5 5 (102400)
I0825 11:37:49.402472  4584 net.cpp:165] Memory required for data: 1282691136
I0825 11:37:49.402478  4584 layer_factory.hpp:77] Creating layer conv7_2_relu
I0825 11:37:49.402487  4584 net.cpp:100] Creating Layer conv7_2_relu
I0825 11:37:49.402493  4584 net.cpp:434] conv7_2_relu <- conv7_2
I0825 11:37:49.402498  4584 net.cpp:395] conv7_2_relu -> conv7_2 (in-place)
I0825 11:37:49.402716  4584 net.cpp:150] Setting up conv7_2_relu
I0825 11:37:49.402727  4584 net.cpp:157] Top shape: 8 512 5 5 (102400)
I0825 11:37:49.402730  4584 net.cpp:165] Memory required for data: 1283100736
I0825 11:37:49.402734  4584 layer_factory.hpp:77] Creating layer conv7_2_conv7_2_relu_0_split
I0825 11:37:49.402741  4584 net.cpp:100] Creating Layer conv7_2_conv7_2_relu_0_split
I0825 11:37:49.402746  4584 net.cpp:434] conv7_2_conv7_2_relu_0_split <- conv7_2
I0825 11:37:49.402753  4584 net.cpp:408] conv7_2_conv7_2_relu_0_split -> conv7_2_conv7_2_relu_0_split_0
I0825 11:37:49.402762  4584 net.cpp:408] conv7_2_conv7_2_relu_0_split -> conv7_2_conv7_2_relu_0_split_1
I0825 11:37:49.402770  4584 net.cpp:408] conv7_2_conv7_2_relu_0_split -> conv7_2_conv7_2_relu_0_split_2
I0825 11:37:49.402776  4584 net.cpp:408] conv7_2_conv7_2_relu_0_split -> conv7_2_conv7_2_relu_0_split_3
I0825 11:37:49.402848  4584 net.cpp:150] Setting up conv7_2_conv7_2_relu_0_split
I0825 11:37:49.402856  4584 net.cpp:157] Top shape: 8 512 5 5 (102400)
I0825 11:37:49.402874  4584 net.cpp:157] Top shape: 8 512 5 5 (102400)
I0825 11:37:49.402879  4584 net.cpp:157] Top shape: 8 512 5 5 (102400)
I0825 11:37:49.402884  4584 net.cpp:157] Top shape: 8 512 5 5 (102400)
I0825 11:37:49.402889  4584 net.cpp:165] Memory required for data: 1284739136
I0825 11:37:49.402892  4584 layer_factory.hpp:77] Creating layer conv8_1
I0825 11:37:49.402904  4584 net.cpp:100] Creating Layer conv8_1
I0825 11:37:49.402910  4584 net.cpp:434] conv8_1 <- conv7_2_conv7_2_relu_0_split_0
I0825 11:37:49.402917  4584 net.cpp:408] conv8_1 -> conv8_1
I0825 11:37:49.405867  4584 net.cpp:150] Setting up conv8_1
I0825 11:37:49.405882  4584 net.cpp:157] Top shape: 8 128 5 5 (25600)
I0825 11:37:49.405885  4584 net.cpp:165] Memory required for data: 1284841536
I0825 11:37:49.405892  4584 layer_factory.hpp:77] Creating layer conv8_1_relu
I0825 11:37:49.405897  4584 net.cpp:100] Creating Layer conv8_1_relu
I0825 11:37:49.405901  4584 net.cpp:434] conv8_1_relu <- conv8_1
I0825 11:37:49.405907  4584 net.cpp:395] conv8_1_relu -> conv8_1 (in-place)
I0825 11:37:49.406677  4584 net.cpp:150] Setting up conv8_1_relu
I0825 11:37:49.406690  4584 net.cpp:157] Top shape: 8 128 5 5 (25600)
I0825 11:37:49.406695  4584 net.cpp:165] Memory required for data: 1284943936
I0825 11:37:49.406698  4584 layer_factory.hpp:77] Creating layer conv8_2
I0825 11:37:49.406710  4584 net.cpp:100] Creating Layer conv8_2
I0825 11:37:49.406716  4584 net.cpp:434] conv8_2 <- conv8_1
I0825 11:37:49.406724  4584 net.cpp:408] conv8_2 -> conv8_2
I0825 11:37:49.410995  4584 net.cpp:150] Setting up conv8_2
I0825 11:37:49.411010  4584 net.cpp:157] Top shape: 8 256 3 3 (18432)
I0825 11:37:49.411015  4584 net.cpp:165] Memory required for data: 1285017664
I0825 11:37:49.411021  4584 layer_factory.hpp:77] Creating layer conv8_2_relu
I0825 11:37:49.411027  4584 net.cpp:100] Creating Layer conv8_2_relu
I0825 11:37:49.411031  4584 net.cpp:434] conv8_2_relu <- conv8_2
I0825 11:37:49.411036  4584 net.cpp:395] conv8_2_relu -> conv8_2 (in-place)
I0825 11:37:49.411260  4584 net.cpp:150] Setting up conv8_2_relu
I0825 11:37:49.411272  4584 net.cpp:157] Top shape: 8 256 3 3 (18432)
I0825 11:37:49.411275  4584 net.cpp:165] Memory required for data: 1285091392
I0825 11:37:49.411278  4584 layer_factory.hpp:77] Creating layer conv8_2_conv8_2_relu_0_split
I0825 11:37:49.411286  4584 net.cpp:100] Creating Layer conv8_2_conv8_2_relu_0_split
I0825 11:37:49.411291  4584 net.cpp:434] conv8_2_conv8_2_relu_0_split <- conv8_2
I0825 11:37:49.411301  4584 net.cpp:408] conv8_2_conv8_2_relu_0_split -> conv8_2_conv8_2_relu_0_split_0
I0825 11:37:49.411310  4584 net.cpp:408] conv8_2_conv8_2_relu_0_split -> conv8_2_conv8_2_relu_0_split_1
I0825 11:37:49.411319  4584 net.cpp:408] conv8_2_conv8_2_relu_0_split -> conv8_2_conv8_2_relu_0_split_2
I0825 11:37:49.411326  4584 net.cpp:408] conv8_2_conv8_2_relu_0_split -> conv8_2_conv8_2_relu_0_split_3
I0825 11:37:49.411399  4584 net.cpp:150] Setting up conv8_2_conv8_2_relu_0_split
I0825 11:37:49.411407  4584 net.cpp:157] Top shape: 8 256 3 3 (18432)
I0825 11:37:49.411412  4584 net.cpp:157] Top shape: 8 256 3 3 (18432)
I0825 11:37:49.411417  4584 net.cpp:157] Top shape: 8 256 3 3 (18432)
I0825 11:37:49.411422  4584 net.cpp:157] Top shape: 8 256 3 3 (18432)
I0825 11:37:49.411427  4584 net.cpp:165] Memory required for data: 1285386304
I0825 11:37:49.411430  4584 layer_factory.hpp:77] Creating layer conv9_1
I0825 11:37:49.411442  4584 net.cpp:100] Creating Layer conv9_1
I0825 11:37:49.411448  4584 net.cpp:434] conv9_1 <- conv8_2_conv8_2_relu_0_split_0
I0825 11:37:49.411456  4584 net.cpp:408] conv9_1 -> conv9_1
I0825 11:37:49.414178  4584 net.cpp:150] Setting up conv9_1
I0825 11:37:49.414193  4584 net.cpp:157] Top shape: 8 128 3 3 (9216)
I0825 11:37:49.414198  4584 net.cpp:165] Memory required for data: 1285423168
I0825 11:37:49.414206  4584 layer_factory.hpp:77] Creating layer conv9_1_relu
I0825 11:37:49.414216  4584 net.cpp:100] Creating Layer conv9_1_relu
I0825 11:37:49.414221  4584 net.cpp:434] conv9_1_relu <- conv9_1
I0825 11:37:49.414240  4584 net.cpp:395] conv9_1_relu -> conv9_1 (in-place)
I0825 11:37:49.414463  4584 net.cpp:150] Setting up conv9_1_relu
I0825 11:37:49.414472  4584 net.cpp:157] Top shape: 8 128 3 3 (9216)
I0825 11:37:49.414476  4584 net.cpp:165] Memory required for data: 1285460032
I0825 11:37:49.414482  4584 layer_factory.hpp:77] Creating layer conv9_2
I0825 11:37:49.414494  4584 net.cpp:100] Creating Layer conv9_2
I0825 11:37:49.414499  4584 net.cpp:434] conv9_2 <- conv9_1
I0825 11:37:49.414507  4584 net.cpp:408] conv9_2 -> conv9_2
I0825 11:37:49.418643  4584 net.cpp:150] Setting up conv9_2
I0825 11:37:49.418659  4584 net.cpp:157] Top shape: 8 256 2 2 (8192)
I0825 11:37:49.418663  4584 net.cpp:165] Memory required for data: 1285492800
I0825 11:37:49.418671  4584 layer_factory.hpp:77] Creating layer conv9_2_relu
I0825 11:37:49.418678  4584 net.cpp:100] Creating Layer conv9_2_relu
I0825 11:37:49.418684  4584 net.cpp:434] conv9_2_relu <- conv9_2
I0825 11:37:49.418689  4584 net.cpp:395] conv9_2_relu -> conv9_2 (in-place)
I0825 11:37:49.419442  4584 net.cpp:150] Setting up conv9_2_relu
I0825 11:37:49.419456  4584 net.cpp:157] Top shape: 8 256 2 2 (8192)
I0825 11:37:49.419461  4584 net.cpp:165] Memory required for data: 1285525568
I0825 11:37:49.419466  4584 layer_factory.hpp:77] Creating layer conv9_2_conv9_2_relu_0_split
I0825 11:37:49.419474  4584 net.cpp:100] Creating Layer conv9_2_conv9_2_relu_0_split
I0825 11:37:49.419481  4584 net.cpp:434] conv9_2_conv9_2_relu_0_split <- conv9_2
I0825 11:37:49.419486  4584 net.cpp:408] conv9_2_conv9_2_relu_0_split -> conv9_2_conv9_2_relu_0_split_0
I0825 11:37:49.419495  4584 net.cpp:408] conv9_2_conv9_2_relu_0_split -> conv9_2_conv9_2_relu_0_split_1
I0825 11:37:49.419503  4584 net.cpp:408] conv9_2_conv9_2_relu_0_split -> conv9_2_conv9_2_relu_0_split_2
I0825 11:37:49.419510  4584 net.cpp:408] conv9_2_conv9_2_relu_0_split -> conv9_2_conv9_2_relu_0_split_3
I0825 11:37:49.419584  4584 net.cpp:150] Setting up conv9_2_conv9_2_relu_0_split
I0825 11:37:49.419591  4584 net.cpp:157] Top shape: 8 256 2 2 (8192)
I0825 11:37:49.419596  4584 net.cpp:157] Top shape: 8 256 2 2 (8192)
I0825 11:37:49.419601  4584 net.cpp:157] Top shape: 8 256 2 2 (8192)
I0825 11:37:49.419606  4584 net.cpp:157] Top shape: 8 256 2 2 (8192)
I0825 11:37:49.419610  4584 net.cpp:165] Memory required for data: 1285656640
I0825 11:37:49.419615  4584 layer_factory.hpp:77] Creating layer conv10_1
I0825 11:37:49.419627  4584 net.cpp:100] Creating Layer conv10_1
I0825 11:37:49.419632  4584 net.cpp:434] conv10_1 <- conv9_2_conv9_2_relu_0_split_0
I0825 11:37:49.419642  4584 net.cpp:408] conv10_1 -> conv10_1
I0825 11:37:49.421895  4584 net.cpp:150] Setting up conv10_1
I0825 11:37:49.421911  4584 net.cpp:157] Top shape: 8 128 2 2 (4096)
I0825 11:37:49.421913  4584 net.cpp:165] Memory required for data: 1285673024
I0825 11:37:49.421921  4584 layer_factory.hpp:77] Creating layer conv10_1_relu
I0825 11:37:49.421942  4584 net.cpp:100] Creating Layer conv10_1_relu
I0825 11:37:49.421948  4584 net.cpp:434] conv10_1_relu <- conv10_1
I0825 11:37:49.421954  4584 net.cpp:395] conv10_1_relu -> conv10_1 (in-place)
I0825 11:37:49.422231  4584 net.cpp:150] Setting up conv10_1_relu
I0825 11:37:49.422243  4584 net.cpp:157] Top shape: 8 128 2 2 (4096)
I0825 11:37:49.422248  4584 net.cpp:165] Memory required for data: 1285689408
I0825 11:37:49.422252  4584 layer_factory.hpp:77] Creating layer conv10_2
I0825 11:37:49.422262  4584 net.cpp:100] Creating Layer conv10_2
I0825 11:37:49.422267  4584 net.cpp:434] conv10_2 <- conv10_1
I0825 11:37:49.422273  4584 net.cpp:408] conv10_2 -> conv10_2
I0825 11:37:49.426360  4584 net.cpp:150] Setting up conv10_2
I0825 11:37:49.426376  4584 net.cpp:157] Top shape: 8 256 1 1 (2048)
I0825 11:37:49.426380  4584 net.cpp:165] Memory required for data: 1285697600
I0825 11:37:49.426388  4584 layer_factory.hpp:77] Creating layer conv10_2_relu
I0825 11:37:49.426395  4584 net.cpp:100] Creating Layer conv10_2_relu
I0825 11:37:49.426400  4584 net.cpp:434] conv10_2_relu <- conv10_2
I0825 11:37:49.426407  4584 net.cpp:395] conv10_2_relu -> conv10_2 (in-place)
I0825 11:37:49.426633  4584 net.cpp:150] Setting up conv10_2_relu
I0825 11:37:49.426645  4584 net.cpp:157] Top shape: 8 256 1 1 (2048)
I0825 11:37:49.426650  4584 net.cpp:165] Memory required for data: 1285705792
I0825 11:37:49.426653  4584 layer_factory.hpp:77] Creating layer conv10_2_conv10_2_relu_0_split
I0825 11:37:49.426662  4584 net.cpp:100] Creating Layer conv10_2_conv10_2_relu_0_split
I0825 11:37:49.426666  4584 net.cpp:434] conv10_2_conv10_2_relu_0_split <- conv10_2
I0825 11:37:49.426671  4584 net.cpp:408] conv10_2_conv10_2_relu_0_split -> conv10_2_conv10_2_relu_0_split_0
I0825 11:37:49.426690  4584 net.cpp:408] conv10_2_conv10_2_relu_0_split -> conv10_2_conv10_2_relu_0_split_1
I0825 11:37:49.426698  4584 net.cpp:408] conv10_2_conv10_2_relu_0_split -> conv10_2_conv10_2_relu_0_split_2
I0825 11:37:49.426755  4584 net.cpp:150] Setting up conv10_2_conv10_2_relu_0_split
I0825 11:37:49.426765  4584 net.cpp:157] Top shape: 8 256 1 1 (2048)
I0825 11:37:49.426770  4584 net.cpp:157] Top shape: 8 256 1 1 (2048)
I0825 11:37:49.426775  4584 net.cpp:157] Top shape: 8 256 1 1 (2048)
I0825 11:37:49.426779  4584 net.cpp:165] Memory required for data: 1285730368
I0825 11:37:49.426784  4584 layer_factory.hpp:77] Creating layer conv5_5/sep_mbox_loc
I0825 11:37:49.426793  4584 net.cpp:100] Creating Layer conv5_5/sep_mbox_loc
I0825 11:37:49.426798  4584 net.cpp:434] conv5_5/sep_mbox_loc <- conv5_5/sep_conv5_5/sep_relu_0_split_1
I0825 11:37:49.426806  4584 net.cpp:408] conv5_5/sep_mbox_loc -> conv5_5/sep_mbox_loc
I0825 11:37:49.429544  4584 net.cpp:150] Setting up conv5_5/sep_mbox_loc
I0825 11:37:49.429558  4584 net.cpp:157] Top shape: 8 12 19 19 (34656)
I0825 11:37:49.429563  4584 net.cpp:165] Memory required for data: 1285868992
I0825 11:37:49.429570  4584 layer_factory.hpp:77] Creating layer conv5_5/sep_mbox_loc_perm
I0825 11:37:49.429580  4584 net.cpp:100] Creating Layer conv5_5/sep_mbox_loc_perm
I0825 11:37:49.429585  4584 net.cpp:434] conv5_5/sep_mbox_loc_perm <- conv5_5/sep_mbox_loc
I0825 11:37:49.429594  4584 net.cpp:408] conv5_5/sep_mbox_loc_perm -> conv5_5/sep_mbox_loc_perm
I0825 11:37:49.429704  4584 net.cpp:150] Setting up conv5_5/sep_mbox_loc_perm
I0825 11:37:49.429711  4584 net.cpp:157] Top shape: 8 19 19 12 (34656)
I0825 11:37:49.429715  4584 net.cpp:165] Memory required for data: 1286007616
I0825 11:37:49.429719  4584 layer_factory.hpp:77] Creating layer conv5_5/sep_mbox_loc_flat
I0825 11:37:49.429728  4584 net.cpp:100] Creating Layer conv5_5/sep_mbox_loc_flat
I0825 11:37:49.429733  4584 net.cpp:434] conv5_5/sep_mbox_loc_flat <- conv5_5/sep_mbox_loc_perm
I0825 11:37:49.429738  4584 net.cpp:408] conv5_5/sep_mbox_loc_flat -> conv5_5/sep_mbox_loc_flat
I0825 11:37:49.429766  4584 net.cpp:150] Setting up conv5_5/sep_mbox_loc_flat
I0825 11:37:49.429772  4584 net.cpp:157] Top shape: 8 4332 (34656)
I0825 11:37:49.429776  4584 net.cpp:165] Memory required for data: 1286146240
I0825 11:37:49.429780  4584 layer_factory.hpp:77] Creating layer conv5_5/sep_mbox_conf
I0825 11:37:49.429791  4584 net.cpp:100] Creating Layer conv5_5/sep_mbox_conf
I0825 11:37:49.429796  4584 net.cpp:434] conv5_5/sep_mbox_conf <- conv5_5/sep_conv5_5/sep_relu_0_split_2
I0825 11:37:49.429805  4584 net.cpp:408] conv5_5/sep_mbox_conf -> conv5_5/sep_mbox_conf
I0825 11:37:49.432569  4584 net.cpp:150] Setting up conv5_5/sep_mbox_conf
I0825 11:37:49.432581  4584 net.cpp:157] Top shape: 8 12 19 19 (34656)
I0825 11:37:49.432586  4584 net.cpp:165] Memory required for data: 1286284864
I0825 11:37:49.432593  4584 layer_factory.hpp:77] Creating layer conv5_5/sep_mbox_conf_perm
I0825 11:37:49.432602  4584 net.cpp:100] Creating Layer conv5_5/sep_mbox_conf_perm
I0825 11:37:49.432607  4584 net.cpp:434] conv5_5/sep_mbox_conf_perm <- conv5_5/sep_mbox_conf
I0825 11:37:49.432615  4584 net.cpp:408] conv5_5/sep_mbox_conf_perm -> conv5_5/sep_mbox_conf_perm
I0825 11:37:49.432723  4584 net.cpp:150] Setting up conv5_5/sep_mbox_conf_perm
I0825 11:37:49.432730  4584 net.cpp:157] Top shape: 8 19 19 12 (34656)
I0825 11:37:49.432734  4584 net.cpp:165] Memory required for data: 1286423488
I0825 11:37:49.432749  4584 layer_factory.hpp:77] Creating layer conv5_5/sep_mbox_conf_flat
I0825 11:37:49.432760  4584 net.cpp:100] Creating Layer conv5_5/sep_mbox_conf_flat
I0825 11:37:49.432765  4584 net.cpp:434] conv5_5/sep_mbox_conf_flat <- conv5_5/sep_mbox_conf_perm
I0825 11:37:49.432770  4584 net.cpp:408] conv5_5/sep_mbox_conf_flat -> conv5_5/sep_mbox_conf_flat
I0825 11:37:49.432804  4584 net.cpp:150] Setting up conv5_5/sep_mbox_conf_flat
I0825 11:37:49.432811  4584 net.cpp:157] Top shape: 8 4332 (34656)
I0825 11:37:49.432816  4584 net.cpp:165] Memory required for data: 1286562112
I0825 11:37:49.432819  4584 layer_factory.hpp:77] Creating layer conv5_5/sep_mbox_priorbox
I0825 11:37:49.432829  4584 net.cpp:100] Creating Layer conv5_5/sep_mbox_priorbox
I0825 11:37:49.432834  4584 net.cpp:434] conv5_5/sep_mbox_priorbox <- conv5_5/sep_conv5_5/sep_relu_0_split_3
I0825 11:37:49.432842  4584 net.cpp:434] conv5_5/sep_mbox_priorbox <- data_data_0_split_1
I0825 11:37:49.432847  4584 net.cpp:408] conv5_5/sep_mbox_priorbox -> conv5_5/sep_mbox_priorbox
I0825 11:37:49.432878  4584 net.cpp:150] Setting up conv5_5/sep_mbox_priorbox
I0825 11:37:49.432884  4584 net.cpp:157] Top shape: 1 2 4332 (8664)
I0825 11:37:49.432888  4584 net.cpp:165] Memory required for data: 1286596768
I0825 11:37:49.432893  4584 layer_factory.hpp:77] Creating layer conv6/sep_mbox_loc
I0825 11:37:49.432902  4584 net.cpp:100] Creating Layer conv6/sep_mbox_loc
I0825 11:37:49.432909  4584 net.cpp:434] conv6/sep_mbox_loc <- conv6/sep_conv6/sep_relu_0_split_1
I0825 11:37:49.432916  4584 net.cpp:408] conv6/sep_mbox_loc -> conv6/sep_mbox_loc
I0825 11:37:49.437487  4584 net.cpp:150] Setting up conv6/sep_mbox_loc
I0825 11:37:49.437502  4584 net.cpp:157] Top shape: 8 24 10 10 (19200)
I0825 11:37:49.437505  4584 net.cpp:165] Memory required for data: 1286673568
I0825 11:37:49.437511  4584 layer_factory.hpp:77] Creating layer conv6/sep_mbox_loc_perm
I0825 11:37:49.437518  4584 net.cpp:100] Creating Layer conv6/sep_mbox_loc_perm
I0825 11:37:49.437523  4584 net.cpp:434] conv6/sep_mbox_loc_perm <- conv6/sep_mbox_loc
I0825 11:37:49.437531  4584 net.cpp:408] conv6/sep_mbox_loc_perm -> conv6/sep_mbox_loc_perm
I0825 11:37:49.437641  4584 net.cpp:150] Setting up conv6/sep_mbox_loc_perm
I0825 11:37:49.437649  4584 net.cpp:157] Top shape: 8 10 10 24 (19200)
I0825 11:37:49.437654  4584 net.cpp:165] Memory required for data: 1286750368
I0825 11:37:49.437656  4584 layer_factory.hpp:77] Creating layer conv6/sep_mbox_loc_flat
I0825 11:37:49.437662  4584 net.cpp:100] Creating Layer conv6/sep_mbox_loc_flat
I0825 11:37:49.437666  4584 net.cpp:434] conv6/sep_mbox_loc_flat <- conv6/sep_mbox_loc_perm
I0825 11:37:49.437674  4584 net.cpp:408] conv6/sep_mbox_loc_flat -> conv6/sep_mbox_loc_flat
I0825 11:37:49.437697  4584 net.cpp:150] Setting up conv6/sep_mbox_loc_flat
I0825 11:37:49.437703  4584 net.cpp:157] Top shape: 8 2400 (19200)
I0825 11:37:49.437706  4584 net.cpp:165] Memory required for data: 1286827168
I0825 11:37:49.437711  4584 layer_factory.hpp:77] Creating layer conv6/sep_mbox_conf
I0825 11:37:49.437721  4584 net.cpp:100] Creating Layer conv6/sep_mbox_conf
I0825 11:37:49.437726  4584 net.cpp:434] conv6/sep_mbox_conf <- conv6/sep_conv6/sep_relu_0_split_2
I0825 11:37:49.437732  4584 net.cpp:408] conv6/sep_mbox_conf -> conv6/sep_mbox_conf
I0825 11:37:49.441694  4584 net.cpp:150] Setting up conv6/sep_mbox_conf
I0825 11:37:49.441710  4584 net.cpp:157] Top shape: 8 24 10 10 (19200)
I0825 11:37:49.441715  4584 net.cpp:165] Memory required for data: 1286903968
I0825 11:37:49.441722  4584 layer_factory.hpp:77] Creating layer conv6/sep_mbox_conf_perm
I0825 11:37:49.441730  4584 net.cpp:100] Creating Layer conv6/sep_mbox_conf_perm
I0825 11:37:49.441733  4584 net.cpp:434] conv6/sep_mbox_conf_perm <- conv6/sep_mbox_conf
I0825 11:37:49.441741  4584 net.cpp:408] conv6/sep_mbox_conf_perm -> conv6/sep_mbox_conf_perm
I0825 11:37:49.441850  4584 net.cpp:150] Setting up conv6/sep_mbox_conf_perm
I0825 11:37:49.441857  4584 net.cpp:157] Top shape: 8 10 10 24 (19200)
I0825 11:37:49.441872  4584 net.cpp:165] Memory required for data: 1286980768
I0825 11:37:49.441876  4584 layer_factory.hpp:77] Creating layer conv6/sep_mbox_conf_flat
I0825 11:37:49.441884  4584 net.cpp:100] Creating Layer conv6/sep_mbox_conf_flat
I0825 11:37:49.441887  4584 net.cpp:434] conv6/sep_mbox_conf_flat <- conv6/sep_mbox_conf_perm
I0825 11:37:49.441895  4584 net.cpp:408] conv6/sep_mbox_conf_flat -> conv6/sep_mbox_conf_flat
I0825 11:37:49.441925  4584 net.cpp:150] Setting up conv6/sep_mbox_conf_flat
I0825 11:37:49.441931  4584 net.cpp:157] Top shape: 8 2400 (19200)
I0825 11:37:49.441933  4584 net.cpp:165] Memory required for data: 1287057568
I0825 11:37:49.441937  4584 layer_factory.hpp:77] Creating layer conv6/sep_mbox_priorbox
I0825 11:37:49.441944  4584 net.cpp:100] Creating Layer conv6/sep_mbox_priorbox
I0825 11:37:49.441948  4584 net.cpp:434] conv6/sep_mbox_priorbox <- conv6/sep_conv6/sep_relu_0_split_3
I0825 11:37:49.441954  4584 net.cpp:434] conv6/sep_mbox_priorbox <- data_data_0_split_2
I0825 11:37:49.441962  4584 net.cpp:408] conv6/sep_mbox_priorbox -> conv6/sep_mbox_priorbox
I0825 11:37:49.441992  4584 net.cpp:150] Setting up conv6/sep_mbox_priorbox
I0825 11:37:49.441998  4584 net.cpp:157] Top shape: 1 2 2400 (4800)
I0825 11:37:49.442001  4584 net.cpp:165] Memory required for data: 1287076768
I0825 11:37:49.442004  4584 layer_factory.hpp:77] Creating layer conv7_2_mbox_loc
I0825 11:37:49.442013  4584 net.cpp:100] Creating Layer conv7_2_mbox_loc
I0825 11:37:49.442018  4584 net.cpp:434] conv7_2_mbox_loc <- conv7_2_conv7_2_relu_0_split_1
I0825 11:37:49.442025  4584 net.cpp:408] conv7_2_mbox_loc -> conv7_2_mbox_loc
I0825 11:37:49.444965  4584 net.cpp:150] Setting up conv7_2_mbox_loc
I0825 11:37:49.444979  4584 net.cpp:157] Top shape: 8 24 5 5 (4800)
I0825 11:37:49.444983  4584 net.cpp:165] Memory required for data: 1287095968
I0825 11:37:49.444990  4584 layer_factory.hpp:77] Creating layer conv7_2_mbox_loc_perm
I0825 11:37:49.444999  4584 net.cpp:100] Creating Layer conv7_2_mbox_loc_perm
I0825 11:37:49.445004  4584 net.cpp:434] conv7_2_mbox_loc_perm <- conv7_2_mbox_loc
I0825 11:37:49.445010  4584 net.cpp:408] conv7_2_mbox_loc_perm -> conv7_2_mbox_loc_perm
I0825 11:37:49.445123  4584 net.cpp:150] Setting up conv7_2_mbox_loc_perm
I0825 11:37:49.445132  4584 net.cpp:157] Top shape: 8 5 5 24 (4800)
I0825 11:37:49.445134  4584 net.cpp:165] Memory required for data: 1287115168
I0825 11:37:49.445138  4584 layer_factory.hpp:77] Creating layer conv7_2_mbox_loc_flat
I0825 11:37:49.445144  4584 net.cpp:100] Creating Layer conv7_2_mbox_loc_flat
I0825 11:37:49.445148  4584 net.cpp:434] conv7_2_mbox_loc_flat <- conv7_2_mbox_loc_perm
I0825 11:37:49.445157  4584 net.cpp:408] conv7_2_mbox_loc_flat -> conv7_2_mbox_loc_flat
I0825 11:37:49.445184  4584 net.cpp:150] Setting up conv7_2_mbox_loc_flat
I0825 11:37:49.445190  4584 net.cpp:157] Top shape: 8 600 (4800)
I0825 11:37:49.445194  4584 net.cpp:165] Memory required for data: 1287134368
I0825 11:37:49.445197  4584 layer_factory.hpp:77] Creating layer conv7_2_mbox_conf
I0825 11:37:49.445207  4584 net.cpp:100] Creating Layer conv7_2_mbox_conf
I0825 11:37:49.445211  4584 net.cpp:434] conv7_2_mbox_conf <- conv7_2_conv7_2_relu_0_split_2
I0825 11:37:49.445219  4584 net.cpp:408] conv7_2_mbox_conf -> conv7_2_mbox_conf
I0825 11:37:49.448130  4584 net.cpp:150] Setting up conv7_2_mbox_conf
I0825 11:37:49.448143  4584 net.cpp:157] Top shape: 8 24 5 5 (4800)
I0825 11:37:49.448148  4584 net.cpp:165] Memory required for data: 1287153568
I0825 11:37:49.448155  4584 layer_factory.hpp:77] Creating layer conv7_2_mbox_conf_perm
I0825 11:37:49.448163  4584 net.cpp:100] Creating Layer conv7_2_mbox_conf_perm
I0825 11:37:49.448168  4584 net.cpp:434] conv7_2_mbox_conf_perm <- conv7_2_mbox_conf
I0825 11:37:49.448175  4584 net.cpp:408] conv7_2_mbox_conf_perm -> conv7_2_mbox_conf_perm
I0825 11:37:49.448285  4584 net.cpp:150] Setting up conv7_2_mbox_conf_perm
I0825 11:37:49.448292  4584 net.cpp:157] Top shape: 8 5 5 24 (4800)
I0825 11:37:49.448295  4584 net.cpp:165] Memory required for data: 1287172768
I0825 11:37:49.448310  4584 layer_factory.hpp:77] Creating layer conv7_2_mbox_conf_flat
I0825 11:37:49.448317  4584 net.cpp:100] Creating Layer conv7_2_mbox_conf_flat
I0825 11:37:49.448320  4584 net.cpp:434] conv7_2_mbox_conf_flat <- conv7_2_mbox_conf_perm
I0825 11:37:49.448328  4584 net.cpp:408] conv7_2_mbox_conf_flat -> conv7_2_mbox_conf_flat
I0825 11:37:49.448375  4584 net.cpp:150] Setting up conv7_2_mbox_conf_flat
I0825 11:37:49.448390  4584 net.cpp:157] Top shape: 8 600 (4800)
I0825 11:37:49.448395  4584 net.cpp:165] Memory required for data: 1287191968
I0825 11:37:49.448400  4584 layer_factory.hpp:77] Creating layer conv7_2_mbox_priorbox
I0825 11:37:49.448410  4584 net.cpp:100] Creating Layer conv7_2_mbox_priorbox
I0825 11:37:49.448418  4584 net.cpp:434] conv7_2_mbox_priorbox <- conv7_2_conv7_2_relu_0_split_3
I0825 11:37:49.448426  4584 net.cpp:434] conv7_2_mbox_priorbox <- data_data_0_split_3
I0825 11:37:49.448434  4584 net.cpp:408] conv7_2_mbox_priorbox -> conv7_2_mbox_priorbox
I0825 11:37:49.448468  4584 net.cpp:150] Setting up conv7_2_mbox_priorbox
I0825 11:37:49.448477  4584 net.cpp:157] Top shape: 1 2 600 (1200)
I0825 11:37:49.448482  4584 net.cpp:165] Memory required for data: 1287196768
I0825 11:37:49.448485  4584 layer_factory.hpp:77] Creating layer conv8_2_mbox_loc
I0825 11:37:49.448495  4584 net.cpp:100] Creating Layer conv8_2_mbox_loc
I0825 11:37:49.448499  4584 net.cpp:434] conv8_2_mbox_loc <- conv8_2_conv8_2_relu_0_split_1
I0825 11:37:49.448506  4584 net.cpp:408] conv8_2_mbox_loc -> conv8_2_mbox_loc
I0825 11:37:49.451117  4584 net.cpp:150] Setting up conv8_2_mbox_loc
I0825 11:37:49.451129  4584 net.cpp:157] Top shape: 8 24 3 3 (1728)
I0825 11:37:49.451133  4584 net.cpp:165] Memory required for data: 1287203680
I0825 11:37:49.451138  4584 layer_factory.hpp:77] Creating layer conv8_2_mbox_loc_perm
I0825 11:37:49.451145  4584 net.cpp:100] Creating Layer conv8_2_mbox_loc_perm
I0825 11:37:49.451149  4584 net.cpp:434] conv8_2_mbox_loc_perm <- conv8_2_mbox_loc
I0825 11:37:49.451155  4584 net.cpp:408] conv8_2_mbox_loc_perm -> conv8_2_mbox_loc_perm
I0825 11:37:49.451267  4584 net.cpp:150] Setting up conv8_2_mbox_loc_perm
I0825 11:37:49.451273  4584 net.cpp:157] Top shape: 8 3 3 24 (1728)
I0825 11:37:49.451277  4584 net.cpp:165] Memory required for data: 1287210592
I0825 11:37:49.451282  4584 layer_factory.hpp:77] Creating layer conv8_2_mbox_loc_flat
I0825 11:37:49.451287  4584 net.cpp:100] Creating Layer conv8_2_mbox_loc_flat
I0825 11:37:49.451295  4584 net.cpp:434] conv8_2_mbox_loc_flat <- conv8_2_mbox_loc_perm
I0825 11:37:49.451303  4584 net.cpp:408] conv8_2_mbox_loc_flat -> conv8_2_mbox_loc_flat
I0825 11:37:49.451328  4584 net.cpp:150] Setting up conv8_2_mbox_loc_flat
I0825 11:37:49.451335  4584 net.cpp:157] Top shape: 8 216 (1728)
I0825 11:37:49.451339  4584 net.cpp:165] Memory required for data: 1287217504
I0825 11:37:49.451342  4584 layer_factory.hpp:77] Creating layer conv8_2_mbox_conf
I0825 11:37:49.451351  4584 net.cpp:100] Creating Layer conv8_2_mbox_conf
I0825 11:37:49.451355  4584 net.cpp:434] conv8_2_mbox_conf <- conv8_2_conv8_2_relu_0_split_2
I0825 11:37:49.451364  4584 net.cpp:408] conv8_2_mbox_conf -> conv8_2_mbox_conf
I0825 11:37:49.454432  4584 net.cpp:150] Setting up conv8_2_mbox_conf
I0825 11:37:49.454445  4584 net.cpp:157] Top shape: 8 24 3 3 (1728)
I0825 11:37:49.454448  4584 net.cpp:165] Memory required for data: 1287224416
I0825 11:37:49.454457  4584 layer_factory.hpp:77] Creating layer conv8_2_mbox_conf_perm
I0825 11:37:49.454464  4584 net.cpp:100] Creating Layer conv8_2_mbox_conf_perm
I0825 11:37:49.454470  4584 net.cpp:434] conv8_2_mbox_conf_perm <- conv8_2_mbox_conf
I0825 11:37:49.454478  4584 net.cpp:408] conv8_2_mbox_conf_perm -> conv8_2_mbox_conf_perm
I0825 11:37:49.454591  4584 net.cpp:150] Setting up conv8_2_mbox_conf_perm
I0825 11:37:49.454599  4584 net.cpp:157] Top shape: 8 3 3 24 (1728)
I0825 11:37:49.454602  4584 net.cpp:165] Memory required for data: 1287231328
I0825 11:37:49.454607  4584 layer_factory.hpp:77] Creating layer conv8_2_mbox_conf_flat
I0825 11:37:49.454624  4584 net.cpp:100] Creating Layer conv8_2_mbox_conf_flat
I0825 11:37:49.454629  4584 net.cpp:434] conv8_2_mbox_conf_flat <- conv8_2_mbox_conf_perm
I0825 11:37:49.454637  4584 net.cpp:408] conv8_2_mbox_conf_flat -> conv8_2_mbox_conf_flat
I0825 11:37:49.454665  4584 net.cpp:150] Setting up conv8_2_mbox_conf_flat
I0825 11:37:49.454671  4584 net.cpp:157] Top shape: 8 216 (1728)
I0825 11:37:49.454675  4584 net.cpp:165] Memory required for data: 1287238240
I0825 11:37:49.454679  4584 layer_factory.hpp:77] Creating layer conv8_2_mbox_priorbox
I0825 11:37:49.454686  4584 net.cpp:100] Creating Layer conv8_2_mbox_priorbox
I0825 11:37:49.454696  4584 net.cpp:434] conv8_2_mbox_priorbox <- conv8_2_conv8_2_relu_0_split_3
I0825 11:37:49.454701  4584 net.cpp:434] conv8_2_mbox_priorbox <- data_data_0_split_4
I0825 11:37:49.454708  4584 net.cpp:408] conv8_2_mbox_priorbox -> conv8_2_mbox_priorbox
I0825 11:37:49.454736  4584 net.cpp:150] Setting up conv8_2_mbox_priorbox
I0825 11:37:49.454742  4584 net.cpp:157] Top shape: 1 2 216 (432)
I0825 11:37:49.454747  4584 net.cpp:165] Memory required for data: 1287239968
I0825 11:37:49.454751  4584 layer_factory.hpp:77] Creating layer conv9_2_mbox_loc
I0825 11:37:49.454761  4584 net.cpp:100] Creating Layer conv9_2_mbox_loc
I0825 11:37:49.454766  4584 net.cpp:434] conv9_2_mbox_loc <- conv9_2_conv9_2_relu_0_split_1
I0825 11:37:49.454772  4584 net.cpp:408] conv9_2_mbox_loc -> conv9_2_mbox_loc
I0825 11:37:49.457417  4584 net.cpp:150] Setting up conv9_2_mbox_loc
I0825 11:37:49.457429  4584 net.cpp:157] Top shape: 8 24 2 2 (768)
I0825 11:37:49.457432  4584 net.cpp:165] Memory required for data: 1287243040
I0825 11:37:49.457439  4584 layer_factory.hpp:77] Creating layer conv9_2_mbox_loc_perm
I0825 11:37:49.457445  4584 net.cpp:100] Creating Layer conv9_2_mbox_loc_perm
I0825 11:37:49.457449  4584 net.cpp:434] conv9_2_mbox_loc_perm <- conv9_2_mbox_loc
I0825 11:37:49.457455  4584 net.cpp:408] conv9_2_mbox_loc_perm -> conv9_2_mbox_loc_perm
I0825 11:37:49.457562  4584 net.cpp:150] Setting up conv9_2_mbox_loc_perm
I0825 11:37:49.457569  4584 net.cpp:157] Top shape: 8 2 2 24 (768)
I0825 11:37:49.457572  4584 net.cpp:165] Memory required for data: 1287246112
I0825 11:37:49.457576  4584 layer_factory.hpp:77] Creating layer conv9_2_mbox_loc_flat
I0825 11:37:49.457583  4584 net.cpp:100] Creating Layer conv9_2_mbox_loc_flat
I0825 11:37:49.457588  4584 net.cpp:434] conv9_2_mbox_loc_flat <- conv9_2_mbox_loc_perm
I0825 11:37:49.457594  4584 net.cpp:408] conv9_2_mbox_loc_flat -> conv9_2_mbox_loc_flat
I0825 11:37:49.457620  4584 net.cpp:150] Setting up conv9_2_mbox_loc_flat
I0825 11:37:49.457626  4584 net.cpp:157] Top shape: 8 96 (768)
I0825 11:37:49.457629  4584 net.cpp:165] Memory required for data: 1287249184
I0825 11:37:49.457633  4584 layer_factory.hpp:77] Creating layer conv9_2_mbox_conf
I0825 11:37:49.457644  4584 net.cpp:100] Creating Layer conv9_2_mbox_conf
I0825 11:37:49.457649  4584 net.cpp:434] conv9_2_mbox_conf <- conv9_2_conv9_2_relu_0_split_2
I0825 11:37:49.457655  4584 net.cpp:408] conv9_2_mbox_conf -> conv9_2_mbox_conf
I0825 11:37:49.459785  4584 net.cpp:150] Setting up conv9_2_mbox_conf
I0825 11:37:49.459798  4584 net.cpp:157] Top shape: 8 24 2 2 (768)
I0825 11:37:49.459801  4584 net.cpp:165] Memory required for data: 1287252256
I0825 11:37:49.459807  4584 layer_factory.hpp:77] Creating layer conv9_2_mbox_conf_perm
I0825 11:37:49.459816  4584 net.cpp:100] Creating Layer conv9_2_mbox_conf_perm
I0825 11:37:49.459821  4584 net.cpp:434] conv9_2_mbox_conf_perm <- conv9_2_mbox_conf
I0825 11:37:49.459830  4584 net.cpp:408] conv9_2_mbox_conf_perm -> conv9_2_mbox_conf_perm
I0825 11:37:49.459933  4584 net.cpp:150] Setting up conv9_2_mbox_conf_perm
I0825 11:37:49.459941  4584 net.cpp:157] Top shape: 8 2 2 24 (768)
I0825 11:37:49.459945  4584 net.cpp:165] Memory required for data: 1287255328
I0825 11:37:49.459949  4584 layer_factory.hpp:77] Creating layer conv9_2_mbox_conf_flat
I0825 11:37:49.459954  4584 net.cpp:100] Creating Layer conv9_2_mbox_conf_flat
I0825 11:37:49.459959  4584 net.cpp:434] conv9_2_mbox_conf_flat <- conv9_2_mbox_conf_perm
I0825 11:37:49.459976  4584 net.cpp:408] conv9_2_mbox_conf_flat -> conv9_2_mbox_conf_flat
I0825 11:37:49.460006  4584 net.cpp:150] Setting up conv9_2_mbox_conf_flat
I0825 11:37:49.460013  4584 net.cpp:157] Top shape: 8 96 (768)
I0825 11:37:49.460016  4584 net.cpp:165] Memory required for data: 1287258400
I0825 11:37:49.460021  4584 layer_factory.hpp:77] Creating layer conv9_2_mbox_priorbox
I0825 11:37:49.460027  4584 net.cpp:100] Creating Layer conv9_2_mbox_priorbox
I0825 11:37:49.460031  4584 net.cpp:434] conv9_2_mbox_priorbox <- conv9_2_conv9_2_relu_0_split_3
I0825 11:37:49.460036  4584 net.cpp:434] conv9_2_mbox_priorbox <- data_data_0_split_5
I0825 11:37:49.460042  4584 net.cpp:408] conv9_2_mbox_priorbox -> conv9_2_mbox_priorbox
I0825 11:37:49.460069  4584 net.cpp:150] Setting up conv9_2_mbox_priorbox
I0825 11:37:49.460077  4584 net.cpp:157] Top shape: 1 2 96 (192)
I0825 11:37:49.460079  4584 net.cpp:165] Memory required for data: 1287259168
I0825 11:37:49.460083  4584 layer_factory.hpp:77] Creating layer conv10_2_mbox_loc
I0825 11:37:49.460093  4584 net.cpp:100] Creating Layer conv10_2_mbox_loc
I0825 11:37:49.460098  4584 net.cpp:434] conv10_2_mbox_loc <- conv10_2_conv10_2_relu_0_split_0
I0825 11:37:49.460104  4584 net.cpp:408] conv10_2_mbox_loc -> conv10_2_mbox_loc
I0825 11:37:49.462679  4584 net.cpp:150] Setting up conv10_2_mbox_loc
I0825 11:37:49.462692  4584 net.cpp:157] Top shape: 8 24 1 1 (192)
I0825 11:37:49.462695  4584 net.cpp:165] Memory required for data: 1287259936
I0825 11:37:49.462702  4584 layer_factory.hpp:77] Creating layer conv10_2_mbox_loc_perm
I0825 11:37:49.462710  4584 net.cpp:100] Creating Layer conv10_2_mbox_loc_perm
I0825 11:37:49.462715  4584 net.cpp:434] conv10_2_mbox_loc_perm <- conv10_2_mbox_loc
I0825 11:37:49.462721  4584 net.cpp:408] conv10_2_mbox_loc_perm -> conv10_2_mbox_loc_perm
I0825 11:37:49.462828  4584 net.cpp:150] Setting up conv10_2_mbox_loc_perm
I0825 11:37:49.462836  4584 net.cpp:157] Top shape: 8 1 1 24 (192)
I0825 11:37:49.462839  4584 net.cpp:165] Memory required for data: 1287260704
I0825 11:37:49.462843  4584 layer_factory.hpp:77] Creating layer conv10_2_mbox_loc_flat
I0825 11:37:49.462851  4584 net.cpp:100] Creating Layer conv10_2_mbox_loc_flat
I0825 11:37:49.462854  4584 net.cpp:434] conv10_2_mbox_loc_flat <- conv10_2_mbox_loc_perm
I0825 11:37:49.462859  4584 net.cpp:408] conv10_2_mbox_loc_flat -> conv10_2_mbox_loc_flat
I0825 11:37:49.462888  4584 net.cpp:150] Setting up conv10_2_mbox_loc_flat
I0825 11:37:49.462893  4584 net.cpp:157] Top shape: 8 24 (192)
I0825 11:37:49.462896  4584 net.cpp:165] Memory required for data: 1287261472
I0825 11:37:49.462899  4584 layer_factory.hpp:77] Creating layer conv10_2_mbox_conf
I0825 11:37:49.462909  4584 net.cpp:100] Creating Layer conv10_2_mbox_conf
I0825 11:37:49.462913  4584 net.cpp:434] conv10_2_mbox_conf <- conv10_2_conv10_2_relu_0_split_1
I0825 11:37:49.462921  4584 net.cpp:408] conv10_2_mbox_conf -> conv10_2_mbox_conf
I0825 11:37:49.465929  4584 net.cpp:150] Setting up conv10_2_mbox_conf
I0825 11:37:49.465942  4584 net.cpp:157] Top shape: 8 24 1 1 (192)
I0825 11:37:49.465945  4584 net.cpp:165] Memory required for data: 1287262240
I0825 11:37:49.465952  4584 layer_factory.hpp:77] Creating layer conv10_2_mbox_conf_perm
I0825 11:37:49.465960  4584 net.cpp:100] Creating Layer conv10_2_mbox_conf_perm
I0825 11:37:49.465965  4584 net.cpp:434] conv10_2_mbox_conf_perm <- conv10_2_mbox_conf
I0825 11:37:49.465970  4584 net.cpp:408] conv10_2_mbox_conf_perm -> conv10_2_mbox_conf_perm
I0825 11:37:49.466075  4584 net.cpp:150] Setting up conv10_2_mbox_conf_perm
I0825 11:37:49.466083  4584 net.cpp:157] Top shape: 8 1 1 24 (192)
I0825 11:37:49.466085  4584 net.cpp:165] Memory required for data: 1287263008
I0825 11:37:49.466089  4584 layer_factory.hpp:77] Creating layer conv10_2_mbox_conf_flat
I0825 11:37:49.466096  4584 net.cpp:100] Creating Layer conv10_2_mbox_conf_flat
I0825 11:37:49.466100  4584 net.cpp:434] conv10_2_mbox_conf_flat <- conv10_2_mbox_conf_perm
I0825 11:37:49.466106  4584 net.cpp:408] conv10_2_mbox_conf_flat -> conv10_2_mbox_conf_flat
I0825 11:37:49.466145  4584 net.cpp:150] Setting up conv10_2_mbox_conf_flat
I0825 11:37:49.466152  4584 net.cpp:157] Top shape: 8 24 (192)
I0825 11:37:49.466156  4584 net.cpp:165] Memory required for data: 1287263776
I0825 11:37:49.466158  4584 layer_factory.hpp:77] Creating layer conv10_2_mbox_priorbox
I0825 11:37:49.466167  4584 net.cpp:100] Creating Layer conv10_2_mbox_priorbox
I0825 11:37:49.466171  4584 net.cpp:434] conv10_2_mbox_priorbox <- conv10_2_conv10_2_relu_0_split_2
I0825 11:37:49.466177  4584 net.cpp:434] conv10_2_mbox_priorbox <- data_data_0_split_6
I0825 11:37:49.466183  4584 net.cpp:408] conv10_2_mbox_priorbox -> conv10_2_mbox_priorbox
I0825 11:37:49.466210  4584 net.cpp:150] Setting up conv10_2_mbox_priorbox
I0825 11:37:49.466217  4584 net.cpp:157] Top shape: 1 2 24 (48)
I0825 11:37:49.466220  4584 net.cpp:165] Memory required for data: 1287263968
I0825 11:37:49.466223  4584 layer_factory.hpp:77] Creating layer mbox_loc
I0825 11:37:49.466233  4584 net.cpp:100] Creating Layer mbox_loc
I0825 11:37:49.466238  4584 net.cpp:434] mbox_loc <- conv5_5/sep_mbox_loc_flat
I0825 11:37:49.466243  4584 net.cpp:434] mbox_loc <- conv6/sep_mbox_loc_flat
I0825 11:37:49.466248  4584 net.cpp:434] mbox_loc <- conv7_2_mbox_loc_flat
I0825 11:37:49.466251  4584 net.cpp:434] mbox_loc <- conv8_2_mbox_loc_flat
I0825 11:37:49.466255  4584 net.cpp:434] mbox_loc <- conv9_2_mbox_loc_flat
I0825 11:37:49.466259  4584 net.cpp:434] mbox_loc <- conv10_2_mbox_loc_flat
I0825 11:37:49.466265  4584 net.cpp:408] mbox_loc -> mbox_loc
I0825 11:37:49.466292  4584 net.cpp:150] Setting up mbox_loc
I0825 11:37:49.466297  4584 net.cpp:157] Top shape: 8 7668 (61344)
I0825 11:37:49.466301  4584 net.cpp:165] Memory required for data: 1287509344
I0825 11:37:49.466305  4584 layer_factory.hpp:77] Creating layer mbox_conf
I0825 11:37:49.466311  4584 net.cpp:100] Creating Layer mbox_conf
I0825 11:37:49.466315  4584 net.cpp:434] mbox_conf <- conv5_5/sep_mbox_conf_flat
I0825 11:37:49.466320  4584 net.cpp:434] mbox_conf <- conv6/sep_mbox_conf_flat
I0825 11:37:49.466325  4584 net.cpp:434] mbox_conf <- conv7_2_mbox_conf_flat
I0825 11:37:49.466328  4584 net.cpp:434] mbox_conf <- conv8_2_mbox_conf_flat
I0825 11:37:49.466332  4584 net.cpp:434] mbox_conf <- conv9_2_mbox_conf_flat
I0825 11:37:49.466336  4584 net.cpp:434] mbox_conf <- conv10_2_mbox_conf_flat
I0825 11:37:49.466341  4584 net.cpp:408] mbox_conf -> mbox_conf
I0825 11:37:49.466365  4584 net.cpp:150] Setting up mbox_conf
I0825 11:37:49.466372  4584 net.cpp:157] Top shape: 8 7668 (61344)
I0825 11:37:49.466374  4584 net.cpp:165] Memory required for data: 1287754720
I0825 11:37:49.466378  4584 layer_factory.hpp:77] Creating layer mbox_priorbox
I0825 11:37:49.466383  4584 net.cpp:100] Creating Layer mbox_priorbox
I0825 11:37:49.466387  4584 net.cpp:434] mbox_priorbox <- conv5_5/sep_mbox_priorbox
I0825 11:37:49.466392  4584 net.cpp:434] mbox_priorbox <- conv6/sep_mbox_priorbox
I0825 11:37:49.466397  4584 net.cpp:434] mbox_priorbox <- conv7_2_mbox_priorbox
I0825 11:37:49.466400  4584 net.cpp:434] mbox_priorbox <- conv8_2_mbox_priorbox
I0825 11:37:49.466404  4584 net.cpp:434] mbox_priorbox <- conv9_2_mbox_priorbox
I0825 11:37:49.466408  4584 net.cpp:434] mbox_priorbox <- conv10_2_mbox_priorbox
I0825 11:37:49.466414  4584 net.cpp:408] mbox_priorbox -> mbox_priorbox
I0825 11:37:49.466439  4584 net.cpp:150] Setting up mbox_priorbox
I0825 11:37:49.466444  4584 net.cpp:157] Top shape: 1 2 7668 (15336)
I0825 11:37:49.466449  4584 net.cpp:165] Memory required for data: 1287816064
I0825 11:37:49.466451  4584 layer_factory.hpp:77] Creating layer mbox_conf_reshape
I0825 11:37:49.466459  4584 net.cpp:100] Creating Layer mbox_conf_reshape
I0825 11:37:49.466464  4584 net.cpp:434] mbox_conf_reshape <- mbox_conf
I0825 11:37:49.466471  4584 net.cpp:408] mbox_conf_reshape -> mbox_conf_reshape
I0825 11:37:49.466502  4584 net.cpp:150] Setting up mbox_conf_reshape
I0825 11:37:49.466511  4584 net.cpp:157] Top shape: 8 1917 4 (61344)
I0825 11:37:49.466514  4584 net.cpp:165] Memory required for data: 1288061440
I0825 11:37:49.466526  4584 layer_factory.hpp:77] Creating layer mbox_conf_softmax
I0825 11:37:49.466532  4584 net.cpp:100] Creating Layer mbox_conf_softmax
I0825 11:37:49.466536  4584 net.cpp:434] mbox_conf_softmax <- mbox_conf_reshape
I0825 11:37:49.466542  4584 net.cpp:408] mbox_conf_softmax -> mbox_conf_softmax
I0825 11:37:49.467286  4584 net.cpp:150] Setting up mbox_conf_softmax
I0825 11:37:49.467298  4584 net.cpp:157] Top shape: 8 1917 4 (61344)
I0825 11:37:49.467303  4584 net.cpp:165] Memory required for data: 1288306816
I0825 11:37:49.467306  4584 layer_factory.hpp:77] Creating layer mbox_conf_flatten
I0825 11:37:49.467314  4584 net.cpp:100] Creating Layer mbox_conf_flatten
I0825 11:37:49.467319  4584 net.cpp:434] mbox_conf_flatten <- mbox_conf_softmax
I0825 11:37:49.467324  4584 net.cpp:408] mbox_conf_flatten -> mbox_conf_flatten
I0825 11:37:49.467355  4584 net.cpp:150] Setting up mbox_conf_flatten
I0825 11:37:49.467360  4584 net.cpp:157] Top shape: 8 7668 (61344)
I0825 11:37:49.467365  4584 net.cpp:165] Memory required for data: 1288552192
I0825 11:37:49.467368  4584 layer_factory.hpp:77] Creating layer detection_out
I0825 11:37:49.467391  4584 net.cpp:100] Creating Layer detection_out
I0825 11:37:49.467396  4584 net.cpp:434] detection_out <- mbox_loc
I0825 11:37:49.467401  4584 net.cpp:434] detection_out <- mbox_conf_flatten
I0825 11:37:49.467406  4584 net.cpp:434] detection_out <- mbox_priorbox
I0825 11:37:49.467412  4584 net.cpp:408] detection_out -> detection_out
I0825 11:37:49.468399  4584 net.cpp:150] Setting up detection_out
I0825 11:37:49.468413  4584 net.cpp:157] Top shape: 1 1 1 7 (7)
I0825 11:37:49.468420  4584 net.cpp:165] Memory required for data: 1288552220
I0825 11:37:49.468425  4584 layer_factory.hpp:77] Creating layer detection_eval
I0825 11:37:49.468436  4584 net.cpp:100] Creating Layer detection_eval
I0825 11:37:49.468439  4584 net.cpp:434] detection_eval <- detection_out
I0825 11:37:49.468446  4584 net.cpp:434] detection_eval <- label
I0825 11:37:49.468451  4584 net.cpp:408] detection_eval -> detection_eval
I0825 11:37:49.468871  4584 net.cpp:150] Setting up detection_eval
I0825 11:37:49.468879  4584 net.cpp:157] Top shape: 1 1 4 5 (20)
I0825 11:37:49.468883  4584 net.cpp:165] Memory required for data: 1288552300
I0825 11:37:49.468888  4584 net.cpp:228] detection_eval does not need backward computation.
I0825 11:37:49.468893  4584 net.cpp:228] detection_out does not need backward computation.
I0825 11:37:49.468896  4584 net.cpp:228] mbox_conf_flatten does not need backward computation.
I0825 11:37:49.468901  4584 net.cpp:228] mbox_conf_softmax does not need backward computation.
…
