…
      sampler {
        min_scale: 0.3
        max_scale: 1
        min_aspect_ratio: 0.5
        max_aspect_ratio: 2
      }
      sample_constraint {
        min_jaccard_overlap: 0.9
      }
      max_sample: 1
      max_trials: 50
    }
    batch_sampler {
      sampler {
        min_scale: 0.3
        max_scale: 1
        min_aspect_ratio: 0.5
        max_aspect_ratio: 2
      }
      sample_constraint {
        max_jaccard_overlap: 1
      }
      max_sample: 1
      max_trials: 50
    }
    label_map_file: "data/BodyFaceRegions/labelmap_voc.prototxt"
  }
}
layer {
  name: "conv1"
  type: "Convolution"
  bottom: "data"
  top: "conv1"
  param {
    lr_mult: 1
    decay_mult: 1
  }
  convolution_param {
    num_output: 32
    bias_term: false
    pad: 1
    kernel_size: 3
    group: 1
    stride: 2
    weight_filler {
      type: "gaussian"
      std: 0.01
    }
    engine: DEFAULT
  }
}
layer {
  name: "conv1/bn"
  type: "BatchNorm"
  bottom: "conv1"
  top: "conv1"
  batch_norm_param {
    moving_average_fraction: 0.999
    eps: 0.001
  }
}
layer {
  name: "conv1/scale"
  type: "Scale"
  bottom: "conv1"
  top: "conv1"
  param {
    lr_mult: 1
    decay_mult: 0
  }
  param {
    lr_mult: 1
    decay_mult: 0
  }
  scale_param {
    filler {
      type: "constant"
      value: 1
    }
    bias_term: true
    bias_filler {
      type: "constant"
      value: 0
    }
  }
}
layer {
  name: "conv1_relu"
  type: "ReLU"
  bottom: "conv1"
  top: "conv1"
}
layer {
  name: "conv2_1/dw"
  type: "Convolution"
  bottom: "conv1"
  top: "conv2_1/dw"
  param {
    lr_mult: 1
    decay_mult: 1
  }
  convolution_param {
    num_output: 32
    bias_term: false
    pad: 1
    kernel_size: 3
    group: 32
    stride: 1
    weight_filler {
      type: "gaussian"
      std: 0.01
    }
    engine: CAFFE
  }
}
layer {
  name: "conv2_1/dw/bn"
  type: "BatchNorm"
  bottom: "conv2_1/dw"
  top: "conv2_1/dw"
  batch_norm_param {
    moving_average_fraction: 0.999
    eps: 0.001
  }
}
layer {
  name: "conv2_1/dw/scale"
  type: "Scale"
  bottom: "conv2_1/dw"
  top: "conv2_1/dw"
  param {
    lr_mult: 1
    decay_mult: 0
  }
  param {
    lr_mult: 1
    decay_mult: 0
  }
  scale_param {
    filler {
      type: "constant"
      value: 1
    }
    bias_term: true
    bias_filler {
      type: "constant"
      value: 0
    }
  }
}
layer {
  name: "conv2_1/dw_relu"
  type: "ReLU"
  bottom: "conv2_1/dw"
  top: "conv2_1/dw"
}
layer {
  name: "conv2_1/sep"
  type: "Convolution"
  bottom: "conv2_1/dw"
  top: "conv2_1/sep"
  param {
    lr_mult: 1
    decay_mult: 1
  }
  convolution_param {
    num_output: 64
    bias_term: false
    pad: 0
    kernel_size: 1
    group: 1
    stride: 1
    weight_filler {
      type: "gaussian"
      std: 0.01
    }
    engine: DEFAULT
  }
}
layer {
  name: "conv2_1/sep/bn"
  type: "BatchNorm"
  bottom: "conv2_1/sep"
  top: "conv2_1/sep"
  batch_norm_param {
    moving_average_fraction: 0.999
    eps: 0.001
  }
}
layer {
  name: "conv2_1/sep/scale"
  type: "Scale"
  bottom: "conv2_1/sep"
  top: "conv2_1/sep"
  param {
    lr_mult: 1
    decay_mult: 0
  }
  param {
    lr_mult: 1
    decay_mult: 0
  }
  scale_param {
    filler {
      type: "constant"
      value: 1
    }
    bias_term: true
    bias_filler {
      type: "constant"
      value: 0
    }
  }
}
layer {
  name: "conv2_1/sep_relu"
  type: "ReLU"
  bottom: "conv2_1/sep"
  top: "conv2_1/sep"
}
layer {
  name: "conv2_2/dw"
  type: "Convolution"
  bottom: "conv2_1/sep"
  top: "conv2_2/dw"
  param {
    lr_mult: 1
    decay_mult: 1
  }
  convolution_param {
    num_output: 64
    bias_term: false
    pad: 1
    kernel_size: 3
    group: 64
    stride: 2
    weight_filler {
      type: "gaussian"
      std: 0.01
    }
    engine: CAFFE
  }
}
layer {
  name: "conv2_2/dw/bn"
  type: "BatchNorm"
  bottom: "conv2_2/dw"
  top: "conv2_2/dw"
  batch_norm_param {
    moving_average_fraction: 0.999
    eps: 0.001
  }
}
layer {
  name: "conv2_2/dw/scale"
  type: "Scale"
  bottom: "conv2_2/dw"
  top: "conv2_2/dw"
  param {
    lr_mult: 1
    decay_mult: 0
  }
  param {
    lr_mult: 1
    decay_mult: 0
  }
  scale_param {
    filler {
      type: "constant"
      value: 1
    }
    bias_term: true
    bias_filler {
      type: "constant"
      value: 0
    }
  }
}
layer {
  name: "conv2_2/dw_relu"
  type: "ReLU"
  bottom: "conv2_2/dw"
  top: "conv2_2/dw"
}
layer {
  name: "conv2_2/sep"
  type: "Convolution"
  bottom: "conv2_2/dw"
  top: "conv2_2/sep"
  param {
    lr_mult: 1
    decay_mult: 1
  }
  convolution_param {
    num_output: 128
    bias_term: false
    pad: 0
    kernel_size: 1
    group: 1
    stride: 1
    weight_filler {
      type: "gaussian"
      std: 0.01
    }
    engine: DEFAULT
  }
}
layer {
  name: "conv2_2/sep/bn"
  type: "BatchNorm"
  bottom: "conv2_2/sep"
  top: "conv2_2/sep"
  batch_norm_param {
    moving_average_fraction: 0.999
    eps: 0.001
  }
}
layer {
  name: "conv2_2/sep/scale"
  type: "Scale"
  bottom: "conv2_2/sep"
  top: "conv2_2/sep"
  param {
    lr_mult: 1
    decay_mult: 0
  }
  param {
    lr_mult: 1
    decay_mult: 0
  }
  scale_param {
    filler {
      type: "constant"
      value: 1
    }
    bias_term: true
    bias_filler {
      type: "constant"
      value: 0
    }
  }
}
layer {
  name: "conv2_2/sep_relu"
  type: "ReLU"
  bottom: "conv2_2/sep"
  top: "conv2_2/sep"
}
layer {
  name: "conv3_1/dw"
  type: "Convolution"
  bottom: "conv2_2/sep"
  top: "conv3_1/dw"
  param {
    lr_mult: 1
    decay_mult: 1
  }
  convolution_param {
    num_output: 128
    bias_term: false
    pad: 1
    kernel_size: 3
    group: 128
    stride: 1
    weight_filler {
      type: "gaussian"
      std: 0.01
    }
    engine: CAFFE
  }
}
layer {
  name: "conv3_1/dw/bn"
  type: "BatchNorm"
  bottom: "conv3_1/dw"
  top: "conv3_1/dw"
  batch_norm_param {
    moving_average_fraction: 0.999
    eps: 0.001
  }
}
layer {
  name: "conv3_1/dw/scale"
  type: "Scale"
  bottom: "conv3_1/dw"
  top: "conv3_1/dw"
  param {
    lr_mult: 1
    decay_mult: 0
  }
  param {
    lr_mult: 1
    decay_mult: 0
  }
  scale_param {
    filler {
      type: "constant"
      value: 1
    }
    bias_term: true
    bias_filler {
      type: "constant"
      value: 0
    }
  }
}
layer {
  name: "conv3_1/dw_relu"
  type: "ReLU"
  bottom: "conv3_1/dw"
  top: "conv3_1/dw"
}
layer {
  name: "conv3_1/sep"
  type: "Convolution"
  bottom: "conv3_1/dw"
  top: "conv3_1/sep"
  param {
    lr_mult: 1
    decay_mult: 1
  }
  convolution_param {
    num_output: 128
    bias_term: false
    pad: 0
    kernel_size: 1
    group: 1
    stride: 1
    weight_filler {
      type: "gaussian"
      std: 0.01
    }
    engine: DEFAULT
  }
}
layer {
  name: "conv3_1/sep/bn"
  type: "BatchNorm"
  bottom: "conv3_1/sep"
  top: "conv3_1/sep"
  batch_norm_param {
    moving_average_fraction: 0.999
    eps: 0.001
  }
}
layer {
  name: "conv3_1/sep/scale"
  type: "Scale"
  bottom: "conv3_1/sep"
  top: "conv3_1/sep"
  param {
    lr_mult: 1
    decay_mult: 0
  }
  param {
    lr_mult: 1
    decay_mult: 0
  }
  scale_param {
    filler {
      type: "constant"
      value: 1
    }
    bias_term: true
    bias_filler {
      type: "constant"
      value: 0
    }
  }
}
layer {
  name: "conv3_1/sep_relu"
  type: "ReLU"
  bottom: "conv3_1/sep"
  top: "conv3_1/sep"
}
layer {
  name: "conv3_2/dw"
  type: "Convolution"
  bottom: "conv3_1/sep"
  top: "conv3_2/dw"
  param {
    lr_mult: 1
    decay_mult: 1
  }
  convolution_param {
    num_output: 128
    bias_term: false
    pad: 1
    kernel_size: 3
    group: 128
    stride: 2
    weight_filler {
      type: "gaussian"
      std: 0.01
    }
    engine: CAFFE
  }
}
layer {
  name: "conv3_2/dw/bn"
  type: "BatchNorm"
  bottom: "conv3_2/dw"
  top: "conv3_2/dw"
  batch_norm_param {
    moving_average_fraction: 0.999
    eps: 0.001
  }
}
layer {
  name: "conv3_2/dw/scale"
  type: "Scale"
  bottom: "conv3_2/dw"
  top: "conv3_2/dw"
  param {
    lr_mult: 1
    decay_mult: 0
  }
  param {
    lr_mult: 1
    decay_mult: 0
  }
  scale_param {
    filler {
      type: "constant"
      value: 1
    }
    bias_term: true
    bias_filler {
      type: "constant"
      value: 0
    }
  }
}
layer {
  name: "conv3_2/dw_relu"
  type: "ReLU"
  bottom: "conv3_2/dw"
  top: "conv3_2/dw"
}
layer {
  name: "conv3_2/sep"
  type: "Convolution"
  bottom: "conv3_2/dw"
  top: "conv3_2/sep"
  param {
    lr_mult: 1
    decay_mult: 1
  }
  convolution_param {
    num_output: 256
    bias_term: false
    pad: 0
    kernel_size: 1
    group: 1
    stride: 1
    weight_filler {
      type: "gaussian"
      std: 0.01
    }
    engine: DEFAULT
  }
}
layer {
  name: "conv3_2/sep/bn"
  type: "BatchNorm"
  bottom: "conv3_2/sep"
  top: "conv3_2/sep"
  batch_norm_param {
    moving_average_fraction: 0.999
    eps: 0.001
  }
}
layer {
  name: "conv3_2/sep/scale"
  type: "Scale"
  bottom: "conv3_2/sep"
  top: "conv3_2/sep"
  param {
    lr_mult: 1
    decay_mult: 0
  }
  param {
    lr_mult: 1
    decay_mult: 0
  }
  scale_param {
    filler {
      type: "constant"
      value: 1
    }
    bias_term: true
    bias_filler {
      type: "constant"
      value: 0
    }
  }
}
layer {
  name: "conv3_2/sep_relu"
  type: "ReLU"
  bottom: "conv3_2/sep"
  top: "conv3_2/sep"
}
layer {
  name: "conv4_1/dw"
  type: "Convolution"
  bottom: "conv3_2/sep"
  top: "conv4_1/dw"
  param {
    lr_mult: 1
    decay_mult: 1
  }
  convolution_param {
    num_output: 256
    bias_term: false
    pad: 1
    kernel_size: 3
    group: 256
    stride: 1
    weight_filler {
      type: "gaussian"
      std: 0.01
    }
    engine: CAFFE
  }
}
layer {
  name: "conv4_1/dw/bn"
  type: "BatchNorm"
  bottom: "conv4_1/dw"
  top: "conv4_1/dw"
  batch_norm_param {
    moving_average_fraction: 0.999
    eps: 0.001
  }
}
layer {
  name: "conv4_1/dw/scale"
  type: "Scale"
  bottom: "conv4_1/dw"
  top: "conv4_1/dw"
  param {
    lr_mult: 1
    decay_mult: 0
  }
  param {
    lr_mult: 1
    decay_mult: 0
  }
  scale_param {
    filler {
      type: "constant"
      value: 1
    }
    bias_term: true
    bias_filler {
      type: "constant"
      value: 0
    }
  }
}
layer {
  name: "conv4_1/dw_relu"
  type: "ReLU"
  bottom: "conv4_1/dw"
  top: "conv4_1/dw"
}
layer {
  name: "conv4_1/sep"
  type: "Convolution"
  bottom: "conv4_1/dw"
  top: "conv4_1/sep"
  param {
    lr_mult: 1
    decay_mult: 1
  }
  convolution_param {
    num_output: 256
    bias_term: false
    pad: 0
    kernel_size: 1
    group: 1
    stride: 1
    weight_filler {
      type: "gaussian"
      std: 0.01
    }
    engine: DEFAULT
  }
}
layer {
  name: "conv4_1/sep/bn"
  type: "BatchNorm"
  bottom: "conv4_1/sep"
  top: "conv4_1/sep"
  batch_norm_param {
    moving_average_fraction: 0.999
    eps: 0.001
  }
}
layer {
  name: "conv4_1/sep/scale"
  type: "Scale"
  bottom: "conv4_1/sep"
  top: "conv4_1/sep"
  param {
    lr_mult: 1
    decay_mult: 0
  }
  param {
    lr_mult: 1
    decay_mult: 0
  }
  scale_param {
    filler {
      type: "constant"
      value: 1
    }
    bias_term: true
    bias_filler {
      type: "constant"
      value: 0
    }
  }
}
layer {
  name: "conv4_1/sep_relu"
  type: "ReLU"
  bottom: "conv4_1/sep"
  top: "conv4_1/sep"
}
layer {
  name: "conv4_2/dw"
  type: "Convolution"
  bottom: "conv4_1/sep"
  top: "conv4_2/dw"
  param {
    lr_mult: 1
    decay_mult: 1
  }
  convolution_param {
    num_output: 256
    bias_term: false
    pad: 1
    kernel_size: 3
    group: 256
    stride: 2
    weight_filler {
      type: "gaussian"
      std: 0.01
    }
    engine: CAFFE
  }
}
layer {
  name: "conv4_2/dw/bn"
  type: "BatchNorm"
  bottom: "conv4_2/dw"
  top: "conv4_2/dw"
  batch_norm_param {
    moving_average_fraction: 0.999
    eps: 0.001
  }
}
layer {
  name: "conv4_2/dw/scale"
  type: "Scale"
  bottom: "conv4_2/dw"
  top: "conv4_2/dw"
  param {
    lr_mult: 1
    decay_mult: 0
  }
  param {
    lr_mult: 1
    decay_mult: 0
  }
  scale_param {
    filler {
      type: "constant"
      value: 1
    }
    bias_term: true
    bias_filler {
      type: "constant"
      value: 0
    }
  }
}
layer {
  name: "conv4_2/dw_relu"
  type: "ReLU"
  bottom: "conv4_2/dw"
  top: "conv4_2/dw"
}
layer {
  name: "conv4_2/sep"
  type: "Convolution"
  bottom: "conv4_2/dw"
  top: "conv4_2/sep"
  param {
    lr_mult: 1
    decay_mult: 1
  }
  convolution_param {
    num_output: 512
    bias_term: false
    pad: 0
    kernel_size: 1
    group: 1
    stride: 1
    weight_filler {
      type: "gaussian"
      std: 0.01
    }
    engine: DEFAULT
  }
}
layer {
  name: "conv4_2/sep/bn"
  type: "BatchNorm"
  bottom: "conv4_2/sep"
  top: "conv4_2/sep"
  batch_norm_param {
    moving_average_fraction: 0.999
    eps: 0.001
  }
}
layer {
  name: "conv4_2/sep/scale"
  type: "Scale"
  bottom: "conv4_2/sep"
  top: "conv4_2/sep"
  param {
    lr_mult: 1
    decay_mult: 0
  }
  param {
    lr_mult: 1
    decay_mult: 0
  }
  scale_param {
    filler {
      type: "constant"
      value: 1
    }
    bias_term: true
    bias_filler {
      type: "constant"
      value: 0
    }
  }
}
layer {
  name: "conv4_2/sep_relu"
  type: "ReLU"
  bottom: "conv4_2/sep"
  top: "conv4_2/sep"
}
layer {
  name: "conv5_1/dw"
  type: "Convolution"
  bottom: "conv4_2/sep"
  top: "conv5_1/dw"
  param {
    lr_mult: 1
    decay_mult: 1
  }
  convolution_param {
    num_output: 512
    bias_term: false
    pad: 1
    kernel_size: 3
    group: 512
    stride: 1
    weight_filler {
      type: "gaussian"
      std: 0.01
    }
    engine: CAFFE
  }
}
layer {
  name: "conv5_1/dw/bn"
  type: "BatchNorm"
  bottom: "conv5_1/dw"
  top: "conv5_1/dw"
  batch_norm_param {
    moving_average_fraction: 0.999
    eps: 0.001
  }
}
layer {
  name: "conv5_1/dw/scale"
  type: "Scale"
  bottom: "conv5_1/dw"
  top: "conv5_1/dw"
  param {
    lr_mult: 1
    decay_mult: 0
  }
  param {
    lr_mult: 1
    decay_mult: 0
  }
  scale_param {
    filler {
      type: "constant"
      value: 1
    }
    bias_term: true
    bias_filler {
      type: "constant"
      value: 0
    }
  }
}
layer {
  name: "conv5_1/dw_relu"
  type: "ReLU"
  bottom: "conv5_1/dw"
  top: "conv5_1/dw"
}
layer {
  name: "conv5_1/sep"
  type: "Convolution"
  bottom: "conv5_1/dw"
  top: "conv5_1/sep"
  param {
    lr_mult: 1
    decay_mult: 1
  }
  convolution_param {
    num_output: 512
    bias_term: false
    pad: 0
    kernel_size: 1
    group: 1
    stride: 1
    weight_filler {
      type: "gaussian"
      std: 0.01
    }
    engine: DEFAULT
  }
}
layer {
  name: "conv5_1/sep/bn"
  type: "BatchNorm"
  bottom: "conv5_1/sep"
  top: "conv5_1/sep"
  batch_norm_param {
    moving_average_fraction: 0.999
    eps: 0.001
  }
}
layer {
  name: "conv5_1/sep/scale"
  type: "Scale"
  bottom: "conv5_1/sep"
  top: "conv5_1/sep"
  param {
    lr_mult: 1
    decay_mult: 0
  }
  param {
    lr_mult: 1
    decay_mult: 0
  }
  scale_param {
    filler {
      type: "constant"
      value: 1
    }
    bias_term: true
    bias_filler {
      type: "constant"
      value: 0
    }
  }
}
layer {
  name: "conv5_1/sep_relu"
  type: "ReLU"
  bottom: "conv5_1/sep"
  top: "conv5_1/sep"
}
layer {
  name: "conv5_2/dw"
  type: "Convolution"
  bottom: "conv5_1/sep"
  top: "conv5_2/dw"
  param {
    lr_mult: 1
    decay_mult: 1
  }
  convolution_param {
    num_output: 512
    bias_term: false
    pad: 1
    kernel_size: 3
    group: 512
    stride: 1
    weight_filler {
      type: "gaussian"
      std: 0.01
    }
    engine: CAFFE
  }
}
layer {
  name: "conv5_2/dw/bn"
  type: "BatchNorm"
  bottom: "conv5_2/dw"
  top: "conv5_2/dw"
  batch_norm_param {
    moving_average_fraction: 0.999
    eps: 0.001
  }
}
layer {
  name: "conv5_2/dw/scale"
  type: "Scale"
  bottom: "conv5_2/dw"
  top: "conv5_2/dw"
  param {
    lr_mult: 1
    decay_mult: 0
  }
  param {
    lr_mult: 1
    decay_mult: 0
  }
  scale_param {
    filler {
      type: "constant"
      value: 1
    }
    bias_term: true
    bias_filler {
      type: "constant"
      value: 0
    }
  }
}
layer {
  name: "conv5_2/dw_relu"
  type: "ReLU"
  bottom: "conv5_2/dw"
  top: "conv5_2/dw"
}
layer {
  name: "conv5_2/sep"
  type: "Convolution"
  bottom: "conv5_2/dw"
  top: "conv5_2/sep"
  param {
    lr_mult: 1
    decay_mult: 1
  }
  convolution_param {
    num_output: 512
    bias_term: false
    pad: 0
    kernel_size: 1
    group: 1
    stride: 1
    weight_filler {
      type: "gaussian"
      std: 0.01
    }
    engine: DEFAULT
  }
}
layer {
  name: "conv5_2/sep/bn"
  type: "BatchNorm"
  bottom: "conv5_2/sep"
  top: "conv5_2/sep"
  batch_norm_param {
    moving_average_fraction: 0.999
    eps: 0.001
  }
}
layer {
  name: "conv5_2/sep/scale"
  type: "Scale"
  bottom: "conv5_2/sep"
  top: "conv5_2/sep"
  param {
    lr_mult: 1
    decay_mult: 0
  }
  param {
    lr_mult: 1
    decay_mult: 0
  }
  scale_param {
    filler {
      type: "constant"
      value: 1
    }
    bias_term: true
    bias_filler {
      type: "constant"
      value: 0
    }
  }
}
layer {
  name: "conv5_2/sep_relu"
  type: "ReLU"
  bottom: "conv5_2/sep"
  top: "conv5_2/sep"
}
layer {
  name: "conv5_3/dw"
  type: "Convolution"
  bottom: "conv5_2/sep"
  top: "conv5_3/dw"
  param {
    lr_mult: 1
    decay_mult: 1
  }
  convolution_param {
    num_output: 512
    bias_term: false
    pad: 1
    kernel_size: 3
    group: 512
    stride: 1
    weight_filler {
      type: "gaussian"
      std: 0.01
    }
    engine: CAFFE
  }
}
layer {
  name: "conv5_3/dw/bn"
  type: "BatchNorm"
  bottom: "conv5_3/dw"
  top: "conv5_3/dw"
  batch_norm_param {
    moving_average_fraction: 0.999
    eps: 0.001
  }
}
layer {
  name: "conv5_3/dw/scale"
  type: "Scale"
  bottom: "conv5_3/dw"
  top: "conv5_3/dw"
  param {
    lr_mult: 1
    decay_mult: 0
  }
  param {
    lr_mult: 1
    decay_mult: 0
  }
  scale_param {
    filler {
      type: "constant"
      value: 1
    }
    bias_term: true
    bias_filler {
      type: "constant"
      value: 0
    }
  }
}
layer {
  name: "conv5_3/dw_relu"
  type: "ReLU"
  bottom: "conv5_3/dw"
  top: "conv5_3/dw"
}
layer {
  name: "conv5_3/sep"
  type: "Convolution"
  bottom: "conv5_3/dw"
  top: "conv5_3/sep"
  param {
    lr_mult: 1
    decay_mult: 1
  }
  convolution_param {
    num_output: 512
    bias_term: false
    pad: 0
    kernel_size: 1
    group: 1
    stride: 1
    weight_filler {
      type: "gaussian"
      std: 0.01
    }
    engine: DEFAULT
  }
}
layer {
  name: "conv5_3/sep/bn"
  type: "BatchNorm"
  bottom: "conv5_3/sep"
  top: "conv5_3/sep"
  batch_norm_param {
    moving_average_fraction: 0.999
    eps: 0.001
  }
}
layer {
  name: "conv5_3/sep/scale"
  type: "Scale"
  bottom: "conv5_3/sep"
  top: "conv5_3/sep"
  param {
    lr_mult: 1
    decay_mult: 0
  }
  param {
    lr_mult: 1
    decay_mult: 0
  }
  scale_param {
    filler {
      type: "constant"
      value: 1
    }
    bias_term: true
    bias_filler {
      type: "constant"
      value: 0
    }
  }
}
layer {
  name: "conv5_3/sep_relu"
  type: "ReLU"
  bottom: "conv5_3/sep"
  top: "conv5_3/sep"
}
layer {
  name: "conv5_4/dw"
  type: "Convolution"
  bottom: "conv5_3/sep"
  top: "conv5_4/dw"
  param {
    lr_mult: 1
    decay_mult: 1
  }
  convolution_param {
    num_output: 512
    bias_term: false
    pad: 1
    kernel_size: 3
    group: 512
    stride: 1
    weight_filler {
      type: "gaussian"
      std: 0.01
    }
    engine: CAFFE
  }
}
layer {
  name: "conv5_4/dw/bn"
  type: "BatchNorm"
  bottom: "conv5_4/dw"
  top: "conv5_4/dw"
  batch_norm_param {
    moving_average_fraction: 0.999
    eps: 0.001
  }
}
layer {
  name: "conv5_4/dw/scale"
  type: "Scale"
  bottom: "conv5_4/dw"
  top: "conv5_4/dw"
  param {
    lr_mult: 1
    decay_mult: 0
  }
  param {
    lr_mult: 1
    decay_mult: 0
  }
  scale_param {
    filler {
      type: "constant"
      value: 1
    }
    bias_term: true
    bias_filler {
      type: "constant"
      value: 0
    }
  }
}
layer {
  name: "conv5_4/dw_relu"
  type: "ReLU"
  bottom: "conv5_4/dw"
  top: "conv5_4/dw"
}
layer {
  name: "conv5_4/sep"
  type: "Convolution"
  bottom: "conv5_4/dw"
  top: "conv5_4/sep"
  param {
    lr_mult: 1
    decay_mult: 1
  }
  convolution_param {
    num_output: 512
    bias_term: false
    pad: 0
    kernel_size: 1
    group: 1
    stride: 1
    weight_filler {
      type: "gaussian"
      std: 0.01
    }
    engine: DEFAULT
  }
}
layer {
  name: "conv5_4/sep/bn"
  type: "BatchNorm"
  bottom: "conv5_4/sep"
  top: "conv5_4/sep"
  batch_norm_param {
    moving_average_fraction: 0.999
    eps: 0.001
  }
}
layer {
  name: "conv5_4/sep/scale"
  type: "Scale"
  bottom: "conv5_4/sep"
  top: "conv5_4/sep"
  param {
    lr_mult: 1
    decay_mult: 0
  }
  param {
    lr_mult: 1
    decay_mult: 0
  }
  scale_param {
    filler {
      type: "constant"
      value: 1
    }
    bias_term: true
    bias_filler {
      type: "constant"
      value: 0
    }
  }
}
layer {
  name: "conv5_4/sep_relu"
  type: "ReLU"
  bottom: "conv5_4/sep"
  top: "conv5_4/sep"
}
layer {
  name: "conv5_5/dw"
  type: "Convolution"
  bottom: "conv5_4/sep"
  top: "conv5_5/dw"
  param {
    lr_mult: 1
    decay_mult: 1
  }
  convolution_param {
    num_output: 512
    bias_term: false
    pad: 1
    kernel_size: 3
    group: 512
    stride: 1
    weight_filler {
      type: "gaussian"
      std: 0.01
    }
    engine: CAFFE
  }
}
layer {
  name: "conv5_5/dw/bn"
  type: "BatchNorm"
  bottom: "conv5_5/dw"
  top: "conv5_5/dw"
  batch_norm_param {
    moving_average_fraction: 0.999
    eps: 0.001
  }
}
layer {
  name: "conv5_5/dw/scale"
  type: "Scale"
  bottom: "conv5_5/dw"
  top: "conv5_5/dw"
  param {
    lr_mult: 1
    decay_mult: 0
  }
  param {
    lr_mult: 1
    decay_mult: 0
  }
  scale_param {
    filler {
      type: "constant"
      value: 1
    }
    bias_term: true
    bias_filler {
      type: "constant"
      value: 0
    }
  }
}
layer {
  name: "conv5_5/dw_relu"
  type: "ReLU"
  bottom: "conv5_5/dw"
  top: "conv5_5/dw"
}
layer {
  name: "conv5_5/sep"
  type: "Convolution"
  bottom: "conv5_5/dw"
  top: "conv5_5/sep"
  param {
    lr_mult: 1
    decay_mult: 1
  }
  convolution_param {
    num_output: 512
    bias_term: false
    pad: 0
    kernel_size: 1
    group: 1
    stride: 1
    weight_filler {
      type: "gaussian"
      std: 0.01
    }
    engine: DEFAULT
  }
}
layer {
  name: "conv5_5/sep/bn"
  type: "BatchNorm"
  bottom: "conv5_5/sep"
  top: "conv5_5/sep"
  batch_norm_param {
    moving_average_fraction: 0.999
    eps: 0.001
  }
}
layer {
  name: "conv5_5/sep/scale"
  type: "Scale"
  bottom: "conv5_5/sep"
  top: "conv5_5/sep"
  param {
    lr_mult: 1
    decay_mult: 0
  }
  param {
    lr_mult: 1
    decay_mult: 0
  }
  scale_param {
    filler {
      type: "constant"
      value: 1
    }
    bias_term: true
    bias_filler {
      type: "constant"
      value: 0
    }
  }
}
layer {
  name: "conv5_5/sep_relu"
  type: "ReLU"
  bottom: "conv5_5/sep"
  top: "conv5_5/sep"
}
layer {
  name: "conv5_6/dw"
  type: "Convolution"
  bottom: "conv5_5/sep"
  top: "conv5_6/dw"
  param {
    lr_mult: 1
    decay_mult: 1
  }
  convolution_param {
    num_output: 512
    bias_term: false
    pad: 1
    kernel_size: 3
    group: 512
    stride: 2
    weight_filler {
      type: "gaussian"
      std: 0.01
    }
    engine: CAFFE
  }
}
layer {
  name: "conv5_6/dw/bn"
  type: "BatchNorm"
  bottom: "conv5_6/dw"
  top: "conv5_6/dw"
  batch_norm_param {
    moving_average_fraction: 0.999
    eps: 0.001
  }
}
layer {
  name: "conv5_6/dw/scale"
  type: "Scale"
  bottom: "conv5_6/dw"
  top: "conv5_6/dw"
  param {
    lr_mult: 1
    decay_mult: 0
  }
  param {
    lr_mult: 1
    decay_mult: 0
  }
  scale_param {
    filler {
      type: "constant"
      value: 1
    }
    bias_term: true
    bias_filler {
      type: "constant"
      value: 0
    }
  }
}
layer {
  name: "conv5_6/dw_relu"
  type: "ReLU"
  bottom: "conv5_6/dw"
  top: "conv5_6/dw"
}
layer {
  name: "conv5_6/sep"
  type: "Convolution"
  bottom: "conv5_6/dw"
  top: "conv5_6/sep"
  param {
    lr_mult: 1
    decay_mult: 1
  }
  convolution_param {
    num_output: 1024
    bias_term: false
    pad: 0
    kernel_size: 1
    group: 1
    stride: 1
    weight_filler {
      type: "gaussian"
      std: 0.01
    }
    engine: DEFAULT
  }
}
layer {
  name: "conv5_6/sep/bn"
  type: "BatchNorm"
  bottom: "conv5_6/sep"
  top: "conv5_6/sep"
  batch_norm_param {
    moving_average_fraction: 0.999
    eps: 0.001
  }
}
layer {
  name: "conv5_6/sep/scale"
  type: "Scale"
  bottom: "conv5_6/sep"
  top: "conv5_6/sep"
  param {
    lr_mult: 1
    decay_mult: 0
  }
  param {
    lr_mult: 1
    decay_mult: 0
  }
  scale_param {
    filler {
      type: "constant"
      value: 1
    }
    bias_term: true
    bias_filler {
      type: "constant"
      value: 0
    }
  }
}
layer {
  name: "conv5_6/sep_relu"
  type: "ReLU"
  bottom: "conv5_6/sep"
  top: "conv5_6/sep"
}
layer {
  name: "conv6/dw"
  type: "Convolution"
  bottom: "conv5_6/sep"
  top: "conv6/dw"
  param {
    lr_mult: 1
    decay_mult: 1
  }
  convolution_param {
    num_output: 1024
    bias_term: false
    pad: 1
    kernel_size: 3
    group: 1024
    stride: 1
    weight_filler {
      type: "gaussian"
      std: 0.01
    }
    engine: CAFFE
  }
}
layer {
  name: "conv6/dw/bn"
  type: "BatchNorm"
  bottom: "conv6/dw"
  top: "conv6/dw"
  batch_norm_param {
    moving_average_fraction: 0.999
    eps: 0.001
  }
}
layer {
  name: "conv6/dw/scale"
  type: "Scale"
  bottom: "conv6/dw"
  top: "conv6/dw"
  param {
    lr_mult: 1
    decay_mult: 0
  }
  param {
    lr_mult: 1
    decay_mult: 0
  }
  scale_param {
    filler {
      type: "constant"
      value: 1
    }
    bias_term: true
    bias_filler {
      type: "constant"
      value: 0
    }
  }
}
layer {
  name: "conv6/dw_relu"
  type: "ReLU"
  bottom: "conv6/dw"
  top: "conv6/dw"
}
layer {
  name: "conv6/sep"
  type: "Convolution"
  bottom: "conv6/dw"
  top: "conv6/sep"
  param {
    lr_mult: 1
    decay_mult: 1
  }
  convolution_param {
    num_output: 1024
    bias_term: false
    pad: 0
    kernel_size: 1
    group: 1
    stride: 1
    weight_filler {
      type: "gaussian"
      std: 0.01
    }
    engine: DEFAULT
  }
}
layer {
  name: "conv6/sep/bn"
  type: "BatchNorm"
  bottom: "conv6/sep"
  top: "conv6/sep"
  batch_norm_param {
    moving_average_fraction: 0.999
    eps: 0.001
  }
}
layer {
  name: "conv6/sep/scale"
  type: "Scale"
  bottom: "conv6/sep"
  top: "conv6/sep"
  param {
    lr_mult: 1
    decay_mult: 0
  }
  param {
    lr_mult: 1
    decay_mult: 0
  }
  scale_param {
    filler {
      type: "constant"
      value: 1
    }
    bias_term: true
    bias_filler {
      type: "constant"
      value: 0
    }
  }
}
layer {
  name: "conv6/sep_relu"
  type: "ReLU"
  bottom: "conv6/sep"
  top: "conv6/sep"
}
layer {
  name: "conv7_1"
  type: "Convolution"
  bottom: "conv6/sep"
  top: "conv7_1"
  param {
    lr_mult: 1
    decay_mult: 1
  }
  param {
    lr_mult: 2
    decay_mult: 0
  }
  convolution_param {
    num_output: 256
    pad: 0
    kernel_size: 1
    group: 1
    stride: 1
    weight_filler {
      type: "xavier"
    }
    bias_filler {
      type: "constant"
      value: 0
    }
    engine: DEFAULT
  }
}
layer {
  name: "conv7_1_relu"
  type: "ReLU"
  bottom: "conv7_1"
  top: "conv7_1"
}
layer {
  name: "conv7_2"
  type: "Convolution"
  bottom: "conv7_1"
  top: "conv7_2"
  param {
    lr_mult: 1
    decay_mult: 1
  }
  param {
    lr_mult: 2
    decay_mult: 0
  }
  convolution_param {
    num_output: 512
    pad: 1
    kernel_size: 3
    group: 1
    stride: 2
    weight_filler {
      type: "xavier"
    }
    bias_filler {
      type: "constant"
      value: 0
    }
    engine: DEFAULT
  }
}
layer {
  name: "conv7_2_relu"
  type: "ReLU"
  bottom: "co
I0825 10:18:40.303156 10411 layer_factory.hpp:77] Creating layer data
I0825 10:18:40.303293 10411 net.cpp:100] Creating Layer data
I0825 10:18:40.303309 10411 net.cpp:408] data -> data
I0825 10:18:40.303342 10411 net.cpp:408] data -> label
I0825 10:18:40.304461 10416 db_lmdb.cpp:35] Opened lmdb data/BodyFaceRegions/lmdb/VOC0712_170404_161114_lmdb
I0825 10:18:40.316838 10411 annotated_data_layer.cpp:62] output data size: 16,3,300,300
I0825 10:18:40.341858 10411 net.cpp:150] Setting up data
I0825 10:18:40.341881 10411 net.cpp:157] Top shape: 16 3 300 300 (4320000)
I0825 10:18:40.341884 10411 net.cpp:157] Top shape: 1 1 4 8 (32)
I0825 10:18:40.341886 10411 net.cpp:165] Memory required for data: 17280128
I0825 10:18:40.341895 10411 layer_factory.hpp:77] Creating layer data_data_0_split
I0825 10:18:40.341909 10411 net.cpp:100] Creating Layer data_data_0_split
I0825 10:18:40.341917 10411 net.cpp:434] data_data_0_split <- data
I0825 10:18:40.341933 10411 net.cpp:408] data_data_0_split -> data_data_0_split_0
I0825 10:18:40.341949 10411 net.cpp:408] data_data_0_split -> data_data_0_split_1
I0825 10:18:40.341960 10411 net.cpp:408] data_data_0_split -> data_data_0_split_2
I0825 10:18:40.341971 10411 net.cpp:408] data_data_0_split -> data_data_0_split_3
I0825 10:18:40.341981 10411 net.cpp:408] data_data_0_split -> data_data_0_split_4
I0825 10:18:40.342021 10411 net.cpp:408] data_data_0_split -> data_data_0_split_5
I0825 10:18:40.342031 10411 net.cpp:408] data_data_0_split -> data_data_0_split_6
I0825 10:18:40.342128 10411 net.cpp:150] Setting up data_data_0_split
I0825 10:18:40.342135 10411 net.cpp:157] Top shape: 16 3 300 300 (4320000)
I0825 10:18:40.342139 10411 net.cpp:157] Top shape: 16 3 300 300 (4320000)
I0825 10:18:40.342146 10411 net.cpp:157] Top shape: 16 3 300 300 (4320000)
I0825 10:18:40.342154 10411 net.cpp:157] Top shape: 16 3 300 300 (4320000)
I0825 10:18:40.342160 10411 net.cpp:157] Top shape: 16 3 300 300 (4320000)
I0825 10:18:40.342166 10411 net.cpp:157] Top shape: 16 3 300 300 (4320000)
I0825 10:18:40.342172 10411 net.cpp:157] Top shape: 16 3 300 300 (4320000)
I0825 10:18:40.342177 10411 net.cpp:165] Memory required for data: 138240128
I0825 10:18:40.342183 10411 layer_factory.hpp:77] Creating layer conv1
I0825 10:18:40.342203 10411 net.cpp:100] Creating Layer conv1
I0825 10:18:40.342208 10411 net.cpp:434] conv1 <- data_data_0_split_0
I0825 10:18:40.342216 10411 net.cpp:408] conv1 -> conv1
I0825 10:18:40.447300 10417 blocking_queue.cpp:50] Waiting for data
I0825 10:18:40.550752 10411 net.cpp:150] Setting up conv1
I0825 10:18:40.550775 10411 net.cpp:157] Top shape: 16 32 150 150 (11520000)
I0825 10:18:40.550777 10411 net.cpp:165] Memory required for data: 184320128
I0825 10:18:40.550791 10411 layer_factory.hpp:77] Creating layer conv1/bn
I0825 10:18:40.550801 10411 net.cpp:100] Creating Layer conv1/bn
I0825 10:18:40.550806 10411 net.cpp:434] conv1/bn <- conv1
I0825 10:18:40.550815 10411 net.cpp:395] conv1/bn -> conv1 (in-place)
I0825 10:18:40.551400 10411 net.cpp:150] Setting up conv1/bn
I0825 10:18:40.551411 10411 net.cpp:157] Top shape: 16 32 150 150 (11520000)
I0825 10:18:40.551414 10411 net.cpp:165] Memory required for data: 230400128
I0825 10:18:40.551422 10411 layer_factory.hpp:77] Creating layer conv1/scale
I0825 10:18:40.551431 10411 net.cpp:100] Creating Layer conv1/scale
I0825 10:18:40.551434 10411 net.cpp:434] conv1/scale <- conv1
I0825 10:18:40.551441 10411 net.cpp:395] conv1/scale -> conv1 (in-place)
I0825 10:18:40.551492 10411 layer_factory.hpp:77] Creating layer conv1/scale
I0825 10:18:40.551612 10411 net.cpp:150] Setting up conv1/scale
I0825 10:18:40.551621 10411 net.cpp:157] Top shape: 16 32 150 150 (11520000)
I0825 10:18:40.551625 10411 net.cpp:165] Memory required for data: 276480128
I0825 10:18:40.551636 10411 layer_factory.hpp:77] Creating layer conv1_relu
I0825 10:18:40.551645 10411 net.cpp:100] Creating Layer conv1_relu
I0825 10:18:40.551651 10411 net.cpp:434] conv1_relu <- conv1
I0825 10:18:40.551658 10411 net.cpp:395] conv1_relu -> conv1 (in-place)
I0825 10:18:40.551813 10411 net.cpp:150] Setting up conv1_relu
I0825 10:18:40.551822 10411 net.cpp:157] Top shape: 16 32 150 150 (11520000)
I0825 10:18:40.551827 10411 net.cpp:165] Memory required for data: 322560128
I0825 10:18:40.551832 10411 layer_factory.hpp:77] Creating layer conv2_1/dw
I0825 10:18:40.551844 10411 net.cpp:100] Creating Layer conv2_1/dw
I0825 10:18:40.551851 10411 net.cpp:434] conv2_1/dw <- conv1
I0825 10:18:40.551859 10411 net.cpp:408] conv2_1/dw -> conv2_1/dw
I0825 10:18:40.552013 10411 net.cpp:150] Setting up conv2_1/dw
I0825 10:18:40.552021 10411 net.cpp:157] Top shape: 16 32 150 150 (11520000)
I0825 10:18:40.552026 10411 net.cpp:165] Memory required for data: 368640128
I0825 10:18:40.552032 10411 layer_factory.hpp:77] Creating layer conv2_1/dw/bn
I0825 10:18:40.552040 10411 net.cpp:100] Creating Layer conv2_1/dw/bn
I0825 10:18:40.552047 10411 net.cpp:434] conv2_1/dw/bn <- conv2_1/dw
I0825 10:18:40.552054 10411 net.cpp:395] conv2_1/dw/bn -> conv2_1/dw (in-place)
I0825 10:18:40.552208 10411 net.cpp:150] Setting up conv2_1/dw/bn
I0825 10:18:40.552215 10411 net.cpp:157] Top shape: 16 32 150 150 (11520000)
I0825 10:18:40.552218 10411 net.cpp:165] Memory required for data: 414720128
I0825 10:18:40.552230 10411 layer_factory.hpp:77] Creating layer conv2_1/dw/scale
I0825 10:18:40.552242 10411 net.cpp:100] Creating Layer conv2_1/dw/scale
I0825 10:18:40.552265 10411 net.cpp:434] conv2_1/dw/scale <- conv2_1/dw
I0825 10:18:40.552273 10411 net.cpp:395] conv2_1/dw/scale -> conv2_1/dw (in-place)
I0825 10:18:40.552317 10411 layer_factory.hpp:77] Creating layer conv2_1/dw/scale
I0825 10:18:40.552428 10411 net.cpp:150] Setting up conv2_1/dw/scale
I0825 10:18:40.552435 10411 net.cpp:157] Top shape: 16 32 150 150 (11520000)
I0825 10:18:40.552439 10411 net.cpp:165] Memory required for data: 460800128
I0825 10:18:40.552448 10411 layer_factory.hpp:77] Creating layer conv2_1/dw_relu
I0825 10:18:40.552455 10411 net.cpp:100] Creating Layer conv2_1/dw_relu
I0825 10:18:40.552461 10411 net.cpp:434] conv2_1/dw_relu <- conv2_1/dw
I0825 10:18:40.552469 10411 net.cpp:395] conv2_1/dw_relu -> conv2_1/dw (in-place)
I0825 10:18:40.553025 10411 net.cpp:150] Setting up conv2_1/dw_relu
I0825 10:18:40.553035 10411 net.cpp:157] Top shape: 16 32 150 150 (11520000)
I0825 10:18:40.553040 10411 net.cpp:165] Memory required for data: 506880128
I0825 10:18:40.553045 10411 layer_factory.hpp:77] Creating layer conv2_1/sep
I0825 10:18:40.553056 10411 net.cpp:100] Creating Layer conv2_1/sep
I0825 10:18:40.553061 10411 net.cpp:434] conv2_1/sep <- conv2_1/dw
I0825 10:18:40.553071 10411 net.cpp:408] conv2_1/sep -> conv2_1/sep
I0825 10:18:40.554424 10411 net.cpp:150] Setting up conv2_1/sep
I0825 10:18:40.554435 10411 net.cpp:157] Top shape: 16 64 150 150 (23040000)
I0825 10:18:40.554441 10411 net.cpp:165] Memory required for data: 599040128
I0825 10:18:40.554448 10411 layer_factory.hpp:77] Creating layer conv2_1/sep/bn
I0825 10:18:40.554456 10411 net.cpp:100] Creating Layer conv2_1/sep/bn
I0825 10:18:40.554462 10411 net.cpp:434] conv2_1/sep/bn <- conv2_1/sep
I0825 10:18:40.554471 10411 net.cpp:395] conv2_1/sep/bn -> conv2_1/sep (in-place)
I0825 10:18:40.554641 10411 net.cpp:150] Setting up conv2_1/sep/bn
I0825 10:18:40.554647 10411 net.cpp:157] Top shape: 16 64 150 150 (23040000)
I0825 10:18:40.554652 10411 net.cpp:165] Memory required for data: 691200128
I0825 10:18:40.554662 10411 layer_factory.hpp:77] Creating layer conv2_1/sep/scale
I0825 10:18:40.554672 10411 net.cpp:100] Creating Layer conv2_1/sep/scale
I0825 10:18:40.554677 10411 net.cpp:434] conv2_1/sep/scale <- conv2_1/sep
I0825 10:18:40.554687 10411 net.cpp:395] conv2_1/sep/scale -> conv2_1/sep (in-place)
I0825 10:18:40.554729 10411 layer_factory.hpp:77] Creating layer conv2_1/sep/scale
I0825 10:18:40.554854 10411 net.cpp:150] Setting up conv2_1/sep/scale
I0825 10:18:40.554862 10411 net.cpp:157] Top shape: 16 64 150 150 (23040000)
I0825 10:18:40.554867 10411 net.cpp:165] Memory required for data: 783360128
I0825 10:18:40.554879 10411 layer_factory.hpp:77] Creating layer conv2_1/sep_relu
I0825 10:18:40.554888 10411 net.cpp:100] Creating Layer conv2_1/sep_relu
I0825 10:18:40.554893 10411 net.cpp:434] conv2_1/sep_relu <- conv2_1/sep
I0825 10:18:40.554903 10411 net.cpp:395] conv2_1/sep_relu -> conv2_1/sep (in-place)
I0825 10:18:40.555459 10411 net.cpp:150] Setting up conv2_1/sep_relu
I0825 10:18:40.555470 10411 net.cpp:157] Top shape: 16 64 150 150 (23040000)
I0825 10:18:40.555475 10411 net.cpp:165] Memory required for data: 875520128
I0825 10:18:40.555480 10411 layer_factory.hpp:77] Creating layer conv2_2/dw
I0825 10:18:40.555492 10411 net.cpp:100] Creating Layer conv2_2/dw
I0825 10:18:40.555500 10411 net.cpp:434] conv2_2/dw <- conv2_1/sep
I0825 10:18:40.555510 10411 net.cpp:408] conv2_2/dw -> conv2_2/dw
I0825 10:18:40.555693 10411 net.cpp:150] Setting up conv2_2/dw
I0825 10:18:40.555703 10411 net.cpp:157] Top shape: 16 64 75 75 (5760000)
I0825 10:18:40.555706 10411 net.cpp:165] Memory required for data: 898560128
I0825 10:18:40.555711 10411 layer_factory.hpp:77] Creating layer conv2_2/dw/bn
I0825 10:18:40.555719 10411 net.cpp:100] Creating Layer conv2_2/dw/bn
I0825 10:18:40.555724 10411 net.cpp:434] conv2_2/dw/bn <- conv2_2/dw
I0825 10:18:40.555733 10411 net.cpp:395] conv2_2/dw/bn -> conv2_2/dw (in-place)
I0825 10:18:40.556282 10411 net.cpp:150] Setting up conv2_2/dw/bn
I0825 10:18:40.556293 10411 net.cpp:157] Top shape: 16 64 75 75 (5760000)
I0825 10:18:40.556308 10411 net.cpp:165] Memory required for data: 921600128
I0825 10:18:40.556319 10411 layer_factory.hpp:77] Creating layer conv2_2/dw/scale
I0825 10:18:40.556332 10411 net.cpp:100] Creating Layer conv2_2/dw/scale
I0825 10:18:40.556339 10411 net.cpp:434] conv2_2/dw/scale <- conv2_2/dw
I0825 10:18:40.556349 10411 net.cpp:395] conv2_2/dw/scale -> conv2_2/dw (in-place)
I0825 10:18:40.556396 10411 layer_factory.hpp:77] Creating layer conv2_2/dw/scale
I0825 10:18:40.556501 10411 net.cpp:150] Setting up conv2_2/dw/scale
I0825 10:18:40.556509 10411 net.cpp:157] Top shape: 16 64 75 75 (5760000)
I0825 10:18:40.556514 10411 net.cpp:165] Memory required for data: 944640128
I0825 10:18:40.556522 10411 layer_factory.hpp:77] Creating layer conv2_2/dw_relu
I0825 10:18:40.556530 10411 net.cpp:100] Creating Layer conv2_2/dw_relu
I0825 10:18:40.556535 10411 net.cpp:434] conv2_2/dw_relu <- conv2_2/dw
I0825 10:18:40.556545 10411 net.cpp:395] conv2_2/dw_relu -> conv2_2/dw (in-place)
I0825 10:18:40.556692 10411 net.cpp:150] Setting up conv2_2/dw_relu
I0825 10:18:40.556701 10411 net.cpp:157] Top shape: 16 64 75 75 (5760000)
I0825 10:18:40.556704 10411 net.cpp:165] Memory required for data: 967680128
I0825 10:18:40.556710 10411 layer_factory.hpp:77] Creating layer conv2_2/sep
I0825 10:18:40.556721 10411 net.cpp:100] Creating Layer conv2_2/sep
I0825 10:18:40.556727 10411 net.cpp:434] conv2_2/sep <- conv2_2/dw
I0825 10:18:40.556736 10411 net.cpp:408] conv2_2/sep -> conv2_2/sep
I0825 10:18:40.558640 10411 net.cpp:150] Setting up conv2_2/sep
I0825 10:18:40.558650 10411 net.cpp:157] Top shape: 16 128 75 75 (11520000)
I0825 10:18:40.558655 10411 net.cpp:165] Memory required for data: 1013760128
I0825 10:18:40.558661 10411 layer_factory.hpp:77] Creating layer conv2_2/sep/bn
I0825 10:18:40.558670 10411 net.cpp:100] Creating Layer conv2_2/sep/bn
I0825 10:18:40.558676 10411 net.cpp:434] conv2_2/sep/bn <- conv2_2/sep
I0825 10:18:40.558684 10411 net.cpp:395] conv2_2/sep/bn -> conv2_2/sep (in-place)
I0825 10:18:40.558841 10411 net.cpp:150] Setting up conv2_2/sep/bn
I0825 10:18:40.558850 10411 net.cpp:157] Top shape: 16 128 75 75 (11520000)
I0825 10:18:40.558853 10411 net.cpp:165] Memory required for data: 1059840128
I0825 10:18:40.558863 10411 layer_factory.hpp:77] Creating layer conv2_2/sep/scale
I0825 10:18:40.558871 10411 net.cpp:100] Creating Layer conv2_2/sep/scale
I0825 10:18:40.558877 10411 net.cpp:434] conv2_2/sep/scale <- conv2_2/sep
I0825 10:18:40.558885 10411 net.cpp:395] conv2_2/sep/scale -> conv2_2/sep (in-place)
I0825 10:18:40.558928 10411 layer_factory.hpp:77] Creating layer conv2_2/sep/scale
I0825 10:18:40.559026 10411 net.cpp:150] Setting up conv2_2/sep/scale
I0825 10:18:40.559033 10411 net.cpp:157] Top shape: 16 128 75 75 (11520000)
I0825 10:18:40.559037 10411 net.cpp:165] Memory required for data: 1105920128
I0825 10:18:40.559046 10411 layer_factory.hpp:77] Creating layer conv2_2/sep_relu
I0825 10:18:40.559056 10411 net.cpp:100] Creating Layer conv2_2/sep_relu
I0825 10:18:40.559062 10411 net.cpp:434] conv2_2/sep_relu <- conv2_2/sep
I0825 10:18:40.559069 10411 net.cpp:395] conv2_2/sep_relu -> conv2_2/sep (in-place)
I0825 10:18:40.559628 10411 net.cpp:150] Setting up conv2_2/sep_relu
I0825 10:18:40.559639 10411 net.cpp:157] Top shape: 16 128 75 75 (11520000)
I0825 10:18:40.559644 10411 net.cpp:165] Memory required for data: 1152000128
I0825 10:18:40.559650 10411 layer_factory.hpp:77] Creating layer conv3_1/dw
I0825 10:18:40.559661 10411 net.cpp:100] Creating Layer conv3_1/dw
I0825 10:18:40.559689 10411 net.cpp:434] conv3_1/dw <- conv2_2/sep
I0825 10:18:40.559703 10411 net.cpp:408] conv3_1/dw -> conv3_1/dw
I0825 10:18:40.559873 10411 net.cpp:150] Setting up conv3_1/dw
I0825 10:18:40.559881 10411 net.cpp:157] Top shape: 16 128 75 75 (11520000)
I0825 10:18:40.559885 10411 net.cpp:165] Memory required for data: 1198080128
I0825 10:18:40.559892 10411 layer_factory.hpp:77] Creating layer conv3_1/dw/bn
I0825 10:18:40.559900 10411 net.cpp:100] Creating Layer conv3_1/dw/bn
I0825 10:18:40.559906 10411 net.cpp:434] conv3_1/dw/bn <- conv3_1/dw
I0825 10:18:40.559924 10411 net.cpp:395] conv3_1/dw/bn -> conv3_1/dw (in-place)
I0825 10:18:40.560078 10411 net.cpp:150] Setting up conv3_1/dw/bn
I0825 10:18:40.560088 10411 net.cpp:157] Top shape: 16 128 75 75 (11520000)
I0825 10:18:40.560093 10411 net.cpp:165] Memory required for data: 1244160128
I0825 10:18:40.560108 10411 layer_factory.hpp:77] Creating layer conv3_1/dw/scale
I0825 10:18:40.560122 10411 net.cpp:100] Creating Layer conv3_1/dw/scale
I0825 10:18:40.560127 10411 net.cpp:434] conv3_1/dw/scale <- conv3_1/dw
I0825 10:18:40.560135 10411 net.cpp:395] conv3_1/dw/scale -> conv3_1/dw (in-place)
I0825 10:18:40.560179 10411 layer_factory.hpp:77] Creating layer conv3_1/dw/scale
I0825 10:18:40.560276 10411 net.cpp:150] Setting up conv3_1/dw/scale
I0825 10:18:40.560282 10411 net.cpp:157] Top shape: 16 128 75 75 (11520000)
I0825 10:18:40.560287 10411 net.cpp:165] Memory required for data: 1290240128
I0825 10:18:40.560295 10411 layer_factory.hpp:77] Creating layer conv3_1/dw_relu
I0825 10:18:40.560305 10411 net.cpp:100] Creating Layer conv3_1/dw_relu
I0825 10:18:40.560310 10411 net.cpp:434] conv3_1/dw_relu <- conv3_1/dw
I0825 10:18:40.560318 10411 net.cpp:395] conv3_1/dw_relu -> conv3_1/dw (in-place)
I0825 10:18:40.560463 10411 net.cpp:150] Setting up conv3_1/dw_relu
I0825 10:18:40.560472 10411 net.cpp:157] Top shape: 16 128 75 75 (11520000)
I0825 10:18:40.560475 10411 net.cpp:165] Memory required for data: 1336320128
I0825 10:18:40.560482 10411 layer_factory.hpp:77] Creating layer conv3_1/sep
I0825 10:18:40.560494 10411 net.cpp:100] Creating Layer conv3_1/sep
I0825 10:18:40.560501 10411 net.cpp:434] conv3_1/sep <- conv3_1/dw
I0825 10:18:40.560510 10411 net.cpp:408] conv3_1/sep -> conv3_1/sep
I0825 10:18:40.562011 10411 net.cpp:150] Setting up conv3_1/sep
I0825 10:18:40.562022 10411 net.cpp:157] Top shape: 16 128 75 75 (11520000)
I0825 10:18:40.562027 10411 net.cpp:165] Memory required for data: 1382400128
I0825 10:18:40.562036 10411 layer_factory.hpp:77] Creating layer conv3_1/sep/bn
I0825 10:18:40.562043 10411 net.cpp:100] Creating Layer conv3_1/sep/bn
I0825 10:18:40.562049 10411 net.cpp:434] conv3_1/sep/bn <- conv3_1/sep
I0825 10:18:40.562059 10411 net.cpp:395] conv3_1/sep/bn -> conv3_1/sep (in-place)
I0825 10:18:40.562211 10411 net.cpp:150] Setting up conv3_1/sep/bn
I0825 10:18:40.562219 10411 net.cpp:157] Top shape: 16 128 75 75 (11520000)
I0825 10:18:40.562223 10411 net.cpp:165] Memory required for data: 1428480128
I0825 10:18:40.562233 10411 layer_factory.hpp:77] Creating layer conv3_1/sep/scale
I0825 10:18:40.562242 10411 net.cpp:100] Creating Layer conv3_1/sep/scale
I0825 10:18:40.562248 10411 net.cpp:434] conv3_1/sep/scale <- conv3_1/sep
I0825 10:18:40.562258 10411 net.cpp:395] conv3_1/sep/scale -> conv3_1/sep (in-place)
I0825 10:18:40.562299 10411 layer_factory.hpp:77] Creating layer conv3_1/sep/scale
I0825 10:18:40.562397 10411 net.cpp:150] Setting up conv3_1/sep/scale
I0825 10:18:40.562404 10411 net.cpp:157] Top shape: 16 128 75 75 (11520000)
I0825 10:18:40.562409 10411 net.cpp:165] Memory required for data: 1474560128
I0825 10:18:40.562417 10411 layer_factory.hpp:77] Creating layer conv3_1/sep_relu
I0825 10:18:40.562425 10411 net.cpp:100] Creating Layer conv3_1/sep_relu
I0825 10:18:40.562430 10411 net.cpp:434] conv3_1/sep_relu <- conv3_1/sep
I0825 10:18:40.562439 10411 net.cpp:395] conv3_1/sep_relu -> conv3_1/sep (in-place)
I0825 10:18:40.562994 10411 net.cpp:150] Setting up conv3_1/sep_relu
I0825 10:18:40.563004 10411 net.cpp:157] Top shape: 16 128 75 75 (11520000)
I0825 10:18:40.563009 10411 net.cpp:165] Memory required for data: 1520640128
I0825 10:18:40.563014 10411 layer_factory.hpp:77] Creating layer conv3_2/dw
I0825 10:18:40.563026 10411 net.cpp:100] Creating Layer conv3_2/dw
I0825 10:18:40.563032 10411 net.cpp:434] conv3_2/dw <- conv3_1/sep
I0825 10:18:40.563042 10411 net.cpp:408] conv3_2/dw -> conv3_2/dw
I0825 10:18:40.563211 10411 net.cpp:150] Setting up conv3_2/dw
I0825 10:18:40.563220 10411 net.cpp:157] Top shape: 16 128 38 38 (2957312)
I0825 10:18:40.563223 10411 net.cpp:165] Memory required for data: 1532469376
I0825 10:18:40.563241 10411 layer_factory.hpp:77] Creating layer conv3_2/dw/bn
I0825 10:18:40.563248 10411 net.cpp:100] Creating Layer conv3_2/dw/bn
I0825 10:18:40.563253 10411 net.cpp:434] conv3_2/dw/bn <- conv3_2/dw
I0825 10:18:40.563261 10411 net.cpp:395] conv3_2/dw/bn -> conv3_2/dw (in-place)
I0825 10:18:40.563405 10411 net.cpp:150] Setting up conv3_2/dw/bn
I0825 10:18:40.563411 10411 net.cpp:157] Top shape: 16 128 38 38 (2957312)
I0825 10:18:40.563416 10411 net.cpp:165] Memory required for data: 1544298624
I0825 10:18:40.563424 10411 layer_factory.hpp:77] Creating layer conv3_2/dw/scale
I0825 10:18:40.563438 10411 net.cpp:100] Creating Layer conv3_2/dw/scale
I0825 10:18:40.563444 10411 net.cpp:434] conv3_2/dw/scale <- conv3_2/dw
I0825 10:18:40.563452 10411 net.cpp:395] conv3_2/dw/scale -> conv3_2/dw (in-place)
I0825 10:18:40.563493 10411 layer_factory.hpp:77] Creating layer conv3_2/dw/scale
I0825 10:18:40.563590 10411 net.cpp:150] Setting up conv3_2/dw/scale
I0825 10:18:40.563598 10411 net.cpp:157] Top shape: 16 128 38 38 (2957312)
I0825 10:18:40.563603 10411 net.cpp:165] Memory required for data: 1556127872
I0825 10:18:40.563611 10411 layer_factory.hpp:77] Creating layer conv3_2/dw_relu
I0825 10:18:40.563618 10411 net.cpp:100] Creating Layer conv3_2/dw_relu
I0825 10:18:40.563624 10411 net.cpp:434] conv3_2/dw_relu <- conv3_2/dw
I0825 10:18:40.563632 10411 net.cpp:395] conv3_2/dw_relu -> conv3_2/dw (in-place)
I0825 10:18:40.563782 10411 net.cpp:150] Setting up conv3_2/dw_relu
I0825 10:18:40.563791 10411 net.cpp:157] Top shape: 16 128 38 38 (2957312)
I0825 10:18:40.563796 10411 net.cpp:165] Memory required for data: 1567957120
I0825 10:18:40.563801 10411 layer_factory.hpp:77] Creating layer conv3_2/sep
I0825 10:18:40.563812 10411 net.cpp:100] Creating Layer conv3_2/sep
I0825 10:18:40.563817 10411 net.cpp:434] conv3_2/sep <- conv3_2/dw
I0825 10:18:40.563827 10411 net.cpp:408] conv3_2/sep -> conv3_2/sep
I0825 10:18:40.565472 10411 net.cpp:150] Setting up conv3_2/sep
I0825 10:18:40.565484 10411 net.cpp:157] Top shape: 16 256 38 38 (5914624)
I0825 10:18:40.565488 10411 net.cpp:165] Memory required for data: 1591615616
I0825 10:18:40.565495 10411 layer_factory.hpp:77] Creating layer conv3_2/sep/bn
I0825 10:18:40.565502 10411 net.cpp:100] Creating Layer conv3_2/sep/bn
I0825 10:18:40.565510 10411 net.cpp:434] conv3_2/sep/bn <- conv3_2/sep
I0825 10:18:40.565517 10411 net.cpp:395] conv3_2/sep/bn -> conv3_2/sep (in-place)
I0825 10:18:40.565673 10411 net.cpp:150] Setting up conv3_2/sep/bn
I0825 10:18:40.565682 10411 net.cpp:157] Top shape: 16 256 38 38 (5914624)
I0825 10:18:40.565686 10411 net.cpp:165] Memory required for data: 1615274112
I0825 10:18:40.565696 10411 layer_factory.hpp:77] Creating layer conv3_2/sep/scale
I0825 10:18:40.565704 10411 net.cpp:100] Creating Layer conv3_2/sep/scale
I0825 10:18:40.565711 10411 net.cpp:434] conv3_2/sep/scale <- conv3_2/sep
I0825 10:18:40.565717 10411 net.cpp:395] conv3_2/sep/scale -> conv3_2/sep (in-place)
I0825 10:18:40.565762 10411 layer_factory.hpp:77] Creating layer conv3_2/sep/scale
I0825 10:18:40.565855 10411 net.cpp:150] Setting up conv3_2/sep/scale
I0825 10:18:40.565861 10411 net.cpp:157] Top shape: 16 256 38 38 (5914624)
I0825 10:18:40.565865 10411 net.cpp:165] Memory required for data: 1638932608
I0825 10:18:40.565873 10411 layer_factory.hpp:77] Creating layer conv3_2/sep_relu
I0825 10:18:40.565881 10411 net.cpp:100] Creating Layer conv3_2/sep_relu
I0825 10:18:40.565888 10411 net.cpp:434] conv3_2/sep_relu <- conv3_2/sep
I0825 10:18:40.565896 10411 net.cpp:395] conv3_2/sep_relu -> conv3_2/sep (in-place)
I0825 10:18:40.566450 10411 net.cpp:150] Setting up conv3_2/sep_relu
I0825 10:18:40.566460 10411 net.cpp:157] Top shape: 16 256 38 38 (5914624)
I0825 10:18:40.566465 10411 net.cpp:165] Memory required for data: 1662591104
I0825 10:18:40.566469 10411 layer_factory.hpp:77] Creating layer conv4_1/dw
I0825 10:18:40.566483 10411 net.cpp:100] Creating Layer conv4_1/dw
I0825 10:18:40.566489 10411 net.cpp:434] conv4_1/dw <- conv3_2/sep
I0825 10:18:40.566509 10411 net.cpp:408] conv4_1/dw -> conv4_1/dw
I0825 10:18:40.566689 10411 net.cpp:150] Setting up conv4_1/dw
I0825 10:18:40.566696 10411 net.cpp:157] Top shape: 16 256 38 38 (5914624)
I0825 10:18:40.566701 10411 net.cpp:165] Memory required for data: 1686249600
I0825 10:18:40.566707 10411 layer_factory.hpp:77] Creating layer conv4_1/dw/bn
I0825 10:18:40.566717 10411 net.cpp:100] Creating Layer conv4_1/dw/bn
I0825 10:18:40.566723 10411 net.cpp:434] conv4_1/dw/bn <- conv4_1/dw
I0825 10:18:40.566730 10411 net.cpp:395] conv4_1/dw/bn -> conv4_1/dw (in-place)
I0825 10:18:40.566881 10411 net.cpp:150] Setting up conv4_1/dw/bn
I0825 10:18:40.566889 10411 net.cpp:157] Top shape: 16 256 38 38 (5914624)
I0825 10:18:40.566893 10411 net.cpp:165] Memory required for data: 1709908096
I0825 10:18:40.566902 10411 layer_factory.hpp:77] Creating layer conv4_1/dw/scale
I0825 10:18:40.566911 10411 net.cpp:100] Creating Layer conv4_1/dw/scale
I0825 10:18:40.566916 10411 net.cpp:434] conv4_1/dw/scale <- conv4_1/dw
I0825 10:18:40.566926 10411 net.cpp:395] conv4_1/dw/scale -> conv4_1/dw (in-place)
I0825 10:18:40.566968 10411 layer_factory.hpp:77] Creating layer conv4_1/dw/scale
I0825 10:18:40.567062 10411 net.cpp:150] Setting up conv4_1/dw/scale
I0825 10:18:40.567070 10411 net.cpp:157] Top shape: 16 256 38 38 (5914624)
I0825 10:18:40.567073 10411 net.cpp:165] Memory required for data: 1733566592
I0825 10:18:40.567082 10411 layer_factory.hpp:77] Creating layer conv4_1/dw_relu
I0825 10:18:40.567090 10411 net.cpp:100] Creating Layer conv4_1/dw_relu
I0825 10:18:40.567095 10411 net.cpp:434] conv4_1/dw_relu <- conv4_1/dw
I0825 10:18:40.567106 10411 net.cpp:395] conv4_1/dw_relu -> conv4_1/dw (in-place)
I0825 10:18:40.567251 10411 net.cpp:150] Setting up conv4_1/dw_relu
I0825 10:18:40.567260 10411 net.cpp:157] Top shape: 16 256 38 38 (5914624)
I0825 10:18:40.567265 10411 net.cpp:165] Memory required for data: 1757225088
I0825 10:18:40.567270 10411 layer_factory.hpp:77] Creating layer conv4_1/sep
I0825 10:18:40.567281 10411 net.cpp:100] Creating Layer conv4_1/sep
I0825 10:18:40.567287 10411 net.cpp:434] conv4_1/sep <- conv4_1/dw
I0825 10:18:40.567296 10411 net.cpp:408] conv4_1/sep -> conv4_1/sep
I0825 10:18:40.569990 10411 net.cpp:150] Setting up conv4_1/sep
I0825 10:18:40.570003 10411 net.cpp:157] Top shape: 16 256 38 38 (5914624)
I0825 10:18:40.570004 10411 net.cpp:165] Memory required for data: 1780883584
I0825 10:18:40.570008 10411 layer_factory.hpp:77] Creating layer conv4_1/sep/bn
I0825 10:18:40.570013 10411 net.cpp:100] Creating Layer conv4_1/sep/bn
I0825 10:18:40.570016 10411 net.cpp:434] conv4_1/sep/bn <- conv4_1/sep
I0825 10:18:40.570019 10411 net.cpp:395] conv4_1/sep/bn -> conv4_1/sep (in-place)
I0825 10:18:40.570185 10411 net.cpp:150] Setting up conv4_1/sep/bn
I0825 10:18:40.570194 10411 net.cpp:157] Top shape: 16 256 38 38 (5914624)
I0825 10:18:40.570199 10411 net.cpp:165] Memory required for data: 1804542080
I0825 10:18:40.570209 10411 layer_factory.hpp:77] Creating layer conv4_1/sep/scale
I0825 10:18:40.570217 10411 net.cpp:100] Creating Layer conv4_1/sep/scale
I0825 10:18:40.570224 10411 net.cpp:434] conv4_1/sep/scale <- conv4_1/sep
I0825 10:18:40.570231 10411 net.cpp:395] conv4_1/sep/scale -> conv4_1/sep (in-place)
I0825 10:18:40.570274 10411 layer_factory.hpp:77] Creating layer conv4_1/sep/scale
I0825 10:18:40.570374 10411 net.cpp:150] Setting up conv4_1/sep/scale
I0825 10:18:40.570380 10411 net.cpp:157] Top shape: 16 256 38 38 (5914624)
I0825 10:18:40.570384 10411 net.cpp:165] Memory required for data: 1828200576
I0825 10:18:40.570403 10411 layer_factory.hpp:77] Creating layer conv4_1/sep_relu
I0825 10:18:40.570412 10411 net.cpp:100] Creating Layer conv4_1/sep_relu
I0825 10:18:40.570417 10411 net.cpp:434] conv4_1/sep_relu <- conv4_1/sep
I0825 10:18:40.570425 10411 net.cpp:395] conv4_1/sep_relu -> conv4_1/sep (in-place)
I0825 10:18:40.570581 10411 net.cpp:150] Setting up conv4_1/sep_relu
I0825 10:18:40.570590 10411 net.cpp:157] Top shape: 16 256 38 38 (5914624)
I0825 10:18:40.570595 10411 net.cpp:165] Memory required for data: 1851859072
I0825 10:18:40.570610 10411 layer_factory.hpp:77] Creating layer conv4_2/dw
I0825 10:18:40.570622 10411 net.cpp:100] Creating Layer conv4_2/dw
I0825 10:18:40.570629 10411 net.cpp:434] conv4_2/dw <- conv4_1/sep
I0825 10:18:40.570637 10411 net.cpp:408] conv4_2/dw -> conv4_2/dw
I0825 10:18:40.570822 10411 net.cpp:150] Setting up conv4_2/dw
I0825 10:18:40.570829 10411 net.cpp:157] Top shape: 16 256 19 19 (1478656)
I0825 10:18:40.570832 10411 net.cpp:165] Memory required for data: 1857773696
I0825 10:18:40.570837 10411 layer_factory.hpp:77] Creating layer conv4_2/dw/bn
I0825 10:18:40.570844 10411 net.cpp:100] Creating Layer conv4_2/dw/bn
I0825 10:18:40.570849 10411 net.cpp:434] conv4_2/dw/bn <- conv4_2/dw
I0825 10:18:40.570858 10411 net.cpp:395] conv4_2/dw/bn -> conv4_2/dw (in-place)
I0825 10:18:40.571013 10411 net.cpp:150] Setting up conv4_2/dw/bn
I0825 10:18:40.571020 10411 net.cpp:157] Top shape: 16 256 19 19 (1478656)
I0825 10:18:40.571024 10411 net.cpp:165] Memory required for data: 1863688320
I0825 10:18:40.571034 10411 layer_factory.hpp:77] Creating layer conv4_2/dw/scale
I0825 10:18:40.571043 10411 net.cpp:100] Creating Layer conv4_2/dw/scale
I0825 10:18:40.571048 10411 net.cpp:434] conv4_2/dw/scale <- conv4_2/dw
I0825 10:18:40.571056 10411 net.cpp:395] conv4_2/dw/scale -> conv4_2/dw (in-place)
I0825 10:18:40.571104 10411 layer_factory.hpp:77] Creating layer conv4_2/dw/scale
I0825 10:18:40.571202 10411 net.cpp:150] Setting up conv4_2/dw/scale
I0825 10:18:40.571210 10411 net.cpp:157] Top shape: 16 256 19 19 (1478656)
I0825 10:18:40.571214 10411 net.cpp:165] Memory required for data: 1869602944
I0825 10:18:40.571223 10411 layer_factory.hpp:77] Creating layer conv4_2/dw_relu
I0825 10:18:40.571230 10411 net.cpp:100] Creating Layer conv4_2/dw_relu
I0825 10:18:40.571235 10411 net.cpp:434] conv4_2/dw_relu <- conv4_2/dw
I0825 10:18:40.571244 10411 net.cpp:395] conv4_2/dw_relu -> conv4_2/dw (in-place)
I0825 10:18:40.571802 10411 net.cpp:150] Setting up conv4_2/dw_relu
I0825 10:18:40.571813 10411 net.cpp:157] Top shape: 16 256 19 19 (1478656)
I0825 10:18:40.571818 10411 net.cpp:165] Memory required for data: 1875517568
I0825 10:18:40.571823 10411 layer_factory.hpp:77] Creating layer conv4_2/sep
I0825 10:18:40.571835 10411 net.cpp:100] Creating Layer conv4_2/sep
I0825 10:18:40.571841 10411 net.cpp:434] conv4_2/sep <- conv4_2/dw
I0825 10:18:40.571851 10411 net.cpp:408] conv4_2/sep -> conv4_2/sep
I0825 10:18:40.574990 10411 net.cpp:150] Setting up conv4_2/sep
I0825 10:18:40.575001 10411 net.cpp:157] Top shape: 16 512 19 19 (2957312)
I0825 10:18:40.575006 10411 net.cpp:165] Memory required for data: 1887346816
I0825 10:18:40.575012 10411 layer_factory.hpp:77] Creating layer conv4_2/sep/bn
I0825 10:18:40.575022 10411 net.cpp:100] Creating Layer conv4_2/sep/bn
I0825 10:18:40.575028 10411 net.cpp:434] conv4_2/sep/bn <- conv4_2/sep
I0825 10:18:40.575037 10411 net.cpp:395] conv4_2/sep/bn -> conv4_2/sep (in-place)
I0825 10:18:40.575203 10411 net.cpp:150] Setting up conv4_2/sep/bn
I0825 10:18:40.575212 10411 net.cpp:157] Top shape: 16 512 19 19 (2957312)
I0825 10:18:40.575215 10411 net.cpp:165] Memory required for data: 1899176064
I0825 10:18:40.575225 10411 layer_factory.hpp:77] Creating layer conv4_2/sep/scale
I0825 10:18:40.575237 10411 net.cpp:100] Creating Layer conv4_2/sep/scale
I0825 10:18:40.575242 10411 net.cpp:434] conv4_2/sep/scale <- conv4_2/sep
I0825 10:18:40.575249 10411 net.cpp:395] conv4_2/sep/scale -> conv4_2/sep (in-place)
I0825 10:18:40.575296 10411 layer_factory.hpp:77] Creating layer conv4_2/sep/scale
I0825 10:18:40.575394 10411 net.cpp:150] Setting up conv4_2/sep/scale
I0825 10:18:40.575402 10411 net.cpp:157] Top shape: 16 512 19 19 (2957312)
I0825 10:18:40.575405 10411 net.cpp:165] Memory required for data: 1911005312
I0825 10:18:40.575414 10411 layer_factory.hpp:77] Creating layer conv4_2/sep_relu
I0825 10:18:40.575423 10411 net.cpp:100] Creating Layer conv4_2/sep_relu
I0825 10:18:40.575429 10411 net.cpp:434] conv4_2/sep_relu <- conv4_2/sep
I0825 10:18:40.575436 10411 net.cpp:395] conv4_2/sep_relu -> conv4_2/sep (in-place)
I0825 10:18:40.575594 10411 net.cpp:150] Setting up conv4_2/sep_relu
I0825 10:18:40.575603 10411 net.cpp:157] Top shape: 16 512 19 19 (2957312)
I0825 10:18:40.575608 10411 net.cpp:165] Memory required for data: 1922834560
I0825 10:18:40.575613 10411 layer_factory.hpp:77] Creating layer conv5_1/dw
I0825 10:18:40.575624 10411 net.cpp:100] Creating Layer conv5_1/dw
I0825 10:18:40.575630 10411 net.cpp:434] conv5_1/dw <- conv4_2/sep
I0825 10:18:40.575640 10411 net.cpp:408] conv5_1/dw -> conv5_1/dw
I0825 10:18:40.575853 10411 net.cpp:150] Setting up conv5_1/dw
I0825 10:18:40.575860 10411 net.cpp:157] Top shape: 16 512 19 19 (2957312)
I0825 10:18:40.575865 10411 net.cpp:165] Memory required for data: 1934663808
I0825 10:18:40.575871 10411 layer_factory.hpp:77] Creating layer conv5_1/dw/bn
I0825 10:18:40.575880 10411 net.cpp:100] Creating Layer conv5_1/dw/bn
I0825 10:18:40.575886 10411 net.cpp:434] conv5_1/dw/bn <- conv5_1/dw
I0825 10:18:40.575892 10411 net.cpp:395] conv5_1/dw/bn -> conv5_1/dw (in-place)
I0825 10:18:40.576056 10411 net.cpp:150] Setting up conv5_1/dw/bn
I0825 10:18:40.576062 10411 net.cpp:157] Top shape: 16 512 19 19 (2957312)
I0825 10:18:40.576067 10411 net.cpp:165] Memory required for data: 1946493056
I0825 10:18:40.576076 10411 layer_factory.hpp:77] Creating layer conv5_1/dw/scale
I0825 10:18:40.576088 10411 net.cpp:100] Creating Layer conv5_1/dw/scale
I0825 10:18:40.576095 10411 net.cpp:434] conv5_1/dw/scale <- conv5_1/dw
I0825 10:18:40.576103 10411 net.cpp:395] conv5_1/dw/scale -> conv5_1/dw (in-place)
I0825 10:18:40.576148 10411 layer_factory.hpp:77] Creating layer conv5_1/dw/scale
I0825 10:18:40.576251 10411 net.cpp:150] Setting up conv5_1/dw/scale
I0825 10:18:40.576257 10411 net.cpp:157] Top shape: 16 512 19 19 (2957312)
I0825 10:18:40.576262 10411 net.cpp:165] Memory required for data: 1958322304
I0825 10:18:40.576270 10411 layer_factory.hpp:77] Creating layer conv5_1/dw_relu
I0825 10:18:40.576277 10411 net.cpp:100] Creating Layer conv5_1/dw_relu
I0825 10:18:40.576283 10411 net.cpp:434] conv5_1/dw_relu <- conv5_1/dw
I0825 10:18:40.576292 10411 net.cpp:395] conv5_1/dw_relu -> conv5_1/dw (in-place)
I0825 10:18:40.576854 10411 net.cpp:150] Setting up conv5_1/dw_relu
I0825 10:18:40.576864 10411 net.cpp:157] Top shape: 16 512 19 19 (2957312)
I0825 10:18:40.576869 10411 net.cpp:165] Memory required for data: 1970151552
I0825 10:18:40.576874 10411 layer_factory.hpp:77] Creating layer conv5_1/sep
I0825 10:18:40.576886 10411 net.cpp:100] Creating Layer conv5_1/sep
I0825 10:18:40.576894 10411 net.cpp:434] conv5_1/sep <- conv5_1/dw
I0825 10:18:40.576903 10411 net.cpp:408] conv5_1/sep -> conv5_1/sep
I0825 10:18:40.580706 10411 net.cpp:150] Setting up conv5_1/sep
I0825 10:18:40.580718 10411 net.cpp:157] Top shape: 16 512 19 19 (2957312)
I0825 10:18:40.580721 10411 net.cpp:165] Memory required for data: 1981980800
I0825 10:18:40.580729 10411 layer_factory.hpp:77] Creating layer conv5_1/sep/bn
I0825 10:18:40.580744 10411 net.cpp:100] Creating Layer conv5_1/sep/bn
I0825 10:18:40.580749 10411 net.cpp:434] conv5_1/sep/bn <- conv5_1/sep
I0825 10:18:40.580757 10411 net.cpp:395] conv5_1/sep/bn -> conv5_1/sep (in-place)
I0825 10:18:40.580930 10411 net.cpp:150] Setting up conv5_1/sep/bn
I0825 10:18:40.580938 10411 net.cpp:157] Top shape: 16 512 19 19 (2957312)
I0825 10:18:40.580943 10411 net.cpp:165] Memory required for data: 1993810048
I0825 10:18:40.580952 10411 layer_factory.hpp:77] Creating layer conv5_1/sep/scale
I0825 10:18:40.580961 10411 net.cpp:100] Creating Layer conv5_1/sep/scale
I0825 10:18:40.580967 10411 net.cpp:434] conv5_1/sep/scale <- conv5_1/sep
I0825 10:18:40.580976 10411 net.cpp:395] conv5_1/sep/scale -> conv5_1/sep (in-place)
I0825 10:18:40.581022 10411 layer_factory.hpp:77] Creating layer conv5_1/sep/scale
I0825 10:18:40.581123 10411 net.cpp:150] Setting up conv5_1/sep/scale
I0825 10:18:40.581130 10411 net.cpp:157] Top shape: 16 512 19 19 (2957312)
I0825 10:18:40.581135 10411 net.cpp:165] Memory required for data: 2005639296
I0825 10:18:40.581142 10411 layer_factory.hpp:77] Creating layer conv5_1/sep_relu
I0825 10:18:40.581161 10411 net.cpp:100] Creating Layer conv5_1/sep_relu
I0825 10:18:40.581166 10411 net.cpp:434] conv5_1/sep_relu <- conv5_1/sep
I0825 10:18:40.581176 10411 net.cpp:395] conv5_1/sep_relu -> conv5_1/sep (in-place)
I0825 10:18:40.581326 10411 net.cpp:150] Setting up conv5_1/sep_relu
I0825 10:18:40.581336 10411 net.cpp:157] Top shape: 16 512 19 19 (2957312)
I0825 10:18:40.581341 10411 net.cpp:165] Memory required for data: 2017468544
I0825 10:18:40.581346 10411 layer_factory.hpp:77] Creating layer conv5_2/dw
I0825 10:18:40.581357 10411 net.cpp:100] Creating Layer conv5_2/dw
I0825 10:18:40.581364 10411 net.cpp:434] conv5_2/dw <- conv5_1/sep
I0825 10:18:40.581373 10411 net.cpp:408] conv5_2/dw -> conv5_2/dw
I0825 10:18:40.581574 10411 net.cpp:150] Setting up conv5_2/dw
I0825 10:18:40.581583 10411 net.cpp:157] Top shape: 16 512 19 19 (2957312)
I0825 10:18:40.581585 10411 net.cpp:165] Memory required for data: 2029297792
I0825 10:18:40.581593 10411 layer_factory.hpp:77] Creating layer conv5_2/dw/bn
I0825 10:18:40.581599 10411 net.cpp:100] Creating Layer conv5_2/dw/bn
I0825 10:18:40.581605 10411 net.cpp:434] conv5_2/dw/bn <- conv5_2/dw
I0825 10:18:40.581614 10411 net.cpp:395] conv5_2/dw/bn -> conv5_2/dw (in-place)
I0825 10:18:40.581778 10411 net.cpp:150] Setting up conv5_2/dw/bn
I0825 10:18:40.581789 10411 net.cpp:157] Top shape: 16 512 19 19 (2957312)
I0825 10:18:40.581794 10411 net.cpp:165] Memory required for data: 2041127040
I0825 10:18:40.581804 10411 layer_factory.hpp:77] Creating layer conv5_2/dw/scale
I0825 10:18:40.581820 10411 net.cpp:100] Creating Layer conv5_2/dw/scale
I0825 10:18:40.581826 10411 net.cpp:434] conv5_2/dw/scale <- conv5_2/dw
I0825 10:18:40.581832 10411 net.cpp:395] conv5_2/dw/scale -> conv5_2/dw (in-place)
I0825 10:18:40.581881 10411 layer_factory.hpp:77] Creating layer conv5_2/dw/scale
I0825 10:18:40.581980 10411 net.cpp:150] Setting up conv5_2/dw/scale
I0825 10:18:40.581989 10411 net.cpp:157] Top shape: 16 512 19 19 (2957312)
I0825 10:18:40.581992 10411 net.cpp:165] Memory required for data: 2052956288
I0825 10:18:40.582000 10411 layer_factory.hpp:77] Creating layer conv5_2/dw_relu
I0825 10:18:40.582008 10411 net.cpp:100] Creating Layer conv5_2/dw_relu
I0825 10:18:40.582013 10411 net.cpp:434] conv5_2/dw_relu <- conv5_2/dw
I0825 10:18:40.582020 10411 net.cpp:395] conv5_2/dw_relu -> conv5_2/dw (in-place)
I0825 10:18:40.582577 10411 net.cpp:150] Setting up conv5_2/dw_relu
I0825 10:18:40.582587 10411 net.cpp:157] Top shape: 16 512 19 19 (2957312)
I0825 10:18:40.582592 10411 net.cpp:165] Memory required for data: 2064785536
I0825 10:18:40.582597 10411 layer_factory.hpp:77] Creating layer conv5_2/sep
I0825 10:18:40.582609 10411 net.cpp:100] Creating Layer conv5_2/sep
I0825 10:18:40.582615 10411 net.cpp:434] conv5_2/sep <- conv5_2/dw
I0825 10:18:40.582625 10411 net.cpp:408] conv5_2/sep -> conv5_2/sep
I0825 10:18:40.585965 10411 net.cpp:150] Setting up conv5_2/sep
I0825 10:18:40.585978 10411 net.cpp:157] Top shape: 16 512 19 19 (2957312)
I0825 10:18:40.585983 10411 net.cpp:165] Memory required for data: 2076614784
I0825 10:18:40.585989 10411 layer_factory.hpp:77] Creating layer conv5_2/sep/bn
I0825 10:18:40.586001 10411 net.cpp:100] Creating Layer conv5_2/sep/bn
I0825 10:18:40.586007 10411 net.cpp:434] conv5_2/sep/bn <- conv5_2/sep
I0825 10:18:40.586014 10411 net.cpp:395] conv5_2/sep/bn -> conv5_2/sep (in-place)
I0825 10:18:40.586184 10411 net.cpp:150] Setting up conv5_2/sep/bn
I0825 10:18:40.586192 10411 net.cpp:157] Top shape: 16 512 19 19 (2957312)
I0825 10:18:40.586197 10411 net.cpp:165] Memory required for data: 2088444032
I0825 10:18:40.586206 10411 layer_factory.hpp:77] Creating layer conv5_2/sep/scale
I0825 10:18:40.586215 10411 net.cpp:100] Creating Layer conv5_2/sep/scale
I0825 10:18:40.586221 10411 net.cpp:434] conv5_2/sep/scale <- conv5_2/sep
I0825 10:18:40.586230 10411 net.cpp:395] conv5_2/sep/scale -> conv5_2/sep (in-place)
I0825 10:18:40.586278 10411 layer_factory.hpp:77] Creating layer conv5_2/sep/scale
I0825 10:18:40.586380 10411 net.cpp:150] Setting up conv5_2/sep/scale
I0825 10:18:40.586396 10411 net.cpp:157] Top shape: 16 512 19 19 (2957312)
I0825 10:18:40.586401 10411 net.cpp:165] Memory required for data: 2100273280
I0825 10:18:40.586410 10411 layer_factory.hpp:77] Creating layer conv5_2/sep_relu
I0825 10:18:40.586417 10411 net.cpp:100] Creating Layer conv5_2/sep_relu
I0825 10:18:40.586423 10411 net.cpp:434] conv5_2/sep_relu <- conv5_2/sep
I0825 10:18:40.586431 10411 net.cpp:395] conv5_2/sep_relu -> conv5_2/sep (in-place)
I0825 10:18:40.586984 10411 net.cpp:150] Setting up conv5_2/sep_relu
I0825 10:18:40.586995 10411 net.cpp:157] Top shape: 16 512 19 19 (2957312)
I0825 10:18:40.586999 10411 net.cpp:165] Memory required for data: 2112102528
I0825 10:18:40.587004 10411 layer_factory.hpp:77] Creating layer conv5_3/dw
I0825 10:18:40.587018 10411 net.cpp:100] Creating Layer conv5_3/dw
I0825 10:18:40.587023 10411 net.cpp:434] conv5_3/dw <- conv5_2/sep
I0825 10:18:40.587033 10411 net.cpp:408] conv5_3/dw -> conv5_3/dw
I0825 10:18:40.587241 10411 net.cpp:150] Setting up conv5_3/dw
I0825 10:18:40.587249 10411 net.cpp:157] Top shape: 16 512 19 19 (2957312)
I0825 10:18:40.587255 10411 net.cpp:165] Memory required for data: 2123931776
I0825 10:18:40.587260 10411 layer_factory.hpp:77] Creating layer conv5_3/dw/bn
I0825 10:18:40.587271 10411 net.cpp:100] Creating Layer conv5_3/dw/bn
I0825 10:18:40.587277 10411 net.cpp:434] conv5_3/dw/bn <- conv5_3/dw
I0825 10:18:40.587285 10411 net.cpp:395] conv5_3/dw/bn -> conv5_3/dw (in-place)
I0825 10:18:40.587451 10411 net.cpp:150] Setting up conv5_3/dw/bn
I0825 10:18:40.587458 10411 net.cpp:157] Top shape: 16 512 19 19 (2957312)
I0825 10:18:40.587463 10411 net.cpp:165] Memory required for data: 2135761024
I0825 10:18:40.587473 10411 layer_factory.hpp:77] Creating layer conv5_3/dw/scale
I0825 10:18:40.587483 10411 net.cpp:100] Creating Layer conv5_3/dw/scale
I0825 10:18:40.587489 10411 net.cpp:434] conv5_3/dw/scale <- conv5_3/dw
I0825 10:18:40.587497 10411 net.cpp:395] conv5_3/dw/scale -> conv5_3/dw (in-place)
I0825 10:18:40.587543 10411 layer_factory.hpp:77] Creating layer conv5_3/dw/scale
I0825 10:18:40.587643 10411 net.cpp:150] Setting up conv5_3/dw/scale
I0825 10:18:40.587651 10411 net.cpp:157] Top shape: 16 512 19 19 (2957312)
I0825 10:18:40.587656 10411 net.cpp:165] Memory required for data: 2147590272
I0825 10:18:40.587663 10411 layer_factory.hpp:77] Creating layer conv5_3/dw_relu
I0825 10:18:40.587677 10411 net.cpp:100] Creating Layer conv5_3/dw_relu
I0825 10:18:40.587683 10411 net.cpp:434] conv5_3/dw_relu <- conv5_3/dw
I0825 10:18:40.587690 10411 net.cpp:395] conv5_3/dw_relu -> conv5_3/dw (in-place)
I0825 10:18:40.588246 10411 net.cpp:150] Setting up conv5_3/dw_relu
I0825 10:18:40.588258 10411 net.cpp:157] Top shape: 16 512 19 19 (2957312)
I0825 10:18:40.588261 10411 net.cpp:165] Memory required for data: 2159419520
I0825 10:18:40.588266 10411 layer_factory.hpp:77] Creating layer conv5_3/sep
I0825 10:18:40.588279 10411 net.cpp:100] Creating Layer conv5_3/sep
I0825 10:18:40.588285 10411 net.cpp:434] conv5_3/sep <- conv5_3/dw
I0825 10:18:40.588294 10411 net.cpp:408] conv5_3/sep -> conv5_3/sep
I0825 10:18:40.591634 10411 net.cpp:150] Setting up conv5_3/sep
I0825 10:18:40.591645 10411 net.cpp:157] Top shape: 16 512 19 19 (2957312)
I0825 10:18:40.591647 10411 net.cpp:165] Memory required for data: 2171248768
I0825 10:18:40.591651 10411 layer_factory.hpp:77] Creating layer conv5_3/sep/bn
I0825 10:18:40.591656 10411 net.cpp:100] Creating Layer conv5_3/sep/bn
I0825 10:18:40.591660 10411 net.cpp:434] conv5_3/sep/bn <- conv5_3/sep
I0825 10:18:40.591672 10411 net.cpp:395] conv5_3/sep/bn -> conv5_3/sep (in-place)
I0825 10:18:40.591856 10411 net.cpp:150] Setting up conv5_3/sep/bn
I0825 10:18:40.591866 10411 net.cpp:157] Top shape: 16 512 19 19 (2957312)
I0825 10:18:40.591869 10411 net.cpp:165] Memory required for data: 2183078016
I0825 10:18:40.591879 10411 layer_factory.hpp:77] Creating layer conv5_3/sep/scale
I0825 10:18:40.591889 10411 net.cpp:100] Creating Layer conv5_3/sep/scale
I0825 10:18:40.591895 10411 net.cpp:434] conv5_3/sep/scale <- conv5_3/sep
I0825 10:18:40.591915 10411 net.cpp:395] conv5_3/sep/scale -> conv5_3/sep (in-place)
I0825 10:18:40.591965 10411 layer_factory.hpp:77] Creating layer conv5_3/sep/scale
I0825 10:18:40.592072 10411 net.cpp:150] Setting up conv5_3/sep/scale
I0825 10:18:40.592080 10411 net.cpp:157] Top shape: 16 512 19 19 (2957312)
I0825 10:18:40.592084 10411 net.cpp:165] Memory required for data: 2194907264
I0825 10:18:40.592092 10411 layer_factory.hpp:77] Creating layer conv5_3/sep_relu
I0825 10:18:40.592100 10411 net.cpp:100] Creating Layer conv5_3/sep_relu
I0825 10:18:40.592106 10411 net.cpp:434] conv5_3/sep_relu <- conv5_3/sep
I0825 10:18:40.592115 10411 net.cpp:395] conv5_3/sep_relu -> conv5_3/sep (in-place)
I0825 10:18:40.592674 10411 net.cpp:150] Setting up conv5_3/sep_relu
I0825 10:18:40.592684 10411 net.cpp:157] Top shape: 16 512 19 19 (2957312)
I0825 10:18:40.592686 10411 net.cpp:165] Memory required for data: 2206736512
I0825 10:18:40.592689 10411 layer_factory.hpp:77] Creating layer conv5_4/dw
I0825 10:18:40.592696 10411 net.cpp:100] Creating Layer conv5_4/dw
I0825 10:18:40.592700 10411 net.cpp:434] conv5_4/dw <- conv5_3/sep
I0825 10:18:40.592706 10411 net.cpp:408] conv5_4/dw -> conv5_4/dw
I0825 10:18:40.592919 10411 net.cpp:150] Setting up conv5_4/dw
I0825 10:18:40.592927 10411 net.cpp:157] Top shape: 16 512 19 19 (2957312)
I0825 10:18:40.592932 10411 net.cpp:165] Memory required for data: 2218565760
I0825 10:18:40.592938 10411 layer_factory.hpp:77] Creating layer conv5_4/dw/bn
I0825 10:18:40.592947 10411 net.cpp:100] Creating Layer conv5_4/dw/bn
I0825 10:18:40.592952 10411 net.cpp:434] conv5_4/dw/bn <- conv5_4/dw
I0825 10:18:40.592960 10411 net.cpp:395] conv5_4/dw/bn -> conv5_4/dw (in-place)
I0825 10:18:40.593130 10411 net.cpp:150] Setting up conv5_4/dw/bn
I0825 10:18:40.593137 10411 net.cpp:157] Top shape: 16 512 19 19 (2957312)
I0825 10:18:40.593142 10411 net.cpp:165] Memory required for data: 2230395008
I0825 10:18:40.593152 10411 layer_factory.hpp:77] Creating layer conv5_4/dw/scale
I0825 10:18:40.593160 10411 net.cpp:100] Creating Layer conv5_4/dw/scale
I0825 10:18:40.593166 10411 net.cpp:434] conv5_4/dw/scale <- conv5_4/dw
I0825 10:18:40.593174 10411 net.cpp:395] conv5_4/dw/scale -> conv5_4/dw (in-place)
I0825 10:18:40.593230 10411 layer_factory.hpp:77] Creating layer conv5_4/dw/scale
I0825 10:18:40.593333 10411 net.cpp:150] Setting up conv5_4/dw/scale
I0825 10:18:40.593341 10411 net.cpp:157] Top shape: 16 512 19 19 (2957312)
I0825 10:18:40.593346 10411 net.cpp:165] Memory required for data: 2242224256
I0825 10:18:40.593354 10411 layer_factory.hpp:77] Creating layer conv5_4/dw_relu
I0825 10:18:40.593363 10411 net.cpp:100] Creating Layer conv5_4/dw_relu
I0825 10:18:40.593369 10411 net.cpp:434] conv5_4/dw_relu <- conv5_4/dw
I0825 10:18:40.593375 10411 net.cpp:395] conv5_4/dw_relu -> conv5_4/dw (in-place)
I0825 10:18:40.593528 10411 net.cpp:150] Setting up conv5_4/dw_relu
I0825 10:18:40.593538 10411 net.cpp:157] Top shape: 16 512 19 19 (2957312)
I0825 10:18:40.593542 10411 net.cpp:165] Memory required for data: 2254053504
I0825 10:18:40.593547 10411 layer_factory.hpp:77] Creating layer conv5_4/sep
I0825 10:18:40.593559 10411 net.cpp:100] Creating Layer conv5_4/sep
I0825 10:18:40.593565 10411 net.cpp:434] conv5_4/sep <- conv5_4/dw
I0825 10:18:40.593575 10411 net.cpp:408] conv5_4/sep -> conv5_4/sep
I0825 10:18:40.597306 10411 net.cpp:150] Setting up conv5_4/sep
I0825 10:18:40.597317 10411 net.cpp:157] Top shape: 16 512 19 19 (2957312)
I0825 10:18:40.597322 10411 net.cpp:165] Memory required for data: 2265882752
I0825 10:18:40.597331 10411 layer_factory.hpp:77] Creating layer conv5_4/sep/bn
I0825 10:18:40.597340 10411 net.cpp:100] Creating Layer conv5_4/sep/bn
I0825 10:18:40.597347 10411 net.cpp:434] conv5_4/sep/bn <- conv5_4/sep
I0825 10:18:40.597354 10411 net.cpp:395] conv5_4/sep/bn -> conv5_4/sep (in-place)
I0825 10:18:40.597528 10411 net.cpp:150] Setting up conv5_4/sep/bn
I0825 10:18:40.597537 10411 net.cpp:157] Top shape: 16 512 19 19 (2957312)
I0825 10:18:40.597542 10411 net.cpp:165] Memory required for data: 2277712000
I0825 10:18:40.597563 10411 layer_factory.hpp:77] Creating layer conv5_4/sep/scale
I0825 10:18:40.597573 10411 net.cpp:100] Creating Layer conv5_4/sep/scale
I0825 10:18:40.597578 10411 net.cpp:434] conv5_4/sep/scale <- conv5_4/sep
I0825 10:18:40.597586 10411 net.cpp:395] conv5_4/sep/scale -> conv5_4/sep (in-place)
I0825 10:18:40.597637 10411 layer_factory.hpp:77] Creating layer conv5_4/sep/scale
I0825 10:18:40.597739 10411 net.cpp:150] Setting up conv5_4/sep/scale
I0825 10:18:40.597748 10411 net.cpp:157] Top shape: 16 512 19 19 (2957312)
I0825 10:18:40.597754 10411 net.cpp:165] Memory required for data: 2289541248
I0825 10:18:40.597761 10411 layer_factory.hpp:77] Creating layer conv5_4/sep_relu
I0825 10:18:40.597769 10411 net.cpp:100] Creating Layer conv5_4/sep_relu
I0825 10:18:40.597774 10411 net.cpp:434] conv5_4/sep_relu <- conv5_4/sep
I0825 10:18:40.597782 10411 net.cpp:395] conv5_4/sep_relu -> conv5_4/sep (in-place)
I0825 10:18:40.598341 10411 net.cpp:150] Setting up conv5_4/sep_relu
I0825 10:18:40.598351 10411 net.cpp:157] Top shape: 16 512 19 19 (2957312)
I0825 10:18:40.598356 10411 net.cpp:165] Memory required for data: 2301370496
I0825 10:18:40.598361 10411 layer_factory.hpp:77] Creating layer conv5_5/dw
I0825 10:18:40.598373 10411 net.cpp:100] Creating Layer conv5_5/dw
I0825 10:18:40.598381 10411 net.cpp:434] conv5_5/dw <- conv5_4/sep
I0825 10:18:40.598389 10411 net.cpp:408] conv5_5/dw -> conv5_5/dw
I0825 10:18:40.598595 10411 net.cpp:150] Setting up conv5_5/dw
I0825 10:18:40.598603 10411 net.cpp:157] Top shape: 16 512 19 19 (2957312)
I0825 10:18:40.598608 10411 net.cpp:165] Memory required for data: 2313199744
I0825 10:18:40.598614 10411 layer_factory.hpp:77] Creating layer conv5_5/dw/bn
I0825 10:18:40.598623 10411 net.cpp:100] Creating Layer conv5_5/dw/bn
I0825 10:18:40.598629 10411 net.cpp:434] conv5_5/dw/bn <- conv5_5/dw
I0825 10:18:40.598637 10411 net.cpp:395] conv5_5/dw/bn -> conv5_5/dw (in-place)
I0825 10:18:40.598811 10411 net.cpp:150] Setting up conv5_5/dw/bn
I0825 10:18:40.598819 10411 net.cpp:157] Top shape: 16 512 19 19 (2957312)
I0825 10:18:40.598824 10411 net.cpp:165] Memory required for data: 2325028992
I0825 10:18:40.598846 10411 layer_factory.hpp:77] Creating layer conv5_5/dw/scale
I0825 10:18:40.598853 10411 net.cpp:100] Creating Layer conv5_5/dw/scale
I0825 10:18:40.598858 10411 net.cpp:434] conv5_5/dw/scale <- conv5_5/dw
I0825 10:18:40.598867 10411 net.cpp:395] conv5_5/dw/scale -> conv5_5/dw (in-place)
I0825 10:18:40.598919 10411 layer_factory.hpp:77] Creating layer conv5_5/dw/scale
I0825 10:18:40.599025 10411 net.cpp:150] Setting up conv5_5/dw/scale
I0825 10:18:40.599032 10411 net.cpp:157] Top shape: 16 512 19 19 (2957312)
I0825 10:18:40.599035 10411 net.cpp:165] Memory required for data: 2336858240
I0825 10:18:40.599041 10411 layer_factory.hpp:77] Creating layer conv5_5/dw_relu
I0825 10:18:40.599048 10411 net.cpp:100] Creating Layer conv5_5/dw_relu
I0825 10:18:40.599054 10411 net.cpp:434] conv5_5/dw_relu <- conv5_5/dw
I0825 10:18:40.599062 10411 net.cpp:395] conv5_5/dw_relu -> conv5_5/dw (in-place)
I0825 10:18:40.599215 10411 net.cpp:150] Setting up conv5_5/dw_relu
I0825 10:18:40.599225 10411 net.cpp:157] Top shape: 16 512 19 19 (2957312)
I0825 10:18:40.599228 10411 net.cpp:165] Memory required for data: 2348687488
I0825 10:18:40.599233 10411 layer_factory.hpp:77] Creating layer conv5_5/sep
I0825 10:18:40.599244 10411 net.cpp:100] Creating Layer conv5_5/sep
I0825 10:18:40.599251 10411 net.cpp:434] conv5_5/sep <- conv5_5/dw
I0825 10:18:40.599258 10411 net.cpp:408] conv5_5/sep -> conv5_5/sep
I0825 10:18:40.602995 10411 net.cpp:150] Setting up conv5_5/sep
I0825 10:18:40.603006 10411 net.cpp:157] Top shape: 16 512 19 19 (2957312)
I0825 10:18:40.603008 10411 net.cpp:165] Memory required for data: 2360516736
I0825 10:18:40.603013 10411 layer_factory.hpp:77] Creating layer conv5_5/sep/bn
I0825 10:18:40.603018 10411 net.cpp:100] Creating Layer conv5_5/sep/bn
I0825 10:18:40.603022 10411 net.cpp:434] conv5_5/sep/bn <- conv5_5/sep
I0825 10:18:40.603029 10411 net.cpp:395] conv5_5/sep/bn -> conv5_5/sep (in-place)
I0825 10:18:40.603217 10411 net.cpp:150] Setting up conv5_5/sep/bn
I0825 10:18:40.603225 10411 net.cpp:157] Top shape: 16 512 19 19 (2957312)
I0825 10:18:40.603229 10411 net.cpp:165] Memory required for data: 2372345984
I0825 10:18:40.603238 10411 layer_factory.hpp:77] Creating layer conv5_5/sep/scale
I0825 10:18:40.603248 10411 net.cpp:100] Creating Layer conv5_5/sep/scale
I0825 10:18:40.603253 10411 net.cpp:434] conv5_5/sep/scale <- conv5_5/sep
I0825 10:18:40.603263 10411 net.cpp:395] conv5_5/sep/scale -> conv5_5/sep (in-place)
I0825 10:18:40.603317 10411 layer_factory.hpp:77] Creating layer conv5_5/sep/scale
I0825 10:18:40.603426 10411 net.cpp:150] Setting up conv5_5/sep/scale
I0825 10:18:40.603435 10411 net.cpp:157] Top shape: 16 512 19 19 (2957312)
I0825 10:18:40.603440 10411 net.cpp:165] Memory required for data: 2384175232
I0825 10:18:40.603447 10411 layer_factory.hpp:77] Creating layer conv5_5/sep_relu
I0825 10:18:40.603456 10411 net.cpp:100] Creating Layer conv5_5/sep_relu
I0825 10:18:40.603461 10411 net.cpp:434] conv5_5/sep_relu <- conv5_5/sep
I0825 10:18:40.603468 10411 net.cpp:395] conv5_5/sep_relu -> conv5_5/sep (in-place)
I0825 10:18:40.604045 10411 net.cpp:150] Setting up conv5_5/sep_relu
I0825 10:18:40.604056 10411 net.cpp:157] Top shape: 16 512 19 19 (2957312)
I0825 10:18:40.604061 10411 net.cpp:165] Memory required for data: 2396004480
I0825 10:18:40.604066 10411 layer_factory.hpp:77] Creating layer conv5_5/sep_conv5_5/sep_relu_0_split
I0825 10:18:40.604075 10411 net.cpp:100] Creating Layer conv5_5/sep_conv5_5/sep_relu_0_split
I0825 10:18:40.604081 10411 net.cpp:434] conv5_5/sep_conv5_5/sep_relu_0_split <- conv5_5/sep
I0825 10:18:40.604091 10411 net.cpp:408] conv5_5/sep_conv5_5/sep_relu_0_split -> conv5_5/sep_conv5_5/sep_relu_0_split_0
I0825 10:18:40.604107 10411 net.cpp:408] conv5_5/sep_conv5_5/sep_relu_0_split -> conv5_5/sep_conv5_5/sep_relu_0_split_1
I0825 10:18:40.604120 10411 net.cpp:408] conv5_5/sep_conv5_5/sep_relu_0_split -> conv5_5/sep_conv5_5/sep_relu_0_split_2
I0825 10:18:40.604130 10411 net.cpp:408] conv5_5/sep_conv5_5/sep_relu_0_split -> conv5_5/sep_conv5_5/sep_relu_0_split_3
I0825 10:18:40.604197 10411 net.cpp:150] Setting up conv5_5/sep_conv5_5/sep_relu_0_split
I0825 10:18:40.604204 10411 net.cpp:157] Top shape: 16 512 19 19 (2957312)
I0825 10:18:40.604210 10411 net.cpp:157] Top shape: 16 512 19 19 (2957312)
I0825 10:18:40.604216 10411 net.cpp:157] Top shape: 16 512 19 19 (2957312)
I0825 10:18:40.604223 10411 net.cpp:157] Top shape: 16 512 19 19 (2957312)
I0825 10:18:40.604226 10411 net.cpp:165] Memory required for data: 2443321472
I0825 10:18:40.604233 10411 layer_factory.hpp:77] Creating layer conv5_6/dw
I0825 10:18:40.604245 10411 net.cpp:100] Creating Layer conv5_6/dw
I0825 10:18:40.604251 10411 net.cpp:434] conv5_6/dw <- conv5_5/sep_conv5_5/sep_relu_0_split_0
I0825 10:18:40.604259 10411 net.cpp:408] conv5_6/dw -> conv5_6/dw
I0825 10:18:40.604460 10411 net.cpp:150] Setting up conv5_6/dw
I0825 10:18:40.604467 10411 net.cpp:157] Top shape: 16 512 10 10 (819200)
I0825 10:18:40.604471 10411 net.cpp:165] Memory required for data: 2446598272
I0825 10:18:40.604478 10411 layer_factory.hpp:77] Creating layer conv5_6/dw/bn
I0825 10:18:40.604488 10411 net.cpp:100] Creating Layer conv5_6/dw/bn
I0825 10:18:40.604495 10411 net.cpp:434] conv5_6/dw/bn <- conv5_6/dw
I0825 10:18:40.604501 10411 net.cpp:395] conv5_6/dw/bn -> conv5_6/dw (in-place)
I0825 10:18:40.604676 10411 net.cpp:150] Setting up conv5_6/dw/bn
I0825 10:18:40.604682 10411 net.cpp:157] Top shape: 16 512 10 10 (819200)
I0825 10:18:40.604687 10411 net.cpp:165] Memory required for data: 2449875072
I0825 10:18:40.604696 10411 layer_factory.hpp:77] Creating layer conv5_6/dw/scale
I0825 10:18:40.604707 10411 net.cpp:100] Creating Layer conv5_6/dw/scale
I0825 10:18:40.604712 10411 net.cpp:434] conv5_6/dw/scale <- conv5_6/dw
I0825 10:18:40.604720 10411 net.cpp:395] conv5_6/dw/scale -> conv5_6/dw (in-place)
I0825 10:18:40.604768 10411 layer_factory.hpp:77] Creating layer conv5_6/dw/scale
I0825 10:18:40.604877 10411 net.cpp:150] Setting up conv5_6/dw/scale
I0825 10:18:40.604893 10411 net.cpp:157] Top shape: 16 512 10 10 (819200)
I0825 10:18:40.604898 10411 net.cpp:165] Memory required for data: 2453151872
I0825 10:18:40.604907 10411 layer_factory.hpp:77] Creating layer conv5_6/dw_relu
I0825 10:18:40.604917 10411 net.cpp:100] Creating Layer conv5_6/dw_relu
I0825 10:18:40.604923 10411 net.cpp:434] conv5_6/dw_relu <- conv5_6/dw
I0825 10:18:40.604930 10411 net.cpp:395] conv5_6/dw_relu -> conv5_6/dw (in-place)
I0825 10:18:40.605481 10411 net.cpp:150] Setting up conv5_6/dw_relu
I0825 10:18:40.605491 10411 net.cpp:157] Top shape: 16 512 10 10 (819200)
I0825 10:18:40.605496 10411 net.cpp:165] Memory required for data: 2456428672
I0825 10:18:40.605500 10411 layer_factory.hpp:77] Creating layer conv5_6/sep
I0825 10:18:40.605512 10411 net.cpp:100] Creating Layer conv5_6/sep
I0825 10:18:40.605518 10411 net.cpp:434] conv5_6/sep <- conv5_6/dw
I0825 10:18:40.605530 10411 net.cpp:408] conv5_6/sep -> conv5_6/sep
I0825 10:18:40.611457 10411 net.cpp:150] Setting up conv5_6/sep
I0825 10:18:40.611469 10411 net.cpp:157] Top shape: 16 1024 10 10 (1638400)
I0825 10:18:40.611474 10411 net.cpp:165] Memory required for data: 2462982272
I0825 10:18:40.611482 10411 layer_factory.hpp:77] Creating layer conv5_6/sep/bn
I0825 10:18:40.611490 10411 net.cpp:100] Creating Layer conv5_6/sep/bn
I0825 10:18:40.611496 10411 net.cpp:434] conv5_6/sep/bn <- conv5_6/sep
I0825 10:18:40.611506 10411 net.cpp:395] conv5_6/sep/bn -> conv5_6/sep (in-place)
I0825 10:18:40.611690 10411 net.cpp:150] Setting up conv5_6/sep/bn
I0825 10:18:40.611697 10411 net.cpp:157] Top shape: 16 1024 10 10 (1638400)
I0825 10:18:40.611699 10411 net.cpp:165] Memory required for data: 2469535872
I0825 10:18:40.611704 10411 layer_factory.hpp:77] Creating layer conv5_6/sep/scale
I0825 10:18:40.611711 10411 net.cpp:100] Creating Layer conv5_6/sep/scale
I0825 10:18:40.611716 10411 net.cpp:434] conv5_6/sep/scale <- conv5_6/sep
I0825 10:18:40.611724 10411 net.cpp:395] conv5_6/sep/scale -> conv5_6/sep (in-place)
I0825 10:18:40.611769 10411 layer_factory.hpp:77] Creating layer conv5_6/sep/scale
I0825 10:18:40.611877 10411 net.cpp:150] Setting up conv5_6/sep/scale
I0825 10:18:40.611886 10411 net.cpp:157] Top shape: 16 1024 10 10 (1638400)
I0825 10:18:40.611889 10411 net.cpp:165] Memory required for data: 2476089472
I0825 10:18:40.611897 10411 layer_factory.hpp:77] Creating layer conv5_6/sep_relu
I0825 10:18:40.611905 10411 net.cpp:100] Creating Layer conv5_6/sep_relu
I0825 10:18:40.611912 10411 net.cpp:434] conv5_6/sep_relu <- conv5_6/sep
I0825 10:18:40.611919 10411 net.cpp:395] conv5_6/sep_relu -> conv5_6/sep (in-place)
I0825 10:18:40.612073 10411 net.cpp:150] Setting up conv5_6/sep_relu
I0825 10:18:40.612082 10411 net.cpp:157] Top shape: 16 1024 10 10 (1638400)
I0825 10:18:40.612087 10411 net.cpp:165] Memory required for data: 2482643072
I0825 10:18:40.612092 10411 layer_factory.hpp:77] Creating layer conv6/dw
I0825 10:18:40.612102 10411 net.cpp:100] Creating Layer conv6/dw
I0825 10:18:40.612109 10411 net.cpp:434] conv6/dw <- conv5_6/sep
I0825 10:18:40.612119 10411 net.cpp:408] conv6/dw -> conv6/dw
I0825 10:18:40.612366 10411 net.cpp:150] Setting up conv6/dw
I0825 10:18:40.612375 10411 net.cpp:157] Top shape: 16 1024 10 10 (1638400)
I0825 10:18:40.612378 10411 net.cpp:165] Memory required for data: 2489196672
I0825 10:18:40.612385 10411 layer_factory.hpp:77] Creating layer conv6/dw/bn
I0825 10:18:40.612392 10411 net.cpp:100] Creating Layer conv6/dw/bn
I0825 10:18:40.612398 10411 net.cpp:434] conv6/dw/bn <- conv6/dw
I0825 10:18:40.612407 10411 net.cpp:395] conv6/dw/bn -> conv6/dw (in-place)
I0825 10:18:40.612581 10411 net.cpp:150] Setting up conv6/dw/bn
I0825 10:18:40.612587 10411 net.cpp:157] Top shape: 16 1024 10 10 (1638400)
I0825 10:18:40.612592 10411 net.cpp:165] Memory required for data: 2495750272
I0825 10:18:40.612601 10411 layer_factory.hpp:77] Creating layer conv6/dw/scale
I0825 10:18:40.612609 10411 net.cpp:100] Creating Layer conv6/dw/scale
I0825 10:18:40.612615 10411 net.cpp:434] conv6/dw/scale <- conv6/dw
I0825 10:18:40.612637 10411 net.cpp:395] conv6/dw/scale -> conv6/dw (in-place)
I0825 10:18:40.612681 10411 layer_factory.hpp:77] Creating layer conv6/dw/scale
I0825 10:18:40.612789 10411 net.cpp:150] Setting up conv6/dw/scale
I0825 10:18:40.612797 10411 net.cpp:157] Top shape: 16 1024 10 10 (1638400)
I0825 10:18:40.612802 10411 net.cpp:165] Memory required for data: 2502303872
I0825 10:18:40.612808 10411 layer_factory.hpp:77] Creating layer conv6/dw_relu
I0825 10:18:40.612817 10411 net.cpp:100] Creating Layer conv6/dw_relu
I0825 10:18:40.612821 10411 net.cpp:434] conv6/dw_relu <- conv6/dw
I0825 10:18:40.612830 10411 net.cpp:395] conv6/dw_relu -> conv6/dw (in-place)
I0825 10:18:40.613386 10411 net.cpp:150] Setting up conv6/dw_relu
I0825 10:18:40.613396 10411 net.cpp:157] Top shape: 16 1024 10 10 (1638400)
I0825 10:18:40.613401 10411 net.cpp:165] Memory required for data: 2508857472
I0825 10:18:40.613406 10411 layer_factory.hpp:77] Creating layer conv6/sep
I0825 10:18:40.613418 10411 net.cpp:100] Creating Layer conv6/sep
I0825 10:18:40.613425 10411 net.cpp:434] conv6/sep <- conv6/dw
I0825 10:18:40.613435 10411 net.cpp:408] conv6/sep -> conv6/sep
I0825 10:18:40.623659 10411 net.cpp:150] Setting up conv6/sep
I0825 10:18:40.623674 10411 net.cpp:157] Top shape: 16 1024 10 10 (1638400)
I0825 10:18:40.623679 10411 net.cpp:165] Memory required for data: 2515411072
I0825 10:18:40.623687 10411 layer_factory.hpp:77] Creating layer conv6/sep/bn
I0825 10:18:40.623697 10411 net.cpp:100] Creating Layer conv6/sep/bn
I0825 10:18:40.623703 10411 net.cpp:434] conv6/sep/bn <- conv6/sep
I0825 10:18:40.623713 10411 net.cpp:395] conv6/sep/bn -> conv6/sep (in-place)
I0825 10:18:40.623894 10411 net.cpp:150] Setting up conv6/sep/bn
I0825 10:18:40.623901 10411 net.cpp:157] Top shape: 16 1024 10 10 (1638400)
I0825 10:18:40.623906 10411 net.cpp:165] Memory required for data: 2521964672
I0825 10:18:40.623915 10411 layer_factory.hpp:77] Creating layer conv6/sep/scale
I0825 10:18:40.623925 10411 net.cpp:100] Creating Layer conv6/sep/scale
I0825 10:18:40.623932 10411 net.cpp:434] conv6/sep/scale <- conv6/sep
I0825 10:18:40.623939 10411 net.cpp:395] conv6/sep/scale -> conv6/sep (in-place)
I0825 10:18:40.623986 10411 layer_factory.hpp:77] Creating layer conv6/sep/scale
I0825 10:18:40.624094 10411 net.cpp:150] Setting up conv6/sep/scale
I0825 10:18:40.624102 10411 net.cpp:157] Top shape: 16 1024 10 10 (1638400)
I0825 10:18:40.624106 10411 net.cpp:165] Memory required for data: 2528518272
I0825 10:18:40.624114 10411 layer_factory.hpp:77] Creating layer conv6/sep_relu
I0825 10:18:40.624124 10411 net.cpp:100] Creating Layer conv6/sep_relu
I0825 10:18:40.624130 10411 net.cpp:434] conv6/sep_relu <- conv6/sep
I0825 10:18:40.624137 10411 net.cpp:395] conv6/sep_relu -> conv6/sep (in-place)
I0825 10:18:40.624287 10411 net.cpp:150] Setting up conv6/sep_relu
I0825 10:18:40.624296 10411 net.cpp:157] Top shape: 16 1024 10 10 (1638400)
I0825 10:18:40.624300 10411 net.cpp:165] Memory required for data: 2535071872
I0825 10:18:40.624305 10411 layer_factory.hpp:77] Creating layer conv6/sep_conv6/sep_relu_0_split
I0825 10:18:40.624316 10411 net.cpp:100] Creating Layer conv6/sep_conv6/sep_relu_0_split
I0825 10:18:40.624322 10411 net.cpp:434] conv6/sep_conv6/sep_relu_0_split <- conv6/sep
I0825 10:18:40.624331 10411 net.cpp:408] conv6/sep_conv6/sep_relu_0_split -> conv6/sep_conv6/sep_relu_0_split_0
I0825 10:18:40.624341 10411 net.cpp:408] conv6/sep_conv6/sep_relu_0_split -> conv6/sep_conv6/sep_relu_0_split_1
I0825 10:18:40.624352 10411 net.cpp:408] conv6/sep_conv6/sep_relu_0_split -> conv6/sep_conv6/sep_relu_0_split_2
I0825 10:18:40.624361 10411 net.cpp:408] conv6/sep_conv6/sep_relu_0_split -> conv6/sep_conv6/sep_relu_0_split_3
I0825 10:18:40.624429 10411 net.cpp:150] Setting up conv6/sep_conv6/sep_relu_0_split
I0825 10:18:40.624436 10411 net.cpp:157] Top shape: 16 1024 10 10 (1638400)
I0825 10:18:40.624442 10411 net.cpp:157] Top shape: 16 1024 10 10 (1638400)
I0825 10:18:40.624449 10411 net.cpp:157] Top shape: 16 1024 10 10 (1638400)
I0825 10:18:40.624454 10411 net.cpp:157] Top shape: 16 1024 10 10 (1638400)
I0825 10:18:40.624469 10411 net.cpp:165] Memory required for data: 2561286272
I0825 10:18:40.624474 10411 layer_factory.hpp:77] Creating layer conv7_1
I0825 10:18:40.624486 10411 net.cpp:100] Creating Layer conv7_1
I0825 10:18:40.624492 10411 net.cpp:434] conv7_1 <- conv6/sep_conv6/sep_relu_0_split_0
I0825 10:18:40.624502 10411 net.cpp:408] conv7_1 -> conv7_1
I0825 10:18:40.627426 10411 net.cpp:150] Setting up conv7_1
I0825 10:18:40.627437 10411 net.cpp:157] Top shape: 16 256 10 10 (409600)
I0825 10:18:40.627439 10411 net.cpp:165] Memory required for data: 2562924672
I0825 10:18:40.627444 10411 layer_factory.hpp:77] Creating layer conv7_1_relu
I0825 10:18:40.627449 10411 net.cpp:100] Creating Layer conv7_1_relu
I0825 10:18:40.627452 10411 net.cpp:434] conv7_1_relu <- conv7_1
I0825 10:18:40.627455 10411 net.cpp:395] conv7_1_relu -> conv7_1 (in-place)
I0825 10:18:40.628008 10411 net.cpp:150] Setting up conv7_1_relu
I0825 10:18:40.628020 10411 net.cpp:157] Top shape: 16 256 10 10 (409600)
I0825 10:18:40.628021 10411 net.cpp:165] Memory required for data: 2564563072
I0825 10:18:40.628023 10411 layer_factory.hpp:77] Creating layer conv7_2
I0825 10:18:40.628031 10411 net.cpp:100] Creating Layer conv7_2
I0825 10:18:40.628034 10411 net.cpp:434] conv7_2 <- conv7_1
I0825 10:18:40.628039 10411 net.cpp:408] conv7_2 -> conv7_2
I0825 10:18:40.635068 10411 net.cpp:150] Setting up conv7_2
I0825 10:18:40.635083 10411 net.cpp:157] Top shape: 16 512 5 5 (204800)
I0825 10:18:40.635087 10411 net.cpp:165] Memory required for data: 2565382272
I0825 10:18:40.635093 10411 layer_factory.hpp:77] Creating layer conv7_2_relu
I0825 10:18:40.635102 10411 net.cpp:100] Creating Layer conv7_2_relu
I0825 10:18:40.635107 10411 net.cpp:434] conv7_2_relu <- conv7_2
I0825 10:18:40.635116 10411 net.cpp:395] conv7_2_relu -> conv7_2 (in-place)
I0825 10:18:40.635687 10411 net.cpp:150] Setting up conv7_2_relu
I0825 10:18:40.635699 10411 net.cpp:157] Top shape: 16 512 5 5 (204800)
I0825 10:18:40.635700 10411 net.cpp:165] Memory required for data: 2566201472
I0825 10:18:40.635702 10411 layer_factory.hpp:77] Creating layer conv7_2_conv7_2_relu_0_split
I0825 10:18:40.635710 10411 net.cpp:100] Creating Layer conv7_2_conv7_2_relu_0_split
I0825 10:18:40.635711 10411 net.cpp:434] conv7_2_conv7_2_relu_0_split <- conv7_2
I0825 10:18:40.635716 10411 net.cpp:408] conv7_2_conv7_2_relu_0_split -> conv7_2_conv7_2_relu_0_split_0
I0825 10:18:40.635722 10411 net.cpp:408] conv7_2_conv7_2_relu_0_split -> conv7_2_conv7_2_relu_0_split_1
I0825 10:18:40.635726 10411 net.cpp:408] conv7_2_conv7_2_relu_0_split -> conv7_2_conv7_2_relu_0_split_2
I0825 10:18:40.635730 10411 net.cpp:408] conv7_2_conv7_2_relu_0_split -> conv7_2_conv7_2_relu_0_split_3
I0825 10:18:40.635807 10411 net.cpp:150] Setting up conv7_2_conv7_2_relu_0_split
I0825 10:18:40.635817 10411 net.cpp:157] Top shape: 16 512 5 5 (204800)
I0825 10:18:40.635823 10411 net.cpp:157] Top shape: 16 512 5 5 (204800)
I0825 10:18:40.635828 10411 net.cpp:157] Top shape: 16 512 5 5 (204800)
I0825 10:18:40.635834 10411 net.cpp:157] Top shape: 16 512 5 5 (204800)
I0825 10:18:40.635839 10411 net.cpp:165] Memory required for data: 2569478272
I0825 10:18:40.635844 10411 layer_factory.hpp:77] Creating layer conv8_1
I0825 10:18:40.635857 10411 net.cpp:100] Creating Layer conv8_1
I0825 10:18:40.635864 10411 net.cpp:434] conv8_1 <- conv7_2_conv7_2_relu_0_split_0
I0825 10:18:40.635872 10411 net.cpp:408] conv8_1 -> conv8_1
I0825 10:18:40.637648 10411 net.cpp:150] Setting up conv8_1
I0825 10:18:40.637660 10411 net.cpp:157] Top shape: 16 128 5 5 (51200)
I0825 10:18:40.637665 10411 net.cpp:165] Memory required for data: 2569683072
I0825 10:18:40.637675 10411 layer_factory.hpp:77] Creating layer conv8_1_relu
I0825 10:18:40.637683 10411 net.cpp:100] Creating Layer conv8_1_relu
I0825 10:18:40.637688 10411 net.cpp:434] conv8_1_relu <- conv8_1
I0825 10:18:40.637696 10411 net.cpp:395] conv8_1_relu -> conv8_1 (in-place)
I0825 10:18:40.637848 10411 net.cpp:150] Setting up conv8_1_relu
I0825 10:18:40.637856 10411 net.cpp:157] Top shape: 16 128 5 5 (51200)
I0825 10:18:40.637881 10411 net.cpp:165] Memory required for data: 2569887872
I0825 10:18:40.637887 10411 layer_factory.hpp:77] Creating layer conv8_2
I0825 10:18:40.637902 10411 net.cpp:100] Creating Layer conv8_2
I0825 10:18:40.637907 10411 net.cpp:434] conv8_2 <- conv8_1
I0825 10:18:40.637915 10411 net.cpp:408] conv8_2 -> conv8_2
I0825 10:18:40.641027 10411 net.cpp:150] Setting up conv8_2
I0825 10:18:40.641037 10411 net.cpp:157] Top shape: 16 256 3 3 (36864)
I0825 10:18:40.641042 10411 net.cpp:165] Memory required for data: 2570035328
I0825 10:18:40.641050 10411 layer_factory.hpp:77] Creating layer conv8_2_relu
I0825 10:18:40.641058 10411 net.cpp:100] Creating Layer conv8_2_relu
I0825 10:18:40.641064 10411 net.cpp:434] conv8_2_relu <- conv8_2
I0825 10:18:40.641074 10411 net.cpp:395] conv8_2_relu -> conv8_2 (in-place)
I0825 10:18:40.641633 10411 net.cpp:150] Setting up conv8_2_relu
I0825 10:18:40.641644 10411 net.cpp:157] Top shape: 16 256 3 3 (36864)
I0825 10:18:40.641649 10411 net.cpp:165] Memory required for data: 2570182784
I0825 10:18:40.641654 10411 layer_factory.hpp:77] Creating layer conv8_2_conv8_2_relu_0_split
I0825 10:18:40.641664 10411 net.cpp:100] Creating Layer conv8_2_conv8_2_relu_0_split
I0825 10:18:40.641669 10411 net.cpp:434] conv8_2_conv8_2_relu_0_split <- conv8_2
I0825 10:18:40.641679 10411 net.cpp:408] conv8_2_conv8_2_relu_0_split -> conv8_2_conv8_2_relu_0_split_0
I0825 10:18:40.641690 10411 net.cpp:408] conv8_2_conv8_2_relu_0_split -> conv8_2_conv8_2_relu_0_split_1
I0825 10:18:40.641701 10411 net.cpp:408] conv8_2_conv8_2_relu_0_split -> conv8_2_conv8_2_relu_0_split_2
I0825 10:18:40.641710 10411 net.cpp:408] conv8_2_conv8_2_relu_0_split -> conv8_2_conv8_2_relu_0_split_3
I0825 10:18:40.641784 10411 net.cpp:150] Setting up conv8_2_conv8_2_relu_0_split
I0825 10:18:40.641793 10411 net.cpp:157] Top shape: 16 256 3 3 (36864)
I0825 10:18:40.641798 10411 net.cpp:157] Top shape: 16 256 3 3 (36864)
I0825 10:18:40.641805 10411 net.cpp:157] Top shape: 16 256 3 3 (36864)
I0825 10:18:40.641810 10411 net.cpp:157] Top shape: 16 256 3 3 (36864)
I0825 10:18:40.641815 10411 net.cpp:165] Memory required for data: 2570772608
I0825 10:18:40.641820 10411 layer_factory.hpp:77] Creating layer conv9_1
I0825 10:18:40.641834 10411 net.cpp:100] Creating Layer conv9_1
I0825 10:18:40.641839 10411 net.cpp:434] conv9_1 <- conv8_2_conv8_2_relu_0_split_0
I0825 10:18:40.641849 10411 net.cpp:408] conv9_1 -> conv9_1
I0825 10:18:40.643074 10411 net.cpp:150] Setting up conv9_1
I0825 10:18:40.643087 10411 net.cpp:157] Top shape: 16 128 3 3 (18432)
I0825 10:18:40.643091 10411 net.cpp:165] Memory required for data: 2570846336
I0825 10:18:40.643100 10411 layer_factory.hpp:77] Creating layer conv9_1_relu
I0825 10:18:40.643108 10411 net.cpp:100] Creating Layer conv9_1_relu
I0825 10:18:40.643115 10411 net.cpp:434] conv9_1_relu <- conv9_1
I0825 10:18:40.643121 10411 net.cpp:395] conv9_1_relu -> conv9_1 (in-place)
I0825 10:18:40.643687 10411 net.cpp:150] Setting up conv9_1_relu
I0825 10:18:40.643697 10411 net.cpp:157] Top shape: 16 128 3 3 (18432)
I0825 10:18:40.643698 10411 net.cpp:165] Memory required for data: 2570920064
I0825 10:18:40.643700 10411 layer_factory.hpp:77] Creating layer conv9_2
I0825 10:18:40.643708 10411 net.cpp:100] Creating Layer conv9_2
I0825 10:18:40.643713 10411 net.cpp:434] conv9_2 <- conv9_1
I0825 10:18:40.643723 10411 net.cpp:408] conv9_2 -> conv9_2
I0825 10:18:40.647208 10411 net.cpp:150] Setting up conv9_2
I0825 10:18:40.647222 10411 net.cpp:157] Top shape: 16 256 2 2 (16384)
I0825 10:18:40.647227 10411 net.cpp:165] Memory required for data: 2570985600
I0825 10:18:40.647234 10411 layer_factory.hpp:77] Creating layer conv9_2_relu
I0825 10:18:40.647243 10411 net.cpp:100] Creating Layer conv9_2_relu
I0825 10:18:40.647249 10411 net.cpp:434] conv9_2_relu <- conv9_2
I0825 10:18:40.647256 10411 net.cpp:395] conv9_2_relu -> conv9_2 (in-place)
I0825 10:18:40.647418 10411 net.cpp:150] Setting up conv9_2_relu
I0825 10:18:40.647425 10411 net.cpp:157] Top shape: 16 256 2 2 (16384)
I0825 10:18:40.647429 10411 net.cpp:165] Memory required for data: 2571051136
I0825 10:18:40.647445 10411 layer_factory.hpp:77] Creating layer conv9_2_conv9_2_relu_0_split
I0825 10:18:40.647456 10411 net.cpp:100] Creating Layer conv9_2_conv9_2_relu_0_split
I0825 10:18:40.647464 10411 net.cpp:434] conv9_2_conv9_2_relu_0_split <- conv9_2
I0825 10:18:40.647471 10411 net.cpp:408] conv9_2_conv9_2_relu_0_split -> conv9_2_conv9_2_relu_0_split_0
I0825 10:18:40.647483 10411 net.cpp:408] conv9_2_conv9_2_relu_0_split -> conv9_2_conv9_2_relu_0_split_1
I0825 10:18:40.647493 10411 net.cpp:408] conv9_2_conv9_2_relu_0_split -> conv9_2_conv9_2_relu_0_split_2
I0825 10:18:40.647502 10411 net.cpp:408] conv9_2_conv9_2_relu_0_split -> conv9_2_conv9_2_relu_0_split_3
I0825 10:18:40.647577 10411 net.cpp:150] Setting up conv9_2_conv9_2_relu_0_split
I0825 10:18:40.647585 10411 net.cpp:157] Top shape: 16 256 2 2 (16384)
I0825 10:18:40.647591 10411 net.cpp:157] Top shape: 16 256 2 2 (16384)
I0825 10:18:40.647598 10411 net.cpp:157] Top shape: 16 256 2 2 (16384)
I0825 10:18:40.647604 10411 net.cpp:157] Top shape: 16 256 2 2 (16384)
I0825 10:18:40.647609 10411 net.cpp:165] Memory required for data: 2571313280
I0825 10:18:40.647614 10411 layer_factory.hpp:77] Creating layer conv10_1
I0825 10:18:40.647627 10411 net.cpp:100] Creating Layer conv10_1
I0825 10:18:40.647634 10411 net.cpp:434] conv10_1 <- conv9_2_conv9_2_relu_0_split_0
I0825 10:18:40.647646 10411 net.cpp:408] conv10_1 -> conv10_1
I0825 10:18:40.649279 10411 net.cpp:150] Setting up conv10_1
I0825 10:18:40.649289 10411 net.cpp:157] Top shape: 16 128 2 2 (8192)
I0825 10:18:40.649293 10411 net.cpp:165] Memory required for data: 2571346048
I0825 10:18:40.649299 10411 layer_factory.hpp:77] Creating layer conv10_1_relu
I0825 10:18:40.649324 10411 net.cpp:100] Creating Layer conv10_1_relu
I0825 10:18:40.649333 10411 net.cpp:434] conv10_1_relu <- conv10_1
I0825 10:18:40.649339 10411 net.cpp:395] conv10_1_relu -> conv10_1 (in-place)
I0825 10:18:40.649904 10411 net.cpp:150] Setting up conv10_1_relu
I0825 10:18:40.649914 10411 net.cpp:157] Top shape: 16 128 2 2 (8192)
I0825 10:18:40.649919 10411 net.cpp:165] Memory required for data: 2571378816
I0825 10:18:40.649925 10411 layer_factory.hpp:77] Creating layer conv10_2
I0825 10:18:40.649937 10411 net.cpp:100] Creating Layer conv10_2
I0825 10:18:40.649945 10411 net.cpp:434] conv10_2 <- conv10_1
I0825 10:18:40.649955 10411 net.cpp:408] conv10_2 -> conv10_2
I0825 10:18:40.652675 10411 net.cpp:150] Setting up conv10_2
I0825 10:18:40.652686 10411 net.cpp:157] Top shape: 16 256 1 1 (4096)
I0825 10:18:40.652688 10411 net.cpp:165] Memory required for data: 2571395200
I0825 10:18:40.652693 10411 layer_factory.hpp:77] Creating layer conv10_2_relu
I0825 10:18:40.652698 10411 net.cpp:100] Creating Layer conv10_2_relu
I0825 10:18:40.652700 10411 net.cpp:434] conv10_2_relu <- conv10_2
I0825 10:18:40.652706 10411 net.cpp:395] conv10_2_relu -> conv10_2 (in-place)
I0825 10:18:40.653267 10411 net.cpp:150] Setting up conv10_2_relu
I0825 10:18:40.653277 10411 net.cpp:157] Top shape: 16 256 1 1 (4096)
I0825 10:18:40.653280 10411 net.cpp:165] Memory required for data: 2571411584
I0825 10:18:40.653281 10411 layer_factory.hpp:77] Creating layer conv10_2_conv10_2_relu_0_split
I0825 10:18:40.653287 10411 net.cpp:100] Creating Layer conv10_2_conv10_2_relu_0_split
I0825 10:18:40.653290 10411 net.cpp:434] conv10_2_conv10_2_relu_0_split <- conv10_2
I0825 10:18:40.653295 10411 net.cpp:408] conv10_2_conv10_2_relu_0_split -> conv10_2_conv10_2_relu_0_split_0
I0825 10:18:40.653313 10411 net.cpp:408] conv10_2_conv10_2_relu_0_split -> conv10_2_conv10_2_relu_0_split_1
I0825 10:18:40.653324 10411 net.cpp:408] conv10_2_conv10_2_relu_0_split -> conv10_2_conv10_2_relu_0_split_2
I0825 10:18:40.653389 10411 net.cpp:150] Setting up conv10_2_conv10_2_relu_0_split
I0825 10:18:40.653398 10411 net.cpp:157] Top shape: 16 256 1 1 (4096)
I0825 10:18:40.653401 10411 net.cpp:157] Top shape: 16 256 1 1 (4096)
I0825 10:18:40.653408 10411 net.cpp:157] Top shape: 16 256 1 1 (4096)
I0825 10:18:40.653412 10411 net.cpp:165] Memory required for data: 2571460736
I0825 10:18:40.653430 10411 layer_factory.hpp:77] Creating layer conv5_5/sep_mbox_loc
I0825 10:18:40.653445 10411 net.cpp:100] Creating Layer conv5_5/sep_mbox_loc
I0825 10:18:40.653450 10411 net.cpp:434] conv5_5/sep_mbox_loc <- conv5_5/sep_conv5_5/sep_relu_0_split_1
I0825 10:18:40.653461 10411 net.cpp:408] conv5_5/sep_mbox_loc -> conv5_5/sep_mbox_loc
I0825 10:18:40.655596 10411 net.cpp:150] Setting up conv5_5/sep_mbox_loc
I0825 10:18:40.655607 10411 net.cpp:157] Top shape: 16 12 19 19 (69312)
I0825 10:18:40.655609 10411 net.cpp:165] Memory required for data: 2571737984
I0825 10:18:40.655614 10411 layer_factory.hpp:77] Creating layer conv5_5/sep_mbox_loc_perm
I0825 10:18:40.655622 10411 net.cpp:100] Creating Layer conv5_5/sep_mbox_loc_perm
I0825 10:18:40.655627 10411 net.cpp:434] conv5_5/sep_mbox_loc_perm <- conv5_5/sep_mbox_loc
I0825 10:18:40.655635 10411 net.cpp:408] conv5_5/sep_mbox_loc_perm -> conv5_5/sep_mbox_loc_perm
I0825 10:18:40.655755 10411 net.cpp:150] Setting up conv5_5/sep_mbox_loc_perm
I0825 10:18:40.655763 10411 net.cpp:157] Top shape: 16 19 19 12 (69312)
I0825 10:18:40.655767 10411 net.cpp:165] Memory required for data: 2572015232
I0825 10:18:40.655772 10411 layer_factory.hpp:77] Creating layer conv5_5/sep_mbox_loc_flat
I0825 10:18:40.655783 10411 net.cpp:100] Creating Layer conv5_5/sep_mbox_loc_flat
I0825 10:18:40.655789 10411 net.cpp:434] conv5_5/sep_mbox_loc_flat <- conv5_5/sep_mbox_loc_perm
I0825 10:18:40.655797 10411 net.cpp:408] conv5_5/sep_mbox_loc_flat -> conv5_5/sep_mbox_loc_flat
I0825 10:18:40.655835 10411 net.cpp:150] Setting up conv5_5/sep_mbox_loc_flat
I0825 10:18:40.655841 10411 net.cpp:157] Top shape: 16 4332 (69312)
I0825 10:18:40.655845 10411 net.cpp:165] Memory required for data: 2572292480
I0825 10:18:40.655850 10411 layer_factory.hpp:77] Creating layer conv5_5/sep_mbox_conf
I0825 10:18:40.655863 10411 net.cpp:100] Creating Layer conv5_5/sep_mbox_conf
I0825 10:18:40.655869 10411 net.cpp:434] conv5_5/sep_mbox_conf <- conv5_5/sep_conv5_5/sep_relu_0_split_2
I0825 10:18:40.655879 10411 net.cpp:408] conv5_5/sep_mbox_conf -> conv5_5/sep_mbox_conf
I0825 10:18:40.658391 10411 net.cpp:150] Setting up conv5_5/sep_mbox_conf
I0825 10:18:40.658403 10411 net.cpp:157] Top shape: 16 12 19 19 (69312)
I0825 10:18:40.658407 10411 net.cpp:165] Memory required for data: 2572569728
I0825 10:18:40.658416 10411 layer_factory.hpp:77] Creating layer conv5_5/sep_mbox_conf_perm
I0825 10:18:40.658427 10411 net.cpp:100] Creating Layer conv5_5/sep_mbox_conf_perm
I0825 10:18:40.658432 10411 net.cpp:434] conv5_5/sep_mbox_conf_perm <- conv5_5/sep_mbox_conf
I0825 10:18:40.658440 10411 net.cpp:408] conv5_5/sep_mbox_conf_perm -> conv5_5/sep_mbox_conf_perm
I0825 10:18:40.658547 10411 net.cpp:150] Setting up conv5_5/sep_mbox_conf_perm
I0825 10:18:40.658555 10411 net.cpp:157] Top shape: 16 19 19 12 (69312)
I0825 10:18:40.658557 10411 net.cpp:165] Memory required for data: 2572846976
I0825 10:18:40.658560 10411 layer_factory.hpp:77] Creating layer conv5_5/sep_mbox_conf_flat
I0825 10:18:40.658565 10411 net.cpp:100] Creating Layer conv5_5/sep_mbox_conf_flat
I0825 10:18:40.658566 10411 net.cpp:434] conv5_5/sep_mbox_conf_flat <- conv5_5/sep_mbox_conf_perm
I0825 10:18:40.658573 10411 net.cpp:408] conv5_5/sep_mbox_conf_flat -> conv5_5/sep_mbox_conf_flat
I0825 10:18:40.658610 10411 net.cpp:150] Setting up conv5_5/sep_mbox_conf_flat
I0825 10:18:40.658617 10411 net.cpp:157] Top shape: 16 4332 (69312)
I0825 10:18:40.658620 10411 net.cpp:165] Memory required for data: 2573124224
I0825 10:18:40.658624 10411 layer_factory.hpp:77] Creating layer conv5_5/sep_mbox_priorbox
I0825 10:18:40.658634 10411 net.cpp:100] Creating Layer conv5_5/sep_mbox_priorbox
I0825 10:18:40.658640 10411 net.cpp:434] conv5_5/sep_mbox_priorbox <- conv5_5/sep_conv5_5/sep_relu_0_split_3
I0825 10:18:40.658649 10411 net.cpp:434] conv5_5/sep_mbox_priorbox <- data_data_0_split_1
I0825 10:18:40.658658 10411 net.cpp:408] conv5_5/sep_mbox_priorbox -> conv5_5/sep_mbox_priorbox
I0825 10:18:40.658699 10411 net.cpp:150] Setting up conv5_5/sep_mbox_priorbox
I0825 10:18:40.658715 10411 net.cpp:157] Top shape: 1 2 4332 (8664)
I0825 10:18:40.658720 10411 net.cpp:165] Memory required for data: 2573158880
I0825 10:18:40.658725 10411 layer_factory.hpp:77] Creating layer conv6/sep_mbox_loc
I0825 10:18:40.658737 10411 net.cpp:100] Creating Layer conv6/sep_mbox_loc
I0825 10:18:40.658743 10411 net.cpp:434] conv6/sep_mbox_loc <- conv6/sep_conv6/sep_relu_0_split_1
I0825 10:18:40.658752 10411 net.cpp:408] conv6/sep_mbox_loc -> conv6/sep_mbox_loc
I0825 10:18:40.661545 10411 net.cpp:150] Setting up conv6/sep_mbox_loc
I0825 10:18:40.661556 10411 net.cpp:157] Top shape: 16 24 10 10 (38400)
I0825 10:18:40.661561 10411 net.cpp:165] Memory required for data: 2573312480
I0825 10:18:40.661569 10411 layer_factory.hpp:77] Creating layer conv6/sep_mbox_loc_perm
I0825 10:18:40.661579 10411 net.cpp:100] Creating Layer conv6/sep_mbox_loc_perm
I0825 10:18:40.661586 10411 net.cpp:434] conv6/sep_mbox_loc_perm <- conv6/sep_mbox_loc
I0825 10:18:40.661594 10411 net.cpp:408] conv6/sep_mbox_loc_perm -> conv6/sep_mbox_loc_perm
I0825 10:18:40.661705 10411 net.cpp:150] Setting up conv6/sep_mbox_loc_perm
I0825 10:18:40.661712 10411 net.cpp:157] Top shape: 16 10 10 24 (38400)
I0825 10:18:40.661716 10411 net.cpp:165] Memory required for data: 2573466080
I0825 10:18:40.661721 10411 layer_factory.hpp:77] Creating layer conv6/sep_mbox_loc_flat
I0825 10:18:40.661728 10411 net.cpp:100] Creating Layer conv6/sep_mbox_loc_flat
I0825 10:18:40.661734 10411 net.cpp:434] conv6/sep_mbox_loc_flat <- conv6/sep_mbox_loc_perm
I0825 10:18:40.661743 10411 net.cpp:408] conv6/sep_mbox_loc_flat -> conv6/sep_mbox_loc_flat
I0825 10:18:40.661778 10411 net.cpp:150] Setting up conv6/sep_mbox_loc_flat
I0825 10:18:40.661784 10411 net.cpp:157] Top shape: 16 2400 (38400)
I0825 10:18:40.661788 10411 net.cpp:165] Memory required for data: 2573619680
I0825 10:18:40.661793 10411 layer_factory.hpp:77] Creating layer conv6/sep_mbox_conf
I0825 10:18:40.661805 10411 net.cpp:100] Creating Layer conv6/sep_mbox_conf
I0825 10:18:40.661811 10411 net.cpp:434] conv6/sep_mbox_conf <- conv6/sep_conv6/sep_relu_0_split_2
I0825 10:18:40.661821 10411 net.cpp:408] conv6/sep_mbox_conf -> conv6/sep_mbox_conf
I0825 10:18:40.665016 10411 net.cpp:150] Setting up conv6/sep_mbox_conf
I0825 10:18:40.665027 10411 net.cpp:157] Top shape: 16 24 10 10 (38400)
I0825 10:18:40.665032 10411 net.cpp:165] Memory required for data: 2573773280
I0825 10:18:40.665040 10411 layer_factory.hpp:77] Creating layer conv6/sep_mbox_conf_perm
I0825 10:18:40.665050 10411 net.cpp:100] Creating Layer conv6/sep_mbox_conf_perm
I0825 10:18:40.665057 10411 net.cpp:434] conv6/sep_mbox_conf_perm <- conv6/sep_mbox_conf
I0825 10:18:40.665066 10411 net.cpp:408] conv6/sep_mbox_conf_perm -> conv6/sep_mbox_conf_perm
I0825 10:18:40.665175 10411 net.cpp:150] Setting up conv6/sep_mbox_conf_perm
I0825 10:18:40.665184 10411 net.cpp:157] Top shape: 16 10 10 24 (38400)
I0825 10:18:40.665189 10411 net.cpp:165] Memory required for data: 2573926880
I0825 10:18:40.665192 10411 layer_factory.hpp:77] Creating layer conv6/sep_mbox_conf_flat
I0825 10:18:40.665202 10411 net.cpp:100] Creating Layer conv6/sep_mbox_conf_flat
I0825 10:18:40.665208 10411 net.cpp:434] conv6/sep_mbox_conf_flat <- conv6/sep_mbox_conf_perm
I0825 10:18:40.665216 10411 net.cpp:408] conv6/sep_mbox_conf_flat -> conv6/sep_mbox_conf_flat
I0825 10:18:40.665251 10411 net.cpp:150] Setting up conv6/sep_mbox_conf_flat
I0825 10:18:40.665257 10411 net.cpp:157] Top shape: 16 2400 (38400)
I0825 10:18:40.665261 10411 net.cpp:165] Memory required for data: 2574080480
I0825 10:18:40.665266 10411 layer_factory.hpp:77] Creating layer conv6/sep_mbox_priorbox
I0825 10:18:40.665277 10411 net.cpp:100] Creating Layer conv6/sep_mbox_priorbox
I0825 10:18:40.665282 10411 net.cpp:434] conv6/sep_mbox_priorbox <- conv6/sep_conv6/sep_relu_0_split_3
I0825 10:18:40.665288 10411 net.cpp:434] conv6/sep_mbox_priorbox <- data_data_0_split_2
I0825 10:18:40.665297 10411 net.cpp:408] conv6/sep_mbox_priorbox -> conv6/sep_mbox_priorbox
I0825 10:18:40.665333 10411 net.cpp:150] Setting up conv6/sep_mbox_priorbox
I0825 10:18:40.665349 10411 net.cpp:157] Top shape: 1 2 2400 (4800)
I0825 10:18:40.665352 10411 net.cpp:165] Memory required for data: 2574099680
I0825 10:18:40.665357 10411 layer_factory.hpp:77] Creating layer conv7_2_mbox_loc
I0825 10:18:40.665369 10411 net.cpp:100] Creating Layer conv7_2_mbox_loc
I0825 10:18:40.665375 10411 net.cpp:434] conv7_2_mbox_loc <- conv7_2_conv7_2_relu_0_split_1
I0825 10:18:40.665385 10411 net.cpp:408] conv7_2_mbox_loc -> conv7_2_mbox_loc
I0825 10:18:40.667774 10411 net.cpp:150] Setting up conv7_2_mbox_loc
I0825 10:18:40.667784 10411 net.cpp:157] Top shape: 16 24 5 5 (9600)
I0825 10:18:40.667789 10411 net.cpp:165] Memory required for data: 2574138080
I0825 10:18:40.667798 10411 layer_factory.hpp:77] Creating layer conv7_2_mbox_loc_perm
I0825 10:18:40.667805 10411 net.cpp:100] Creating Layer conv7_2_mbox_loc_perm
I0825 10:18:40.667811 10411 net.cpp:434] conv7_2_mbox_loc_perm <- conv7_2_mbox_loc
I0825 10:18:40.667821 10411 net.cpp:408] conv7_2_mbox_loc_perm -> conv7_2_mbox_loc_perm
I0825 10:18:40.667937 10411 net.cpp:150] Setting up conv7_2_mbox_loc_perm
I0825 10:18:40.667944 10411 net.cpp:157] Top shape: 16 5 5 24 (9600)
I0825 10:18:40.667949 10411 net.cpp:165] Memory required for data: 2574176480
I0825 10:18:40.667953 10411 layer_factory.hpp:77] Creating layer conv7_2_mbox_loc_flat
I0825 10:18:40.667961 10411 net.cpp:100] Creating Layer conv7_2_mbox_loc_flat
I0825 10:18:40.667968 10411 net.cpp:434] conv7_2_mbox_loc_flat <- conv7_2_mbox_loc_perm
I0825 10:18:40.667976 10411 net.cpp:408] conv7_2_mbox_loc_flat -> conv7_2_mbox_loc_flat
I0825 10:18:40.668014 10411 net.cpp:150] Setting up conv7_2_mbox_loc_flat
I0825 10:18:40.668020 10411 net.cpp:157] Top shape: 16 600 (9600)
I0825 10:18:40.668023 10411 net.cpp:165] Memory required for data: 2574214880
I0825 10:18:40.668028 10411 layer_factory.hpp:77] Creating layer conv7_2_mbox_conf
I0825 10:18:40.668041 10411 net.cpp:100] Creating Layer conv7_2_mbox_conf
I0825 10:18:40.668046 10411 net.cpp:434] conv7_2_mbox_conf <- conv7_2_conv7_2_relu_0_split_2
I0825 10:18:40.668057 10411 net.cpp:408] conv7_2_mbox_conf -> conv7_2_mbox_conf
I0825 10:18:40.670816 10411 net.cpp:150] Setting up conv7_2_mbox_conf
I0825 10:18:40.670827 10411 net.cpp:157] Top shape: 16 24 5 5 (9600)
I0825 10:18:40.670832 10411 net.cpp:165] Memory required for data: 2574253280
I0825 10:18:40.670840 10411 layer_factory.hpp:77] Creating layer conv7_2_mbox_conf_perm
I0825 10:18:40.670850 10411 net.cpp:100] Creating Layer conv7_2_mbox_conf_perm
I0825 10:18:40.670857 10411 net.cpp:434] conv7_2_mbox_conf_perm <- conv7_2_mbox_conf
I0825 10:18:40.670866 10411 net.cpp:408] conv7_2_mbox_conf_perm -> conv7_2_mbox_conf_perm
I0825 10:18:40.670979 10411 net.cpp:150] Setting up conv7_2_mbox_conf_perm
I0825 10:18:40.670985 10411 net.cpp:157] Top shape: 16 5 5 24 (9600)
I0825 10:18:40.670990 10411 net.cpp:165] Memory required for data: 2574291680
I0825 10:18:40.670994 10411 layer_factory.hpp:77] Creating layer conv7_2_mbox_conf_flat
I0825 10:18:40.671002 10411 net.cpp:100] Creating Layer conv7_2_mbox_conf_flat
I0825 10:18:40.671008 10411 net.cpp:434] conv7_2_mbox_conf_flat <- conv7_2_mbox_conf_perm
I0825 10:18:40.671017 10411 net.cpp:408] conv7_2_mbox_conf_flat -> conv7_2_mbox_conf_flat
I0825 10:18:40.671054 10411 net.cpp:150] Setting up conv7_2_mbox_conf_flat
I0825 10:18:40.671061 10411 net.cpp:157] Top shape: 16 600 (9600)
I0825 10:18:40.671064 10411 net.cpp:165] Memory required for data: 2574330080
I0825 10:18:40.671069 10411 layer_factory.hpp:77] Creating layer conv7_2_mbox_priorbox
I0825 10:18:40.671077 10411 net.cpp:100] Creating Layer conv7_2_mbox_priorbox
I0825 10:18:40.671083 10411 net.cpp:434] conv7_2_mbox_priorbox <- conv7_2_conv7_2_relu_0_split_3
I0825 10:18:40.671090 10411 net.cpp:434] conv7_2_mbox_priorbox <- data_data_0_split_3
I0825 10:18:40.671100 10411 net.cpp:408] conv7_2_mbox_priorbox -> conv7_2_mbox_priorbox
I0825 10:18:40.671138 10411 net.cpp:150] Setting up conv7_2_mbox_priorbox
I0825 10:18:40.671144 10411 net.cpp:157] Top shape: 1 2 600 (1200)
I0825 10:18:40.671146 10411 net.cpp:165] Memory required for data: 2574334880
I0825 10:18:40.671162 10411 layer_factory.hpp:77] Creating layer conv8_2_mbox_loc
I0825 10:18:40.671175 10411 net.cpp:100] Creating Layer conv8_2_mbox_loc
I0825 10:18:40.671181 10411 net.cpp:434] conv8_2_mbox_loc <- conv8_2_conv8_2_relu_0_split_1
I0825 10:18:40.671190 10411 net.cpp:408] conv8_2_mbox_loc -> conv8_2_mbox_loc
I0825 10:18:40.673364 10411 net.cpp:150] Setting up conv8_2_mbox_loc
I0825 10:18:40.673374 10411 net.cpp:157] Top shape: 16 24 3 3 (3456)
I0825 10:18:40.673379 10411 net.cpp:165] Memory required for data: 2574348704
I0825 10:18:40.673388 10411 layer_factory.hpp:77] Creating layer conv8_2_mbox_loc_perm
I0825 10:18:40.673398 10411 net.cpp:100] Creating Layer conv8_2_mbox_loc_perm
I0825 10:18:40.673403 10411 net.cpp:434] conv8_2_mbox_loc_perm <- conv8_2_mbox_loc
I0825 10:18:40.673413 10411 net.cpp:408] conv8_2_mbox_loc_perm -> conv8_2_mbox_loc_perm
I0825 10:18:40.673524 10411 net.cpp:150] Setting up conv8_2_mbox_loc_perm
I0825 10:18:40.673532 10411 net.cpp:157] Top shape: 16 3 3 24 (3456)
I0825 10:18:40.673537 10411 net.cpp:165] Memory required for data: 2574362528
I0825 10:18:40.673542 10411 layer_factory.hpp:77] Creating layer conv8_2_mbox_loc_flat
I0825 10:18:40.673548 10411 net.cpp:100] Creating Layer conv8_2_mbox_loc_flat
I0825 10:18:40.673554 10411 net.cpp:434] conv8_2_mbox_loc_flat <- conv8_2_mbox_loc_perm
I0825 10:18:40.673563 10411 net.cpp:408] conv8_2_mbox_loc_flat -> conv8_2_mbox_loc_flat
I0825 10:18:40.673600 10411 net.cpp:150] Setting up conv8_2_mbox_loc_flat
I0825 10:18:40.673606 10411 net.cpp:157] Top shape: 16 216 (3456)
I0825 10:18:40.673609 10411 net.cpp:165] Memory required for data: 2574376352
I0825 10:18:40.673614 10411 layer_factory.hpp:77] Creating layer conv8_2_mbox_conf
I0825 10:18:40.673627 10411 net.cpp:100] Creating Layer conv8_2_mbox_conf
I0825 10:18:40.673633 10411 net.cpp:434] conv8_2_mbox_conf <- conv8_2_conv8_2_relu_0_split_2
I0825 10:18:40.673645 10411 net.cpp:408] conv8_2_mbox_conf -> conv8_2_mbox_conf
I0825 10:18:40.675801 10411 net.cpp:150] Setting up conv8_2_mbox_conf
I0825 10:18:40.675813 10411 net.cpp:157] Top shape: 16 24 3 3 (3456)
I0825 10:18:40.675818 10411 net.cpp:165] Memory required for data: 2574390176
I0825 10:18:40.675827 10411 layer_factory.hpp:77] Creating layer conv8_2_mbox_conf_perm
I0825 10:18:40.675837 10411 net.cpp:100] Creating Layer conv8_2_mbox_conf_perm
I0825 10:18:40.675843 10411 net.cpp:434] conv8_2_mbox_conf_perm <- conv8_2_mbox_conf
I0825 10:18:40.675853 10411 net.cpp:408] conv8_2_mbox_conf_perm -> conv8_2_mbox_conf_perm
I0825 10:18:40.675967 10411 net.cpp:150] Setting up conv8_2_mbox_conf_perm
I0825 10:18:40.675976 10411 net.cpp:157] Top shape: 16 3 3 24 (3456)
I0825 10:18:40.675979 10411 net.cpp:165] Memory required for data: 2574404000
I0825 10:18:40.675984 10411 layer_factory.hpp:77] Creating layer conv8_2_mbox_conf_flat
I0825 10:18:40.675992 10411 net.cpp:100] Creating Layer conv8_2_mbox_conf_flat
I0825 10:18:40.675997 10411 net.cpp:434] conv8_2_mbox_conf_flat <- conv8_2_mbox_conf_perm
I0825 10:18:40.676007 10411 net.cpp:408] conv8_2_mbox_conf_flat -> conv8_2_mbox_conf_flat
I0825 10:18:40.676041 10411 net.cpp:150] Setting up conv8_2_mbox_conf_flat
I0825 10:18:40.676050 10411 net.cpp:157] Top shape: 16 216 (3456)
I0825 10:18:40.676054 10411 net.cpp:165] Memory required for data: 2574417824
I0825 10:18:40.676059 10411 layer_factory.hpp:77] Creating layer conv8_2_mbox_priorbox
I0825 10:18:40.676069 10411 net.cpp:100] Creating Layer conv8_2_mbox_priorbox
I0825 10:18:40.676074 10411 net.cpp:434] conv8_2_mbox_priorbox <- conv8_2_conv8_2_relu_0_split_3
I0825 10:18:40.676081 10411 net.cpp:434] conv8_2_mbox_priorbox <- data_data_0_split_4
I0825 10:18:40.676090 10411 net.cpp:408] conv8_2_mbox_priorbox -> conv8_2_mbox_priorbox
I0825 10:18:40.676126 10411 net.cpp:150] Setting up conv8_2_mbox_priorbox
I0825 10:18:40.676133 10411 net.cpp:157] Top shape: 1 2 216 (432)
I0825 10:18:40.676137 10411 net.cpp:165] Memory required for data: 2574419552
I0825 10:18:40.676142 10411 layer_factory.hpp:77] Creating layer conv9_2_mbox_loc
I0825 10:18:40.676164 10411 net.cpp:100] Creating Layer conv9_2_mbox_loc
I0825 10:18:40.676172 10411 net.cpp:434] conv9_2_mbox_loc <- conv9_2_conv9_2_relu_0_split_1
I0825 10:18:40.676180 10411 net.cpp:408] conv9_2_mbox_loc -> conv9_2_mbox_loc
I0825 10:18:40.678349 10411 net.cpp:150] Setting up conv9_2_mbox_loc
I0825 10:18:40.678361 10411 net.cpp:157] Top shape: 16 24 2 2 (1536)
I0825 10:18:40.678366 10411 net.cpp:165] Memory required for data: 2574425696
I0825 10:18:40.678375 10411 layer_factory.hpp:77] Creating layer conv9_2_mbox_loc_perm
I0825 10:18:40.678383 10411 net.cpp:100] Creating Layer conv9_2_mbox_loc_perm
I0825 10:18:40.678390 10411 net.cpp:434] conv9_2_mbox_loc_perm <- conv9_2_mbox_loc
I0825 10:18:40.678400 10411 net.cpp:408] conv9_2_mbox_loc_perm -> conv9_2_mbox_loc_perm
I0825 10:18:40.678515 10411 net.cpp:150] Setting up conv9_2_mbox_loc_perm
I0825 10:18:40.678524 10411 net.cpp:157] Top shape: 16 2 2 24 (1536)
I0825 10:18:40.678529 10411 net.cpp:165] Memory required for data: 2574431840
I0825 10:18:40.678534 10411 layer_factory.hpp:77] Creating layer conv9_2_mbox_loc_flat
I0825 10:18:40.678541 10411 net.cpp:100] Creating Layer conv9_2_mbox_loc_flat
I0825 10:18:40.678547 10411 net.cpp:434] conv9_2_mbox_loc_flat <- conv9_2_mbox_loc_perm
I0825 10:18:40.678557 10411 net.cpp:408] conv9_2_mbox_loc_flat -> conv9_2_mbox_loc_flat
I0825 10:18:40.678592 10411 net.cpp:150] Setting up conv9_2_mbox_loc_flat
I0825 10:18:40.678599 10411 net.cpp:157] Top shape: 16 96 (1536)
I0825 10:18:40.678604 10411 net.cpp:165] Memory required for data: 2574437984
I0825 10:18:40.678609 10411 layer_factory.hpp:77] Creating layer conv9_2_mbox_conf
I0825 10:18:40.678622 10411 net.cpp:100] Creating Layer conv9_2_mbox_conf
I0825 10:18:40.678627 10411 net.cpp:434] conv9_2_mbox_conf <- conv9_2_conv9_2_relu_0_split_2
I0825 10:18:40.678639 10411 net.cpp:408] conv9_2_mbox_conf -> conv9_2_mbox_conf
I0825 10:18:40.681156 10411 net.cpp:150] Setting up conv9_2_mbox_conf
I0825 10:18:40.681169 10411 net.cpp:157] Top shape: 16 24 2 2 (1536)
I0825 10:18:40.681174 10411 net.cpp:165] Memory required for data: 2574444128
I0825 10:18:40.681182 10411 layer_factory.hpp:77] Creating layer conv9_2_mbox_conf_perm
I0825 10:18:40.681191 10411 net.cpp:100] Creating Layer conv9_2_mbox_conf_perm
I0825 10:18:40.681198 10411 net.cpp:434] conv9_2_mbox_conf_perm <- conv9_2_mbox_conf
I0825 10:18:40.681208 10411 net.cpp:408] conv9_2_mbox_conf_perm -> conv9_2_mbox_conf_perm
I0825 10:18:40.681324 10411 net.cpp:150] Setting up conv9_2_mbox_conf_perm
I0825 10:18:40.681332 10411 net.cpp:157] Top shape: 16 2 2 24 (1536)
I0825 10:18:40.681337 10411 net.cpp:165] Memory required for data: 2574450272
I0825 10:18:40.681342 10411 layer_factory.hpp:77] Creating layer conv9_2_mbox_conf_flat
I0825 10:18:40.681350 10411 net.cpp:100] Creating Layer conv9_2_mbox_conf_flat
I0825 10:18:40.681356 10411 net.cpp:434] conv9_2_mbox_conf_flat <- conv9_2_mbox_conf_perm
I0825 10:18:40.681366 10411 net.cpp:408] conv9_2_mbox_conf_flat -> conv9_2_mbox_conf_flat
I0825 10:18:40.681402 10411 net.cpp:150] Setting up conv9_2_mbox_conf_flat
I0825 10:18:40.681408 10411 net.cpp:157] Top shape: 16 96 (1536)
I0825 10:18:40.681412 10411 net.cpp:165] Memory required for data: 2574456416
I0825 10:18:40.681417 10411 layer_factory.hpp:77] Creating layer conv9_2_mbox_priorbox
I0825 10:18:40.681427 10411 net.cpp:100] Creating Layer conv9_2_mbox_priorbox
I0825 10:18:40.681434 10411 net.cpp:434] conv9_2_mbox_priorbox <- conv9_2_conv9_2_relu_0_split_3
I0825 10:18:40.681442 10411 net.cpp:434] conv9_2_mbox_priorbox <- data_data_0_split_5
I0825 10:18:40.681452 10411 net.cpp:408] conv9_2_mbox_priorbox -> conv9_2_mbox_priorbox
I0825 10:18:40.681488 10411 net.cpp:150] Setting up conv9_2_mbox_priorbox
I0825 10:18:40.681494 10411 net.cpp:157] Top shape: 1 2 96 (192)
I0825 10:18:40.681499 10411 net.cpp:165] Memory required for data: 2574457184
I0825 10:18:40.681504 10411 layer_factory.hpp:77] Creating layer conv10_2_mbox_loc
I0825 10:18:40.681517 10411 net.cpp:100] Creating Layer conv10_2_mbox_loc
I0825 10:18:40.681533 10411 net.cpp:434] conv10_2_mbox_loc <- conv10_2_conv10_2_relu_0_split_0
I0825 10:18:40.681545 10411 net.cpp:408] conv10_2_mbox_loc -> conv10_2_mbox_loc
I0825 10:18:40.683718 10411 net.cpp:150] Setting up conv10_2_mbox_loc
I0825 10:18:40.683729 10411 net.cpp:157] Top shape: 16 24 1 1 (384)
I0825 10:18:40.683733 10411 net.cpp:165] Memory required for data: 2574458720
I0825 10:18:40.683743 10411 layer_factory.hpp:77] Creating layer conv10_2_mbox_loc_perm
I0825 10:18:40.683753 10411 net.cpp:100] Creating Layer conv10_2_mbox_loc_perm
I0825 10:18:40.683758 10411 net.cpp:434] conv10_2_mbox_loc_perm <- conv10_2_mbox_loc
I0825 10:18:40.683769 10411 net.cpp:408] conv10_2_mbox_loc_perm -> conv10_2_mbox_loc_perm
I0825 10:18:40.683885 10411 net.cpp:150] Setting up conv10_2_mbox_loc_perm
I0825 10:18:40.683892 10411 net.cpp:157] Top shape: 16 1 1 24 (384)
I0825 10:18:40.683897 10411 net.cpp:165] Memory required for data: 2574460256
I0825 10:18:40.683902 10411 layer_factory.hpp:77] Creating layer conv10_2_mbox_loc_flat
I0825 10:18:40.683910 10411 net.cpp:100] Creating Layer conv10_2_mbox_loc_flat
I0825 10:18:40.683915 10411 net.cpp:434] conv10_2_mbox_loc_flat <- conv10_2_mbox_loc_perm
I0825 10:18:40.683925 10411 net.cpp:408] conv10_2_mbox_loc_flat -> conv10_2_mbox_loc_flat
I0825 10:18:40.683960 10411 net.cpp:150] Setting up conv10_2_mbox_loc_flat
I0825 10:18:40.683966 10411 net.cpp:157] Top shape: 16 24 (384)
I0825 10:18:40.683970 10411 net.cpp:165] Memory required for data: 2574461792
I0825 10:18:40.683975 10411 layer_factory.hpp:77] Creating layer conv10_2_mbox_conf
I0825 10:18:40.683990 10411 net.cpp:100] Creating Layer conv10_2_mbox_conf
I0825 10:18:40.683995 10411 net.cpp:434] conv10_2_mbox_conf <- conv10_2_conv10_2_relu_0_split_1
I0825 10:18:40.684002 10411 net.cpp:408] conv10_2_mbox_conf -> conv10_2_mbox_conf
I0825 10:18:40.686158 10411 net.cpp:150] Setting up conv10_2_mbox_conf
I0825 10:18:40.686169 10411 net.cpp:157] Top shape: 16 24 1 1 (384)
I0825 10:18:40.686173 10411 net.cpp:165] Memory required for data: 2574463328
I0825 10:18:40.686182 10411 layer_factory.hpp:77] Creating layer conv10_2_mbox_conf_perm
I0825 10:18:40.686192 10411 net.cpp:100] Creating Layer conv10_2_mbox_conf_perm
I0825 10:18:40.686199 10411 net.cpp:434] conv10_2_mbox_conf_perm <- conv10_2_mbox_conf
I0825 10:18:40.686208 10411 net.cpp:408] conv10_2_mbox_conf_perm -> conv10_2_mbox_conf_perm
I0825 10:18:40.686323 10411 net.cpp:150] Setting up conv10_2_mbox_conf_perm
I0825 10:18:40.686331 10411 net.cpp:157] Top shape: 16 1 1 24 (384)
I0825 10:18:40.686334 10411 net.cpp:165] Memory required for data: 2574464864
I0825 10:18:40.686338 10411 layer_factory.hpp:77] Creating layer conv10_2_mbox_conf_flat
I0825 10:18:40.686347 10411 net.cpp:100] Creating Layer conv10_2_mbox_conf_flat
I0825 10:18:40.686353 10411 net.cpp:434] conv10_2_mbox_conf_flat <- conv10_2_mbox_conf_perm
I0825 10:18:40.686360 10411 net.cpp:408] conv10_2_mbox_conf_flat -> conv10_2_mbox_conf_flat
I0825 10:18:40.686398 10411 net.cpp:150] Setting up conv10_2_mbox_conf_flat
I0825 10:18:40.686404 10411 net.cpp:157] Top shape: 16 24 (384)
I0825 10:18:40.686408 10411 net.cpp:165] Memory required for data: 2574466400
I0825 10:18:40.686413 10411 layer_factory.hpp:77] Creating layer conv10_2_mbox_priorbox
I0825 10:18:40.686422 10411 net.cpp:100] Creating Layer conv10_2_mbox_priorbox
I0825 10:18:40.686429 10411 net.cpp:434] conv10_2_mbox_priorbox <- conv10_2_conv10_2_relu_0_split_2
I0825 10:18:40.686435 10411 net.cpp:434] conv10_2_mbox_priorbox <- data_data_0_split_6
I0825 10:18:40.686445 10411 net.cpp:408] conv10_2_mbox_priorbox -> conv10_2_mbox_priorbox
I0825 10:18:40.686481 10411 net.cpp:150] Setting up conv10_2_mbox_priorbox
I0825 10:18:40.686488 10411 net.cpp:157] Top shape: 1 2 24 (48)
I0825 10:18:40.686492 10411 net.cpp:165] Memory required for data: 2574466592
I0825 10:18:40.686497 10411 layer_factory.hpp:77] Creating layer mbox_loc
I0825 10:18:40.686509 10411 net.cpp:100] Creating Layer mbox_loc
I0825 10:18:40.686514 10411 net.cpp:434] mbox_loc <- conv5_5/sep_mbox_loc_flat
I0825 10:18:40.686533 10411 net.cpp:434] mbox_loc <- conv6/sep_mbox_loc_flat
I0825 10:18:40.686540 10411 net.cpp:434] mbox_loc <- conv7_2_mbox_loc_flat
I0825 10:18:40.686547 10411 net.cpp:434] mbox_loc <- conv8_2_mbox_loc_flat
I0825 10:18:40.686553 10411 net.cpp:434] mbox_loc <- conv9_2_mbox_loc_flat
I0825 10:18:40.686558 10411 net.cpp:434] mbox_loc <- conv10_2_mbox_loc_flat
I0825 10:18:40.686569 10411 net.cpp:408] mbox_loc -> mbox_loc
I0825 10:18:40.686609 10411 net.cpp:150] Setting up mbox_loc
I0825 10:18:40.686614 10411 net.cpp:157] Top shape: 16 7668 (122688)
I0825 10:18:40.686619 10411 net.cpp:165] Memory required for data: 2574957344
I0825 10:18:40.686624 10411 layer_factory.hpp:77] Creating layer mbox_conf
I0825 10:18:40.686635 10411 net.cpp:100] Creating Layer mbox_conf
I0825 10:18:40.686640 10411 net.cpp:434] mbox_conf <- conv5_5/sep_mbox_conf_flat
I0825 10:18:40.686646 10411 net.cpp:434] mbox_conf <- conv6/sep_mbox_conf_flat
I0825 10:18:40.686653 10411 net.cpp:434] mbox_conf <- conv7_2_mbox_conf_flat
I0825 10:18:40.686659 10411 net.cpp:434] mbox_conf <- conv8_2_mbox_conf_flat
I0825 10:18:40.686666 10411 net.cpp:434] mbox_conf <- conv9_2_mbox_conf_flat
I0825 10:18:40.686671 10411 net.cpp:434] mbox_conf <- conv10_2_mbox_conf_flat
I0825 10:18:40.686679 10411 net.cpp:408] mbox_conf -> mbox_conf
I0825 10:18:40.686715 10411 net.cpp:150] Setting up mbox_conf
I0825 10:18:40.686722 10411 net.cpp:157] Top shape: 16 7668 (122688)
I0825 10:18:40.686725 10411 net.cpp:165] Memory required for data: 2575448096
I0825 10:18:40.686730 10411 layer_factory.hpp:77] Creating layer mbox_priorbox
I0825 10:18:40.686738 10411 net.cpp:100] Creating Layer mbox_priorbox
I0825 10:18:40.686743 10411 net.cpp:434] mbox_priorbox <- conv5_5/sep_mbox_priorbox
I0825 10:18:40.686751 10411 net.cpp:434] mbox_priorbox <- conv6/sep_mbox_priorbox
I0825 10:18:40.686758 10411 net.cpp:434] mbox_priorbox <- conv7_2_mbox_priorbox
I0825 10:18:40.686764 10411 net.cpp:434] mbox_priorbox <- conv8_2_mbox_priorbox
I0825 10:18:40.686769 10411 net.cpp:434] mbox_priorbox <- conv9_2_mbox_priorbox
I0825 10:18:40.686775 10411 net.cpp:434] mbox_priorbox <- conv10_2_mbox_priorbox
I0825 10:18:40.686785 10411 net.cpp:408] mbox_priorbox -> mbox_priorbox
I0825 10:18:40.686823 10411 net.cpp:150] Setting up mbox_priorbox
I0825 10:18:40.686830 10411 net.cpp:157] Top shape: 1 2 7668 (15336)
I0825 10:18:40.686835 10411 net.cpp:165] Memory required for data: 2575509440
I0825 10:18:40.686839 10411 layer_factory.hpp:77] Creating layer mbox_loss
I0825 10:18:40.686852 10411 net.cpp:100] Creating Layer mbox_loss
I0825 10:18:40.686857 10411 net.cpp:434] mbox_loss <- mbox_loc
I0825 10:18:40.686867 10411 net.cpp:434] mbox_loss <- mbox_conf
I0825 10:18:40.686870 10411 net.cpp:434] mbox_loss <- mbox_priorbox
…
  phase: TEST
}
layer {
  name: "data"
  type: "AnnotatedData"
  top: "data"
  top: "label"
  include {
    phase: TEST
  }
  transform_param {
    mean_value: 104
    mean_value: 117
    mean_value: 123
    resize_param {
      prob: 1
      resize_mode: WARP
      height: 300
      width: 300
      interp_mode: LINEAR
    }
  }
  data_param {
    source: "data/BodyFaceRegions/lmdb/VOC0712_test_lmdb"
    batch_size: 8
    backend: LMDB
  }
  annotated_data_param {
    batch_sampler {
    }
    label_map_file: "data/BodyFaceRegions/labelmap_voc.prototxt"
  }
}
layer {
  name: "conv1"
  type: "Convolution"
  bottom: "data"
  top: "conv1"
  param {
    lr_mult: 1
    decay_mult: 1
  }
  convolution_param {
    num_output: 32
    bias_term: false
    pad: 1
    kernel_size: 3
    group: 1
    stride: 2
    weight_filler {
      type: "gaussian"
      std: 0.01
    }
    engine: DEFAULT
  }
}
layer {
  name: "conv1/bn"
  type: "BatchNorm"
  bottom: "conv1"
  top: "conv1"
  batch_norm_param {
    moving_average_fraction: 0.999
    eps: 0.001
  }
}
layer {
  name: "conv1/scale"
  type: "Scale"
  bottom: "conv1"
  top: "conv1"
  param {
    lr_mult: 1
    decay_mult: 0
  }
  param {
    lr_mult: 1
    decay_mult: 0
  }
  scale_param {
    filler {
      type: "constant"
      value: 1
    }
    bias_term: true
    bias_filler {
      type: "constant"
      value: 0
    }
  }
}
layer {
  name: "conv1_relu"
  type: "ReLU"
  bottom: "conv1"
  top: "conv1"
}
layer {
  name: "conv2_1/dw"
  type: "Convolution"
  bottom: "conv1"
  top: "conv2_1/dw"
  param {
    lr_mult: 1
    decay_mult: 1
  }
  convolution_param {
    num_output: 32
    bias_term: false
    pad: 1
    kernel_size: 3
    group: 32
    stride: 1
    weight_filler {
      type: "gaussian"
      std: 0.01
    }
    engine: CAFFE
  }
}
layer {
  name: "conv2_1/dw/bn"
  type: "BatchNorm"
  bottom: "conv2_1/dw"
  top: "conv2_1/dw"
  batch_norm_param {
    moving_average_fraction: 0.999
    eps: 0.001
  }
}
layer {
  name: "conv2_1/dw/scale"
  type: "Scale"
  bottom: "conv2_1/dw"
  top: "conv2_1/dw"
  param {
    lr_mult: 1
    decay_mult: 0
  }
  param {
    lr_mult: 1
    decay_mult: 0
  }
  scale_param {
    filler {
      type: "constant"
      value: 1
    }
    bias_term: true
    bias_filler {
      type: "constant"
      value: 0
    }
  }
}
layer {
  name: "conv2_1/dw_relu"
  type: "ReLU"
  bottom: "conv2_1/dw"
  top: "conv2_1/dw"
}
layer {
  name: "conv2_1/sep"
  type: "Convolution"
  bottom: "conv2_1/dw"
  top: "conv2_1/sep"
  param {
    lr_mult: 1
    decay_mult: 1
  }
  convolution_param {
    num_output: 64
    bias_term: false
    pad: 0
    kernel_size: 1
    group: 1
    stride: 1
    weight_filler {
      type: "gaussian"
      std: 0.01
    }
    engine: DEFAULT
  }
}
layer {
  name: "conv2_1/sep/bn"
  type: "BatchNorm"
  bottom: "conv2_1/sep"
  top: "conv2_1/sep"
  batch_norm_param {
    moving_average_fraction: 0.999
    eps: 0.001
  }
}
layer {
  name: "conv2_1/sep/scale"
  type: "Scale"
  bottom: "conv2_1/sep"
  top: "conv2_1/sep"
  param {
    lr_mult: 1
    decay_mult: 0
  }
  param {
    lr_mult: 1
    decay_mult: 0
  }
  scale_param {
    filler {
      type: "constant"
      value: 1
    }
    bias_term: true
    bias_filler {
      type: "constant"
      value: 0
    }
  }
}
layer {
  name: "conv2_1/sep_relu"
  type: "ReLU"
  bottom: "conv2_1/sep"
  top: "conv2_1/sep"
}
layer {
  name: "conv2_2/dw"
  type: "Convolution"
  bottom: "conv2_1/sep"
  top: "conv2_2/dw"
  param {
    lr_mult: 1
    decay_mult: 1
  }
  convolution_param {
    num_output: 64
    bias_term: false
    pad: 1
    kernel_size: 3
    group: 64
    stride: 2
    weight_filler {
      type: "gaussian"
      std: 0.01
    }
    engine: CAFFE
  }
}
layer {
  name: "conv2_2/dw/bn"
  type: "BatchNorm"
  bottom: "conv2_2/dw"
  top: "conv2_2/dw"
  batch_norm_param {
    moving_average_fraction: 0.999
    eps: 0.001
  }
}
layer {
  name: "conv2_2/dw/scale"
  type: "Scale"
  bottom: "conv2_2/dw"
  top: "conv2_2/dw"
  param {
    lr_mult: 1
    decay_mult: 0
  }
  param {
    lr_mult: 1
    decay_mult: 0
  }
  scale_param {
    filler {
      type: "constant"
      value: 1
    }
    bias_term: true
    bias_filler {
      type: "constant"
      value: 0
    }
  }
}
layer {
  name: "conv2_2/dw_relu"
  type: "ReLU"
  bottom: "conv2_2/dw"
  top: "conv2_2/dw"
}
layer {
  name: "conv2_2/sep"
  type: "Convolution"
  bottom: "conv2_2/dw"
  top: "conv2_2/sep"
  param {
    lr_mult: 1
    decay_mult: 1
  }
  convolution_param {
    num_output: 128
    bias_term: false
    pad: 0
    kernel_size: 1
    group: 1
    stride: 1
    weight_filler {
      type: "gaussian"
      std: 0.01
    }
    engine: DEFAULT
  }
}
layer {
  name: "conv2_2/sep/bn"
  type: "BatchNorm"
  bottom: "conv2_2/sep"
  top: "conv2_2/sep"
  batch_norm_param {
    moving_average_fraction: 0.999
    eps: 0.001
  }
}
layer {
  name: "conv2_2/sep/scale"
  type: "Scale"
  bottom: "conv2_2/sep"
  top: "conv2_2/sep"
  param {
    lr_mult: 1
    decay_mult: 0
  }
  param {
    lr_mult: 1
    decay_mult: 0
  }
  scale_param {
    filler {
      type: "constant"
      value: 1
    }
    bias_term: true
    bias_filler {
      type: "constant"
      value: 0
    }
  }
}
layer {
  name: "conv2_2/sep_relu"
  type: "ReLU"
  bottom: "conv2_2/sep"
  top: "conv2_2/sep"
}
layer {
  name: "conv3_1/dw"
  type: "Convolution"
  bottom: "conv2_2/sep"
  top: "conv3_1/dw"
  param {
    lr_mult: 1
    decay_mult: 1
  }
  convolution_param {
    num_output: 128
    bias_term: false
    pad: 1
    kernel_size: 3
    group: 128
    stride: 1
    weight_filler {
      type: "gaussian"
      std: 0.01
    }
    engine: CAFFE
  }
}
layer {
  name: "conv3_1/dw/bn"
  type: "BatchNorm"
  bottom: "conv3_1/dw"
  top: "conv3_1/dw"
  batch_norm_param {
    moving_average_fraction: 0.999
    eps: 0.001
  }
}
layer {
  name: "conv3_1/dw/scale"
  type: "Scale"
  bottom: "conv3_1/dw"
  top: "conv3_1/dw"
  param {
    lr_mult: 1
    decay_mult: 0
  }
  param {
    lr_mult: 1
    decay_mult: 0
  }
  scale_param {
    filler {
      type: "constant"
      value: 1
    }
    bias_term: true
    bias_filler {
      type: "constant"
      value: 0
    }
  }
}
layer {
  name: "conv3_1/dw_relu"
  type: "ReLU"
  bottom: "conv3_1/dw"
  top: "conv3_1/dw"
}
layer {
  name: "conv3_1/sep"
  type: "Convolution"
  bottom: "conv3_1/dw"
  top: "conv3_1/sep"
  param {
    lr_mult: 1
    decay_mult: 1
  }
  convolution_param {
    num_output: 128
    bias_term: false
    pad: 0
    kernel_size: 1
    group: 1
    stride: 1
    weight_filler {
      type: "gaussian"
      std: 0.01
    }
    engine: DEFAULT
  }
}
layer {
  name: "conv3_1/sep/bn"
  type: "BatchNorm"
  bottom: "conv3_1/sep"
  top: "conv3_1/sep"
  batch_norm_param {
    moving_average_fraction: 0.999
    eps: 0.001
  }
}
layer {
  name: "conv3_1/sep/scale"
  type: "Scale"
  bottom: "conv3_1/sep"
  top: "conv3_1/sep"
  param {
    lr_mult: 1
    decay_mult: 0
  }
  param {
    lr_mult: 1
    decay_mult: 0
  }
  scale_param {
    filler {
      type: "constant"
      value: 1
    }
    bias_term: true
    bias_filler {
      type: "constant"
      value: 0
    }
  }
}
layer {
  name: "conv3_1/sep_relu"
  type: "ReLU"
  bottom: "conv3_1/sep"
  top: "conv3_1/sep"
}
layer {
  name: "conv3_2/dw"
  type: "Convolution"
  bottom: "conv3_1/sep"
  top: "conv3_2/dw"
  param {
    lr_mult: 1
    decay_mult: 1
  }
  convolution_param {
    num_output: 128
    bias_term: false
    pad: 1
    kernel_size: 3
    group: 128
    stride: 2
    weight_filler {
      type: "gaussian"
      std: 0.01
    }
    engine: CAFFE
  }
}
layer {
  name: "conv3_2/dw/bn"
  type: "BatchNorm"
  bottom: "conv3_2/dw"
  top: "conv3_2/dw"
  batch_norm_param {
    moving_average_fraction: 0.999
    eps: 0.001
  }
}
layer {
  name: "conv3_2/dw/scale"
  type: "Scale"
  bottom: "conv3_2/dw"
  top: "conv3_2/dw"
  param {
    lr_mult: 1
    decay_mult: 0
  }
  param {
    lr_mult: 1
    decay_mult: 0
  }
  scale_param {
    filler {
      type: "constant"
      value: 1
    }
    bias_term: true
    bias_filler {
      type: "constant"
      value: 0
    }
  }
}
layer {
  name: "conv3_2/dw_relu"
  type: "ReLU"
  bottom: "conv3_2/dw"
  top: "conv3_2/dw"
}
layer {
  name: "conv3_2/sep"
  type: "Convolution"
  bottom: "conv3_2/dw"
  top: "conv3_2/sep"
  param {
    lr_mult: 1
    decay_mult: 1
  }
  convolution_param {
    num_output: 256
    bias_term: false
    pad: 0
    kernel_size: 1
    group: 1
    stride: 1
    weight_filler {
      type: "gaussian"
      std: 0.01
    }
    engine: DEFAULT
  }
}
layer {
  name: "conv3_2/sep/bn"
  type: "BatchNorm"
  bottom: "conv3_2/sep"
  top: "conv3_2/sep"
  batch_norm_param {
    moving_average_fraction: 0.999
    eps: 0.001
  }
}
layer {
  name: "conv3_2/sep/scale"
  type: "Scale"
  bottom: "conv3_2/sep"
  top: "conv3_2/sep"
  param {
    lr_mult: 1
    decay_mult: 0
  }
  param {
    lr_mult: 1
    decay_mult: 0
  }
  scale_param {
    filler {
      type: "constant"
      value: 1
    }
    bias_term: true
    bias_filler {
      type: "constant"
      value: 0
    }
  }
}
layer {
  name: "conv3_2/sep_relu"
  type: "ReLU"
  bottom: "conv3_2/sep"
  top: "conv3_2/sep"
}
layer {
  name: "conv4_1/dw"
  type: "Convolution"
  bottom: "conv3_2/sep"
  top: "conv4_1/dw"
  param {
    lr_mult: 1
    decay_mult: 1
  }
  convolution_param {
    num_output: 256
    bias_term: false
    pad: 1
    kernel_size: 3
    group: 256
    stride: 1
    weight_filler {
      type: "gaussian"
      std: 0.01
    }
    engine: CAFFE
  }
}
layer {
  name: "conv4_1/dw/bn"
  type: "BatchNorm"
  bottom: "conv4_1/dw"
  top: "conv4_1/dw"
  batch_norm_param {
    moving_average_fraction: 0.999
    eps: 0.001
  }
}
layer {
  name: "conv4_1/dw/scale"
  type: "Scale"
  bottom: "conv4_1/dw"
  top: "conv4_1/dw"
  param {
    lr_mult: 1
    decay_mult: 0
  }
  param {
    lr_mult: 1
    decay_mult: 0
  }
  scale_param {
    filler {
      type: "constant"
      value: 1
    }
    bias_term: true
    bias_filler {
      type: "constant"
      value: 0
    }
  }
}
layer {
  name: "conv4_1/dw_relu"
  type: "ReLU"
  bottom: "conv4_1/dw"
  top: "conv4_1/dw"
}
layer {
  name: "conv4_1/sep"
  type: "Convolution"
  bottom: "conv4_1/dw"
  top: "conv4_1/sep"
  param {
    lr_mult: 1
    decay_mult: 1
  }
  convolution_param {
    num_output: 256
    bias_term: false
    pad: 0
    kernel_size: 1
    group: 1
    stride: 1
    weight_filler {
      type: "gaussian"
      std: 0.01
    }
    engine: DEFAULT
  }
}
layer {
  name: "conv4_1/sep/bn"
  type: "BatchNorm"
  bottom: "conv4_1/sep"
  top: "conv4_1/sep"
  batch_norm_param {
    moving_average_fraction: 0.999
    eps: 0.001
  }
}
layer {
  name: "conv4_1/sep/scale"
  type: "Scale"
  bottom: "conv4_1/sep"
  top: "conv4_1/sep"
  param {
    lr_mult: 1
    decay_mult: 0
  }
  param {
    lr_mult: 1
    decay_mult: 0
  }
  scale_param {
    filler {
      type: "constant"
      value: 1
    }
    bias_term: true
    bias_filler {
      type: "constant"
      value: 0
    }
  }
}
layer {
  name: "conv4_1/sep_relu"
  type: "ReLU"
  bottom: "conv4_1/sep"
  top: "conv4_1/sep"
}
layer {
  name: "conv4_2/dw"
  type: "Convolution"
  bottom: "conv4_1/sep"
  top: "conv4_2/dw"
  param {
    lr_mult: 1
    decay_mult: 1
  }
  convolution_param {
    num_output: 256
    bias_term: false
    pad: 1
    kernel_size: 3
    group: 256
    stride: 2
    weight_filler {
      type: "gaussian"
      std: 0.01
    }
    engine: CAFFE
  }
}
layer {
  name: "conv4_2/dw/bn"
  type: "BatchNorm"
  bottom: "conv4_2/dw"
  top: "conv4_2/dw"
  batch_norm_param {
    moving_average_fraction: 0.999
    eps: 0.001
  }
}
layer {
  name: "conv4_2/dw/scale"
  type: "Scale"
  bottom: "conv4_2/dw"
  top: "conv4_2/dw"
  param {
    lr_mult: 1
    decay_mult: 0
  }
  param {
    lr_mult: 1
    decay_mult: 0
  }
  scale_param {
    filler {
      type: "constant"
      value: 1
    }
    bias_term: true
    bias_filler {
      type: "constant"
      value: 0
    }
  }
}
layer {
  name: "conv4_2/dw_relu"
  type: "ReLU"
  bottom: "conv4_2/dw"
  top: "conv4_2/dw"
}
layer {
  name: "conv4_2/sep"
  type: "Convolution"
  bottom: "conv4_2/dw"
  top: "conv4_2/sep"
  param {
    lr_mult: 1
    decay_mult: 1
  }
  convolution_param {
    num_output: 512
    bias_term: false
    pad: 0
    kernel_size: 1
    group: 1
    stride: 1
    weight_filler {
      type: "gaussian"
      std: 0.01
    }
    engine: DEFAULT
  }
}
layer {
  name: "conv4_2/sep/bn"
  type: "BatchNorm"
  bottom: "conv4_2/sep"
  top: "conv4_2/sep"
  batch_norm_param {
    moving_average_fraction: 0.999
    eps: 0.001
  }
}
layer {
  name: "conv4_2/sep/scale"
  type: "Scale"
  bottom: "conv4_2/sep"
  top: "conv4_2/sep"
  param {
    lr_mult: 1
    decay_mult: 0
  }
  param {
    lr_mult: 1
    decay_mult: 0
  }
  scale_param {
    filler {
      type: "constant"
      value: 1
    }
    bias_term: true
    bias_filler {
      type: "constant"
      value: 0
    }
  }
}
layer {
  name: "conv4_2/sep_relu"
  type: "ReLU"
  bottom: "conv4_2/sep"
  top: "conv4_2/sep"
}
layer {
  name: "conv5_1/dw"
  type: "Convolution"
  bottom: "conv4_2/sep"
  top: "conv5_1/dw"
  param {
    lr_mult: 1
    decay_mult: 1
  }
  convolution_param {
    num_output: 512
    bias_term: false
    pad: 1
    kernel_size: 3
    group: 512
    stride: 1
    weight_filler {
      type: "gaussian"
      std: 0.01
    }
    engine: CAFFE
  }
}
layer {
  name: "conv5_1/dw/bn"
  type: "BatchNorm"
  bottom: "conv5_1/dw"
  top: "conv5_1/dw"
  batch_norm_param {
    moving_average_fraction: 0.999
    eps: 0.001
  }
}
layer {
  name: "conv5_1/dw/scale"
  type: "Scale"
  bottom: "conv5_1/dw"
  top: "conv5_1/dw"
  param {
    lr_mult: 1
    decay_mult: 0
  }
  param {
    lr_mult: 1
    decay_mult: 0
  }
  scale_param {
    filler {
      type: "constant"
      value: 1
    }
    bias_term: true
    bias_filler {
      type: "constant"
      value: 0
    }
  }
}
layer {
  name: "conv5_1/dw_relu"
  type: "ReLU"
  bottom: "conv5_1/dw"
  top: "conv5_1/dw"
}
layer {
  name: "conv5_1/sep"
  type: "Convolution"
  bottom: "conv5_1/dw"
  top: "conv5_1/sep"
  param {
    lr_mult: 1
    decay_mult: 1
  }
  convolution_param {
    num_output: 512
    bias_term: false
    pad: 0
    kernel_size: 1
    group: 1
    stride: 1
    weight_filler {
      type: "gaussian"
      std: 0.01
    }
    engine: DEFAULT
  }
}
layer {
  name: "conv5_1/sep/bn"
  type: "BatchNorm"
  bottom: "conv5_1/sep"
  top: "conv5_1/sep"
  batch_norm_param {
    moving_average_fraction: 0.999
    eps: 0.001
  }
}
layer {
  name: "conv5_1/sep/scale"
  type: "Scale"
  bottom: "conv5_1/sep"
  top: "conv5_1/sep"
  param {
    lr_mult: 1
    decay_mult: 0
  }
  param {
    lr_mult: 1
    decay_mult: 0
  }
  scale_param {
    filler {
      type: "constant"
      value: 1
    }
    bias_term: true
    bias_filler {
      type: "constant"
      value: 0
    }
  }
}
layer {
  name: "conv5_1/sep_relu"
  type: "ReLU"
  bottom: "conv5_1/sep"
  top: "conv5_1/sep"
}
layer {
  name: "conv5_2/dw"
  type: "Convolution"
  bottom: "conv5_1/sep"
  top: "conv5_2/dw"
  param {
    lr_mult: 1
    decay_mult: 1
  }
  convolution_param {
    num_output: 512
    bias_term: false
    pad: 1
    kernel_size: 3
    group: 512
    stride: 1
    weight_filler {
      type: "gaussian"
      std: 0.01
    }
    engine: CAFFE
  }
}
layer {
  name: "conv5_2/dw/bn"
  type: "BatchNorm"
  bottom: "conv5_2/dw"
  top: "conv5_2/dw"
  batch_norm_param {
    moving_average_fraction: 0.999
    eps: 0.001
  }
}
layer {
  name: "conv5_2/dw/scale"
  type: "Scale"
  bottom: "conv5_2/dw"
  top: "conv5_2/dw"
  param {
    lr_mult: 1
    decay_mult: 0
  }
  param {
    lr_mult: 1
    decay_mult: 0
  }
  scale_param {
    filler {
      type: "constant"
      value: 1
    }
    bias_term: true
    bias_filler {
      type: "constant"
      value: 0
    }
  }
}
layer {
  name: "conv5_2/dw_relu"
  type: "ReLU"
  bottom: "conv5_2/dw"
  top: "conv5_2/dw"
}
layer {
  name: "conv5_2/sep"
  type: "Convolution"
  bottom: "conv5_2/dw"
  top: "conv5_2/sep"
  param {
    lr_mult: 1
    decay_mult: 1
  }
  convolution_param {
    num_output: 512
    bias_term: false
    pad: 0
    kernel_size: 1
    group: 1
    stride: 1
    weight_filler {
      type: "gaussian"
      std: 0.01
    }
    engine: DEFAULT
  }
}
layer {
  name: "conv5_2/sep/bn"
  type: "BatchNorm"
  bottom: "conv5_2/sep"
  top: "conv5_2/sep"
  batch_norm_param {
    moving_average_fraction: 0.999
    eps: 0.001
  }
}
layer {
  name: "conv5_2/sep/scale"
  type: "Scale"
  bottom: "conv5_2/sep"
  top: "conv5_2/sep"
  param {
    lr_mult: 1
    decay_mult: 0
  }
  param {
    lr_mult: 1
    decay_mult: 0
  }
  scale_param {
    filler {
      type: "constant"
      value: 1
    }
    bias_term: true
    bias_filler {
      type: "constant"
      value: 0
    }
  }
}
layer {
  name: "conv5_2/sep_relu"
  type: "ReLU"
  bottom: "conv5_2/sep"
  top: "conv5_2/sep"
}
layer {
  name: "conv5_3/dw"
  type: "Convolution"
  bottom: "conv5_2/sep"
  top: "conv5_3/dw"
  param {
    lr_mult: 1
    decay_mult: 1
  }
  convolution_param {
    num_output: 512
    bias_term: false
    pad: 1
    kernel_size: 3
    group: 512
    stride: 1
    weight_filler {
      type: "gaussian"
      std: 0.01
    }
    engine: CAFFE
  }
}
layer {
  name: "conv5_3/dw/bn"
  type: "BatchNorm"
  bottom: "conv5_3/dw"
  top: "conv5_3/dw"
  batch_norm_param {
    moving_average_fraction: 0.999
    eps: 0.001
  }
}
layer {
  name: "conv5_3/dw/scale"
  type: "Scale"
  bottom: "conv5_3/dw"
  top: "conv5_3/dw"
  param {
    lr_mult: 1
    decay_mult: 0
  }
  param {
    lr_mult: 1
    decay_mult: 0
  }
  scale_param {
    filler {
      type: "constant"
      value: 1
    }
    bias_term: true
    bias_filler {
      type: "constant"
      value: 0
    }
  }
}
layer {
  name: "conv5_3/dw_relu"
  type: "ReLU"
  bottom: "conv5_3/dw"
  top: "conv5_3/dw"
}
layer {
  name: "conv5_3/sep"
  type: "Convolution"
  bottom: "conv5_3/dw"
  top: "conv5_3/sep"
  param {
    lr_mult: 1
    decay_mult: 1
  }
  convolution_param {
    num_output: 512
    bias_term: false
    pad: 0
    kernel_size: 1
    group: 1
    stride: 1
    weight_filler {
      type: "gaussian"
      std: 0.01
    }
    engine: DEFAULT
  }
}
layer {
  name: "conv5_3/sep/bn"
  type: "BatchNorm"
  bottom: "conv5_3/sep"
  top: "conv5_3/sep"
  batch_norm_param {
    moving_average_fraction: 0.999
    eps: 0.001
  }
}
layer {
  name: "conv5_3/sep/scale"
  type: "Scale"
  bottom: "conv5_3/sep"
  top: "conv5_3/sep"
  param {
    lr_mult: 1
    decay_mult: 0
  }
  param {
    lr_mult: 1
    decay_mult: 0
  }
  scale_param {
    filler {
      type: "constant"
      value: 1
    }
    bias_term: true
    bias_filler {
      type: "constant"
      value: 0
    }
  }
}
layer {
  name: "conv5_3/sep_relu"
  type: "ReLU"
  bottom: "conv5_3/sep"
  top: "conv5_3/sep"
}
layer {
  name: "conv5_4/dw"
  type: "Convolution"
  bottom: "conv5_3/sep"
  top: "conv5_4/dw"
  param {
    lr_mult: 1
    decay_mult: 1
  }
  convolution_param {
    num_output: 512
    bias_term: false
    pad: 1
    kernel_size: 3
    group: 512
    stride: 1
    weight_filler {
      type: "gaussian"
      std: 0.01
    }
    engine: CAFFE
  }
}
layer {
  name: "conv5_4/dw/bn"
  type: "BatchNorm"
  bottom: "conv5_4/dw"
  top: "conv5_4/dw"
  batch_norm_param {
    moving_average_fraction: 0.999
    eps: 0.001
  }
}
layer {
  name: "conv5_4/dw/scale"
  type: "Scale"
  bottom: "conv5_4/dw"
  top: "conv5_4/dw"
  param {
    lr_mult: 1
    decay_mult: 0
  }
  param {
    lr_mult: 1
    decay_mult: 0
  }
  scale_param {
    filler {
      type: "constant"
      value: 1
    }
    bias_term: true
    bias_filler {
      type: "constant"
      value: 0
    }
  }
}
layer {
  name: "conv5_4/dw_relu"
  type: "ReLU"
…
I0825 10:18:40.768525 10411 net.cpp:150] Setting up conv5_6/dw_relu
I0825 10:18:40.768535 10411 net.cpp:157] Top shape: 8 512 10 10 (409600)
I0825 10:18:40.768538 10411 net.cpp:165] Memory required for data: 1228214336
I0825 10:18:40.768541 10411 layer_factory.hpp:77] Creating layer conv5_6/sep
I0825 10:18:40.768550 10411 net.cpp:100] Creating Layer conv5_6/sep
I0825 10:18:40.768554 10411 net.cpp:434] conv5_6/sep <- conv5_6/dw
I0825 10:18:40.768559 10411 net.cpp:408] conv5_6/sep -> conv5_6/sep
I0825 10:18:40.774129 10411 net.cpp:150] Setting up conv5_6/sep
I0825 10:18:40.774142 10411 net.cpp:157] Top shape: 8 1024 10 10 (819200)
I0825 10:18:40.774145 10411 net.cpp:165] Memory required for data: 1231491136
I0825 10:18:40.774150 10411 layer_factory.hpp:77] Creating layer conv5_6/sep/bn
I0825 10:18:40.774157 10411 net.cpp:100] Creating Layer conv5_6/sep/bn
I0825 10:18:40.774160 10411 net.cpp:434] conv5_6/sep/bn <- conv5_6/sep
I0825 10:18:40.774165 10411 net.cpp:395] conv5_6/sep/bn -> conv5_6/sep (in-place)
I0825 10:18:40.774332 10411 net.cpp:150] Setting up conv5_6/sep/bn
I0825 10:18:40.774338 10411 net.cpp:157] Top shape: 8 1024 10 10 (819200)
I0825 10:18:40.774340 10411 net.cpp:165] Memory required for data: 1234767936
I0825 10:18:40.774345 10411 layer_factory.hpp:77] Creating layer conv5_6/sep/scale
I0825 10:18:40.774351 10411 net.cpp:100] Creating Layer conv5_6/sep/scale
I0825 10:18:40.774354 10411 net.cpp:434] conv5_6/sep/scale <- conv5_6/sep
I0825 10:18:40.774358 10411 net.cpp:395] conv5_6/sep/scale -> conv5_6/sep (in-place)
I0825 10:18:40.774400 10411 layer_factory.hpp:77] Creating layer conv5_6/sep/scale
I0825 10:18:40.774497 10411 net.cpp:150] Setting up conv5_6/sep/scale
I0825 10:18:40.774502 10411 net.cpp:157] Top shape: 8 1024 10 10 (819200)
I0825 10:18:40.774505 10411 net.cpp:165] Memory required for data: 1238044736
I0825 10:18:40.774510 10411 layer_factory.hpp:77] Creating layer conv5_6/sep_relu
I0825 10:18:40.774515 10411 net.cpp:100] Creating Layer conv5_6/sep_relu
I0825 10:18:40.774518 10411 net.cpp:434] conv5_6/sep_relu <- conv5_6/sep
I0825 10:18:40.774523 10411 net.cpp:395] conv5_6/sep_relu -> conv5_6/sep (in-place)
I0825 10:18:40.775099 10411 net.cpp:150] Setting up conv5_6/sep_relu
I0825 10:18:40.775110 10411 net.cpp:157] Top shape: 8 1024 10 10 (819200)
I0825 10:18:40.775122 10411 net.cpp:165] Memory required for data: 1241321536
I0825 10:18:40.775126 10411 layer_factory.hpp:77] Creating layer conv6/dw
I0825 10:18:40.775135 10411 net.cpp:100] Creating Layer conv6/dw
I0825 10:18:40.775137 10411 net.cpp:434] conv6/dw <- conv5_6/sep
I0825 10:18:40.775142 10411 net.cpp:408] conv6/dw -> conv6/dw
I0825 10:18:40.775375 10411 net.cpp:150] Setting up conv6/dw
I0825 10:18:40.775382 10411 net.cpp:157] Top shape: 8 1024 10 10 (819200)
I0825 10:18:40.775384 10411 net.cpp:165] Memory required for data: 1244598336
I0825 10:18:40.775389 10411 layer_factory.hpp:77] Creating layer conv6/dw/bn
I0825 10:18:40.775396 10411 net.cpp:100] Creating Layer conv6/dw/bn
I0825 10:18:40.775399 10411 net.cpp:434] conv6/dw/bn <- conv6/dw
I0825 10:18:40.775403 10411 net.cpp:395] conv6/dw/bn -> conv6/dw (in-place)
I0825 10:18:40.775560 10411 net.cpp:150] Setting up conv6/dw/bn
I0825 10:18:40.775565 10411 net.cpp:157] Top shape: 8 1024 10 10 (819200)
I0825 10:18:40.775568 10411 net.cpp:165] Memory required for data: 1247875136
I0825 10:18:40.775574 10411 layer_factory.hpp:77] Creating layer conv6/dw/scale
I0825 10:18:40.775579 10411 net.cpp:100] Creating Layer conv6/dw/scale
I0825 10:18:40.775583 10411 net.cpp:434] conv6/dw/scale <- conv6/dw
I0825 10:18:40.775588 10411 net.cpp:395] conv6/dw/scale -> conv6/dw (in-place)
I0825 10:18:40.775626 10411 layer_factory.hpp:77] Creating layer conv6/dw/scale
I0825 10:18:40.775725 10411 net.cpp:150] Setting up conv6/dw/scale
I0825 10:18:40.775732 10411 net.cpp:157] Top shape: 8 1024 10 10 (819200)
I0825 10:18:40.775734 10411 net.cpp:165] Memory required for data: 1251151936
I0825 10:18:40.775739 10411 layer_factory.hpp:77] Creating layer conv6/dw_relu
I0825 10:18:40.775745 10411 net.cpp:100] Creating Layer conv6/dw_relu
I0825 10:18:40.775749 10411 net.cpp:434] conv6/dw_relu <- conv6/dw
I0825 10:18:40.775753 10411 net.cpp:395] conv6/dw_relu -> conv6/dw (in-place)
I0825 10:18:40.775912 10411 net.cpp:150] Setting up conv6/dw_relu
I0825 10:18:40.775918 10411 net.cpp:157] Top shape: 8 1024 10 10 (819200)
I0825 10:18:40.775921 10411 net.cpp:165] Memory required for data: 1254428736
I0825 10:18:40.775925 10411 layer_factory.hpp:77] Creating layer conv6/sep
I0825 10:18:40.775933 10411 net.cpp:100] Creating Layer conv6/sep
I0825 10:18:40.775936 10411 net.cpp:434] conv6/sep <- conv6/dw
I0825 10:18:40.775941 10411 net.cpp:408] conv6/sep -> conv6/sep
I0825 10:18:40.786233 10411 net.cpp:150] Setting up conv6/sep
I0825 10:18:40.786247 10411 net.cpp:157] Top shape: 8 1024 10 10 (819200)
I0825 10:18:40.786249 10411 net.cpp:165] Memory required for data: 1257705536
I0825 10:18:40.786254 10411 layer_factory.hpp:77] Creating layer conv6/sep/bn
I0825 10:18:40.786262 10411 net.cpp:100] Creating Layer conv6/sep/bn
I0825 10:18:40.786267 10411 net.cpp:434] conv6/sep/bn <- conv6/sep
I0825 10:18:40.786270 10411 net.cpp:395] conv6/sep/bn -> conv6/sep (in-place)
I0825 10:18:40.786440 10411 net.cpp:150] Setting up conv6/sep/bn
I0825 10:18:40.786447 10411 net.cpp:157] Top shape: 8 1024 10 10 (819200)
I0825 10:18:40.786449 10411 net.cpp:165] Memory required for data: 1260982336
I0825 10:18:40.786455 10411 layer_factory.hpp:77] Creating layer conv6/sep/scale
I0825 10:18:40.786460 10411 net.cpp:100] Creating Layer conv6/sep/scale
I0825 10:18:40.786464 10411 net.cpp:434] conv6/sep/scale <- conv6/sep
I0825 10:18:40.786469 10411 net.cpp:395] conv6/sep/scale -> conv6/sep (in-place)
I0825 10:18:40.786511 10411 layer_factory.hpp:77] Creating layer conv6/sep/scale
I0825 10:18:40.786612 10411 net.cpp:150] Setting up conv6/sep/scale
I0825 10:18:40.786618 10411 net.cpp:157] Top shape: 8 1024 10 10 (819200)
I0825 10:18:40.786622 10411 net.cpp:165] Memory required for data: 1264259136
I0825 10:18:40.786626 10411 layer_factory.hpp:77] Creating layer conv6/sep_relu
I0825 10:18:40.786631 10411 net.cpp:100] Creating Layer conv6/sep_relu
I0825 10:18:40.786634 10411 net.cpp:434] conv6/sep_relu <- conv6/sep
I0825 10:18:40.786639 10411 net.cpp:395] conv6/sep_relu -> conv6/sep (in-place)
I0825 10:18:40.787214 10411 net.cpp:150] Setting up conv6/sep_relu
I0825 10:18:40.787236 10411 net.cpp:157] Top shape: 8 1024 10 10 (819200)
I0825 10:18:40.787240 10411 net.cpp:165] Memory required for data: 1267535936
I0825 10:18:40.787243 10411 layer_factory.hpp:77] Creating layer conv6/sep_conv6/sep_relu_0_split
I0825 10:18:40.787250 10411 net.cpp:100] Creating Layer conv6/sep_conv6/sep_relu_0_split
I0825 10:18:40.787253 10411 net.cpp:434] conv6/sep_conv6/sep_relu_0_split <- conv6/sep
I0825 10:18:40.787259 10411 net.cpp:408] conv6/sep_conv6/sep_relu_0_split -> conv6/sep_conv6/sep_relu_0_split_0
I0825 10:18:40.787266 10411 net.cpp:408] conv6/sep_conv6/sep_relu_0_split -> conv6/sep_conv6/sep_relu_0_split_1
I0825 10:18:40.787271 10411 net.cpp:408] conv6/sep_conv6/sep_relu_0_split -> conv6/sep_conv6/sep_relu_0_split_2
I0825 10:18:40.787276 10411 net.cpp:408] conv6/sep_conv6/sep_relu_0_split -> conv6/sep_conv6/sep_relu_0_split_3
I0825 10:18:40.787330 10411 net.cpp:150] Setting up conv6/sep_conv6/sep_relu_0_split
I0825 10:18:40.787336 10411 net.cpp:157] Top shape: 8 1024 10 10 (819200)
I0825 10:18:40.787339 10411 net.cpp:157] Top shape: 8 1024 10 10 (819200)
I0825 10:18:40.787343 10411 net.cpp:157] Top shape: 8 1024 10 10 (819200)
I0825 10:18:40.787346 10411 net.cpp:157] Top shape: 8 1024 10 10 (819200)
I0825 10:18:40.787349 10411 net.cpp:165] Memory required for data: 1280643136
I0825 10:18:40.787353 10411 layer_factory.hpp:77] Creating layer conv7_1
I0825 10:18:40.787360 10411 net.cpp:100] Creating Layer conv7_1
I0825 10:18:40.787364 10411 net.cpp:434] conv7_1 <- conv6/sep_conv6/sep_relu_0_split_0
I0825 10:18:40.787369 10411 net.cpp:408] conv7_1 -> conv7_1
I0825 10:18:40.790349 10411 net.cpp:150] Setting up conv7_1
I0825 10:18:40.790359 10411 net.cpp:157] Top shape: 8 256 10 10 (204800)
I0825 10:18:40.790364 10411 net.cpp:165] Memory required for data: 1281462336
I0825 10:18:40.790369 10411 layer_factory.hpp:77] Creating layer conv7_1_relu
I0825 10:18:40.790374 10411 net.cpp:100] Creating Layer conv7_1_relu
I0825 10:18:40.790377 10411 net.cpp:434] conv7_1_relu <- conv7_1
I0825 10:18:40.790383 10411 net.cpp:395] conv7_1_relu -> conv7_1 (in-place)
I0825 10:18:40.790544 10411 net.cpp:150] Setting up conv7_1_relu
I0825 10:18:40.790551 10411 net.cpp:157] Top shape: 8 256 10 10 (204800)
I0825 10:18:40.790555 10411 net.cpp:165] Memory required for data: 1282281536
I0825 10:18:40.790556 10411 layer_factory.hpp:77] Creating layer conv7_2
I0825 10:18:40.790565 10411 net.cpp:100] Creating Layer conv7_2
I0825 10:18:40.790570 10411 net.cpp:434] conv7_2 <- conv7_1
I0825 10:18:40.790575 10411 net.cpp:408] conv7_2 -> conv7_2
I0825 10:18:40.798104 10411 net.cpp:150] Setting up conv7_2
I0825 10:18:40.798116 10411 net.cpp:157] Top shape: 8 512 5 5 (102400)
I0825 10:18:40.798118 10411 net.cpp:165] Memory required for data: 1282691136
I0825 10:18:40.798123 10411 layer_factory.hpp:77] Creating layer conv7_2_relu
I0825 10:18:40.798130 10411 net.cpp:100] Creating Layer conv7_2_relu
I0825 10:18:40.798132 10411 net.cpp:434] conv7_2_relu <- conv7_2
I0825 10:18:40.798135 10411 net.cpp:395] conv7_2_relu -> conv7_2 (in-place)
I0825 10:18:40.798293 10411 net.cpp:150] Setting up conv7_2_relu
I0825 10:18:40.798301 10411 net.cpp:157] Top shape: 8 512 5 5 (102400)
I0825 10:18:40.798305 10411 net.cpp:165] Memory required for data: 1283100736
I0825 10:18:40.798308 10411 layer_factory.hpp:77] Creating layer conv7_2_conv7_2_relu_0_split
I0825 10:18:40.798313 10411 net.cpp:100] Creating Layer conv7_2_conv7_2_relu_0_split
I0825 10:18:40.798317 10411 net.cpp:434] conv7_2_conv7_2_relu_0_split <- conv7_2
I0825 10:18:40.798322 10411 net.cpp:408] conv7_2_conv7_2_relu_0_split -> conv7_2_conv7_2_relu_0_split_0
I0825 10:18:40.798329 10411 net.cpp:408] conv7_2_conv7_2_relu_0_split -> conv7_2_conv7_2_relu_0_split_1
I0825 10:18:40.798334 10411 net.cpp:408] conv7_2_conv7_2_relu_0_split -> conv7_2_conv7_2_relu_0_split_2
I0825 10:18:40.798339 10411 net.cpp:408] conv7_2_conv7_2_relu_0_split -> conv7_2_conv7_2_relu_0_split_3
I0825 10:18:40.798393 10411 net.cpp:150] Setting up conv7_2_conv7_2_relu_0_split
I0825 10:18:40.798398 10411 net.cpp:157] Top shape: 8 512 5 5 (102400)
I0825 10:18:40.798413 10411 net.cpp:157] Top shape: 8 512 5 5 (102400)
I0825 10:18:40.798418 10411 net.cpp:157] Top shape: 8 512 5 5 (102400)
I0825 10:18:40.798420 10411 net.cpp:157] Top shape: 8 512 5 5 (102400)
I0825 10:18:40.798424 10411 net.cpp:165] Memory required for data: 1284739136
I0825 10:18:40.798427 10411 layer_factory.hpp:77] Creating layer conv8_1
I0825 10:18:40.798435 10411 net.cpp:100] Creating Layer conv8_1
I0825 10:18:40.798439 10411 net.cpp:434] conv8_1 <- conv7_2_conv7_2_relu_0_split_0
I0825 10:18:40.798444 10411 net.cpp:408] conv8_1 -> conv8_1
I0825 10:18:40.800664 10411 net.cpp:150] Setting up conv8_1
I0825 10:18:40.800675 10411 net.cpp:157] Top shape: 8 128 5 5 (25600)
I0825 10:18:40.800678 10411 net.cpp:165] Memory required for data: 1284841536
I0825 10:18:40.800684 10411 layer_factory.hpp:77] Creating layer conv8_1_relu
I0825 10:18:40.800689 10411 net.cpp:100] Creating Layer conv8_1_relu
I0825 10:18:40.800693 10411 net.cpp:434] conv8_1_relu <- conv8_1
I0825 10:18:40.800698 10411 net.cpp:395] conv8_1_relu -> conv8_1 (in-place)
I0825 10:18:40.801275 10411 net.cpp:150] Setting up conv8_1_relu
I0825 10:18:40.801285 10411 net.cpp:157] Top shape: 8 128 5 5 (25600)
I0825 10:18:40.801288 10411 net.cpp:165] Memory required for data: 1284943936
I0825 10:18:40.801291 10411 layer_factory.hpp:77] Creating layer conv8_2
I0825 10:18:40.801300 10411 net.cpp:100] Creating Layer conv8_2
I0825 10:18:40.801303 10411 net.cpp:434] conv8_2 <- conv8_1
I0825 10:18:40.801311 10411 net.cpp:408] conv8_2 -> conv8_2
I0825 10:18:40.804483 10411 net.cpp:150] Setting up conv8_2
I0825 10:18:40.804494 10411 net.cpp:157] Top shape: 8 256 3 3 (18432)
I0825 10:18:40.804497 10411 net.cpp:165] Memory required for data: 1285017664
I0825 10:18:40.804502 10411 layer_factory.hpp:77] Creating layer conv8_2_relu
I0825 10:18:40.804508 10411 net.cpp:100] Creating Layer conv8_2_relu
I0825 10:18:40.804512 10411 net.cpp:434] conv8_2_relu <- conv8_2
I0825 10:18:40.804518 10411 net.cpp:395] conv8_2_relu -> conv8_2 (in-place)
I0825 10:18:40.804677 10411 net.cpp:150] Setting up conv8_2_relu
I0825 10:18:40.804684 10411 net.cpp:157] Top shape: 8 256 3 3 (18432)
I0825 10:18:40.804687 10411 net.cpp:165] Memory required for data: 1285091392
I0825 10:18:40.804690 10411 layer_factory.hpp:77] Creating layer conv8_2_conv8_2_relu_0_split
I0825 10:18:40.804697 10411 net.cpp:100] Creating Layer conv8_2_conv8_2_relu_0_split
I0825 10:18:40.804700 10411 net.cpp:434] conv8_2_conv8_2_relu_0_split <- conv8_2
I0825 10:18:40.804705 10411 net.cpp:408] conv8_2_conv8_2_relu_0_split -> conv8_2_conv8_2_relu_0_split_0
I0825 10:18:40.804713 10411 net.cpp:408] conv8_2_conv8_2_relu_0_split -> conv8_2_conv8_2_relu_0_split_1
I0825 10:18:40.804718 10411 net.cpp:408] conv8_2_conv8_2_relu_0_split -> conv8_2_conv8_2_relu_0_split_2
I0825 10:18:40.804723 10411 net.cpp:408] conv8_2_conv8_2_relu_0_split -> conv8_2_conv8_2_relu_0_split_3
I0825 10:18:40.804778 10411 net.cpp:150] Setting up conv8_2_conv8_2_relu_0_split
I0825 10:18:40.804783 10411 net.cpp:157] Top shape: 8 256 3 3 (18432)
I0825 10:18:40.804786 10411 net.cpp:157] Top shape: 8 256 3 3 (18432)
I0825 10:18:40.804790 10411 net.cpp:157] Top shape: 8 256 3 3 (18432)
I0825 10:18:40.804793 10411 net.cpp:157] Top shape: 8 256 3 3 (18432)
I0825 10:18:40.804796 10411 net.cpp:165] Memory required for data: 1285386304
I0825 10:18:40.804800 10411 layer_factory.hpp:77] Creating layer conv9_1
I0825 10:18:40.804808 10411 net.cpp:100] Creating Layer conv9_1
I0825 10:18:40.804811 10411 net.cpp:434] conv9_1 <- conv8_2_conv8_2_relu_0_split_0
I0825 10:18:40.804819 10411 net.cpp:408] conv9_1 -> conv9_1
I0825 10:18:40.806835 10411 net.cpp:150] Setting up conv9_1
I0825 10:18:40.806846 10411 net.cpp:157] Top shape: 8 128 3 3 (9216)
I0825 10:18:40.806849 10411 net.cpp:165] Memory required for data: 1285423168
I0825 10:18:40.806855 10411 layer_factory.hpp:77] Creating layer conv9_1_relu
I0825 10:18:40.806860 10411 net.cpp:100] Creating Layer conv9_1_relu
I0825 10:18:40.806864 10411 net.cpp:434] conv9_1_relu <- conv9_1
I0825 10:18:40.806880 10411 net.cpp:395] conv9_1_relu -> conv9_1 (in-place)
I0825 10:18:40.807042 10411 net.cpp:150] Setting up conv9_1_relu
I0825 10:18:40.807050 10411 net.cpp:157] Top shape: 8 128 3 3 (9216)
I0825 10:18:40.807054 10411 net.cpp:165] Memory required for data: 1285460032
I0825 10:18:40.807057 10411 layer_factory.hpp:77] Creating layer conv9_2
I0825 10:18:40.807065 10411 net.cpp:100] Creating Layer conv9_2
I0825 10:18:40.807068 10411 net.cpp:434] conv9_2 <- conv9_1
I0825 10:18:40.807075 10411 net.cpp:408] conv9_2 -> conv9_2
I0825 10:18:40.810233 10411 net.cpp:150] Setting up conv9_2
I0825 10:18:40.810243 10411 net.cpp:157] Top shape: 8 256 2 2 (8192)
I0825 10:18:40.810246 10411 net.cpp:165] Memory required for data: 1285492800
I0825 10:18:40.810252 10411 layer_factory.hpp:77] Creating layer conv9_2_relu
I0825 10:18:40.810258 10411 net.cpp:100] Creating Layer conv9_2_relu
I0825 10:18:40.810262 10411 net.cpp:434] conv9_2_relu <- conv9_2
I0825 10:18:40.810267 10411 net.cpp:395] conv9_2_relu -> conv9_2 (in-place)
I0825 10:18:40.810842 10411 net.cpp:150] Setting up conv9_2_relu
I0825 10:18:40.810853 10411 net.cpp:157] Top shape: 8 256 2 2 (8192)
I0825 10:18:40.810855 10411 net.cpp:165] Memory required for data: 1285525568
I0825 10:18:40.810858 10411 layer_factory.hpp:77] Creating layer conv9_2_conv9_2_relu_0_split
I0825 10:18:40.810864 10411 net.cpp:100] Creating Layer conv9_2_conv9_2_relu_0_split
I0825 10:18:40.810868 10411 net.cpp:434] conv9_2_conv9_2_relu_0_split <- conv9_2
I0825 10:18:40.810874 10411 net.cpp:408] conv9_2_conv9_2_relu_0_split -> conv9_2_conv9_2_relu_0_split_0
I0825 10:18:40.810880 10411 net.cpp:408] conv9_2_conv9_2_relu_0_split -> conv9_2_conv9_2_relu_0_split_1
I0825 10:18:40.810885 10411 net.cpp:408] conv9_2_conv9_2_relu_0_split -> conv9_2_conv9_2_relu_0_split_2
I0825 10:18:40.810891 10411 net.cpp:408] conv9_2_conv9_2_relu_0_split -> conv9_2_conv9_2_relu_0_split_3
I0825 10:18:40.810946 10411 net.cpp:150] Setting up conv9_2_conv9_2_relu_0_split
I0825 10:18:40.810951 10411 net.cpp:157] Top shape: 8 256 2 2 (8192)
I0825 10:18:40.810955 10411 net.cpp:157] Top shape: 8 256 2 2 (8192)
I0825 10:18:40.810958 10411 net.cpp:157] Top shape: 8 256 2 2 (8192)
I0825 10:18:40.810961 10411 net.cpp:157] Top shape: 8 256 2 2 (8192)
I0825 10:18:40.810964 10411 net.cpp:165] Memory required for data: 1285656640
I0825 10:18:40.810967 10411 layer_factory.hpp:77] Creating layer conv10_1
I0825 10:18:40.810976 10411 net.cpp:100] Creating Layer conv10_1
I0825 10:18:40.810978 10411 net.cpp:434] conv10_1 <- conv9_2_conv9_2_relu_0_split_0
I0825 10:18:40.810986 10411 net.cpp:408] conv10_1 -> conv10_1
I0825 10:18:40.812656 10411 net.cpp:150] Setting up conv10_1
I0825 10:18:40.812667 10411 net.cpp:157] Top shape: 8 128 2 2 (4096)
I0825 10:18:40.812670 10411 net.cpp:165] Memory required for data: 1285673024
I0825 10:18:40.812676 10411 layer_factory.hpp:77] Creating layer conv10_1_relu
I0825 10:18:40.812697 10411 net.cpp:100] Creating Layer conv10_1_relu
I0825 10:18:40.812701 10411 net.cpp:434] conv10_1_relu <- conv10_1
I0825 10:18:40.812705 10411 net.cpp:395] conv10_1_relu -> conv10_1 (in-place)
I0825 10:18:40.812916 10411 net.cpp:150] Setting up conv10_1_relu
I0825 10:18:40.812924 10411 net.cpp:157] Top shape: 8 128 2 2 (4096)
I0825 10:18:40.812927 10411 net.cpp:165] Memory required for data: 1285689408
I0825 10:18:40.812932 10411 layer_factory.hpp:77] Creating layer conv10_2
I0825 10:18:40.812938 10411 net.cpp:100] Creating Layer conv10_2
I0825 10:18:40.812942 10411 net.cpp:434] conv10_2 <- conv10_1
I0825 10:18:40.812947 10411 net.cpp:408] conv10_2 -> conv10_2
I0825 10:18:40.816084 10411 net.cpp:150] Setting up conv10_2
I0825 10:18:40.816095 10411 net.cpp:157] Top shape: 8 256 1 1 (2048)
I0825 10:18:40.816099 10411 net.cpp:165] Memory required for data: 1285697600
I0825 10:18:40.816105 10411 layer_factory.hpp:77] Creating layer conv10_2_relu
I0825 10:18:40.816112 10411 net.cpp:100] Creating Layer conv10_2_relu
I0825 10:18:40.816114 10411 net.cpp:434] conv10_2_relu <- conv10_2
I0825 10:18:40.816119 10411 net.cpp:395] conv10_2_relu -> conv10_2 (in-place)
I0825 10:18:40.816289 10411 net.cpp:150] Setting up conv10_2_relu
I0825 10:18:40.816298 10411 net.cpp:157] Top shape: 8 256 1 1 (2048)
I0825 10:18:40.816300 10411 net.cpp:165] Memory required for data: 1285705792
I0825 10:18:40.816303 10411 layer_factory.hpp:77] Creating layer conv10_2_conv10_2_relu_0_split
I0825 10:18:40.816308 10411 net.cpp:100] Creating Layer conv10_2_conv10_2_relu_0_split
I0825 10:18:40.816313 10411 net.cpp:434] conv10_2_conv10_2_relu_0_split <- conv10_2
I0825 10:18:40.816318 10411 net.cpp:408] conv10_2_conv10_2_relu_0_split -> conv10_2_conv10_2_relu_0_split_0
I0825 10:18:40.816332 10411 net.cpp:408] conv10_2_conv10_2_relu_0_split -> conv10_2_conv10_2_relu_0_split_1
I0825 10:18:40.816339 10411 net.cpp:408] conv10_2_conv10_2_relu_0_split -> conv10_2_conv10_2_relu_0_split_2
I0825 10:18:40.816383 10411 net.cpp:150] Setting up conv10_2_conv10_2_relu_0_split
I0825 10:18:40.816390 10411 net.cpp:157] Top shape: 8 256 1 1 (2048)
I0825 10:18:40.816392 10411 net.cpp:157] Top shape: 8 256 1 1 (2048)
I0825 10:18:40.816396 10411 net.cpp:157] Top shape: 8 256 1 1 (2048)
I0825 10:18:40.816400 10411 net.cpp:165] Memory required for data: 1285730368
I0825 10:18:40.816402 10411 layer_factory.hpp:77] Creating layer conv5_5/sep_mbox_loc
I0825 10:18:40.816411 10411 net.cpp:100] Creating Layer conv5_5/sep_mbox_loc
I0825 10:18:40.816414 10411 net.cpp:434] conv5_5/sep_mbox_loc <- conv5_5/sep_conv5_5/sep_relu_0_split_1
I0825 10:18:40.816421 10411 net.cpp:408] conv5_5/sep_mbox_loc -> conv5_5/sep_mbox_loc
I0825 10:18:40.818578 10411 net.cpp:150] Setting up conv5_5/sep_mbox_loc
I0825 10:18:40.818588 10411 net.cpp:157] Top shape: 8 12 19 19 (34656)
I0825 10:18:40.818591 10411 net.cpp:165] Memory required for data: 1285868992
I0825 10:18:40.818596 10411 layer_factory.hpp:77] Creating layer conv5_5/sep_mbox_loc_perm
I0825 10:18:40.818603 10411 net.cpp:100] Creating Layer conv5_5/sep_mbox_loc_perm
I0825 10:18:40.818606 10411 net.cpp:434] conv5_5/sep_mbox_loc_perm <- conv5_5/sep_mbox_loc
I0825 10:18:40.818612 10411 net.cpp:408] conv5_5/sep_mbox_loc_perm -> conv5_5/sep_mbox_loc_perm
I0825 10:18:40.818699 10411 net.cpp:150] Setting up conv5_5/sep_mbox_loc_perm
I0825 10:18:40.818704 10411 net.cpp:157] Top shape: 8 19 19 12 (34656)
I0825 10:18:40.818707 10411 net.cpp:165] Memory required for data: 1286007616
I0825 10:18:40.818711 10411 layer_factory.hpp:77] Creating layer conv5_5/sep_mbox_loc_flat
I0825 10:18:40.818716 10411 net.cpp:100] Creating Layer conv5_5/sep_mbox_loc_flat
I0825 10:18:40.818718 10411 net.cpp:434] conv5_5/sep_mbox_loc_flat <- conv5_5/sep_mbox_loc_perm
I0825 10:18:40.818723 10411 net.cpp:408] conv5_5/sep_mbox_loc_flat -> conv5_5/sep_mbox_loc_flat
I0825 10:18:40.818745 10411 net.cpp:150] Setting up conv5_5/sep_mbox_loc_flat
I0825 10:18:40.818750 10411 net.cpp:157] Top shape: 8 4332 (34656)
I0825 10:18:40.818753 10411 net.cpp:165] Memory required for data: 1286146240
I0825 10:18:40.818755 10411 layer_factory.hpp:77] Creating layer conv5_5/sep_mbox_conf
I0825 10:18:40.818763 10411 net.cpp:100] Creating Layer conv5_5/sep_mbox_conf
I0825 10:18:40.818768 10411 net.cpp:434] conv5_5/sep_mbox_conf <- conv5_5/sep_conv5_5/sep_relu_0_split_2
I0825 10:18:40.818773 10411 net.cpp:408] conv5_5/sep_mbox_conf -> conv5_5/sep_mbox_conf
I0825 10:18:40.820945 10411 net.cpp:150] Setting up conv5_5/sep_mbox_conf
I0825 10:18:40.820956 10411 net.cpp:157] Top shape: 8 12 19 19 (34656)
I0825 10:18:40.820960 10411 net.cpp:165] Memory required for data: 1286284864
I0825 10:18:40.820966 10411 layer_factory.hpp:77] Creating layer conv5_5/sep_mbox_conf_perm
I0825 10:18:40.820971 10411 net.cpp:100] Creating Layer conv5_5/sep_mbox_conf_perm
I0825 10:18:40.820976 10411 net.cpp:434] conv5_5/sep_mbox_conf_perm <- conv5_5/sep_mbox_conf
I0825 10:18:40.820981 10411 net.cpp:408] conv5_5/sep_mbox_conf_perm -> conv5_5/sep_mbox_conf_perm
I0825 10:18:40.821065 10411 net.cpp:150] Setting up conv5_5/sep_mbox_conf_perm
I0825 10:18:40.821070 10411 net.cpp:157] Top shape: 8 19 19 12 (34656)
I0825 10:18:40.821074 10411 net.cpp:165] Memory required for data: 1286423488
I0825 10:18:40.821085 10411 layer_factory.hpp:77] Creating layer conv5_5/sep_mbox_conf_flat
I0825 10:18:40.821090 10411 net.cpp:100] Creating Layer conv5_5/sep_mbox_conf_flat
I0825 10:18:40.821094 10411 net.cpp:434] conv5_5/sep_mbox_conf_flat <- conv5_5/sep_mbox_conf_perm
I0825 10:18:40.821099 10411 net.cpp:408] conv5_5/sep_mbox_conf_flat -> conv5_5/sep_mbox_conf_flat
I0825 10:18:40.821122 10411 net.cpp:150] Setting up conv5_5/sep_mbox_conf_flat
I0825 10:18:40.821127 10411 net.cpp:157] Top shape: 8 4332 (34656)
I0825 10:18:40.821130 10411 net.cpp:165] Memory required for data: 1286562112
I0825 10:18:40.821133 10411 layer_factory.hpp:77] Creating layer conv5_5/sep_mbox_priorbox
I0825 10:18:40.821140 10411 net.cpp:100] Creating Layer conv5_5/sep_mbox_priorbox
I0825 10:18:40.821142 10411 net.cpp:434] conv5_5/sep_mbox_priorbox <- conv5_5/sep_conv5_5/sep_relu_0_split_3
I0825 10:18:40.821146 10411 net.cpp:434] conv5_5/sep_mbox_priorbox <- data_data_0_split_1
I0825 10:18:40.821154 10411 net.cpp:408] conv5_5/sep_mbox_priorbox -> conv5_5/sep_mbox_priorbox
I0825 10:18:40.821178 10411 net.cpp:150] Setting up conv5_5/sep_mbox_priorbox
I0825 10:18:40.821182 10411 net.cpp:157] Top shape: 1 2 4332 (8664)
I0825 10:18:40.821185 10411 net.cpp:165] Memory required for data: 1286596768
I0825 10:18:40.821188 10411 layer_factory.hpp:77] Creating layer conv6/sep_mbox_loc
I0825 10:18:40.821197 10411 net.cpp:100] Creating Layer conv6/sep_mbox_loc
I0825 10:18:40.821199 10411 net.cpp:434] conv6/sep_mbox_loc <- conv6/sep_conv6/sep_relu_0_split_1
I0825 10:18:40.821204 10411 net.cpp:408] conv6/sep_mbox_loc -> conv6/sep_mbox_loc
I0825 10:18:40.824823 10411 net.cpp:150] Setting up conv6/sep_mbox_loc
I0825 10:18:40.824834 10411 net.cpp:157] Top shape: 8 24 10 10 (19200)
I0825 10:18:40.824837 10411 net.cpp:165] Memory required for data: 1286673568
I0825 10:18:40.824843 10411 layer_factory.hpp:77] Creating layer conv6/sep_mbox_loc_perm
I0825 10:18:40.824849 10411 net.cpp:100] Creating Layer conv6/sep_mbox_loc_perm
I0825 10:18:40.824853 10411 net.cpp:434] conv6/sep_mbox_loc_perm <- conv6/sep_mbox_loc
I0825 10:18:40.824858 10411 net.cpp:408] conv6/sep_mbox_loc_perm -> conv6/sep_mbox_loc_perm
I0825 10:18:40.824947 10411 net.cpp:150] Setting up conv6/sep_mbox_loc_perm
I0825 10:18:40.824954 10411 net.cpp:157] Top shape: 8 10 10 24 (19200)
I0825 10:18:40.824956 10411 net.cpp:165] Memory required for data: 1286750368
I0825 10:18:40.824959 10411 layer_factory.hpp:77] Creating layer conv6/sep_mbox_loc_flat
I0825 10:18:40.824965 10411 net.cpp:100] Creating Layer conv6/sep_mbox_loc_flat
I0825 10:18:40.824968 10411 net.cpp:434] conv6/sep_mbox_loc_flat <- conv6/sep_mbox_loc_perm
I0825 10:18:40.824972 10411 net.cpp:408] conv6/sep_mbox_loc_flat -> conv6/sep_mbox_loc_flat
I0825 10:18:40.824992 10411 net.cpp:150] Setting up conv6/sep_mbox_loc_flat
I0825 10:18:40.824997 10411 net.cpp:157] Top shape: 8 2400 (19200)
I0825 10:18:40.825001 10411 net.cpp:165] Memory required for data: 1286827168
I0825 10:18:40.825002 10411 layer_factory.hpp:77] Creating layer conv6/sep_mbox_conf
I0825 10:18:40.825011 10411 net.cpp:100] Creating Layer conv6/sep_mbox_conf
I0825 10:18:40.825013 10411 net.cpp:434] conv6/sep_mbox_conf <- conv6/sep_conv6/sep_relu_0_split_2
I0825 10:18:40.825019 10411 net.cpp:408] conv6/sep_mbox_conf -> conv6/sep_mbox_conf
I0825 10:18:40.828246 10411 net.cpp:150] Setting up conv6/sep_mbox_conf
I0825 10:18:40.828258 10411 net.cpp:157] Top shape: 8 24 10 10 (19200)
I0825 10:18:40.828260 10411 net.cpp:165] Memory required for data: 1286903968
I0825 10:18:40.828266 10411 layer_factory.hpp:77] Creating layer conv6/sep_mbox_conf_perm
I0825 10:18:40.828272 10411 net.cpp:100] Creating Layer conv6/sep_mbox_conf_perm
I0825 10:18:40.828276 10411 net.cpp:434] conv6/sep_mbox_conf_perm <- conv6/sep_mbox_conf
I0825 10:18:40.828281 10411 net.cpp:408] conv6/sep_mbox_conf_perm -> conv6/sep_mbox_conf_perm
I0825 10:18:40.828369 10411 net.cpp:150] Setting up conv6/sep_mbox_conf_perm
I0825 10:18:40.828375 10411 net.cpp:157] Top shape: 8 10 10 24 (19200)
I0825 10:18:40.828387 10411 net.cpp:165] Memory required for data: 1286980768
I0825 10:18:40.828390 10411 layer_factory.hpp:77] Creating layer conv6/sep_mbox_conf_flat
I0825 10:18:40.828397 10411 net.cpp:100] Creating Layer conv6/sep_mbox_conf_flat
I0825 10:18:40.828402 10411 net.cpp:434] conv6/sep_mbox_conf_flat <- conv6/sep_mbox_conf_perm
I0825 10:18:40.828405 10411 net.cpp:408] conv6/sep_mbox_conf_flat -> conv6/sep_mbox_conf_flat
I0825 10:18:40.828428 10411 net.cpp:150] Setting up conv6/sep_mbox_conf_flat
I0825 10:18:40.828434 10411 net.cpp:157] Top shape: 8 2400 (19200)
I0825 10:18:40.828436 10411 net.cpp:165] Memory required for data: 1287057568
I0825 10:18:40.828439 10411 layer_factory.hpp:77] Creating layer conv6/sep_mbox_priorbox
I0825 10:18:40.828445 10411 net.cpp:100] Creating Layer conv6/sep_mbox_priorbox
I0825 10:18:40.828449 10411 net.cpp:434] conv6/sep_mbox_priorbox <- conv6/sep_conv6/sep_relu_0_split_3
I0825 10:18:40.828454 10411 net.cpp:434] conv6/sep_mbox_priorbox <- data_data_0_split_2
I0825 10:18:40.828459 10411 net.cpp:408] conv6/sep_mbox_priorbox -> conv6/sep_mbox_priorbox
I0825 10:18:40.828480 10411 net.cpp:150] Setting up conv6/sep_mbox_priorbox
I0825 10:18:40.828485 10411 net.cpp:157] Top shape: 1 2 2400 (4800)
I0825 10:18:40.828487 10411 net.cpp:165] Memory required for data: 1287076768
I0825 10:18:40.828490 10411 layer_factory.hpp:77] Creating layer conv7_2_mbox_loc
I0825 10:18:40.828498 10411 net.cpp:100] Creating Layer conv7_2_mbox_loc
I0825 10:18:40.828502 10411 net.cpp:434] conv7_2_mbox_loc <- conv7_2_conv7_2_relu_0_split_1
I0825 10:18:40.828506 10411 net.cpp:408] conv7_2_mbox_loc -> conv7_2_mbox_loc
I0825 10:18:40.830871 10411 net.cpp:150] Setting up conv7_2_mbox_loc
I0825 10:18:40.830883 10411 net.cpp:157] Top shape: 8 24 5 5 (4800)
I0825 10:18:40.830884 10411 net.cpp:165] Memory required for data: 1287095968
I0825 10:18:40.830889 10411 layer_factory.hpp:77] Creating layer conv7_2_mbox_loc_perm
I0825 10:18:40.830894 10411 net.cpp:100] Creating Layer conv7_2_mbox_loc_perm
I0825 10:18:40.830899 10411 net.cpp:434] conv7_2_mbox_loc_perm <- conv7_2_mbox_loc
I0825 10:18:40.830904 10411 net.cpp:408] conv7_2_mbox_loc_perm -> conv7_2_mbox_loc_perm
I0825 10:18:40.830994 10411 net.cpp:150] Setting up conv7_2_mbox_loc_perm
I0825 10:18:40.830999 10411 net.cpp:157] Top shape: 8 5 5 24 (4800)
I0825 10:18:40.831002 10411 net.cpp:165] Memory required for data: 1287115168
I0825 10:18:40.831006 10411 layer_factory.hpp:77] Creating layer conv7_2_mbox_loc_flat
I0825 10:18:40.831013 10411 net.cpp:100] Creating Layer conv7_2_mbox_loc_flat
I0825 10:18:40.831017 10411 net.cpp:434] conv7_2_mbox_loc_flat <- conv7_2_mbox_loc_perm
I0825 10:18:40.831022 10411 net.cpp:408] conv7_2_mbox_loc_flat -> conv7_2_mbox_loc_flat
I0825 10:18:40.831043 10411 net.cpp:150] Setting up conv7_2_mbox_loc_flat
I0825 10:18:40.831048 10411 net.cpp:157] Top shape: 8 600 (4800)
I0825 10:18:40.831050 10411 net.cpp:165] Memory required for data: 1287134368
I0825 10:18:40.831053 10411 layer_factory.hpp:77] Creating layer conv7_2_mbox_conf
I0825 10:18:40.831061 10411 net.cpp:100] Creating Layer conv7_2_mbox_conf
I0825 10:18:40.831065 10411 net.cpp:434] conv7_2_mbox_conf <- conv7_2_conv7_2_relu_0_split_2
I0825 10:18:40.831070 10411 net.cpp:408] conv7_2_mbox_conf -> conv7_2_mbox_conf
I0825 10:18:40.833667 10411 net.cpp:150] Setting up conv7_2_mbox_conf
I0825 10:18:40.833678 10411 net.cpp:157] Top shape: 8 24 5 5 (4800)
I0825 10:18:40.833679 10411 net.cpp:165] Memory required for data: 1287153568
I0825 10:18:40.833684 10411 layer_factory.hpp:77] Creating layer conv7_2_mbox_conf_perm
I0825 10:18:40.833690 10411 net.cpp:100] Creating Layer conv7_2_mbox_conf_perm
I0825 10:18:40.833694 10411 net.cpp:434] conv7_2_mbox_conf_perm <- conv7_2_mbox_conf
I0825 10:18:40.833699 10411 net.cpp:408] conv7_2_mbox_conf_perm -> conv7_2_mbox_conf_perm
I0825 10:18:40.833791 10411 net.cpp:150] Setting up conv7_2_mbox_conf_perm
I0825 10:18:40.833796 10411 net.cpp:157] Top shape: 8 5 5 24 (4800)
I0825 10:18:40.833799 10411 net.cpp:165] Memory required for data: 1287172768
I0825 10:18:40.833811 10411 layer_factory.hpp:77] Creating layer conv7_2_mbox_conf_flat
I0825 10:18:40.833817 10411 net.cpp:100] Creating Layer conv7_2_mbox_conf_flat
I0825 10:18:40.833820 10411 net.cpp:434] conv7_2_mbox_conf_flat <- conv7_2_mbox_conf_perm
I0825 10:18:40.833832 10411 net.cpp:408] conv7_2_mbox_conf_flat -> conv7_2_mbox_conf_flat
I0825 10:18:40.833855 10411 net.cpp:150] Setting up conv7_2_mbox_conf_flat
I0825 10:18:40.833860 10411 net.cpp:157] Top shape: 8 600 (4800)
I0825 10:18:40.833863 10411 net.cpp:165] Memory required for data: 1287191968
I0825 10:18:40.833865 10411 layer_factory.hpp:77] Creating layer conv7_2_mbox_priorbox
I0825 10:18:40.833873 10411 net.cpp:100] Creating Layer conv7_2_mbox_priorbox
I0825 10:18:40.833875 10411 net.cpp:434] conv7_2_mbox_priorbox <- conv7_2_conv7_2_relu_0_split_3
I0825 10:18:40.833879 10411 net.cpp:434] conv7_2_mbox_priorbox <- data_data_0_split_3
I0825 10:18:40.833885 10411 net.cpp:408] conv7_2_mbox_priorbox -> conv7_2_mbox_priorbox
I0825 10:18:40.833907 10411 net.cpp:150] Setting up conv7_2_mbox_priorbox
I0825 10:18:40.833912 10411 net.cpp:157] Top shape: 1 2 600 (1200)
I0825 10:18:40.833915 10411 net.cpp:165] Memory required for data: 1287196768
I0825 10:18:40.833919 10411 layer_factory.hpp:77] Creating layer conv8_2_mbox_loc
I0825 10:18:40.833926 10411 net.cpp:100] Creating Layer conv8_2_mbox_loc
I0825 10:18:40.833930 10411 net.cpp:434] conv8_2_mbox_loc <- conv8_2_conv8_2_relu_0_split_1
I0825 10:18:40.833935 10411 net.cpp:408] conv8_2_mbox_loc -> conv8_2_mbox_loc
I0825 10:18:40.836146 10411 net.cpp:150] Setting up conv8_2_mbox_loc
I0825 10:18:40.836156 10411 net.cpp:157] Top shape: 8 24 3 3 (1728)
I0825 10:18:40.836159 10411 net.cpp:165] Memory required for data: 1287203680
I0825 10:18:40.836165 10411 layer_factory.hpp:77] Creating layer conv8_2_mbox_loc_perm
I0825 10:18:40.836171 10411 net.cpp:100] Creating Layer conv8_2_mbox_loc_perm
I0825 10:18:40.836175 10411 net.cpp:434] conv8_2_mbox_loc_perm <- conv8_2_mbox_loc
I0825 10:18:40.836180 10411 net.cpp:408] conv8_2_mbox_loc_perm -> conv8_2_mbox_loc_perm
I0825 10:18:40.836272 10411 net.cpp:150] Setting up conv8_2_mbox_loc_perm
I0825 10:18:40.836277 10411 net.cpp:157] Top shape: 8 3 3 24 (1728)
I0825 10:18:40.836280 10411 net.cpp:165] Memory required for data: 1287210592
I0825 10:18:40.836282 10411 layer_factory.hpp:77] Creating layer conv8_2_mbox_loc_flat
I0825 10:18:40.836287 10411 net.cpp:100] Creating Layer conv8_2_mbox_loc_flat
I0825 10:18:40.836290 10411 net.cpp:434] conv8_2_mbox_loc_flat <- conv8_2_mbox_loc_perm
I0825 10:18:40.836295 10411 net.cpp:408] conv8_2_mbox_loc_flat -> conv8_2_mbox_loc_flat
I0825 10:18:40.836316 10411 net.cpp:150] Setting up conv8_2_mbox_loc_flat
I0825 10:18:40.836321 10411 net.cpp:157] Top shape: 8 216 (1728)
I0825 10:18:40.836324 10411 net.cpp:165] Memory required for data: 1287217504
I0825 10:18:40.836328 10411 layer_factory.hpp:77] Creating layer conv8_2_mbox_conf
I0825 10:18:40.836335 10411 net.cpp:100] Creating Layer conv8_2_mbox_conf
I0825 10:18:40.836339 10411 net.cpp:434] conv8_2_mbox_conf <- conv8_2_conv8_2_relu_0_split_2
I0825 10:18:40.836344 10411 net.cpp:408] conv8_2_mbox_conf -> conv8_2_mbox_conf
I0825 10:18:40.838924 10411 net.cpp:150] Setting up conv8_2_mbox_conf
I0825 10:18:40.838935 10411 net.cpp:157] Top shape: 8 24 3 3 (1728)
I0825 10:18:40.838938 10411 net.cpp:165] Memory required for data: 1287224416
I0825 10:18:40.838943 10411 layer_factory.hpp:77] Creating layer conv8_2_mbox_conf_perm
I0825 10:18:40.838950 10411 net.cpp:100] Creating Layer conv8_2_mbox_conf_perm
I0825 10:18:40.838954 10411 net.cpp:434] conv8_2_mbox_conf_perm <- conv8_2_mbox_conf
I0825 10:18:40.838959 10411 net.cpp:408] conv8_2_mbox_conf_perm -> conv8_2_mbox_conf_perm
I0825 10:18:40.839053 10411 net.cpp:150] Setting up conv8_2_mbox_conf_perm
I0825 10:18:40.839058 10411 net.cpp:157] Top shape: 8 3 3 24 (1728)
I0825 10:18:40.839061 10411 net.cpp:165] Memory required for data: 1287231328
I0825 10:18:40.839064 10411 layer_factory.hpp:77] Creating layer conv8_2_mbox_conf_flat
I0825 10:18:40.839078 10411 net.cpp:100] Creating Layer conv8_2_mbox_conf_flat
I0825 10:18:40.839082 10411 net.cpp:434] conv8_2_mbox_conf_flat <- conv8_2_mbox_conf_perm
I0825 10:18:40.839087 10411 net.cpp:408] conv8_2_mbox_conf_flat -> conv8_2_mbox_conf_flat
I0825 10:18:40.839110 10411 net.cpp:150] Setting up conv8_2_mbox_conf_flat
I0825 10:18:40.839115 10411 net.cpp:157] Top shape: 8 216 (1728)
I0825 10:18:40.839118 10411 net.cpp:165] Memory required for data: 1287238240
I0825 10:18:40.839121 10411 layer_factory.hpp:77] Creating layer conv8_2_mbox_priorbox
I0825 10:18:40.839128 10411 net.cpp:100] Creating Layer conv8_2_mbox_priorbox
I0825 10:18:40.839130 10411 net.cpp:434] conv8_2_mbox_priorbox <- conv8_2_conv8_2_relu_0_split_3
I0825 10:18:40.839135 10411 net.cpp:434] conv8_2_mbox_priorbox <- data_data_0_split_4
I0825 10:18:40.839139 10411 net.cpp:408] conv8_2_mbox_priorbox -> conv8_2_mbox_priorbox
I0825 10:18:40.839162 10411 net.cpp:150] Setting up conv8_2_mbox_priorbox
I0825 10:18:40.839167 10411 net.cpp:157] Top shape: 1 2 216 (432)
I0825 10:18:40.839170 10411 net.cpp:165] Memory required for data: 1287239968
I0825 10:18:40.839172 10411 layer_factory.hpp:77] Creating layer conv9_2_mbox_loc
I0825 10:18:40.839180 10411 net.cpp:100] Creating Layer conv9_2_mbox_loc
I0825 10:18:40.839184 10411 net.cpp:434] conv9_2_mbox_loc <- conv9_2_conv9_2_relu_0_split_1
I0825 10:18:40.839190 10411 net.cpp:408] conv9_2_mbox_loc -> conv9_2_mbox_loc
I0825 10:18:40.841395 10411 net.cpp:150] Setting up conv9_2_mbox_loc
I0825 10:18:40.841406 10411 net.cpp:157] Top shape: 8 24 2 2 (768)
I0825 10:18:40.841409 10411 net.cpp:165] Memory required for data: 1287243040
I0825 10:18:40.841415 10411 layer_factory.hpp:77] Creating layer conv9_2_mbox_loc_perm
I0825 10:18:40.841421 10411 net.cpp:100] Creating Layer conv9_2_mbox_loc_perm
I0825 10:18:40.841425 10411 net.cpp:434] conv9_2_mbox_loc_perm <- conv9_2_mbox_loc
I0825 10:18:40.841430 10411 net.cpp:408] conv9_2_mbox_loc_perm -> conv9_2_mbox_loc_perm
I0825 10:18:40.841519 10411 net.cpp:150] Setting up conv9_2_mbox_loc_perm
I0825 10:18:40.841526 10411 net.cpp:157] Top shape: 8 2 2 24 (768)
I0825 10:18:40.841527 10411 net.cpp:165] Memory required for data: 1287246112
I0825 10:18:40.841531 10411 layer_factory.hpp:77] Creating layer conv9_2_mbox_loc_flat
I0825 10:18:40.841536 10411 net.cpp:100] Creating Layer conv9_2_mbox_loc_flat
I0825 10:18:40.841539 10411 net.cpp:434] conv9_2_mbox_loc_flat <- conv9_2_mbox_loc_perm
I0825 10:18:40.841543 10411 net.cpp:408] conv9_2_mbox_loc_flat -> conv9_2_mbox_loc_flat
I0825 10:18:40.841565 10411 net.cpp:150] Setting up conv9_2_mbox_loc_flat
I0825 10:18:40.841570 10411 net.cpp:157] Top shape: 8 96 (768)
I0825 10:18:40.841574 10411 net.cpp:165] Memory required for data: 1287249184
I0825 10:18:40.841578 10411 layer_factory.hpp:77] Creating layer conv9_2_mbox_conf
I0825 10:18:40.841585 10411 net.cpp:100] Creating Layer conv9_2_mbox_conf
I0825 10:18:40.841588 10411 net.cpp:434] conv9_2_mbox_conf <- conv9_2_conv9_2_relu_0_split_2
I0825 10:18:40.841593 10411 net.cpp:408] conv9_2_mbox_conf -> conv9_2_mbox_conf
I0825 10:18:40.844045 10411 net.cpp:150] Setting up conv9_2_mbox_conf
I0825 10:18:40.844055 10411 net.cpp:157] Top shape: 8 24 2 2 (768)
I0825 10:18:40.844058 10411 net.cpp:165] Memory required for data: 1287252256
I0825 10:18:40.844063 10411 layer_factory.hpp:77] Creating layer conv9_2_mbox_conf_perm
I0825 10:18:40.844066 10411 net.cpp:100] Creating Layer conv9_2_mbox_conf_perm
I0825 10:18:40.844069 10411 net.cpp:434] conv9_2_mbox_conf_perm <- conv9_2_mbox_conf
I0825 10:18:40.844074 10411 net.cpp:408] conv9_2_mbox_conf_perm -> conv9_2_mbox_conf_perm
I0825 10:18:40.844167 10411 net.cpp:150] Setting up conv9_2_mbox_conf_perm
I0825 10:18:40.844173 10411 net.cpp:157] Top shape: 8 2 2 24 (768)
I0825 10:18:40.844177 10411 net.cpp:165] Memory required for data: 1287255328
I0825 10:18:40.844180 10411 layer_factory.hpp:77] Creating layer conv9_2_mbox_conf_flat
I0825 10:18:40.844184 10411 net.cpp:100] Creating Layer conv9_2_mbox_conf_flat
I0825 10:18:40.844188 10411 net.cpp:434] conv9_2_mbox_conf_flat <- conv9_2_mbox_conf_perm
I0825 10:18:40.844202 10411 net.cpp:408] conv9_2_mbox_conf_flat -> conv9_2_mbox_conf_flat
I0825 10:18:40.844226 10411 net.cpp:150] Setting up conv9_2_mbox_conf_flat
I0825 10:18:40.844231 10411 net.cpp:157] Top shape: 8 96 (768)
I0825 10:18:40.844234 10411 net.cpp:165] Memory required for data: 1287258400
I0825 10:18:40.844238 10411 layer_factory.hpp:77] Creating layer conv9_2_mbox_priorbox
I0825 10:18:40.844243 10411 net.cpp:100] Creating Layer conv9_2_mbox_priorbox
I0825 10:18:40.844245 10411 net.cpp:434] conv9_2_mbox_priorbox <- conv9_2_conv9_2_relu_0_split_3
I0825 10:18:40.844249 10411 net.cpp:434] conv9_2_mbox_priorbox <- data_data_0_split_5
I0825 10:18:40.844255 10411 net.cpp:408] conv9_2_mbox_priorbox -> conv9_2_mbox_priorbox
I0825 10:18:40.844280 10411 net.cpp:150] Setting up conv9_2_mbox_priorbox
I0825 10:18:40.844285 10411 net.cpp:157] Top shape: 1 2 96 (192)
I0825 10:18:40.844287 10411 net.cpp:165] Memory required for data: 1287259168
I0825 10:18:40.844290 10411 layer_factory.hpp:77] Creating layer conv10_2_mbox_loc
I0825 10:18:40.844297 10411 net.cpp:100] Creating Layer conv10_2_mbox_loc
I0825 10:18:40.844310 10411 net.cpp:434] conv10_2_mbox_loc <- conv10_2_conv10_2_relu_0_split_0
I0825 10:18:40.844316 10411 net.cpp:408] conv10_2_mbox_loc -> conv10_2_mbox_loc
I0825 10:18:40.847857 10411 net.cpp:150] Setting up conv10_2_mbox_loc
I0825 10:18:40.847868 10411 net.cpp:157] Top shape: 8 24 1 1 (192)
I0825 10:18:40.847872 10411 net.cpp:165] Memory required for data: 1287259936
I0825 10:18:40.847877 10411 layer_factory.hpp:77] Creating layer conv10_2_mbox_loc_perm
I0825 10:18:40.847883 10411 net.cpp:100] Creating Layer conv10_2_mbox_loc_perm
I0825 10:18:40.847887 10411 net.cpp:434] conv10_2_mbox_loc_perm <- conv10_2_mbox_loc
I0825 10:18:40.847892 10411 net.cpp:408] conv10_2_mbox_loc_perm -> conv10_2_mbox_loc_perm
I0825 10:18:40.847983 10411 net.cpp:150] Setting up conv10_2_mbox_loc_perm
I0825 10:18:40.847990 10411 net.cpp:157] Top shape: 8 1 1 24 (192)
I0825 10:18:40.847991 10411 net.cpp:165] Memory required for data: 1287260704
I0825 10:18:40.847995 10411 layer_factory.hpp:77] Creating layer conv10_2_mbox_loc_flat
I0825 10:18:40.848001 10411 net.cpp:100] Creating Layer conv10_2_mbox_loc_flat
I0825 10:18:40.848003 10411 net.cpp:434] conv10_2_mbox_loc_flat <- conv10_2_mbox_loc_perm
I0825 10:18:40.848008 10411 net.cpp:408] conv10_2_mbox_loc_flat -> conv10_2_mbox_loc_flat
I0825 10:18:40.848029 10411 net.cpp:150] Setting up conv10_2_mbox_loc_flat
I0825 10:18:40.848034 10411 net.cpp:157] Top shape: 8 24 (192)
I0825 10:18:40.848037 10411 net.cpp:165] Memory required for data: 1287261472
I0825 10:18:40.848039 10411 layer_factory.hpp:77] Creating layer conv10_2_mbox_conf
I0825 10:18:40.848048 10411 net.cpp:100] Creating Layer conv10_2_mbox_conf
I0825 10:18:40.848052 10411 net.cpp:434] conv10_2_mbox_conf <- conv10_2_conv10_2_relu_0_split_1
I0825 10:18:40.848057 10411 net.cpp:408] conv10_2_mbox_conf -> conv10_2_mbox_conf
I0825 10:18:40.850626 10411 net.cpp:150] Setting up conv10_2_mbox_conf
I0825 10:18:40.850637 10411 net.cpp:157] Top shape: 8 24 1 1 (192)
I0825 10:18:40.850639 10411 net.cpp:165] Memory required for data: 1287262240
I0825 10:18:40.850644 10411 layer_factory.hpp:77] Creating layer conv10_2_mbox_conf_perm
I0825 10:18:40.850651 10411 net.cpp:100] Creating Layer conv10_2_mbox_conf_perm
I0825 10:18:40.850652 10411 net.cpp:434] conv10_2_mbox_conf_perm <- conv10_2_mbox_conf
I0825 10:18:40.850657 10411 net.cpp:408] conv10_2_mbox_conf_perm -> conv10_2_mbox_conf_perm
I0825 10:18:40.850750 10411 net.cpp:150] Setting up conv10_2_mbox_conf_perm
I0825 10:18:40.850759 10411 net.cpp:157] Top shape: 8 1 1 24 (192)
I0825 10:18:40.850761 10411 net.cpp:165] Memory required for data: 1287263008
I0825 10:18:40.850764 10411 layer_factory.hpp:77] Creating layer conv10_2_mbox_conf_flat
I0825 10:18:40.850769 10411 net.cpp:100] Creating Layer conv10_2_mbox_conf_flat
I0825 10:18:40.850772 10411 net.cpp:434] conv10_2_mbox_conf_flat <- conv10_2_mbox_conf_perm
I0825 10:18:40.850777 10411 net.cpp:408] conv10_2_mbox_conf_flat -> conv10_2_mbox_conf_flat
I0825 10:18:40.850811 10411 net.cpp:150] Setting up conv10_2_mbox_conf_flat
I0825 10:18:40.850817 10411 net.cpp:157] Top shape: 8 24 (192)
I0825 10:18:40.850821 10411 net.cpp:165] Memory required for data: 1287263776
I0825 10:18:40.850823 10411 layer_factory.hpp:77] Creating layer conv10_2_mbox_priorbox
I0825 10:18:40.850829 10411 net.cpp:100] Creating Layer conv10_2_mbox_priorbox
I0825 10:18:40.850832 10411 net.cpp:434] conv10_2_mbox_priorbox <- conv10_2_conv10_2_relu_0_split_2
I0825 10:18:40.850837 10411 net.cpp:434] conv10_2_mbox_priorbox <- data_data_0_split_6
I0825 10:18:40.850842 10411 net.cpp:408] conv10_2_mbox_priorbox -> conv10_2_mbox_priorbox
I0825 10:18:40.850865 10411 net.cpp:150] Setting up conv10_2_mbox_priorbox
I0825 10:18:40.850870 10411 net.cpp:157] Top shape: 1 2 24 (48)
I0825 10:18:40.850878 10411 net.cpp:165] Memory required for data: 1287263968
I0825 10:18:40.850880 10411 layer_factory.hpp:77] Creating layer mbox_loc
I0825 10:18:40.850885 10411 net.cpp:100] Creating Layer mbox_loc
I0825 10:18:40.850889 10411 net.cpp:434] mbox_loc <- conv5_5/sep_mbox_loc_flat
I0825 10:18:40.850893 10411 net.cpp:434] mbox_loc <- conv6/sep_mbox_loc_flat
I0825 10:18:40.850898 10411 net.cpp:434] mbox_loc <- conv7_2_mbox_loc_flat
I0825 10:18:40.850900 10411 net.cpp:434] mbox_loc <- conv8_2_mbox_loc_flat
I0825 10:18:40.850903 10411 net.cpp:434] mbox_loc <- conv9_2_mbox_loc_flat
I0825 10:18:40.850908 10411 net.cpp:434] mbox_loc <- conv10_2_mbox_loc_flat
I0825 10:18:40.850913 10411 net.cpp:408] mbox_loc -> mbox_loc
I0825 10:18:40.850934 10411 net.cpp:150] Setting up mbox_loc
I0825 10:18:40.850939 10411 net.cpp:157] Top shape: 8 7668 (61344)
I0825 10:18:40.850941 10411 net.cpp:165] Memory required for data: 1287509344
I0825 10:18:40.850944 10411 layer_factory.hpp:77] Creating layer mbox_conf
I0825 10:18:40.850950 10411 net.cpp:100] Creating Layer mbox_conf
I0825 10:18:40.850952 10411 net.cpp:434] mbox_conf <- conv5_5/sep_mbox_conf_flat
I0825 10:18:40.850956 10411 net.cpp:434] mbox_conf <- conv6/sep_mbox_conf_flat
I0825 10:18:40.850960 10411 net.cpp:434] mbox_conf <- conv7_2_mbox_conf_flat
I0825 10:18:40.850963 10411 net.cpp:434] mbox_conf <- conv8_2_mbox_conf_flat
I0825 10:18:40.850967 10411 net.cpp:434] mbox_conf <- conv9_2_mbox_conf_flat
I0825 10:18:40.850970 10411 net.cpp:434] mbox_conf <- conv10_2_mbox_conf_flat
I0825 10:18:40.850975 10411 net.cpp:408] mbox_conf -> mbox_conf
I0825 10:18:40.850996 10411 net.cpp:150] Setting up mbox_conf
I0825 10:18:40.851001 10411 net.cpp:157] Top shape: 8 7668 (61344)
I0825 10:18:40.851003 10411 net.cpp:165] Memory required for data: 1287754720
I0825 10:18:40.851006 10411 layer_factory.hpp:77] Creating layer mbox_priorbox
I0825 10:18:40.851011 10411 net.cpp:100] Creating Layer mbox_priorbox
I0825 10:18:40.851014 10411 net.cpp:434] mbox_priorbox <- conv5_5/sep_mbox_priorbox
I0825 10:18:40.851017 10411 net.cpp:434] mbox_priorbox <- conv6/sep_mbox_priorbox
I0825 10:18:40.851022 10411 net.cpp:434] mbox_priorbox <- conv7_2_mbox_priorbox
I0825 10:18:40.851024 10411 net.cpp:434] mbox_priorbox <- conv8_2_mbox_priorbox
I0825 10:18:40.851027 10411 net.cpp:434] mbox_priorbox <- conv9_2_mbox_priorbox
I0825 10:18:40.851030 10411 net.cpp:434] mbox_priorbox <- conv10_2_mbox_priorbox
I0825 10:18:40.851035 10411 net.cpp:408] mbox_priorbox -> mbox_priorbox
I0825 10:18:40.851055 10411 net.cpp:150] Setting up mbox_priorbox
I0825 10:18:40.851060 10411 net.cpp:157] Top shape: 1 2 7668 (15336)
I0825 10:18:40.851063 10411 net.cpp:165] Memory required for data: 1287816064
I0825 10:18:40.851065 10411 layer_factory.hpp:77] Creating layer mbox_conf_reshape
I0825 10:18:40.851073 10411 net.cpp:100] Creating Layer mbox_conf_reshape
I0825 10:18:40.851075 10411 net.cpp:434] mbox_conf_reshape <- mbox_conf
I0825 10:18:40.851081 10411 net.cpp:408] mbox_conf_reshape -> mbox_conf_reshape
I0825 10:18:40.851106 10411 net.cpp:150] Setting up mbox_conf_reshape
I0825 10:18:40.851111 10411 net.cpp:157] Top shape: 8 1917 4 (61344)
I0825 10:18:40.851114 10411 net.cpp:165] Memory required for data: 1288061440
I0825 10:18:40.851124 10411 layer_factory.hpp:77] Creating layer mbox_conf_softmax
I0825 10:18:40.851130 10411 net.cpp:100] Creating Layer mbox_conf_softmax
I0825 10:18:40.851133 10411 net.cpp:434] mbox_conf_softmax <- mbox_conf_reshape
I0825 10:18:40.851138 10411 net.cpp:408] mbox_conf_softmax -> mbox_conf_softmax
I0825 10:18:40.851785 10411 net.cpp:150] Setting up mbox_conf_softmax
I0825 10:18:40.851796 10411 net.cpp:157] Top shape: 8 1917 4 (61344)
I0825 10:18:40.851799 10411 net.cpp:165] Memory required for data: 1288306816
I0825 10:18:40.851804 10411 layer_factory.hpp:77] Creating layer mbox_conf_flatten
I0825 10:18:40.851809 10411 net.cpp:100] Creating Layer mbox_conf_flatten
I0825 10:18:40.851812 10411 net.cpp:434] mbox_conf_flatten <- mbox_conf_softmax
I0825 10:18:40.851817 10411 net.cpp:408] mbox_conf_flatten -> mbox_conf_flatten
I0825 10:18:40.851841 10411 net.cpp:150] Setting up mbox_conf_flatten
I0825 10:18:40.851845 10411 net.cpp:157] Top shape: 8 7668 (61344)
I0825 10:18:40.851848 10411 net.cpp:165] Memory required for data: 1288552192
I0825 10:18:40.851852 10411 layer_factory.hpp:77] Creating layer detection_out
I0825 10:18:40.851867 10411 net.cpp:100] Creating Layer detection_out
I0825 10:18:40.851871 10411 net.cpp:434] detection_out <- mbox_loc
I0825 10:18:40.851874 10411 net.cpp:434] detection_out <- mbox_conf_flatten
I0825 10:18:40.851878 10411 net.cpp:434] detection_out <- mbox_priorbox
I0825 10:18:40.851883 10411 net.cpp:408] detection_out -> detection_out
I0825 10:18:40.852408 10411 net.cpp:150] Setting up detection_out
I0825 10:18:40.852416 10411 net.cpp:157] Top shape: 1 1 1 7 (7)
I0825 10:18:40.852418 10411 net.cpp:165] Memory required for data: 1288552220
I0825 10:18:40.852421 10411 layer_factory.hpp:77] Creating layer detection_eval
I0825 10:18:40.852427 10411 net.cpp:100] Creating Layer detection_eval
I0825 10:18:40.852428 10411 net.cpp:434] detection_eval <- detection_out
I0825 10:18:40.852432 10411 net.cpp:434] detection_eval <- label
I0825 10:18:40.852435 10411 net.cpp:408] detection_eval -> detection_eval
I0825 10:18:40.852792 10411 net.cpp:150] Setting up detection_eval
I0825 10:18:40.852799 10411 net.cpp:157] Top shape: 1 1 4 5 (20)
I0825 10:18:40.852802 10411 net.cpp:165] Memory required for data: 1288552300
I0825 10:18:40.852803 10411 net.cpp:228] detection_eval does not need backward computation.
I0825 10:18:40.852807 10411 net.cpp:228] detection_out does not need backward computation.
I0825 10:18:40.852809 10411 net.cpp:228] mbox_conf_flatten does not need backward computation.
I0825 10:18:40.852811 10411 net.cpp:228] mbox_conf_softmax does not need backward computation.
…
