…
      sampler {
        min_scale: 0.3
        max_scale: 1
        min_aspect_ratio: 0.5
        max_aspect_ratio: 2
      }
      sample_constraint {
        min_jaccard_overlap: 0.9
      }
      max_sample: 1
      max_trials: 50
    }
    batch_sampler {
      sampler {
        min_scale: 0.3
        max_scale: 1
        min_aspect_ratio: 0.5
        max_aspect_ratio: 2
      }
      sample_constraint {
        max_jaccard_overlap: 1
      }
      max_sample: 1
      max_trials: 50
    }
    label_map_file: "data/VOC0712/labelmap_voc.prototxt"
  }
}
layer {
  name: "conv1_1"
  type: "Convolution"
  bottom: "data"
  top: "conv1_1"
  param {
    lr_mult: 1
    decay_mult: 1
  }
  param {
    lr_mult: 2
    decay_mult: 0
  }
  convolution_param {
    num_output: 64
    pad: 1
    kernel_size: 3
    weight_filler {
      type: "xavier"
    }
    bias_filler {
      type: "constant"
      value: 0
    }
  }
}
layer {
  name: "relu1_1"
  type: "ReLU"
  bottom: "conv1_1"
  top: "conv1_1"
}
layer {
  name: "conv1_2"
  type: "Convolution"
  bottom: "conv1_1"
  top: "conv1_2"
  param {
    lr_mult: 1
    decay_mult: 1
  }
  param {
    lr_mult: 2
    decay_mult: 0
  }
  convolution_param {
    num_output: 64
    pad: 1
    kernel_size: 3
    weight_filler {
      type: "xavier"
    }
    bias_filler {
      type: "constant"
      value: 0
    }
  }
}
layer {
  name: "relu1_2"
  type: "ReLU"
  bottom: "conv1_2"
  top: "conv1_2"
}
layer {
  name: "pool1"
  type: "Pooling"
  bottom: "conv1_2"
  top: "pool1"
  pooling_param {
    pool: MAX
    kernel_size: 2
    stride: 2
  }
}
layer {
  name: "conv2_1"
  type: "Convolution"
  bottom: "pool1"
  top: "conv2_1"
  param {
    lr_mult: 1
    decay_mult: 1
  }
  param {
    lr_mult: 2
    decay_mult: 0
  }
  convolution_param {
    num_output: 128
    pad: 1
    kernel_size: 3
    weight_filler {
      type: "xavier"
    }
    bias_filler {
      type: "constant"
      value: 0
    }
  }
}
layer {
  name: "relu2_1"
  type: "ReLU"
  bottom: "conv2_1"
  top: "conv2_1"
}
layer {
  name: "conv2_2"
  type: "Convolution"
  bottom: "conv2_1"
  top: "conv2_2"
  param {
    lr_mult: 1
    decay_mult: 1
  }
  param {
    lr_mult: 2
    decay_mult: 0
  }
  convolution_param {
    num_output: 128
    pad: 1
    kernel_size: 3
    weight_filler {
      type: "xavier"
    }
    bias_filler {
      type: "constant"
      value: 0
    }
  }
}
layer {
  name: "relu2_2"
  type: "ReLU"
  bottom: "conv2_2"
  top: "conv2_2"
}
layer {
  name: "pool2"
  type: "Pooling"
  bottom: "conv2_2"
  top: "pool2"
  pooling_param {
    pool: MAX
    kernel_size: 2
    stride: 2
  }
}
layer {
  name: "conv3_1"
  type: "Convolution"
  bottom: "pool2"
  top: "conv3_1"
  param {
    lr_mult: 1
    decay_mult: 1
  }
  param {
    lr_mult: 2
    decay_mult: 0
  }
  convolution_param {
    num_output: 256
    pad: 1
    kernel_size: 3
    weight_filler {
      type: "xavier"
    }
    bias_filler {
      type: "constant"
      value: 0
    }
  }
}
layer {
  name: "relu3_1"
  type: "ReLU"
  bottom: "conv3_1"
  top: "conv3_1"
}
layer {
  name: "conv3_2"
  type: "Convolution"
  bottom: "conv3_1"
  top: "conv3_2"
  param {
    lr_mult: 1
    decay_mult: 1
  }
  param {
    lr_mult: 2
    decay_mult: 0
  }
  convolution_param {
    num_output: 256
    pad: 1
    kernel_size: 3
    weight_filler {
      type: "xavier"
    }
    bias_filler {
      type: "constant"
      value: 0
    }
  }
}
layer {
  name: "relu3_2"
  type: "ReLU"
  bottom: "conv3_2"
  top: "conv3_2"
}
layer {
  name: "conv3_3"
  type: "Convolution"
  bottom: "conv3_2"
  top: "conv3_3"
  param {
    lr_mult: 1
    decay_mult: 1
  }
  param {
    lr_mult: 2
    decay_mult: 0
  }
  convolution_param {
    num_output: 256
    pad: 1
    kernel_size: 3
    weight_filler {
      type: "xavier"
    }
    bias_filler {
      type: "constant"
      value: 0
    }
  }
}
layer {
  name: "relu3_3"
  type: "ReLU"
  bottom: "conv3_3"
  top: "conv3_3"
}
layer {
  name: "pool3"
  type: "Pooling"
  bottom: "conv3_3"
  top: "pool3"
  pooling_param {
    pool: MAX
    kernel_size: 2
    stride: 2
  }
}
layer {
  name: "conv4_1"
  type: "Convolution"
  bottom: "pool3"
  top: "conv4_1"
  param {
    lr_mult: 1
    decay_mult: 1
  }
  param {
    lr_mult: 2
    decay_mult: 0
  }
  convolution_param {
    num_output: 512
    pad: 1
    kernel_size: 3
    weight_filler {
      type: "xavier"
    }
    bias_filler {
      type: "constant"
      value: 0
    }
  }
}
layer {
  name: "relu4_1"
  type: "ReLU"
  bottom: "conv4_1"
  top: "conv4_1"
}
layer {
  name: "conv4_2"
  type: "Convolution"
  bottom: "conv4_1"
  top: "conv4_2"
  param {
    lr_mult: 1
    decay_mult: 1
  }
  param {
    lr_mult: 2
    decay_mult: 0
  }
  convolution_param {
    num_output: 512
    pad: 1
    kernel_size: 3
    weight_filler {
      type: "xavier"
    }
    bias_filler {
      type: "constant"
      value: 0
    }
  }
}
layer {
  name: "relu4_2"
  type: "ReLU"
  bottom: "conv4_2"
  top: "conv4_2"
}
layer {
  name: "conv4_3"
  type: "Convolution"
  bottom: "conv4_2"
  top: "conv4_3"
  param {
    lr_mult: 1
    decay_mult: 1
  }
  param {
    lr_mult: 2
    decay_mult: 0
  }
  convolution_param {
    num_output: 512
    pad: 1
    kernel_size: 3
    weight_filler {
      type: "xavier"
    }
    bias_filler {
      type: "constant"
      value: 0
    }
  }
}
layer {
  name: "relu4_3"
  type: "ReLU"
  bottom: "conv4_3"
  top: "conv4_3"
}
layer {
  name: "pool4"
  type: "Pooling"
  bottom: "conv4_3"
  top: "pool4"
  pooling_param {
    pool: MAX
    kernel_size: 2
    stride: 2
  }
}
layer {
  name: "conv5_1"
  type: "Convolution"
  bottom: "pool4"
  top: "conv5_1"
  param {
    lr_mult: 1
    decay_mult: 1
  }
  param {
    lr_mult: 2
    decay_mult: 0
  }
  convolution_param {
    num_output: 512
    pad: 1
    kernel_size: 3
    weight_filler {
      type: "xavier"
    }
    bias_filler {
      type: "constant"
      value: 0
    }
    dilation: 1
  }
}
layer {
  name: "relu5_1"
  type: "ReLU"
  bottom: "conv5_1"
  top: "conv5_1"
}
layer {
  name: "conv5_2"
  type: "Convolution"
  bottom: "conv5_1"
  top: "conv5_2"
  param {
    lr_mult: 1
    decay_mult: 1
  }
  param {
    lr_mult: 2
    decay_mult: 0
  }
  convolution_param {
    num_output: 512
    pad: 1
    kernel_size: 3
    weight_filler {
      type: "xavier"
    }
    bias_filler {
      type: "constant"
      value: 0
    }
    dilation: 1
  }
}
layer {
  name: "relu5_2"
  type: "ReLU"
  bottom: "conv5_2"
  top: "conv5_2"
}
layer {
  name: "conv5_3"
  type: "Convolution"
  bottom: "conv5_2"
  top: "conv5_3"
  param {
    lr_mult: 1
    decay_mult: 1
  }
  param {
    lr_mult: 2
    decay_mult: 0
  }
  convolution_param {
    num_output: 512
    pad: 1
    kernel_size: 3
    weight_filler {
      type: "xavier"
    }
    bias_filler {
      type: "constant"
      value: 0
    }
    dilation: 1
  }
}
layer {
  name: "relu5_3"
  type: "ReLU"
  bottom: "conv5_3"
  top: "conv5_3"
}
layer {
  name: "pool5"
  type: "Pooling"
  bottom: "conv5_3"
  top: "pool5"
  pooling_param {
    pool: MAX
    kernel_size: 3
    stride: 1
    pad: 1
  }
}
layer {
  name: "fc6"
  type: "Convolution"
  bottom: "pool5"
  top: "fc6"
  param {
    lr_mult: 1
    decay_mult: 1
  }
  param {
    lr_mult: 2
    decay_mult: 0
  }
  convolution_param {
    num_output: 1024
    pad: 6
    kernel_size: 3
    weight_filler {
      type: "xavier"
    }
    bias_filler {
      type: "constant"
      value: 0
    }
    dilation: 6
  }
}
layer {
  name: "relu6"
  type: "ReLU"
  bottom: "fc6"
  top: "fc6"
}
layer {
  name: "fc7"
  type: "Convolution"
  bottom: "fc6"
  top: "fc7"
  param {
    lr_mult: 1
    decay_mult: 1
  }
  param {
    lr_mult: 2
    decay_mult: 0
  }
  convolution_param {
    num_output: 1024
    kernel_size: 1
    weight_filler {
      type: "xavier"
    }
    bias_filler {
      type: "constant"
      value: 0
    }
  }
}
layer {
  name: "relu7"
  type: "ReLU"
  bottom: "fc7"
  top: "fc7"
}
layer {
  name: "conv6_1"
  type: "Convolution"
  bottom: "fc7"
  top: "conv6_1"
  param {
    lr_mult: 1
    decay_mult: 1
  }
  param {
    lr_mult: 2
    decay_mult: 0
  }
  convolution_param {
    num_output: 256
    pad: 0
    kernel_size: 1
    group: 1
    stride: 1
    weight_filler {
      type: "xavier"
    }
    bias_filler {
      type: "constant"
      value: 0
    }
  }
}
layer {
  name: "conv6_1_relu"
  type: "ReLU"
  bottom: "conv6_1"
  top: "conv6_1"
}
layer {
  name: "conv6_2"
  type: "Convolution"
  bottom: "conv6_1"
  top: "conv6_2"
  param {
    lr_mult: 1
    decay_mult: 1
  }
  param {
    lr_mult: 2
    decay_mult: 0
  }
  convolution_param {
    num_output: 512
    pad: 1
    kernel_size: 3
    group: 1
    stride: 2
    weight_filler {
      type: "xavier"
    }
    bias_filler {
      type: "constant"
      value: 0
    }
  }
}
layer {
  name: "conv6_2_relu"
  type: "ReLU"
  bottom: "conv6_2"
  top: "conv6_2"
}
layer {
  name: "conv7_1"
  type: "Convolution"
  bottom: "conv6_2"
  top: "conv7_1"
  param {
    lr_mult: 1
    decay_mult: 1
  }
  param {
    lr_mult: 2
    decay_mult: 0
  }
  convolution_param {
    num_output: 128
    pad: 0
    kernel_size: 1
    group: 1
    stride: 1
    weight_filler {
      type: "xavier"
    }
    bias_filler {
      type: "constant"
      value: 0
    }
  }
}
layer {
  name: "conv7_1_relu"
  type: "ReLU"
  bottom: "conv7_1"
  top: "conv7_1"
}
layer {
  name: "conv7_2"
  type: "Convolution"
  bottom: "conv7_1"
  top: "conv7_2"
  param {
    lr_mult: 1
    decay_mult: 1
  }
  param {
    lr_mult: 2
    decay_mult: 0
  }
  convolution_param {
    num_output: 256
    pad: 1
    kernel_size: 3
    group: 1
    stride: 2
    weight_filler {
      type: "xavier"
    }
    bias_filler {
      type: "constant"
      value: 0
    }
  }
}
layer {
  name: "conv7_2_relu"
  type: "ReLU"
  bottom: "conv7_2"
  top: "conv7_2"
}
layer {
  name: "conv8_1"
  type: "Convolution"
  bottom: "conv7_2"
  top: "conv8_1"
  param {
    lr_mult: 1
    decay_mult: 1
  }
  param {
    lr_mult: 2
    decay_mult: 0
  }
  convolution_param {
    num_output: 128
    pad: 0
    kernel_size: 1
    group: 1
    stride: 1
    weight_filler {
      type: "xavier"
    }
    bias_filler {
      type: "constant"
      value: 0
    }
  }
}
layer {
  name: "conv8_1_relu"
  type: "ReLU"
  bottom: "conv8_1"
  top: "conv8_1"
}
layer {
  name: "conv8_2"
  type: "Convolution"
  bottom: "conv8_1"
  top: "conv8_2"
  param {
    lr_mult: 1
    decay_mult: 1
  }
  param {
    lr_mult: 2
    decay_mult: 0
  }
  convolution_param {
    num_output: 256
    pad: 0
    kernel_size: 3
    group: 1
    stride: 1
    weight_filler {
      type: "xavier"
    }
    bias_filler {
      type: "constant"
      value: 0
    }
  }
}
layer {
  name: "conv8_2_relu"
  type: "ReLU"
  bottom: "conv8_2"
  top: "conv8_2"
}
layer {
  name: "conv9_1"
  type: "Convolution"
  bottom: "conv8_2"
  top: "conv9_1"
  param {
    lr_mult: 1
    decay_mult: 1
  }
  param {
    lr_mult: 2
    decay_mult: 0
  }
  convolution_param {
    num_output: 128
    pad: 0
    kernel_size: 1
    group: 1
    stride: 1
    weight_filler {
      type: "xavier"
    }
    bias_filler {
      type: "constant"
      value: 0
    }
  }
}
layer {
  name: "conv9_1_relu"
  type: "ReLU"
  bottom: "conv9_1"
  top: "conv9_1"
}
layer {
  name: "conv9_2"
  type: "Convolution"
  bottom: "conv9_1"
  top: "conv9_2"
  param {
    lr_mult: 1
    decay_mult: 1
  }
  param {
    lr_mult: 2
    decay_mult: 0
  }
  convolution_param {
    num_output: 256
    pad: 0
    kernel_size: 3
    group: 1
    stride: 1
    weight_filler {
      type: "xavier"
    }
    bias_filler {
      type: "constant"
      value: 0
    }
  }
}
layer {
  name: "conv9_2_relu"
  type: "ReLU"
  bottom: "conv9_2"
  top: "conv9_2"
}
layer {
  name: "conv4_3_norm"
  type: "Normalize"
  bottom: "conv4_3"
  top: "conv4_3_norm"
  norm_param {
    across_spatial: false
    scale_filler {
      type: "constant"
      value: 20
    }
    channel_shared: false
  }
}
layer {
  name: "conv4_3_norm_mbox_loc"
  type: "Convolution"
  bottom: "conv4_3_norm"
  top: "conv4_3_norm_mbox_loc"
  param {
    lr_mult: 1
    decay_mult: 1
  }
  param {
    lr_mult: 2
    decay_mult: 0
  }
  convolution_param {
    num_output: 16
    pad: 1
    kernel_size: 3
    group: 1
    stride: 1
    weight_filler {
      type: "xavier"
    }
    bias_filler {
      type: "constant"
      value: 0
    }
  }
}
layer {
  name: "conv4_3_norm_mbox_loc_perm"
  type: "Permute"
  bottom: "conv4_3_norm_mbox_loc"
  top: "conv4_3_norm_mbox_loc_perm"
  permute_param {
    order: 0
    order: 2
    order: 3
    order: 1
  }
}
layer {
  name: "conv4_3_norm_mbox_loc_flat"
  type: "Flatten"
  bottom: "conv4_3_norm_mbox_loc_perm"
  top: "conv4_3_norm_mbox_loc_flat"
  flatten_param {
    axis: 1
  }
}
layer {
  name: "conv4_3_norm_mbox_conf"
  type: "Convolution"
  bottom: "conv4_3_norm"
  top: "conv4_3_norm_mbox_conf"
  param {
    lr_mult: 1
    decay_mult: 1
  }
  param {
    lr_mult: 2
    decay_mult: 0
  }
  convolution_param {
    num_output: 84
    pad: 1
    kernel_size: 3
    group: 1
    stride: 1
    weight_filler {
      type: "xavier"
    }
    bias_filler {
      type: "constant"
      value: 0
    }
  }
}
layer {
  name: "conv4_3_norm_mbox_conf_perm"
  type: "Permute"
  bottom: "conv4_3_norm_mbox_conf"
  top: "conv4_3_norm_mbox_conf_perm"
  permute_param {
    order: 0
    order: 2
    order: 3
    order: 1
  }
}
layer {
  name: "conv4_3_norm_mbox_conf_flat"
  type: "Flatten"
  bottom: "conv4_3_norm_mbox_conf_perm"
  top: "conv4_3_norm_mbox_conf_flat"
  flatten_param {
    axis: 1
  }
}
layer {
  name: "conv4_3_norm_mbox_priorbox"
  type: "PriorBox"
  bottom: "conv4_3_norm"
  bottom: "data"
  top: "conv4_3_norm_mbox_priorbox"
  prior_box_param {
    min_size: 30
    max_size: 60
    aspect_ratio: 2
    flip: true
    clip: false
    variance: 0.1
    variance: 0.1
    variance: 0.2
    variance: 0.2
    step: 8
    offset: 0.5
  }
}
layer {
  name: "fc7_mbox_loc"
  type: "Convolution"
  bottom: "fc7"
  top: "fc7_mbox_loc"
  param {
    lr_mult: 1
    decay_mult: 1
  }
  param {
    lr_mult: 2
    decay_mult: 0
  }
  convolution_param {
    num_output: 24
    pad: 1
    kernel_size: 3
    group: 1
    stride: 1
    weight_filler {
      type: "xavier"
    }
    bias_filler {
      type: "constant"
      value: 0
    }
  }
}
layer {
  name: "fc7_mbox_loc_perm"
  type: "Permute"
  bottom: "fc7_mbox_loc"
  top: "fc7_mbox_loc_perm"
  permute_param {
    order: 0
    order: 2
    order: 3
    order: 1
  }
}
layer {
  name: "fc7_mbox_loc_flat"
  type: "Flatten"
  bottom: "fc7_mbox_loc_perm"
  top: "fc7_mbox_loc_flat"
  flatten_param {
    axis: 1
  }
}
layer {
  name: "fc7_mbox_conf"
  type: "Convolution"
  bottom: "fc7"
  top: "fc7_mbox_conf"
  param {
    lr_mult: 1
    decay_mult: 1
  }
  param {
    lr_mult: 2
    decay_mult: 0
  }
  convolution_param {
    num_output: 126
    pad: 1
    kernel_size: 3
    group: 1
    stride: 1
    weight_filler {
      type: "xavier"
    }
    bias_filler {
      type: "constant"
      value: 0
    }
  }
}
layer {
  name: "fc7_mbox_conf_perm"
  type: "Permute"
  bottom: "fc7_mbox_conf"
  top: "fc7_mbox_conf_perm"
  permute_param {
    order: 0
    order: 2
    order: 3
    order: 1
  }
}
layer {
  name: "fc7_mbox_conf_flat"
  type: "Flatten"
  bottom: "fc7_mbox_conf_perm"
  top: "fc7_mbox_conf_flat"
  flatten_param {
    axis: 1
  }
}
layer {
  name: "fc7_mbox_priorbox"
  type: "PriorBox"
  bottom: "fc7"
  bottom: "data"
  top: "fc7_mbox_priorbox"
  prior_box_param {
    min_size: 60
    max_size: 111
    aspect_ratio: 2
    aspect_ratio: 3
    flip: true
    clip: false
    variance: 0.1
    variance: 0.1
    variance: 0.2
    variance: 0.2
    step: 16
    offset: 0.5
  }
}
layer {
  name: "conv6_2_mbox_loc"
  type: "Convolution"
  bottom: "conv6_2"
  top: "conv6_2_mbox_loc"
  param {
    lr_mult: 1
    decay_mult: 1
  }
  param {
    lr_mult: 2
    decay_mult: 0
  }
  convolution_param {
    num_output: 24
    pad: 1
    kernel_size: 3
    group: 1
    stride: 1
    weight_filler {
      type: "xavier"
    }
    bias_filler {
      type: "constant"
      value: 0
    }
  }
}
layer {
  name: "conv6_2_mbox_loc_perm"
  type: "Permute"
  bottom: "conv6_2_mbox_loc"
  top: "conv6_2_mbox_loc_perm"
  permute_param {
    order: 0
    order: 2
    order: 3
    order: 1
  }
}
layer {
  name: "conv6_2_mbox_loc_flat"
  type: "Flatten"
  bottom: "conv6_2_mbox_loc_perm"
  top: "conv6_2_mbox_loc_flat"
  flatten_param {
    axis: 1
  }
}
layer {
  name: "conv6_2_mbox_conf"
  type: "Convolution"
  bottom: "conv6_2"
  top: "conv6_2_mbox_conf"
  param {
    lr_mult: 1
    decay_mult: 1
  }
  param {
    lr_mult: 2
    decay_mult: 0
  }
  convolution_param {
    num_output: 126
    pad: 1
    kernel_size: 3
    group: 1
    stride: 1
    weight_filler {
      type: "xavier"
    }
    bias_filler {
      type: "constant"
      value: 0
    }
  }
}
layer {
  name: "conv6_2_mbox_conf_perm"
  type: "Permute"
  bottom: "conv6_2_mbox_conf"
  top: "conv6_2_mbox_conf_perm"
  permute_param {
    order: 0
    order: 2
    order: 3
    order: 1
  }
}
layer {
  name: "conv6_2_mbox_conf_flat"
  type: "Flatten"
  bottom: "conv6_2_mbox_conf_perm"
  top: "conv6_2_mbox_conf_flat"
  flatten_param {
    axis: 1
  }
}
layer {
  name: "conv6_2_mbox_priorbox"
  type: "PriorBox"
  bottom: "conv6_2"
  bottom: "data"
  top: "conv6_2_mbox_priorbox"
  prior_box_param {
    min_size: 111
    max_size: 162
    aspect_ratio: 2
    aspect_ratio: 3
    flip: true
    clip: false
    variance: 0.1
    variance: 0.1
    variance: 0.2
    variance: 0.2
    step: 32
    offset: 0.5
  }
}
layer {
  name: "conv7_2_mbox_loc"
  type: "Convolution"
  bottom: "conv7_2"
  top: "conv7_2_mbox_loc"
  param {
    lr_mult: 1
    decay_mult: 1
  }
  param {
    lr_mult: 2
    decay_mult: 0
  }
  convolution_param {
    num_output: 24
    pad: 1
    kernel_size: 3
    group: 1
    stride: 1
    weight_filler {
      type: "xavier"
    }
    bias_filler {
      type: "constant"
      value: 0
    }
  }
}
layer {
  name: "conv7_2_mbox_loc_perm"
  type: "Permute"
  bottom: "conv7_2_mbox_loc"
  top: "conv7_2_mbox_loc_perm"
  permute_param {
    order: 0
    order: 2
    order: 3
    order: 1
  }
}
layer {
  name: "conv7_2_mbox_loc_flat"
  type: "Flatten"
  bottom: "conv7_2_mbox_loc_perm"
  top: "conv7_2_mbox_loc_flat"
  flatten_param {
    axis: 1
  }
}
layer {
  name: "conv7_2_mbox_conf"
  type: "Convolution"
  bottom: "conv7_2"
  top: "conv7_2_mbox_conf"
  param {
    lr_mult: 1
    decay_mult: 1
  }
  param {
    lr_mult: 2
    decay_mult: 0
  }
  convolution_param {
    num_output: 126
    pad: 1
    kernel_size: 3
    group: 1
    stride: 1
    weight_filler {
      type: "xavier"
    }
    bias_filler {
      type: "constant"
      value: 0
    }
  }
}
layer {
  name: "conv7_2_mbox_conf_perm"
  type: "Permute"
  bottom: "conv7_2_mbox_conf"
  top: "conv7_2_mbox_conf_perm"
  permute_param {
    order: 0
    order: 2
    order: 3
    order: 1
  }
}
layer {
  name: "conv7_2_mbox_conf_flat"
  type: "Flatten"
  bottom: "conv7_2_mbox_conf_perm"
  top: "conv7_2_mbox_conf_flat"
  flatten_param {
    axis: 1
  }
}
layer {
  name: "conv7_2_mbox_priorbox"
  type: "PriorBox"
  bottom: "conv7_2"
  bottom: "data"
  top: "conv7_2_mbox_priorbox"
  prior_box_param {
    min_size: 162
    max_size: 213
    aspect_ratio: 2
    aspect_ratio: 3
    flip: true
    clip: false
    variance: 0.1
    variance: 0.1
    variance: 0.2
    variance: 0.2
    step: 64
    offset: 0.5
  }
}
layer {
  name: "conv8_2_mbox_loc"
  type: "Convolution"
  bottom: "conv8_2"
  top: "conv8_2_mbox_loc"
  param {
    lr_mult: 1
    decay_mult: 1
  }
  param {
    lr_mult: 2
    decay_mult: 0
  }
  convolution_param {
    num_output: 16
    pad: 1
    kernel_size: 3
    group: 1
    stride: 1
    weight_filler {
      type: "xavier"
    }
    bias_filler {
      type: "constant"
      value: 0
    }
  }
}
layer {
  name: "conv8_2_mbox_loc_perm"
  type: "Permute"
  bottom: "conv8_2_mbox_loc"
  top: "conv8_2_mbox_loc_perm"
  permute_param {
    order: 0
    order: 2
    order: 3
    order: 1
  }
}
layer {
  name: "conv8_2_mbox_loc_flat"
  type: "Flatten"
  bottom: "conv8_2_mbox_loc_perm"
  top: "conv8_2_mbox_loc_flat"
  flatten_param {
    axis: 1
  }
}
layer {
  name: "conv8_2_mbox_conf"
  type: "Convolution"
  bottom: "conv8_2"
  top: "conv8_2_mbox_conf"
  param {
    lr_mult: 1
    decay_mult: 1
  }
  param {
    lr_mult: 2
    decay_mult: 0
  }
  convolution_param {
    num_output: 84
    pad: 1
    kernel_size: 3
    group: 1
    stride: 1
    weight_filler {
      type: "xavier"
    }
    bias_filler {
      type: "constant"
      value: 0
    }
  }
}
layer {
  name: "conv8_2_mbox_conf_perm"
  type: "Permute"
  bottom: "conv8_2_mbox_conf"
  top: "conv8_2_mbox_conf_perm"
  permute_param {
    order: 0
    order: 2
    order: 3
    order: 1
  }
}
layer {
  name: "conv8_2_mbox_conf_flat"
  type: "Flatten"
  bottom: "conv8_2_mbox_conf_perm"
  top: "conv8_2_mbox_conf_flat"
  flatten_param {
    axis: 1
  }
}
layer {
  name: "conv8_2_mbox_priorbox"
  type: "PriorBox"
  bottom: "conv8_2"
  bottom: "data"
  top: "conv8_2_mbox_priorbox"
  prior_box_param {
    min_size: 213
    max_size: 264
    aspect_ratio: 2
    flip: true
    clip: false
    variance: 0.1
    variance: 0.1
    variance: 0.2
    variance: 0.2
    step: 100
    offset: 0.5
  }
}
layer {
  name: "conv9_2_mbox_loc"
  type: "Convolution"
  bottom: "conv9_2"
  top: "conv9_2_mbox_loc"
  param {
    lr_mult: 1
    decay_mult: 1
  }
  param {
    lr_mult: 2
    decay_mult: 0
  }
  convolution_param {
    num_output: 16
    pad: 1
    kernel_size: 3
    group: 1
    stride: 1
    weight_filler {
      type: "xavier"
    }
    bias_filler {
      type: "constant"
      value: 0
    }
  }
}
layer {
  name: "conv9_2_mbox_loc_perm"
  type: "Permute"
  bottom: "conv9_2_mbox_loc"
  top: "conv9_2_mbox_loc_perm"
  permute_param {
    order: 0
    order: 2
    order: 3
    order: 1
  }
}
layer {
  name: "conv9_2_mbox_loc_flat"
  type: "Flatten"
  bottom: "conv9_2_mbox_loc_perm"
  top: "conv9_2_mbox_loc_flat"
  flatten_param {
    axis: 1
  }
}
layer {
  name: "conv9_2_mbox_conf"
  type: "Convolution"
  bottom: "conv9_2"
  top: "conv9_2_mbox_conf"
  param {
    lr_mult: 1
    decay_mult: 1
  }
  param {
    lr_mult: 2
    decay_mult: 0
  }
  convolution_param {
    num_output: 84
    pad: 1
    kernel_size: 3
    group: 1
    stride: 1
    weight_filler {
      type: "xavier"
    }
    bias_filler {
      type: "constant"
      value: 0
    }
  }
}
layer {
  name: "conv9_2_mbox_conf_perm"
  type: "Permute"
  bottom: "conv9_2_mbox_conf"
  top: "conv9_2_mbox_conf_perm"
  permute_param {
    order: 0
    order: 2
    order: 3
    order: 1
  }
}
layer {
  name: "conv9_2_mbox_conf_flat"
  type: "Flatten"
  bottom: "conv9_2_mbox_conf_perm"
  top: "conv9_2_mbox_conf_flat"
  flatten_param {
    axis: 1
  }
}
layer {
  name: "conv9_2_mbox_priorbox"
  type: "PriorBox"
  bottom: "conv9_2"
  bottom: "data"
  top: "conv9_2_mbox_priorbox"
  prior_box_param {
    min_size: 264
    max_size: 315
    aspect_ratio: 2
    flip: true
    clip: false
    variance: 0.1
    variance: 0.1
    variance: 0.2
    variance: 0.2
    step: 300
    offset: 0.5
  }
}
layer {
  name: "mbox_loc"
  type: "Concat"
  bottom: "conv4_3_norm_mbox_loc_flat"
  bottom: "fc7_mbox_loc_flat"
  bottom: "conv6_2_mbox_loc_flat"
  bottom: "conv7_2_mbox_loc_flat"
  bottom: "conv8_2_mbox_loc_flat"
  bottom: "conv9_2_mbox_loc_flat"
  top: "mbox_loc"
  concat_param {
    axis: 1
  }
}
layer {
  name: "mbox_conf"
  type: "Concat"
  bottom: "conv4_3_norm_mbox_conf_flat"
  bottom: "fc7_mbox_conf_flat"
  bottom: "conv6_2_mbox_conf_flat"
  bottom: "conv7_2_mbox_conf_flat"
  bottom: "conv8_2_mbox_conf_flat"
  bottom: "conv9_2_mbox_conf_flat"
  top: "mbox_conf"
  concat_param {
    axis: 1
  }
}
layer {
  name: "mbox_priorbox"
  type: "Concat"
  bottom: "conv4_3_norm_mbox_priorbox"
  bottom: "fc7_mbox_priorbox"
  bottom: "conv6_2_mbox_priorbox"
  bottom: "conv7_2_mbox_priorbox"
  bottom: "conv8_2_mbox_priorbox"
  bottom: "conv9_2_mbox_priorbox"
  top: "mbox_priorbox"
  concat_param {
    axis: 2
  }
}
layer {
  name: "mbox_loss"
  type: "MultiBoxLoss"
  bottom: "mbox_loc"
  bottom: "mbox_conf"
  bottom: "mbox_priorbox"
  bottom: "label"
  top: "mbox_loss"
  include {
    phase: TRAIN
  }
  propagate_down: true
  propagate_down: true
  propagate_down: false
  propagate_down: false
  loss_param {
    normalization: VALID
  }
  multibox_loss_param {
    loc_loss_type: SMOOTH_L1
    conf_loss_type: SOFTMAX
    loc_weight: 1
    num_classes: 21
    share_location: true
    match_type: PER_PREDICTION
    overlap_threshold: 0.5
    use_prior_for_matching: true
    background_label_id: 0
    use_difficult_gt: true
    neg_pos_ratio: 3
    neg_overlap: 0.5
    code_type: CENTER_SIZE
    ignore_cross_boundary_bbox: false
    mining_type: MAX_NEGATIVE
  }
}
I0617 21:28:31.486310 28668 layer_factory.hpp:77] Creating layer data
I0617 21:28:31.486537 28668 net.cpp:100] Creating Layer data
I0617 21:28:31.486562 28668 net.cpp:408] data -> data
I0617 21:28:31.486620 28668 net.cpp:408] data -> label
I0617 21:28:31.487771 28675 db_lmdb.cpp:35] Opened lmdb examples/VOC0712/VOC0712_trainval_lmdb
I0617 21:28:31.571699 28668 annotated_data_layer.cpp:62] output data size: 8,3,300,300
I0617 21:28:31.586589 28668 net.cpp:150] Setting up data
I0617 21:28:31.586611 28668 net.cpp:157] Top shape: 8 3 300 300 (2160000)
I0617 21:28:31.586616 28668 net.cpp:157] Top shape: 1 1 1 8 (8)
I0617 21:28:31.586617 28668 net.cpp:165] Memory required for data: 8640032
I0617 21:28:31.586627 28668 layer_factory.hpp:77] Creating layer data_data_0_split
I0617 21:28:31.586639 28668 net.cpp:100] Creating Layer data_data_0_split
I0617 21:28:31.586645 28668 net.cpp:434] data_data_0_split <- data
I0617 21:28:31.586659 28668 net.cpp:408] data_data_0_split -> data_data_0_split_0
I0617 21:28:31.586670 28668 net.cpp:408] data_data_0_split -> data_data_0_split_1
I0617 21:28:31.586679 28668 net.cpp:408] data_data_0_split -> data_data_0_split_2
I0617 21:28:31.586688 28668 net.cpp:408] data_data_0_split -> data_data_0_split_3
I0617 21:28:31.586696 28668 net.cpp:408] data_data_0_split -> data_data_0_split_4
I0617 21:28:31.586704 28668 net.cpp:408] data_data_0_split -> data_data_0_split_5
I0617 21:28:31.586711 28668 net.cpp:408] data_data_0_split -> data_data_0_split_6
I0617 21:28:31.586815 28668 net.cpp:150] Setting up data_data_0_split
I0617 21:28:31.586823 28668 net.cpp:157] Top shape: 8 3 300 300 (2160000)
I0617 21:28:31.586827 28668 net.cpp:157] Top shape: 8 3 300 300 (2160000)
I0617 21:28:31.586832 28668 net.cpp:157] Top shape: 8 3 300 300 (2160000)
I0617 21:28:31.586836 28668 net.cpp:157] Top shape: 8 3 300 300 (2160000)
I0617 21:28:31.586840 28668 net.cpp:157] Top shape: 8 3 300 300 (2160000)
I0617 21:28:31.586844 28668 net.cpp:157] Top shape: 8 3 300 300 (2160000)
I0617 21:28:31.586850 28668 net.cpp:157] Top shape: 8 3 300 300 (2160000)
I0617 21:28:31.586853 28668 net.cpp:165] Memory required for data: 69120032
I0617 21:28:31.586856 28668 layer_factory.hpp:77] Creating layer conv1_1
I0617 21:28:31.586874 28668 net.cpp:100] Creating Layer conv1_1
I0617 21:28:31.586879 28668 net.cpp:434] conv1_1 <- data_data_0_split_0
I0617 21:28:31.586886 28668 net.cpp:408] conv1_1 -> conv1_1
I0617 21:28:31.651197 28676 blocking_queue.cpp:50] Waiting for data
I0617 21:28:31.925215 28668 net.cpp:150] Setting up conv1_1
I0617 21:28:31.925240 28668 net.cpp:157] Top shape: 8 64 300 300 (46080000)
I0617 21:28:31.925243 28668 net.cpp:165] Memory required for data: 253440032
I0617 21:28:31.925261 28668 layer_factory.hpp:77] Creating layer relu1_1
I0617 21:28:31.925271 28668 net.cpp:100] Creating Layer relu1_1
I0617 21:28:31.925273 28668 net.cpp:434] relu1_1 <- conv1_1
I0617 21:28:31.925279 28668 net.cpp:395] relu1_1 -> conv1_1 (in-place)
I0617 21:28:31.925468 28668 net.cpp:150] Setting up relu1_1
I0617 21:28:31.925478 28668 net.cpp:157] Top shape: 8 64 300 300 (46080000)
I0617 21:28:31.925482 28668 net.cpp:165] Memory required for data: 437760032
I0617 21:28:31.925484 28668 layer_factory.hpp:77] Creating layer conv1_2
I0617 21:28:31.925495 28668 net.cpp:100] Creating Layer conv1_2
I0617 21:28:31.925500 28668 net.cpp:434] conv1_2 <- conv1_1
I0617 21:28:31.925506 28668 net.cpp:408] conv1_2 -> conv1_2
I0617 21:28:31.928690 28668 net.cpp:150] Setting up conv1_2
I0617 21:28:31.928704 28668 net.cpp:157] Top shape: 8 64 300 300 (46080000)
I0617 21:28:31.928706 28668 net.cpp:165] Memory required for data: 622080032
I0617 21:28:31.928715 28668 layer_factory.hpp:77] Creating layer relu1_2
I0617 21:28:31.928720 28668 net.cpp:100] Creating Layer relu1_2
I0617 21:28:31.928724 28668 net.cpp:434] relu1_2 <- conv1_2
I0617 21:28:31.928727 28668 net.cpp:395] relu1_2 -> conv1_2 (in-place)
I0617 21:28:31.928911 28668 net.cpp:150] Setting up relu1_2
I0617 21:28:31.928921 28668 net.cpp:157] Top shape: 8 64 300 300 (46080000)
I0617 21:28:31.928923 28668 net.cpp:165] Memory required for data: 806400032
I0617 21:28:31.928926 28668 layer_factory.hpp:77] Creating layer pool1
I0617 21:28:31.928932 28668 net.cpp:100] Creating Layer pool1
I0617 21:28:31.928936 28668 net.cpp:434] pool1 <- conv1_2
I0617 21:28:31.928959 28668 net.cpp:408] pool1 -> pool1
I0617 21:28:31.929013 28668 net.cpp:150] Setting up pool1
I0617 21:28:31.929020 28668 net.cpp:157] Top shape: 8 64 150 150 (11520000)
I0617 21:28:31.929023 28668 net.cpp:165] Memory required for data: 852480032
I0617 21:28:31.929025 28668 layer_factory.hpp:77] Creating layer conv2_1
I0617 21:28:31.929034 28668 net.cpp:100] Creating Layer conv2_1
I0617 21:28:31.929038 28668 net.cpp:434] conv2_1 <- pool1
I0617 21:28:31.929042 28668 net.cpp:408] conv2_1 -> conv2_1
I0617 21:28:31.931919 28668 net.cpp:150] Setting up conv2_1
I0617 21:28:31.931932 28668 net.cpp:157] Top shape: 8 128 150 150 (23040000)
I0617 21:28:31.931936 28668 net.cpp:165] Memory required for data: 944640032
I0617 21:28:31.931943 28668 layer_factory.hpp:77] Creating layer relu2_1
I0617 21:28:31.931951 28668 net.cpp:100] Creating Layer relu2_1
I0617 21:28:31.931954 28668 net.cpp:434] relu2_1 <- conv2_1
I0617 21:28:31.931959 28668 net.cpp:395] relu2_1 -> conv2_1 (in-place)
I0617 21:28:31.932689 28668 net.cpp:150] Setting up relu2_1
I0617 21:28:31.932703 28668 net.cpp:157] Top shape: 8 128 150 150 (23040000)
I0617 21:28:31.932704 28668 net.cpp:165] Memory required for data: 1036800032
I0617 21:28:31.932708 28668 layer_factory.hpp:77] Creating layer conv2_2
I0617 21:28:31.932715 28668 net.cpp:100] Creating Layer conv2_2
I0617 21:28:31.932718 28668 net.cpp:434] conv2_2 <- conv2_1
I0617 21:28:31.932725 28668 net.cpp:408] conv2_2 -> conv2_2
I0617 21:28:31.936516 28668 net.cpp:150] Setting up conv2_2
I0617 21:28:31.936530 28668 net.cpp:157] Top shape: 8 128 150 150 (23040000)
I0617 21:28:31.936534 28668 net.cpp:165] Memory required for data: 1128960032
I0617 21:28:31.936540 28668 layer_factory.hpp:77] Creating layer relu2_2
I0617 21:28:31.936545 28668 net.cpp:100] Creating Layer relu2_2
I0617 21:28:31.936548 28668 net.cpp:434] relu2_2 <- conv2_2
I0617 21:28:31.936553 28668 net.cpp:395] relu2_2 -> conv2_2 (in-place)
I0617 21:28:31.936744 28668 net.cpp:150] Setting up relu2_2
I0617 21:28:31.936753 28668 net.cpp:157] Top shape: 8 128 150 150 (23040000)
I0617 21:28:31.936756 28668 net.cpp:165] Memory required for data: 1221120032
I0617 21:28:31.936758 28668 layer_factory.hpp:77] Creating layer pool2
I0617 21:28:31.936765 28668 net.cpp:100] Creating Layer pool2
I0617 21:28:31.936767 28668 net.cpp:434] pool2 <- conv2_2
I0617 21:28:31.936772 28668 net.cpp:408] pool2 -> pool2
I0617 21:28:31.936816 28668 net.cpp:150] Setting up pool2
I0617 21:28:31.936822 28668 net.cpp:157] Top shape: 8 128 75 75 (5760000)
I0617 21:28:31.936825 28668 net.cpp:165] Memory required for data: 1244160032
I0617 21:28:31.936827 28668 layer_factory.hpp:77] Creating layer conv3_1
I0617 21:28:31.936836 28668 net.cpp:100] Creating Layer conv3_1
I0617 21:28:31.936838 28668 net.cpp:434] conv3_1 <- pool2
I0617 21:28:31.936844 28668 net.cpp:408] conv3_1 -> conv3_1
I0617 21:28:31.943003 28668 net.cpp:150] Setting up conv3_1
I0617 21:28:31.943020 28668 net.cpp:157] Top shape: 8 256 75 75 (11520000)
I0617 21:28:31.943023 28668 net.cpp:165] Memory required for data: 1290240032
I0617 21:28:31.943035 28668 layer_factory.hpp:77] Creating layer relu3_1
I0617 21:28:31.943042 28668 net.cpp:100] Creating Layer relu3_1
I0617 21:28:31.943047 28668 net.cpp:434] relu3_1 <- conv3_1
I0617 21:28:31.943051 28668 net.cpp:395] relu3_1 -> conv3_1 (in-place)
I0617 21:28:31.943244 28668 net.cpp:150] Setting up relu3_1
I0617 21:28:31.943253 28668 net.cpp:157] Top shape: 8 256 75 75 (11520000)
I0617 21:28:31.943255 28668 net.cpp:165] Memory required for data: 1336320032
I0617 21:28:31.943259 28668 layer_factory.hpp:77] Creating layer conv3_2
I0617 21:28:31.943267 28668 net.cpp:100] Creating Layer conv3_2
I0617 21:28:31.943269 28668 net.cpp:434] conv3_2 <- conv3_1
I0617 21:28:31.943276 28668 net.cpp:408] conv3_2 -> conv3_2
I0617 21:28:31.950671 28668 net.cpp:150] Setting up conv3_2
I0617 21:28:31.950693 28668 net.cpp:157] Top shape: 8 256 75 75 (11520000)
I0617 21:28:31.950695 28668 net.cpp:165] Memory required for data: 1382400032
I0617 21:28:31.950721 28668 layer_factory.hpp:77] Creating layer relu3_2
I0617 21:28:31.950728 28668 net.cpp:100] Creating Layer relu3_2
I0617 21:28:31.950732 28668 net.cpp:434] relu3_2 <- conv3_2
I0617 21:28:31.950738 28668 net.cpp:395] relu3_2 -> conv3_2 (in-place)
I0617 21:28:31.951447 28668 net.cpp:150] Setting up relu3_2
I0617 21:28:31.951457 28668 net.cpp:157] Top shape: 8 256 75 75 (11520000)
I0617 21:28:31.951459 28668 net.cpp:165] Memory required for data: 1428480032
I0617 21:28:31.951462 28668 layer_factory.hpp:77] Creating layer conv3_3
I0617 21:28:31.951475 28668 net.cpp:100] Creating Layer conv3_3
I0617 21:28:31.951478 28668 net.cpp:434] conv3_3 <- conv3_2
I0617 21:28:31.951484 28668 net.cpp:408] conv3_3 -> conv3_3
I0617 21:28:31.958956 28668 net.cpp:150] Setting up conv3_3
I0617 21:28:31.958976 28668 net.cpp:157] Top shape: 8 256 75 75 (11520000)
I0617 21:28:31.958979 28668 net.cpp:165] Memory required for data: 1474560032
I0617 21:28:31.958988 28668 layer_factory.hpp:77] Creating layer relu3_3
I0617 21:28:31.958997 28668 net.cpp:100] Creating Layer relu3_3
I0617 21:28:31.959000 28668 net.cpp:434] relu3_3 <- conv3_3
I0617 21:28:31.959005 28668 net.cpp:395] relu3_3 -> conv3_3 (in-place)
I0617 21:28:31.959715 28668 net.cpp:150] Setting up relu3_3
I0617 21:28:31.959724 28668 net.cpp:157] Top shape: 8 256 75 75 (11520000)
I0617 21:28:31.959727 28668 net.cpp:165] Memory required for data: 1520640032
I0617 21:28:31.959729 28668 layer_factory.hpp:77] Creating layer pool3
I0617 21:28:31.959734 28668 net.cpp:100] Creating Layer pool3
I0617 21:28:31.959736 28668 net.cpp:434] pool3 <- conv3_3
I0617 21:28:31.959743 28668 net.cpp:408] pool3 -> pool3
I0617 21:28:31.959792 28668 net.cpp:150] Setting up pool3
I0617 21:28:31.959799 28668 net.cpp:157] Top shape: 8 256 38 38 (2957312)
I0617 21:28:31.959800 28668 net.cpp:165] Memory required for data: 1532469280
I0617 21:28:31.959802 28668 layer_factory.hpp:77] Creating layer conv4_1
I0617 21:28:31.959812 28668 net.cpp:100] Creating Layer conv4_1
I0617 21:28:31.959815 28668 net.cpp:434] conv4_1 <- pool3
I0617 21:28:31.959820 28668 net.cpp:408] conv4_1 -> conv4_1
I0617 21:28:31.971496 28668 net.cpp:150] Setting up conv4_1
I0617 21:28:31.971516 28668 net.cpp:157] Top shape: 8 512 38 38 (5914624)
I0617 21:28:31.971518 28668 net.cpp:165] Memory required for data: 1556127776
I0617 21:28:31.971526 28668 layer_factory.hpp:77] Creating layer relu4_1
I0617 21:28:31.971534 28668 net.cpp:100] Creating Layer relu4_1
I0617 21:28:31.971537 28668 net.cpp:434] relu4_1 <- conv4_1
I0617 21:28:31.971542 28668 net.cpp:395] relu4_1 -> conv4_1 (in-place)
I0617 21:28:31.972024 28668 net.cpp:150] Setting up relu4_1
I0617 21:28:31.972033 28668 net.cpp:157] Top shape: 8 512 38 38 (5914624)
I0617 21:28:31.972035 28668 net.cpp:165] Memory required for data: 1579786272
I0617 21:28:31.972038 28668 layer_factory.hpp:77] Creating layer conv4_2
I0617 21:28:31.972048 28668 net.cpp:100] Creating Layer conv4_2
I0617 21:28:31.972049 28668 net.cpp:434] conv4_2 <- conv4_1
I0617 21:28:31.972055 28668 net.cpp:408] conv4_2 -> conv4_2
I0617 21:28:31.989154 28668 net.cpp:150] Setting up conv4_2
I0617 21:28:31.989173 28668 net.cpp:157] Top shape: 8 512 38 38 (5914624)
I0617 21:28:31.989176 28668 net.cpp:165] Memory required for data: 1603444768
I0617 21:28:31.989188 28668 layer_factory.hpp:77] Creating layer relu4_2
I0617 21:28:31.989197 28668 net.cpp:100] Creating Layer relu4_2
I0617 21:28:31.989199 28668 net.cpp:434] relu4_2 <- conv4_2
I0617 21:28:31.989204 28668 net.cpp:395] relu4_2 -> conv4_2 (in-place)
I0617 21:28:31.991300 28668 net.cpp:150] Setting up relu4_2
I0617 21:28:31.991310 28668 net.cpp:157] Top shape: 8 512 38 38 (5914624)
I0617 21:28:31.991313 28668 net.cpp:165] Memory required for data: 1627103264
I0617 21:28:31.991315 28668 layer_factory.hpp:77] Creating layer conv4_3
I0617 21:28:31.991325 28668 net.cpp:100] Creating Layer conv4_3
I0617 21:28:31.991329 28668 net.cpp:434] conv4_3 <- conv4_2
I0617 21:28:31.991334 28668 net.cpp:408] conv4_3 -> conv4_3
I0617 21:28:32.007477 28668 net.cpp:150] Setting up conv4_3
I0617 21:28:32.007514 28668 net.cpp:157] Top shape: 8 512 38 38 (5914624)
I0617 21:28:32.007519 28668 net.cpp:165] Memory required for data: 1650761760
I0617 21:28:32.007526 28668 layer_factory.hpp:77] Creating layer relu4_3
I0617 21:28:32.007534 28668 net.cpp:100] Creating Layer relu4_3
I0617 21:28:32.007536 28668 net.cpp:434] relu4_3 <- conv4_3
I0617 21:28:32.007540 28668 net.cpp:395] relu4_3 -> conv4_3 (in-place)
I0617 21:28:32.007709 28668 net.cpp:150] Setting up relu4_3
I0617 21:28:32.007717 28668 net.cpp:157] Top shape: 8 512 38 38 (5914624)
I0617 21:28:32.007719 28668 net.cpp:165] Memory required for data: 1674420256
I0617 21:28:32.007721 28668 layer_factory.hpp:77] Creating layer conv4_3_relu4_3_0_split
I0617 21:28:32.007726 28668 net.cpp:100] Creating Layer conv4_3_relu4_3_0_split
I0617 21:28:32.007728 28668 net.cpp:434] conv4_3_relu4_3_0_split <- conv4_3
I0617 21:28:32.007733 28668 net.cpp:408] conv4_3_relu4_3_0_split -> conv4_3_relu4_3_0_split_0
I0617 21:28:32.007738 28668 net.cpp:408] conv4_3_relu4_3_0_split -> conv4_3_relu4_3_0_split_1
I0617 21:28:32.007781 28668 net.cpp:150] Setting up conv4_3_relu4_3_0_split
I0617 21:28:32.007786 28668 net.cpp:157] Top shape: 8 512 38 38 (5914624)
I0617 21:28:32.007788 28668 net.cpp:157] Top shape: 8 512 38 38 (5914624)
I0617 21:28:32.007791 28668 net.cpp:165] Memory required for data: 1721737248
I0617 21:28:32.007792 28668 layer_factory.hpp:77] Creating layer pool4
I0617 21:28:32.007797 28668 net.cpp:100] Creating Layer pool4
I0617 21:28:32.007803 28668 net.cpp:434] pool4 <- conv4_3_relu4_3_0_split_0
I0617 21:28:32.007807 28668 net.cpp:408] pool4 -> pool4
I0617 21:28:32.007843 28668 net.cpp:150] Setting up pool4
I0617 21:28:32.007848 28668 net.cpp:157] Top shape: 8 512 19 19 (1478656)
I0617 21:28:32.007850 28668 net.cpp:165] Memory required for data: 1727651872
I0617 21:28:32.007853 28668 layer_factory.hpp:77] Creating layer conv5_1
I0617 21:28:32.007859 28668 net.cpp:100] Creating Layer conv5_1
I0617 21:28:32.007863 28668 net.cpp:434] conv5_1 <- pool4
I0617 21:28:32.007869 28668 net.cpp:408] conv5_1 -> conv5_1
I0617 21:28:32.024822 28668 net.cpp:150] Setting up conv5_1
I0617 21:28:32.024842 28668 net.cpp:157] Top shape: 8 512 19 19 (1478656)
I0617 21:28:32.024844 28668 net.cpp:165] Memory required for data: 1733566496
I0617 21:28:32.024852 28668 layer_factory.hpp:77] Creating layer relu5_1
I0617 21:28:32.024857 28668 net.cpp:100] Creating Layer relu5_1
I0617 21:28:32.024860 28668 net.cpp:434] relu5_1 <- conv5_1
I0617 21:28:32.024868 28668 net.cpp:395] relu5_1 -> conv5_1 (in-place)
I0617 21:28:32.027009 28668 net.cpp:150] Setting up relu5_1
I0617 21:28:32.027019 28668 net.cpp:157] Top shape: 8 512 19 19 (1478656)
I0617 21:28:32.027021 28668 net.cpp:165] Memory required for data: 1739481120
I0617 21:28:32.027024 28668 layer_factory.hpp:77] Creating layer conv5_2
I0617 21:28:32.027031 28668 net.cpp:100] Creating Layer conv5_2
I0617 21:28:32.027035 28668 net.cpp:434] conv5_2 <- conv5_1
I0617 21:28:32.027040 28668 net.cpp:408] conv5_2 -> conv5_2
I0617 21:28:32.041573 28668 net.cpp:150] Setting up conv5_2
I0617 21:28:32.041594 28668 net.cpp:157] Top shape: 8 512 19 19 (1478656)
I0617 21:28:32.041595 28668 net.cpp:165] Memory required for data: 1745395744
I0617 21:28:32.041602 28668 layer_factory.hpp:77] Creating layer relu5_2
I0617 21:28:32.041610 28668 net.cpp:100] Creating Layer relu5_2
I0617 21:28:32.041613 28668 net.cpp:434] relu5_2 <- conv5_2
I0617 21:28:32.041617 28668 net.cpp:395] relu5_2 -> conv5_2 (in-place)
I0617 21:28:32.042193 28668 net.cpp:150] Setting up relu5_2
I0617 21:28:32.042203 28668 net.cpp:157] Top shape: 8 512 19 19 (1478656)
I0617 21:28:32.042209 28668 net.cpp:165] Memory required for data: 1751310368
I0617 21:28:32.042212 28668 layer_factory.hpp:77] Creating layer conv5_3
I0617 21:28:32.042220 28668 net.cpp:100] Creating Layer conv5_3
I0617 21:28:32.042222 28668 net.cpp:434] conv5_3 <- conv5_2
I0617 21:28:32.042228 28668 net.cpp:408] conv5_3 -> conv5_3
I0617 21:28:32.056818 28668 net.cpp:150] Setting up conv5_3
I0617 21:28:32.056838 28668 net.cpp:157] Top shape: 8 512 19 19 (1478656)
I0617 21:28:32.056857 28668 net.cpp:165] Memory required for data: 1757224992
I0617 21:28:32.056865 28668 layer_factory.hpp:77] Creating layer relu5_3
I0617 21:28:32.056879 28668 net.cpp:100] Creating Layer relu5_3
I0617 21:28:32.056884 28668 net.cpp:434] relu5_3 <- conv5_3
I0617 21:28:32.056887 28668 net.cpp:395] relu5_3 -> conv5_3 (in-place)
I0617 21:28:32.057762 28668 net.cpp:150] Setting up relu5_3
I0617 21:28:32.057770 28668 net.cpp:157] Top shape: 8 512 19 19 (1478656)
I0617 21:28:32.057771 28668 net.cpp:165] Memory required for data: 1763139616
I0617 21:28:32.057773 28668 layer_factory.hpp:77] Creating layer pool5
I0617 21:28:32.057777 28668 net.cpp:100] Creating Layer pool5
I0617 21:28:32.057780 28668 net.cpp:434] pool5 <- conv5_3
I0617 21:28:32.057785 28668 net.cpp:408] pool5 -> pool5
I0617 21:28:32.057826 28668 net.cpp:150] Setting up pool5
I0617 21:28:32.057831 28668 net.cpp:157] Top shape: 8 512 19 19 (1478656)
I0617 21:28:32.057832 28668 net.cpp:165] Memory required for data: 1769054240
I0617 21:28:32.057834 28668 layer_factory.hpp:77] Creating layer fc6
I0617 21:28:32.057842 28668 net.cpp:100] Creating Layer fc6
I0617 21:28:32.057845 28668 net.cpp:434] fc6 <- pool5
I0617 21:28:32.057850 28668 net.cpp:408] fc6 -> fc6
I0617 21:28:32.083398 28668 net.cpp:150] Setting up fc6
I0617 21:28:32.083417 28668 net.cpp:157] Top shape: 8 1024 19 19 (2957312)
I0617 21:28:32.083420 28668 net.cpp:165] Memory required for data: 1780883488
I0617 21:28:32.083426 28668 layer_factory.hpp:77] Creating layer relu6
I0617 21:28:32.083432 28668 net.cpp:100] Creating Layer relu6
I0617 21:28:32.083436 28668 net.cpp:434] relu6 <- fc6
I0617 21:28:32.083441 28668 net.cpp:395] relu6 -> fc6 (in-place)
I0617 21:28:32.084141 28668 net.cpp:150] Setting up relu6
I0617 21:28:32.084149 28668 net.cpp:157] Top shape: 8 1024 19 19 (2957312)
I0617 21:28:32.084151 28668 net.cpp:165] Memory required for data: 1792712736
I0617 21:28:32.084153 28668 layer_factory.hpp:77] Creating layer fc7
I0617 21:28:32.084161 28668 net.cpp:100] Creating Layer fc7
I0617 21:28:32.084164 28668 net.cpp:434] fc7 <- fc6
I0617 21:28:32.084172 28668 net.cpp:408] fc7 -> fc7
I0617 21:28:32.092018 28668 net.cpp:150] Setting up fc7
I0617 21:28:32.092031 28668 net.cpp:157] Top shape: 8 1024 19 19 (2957312)
I0617 21:28:32.092033 28668 net.cpp:165] Memory required for data: 1804541984
I0617 21:28:32.092038 28668 layer_factory.hpp:77] Creating layer relu7
I0617 21:28:32.092044 28668 net.cpp:100] Creating Layer relu7
I0617 21:28:32.092047 28668 net.cpp:434] relu7 <- fc7
I0617 21:28:32.092051 28668 net.cpp:395] relu7 -> fc7 (in-place)
I0617 21:28:32.092978 28668 net.cpp:150] Setting up relu7
I0617 21:28:32.092988 28668 net.cpp:157] Top shape: 8 1024 19 19 (2957312)
I0617 21:28:32.092989 28668 net.cpp:165] Memory required for data: 1816371232
I0617 21:28:32.092993 28668 layer_factory.hpp:77] Creating layer fc7_relu7_0_split
I0617 21:28:32.092998 28668 net.cpp:100] Creating Layer fc7_relu7_0_split
I0617 21:28:32.093000 28668 net.cpp:434] fc7_relu7_0_split <- fc7
I0617 21:28:32.093005 28668 net.cpp:408] fc7_relu7_0_split -> fc7_relu7_0_split_0
I0617 21:28:32.093010 28668 net.cpp:408] fc7_relu7_0_split -> fc7_relu7_0_split_1
I0617 21:28:32.093020 28668 net.cpp:408] fc7_relu7_0_split -> fc7_relu7_0_split_2
I0617 21:28:32.093025 28668 net.cpp:408] fc7_relu7_0_split -> fc7_relu7_0_split_3
I0617 21:28:32.093082 28668 net.cpp:150] Setting up fc7_relu7_0_split
I0617 21:28:32.093087 28668 net.cpp:157] Top shape: 8 1024 19 19 (2957312)
I0617 21:28:32.093091 28668 net.cpp:157] Top shape: 8 1024 19 19 (2957312)
I0617 21:28:32.093092 28668 net.cpp:157] Top shape: 8 1024 19 19 (2957312)
I0617 21:28:32.093094 28668 net.cpp:157] Top shape: 8 1024 19 19 (2957312)
I0617 21:28:32.093096 28668 net.cpp:165] Memory required for data: 1863688224
I0617 21:28:32.093098 28668 layer_factory.hpp:77] Creating layer conv6_1
I0617 21:28:32.093106 28668 net.cpp:100] Creating Layer conv6_1
I0617 21:28:32.093109 28668 net.cpp:434] conv6_1 <- fc7_relu7_0_split_0
I0617 21:28:32.093113 28668 net.cpp:408] conv6_1 -> conv6_1
I0617 21:28:32.099411 28668 net.cpp:150] Setting up conv6_1
I0617 21:28:32.099423 28668 net.cpp:157] Top shape: 8 256 19 19 (739328)
I0617 21:28:32.099426 28668 net.cpp:165] Memory required for data: 1866645536
I0617 21:28:32.099431 28668 layer_factory.hpp:77] Creating layer conv6_1_relu
I0617 21:28:32.099436 28668 net.cpp:100] Creating Layer conv6_1_relu
I0617 21:28:32.099439 28668 net.cpp:434] conv6_1_relu <- conv6_1
I0617 21:28:32.099442 28668 net.cpp:395] conv6_1_relu -> conv6_1 (in-place)
I0617 21:28:32.099936 28668 net.cpp:150] Setting up conv6_1_relu
I0617 21:28:32.099943 28668 net.cpp:157] Top shape: 8 256 19 19 (739328)
I0617 21:28:32.099946 28668 net.cpp:165] Memory required for data: 1869602848
I0617 21:28:32.099947 28668 layer_factory.hpp:77] Creating layer conv6_2
I0617 21:28:32.099954 28668 net.cpp:100] Creating Layer conv6_2
I0617 21:28:32.099957 28668 net.cpp:434] conv6_2 <- conv6_1
I0617 21:28:32.099962 28668 net.cpp:408] conv6_2 -> conv6_2
I0617 21:28:32.109011 28668 net.cpp:150] Setting up conv6_2
I0617 21:28:32.109025 28668 net.cpp:157] Top shape: 8 512 10 10 (409600)
I0617 21:28:32.109027 28668 net.cpp:165] Memory required for data: 1871241248
I0617 21:28:32.109038 28668 layer_factory.hpp:77] Creating layer conv6_2_relu
I0617 21:28:32.109045 28668 net.cpp:100] Creating Layer conv6_2_relu
I0617 21:28:32.109047 28668 net.cpp:434] conv6_2_relu <- conv6_2
I0617 21:28:32.109051 28668 net.cpp:395] conv6_2_relu -> conv6_2 (in-place)
I0617 21:28:32.110059 28668 net.cpp:150] Setting up conv6_2_relu
I0617 21:28:32.110069 28668 net.cpp:157] Top shape: 8 512 10 10 (409600)
I0617 21:28:32.110070 28668 net.cpp:165] Memory required for data: 1872879648
I0617 21:28:32.110072 28668 layer_factory.hpp:77] Creating layer conv6_2_conv6_2_relu_0_split
I0617 21:28:32.110077 28668 net.cpp:100] Creating Layer conv6_2_conv6_2_relu_0_split
I0617 21:28:32.110080 28668 net.cpp:434] conv6_2_conv6_2_relu_0_split <- conv6_2
I0617 21:28:32.110085 28668 net.cpp:408] conv6_2_conv6_2_relu_0_split -> conv6_2_conv6_2_relu_0_split_0
I0617 21:28:32.110091 28668 net.cpp:408] conv6_2_conv6_2_relu_0_split -> conv6_2_conv6_2_relu_0_split_1
I0617 21:28:32.110095 28668 net.cpp:408] conv6_2_conv6_2_relu_0_split -> conv6_2_conv6_2_relu_0_split_2
I0617 21:28:32.110098 28668 net.cpp:408] conv6_2_conv6_2_relu_0_split -> conv6_2_conv6_2_relu_0_split_3
I0617 21:28:32.110160 28668 net.cpp:150] Setting up conv6_2_conv6_2_relu_0_split
I0617 21:28:32.110165 28668 net.cpp:157] Top shape: 8 512 10 10 (409600)
I0617 21:28:32.110168 28668 net.cpp:157] Top shape: 8 512 10 10 (409600)
I0617 21:28:32.110170 28668 net.cpp:157] Top shape: 8 512 10 10 (409600)
I0617 21:28:32.110172 28668 net.cpp:157] Top shape: 8 512 10 10 (409600)
I0617 21:28:32.110174 28668 net.cpp:165] Memory required for data: 1879433248
I0617 21:28:32.110177 28668 layer_factory.hpp:77] Creating layer conv7_1
I0617 21:28:32.110183 28668 net.cpp:100] Creating Layer conv7_1
I0617 21:28:32.110185 28668 net.cpp:434] conv7_1 <- conv6_2_conv6_2_relu_0_split_0
I0617 21:28:32.110190 28668 net.cpp:408] conv7_1 -> conv7_1
I0617 21:28:32.113771 28668 net.cpp:150] Setting up conv7_1
I0617 21:28:32.113781 28668 net.cpp:157] Top shape: 8 128 10 10 (102400)
I0617 21:28:32.113783 28668 net.cpp:165] Memory required for data: 1879842848
I0617 21:28:32.113788 28668 layer_factory.hpp:77] Creating layer conv7_1_relu
I0617 21:28:32.113793 28668 net.cpp:100] Creating Layer conv7_1_relu
I0617 21:28:32.113795 28668 net.cpp:434] conv7_1_relu <- conv7_1
I0617 21:28:32.113800 28668 net.cpp:395] conv7_1_relu -> conv7_1 (in-place)
I0617 21:28:32.114832 28668 net.cpp:150] Setting up conv7_1_relu
I0617 21:28:32.114843 28668 net.cpp:157] Top shape: 8 128 10 10 (102400)
I0617 21:28:32.114845 28668 net.cpp:165] Memory required for data: 1880252448
I0617 21:28:32.114847 28668 layer_factory.hpp:77] Creating layer conv7_2
I0617 21:28:32.114856 28668 net.cpp:100] Creating Layer conv7_2
I0617 21:28:32.114859 28668 net.cpp:434] conv7_2 <- conv7_1
I0617 21:28:32.114864 28668 net.cpp:408] conv7_2 -> conv7_2
I0617 21:28:32.119570 28668 net.cpp:150] Setting up conv7_2
I0617 21:28:32.119582 28668 net.cpp:157] Top shape: 8 256 5 5 (51200)
I0617 21:28:32.119585 28668 net.cpp:165] Memory required for data: 1880457248
I0617 21:28:32.119588 28668 layer_factory.hpp:77] Creating layer conv7_2_relu
I0617 21:28:32.119592 28668 net.cpp:100] Creating Layer conv7_2_relu
I0617 21:28:32.119596 28668 net.cpp:434] conv7_2_relu <- conv7_2
I0617 21:28:32.119598 28668 net.cpp:395] conv7_2_relu -> conv7_2 (in-place)
I0617 21:28:32.120652 28668 net.cpp:150] Setting up conv7_2_relu
I0617 21:28:32.120659 28668 net.cpp:157] Top shape: 8 256 5 5 (51200)
I0617 21:28:32.120661 28668 net.cpp:165] Memory required for data: 1880662048
I0617 21:28:32.120663 28668 layer_factory.hpp:77] Creating layer conv7_2_conv7_2_relu_0_split
I0617 21:28:32.120668 28668 net.cpp:100] Creating Layer conv7_2_conv7_2_relu_0_split
I0617 21:28:32.120671 28668 net.cpp:434] conv7_2_conv7_2_relu_0_split <- conv7_2
I0617 21:28:32.120674 28668 net.cpp:408] conv7_2_conv7_2_relu_0_split -> conv7_2_conv7_2_relu_0_split_0
I0617 21:28:32.120681 28668 net.cpp:408] conv7_2_conv7_2_relu_0_split -> conv7_2_conv7_2_relu_0_split_1
I0617 21:28:32.120685 28668 net.cpp:408] conv7_2_conv7_2_relu_0_split -> conv7_2_conv7_2_relu_0_split_2
I0617 21:28:32.120689 28668 net.cpp:408] conv7_2_conv7_2_relu_0_split -> conv7_2_conv7_2_relu_0_split_3
I0617 21:28:32.120746 28668 net.cpp:150] Setting up conv7_2_conv7_2_relu_0_split
I0617 21:28:32.120753 28668 net.cpp:157] Top shape: 8 256 5 5 (51200)
I0617 21:28:32.120754 28668 net.cpp:157] Top shape: 8 256 5 5 (51200)
I0617 21:28:32.120757 28668 net.cpp:157] Top shape: 8 256 5 5 (51200)
I0617 21:28:32.120759 28668 net.cpp:157] Top shape: 8 256 5 5 (51200)
I0617 21:28:32.120761 28668 net.cpp:165] Memory required for data: 1881481248
I0617 21:28:32.120762 28668 layer_factory.hpp:77] Creating layer conv8_1
I0617 21:28:32.120770 28668 net.cpp:100] Creating Layer conv8_1
I0617 21:28:32.120774 28668 net.cpp:434] conv8_1 <- conv7_2_conv7_2_relu_0_split_0
I0617 21:28:32.120777 28668 net.cpp:408] conv8_1 -> conv8_1
I0617 21:28:32.124253 28668 net.cpp:150] Setting up conv8_1
I0617 21:28:32.124264 28668 net.cpp:157] Top shape: 8 128 5 5 (25600)
I0617 21:28:32.124266 28668 net.cpp:165] Memory required for data: 1881583648
I0617 21:28:32.124270 28668 layer_factory.hpp:77] Creating layer conv8_1_relu
I0617 21:28:32.124274 28668 net.cpp:100] Creating Layer conv8_1_relu
I0617 21:28:32.124277 28668 net.cpp:434] conv8_1_relu <- conv8_1
I0617 21:28:32.124280 28668 net.cpp:395] conv8_1_relu -> conv8_1 (in-place)
I0617 21:28:32.125464 28668 net.cpp:150] Setting up conv8_1_relu
I0617 21:28:32.125474 28668 net.cpp:157] Top shape: 8 128 5 5 (25600)
I0617 21:28:32.125476 28668 net.cpp:165] Memory required for data: 1881686048
I0617 21:28:32.125478 28668 layer_factory.hpp:77] Creating layer conv8_2
I0617 21:28:32.125485 28668 net.cpp:100] Creating Layer conv8_2
I0617 21:28:32.125488 28668 net.cpp:434] conv8_2 <- conv8_1
I0617 21:28:32.125494 28668 net.cpp:408] conv8_2 -> conv8_2
I0617 21:28:32.129081 28668 net.cpp:150] Setting up conv8_2
I0617 21:28:32.129091 28668 net.cpp:157] Top shape: 8 256 3 3 (18432)
I0617 21:28:32.129092 28668 net.cpp:165] Memory required for data: 1881759776
I0617 21:28:32.129097 28668 layer_factory.hpp:77] Creating layer conv8_2_relu
I0617 21:28:32.129101 28668 net.cpp:100] Creating Layer conv8_2_relu
I0617 21:28:32.129103 28668 net.cpp:434] conv8_2_relu <- conv8_2
I0617 21:28:32.129107 28668 net.cpp:395] conv8_2_relu -> conv8_2 (in-place)
I0617 21:28:32.130295 28668 net.cpp:150] Setting up conv8_2_relu
I0617 21:28:32.130303 28668 net.cpp:157] Top shape: 8 256 3 3 (18432)
I0617 21:28:32.130306 28668 net.cpp:165] Memory required for data: 1881833504
I0617 21:28:32.130308 28668 layer_factory.hpp:77] Creating layer conv8_2_conv8_2_relu_0_split
I0617 21:28:32.130313 28668 net.cpp:100] Creating Layer conv8_2_conv8_2_relu_0_split
I0617 21:28:32.130316 28668 net.cpp:434] conv8_2_conv8_2_relu_0_split <- conv8_2
I0617 21:28:32.130319 28668 net.cpp:408] conv8_2_conv8_2_relu_0_split -> conv8_2_conv8_2_relu_0_split_0
I0617 21:28:32.130334 28668 net.cpp:408] conv8_2_conv8_2_relu_0_split -> conv8_2_conv8_2_relu_0_split_1
I0617 21:28:32.130339 28668 net.cpp:408] conv8_2_conv8_2_relu_0_split -> conv8_2_conv8_2_relu_0_split_2
I0617 21:28:32.130342 28668 net.cpp:408] conv8_2_conv8_2_relu_0_split -> conv8_2_conv8_2_relu_0_split_3
I0617 21:28:32.130404 28668 net.cpp:150] Setting up conv8_2_conv8_2_relu_0_split
I0617 21:28:32.130410 28668 net.cpp:157] Top shape: 8 256 3 3 (18432)
I0617 21:28:32.130414 28668 net.cpp:157] Top shape: 8 256 3 3 (18432)
I0617 21:28:32.130415 28668 net.cpp:157] Top shape: 8 256 3 3 (18432)
I0617 21:28:32.130417 28668 net.cpp:157] Top shape: 8 256 3 3 (18432)
I0617 21:28:32.130419 28668 net.cpp:165] Memory required for data: 1882128416
I0617 21:28:32.130421 28668 layer_factory.hpp:77] Creating layer conv9_1
I0617 21:28:32.130429 28668 net.cpp:100] Creating Layer conv9_1
I0617 21:28:32.130431 28668 net.cpp:434] conv9_1 <- conv8_2_conv8_2_relu_0_split_0
I0617 21:28:32.130436 28668 net.cpp:408] conv9_1 -> conv9_1
I0617 21:28:32.135507 28668 net.cpp:150] Setting up conv9_1
I0617 21:28:32.135519 28668 net.cpp:157] Top shape: 8 128 3 3 (9216)
I0617 21:28:32.135522 28668 net.cpp:165] Memory required for data: 1882165280
I0617 21:28:32.135527 28668 layer_factory.hpp:77] Creating layer conv9_1_relu
I0617 21:28:32.135531 28668 net.cpp:100] Creating Layer conv9_1_relu
I0617 21:28:32.135534 28668 net.cpp:434] conv9_1_relu <- conv9_1
I0617 21:28:32.135537 28668 net.cpp:395] conv9_1_relu -> conv9_1 (in-place)
I0617 21:28:32.136745 28668 net.cpp:150] Setting up conv9_1_relu
I0617 21:28:32.136754 28668 net.cpp:157] Top shape: 8 128 3 3 (9216)
I0617 21:28:32.136755 28668 net.cpp:165] Memory required for data: 1882202144
I0617 21:28:32.136757 28668 layer_factory.hpp:77] Creating layer conv9_2
I0617 21:28:32.136765 28668 net.cpp:100] Creating Layer conv9_2
I0617 21:28:32.136770 28668 net.cpp:434] conv9_2 <- conv9_1
I0617 21:28:32.136773 28668 net.cpp:408] conv9_2 -> conv9_2
I0617 21:28:32.142227 28668 net.cpp:150] Setting up conv9_2
I0617 21:28:32.142237 28668 net.cpp:157] Top shape: 8 256 1 1 (2048)
I0617 21:28:32.142240 28668 net.cpp:165] Memory required for data: 1882210336
I0617 21:28:32.142244 28668 layer_factory.hpp:77] Creating layer conv9_2_relu
I0617 21:28:32.142251 28668 net.cpp:100] Creating Layer conv9_2_relu
I0617 21:28:32.142254 28668 net.cpp:434] conv9_2_relu <- conv9_2
I0617 21:28:32.142258 28668 net.cpp:395] conv9_2_relu -> conv9_2 (in-place)
I0617 21:28:32.143401 28668 net.cpp:150] Setting up conv9_2_relu
I0617 21:28:32.143410 28668 net.cpp:157] Top shape: 8 256 1 1 (2048)
I0617 21:28:32.143412 28668 net.cpp:165] Memory required for data: 1882218528
I0617 21:28:32.143415 28668 layer_factory.hpp:77] Creating layer conv9_2_conv9_2_relu_0_split
I0617 21:28:32.143420 28668 net.cpp:100] Creating Layer conv9_2_conv9_2_relu_0_split
I0617 21:28:32.143422 28668 net.cpp:434] conv9_2_conv9_2_relu_0_split <- conv9_2
I0617 21:28:32.143426 28668 net.cpp:408] conv9_2_conv9_2_relu_0_split -> conv9_2_conv9_2_relu_0_split_0
I0617 21:28:32.143432 28668 net.cpp:408] conv9_2_conv9_2_relu_0_split -> conv9_2_conv9_2_relu_0_split_1
I0617 21:28:32.143436 28668 net.cpp:408] conv9_2_conv9_2_relu_0_split -> conv9_2_conv9_2_relu_0_split_2
I0617 21:28:32.143486 28668 net.cpp:150] Setting up conv9_2_conv9_2_relu_0_split
I0617 21:28:32.143491 28668 net.cpp:157] Top shape: 8 256 1 1 (2048)
I0617 21:28:32.143493 28668 net.cpp:157] Top shape: 8 256 1 1 (2048)
I0617 21:28:32.143496 28668 net.cpp:157] Top shape: 8 256 1 1 (2048)
I0617 21:28:32.143497 28668 net.cpp:165] Memory required for data: 1882243104
I0617 21:28:32.143499 28668 layer_factory.hpp:77] Creating layer conv4_3_norm
I0617 21:28:32.143507 28668 net.cpp:100] Creating Layer conv4_3_norm
I0617 21:28:32.143509 28668 net.cpp:434] conv4_3_norm <- conv4_3_relu4_3_0_split_1
I0617 21:28:32.143514 28668 net.cpp:408] conv4_3_norm -> conv4_3_norm
I0617 21:28:32.143651 28668 net.cpp:150] Setting up conv4_3_norm
I0617 21:28:32.143656 28668 net.cpp:157] Top shape: 8 512 38 38 (5914624)
I0617 21:28:32.143666 28668 net.cpp:165] Memory required for data: 1905901600
I0617 21:28:32.143671 28668 layer_factory.hpp:77] Creating layer conv4_3_norm_conv4_3_norm_0_split
I0617 21:28:32.143676 28668 net.cpp:100] Creating Layer conv4_3_norm_conv4_3_norm_0_split
I0617 21:28:32.143678 28668 net.cpp:434] conv4_3_norm_conv4_3_norm_0_split <- conv4_3_norm
I0617 21:28:32.143682 28668 net.cpp:408] conv4_3_norm_conv4_3_norm_0_split -> conv4_3_norm_conv4_3_norm_0_split_0
I0617 21:28:32.143687 28668 net.cpp:408] conv4_3_norm_conv4_3_norm_0_split -> conv4_3_norm_conv4_3_norm_0_split_1
I0617 21:28:32.143690 28668 net.cpp:408] conv4_3_norm_conv4_3_norm_0_split -> conv4_3_norm_conv4_3_norm_0_split_2
I0617 21:28:32.143734 28668 net.cpp:150] Setting up conv4_3_norm_conv4_3_norm_0_split
I0617 21:28:32.143739 28668 net.cpp:157] Top shape: 8 512 38 38 (5914624)
I0617 21:28:32.143741 28668 net.cpp:157] Top shape: 8 512 38 38 (5914624)
I0617 21:28:32.143744 28668 net.cpp:157] Top shape: 8 512 38 38 (5914624)
I0617 21:28:32.143745 28668 net.cpp:165] Memory required for data: 1976877088
I0617 21:28:32.143748 28668 layer_factory.hpp:77] Creating layer conv4_3_norm_mbox_loc
I0617 21:28:32.143754 28668 net.cpp:100] Creating Layer conv4_3_norm_mbox_loc
I0617 21:28:32.143755 28668 net.cpp:434] conv4_3_norm_mbox_loc <- conv4_3_norm_conv4_3_norm_0_split_0
I0617 21:28:32.143760 28668 net.cpp:408] conv4_3_norm_mbox_loc -> conv4_3_norm_mbox_loc
I0617 21:28:32.147869 28668 net.cpp:150] Setting up conv4_3_norm_mbox_loc
I0617 21:28:32.147881 28668 net.cpp:157] Top shape: 8 16 38 38 (184832)
I0617 21:28:32.147883 28668 net.cpp:165] Memory required for data: 1977616416
I0617 21:28:32.147887 28668 layer_factory.hpp:77] Creating layer conv4_3_norm_mbox_loc_perm
I0617 21:28:32.147896 28668 net.cpp:100] Creating Layer conv4_3_norm_mbox_loc_perm
I0617 21:28:32.147898 28668 net.cpp:434] conv4_3_norm_mbox_loc_perm <- conv4_3_norm_mbox_loc
I0617 21:28:32.147902 28668 net.cpp:408] conv4_3_norm_mbox_loc_perm -> conv4_3_norm_mbox_loc_perm
I0617 21:28:32.148008 28668 net.cpp:150] Setting up conv4_3_norm_mbox_loc_perm
I0617 21:28:32.148013 28668 net.cpp:157] Top shape: 8 38 38 16 (184832)
I0617 21:28:32.148015 28668 net.cpp:165] Memory required for data: 1978355744
I0617 21:28:32.148017 28668 layer_factory.hpp:77] Creating layer conv4_3_norm_mbox_loc_flat
I0617 21:28:32.148022 28668 net.cpp:100] Creating Layer conv4_3_norm_mbox_loc_flat
I0617 21:28:32.148025 28668 net.cpp:434] conv4_3_norm_mbox_loc_flat <- conv4_3_norm_mbox_loc_perm
I0617 21:28:32.148028 28668 net.cpp:408] conv4_3_norm_mbox_loc_flat -> conv4_3_norm_mbox_loc_flat
I0617 21:28:32.148061 28668 net.cpp:150] Setting up conv4_3_norm_mbox_loc_flat
I0617 21:28:32.148066 28668 net.cpp:157] Top shape: 8 23104 (184832)
I0617 21:28:32.148068 28668 net.cpp:165] Memory required for data: 1979095072
I0617 21:28:32.148071 28668 layer_factory.hpp:77] Creating layer conv4_3_norm_mbox_conf
I0617 21:28:32.148082 28668 net.cpp:100] Creating Layer conv4_3_norm_mbox_conf
I0617 21:28:32.148085 28668 net.cpp:434] conv4_3_norm_mbox_conf <- conv4_3_norm_conv4_3_norm_0_split_1
I0617 21:28:32.148089 28668 net.cpp:408] conv4_3_norm_mbox_conf -> conv4_3_norm_mbox_conf
I0617 21:28:32.153008 28668 net.cpp:150] Setting up conv4_3_norm_mbox_conf
I0617 21:28:32.153019 28668 net.cpp:157] Top shape: 8 84 38 38 (970368)
I0617 21:28:32.153023 28668 net.cpp:165] Memory required for data: 1982976544
I0617 21:28:32.153028 28668 layer_factory.hpp:77] Creating layer conv4_3_norm_mbox_conf_perm
I0617 21:28:32.153034 28668 net.cpp:100] Creating Layer conv4_3_norm_mbox_conf_perm
I0617 21:28:32.153038 28668 net.cpp:434] conv4_3_norm_mbox_conf_perm <- conv4_3_norm_mbox_conf
I0617 21:28:32.153041 28668 net.cpp:408] conv4_3_norm_mbox_conf_perm -> conv4_3_norm_mbox_conf_perm
I0617 21:28:32.153141 28668 net.cpp:150] Setting up conv4_3_norm_mbox_conf_perm
I0617 21:28:32.153146 28668 net.cpp:157] Top shape: 8 38 38 84 (970368)
I0617 21:28:32.153147 28668 net.cpp:165] Memory required for data: 1986858016
I0617 21:28:32.153149 28668 layer_factory.hpp:77] Creating layer conv4_3_norm_mbox_conf_flat
I0617 21:28:32.153163 28668 net.cpp:100] Creating Layer conv4_3_norm_mbox_conf_flat
I0617 21:28:32.153167 28668 net.cpp:434] conv4_3_norm_mbox_conf_flat <- conv4_3_norm_mbox_conf_perm
I0617 21:28:32.153170 28668 net.cpp:408] conv4_3_norm_mbox_conf_flat -> conv4_3_norm_mbox_conf_flat
I0617 21:28:32.153195 28668 net.cpp:150] Setting up conv4_3_norm_mbox_conf_flat
I0617 21:28:32.153199 28668 net.cpp:157] Top shape: 8 121296 (970368)
I0617 21:28:32.153201 28668 net.cpp:165] Memory required for data: 1990739488
I0617 21:28:32.153203 28668 layer_factory.hpp:77] Creating layer conv4_3_norm_mbox_priorbox
I0617 21:28:32.153210 28668 net.cpp:100] Creating Layer conv4_3_norm_mbox_priorbox
I0617 21:28:32.153214 28668 net.cpp:434] conv4_3_norm_mbox_priorbox <- conv4_3_norm_conv4_3_norm_0_split_2
I0617 21:28:32.153218 28668 net.cpp:434] conv4_3_norm_mbox_priorbox <- data_data_0_split_1
I0617 21:28:32.153221 28668 net.cpp:408] conv4_3_norm_mbox_priorbox -> conv4_3_norm_mbox_priorbox
I0617 21:28:32.153247 28668 net.cpp:150] Setting up conv4_3_norm_mbox_priorbox
I0617 21:28:32.153252 28668 net.cpp:157] Top shape: 1 2 23104 (46208)
I0617 21:28:32.153259 28668 net.cpp:165] Memory required for data: 1990924320
I0617 21:28:32.153260 28668 layer_factory.hpp:77] Creating layer fc7_mbox_loc
I0617 21:28:32.153266 28668 net.cpp:100] Creating Layer fc7_mbox_loc
I0617 21:28:32.153270 28668 net.cpp:434] fc7_mbox_loc <- fc7_relu7_0_split_1
I0617 21:28:32.153275 28668 net.cpp:408] fc7_mbox_loc -> fc7_mbox_loc
I0617 21:28:32.157521 28668 net.cpp:150] Setting up fc7_mbox_loc
I0617 21:28:32.157532 28668 net.cpp:157] Top shape: 8 24 19 19 (69312)
I0617 21:28:32.157546 28668 net.cpp:165] Memory required for data: 1991201568
I0617 21:28:32.157552 28668 layer_factory.hpp:77] Creating layer fc7_mbox_loc_perm
I0617 21:28:32.157555 28668 net.cpp:100] Creating Layer fc7_mbox_loc_perm
I0617 21:28:32.157558 28668 net.cpp:434] fc7_mbox_loc_perm <- fc7_mbox_loc
I0617 21:28:32.157562 28668 net.cpp:408] fc7_mbox_loc_perm -> fc7_mbox_loc_perm
I0617 21:28:32.157663 28668 net.cpp:150] Setting up fc7_mbox_loc_perm
I0617 21:28:32.157668 28668 net.cpp:157] Top shape: 8 19 19 24 (69312)
I0617 21:28:32.157670 28668 net.cpp:165] Memory required for data: 1991478816
I0617 21:28:32.157671 28668 layer_factory.hpp:77] Creating layer fc7_mbox_loc_flat
I0617 21:28:32.157675 28668 net.cpp:100] Creating Layer fc7_mbox_loc_flat
I0617 21:28:32.157677 28668 net.cpp:434] fc7_mbox_loc_flat <- fc7_mbox_loc_perm
I0617 21:28:32.157682 28668 net.cpp:408] fc7_mbox_loc_flat -> fc7_mbox_loc_flat
I0617 21:28:32.157706 28668 net.cpp:150] Setting up fc7_mbox_loc_flat
I0617 21:28:32.157711 28668 net.cpp:157] Top shape: 8 8664 (69312)
I0617 21:28:32.157711 28668 net.cpp:165] Memory required for data: 1991756064
I0617 21:28:32.157713 28668 layer_factory.hpp:77] Creating layer fc7_mbox_conf
I0617 21:28:32.157721 28668 net.cpp:100] Creating Layer fc7_mbox_conf
I0617 21:28:32.157723 28668 net.cpp:434] fc7_mbox_conf <- fc7_relu7_0_split_2
I0617 21:28:32.157728 28668 net.cpp:408] fc7_mbox_conf -> fc7_mbox_conf
I0617 21:28:32.166905 28668 net.cpp:150] Setting up fc7_mbox_conf
I0617 21:28:32.166919 28668 net.cpp:157] Top shape: 8 126 19 19 (363888)
I0617 21:28:32.166921 28668 net.cpp:165] Memory required for data: 1993211616
I0617 21:28:32.166927 28668 layer_factory.hpp:77] Creating layer fc7_mbox_conf_perm
I0617 21:28:32.166932 28668 net.cpp:100] Creating Layer fc7_mbox_conf_perm
I0617 21:28:32.166936 28668 net.cpp:434] fc7_mbox_conf_perm <- fc7_mbox_conf
I0617 21:28:32.166941 28668 net.cpp:408] fc7_mbox_conf_perm -> fc7_mbox_conf_perm
I0617 21:28:32.167042 28668 net.cpp:150] Setting up fc7_mbox_conf_perm
I0617 21:28:32.167048 28668 net.cpp:157] Top shape: 8 19 19 126 (363888)
I0617 21:28:32.167050 28668 net.cpp:165] Memory required for data: 1994667168
I0617 21:28:32.167052 28668 layer_factory.hpp:77] Creating layer fc7_mbox_conf_flat
I0617 21:28:32.167057 28668 net.cpp:100] Creating Layer fc7_mbox_conf_flat
I0617 21:28:32.167059 28668 net.cpp:434] fc7_mbox_conf_flat <- fc7_mbox_conf_perm
I0617 21:28:32.167074 28668 net.cpp:408] fc7_mbox_conf_flat -> fc7_mbox_conf_flat
I0617 21:28:32.167100 28668 net.cpp:150] Setting up fc7_mbox_conf_flat
I0617 21:28:32.167105 28668 net.cpp:157] Top shape: 8 45486 (363888)
I0617 21:28:32.167107 28668 net.cpp:165] Memory required for data: 1996122720
I0617 21:28:32.167109 28668 layer_factory.hpp:77] Creating layer fc7_mbox_priorbox
I0617 21:28:32.167115 28668 net.cpp:100] Creating Layer fc7_mbox_priorbox
I0617 21:28:32.167119 28668 net.cpp:434] fc7_mbox_priorbox <- fc7_relu7_0_split_3
I0617 21:28:32.167121 28668 net.cpp:434] fc7_mbox_priorbox <- data_data_0_split_2
I0617 21:28:32.167126 28668 net.cpp:408] fc7_mbox_priorbox -> fc7_mbox_priorbox
I0617 21:28:32.167150 28668 net.cpp:150] Setting up fc7_mbox_priorbox
I0617 21:28:32.167155 28668 net.cpp:157] Top shape: 1 2 8664 (17328)
I0617 21:28:32.167155 28668 net.cpp:165] Memory required for data: 1996192032
I0617 21:28:32.167157 28668 layer_factory.hpp:77] Creating layer conv6_2_mbox_loc
I0617 21:28:32.167166 28668 net.cpp:100] Creating Layer conv6_2_mbox_loc
I0617 21:28:32.167170 28668 net.cpp:434] conv6_2_mbox_loc <- conv6_2_conv6_2_relu_0_split_1
I0617 21:28:32.167176 28668 net.cpp:408] conv6_2_mbox_loc -> conv6_2_mbox_loc
I0617 21:28:32.171192 28668 net.cpp:150] Setting up conv6_2_mbox_loc
I0617 21:28:32.171206 28668 net.cpp:157] Top shape: 8 24 10 10 (19200)
I0617 21:28:32.171208 28668 net.cpp:165] Memory required for data: 1996268832
I0617 21:28:32.171214 28668 layer_factory.hpp:77] Creating layer conv6_2_mbox_loc_perm
I0617 21:28:32.171218 28668 net.cpp:100] Creating Layer conv6_2_mbox_loc_perm
I0617 21:28:32.171221 28668 net.cpp:434] conv6_2_mbox_loc_perm <- conv6_2_mbox_loc
I0617 21:28:32.171226 28668 net.cpp:408] conv6_2_mbox_loc_perm -> conv6_2_mbox_loc_perm
I0617 21:28:32.171327 28668 net.cpp:150] Setting up conv6_2_mbox_loc_perm
I0617 21:28:32.171334 28668 net.cpp:157] Top shape: 8 10 10 24 (19200)
I0617 21:28:32.171336 28668 net.cpp:165] Memory required for data: 1996345632
I0617 21:28:32.171339 28668 layer_factory.hpp:77] Creating layer conv6_2_mbox_loc_flat
I0617 21:28:32.171342 28668 net.cpp:100] Creating Layer conv6_2_mbox_loc_flat
I0617 21:28:32.171344 28668 net.cpp:434] conv6_2_mbox_loc_flat <- conv6_2_mbox_loc_perm
I0617 21:28:32.171349 28668 net.cpp:408] conv6_2_mbox_loc_flat -> conv6_2_mbox_loc_flat
I0617 21:28:32.171371 28668 net.cpp:150] Setting up conv6_2_mbox_loc_flat
I0617 21:28:32.171376 28668 net.cpp:157] Top shape: 8 2400 (19200)
I0617 21:28:32.171378 28668 net.cpp:165] Memory required for data: 1996422432
I0617 21:28:32.171380 28668 layer_factory.hpp:77] Creating layer conv6_2_mbox_conf
I0617 21:28:32.171387 28668 net.cpp:100] Creating Layer conv6_2_mbox_conf
I0617 21:28:32.171391 28668 net.cpp:434] conv6_2_mbox_conf <- conv6_2_conv6_2_relu_0_split_2
I0617 21:28:32.171396 28668 net.cpp:408] conv6_2_mbox_conf -> conv6_2_mbox_conf
I0617 21:28:32.178160 28668 net.cpp:150] Setting up conv6_2_mbox_conf
I0617 21:28:32.178175 28668 net.cpp:157] Top shape: 8 126 10 10 (100800)
I0617 21:28:32.178177 28668 net.cpp:165] Memory required for data: 1996825632
I0617 21:28:32.178184 28668 layer_factory.hpp:77] Creating layer conv6_2_mbox_conf_perm
I0617 21:28:32.178189 28668 net.cpp:100] Creating Layer conv6_2_mbox_conf_perm
I0617 21:28:32.178191 28668 net.cpp:434] conv6_2_mbox_conf_perm <- conv6_2_mbox_conf
I0617 21:28:32.178196 28668 net.cpp:408] conv6_2_mbox_conf_perm -> conv6_2_mbox_conf_perm
I0617 21:28:32.178306 28668 net.cpp:150] Setting up conv6_2_mbox_conf_perm
I0617 21:28:32.178313 28668 net.cpp:157] Top shape: 8 10 10 126 (100800)
I0617 21:28:32.178314 28668 net.cpp:165] Memory required for data: 1997228832
I0617 21:28:32.178316 28668 layer_factory.hpp:77] Creating layer conv6_2_mbox_conf_flat
I0617 21:28:32.178320 28668 net.cpp:100] Creating Layer conv6_2_mbox_conf_flat
I0617 21:28:32.178323 28668 net.cpp:434] conv6_2_mbox_conf_flat <- conv6_2_mbox_conf_perm
I0617 21:28:32.178326 28668 net.cpp:408] conv6_2_mbox_conf_flat -> conv6_2_mbox_conf_flat
I0617 21:28:32.178364 28668 net.cpp:150] Setting up conv6_2_mbox_conf_flat
I0617 21:28:32.178369 28668 net.cpp:157] Top shape: 8 12600 (100800)
I0617 21:28:32.178371 28668 net.cpp:165] Memory required for data: 1997632032
I0617 21:28:32.178373 28668 layer_factory.hpp:77] Creating layer conv6_2_mbox_priorbox
I0617 21:28:32.178378 28668 net.cpp:100] Creating Layer conv6_2_mbox_priorbox
I0617 21:28:32.178380 28668 net.cpp:434] conv6_2_mbox_priorbox <- conv6_2_conv6_2_relu_0_split_3
I0617 21:28:32.178385 28668 net.cpp:434] conv6_2_mbox_priorbox <- data_data_0_split_3
I0617 21:28:32.178388 28668 net.cpp:408] conv6_2_mbox_priorbox -> conv6_2_mbox_priorbox
I0617 21:28:32.178416 28668 net.cpp:150] Setting up conv6_2_mbox_priorbox
I0617 21:28:32.178421 28668 net.cpp:157] Top shape: 1 2 2400 (4800)
I0617 21:28:32.178422 28668 net.cpp:165] Memory required for data: 1997651232
I0617 21:28:32.178423 28668 layer_factory.hpp:77] Creating layer conv7_2_mbox_loc
I0617 21:28:32.178431 28668 net.cpp:100] Creating Layer conv7_2_mbox_loc
I0617 21:28:32.178433 28668 net.cpp:434] conv7_2_mbox_loc <- conv7_2_conv7_2_relu_0_split_1
I0617 21:28:32.178437 28668 net.cpp:408] conv7_2_mbox_loc -> conv7_2_mbox_loc
I0617 21:28:32.182057 28668 net.cpp:150] Setting up conv7_2_mbox_loc
I0617 21:28:32.182067 28668 net.cpp:157] Top shape: 8 24 5 5 (4800)
I0617 21:28:32.182070 28668 net.cpp:165] Memory required for data: 1997670432
I0617 21:28:32.182075 28668 layer_factory.hpp:77] Creating layer conv7_2_mbox_loc_perm
I0617 21:28:32.182080 28668 net.cpp:100] Creating Layer conv7_2_mbox_loc_perm
I0617 21:28:32.182082 28668 net.cpp:434] conv7_2_mbox_loc_perm <- conv7_2_mbox_loc
I0617 21:28:32.182086 28668 net.cpp:408] conv7_2_mbox_loc_perm -> conv7_2_mbox_loc_perm
I0617 21:28:32.182189 28668 net.cpp:150] Setting up conv7_2_mbox_loc_perm
I0617 21:28:32.182194 28668 net.cpp:157] Top shape: 8 5 5 24 (4800)
I0617 21:28:32.182196 28668 net.cpp:165] Memory required for data: 1997689632
I0617 21:28:32.182198 28668 layer_factory.hpp:77] Creating layer conv7_2_mbox_loc_flat
I0617 21:28:32.182202 28668 net.cpp:100] Creating Layer conv7_2_mbox_loc_flat
I0617 21:28:32.182209 28668 net.cpp:434] conv7_2_mbox_loc_flat <- conv7_2_mbox_loc_perm
I0617 21:28:32.182212 28668 net.cpp:408] conv7_2_mbox_loc_flat -> conv7_2_mbox_loc_flat
I0617 21:28:32.182237 28668 net.cpp:150] Setting up conv7_2_mbox_loc_flat
I0617 21:28:32.182242 28668 net.cpp:157] Top shape: 8 600 (4800)
I0617 21:28:32.182243 28668 net.cpp:165] Memory required for data: 1997708832
I0617 21:28:32.182245 28668 layer_factory.hpp:77] Creating layer conv7_2_mbox_conf
I0617 21:28:32.182252 28668 net.cpp:100] Creating Layer conv7_2_mbox_conf
I0617 21:28:32.182255 28668 net.cpp:434] conv7_2_mbox_conf <- conv7_2_conv7_2_relu_0_split_2
I0617 21:28:32.182260 28668 net.cpp:408] conv7_2_mbox_conf -> conv7_2_mbox_conf
I0617 21:28:32.187659 28668 net.cpp:150] Setting up conv7_2_mbox_conf
I0617 21:28:32.187669 28668 net.cpp:157] Top shape: 8 126 5 5 (25200)
I0617 21:28:32.187671 28668 net.cpp:165] Memory required for data: 1997809632
I0617 21:28:32.187676 28668 layer_factory.hpp:77] Creating layer conv7_2_mbox_conf_perm
I0617 21:28:32.187681 28668 net.cpp:100] Creating Layer conv7_2_mbox_conf_perm
I0617 21:28:32.187683 28668 net.cpp:434] conv7_2_mbox_conf_perm <- conv7_2_mbox_conf
I0617 21:28:32.187688 28668 net.cpp:408] conv7_2_mbox_conf_perm -> conv7_2_mbox_conf_perm
I0617 21:28:32.187793 28668 net.cpp:150] Setting up conv7_2_mbox_conf_perm
I0617 21:28:32.187798 28668 net.cpp:157] Top shape: 8 5 5 126 (25200)
I0617 21:28:32.187799 28668 net.cpp:165] Memory required for data: 1997910432
I0617 21:28:32.187801 28668 layer_factory.hpp:77] Creating layer conv7_2_mbox_conf_flat
I0617 21:28:32.187805 28668 net.cpp:100] Creating Layer conv7_2_mbox_conf_flat
I0617 21:28:32.187808 28668 net.cpp:434] conv7_2_mbox_conf_flat <- conv7_2_mbox_conf_perm
I0617 21:28:32.187811 28668 net.cpp:408] conv7_2_mbox_conf_flat -> conv7_2_mbox_conf_flat
I0617 21:28:32.187835 28668 net.cpp:150] Setting up conv7_2_mbox_conf_flat
I0617 21:28:32.187839 28668 net.cpp:157] Top shape: 8 3150 (25200)
I0617 21:28:32.187850 28668 net.cpp:165] Memory required for data: 1998011232
I0617 21:28:32.187852 28668 layer_factory.hpp:77] Creating layer conv7_2_mbox_priorbox
I0617 21:28:32.187857 28668 net.cpp:100] Creating Layer conv7_2_mbox_priorbox
I0617 21:28:32.187860 28668 net.cpp:434] conv7_2_mbox_priorbox <- conv7_2_conv7_2_relu_0_split_3
I0617 21:28:32.187863 28668 net.cpp:434] conv7_2_mbox_priorbox <- data_data_0_split_4
I0617 21:28:32.187868 28668 net.cpp:408] conv7_2_mbox_priorbox -> conv7_2_mbox_priorbox
I0617 21:28:32.187896 28668 net.cpp:150] Setting up conv7_2_mbox_priorbox
I0617 21:28:32.187901 28668 net.cpp:157] Top shape: 1 2 600 (1200)
I0617 21:28:32.187901 28668 net.cpp:165] Memory required for data: 1998016032
I0617 21:28:32.187903 28668 layer_factory.hpp:77] Creating layer conv8_2_mbox_loc
I0617 21:28:32.187911 28668 net.cpp:100] Creating Layer conv8_2_mbox_loc
I0617 21:28:32.187912 28668 net.cpp:434] conv8_2_mbox_loc <- conv8_2_conv8_2_relu_0_split_1
I0617 21:28:32.187916 28668 net.cpp:408] conv8_2_mbox_loc -> conv8_2_mbox_loc
I0617 21:28:32.192497 28668 net.cpp:150] Setting up conv8_2_mbox_loc
I0617 21:28:32.192507 28668 net.cpp:157] Top shape: 8 16 3 3 (1152)
I0617 21:28:32.192508 28668 net.cpp:165] Memory required for data: 1998020640
I0617 21:28:32.192522 28668 layer_factory.hpp:77] Creating layer conv8_2_mbox_loc_perm
I0617 21:28:32.192528 28668 net.cpp:100] Creating Layer conv8_2_mbox_loc_perm
I0617 21:28:32.192530 28668 net.cpp:434] conv8_2_mbox_loc_perm <- conv8_2_mbox_loc
I0617 21:28:32.192538 28668 net.cpp:408] conv8_2_mbox_loc_perm -> conv8_2_mbox_loc_perm
I0617 21:28:32.192646 28668 net.cpp:150] Setting up conv8_2_mbox_loc_perm
I0617 21:28:32.192651 28668 net.cpp:157] Top shape: 8 3 3 16 (1152)
I0617 21:28:32.192652 28668 net.cpp:165] Memory required for data: 1998025248
I0617 21:28:32.192654 28668 layer_factory.hpp:77] Creating layer conv8_2_mbox_loc_flat
I0617 21:28:32.192659 28668 net.cpp:100] Creating Layer conv8_2_mbox_loc_flat
I0617 21:28:32.192662 28668 net.cpp:434] conv8_2_mbox_loc_flat <- conv8_2_mbox_loc_perm
I0617 21:28:32.192665 28668 net.cpp:408] conv8_2_mbox_loc_flat -> conv8_2_mbox_loc_flat
I0617 21:28:32.192689 28668 net.cpp:150] Setting up conv8_2_mbox_loc_flat
I0617 21:28:32.192694 28668 net.cpp:157] Top shape: 8 144 (1152)
I0617 21:28:32.192695 28668 net.cpp:165] Memory required for data: 1998029856
I0617 21:28:32.192698 28668 layer_factory.hpp:77] Creating layer conv8_2_mbox_conf
I0617 21:28:32.192704 28668 net.cpp:100] Creating Layer conv8_2_mbox_conf
I0617 21:28:32.192706 28668 net.cpp:434] conv8_2_mbox_conf <- conv8_2_conv8_2_relu_0_split_2
I0617 21:28:32.192710 28668 net.cpp:408] conv8_2_mbox_conf -> conv8_2_mbox_conf
I0617 21:28:32.195946 28668 net.cpp:150] Setting up conv8_2_mbox_conf
I0617 21:28:32.195957 28668 net.cpp:157] Top shape: 8 84 3 3 (6048)
I0617 21:28:32.195960 28668 net.cpp:165] Memory required for data: 1998054048
I0617 21:28:32.195964 28668 layer_factory.hpp:77] Creating layer conv8_2_mbox_conf_perm
I0617 21:28:32.195969 28668 net.cpp:100] Creating Layer conv8_2_mbox_conf_perm
I0617 21:28:32.195973 28668 net.cpp:434] conv8_2_mbox_conf_perm <- conv8_2_mbox_conf
I0617 21:28:32.195979 28668 net.cpp:408] conv8_2_mbox_conf_perm -> conv8_2_mbox_conf_perm
I0617 21:28:32.196084 28668 net.cpp:150] Setting up conv8_2_mbox_conf_perm
I0617 21:28:32.196090 28668 net.cpp:157] Top shape: 8 3 3 84 (6048)
I0617 21:28:32.196092 28668 net.cpp:165] Memory required for data: 1998078240
I0617 21:28:32.196094 28668 layer_factory.hpp:77] Creating layer conv8_2_mbox_conf_flat
I0617 21:28:32.196097 28668 net.cpp:100] Creating Layer conv8_2_mbox_conf_flat
I0617 21:28:32.196099 28668 net.cpp:434] conv8_2_mbox_conf_flat <- conv8_2_mbox_conf_perm
I0617 21:28:32.196105 28668 net.cpp:408] conv8_2_mbox_conf_flat -> conv8_2_mbox_conf_flat
I0617 21:28:32.196126 28668 net.cpp:150] Setting up conv8_2_mbox_conf_flat
I0617 21:28:32.196132 28668 net.cpp:157] Top shape: 8 756 (6048)
I0617 21:28:32.196133 28668 net.cpp:165] Memory required for data: 1998102432
I0617 21:28:32.196144 28668 layer_factory.hpp:77] Creating layer conv8_2_mbox_priorbox
I0617 21:28:32.196148 28668 net.cpp:100] Creating Layer conv8_2_mbox_priorbox
I0617 21:28:32.196151 28668 net.cpp:434] conv8_2_mbox_priorbox <- conv8_2_conv8_2_relu_0_split_3
I0617 21:28:32.196154 28668 net.cpp:434] conv8_2_mbox_priorbox <- data_data_0_split_5
I0617 21:28:32.196159 28668 net.cpp:408] conv8_2_mbox_priorbox -> conv8_2_mbox_priorbox
I0617 21:28:32.196187 28668 net.cpp:150] Setting up conv8_2_mbox_priorbox
I0617 21:28:32.196192 28668 net.cpp:157] Top shape: 1 2 144 (288)
I0617 21:28:32.196194 28668 net.cpp:165] Memory required for data: 1998103584
I0617 21:28:32.196197 28668 layer_factory.hpp:77] Creating layer conv9_2_mbox_loc
I0617 21:28:32.196203 28668 net.cpp:100] Creating Layer conv9_2_mbox_loc
I0617 21:28:32.196207 28668 net.cpp:434] conv9_2_mbox_loc <- conv9_2_conv9_2_relu_0_split_0
I0617 21:28:32.196211 28668 net.cpp:408] conv9_2_mbox_loc -> conv9_2_mbox_loc
I0617 21:28:32.197968 28668 net.cpp:150] Setting up conv9_2_mbox_loc
I0617 21:28:32.197981 28668 net.cpp:157] Top shape: 8 16 1 1 (128)
I0617 21:28:32.197983 28668 net.cpp:165] Memory required for data: 1998104096
I0617 21:28:32.197989 28668 layer_factory.hpp:77] Creating layer conv9_2_mbox_loc_perm
I0617 21:28:32.197994 28668 net.cpp:100] Creating Layer conv9_2_mbox_loc_perm
I0617 21:28:32.197998 28668 net.cpp:434] conv9_2_mbox_loc_perm <- conv9_2_mbox_loc
I0617 21:28:32.198002 28668 net.cpp:408] conv9_2_mbox_loc_perm -> conv9_2_mbox_loc_perm
I0617 21:28:32.198108 28668 net.cpp:150] Setting up conv9_2_mbox_loc_perm
I0617 21:28:32.198114 28668 net.cpp:157] Top shape: 8 1 1 16 (128)
I0617 21:28:32.198115 28668 net.cpp:165] Memory required for data: 1998104608
I0617 21:28:32.198117 28668 layer_factory.hpp:77] Creating layer conv9_2_mbox_loc_flat
I0617 21:28:32.198122 28668 net.cpp:100] Creating Layer conv9_2_mbox_loc_flat
I0617 21:28:32.198124 28668 net.cpp:434] conv9_2_mbox_loc_flat <- conv9_2_mbox_loc_perm
I0617 21:28:32.198128 28668 net.cpp:408] conv9_2_mbox_loc_flat -> conv9_2_mbox_loc_flat
I0617 21:28:32.198151 28668 net.cpp:150] Setting up conv9_2_mbox_loc_flat
I0617 21:28:32.198155 28668 net.cpp:157] Top shape: 8 16 (128)
I0617 21:28:32.198158 28668 net.cpp:165] Memory required for data: 1998105120
I0617 21:28:32.198159 28668 layer_factory.hpp:77] Creating layer conv9_2_mbox_conf
I0617 21:28:32.198166 28668 net.cpp:100] Creating Layer conv9_2_mbox_conf
I0617 21:28:32.198169 28668 net.cpp:434] conv9_2_mbox_conf <- conv9_2_conv9_2_relu_0_split_1
I0617 21:28:32.198174 28668 net.cpp:408] conv9_2_mbox_conf -> conv9_2_mbox_conf
I0617 21:28:32.202342 28668 net.cpp:150] Setting up conv9_2_mbox_conf
I0617 21:28:32.202353 28668 net.cpp:157] Top shape: 8 84 1 1 (672)
I0617 21:28:32.202355 28668 net.cpp:165] Memory required for data: 1998107808
I0617 21:28:32.202361 28668 layer_factory.hpp:77] Creating layer conv9_2_mbox_conf_perm
I0617 21:28:32.202368 28668 net.cpp:100] Creating Layer conv9_2_mbox_conf_perm
I0617 21:28:32.202371 28668 net.cpp:434] conv9_2_mbox_conf_perm <- conv9_2_mbox_conf
I0617 21:28:32.202375 28668 net.cpp:408] conv9_2_mbox_conf_perm -> conv9_2_mbox_conf_perm
I0617 21:28:32.202486 28668 net.cpp:150] Setting up conv9_2_mbox_conf_perm
I0617 21:28:32.202492 28668 net.cpp:157] Top shape: 8 1 1 84 (672)
I0617 21:28:32.202493 28668 net.cpp:165] Memory required for data: 1998110496
I0617 21:28:32.202495 28668 layer_factory.hpp:77] Creating layer conv9_2_mbox_conf_flat
I0617 21:28:32.202502 28668 net.cpp:100] Creating Layer conv9_2_mbox_conf_flat
I0617 21:28:32.202503 28668 net.cpp:434] conv9_2_mbox_conf_flat <- conv9_2_mbox_conf_perm
I0617 21:28:32.202507 28668 net.cpp:408] conv9_2_mbox_conf_flat -> conv9_2_mbox_conf_flat
I0617 21:28:32.202533 28668 net.cpp:150] Setting up conv9_2_mbox_conf_flat
I0617 21:28:32.202538 28668 net.cpp:157] Top shape: 8 84 (672)
I0617 21:28:32.202539 28668 net.cpp:165] Memory required for data: 1998113184
I0617 21:28:32.202541 28668 layer_factory.hpp:77] Creating layer conv9_2_mbox_priorbox
I0617 21:28:32.202548 28668 net.cpp:100] Creating Layer conv9_2_mbox_priorbox
I0617 21:28:32.202560 28668 net.cpp:434] conv9_2_mbox_priorbox <- conv9_2_conv9_2_relu_0_split_2
I0617 21:28:32.202564 28668 net.cpp:434] conv9_2_mbox_priorbox <- data_data_0_split_6
I0617 21:28:32.202569 28668 net.cpp:408] conv9_2_mbox_priorbox -> conv9_2_mbox_priorbox
I0617 21:28:32.202599 28668 net.cpp:150] Setting up conv9_2_mbox_priorbox
I0617 21:28:32.202603 28668 net.cpp:157] Top shape: 1 2 16 (32)
I0617 21:28:32.202605 28668 net.cpp:165] Memory required for data: 1998113312
I0617 21:28:32.202606 28668 layer_factory.hpp:77] Creating layer mbox_loc
I0617 21:28:32.202613 28668 net.cpp:100] Creating Layer mbox_loc
I0617 21:28:32.202616 28668 net.cpp:434] mbox_loc <- conv4_3_norm_mbox_loc_flat
I0617 21:28:32.202620 28668 net.cpp:434] mbox_loc <- fc7_mbox_loc_flat
I0617 21:28:32.202623 28668 net.cpp:434] mbox_loc <- conv6_2_mbox_loc_flat
I0617 21:28:32.202626 28668 net.cpp:434] mbox_loc <- conv7_2_mbox_loc_flat
I0617 21:28:32.202630 28668 net.cpp:434] mbox_loc <- conv8_2_mbox_loc_flat
I0617 21:28:32.202631 28668 net.cpp:434] mbox_loc <- conv9_2_mbox_loc_flat
I0617 21:28:32.202636 28668 net.cpp:408] mbox_loc -> mbox_loc
I0617 21:28:32.202664 28668 net.cpp:150] Setting up mbox_loc
I0617 21:28:32.202669 28668 net.cpp:157] Top shape: 8 34928 (279424)
I0617 21:28:32.202672 28668 net.cpp:165] Memory required for data: 1999231008
I0617 21:28:32.202673 28668 layer_factory.hpp:77] Creating layer mbox_conf
I0617 21:28:32.202677 28668 net.cpp:100] Creating Layer mbox_conf
I0617 21:28:32.202679 28668 net.cpp:434] mbox_conf <- conv4_3_norm_mbox_conf_flat
I0617 21:28:32.202683 28668 net.cpp:434] mbox_conf <- fc7_mbox_conf_flat
I0617 21:28:32.202687 28668 net.cpp:434] mbox_conf <- conv6_2_mbox_conf_flat
I0617 21:28:32.202689 28668 net.cpp:434] mbox_conf <- conv7_2_mbox_conf_flat
I0617 21:28:32.202692 28668 net.cpp:434] mbox_conf <- conv8_2_mbox_conf_flat
I0617 21:28:32.202694 28668 net.cpp:434] mbox_conf <- conv9_2_mbox_conf_flat
I0617 21:28:32.202697 28668 net.cpp:408] mbox_conf -> mbox_conf
I0617 21:28:32.202721 28668 net.cpp:150] Setting up mbox_conf
I0617 21:28:32.202725 28668 net.cpp:157] Top shape: 8 183372 (1466976)
I0617 21:28:32.202728 28668 net.cpp:165] Memory required for data: 2005098912
I0617 21:28:32.202729 28668 layer_factory.hpp:77] Creating layer mbox_priorbox
I0617 21:28:32.202733 28668 net.cpp:100] Creating Layer mbox_priorbox
I0617 21:28:32.202734 28668 net.cpp:434] mbox_priorbox <- conv4_3_norm_mbox_priorbox
I0617 21:28:32.202738 28668 net.cpp:434] mbox_priorbox <- fc7_mbox_priorbox
I0617 21:28:32.202740 28668 net.cpp:434] mbox_priorbox <- conv6_2_mbox_priorbox
I0617 21:28:32.202744 28668 net.cpp:434] mbox_priorbox <- conv7_2_mbox_priorbox
I0617 21:28:32.202745 28668 net.cpp:434] mbox_priorbox <- conv8_2_mbox_priorbox
I0617 21:28:32.202747 28668 net.cpp:434] mbox_priorbox <- conv9_2_mbox_priorbox
I0617 21:28:32.202751 28668 net.cpp:408] mbox_priorbox -> mbox_priorbox
I0617 21:28:32.202775 28668 net.cpp:150] Setting up mbox_priorbox
I0617 21:28:32.202778 28668 net.cpp:157] Top shape: 1 2 34928 (69856)
I0617 21:28:32.202780 28668 net.cpp:165] Memory required for data: 2005378336
I0617 21:28:32.202782 28668 layer_factory.hpp:77] Creating layer mbox_loss
I0617 21:28:32.202791 28668 net.cpp:100] Creating Layer mbox_loss
I0617 21:28:32.202795 28668 net.cpp:434] mbox_loss <- mbox_loc
I0617 21:28:32.202797 28668 net.cpp:434] mbox_loss <- mbox_conf
I0617 21:28:32.202800 28668 net.cpp:434] mbox_loss <- mbox_priorbox
…
state {
  phase: TEST
}
layer {
  name: "data"
  type: "AnnotatedData"
  top: "data"
  top: "label"
  include {
    phase: TEST
  }
  transform_param {
    mean_value: 104
    mean_value: 117
    mean_value: 123
    resize_param {
      prob: 1
      resize_mode: WARP
      height: 300
      width: 300
      interp_mode: LINEAR
    }
  }
  data_param {
    source: "examples/VOC0712/VOC0712_test_lmdb"
    batch_size: 8
    backend: LMDB
  }
  annotated_data_param {
    batch_sampler {
    }
    label_map_file: "data/VOC0712/labelmap_voc.prototxt"
  }
}
layer {
  name: "conv1_1"
  type: "Convolution"
  bottom: "data"
  top: "conv1_1"
  param {
    lr_mult: 1
    decay_mult: 1
  }
  param {
    lr_mult: 2
    decay_mult: 0
  }
  convolution_param {
    num_output: 64
    pad: 1
    kernel_size: 3
    weight_filler {
      type: "xavier"
    }
    bias_filler {
      type: "constant"
      value: 0
    }
  }
}
layer {
  name: "relu1_1"
  type: "ReLU"
  bottom: "conv1_1"
  top: "conv1_1"
}
layer {
  name: "conv1_2"
  type: "Convolution"
  bottom: "conv1_1"
  top: "conv1_2"
  param {
    lr_mult: 1
    decay_mult: 1
  }
  param {
    lr_mult: 2
    decay_mult: 0
  }
  convolution_param {
    num_output: 64
    pad: 1
    kernel_size: 3
    weight_filler {
      type: "xavier"
    }
    bias_filler {
      type: "constant"
      value: 0
    }
  }
}
layer {
  name: "relu1_2"
  type: "ReLU"
  bottom: "conv1_2"
  top: "conv1_2"
}
layer {
  name: "pool1"
  type: "Pooling"
  bottom: "conv1_2"
  top: "pool1"
  pooling_param {
    pool: MAX
    kernel_size: 2
    stride: 2
  }
}
layer {
  name: "conv2_1"
  type: "Convolution"
  bottom: "pool1"
  top: "conv2_1"
  param {
    lr_mult: 1
    decay_mult: 1
  }
  param {
    lr_mult: 2
    decay_mult: 0
  }
  convolution_param {
    num_output: 128
    pad: 1
    kernel_size: 3
    weight_filler {
      type: "xavier"
    }
    bias_filler {
      type: "constant"
      value: 0
    }
  }
}
layer {
  name: "relu2_1"
  type: "ReLU"
  bottom: "conv2_1"
  top: "conv2_1"
}
layer {
  name: "conv2_2"
  type: "Convolution"
  bottom: "conv2_1"
  top: "conv2_2"
  param {
    lr_mult: 1
    decay_mult: 1
  }
  param {
    lr_mult: 2
    decay_mult: 0
  }
  convolution_param {
    num_output: 128
    pad: 1
    kernel_size: 3
    weight_filler {
      type: "xavier"
    }
    bias_filler {
      type: "constant"
      value: 0
    }
  }
}
layer {
  name: "relu2_2"
  type: "ReLU"
  bottom: "conv2_2"
  top: "conv2_2"
}
layer {
  name: "pool2"
  type: "Pooling"
  bottom: "conv2_2"
  top: "pool2"
  pooling_param {
    pool: MAX
    kernel_size: 2
    stride: 2
  }
}
layer {
  name: "conv3_1"
  type: "Convolution"
  bottom: "pool2"
  top: "conv3_1"
  param {
    lr_mult: 1
    decay_mult: 1
  }
  param {
    lr_mult: 2
    decay_mult: 0
  }
  convolution_param {
    num_output: 256
    pad: 1
    kernel_size: 3
    weight_filler {
      type: "xavier"
    }
    bias_filler {
      type: "constant"
      value: 0
    }
  }
}
layer {
  name: "relu3_1"
  type: "ReLU"
  bottom: "conv3_1"
  top: "conv3_1"
}
layer {
  name: "conv3_2"
  type: "Convolution"
  bottom: "conv3_1"
  top: "conv3_2"
  param {
    lr_mult: 1
    decay_mult: 1
  }
  param {
    lr_mult: 2
    decay_mult: 0
  }
  convolution_param {
    num_output: 256
    pad: 1
    kernel_size: 3
    weight_filler {
      type: "xavier"
    }
    bias_filler {
      type: "constant"
      value: 0
    }
  }
}
layer {
  name: "relu3_2"
  type: "ReLU"
  bottom: "conv3_2"
  top: "conv3_2"
}
layer {
  name: "conv3_3"
  type: "Convolution"
  bottom: "conv3_2"
  top: "conv3_3"
  param {
    lr_mult: 1
    decay_mult: 1
  }
  param {
    lr_mult: 2
    decay_mult: 0
  }
  convolution_param {
    num_output: 256
    pad: 1
    kernel_size: 3
    weight_filler {
      type: "xavier"
    }
    bias_filler {
      type: "constant"
      value: 0
    }
  }
}
layer {
  name: "relu3_3"
  type: "ReLU"
  bottom: "conv3_3"
  top: "conv3_3"
}
layer {
  name: "pool3"
  type: "Pooling"
  bottom: "conv3_3"
  top: "pool3"
  pooling_param {
    pool: MAX
    kernel_size: 2
    stride: 2
  }
}
layer {
  name: "conv4_1"
  type: "Convolution"
  bottom: "pool3"
  top: "conv4_1"
  param {
    lr_mult: 1
    decay_mult: 1
  }
  param {
    lr_mult: 2
    decay_mult: 0
  }
  convolution_param {
    num_output: 512
    pad: 1
    kernel_size: 3
    weight_filler {
      type: "xavier"
    }
    bias_filler {
      type: "constant"
      value: 0
    }
  }
}
layer {
  name: "relu4_1"
  type: "ReLU"
  bottom: "conv4_1"
  top: "conv4_1"
}
layer {
  name: "conv4_2"
  type: "Convolution"
  bottom: "conv4_1"
  top: "conv4_2"
  param {
    lr_mult: 1
    decay_mult: 1
  }
  param {
    lr_mult: 2
    decay_mult: 0
  }
  convolution_param {
    num_output: 512
    pad: 1
    kernel_size: 3
    weight_filler {
      type: "xavier"
    }
    bias_filler {
      type: "constant"
      value: 0
    }
  }
}
layer {
  name: "relu4_2"
  type: "ReLU"
  bottom: "conv4_2"
  top: "conv4_2"
}
layer {
  name: "conv4_3"
  type: "Convolution"
  bottom: "conv4_2"
  top: "conv4_3"
  param {
    lr_mult: 1
    decay_mult: 1
  }
  param {
    lr_mult: 2
    decay_mult: 0
  }
  convolution_param {
    num_output: 512
    pad: 1
    kernel_size: 3
    weight_filler {
      type: "xavier"
    }
    bias_filler {
      type: "constant"
      value: 0
    }
  }
}
layer {
  name: "relu4_3"
  type: "ReLU"
  bottom: "conv4_3"
  top: "conv4_3"
}
layer {
  name: "pool4"
  type: "Pooling"
  bottom: "conv4_3"
  top: "pool4"
  pooling_param {
    pool: MAX
    kernel_size: 2
    stride: 2
  }
}
layer {
  name: "conv5_1"
  type: "Convolution"
  bottom: "pool4"
  top: "conv5_1"
  param {
    lr_mult: 1
    decay_mult: 1
  }
  param {
    lr_mult: 2
    decay_mult: 0
  }
  convolution_param {
    num_output: 512
    pad: 1
    kernel_size: 3
    weight_filler {
      type: "xavier"
    }
    bias_filler {
      type: "constant"
      value: 0
    }
    dilation: 1
  }
}
layer {
  name: "relu5_1"
  type: "ReLU"
  bottom: "conv5_1"
  top: "conv5_1"
}
layer {
  name: "conv5_2"
  type: "Convolution"
  bottom: "conv5_1"
  top: "conv5_2"
  param {
    lr_mult: 1
    decay_mult: 1
  }
  param {
    lr_mult: 2
    decay_mult: 0
  }
  convolution_param {
    num_output: 512
    pad: 1
    kernel_size: 3
    weight_filler {
      type: "xavier"
    }
    bias_filler {
      type: "constant"
      value: 0
    }
    dilation: 1
  }
}
layer {
  name: "relu5_2"
  type: "ReLU"
  bottom: "conv5_2"
  top: "conv5_2"
}
layer {
  name: "conv5_3"
  type: "Convolution"
  bottom: "conv5_2"
  top: "conv5_3"
  param {
    lr_mult: 1
    decay_mult: 1
  }
  param {
    lr_mult: 2
    decay_mult: 0
  }
  convolution_param {
    num_output: 512
    pad: 1
    kernel_size: 3
    weight_filler {
      type: "xavier"
    }
    bias_filler {
      type: "constant"
      value: 0
    }
    dilation: 1
  }
}
layer {
  name: "relu5_3"
  type: "ReLU"
  bottom: "conv5_3"
  top: "conv5_3"
}
layer {
  name: "pool5"
  type: "Pooling"
  bottom: "conv5_3"
  top: "pool5"
  pooling_param {
    pool: MAX
    kernel_size: 3
    stride: 1
    pad: 1
  }
}
layer {
  name: "fc6"
  type: "Convolution"
  bottom: "pool5"
  top: "fc6"
  param {
    lr_mult: 1
    decay_mult: 1
  }
  param {
    lr_mult: 2
    decay_mult: 0
  }
  convolution_param {
    num_output: 1024
    pad: 6
    kernel_size: 3
    weight_filler {
      type: "xavier"
    }
    bias_filler {
      type: "constant"
      value: 0
    }
    dilation: 6
  }
}
layer {
  name: "relu6"
  type: "ReLU"
  bottom: "fc6"
  top: "fc6"
}
layer {
  name: "fc7"
  type: "Convolution"
  bottom: "fc6"
  top: "fc7"
  param {
    lr_mult: 1
    decay_mult: 1
  }
  param {
    lr_mult: 2
    decay_mult: 0
  }
  convolution_param {
    num_output: 1024
    kernel_size: 1
    weight_filler {
      type: "xavier"
    }
    bias_filler {
      type: "constant"
      value: 0
    }
  }
}
layer {
  name: "relu7"
  type: "ReLU"
  bottom: "fc7"
  top: "fc7"
}
layer {
  name: "conv6_1"
  type: "Convolution"
  bottom: "fc7"
  top: "conv6_1"
  param {
    lr_mult: 1
    decay_mult: 1
  }
  param {
    lr_mult: 2
    decay_mult: 0
  }
  convolution_param {
    num_output: 256
    pad: 0
    kernel_size: 1
    group: 1
    stride: 1
    weight_filler {
      type: "xavier"
    }
    bias_filler {
      type: "constant"
      value: 0
    }
  }
}
layer {
  name: "conv6_1_relu"
  type: "ReLU"
  bottom: "conv6_1"
  top: "conv6_1"
}
layer {
  name: "conv6_2"
  type: "Convolution"
  bottom: "conv6_1"
  top: "conv6_2"
  param {
    lr_mult: 1
    decay_mult: 1
  }
  param {
    lr_mult: 2
    decay_mult: 0
  }
  convolution_param {
    num_output: 512
    pad: 1
    kernel_size: 3
    group: 1
    stride: 2
    weight_filler {
      type: "xavier"
    }
    bias_filler {
      type: "constant"
      value: 0
    }
  }
}
layer {
  name: "conv6_2_relu"
  type: "ReLU"
  bottom: "conv6_2"
  top: "conv6_2"
}
layer {
  name: "conv7_1"
  type: "Convolution"
  bottom: "conv6_2"
  top: "conv7_1"
  param {
    lr_mult: 1
    decay_mult: 1
  }
  param {
    lr_mult: 2
    decay_mult: 0
  }
  convolution_param {
    num_output: 128
    pad: 0
    kernel_size: 1
    group: 1
    stride: 1
    weight_filler {
      type: "xavier"
    }
    bias_filler {
      type: "constant"
      value: 0
    }
  }
}
layer {
  name: "conv7_1_relu"
  type: "ReLU"
  bottom: "conv7_1"
  top: "conv7_1"
}
layer {
  name: "conv7_2"
  type: "Convolution"
  bottom: "conv7_1"
  top: "conv7_2"
  param {
    lr_mult: 1
    decay_mult: 1
  }
  param {
    lr_mult: 2
    decay_mult: 0
  }
  convolution_param {
    num_output: 256
    pad: 1
    kernel_size: 3
    group: 1
    stride: 2
    weight_filler {
      type: "xavier"
    }
    bias_filler {
      type: "constant"
      value: 0
    }
  }
}
layer {
  name: "conv7_2_relu"
  type: "ReLU"
  bottom: "conv7_2"
  top: "conv7_2"
}
layer {
  name: "conv8_1"
  type: "Convolution"
  bottom: "conv7_2"
  top: "conv8_1"
  param {
    lr_mult: 1
    decay_mult: 1
  }
  param {
    lr_mult: 2
    decay_mult: 0
  }
  convolution_param {
    num_output: 128
    pad: 0
    kernel_size: 1
    group: 1
    stride: 1
    weight_filler {
      type: "xavier"
    }
    bias_filler {
      type: "constant"
      value: 0
    }
  }
}
layer {
  name: "conv8_1_relu"
  type: "ReLU"
  bottom: "conv8_1"
  top: "conv8_1"
}
layer {
  name: "conv8_2"
  type: "Convolution"
  bottom: "conv8_1"
  top: "conv8_2"
  param {
    lr_mult: 1
    decay_mult: 1
  }
  param {
    lr_mult: 2
    decay_mult: 0
  }
  convolution_param {
    num_output: 256
    pad: 0
    kernel_size: 3
    group: 1
    stride: 1
    weight_filler {
      type: "xavier"
    }
    bias_filler {
      type: "constant"
      value: 0
    }
  }
}
layer {
  name: "conv8_2_relu"
  type: "ReLU"
  bottom: "conv8_2"
  top: "conv8_2"
}
layer {
  name: "conv9_1"
  type: "Convolution"
  bottom: "conv8_2"
  top: "conv9_1"
  param {
    lr_mult: 1
    decay_mult: 1
  }
  param {
    lr_mult: 2
    decay_mult: 0
  }
  convolution_param {
    num_output: 128
    pad: 0
    kernel_size: 1
    group: 1
    stride: 1
    weight_filler {
      type: "xavier"
    }
    bias_filler {
      type: "constant"
      value: 0
    }
  }
}
layer {
  name: "conv9_1_relu"
  type: "ReLU"
  bottom: "conv9_1"
  top: "conv9_1"
}
layer {
  name: "conv9_2"
  type: "Convolution"
  bottom: "conv9_1"
  top: "conv9_2"
  param {
    lr_mult: 1
    decay_mult: 1
  }
  param {
    lr_mult: 2
    decay_mult: 0
  }
  convolution_param {
    num_output: 256
    pad: 0
    kernel_size: 3
    group: 1
    stride: 1
    weight_filler {
      type: "xavier"
    }
    bias_filler {
      type: "constant"
      value: 0
    }
  }
}
layer {
  name: "conv9_2_relu"
  type: "ReLU"
  bottom: "conv9_2"
  top: "conv9_2"
}
layer {
  name: "conv4_3_norm"
  type: "Normalize"
  bottom: "conv4_3"
  top: "conv4_3_norm"
  norm_param {
    across_spatial: false
    scale_filler {
      type: "constant"
      value: 20
    }
    channel_shared: false
  }
}
layer {
  name: "conv4_3_norm_mbox_loc"
  type: "Convolution"
  bottom: "conv4_3_norm"
  top: "conv4_3_norm_mbox_loc"
  param {
    lr_mult: 1
    decay_mult: 1
  }
  param {
    lr_mult: 2
    decay_mult: 0
  }
  convolution_param {
    num_output: 16
    pad: 1
    kernel_size: 3
    group: 1
    stride: 1
    weight_filler {
      type: "xavier"
    }
    bias_filler {
      type: "constant"
      value: 0
    }
  }
}
layer {
  name: "conv4_3_norm_mbox_loc_perm"
  type: "Permute"
  bottom: "conv4_3_norm_mbox_loc"
  top: "conv4_3_norm_mbox_loc_perm"
  permute_param {
    order: 0
    order: 2
    order: 3
    order: 1
  }
}
layer {
  name: "conv4_3_norm_mbox_loc_flat"
  type: "Flatten"
  bottom: "conv4_3_norm_mbox_loc_perm"
  top: "conv4_3_norm_mbox_loc_flat"
  flatten_param {
    axis: 1
  }
}
layer {
  name: "conv4_3_norm_mbox_conf"
  type: "Convolution"
  bottom: "conv4_3_norm"
  top: "conv4_3_norm_mbox_conf"
  param {
    lr_mult: 1
    decay_mult: 1
  }
  param {
    lr_mult: 2
    decay_mult: 0
  }
  convolution_param {
    num_output: 84
    pad: 1
    kernel_size: 3
    group: 1
    stride: 1
    weight_filler {
      type: "xavier"
    }
    bias_filler {
      type: "constant"
      value: 0
    }
  }
}
layer {
  name: "conv4_3_norm_mbox_conf_perm"
  type: "Permute"
  bottom: "conv4_3_norm_mbox_conf"
  top: "conv4_3_norm_mbox_conf_perm"
  permute_param {
    order: 0
    order: 2
    order: 3
    order: 1
  }
}
layer {
  name: "conv4_3_norm_mbox_conf_flat"
  type: "Flatten"
  bottom: "conv4_3_norm_mbox_conf_perm"
  top: "conv4_3_norm_mbox_conf_flat"
  flatten_param {
    axis: 1
  }
}
layer {
  name: "conv4_3_norm_mbox_priorbox"
  type: "PriorBox"
  bottom: "conv4_3_norm"
  bottom: "data"
  top: "conv4_3_norm_mbox_priorbox"
  prior_box_param {
    min_size: 30
    max_size: 60
    aspect_ratio: 2
    flip: true
    clip: false
    variance: 0.1
    variance: 0.1
    variance: 0.2
    variance: 0.2
    step: 8
    offset: 0.5
  }
}
layer {
  name: "fc7_mbox_loc"
  type: "Convolution"
  bottom: "fc7"
  top: "fc7_mbox_loc"
  param {
    lr_mult: 1
    decay_mult: 1
  }
  param {
    lr_mult: 2
    decay_mult: 0
  }
  convolution_param {
    num_output: 24
    pad: 1
    kernel_size: 3
    group: 1
    stride: 1
    weight_filler {
      type: "xavier"
    }
    bias_filler {
      type: "constant"
      value: 0
    }
  }
}
layer {
  name: "fc7_mbox_loc_perm"
  type: "Permute"
  bottom: "fc7_mbox_loc"
  top: "fc7_mbox_loc_perm"
  permute_param {
    order: 0
    order: 2
    order: 3
    order: 1
  }
}
layer {
  name: "fc7_mbox_loc_flat"
  type: "Flatten"
  bottom: "fc7_mbox_loc_perm"
  top: "fc7_mbox_loc_flat"
  flatten_param {
    axis: 1
  }
}
layer {
  name: "fc7_mbox_conf"
  type: "Convolution"
  bottom: "fc7"
  top: "fc7_mbox_conf"
  param {
    lr_mult: 1
    decay_mult: 1
  }
  param {
    lr_mult: 2
    decay_mult: 0
  }
  convolution_param {
    num_output: 126
    pad: 1
    kernel_size: 3
    group: 1
    stride: 1
    weight_filler {
      type: "xavier"
    }
    bias_filler {
      type: "constant"
      value: 0
    }
  }
}
layer {
  name: "fc7_mbox_conf_perm"
  type: "Permute"
  bottom: "fc7_mbox_conf"
  top: "fc7_mbox_conf_perm"
  permute_param {
    order: 0
    order: 2
    order: 3
    order: 1
  }
}
layer {
  name: "fc7_mbox_conf_flat"
  type: "Flatten"
  bottom: "fc7_mbox_conf_perm"
  top: "fc7_mbox_conf_flat"
  flatten_param {
    axis: 1
  }
}
layer {
  name: "fc7_mbox_priorbox"
  type: "PriorBox"
  bottom: "fc7"
  bottom: "data"
  top: "fc7_mbox_priorbox"
  prior_box_param {
    min_size: 60
    max_size: 111
    aspect_ratio: 2
    aspect_ratio: 3
    flip: true
    clip: false
    variance: 0.1
    variance: 0.1
    variance: 0.2
    variance: 0.2
    step: 16
    offset: 0.5
  }
}
layer {
  name: "conv6_2_mbox_loc"
  type: "Convolution"
  bottom: "conv6_2"
  top: "conv6_2_mbox_loc"
  param {
    lr_mult: 1
    decay_mult: 1
  }
  param {
    lr_mult: 2
    decay_mult: 0
  }
  convolution_param {
    num_output: 24
    pad: 1
    kernel_size: 3
    group: 1
    stride: 1
    weight_filler {
      type: "xavier"
    }
    bias_filler {
      type: "constant"
      value: 0
    }
  }
}
layer {
  name: "conv6_2_mbox_loc_perm"
  type: "Permute"
  bottom: "conv6_2_mbox_loc"
  top: "conv6_2_mbox_loc_perm"
  permute_param {
    order: 0
    order: 2
    order: 3
    order: 1
  }
}
layer {
  name: "conv6_2_mbox_loc_flat"
  type: "Flatten"
  bottom: "conv6_2_mbox_loc_perm"
  top: "conv6_2_mbox_loc_flat"
  flatten_param {
    axis: 1
  }
}
layer {
  name: "conv6_2_mbox_conf"
  type: "Convolution"
  bottom: "conv6_2"
  top: "conv6_2_mbox_conf"
  param {
    lr_mult: 1
    decay_mult: 1
  }
  param {
    lr_mult: 2
    decay_mult: 0
  }
  convolution_param {
    num_output: 126
    pad: 1
    kernel_size: 3
    group: 1
    stride: 1
    weight_filler {
      type: "xavier"
    }
    bias_filler {
      type: "constant"
      value: 0
    }
  }
}
layer {
  name: "conv6_2_mbox_conf_perm"
  type: "Permute"
  bottom: "conv6_2_mbox_conf"
  top: "conv6_2_mbox_conf_perm"
  permute_param {
    order: 0
    order: 2
    order: 3
    order: 1
  }
}
layer {
  name: "conv6_2_mbox_conf_flat"
  type: "Flatten"
  bottom: "conv6_2_mbox_conf_perm"
  top: "conv6_2_mbox_conf_flat"
  flatten_param {
    axis: 1
  }
}
layer {
  name: "conv6_2_mbox_priorbox"
  type: "PriorBox"
  bottom: "conv6_2"
  bottom: "data"
  top: "conv6_2_mbox_priorbox"
  prior_box_param {
    min_size: 111
    max_size: 162
    aspect_ratio: 2
    aspect_ratio: 3
    flip: true
    clip: false
    variance: 0.1
    variance: 0.1
    variance: 0.2
    variance: 0.2
    step: 32
    offset: 0.5
  }
}
layer {
  name: "conv7_2_mbox_loc"
  type: "Convolution"
  bottom: "conv7_2"
  top: "conv7_2_mbox_loc"
  param {
    lr_mult: 1
    decay_mult: 1
  }
  param {
    lr_mult: 2
    decay_mult: 0
  }
  convolution_param {
    num_output: 24
    pad: 1
    kernel_size: 3
    group: 1
    stride: 1
    weight_filler {
      type: "xavier"
    }
    bias_filler {
      type: "constant"
      value: 0
    }
  }
}
layer {
  name: "conv7_2_mbox_loc_perm"
  type: "Permute"
  bottom: "conv7_2_mbox_loc"
  top: "conv7_2_mbox_loc_perm"
  permute_param {
    order: 0
    order: 2
    order: 3
    order: 1
  }
}
layer {
  name: "conv7_2_mbox_loc_flat"
  type: "Flatten"
  bottom: "conv7_2_mbox_loc_perm"
  top: "conv7_2_mbox_loc_flat"
  flatten_param {
    axis: 1
  }
}
layer {
  name: "conv7_2_mbox_conf"
  type: "Convolution"
  bottom: "conv7_2"
  top: "conv7_2_mbox_conf"
  param {
    lr_mult: 1
    decay_mult: 1
  }
  param {
    lr_mult: 2
    decay_mult: 0
  }
  convolution_param {
    num_output: 126
    pad: 1
    kernel_size: 3
    group: 1
    stride: 1
    weight_filler {
      type: "xavier"
    }
    bias_filler {
      type: "constant"
      value: 0
    }
  }
}
layer {
  name: "conv7_2_mbox_conf_perm"
  type: "Permute"
  bottom: "conv7_2_mbox_conf"
  top: "conv7_2_mbox_conf_perm"
  permute_param {
    order: 0
    order: 2
    order: 3
    order: 1
  }
}
layer {
  name: "conv7_2_mbox_conf_flat"
  type: "Flatten"
  bottom: "conv7_2_mbox_conf_perm"
  top: "conv7_2_mbox_conf_flat"
  flatten_param {
    axis: 1
  }
}
layer {
  name: "conv7_2_mbox_priorbox"
  type: "PriorBox"
  bottom: "conv7_2"
  bottom: "data"
  top: "conv7_2_mbox_priorbox"
  prior_box_param {
    min_size: 162
    max_size: 213
    aspect_ratio: 2
    aspect_ratio: 3
    flip: true
    clip: false
    variance: 0.1
    variance: 0.1
    variance: 0.2
    variance: 0.2
    step: 64
    offset: 0.5
  }
}
layer {
  name: "conv8_2_mbox_loc"
  type: "Convolution"
  bottom: "conv8_2"
  top: "conv8_2_mbox_loc"
  param {
    lr_mult: 1
    decay_mult: 1
  }
  param {
    lr_mult: 2
    decay_mult: 0
  }
  convolution_param {
    num_output: 16
    pad: 1
    kernel_size: 3
    group: 1
    stride: 1
    weight_filler {
      type: "xavier"
    }
    bias_filler {
      type: "constant"
      value: 0
    }
  }
}
layer {
  name: "conv8_2_mbox_loc_perm"
  type: "Permute"
  bottom: "conv8_2_mbox_loc"
  top: "conv8_2_mbox_loc_perm"
  permute_param {
    order: 0
    order: 2
    order: 3
    order: 1
  }
}
layer {
  name: "conv8_2_mbox_loc_flat"
  type: "Flatten"
  bottom: "conv8_2_mbox_loc_perm"
  top: "conv8_2_mbox_loc_flat"
  flatten_param {
    axis: 1
  }
}
layer {
  name: "conv8_2_mbox_conf"
  type: "Convolution"
  bottom: "conv8_2"
  top: "conv8_2_mbox_conf"
  param {
    lr_mult: 1
    decay_mult: 1
  }
  param {
    lr_mult: 2
    decay_mult: 0
  }
  convolution_param {
    num_output: 84
    pad: 1
    kernel_size: 3
    group: 1
    stride: 1
    weight_filler {
      type: "xavier"
    }
    bias_filler {
      type: "constant"
      value: 0
    }
  }
}
layer {
  name: "conv8_2_mbox_conf_perm"
  type: "Permute"
  bottom: "conv8_2_mbox_conf"
  top: "conv8_2_mbox_conf_perm"
  permute_param {
    order: 0
    order: 2
    order: 3
    order: 1
  }
}
layer {
  name: "conv8_2_mbox_conf_flat"
  type: "Flatten"
  bottom: "conv8_2_mbox_conf_perm"
  top: "conv8_2_mbox_conf_flat"
  flatten_param {
    axis: 1
  }
}
layer {
  name: "conv8_2_mbox_priorbox"
  type: "PriorBox"
  bottom: "conv8_2"
  bottom: "data"
  top: "conv8_2_mbox_priorbox"
  prior_box_param {
    min_size: 213
    max_size: 264
    aspect_ratio: 2
    flip: true
    clip: false
    variance: 0.1
    variance: 0.1
    variance: 0.2
    variance: 0.2
    step: 100
    offset: 0.5
  }
}
layer {
  name: "conv9_2_mbox_loc"
  type: "Convolution"
  bottom: "conv9_2"
  top: "conv9_2_mbox_loc"
  param {
    lr_mult: 1
    decay_mult: 1
  }
  param {
    lr_mult: 2
    decay_mult: 0
  }
  convolution_param {
    num_output: 16
    pad: 1
    kernel_size: 3
    group: 1
    stride: 1
    weight_filler {
      type: "xavier"
    }
    bias_filler {
      type: "constant"
      value: 0
    }
  }
}
layer {
  name: "conv9_2_mbox_loc_perm"
  type: "Permute"
  bottom: "conv9_2_mbox_loc"
  top: "conv9_2_mbox_loc_perm"
  permute_param {
    order: 0
    order: 2
    order: 3
    order: 1
  }
}
layer {
  name: "conv9_2_mbox_loc_flat"
  type: "Flatten"
  bottom: "conv9_2_mbox_loc_perm"
  top: "conv9_2_mbox_loc_flat"
  flatten_param {
    axis: 1
  }
}
layer {
  name: "conv9_2_mbox_conf"
  type: "Convolution"
  bottom: "conv9_2"
  top: "conv9_2_mbox_conf"
  param {
    lr_mult: 1
    decay_mult: 1
  }
  param {
    lr_mult: 2
    decay_mult: 0
  }
  convolution_param {
    num_output: 84
    pad: 1
    kernel_size: 3
    group: 1
    stride: 1
    weight_filler {
      type: "xavier"
    }
    bias_filler {
      type: "constant"
      value: 0
    }
  }
}
layer {
  name: "conv9_2_mbox_conf_perm"
  type: "Permute"
  bottom: "conv9_2_mbox_conf"
  top: "conv9_2_mbox_conf_perm"
  permute_param {
    order: 0
    order: 2
    order: 3
    order: 1
  }
}
layer {
  name: "conv9_2_mbox_conf_flat"
  type: "Flatten"
  bottom: "conv9_2_mbox_conf_perm"
  top: "conv9_2_mbox_conf_flat"
  flatten_param {
    axis: 1
  }
}
layer {
  name: "conv9_2_mbox_priorbox"
  type: "PriorBox"
  bottom: "conv9_2"
  bottom: "data"
  top: "conv9_2_mbox_priorbox"
  prior_box_param {
    min_size: 264
    max_size: 315
    aspect_ratio: 2
    flip: true
    clip: false
    variance: 0.1
    variance: 0.1
    variance: 0.2
    variance: 0.2
    step: 300
    offset: 0.5
  }
}
layer {
  name: "mbox_loc"
  type: "Concat"
  bottom: "conv4_3_norm_mbox_loc_flat"
  bottom: "fc7_mbox_loc_flat"
  bottom: "conv6_2_mbox_loc_flat"
  bottom: "conv7_2_mbox_loc_flat"
  bottom: "conv8_2_mbox_loc_flat"
  bottom: "conv9_2_mbox_loc_flat"
  top: "mbox_loc"
  concat_param {
    axis: 1
  }
}
layer {
  name: "mbox_conf"
  type: "Concat"
  bottom: "conv4_3_norm_mbox_conf_flat"
  bottom: "fc7_mbox_conf_flat"
  bottom: "conv6_2_mbox_conf_flat"
  bottom: "conv7_2_mbox_conf_flat"
  bottom: "conv8_2_mbox_conf_flat"
  bottom: "conv9_2_mbox_conf_flat"
  top: "mbox_conf"
  concat_param {
    axis: 1
  }
}
layer {
  name: "mbox_priorbox"
  type: "Concat"
  bottom: "conv4_3_norm_mbox_priorbox"
  bottom: "fc7_mbox_priorbox"
  bottom: "conv6_2_mbox_priorbox"
  bottom: "conv7_2_mbox_priorbox"
  bottom: "conv8_2_mbox_priorbox"
  bottom: "conv9_2_mbox_priorbox"
  top: "mbox_priorbox"
  concat_param {
    axis: 2
  }
}
layer {
  name: "mbox_conf_reshape"
  type: "Reshape"
  bottom: "mbox_conf"
  top: "mbox_conf_reshape"
  reshape_param {
    shape {
      dim: 0
      dim: -1
      dim: 21
    }
  }
}
layer {
  name: "mbox_conf_softmax"
  type: "Softmax"
  bottom: "mbox_conf_reshape"
  top: "mbox_conf_softmax"
  softmax_param {
    axis: 2
  }
}
layer {
  name: "mbox_conf_flatten"
  type: "Flatten"
  bottom: "mbox_conf_softmax"
  top: "mbox_conf_flatten"
  flatten_param {
    axis: 1
  }
}
layer {
  name: "detection_out"
  type: "DetectionOutput"
  bottom: "mbox_loc"
  bottom: "mbox_conf_flatten"
  bottom: "mbox_priorbox"
  top: "detection_out"
  include {
    phase: TEST
  }
  detection_output_param {
    num_classes: 21
    share_location: true
    background_label_id: 0
    nms_param {
      nms_threshold: 0.45
      top_k: 400
    }
    save_output_param {
      output_directory: "/home/asgdemo/Workspace/data/VOCdevkit/results/VOC2007/SSD_300x300/Main"
      output_name_prefix: "comp4_det_test_"
      output_format: "VOC"
      label_map_file: "data/VOC0712/labelmap_voc.prototxt"
      name_size_file: "data/VOC0712/test_name_size.txt"
      num_test_image: 4952
    }
    code_type: CENTER_SIZE
    keep_top_k: 200
    confidence_threshold: 0.01
  }
}
layer {
  name: "detection_eval"
  type: "DetectionEvaluate"
  bottom: "detection_out"
  bottom: "label"
  top: "detection_eval"
  include {
    phase: TEST
  }
  detection_evaluate_param {
    num_classes: 21
    background_label_id: 0
    overlap_threshold: 0.5
    evaluate_difficult_gt: false
    name_size_file: "data/VOC0712/test_name_size.txt"
  }
}
I0617 21:28:32.206029 28668 layer_factory.hpp:77] Creating layer data
I0617 21:28:32.206080 28668 net.cpp:100] Creating Layer data
I0617 21:28:32.206094 28668 net.cpp:408] data -> data
I0617 21:28:32.206100 28668 net.cpp:408] data -> label
I0617 21:28:32.206745 28696 db_lmdb.cpp:35] Opened lmdb examples/VOC0712/VOC0712_test_lmdb
I0617 21:28:32.209038 28668 annotated_data_layer.cpp:62] output data size: 8,3,300,300
I0617 21:28:32.222553 28668 net.cpp:150] Setting up data
I0617 21:28:32.222576 28668 net.cpp:157] Top shape: 8 3 300 300 (2160000)
I0617 21:28:32.222581 28668 net.cpp:157] Top shape: 1 1 2 8 (16)
I0617 21:28:32.222584 28668 net.cpp:165] Memory required for data: 8640064
I0617 21:28:32.222589 28668 layer_factory.hpp:77] Creating layer data_data_0_split
I0617 21:28:32.222601 28668 net.cpp:100] Creating Layer data_data_0_split
I0617 21:28:32.222606 28668 net.cpp:434] data_data_0_split <- data
I0617 21:28:32.222615 28668 net.cpp:408] data_data_0_split -> data_data_0_split_0
I0617 21:28:32.222626 28668 net.cpp:408] data_data_0_split -> data_data_0_split_1
I0617 21:28:32.222632 28668 net.cpp:408] data_data_0_split -> data_data_0_split_2
I0617 21:28:32.222640 28668 net.cpp:408] data_data_0_split -> data_data_0_split_3
I0617 21:28:32.222645 28668 net.cpp:408] data_data_0_split -> data_data_0_split_4
I0617 21:28:32.222653 28668 net.cpp:408] data_data_0_split -> data_data_0_split_5
I0617 21:28:32.222674 28668 net.cpp:408] data_data_0_split -> data_data_0_split_6
I0617 21:28:32.222806 28668 net.cpp:150] Setting up data_data_0_split
I0617 21:28:32.222815 28668 net.cpp:157] Top shape: 8 3 300 300 (2160000)
I0617 21:28:32.222820 28668 net.cpp:157] Top shape: 8 3 300 300 (2160000)
I0617 21:28:32.222823 28668 net.cpp:157] Top shape: 8 3 300 300 (2160000)
I0617 21:28:32.222828 28668 net.cpp:157] Top shape: 8 3 300 300 (2160000)
I0617 21:28:32.222832 28668 net.cpp:157] Top shape: 8 3 300 300 (2160000)
I0617 21:28:32.222839 28668 net.cpp:157] Top shape: 8 3 300 300 (2160000)
I0617 21:28:32.222844 28668 net.cpp:157] Top shape: 8 3 300 300 (2160000)
I0617 21:28:32.222847 28668 net.cpp:165] Memory required for data: 69120064
I0617 21:28:32.222851 28668 layer_factory.hpp:77] Creating layer conv1_1
I0617 21:28:32.222863 28668 net.cpp:100] Creating Layer conv1_1
I0617 21:28:32.222867 28668 net.cpp:434] conv1_1 <- data_data_0_split_0
I0617 21:28:32.222873 28668 net.cpp:408] conv1_1 -> conv1_1
I0617 21:28:32.228163 28668 net.cpp:150] Setting up conv1_1
I0617 21:28:32.228175 28668 net.cpp:157] Top shape: 8 64 300 300 (46080000)
I0617 21:28:32.228178 28668 net.cpp:165] Memory required for data: 253440064
I0617 21:28:32.228190 28668 layer_factory.hpp:77] Creating layer relu1_1
I0617 21:28:32.228199 28668 net.cpp:100] Creating Layer relu1_1
I0617 21:28:32.228204 28668 net.cpp:434] relu1_1 <- conv1_1
I0617 21:28:32.228209 28668 net.cpp:395] relu1_1 -> conv1_1 (in-place)
I0617 21:28:32.228374 28668 net.cpp:150] Setting up relu1_1
I0617 21:28:32.228382 28668 net.cpp:157] Top shape: 8 64 300 300 (46080000)
I0617 21:28:32.228385 28668 net.cpp:165] Memory required for data: 437760064
I0617 21:28:32.228389 28668 layer_factory.hpp:77] Creating layer conv1_2
I0617 21:28:32.228399 28668 net.cpp:100] Creating Layer conv1_2
I0617 21:28:32.228404 28668 net.cpp:434] conv1_2 <- conv1_1
I0617 21:28:32.228410 28668 net.cpp:408] conv1_2 -> conv1_2
I0617 21:28:32.232038 28668 net.cpp:150] Setting up conv1_2
I0617 21:28:32.232049 28668 net.cpp:157] Top shape: 8 64 300 300 (46080000)
I0617 21:28:32.232053 28668 net.cpp:165] Memory required for data: 622080064
I0617 21:28:32.232062 28668 layer_factory.hpp:77] Creating layer relu1_2
I0617 21:28:32.232069 28668 net.cpp:100] Creating Layer relu1_2
I0617 21:28:32.232074 28668 net.cpp:434] relu1_2 <- conv1_2
I0617 21:28:32.232080 28668 net.cpp:395] relu1_2 -> conv1_2 (in-place)
I0617 21:28:32.232242 28668 net.cpp:150] Setting up relu1_2
I0617 21:28:32.232252 28668 net.cpp:157] Top shape: 8 64 300 300 (46080000)
I0617 21:28:32.232255 28668 net.cpp:165] Memory required for data: 806400064
I0617 21:28:32.232259 28668 layer_factory.hpp:77] Creating layer pool1
I0617 21:28:32.232265 28668 net.cpp:100] Creating Layer pool1
I0617 21:28:32.232270 28668 net.cpp:434] pool1 <- conv1_2
I0617 21:28:32.232275 28668 net.cpp:408] pool1 -> pool1
I0617 21:28:32.232326 28668 net.cpp:150] Setting up pool1
I0617 21:28:32.232333 28668 net.cpp:157] Top shape: 8 64 150 150 (11520000)
I0617 21:28:32.232336 28668 net.cpp:165] Memory required for data: 852480064
I0617 21:28:32.232339 28668 layer_factory.hpp:77] Creating layer conv2_1
I0617 21:28:32.232348 28668 net.cpp:100] Creating Layer conv2_1
I0617 21:28:32.232352 28668 net.cpp:434] conv2_1 <- pool1
I0617 21:28:32.232359 28668 net.cpp:408] conv2_1 -> conv2_1
I0617 21:28:32.235801 28668 net.cpp:150] Setting up conv2_1
I0617 21:28:32.235812 28668 net.cpp:157] Top shape: 8 128 150 150 (23040000)
I0617 21:28:32.235816 28668 net.cpp:165] Memory required for data: 944640064
I0617 21:28:32.235826 28668 layer_factory.hpp:77] Creating layer relu2_1
I0617 21:28:32.235836 28668 net.cpp:100] Creating Layer relu2_1
I0617 21:28:32.235839 28668 net.cpp:434] relu2_1 <- conv2_1
I0617 21:28:32.235846 28668 net.cpp:395] relu2_1 -> conv2_1 (in-place)
I0617 21:28:32.236443 28668 net.cpp:150] Setting up relu2_1
I0617 21:28:32.236454 28668 net.cpp:157] Top shape: 8 128 150 150 (23040000)
I0617 21:28:32.236457 28668 net.cpp:165] Memory required for data: 1036800064
I0617 21:28:32.236460 28668 layer_factory.hpp:77] Creating layer conv2_2
I0617 21:28:32.236485 28668 net.cpp:100] Creating Layer conv2_2
I0617 21:28:32.236490 28668 net.cpp:434] conv2_2 <- conv2_1
I0617 21:28:32.236496 28668 net.cpp:408] conv2_2 -> conv2_2
I0617 21:28:32.240033 28668 net.cpp:150] Setting up conv2_2
I0617 21:28:32.240048 28668 net.cpp:157] Top shape: 8 128 150 150 (23040000)
I0617 21:28:32.240051 28668 net.cpp:165] Memory required for data: 1128960064
I0617 21:28:32.240059 28668 layer_factory.hpp:77] Creating layer relu2_2
I0617 21:28:32.240065 28668 net.cpp:100] Creating Layer relu2_2
I0617 21:28:32.240069 28668 net.cpp:434] relu2_2 <- conv2_2
I0617 21:28:32.240077 28668 net.cpp:395] relu2_2 -> conv2_2 (in-place)
I0617 21:28:32.240552 28668 net.cpp:150] Setting up relu2_2
I0617 21:28:32.240561 28668 net.cpp:157] Top shape: 8 128 150 150 (23040000)
I0617 21:28:32.240564 28668 net.cpp:165] Memory required for data: 1221120064
I0617 21:28:32.240567 28668 layer_factory.hpp:77] Creating layer pool2
I0617 21:28:32.240578 28668 net.cpp:100] Creating Layer pool2
I0617 21:28:32.240582 28668 net.cpp:434] pool2 <- conv2_2
I0617 21:28:32.240589 28668 net.cpp:408] pool2 -> pool2
I0617 21:28:32.240643 28668 net.cpp:150] Setting up pool2
I0617 21:28:32.240653 28668 net.cpp:157] Top shape: 8 128 75 75 (5760000)
I0617 21:28:32.240656 28668 net.cpp:165] Memory required for data: 1244160064
I0617 21:28:32.240659 28668 layer_factory.hpp:77] Creating layer conv3_1
I0617 21:28:32.240669 28668 net.cpp:100] Creating Layer conv3_1
I0617 21:28:32.240674 28668 net.cpp:434] conv3_1 <- pool2
I0617 21:28:32.240680 28668 net.cpp:408] conv3_1 -> conv3_1
I0617 21:28:32.245301 28668 net.cpp:150] Setting up conv3_1
I0617 21:28:32.245316 28668 net.cpp:157] Top shape: 8 256 75 75 (11520000)
I0617 21:28:32.245318 28668 net.cpp:165] Memory required for data: 1290240064
I0617 21:28:32.245332 28668 layer_factory.hpp:77] Creating layer relu3_1
I0617 21:28:32.245352 28668 net.cpp:100] Creating Layer relu3_1
I0617 21:28:32.245358 28668 net.cpp:434] relu3_1 <- conv3_1
I0617 21:28:32.245364 28668 net.cpp:395] relu3_1 -> conv3_1 (in-place)
I0617 21:28:32.245820 28668 net.cpp:150] Setting up relu3_1
I0617 21:28:32.245831 28668 net.cpp:157] Top shape: 8 256 75 75 (11520000)
I0617 21:28:32.245833 28668 net.cpp:165] Memory required for data: 1336320064
I0617 21:28:32.245837 28668 layer_factory.hpp:77] Creating layer conv3_2
I0617 21:28:32.245847 28668 net.cpp:100] Creating Layer conv3_2
I0617 21:28:32.245852 28668 net.cpp:434] conv3_2 <- conv3_1
I0617 21:28:32.245860 28668 net.cpp:408] conv3_2 -> conv3_2
I0617 21:28:32.252158 28668 net.cpp:150] Setting up conv3_2
I0617 21:28:32.252177 28668 net.cpp:157] Top shape: 8 256 75 75 (11520000)
I0617 21:28:32.252179 28668 net.cpp:165] Memory required for data: 1382400064
I0617 21:28:32.252187 28668 layer_factory.hpp:77] Creating layer relu3_2
I0617 21:28:32.252194 28668 net.cpp:100] Creating Layer relu3_2
I0617 21:28:32.252200 28668 net.cpp:434] relu3_2 <- conv3_2
I0617 21:28:32.252207 28668 net.cpp:395] relu3_2 -> conv3_2 (in-place)
I0617 21:28:32.252837 28668 net.cpp:150] Setting up relu3_2
I0617 21:28:32.252847 28668 net.cpp:157] Top shape: 8 256 75 75 (11520000)
I0617 21:28:32.252851 28668 net.cpp:165] Memory required for data: 1428480064
I0617 21:28:32.252854 28668 layer_factory.hpp:77] Creating layer conv3_3
I0617 21:28:32.252869 28668 net.cpp:100] Creating Layer conv3_3
I0617 21:28:32.252873 28668 net.cpp:434] conv3_3 <- conv3_2
I0617 21:28:32.252882 28668 net.cpp:408] conv3_3 -> conv3_3
I0617 21:28:32.258741 28668 net.cpp:150] Setting up conv3_3
I0617 21:28:32.258755 28668 net.cpp:157] Top shape: 8 256 75 75 (11520000)
I0617 21:28:32.258759 28668 net.cpp:165] Memory required for data: 1474560064
I0617 21:28:32.258766 28668 layer_factory.hpp:77] Creating layer relu3_3
I0617 21:28:32.258775 28668 net.cpp:100] Creating Layer relu3_3
I0617 21:28:32.258781 28668 net.cpp:434] relu3_3 <- conv3_3
I0617 21:28:32.258787 28668 net.cpp:395] relu3_3 -> conv3_3 (in-place)
I0617 21:28:32.260989 28668 net.cpp:150] Setting up relu3_3
I0617 21:28:32.260999 28668 net.cpp:157] Top shape: 8 256 75 75 (11520000)
I0617 21:28:32.261018 28668 net.cpp:165] Memory required for data: 1520640064
I0617 21:28:32.261021 28668 layer_factory.hpp:77] Creating layer pool3
I0617 21:28:32.261029 28668 net.cpp:100] Creating Layer pool3
I0617 21:28:32.261034 28668 net.cpp:434] pool3 <- conv3_3
I0617 21:28:32.261042 28668 net.cpp:408] pool3 -> pool3
I0617 21:28:32.261101 28668 net.cpp:150] Setting up pool3
I0617 21:28:32.261109 28668 net.cpp:157] Top shape: 8 256 38 38 (2957312)
I0617 21:28:32.261112 28668 net.cpp:165] Memory required for data: 1532469312
I0617 21:28:32.261116 28668 layer_factory.hpp:77] Creating layer conv4_1
I0617 21:28:32.261129 28668 net.cpp:100] Creating Layer conv4_1
I0617 21:28:32.261133 28668 net.cpp:434] conv4_1 <- pool3
I0617 21:28:32.261139 28668 net.cpp:408] conv4_1 -> conv4_1
I0617 21:28:32.270979 28668 net.cpp:150] Setting up conv4_1
I0617 21:28:32.271003 28668 net.cpp:157] Top shape: 8 512 38 38 (5914624)
I0617 21:28:32.271006 28668 net.cpp:165] Memory required for data: 1556127808
I0617 21:28:32.271015 28668 layer_factory.hpp:77] Creating layer relu4_1
I0617 21:28:32.271024 28668 net.cpp:100] Creating Layer relu4_1
I0617 21:28:32.271029 28668 net.cpp:434] relu4_1 <- conv4_1
I0617 21:28:32.271036 28668 net.cpp:395] relu4_1 -> conv4_1 (in-place)
I0617 21:28:32.271560 28668 net.cpp:150] Setting up relu4_1
I0617 21:28:32.271570 28668 net.cpp:157] Top shape: 8 512 38 38 (5914624)
I0617 21:28:32.271574 28668 net.cpp:165] Memory required for data: 1579786304
I0617 21:28:32.271576 28668 layer_factory.hpp:77] Creating layer conv4_2
I0617 21:28:32.271589 28668 net.cpp:100] Creating Layer conv4_2
I0617 21:28:32.271592 28668 net.cpp:434] conv4_2 <- conv4_1
I0617 21:28:32.271601 28668 net.cpp:408] conv4_2 -> conv4_2
I0617 21:28:32.286705 28668 net.cpp:150] Setting up conv4_2
I0617 21:28:32.286725 28668 net.cpp:157] Top shape: 8 512 38 38 (5914624)
I0617 21:28:32.286728 28668 net.cpp:165] Memory required for data: 1603444800
I0617 21:28:32.286739 28668 layer_factory.hpp:77] Creating layer relu4_2
I0617 21:28:32.286746 28668 net.cpp:100] Creating Layer relu4_2
I0617 21:28:32.286749 28668 net.cpp:434] relu4_2 <- conv4_2
I0617 21:28:32.286756 28668 net.cpp:395] relu4_2 -> conv4_2 (in-place)
I0617 21:28:32.287935 28668 net.cpp:150] Setting up relu4_2
I0617 21:28:32.287946 28668 net.cpp:157] Top shape: 8 512 38 38 (5914624)
I0617 21:28:32.287948 28668 net.cpp:165] Memory required for data: 1627103296
I0617 21:28:32.287951 28668 layer_factory.hpp:77] Creating layer conv4_3
I0617 21:28:32.287959 28668 net.cpp:100] Creating Layer conv4_3
I0617 21:28:32.287961 28668 net.cpp:434] conv4_3 <- conv4_2
I0617 21:28:32.287966 28668 net.cpp:408] conv4_3 -> conv4_3
I0617 21:28:32.302878 28668 net.cpp:150] Setting up conv4_3
I0617 21:28:32.302898 28668 net.cpp:157] Top shape: 8 512 38 38 (5914624)
I0617 21:28:32.302901 28668 net.cpp:165] Memory required for data: 1650761792
I0617 21:28:32.302907 28668 layer_factory.hpp:77] Creating layer relu4_3
I0617 21:28:32.302913 28668 net.cpp:100] Creating Layer relu4_3
I0617 21:28:32.302917 28668 net.cpp:434] relu4_3 <- conv4_3
I0617 21:28:32.302923 28668 net.cpp:395] relu4_3 -> conv4_3 (in-place)
I0617 21:28:32.303113 28668 net.cpp:150] Setting up relu4_3
I0617 21:28:32.303122 28668 net.cpp:157] Top shape: 8 512 38 38 (5914624)
I0617 21:28:32.303125 28668 net.cpp:165] Memory required for data: 1674420288
I0617 21:28:32.303128 28668 layer_factory.hpp:77] Creating layer conv4_3_relu4_3_0_split
I0617 21:28:32.303135 28668 net.cpp:100] Creating Layer conv4_3_relu4_3_0_split
I0617 21:28:32.303140 28668 net.cpp:434] conv4_3_relu4_3_0_split <- conv4_3
I0617 21:28:32.303148 28668 net.cpp:408] conv4_3_relu4_3_0_split -> conv4_3_relu4_3_0_split_0
I0617 21:28:32.303158 28668 net.cpp:408] conv4_3_relu4_3_0_split -> conv4_3_relu4_3_0_split_1
I0617 21:28:32.303218 28668 net.cpp:150] Setting up conv4_3_relu4_3_0_split
I0617 21:28:32.303225 28668 net.cpp:157] Top shape: 8 512 38 38 (5914624)
I0617 21:28:32.303231 28668 net.cpp:157] Top shape: 8 512 38 38 (5914624)
I0617 21:28:32.303252 28668 net.cpp:165] Memory required for data: 1721737280
I0617 21:28:32.303256 28668 layer_factory.hpp:77] Creating layer pool4
I0617 21:28:32.303261 28668 net.cpp:100] Creating Layer pool4
I0617 21:28:32.303266 28668 net.cpp:434] pool4 <- conv4_3_relu4_3_0_split_0
I0617 21:28:32.303275 28668 net.cpp:408] pool4 -> pool4
I0617 21:28:32.303336 28668 net.cpp:150] Setting up pool4
I0617 21:28:32.303344 28668 net.cpp:157] Top shape: 8 512 19 19 (1478656)
I0617 21:28:32.303346 28668 net.cpp:165] Memory required for data: 1727651904
I0617 21:28:32.303349 28668 layer_factory.hpp:77] Creating layer conv5_1
I0617 21:28:32.303364 28668 net.cpp:100] Creating Layer conv5_1
I0617 21:28:32.303370 28668 net.cpp:434] conv5_1 <- pool4
I0617 21:28:32.303380 28668 net.cpp:408] conv5_1 -> conv5_1
I0617 21:28:32.319586 28668 net.cpp:150] Setting up conv5_1
I0617 21:28:32.319607 28668 net.cpp:157] Top shape: 8 512 19 19 (1478656)
I0617 21:28:32.319608 28668 net.cpp:165] Memory required for data: 1733566528
I0617 21:28:32.319615 28668 layer_factory.hpp:77] Creating layer relu5_1
I0617 21:28:32.319624 28668 net.cpp:100] Creating Layer relu5_1
I0617 21:28:32.319629 28668 net.cpp:434] relu5_1 <- conv5_1
I0617 21:28:32.319635 28668 net.cpp:395] relu5_1 -> conv5_1 (in-place)
I0617 21:28:32.320730 28668 net.cpp:150] Setting up relu5_1
I0617 21:28:32.320740 28668 net.cpp:157] Top shape: 8 512 19 19 (1478656)
I0617 21:28:32.320742 28668 net.cpp:165] Memory required for data: 1739481152
I0617 21:28:32.320744 28668 layer_factory.hpp:77] Creating layer conv5_2
I0617 21:28:32.320755 28668 net.cpp:100] Creating Layer conv5_2
I0617 21:28:32.320760 28668 net.cpp:434] conv5_2 <- conv5_1
I0617 21:28:32.320770 28668 net.cpp:408] conv5_2 -> conv5_2
I0617 21:28:32.337579 28668 net.cpp:150] Setting up conv5_2
I0617 21:28:32.337600 28668 net.cpp:157] Top shape: 8 512 19 19 (1478656)
I0617 21:28:32.337604 28668 net.cpp:165] Memory required for data: 1745395776
I0617 21:28:32.337610 28668 layer_factory.hpp:77] Creating layer relu5_2
I0617 21:28:32.337615 28668 net.cpp:100] Creating Layer relu5_2
I0617 21:28:32.337620 28668 net.cpp:434] relu5_2 <- conv5_2
I0617 21:28:32.337625 28668 net.cpp:395] relu5_2 -> conv5_2 (in-place)
I0617 21:28:32.339049 28668 net.cpp:150] Setting up relu5_2
I0617 21:28:32.339061 28668 net.cpp:157] Top shape: 8 512 19 19 (1478656)
I0617 21:28:32.339061 28668 net.cpp:165] Memory required for data: 1751310400
I0617 21:28:32.339064 28668 layer_factory.hpp:77] Creating layer conv5_3
I0617 21:28:32.339076 28668 net.cpp:100] Creating Layer conv5_3
I0617 21:28:32.339082 28668 net.cpp:434] conv5_3 <- conv5_2
I0617 21:28:32.339088 28668 net.cpp:408] conv5_3 -> conv5_3
I0617 21:28:32.355132 28668 net.cpp:150] Setting up conv5_3
I0617 21:28:32.355154 28668 net.cpp:157] Top shape: 8 512 19 19 (1478656)
I0617 21:28:32.355155 28668 net.cpp:165] Memory required for data: 1757225024
I0617 21:28:32.355161 28668 layer_factory.hpp:77] Creating layer relu5_3
I0617 21:28:32.355180 28668 net.cpp:100] Creating Layer relu5_3
I0617 21:28:32.355185 28668 net.cpp:434] relu5_3 <- conv5_3
I0617 21:28:32.355195 28668 net.cpp:395] relu5_3 -> conv5_3 (in-place)
I0617 21:28:32.356133 28668 net.cpp:150] Setting up relu5_3
I0617 21:28:32.356142 28668 net.cpp:157] Top shape: 8 512 19 19 (1478656)
I0617 21:28:32.356144 28668 net.cpp:165] Memory required for data: 1763139648
I0617 21:28:32.356148 28668 layer_factory.hpp:77] Creating layer pool5
I0617 21:28:32.356153 28668 net.cpp:100] Creating Layer pool5
I0617 21:28:32.356159 28668 net.cpp:434] pool5 <- conv5_3
I0617 21:28:32.356166 28668 net.cpp:408] pool5 -> pool5
I0617 21:28:32.356231 28668 net.cpp:150] Setting up pool5
I0617 21:28:32.356238 28668 net.cpp:157] Top shape: 8 512 19 19 (1478656)
I0617 21:28:32.356240 28668 net.cpp:165] Memory required for data: 1769054272
I0617 21:28:32.356243 28668 layer_factory.hpp:77] Creating layer fc6
I0617 21:28:32.356254 28668 net.cpp:100] Creating Layer fc6
I0617 21:28:32.356261 28668 net.cpp:434] fc6 <- pool5
I0617 21:28:32.356268 28668 net.cpp:408] fc6 -> fc6
I0617 21:28:32.382185 28668 net.cpp:150] Setting up fc6
I0617 21:28:32.382232 28668 net.cpp:157] Top shape: 8 1024 19 19 (2957312)
I0617 21:28:32.382235 28668 net.cpp:165] Memory required for data: 1780883520
I0617 21:28:32.382241 28668 layer_factory.hpp:77] Creating layer relu6
I0617 21:28:32.382251 28668 net.cpp:100] Creating Layer relu6
I0617 21:28:32.382253 28668 net.cpp:434] relu6 <- fc6
I0617 21:28:32.382258 28668 net.cpp:395] relu6 -> fc6 (in-place)
I0617 21:28:32.383026 28668 net.cpp:150] Setting up relu6
I0617 21:28:32.383038 28668 net.cpp:157] Top shape: 8 1024 19 19 (2957312)
I0617 21:28:32.383039 28668 net.cpp:165] Memory required for data: 1792712768
I0617 21:28:32.383041 28668 layer_factory.hpp:77] Creating layer fc7
I0617 21:28:32.383050 28668 net.cpp:100] Creating Layer fc7
I0617 21:28:32.383052 28668 net.cpp:434] fc7 <- fc6
I0617 21:28:32.383059 28668 net.cpp:408] fc7 -> fc7
I0617 21:28:32.391743 28668 net.cpp:150] Setting up fc7
I0617 21:28:32.391762 28668 net.cpp:157] Top shape: 8 1024 19 19 (2957312)
I0617 21:28:32.391765 28668 net.cpp:165] Memory required for data: 1804542016
I0617 21:28:32.391772 28668 layer_factory.hpp:77] Creating layer relu7
I0617 21:28:32.391777 28668 net.cpp:100] Creating Layer relu7
I0617 21:28:32.391780 28668 net.cpp:434] relu7 <- fc7
I0617 21:28:32.391784 28668 net.cpp:395] relu7 -> fc7 (in-place)
I0617 21:28:32.392827 28668 net.cpp:150] Setting up relu7
I0617 21:28:32.392837 28668 net.cpp:157] Top shape: 8 1024 19 19 (2957312)
I0617 21:28:32.392838 28668 net.cpp:165] Memory required for data: 1816371264
I0617 21:28:32.392840 28668 layer_factory.hpp:77] Creating layer fc7_relu7_0_split
I0617 21:28:32.392846 28668 net.cpp:100] Creating Layer fc7_relu7_0_split
I0617 21:28:32.392848 28668 net.cpp:434] fc7_relu7_0_split <- fc7
I0617 21:28:32.392853 28668 net.cpp:408] fc7_relu7_0_split -> fc7_relu7_0_split_0
I0617 21:28:32.392858 28668 net.cpp:408] fc7_relu7_0_split -> fc7_relu7_0_split_1
I0617 21:28:32.392874 28668 net.cpp:408] fc7_relu7_0_split -> fc7_relu7_0_split_2
I0617 21:28:32.392879 28668 net.cpp:408] fc7_relu7_0_split -> fc7_relu7_0_split_3
I0617 21:28:32.392964 28668 net.cpp:150] Setting up fc7_relu7_0_split
I0617 21:28:32.392972 28668 net.cpp:157] Top shape: 8 1024 19 19 (2957312)
I0617 21:28:32.392978 28668 net.cpp:157] Top shape: 8 1024 19 19 (2957312)
I0617 21:28:32.392984 28668 net.cpp:157] Top shape: 8 1024 19 19 (2957312)
I0617 21:28:32.392987 28668 net.cpp:157] Top shape: 8 1024 19 19 (2957312)
I0617 21:28:32.392992 28668 net.cpp:165] Memory required for data: 1863688256
I0617 21:28:32.392993 28668 layer_factory.hpp:77] Creating layer conv6_1
I0617 21:28:32.393003 28668 net.cpp:100] Creating Layer conv6_1
I0617 21:28:32.393007 28668 net.cpp:434] conv6_1 <- fc7_relu7_0_split_0
I0617 21:28:32.393013 28668 net.cpp:408] conv6_1 -> conv6_1
I0617 21:28:32.397186 28668 net.cpp:150] Setting up conv6_1
I0617 21:28:32.397199 28668 net.cpp:157] Top shape: 8 256 19 19 (739328)
I0617 21:28:32.397203 28668 net.cpp:165] Memory required for data: 1866645568
I0617 21:28:32.397208 28668 layer_factory.hpp:77] Creating layer conv6_1_relu
I0617 21:28:32.397213 28668 net.cpp:100] Creating Layer conv6_1_relu
I0617 21:28:32.397217 28668 net.cpp:434] conv6_1_relu <- conv6_1
I0617 21:28:32.397223 28668 net.cpp:395] conv6_1_relu -> conv6_1 (in-place)
I0617 21:28:32.398095 28668 net.cpp:150] Setting up conv6_1_relu
I0617 21:28:32.398104 28668 net.cpp:157] Top shape: 8 256 19 19 (739328)
I0617 21:28:32.398106 28668 net.cpp:165] Memory required for data: 1869602880
I0617 21:28:32.398108 28668 layer_factory.hpp:77] Creating layer conv6_2
I0617 21:28:32.398116 28668 net.cpp:100] Creating Layer conv6_2
I0617 21:28:32.398119 28668 net.cpp:434] conv6_2 <- conv6_1
I0617 21:28:32.398124 28668 net.cpp:408] conv6_2 -> conv6_2
I0617 21:28:32.408836 28668 net.cpp:150] Setting up conv6_2
I0617 21:28:32.408855 28668 net.cpp:157] Top shape: 8 512 10 10 (409600)
I0617 21:28:32.408859 28668 net.cpp:165] Memory required for data: 1871241280
I0617 21:28:32.408869 28668 layer_factory.hpp:77] Creating layer conv6_2_relu
I0617 21:28:32.408898 28668 net.cpp:100] Creating Layer conv6_2_relu
I0617 21:28:32.408905 28668 net.cpp:434] conv6_2_relu <- conv6_2
I0617 21:28:32.408910 28668 net.cpp:395] conv6_2_relu -> conv6_2 (in-place)
I0617 21:28:32.409543 28668 net.cpp:150] Setting up conv6_2_relu
I0617 21:28:32.409554 28668 net.cpp:157] Top shape: 8 512 10 10 (409600)
I0617 21:28:32.409556 28668 net.cpp:165] Memory required for data: 1872879680
I0617 21:28:32.409559 28668 layer_factory.hpp:77] Creating layer conv6_2_conv6_2_relu_0_split
I0617 21:28:32.409564 28668 net.cpp:100] Creating Layer conv6_2_conv6_2_relu_0_split
I0617 21:28:32.409565 28668 net.cpp:434] conv6_2_conv6_2_relu_0_split <- conv6_2
I0617 21:28:32.409570 28668 net.cpp:408] conv6_2_conv6_2_relu_0_split -> conv6_2_conv6_2_relu_0_split_0
I0617 21:28:32.409576 28668 net.cpp:408] conv6_2_conv6_2_relu_0_split -> conv6_2_conv6_2_relu_0_split_1
I0617 21:28:32.409581 28668 net.cpp:408] conv6_2_conv6_2_relu_0_split -> conv6_2_conv6_2_relu_0_split_2
I0617 21:28:32.409587 28668 net.cpp:408] conv6_2_conv6_2_relu_0_split -> conv6_2_conv6_2_relu_0_split_3
I0617 21:28:32.409679 28668 net.cpp:150] Setting up conv6_2_conv6_2_relu_0_split
I0617 21:28:32.409685 28668 net.cpp:157] Top shape: 8 512 10 10 (409600)
I0617 21:28:32.409688 28668 net.cpp:157] Top shape: 8 512 10 10 (409600)
I0617 21:28:32.409690 28668 net.cpp:157] Top shape: 8 512 10 10 (409600)
I0617 21:28:32.409693 28668 net.cpp:157] Top shape: 8 512 10 10 (409600)
I0617 21:28:32.409694 28668 net.cpp:165] Memory required for data: 1879433280
I0617 21:28:32.409696 28668 layer_factory.hpp:77] Creating layer conv7_1
I0617 21:28:32.409704 28668 net.cpp:100] Creating Layer conv7_1
I0617 21:28:32.409708 28668 net.cpp:434] conv7_1 <- conv6_2_conv6_2_relu_0_split_0
I0617 21:28:32.409713 28668 net.cpp:408] conv7_1 -> conv7_1
I0617 21:28:32.412927 28668 net.cpp:150] Setting up conv7_1
I0617 21:28:32.412938 28668 net.cpp:157] Top shape: 8 128 10 10 (102400)
I0617 21:28:32.412940 28668 net.cpp:165] Memory required for data: 1879842880
I0617 21:28:32.412946 28668 layer_factory.hpp:77] Creating layer conv7_1_relu
I0617 21:28:32.412950 28668 net.cpp:100] Creating Layer conv7_1_relu
I0617 21:28:32.412953 28668 net.cpp:434] conv7_1_relu <- conv7_1
I0617 21:28:32.412957 28668 net.cpp:395] conv7_1_relu -> conv7_1 (in-place)
I0617 21:28:32.414109 28668 net.cpp:150] Setting up conv7_1_relu
I0617 21:28:32.414119 28668 net.cpp:157] Top shape: 8 128 10 10 (102400)
I0617 21:28:32.414120 28668 net.cpp:165] Memory required for data: 1880252480
I0617 21:28:32.414124 28668 layer_factory.hpp:77] Creating layer conv7_2
I0617 21:28:32.414134 28668 net.cpp:100] Creating Layer conv7_2
I0617 21:28:32.414140 28668 net.cpp:434] conv7_2 <- conv7_1
I0617 21:28:32.414146 28668 net.cpp:408] conv7_2 -> conv7_2
I0617 21:28:32.419940 28668 net.cpp:150] Setting up conv7_2
I0617 21:28:32.419952 28668 net.cpp:157] Top shape: 8 256 5 5 (51200)
I0617 21:28:32.419955 28668 net.cpp:165] Memory required for data: 1880457280
I0617 21:28:32.419960 28668 layer_factory.hpp:77] Creating layer conv7_2_relu
I0617 21:28:32.419965 28668 net.cpp:100] Creating Layer conv7_2_relu
I0617 21:28:32.419966 28668 net.cpp:434] conv7_2_relu <- conv7_2
I0617 21:28:32.419970 28668 net.cpp:395] conv7_2_relu -> conv7_2 (in-place)
I0617 21:28:32.421142 28668 net.cpp:150] Setting up conv7_2_relu
I0617 21:28:32.421150 28668 net.cpp:157] Top shape: 8 256 5 5 (51200)
I0617 21:28:32.421152 28668 net.cpp:165] Memory required for data: 1880662080
I0617 21:28:32.421154 28668 layer_factory.hpp:77] Creating layer conv7_2_conv7_2_relu_0_split
I0617 21:28:32.421159 28668 net.cpp:100] Creating Layer conv7_2_conv7_2_relu_0_split
I0617 21:28:32.421161 28668 net.cpp:434] conv7_2_conv7_2_relu_0_split <- conv7_2
I0617 21:28:32.421165 28668 net.cpp:408] conv7_2_conv7_2_relu_0_split -> conv7_2_conv7_2_relu_0_split_0
I0617 21:28:32.421170 28668 net.cpp:408] conv7_2_conv7_2_relu_0_split -> conv7_2_conv7_2_relu_0_split_1
I0617 21:28:32.421175 28668 net.cpp:408] conv7_2_conv7_2_relu_0_split -> conv7_2_conv7_2_relu_0_split_2
I0617 21:28:32.421180 28668 net.cpp:408] conv7_2_conv7_2_relu_0_split -> conv7_2_conv7_2_relu_0_split_3
I0617 21:28:32.421275 28668 net.cpp:150] Setting up conv7_2_conv7_2_relu_0_split
I0617 21:28:32.421280 28668 net.cpp:157] Top shape: 8 256 5 5 (51200)
I0617 21:28:32.421283 28668 net.cpp:157] Top shape: 8 256 5 5 (51200)
I0617 21:28:32.421284 28668 net.cpp:157] Top shape: 8 256 5 5 (51200)
I0617 21:28:32.421288 28668 net.cpp:157] Top shape: 8 256 5 5 (51200)
I0617 21:28:32.421288 28668 net.cpp:165] Memory required for data: 1881481280
I0617 21:28:32.421290 28668 layer_factory.hpp:77] Creating layer conv8_1
I0617 21:28:32.421299 28668 net.cpp:100] Creating Layer conv8_1
I0617 21:28:32.421303 28668 net.cpp:434] conv8_1 <- conv7_2_conv7_2_relu_0_split_0
I0617 21:28:32.421306 28668 net.cpp:408] conv8_1 -> conv8_1
I0617 21:28:32.426471 28668 net.cpp:150] Setting up conv8_1
I0617 21:28:32.426484 28668 net.cpp:157] Top shape: 8 128 5 5 (25600)
I0617 21:28:32.426486 28668 net.cpp:165] Memory required for data: 1881583680
I0617 21:28:32.426493 28668 layer_factory.hpp:77] Creating layer conv8_1_relu
I0617 21:28:32.426501 28668 net.cpp:100] Creating Layer conv8_1_relu
I0617 21:28:32.426503 28668 net.cpp:434] conv8_1_relu <- conv8_1
I0617 21:28:32.426509 28668 net.cpp:395] conv8_1_relu -> conv8_1 (in-place)
I0617 21:28:32.427577 28668 net.cpp:150] Setting up conv8_1_relu
I0617 21:28:32.427587 28668 net.cpp:157] Top shape: 8 128 5 5 (25600)
I0617 21:28:32.427588 28668 net.cpp:165] Memory required for data: 1881686080
I0617 21:28:32.427590 28668 layer_factory.hpp:77] Creating layer conv8_2
I0617 21:28:32.427598 28668 net.cpp:100] Creating Layer conv8_2
I0617 21:28:32.427603 28668 net.cpp:434] conv8_2 <- conv8_1
I0617 21:28:32.427608 28668 net.cpp:408] conv8_2 -> conv8_2
I0617 21:28:32.432528 28668 net.cpp:150] Setting up conv8_2
I0617 21:28:32.432540 28668 net.cpp:157] Top shape: 8 256 3 3 (18432)
I0617 21:28:32.432543 28668 net.cpp:165] Memory required for data: 1881759808
I0617 21:28:32.432548 28668 layer_factory.hpp:77] Creating layer conv8_2_relu
I0617 21:28:32.432554 28668 net.cpp:100] Creating Layer conv8_2_relu
I0617 21:28:32.432557 28668 net.cpp:434] conv8_2_relu <- conv8_2
I0617 21:28:32.432564 28668 net.cpp:395] conv8_2_relu -> conv8_2 (in-place)
I0617 21:28:32.433545 28668 net.cpp:150] Setting up conv8_2_relu
I0617 21:28:32.433555 28668 net.cpp:157] Top shape: 8 256 3 3 (18432)
I0617 21:28:32.433559 28668 net.cpp:165] Memory required for data: 1881833536
I0617 21:28:32.433563 28668 layer_factory.hpp:77] Creating layer conv8_2_conv8_2_relu_0_split
I0617 21:28:32.433570 28668 net.cpp:100] Creating Layer conv8_2_conv8_2_relu_0_split
I0617 21:28:32.433573 28668 net.cpp:434] conv8_2_conv8_2_relu_0_split <- conv8_2
I0617 21:28:32.433580 28668 net.cpp:408] conv8_2_conv8_2_relu_0_split -> conv8_2_conv8_2_relu_0_split_0
I0617 21:28:32.433589 28668 net.cpp:408] conv8_2_conv8_2_relu_0_split -> conv8_2_conv8_2_relu_0_split_1
I0617 21:28:32.433596 28668 net.cpp:408] conv8_2_conv8_2_relu_0_split -> conv8_2_conv8_2_relu_0_split_2
I0617 21:28:32.433604 28668 net.cpp:408] conv8_2_conv8_2_relu_0_split -> conv8_2_conv8_2_relu_0_split_3
I0617 21:28:32.433694 28668 net.cpp:150] Setting up conv8_2_conv8_2_relu_0_split
I0617 21:28:32.433701 28668 net.cpp:157] Top shape: 8 256 3 3 (18432)
I0617 21:28:32.433706 28668 net.cpp:157] Top shape: 8 256 3 3 (18432)
I0617 21:28:32.433712 28668 net.cpp:157] Top shape: 8 256 3 3 (18432)
I0617 21:28:32.433717 28668 net.cpp:157] Top shape: 8 256 3 3 (18432)
I0617 21:28:32.433720 28668 net.cpp:165] Memory required for data: 1882128448
I0617 21:28:32.433722 28668 layer_factory.hpp:77] Creating layer conv9_1
I0617 21:28:32.433734 28668 net.cpp:100] Creating Layer conv9_1
I0617 21:28:32.433737 28668 net.cpp:434] conv9_1 <- conv8_2_conv8_2_relu_0_split_0
I0617 21:28:32.433744 28668 net.cpp:408] conv9_1 -> conv9_1
I0617 21:28:32.437363 28668 net.cpp:150] Setting up conv9_1
I0617 21:28:32.437379 28668 net.cpp:157] Top shape: 8 128 3 3 (9216)
I0617 21:28:32.437381 28668 net.cpp:165] Memory required for data: 1882165312
I0617 21:28:32.437399 28668 layer_factory.hpp:77] Creating layer conv9_1_relu
I0617 21:28:32.437404 28668 net.cpp:100] Creating Layer conv9_1_relu
I0617 21:28:32.437407 28668 net.cpp:434] conv9_1_relu <- conv9_1
I0617 21:28:32.437412 28668 net.cpp:395] conv9_1_relu -> conv9_1 (in-place)
I0617 21:28:32.438405 28668 net.cpp:150] Setting up conv9_1_relu
I0617 21:28:32.438413 28668 net.cpp:157] Top shape: 8 128 3 3 (9216)
I0617 21:28:32.438416 28668 net.cpp:165] Memory required for data: 1882202176
I0617 21:28:32.438417 28668 layer_factory.hpp:77] Creating layer conv9_2
I0617 21:28:32.438426 28668 net.cpp:100] Creating Layer conv9_2
I0617 21:28:32.438428 28668 net.cpp:434] conv9_2 <- conv9_1
I0617 21:28:32.438433 28668 net.cpp:408] conv9_2 -> conv9_2
I0617 21:28:32.443289 28668 net.cpp:150] Setting up conv9_2
I0617 21:28:32.443306 28668 net.cpp:157] Top shape: 8 256 1 1 (2048)
I0617 21:28:32.443310 28668 net.cpp:165] Memory required for data: 1882210368
I0617 21:28:32.443317 28668 layer_factory.hpp:77] Creating layer conv9_2_relu
I0617 21:28:32.443323 28668 net.cpp:100] Creating Layer conv9_2_relu
I0617 21:28:32.443330 28668 net.cpp:434] conv9_2_relu <- conv9_2
I0617 21:28:32.443334 28668 net.cpp:395] conv9_2_relu -> conv9_2 (in-place)
I0617 21:28:32.444453 28668 net.cpp:150] Setting up conv9_2_relu
I0617 21:28:32.444461 28668 net.cpp:157] Top shape: 8 256 1 1 (2048)
I0617 21:28:32.444466 28668 net.cpp:165] Memory required for data: 1882218560
I0617 21:28:32.444469 28668 layer_factory.hpp:77] Creating layer conv9_2_conv9_2_relu_0_split
I0617 21:28:32.444476 28668 net.cpp:100] Creating Layer conv9_2_conv9_2_relu_0_split
I0617 21:28:32.444479 28668 net.cpp:434] conv9_2_conv9_2_relu_0_split <- conv9_2
I0617 21:28:32.444486 28668 net.cpp:408] conv9_2_conv9_2_relu_0_split -> conv9_2_conv9_2_relu_0_split_0
I0617 21:28:32.444494 28668 net.cpp:408] conv9_2_conv9_2_relu_0_split -> conv9_2_conv9_2_relu_0_split_1
I0617 21:28:32.444500 28668 net.cpp:408] conv9_2_conv9_2_relu_0_split -> conv9_2_conv9_2_relu_0_split_2
I0617 21:28:32.444573 28668 net.cpp:150] Setting up conv9_2_conv9_2_relu_0_split
I0617 21:28:32.444579 28668 net.cpp:157] Top shape: 8 256 1 1 (2048)
I0617 21:28:32.444584 28668 net.cpp:157] Top shape: 8 256 1 1 (2048)
I0617 21:28:32.444588 28668 net.cpp:157] Top shape: 8 256 1 1 (2048)
I0617 21:28:32.444592 28668 net.cpp:165] Memory required for data: 1882243136
I0617 21:28:32.444594 28668 layer_factory.hpp:77] Creating layer conv4_3_norm
I0617 21:28:32.444602 28668 net.cpp:100] Creating Layer conv4_3_norm
I0617 21:28:32.444605 28668 net.cpp:434] conv4_3_norm <- conv4_3_relu4_3_0_split_1
I0617 21:28:32.444609 28668 net.cpp:408] conv4_3_norm -> conv4_3_norm
I0617 21:28:32.444798 28668 net.cpp:150] Setting up conv4_3_norm
I0617 21:28:32.444803 28668 net.cpp:157] Top shape: 8 512 38 38 (5914624)
I0617 21:28:32.444805 28668 net.cpp:165] Memory required for data: 1905901632
I0617 21:28:32.444808 28668 layer_factory.hpp:77] Creating layer conv4_3_norm_conv4_3_norm_0_split
I0617 21:28:32.444814 28668 net.cpp:100] Creating Layer conv4_3_norm_conv4_3_norm_0_split
I0617 21:28:32.444818 28668 net.cpp:434] conv4_3_norm_conv4_3_norm_0_split <- conv4_3_norm
I0617 21:28:32.444820 28668 net.cpp:408] conv4_3_norm_conv4_3_norm_0_split -> conv4_3_norm_conv4_3_norm_0_split_0
I0617 21:28:32.444824 28668 net.cpp:408] conv4_3_norm_conv4_3_norm_0_split -> conv4_3_norm_conv4_3_norm_0_split_1
I0617 21:28:32.444828 28668 net.cpp:408] conv4_3_norm_conv4_3_norm_0_split -> conv4_3_norm_conv4_3_norm_0_split_2
I0617 21:28:32.444881 28668 net.cpp:150] Setting up conv4_3_norm_conv4_3_norm_0_split
I0617 21:28:32.444886 28668 net.cpp:157] Top shape: 8 512 38 38 (5914624)
I0617 21:28:32.444888 28668 net.cpp:157] Top shape: 8 512 38 38 (5914624)
I0617 21:28:32.444891 28668 net.cpp:157] Top shape: 8 512 38 38 (5914624)
I0617 21:28:32.444892 28668 net.cpp:165] Memory required for data: 1976877120
I0617 21:28:32.444895 28668 layer_factory.hpp:77] Creating layer conv4_3_norm_mbox_loc
I0617 21:28:32.444905 28668 net.cpp:100] Creating Layer conv4_3_norm_mbox_loc
I0617 21:28:32.444908 28668 net.cpp:434] conv4_3_norm_mbox_loc <- conv4_3_norm_conv4_3_norm_0_split_0
I0617 21:28:32.444926 28668 net.cpp:408] conv4_3_norm_mbox_loc -> conv4_3_norm_mbox_loc
I0617 21:28:32.448571 28668 net.cpp:150] Setting up conv4_3_norm_mbox_loc
I0617 21:28:32.448582 28668 net.cpp:157] Top shape: 8 16 38 38 (184832)
I0617 21:28:32.448585 28668 net.cpp:165] Memory required for data: 1977616448
I0617 21:28:32.448593 28668 layer_factory.hpp:77] Creating layer conv4_3_norm_mbox_loc_perm
I0617 21:28:32.448601 28668 net.cpp:100] Creating Layer conv4_3_norm_mbox_loc_perm
I0617 21:28:32.448606 28668 net.cpp:434] conv4_3_norm_mbox_loc_perm <- conv4_3_norm_mbox_loc
I0617 21:28:32.448612 28668 net.cpp:408] conv4_3_norm_mbox_loc_perm -> conv4_3_norm_mbox_loc_perm
I0617 21:28:32.448745 28668 net.cpp:150] Setting up conv4_3_norm_mbox_loc_perm
I0617 21:28:32.448750 28668 net.cpp:157] Top shape: 8 38 38 16 (184832)
I0617 21:28:32.448752 28668 net.cpp:165] Memory required for data: 1978355776
I0617 21:28:32.448753 28668 layer_factory.hpp:77] Creating layer conv4_3_norm_mbox_loc_flat
I0617 21:28:32.448758 28668 net.cpp:100] Creating Layer conv4_3_norm_mbox_loc_flat
I0617 21:28:32.448761 28668 net.cpp:434] conv4_3_norm_mbox_loc_flat <- conv4_3_norm_mbox_loc_perm
I0617 21:28:32.448765 28668 net.cpp:408] conv4_3_norm_mbox_loc_flat -> conv4_3_norm_mbox_loc_flat
I0617 21:28:32.448803 28668 net.cpp:150] Setting up conv4_3_norm_mbox_loc_flat
I0617 21:28:32.448809 28668 net.cpp:157] Top shape: 8 23104 (184832)
I0617 21:28:32.448812 28668 net.cpp:165] Memory required for data: 1979095104
I0617 21:28:32.448813 28668 layer_factory.hpp:77] Creating layer conv4_3_norm_mbox_conf
I0617 21:28:32.448825 28668 net.cpp:100] Creating Layer conv4_3_norm_mbox_conf
I0617 21:28:32.448828 28668 net.cpp:434] conv4_3_norm_mbox_conf <- conv4_3_norm_conv4_3_norm_0_split_1
I0617 21:28:32.448833 28668 net.cpp:408] conv4_3_norm_mbox_conf -> conv4_3_norm_mbox_conf
I0617 21:28:32.454139 28668 net.cpp:150] Setting up conv4_3_norm_mbox_conf
I0617 21:28:32.454150 28668 net.cpp:157] Top shape: 8 84 38 38 (970368)
I0617 21:28:32.454152 28668 net.cpp:165] Memory required for data: 1982976576
I0617 21:28:32.454157 28668 layer_factory.hpp:77] Creating layer conv4_3_norm_mbox_conf_perm
I0617 21:28:32.454175 28668 net.cpp:100] Creating Layer conv4_3_norm_mbox_conf_perm
I0617 21:28:32.454177 28668 net.cpp:434] conv4_3_norm_mbox_conf_perm <- conv4_3_norm_mbox_conf
I0617 21:28:32.454182 28668 net.cpp:408] conv4_3_norm_mbox_conf_perm -> conv4_3_norm_mbox_conf_perm
I0617 21:28:32.454319 28668 net.cpp:150] Setting up conv4_3_norm_mbox_conf_perm
I0617 21:28:32.454325 28668 net.cpp:157] Top shape: 8 38 38 84 (970368)
I0617 21:28:32.454327 28668 net.cpp:165] Memory required for data: 1986858048
I0617 21:28:32.454329 28668 layer_factory.hpp:77] Creating layer conv4_3_norm_mbox_conf_flat
I0617 21:28:32.454332 28668 net.cpp:100] Creating Layer conv4_3_norm_mbox_conf_flat
I0617 21:28:32.454336 28668 net.cpp:434] conv4_3_norm_mbox_conf_flat <- conv4_3_norm_mbox_conf_perm
I0617 21:28:32.454340 28668 net.cpp:408] conv4_3_norm_mbox_conf_flat -> conv4_3_norm_mbox_conf_flat
I0617 21:28:32.454370 28668 net.cpp:150] Setting up conv4_3_norm_mbox_conf_flat
I0617 21:28:32.454375 28668 net.cpp:157] Top shape: 8 121296 (970368)
I0617 21:28:32.454377 28668 net.cpp:165] Memory required for data: 1990739520
I0617 21:28:32.454378 28668 layer_factory.hpp:77] Creating layer conv4_3_norm_mbox_priorbox
I0617 21:28:32.454383 28668 net.cpp:100] Creating Layer conv4_3_norm_mbox_priorbox
I0617 21:28:32.454388 28668 net.cpp:434] conv4_3_norm_mbox_priorbox <- conv4_3_norm_conv4_3_norm_0_split_2
I0617 21:28:32.454391 28668 net.cpp:434] conv4_3_norm_mbox_priorbox <- data_data_0_split_1
I0617 21:28:32.454396 28668 net.cpp:408] conv4_3_norm_mbox_priorbox -> conv4_3_norm_mbox_priorbox
I0617 21:28:32.454430 28668 net.cpp:150] Setting up conv4_3_norm_mbox_priorbox
I0617 21:28:32.454437 28668 net.cpp:157] Top shape: 1 2 23104 (46208)
I0617 21:28:32.454437 28668 net.cpp:165] Memory required for data: 1990924352
I0617 21:28:32.454439 28668 layer_factory.hpp:77] Creating layer fc7_mbox_loc
I0617 21:28:32.454457 28668 net.cpp:100] Creating Layer fc7_mbox_loc
I0617 21:28:32.454462 28668 net.cpp:434] fc7_mbox_loc <- fc7_relu7_0_split_1
I0617 21:28:32.454468 28668 net.cpp:408] fc7_mbox_loc -> fc7_mbox_loc
I0617 21:28:32.458570 28668 net.cpp:150] Setting up fc7_mbox_loc
I0617 21:28:32.458582 28668 net.cpp:157] Top shape: 8 24 19 19 (69312)
I0617 21:28:32.458585 28668 net.cpp:165] Memory required for data: 1991201600
I0617 21:28:32.458590 28668 layer_factory.hpp:77] Creating layer fc7_mbox_loc_perm
I0617 21:28:32.458596 28668 net.cpp:100] Creating Layer fc7_mbox_loc_perm
I0617 21:28:32.458601 28668 net.cpp:434] fc7_mbox_loc_perm <- fc7_mbox_loc
I0617 21:28:32.458607 28668 net.cpp:408] fc7_mbox_loc_perm -> fc7_mbox_loc_perm
I0617 21:28:32.458739 28668 net.cpp:150] Setting up fc7_mbox_loc_perm
I0617 21:28:32.458746 28668 net.cpp:157] Top shape: 8 19 19 24 (69312)
I0617 21:28:32.458750 28668 net.cpp:165] Memory required for data: 1991478848
I0617 21:28:32.458751 28668 layer_factory.hpp:77] Creating layer fc7_mbox_loc_flat
I0617 21:28:32.458755 28668 net.cpp:100] Creating Layer fc7_mbox_loc_flat
I0617 21:28:32.458758 28668 net.cpp:434] fc7_mbox_loc_flat <- fc7_mbox_loc_perm
I0617 21:28:32.458762 28668 net.cpp:408] fc7_mbox_loc_flat -> fc7_mbox_loc_flat
I0617 21:28:32.458791 28668 net.cpp:150] Setting up fc7_mbox_loc_flat
I0617 21:28:32.458797 28668 net.cpp:157] Top shape: 8 8664 (69312)
I0617 21:28:32.458801 28668 net.cpp:165] Memory required for data: 1991756096
I0617 21:28:32.458802 28668 layer_factory.hpp:77] Creating layer fc7_mbox_conf
I0617 21:28:32.458809 28668 net.cpp:100] Creating Layer fc7_mbox_conf
I0617 21:28:32.458812 28668 net.cpp:434] fc7_mbox_conf <- fc7_relu7_0_split_2
I0617 21:28:32.458817 28668 net.cpp:408] fc7_mbox_conf -> fc7_mbox_conf
I0617 21:28:32.467998 28668 net.cpp:150] Setting up fc7_mbox_conf
I0617 21:28:32.468017 28668 net.cpp:157] Top shape: 8 126 19 19 (363888)
I0617 21:28:32.468019 28668 net.cpp:165] Memory required for data: 1993211648
I0617 21:28:32.468025 28668 layer_factory.hpp:77] Creating layer fc7_mbox_conf_perm
I0617 21:28:32.468031 28668 net.cpp:100] Creating Layer fc7_mbox_conf_perm
I0617 21:28:32.468035 28668 net.cpp:434] fc7_mbox_conf_perm <- fc7_mbox_conf
I0617 21:28:32.468040 28668 net.cpp:408] fc7_mbox_conf_perm -> fc7_mbox_conf_perm
I0617 21:28:32.468183 28668 net.cpp:150] Setting up fc7_mbox_conf_perm
I0617 21:28:32.468189 28668 net.cpp:157] Top shape: 8 19 19 126 (363888)
I0617 21:28:32.468191 28668 net.cpp:165] Memory required for data: 1994667200
I0617 21:28:32.468195 28668 layer_factory.hpp:77] Creating layer fc7_mbox_conf_flat
I0617 21:28:32.468202 28668 net.cpp:100] Creating Layer fc7_mbox_conf_flat
I0617 21:28:32.468205 28668 net.cpp:434] fc7_mbox_conf_flat <- fc7_mbox_conf_perm
I0617 21:28:32.468211 28668 net.cpp:408] fc7_mbox_conf_flat -> fc7_mbox_conf_flat
I0617 21:28:32.468246 28668 net.cpp:150] Setting up fc7_mbox_conf_flat
I0617 21:28:32.468252 28668 net.cpp:157] Top shape: 8 45486 (363888)
I0617 21:28:32.468255 28668 net.cpp:165] Memory required for data: 1996122752
I0617 21:28:32.468260 28668 layer_factory.hpp:77] Creating layer fc7_mbox_priorbox
I0617 21:28:32.468266 28668 net.cpp:100] Creating Layer fc7_mbox_priorbox
I0617 21:28:32.468271 28668 net.cpp:434] fc7_mbox_priorbox <- fc7_relu7_0_split_3
I0617 21:28:32.468274 28668 net.cpp:434] fc7_mbox_priorbox <- data_data_0_split_2
I0617 21:28:32.468281 28668 net.cpp:408] fc7_mbox_priorbox -> fc7_mbox_priorbox
I0617 21:28:32.468317 28668 net.cpp:150] Setting up fc7_mbox_priorbox
I0617 21:28:32.468322 28668 net.cpp:157] Top shape: 1 2 8664 (17328)
I0617 21:28:32.468323 28668 net.cpp:165] Memory required for data: 1996192064
I0617 21:28:32.468325 28668 layer_factory.hpp:77] Creating layer conv6_2_mbox_loc
I0617 21:28:32.468336 28668 net.cpp:100] Creating Layer conv6_2_mbox_loc
I0617 21:28:32.468340 28668 net.cpp:434] conv6_2_mbox_loc <- conv6_2_conv6_2_relu_0_split_1
I0617 21:28:32.468346 28668 net.cpp:408] conv6_2_mbox_loc -> conv6_2_mbox_loc
I0617 21:28:32.472271 28668 net.cpp:150] Setting up conv6_2_mbox_loc
I0617 21:28:32.472285 28668 net.cpp:157] Top shape: 8 24 10 10 (19200)
I0617 21:28:32.472287 28668 net.cpp:165] Memory required for data: 1996268864
I0617 21:28:32.472295 28668 layer_factory.hpp:77] Creating layer conv6_2_mbox_loc_perm
I0617 21:28:32.472302 28668 net.cpp:100] Creating Layer conv6_2_mbox_loc_perm
I0617 21:28:32.472306 28668 net.cpp:434] conv6_2_mbox_loc_perm <- conv6_2_mbox_loc
I0617 21:28:32.472311 28668 net.cpp:408] conv6_2_mbox_loc_perm -> conv6_2_mbox_loc_perm
I0617 21:28:32.472448 28668 net.cpp:150] Setting up conv6_2_mbox_loc_perm
I0617 21:28:32.472455 28668 net.cpp:157] Top shape: 8 10 10 24 (19200)
I0617 21:28:32.472456 28668 net.cpp:165] Memory required for data: 1996345664
I0617 21:28:32.472458 28668 layer_factory.hpp:77] Creating layer conv6_2_mbox_loc_flat
I0617 21:28:32.472461 28668 net.cpp:100] Creating Layer conv6_2_mbox_loc_flat
I0617 21:28:32.472465 28668 net.cpp:434] conv6_2_mbox_loc_flat <- conv6_2_mbox_loc_perm
I0617 21:28:32.472470 28668 net.cpp:408] conv6_2_mbox_loc_flat -> conv6_2_mbox_loc_flat
I0617 21:28:32.472506 28668 net.cpp:150] Setting up conv6_2_mbox_loc_flat
I0617 21:28:32.472512 28668 net.cpp:157] Top shape: 8 2400 (19200)
I0617 21:28:32.472514 28668 net.cpp:165] Memory required for data: 1996422464
I0617 21:28:32.472517 28668 layer_factory.hpp:77] Creating layer conv6_2_mbox_conf
I0617 21:28:32.472529 28668 net.cpp:100] Creating Layer conv6_2_mbox_conf
I0617 21:28:32.472533 28668 net.cpp:434] conv6_2_mbox_conf <- conv6_2_conv6_2_relu_0_split_2
I0617 21:28:32.472540 28668 net.cpp:408] conv6_2_mbox_conf -> conv6_2_mbox_conf
I0617 21:28:32.478373 28668 net.cpp:150] Setting up conv6_2_mbox_conf
I0617 21:28:32.478387 28668 net.cpp:157] Top shape: 8 126 10 10 (100800)
I0617 21:28:32.478389 28668 net.cpp:165] Memory required for data: 1996825664
I0617 21:28:32.478397 28668 layer_factory.hpp:77] Creating layer conv6_2_mbox_conf_perm
I0617 21:28:32.478404 28668 net.cpp:100] Creating Layer conv6_2_mbox_conf_perm
I0617 21:28:32.478411 28668 net.cpp:434] conv6_2_mbox_conf_perm <- conv6_2_mbox_conf
I0617 21:28:32.478420 28668 net.cpp:408] conv6_2_mbox_conf_perm -> conv6_2_mbox_conf_perm
I0617 21:28:32.478567 28668 net.cpp:150] Setting up conv6_2_mbox_conf_perm
I0617 21:28:32.478576 28668 net.cpp:157] Top shape: 8 10 10 126 (100800)
I0617 21:28:32.478580 28668 net.cpp:165] Memory required for data: 1997228864
I0617 21:28:32.478584 28668 layer_factory.hpp:77] Creating layer conv6_2_mbox_conf_flat
I0617 21:28:32.478590 28668 net.cpp:100] Creating Layer conv6_2_mbox_conf_flat
I0617 21:28:32.478592 28668 net.cpp:434] conv6_2_mbox_conf_flat <- conv6_2_mbox_conf_perm
I0617 21:28:32.478597 28668 net.cpp:408] conv6_2_mbox_conf_flat -> conv6_2_mbox_conf_flat
I0617 21:28:32.478638 28668 net.cpp:150] Setting up conv6_2_mbox_conf_flat
I0617 21:28:32.478647 28668 net.cpp:157] Top shape: 8 12600 (100800)
I0617 21:28:32.478652 28668 net.cpp:165] Memory required for data: 1997632064
I0617 21:28:32.478654 28668 layer_factory.hpp:77] Creating layer conv6_2_mbox_priorbox
I0617 21:28:32.478659 28668 net.cpp:100] Creating Layer conv6_2_mbox_priorbox
I0617 21:28:32.478662 28668 net.cpp:434] conv6_2_mbox_priorbox <- conv6_2_conv6_2_relu_0_split_3
I0617 21:28:32.478667 28668 net.cpp:434] conv6_2_mbox_priorbox <- data_data_0_split_3
I0617 21:28:32.478673 28668 net.cpp:408] conv6_2_mbox_priorbox -> conv6_2_mbox_priorbox
I0617 21:28:32.478711 28668 net.cpp:150] Setting up conv6_2_mbox_priorbox
I0617 21:28:32.478718 28668 net.cpp:157] Top shape: 1 2 2400 (4800)
I0617 21:28:32.478720 28668 net.cpp:165] Memory required for data: 1997651264
I0617 21:28:32.478724 28668 layer_factory.hpp:77] Creating layer conv7_2_mbox_loc
I0617 21:28:32.478732 28668 net.cpp:100] Creating Layer conv7_2_mbox_loc
I0617 21:28:32.478736 28668 net.cpp:434] conv7_2_mbox_loc <- conv7_2_conv7_2_relu_0_split_1
I0617 21:28:32.478741 28668 net.cpp:408] conv7_2_mbox_loc -> conv7_2_mbox_loc
I0617 21:28:32.483060 28668 net.cpp:150] Setting up conv7_2_mbox_loc
I0617 21:28:32.483070 28668 net.cpp:157] Top shape: 8 24 5 5 (4800)
I0617 21:28:32.483086 28668 net.cpp:165] Memory required for data: 1997670464
I0617 21:28:32.483093 28668 layer_factory.hpp:77] Creating layer conv7_2_mbox_loc_perm
I0617 21:28:32.483101 28668 net.cpp:100] Creating Layer conv7_2_mbox_loc_perm
I0617 21:28:32.483104 28668 net.cpp:434] conv7_2_mbox_loc_perm <- conv7_2_mbox_loc
I0617 21:28:32.483108 28668 net.cpp:408] conv7_2_mbox_loc_perm -> conv7_2_mbox_loc_perm
I0617 21:28:32.483244 28668 net.cpp:150] Setting up conv7_2_mbox_loc_perm
I0617 21:28:32.483252 28668 net.cpp:157] Top shape: 8 5 5 24 (4800)
I0617 21:28:32.483253 28668 net.cpp:165] Memory required for data: 1997689664
I0617 21:28:32.483254 28668 layer_factory.hpp:77] Creating layer conv7_2_mbox_loc_flat
I0617 21:28:32.483259 28668 net.cpp:100] Creating Layer conv7_2_mbox_loc_flat
I0617 21:28:32.483263 28668 net.cpp:434] conv7_2_mbox_loc_flat <- conv7_2_mbox_loc_perm
I0617 21:28:32.483268 28668 net.cpp:408] conv7_2_mbox_loc_flat -> conv7_2_mbox_loc_flat
I0617 21:28:32.483301 28668 net.cpp:150] Setting up conv7_2_mbox_loc_flat
I0617 21:28:32.483307 28668 net.cpp:157] Top shape: 8 600 (4800)
I0617 21:28:32.483309 28668 net.cpp:165] Memory required for data: 1997708864
I0617 21:28:32.483311 28668 layer_factory.hpp:77] Creating layer conv7_2_mbox_conf
I0617 21:28:32.483317 28668 net.cpp:100] Creating Layer conv7_2_mbox_conf
I0617 21:28:32.483320 28668 net.cpp:434] conv7_2_mbox_conf <- conv7_2_conv7_2_relu_0_split_2
I0617 21:28:32.483325 28668 net.cpp:408] conv7_2_mbox_conf -> conv7_2_mbox_conf
I0617 21:28:32.489586 28668 net.cpp:150] Setting up conv7_2_mbox_conf
I0617 21:28:32.489603 28668 net.cpp:157] Top shape: 8 126 5 5 (25200)
I0617 21:28:32.489604 28668 net.cpp:165] Memory required for data: 1997809664
I0617 21:28:32.489610 28668 layer_factory.hpp:77] Creating layer conv7_2_mbox_conf_perm
I0617 21:28:32.489616 28668 net.cpp:100] Creating Layer conv7_2_mbox_conf_perm
I0617 21:28:32.489620 28668 net.cpp:434] conv7_2_mbox_conf_perm <- conv7_2_mbox_conf
I0617 21:28:32.489627 28668 net.cpp:408] conv7_2_mbox_conf_perm -> conv7_2_mbox_conf_perm
I0617 21:28:32.489773 28668 net.cpp:150] Setting up conv7_2_mbox_conf_perm
I0617 21:28:32.489779 28668 net.cpp:157] Top shape: 8 5 5 126 (25200)
I0617 21:28:32.489781 28668 net.cpp:165] Memory required for data: 1997910464
I0617 21:28:32.489784 28668 layer_factory.hpp:77] Creating layer conv7_2_mbox_conf_flat
I0617 21:28:32.489786 28668 net.cpp:100] Creating Layer conv7_2_mbox_conf_flat
I0617 21:28:32.489789 28668 net.cpp:434] conv7_2_mbox_conf_flat <- conv7_2_mbox_conf_perm
I0617 21:28:32.489794 28668 net.cpp:408] conv7_2_mbox_conf_flat -> conv7_2_mbox_conf_flat
I0617 21:28:32.489825 28668 net.cpp:150] Setting up conv7_2_mbox_conf_flat
I0617 21:28:32.489830 28668 net.cpp:157] Top shape: 8 3150 (25200)
I0617 21:28:32.489830 28668 net.cpp:165] Memory required for data: 1998011264
I0617 21:28:32.489832 28668 layer_factory.hpp:77] Creating layer conv7_2_mbox_priorbox
I0617 21:28:32.489838 28668 net.cpp:100] Creating Layer conv7_2_mbox_priorbox
I0617 21:28:32.489843 28668 net.cpp:434] conv7_2_mbox_priorbox <- conv7_2_conv7_2_relu_0_split_3
I0617 21:28:32.489848 28668 net.cpp:434] conv7_2_mbox_priorbox <- data_data_0_split_4
I0617 21:28:32.489856 28668 net.cpp:408] conv7_2_mbox_priorbox -> conv7_2_mbox_priorbox
I0617 21:28:32.489892 28668 net.cpp:150] Setting up conv7_2_mbox_priorbox
I0617 21:28:32.489897 28668 net.cpp:157] Top shape: 1 2 600 (1200)
I0617 21:28:32.489898 28668 net.cpp:165] Memory required for data: 1998016064
I0617 21:28:32.489902 28668 layer_factory.hpp:77] Creating layer conv8_2_mbox_loc
I0617 21:28:32.489912 28668 net.cpp:100] Creating Layer conv8_2_mbox_loc
I0617 21:28:32.489917 28668 net.cpp:434] conv8_2_mbox_loc <- conv8_2_conv8_2_relu_0_split_1
I0617 21:28:32.489923 28668 net.cpp:408] conv8_2_mbox_loc -> conv8_2_mbox_loc
I0617 21:28:32.495551 28668 net.cpp:150] Setting up conv8_2_mbox_loc
I0617 21:28:32.495566 28668 net.cpp:157] Top shape: 8 16 3 3 (1152)
I0617 21:28:32.495568 28668 net.cpp:165] Memory required for data: 1998020672
I0617 21:28:32.495597 28668 layer_factory.hpp:77] Creating layer conv8_2_mbox_loc_perm
I0617 21:28:32.495604 28668 net.cpp:100] Creating Layer conv8_2_mbox_loc_perm
I0617 21:28:32.495607 28668 net.cpp:434] conv8_2_mbox_loc_perm <- conv8_2_mbox_loc
I0617 21:28:32.495611 28668 net.cpp:408] conv8_2_mbox_loc_perm -> conv8_2_mbox_loc_perm
I0617 21:28:32.495760 28668 net.cpp:150] Setting up conv8_2_mbox_loc_perm
I0617 21:28:32.495767 28668 net.cpp:157] Top shape: 8 3 3 16 (1152)
I0617 21:28:32.495769 28668 net.cpp:165] Memory required for data: 1998025280
I0617 21:28:32.495771 28668 layer_factory.hpp:77] Creating layer conv8_2_mbox_loc_flat
I0617 21:28:32.495779 28668 net.cpp:100] Creating Layer conv8_2_mbox_loc_flat
I0617 21:28:32.495781 28668 net.cpp:434] conv8_2_mbox_loc_flat <- conv8_2_mbox_loc_perm
I0617 21:28:32.495785 28668 net.cpp:408] conv8_2_mbox_loc_flat -> conv8_2_mbox_loc_flat
I0617 21:28:32.495822 28668 net.cpp:150] Setting up conv8_2_mbox_loc_flat
I0617 21:28:32.495828 28668 net.cpp:157] Top shape: 8 144 (1152)
I0617 21:28:32.495829 28668 net.cpp:165] Memory required for data: 1998029888
I0617 21:28:32.495832 28668 layer_factory.hpp:77] Creating layer conv8_2_mbox_conf
I0617 21:28:32.495841 28668 net.cpp:100] Creating Layer conv8_2_mbox_conf
I0617 21:28:32.495846 28668 net.cpp:434] conv8_2_mbox_conf <- conv8_2_conv8_2_relu_0_split_2
I0617 21:28:32.495851 28668 net.cpp:408] conv8_2_mbox_conf -> conv8_2_mbox_conf
I0617 21:28:32.500092 28668 net.cpp:150] Setting up conv8_2_mbox_conf
I0617 21:28:32.500108 28668 net.cpp:157] Top shape: 8 84 3 3 (6048)
I0617 21:28:32.500109 28668 net.cpp:165] Memory required for data: 1998054080
I0617 21:28:32.500116 28668 layer_factory.hpp:77] Creating layer conv8_2_mbox_conf_perm
I0617 21:28:32.500123 28668 net.cpp:100] Creating Layer conv8_2_mbox_conf_perm
I0617 21:28:32.500125 28668 net.cpp:434] conv8_2_mbox_conf_perm <- conv8_2_mbox_conf
I0617 21:28:32.500130 28668 net.cpp:408] conv8_2_mbox_conf_perm -> conv8_2_mbox_conf_perm
I0617 21:28:32.500274 28668 net.cpp:150] Setting up conv8_2_mbox_conf_perm
I0617 21:28:32.500280 28668 net.cpp:157] Top shape: 8 3 3 84 (6048)
I0617 21:28:32.500283 28668 net.cpp:165] Memory required for data: 1998078272
I0617 21:28:32.500285 28668 layer_factory.hpp:77] Creating layer conv8_2_mbox_conf_flat
I0617 21:28:32.500293 28668 net.cpp:100] Creating Layer conv8_2_mbox_conf_flat
I0617 21:28:32.500298 28668 net.cpp:434] conv8_2_mbox_conf_flat <- conv8_2_mbox_conf_perm
I0617 21:28:32.500303 28668 net.cpp:408] conv8_2_mbox_conf_flat -> conv8_2_mbox_conf_flat
I0617 21:28:32.500339 28668 net.cpp:150] Setting up conv8_2_mbox_conf_flat
I0617 21:28:32.500344 28668 net.cpp:157] Top shape: 8 756 (6048)
I0617 21:28:32.500346 28668 net.cpp:165] Memory required for data: 1998102464
I0617 21:28:32.500349 28668 layer_factory.hpp:77] Creating layer conv8_2_mbox_priorbox
I0617 21:28:32.500357 28668 net.cpp:100] Creating Layer conv8_2_mbox_priorbox
I0617 21:28:32.500361 28668 net.cpp:434] conv8_2_mbox_priorbox <- conv8_2_conv8_2_relu_0_split_3
I0617 21:28:32.500365 28668 net.cpp:434] conv8_2_mbox_priorbox <- data_data_0_split_5
I0617 21:28:32.500370 28668 net.cpp:408] conv8_2_mbox_priorbox -> conv8_2_mbox_priorbox
I0617 21:28:32.500406 28668 net.cpp:150] Setting up conv8_2_mbox_priorbox
I0617 21:28:32.500411 28668 net.cpp:157] Top shape: 1 2 144 (288)
I0617 21:28:32.500412 28668 net.cpp:165] Memory required for data: 1998103616
I0617 21:28:32.500413 28668 layer_factory.hpp:77] Creating layer conv9_2_mbox_loc
I0617 21:28:32.500425 28668 net.cpp:100] Creating Layer conv9_2_mbox_loc
I0617 21:28:32.500429 28668 net.cpp:434] conv9_2_mbox_loc <- conv9_2_conv9_2_relu_0_split_0
I0617 21:28:32.500434 28668 net.cpp:408] conv9_2_mbox_loc -> conv9_2_mbox_loc
I0617 21:28:32.502709 28668 net.cpp:150] Setting up conv9_2_mbox_loc
I0617 21:28:32.502720 28668 net.cpp:157] Top shape: 8 16 1 1 (128)
I0617 21:28:32.502722 28668 net.cpp:165] Memory required for data: 1998104128
I0617 21:28:32.502729 28668 layer_factory.hpp:77] Creating layer conv9_2_mbox_loc_perm
I0617 21:28:32.502749 28668 net.cpp:100] Creating Layer conv9_2_mbox_loc_perm
I0617 21:28:32.502753 28668 net.cpp:434] conv9_2_mbox_loc_perm <- conv9_2_mbox_loc
I0617 21:28:32.502756 28668 net.cpp:408] conv9_2_mbox_loc_perm -> conv9_2_mbox_loc_perm
I0617 21:28:32.502898 28668 net.cpp:150] Setting up conv9_2_mbox_loc_perm
I0617 21:28:32.502903 28668 net.cpp:157] Top shape: 8 1 1 16 (128)
I0617 21:28:32.502905 28668 net.cpp:165] Memory required for data: 1998104640
I0617 21:28:32.502907 28668 layer_factory.hpp:77] Creating layer conv9_2_mbox_loc_flat
I0617 21:28:32.502910 28668 net.cpp:100] Creating Layer conv9_2_mbox_loc_flat
I0617 21:28:32.502912 28668 net.cpp:434] conv9_2_mbox_loc_flat <- conv9_2_mbox_loc_perm
I0617 21:28:32.502917 28668 net.cpp:408] conv9_2_mbox_loc_flat -> conv9_2_mbox_loc_flat
I0617 21:28:32.502948 28668 net.cpp:150] Setting up conv9_2_mbox_loc_flat
I0617 21:28:32.502954 28668 net.cpp:157] Top shape: 8 16 (128)
I0617 21:28:32.502955 28668 net.cpp:165] Memory required for data: 1998105152
I0617 21:28:32.502956 28668 layer_factory.hpp:77] Creating layer conv9_2_mbox_conf
I0617 21:28:32.502965 28668 net.cpp:100] Creating Layer conv9_2_mbox_conf
I0617 21:28:32.502970 28668 net.cpp:434] conv9_2_mbox_conf <- conv9_2_conv9_2_relu_0_split_1
I0617 21:28:32.502977 28668 net.cpp:408] conv9_2_mbox_conf -> conv9_2_mbox_conf
I0617 21:28:32.506253 28668 net.cpp:150] Setting up conv9_2_mbox_conf
I0617 21:28:32.506263 28668 net.cpp:157] Top shape: 8 84 1 1 (672)
I0617 21:28:32.506264 28668 net.cpp:165] Memory required for data: 1998107840
I0617 21:28:32.506270 28668 layer_factory.hpp:77] Creating layer conv9_2_mbox_conf_perm
I0617 21:28:32.506278 28668 net.cpp:100] Creating Layer conv9_2_mbox_conf_perm
I0617 21:28:32.506280 28668 net.cpp:434] conv9_2_mbox_conf_perm <- conv9_2_mbox_conf
I0617 21:28:32.506285 28668 net.cpp:408] conv9_2_mbox_conf_perm -> conv9_2_mbox_conf_perm
I0617 21:28:32.506428 28668 net.cpp:150] Setting up conv9_2_mbox_conf_perm
I0617 21:28:32.506434 28668 net.cpp:157] Top shape: 8 1 1 84 (672)
I0617 21:28:32.506436 28668 net.cpp:165] Memory required for data: 1998110528
I0617 21:28:32.506439 28668 layer_factory.hpp:77] Creating layer conv9_2_mbox_conf_flat
I0617 21:28:32.506444 28668 net.cpp:100] Creating Layer conv9_2_mbox_conf_flat
I0617 21:28:32.506448 28668 net.cpp:434] conv9_2_mbox_conf_flat <- conv9_2_mbox_conf_perm
I0617 21:28:32.506453 28668 net.cpp:408] conv9_2_mbox_conf_flat -> conv9_2_mbox_conf_flat
I0617 21:28:32.506490 28668 net.cpp:150] Setting up conv9_2_mbox_conf_flat
I0617 21:28:32.506495 28668 net.cpp:157] Top shape: 8 84 (672)
I0617 21:28:32.506497 28668 net.cpp:165] Memory required for data: 1998113216
I0617 21:28:32.506500 28668 layer_factory.hpp:77] Creating layer conv9_2_mbox_priorbox
I0617 21:28:32.506507 28668 net.cpp:100] Creating Layer conv9_2_mbox_priorbox
I0617 21:28:32.506512 28668 net.cpp:434] conv9_2_mbox_priorbox <- conv9_2_conv9_2_relu_0_split_2
I0617 21:28:32.506515 28668 net.cpp:434] conv9_2_mbox_priorbox <- data_data_0_split_6
I0617 21:28:32.506521 28668 net.cpp:408] conv9_2_mbox_priorbox -> conv9_2_mbox_priorbox
I0617 21:28:32.506561 28668 net.cpp:150] Setting up conv9_2_mbox_priorbox
I0617 21:28:32.506567 28668 net.cpp:157] Top shape: 1 2 16 (32)
I0617 21:28:32.506567 28668 net.cpp:165] Memory required for data: 1998113344
I0617 21:28:32.506570 28668 layer_factory.hpp:77] Creating layer mbox_loc
I0617 21:28:32.506577 28668 net.cpp:100] Creating Layer mbox_loc
I0617 21:28:32.506579 28668 net.cpp:434] mbox_loc <- conv4_3_norm_mbox_loc_flat
I0617 21:28:32.506583 28668 net.cpp:434] mbox_loc <- fc7_mbox_loc_flat
I0617 21:28:32.506587 28668 net.cpp:434] mbox_loc <- conv6_2_mbox_loc_flat
I0617 21:28:32.506589 28668 net.cpp:434] mbox_loc <- conv7_2_mbox_loc_flat
I0617 21:28:32.506592 28668 net.cpp:434] mbox_loc <- conv8_2_mbox_loc_flat
I0617 21:28:32.506594 28668 net.cpp:434] mbox_loc <- conv9_2_mbox_loc_flat
I0617 21:28:32.506597 28668 net.cpp:408] mbox_loc -> mbox_loc
I0617 21:28:32.506635 28668 net.cpp:150] Setting up mbox_loc
I0617 21:28:32.506641 28668 net.cpp:157] Top shape: 8 34928 (279424)
I0617 21:28:32.506654 28668 net.cpp:165] Memory required for data: 1999231040
I0617 21:28:32.506657 28668 layer_factory.hpp:77] Creating layer mbox_conf
I0617 21:28:32.506662 28668 net.cpp:100] Creating Layer mbox_conf
I0617 21:28:32.506666 28668 net.cpp:434] mbox_conf <- conv4_3_norm_mbox_conf_flat
I0617 21:28:32.506670 28668 net.cpp:434] mbox_conf <- fc7_mbox_conf_flat
I0617 21:28:32.506676 28668 net.cpp:434] mbox_conf <- conv6_2_mbox_conf_flat
I0617 21:28:32.506680 28668 net.cpp:434] mbox_conf <- conv7_2_mbox_conf_flat
I0617 21:28:32.506683 28668 net.cpp:434] mbox_conf <- conv8_2_mbox_conf_flat
I0617 21:28:32.506686 28668 net.cpp:434] mbox_conf <- conv9_2_mbox_conf_flat
I0617 21:28:32.506691 28668 net.cpp:408] mbox_conf -> mbox_conf
I0617 21:28:32.506726 28668 net.cpp:150] Setting up mbox_conf
I0617 21:28:32.506731 28668 net.cpp:157] Top shape: 8 183372 (1466976)
I0617 21:28:32.506732 28668 net.cpp:165] Memory required for data: 2005098944
I0617 21:28:32.506736 28668 layer_factory.hpp:77] Creating layer mbox_priorbox
I0617 21:28:32.506742 28668 net.cpp:100] Creating Layer mbox_priorbox
I0617 21:28:32.506747 28668 net.cpp:434] mbox_priorbox <- conv4_3_norm_mbox_priorbox
I0617 21:28:32.506750 28668 net.cpp:434] mbox_priorbox <- fc7_mbox_priorbox
I0617 21:28:32.506754 28668 net.cpp:434] mbox_priorbox <- conv6_2_mbox_priorbox
I0617 21:28:32.506758 28668 net.cpp:434] mbox_priorbox <- conv7_2_mbox_priorbox
I0617 21:28:32.506762 28668 net.cpp:434] mbox_priorbox <- conv8_2_mbox_priorbox
I0617 21:28:32.506765 28668 net.cpp:434] mbox_priorbox <- conv9_2_mbox_priorbox
I0617 21:28:32.506768 28668 net.cpp:408] mbox_priorbox -> mbox_priorbox
I0617 21:28:32.506801 28668 net.cpp:150] Setting up mbox_priorbox
I0617 21:28:32.506806 28668 net.cpp:157] Top shape: 1 2 34928 (69856)
I0617 21:28:32.506808 28668 net.cpp:165] Memory required for data: 2005378368
I0617 21:28:32.506809 28668 layer_factory.hpp:77] Creating layer mbox_conf_reshape
I0617 21:28:32.506819 28668 net.cpp:100] Creating Layer mbox_conf_reshape
I0617 21:28:32.506822 28668 net.cpp:434] mbox_conf_reshape <- mbox_conf
I0617 21:28:32.506825 28668 net.cpp:408] mbox_conf_reshape -> mbox_conf_reshape
I0617 21:28:32.506865 28668 net.cpp:150] Setting up mbox_conf_reshape
I0617 21:28:32.506870 28668 net.cpp:157] Top shape: 8 8732 21 (1466976)
I0617 21:28:32.506871 28668 net.cpp:165] Memory required for data: 2011246272
I0617 21:28:32.506873 28668 layer_factory.hpp:77] Creating layer mbox_conf_softmax
I0617 21:28:32.506880 28668 net.cpp:100] Creating Layer mbox_conf_softmax
I0617 21:28:32.506884 28668 net.cpp:434] mbox_conf_softmax <- mbox_conf_reshape
I0617 21:28:32.506889 28668 net.cpp:408] mbox_conf_softmax -> mbox_conf_softmax
I0617 21:28:32.507742 28668 net.cpp:150] Setting up mbox_conf_softmax
I0617 21:28:32.507752 28668 net.cpp:157] Top shape: 8 8732 21 (1466976)
I0617 21:28:32.507755 28668 net.cpp:165] Memory required for data: 2017114176
I0617 21:28:32.507757 28668 layer_factory.hpp:77] Creating layer mbox_conf_flatten
I0617 21:28:32.507763 28668 net.cpp:100] Creating Layer mbox_conf_flatten
I0617 21:28:32.507768 28668 net.cpp:434] mbox_conf_flatten <- mbox_conf_softmax
I0617 21:28:32.507774 28668 net.cpp:408] mbox_conf_flatten -> mbox_conf_flatten
I0617 21:28:32.507812 28668 net.cpp:150] Setting up mbox_conf_flatten
I0617 21:28:32.507820 28668 net.cpp:157] Top shape: 8 183372 (1466976)
I0617 21:28:32.507824 28668 net.cpp:165] Memory required for data: 2022982080
I0617 21:28:32.507827 28668 layer_factory.hpp:77] Creating layer detection_out
I0617 21:28:32.507840 28668 net.cpp:100] Creating Layer detection_out
I0617 21:28:32.507843 28668 net.cpp:434] detection_out <- mbox_loc
I0617 21:28:32.507846 28668 net.cpp:434] detection_out <- mbox_conf_flatten
I0617 21:28:32.507850 28668 net.cpp:434] detection_out <- mbox_priorbox
I0617 21:28:32.507856 28668 net.cpp:408] detection_out -> detection_out
I0617 21:28:32.509316 28668 net.cpp:150] Setting up detection_out
I0617 21:28:32.509325 28668 net.cpp:157] Top shape: 1 1 1 7 (7)
I0617 21:28:32.509327 28668 net.cpp:165] Memory required for data: 2022982108
I0617 21:28:32.509341 28668 layer_factory.hpp:77] Creating layer detection_eval
I0617 21:28:32.509348 28668 net.cpp:100] Creating Layer detection_eval
I0617 21:28:32.509352 28668 net.cpp:434] detection_eval <- detection_out
I0617 21:28:32.509356 28668 net.cpp:434] detection_eval <- label
I0617 21:28:32.509359 28668 net.cpp:408] detection_eval -> detection_eval
I0617 21:28:32.510155 28668 net.cpp:150] Setting up detection_eval
I0617 21:28:32.510162 28668 net.cpp:157] Top shape: 1 1 21 5 (105)
I0617 21:28:32.510164 28668 net.cpp:165] Memory required for data: 2022982528
I0617 21:28:32.510167 28668 net.cpp:228] detection_eval does not need backward computation.
I0617 21:28:32.510170 28668 net.cpp:228] detection_out does not need backward computation.
I0617 21:28:32.510174 28668 net.cpp:228] mbox_conf_flatten does not need backward computation.
I0617 21:28:32.510179 28668 net.cpp:228] mbox_conf_softmax does not need backward computation.
…
