…
      sampler {
        min_scale: 0.3
        max_scale: 1
        min_aspect_ratio: 0.5
        max_aspect_ratio: 2
      }
      sample_constraint {
        min_jaccard_overlap: 0.9
      }
      max_sample: 1
      max_trials: 50
    }
    batch_sampler {
      sampler {
        min_scale: 0.3
        max_scale: 1
        min_aspect_ratio: 0.5
        max_aspect_ratio: 2
      }
      sample_constraint {
        max_jaccard_overlap: 1
      }
      max_sample: 1
      max_trials: 50
    }
    label_map_file: "data/VOC0712/labelmap_voc.prototxt"
  }
}
layer {
  name: "conv1"
  type: "Convolution"
  bottom: "data"
  top: "conv1"
  param {
    lr_mult: 1
    decay_mult: 1
  }
  convolution_param {
    num_output: 32
    bias_term: false
    pad: 1
    kernel_size: 3
    group: 1
    stride: 2
    weight_filler {
      type: "gaussian"
      std: 0.01
    }
    engine: DEFAULT
  }
}
layer {
  name: "conv1/bn"
  type: "BatchNorm"
  bottom: "conv1"
  top: "conv1"
  batch_norm_param {
    moving_average_fraction: 0.999
    eps: 0.001
  }
}
layer {
  name: "conv1/scale"
  type: "Scale"
  bottom: "conv1"
  top: "conv1"
  param {
    lr_mult: 1
    decay_mult: 0
  }
  param {
    lr_mult: 1
    decay_mult: 0
  }
  scale_param {
    filler {
      type: "constant"
      value: 1
    }
    bias_term: true
    bias_filler {
      type: "constant"
      value: 0
    }
  }
}
layer {
  name: "conv1_relu"
  type: "ReLU"
  bottom: "conv1"
  top: "conv1"
}
layer {
  name: "conv2_1/dw"
  type: "Convolution"
  bottom: "conv1"
  top: "conv2_1/dw"
  param {
    lr_mult: 1
    decay_mult: 1
  }
  convolution_param {
    num_output: 32
    bias_term: false
    pad: 1
    kernel_size: 3
    group: 32
    stride: 1
    weight_filler {
      type: "gaussian"
      std: 0.01
    }
    engine: CAFFE
  }
}
layer {
  name: "conv2_1/dw/bn"
  type: "BatchNorm"
  bottom: "conv2_1/dw"
  top: "conv2_1/dw"
  batch_norm_param {
    moving_average_fraction: 0.999
    eps: 0.001
  }
}
layer {
  name: "conv2_1/dw/scale"
  type: "Scale"
  bottom: "conv2_1/dw"
  top: "conv2_1/dw"
  param {
    lr_mult: 1
    decay_mult: 0
  }
  param {
    lr_mult: 1
    decay_mult: 0
  }
  scale_param {
    filler {
      type: "constant"
      value: 1
    }
    bias_term: true
    bias_filler {
      type: "constant"
      value: 0
    }
  }
}
layer {
  name: "conv2_1/dw_relu"
  type: "ReLU"
  bottom: "conv2_1/dw"
  top: "conv2_1/dw"
}
layer {
  name: "conv2_1/sep"
  type: "Convolution"
  bottom: "conv2_1/dw"
  top: "conv2_1/sep"
  param {
    lr_mult: 1
    decay_mult: 1
  }
  convolution_param {
    num_output: 64
    bias_term: false
    pad: 0
    kernel_size: 1
    group: 1
    stride: 1
    weight_filler {
      type: "gaussian"
      std: 0.01
    }
    engine: DEFAULT
  }
}
layer {
  name: "conv2_1/sep/bn"
  type: "BatchNorm"
  bottom: "conv2_1/sep"
  top: "conv2_1/sep"
  batch_norm_param {
    moving_average_fraction: 0.999
    eps: 0.001
  }
}
layer {
  name: "conv2_1/sep/scale"
  type: "Scale"
  bottom: "conv2_1/sep"
  top: "conv2_1/sep"
  param {
    lr_mult: 1
    decay_mult: 0
  }
  param {
    lr_mult: 1
    decay_mult: 0
  }
  scale_param {
    filler {
      type: "constant"
      value: 1
    }
    bias_term: true
    bias_filler {
      type: "constant"
      value: 0
    }
  }
}
layer {
  name: "conv2_1/sep_relu"
  type: "ReLU"
  bottom: "conv2_1/sep"
  top: "conv2_1/sep"
}
layer {
  name: "conv2_2/dw"
  type: "Convolution"
  bottom: "conv2_1/sep"
  top: "conv2_2/dw"
  param {
    lr_mult: 1
    decay_mult: 1
  }
  convolution_param {
    num_output: 64
    bias_term: false
    pad: 1
    kernel_size: 3
    group: 64
    stride: 2
    weight_filler {
      type: "gaussian"
      std: 0.01
    }
    engine: CAFFE
  }
}
layer {
  name: "conv2_2/dw/bn"
  type: "BatchNorm"
  bottom: "conv2_2/dw"
  top: "conv2_2/dw"
  batch_norm_param {
    moving_average_fraction: 0.999
    eps: 0.001
  }
}
layer {
  name: "conv2_2/dw/scale"
  type: "Scale"
  bottom: "conv2_2/dw"
  top: "conv2_2/dw"
  param {
    lr_mult: 1
    decay_mult: 0
  }
  param {
    lr_mult: 1
    decay_mult: 0
  }
  scale_param {
    filler {
      type: "constant"
      value: 1
    }
    bias_term: true
    bias_filler {
      type: "constant"
      value: 0
    }
  }
}
layer {
  name: "conv2_2/dw_relu"
  type: "ReLU"
  bottom: "conv2_2/dw"
  top: "conv2_2/dw"
}
layer {
  name: "conv2_2/sep"
  type: "Convolution"
  bottom: "conv2_2/dw"
  top: "conv2_2/sep"
  param {
    lr_mult: 1
    decay_mult: 1
  }
  convolution_param {
    num_output: 128
    bias_term: false
    pad: 0
    kernel_size: 1
    group: 1
    stride: 1
    weight_filler {
      type: "gaussian"
      std: 0.01
    }
    engine: DEFAULT
  }
}
layer {
  name: "conv2_2/sep/bn"
  type: "BatchNorm"
  bottom: "conv2_2/sep"
  top: "conv2_2/sep"
  batch_norm_param {
    moving_average_fraction: 0.999
    eps: 0.001
  }
}
layer {
  name: "conv2_2/sep/scale"
  type: "Scale"
  bottom: "conv2_2/sep"
  top: "conv2_2/sep"
  param {
    lr_mult: 1
    decay_mult: 0
  }
  param {
    lr_mult: 1
    decay_mult: 0
  }
  scale_param {
    filler {
      type: "constant"
      value: 1
    }
    bias_term: true
    bias_filler {
      type: "constant"
      value: 0
    }
  }
}
layer {
  name: "conv2_2/sep_relu"
  type: "ReLU"
  bottom: "conv2_2/sep"
  top: "conv2_2/sep"
}
layer {
  name: "conv3_1/dw"
  type: "Convolution"
  bottom: "conv2_2/sep"
  top: "conv3_1/dw"
  param {
    lr_mult: 1
    decay_mult: 1
  }
  convolution_param {
    num_output: 128
    bias_term: false
    pad: 1
    kernel_size: 3
    group: 128
    stride: 1
    weight_filler {
      type: "gaussian"
      std: 0.01
    }
    engine: CAFFE
  }
}
layer {
  name: "conv3_1/dw/bn"
  type: "BatchNorm"
  bottom: "conv3_1/dw"
  top: "conv3_1/dw"
  batch_norm_param {
    moving_average_fraction: 0.999
    eps: 0.001
  }
}
layer {
  name: "conv3_1/dw/scale"
  type: "Scale"
  bottom: "conv3_1/dw"
  top: "conv3_1/dw"
  param {
    lr_mult: 1
    decay_mult: 0
  }
  param {
    lr_mult: 1
    decay_mult: 0
  }
  scale_param {
    filler {
      type: "constant"
      value: 1
    }
    bias_term: true
    bias_filler {
      type: "constant"
      value: 0
    }
  }
}
layer {
  name: "conv3_1/dw_relu"
  type: "ReLU"
  bottom: "conv3_1/dw"
  top: "conv3_1/dw"
}
layer {
  name: "conv3_1/sep"
  type: "Convolution"
  bottom: "conv3_1/dw"
  top: "conv3_1/sep"
  param {
    lr_mult: 1
    decay_mult: 1
  }
  convolution_param {
    num_output: 128
    bias_term: false
    pad: 0
    kernel_size: 1
    group: 1
    stride: 1
    weight_filler {
      type: "gaussian"
      std: 0.01
    }
    engine: DEFAULT
  }
}
layer {
  name: "conv3_1/sep/bn"
  type: "BatchNorm"
  bottom: "conv3_1/sep"
  top: "conv3_1/sep"
  batch_norm_param {
    moving_average_fraction: 0.999
    eps: 0.001
  }
}
layer {
  name: "conv3_1/sep/scale"
  type: "Scale"
  bottom: "conv3_1/sep"
  top: "conv3_1/sep"
  param {
    lr_mult: 1
    decay_mult: 0
  }
  param {
    lr_mult: 1
    decay_mult: 0
  }
  scale_param {
    filler {
      type: "constant"
      value: 1
    }
    bias_term: true
    bias_filler {
      type: "constant"
      value: 0
    }
  }
}
layer {
  name: "conv3_1/sep_relu"
  type: "ReLU"
  bottom: "conv3_1/sep"
  top: "conv3_1/sep"
}
layer {
  name: "conv3_2/dw"
  type: "Convolution"
  bottom: "conv3_1/sep"
  top: "conv3_2/dw"
  param {
    lr_mult: 1
    decay_mult: 1
  }
  convolution_param {
    num_output: 128
    bias_term: false
    pad: 1
    kernel_size: 3
    group: 128
    stride: 2
    weight_filler {
      type: "gaussian"
      std: 0.01
    }
    engine: CAFFE
  }
}
layer {
  name: "conv3_2/dw/bn"
  type: "BatchNorm"
  bottom: "conv3_2/dw"
  top: "conv3_2/dw"
  batch_norm_param {
    moving_average_fraction: 0.999
    eps: 0.001
  }
}
layer {
  name: "conv3_2/dw/scale"
  type: "Scale"
  bottom: "conv3_2/dw"
  top: "conv3_2/dw"
  param {
    lr_mult: 1
    decay_mult: 0
  }
  param {
    lr_mult: 1
    decay_mult: 0
  }
  scale_param {
    filler {
      type: "constant"
      value: 1
    }
    bias_term: true
    bias_filler {
      type: "constant"
      value: 0
    }
  }
}
layer {
  name: "conv3_2/dw_relu"
  type: "ReLU"
  bottom: "conv3_2/dw"
  top: "conv3_2/dw"
}
layer {
  name: "conv3_2/sep"
  type: "Convolution"
  bottom: "conv3_2/dw"
  top: "conv3_2/sep"
  param {
    lr_mult: 1
    decay_mult: 1
  }
  convolution_param {
    num_output: 256
    bias_term: false
    pad: 0
    kernel_size: 1
    group: 1
    stride: 1
    weight_filler {
      type: "gaussian"
      std: 0.01
    }
    engine: DEFAULT
  }
}
layer {
  name: "conv3_2/sep/bn"
  type: "BatchNorm"
  bottom: "conv3_2/sep"
  top: "conv3_2/sep"
  batch_norm_param {
    moving_average_fraction: 0.999
    eps: 0.001
  }
}
layer {
  name: "conv3_2/sep/scale"
  type: "Scale"
  bottom: "conv3_2/sep"
  top: "conv3_2/sep"
  param {
    lr_mult: 1
    decay_mult: 0
  }
  param {
    lr_mult: 1
    decay_mult: 0
  }
  scale_param {
    filler {
      type: "constant"
      value: 1
    }
    bias_term: true
    bias_filler {
      type: "constant"
      value: 0
    }
  }
}
layer {
  name: "conv3_2/sep_relu"
  type: "ReLU"
  bottom: "conv3_2/sep"
  top: "conv3_2/sep"
}
layer {
  name: "conv4_1/dw"
  type: "Convolution"
  bottom: "conv3_2/sep"
  top: "conv4_1/dw"
  param {
    lr_mult: 1
    decay_mult: 1
  }
  convolution_param {
    num_output: 256
    bias_term: false
    pad: 1
    kernel_size: 3
    group: 256
    stride: 1
    weight_filler {
      type: "gaussian"
      std: 0.01
    }
    engine: CAFFE
  }
}
layer {
  name: "conv4_1/dw/bn"
  type: "BatchNorm"
  bottom: "conv4_1/dw"
  top: "conv4_1/dw"
  batch_norm_param {
    moving_average_fraction: 0.999
    eps: 0.001
  }
}
layer {
  name: "conv4_1/dw/scale"
  type: "Scale"
  bottom: "conv4_1/dw"
  top: "conv4_1/dw"
  param {
    lr_mult: 1
    decay_mult: 0
  }
  param {
    lr_mult: 1
    decay_mult: 0
  }
  scale_param {
    filler {
      type: "constant"
      value: 1
    }
    bias_term: true
    bias_filler {
      type: "constant"
      value: 0
    }
  }
}
layer {
  name: "conv4_1/dw_relu"
  type: "ReLU"
  bottom: "conv4_1/dw"
  top: "conv4_1/dw"
}
layer {
  name: "conv4_1/sep"
  type: "Convolution"
  bottom: "conv4_1/dw"
  top: "conv4_1/sep"
  param {
    lr_mult: 1
    decay_mult: 1
  }
  convolution_param {
    num_output: 256
    bias_term: false
    pad: 0
    kernel_size: 1
    group: 1
    stride: 1
    weight_filler {
      type: "gaussian"
      std: 0.01
    }
    engine: DEFAULT
  }
}
layer {
  name: "conv4_1/sep/bn"
  type: "BatchNorm"
  bottom: "conv4_1/sep"
  top: "conv4_1/sep"
  batch_norm_param {
    moving_average_fraction: 0.999
    eps: 0.001
  }
}
layer {
  name: "conv4_1/sep/scale"
  type: "Scale"
  bottom: "conv4_1/sep"
  top: "conv4_1/sep"
  param {
    lr_mult: 1
    decay_mult: 0
  }
  param {
    lr_mult: 1
    decay_mult: 0
  }
  scale_param {
    filler {
      type: "constant"
      value: 1
    }
    bias_term: true
    bias_filler {
      type: "constant"
      value: 0
    }
  }
}
layer {
  name: "conv4_1/sep_relu"
  type: "ReLU"
  bottom: "conv4_1/sep"
  top: "conv4_1/sep"
}
layer {
  name: "conv4_2/dw"
  type: "Convolution"
  bottom: "conv4_1/sep"
  top: "conv4_2/dw"
  param {
    lr_mult: 1
    decay_mult: 1
  }
  convolution_param {
    num_output: 256
    bias_term: false
    pad: 1
    kernel_size: 3
    group: 256
    stride: 2
    weight_filler {
      type: "gaussian"
      std: 0.01
    }
    engine: CAFFE
  }
}
layer {
  name: "conv4_2/dw/bn"
  type: "BatchNorm"
  bottom: "conv4_2/dw"
  top: "conv4_2/dw"
  batch_norm_param {
    moving_average_fraction: 0.999
    eps: 0.001
  }
}
layer {
  name: "conv4_2/dw/scale"
  type: "Scale"
  bottom: "conv4_2/dw"
  top: "conv4_2/dw"
  param {
    lr_mult: 1
    decay_mult: 0
  }
  param {
    lr_mult: 1
    decay_mult: 0
  }
  scale_param {
    filler {
      type: "constant"
      value: 1
    }
    bias_term: true
    bias_filler {
      type: "constant"
      value: 0
    }
  }
}
layer {
  name: "conv4_2/dw_relu"
  type: "ReLU"
  bottom: "conv4_2/dw"
  top: "conv4_2/dw"
}
layer {
  name: "conv4_2/sep"
  type: "Convolution"
  bottom: "conv4_2/dw"
  top: "conv4_2/sep"
  param {
    lr_mult: 1
    decay_mult: 1
  }
  convolution_param {
    num_output: 512
    bias_term: false
    pad: 0
    kernel_size: 1
    group: 1
    stride: 1
    weight_filler {
      type: "gaussian"
      std: 0.01
    }
    engine: DEFAULT
  }
}
layer {
  name: "conv4_2/sep/bn"
  type: "BatchNorm"
  bottom: "conv4_2/sep"
  top: "conv4_2/sep"
  batch_norm_param {
    moving_average_fraction: 0.999
    eps: 0.001
  }
}
layer {
  name: "conv4_2/sep/scale"
  type: "Scale"
  bottom: "conv4_2/sep"
  top: "conv4_2/sep"
  param {
    lr_mult: 1
    decay_mult: 0
  }
  param {
    lr_mult: 1
    decay_mult: 0
  }
  scale_param {
    filler {
      type: "constant"
      value: 1
    }
    bias_term: true
    bias_filler {
      type: "constant"
      value: 0
    }
  }
}
layer {
  name: "conv4_2/sep_relu"
  type: "ReLU"
  bottom: "conv4_2/sep"
  top: "conv4_2/sep"
}
layer {
  name: "conv5_1/dw"
  type: "Convolution"
  bottom: "conv4_2/sep"
  top: "conv5_1/dw"
  param {
    lr_mult: 1
    decay_mult: 1
  }
  convolution_param {
    num_output: 512
    bias_term: false
    pad: 1
    kernel_size: 3
    group: 512
    stride: 1
    weight_filler {
      type: "gaussian"
      std: 0.01
    }
    engine: CAFFE
  }
}
layer {
  name: "conv5_1/dw/bn"
  type: "BatchNorm"
  bottom: "conv5_1/dw"
  top: "conv5_1/dw"
  batch_norm_param {
    moving_average_fraction: 0.999
    eps: 0.001
  }
}
layer {
  name: "conv5_1/dw/scale"
  type: "Scale"
  bottom: "conv5_1/dw"
  top: "conv5_1/dw"
  param {
    lr_mult: 1
    decay_mult: 0
  }
  param {
    lr_mult: 1
    decay_mult: 0
  }
  scale_param {
    filler {
      type: "constant"
      value: 1
    }
    bias_term: true
    bias_filler {
      type: "constant"
      value: 0
    }
  }
}
layer {
  name: "conv5_1/dw_relu"
  type: "ReLU"
  bottom: "conv5_1/dw"
  top: "conv5_1/dw"
}
layer {
  name: "conv5_1/sep"
  type: "Convolution"
  bottom: "conv5_1/dw"
  top: "conv5_1/sep"
  param {
    lr_mult: 1
    decay_mult: 1
  }
  convolution_param {
    num_output: 512
    bias_term: false
    pad: 0
    kernel_size: 1
    group: 1
    stride: 1
    weight_filler {
      type: "gaussian"
      std: 0.01
    }
    engine: DEFAULT
  }
}
layer {
  name: "conv5_1/sep/bn"
  type: "BatchNorm"
  bottom: "conv5_1/sep"
  top: "conv5_1/sep"
  batch_norm_param {
    moving_average_fraction: 0.999
    eps: 0.001
  }
}
layer {
  name: "conv5_1/sep/scale"
  type: "Scale"
  bottom: "conv5_1/sep"
  top: "conv5_1/sep"
  param {
    lr_mult: 1
    decay_mult: 0
  }
  param {
    lr_mult: 1
    decay_mult: 0
  }
  scale_param {
    filler {
      type: "constant"
      value: 1
    }
    bias_term: true
    bias_filler {
      type: "constant"
      value: 0
    }
  }
}
layer {
  name: "conv5_1/sep_relu"
  type: "ReLU"
  bottom: "conv5_1/sep"
  top: "conv5_1/sep"
}
layer {
  name: "conv5_2/dw"
  type: "Convolution"
  bottom: "conv5_1/sep"
  top: "conv5_2/dw"
  param {
    lr_mult: 1
    decay_mult: 1
  }
  convolution_param {
    num_output: 512
    bias_term: false
    pad: 1
    kernel_size: 3
    group: 512
    stride: 1
    weight_filler {
      type: "gaussian"
      std: 0.01
    }
    engine: CAFFE
  }
}
layer {
  name: "conv5_2/dw/bn"
  type: "BatchNorm"
  bottom: "conv5_2/dw"
  top: "conv5_2/dw"
  batch_norm_param {
    moving_average_fraction: 0.999
    eps: 0.001
  }
}
layer {
  name: "conv5_2/dw/scale"
  type: "Scale"
  bottom: "conv5_2/dw"
  top: "conv5_2/dw"
  param {
    lr_mult: 1
    decay_mult: 0
  }
  param {
    lr_mult: 1
    decay_mult: 0
  }
  scale_param {
    filler {
      type: "constant"
      value: 1
    }
    bias_term: true
    bias_filler {
      type: "constant"
      value: 0
    }
  }
}
layer {
  name: "conv5_2/dw_relu"
  type: "ReLU"
  bottom: "conv5_2/dw"
  top: "conv5_2/dw"
}
layer {
  name: "conv5_2/sep"
  type: "Convolution"
  bottom: "conv5_2/dw"
  top: "conv5_2/sep"
  param {
    lr_mult: 1
    decay_mult: 1
  }
  convolution_param {
    num_output: 512
    bias_term: false
    pad: 0
    kernel_size: 1
    group: 1
    stride: 1
    weight_filler {
      type: "gaussian"
      std: 0.01
    }
    engine: DEFAULT
  }
}
layer {
  name: "conv5_2/sep/bn"
  type: "BatchNorm"
  bottom: "conv5_2/sep"
  top: "conv5_2/sep"
  batch_norm_param {
    moving_average_fraction: 0.999
    eps: 0.001
  }
}
layer {
  name: "conv5_2/sep/scale"
  type: "Scale"
  bottom: "conv5_2/sep"
  top: "conv5_2/sep"
  param {
    lr_mult: 1
    decay_mult: 0
  }
  param {
    lr_mult: 1
    decay_mult: 0
  }
  scale_param {
    filler {
      type: "constant"
      value: 1
    }
    bias_term: true
    bias_filler {
      type: "constant"
      value: 0
    }
  }
}
layer {
  name: "conv5_2/sep_relu"
  type: "ReLU"
  bottom: "conv5_2/sep"
  top: "conv5_2/sep"
}
layer {
  name: "conv5_3/dw"
  type: "Convolution"
  bottom: "conv5_2/sep"
  top: "conv5_3/dw"
  param {
    lr_mult: 1
    decay_mult: 1
  }
  convolution_param {
    num_output: 512
    bias_term: false
    pad: 1
    kernel_size: 3
    group: 512
    stride: 1
    weight_filler {
      type: "gaussian"
      std: 0.01
    }
    engine: CAFFE
  }
}
layer {
  name: "conv5_3/dw/bn"
  type: "BatchNorm"
  bottom: "conv5_3/dw"
  top: "conv5_3/dw"
  batch_norm_param {
    moving_average_fraction: 0.999
    eps: 0.001
  }
}
layer {
  name: "conv5_3/dw/scale"
  type: "Scale"
  bottom: "conv5_3/dw"
  top: "conv5_3/dw"
  param {
    lr_mult: 1
    decay_mult: 0
  }
  param {
    lr_mult: 1
    decay_mult: 0
  }
  scale_param {
    filler {
      type: "constant"
      value: 1
    }
    bias_term: true
    bias_filler {
      type: "constant"
      value: 0
    }
  }
}
layer {
  name: "conv5_3/dw_relu"
  type: "ReLU"
  bottom: "conv5_3/dw"
  top: "conv5_3/dw"
}
layer {
  name: "conv5_3/sep"
  type: "Convolution"
  bottom: "conv5_3/dw"
  top: "conv5_3/sep"
  param {
    lr_mult: 1
    decay_mult: 1
  }
  convolution_param {
    num_output: 512
    bias_term: false
    pad: 0
    kernel_size: 1
    group: 1
    stride: 1
    weight_filler {
      type: "gaussian"
      std: 0.01
    }
    engine: DEFAULT
  }
}
layer {
  name: "conv5_3/sep/bn"
  type: "BatchNorm"
  bottom: "conv5_3/sep"
  top: "conv5_3/sep"
  batch_norm_param {
    moving_average_fraction: 0.999
    eps: 0.001
  }
}
layer {
  name: "conv5_3/sep/scale"
  type: "Scale"
  bottom: "conv5_3/sep"
  top: "conv5_3/sep"
  param {
    lr_mult: 1
    decay_mult: 0
  }
  param {
    lr_mult: 1
    decay_mult: 0
  }
  scale_param {
    filler {
      type: "constant"
      value: 1
    }
    bias_term: true
    bias_filler {
      type: "constant"
      value: 0
    }
  }
}
layer {
  name: "conv5_3/sep_relu"
  type: "ReLU"
  bottom: "conv5_3/sep"
  top: "conv5_3/sep"
}
layer {
  name: "conv5_4/dw"
  type: "Convolution"
  bottom: "conv5_3/sep"
  top: "conv5_4/dw"
  param {
    lr_mult: 1
    decay_mult: 1
  }
  convolution_param {
    num_output: 512
    bias_term: false
    pad: 1
    kernel_size: 3
    group: 512
    stride: 1
    weight_filler {
      type: "gaussian"
      std: 0.01
    }
    engine: CAFFE
  }
}
layer {
  name: "conv5_4/dw/bn"
  type: "BatchNorm"
  bottom: "conv5_4/dw"
  top: "conv5_4/dw"
  batch_norm_param {
    moving_average_fraction: 0.999
    eps: 0.001
  }
}
layer {
  name: "conv5_4/dw/scale"
  type: "Scale"
  bottom: "conv5_4/dw"
  top: "conv5_4/dw"
  param {
    lr_mult: 1
    decay_mult: 0
  }
  param {
    lr_mult: 1
    decay_mult: 0
  }
  scale_param {
    filler {
      type: "constant"
      value: 1
    }
    bias_term: true
    bias_filler {
      type: "constant"
      value: 0
    }
  }
}
layer {
  name: "conv5_4/dw_relu"
  type: "ReLU"
  bottom: "conv5_4/dw"
  top: "conv5_4/dw"
}
layer {
  name: "conv5_4/sep"
  type: "Convolution"
  bottom: "conv5_4/dw"
  top: "conv5_4/sep"
  param {
    lr_mult: 1
    decay_mult: 1
  }
  convolution_param {
    num_output: 512
    bias_term: false
    pad: 0
    kernel_size: 1
    group: 1
    stride: 1
    weight_filler {
      type: "gaussian"
      std: 0.01
    }
    engine: DEFAULT
  }
}
layer {
  name: "conv5_4/sep/bn"
  type: "BatchNorm"
  bottom: "conv5_4/sep"
  top: "conv5_4/sep"
  batch_norm_param {
    moving_average_fraction: 0.999
    eps: 0.001
  }
}
layer {
  name: "conv5_4/sep/scale"
  type: "Scale"
  bottom: "conv5_4/sep"
  top: "conv5_4/sep"
  param {
    lr_mult: 1
    decay_mult: 0
  }
  param {
    lr_mult: 1
    decay_mult: 0
  }
  scale_param {
    filler {
      type: "constant"
      value: 1
    }
    bias_term: true
    bias_filler {
      type: "constant"
      value: 0
    }
  }
}
layer {
  name: "conv5_4/sep_relu"
  type: "ReLU"
  bottom: "conv5_4/sep"
  top: "conv5_4/sep"
}
layer {
  name: "conv5_5/dw"
  type: "Convolution"
  bottom: "conv5_4/sep"
  top: "conv5_5/dw"
  param {
    lr_mult: 1
    decay_mult: 1
  }
  convolution_param {
    num_output: 512
    bias_term: false
    pad: 1
    kernel_size: 3
    group: 512
    stride: 1
    weight_filler {
      type: "gaussian"
      std: 0.01
    }
    engine: CAFFE
  }
}
layer {
  name: "conv5_5/dw/bn"
  type: "BatchNorm"
  bottom: "conv5_5/dw"
  top: "conv5_5/dw"
  batch_norm_param {
    moving_average_fraction: 0.999
    eps: 0.001
  }
}
layer {
  name: "conv5_5/dw/scale"
  type: "Scale"
  bottom: "conv5_5/dw"
  top: "conv5_5/dw"
  param {
    lr_mult: 1
    decay_mult: 0
  }
  param {
    lr_mult: 1
    decay_mult: 0
  }
  scale_param {
    filler {
      type: "constant"
      value: 1
    }
    bias_term: true
    bias_filler {
      type: "constant"
      value: 0
    }
  }
}
layer {
  name: "conv5_5/dw_relu"
  type: "ReLU"
  bottom: "conv5_5/dw"
  top: "conv5_5/dw"
}
layer {
  name: "conv5_5/sep"
  type: "Convolution"
  bottom: "conv5_5/dw"
  top: "conv5_5/sep"
  param {
    lr_mult: 1
    decay_mult: 1
  }
  convolution_param {
    num_output: 512
    bias_term: false
    pad: 0
    kernel_size: 1
    group: 1
    stride: 1
    weight_filler {
      type: "gaussian"
      std: 0.01
    }
    engine: DEFAULT
  }
}
layer {
  name: "conv5_5/sep/bn"
  type: "BatchNorm"
  bottom: "conv5_5/sep"
  top: "conv5_5/sep"
  batch_norm_param {
    moving_average_fraction: 0.999
    eps: 0.001
  }
}
layer {
  name: "conv5_5/sep/scale"
  type: "Scale"
  bottom: "conv5_5/sep"
  top: "conv5_5/sep"
  param {
    lr_mult: 1
    decay_mult: 0
  }
  param {
    lr_mult: 1
    decay_mult: 0
  }
  scale_param {
    filler {
      type: "constant"
      value: 1
    }
    bias_term: true
    bias_filler {
      type: "constant"
      value: 0
    }
  }
}
layer {
  name: "conv5_5/sep_relu"
  type: "ReLU"
  bottom: "conv5_5/sep"
  top: "conv5_5/sep"
}
layer {
  name: "conv5_6/dw"
  type: "Convolution"
  bottom: "conv5_5/sep"
  top: "conv5_6/dw"
  param {
    lr_mult: 1
    decay_mult: 1
  }
  convolution_param {
    num_output: 512
    bias_term: false
    pad: 1
    kernel_size: 3
    group: 512
    stride: 2
    weight_filler {
      type: "gaussian"
      std: 0.01
    }
    engine: CAFFE
  }
}
layer {
  name: "conv5_6/dw/bn"
  type: "BatchNorm"
  bottom: "conv5_6/dw"
  top: "conv5_6/dw"
  batch_norm_param {
    moving_average_fraction: 0.999
    eps: 0.001
  }
}
layer {
  name: "conv5_6/dw/scale"
  type: "Scale"
  bottom: "conv5_6/dw"
  top: "conv5_6/dw"
  param {
    lr_mult: 1
    decay_mult: 0
  }
  param {
    lr_mult: 1
    decay_mult: 0
  }
  scale_param {
    filler {
      type: "constant"
      value: 1
    }
    bias_term: true
    bias_filler {
      type: "constant"
      value: 0
    }
  }
}
layer {
  name: "conv5_6/dw_relu"
  type: "ReLU"
  bottom: "conv5_6/dw"
  top: "conv5_6/dw"
}
layer {
  name: "conv5_6/sep"
  type: "Convolution"
  bottom: "conv5_6/dw"
  top: "conv5_6/sep"
  param {
    lr_mult: 1
    decay_mult: 1
  }
  convolution_param {
    num_output: 1024
    bias_term: false
    pad: 0
    kernel_size: 1
    group: 1
    stride: 1
    weight_filler {
      type: "gaussian"
      std: 0.01
    }
    engine: DEFAULT
  }
}
layer {
  name: "conv5_6/sep/bn"
  type: "BatchNorm"
  bottom: "conv5_6/sep"
  top: "conv5_6/sep"
  batch_norm_param {
    moving_average_fraction: 0.999
    eps: 0.001
  }
}
layer {
  name: "conv5_6/sep/scale"
  type: "Scale"
  bottom: "conv5_6/sep"
  top: "conv5_6/sep"
  param {
    lr_mult: 1
    decay_mult: 0
  }
  param {
    lr_mult: 1
    decay_mult: 0
  }
  scale_param {
    filler {
      type: "constant"
      value: 1
    }
    bias_term: true
    bias_filler {
      type: "constant"
      value: 0
    }
  }
}
layer {
  name: "conv5_6/sep_relu"
  type: "ReLU"
  bottom: "conv5_6/sep"
  top: "conv5_6/sep"
}
layer {
  name: "conv6/dw"
  type: "Convolution"
  bottom: "conv5_6/sep"
  top: "conv6/dw"
  param {
    lr_mult: 1
    decay_mult: 1
  }
  convolution_param {
    num_output: 1024
    bias_term: false
    pad: 1
    kernel_size: 3
    group: 1024
    stride: 1
    weight_filler {
      type: "gaussian"
      std: 0.01
    }
    engine: CAFFE
  }
}
layer {
  name: "conv6/dw/bn"
  type: "BatchNorm"
  bottom: "conv6/dw"
  top: "conv6/dw"
  batch_norm_param {
    moving_average_fraction: 0.999
    eps: 0.001
  }
}
layer {
  name: "conv6/dw/scale"
  type: "Scale"
  bottom: "conv6/dw"
  top: "conv6/dw"
  param {
    lr_mult: 1
    decay_mult: 0
  }
  param {
    lr_mult: 1
    decay_mult: 0
  }
  scale_param {
    filler {
      type: "constant"
      value: 1
    }
    bias_term: true
    bias_filler {
      type: "constant"
      value: 0
    }
  }
}
layer {
  name: "conv6/dw_relu"
  type: "ReLU"
  bottom: "conv6/dw"
  top: "conv6/dw"
}
layer {
  name: "conv6/sep"
  type: "Convolution"
  bottom: "conv6/dw"
  top: "conv6/sep"
  param {
    lr_mult: 1
    decay_mult: 1
  }
  convolution_param {
    num_output: 1024
    bias_term: false
    pad: 0
    kernel_size: 1
    group: 1
    stride: 1
    weight_filler {
      type: "gaussian"
      std: 0.01
    }
    engine: DEFAULT
  }
}
layer {
  name: "conv6/sep/bn"
  type: "BatchNorm"
  bottom: "conv6/sep"
  top: "conv6/sep"
  batch_norm_param {
    moving_average_fraction: 0.999
    eps: 0.001
  }
}
layer {
  name: "conv6/sep/scale"
  type: "Scale"
  bottom: "conv6/sep"
  top: "conv6/sep"
  param {
    lr_mult: 1
    decay_mult: 0
  }
  param {
    lr_mult: 1
    decay_mult: 0
  }
  scale_param {
    filler {
      type: "constant"
      value: 1
    }
    bias_term: true
    bias_filler {
      type: "constant"
      value: 0
    }
  }
}
layer {
  name: "conv6/sep_relu"
  type: "ReLU"
  bottom: "conv6/sep"
  top: "conv6/sep"
}
layer {
  name: "conv7_1"
  type: "Convolution"
  bottom: "conv6/sep"
  top: "conv7_1"
  param {
    lr_mult: 1
    decay_mult: 1
  }
  param {
    lr_mult: 2
    decay_mult: 0
  }
  convolution_param {
    num_output: 256
    pad: 0
    kernel_size: 1
    group: 1
    stride: 1
    weight_filler {
      type: "xavier"
    }
    bias_filler {
      type: "constant"
      value: 0
    }
    engine: DEFAULT
  }
}
layer {
  name: "conv7_1_relu"
  type: "ReLU"
  bottom: "conv7_1"
  top: "conv7_1"
}
layer {
  name: "conv7_2"
  type: "Convolution"
  bottom: "conv7_1"
  top: "conv7_2"
  param {
    lr_mult: 1
    decay_mult: 1
  }
  param {
    lr_mult: 2
    decay_mult: 0
  }
  convolution_param {
    num_output: 512
    pad: 1
    kernel_size: 3
    group: 1
    stride: 2
    weight_filler {
      type: "xavier"
    }
    bias_filler {
      type: "constant"
      value: 0
    }
    engine: DEFAULT
  }
}
layer {
  name: "conv7_2_relu"
  type: "ReLU"
  bottom: "conv7_2"
  top: "conv7_2"
I0712 13:26:50.227077  5875 layer_factory.hpp:77] Creating layer data
I0712 13:26:50.227198  5875 net.cpp:100] Creating Layer data
I0712 13:26:50.227237  5875 net.cpp:408] data -> data
I0712 13:26:50.227263  5875 net.cpp:408] data -> label
I0712 13:26:50.228341  5881 db_lmdb.cpp:35] Opened lmdb examples/VOC0712/VOC0712_trainval_lmdb
I0712 13:26:50.242758  5875 annotated_data_layer.cpp:62] output data size: 16,3,300,300
I0712 13:26:50.270061  5875 net.cpp:150] Setting up data
I0712 13:26:50.270081  5875 net.cpp:157] Top shape: 16 3 300 300 (4320000)
I0712 13:26:50.270084  5875 net.cpp:157] Top shape: 1 1 2 8 (16)
I0712 13:26:50.270087  5875 net.cpp:165] Memory required for data: 17280064
I0712 13:26:50.270094  5875 layer_factory.hpp:77] Creating layer data_data_0_split
I0712 13:26:50.270104  5875 net.cpp:100] Creating Layer data_data_0_split
I0712 13:26:50.270108  5875 net.cpp:434] data_data_0_split <- data
I0712 13:26:50.270119  5875 net.cpp:408] data_data_0_split -> data_data_0_split_0
I0712 13:26:50.270128  5875 net.cpp:408] data_data_0_split -> data_data_0_split_1
I0712 13:26:50.270133  5875 net.cpp:408] data_data_0_split -> data_data_0_split_2
I0712 13:26:50.270138  5875 net.cpp:408] data_data_0_split -> data_data_0_split_3
I0712 13:26:50.270143  5875 net.cpp:408] data_data_0_split -> data_data_0_split_4
I0712 13:26:50.270146  5875 net.cpp:408] data_data_0_split -> data_data_0_split_5
I0712 13:26:50.270150  5875 net.cpp:408] data_data_0_split -> data_data_0_split_6
I0712 13:26:50.270283  5875 net.cpp:150] Setting up data_data_0_split
I0712 13:26:50.270290  5875 net.cpp:157] Top shape: 16 3 300 300 (4320000)
I0712 13:26:50.270292  5875 net.cpp:157] Top shape: 16 3 300 300 (4320000)
I0712 13:26:50.270295  5875 net.cpp:157] Top shape: 16 3 300 300 (4320000)
I0712 13:26:50.270298  5875 net.cpp:157] Top shape: 16 3 300 300 (4320000)
I0712 13:26:50.270300  5875 net.cpp:157] Top shape: 16 3 300 300 (4320000)
I0712 13:26:50.270303  5875 net.cpp:157] Top shape: 16 3 300 300 (4320000)
I0712 13:26:50.270305  5875 net.cpp:157] Top shape: 16 3 300 300 (4320000)
I0712 13:26:50.270306  5875 net.cpp:165] Memory required for data: 138240064
I0712 13:26:50.270308  5875 layer_factory.hpp:77] Creating layer conv1
I0712 13:26:50.270325  5875 net.cpp:100] Creating Layer conv1
I0712 13:26:50.270328  5875 net.cpp:434] conv1 <- data_data_0_split_0
I0712 13:26:50.270334  5875 net.cpp:408] conv1 -> conv1
I0712 13:26:50.335341  5882 blocking_queue.cpp:50] Waiting for data
I0712 13:26:50.526206  5875 net.cpp:150] Setting up conv1
I0712 13:26:50.526232  5875 net.cpp:157] Top shape: 16 32 150 150 (11520000)
I0712 13:26:50.526234  5875 net.cpp:165] Memory required for data: 184320064
I0712 13:26:50.526248  5875 layer_factory.hpp:77] Creating layer conv1/bn
I0712 13:26:50.526258  5875 net.cpp:100] Creating Layer conv1/bn
I0712 13:26:50.526262  5875 net.cpp:434] conv1/bn <- conv1
I0712 13:26:50.526266  5875 net.cpp:395] conv1/bn -> conv1 (in-place)
I0712 13:26:50.526859  5875 net.cpp:150] Setting up conv1/bn
I0712 13:26:50.526868  5875 net.cpp:157] Top shape: 16 32 150 150 (11520000)
I0712 13:26:50.526870  5875 net.cpp:165] Memory required for data: 230400064
I0712 13:26:50.526880  5875 layer_factory.hpp:77] Creating layer conv1/scale
I0712 13:26:50.526888  5875 net.cpp:100] Creating Layer conv1/scale
I0712 13:26:50.526891  5875 net.cpp:434] conv1/scale <- conv1
I0712 13:26:50.526895  5875 net.cpp:395] conv1/scale -> conv1 (in-place)
I0712 13:26:50.526932  5875 layer_factory.hpp:77] Creating layer conv1/scale
I0712 13:26:50.527046  5875 net.cpp:150] Setting up conv1/scale
I0712 13:26:50.527052  5875 net.cpp:157] Top shape: 16 32 150 150 (11520000)
I0712 13:26:50.527055  5875 net.cpp:165] Memory required for data: 276480064
I0712 13:26:50.527060  5875 layer_factory.hpp:77] Creating layer conv1_relu
I0712 13:26:50.527065  5875 net.cpp:100] Creating Layer conv1_relu
I0712 13:26:50.527066  5875 net.cpp:434] conv1_relu <- conv1
I0712 13:26:50.527070  5875 net.cpp:395] conv1_relu -> conv1 (in-place)
I0712 13:26:50.527206  5875 net.cpp:150] Setting up conv1_relu
I0712 13:26:50.527214  5875 net.cpp:157] Top shape: 16 32 150 150 (11520000)
I0712 13:26:50.527215  5875 net.cpp:165] Memory required for data: 322560064
I0712 13:26:50.527217  5875 layer_factory.hpp:77] Creating layer conv2_1/dw
I0712 13:26:50.527225  5875 net.cpp:100] Creating Layer conv2_1/dw
I0712 13:26:50.527226  5875 net.cpp:434] conv2_1/dw <- conv1
I0712 13:26:50.527230  5875 net.cpp:408] conv2_1/dw -> conv2_1/dw
I0712 13:26:50.527379  5875 net.cpp:150] Setting up conv2_1/dw
I0712 13:26:50.527386  5875 net.cpp:157] Top shape: 16 32 150 150 (11520000)
I0712 13:26:50.527389  5875 net.cpp:165] Memory required for data: 368640064
I0712 13:26:50.527391  5875 layer_factory.hpp:77] Creating layer conv2_1/dw/bn
I0712 13:26:50.527395  5875 net.cpp:100] Creating Layer conv2_1/dw/bn
I0712 13:26:50.527397  5875 net.cpp:434] conv2_1/dw/bn <- conv2_1/dw
I0712 13:26:50.527400  5875 net.cpp:395] conv2_1/dw/bn -> conv2_1/dw (in-place)
I0712 13:26:50.527544  5875 net.cpp:150] Setting up conv2_1/dw/bn
I0712 13:26:50.527550  5875 net.cpp:157] Top shape: 16 32 150 150 (11520000)
I0712 13:26:50.527552  5875 net.cpp:165] Memory required for data: 414720064
I0712 13:26:50.527559  5875 layer_factory.hpp:77] Creating layer conv2_1/dw/scale
I0712 13:26:50.527565  5875 net.cpp:100] Creating Layer conv2_1/dw/scale
I0712 13:26:50.527566  5875 net.cpp:434] conv2_1/dw/scale <- conv2_1/dw
I0712 13:26:50.527570  5875 net.cpp:395] conv2_1/dw/scale -> conv2_1/dw (in-place)
I0712 13:26:50.527618  5875 layer_factory.hpp:77] Creating layer conv2_1/dw/scale
I0712 13:26:50.527724  5875 net.cpp:150] Setting up conv2_1/dw/scale
I0712 13:26:50.527730  5875 net.cpp:157] Top shape: 16 32 150 150 (11520000)
I0712 13:26:50.527732  5875 net.cpp:165] Memory required for data: 460800064
I0712 13:26:50.527736  5875 layer_factory.hpp:77] Creating layer conv2_1/dw_relu
I0712 13:26:50.527740  5875 net.cpp:100] Creating Layer conv2_1/dw_relu
I0712 13:26:50.527741  5875 net.cpp:434] conv2_1/dw_relu <- conv2_1/dw
I0712 13:26:50.527745  5875 net.cpp:395] conv2_1/dw_relu -> conv2_1/dw (in-place)
I0712 13:26:50.528302  5875 net.cpp:150] Setting up conv2_1/dw_relu
I0712 13:26:50.528311  5875 net.cpp:157] Top shape: 16 32 150 150 (11520000)
I0712 13:26:50.528313  5875 net.cpp:165] Memory required for data: 506880064
I0712 13:26:50.528316  5875 layer_factory.hpp:77] Creating layer conv2_1/sep
I0712 13:26:50.528321  5875 net.cpp:100] Creating Layer conv2_1/sep
I0712 13:26:50.528324  5875 net.cpp:434] conv2_1/sep <- conv2_1/dw
I0712 13:26:50.528327  5875 net.cpp:408] conv2_1/sep -> conv2_1/sep
I0712 13:26:50.529716  5875 net.cpp:150] Setting up conv2_1/sep
I0712 13:26:50.529726  5875 net.cpp:157] Top shape: 16 64 150 150 (23040000)
I0712 13:26:50.529728  5875 net.cpp:165] Memory required for data: 599040064
I0712 13:26:50.529732  5875 layer_factory.hpp:77] Creating layer conv2_1/sep/bn
I0712 13:26:50.529736  5875 net.cpp:100] Creating Layer conv2_1/sep/bn
I0712 13:26:50.529738  5875 net.cpp:434] conv2_1/sep/bn <- conv2_1/sep
I0712 13:26:50.529742  5875 net.cpp:395] conv2_1/sep/bn -> conv2_1/sep (in-place)
I0712 13:26:50.529898  5875 net.cpp:150] Setting up conv2_1/sep/bn
I0712 13:26:50.529904  5875 net.cpp:157] Top shape: 16 64 150 150 (23040000)
I0712 13:26:50.529906  5875 net.cpp:165] Memory required for data: 691200064
I0712 13:26:50.529911  5875 layer_factory.hpp:77] Creating layer conv2_1/sep/scale
I0712 13:26:50.529917  5875 net.cpp:100] Creating Layer conv2_1/sep/scale
I0712 13:26:50.529918  5875 net.cpp:434] conv2_1/sep/scale <- conv2_1/sep
I0712 13:26:50.529922  5875 net.cpp:395] conv2_1/sep/scale -> conv2_1/sep (in-place)
I0712 13:26:50.529950  5875 layer_factory.hpp:77] Creating layer conv2_1/sep/scale
I0712 13:26:50.530055  5875 net.cpp:150] Setting up conv2_1/sep/scale
I0712 13:26:50.530061  5875 net.cpp:157] Top shape: 16 64 150 150 (23040000)
I0712 13:26:50.530062  5875 net.cpp:165] Memory required for data: 783360064
I0712 13:26:50.530069  5875 layer_factory.hpp:77] Creating layer conv2_1/sep_relu
I0712 13:26:50.530074  5875 net.cpp:100] Creating Layer conv2_1/sep_relu
I0712 13:26:50.530076  5875 net.cpp:434] conv2_1/sep_relu <- conv2_1/sep
I0712 13:26:50.530079  5875 net.cpp:395] conv2_1/sep_relu -> conv2_1/sep (in-place)
I0712 13:26:50.530632  5875 net.cpp:150] Setting up conv2_1/sep_relu
I0712 13:26:50.530642  5875 net.cpp:157] Top shape: 16 64 150 150 (23040000)
I0712 13:26:50.530643  5875 net.cpp:165] Memory required for data: 875520064
I0712 13:26:50.530645  5875 layer_factory.hpp:77] Creating layer conv2_2/dw
I0712 13:26:50.530652  5875 net.cpp:100] Creating Layer conv2_2/dw
I0712 13:26:50.530653  5875 net.cpp:434] conv2_2/dw <- conv2_1/sep
I0712 13:26:50.530658  5875 net.cpp:408] conv2_2/dw -> conv2_2/dw
I0712 13:26:50.530810  5875 net.cpp:150] Setting up conv2_2/dw
I0712 13:26:50.530817  5875 net.cpp:157] Top shape: 16 64 75 75 (5760000)
I0712 13:26:50.530819  5875 net.cpp:165] Memory required for data: 898560064
I0712 13:26:50.530822  5875 layer_factory.hpp:77] Creating layer conv2_2/dw/bn
I0712 13:26:50.530827  5875 net.cpp:100] Creating Layer conv2_2/dw/bn
I0712 13:26:50.530829  5875 net.cpp:434] conv2_2/dw/bn <- conv2_2/dw
I0712 13:26:50.530833  5875 net.cpp:395] conv2_2/dw/bn -> conv2_2/dw (in-place)
I0712 13:26:50.531384  5875 net.cpp:150] Setting up conv2_2/dw/bn
I0712 13:26:50.531394  5875 net.cpp:157] Top shape: 16 64 75 75 (5760000)
I0712 13:26:50.531396  5875 net.cpp:165] Memory required for data: 921600064
I0712 13:26:50.531401  5875 layer_factory.hpp:77] Creating layer conv2_2/dw/scale
I0712 13:26:50.531419  5875 net.cpp:100] Creating Layer conv2_2/dw/scale
I0712 13:26:50.531420  5875 net.cpp:434] conv2_2/dw/scale <- conv2_2/dw
I0712 13:26:50.531424  5875 net.cpp:395] conv2_2/dw/scale -> conv2_2/dw (in-place)
I0712 13:26:50.531456  5875 layer_factory.hpp:77] Creating layer conv2_2/dw/scale
I0712 13:26:50.531546  5875 net.cpp:150] Setting up conv2_2/dw/scale
I0712 13:26:50.531553  5875 net.cpp:157] Top shape: 16 64 75 75 (5760000)
I0712 13:26:50.531554  5875 net.cpp:165] Memory required for data: 944640064
I0712 13:26:50.531558  5875 layer_factory.hpp:77] Creating layer conv2_2/dw_relu
I0712 13:26:50.531563  5875 net.cpp:100] Creating Layer conv2_2/dw_relu
I0712 13:26:50.531564  5875 net.cpp:434] conv2_2/dw_relu <- conv2_2/dw
I0712 13:26:50.531568  5875 net.cpp:395] conv2_2/dw_relu -> conv2_2/dw (in-place)
I0712 13:26:50.531702  5875 net.cpp:150] Setting up conv2_2/dw_relu
I0712 13:26:50.531708  5875 net.cpp:157] Top shape: 16 64 75 75 (5760000)
I0712 13:26:50.531709  5875 net.cpp:165] Memory required for data: 967680064
I0712 13:26:50.531711  5875 layer_factory.hpp:77] Creating layer conv2_2/sep
I0712 13:26:50.531718  5875 net.cpp:100] Creating Layer conv2_2/sep
I0712 13:26:50.531720  5875 net.cpp:434] conv2_2/sep <- conv2_2/dw
I0712 13:26:50.531724  5875 net.cpp:408] conv2_2/sep -> conv2_2/sep
I0712 13:26:50.533583  5875 net.cpp:150] Setting up conv2_2/sep
I0712 13:26:50.533593  5875 net.cpp:157] Top shape: 16 128 75 75 (11520000)
I0712 13:26:50.533596  5875 net.cpp:165] Memory required for data: 1013760064
I0712 13:26:50.533599  5875 layer_factory.hpp:77] Creating layer conv2_2/sep/bn
I0712 13:26:50.533603  5875 net.cpp:100] Creating Layer conv2_2/sep/bn
I0712 13:26:50.533605  5875 net.cpp:434] conv2_2/sep/bn <- conv2_2/sep
I0712 13:26:50.533608  5875 net.cpp:395] conv2_2/sep/bn -> conv2_2/sep (in-place)
I0712 13:26:50.533747  5875 net.cpp:150] Setting up conv2_2/sep/bn
I0712 13:26:50.533752  5875 net.cpp:157] Top shape: 16 128 75 75 (11520000)
I0712 13:26:50.533754  5875 net.cpp:165] Memory required for data: 1059840064
I0712 13:26:50.533759  5875 layer_factory.hpp:77] Creating layer conv2_2/sep/scale
I0712 13:26:50.533766  5875 net.cpp:100] Creating Layer conv2_2/sep/scale
I0712 13:26:50.533767  5875 net.cpp:434] conv2_2/sep/scale <- conv2_2/sep
I0712 13:26:50.533771  5875 net.cpp:395] conv2_2/sep/scale -> conv2_2/sep (in-place)
I0712 13:26:50.533799  5875 layer_factory.hpp:77] Creating layer conv2_2/sep/scale
I0712 13:26:50.533882  5875 net.cpp:150] Setting up conv2_2/sep/scale
I0712 13:26:50.533887  5875 net.cpp:157] Top shape: 16 128 75 75 (11520000)
I0712 13:26:50.533890  5875 net.cpp:165] Memory required for data: 1105920064
I0712 13:26:50.533893  5875 layer_factory.hpp:77] Creating layer conv2_2/sep_relu
I0712 13:26:50.533896  5875 net.cpp:100] Creating Layer conv2_2/sep_relu
I0712 13:26:50.533898  5875 net.cpp:434] conv2_2/sep_relu <- conv2_2/sep
I0712 13:26:50.533901  5875 net.cpp:395] conv2_2/sep_relu -> conv2_2/sep (in-place)
I0712 13:26:50.534459  5875 net.cpp:150] Setting up conv2_2/sep_relu
I0712 13:26:50.534469  5875 net.cpp:157] Top shape: 16 128 75 75 (11520000)
I0712 13:26:50.534472  5875 net.cpp:165] Memory required for data: 1152000064
I0712 13:26:50.534474  5875 layer_factory.hpp:77] Creating layer conv3_1/dw
I0712 13:26:50.534481  5875 net.cpp:100] Creating Layer conv3_1/dw
I0712 13:26:50.534482  5875 net.cpp:434] conv3_1/dw <- conv2_2/sep
I0712 13:26:50.534487  5875 net.cpp:408] conv3_1/dw -> conv3_1/dw
I0712 13:26:50.534637  5875 net.cpp:150] Setting up conv3_1/dw
I0712 13:26:50.534643  5875 net.cpp:157] Top shape: 16 128 75 75 (11520000)
I0712 13:26:50.534646  5875 net.cpp:165] Memory required for data: 1198080064
I0712 13:26:50.534648  5875 layer_factory.hpp:77] Creating layer conv3_1/dw/bn
I0712 13:26:50.534652  5875 net.cpp:100] Creating Layer conv3_1/dw/bn
I0712 13:26:50.534654  5875 net.cpp:434] conv3_1/dw/bn <- conv3_1/dw
I0712 13:26:50.534657  5875 net.cpp:395] conv3_1/dw/bn -> conv3_1/dw (in-place)
I0712 13:26:50.534793  5875 net.cpp:150] Setting up conv3_1/dw/bn
I0712 13:26:50.534813  5875 net.cpp:157] Top shape: 16 128 75 75 (11520000)
I0712 13:26:50.534816  5875 net.cpp:165] Memory required for data: 1244160064
I0712 13:26:50.534823  5875 layer_factory.hpp:77] Creating layer conv3_1/dw/scale
I0712 13:26:50.534828  5875 net.cpp:100] Creating Layer conv3_1/dw/scale
I0712 13:26:50.534831  5875 net.cpp:434] conv3_1/dw/scale <- conv3_1/dw
I0712 13:26:50.534834  5875 net.cpp:395] conv3_1/dw/scale -> conv3_1/dw (in-place)
I0712 13:26:50.534867  5875 layer_factory.hpp:77] Creating layer conv3_1/dw/scale
I0712 13:26:50.534950  5875 net.cpp:150] Setting up conv3_1/dw/scale
I0712 13:26:50.534955  5875 net.cpp:157] Top shape: 16 128 75 75 (11520000)
I0712 13:26:50.534956  5875 net.cpp:165] Memory required for data: 1290240064
I0712 13:26:50.534960  5875 layer_factory.hpp:77] Creating layer conv3_1/dw_relu
I0712 13:26:50.534963  5875 net.cpp:100] Creating Layer conv3_1/dw_relu
I0712 13:26:50.534965  5875 net.cpp:434] conv3_1/dw_relu <- conv3_1/dw
I0712 13:26:50.534968  5875 net.cpp:395] conv3_1/dw_relu -> conv3_1/dw (in-place)
I0712 13:26:50.535099  5875 net.cpp:150] Setting up conv3_1/dw_relu
I0712 13:26:50.535106  5875 net.cpp:157] Top shape: 16 128 75 75 (11520000)
I0712 13:26:50.535109  5875 net.cpp:165] Memory required for data: 1336320064
I0712 13:26:50.535110  5875 layer_factory.hpp:77] Creating layer conv3_1/sep
I0712 13:26:50.535115  5875 net.cpp:100] Creating Layer conv3_1/sep
I0712 13:26:50.535117  5875 net.cpp:434] conv3_1/sep <- conv3_1/dw
I0712 13:26:50.535121  5875 net.cpp:408] conv3_1/sep -> conv3_1/sep
I0712 13:26:50.536636  5875 net.cpp:150] Setting up conv3_1/sep
I0712 13:26:50.536646  5875 net.cpp:157] Top shape: 16 128 75 75 (11520000)
I0712 13:26:50.536648  5875 net.cpp:165] Memory required for data: 1382400064
I0712 13:26:50.536653  5875 layer_factory.hpp:77] Creating layer conv3_1/sep/bn
I0712 13:26:50.536656  5875 net.cpp:100] Creating Layer conv3_1/sep/bn
I0712 13:26:50.536659  5875 net.cpp:434] conv3_1/sep/bn <- conv3_1/sep
I0712 13:26:50.536664  5875 net.cpp:395] conv3_1/sep/bn -> conv3_1/sep (in-place)
I0712 13:26:50.536803  5875 net.cpp:150] Setting up conv3_1/sep/bn
I0712 13:26:50.536808  5875 net.cpp:157] Top shape: 16 128 75 75 (11520000)
I0712 13:26:50.536810  5875 net.cpp:165] Memory required for data: 1428480064
I0712 13:26:50.536815  5875 layer_factory.hpp:77] Creating layer conv3_1/sep/scale
I0712 13:26:50.536819  5875 net.cpp:100] Creating Layer conv3_1/sep/scale
I0712 13:26:50.536821  5875 net.cpp:434] conv3_1/sep/scale <- conv3_1/sep
I0712 13:26:50.536824  5875 net.cpp:395] conv3_1/sep/scale -> conv3_1/sep (in-place)
I0712 13:26:50.536854  5875 layer_factory.hpp:77] Creating layer conv3_1/sep/scale
I0712 13:26:50.536936  5875 net.cpp:150] Setting up conv3_1/sep/scale
I0712 13:26:50.536942  5875 net.cpp:157] Top shape: 16 128 75 75 (11520000)
I0712 13:26:50.536944  5875 net.cpp:165] Memory required for data: 1474560064
I0712 13:26:50.536948  5875 layer_factory.hpp:77] Creating layer conv3_1/sep_relu
I0712 13:26:50.536952  5875 net.cpp:100] Creating Layer conv3_1/sep_relu
I0712 13:26:50.536953  5875 net.cpp:434] conv3_1/sep_relu <- conv3_1/sep
I0712 13:26:50.536957  5875 net.cpp:395] conv3_1/sep_relu -> conv3_1/sep (in-place)
I0712 13:26:50.537509  5875 net.cpp:150] Setting up conv3_1/sep_relu
I0712 13:26:50.537518  5875 net.cpp:157] Top shape: 16 128 75 75 (11520000)
I0712 13:26:50.537520  5875 net.cpp:165] Memory required for data: 1520640064
I0712 13:26:50.537523  5875 layer_factory.hpp:77] Creating layer conv3_2/dw
I0712 13:26:50.537528  5875 net.cpp:100] Creating Layer conv3_2/dw
I0712 13:26:50.537531  5875 net.cpp:434] conv3_2/dw <- conv3_1/sep
I0712 13:26:50.537534  5875 net.cpp:408] conv3_2/dw -> conv3_2/dw
I0712 13:26:50.537689  5875 net.cpp:150] Setting up conv3_2/dw
I0712 13:26:50.537696  5875 net.cpp:157] Top shape: 16 128 38 38 (2957312)
I0712 13:26:50.537698  5875 net.cpp:165] Memory required for data: 1532469312
I0712 13:26:50.537701  5875 layer_factory.hpp:77] Creating layer conv3_2/dw/bn
I0712 13:26:50.537705  5875 net.cpp:100] Creating Layer conv3_2/dw/bn
I0712 13:26:50.537715  5875 net.cpp:434] conv3_2/dw/bn <- conv3_2/dw
I0712 13:26:50.537719  5875 net.cpp:395] conv3_2/dw/bn -> conv3_2/dw (in-place)
I0712 13:26:50.537853  5875 net.cpp:150] Setting up conv3_2/dw/bn
I0712 13:26:50.537858  5875 net.cpp:157] Top shape: 16 128 38 38 (2957312)
I0712 13:26:50.537860  5875 net.cpp:165] Memory required for data: 1544298560
I0712 13:26:50.537865  5875 layer_factory.hpp:77] Creating layer conv3_2/dw/scale
I0712 13:26:50.537873  5875 net.cpp:100] Creating Layer conv3_2/dw/scale
I0712 13:26:50.537874  5875 net.cpp:434] conv3_2/dw/scale <- conv3_2/dw
I0712 13:26:50.537878  5875 net.cpp:395] conv3_2/dw/scale -> conv3_2/dw (in-place)
I0712 13:26:50.537906  5875 layer_factory.hpp:77] Creating layer conv3_2/dw/scale
I0712 13:26:50.537986  5875 net.cpp:150] Setting up conv3_2/dw/scale
I0712 13:26:50.537992  5875 net.cpp:157] Top shape: 16 128 38 38 (2957312)
I0712 13:26:50.537993  5875 net.cpp:165] Memory required for data: 1556127808
I0712 13:26:50.537997  5875 layer_factory.hpp:77] Creating layer conv3_2/dw_relu
I0712 13:26:50.538002  5875 net.cpp:100] Creating Layer conv3_2/dw_relu
I0712 13:26:50.538002  5875 net.cpp:434] conv3_2/dw_relu <- conv3_2/dw
I0712 13:26:50.538005  5875 net.cpp:395] conv3_2/dw_relu -> conv3_2/dw (in-place)
I0712 13:26:50.538136  5875 net.cpp:150] Setting up conv3_2/dw_relu
I0712 13:26:50.538146  5875 net.cpp:157] Top shape: 16 128 38 38 (2957312)
I0712 13:26:50.538148  5875 net.cpp:165] Memory required for data: 1567957056
I0712 13:26:50.538151  5875 layer_factory.hpp:77] Creating layer conv3_2/sep
I0712 13:26:50.538156  5875 net.cpp:100] Creating Layer conv3_2/sep
I0712 13:26:50.538158  5875 net.cpp:434] conv3_2/sep <- conv3_2/dw
I0712 13:26:50.538162  5875 net.cpp:408] conv3_2/sep -> conv3_2/sep
I0712 13:26:50.539866  5875 net.cpp:150] Setting up conv3_2/sep
I0712 13:26:50.539876  5875 net.cpp:157] Top shape: 16 256 38 38 (5914624)
I0712 13:26:50.539878  5875 net.cpp:165] Memory required for data: 1591615552
I0712 13:26:50.539882  5875 layer_factory.hpp:77] Creating layer conv3_2/sep/bn
I0712 13:26:50.539886  5875 net.cpp:100] Creating Layer conv3_2/sep/bn
I0712 13:26:50.539888  5875 net.cpp:434] conv3_2/sep/bn <- conv3_2/sep
I0712 13:26:50.539893  5875 net.cpp:395] conv3_2/sep/bn -> conv3_2/sep (in-place)
I0712 13:26:50.540043  5875 net.cpp:150] Setting up conv3_2/sep/bn
I0712 13:26:50.540050  5875 net.cpp:157] Top shape: 16 256 38 38 (5914624)
I0712 13:26:50.540051  5875 net.cpp:165] Memory required for data: 1615274048
I0712 13:26:50.540055  5875 layer_factory.hpp:77] Creating layer conv3_2/sep/scale
I0712 13:26:50.540060  5875 net.cpp:100] Creating Layer conv3_2/sep/scale
I0712 13:26:50.540062  5875 net.cpp:434] conv3_2/sep/scale <- conv3_2/sep
I0712 13:26:50.540068  5875 net.cpp:395] conv3_2/sep/scale -> conv3_2/sep (in-place)
I0712 13:26:50.540099  5875 layer_factory.hpp:77] Creating layer conv3_2/sep/scale
I0712 13:26:50.540185  5875 net.cpp:150] Setting up conv3_2/sep/scale
I0712 13:26:50.540191  5875 net.cpp:157] Top shape: 16 256 38 38 (5914624)
I0712 13:26:50.540192  5875 net.cpp:165] Memory required for data: 1638932544
I0712 13:26:50.540196  5875 layer_factory.hpp:77] Creating layer conv3_2/sep_relu
I0712 13:26:50.540200  5875 net.cpp:100] Creating Layer conv3_2/sep_relu
I0712 13:26:50.540202  5875 net.cpp:434] conv3_2/sep_relu <- conv3_2/sep
I0712 13:26:50.540206  5875 net.cpp:395] conv3_2/sep_relu -> conv3_2/sep (in-place)
I0712 13:26:50.540776  5875 net.cpp:150] Setting up conv3_2/sep_relu
I0712 13:26:50.540786  5875 net.cpp:157] Top shape: 16 256 38 38 (5914624)
I0712 13:26:50.540788  5875 net.cpp:165] Memory required for data: 1662591040
I0712 13:26:50.540791  5875 layer_factory.hpp:77] Creating layer conv4_1/dw
I0712 13:26:50.540797  5875 net.cpp:100] Creating Layer conv4_1/dw
I0712 13:26:50.540799  5875 net.cpp:434] conv4_1/dw <- conv3_2/sep
I0712 13:26:50.540803  5875 net.cpp:408] conv4_1/dw -> conv4_1/dw
I0712 13:26:50.540977  5875 net.cpp:150] Setting up conv4_1/dw
I0712 13:26:50.540983  5875 net.cpp:157] Top shape: 16 256 38 38 (5914624)
I0712 13:26:50.540992  5875 net.cpp:165] Memory required for data: 1686249536
I0712 13:26:50.540997  5875 layer_factory.hpp:77] Creating layer conv4_1/dw/bn
I0712 13:26:50.541000  5875 net.cpp:100] Creating Layer conv4_1/dw/bn
I0712 13:26:50.541002  5875 net.cpp:434] conv4_1/dw/bn <- conv4_1/dw
I0712 13:26:50.541005  5875 net.cpp:395] conv4_1/dw/bn -> conv4_1/dw (in-place)
I0712 13:26:50.541152  5875 net.cpp:150] Setting up conv4_1/dw/bn
I0712 13:26:50.541160  5875 net.cpp:157] Top shape: 16 256 38 38 (5914624)
I0712 13:26:50.541163  5875 net.cpp:165] Memory required for data: 1709908032
I0712 13:26:50.541172  5875 layer_factory.hpp:77] Creating layer conv4_1/dw/scale
I0712 13:26:50.541177  5875 net.cpp:100] Creating Layer conv4_1/dw/scale
I0712 13:26:50.541183  5875 net.cpp:434] conv4_1/dw/scale <- conv4_1/dw
I0712 13:26:50.541188  5875 net.cpp:395] conv4_1/dw/scale -> conv4_1/dw (in-place)
I0712 13:26:50.541227  5875 layer_factory.hpp:77] Creating layer conv4_1/dw/scale
I0712 13:26:50.541323  5875 net.cpp:150] Setting up conv4_1/dw/scale
I0712 13:26:50.541332  5875 net.cpp:157] Top shape: 16 256 38 38 (5914624)
I0712 13:26:50.541334  5875 net.cpp:165] Memory required for data: 1733566528
I0712 13:26:50.541340  5875 layer_factory.hpp:77] Creating layer conv4_1/dw_relu
I0712 13:26:50.541347  5875 net.cpp:100] Creating Layer conv4_1/dw_relu
I0712 13:26:50.541352  5875 net.cpp:434] conv4_1/dw_relu <- conv4_1/dw
I0712 13:26:50.541357  5875 net.cpp:395] conv4_1/dw_relu -> conv4_1/dw (in-place)
I0712 13:26:50.541507  5875 net.cpp:150] Setting up conv4_1/dw_relu
I0712 13:26:50.541517  5875 net.cpp:157] Top shape: 16 256 38 38 (5914624)
I0712 13:26:50.541519  5875 net.cpp:165] Memory required for data: 1757225024
I0712 13:26:50.541522  5875 layer_factory.hpp:77] Creating layer conv4_1/sep
I0712 13:26:50.541532  5875 net.cpp:100] Creating Layer conv4_1/sep
I0712 13:26:50.541537  5875 net.cpp:434] conv4_1/sep <- conv4_1/dw
I0712 13:26:50.541543  5875 net.cpp:408] conv4_1/sep -> conv4_1/sep
I0712 13:26:50.544378  5875 net.cpp:150] Setting up conv4_1/sep
I0712 13:26:50.544391  5875 net.cpp:157] Top shape: 16 256 38 38 (5914624)
I0712 13:26:50.544394  5875 net.cpp:165] Memory required for data: 1780883520
I0712 13:26:50.544400  5875 layer_factory.hpp:77] Creating layer conv4_1/sep/bn
I0712 13:26:50.544407  5875 net.cpp:100] Creating Layer conv4_1/sep/bn
I0712 13:26:50.544412  5875 net.cpp:434] conv4_1/sep/bn <- conv4_1/sep
I0712 13:26:50.544419  5875 net.cpp:395] conv4_1/sep/bn -> conv4_1/sep (in-place)
I0712 13:26:50.544587  5875 net.cpp:150] Setting up conv4_1/sep/bn
I0712 13:26:50.544595  5875 net.cpp:157] Top shape: 16 256 38 38 (5914624)
I0712 13:26:50.544598  5875 net.cpp:165] Memory required for data: 1804542016
I0712 13:26:50.544606  5875 layer_factory.hpp:77] Creating layer conv4_1/sep/scale
I0712 13:26:50.544615  5875 net.cpp:100] Creating Layer conv4_1/sep/scale
I0712 13:26:50.544618  5875 net.cpp:434] conv4_1/sep/scale <- conv4_1/sep
I0712 13:26:50.544625  5875 net.cpp:395] conv4_1/sep/scale -> conv4_1/sep (in-place)
I0712 13:26:50.544665  5875 layer_factory.hpp:77] Creating layer conv4_1/sep/scale
I0712 13:26:50.544764  5875 net.cpp:150] Setting up conv4_1/sep/scale
I0712 13:26:50.544772  5875 net.cpp:157] Top shape: 16 256 38 38 (5914624)
I0712 13:26:50.544775  5875 net.cpp:165] Memory required for data: 1828200512
I0712 13:26:50.544790  5875 layer_factory.hpp:77] Creating layer conv4_1/sep_relu
I0712 13:26:50.544795  5875 net.cpp:100] Creating Layer conv4_1/sep_relu
I0712 13:26:50.544800  5875 net.cpp:434] conv4_1/sep_relu <- conv4_1/sep
I0712 13:26:50.544805  5875 net.cpp:395] conv4_1/sep_relu -> conv4_1/sep (in-place)
I0712 13:26:50.544965  5875 net.cpp:150] Setting up conv4_1/sep_relu
I0712 13:26:50.544975  5875 net.cpp:157] Top shape: 16 256 38 38 (5914624)
I0712 13:26:50.544977  5875 net.cpp:165] Memory required for data: 1851859008
I0712 13:26:50.544981  5875 layer_factory.hpp:77] Creating layer conv4_2/dw
I0712 13:26:50.544989  5875 net.cpp:100] Creating Layer conv4_2/dw
I0712 13:26:50.544993  5875 net.cpp:434] conv4_2/dw <- conv4_1/sep
I0712 13:26:50.545011  5875 net.cpp:408] conv4_2/dw -> conv4_2/dw
I0712 13:26:50.545202  5875 net.cpp:150] Setting up conv4_2/dw
I0712 13:26:50.545209  5875 net.cpp:157] Top shape: 16 256 19 19 (1478656)
I0712 13:26:50.545212  5875 net.cpp:165] Memory required for data: 1857773632
I0712 13:26:50.545217  5875 layer_factory.hpp:77] Creating layer conv4_2/dw/bn
I0712 13:26:50.545223  5875 net.cpp:100] Creating Layer conv4_2/dw/bn
I0712 13:26:50.545228  5875 net.cpp:434] conv4_2/dw/bn <- conv4_2/dw
I0712 13:26:50.545233  5875 net.cpp:395] conv4_2/dw/bn -> conv4_2/dw (in-place)
I0712 13:26:50.545392  5875 net.cpp:150] Setting up conv4_2/dw/bn
I0712 13:26:50.545400  5875 net.cpp:157] Top shape: 16 256 19 19 (1478656)
I0712 13:26:50.545403  5875 net.cpp:165] Memory required for data: 1863688256
I0712 13:26:50.545411  5875 layer_factory.hpp:77] Creating layer conv4_2/dw/scale
I0712 13:26:50.545418  5875 net.cpp:100] Creating Layer conv4_2/dw/scale
I0712 13:26:50.545423  5875 net.cpp:434] conv4_2/dw/scale <- conv4_2/dw
I0712 13:26:50.545428  5875 net.cpp:395] conv4_2/dw/scale -> conv4_2/dw (in-place)
I0712 13:26:50.545469  5875 layer_factory.hpp:77] Creating layer conv4_2/dw/scale
I0712 13:26:50.545567  5875 net.cpp:150] Setting up conv4_2/dw/scale
I0712 13:26:50.545574  5875 net.cpp:157] Top shape: 16 256 19 19 (1478656)
I0712 13:26:50.545578  5875 net.cpp:165] Memory required for data: 1869602880
I0712 13:26:50.545583  5875 layer_factory.hpp:77] Creating layer conv4_2/dw_relu
I0712 13:26:50.545590  5875 net.cpp:100] Creating Layer conv4_2/dw_relu
I0712 13:26:50.545595  5875 net.cpp:434] conv4_2/dw_relu <- conv4_2/dw
I0712 13:26:50.545600  5875 net.cpp:395] conv4_2/dw_relu -> conv4_2/dw (in-place)
I0712 13:26:50.546175  5875 net.cpp:150] Setting up conv4_2/dw_relu
I0712 13:26:50.546185  5875 net.cpp:157] Top shape: 16 256 19 19 (1478656)
I0712 13:26:50.546187  5875 net.cpp:165] Memory required for data: 1875517504
I0712 13:26:50.546191  5875 layer_factory.hpp:77] Creating layer conv4_2/sep
I0712 13:26:50.546202  5875 net.cpp:100] Creating Layer conv4_2/sep
I0712 13:26:50.546207  5875 net.cpp:434] conv4_2/sep <- conv4_2/dw
I0712 13:26:50.546214  5875 net.cpp:408] conv4_2/sep -> conv4_2/sep
I0712 13:26:50.549674  5875 net.cpp:150] Setting up conv4_2/sep
I0712 13:26:50.549686  5875 net.cpp:157] Top shape: 16 512 19 19 (2957312)
I0712 13:26:50.549690  5875 net.cpp:165] Memory required for data: 1887346752
I0712 13:26:50.549695  5875 layer_factory.hpp:77] Creating layer conv4_2/sep/bn
I0712 13:26:50.549702  5875 net.cpp:100] Creating Layer conv4_2/sep/bn
I0712 13:26:50.549706  5875 net.cpp:434] conv4_2/sep/bn <- conv4_2/sep
I0712 13:26:50.549711  5875 net.cpp:395] conv4_2/sep/bn -> conv4_2/sep (in-place)
I0712 13:26:50.549886  5875 net.cpp:150] Setting up conv4_2/sep/bn
I0712 13:26:50.549895  5875 net.cpp:157] Top shape: 16 512 19 19 (2957312)
I0712 13:26:50.549897  5875 net.cpp:165] Memory required for data: 1899176000
I0712 13:26:50.549906  5875 layer_factory.hpp:77] Creating layer conv4_2/sep/scale
I0712 13:26:50.549913  5875 net.cpp:100] Creating Layer conv4_2/sep/scale
I0712 13:26:50.549917  5875 net.cpp:434] conv4_2/sep/scale <- conv4_2/sep
I0712 13:26:50.549923  5875 net.cpp:395] conv4_2/sep/scale -> conv4_2/sep (in-place)
I0712 13:26:50.549967  5875 layer_factory.hpp:77] Creating layer conv4_2/sep/scale
I0712 13:26:50.550065  5875 net.cpp:150] Setting up conv4_2/sep/scale
I0712 13:26:50.550072  5875 net.cpp:157] Top shape: 16 512 19 19 (2957312)
I0712 13:26:50.550076  5875 net.cpp:165] Memory required for data: 1911005248
I0712 13:26:50.550081  5875 layer_factory.hpp:77] Creating layer conv4_2/sep_relu
I0712 13:26:50.550086  5875 net.cpp:100] Creating Layer conv4_2/sep_relu
I0712 13:26:50.550091  5875 net.cpp:434] conv4_2/sep_relu <- conv4_2/sep
I0712 13:26:50.550096  5875 net.cpp:395] conv4_2/sep_relu -> conv4_2/sep (in-place)
I0712 13:26:50.550249  5875 net.cpp:150] Setting up conv4_2/sep_relu
I0712 13:26:50.550258  5875 net.cpp:157] Top shape: 16 512 19 19 (2957312)
I0712 13:26:50.550271  5875 net.cpp:165] Memory required for data: 1922834496
I0712 13:26:50.550276  5875 layer_factory.hpp:77] Creating layer conv5_1/dw
I0712 13:26:50.550285  5875 net.cpp:100] Creating Layer conv5_1/dw
I0712 13:26:50.550290  5875 net.cpp:434] conv5_1/dw <- conv4_2/sep
I0712 13:26:50.550298  5875 net.cpp:408] conv5_1/dw -> conv5_1/dw
I0712 13:26:50.550508  5875 net.cpp:150] Setting up conv5_1/dw
I0712 13:26:50.550516  5875 net.cpp:157] Top shape: 16 512 19 19 (2957312)
I0712 13:26:50.550519  5875 net.cpp:165] Memory required for data: 1934663744
I0712 13:26:50.550524  5875 layer_factory.hpp:77] Creating layer conv5_1/dw/bn
I0712 13:26:50.550529  5875 net.cpp:100] Creating Layer conv5_1/dw/bn
I0712 13:26:50.550534  5875 net.cpp:434] conv5_1/dw/bn <- conv5_1/dw
I0712 13:26:50.550540  5875 net.cpp:395] conv5_1/dw/bn -> conv5_1/dw (in-place)
I0712 13:26:50.550707  5875 net.cpp:150] Setting up conv5_1/dw/bn
I0712 13:26:50.550715  5875 net.cpp:157] Top shape: 16 512 19 19 (2957312)
I0712 13:26:50.550719  5875 net.cpp:165] Memory required for data: 1946492992
I0712 13:26:50.550725  5875 layer_factory.hpp:77] Creating layer conv5_1/dw/scale
I0712 13:26:50.550734  5875 net.cpp:100] Creating Layer conv5_1/dw/scale
I0712 13:26:50.550739  5875 net.cpp:434] conv5_1/dw/scale <- conv5_1/dw
I0712 13:26:50.550745  5875 net.cpp:395] conv5_1/dw/scale -> conv5_1/dw (in-place)
I0712 13:26:50.550786  5875 layer_factory.hpp:77] Creating layer conv5_1/dw/scale
I0712 13:26:50.550906  5875 net.cpp:150] Setting up conv5_1/dw/scale
I0712 13:26:50.550915  5875 net.cpp:157] Top shape: 16 512 19 19 (2957312)
I0712 13:26:50.550918  5875 net.cpp:165] Memory required for data: 1958322240
I0712 13:26:50.550925  5875 layer_factory.hpp:77] Creating layer conv5_1/dw_relu
I0712 13:26:50.550930  5875 net.cpp:100] Creating Layer conv5_1/dw_relu
I0712 13:26:50.550935  5875 net.cpp:434] conv5_1/dw_relu <- conv5_1/dw
I0712 13:26:50.550940  5875 net.cpp:395] conv5_1/dw_relu -> conv5_1/dw (in-place)
I0712 13:26:50.551522  5875 net.cpp:150] Setting up conv5_1/dw_relu
I0712 13:26:50.551532  5875 net.cpp:157] Top shape: 16 512 19 19 (2957312)
I0712 13:26:50.551535  5875 net.cpp:165] Memory required for data: 1970151488
I0712 13:26:50.551538  5875 layer_factory.hpp:77] Creating layer conv5_1/sep
I0712 13:26:50.551548  5875 net.cpp:100] Creating Layer conv5_1/sep
I0712 13:26:50.551553  5875 net.cpp:434] conv5_1/sep <- conv5_1/dw
I0712 13:26:50.551558  5875 net.cpp:408] conv5_1/sep -> conv5_1/sep
I0712 13:26:50.555841  5875 net.cpp:150] Setting up conv5_1/sep
I0712 13:26:50.555852  5875 net.cpp:157] Top shape: 16 512 19 19 (2957312)
I0712 13:26:50.555856  5875 net.cpp:165] Memory required for data: 1981980736
I0712 13:26:50.555861  5875 layer_factory.hpp:77] Creating layer conv5_1/sep/bn
I0712 13:26:50.555868  5875 net.cpp:100] Creating Layer conv5_1/sep/bn
I0712 13:26:50.555872  5875 net.cpp:434] conv5_1/sep/bn <- conv5_1/sep
I0712 13:26:50.555877  5875 net.cpp:395] conv5_1/sep/bn -> conv5_1/sep (in-place)
I0712 13:26:50.556113  5875 net.cpp:150] Setting up conv5_1/sep/bn
I0712 13:26:50.556120  5875 net.cpp:157] Top shape: 16 512 19 19 (2957312)
I0712 13:26:50.556123  5875 net.cpp:165] Memory required for data: 1993809984
I0712 13:26:50.556131  5875 layer_factory.hpp:77] Creating layer conv5_1/sep/scale
I0712 13:26:50.556138  5875 net.cpp:100] Creating Layer conv5_1/sep/scale
I0712 13:26:50.556140  5875 net.cpp:434] conv5_1/sep/scale <- conv5_1/sep
I0712 13:26:50.556145  5875 net.cpp:395] conv5_1/sep/scale -> conv5_1/sep (in-place)
I0712 13:26:50.556195  5875 layer_factory.hpp:77] Creating layer conv5_1/sep/scale
I0712 13:26:50.556322  5875 net.cpp:150] Setting up conv5_1/sep/scale
I0712 13:26:50.556329  5875 net.cpp:157] Top shape: 16 512 19 19 (2957312)
I0712 13:26:50.556331  5875 net.cpp:165] Memory required for data: 2005639232
I0712 13:26:50.556337  5875 layer_factory.hpp:77] Creating layer conv5_1/sep_relu
I0712 13:26:50.556344  5875 net.cpp:100] Creating Layer conv5_1/sep_relu
I0712 13:26:50.556347  5875 net.cpp:434] conv5_1/sep_relu <- conv5_1/sep
I0712 13:26:50.556362  5875 net.cpp:395] conv5_1/sep_relu -> conv5_1/sep (in-place)
I0712 13:26:50.556561  5875 net.cpp:150] Setting up conv5_1/sep_relu
I0712 13:26:50.556571  5875 net.cpp:157] Top shape: 16 512 19 19 (2957312)
I0712 13:26:50.556573  5875 net.cpp:165] Memory required for data: 2017468480
I0712 13:26:50.556576  5875 layer_factory.hpp:77] Creating layer conv5_2/dw
I0712 13:26:50.556586  5875 net.cpp:100] Creating Layer conv5_2/dw
I0712 13:26:50.556589  5875 net.cpp:434] conv5_2/dw <- conv5_1/sep
I0712 13:26:50.556594  5875 net.cpp:408] conv5_2/dw -> conv5_2/dw
I0712 13:26:50.556885  5875 net.cpp:150] Setting up conv5_2/dw
I0712 13:26:50.556892  5875 net.cpp:157] Top shape: 16 512 19 19 (2957312)
I0712 13:26:50.556895  5875 net.cpp:165] Memory required for data: 2029297728
I0712 13:26:50.556900  5875 layer_factory.hpp:77] Creating layer conv5_2/dw/bn
I0712 13:26:50.556905  5875 net.cpp:100] Creating Layer conv5_2/dw/bn
I0712 13:26:50.556908  5875 net.cpp:434] conv5_2/dw/bn <- conv5_2/dw
I0712 13:26:50.556913  5875 net.cpp:395] conv5_2/dw/bn -> conv5_2/dw (in-place)
I0712 13:26:50.557138  5875 net.cpp:150] Setting up conv5_2/dw/bn
I0712 13:26:50.557147  5875 net.cpp:157] Top shape: 16 512 19 19 (2957312)
I0712 13:26:50.557149  5875 net.cpp:165] Memory required for data: 2041126976
I0712 13:26:50.557157  5875 layer_factory.hpp:77] Creating layer conv5_2/dw/scale
I0712 13:26:50.557171  5875 net.cpp:100] Creating Layer conv5_2/dw/scale
I0712 13:26:50.557174  5875 net.cpp:434] conv5_2/dw/scale <- conv5_2/dw
I0712 13:26:50.557180  5875 net.cpp:395] conv5_2/dw/scale -> conv5_2/dw (in-place)
I0712 13:26:50.557219  5875 layer_factory.hpp:77] Creating layer conv5_2/dw/scale
I0712 13:26:50.557309  5875 net.cpp:150] Setting up conv5_2/dw/scale
I0712 13:26:50.557313  5875 net.cpp:157] Top shape: 16 512 19 19 (2957312)
I0712 13:26:50.557315  5875 net.cpp:165] Memory required for data: 2052956224
I0712 13:26:50.557319  5875 layer_factory.hpp:77] Creating layer conv5_2/dw_relu
I0712 13:26:50.557322  5875 net.cpp:100] Creating Layer conv5_2/dw_relu
I0712 13:26:50.557324  5875 net.cpp:434] conv5_2/dw_relu <- conv5_2/dw
I0712 13:26:50.557327  5875 net.cpp:395] conv5_2/dw_relu -> conv5_2/dw (in-place)
I0712 13:26:50.557898  5875 net.cpp:150] Setting up conv5_2/dw_relu
I0712 13:26:50.557906  5875 net.cpp:157] Top shape: 16 512 19 19 (2957312)
I0712 13:26:50.557907  5875 net.cpp:165] Memory required for data: 2064785472
I0712 13:26:50.557910  5875 layer_factory.hpp:77] Creating layer conv5_2/sep
I0712 13:26:50.557916  5875 net.cpp:100] Creating Layer conv5_2/sep
I0712 13:26:50.557919  5875 net.cpp:434] conv5_2/sep <- conv5_2/dw
I0712 13:26:50.557924  5875 net.cpp:408] conv5_2/sep -> conv5_2/sep
I0712 13:26:50.561581  5875 net.cpp:150] Setting up conv5_2/sep
I0712 13:26:50.561595  5875 net.cpp:157] Top shape: 16 512 19 19 (2957312)
I0712 13:26:50.561597  5875 net.cpp:165] Memory required for data: 2076614720
I0712 13:26:50.561602  5875 layer_factory.hpp:77] Creating layer conv5_2/sep/bn
I0712 13:26:50.561609  5875 net.cpp:100] Creating Layer conv5_2/sep/bn
I0712 13:26:50.561612  5875 net.cpp:434] conv5_2/sep/bn <- conv5_2/sep
I0712 13:26:50.561617  5875 net.cpp:395] conv5_2/sep/bn -> conv5_2/sep (in-place)
I0712 13:26:50.561787  5875 net.cpp:150] Setting up conv5_2/sep/bn
I0712 13:26:50.561792  5875 net.cpp:157] Top shape: 16 512 19 19 (2957312)
I0712 13:26:50.561794  5875 net.cpp:165] Memory required for data: 2088443968
I0712 13:26:50.561799  5875 layer_factory.hpp:77] Creating layer conv5_2/sep/scale
I0712 13:26:50.561805  5875 net.cpp:100] Creating Layer conv5_2/sep/scale
I0712 13:26:50.561806  5875 net.cpp:434] conv5_2/sep/scale <- conv5_2/sep
I0712 13:26:50.561810  5875 net.cpp:395] conv5_2/sep/scale -> conv5_2/sep (in-place)
I0712 13:26:50.561846  5875 layer_factory.hpp:77] Creating layer conv5_2/sep/scale
I0712 13:26:50.561939  5875 net.cpp:150] Setting up conv5_2/sep/scale
I0712 13:26:50.561944  5875 net.cpp:157] Top shape: 16 512 19 19 (2957312)
I0712 13:26:50.561945  5875 net.cpp:165] Memory required for data: 2100273216
I0712 13:26:50.561961  5875 layer_factory.hpp:77] Creating layer conv5_2/sep_relu
I0712 13:26:50.561967  5875 net.cpp:100] Creating Layer conv5_2/sep_relu
I0712 13:26:50.561969  5875 net.cpp:434] conv5_2/sep_relu <- conv5_2/sep
I0712 13:26:50.561972  5875 net.cpp:395] conv5_2/sep_relu -> conv5_2/sep (in-place)
I0712 13:26:50.562680  5875 net.cpp:150] Setting up conv5_2/sep_relu
I0712 13:26:50.562690  5875 net.cpp:157] Top shape: 16 512 19 19 (2957312)
I0712 13:26:50.562692  5875 net.cpp:165] Memory required for data: 2112102464
I0712 13:26:50.562696  5875 layer_factory.hpp:77] Creating layer conv5_3/dw
I0712 13:26:50.562706  5875 net.cpp:100] Creating Layer conv5_3/dw
I0712 13:26:50.562710  5875 net.cpp:434] conv5_3/dw <- conv5_2/sep
I0712 13:26:50.562717  5875 net.cpp:408] conv5_3/dw -> conv5_3/dw
I0712 13:26:50.563026  5875 net.cpp:150] Setting up conv5_3/dw
I0712 13:26:50.563035  5875 net.cpp:157] Top shape: 16 512 19 19 (2957312)
I0712 13:26:50.563038  5875 net.cpp:165] Memory required for data: 2123931712
I0712 13:26:50.563043  5875 layer_factory.hpp:77] Creating layer conv5_3/dw/bn
I0712 13:26:50.563048  5875 net.cpp:100] Creating Layer conv5_3/dw/bn
I0712 13:26:50.563051  5875 net.cpp:434] conv5_3/dw/bn <- conv5_3/dw
I0712 13:26:50.563055  5875 net.cpp:395] conv5_3/dw/bn -> conv5_3/dw (in-place)
I0712 13:26:50.563282  5875 net.cpp:150] Setting up conv5_3/dw/bn
I0712 13:26:50.563288  5875 net.cpp:157] Top shape: 16 512 19 19 (2957312)
I0712 13:26:50.563292  5875 net.cpp:165] Memory required for data: 2135760960
I0712 13:26:50.563298  5875 layer_factory.hpp:77] Creating layer conv5_3/dw/scale
I0712 13:26:50.563304  5875 net.cpp:100] Creating Layer conv5_3/dw/scale
I0712 13:26:50.563308  5875 net.cpp:434] conv5_3/dw/scale <- conv5_3/dw
I0712 13:26:50.563311  5875 net.cpp:395] conv5_3/dw/scale -> conv5_3/dw (in-place)
I0712 13:26:50.563361  5875 layer_factory.hpp:77] Creating layer conv5_3/dw/scale
I0712 13:26:50.563488  5875 net.cpp:150] Setting up conv5_3/dw/scale
I0712 13:26:50.563495  5875 net.cpp:157] Top shape: 16 512 19 19 (2957312)
I0712 13:26:50.563498  5875 net.cpp:165] Memory required for data: 2147590208
I0712 13:26:50.563503  5875 layer_factory.hpp:77] Creating layer conv5_3/dw_relu
I0712 13:26:50.563508  5875 net.cpp:100] Creating Layer conv5_3/dw_relu
I0712 13:26:50.563511  5875 net.cpp:434] conv5_3/dw_relu <- conv5_3/dw
I0712 13:26:50.563516  5875 net.cpp:395] conv5_3/dw_relu -> conv5_3/dw (in-place)
I0712 13:26:50.564237  5875 net.cpp:150] Setting up conv5_3/dw_relu
I0712 13:26:50.564247  5875 net.cpp:157] Top shape: 16 512 19 19 (2957312)
I0712 13:26:50.564250  5875 net.cpp:165] Memory required for data: 2159419456
I0712 13:26:50.564254  5875 layer_factory.hpp:77] Creating layer conv5_3/sep
I0712 13:26:50.564260  5875 net.cpp:100] Creating Layer conv5_3/sep
I0712 13:26:50.564263  5875 net.cpp:434] conv5_3/sep <- conv5_3/dw
I0712 13:26:50.564267  5875 net.cpp:408] conv5_3/sep -> conv5_3/sep
I0712 13:26:50.567822  5875 net.cpp:150] Setting up conv5_3/sep
I0712 13:26:50.567833  5875 net.cpp:157] Top shape: 16 512 19 19 (2957312)
I0712 13:26:50.567836  5875 net.cpp:165] Memory required for data: 2171248704
I0712 13:26:50.567839  5875 layer_factory.hpp:77] Creating layer conv5_3/sep/bn
I0712 13:26:50.567842  5875 net.cpp:100] Creating Layer conv5_3/sep/bn
I0712 13:26:50.567845  5875 net.cpp:434] conv5_3/sep/bn <- conv5_3/sep
I0712 13:26:50.567849  5875 net.cpp:395] conv5_3/sep/bn -> conv5_3/sep (in-place)
I0712 13:26:50.568020  5875 net.cpp:150] Setting up conv5_3/sep/bn
I0712 13:26:50.568024  5875 net.cpp:157] Top shape: 16 512 19 19 (2957312)
I0712 13:26:50.568027  5875 net.cpp:165] Memory required for data: 2183077952
I0712 13:26:50.568030  5875 layer_factory.hpp:77] Creating layer conv5_3/sep/scale
I0712 13:26:50.568035  5875 net.cpp:100] Creating Layer conv5_3/sep/scale
I0712 13:26:50.568037  5875 net.cpp:434] conv5_3/sep/scale <- conv5_3/sep
I0712 13:26:50.568042  5875 net.cpp:395] conv5_3/sep/scale -> conv5_3/sep (in-place)
I0712 13:26:50.568076  5875 layer_factory.hpp:77] Creating layer conv5_3/sep/scale
I0712 13:26:50.568183  5875 net.cpp:150] Setting up conv5_3/sep/scale
I0712 13:26:50.568188  5875 net.cpp:157] Top shape: 16 512 19 19 (2957312)
I0712 13:26:50.568190  5875 net.cpp:165] Memory required for data: 2194907200
I0712 13:26:50.568193  5875 layer_factory.hpp:77] Creating layer conv5_3/sep_relu
I0712 13:26:50.568197  5875 net.cpp:100] Creating Layer conv5_3/sep_relu
I0712 13:26:50.568199  5875 net.cpp:434] conv5_3/sep_relu <- conv5_3/sep
I0712 13:26:50.568202  5875 net.cpp:395] conv5_3/sep_relu -> conv5_3/sep (in-place)
I0712 13:26:50.568783  5875 net.cpp:150] Setting up conv5_3/sep_relu
I0712 13:26:50.568791  5875 net.cpp:157] Top shape: 16 512 19 19 (2957312)
I0712 13:26:50.568792  5875 net.cpp:165] Memory required for data: 2206736448
I0712 13:26:50.568794  5875 layer_factory.hpp:77] Creating layer conv5_4/dw
I0712 13:26:50.568801  5875 net.cpp:100] Creating Layer conv5_4/dw
I0712 13:26:50.568804  5875 net.cpp:434] conv5_4/dw <- conv5_3/sep
I0712 13:26:50.568809  5875 net.cpp:408] conv5_4/dw -> conv5_4/dw
I0712 13:26:50.569015  5875 net.cpp:150] Setting up conv5_4/dw
I0712 13:26:50.569020  5875 net.cpp:157] Top shape: 16 512 19 19 (2957312)
I0712 13:26:50.569022  5875 net.cpp:165] Memory required for data: 2218565696
I0712 13:26:50.569025  5875 layer_factory.hpp:77] Creating layer conv5_4/dw/bn
I0712 13:26:50.569030  5875 net.cpp:100] Creating Layer conv5_4/dw/bn
I0712 13:26:50.569031  5875 net.cpp:434] conv5_4/dw/bn <- conv5_4/dw
I0712 13:26:50.569034  5875 net.cpp:395] conv5_4/dw/bn -> conv5_4/dw (in-place)
I0712 13:26:50.569193  5875 net.cpp:150] Setting up conv5_4/dw/bn
I0712 13:26:50.569198  5875 net.cpp:157] Top shape: 16 512 19 19 (2957312)
I0712 13:26:50.569200  5875 net.cpp:165] Memory required for data: 2230394944
I0712 13:26:50.569205  5875 layer_factory.hpp:77] Creating layer conv5_4/dw/scale
I0712 13:26:50.569209  5875 net.cpp:100] Creating Layer conv5_4/dw/scale
I0712 13:26:50.569211  5875 net.cpp:434] conv5_4/dw/scale <- conv5_4/dw
I0712 13:26:50.569214  5875 net.cpp:395] conv5_4/dw/scale -> conv5_4/dw (in-place)
I0712 13:26:50.569249  5875 layer_factory.hpp:77] Creating layer conv5_4/dw/scale
I0712 13:26:50.569342  5875 net.cpp:150] Setting up conv5_4/dw/scale
I0712 13:26:50.569347  5875 net.cpp:157] Top shape: 16 512 19 19 (2957312)
I0712 13:26:50.569349  5875 net.cpp:165] Memory required for data: 2242224192
I0712 13:26:50.569352  5875 layer_factory.hpp:77] Creating layer conv5_4/dw_relu
I0712 13:26:50.569356  5875 net.cpp:100] Creating Layer conv5_4/dw_relu
I0712 13:26:50.569358  5875 net.cpp:434] conv5_4/dw_relu <- conv5_4/dw
I0712 13:26:50.569361  5875 net.cpp:395] conv5_4/dw_relu -> conv5_4/dw (in-place)
I0712 13:26:50.569505  5875 net.cpp:150] Setting up conv5_4/dw_relu
I0712 13:26:50.569510  5875 net.cpp:157] Top shape: 16 512 19 19 (2957312)
I0712 13:26:50.569512  5875 net.cpp:165] Memory required for data: 2254053440
I0712 13:26:50.569514  5875 layer_factory.hpp:77] Creating layer conv5_4/sep
I0712 13:26:50.569519  5875 net.cpp:100] Creating Layer conv5_4/sep
I0712 13:26:50.569522  5875 net.cpp:434] conv5_4/sep <- conv5_4/dw
I0712 13:26:50.569526  5875 net.cpp:408] conv5_4/sep -> conv5_4/sep
I0712 13:26:50.573487  5875 net.cpp:150] Setting up conv5_4/sep
I0712 13:26:50.573498  5875 net.cpp:157] Top shape: 16 512 19 19 (2957312)
I0712 13:26:50.573499  5875 net.cpp:165] Memory required for data: 2265882688
I0712 13:26:50.573503  5875 layer_factory.hpp:77] Creating layer conv5_4/sep/bn
I0712 13:26:50.573510  5875 net.cpp:100] Creating Layer conv5_4/sep/bn
I0712 13:26:50.573513  5875 net.cpp:434] conv5_4/sep/bn <- conv5_4/sep
I0712 13:26:50.573516  5875 net.cpp:395] conv5_4/sep/bn -> conv5_4/sep (in-place)
I0712 13:26:50.573688  5875 net.cpp:150] Setting up conv5_4/sep/bn
I0712 13:26:50.573693  5875 net.cpp:157] Top shape: 16 512 19 19 (2957312)
I0712 13:26:50.573694  5875 net.cpp:165] Memory required for data: 2277711936
I0712 13:26:50.573699  5875 layer_factory.hpp:77] Creating layer conv5_4/sep/scale
I0712 13:26:50.573704  5875 net.cpp:100] Creating Layer conv5_4/sep/scale
I0712 13:26:50.573717  5875 net.cpp:434] conv5_4/sep/scale <- conv5_4/sep
I0712 13:26:50.573721  5875 net.cpp:395] conv5_4/sep/scale -> conv5_4/sep (in-place)
I0712 13:26:50.573760  5875 layer_factory.hpp:77] Creating layer conv5_4/sep/scale
I0712 13:26:50.573853  5875 net.cpp:150] Setting up conv5_4/sep/scale
I0712 13:26:50.573858  5875 net.cpp:157] Top shape: 16 512 19 19 (2957312)
I0712 13:26:50.573859  5875 net.cpp:165] Memory required for data: 2289541184
I0712 13:26:50.573863  5875 layer_factory.hpp:77] Creating layer conv5_4/sep_relu
I0712 13:26:50.573868  5875 net.cpp:100] Creating Layer conv5_4/sep_relu
I0712 13:26:50.573869  5875 net.cpp:434] conv5_4/sep_relu <- conv5_4/sep
I0712 13:26:50.573873  5875 net.cpp:395] conv5_4/sep_relu -> conv5_4/sep (in-place)
I0712 13:26:50.574445  5875 net.cpp:150] Setting up conv5_4/sep_relu
I0712 13:26:50.574451  5875 net.cpp:157] Top shape: 16 512 19 19 (2957312)
I0712 13:26:50.574453  5875 net.cpp:165] Memory required for data: 2301370432
I0712 13:26:50.574455  5875 layer_factory.hpp:77] Creating layer conv5_5/dw
I0712 13:26:50.574462  5875 net.cpp:100] Creating Layer conv5_5/dw
I0712 13:26:50.574465  5875 net.cpp:434] conv5_5/dw <- conv5_4/sep
I0712 13:26:50.574468  5875 net.cpp:408] conv5_5/dw -> conv5_5/dw
I0712 13:26:50.574725  5875 net.cpp:150] Setting up conv5_5/dw
I0712 13:26:50.574733  5875 net.cpp:157] Top shape: 16 512 19 19 (2957312)
I0712 13:26:50.574734  5875 net.cpp:165] Memory required for data: 2313199680
I0712 13:26:50.574738  5875 layer_factory.hpp:77] Creating layer conv5_5/dw/bn
I0712 13:26:50.574741  5875 net.cpp:100] Creating Layer conv5_5/dw/bn
I0712 13:26:50.574743  5875 net.cpp:434] conv5_5/dw/bn <- conv5_5/dw
I0712 13:26:50.574746  5875 net.cpp:395] conv5_5/dw/bn -> conv5_5/dw (in-place)
I0712 13:26:50.574919  5875 net.cpp:150] Setting up conv5_5/dw/bn
I0712 13:26:50.574925  5875 net.cpp:157] Top shape: 16 512 19 19 (2957312)
I0712 13:26:50.574928  5875 net.cpp:165] Memory required for data: 2325028928
I0712 13:26:50.574942  5875 layer_factory.hpp:77] Creating layer conv5_5/dw/scale
I0712 13:26:50.574947  5875 net.cpp:100] Creating Layer conv5_5/dw/scale
I0712 13:26:50.574950  5875 net.cpp:434] conv5_5/dw/scale <- conv5_5/dw
I0712 13:26:50.574954  5875 net.cpp:395] conv5_5/dw/scale -> conv5_5/dw (in-place)
I0712 13:26:50.574993  5875 layer_factory.hpp:77] Creating layer conv5_5/dw/scale
I0712 13:26:50.575086  5875 net.cpp:150] Setting up conv5_5/dw/scale
I0712 13:26:50.575090  5875 net.cpp:157] Top shape: 16 512 19 19 (2957312)
I0712 13:26:50.575093  5875 net.cpp:165] Memory required for data: 2336858176
I0712 13:26:50.575095  5875 layer_factory.hpp:77] Creating layer conv5_5/dw_relu
I0712 13:26:50.575100  5875 net.cpp:100] Creating Layer conv5_5/dw_relu
I0712 13:26:50.575103  5875 net.cpp:434] conv5_5/dw_relu <- conv5_5/dw
I0712 13:26:50.575104  5875 net.cpp:395] conv5_5/dw_relu -> conv5_5/dw (in-place)
I0712 13:26:50.575250  5875 net.cpp:150] Setting up conv5_5/dw_relu
I0712 13:26:50.575255  5875 net.cpp:157] Top shape: 16 512 19 19 (2957312)
I0712 13:26:50.575258  5875 net.cpp:165] Memory required for data: 2348687424
I0712 13:26:50.575259  5875 layer_factory.hpp:77] Creating layer conv5_5/sep
I0712 13:26:50.575266  5875 net.cpp:100] Creating Layer conv5_5/sep
I0712 13:26:50.575268  5875 net.cpp:434] conv5_5/sep <- conv5_5/dw
I0712 13:26:50.575271  5875 net.cpp:408] conv5_5/sep -> conv5_5/sep
I0712 13:26:50.579248  5875 net.cpp:150] Setting up conv5_5/sep
I0712 13:26:50.579257  5875 net.cpp:157] Top shape: 16 512 19 19 (2957312)
I0712 13:26:50.579259  5875 net.cpp:165] Memory required for data: 2360516672
I0712 13:26:50.579263  5875 layer_factory.hpp:77] Creating layer conv5_5/sep/bn
I0712 13:26:50.579268  5875 net.cpp:100] Creating Layer conv5_5/sep/bn
I0712 13:26:50.579272  5875 net.cpp:434] conv5_5/sep/bn <- conv5_5/sep
I0712 13:26:50.579275  5875 net.cpp:395] conv5_5/sep/bn -> conv5_5/sep (in-place)
I0712 13:26:50.579448  5875 net.cpp:150] Setting up conv5_5/sep/bn
I0712 13:26:50.579452  5875 net.cpp:157] Top shape: 16 512 19 19 (2957312)
I0712 13:26:50.579463  5875 net.cpp:165] Memory required for data: 2372345920
I0712 13:26:50.579468  5875 layer_factory.hpp:77] Creating layer conv5_5/sep/scale
I0712 13:26:50.579473  5875 net.cpp:100] Creating Layer conv5_5/sep/scale
I0712 13:26:50.579475  5875 net.cpp:434] conv5_5/sep/scale <- conv5_5/sep
I0712 13:26:50.579478  5875 net.cpp:395] conv5_5/sep/scale -> conv5_5/sep (in-place)
I0712 13:26:50.579519  5875 layer_factory.hpp:77] Creating layer conv5_5/sep/scale
I0712 13:26:50.579617  5875 net.cpp:150] Setting up conv5_5/sep/scale
I0712 13:26:50.579622  5875 net.cpp:157] Top shape: 16 512 19 19 (2957312)
I0712 13:26:50.579622  5875 net.cpp:165] Memory required for data: 2384175168
I0712 13:26:50.579627  5875 layer_factory.hpp:77] Creating layer conv5_5/sep_relu
I0712 13:26:50.579632  5875 net.cpp:100] Creating Layer conv5_5/sep_relu
I0712 13:26:50.579633  5875 net.cpp:434] conv5_5/sep_relu <- conv5_5/sep
I0712 13:26:50.579637  5875 net.cpp:395] conv5_5/sep_relu -> conv5_5/sep (in-place)
I0712 13:26:50.580234  5875 net.cpp:150] Setting up conv5_5/sep_relu
I0712 13:26:50.580241  5875 net.cpp:157] Top shape: 16 512 19 19 (2957312)
I0712 13:26:50.580243  5875 net.cpp:165] Memory required for data: 2396004416
I0712 13:26:50.580246  5875 layer_factory.hpp:77] Creating layer conv5_5/sep_conv5_5/sep_relu_0_split
I0712 13:26:50.580250  5875 net.cpp:100] Creating Layer conv5_5/sep_conv5_5/sep_relu_0_split
I0712 13:26:50.580252  5875 net.cpp:434] conv5_5/sep_conv5_5/sep_relu_0_split <- conv5_5/sep
I0712 13:26:50.580257  5875 net.cpp:408] conv5_5/sep_conv5_5/sep_relu_0_split -> conv5_5/sep_conv5_5/sep_relu_0_split_0
I0712 13:26:50.580266  5875 net.cpp:408] conv5_5/sep_conv5_5/sep_relu_0_split -> conv5_5/sep_conv5_5/sep_relu_0_split_1
I0712 13:26:50.580271  5875 net.cpp:408] conv5_5/sep_conv5_5/sep_relu_0_split -> conv5_5/sep_conv5_5/sep_relu_0_split_2
I0712 13:26:50.580274  5875 net.cpp:408] conv5_5/sep_conv5_5/sep_relu_0_split -> conv5_5/sep_conv5_5/sep_relu_0_split_3
I0712 13:26:50.580334  5875 net.cpp:150] Setting up conv5_5/sep_conv5_5/sep_relu_0_split
I0712 13:26:50.580339  5875 net.cpp:157] Top shape: 16 512 19 19 (2957312)
I0712 13:26:50.580343  5875 net.cpp:157] Top shape: 16 512 19 19 (2957312)
I0712 13:26:50.580344  5875 net.cpp:157] Top shape: 16 512 19 19 (2957312)
I0712 13:26:50.580346  5875 net.cpp:157] Top shape: 16 512 19 19 (2957312)
I0712 13:26:50.580348  5875 net.cpp:165] Memory required for data: 2443321408
I0712 13:26:50.580349  5875 layer_factory.hpp:77] Creating layer conv5_6/dw
I0712 13:26:50.580356  5875 net.cpp:100] Creating Layer conv5_6/dw
I0712 13:26:50.580358  5875 net.cpp:434] conv5_6/dw <- conv5_5/sep_conv5_5/sep_relu_0_split_0
I0712 13:26:50.580363  5875 net.cpp:408] conv5_6/dw -> conv5_6/dw
I0712 13:26:50.580561  5875 net.cpp:150] Setting up conv5_6/dw
I0712 13:26:50.580566  5875 net.cpp:157] Top shape: 16 512 10 10 (819200)
I0712 13:26:50.580567  5875 net.cpp:165] Memory required for data: 2446598208
I0712 13:26:50.580571  5875 layer_factory.hpp:77] Creating layer conv5_6/dw/bn
I0712 13:26:50.580574  5875 net.cpp:100] Creating Layer conv5_6/dw/bn
I0712 13:26:50.580576  5875 net.cpp:434] conv5_6/dw/bn <- conv5_6/dw
I0712 13:26:50.580579  5875 net.cpp:395] conv5_6/dw/bn -> conv5_6/dw (in-place)
I0712 13:26:50.580747  5875 net.cpp:150] Setting up conv5_6/dw/bn
I0712 13:26:50.580751  5875 net.cpp:157] Top shape: 16 512 10 10 (819200)
I0712 13:26:50.580754  5875 net.cpp:165] Memory required for data: 2449875008
I0712 13:26:50.580757  5875 layer_factory.hpp:77] Creating layer conv5_6/dw/scale
I0712 13:26:50.580761  5875 net.cpp:100] Creating Layer conv5_6/dw/scale
I0712 13:26:50.580763  5875 net.cpp:434] conv5_6/dw/scale <- conv5_6/dw
I0712 13:26:50.580767  5875 net.cpp:395] conv5_6/dw/scale -> conv5_6/dw (in-place)
I0712 13:26:50.580799  5875 layer_factory.hpp:77] Creating layer conv5_6/dw/scale
I0712 13:26:50.580901  5875 net.cpp:150] Setting up conv5_6/dw/scale
I0712 13:26:50.580906  5875 net.cpp:157] Top shape: 16 512 10 10 (819200)
I0712 13:26:50.580907  5875 net.cpp:165] Memory required for data: 2453151808
I0712 13:26:50.580919  5875 layer_factory.hpp:77] Creating layer conv5_6/dw_relu
I0712 13:26:50.580924  5875 net.cpp:100] Creating Layer conv5_6/dw_relu
I0712 13:26:50.580925  5875 net.cpp:434] conv5_6/dw_relu <- conv5_6/dw
I0712 13:26:50.580929  5875 net.cpp:395] conv5_6/dw_relu -> conv5_6/dw (in-place)
I0712 13:26:50.581605  5875 net.cpp:150] Setting up conv5_6/dw_relu
I0712 13:26:50.581614  5875 net.cpp:157] Top shape: 16 512 10 10 (819200)
I0712 13:26:50.581615  5875 net.cpp:165] Memory required for data: 2456428608
I0712 13:26:50.581617  5875 layer_factory.hpp:77] Creating layer conv5_6/sep
I0712 13:26:50.581624  5875 net.cpp:100] Creating Layer conv5_6/sep
I0712 13:26:50.581626  5875 net.cpp:434] conv5_6/sep <- conv5_6/dw
I0712 13:26:50.581631  5875 net.cpp:408] conv5_6/sep -> conv5_6/sep
I0712 13:26:50.588171  5875 net.cpp:150] Setting up conv5_6/sep
I0712 13:26:50.588193  5875 net.cpp:157] Top shape: 16 1024 10 10 (1638400)
I0712 13:26:50.588196  5875 net.cpp:165] Memory required for data: 2462982208
I0712 13:26:50.588202  5875 layer_factory.hpp:77] Creating layer conv5_6/sep/bn
I0712 13:26:50.588208  5875 net.cpp:100] Creating Layer conv5_6/sep/bn
I0712 13:26:50.588212  5875 net.cpp:434] conv5_6/sep/bn <- conv5_6/sep
I0712 13:26:50.588217  5875 net.cpp:395] conv5_6/sep/bn -> conv5_6/sep (in-place)
I0712 13:26:50.588405  5875 net.cpp:150] Setting up conv5_6/sep/bn
I0712 13:26:50.588410  5875 net.cpp:157] Top shape: 16 1024 10 10 (1638400)
I0712 13:26:50.588413  5875 net.cpp:165] Memory required for data: 2469535808
I0712 13:26:50.588416  5875 layer_factory.hpp:77] Creating layer conv5_6/sep/scale
I0712 13:26:50.588423  5875 net.cpp:100] Creating Layer conv5_6/sep/scale
I0712 13:26:50.588425  5875 net.cpp:434] conv5_6/sep/scale <- conv5_6/sep
I0712 13:26:50.588428  5875 net.cpp:395] conv5_6/sep/scale -> conv5_6/sep (in-place)
I0712 13:26:50.588466  5875 layer_factory.hpp:77] Creating layer conv5_6/sep/scale
I0712 13:26:50.588567  5875 net.cpp:150] Setting up conv5_6/sep/scale
I0712 13:26:50.588572  5875 net.cpp:157] Top shape: 16 1024 10 10 (1638400)
I0712 13:26:50.588574  5875 net.cpp:165] Memory required for data: 2476089408
I0712 13:26:50.588577  5875 layer_factory.hpp:77] Creating layer conv5_6/sep_relu
I0712 13:26:50.588582  5875 net.cpp:100] Creating Layer conv5_6/sep_relu
I0712 13:26:50.588584  5875 net.cpp:434] conv5_6/sep_relu <- conv5_6/sep
I0712 13:26:50.588587  5875 net.cpp:395] conv5_6/sep_relu -> conv5_6/sep (in-place)
I0712 13:26:50.588737  5875 net.cpp:150] Setting up conv5_6/sep_relu
I0712 13:26:50.588744  5875 net.cpp:157] Top shape: 16 1024 10 10 (1638400)
I0712 13:26:50.588747  5875 net.cpp:165] Memory required for data: 2482643008
I0712 13:26:50.588748  5875 layer_factory.hpp:77] Creating layer conv6/dw
I0712 13:26:50.588753  5875 net.cpp:100] Creating Layer conv6/dw
I0712 13:26:50.588757  5875 net.cpp:434] conv6/dw <- conv5_6/sep
I0712 13:26:50.588760  5875 net.cpp:408] conv6/dw -> conv6/dw
I0712 13:26:50.589015  5875 net.cpp:150] Setting up conv6/dw
I0712 13:26:50.589018  5875 net.cpp:157] Top shape: 16 1024 10 10 (1638400)
I0712 13:26:50.589020  5875 net.cpp:165] Memory required for data: 2489196608
I0712 13:26:50.589023  5875 layer_factory.hpp:77] Creating layer conv6/dw/bn
I0712 13:26:50.589028  5875 net.cpp:100] Creating Layer conv6/dw/bn
I0712 13:26:50.589030  5875 net.cpp:434] conv6/dw/bn <- conv6/dw
I0712 13:26:50.589033  5875 net.cpp:395] conv6/dw/bn -> conv6/dw (in-place)
I0712 13:26:50.589201  5875 net.cpp:150] Setting up conv6/dw/bn
I0712 13:26:50.589205  5875 net.cpp:157] Top shape: 16 1024 10 10 (1638400)
I0712 13:26:50.589207  5875 net.cpp:165] Memory required for data: 2495750208
I0712 13:26:50.589211  5875 layer_factory.hpp:77] Creating layer conv6/dw/scale
I0712 13:26:50.589216  5875 net.cpp:100] Creating Layer conv6/dw/scale
I0712 13:26:50.589218  5875 net.cpp:434] conv6/dw/scale <- conv6/dw
I0712 13:26:50.589221  5875 net.cpp:395] conv6/dw/scale -> conv6/dw (in-place)
I0712 13:26:50.589253  5875 layer_factory.hpp:77] Creating layer conv6/dw/scale
I0712 13:26:50.589351  5875 net.cpp:150] Setting up conv6/dw/scale
I0712 13:26:50.589372  5875 net.cpp:157] Top shape: 16 1024 10 10 (1638400)
I0712 13:26:50.589375  5875 net.cpp:165] Memory required for data: 2502303808
I0712 13:26:50.589378  5875 layer_factory.hpp:77] Creating layer conv6/dw_relu
I0712 13:26:50.589381  5875 net.cpp:100] Creating Layer conv6/dw_relu
I0712 13:26:50.589383  5875 net.cpp:434] conv6/dw_relu <- conv6/dw
I0712 13:26:50.589387  5875 net.cpp:395] conv6/dw_relu -> conv6/dw (in-place)
I0712 13:26:50.589959  5875 net.cpp:150] Setting up conv6/dw_relu
I0712 13:26:50.589967  5875 net.cpp:157] Top shape: 16 1024 10 10 (1638400)
I0712 13:26:50.589968  5875 net.cpp:165] Memory required for data: 2508857408
I0712 13:26:50.589970  5875 layer_factory.hpp:77] Creating layer conv6/sep
I0712 13:26:50.589977  5875 net.cpp:100] Creating Layer conv6/sep
I0712 13:26:50.589980  5875 net.cpp:434] conv6/sep <- conv6/dw
I0712 13:26:50.589984  5875 net.cpp:408] conv6/sep -> conv6/sep
I0712 13:26:50.601222  5875 net.cpp:150] Setting up conv6/sep
I0712 13:26:50.601240  5875 net.cpp:157] Top shape: 16 1024 10 10 (1638400)
I0712 13:26:50.601243  5875 net.cpp:165] Memory required for data: 2515411008
I0712 13:26:50.601249  5875 layer_factory.hpp:77] Creating layer conv6/sep/bn
I0712 13:26:50.601255  5875 net.cpp:100] Creating Layer conv6/sep/bn
I0712 13:26:50.601259  5875 net.cpp:434] conv6/sep/bn <- conv6/sep
I0712 13:26:50.601263  5875 net.cpp:395] conv6/sep/bn -> conv6/sep (in-place)
I0712 13:26:50.601456  5875 net.cpp:150] Setting up conv6/sep/bn
I0712 13:26:50.601460  5875 net.cpp:157] Top shape: 16 1024 10 10 (1638400)
I0712 13:26:50.601462  5875 net.cpp:165] Memory required for data: 2521964608
I0712 13:26:50.601467  5875 layer_factory.hpp:77] Creating layer conv6/sep/scale
I0712 13:26:50.601472  5875 net.cpp:100] Creating Layer conv6/sep/scale
I0712 13:26:50.601475  5875 net.cpp:434] conv6/sep/scale <- conv6/sep
I0712 13:26:50.601480  5875 net.cpp:395] conv6/sep/scale -> conv6/sep (in-place)
I0712 13:26:50.601518  5875 layer_factory.hpp:77] Creating layer conv6/sep/scale
I0712 13:26:50.601621  5875 net.cpp:150] Setting up conv6/sep/scale
I0712 13:26:50.601625  5875 net.cpp:157] Top shape: 16 1024 10 10 (1638400)
I0712 13:26:50.601627  5875 net.cpp:165] Memory required for data: 2528518208
I0712 13:26:50.601631  5875 layer_factory.hpp:77] Creating layer conv6/sep_relu
I0712 13:26:50.601634  5875 net.cpp:100] Creating Layer conv6/sep_relu
I0712 13:26:50.601636  5875 net.cpp:434] conv6/sep_relu <- conv6/sep
I0712 13:26:50.601639  5875 net.cpp:395] conv6/sep_relu -> conv6/sep (in-place)
I0712 13:26:50.601786  5875 net.cpp:150] Setting up conv6/sep_relu
I0712 13:26:50.601793  5875 net.cpp:157] Top shape: 16 1024 10 10 (1638400)
I0712 13:26:50.601794  5875 net.cpp:165] Memory required for data: 2535071808
I0712 13:26:50.601795  5875 layer_factory.hpp:77] Creating layer conv6/sep_conv6/sep_relu_0_split
I0712 13:26:50.601802  5875 net.cpp:100] Creating Layer conv6/sep_conv6/sep_relu_0_split
I0712 13:26:50.601804  5875 net.cpp:434] conv6/sep_conv6/sep_relu_0_split <- conv6/sep
I0712 13:26:50.601807  5875 net.cpp:408] conv6/sep_conv6/sep_relu_0_split -> conv6/sep_conv6/sep_relu_0_split_0
I0712 13:26:50.601814  5875 net.cpp:408] conv6/sep_conv6/sep_relu_0_split -> conv6/sep_conv6/sep_relu_0_split_1
I0712 13:26:50.601817  5875 net.cpp:408] conv6/sep_conv6/sep_relu_0_split -> conv6/sep_conv6/sep_relu_0_split_2
I0712 13:26:50.601821  5875 net.cpp:408] conv6/sep_conv6/sep_relu_0_split -> conv6/sep_conv6/sep_relu_0_split_3
I0712 13:26:50.601878  5875 net.cpp:150] Setting up conv6/sep_conv6/sep_relu_0_split
I0712 13:26:50.601883  5875 net.cpp:157] Top shape: 16 1024 10 10 (1638400)
I0712 13:26:50.601886  5875 net.cpp:157] Top shape: 16 1024 10 10 (1638400)
I0712 13:26:50.601887  5875 net.cpp:157] Top shape: 16 1024 10 10 (1638400)
I0712 13:26:50.601891  5875 net.cpp:157] Top shape: 16 1024 10 10 (1638400)
I0712 13:26:50.601891  5875 net.cpp:165] Memory required for data: 2561286208
I0712 13:26:50.601893  5875 layer_factory.hpp:77] Creating layer conv7_1
I0712 13:26:50.601917  5875 net.cpp:100] Creating Layer conv7_1
I0712 13:26:50.601918  5875 net.cpp:434] conv7_1 <- conv6/sep_conv6/sep_relu_0_split_0
I0712 13:26:50.601923  5875 net.cpp:408] conv7_1 -> conv7_1
I0712 13:26:50.605047  5875 net.cpp:150] Setting up conv7_1
I0712 13:26:50.605057  5875 net.cpp:157] Top shape: 16 256 10 10 (409600)
I0712 13:26:50.605058  5875 net.cpp:165] Memory required for data: 2562924608
I0712 13:26:50.605063  5875 layer_factory.hpp:77] Creating layer conv7_1_relu
I0712 13:26:50.605068  5875 net.cpp:100] Creating Layer conv7_1_relu
I0712 13:26:50.605070  5875 net.cpp:434] conv7_1_relu <- conv7_1
I0712 13:26:50.605074  5875 net.cpp:395] conv7_1_relu -> conv7_1 (in-place)
I0712 13:26:50.605654  5875 net.cpp:150] Setting up conv7_1_relu
I0712 13:26:50.605662  5875 net.cpp:157] Top shape: 16 256 10 10 (409600)
I0712 13:26:50.605664  5875 net.cpp:165] Memory required for data: 2564563008
I0712 13:26:50.605666  5875 layer_factory.hpp:77] Creating layer conv7_2
I0712 13:26:50.605674  5875 net.cpp:100] Creating Layer conv7_2
I0712 13:26:50.605675  5875 net.cpp:434] conv7_2 <- conv7_1
I0712 13:26:50.605681  5875 net.cpp:408] conv7_2 -> conv7_2
I0712 13:26:50.613433  5875 net.cpp:150] Setting up conv7_2
I0712 13:26:50.613451  5875 net.cpp:157] Top shape: 16 512 5 5 (204800)
I0712 13:26:50.613453  5875 net.cpp:165] Memory required for data: 2565382208
I0712 13:26:50.613461  5875 layer_factory.hpp:77] Creating layer conv7_2_relu
I0712 13:26:50.613466  5875 net.cpp:100] Creating Layer conv7_2_relu
I0712 13:26:50.613471  5875 net.cpp:434] conv7_2_relu <- conv7_2
I0712 13:26:50.613476  5875 net.cpp:395] conv7_2_relu -> conv7_2 (in-place)
I0712 13:26:50.614128  5875 net.cpp:150] Setting up conv7_2_relu
I0712 13:26:50.614138  5875 net.cpp:157] Top shape: 16 512 5 5 (204800)
I0712 13:26:50.614140  5875 net.cpp:165] Memory required for data: 2566201408
I0712 13:26:50.614143  5875 layer_factory.hpp:77] Creating layer conv7_2_conv7_2_relu_0_split
I0712 13:26:50.614151  5875 net.cpp:100] Creating Layer conv7_2_conv7_2_relu_0_split
I0712 13:26:50.614156  5875 net.cpp:434] conv7_2_conv7_2_relu_0_split <- conv7_2
I0712 13:26:50.614162  5875 net.cpp:408] conv7_2_conv7_2_relu_0_split -> conv7_2_conv7_2_relu_0_split_0
I0712 13:26:50.614172  5875 net.cpp:408] conv7_2_conv7_2_relu_0_split -> conv7_2_conv7_2_relu_0_split_1
I0712 13:26:50.614178  5875 net.cpp:408] conv7_2_conv7_2_relu_0_split -> conv7_2_conv7_2_relu_0_split_2
I0712 13:26:50.614183  5875 net.cpp:408] conv7_2_conv7_2_relu_0_split -> conv7_2_conv7_2_relu_0_split_3
I0712 13:26:50.614265  5875 net.cpp:150] Setting up conv7_2_conv7_2_relu_0_split
I0712 13:26:50.614270  5875 net.cpp:157] Top shape: 16 512 5 5 (204800)
I0712 13:26:50.614272  5875 net.cpp:157] Top shape: 16 512 5 5 (204800)
I0712 13:26:50.614275  5875 net.cpp:157] Top shape: 16 512 5 5 (204800)
I0712 13:26:50.614277  5875 net.cpp:157] Top shape: 16 512 5 5 (204800)
I0712 13:26:50.614279  5875 net.cpp:165] Memory required for data: 2569478208
I0712 13:26:50.614280  5875 layer_factory.hpp:77] Creating layer conv8_1
I0712 13:26:50.614289  5875 net.cpp:100] Creating Layer conv8_1
I0712 13:26:50.614291  5875 net.cpp:434] conv8_1 <- conv7_2_conv7_2_relu_0_split_0
I0712 13:26:50.614295  5875 net.cpp:408] conv8_1 -> conv8_1
I0712 13:26:50.616148  5875 net.cpp:150] Setting up conv8_1
I0712 13:26:50.616158  5875 net.cpp:157] Top shape: 16 128 5 5 (51200)
I0712 13:26:50.616159  5875 net.cpp:165] Memory required for data: 2569683008
I0712 13:26:50.616163  5875 layer_factory.hpp:77] Creating layer conv8_1_relu
I0712 13:26:50.616168  5875 net.cpp:100] Creating Layer conv8_1_relu
I0712 13:26:50.616171  5875 net.cpp:434] conv8_1_relu <- conv8_1
I0712 13:26:50.616174  5875 net.cpp:395] conv8_1_relu -> conv8_1 (in-place)
I0712 13:26:50.616322  5875 net.cpp:150] Setting up conv8_1_relu
I0712 13:26:50.616328  5875 net.cpp:157] Top shape: 16 128 5 5 (51200)
I0712 13:26:50.616329  5875 net.cpp:165] Memory required for data: 2569887808
I0712 13:26:50.616331  5875 layer_factory.hpp:77] Creating layer conv8_2
I0712 13:26:50.616349  5875 net.cpp:100] Creating Layer conv8_2
I0712 13:26:50.616351  5875 net.cpp:434] conv8_2 <- conv8_1
I0712 13:26:50.616356  5875 net.cpp:408] conv8_2 -> conv8_2
I0712 13:26:50.619663  5875 net.cpp:150] Setting up conv8_2
I0712 13:26:50.619671  5875 net.cpp:157] Top shape: 16 256 3 3 (36864)
I0712 13:26:50.619673  5875 net.cpp:165] Memory required for data: 2570035264
I0712 13:26:50.619678  5875 layer_factory.hpp:77] Creating layer conv8_2_relu
I0712 13:26:50.619683  5875 net.cpp:100] Creating Layer conv8_2_relu
I0712 13:26:50.619684  5875 net.cpp:434] conv8_2_relu <- conv8_2
I0712 13:26:50.619688  5875 net.cpp:395] conv8_2_relu -> conv8_2 (in-place)
I0712 13:26:50.620270  5875 net.cpp:150] Setting up conv8_2_relu
I0712 13:26:50.620277  5875 net.cpp:157] Top shape: 16 256 3 3 (36864)
I0712 13:26:50.620280  5875 net.cpp:165] Memory required for data: 2570182720
I0712 13:26:50.620281  5875 layer_factory.hpp:77] Creating layer conv8_2_conv8_2_relu_0_split
I0712 13:26:50.620287  5875 net.cpp:100] Creating Layer conv8_2_conv8_2_relu_0_split
I0712 13:26:50.620290  5875 net.cpp:434] conv8_2_conv8_2_relu_0_split <- conv8_2
I0712 13:26:50.620293  5875 net.cpp:408] conv8_2_conv8_2_relu_0_split -> conv8_2_conv8_2_relu_0_split_0
I0712 13:26:50.620299  5875 net.cpp:408] conv8_2_conv8_2_relu_0_split -> conv8_2_conv8_2_relu_0_split_1
I0712 13:26:50.620303  5875 net.cpp:408] conv8_2_conv8_2_relu_0_split -> conv8_2_conv8_2_relu_0_split_2
I0712 13:26:50.620306  5875 net.cpp:408] conv8_2_conv8_2_relu_0_split -> conv8_2_conv8_2_relu_0_split_3
I0712 13:26:50.620373  5875 net.cpp:150] Setting up conv8_2_conv8_2_relu_0_split
I0712 13:26:50.620376  5875 net.cpp:157] Top shape: 16 256 3 3 (36864)
I0712 13:26:50.620378  5875 net.cpp:157] Top shape: 16 256 3 3 (36864)
I0712 13:26:50.620381  5875 net.cpp:157] Top shape: 16 256 3 3 (36864)
I0712 13:26:50.620383  5875 net.cpp:157] Top shape: 16 256 3 3 (36864)
I0712 13:26:50.620384  5875 net.cpp:165] Memory required for data: 2570772544
I0712 13:26:50.620386  5875 layer_factory.hpp:77] Creating layer conv9_1
I0712 13:26:50.620394  5875 net.cpp:100] Creating Layer conv9_1
I0712 13:26:50.620398  5875 net.cpp:434] conv9_1 <- conv8_2_conv8_2_relu_0_split_0
I0712 13:26:50.620401  5875 net.cpp:408] conv9_1 -> conv9_1
I0712 13:26:50.621675  5875 net.cpp:150] Setting up conv9_1
I0712 13:26:50.621685  5875 net.cpp:157] Top shape: 16 128 3 3 (18432)
I0712 13:26:50.621686  5875 net.cpp:165] Memory required for data: 2570846272
I0712 13:26:50.621690  5875 layer_factory.hpp:77] Creating layer conv9_1_relu
I0712 13:26:50.621695  5875 net.cpp:100] Creating Layer conv9_1_relu
I0712 13:26:50.621697  5875 net.cpp:434] conv9_1_relu <- conv9_1
I0712 13:26:50.621701  5875 net.cpp:395] conv9_1_relu -> conv9_1 (in-place)
I0712 13:26:50.622275  5875 net.cpp:150] Setting up conv9_1_relu
I0712 13:26:50.622283  5875 net.cpp:157] Top shape: 16 128 3 3 (18432)
I0712 13:26:50.622284  5875 net.cpp:165] Memory required for data: 2570920000
I0712 13:26:50.622287  5875 layer_factory.hpp:77] Creating layer conv9_2
I0712 13:26:50.622293  5875 net.cpp:100] Creating Layer conv9_2
I0712 13:26:50.622297  5875 net.cpp:434] conv9_2 <- conv9_1
I0712 13:26:50.622301  5875 net.cpp:408] conv9_2 -> conv9_2
I0712 13:26:50.625998  5875 net.cpp:150] Setting up conv9_2
I0712 13:26:50.626008  5875 net.cpp:157] Top shape: 16 256 2 2 (16384)
I0712 13:26:50.626010  5875 net.cpp:165] Memory required for data: 2570985536
I0712 13:26:50.626015  5875 layer_factory.hpp:77] Creating layer conv9_2_relu
I0712 13:26:50.626019  5875 net.cpp:100] Creating Layer conv9_2_relu
I0712 13:26:50.626022  5875 net.cpp:434] conv9_2_relu <- conv9_2
I0712 13:26:50.626027  5875 net.cpp:395] conv9_2_relu -> conv9_2 (in-place)
I0712 13:26:50.626184  5875 net.cpp:150] Setting up conv9_2_relu
I0712 13:26:50.626190  5875 net.cpp:157] Top shape: 16 256 2 2 (16384)
I0712 13:26:50.626193  5875 net.cpp:165] Memory required for data: 2571051072
I0712 13:26:50.626194  5875 layer_factory.hpp:77] Creating layer conv9_2_conv9_2_relu_0_split
I0712 13:26:50.626199  5875 net.cpp:100] Creating Layer conv9_2_conv9_2_relu_0_split
I0712 13:26:50.626211  5875 net.cpp:434] conv9_2_conv9_2_relu_0_split <- conv9_2
I0712 13:26:50.626215  5875 net.cpp:408] conv9_2_conv9_2_relu_0_split -> conv9_2_conv9_2_relu_0_split_0
I0712 13:26:50.626221  5875 net.cpp:408] conv9_2_conv9_2_relu_0_split -> conv9_2_conv9_2_relu_0_split_1
I0712 13:26:50.626226  5875 net.cpp:408] conv9_2_conv9_2_relu_0_split -> conv9_2_conv9_2_relu_0_split_2
I0712 13:26:50.626230  5875 net.cpp:408] conv9_2_conv9_2_relu_0_split -> conv9_2_conv9_2_relu_0_split_3
I0712 13:26:50.626292  5875 net.cpp:150] Setting up conv9_2_conv9_2_relu_0_split
I0712 13:26:50.626296  5875 net.cpp:157] Top shape: 16 256 2 2 (16384)
I0712 13:26:50.626299  5875 net.cpp:157] Top shape: 16 256 2 2 (16384)
I0712 13:26:50.626302  5875 net.cpp:157] Top shape: 16 256 2 2 (16384)
I0712 13:26:50.626303  5875 net.cpp:157] Top shape: 16 256 2 2 (16384)
I0712 13:26:50.626305  5875 net.cpp:165] Memory required for data: 2571313216
I0712 13:26:50.626307  5875 layer_factory.hpp:77] Creating layer conv10_1
I0712 13:26:50.626315  5875 net.cpp:100] Creating Layer conv10_1
I0712 13:26:50.626317  5875 net.cpp:434] conv10_1 <- conv9_2_conv9_2_relu_0_split_0
I0712 13:26:50.626322  5875 net.cpp:408] conv10_1 -> conv10_1
I0712 13:26:50.628021  5875 net.cpp:150] Setting up conv10_1
I0712 13:26:50.628029  5875 net.cpp:157] Top shape: 16 128 2 2 (8192)
I0712 13:26:50.628031  5875 net.cpp:165] Memory required for data: 2571345984
I0712 13:26:50.628036  5875 layer_factory.hpp:77] Creating layer conv10_1_relu
I0712 13:26:50.628053  5875 net.cpp:100] Creating Layer conv10_1_relu
I0712 13:26:50.628056  5875 net.cpp:434] conv10_1_relu <- conv10_1
I0712 13:26:50.628059  5875 net.cpp:395] conv10_1_relu -> conv10_1 (in-place)
I0712 13:26:50.628636  5875 net.cpp:150] Setting up conv10_1_relu
I0712 13:26:50.628643  5875 net.cpp:157] Top shape: 16 128 2 2 (8192)
I0712 13:26:50.628645  5875 net.cpp:165] Memory required for data: 2571378752
I0712 13:26:50.628648  5875 layer_factory.hpp:77] Creating layer conv10_2
I0712 13:26:50.628655  5875 net.cpp:100] Creating Layer conv10_2
I0712 13:26:50.628657  5875 net.cpp:434] conv10_2 <- conv10_1
I0712 13:26:50.628662  5875 net.cpp:408] conv10_2 -> conv10_2
I0712 13:26:50.631541  5875 net.cpp:150] Setting up conv10_2
I0712 13:26:50.631549  5875 net.cpp:157] Top shape: 16 256 1 1 (4096)
I0712 13:26:50.631551  5875 net.cpp:165] Memory required for data: 2571395136
I0712 13:26:50.631556  5875 layer_factory.hpp:77] Creating layer conv10_2_relu
I0712 13:26:50.631559  5875 net.cpp:100] Creating Layer conv10_2_relu
I0712 13:26:50.631561  5875 net.cpp:434] conv10_2_relu <- conv10_2
I0712 13:26:50.631566  5875 net.cpp:395] conv10_2_relu -> conv10_2 (in-place)
I0712 13:26:50.632139  5875 net.cpp:150] Setting up conv10_2_relu
I0712 13:26:50.632148  5875 net.cpp:157] Top shape: 16 256 1 1 (4096)
I0712 13:26:50.632148  5875 net.cpp:165] Memory required for data: 2571411520
I0712 13:26:50.632150  5875 layer_factory.hpp:77] Creating layer conv10_2_conv10_2_relu_0_split
I0712 13:26:50.632156  5875 net.cpp:100] Creating Layer conv10_2_conv10_2_relu_0_split
I0712 13:26:50.632158  5875 net.cpp:434] conv10_2_conv10_2_relu_0_split <- conv10_2
I0712 13:26:50.632161  5875 net.cpp:408] conv10_2_conv10_2_relu_0_split -> conv10_2_conv10_2_relu_0_split_0
I0712 13:26:50.632176  5875 net.cpp:408] conv10_2_conv10_2_relu_0_split -> conv10_2_conv10_2_relu_0_split_1
I0712 13:26:50.632180  5875 net.cpp:408] conv10_2_conv10_2_relu_0_split -> conv10_2_conv10_2_relu_0_split_2
I0712 13:26:50.632235  5875 net.cpp:150] Setting up conv10_2_conv10_2_relu_0_split
I0712 13:26:50.632239  5875 net.cpp:157] Top shape: 16 256 1 1 (4096)
I0712 13:26:50.632241  5875 net.cpp:157] Top shape: 16 256 1 1 (4096)
I0712 13:26:50.632244  5875 net.cpp:157] Top shape: 16 256 1 1 (4096)
I0712 13:26:50.632246  5875 net.cpp:165] Memory required for data: 2571460672
I0712 13:26:50.632247  5875 layer_factory.hpp:77] Creating layer conv5_5/sep_mbox_loc
I0712 13:26:50.632257  5875 net.cpp:100] Creating Layer conv5_5/sep_mbox_loc
I0712 13:26:50.632268  5875 net.cpp:434] conv5_5/sep_mbox_loc <- conv5_5/sep_conv5_5/sep_relu_0_split_1
I0712 13:26:50.632273  5875 net.cpp:408] conv5_5/sep_mbox_loc -> conv5_5/sep_mbox_loc
I0712 13:26:50.634498  5875 net.cpp:150] Setting up conv5_5/sep_mbox_loc
I0712 13:26:50.634507  5875 net.cpp:157] Top shape: 16 12 19 19 (69312)
I0712 13:26:50.634510  5875 net.cpp:165] Memory required for data: 2571737920
I0712 13:26:50.634513  5875 layer_factory.hpp:77] Creating layer conv5_5/sep_mbox_loc_perm
I0712 13:26:50.634521  5875 net.cpp:100] Creating Layer conv5_5/sep_mbox_loc_perm
I0712 13:26:50.634523  5875 net.cpp:434] conv5_5/sep_mbox_loc_perm <- conv5_5/sep_mbox_loc
I0712 13:26:50.634527  5875 net.cpp:408] conv5_5/sep_mbox_loc_perm -> conv5_5/sep_mbox_loc_perm
I0712 13:26:50.634631  5875 net.cpp:150] Setting up conv5_5/sep_mbox_loc_perm
I0712 13:26:50.634635  5875 net.cpp:157] Top shape: 16 19 19 12 (69312)
I0712 13:26:50.634637  5875 net.cpp:165] Memory required for data: 2572015168
I0712 13:26:50.634639  5875 layer_factory.hpp:77] Creating layer conv5_5/sep_mbox_loc_flat
I0712 13:26:50.634644  5875 net.cpp:100] Creating Layer conv5_5/sep_mbox_loc_flat
I0712 13:26:50.634647  5875 net.cpp:434] conv5_5/sep_mbox_loc_flat <- conv5_5/sep_mbox_loc_perm
I0712 13:26:50.634650  5875 net.cpp:408] conv5_5/sep_mbox_loc_flat -> conv5_5/sep_mbox_loc_flat
I0712 13:26:50.634675  5875 net.cpp:150] Setting up conv5_5/sep_mbox_loc_flat
I0712 13:26:50.634678  5875 net.cpp:157] Top shape: 16 4332 (69312)
I0712 13:26:50.634680  5875 net.cpp:165] Memory required for data: 2572292416
I0712 13:26:50.634682  5875 layer_factory.hpp:77] Creating layer conv5_5/sep_mbox_conf
I0712 13:26:50.634690  5875 net.cpp:100] Creating Layer conv5_5/sep_mbox_conf
I0712 13:26:50.634691  5875 net.cpp:434] conv5_5/sep_mbox_conf <- conv5_5/sep_conv5_5/sep_relu_0_split_2
I0712 13:26:50.634696  5875 net.cpp:408] conv5_5/sep_mbox_conf -> conv5_5/sep_mbox_conf
I0712 13:26:50.638859  5875 net.cpp:150] Setting up conv5_5/sep_mbox_conf
I0712 13:26:50.638870  5875 net.cpp:157] Top shape: 16 63 19 19 (363888)
I0712 13:26:50.638872  5875 net.cpp:165] Memory required for data: 2573747968
I0712 13:26:50.638880  5875 layer_factory.hpp:77] Creating layer conv5_5/sep_mbox_conf_perm
I0712 13:26:50.638887  5875 net.cpp:100] Creating Layer conv5_5/sep_mbox_conf_perm
I0712 13:26:50.638891  5875 net.cpp:434] conv5_5/sep_mbox_conf_perm <- conv5_5/sep_mbox_conf
I0712 13:26:50.638896  5875 net.cpp:408] conv5_5/sep_mbox_conf_perm -> conv5_5/sep_mbox_conf_perm
I0712 13:26:50.639036  5875 net.cpp:150] Setting up conv5_5/sep_mbox_conf_perm
I0712 13:26:50.639044  5875 net.cpp:157] Top shape: 16 19 19 63 (363888)
I0712 13:26:50.639046  5875 net.cpp:165] Memory required for data: 2575203520
I0712 13:26:50.639050  5875 layer_factory.hpp:77] Creating layer conv5_5/sep_mbox_conf_flat
I0712 13:26:50.639056  5875 net.cpp:100] Creating Layer conv5_5/sep_mbox_conf_flat
I0712 13:26:50.639060  5875 net.cpp:434] conv5_5/sep_mbox_conf_flat <- conv5_5/sep_mbox_conf_perm
I0712 13:26:50.639065  5875 net.cpp:408] conv5_5/sep_mbox_conf_flat -> conv5_5/sep_mbox_conf_flat
I0712 13:26:50.639099  5875 net.cpp:150] Setting up conv5_5/sep_mbox_conf_flat
I0712 13:26:50.639106  5875 net.cpp:157] Top shape: 16 22743 (363888)
I0712 13:26:50.639108  5875 net.cpp:165] Memory required for data: 2576659072
I0712 13:26:50.639111  5875 layer_factory.hpp:77] Creating layer conv5_5/sep_mbox_priorbox
I0712 13:26:50.639120  5875 net.cpp:100] Creating Layer conv5_5/sep_mbox_priorbox
I0712 13:26:50.639123  5875 net.cpp:434] conv5_5/sep_mbox_priorbox <- conv5_5/sep_conv5_5/sep_relu_0_split_3
I0712 13:26:50.639129  5875 net.cpp:434] conv5_5/sep_mbox_priorbox <- data_data_0_split_1
I0712 13:26:50.639134  5875 net.cpp:408] conv5_5/sep_mbox_priorbox -> conv5_5/sep_mbox_priorbox
I0712 13:26:50.639171  5875 net.cpp:150] Setting up conv5_5/sep_mbox_priorbox
I0712 13:26:50.639178  5875 net.cpp:157] Top shape: 1 2 4332 (8664)
I0712 13:26:50.639180  5875 net.cpp:165] Memory required for data: 2576693728
I0712 13:26:50.639183  5875 layer_factory.hpp:77] Creating layer conv6/sep_mbox_loc
I0712 13:26:50.639206  5875 net.cpp:100] Creating Layer conv6/sep_mbox_loc
I0712 13:26:50.639210  5875 net.cpp:434] conv6/sep_mbox_loc <- conv6/sep_conv6/sep_relu_0_split_1
I0712 13:26:50.639219  5875 net.cpp:408] conv6/sep_mbox_loc -> conv6/sep_mbox_loc
I0712 13:26:50.642282  5875 net.cpp:150] Setting up conv6/sep_mbox_loc
I0712 13:26:50.642292  5875 net.cpp:157] Top shape: 16 24 10 10 (38400)
I0712 13:26:50.642293  5875 net.cpp:165] Memory required for data: 2576847328
I0712 13:26:50.642298  5875 layer_factory.hpp:77] Creating layer conv6/sep_mbox_loc_perm
I0712 13:26:50.642303  5875 net.cpp:100] Creating Layer conv6/sep_mbox_loc_perm
I0712 13:26:50.642305  5875 net.cpp:434] conv6/sep_mbox_loc_perm <- conv6/sep_mbox_loc
I0712 13:26:50.642309  5875 net.cpp:408] conv6/sep_mbox_loc_perm -> conv6/sep_mbox_loc_perm
I0712 13:26:50.642411  5875 net.cpp:150] Setting up conv6/sep_mbox_loc_perm
I0712 13:26:50.642416  5875 net.cpp:157] Top shape: 16 10 10 24 (38400)
I0712 13:26:50.642417  5875 net.cpp:165] Memory required for data: 2577000928
I0712 13:26:50.642419  5875 layer_factory.hpp:77] Creating layer conv6/sep_mbox_loc_flat
I0712 13:26:50.642426  5875 net.cpp:100] Creating Layer conv6/sep_mbox_loc_flat
I0712 13:26:50.642427  5875 net.cpp:434] conv6/sep_mbox_loc_flat <- conv6/sep_mbox_loc_perm
I0712 13:26:50.642431  5875 net.cpp:408] conv6/sep_mbox_loc_flat -> conv6/sep_mbox_loc_flat
I0712 13:26:50.642452  5875 net.cpp:150] Setting up conv6/sep_mbox_loc_flat
I0712 13:26:50.642455  5875 net.cpp:157] Top shape: 16 2400 (38400)
I0712 13:26:50.642457  5875 net.cpp:165] Memory required for data: 2577154528
I0712 13:26:50.642458  5875 layer_factory.hpp:77] Creating layer conv6/sep_mbox_conf
I0712 13:26:50.642465  5875 net.cpp:100] Creating Layer conv6/sep_mbox_conf
I0712 13:26:50.642467  5875 net.cpp:434] conv6/sep_mbox_conf <- conv6/sep_conv6/sep_relu_0_split_2
I0712 13:26:50.642472  5875 net.cpp:408] conv6/sep_mbox_conf -> conv6/sep_mbox_conf
I0712 13:26:50.653714  5875 net.cpp:150] Setting up conv6/sep_mbox_conf
I0712 13:26:50.653733  5875 net.cpp:157] Top shape: 16 126 10 10 (201600)
I0712 13:26:50.653735  5875 net.cpp:165] Memory required for data: 2577960928
I0712 13:26:50.653743  5875 layer_factory.hpp:77] Creating layer conv6/sep_mbox_conf_perm
I0712 13:26:50.653750  5875 net.cpp:100] Creating Layer conv6/sep_mbox_conf_perm
I0712 13:26:50.653753  5875 net.cpp:434] conv6/sep_mbox_conf_perm <- conv6/sep_mbox_conf
I0712 13:26:50.653759  5875 net.cpp:408] conv6/sep_mbox_conf_perm -> conv6/sep_mbox_conf_perm
I0712 13:26:50.653867  5875 net.cpp:150] Setting up conv6/sep_mbox_conf_perm
I0712 13:26:50.653872  5875 net.cpp:157] Top shape: 16 10 10 126 (201600)
I0712 13:26:50.653872  5875 net.cpp:165] Memory required for data: 2578767328
I0712 13:26:50.653874  5875 layer_factory.hpp:77] Creating layer conv6/sep_mbox_conf_flat
I0712 13:26:50.653879  5875 net.cpp:100] Creating Layer conv6/sep_mbox_conf_flat
I0712 13:26:50.653882  5875 net.cpp:434] conv6/sep_mbox_conf_flat <- conv6/sep_mbox_conf_perm
I0712 13:26:50.653884  5875 net.cpp:408] conv6/sep_mbox_conf_flat -> conv6/sep_mbox_conf_flat
I0712 13:26:50.653908  5875 net.cpp:150] Setting up conv6/sep_mbox_conf_flat
I0712 13:26:50.653913  5875 net.cpp:157] Top shape: 16 12600 (201600)
I0712 13:26:50.653913  5875 net.cpp:165] Memory required for data: 2579573728
I0712 13:26:50.653915  5875 layer_factory.hpp:77] Creating layer conv6/sep_mbox_priorbox
I0712 13:26:50.653921  5875 net.cpp:100] Creating Layer conv6/sep_mbox_priorbox
I0712 13:26:50.653923  5875 net.cpp:434] conv6/sep_mbox_priorbox <- conv6/sep_conv6/sep_relu_0_split_3
I0712 13:26:50.653928  5875 net.cpp:434] conv6/sep_mbox_priorbox <- data_data_0_split_2
I0712 13:26:50.653931  5875 net.cpp:408] conv6/sep_mbox_priorbox -> conv6/sep_mbox_priorbox
I0712 13:26:50.653959  5875 net.cpp:150] Setting up conv6/sep_mbox_priorbox
I0712 13:26:50.653961  5875 net.cpp:157] Top shape: 1 2 2400 (4800)
I0712 13:26:50.653964  5875 net.cpp:165] Memory required for data: 2579592928
I0712 13:26:50.653981  5875 layer_factory.hpp:77] Creating layer conv7_2_mbox_loc
I0712 13:26:50.653990  5875 net.cpp:100] Creating Layer conv7_2_mbox_loc
I0712 13:26:50.653992  5875 net.cpp:434] conv7_2_mbox_loc <- conv7_2_conv7_2_relu_0_split_1
I0712 13:26:50.653997  5875 net.cpp:408] conv7_2_mbox_loc -> conv7_2_mbox_loc
I0712 13:26:50.656517  5875 net.cpp:150] Setting up conv7_2_mbox_loc
I0712 13:26:50.656525  5875 net.cpp:157] Top shape: 16 24 5 5 (9600)
I0712 13:26:50.656527  5875 net.cpp:165] Memory required for data: 2579631328
I0712 13:26:50.656533  5875 layer_factory.hpp:77] Creating layer conv7_2_mbox_loc_perm
I0712 13:26:50.656538  5875 net.cpp:100] Creating Layer conv7_2_mbox_loc_perm
I0712 13:26:50.656540  5875 net.cpp:434] conv7_2_mbox_loc_perm <- conv7_2_mbox_loc
I0712 13:26:50.656543  5875 net.cpp:408] conv7_2_mbox_loc_perm -> conv7_2_mbox_loc_perm
I0712 13:26:50.656653  5875 net.cpp:150] Setting up conv7_2_mbox_loc_perm
I0712 13:26:50.656658  5875 net.cpp:157] Top shape: 16 5 5 24 (9600)
I0712 13:26:50.656661  5875 net.cpp:165] Memory required for data: 2579669728
I0712 13:26:50.656661  5875 layer_factory.hpp:77] Creating layer conv7_2_mbox_loc_flat
I0712 13:26:50.656666  5875 net.cpp:100] Creating Layer conv7_2_mbox_loc_flat
I0712 13:26:50.656667  5875 net.cpp:434] conv7_2_mbox_loc_flat <- conv7_2_mbox_loc_perm
I0712 13:26:50.656672  5875 net.cpp:408] conv7_2_mbox_loc_flat -> conv7_2_mbox_loc_flat
I0712 13:26:50.656697  5875 net.cpp:150] Setting up conv7_2_mbox_loc_flat
I0712 13:26:50.656700  5875 net.cpp:157] Top shape: 16 600 (9600)
I0712 13:26:50.656702  5875 net.cpp:165] Memory required for data: 2579708128
I0712 13:26:50.656703  5875 layer_factory.hpp:77] Creating layer conv7_2_mbox_conf
I0712 13:26:50.656710  5875 net.cpp:100] Creating Layer conv7_2_mbox_conf
I0712 13:26:50.656713  5875 net.cpp:434] conv7_2_mbox_conf <- conv7_2_conv7_2_relu_0_split_2
I0712 13:26:50.656718  5875 net.cpp:408] conv7_2_mbox_conf -> conv7_2_mbox_conf
I0712 13:26:50.662909  5875 net.cpp:150] Setting up conv7_2_mbox_conf
I0712 13:26:50.662920  5875 net.cpp:157] Top shape: 16 126 5 5 (50400)
I0712 13:26:50.662922  5875 net.cpp:165] Memory required for data: 2579909728
I0712 13:26:50.662927  5875 layer_factory.hpp:77] Creating layer conv7_2_mbox_conf_perm
I0712 13:26:50.662932  5875 net.cpp:100] Creating Layer conv7_2_mbox_conf_perm
I0712 13:26:50.662935  5875 net.cpp:434] conv7_2_mbox_conf_perm <- conv7_2_mbox_conf
I0712 13:26:50.662940  5875 net.cpp:408] conv7_2_mbox_conf_perm -> conv7_2_mbox_conf_perm
I0712 13:26:50.663048  5875 net.cpp:150] Setting up conv7_2_mbox_conf_perm
I0712 13:26:50.663053  5875 net.cpp:157] Top shape: 16 5 5 126 (50400)
I0712 13:26:50.663053  5875 net.cpp:165] Memory required for data: 2580111328
I0712 13:26:50.663055  5875 layer_factory.hpp:77] Creating layer conv7_2_mbox_conf_flat
I0712 13:26:50.663060  5875 net.cpp:100] Creating Layer conv7_2_mbox_conf_flat
I0712 13:26:50.663063  5875 net.cpp:434] conv7_2_mbox_conf_flat <- conv7_2_mbox_conf_perm
I0712 13:26:50.663065  5875 net.cpp:408] conv7_2_mbox_conf_flat -> conv7_2_mbox_conf_flat
I0712 13:26:50.663089  5875 net.cpp:150] Setting up conv7_2_mbox_conf_flat
I0712 13:26:50.663092  5875 net.cpp:157] Top shape: 16 3150 (50400)
I0712 13:26:50.663094  5875 net.cpp:165] Memory required for data: 2580312928
I0712 13:26:50.663095  5875 layer_factory.hpp:77] Creating layer conv7_2_mbox_priorbox
I0712 13:26:50.663101  5875 net.cpp:100] Creating Layer conv7_2_mbox_priorbox
I0712 13:26:50.663103  5875 net.cpp:434] conv7_2_mbox_priorbox <- conv7_2_conv7_2_relu_0_split_3
I0712 13:26:50.663106  5875 net.cpp:434] conv7_2_mbox_priorbox <- data_data_0_split_3
I0712 13:26:50.663110  5875 net.cpp:408] conv7_2_mbox_priorbox -> conv7_2_mbox_priorbox
I0712 13:26:50.663136  5875 net.cpp:150] Setting up conv7_2_mbox_priorbox
I0712 13:26:50.663141  5875 net.cpp:157] Top shape: 1 2 600 (1200)
I0712 13:26:50.663142  5875 net.cpp:165] Memory required for data: 2580317728
I0712 13:26:50.663143  5875 layer_factory.hpp:77] Creating layer conv8_2_mbox_loc
I0712 13:26:50.663151  5875 net.cpp:100] Creating Layer conv8_2_mbox_loc
I0712 13:26:50.663166  5875 net.cpp:434] conv8_2_mbox_loc <- conv8_2_conv8_2_relu_0_split_1
I0712 13:26:50.663170  5875 net.cpp:408] conv8_2_mbox_loc -> conv8_2_mbox_loc
I0712 13:26:50.665839  5875 net.cpp:150] Setting up conv8_2_mbox_loc
I0712 13:26:50.665848  5875 net.cpp:157] Top shape: 16 24 3 3 (3456)
I0712 13:26:50.665851  5875 net.cpp:165] Memory required for data: 2580331552
I0712 13:26:50.665856  5875 layer_factory.hpp:77] Creating layer conv8_2_mbox_loc_perm
I0712 13:26:50.665860  5875 net.cpp:100] Creating Layer conv8_2_mbox_loc_perm
I0712 13:26:50.665863  5875 net.cpp:434] conv8_2_mbox_loc_perm <- conv8_2_mbox_loc
I0712 13:26:50.665868  5875 net.cpp:408] conv8_2_mbox_loc_perm -> conv8_2_mbox_loc_perm
I0712 13:26:50.665973  5875 net.cpp:150] Setting up conv8_2_mbox_loc_perm
I0712 13:26:50.665977  5875 net.cpp:157] Top shape: 16 3 3 24 (3456)
I0712 13:26:50.665979  5875 net.cpp:165] Memory required for data: 2580345376
I0712 13:26:50.665982  5875 layer_factory.hpp:77] Creating layer conv8_2_mbox_loc_flat
I0712 13:26:50.665987  5875 net.cpp:100] Creating Layer conv8_2_mbox_loc_flat
I0712 13:26:50.665989  5875 net.cpp:434] conv8_2_mbox_loc_flat <- conv8_2_mbox_loc_perm
I0712 13:26:50.665992  5875 net.cpp:408] conv8_2_mbox_loc_flat -> conv8_2_mbox_loc_flat
I0712 13:26:50.666015  5875 net.cpp:150] Setting up conv8_2_mbox_loc_flat
I0712 13:26:50.666019  5875 net.cpp:157] Top shape: 16 216 (3456)
I0712 13:26:50.666020  5875 net.cpp:165] Memory required for data: 2580359200
I0712 13:26:50.666023  5875 layer_factory.hpp:77] Creating layer conv8_2_mbox_conf
I0712 13:26:50.666030  5875 net.cpp:100] Creating Layer conv8_2_mbox_conf
I0712 13:26:50.666033  5875 net.cpp:434] conv8_2_mbox_conf <- conv8_2_conv8_2_relu_0_split_2
I0712 13:26:50.666036  5875 net.cpp:408] conv8_2_mbox_conf -> conv8_2_mbox_conf
I0712 13:26:50.669760  5875 net.cpp:150] Setting up conv8_2_mbox_conf
I0712 13:26:50.669770  5875 net.cpp:157] Top shape: 16 126 3 3 (18144)
I0712 13:26:50.669771  5875 net.cpp:165] Memory required for data: 2580431776
I0712 13:26:50.669776  5875 layer_factory.hpp:77] Creating layer conv8_2_mbox_conf_perm
I0712 13:26:50.669781  5875 net.cpp:100] Creating Layer conv8_2_mbox_conf_perm
I0712 13:26:50.669785  5875 net.cpp:434] conv8_2_mbox_conf_perm <- conv8_2_mbox_conf
I0712 13:26:50.669787  5875 net.cpp:408] conv8_2_mbox_conf_perm -> conv8_2_mbox_conf_perm
I0712 13:26:50.669895  5875 net.cpp:150] Setting up conv8_2_mbox_conf_perm
I0712 13:26:50.669899  5875 net.cpp:157] Top shape: 16 3 3 126 (18144)
I0712 13:26:50.669901  5875 net.cpp:165] Memory required for data: 2580504352
I0712 13:26:50.669903  5875 layer_factory.hpp:77] Creating layer conv8_2_mbox_conf_flat
I0712 13:26:50.669908  5875 net.cpp:100] Creating Layer conv8_2_mbox_conf_flat
I0712 13:26:50.669909  5875 net.cpp:434] conv8_2_mbox_conf_flat <- conv8_2_mbox_conf_perm
I0712 13:26:50.669914  5875 net.cpp:408] conv8_2_mbox_conf_flat -> conv8_2_mbox_conf_flat
I0712 13:26:50.669937  5875 net.cpp:150] Setting up conv8_2_mbox_conf_flat
I0712 13:26:50.669941  5875 net.cpp:157] Top shape: 16 1134 (18144)
I0712 13:26:50.669942  5875 net.cpp:165] Memory required for data: 2580576928
I0712 13:26:50.669945  5875 layer_factory.hpp:77] Creating layer conv8_2_mbox_priorbox
I0712 13:26:50.669950  5875 net.cpp:100] Creating Layer conv8_2_mbox_priorbox
I0712 13:26:50.669951  5875 net.cpp:434] conv8_2_mbox_priorbox <- conv8_2_conv8_2_relu_0_split_3
I0712 13:26:50.669955  5875 net.cpp:434] conv8_2_mbox_priorbox <- data_data_0_split_4
I0712 13:26:50.669958  5875 net.cpp:408] conv8_2_mbox_priorbox -> conv8_2_mbox_priorbox
I0712 13:26:50.669983  5875 net.cpp:150] Setting up conv8_2_mbox_priorbox
I0712 13:26:50.669987  5875 net.cpp:157] Top shape: 1 2 216 (432)
I0712 13:26:50.669988  5875 net.cpp:165] Memory required for data: 2580578656
I0712 13:26:50.669991  5875 layer_factory.hpp:77] Creating layer conv9_2_mbox_loc
I0712 13:26:50.669997  5875 net.cpp:100] Creating Layer conv9_2_mbox_loc
I0712 13:26:50.669999  5875 net.cpp:434] conv9_2_mbox_loc <- conv9_2_conv9_2_relu_0_split_1
I0712 13:26:50.670017  5875 net.cpp:408] conv9_2_mbox_loc -> conv9_2_mbox_loc
I0712 13:26:50.673928  5875 net.cpp:150] Setting up conv9_2_mbox_loc
I0712 13:26:50.673938  5875 net.cpp:157] Top shape: 16 24 2 2 (1536)
I0712 13:26:50.673940  5875 net.cpp:165] Memory required for data: 2580584800
I0712 13:26:50.673944  5875 layer_factory.hpp:77] Creating layer conv9_2_mbox_loc_perm
I0712 13:26:50.673950  5875 net.cpp:100] Creating Layer conv9_2_mbox_loc_perm
I0712 13:26:50.673952  5875 net.cpp:434] conv9_2_mbox_loc_perm <- conv9_2_mbox_loc
I0712 13:26:50.673956  5875 net.cpp:408] conv9_2_mbox_loc_perm -> conv9_2_mbox_loc_perm
I0712 13:26:50.674063  5875 net.cpp:150] Setting up conv9_2_mbox_loc_perm
I0712 13:26:50.674068  5875 net.cpp:157] Top shape: 16 2 2 24 (1536)
I0712 13:26:50.674069  5875 net.cpp:165] Memory required for data: 2580590944
I0712 13:26:50.674072  5875 layer_factory.hpp:77] Creating layer conv9_2_mbox_loc_flat
I0712 13:26:50.674077  5875 net.cpp:100] Creating Layer conv9_2_mbox_loc_flat
I0712 13:26:50.674078  5875 net.cpp:434] conv9_2_mbox_loc_flat <- conv9_2_mbox_loc_perm
I0712 13:26:50.674082  5875 net.cpp:408] conv9_2_mbox_loc_flat -> conv9_2_mbox_loc_flat
I0712 13:26:50.674105  5875 net.cpp:150] Setting up conv9_2_mbox_loc_flat
I0712 13:26:50.674109  5875 net.cpp:157] Top shape: 16 96 (1536)
I0712 13:26:50.674110  5875 net.cpp:165] Memory required for data: 2580597088
I0712 13:26:50.674113  5875 layer_factory.hpp:77] Creating layer conv9_2_mbox_conf
I0712 13:26:50.674118  5875 net.cpp:100] Creating Layer conv9_2_mbox_conf
I0712 13:26:50.674121  5875 net.cpp:434] conv9_2_mbox_conf <- conv9_2_conv9_2_relu_0_split_2
I0712 13:26:50.674126  5875 net.cpp:408] conv9_2_mbox_conf -> conv9_2_mbox_conf
I0712 13:26:50.677863  5875 net.cpp:150] Setting up conv9_2_mbox_conf
I0712 13:26:50.677873  5875 net.cpp:157] Top shape: 16 126 2 2 (8064)
I0712 13:26:50.677875  5875 net.cpp:165] Memory required for data: 2580629344
I0712 13:26:50.677880  5875 layer_factory.hpp:77] Creating layer conv9_2_mbox_conf_perm
I0712 13:26:50.677884  5875 net.cpp:100] Creating Layer conv9_2_mbox_conf_perm
I0712 13:26:50.677887  5875 net.cpp:434] conv9_2_mbox_conf_perm <- conv9_2_mbox_conf
I0712 13:26:50.677891  5875 net.cpp:408] conv9_2_mbox_conf_perm -> conv9_2_mbox_conf_perm
I0712 13:26:50.677997  5875 net.cpp:150] Setting up conv9_2_mbox_conf_perm
I0712 13:26:50.678002  5875 net.cpp:157] Top shape: 16 2 2 126 (8064)
I0712 13:26:50.678004  5875 net.cpp:165] Memory required for data: 2580661600
I0712 13:26:50.678005  5875 layer_factory.hpp:77] Creating layer conv9_2_mbox_conf_flat
I0712 13:26:50.678011  5875 net.cpp:100] Creating Layer conv9_2_mbox_conf_flat
I0712 13:26:50.678014  5875 net.cpp:434] conv9_2_mbox_conf_flat <- conv9_2_mbox_conf_perm
I0712 13:26:50.678016  5875 net.cpp:408] conv9_2_mbox_conf_flat -> conv9_2_mbox_conf_flat
I0712 13:26:50.678041  5875 net.cpp:150] Setting up conv9_2_mbox_conf_flat
I0712 13:26:50.678045  5875 net.cpp:157] Top shape: 16 504 (8064)
I0712 13:26:50.678046  5875 net.cpp:165] Memory required for data: 2580693856
I0712 13:26:50.678048  5875 layer_factory.hpp:77] Creating layer conv9_2_mbox_priorbox
I0712 13:26:50.678053  5875 net.cpp:100] Creating Layer conv9_2_mbox_priorbox
I0712 13:26:50.678056  5875 net.cpp:434] conv9_2_mbox_priorbox <- conv9_2_conv9_2_relu_0_split_3
I0712 13:26:50.678058  5875 net.cpp:434] conv9_2_mbox_priorbox <- data_data_0_split_5
I0712 13:26:50.678063  5875 net.cpp:408] conv9_2_mbox_priorbox -> conv9_2_mbox_priorbox
I0712 13:26:50.678087  5875 net.cpp:150] Setting up conv9_2_mbox_priorbox
I0712 13:26:50.678092  5875 net.cpp:157] Top shape: 1 2 96 (192)
I0712 13:26:50.678093  5875 net.cpp:165] Memory required for data: 2580694624
I0712 13:26:50.678094  5875 layer_factory.hpp:77] Creating layer conv10_2_mbox_loc
I0712 13:26:50.678102  5875 net.cpp:100] Creating Layer conv10_2_mbox_loc
I0712 13:26:50.678105  5875 net.cpp:434] conv10_2_mbox_loc <- conv10_2_conv10_2_relu_0_split_0
I0712 13:26:50.678109  5875 net.cpp:408] conv10_2_mbox_loc -> conv10_2_mbox_loc
I0712 13:26:50.680433  5875 net.cpp:150] Setting up conv10_2_mbox_loc
I0712 13:26:50.680450  5875 net.cpp:157] Top shape: 16 24 1 1 (384)
I0712 13:26:50.680452  5875 net.cpp:165] Memory required for data: 2580696160
I0712 13:26:50.680459  5875 layer_factory.hpp:77] Creating layer conv10_2_mbox_loc_perm
I0712 13:26:50.680467  5875 net.cpp:100] Creating Layer conv10_2_mbox_loc_perm
I0712 13:26:50.680470  5875 net.cpp:434] conv10_2_mbox_loc_perm <- conv10_2_mbox_loc
I0712 13:26:50.680474  5875 net.cpp:408] conv10_2_mbox_loc_perm -> conv10_2_mbox_loc_perm
I0712 13:26:50.680585  5875 net.cpp:150] Setting up conv10_2_mbox_loc_perm
I0712 13:26:50.680589  5875 net.cpp:157] Top shape: 16 1 1 24 (384)
I0712 13:26:50.680590  5875 net.cpp:165] Memory required for data: 2580697696
I0712 13:26:50.680593  5875 layer_factory.hpp:77] Creating layer conv10_2_mbox_loc_flat
I0712 13:26:50.680596  5875 net.cpp:100] Creating Layer conv10_2_mbox_loc_flat
I0712 13:26:50.680598  5875 net.cpp:434] conv10_2_mbox_loc_flat <- conv10_2_mbox_loc_perm
I0712 13:26:50.680603  5875 net.cpp:408] conv10_2_mbox_loc_flat -> conv10_2_mbox_loc_flat
I0712 13:26:50.680627  5875 net.cpp:150] Setting up conv10_2_mbox_loc_flat
I0712 13:26:50.680631  5875 net.cpp:157] Top shape: 16 24 (384)
I0712 13:26:50.680632  5875 net.cpp:165] Memory required for data: 2580699232
I0712 13:26:50.680634  5875 layer_factory.hpp:77] Creating layer conv10_2_mbox_conf
I0712 13:26:50.680642  5875 net.cpp:100] Creating Layer conv10_2_mbox_conf
I0712 13:26:50.680644  5875 net.cpp:434] conv10_2_mbox_conf <- conv10_2_conv10_2_relu_0_split_1
I0712 13:26:50.680649  5875 net.cpp:408] conv10_2_mbox_conf -> conv10_2_mbox_conf
I0712 13:26:50.684535  5875 net.cpp:150] Setting up conv10_2_mbox_conf
I0712 13:26:50.684553  5875 net.cpp:157] Top shape: 16 126 1 1 (2016)
I0712 13:26:50.684556  5875 net.cpp:165] Memory required for data: 2580707296
I0712 13:26:50.684562  5875 layer_factory.hpp:77] Creating layer conv10_2_mbox_conf_perm
I0712 13:26:50.684571  5875 net.cpp:100] Creating Layer conv10_2_mbox_conf_perm
I0712 13:26:50.684574  5875 net.cpp:434] conv10_2_mbox_conf_perm <- conv10_2_mbox_conf
I0712 13:26:50.684579  5875 net.cpp:408] conv10_2_mbox_conf_perm -> conv10_2_mbox_conf_perm
I0712 13:26:50.684690  5875 net.cpp:150] Setting up conv10_2_mbox_conf_perm
I0712 13:26:50.684695  5875 net.cpp:157] Top shape: 16 1 1 126 (2016)
I0712 13:26:50.684696  5875 net.cpp:165] Memory required for data: 2580715360
I0712 13:26:50.684698  5875 layer_factory.hpp:77] Creating layer conv10_2_mbox_conf_flat
I0712 13:26:50.684705  5875 net.cpp:100] Creating Layer conv10_2_mbox_conf_flat
I0712 13:26:50.684706  5875 net.cpp:434] conv10_2_mbox_conf_flat <- conv10_2_mbox_conf_perm
I0712 13:26:50.684710  5875 net.cpp:408] conv10_2_mbox_conf_flat -> conv10_2_mbox_conf_flat
I0712 13:26:50.684736  5875 net.cpp:150] Setting up conv10_2_mbox_conf_flat
I0712 13:26:50.684739  5875 net.cpp:157] Top shape: 16 126 (2016)
I0712 13:26:50.684741  5875 net.cpp:165] Memory required for data: 2580723424
I0712 13:26:50.684742  5875 layer_factory.hpp:77] Creating layer conv10_2_mbox_priorbox
I0712 13:26:50.684748  5875 net.cpp:100] Creating Layer conv10_2_mbox_priorbox
I0712 13:26:50.684751  5875 net.cpp:434] conv10_2_mbox_priorbox <- conv10_2_conv10_2_relu_0_split_2
I0712 13:26:50.684754  5875 net.cpp:434] conv10_2_mbox_priorbox <- data_data_0_split_6
I0712 13:26:50.684757  5875 net.cpp:408] conv10_2_mbox_priorbox -> conv10_2_mbox_priorbox
I0712 13:26:50.684787  5875 net.cpp:150] Setting up conv10_2_mbox_priorbox
I0712 13:26:50.684789  5875 net.cpp:157] Top shape: 1 2 24 (48)
I0712 13:26:50.684792  5875 net.cpp:165] Memory required for data: 2580723616
I0712 13:26:50.684792  5875 layer_factory.hpp:77] Creating layer mbox_loc
I0712 13:26:50.684799  5875 net.cpp:100] Creating Layer mbox_loc
I0712 13:26:50.684803  5875 net.cpp:434] mbox_loc <- conv5_5/sep_mbox_loc_flat
I0712 13:26:50.684806  5875 net.cpp:434] mbox_loc <- conv6/sep_mbox_loc_flat
I0712 13:26:50.684809  5875 net.cpp:434] mbox_loc <- conv7_2_mbox_loc_flat
I0712 13:26:50.684828  5875 net.cpp:434] mbox_loc <- conv8_2_mbox_loc_flat
I0712 13:26:50.684831  5875 net.cpp:434] mbox_loc <- conv9_2_mbox_loc_flat
I0712 13:26:50.684834  5875 net.cpp:434] mbox_loc <- conv10_2_mbox_loc_flat
I0712 13:26:50.684837  5875 net.cpp:408] mbox_loc -> mbox_loc
I0712 13:26:50.684867  5875 net.cpp:150] Setting up mbox_loc
I0712 13:26:50.684871  5875 net.cpp:157] Top shape: 16 7668 (122688)
I0712 13:26:50.684873  5875 net.cpp:165] Memory required for data: 2581214368
I0712 13:26:50.684875  5875 layer_factory.hpp:77] Creating layer mbox_conf
I0712 13:26:50.684880  5875 net.cpp:100] Creating Layer mbox_conf
I0712 13:26:50.684881  5875 net.cpp:434] mbox_conf <- conv5_5/sep_mbox_conf_flat
I0712 13:26:50.684885  5875 net.cpp:434] mbox_conf <- conv6/sep_mbox_conf_flat
I0712 13:26:50.684887  5875 net.cpp:434] mbox_conf <- conv7_2_mbox_conf_flat
I0712 13:26:50.684890  5875 net.cpp:434] mbox_conf <- conv8_2_mbox_conf_flat
I0712 13:26:50.684892  5875 net.cpp:434] mbox_conf <- conv9_2_mbox_conf_flat
I0712 13:26:50.684895  5875 net.cpp:434] mbox_conf <- conv10_2_mbox_conf_flat
I0712 13:26:50.684898  5875 net.cpp:408] mbox_conf -> mbox_conf
I0712 13:26:50.684922  5875 net.cpp:150] Setting up mbox_conf
I0712 13:26:50.684926  5875 net.cpp:157] Top shape: 16 40257 (644112)
I0712 13:26:50.684928  5875 net.cpp:165] Memory required for data: 2583790816
I0712 13:26:50.684931  5875 layer_factory.hpp:77] Creating layer mbox_priorbox
I0712 13:26:50.684933  5875 net.cpp:100] Creating Layer mbox_priorbox
I0712 13:26:50.684937  5875 net.cpp:434] mbox_priorbox <- conv5_5/sep_mbox_priorbox
I0712 13:26:50.684939  5875 net.cpp:434] mbox_priorbox <- conv6/sep_mbox_priorbox
I0712 13:26:50.684942  5875 net.cpp:434] mbox_priorbox <- conv7_2_mbox_priorbox
I0712 13:26:50.684943  5875 net.cpp:434] mbox_priorbox <- conv8_2_mbox_priorbox
I0712 13:26:50.684947  5875 net.cpp:434] mbox_priorbox <- conv9_2_mbox_priorbox
I0712 13:26:50.684948  5875 net.cpp:434] mbox_priorbox <- conv10_2_mbox_priorbox
I0712 13:26:50.684952  5875 net.cpp:408] mbox_priorbox -> mbox_priorbox
I0712 13:26:50.684974  5875 net.cpp:150] Setting up mbox_priorbox
I0712 13:26:50.684978  5875 net.cpp:157] Top shape: 1 2 7668 (15336)
I0712 13:26:50.684979  5875 net.cpp:165] Memory required for data: 2583852160
I0712 13:26:50.684981  5875 layer_factory.hpp:77] Creating layer mbox_loss
I0712 13:26:50.684991  5875 net.cpp:100] Creating Layer mbox_loss
I0712 13:26:50.684993  5875 net.cpp:434] mbox_loss <- mbox_loc
I0712 13:26:50.684995  5875 net.cpp:434] mbox_loss <- mbox_conf
I0712 13:26:50.684998  5875 net.cpp:434] mbox_loss <- mbox_priorbox
…
state {
  phase: TEST
}
layer {
  name: "data"
  type: "AnnotatedData"
  top: "data"
  top: "label"
  include {
    phase: TEST
  }
  transform_param {
    mean_value: 104
    mean_value: 117
    mean_value: 123
    resize_param {
      prob: 1
      resize_mode: WARP
      height: 300
      width: 300
      interp_mode: LINEAR
    }
  }
  data_param {
    source: "examples/VOC0712/VOC0712_test_lmdb"
    batch_size: 8
    backend: LMDB
  }
  annotated_data_param {
    batch_sampler {
    }
    label_map_file: "data/VOC0712/labelmap_voc.prototxt"
  }
}
layer {
  name: "conv1"
  type: "Convolution"
  bottom: "data"
  top: "conv1"
  param {
    lr_mult: 1
    decay_mult: 1
  }
  convolution_param {
    num_output: 32
    bias_term: false
    pad: 1
    kernel_size: 3
    group: 1
    stride: 2
    weight_filler {
      type: "gaussian"
      std: 0.01
    }
    engine: DEFAULT
  }
}
layer {
  name: "conv1/bn"
  type: "BatchNorm"
  bottom: "conv1"
  top: "conv1"
  batch_norm_param {
    moving_average_fraction: 0.999
    eps: 0.001
  }
}
layer {
  name: "conv1/scale"
  type: "Scale"
  bottom: "conv1"
  top: "conv1"
  param {
    lr_mult: 1
    decay_mult: 0
  }
  param {
    lr_mult: 1
    decay_mult: 0
  }
  scale_param {
    filler {
      type: "constant"
      value: 1
    }
    bias_term: true
    bias_filler {
      type: "constant"
      value: 0
    }
  }
}
layer {
  name: "conv1_relu"
  type: "ReLU"
  bottom: "conv1"
  top: "conv1"
}
layer {
  name: "conv2_1/dw"
  type: "Convolution"
  bottom: "conv1"
  top: "conv2_1/dw"
  param {
    lr_mult: 1
    decay_mult: 1
  }
  convolution_param {
    num_output: 32
    bias_term: false
    pad: 1
    kernel_size: 3
    group: 32
    stride: 1
    weight_filler {
      type: "gaussian"
      std: 0.01
    }
    engine: CAFFE
  }
}
layer {
  name: "conv2_1/dw/bn"
  type: "BatchNorm"
  bottom: "conv2_1/dw"
  top: "conv2_1/dw"
  batch_norm_param {
    moving_average_fraction: 0.999
    eps: 0.001
  }
}
layer {
  name: "conv2_1/dw/scale"
  type: "Scale"
  bottom: "conv2_1/dw"
  top: "conv2_1/dw"
  param {
    lr_mult: 1
    decay_mult: 0
  }
  param {
    lr_mult: 1
    decay_mult: 0
  }
  scale_param {
    filler {
      type: "constant"
      value: 1
    }
    bias_term: true
    bias_filler {
      type: "constant"
      value: 0
    }
  }
}
layer {
  name: "conv2_1/dw_relu"
  type: "ReLU"
  bottom: "conv2_1/dw"
  top: "conv2_1/dw"
}
layer {
  name: "conv2_1/sep"
  type: "Convolution"
  bottom: "conv2_1/dw"
  top: "conv2_1/sep"
  param {
    lr_mult: 1
    decay_mult: 1
  }
  convolution_param {
    num_output: 64
    bias_term: false
    pad: 0
    kernel_size: 1
    group: 1
    stride: 1
    weight_filler {
      type: "gaussian"
      std: 0.01
    }
    engine: DEFAULT
  }
}
layer {
  name: "conv2_1/sep/bn"
  type: "BatchNorm"
  bottom: "conv2_1/sep"
  top: "conv2_1/sep"
  batch_norm_param {
    moving_average_fraction: 0.999
    eps: 0.001
  }
}
layer {
  name: "conv2_1/sep/scale"
  type: "Scale"
  bottom: "conv2_1/sep"
  top: "conv2_1/sep"
  param {
    lr_mult: 1
    decay_mult: 0
  }
  param {
    lr_mult: 1
    decay_mult: 0
  }
  scale_param {
    filler {
      type: "constant"
      value: 1
    }
    bias_term: true
    bias_filler {
      type: "constant"
      value: 0
    }
  }
}
layer {
  name: "conv2_1/sep_relu"
  type: "ReLU"
  bottom: "conv2_1/sep"
  top: "conv2_1/sep"
}
layer {
  name: "conv2_2/dw"
  type: "Convolution"
  bottom: "conv2_1/sep"
  top: "conv2_2/dw"
  param {
    lr_mult: 1
    decay_mult: 1
  }
  convolution_param {
    num_output: 64
    bias_term: false
    pad: 1
    kernel_size: 3
    group: 64
    stride: 2
    weight_filler {
      type: "gaussian"
      std: 0.01
    }
    engine: CAFFE
  }
}
layer {
  name: "conv2_2/dw/bn"
  type: "BatchNorm"
  bottom: "conv2_2/dw"
  top: "conv2_2/dw"
  batch_norm_param {
    moving_average_fraction: 0.999
    eps: 0.001
  }
}
layer {
  name: "conv2_2/dw/scale"
  type: "Scale"
  bottom: "conv2_2/dw"
  top: "conv2_2/dw"
  param {
    lr_mult: 1
    decay_mult: 0
  }
  param {
    lr_mult: 1
    decay_mult: 0
  }
  scale_param {
    filler {
      type: "constant"
      value: 1
    }
    bias_term: true
    bias_filler {
      type: "constant"
      value: 0
    }
  }
}
layer {
  name: "conv2_2/dw_relu"
  type: "ReLU"
  bottom: "conv2_2/dw"
  top: "conv2_2/dw"
}
layer {
  name: "conv2_2/sep"
  type: "Convolution"
  bottom: "conv2_2/dw"
  top: "conv2_2/sep"
  param {
    lr_mult: 1
    decay_mult: 1
  }
  convolution_param {
    num_output: 128
    bias_term: false
    pad: 0
    kernel_size: 1
    group: 1
    stride: 1
    weight_filler {
      type: "gaussian"
      std: 0.01
    }
    engine: DEFAULT
  }
}
layer {
  name: "conv2_2/sep/bn"
  type: "BatchNorm"
  bottom: "conv2_2/sep"
  top: "conv2_2/sep"
  batch_norm_param {
    moving_average_fraction: 0.999
    eps: 0.001
  }
}
layer {
  name: "conv2_2/sep/scale"
  type: "Scale"
  bottom: "conv2_2/sep"
  top: "conv2_2/sep"
  param {
    lr_mult: 1
    decay_mult: 0
  }
  param {
    lr_mult: 1
    decay_mult: 0
  }
  scale_param {
    filler {
      type: "constant"
      value: 1
    }
    bias_term: true
    bias_filler {
      type: "constant"
      value: 0
    }
  }
}
layer {
  name: "conv2_2/sep_relu"
  type: "ReLU"
  bottom: "conv2_2/sep"
  top: "conv2_2/sep"
}
layer {
  name: "conv3_1/dw"
  type: "Convolution"
  bottom: "conv2_2/sep"
  top: "conv3_1/dw"
  param {
    lr_mult: 1
    decay_mult: 1
  }
  convolution_param {
    num_output: 128
    bias_term: false
    pad: 1
    kernel_size: 3
    group: 128
    stride: 1
    weight_filler {
      type: "gaussian"
      std: 0.01
    }
    engine: CAFFE
  }
}
layer {
  name: "conv3_1/dw/bn"
  type: "BatchNorm"
  bottom: "conv3_1/dw"
  top: "conv3_1/dw"
  batch_norm_param {
    moving_average_fraction: 0.999
    eps: 0.001
  }
}
layer {
  name: "conv3_1/dw/scale"
  type: "Scale"
  bottom: "conv3_1/dw"
  top: "conv3_1/dw"
  param {
    lr_mult: 1
    decay_mult: 0
  }
  param {
    lr_mult: 1
    decay_mult: 0
  }
  scale_param {
    filler {
      type: "constant"
      value: 1
    }
    bias_term: true
    bias_filler {
      type: "constant"
      value: 0
    }
  }
}
layer {
  name: "conv3_1/dw_relu"
  type: "ReLU"
  bottom: "conv3_1/dw"
  top: "conv3_1/dw"
}
layer {
  name: "conv3_1/sep"
  type: "Convolution"
  bottom: "conv3_1/dw"
  top: "conv3_1/sep"
  param {
    lr_mult: 1
    decay_mult: 1
  }
  convolution_param {
    num_output: 128
    bias_term: false
    pad: 0
    kernel_size: 1
    group: 1
    stride: 1
    weight_filler {
      type: "gaussian"
      std: 0.01
    }
    engine: DEFAULT
  }
}
layer {
  name: "conv3_1/sep/bn"
  type: "BatchNorm"
  bottom: "conv3_1/sep"
  top: "conv3_1/sep"
  batch_norm_param {
    moving_average_fraction: 0.999
    eps: 0.001
  }
}
layer {
  name: "conv3_1/sep/scale"
  type: "Scale"
  bottom: "conv3_1/sep"
  top: "conv3_1/sep"
  param {
    lr_mult: 1
    decay_mult: 0
  }
  param {
    lr_mult: 1
    decay_mult: 0
  }
  scale_param {
    filler {
      type: "constant"
      value: 1
    }
    bias_term: true
    bias_filler {
      type: "constant"
      value: 0
    }
  }
}
layer {
  name: "conv3_1/sep_relu"
  type: "ReLU"
  bottom: "conv3_1/sep"
  top: "conv3_1/sep"
}
layer {
  name: "conv3_2/dw"
  type: "Convolution"
  bottom: "conv3_1/sep"
  top: "conv3_2/dw"
  param {
    lr_mult: 1
    decay_mult: 1
  }
  convolution_param {
    num_output: 128
    bias_term: false
    pad: 1
    kernel_size: 3
    group: 128
    stride: 2
    weight_filler {
      type: "gaussian"
      std: 0.01
    }
    engine: CAFFE
  }
}
layer {
  name: "conv3_2/dw/bn"
  type: "BatchNorm"
  bottom: "conv3_2/dw"
  top: "conv3_2/dw"
  batch_norm_param {
    moving_average_fraction: 0.999
    eps: 0.001
  }
}
layer {
  name: "conv3_2/dw/scale"
  type: "Scale"
  bottom: "conv3_2/dw"
  top: "conv3_2/dw"
  param {
    lr_mult: 1
    decay_mult: 0
  }
  param {
    lr_mult: 1
    decay_mult: 0
  }
  scale_param {
    filler {
      type: "constant"
      value: 1
    }
    bias_term: true
    bias_filler {
      type: "constant"
      value: 0
    }
  }
}
layer {
  name: "conv3_2/dw_relu"
  type: "ReLU"
  bottom: "conv3_2/dw"
  top: "conv3_2/dw"
}
layer {
  name: "conv3_2/sep"
  type: "Convolution"
  bottom: "conv3_2/dw"
  top: "conv3_2/sep"
  param {
    lr_mult: 1
    decay_mult: 1
  }
  convolution_param {
    num_output: 256
    bias_term: false
    pad: 0
    kernel_size: 1
    group: 1
    stride: 1
    weight_filler {
      type: "gaussian"
      std: 0.01
    }
    engine: DEFAULT
  }
}
layer {
  name: "conv3_2/sep/bn"
  type: "BatchNorm"
  bottom: "conv3_2/sep"
  top: "conv3_2/sep"
  batch_norm_param {
    moving_average_fraction: 0.999
    eps: 0.001
  }
}
layer {
  name: "conv3_2/sep/scale"
  type: "Scale"
  bottom: "conv3_2/sep"
  top: "conv3_2/sep"
  param {
    lr_mult: 1
    decay_mult: 0
  }
  param {
    lr_mult: 1
    decay_mult: 0
  }
  scale_param {
    filler {
      type: "constant"
      value: 1
    }
    bias_term: true
    bias_filler {
      type: "constant"
      value: 0
    }
  }
}
layer {
  name: "conv3_2/sep_relu"
  type: "ReLU"
  bottom: "conv3_2/sep"
  top: "conv3_2/sep"
}
layer {
  name: "conv4_1/dw"
  type: "Convolution"
  bottom: "conv3_2/sep"
  top: "conv4_1/dw"
  param {
    lr_mult: 1
    decay_mult: 1
  }
  convolution_param {
    num_output: 256
    bias_term: false
    pad: 1
    kernel_size: 3
    group: 256
    stride: 1
    weight_filler {
      type: "gaussian"
      std: 0.01
    }
    engine: CAFFE
  }
}
layer {
  name: "conv4_1/dw/bn"
  type: "BatchNorm"
  bottom: "conv4_1/dw"
  top: "conv4_1/dw"
  batch_norm_param {
    moving_average_fraction: 0.999
    eps: 0.001
  }
}
layer {
  name: "conv4_1/dw/scale"
  type: "Scale"
  bottom: "conv4_1/dw"
  top: "conv4_1/dw"
  param {
    lr_mult: 1
    decay_mult: 0
  }
  param {
    lr_mult: 1
    decay_mult: 0
  }
  scale_param {
    filler {
      type: "constant"
      value: 1
    }
    bias_term: true
    bias_filler {
      type: "constant"
      value: 0
    }
  }
}
layer {
  name: "conv4_1/dw_relu"
  type: "ReLU"
  bottom: "conv4_1/dw"
  top: "conv4_1/dw"
}
layer {
  name: "conv4_1/sep"
  type: "Convolution"
  bottom: "conv4_1/dw"
  top: "conv4_1/sep"
  param {
    lr_mult: 1
    decay_mult: 1
  }
  convolution_param {
    num_output: 256
    bias_term: false
    pad: 0
    kernel_size: 1
    group: 1
    stride: 1
    weight_filler {
      type: "gaussian"
      std: 0.01
    }
    engine: DEFAULT
  }
}
layer {
  name: "conv4_1/sep/bn"
  type: "BatchNorm"
  bottom: "conv4_1/sep"
  top: "conv4_1/sep"
  batch_norm_param {
    moving_average_fraction: 0.999
    eps: 0.001
  }
}
layer {
  name: "conv4_1/sep/scale"
  type: "Scale"
  bottom: "conv4_1/sep"
  top: "conv4_1/sep"
  param {
    lr_mult: 1
    decay_mult: 0
  }
  param {
    lr_mult: 1
    decay_mult: 0
  }
  scale_param {
    filler {
      type: "constant"
      value: 1
    }
    bias_term: true
    bias_filler {
      type: "constant"
      value: 0
    }
  }
}
layer {
  name: "conv4_1/sep_relu"
  type: "ReLU"
  bottom: "conv4_1/sep"
  top: "conv4_1/sep"
}
layer {
  name: "conv4_2/dw"
  type: "Convolution"
  bottom: "conv4_1/sep"
  top: "conv4_2/dw"
  param {
    lr_mult: 1
    decay_mult: 1
  }
  convolution_param {
    num_output: 256
    bias_term: false
    pad: 1
    kernel_size: 3
    group: 256
    stride: 2
    weight_filler {
      type: "gaussian"
      std: 0.01
    }
    engine: CAFFE
  }
}
layer {
  name: "conv4_2/dw/bn"
  type: "BatchNorm"
  bottom: "conv4_2/dw"
  top: "conv4_2/dw"
  batch_norm_param {
    moving_average_fraction: 0.999
    eps: 0.001
  }
}
layer {
  name: "conv4_2/dw/scale"
  type: "Scale"
  bottom: "conv4_2/dw"
  top: "conv4_2/dw"
  param {
    lr_mult: 1
    decay_mult: 0
  }
  param {
    lr_mult: 1
    decay_mult: 0
  }
  scale_param {
    filler {
      type: "constant"
      value: 1
    }
    bias_term: true
    bias_filler {
      type: "constant"
      value: 0
    }
  }
}
layer {
  name: "conv4_2/dw_relu"
  type: "ReLU"
  bottom: "conv4_2/dw"
  top: "conv4_2/dw"
}
layer {
  name: "conv4_2/sep"
  type: "Convolution"
  bottom: "conv4_2/dw"
  top: "conv4_2/sep"
  param {
    lr_mult: 1
    decay_mult: 1
  }
  convolution_param {
    num_output: 512
    bias_term: false
    pad: 0
    kernel_size: 1
    group: 1
    stride: 1
    weight_filler {
      type: "gaussian"
      std: 0.01
    }
    engine: DEFAULT
  }
}
layer {
  name: "conv4_2/sep/bn"
  type: "BatchNorm"
  bottom: "conv4_2/sep"
  top: "conv4_2/sep"
  batch_norm_param {
    moving_average_fraction: 0.999
    eps: 0.001
  }
}
layer {
  name: "conv4_2/sep/scale"
  type: "Scale"
  bottom: "conv4_2/sep"
  top: "conv4_2/sep"
  param {
    lr_mult: 1
    decay_mult: 0
  }
  param {
    lr_mult: 1
    decay_mult: 0
  }
  scale_param {
    filler {
      type: "constant"
      value: 1
    }
    bias_term: true
    bias_filler {
      type: "constant"
      value: 0
    }
  }
}
layer {
  name: "conv4_2/sep_relu"
  type: "ReLU"
  bottom: "conv4_2/sep"
  top: "conv4_2/sep"
}
layer {
  name: "conv5_1/dw"
  type: "Convolution"
  bottom: "conv4_2/sep"
  top: "conv5_1/dw"
  param {
    lr_mult: 1
    decay_mult: 1
  }
  convolution_param {
    num_output: 512
    bias_term: false
    pad: 1
    kernel_size: 3
    group: 512
    stride: 1
    weight_filler {
      type: "gaussian"
      std: 0.01
    }
    engine: CAFFE
  }
}
layer {
  name: "conv5_1/dw/bn"
  type: "BatchNorm"
  bottom: "conv5_1/dw"
  top: "conv5_1/dw"
  batch_norm_param {
    moving_average_fraction: 0.999
    eps: 0.001
  }
}
layer {
  name: "conv5_1/dw/scale"
  type: "Scale"
  bottom: "conv5_1/dw"
  top: "conv5_1/dw"
  param {
    lr_mult: 1
    decay_mult: 0
  }
  param {
    lr_mult: 1
    decay_mult: 0
  }
  scale_param {
    filler {
      type: "constant"
      value: 1
    }
    bias_term: true
    bias_filler {
      type: "constant"
      value: 0
    }
  }
}
layer {
  name: "conv5_1/dw_relu"
  type: "ReLU"
  bottom: "conv5_1/dw"
  top: "conv5_1/dw"
}
layer {
  name: "conv5_1/sep"
  type: "Convolution"
  bottom: "conv5_1/dw"
  top: "conv5_1/sep"
  param {
    lr_mult: 1
    decay_mult: 1
  }
  convolution_param {
    num_output: 512
    bias_term: false
    pad: 0
    kernel_size: 1
    group: 1
    stride: 1
    weight_filler {
      type: "gaussian"
      std: 0.01
    }
    engine: DEFAULT
  }
}
layer {
  name: "conv5_1/sep/bn"
  type: "BatchNorm"
  bottom: "conv5_1/sep"
  top: "conv5_1/sep"
  batch_norm_param {
    moving_average_fraction: 0.999
    eps: 0.001
  }
}
layer {
  name: "conv5_1/sep/scale"
  type: "Scale"
  bottom: "conv5_1/sep"
  top: "conv5_1/sep"
  param {
    lr_mult: 1
    decay_mult: 0
  }
  param {
    lr_mult: 1
    decay_mult: 0
  }
  scale_param {
    filler {
      type: "constant"
      value: 1
    }
    bias_term: true
    bias_filler {
      type: "constant"
      value: 0
    }
  }
}
layer {
  name: "conv5_1/sep_relu"
  type: "ReLU"
  bottom: "conv5_1/sep"
  top: "conv5_1/sep"
}
layer {
  name: "conv5_2/dw"
  type: "Convolution"
  bottom: "conv5_1/sep"
  top: "conv5_2/dw"
  param {
    lr_mult: 1
    decay_mult: 1
  }
  convolution_param {
    num_output: 512
    bias_term: false
    pad: 1
    kernel_size: 3
    group: 512
    stride: 1
    weight_filler {
      type: "gaussian"
      std: 0.01
    }
    engine: CAFFE
  }
}
layer {
  name: "conv5_2/dw/bn"
  type: "BatchNorm"
  bottom: "conv5_2/dw"
  top: "conv5_2/dw"
  batch_norm_param {
    moving_average_fraction: 0.999
    eps: 0.001
  }
}
layer {
  name: "conv5_2/dw/scale"
  type: "Scale"
  bottom: "conv5_2/dw"
  top: "conv5_2/dw"
  param {
    lr_mult: 1
    decay_mult: 0
  }
  param {
    lr_mult: 1
    decay_mult: 0
  }
  scale_param {
    filler {
      type: "constant"
      value: 1
    }
    bias_term: true
    bias_filler {
      type: "constant"
      value: 0
    }
  }
}
layer {
  name: "conv5_2/dw_relu"
  type: "ReLU"
  bottom: "conv5_2/dw"
  top: "conv5_2/dw"
}
layer {
  name: "conv5_2/sep"
  type: "Convolution"
  bottom: "conv5_2/dw"
  top: "conv5_2/sep"
  param {
    lr_mult: 1
    decay_mult: 1
  }
  convolution_param {
    num_output: 512
    bias_term: false
    pad: 0
    kernel_size: 1
    group: 1
    stride: 1
    weight_filler {
      type: "gaussian"
      std: 0.01
    }
    engine: DEFAULT
  }
}
layer {
  name: "conv5_2/sep/bn"
  type: "BatchNorm"
  bottom: "conv5_2/sep"
  top: "conv5_2/sep"
  batch_norm_param {
    moving_average_fraction: 0.999
    eps: 0.001
  }
}
layer {
  name: "conv5_2/sep/scale"
  type: "Scale"
  bottom: "conv5_2/sep"
  top: "conv5_2/sep"
  param {
    lr_mult: 1
    decay_mult: 0
  }
  param {
    lr_mult: 1
    decay_mult: 0
  }
  scale_param {
    filler {
      type: "constant"
      value: 1
    }
    bias_term: true
    bias_filler {
      type: "constant"
      value: 0
    }
  }
}
layer {
  name: "conv5_2/sep_relu"
  type: "ReLU"
  bottom: "conv5_2/sep"
  top: "conv5_2/sep"
}
layer {
  name: "conv5_3/dw"
  type: "Convolution"
  bottom: "conv5_2/sep"
  top: "conv5_3/dw"
  param {
    lr_mult: 1
    decay_mult: 1
  }
  convolution_param {
    num_output: 512
    bias_term: false
    pad: 1
    kernel_size: 3
    group: 512
    stride: 1
    weight_filler {
      type: "gaussian"
      std: 0.01
    }
    engine: CAFFE
  }
}
layer {
  name: "conv5_3/dw/bn"
  type: "BatchNorm"
  bottom: "conv5_3/dw"
  top: "conv5_3/dw"
  batch_norm_param {
    moving_average_fraction: 0.999
    eps: 0.001
  }
}
layer {
  name: "conv5_3/dw/scale"
  type: "Scale"
  bottom: "conv5_3/dw"
  top: "conv5_3/dw"
  param {
    lr_mult: 1
    decay_mult: 0
  }
  param {
    lr_mult: 1
    decay_mult: 0
  }
  scale_param {
    filler {
      type: "constant"
      value: 1
    }
    bias_term: true
    bias_filler {
      type: "constant"
      value: 0
    }
  }
}
layer {
  name: "conv5_3/dw_relu"
  type: "ReLU"
  bottom: "conv5_3/dw"
  top: "conv5_3/dw"
}
layer {
  name: "conv5_3/sep"
  type: "Convolution"
  bottom: "conv5_3/dw"
  top: "conv5_3/sep"
  param {
    lr_mult: 1
    decay_mult: 1
  }
  convolution_param {
    num_output: 512
    bias_term: false
    pad: 0
    kernel_size: 1
    group: 1
    stride: 1
    weight_filler {
      type: "gaussian"
      std: 0.01
    }
    engine: DEFAULT
  }
}
layer {
  name: "conv5_3/sep/bn"
  type: "BatchNorm"
  bottom: "conv5_3/sep"
  top: "conv5_3/sep"
  batch_norm_param {
    moving_average_fraction: 0.999
    eps: 0.001
  }
}
layer {
  name: "conv5_3/sep/scale"
  type: "Scale"
  bottom: "conv5_3/sep"
  top: "conv5_3/sep"
  param {
    lr_mult: 1
    decay_mult: 0
  }
  param {
    lr_mult: 1
    decay_mult: 0
  }
  scale_param {
    filler {
      type: "constant"
      value: 1
    }
    bias_term: true
    bias_filler {
      type: "constant"
      value: 0
    }
  }
}
layer {
  name: "conv5_3/sep_relu"
  type: "ReLU"
  bottom: "conv5_3/sep"
  top: "conv5_3/sep"
}
layer {
  name: "conv5_4/dw"
  type: "Convolution"
  bottom: "conv5_3/sep"
  top: "conv5_4/dw"
  param {
    lr_mult: 1
    decay_mult: 1
  }
  convolution_param {
    num_output: 512
    bias_term: false
    pad: 1
    kernel_size: 3
    group: 512
    stride: 1
    weight_filler {
      type: "gaussian"
      std: 0.01
    }
    engine: CAFFE
  }
}
layer {
  name: "conv5_4/dw/bn"
  type: "BatchNorm"
  bottom: "conv5_4/dw"
  top: "conv5_4/dw"
  batch_norm_param {
    moving_average_fraction: 0.999
    eps: 0.001
  }
}
layer {
  name: "conv5_4/dw/scale"
  type: "Scale"
  bottom: "conv5_4/dw"
  top: "conv5_4/dw"
  param {
    lr_mult: 1
    decay_mult: 0
  }
  param {
    lr_mult: 1
    decay_mult: 0
  }
  scale_param {
    filler {
      type: "constant"
      value: 1
    }
    bias_term: true
    bias_filler {
      type: "constant"
      value: 0
    }
  }
}
layer {
  name: "conv5_4/dw_relu"
…
I0712 13:26:51.029566  5875 net.cpp:157] Top shape: 8 512 10 10 (409600)
I0712 13:26:51.029570  5875 net.cpp:165] Memory required for data: 1228214336
I0712 13:26:51.029575  5875 layer_factory.hpp:77] Creating layer conv5_6/sep
I0712 13:26:51.029592  5875 net.cpp:100] Creating Layer conv5_6/sep
I0712 13:26:51.029598  5875 net.cpp:434] conv5_6/sep <- conv5_6/dw
I0712 13:26:51.029610  5875 net.cpp:408] conv5_6/sep -> conv5_6/sep
I0712 13:26:51.043287  5875 net.cpp:150] Setting up conv5_6/sep
I0712 13:26:51.043310  5875 net.cpp:157] Top shape: 8 1024 10 10 (819200)
I0712 13:26:51.043315  5875 net.cpp:165] Memory required for data: 1231491136
I0712 13:26:51.043324  5875 layer_factory.hpp:77] Creating layer conv5_6/sep/bn
I0712 13:26:51.043334  5875 net.cpp:100] Creating Layer conv5_6/sep/bn
I0712 13:26:51.043339  5875 net.cpp:434] conv5_6/sep/bn <- conv5_6/sep
I0712 13:26:51.043349  5875 net.cpp:395] conv5_6/sep/bn -> conv5_6/sep (in-place)
I0712 13:26:51.043730  5875 net.cpp:150] Setting up conv5_6/sep/bn
I0712 13:26:51.043741  5875 net.cpp:157] Top shape: 8 1024 10 10 (819200)
I0712 13:26:51.043745  5875 net.cpp:165] Memory required for data: 1234767936
I0712 13:26:51.043756  5875 layer_factory.hpp:77] Creating layer conv5_6/sep/scale
I0712 13:26:51.043764  5875 net.cpp:100] Creating Layer conv5_6/sep/scale
I0712 13:26:51.043769  5875 net.cpp:434] conv5_6/sep/scale <- conv5_6/sep
I0712 13:26:51.043776  5875 net.cpp:395] conv5_6/sep/scale -> conv5_6/sep (in-place)
I0712 13:26:51.043859  5875 layer_factory.hpp:77] Creating layer conv5_6/sep/scale
I0712 13:26:51.044071  5875 net.cpp:150] Setting up conv5_6/sep/scale
I0712 13:26:51.044080  5875 net.cpp:157] Top shape: 8 1024 10 10 (819200)
I0712 13:26:51.044085  5875 net.cpp:165] Memory required for data: 1238044736
I0712 13:26:51.044092  5875 layer_factory.hpp:77] Creating layer conv5_6/sep_relu
I0712 13:26:51.044100  5875 net.cpp:100] Creating Layer conv5_6/sep_relu
I0712 13:26:51.044106  5875 net.cpp:434] conv5_6/sep_relu <- conv5_6/sep
I0712 13:26:51.044113  5875 net.cpp:395] conv5_6/sep_relu -> conv5_6/sep (in-place)
I0712 13:26:51.045384  5875 net.cpp:150] Setting up conv5_6/sep_relu
I0712 13:26:51.045400  5875 net.cpp:157] Top shape: 8 1024 10 10 (819200)
I0712 13:26:51.045404  5875 net.cpp:165] Memory required for data: 1241321536
I0712 13:26:51.045409  5875 layer_factory.hpp:77] Creating layer conv6/dw
I0712 13:26:51.045423  5875 net.cpp:100] Creating Layer conv6/dw
I0712 13:26:51.045428  5875 net.cpp:434] conv6/dw <- conv5_6/sep
I0712 13:26:51.045464  5875 net.cpp:408] conv6/dw -> conv6/dw
I0712 13:26:51.046012  5875 net.cpp:150] Setting up conv6/dw
I0712 13:26:51.046025  5875 net.cpp:157] Top shape: 8 1024 10 10 (819200)
I0712 13:26:51.046028  5875 net.cpp:165] Memory required for data: 1244598336
I0712 13:26:51.046034  5875 layer_factory.hpp:77] Creating layer conv6/dw/bn
I0712 13:26:51.046042  5875 net.cpp:100] Creating Layer conv6/dw/bn
I0712 13:26:51.046047  5875 net.cpp:434] conv6/dw/bn <- conv6/dw
I0712 13:26:51.046058  5875 net.cpp:395] conv6/dw/bn -> conv6/dw (in-place)
I0712 13:26:51.046416  5875 net.cpp:150] Setting up conv6/dw/bn
I0712 13:26:51.046425  5875 net.cpp:157] Top shape: 8 1024 10 10 (819200)
I0712 13:26:51.046429  5875 net.cpp:165] Memory required for data: 1247875136
I0712 13:26:51.046439  5875 layer_factory.hpp:77] Creating layer conv6/dw/scale
I0712 13:26:51.046447  5875 net.cpp:100] Creating Layer conv6/dw/scale
I0712 13:26:51.046452  5875 net.cpp:434] conv6/dw/scale <- conv6/dw
I0712 13:26:51.046460  5875 net.cpp:395] conv6/dw/scale -> conv6/dw (in-place)
I0712 13:26:51.046535  5875 layer_factory.hpp:77] Creating layer conv6/dw/scale
I0712 13:26:51.046743  5875 net.cpp:150] Setting up conv6/dw/scale
I0712 13:26:51.046752  5875 net.cpp:157] Top shape: 8 1024 10 10 (819200)
I0712 13:26:51.046756  5875 net.cpp:165] Memory required for data: 1251151936
I0712 13:26:51.046764  5875 layer_factory.hpp:77] Creating layer conv6/dw_relu
I0712 13:26:51.046772  5875 net.cpp:100] Creating Layer conv6/dw_relu
I0712 13:26:51.046775  5875 net.cpp:434] conv6/dw_relu <- conv6/dw
I0712 13:26:51.046782  5875 net.cpp:395] conv6/dw_relu -> conv6/dw (in-place)
I0712 13:26:51.047158  5875 net.cpp:150] Setting up conv6/dw_relu
I0712 13:26:51.047170  5875 net.cpp:157] Top shape: 8 1024 10 10 (819200)
I0712 13:26:51.047174  5875 net.cpp:165] Memory required for data: 1254428736
I0712 13:26:51.047178  5875 layer_factory.hpp:77] Creating layer conv6/sep
I0712 13:26:51.047189  5875 net.cpp:100] Creating Layer conv6/sep
I0712 13:26:51.047194  5875 net.cpp:434] conv6/sep <- conv6/dw
I0712 13:26:51.047204  5875 net.cpp:408] conv6/sep -> conv6/sep
I0712 13:26:51.069952  5875 net.cpp:150] Setting up conv6/sep
I0712 13:26:51.069979  5875 net.cpp:157] Top shape: 8 1024 10 10 (819200)
I0712 13:26:51.069983  5875 net.cpp:165] Memory required for data: 1257705536
I0712 13:26:51.069993  5875 layer_factory.hpp:77] Creating layer conv6/sep/bn
I0712 13:26:51.070001  5875 net.cpp:100] Creating Layer conv6/sep/bn
I0712 13:26:51.070008  5875 net.cpp:434] conv6/sep/bn <- conv6/sep
I0712 13:26:51.070016  5875 net.cpp:395] conv6/sep/bn -> conv6/sep (in-place)
I0712 13:26:51.070376  5875 net.cpp:150] Setting up conv6/sep/bn
I0712 13:26:51.070385  5875 net.cpp:157] Top shape: 8 1024 10 10 (819200)
I0712 13:26:51.070389  5875 net.cpp:165] Memory required for data: 1260982336
I0712 13:26:51.070397  5875 layer_factory.hpp:77] Creating layer conv6/sep/scale
I0712 13:26:51.070407  5875 net.cpp:100] Creating Layer conv6/sep/scale
I0712 13:26:51.070411  5875 net.cpp:434] conv6/sep/scale <- conv6/sep
I0712 13:26:51.070418  5875 net.cpp:395] conv6/sep/scale -> conv6/sep (in-place)
I0712 13:26:51.070493  5875 layer_factory.hpp:77] Creating layer conv6/sep/scale
I0712 13:26:51.070686  5875 net.cpp:150] Setting up conv6/sep/scale
I0712 13:26:51.070695  5875 net.cpp:157] Top shape: 8 1024 10 10 (819200)
I0712 13:26:51.070699  5875 net.cpp:165] Memory required for data: 1264259136
I0712 13:26:51.070706  5875 layer_factory.hpp:77] Creating layer conv6/sep_relu
I0712 13:26:51.070713  5875 net.cpp:100] Creating Layer conv6/sep_relu
I0712 13:26:51.070716  5875 net.cpp:434] conv6/sep_relu <- conv6/sep
I0712 13:26:51.070722  5875 net.cpp:395] conv6/sep_relu -> conv6/sep (in-place)
I0712 13:26:51.071826  5875 net.cpp:150] Setting up conv6/sep_relu
I0712 13:26:51.071841  5875 net.cpp:157] Top shape: 8 1024 10 10 (819200)
I0712 13:26:51.071844  5875 net.cpp:165] Memory required for data: 1267535936
I0712 13:26:51.071848  5875 layer_factory.hpp:77] Creating layer conv6/sep_conv6/sep_relu_0_split
I0712 13:26:51.071879  5875 net.cpp:100] Creating Layer conv6/sep_conv6/sep_relu_0_split
I0712 13:26:51.071884  5875 net.cpp:434] conv6/sep_conv6/sep_relu_0_split <- conv6/sep
I0712 13:26:51.071892  5875 net.cpp:408] conv6/sep_conv6/sep_relu_0_split -> conv6/sep_conv6/sep_relu_0_split_0
I0712 13:26:51.071902  5875 net.cpp:408] conv6/sep_conv6/sep_relu_0_split -> conv6/sep_conv6/sep_relu_0_split_1
I0712 13:26:51.071914  5875 net.cpp:408] conv6/sep_conv6/sep_relu_0_split -> conv6/sep_conv6/sep_relu_0_split_2
I0712 13:26:51.071923  5875 net.cpp:408] conv6/sep_conv6/sep_relu_0_split -> conv6/sep_conv6/sep_relu_0_split_3
I0712 13:26:51.072021  5875 net.cpp:150] Setting up conv6/sep_conv6/sep_relu_0_split
I0712 13:26:51.072029  5875 net.cpp:157] Top shape: 8 1024 10 10 (819200)
I0712 13:26:51.072033  5875 net.cpp:157] Top shape: 8 1024 10 10 (819200)
I0712 13:26:51.072038  5875 net.cpp:157] Top shape: 8 1024 10 10 (819200)
I0712 13:26:51.072042  5875 net.cpp:157] Top shape: 8 1024 10 10 (819200)
I0712 13:26:51.072046  5875 net.cpp:165] Memory required for data: 1280643136
I0712 13:26:51.072048  5875 layer_factory.hpp:77] Creating layer conv7_1
I0712 13:26:51.072062  5875 net.cpp:100] Creating Layer conv7_1
I0712 13:26:51.072067  5875 net.cpp:434] conv7_1 <- conv6/sep_conv6/sep_relu_0_split_0
I0712 13:26:51.072074  5875 net.cpp:408] conv7_1 -> conv7_1
I0712 13:26:51.077822  5875 net.cpp:150] Setting up conv7_1
I0712 13:26:51.077839  5875 net.cpp:157] Top shape: 8 256 10 10 (204800)
I0712 13:26:51.077843  5875 net.cpp:165] Memory required for data: 1281462336
I0712 13:26:51.077855  5875 layer_factory.hpp:77] Creating layer conv7_1_relu
I0712 13:26:51.077864  5875 net.cpp:100] Creating Layer conv7_1_relu
I0712 13:26:51.077869  5875 net.cpp:434] conv7_1_relu <- conv7_1
I0712 13:26:51.077875  5875 net.cpp:395] conv7_1_relu -> conv7_1 (in-place)
I0712 13:26:51.078181  5875 net.cpp:150] Setting up conv7_1_relu
I0712 13:26:51.078191  5875 net.cpp:157] Top shape: 8 256 10 10 (204800)
I0712 13:26:51.078193  5875 net.cpp:165] Memory required for data: 1282281536
I0712 13:26:51.078197  5875 layer_factory.hpp:77] Creating layer conv7_2
I0712 13:26:51.078209  5875 net.cpp:100] Creating Layer conv7_2
I0712 13:26:51.078213  5875 net.cpp:434] conv7_2 <- conv7_1
I0712 13:26:51.078222  5875 net.cpp:408] conv7_2 -> conv7_2
I0712 13:26:51.092789  5875 net.cpp:150] Setting up conv7_2
I0712 13:26:51.092815  5875 net.cpp:157] Top shape: 8 512 5 5 (102400)
I0712 13:26:51.092819  5875 net.cpp:165] Memory required for data: 1282691136
I0712 13:26:51.092828  5875 layer_factory.hpp:77] Creating layer conv7_2_relu
I0712 13:26:51.092836  5875 net.cpp:100] Creating Layer conv7_2_relu
I0712 13:26:51.092841  5875 net.cpp:434] conv7_2_relu <- conv7_2
I0712 13:26:51.092854  5875 net.cpp:395] conv7_2_relu -> conv7_2 (in-place)
I0712 13:26:51.093134  5875 net.cpp:150] Setting up conv7_2_relu
I0712 13:26:51.093143  5875 net.cpp:157] Top shape: 8 512 5 5 (102400)
I0712 13:26:51.093147  5875 net.cpp:165] Memory required for data: 1283100736
I0712 13:26:51.093150  5875 layer_factory.hpp:77] Creating layer conv7_2_conv7_2_relu_0_split
I0712 13:26:51.093158  5875 net.cpp:100] Creating Layer conv7_2_conv7_2_relu_0_split
I0712 13:26:51.093163  5875 net.cpp:434] conv7_2_conv7_2_relu_0_split <- conv7_2
I0712 13:26:51.093168  5875 net.cpp:408] conv7_2_conv7_2_relu_0_split -> conv7_2_conv7_2_relu_0_split_0
I0712 13:26:51.093178  5875 net.cpp:408] conv7_2_conv7_2_relu_0_split -> conv7_2_conv7_2_relu_0_split_1
I0712 13:26:51.093186  5875 net.cpp:408] conv7_2_conv7_2_relu_0_split -> conv7_2_conv7_2_relu_0_split_2
I0712 13:26:51.093194  5875 net.cpp:408] conv7_2_conv7_2_relu_0_split -> conv7_2_conv7_2_relu_0_split_3
I0712 13:26:51.093287  5875 net.cpp:150] Setting up conv7_2_conv7_2_relu_0_split
I0712 13:26:51.093294  5875 net.cpp:157] Top shape: 8 512 5 5 (102400)
I0712 13:26:51.093298  5875 net.cpp:157] Top shape: 8 512 5 5 (102400)
I0712 13:26:51.093302  5875 net.cpp:157] Top shape: 8 512 5 5 (102400)
I0712 13:26:51.093307  5875 net.cpp:157] Top shape: 8 512 5 5 (102400)
I0712 13:26:51.093329  5875 net.cpp:165] Memory required for data: 1284739136
I0712 13:26:51.093333  5875 layer_factory.hpp:77] Creating layer conv8_1
I0712 13:26:51.093346  5875 net.cpp:100] Creating Layer conv8_1
I0712 13:26:51.093350  5875 net.cpp:434] conv8_1 <- conv7_2_conv7_2_relu_0_split_0
I0712 13:26:51.093358  5875 net.cpp:408] conv8_1 -> conv8_1
I0712 13:26:51.097997  5875 net.cpp:150] Setting up conv8_1
I0712 13:26:51.098012  5875 net.cpp:157] Top shape: 8 128 5 5 (25600)
I0712 13:26:51.098016  5875 net.cpp:165] Memory required for data: 1284841536
I0712 13:26:51.098024  5875 layer_factory.hpp:77] Creating layer conv8_1_relu
I0712 13:26:51.098031  5875 net.cpp:100] Creating Layer conv8_1_relu
I0712 13:26:51.098036  5875 net.cpp:434] conv8_1_relu <- conv8_1
I0712 13:26:51.098042  5875 net.cpp:395] conv8_1_relu -> conv8_1 (in-place)
I0712 13:26:51.099012  5875 net.cpp:150] Setting up conv8_1_relu
I0712 13:26:51.099025  5875 net.cpp:157] Top shape: 8 128 5 5 (25600)
I0712 13:26:51.099027  5875 net.cpp:165] Memory required for data: 1284943936
I0712 13:26:51.099030  5875 layer_factory.hpp:77] Creating layer conv8_2
I0712 13:26:51.099045  5875 net.cpp:100] Creating Layer conv8_2
I0712 13:26:51.099050  5875 net.cpp:434] conv8_2 <- conv8_1
I0712 13:26:51.099056  5875 net.cpp:408] conv8_2 -> conv8_2
I0712 13:26:51.104588  5875 net.cpp:150] Setting up conv8_2
I0712 13:26:51.104602  5875 net.cpp:157] Top shape: 8 256 3 3 (18432)
I0712 13:26:51.104606  5875 net.cpp:165] Memory required for data: 1285017664
I0712 13:26:51.104614  5875 layer_factory.hpp:77] Creating layer conv8_2_relu
I0712 13:26:51.104624  5875 net.cpp:100] Creating Layer conv8_2_relu
I0712 13:26:51.104629  5875 net.cpp:434] conv8_2_relu <- conv8_2
I0712 13:26:51.104634  5875 net.cpp:395] conv8_2_relu -> conv8_2 (in-place)
I0712 13:26:51.104909  5875 net.cpp:150] Setting up conv8_2_relu
I0712 13:26:51.104918  5875 net.cpp:157] Top shape: 8 256 3 3 (18432)
I0712 13:26:51.104921  5875 net.cpp:165] Memory required for data: 1285091392
I0712 13:26:51.104924  5875 layer_factory.hpp:77] Creating layer conv8_2_conv8_2_relu_0_split
I0712 13:26:51.104931  5875 net.cpp:100] Creating Layer conv8_2_conv8_2_relu_0_split
I0712 13:26:51.104934  5875 net.cpp:434] conv8_2_conv8_2_relu_0_split <- conv8_2
I0712 13:26:51.104943  5875 net.cpp:408] conv8_2_conv8_2_relu_0_split -> conv8_2_conv8_2_relu_0_split_0
I0712 13:26:51.104950  5875 net.cpp:408] conv8_2_conv8_2_relu_0_split -> conv8_2_conv8_2_relu_0_split_1
I0712 13:26:51.104957  5875 net.cpp:408] conv8_2_conv8_2_relu_0_split -> conv8_2_conv8_2_relu_0_split_2
I0712 13:26:51.104965  5875 net.cpp:408] conv8_2_conv8_2_relu_0_split -> conv8_2_conv8_2_relu_0_split_3
I0712 13:26:51.105059  5875 net.cpp:150] Setting up conv8_2_conv8_2_relu_0_split
I0712 13:26:51.105067  5875 net.cpp:157] Top shape: 8 256 3 3 (18432)
I0712 13:26:51.105070  5875 net.cpp:157] Top shape: 8 256 3 3 (18432)
I0712 13:26:51.105074  5875 net.cpp:157] Top shape: 8 256 3 3 (18432)
I0712 13:26:51.105078  5875 net.cpp:157] Top shape: 8 256 3 3 (18432)
I0712 13:26:51.105082  5875 net.cpp:165] Memory required for data: 1285386304
I0712 13:26:51.105084  5875 layer_factory.hpp:77] Creating layer conv9_1
I0712 13:26:51.105094  5875 net.cpp:100] Creating Layer conv9_1
I0712 13:26:51.105103  5875 net.cpp:434] conv9_1 <- conv8_2_conv8_2_relu_0_split_0
I0712 13:26:51.105109  5875 net.cpp:408] conv9_1 -> conv9_1
I0712 13:26:51.108615  5875 net.cpp:150] Setting up conv9_1
I0712 13:26:51.108629  5875 net.cpp:157] Top shape: 8 128 3 3 (9216)
I0712 13:26:51.108633  5875 net.cpp:165] Memory required for data: 1285423168
I0712 13:26:51.108641  5875 layer_factory.hpp:77] Creating layer conv9_1_relu
I0712 13:26:51.108649  5875 net.cpp:100] Creating Layer conv9_1_relu
I0712 13:26:51.108652  5875 net.cpp:434] conv9_1_relu <- conv9_1
I0712 13:26:51.108657  5875 net.cpp:395] conv9_1_relu -> conv9_1 (in-place)
I0712 13:26:51.108919  5875 net.cpp:150] Setting up conv9_1_relu
I0712 13:26:51.108928  5875 net.cpp:157] Top shape: 8 128 3 3 (9216)
I0712 13:26:51.108948  5875 net.cpp:165] Memory required for data: 1285460032
I0712 13:26:51.108952  5875 layer_factory.hpp:77] Creating layer conv9_2
I0712 13:26:51.108963  5875 net.cpp:100] Creating Layer conv9_2
I0712 13:26:51.108966  5875 net.cpp:434] conv9_2 <- conv9_1
I0712 13:26:51.108974  5875 net.cpp:408] conv9_2 -> conv9_2
I0712 13:26:51.114279  5875 net.cpp:150] Setting up conv9_2
I0712 13:26:51.114296  5875 net.cpp:157] Top shape: 8 256 2 2 (8192)
I0712 13:26:51.114300  5875 net.cpp:165] Memory required for data: 1285492800
I0712 13:26:51.114307  5875 layer_factory.hpp:77] Creating layer conv9_2_relu
I0712 13:26:51.114313  5875 net.cpp:100] Creating Layer conv9_2_relu
I0712 13:26:51.114317  5875 net.cpp:434] conv9_2_relu <- conv9_2
I0712 13:26:51.114322  5875 net.cpp:395] conv9_2_relu -> conv9_2 (in-place)
I0712 13:26:51.115262  5875 net.cpp:150] Setting up conv9_2_relu
I0712 13:26:51.115273  5875 net.cpp:157] Top shape: 8 256 2 2 (8192)
I0712 13:26:51.115276  5875 net.cpp:165] Memory required for data: 1285525568
I0712 13:26:51.115279  5875 layer_factory.hpp:77] Creating layer conv9_2_conv9_2_relu_0_split
I0712 13:26:51.115286  5875 net.cpp:100] Creating Layer conv9_2_conv9_2_relu_0_split
I0712 13:26:51.115289  5875 net.cpp:434] conv9_2_conv9_2_relu_0_split <- conv9_2
I0712 13:26:51.115298  5875 net.cpp:408] conv9_2_conv9_2_relu_0_split -> conv9_2_conv9_2_relu_0_split_0
I0712 13:26:51.115306  5875 net.cpp:408] conv9_2_conv9_2_relu_0_split -> conv9_2_conv9_2_relu_0_split_1
I0712 13:26:51.115314  5875 net.cpp:408] conv9_2_conv9_2_relu_0_split -> conv9_2_conv9_2_relu_0_split_2
I0712 13:26:51.115320  5875 net.cpp:408] conv9_2_conv9_2_relu_0_split -> conv9_2_conv9_2_relu_0_split_3
I0712 13:26:51.115406  5875 net.cpp:150] Setting up conv9_2_conv9_2_relu_0_split
I0712 13:26:51.115412  5875 net.cpp:157] Top shape: 8 256 2 2 (8192)
I0712 13:26:51.115417  5875 net.cpp:157] Top shape: 8 256 2 2 (8192)
I0712 13:26:51.115420  5875 net.cpp:157] Top shape: 8 256 2 2 (8192)
I0712 13:26:51.115424  5875 net.cpp:157] Top shape: 8 256 2 2 (8192)
I0712 13:26:51.115427  5875 net.cpp:165] Memory required for data: 1285656640
I0712 13:26:51.115429  5875 layer_factory.hpp:77] Creating layer conv10_1
I0712 13:26:51.115442  5875 net.cpp:100] Creating Layer conv10_1
I0712 13:26:51.115445  5875 net.cpp:434] conv10_1 <- conv9_2_conv9_2_relu_0_split_0
I0712 13:26:51.115453  5875 net.cpp:408] conv10_1 -> conv10_1
I0712 13:26:51.118178  5875 net.cpp:150] Setting up conv10_1
I0712 13:26:51.118192  5875 net.cpp:157] Top shape: 8 128 2 2 (4096)
I0712 13:26:51.118196  5875 net.cpp:165] Memory required for data: 1285673024
I0712 13:26:51.118202  5875 layer_factory.hpp:77] Creating layer conv10_1_relu
I0712 13:26:51.118230  5875 net.cpp:100] Creating Layer conv10_1_relu
I0712 13:26:51.118234  5875 net.cpp:434] conv10_1_relu <- conv10_1
I0712 13:26:51.118240  5875 net.cpp:395] conv10_1_relu -> conv10_1 (in-place)
I0712 13:26:51.118580  5875 net.cpp:150] Setting up conv10_1_relu
I0712 13:26:51.118590  5875 net.cpp:157] Top shape: 8 128 2 2 (4096)
I0712 13:26:51.118593  5875 net.cpp:165] Memory required for data: 1285689408
I0712 13:26:51.118597  5875 layer_factory.hpp:77] Creating layer conv10_2
I0712 13:26:51.118607  5875 net.cpp:100] Creating Layer conv10_2
I0712 13:26:51.118609  5875 net.cpp:434] conv10_2 <- conv10_1
I0712 13:26:51.118615  5875 net.cpp:408] conv10_2 -> conv10_2
I0712 13:26:51.123688  5875 net.cpp:150] Setting up conv10_2
I0712 13:26:51.123703  5875 net.cpp:157] Top shape: 8 256 1 1 (2048)
I0712 13:26:51.123706  5875 net.cpp:165] Memory required for data: 1285697600
I0712 13:26:51.123713  5875 layer_factory.hpp:77] Creating layer conv10_2_relu
I0712 13:26:51.123719  5875 net.cpp:100] Creating Layer conv10_2_relu
I0712 13:26:51.123723  5875 net.cpp:434] conv10_2_relu <- conv10_2
I0712 13:26:51.123728  5875 net.cpp:395] conv10_2_relu -> conv10_2 (in-place)
I0712 13:26:51.123980  5875 net.cpp:150] Setting up conv10_2_relu
I0712 13:26:51.123987  5875 net.cpp:157] Top shape: 8 256 1 1 (2048)
I0712 13:26:51.123989  5875 net.cpp:165] Memory required for data: 1285705792
I0712 13:26:51.124011  5875 layer_factory.hpp:77] Creating layer conv10_2_conv10_2_relu_0_split
I0712 13:26:51.124018  5875 net.cpp:100] Creating Layer conv10_2_conv10_2_relu_0_split
I0712 13:26:51.124022  5875 net.cpp:434] conv10_2_conv10_2_relu_0_split <- conv10_2
I0712 13:26:51.124027  5875 net.cpp:408] conv10_2_conv10_2_relu_0_split -> conv10_2_conv10_2_relu_0_split_0
I0712 13:26:51.124047  5875 net.cpp:408] conv10_2_conv10_2_relu_0_split -> conv10_2_conv10_2_relu_0_split_1
I0712 13:26:51.124053  5875 net.cpp:408] conv10_2_conv10_2_relu_0_split -> conv10_2_conv10_2_relu_0_split_2
I0712 13:26:51.124122  5875 net.cpp:150] Setting up conv10_2_conv10_2_relu_0_split
I0712 13:26:51.124128  5875 net.cpp:157] Top shape: 8 256 1 1 (2048)
I0712 13:26:51.124132  5875 net.cpp:157] Top shape: 8 256 1 1 (2048)
I0712 13:26:51.124136  5875 net.cpp:157] Top shape: 8 256 1 1 (2048)
I0712 13:26:51.124138  5875 net.cpp:165] Memory required for data: 1285730368
I0712 13:26:51.124141  5875 layer_factory.hpp:77] Creating layer conv5_5/sep_mbox_loc
I0712 13:26:51.124153  5875 net.cpp:100] Creating Layer conv5_5/sep_mbox_loc
I0712 13:26:51.124157  5875 net.cpp:434] conv5_5/sep_mbox_loc <- conv5_5/sep_conv5_5/sep_relu_0_split_1
I0712 13:26:51.124166  5875 net.cpp:408] conv5_5/sep_mbox_loc -> conv5_5/sep_mbox_loc
I0712 13:26:51.127566  5875 net.cpp:150] Setting up conv5_5/sep_mbox_loc
I0712 13:26:51.127580  5875 net.cpp:157] Top shape: 8 12 19 19 (34656)
I0712 13:26:51.127583  5875 net.cpp:165] Memory required for data: 1285868992
I0712 13:26:51.127591  5875 layer_factory.hpp:77] Creating layer conv5_5/sep_mbox_loc_perm
I0712 13:26:51.127599  5875 net.cpp:100] Creating Layer conv5_5/sep_mbox_loc_perm
I0712 13:26:51.127604  5875 net.cpp:434] conv5_5/sep_mbox_loc_perm <- conv5_5/sep_mbox_loc
I0712 13:26:51.127609  5875 net.cpp:408] conv5_5/sep_mbox_loc_perm -> conv5_5/sep_mbox_loc_perm
I0712 13:26:51.127746  5875 net.cpp:150] Setting up conv5_5/sep_mbox_loc_perm
I0712 13:26:51.127753  5875 net.cpp:157] Top shape: 8 19 19 12 (34656)
I0712 13:26:51.127755  5875 net.cpp:165] Memory required for data: 1286007616
I0712 13:26:51.127758  5875 layer_factory.hpp:77] Creating layer conv5_5/sep_mbox_loc_flat
I0712 13:26:51.127764  5875 net.cpp:100] Creating Layer conv5_5/sep_mbox_loc_flat
I0712 13:26:51.127768  5875 net.cpp:434] conv5_5/sep_mbox_loc_flat <- conv5_5/sep_mbox_loc_perm
I0712 13:26:51.127774  5875 net.cpp:408] conv5_5/sep_mbox_loc_flat -> conv5_5/sep_mbox_loc_flat
I0712 13:26:51.127801  5875 net.cpp:150] Setting up conv5_5/sep_mbox_loc_flat
I0712 13:26:51.127806  5875 net.cpp:157] Top shape: 8 4332 (34656)
I0712 13:26:51.127809  5875 net.cpp:165] Memory required for data: 1286146240
I0712 13:26:51.127811  5875 layer_factory.hpp:77] Creating layer conv5_5/sep_mbox_conf
I0712 13:26:51.127822  5875 net.cpp:100] Creating Layer conv5_5/sep_mbox_conf
I0712 13:26:51.127826  5875 net.cpp:434] conv5_5/sep_mbox_conf <- conv5_5/sep_conv5_5/sep_relu_0_split_2
I0712 13:26:51.127833  5875 net.cpp:408] conv5_5/sep_mbox_conf -> conv5_5/sep_mbox_conf
I0712 13:26:51.133591  5875 net.cpp:150] Setting up conv5_5/sep_mbox_conf
I0712 13:26:51.133605  5875 net.cpp:157] Top shape: 8 63 19 19 (181944)
I0712 13:26:51.133608  5875 net.cpp:165] Memory required for data: 1286874016
I0712 13:26:51.133615  5875 layer_factory.hpp:77] Creating layer conv5_5/sep_mbox_conf_perm
I0712 13:26:51.133621  5875 net.cpp:100] Creating Layer conv5_5/sep_mbox_conf_perm
I0712 13:26:51.133625  5875 net.cpp:434] conv5_5/sep_mbox_conf_perm <- conv5_5/sep_mbox_conf
I0712 13:26:51.133632  5875 net.cpp:408] conv5_5/sep_mbox_conf_perm -> conv5_5/sep_mbox_conf_perm
I0712 13:26:51.133762  5875 net.cpp:150] Setting up conv5_5/sep_mbox_conf_perm
I0712 13:26:51.133769  5875 net.cpp:157] Top shape: 8 19 19 63 (181944)
I0712 13:26:51.133771  5875 net.cpp:165] Memory required for data: 1287601792
I0712 13:26:51.133774  5875 layer_factory.hpp:77] Creating layer conv5_5/sep_mbox_conf_flat
I0712 13:26:51.133780  5875 net.cpp:100] Creating Layer conv5_5/sep_mbox_conf_flat
I0712 13:26:51.133800  5875 net.cpp:434] conv5_5/sep_mbox_conf_flat <- conv5_5/sep_mbox_conf_perm
I0712 13:26:51.133806  5875 net.cpp:408] conv5_5/sep_mbox_conf_flat -> conv5_5/sep_mbox_conf_flat
I0712 13:26:51.133839  5875 net.cpp:150] Setting up conv5_5/sep_mbox_conf_flat
I0712 13:26:51.133846  5875 net.cpp:157] Top shape: 8 22743 (181944)
I0712 13:26:51.133847  5875 net.cpp:165] Memory required for data: 1288329568
I0712 13:26:51.133851  5875 layer_factory.hpp:77] Creating layer conv5_5/sep_mbox_priorbox
I0712 13:26:51.133858  5875 net.cpp:100] Creating Layer conv5_5/sep_mbox_priorbox
I0712 13:26:51.133862  5875 net.cpp:434] conv5_5/sep_mbox_priorbox <- conv5_5/sep_conv5_5/sep_relu_0_split_3
I0712 13:26:51.133867  5875 net.cpp:434] conv5_5/sep_mbox_priorbox <- data_data_0_split_1
I0712 13:26:51.133872  5875 net.cpp:408] conv5_5/sep_mbox_priorbox -> conv5_5/sep_mbox_priorbox
I0712 13:26:51.133905  5875 net.cpp:150] Setting up conv5_5/sep_mbox_priorbox
I0712 13:26:51.133910  5875 net.cpp:157] Top shape: 1 2 4332 (8664)
I0712 13:26:51.133913  5875 net.cpp:165] Memory required for data: 1288364224
I0712 13:26:51.133915  5875 layer_factory.hpp:77] Creating layer conv6/sep_mbox_loc
I0712 13:26:51.133924  5875 net.cpp:100] Creating Layer conv6/sep_mbox_loc
I0712 13:26:51.133929  5875 net.cpp:434] conv6/sep_mbox_loc <- conv6/sep_conv6/sep_relu_0_split_1
I0712 13:26:51.133935  5875 net.cpp:408] conv6/sep_mbox_loc -> conv6/sep_mbox_loc
I0712 13:26:51.139462  5875 net.cpp:150] Setting up conv6/sep_mbox_loc
I0712 13:26:51.139477  5875 net.cpp:157] Top shape: 8 24 10 10 (19200)
I0712 13:26:51.139479  5875 net.cpp:165] Memory required for data: 1288441024
I0712 13:26:51.139487  5875 layer_factory.hpp:77] Creating layer conv6/sep_mbox_loc_perm
I0712 13:26:51.139492  5875 net.cpp:100] Creating Layer conv6/sep_mbox_loc_perm
I0712 13:26:51.139495  5875 net.cpp:434] conv6/sep_mbox_loc_perm <- conv6/sep_mbox_loc
I0712 13:26:51.139503  5875 net.cpp:408] conv6/sep_mbox_loc_perm -> conv6/sep_mbox_loc_perm
I0712 13:26:51.139636  5875 net.cpp:150] Setting up conv6/sep_mbox_loc_perm
I0712 13:26:51.139643  5875 net.cpp:157] Top shape: 8 10 10 24 (19200)
I0712 13:26:51.139645  5875 net.cpp:165] Memory required for data: 1288517824
I0712 13:26:51.139648  5875 layer_factory.hpp:77] Creating layer conv6/sep_mbox_loc_flat
I0712 13:26:51.139653  5875 net.cpp:100] Creating Layer conv6/sep_mbox_loc_flat
I0712 13:26:51.139657  5875 net.cpp:434] conv6/sep_mbox_loc_flat <- conv6/sep_mbox_loc_perm
I0712 13:26:51.139662  5875 net.cpp:408] conv6/sep_mbox_loc_flat -> conv6/sep_mbox_loc_flat
I0712 13:26:51.139688  5875 net.cpp:150] Setting up conv6/sep_mbox_loc_flat
I0712 13:26:51.139693  5875 net.cpp:157] Top shape: 8 2400 (19200)
I0712 13:26:51.139695  5875 net.cpp:165] Memory required for data: 1288594624
I0712 13:26:51.139698  5875 layer_factory.hpp:77] Creating layer conv6/sep_mbox_conf
I0712 13:26:51.139708  5875 net.cpp:100] Creating Layer conv6/sep_mbox_conf
I0712 13:26:51.139711  5875 net.cpp:434] conv6/sep_mbox_conf <- conv6/sep_conv6/sep_relu_0_split_2
I0712 13:26:51.139719  5875 net.cpp:408] conv6/sep_mbox_conf -> conv6/sep_mbox_conf
I0712 13:26:51.150841  5875 net.cpp:150] Setting up conv6/sep_mbox_conf
I0712 13:26:51.150859  5875 net.cpp:157] Top shape: 8 126 10 10 (100800)
I0712 13:26:51.150861  5875 net.cpp:165] Memory required for data: 1288997824
I0712 13:26:51.150868  5875 layer_factory.hpp:77] Creating layer conv6/sep_mbox_conf_perm
I0712 13:26:51.150876  5875 net.cpp:100] Creating Layer conv6/sep_mbox_conf_perm
I0712 13:26:51.150878  5875 net.cpp:434] conv6/sep_mbox_conf_perm <- conv6/sep_mbox_conf
I0712 13:26:51.150884  5875 net.cpp:408] conv6/sep_mbox_conf_perm -> conv6/sep_mbox_conf_perm
I0712 13:26:51.150990  5875 net.cpp:150] Setting up conv6/sep_mbox_conf_perm
I0712 13:26:51.150995  5875 net.cpp:157] Top shape: 8 10 10 126 (100800)
I0712 13:26:51.150996  5875 net.cpp:165] Memory required for data: 1289401024
I0712 13:26:51.150998  5875 layer_factory.hpp:77] Creating layer conv6/sep_mbox_conf_flat
I0712 13:26:51.151002  5875 net.cpp:100] Creating Layer conv6/sep_mbox_conf_flat
I0712 13:26:51.151020  5875 net.cpp:434] conv6/sep_mbox_conf_flat <- conv6/sep_mbox_conf_perm
I0712 13:26:51.151026  5875 net.cpp:408] conv6/sep_mbox_conf_flat -> conv6/sep_mbox_conf_flat
I0712 13:26:51.151049  5875 net.cpp:150] Setting up conv6/sep_mbox_conf_flat
I0712 13:26:51.151054  5875 net.cpp:157] Top shape: 8 12600 (100800)
I0712 13:26:51.151057  5875 net.cpp:165] Memory required for data: 1289804224
I0712 13:26:51.151058  5875 layer_factory.hpp:77] Creating layer conv6/sep_mbox_priorbox
I0712 13:26:51.151063  5875 net.cpp:100] Creating Layer conv6/sep_mbox_priorbox
I0712 13:26:51.151067  5875 net.cpp:434] conv6/sep_mbox_priorbox <- conv6/sep_conv6/sep_relu_0_split_3
I0712 13:26:51.151070  5875 net.cpp:434] conv6/sep_mbox_priorbox <- data_data_0_split_2
I0712 13:26:51.151075  5875 net.cpp:408] conv6/sep_mbox_priorbox -> conv6/sep_mbox_priorbox
I0712 13:26:51.151103  5875 net.cpp:150] Setting up conv6/sep_mbox_priorbox
I0712 13:26:51.151106  5875 net.cpp:157] Top shape: 1 2 2400 (4800)
I0712 13:26:51.151108  5875 net.cpp:165] Memory required for data: 1289823424
I0712 13:26:51.151109  5875 layer_factory.hpp:77] Creating layer conv7_2_mbox_loc
I0712 13:26:51.151118  5875 net.cpp:100] Creating Layer conv7_2_mbox_loc
I0712 13:26:51.151120  5875 net.cpp:434] conv7_2_mbox_loc <- conv7_2_conv7_2_relu_0_split_1
I0712 13:26:51.151125  5875 net.cpp:408] conv7_2_mbox_loc -> conv7_2_mbox_loc
I0712 13:26:51.153472  5875 net.cpp:150] Setting up conv7_2_mbox_loc
I0712 13:26:51.153481  5875 net.cpp:157] Top shape: 8 24 5 5 (4800)
I0712 13:26:51.153483  5875 net.cpp:165] Memory required for data: 1289842624
I0712 13:26:51.153489  5875 layer_factory.hpp:77] Creating layer conv7_2_mbox_loc_perm
I0712 13:26:51.153493  5875 net.cpp:100] Creating Layer conv7_2_mbox_loc_perm
I0712 13:26:51.153496  5875 net.cpp:434] conv7_2_mbox_loc_perm <- conv7_2_mbox_loc
I0712 13:26:51.153501  5875 net.cpp:408] conv7_2_mbox_loc_perm -> conv7_2_mbox_loc_perm
I0712 13:26:51.153604  5875 net.cpp:150] Setting up conv7_2_mbox_loc_perm
I0712 13:26:51.153609  5875 net.cpp:157] Top shape: 8 5 5 24 (4800)
I0712 13:26:51.153610  5875 net.cpp:165] Memory required for data: 1289861824
I0712 13:26:51.153612  5875 layer_factory.hpp:77] Creating layer conv7_2_mbox_loc_flat
I0712 13:26:51.153616  5875 net.cpp:100] Creating Layer conv7_2_mbox_loc_flat
I0712 13:26:51.153619  5875 net.cpp:434] conv7_2_mbox_loc_flat <- conv7_2_mbox_loc_perm
I0712 13:26:51.153623  5875 net.cpp:408] conv7_2_mbox_loc_flat -> conv7_2_mbox_loc_flat
I0712 13:26:51.153646  5875 net.cpp:150] Setting up conv7_2_mbox_loc_flat
I0712 13:26:51.153650  5875 net.cpp:157] Top shape: 8 600 (4800)
I0712 13:26:51.153651  5875 net.cpp:165] Memory required for data: 1289881024
I0712 13:26:51.153653  5875 layer_factory.hpp:77] Creating layer conv7_2_mbox_conf
I0712 13:26:51.153663  5875 net.cpp:100] Creating Layer conv7_2_mbox_conf
I0712 13:26:51.153666  5875 net.cpp:434] conv7_2_mbox_conf <- conv7_2_conv7_2_relu_0_split_2
I0712 13:26:51.153671  5875 net.cpp:408] conv7_2_mbox_conf -> conv7_2_mbox_conf
I0712 13:26:51.159548  5875 net.cpp:150] Setting up conv7_2_mbox_conf
I0712 13:26:51.159559  5875 net.cpp:157] Top shape: 8 126 5 5 (25200)
I0712 13:26:51.159560  5875 net.cpp:165] Memory required for data: 1289981824
I0712 13:26:51.159565  5875 layer_factory.hpp:77] Creating layer conv7_2_mbox_conf_perm
I0712 13:26:51.159570  5875 net.cpp:100] Creating Layer conv7_2_mbox_conf_perm
I0712 13:26:51.159574  5875 net.cpp:434] conv7_2_mbox_conf_perm <- conv7_2_mbox_conf
I0712 13:26:51.159579  5875 net.cpp:408] conv7_2_mbox_conf_perm -> conv7_2_mbox_conf_perm
I0712 13:26:51.159679  5875 net.cpp:150] Setting up conv7_2_mbox_conf_perm
I0712 13:26:51.159684  5875 net.cpp:157] Top shape: 8 5 5 126 (25200)
I0712 13:26:51.159687  5875 net.cpp:165] Memory required for data: 1290082624
I0712 13:26:51.159688  5875 layer_factory.hpp:77] Creating layer conv7_2_mbox_conf_flat
I0712 13:26:51.159693  5875 net.cpp:100] Creating Layer conv7_2_mbox_conf_flat
I0712 13:26:51.159694  5875 net.cpp:434] conv7_2_mbox_conf_flat <- conv7_2_mbox_conf_perm
I0712 13:26:51.159711  5875 net.cpp:408] conv7_2_mbox_conf_flat -> conv7_2_mbox_conf_flat
I0712 13:26:51.159736  5875 net.cpp:150] Setting up conv7_2_mbox_conf_flat
I0712 13:26:51.159740  5875 net.cpp:157] Top shape: 8 3150 (25200)
I0712 13:26:51.159742  5875 net.cpp:165] Memory required for data: 1290183424
I0712 13:26:51.159744  5875 layer_factory.hpp:77] Creating layer conv7_2_mbox_priorbox
I0712 13:26:51.159749  5875 net.cpp:100] Creating Layer conv7_2_mbox_priorbox
I0712 13:26:51.159751  5875 net.cpp:434] conv7_2_mbox_priorbox <- conv7_2_conv7_2_relu_0_split_3
I0712 13:26:51.159754  5875 net.cpp:434] conv7_2_mbox_priorbox <- data_data_0_split_3
I0712 13:26:51.159759  5875 net.cpp:408] conv7_2_mbox_priorbox -> conv7_2_mbox_priorbox
I0712 13:26:51.159785  5875 net.cpp:150] Setting up conv7_2_mbox_priorbox
I0712 13:26:51.159788  5875 net.cpp:157] Top shape: 1 2 600 (1200)
I0712 13:26:51.159790  5875 net.cpp:165] Memory required for data: 1290188224
I0712 13:26:51.159792  5875 layer_factory.hpp:77] Creating layer conv8_2_mbox_loc
I0712 13:26:51.159799  5875 net.cpp:100] Creating Layer conv8_2_mbox_loc
I0712 13:26:51.159801  5875 net.cpp:434] conv8_2_mbox_loc <- conv8_2_conv8_2_relu_0_split_1
I0712 13:26:51.159806  5875 net.cpp:408] conv8_2_mbox_loc -> conv8_2_mbox_loc
I0712 13:26:51.165602  5875 net.cpp:150] Setting up conv8_2_mbox_loc
I0712 13:26:51.165613  5875 net.cpp:157] Top shape: 8 24 3 3 (1728)
I0712 13:26:51.165616  5875 net.cpp:165] Memory required for data: 1290195136
I0712 13:26:51.165622  5875 layer_factory.hpp:77] Creating layer conv8_2_mbox_loc_perm
I0712 13:26:51.165627  5875 net.cpp:100] Creating Layer conv8_2_mbox_loc_perm
I0712 13:26:51.165630  5875 net.cpp:434] conv8_2_mbox_loc_perm <- conv8_2_mbox_loc
I0712 13:26:51.165635  5875 net.cpp:408] conv8_2_mbox_loc_perm -> conv8_2_mbox_loc_perm
I0712 13:26:51.165740  5875 net.cpp:150] Setting up conv8_2_mbox_loc_perm
I0712 13:26:51.165745  5875 net.cpp:157] Top shape: 8 3 3 24 (1728)
I0712 13:26:51.165747  5875 net.cpp:165] Memory required for data: 1290202048
I0712 13:26:51.165750  5875 layer_factory.hpp:77] Creating layer conv8_2_mbox_loc_flat
I0712 13:26:51.165753  5875 net.cpp:100] Creating Layer conv8_2_mbox_loc_flat
I0712 13:26:51.165755  5875 net.cpp:434] conv8_2_mbox_loc_flat <- conv8_2_mbox_loc_perm
I0712 13:26:51.165760  5875 net.cpp:408] conv8_2_mbox_loc_flat -> conv8_2_mbox_loc_flat
I0712 13:26:51.165781  5875 net.cpp:150] Setting up conv8_2_mbox_loc_flat
I0712 13:26:51.165786  5875 net.cpp:157] Top shape: 8 216 (1728)
I0712 13:26:51.165787  5875 net.cpp:165] Memory required for data: 1290208960
I0712 13:26:51.165788  5875 layer_factory.hpp:77] Creating layer conv8_2_mbox_conf
I0712 13:26:51.165796  5875 net.cpp:100] Creating Layer conv8_2_mbox_conf
I0712 13:26:51.165798  5875 net.cpp:434] conv8_2_mbox_conf <- conv8_2_conv8_2_relu_0_split_2
I0712 13:26:51.165803  5875 net.cpp:408] conv8_2_mbox_conf -> conv8_2_mbox_conf
I0712 13:26:51.170002  5875 net.cpp:150] Setting up conv8_2_mbox_conf
I0712 13:26:51.170012  5875 net.cpp:157] Top shape: 8 126 3 3 (9072)
I0712 13:26:51.170014  5875 net.cpp:165] Memory required for data: 1290245248
I0712 13:26:51.170019  5875 layer_factory.hpp:77] Creating layer conv8_2_mbox_conf_perm
I0712 13:26:51.170024  5875 net.cpp:100] Creating Layer conv8_2_mbox_conf_perm
I0712 13:26:51.170027  5875 net.cpp:434] conv8_2_mbox_conf_perm <- conv8_2_mbox_conf
I0712 13:26:51.170033  5875 net.cpp:408] conv8_2_mbox_conf_perm -> conv8_2_mbox_conf_perm
I0712 13:26:51.170138  5875 net.cpp:150] Setting up conv8_2_mbox_conf_perm
I0712 13:26:51.170145  5875 net.cpp:157] Top shape: 8 3 3 126 (9072)
I0712 13:26:51.170146  5875 net.cpp:165] Memory required for data: 1290281536
I0712 13:26:51.170148  5875 layer_factory.hpp:77] Creating layer conv8_2_mbox_conf_flat
I0712 13:26:51.170152  5875 net.cpp:100] Creating Layer conv8_2_mbox_conf_flat
I0712 13:26:51.170156  5875 net.cpp:434] conv8_2_mbox_conf_flat <- conv8_2_mbox_conf_perm
I0712 13:26:51.170159  5875 net.cpp:408] conv8_2_mbox_conf_flat -> conv8_2_mbox_conf_flat
I0712 13:26:51.170197  5875 net.cpp:150] Setting up conv8_2_mbox_conf_flat
I0712 13:26:51.170202  5875 net.cpp:157] Top shape: 8 1134 (9072)
I0712 13:26:51.170203  5875 net.cpp:165] Memory required for data: 1290317824
I0712 13:26:51.170207  5875 layer_factory.hpp:77] Creating layer conv8_2_mbox_priorbox
I0712 13:26:51.170212  5875 net.cpp:100] Creating Layer conv8_2_mbox_priorbox
I0712 13:26:51.170214  5875 net.cpp:434] conv8_2_mbox_priorbox <- conv8_2_conv8_2_relu_0_split_3
I0712 13:26:51.170218  5875 net.cpp:434] conv8_2_mbox_priorbox <- data_data_0_split_4
I0712 13:26:51.170223  5875 net.cpp:408] conv8_2_mbox_priorbox -> conv8_2_mbox_priorbox
I0712 13:26:51.170246  5875 net.cpp:150] Setting up conv8_2_mbox_priorbox
I0712 13:26:51.170250  5875 net.cpp:157] Top shape: 1 2 216 (432)
I0712 13:26:51.170253  5875 net.cpp:165] Memory required for data: 1290319552
I0712 13:26:51.170254  5875 layer_factory.hpp:77] Creating layer conv9_2_mbox_loc
I0712 13:26:51.170262  5875 net.cpp:100] Creating Layer conv9_2_mbox_loc
I0712 13:26:51.170264  5875 net.cpp:434] conv9_2_mbox_loc <- conv9_2_conv9_2_relu_0_split_1
I0712 13:26:51.170270  5875 net.cpp:408] conv9_2_mbox_loc -> conv9_2_mbox_loc
I0712 13:26:51.172821  5875 net.cpp:150] Setting up conv9_2_mbox_loc
I0712 13:26:51.172830  5875 net.cpp:157] Top shape: 8 24 2 2 (768)
I0712 13:26:51.172832  5875 net.cpp:165] Memory required for data: 1290322624
I0712 13:26:51.172837  5875 layer_factory.hpp:77] Creating layer conv9_2_mbox_loc_perm
I0712 13:26:51.172842  5875 net.cpp:100] Creating Layer conv9_2_mbox_loc_perm
I0712 13:26:51.172844  5875 net.cpp:434] conv9_2_mbox_loc_perm <- conv9_2_mbox_loc
I0712 13:26:51.172849  5875 net.cpp:408] conv9_2_mbox_loc_perm -> conv9_2_mbox_loc_perm
I0712 13:26:51.172953  5875 net.cpp:150] Setting up conv9_2_mbox_loc_perm
I0712 13:26:51.172958  5875 net.cpp:157] Top shape: 8 2 2 24 (768)
I0712 13:26:51.172960  5875 net.cpp:165] Memory required for data: 1290325696
I0712 13:26:51.172961  5875 layer_factory.hpp:77] Creating layer conv9_2_mbox_loc_flat
I0712 13:26:51.172966  5875 net.cpp:100] Creating Layer conv9_2_mbox_loc_flat
I0712 13:26:51.172969  5875 net.cpp:434] conv9_2_mbox_loc_flat <- conv9_2_mbox_loc_perm
I0712 13:26:51.172973  5875 net.cpp:408] conv9_2_mbox_loc_flat -> conv9_2_mbox_loc_flat
I0712 13:26:51.172994  5875 net.cpp:150] Setting up conv9_2_mbox_loc_flat
I0712 13:26:51.172998  5875 net.cpp:157] Top shape: 8 96 (768)
I0712 13:26:51.173001  5875 net.cpp:165] Memory required for data: 1290328768
I0712 13:26:51.173002  5875 layer_factory.hpp:77] Creating layer conv9_2_mbox_conf
I0712 13:26:51.173009  5875 net.cpp:100] Creating Layer conv9_2_mbox_conf
I0712 13:26:51.173012  5875 net.cpp:434] conv9_2_mbox_conf <- conv9_2_conv9_2_relu_0_split_2
I0712 13:26:51.173017  5875 net.cpp:408] conv9_2_mbox_conf -> conv9_2_mbox_conf
I0712 13:26:51.176724  5875 net.cpp:150] Setting up conv9_2_mbox_conf
I0712 13:26:51.176734  5875 net.cpp:157] Top shape: 8 126 2 2 (4032)
I0712 13:26:51.176738  5875 net.cpp:165] Memory required for data: 1290344896
I0712 13:26:51.176743  5875 layer_factory.hpp:77] Creating layer conv9_2_mbox_conf_perm
I0712 13:26:51.176748  5875 net.cpp:100] Creating Layer conv9_2_mbox_conf_perm
I0712 13:26:51.176751  5875 net.cpp:434] conv9_2_mbox_conf_perm <- conv9_2_mbox_conf
I0712 13:26:51.176755  5875 net.cpp:408] conv9_2_mbox_conf_perm -> conv9_2_mbox_conf_perm
I0712 13:26:51.176856  5875 net.cpp:150] Setting up conv9_2_mbox_conf_perm
I0712 13:26:51.176859  5875 net.cpp:157] Top shape: 8 2 2 126 (4032)
I0712 13:26:51.176862  5875 net.cpp:165] Memory required for data: 1290361024
I0712 13:26:51.176863  5875 layer_factory.hpp:77] Creating layer conv9_2_mbox_conf_flat
I0712 13:26:51.176868  5875 net.cpp:100] Creating Layer conv9_2_mbox_conf_flat
I0712 13:26:51.176870  5875 net.cpp:434] conv9_2_mbox_conf_flat <- conv9_2_mbox_conf_perm
I0712 13:26:51.176874  5875 net.cpp:408] conv9_2_mbox_conf_flat -> conv9_2_mbox_conf_flat
I0712 13:26:51.176898  5875 net.cpp:150] Setting up conv9_2_mbox_conf_flat
I0712 13:26:51.176913  5875 net.cpp:157] Top shape: 8 504 (4032)
I0712 13:26:51.176915  5875 net.cpp:165] Memory required for data: 1290377152
I0712 13:26:51.176918  5875 layer_factory.hpp:77] Creating layer conv9_2_mbox_priorbox
I0712 13:26:51.176923  5875 net.cpp:100] Creating Layer conv9_2_mbox_priorbox
I0712 13:26:51.176926  5875 net.cpp:434] conv9_2_mbox_priorbox <- conv9_2_conv9_2_relu_0_split_3
I0712 13:26:51.176929  5875 net.cpp:434] conv9_2_mbox_priorbox <- data_data_0_split_5
I0712 13:26:51.176934  5875 net.cpp:408] conv9_2_mbox_priorbox -> conv9_2_mbox_priorbox
I0712 13:26:51.176960  5875 net.cpp:150] Setting up conv9_2_mbox_priorbox
I0712 13:26:51.176964  5875 net.cpp:157] Top shape: 1 2 96 (192)
I0712 13:26:51.176966  5875 net.cpp:165] Memory required for data: 1290377920
I0712 13:26:51.176968  5875 layer_factory.hpp:77] Creating layer conv10_2_mbox_loc
I0712 13:26:51.176975  5875 net.cpp:100] Creating Layer conv10_2_mbox_loc
I0712 13:26:51.176978  5875 net.cpp:434] conv10_2_mbox_loc <- conv10_2_conv10_2_relu_0_split_0
I0712 13:26:51.176983  5875 net.cpp:408] conv10_2_mbox_loc -> conv10_2_mbox_loc
I0712 13:26:51.179957  5875 net.cpp:150] Setting up conv10_2_mbox_loc
I0712 13:26:51.179967  5875 net.cpp:157] Top shape: 8 24 1 1 (192)
I0712 13:26:51.179970  5875 net.cpp:165] Memory required for data: 1290378688
I0712 13:26:51.179975  5875 layer_factory.hpp:77] Creating layer conv10_2_mbox_loc_perm
I0712 13:26:51.179980  5875 net.cpp:100] Creating Layer conv10_2_mbox_loc_perm
I0712 13:26:51.179982  5875 net.cpp:434] conv10_2_mbox_loc_perm <- conv10_2_mbox_loc
I0712 13:26:51.179986  5875 net.cpp:408] conv10_2_mbox_loc_perm -> conv10_2_mbox_loc_perm
I0712 13:26:51.180089  5875 net.cpp:150] Setting up conv10_2_mbox_loc_perm
I0712 13:26:51.180094  5875 net.cpp:157] Top shape: 8 1 1 24 (192)
I0712 13:26:51.180095  5875 net.cpp:165] Memory required for data: 1290379456
I0712 13:26:51.180097  5875 layer_factory.hpp:77] Creating layer conv10_2_mbox_loc_flat
I0712 13:26:51.180101  5875 net.cpp:100] Creating Layer conv10_2_mbox_loc_flat
I0712 13:26:51.180104  5875 net.cpp:434] conv10_2_mbox_loc_flat <- conv10_2_mbox_loc_perm
I0712 13:26:51.180109  5875 net.cpp:408] conv10_2_mbox_loc_flat -> conv10_2_mbox_loc_flat
I0712 13:26:51.180131  5875 net.cpp:150] Setting up conv10_2_mbox_loc_flat
I0712 13:26:51.180135  5875 net.cpp:157] Top shape: 8 24 (192)
I0712 13:26:51.180137  5875 net.cpp:165] Memory required for data: 1290380224
I0712 13:26:51.180138  5875 layer_factory.hpp:77] Creating layer conv10_2_mbox_conf
I0712 13:26:51.180145  5875 net.cpp:100] Creating Layer conv10_2_mbox_conf
I0712 13:26:51.180148  5875 net.cpp:434] conv10_2_mbox_conf <- conv10_2_conv10_2_relu_0_split_1
I0712 13:26:51.180153  5875 net.cpp:408] conv10_2_mbox_conf -> conv10_2_mbox_conf
I0712 13:26:51.184211  5875 net.cpp:150] Setting up conv10_2_mbox_conf
I0712 13:26:51.184221  5875 net.cpp:157] Top shape: 8 126 1 1 (1008)
I0712 13:26:51.184222  5875 net.cpp:165] Memory required for data: 1290384256
I0712 13:26:51.184227  5875 layer_factory.hpp:77] Creating layer conv10_2_mbox_conf_perm
I0712 13:26:51.184233  5875 net.cpp:100] Creating Layer conv10_2_mbox_conf_perm
I0712 13:26:51.184237  5875 net.cpp:434] conv10_2_mbox_conf_perm <- conv10_2_mbox_conf
I0712 13:26:51.184240  5875 net.cpp:408] conv10_2_mbox_conf_perm -> conv10_2_mbox_conf_perm
I0712 13:26:51.184341  5875 net.cpp:150] Setting up conv10_2_mbox_conf_perm
I0712 13:26:51.184346  5875 net.cpp:157] Top shape: 8 1 1 126 (1008)
I0712 13:26:51.184347  5875 net.cpp:165] Memory required for data: 1290388288
I0712 13:26:51.184350  5875 layer_factory.hpp:77] Creating layer conv10_2_mbox_conf_flat
I0712 13:26:51.184358  5875 net.cpp:100] Creating Layer conv10_2_mbox_conf_flat
I0712 13:26:51.184360  5875 net.cpp:434] conv10_2_mbox_conf_flat <- conv10_2_mbox_conf_perm
I0712 13:26:51.184365  5875 net.cpp:408] conv10_2_mbox_conf_flat -> conv10_2_mbox_conf_flat
I0712 13:26:51.184387  5875 net.cpp:150] Setting up conv10_2_mbox_conf_flat
I0712 13:26:51.184393  5875 net.cpp:157] Top shape: 8 126 (1008)
I0712 13:26:51.184408  5875 net.cpp:165] Memory required for data: 1290392320
I0712 13:26:51.184412  5875 layer_factory.hpp:77] Creating layer conv10_2_mbox_priorbox
I0712 13:26:51.184422  5875 net.cpp:100] Creating Layer conv10_2_mbox_priorbox
I0712 13:26:51.184425  5875 net.cpp:434] conv10_2_mbox_priorbox <- conv10_2_conv10_2_relu_0_split_2
I0712 13:26:51.184430  5875 net.cpp:434] conv10_2_mbox_priorbox <- data_data_0_split_6
I0712 13:26:51.184437  5875 net.cpp:408] conv10_2_mbox_priorbox -> conv10_2_mbox_priorbox
I0712 13:26:51.184473  5875 net.cpp:150] Setting up conv10_2_mbox_priorbox
I0712 13:26:51.184479  5875 net.cpp:157] Top shape: 1 2 24 (48)
I0712 13:26:51.184483  5875 net.cpp:165] Memory required for data: 1290392512
I0712 13:26:51.184485  5875 layer_factory.hpp:77] Creating layer mbox_loc
I0712 13:26:51.184494  5875 net.cpp:100] Creating Layer mbox_loc
I0712 13:26:51.184497  5875 net.cpp:434] mbox_loc <- conv5_5/sep_mbox_loc_flat
I0712 13:26:51.184504  5875 net.cpp:434] mbox_loc <- conv6/sep_mbox_loc_flat
I0712 13:26:51.184509  5875 net.cpp:434] mbox_loc <- conv7_2_mbox_loc_flat
I0712 13:26:51.184512  5875 net.cpp:434] mbox_loc <- conv8_2_mbox_loc_flat
I0712 13:26:51.184516  5875 net.cpp:434] mbox_loc <- conv9_2_mbox_loc_flat
I0712 13:26:51.184520  5875 net.cpp:434] mbox_loc <- conv10_2_mbox_loc_flat
I0712 13:26:51.184526  5875 net.cpp:408] mbox_loc -> mbox_loc
I0712 13:26:51.184559  5875 net.cpp:150] Setting up mbox_loc
I0712 13:26:51.184564  5875 net.cpp:157] Top shape: 8 7668 (61344)
I0712 13:26:51.184567  5875 net.cpp:165] Memory required for data: 1290637888
I0712 13:26:51.184571  5875 layer_factory.hpp:77] Creating layer mbox_conf
I0712 13:26:51.184577  5875 net.cpp:100] Creating Layer mbox_conf
I0712 13:26:51.184581  5875 net.cpp:434] mbox_conf <- conv5_5/sep_mbox_conf_flat
I0712 13:26:51.184586  5875 net.cpp:434] mbox_conf <- conv6/sep_mbox_conf_flat
I0712 13:26:51.184590  5875 net.cpp:434] mbox_conf <- conv7_2_mbox_conf_flat
I0712 13:26:51.184594  5875 net.cpp:434] mbox_conf <- conv8_2_mbox_conf_flat
I0712 13:26:51.184598  5875 net.cpp:434] mbox_conf <- conv9_2_mbox_conf_flat
I0712 13:26:51.184602  5875 net.cpp:434] mbox_conf <- conv10_2_mbox_conf_flat
I0712 13:26:51.184608  5875 net.cpp:408] mbox_conf -> mbox_conf
I0712 13:26:51.184638  5875 net.cpp:150] Setting up mbox_conf
I0712 13:26:51.184644  5875 net.cpp:157] Top shape: 8 40257 (322056)
I0712 13:26:51.184648  5875 net.cpp:165] Memory required for data: 1291926112
I0712 13:26:51.184650  5875 layer_factory.hpp:77] Creating layer mbox_priorbox
I0712 13:26:51.184656  5875 net.cpp:100] Creating Layer mbox_priorbox
I0712 13:26:51.184659  5875 net.cpp:434] mbox_priorbox <- conv5_5/sep_mbox_priorbox
I0712 13:26:51.184664  5875 net.cpp:434] mbox_priorbox <- conv6/sep_mbox_priorbox
I0712 13:26:51.184669  5875 net.cpp:434] mbox_priorbox <- conv7_2_mbox_priorbox
I0712 13:26:51.184672  5875 net.cpp:434] mbox_priorbox <- conv8_2_mbox_priorbox
I0712 13:26:51.184676  5875 net.cpp:434] mbox_priorbox <- conv9_2_mbox_priorbox
I0712 13:26:51.184680  5875 net.cpp:434] mbox_priorbox <- conv10_2_mbox_priorbox
I0712 13:26:51.184685  5875 net.cpp:408] mbox_priorbox -> mbox_priorbox
I0712 13:26:51.184712  5875 net.cpp:150] Setting up mbox_priorbox
I0712 13:26:51.184718  5875 net.cpp:157] Top shape: 1 2 7668 (15336)
I0712 13:26:51.202518  5875 net.cpp:165] Memory required for data: 1291987456
I0712 13:26:51.202528  5875 layer_factory.hpp:77] Creating layer mbox_conf_reshape
I0712 13:26:51.202543  5875 net.cpp:100] Creating Layer mbox_conf_reshape
I0712 13:26:51.202548  5875 net.cpp:434] mbox_conf_reshape <- mbox_conf
I0712 13:26:51.202553  5875 net.cpp:408] mbox_conf_reshape -> mbox_conf_reshape
I0712 13:26:51.202613  5875 net.cpp:150] Setting up mbox_conf_reshape
I0712 13:26:51.202621  5875 net.cpp:157] Top shape: 8 1917 21 (322056)
I0712 13:26:51.202625  5875 net.cpp:165] Memory required for data: 1293275680
I0712 13:26:51.202627  5875 layer_factory.hpp:77] Creating layer mbox_conf_softmax
I0712 13:26:51.202636  5875 net.cpp:100] Creating Layer mbox_conf_softmax
I0712 13:26:51.202639  5875 net.cpp:434] mbox_conf_softmax <- mbox_conf_reshape
I0712 13:26:51.202657  5875 net.cpp:408] mbox_conf_softmax -> mbox_conf_softmax
I0712 13:26:51.203552  5875 net.cpp:150] Setting up mbox_conf_softmax
I0712 13:26:51.203562  5875 net.cpp:157] Top shape: 8 1917 21 (322056)
I0712 13:26:51.203562  5875 net.cpp:165] Memory required for data: 1294563904
I0712 13:26:51.203564  5875 layer_factory.hpp:77] Creating layer mbox_conf_flatten
I0712 13:26:51.203569  5875 net.cpp:100] Creating Layer mbox_conf_flatten
I0712 13:26:51.203572  5875 net.cpp:434] mbox_conf_flatten <- mbox_conf_softmax
I0712 13:26:51.203577  5875 net.cpp:408] mbox_conf_flatten -> mbox_conf_flatten
I0712 13:26:51.203599  5875 net.cpp:150] Setting up mbox_conf_flatten
I0712 13:26:51.203603  5875 net.cpp:157] Top shape: 8 40257 (322056)
I0712 13:26:51.203605  5875 net.cpp:165] Memory required for data: 1295852128
I0712 13:26:51.203608  5875 layer_factory.hpp:77] Creating layer detection_out
I0712 13:26:51.203624  5875 net.cpp:100] Creating Layer detection_out
I0712 13:26:51.203626  5875 net.cpp:434] detection_out <- mbox_loc
I0712 13:26:51.203629  5875 net.cpp:434] detection_out <- mbox_conf_flatten
I0712 13:26:51.203631  5875 net.cpp:434] detection_out <- mbox_priorbox
I0712 13:26:51.203636  5875 net.cpp:408] detection_out -> detection_out
I0712 13:26:51.210834  5875 net.cpp:150] Setting up detection_out
I0712 13:26:51.210856  5875 net.cpp:157] Top shape: 1 1 1 7 (7)
I0712 13:26:51.210861  5875 net.cpp:165] Memory required for data: 1295852156
I0712 13:26:51.210867  5875 layer_factory.hpp:77] Creating layer detection_eval
I0712 13:26:51.210882  5875 net.cpp:100] Creating Layer detection_eval
I0712 13:26:51.210889  5875 net.cpp:434] detection_eval <- detection_out
I0712 13:26:51.210897  5875 net.cpp:434] detection_eval <- label
I0712 13:26:51.210906  5875 net.cpp:408] detection_eval -> detection_eval
I0712 13:26:51.212929  5875 net.cpp:150] Setting up detection_eval
I0712 13:26:51.212940  5875 net.cpp:157] Top shape: 1 1 21 5 (105)
I0712 13:26:51.212944  5875 net.cpp:165] Memory required for data: 1295852576
I0712 13:26:51.212949  5875 net.cpp:228] detection_eval does not need backward computation.
I0712 13:26:51.212955  5875 net.cpp:228] detection_out does not need backward computation.
I0712 13:26:51.212961  5875 net.cpp:228] mbox_conf_flatten does not need backward computation.
I0712 13:26:51.212967  5875 net.cpp:228] mbox_conf_softmax does not need backward computation.
…
